…
I0403 19:14:20.521147 19194 net.cpp:313] The NetState phase (1) differed from the phase (0) specified by a rule in layer data
I0403 19:14:20.522312 19194 net.cpp:49] Initializing net from parameters: 
state {
  phase: TEST
}
layer {
  name: "data"
  type: "Data"
  top: "data"
  top: "label"
  include {
    phase: TEST
  }
  transform_param {
    mirror: false
    crop_size: 224
    mean_file: "/home/mohanty/data/final_dataset/lmdb/segmented-60-40/mean.binaryproto"
  }
  data_param {
    source: "/home/mohanty/data/final_dataset/lmdb/segmented-60-40/test_db"
    batch_size: 24
    backend: LMDB
  }
}
layer {
  name: "conv1/7x7_s2"
  type: "Convolution"
  bottom: "data"
  top: "conv1/7x7_s2"
  param {
    lr_mult: 1
    decay_mult: 1
  }
  param {
    lr_mult: 2
    decay_mult: 0
  }
  convolution_param {
    num_output: 64
    pad: 3
    kernel_size: 7
    stride: 2
    weight_filler {
      type: "xavier"
      std: 0.1
    }
    bias_filler {
      type: "constant"
      value: 0.2
    }
  }
}
layer {
  name: "conv1/relu_7x7"
  type: "ReLU"
  bottom: "conv1/7x7_s2"
  top: "conv1/7x7_s2"
}
layer {
  name: "pool1/3x3_s2"
  type: "Pooling"
  bottom: "conv1/7x7_s2"
  top: "pool1/3x3_s2"
  pooling_param {
    pool: MAX
    kernel_size: 3
    stride: 2
  }
}
layer {
  name: "pool1/norm1"
  type: "LRN"
  bottom: "pool1/3x3_s2"
  top: "pool1/norm1"
  lrn_param {
    local_size: 5
    alpha: 0.0001
    beta: 0.75
  }
}
layer {
  name: "conv2/3x3_reduce"
  type: "Convolution"
  bottom: "pool1/norm1"
  top: "conv2/3x3_reduce"
  param {
    lr_mult: 1
    decay_mult: 1
  }
  param {
    lr_mult: 2
    decay_mult: 0
  }
  convolution_param {
    num_output: 64
    kernel_size: 1
    weight_filler {
      type: "xavier"
      std: 0.1
    }
    bias_filler {
      type: "constant"
      value: 0.2
    }
  }
}
layer {
  name: "conv2/relu_3x3_reduce"
  type: "ReLU"
  bottom: "conv2/3x3_reduce"
  top: "conv2/3x3_reduce"
}
layer {
  name: "conv2/3x3"
  type: "Convolution"
  bottom: "conv2/3x3_reduce"
  top: "conv2/3x3"
  param {
    lr_mult: 1
    decay_mult: 1
  }
  param {
    lr_mult: 2
    decay_mult: 0
  }
  convolution_param {
    num_output: 192
    pad: 1
    kernel_size: 3
    weight_filler {
      type: "xavier"
      std: 0.03
    }
    bias_filler {
      type: "constant"
      value: 0.2
    }
  }
}
layer {
  name: "conv2/relu_3x3"
  type: "ReLU"
  bottom: "conv2/3x3"
  top: "conv2/3x3"
}
layer {
  name: "conv2/norm2"
  type: "LRN"
  bottom: "conv2/3x3"
  top: "conv2/norm2"
  lrn_param {
    local_size: 5
    alpha: 0.0001
    beta: 0.75
  }
}
layer {
  name: "pool2/3x3_s2"
  type: "Pooling"
  bottom: "conv2/norm2"
  top: "pool2/3x3_s2"
  pooling_param {
    pool: MAX
    kernel_size: 3
    stride: 2
  }
}
layer {
  name: "inception_3a/1x1"
  type: "Convolution"
  bottom: "pool2/3x3_s2"
  top: "inception_3a/1x1"
  param {
    lr_mult: 1
    decay_mult: 1
  }
  param {
    lr_mult: 2
    decay_mult: 0
  }
  convolution_param {
    num_output: 64
    kernel_size: 1
    weight_filler {
      type: "xavier"
      std: 0.03
    }
    bias_filler {
      type: "constant"
      value: 0.2
    }
  }
}
layer {
  name: "inception_3a/relu_1x1"
  type: "ReLU"
  bottom: "inception_3a/1x1"
  top: "inception_3a/1x1"
}
layer {
  name: "inception_3a/3x3_reduce"
  type: "Convolution"
  bottom: "pool2/3x3_s2"
  top: "inception_3a/3x3_reduce"
  param {
    lr_mult: 1
    decay_mult: 1
  }
  param {
    lr_mult: 2
    decay_mult: 0
  }
  convolution_param {
    num_output: 96
    kernel_size: 1
    weight_filler {
      type: "xavier"
      std: 0.09
    }
    bias_filler {
      type: "constant"
      value: 0.2
    }
  }
}
layer {
  name: "inception_3a/relu_3x3_reduce"
  type: "ReLU"
  bottom: "inception_3a/3x3_reduce"
  top: "inception_3a/3x3_reduce"
}
layer {
  name: "inception_3a/3x3"
  type: "Convolution"
  bottom: "inception_3a/3x3_reduce"
  top: "inception_3a/3x3"
  param {
    lr_mult: 1
    decay_mult: 1
  }
  param {
    lr_mult: 2
    decay_mult: 0
  }
  convolution_param {
    num_output: 128
    pad: 1
    kernel_size: 3
    weight_filler {
      type: "xavier"
      std: 0.03
    }
    bias_filler {
      type: "constant"
      value: 0.2
    }
  }
}
layer {
  name: "inception_3a/relu_3x3"
  type: "ReLU"
  bottom: "inception_3a/3x3"
  top: "inception_3a/3x3"
}
layer {
  name: "inception_3a/5x5_reduce"
  type: "Convolution"
  bottom: "pool2/3x3_s2"
  top: "inception_3a/5x5_reduce"
  param {
    lr_mult: 1
    decay_mult: 1
  }
  param {
    lr_mult: 2
    decay_mult: 0
  }
  convolution_param {
    num_output: 16
    kernel_size: 1
    weight_filler {
      type: "xavier"
      std: 0.2
    }
    bias_filler {
      type: "constant"
      value: 0.2
    }
  }
}
layer {
  name: "inception_3a/relu_5x5_reduce"
  type: "ReLU"
  bottom: "inception_3a/5x5_reduce"
  top: "inception_3a/5x5_reduce"
}
layer {
  name: "inception_3a/5x5"
  type: "Convolution"
  bottom: "inception_3a/5x5_reduce"
  top: "inception_3a/5x5"
  param {
    lr_mult: 1
    decay_mult: 1
  }
  param {
    lr_mult: 2
    decay_mult: 0
  }
  convolution_param {
    num_output: 32
    pad: 2
    kernel_size: 5
    weight_filler {
      type: "xavier"
      std: 0.03
    }
    bias_filler {
      type: "constant"
      value: 0.2
    }
  }
}
layer {
  name: "inception_3a/relu_5x5"
  type: "ReLU"
  bottom: "inception_3a/5x5"
  top: "inception_3a/5x5"
}
layer {
  name: "inception_3a/pool"
  type: "Pooling"
  bottom: "pool2/3x3_s2"
  top: "inception_3a/pool"
  pooling_param {
    pool: MAX
    kernel_size: 3
    stride: 1
    pad: 1
  }
}
layer {
  name: "inception_3a/pool_proj"
  type: "Convolution"
  bottom: "inception_3a/pool"
  top: "inception_3a/pool_proj"
  param {
    lr_mult: 1
    decay_mult: 1
  }
  param {
    lr_mult: 2
    decay_mult: 0
  }
  convolution_param {
    num_output: 32
    kernel_size: 1
    weight_filler {
      type: "xavier"
      std: 0.1
    }
    bias_filler {
      type: "constant"
      value: 0.2
    }
  }
}
layer {
  name: "inception_3a/relu_pool_proj"
  type: "ReLU"
  bottom: "inception_3a/pool_proj"
  top: "inception_3a/pool_proj"
}
layer {
  name: "inception_3a/output"
  type: "Concat"
  bottom: "inception_3a/1x1"
  bottom: "inception_3a/3x3"
  bottom: "inception_3a/5x5"
  bottom: "inception_3a/pool_proj"
  top: "inception_3a/output"
}
layer {
  name: "inception_3b/1x1"
  type: "Convolution"
  bottom: "inception_3a/output"
  top: "inception_3b/1x1"
  param {
    lr_mult: 1
    decay_mult: 1
  }
  param {
    lr_mult: 2
    decay_mult: 0
  }
  convolution_param {
    num_output: 128
    kernel_size: 1
    weight_filler {
      type: "xavier"
      std: 0.03
    }
    bias_filler {
      type: "constant"
      value: 0.2
    }
  }
}
layer {
  name: "inception_3b/relu_1x1"
  type: "ReLU"
  bottom: "inception_3b/1x1"
  top: "inception_3b/1x1"
}
layer {
  name: "inception_3b/3x3_reduce"
  type: "Convolution"
  bottom: "inception_3a/output"
  top: "inception_3b/3x3_reduce"
  param {
    lr_mult: 1
    decay_mult: 1
  }
  param {
    lr_mult: 2
    decay_mult: 0
  }
  convolution_param {
    num_output: 128
    kernel_size: 1
    weight_filler {
      type: "xavier"
      std: 0.09
    }
    bias_filler {
      type: "constant"
      value: 0.2
    }
  }
}
layer {
  name: "inception_3b/relu_3x3_reduce"
  type: "ReLU"
  bottom: "inception_3b/3x3_reduce"
  top: "inception_3b/3x3_reduce"
}
layer {
  name: "inception_3b/3x3"
  type: "Convolution"
  bottom: "inception_3b/3x3_reduce"
  top: "inception_3b/3x3"
  param {
    lr_mult: 1
    decay_mult: 1
  }
  param {
    lr_mult: 2
    decay_mult: 0
  }
  convolution_param {
    num_output: 192
    pad: 1
    kernel_size: 3
    weight_filler {
      type: "xavier"
      std: 0.03
    }
    bias_filler {
      type: "constant"
      value: 0.2
    }
  }
}
layer {
  name: "inception_3b/relu_3x3"
  type: "ReLU"
  bottom: "inception_3b/3x3"
  top: "inception_3b/3x3"
}
layer {
  name: "inception_3b/5x5_reduce"
  type: "Convolution"
  bottom: "inception_3a/output"
  top: "inception_3b/5x5_reduce"
  param {
    lr_mult: 1
    decay_mult: 1
  }
  param {
    lr_mult: 2
    decay_mult: 0
  }
  convolution_param {
    num_output: 32
    kernel_size: 1
    weight_filler {
      type: "xavier"
      std: 0.2
    }
    bias_filler {
      type: "constant"
      value: 0.2
    }
  }
}
layer {
  name: "inception_3b/relu_5x5_reduce"
  type: "ReLU"
  bottom: "inception_3b/5x5_reduce"
  top: "inception_3b/5x5_reduce"
}
layer {
  name: "inception_3b/5x5"
  type: "Convolution"
  bottom: "inception_3b/5x5_reduce"
  top: "inception_3b/5x5"
  param {
    lr_mult: 1
    decay_mult: 1
  }
  param {
    lr_mult: 2
    decay_mult: 0
  }
  convolution_param {
    num_output: 96
    pad: 2
    kernel_size: 5
    weight_filler {
      type: "xavier"
      std: 0.03
    }
    bias_filler {
      type: "constant"
      value: 0.2
    }
  }
}
layer {
  name: "inception_3b/relu_5x5"
  type: "ReLU"
  bottom: "inception_3b/5x5"
  top: "inception_3b/5x5"
}
layer {
  name: "inception_3b/pool"
  type: "Pooling"
  bottom: "inception_3a/output"
  top: "inception_3b/pool"
  pooling_param {
    pool: MAX
    kernel_size: 3
    stride: 1
    pad: 1
  }
}
layer {
  name: "inception_3b/pool_proj"
  type: "Convolution"
  bottom: "inception_3b/pool"
  top: "inception_3b/pool_proj"
  param {
    lr_mult: 1
    decay_mult: 1
  }
  param {
    lr_mult: 2
    decay_mult: 0
  }
  convolution_param {
    num_output: 64
    kernel_size: 1
    weight_filler {
      type: "xavier"
      std: 0.1
    }
    bias_filler {
      type: "constant"
      value: 0.2
    }
  }
}
layer {
  name: "inception_3b/relu_pool_proj"
  type: "ReLU"
  bottom: "inception_3b/pool_proj"
  top: "inception_3b/pool_proj"
}
layer {
  name: "inception_3b/output"
  type: "Concat"
  bottom: "inception_3b/1x1"
  bottom: "inception_3b/3x3"
  bottom: "inception_3b/5x5"
  bottom: "inception_3b/pool_proj"
  top: "inception_3b/output"
}
layer {
  name: "pool3/3x3_s2"
  type: "Pooling"
  bottom: "inception_3b/output"
  top: "pool3/3x3_s2"
  pooling_param {
    pool: MAX
    kernel_size: 3
    stride: 2
  }
}
layer {
  name: "inception_4a/1x1"
  type: "Convolution"
  bottom: "pool3/3x3_s2"
  top: "inception_4a/1x1"
  param {
    lr_mult: 1
    decay_mult: 1
  }
  param {
    lr_mult: 2
    decay_mult: 0
  }
  convolution_param {
    num_output: 192
    kernel_size: 1
    weight_filler {
      type: "xavier"
      std: 0.03
    }
    bias_filler {
      type: "constant"
      value: 0.2
    }
  }
}
layer {
  name: "inception_4a/relu_1x1"
  type: "ReLU"
  bottom: "inception_4a/1x1"
  top: "inception_4a/1x1"
}
layer {
  name: "inception_4a/3x3_reduce"
  type: "Convolution"
  bottom: "pool3/3x3_s2"
  top: "inception_4a/3x3_reduce"
  param {
    lr_mult: 1
    decay_mult: 1
  }
  param {
    lr_mult: 2
    decay_mult: 0
  }
  convolution_param {
    num_output: 96
    kernel_size: 1
    weight_filler {
      type: "xavier"
      std: 0.09
    }
    bias_filler {
      type: "constant"
      value: 0.2
    }
  }
}
layer {
  name: "inception_4a/relu_3x3_reduce"
  type: "ReLU"
  bottom: "inception_4a/3x3_reduce"
  top: "inception_4a/3x3_reduce"
}
layer {
  name: "inception_4a/3x3"
  type: "Convolution"
  bottom: "inception_4a/3x3_reduce"
  top: "inception_4a/3x3"
  param {
    lr_mult: 1
    decay_mult: 1
  }
  param {
    lr_mult: 2
    decay_mult: 0
  }
  convolution_param {
    num_output: 208
    pad: 1
    kernel_size: 3
    weight_filler {
      type: "xavier"
      std: 0.03
    }
    bias_filler {
      type: "constant"
      value: 0.2
    }
  }
}
layer {
  name: "inception_4a/relu_3x3"
  type: "ReLU"
  bottom: "inception_4a/3x3"
  top: "inception_4a/3x3"
}
layer {
  name: "inception_4a/5x5_reduce"
  type: "Convolution"
  bottom: "pool3/3x3_s2"
  top: "inception_4a/5x5_reduce"
  param {
    lr_mult: 1
    decay_mult: 1
  }
  param {
    lr_mult: 2
    decay_mult: 0
  }
  convolution_param {
    num_output: 16
    kernel_size: 1
    weight_filler {
      type: "xavier"
      std: 0.2
    }
    bias_filler {
      type: "constant"
      value: 0.2
    }
  }
}
layer {
  name: "inception_4a/relu_5x5_reduce"
  type: "ReLU"
  bottom: "inception_4a/5x5_reduce"
  top: "inception_4a/5x5_reduce"
}
layer {
  name: "inception_4a/5x5"
  type: "Convolution"
  bottom: "inception_4a/5x5_reduce"
  top: "inception_4a/5x5"
  param {
    lr_mult: 1
    decay_mult: 1
  }
  param {
    lr_mult: 2
    decay_mult: 0
  }
  convolution_param {
    num_output: 48
    pad: 2
    kernel_size: 5
    weight_filler {
      type: "xavier"
      std: 0.03
    }
    bias_filler {
      type: "constant"
      value: 0.2
    }
  }
}
layer {
  name: "inception_4a/relu_5x5"
  type: "ReLU"
  bottom: "inception_4a/5x5"
  top: "inception_4a/5x5"
}
layer {
  name: "inception_4a/pool"
  type: "Pooling"
  bottom: "pool3/3x3_s2"
  top: "inception_4a/pool"
  pooling_param {
    pool: MAX
    kernel_size: 3
    stride: 1
    pad: 1
  }
}
layer {
  name: "inception_4a/pool_proj"
  type: "Convolution"
  bottom: "inception_4a/pool"
  top: "inception_4a/pool_proj"
  param {
    lr_mult: 1
    decay_mult: 1
  }
  param {
    lr_mult: 2
    decay_mult: 0
  }
  convolution_param {
    num_output: 64
    kernel_size: 1
    weight_filler {
      type: "xavier"
      std: 0.1
    }
    bias_filler {
      type: "constant"
      value: 0.2
    }
  }
}
layer {
  name: "inception_4a/relu_pool_proj"
  type: "ReLU"
  bottom: "inception_4a/pool_proj"
  top: "inception_4a/pool_proj"
}
layer {
  name: "inception_4a/output"
  type: "Concat"
  bottom: "inception_4a/1x1"
  bottom: "inception_4a/3x3"
  bottom: "inception_4a/5x5"
  bottom: "inception_4a/pool_proj"
  top: "inception_4a/output"
}
layer {
  name: "loss1/ave_pool"
  type: "Pooling"
  bottom: "inception_4a/output"
  top: "loss1/ave_pool"
  pooling_param {
    pool: AVE
    kernel_size: 5
    stride: 3
  }
}
layer {
  name: "loss1/conv"
  type: "Convolution"
  bottom: "loss1/ave_pool"
  top: "loss1/conv"
  param {
    lr_mult: 1
    decay_mult: 1
  }
  param {
    lr_mult: 2
    decay_mult: 0
  }
  convolution_param {
    num_output: 128
    kernel_size: 1
    weight_filler {
      type: "xavier"
      std: 0.08
    }
    bias_filler {
      type: "constant"
      value: 0.2
    }
  }
}
layer {
  name: "loss1/relu_conv"
  type: "ReLU"
  bottom: "loss1/conv"
  top: "loss1/conv"
}
layer {
  name: "loss1/fc"
  type: "InnerProduct"
  bottom: "loss1/conv"
  top: "loss1/fc"
  param {
    lr_mult: 1
    decay_mult: 1
  }
  param {
    lr_mult: 2
    decay_mult: 0
  }
  inner_product_param {
    num_output: 1024
    weight_filler {
      type: "xavier"
      std: 0.02
    }
    bias_filler {
      type: "constant"
      value: 0.2
    }
  }
}
layer {
  name: "loss1/relu_fc"
  type: "ReLU"
  bottom: "loss1/fc"
  top: "loss1/fc"
}
layer {
  name: "loss1/drop_fc"
  type: "Dropout"
  bottom: "loss1/fc"
  top: "loss1/fc"
  dropout_param {
    dropout_ratio: 0.7
  }
}
layer {
  name: "loss1/classifier_plantvillage"
  type: "InnerProduct"
  bottom: "loss1/fc"
  top: "loss1/classifier_plantvillage"
  param {
    lr_mult: 1
    decay_mult: 1
  }
  param {
    lr_mult: 2
    decay_mult: 0
  }
  inner_product_param {
    num_output: 38
    weight_filler {
      type: "xavier"
      std: 0.0009765625
    }
    bias_filler {
      type: "constant"
      value: 0
    }
  }
}
layer {
  name: "inception_4b/1x1"
  type: "Convolution"
  bottom: "inception_4a/output"
  top: "inception_4b/1x1"
  param {
    lr_mult: 1
    decay_mult: 1
  }
  param {
    lr_mult: 2
    decay_mult: 0
  }
  convolution_param {
    num_output: 160
    kernel_size: 1
    weight_filler {
      type: "xavier"
      std: 0.03
    }
    bias_filler {
      type: "constant"
      value: 0.2
    }
  }
}
layer {
  name: "inception_4b/relu_1x1"
  type: "ReLU"
  bottom: "inception_4b/1x1"
  top: "inception_4b/1x1"
}
layer {
  name: "inception_4b/3x3_reduce"
  type: "Convolution"
  bottom: "inception_4a/output"
  top: "inception_4b/3x3_reduce"
  param {
    lr_mult: 1
    decay_mult: 1
  }
  param {
    lr_mult: 2
    decay_mult: 0
  }
  convolution_param {
    num_output: 112
    kernel_size: 1
    weight_filler {
      type: "xavier"
      std: 0.09
    }
    bias_filler {
      type: "constant"
      value: 0.2
    }
  }
}
layer {
  name: "inception_4b/relu_3x3_reduce"
  type: "ReLU"
  bottom: "inception_4b/3x3_reduce"
  top: "inception_4b/3x3_reduce"
}
layer {
  name: "inception_4b/3x3"
  type: "Convolution"
  bottom: "inception_4b/3x3_reduce"
  top: "inception_4b/3x3"
  param {
    lr_mult: 1
    decay_mult: 1
  }
  param {
    lr_mult: 2
    decay_mult: 0
  }
  convolution_param {
    num_output: 224
    pad: 1
    kernel_size: 3
    weight_filler {
      type: "xavier"
      std: 0.03
    }
    bias_filler {
      type: "constant"
      value: 0.2
    }
  }
}
layer {
  name: "inception_4b/relu_3x3"
  type: "ReLU"
  bottom: "inception_4b/3x3"
  top: "inception_4b/3x3"
}
layer {
  name: "inception_4b/5x5_reduce"
  type: "Convolution"
  bottom: "inception_4a/output"
  top: "inception_4b/5x5_reduce"
  param {
    lr_mult: 1
    decay_mult: 1
  }
  param {
    lr_mult: 2
    decay_mult: 0
  }
  convolution_param {
    num_output: 24
    kernel_size: 1
    weight_filler {
      type: "xavier"
      std: 0.2
    }
    bias_filler {
      type: "constant"
      value: 0.2
    }
  }
}
layer {
  name: "inception_4b/relu_5x5_reduce"
  type: "ReLU"
  bottom: "inception_4b/5x5_reduce"
  top: "inception_4b/5x5_reduce"
}
layer {
  name: "inception_4b/5x5"
  type: "Convolution"
  bottom: "inception_4b/5x5_reduce"
  top: "inception_4b/5x5"
  param {
    lr_mult: 1
    decay_mult: 1
  }
  param {
    lr_mult: 2
    decay_mult: 0
  }
  convolution_param {
    num_output: 64
    pad: 2
    kernel_size: 5
    weight_filler {
      type: "xavier"
      std: 0.03
    }
    bias_filler {
      type: "constant"
      value: 0.2
    }
  }
}
layer {
  name: "inception_4b/relu_5x5"
  type: "ReLU"
  bottom: "inception_4b/5x5"
  top: "inception_4b/5x5"
}
layer {
  name: "inception_4b/pool"
  type: "Pooling"
  bottom: "inception_4a/output"
  top: "inception_4b/pool"
  pooling_param {
    pool: MAX
    kernel_size: 3
    stride: 1
    pad: 1
  }
}
layer {
  name: "inception_4b/pool_proj"
  type: "Convolution"
  bottom: "inception_4b/pool"
  top: "inception_4b/pool_proj"
  param {
    lr_mult: 1
    decay_mult: 1
  }
  param {
    lr_mult: 2
    decay_mult: 0
  }
  convolution_param {
    num_output: 64
    kernel_size: 1
    weight_filler {
      type: "xavier"
      std: 0.1
    }
    bias_filler {
      type: "constant"
      value: 0.2
    }
  }
}
layer {
  name: "inception_4b/relu_pool_proj"
  type: "ReLU"
  bottom: "inception_4b/pool_proj"
  top: "inception_4b/pool_proj"
}
layer {
  name: "inception_4b/output"
  type: "Concat"
  bottom: "inception_4b/1x1"
  bottom: "inception_4b/3x3"
  bottom: "inception_4b/5x5"
  bottom: "inception_4b/pool_proj"
  top: "inception_4b/output"
}
layer {
  name: "inception_4c/1x1"
  type: "Convolution"
  bottom: "inception_4b/output"
  top: "inception_4c/1x1"
  param {
    lr_mult: 1
    decay_mult: 1
  }
  param {
    lr_mult: 2
    decay_mult: 0
  }
  convolution_param {
    num_output: 128
    kernel_size: 1
    weight_filler {
      type: "xavier"
      std: 0.03
    }
    bias_filler {
      type: "constant"
      value: 0.2
    }
  }
}
layer {
  name: "inception_4c/relu_1x1"
  type: "ReLU"
  bottom: "inception_4c/1x1"
  top: "inception_4c/1x1"
}
layer {
  name: "inception_4c/3x3_reduce"
  type: "Convolution"
  bottom: "inception_4b/output"
  top: "inception_4c/3x3_reduce"
  param {
    lr_mult: 1
    decay_mult: 1
  }
  param {
    lr_mult: 2
    decay_mult: 0
  }
  convolution_param {
    num_output: 128
    kernel_size: 1
    weight_filler {
      type: "xavier"
      std: 0.09
    }
    bias_filler {
      type: "constant"
      value: 0.2
    }
  }
}
layer {
  name: "inception_4c/relu_3x3_reduce"
  type: "ReLU"
  bottom: "inception_4c/3x3_reduce"
  top: "inception_4c/3x3_reduce"
}
layer {
  name: "inception_4c/3x3"
  type: "Convolution"
  bottom: "inception_4c/3x3_reduce"
  top: "inception_4c/3x3"
  param {
    lr_mult: 1
    decay_mult: 1
  }
  param {
    lr_mult: 2
    decay_mult: 0
  }
  convolution_param {
    num_output: 256
    pad: 1
    kernel_size: 3
    weight_filler {
      type: "xavier"
      std: 0.03
    }
    bias_filler {
      type: "constant"
      value: 0.2
    }
  }
}
layer {
  name: "inception_4c/relu_3x3"
  type: "ReLU"
  bottom: "inception_4c/3x3"
  top: "inception_4c/3x3"
}
layer {
  name: "inception_4c/5x5_reduce"
  type: "Convolution"
  bottom: "inception_4b/output"
  top: "inception_4c/5x5_reduce"
  param {
    lr_mult: 1
    decay_mult: 1
  }
  param {
    lr_mult: 2
    decay_mult: 0
  }
  convolution_param {
    num_output: 24
    kernel_size: 1
    weight_filler {
      type: "xavier"
      std: 0.2
    }
    bias_filler {
      type: "constant"
      value: 0.2
    }
  }
}
layer {
  name: "inception_4c/relu_5x5_reduce"
  type: "ReLU"
  bottom: "inception_4c/5x5_reduce"
  top: "inception_4c/5x5_reduce"
}
layer {
  name: "inception_4c/5x5"
  type: "Convolution"
  bottom: "inception_4c/5x5_reduce"
  top: "inception_4c/5x5"
  param {
    lr_mult: 1
    decay_mult: 1
  }
  param {
    lr_mult: 2
    decay_mult: 0
  }
  convolution_param {
    num_output: 64
    pad: 2
    kernel_size: 5
    weight_filler {
      type: "xavier"
      std: 0.03
    }
    bias_filler {
      type: "constant"
      value: 0.2
    }
  }
}
layer {
  name: "inception_4c/relu_5x5"
  type: "ReLU"
  bottom: "inception_4c/5x5"
  top: "inception_4c/5x5"
}
layer {
  name: "inception_4c/pool"
  type: "Pooling"
  bottom: "inception_4b/output"
  top: "inception_4c/pool"
  pooling_param {
    pool: MAX
    kernel_size: 3
    stride: 1
    pad: 1
  }
}
layer {
  name: "inception_4c/pool_proj"
  type: "Convolution"
  bottom: "inception_4c/pool"
  top: "inception_4c/pool_proj"
  param {
    lr_mult: 1
    decay_mult: 1
  }
  param {
    lr_mult: 2
    decay_mult: 0
  }
  convolution_param {
    num_output: 64
    kernel_size: 1
    weight_filler {
      type: "xavier"
      std: 0.1
    }
    bias_filler {
      type: "constant"
      value: 0.2
    }
  }
}
layer {
  name: "inception_4c/relu_pool_proj"
  type: "ReLU"
  bottom: "inception_4c/pool_proj"
  top: "inception_4c/pool_proj"
}
layer {
  name: "inception_4c/output"
  type: "Concat"
  bottom: "inception_4c/1x1"
  bottom: "inception_4c/3x3"
  bottom: "inception_4c/5x5"
  bottom: "inception_4c/pool_proj"
  top: "inception_4c/output"
}
layer {
  name: "inception_4d/1x1"
  type: "Convolution"
  bottom: "inception_4c/output"
  top: "inception_4d/1x1"
  param {
    lr_mult: 1
    decay_mult: 1
  }
  param {
    lr_mult: 2
    decay_mult: 0
  }
  convolution_param {
    num_output: 112
    kernel_size: 1
    weight_filler {
      type: "xavier"
      std: 0.03
    }
    bias_filler {
      type: "constant"
      value: 0.2
    }
  }
}
layer {
  name: "inception_4d/relu_1x1"
  type: "ReLU"
  bottom: "inception_4d/1x1"
  top: "inception_4d/1x1"
}
layer {
  name: "inception_4d/3x3_reduce"
  type: "Convolution"
  bottom: "inception_4c/output"
  top: "inception_4d/3x3_reduce"
  param {
    lr_mult: 1
    decay_mult: 1
  }
  param {
    lr_mult: 2
    decay_mult: 0
  }
  convolution_param {
    num_output: 144
    kernel_size: 1
    weight_filler {
      type: "xavier"
      std: 0.09
    }
    bias_filler {
      type: "constant"
      value: 0.2
    }
  }
}
layer {
  name: "inception_4d/relu_3x3_reduce"
  type: "ReLU"
  bottom: "inception_4d/3x3_reduce"
  top: "inception_4d/3x3_reduce"
}
layer {
  name: "inception_4d/3x3"
  type: "Convolution"
  bottom: "inception_4d/3x3_reduce"
  top: "inception_4d/3x3"
  param {
    lr_mult: 1
    decay_mult: 1
  }
  param {
    lr_mult: 2
    decay_mult: 0
  }
  convolution_param {
    num_output: 288
    pad: 1
    kernel_size: 3
    weight_filler {
      type: "xavier"
      std: 0.03
    }
    bias_filler {
      type: "constant"
      value: 0.2
    }
  }
}
layer {
  name: "inception_4d/relu_3x3"
  type: "ReLU"
  bottom: "inception_4d/3x3"
  top: "inception_4d/3x3"
}
layer {
  name: "inception_4d/5x5_reduce"
  type: "Convolution"
  bottom: "inception_4c/output"
  top: "inception_4d/5x5_reduce"
  param {
    lr_mult: 1
    decay_mult: 1
  }
  param {
    lr_mult: 2
    decay_mult: 0
  }
  convolution_param {
    num_output: 32
    kernel_size: 1
    weight_filler {
      type: "xavier"
      std: 0.2
    }
    bias_filler {
      type: "constant"
      value: 0.2
    }
  }
}
layer {
  name: "inception_4d/relu_5x5_reduce"
  type: "ReLU"
  bottom: "inception_4d/5x5_reduce"
  top: "inception_4d/5x5_reduce"
}
layer {
  name: "inception_4d/5x5"
  type: "Convolution"
  bottom: "inception_4d/5x5_reduce"
  top: "inception_4d/5x5"
  param {
    lr_mult: 1
    decay_mult: 1
  }
  param {
    lr_mult: 2
    decay_mult: 0
  }
  convolution_param {
    num_output: 64
    pad: 2
    kernel_size: 5
    weight_filler {
      type: "xavier"
      std: 0.03
    }
    bias_filler {
      type: "constant"
      value: 0.2
    }
  }
}
layer {
  name: "inception_4d/relu_5x5"
  type: "ReLU"
  bottom: "inception_4d/5x5"
  top: "inception_4d/5x5"
}
layer {
  name: "inception_4d/pool"
  type: "Pooling"
  bottom: "inception_4c/output"
  top: "inception_4d/pool"
  pooling_param {
    pool: MAX
    kernel_size: 3
    stride: 1
    pad: 1
  }
}
layer {
  name: "inception_4d/pool_proj"
  type: "Convolution"
  bottom: "inception_4d/pool"
  top: "inception_4d/pool_proj"
  param {
    lr_mult: 1
    decay_mult: 1
  }
  param {
    lr_mult: 2
    decay_mult: 0
  }
  convolution_param {
    num_output: 64
    kernel_size: 1
    weight_filler {
      type: "xavier"
      std: 0.1
    }
    bias_filler {
      type: "constant"
      value: 0.2
    }
  }
}
layer {
  name: "inception_4d/relu_pool_proj"
  type: "ReLU"
  bottom: "inception_4d/pool_proj"
  top: "inception_4d/pool_proj"
}
layer {
  name: "inception_4d/output"
  type: "Concat"
  bottom: "inception_4d/1x1"
  bottom: "inception_4d/3x3"
  bottom: "inception_4d/5x5"
  bottom: "inception_4d/pool_proj"
  top: "inception_4d/output"
}
layer {
  name: "loss2/ave_pool"
  type: "Pooling"
  bottom: "inception_4d/output"
  top: "loss2/ave_pool"
  pooling_param {
    pool: AVE
    kernel_size: 5
    stride: 3
  }
}
layer {
  name: "loss2/conv"
  type: "Convolution"
  bottom: "loss2/ave_pool"
  top: "loss2/conv"
  param {
    lr_mult: 1
    decay_mult: 1
  }
  param {
    lr_mult: 2
    decay_mult: 0
  }
  convolution_param {
    num_output: 128
    kernel_size: 1
    weight_filler {
      type: "xavier"
      std: 0.08
    }
    bias_filler {
      type: "constant"
      value: 0.2
    }
  }
}
layer {
  name: "loss2/relu_conv"
  type: "ReLU"
  bottom: "loss2/conv"
  top: "loss2/conv"
}
layer {
  name: "loss2/fc"
  type: "InnerProduct"
  bottom: "loss2/conv"
  top: "loss2/fc"
  param {
    lr_mult: 1
    decay_mult: 1
  }
  param {
    lr_mult: 2
    decay_mult: 0
  }
  inner_product_param {
    num_output: 1024
    weight_filler {
      type: "xavier"
      std: 0.02
    }
    bias_filler {
      type: "constant"
      value: 0.2
    }
  }
}
layer {
  name: "loss2/relu_fc"
  type: "ReLU"
  bottom: "loss2/fc"
  top: "loss2/fc"
}
layer {
  name: "loss2/drop_fc"
  type: "Dropout"
  bottom: "loss2/fc"
  top: "loss2/fc"
  dropout_param {
    dropout_ratio: 0.7
  }
}
layer {
  name: "loss2/classifier_plantvillage"
  type: "InnerProduct"
  bottom: "loss2/fc"
  top: "loss2/classifier_plantvillage"
  param {
    lr_mult: 1
    decay_mult: 1
  }
  param {
    lr_mult: 2
    decay_mult: 0
  }
  inner_product_param {
    num_output: 38
    weight_filler {
      type: "xavier"
      std: 0.0009765625
    }
    bias_filler {
      type: "constant"
      value: 0
    }
  }
}
layer {
  name: "inception_4e/1x1"
  type: "Convolution"
  bottom: "inception_4d/output"
  top: "inception_4e/1x1"
  param {
    lr_mult: 1
    decay_mult: 1
  }
  param {
    lr_mult: 2
    decay_mult: 0
  }
  convolution_param {
    num_output: 256
    kernel_size: 1
    weight_filler {
      type: "xavier"
      std: 0.03
    }
    bias_filler {
      type: "constant"
      value: 0.2
    }
  }
}
layer {
  name: "inception_4e/relu_1x1"
  type: "ReLU"
  bottom: "inception_4e/1x1"
  top: "inception_4e/1x1"
}
layer {
  name: "inception_4e/3x3_reduce"
  type: "Convolution"
  bottom: "inception_4d/output"
  top: "inception_4e/3x3_reduce"
  param {
    lr_mult: 1
    decay_mult: 1
  }
  param {
    lr_mult: 2
    decay_mult: 0
  }
  convolution_param {
    num_output: 160
    kernel_size: 1
    weight_filler {
      type: "xavier"
      std: 0.09
    }
    bias_filler {
      type: "constant"
      value: 0.2
    }
  }
}
layer {
  name: "inception_4e/relu_3x3_reduce"
  type: "ReLU"
  bottom: "inception_4e/3x3_reduce"
  top: "inception_4e/3x3_reduce"
}
layer {
  name: "inception_4e/3x3"
  type: "Convolution"
  bottom: "inception_4e/3x3_reduce"
  top: "inception_4e/3x3"
  param {
    lr_mult: 1
    decay_mult: 1
  }
  param {
    lr_mult: 2
    decay_mult: 0
  }
  convolution_param {
    num_output: 320
    pad: 1
    kernel_size: 3
    weight_filler {
      type: "xavier"
      std: 0.03
    }
    bias_filler {
      type: "constant"
      value: 0.2
    }
  }
}
layer {
  name: "inception_4e/relu_3x3"
  type: "ReLU"
  bottom: "inception_4e/3x3"
  top: "inception_4e/3x3"
}
layer {
  name: "inception_4e/5x5_reduce"
  type: "Convolution"
  bottom: "inception_4d/output"
  top: "inception_4e/5x5_reduce"
  param {
    lr_mult: 1
    decay_mult: 1
  }
  param {
    lr_mult: 2
    decay_mult: 0
  }
  convolution_param {
    num_output: 32
    kernel_size: 1
    weight_filler {
      type: "xavier"
      std: 0.2
    }
    bias_filler {
      type: "constant"
      value: 0.2
    }
  }
}
layer {
  name: "inception_4e/relu_5x5_reduce"
  type: "ReLU"
  bottom: "inception_4e/5x5_reduce"
  top: "inception_4e/5x5_reduce"
}
layer {
  name: "inception_4e/5x5"
  type: "Convolution"
  bottom: "inception_4e/5x5_reduce"
  top: "inception_4e/
I0403 19:14:20.523635 19194 layer_factory.hpp:77] Creating layer data
I0403 19:14:20.524209 19194 net.cpp:91] Creating Layer data
I0403 19:14:20.524240 19194 net.cpp:399] data -> data
I0403 19:14:20.524289 19194 net.cpp:399] data -> label
I0403 19:14:20.524325 19194 data_transformer.cpp:25] Loading mean file from: /home/mohanty/data/final_dataset/lmdb/segmented-60-40/mean.binaryproto
I0403 19:14:20.525497 19197 db_lmdb.cpp:38] Opened lmdb /home/mohanty/data/final_dataset/lmdb/segmented-60-40/test_db
I0403 19:14:20.536933 19194 data_layer.cpp:41] output data size: 24,3,224,224
I0403 19:14:20.562870 19194 net.cpp:141] Setting up data
I0403 19:14:20.562954 19194 net.cpp:148] Top shape: 24 3 224 224 (3612672)
I0403 19:14:20.562976 19194 net.cpp:148] Top shape: 24 (24)
I0403 19:14:20.562991 19194 net.cpp:156] Memory required for data: 14450784
I0403 19:14:20.563017 19194 layer_factory.hpp:77] Creating layer label_data_1_split
I0403 19:14:20.563045 19194 net.cpp:91] Creating Layer label_data_1_split
I0403 19:14:20.563061 19194 net.cpp:425] label_data_1_split <- label
I0403 19:14:20.563091 19194 net.cpp:399] label_data_1_split -> label_data_1_split_0
I0403 19:14:20.563117 19194 net.cpp:399] label_data_1_split -> label_data_1_split_1
I0403 19:14:20.563138 19194 net.cpp:399] label_data_1_split -> label_data_1_split_2
I0403 19:14:20.563158 19194 net.cpp:399] label_data_1_split -> label_data_1_split_3
I0403 19:14:20.563179 19194 net.cpp:399] label_data_1_split -> label_data_1_split_4
I0403 19:14:20.563197 19194 net.cpp:399] label_data_1_split -> label_data_1_split_5
I0403 19:14:20.563217 19194 net.cpp:399] label_data_1_split -> label_data_1_split_6
I0403 19:14:20.563237 19194 net.cpp:399] label_data_1_split -> label_data_1_split_7
I0403 19:14:20.563256 19194 net.cpp:399] label_data_1_split -> label_data_1_split_8
I0403 19:14:20.563277 19194 net.cpp:399] label_data_1_split -> label_data_1_split_9
I0403 19:14:20.563392 19194 net.cpp:141] Setting up label_data_1_split
I0403 19:14:20.563416 19194 net.cpp:148] Top shape: 24 (24)
I0403 19:14:20.563431 19194 net.cpp:148] Top shape: 24 (24)
I0403 19:14:20.563447 19194 net.cpp:148] Top shape: 24 (24)
I0403 19:14:20.563463 19194 net.cpp:148] Top shape: 24 (24)
I0403 19:14:20.563478 19194 net.cpp:148] Top shape: 24 (24)
I0403 19:14:20.563493 19194 net.cpp:148] Top shape: 24 (24)
I0403 19:14:20.563509 19194 net.cpp:148] Top shape: 24 (24)
I0403 19:14:20.563524 19194 net.cpp:148] Top shape: 24 (24)
I0403 19:14:20.563539 19194 net.cpp:148] Top shape: 24 (24)
I0403 19:14:20.563555 19194 net.cpp:148] Top shape: 24 (24)
I0403 19:14:20.563598 19194 net.cpp:156] Memory required for data: 14451744
I0403 19:14:20.563614 19194 layer_factory.hpp:77] Creating layer conv1/7x7_s2
I0403 19:14:20.563645 19194 net.cpp:91] Creating Layer conv1/7x7_s2
I0403 19:14:20.563663 19194 net.cpp:425] conv1/7x7_s2 <- data
I0403 19:14:20.563683 19194 net.cpp:399] conv1/7x7_s2 -> conv1/7x7_s2
I0403 19:14:20.701145 19194 net.cpp:141] Setting up conv1/7x7_s2
I0403 19:14:20.701230 19194 net.cpp:148] Top shape: 24 64 112 112 (19267584)
I0403 19:14:20.701246 19194 net.cpp:156] Memory required for data: 91522080
I0403 19:14:20.701277 19194 layer_factory.hpp:77] Creating layer conv1/relu_7x7
I0403 19:14:20.701304 19194 net.cpp:91] Creating Layer conv1/relu_7x7
I0403 19:14:20.701324 19194 net.cpp:425] conv1/relu_7x7 <- conv1/7x7_s2
I0403 19:14:20.701344 19194 net.cpp:386] conv1/relu_7x7 -> conv1/7x7_s2 (in-place)
I0403 19:14:20.701596 19194 net.cpp:141] Setting up conv1/relu_7x7
I0403 19:14:20.701622 19194 net.cpp:148] Top shape: 24 64 112 112 (19267584)
I0403 19:14:20.701637 19194 net.cpp:156] Memory required for data: 168592416
I0403 19:14:20.701653 19194 layer_factory.hpp:77] Creating layer pool1/3x3_s2
I0403 19:14:20.701678 19194 net.cpp:91] Creating Layer pool1/3x3_s2
I0403 19:14:20.701696 19194 net.cpp:425] pool1/3x3_s2 <- conv1/7x7_s2
I0403 19:14:20.701715 19194 net.cpp:399] pool1/3x3_s2 -> pool1/3x3_s2
I0403 19:14:20.701792 19194 net.cpp:141] Setting up pool1/3x3_s2
I0403 19:14:20.701814 19194 net.cpp:148] Top shape: 24 64 56 56 (4816896)
I0403 19:14:20.701829 19194 net.cpp:156] Memory required for data: 187860000
I0403 19:14:20.701844 19194 layer_factory.hpp:77] Creating layer pool1/norm1
I0403 19:14:20.701869 19194 net.cpp:91] Creating Layer pool1/norm1
I0403 19:14:20.701886 19194 net.cpp:425] pool1/norm1 <- pool1/3x3_s2
I0403 19:14:20.701903 19194 net.cpp:399] pool1/norm1 -> pool1/norm1
I0403 19:14:20.702193 19194 net.cpp:141] Setting up pool1/norm1
I0403 19:14:20.702219 19194 net.cpp:148] Top shape: 24 64 56 56 (4816896)
I0403 19:14:20.702234 19194 net.cpp:156] Memory required for data: 207127584
I0403 19:14:20.702250 19194 layer_factory.hpp:77] Creating layer conv2/3x3_reduce
I0403 19:14:20.702275 19194 net.cpp:91] Creating Layer conv2/3x3_reduce
I0403 19:14:20.702292 19194 net.cpp:425] conv2/3x3_reduce <- pool1/norm1
I0403 19:14:20.702311 19194 net.cpp:399] conv2/3x3_reduce -> conv2/3x3_reduce
I0403 19:14:20.703681 19194 net.cpp:141] Setting up conv2/3x3_reduce
I0403 19:14:20.703711 19194 net.cpp:148] Top shape: 24 64 56 56 (4816896)
I0403 19:14:20.703725 19194 net.cpp:156] Memory required for data: 226395168
I0403 19:14:20.703749 19194 layer_factory.hpp:77] Creating layer conv2/relu_3x3_reduce
I0403 19:14:20.703769 19194 net.cpp:91] Creating Layer conv2/relu_3x3_reduce
I0403 19:14:20.703785 19194 net.cpp:425] conv2/relu_3x3_reduce <- conv2/3x3_reduce
I0403 19:14:20.703802 19194 net.cpp:386] conv2/relu_3x3_reduce -> conv2/3x3_reduce (in-place)
I0403 19:14:20.704072 19194 net.cpp:141] Setting up conv2/relu_3x3_reduce
I0403 19:14:20.704098 19194 net.cpp:148] Top shape: 24 64 56 56 (4816896)
I0403 19:14:20.704113 19194 net.cpp:156] Memory required for data: 245662752
I0403 19:14:20.704128 19194 layer_factory.hpp:77] Creating layer conv2/3x3
I0403 19:14:20.704154 19194 net.cpp:91] Creating Layer conv2/3x3
I0403 19:14:20.704171 19194 net.cpp:425] conv2/3x3 <- conv2/3x3_reduce
I0403 19:14:20.704193 19194 net.cpp:399] conv2/3x3 -> conv2/3x3
I0403 19:14:20.706480 19194 net.cpp:141] Setting up conv2/3x3
I0403 19:14:20.706509 19194 net.cpp:148] Top shape: 24 192 56 56 (14450688)
I0403 19:14:20.706526 19194 net.cpp:156] Memory required for data: 303465504
I0403 19:14:20.706549 19194 layer_factory.hpp:77] Creating layer conv2/relu_3x3
I0403 19:14:20.706569 19194 net.cpp:91] Creating Layer conv2/relu_3x3
I0403 19:14:20.706585 19194 net.cpp:425] conv2/relu_3x3 <- conv2/3x3
I0403 19:14:20.706603 19194 net.cpp:386] conv2/relu_3x3 -> conv2/3x3 (in-place)
I0403 19:14:20.706776 19194 net.cpp:141] Setting up conv2/relu_3x3
I0403 19:14:20.706804 19194 net.cpp:148] Top shape: 24 192 56 56 (14450688)
I0403 19:14:20.706847 19194 net.cpp:156] Memory required for data: 361268256
I0403 19:14:20.706863 19194 layer_factory.hpp:77] Creating layer conv2/norm2
I0403 19:14:20.706882 19194 net.cpp:91] Creating Layer conv2/norm2
I0403 19:14:20.706898 19194 net.cpp:425] conv2/norm2 <- conv2/3x3
I0403 19:14:20.706920 19194 net.cpp:399] conv2/norm2 -> conv2/norm2
I0403 19:14:20.707231 19194 net.cpp:141] Setting up conv2/norm2
I0403 19:14:20.707257 19194 net.cpp:148] Top shape: 24 192 56 56 (14450688)
I0403 19:14:20.707273 19194 net.cpp:156] Memory required for data: 419071008
I0403 19:14:20.707288 19194 layer_factory.hpp:77] Creating layer pool2/3x3_s2
I0403 19:14:20.707305 19194 net.cpp:91] Creating Layer pool2/3x3_s2
I0403 19:14:20.707324 19194 net.cpp:425] pool2/3x3_s2 <- conv2/norm2
I0403 19:14:20.707341 19194 net.cpp:399] pool2/3x3_s2 -> pool2/3x3_s2
I0403 19:14:20.707394 19194 net.cpp:141] Setting up pool2/3x3_s2
I0403 19:14:20.707417 19194 net.cpp:148] Top shape: 24 192 28 28 (3612672)
I0403 19:14:20.707432 19194 net.cpp:156] Memory required for data: 433521696
I0403 19:14:20.707448 19194 layer_factory.hpp:77] Creating layer pool2/3x3_s2_pool2/3x3_s2_0_split
I0403 19:14:20.707464 19194 net.cpp:91] Creating Layer pool2/3x3_s2_pool2/3x3_s2_0_split
I0403 19:14:20.707479 19194 net.cpp:425] pool2/3x3_s2_pool2/3x3_s2_0_split <- pool2/3x3_s2
I0403 19:14:20.707499 19194 net.cpp:399] pool2/3x3_s2_pool2/3x3_s2_0_split -> pool2/3x3_s2_pool2/3x3_s2_0_split_0
I0403 19:14:20.707518 19194 net.cpp:399] pool2/3x3_s2_pool2/3x3_s2_0_split -> pool2/3x3_s2_pool2/3x3_s2_0_split_1
I0403 19:14:20.707538 19194 net.cpp:399] pool2/3x3_s2_pool2/3x3_s2_0_split -> pool2/3x3_s2_pool2/3x3_s2_0_split_2
I0403 19:14:20.707557 19194 net.cpp:399] pool2/3x3_s2_pool2/3x3_s2_0_split -> pool2/3x3_s2_pool2/3x3_s2_0_split_3
I0403 19:14:20.707628 19194 net.cpp:141] Setting up pool2/3x3_s2_pool2/3x3_s2_0_split
I0403 19:14:20.707651 19194 net.cpp:148] Top shape: 24 192 28 28 (3612672)
I0403 19:14:20.707667 19194 net.cpp:148] Top shape: 24 192 28 28 (3612672)
I0403 19:14:20.707682 19194 net.cpp:148] Top shape: 24 192 28 28 (3612672)
I0403 19:14:20.707698 19194 net.cpp:148] Top shape: 24 192 28 28 (3612672)
I0403 19:14:20.707712 19194 net.cpp:156] Memory required for data: 491324448
I0403 19:14:20.707726 19194 layer_factory.hpp:77] Creating layer inception_3a/1x1
I0403 19:14:20.707751 19194 net.cpp:91] Creating Layer inception_3a/1x1
I0403 19:14:20.707767 19194 net.cpp:425] inception_3a/1x1 <- pool2/3x3_s2_pool2/3x3_s2_0_split_0
I0403 19:14:20.707785 19194 net.cpp:399] inception_3a/1x1 -> inception_3a/1x1
I0403 19:14:20.709314 19194 net.cpp:141] Setting up inception_3a/1x1
I0403 19:14:20.709343 19194 net.cpp:148] Top shape: 24 64 28 28 (1204224)
I0403 19:14:20.709359 19194 net.cpp:156] Memory required for data: 496141344
I0403 19:14:20.709378 19194 layer_factory.hpp:77] Creating layer inception_3a/relu_1x1
I0403 19:14:20.709398 19194 net.cpp:91] Creating Layer inception_3a/relu_1x1
I0403 19:14:20.709415 19194 net.cpp:425] inception_3a/relu_1x1 <- inception_3a/1x1
I0403 19:14:20.709432 19194 net.cpp:386] inception_3a/relu_1x1 -> inception_3a/1x1 (in-place)
I0403 19:14:20.709606 19194 net.cpp:141] Setting up inception_3a/relu_1x1
I0403 19:14:20.709632 19194 net.cpp:148] Top shape: 24 64 28 28 (1204224)
I0403 19:14:20.709648 19194 net.cpp:156] Memory required for data: 500958240
I0403 19:14:20.709663 19194 layer_factory.hpp:77] Creating layer inception_3a/3x3_reduce
I0403 19:14:20.709686 19194 net.cpp:91] Creating Layer inception_3a/3x3_reduce
I0403 19:14:20.709702 19194 net.cpp:425] inception_3a/3x3_reduce <- pool2/3x3_s2_pool2/3x3_s2_0_split_1
I0403 19:14:20.709722 19194 net.cpp:399] inception_3a/3x3_reduce -> inception_3a/3x3_reduce
I0403 19:14:20.711395 19194 net.cpp:141] Setting up inception_3a/3x3_reduce
I0403 19:14:20.711424 19194 net.cpp:148] Top shape: 24 96 28 28 (1806336)
I0403 19:14:20.711439 19194 net.cpp:156] Memory required for data: 508183584
I0403 19:14:20.711464 19194 layer_factory.hpp:77] Creating layer inception_3a/relu_3x3_reduce
I0403 19:14:20.711498 19194 net.cpp:91] Creating Layer inception_3a/relu_3x3_reduce
I0403 19:14:20.711516 19194 net.cpp:425] inception_3a/relu_3x3_reduce <- inception_3a/3x3_reduce
I0403 19:14:20.711534 19194 net.cpp:386] inception_3a/relu_3x3_reduce -> inception_3a/3x3_reduce (in-place)
I0403 19:14:20.711714 19194 net.cpp:141] Setting up inception_3a/relu_3x3_reduce
I0403 19:14:20.711738 19194 net.cpp:148] Top shape: 24 96 28 28 (1806336)
I0403 19:14:20.711753 19194 net.cpp:156] Memory required for data: 515408928
I0403 19:14:20.711768 19194 layer_factory.hpp:77] Creating layer inception_3a/3x3
I0403 19:14:20.711792 19194 net.cpp:91] Creating Layer inception_3a/3x3
I0403 19:14:20.711810 19194 net.cpp:425] inception_3a/3x3 <- inception_3a/3x3_reduce
I0403 19:14:20.711832 19194 net.cpp:399] inception_3a/3x3 -> inception_3a/3x3
I0403 19:14:20.713524 19194 net.cpp:141] Setting up inception_3a/3x3
I0403 19:14:20.713552 19194 net.cpp:148] Top shape: 24 128 28 28 (2408448)
I0403 19:14:20.713569 19194 net.cpp:156] Memory required for data: 525042720
I0403 19:14:20.713587 19194 layer_factory.hpp:77] Creating layer inception_3a/relu_3x3
I0403 19:14:20.713610 19194 net.cpp:91] Creating Layer inception_3a/relu_3x3
I0403 19:14:20.713627 19194 net.cpp:425] inception_3a/relu_3x3 <- inception_3a/3x3
I0403 19:14:20.713645 19194 net.cpp:386] inception_3a/relu_3x3 -> inception_3a/3x3 (in-place)
I0403 19:14:20.713914 19194 net.cpp:141] Setting up inception_3a/relu_3x3
I0403 19:14:20.713940 19194 net.cpp:148] Top shape: 24 128 28 28 (2408448)
I0403 19:14:20.713960 19194 net.cpp:156] Memory required for data: 534676512
I0403 19:14:20.713975 19194 layer_factory.hpp:77] Creating layer inception_3a/5x5_reduce
I0403 19:14:20.713999 19194 net.cpp:91] Creating Layer inception_3a/5x5_reduce
I0403 19:14:20.714017 19194 net.cpp:425] inception_3a/5x5_reduce <- pool2/3x3_s2_pool2/3x3_s2_0_split_2
I0403 19:14:20.714035 19194 net.cpp:399] inception_3a/5x5_reduce -> inception_3a/5x5_reduce
I0403 19:14:20.714984 19194 net.cpp:141] Setting up inception_3a/5x5_reduce
I0403 19:14:20.715013 19194 net.cpp:148] Top shape: 24 16 28 28 (301056)
I0403 19:14:20.715029 19194 net.cpp:156] Memory required for data: 535880736
I0403 19:14:20.715049 19194 layer_factory.hpp:77] Creating layer inception_3a/relu_5x5_reduce
I0403 19:14:20.715067 19194 net.cpp:91] Creating Layer inception_3a/relu_5x5_reduce
I0403 19:14:20.715083 19194 net.cpp:425] inception_3a/relu_5x5_reduce <- inception_3a/5x5_reduce
I0403 19:14:20.715101 19194 net.cpp:386] inception_3a/relu_5x5_reduce -> inception_3a/5x5_reduce (in-place)
I0403 19:14:20.715399 19194 net.cpp:141] Setting up inception_3a/relu_5x5_reduce
I0403 19:14:20.715426 19194 net.cpp:148] Top shape: 24 16 28 28 (301056)
I0403 19:14:20.715443 19194 net.cpp:156] Memory required for data: 537084960
I0403 19:14:20.715458 19194 layer_factory.hpp:77] Creating layer inception_3a/5x5
I0403 19:14:20.715481 19194 net.cpp:91] Creating Layer inception_3a/5x5
I0403 19:14:20.715498 19194 net.cpp:425] inception_3a/5x5 <- inception_3a/5x5_reduce
I0403 19:14:20.715517 19194 net.cpp:399] inception_3a/5x5 -> inception_3a/5x5
I0403 19:14:20.716522 19194 net.cpp:141] Setting up inception_3a/5x5
I0403 19:14:20.716549 19194 net.cpp:148] Top shape: 24 32 28 28 (602112)
I0403 19:14:20.716565 19194 net.cpp:156] Memory required for data: 539493408
I0403 19:14:20.716583 19194 layer_factory.hpp:77] Creating layer inception_3a/relu_5x5
I0403 19:14:20.716604 19194 net.cpp:91] Creating Layer inception_3a/relu_5x5
I0403 19:14:20.716621 19194 net.cpp:425] inception_3a/relu_5x5 <- inception_3a/5x5
I0403 19:14:20.716639 19194 net.cpp:386] inception_3a/relu_5x5 -> inception_3a/5x5 (in-place)
I0403 19:14:20.716811 19194 net.cpp:141] Setting up inception_3a/relu_5x5
I0403 19:14:20.716838 19194 net.cpp:148] Top shape: 24 32 28 28 (602112)
I0403 19:14:20.716855 19194 net.cpp:156] Memory required for data: 541901856
I0403 19:14:20.716869 19194 layer_factory.hpp:77] Creating layer inception_3a/pool
I0403 19:14:20.716886 19194 net.cpp:91] Creating Layer inception_3a/pool
I0403 19:14:20.716917 19194 net.cpp:425] inception_3a/pool <- pool2/3x3_s2_pool2/3x3_s2_0_split_3
I0403 19:14:20.716935 19194 net.cpp:399] inception_3a/pool -> inception_3a/pool
I0403 19:14:20.717000 19194 net.cpp:141] Setting up inception_3a/pool
I0403 19:14:20.717022 19194 net.cpp:148] Top shape: 24 192 28 28 (3612672)
I0403 19:14:20.717036 19194 net.cpp:156] Memory required for data: 556352544
I0403 19:14:20.717051 19194 layer_factory.hpp:77] Creating layer inception_3a/pool_proj
I0403 19:14:20.717073 19194 net.cpp:91] Creating Layer inception_3a/pool_proj
I0403 19:14:20.717092 19194 net.cpp:425] inception_3a/pool_proj <- inception_3a/pool
I0403 19:14:20.717113 19194 net.cpp:399] inception_3a/pool_proj -> inception_3a/pool_proj
I0403 19:14:20.718075 19194 net.cpp:141] Setting up inception_3a/pool_proj
I0403 19:14:20.718102 19194 net.cpp:148] Top shape: 24 32 28 28 (602112)
I0403 19:14:20.718118 19194 net.cpp:156] Memory required for data: 558760992
I0403 19:14:20.718142 19194 layer_factory.hpp:77] Creating layer inception_3a/relu_pool_proj
I0403 19:14:20.718163 19194 net.cpp:91] Creating Layer inception_3a/relu_pool_proj
I0403 19:14:20.718178 19194 net.cpp:425] inception_3a/relu_pool_proj <- inception_3a/pool_proj
I0403 19:14:20.718197 19194 net.cpp:386] inception_3a/relu_pool_proj -> inception_3a/pool_proj (in-place)
I0403 19:14:20.718467 19194 net.cpp:141] Setting up inception_3a/relu_pool_proj
I0403 19:14:20.718493 19194 net.cpp:148] Top shape: 24 32 28 28 (602112)
I0403 19:14:20.718508 19194 net.cpp:156] Memory required for data: 561169440
I0403 19:14:20.718523 19194 layer_factory.hpp:77] Creating layer inception_3a/output
I0403 19:14:20.718544 19194 net.cpp:91] Creating Layer inception_3a/output
I0403 19:14:20.718560 19194 net.cpp:425] inception_3a/output <- inception_3a/1x1
I0403 19:14:20.718577 19194 net.cpp:425] inception_3a/output <- inception_3a/3x3
I0403 19:14:20.718593 19194 net.cpp:425] inception_3a/output <- inception_3a/5x5
I0403 19:14:20.718610 19194 net.cpp:425] inception_3a/output <- inception_3a/pool_proj
I0403 19:14:20.718626 19194 net.cpp:399] inception_3a/output -> inception_3a/output
I0403 19:14:20.718674 19194 net.cpp:141] Setting up inception_3a/output
I0403 19:14:20.718698 19194 net.cpp:148] Top shape: 24 256 28 28 (4816896)
I0403 19:14:20.718711 19194 net.cpp:156] Memory required for data: 580437024
I0403 19:14:20.718725 19194 layer_factory.hpp:77] Creating layer inception_3a/output_inception_3a/output_0_split
I0403 19:14:20.718742 19194 net.cpp:91] Creating Layer inception_3a/output_inception_3a/output_0_split
I0403 19:14:20.718757 19194 net.cpp:425] inception_3a/output_inception_3a/output_0_split <- inception_3a/output
I0403 19:14:20.718777 19194 net.cpp:399] inception_3a/output_inception_3a/output_0_split -> inception_3a/output_inception_3a/output_0_split_0
I0403 19:14:20.718798 19194 net.cpp:399] inception_3a/output_inception_3a/output_0_split -> inception_3a/output_inception_3a/output_0_split_1
I0403 19:14:20.718823 19194 net.cpp:399] inception_3a/output_inception_3a/output_0_split -> inception_3a/output_inception_3a/output_0_split_2
I0403 19:14:20.718844 19194 net.cpp:399] inception_3a/output_inception_3a/output_0_split -> inception_3a/output_inception_3a/output_0_split_3
I0403 19:14:20.718919 19194 net.cpp:141] Setting up inception_3a/output_inception_3a/output_0_split
I0403 19:14:20.718941 19194 net.cpp:148] Top shape: 24 256 28 28 (4816896)
I0403 19:14:20.718971 19194 net.cpp:148] Top shape: 24 256 28 28 (4816896)
I0403 19:14:20.718988 19194 net.cpp:148] Top shape: 24 256 28 28 (4816896)
I0403 19:14:20.719004 19194 net.cpp:148] Top shape: 24 256 28 28 (4816896)
I0403 19:14:20.719017 19194 net.cpp:156] Memory required for data: 657507360
I0403 19:14:20.719033 19194 layer_factory.hpp:77] Creating layer inception_3b/1x1
I0403 19:14:20.719056 19194 net.cpp:91] Creating Layer inception_3b/1x1
I0403 19:14:20.719074 19194 net.cpp:425] inception_3b/1x1 <- inception_3a/output_inception_3a/output_0_split_0
I0403 19:14:20.719095 19194 net.cpp:399] inception_3b/1x1 -> inception_3b/1x1
I0403 19:14:20.720230 19194 net.cpp:141] Setting up inception_3b/1x1
I0403 19:14:20.720269 19194 net.cpp:148] Top shape: 24 128 28 28 (2408448)
I0403 19:14:20.720285 19194 net.cpp:156] Memory required for data: 667141152
I0403 19:14:20.720304 19194 layer_factory.hpp:77] Creating layer inception_3b/relu_1x1
I0403 19:14:20.720326 19194 net.cpp:91] Creating Layer inception_3b/relu_1x1
I0403 19:14:20.720343 19194 net.cpp:425] inception_3b/relu_1x1 <- inception_3b/1x1
I0403 19:14:20.720360 19194 net.cpp:386] inception_3b/relu_1x1 -> inception_3b/1x1 (in-place)
I0403 19:14:20.720535 19194 net.cpp:141] Setting up inception_3b/relu_1x1
I0403 19:14:20.720559 19194 net.cpp:148] Top shape: 24 128 28 28 (2408448)
I0403 19:14:20.720574 19194 net.cpp:156] Memory required for data: 676774944
I0403 19:14:20.720589 19194 layer_factory.hpp:77] Creating layer inception_3b/3x3_reduce
I0403 19:14:20.720613 19194 net.cpp:91] Creating Layer inception_3b/3x3_reduce
I0403 19:14:20.720629 19194 net.cpp:425] inception_3b/3x3_reduce <- inception_3a/output_inception_3a/output_0_split_1
I0403 19:14:20.720649 19194 net.cpp:399] inception_3b/3x3_reduce -> inception_3b/3x3_reduce
I0403 19:14:20.721782 19194 net.cpp:141] Setting up inception_3b/3x3_reduce
I0403 19:14:20.721809 19194 net.cpp:148] Top shape: 24 128 28 28 (2408448)
I0403 19:14:20.721825 19194 net.cpp:156] Memory required for data: 686408736
I0403 19:14:20.721843 19194 layer_factory.hpp:77] Creating layer inception_3b/relu_3x3_reduce
I0403 19:14:20.721864 19194 net.cpp:91] Creating Layer inception_3b/relu_3x3_reduce
I0403 19:14:20.721882 19194 net.cpp:425] inception_3b/relu_3x3_reduce <- inception_3b/3x3_reduce
I0403 19:14:20.721911 19194 net.cpp:386] inception_3b/relu_3x3_reduce -> inception_3b/3x3_reduce (in-place)
I0403 19:14:20.722092 19194 net.cpp:141] Setting up inception_3b/relu_3x3_reduce
I0403 19:14:20.722118 19194 net.cpp:148] Top shape: 24 128 28 28 (2408448)
I0403 19:14:20.722136 19194 net.cpp:156] Memory required for data: 696042528
I0403 19:14:20.722152 19194 layer_factory.hpp:77] Creating layer inception_3b/3x3
I0403 19:14:20.722184 19194 net.cpp:91] Creating Layer inception_3b/3x3
I0403 19:14:20.722214 19194 net.cpp:425] inception_3b/3x3 <- inception_3b/3x3_reduce
I0403 19:14:20.722236 19194 net.cpp:399] inception_3b/3x3 -> inception_3b/3x3
I0403 19:14:20.725076 19194 net.cpp:141] Setting up inception_3b/3x3
I0403 19:14:20.725105 19194 net.cpp:148] Top shape: 24 192 28 28 (3612672)
I0403 19:14:20.725119 19194 net.cpp:156] Memory required for data: 710493216
I0403 19:14:20.725137 19194 layer_factory.hpp:77] Creating layer inception_3b/relu_3x3
I0403 19:14:20.725157 19194 net.cpp:91] Creating Layer inception_3b/relu_3x3
I0403 19:14:20.725173 19194 net.cpp:425] inception_3b/relu_3x3 <- inception_3b/3x3
I0403 19:14:20.725190 19194 net.cpp:386] inception_3b/relu_3x3 -> inception_3b/3x3 (in-place)
I0403 19:14:20.725458 19194 net.cpp:141] Setting up inception_3b/relu_3x3
I0403 19:14:20.725483 19194 net.cpp:148] Top shape: 24 192 28 28 (3612672)
I0403 19:14:20.725498 19194 net.cpp:156] Memory required for data: 724943904
I0403 19:14:20.725513 19194 layer_factory.hpp:77] Creating layer inception_3b/5x5_reduce
I0403 19:14:20.725536 19194 net.cpp:91] Creating Layer inception_3b/5x5_reduce
I0403 19:14:20.725554 19194 net.cpp:425] inception_3b/5x5_reduce <- inception_3a/output_inception_3a/output_0_split_2
I0403 19:14:20.725572 19194 net.cpp:399] inception_3b/5x5_reduce -> inception_3b/5x5_reduce
I0403 19:14:20.726526 19194 net.cpp:141] Setting up inception_3b/5x5_reduce
I0403 19:14:20.726553 19194 net.cpp:148] Top shape: 24 32 28 28 (602112)
I0403 19:14:20.726568 19194 net.cpp:156] Memory required for data: 727352352
I0403 19:14:20.726585 19194 layer_factory.hpp:77] Creating layer inception_3b/relu_5x5_reduce
I0403 19:14:20.726605 19194 net.cpp:91] Creating Layer inception_3b/relu_5x5_reduce
I0403 19:14:20.726622 19194 net.cpp:425] inception_3b/relu_5x5_reduce <- inception_3b/5x5_reduce
I0403 19:14:20.726639 19194 net.cpp:386] inception_3b/relu_5x5_reduce -> inception_3b/5x5_reduce (in-place)
I0403 19:14:20.726824 19194 net.cpp:141] Setting up inception_3b/relu_5x5_reduce
I0403 19:14:20.726850 19194 net.cpp:148] Top shape: 24 32 28 28 (602112)
I0403 19:14:20.726866 19194 net.cpp:156] Memory required for data: 729760800
I0403 19:14:20.726881 19194 layer_factory.hpp:77] Creating layer inception_3b/5x5
I0403 19:14:20.726902 19194 net.cpp:91] Creating Layer inception_3b/5x5
I0403 19:14:20.726919 19194 net.cpp:425] inception_3b/5x5 <- inception_3b/5x5_reduce
I0403 19:14:20.726938 19194 net.cpp:399] inception_3b/5x5 -> inception_3b/5x5
I0403 19:14:20.728828 19194 net.cpp:141] Setting up inception_3b/5x5
I0403 19:14:20.728855 19194 net.cpp:148] Top shape: 24 96 28 28 (1806336)
I0403 19:14:20.728871 19194 net.cpp:156] Memory required for data: 736986144
I0403 19:14:20.728888 19194 layer_factory.hpp:77] Creating layer inception_3b/relu_5x5
I0403 19:14:20.728906 19194 net.cpp:91] Creating Layer inception_3b/relu_5x5
I0403 19:14:20.728922 19194 net.cpp:425] inception_3b/relu_5x5 <- inception_3b/5x5
I0403 19:14:20.728941 19194 net.cpp:386] inception_3b/relu_5x5 -> inception_3b/5x5 (in-place)
I0403 19:14:20.729137 19194 net.cpp:141] Setting up inception_3b/relu_5x5
I0403 19:14:20.729162 19194 net.cpp:148] Top shape: 24 96 28 28 (1806336)
I0403 19:14:20.729177 19194 net.cpp:156] Memory required for data: 744211488
I0403 19:14:20.729192 19194 layer_factory.hpp:77] Creating layer inception_3b/pool
I0403 19:14:20.729210 19194 net.cpp:91] Creating Layer inception_3b/pool
I0403 19:14:20.729226 19194 net.cpp:425] inception_3b/pool <- inception_3a/output_inception_3a/output_0_split_3
I0403 19:14:20.729244 19194 net.cpp:399] inception_3b/pool -> inception_3b/pool
I0403 19:14:20.729298 19194 net.cpp:141] Setting up inception_3b/pool
I0403 19:14:20.729321 19194 net.cpp:148] Top shape: 24 256 28 28 (4816896)
I0403 19:14:20.729333 19194 net.cpp:156] Memory required for data: 763479072
I0403 19:14:20.729348 19194 layer_factory.hpp:77] Creating layer inception_3b/pool_proj
I0403 19:14:20.729369 19194 net.cpp:91] Creating Layer inception_3b/pool_proj
I0403 19:14:20.729387 19194 net.cpp:425] inception_3b/pool_proj <- inception_3b/pool
I0403 19:14:20.729408 19194 net.cpp:399] inception_3b/pool_proj -> inception_3b/pool_proj
I0403 19:14:20.730455 19194 net.cpp:141] Setting up inception_3b/pool_proj
I0403 19:14:20.730484 19194 net.cpp:148] Top shape: 24 64 28 28 (1204224)
I0403 19:14:20.730499 19194 net.cpp:156] Memory required for data: 768295968
I0403 19:14:20.730517 19194 layer_factory.hpp:77] Creating layer inception_3b/relu_pool_proj
I0403 19:14:20.730535 19194 net.cpp:91] Creating Layer inception_3b/relu_pool_proj
I0403 19:14:20.730551 19194 net.cpp:425] inception_3b/relu_pool_proj <- inception_3b/pool_proj
I0403 19:14:20.730568 19194 net.cpp:386] inception_3b/relu_pool_proj -> inception_3b/pool_proj (in-place)
I0403 19:14:20.730952 19194 net.cpp:141] Setting up inception_3b/relu_pool_proj
I0403 19:14:20.730980 19194 net.cpp:148] Top shape: 24 64 28 28 (1204224)
I0403 19:14:20.730995 19194 net.cpp:156] Memory required for data: 773112864
I0403 19:14:20.731010 19194 layer_factory.hpp:77] Creating layer inception_3b/output
I0403 19:14:20.731027 19194 net.cpp:91] Creating Layer inception_3b/output
I0403 19:14:20.731042 19194 net.cpp:425] inception_3b/output <- inception_3b/1x1
I0403 19:14:20.731058 19194 net.cpp:425] inception_3b/output <- inception_3b/3x3
I0403 19:14:20.731075 19194 net.cpp:425] inception_3b/output <- inception_3b/5x5
I0403 19:14:20.731089 19194 net.cpp:425] inception_3b/output <- inception_3b/pool_proj
I0403 19:14:20.731106 19194 net.cpp:399] inception_3b/output -> inception_3b/output
I0403 19:14:20.731149 19194 net.cpp:141] Setting up inception_3b/output
I0403 19:14:20.731173 19194 net.cpp:148] Top shape: 24 480 28 28 (9031680)
I0403 19:14:20.731186 19194 net.cpp:156] Memory required for data: 809239584
I0403 19:14:20.731202 19194 layer_factory.hpp:77] Creating layer pool3/3x3_s2
I0403 19:14:20.731221 19194 net.cpp:91] Creating Layer pool3/3x3_s2
I0403 19:14:20.731238 19194 net.cpp:425] pool3/3x3_s2 <- inception_3b/output
I0403 19:14:20.731269 19194 net.cpp:399] pool3/3x3_s2 -> pool3/3x3_s2
I0403 19:14:20.731328 19194 net.cpp:141] Setting up pool3/3x3_s2
I0403 19:14:20.731350 19194 net.cpp:148] Top shape: 24 480 14 14 (2257920)
I0403 19:14:20.731364 19194 net.cpp:156] Memory required for data: 818271264
I0403 19:14:20.731379 19194 layer_factory.hpp:77] Creating layer pool3/3x3_s2_pool3/3x3_s2_0_split
I0403 19:14:20.731395 19194 net.cpp:91] Creating Layer pool3/3x3_s2_pool3/3x3_s2_0_split
I0403 19:14:20.731411 19194 net.cpp:425] pool3/3x3_s2_pool3/3x3_s2_0_split <- pool3/3x3_s2
I0403 19:14:20.731429 19194 net.cpp:399] pool3/3x3_s2_pool3/3x3_s2_0_split -> pool3/3x3_s2_pool3/3x3_s2_0_split_0
I0403 19:14:20.731449 19194 net.cpp:399] pool3/3x3_s2_pool3/3x3_s2_0_split -> pool3/3x3_s2_pool3/3x3_s2_0_split_1
I0403 19:14:20.731468 19194 net.cpp:399] pool3/3x3_s2_pool3/3x3_s2_0_split -> pool3/3x3_s2_pool3/3x3_s2_0_split_2
I0403 19:14:20.731487 19194 net.cpp:399] pool3/3x3_s2_pool3/3x3_s2_0_split -> pool3/3x3_s2_pool3/3x3_s2_0_split_3
I0403 19:14:20.731559 19194 net.cpp:141] Setting up pool3/3x3_s2_pool3/3x3_s2_0_split
I0403 19:14:20.731583 19194 net.cpp:148] Top shape: 24 480 14 14 (2257920)
I0403 19:14:20.731600 19194 net.cpp:148] Top shape: 24 480 14 14 (2257920)
I0403 19:14:20.731616 19194 net.cpp:148] Top shape: 24 480 14 14 (2257920)
I0403 19:14:20.731631 19194 net.cpp:148] Top shape: 24 480 14 14 (2257920)
I0403 19:14:20.731644 19194 net.cpp:156] Memory required for data: 854397984
I0403 19:14:20.731658 19194 layer_factory.hpp:77] Creating layer inception_4a/1x1
I0403 19:14:20.731680 19194 net.cpp:91] Creating Layer inception_4a/1x1
I0403 19:14:20.731698 19194 net.cpp:425] inception_4a/1x1 <- pool3/3x3_s2_pool3/3x3_s2_0_split_0
I0403 19:14:20.731716 19194 net.cpp:399] inception_4a/1x1 -> inception_4a/1x1
I0403 19:14:20.733255 19194 net.cpp:141] Setting up inception_4a/1x1
I0403 19:14:20.733283 19194 net.cpp:148] Top shape: 24 192 14 14 (903168)
I0403 19:14:20.733299 19194 net.cpp:156] Memory required for data: 858010656
I0403 19:14:20.733316 19194 layer_factory.hpp:77] Creating layer inception_4a/relu_1x1
I0403 19:14:20.733335 19194 net.cpp:91] Creating Layer inception_4a/relu_1x1
I0403 19:14:20.733350 19194 net.cpp:425] inception_4a/relu_1x1 <- inception_4a/1x1
I0403 19:14:20.733369 19194 net.cpp:386] inception_4a/relu_1x1 -> inception_4a/1x1 (in-place)
I0403 19:14:20.733547 19194 net.cpp:141] Setting up inception_4a/relu_1x1
I0403 19:14:20.733572 19194 net.cpp:148] Top shape: 24 192 14 14 (903168)
I0403 19:14:20.733587 19194 net.cpp:156] Memory required for data: 861623328
I0403 19:14:20.733600 19194 layer_factory.hpp:77] Creating layer inception_4a/3x3_reduce
I0403 19:14:20.733623 19194 net.cpp:91] Creating Layer inception_4a/3x3_reduce
I0403 19:14:20.733640 19194 net.cpp:425] inception_4a/3x3_reduce <- pool3/3x3_s2_pool3/3x3_s2_0_split_1
I0403 19:14:20.733661 19194 net.cpp:399] inception_4a/3x3_reduce -> inception_4a/3x3_reduce
I0403 19:14:20.734923 19194 net.cpp:141] Setting up inception_4a/3x3_reduce
I0403 19:14:20.734957 19194 net.cpp:148] Top shape: 24 96 14 14 (451584)
I0403 19:14:20.734974 19194 net.cpp:156] Memory required for data: 863429664
I0403 19:14:20.735000 19194 layer_factory.hpp:77] Creating layer inception_4a/relu_3x3_reduce
I0403 19:14:20.735020 19194 net.cpp:91] Creating Layer inception_4a/relu_3x3_reduce
I0403 19:14:20.735036 19194 net.cpp:425] inception_4a/relu_3x3_reduce <- inception_4a/3x3_reduce
I0403 19:14:20.735054 19194 net.cpp:386] inception_4a/relu_3x3_reduce -> inception_4a/3x3_reduce (in-place)
I0403 19:14:20.735226 19194 net.cpp:141] Setting up inception_4a/relu_3x3_reduce
I0403 19:14:20.735251 19194 net.cpp:148] Top shape: 24 96 14 14 (451584)
I0403 19:14:20.735266 19194 net.cpp:156] Memory required for data: 865236000
I0403 19:14:20.735280 19194 layer_factory.hpp:77] Creating layer inception_4a/3x3
I0403 19:14:20.735303 19194 net.cpp:91] Creating Layer inception_4a/3x3
I0403 19:14:20.735321 19194 net.cpp:425] inception_4a/3x3 <- inception_4a/3x3_reduce
I0403 19:14:20.735342 19194 net.cpp:399] inception_4a/3x3 -> inception_4a/3x3
I0403 19:14:20.738001 19194 net.cpp:141] Setting up inception_4a/3x3
I0403 19:14:20.738030 19194 net.cpp:148] Top shape: 24 208 14 14 (978432)
I0403 19:14:20.738045 19194 net.cpp:156] Memory required for data: 869149728
I0403 19:14:20.738065 19194 layer_factory.hpp:77] Creating layer inception_4a/relu_3x3
I0403 19:14:20.738086 19194 net.cpp:91] Creating Layer inception_4a/relu_3x3
I0403 19:14:20.738104 19194 net.cpp:425] inception_4a/relu_3x3 <- inception_4a/3x3
I0403 19:14:20.738121 19194 net.cpp:386] inception_4a/relu_3x3 -> inception_4a/3x3 (in-place)
I0403 19:14:20.738400 19194 net.cpp:141] Setting up inception_4a/relu_3x3
I0403 19:14:20.738425 19194 net.cpp:148] Top shape: 24 208 14 14 (978432)
I0403 19:14:20.738440 19194 net.cpp:156] Memory required for data: 873063456
I0403 19:14:20.738456 19194 layer_factory.hpp:77] Creating layer inception_4a/5x5_reduce
I0403 19:14:20.738477 19194 net.cpp:91] Creating Layer inception_4a/5x5_reduce
I0403 19:14:20.738494 19194 net.cpp:425] inception_4a/5x5_reduce <- pool3/3x3_s2_pool3/3x3_s2_0_split_2
I0403 19:14:20.738517 19194 net.cpp:399] inception_4a/5x5_reduce -> inception_4a/5x5_reduce
I0403 19:14:20.739549 19194 net.cpp:141] Setting up inception_4a/5x5_reduce
I0403 19:14:20.739578 19194 net.cpp:148] Top shape: 24 16 14 14 (75264)
I0403 19:14:20.739593 19194 net.cpp:156] Memory required for data: 873364512
I0403 19:14:20.739611 19194 layer_factory.hpp:77] Creating layer inception_4a/relu_5x5_reduce
I0403 19:14:20.739631 19194 net.cpp:91] Creating Layer inception_4a/relu_5x5_reduce
I0403 19:14:20.739650 19194 net.cpp:425] inception_4a/relu_5x5_reduce <- inception_4a/5x5_reduce
I0403 19:14:20.739666 19194 net.cpp:386] inception_4a/relu_5x5_reduce -> inception_4a/5x5_reduce (in-place)
I0403 19:14:20.739842 19194 net.cpp:141] Setting up inception_4a/relu_5x5_reduce
I0403 19:14:20.739871 19194 net.cpp:148] Top shape: 24 16 14 14 (75264)
I0403 19:14:20.739886 19194 net.cpp:156] Memory required for data: 873665568
I0403 19:14:20.739902 19194 layer_factory.hpp:77] Creating layer inception_4a/5x5
I0403 19:14:20.739923 19194 net.cpp:91] Creating Layer inception_4a/5x5
I0403 19:14:20.739941 19194 net.cpp:425] inception_4a/5x5 <- inception_4a/5x5_reduce
I0403 19:14:20.739965 19194 net.cpp:399] inception_4a/5x5 -> inception_4a/5x5
I0403 19:14:20.741045 19194 net.cpp:141] Setting up inception_4a/5x5
I0403 19:14:20.741075 19194 net.cpp:148] Top shape: 24 48 14 14 (225792)
I0403 19:14:20.741091 19194 net.cpp:156] Memory required for data: 874568736
I0403 19:14:20.741109 19194 layer_factory.hpp:77] Creating layer inception_4a/relu_5x5
I0403 19:14:20.741127 19194 net.cpp:91] Creating Layer inception_4a/relu_5x5
I0403 19:14:20.741143 19194 net.cpp:425] inception_4a/relu_5x5 <- inception_4a/5x5
I0403 19:14:20.741163 19194 net.cpp:386] inception_4a/relu_5x5 -> inception_4a/5x5 (in-place)
I0403 19:14:20.741340 19194 net.cpp:141] Setting up inception_4a/relu_5x5
I0403 19:14:20.741365 19194 net.cpp:148] Top shape: 24 48 14 14 (225792)
I0403 19:14:20.741379 19194 net.cpp:156] Memory required for data: 875471904
I0403 19:14:20.741394 19194 layer_factory.hpp:77] Creating layer inception_4a/pool
I0403 19:14:20.741412 19194 net.cpp:91] Creating Layer inception_4a/pool
I0403 19:14:20.741428 19194 net.cpp:425] inception_4a/pool <- pool3/3x3_s2_pool3/3x3_s2_0_split_3
I0403 19:14:20.741449 19194 net.cpp:399] inception_4a/pool -> inception_4a/pool
I0403 19:14:20.741510 19194 net.cpp:141] Setting up inception_4a/pool
I0403 19:14:20.741534 19194 net.cpp:148] Top shape: 24 480 14 14 (2257920)
I0403 19:14:20.741549 19194 net.cpp:156] Memory required for data: 884503584
I0403 19:14:20.741564 19194 layer_factory.hpp:77] Creating layer inception_4a/pool_proj
I0403 19:14:20.741587 19194 net.cpp:91] Creating Layer inception_4a/pool_proj
I0403 19:14:20.741605 19194 net.cpp:425] inception_4a/pool_proj <- inception_4a/pool
I0403 19:14:20.741623 19194 net.cpp:399] inception_4a/pool_proj -> inception_4a/pool_proj
I0403 19:14:20.742775 19194 net.cpp:141] Setting up inception_4a/pool_proj
I0403 19:14:20.742805 19194 net.cpp:148] Top shape: 24 64 14 14 (301056)
I0403 19:14:20.742835 19194 net.cpp:156] Memory required for data: 885707808
I0403 19:14:20.742854 19194 layer_factory.hpp:77] Creating layer inception_4a/relu_pool_proj
I0403 19:14:20.742873 19194 net.cpp:91] Creating Layer inception_4a/relu_pool_proj
I0403 19:14:20.742889 19194 net.cpp:425] inception_4a/relu_pool_proj <- inception_4a/pool_proj
I0403 19:14:20.742923 19194 net.cpp:386] inception_4a/relu_pool_proj -> inception_4a/pool_proj (in-place)
I0403 19:14:20.743233 19194 net.cpp:141] Setting up inception_4a/relu_pool_proj
I0403 19:14:20.743262 19194 net.cpp:148] Top shape: 24 64 14 14 (301056)
I0403 19:14:20.743278 19194 net.cpp:156] Memory required for data: 886912032
I0403 19:14:20.743294 19194 layer_factory.hpp:77] Creating layer inception_4a/output
I0403 19:14:20.743310 19194 net.cpp:91] Creating Layer inception_4a/output
I0403 19:14:20.743326 19194 net.cpp:425] inception_4a/output <- inception_4a/1x1
I0403 19:14:20.743342 19194 net.cpp:425] inception_4a/output <- inception_4a/3x3
I0403 19:14:20.743360 19194 net.cpp:425] inception_4a/output <- inception_4a/5x5
I0403 19:14:20.743376 19194 net.cpp:425] inception_4a/output <- inception_4a/pool_proj
I0403 19:14:20.743396 19194 net.cpp:399] inception_4a/output -> inception_4a/output
I0403 19:14:20.743440 19194 net.cpp:141] Setting up inception_4a/output
I0403 19:14:20.743463 19194 net.cpp:148] Top shape: 24 512 14 14 (2408448)
I0403 19:14:20.743484 19194 net.cpp:156] Memory required for data: 896545824
I0403 19:14:20.743497 19194 layer_factory.hpp:77] Creating layer inception_4a/output_inception_4a/output_0_split
I0403 19:14:20.743517 19194 net.cpp:91] Creating Layer inception_4a/output_inception_4a/output_0_split
I0403 19:14:20.743535 19194 net.cpp:425] inception_4a/output_inception_4a/output_0_split <- inception_4a/output
I0403 19:14:20.743552 19194 net.cpp:399] inception_4a/output_inception_4a/output_0_split -> inception_4a/output_inception_4a/output_0_split_0
I0403 19:14:20.743577 19194 net.cpp:399] inception_4a/output_inception_4a/output_0_split -> inception_4a/output_inception_4a/output_0_split_1
I0403 19:14:20.743597 19194 net.cpp:399] inception_4a/output_inception_4a/output_0_split -> inception_4a/output_inception_4a/output_0_split_2
I0403 19:14:20.743618 19194 net.cpp:399] inception_4a/output_inception_4a/output_0_split -> inception_4a/output_inception_4a/output_0_split_3
I0403 19:14:20.743638 19194 net.cpp:399] inception_4a/output_inception_4a/output_0_split -> inception_4a/output_inception_4a/output_0_split_4
I0403 19:14:20.743729 19194 net.cpp:141] Setting up inception_4a/output_inception_4a/output_0_split
I0403 19:14:20.743752 19194 net.cpp:148] Top shape: 24 512 14 14 (2408448)
I0403 19:14:20.743769 19194 net.cpp:148] Top shape: 24 512 14 14 (2408448)
I0403 19:14:20.743784 19194 net.cpp:148] Top shape: 24 512 14 14 (2408448)
I0403 19:14:20.743799 19194 net.cpp:148] Top shape: 24 512 14 14 (2408448)
I0403 19:14:20.743815 19194 net.cpp:148] Top shape: 24 512 14 14 (2408448)
I0403 19:14:20.743829 19194 net.cpp:156] Memory required for data: 944714784
I0403 19:14:20.743844 19194 layer_factory.hpp:77] Creating layer loss1/ave_pool
I0403 19:14:20.743865 19194 net.cpp:91] Creating Layer loss1/ave_pool
I0403 19:14:20.743881 19194 net.cpp:425] loss1/ave_pool <- inception_4a/output_inception_4a/output_0_split_0
I0403 19:14:20.743901 19194 net.cpp:399] loss1/ave_pool -> loss1/ave_pool
I0403 19:14:20.744107 19194 net.cpp:141] Setting up loss1/ave_pool
I0403 19:14:20.744135 19194 net.cpp:148] Top shape: 24 512 4 4 (196608)
I0403 19:14:20.744151 19194 net.cpp:156] Memory required for data: 945501216
I0403 19:14:20.744166 19194 layer_factory.hpp:77] Creating layer loss1/conv
I0403 19:14:20.744189 19194 net.cpp:91] Creating Layer loss1/conv
I0403 19:14:20.744207 19194 net.cpp:425] loss1/conv <- loss1/ave_pool
I0403 19:14:20.744228 19194 net.cpp:399] loss1/conv -> loss1/conv
I0403 19:14:20.745610 19194 net.cpp:141] Setting up loss1/conv
I0403 19:14:20.745638 19194 net.cpp:148] Top shape: 24 128 4 4 (49152)
I0403 19:14:20.745667 19194 net.cpp:156] Memory required for data: 945697824
I0403 19:14:20.745687 19194 layer_factory.hpp:77] Creating layer loss1/relu_conv
I0403 19:14:20.745708 19194 net.cpp:91] Creating Layer loss1/relu_conv
I0403 19:14:20.745725 19194 net.cpp:425] loss1/relu_conv <- loss1/conv
I0403 19:14:20.745743 19194 net.cpp:386] loss1/relu_conv -> loss1/conv (in-place)
I0403 19:14:20.746021 19194 net.cpp:141] Setting up loss1/relu_conv
I0403 19:14:20.746047 19194 net.cpp:148] Top shape: 24 128 4 4 (49152)
I0403 19:14:20.746062 19194 net.cpp:156] Memory required for data: 945894432
I0403 19:14:20.746078 19194 layer_factory.hpp:77] Creating layer loss1/fc
I0403 19:14:20.746104 19194 net.cpp:91] Creating Layer loss1/fc
I0403 19:14:20.746122 19194 net.cpp:425] loss1/fc <- loss1/conv
I0403 19:14:20.746141 19194 net.cpp:399] loss1/fc -> loss1/fc
I0403 19:14:20.763383 19194 net.cpp:141] Setting up loss1/fc
I0403 19:14:20.763416 19194 net.cpp:148] Top shape: 24 1024 (24576)
I0403 19:14:20.763430 19194 net.cpp:156] Memory required for data: 945992736
I0403 19:14:20.763448 19194 layer_factory.hpp:77] Creating layer loss1/relu_fc
I0403 19:14:20.763466 19194 net.cpp:91] Creating Layer loss1/relu_fc
I0403 19:14:20.763483 19194 net.cpp:425] loss1/relu_fc <- loss1/fc
I0403 19:14:20.763501 19194 net.cpp:386] loss1/relu_fc -> loss1/fc (in-place)
I0403 19:14:20.763682 19194 net.cpp:141] Setting up loss1/relu_fc
I0403 19:14:20.763706 19194 net.cpp:148] Top shape: 24 1024 (24576)
I0403 19:14:20.763720 19194 net.cpp:156] Memory required for data: 946091040
I0403 19:14:20.763736 19194 layer_factory.hpp:77] Creating layer loss1/drop_fc
I0403 19:14:20.763759 19194 net.cpp:91] Creating Layer loss1/drop_fc
I0403 19:14:20.763777 19194 net.cpp:425] loss1/drop_fc <- loss1/fc
I0403 19:14:20.763795 19194 net.cpp:386] loss1/drop_fc -> loss1/fc (in-place)
I0403 19:14:20.763845 19194 net.cpp:141] Setting up loss1/drop_fc
I0403 19:14:20.763870 19194 net.cpp:148] Top shape: 24 1024 (24576)
I0403 19:14:20.763885 19194 net.cpp:156] Memory required for data: 946189344
I0403 19:14:20.763900 19194 layer_factory.hpp:77] Creating layer loss1/classifier_plantvillage
I0403 19:14:20.763917 19194 net.cpp:91] Creating Layer loss1/classifier_plantvillage
I0403 19:14:20.763932 19194 net.cpp:425] loss1/classifier_plantvillage <- loss1/fc
I0403 19:14:20.763957 19194 net.cpp:399] loss1/classifier_plantvillage -> loss1/classifier_plantvillage
I0403 19:14:20.764837 19194 net.cpp:141] Setting up loss1/classifier_plantvillage
I0403 19:14:20.764863 19194 net.cpp:148] Top shape: 24 38 (912)
I0403 19:14:20.764878 19194 net.cpp:156] Memory required for data: 946192992
I0403 19:14:20.764895 19194 layer_factory.hpp:77] Creating layer loss1/classifier_plantvillage_loss1/classifier_plantvillage_0_split
I0403 19:14:20.764914 19194 net.cpp:91] Creating Layer loss1/classifier_plantvillage_loss1/classifier_plantvillage_0_split
I0403 19:14:20.764928 19194 net.cpp:425] loss1/classifier_plantvillage_loss1/classifier_plantvillage_0_split <- loss1/classifier_plantvillage
I0403 19:14:20.764951 19194 net.cpp:399] loss1/classifier_plantvillage_loss1/classifier_plantvillage_0_split -> loss1/classifier_plantvillage_loss1/classifier_plantvillage_0_split_0
I0403 19:14:20.764974 19194 net.cpp:399] loss1/classifier_plantvillage_loss1/classifier_plantvillage_0_split -> loss1/classifier_plantvillage_loss1/classifier_plantvillage_0_split_1
I0403 19:14:20.764994 19194 net.cpp:399] loss1/classifier_plantvillage_loss1/classifier_plantvillage_0_split -> loss1/classifier_plantvillage_loss1/classifier_plantvillage_0_split_2
I0403 19:14:20.765060 19194 net.cpp:141] Setting up loss1/classifier_plantvillage_loss1/classifier_plantvillage_0_split
I0403 19:14:20.765082 19194 net.cpp:148] Top shape: 24 38 (912)
I0403 19:14:20.765099 19194 net.cpp:148] Top shape: 24 38 (912)
I0403 19:14:20.765113 19194 net.cpp:148] Top shape: 24 38 (912)
I0403 19:14:20.765126 19194 net.cpp:156] Memory required for data: 946203936
I0403 19:14:20.765139 19194 layer_factory.hpp:77] Creating layer inception_4b/1x1
I0403 19:14:20.765162 19194 net.cpp:91] Creating Layer inception_4b/1x1
I0403 19:14:20.765194 19194 net.cpp:425] inception_4b/1x1 <- inception_4a/output_inception_4a/output_0_split_1
I0403 19:14:20.765214 19194 net.cpp:399] inception_4b/1x1 -> inception_4b/1x1
I0403 19:14:20.766801 19194 net.cpp:141] Setting up inception_4b/1x1
I0403 19:14:20.766829 19194 net.cpp:148] Top shape: 24 160 14 14 (752640)
I0403 19:14:20.766844 19194 net.cpp:156] Memory required for data: 949214496
I0403 19:14:20.766862 19194 layer_factory.hpp:77] Creating layer inception_4b/relu_1x1
I0403 19:14:20.766881 19194 net.cpp:91] Creating Layer inception_4b/relu_1x1
I0403 19:14:20.766898 19194 net.cpp:425] inception_4b/relu_1x1 <- inception_4b/1x1
I0403 19:14:20.766914 19194 net.cpp:386] inception_4b/relu_1x1 -> inception_4b/1x1 (in-place)
I0403 19:14:20.767092 19194 net.cpp:141] Setting up inception_4b/relu_1x1
I0403 19:14:20.767118 19194 net.cpp:148] Top shape: 24 160 14 14 (752640)
I0403 19:14:20.767133 19194 net.cpp:156] Memory required for data: 952225056
I0403 19:14:20.767148 19194 layer_factory.hpp:77] Creating layer inception_4b/3x3_reduce
I0403 19:14:20.767171 19194 net.cpp:91] Creating Layer inception_4b/3x3_reduce
I0403 19:14:20.767189 19194 net.cpp:425] inception_4b/3x3_reduce <- inception_4a/output_inception_4a/output_0_split_2
I0403 19:14:20.767210 19194 net.cpp:399] inception_4b/3x3_reduce -> inception_4b/3x3_reduce
I0403 19:14:20.768517 19194 net.cpp:141] Setting up inception_4b/3x3_reduce
I0403 19:14:20.768548 19194 net.cpp:148] Top shape: 24 112 14 14 (526848)
I0403 19:14:20.768563 19194 net.cpp:156] Memory required for data: 954332448
I0403 19:14:20.768581 19194 layer_factory.hpp:77] Creating layer inception_4b/relu_3x3_reduce
I0403 19:14:20.768599 19194 net.cpp:91] Creating Layer inception_4b/relu_3x3_reduce
I0403 19:14:20.768615 19194 net.cpp:425] inception_4b/relu_3x3_reduce <- inception_4b/3x3_reduce
I0403 19:14:20.768631 19194 net.cpp:386] inception_4b/relu_3x3_reduce -> inception_4b/3x3_reduce (in-place)
I0403 19:14:20.768908 19194 net.cpp:141] Setting up inception_4b/relu_3x3_reduce
I0403 19:14:20.768936 19194 net.cpp:148] Top shape: 24 112 14 14 (526848)
I0403 19:14:20.768962 19194 net.cpp:156] Memory required for data: 956439840
I0403 19:14:20.768980 19194 layer_factory.hpp:77] Creating layer inception_4b/3x3
I0403 19:14:20.769001 19194 net.cpp:91] Creating Layer inception_4b/3x3
I0403 19:14:20.769019 19194 net.cpp:425] inception_4b/3x3 <- inception_4b/3x3_reduce
I0403 19:14:20.769037 19194 net.cpp:399] inception_4b/3x3 -> inception_4b/3x3
I0403 19:14:20.771914 19194 net.cpp:141] Setting up inception_4b/3x3
I0403 19:14:20.771941 19194 net.cpp:148] Top shape: 24 224 14 14 (1053696)
I0403 19:14:20.771961 19194 net.cpp:156] Memory required for data: 960654624
I0403 19:14:20.771981 19194 layer_factory.hpp:77] Creating layer inception_4b/relu_3x3
I0403 19:14:20.771998 19194 net.cpp:91] Creating Layer inception_4b/relu_3x3
I0403 19:14:20.772013 19194 net.cpp:425] inception_4b/relu_3x3 <- inception_4b/3x3
I0403 19:14:20.772035 19194 net.cpp:386] inception_4b/relu_3x3 -> inception_4b/3x3 (in-place)
I0403 19:14:20.772212 19194 net.cpp:141] Setting up inception_4b/relu_3x3
I0403 19:14:20.772235 19194 net.cpp:148] Top shape: 24 224 14 14 (1053696)
I0403 19:14:20.772249 19194 net.cpp:156] Memory required for data: 964869408
I0403 19:14:20.772264 19194 layer_factory.hpp:77] Creating layer inception_4b/5x5_reduce
I0403 19:14:20.772285 19194 net.cpp:91] Creating Layer inception_4b/5x5_reduce
I0403 19:14:20.772303 19194 net.cpp:425] inception_4b/5x5_reduce <- inception_4a/output_inception_4a/output_0_split_3
I0403 19:14:20.772325 19194 net.cpp:399] inception_4b/5x5_reduce -> inception_4b/5x5_reduce
I0403 19:14:20.773373 19194 net.cpp:141] Setting up inception_4b/5x5_reduce
I0403 19:14:20.773399 19194 net.cpp:148] Top shape: 24 24 14 14 (112896)
I0403 19:14:20.773416 19194 net.cpp:156] Memory required for data: 965320992
I0403 19:14:20.773433 19194 layer_factory.hpp:77] Creating layer inception_4b/relu_5x5_reduce
I0403 19:14:20.773453 19194 net.cpp:91] Creating Layer inception_4b/relu_5x5_reduce
I0403 19:14:20.773483 19194 net.cpp:425] inception_4b/relu_5x5_reduce <- inception_4b/5x5_reduce
I0403 19:14:20.773501 19194 net.cpp:386] inception_4b/relu_5x5_reduce -> inception_4b/5x5_reduce (in-place)
I0403 19:14:20.773679 19194 net.cpp:141] Setting up inception_4b/relu_5x5_reduce
I0403 19:14:20.773705 19194 net.cpp:148] Top shape: 24 24 14 14 (112896)
I0403 19:14:20.773720 19194 net.cpp:156] Memory required for data: 965772576
I0403 19:14:20.773735 19194 layer_factory.hpp:77] Creating layer inception_4b/5x5
I0403 19:14:20.773756 19194 net.cpp:91] Creating Layer inception_4b/5x5
I0403 19:14:20.773773 19194 net.cpp:425] inception_4b/5x5 <- inception_4b/5x5_reduce
I0403 19:14:20.773792 19194 net.cpp:399] inception_4b/5x5 -> inception_4b/5x5
I0403 19:14:20.774981 19194 net.cpp:141] Setting up inception_4b/5x5
I0403 19:14:20.775007 19194 net.cpp:148] Top shape: 24 64 14 14 (301056)
I0403 19:14:20.775022 19194 net.cpp:156] Memory required for data: 966976800
I0403 19:14:20.775040 19194 layer_factory.hpp:77] Creating layer inception_4b/relu_5x5
I0403 19:14:20.775060 19194 net.cpp:91] Creating Layer inception_4b/relu_5x5
I0403 19:14:20.775076 19194 net.cpp:425] inception_4b/relu_5x5 <- inception_4b/5x5
I0403 19:14:20.775094 19194 net.cpp:386] inception_4b/relu_5x5 -> inception_4b/5x5 (in-place)
I0403 19:14:20.775368 19194 net.cpp:141] Setting up inception_4b/relu_5x5
I0403 19:14:20.775393 19194 net.cpp:148] Top shape: 24 64 14 14 (301056)
I0403 19:14:20.775408 19194 net.cpp:156] Memory required for data: 968181024
I0403 19:14:20.775423 19194 layer_factory.hpp:77] Creating layer inception_4b/pool
I0403 19:14:20.775444 19194 net.cpp:91] Creating Layer inception_4b/pool
I0403 19:14:20.775461 19194 net.cpp:425] inception_4b/pool <- inception_4a/output_inception_4a/output_0_split_4
I0403 19:14:20.775480 19194 net.cpp:399] inception_4b/pool -> inception_4b/pool
I0403 19:14:20.775542 19194 net.cpp:141] Setting up inception_4b/pool
I0403 19:14:20.775565 19194 net.cpp:148] Top shape: 24 512 14 14 (2408448)
I0403 19:14:20.775579 19194 net.cpp:156] Memory required for data: 977814816
I0403 19:14:20.775593 19194 layer_factory.hpp:77] Creating layer inception_4b/pool_proj
I0403 19:14:20.775614 19194 net.cpp:91] Creating Layer inception_4b/pool_proj
I0403 19:14:20.775632 19194 net.cpp:425] inception_4b/pool_proj <- inception_4b/pool
I0403 19:14:20.775652 19194 net.cpp:399] inception_4b/pool_proj -> inception_4b/pool_proj
I0403 19:14:20.776813 19194 net.cpp:141] Setting up inception_4b/pool_proj
I0403 19:14:20.776839 19194 net.cpp:148] Top shape: 24 64 14 14 (301056)
I0403 19:14:20.776854 19194 net.cpp:156] Memory required for data: 979019040
I0403 19:14:20.776872 19194 layer_factory.hpp:77] Creating layer inception_4b/relu_pool_proj
I0403 19:14:20.776891 19194 net.cpp:91] Creating Layer inception_4b/relu_pool_proj
I0403 19:14:20.776908 19194 net.cpp:425] inception_4b/relu_pool_proj <- inception_4b/pool_proj
I0403 19:14:20.776924 19194 net.cpp:386] inception_4b/relu_pool_proj -> inception_4b/pool_proj (in-place)
I0403 19:14:20.777102 19194 net.cpp:141] Setting up inception_4b/relu_pool_proj
I0403 19:14:20.777128 19194 net.cpp:148] Top shape: 24 64 14 14 (301056)
I0403 19:14:20.777143 19194 net.cpp:156] Memory required for data: 980223264
I0403 19:14:20.777158 19194 layer_factory.hpp:77] Creating layer inception_4b/output
I0403 19:14:20.777175 19194 net.cpp:91] Creating Layer inception_4b/output
I0403 19:14:20.777190 19194 net.cpp:425] inception_4b/output <- inception_4b/1x1
I0403 19:14:20.777207 19194 net.cpp:425] inception_4b/output <- inception_4b/3x3
I0403 19:14:20.777223 19194 net.cpp:425] inception_4b/output <- inception_4b/5x5
I0403 19:14:20.777238 19194 net.cpp:425] inception_4b/output <- inception_4b/pool_proj
I0403 19:14:20.777254 19194 net.cpp:399] inception_4b/output -> inception_4b/output
I0403 19:14:20.777300 19194 net.cpp:141] Setting up inception_4b/output
I0403 19:14:20.777323 19194 net.cpp:148] Top shape: 24 512 14 14 (2408448)
I0403 19:14:20.777338 19194 net.cpp:156] Memory required for data: 989857056
I0403 19:14:20.777364 19194 layer_factory.hpp:77] Creating layer inception_4b/output_inception_4b/output_0_split
I0403 19:14:20.777385 19194 net.cpp:91] Creating Layer inception_4b/output_inception_4b/output_0_split
I0403 19:14:20.777401 19194 net.cpp:425] inception_4b/output_inception_4b/output_0_split <- inception_4b/output
I0403 19:14:20.777418 19194 net.cpp:399] inception_4b/output_inception_4b/output_0_split -> inception_4b/output_inception_4b/output_0_split_0
I0403 19:14:20.777438 19194 net.cpp:399] inception_4b/output_inception_4b/output_0_split -> inception_4b/output_inception_4b/output_0_split_1
I0403 19:14:20.777458 19194 net.cpp:399] inception_4b/output_inception_4b/output_0_split -> inception_4b/output_inception_4b/output_0_split_2
I0403 19:14:20.777480 19194 net.cpp:399] inception_4b/output_inception_4b/output_0_split -> inception_4b/output_inception_4b/output_0_split_3
I0403 19:14:20.777564 19194 net.cpp:141] Setting up inception_4b/output_inception_4b/output_0_split
I0403 19:14:20.777586 19194 net.cpp:148] Top shape: 24 512 14 14 (2408448)
I0403 19:14:20.777601 19194 net.cpp:148] Top shape: 24 512 14 14 (2408448)
I0403 19:14:20.777617 19194 net.cpp:148] Top shape: 24 512 14 14 (2408448)
I0403 19:14:20.777632 19194 net.cpp:148] Top shape: 24 512 14 14 (2408448)
I0403 19:14:20.777645 19194 net.cpp:156] Memory required for data: 1028392224
I0403 19:14:20.777658 19194 layer_factory.hpp:77] Creating layer inception_4c/1x1
I0403 19:14:20.777679 19194 net.cpp:91] Creating Layer inception_4c/1x1
I0403 19:14:20.777698 19194 net.cpp:425] inception_4c/1x1 <- inception_4b/output_inception_4b/output_0_split_0
I0403 19:14:20.777719 19194 net.cpp:399] inception_4c/1x1 -> inception_4c/1x1
I0403 19:14:20.779147 19194 net.cpp:141] Setting up inception_4c/1x1
I0403 19:14:20.779176 19194 net.cpp:148] Top shape: 24 128 14 14 (602112)
I0403 19:14:20.779192 19194 net.cpp:156] Memory required for data: 1030800672
I0403 19:14:20.779211 19194 layer_factory.hpp:77] Creating layer inception_4c/relu_1x1
I0403 19:14:20.779229 19194 net.cpp:91] Creating Layer inception_4c/relu_1x1
I0403 19:14:20.779245 19194 net.cpp:425] inception_4c/relu_1x1 <- inception_4c/1x1
I0403 19:14:20.779264 19194 net.cpp:386] inception_4c/relu_1x1 -> inception_4c/1x1 (in-place)
I0403 19:14:20.779443 19194 net.cpp:141] Setting up inception_4c/relu_1x1
I0403 19:14:20.779476 19194 net.cpp:148] Top shape: 24 128 14 14 (602112)
I0403 19:14:20.779490 19194 net.cpp:156] Memory required for data: 1033209120
I0403 19:14:20.779505 19194 layer_factory.hpp:77] Creating layer inception_4c/3x3_reduce
I0403 19:14:20.779527 19194 net.cpp:91] Creating Layer inception_4c/3x3_reduce
I0403 19:14:20.779546 19194 net.cpp:425] inception_4c/3x3_reduce <- inception_4b/output_inception_4b/output_0_split_1
I0403 19:14:20.779568 19194 net.cpp:399] inception_4c/3x3_reduce -> inception_4c/3x3_reduce
I0403 19:14:20.781496 19194 net.cpp:141] Setting up inception_4c/3x3_reduce
I0403 19:14:20.781524 19194 net.cpp:148] Top shape: 24 128 14 14 (602112)
I0403 19:14:20.781540 19194 net.cpp:156] Memory required for data: 1035617568
I0403 19:14:20.781559 19194 layer_factory.hpp:77] Creating layer inception_4c/relu_3x3_reduce
I0403 19:14:20.781580 19194 net.cpp:91] Creating Layer inception_4c/relu_3x3_reduce
I0403 19:14:20.781596 19194 net.cpp:425] inception_4c/relu_3x3_reduce <- inception_4c/3x3_reduce
I0403 19:14:20.781613 19194 net.cpp:386] inception_4c/relu_3x3_reduce -> inception_4c/3x3_reduce (in-place)
I0403 19:14:20.781900 19194 net.cpp:141] Setting up inception_4c/relu_3x3_reduce
I0403 19:14:20.781926 19194 net.cpp:148] Top shape: 24 128 14 14 (602112)
I0403 19:14:20.781941 19194 net.cpp:156] Memory required for data: 1038026016
I0403 19:14:20.781961 19194 layer_factory.hpp:77] Creating layer inception_4c/3x3
I0403 19:14:20.781985 19194 net.cpp:91] Creating Layer inception_4c/3x3
I0403 19:14:20.782002 19194 net.cpp:425] inception_4c/3x3 <- inception_4c/3x3_reduce
I0403 19:14:20.782024 19194 net.cpp:399] inception_4c/3x3 -> inception_4c/3x3
I0403 19:14:20.785612 19194 net.cpp:141] Setting up inception_4c/3x3
I0403 19:14:20.785653 19194 net.cpp:148] Top shape: 24 256 14 14 (1204224)
I0403 19:14:20.785670 19194 net.cpp:156] Memory required for data: 1042842912
I0403 19:14:20.785701 19194 layer_factory.hpp:77] Creating layer inception_4c/relu_3x3
I0403 19:14:20.785723 19194 net.cpp:91] Creating Layer inception_4c/relu_3x3
I0403 19:14:20.785740 19194 net.cpp:425] inception_4c/relu_3x3 <- inception_4c/3x3
I0403 19:14:20.785758 19194 net.cpp:386] inception_4c/relu_3x3 -> inception_4c/3x3 (in-place)
I0403 19:14:20.785940 19194 net.cpp:141] Setting up inception_4c/relu_3x3
I0403 19:14:20.785969 19194 net.cpp:148] Top shape: 24 256 14 14 (1204224)
I0403 19:14:20.785985 19194 net.cpp:156] Memory required for data: 1047659808
I0403 19:14:20.786000 19194 layer_factory.hpp:77] Creating layer inception_4c/5x5_reduce
I0403 19:14:20.786022 19194 net.cpp:91] Creating Layer inception_4c/5x5_reduce
I0403 19:14:20.786041 19194 net.cpp:425] inception_4c/5x5_reduce <- inception_4b/output_inception_4b/output_0_split_2
I0403 19:14:20.786062 19194 net.cpp:399] inception_4c/5x5_reduce -> inception_4c/5x5_reduce
I0403 19:14:20.787144 19194 net.cpp:141] Setting up inception_4c/5x5_reduce
I0403 19:14:20.787173 19194 net.cpp:148] Top shape: 24 24 14 14 (112896)
I0403 19:14:20.787194 19194 net.cpp:156] Memory required for data: 1048111392
I0403 19:14:20.787212 19194 layer_factory.hpp:77] Creating layer inception_4c/relu_5x5_reduce
I0403 19:14:20.787233 19194 net.cpp:91] Creating Layer inception_4c/relu_5x5_reduce
I0403 19:14:20.787250 19194 net.cpp:425] inception_4c/relu_5x5_reduce <- inception_4c/5x5_reduce
I0403 19:14:20.787267 19194 net.cpp:386] inception_4c/relu_5x5_reduce -> inception_4c/5x5_reduce (in-place)
I0403 19:14:20.787448 19194 net.cpp:141] Setting up inception_4c/relu_5x5_reduce
I0403 19:14:20.787484 19194 net.cpp:148] Top shape: 24 24 14 14 (112896)
I0403 19:14:20.787499 19194 net.cpp:156] Memory required for data: 1048562976
I0403 19:14:20.787514 19194 layer_factory.hpp:77] Creating layer inception_4c/5x5
I0403 19:14:20.787536 19194 net.cpp:91] Creating Layer inception_4c/5x5
I0403 19:14:20.787554 19194 net.cpp:425] inception_4c/5x5 <- inception_4c/5x5_reduce
I0403 19:14:20.787574 19194 net.cpp:399] inception_4c/5x5 -> inception_4c/5x5
I0403 19:14:20.788806 19194 net.cpp:141] Setting up inception_4c/5x5
I0403 19:14:20.788836 19194 net.cpp:148] Top shape: 24 64 14 14 (301056)
I0403 19:14:20.788852 19194 net.cpp:156] Memory required for data: 1049767200
I0403 19:14:20.788871 19194 layer_factory.hpp:77] Creating layer inception_4c/relu_5x5
I0403 19:14:20.788889 19194 net.cpp:91] Creating Layer inception_4c/relu_5x5
I0403 19:14:20.788905 19194 net.cpp:425] inception_4c/relu_5x5 <- inception_4c/5x5
I0403 19:14:20.788924 19194 net.cpp:386] inception_4c/relu_5x5 -> inception_4c/5x5 (in-place)
I0403 19:14:20.789221 19194 net.cpp:141] Setting up inception_4c/relu_5x5
I0403 19:14:20.789250 19194 net.cpp:148] Top shape: 24 64 14 14 (301056)
I0403 19:14:20.789266 19194 net.cpp:156] Memory required for data: 1050971424
I0403 19:14:20.789281 19194 layer_factory.hpp:77] Creating layer inception_4c/pool
I0403 19:14:20.789299 19194 net.cpp:91] Creating Layer inception_4c/pool
I0403 19:14:20.789316 19194 net.cpp:425] inception_4c/pool <- inception_4b/output_inception_4b/output_0_split_3
I0403 19:14:20.789338 19194 net.cpp:399] inception_4c/pool -> inception_4c/pool
I0403 19:14:20.789404 19194 net.cpp:141] Setting up inception_4c/pool
I0403 19:14:20.789428 19194 net.cpp:148] Top shape: 24 512 14 14 (2408448)
I0403 19:14:20.789443 19194 net.cpp:156] Memory required for data: 1060605216
I0403 19:14:20.789458 19194 layer_factory.hpp:77] Creating layer inception_4c/pool_proj
I0403 19:14:20.789481 19194 net.cpp:91] Creating Layer inception_4c/pool_proj
I0403 19:14:20.789499 19194 net.cpp:425] inception_4c/pool_proj <- inception_4c/pool
I0403 19:14:20.789517 19194 net.cpp:399] inception_4c/pool_proj -> inception_4c/pool_proj
I0403 19:14:20.790735 19194 net.cpp:141] Setting up inception_4c/pool_proj
I0403 19:14:20.790761 19194 net.cpp:148] Top shape: 24 64 14 14 (301056)
I0403 19:14:20.790791 19194 net.cpp:156] Memory required for data: 1061809440
I0403 19:14:20.790809 19194 layer_factory.hpp:77] Creating layer inception_4c/relu_pool_proj
I0403 19:14:20.790841 19194 net.cpp:91] Creating Layer inception_4c/relu_pool_proj
I0403 19:14:20.790859 19194 net.cpp:425] inception_4c/relu_pool_proj <- inception_4c/pool_proj
I0403 19:14:20.790876 19194 net.cpp:386] inception_4c/relu_pool_proj -> inception_4c/pool_proj (in-place)
I0403 19:14:20.791085 19194 net.cpp:141] Setting up inception_4c/relu_pool_proj
I0403 19:14:20.791115 19194 net.cpp:148] Top shape: 24 64 14 14 (301056)
I0403 19:14:20.791131 19194 net.cpp:156] Memory required for data: 1063013664
I0403 19:14:20.791159 19194 layer_factory.hpp:77] Creating layer inception_4c/output
I0403 19:14:20.791177 19194 net.cpp:91] Creating Layer inception_4c/output
I0403 19:14:20.791193 19194 net.cpp:425] inception_4c/output <- inception_4c/1x1
I0403 19:14:20.791209 19194 net.cpp:425] inception_4c/output <- inception_4c/3x3
I0403 19:14:20.791226 19194 net.cpp:425] inception_4c/output <- inception_4c/5x5
I0403 19:14:20.791244 19194 net.cpp:425] inception_4c/output <- inception_4c/pool_proj
I0403 19:14:20.791271 19194 net.cpp:399] inception_4c/output -> inception_4c/output
I0403 19:14:20.791319 19194 net.cpp:141] Setting up inception_4c/output
I0403 19:14:20.791342 19194 net.cpp:148] Top shape: 24 512 14 14 (2408448)
I0403 19:14:20.791357 19194 net.cpp:156] Memory required for data: 1072647456
I0403 19:14:20.791371 19194 layer_factory.hpp:77] Creating layer inception_4c/output_inception_4c/output_0_split
I0403 19:14:20.791391 19194 net.cpp:91] Creating Layer inception_4c/output_inception_4c/output_0_split
I0403 19:14:20.791407 19194 net.cpp:425] inception_4c/output_inception_4c/output_0_split <- inception_4c/output
I0403 19:14:20.791424 19194 net.cpp:399] inception_4c/output_inception_4c/output_0_split -> inception_4c/output_inception_4c/output_0_split_0
I0403 19:14:20.791445 19194 net.cpp:399] inception_4c/output_inception_4c/output_0_split -> inception_4c/output_inception_4c/output_0_split_1
I0403 19:14:20.791465 19194 net.cpp:399] inception_4c/output_inception_4c/output_0_split -> inception_4c/output_inception_4c/output_0_split_2
I0403 19:14:20.791484 19194 net.cpp:399] inception_4c/output_inception_4c/output_0_split -> inception_4c/output_inception_4c/output_0_split_3
I0403 19:14:20.791571 19194 net.cpp:141] Setting up inception_4c/output_inception_4c/output_0_split
I0403 19:14:20.791594 19194 net.cpp:148] Top shape: 24 512 14 14 (2408448)
I0403 19:14:20.791610 19194 net.cpp:148] Top shape: 24 512 14 14 (2408448)
I0403 19:14:20.791625 19194 net.cpp:148] Top shape: 24 512 14 14 (2408448)
I0403 19:14:20.791641 19194 net.cpp:148] Top shape: 24 512 14 14 (2408448)
I0403 19:14:20.791654 19194 net.cpp:156] Memory required for data: 1111182624
I0403 19:14:20.791669 19194 layer_factory.hpp:77] Creating layer inception_4d/1x1
I0403 19:14:20.791692 19194 net.cpp:91] Creating Layer inception_4d/1x1
I0403 19:14:20.791708 19194 net.cpp:425] inception_4d/1x1 <- inception_4c/output_inception_4c/output_0_split_0
I0403 19:14:20.791729 19194 net.cpp:399] inception_4d/1x1 -> inception_4d/1x1
I0403 19:14:20.793112 19194 net.cpp:141] Setting up inception_4d/1x1
I0403 19:14:20.793139 19194 net.cpp:148] Top shape: 24 112 14 14 (526848)
I0403 19:14:20.793155 19194 net.cpp:156] Memory required for data: 1113290016
I0403 19:14:20.793174 19194 layer_factory.hpp:77] Creating layer inception_4d/relu_1x1
I0403 19:14:20.793191 19194 net.cpp:91] Creating Layer inception_4d/relu_1x1
I0403 19:14:20.793208 19194 net.cpp:425] inception_4d/relu_1x1 <- inception_4d/1x1
I0403 19:14:20.793228 19194 net.cpp:386] inception_4d/relu_1x1 -> inception_4d/1x1 (in-place)
I0403 19:14:20.793413 19194 net.cpp:141] Setting up inception_4d/relu_1x1
I0403 19:14:20.793438 19194 net.cpp:148] Top shape: 24 112 14 14 (526848)
I0403 19:14:20.793452 19194 net.cpp:156] Memory required for data: 1115397408
I0403 19:14:20.793467 19194 layer_factory.hpp:77] Creating layer inception_4d/3x3_reduce
I0403 19:14:20.793503 19194 net.cpp:91] Creating Layer inception_4d/3x3_reduce
I0403 19:14:20.793522 19194 net.cpp:425] inception_4d/3x3_reduce <- inception_4c/output_inception_4c/output_0_split_1
I0403 19:14:20.793543 19194 net.cpp:399] inception_4d/3x3_reduce -> inception_4d/3x3_reduce
I0403 19:14:20.795050 19194 net.cpp:141] Setting up inception_4d/3x3_reduce
I0403 19:14:20.795080 19194 net.cpp:148] Top shape: 24 144 14 14 (677376)
I0403 19:14:20.795097 19194 net.cpp:156] Memory required for data: 1118106912
I0403 19:14:20.795115 19194 layer_factory.hpp:77] Creating layer inception_4d/relu_3x3_reduce
I0403 19:14:20.795133 19194 net.cpp:91] Creating Layer inception_4d/relu_3x3_reduce
I0403 19:14:20.795150 19194 net.cpp:425] inception_4d/relu_3x3_reduce <- inception_4d/3x3_reduce
I0403 19:14:20.795168 19194 net.cpp:386] inception_4d/relu_3x3_reduce -> inception_4d/3x3_reduce (in-place)
I0403 19:14:20.795454 19194 net.cpp:141] Setting up inception_4d/relu_3x3_reduce
I0403 19:14:20.795482 19194 net.cpp:148] Top shape: 24 144 14 14 (677376)
I0403 19:14:20.795498 19194 net.cpp:156] Memory required for data: 1120816416
I0403 19:14:20.795513 19194 layer_factory.hpp:77] Creating layer inception_4d/3x3
I0403 19:14:20.795536 19194 net.cpp:91] Creating Layer inception_4d/3x3
I0403 19:14:20.795553 19194 net.cpp:425] inception_4d/3x3 <- inception_4d/3x3_reduce
I0403 19:14:20.795572 19194 net.cpp:399] inception_4d/3x3 -> inception_4d/3x3
I0403 19:14:20.799790 19194 net.cpp:141] Setting up inception_4d/3x3
I0403 19:14:20.799818 19194 net.cpp:148] Top shape: 24 288 14 14 (1354752)
I0403 19:14:20.799834 19194 net.cpp:156] Memory required for data: 1126235424
I0403 19:14:20.799852 19194 layer_factory.hpp:77] Creating layer inception_4d/relu_3x3
I0403 19:14:20.799873 19194 net.cpp:91] Creating Layer inception_4d/relu_3x3
I0403 19:14:20.799890 19194 net.cpp:425] inception_4d/relu_3x3 <- inception_4d/3x3
I0403 19:14:20.799907 19194 net.cpp:386] inception_4d/relu_3x3 -> inception_4d/3x3 (in-place)
I0403 19:14:20.800088 19194 net.cpp:141] Setting up inception_4d/relu_3x3
I0403 19:14:20.800113 19194 net.cpp:148] Top shape: 24 288 14 14 (1354752)
I0403 19:14:20.800128 19194 net.cpp:156] Memory required for data: 1131654432
I0403 19:14:20.800143 19194 layer_factory.hpp:77] Creating layer inception_4d/5x5_reduce
I0403 19:14:20.800166 19194 net.cpp:91] Creating Layer inception_4d/5x5_reduce
I0403 19:14:20.800184 19194 net.cpp:425] inception_4d/5x5_reduce <- inception_4c/output_inception_4c/output_0_split_2
I0403 19:14:20.800204 19194 net.cpp:399] inception_4d/5x5_reduce -> inception_4d/5x5_reduce
I0403 19:14:20.801316 19194 net.cpp:141] Setting up inception_4d/5x5_reduce
I0403 19:14:20.801343 19194 net.cpp:148] Top shape: 24 32 14 14 (150528)
I0403 19:14:20.801357 19194 net.cpp:156] Memory required for data: 1132256544
I0403 19:14:20.801375 19194 layer_factory.hpp:77] Creating layer inception_4d/relu_5x5_reduce
I0403 19:14:20.801393 19194 net.cpp:91] Creating Layer inception_4d/relu_5x5_reduce
I0403 19:14:20.801409 19194 net.cpp:425] inception_4d/relu_5x5_reduce <- inception_4d/5x5_reduce
I0403 19:14:20.801429 19194 net.cpp:386] inception_4d/relu_5x5_reduce -> inception_4d/5x5_reduce (in-place)
I0403 19:14:20.801612 19194 net.cpp:141] Setting up inception_4d/relu_5x5_reduce
I0403 19:14:20.801635 19194 net.cpp:148] Top shape: 24 32 14 14 (150528)
I0403 19:14:20.801651 19194 net.cpp:156] Memory required for data: 1132858656
I0403 19:14:20.801664 19194 layer_factory.hpp:77] Creating layer inception_4d/5x5
I0403 19:14:20.801687 19194 net.cpp:91] Creating Layer inception_4d/5x5
I0403 19:14:20.801703 19194 net.cpp:425] inception_4d/5x5 <- inception_4d/5x5_reduce
I0403 19:14:20.801723 19194 net.cpp:399] inception_4d/5x5 -> inception_4d/5x5
I0403 19:14:20.803158 19194 net.cpp:141] Setting up inception_4d/5x5
I0403 19:14:20.803186 19194 net.cpp:148] Top shape: 24 64 14 14 (301056)
I0403 19:14:20.803205 19194 net.cpp:156] Memory required for data: 1134062880
I0403 19:14:20.803223 19194 layer_factory.hpp:77] Creating layer inception_4d/relu_5x5
I0403 19:14:20.803256 19194 net.cpp:91] Creating Layer inception_4d/relu_5x5
I0403 19:14:20.803272 19194 net.cpp:425] inception_4d/relu_5x5 <- inception_4d/5x5
I0403 19:14:20.803288 19194 net.cpp:386] inception_4d/relu_5x5 -> inception_4d/5x5 (in-place)
I0403 19:14:20.803580 19194 net.cpp:141] Setting up inception_4d/relu_5x5
I0403 19:14:20.803608 19194 net.cpp:148] Top shape: 24 64 14 14 (301056)
I0403 19:14:20.803624 19194 net.cpp:156] Memory required for data: 1135267104
I0403 19:14:20.803639 19194 layer_factory.hpp:77] Creating layer inception_4d/pool
I0403 19:14:20.803656 19194 net.cpp:91] Creating Layer inception_4d/pool
I0403 19:14:20.803671 19194 net.cpp:425] inception_4d/pool <- inception_4c/output_inception_4c/output_0_split_3
I0403 19:14:20.803689 19194 net.cpp:399] inception_4d/pool -> inception_4d/pool
I0403 19:14:20.803755 19194 net.cpp:141] Setting up inception_4d/pool
I0403 19:14:20.803777 19194 net.cpp:148] Top shape: 24 512 14 14 (2408448)
I0403 19:14:20.803791 19194 net.cpp:156] Memory required for data: 1144900896
I0403 19:14:20.803805 19194 layer_factory.hpp:77] Creating layer inception_4d/pool_proj
I0403 19:14:20.803828 19194 net.cpp:91] Creating Layer inception_4d/pool_proj
I0403 19:14:20.803844 19194 net.cpp:425] inception_4d/pool_proj <- inception_4d/pool
I0403 19:14:20.803864 19194 net.cpp:399] inception_4d/pool_proj -> inception_4d/pool_proj
I0403 19:14:20.805575 19194 net.cpp:141] Setting up inception_4d/pool_proj
I0403 19:14:20.805603 19194 net.cpp:148] Top shape: 24 64 14 14 (301056)
I0403 19:14:20.805619 19194 net.cpp:156] Memory required for data: 1146105120
I0403 19:14:20.805636 19194 layer_factory.hpp:77] Creating layer inception_4d/relu_pool_proj
I0403 19:14:20.805656 19194 net.cpp:91] Creating Layer inception_4d/relu_pool_proj
I0403 19:14:20.805673 19194 net.cpp:425] inception_4d/relu_pool_proj <- inception_4d/pool_proj
I0403 19:14:20.805691 19194 net.cpp:386] inception_4d/relu_pool_proj -> inception_4d/pool_proj (in-place)
I0403 19:14:20.805868 19194 net.cpp:141] Setting up inception_4d/relu_pool_proj
I0403 19:14:20.805892 19194 net.cpp:148] Top shape: 24 64 14 14 (301056)
I0403 19:14:20.805907 19194 net.cpp:156] Memory required for data: 1147309344
I0403 19:14:20.805920 19194 layer_factory.hpp:77] Creating layer inception_4d/output
I0403 19:14:20.805939 19194 net.cpp:91] Creating Layer inception_4d/output
I0403 19:14:20.805961 19194 net.cpp:425] inception_4d/output <- inception_4d/1x1
I0403 19:14:20.805979 19194 net.cpp:425] inception_4d/output <- inception_4d/3x3
I0403 19:14:20.805994 19194 net.cpp:425] inception_4d/output <- inception_4d/5x5
I0403 19:14:20.806010 19194 net.cpp:425] inception_4d/output <- inception_4d/pool_proj
I0403 19:14:20.806025 19194 net.cpp:399] inception_4d/output -> inception_4d/output
I0403 19:14:20.806073 19194 net.cpp:141] Setting up inception_4d/output
I0403 19:14:20.806097 19194 net.cpp:148] Top shape: 24 528 14 14 (2483712)
I0403 19:14:20.806110 19194 net.cpp:156] Memory required for data: 1157244192
I0403 19:14:20.806125 19194 layer_factory.hpp:77] Creating layer inception_4d/output_inception_4d/output_0_split
I0403 19:14:20.806143 19194 net.cpp:91] Creating Layer inception_4d/output_inception_4d/output_0_split
I0403 19:14:20.806157 19194 net.cpp:425] inception_4d/output_inception_4d/output_0_split <- inception_4d/output
I0403 19:14:20.806176 19194 net.cpp:399] inception_4d/output_inception_4d/output_0_split -> inception_4d/output_inception_4d/output_0_split_0
I0403 19:14:20.806197 19194 net.cpp:399] inception_4d/output_inception_4d/output_0_split -> inception_4d/output_inception_4d/output_0_split_1
I0403 19:14:20.806218 19194 net.cpp:399] inception_4d/output_inception_4d/output_0_split -> inception_4d/output_inception_4d/output_0_split_2
I0403 19:14:20.806239 19194 net.cpp:399] inception_4d/output_inception_4d/output_0_split -> inception_4d/output_inception_4d/output_0_split_3
I0403 19:14:20.806263 19194 net.cpp:399] inception_4d/output_inception_4d/output_0_split -> inception_4d/output_inception_4d/output_0_split_4
I0403 19:14:20.806362 19194 net.cpp:141] Setting up inception_4d/output_inception_4d/output_0_split
I0403 19:14:20.806396 19194 net.cpp:148] Top shape: 24 528 14 14 (2483712)
I0403 19:14:20.806413 19194 net.cpp:148] Top shape: 24 528 14 14 (2483712)
I0403 19:14:20.806429 19194 net.cpp:148] Top shape: 24 528 14 14 (2483712)
I0403 19:14:20.806444 19194 net.cpp:148] Top shape: 24 528 14 14 (2483712)
I0403 19:14:20.806459 19194 net.cpp:148] Top shape: 24 528 14 14 (2483712)
I0403 19:14:20.806473 19194 net.cpp:156] Memory required for data: 1206918432
I0403 19:14:20.806486 19194 layer_factory.hpp:77] Creating layer loss2/ave_pool
I0403 19:14:20.806504 19194 net.cpp:91] Creating Layer loss2/ave_pool
I0403 19:14:20.806520 19194 net.cpp:425] loss2/ave_pool <- inception_4d/output_inception_4d/output_0_split_0
I0403 19:14:20.806540 19194 net.cpp:399] loss2/ave_pool -> loss2/ave_pool
I0403 19:14:20.806844 19194 net.cpp:141] Setting up loss2/ave_pool
I0403 19:14:20.806870 19194 net.cpp:148] Top shape: 24 528 4 4 (202752)
I0403 19:14:20.806885 19194 net.cpp:156] Memory required for data: 1207729440
I0403 19:14:20.806900 19194 layer_factory.hpp:77] Creating layer loss2/conv
I0403 19:14:20.806921 19194 net.cpp:91] Creating Layer loss2/conv
I0403 19:14:20.806957 19194 net.cpp:425] loss2/conv <- loss2/ave_pool
I0403 19:14:20.806980 19194 net.cpp:399] loss2/conv -> loss2/conv
I0403 19:14:20.808825 19194 net.cpp:141] Setting up loss2/conv
I0403 19:14:20.808852 19194 net.cpp:148] Top shape: 24 128 4 4 (49152)
I0403 19:14:20.808868 19194 net.cpp:156] Memory required for data: 1207926048
I0403 19:14:20.808886 19194 layer_factory.hpp:77] Creating layer loss2/relu_conv
I0403 19:14:20.808907 19194 net.cpp:91] Creating Layer loss2/relu_conv
I0403 19:14:20.808923 19194 net.cpp:425] loss2/relu_conv <- loss2/conv
I0403 19:14:20.808939 19194 net.cpp:386] loss2/relu_conv -> loss2/conv (in-place)
I0403 19:14:20.809227 19194 net.cpp:141] Setting up loss2/relu_conv
I0403 19:14:20.809253 19194 net.cpp:148] Top shape: 24 128 4 4 (49152)
I0403 19:14:20.809268 19194 net.cpp:156] Memory required for data: 1208122656
I0403 19:14:20.809283 19194 layer_factory.hpp:77] Creating layer loss2/fc
I0403 19:14:20.809303 19194 net.cpp:91] Creating Layer loss2/fc
I0403 19:14:20.809320 19194 net.cpp:425] loss2/fc <- loss2/conv
I0403 19:14:20.809341 19194 net.cpp:399] loss2/fc -> loss2/fc
I0403 19:14:20.826535 19194 net.cpp:141] Setting up loss2/fc
I0403 19:14:20.826570 19194 net.cpp:148] Top shape: 24 1024 (24576)
I0403 19:14:20.826584 19194 net.cpp:156] Memory required for data: 1208220960
I0403 19:14:20.826602 19194 layer_factory.hpp:77] Creating layer loss2/relu_fc
I0403 19:14:20.826622 19194 net.cpp:91] Creating Layer loss2/relu_fc
I0403 19:14:20.826639 19194 net.cpp:425] loss2/relu_fc <- loss2/fc
I0403 19:14:20.826656 19194 net.cpp:386] loss2/relu_fc -> loss2/fc (in-place)
I0403 19:14:20.826943 19194 net.cpp:141] Setting up loss2/relu_fc
I0403 19:14:20.826972 19194 net.cpp:148] Top shape: 24 1024 (24576)
I0403 19:14:20.826987 19194 net.cpp:156] Memory required for data: 1208319264
I0403 19:14:20.827002 19194 layer_factory.hpp:77] Creating layer loss2/drop_fc
I0403 19:14:20.827018 19194 net.cpp:91] Creating Layer loss2/drop_fc
I0403 19:14:20.827034 19194 net.cpp:425] loss2/drop_fc <- loss2/fc
I0403 19:14:20.827054 19194 net.cpp:386] loss2/drop_fc -> loss2/fc (in-place)
I0403 19:14:20.827105 19194 net.cpp:141] Setting up loss2/drop_fc
I0403 19:14:20.827126 19194 net.cpp:148] Top shape: 24 1024 (24576)
I0403 19:14:20.827142 19194 net.cpp:156] Memory required for data: 1208417568
I0403 19:14:20.827155 19194 layer_factory.hpp:77] Creating layer loss2/classifier_plantvillage
I0403 19:14:20.827172 19194 net.cpp:91] Creating Layer loss2/classifier_plantvillage
I0403 19:14:20.827188 19194 net.cpp:425] loss2/classifier_plantvillage <- loss2/fc
I0403 19:14:20.827209 19194 net.cpp:399] loss2/classifier_plantvillage -> loss2/classifier_plantvillage
I0403 19:14:20.827601 19194 net.cpp:141] Setting up loss2/classifier_plantvillage
I0403 19:14:20.827625 19194 net.cpp:148] Top shape: 24 38 (912)
I0403 19:14:20.827654 19194 net.cpp:156] Memory required for data: 1208421216
I0403 19:14:20.827672 19194 layer_factory.hpp:77] Creating layer loss2/classifier_plantvillage_loss2/classifier_plantvillage_0_split
I0403 19:14:20.827692 19194 net.cpp:91] Creating Layer loss2/classifier_plantvillage_loss2/classifier_plantvillage_0_split
I0403 19:14:20.827709 19194 net.cpp:425] loss2/classifier_plantvillage_loss2/classifier_plantvillage_0_split <- loss2/classifier_plantvillage
I0403 19:14:20.827729 19194 net.cpp:399] loss2/classifier_plantvillage_loss2/classifier_plantvillage_0_split -> loss2/classifier_plantvillage_loss2/classifier_plantvillage_0_split_0
I0403 19:14:20.827750 19194 net.cpp:399] loss2/classifier_plantvillage_loss2/classifier_plantvillage_0_split -> loss2/classifier_plantvillage_loss2/classifier_plantvillage_0_split_1
I0403 19:14:20.827770 19194 net.cpp:399] loss2/classifier_plantvillage_loss2/classifier_plantvillage_0_split -> loss2/classifier_plantvillage_loss2/classifier_plantvillage_0_split_2
I0403 19:14:20.827846 19194 net.cpp:141] Setting up loss2/classifier_plantvillage_loss2/classifier_plantvillage_0_split
I0403 19:14:20.827867 19194 net.cpp:148] Top shape: 24 38 (912)
I0403 19:14:20.827883 19194 net.cpp:148] Top shape: 24 38 (912)
I0403 19:14:20.827898 19194 net.cpp:148] Top shape: 24 38 (912)
I0403 19:14:20.827913 19194 net.cpp:156] Memory required for data: 1208432160
I0403 19:14:20.827927 19194 layer_factory.hpp:77] Creating layer inception_4e/1x1
I0403 19:14:20.827951 19194 net.cpp:91] Creating Layer inception_4e/1x1
I0403 19:14:20.827970 19194 net.cpp:425] inception_4e/1x1 <- inception_4d/output_inception_4d/output_0_split_1
I0403 19:14:20.827988 19194 net.cpp:399] inception_4e/1x1 -> inception_4e/1x1
I0403 19:14:20.829749 19194 net.cpp:141] Setting up inception_4e/1x1
I0403 19:14:20.829778 19194 net.cpp:148] Top shape: 24 256 14 14 (1204224)
I0403 19:14:20.829794 19194 net.cpp:156] Memory required for data: 1213249056
I0403 19:14:20.829813 19194 layer_factory.hpp:77] Creating layer inception_4e/relu_1x1
I0403 19:14:20.829830 19194 net.cpp:91] Creating Layer inception_4e/relu_1x1
I0403 19:14:20.829845 19194 net.cpp:425] inception_4e/relu_1x1 <- inception_4e/1x1
I0403 19:14:20.829862 19194 net.cpp:386] inception_4e/relu_1x1 -> inception_4e/1x1 (in-place)
I0403 19:14:20.830152 19194 net.cpp:141] Setting up inception_4e/relu_1x1
I0403 19:14:20.830179 19194 net.cpp:148] Top shape: 24 256 14 14 (1204224)
I0403 19:14:20.830195 19194 net.cpp:156] Memory required for data: 1218065952
I0403 19:14:20.830210 19194 layer_factory.hpp:77] Creating layer inception_4e/3x3_reduce
I0403 19:14:20.830232 19194 net.cpp:91] Creating Layer inception_4e/3x3_reduce
I0403 19:14:20.830250 19194 net.cpp:425] inception_4e/3x3_reduce <- inception_4d/output_inception_4d/output_0_split_2
I0403 19:14:20.830267 19194 net.cpp:399] inception_4e/3x3_reduce -> inception_4e/3x3_reduce
I0403 19:14:20.832357 19194 net.cpp:141] Setting up inception_4e/3x3_reduce
I0403 19:14:20.832386 19194 net.cpp:148] Top shape: 24 160 14 14 (752640)
I0403 19:14:20.832402 19194 net.cpp:156] Memory required for data: 1221076512
I0403 19:14:20.832422 19194 layer_factory.hpp:77] Creating layer inception_4e/relu_3x3_reduce
I0403 19:14:20.832442 19194 net.cpp:91] Creating Layer inception_4e/relu_3x3_reduce
I0403 19:14:20.832458 19194 net.cpp:425] inception_4e/relu_3x3_reduce <- inception_4e/3x3_reduce
I0403 19:14:20.832476 19194 net.cpp:386] inception_4e/relu_3x3_reduce -> inception_4e/3x3_reduce (in-place)
I0403 19:14:20.832661 19194 net.cpp:141] Setting up inception_4e/relu_3x3_reduce
I0403 19:14:20.832686 19194 net.cpp:148] Top shape: 24 160 14 14 (752640)
I0403 19:14:20.832700 19194 net.cpp:156] Memory required for data: 1224087072
I0403 19:14:20.832715 19194 layer_factory.hpp:77] Creating layer inception_4e/3x3
I0403 19:14:20.832738 19194 net.cpp:91] Creating Layer inception_4e/3x3
I0403 19:14:20.832756 19194 net.cpp:425] inception_4e/3x3 <- inception_4e/3x3_reduce
I0403 19:14:20.832778 19194 net.cpp:399] inception_4e/3x3 -> inception_4e/3x3
I0403 19:14:20.837759 19194 net.cpp:141] Setting up inception_4e/3x3
I0403 19:14:20.837800 19194 net.cpp:148] Top shape: 24 320 14 14 (1505280)
I0403 19:14:20.837816 19194 net.cpp:156] Memory required for data: 1230108192
I0403 19:14:20.837836 19194 layer_factory.hpp:77] Creating layer inception_4e/relu_3x3
I0403 19:14:20.837853 19194 net.cpp:91] Creating Layer inception_4e/relu_3x3
I0403 19:14:20.837870 19194 net.cpp:425] inception_4e/relu_3x3 <- inception_4e/3x3
I0403 19:14:20.837890 19194 net.cpp:386] inception_4e/relu_3x3 -> inception_4e/3x3 (in-place)
I0403 19:14:20.838194 19194 net.cpp:141] Setting up inception_4e/relu_3x3
I0403 19:14:20.838222 19194 net.cpp:148] Top shape: 24 320 14 14 (1505280)
I0403 19:14:20.838238 19194 net.cpp:156] Memory required for data: 1236129312
I0403 19:14:20.838253 19194 layer_factory.hpp:77] Creating layer inception_4e/5x5_reduce
I0403 19:14:20.838275 19194 net.cpp:91] Creating Layer inception_4e/5x5_reduce
I0403 19:14:20.838294 19194 net.cpp:425] inception_4e/5x5_reduce <- inception_4d/output_inception_4d/output_0_split_3
I0403 19:14:20.838315 19194 net.cpp:399] inception_4e/5x5_reduce -> inception_4e/5x5_reduce
I0403 19:14:20.839390 19194 net.cpp:141] Setting up inception_4e/5x5_reduce
I0403 19:14:20.839421 19194 net.cpp:148] Top shape: 24 32 14 14 (150528)
I0403 19:14:20.839437 19194 net.cpp:156] Memory required for data: 1236731424
I0403 19:14:20.839457 19194 layer_factory.hpp:77] Creating layer inception_4e/relu_5x5_reduce
I0403 19:14:20.839475 19194 net.cpp:91] Creating Layer inception_4e/relu_5x5_reduce
I0403 19:14:20.839491 19194 net.cpp:425] inception_4e/relu_5x5_reduce <- inception_4e/5x5_reduce
I0403 19:14:20.839509 19194 net.cpp:386] inception_4e/relu_5x5_reduce -> inception_4e/5x5_reduce (in-place)
I0403 19:14:20.839803 19194 net.cpp:141] Setting up inception_4e/relu_5x5_reduce
I0403 19:14:20.839833 19194 net.cpp:148] Top shape: 24 32 14 14 (150528)
I0403 19:14:20.839849 19194 net.cpp:156] Memory required for data: 1237333536
I0403 19:14:20.839864 19194 layer_factory.hpp:77] Creating layer inception_4e/5x5
I0403 19:14:20.839903 19194 net.cpp:91] Creating Layer inception_4e/5x5
I0403 19:14:20.839923 19194 net.cpp:425] inception_4e/5x5 <- inception_4e/5x5_reduce
I0403 19:14:20.839943 19194 net.cpp:399] inception_4e/5x5 -> inception_4e/5x5
I0403 19:14:20.841783 19194 net.cpp:141] Setting up inception_4e/5x5
I0403 19:14:20.841810 19194 net.cpp:148] Top shape: 24 128 14 14 (602112)
I0403 19:14:20.841825 19194 net.cpp:156] Memory required for data: 1239741984
I0403 19:14:20.841845 19194 layer_factory.hpp:77] Creating layer inception_4e/relu_5x5
I0403 19:14:20.841866 19194 net.cpp:91] Creating Layer inception_4e/relu_5x5
I0403 19:14:20.841882 19194 net.cpp:425] inception_4e/relu_5x5 <- inception_4e/5x5
I0403 19:14:20.841899 19194 net.cpp:386] inception_4e/relu_5x5 -> inception_4e/5x5 (in-place)
I0403 19:14:20.842102 19194 net.cpp:141] Setting up inception_4e/relu_5x5
I0403 19:14:20.842128 19194 net.cpp:148] Top shape: 24 128 14 14 (602112)
I0403 19:14:20.842144 19194 net.cpp:156] Memory required for data: 1242150432
I0403 19:14:20.842159 19194 layer_factory.hpp:77] Creating layer inception_4e/pool
I0403 19:14:20.842176 19194 net.cpp:91] Creating Layer inception_4e/pool
I0403 19:14:20.842193 19194 net.cpp:425] inception_4e/pool <- inception_4d/output_inception_4d/output_0_split_4
I0403 19:14:20.842216 19194 net.cpp:399] inception_4e/pool -> inception_4e/pool
I0403 19:14:20.842285 19194 net.cpp:141] Setting up inception_4e/pool
I0403 19:14:20.842308 19194 net.cpp:148] Top shape: 24 528 14 14 (2483712)
I0403 19:14:20.842324 19194 net.cpp:156] Memory required for data: 1252085280
I0403 19:14:20.842337 19194 layer_factory.hpp:77] Creating layer inception_4e/pool_proj
I0403 19:14:20.842360 19194 net.cpp:91] Creating Layer inception_4e/pool_proj
I0403 19:14:20.842377 19194 net.cpp:425] inception_4e/pool_proj <- inception_4e/pool
I0403 19:14:20.842398 19194 net.cpp:399] inception_4e/pool_proj -> inception_4e/pool_proj
I0403 19:14:20.843961 19194 net.cpp:141] Setting up inception_4e/pool_proj
I0403 19:14:20.844002 19194 net.cpp:148] Top shape: 24 128 14 14 (602112)
I0403 19:14:20.844018 19194 net.cpp:156] Memory required for data: 1254493728
I0403 19:14:20.844038 19194 layer_factory.hpp:77] Creating layer inception_4e/relu_pool_proj
I0403 19:14:20.844058 19194 net.cpp:91] Creating Layer inception_4e/relu_pool_proj
I0403 19:14:20.844076 19194 net.cpp:425] inception_4e/relu_pool_proj <- inception_4e/pool_proj
I0403 19:14:20.844094 19194 net.cpp:386] inception_4e/relu_pool_proj -> inception_4e/pool_proj (in-place)
I0403 19:14:20.844399 19194 net.cpp:141] Setting up inception_4e/relu_pool_proj
I0403 19:14:20.844426 19194 net.cpp:148] Top shape: 24 128 14 14 (602112)
I0403 19:14:20.844441 19194 net.cpp:156] Memory required for data: 1256902176
I0403 19:14:20.844457 19194 layer_factory.hpp:77] Creating layer inception_4e/output
I0403 19:14:20.844475 19194 net.cpp:91] Creating Layer inception_4e/output
I0403 19:14:20.844494 19194 net.cpp:425] inception_4e/output <- inception_4e/1x1
I0403 19:14:20.844511 19194 net.cpp:425] inception_4e/output <- inception_4e/3x3
I0403 19:14:20.844528 19194 net.cpp:425] inception_4e/output <- inception_4e/5x5
I0403 19:14:20.844544 19194 net.cpp:425] inception_4e/output <- inception_4e/pool_proj
I0403 19:14:20.844563 19194 net.cpp:399] inception_4e/output -> inception_4e/output
I0403 19:14:20.844611 19194 net.cpp:141] Setting up inception_4e/output
I0403 19:14:20.844638 19194 net.cpp:148] Top shape: 24 832 14 14 (3913728)
I0403 19:14:20.844655 19194 net.cpp:156] Memory required for data: 1272557088
I0403 19:14:20.844671 19194 layer_factory.hpp:77] Creating layer pool4/3x3_s2
I0403 19:14:20.844687 19194 net.cpp:91] Creating Layer pool4/3x3_s2
I0403 19:14:20.844703 19194 net.cpp:425] pool4/3x3_s2 <- inception_4e/output
I0403 19:14:20.844724 19194 net.cpp:399] pool4/3x3_s2 -> pool4/3x3_s2
I0403 19:14:20.844794 19194 net.cpp:141] Setting up pool4/3x3_s2
I0403 19:14:20.844821 19194 net.cpp:148] Top shape: 24 832 7 7 (978432)
I0403 19:14:20.844838 19194 net.cpp:156] Memory required for data: 1276470816
I0403 19:14:20.844853 19194 layer_factory.hpp:77] Creating layer pool4/3x3_s2_pool4/3x3_s2_0_split
I0403 19:14:20.844871 19194 net.cpp:91] Creating Layer pool4/3x3_s2_pool4/3x3_s2_0_split
I0403 19:14:20.844887 19194 net.cpp:425] pool4/3x3_s2_pool4/3x3_s2_0_split <- pool4/3x3_s2
I0403 19:14:20.844905 19194 net.cpp:399] pool4/3x3_s2_pool4/3x3_s2_0_split -> pool4/3x3_s2_pool4/3x3_s2_0_split_0
I0403 19:14:20.844925 19194 net.cpp:399] pool4/3x3_s2_pool4/3x3_s2_0_split -> pool4/3x3_s2_pool4/3x3_s2_0_split_1
I0403 19:14:20.844954 19194 net.cpp:399] pool4/3x3_s2_pool4/3x3_s2_0_split -> pool4/3x3_s2_pool4/3x3_s2_0_split_2
I0403 19:14:20.844976 19194 net.cpp:399] pool4/3x3_s2_pool4/3x3_s2_0_split -> pool4/3x3_s2_pool4/3x3_s2_0_split_3
I0403 19:14:20.845072 19194 net.cpp:141] Setting up pool4/3x3_s2_pool4/3x3_s2_0_split
I0403 19:14:20.845095 19194 net.cpp:148] Top shape: 24 832 7 7 (978432)
I0403 19:14:20.845113 19194 net.cpp:148] Top shape: 24 832 7 7 (978432)
I0403 19:14:20.845129 19194 net.cpp:148] Top shape: 24 832 7 7 (978432)
I0403 19:14:20.845144 19194 net.cpp:148] Top shape: 24 832 7 7 (978432)
I0403 19:14:20.845158 19194 net.cpp:156] Memory required for data: 1292125728
I0403 19:14:20.845173 19194 layer_factory.hpp:77] Creating layer inception_5a/1x1
I0403 19:14:20.845196 19194 net.cpp:91] Creating Layer inception_5a/1x1
I0403 19:14:20.845214 19194 net.cpp:425] inception_5a/1x1 <- pool4/3x3_s2_pool4/3x3_s2_0_split_0
I0403 19:14:20.845237 19194 net.cpp:399] inception_5a/1x1 -> inception_5a/1x1
I0403 19:14:20.848176 19194 net.cpp:141] Setting up inception_5a/1x1
I0403 19:14:20.848207 19194 net.cpp:148] Top shape: 24 256 7 7 (301056)
I0403 19:14:20.848224 19194 net.cpp:156] Memory required for data: 1293329952
I0403 19:14:20.848242 19194 layer_factory.hpp:77] Creating layer inception_5a/relu_1x1
I0403 19:14:20.848263 19194 net.cpp:91] Creating Layer inception_5a/relu_1x1
I0403 19:14:20.848281 19194 net.cpp:425] inception_5a/relu_1x1 <- inception_5a/1x1
I0403 19:14:20.848299 19194 net.cpp:386] inception_5a/relu_1x1 -> inception_5a/1x1 (in-place)
I0403 19:14:20.848620 19194 net.cpp:141] Setting up inception_5a/relu_1x1
I0403 19:14:20.848647 19194 net.cpp:148] Top shape: 24 256 7 7 (301056)
I0403 19:14:20.848662 19194 net.cpp:156] Memory required for data: 1294534176
I0403 19:14:20.848677 19194 layer_factory.hpp:77] Creating layer inception_5a/3x3_reduce
I0403 19:14:20.848701 19194 net.cpp:91] Creating Layer inception_5a/3x3_reduce
I0403 19:14:20.848719 19194 net.cpp:425] inception_5a/3x3_reduce <- pool4/3x3_s2_pool4/3x3_s2_0_split_1
I0403 19:14:20.848740 19194 net.cpp:399] inception_5a/3x3_reduce -> inception_5a/3x3_reduce
I0403 19:14:20.851258 19194 net.cpp:141] Setting up inception_5a/3x3_reduce
I0403 19:14:20.851287 19194 net.cpp:148] Top shape: 24 160 7 7 (188160)
I0403 19:14:20.851303 19194 net.cpp:156] Memory required for data: 1295286816
I0403 19:14:20.851322 19194 layer_factory.hpp:77] Creating layer inception_5a/relu_3x3_reduce
I0403 19:14:20.851341 19194 net.cpp:91] Creating Layer inception_5a/relu_3x3_reduce
I0403 19:14:20.851359 19194 net.cpp:425] inception_5a/relu_3x3_reduce <- inception_5a/3x3_reduce
I0403 19:14:20.851377 19194 net.cpp:386] inception_5a/relu_3x3_reduce -> inception_5a/3x3_reduce (in-place)
I0403 19:14:20.851562 19194 net.cpp:141] Setting up inception_5a/relu_3x3_reduce
I0403 19:14:20.851588 19194 net.cpp:148] Top shape: 24 160 7 7 (188160)
I0403 19:14:20.851603 19194 net.cpp:156] Memory required for data: 1296039456
I0403 19:14:20.851616 19194 layer_factory.hpp:77] Creating layer inception_5a/3x3
I0403 19:14:20.851639 19194 net.cpp:91] Creating Layer inception_5a/3x3
I0403 19:14:20.851657 19194 net.cpp:425] inception_5a/3x3 <- inception_5a/3x3_reduce
I0403 19:14:20.851680 19194 net.cpp:399] inception_5a/3x3 -> inception_5a/3x3
I0403 19:14:20.856678 19194 net.cpp:141] Setting up inception_5a/3x3
I0403 19:14:20.856706 19194 net.cpp:148] Top shape: 24 320 7 7 (376320)
I0403 19:14:20.856722 19194 net.cpp:156] Memory required for data: 1297544736
I0403 19:14:20.856740 19194 layer_factory.hpp:77] Creating layer inception_5a/relu_3x3
I0403 19:14:20.856760 19194 net.cpp:91] Creating Layer inception_5a/relu_3x3
I0403 19:14:20.856777 19194 net.cpp:425] inception_5a/relu_3x3 <- inception_5a/3x3
I0403 19:14:20.856794 19194 net.cpp:386] inception_5a/relu_3x3 -> inception_5a/3x3 (in-place)
I0403 19:14:20.857084 19194 net.cpp:141] Setting up inception_5a/relu_3x3
I0403 19:14:20.857110 19194 net.cpp:148] Top shape: 24 320 7 7 (376320)
I0403 19:14:20.857125 19194 net.cpp:156] Memory required for data: 1299050016
I0403 19:14:20.857138 19194 layer_factory.hpp:77] Creating layer inception_5a/5x5_reduce
I0403 19:14:20.857161 19194 net.cpp:91] Creating Layer inception_5a/5x5_reduce
I0403 19:14:20.857177 19194 net.cpp:425] inception_5a/5x5_reduce <- pool4/3x3_s2_pool4/3x3_s2_0_split_2
I0403 19:14:20.857198 19194 net.cpp:399] inception_5a/5x5_reduce -> inception_5a/5x5_reduce
I0403 19:14:20.858330 19194 net.cpp:141] Setting up inception_5a/5x5_reduce
I0403 19:14:20.858358 19194 net.cpp:148] Top shape: 24 32 7 7 (37632)
I0403 19:14:20.858373 19194 net.cpp:156] Memory required for data: 1299200544
I0403 19:14:20.858392 19194 layer_factory.hpp:77] Creating layer inception_5a/relu_5x5_reduce
I0403 19:14:20.858410 19194 net.cpp:91] Creating Layer inception_5a/relu_5x5_reduce
I0403 19:14:20.858428 19194 net.cpp:425] inception_5a/relu_5x5_reduce <- inception_5a/5x5_reduce
I0403 19:14:20.858443 19194 net.cpp:386] inception_5a/relu_5x5_reduce -> inception_5a/5x5_reduce (in-place)
I0403 19:14:20.858744 19194 net.cpp:141] Setting up inception_5a/relu_5x5_reduce
I0403 19:14:20.858769 19194 net.cpp:148] Top shape: 24 32 7 7 (37632)
I0403 19:14:20.858783 19194 net.cpp:156] Memory required for data: 1299351072
I0403 19:14:20.858798 19194 layer_factory.hpp:77] Creating layer inception_5a/5x5
I0403 19:14:20.858820 19194 net.cpp:91] Creating Layer inception_5a/5x5
I0403 19:14:20.858837 19194 net.cpp:425] inception_5a/5x5 <- inception_5a/5x5_reduce
I0403 19:14:20.858855 19194 net.cpp:399] inception_5a/5x5 -> inception_5a/5x5
I0403 19:14:20.860545 19194 net.cpp:141] Setting up inception_5a/5x5
I0403 19:14:20.860584 19194 net.cpp:148] Top shape: 24 128 7 7 (150528)
I0403 19:14:20.860600 19194 net.cpp:156] Memory required for data: 1299953184
I0403 19:14:20.860618 19194 layer_factory.hpp:77] Creating layer inception_5a/relu_5x5
I0403 19:14:20.860638 19194 net.cpp:91] Creating Layer inception_5a/relu_5x5
I0403 19:14:20.860654 19194 net.cpp:425] inception_5a/relu_5x5 <- inception_5a/5x5
I0403 19:14:20.860671 19194 net.cpp:386] inception_5a/relu_5x5 -> inception_5a/5x5 (in-place)
I0403 19:14:20.860857 19194 net.cpp:141] Setting up inception_5a/relu_5x5
I0403 19:14:20.860883 19194 net.cpp:148] Top shape: 24 128 7 7 (150528)
I0403 19:14:20.860911 19194 net.cpp:156] Memory required for data: 1300555296
I0403 19:14:20.860929 19194 layer_factory.hpp:77] Creating layer inception_5a/pool
I0403 19:14:20.860949 19194 net.cpp:91] Creating Layer inception_5a/pool
I0403 19:14:20.860980 19194 net.cpp:425] inception_5a/pool <- pool4/3x3_s2_pool4/3x3_s2_0_split_3
I0403 19:14:20.861001 19194 net.cpp:399] inception_5a/pool -> inception_5a/pool
I0403 19:14:20.861074 19194 net.cpp:141] Setting up inception_5a/pool
I0403 19:14:20.861099 19194 net.cpp:148] Top shape: 24 832 7 7 (978432)
I0403 19:14:20.861115 19194 net.cpp:156] Memory required for data: 1304469024
I0403 19:14:20.861130 19194 layer_factory.hpp:77] Creating layer inception_5a/pool_proj
I0403 19:14:20.861153 19194 net.cpp:91] Creating Layer inception_5a/pool_proj
I0403 19:14:20.861171 19194 net.cpp:425] inception_5a/pool_proj <- inception_5a/pool
I0403 19:14:20.861193 19194 net.cpp:399] inception_5a/pool_proj -> inception_5a/pool_proj
I0403 19:14:20.863435 19194 net.cpp:141] Setting up inception_5a/pool_proj
I0403 19:14:20.863464 19194 net.cpp:148] Top shape: 24 128 7 7 (150528)
I0403 19:14:20.863481 19194 net.cpp:156] Memory required for data: 1305071136
I0403 19:14:20.863498 19194 layer_factory.hpp:77] Creating layer inception_5a/relu_pool_proj
I0403 19:14:20.863519 19194 net.cpp:91] Creating Layer inception_5a/relu_pool_proj
I0403 19:14:20.863536 19194 net.cpp:425] inception_5a/relu_pool_proj <- inception_5a/pool_proj
I0403 19:14:20.863553 19194 net.cpp:386] inception_5a/relu_pool_proj -> inception_5a/pool_proj (in-place)
I0403 19:14:20.863839 19194 net.cpp:141] Setting up inception_5a/relu_pool_proj
I0403 19:14:20.863865 19194 net.cpp:148] Top shape: 24 128 7 7 (150528)
I0403 19:14:20.863879 19194 net.cpp:156] Memory required for data: 1305673248
I0403 19:14:20.863906 19194 layer_factory.hpp:77] Creating layer inception_5a/output
I0403 19:14:20.863925 19194 net.cpp:91] Creating Layer inception_5a/output
I0403 19:14:20.863942 19194 net.cpp:425] inception_5a/output <- inception_5a/1x1
I0403 19:14:20.863965 19194 net.cpp:425] inception_5a/output <- inception_5a/3x3
I0403 19:14:20.863981 19194 net.cpp:425] inception_5a/output <- inception_5a/5x5
I0403 19:14:20.863996 19194 net.cpp:425] inception_5a/output <- inception_5a/pool_proj
I0403 19:14:20.864015 19194 net.cpp:399] inception_5a/output -> inception_5a/output
I0403 19:14:20.864070 19194 net.cpp:141] Setting up inception_5a/output
I0403 19:14:20.864094 19194 net.cpp:148] Top shape: 24 832 7 7 (978432)
I0403 19:14:20.864109 19194 net.cpp:156] Memory required for data: 1309586976
I0403 19:14:20.864123 19194 layer_factory.hpp:77] Creating layer inception_5a/output_inception_5a/output_0_split
I0403 19:14:20.864141 19194 net.cpp:91] Creating Layer inception_5a/output_inception_5a/output_0_split
I0403 19:14:20.864156 19194 net.cpp:425] inception_5a/output_inception_5a/output_0_split <- inception_5a/output
I0403 19:14:20.864176 19194 net.cpp:399] inception_5a/output_inception_5a/output_0_split -> inception_5a/output_inception_5a/output_0_split_0
I0403 19:14:20.864210 19194 net.cpp:399] inception_5a/output_inception_5a/output_0_split -> inception_5a/output_inception_5a/output_0_split_1
I0403 19:14:20.864229 19194 net.cpp:399] inception_5a/output_inception_5a/output_0_split -> inception_5a/output_inception_5a/output_0_split_2
I0403 19:14:20.864249 19194 net.cpp:399] inception_5a/output_inception_5a/output_0_split -> inception_5a/output_inception_5a/output_0_split_3
I0403 19:14:20.864361 19194 net.cpp:141] Setting up inception_5a/output_inception_5a/output_0_split
I0403 19:14:20.864383 19194 net.cpp:148] Top shape: 24 832 7 7 (978432)
I0403 19:14:20.864399 19194 net.cpp:148] Top shape: 24 832 7 7 (978432)
I0403 19:14:20.864414 19194 net.cpp:148] Top shape: 24 832 7 7 (978432)
I0403 19:14:20.864428 19194 net.cpp:148] Top shape: 24 832 7 7 (978432)
I0403 19:14:20.864442 19194 net.cpp:156] Memory required for data: 1325241888
I0403 19:14:20.864455 19194 layer_factory.hpp:77] Creating layer inception_5b/1x1
I0403 19:14:20.864480 19194 net.cpp:91] Creating Layer inception_5b/1x1
I0403 19:14:20.864496 19194 net.cpp:425] inception_5b/1x1 <- inception_5a/output_inception_5a/output_0_split_0
I0403 19:14:20.864516 19194 net.cpp:399] inception_5b/1x1 -> inception_5b/1x1
I0403 19:14:20.868177 19194 net.cpp:141] Setting up inception_5b/1x1
I0403 19:14:20.868208 19194 net.cpp:148] Top shape: 24 384 7 7 (451584)
I0403 19:14:20.868224 19194 net.cpp:156] Memory required for data: 1327048224
I0403 19:14:20.868242 19194 layer_factory.hpp:77] Creating layer inception_5b/relu_1x1
I0403 19:14:20.868263 19194 net.cpp:91] Creating Layer inception_5b/relu_1x1
I0403 19:14:20.868279 19194 net.cpp:425] inception_5b/relu_1x1 <- inception_5b/1x1
I0403 19:14:20.868297 19194 net.cpp:386] inception_5b/relu_1x1 -> inception_5b/1x1 (in-place)
I0403 19:14:20.868597 19194 net.cpp:141] Setting up inception_5b/relu_1x1
I0403 19:14:20.868623 19194 net.cpp:148] Top shape: 24 384 7 7 (451584)
I0403 19:14:20.868638 19194 net.cpp:156] Memory required for data: 1328854560
I0403 19:14:20.868651 19194 layer_factory.hpp:77] Creating layer inception_5b/3x3_reduce
I0403 19:14:20.868674 19194 net.cpp:91] Creating Layer inception_5b/3x3_reduce
I0403 19:14:20.868692 19194 net.cpp:425] inception_5b/3x3_reduce <- inception_5a/output_inception_5a/output_0_split_1
I0403 19:14:20.868715 19194 net.cpp:399] inception_5b/3x3_reduce -> inception_5b/3x3_reduce
I0403 19:14:20.871318 19194 net.cpp:141] Setting up inception_5b/3x3_reduce
I0403 19:14:20.871348 19194 net.cpp:148] Top shape: 24 192 7 7 (225792)
I0403 19:14:20.871364 19194 net.cpp:156] Memory required for data: 1329757728
I0403 19:14:20.871382 19194 layer_factory.hpp:77] Creating layer inception_5b/relu_3x3_reduce
I0403 19:14:20.871400 19194 net.cpp:91] Creating Layer inception_5b/relu_3x3_reduce
I0403 19:14:20.871417 19194 net.cpp:425] inception_5b/relu_3x3_reduce <- inception_5b/3x3_reduce
I0403 19:14:20.871436 19194 net.cpp:386] inception_5b/relu_3x3_reduce -> inception_5b/3x3_reduce (in-place)
I0403 19:14:20.871619 19194 net.cpp:141] Setting up inception_5b/relu_3x3_reduce
I0403 19:14:20.871644 19194 net.cpp:148] Top shape: 24 192 7 7 (225792)
I0403 19:14:20.871659 19194 net.cpp:156] Memory required for data: 1330660896
I0403 19:14:20.871673 19194 layer_factory.hpp:77] Creating layer inception_5b/3x3
I0403 19:14:20.871695 19194 net.cpp:91] Creating Layer inception_5b/3x3
I0403 19:14:20.871713 19194 net.cpp:425] inception_5b/3x3 <- inception_5b/3x3_reduce
I0403 19:14:20.871733 19194 net.cpp:399] inception_5b/3x3 -> inception_5b/3x3
I0403 19:14:20.878304 19194 net.cpp:141] Setting up inception_5b/3x3
I0403 19:14:20.878331 19194 net.cpp:148] Top shape: 24 384 7 7 (451584)
I0403 19:14:20.878347 19194 net.cpp:156] Memory required for data: 1332467232
I0403 19:14:20.878365 19194 layer_factory.hpp:77] Creating layer inception_5b/relu_3x3
I0403 19:14:20.878386 19194 net.cpp:91] Creating Layer inception_5b/relu_3x3
I0403 19:14:20.878402 19194 net.cpp:425] inception_5b/relu_3x3 <- inception_5b/3x3
I0403 19:14:20.878419 19194 net.cpp:386] inception_5b/relu_3x3 -> inception_5b/3x3 (in-place)
I0403 19:14:20.878708 19194 net.cpp:141] Setting up inception_5b/relu_3x3
I0403 19:14:20.878733 19194 net.cpp:148] Top shape: 24 384 7 7 (451584)
I0403 19:14:20.878749 19194 net.cpp:156] Memory required for data: 1334273568
I0403 19:14:20.878763 19194 layer_factory.hpp:77] Creating layer inception_5b/5x5_reduce
I0403 19:14:20.878799 19194 net.cpp:91] Creating Layer inception_5b/5x5_reduce
I0403 19:14:20.878818 19194 net.cpp:425] inception_5b/5x5_reduce <- inception_5a/output_inception_5a/output_0_split_2
I0403 19:14:20.878841 19194 net.cpp:399] inception_5b/5x5_reduce -> inception_5b/5x5_reduce
I0403 19:14:20.880080 19194 net.cpp:141] Setting up inception_5b/5x5_reduce
I0403 19:14:20.880107 19194 net.cpp:148] Top shape: 24 48 7 7 (56448)
I0403 19:14:20.880123 19194 net.cpp:156] Memory required for data: 1334499360
I0403 19:14:20.880141 19194 layer_factory.hpp:77] Creating layer inception_5b/relu_5x5_reduce
I0403 19:14:20.880161 19194 net.cpp:91] Creating Layer inception_5b/relu_5x5_reduce
I0403 19:14:20.880177 19194 net.cpp:425] inception_5b/relu_5x5_reduce <- inception_5b/5x5_reduce
I0403 19:14:20.880193 19194 net.cpp:386] inception_5b/relu_5x5_reduce -> inception_5b/5x5_reduce (in-place)
I0403 19:14:20.880556 19194 net.cpp:141] Setting up inception_5b/relu_5x5_reduce
I0403 19:14:20.880581 19194 net.cpp:148] Top shape: 24 48 7 7 (56448)
I0403 19:14:20.880596 19194 net.cpp:156] Memory required for data: 1334725152
I0403 19:14:20.880610 19194 layer_factory.hpp:77] Creating layer inception_5b/5x5
I0403 19:14:20.880630 19194 net.cpp:91] Creating Layer inception_5b/5x5
I0403 19:14:20.880647 19194 net.cpp:425] inception_5b/5x5 <- inception_5b/5x5_reduce
I0403 19:14:20.880666 19194 net.cpp:399] inception_5b/5x5 -> inception_5b/5x5
I0403 19:14:20.882659 19194 net.cpp:141] Setting up inception_5b/5x5
I0403 19:14:20.882688 19194 net.cpp:148] Top shape: 24 128 7 7 (150528)
I0403 19:14:20.882702 19194 net.cpp:156] Memory required for data: 1335327264
I0403 19:14:20.882720 19194 layer_factory.hpp:77] Creating layer inception_5b/relu_5x5
I0403 19:14:20.882740 19194 net.cpp:91] Creating Layer inception_5b/relu_5x5
I0403 19:14:20.882757 19194 net.cpp:425] inception_5b/relu_5x5 <- inception_5b/5x5
I0403 19:14:20.882774 19194 net.cpp:386] inception_5b/relu_5x5 -> inception_5b/5x5 (in-place)
I0403 19:14:20.882966 19194 net.cpp:141] Setting up inception_5b/relu_5x5
I0403 19:14:20.882993 19194 net.cpp:148] Top shape: 24 128 7 7 (150528)
I0403 19:14:20.883008 19194 net.cpp:156] Memory required for data: 1335929376
I0403 19:14:20.883023 19194 layer_factory.hpp:77] Creating layer inception_5b/pool
I0403 19:14:20.883040 19194 net.cpp:91] Creating Layer inception_5b/pool
I0403 19:14:20.883057 19194 net.cpp:425] inception_5b/pool <- inception_5a/output_inception_5a/output_0_split_3
I0403 19:14:20.883077 19194 net.cpp:399] inception_5b/pool -> inception_5b/pool
I0403 19:14:20.883148 19194 net.cpp:141] Setting up inception_5b/pool
I0403 19:14:20.883172 19194 net.cpp:148] Top shape: 24 832 7 7 (978432)
I0403 19:14:20.883186 19194 net.cpp:156] Memory required for data: 1339843104
I0403 19:14:20.883203 19194 layer_factory.hpp:77] Creating layer inception_5b/pool_proj
I0403 19:14:20.883224 19194 net.cpp:91] Creating Layer inception_5b/pool_proj
I0403 19:14:20.883244 19194 net.cpp:425] inception_5b/pool_proj <- inception_5b/pool
I0403 19:14:20.883262 19194 net.cpp:399] inception_5b/pool_proj -> inception_5b/pool_proj
I0403 19:14:20.885519 19194 net.cpp:141] Setting up inception_5b/pool_proj
I0403 19:14:20.885547 19194 net.cpp:148] Top shape: 24 128 7 7 (150528)
I0403 19:14:20.885562 19194 net.cpp:156] Memory required for data: 1340445216
I0403 19:14:20.885581 19194 layer_factory.hpp:77] Creating layer inception_5b/relu_pool_proj
I0403 19:14:20.885601 19194 net.cpp:91] Creating Layer inception_5b/relu_pool_proj
I0403 19:14:20.885617 19194 net.cpp:425] inception_5b/relu_pool_proj <- inception_5b/pool_proj
I0403 19:14:20.885635 19194 net.cpp:386] inception_5b/relu_pool_proj -> inception_5b/pool_proj (in-place)
I0403 19:14:20.885926 19194 net.cpp:141] Setting up inception_5b/relu_pool_proj
I0403 19:14:20.885957 19194 net.cpp:148] Top shape: 24 128 7 7 (150528)
I0403 19:14:20.885972 19194 net.cpp:156] Memory required for data: 1341047328
I0403 19:14:20.885987 19194 layer_factory.hpp:77] Creating layer inception_5b/output
I0403 19:14:20.886006 19194 net.cpp:91] Creating Layer inception_5b/output
I0403 19:14:20.886035 19194 net.cpp:425] inception_5b/output <- inception_5b/1x1
I0403 19:14:20.886054 19194 net.cpp:425] inception_5b/output <- inception_5b/3x3
I0403 19:14:20.886070 19194 net.cpp:425] inception_5b/output <- inception_5b/5x5
I0403 19:14:20.886085 19194 net.cpp:425] inception_5b/output <- inception_5b/pool_proj
I0403 19:14:20.886101 19194 net.cpp:399] inception_5b/output -> inception_5b/output
I0403 19:14:20.886152 19194 net.cpp:141] Setting up inception_5b/output
I0403 19:14:20.886178 19194 net.cpp:148] Top shape: 24 1024 7 7 (1204224)
I0403 19:14:20.886193 19194 net.cpp:156] Memory required for data: 1345864224
I0403 19:14:20.886209 19194 layer_factory.hpp:77] Creating layer pool5/7x7_s1
I0403 19:14:20.886225 19194 net.cpp:91] Creating Layer pool5/7x7_s1
I0403 19:14:20.886241 19194 net.cpp:425] pool5/7x7_s1 <- inception_5b/output
I0403 19:14:20.886261 19194 net.cpp:399] pool5/7x7_s1 -> pool5/7x7_s1
I0403 19:14:20.886471 19194 net.cpp:141] Setting up pool5/7x7_s1
I0403 19:14:20.886497 19194 net.cpp:148] Top shape: 24 1024 1 1 (24576)
I0403 19:14:20.886510 19194 net.cpp:156] Memory required for data: 1345962528
I0403 19:14:20.886525 19194 layer_factory.hpp:77] Creating layer pool5/drop_7x7_s1
I0403 19:14:20.886545 19194 net.cpp:91] Creating Layer pool5/drop_7x7_s1
I0403 19:14:20.886562 19194 net.cpp:425] pool5/drop_7x7_s1 <- pool5/7x7_s1
I0403 19:14:20.886579 19194 net.cpp:386] pool5/drop_7x7_s1 -> pool5/7x7_s1 (in-place)
I0403 19:14:20.886628 19194 net.cpp:141] Setting up pool5/drop_7x7_s1
I0403 19:14:20.886651 19194 net.cpp:148] Top shape: 24 1024 1 1 (24576)
I0403 19:14:20.886665 19194 net.cpp:156] Memory required for data: 1346060832
I0403 19:14:20.886679 19194 layer_factory.hpp:77] Creating layer loss3/classifier_plantvillage
I0403 19:14:20.886700 19194 net.cpp:91] Creating Layer loss3/classifier_plantvillage
I0403 19:14:20.886716 19194 net.cpp:425] loss3/classifier_plantvillage <- pool5/7x7_s1
I0403 19:14:20.886734 19194 net.cpp:399] loss3/classifier_plantvillage -> loss3/classifier_plantvillage
I0403 19:14:20.887174 19194 net.cpp:141] Setting up loss3/classifier_plantvillage
I0403 19:14:20.887199 19194 net.cpp:148] Top shape: 24 38 (912)
I0403 19:14:20.887213 19194 net.cpp:156] Memory required for data: 1346064480
I0403 19:14:20.887233 19194 layer_factory.hpp:77] Creating layer loss3/classifier_plantvillage_loss3/classifier_plantvillage_0_split
I0403 19:14:20.887250 19194 net.cpp:91] Creating Layer loss3/classifier_plantvillage_loss3/classifier_plantvillage_0_split
I0403 19:14:20.887266 19194 net.cpp:425] loss3/classifier_plantvillage_loss3/classifier_plantvillage_0_split <- loss3/classifier_plantvillage
I0403 19:14:20.887295 19194 net.cpp:399] loss3/classifier_plantvillage_loss3/classifier_plantvillage_0_split -> loss3/classifier_plantvillage_loss3/classifier_plantvillage_0_split_0
I0403 19:14:20.887316 19194 net.cpp:399] loss3/classifier_plantvillage_loss3/classifier_plantvillage_0_split -> loss3/classifier_plantvillage_loss3/classifier_plantvillage_0_split_1
I0403 19:14:20.887337 19194 net.cpp:399] loss3/classifier_plantvillage_loss3/classifier_plantvillage_0_split -> loss3/classifier_plantvillage_loss3/classifier_plantvillage_0_split_2
I0403 19:14:20.887358 19194 net.cpp:399] loss3/classifier_plantvillage_loss3/classifier_plantvillage_0_split -> loss3/classifier_plantvillage_loss3/classifier_plantvillage_0_split_3
I0403 19:14:20.887462 19194 net.cpp:141] Setting up loss3/classifier_plantvillage_loss3/classifier_plantvillage_0_split
I0403 19:14:20.887488 19194 net.cpp:148] Top shape: 24 38 (912)
I0403 19:14:20.887506 19194 net.cpp:148] Top shape: 24 38 (912)
I0403 19:14:20.887521 19194 net.cpp:148] Top shape: 24 38 (912)
I0403 19:14:20.887537 19194 net.cpp:148] Top shape: 24 38 (912)
I0403 19:14:20.887552 19194 net.cpp:156] Memory required for data: 1346079072
I0403 19:14:20.887565 19194 layer_factory.hpp:77] Creating layer loss1/loss
I0403 19:14:20.887586 19194 net.cpp:91] Creating Layer loss1/loss
I0403 19:14:20.887603 19194 net.cpp:425] loss1/loss <- loss1/classifier_plantvillage_loss1/classifier_plantvillage_0_split_0
I0403 19:14:20.887634 19194 net.cpp:425] loss1/loss <- label_data_1_split_0
…
