…
I0403 19:11:33.550897 19046 net.cpp:313] The NetState phase (1) differed from the phase (0) specified by a rule in layer data
I0403 19:11:33.552140 19046 net.cpp:49] Initializing net from parameters: 
state {
  phase: TEST
}
layer {
  name: "data"
  type: "Data"
  top: "data"
  top: "label"
  include {
    phase: TEST
  }
  transform_param {
    mirror: false
    crop_size: 224
    mean_file: "/home/mohanty/data/final_dataset/lmdb/segmented-60-40/mean.binaryproto"
  }
  data_param {
    source: "/home/mohanty/data/final_dataset/lmdb/segmented-60-40/test_db"
    batch_size: 24
    backend: LMDB
  }
}
layer {
  name: "conv1/7x7_s2"
  type: "Convolution"
  bottom: "data"
  top: "conv1/7x7_s2"
  param {
    lr_mult: 1
    decay_mult: 1
  }
  param {
    lr_mult: 2
    decay_mult: 0
  }
  convolution_param {
    num_output: 64
    pad: 3
    kernel_size: 7
    stride: 2
    weight_filler {
      type: "xavier"
      std: 0.1
    }
    bias_filler {
      type: "constant"
      value: 0.2
    }
  }
}
layer {
  name: "conv1/relu_7x7"
  type: "ReLU"
  bottom: "conv1/7x7_s2"
  top: "conv1/7x7_s2"
}
layer {
  name: "pool1/3x3_s2"
  type: "Pooling"
  bottom: "conv1/7x7_s2"
  top: "pool1/3x3_s2"
  pooling_param {
    pool: MAX
    kernel_size: 3
    stride: 2
  }
}
layer {
  name: "pool1/norm1"
  type: "LRN"
  bottom: "pool1/3x3_s2"
  top: "pool1/norm1"
  lrn_param {
    local_size: 5
    alpha: 0.0001
    beta: 0.75
  }
}
layer {
  name: "conv2/3x3_reduce"
  type: "Convolution"
  bottom: "pool1/norm1"
  top: "conv2/3x3_reduce"
  param {
    lr_mult: 1
    decay_mult: 1
  }
  param {
    lr_mult: 2
    decay_mult: 0
  }
  convolution_param {
    num_output: 64
    kernel_size: 1
    weight_filler {
      type: "xavier"
      std: 0.1
    }
    bias_filler {
      type: "constant"
      value: 0.2
    }
  }
}
layer {
  name: "conv2/relu_3x3_reduce"
  type: "ReLU"
  bottom: "conv2/3x3_reduce"
  top: "conv2/3x3_reduce"
}
layer {
  name: "conv2/3x3"
  type: "Convolution"
  bottom: "conv2/3x3_reduce"
  top: "conv2/3x3"
  param {
    lr_mult: 1
    decay_mult: 1
  }
  param {
    lr_mult: 2
    decay_mult: 0
  }
  convolution_param {
    num_output: 192
    pad: 1
    kernel_size: 3
    weight_filler {
      type: "xavier"
      std: 0.03
    }
    bias_filler {
      type: "constant"
      value: 0.2
    }
  }
}
layer {
  name: "conv2/relu_3x3"
  type: "ReLU"
  bottom: "conv2/3x3"
  top: "conv2/3x3"
}
layer {
  name: "conv2/norm2"
  type: "LRN"
  bottom: "conv2/3x3"
  top: "conv2/norm2"
  lrn_param {
    local_size: 5
    alpha: 0.0001
    beta: 0.75
  }
}
layer {
  name: "pool2/3x3_s2"
  type: "Pooling"
  bottom: "conv2/norm2"
  top: "pool2/3x3_s2"
  pooling_param {
    pool: MAX
    kernel_size: 3
    stride: 2
  }
}
layer {
  name: "inception_3a/1x1"
  type: "Convolution"
  bottom: "pool2/3x3_s2"
  top: "inception_3a/1x1"
  param {
    lr_mult: 1
    decay_mult: 1
  }
  param {
    lr_mult: 2
    decay_mult: 0
  }
  convolution_param {
    num_output: 64
    kernel_size: 1
    weight_filler {
      type: "xavier"
      std: 0.03
    }
    bias_filler {
      type: "constant"
      value: 0.2
    }
  }
}
layer {
  name: "inception_3a/relu_1x1"
  type: "ReLU"
  bottom: "inception_3a/1x1"
  top: "inception_3a/1x1"
}
layer {
  name: "inception_3a/3x3_reduce"
  type: "Convolution"
  bottom: "pool2/3x3_s2"
  top: "inception_3a/3x3_reduce"
  param {
    lr_mult: 1
    decay_mult: 1
  }
  param {
    lr_mult: 2
    decay_mult: 0
  }
  convolution_param {
    num_output: 96
    kernel_size: 1
    weight_filler {
      type: "xavier"
      std: 0.09
    }
    bias_filler {
      type: "constant"
      value: 0.2
    }
  }
}
layer {
  name: "inception_3a/relu_3x3_reduce"
  type: "ReLU"
  bottom: "inception_3a/3x3_reduce"
  top: "inception_3a/3x3_reduce"
}
layer {
  name: "inception_3a/3x3"
  type: "Convolution"
  bottom: "inception_3a/3x3_reduce"
  top: "inception_3a/3x3"
  param {
    lr_mult: 1
    decay_mult: 1
  }
  param {
    lr_mult: 2
    decay_mult: 0
  }
  convolution_param {
    num_output: 128
    pad: 1
    kernel_size: 3
    weight_filler {
      type: "xavier"
      std: 0.03
    }
    bias_filler {
      type: "constant"
      value: 0.2
    }
  }
}
layer {
  name: "inception_3a/relu_3x3"
  type: "ReLU"
  bottom: "inception_3a/3x3"
  top: "inception_3a/3x3"
}
layer {
  name: "inception_3a/5x5_reduce"
  type: "Convolution"
  bottom: "pool2/3x3_s2"
  top: "inception_3a/5x5_reduce"
  param {
    lr_mult: 1
    decay_mult: 1
  }
  param {
    lr_mult: 2
    decay_mult: 0
  }
  convolution_param {
    num_output: 16
    kernel_size: 1
    weight_filler {
      type: "xavier"
      std: 0.2
    }
    bias_filler {
      type: "constant"
      value: 0.2
    }
  }
}
layer {
  name: "inception_3a/relu_5x5_reduce"
  type: "ReLU"
  bottom: "inception_3a/5x5_reduce"
  top: "inception_3a/5x5_reduce"
}
layer {
  name: "inception_3a/5x5"
  type: "Convolution"
  bottom: "inception_3a/5x5_reduce"
  top: "inception_3a/5x5"
  param {
    lr_mult: 1
    decay_mult: 1
  }
  param {
    lr_mult: 2
    decay_mult: 0
  }
  convolution_param {
    num_output: 32
    pad: 2
    kernel_size: 5
    weight_filler {
      type: "xavier"
      std: 0.03
    }
    bias_filler {
      type: "constant"
      value: 0.2
    }
  }
}
layer {
  name: "inception_3a/relu_5x5"
  type: "ReLU"
  bottom: "inception_3a/5x5"
  top: "inception_3a/5x5"
}
layer {
  name: "inception_3a/pool"
  type: "Pooling"
  bottom: "pool2/3x3_s2"
  top: "inception_3a/pool"
  pooling_param {
    pool: MAX
    kernel_size: 3
    stride: 1
    pad: 1
  }
}
layer {
  name: "inception_3a/pool_proj"
  type: "Convolution"
  bottom: "inception_3a/pool"
  top: "inception_3a/pool_proj"
  param {
    lr_mult: 1
    decay_mult: 1
  }
  param {
    lr_mult: 2
    decay_mult: 0
  }
  convolution_param {
    num_output: 32
    kernel_size: 1
    weight_filler {
      type: "xavier"
      std: 0.1
    }
    bias_filler {
      type: "constant"
      value: 0.2
    }
  }
}
layer {
  name: "inception_3a/relu_pool_proj"
  type: "ReLU"
  bottom: "inception_3a/pool_proj"
  top: "inception_3a/pool_proj"
}
layer {
  name: "inception_3a/output"
  type: "Concat"
  bottom: "inception_3a/1x1"
  bottom: "inception_3a/3x3"
  bottom: "inception_3a/5x5"
  bottom: "inception_3a/pool_proj"
  top: "inception_3a/output"
}
layer {
  name: "inception_3b/1x1"
  type: "Convolution"
  bottom: "inception_3a/output"
  top: "inception_3b/1x1"
  param {
    lr_mult: 1
    decay_mult: 1
  }
  param {
    lr_mult: 2
    decay_mult: 0
  }
  convolution_param {
    num_output: 128
    kernel_size: 1
    weight_filler {
      type: "xavier"
      std: 0.03
    }
    bias_filler {
      type: "constant"
      value: 0.2
    }
  }
}
layer {
  name: "inception_3b/relu_1x1"
  type: "ReLU"
  bottom: "inception_3b/1x1"
  top: "inception_3b/1x1"
}
layer {
  name: "inception_3b/3x3_reduce"
  type: "Convolution"
  bottom: "inception_3a/output"
  top: "inception_3b/3x3_reduce"
  param {
    lr_mult: 1
    decay_mult: 1
  }
  param {
    lr_mult: 2
    decay_mult: 0
  }
  convolution_param {
    num_output: 128
    kernel_size: 1
    weight_filler {
      type: "xavier"
      std: 0.09
    }
    bias_filler {
      type: "constant"
      value: 0.2
    }
  }
}
layer {
  name: "inception_3b/relu_3x3_reduce"
  type: "ReLU"
  bottom: "inception_3b/3x3_reduce"
  top: "inception_3b/3x3_reduce"
}
layer {
  name: "inception_3b/3x3"
  type: "Convolution"
  bottom: "inception_3b/3x3_reduce"
  top: "inception_3b/3x3"
  param {
    lr_mult: 1
    decay_mult: 1
  }
  param {
    lr_mult: 2
    decay_mult: 0
  }
  convolution_param {
    num_output: 192
    pad: 1
    kernel_size: 3
    weight_filler {
      type: "xavier"
      std: 0.03
    }
    bias_filler {
      type: "constant"
      value: 0.2
    }
  }
}
layer {
  name: "inception_3b/relu_3x3"
  type: "ReLU"
  bottom: "inception_3b/3x3"
  top: "inception_3b/3x3"
}
layer {
  name: "inception_3b/5x5_reduce"
  type: "Convolution"
  bottom: "inception_3a/output"
  top: "inception_3b/5x5_reduce"
  param {
    lr_mult: 1
    decay_mult: 1
  }
  param {
    lr_mult: 2
    decay_mult: 0
  }
  convolution_param {
    num_output: 32
    kernel_size: 1
    weight_filler {
      type: "xavier"
      std: 0.2
    }
    bias_filler {
      type: "constant"
      value: 0.2
    }
  }
}
layer {
  name: "inception_3b/relu_5x5_reduce"
  type: "ReLU"
  bottom: "inception_3b/5x5_reduce"
  top: "inception_3b/5x5_reduce"
}
layer {
  name: "inception_3b/5x5"
  type: "Convolution"
  bottom: "inception_3b/5x5_reduce"
  top: "inception_3b/5x5"
  param {
    lr_mult: 1
    decay_mult: 1
  }
  param {
    lr_mult: 2
    decay_mult: 0
  }
  convolution_param {
    num_output: 96
    pad: 2
    kernel_size: 5
    weight_filler {
      type: "xavier"
      std: 0.03
    }
    bias_filler {
      type: "constant"
      value: 0.2
    }
  }
}
layer {
  name: "inception_3b/relu_5x5"
  type: "ReLU"
  bottom: "inception_3b/5x5"
  top: "inception_3b/5x5"
}
layer {
  name: "inception_3b/pool"
  type: "Pooling"
  bottom: "inception_3a/output"
  top: "inception_3b/pool"
  pooling_param {
    pool: MAX
    kernel_size: 3
    stride: 1
    pad: 1
  }
}
layer {
  name: "inception_3b/pool_proj"
  type: "Convolution"
  bottom: "inception_3b/pool"
  top: "inception_3b/pool_proj"
  param {
    lr_mult: 1
    decay_mult: 1
  }
  param {
    lr_mult: 2
    decay_mult: 0
  }
  convolution_param {
    num_output: 64
    kernel_size: 1
    weight_filler {
      type: "xavier"
      std: 0.1
    }
    bias_filler {
      type: "constant"
      value: 0.2
    }
  }
}
layer {
  name: "inception_3b/relu_pool_proj"
  type: "ReLU"
  bottom: "inception_3b/pool_proj"
  top: "inception_3b/pool_proj"
}
layer {
  name: "inception_3b/output"
  type: "Concat"
  bottom: "inception_3b/1x1"
  bottom: "inception_3b/3x3"
  bottom: "inception_3b/5x5"
  bottom: "inception_3b/pool_proj"
  top: "inception_3b/output"
}
layer {
  name: "pool3/3x3_s2"
  type: "Pooling"
  bottom: "inception_3b/output"
  top: "pool3/3x3_s2"
  pooling_param {
    pool: MAX
    kernel_size: 3
    stride: 2
  }
}
layer {
  name: "inception_4a/1x1"
  type: "Convolution"
  bottom: "pool3/3x3_s2"
  top: "inception_4a/1x1"
  param {
    lr_mult: 1
    decay_mult: 1
  }
  param {
    lr_mult: 2
    decay_mult: 0
  }
  convolution_param {
    num_output: 192
    kernel_size: 1
    weight_filler {
      type: "xavier"
      std: 0.03
    }
    bias_filler {
      type: "constant"
      value: 0.2
    }
  }
}
layer {
  name: "inception_4a/relu_1x1"
  type: "ReLU"
  bottom: "inception_4a/1x1"
  top: "inception_4a/1x1"
}
layer {
  name: "inception_4a/3x3_reduce"
  type: "Convolution"
  bottom: "pool3/3x3_s2"
  top: "inception_4a/3x3_reduce"
  param {
    lr_mult: 1
    decay_mult: 1
  }
  param {
    lr_mult: 2
    decay_mult: 0
  }
  convolution_param {
    num_output: 96
    kernel_size: 1
    weight_filler {
      type: "xavier"
      std: 0.09
    }
    bias_filler {
      type: "constant"
      value: 0.2
    }
  }
}
layer {
  name: "inception_4a/relu_3x3_reduce"
  type: "ReLU"
  bottom: "inception_4a/3x3_reduce"
  top: "inception_4a/3x3_reduce"
}
layer {
  name: "inception_4a/3x3"
  type: "Convolution"
  bottom: "inception_4a/3x3_reduce"
  top: "inception_4a/3x3"
  param {
    lr_mult: 1
    decay_mult: 1
  }
  param {
    lr_mult: 2
    decay_mult: 0
  }
  convolution_param {
    num_output: 208
    pad: 1
    kernel_size: 3
    weight_filler {
      type: "xavier"
      std: 0.03
    }
    bias_filler {
      type: "constant"
      value: 0.2
    }
  }
}
layer {
  name: "inception_4a/relu_3x3"
  type: "ReLU"
  bottom: "inception_4a/3x3"
  top: "inception_4a/3x3"
}
layer {
  name: "inception_4a/5x5_reduce"
  type: "Convolution"
  bottom: "pool3/3x3_s2"
  top: "inception_4a/5x5_reduce"
  param {
    lr_mult: 1
    decay_mult: 1
  }
  param {
    lr_mult: 2
    decay_mult: 0
  }
  convolution_param {
    num_output: 16
    kernel_size: 1
    weight_filler {
      type: "xavier"
      std: 0.2
    }
    bias_filler {
      type: "constant"
      value: 0.2
    }
  }
}
layer {
  name: "inception_4a/relu_5x5_reduce"
  type: "ReLU"
  bottom: "inception_4a/5x5_reduce"
  top: "inception_4a/5x5_reduce"
}
layer {
  name: "inception_4a/5x5"
  type: "Convolution"
  bottom: "inception_4a/5x5_reduce"
  top: "inception_4a/5x5"
  param {
    lr_mult: 1
    decay_mult: 1
  }
  param {
    lr_mult: 2
    decay_mult: 0
  }
  convolution_param {
    num_output: 48
    pad: 2
    kernel_size: 5
    weight_filler {
      type: "xavier"
      std: 0.03
    }
    bias_filler {
      type: "constant"
      value: 0.2
    }
  }
}
layer {
  name: "inception_4a/relu_5x5"
  type: "ReLU"
  bottom: "inception_4a/5x5"
  top: "inception_4a/5x5"
}
layer {
  name: "inception_4a/pool"
  type: "Pooling"
  bottom: "pool3/3x3_s2"
  top: "inception_4a/pool"
  pooling_param {
    pool: MAX
    kernel_size: 3
    stride: 1
    pad: 1
  }
}
layer {
  name: "inception_4a/pool_proj"
  type: "Convolution"
  bottom: "inception_4a/pool"
  top: "inception_4a/pool_proj"
  param {
    lr_mult: 1
    decay_mult: 1
  }
  param {
    lr_mult: 2
    decay_mult: 0
  }
  convolution_param {
    num_output: 64
    kernel_size: 1
    weight_filler {
      type: "xavier"
      std: 0.1
    }
    bias_filler {
      type: "constant"
      value: 0.2
    }
  }
}
layer {
  name: "inception_4a/relu_pool_proj"
  type: "ReLU"
  bottom: "inception_4a/pool_proj"
  top: "inception_4a/pool_proj"
}
layer {
  name: "inception_4a/output"
  type: "Concat"
  bottom: "inception_4a/1x1"
  bottom: "inception_4a/3x3"
  bottom: "inception_4a/5x5"
  bottom: "inception_4a/pool_proj"
  top: "inception_4a/output"
}
layer {
  name: "loss1/ave_pool"
  type: "Pooling"
  bottom: "inception_4a/output"
  top: "loss1/ave_pool"
  pooling_param {
    pool: AVE
    kernel_size: 5
    stride: 3
  }
}
layer {
  name: "loss1/conv"
  type: "Convolution"
  bottom: "loss1/ave_pool"
  top: "loss1/conv"
  param {
    lr_mult: 1
    decay_mult: 1
  }
  param {
    lr_mult: 2
    decay_mult: 0
  }
  convolution_param {
    num_output: 128
    kernel_size: 1
    weight_filler {
      type: "xavier"
      std: 0.08
    }
    bias_filler {
      type: "constant"
      value: 0.2
    }
  }
}
layer {
  name: "loss1/relu_conv"
  type: "ReLU"
  bottom: "loss1/conv"
  top: "loss1/conv"
}
layer {
  name: "loss1/fc"
  type: "InnerProduct"
  bottom: "loss1/conv"
  top: "loss1/fc"
  param {
    lr_mult: 1
    decay_mult: 1
  }
  param {
    lr_mult: 2
    decay_mult: 0
  }
  inner_product_param {
    num_output: 1024
    weight_filler {
      type: "xavier"
      std: 0.02
    }
    bias_filler {
      type: "constant"
      value: 0.2
    }
  }
}
layer {
  name: "loss1/relu_fc"
  type: "ReLU"
  bottom: "loss1/fc"
  top: "loss1/fc"
}
layer {
  name: "loss1/drop_fc"
  type: "Dropout"
  bottom: "loss1/fc"
  top: "loss1/fc"
  dropout_param {
    dropout_ratio: 0.7
  }
}
layer {
  name: "loss1/classifier_plantvillage"
  type: "InnerProduct"
  bottom: "loss1/fc"
  top: "loss1/classifier_plantvillage"
  param {
    lr_mult: 1
    decay_mult: 1
  }
  param {
    lr_mult: 2
    decay_mult: 0
  }
  inner_product_param {
    num_output: 38
    weight_filler {
      type: "xavier"
      std: 0.0009765625
    }
    bias_filler {
      type: "constant"
      value: 0
    }
  }
}
layer {
  name: "inception_4b/1x1"
  type: "Convolution"
  bottom: "inception_4a/output"
  top: "inception_4b/1x1"
  param {
    lr_mult: 1
    decay_mult: 1
  }
  param {
    lr_mult: 2
    decay_mult: 0
  }
  convolution_param {
    num_output: 160
    kernel_size: 1
    weight_filler {
      type: "xavier"
      std: 0.03
    }
    bias_filler {
      type: "constant"
      value: 0.2
    }
  }
}
layer {
  name: "inception_4b/relu_1x1"
  type: "ReLU"
  bottom: "inception_4b/1x1"
  top: "inception_4b/1x1"
}
layer {
  name: "inception_4b/3x3_reduce"
  type: "Convolution"
  bottom: "inception_4a/output"
  top: "inception_4b/3x3_reduce"
  param {
    lr_mult: 1
    decay_mult: 1
  }
  param {
    lr_mult: 2
    decay_mult: 0
  }
  convolution_param {
    num_output: 112
    kernel_size: 1
    weight_filler {
      type: "xavier"
      std: 0.09
    }
    bias_filler {
      type: "constant"
      value: 0.2
    }
  }
}
layer {
  name: "inception_4b/relu_3x3_reduce"
  type: "ReLU"
  bottom: "inception_4b/3x3_reduce"
  top: "inception_4b/3x3_reduce"
}
layer {
  name: "inception_4b/3x3"
  type: "Convolution"
  bottom: "inception_4b/3x3_reduce"
  top: "inception_4b/3x3"
  param {
    lr_mult: 1
    decay_mult: 1
  }
  param {
    lr_mult: 2
    decay_mult: 0
  }
  convolution_param {
    num_output: 224
    pad: 1
    kernel_size: 3
    weight_filler {
      type: "xavier"
      std: 0.03
    }
    bias_filler {
      type: "constant"
      value: 0.2
    }
  }
}
layer {
  name: "inception_4b/relu_3x3"
  type: "ReLU"
  bottom: "inception_4b/3x3"
  top: "inception_4b/3x3"
}
layer {
  name: "inception_4b/5x5_reduce"
  type: "Convolution"
  bottom: "inception_4a/output"
  top: "inception_4b/5x5_reduce"
  param {
    lr_mult: 1
    decay_mult: 1
  }
  param {
    lr_mult: 2
    decay_mult: 0
  }
  convolution_param {
    num_output: 24
    kernel_size: 1
    weight_filler {
      type: "xavier"
      std: 0.2
    }
    bias_filler {
      type: "constant"
      value: 0.2
    }
  }
}
layer {
  name: "inception_4b/relu_5x5_reduce"
  type: "ReLU"
  bottom: "inception_4b/5x5_reduce"
  top: "inception_4b/5x5_reduce"
}
layer {
  name: "inception_4b/5x5"
  type: "Convolution"
  bottom: "inception_4b/5x5_reduce"
  top: "inception_4b/5x5"
  param {
    lr_mult: 1
    decay_mult: 1
  }
  param {
    lr_mult: 2
    decay_mult: 0
  }
  convolution_param {
    num_output: 64
    pad: 2
    kernel_size: 5
    weight_filler {
      type: "xavier"
      std: 0.03
    }
    bias_filler {
      type: "constant"
      value: 0.2
    }
  }
}
layer {
  name: "inception_4b/relu_5x5"
  type: "ReLU"
  bottom: "inception_4b/5x5"
  top: "inception_4b/5x5"
}
layer {
  name: "inception_4b/pool"
  type: "Pooling"
  bottom: "inception_4a/output"
  top: "inception_4b/pool"
  pooling_param {
    pool: MAX
    kernel_size: 3
    stride: 1
    pad: 1
  }
}
layer {
  name: "inception_4b/pool_proj"
  type: "Convolution"
  bottom: "inception_4b/pool"
  top: "inception_4b/pool_proj"
  param {
    lr_mult: 1
    decay_mult: 1
  }
  param {
    lr_mult: 2
    decay_mult: 0
  }
  convolution_param {
    num_output: 64
    kernel_size: 1
    weight_filler {
      type: "xavier"
      std: 0.1
    }
    bias_filler {
      type: "constant"
      value: 0.2
    }
  }
}
layer {
  name: "inception_4b/relu_pool_proj"
  type: "ReLU"
  bottom: "inception_4b/pool_proj"
  top: "inception_4b/pool_proj"
}
layer {
  name: "inception_4b/output"
  type: "Concat"
  bottom: "inception_4b/1x1"
  bottom: "inception_4b/3x3"
  bottom: "inception_4b/5x5"
  bottom: "inception_4b/pool_proj"
  top: "inception_4b/output"
}
layer {
  name: "inception_4c/1x1"
  type: "Convolution"
  bottom: "inception_4b/output"
  top: "inception_4c/1x1"
  param {
    lr_mult: 1
    decay_mult: 1
  }
  param {
    lr_mult: 2
    decay_mult: 0
  }
  convolution_param {
    num_output: 128
    kernel_size: 1
    weight_filler {
      type: "xavier"
      std: 0.03
    }
    bias_filler {
      type: "constant"
      value: 0.2
    }
  }
}
layer {
  name: "inception_4c/relu_1x1"
  type: "ReLU"
  bottom: "inception_4c/1x1"
  top: "inception_4c/1x1"
}
layer {
  name: "inception_4c/3x3_reduce"
  type: "Convolution"
  bottom: "inception_4b/output"
  top: "inception_4c/3x3_reduce"
  param {
    lr_mult: 1
    decay_mult: 1
  }
  param {
    lr_mult: 2
    decay_mult: 0
  }
  convolution_param {
    num_output: 128
    kernel_size: 1
    weight_filler {
      type: "xavier"
      std: 0.09
    }
    bias_filler {
      type: "constant"
      value: 0.2
    }
  }
}
layer {
  name: "inception_4c/relu_3x3_reduce"
  type: "ReLU"
  bottom: "inception_4c/3x3_reduce"
  top: "inception_4c/3x3_reduce"
}
layer {
  name: "inception_4c/3x3"
  type: "Convolution"
  bottom: "inception_4c/3x3_reduce"
  top: "inception_4c/3x3"
  param {
    lr_mult: 1
    decay_mult: 1
  }
  param {
    lr_mult: 2
    decay_mult: 0
  }
  convolution_param {
    num_output: 256
    pad: 1
    kernel_size: 3
    weight_filler {
      type: "xavier"
      std: 0.03
    }
    bias_filler {
      type: "constant"
      value: 0.2
    }
  }
}
layer {
  name: "inception_4c/relu_3x3"
  type: "ReLU"
  bottom: "inception_4c/3x3"
  top: "inception_4c/3x3"
}
layer {
  name: "inception_4c/5x5_reduce"
  type: "Convolution"
  bottom: "inception_4b/output"
  top: "inception_4c/5x5_reduce"
  param {
    lr_mult: 1
    decay_mult: 1
  }
  param {
    lr_mult: 2
    decay_mult: 0
  }
  convolution_param {
    num_output: 24
    kernel_size: 1
    weight_filler {
      type: "xavier"
      std: 0.2
    }
    bias_filler {
      type: "constant"
      value: 0.2
    }
  }
}
layer {
  name: "inception_4c/relu_5x5_reduce"
  type: "ReLU"
  bottom: "inception_4c/5x5_reduce"
  top: "inception_4c/5x5_reduce"
}
layer {
  name: "inception_4c/5x5"
  type: "Convolution"
  bottom: "inception_4c/5x5_reduce"
  top: "inception_4c/5x5"
  param {
    lr_mult: 1
    decay_mult: 1
  }
  param {
    lr_mult: 2
    decay_mult: 0
  }
  convolution_param {
    num_output: 64
    pad: 2
    kernel_size: 5
    weight_filler {
      type: "xavier"
      std: 0.03
    }
    bias_filler {
      type: "constant"
      value: 0.2
    }
  }
}
layer {
  name: "inception_4c/relu_5x5"
  type: "ReLU"
  bottom: "inception_4c/5x5"
  top: "inception_4c/5x5"
}
layer {
  name: "inception_4c/pool"
  type: "Pooling"
  bottom: "inception_4b/output"
  top: "inception_4c/pool"
  pooling_param {
    pool: MAX
    kernel_size: 3
    stride: 1
    pad: 1
  }
}
layer {
  name: "inception_4c/pool_proj"
  type: "Convolution"
  bottom: "inception_4c/pool"
  top: "inception_4c/pool_proj"
  param {
    lr_mult: 1
    decay_mult: 1
  }
  param {
    lr_mult: 2
    decay_mult: 0
  }
  convolution_param {
    num_output: 64
    kernel_size: 1
    weight_filler {
      type: "xavier"
      std: 0.1
    }
    bias_filler {
      type: "constant"
      value: 0.2
    }
  }
}
layer {
  name: "inception_4c/relu_pool_proj"
  type: "ReLU"
  bottom: "inception_4c/pool_proj"
  top: "inception_4c/pool_proj"
}
layer {
  name: "inception_4c/output"
  type: "Concat"
  bottom: "inception_4c/1x1"
  bottom: "inception_4c/3x3"
  bottom: "inception_4c/5x5"
  bottom: "inception_4c/pool_proj"
  top: "inception_4c/output"
}
layer {
  name: "inception_4d/1x1"
  type: "Convolution"
  bottom: "inception_4c/output"
  top: "inception_4d/1x1"
  param {
    lr_mult: 1
    decay_mult: 1
  }
  param {
    lr_mult: 2
    decay_mult: 0
  }
  convolution_param {
    num_output: 112
    kernel_size: 1
    weight_filler {
      type: "xavier"
      std: 0.03
    }
    bias_filler {
      type: "constant"
      value: 0.2
    }
  }
}
layer {
  name: "inception_4d/relu_1x1"
  type: "ReLU"
  bottom: "inception_4d/1x1"
  top: "inception_4d/1x1"
}
layer {
  name: "inception_4d/3x3_reduce"
  type: "Convolution"
  bottom: "inception_4c/output"
  top: "inception_4d/3x3_reduce"
  param {
    lr_mult: 1
    decay_mult: 1
  }
  param {
    lr_mult: 2
    decay_mult: 0
  }
  convolution_param {
    num_output: 144
    kernel_size: 1
    weight_filler {
      type: "xavier"
      std: 0.09
    }
    bias_filler {
      type: "constant"
      value: 0.2
    }
  }
}
layer {
  name: "inception_4d/relu_3x3_reduce"
  type: "ReLU"
  bottom: "inception_4d/3x3_reduce"
  top: "inception_4d/3x3_reduce"
}
layer {
  name: "inception_4d/3x3"
  type: "Convolution"
  bottom: "inception_4d/3x3_reduce"
  top: "inception_4d/3x3"
  param {
    lr_mult: 1
    decay_mult: 1
  }
  param {
    lr_mult: 2
    decay_mult: 0
  }
  convolution_param {
    num_output: 288
    pad: 1
    kernel_size: 3
    weight_filler {
      type: "xavier"
      std: 0.03
    }
    bias_filler {
      type: "constant"
      value: 0.2
    }
  }
}
layer {
  name: "inception_4d/relu_3x3"
  type: "ReLU"
  bottom: "inception_4d/3x3"
  top: "inception_4d/3x3"
}
layer {
  name: "inception_4d/5x5_reduce"
  type: "Convolution"
  bottom: "inception_4c/output"
  top: "inception_4d/5x5_reduce"
  param {
    lr_mult: 1
    decay_mult: 1
  }
  param {
    lr_mult: 2
    decay_mult: 0
  }
  convolution_param {
    num_output: 32
    kernel_size: 1
    weight_filler {
      type: "xavier"
      std: 0.2
    }
    bias_filler {
      type: "constant"
      value: 0.2
    }
  }
}
layer {
  name: "inception_4d/relu_5x5_reduce"
  type: "ReLU"
  bottom: "inception_4d/5x5_reduce"
  top: "inception_4d/5x5_reduce"
}
layer {
  name: "inception_4d/5x5"
  type: "Convolution"
  bottom: "inception_4d/5x5_reduce"
  top: "inception_4d/5x5"
  param {
    lr_mult: 1
    decay_mult: 1
  }
  param {
    lr_mult: 2
    decay_mult: 0
  }
  convolution_param {
    num_output: 64
    pad: 2
    kernel_size: 5
    weight_filler {
      type: "xavier"
      std: 0.03
    }
    bias_filler {
      type: "constant"
      value: 0.2
    }
  }
}
layer {
  name: "inception_4d/relu_5x5"
  type: "ReLU"
  bottom: "inception_4d/5x5"
  top: "inception_4d/5x5"
}
layer {
  name: "inception_4d/pool"
  type: "Pooling"
  bottom: "inception_4c/output"
  top: "inception_4d/pool"
  pooling_param {
    pool: MAX
    kernel_size: 3
    stride: 1
    pad: 1
  }
}
layer {
  name: "inception_4d/pool_proj"
  type: "Convolution"
  bottom: "inception_4d/pool"
  top: "inception_4d/pool_proj"
  param {
    lr_mult: 1
    decay_mult: 1
  }
  param {
    lr_mult: 2
    decay_mult: 0
  }
  convolution_param {
    num_output: 64
    kernel_size: 1
    weight_filler {
      type: "xavier"
      std: 0.1
    }
    bias_filler {
      type: "constant"
      value: 0.2
    }
  }
}
layer {
  name: "inception_4d/relu_pool_proj"
  type: "ReLU"
  bottom: "inception_4d/pool_proj"
  top: "inception_4d/pool_proj"
}
layer {
  name: "inception_4d/output"
  type: "Concat"
  bottom: "inception_4d/1x1"
  bottom: "inception_4d/3x3"
  bottom: "inception_4d/5x5"
  bottom: "inception_4d/pool_proj"
  top: "inception_4d/output"
}
layer {
  name: "loss2/ave_pool"
  type: "Pooling"
  bottom: "inception_4d/output"
  top: "loss2/ave_pool"
  pooling_param {
    pool: AVE
    kernel_size: 5
    stride: 3
  }
}
layer {
  name: "loss2/conv"
  type: "Convolution"
  bottom: "loss2/ave_pool"
  top: "loss2/conv"
  param {
    lr_mult: 1
    decay_mult: 1
  }
  param {
    lr_mult: 2
    decay_mult: 0
  }
  convolution_param {
    num_output: 128
    kernel_size: 1
    weight_filler {
      type: "xavier"
      std: 0.08
    }
    bias_filler {
      type: "constant"
      value: 0.2
    }
  }
}
layer {
  name: "loss2/relu_conv"
  type: "ReLU"
  bottom: "loss2/conv"
  top: "loss2/conv"
}
layer {
  name: "loss2/fc"
  type: "InnerProduct"
  bottom: "loss2/conv"
  top: "loss2/fc"
  param {
    lr_mult: 1
    decay_mult: 1
  }
  param {
    lr_mult: 2
    decay_mult: 0
  }
  inner_product_param {
    num_output: 1024
    weight_filler {
      type: "xavier"
      std: 0.02
    }
    bias_filler {
      type: "constant"
      value: 0.2
    }
  }
}
layer {
  name: "loss2/relu_fc"
  type: "ReLU"
  bottom: "loss2/fc"
  top: "loss2/fc"
}
layer {
  name: "loss2/drop_fc"
  type: "Dropout"
  bottom: "loss2/fc"
  top: "loss2/fc"
  dropout_param {
    dropout_ratio: 0.7
  }
}
layer {
  name: "loss2/classifier_plantvillage"
  type: "InnerProduct"
  bottom: "loss2/fc"
  top: "loss2/classifier_plantvillage"
  param {
    lr_mult: 1
    decay_mult: 1
  }
  param {
    lr_mult: 2
    decay_mult: 0
  }
  inner_product_param {
    num_output: 38
    weight_filler {
      type: "xavier"
      std: 0.0009765625
    }
    bias_filler {
      type: "constant"
      value: 0
    }
  }
}
layer {
  name: "inception_4e/1x1"
  type: "Convolution"
  bottom: "inception_4d/output"
  top: "inception_4e/1x1"
  param {
    lr_mult: 1
    decay_mult: 1
  }
  param {
    lr_mult: 2
    decay_mult: 0
  }
  convolution_param {
    num_output: 256
    kernel_size: 1
    weight_filler {
      type: "xavier"
      std: 0.03
    }
    bias_filler {
      type: "constant"
      value: 0.2
    }
  }
}
layer {
  name: "inception_4e/relu_1x1"
  type: "ReLU"
  bottom: "inception_4e/1x1"
  top: "inception_4e/1x1"
}
layer {
  name: "inception_4e/3x3_reduce"
  type: "Convolution"
  bottom: "inception_4d/output"
  top: "inception_4e/3x3_reduce"
  param {
    lr_mult: 1
    decay_mult: 1
  }
  param {
    lr_mult: 2
    decay_mult: 0
  }
  convolution_param {
    num_output: 160
    kernel_size: 1
    weight_filler {
      type: "xavier"
      std: 0.09
    }
    bias_filler {
      type: "constant"
      value: 0.2
    }
  }
}
layer {
  name: "inception_4e/relu_3x3_reduce"
  type: "ReLU"
  bottom: "inception_4e/3x3_reduce"
  top: "inception_4e/3x3_reduce"
}
layer {
  name: "inception_4e/3x3"
  type: "Convolution"
  bottom: "inception_4e/3x3_reduce"
  top: "inception_4e/3x3"
  param {
    lr_mult: 1
    decay_mult: 1
  }
  param {
    lr_mult: 2
    decay_mult: 0
  }
  convolution_param {
    num_output: 320
    pad: 1
    kernel_size: 3
    weight_filler {
      type: "xavier"
      std: 0.03
    }
    bias_filler {
      type: "constant"
      value: 0.2
    }
  }
}
layer {
  name: "inception_4e/relu_3x3"
  type: "ReLU"
  bottom: "inception_4e/3x3"
  top: "inception_4e/3x3"
}
layer {
  name: "inception_4e/5x5_reduce"
  type: "Convolution"
  bottom: "inception_4d/output"
  top: "inception_4e/5x5_reduce"
  param {
    lr_mult: 1
    decay_mult: 1
  }
  param {
    lr_mult: 2
    decay_mult: 0
  }
  convolution_param {
    num_output: 32
    kernel_size: 1
    weight_filler {
      type: "xavier"
      std: 0.2
    }
    bias_filler {
      type: "constant"
      value: 0.2
    }
  }
}
layer {
  name: "inception_4e/relu_5x5_reduce"
  type: "ReLU"
  bottom: "inception_4e/5x5_reduce"
  top: "inception_4e/5x5_reduce"
}
layer {
  name: "inception_4e/5x5"
  type: "Convolution"
  bottom: "inception_4e/5x5_reduce"
  top: "inception_4e/
I0403 19:11:33.553354 19046 layer_factory.hpp:77] Creating layer data
I0403 19:11:33.553966 19046 net.cpp:91] Creating Layer data
I0403 19:11:33.554008 19046 net.cpp:399] data -> data
I0403 19:11:33.554059 19046 net.cpp:399] data -> label
I0403 19:11:33.554095 19046 data_transformer.cpp:25] Loading mean file from: /home/mohanty/data/final_dataset/lmdb/segmented-60-40/mean.binaryproto
I0403 19:11:33.555253 19048 db_lmdb.cpp:38] Opened lmdb /home/mohanty/data/final_dataset/lmdb/segmented-60-40/test_db
I0403 19:11:33.567013 19046 data_layer.cpp:41] output data size: 24,3,224,224
I0403 19:11:33.593771 19046 net.cpp:141] Setting up data
I0403 19:11:33.593859 19046 net.cpp:148] Top shape: 24 3 224 224 (3612672)
I0403 19:11:33.593881 19046 net.cpp:148] Top shape: 24 (24)
I0403 19:11:33.593896 19046 net.cpp:156] Memory required for data: 14450784
I0403 19:11:33.593924 19046 layer_factory.hpp:77] Creating layer label_data_1_split
I0403 19:11:33.593950 19046 net.cpp:91] Creating Layer label_data_1_split
I0403 19:11:33.593967 19046 net.cpp:425] label_data_1_split <- label
I0403 19:11:33.594002 19046 net.cpp:399] label_data_1_split -> label_data_1_split_0
I0403 19:11:33.594029 19046 net.cpp:399] label_data_1_split -> label_data_1_split_1
I0403 19:11:33.594050 19046 net.cpp:399] label_data_1_split -> label_data_1_split_2
I0403 19:11:33.594071 19046 net.cpp:399] label_data_1_split -> label_data_1_split_3
I0403 19:11:33.594090 19046 net.cpp:399] label_data_1_split -> label_data_1_split_4
I0403 19:11:33.594110 19046 net.cpp:399] label_data_1_split -> label_data_1_split_5
I0403 19:11:33.594130 19046 net.cpp:399] label_data_1_split -> label_data_1_split_6
I0403 19:11:33.594149 19046 net.cpp:399] label_data_1_split -> label_data_1_split_7
I0403 19:11:33.594168 19046 net.cpp:399] label_data_1_split -> label_data_1_split_8
I0403 19:11:33.594188 19046 net.cpp:399] label_data_1_split -> label_data_1_split_9
I0403 19:11:33.594302 19046 net.cpp:141] Setting up label_data_1_split
I0403 19:11:33.594326 19046 net.cpp:148] Top shape: 24 (24)
I0403 19:11:33.594341 19046 net.cpp:148] Top shape: 24 (24)
I0403 19:11:33.594357 19046 net.cpp:148] Top shape: 24 (24)
I0403 19:11:33.594372 19046 net.cpp:148] Top shape: 24 (24)
I0403 19:11:33.594386 19046 net.cpp:148] Top shape: 24 (24)
I0403 19:11:33.594401 19046 net.cpp:148] Top shape: 24 (24)
I0403 19:11:33.594416 19046 net.cpp:148] Top shape: 24 (24)
I0403 19:11:33.594432 19046 net.cpp:148] Top shape: 24 (24)
I0403 19:11:33.594447 19046 net.cpp:148] Top shape: 24 (24)
I0403 19:11:33.594462 19046 net.cpp:148] Top shape: 24 (24)
I0403 19:11:33.594506 19046 net.cpp:156] Memory required for data: 14451744
I0403 19:11:33.594521 19046 layer_factory.hpp:77] Creating layer conv1/7x7_s2
I0403 19:11:33.594552 19046 net.cpp:91] Creating Layer conv1/7x7_s2
I0403 19:11:33.594569 19046 net.cpp:425] conv1/7x7_s2 <- data
I0403 19:11:33.594588 19046 net.cpp:399] conv1/7x7_s2 -> conv1/7x7_s2
I0403 19:11:33.732470 19046 net.cpp:141] Setting up conv1/7x7_s2
I0403 19:11:33.732554 19046 net.cpp:148] Top shape: 24 64 112 112 (19267584)
I0403 19:11:33.732571 19046 net.cpp:156] Memory required for data: 91522080
I0403 19:11:33.732601 19046 layer_factory.hpp:77] Creating layer conv1/relu_7x7
I0403 19:11:33.732630 19046 net.cpp:91] Creating Layer conv1/relu_7x7
I0403 19:11:33.732648 19046 net.cpp:425] conv1/relu_7x7 <- conv1/7x7_s2
I0403 19:11:33.732666 19046 net.cpp:386] conv1/relu_7x7 -> conv1/7x7_s2 (in-place)
I0403 19:11:33.732935 19046 net.cpp:141] Setting up conv1/relu_7x7
I0403 19:11:33.732960 19046 net.cpp:148] Top shape: 24 64 112 112 (19267584)
I0403 19:11:33.732975 19046 net.cpp:156] Memory required for data: 168592416
I0403 19:11:33.732995 19046 layer_factory.hpp:77] Creating layer pool1/3x3_s2
I0403 19:11:33.733021 19046 net.cpp:91] Creating Layer pool1/3x3_s2
I0403 19:11:33.733038 19046 net.cpp:425] pool1/3x3_s2 <- conv1/7x7_s2
I0403 19:11:33.733057 19046 net.cpp:399] pool1/3x3_s2 -> pool1/3x3_s2
I0403 19:11:33.733134 19046 net.cpp:141] Setting up pool1/3x3_s2
I0403 19:11:33.733156 19046 net.cpp:148] Top shape: 24 64 56 56 (4816896)
I0403 19:11:33.733170 19046 net.cpp:156] Memory required for data: 187860000
I0403 19:11:33.733185 19046 layer_factory.hpp:77] Creating layer pool1/norm1
I0403 19:11:33.733209 19046 net.cpp:91] Creating Layer pool1/norm1
I0403 19:11:33.733227 19046 net.cpp:425] pool1/norm1 <- pool1/3x3_s2
I0403 19:11:33.733243 19046 net.cpp:399] pool1/norm1 -> pool1/norm1
I0403 19:11:33.733535 19046 net.cpp:141] Setting up pool1/norm1
I0403 19:11:33.733562 19046 net.cpp:148] Top shape: 24 64 56 56 (4816896)
I0403 19:11:33.733577 19046 net.cpp:156] Memory required for data: 207127584
I0403 19:11:33.733592 19046 layer_factory.hpp:77] Creating layer conv2/3x3_reduce
I0403 19:11:33.733618 19046 net.cpp:91] Creating Layer conv2/3x3_reduce
I0403 19:11:33.733634 19046 net.cpp:425] conv2/3x3_reduce <- pool1/norm1
I0403 19:11:33.733652 19046 net.cpp:399] conv2/3x3_reduce -> conv2/3x3_reduce
I0403 19:11:33.735033 19046 net.cpp:141] Setting up conv2/3x3_reduce
I0403 19:11:33.735060 19046 net.cpp:148] Top shape: 24 64 56 56 (4816896)
I0403 19:11:33.735076 19046 net.cpp:156] Memory required for data: 226395168
I0403 19:11:33.735096 19046 layer_factory.hpp:77] Creating layer conv2/relu_3x3_reduce
I0403 19:11:33.735115 19046 net.cpp:91] Creating Layer conv2/relu_3x3_reduce
I0403 19:11:33.735129 19046 net.cpp:425] conv2/relu_3x3_reduce <- conv2/3x3_reduce
I0403 19:11:33.735148 19046 net.cpp:386] conv2/relu_3x3_reduce -> conv2/3x3_reduce (in-place)
I0403 19:11:33.735406 19046 net.cpp:141] Setting up conv2/relu_3x3_reduce
I0403 19:11:33.735431 19046 net.cpp:148] Top shape: 24 64 56 56 (4816896)
I0403 19:11:33.735446 19046 net.cpp:156] Memory required for data: 245662752
I0403 19:11:33.735460 19046 layer_factory.hpp:77] Creating layer conv2/3x3
I0403 19:11:33.735483 19046 net.cpp:91] Creating Layer conv2/3x3
I0403 19:11:33.735501 19046 net.cpp:425] conv2/3x3 <- conv2/3x3_reduce
I0403 19:11:33.735522 19046 net.cpp:399] conv2/3x3 -> conv2/3x3
I0403 19:11:33.737720 19046 net.cpp:141] Setting up conv2/3x3
I0403 19:11:33.737748 19046 net.cpp:148] Top shape: 24 192 56 56 (14450688)
I0403 19:11:33.737764 19046 net.cpp:156] Memory required for data: 303465504
I0403 19:11:33.737784 19046 layer_factory.hpp:77] Creating layer conv2/relu_3x3
I0403 19:11:33.737804 19046 net.cpp:91] Creating Layer conv2/relu_3x3
I0403 19:11:33.737820 19046 net.cpp:425] conv2/relu_3x3 <- conv2/3x3
I0403 19:11:33.737838 19046 net.cpp:386] conv2/relu_3x3 -> conv2/3x3 (in-place)
I0403 19:11:33.738010 19046 net.cpp:141] Setting up conv2/relu_3x3
I0403 19:11:33.738036 19046 net.cpp:148] Top shape: 24 192 56 56 (14450688)
I0403 19:11:33.738080 19046 net.cpp:156] Memory required for data: 361268256
I0403 19:11:33.738096 19046 layer_factory.hpp:77] Creating layer conv2/norm2
I0403 19:11:33.738113 19046 net.cpp:91] Creating Layer conv2/norm2
I0403 19:11:33.738129 19046 net.cpp:425] conv2/norm2 <- conv2/3x3
I0403 19:11:33.738150 19046 net.cpp:399] conv2/norm2 -> conv2/norm2
I0403 19:11:33.738445 19046 net.cpp:141] Setting up conv2/norm2
I0403 19:11:33.738471 19046 net.cpp:148] Top shape: 24 192 56 56 (14450688)
I0403 19:11:33.738486 19046 net.cpp:156] Memory required for data: 419071008
I0403 19:11:33.738499 19046 layer_factory.hpp:77] Creating layer pool2/3x3_s2
I0403 19:11:33.738517 19046 net.cpp:91] Creating Layer pool2/3x3_s2
I0403 19:11:33.738531 19046 net.cpp:425] pool2/3x3_s2 <- conv2/norm2
I0403 19:11:33.738551 19046 net.cpp:399] pool2/3x3_s2 -> pool2/3x3_s2
I0403 19:11:33.738601 19046 net.cpp:141] Setting up pool2/3x3_s2
I0403 19:11:33.738623 19046 net.cpp:148] Top shape: 24 192 28 28 (3612672)
I0403 19:11:33.738637 19046 net.cpp:156] Memory required for data: 433521696
I0403 19:11:33.738651 19046 layer_factory.hpp:77] Creating layer pool2/3x3_s2_pool2/3x3_s2_0_split
I0403 19:11:33.738670 19046 net.cpp:91] Creating Layer pool2/3x3_s2_pool2/3x3_s2_0_split
I0403 19:11:33.738687 19046 net.cpp:425] pool2/3x3_s2_pool2/3x3_s2_0_split <- pool2/3x3_s2
I0403 19:11:33.738703 19046 net.cpp:399] pool2/3x3_s2_pool2/3x3_s2_0_split -> pool2/3x3_s2_pool2/3x3_s2_0_split_0
I0403 19:11:33.738725 19046 net.cpp:399] pool2/3x3_s2_pool2/3x3_s2_0_split -> pool2/3x3_s2_pool2/3x3_s2_0_split_1
I0403 19:11:33.738745 19046 net.cpp:399] pool2/3x3_s2_pool2/3x3_s2_0_split -> pool2/3x3_s2_pool2/3x3_s2_0_split_2
I0403 19:11:33.738765 19046 net.cpp:399] pool2/3x3_s2_pool2/3x3_s2_0_split -> pool2/3x3_s2_pool2/3x3_s2_0_split_3
I0403 19:11:33.738831 19046 net.cpp:141] Setting up pool2/3x3_s2_pool2/3x3_s2_0_split
I0403 19:11:33.738852 19046 net.cpp:148] Top shape: 24 192 28 28 (3612672)
I0403 19:11:33.738868 19046 net.cpp:148] Top shape: 24 192 28 28 (3612672)
I0403 19:11:33.738883 19046 net.cpp:148] Top shape: 24 192 28 28 (3612672)
I0403 19:11:33.738898 19046 net.cpp:148] Top shape: 24 192 28 28 (3612672)
I0403 19:11:33.738910 19046 net.cpp:156] Memory required for data: 491324448
I0403 19:11:33.738924 19046 layer_factory.hpp:77] Creating layer inception_3a/1x1
I0403 19:11:33.738945 19046 net.cpp:91] Creating Layer inception_3a/1x1
I0403 19:11:33.738961 19046 net.cpp:425] inception_3a/1x1 <- pool2/3x3_s2_pool2/3x3_s2_0_split_0
I0403 19:11:33.738991 19046 net.cpp:399] inception_3a/1x1 -> inception_3a/1x1
I0403 19:11:33.740552 19046 net.cpp:141] Setting up inception_3a/1x1
I0403 19:11:33.740582 19046 net.cpp:148] Top shape: 24 64 28 28 (1204224)
I0403 19:11:33.740598 19046 net.cpp:156] Memory required for data: 496141344
I0403 19:11:33.740617 19046 layer_factory.hpp:77] Creating layer inception_3a/relu_1x1
I0403 19:11:33.740638 19046 net.cpp:91] Creating Layer inception_3a/relu_1x1
I0403 19:11:33.740653 19046 net.cpp:425] inception_3a/relu_1x1 <- inception_3a/1x1
I0403 19:11:33.740670 19046 net.cpp:386] inception_3a/relu_1x1 -> inception_3a/1x1 (in-place)
I0403 19:11:33.740844 19046 net.cpp:141] Setting up inception_3a/relu_1x1
I0403 19:11:33.740869 19046 net.cpp:148] Top shape: 24 64 28 28 (1204224)
I0403 19:11:33.740883 19046 net.cpp:156] Memory required for data: 500958240
I0403 19:11:33.740898 19046 layer_factory.hpp:77] Creating layer inception_3a/3x3_reduce
I0403 19:11:33.740919 19046 net.cpp:91] Creating Layer inception_3a/3x3_reduce
I0403 19:11:33.740938 19046 net.cpp:425] inception_3a/3x3_reduce <- pool2/3x3_s2_pool2/3x3_s2_0_split_1
I0403 19:11:33.740957 19046 net.cpp:399] inception_3a/3x3_reduce -> inception_3a/3x3_reduce
I0403 19:11:33.742625 19046 net.cpp:141] Setting up inception_3a/3x3_reduce
I0403 19:11:33.742655 19046 net.cpp:148] Top shape: 24 96 28 28 (1806336)
I0403 19:11:33.742671 19046 net.cpp:156] Memory required for data: 508183584
I0403 19:11:33.742691 19046 layer_factory.hpp:77] Creating layer inception_3a/relu_3x3_reduce
I0403 19:11:33.742727 19046 net.cpp:91] Creating Layer inception_3a/relu_3x3_reduce
I0403 19:11:33.742745 19046 net.cpp:425] inception_3a/relu_3x3_reduce <- inception_3a/3x3_reduce
I0403 19:11:33.742763 19046 net.cpp:386] inception_3a/relu_3x3_reduce -> inception_3a/3x3_reduce (in-place)
I0403 19:11:33.742946 19046 net.cpp:141] Setting up inception_3a/relu_3x3_reduce
I0403 19:11:33.742970 19046 net.cpp:148] Top shape: 24 96 28 28 (1806336)
I0403 19:11:33.742990 19046 net.cpp:156] Memory required for data: 515408928
I0403 19:11:33.743005 19046 layer_factory.hpp:77] Creating layer inception_3a/3x3
I0403 19:11:33.743028 19046 net.cpp:91] Creating Layer inception_3a/3x3
I0403 19:11:33.743046 19046 net.cpp:425] inception_3a/3x3 <- inception_3a/3x3_reduce
I0403 19:11:33.743069 19046 net.cpp:399] inception_3a/3x3 -> inception_3a/3x3
I0403 19:11:33.744731 19046 net.cpp:141] Setting up inception_3a/3x3
I0403 19:11:33.744760 19046 net.cpp:148] Top shape: 24 128 28 28 (2408448)
I0403 19:11:33.744776 19046 net.cpp:156] Memory required for data: 525042720
I0403 19:11:33.744793 19046 layer_factory.hpp:77] Creating layer inception_3a/relu_3x3
I0403 19:11:33.744813 19046 net.cpp:91] Creating Layer inception_3a/relu_3x3
I0403 19:11:33.744829 19046 net.cpp:425] inception_3a/relu_3x3 <- inception_3a/3x3
I0403 19:11:33.744846 19046 net.cpp:386] inception_3a/relu_3x3 -> inception_3a/3x3 (in-place)
I0403 19:11:33.745126 19046 net.cpp:141] Setting up inception_3a/relu_3x3
I0403 19:11:33.745151 19046 net.cpp:148] Top shape: 24 128 28 28 (2408448)
I0403 19:11:33.745165 19046 net.cpp:156] Memory required for data: 534676512
I0403 19:11:33.745180 19046 layer_factory.hpp:77] Creating layer inception_3a/5x5_reduce
I0403 19:11:33.745203 19046 net.cpp:91] Creating Layer inception_3a/5x5_reduce
I0403 19:11:33.745219 19046 net.cpp:425] inception_3a/5x5_reduce <- pool2/3x3_s2_pool2/3x3_s2_0_split_2
I0403 19:11:33.745239 19046 net.cpp:399] inception_3a/5x5_reduce -> inception_3a/5x5_reduce
I0403 19:11:33.746201 19046 net.cpp:141] Setting up inception_3a/5x5_reduce
I0403 19:11:33.746229 19046 net.cpp:148] Top shape: 24 16 28 28 (301056)
I0403 19:11:33.746244 19046 net.cpp:156] Memory required for data: 535880736
I0403 19:11:33.746263 19046 layer_factory.hpp:77] Creating layer inception_3a/relu_5x5_reduce
I0403 19:11:33.746282 19046 net.cpp:91] Creating Layer inception_3a/relu_5x5_reduce
I0403 19:11:33.746299 19046 net.cpp:425] inception_3a/relu_5x5_reduce <- inception_3a/5x5_reduce
I0403 19:11:33.746316 19046 net.cpp:386] inception_3a/relu_5x5_reduce -> inception_3a/5x5_reduce (in-place)
I0403 19:11:33.746619 19046 net.cpp:141] Setting up inception_3a/relu_5x5_reduce
I0403 19:11:33.746647 19046 net.cpp:148] Top shape: 24 16 28 28 (301056)
I0403 19:11:33.746664 19046 net.cpp:156] Memory required for data: 537084960
I0403 19:11:33.746678 19046 layer_factory.hpp:77] Creating layer inception_3a/5x5
I0403 19:11:33.746701 19046 net.cpp:91] Creating Layer inception_3a/5x5
I0403 19:11:33.746718 19046 net.cpp:425] inception_3a/5x5 <- inception_3a/5x5_reduce
I0403 19:11:33.746737 19046 net.cpp:399] inception_3a/5x5 -> inception_3a/5x5
I0403 19:11:33.747756 19046 net.cpp:141] Setting up inception_3a/5x5
I0403 19:11:33.747782 19046 net.cpp:148] Top shape: 24 32 28 28 (602112)
I0403 19:11:33.747798 19046 net.cpp:156] Memory required for data: 539493408
I0403 19:11:33.747817 19046 layer_factory.hpp:77] Creating layer inception_3a/relu_5x5
I0403 19:11:33.747836 19046 net.cpp:91] Creating Layer inception_3a/relu_5x5
I0403 19:11:33.747853 19046 net.cpp:425] inception_3a/relu_5x5 <- inception_3a/5x5
I0403 19:11:33.747870 19046 net.cpp:386] inception_3a/relu_5x5 -> inception_3a/5x5 (in-place)
I0403 19:11:33.748045 19046 net.cpp:141] Setting up inception_3a/relu_5x5
I0403 19:11:33.748070 19046 net.cpp:148] Top shape: 24 32 28 28 (602112)
I0403 19:11:33.748085 19046 net.cpp:156] Memory required for data: 541901856
I0403 19:11:33.748098 19046 layer_factory.hpp:77] Creating layer inception_3a/pool
I0403 19:11:33.748118 19046 net.cpp:91] Creating Layer inception_3a/pool
I0403 19:11:33.748148 19046 net.cpp:425] inception_3a/pool <- pool2/3x3_s2_pool2/3x3_s2_0_split_3
I0403 19:11:33.748167 19046 net.cpp:399] inception_3a/pool -> inception_3a/pool
I0403 19:11:33.748225 19046 net.cpp:141] Setting up inception_3a/pool
I0403 19:11:33.748248 19046 net.cpp:148] Top shape: 24 192 28 28 (3612672)
I0403 19:11:33.748262 19046 net.cpp:156] Memory required for data: 556352544
I0403 19:11:33.748276 19046 layer_factory.hpp:77] Creating layer inception_3a/pool_proj
I0403 19:11:33.748298 19046 net.cpp:91] Creating Layer inception_3a/pool_proj
I0403 19:11:33.748314 19046 net.cpp:425] inception_3a/pool_proj <- inception_3a/pool
I0403 19:11:33.748335 19046 net.cpp:399] inception_3a/pool_proj -> inception_3a/pool_proj
I0403 19:11:33.749323 19046 net.cpp:141] Setting up inception_3a/pool_proj
I0403 19:11:33.749354 19046 net.cpp:148] Top shape: 24 32 28 28 (602112)
I0403 19:11:33.749371 19046 net.cpp:156] Memory required for data: 558760992
I0403 19:11:33.749392 19046 layer_factory.hpp:77] Creating layer inception_3a/relu_pool_proj
I0403 19:11:33.749444 19046 net.cpp:91] Creating Layer inception_3a/relu_pool_proj
I0403 19:11:33.749462 19046 net.cpp:425] inception_3a/relu_pool_proj <- inception_3a/pool_proj
I0403 19:11:33.749491 19046 net.cpp:386] inception_3a/relu_pool_proj -> inception_3a/pool_proj (in-place)
I0403 19:11:33.749779 19046 net.cpp:141] Setting up inception_3a/relu_pool_proj
I0403 19:11:33.749805 19046 net.cpp:148] Top shape: 24 32 28 28 (602112)
I0403 19:11:33.749819 19046 net.cpp:156] Memory required for data: 561169440
I0403 19:11:33.749835 19046 layer_factory.hpp:77] Creating layer inception_3a/output
I0403 19:11:33.749855 19046 net.cpp:91] Creating Layer inception_3a/output
I0403 19:11:33.749871 19046 net.cpp:425] inception_3a/output <- inception_3a/1x1
I0403 19:11:33.749887 19046 net.cpp:425] inception_3a/output <- inception_3a/3x3
I0403 19:11:33.749903 19046 net.cpp:425] inception_3a/output <- inception_3a/5x5
I0403 19:11:33.749919 19046 net.cpp:425] inception_3a/output <- inception_3a/pool_proj
I0403 19:11:33.749935 19046 net.cpp:399] inception_3a/output -> inception_3a/output
I0403 19:11:33.749987 19046 net.cpp:141] Setting up inception_3a/output
I0403 19:11:33.750010 19046 net.cpp:148] Top shape: 24 256 28 28 (4816896)
I0403 19:11:33.750025 19046 net.cpp:156] Memory required for data: 580437024
I0403 19:11:33.750039 19046 layer_factory.hpp:77] Creating layer inception_3a/output_inception_3a/output_0_split
I0403 19:11:33.750056 19046 net.cpp:91] Creating Layer inception_3a/output_inception_3a/output_0_split
I0403 19:11:33.750072 19046 net.cpp:425] inception_3a/output_inception_3a/output_0_split <- inception_3a/output
I0403 19:11:33.750094 19046 net.cpp:399] inception_3a/output_inception_3a/output_0_split -> inception_3a/output_inception_3a/output_0_split_0
I0403 19:11:33.750115 19046 net.cpp:399] inception_3a/output_inception_3a/output_0_split -> inception_3a/output_inception_3a/output_0_split_1
I0403 19:11:33.750138 19046 net.cpp:399] inception_3a/output_inception_3a/output_0_split -> inception_3a/output_inception_3a/output_0_split_2
I0403 19:11:33.750157 19046 net.cpp:399] inception_3a/output_inception_3a/output_0_split -> inception_3a/output_inception_3a/output_0_split_3
I0403 19:11:33.750231 19046 net.cpp:141] Setting up inception_3a/output_inception_3a/output_0_split
I0403 19:11:33.750253 19046 net.cpp:148] Top shape: 24 256 28 28 (4816896)
I0403 19:11:33.750270 19046 net.cpp:148] Top shape: 24 256 28 28 (4816896)
I0403 19:11:33.750285 19046 net.cpp:148] Top shape: 24 256 28 28 (4816896)
I0403 19:11:33.750301 19046 net.cpp:148] Top shape: 24 256 28 28 (4816896)
I0403 19:11:33.750314 19046 net.cpp:156] Memory required for data: 657507360
I0403 19:11:33.750329 19046 layer_factory.hpp:77] Creating layer inception_3b/1x1
I0403 19:11:33.750351 19046 net.cpp:91] Creating Layer inception_3b/1x1
I0403 19:11:33.750368 19046 net.cpp:425] inception_3b/1x1 <- inception_3a/output_inception_3a/output_0_split_0
I0403 19:11:33.750388 19046 net.cpp:399] inception_3b/1x1 -> inception_3b/1x1
I0403 19:11:33.751518 19046 net.cpp:141] Setting up inception_3b/1x1
I0403 19:11:33.751559 19046 net.cpp:148] Top shape: 24 128 28 28 (2408448)
I0403 19:11:33.751574 19046 net.cpp:156] Memory required for data: 667141152
I0403 19:11:33.751593 19046 layer_factory.hpp:77] Creating layer inception_3b/relu_1x1
I0403 19:11:33.751611 19046 net.cpp:91] Creating Layer inception_3b/relu_1x1
I0403 19:11:33.751627 19046 net.cpp:425] inception_3b/relu_1x1 <- inception_3b/1x1
I0403 19:11:33.751647 19046 net.cpp:386] inception_3b/relu_1x1 -> inception_3b/1x1 (in-place)
I0403 19:11:33.751822 19046 net.cpp:141] Setting up inception_3b/relu_1x1
I0403 19:11:33.751847 19046 net.cpp:148] Top shape: 24 128 28 28 (2408448)
I0403 19:11:33.751863 19046 net.cpp:156] Memory required for data: 676774944
I0403 19:11:33.751876 19046 layer_factory.hpp:77] Creating layer inception_3b/3x3_reduce
I0403 19:11:33.751899 19046 net.cpp:91] Creating Layer inception_3b/3x3_reduce
I0403 19:11:33.751916 19046 net.cpp:425] inception_3b/3x3_reduce <- inception_3a/output_inception_3a/output_0_split_1
I0403 19:11:33.751936 19046 net.cpp:399] inception_3b/3x3_reduce -> inception_3b/3x3_reduce
I0403 19:11:33.753101 19046 net.cpp:141] Setting up inception_3b/3x3_reduce
I0403 19:11:33.753129 19046 net.cpp:148] Top shape: 24 128 28 28 (2408448)
I0403 19:11:33.753144 19046 net.cpp:156] Memory required for data: 686408736
I0403 19:11:33.753162 19046 layer_factory.hpp:77] Creating layer inception_3b/relu_3x3_reduce
I0403 19:11:33.753180 19046 net.cpp:91] Creating Layer inception_3b/relu_3x3_reduce
I0403 19:11:33.753196 19046 net.cpp:425] inception_3b/relu_3x3_reduce <- inception_3b/3x3_reduce
I0403 19:11:33.753214 19046 net.cpp:386] inception_3b/relu_3x3_reduce -> inception_3b/3x3_reduce (in-place)
I0403 19:11:33.753386 19046 net.cpp:141] Setting up inception_3b/relu_3x3_reduce
I0403 19:11:33.753409 19046 net.cpp:148] Top shape: 24 128 28 28 (2408448)
I0403 19:11:33.753423 19046 net.cpp:156] Memory required for data: 696042528
I0403 19:11:33.753438 19046 layer_factory.hpp:77] Creating layer inception_3b/3x3
I0403 19:11:33.753465 19046 net.cpp:91] Creating Layer inception_3b/3x3
I0403 19:11:33.753482 19046 net.cpp:425] inception_3b/3x3 <- inception_3b/3x3_reduce
I0403 19:11:33.753501 19046 net.cpp:399] inception_3b/3x3 -> inception_3b/3x3
I0403 19:11:33.756379 19046 net.cpp:141] Setting up inception_3b/3x3
I0403 19:11:33.756408 19046 net.cpp:148] Top shape: 24 192 28 28 (3612672)
I0403 19:11:33.756424 19046 net.cpp:156] Memory required for data: 710493216
I0403 19:11:33.756443 19046 layer_factory.hpp:77] Creating layer inception_3b/relu_3x3
I0403 19:11:33.756463 19046 net.cpp:91] Creating Layer inception_3b/relu_3x3
I0403 19:11:33.756479 19046 net.cpp:425] inception_3b/relu_3x3 <- inception_3b/3x3
I0403 19:11:33.756496 19046 net.cpp:386] inception_3b/relu_3x3 -> inception_3b/3x3 (in-place)
I0403 19:11:33.756769 19046 net.cpp:141] Setting up inception_3b/relu_3x3
I0403 19:11:33.756795 19046 net.cpp:148] Top shape: 24 192 28 28 (3612672)
I0403 19:11:33.756811 19046 net.cpp:156] Memory required for data: 724943904
I0403 19:11:33.756825 19046 layer_factory.hpp:77] Creating layer inception_3b/5x5_reduce
I0403 19:11:33.756847 19046 net.cpp:91] Creating Layer inception_3b/5x5_reduce
I0403 19:11:33.756865 19046 net.cpp:425] inception_3b/5x5_reduce <- inception_3a/output_inception_3a/output_0_split_2
I0403 19:11:33.756887 19046 net.cpp:399] inception_3b/5x5_reduce -> inception_3b/5x5_reduce
I0403 19:11:33.757870 19046 net.cpp:141] Setting up inception_3b/5x5_reduce
I0403 19:11:33.757899 19046 net.cpp:148] Top shape: 24 32 28 28 (602112)
I0403 19:11:33.757915 19046 net.cpp:156] Memory required for data: 727352352
I0403 19:11:33.757931 19046 layer_factory.hpp:77] Creating layer inception_3b/relu_5x5_reduce
I0403 19:11:33.757951 19046 net.cpp:91] Creating Layer inception_3b/relu_5x5_reduce
I0403 19:11:33.757968 19046 net.cpp:425] inception_3b/relu_5x5_reduce <- inception_3b/5x5_reduce
I0403 19:11:33.757990 19046 net.cpp:386] inception_3b/relu_5x5_reduce -> inception_3b/5x5_reduce (in-place)
I0403 19:11:33.758184 19046 net.cpp:141] Setting up inception_3b/relu_5x5_reduce
I0403 19:11:33.758210 19046 net.cpp:148] Top shape: 24 32 28 28 (602112)
I0403 19:11:33.758224 19046 net.cpp:156] Memory required for data: 729760800
I0403 19:11:33.758239 19046 layer_factory.hpp:77] Creating layer inception_3b/5x5
I0403 19:11:33.758263 19046 net.cpp:91] Creating Layer inception_3b/5x5
I0403 19:11:33.758280 19046 net.cpp:425] inception_3b/5x5 <- inception_3b/5x5_reduce
I0403 19:11:33.758299 19046 net.cpp:399] inception_3b/5x5 -> inception_3b/5x5
I0403 19:11:33.760282 19046 net.cpp:141] Setting up inception_3b/5x5
I0403 19:11:33.760310 19046 net.cpp:148] Top shape: 24 96 28 28 (1806336)
I0403 19:11:33.760325 19046 net.cpp:156] Memory required for data: 736986144
I0403 19:11:33.760344 19046 layer_factory.hpp:77] Creating layer inception_3b/relu_5x5
I0403 19:11:33.760360 19046 net.cpp:91] Creating Layer inception_3b/relu_5x5
I0403 19:11:33.760376 19046 net.cpp:425] inception_3b/relu_5x5 <- inception_3b/5x5
I0403 19:11:33.760396 19046 net.cpp:386] inception_3b/relu_5x5 -> inception_3b/5x5 (in-place)
I0403 19:11:33.760581 19046 net.cpp:141] Setting up inception_3b/relu_5x5
I0403 19:11:33.760604 19046 net.cpp:148] Top shape: 24 96 28 28 (1806336)
I0403 19:11:33.760619 19046 net.cpp:156] Memory required for data: 744211488
I0403 19:11:33.760632 19046 layer_factory.hpp:77] Creating layer inception_3b/pool
I0403 19:11:33.760649 19046 net.cpp:91] Creating Layer inception_3b/pool
I0403 19:11:33.760664 19046 net.cpp:425] inception_3b/pool <- inception_3a/output_inception_3a/output_0_split_3
I0403 19:11:33.760681 19046 net.cpp:399] inception_3b/pool -> inception_3b/pool
I0403 19:11:33.760737 19046 net.cpp:141] Setting up inception_3b/pool
I0403 19:11:33.760759 19046 net.cpp:148] Top shape: 24 256 28 28 (4816896)
I0403 19:11:33.760773 19046 net.cpp:156] Memory required for data: 763479072
I0403 19:11:33.760787 19046 layer_factory.hpp:77] Creating layer inception_3b/pool_proj
I0403 19:11:33.760808 19046 net.cpp:91] Creating Layer inception_3b/pool_proj
I0403 19:11:33.760824 19046 net.cpp:425] inception_3b/pool_proj <- inception_3b/pool
I0403 19:11:33.760844 19046 net.cpp:399] inception_3b/pool_proj -> inception_3b/pool_proj
I0403 19:11:33.761901 19046 net.cpp:141] Setting up inception_3b/pool_proj
I0403 19:11:33.761929 19046 net.cpp:148] Top shape: 24 64 28 28 (1204224)
I0403 19:11:33.761943 19046 net.cpp:156] Memory required for data: 768295968
I0403 19:11:33.761962 19046 layer_factory.hpp:77] Creating layer inception_3b/relu_pool_proj
I0403 19:11:33.761986 19046 net.cpp:91] Creating Layer inception_3b/relu_pool_proj
I0403 19:11:33.762002 19046 net.cpp:425] inception_3b/relu_pool_proj <- inception_3b/pool_proj
I0403 19:11:33.762019 19046 net.cpp:386] inception_3b/relu_pool_proj -> inception_3b/pool_proj (in-place)
I0403 19:11:33.762416 19046 net.cpp:141] Setting up inception_3b/relu_pool_proj
I0403 19:11:33.762441 19046 net.cpp:148] Top shape: 24 64 28 28 (1204224)
I0403 19:11:33.762459 19046 net.cpp:156] Memory required for data: 773112864
I0403 19:11:33.762473 19046 layer_factory.hpp:77] Creating layer inception_3b/output
I0403 19:11:33.762490 19046 net.cpp:91] Creating Layer inception_3b/output
I0403 19:11:33.762506 19046 net.cpp:425] inception_3b/output <- inception_3b/1x1
I0403 19:11:33.762522 19046 net.cpp:425] inception_3b/output <- inception_3b/3x3
I0403 19:11:33.762537 19046 net.cpp:425] inception_3b/output <- inception_3b/5x5
I0403 19:11:33.762553 19046 net.cpp:425] inception_3b/output <- inception_3b/pool_proj
I0403 19:11:33.762569 19046 net.cpp:399] inception_3b/output -> inception_3b/output
I0403 19:11:33.762612 19046 net.cpp:141] Setting up inception_3b/output
I0403 19:11:33.762634 19046 net.cpp:148] Top shape: 24 480 28 28 (9031680)
I0403 19:11:33.762648 19046 net.cpp:156] Memory required for data: 809239584
I0403 19:11:33.762663 19046 layer_factory.hpp:77] Creating layer pool3/3x3_s2
I0403 19:11:33.762682 19046 net.cpp:91] Creating Layer pool3/3x3_s2
I0403 19:11:33.762699 19046 net.cpp:425] pool3/3x3_s2 <- inception_3b/output
I0403 19:11:33.762732 19046 net.cpp:399] pool3/3x3_s2 -> pool3/3x3_s2
I0403 19:11:33.762789 19046 net.cpp:141] Setting up pool3/3x3_s2
I0403 19:11:33.762810 19046 net.cpp:148] Top shape: 24 480 14 14 (2257920)
I0403 19:11:33.762825 19046 net.cpp:156] Memory required for data: 818271264
I0403 19:11:33.762838 19046 layer_factory.hpp:77] Creating layer pool3/3x3_s2_pool3/3x3_s2_0_split
I0403 19:11:33.762855 19046 net.cpp:91] Creating Layer pool3/3x3_s2_pool3/3x3_s2_0_split
I0403 19:11:33.762869 19046 net.cpp:425] pool3/3x3_s2_pool3/3x3_s2_0_split <- pool3/3x3_s2
I0403 19:11:33.762887 19046 net.cpp:399] pool3/3x3_s2_pool3/3x3_s2_0_split -> pool3/3x3_s2_pool3/3x3_s2_0_split_0
I0403 19:11:33.762907 19046 net.cpp:399] pool3/3x3_s2_pool3/3x3_s2_0_split -> pool3/3x3_s2_pool3/3x3_s2_0_split_1
I0403 19:11:33.762926 19046 net.cpp:399] pool3/3x3_s2_pool3/3x3_s2_0_split -> pool3/3x3_s2_pool3/3x3_s2_0_split_2
I0403 19:11:33.762944 19046 net.cpp:399] pool3/3x3_s2_pool3/3x3_s2_0_split -> pool3/3x3_s2_pool3/3x3_s2_0_split_3
I0403 19:11:33.763022 19046 net.cpp:141] Setting up pool3/3x3_s2_pool3/3x3_s2_0_split
I0403 19:11:33.763046 19046 net.cpp:148] Top shape: 24 480 14 14 (2257920)
I0403 19:11:33.763061 19046 net.cpp:148] Top shape: 24 480 14 14 (2257920)
I0403 19:11:33.763075 19046 net.cpp:148] Top shape: 24 480 14 14 (2257920)
I0403 19:11:33.763089 19046 net.cpp:148] Top shape: 24 480 14 14 (2257920)
I0403 19:11:33.763103 19046 net.cpp:156] Memory required for data: 854397984
I0403 19:11:33.763118 19046 layer_factory.hpp:77] Creating layer inception_4a/1x1
I0403 19:11:33.763140 19046 net.cpp:91] Creating Layer inception_4a/1x1
I0403 19:11:33.763156 19046 net.cpp:425] inception_4a/1x1 <- pool3/3x3_s2_pool3/3x3_s2_0_split_0
I0403 19:11:33.763187 19046 net.cpp:399] inception_4a/1x1 -> inception_4a/1x1
I0403 19:11:33.764725 19046 net.cpp:141] Setting up inception_4a/1x1
I0403 19:11:33.764755 19046 net.cpp:148] Top shape: 24 192 14 14 (903168)
I0403 19:11:33.764770 19046 net.cpp:156] Memory required for data: 858010656
I0403 19:11:33.764788 19046 layer_factory.hpp:77] Creating layer inception_4a/relu_1x1
I0403 19:11:33.764806 19046 net.cpp:91] Creating Layer inception_4a/relu_1x1
I0403 19:11:33.764822 19046 net.cpp:425] inception_4a/relu_1x1 <- inception_4a/1x1
I0403 19:11:33.764840 19046 net.cpp:386] inception_4a/relu_1x1 -> inception_4a/1x1 (in-place)
I0403 19:11:33.765017 19046 net.cpp:141] Setting up inception_4a/relu_1x1
I0403 19:11:33.765041 19046 net.cpp:148] Top shape: 24 192 14 14 (903168)
I0403 19:11:33.765055 19046 net.cpp:156] Memory required for data: 861623328
I0403 19:11:33.765069 19046 layer_factory.hpp:77] Creating layer inception_4a/3x3_reduce
I0403 19:11:33.765090 19046 net.cpp:91] Creating Layer inception_4a/3x3_reduce
I0403 19:11:33.765107 19046 net.cpp:425] inception_4a/3x3_reduce <- pool3/3x3_s2_pool3/3x3_s2_0_split_1
I0403 19:11:33.765127 19046 net.cpp:399] inception_4a/3x3_reduce -> inception_4a/3x3_reduce
I0403 19:11:33.766353 19046 net.cpp:141] Setting up inception_4a/3x3_reduce
I0403 19:11:33.766382 19046 net.cpp:148] Top shape: 24 96 14 14 (451584)
I0403 19:11:33.766398 19046 net.cpp:156] Memory required for data: 863429664
I0403 19:11:33.766422 19046 layer_factory.hpp:77] Creating layer inception_4a/relu_3x3_reduce
I0403 19:11:33.766441 19046 net.cpp:91] Creating Layer inception_4a/relu_3x3_reduce
I0403 19:11:33.766458 19046 net.cpp:425] inception_4a/relu_3x3_reduce <- inception_4a/3x3_reduce
I0403 19:11:33.766474 19046 net.cpp:386] inception_4a/relu_3x3_reduce -> inception_4a/3x3_reduce (in-place)
I0403 19:11:33.766644 19046 net.cpp:141] Setting up inception_4a/relu_3x3_reduce
I0403 19:11:33.766667 19046 net.cpp:148] Top shape: 24 96 14 14 (451584)
I0403 19:11:33.766681 19046 net.cpp:156] Memory required for data: 865236000
I0403 19:11:33.766695 19046 layer_factory.hpp:77] Creating layer inception_4a/3x3
I0403 19:11:33.766717 19046 net.cpp:91] Creating Layer inception_4a/3x3
I0403 19:11:33.766733 19046 net.cpp:425] inception_4a/3x3 <- inception_4a/3x3_reduce
I0403 19:11:33.766753 19046 net.cpp:399] inception_4a/3x3 -> inception_4a/3x3
I0403 19:11:33.769356 19046 net.cpp:141] Setting up inception_4a/3x3
I0403 19:11:33.769384 19046 net.cpp:148] Top shape: 24 208 14 14 (978432)
I0403 19:11:33.769400 19046 net.cpp:156] Memory required for data: 869149728
I0403 19:11:33.769418 19046 layer_factory.hpp:77] Creating layer inception_4a/relu_3x3
I0403 19:11:33.769436 19046 net.cpp:91] Creating Layer inception_4a/relu_3x3
I0403 19:11:33.769456 19046 net.cpp:425] inception_4a/relu_3x3 <- inception_4a/3x3
I0403 19:11:33.769485 19046 net.cpp:386] inception_4a/relu_3x3 -> inception_4a/3x3 (in-place)
I0403 19:11:33.769753 19046 net.cpp:141] Setting up inception_4a/relu_3x3
I0403 19:11:33.769779 19046 net.cpp:148] Top shape: 24 208 14 14 (978432)
I0403 19:11:33.769794 19046 net.cpp:156] Memory required for data: 873063456
I0403 19:11:33.769809 19046 layer_factory.hpp:77] Creating layer inception_4a/5x5_reduce
I0403 19:11:33.769830 19046 net.cpp:91] Creating Layer inception_4a/5x5_reduce
I0403 19:11:33.769847 19046 net.cpp:425] inception_4a/5x5_reduce <- pool3/3x3_s2_pool3/3x3_s2_0_split_2
I0403 19:11:33.769868 19046 net.cpp:399] inception_4a/5x5_reduce -> inception_4a/5x5_reduce
I0403 19:11:33.770845 19046 net.cpp:141] Setting up inception_4a/5x5_reduce
I0403 19:11:33.770872 19046 net.cpp:148] Top shape: 24 16 14 14 (75264)
I0403 19:11:33.770887 19046 net.cpp:156] Memory required for data: 873364512
I0403 19:11:33.770905 19046 layer_factory.hpp:77] Creating layer inception_4a/relu_5x5_reduce
I0403 19:11:33.770925 19046 net.cpp:91] Creating Layer inception_4a/relu_5x5_reduce
I0403 19:11:33.770941 19046 net.cpp:425] inception_4a/relu_5x5_reduce <- inception_4a/5x5_reduce
I0403 19:11:33.770958 19046 net.cpp:386] inception_4a/relu_5x5_reduce -> inception_4a/5x5_reduce (in-place)
I0403 19:11:33.771131 19046 net.cpp:141] Setting up inception_4a/relu_5x5_reduce
I0403 19:11:33.771155 19046 net.cpp:148] Top shape: 24 16 14 14 (75264)
I0403 19:11:33.771169 19046 net.cpp:156] Memory required for data: 873665568
I0403 19:11:33.771183 19046 layer_factory.hpp:77] Creating layer inception_4a/5x5
I0403 19:11:33.771206 19046 net.cpp:91] Creating Layer inception_4a/5x5
I0403 19:11:33.771224 19046 net.cpp:425] inception_4a/5x5 <- inception_4a/5x5_reduce
I0403 19:11:33.771241 19046 net.cpp:399] inception_4a/5x5 -> inception_4a/5x5
I0403 19:11:33.772321 19046 net.cpp:141] Setting up inception_4a/5x5
I0403 19:11:33.772352 19046 net.cpp:148] Top shape: 24 48 14 14 (225792)
I0403 19:11:33.772369 19046 net.cpp:156] Memory required for data: 874568736
I0403 19:11:33.772388 19046 layer_factory.hpp:77] Creating layer inception_4a/relu_5x5
I0403 19:11:33.772406 19046 net.cpp:91] Creating Layer inception_4a/relu_5x5
I0403 19:11:33.772423 19046 net.cpp:425] inception_4a/relu_5x5 <- inception_4a/5x5
I0403 19:11:33.772441 19046 net.cpp:386] inception_4a/relu_5x5 -> inception_4a/5x5 (in-place)
I0403 19:11:33.772630 19046 net.cpp:141] Setting up inception_4a/relu_5x5
I0403 19:11:33.772656 19046 net.cpp:148] Top shape: 24 48 14 14 (225792)
I0403 19:11:33.772672 19046 net.cpp:156] Memory required for data: 875471904
I0403 19:11:33.772687 19046 layer_factory.hpp:77] Creating layer inception_4a/pool
I0403 19:11:33.772704 19046 net.cpp:91] Creating Layer inception_4a/pool
I0403 19:11:33.772721 19046 net.cpp:425] inception_4a/pool <- pool3/3x3_s2_pool3/3x3_s2_0_split_3
I0403 19:11:33.772740 19046 net.cpp:399] inception_4a/pool -> inception_4a/pool
I0403 19:11:33.772800 19046 net.cpp:141] Setting up inception_4a/pool
I0403 19:11:33.772825 19046 net.cpp:148] Top shape: 24 480 14 14 (2257920)
I0403 19:11:33.772840 19046 net.cpp:156] Memory required for data: 884503584
I0403 19:11:33.772855 19046 layer_factory.hpp:77] Creating layer inception_4a/pool_proj
I0403 19:11:33.772876 19046 net.cpp:91] Creating Layer inception_4a/pool_proj
I0403 19:11:33.772892 19046 net.cpp:425] inception_4a/pool_proj <- inception_4a/pool
I0403 19:11:33.772912 19046 net.cpp:399] inception_4a/pool_proj -> inception_4a/pool_proj
I0403 19:11:33.774061 19046 net.cpp:141] Setting up inception_4a/pool_proj
I0403 19:11:33.774092 19046 net.cpp:148] Top shape: 24 64 14 14 (301056)
I0403 19:11:33.774122 19046 net.cpp:156] Memory required for data: 885707808
I0403 19:11:33.774142 19046 layer_factory.hpp:77] Creating layer inception_4a/relu_pool_proj
I0403 19:11:33.774159 19046 net.cpp:91] Creating Layer inception_4a/relu_pool_proj
I0403 19:11:33.774174 19046 net.cpp:425] inception_4a/relu_pool_proj <- inception_4a/pool_proj
I0403 19:11:33.774191 19046 net.cpp:386] inception_4a/relu_pool_proj -> inception_4a/pool_proj (in-place)
I0403 19:11:33.774472 19046 net.cpp:141] Setting up inception_4a/relu_pool_proj
I0403 19:11:33.774500 19046 net.cpp:148] Top shape: 24 64 14 14 (301056)
I0403 19:11:33.774516 19046 net.cpp:156] Memory required for data: 886912032
I0403 19:11:33.774531 19046 layer_factory.hpp:77] Creating layer inception_4a/output
I0403 19:11:33.774549 19046 net.cpp:91] Creating Layer inception_4a/output
I0403 19:11:33.774564 19046 net.cpp:425] inception_4a/output <- inception_4a/1x1
I0403 19:11:33.774580 19046 net.cpp:425] inception_4a/output <- inception_4a/3x3
I0403 19:11:33.774596 19046 net.cpp:425] inception_4a/output <- inception_4a/5x5
I0403 19:11:33.774612 19046 net.cpp:425] inception_4a/output <- inception_4a/pool_proj
I0403 19:11:33.774629 19046 net.cpp:399] inception_4a/output -> inception_4a/output
I0403 19:11:33.774674 19046 net.cpp:141] Setting up inception_4a/output
I0403 19:11:33.774698 19046 net.cpp:148] Top shape: 24 512 14 14 (2408448)
I0403 19:11:33.774713 19046 net.cpp:156] Memory required for data: 896545824
I0403 19:11:33.774726 19046 layer_factory.hpp:77] Creating layer inception_4a/output_inception_4a/output_0_split
I0403 19:11:33.774746 19046 net.cpp:91] Creating Layer inception_4a/output_inception_4a/output_0_split
I0403 19:11:33.774762 19046 net.cpp:425] inception_4a/output_inception_4a/output_0_split <- inception_4a/output
I0403 19:11:33.774780 19046 net.cpp:399] inception_4a/output_inception_4a/output_0_split -> inception_4a/output_inception_4a/output_0_split_0
I0403 19:11:33.774801 19046 net.cpp:399] inception_4a/output_inception_4a/output_0_split -> inception_4a/output_inception_4a/output_0_split_1
I0403 19:11:33.774821 19046 net.cpp:399] inception_4a/output_inception_4a/output_0_split -> inception_4a/output_inception_4a/output_0_split_2
I0403 19:11:33.774843 19046 net.cpp:399] inception_4a/output_inception_4a/output_0_split -> inception_4a/output_inception_4a/output_0_split_3
I0403 19:11:33.774863 19046 net.cpp:399] inception_4a/output_inception_4a/output_0_split -> inception_4a/output_inception_4a/output_0_split_4
I0403 19:11:33.774957 19046 net.cpp:141] Setting up inception_4a/output_inception_4a/output_0_split
I0403 19:11:33.774983 19046 net.cpp:148] Top shape: 24 512 14 14 (2408448)
I0403 19:11:33.775002 19046 net.cpp:148] Top shape: 24 512 14 14 (2408448)
I0403 19:11:33.775017 19046 net.cpp:148] Top shape: 24 512 14 14 (2408448)
I0403 19:11:33.775032 19046 net.cpp:148] Top shape: 24 512 14 14 (2408448)
I0403 19:11:33.775048 19046 net.cpp:148] Top shape: 24 512 14 14 (2408448)
I0403 19:11:33.775063 19046 net.cpp:156] Memory required for data: 944714784
I0403 19:11:33.775076 19046 layer_factory.hpp:77] Creating layer loss1/ave_pool
I0403 19:11:33.775096 19046 net.cpp:91] Creating Layer loss1/ave_pool
I0403 19:11:33.775113 19046 net.cpp:425] loss1/ave_pool <- inception_4a/output_inception_4a/output_0_split_0
I0403 19:11:33.775131 19046 net.cpp:399] loss1/ave_pool -> loss1/ave_pool
I0403 19:11:33.775331 19046 net.cpp:141] Setting up loss1/ave_pool
I0403 19:11:33.775358 19046 net.cpp:148] Top shape: 24 512 4 4 (196608)
I0403 19:11:33.775374 19046 net.cpp:156] Memory required for data: 945501216
I0403 19:11:33.775389 19046 layer_factory.hpp:77] Creating layer loss1/conv
I0403 19:11:33.775411 19046 net.cpp:91] Creating Layer loss1/conv
I0403 19:11:33.775429 19046 net.cpp:425] loss1/conv <- loss1/ave_pool
I0403 19:11:33.775447 19046 net.cpp:399] loss1/conv -> loss1/conv
I0403 19:11:33.776845 19046 net.cpp:141] Setting up loss1/conv
I0403 19:11:33.776873 19046 net.cpp:148] Top shape: 24 128 4 4 (49152)
I0403 19:11:33.776901 19046 net.cpp:156] Memory required for data: 945697824
I0403 19:11:33.776921 19046 layer_factory.hpp:77] Creating layer loss1/relu_conv
I0403 19:11:33.776942 19046 net.cpp:91] Creating Layer loss1/relu_conv
I0403 19:11:33.776958 19046 net.cpp:425] loss1/relu_conv <- loss1/conv
I0403 19:11:33.776975 19046 net.cpp:386] loss1/relu_conv -> loss1/conv (in-place)
I0403 19:11:33.777263 19046 net.cpp:141] Setting up loss1/relu_conv
I0403 19:11:33.777288 19046 net.cpp:148] Top shape: 24 128 4 4 (49152)
I0403 19:11:33.777304 19046 net.cpp:156] Memory required for data: 945894432
I0403 19:11:33.777318 19046 layer_factory.hpp:77] Creating layer loss1/fc
I0403 19:11:33.777344 19046 net.cpp:91] Creating Layer loss1/fc
I0403 19:11:33.777362 19046 net.cpp:425] loss1/fc <- loss1/conv
I0403 19:11:33.777381 19046 net.cpp:399] loss1/fc -> loss1/fc
I0403 19:11:33.795009 19046 net.cpp:141] Setting up loss1/fc
I0403 19:11:33.795042 19046 net.cpp:148] Top shape: 24 1024 (24576)
I0403 19:11:33.795056 19046 net.cpp:156] Memory required for data: 945992736
I0403 19:11:33.795074 19046 layer_factory.hpp:77] Creating layer loss1/relu_fc
I0403 19:11:33.795094 19046 net.cpp:91] Creating Layer loss1/relu_fc
I0403 19:11:33.795110 19046 net.cpp:425] loss1/relu_fc <- loss1/fc
I0403 19:11:33.795130 19046 net.cpp:386] loss1/relu_fc -> loss1/fc (in-place)
I0403 19:11:33.795310 19046 net.cpp:141] Setting up loss1/relu_fc
I0403 19:11:33.795334 19046 net.cpp:148] Top shape: 24 1024 (24576)
I0403 19:11:33.795349 19046 net.cpp:156] Memory required for data: 946091040
I0403 19:11:33.795363 19046 layer_factory.hpp:77] Creating layer loss1/drop_fc
I0403 19:11:33.795387 19046 net.cpp:91] Creating Layer loss1/drop_fc
I0403 19:11:33.795405 19046 net.cpp:425] loss1/drop_fc <- loss1/fc
I0403 19:11:33.795424 19046 net.cpp:386] loss1/drop_fc -> loss1/fc (in-place)
I0403 19:11:33.795474 19046 net.cpp:141] Setting up loss1/drop_fc
I0403 19:11:33.795495 19046 net.cpp:148] Top shape: 24 1024 (24576)
I0403 19:11:33.795509 19046 net.cpp:156] Memory required for data: 946189344
I0403 19:11:33.795524 19046 layer_factory.hpp:77] Creating layer loss1/classifier_plantvillage
I0403 19:11:33.795545 19046 net.cpp:91] Creating Layer loss1/classifier_plantvillage
I0403 19:11:33.795562 19046 net.cpp:425] loss1/classifier_plantvillage <- loss1/fc
I0403 19:11:33.795581 19046 net.cpp:399] loss1/classifier_plantvillage -> loss1/classifier_plantvillage
I0403 19:11:33.796484 19046 net.cpp:141] Setting up loss1/classifier_plantvillage
I0403 19:11:33.796512 19046 net.cpp:148] Top shape: 24 38 (912)
I0403 19:11:33.796528 19046 net.cpp:156] Memory required for data: 946192992
I0403 19:11:33.796546 19046 layer_factory.hpp:77] Creating layer loss1/classifier_plantvillage_loss1/classifier_plantvillage_0_split
I0403 19:11:33.796563 19046 net.cpp:91] Creating Layer loss1/classifier_plantvillage_loss1/classifier_plantvillage_0_split
I0403 19:11:33.796579 19046 net.cpp:425] loss1/classifier_plantvillage_loss1/classifier_plantvillage_0_split <- loss1/classifier_plantvillage
I0403 19:11:33.796600 19046 net.cpp:399] loss1/classifier_plantvillage_loss1/classifier_plantvillage_0_split -> loss1/classifier_plantvillage_loss1/classifier_plantvillage_0_split_0
I0403 19:11:33.796620 19046 net.cpp:399] loss1/classifier_plantvillage_loss1/classifier_plantvillage_0_split -> loss1/classifier_plantvillage_loss1/classifier_plantvillage_0_split_1
I0403 19:11:33.796640 19046 net.cpp:399] loss1/classifier_plantvillage_loss1/classifier_plantvillage_0_split -> loss1/classifier_plantvillage_loss1/classifier_plantvillage_0_split_2
I0403 19:11:33.796705 19046 net.cpp:141] Setting up loss1/classifier_plantvillage_loss1/classifier_plantvillage_0_split
I0403 19:11:33.796726 19046 net.cpp:148] Top shape: 24 38 (912)
I0403 19:11:33.796742 19046 net.cpp:148] Top shape: 24 38 (912)
I0403 19:11:33.796757 19046 net.cpp:148] Top shape: 24 38 (912)
I0403 19:11:33.796771 19046 net.cpp:156] Memory required for data: 946203936
I0403 19:11:33.796784 19046 layer_factory.hpp:77] Creating layer inception_4b/1x1
I0403 19:11:33.796805 19046 net.cpp:91] Creating Layer inception_4b/1x1
I0403 19:11:33.796838 19046 net.cpp:425] inception_4b/1x1 <- inception_4a/output_inception_4a/output_0_split_1
I0403 19:11:33.796857 19046 net.cpp:399] inception_4b/1x1 -> inception_4b/1x1
I0403 19:11:33.798447 19046 net.cpp:141] Setting up inception_4b/1x1
I0403 19:11:33.798475 19046 net.cpp:148] Top shape: 24 160 14 14 (752640)
I0403 19:11:33.798490 19046 net.cpp:156] Memory required for data: 949214496
I0403 19:11:33.798506 19046 layer_factory.hpp:77] Creating layer inception_4b/relu_1x1
I0403 19:11:33.798527 19046 net.cpp:91] Creating Layer inception_4b/relu_1x1
I0403 19:11:33.798543 19046 net.cpp:425] inception_4b/relu_1x1 <- inception_4b/1x1
I0403 19:11:33.798560 19046 net.cpp:386] inception_4b/relu_1x1 -> inception_4b/1x1 (in-place)
I0403 19:11:33.798735 19046 net.cpp:141] Setting up inception_4b/relu_1x1
I0403 19:11:33.798759 19046 net.cpp:148] Top shape: 24 160 14 14 (752640)
I0403 19:11:33.798774 19046 net.cpp:156] Memory required for data: 952225056
I0403 19:11:33.798787 19046 layer_factory.hpp:77] Creating layer inception_4b/3x3_reduce
I0403 19:11:33.798810 19046 net.cpp:91] Creating Layer inception_4b/3x3_reduce
I0403 19:11:33.798828 19046 net.cpp:425] inception_4b/3x3_reduce <- inception_4a/output_inception_4a/output_0_split_2
I0403 19:11:33.798846 19046 net.cpp:399] inception_4b/3x3_reduce -> inception_4b/3x3_reduce
I0403 19:11:33.800196 19046 net.cpp:141] Setting up inception_4b/3x3_reduce
I0403 19:11:33.800223 19046 net.cpp:148] Top shape: 24 112 14 14 (526848)
I0403 19:11:33.800238 19046 net.cpp:156] Memory required for data: 954332448
I0403 19:11:33.800256 19046 layer_factory.hpp:77] Creating layer inception_4b/relu_3x3_reduce
I0403 19:11:33.800276 19046 net.cpp:91] Creating Layer inception_4b/relu_3x3_reduce
I0403 19:11:33.800292 19046 net.cpp:425] inception_4b/relu_3x3_reduce <- inception_4b/3x3_reduce
I0403 19:11:33.800308 19046 net.cpp:386] inception_4b/relu_3x3_reduce -> inception_4b/3x3_reduce (in-place)
I0403 19:11:33.800580 19046 net.cpp:141] Setting up inception_4b/relu_3x3_reduce
I0403 19:11:33.800606 19046 net.cpp:148] Top shape: 24 112 14 14 (526848)
I0403 19:11:33.800621 19046 net.cpp:156] Memory required for data: 956439840
I0403 19:11:33.800634 19046 layer_factory.hpp:77] Creating layer inception_4b/3x3
I0403 19:11:33.800657 19046 net.cpp:91] Creating Layer inception_4b/3x3
I0403 19:11:33.800673 19046 net.cpp:425] inception_4b/3x3 <- inception_4b/3x3_reduce
I0403 19:11:33.800693 19046 net.cpp:399] inception_4b/3x3 -> inception_4b/3x3
I0403 19:11:33.803576 19046 net.cpp:141] Setting up inception_4b/3x3
I0403 19:11:33.803606 19046 net.cpp:148] Top shape: 24 224 14 14 (1053696)
I0403 19:11:33.803622 19046 net.cpp:156] Memory required for data: 960654624
I0403 19:11:33.803640 19046 layer_factory.hpp:77] Creating layer inception_4b/relu_3x3
I0403 19:11:33.803658 19046 net.cpp:91] Creating Layer inception_4b/relu_3x3
I0403 19:11:33.803673 19046 net.cpp:425] inception_4b/relu_3x3 <- inception_4b/3x3
I0403 19:11:33.803692 19046 net.cpp:386] inception_4b/relu_3x3 -> inception_4b/3x3 (in-place)
I0403 19:11:33.803867 19046 net.cpp:141] Setting up inception_4b/relu_3x3
I0403 19:11:33.803891 19046 net.cpp:148] Top shape: 24 224 14 14 (1053696)
I0403 19:11:33.803905 19046 net.cpp:156] Memory required for data: 964869408
I0403 19:11:33.803920 19046 layer_factory.hpp:77] Creating layer inception_4b/5x5_reduce
I0403 19:11:33.803941 19046 net.cpp:91] Creating Layer inception_4b/5x5_reduce
I0403 19:11:33.803958 19046 net.cpp:425] inception_4b/5x5_reduce <- inception_4a/output_inception_4a/output_0_split_3
I0403 19:11:33.803983 19046 net.cpp:399] inception_4b/5x5_reduce -> inception_4b/5x5_reduce
I0403 19:11:33.805027 19046 net.cpp:141] Setting up inception_4b/5x5_reduce
I0403 19:11:33.805053 19046 net.cpp:148] Top shape: 24 24 14 14 (112896)
I0403 19:11:33.805068 19046 net.cpp:156] Memory required for data: 965320992
I0403 19:11:33.805085 19046 layer_factory.hpp:77] Creating layer inception_4b/relu_5x5_reduce
I0403 19:11:33.805105 19046 net.cpp:91] Creating Layer inception_4b/relu_5x5_reduce
I0403 19:11:33.805135 19046 net.cpp:425] inception_4b/relu_5x5_reduce <- inception_4b/5x5_reduce
I0403 19:11:33.805152 19046 net.cpp:386] inception_4b/relu_5x5_reduce -> inception_4b/5x5_reduce (in-place)
I0403 19:11:33.805346 19046 net.cpp:141] Setting up inception_4b/relu_5x5_reduce
I0403 19:11:33.805371 19046 net.cpp:148] Top shape: 24 24 14 14 (112896)
I0403 19:11:33.805387 19046 net.cpp:156] Memory required for data: 965772576
I0403 19:11:33.805402 19046 layer_factory.hpp:77] Creating layer inception_4b/5x5
I0403 19:11:33.805423 19046 net.cpp:91] Creating Layer inception_4b/5x5
I0403 19:11:33.805440 19046 net.cpp:425] inception_4b/5x5 <- inception_4b/5x5_reduce
I0403 19:11:33.805459 19046 net.cpp:399] inception_4b/5x5 -> inception_4b/5x5
I0403 19:11:33.806669 19046 net.cpp:141] Setting up inception_4b/5x5
I0403 19:11:33.806696 19046 net.cpp:148] Top shape: 24 64 14 14 (301056)
I0403 19:11:33.806711 19046 net.cpp:156] Memory required for data: 966976800
I0403 19:11:33.806730 19046 layer_factory.hpp:77] Creating layer inception_4b/relu_5x5
I0403 19:11:33.806748 19046 net.cpp:91] Creating Layer inception_4b/relu_5x5
I0403 19:11:33.806764 19046 net.cpp:425] inception_4b/relu_5x5 <- inception_4b/5x5
I0403 19:11:33.806782 19046 net.cpp:386] inception_4b/relu_5x5 -> inception_4b/5x5 (in-place)
I0403 19:11:33.807066 19046 net.cpp:141] Setting up inception_4b/relu_5x5
I0403 19:11:33.807091 19046 net.cpp:148] Top shape: 24 64 14 14 (301056)
I0403 19:11:33.807106 19046 net.cpp:156] Memory required for data: 968181024
I0403 19:11:33.807121 19046 layer_factory.hpp:77] Creating layer inception_4b/pool
I0403 19:11:33.807137 19046 net.cpp:91] Creating Layer inception_4b/pool
I0403 19:11:33.807157 19046 net.cpp:425] inception_4b/pool <- inception_4a/output_inception_4a/output_0_split_4
I0403 19:11:33.807174 19046 net.cpp:399] inception_4b/pool -> inception_4b/pool
I0403 19:11:33.807235 19046 net.cpp:141] Setting up inception_4b/pool
I0403 19:11:33.807258 19046 net.cpp:148] Top shape: 24 512 14 14 (2408448)
I0403 19:11:33.807272 19046 net.cpp:156] Memory required for data: 977814816
I0403 19:11:33.807286 19046 layer_factory.hpp:77] Creating layer inception_4b/pool_proj
I0403 19:11:33.807307 19046 net.cpp:91] Creating Layer inception_4b/pool_proj
I0403 19:11:33.807324 19046 net.cpp:425] inception_4b/pool_proj <- inception_4b/pool
I0403 19:11:33.807344 19046 net.cpp:399] inception_4b/pool_proj -> inception_4b/pool_proj
I0403 19:11:33.808544 19046 net.cpp:141] Setting up inception_4b/pool_proj
I0403 19:11:33.808571 19046 net.cpp:148] Top shape: 24 64 14 14 (301056)
I0403 19:11:33.808586 19046 net.cpp:156] Memory required for data: 979019040
I0403 19:11:33.808604 19046 layer_factory.hpp:77] Creating layer inception_4b/relu_pool_proj
I0403 19:11:33.808625 19046 net.cpp:91] Creating Layer inception_4b/relu_pool_proj
I0403 19:11:33.808642 19046 net.cpp:425] inception_4b/relu_pool_proj <- inception_4b/pool_proj
I0403 19:11:33.808658 19046 net.cpp:386] inception_4b/relu_pool_proj -> inception_4b/pool_proj (in-place)
I0403 19:11:33.808835 19046 net.cpp:141] Setting up inception_4b/relu_pool_proj
I0403 19:11:33.808859 19046 net.cpp:148] Top shape: 24 64 14 14 (301056)
I0403 19:11:33.808873 19046 net.cpp:156] Memory required for data: 980223264
I0403 19:11:33.808887 19046 layer_factory.hpp:77] Creating layer inception_4b/output
I0403 19:11:33.808907 19046 net.cpp:91] Creating Layer inception_4b/output
I0403 19:11:33.808922 19046 net.cpp:425] inception_4b/output <- inception_4b/1x1
I0403 19:11:33.808938 19046 net.cpp:425] inception_4b/output <- inception_4b/3x3
I0403 19:11:33.808954 19046 net.cpp:425] inception_4b/output <- inception_4b/5x5
I0403 19:11:33.808969 19046 net.cpp:425] inception_4b/output <- inception_4b/pool_proj
I0403 19:11:33.808997 19046 net.cpp:399] inception_4b/output -> inception_4b/output
I0403 19:11:33.809046 19046 net.cpp:141] Setting up inception_4b/output
I0403 19:11:33.809068 19046 net.cpp:148] Top shape: 24 512 14 14 (2408448)
I0403 19:11:33.809082 19046 net.cpp:156] Memory required for data: 989857056
I0403 19:11:33.809109 19046 layer_factory.hpp:77] Creating layer inception_4b/output_inception_4b/output_0_split
I0403 19:11:33.809128 19046 net.cpp:91] Creating Layer inception_4b/output_inception_4b/output_0_split
I0403 19:11:33.809144 19046 net.cpp:425] inception_4b/output_inception_4b/output_0_split <- inception_4b/output
I0403 19:11:33.809162 19046 net.cpp:399] inception_4b/output_inception_4b/output_0_split -> inception_4b/output_inception_4b/output_0_split_0
I0403 19:11:33.809182 19046 net.cpp:399] inception_4b/output_inception_4b/output_0_split -> inception_4b/output_inception_4b/output_0_split_1
I0403 19:11:33.809202 19046 net.cpp:399] inception_4b/output_inception_4b/output_0_split -> inception_4b/output_inception_4b/output_0_split_2
I0403 19:11:33.809222 19046 net.cpp:399] inception_4b/output_inception_4b/output_0_split -> inception_4b/output_inception_4b/output_0_split_3
I0403 19:11:33.809309 19046 net.cpp:141] Setting up inception_4b/output_inception_4b/output_0_split
I0403 19:11:33.809330 19046 net.cpp:148] Top shape: 24 512 14 14 (2408448)
I0403 19:11:33.809346 19046 net.cpp:148] Top shape: 24 512 14 14 (2408448)
I0403 19:11:33.809361 19046 net.cpp:148] Top shape: 24 512 14 14 (2408448)
I0403 19:11:33.809376 19046 net.cpp:148] Top shape: 24 512 14 14 (2408448)
I0403 19:11:33.809389 19046 net.cpp:156] Memory required for data: 1028392224
I0403 19:11:33.809403 19046 layer_factory.hpp:77] Creating layer inception_4c/1x1
I0403 19:11:33.809424 19046 net.cpp:91] Creating Layer inception_4c/1x1
I0403 19:11:33.809442 19046 net.cpp:425] inception_4c/1x1 <- inception_4b/output_inception_4b/output_0_split_0
I0403 19:11:33.809463 19046 net.cpp:399] inception_4c/1x1 -> inception_4c/1x1
I0403 19:11:33.810885 19046 net.cpp:141] Setting up inception_4c/1x1
I0403 19:11:33.810915 19046 net.cpp:148] Top shape: 24 128 14 14 (602112)
I0403 19:11:33.810931 19046 net.cpp:156] Memory required for data: 1030800672
I0403 19:11:33.810950 19046 layer_factory.hpp:77] Creating layer inception_4c/relu_1x1
I0403 19:11:33.810968 19046 net.cpp:91] Creating Layer inception_4c/relu_1x1
I0403 19:11:33.810988 19046 net.cpp:425] inception_4c/relu_1x1 <- inception_4c/1x1
I0403 19:11:33.811008 19046 net.cpp:386] inception_4c/relu_1x1 -> inception_4c/1x1 (in-place)
I0403 19:11:33.811183 19046 net.cpp:141] Setting up inception_4c/relu_1x1
I0403 19:11:33.811209 19046 net.cpp:148] Top shape: 24 128 14 14 (602112)
I0403 19:11:33.811223 19046 net.cpp:156] Memory required for data: 1033209120
I0403 19:11:33.811238 19046 layer_factory.hpp:77] Creating layer inception_4c/3x3_reduce
I0403 19:11:33.811259 19046 net.cpp:91] Creating Layer inception_4c/3x3_reduce
I0403 19:11:33.811275 19046 net.cpp:425] inception_4c/3x3_reduce <- inception_4b/output_inception_4b/output_0_split_1
I0403 19:11:33.811296 19046 net.cpp:399] inception_4c/3x3_reduce -> inception_4c/3x3_reduce
I0403 19:11:33.813210 19046 net.cpp:141] Setting up inception_4c/3x3_reduce
I0403 19:11:33.813238 19046 net.cpp:148] Top shape: 24 128 14 14 (602112)
I0403 19:11:33.813253 19046 net.cpp:156] Memory required for data: 1035617568
I0403 19:11:33.813271 19046 layer_factory.hpp:77] Creating layer inception_4c/relu_3x3_reduce
I0403 19:11:33.813289 19046 net.cpp:91] Creating Layer inception_4c/relu_3x3_reduce
I0403 19:11:33.813318 19046 net.cpp:425] inception_4c/relu_3x3_reduce <- inception_4c/3x3_reduce
I0403 19:11:33.813338 19046 net.cpp:386] inception_4c/relu_3x3_reduce -> inception_4c/3x3_reduce (in-place)
I0403 19:11:33.813637 19046 net.cpp:141] Setting up inception_4c/relu_3x3_reduce
I0403 19:11:33.813662 19046 net.cpp:148] Top shape: 24 128 14 14 (602112)
I0403 19:11:33.813676 19046 net.cpp:156] Memory required for data: 1038026016
I0403 19:11:33.813691 19046 layer_factory.hpp:77] Creating layer inception_4c/3x3
I0403 19:11:33.813714 19046 net.cpp:91] Creating Layer inception_4c/3x3
I0403 19:11:33.813731 19046 net.cpp:425] inception_4c/3x3 <- inception_4c/3x3_reduce
I0403 19:11:33.813751 19046 net.cpp:399] inception_4c/3x3 -> inception_4c/3x3
I0403 19:11:33.817287 19046 net.cpp:141] Setting up inception_4c/3x3
I0403 19:11:33.817327 19046 net.cpp:148] Top shape: 24 256 14 14 (1204224)
I0403 19:11:33.817344 19046 net.cpp:156] Memory required for data: 1042842912
I0403 19:11:33.817376 19046 layer_factory.hpp:77] Creating layer inception_4c/relu_3x3
I0403 19:11:33.817399 19046 net.cpp:91] Creating Layer inception_4c/relu_3x3
I0403 19:11:33.817417 19046 net.cpp:425] inception_4c/relu_3x3 <- inception_4c/3x3
I0403 19:11:33.817435 19046 net.cpp:386] inception_4c/relu_3x3 -> inception_4c/3x3 (in-place)
I0403 19:11:33.817627 19046 net.cpp:141] Setting up inception_4c/relu_3x3
I0403 19:11:33.817651 19046 net.cpp:148] Top shape: 24 256 14 14 (1204224)
I0403 19:11:33.817665 19046 net.cpp:156] Memory required for data: 1047659808
I0403 19:11:33.817679 19046 layer_factory.hpp:77] Creating layer inception_4c/5x5_reduce
I0403 19:11:33.817700 19046 net.cpp:91] Creating Layer inception_4c/5x5_reduce
I0403 19:11:33.817718 19046 net.cpp:425] inception_4c/5x5_reduce <- inception_4b/output_inception_4b/output_0_split_2
I0403 19:11:33.817740 19046 net.cpp:399] inception_4c/5x5_reduce -> inception_4c/5x5_reduce
I0403 19:11:33.818802 19046 net.cpp:141] Setting up inception_4c/5x5_reduce
I0403 19:11:33.818830 19046 net.cpp:148] Top shape: 24 24 14 14 (112896)
I0403 19:11:33.818845 19046 net.cpp:156] Memory required for data: 1048111392
I0403 19:11:33.818862 19046 layer_factory.hpp:77] Creating layer inception_4c/relu_5x5_reduce
I0403 19:11:33.818881 19046 net.cpp:91] Creating Layer inception_4c/relu_5x5_reduce
I0403 19:11:33.818898 19046 net.cpp:425] inception_4c/relu_5x5_reduce <- inception_4c/5x5_reduce
I0403 19:11:33.818917 19046 net.cpp:386] inception_4c/relu_5x5_reduce -> inception_4c/5x5_reduce (in-place)
I0403 19:11:33.819106 19046 net.cpp:141] Setting up inception_4c/relu_5x5_reduce
I0403 19:11:33.819133 19046 net.cpp:148] Top shape: 24 24 14 14 (112896)
I0403 19:11:33.819149 19046 net.cpp:156] Memory required for data: 1048562976
I0403 19:11:33.819164 19046 layer_factory.hpp:77] Creating layer inception_4c/5x5
I0403 19:11:33.819185 19046 net.cpp:91] Creating Layer inception_4c/5x5
I0403 19:11:33.819202 19046 net.cpp:425] inception_4c/5x5 <- inception_4c/5x5_reduce
I0403 19:11:33.819221 19046 net.cpp:399] inception_4c/5x5 -> inception_4c/5x5
I0403 19:11:33.820431 19046 net.cpp:141] Setting up inception_4c/5x5
I0403 19:11:33.820457 19046 net.cpp:148] Top shape: 24 64 14 14 (301056)
I0403 19:11:33.820474 19046 net.cpp:156] Memory required for data: 1049767200
I0403 19:11:33.820492 19046 layer_factory.hpp:77] Creating layer inception_4c/relu_5x5
I0403 19:11:33.820511 19046 net.cpp:91] Creating Layer inception_4c/relu_5x5
I0403 19:11:33.820528 19046 net.cpp:425] inception_4c/relu_5x5 <- inception_4c/5x5
I0403 19:11:33.820545 19046 net.cpp:386] inception_4c/relu_5x5 -> inception_4c/5x5 (in-place)
I0403 19:11:33.820830 19046 net.cpp:141] Setting up inception_4c/relu_5x5
I0403 19:11:33.820855 19046 net.cpp:148] Top shape: 24 64 14 14 (301056)
I0403 19:11:33.820869 19046 net.cpp:156] Memory required for data: 1050971424
I0403 19:11:33.820884 19046 layer_factory.hpp:77] Creating layer inception_4c/pool
I0403 19:11:33.820904 19046 net.cpp:91] Creating Layer inception_4c/pool
I0403 19:11:33.820921 19046 net.cpp:425] inception_4c/pool <- inception_4b/output_inception_4b/output_0_split_3
I0403 19:11:33.820940 19046 net.cpp:399] inception_4c/pool -> inception_4c/pool
I0403 19:11:33.821009 19046 net.cpp:141] Setting up inception_4c/pool
I0403 19:11:33.821033 19046 net.cpp:148] Top shape: 24 512 14 14 (2408448)
I0403 19:11:33.821046 19046 net.cpp:156] Memory required for data: 1060605216
I0403 19:11:33.821061 19046 layer_factory.hpp:77] Creating layer inception_4c/pool_proj
I0403 19:11:33.821082 19046 net.cpp:91] Creating Layer inception_4c/pool_proj
I0403 19:11:33.821099 19046 net.cpp:425] inception_4c/pool_proj <- inception_4c/pool
I0403 19:11:33.821120 19046 net.cpp:399] inception_4c/pool_proj -> inception_4c/pool_proj
I0403 19:11:33.822348 19046 net.cpp:141] Setting up inception_4c/pool_proj
I0403 19:11:33.822377 19046 net.cpp:148] Top shape: 24 64 14 14 (301056)
I0403 19:11:33.822407 19046 net.cpp:156] Memory required for data: 1061809440
I0403 19:11:33.822427 19046 layer_factory.hpp:77] Creating layer inception_4c/relu_pool_proj
I0403 19:11:33.822449 19046 net.cpp:91] Creating Layer inception_4c/relu_pool_proj
I0403 19:11:33.822479 19046 net.cpp:425] inception_4c/relu_pool_proj <- inception_4c/pool_proj
I0403 19:11:33.822496 19046 net.cpp:386] inception_4c/relu_pool_proj -> inception_4c/pool_proj (in-place)
I0403 19:11:33.822677 19046 net.cpp:141] Setting up inception_4c/relu_pool_proj
I0403 19:11:33.822702 19046 net.cpp:148] Top shape: 24 64 14 14 (301056)
I0403 19:11:33.822717 19046 net.cpp:156] Memory required for data: 1063013664
I0403 19:11:33.822731 19046 layer_factory.hpp:77] Creating layer inception_4c/output
I0403 19:11:33.822751 19046 net.cpp:91] Creating Layer inception_4c/output
I0403 19:11:33.822767 19046 net.cpp:425] inception_4c/output <- inception_4c/1x1
I0403 19:11:33.822784 19046 net.cpp:425] inception_4c/output <- inception_4c/3x3
I0403 19:11:33.822800 19046 net.cpp:425] inception_4c/output <- inception_4c/5x5
I0403 19:11:33.822815 19046 net.cpp:425] inception_4c/output <- inception_4c/pool_proj
I0403 19:11:33.822832 19046 net.cpp:399] inception_4c/output -> inception_4c/output
I0403 19:11:33.822880 19046 net.cpp:141] Setting up inception_4c/output
I0403 19:11:33.822903 19046 net.cpp:148] Top shape: 24 512 14 14 (2408448)
I0403 19:11:33.822917 19046 net.cpp:156] Memory required for data: 1072647456
I0403 19:11:33.822932 19046 layer_factory.hpp:77] Creating layer inception_4c/output_inception_4c/output_0_split
I0403 19:11:33.822949 19046 net.cpp:91] Creating Layer inception_4c/output_inception_4c/output_0_split
I0403 19:11:33.822965 19046 net.cpp:425] inception_4c/output_inception_4c/output_0_split <- inception_4c/output
I0403 19:11:33.822988 19046 net.cpp:399] inception_4c/output_inception_4c/output_0_split -> inception_4c/output_inception_4c/output_0_split_0
I0403 19:11:33.823010 19046 net.cpp:399] inception_4c/output_inception_4c/output_0_split -> inception_4c/output_inception_4c/output_0_split_1
I0403 19:11:33.823031 19046 net.cpp:399] inception_4c/output_inception_4c/output_0_split -> inception_4c/output_inception_4c/output_0_split_2
I0403 19:11:33.823051 19046 net.cpp:399] inception_4c/output_inception_4c/output_0_split -> inception_4c/output_inception_4c/output_0_split_3
I0403 19:11:33.823140 19046 net.cpp:141] Setting up inception_4c/output_inception_4c/output_0_split
I0403 19:11:33.823163 19046 net.cpp:148] Top shape: 24 512 14 14 (2408448)
I0403 19:11:33.823179 19046 net.cpp:148] Top shape: 24 512 14 14 (2408448)
I0403 19:11:33.823194 19046 net.cpp:148] Top shape: 24 512 14 14 (2408448)
I0403 19:11:33.823210 19046 net.cpp:148] Top shape: 24 512 14 14 (2408448)
I0403 19:11:33.823225 19046 net.cpp:156] Memory required for data: 1111182624
I0403 19:11:33.823240 19046 layer_factory.hpp:77] Creating layer inception_4d/1x1
I0403 19:11:33.823262 19046 net.cpp:91] Creating Layer inception_4d/1x1
I0403 19:11:33.823279 19046 net.cpp:425] inception_4d/1x1 <- inception_4c/output_inception_4c/output_0_split_0
I0403 19:11:33.823300 19046 net.cpp:399] inception_4d/1x1 -> inception_4d/1x1
I0403 19:11:33.824686 19046 net.cpp:141] Setting up inception_4d/1x1
I0403 19:11:33.824715 19046 net.cpp:148] Top shape: 24 112 14 14 (526848)
I0403 19:11:33.824731 19046 net.cpp:156] Memory required for data: 1113290016
I0403 19:11:33.824750 19046 layer_factory.hpp:77] Creating layer inception_4d/relu_1x1
I0403 19:11:33.824767 19046 net.cpp:91] Creating Layer inception_4d/relu_1x1
I0403 19:11:33.824784 19046 net.cpp:425] inception_4d/relu_1x1 <- inception_4d/1x1
I0403 19:11:33.824803 19046 net.cpp:386] inception_4d/relu_1x1 -> inception_4d/1x1 (in-place)
I0403 19:11:33.824995 19046 net.cpp:141] Setting up inception_4d/relu_1x1
I0403 19:11:33.825018 19046 net.cpp:148] Top shape: 24 112 14 14 (526848)
I0403 19:11:33.825033 19046 net.cpp:156] Memory required for data: 1115397408
I0403 19:11:33.825047 19046 layer_factory.hpp:77] Creating layer inception_4d/3x3_reduce
I0403 19:11:33.825083 19046 net.cpp:91] Creating Layer inception_4d/3x3_reduce
I0403 19:11:33.825101 19046 net.cpp:425] inception_4d/3x3_reduce <- inception_4c/output_inception_4c/output_0_split_1
I0403 19:11:33.825124 19046 net.cpp:399] inception_4d/3x3_reduce -> inception_4d/3x3_reduce
I0403 19:11:33.826627 19046 net.cpp:141] Setting up inception_4d/3x3_reduce
I0403 19:11:33.826658 19046 net.cpp:148] Top shape: 24 144 14 14 (677376)
I0403 19:11:33.826673 19046 net.cpp:156] Memory required for data: 1118106912
I0403 19:11:33.826691 19046 layer_factory.hpp:77] Creating layer inception_4d/relu_3x3_reduce
I0403 19:11:33.826709 19046 net.cpp:91] Creating Layer inception_4d/relu_3x3_reduce
I0403 19:11:33.826725 19046 net.cpp:425] inception_4d/relu_3x3_reduce <- inception_4d/3x3_reduce
I0403 19:11:33.826742 19046 net.cpp:386] inception_4d/relu_3x3_reduce -> inception_4d/3x3_reduce (in-place)
I0403 19:11:33.827039 19046 net.cpp:141] Setting up inception_4d/relu_3x3_reduce
I0403 19:11:33.827067 19046 net.cpp:148] Top shape: 24 144 14 14 (677376)
I0403 19:11:33.827085 19046 net.cpp:156] Memory required for data: 1120816416
I0403 19:11:33.827098 19046 layer_factory.hpp:77] Creating layer inception_4d/3x3
I0403 19:11:33.827121 19046 net.cpp:91] Creating Layer inception_4d/3x3
I0403 19:11:33.827138 19046 net.cpp:425] inception_4d/3x3 <- inception_4d/3x3_reduce
I0403 19:11:33.827157 19046 net.cpp:399] inception_4d/3x3 -> inception_4d/3x3
I0403 19:11:33.831535 19046 net.cpp:141] Setting up inception_4d/3x3
I0403 19:11:33.831564 19046 net.cpp:148] Top shape: 24 288 14 14 (1354752)
I0403 19:11:33.831581 19046 net.cpp:156] Memory required for data: 1126235424
I0403 19:11:33.831600 19046 layer_factory.hpp:77] Creating layer inception_4d/relu_3x3
I0403 19:11:33.831619 19046 net.cpp:91] Creating Layer inception_4d/relu_3x3
I0403 19:11:33.831636 19046 net.cpp:425] inception_4d/relu_3x3 <- inception_4d/3x3
I0403 19:11:33.831656 19046 net.cpp:386] inception_4d/relu_3x3 -> inception_4d/3x3 (in-place)
I0403 19:11:33.831847 19046 net.cpp:141] Setting up inception_4d/relu_3x3
I0403 19:11:33.831872 19046 net.cpp:148] Top shape: 24 288 14 14 (1354752)
I0403 19:11:33.831887 19046 net.cpp:156] Memory required for data: 1131654432
I0403 19:11:33.831903 19046 layer_factory.hpp:77] Creating layer inception_4d/5x5_reduce
I0403 19:11:33.831925 19046 net.cpp:91] Creating Layer inception_4d/5x5_reduce
I0403 19:11:33.831944 19046 net.cpp:425] inception_4d/5x5_reduce <- inception_4c/output_inception_4c/output_0_split_2
I0403 19:11:33.831965 19046 net.cpp:399] inception_4d/5x5_reduce -> inception_4d/5x5_reduce
I0403 19:11:33.833137 19046 net.cpp:141] Setting up inception_4d/5x5_reduce
I0403 19:11:33.833164 19046 net.cpp:148] Top shape: 24 32 14 14 (150528)
I0403 19:11:33.833179 19046 net.cpp:156] Memory required for data: 1132256544
I0403 19:11:33.833197 19046 layer_factory.hpp:77] Creating layer inception_4d/relu_5x5_reduce
I0403 19:11:33.833215 19046 net.cpp:91] Creating Layer inception_4d/relu_5x5_reduce
I0403 19:11:33.833232 19046 net.cpp:425] inception_4d/relu_5x5_reduce <- inception_4d/5x5_reduce
I0403 19:11:33.833252 19046 net.cpp:386] inception_4d/relu_5x5_reduce -> inception_4d/5x5_reduce (in-place)
I0403 19:11:33.833441 19046 net.cpp:141] Setting up inception_4d/relu_5x5_reduce
I0403 19:11:33.833464 19046 net.cpp:148] Top shape: 24 32 14 14 (150528)
I0403 19:11:33.833478 19046 net.cpp:156] Memory required for data: 1132858656
I0403 19:11:33.833493 19046 layer_factory.hpp:77] Creating layer inception_4d/5x5
I0403 19:11:33.833515 19046 net.cpp:91] Creating Layer inception_4d/5x5
I0403 19:11:33.833534 19046 net.cpp:425] inception_4d/5x5 <- inception_4d/5x5_reduce
I0403 19:11:33.833554 19046 net.cpp:399] inception_4d/5x5 -> inception_4d/5x5
I0403 19:11:33.835038 19046 net.cpp:141] Setting up inception_4d/5x5
I0403 19:11:33.835065 19046 net.cpp:148] Top shape: 24 64 14 14 (301056)
I0403 19:11:33.835080 19046 net.cpp:156] Memory required for data: 1134062880
I0403 19:11:33.835099 19046 layer_factory.hpp:77] Creating layer inception_4d/relu_5x5
I0403 19:11:33.835134 19046 net.cpp:91] Creating Layer inception_4d/relu_5x5
I0403 19:11:33.835151 19046 net.cpp:425] inception_4d/relu_5x5 <- inception_4d/5x5
I0403 19:11:33.835168 19046 net.cpp:386] inception_4d/relu_5x5 -> inception_4d/5x5 (in-place)
I0403 19:11:33.835469 19046 net.cpp:141] Setting up inception_4d/relu_5x5
I0403 19:11:33.835495 19046 net.cpp:148] Top shape: 24 64 14 14 (301056)
I0403 19:11:33.835510 19046 net.cpp:156] Memory required for data: 1135267104
I0403 19:11:33.835526 19046 layer_factory.hpp:77] Creating layer inception_4d/pool
I0403 19:11:33.835546 19046 net.cpp:91] Creating Layer inception_4d/pool
I0403 19:11:33.835563 19046 net.cpp:425] inception_4d/pool <- inception_4c/output_inception_4c/output_0_split_3
I0403 19:11:33.835582 19046 net.cpp:399] inception_4d/pool -> inception_4d/pool
I0403 19:11:33.835650 19046 net.cpp:141] Setting up inception_4d/pool
I0403 19:11:33.835674 19046 net.cpp:148] Top shape: 24 512 14 14 (2408448)
I0403 19:11:33.835688 19046 net.cpp:156] Memory required for data: 1144900896
I0403 19:11:33.835703 19046 layer_factory.hpp:77] Creating layer inception_4d/pool_proj
I0403 19:11:33.835726 19046 net.cpp:91] Creating Layer inception_4d/pool_proj
I0403 19:11:33.835743 19046 net.cpp:425] inception_4d/pool_proj <- inception_4d/pool
I0403 19:11:33.835767 19046 net.cpp:399] inception_4d/pool_proj -> inception_4d/pool_proj
I0403 19:11:33.837534 19046 net.cpp:141] Setting up inception_4d/pool_proj
I0403 19:11:33.837563 19046 net.cpp:148] Top shape: 24 64 14 14 (301056)
I0403 19:11:33.837579 19046 net.cpp:156] Memory required for data: 1146105120
I0403 19:11:33.837597 19046 layer_factory.hpp:77] Creating layer inception_4d/relu_pool_proj
I0403 19:11:33.837615 19046 net.cpp:91] Creating Layer inception_4d/relu_pool_proj
I0403 19:11:33.837631 19046 net.cpp:425] inception_4d/relu_pool_proj <- inception_4d/pool_proj
I0403 19:11:33.837651 19046 net.cpp:386] inception_4d/relu_pool_proj -> inception_4d/pool_proj (in-place)
I0403 19:11:33.837836 19046 net.cpp:141] Setting up inception_4d/relu_pool_proj
I0403 19:11:33.837862 19046 net.cpp:148] Top shape: 24 64 14 14 (301056)
I0403 19:11:33.837875 19046 net.cpp:156] Memory required for data: 1147309344
I0403 19:11:33.837890 19046 layer_factory.hpp:77] Creating layer inception_4d/output
I0403 19:11:33.837909 19046 net.cpp:91] Creating Layer inception_4d/output
I0403 19:11:33.837926 19046 net.cpp:425] inception_4d/output <- inception_4d/1x1
I0403 19:11:33.837942 19046 net.cpp:425] inception_4d/output <- inception_4d/3x3
I0403 19:11:33.837959 19046 net.cpp:425] inception_4d/output <- inception_4d/5x5
I0403 19:11:33.837973 19046 net.cpp:425] inception_4d/output <- inception_4d/pool_proj
I0403 19:11:33.837996 19046 net.cpp:399] inception_4d/output -> inception_4d/output
I0403 19:11:33.838045 19046 net.cpp:141] Setting up inception_4d/output
I0403 19:11:33.838068 19046 net.cpp:148] Top shape: 24 528 14 14 (2483712)
I0403 19:11:33.838083 19046 net.cpp:156] Memory required for data: 1157244192
I0403 19:11:33.838099 19046 layer_factory.hpp:77] Creating layer inception_4d/output_inception_4d/output_0_split
I0403 19:11:33.838114 19046 net.cpp:91] Creating Layer inception_4d/output_inception_4d/output_0_split
I0403 19:11:33.838130 19046 net.cpp:425] inception_4d/output_inception_4d/output_0_split <- inception_4d/output
I0403 19:11:33.838150 19046 net.cpp:399] inception_4d/output_inception_4d/output_0_split -> inception_4d/output_inception_4d/output_0_split_0
I0403 19:11:33.838184 19046 net.cpp:399] inception_4d/output_inception_4d/output_0_split -> inception_4d/output_inception_4d/output_0_split_1
I0403 19:11:33.838208 19046 net.cpp:399] inception_4d/output_inception_4d/output_0_split -> inception_4d/output_inception_4d/output_0_split_2
I0403 19:11:33.838229 19046 net.cpp:399] inception_4d/output_inception_4d/output_0_split -> inception_4d/output_inception_4d/output_0_split_3
I0403 19:11:33.838250 19046 net.cpp:399] inception_4d/output_inception_4d/output_0_split -> inception_4d/output_inception_4d/output_0_split_4
I0403 19:11:33.838357 19046 net.cpp:141] Setting up inception_4d/output_inception_4d/output_0_split
I0403 19:11:33.838393 19046 net.cpp:148] Top shape: 24 528 14 14 (2483712)
I0403 19:11:33.838413 19046 net.cpp:148] Top shape: 24 528 14 14 (2483712)
I0403 19:11:33.838430 19046 net.cpp:148] Top shape: 24 528 14 14 (2483712)
I0403 19:11:33.838448 19046 net.cpp:148] Top shape: 24 528 14 14 (2483712)
I0403 19:11:33.838476 19046 net.cpp:148] Top shape: 24 528 14 14 (2483712)
I0403 19:11:33.838490 19046 net.cpp:156] Memory required for data: 1206918432
I0403 19:11:33.838505 19046 layer_factory.hpp:77] Creating layer loss2/ave_pool
I0403 19:11:33.838521 19046 net.cpp:91] Creating Layer loss2/ave_pool
I0403 19:11:33.838537 19046 net.cpp:425] loss2/ave_pool <- inception_4d/output_inception_4d/output_0_split_0
I0403 19:11:33.838558 19046 net.cpp:399] loss2/ave_pool -> loss2/ave_pool
I0403 19:11:33.838878 19046 net.cpp:141] Setting up loss2/ave_pool
I0403 19:11:33.838904 19046 net.cpp:148] Top shape: 24 528 4 4 (202752)
I0403 19:11:33.838920 19046 net.cpp:156] Memory required for data: 1207729440
I0403 19:11:33.838934 19046 layer_factory.hpp:77] Creating layer loss2/conv
I0403 19:11:33.838956 19046 net.cpp:91] Creating Layer loss2/conv
I0403 19:11:33.838974 19046 net.cpp:425] loss2/conv <- loss2/ave_pool
I0403 19:11:33.839009 19046 net.cpp:399] loss2/conv -> loss2/conv
I0403 19:11:33.840886 19046 net.cpp:141] Setting up loss2/conv
I0403 19:11:33.840914 19046 net.cpp:148] Top shape: 24 128 4 4 (49152)
I0403 19:11:33.840929 19046 net.cpp:156] Memory required for data: 1207926048
I0403 19:11:33.840946 19046 layer_factory.hpp:77] Creating layer loss2/relu_conv
I0403 19:11:33.840965 19046 net.cpp:91] Creating Layer loss2/relu_conv
I0403 19:11:33.840986 19046 net.cpp:425] loss2/relu_conv <- loss2/conv
I0403 19:11:33.841004 19046 net.cpp:386] loss2/relu_conv -> loss2/conv (in-place)
I0403 19:11:33.841300 19046 net.cpp:141] Setting up loss2/relu_conv
I0403 19:11:33.841325 19046 net.cpp:148] Top shape: 24 128 4 4 (49152)
I0403 19:11:33.841341 19046 net.cpp:156] Memory required for data: 1208122656
I0403 19:11:33.841356 19046 layer_factory.hpp:77] Creating layer loss2/fc
I0403 19:11:33.841377 19046 net.cpp:91] Creating Layer loss2/fc
I0403 19:11:33.841394 19046 net.cpp:425] loss2/fc <- loss2/conv
I0403 19:11:33.841415 19046 net.cpp:399] loss2/fc -> loss2/fc
I0403 19:11:33.858589 19046 net.cpp:141] Setting up loss2/fc
I0403 19:11:33.858619 19046 net.cpp:148] Top shape: 24 1024 (24576)
I0403 19:11:33.858634 19046 net.cpp:156] Memory required for data: 1208220960
I0403 19:11:33.858652 19046 layer_factory.hpp:77] Creating layer loss2/relu_fc
I0403 19:11:33.858669 19046 net.cpp:91] Creating Layer loss2/relu_fc
I0403 19:11:33.858685 19046 net.cpp:425] loss2/relu_fc <- loss2/fc
I0403 19:11:33.858705 19046 net.cpp:386] loss2/relu_fc -> loss2/fc (in-place)
I0403 19:11:33.859004 19046 net.cpp:141] Setting up loss2/relu_fc
I0403 19:11:33.859030 19046 net.cpp:148] Top shape: 24 1024 (24576)
I0403 19:11:33.859045 19046 net.cpp:156] Memory required for data: 1208319264
I0403 19:11:33.859060 19046 layer_factory.hpp:77] Creating layer loss2/drop_fc
I0403 19:11:33.859076 19046 net.cpp:91] Creating Layer loss2/drop_fc
I0403 19:11:33.859092 19046 net.cpp:425] loss2/drop_fc <- loss2/fc
I0403 19:11:33.859110 19046 net.cpp:386] loss2/drop_fc -> loss2/fc (in-place)
I0403 19:11:33.859158 19046 net.cpp:141] Setting up loss2/drop_fc
I0403 19:11:33.859182 19046 net.cpp:148] Top shape: 24 1024 (24576)
I0403 19:11:33.859197 19046 net.cpp:156] Memory required for data: 1208417568
I0403 19:11:33.859212 19046 layer_factory.hpp:77] Creating layer loss2/classifier_plantvillage
I0403 19:11:33.859228 19046 net.cpp:91] Creating Layer loss2/classifier_plantvillage
I0403 19:11:33.859244 19046 net.cpp:425] loss2/classifier_plantvillage <- loss2/fc
I0403 19:11:33.859266 19046 net.cpp:399] loss2/classifier_plantvillage -> loss2/classifier_plantvillage
I0403 19:11:33.859654 19046 net.cpp:141] Setting up loss2/classifier_plantvillage
I0403 19:11:33.859680 19046 net.cpp:148] Top shape: 24 38 (912)
I0403 19:11:33.859710 19046 net.cpp:156] Memory required for data: 1208421216
I0403 19:11:33.859729 19046 layer_factory.hpp:77] Creating layer loss2/classifier_plantvillage_loss2/classifier_plantvillage_0_split
I0403 19:11:33.859745 19046 net.cpp:91] Creating Layer loss2/classifier_plantvillage_loss2/classifier_plantvillage_0_split
I0403 19:11:33.859761 19046 net.cpp:425] loss2/classifier_plantvillage_loss2/classifier_plantvillage_0_split <- loss2/classifier_plantvillage
I0403 19:11:33.859778 19046 net.cpp:399] loss2/classifier_plantvillage_loss2/classifier_plantvillage_0_split -> loss2/classifier_plantvillage_loss2/classifier_plantvillage_0_split_0
I0403 19:11:33.859798 19046 net.cpp:399] loss2/classifier_plantvillage_loss2/classifier_plantvillage_0_split -> loss2/classifier_plantvillage_loss2/classifier_plantvillage_0_split_1
I0403 19:11:33.859822 19046 net.cpp:399] loss2/classifier_plantvillage_loss2/classifier_plantvillage_0_split -> loss2/classifier_plantvillage_loss2/classifier_plantvillage_0_split_2
I0403 19:11:33.859897 19046 net.cpp:141] Setting up loss2/classifier_plantvillage_loss2/classifier_plantvillage_0_split
I0403 19:11:33.859920 19046 net.cpp:148] Top shape: 24 38 (912)
I0403 19:11:33.859935 19046 net.cpp:148] Top shape: 24 38 (912)
I0403 19:11:33.859951 19046 net.cpp:148] Top shape: 24 38 (912)
I0403 19:11:33.859963 19046 net.cpp:156] Memory required for data: 1208432160
I0403 19:11:33.859982 19046 layer_factory.hpp:77] Creating layer inception_4e/1x1
I0403 19:11:33.860002 19046 net.cpp:91] Creating Layer inception_4e/1x1
I0403 19:11:33.860018 19046 net.cpp:425] inception_4e/1x1 <- inception_4d/output_inception_4d/output_0_split_1
I0403 19:11:33.860038 19046 net.cpp:399] inception_4e/1x1 -> inception_4e/1x1
I0403 19:11:33.861863 19046 net.cpp:141] Setting up inception_4e/1x1
I0403 19:11:33.861891 19046 net.cpp:148] Top shape: 24 256 14 14 (1204224)
I0403 19:11:33.861906 19046 net.cpp:156] Memory required for data: 1213249056
I0403 19:11:33.861922 19046 layer_factory.hpp:77] Creating layer inception_4e/relu_1x1
I0403 19:11:33.861942 19046 net.cpp:91] Creating Layer inception_4e/relu_1x1
I0403 19:11:33.861958 19046 net.cpp:425] inception_4e/relu_1x1 <- inception_4e/1x1
I0403 19:11:33.861974 19046 net.cpp:386] inception_4e/relu_1x1 -> inception_4e/1x1 (in-place)
I0403 19:11:33.862268 19046 net.cpp:141] Setting up inception_4e/relu_1x1
I0403 19:11:33.862293 19046 net.cpp:148] Top shape: 24 256 14 14 (1204224)
I0403 19:11:33.862308 19046 net.cpp:156] Memory required for data: 1218065952
I0403 19:11:33.862323 19046 layer_factory.hpp:77] Creating layer inception_4e/3x3_reduce
I0403 19:11:33.862347 19046 net.cpp:91] Creating Layer inception_4e/3x3_reduce
I0403 19:11:33.862365 19046 net.cpp:425] inception_4e/3x3_reduce <- inception_4d/output_inception_4d/output_0_split_2
I0403 19:11:33.862382 19046 net.cpp:399] inception_4e/3x3_reduce -> inception_4e/3x3_reduce
I0403 19:11:33.864460 19046 net.cpp:141] Setting up inception_4e/3x3_reduce
I0403 19:11:33.864500 19046 net.cpp:148] Top shape: 24 160 14 14 (752640)
I0403 19:11:33.864516 19046 net.cpp:156] Memory required for data: 1221076512
I0403 19:11:33.864534 19046 layer_factory.hpp:77] Creating layer inception_4e/relu_3x3_reduce
I0403 19:11:33.864553 19046 net.cpp:91] Creating Layer inception_4e/relu_3x3_reduce
I0403 19:11:33.864570 19046 net.cpp:425] inception_4e/relu_3x3_reduce <- inception_4e/3x3_reduce
I0403 19:11:33.864588 19046 net.cpp:386] inception_4e/relu_3x3_reduce -> inception_4e/3x3_reduce (in-place)
I0403 19:11:33.864769 19046 net.cpp:141] Setting up inception_4e/relu_3x3_reduce
I0403 19:11:33.864795 19046 net.cpp:148] Top shape: 24 160 14 14 (752640)
I0403 19:11:33.864811 19046 net.cpp:156] Memory required for data: 1224087072
I0403 19:11:33.864825 19046 layer_factory.hpp:77] Creating layer inception_4e/3x3
I0403 19:11:33.864846 19046 net.cpp:91] Creating Layer inception_4e/3x3
I0403 19:11:33.864864 19046 net.cpp:425] inception_4e/3x3 <- inception_4e/3x3_reduce
I0403 19:11:33.864882 19046 net.cpp:399] inception_4e/3x3 -> inception_4e/3x3
I0403 19:11:33.869755 19046 net.cpp:141] Setting up inception_4e/3x3
I0403 19:11:33.869796 19046 net.cpp:148] Top shape: 24 320 14 14 (1505280)
I0403 19:11:33.869813 19046 net.cpp:156] Memory required for data: 1230108192
I0403 19:11:33.869830 19046 layer_factory.hpp:77] Creating layer inception_4e/relu_3x3
I0403 19:11:33.869848 19046 net.cpp:91] Creating Layer inception_4e/relu_3x3
I0403 19:11:33.869864 19046 net.cpp:425] inception_4e/relu_3x3 <- inception_4e/3x3
I0403 19:11:33.869884 19046 net.cpp:386] inception_4e/relu_3x3 -> inception_4e/3x3 (in-place)
I0403 19:11:33.870184 19046 net.cpp:141] Setting up inception_4e/relu_3x3
I0403 19:11:33.870213 19046 net.cpp:148] Top shape: 24 320 14 14 (1505280)
I0403 19:11:33.870229 19046 net.cpp:156] Memory required for data: 1236129312
I0403 19:11:33.870244 19046 layer_factory.hpp:77] Creating layer inception_4e/5x5_reduce
I0403 19:11:33.870266 19046 net.cpp:91] Creating Layer inception_4e/5x5_reduce
I0403 19:11:33.870283 19046 net.cpp:425] inception_4e/5x5_reduce <- inception_4d/output_inception_4d/output_0_split_3
I0403 19:11:33.870304 19046 net.cpp:399] inception_4e/5x5_reduce -> inception_4e/5x5_reduce
I0403 19:11:33.871346 19046 net.cpp:141] Setting up inception_4e/5x5_reduce
I0403 19:11:33.871372 19046 net.cpp:148] Top shape: 24 32 14 14 (150528)
I0403 19:11:33.871387 19046 net.cpp:156] Memory required for data: 1236731424
I0403 19:11:33.871405 19046 layer_factory.hpp:77] Creating layer inception_4e/relu_5x5_reduce
I0403 19:11:33.871425 19046 net.cpp:91] Creating Layer inception_4e/relu_5x5_reduce
I0403 19:11:33.871441 19046 net.cpp:425] inception_4e/relu_5x5_reduce <- inception_4e/5x5_reduce
I0403 19:11:33.871459 19046 net.cpp:386] inception_4e/relu_5x5_reduce -> inception_4e/5x5_reduce (in-place)
I0403 19:11:33.871750 19046 net.cpp:141] Setting up inception_4e/relu_5x5_reduce
I0403 19:11:33.871775 19046 net.cpp:148] Top shape: 24 32 14 14 (150528)
I0403 19:11:33.871789 19046 net.cpp:156] Memory required for data: 1237333536
I0403 19:11:33.871804 19046 layer_factory.hpp:77] Creating layer inception_4e/5x5
I0403 19:11:33.871840 19046 net.cpp:91] Creating Layer inception_4e/5x5
I0403 19:11:33.871858 19046 net.cpp:425] inception_4e/5x5 <- inception_4e/5x5_reduce
I0403 19:11:33.871878 19046 net.cpp:399] inception_4e/5x5 -> inception_4e/5x5
I0403 19:11:33.873720 19046 net.cpp:141] Setting up inception_4e/5x5
I0403 19:11:33.873747 19046 net.cpp:148] Top shape: 24 128 14 14 (602112)
I0403 19:11:33.873762 19046 net.cpp:156] Memory required for data: 1239741984
I0403 19:11:33.873780 19046 layer_factory.hpp:77] Creating layer inception_4e/relu_5x5
I0403 19:11:33.873797 19046 net.cpp:91] Creating Layer inception_4e/relu_5x5
I0403 19:11:33.873813 19046 net.cpp:425] inception_4e/relu_5x5 <- inception_4e/5x5
I0403 19:11:33.873831 19046 net.cpp:386] inception_4e/relu_5x5 -> inception_4e/5x5 (in-place)
I0403 19:11:33.874028 19046 net.cpp:141] Setting up inception_4e/relu_5x5
I0403 19:11:33.874053 19046 net.cpp:148] Top shape: 24 128 14 14 (602112)
I0403 19:11:33.874066 19046 net.cpp:156] Memory required for data: 1242150432
I0403 19:11:33.874081 19046 layer_factory.hpp:77] Creating layer inception_4e/pool
I0403 19:11:33.874100 19046 net.cpp:91] Creating Layer inception_4e/pool
I0403 19:11:33.874116 19046 net.cpp:425] inception_4e/pool <- inception_4d/output_inception_4d/output_0_split_4
I0403 19:11:33.874133 19046 net.cpp:399] inception_4e/pool -> inception_4e/pool
I0403 19:11:33.874202 19046 net.cpp:141] Setting up inception_4e/pool
I0403 19:11:33.874224 19046 net.cpp:148] Top shape: 24 528 14 14 (2483712)
I0403 19:11:33.874239 19046 net.cpp:156] Memory required for data: 1252085280
I0403 19:11:33.874253 19046 layer_factory.hpp:77] Creating layer inception_4e/pool_proj
I0403 19:11:33.874274 19046 net.cpp:91] Creating Layer inception_4e/pool_proj
I0403 19:11:33.874291 19046 net.cpp:425] inception_4e/pool_proj <- inception_4e/pool
I0403 19:11:33.874310 19046 net.cpp:399] inception_4e/pool_proj -> inception_4e/pool_proj
I0403 19:11:33.875782 19046 net.cpp:141] Setting up inception_4e/pool_proj
I0403 19:11:33.875819 19046 net.cpp:148] Top shape: 24 128 14 14 (602112)
I0403 19:11:33.875835 19046 net.cpp:156] Memory required for data: 1254493728
I0403 19:11:33.875852 19046 layer_factory.hpp:77] Creating layer inception_4e/relu_pool_proj
I0403 19:11:33.875870 19046 net.cpp:91] Creating Layer inception_4e/relu_pool_proj
I0403 19:11:33.875886 19046 net.cpp:425] inception_4e/relu_pool_proj <- inception_4e/pool_proj
I0403 19:11:33.875917 19046 net.cpp:386] inception_4e/relu_pool_proj -> inception_4e/pool_proj (in-place)
I0403 19:11:33.876263 19046 net.cpp:141] Setting up inception_4e/relu_pool_proj
I0403 19:11:33.876291 19046 net.cpp:148] Top shape: 24 128 14 14 (602112)
I0403 19:11:33.876307 19046 net.cpp:156] Memory required for data: 1256902176
I0403 19:11:33.876338 19046 layer_factory.hpp:77] Creating layer inception_4e/output
I0403 19:11:33.876355 19046 net.cpp:91] Creating Layer inception_4e/output
I0403 19:11:33.876371 19046 net.cpp:425] inception_4e/output <- inception_4e/1x1
I0403 19:11:33.876389 19046 net.cpp:425] inception_4e/output <- inception_4e/3x3
I0403 19:11:33.876405 19046 net.cpp:425] inception_4e/output <- inception_4e/5x5
I0403 19:11:33.876420 19046 net.cpp:425] inception_4e/output <- inception_4e/pool_proj
I0403 19:11:33.876438 19046 net.cpp:399] inception_4e/output -> inception_4e/output
I0403 19:11:33.876488 19046 net.cpp:141] Setting up inception_4e/output
I0403 19:11:33.876514 19046 net.cpp:148] Top shape: 24 832 14 14 (3913728)
I0403 19:11:33.876529 19046 net.cpp:156] Memory required for data: 1272557088
I0403 19:11:33.876544 19046 layer_factory.hpp:77] Creating layer pool4/3x3_s2
I0403 19:11:33.876562 19046 net.cpp:91] Creating Layer pool4/3x3_s2
I0403 19:11:33.876579 19046 net.cpp:425] pool4/3x3_s2 <- inception_4e/output
I0403 19:11:33.876596 19046 net.cpp:399] pool4/3x3_s2 -> pool4/3x3_s2
I0403 19:11:33.876664 19046 net.cpp:141] Setting up pool4/3x3_s2
I0403 19:11:33.876688 19046 net.cpp:148] Top shape: 24 832 7 7 (978432)
I0403 19:11:33.876703 19046 net.cpp:156] Memory required for data: 1276470816
I0403 19:11:33.876718 19046 layer_factory.hpp:77] Creating layer pool4/3x3_s2_pool4/3x3_s2_0_split
I0403 19:11:33.876736 19046 net.cpp:91] Creating Layer pool4/3x3_s2_pool4/3x3_s2_0_split
I0403 19:11:33.876752 19046 net.cpp:425] pool4/3x3_s2_pool4/3x3_s2_0_split <- pool4/3x3_s2
I0403 19:11:33.876770 19046 net.cpp:399] pool4/3x3_s2_pool4/3x3_s2_0_split -> pool4/3x3_s2_pool4/3x3_s2_0_split_0
I0403 19:11:33.876790 19046 net.cpp:399] pool4/3x3_s2_pool4/3x3_s2_0_split -> pool4/3x3_s2_pool4/3x3_s2_0_split_1
I0403 19:11:33.876811 19046 net.cpp:399] pool4/3x3_s2_pool4/3x3_s2_0_split -> pool4/3x3_s2_pool4/3x3_s2_0_split_2
I0403 19:11:33.876833 19046 net.cpp:399] pool4/3x3_s2_pool4/3x3_s2_0_split -> pool4/3x3_s2_pool4/3x3_s2_0_split_3
I0403 19:11:33.876927 19046 net.cpp:141] Setting up pool4/3x3_s2_pool4/3x3_s2_0_split
I0403 19:11:33.876950 19046 net.cpp:148] Top shape: 24 832 7 7 (978432)
I0403 19:11:33.876966 19046 net.cpp:148] Top shape: 24 832 7 7 (978432)
I0403 19:11:33.876986 19046 net.cpp:148] Top shape: 24 832 7 7 (978432)
I0403 19:11:33.877003 19046 net.cpp:148] Top shape: 24 832 7 7 (978432)
I0403 19:11:33.877017 19046 net.cpp:156] Memory required for data: 1292125728
I0403 19:11:33.877032 19046 layer_factory.hpp:77] Creating layer inception_5a/1x1
I0403 19:11:33.877053 19046 net.cpp:91] Creating Layer inception_5a/1x1
I0403 19:11:33.877070 19046 net.cpp:425] inception_5a/1x1 <- pool4/3x3_s2_pool4/3x3_s2_0_split_0
I0403 19:11:33.877091 19046 net.cpp:399] inception_5a/1x1 -> inception_5a/1x1
I0403 19:11:33.879953 19046 net.cpp:141] Setting up inception_5a/1x1
I0403 19:11:33.879987 19046 net.cpp:148] Top shape: 24 256 7 7 (301056)
I0403 19:11:33.880003 19046 net.cpp:156] Memory required for data: 1293329952
I0403 19:11:33.880022 19046 layer_factory.hpp:77] Creating layer inception_5a/relu_1x1
I0403 19:11:33.880043 19046 net.cpp:91] Creating Layer inception_5a/relu_1x1
I0403 19:11:33.880059 19046 net.cpp:425] inception_5a/relu_1x1 <- inception_5a/1x1
I0403 19:11:33.880076 19046 net.cpp:386] inception_5a/relu_1x1 -> inception_5a/1x1 (in-place)
I0403 19:11:33.880424 19046 net.cpp:141] Setting up inception_5a/relu_1x1
I0403 19:11:33.880451 19046 net.cpp:148] Top shape: 24 256 7 7 (301056)
I0403 19:11:33.880468 19046 net.cpp:156] Memory required for data: 1294534176
I0403 19:11:33.880496 19046 layer_factory.hpp:77] Creating layer inception_5a/3x3_reduce
I0403 19:11:33.880520 19046 net.cpp:91] Creating Layer inception_5a/3x3_reduce
I0403 19:11:33.880551 19046 net.cpp:425] inception_5a/3x3_reduce <- pool4/3x3_s2_pool4/3x3_s2_0_split_1
I0403 19:11:33.880573 19046 net.cpp:399] inception_5a/3x3_reduce -> inception_5a/3x3_reduce
I0403 19:11:33.883169 19046 net.cpp:141] Setting up inception_5a/3x3_reduce
I0403 19:11:33.883198 19046 net.cpp:148] Top shape: 24 160 7 7 (188160)
I0403 19:11:33.883214 19046 net.cpp:156] Memory required for data: 1295286816
I0403 19:11:33.883232 19046 layer_factory.hpp:77] Creating layer inception_5a/relu_3x3_reduce
I0403 19:11:33.883249 19046 net.cpp:91] Creating Layer inception_5a/relu_3x3_reduce
I0403 19:11:33.883265 19046 net.cpp:425] inception_5a/relu_3x3_reduce <- inception_5a/3x3_reduce
I0403 19:11:33.883285 19046 net.cpp:386] inception_5a/relu_3x3_reduce -> inception_5a/3x3_reduce (in-place)
I0403 19:11:33.883476 19046 net.cpp:141] Setting up inception_5a/relu_3x3_reduce
I0403 19:11:33.883501 19046 net.cpp:148] Top shape: 24 160 7 7 (188160)
I0403 19:11:33.883514 19046 net.cpp:156] Memory required for data: 1296039456
I0403 19:11:33.883529 19046 layer_factory.hpp:77] Creating layer inception_5a/3x3
I0403 19:11:33.883551 19046 net.cpp:91] Creating Layer inception_5a/3x3
I0403 19:11:33.883569 19046 net.cpp:425] inception_5a/3x3 <- inception_5a/3x3_reduce
I0403 19:11:33.883591 19046 net.cpp:399] inception_5a/3x3 -> inception_5a/3x3
I0403 19:11:33.888715 19046 net.cpp:141] Setting up inception_5a/3x3
I0403 19:11:33.888743 19046 net.cpp:148] Top shape: 24 320 7 7 (376320)
I0403 19:11:33.888759 19046 net.cpp:156] Memory required for data: 1297544736
I0403 19:11:33.888777 19046 layer_factory.hpp:77] Creating layer inception_5a/relu_3x3
I0403 19:11:33.888798 19046 net.cpp:91] Creating Layer inception_5a/relu_3x3
I0403 19:11:33.888815 19046 net.cpp:425] inception_5a/relu_3x3 <- inception_5a/3x3
I0403 19:11:33.888833 19046 net.cpp:386] inception_5a/relu_3x3 -> inception_5a/3x3 (in-place)
I0403 19:11:33.889142 19046 net.cpp:141] Setting up inception_5a/relu_3x3
I0403 19:11:33.889168 19046 net.cpp:148] Top shape: 24 320 7 7 (376320)
I0403 19:11:33.889183 19046 net.cpp:156] Memory required for data: 1299050016
I0403 19:11:33.889197 19046 layer_factory.hpp:77] Creating layer inception_5a/5x5_reduce
I0403 19:11:33.889219 19046 net.cpp:91] Creating Layer inception_5a/5x5_reduce
I0403 19:11:33.889237 19046 net.cpp:425] inception_5a/5x5_reduce <- pool4/3x3_s2_pool4/3x3_s2_0_split_2
I0403 19:11:33.889261 19046 net.cpp:399] inception_5a/5x5_reduce -> inception_5a/5x5_reduce
I0403 19:11:33.890442 19046 net.cpp:141] Setting up inception_5a/5x5_reduce
I0403 19:11:33.890472 19046 net.cpp:148] Top shape: 24 32 7 7 (37632)
I0403 19:11:33.890488 19046 net.cpp:156] Memory required for data: 1299200544
I0403 19:11:33.890507 19046 layer_factory.hpp:77] Creating layer inception_5a/relu_5x5_reduce
I0403 19:11:33.890525 19046 net.cpp:91] Creating Layer inception_5a/relu_5x5_reduce
I0403 19:11:33.890542 19046 net.cpp:425] inception_5a/relu_5x5_reduce <- inception_5a/5x5_reduce
I0403 19:11:33.890559 19046 net.cpp:386] inception_5a/relu_5x5_reduce -> inception_5a/5x5_reduce (in-place)
I0403 19:11:33.890863 19046 net.cpp:141] Setting up inception_5a/relu_5x5_reduce
I0403 19:11:33.890889 19046 net.cpp:148] Top shape: 24 32 7 7 (37632)
I0403 19:11:33.890904 19046 net.cpp:156] Memory required for data: 1299351072
I0403 19:11:33.890919 19046 layer_factory.hpp:77] Creating layer inception_5a/5x5
I0403 19:11:33.890943 19046 net.cpp:91] Creating Layer inception_5a/5x5
I0403 19:11:33.890960 19046 net.cpp:425] inception_5a/5x5 <- inception_5a/5x5_reduce
I0403 19:11:33.890985 19046 net.cpp:399] inception_5a/5x5 -> inception_5a/5x5
I0403 19:11:33.892750 19046 net.cpp:141] Setting up inception_5a/5x5
I0403 19:11:33.892789 19046 net.cpp:148] Top shape: 24 128 7 7 (150528)
I0403 19:11:33.892805 19046 net.cpp:156] Memory required for data: 1299953184
I0403 19:11:33.892823 19046 layer_factory.hpp:77] Creating layer inception_5a/relu_5x5
I0403 19:11:33.892844 19046 net.cpp:91] Creating Layer inception_5a/relu_5x5
I0403 19:11:33.892861 19046 net.cpp:425] inception_5a/relu_5x5 <- inception_5a/5x5
I0403 19:11:33.892879 19046 net.cpp:386] inception_5a/relu_5x5 -> inception_5a/5x5 (in-place)
I0403 19:11:33.893075 19046 net.cpp:141] Setting up inception_5a/relu_5x5
I0403 19:11:33.893102 19046 net.cpp:148] Top shape: 24 128 7 7 (150528)
I0403 19:11:33.893118 19046 net.cpp:156] Memory required for data: 1300555296
I0403 19:11:33.893133 19046 layer_factory.hpp:77] Creating layer inception_5a/pool
I0403 19:11:33.893151 19046 net.cpp:91] Creating Layer inception_5a/pool
I0403 19:11:33.893167 19046 net.cpp:425] inception_5a/pool <- pool4/3x3_s2_pool4/3x3_s2_0_split_3
I0403 19:11:33.893185 19046 net.cpp:399] inception_5a/pool -> inception_5a/pool
I0403 19:11:33.893260 19046 net.cpp:141] Setting up inception_5a/pool
I0403 19:11:33.893282 19046 net.cpp:148] Top shape: 24 832 7 7 (978432)
I0403 19:11:33.893297 19046 net.cpp:156] Memory required for data: 1304469024
I0403 19:11:33.893312 19046 layer_factory.hpp:77] Creating layer inception_5a/pool_proj
I0403 19:11:33.893334 19046 net.cpp:91] Creating Layer inception_5a/pool_proj
I0403 19:11:33.893352 19046 net.cpp:425] inception_5a/pool_proj <- inception_5a/pool
I0403 19:11:33.893373 19046 net.cpp:399] inception_5a/pool_proj -> inception_5a/pool_proj
I0403 19:11:33.895637 19046 net.cpp:141] Setting up inception_5a/pool_proj
I0403 19:11:33.895665 19046 net.cpp:148] Top shape: 24 128 7 7 (150528)
I0403 19:11:33.895681 19046 net.cpp:156] Memory required for data: 1305071136
I0403 19:11:33.895699 19046 layer_factory.hpp:77] Creating layer inception_5a/relu_pool_proj
I0403 19:11:33.895715 19046 net.cpp:91] Creating Layer inception_5a/relu_pool_proj
I0403 19:11:33.895735 19046 net.cpp:425] inception_5a/relu_pool_proj <- inception_5a/pool_proj
I0403 19:11:33.895751 19046 net.cpp:386] inception_5a/relu_pool_proj -> inception_5a/pool_proj (in-place)
I0403 19:11:33.896044 19046 net.cpp:141] Setting up inception_5a/relu_pool_proj
I0403 19:11:33.896069 19046 net.cpp:148] Top shape: 24 128 7 7 (150528)
I0403 19:11:33.896083 19046 net.cpp:156] Memory required for data: 1305673248
I0403 19:11:33.896097 19046 layer_factory.hpp:77] Creating layer inception_5a/output
I0403 19:11:33.896113 19046 net.cpp:91] Creating Layer inception_5a/output
I0403 19:11:33.896129 19046 net.cpp:425] inception_5a/output <- inception_5a/1x1
I0403 19:11:33.896145 19046 net.cpp:425] inception_5a/output <- inception_5a/3x3
I0403 19:11:33.896162 19046 net.cpp:425] inception_5a/output <- inception_5a/5x5
I0403 19:11:33.896176 19046 net.cpp:425] inception_5a/output <- inception_5a/pool_proj
I0403 19:11:33.896194 19046 net.cpp:399] inception_5a/output -> inception_5a/output
I0403 19:11:33.896244 19046 net.cpp:141] Setting up inception_5a/output
I0403 19:11:33.896268 19046 net.cpp:148] Top shape: 24 832 7 7 (978432)
I0403 19:11:33.896283 19046 net.cpp:156] Memory required for data: 1309586976
I0403 19:11:33.896298 19046 layer_factory.hpp:77] Creating layer inception_5a/output_inception_5a/output_0_split
I0403 19:11:33.896314 19046 net.cpp:91] Creating Layer inception_5a/output_inception_5a/output_0_split
I0403 19:11:33.896330 19046 net.cpp:425] inception_5a/output_inception_5a/output_0_split <- inception_5a/output
I0403 19:11:33.896347 19046 net.cpp:399] inception_5a/output_inception_5a/output_0_split -> inception_5a/output_inception_5a/output_0_split_0
I0403 19:11:33.896371 19046 net.cpp:399] inception_5a/output_inception_5a/output_0_split -> inception_5a/output_inception_5a/output_0_split_1
I0403 19:11:33.896391 19046 net.cpp:399] inception_5a/output_inception_5a/output_0_split -> inception_5a/output_inception_5a/output_0_split_2
I0403 19:11:33.896411 19046 net.cpp:399] inception_5a/output_inception_5a/output_0_split -> inception_5a/output_inception_5a/output_0_split_3
I0403 19:11:33.896518 19046 net.cpp:141] Setting up inception_5a/output_inception_5a/output_0_split
I0403 19:11:33.896541 19046 net.cpp:148] Top shape: 24 832 7 7 (978432)
I0403 19:11:33.896558 19046 net.cpp:148] Top shape: 24 832 7 7 (978432)
I0403 19:11:33.896572 19046 net.cpp:148] Top shape: 24 832 7 7 (978432)
I0403 19:11:33.896587 19046 net.cpp:148] Top shape: 24 832 7 7 (978432)
I0403 19:11:33.896601 19046 net.cpp:156] Memory required for data: 1325241888
I0403 19:11:33.896615 19046 layer_factory.hpp:77] Creating layer inception_5b/1x1
I0403 19:11:33.896636 19046 net.cpp:91] Creating Layer inception_5b/1x1
I0403 19:11:33.896654 19046 net.cpp:425] inception_5b/1x1 <- inception_5a/output_inception_5a/output_0_split_0
I0403 19:11:33.896674 19046 net.cpp:399] inception_5b/1x1 -> inception_5b/1x1
I0403 19:11:33.900423 19046 net.cpp:141] Setting up inception_5b/1x1
I0403 19:11:33.900452 19046 net.cpp:148] Top shape: 24 384 7 7 (451584)
I0403 19:11:33.900480 19046 net.cpp:156] Memory required for data: 1327048224
I0403 19:11:33.900498 19046 layer_factory.hpp:77] Creating layer inception_5b/relu_1x1
I0403 19:11:33.900516 19046 net.cpp:91] Creating Layer inception_5b/relu_1x1
I0403 19:11:33.900532 19046 net.cpp:425] inception_5b/relu_1x1 <- inception_5b/1x1
I0403 19:11:33.900552 19046 net.cpp:386] inception_5b/relu_1x1 -> inception_5b/1x1 (in-place)
I0403 19:11:33.900856 19046 net.cpp:141] Setting up inception_5b/relu_1x1
I0403 19:11:33.900882 19046 net.cpp:148] Top shape: 24 384 7 7 (451584)
I0403 19:11:33.900897 19046 net.cpp:156] Memory required for data: 1328854560
I0403 19:11:33.900910 19046 layer_factory.hpp:77] Creating layer inception_5b/3x3_reduce
I0403 19:11:33.900933 19046 net.cpp:91] Creating Layer inception_5b/3x3_reduce
I0403 19:11:33.900949 19046 net.cpp:425] inception_5b/3x3_reduce <- inception_5a/output_inception_5a/output_0_split_1
I0403 19:11:33.900971 19046 net.cpp:399] inception_5b/3x3_reduce -> inception_5b/3x3_reduce
I0403 19:11:33.903576 19046 net.cpp:141] Setting up inception_5b/3x3_reduce
I0403 19:11:33.903605 19046 net.cpp:148] Top shape: 24 192 7 7 (225792)
I0403 19:11:33.903620 19046 net.cpp:156] Memory required for data: 1329757728
I0403 19:11:33.903640 19046 layer_factory.hpp:77] Creating layer inception_5b/relu_3x3_reduce
I0403 19:11:33.903657 19046 net.cpp:91] Creating Layer inception_5b/relu_3x3_reduce
I0403 19:11:33.903673 19046 net.cpp:425] inception_5b/relu_3x3_reduce <- inception_5b/3x3_reduce
I0403 19:11:33.903693 19046 net.cpp:386] inception_5b/relu_3x3_reduce -> inception_5b/3x3_reduce (in-place)
I0403 19:11:33.903880 19046 net.cpp:141] Setting up inception_5b/relu_3x3_reduce
I0403 19:11:33.903904 19046 net.cpp:148] Top shape: 24 192 7 7 (225792)
I0403 19:11:33.903918 19046 net.cpp:156] Memory required for data: 1330660896
I0403 19:11:33.903933 19046 layer_factory.hpp:77] Creating layer inception_5b/3x3
I0403 19:11:33.903954 19046 net.cpp:91] Creating Layer inception_5b/3x3
I0403 19:11:33.903971 19046 net.cpp:425] inception_5b/3x3 <- inception_5b/3x3_reduce
I0403 19:11:33.903998 19046 net.cpp:399] inception_5b/3x3 -> inception_5b/3x3
I0403 19:11:33.910619 19046 net.cpp:141] Setting up inception_5b/3x3
I0403 19:11:33.910646 19046 net.cpp:148] Top shape: 24 384 7 7 (451584)
I0403 19:11:33.910661 19046 net.cpp:156] Memory required for data: 1332467232
I0403 19:11:33.910679 19046 layer_factory.hpp:77] Creating layer inception_5b/relu_3x3
I0403 19:11:33.910699 19046 net.cpp:91] Creating Layer inception_5b/relu_3x3
I0403 19:11:33.910717 19046 net.cpp:425] inception_5b/relu_3x3 <- inception_5b/3x3
I0403 19:11:33.910734 19046 net.cpp:386] inception_5b/relu_3x3 -> inception_5b/3x3 (in-place)
I0403 19:11:33.911031 19046 net.cpp:141] Setting up inception_5b/relu_3x3
I0403 19:11:33.911056 19046 net.cpp:148] Top shape: 24 384 7 7 (451584)
I0403 19:11:33.911072 19046 net.cpp:156] Memory required for data: 1334273568
I0403 19:11:33.911087 19046 layer_factory.hpp:77] Creating layer inception_5b/5x5_reduce
I0403 19:11:33.911123 19046 net.cpp:91] Creating Layer inception_5b/5x5_reduce
I0403 19:11:33.911140 19046 net.cpp:425] inception_5b/5x5_reduce <- inception_5a/output_inception_5a/output_0_split_2
I0403 19:11:33.911162 19046 net.cpp:399] inception_5b/5x5_reduce -> inception_5b/5x5_reduce
I0403 19:11:33.912418 19046 net.cpp:141] Setting up inception_5b/5x5_reduce
I0403 19:11:33.912444 19046 net.cpp:148] Top shape: 24 48 7 7 (56448)
I0403 19:11:33.912459 19046 net.cpp:156] Memory required for data: 1334499360
I0403 19:11:33.912477 19046 layer_factory.hpp:77] Creating layer inception_5b/relu_5x5_reduce
I0403 19:11:33.912494 19046 net.cpp:91] Creating Layer inception_5b/relu_5x5_reduce
I0403 19:11:33.912510 19046 net.cpp:425] inception_5b/relu_5x5_reduce <- inception_5b/5x5_reduce
I0403 19:11:33.912529 19046 net.cpp:386] inception_5b/relu_5x5_reduce -> inception_5b/5x5_reduce (in-place)
I0403 19:11:33.912902 19046 net.cpp:141] Setting up inception_5b/relu_5x5_reduce
I0403 19:11:33.912927 19046 net.cpp:148] Top shape: 24 48 7 7 (56448)
I0403 19:11:33.912942 19046 net.cpp:156] Memory required for data: 1334725152
I0403 19:11:33.912957 19046 layer_factory.hpp:77] Creating layer inception_5b/5x5
I0403 19:11:33.912976 19046 net.cpp:91] Creating Layer inception_5b/5x5
I0403 19:11:33.912997 19046 net.cpp:425] inception_5b/5x5 <- inception_5b/5x5_reduce
I0403 19:11:33.913017 19046 net.cpp:399] inception_5b/5x5 -> inception_5b/5x5
I0403 19:11:33.915102 19046 net.cpp:141] Setting up inception_5b/5x5
I0403 19:11:33.915128 19046 net.cpp:148] Top shape: 24 128 7 7 (150528)
I0403 19:11:33.915143 19046 net.cpp:156] Memory required for data: 1335327264
I0403 19:11:33.915161 19046 layer_factory.hpp:77] Creating layer inception_5b/relu_5x5
I0403 19:11:33.915180 19046 net.cpp:91] Creating Layer inception_5b/relu_5x5
I0403 19:11:33.915197 19046 net.cpp:425] inception_5b/relu_5x5 <- inception_5b/5x5
I0403 19:11:33.915215 19046 net.cpp:386] inception_5b/relu_5x5 -> inception_5b/5x5 (in-place)
I0403 19:11:33.915406 19046 net.cpp:141] Setting up inception_5b/relu_5x5
I0403 19:11:33.915431 19046 net.cpp:148] Top shape: 24 128 7 7 (150528)
I0403 19:11:33.915444 19046 net.cpp:156] Memory required for data: 1335929376
I0403 19:11:33.915459 19046 layer_factory.hpp:77] Creating layer inception_5b/pool
I0403 19:11:33.915478 19046 net.cpp:91] Creating Layer inception_5b/pool
I0403 19:11:33.915495 19046 net.cpp:425] inception_5b/pool <- inception_5a/output_inception_5a/output_0_split_3
I0403 19:11:33.915513 19046 net.cpp:399] inception_5b/pool -> inception_5b/pool
I0403 19:11:33.915585 19046 net.cpp:141] Setting up inception_5b/pool
I0403 19:11:33.915608 19046 net.cpp:148] Top shape: 24 832 7 7 (978432)
I0403 19:11:33.915622 19046 net.cpp:156] Memory required for data: 1339843104
I0403 19:11:33.915637 19046 layer_factory.hpp:77] Creating layer inception_5b/pool_proj
I0403 19:11:33.915657 19046 net.cpp:91] Creating Layer inception_5b/pool_proj
I0403 19:11:33.915674 19046 net.cpp:425] inception_5b/pool_proj <- inception_5b/pool
I0403 19:11:33.915694 19046 net.cpp:399] inception_5b/pool_proj -> inception_5b/pool_proj
I0403 19:11:33.917955 19046 net.cpp:141] Setting up inception_5b/pool_proj
I0403 19:11:33.917987 19046 net.cpp:148] Top shape: 24 128 7 7 (150528)
I0403 19:11:33.918004 19046 net.cpp:156] Memory required for data: 1340445216
I0403 19:11:33.918022 19046 layer_factory.hpp:77] Creating layer inception_5b/relu_pool_proj
I0403 19:11:33.918040 19046 net.cpp:91] Creating Layer inception_5b/relu_pool_proj
I0403 19:11:33.918056 19046 net.cpp:425] inception_5b/relu_pool_proj <- inception_5b/pool_proj
I0403 19:11:33.918076 19046 net.cpp:386] inception_5b/relu_pool_proj -> inception_5b/pool_proj (in-place)
I0403 19:11:33.918385 19046 net.cpp:141] Setting up inception_5b/relu_pool_proj
I0403 19:11:33.918412 19046 net.cpp:148] Top shape: 24 128 7 7 (150528)
I0403 19:11:33.918427 19046 net.cpp:156] Memory required for data: 1341047328
I0403 19:11:33.918442 19046 layer_factory.hpp:77] Creating layer inception_5b/output
I0403 19:11:33.918472 19046 net.cpp:91] Creating Layer inception_5b/output
I0403 19:11:33.918501 19046 net.cpp:425] inception_5b/output <- inception_5b/1x1
I0403 19:11:33.918519 19046 net.cpp:425] inception_5b/output <- inception_5b/3x3
I0403 19:11:33.918534 19046 net.cpp:425] inception_5b/output <- inception_5b/5x5
I0403 19:11:33.918550 19046 net.cpp:425] inception_5b/output <- inception_5b/pool_proj
I0403 19:11:33.918570 19046 net.cpp:399] inception_5b/output -> inception_5b/output
I0403 19:11:33.918620 19046 net.cpp:141] Setting up inception_5b/output
I0403 19:11:33.918645 19046 net.cpp:148] Top shape: 24 1024 7 7 (1204224)
I0403 19:11:33.918660 19046 net.cpp:156] Memory required for data: 1345864224
I0403 19:11:33.918675 19046 layer_factory.hpp:77] Creating layer pool5/7x7_s1
I0403 19:11:33.918692 19046 net.cpp:91] Creating Layer pool5/7x7_s1
I0403 19:11:33.918709 19046 net.cpp:425] pool5/7x7_s1 <- inception_5b/output
I0403 19:11:33.918727 19046 net.cpp:399] pool5/7x7_s1 -> pool5/7x7_s1
I0403 19:11:33.918941 19046 net.cpp:141] Setting up pool5/7x7_s1
I0403 19:11:33.918964 19046 net.cpp:148] Top shape: 24 1024 1 1 (24576)
I0403 19:11:33.918988 19046 net.cpp:156] Memory required for data: 1345962528
I0403 19:11:33.919006 19046 layer_factory.hpp:77] Creating layer pool5/drop_7x7_s1
I0403 19:11:33.919024 19046 net.cpp:91] Creating Layer pool5/drop_7x7_s1
I0403 19:11:33.919040 19046 net.cpp:425] pool5/drop_7x7_s1 <- pool5/7x7_s1
I0403 19:11:33.919059 19046 net.cpp:386] pool5/drop_7x7_s1 -> pool5/7x7_s1 (in-place)
I0403 19:11:33.919111 19046 net.cpp:141] Setting up pool5/drop_7x7_s1
I0403 19:11:33.919133 19046 net.cpp:148] Top shape: 24 1024 1 1 (24576)
I0403 19:11:33.919148 19046 net.cpp:156] Memory required for data: 1346060832
I0403 19:11:33.919162 19046 layer_factory.hpp:77] Creating layer loss3/classifier_plantvillage
I0403 19:11:33.919180 19046 net.cpp:91] Creating Layer loss3/classifier_plantvillage
I0403 19:11:33.919196 19046 net.cpp:425] loss3/classifier_plantvillage <- pool5/7x7_s1
I0403 19:11:33.919216 19046 net.cpp:399] loss3/classifier_plantvillage -> loss3/classifier_plantvillage
I0403 19:11:33.919636 19046 net.cpp:141] Setting up loss3/classifier_plantvillage
I0403 19:11:33.919658 19046 net.cpp:148] Top shape: 24 38 (912)
I0403 19:11:33.919673 19046 net.cpp:156] Memory required for data: 1346064480
I0403 19:11:33.919690 19046 layer_factory.hpp:77] Creating layer loss3/classifier_plantvillage_loss3/classifier_plantvillage_0_split
I0403 19:11:33.919710 19046 net.cpp:91] Creating Layer loss3/classifier_plantvillage_loss3/classifier_plantvillage_0_split
I0403 19:11:33.919728 19046 net.cpp:425] loss3/classifier_plantvillage_loss3/classifier_plantvillage_0_split <- loss3/classifier_plantvillage
I0403 19:11:33.919746 19046 net.cpp:399] loss3/classifier_plantvillage_loss3/classifier_plantvillage_0_split -> loss3/classifier_plantvillage_loss3/classifier_plantvillage_0_split_0
I0403 19:11:33.919766 19046 net.cpp:399] loss3/classifier_plantvillage_loss3/classifier_plantvillage_0_split -> loss3/classifier_plantvillage_loss3/classifier_plantvillage_0_split_1
I0403 19:11:33.919786 19046 net.cpp:399] loss3/classifier_plantvillage_loss3/classifier_plantvillage_0_split -> loss3/classifier_plantvillage_loss3/classifier_plantvillage_0_split_2
I0403 19:11:33.919806 19046 net.cpp:399] loss3/classifier_plantvillage_loss3/classifier_plantvillage_0_split -> loss3/classifier_plantvillage_loss3/classifier_plantvillage_0_split_3
I0403 19:11:33.919905 19046 net.cpp:141] Setting up loss3/classifier_plantvillage_loss3/classifier_plantvillage_0_split
I0403 19:11:33.919927 19046 net.cpp:148] Top shape: 24 38 (912)
I0403 19:11:33.919944 19046 net.cpp:148] Top shape: 24 38 (912)
I0403 19:11:33.919957 19046 net.cpp:148] Top shape: 24 38 (912)
I0403 19:11:33.919972 19046 net.cpp:148] Top shape: 24 38 (912)
I0403 19:11:33.919991 19046 net.cpp:156] Memory required for data: 1346079072
I0403 19:11:33.920006 19046 layer_factory.hpp:77] Creating layer loss1/loss
I0403 19:11:33.920025 19046 net.cpp:91] Creating Layer loss1/loss
I0403 19:11:33.920043 19046 net.cpp:425] loss1/loss <- loss1/classifier_plantvillage_loss1/classifier_plantvillage_0_split_0
I0403 19:11:33.920073 19046 net.cpp:425] loss1/loss <- label_data_1_split_0
…
