…
I0403 18:52:00.461984 17918 net.cpp:313] The NetState phase (1) differed from the phase (0) specified by a rule in layer data
I0403 18:52:00.463109 17918 net.cpp:49] Initializing net from parameters: 
state {
  phase: TEST
}
layer {
  name: "data"
  type: "Data"
  top: "data"
  top: "label"
  include {
    phase: TEST
  }
  transform_param {
    mirror: false
    crop_size: 224
    mean_file: "/home/mohanty/data/final_dataset/lmdb/segmented-60-40/mean.binaryproto"
  }
  data_param {
    source: "/home/mohanty/data/final_dataset/lmdb/segmented-60-40/test_db"
    batch_size: 24
    backend: LMDB
  }
}
layer {
  name: "conv1/7x7_s2"
  type: "Convolution"
  bottom: "data"
  top: "conv1/7x7_s2"
  param {
    lr_mult: 1
    decay_mult: 1
  }
  param {
    lr_mult: 2
    decay_mult: 0
  }
  convolution_param {
    num_output: 64
    pad: 3
    kernel_size: 7
    stride: 2
    weight_filler {
      type: "xavier"
      std: 0.1
    }
    bias_filler {
      type: "constant"
      value: 0.2
    }
  }
}
layer {
  name: "conv1/relu_7x7"
  type: "ReLU"
  bottom: "conv1/7x7_s2"
  top: "conv1/7x7_s2"
}
layer {
  name: "pool1/3x3_s2"
  type: "Pooling"
  bottom: "conv1/7x7_s2"
  top: "pool1/3x3_s2"
  pooling_param {
    pool: MAX
    kernel_size: 3
    stride: 2
  }
}
layer {
  name: "pool1/norm1"
  type: "LRN"
  bottom: "pool1/3x3_s2"
  top: "pool1/norm1"
  lrn_param {
    local_size: 5
    alpha: 0.0001
    beta: 0.75
  }
}
layer {
  name: "conv2/3x3_reduce"
  type: "Convolution"
  bottom: "pool1/norm1"
  top: "conv2/3x3_reduce"
  param {
    lr_mult: 1
    decay_mult: 1
  }
  param {
    lr_mult: 2
    decay_mult: 0
  }
  convolution_param {
    num_output: 64
    kernel_size: 1
    weight_filler {
      type: "xavier"
      std: 0.1
    }
    bias_filler {
      type: "constant"
      value: 0.2
    }
  }
}
layer {
  name: "conv2/relu_3x3_reduce"
  type: "ReLU"
  bottom: "conv2/3x3_reduce"
  top: "conv2/3x3_reduce"
}
layer {
  name: "conv2/3x3"
  type: "Convolution"
  bottom: "conv2/3x3_reduce"
  top: "conv2/3x3"
  param {
    lr_mult: 1
    decay_mult: 1
  }
  param {
    lr_mult: 2
    decay_mult: 0
  }
  convolution_param {
    num_output: 192
    pad: 1
    kernel_size: 3
    weight_filler {
      type: "xavier"
      std: 0.03
    }
    bias_filler {
      type: "constant"
      value: 0.2
    }
  }
}
layer {
  name: "conv2/relu_3x3"
  type: "ReLU"
  bottom: "conv2/3x3"
  top: "conv2/3x3"
}
layer {
  name: "conv2/norm2"
  type: "LRN"
  bottom: "conv2/3x3"
  top: "conv2/norm2"
  lrn_param {
    local_size: 5
    alpha: 0.0001
    beta: 0.75
  }
}
layer {
  name: "pool2/3x3_s2"
  type: "Pooling"
  bottom: "conv2/norm2"
  top: "pool2/3x3_s2"
  pooling_param {
    pool: MAX
    kernel_size: 3
    stride: 2
  }
}
layer {
  name: "inception_3a/1x1"
  type: "Convolution"
  bottom: "pool2/3x3_s2"
  top: "inception_3a/1x1"
  param {
    lr_mult: 1
    decay_mult: 1
  }
  param {
    lr_mult: 2
    decay_mult: 0
  }
  convolution_param {
    num_output: 64
    kernel_size: 1
    weight_filler {
      type: "xavier"
      std: 0.03
    }
    bias_filler {
      type: "constant"
      value: 0.2
    }
  }
}
layer {
  name: "inception_3a/relu_1x1"
  type: "ReLU"
  bottom: "inception_3a/1x1"
  top: "inception_3a/1x1"
}
layer {
  name: "inception_3a/3x3_reduce"
  type: "Convolution"
  bottom: "pool2/3x3_s2"
  top: "inception_3a/3x3_reduce"
  param {
    lr_mult: 1
    decay_mult: 1
  }
  param {
    lr_mult: 2
    decay_mult: 0
  }
  convolution_param {
    num_output: 96
    kernel_size: 1
    weight_filler {
      type: "xavier"
      std: 0.09
    }
    bias_filler {
      type: "constant"
      value: 0.2
    }
  }
}
layer {
  name: "inception_3a/relu_3x3_reduce"
  type: "ReLU"
  bottom: "inception_3a/3x3_reduce"
  top: "inception_3a/3x3_reduce"
}
layer {
  name: "inception_3a/3x3"
  type: "Convolution"
  bottom: "inception_3a/3x3_reduce"
  top: "inception_3a/3x3"
  param {
    lr_mult: 1
    decay_mult: 1
  }
  param {
    lr_mult: 2
    decay_mult: 0
  }
  convolution_param {
    num_output: 128
    pad: 1
    kernel_size: 3
    weight_filler {
      type: "xavier"
      std: 0.03
    }
    bias_filler {
      type: "constant"
      value: 0.2
    }
  }
}
layer {
  name: "inception_3a/relu_3x3"
  type: "ReLU"
  bottom: "inception_3a/3x3"
  top: "inception_3a/3x3"
}
layer {
  name: "inception_3a/5x5_reduce"
  type: "Convolution"
  bottom: "pool2/3x3_s2"
  top: "inception_3a/5x5_reduce"
  param {
    lr_mult: 1
    decay_mult: 1
  }
  param {
    lr_mult: 2
    decay_mult: 0
  }
  convolution_param {
    num_output: 16
    kernel_size: 1
    weight_filler {
      type: "xavier"
      std: 0.2
    }
    bias_filler {
      type: "constant"
      value: 0.2
    }
  }
}
layer {
  name: "inception_3a/relu_5x5_reduce"
  type: "ReLU"
  bottom: "inception_3a/5x5_reduce"
  top: "inception_3a/5x5_reduce"
}
layer {
  name: "inception_3a/5x5"
  type: "Convolution"
  bottom: "inception_3a/5x5_reduce"
  top: "inception_3a/5x5"
  param {
    lr_mult: 1
    decay_mult: 1
  }
  param {
    lr_mult: 2
    decay_mult: 0
  }
  convolution_param {
    num_output: 32
    pad: 2
    kernel_size: 5
    weight_filler {
      type: "xavier"
      std: 0.03
    }
    bias_filler {
      type: "constant"
      value: 0.2
    }
  }
}
layer {
  name: "inception_3a/relu_5x5"
  type: "ReLU"
  bottom: "inception_3a/5x5"
  top: "inception_3a/5x5"
}
layer {
  name: "inception_3a/pool"
  type: "Pooling"
  bottom: "pool2/3x3_s2"
  top: "inception_3a/pool"
  pooling_param {
    pool: MAX
    kernel_size: 3
    stride: 1
    pad: 1
  }
}
layer {
  name: "inception_3a/pool_proj"
  type: "Convolution"
  bottom: "inception_3a/pool"
  top: "inception_3a/pool_proj"
  param {
    lr_mult: 1
    decay_mult: 1
  }
  param {
    lr_mult: 2
    decay_mult: 0
  }
  convolution_param {
    num_output: 32
    kernel_size: 1
    weight_filler {
      type: "xavier"
      std: 0.1
    }
    bias_filler {
      type: "constant"
      value: 0.2
    }
  }
}
layer {
  name: "inception_3a/relu_pool_proj"
  type: "ReLU"
  bottom: "inception_3a/pool_proj"
  top: "inception_3a/pool_proj"
}
layer {
  name: "inception_3a/output"
  type: "Concat"
  bottom: "inception_3a/1x1"
  bottom: "inception_3a/3x3"
  bottom: "inception_3a/5x5"
  bottom: "inception_3a/pool_proj"
  top: "inception_3a/output"
}
layer {
  name: "inception_3b/1x1"
  type: "Convolution"
  bottom: "inception_3a/output"
  top: "inception_3b/1x1"
  param {
    lr_mult: 1
    decay_mult: 1
  }
  param {
    lr_mult: 2
    decay_mult: 0
  }
  convolution_param {
    num_output: 128
    kernel_size: 1
    weight_filler {
      type: "xavier"
      std: 0.03
    }
    bias_filler {
      type: "constant"
      value: 0.2
    }
  }
}
layer {
  name: "inception_3b/relu_1x1"
  type: "ReLU"
  bottom: "inception_3b/1x1"
  top: "inception_3b/1x1"
}
layer {
  name: "inception_3b/3x3_reduce"
  type: "Convolution"
  bottom: "inception_3a/output"
  top: "inception_3b/3x3_reduce"
  param {
    lr_mult: 1
    decay_mult: 1
  }
  param {
    lr_mult: 2
    decay_mult: 0
  }
  convolution_param {
    num_output: 128
    kernel_size: 1
    weight_filler {
      type: "xavier"
      std: 0.09
    }
    bias_filler {
      type: "constant"
      value: 0.2
    }
  }
}
layer {
  name: "inception_3b/relu_3x3_reduce"
  type: "ReLU"
  bottom: "inception_3b/3x3_reduce"
  top: "inception_3b/3x3_reduce"
}
layer {
  name: "inception_3b/3x3"
  type: "Convolution"
  bottom: "inception_3b/3x3_reduce"
  top: "inception_3b/3x3"
  param {
    lr_mult: 1
    decay_mult: 1
  }
  param {
    lr_mult: 2
    decay_mult: 0
  }
  convolution_param {
    num_output: 192
    pad: 1
    kernel_size: 3
    weight_filler {
      type: "xavier"
      std: 0.03
    }
    bias_filler {
      type: "constant"
      value: 0.2
    }
  }
}
layer {
  name: "inception_3b/relu_3x3"
  type: "ReLU"
  bottom: "inception_3b/3x3"
  top: "inception_3b/3x3"
}
layer {
  name: "inception_3b/5x5_reduce"
  type: "Convolution"
  bottom: "inception_3a/output"
  top: "inception_3b/5x5_reduce"
  param {
    lr_mult: 1
    decay_mult: 1
  }
  param {
    lr_mult: 2
    decay_mult: 0
  }
  convolution_param {
    num_output: 32
    kernel_size: 1
    weight_filler {
      type: "xavier"
      std: 0.2
    }
    bias_filler {
      type: "constant"
      value: 0.2
    }
  }
}
layer {
  name: "inception_3b/relu_5x5_reduce"
  type: "ReLU"
  bottom: "inception_3b/5x5_reduce"
  top: "inception_3b/5x5_reduce"
}
layer {
  name: "inception_3b/5x5"
  type: "Convolution"
  bottom: "inception_3b/5x5_reduce"
  top: "inception_3b/5x5"
  param {
    lr_mult: 1
    decay_mult: 1
  }
  param {
    lr_mult: 2
    decay_mult: 0
  }
  convolution_param {
    num_output: 96
    pad: 2
    kernel_size: 5
    weight_filler {
      type: "xavier"
      std: 0.03
    }
    bias_filler {
      type: "constant"
      value: 0.2
    }
  }
}
layer {
  name: "inception_3b/relu_5x5"
  type: "ReLU"
  bottom: "inception_3b/5x5"
  top: "inception_3b/5x5"
}
layer {
  name: "inception_3b/pool"
  type: "Pooling"
  bottom: "inception_3a/output"
  top: "inception_3b/pool"
  pooling_param {
    pool: MAX
    kernel_size: 3
    stride: 1
    pad: 1
  }
}
layer {
  name: "inception_3b/pool_proj"
  type: "Convolution"
  bottom: "inception_3b/pool"
  top: "inception_3b/pool_proj"
  param {
    lr_mult: 1
    decay_mult: 1
  }
  param {
    lr_mult: 2
    decay_mult: 0
  }
  convolution_param {
    num_output: 64
    kernel_size: 1
    weight_filler {
      type: "xavier"
      std: 0.1
    }
    bias_filler {
      type: "constant"
      value: 0.2
    }
  }
}
layer {
  name: "inception_3b/relu_pool_proj"
  type: "ReLU"
  bottom: "inception_3b/pool_proj"
  top: "inception_3b/pool_proj"
}
layer {
  name: "inception_3b/output"
  type: "Concat"
  bottom: "inception_3b/1x1"
  bottom: "inception_3b/3x3"
  bottom: "inception_3b/5x5"
  bottom: "inception_3b/pool_proj"
  top: "inception_3b/output"
}
layer {
  name: "pool3/3x3_s2"
  type: "Pooling"
  bottom: "inception_3b/output"
  top: "pool3/3x3_s2"
  pooling_param {
    pool: MAX
    kernel_size: 3
    stride: 2
  }
}
layer {
  name: "inception_4a/1x1"
  type: "Convolution"
  bottom: "pool3/3x3_s2"
  top: "inception_4a/1x1"
  param {
    lr_mult: 1
    decay_mult: 1
  }
  param {
    lr_mult: 2
    decay_mult: 0
  }
  convolution_param {
    num_output: 192
    kernel_size: 1
    weight_filler {
      type: "xavier"
      std: 0.03
    }
    bias_filler {
      type: "constant"
      value: 0.2
    }
  }
}
layer {
  name: "inception_4a/relu_1x1"
  type: "ReLU"
  bottom: "inception_4a/1x1"
  top: "inception_4a/1x1"
}
layer {
  name: "inception_4a/3x3_reduce"
  type: "Convolution"
  bottom: "pool3/3x3_s2"
  top: "inception_4a/3x3_reduce"
  param {
    lr_mult: 1
    decay_mult: 1
  }
  param {
    lr_mult: 2
    decay_mult: 0
  }
  convolution_param {
    num_output: 96
    kernel_size: 1
    weight_filler {
      type: "xavier"
      std: 0.09
    }
    bias_filler {
      type: "constant"
      value: 0.2
    }
  }
}
layer {
  name: "inception_4a/relu_3x3_reduce"
  type: "ReLU"
  bottom: "inception_4a/3x3_reduce"
  top: "inception_4a/3x3_reduce"
}
layer {
  name: "inception_4a/3x3"
  type: "Convolution"
  bottom: "inception_4a/3x3_reduce"
  top: "inception_4a/3x3"
  param {
    lr_mult: 1
    decay_mult: 1
  }
  param {
    lr_mult: 2
    decay_mult: 0
  }
  convolution_param {
    num_output: 208
    pad: 1
    kernel_size: 3
    weight_filler {
      type: "xavier"
      std: 0.03
    }
    bias_filler {
      type: "constant"
      value: 0.2
    }
  }
}
layer {
  name: "inception_4a/relu_3x3"
  type: "ReLU"
  bottom: "inception_4a/3x3"
  top: "inception_4a/3x3"
}
layer {
  name: "inception_4a/5x5_reduce"
  type: "Convolution"
  bottom: "pool3/3x3_s2"
  top: "inception_4a/5x5_reduce"
  param {
    lr_mult: 1
    decay_mult: 1
  }
  param {
    lr_mult: 2
    decay_mult: 0
  }
  convolution_param {
    num_output: 16
    kernel_size: 1
    weight_filler {
      type: "xavier"
      std: 0.2
    }
    bias_filler {
      type: "constant"
      value: 0.2
    }
  }
}
layer {
  name: "inception_4a/relu_5x5_reduce"
  type: "ReLU"
  bottom: "inception_4a/5x5_reduce"
  top: "inception_4a/5x5_reduce"
}
layer {
  name: "inception_4a/5x5"
  type: "Convolution"
  bottom: "inception_4a/5x5_reduce"
  top: "inception_4a/5x5"
  param {
    lr_mult: 1
    decay_mult: 1
  }
  param {
    lr_mult: 2
    decay_mult: 0
  }
  convolution_param {
    num_output: 48
    pad: 2
    kernel_size: 5
    weight_filler {
      type: "xavier"
      std: 0.03
    }
    bias_filler {
      type: "constant"
      value: 0.2
    }
  }
}
layer {
  name: "inception_4a/relu_5x5"
  type: "ReLU"
  bottom: "inception_4a/5x5"
  top: "inception_4a/5x5"
}
layer {
  name: "inception_4a/pool"
  type: "Pooling"
  bottom: "pool3/3x3_s2"
  top: "inception_4a/pool"
  pooling_param {
    pool: MAX
    kernel_size: 3
    stride: 1
    pad: 1
  }
}
layer {
  name: "inception_4a/pool_proj"
  type: "Convolution"
  bottom: "inception_4a/pool"
  top: "inception_4a/pool_proj"
  param {
    lr_mult: 1
    decay_mult: 1
  }
  param {
    lr_mult: 2
    decay_mult: 0
  }
  convolution_param {
    num_output: 64
    kernel_size: 1
    weight_filler {
      type: "xavier"
      std: 0.1
    }
    bias_filler {
      type: "constant"
      value: 0.2
    }
  }
}
layer {
  name: "inception_4a/relu_pool_proj"
  type: "ReLU"
  bottom: "inception_4a/pool_proj"
  top: "inception_4a/pool_proj"
}
layer {
  name: "inception_4a/output"
  type: "Concat"
  bottom: "inception_4a/1x1"
  bottom: "inception_4a/3x3"
  bottom: "inception_4a/5x5"
  bottom: "inception_4a/pool_proj"
  top: "inception_4a/output"
}
layer {
  name: "loss1/ave_pool"
  type: "Pooling"
  bottom: "inception_4a/output"
  top: "loss1/ave_pool"
  pooling_param {
    pool: AVE
    kernel_size: 5
    stride: 3
  }
}
layer {
  name: "loss1/conv"
  type: "Convolution"
  bottom: "loss1/ave_pool"
  top: "loss1/conv"
  param {
    lr_mult: 1
    decay_mult: 1
  }
  param {
    lr_mult: 2
    decay_mult: 0
  }
  convolution_param {
    num_output: 128
    kernel_size: 1
    weight_filler {
      type: "xavier"
      std: 0.08
    }
    bias_filler {
      type: "constant"
      value: 0.2
    }
  }
}
layer {
  name: "loss1/relu_conv"
  type: "ReLU"
  bottom: "loss1/conv"
  top: "loss1/conv"
}
layer {
  name: "loss1/fc"
  type: "InnerProduct"
  bottom: "loss1/conv"
  top: "loss1/fc"
  param {
    lr_mult: 1
    decay_mult: 1
  }
  param {
    lr_mult: 2
    decay_mult: 0
  }
  inner_product_param {
    num_output: 1024
    weight_filler {
      type: "xavier"
      std: 0.02
    }
    bias_filler {
      type: "constant"
      value: 0.2
    }
  }
}
layer {
  name: "loss1/relu_fc"
  type: "ReLU"
  bottom: "loss1/fc"
  top: "loss1/fc"
}
layer {
  name: "loss1/drop_fc"
  type: "Dropout"
  bottom: "loss1/fc"
  top: "loss1/fc"
  dropout_param {
    dropout_ratio: 0.7
  }
}
layer {
  name: "loss1/classifier_plantvillage"
  type: "InnerProduct"
  bottom: "loss1/fc"
  top: "loss1/classifier_plantvillage"
  param {
    lr_mult: 1
    decay_mult: 1
  }
  param {
    lr_mult: 2
    decay_mult: 0
  }
  inner_product_param {
    num_output: 38
    weight_filler {
      type: "xavier"
      std: 0.0009765625
    }
    bias_filler {
      type: "constant"
      value: 0
    }
  }
}
layer {
  name: "inception_4b/1x1"
  type: "Convolution"
  bottom: "inception_4a/output"
  top: "inception_4b/1x1"
  param {
    lr_mult: 1
    decay_mult: 1
  }
  param {
    lr_mult: 2
    decay_mult: 0
  }
  convolution_param {
    num_output: 160
    kernel_size: 1
    weight_filler {
      type: "xavier"
      std: 0.03
    }
    bias_filler {
      type: "constant"
      value: 0.2
    }
  }
}
layer {
  name: "inception_4b/relu_1x1"
  type: "ReLU"
  bottom: "inception_4b/1x1"
  top: "inception_4b/1x1"
}
layer {
  name: "inception_4b/3x3_reduce"
  type: "Convolution"
  bottom: "inception_4a/output"
  top: "inception_4b/3x3_reduce"
  param {
    lr_mult: 1
    decay_mult: 1
  }
  param {
    lr_mult: 2
    decay_mult: 0
  }
  convolution_param {
    num_output: 112
    kernel_size: 1
    weight_filler {
      type: "xavier"
      std: 0.09
    }
    bias_filler {
      type: "constant"
      value: 0.2
    }
  }
}
layer {
  name: "inception_4b/relu_3x3_reduce"
  type: "ReLU"
  bottom: "inception_4b/3x3_reduce"
  top: "inception_4b/3x3_reduce"
}
layer {
  name: "inception_4b/3x3"
  type: "Convolution"
  bottom: "inception_4b/3x3_reduce"
  top: "inception_4b/3x3"
  param {
    lr_mult: 1
    decay_mult: 1
  }
  param {
    lr_mult: 2
    decay_mult: 0
  }
  convolution_param {
    num_output: 224
    pad: 1
    kernel_size: 3
    weight_filler {
      type: "xavier"
      std: 0.03
    }
    bias_filler {
      type: "constant"
      value: 0.2
    }
  }
}
layer {
  name: "inception_4b/relu_3x3"
  type: "ReLU"
  bottom: "inception_4b/3x3"
  top: "inception_4b/3x3"
}
layer {
  name: "inception_4b/5x5_reduce"
  type: "Convolution"
  bottom: "inception_4a/output"
  top: "inception_4b/5x5_reduce"
  param {
    lr_mult: 1
    decay_mult: 1
  }
  param {
    lr_mult: 2
    decay_mult: 0
  }
  convolution_param {
    num_output: 24
    kernel_size: 1
    weight_filler {
      type: "xavier"
      std: 0.2
    }
    bias_filler {
      type: "constant"
      value: 0.2
    }
  }
}
layer {
  name: "inception_4b/relu_5x5_reduce"
  type: "ReLU"
  bottom: "inception_4b/5x5_reduce"
  top: "inception_4b/5x5_reduce"
}
layer {
  name: "inception_4b/5x5"
  type: "Convolution"
  bottom: "inception_4b/5x5_reduce"
  top: "inception_4b/5x5"
  param {
    lr_mult: 1
    decay_mult: 1
  }
  param {
    lr_mult: 2
    decay_mult: 0
  }
  convolution_param {
    num_output: 64
    pad: 2
    kernel_size: 5
    weight_filler {
      type: "xavier"
      std: 0.03
    }
    bias_filler {
      type: "constant"
      value: 0.2
    }
  }
}
layer {
  name: "inception_4b/relu_5x5"
  type: "ReLU"
  bottom: "inception_4b/5x5"
  top: "inception_4b/5x5"
}
layer {
  name: "inception_4b/pool"
  type: "Pooling"
  bottom: "inception_4a/output"
  top: "inception_4b/pool"
  pooling_param {
    pool: MAX
    kernel_size: 3
    stride: 1
    pad: 1
  }
}
layer {
  name: "inception_4b/pool_proj"
  type: "Convolution"
  bottom: "inception_4b/pool"
  top: "inception_4b/pool_proj"
  param {
    lr_mult: 1
    decay_mult: 1
  }
  param {
    lr_mult: 2
    decay_mult: 0
  }
  convolution_param {
    num_output: 64
    kernel_size: 1
    weight_filler {
      type: "xavier"
      std: 0.1
    }
    bias_filler {
      type: "constant"
      value: 0.2
    }
  }
}
layer {
  name: "inception_4b/relu_pool_proj"
  type: "ReLU"
  bottom: "inception_4b/pool_proj"
  top: "inception_4b/pool_proj"
}
layer {
  name: "inception_4b/output"
  type: "Concat"
  bottom: "inception_4b/1x1"
  bottom: "inception_4b/3x3"
  bottom: "inception_4b/5x5"
  bottom: "inception_4b/pool_proj"
  top: "inception_4b/output"
}
layer {
  name: "inception_4c/1x1"
  type: "Convolution"
  bottom: "inception_4b/output"
  top: "inception_4c/1x1"
  param {
    lr_mult: 1
    decay_mult: 1
  }
  param {
    lr_mult: 2
    decay_mult: 0
  }
  convolution_param {
    num_output: 128
    kernel_size: 1
    weight_filler {
      type: "xavier"
      std: 0.03
    }
    bias_filler {
      type: "constant"
      value: 0.2
    }
  }
}
layer {
  name: "inception_4c/relu_1x1"
  type: "ReLU"
  bottom: "inception_4c/1x1"
  top: "inception_4c/1x1"
}
layer {
  name: "inception_4c/3x3_reduce"
  type: "Convolution"
  bottom: "inception_4b/output"
  top: "inception_4c/3x3_reduce"
  param {
    lr_mult: 1
    decay_mult: 1
  }
  param {
    lr_mult: 2
    decay_mult: 0
  }
  convolution_param {
    num_output: 128
    kernel_size: 1
    weight_filler {
      type: "xavier"
      std: 0.09
    }
    bias_filler {
      type: "constant"
      value: 0.2
    }
  }
}
layer {
  name: "inception_4c/relu_3x3_reduce"
  type: "ReLU"
  bottom: "inception_4c/3x3_reduce"
  top: "inception_4c/3x3_reduce"
}
layer {
  name: "inception_4c/3x3"
  type: "Convolution"
  bottom: "inception_4c/3x3_reduce"
  top: "inception_4c/3x3"
  param {
    lr_mult: 1
    decay_mult: 1
  }
  param {
    lr_mult: 2
    decay_mult: 0
  }
  convolution_param {
    num_output: 256
    pad: 1
    kernel_size: 3
    weight_filler {
      type: "xavier"
      std: 0.03
    }
    bias_filler {
      type: "constant"
      value: 0.2
    }
  }
}
layer {
  name: "inception_4c/relu_3x3"
  type: "ReLU"
  bottom: "inception_4c/3x3"
  top: "inception_4c/3x3"
}
layer {
  name: "inception_4c/5x5_reduce"
  type: "Convolution"
  bottom: "inception_4b/output"
  top: "inception_4c/5x5_reduce"
  param {
    lr_mult: 1
    decay_mult: 1
  }
  param {
    lr_mult: 2
    decay_mult: 0
  }
  convolution_param {
    num_output: 24
    kernel_size: 1
    weight_filler {
      type: "xavier"
      std: 0.2
    }
    bias_filler {
      type: "constant"
      value: 0.2
    }
  }
}
layer {
  name: "inception_4c/relu_5x5_reduce"
  type: "ReLU"
  bottom: "inception_4c/5x5_reduce"
  top: "inception_4c/5x5_reduce"
}
layer {
  name: "inception_4c/5x5"
  type: "Convolution"
  bottom: "inception_4c/5x5_reduce"
  top: "inception_4c/5x5"
  param {
    lr_mult: 1
    decay_mult: 1
  }
  param {
    lr_mult: 2
    decay_mult: 0
  }
  convolution_param {
    num_output: 64
    pad: 2
    kernel_size: 5
    weight_filler {
      type: "xavier"
      std: 0.03
    }
    bias_filler {
      type: "constant"
      value: 0.2
    }
  }
}
layer {
  name: "inception_4c/relu_5x5"
  type: "ReLU"
  bottom: "inception_4c/5x5"
  top: "inception_4c/5x5"
}
layer {
  name: "inception_4c/pool"
  type: "Pooling"
  bottom: "inception_4b/output"
  top: "inception_4c/pool"
  pooling_param {
    pool: MAX
    kernel_size: 3
    stride: 1
    pad: 1
  }
}
layer {
  name: "inception_4c/pool_proj"
  type: "Convolution"
  bottom: "inception_4c/pool"
  top: "inception_4c/pool_proj"
  param {
    lr_mult: 1
    decay_mult: 1
  }
  param {
    lr_mult: 2
    decay_mult: 0
  }
  convolution_param {
    num_output: 64
    kernel_size: 1
    weight_filler {
      type: "xavier"
      std: 0.1
    }
    bias_filler {
      type: "constant"
      value: 0.2
    }
  }
}
layer {
  name: "inception_4c/relu_pool_proj"
  type: "ReLU"
  bottom: "inception_4c/pool_proj"
  top: "inception_4c/pool_proj"
}
layer {
  name: "inception_4c/output"
  type: "Concat"
  bottom: "inception_4c/1x1"
  bottom: "inception_4c/3x3"
  bottom: "inception_4c/5x5"
  bottom: "inception_4c/pool_proj"
  top: "inception_4c/output"
}
layer {
  name: "inception_4d/1x1"
  type: "Convolution"
  bottom: "inception_4c/output"
  top: "inception_4d/1x1"
  param {
    lr_mult: 1
    decay_mult: 1
  }
  param {
    lr_mult: 2
    decay_mult: 0
  }
  convolution_param {
    num_output: 112
    kernel_size: 1
    weight_filler {
      type: "xavier"
      std: 0.03
    }
    bias_filler {
      type: "constant"
      value: 0.2
    }
  }
}
layer {
  name: "inception_4d/relu_1x1"
  type: "ReLU"
  bottom: "inception_4d/1x1"
  top: "inception_4d/1x1"
}
layer {
  name: "inception_4d/3x3_reduce"
  type: "Convolution"
  bottom: "inception_4c/output"
  top: "inception_4d/3x3_reduce"
  param {
    lr_mult: 1
    decay_mult: 1
  }
  param {
    lr_mult: 2
    decay_mult: 0
  }
  convolution_param {
    num_output: 144
    kernel_size: 1
    weight_filler {
      type: "xavier"
      std: 0.09
    }
    bias_filler {
      type: "constant"
      value: 0.2
    }
  }
}
layer {
  name: "inception_4d/relu_3x3_reduce"
  type: "ReLU"
  bottom: "inception_4d/3x3_reduce"
  top: "inception_4d/3x3_reduce"
}
layer {
  name: "inception_4d/3x3"
  type: "Convolution"
  bottom: "inception_4d/3x3_reduce"
  top: "inception_4d/3x3"
  param {
    lr_mult: 1
    decay_mult: 1
  }
  param {
    lr_mult: 2
    decay_mult: 0
  }
  convolution_param {
    num_output: 288
    pad: 1
    kernel_size: 3
    weight_filler {
      type: "xavier"
      std: 0.03
    }
    bias_filler {
      type: "constant"
      value: 0.2
    }
  }
}
layer {
  name: "inception_4d/relu_3x3"
  type: "ReLU"
  bottom: "inception_4d/3x3"
  top: "inception_4d/3x3"
}
layer {
  name: "inception_4d/5x5_reduce"
  type: "Convolution"
  bottom: "inception_4c/output"
  top: "inception_4d/5x5_reduce"
  param {
    lr_mult: 1
    decay_mult: 1
  }
  param {
    lr_mult: 2
    decay_mult: 0
  }
  convolution_param {
    num_output: 32
    kernel_size: 1
    weight_filler {
      type: "xavier"
      std: 0.2
    }
    bias_filler {
      type: "constant"
      value: 0.2
    }
  }
}
layer {
  name: "inception_4d/relu_5x5_reduce"
  type: "ReLU"
  bottom: "inception_4d/5x5_reduce"
  top: "inception_4d/5x5_reduce"
}
layer {
  name: "inception_4d/5x5"
  type: "Convolution"
  bottom: "inception_4d/5x5_reduce"
  top: "inception_4d/5x5"
  param {
    lr_mult: 1
    decay_mult: 1
  }
  param {
    lr_mult: 2
    decay_mult: 0
  }
  convolution_param {
    num_output: 64
    pad: 2
    kernel_size: 5
    weight_filler {
      type: "xavier"
      std: 0.03
    }
    bias_filler {
      type: "constant"
      value: 0.2
    }
  }
}
layer {
  name: "inception_4d/relu_5x5"
  type: "ReLU"
  bottom: "inception_4d/5x5"
  top: "inception_4d/5x5"
}
layer {
  name: "inception_4d/pool"
  type: "Pooling"
  bottom: "inception_4c/output"
  top: "inception_4d/pool"
  pooling_param {
    pool: MAX
    kernel_size: 3
    stride: 1
    pad: 1
  }
}
layer {
  name: "inception_4d/pool_proj"
  type: "Convolution"
  bottom: "inception_4d/pool"
  top: "inception_4d/pool_proj"
  param {
    lr_mult: 1
    decay_mult: 1
  }
  param {
    lr_mult: 2
    decay_mult: 0
  }
  convolution_param {
    num_output: 64
    kernel_size: 1
    weight_filler {
      type: "xavier"
      std: 0.1
    }
    bias_filler {
      type: "constant"
      value: 0.2
    }
  }
}
layer {
  name: "inception_4d/relu_pool_proj"
  type: "ReLU"
  bottom: "inception_4d/pool_proj"
  top: "inception_4d/pool_proj"
}
layer {
  name: "inception_4d/output"
  type: "Concat"
  bottom: "inception_4d/1x1"
  bottom: "inception_4d/3x3"
  bottom: "inception_4d/5x5"
  bottom: "inception_4d/pool_proj"
  top: "inception_4d/output"
}
layer {
  name: "loss2/ave_pool"
  type: "Pooling"
  bottom: "inception_4d/output"
  top: "loss2/ave_pool"
  pooling_param {
    pool: AVE
    kernel_size: 5
    stride: 3
  }
}
layer {
  name: "loss2/conv"
  type: "Convolution"
  bottom: "loss2/ave_pool"
  top: "loss2/conv"
  param {
    lr_mult: 1
    decay_mult: 1
  }
  param {
    lr_mult: 2
    decay_mult: 0
  }
  convolution_param {
    num_output: 128
    kernel_size: 1
    weight_filler {
      type: "xavier"
      std: 0.08
    }
    bias_filler {
      type: "constant"
      value: 0.2
    }
  }
}
layer {
  name: "loss2/relu_conv"
  type: "ReLU"
  bottom: "loss2/conv"
  top: "loss2/conv"
}
layer {
  name: "loss2/fc"
  type: "InnerProduct"
  bottom: "loss2/conv"
  top: "loss2/fc"
  param {
    lr_mult: 1
    decay_mult: 1
  }
  param {
    lr_mult: 2
    decay_mult: 0
  }
  inner_product_param {
    num_output: 1024
    weight_filler {
      type: "xavier"
      std: 0.02
    }
    bias_filler {
      type: "constant"
      value: 0.2
    }
  }
}
layer {
  name: "loss2/relu_fc"
  type: "ReLU"
  bottom: "loss2/fc"
  top: "loss2/fc"
}
layer {
  name: "loss2/drop_fc"
  type: "Dropout"
  bottom: "loss2/fc"
  top: "loss2/fc"
  dropout_param {
    dropout_ratio: 0.7
  }
}
layer {
  name: "loss2/classifier_plantvillage"
  type: "InnerProduct"
  bottom: "loss2/fc"
  top: "loss2/classifier_plantvillage"
  param {
    lr_mult: 1
    decay_mult: 1
  }
  param {
    lr_mult: 2
    decay_mult: 0
  }
  inner_product_param {
    num_output: 38
    weight_filler {
      type: "xavier"
      std: 0.0009765625
    }
    bias_filler {
      type: "constant"
      value: 0
    }
  }
}
layer {
  name: "inception_4e/1x1"
  type: "Convolution"
  bottom: "inception_4d/output"
  top: "inception_4e/1x1"
  param {
    lr_mult: 1
    decay_mult: 1
  }
  param {
    lr_mult: 2
    decay_mult: 0
  }
  convolution_param {
    num_output: 256
    kernel_size: 1
    weight_filler {
      type: "xavier"
      std: 0.03
    }
    bias_filler {
      type: "constant"
      value: 0.2
    }
  }
}
layer {
  name: "inception_4e/relu_1x1"
  type: "ReLU"
  bottom: "inception_4e/1x1"
  top: "inception_4e/1x1"
}
layer {
  name: "inception_4e/3x3_reduce"
  type: "Convolution"
  bottom: "inception_4d/output"
  top: "inception_4e/3x3_reduce"
  param {
    lr_mult: 1
    decay_mult: 1
  }
  param {
    lr_mult: 2
    decay_mult: 0
  }
  convolution_param {
    num_output: 160
    kernel_size: 1
    weight_filler {
      type: "xavier"
      std: 0.09
    }
    bias_filler {
      type: "constant"
      value: 0.2
    }
  }
}
layer {
  name: "inception_4e/relu_3x3_reduce"
  type: "ReLU"
  bottom: "inception_4e/3x3_reduce"
  top: "inception_4e/3x3_reduce"
}
layer {
  name: "inception_4e/3x3"
  type: "Convolution"
  bottom: "inception_4e/3x3_reduce"
  top: "inception_4e/3x3"
  param {
    lr_mult: 1
    decay_mult: 1
  }
  param {
    lr_mult: 2
    decay_mult: 0
  }
  convolution_param {
    num_output: 320
    pad: 1
    kernel_size: 3
    weight_filler {
      type: "xavier"
      std: 0.03
    }
    bias_filler {
      type: "constant"
      value: 0.2
    }
  }
}
layer {
  name: "inception_4e/relu_3x3"
  type: "ReLU"
  bottom: "inception_4e/3x3"
  top: "inception_4e/3x3"
}
layer {
  name: "inception_4e/5x5_reduce"
  type: "Convolution"
  bottom: "inception_4d/output"
  top: "inception_4e/5x5_reduce"
  param {
    lr_mult: 1
    decay_mult: 1
  }
  param {
    lr_mult: 2
    decay_mult: 0
  }
  convolution_param {
    num_output: 32
    kernel_size: 1
    weight_filler {
      type: "xavier"
      std: 0.2
    }
    bias_filler {
      type: "constant"
      value: 0.2
    }
  }
}
layer {
  name: "inception_4e/relu_5x5_reduce"
  type: "ReLU"
  bottom: "inception_4e/5x5_reduce"
  top: "inception_4e/5x5_reduce"
}
layer {
  name: "inception_4e/5x5"
  type: "Convolution"
  bottom: "inception_4e/5x5_reduce"
  top: "inception_4e/
I0403 18:52:00.464334 17918 layer_factory.hpp:77] Creating layer data
I0403 18:52:00.464932 17918 net.cpp:91] Creating Layer data
I0403 18:52:00.464962 17918 net.cpp:399] data -> data
I0403 18:52:00.465019 17918 net.cpp:399] data -> label
I0403 18:52:00.465056 17918 data_transformer.cpp:25] Loading mean file from: /home/mohanty/data/final_dataset/lmdb/segmented-60-40/mean.binaryproto
I0403 18:52:00.466245 17921 db_lmdb.cpp:38] Opened lmdb /home/mohanty/data/final_dataset/lmdb/segmented-60-40/test_db
I0403 18:52:00.477532 17918 data_layer.cpp:41] output data size: 24,3,224,224
I0403 18:52:00.504325 17918 net.cpp:141] Setting up data
I0403 18:52:00.504403 17918 net.cpp:148] Top shape: 24 3 224 224 (3612672)
I0403 18:52:00.504428 17918 net.cpp:148] Top shape: 24 (24)
I0403 18:52:00.504446 17918 net.cpp:156] Memory required for data: 14450784
I0403 18:52:00.504473 17918 layer_factory.hpp:77] Creating layer label_data_1_split
I0403 18:52:00.504500 17918 net.cpp:91] Creating Layer label_data_1_split
I0403 18:52:00.504519 17918 net.cpp:425] label_data_1_split <- label
I0403 18:52:00.504552 17918 net.cpp:399] label_data_1_split -> label_data_1_split_0
I0403 18:52:00.504580 17918 net.cpp:399] label_data_1_split -> label_data_1_split_1
I0403 18:52:00.504603 17918 net.cpp:399] label_data_1_split -> label_data_1_split_2
I0403 18:52:00.504626 17918 net.cpp:399] label_data_1_split -> label_data_1_split_3
I0403 18:52:00.504647 17918 net.cpp:399] label_data_1_split -> label_data_1_split_4
I0403 18:52:00.504665 17918 net.cpp:399] label_data_1_split -> label_data_1_split_5
I0403 18:52:00.504686 17918 net.cpp:399] label_data_1_split -> label_data_1_split_6
I0403 18:52:00.504706 17918 net.cpp:399] label_data_1_split -> label_data_1_split_7
I0403 18:52:00.504725 17918 net.cpp:399] label_data_1_split -> label_data_1_split_8
I0403 18:52:00.504745 17918 net.cpp:399] label_data_1_split -> label_data_1_split_9
I0403 18:52:00.504861 17918 net.cpp:141] Setting up label_data_1_split
I0403 18:52:00.504884 17918 net.cpp:148] Top shape: 24 (24)
I0403 18:52:00.504901 17918 net.cpp:148] Top shape: 24 (24)
I0403 18:52:00.504917 17918 net.cpp:148] Top shape: 24 (24)
I0403 18:52:00.504932 17918 net.cpp:148] Top shape: 24 (24)
I0403 18:52:00.504947 17918 net.cpp:148] Top shape: 24 (24)
I0403 18:52:00.504963 17918 net.cpp:148] Top shape: 24 (24)
I0403 18:52:00.504982 17918 net.cpp:148] Top shape: 24 (24)
I0403 18:52:00.504999 17918 net.cpp:148] Top shape: 24 (24)
I0403 18:52:00.505015 17918 net.cpp:148] Top shape: 24 (24)
I0403 18:52:00.505031 17918 net.cpp:148] Top shape: 24 (24)
I0403 18:52:00.505074 17918 net.cpp:156] Memory required for data: 14451744
I0403 18:52:00.505091 17918 layer_factory.hpp:77] Creating layer conv1/7x7_s2
I0403 18:52:00.505123 17918 net.cpp:91] Creating Layer conv1/7x7_s2
I0403 18:52:00.505142 17918 net.cpp:425] conv1/7x7_s2 <- data
I0403 18:52:00.505162 17918 net.cpp:399] conv1/7x7_s2 -> conv1/7x7_s2
I0403 18:52:00.646601 17918 net.cpp:141] Setting up conv1/7x7_s2
I0403 18:52:00.646688 17918 net.cpp:148] Top shape: 24 64 112 112 (19267584)
I0403 18:52:00.646705 17918 net.cpp:156] Memory required for data: 91522080
I0403 18:52:00.646735 17918 layer_factory.hpp:77] Creating layer conv1/relu_7x7
I0403 18:52:00.646761 17918 net.cpp:91] Creating Layer conv1/relu_7x7
I0403 18:52:00.646780 17918 net.cpp:425] conv1/relu_7x7 <- conv1/7x7_s2
I0403 18:52:00.646798 17918 net.cpp:386] conv1/relu_7x7 -> conv1/7x7_s2 (in-place)
I0403 18:52:00.647044 17918 net.cpp:141] Setting up conv1/relu_7x7
I0403 18:52:00.647070 17918 net.cpp:148] Top shape: 24 64 112 112 (19267584)
I0403 18:52:00.647085 17918 net.cpp:156] Memory required for data: 168592416
I0403 18:52:00.647100 17918 layer_factory.hpp:77] Creating layer pool1/3x3_s2
I0403 18:52:00.647125 17918 net.cpp:91] Creating Layer pool1/3x3_s2
I0403 18:52:00.647141 17918 net.cpp:425] pool1/3x3_s2 <- conv1/7x7_s2
I0403 18:52:00.647159 17918 net.cpp:399] pool1/3x3_s2 -> pool1/3x3_s2
I0403 18:52:00.647230 17918 net.cpp:141] Setting up pool1/3x3_s2
I0403 18:52:00.647253 17918 net.cpp:148] Top shape: 24 64 56 56 (4816896)
I0403 18:52:00.647267 17918 net.cpp:156] Memory required for data: 187860000
I0403 18:52:00.647282 17918 layer_factory.hpp:77] Creating layer pool1/norm1
I0403 18:52:00.647305 17918 net.cpp:91] Creating Layer pool1/norm1
I0403 18:52:00.647322 17918 net.cpp:425] pool1/norm1 <- pool1/3x3_s2
I0403 18:52:00.647341 17918 net.cpp:399] pool1/norm1 -> pool1/norm1
I0403 18:52:00.647619 17918 net.cpp:141] Setting up pool1/norm1
I0403 18:52:00.647645 17918 net.cpp:148] Top shape: 24 64 56 56 (4816896)
I0403 18:52:00.647661 17918 net.cpp:156] Memory required for data: 207127584
I0403 18:52:00.647675 17918 layer_factory.hpp:77] Creating layer conv2/3x3_reduce
I0403 18:52:00.647701 17918 net.cpp:91] Creating Layer conv2/3x3_reduce
I0403 18:52:00.647718 17918 net.cpp:425] conv2/3x3_reduce <- pool1/norm1
I0403 18:52:00.647738 17918 net.cpp:399] conv2/3x3_reduce -> conv2/3x3_reduce
I0403 18:52:00.649106 17918 net.cpp:141] Setting up conv2/3x3_reduce
I0403 18:52:00.649137 17918 net.cpp:148] Top shape: 24 64 56 56 (4816896)
I0403 18:52:00.649154 17918 net.cpp:156] Memory required for data: 226395168
I0403 18:52:00.649175 17918 layer_factory.hpp:77] Creating layer conv2/relu_3x3_reduce
I0403 18:52:00.649194 17918 net.cpp:91] Creating Layer conv2/relu_3x3_reduce
I0403 18:52:00.649210 17918 net.cpp:425] conv2/relu_3x3_reduce <- conv2/3x3_reduce
I0403 18:52:00.649240 17918 net.cpp:386] conv2/relu_3x3_reduce -> conv2/3x3_reduce (in-place)
I0403 18:52:00.649494 17918 net.cpp:141] Setting up conv2/relu_3x3_reduce
I0403 18:52:00.649521 17918 net.cpp:148] Top shape: 24 64 56 56 (4816896)
I0403 18:52:00.649536 17918 net.cpp:156] Memory required for data: 245662752
I0403 18:52:00.649551 17918 layer_factory.hpp:77] Creating layer conv2/3x3
I0403 18:52:00.649576 17918 net.cpp:91] Creating Layer conv2/3x3
I0403 18:52:00.649593 17918 net.cpp:425] conv2/3x3 <- conv2/3x3_reduce
I0403 18:52:00.649612 17918 net.cpp:399] conv2/3x3 -> conv2/3x3
I0403 18:52:00.651815 17918 net.cpp:141] Setting up conv2/3x3
I0403 18:52:00.651846 17918 net.cpp:148] Top shape: 24 192 56 56 (14450688)
I0403 18:52:00.651864 17918 net.cpp:156] Memory required for data: 303465504
I0403 18:52:00.651885 17918 layer_factory.hpp:77] Creating layer conv2/relu_3x3
I0403 18:52:00.651903 17918 net.cpp:91] Creating Layer conv2/relu_3x3
I0403 18:52:00.651918 17918 net.cpp:425] conv2/relu_3x3 <- conv2/3x3
I0403 18:52:00.651949 17918 net.cpp:386] conv2/relu_3x3 -> conv2/3x3 (in-place)
I0403 18:52:00.652130 17918 net.cpp:141] Setting up conv2/relu_3x3
I0403 18:52:00.652155 17918 net.cpp:148] Top shape: 24 192 56 56 (14450688)
I0403 18:52:00.652200 17918 net.cpp:156] Memory required for data: 361268256
I0403 18:52:00.652228 17918 layer_factory.hpp:77] Creating layer conv2/norm2
I0403 18:52:00.652248 17918 net.cpp:91] Creating Layer conv2/norm2
I0403 18:52:00.652266 17918 net.cpp:425] conv2/norm2 <- conv2/3x3
I0403 18:52:00.652282 17918 net.cpp:399] conv2/norm2 -> conv2/norm2
I0403 18:52:00.652576 17918 net.cpp:141] Setting up conv2/norm2
I0403 18:52:00.652602 17918 net.cpp:148] Top shape: 24 192 56 56 (14450688)
I0403 18:52:00.652617 17918 net.cpp:156] Memory required for data: 419071008
I0403 18:52:00.652632 17918 layer_factory.hpp:77] Creating layer pool2/3x3_s2
I0403 18:52:00.652652 17918 net.cpp:91] Creating Layer pool2/3x3_s2
I0403 18:52:00.652667 17918 net.cpp:425] pool2/3x3_s2 <- conv2/norm2
I0403 18:52:00.652684 17918 net.cpp:399] pool2/3x3_s2 -> pool2/3x3_s2
I0403 18:52:00.652737 17918 net.cpp:141] Setting up pool2/3x3_s2
I0403 18:52:00.652760 17918 net.cpp:148] Top shape: 24 192 28 28 (3612672)
I0403 18:52:00.652773 17918 net.cpp:156] Memory required for data: 433521696
I0403 18:52:00.652788 17918 layer_factory.hpp:77] Creating layer pool2/3x3_s2_pool2/3x3_s2_0_split
I0403 18:52:00.652806 17918 net.cpp:91] Creating Layer pool2/3x3_s2_pool2/3x3_s2_0_split
I0403 18:52:00.652819 17918 net.cpp:425] pool2/3x3_s2_pool2/3x3_s2_0_split <- pool2/3x3_s2
I0403 18:52:00.652838 17918 net.cpp:399] pool2/3x3_s2_pool2/3x3_s2_0_split -> pool2/3x3_s2_pool2/3x3_s2_0_split_0
I0403 18:52:00.652858 17918 net.cpp:399] pool2/3x3_s2_pool2/3x3_s2_0_split -> pool2/3x3_s2_pool2/3x3_s2_0_split_1
I0403 18:52:00.652878 17918 net.cpp:399] pool2/3x3_s2_pool2/3x3_s2_0_split -> pool2/3x3_s2_pool2/3x3_s2_0_split_2
I0403 18:52:00.652897 17918 net.cpp:399] pool2/3x3_s2_pool2/3x3_s2_0_split -> pool2/3x3_s2_pool2/3x3_s2_0_split_3
I0403 18:52:00.652966 17918 net.cpp:141] Setting up pool2/3x3_s2_pool2/3x3_s2_0_split
I0403 18:52:00.652993 17918 net.cpp:148] Top shape: 24 192 28 28 (3612672)
I0403 18:52:00.653012 17918 net.cpp:148] Top shape: 24 192 28 28 (3612672)
I0403 18:52:00.653026 17918 net.cpp:148] Top shape: 24 192 28 28 (3612672)
I0403 18:52:00.653040 17918 net.cpp:148] Top shape: 24 192 28 28 (3612672)
I0403 18:52:00.653053 17918 net.cpp:156] Memory required for data: 491324448
I0403 18:52:00.653069 17918 layer_factory.hpp:77] Creating layer inception_3a/1x1
I0403 18:52:00.653090 17918 net.cpp:91] Creating Layer inception_3a/1x1
I0403 18:52:00.653107 17918 net.cpp:425] inception_3a/1x1 <- pool2/3x3_s2_pool2/3x3_s2_0_split_0
I0403 18:52:00.653126 17918 net.cpp:399] inception_3a/1x1 -> inception_3a/1x1
I0403 18:52:00.654606 17918 net.cpp:141] Setting up inception_3a/1x1
I0403 18:52:00.654634 17918 net.cpp:148] Top shape: 24 64 28 28 (1204224)
I0403 18:52:00.654650 17918 net.cpp:156] Memory required for data: 496141344
I0403 18:52:00.654667 17918 layer_factory.hpp:77] Creating layer inception_3a/relu_1x1
I0403 18:52:00.654688 17918 net.cpp:91] Creating Layer inception_3a/relu_1x1
I0403 18:52:00.654705 17918 net.cpp:425] inception_3a/relu_1x1 <- inception_3a/1x1
I0403 18:52:00.654721 17918 net.cpp:386] inception_3a/relu_1x1 -> inception_3a/1x1 (in-place)
I0403 18:52:00.654889 17918 net.cpp:141] Setting up inception_3a/relu_1x1
I0403 18:52:00.654913 17918 net.cpp:148] Top shape: 24 64 28 28 (1204224)
I0403 18:52:00.654927 17918 net.cpp:156] Memory required for data: 500958240
I0403 18:52:00.654942 17918 layer_factory.hpp:77] Creating layer inception_3a/3x3_reduce
I0403 18:52:00.654963 17918 net.cpp:91] Creating Layer inception_3a/3x3_reduce
I0403 18:52:00.654983 17918 net.cpp:425] inception_3a/3x3_reduce <- pool2/3x3_s2_pool2/3x3_s2_0_split_1
I0403 18:52:00.655006 17918 net.cpp:399] inception_3a/3x3_reduce -> inception_3a/3x3_reduce
I0403 18:52:00.656626 17918 net.cpp:141] Setting up inception_3a/3x3_reduce
I0403 18:52:00.656657 17918 net.cpp:148] Top shape: 24 96 28 28 (1806336)
I0403 18:52:00.656673 17918 net.cpp:156] Memory required for data: 508183584
I0403 18:52:00.656695 17918 layer_factory.hpp:77] Creating layer inception_3a/relu_3x3_reduce
I0403 18:52:00.656728 17918 net.cpp:91] Creating Layer inception_3a/relu_3x3_reduce
I0403 18:52:00.656746 17918 net.cpp:425] inception_3a/relu_3x3_reduce <- inception_3a/3x3_reduce
I0403 18:52:00.656765 17918 net.cpp:386] inception_3a/relu_3x3_reduce -> inception_3a/3x3_reduce (in-place)
I0403 18:52:00.656939 17918 net.cpp:141] Setting up inception_3a/relu_3x3_reduce
I0403 18:52:00.656963 17918 net.cpp:148] Top shape: 24 96 28 28 (1806336)
I0403 18:52:00.656981 17918 net.cpp:156] Memory required for data: 515408928
I0403 18:52:00.656997 17918 layer_factory.hpp:77] Creating layer inception_3a/3x3
I0403 18:52:00.657019 17918 net.cpp:91] Creating Layer inception_3a/3x3
I0403 18:52:00.657037 17918 net.cpp:425] inception_3a/3x3 <- inception_3a/3x3_reduce
I0403 18:52:00.657058 17918 net.cpp:399] inception_3a/3x3 -> inception_3a/3x3
I0403 18:52:00.658637 17918 net.cpp:141] Setting up inception_3a/3x3
I0403 18:52:00.658668 17918 net.cpp:148] Top shape: 24 128 28 28 (2408448)
I0403 18:52:00.658684 17918 net.cpp:156] Memory required for data: 525042720
I0403 18:52:00.658702 17918 layer_factory.hpp:77] Creating layer inception_3a/relu_3x3
I0403 18:52:00.658720 17918 net.cpp:91] Creating Layer inception_3a/relu_3x3
I0403 18:52:00.658735 17918 net.cpp:425] inception_3a/relu_3x3 <- inception_3a/3x3
I0403 18:52:00.658754 17918 net.cpp:386] inception_3a/relu_3x3 -> inception_3a/3x3 (in-place)
I0403 18:52:00.659030 17918 net.cpp:141] Setting up inception_3a/relu_3x3
I0403 18:52:00.659060 17918 net.cpp:148] Top shape: 24 128 28 28 (2408448)
I0403 18:52:00.659075 17918 net.cpp:156] Memory required for data: 534676512
I0403 18:52:00.659090 17918 layer_factory.hpp:77] Creating layer inception_3a/5x5_reduce
I0403 18:52:00.659111 17918 net.cpp:91] Creating Layer inception_3a/5x5_reduce
I0403 18:52:00.659126 17918 net.cpp:425] inception_3a/5x5_reduce <- pool2/3x3_s2_pool2/3x3_s2_0_split_2
I0403 18:52:00.659145 17918 net.cpp:399] inception_3a/5x5_reduce -> inception_3a/5x5_reduce
I0403 18:52:00.660064 17918 net.cpp:141] Setting up inception_3a/5x5_reduce
I0403 18:52:00.660091 17918 net.cpp:148] Top shape: 24 16 28 28 (301056)
I0403 18:52:00.660106 17918 net.cpp:156] Memory required for data: 535880736
I0403 18:52:00.660125 17918 layer_factory.hpp:77] Creating layer inception_3a/relu_5x5_reduce
I0403 18:52:00.660141 17918 net.cpp:91] Creating Layer inception_3a/relu_5x5_reduce
I0403 18:52:00.660156 17918 net.cpp:425] inception_3a/relu_5x5_reduce <- inception_3a/5x5_reduce
I0403 18:52:00.660176 17918 net.cpp:386] inception_3a/relu_5x5_reduce -> inception_3a/5x5_reduce (in-place)
I0403 18:52:00.660459 17918 net.cpp:141] Setting up inception_3a/relu_5x5_reduce
I0403 18:52:00.660485 17918 net.cpp:148] Top shape: 24 16 28 28 (301056)
I0403 18:52:00.660500 17918 net.cpp:156] Memory required for data: 537084960
I0403 18:52:00.660514 17918 layer_factory.hpp:77] Creating layer inception_3a/5x5
I0403 18:52:00.660536 17918 net.cpp:91] Creating Layer inception_3a/5x5
I0403 18:52:00.660552 17918 net.cpp:425] inception_3a/5x5 <- inception_3a/5x5_reduce
I0403 18:52:00.660573 17918 net.cpp:399] inception_3a/5x5 -> inception_3a/5x5
I0403 18:52:00.661542 17918 net.cpp:141] Setting up inception_3a/5x5
I0403 18:52:00.661571 17918 net.cpp:148] Top shape: 24 32 28 28 (602112)
I0403 18:52:00.661586 17918 net.cpp:156] Memory required for data: 539493408
I0403 18:52:00.661604 17918 layer_factory.hpp:77] Creating layer inception_3a/relu_5x5
I0403 18:52:00.661622 17918 net.cpp:91] Creating Layer inception_3a/relu_5x5
I0403 18:52:00.661638 17918 net.cpp:425] inception_3a/relu_5x5 <- inception_3a/5x5
I0403 18:52:00.661656 17918 net.cpp:386] inception_3a/relu_5x5 -> inception_3a/5x5 (in-place)
I0403 18:52:00.661828 17918 net.cpp:141] Setting up inception_3a/relu_5x5
I0403 18:52:00.661850 17918 net.cpp:148] Top shape: 24 32 28 28 (602112)
I0403 18:52:00.661864 17918 net.cpp:156] Memory required for data: 541901856
I0403 18:52:00.661878 17918 layer_factory.hpp:77] Creating layer inception_3a/pool
I0403 18:52:00.661896 17918 net.cpp:91] Creating Layer inception_3a/pool
I0403 18:52:00.661926 17918 net.cpp:425] inception_3a/pool <- pool2/3x3_s2_pool2/3x3_s2_0_split_3
I0403 18:52:00.661947 17918 net.cpp:399] inception_3a/pool -> inception_3a/pool
I0403 18:52:00.662006 17918 net.cpp:141] Setting up inception_3a/pool
I0403 18:52:00.662029 17918 net.cpp:148] Top shape: 24 192 28 28 (3612672)
I0403 18:52:00.662045 17918 net.cpp:156] Memory required for data: 556352544
I0403 18:52:00.662058 17918 layer_factory.hpp:77] Creating layer inception_3a/pool_proj
I0403 18:52:00.662081 17918 net.cpp:91] Creating Layer inception_3a/pool_proj
I0403 18:52:00.662098 17918 net.cpp:425] inception_3a/pool_proj <- inception_3a/pool
I0403 18:52:00.662117 17918 net.cpp:399] inception_3a/pool_proj -> inception_3a/pool_proj
I0403 18:52:00.663039 17918 net.cpp:141] Setting up inception_3a/pool_proj
I0403 18:52:00.663066 17918 net.cpp:148] Top shape: 24 32 28 28 (602112)
I0403 18:52:00.663081 17918 net.cpp:156] Memory required for data: 558760992
I0403 18:52:00.663105 17918 layer_factory.hpp:77] Creating layer inception_3a/relu_pool_proj
I0403 18:52:00.663123 17918 net.cpp:91] Creating Layer inception_3a/relu_pool_proj
I0403 18:52:00.663139 17918 net.cpp:425] inception_3a/relu_pool_proj <- inception_3a/pool_proj
I0403 18:52:00.663157 17918 net.cpp:386] inception_3a/relu_pool_proj -> inception_3a/pool_proj (in-place)
I0403 18:52:00.663419 17918 net.cpp:141] Setting up inception_3a/relu_pool_proj
I0403 18:52:00.663445 17918 net.cpp:148] Top shape: 24 32 28 28 (602112)
I0403 18:52:00.663460 17918 net.cpp:156] Memory required for data: 561169440
I0403 18:52:00.663475 17918 layer_factory.hpp:77] Creating layer inception_3a/output
I0403 18:52:00.663492 17918 net.cpp:91] Creating Layer inception_3a/output
I0403 18:52:00.663507 17918 net.cpp:425] inception_3a/output <- inception_3a/1x1
I0403 18:52:00.663523 17918 net.cpp:425] inception_3a/output <- inception_3a/3x3
I0403 18:52:00.663537 17918 net.cpp:425] inception_3a/output <- inception_3a/5x5
I0403 18:52:00.663553 17918 net.cpp:425] inception_3a/output <- inception_3a/pool_proj
I0403 18:52:00.663570 17918 net.cpp:399] inception_3a/output -> inception_3a/output
I0403 18:52:00.663614 17918 net.cpp:141] Setting up inception_3a/output
I0403 18:52:00.663636 17918 net.cpp:148] Top shape: 24 256 28 28 (4816896)
I0403 18:52:00.663650 17918 net.cpp:156] Memory required for data: 580437024
I0403 18:52:00.663664 17918 layer_factory.hpp:77] Creating layer inception_3a/output_inception_3a/output_0_split
I0403 18:52:00.663684 17918 net.cpp:91] Creating Layer inception_3a/output_inception_3a/output_0_split
I0403 18:52:00.663700 17918 net.cpp:425] inception_3a/output_inception_3a/output_0_split <- inception_3a/output
I0403 18:52:00.663717 17918 net.cpp:399] inception_3a/output_inception_3a/output_0_split -> inception_3a/output_inception_3a/output_0_split_0
I0403 18:52:00.663735 17918 net.cpp:399] inception_3a/output_inception_3a/output_0_split -> inception_3a/output_inception_3a/output_0_split_1
I0403 18:52:00.663759 17918 net.cpp:399] inception_3a/output_inception_3a/output_0_split -> inception_3a/output_inception_3a/output_0_split_2
I0403 18:52:00.663779 17918 net.cpp:399] inception_3a/output_inception_3a/output_0_split -> inception_3a/output_inception_3a/output_0_split_3
I0403 18:52:00.663849 17918 net.cpp:141] Setting up inception_3a/output_inception_3a/output_0_split
I0403 18:52:00.663873 17918 net.cpp:148] Top shape: 24 256 28 28 (4816896)
I0403 18:52:00.663890 17918 net.cpp:148] Top shape: 24 256 28 28 (4816896)
I0403 18:52:00.663907 17918 net.cpp:148] Top shape: 24 256 28 28 (4816896)
I0403 18:52:00.663923 17918 net.cpp:148] Top shape: 24 256 28 28 (4816896)
I0403 18:52:00.663935 17918 net.cpp:156] Memory required for data: 657507360
I0403 18:52:00.663949 17918 layer_factory.hpp:77] Creating layer inception_3b/1x1
I0403 18:52:00.663971 17918 net.cpp:91] Creating Layer inception_3b/1x1
I0403 18:52:00.663992 17918 net.cpp:425] inception_3b/1x1 <- inception_3a/output_inception_3a/output_0_split_0
I0403 18:52:00.664011 17918 net.cpp:399] inception_3b/1x1 -> inception_3b/1x1
I0403 18:52:00.665128 17918 net.cpp:141] Setting up inception_3b/1x1
I0403 18:52:00.665168 17918 net.cpp:148] Top shape: 24 128 28 28 (2408448)
I0403 18:52:00.665189 17918 net.cpp:156] Memory required for data: 667141152
I0403 18:52:00.665208 17918 layer_factory.hpp:77] Creating layer inception_3b/relu_1x1
I0403 18:52:00.665226 17918 net.cpp:91] Creating Layer inception_3b/relu_1x1
I0403 18:52:00.665242 17918 net.cpp:425] inception_3b/relu_1x1 <- inception_3b/1x1
I0403 18:52:00.665261 17918 net.cpp:386] inception_3b/relu_1x1 -> inception_3b/1x1 (in-place)
I0403 18:52:00.665446 17918 net.cpp:141] Setting up inception_3b/relu_1x1
I0403 18:52:00.665472 17918 net.cpp:148] Top shape: 24 128 28 28 (2408448)
I0403 18:52:00.665488 17918 net.cpp:156] Memory required for data: 676774944
I0403 18:52:00.665503 17918 layer_factory.hpp:77] Creating layer inception_3b/3x3_reduce
I0403 18:52:00.665524 17918 net.cpp:91] Creating Layer inception_3b/3x3_reduce
I0403 18:52:00.665542 17918 net.cpp:425] inception_3b/3x3_reduce <- inception_3a/output_inception_3a/output_0_split_1
I0403 18:52:00.665561 17918 net.cpp:399] inception_3b/3x3_reduce -> inception_3b/3x3_reduce
I0403 18:52:00.666692 17918 net.cpp:141] Setting up inception_3b/3x3_reduce
I0403 18:52:00.666719 17918 net.cpp:148] Top shape: 24 128 28 28 (2408448)
I0403 18:52:00.666735 17918 net.cpp:156] Memory required for data: 686408736
I0403 18:52:00.666752 17918 layer_factory.hpp:77] Creating layer inception_3b/relu_3x3_reduce
I0403 18:52:00.666774 17918 net.cpp:91] Creating Layer inception_3b/relu_3x3_reduce
I0403 18:52:00.666790 17918 net.cpp:425] inception_3b/relu_3x3_reduce <- inception_3b/3x3_reduce
I0403 18:52:00.666808 17918 net.cpp:386] inception_3b/relu_3x3_reduce -> inception_3b/3x3_reduce (in-place)
I0403 18:52:00.666985 17918 net.cpp:141] Setting up inception_3b/relu_3x3_reduce
I0403 18:52:00.667011 17918 net.cpp:148] Top shape: 24 128 28 28 (2408448)
I0403 18:52:00.667026 17918 net.cpp:156] Memory required for data: 696042528
I0403 18:52:00.667040 17918 layer_factory.hpp:77] Creating layer inception_3b/3x3
I0403 18:52:00.667064 17918 net.cpp:91] Creating Layer inception_3b/3x3
I0403 18:52:00.667081 17918 net.cpp:425] inception_3b/3x3 <- inception_3b/3x3_reduce
I0403 18:52:00.667101 17918 net.cpp:399] inception_3b/3x3 -> inception_3b/3x3
I0403 18:52:00.670032 17918 net.cpp:141] Setting up inception_3b/3x3
I0403 18:52:00.670063 17918 net.cpp:148] Top shape: 24 192 28 28 (3612672)
I0403 18:52:00.670081 17918 net.cpp:156] Memory required for data: 710493216
I0403 18:52:00.670100 17918 layer_factory.hpp:77] Creating layer inception_3b/relu_3x3
I0403 18:52:00.670119 17918 net.cpp:91] Creating Layer inception_3b/relu_3x3
I0403 18:52:00.670135 17918 net.cpp:425] inception_3b/relu_3x3 <- inception_3b/3x3
I0403 18:52:00.670155 17918 net.cpp:386] inception_3b/relu_3x3 -> inception_3b/3x3 (in-place)
I0403 18:52:00.670445 17918 net.cpp:141] Setting up inception_3b/relu_3x3
I0403 18:52:00.670472 17918 net.cpp:148] Top shape: 24 192 28 28 (3612672)
I0403 18:52:00.670488 17918 net.cpp:156] Memory required for data: 724943904
I0403 18:52:00.670502 17918 layer_factory.hpp:77] Creating layer inception_3b/5x5_reduce
I0403 18:52:00.670526 17918 net.cpp:91] Creating Layer inception_3b/5x5_reduce
I0403 18:52:00.670543 17918 net.cpp:425] inception_3b/5x5_reduce <- inception_3a/output_inception_3a/output_0_split_2
I0403 18:52:00.670562 17918 net.cpp:399] inception_3b/5x5_reduce -> inception_3b/5x5_reduce
I0403 18:52:00.671545 17918 net.cpp:141] Setting up inception_3b/5x5_reduce
I0403 18:52:00.671576 17918 net.cpp:148] Top shape: 24 32 28 28 (602112)
I0403 18:52:00.671592 17918 net.cpp:156] Memory required for data: 727352352
I0403 18:52:00.671612 17918 layer_factory.hpp:77] Creating layer inception_3b/relu_5x5_reduce
I0403 18:52:00.671628 17918 net.cpp:91] Creating Layer inception_3b/relu_5x5_reduce
I0403 18:52:00.671644 17918 net.cpp:425] inception_3b/relu_5x5_reduce <- inception_3b/5x5_reduce
I0403 18:52:00.671663 17918 net.cpp:386] inception_3b/relu_5x5_reduce -> inception_3b/5x5_reduce (in-place)
I0403 18:52:00.671852 17918 net.cpp:141] Setting up inception_3b/relu_5x5_reduce
I0403 18:52:00.671877 17918 net.cpp:148] Top shape: 24 32 28 28 (602112)
I0403 18:52:00.671891 17918 net.cpp:156] Memory required for data: 729760800
I0403 18:52:00.671905 17918 layer_factory.hpp:77] Creating layer inception_3b/5x5
I0403 18:52:00.671928 17918 net.cpp:91] Creating Layer inception_3b/5x5
I0403 18:52:00.671946 17918 net.cpp:425] inception_3b/5x5 <- inception_3b/5x5_reduce
I0403 18:52:00.671968 17918 net.cpp:399] inception_3b/5x5 -> inception_3b/5x5
I0403 18:52:00.674000 17918 net.cpp:141] Setting up inception_3b/5x5
I0403 18:52:00.674029 17918 net.cpp:148] Top shape: 24 96 28 28 (1806336)
I0403 18:52:00.674046 17918 net.cpp:156] Memory required for data: 736986144
I0403 18:52:00.674064 17918 layer_factory.hpp:77] Creating layer inception_3b/relu_5x5
I0403 18:52:00.674084 17918 net.cpp:91] Creating Layer inception_3b/relu_5x5
I0403 18:52:00.674103 17918 net.cpp:425] inception_3b/relu_5x5 <- inception_3b/5x5
I0403 18:52:00.674120 17918 net.cpp:386] inception_3b/relu_5x5 -> inception_3b/5x5 (in-place)
I0403 18:52:00.674325 17918 net.cpp:141] Setting up inception_3b/relu_5x5
I0403 18:52:00.674350 17918 net.cpp:148] Top shape: 24 96 28 28 (1806336)
I0403 18:52:00.674365 17918 net.cpp:156] Memory required for data: 744211488
I0403 18:52:00.674379 17918 layer_factory.hpp:77] Creating layer inception_3b/pool
I0403 18:52:00.674397 17918 net.cpp:91] Creating Layer inception_3b/pool
I0403 18:52:00.674413 17918 net.cpp:425] inception_3b/pool <- inception_3a/output_inception_3a/output_0_split_3
I0403 18:52:00.674432 17918 net.cpp:399] inception_3b/pool -> inception_3b/pool
I0403 18:52:00.674486 17918 net.cpp:141] Setting up inception_3b/pool
I0403 18:52:00.674510 17918 net.cpp:148] Top shape: 24 256 28 28 (4816896)
I0403 18:52:00.674523 17918 net.cpp:156] Memory required for data: 763479072
I0403 18:52:00.674538 17918 layer_factory.hpp:77] Creating layer inception_3b/pool_proj
I0403 18:52:00.674562 17918 net.cpp:91] Creating Layer inception_3b/pool_proj
I0403 18:52:00.674579 17918 net.cpp:425] inception_3b/pool_proj <- inception_3b/pool
I0403 18:52:00.674598 17918 net.cpp:399] inception_3b/pool_proj -> inception_3b/pool_proj
I0403 18:52:00.675649 17918 net.cpp:141] Setting up inception_3b/pool_proj
I0403 18:52:00.675676 17918 net.cpp:148] Top shape: 24 64 28 28 (1204224)
I0403 18:52:00.675691 17918 net.cpp:156] Memory required for data: 768295968
I0403 18:52:00.675710 17918 layer_factory.hpp:77] Creating layer inception_3b/relu_pool_proj
I0403 18:52:00.675729 17918 net.cpp:91] Creating Layer inception_3b/relu_pool_proj
I0403 18:52:00.675745 17918 net.cpp:425] inception_3b/relu_pool_proj <- inception_3b/pool_proj
I0403 18:52:00.675763 17918 net.cpp:386] inception_3b/relu_pool_proj -> inception_3b/pool_proj (in-place)
I0403 18:52:00.676159 17918 net.cpp:141] Setting up inception_3b/relu_pool_proj
I0403 18:52:00.676185 17918 net.cpp:148] Top shape: 24 64 28 28 (1204224)
I0403 18:52:00.676203 17918 net.cpp:156] Memory required for data: 773112864
I0403 18:52:00.676218 17918 layer_factory.hpp:77] Creating layer inception_3b/output
I0403 18:52:00.676234 17918 net.cpp:91] Creating Layer inception_3b/output
I0403 18:52:00.676250 17918 net.cpp:425] inception_3b/output <- inception_3b/1x1
I0403 18:52:00.676267 17918 net.cpp:425] inception_3b/output <- inception_3b/3x3
I0403 18:52:00.676282 17918 net.cpp:425] inception_3b/output <- inception_3b/5x5
I0403 18:52:00.676298 17918 net.cpp:425] inception_3b/output <- inception_3b/pool_proj
I0403 18:52:00.676318 17918 net.cpp:399] inception_3b/output -> inception_3b/output
I0403 18:52:00.676362 17918 net.cpp:141] Setting up inception_3b/output
I0403 18:52:00.676386 17918 net.cpp:148] Top shape: 24 480 28 28 (9031680)
I0403 18:52:00.676401 17918 net.cpp:156] Memory required for data: 809239584
I0403 18:52:00.676416 17918 layer_factory.hpp:77] Creating layer pool3/3x3_s2
I0403 18:52:00.676434 17918 net.cpp:91] Creating Layer pool3/3x3_s2
I0403 18:52:00.676450 17918 net.cpp:425] pool3/3x3_s2 <- inception_3b/output
I0403 18:52:00.676486 17918 net.cpp:399] pool3/3x3_s2 -> pool3/3x3_s2
I0403 18:52:00.676544 17918 net.cpp:141] Setting up pool3/3x3_s2
I0403 18:52:00.676568 17918 net.cpp:148] Top shape: 24 480 14 14 (2257920)
I0403 18:52:00.676581 17918 net.cpp:156] Memory required for data: 818271264
I0403 18:52:00.676596 17918 layer_factory.hpp:77] Creating layer pool3/3x3_s2_pool3/3x3_s2_0_split
I0403 18:52:00.676615 17918 net.cpp:91] Creating Layer pool3/3x3_s2_pool3/3x3_s2_0_split
I0403 18:52:00.676631 17918 net.cpp:425] pool3/3x3_s2_pool3/3x3_s2_0_split <- pool3/3x3_s2
I0403 18:52:00.676648 17918 net.cpp:399] pool3/3x3_s2_pool3/3x3_s2_0_split -> pool3/3x3_s2_pool3/3x3_s2_0_split_0
I0403 18:52:00.676668 17918 net.cpp:399] pool3/3x3_s2_pool3/3x3_s2_0_split -> pool3/3x3_s2_pool3/3x3_s2_0_split_1
I0403 18:52:00.676687 17918 net.cpp:399] pool3/3x3_s2_pool3/3x3_s2_0_split -> pool3/3x3_s2_pool3/3x3_s2_0_split_2
I0403 18:52:00.676707 17918 net.cpp:399] pool3/3x3_s2_pool3/3x3_s2_0_split -> pool3/3x3_s2_pool3/3x3_s2_0_split_3
I0403 18:52:00.676784 17918 net.cpp:141] Setting up pool3/3x3_s2_pool3/3x3_s2_0_split
I0403 18:52:00.676805 17918 net.cpp:148] Top shape: 24 480 14 14 (2257920)
I0403 18:52:00.676821 17918 net.cpp:148] Top shape: 24 480 14 14 (2257920)
I0403 18:52:00.676836 17918 net.cpp:148] Top shape: 24 480 14 14 (2257920)
I0403 18:52:00.676851 17918 net.cpp:148] Top shape: 24 480 14 14 (2257920)
I0403 18:52:00.676864 17918 net.cpp:156] Memory required for data: 854397984
I0403 18:52:00.676879 17918 layer_factory.hpp:77] Creating layer inception_4a/1x1
I0403 18:52:00.676900 17918 net.cpp:91] Creating Layer inception_4a/1x1
I0403 18:52:00.676918 17918 net.cpp:425] inception_4a/1x1 <- pool3/3x3_s2_pool3/3x3_s2_0_split_0
I0403 18:52:00.676939 17918 net.cpp:399] inception_4a/1x1 -> inception_4a/1x1
I0403 18:52:00.678549 17918 net.cpp:141] Setting up inception_4a/1x1
I0403 18:52:00.678576 17918 net.cpp:148] Top shape: 24 192 14 14 (903168)
I0403 18:52:00.678591 17918 net.cpp:156] Memory required for data: 858010656
I0403 18:52:00.678609 17918 layer_factory.hpp:77] Creating layer inception_4a/relu_1x1
I0403 18:52:00.678630 17918 net.cpp:91] Creating Layer inception_4a/relu_1x1
I0403 18:52:00.678647 17918 net.cpp:425] inception_4a/relu_1x1 <- inception_4a/1x1
I0403 18:52:00.678664 17918 net.cpp:386] inception_4a/relu_1x1 -> inception_4a/1x1 (in-place)
I0403 18:52:00.678838 17918 net.cpp:141] Setting up inception_4a/relu_1x1
I0403 18:52:00.678866 17918 net.cpp:148] Top shape: 24 192 14 14 (903168)
I0403 18:52:00.678881 17918 net.cpp:156] Memory required for data: 861623328
I0403 18:52:00.678896 17918 layer_factory.hpp:77] Creating layer inception_4a/3x3_reduce
I0403 18:52:00.678918 17918 net.cpp:91] Creating Layer inception_4a/3x3_reduce
I0403 18:52:00.678951 17918 net.cpp:425] inception_4a/3x3_reduce <- pool3/3x3_s2_pool3/3x3_s2_0_split_1
I0403 18:52:00.678971 17918 net.cpp:399] inception_4a/3x3_reduce -> inception_4a/3x3_reduce
I0403 18:52:00.680265 17918 net.cpp:141] Setting up inception_4a/3x3_reduce
I0403 18:52:00.680292 17918 net.cpp:148] Top shape: 24 96 14 14 (451584)
I0403 18:52:00.680307 17918 net.cpp:156] Memory required for data: 863429664
I0403 18:52:00.680332 17918 layer_factory.hpp:77] Creating layer inception_4a/relu_3x3_reduce
I0403 18:52:00.680352 17918 net.cpp:91] Creating Layer inception_4a/relu_3x3_reduce
I0403 18:52:00.680368 17918 net.cpp:425] inception_4a/relu_3x3_reduce <- inception_4a/3x3_reduce
I0403 18:52:00.680387 17918 net.cpp:386] inception_4a/relu_3x3_reduce -> inception_4a/3x3_reduce (in-place)
I0403 18:52:00.680565 17918 net.cpp:141] Setting up inception_4a/relu_3x3_reduce
I0403 18:52:00.680589 17918 net.cpp:148] Top shape: 24 96 14 14 (451584)
I0403 18:52:00.680604 17918 net.cpp:156] Memory required for data: 865236000
I0403 18:52:00.680619 17918 layer_factory.hpp:77] Creating layer inception_4a/3x3
I0403 18:52:00.680641 17918 net.cpp:91] Creating Layer inception_4a/3x3
I0403 18:52:00.680658 17918 net.cpp:425] inception_4a/3x3 <- inception_4a/3x3_reduce
I0403 18:52:00.680680 17918 net.cpp:399] inception_4a/3x3 -> inception_4a/3x3
I0403 18:52:00.683351 17918 net.cpp:141] Setting up inception_4a/3x3
I0403 18:52:00.683378 17918 net.cpp:148] Top shape: 24 208 14 14 (978432)
I0403 18:52:00.683393 17918 net.cpp:156] Memory required for data: 869149728
I0403 18:52:00.683411 17918 layer_factory.hpp:77] Creating layer inception_4a/relu_3x3
I0403 18:52:00.683431 17918 net.cpp:91] Creating Layer inception_4a/relu_3x3
I0403 18:52:00.683447 17918 net.cpp:425] inception_4a/relu_3x3 <- inception_4a/3x3
I0403 18:52:00.683465 17918 net.cpp:386] inception_4a/relu_3x3 -> inception_4a/3x3 (in-place)
I0403 18:52:00.683739 17918 net.cpp:141] Setting up inception_4a/relu_3x3
I0403 18:52:00.683765 17918 net.cpp:148] Top shape: 24 208 14 14 (978432)
I0403 18:52:00.683779 17918 net.cpp:156] Memory required for data: 873063456
I0403 18:52:00.683794 17918 layer_factory.hpp:77] Creating layer inception_4a/5x5_reduce
I0403 18:52:00.683818 17918 net.cpp:91] Creating Layer inception_4a/5x5_reduce
I0403 18:52:00.683835 17918 net.cpp:425] inception_4a/5x5_reduce <- pool3/3x3_s2_pool3/3x3_s2_0_split_2
I0403 18:52:00.683853 17918 net.cpp:399] inception_4a/5x5_reduce -> inception_4a/5x5_reduce
I0403 18:52:00.684880 17918 net.cpp:141] Setting up inception_4a/5x5_reduce
I0403 18:52:00.684909 17918 net.cpp:148] Top shape: 24 16 14 14 (75264)
I0403 18:52:00.684926 17918 net.cpp:156] Memory required for data: 873364512
I0403 18:52:00.684943 17918 layer_factory.hpp:77] Creating layer inception_4a/relu_5x5_reduce
I0403 18:52:00.684960 17918 net.cpp:91] Creating Layer inception_4a/relu_5x5_reduce
I0403 18:52:00.684975 17918 net.cpp:425] inception_4a/relu_5x5_reduce <- inception_4a/5x5_reduce
I0403 18:52:00.684999 17918 net.cpp:386] inception_4a/relu_5x5_reduce -> inception_4a/5x5_reduce (in-place)
I0403 18:52:00.685171 17918 net.cpp:141] Setting up inception_4a/relu_5x5_reduce
I0403 18:52:00.685195 17918 net.cpp:148] Top shape: 24 16 14 14 (75264)
I0403 18:52:00.685210 17918 net.cpp:156] Memory required for data: 873665568
I0403 18:52:00.685225 17918 layer_factory.hpp:77] Creating layer inception_4a/5x5
I0403 18:52:00.685246 17918 net.cpp:91] Creating Layer inception_4a/5x5
I0403 18:52:00.685262 17918 net.cpp:425] inception_4a/5x5 <- inception_4a/5x5_reduce
I0403 18:52:00.685283 17918 net.cpp:399] inception_4a/5x5 -> inception_4a/5x5
I0403 18:52:00.686342 17918 net.cpp:141] Setting up inception_4a/5x5
I0403 18:52:00.686368 17918 net.cpp:148] Top shape: 24 48 14 14 (225792)
I0403 18:52:00.686383 17918 net.cpp:156] Memory required for data: 874568736
I0403 18:52:00.686400 17918 layer_factory.hpp:77] Creating layer inception_4a/relu_5x5
I0403 18:52:00.686420 17918 net.cpp:91] Creating Layer inception_4a/relu_5x5
I0403 18:52:00.686436 17918 net.cpp:425] inception_4a/relu_5x5 <- inception_4a/5x5
I0403 18:52:00.686453 17918 net.cpp:386] inception_4a/relu_5x5 -> inception_4a/5x5 (in-place)
I0403 18:52:00.686627 17918 net.cpp:141] Setting up inception_4a/relu_5x5
I0403 18:52:00.686651 17918 net.cpp:148] Top shape: 24 48 14 14 (225792)
I0403 18:52:00.686666 17918 net.cpp:156] Memory required for data: 875471904
I0403 18:52:00.686679 17918 layer_factory.hpp:77] Creating layer inception_4a/pool
I0403 18:52:00.686698 17918 net.cpp:91] Creating Layer inception_4a/pool
I0403 18:52:00.686714 17918 net.cpp:425] inception_4a/pool <- pool3/3x3_s2_pool3/3x3_s2_0_split_3
I0403 18:52:00.686731 17918 net.cpp:399] inception_4a/pool -> inception_4a/pool
I0403 18:52:00.686791 17918 net.cpp:141] Setting up inception_4a/pool
I0403 18:52:00.686815 17918 net.cpp:148] Top shape: 24 480 14 14 (2257920)
I0403 18:52:00.686828 17918 net.cpp:156] Memory required for data: 884503584
I0403 18:52:00.686842 17918 layer_factory.hpp:77] Creating layer inception_4a/pool_proj
I0403 18:52:00.686863 17918 net.cpp:91] Creating Layer inception_4a/pool_proj
I0403 18:52:00.686880 17918 net.cpp:425] inception_4a/pool_proj <- inception_4a/pool
I0403 18:52:00.686902 17918 net.cpp:399] inception_4a/pool_proj -> inception_4a/pool_proj
I0403 18:52:00.688067 17918 net.cpp:141] Setting up inception_4a/pool_proj
I0403 18:52:00.688094 17918 net.cpp:148] Top shape: 24 64 14 14 (301056)
I0403 18:52:00.688123 17918 net.cpp:156] Memory required for data: 885707808
I0403 18:52:00.688143 17918 layer_factory.hpp:77] Creating layer inception_4a/relu_pool_proj
I0403 18:52:00.688164 17918 net.cpp:91] Creating Layer inception_4a/relu_pool_proj
I0403 18:52:00.688181 17918 net.cpp:425] inception_4a/relu_pool_proj <- inception_4a/pool_proj
I0403 18:52:00.688199 17918 net.cpp:386] inception_4a/relu_pool_proj -> inception_4a/pool_proj (in-place)
I0403 18:52:00.688469 17918 net.cpp:141] Setting up inception_4a/relu_pool_proj
I0403 18:52:00.688495 17918 net.cpp:148] Top shape: 24 64 14 14 (301056)
I0403 18:52:00.688509 17918 net.cpp:156] Memory required for data: 886912032
I0403 18:52:00.688524 17918 layer_factory.hpp:77] Creating layer inception_4a/output
I0403 18:52:00.688539 17918 net.cpp:91] Creating Layer inception_4a/output
I0403 18:52:00.688557 17918 net.cpp:425] inception_4a/output <- inception_4a/1x1
I0403 18:52:00.688573 17918 net.cpp:425] inception_4a/output <- inception_4a/3x3
I0403 18:52:00.688588 17918 net.cpp:425] inception_4a/output <- inception_4a/5x5
I0403 18:52:00.688604 17918 net.cpp:425] inception_4a/output <- inception_4a/pool_proj
I0403 18:52:00.688621 17918 net.cpp:399] inception_4a/output -> inception_4a/output
I0403 18:52:00.688663 17918 net.cpp:141] Setting up inception_4a/output
I0403 18:52:00.688686 17918 net.cpp:148] Top shape: 24 512 14 14 (2408448)
I0403 18:52:00.688701 17918 net.cpp:156] Memory required for data: 896545824
I0403 18:52:00.688715 17918 layer_factory.hpp:77] Creating layer inception_4a/output_inception_4a/output_0_split
I0403 18:52:00.688732 17918 net.cpp:91] Creating Layer inception_4a/output_inception_4a/output_0_split
I0403 18:52:00.688747 17918 net.cpp:425] inception_4a/output_inception_4a/output_0_split <- inception_4a/output
I0403 18:52:00.688766 17918 net.cpp:399] inception_4a/output_inception_4a/output_0_split -> inception_4a/output_inception_4a/output_0_split_0
I0403 18:52:00.688786 17918 net.cpp:399] inception_4a/output_inception_4a/output_0_split -> inception_4a/output_inception_4a/output_0_split_1
I0403 18:52:00.688804 17918 net.cpp:399] inception_4a/output_inception_4a/output_0_split -> inception_4a/output_inception_4a/output_0_split_2
I0403 18:52:00.688824 17918 net.cpp:399] inception_4a/output_inception_4a/output_0_split -> inception_4a/output_inception_4a/output_0_split_3
I0403 18:52:00.688843 17918 net.cpp:399] inception_4a/output_inception_4a/output_0_split -> inception_4a/output_inception_4a/output_0_split_4
I0403 18:52:00.688932 17918 net.cpp:141] Setting up inception_4a/output_inception_4a/output_0_split
I0403 18:52:00.688954 17918 net.cpp:148] Top shape: 24 512 14 14 (2408448)
I0403 18:52:00.688972 17918 net.cpp:148] Top shape: 24 512 14 14 (2408448)
I0403 18:52:00.689000 17918 net.cpp:148] Top shape: 24 512 14 14 (2408448)
I0403 18:52:00.689018 17918 net.cpp:148] Top shape: 24 512 14 14 (2408448)
I0403 18:52:00.689033 17918 net.cpp:148] Top shape: 24 512 14 14 (2408448)
I0403 18:52:00.689045 17918 net.cpp:156] Memory required for data: 944714784
I0403 18:52:00.689059 17918 layer_factory.hpp:77] Creating layer loss1/ave_pool
I0403 18:52:00.689076 17918 net.cpp:91] Creating Layer loss1/ave_pool
I0403 18:52:00.689091 17918 net.cpp:425] loss1/ave_pool <- inception_4a/output_inception_4a/output_0_split_0
I0403 18:52:00.689111 17918 net.cpp:399] loss1/ave_pool -> loss1/ave_pool
I0403 18:52:00.689312 17918 net.cpp:141] Setting up loss1/ave_pool
I0403 18:52:00.689337 17918 net.cpp:148] Top shape: 24 512 4 4 (196608)
I0403 18:52:00.689352 17918 net.cpp:156] Memory required for data: 945501216
I0403 18:52:00.689365 17918 layer_factory.hpp:77] Creating layer loss1/conv
I0403 18:52:00.689386 17918 net.cpp:91] Creating Layer loss1/conv
I0403 18:52:00.689404 17918 net.cpp:425] loss1/conv <- loss1/ave_pool
I0403 18:52:00.689424 17918 net.cpp:399] loss1/conv -> loss1/conv
I0403 18:52:00.690822 17918 net.cpp:141] Setting up loss1/conv
I0403 18:52:00.690850 17918 net.cpp:148] Top shape: 24 128 4 4 (49152)
I0403 18:52:00.690877 17918 net.cpp:156] Memory required for data: 945697824
I0403 18:52:00.690896 17918 layer_factory.hpp:77] Creating layer loss1/relu_conv
I0403 18:52:00.690917 17918 net.cpp:91] Creating Layer loss1/relu_conv
I0403 18:52:00.690932 17918 net.cpp:425] loss1/relu_conv <- loss1/conv
I0403 18:52:00.690949 17918 net.cpp:386] loss1/relu_conv -> loss1/conv (in-place)
I0403 18:52:00.691226 17918 net.cpp:141] Setting up loss1/relu_conv
I0403 18:52:00.691252 17918 net.cpp:148] Top shape: 24 128 4 4 (49152)
I0403 18:52:00.691267 17918 net.cpp:156] Memory required for data: 945894432
I0403 18:52:00.691282 17918 layer_factory.hpp:77] Creating layer loss1/fc
I0403 18:52:00.691306 17918 net.cpp:91] Creating Layer loss1/fc
I0403 18:52:00.691324 17918 net.cpp:425] loss1/fc <- loss1/conv
I0403 18:52:00.691345 17918 net.cpp:399] loss1/fc -> loss1/fc
I0403 18:52:00.708544 17918 net.cpp:141] Setting up loss1/fc
I0403 18:52:00.708576 17918 net.cpp:148] Top shape: 24 1024 (24576)
I0403 18:52:00.708591 17918 net.cpp:156] Memory required for data: 945992736
I0403 18:52:00.708609 17918 layer_factory.hpp:77] Creating layer loss1/relu_fc
I0403 18:52:00.708627 17918 net.cpp:91] Creating Layer loss1/relu_fc
I0403 18:52:00.708642 17918 net.cpp:425] loss1/relu_fc <- loss1/fc
I0403 18:52:00.708662 17918 net.cpp:386] loss1/relu_fc -> loss1/fc (in-place)
I0403 18:52:00.708842 17918 net.cpp:141] Setting up loss1/relu_fc
I0403 18:52:00.708870 17918 net.cpp:148] Top shape: 24 1024 (24576)
I0403 18:52:00.708885 17918 net.cpp:156] Memory required for data: 946091040
I0403 18:52:00.708899 17918 layer_factory.hpp:77] Creating layer loss1/drop_fc
I0403 18:52:00.708925 17918 net.cpp:91] Creating Layer loss1/drop_fc
I0403 18:52:00.708942 17918 net.cpp:425] loss1/drop_fc <- loss1/fc
I0403 18:52:00.708959 17918 net.cpp:386] loss1/drop_fc -> loss1/fc (in-place)
I0403 18:52:00.709020 17918 net.cpp:141] Setting up loss1/drop_fc
I0403 18:52:00.709043 17918 net.cpp:148] Top shape: 24 1024 (24576)
I0403 18:52:00.709058 17918 net.cpp:156] Memory required for data: 946189344
I0403 18:52:00.709071 17918 layer_factory.hpp:77] Creating layer loss1/classifier_plantvillage
I0403 18:52:00.709089 17918 net.cpp:91] Creating Layer loss1/classifier_plantvillage
I0403 18:52:00.709105 17918 net.cpp:425] loss1/classifier_plantvillage <- loss1/fc
I0403 18:52:00.709125 17918 net.cpp:399] loss1/classifier_plantvillage -> loss1/classifier_plantvillage
I0403 18:52:00.710000 17918 net.cpp:141] Setting up loss1/classifier_plantvillage
I0403 18:52:00.710026 17918 net.cpp:148] Top shape: 24 38 (912)
I0403 18:52:00.710041 17918 net.cpp:156] Memory required for data: 946192992
I0403 18:52:00.710058 17918 layer_factory.hpp:77] Creating layer loss1/classifier_plantvillage_loss1/classifier_plantvillage_0_split
I0403 18:52:00.710078 17918 net.cpp:91] Creating Layer loss1/classifier_plantvillage_loss1/classifier_plantvillage_0_split
I0403 18:52:00.710094 17918 net.cpp:425] loss1/classifier_plantvillage_loss1/classifier_plantvillage_0_split <- loss1/classifier_plantvillage
I0403 18:52:00.710111 17918 net.cpp:399] loss1/classifier_plantvillage_loss1/classifier_plantvillage_0_split -> loss1/classifier_plantvillage_loss1/classifier_plantvillage_0_split_0
I0403 18:52:00.710130 17918 net.cpp:399] loss1/classifier_plantvillage_loss1/classifier_plantvillage_0_split -> loss1/classifier_plantvillage_loss1/classifier_plantvillage_0_split_1
I0403 18:52:00.710150 17918 net.cpp:399] loss1/classifier_plantvillage_loss1/classifier_plantvillage_0_split -> loss1/classifier_plantvillage_loss1/classifier_plantvillage_0_split_2
I0403 18:52:00.710216 17918 net.cpp:141] Setting up loss1/classifier_plantvillage_loss1/classifier_plantvillage_0_split
I0403 18:52:00.710239 17918 net.cpp:148] Top shape: 24 38 (912)
I0403 18:52:00.710254 17918 net.cpp:148] Top shape: 24 38 (912)
I0403 18:52:00.710270 17918 net.cpp:148] Top shape: 24 38 (912)
I0403 18:52:00.710284 17918 net.cpp:156] Memory required for data: 946203936
I0403 18:52:00.710299 17918 layer_factory.hpp:77] Creating layer inception_4b/1x1
I0403 18:52:00.710319 17918 net.cpp:91] Creating Layer inception_4b/1x1
I0403 18:52:00.710351 17918 net.cpp:425] inception_4b/1x1 <- inception_4a/output_inception_4a/output_0_split_1
I0403 18:52:00.710371 17918 net.cpp:399] inception_4b/1x1 -> inception_4b/1x1
I0403 18:52:00.712000 17918 net.cpp:141] Setting up inception_4b/1x1
I0403 18:52:00.712029 17918 net.cpp:148] Top shape: 24 160 14 14 (752640)
I0403 18:52:00.712044 17918 net.cpp:156] Memory required for data: 949214496
I0403 18:52:00.712064 17918 layer_factory.hpp:77] Creating layer inception_4b/relu_1x1
I0403 18:52:00.712083 17918 net.cpp:91] Creating Layer inception_4b/relu_1x1
I0403 18:52:00.712098 17918 net.cpp:425] inception_4b/relu_1x1 <- inception_4b/1x1
I0403 18:52:00.712116 17918 net.cpp:386] inception_4b/relu_1x1 -> inception_4b/1x1 (in-place)
I0403 18:52:00.712293 17918 net.cpp:141] Setting up inception_4b/relu_1x1
I0403 18:52:00.712317 17918 net.cpp:148] Top shape: 24 160 14 14 (752640)
I0403 18:52:00.712332 17918 net.cpp:156] Memory required for data: 952225056
I0403 18:52:00.712347 17918 layer_factory.hpp:77] Creating layer inception_4b/3x3_reduce
I0403 18:52:00.712373 17918 net.cpp:91] Creating Layer inception_4b/3x3_reduce
I0403 18:52:00.712390 17918 net.cpp:425] inception_4b/3x3_reduce <- inception_4a/output_inception_4a/output_0_split_2
I0403 18:52:00.712411 17918 net.cpp:399] inception_4b/3x3_reduce -> inception_4b/3x3_reduce
I0403 18:52:00.713773 17918 net.cpp:141] Setting up inception_4b/3x3_reduce
I0403 18:52:00.713799 17918 net.cpp:148] Top shape: 24 112 14 14 (526848)
I0403 18:52:00.713815 17918 net.cpp:156] Memory required for data: 954332448
I0403 18:52:00.713834 17918 layer_factory.hpp:77] Creating layer inception_4b/relu_3x3_reduce
I0403 18:52:00.713851 17918 net.cpp:91] Creating Layer inception_4b/relu_3x3_reduce
I0403 18:52:00.713868 17918 net.cpp:425] inception_4b/relu_3x3_reduce <- inception_4b/3x3_reduce
I0403 18:52:00.713887 17918 net.cpp:386] inception_4b/relu_3x3_reduce -> inception_4b/3x3_reduce (in-place)
I0403 18:52:00.714180 17918 net.cpp:141] Setting up inception_4b/relu_3x3_reduce
I0403 18:52:00.714207 17918 net.cpp:148] Top shape: 24 112 14 14 (526848)
I0403 18:52:00.714222 17918 net.cpp:156] Memory required for data: 956439840
I0403 18:52:00.714237 17918 layer_factory.hpp:77] Creating layer inception_4b/3x3
I0403 18:52:00.714260 17918 net.cpp:91] Creating Layer inception_4b/3x3
I0403 18:52:00.714277 17918 net.cpp:425] inception_4b/3x3 <- inception_4b/3x3_reduce
I0403 18:52:00.714298 17918 net.cpp:399] inception_4b/3x3 -> inception_4b/3x3
I0403 18:52:00.717303 17918 net.cpp:141] Setting up inception_4b/3x3
I0403 18:52:00.717331 17918 net.cpp:148] Top shape: 24 224 14 14 (1053696)
I0403 18:52:00.717347 17918 net.cpp:156] Memory required for data: 960654624
I0403 18:52:00.717365 17918 layer_factory.hpp:77] Creating layer inception_4b/relu_3x3
I0403 18:52:00.717386 17918 net.cpp:91] Creating Layer inception_4b/relu_3x3
I0403 18:52:00.717401 17918 net.cpp:425] inception_4b/relu_3x3 <- inception_4b/3x3
I0403 18:52:00.717418 17918 net.cpp:386] inception_4b/relu_3x3 -> inception_4b/3x3 (in-place)
I0403 18:52:00.717605 17918 net.cpp:141] Setting up inception_4b/relu_3x3
I0403 18:52:00.717633 17918 net.cpp:148] Top shape: 24 224 14 14 (1053696)
I0403 18:52:00.717648 17918 net.cpp:156] Memory required for data: 964869408
I0403 18:52:00.717663 17918 layer_factory.hpp:77] Creating layer inception_4b/5x5_reduce
I0403 18:52:00.717685 17918 net.cpp:91] Creating Layer inception_4b/5x5_reduce
I0403 18:52:00.717703 17918 net.cpp:425] inception_4b/5x5_reduce <- inception_4a/output_inception_4a/output_0_split_3
I0403 18:52:00.717722 17918 net.cpp:399] inception_4b/5x5_reduce -> inception_4b/5x5_reduce
I0403 18:52:00.718858 17918 net.cpp:141] Setting up inception_4b/5x5_reduce
I0403 18:52:00.718888 17918 net.cpp:148] Top shape: 24 24 14 14 (112896)
I0403 18:52:00.718904 17918 net.cpp:156] Memory required for data: 965320992
I0403 18:52:00.718921 17918 layer_factory.hpp:77] Creating layer inception_4b/relu_5x5_reduce
I0403 18:52:00.718940 17918 net.cpp:91] Creating Layer inception_4b/relu_5x5_reduce
I0403 18:52:00.718969 17918 net.cpp:425] inception_4b/relu_5x5_reduce <- inception_4b/5x5_reduce
I0403 18:52:00.718996 17918 net.cpp:386] inception_4b/relu_5x5_reduce -> inception_4b/5x5_reduce (in-place)
I0403 18:52:00.719185 17918 net.cpp:141] Setting up inception_4b/relu_5x5_reduce
I0403 18:52:00.719211 17918 net.cpp:148] Top shape: 24 24 14 14 (112896)
I0403 18:52:00.719226 17918 net.cpp:156] Memory required for data: 965772576
I0403 18:52:00.719240 17918 layer_factory.hpp:77] Creating layer inception_4b/5x5
I0403 18:52:00.719262 17918 net.cpp:91] Creating Layer inception_4b/5x5
I0403 18:52:00.719280 17918 net.cpp:425] inception_4b/5x5 <- inception_4b/5x5_reduce
I0403 18:52:00.719301 17918 net.cpp:399] inception_4b/5x5 -> inception_4b/5x5
I0403 18:52:00.720561 17918 net.cpp:141] Setting up inception_4b/5x5
I0403 18:52:00.720589 17918 net.cpp:148] Top shape: 24 64 14 14 (301056)
I0403 18:52:00.720604 17918 net.cpp:156] Memory required for data: 966976800
I0403 18:52:00.720625 17918 layer_factory.hpp:77] Creating layer inception_4b/relu_5x5
I0403 18:52:00.720644 17918 net.cpp:91] Creating Layer inception_4b/relu_5x5
I0403 18:52:00.720660 17918 net.cpp:425] inception_4b/relu_5x5 <- inception_4b/5x5
I0403 18:52:00.720679 17918 net.cpp:386] inception_4b/relu_5x5 -> inception_4b/5x5 (in-place)
I0403 18:52:00.720968 17918 net.cpp:141] Setting up inception_4b/relu_5x5
I0403 18:52:00.720996 17918 net.cpp:148] Top shape: 24 64 14 14 (301056)
I0403 18:52:00.721012 17918 net.cpp:156] Memory required for data: 968181024
I0403 18:52:00.721027 17918 layer_factory.hpp:77] Creating layer inception_4b/pool
I0403 18:52:00.721047 17918 net.cpp:91] Creating Layer inception_4b/pool
I0403 18:52:00.721065 17918 net.cpp:425] inception_4b/pool <- inception_4a/output_inception_4a/output_0_split_4
I0403 18:52:00.721086 17918 net.cpp:399] inception_4b/pool -> inception_4b/pool
I0403 18:52:00.721149 17918 net.cpp:141] Setting up inception_4b/pool
I0403 18:52:00.721174 17918 net.cpp:148] Top shape: 24 512 14 14 (2408448)
I0403 18:52:00.721187 17918 net.cpp:156] Memory required for data: 977814816
I0403 18:52:00.721204 17918 layer_factory.hpp:77] Creating layer inception_4b/pool_proj
I0403 18:52:00.721225 17918 net.cpp:91] Creating Layer inception_4b/pool_proj
I0403 18:52:00.721243 17918 net.cpp:425] inception_4b/pool_proj <- inception_4b/pool
I0403 18:52:00.721264 17918 net.cpp:399] inception_4b/pool_proj -> inception_4b/pool_proj
I0403 18:52:00.722470 17918 net.cpp:141] Setting up inception_4b/pool_proj
I0403 18:52:00.722499 17918 net.cpp:148] Top shape: 24 64 14 14 (301056)
I0403 18:52:00.722517 17918 net.cpp:156] Memory required for data: 979019040
I0403 18:52:00.722534 17918 layer_factory.hpp:77] Creating layer inception_4b/relu_pool_proj
I0403 18:52:00.722553 17918 net.cpp:91] Creating Layer inception_4b/relu_pool_proj
I0403 18:52:00.722568 17918 net.cpp:425] inception_4b/relu_pool_proj <- inception_4b/pool_proj
I0403 18:52:00.722587 17918 net.cpp:386] inception_4b/relu_pool_proj -> inception_4b/pool_proj (in-place)
I0403 18:52:00.722770 17918 net.cpp:141] Setting up inception_4b/relu_pool_proj
I0403 18:52:00.722795 17918 net.cpp:148] Top shape: 24 64 14 14 (301056)
I0403 18:52:00.722810 17918 net.cpp:156] Memory required for data: 980223264
I0403 18:52:00.722825 17918 layer_factory.hpp:77] Creating layer inception_4b/output
I0403 18:52:00.722842 17918 net.cpp:91] Creating Layer inception_4b/output
I0403 18:52:00.722857 17918 net.cpp:425] inception_4b/output <- inception_4b/1x1
I0403 18:52:00.722873 17918 net.cpp:425] inception_4b/output <- inception_4b/3x3
I0403 18:52:00.722889 17918 net.cpp:425] inception_4b/output <- inception_4b/5x5
I0403 18:52:00.722904 17918 net.cpp:425] inception_4b/output <- inception_4b/pool_proj
I0403 18:52:00.722923 17918 net.cpp:399] inception_4b/output -> inception_4b/output
I0403 18:52:00.722970 17918 net.cpp:141] Setting up inception_4b/output
I0403 18:52:00.723000 17918 net.cpp:148] Top shape: 24 512 14 14 (2408448)
I0403 18:52:00.723016 17918 net.cpp:156] Memory required for data: 989857056
I0403 18:52:00.723044 17918 layer_factory.hpp:77] Creating layer inception_4b/output_inception_4b/output_0_split
I0403 18:52:00.723063 17918 net.cpp:91] Creating Layer inception_4b/output_inception_4b/output_0_split
I0403 18:52:00.723078 17918 net.cpp:425] inception_4b/output_inception_4b/output_0_split <- inception_4b/output
I0403 18:52:00.723096 17918 net.cpp:399] inception_4b/output_inception_4b/output_0_split -> inception_4b/output_inception_4b/output_0_split_0
I0403 18:52:00.723119 17918 net.cpp:399] inception_4b/output_inception_4b/output_0_split -> inception_4b/output_inception_4b/output_0_split_1
I0403 18:52:00.723140 17918 net.cpp:399] inception_4b/output_inception_4b/output_0_split -> inception_4b/output_inception_4b/output_0_split_2
I0403 18:52:00.723160 17918 net.cpp:399] inception_4b/output_inception_4b/output_0_split -> inception_4b/output_inception_4b/output_0_split_3
I0403 18:52:00.723244 17918 net.cpp:141] Setting up inception_4b/output_inception_4b/output_0_split
I0403 18:52:00.723268 17918 net.cpp:148] Top shape: 24 512 14 14 (2408448)
I0403 18:52:00.723284 17918 net.cpp:148] Top shape: 24 512 14 14 (2408448)
I0403 18:52:00.723299 17918 net.cpp:148] Top shape: 24 512 14 14 (2408448)
I0403 18:52:00.723315 17918 net.cpp:148] Top shape: 24 512 14 14 (2408448)
I0403 18:52:00.723327 17918 net.cpp:156] Memory required for data: 1028392224
I0403 18:52:00.723342 17918 layer_factory.hpp:77] Creating layer inception_4c/1x1
I0403 18:52:00.723366 17918 net.cpp:91] Creating Layer inception_4c/1x1
I0403 18:52:00.723384 17918 net.cpp:425] inception_4c/1x1 <- inception_4b/output_inception_4b/output_0_split_0
I0403 18:52:00.723403 17918 net.cpp:399] inception_4c/1x1 -> inception_4c/1x1
I0403 18:52:00.724843 17918 net.cpp:141] Setting up inception_4c/1x1
I0403 18:52:00.724869 17918 net.cpp:148] Top shape: 24 128 14 14 (602112)
I0403 18:52:00.724885 17918 net.cpp:156] Memory required for data: 1030800672
I0403 18:52:00.724903 17918 layer_factory.hpp:77] Creating layer inception_4c/relu_1x1
I0403 18:52:00.724925 17918 net.cpp:91] Creating Layer inception_4c/relu_1x1
I0403 18:52:00.724941 17918 net.cpp:425] inception_4c/relu_1x1 <- inception_4c/1x1
I0403 18:52:00.724958 17918 net.cpp:386] inception_4c/relu_1x1 -> inception_4c/1x1 (in-place)
I0403 18:52:00.725145 17918 net.cpp:141] Setting up inception_4c/relu_1x1
I0403 18:52:00.725169 17918 net.cpp:148] Top shape: 24 128 14 14 (602112)
I0403 18:52:00.725184 17918 net.cpp:156] Memory required for data: 1033209120
I0403 18:52:00.725199 17918 layer_factory.hpp:77] Creating layer inception_4c/3x3_reduce
I0403 18:52:00.725221 17918 net.cpp:91] Creating Layer inception_4c/3x3_reduce
I0403 18:52:00.725239 17918 net.cpp:425] inception_4c/3x3_reduce <- inception_4b/output_inception_4b/output_0_split_1
I0403 18:52:00.725260 17918 net.cpp:399] inception_4c/3x3_reduce -> inception_4c/3x3_reduce
I0403 18:52:00.727207 17918 net.cpp:141] Setting up inception_4c/3x3_reduce
I0403 18:52:00.727238 17918 net.cpp:148] Top shape: 24 128 14 14 (602112)
I0403 18:52:00.727254 17918 net.cpp:156] Memory required for data: 1035617568
I0403 18:52:00.727272 17918 layer_factory.hpp:77] Creating layer inception_4c/relu_3x3_reduce
I0403 18:52:00.727291 17918 net.cpp:91] Creating Layer inception_4c/relu_3x3_reduce
I0403 18:52:00.727306 17918 net.cpp:425] inception_4c/relu_3x3_reduce <- inception_4c/3x3_reduce
I0403 18:52:00.727324 17918 net.cpp:386] inception_4c/relu_3x3_reduce -> inception_4c/3x3_reduce (in-place)
I0403 18:52:00.727613 17918 net.cpp:141] Setting up inception_4c/relu_3x3_reduce
I0403 18:52:00.727641 17918 net.cpp:148] Top shape: 24 128 14 14 (602112)
I0403 18:52:00.727658 17918 net.cpp:156] Memory required for data: 1038026016
I0403 18:52:00.727674 17918 layer_factory.hpp:77] Creating layer inception_4c/3x3
I0403 18:52:00.727695 17918 net.cpp:91] Creating Layer inception_4c/3x3
I0403 18:52:00.727712 17918 net.cpp:425] inception_4c/3x3 <- inception_4c/3x3_reduce
I0403 18:52:00.727731 17918 net.cpp:399] inception_4c/3x3 -> inception_4c/3x3
I0403 18:52:00.731382 17918 net.cpp:141] Setting up inception_4c/3x3
I0403 18:52:00.731425 17918 net.cpp:148] Top shape: 24 256 14 14 (1204224)
I0403 18:52:00.731441 17918 net.cpp:156] Memory required for data: 1042842912
I0403 18:52:00.731472 17918 layer_factory.hpp:77] Creating layer inception_4c/relu_3x3
I0403 18:52:00.731490 17918 net.cpp:91] Creating Layer inception_4c/relu_3x3
I0403 18:52:00.731506 17918 net.cpp:425] inception_4c/relu_3x3 <- inception_4c/3x3
I0403 18:52:00.731525 17918 net.cpp:386] inception_4c/relu_3x3 -> inception_4c/3x3 (in-place)
I0403 18:52:00.731703 17918 net.cpp:141] Setting up inception_4c/relu_3x3
I0403 18:52:00.731729 17918 net.cpp:148] Top shape: 24 256 14 14 (1204224)
I0403 18:52:00.731744 17918 net.cpp:156] Memory required for data: 1047659808
I0403 18:52:00.731758 17918 layer_factory.hpp:77] Creating layer inception_4c/5x5_reduce
I0403 18:52:00.731782 17918 net.cpp:91] Creating Layer inception_4c/5x5_reduce
I0403 18:52:00.731799 17918 net.cpp:425] inception_4c/5x5_reduce <- inception_4b/output_inception_4b/output_0_split_2
I0403 18:52:00.731820 17918 net.cpp:399] inception_4c/5x5_reduce -> inception_4c/5x5_reduce
I0403 18:52:00.732885 17918 net.cpp:141] Setting up inception_4c/5x5_reduce
I0403 18:52:00.732914 17918 net.cpp:148] Top shape: 24 24 14 14 (112896)
I0403 18:52:00.732930 17918 net.cpp:156] Memory required for data: 1048111392
I0403 18:52:00.732947 17918 layer_factory.hpp:77] Creating layer inception_4c/relu_5x5_reduce
I0403 18:52:00.732965 17918 net.cpp:91] Creating Layer inception_4c/relu_5x5_reduce
I0403 18:52:00.732985 17918 net.cpp:425] inception_4c/relu_5x5_reduce <- inception_4c/5x5_reduce
I0403 18:52:00.733002 17918 net.cpp:386] inception_4c/relu_5x5_reduce -> inception_4c/5x5_reduce (in-place)
I0403 18:52:00.733185 17918 net.cpp:141] Setting up inception_4c/relu_5x5_reduce
I0403 18:52:00.733209 17918 net.cpp:148] Top shape: 24 24 14 14 (112896)
I0403 18:52:00.733223 17918 net.cpp:156] Memory required for data: 1048562976
I0403 18:52:00.733237 17918 layer_factory.hpp:77] Creating layer inception_4c/5x5
I0403 18:52:00.733259 17918 net.cpp:91] Creating Layer inception_4c/5x5
I0403 18:52:00.733275 17918 net.cpp:425] inception_4c/5x5 <- inception_4c/5x5_reduce
I0403 18:52:00.733296 17918 net.cpp:399] inception_4c/5x5 -> inception_4c/5x5
I0403 18:52:00.734508 17918 net.cpp:141] Setting up inception_4c/5x5
I0403 18:52:00.734535 17918 net.cpp:148] Top shape: 24 64 14 14 (301056)
I0403 18:52:00.734550 17918 net.cpp:156] Memory required for data: 1049767200
I0403 18:52:00.734567 17918 layer_factory.hpp:77] Creating layer inception_4c/relu_5x5
I0403 18:52:00.734586 17918 net.cpp:91] Creating Layer inception_4c/relu_5x5
I0403 18:52:00.734601 17918 net.cpp:425] inception_4c/relu_5x5 <- inception_4c/5x5
I0403 18:52:00.734619 17918 net.cpp:386] inception_4c/relu_5x5 -> inception_4c/5x5 (in-place)
I0403 18:52:00.734906 17918 net.cpp:141] Setting up inception_4c/relu_5x5
I0403 18:52:00.734931 17918 net.cpp:148] Top shape: 24 64 14 14 (301056)
I0403 18:52:00.734946 17918 net.cpp:156] Memory required for data: 1050971424
I0403 18:52:00.734961 17918 layer_factory.hpp:77] Creating layer inception_4c/pool
I0403 18:52:00.734980 17918 net.cpp:91] Creating Layer inception_4c/pool
I0403 18:52:00.734998 17918 net.cpp:425] inception_4c/pool <- inception_4b/output_inception_4b/output_0_split_3
I0403 18:52:00.735018 17918 net.cpp:399] inception_4c/pool -> inception_4c/pool
I0403 18:52:00.735082 17918 net.cpp:141] Setting up inception_4c/pool
I0403 18:52:00.735105 17918 net.cpp:148] Top shape: 24 512 14 14 (2408448)
I0403 18:52:00.735119 17918 net.cpp:156] Memory required for data: 1060605216
I0403 18:52:00.735133 17918 layer_factory.hpp:77] Creating layer inception_4c/pool_proj
I0403 18:52:00.735157 17918 net.cpp:91] Creating Layer inception_4c/pool_proj
I0403 18:52:00.735174 17918 net.cpp:425] inception_4c/pool_proj <- inception_4c/pool
I0403 18:52:00.735193 17918 net.cpp:399] inception_4c/pool_proj -> inception_4c/pool_proj
I0403 18:52:00.736388 17918 net.cpp:141] Setting up inception_4c/pool_proj
I0403 18:52:00.736416 17918 net.cpp:148] Top shape: 24 64 14 14 (301056)
I0403 18:52:00.736445 17918 net.cpp:156] Memory required for data: 1061809440
I0403 18:52:00.736464 17918 layer_factory.hpp:77] Creating layer inception_4c/relu_pool_proj
I0403 18:52:00.736481 17918 net.cpp:91] Creating Layer inception_4c/relu_pool_proj
I0403 18:52:00.736496 17918 net.cpp:425] inception_4c/relu_pool_proj <- inception_4c/pool_proj
I0403 18:52:00.736515 17918 net.cpp:386] inception_4c/relu_pool_proj -> inception_4c/pool_proj (in-place)
I0403 18:52:00.736696 17918 net.cpp:141] Setting up inception_4c/relu_pool_proj
I0403 18:52:00.736719 17918 net.cpp:148] Top shape: 24 64 14 14 (301056)
I0403 18:52:00.736733 17918 net.cpp:156] Memory required for data: 1063013664
I0403 18:52:00.736747 17918 layer_factory.hpp:77] Creating layer inception_4c/output
I0403 18:52:00.736763 17918 net.cpp:91] Creating Layer inception_4c/output
I0403 18:52:00.736778 17918 net.cpp:425] inception_4c/output <- inception_4c/1x1
I0403 18:52:00.736794 17918 net.cpp:425] inception_4c/output <- inception_4c/3x3
I0403 18:52:00.736810 17918 net.cpp:425] inception_4c/output <- inception_4c/5x5
I0403 18:52:00.736825 17918 net.cpp:425] inception_4c/output <- inception_4c/pool_proj
I0403 18:52:00.736843 17918 net.cpp:399] inception_4c/output -> inception_4c/output
I0403 18:52:00.736888 17918 net.cpp:141] Setting up inception_4c/output
I0403 18:52:00.736913 17918 net.cpp:148] Top shape: 24 512 14 14 (2408448)
I0403 18:52:00.736928 17918 net.cpp:156] Memory required for data: 1072647456
I0403 18:52:00.736943 17918 layer_factory.hpp:77] Creating layer inception_4c/output_inception_4c/output_0_split
I0403 18:52:00.736958 17918 net.cpp:91] Creating Layer inception_4c/output_inception_4c/output_0_split
I0403 18:52:00.736974 17918 net.cpp:425] inception_4c/output_inception_4c/output_0_split <- inception_4c/output
I0403 18:52:00.736995 17918 net.cpp:399] inception_4c/output_inception_4c/output_0_split -> inception_4c/output_inception_4c/output_0_split_0
I0403 18:52:00.737017 17918 net.cpp:399] inception_4c/output_inception_4c/output_0_split -> inception_4c/output_inception_4c/output_0_split_1
I0403 18:52:00.737037 17918 net.cpp:399] inception_4c/output_inception_4c/output_0_split -> inception_4c/output_inception_4c/output_0_split_2
I0403 18:52:00.737056 17918 net.cpp:399] inception_4c/output_inception_4c/output_0_split -> inception_4c/output_inception_4c/output_0_split_3
I0403 18:52:00.737140 17918 net.cpp:141] Setting up inception_4c/output_inception_4c/output_0_split
I0403 18:52:00.737164 17918 net.cpp:148] Top shape: 24 512 14 14 (2408448)
I0403 18:52:00.737179 17918 net.cpp:148] Top shape: 24 512 14 14 (2408448)
I0403 18:52:00.737193 17918 net.cpp:148] Top shape: 24 512 14 14 (2408448)
I0403 18:52:00.737210 17918 net.cpp:148] Top shape: 24 512 14 14 (2408448)
I0403 18:52:00.737222 17918 net.cpp:156] Memory required for data: 1111182624
I0403 18:52:00.737236 17918 layer_factory.hpp:77] Creating layer inception_4d/1x1
I0403 18:52:00.737257 17918 net.cpp:91] Creating Layer inception_4d/1x1
I0403 18:52:00.737275 17918 net.cpp:425] inception_4d/1x1 <- inception_4c/output_inception_4c/output_0_split_0
I0403 18:52:00.737293 17918 net.cpp:399] inception_4d/1x1 -> inception_4d/1x1
I0403 18:52:00.738641 17918 net.cpp:141] Setting up inception_4d/1x1
I0403 18:52:00.738667 17918 net.cpp:148] Top shape: 24 112 14 14 (526848)
I0403 18:52:00.738682 17918 net.cpp:156] Memory required for data: 1113290016
I0403 18:52:00.738699 17918 layer_factory.hpp:77] Creating layer inception_4d/relu_1x1
I0403 18:52:00.738718 17918 net.cpp:91] Creating Layer inception_4d/relu_1x1
I0403 18:52:00.738734 17918 net.cpp:425] inception_4d/relu_1x1 <- inception_4d/1x1
I0403 18:52:00.738751 17918 net.cpp:386] inception_4d/relu_1x1 -> inception_4d/1x1 (in-place)
I0403 18:52:00.738929 17918 net.cpp:141] Setting up inception_4d/relu_1x1
I0403 18:52:00.738955 17918 net.cpp:148] Top shape: 24 112 14 14 (526848)
I0403 18:52:00.738971 17918 net.cpp:156] Memory required for data: 1115397408
I0403 18:52:00.738997 17918 layer_factory.hpp:77] Creating layer inception_4d/3x3_reduce
I0403 18:52:00.739037 17918 net.cpp:91] Creating Layer inception_4d/3x3_reduce
I0403 18:52:00.739055 17918 net.cpp:425] inception_4d/3x3_reduce <- inception_4c/output_inception_4c/output_0_split_1
I0403 18:52:00.739073 17918 net.cpp:399] inception_4d/3x3_reduce -> inception_4d/3x3_reduce
I0403 18:52:00.740547 17918 net.cpp:141] Setting up inception_4d/3x3_reduce
I0403 18:52:00.740574 17918 net.cpp:148] Top shape: 24 144 14 14 (677376)
I0403 18:52:00.740589 17918 net.cpp:156] Memory required for data: 1118106912
I0403 18:52:00.740607 17918 layer_factory.hpp:77] Creating layer inception_4d/relu_3x3_reduce
I0403 18:52:00.740625 17918 net.cpp:91] Creating Layer inception_4d/relu_3x3_reduce
I0403 18:52:00.740641 17918 net.cpp:425] inception_4d/relu_3x3_reduce <- inception_4d/3x3_reduce
I0403 18:52:00.740658 17918 net.cpp:386] inception_4d/relu_3x3_reduce -> inception_4d/3x3_reduce (in-place)
I0403 18:52:00.740939 17918 net.cpp:141] Setting up inception_4d/relu_3x3_reduce
I0403 18:52:00.740965 17918 net.cpp:148] Top shape: 24 144 14 14 (677376)
I0403 18:52:00.740983 17918 net.cpp:156] Memory required for data: 1120816416
I0403 18:52:00.740998 17918 layer_factory.hpp:77] Creating layer inception_4d/3x3
I0403 18:52:00.741020 17918 net.cpp:91] Creating Layer inception_4d/3x3
I0403 18:52:00.741037 17918 net.cpp:425] inception_4d/3x3 <- inception_4d/3x3_reduce
I0403 18:52:00.741057 17918 net.cpp:399] inception_4d/3x3 -> inception_4d/3x3
I0403 18:52:00.745239 17918 net.cpp:141] Setting up inception_4d/3x3
I0403 18:52:00.745266 17918 net.cpp:148] Top shape: 24 288 14 14 (1354752)
I0403 18:52:00.745281 17918 net.cpp:156] Memory required for data: 1126235424
I0403 18:52:00.745298 17918 layer_factory.hpp:77] Creating layer inception_4d/relu_3x3
I0403 18:52:00.745318 17918 net.cpp:91] Creating Layer inception_4d/relu_3x3
I0403 18:52:00.745334 17918 net.cpp:425] inception_4d/relu_3x3 <- inception_4d/3x3
I0403 18:52:00.745352 17918 net.cpp:386] inception_4d/relu_3x3 -> inception_4d/3x3 (in-place)
I0403 18:52:00.745532 17918 net.cpp:141] Setting up inception_4d/relu_3x3
I0403 18:52:00.745558 17918 net.cpp:148] Top shape: 24 288 14 14 (1354752)
I0403 18:52:00.745574 17918 net.cpp:156] Memory required for data: 1131654432
I0403 18:52:00.745589 17918 layer_factory.hpp:77] Creating layer inception_4d/5x5_reduce
I0403 18:52:00.745610 17918 net.cpp:91] Creating Layer inception_4d/5x5_reduce
I0403 18:52:00.745627 17918 net.cpp:425] inception_4d/5x5_reduce <- inception_4c/output_inception_4c/output_0_split_2
I0403 18:52:00.745646 17918 net.cpp:399] inception_4d/5x5_reduce -> inception_4d/5x5_reduce
I0403 18:52:00.746774 17918 net.cpp:141] Setting up inception_4d/5x5_reduce
I0403 18:52:00.746801 17918 net.cpp:148] Top shape: 24 32 14 14 (150528)
I0403 18:52:00.746816 17918 net.cpp:156] Memory required for data: 1132256544
I0403 18:52:00.746834 17918 layer_factory.hpp:77] Creating layer inception_4d/relu_5x5_reduce
I0403 18:52:00.746853 17918 net.cpp:91] Creating Layer inception_4d/relu_5x5_reduce
I0403 18:52:00.746870 17918 net.cpp:425] inception_4d/relu_5x5_reduce <- inception_4d/5x5_reduce
I0403 18:52:00.746887 17918 net.cpp:386] inception_4d/relu_5x5_reduce -> inception_4d/5x5_reduce (in-place)
I0403 18:52:00.747078 17918 net.cpp:141] Setting up inception_4d/relu_5x5_reduce
I0403 18:52:00.747105 17918 net.cpp:148] Top shape: 24 32 14 14 (150528)
I0403 18:52:00.747120 17918 net.cpp:156] Memory required for data: 1132858656
I0403 18:52:00.747135 17918 layer_factory.hpp:77] Creating layer inception_4d/5x5
I0403 18:52:00.747156 17918 net.cpp:91] Creating Layer inception_4d/5x5
I0403 18:52:00.747174 17918 net.cpp:425] inception_4d/5x5 <- inception_4d/5x5_reduce
I0403 18:52:00.747192 17918 net.cpp:399] inception_4d/5x5 -> inception_4d/5x5
I0403 18:52:00.748632 17918 net.cpp:141] Setting up inception_4d/5x5
I0403 18:52:00.748659 17918 net.cpp:148] Top shape: 24 64 14 14 (301056)
I0403 18:52:00.748673 17918 net.cpp:156] Memory required for data: 1134062880
I0403 18:52:00.748692 17918 layer_factory.hpp:77] Creating layer inception_4d/relu_5x5
I0403 18:52:00.748723 17918 net.cpp:91] Creating Layer inception_4d/relu_5x5
I0403 18:52:00.748740 17918 net.cpp:425] inception_4d/relu_5x5 <- inception_4d/5x5
I0403 18:52:00.748759 17918 net.cpp:386] inception_4d/relu_5x5 -> inception_4d/5x5 (in-place)
I0403 18:52:00.749081 17918 net.cpp:141] Setting up inception_4d/relu_5x5
I0403 18:52:00.749109 17918 net.cpp:148] Top shape: 24 64 14 14 (301056)
I0403 18:52:00.749124 17918 net.cpp:156] Memory required for data: 1135267104
I0403 18:52:00.749138 17918 layer_factory.hpp:77] Creating layer inception_4d/pool
I0403 18:52:00.749155 17918 net.cpp:91] Creating Layer inception_4d/pool
I0403 18:52:00.749172 17918 net.cpp:425] inception_4d/pool <- inception_4c/output_inception_4c/output_0_split_3
I0403 18:52:00.749192 17918 net.cpp:399] inception_4d/pool -> inception_4d/pool
I0403 18:52:00.749269 17918 net.cpp:141] Setting up inception_4d/pool
I0403 18:52:00.749292 17918 net.cpp:148] Top shape: 24 512 14 14 (2408448)
I0403 18:52:00.749306 17918 net.cpp:156] Memory required for data: 1144900896
I0403 18:52:00.749320 17918 layer_factory.hpp:77] Creating layer inception_4d/pool_proj
I0403 18:52:00.749343 17918 net.cpp:91] Creating Layer inception_4d/pool_proj
I0403 18:52:00.749359 17918 net.cpp:425] inception_4d/pool_proj <- inception_4d/pool
I0403 18:52:00.749378 17918 net.cpp:399] inception_4d/pool_proj -> inception_4d/pool_proj
I0403 18:52:00.751097 17918 net.cpp:141] Setting up inception_4d/pool_proj
I0403 18:52:00.751126 17918 net.cpp:148] Top shape: 24 64 14 14 (301056)
I0403 18:52:00.751142 17918 net.cpp:156] Memory required for data: 1146105120
I0403 18:52:00.751158 17918 layer_factory.hpp:77] Creating layer inception_4d/relu_pool_proj
I0403 18:52:00.751178 17918 net.cpp:91] Creating Layer inception_4d/relu_pool_proj
I0403 18:52:00.751194 17918 net.cpp:425] inception_4d/relu_pool_proj <- inception_4d/pool_proj
I0403 18:52:00.751211 17918 net.cpp:386] inception_4d/relu_pool_proj -> inception_4d/pool_proj (in-place)
I0403 18:52:00.751394 17918 net.cpp:141] Setting up inception_4d/relu_pool_proj
I0403 18:52:00.751420 17918 net.cpp:148] Top shape: 24 64 14 14 (301056)
I0403 18:52:00.751435 17918 net.cpp:156] Memory required for data: 1147309344
I0403 18:52:00.751449 17918 layer_factory.hpp:77] Creating layer inception_4d/output
I0403 18:52:00.751466 17918 net.cpp:91] Creating Layer inception_4d/output
I0403 18:52:00.751482 17918 net.cpp:425] inception_4d/output <- inception_4d/1x1
I0403 18:52:00.751497 17918 net.cpp:425] inception_4d/output <- inception_4d/3x3
I0403 18:52:00.751513 17918 net.cpp:425] inception_4d/output <- inception_4d/5x5
I0403 18:52:00.751528 17918 net.cpp:425] inception_4d/output <- inception_4d/pool_proj
I0403 18:52:00.751546 17918 net.cpp:399] inception_4d/output -> inception_4d/output
I0403 18:52:00.751593 17918 net.cpp:141] Setting up inception_4d/output
I0403 18:52:00.751616 17918 net.cpp:148] Top shape: 24 528 14 14 (2483712)
I0403 18:52:00.751629 17918 net.cpp:156] Memory required for data: 1157244192
I0403 18:52:00.751643 17918 layer_factory.hpp:77] Creating layer inception_4d/output_inception_4d/output_0_split
I0403 18:52:00.751662 17918 net.cpp:91] Creating Layer inception_4d/output_inception_4d/output_0_split
I0403 18:52:00.751678 17918 net.cpp:425] inception_4d/output_inception_4d/output_0_split <- inception_4d/output
I0403 18:52:00.751696 17918 net.cpp:399] inception_4d/output_inception_4d/output_0_split -> inception_4d/output_inception_4d/output_0_split_0
I0403 18:52:00.751715 17918 net.cpp:399] inception_4d/output_inception_4d/output_0_split -> inception_4d/output_inception_4d/output_0_split_1
I0403 18:52:00.751739 17918 net.cpp:399] inception_4d/output_inception_4d/output_0_split -> inception_4d/output_inception_4d/output_0_split_2
I0403 18:52:00.751760 17918 net.cpp:399] inception_4d/output_inception_4d/output_0_split -> inception_4d/output_inception_4d/output_0_split_3
I0403 18:52:00.751780 17918 net.cpp:399] inception_4d/output_inception_4d/output_0_split -> inception_4d/output_inception_4d/output_0_split_4
I0403 18:52:00.751878 17918 net.cpp:141] Setting up inception_4d/output_inception_4d/output_0_split
I0403 18:52:00.751911 17918 net.cpp:148] Top shape: 24 528 14 14 (2483712)
I0403 18:52:00.751929 17918 net.cpp:148] Top shape: 24 528 14 14 (2483712)
I0403 18:52:00.751943 17918 net.cpp:148] Top shape: 24 528 14 14 (2483712)
I0403 18:52:00.751958 17918 net.cpp:148] Top shape: 24 528 14 14 (2483712)
I0403 18:52:00.751973 17918 net.cpp:148] Top shape: 24 528 14 14 (2483712)
I0403 18:52:00.752004 17918 net.cpp:156] Memory required for data: 1206918432
I0403 18:52:00.752022 17918 layer_factory.hpp:77] Creating layer loss2/ave_pool
I0403 18:52:00.752050 17918 net.cpp:91] Creating Layer loss2/ave_pool
I0403 18:52:00.752068 17918 net.cpp:425] loss2/ave_pool <- inception_4d/output_inception_4d/output_0_split_0
I0403 18:52:00.752086 17918 net.cpp:399] loss2/ave_pool -> loss2/ave_pool
I0403 18:52:00.752399 17918 net.cpp:141] Setting up loss2/ave_pool
I0403 18:52:00.752425 17918 net.cpp:148] Top shape: 24 528 4 4 (202752)
I0403 18:52:00.752444 17918 net.cpp:156] Memory required for data: 1207729440
I0403 18:52:00.752460 17918 layer_factory.hpp:77] Creating layer loss2/conv
I0403 18:52:00.752480 17918 net.cpp:91] Creating Layer loss2/conv
I0403 18:52:00.752496 17918 net.cpp:425] loss2/conv <- loss2/ave_pool
I0403 18:52:00.752516 17918 net.cpp:399] loss2/conv -> loss2/conv
I0403 18:52:00.754421 17918 net.cpp:141] Setting up loss2/conv
I0403 18:52:00.754451 17918 net.cpp:148] Top shape: 24 128 4 4 (49152)
I0403 18:52:00.754467 17918 net.cpp:156] Memory required for data: 1207926048
I0403 18:52:00.754487 17918 layer_factory.hpp:77] Creating layer loss2/relu_conv
I0403 18:52:00.754504 17918 net.cpp:91] Creating Layer loss2/relu_conv
I0403 18:52:00.754520 17918 net.cpp:425] loss2/relu_conv <- loss2/conv
I0403 18:52:00.754540 17918 net.cpp:386] loss2/relu_conv -> loss2/conv (in-place)
I0403 18:52:00.754827 17918 net.cpp:141] Setting up loss2/relu_conv
I0403 18:52:00.754855 17918 net.cpp:148] Top shape: 24 128 4 4 (49152)
I0403 18:52:00.754871 17918 net.cpp:156] Memory required for data: 1208122656
I0403 18:52:00.754886 17918 layer_factory.hpp:77] Creating layer loss2/fc
I0403 18:52:00.754905 17918 net.cpp:91] Creating Layer loss2/fc
I0403 18:52:00.754921 17918 net.cpp:425] loss2/fc <- loss2/conv
I0403 18:52:00.754943 17918 net.cpp:399] loss2/fc -> loss2/fc
I0403 18:52:00.772482 17918 net.cpp:141] Setting up loss2/fc
I0403 18:52:00.772516 17918 net.cpp:148] Top shape: 24 1024 (24576)
I0403 18:52:00.772531 17918 net.cpp:156] Memory required for data: 1208220960
I0403 18:52:00.772548 17918 layer_factory.hpp:77] Creating layer loss2/relu_fc
I0403 18:52:00.772568 17918 net.cpp:91] Creating Layer loss2/relu_fc
I0403 18:52:00.772585 17918 net.cpp:425] loss2/relu_fc <- loss2/fc
I0403 18:52:00.772603 17918 net.cpp:386] loss2/relu_fc -> loss2/fc (in-place)
I0403 18:52:00.772897 17918 net.cpp:141] Setting up loss2/relu_fc
I0403 18:52:00.772922 17918 net.cpp:148] Top shape: 24 1024 (24576)
I0403 18:52:00.772936 17918 net.cpp:156] Memory required for data: 1208319264
I0403 18:52:00.772950 17918 layer_factory.hpp:77] Creating layer loss2/drop_fc
I0403 18:52:00.772970 17918 net.cpp:91] Creating Layer loss2/drop_fc
I0403 18:52:00.772990 17918 net.cpp:425] loss2/drop_fc <- loss2/fc
I0403 18:52:00.773008 17918 net.cpp:386] loss2/drop_fc -> loss2/fc (in-place)
I0403 18:52:00.773057 17918 net.cpp:141] Setting up loss2/drop_fc
I0403 18:52:00.773079 17918 net.cpp:148] Top shape: 24 1024 (24576)
I0403 18:52:00.773093 17918 net.cpp:156] Memory required for data: 1208417568
I0403 18:52:00.773108 17918 layer_factory.hpp:77] Creating layer loss2/classifier_plantvillage
I0403 18:52:00.773128 17918 net.cpp:91] Creating Layer loss2/classifier_plantvillage
I0403 18:52:00.773144 17918 net.cpp:425] loss2/classifier_plantvillage <- loss2/fc
I0403 18:52:00.773162 17918 net.cpp:399] loss2/classifier_plantvillage -> loss2/classifier_plantvillage
I0403 18:52:00.773557 17918 net.cpp:141] Setting up loss2/classifier_plantvillage
I0403 18:52:00.773581 17918 net.cpp:148] Top shape: 24 38 (912)
I0403 18:52:00.773613 17918 net.cpp:156] Memory required for data: 1208421216
I0403 18:52:00.773633 17918 layer_factory.hpp:77] Creating layer loss2/classifier_plantvillage_loss2/classifier_plantvillage_0_split
I0403 18:52:00.773649 17918 net.cpp:91] Creating Layer loss2/classifier_plantvillage_loss2/classifier_plantvillage_0_split
I0403 18:52:00.773665 17918 net.cpp:425] loss2/classifier_plantvillage_loss2/classifier_plantvillage_0_split <- loss2/classifier_plantvillage
I0403 18:52:00.773684 17918 net.cpp:399] loss2/classifier_plantvillage_loss2/classifier_plantvillage_0_split -> loss2/classifier_plantvillage_loss2/classifier_plantvillage_0_split_0
I0403 18:52:00.773705 17918 net.cpp:399] loss2/classifier_plantvillage_loss2/classifier_plantvillage_0_split -> loss2/classifier_plantvillage_loss2/classifier_plantvillage_0_split_1
I0403 18:52:00.773725 17918 net.cpp:399] loss2/classifier_plantvillage_loss2/classifier_plantvillage_0_split -> loss2/classifier_plantvillage_loss2/classifier_plantvillage_0_split_2
I0403 18:52:00.773799 17918 net.cpp:141] Setting up loss2/classifier_plantvillage_loss2/classifier_plantvillage_0_split
I0403 18:52:00.773824 17918 net.cpp:148] Top shape: 24 38 (912)
I0403 18:52:00.773840 17918 net.cpp:148] Top shape: 24 38 (912)
I0403 18:52:00.773855 17918 net.cpp:148] Top shape: 24 38 (912)
I0403 18:52:00.773869 17918 net.cpp:156] Memory required for data: 1208432160
I0403 18:52:00.773883 17918 layer_factory.hpp:77] Creating layer inception_4e/1x1
I0403 18:52:00.773902 17918 net.cpp:91] Creating Layer inception_4e/1x1
I0403 18:52:00.773918 17918 net.cpp:425] inception_4e/1x1 <- inception_4d/output_inception_4d/output_0_split_1
I0403 18:52:00.773936 17918 net.cpp:399] inception_4e/1x1 -> inception_4e/1x1
I0403 18:52:00.775715 17918 net.cpp:141] Setting up inception_4e/1x1
I0403 18:52:00.775743 17918 net.cpp:148] Top shape: 24 256 14 14 (1204224)
I0403 18:52:00.775758 17918 net.cpp:156] Memory required for data: 1213249056
I0403 18:52:00.775775 17918 layer_factory.hpp:77] Creating layer inception_4e/relu_1x1
I0403 18:52:00.775792 17918 net.cpp:91] Creating Layer inception_4e/relu_1x1
I0403 18:52:00.775809 17918 net.cpp:425] inception_4e/relu_1x1 <- inception_4e/1x1
I0403 18:52:00.775827 17918 net.cpp:386] inception_4e/relu_1x1 -> inception_4e/1x1 (in-place)
I0403 18:52:00.776129 17918 net.cpp:141] Setting up inception_4e/relu_1x1
I0403 18:52:00.776155 17918 net.cpp:148] Top shape: 24 256 14 14 (1204224)
I0403 18:52:00.776170 17918 net.cpp:156] Memory required for data: 1218065952
I0403 18:52:00.776185 17918 layer_factory.hpp:77] Creating layer inception_4e/3x3_reduce
I0403 18:52:00.776206 17918 net.cpp:91] Creating Layer inception_4e/3x3_reduce
I0403 18:52:00.776222 17918 net.cpp:425] inception_4e/3x3_reduce <- inception_4d/output_inception_4d/output_0_split_2
I0403 18:52:00.776243 17918 net.cpp:399] inception_4e/3x3_reduce -> inception_4e/3x3_reduce
I0403 18:52:00.778350 17918 net.cpp:141] Setting up inception_4e/3x3_reduce
I0403 18:52:00.778380 17918 net.cpp:148] Top shape: 24 160 14 14 (752640)
I0403 18:52:00.778396 17918 net.cpp:156] Memory required for data: 1221076512
I0403 18:52:00.778414 17918 layer_factory.hpp:77] Creating layer inception_4e/relu_3x3_reduce
I0403 18:52:00.778431 17918 net.cpp:91] Creating Layer inception_4e/relu_3x3_reduce
I0403 18:52:00.778446 17918 net.cpp:425] inception_4e/relu_3x3_reduce <- inception_4e/3x3_reduce
I0403 18:52:00.778465 17918 net.cpp:386] inception_4e/relu_3x3_reduce -> inception_4e/3x3_reduce (in-place)
I0403 18:52:00.778646 17918 net.cpp:141] Setting up inception_4e/relu_3x3_reduce
I0403 18:52:00.778671 17918 net.cpp:148] Top shape: 24 160 14 14 (752640)
I0403 18:52:00.778686 17918 net.cpp:156] Memory required for data: 1224087072
I0403 18:52:00.778699 17918 layer_factory.hpp:77] Creating layer inception_4e/3x3
I0403 18:52:00.778720 17918 net.cpp:91] Creating Layer inception_4e/3x3
I0403 18:52:00.778738 17918 net.cpp:425] inception_4e/3x3 <- inception_4e/3x3_reduce
I0403 18:52:00.778759 17918 net.cpp:399] inception_4e/3x3 -> inception_4e/3x3
I0403 18:52:00.783687 17918 net.cpp:141] Setting up inception_4e/3x3
I0403 18:52:00.783727 17918 net.cpp:148] Top shape: 24 320 14 14 (1505280)
I0403 18:52:00.783743 17918 net.cpp:156] Memory required for data: 1230108192
I0403 18:52:00.783761 17918 layer_factory.hpp:77] Creating layer inception_4e/relu_3x3
I0403 18:52:00.783782 17918 net.cpp:91] Creating Layer inception_4e/relu_3x3
I0403 18:52:00.783798 17918 net.cpp:425] inception_4e/relu_3x3 <- inception_4e/3x3
I0403 18:52:00.783815 17918 net.cpp:386] inception_4e/relu_3x3 -> inception_4e/3x3 (in-place)
I0403 18:52:00.784114 17918 net.cpp:141] Setting up inception_4e/relu_3x3
I0403 18:52:00.784140 17918 net.cpp:148] Top shape: 24 320 14 14 (1505280)
I0403 18:52:00.784154 17918 net.cpp:156] Memory required for data: 1236129312
I0403 18:52:00.784169 17918 layer_factory.hpp:77] Creating layer inception_4e/5x5_reduce
I0403 18:52:00.784193 17918 net.cpp:91] Creating Layer inception_4e/5x5_reduce
I0403 18:52:00.784212 17918 net.cpp:425] inception_4e/5x5_reduce <- inception_4d/output_inception_4d/output_0_split_3
I0403 18:52:00.784235 17918 net.cpp:399] inception_4e/5x5_reduce -> inception_4e/5x5_reduce
I0403 18:52:00.785290 17918 net.cpp:141] Setting up inception_4e/5x5_reduce
I0403 18:52:00.785316 17918 net.cpp:148] Top shape: 24 32 14 14 (150528)
I0403 18:52:00.785331 17918 net.cpp:156] Memory required for data: 1236731424
I0403 18:52:00.785348 17918 layer_factory.hpp:77] Creating layer inception_4e/relu_5x5_reduce
I0403 18:52:00.785367 17918 net.cpp:91] Creating Layer inception_4e/relu_5x5_reduce
I0403 18:52:00.785382 17918 net.cpp:425] inception_4e/relu_5x5_reduce <- inception_4e/5x5_reduce
I0403 18:52:00.785401 17918 net.cpp:386] inception_4e/relu_5x5_reduce -> inception_4e/5x5_reduce (in-place)
I0403 18:52:00.785691 17918 net.cpp:141] Setting up inception_4e/relu_5x5_reduce
I0403 18:52:00.785715 17918 net.cpp:148] Top shape: 24 32 14 14 (150528)
I0403 18:52:00.785730 17918 net.cpp:156] Memory required for data: 1237333536
I0403 18:52:00.785745 17918 layer_factory.hpp:77] Creating layer inception_4e/5x5
I0403 18:52:00.785781 17918 net.cpp:91] Creating Layer inception_4e/5x5
I0403 18:52:00.785799 17918 net.cpp:425] inception_4e/5x5 <- inception_4e/5x5_reduce
I0403 18:52:00.785818 17918 net.cpp:399] inception_4e/5x5 -> inception_4e/5x5
I0403 18:52:00.787631 17918 net.cpp:141] Setting up inception_4e/5x5
I0403 18:52:00.787659 17918 net.cpp:148] Top shape: 24 128 14 14 (602112)
I0403 18:52:00.787675 17918 net.cpp:156] Memory required for data: 1239741984
I0403 18:52:00.787694 17918 layer_factory.hpp:77] Creating layer inception_4e/relu_5x5
I0403 18:52:00.787711 17918 net.cpp:91] Creating Layer inception_4e/relu_5x5
I0403 18:52:00.787726 17918 net.cpp:425] inception_4e/relu_5x5 <- inception_4e/5x5
I0403 18:52:00.787742 17918 net.cpp:386] inception_4e/relu_5x5 -> inception_4e/5x5 (in-place)
I0403 18:52:00.787936 17918 net.cpp:141] Setting up inception_4e/relu_5x5
I0403 18:52:00.787961 17918 net.cpp:148] Top shape: 24 128 14 14 (602112)
I0403 18:52:00.787974 17918 net.cpp:156] Memory required for data: 1242150432
I0403 18:52:00.787994 17918 layer_factory.hpp:77] Creating layer inception_4e/pool
I0403 18:52:00.788012 17918 net.cpp:91] Creating Layer inception_4e/pool
I0403 18:52:00.788028 17918 net.cpp:425] inception_4e/pool <- inception_4d/output_inception_4d/output_0_split_4
I0403 18:52:00.788048 17918 net.cpp:399] inception_4e/pool -> inception_4e/pool
I0403 18:52:00.788117 17918 net.cpp:141] Setting up inception_4e/pool
I0403 18:52:00.788142 17918 net.cpp:148] Top shape: 24 528 14 14 (2483712)
I0403 18:52:00.788157 17918 net.cpp:156] Memory required for data: 1252085280
I0403 18:52:00.788172 17918 layer_factory.hpp:77] Creating layer inception_4e/pool_proj
I0403 18:52:00.788192 17918 net.cpp:91] Creating Layer inception_4e/pool_proj
I0403 18:52:00.788209 17918 net.cpp:425] inception_4e/pool_proj <- inception_4e/pool
I0403 18:52:00.788228 17918 net.cpp:399] inception_4e/pool_proj -> inception_4e/pool_proj
I0403 18:52:00.789710 17918 net.cpp:141] Setting up inception_4e/pool_proj
I0403 18:52:00.789748 17918 net.cpp:148] Top shape: 24 128 14 14 (602112)
I0403 18:52:00.789767 17918 net.cpp:156] Memory required for data: 1254493728
I0403 18:52:00.789785 17918 layer_factory.hpp:77] Creating layer inception_4e/relu_pool_proj
I0403 18:52:00.789803 17918 net.cpp:91] Creating Layer inception_4e/relu_pool_proj
I0403 18:52:00.789819 17918 net.cpp:425] inception_4e/relu_pool_proj <- inception_4e/pool_proj
I0403 18:52:00.789835 17918 net.cpp:386] inception_4e/relu_pool_proj -> inception_4e/pool_proj (in-place)
I0403 18:52:00.790135 17918 net.cpp:141] Setting up inception_4e/relu_pool_proj
I0403 18:52:00.790160 17918 net.cpp:148] Top shape: 24 128 14 14 (602112)
I0403 18:52:00.790179 17918 net.cpp:156] Memory required for data: 1256902176
I0403 18:52:00.790192 17918 layer_factory.hpp:77] Creating layer inception_4e/output
I0403 18:52:00.790211 17918 net.cpp:91] Creating Layer inception_4e/output
I0403 18:52:00.790226 17918 net.cpp:425] inception_4e/output <- inception_4e/1x1
I0403 18:52:00.790242 17918 net.cpp:425] inception_4e/output <- inception_4e/3x3
I0403 18:52:00.790258 17918 net.cpp:425] inception_4e/output <- inception_4e/5x5
I0403 18:52:00.790273 17918 net.cpp:425] inception_4e/output <- inception_4e/pool_proj
I0403 18:52:00.790289 17918 net.cpp:399] inception_4e/output -> inception_4e/output
I0403 18:52:00.790339 17918 net.cpp:141] Setting up inception_4e/output
I0403 18:52:00.790362 17918 net.cpp:148] Top shape: 24 832 14 14 (3913728)
I0403 18:52:00.790376 17918 net.cpp:156] Memory required for data: 1272557088
I0403 18:52:00.790390 17918 layer_factory.hpp:77] Creating layer pool4/3x3_s2
I0403 18:52:00.790411 17918 net.cpp:91] Creating Layer pool4/3x3_s2
I0403 18:52:00.790428 17918 net.cpp:425] pool4/3x3_s2 <- inception_4e/output
I0403 18:52:00.790446 17918 net.cpp:399] pool4/3x3_s2 -> pool4/3x3_s2
I0403 18:52:00.790513 17918 net.cpp:141] Setting up pool4/3x3_s2
I0403 18:52:00.790535 17918 net.cpp:148] Top shape: 24 832 7 7 (978432)
I0403 18:52:00.790549 17918 net.cpp:156] Memory required for data: 1276470816
I0403 18:52:00.790565 17918 layer_factory.hpp:77] Creating layer pool4/3x3_s2_pool4/3x3_s2_0_split
I0403 18:52:00.790580 17918 net.cpp:91] Creating Layer pool4/3x3_s2_pool4/3x3_s2_0_split
I0403 18:52:00.790596 17918 net.cpp:425] pool4/3x3_s2_pool4/3x3_s2_0_split <- pool4/3x3_s2
I0403 18:52:00.790614 17918 net.cpp:399] pool4/3x3_s2_pool4/3x3_s2_0_split -> pool4/3x3_s2_pool4/3x3_s2_0_split_0
I0403 18:52:00.790634 17918 net.cpp:399] pool4/3x3_s2_pool4/3x3_s2_0_split -> pool4/3x3_s2_pool4/3x3_s2_0_split_1
I0403 18:52:00.790654 17918 net.cpp:399] pool4/3x3_s2_pool4/3x3_s2_0_split -> pool4/3x3_s2_pool4/3x3_s2_0_split_2
I0403 18:52:00.790674 17918 net.cpp:399] pool4/3x3_s2_pool4/3x3_s2_0_split -> pool4/3x3_s2_pool4/3x3_s2_0_split_3
I0403 18:52:00.790762 17918 net.cpp:141] Setting up pool4/3x3_s2_pool4/3x3_s2_0_split
I0403 18:52:00.790784 17918 net.cpp:148] Top shape: 24 832 7 7 (978432)
I0403 18:52:00.790801 17918 net.cpp:148] Top shape: 24 832 7 7 (978432)
I0403 18:52:00.790815 17918 net.cpp:148] Top shape: 24 832 7 7 (978432)
I0403 18:52:00.790832 17918 net.cpp:148] Top shape: 24 832 7 7 (978432)
I0403 18:52:00.790844 17918 net.cpp:156] Memory required for data: 1292125728
I0403 18:52:00.790858 17918 layer_factory.hpp:77] Creating layer inception_5a/1x1
I0403 18:52:00.790881 17918 net.cpp:91] Creating Layer inception_5a/1x1
I0403 18:52:00.790899 17918 net.cpp:425] inception_5a/1x1 <- pool4/3x3_s2_pool4/3x3_s2_0_split_0
I0403 18:52:00.790916 17918 net.cpp:399] inception_5a/1x1 -> inception_5a/1x1
I0403 18:52:00.793711 17918 net.cpp:141] Setting up inception_5a/1x1
I0403 18:52:00.793742 17918 net.cpp:148] Top shape: 24 256 7 7 (301056)
I0403 18:52:00.793758 17918 net.cpp:156] Memory required for data: 1293329952
I0403 18:52:00.793776 17918 layer_factory.hpp:77] Creating layer inception_5a/relu_1x1
I0403 18:52:00.793793 17918 net.cpp:91] Creating Layer inception_5a/relu_1x1
I0403 18:52:00.793808 17918 net.cpp:425] inception_5a/relu_1x1 <- inception_5a/1x1
I0403 18:52:00.793828 17918 net.cpp:386] inception_5a/relu_1x1 -> inception_5a/1x1 (in-place)
I0403 18:52:00.794136 17918 net.cpp:141] Setting up inception_5a/relu_1x1
I0403 18:52:00.794163 17918 net.cpp:148] Top shape: 24 256 7 7 (301056)
I0403 18:52:00.794178 17918 net.cpp:156] Memory required for data: 1294534176
I0403 18:52:00.794193 17918 layer_factory.hpp:77] Creating layer inception_5a/3x3_reduce
I0403 18:52:00.794215 17918 net.cpp:91] Creating Layer inception_5a/3x3_reduce
I0403 18:52:00.794234 17918 net.cpp:425] inception_5a/3x3_reduce <- pool4/3x3_s2_pool4/3x3_s2_0_split_1
I0403 18:52:00.794251 17918 net.cpp:399] inception_5a/3x3_reduce -> inception_5a/3x3_reduce
I0403 18:52:00.796654 17918 net.cpp:141] Setting up inception_5a/3x3_reduce
I0403 18:52:00.796682 17918 net.cpp:148] Top shape: 24 160 7 7 (188160)
I0403 18:52:00.796699 17918 net.cpp:156] Memory required for data: 1295286816
I0403 18:52:00.796716 17918 layer_factory.hpp:77] Creating layer inception_5a/relu_3x3_reduce
I0403 18:52:00.796736 17918 net.cpp:91] Creating Layer inception_5a/relu_3x3_reduce
I0403 18:52:00.796752 17918 net.cpp:425] inception_5a/relu_3x3_reduce <- inception_5a/3x3_reduce
I0403 18:52:00.796769 17918 net.cpp:386] inception_5a/relu_3x3_reduce -> inception_5a/3x3_reduce (in-place)
I0403 18:52:00.796954 17918 net.cpp:141] Setting up inception_5a/relu_3x3_reduce
I0403 18:52:00.796984 17918 net.cpp:148] Top shape: 24 160 7 7 (188160)
I0403 18:52:00.797000 17918 net.cpp:156] Memory required for data: 1296039456
I0403 18:52:00.797014 17918 layer_factory.hpp:77] Creating layer inception_5a/3x3
I0403 18:52:00.797036 17918 net.cpp:91] Creating Layer inception_5a/3x3
I0403 18:52:00.797055 17918 net.cpp:425] inception_5a/3x3 <- inception_5a/3x3_reduce
I0403 18:52:00.797072 17918 net.cpp:399] inception_5a/3x3 -> inception_5a/3x3
I0403 18:52:00.801976 17918 net.cpp:141] Setting up inception_5a/3x3
I0403 18:52:00.802011 17918 net.cpp:148] Top shape: 24 320 7 7 (376320)
I0403 18:52:00.802027 17918 net.cpp:156] Memory required for data: 1297544736
I0403 18:52:00.802045 17918 layer_factory.hpp:77] Creating layer inception_5a/relu_3x3
I0403 18:52:00.802062 17918 net.cpp:91] Creating Layer inception_5a/relu_3x3
I0403 18:52:00.802078 17918 net.cpp:425] inception_5a/relu_3x3 <- inception_5a/3x3
I0403 18:52:00.802094 17918 net.cpp:386] inception_5a/relu_3x3 -> inception_5a/3x3 (in-place)
I0403 18:52:00.802383 17918 net.cpp:141] Setting up inception_5a/relu_3x3
I0403 18:52:00.802412 17918 net.cpp:148] Top shape: 24 320 7 7 (376320)
I0403 18:52:00.802426 17918 net.cpp:156] Memory required for data: 1299050016
I0403 18:52:00.802441 17918 layer_factory.hpp:77] Creating layer inception_5a/5x5_reduce
I0403 18:52:00.802464 17918 net.cpp:91] Creating Layer inception_5a/5x5_reduce
I0403 18:52:00.802480 17918 net.cpp:425] inception_5a/5x5_reduce <- pool4/3x3_s2_pool4/3x3_s2_0_split_2
I0403 18:52:00.802500 17918 net.cpp:399] inception_5a/5x5_reduce -> inception_5a/5x5_reduce
I0403 18:52:00.803658 17918 net.cpp:141] Setting up inception_5a/5x5_reduce
I0403 18:52:00.803689 17918 net.cpp:148] Top shape: 24 32 7 7 (37632)
I0403 18:52:00.803704 17918 net.cpp:156] Memory required for data: 1299200544
I0403 18:52:00.803722 17918 layer_factory.hpp:77] Creating layer inception_5a/relu_5x5_reduce
I0403 18:52:00.803740 17918 net.cpp:91] Creating Layer inception_5a/relu_5x5_reduce
I0403 18:52:00.803756 17918 net.cpp:425] inception_5a/relu_5x5_reduce <- inception_5a/5x5_reduce
I0403 18:52:00.803776 17918 net.cpp:386] inception_5a/relu_5x5_reduce -> inception_5a/5x5_reduce (in-place)
I0403 18:52:00.804077 17918 net.cpp:141] Setting up inception_5a/relu_5x5_reduce
I0403 18:52:00.804103 17918 net.cpp:148] Top shape: 24 32 7 7 (37632)
I0403 18:52:00.804117 17918 net.cpp:156] Memory required for data: 1299351072
I0403 18:52:00.804132 17918 layer_factory.hpp:77] Creating layer inception_5a/5x5
I0403 18:52:00.804153 17918 net.cpp:91] Creating Layer inception_5a/5x5
I0403 18:52:00.804170 17918 net.cpp:425] inception_5a/5x5 <- inception_5a/5x5_reduce
I0403 18:52:00.804191 17918 net.cpp:399] inception_5a/5x5 -> inception_5a/5x5
I0403 18:52:00.805884 17918 net.cpp:141] Setting up inception_5a/5x5
I0403 18:52:00.805924 17918 net.cpp:148] Top shape: 24 128 7 7 (150528)
I0403 18:52:00.805941 17918 net.cpp:156] Memory required for data: 1299953184
I0403 18:52:00.805958 17918 layer_factory.hpp:77] Creating layer inception_5a/relu_5x5
I0403 18:52:00.805976 17918 net.cpp:91] Creating Layer inception_5a/relu_5x5
I0403 18:52:00.805996 17918 net.cpp:425] inception_5a/relu_5x5 <- inception_5a/5x5
I0403 18:52:00.806012 17918 net.cpp:386] inception_5a/relu_5x5 -> inception_5a/5x5 (in-place)
I0403 18:52:00.806205 17918 net.cpp:141] Setting up inception_5a/relu_5x5
I0403 18:52:00.806229 17918 net.cpp:148] Top shape: 24 128 7 7 (150528)
I0403 18:52:00.806243 17918 net.cpp:156] Memory required for data: 1300555296
I0403 18:52:00.806257 17918 layer_factory.hpp:77] Creating layer inception_5a/pool
I0403 18:52:00.806274 17918 net.cpp:91] Creating Layer inception_5a/pool
I0403 18:52:00.806290 17918 net.cpp:425] inception_5a/pool <- pool4/3x3_s2_pool4/3x3_s2_0_split_3
I0403 18:52:00.806310 17918 net.cpp:399] inception_5a/pool -> inception_5a/pool
I0403 18:52:00.806380 17918 net.cpp:141] Setting up inception_5a/pool
I0403 18:52:00.806404 17918 net.cpp:148] Top shape: 24 832 7 7 (978432)
I0403 18:52:00.806419 17918 net.cpp:156] Memory required for data: 1304469024
I0403 18:52:00.806432 17918 layer_factory.hpp:77] Creating layer inception_5a/pool_proj
I0403 18:52:00.806454 17918 net.cpp:91] Creating Layer inception_5a/pool_proj
I0403 18:52:00.806471 17918 net.cpp:425] inception_5a/pool_proj <- inception_5a/pool
I0403 18:52:00.806489 17918 net.cpp:399] inception_5a/pool_proj -> inception_5a/pool_proj
I0403 18:52:00.808722 17918 net.cpp:141] Setting up inception_5a/pool_proj
I0403 18:52:00.808750 17918 net.cpp:148] Top shape: 24 128 7 7 (150528)
I0403 18:52:00.808766 17918 net.cpp:156] Memory required for data: 1305071136
I0403 18:52:00.808784 17918 layer_factory.hpp:77] Creating layer inception_5a/relu_pool_proj
I0403 18:52:00.808805 17918 net.cpp:91] Creating Layer inception_5a/relu_pool_proj
I0403 18:52:00.808822 17918 net.cpp:425] inception_5a/relu_pool_proj <- inception_5a/pool_proj
I0403 18:52:00.808840 17918 net.cpp:386] inception_5a/relu_pool_proj -> inception_5a/pool_proj (in-place)
I0403 18:52:00.809144 17918 net.cpp:141] Setting up inception_5a/relu_pool_proj
I0403 18:52:00.809170 17918 net.cpp:148] Top shape: 24 128 7 7 (150528)
I0403 18:52:00.809185 17918 net.cpp:156] Memory required for data: 1305673248
I0403 18:52:00.809201 17918 layer_factory.hpp:77] Creating layer inception_5a/output
I0403 18:52:00.809221 17918 net.cpp:91] Creating Layer inception_5a/output
I0403 18:52:00.809237 17918 net.cpp:425] inception_5a/output <- inception_5a/1x1
I0403 18:52:00.809254 17918 net.cpp:425] inception_5a/output <- inception_5a/3x3
I0403 18:52:00.809269 17918 net.cpp:425] inception_5a/output <- inception_5a/5x5
I0403 18:52:00.809284 17918 net.cpp:425] inception_5a/output <- inception_5a/pool_proj
I0403 18:52:00.809300 17918 net.cpp:399] inception_5a/output -> inception_5a/output
I0403 18:52:00.809351 17918 net.cpp:141] Setting up inception_5a/output
I0403 18:52:00.809375 17918 net.cpp:148] Top shape: 24 832 7 7 (978432)
I0403 18:52:00.809388 17918 net.cpp:156] Memory required for data: 1309586976
I0403 18:52:00.809402 17918 layer_factory.hpp:77] Creating layer inception_5a/output_inception_5a/output_0_split
I0403 18:52:00.809418 17918 net.cpp:91] Creating Layer inception_5a/output_inception_5a/output_0_split
I0403 18:52:00.809433 17918 net.cpp:425] inception_5a/output_inception_5a/output_0_split <- inception_5a/output
I0403 18:52:00.809453 17918 net.cpp:399] inception_5a/output_inception_5a/output_0_split -> inception_5a/output_inception_5a/output_0_split_0
I0403 18:52:00.809473 17918 net.cpp:399] inception_5a/output_inception_5a/output_0_split -> inception_5a/output_inception_5a/output_0_split_1
I0403 18:52:00.809494 17918 net.cpp:399] inception_5a/output_inception_5a/output_0_split -> inception_5a/output_inception_5a/output_0_split_2
I0403 18:52:00.809512 17918 net.cpp:399] inception_5a/output_inception_5a/output_0_split -> inception_5a/output_inception_5a/output_0_split_3
I0403 18:52:00.809623 17918 net.cpp:141] Setting up inception_5a/output_inception_5a/output_0_split
I0403 18:52:00.809648 17918 net.cpp:148] Top shape: 24 832 7 7 (978432)
I0403 18:52:00.809664 17918 net.cpp:148] Top shape: 24 832 7 7 (978432)
I0403 18:52:00.809679 17918 net.cpp:148] Top shape: 24 832 7 7 (978432)
I0403 18:52:00.809695 17918 net.cpp:148] Top shape: 24 832 7 7 (978432)
I0403 18:52:00.809707 17918 net.cpp:156] Memory required for data: 1325241888
I0403 18:52:00.809721 17918 layer_factory.hpp:77] Creating layer inception_5b/1x1
I0403 18:52:00.809743 17918 net.cpp:91] Creating Layer inception_5b/1x1
I0403 18:52:00.809761 17918 net.cpp:425] inception_5b/1x1 <- inception_5a/output_inception_5a/output_0_split_0
I0403 18:52:00.809780 17918 net.cpp:399] inception_5b/1x1 -> inception_5b/1x1
I0403 18:52:00.813627 17918 net.cpp:141] Setting up inception_5b/1x1
I0403 18:52:00.813657 17918 net.cpp:148] Top shape: 24 384 7 7 (451584)
I0403 18:52:00.813673 17918 net.cpp:156] Memory required for data: 1327048224
I0403 18:52:00.813691 17918 layer_factory.hpp:77] Creating layer inception_5b/relu_1x1
I0403 18:52:00.813711 17918 net.cpp:91] Creating Layer inception_5b/relu_1x1
I0403 18:52:00.813729 17918 net.cpp:425] inception_5b/relu_1x1 <- inception_5b/1x1
I0403 18:52:00.813745 17918 net.cpp:386] inception_5b/relu_1x1 -> inception_5b/1x1 (in-place)
I0403 18:52:00.814074 17918 net.cpp:141] Setting up inception_5b/relu_1x1
I0403 18:52:00.814100 17918 net.cpp:148] Top shape: 24 384 7 7 (451584)
I0403 18:52:00.814116 17918 net.cpp:156] Memory required for data: 1328854560
I0403 18:52:00.814131 17918 layer_factory.hpp:77] Creating layer inception_5b/3x3_reduce
I0403 18:52:00.814153 17918 net.cpp:91] Creating Layer inception_5b/3x3_reduce
I0403 18:52:00.814172 17918 net.cpp:425] inception_5b/3x3_reduce <- inception_5a/output_inception_5a/output_0_split_1
I0403 18:52:00.814198 17918 net.cpp:399] inception_5b/3x3_reduce -> inception_5b/3x3_reduce
I0403 18:52:00.816886 17918 net.cpp:141] Setting up inception_5b/3x3_reduce
I0403 18:52:00.816916 17918 net.cpp:148] Top shape: 24 192 7 7 (225792)
I0403 18:52:00.816932 17918 net.cpp:156] Memory required for data: 1329757728
I0403 18:52:00.816951 17918 layer_factory.hpp:77] Creating layer inception_5b/relu_3x3_reduce
I0403 18:52:00.816972 17918 net.cpp:91] Creating Layer inception_5b/relu_3x3_reduce
I0403 18:52:00.816993 17918 net.cpp:425] inception_5b/relu_3x3_reduce <- inception_5b/3x3_reduce
I0403 18:52:00.817013 17918 net.cpp:386] inception_5b/relu_3x3_reduce -> inception_5b/3x3_reduce (in-place)
I0403 18:52:00.817206 17918 net.cpp:141] Setting up inception_5b/relu_3x3_reduce
I0403 18:52:00.817234 17918 net.cpp:148] Top shape: 24 192 7 7 (225792)
I0403 18:52:00.817250 17918 net.cpp:156] Memory required for data: 1330660896
I0403 18:52:00.817265 17918 layer_factory.hpp:77] Creating layer inception_5b/3x3
I0403 18:52:00.817287 17918 net.cpp:91] Creating Layer inception_5b/3x3
I0403 18:52:00.817304 17918 net.cpp:425] inception_5b/3x3 <- inception_5b/3x3_reduce
I0403 18:52:00.817327 17918 net.cpp:399] inception_5b/3x3 -> inception_5b/3x3
I0403 18:52:00.824297 17918 net.cpp:141] Setting up inception_5b/3x3
I0403 18:52:00.824327 17918 net.cpp:148] Top shape: 24 384 7 7 (451584)
I0403 18:52:00.824344 17918 net.cpp:156] Memory required for data: 1332467232
I0403 18:52:00.824363 17918 layer_factory.hpp:77] Creating layer inception_5b/relu_3x3
I0403 18:52:00.824384 17918 net.cpp:91] Creating Layer inception_5b/relu_3x3
I0403 18:52:00.824403 17918 net.cpp:425] inception_5b/relu_3x3 <- inception_5b/3x3
I0403 18:52:00.824419 17918 net.cpp:386] inception_5b/relu_3x3 -> inception_5b/3x3 (in-place)
I0403 18:52:00.824733 17918 net.cpp:141] Setting up inception_5b/relu_3x3
I0403 18:52:00.824760 17918 net.cpp:148] Top shape: 24 384 7 7 (451584)
I0403 18:52:00.824775 17918 net.cpp:156] Memory required for data: 1334273568
I0403 18:52:00.824791 17918 layer_factory.hpp:77] Creating layer inception_5b/5x5_reduce
I0403 18:52:00.824833 17918 net.cpp:91] Creating Layer inception_5b/5x5_reduce
I0403 18:52:00.824852 17918 net.cpp:425] inception_5b/5x5_reduce <- inception_5a/output_inception_5a/output_0_split_2
I0403 18:52:00.824872 17918 net.cpp:399] inception_5b/5x5_reduce -> inception_5b/5x5_reduce
I0403 18:52:00.826211 17918 net.cpp:141] Setting up inception_5b/5x5_reduce
I0403 18:52:00.826241 17918 net.cpp:148] Top shape: 24 48 7 7 (56448)
I0403 18:52:00.826259 17918 net.cpp:156] Memory required for data: 1334499360
I0403 18:52:00.826278 17918 layer_factory.hpp:77] Creating layer inception_5b/relu_5x5_reduce
I0403 18:52:00.826297 17918 net.cpp:91] Creating Layer inception_5b/relu_5x5_reduce
I0403 18:52:00.826313 17918 net.cpp:425] inception_5b/relu_5x5_reduce <- inception_5b/5x5_reduce
I0403 18:52:00.826330 17918 net.cpp:386] inception_5b/relu_5x5_reduce -> inception_5b/5x5_reduce (in-place)
I0403 18:52:00.826721 17918 net.cpp:141] Setting up inception_5b/relu_5x5_reduce
I0403 18:52:00.826748 17918 net.cpp:148] Top shape: 24 48 7 7 (56448)
I0403 18:52:00.826764 17918 net.cpp:156] Memory required for data: 1334725152
I0403 18:52:00.826779 17918 layer_factory.hpp:77] Creating layer inception_5b/5x5
I0403 18:52:00.826799 17918 net.cpp:91] Creating Layer inception_5b/5x5
I0403 18:52:00.826817 17918 net.cpp:425] inception_5b/5x5 <- inception_5b/5x5_reduce
I0403 18:52:00.826836 17918 net.cpp:399] inception_5b/5x5 -> inception_5b/5x5
I0403 18:52:00.828994 17918 net.cpp:141] Setting up inception_5b/5x5
I0403 18:52:00.829022 17918 net.cpp:148] Top shape: 24 128 7 7 (150528)
I0403 18:52:00.829038 17918 net.cpp:156] Memory required for data: 1335327264
I0403 18:52:00.829056 17918 layer_factory.hpp:77] Creating layer inception_5b/relu_5x5
I0403 18:52:00.829073 17918 net.cpp:91] Creating Layer inception_5b/relu_5x5
I0403 18:52:00.829088 17918 net.cpp:425] inception_5b/relu_5x5 <- inception_5b/5x5
I0403 18:52:00.829107 17918 net.cpp:386] inception_5b/relu_5x5 -> inception_5b/5x5 (in-place)
I0403 18:52:00.829299 17918 net.cpp:141] Setting up inception_5b/relu_5x5
I0403 18:52:00.829324 17918 net.cpp:148] Top shape: 24 128 7 7 (150528)
I0403 18:52:00.829337 17918 net.cpp:156] Memory required for data: 1335929376
I0403 18:52:00.829351 17918 layer_factory.hpp:77] Creating layer inception_5b/pool
I0403 18:52:00.829370 17918 net.cpp:91] Creating Layer inception_5b/pool
I0403 18:52:00.829385 17918 net.cpp:425] inception_5b/pool <- inception_5a/output_inception_5a/output_0_split_3
I0403 18:52:00.829406 17918 net.cpp:399] inception_5b/pool -> inception_5b/pool
I0403 18:52:00.829478 17918 net.cpp:141] Setting up inception_5b/pool
I0403 18:52:00.829500 17918 net.cpp:148] Top shape: 24 832 7 7 (978432)
I0403 18:52:00.829514 17918 net.cpp:156] Memory required for data: 1339843104
I0403 18:52:00.829529 17918 layer_factory.hpp:77] Creating layer inception_5b/pool_proj
I0403 18:52:00.829552 17918 net.cpp:91] Creating Layer inception_5b/pool_proj
I0403 18:52:00.829571 17918 net.cpp:425] inception_5b/pool_proj <- inception_5b/pool
I0403 18:52:00.829588 17918 net.cpp:399] inception_5b/pool_proj -> inception_5b/pool_proj
I0403 18:52:00.831848 17918 net.cpp:141] Setting up inception_5b/pool_proj
I0403 18:52:00.831879 17918 net.cpp:148] Top shape: 24 128 7 7 (150528)
I0403 18:52:00.831895 17918 net.cpp:156] Memory required for data: 1340445216
I0403 18:52:00.831913 17918 layer_factory.hpp:77] Creating layer inception_5b/relu_pool_proj
I0403 18:52:00.831944 17918 net.cpp:91] Creating Layer inception_5b/relu_pool_proj
I0403 18:52:00.831960 17918 net.cpp:425] inception_5b/relu_pool_proj <- inception_5b/pool_proj
I0403 18:52:00.831981 17918 net.cpp:386] inception_5b/relu_pool_proj -> inception_5b/pool_proj (in-place)
I0403 18:52:00.832295 17918 net.cpp:141] Setting up inception_5b/relu_pool_proj
I0403 18:52:00.832324 17918 net.cpp:148] Top shape: 24 128 7 7 (150528)
I0403 18:52:00.832340 17918 net.cpp:156] Memory required for data: 1341047328
I0403 18:52:00.832353 17918 layer_factory.hpp:77] Creating layer inception_5b/output
I0403 18:52:00.832370 17918 net.cpp:91] Creating Layer inception_5b/output
I0403 18:52:00.832399 17918 net.cpp:425] inception_5b/output <- inception_5b/1x1
I0403 18:52:00.832417 17918 net.cpp:425] inception_5b/output <- inception_5b/3x3
I0403 18:52:00.832433 17918 net.cpp:425] inception_5b/output <- inception_5b/5x5
I0403 18:52:00.832448 17918 net.cpp:425] inception_5b/output <- inception_5b/pool_proj
I0403 18:52:00.832465 17918 net.cpp:399] inception_5b/output -> inception_5b/output
I0403 18:52:00.832516 17918 net.cpp:141] Setting up inception_5b/output
I0403 18:52:00.832540 17918 net.cpp:148] Top shape: 24 1024 7 7 (1204224)
I0403 18:52:00.832554 17918 net.cpp:156] Memory required for data: 1345864224
I0403 18:52:00.832568 17918 layer_factory.hpp:77] Creating layer pool5/7x7_s1
I0403 18:52:00.832587 17918 net.cpp:91] Creating Layer pool5/7x7_s1
I0403 18:52:00.832603 17918 net.cpp:425] pool5/7x7_s1 <- inception_5b/output
I0403 18:52:00.832622 17918 net.cpp:399] pool5/7x7_s1 -> pool5/7x7_s1
I0403 18:52:00.832833 17918 net.cpp:141] Setting up pool5/7x7_s1
I0403 18:52:00.832860 17918 net.cpp:148] Top shape: 24 1024 1 1 (24576)
I0403 18:52:00.832876 17918 net.cpp:156] Memory required for data: 1345962528
I0403 18:52:00.832890 17918 layer_factory.hpp:77] Creating layer pool5/drop_7x7_s1
I0403 18:52:00.832907 17918 net.cpp:91] Creating Layer pool5/drop_7x7_s1
I0403 18:52:00.832923 17918 net.cpp:425] pool5/drop_7x7_s1 <- pool5/7x7_s1
I0403 18:52:00.832942 17918 net.cpp:386] pool5/drop_7x7_s1 -> pool5/7x7_s1 (in-place)
I0403 18:52:00.832994 17918 net.cpp:141] Setting up pool5/drop_7x7_s1
I0403 18:52:00.833017 17918 net.cpp:148] Top shape: 24 1024 1 1 (24576)
I0403 18:52:00.833031 17918 net.cpp:156] Memory required for data: 1346060832
I0403 18:52:00.833046 17918 layer_factory.hpp:77] Creating layer loss3/classifier_plantvillage
I0403 18:52:00.833066 17918 net.cpp:91] Creating Layer loss3/classifier_plantvillage
I0403 18:52:00.833083 17918 net.cpp:425] loss3/classifier_plantvillage <- pool5/7x7_s1
I0403 18:52:00.833101 17918 net.cpp:399] loss3/classifier_plantvillage -> loss3/classifier_plantvillage
I0403 18:52:00.833519 17918 net.cpp:141] Setting up loss3/classifier_plantvillage
I0403 18:52:00.833544 17918 net.cpp:148] Top shape: 24 38 (912)
I0403 18:52:00.833556 17918 net.cpp:156] Memory required for data: 1346064480
I0403 18:52:00.833575 17918 layer_factory.hpp:77] Creating layer loss3/classifier_plantvillage_loss3/classifier_plantvillage_0_split
I0403 18:52:00.833592 17918 net.cpp:91] Creating Layer loss3/classifier_plantvillage_loss3/classifier_plantvillage_0_split
I0403 18:52:00.833607 17918 net.cpp:425] loss3/classifier_plantvillage_loss3/classifier_plantvillage_0_split <- loss3/classifier_plantvillage
I0403 18:52:00.833627 17918 net.cpp:399] loss3/classifier_plantvillage_loss3/classifier_plantvillage_0_split -> loss3/classifier_plantvillage_loss3/classifier_plantvillage_0_split_0
I0403 18:52:00.833647 17918 net.cpp:399] loss3/classifier_plantvillage_loss3/classifier_plantvillage_0_split -> loss3/classifier_plantvillage_loss3/classifier_plantvillage_0_split_1
I0403 18:52:00.833667 17918 net.cpp:399] loss3/classifier_plantvillage_loss3/classifier_plantvillage_0_split -> loss3/classifier_plantvillage_loss3/classifier_plantvillage_0_split_2
I0403 18:52:00.833686 17918 net.cpp:399] loss3/classifier_plantvillage_loss3/classifier_plantvillage_0_split -> loss3/classifier_plantvillage_loss3/classifier_plantvillage_0_split_3
I0403 18:52:00.833791 17918 net.cpp:141] Setting up loss3/classifier_plantvillage_loss3/classifier_plantvillage_0_split
I0403 18:52:00.833813 17918 net.cpp:148] Top shape: 24 38 (912)
I0403 18:52:00.833828 17918 net.cpp:148] Top shape: 24 38 (912)
I0403 18:52:00.833843 17918 net.cpp:148] Top shape: 24 38 (912)
I0403 18:52:00.833858 17918 net.cpp:148] Top shape: 24 38 (912)
I0403 18:52:00.833871 17918 net.cpp:156] Memory required for data: 1346079072
I0403 18:52:00.833885 17918 layer_factory.hpp:77] Creating layer loss1/loss
I0403 18:52:00.833906 17918 net.cpp:91] Creating Layer loss1/loss
I0403 18:52:00.833923 17918 net.cpp:425] loss1/loss <- loss1/classifier_plantvillage_loss1/classifier_plantvillage_0_split_0
I0403 18:52:00.833956 17918 net.cpp:425] loss1/loss <- label_data_1_split_0
…
