…
I0403 19:00:23.902403 18392 net.cpp:313] The NetState phase (1) differed from the phase (0) specified by a rule in layer data
I0403 19:00:23.903635 18392 net.cpp:49] Initializing net from parameters: 
state {
  phase: TEST
}
layer {
  name: "data"
  type: "Data"
  top: "data"
  top: "label"
  include {
    phase: TEST
  }
  transform_param {
    mirror: false
    crop_size: 224
    mean_file: "/home/mohanty/data/final_dataset/lmdb/segmented-60-40/mean.binaryproto"
  }
  data_param {
    source: "/home/mohanty/data/final_dataset/lmdb/segmented-60-40/test_db"
    batch_size: 24
    backend: LMDB
  }
}
layer {
  name: "conv1/7x7_s2"
  type: "Convolution"
  bottom: "data"
  top: "conv1/7x7_s2"
  param {
    lr_mult: 1
    decay_mult: 1
  }
  param {
    lr_mult: 2
    decay_mult: 0
  }
  convolution_param {
    num_output: 64
    pad: 3
    kernel_size: 7
    stride: 2
    weight_filler {
      type: "xavier"
      std: 0.1
    }
    bias_filler {
      type: "constant"
      value: 0.2
    }
  }
}
layer {
  name: "conv1/relu_7x7"
  type: "ReLU"
  bottom: "conv1/7x7_s2"
  top: "conv1/7x7_s2"
}
layer {
  name: "pool1/3x3_s2"
  type: "Pooling"
  bottom: "conv1/7x7_s2"
  top: "pool1/3x3_s2"
  pooling_param {
    pool: MAX
    kernel_size: 3
    stride: 2
  }
}
layer {
  name: "pool1/norm1"
  type: "LRN"
  bottom: "pool1/3x3_s2"
  top: "pool1/norm1"
  lrn_param {
    local_size: 5
    alpha: 0.0001
    beta: 0.75
  }
}
layer {
  name: "conv2/3x3_reduce"
  type: "Convolution"
  bottom: "pool1/norm1"
  top: "conv2/3x3_reduce"
  param {
    lr_mult: 1
    decay_mult: 1
  }
  param {
    lr_mult: 2
    decay_mult: 0
  }
  convolution_param {
    num_output: 64
    kernel_size: 1
    weight_filler {
      type: "xavier"
      std: 0.1
    }
    bias_filler {
      type: "constant"
      value: 0.2
    }
  }
}
layer {
  name: "conv2/relu_3x3_reduce"
  type: "ReLU"
  bottom: "conv2/3x3_reduce"
  top: "conv2/3x3_reduce"
}
layer {
  name: "conv2/3x3"
  type: "Convolution"
  bottom: "conv2/3x3_reduce"
  top: "conv2/3x3"
  param {
    lr_mult: 1
    decay_mult: 1
  }
  param {
    lr_mult: 2
    decay_mult: 0
  }
  convolution_param {
    num_output: 192
    pad: 1
    kernel_size: 3
    weight_filler {
      type: "xavier"
      std: 0.03
    }
    bias_filler {
      type: "constant"
      value: 0.2
    }
  }
}
layer {
  name: "conv2/relu_3x3"
  type: "ReLU"
  bottom: "conv2/3x3"
  top: "conv2/3x3"
}
layer {
  name: "conv2/norm2"
  type: "LRN"
  bottom: "conv2/3x3"
  top: "conv2/norm2"
  lrn_param {
    local_size: 5
    alpha: 0.0001
    beta: 0.75
  }
}
layer {
  name: "pool2/3x3_s2"
  type: "Pooling"
  bottom: "conv2/norm2"
  top: "pool2/3x3_s2"
  pooling_param {
    pool: MAX
    kernel_size: 3
    stride: 2
  }
}
layer {
  name: "inception_3a/1x1"
  type: "Convolution"
  bottom: "pool2/3x3_s2"
  top: "inception_3a/1x1"
  param {
    lr_mult: 1
    decay_mult: 1
  }
  param {
    lr_mult: 2
    decay_mult: 0
  }
  convolution_param {
    num_output: 64
    kernel_size: 1
    weight_filler {
      type: "xavier"
      std: 0.03
    }
    bias_filler {
      type: "constant"
      value: 0.2
    }
  }
}
layer {
  name: "inception_3a/relu_1x1"
  type: "ReLU"
  bottom: "inception_3a/1x1"
  top: "inception_3a/1x1"
}
layer {
  name: "inception_3a/3x3_reduce"
  type: "Convolution"
  bottom: "pool2/3x3_s2"
  top: "inception_3a/3x3_reduce"
  param {
    lr_mult: 1
    decay_mult: 1
  }
  param {
    lr_mult: 2
    decay_mult: 0
  }
  convolution_param {
    num_output: 96
    kernel_size: 1
    weight_filler {
      type: "xavier"
      std: 0.09
    }
    bias_filler {
      type: "constant"
      value: 0.2
    }
  }
}
layer {
  name: "inception_3a/relu_3x3_reduce"
  type: "ReLU"
  bottom: "inception_3a/3x3_reduce"
  top: "inception_3a/3x3_reduce"
}
layer {
  name: "inception_3a/3x3"
  type: "Convolution"
  bottom: "inception_3a/3x3_reduce"
  top: "inception_3a/3x3"
  param {
    lr_mult: 1
    decay_mult: 1
  }
  param {
    lr_mult: 2
    decay_mult: 0
  }
  convolution_param {
    num_output: 128
    pad: 1
    kernel_size: 3
    weight_filler {
      type: "xavier"
      std: 0.03
    }
    bias_filler {
      type: "constant"
      value: 0.2
    }
  }
}
layer {
  name: "inception_3a/relu_3x3"
  type: "ReLU"
  bottom: "inception_3a/3x3"
  top: "inception_3a/3x3"
}
layer {
  name: "inception_3a/5x5_reduce"
  type: "Convolution"
  bottom: "pool2/3x3_s2"
  top: "inception_3a/5x5_reduce"
  param {
    lr_mult: 1
    decay_mult: 1
  }
  param {
    lr_mult: 2
    decay_mult: 0
  }
  convolution_param {
    num_output: 16
    kernel_size: 1
    weight_filler {
      type: "xavier"
      std: 0.2
    }
    bias_filler {
      type: "constant"
      value: 0.2
    }
  }
}
layer {
  name: "inception_3a/relu_5x5_reduce"
  type: "ReLU"
  bottom: "inception_3a/5x5_reduce"
  top: "inception_3a/5x5_reduce"
}
layer {
  name: "inception_3a/5x5"
  type: "Convolution"
  bottom: "inception_3a/5x5_reduce"
  top: "inception_3a/5x5"
  param {
    lr_mult: 1
    decay_mult: 1
  }
  param {
    lr_mult: 2
    decay_mult: 0
  }
  convolution_param {
    num_output: 32
    pad: 2
    kernel_size: 5
    weight_filler {
      type: "xavier"
      std: 0.03
    }
    bias_filler {
      type: "constant"
      value: 0.2
    }
  }
}
layer {
  name: "inception_3a/relu_5x5"
  type: "ReLU"
  bottom: "inception_3a/5x5"
  top: "inception_3a/5x5"
}
layer {
  name: "inception_3a/pool"
  type: "Pooling"
  bottom: "pool2/3x3_s2"
  top: "inception_3a/pool"
  pooling_param {
    pool: MAX
    kernel_size: 3
    stride: 1
    pad: 1
  }
}
layer {
  name: "inception_3a/pool_proj"
  type: "Convolution"
  bottom: "inception_3a/pool"
  top: "inception_3a/pool_proj"
  param {
    lr_mult: 1
    decay_mult: 1
  }
  param {
    lr_mult: 2
    decay_mult: 0
  }
  convolution_param {
    num_output: 32
    kernel_size: 1
    weight_filler {
      type: "xavier"
      std: 0.1
    }
    bias_filler {
      type: "constant"
      value: 0.2
    }
  }
}
layer {
  name: "inception_3a/relu_pool_proj"
  type: "ReLU"
  bottom: "inception_3a/pool_proj"
  top: "inception_3a/pool_proj"
}
layer {
  name: "inception_3a/output"
  type: "Concat"
  bottom: "inception_3a/1x1"
  bottom: "inception_3a/3x3"
  bottom: "inception_3a/5x5"
  bottom: "inception_3a/pool_proj"
  top: "inception_3a/output"
}
layer {
  name: "inception_3b/1x1"
  type: "Convolution"
  bottom: "inception_3a/output"
  top: "inception_3b/1x1"
  param {
    lr_mult: 1
    decay_mult: 1
  }
  param {
    lr_mult: 2
    decay_mult: 0
  }
  convolution_param {
    num_output: 128
    kernel_size: 1
    weight_filler {
      type: "xavier"
      std: 0.03
    }
    bias_filler {
      type: "constant"
      value: 0.2
    }
  }
}
layer {
  name: "inception_3b/relu_1x1"
  type: "ReLU"
  bottom: "inception_3b/1x1"
  top: "inception_3b/1x1"
}
layer {
  name: "inception_3b/3x3_reduce"
  type: "Convolution"
  bottom: "inception_3a/output"
  top: "inception_3b/3x3_reduce"
  param {
    lr_mult: 1
    decay_mult: 1
  }
  param {
    lr_mult: 2
    decay_mult: 0
  }
  convolution_param {
    num_output: 128
    kernel_size: 1
    weight_filler {
      type: "xavier"
      std: 0.09
    }
    bias_filler {
      type: "constant"
      value: 0.2
    }
  }
}
layer {
  name: "inception_3b/relu_3x3_reduce"
  type: "ReLU"
  bottom: "inception_3b/3x3_reduce"
  top: "inception_3b/3x3_reduce"
}
layer {
  name: "inception_3b/3x3"
  type: "Convolution"
  bottom: "inception_3b/3x3_reduce"
  top: "inception_3b/3x3"
  param {
    lr_mult: 1
    decay_mult: 1
  }
  param {
    lr_mult: 2
    decay_mult: 0
  }
  convolution_param {
    num_output: 192
    pad: 1
    kernel_size: 3
    weight_filler {
      type: "xavier"
      std: 0.03
    }
    bias_filler {
      type: "constant"
      value: 0.2
    }
  }
}
layer {
  name: "inception_3b/relu_3x3"
  type: "ReLU"
  bottom: "inception_3b/3x3"
  top: "inception_3b/3x3"
}
layer {
  name: "inception_3b/5x5_reduce"
  type: "Convolution"
  bottom: "inception_3a/output"
  top: "inception_3b/5x5_reduce"
  param {
    lr_mult: 1
    decay_mult: 1
  }
  param {
    lr_mult: 2
    decay_mult: 0
  }
  convolution_param {
    num_output: 32
    kernel_size: 1
    weight_filler {
      type: "xavier"
      std: 0.2
    }
    bias_filler {
      type: "constant"
      value: 0.2
    }
  }
}
layer {
  name: "inception_3b/relu_5x5_reduce"
  type: "ReLU"
  bottom: "inception_3b/5x5_reduce"
  top: "inception_3b/5x5_reduce"
}
layer {
  name: "inception_3b/5x5"
  type: "Convolution"
  bottom: "inception_3b/5x5_reduce"
  top: "inception_3b/5x5"
  param {
    lr_mult: 1
    decay_mult: 1
  }
  param {
    lr_mult: 2
    decay_mult: 0
  }
  convolution_param {
    num_output: 96
    pad: 2
    kernel_size: 5
    weight_filler {
      type: "xavier"
      std: 0.03
    }
    bias_filler {
      type: "constant"
      value: 0.2
    }
  }
}
layer {
  name: "inception_3b/relu_5x5"
  type: "ReLU"
  bottom: "inception_3b/5x5"
  top: "inception_3b/5x5"
}
layer {
  name: "inception_3b/pool"
  type: "Pooling"
  bottom: "inception_3a/output"
  top: "inception_3b/pool"
  pooling_param {
    pool: MAX
    kernel_size: 3
    stride: 1
    pad: 1
  }
}
layer {
  name: "inception_3b/pool_proj"
  type: "Convolution"
  bottom: "inception_3b/pool"
  top: "inception_3b/pool_proj"
  param {
    lr_mult: 1
    decay_mult: 1
  }
  param {
    lr_mult: 2
    decay_mult: 0
  }
  convolution_param {
    num_output: 64
    kernel_size: 1
    weight_filler {
      type: "xavier"
      std: 0.1
    }
    bias_filler {
      type: "constant"
      value: 0.2
    }
  }
}
layer {
  name: "inception_3b/relu_pool_proj"
  type: "ReLU"
  bottom: "inception_3b/pool_proj"
  top: "inception_3b/pool_proj"
}
layer {
  name: "inception_3b/output"
  type: "Concat"
  bottom: "inception_3b/1x1"
  bottom: "inception_3b/3x3"
  bottom: "inception_3b/5x5"
  bottom: "inception_3b/pool_proj"
  top: "inception_3b/output"
}
layer {
  name: "pool3/3x3_s2"
  type: "Pooling"
  bottom: "inception_3b/output"
  top: "pool3/3x3_s2"
  pooling_param {
    pool: MAX
    kernel_size: 3
    stride: 2
  }
}
layer {
  name: "inception_4a/1x1"
  type: "Convolution"
  bottom: "pool3/3x3_s2"
  top: "inception_4a/1x1"
  param {
    lr_mult: 1
    decay_mult: 1
  }
  param {
    lr_mult: 2
    decay_mult: 0
  }
  convolution_param {
    num_output: 192
    kernel_size: 1
    weight_filler {
      type: "xavier"
      std: 0.03
    }
    bias_filler {
      type: "constant"
      value: 0.2
    }
  }
}
layer {
  name: "inception_4a/relu_1x1"
  type: "ReLU"
  bottom: "inception_4a/1x1"
  top: "inception_4a/1x1"
}
layer {
  name: "inception_4a/3x3_reduce"
  type: "Convolution"
  bottom: "pool3/3x3_s2"
  top: "inception_4a/3x3_reduce"
  param {
    lr_mult: 1
    decay_mult: 1
  }
  param {
    lr_mult: 2
    decay_mult: 0
  }
  convolution_param {
    num_output: 96
    kernel_size: 1
    weight_filler {
      type: "xavier"
      std: 0.09
    }
    bias_filler {
      type: "constant"
      value: 0.2
    }
  }
}
layer {
  name: "inception_4a/relu_3x3_reduce"
  type: "ReLU"
  bottom: "inception_4a/3x3_reduce"
  top: "inception_4a/3x3_reduce"
}
layer {
  name: "inception_4a/3x3"
  type: "Convolution"
  bottom: "inception_4a/3x3_reduce"
  top: "inception_4a/3x3"
  param {
    lr_mult: 1
    decay_mult: 1
  }
  param {
    lr_mult: 2
    decay_mult: 0
  }
  convolution_param {
    num_output: 208
    pad: 1
    kernel_size: 3
    weight_filler {
      type: "xavier"
      std: 0.03
    }
    bias_filler {
      type: "constant"
      value: 0.2
    }
  }
}
layer {
  name: "inception_4a/relu_3x3"
  type: "ReLU"
  bottom: "inception_4a/3x3"
  top: "inception_4a/3x3"
}
layer {
  name: "inception_4a/5x5_reduce"
  type: "Convolution"
  bottom: "pool3/3x3_s2"
  top: "inception_4a/5x5_reduce"
  param {
    lr_mult: 1
    decay_mult: 1
  }
  param {
    lr_mult: 2
    decay_mult: 0
  }
  convolution_param {
    num_output: 16
    kernel_size: 1
    weight_filler {
      type: "xavier"
      std: 0.2
    }
    bias_filler {
      type: "constant"
      value: 0.2
    }
  }
}
layer {
  name: "inception_4a/relu_5x5_reduce"
  type: "ReLU"
  bottom: "inception_4a/5x5_reduce"
  top: "inception_4a/5x5_reduce"
}
layer {
  name: "inception_4a/5x5"
  type: "Convolution"
  bottom: "inception_4a/5x5_reduce"
  top: "inception_4a/5x5"
  param {
    lr_mult: 1
    decay_mult: 1
  }
  param {
    lr_mult: 2
    decay_mult: 0
  }
  convolution_param {
    num_output: 48
    pad: 2
    kernel_size: 5
    weight_filler {
      type: "xavier"
      std: 0.03
    }
    bias_filler {
      type: "constant"
      value: 0.2
    }
  }
}
layer {
  name: "inception_4a/relu_5x5"
  type: "ReLU"
  bottom: "inception_4a/5x5"
  top: "inception_4a/5x5"
}
layer {
  name: "inception_4a/pool"
  type: "Pooling"
  bottom: "pool3/3x3_s2"
  top: "inception_4a/pool"
  pooling_param {
    pool: MAX
    kernel_size: 3
    stride: 1
    pad: 1
  }
}
layer {
  name: "inception_4a/pool_proj"
  type: "Convolution"
  bottom: "inception_4a/pool"
  top: "inception_4a/pool_proj"
  param {
    lr_mult: 1
    decay_mult: 1
  }
  param {
    lr_mult: 2
    decay_mult: 0
  }
  convolution_param {
    num_output: 64
    kernel_size: 1
    weight_filler {
      type: "xavier"
      std: 0.1
    }
    bias_filler {
      type: "constant"
      value: 0.2
    }
  }
}
layer {
  name: "inception_4a/relu_pool_proj"
  type: "ReLU"
  bottom: "inception_4a/pool_proj"
  top: "inception_4a/pool_proj"
}
layer {
  name: "inception_4a/output"
  type: "Concat"
  bottom: "inception_4a/1x1"
  bottom: "inception_4a/3x3"
  bottom: "inception_4a/5x5"
  bottom: "inception_4a/pool_proj"
  top: "inception_4a/output"
}
layer {
  name: "loss1/ave_pool"
  type: "Pooling"
  bottom: "inception_4a/output"
  top: "loss1/ave_pool"
  pooling_param {
    pool: AVE
    kernel_size: 5
    stride: 3
  }
}
layer {
  name: "loss1/conv"
  type: "Convolution"
  bottom: "loss1/ave_pool"
  top: "loss1/conv"
  param {
    lr_mult: 1
    decay_mult: 1
  }
  param {
    lr_mult: 2
    decay_mult: 0
  }
  convolution_param {
    num_output: 128
    kernel_size: 1
    weight_filler {
      type: "xavier"
      std: 0.08
    }
    bias_filler {
      type: "constant"
      value: 0.2
    }
  }
}
layer {
  name: "loss1/relu_conv"
  type: "ReLU"
  bottom: "loss1/conv"
  top: "loss1/conv"
}
layer {
  name: "loss1/fc"
  type: "InnerProduct"
  bottom: "loss1/conv"
  top: "loss1/fc"
  param {
    lr_mult: 1
    decay_mult: 1
  }
  param {
    lr_mult: 2
    decay_mult: 0
  }
  inner_product_param {
    num_output: 1024
    weight_filler {
      type: "xavier"
      std: 0.02
    }
    bias_filler {
      type: "constant"
      value: 0.2
    }
  }
}
layer {
  name: "loss1/relu_fc"
  type: "ReLU"
  bottom: "loss1/fc"
  top: "loss1/fc"
}
layer {
  name: "loss1/drop_fc"
  type: "Dropout"
  bottom: "loss1/fc"
  top: "loss1/fc"
  dropout_param {
    dropout_ratio: 0.7
  }
}
layer {
  name: "loss1/classifier_plantvillage"
  type: "InnerProduct"
  bottom: "loss1/fc"
  top: "loss1/classifier_plantvillage"
  param {
    lr_mult: 1
    decay_mult: 1
  }
  param {
    lr_mult: 2
    decay_mult: 0
  }
  inner_product_param {
    num_output: 38
    weight_filler {
      type: "xavier"
      std: 0.0009765625
    }
    bias_filler {
      type: "constant"
      value: 0
    }
  }
}
layer {
  name: "inception_4b/1x1"
  type: "Convolution"
  bottom: "inception_4a/output"
  top: "inception_4b/1x1"
  param {
    lr_mult: 1
    decay_mult: 1
  }
  param {
    lr_mult: 2
    decay_mult: 0
  }
  convolution_param {
    num_output: 160
    kernel_size: 1
    weight_filler {
      type: "xavier"
      std: 0.03
    }
    bias_filler {
      type: "constant"
      value: 0.2
    }
  }
}
layer {
  name: "inception_4b/relu_1x1"
  type: "ReLU"
  bottom: "inception_4b/1x1"
  top: "inception_4b/1x1"
}
layer {
  name: "inception_4b/3x3_reduce"
  type: "Convolution"
  bottom: "inception_4a/output"
  top: "inception_4b/3x3_reduce"
  param {
    lr_mult: 1
    decay_mult: 1
  }
  param {
    lr_mult: 2
    decay_mult: 0
  }
  convolution_param {
    num_output: 112
    kernel_size: 1
    weight_filler {
      type: "xavier"
      std: 0.09
    }
    bias_filler {
      type: "constant"
      value: 0.2
    }
  }
}
layer {
  name: "inception_4b/relu_3x3_reduce"
  type: "ReLU"
  bottom: "inception_4b/3x3_reduce"
  top: "inception_4b/3x3_reduce"
}
layer {
  name: "inception_4b/3x3"
  type: "Convolution"
  bottom: "inception_4b/3x3_reduce"
  top: "inception_4b/3x3"
  param {
    lr_mult: 1
    decay_mult: 1
  }
  param {
    lr_mult: 2
    decay_mult: 0
  }
  convolution_param {
    num_output: 224
    pad: 1
    kernel_size: 3
    weight_filler {
      type: "xavier"
      std: 0.03
    }
    bias_filler {
      type: "constant"
      value: 0.2
    }
  }
}
layer {
  name: "inception_4b/relu_3x3"
  type: "ReLU"
  bottom: "inception_4b/3x3"
  top: "inception_4b/3x3"
}
layer {
  name: "inception_4b/5x5_reduce"
  type: "Convolution"
  bottom: "inception_4a/output"
  top: "inception_4b/5x5_reduce"
  param {
    lr_mult: 1
    decay_mult: 1
  }
  param {
    lr_mult: 2
    decay_mult: 0
  }
  convolution_param {
    num_output: 24
    kernel_size: 1
    weight_filler {
      type: "xavier"
      std: 0.2
    }
    bias_filler {
      type: "constant"
      value: 0.2
    }
  }
}
layer {
  name: "inception_4b/relu_5x5_reduce"
  type: "ReLU"
  bottom: "inception_4b/5x5_reduce"
  top: "inception_4b/5x5_reduce"
}
layer {
  name: "inception_4b/5x5"
  type: "Convolution"
  bottom: "inception_4b/5x5_reduce"
  top: "inception_4b/5x5"
  param {
    lr_mult: 1
    decay_mult: 1
  }
  param {
    lr_mult: 2
    decay_mult: 0
  }
  convolution_param {
    num_output: 64
    pad: 2
    kernel_size: 5
    weight_filler {
      type: "xavier"
      std: 0.03
    }
    bias_filler {
      type: "constant"
      value: 0.2
    }
  }
}
layer {
  name: "inception_4b/relu_5x5"
  type: "ReLU"
  bottom: "inception_4b/5x5"
  top: "inception_4b/5x5"
}
layer {
  name: "inception_4b/pool"
  type: "Pooling"
  bottom: "inception_4a/output"
  top: "inception_4b/pool"
  pooling_param {
    pool: MAX
    kernel_size: 3
    stride: 1
    pad: 1
  }
}
layer {
  name: "inception_4b/pool_proj"
  type: "Convolution"
  bottom: "inception_4b/pool"
  top: "inception_4b/pool_proj"
  param {
    lr_mult: 1
    decay_mult: 1
  }
  param {
    lr_mult: 2
    decay_mult: 0
  }
  convolution_param {
    num_output: 64
    kernel_size: 1
    weight_filler {
      type: "xavier"
      std: 0.1
    }
    bias_filler {
      type: "constant"
      value: 0.2
    }
  }
}
layer {
  name: "inception_4b/relu_pool_proj"
  type: "ReLU"
  bottom: "inception_4b/pool_proj"
  top: "inception_4b/pool_proj"
}
layer {
  name: "inception_4b/output"
  type: "Concat"
  bottom: "inception_4b/1x1"
  bottom: "inception_4b/3x3"
  bottom: "inception_4b/5x5"
  bottom: "inception_4b/pool_proj"
  top: "inception_4b/output"
}
layer {
  name: "inception_4c/1x1"
  type: "Convolution"
  bottom: "inception_4b/output"
  top: "inception_4c/1x1"
  param {
    lr_mult: 1
    decay_mult: 1
  }
  param {
    lr_mult: 2
    decay_mult: 0
  }
  convolution_param {
    num_output: 128
    kernel_size: 1
    weight_filler {
      type: "xavier"
      std: 0.03
    }
    bias_filler {
      type: "constant"
      value: 0.2
    }
  }
}
layer {
  name: "inception_4c/relu_1x1"
  type: "ReLU"
  bottom: "inception_4c/1x1"
  top: "inception_4c/1x1"
}
layer {
  name: "inception_4c/3x3_reduce"
  type: "Convolution"
  bottom: "inception_4b/output"
  top: "inception_4c/3x3_reduce"
  param {
    lr_mult: 1
    decay_mult: 1
  }
  param {
    lr_mult: 2
    decay_mult: 0
  }
  convolution_param {
    num_output: 128
    kernel_size: 1
    weight_filler {
      type: "xavier"
      std: 0.09
    }
    bias_filler {
      type: "constant"
      value: 0.2
    }
  }
}
layer {
  name: "inception_4c/relu_3x3_reduce"
  type: "ReLU"
  bottom: "inception_4c/3x3_reduce"
  top: "inception_4c/3x3_reduce"
}
layer {
  name: "inception_4c/3x3"
  type: "Convolution"
  bottom: "inception_4c/3x3_reduce"
  top: "inception_4c/3x3"
  param {
    lr_mult: 1
    decay_mult: 1
  }
  param {
    lr_mult: 2
    decay_mult: 0
  }
  convolution_param {
    num_output: 256
    pad: 1
    kernel_size: 3
    weight_filler {
      type: "xavier"
      std: 0.03
    }
    bias_filler {
      type: "constant"
      value: 0.2
    }
  }
}
layer {
  name: "inception_4c/relu_3x3"
  type: "ReLU"
  bottom: "inception_4c/3x3"
  top: "inception_4c/3x3"
}
layer {
  name: "inception_4c/5x5_reduce"
  type: "Convolution"
  bottom: "inception_4b/output"
  top: "inception_4c/5x5_reduce"
  param {
    lr_mult: 1
    decay_mult: 1
  }
  param {
    lr_mult: 2
    decay_mult: 0
  }
  convolution_param {
    num_output: 24
    kernel_size: 1
    weight_filler {
      type: "xavier"
      std: 0.2
    }
    bias_filler {
      type: "constant"
      value: 0.2
    }
  }
}
layer {
  name: "inception_4c/relu_5x5_reduce"
  type: "ReLU"
  bottom: "inception_4c/5x5_reduce"
  top: "inception_4c/5x5_reduce"
}
layer {
  name: "inception_4c/5x5"
  type: "Convolution"
  bottom: "inception_4c/5x5_reduce"
  top: "inception_4c/5x5"
  param {
    lr_mult: 1
    decay_mult: 1
  }
  param {
    lr_mult: 2
    decay_mult: 0
  }
  convolution_param {
    num_output: 64
    pad: 2
    kernel_size: 5
    weight_filler {
      type: "xavier"
      std: 0.03
    }
    bias_filler {
      type: "constant"
      value: 0.2
    }
  }
}
layer {
  name: "inception_4c/relu_5x5"
  type: "ReLU"
  bottom: "inception_4c/5x5"
  top: "inception_4c/5x5"
}
layer {
  name: "inception_4c/pool"
  type: "Pooling"
  bottom: "inception_4b/output"
  top: "inception_4c/pool"
  pooling_param {
    pool: MAX
    kernel_size: 3
    stride: 1
    pad: 1
  }
}
layer {
  name: "inception_4c/pool_proj"
  type: "Convolution"
  bottom: "inception_4c/pool"
  top: "inception_4c/pool_proj"
  param {
    lr_mult: 1
    decay_mult: 1
  }
  param {
    lr_mult: 2
    decay_mult: 0
  }
  convolution_param {
    num_output: 64
    kernel_size: 1
    weight_filler {
      type: "xavier"
      std: 0.1
    }
    bias_filler {
      type: "constant"
      value: 0.2
    }
  }
}
layer {
  name: "inception_4c/relu_pool_proj"
  type: "ReLU"
  bottom: "inception_4c/pool_proj"
  top: "inception_4c/pool_proj"
}
layer {
  name: "inception_4c/output"
  type: "Concat"
  bottom: "inception_4c/1x1"
  bottom: "inception_4c/3x3"
  bottom: "inception_4c/5x5"
  bottom: "inception_4c/pool_proj"
  top: "inception_4c/output"
}
layer {
  name: "inception_4d/1x1"
  type: "Convolution"
  bottom: "inception_4c/output"
  top: "inception_4d/1x1"
  param {
    lr_mult: 1
    decay_mult: 1
  }
  param {
    lr_mult: 2
    decay_mult: 0
  }
  convolution_param {
    num_output: 112
    kernel_size: 1
    weight_filler {
      type: "xavier"
      std: 0.03
    }
    bias_filler {
      type: "constant"
      value: 0.2
    }
  }
}
layer {
  name: "inception_4d/relu_1x1"
  type: "ReLU"
  bottom: "inception_4d/1x1"
  top: "inception_4d/1x1"
}
layer {
  name: "inception_4d/3x3_reduce"
  type: "Convolution"
  bottom: "inception_4c/output"
  top: "inception_4d/3x3_reduce"
  param {
    lr_mult: 1
    decay_mult: 1
  }
  param {
    lr_mult: 2
    decay_mult: 0
  }
  convolution_param {
    num_output: 144
    kernel_size: 1
    weight_filler {
      type: "xavier"
      std: 0.09
    }
    bias_filler {
      type: "constant"
      value: 0.2
    }
  }
}
layer {
  name: "inception_4d/relu_3x3_reduce"
  type: "ReLU"
  bottom: "inception_4d/3x3_reduce"
  top: "inception_4d/3x3_reduce"
}
layer {
  name: "inception_4d/3x3"
  type: "Convolution"
  bottom: "inception_4d/3x3_reduce"
  top: "inception_4d/3x3"
  param {
    lr_mult: 1
    decay_mult: 1
  }
  param {
    lr_mult: 2
    decay_mult: 0
  }
  convolution_param {
    num_output: 288
    pad: 1
    kernel_size: 3
    weight_filler {
      type: "xavier"
      std: 0.03
    }
    bias_filler {
      type: "constant"
      value: 0.2
    }
  }
}
layer {
  name: "inception_4d/relu_3x3"
  type: "ReLU"
  bottom: "inception_4d/3x3"
  top: "inception_4d/3x3"
}
layer {
  name: "inception_4d/5x5_reduce"
  type: "Convolution"
  bottom: "inception_4c/output"
  top: "inception_4d/5x5_reduce"
  param {
    lr_mult: 1
    decay_mult: 1
  }
  param {
    lr_mult: 2
    decay_mult: 0
  }
  convolution_param {
    num_output: 32
    kernel_size: 1
    weight_filler {
      type: "xavier"
      std: 0.2
    }
    bias_filler {
      type: "constant"
      value: 0.2
    }
  }
}
layer {
  name: "inception_4d/relu_5x5_reduce"
  type: "ReLU"
  bottom: "inception_4d/5x5_reduce"
  top: "inception_4d/5x5_reduce"
}
layer {
  name: "inception_4d/5x5"
  type: "Convolution"
  bottom: "inception_4d/5x5_reduce"
  top: "inception_4d/5x5"
  param {
    lr_mult: 1
    decay_mult: 1
  }
  param {
    lr_mult: 2
    decay_mult: 0
  }
  convolution_param {
    num_output: 64
    pad: 2
    kernel_size: 5
    weight_filler {
      type: "xavier"
      std: 0.03
    }
    bias_filler {
      type: "constant"
      value: 0.2
    }
  }
}
layer {
  name: "inception_4d/relu_5x5"
  type: "ReLU"
  bottom: "inception_4d/5x5"
  top: "inception_4d/5x5"
}
layer {
  name: "inception_4d/pool"
  type: "Pooling"
  bottom: "inception_4c/output"
  top: "inception_4d/pool"
  pooling_param {
    pool: MAX
    kernel_size: 3
    stride: 1
    pad: 1
  }
}
layer {
  name: "inception_4d/pool_proj"
  type: "Convolution"
  bottom: "inception_4d/pool"
  top: "inception_4d/pool_proj"
  param {
    lr_mult: 1
    decay_mult: 1
  }
  param {
    lr_mult: 2
    decay_mult: 0
  }
  convolution_param {
    num_output: 64
    kernel_size: 1
    weight_filler {
      type: "xavier"
      std: 0.1
    }
    bias_filler {
      type: "constant"
      value: 0.2
    }
  }
}
layer {
  name: "inception_4d/relu_pool_proj"
  type: "ReLU"
  bottom: "inception_4d/pool_proj"
  top: "inception_4d/pool_proj"
}
layer {
  name: "inception_4d/output"
  type: "Concat"
  bottom: "inception_4d/1x1"
  bottom: "inception_4d/3x3"
  bottom: "inception_4d/5x5"
  bottom: "inception_4d/pool_proj"
  top: "inception_4d/output"
}
layer {
  name: "loss2/ave_pool"
  type: "Pooling"
  bottom: "inception_4d/output"
  top: "loss2/ave_pool"
  pooling_param {
    pool: AVE
    kernel_size: 5
    stride: 3
  }
}
layer {
  name: "loss2/conv"
  type: "Convolution"
  bottom: "loss2/ave_pool"
  top: "loss2/conv"
  param {
    lr_mult: 1
    decay_mult: 1
  }
  param {
    lr_mult: 2
    decay_mult: 0
  }
  convolution_param {
    num_output: 128
    kernel_size: 1
    weight_filler {
      type: "xavier"
      std: 0.08
    }
    bias_filler {
      type: "constant"
      value: 0.2
    }
  }
}
layer {
  name: "loss2/relu_conv"
  type: "ReLU"
  bottom: "loss2/conv"
  top: "loss2/conv"
}
layer {
  name: "loss2/fc"
  type: "InnerProduct"
  bottom: "loss2/conv"
  top: "loss2/fc"
  param {
    lr_mult: 1
    decay_mult: 1
  }
  param {
    lr_mult: 2
    decay_mult: 0
  }
  inner_product_param {
    num_output: 1024
    weight_filler {
      type: "xavier"
      std: 0.02
    }
    bias_filler {
      type: "constant"
      value: 0.2
    }
  }
}
layer {
  name: "loss2/relu_fc"
  type: "ReLU"
  bottom: "loss2/fc"
  top: "loss2/fc"
}
layer {
  name: "loss2/drop_fc"
  type: "Dropout"
  bottom: "loss2/fc"
  top: "loss2/fc"
  dropout_param {
    dropout_ratio: 0.7
  }
}
layer {
  name: "loss2/classifier_plantvillage"
  type: "InnerProduct"
  bottom: "loss2/fc"
  top: "loss2/classifier_plantvillage"
  param {
    lr_mult: 1
    decay_mult: 1
  }
  param {
    lr_mult: 2
    decay_mult: 0
  }
  inner_product_param {
    num_output: 38
    weight_filler {
      type: "xavier"
      std: 0.0009765625
    }
    bias_filler {
      type: "constant"
      value: 0
    }
  }
}
layer {
  name: "inception_4e/1x1"
  type: "Convolution"
  bottom: "inception_4d/output"
  top: "inception_4e/1x1"
  param {
    lr_mult: 1
    decay_mult: 1
  }
  param {
    lr_mult: 2
    decay_mult: 0
  }
  convolution_param {
    num_output: 256
    kernel_size: 1
    weight_filler {
      type: "xavier"
      std: 0.03
    }
    bias_filler {
      type: "constant"
      value: 0.2
    }
  }
}
layer {
  name: "inception_4e/relu_1x1"
  type: "ReLU"
  bottom: "inception_4e/1x1"
  top: "inception_4e/1x1"
}
layer {
  name: "inception_4e/3x3_reduce"
  type: "Convolution"
  bottom: "inception_4d/output"
  top: "inception_4e/3x3_reduce"
  param {
    lr_mult: 1
    decay_mult: 1
  }
  param {
    lr_mult: 2
    decay_mult: 0
  }
  convolution_param {
    num_output: 160
    kernel_size: 1
    weight_filler {
      type: "xavier"
      std: 0.09
    }
    bias_filler {
      type: "constant"
      value: 0.2
    }
  }
}
layer {
  name: "inception_4e/relu_3x3_reduce"
  type: "ReLU"
  bottom: "inception_4e/3x3_reduce"
  top: "inception_4e/3x3_reduce"
}
layer {
  name: "inception_4e/3x3"
  type: "Convolution"
  bottom: "inception_4e/3x3_reduce"
  top: "inception_4e/3x3"
  param {
    lr_mult: 1
    decay_mult: 1
  }
  param {
    lr_mult: 2
    decay_mult: 0
  }
  convolution_param {
    num_output: 320
    pad: 1
    kernel_size: 3
    weight_filler {
      type: "xavier"
      std: 0.03
    }
    bias_filler {
      type: "constant"
      value: 0.2
    }
  }
}
layer {
  name: "inception_4e/relu_3x3"
  type: "ReLU"
  bottom: "inception_4e/3x3"
  top: "inception_4e/3x3"
}
layer {
  name: "inception_4e/5x5_reduce"
  type: "Convolution"
  bottom: "inception_4d/output"
  top: "inception_4e/5x5_reduce"
  param {
    lr_mult: 1
    decay_mult: 1
  }
  param {
    lr_mult: 2
    decay_mult: 0
  }
  convolution_param {
    num_output: 32
    kernel_size: 1
    weight_filler {
      type: "xavier"
      std: 0.2
    }
    bias_filler {
      type: "constant"
      value: 0.2
    }
  }
}
layer {
  name: "inception_4e/relu_5x5_reduce"
  type: "ReLU"
  bottom: "inception_4e/5x5_reduce"
  top: "inception_4e/5x5_reduce"
}
layer {
  name: "inception_4e/5x5"
  type: "Convolution"
  bottom: "inception_4e/5x5_reduce"
  top: "inception_4e/
I0403 19:00:23.904875 18392 layer_factory.hpp:77] Creating layer data
I0403 19:00:23.905488 18392 net.cpp:91] Creating Layer data
I0403 19:00:23.905519 18392 net.cpp:399] data -> data
I0403 19:00:23.905571 18392 net.cpp:399] data -> label
I0403 19:00:23.905609 18392 data_transformer.cpp:25] Loading mean file from: /home/mohanty/data/final_dataset/lmdb/segmented-60-40/mean.binaryproto
I0403 19:00:23.906802 18394 db_lmdb.cpp:38] Opened lmdb /home/mohanty/data/final_dataset/lmdb/segmented-60-40/test_db
I0403 19:00:23.918651 18392 data_layer.cpp:41] output data size: 24,3,224,224
I0403 19:00:23.946164 18392 net.cpp:141] Setting up data
I0403 19:00:23.946249 18392 net.cpp:148] Top shape: 24 3 224 224 (3612672)
I0403 19:00:23.946272 18392 net.cpp:148] Top shape: 24 (24)
I0403 19:00:23.946288 18392 net.cpp:156] Memory required for data: 14450784
I0403 19:00:23.946316 18392 layer_factory.hpp:77] Creating layer label_data_1_split
I0403 19:00:23.946342 18392 net.cpp:91] Creating Layer label_data_1_split
I0403 19:00:23.946362 18392 net.cpp:425] label_data_1_split <- label
I0403 19:00:23.946393 18392 net.cpp:399] label_data_1_split -> label_data_1_split_0
I0403 19:00:23.946421 18392 net.cpp:399] label_data_1_split -> label_data_1_split_1
I0403 19:00:23.946442 18392 net.cpp:399] label_data_1_split -> label_data_1_split_2
I0403 19:00:23.946465 18392 net.cpp:399] label_data_1_split -> label_data_1_split_3
I0403 19:00:23.946485 18392 net.cpp:399] label_data_1_split -> label_data_1_split_4
I0403 19:00:23.946504 18392 net.cpp:399] label_data_1_split -> label_data_1_split_5
I0403 19:00:23.946524 18392 net.cpp:399] label_data_1_split -> label_data_1_split_6
I0403 19:00:23.946545 18392 net.cpp:399] label_data_1_split -> label_data_1_split_7
I0403 19:00:23.946565 18392 net.cpp:399] label_data_1_split -> label_data_1_split_8
I0403 19:00:23.946586 18392 net.cpp:399] label_data_1_split -> label_data_1_split_9
I0403 19:00:23.946708 18392 net.cpp:141] Setting up label_data_1_split
I0403 19:00:23.946733 18392 net.cpp:148] Top shape: 24 (24)
I0403 19:00:23.946750 18392 net.cpp:148] Top shape: 24 (24)
I0403 19:00:23.946768 18392 net.cpp:148] Top shape: 24 (24)
I0403 19:00:23.946784 18392 net.cpp:148] Top shape: 24 (24)
I0403 19:00:23.946800 18392 net.cpp:148] Top shape: 24 (24)
I0403 19:00:23.946816 18392 net.cpp:148] Top shape: 24 (24)
I0403 19:00:23.946832 18392 net.cpp:148] Top shape: 24 (24)
I0403 19:00:23.946848 18392 net.cpp:148] Top shape: 24 (24)
I0403 19:00:23.946864 18392 net.cpp:148] Top shape: 24 (24)
I0403 19:00:23.946882 18392 net.cpp:148] Top shape: 24 (24)
I0403 19:00:23.946928 18392 net.cpp:156] Memory required for data: 14451744
I0403 19:00:23.946943 18392 layer_factory.hpp:77] Creating layer conv1/7x7_s2
I0403 19:00:23.946976 18392 net.cpp:91] Creating Layer conv1/7x7_s2
I0403 19:00:23.947000 18392 net.cpp:425] conv1/7x7_s2 <- data
I0403 19:00:23.947021 18392 net.cpp:399] conv1/7x7_s2 -> conv1/7x7_s2
I0403 19:00:24.083148 18392 net.cpp:141] Setting up conv1/7x7_s2
I0403 19:00:24.083237 18392 net.cpp:148] Top shape: 24 64 112 112 (19267584)
I0403 19:00:24.083256 18392 net.cpp:156] Memory required for data: 91522080
I0403 19:00:24.083287 18392 layer_factory.hpp:77] Creating layer conv1/relu_7x7
I0403 19:00:24.083313 18392 net.cpp:91] Creating Layer conv1/relu_7x7
I0403 19:00:24.083333 18392 net.cpp:425] conv1/relu_7x7 <- conv1/7x7_s2
I0403 19:00:24.083350 18392 net.cpp:386] conv1/relu_7x7 -> conv1/7x7_s2 (in-place)
I0403 19:00:24.083616 18392 net.cpp:141] Setting up conv1/relu_7x7
I0403 19:00:24.083642 18392 net.cpp:148] Top shape: 24 64 112 112 (19267584)
I0403 19:00:24.083657 18392 net.cpp:156] Memory required for data: 168592416
I0403 19:00:24.083673 18392 layer_factory.hpp:77] Creating layer pool1/3x3_s2
I0403 19:00:24.083696 18392 net.cpp:91] Creating Layer pool1/3x3_s2
I0403 19:00:24.083714 18392 net.cpp:425] pool1/3x3_s2 <- conv1/7x7_s2
I0403 19:00:24.083732 18392 net.cpp:399] pool1/3x3_s2 -> pool1/3x3_s2
I0403 19:00:24.083804 18392 net.cpp:141] Setting up pool1/3x3_s2
I0403 19:00:24.083828 18392 net.cpp:148] Top shape: 24 64 56 56 (4816896)
I0403 19:00:24.083842 18392 net.cpp:156] Memory required for data: 187860000
I0403 19:00:24.083858 18392 layer_factory.hpp:77] Creating layer pool1/norm1
I0403 19:00:24.083880 18392 net.cpp:91] Creating Layer pool1/norm1
I0403 19:00:24.083897 18392 net.cpp:425] pool1/norm1 <- pool1/3x3_s2
I0403 19:00:24.083915 18392 net.cpp:399] pool1/norm1 -> pool1/norm1
I0403 19:00:24.084226 18392 net.cpp:141] Setting up pool1/norm1
I0403 19:00:24.084254 18392 net.cpp:148] Top shape: 24 64 56 56 (4816896)
I0403 19:00:24.084269 18392 net.cpp:156] Memory required for data: 207127584
I0403 19:00:24.084283 18392 layer_factory.hpp:77] Creating layer conv2/3x3_reduce
I0403 19:00:24.084308 18392 net.cpp:91] Creating Layer conv2/3x3_reduce
I0403 19:00:24.084326 18392 net.cpp:425] conv2/3x3_reduce <- pool1/norm1
I0403 19:00:24.084347 18392 net.cpp:399] conv2/3x3_reduce -> conv2/3x3_reduce
I0403 19:00:24.085705 18392 net.cpp:141] Setting up conv2/3x3_reduce
I0403 19:00:24.085734 18392 net.cpp:148] Top shape: 24 64 56 56 (4816896)
I0403 19:00:24.085750 18392 net.cpp:156] Memory required for data: 226395168
I0403 19:00:24.085770 18392 layer_factory.hpp:77] Creating layer conv2/relu_3x3_reduce
I0403 19:00:24.085788 18392 net.cpp:91] Creating Layer conv2/relu_3x3_reduce
I0403 19:00:24.085803 18392 net.cpp:425] conv2/relu_3x3_reduce <- conv2/3x3_reduce
I0403 19:00:24.085819 18392 net.cpp:386] conv2/relu_3x3_reduce -> conv2/3x3_reduce (in-place)
I0403 19:00:24.086086 18392 net.cpp:141] Setting up conv2/relu_3x3_reduce
I0403 19:00:24.086113 18392 net.cpp:148] Top shape: 24 64 56 56 (4816896)
I0403 19:00:24.086129 18392 net.cpp:156] Memory required for data: 245662752
I0403 19:00:24.086143 18392 layer_factory.hpp:77] Creating layer conv2/3x3
I0403 19:00:24.086169 18392 net.cpp:91] Creating Layer conv2/3x3
I0403 19:00:24.086186 18392 net.cpp:425] conv2/3x3 <- conv2/3x3_reduce
I0403 19:00:24.086206 18392 net.cpp:399] conv2/3x3 -> conv2/3x3
I0403 19:00:24.088402 18392 net.cpp:141] Setting up conv2/3x3
I0403 19:00:24.088434 18392 net.cpp:148] Top shape: 24 192 56 56 (14450688)
I0403 19:00:24.088451 18392 net.cpp:156] Memory required for data: 303465504
I0403 19:00:24.088471 18392 layer_factory.hpp:77] Creating layer conv2/relu_3x3
I0403 19:00:24.088490 18392 net.cpp:91] Creating Layer conv2/relu_3x3
I0403 19:00:24.088505 18392 net.cpp:425] conv2/relu_3x3 <- conv2/3x3
I0403 19:00:24.088521 18392 net.cpp:386] conv2/relu_3x3 -> conv2/3x3 (in-place)
I0403 19:00:24.088693 18392 net.cpp:141] Setting up conv2/relu_3x3
I0403 19:00:24.088717 18392 net.cpp:148] Top shape: 24 192 56 56 (14450688)
I0403 19:00:24.088762 18392 net.cpp:156] Memory required for data: 361268256
I0403 19:00:24.088776 18392 layer_factory.hpp:77] Creating layer conv2/norm2
I0403 19:00:24.088796 18392 net.cpp:91] Creating Layer conv2/norm2
I0403 19:00:24.088814 18392 net.cpp:425] conv2/norm2 <- conv2/3x3
I0403 19:00:24.088829 18392 net.cpp:399] conv2/norm2 -> conv2/norm2
I0403 19:00:24.089133 18392 net.cpp:141] Setting up conv2/norm2
I0403 19:00:24.089159 18392 net.cpp:148] Top shape: 24 192 56 56 (14450688)
I0403 19:00:24.089174 18392 net.cpp:156] Memory required for data: 419071008
I0403 19:00:24.089187 18392 layer_factory.hpp:77] Creating layer pool2/3x3_s2
I0403 19:00:24.089208 18392 net.cpp:91] Creating Layer pool2/3x3_s2
I0403 19:00:24.089224 18392 net.cpp:425] pool2/3x3_s2 <- conv2/norm2
I0403 19:00:24.089241 18392 net.cpp:399] pool2/3x3_s2 -> pool2/3x3_s2
I0403 19:00:24.089293 18392 net.cpp:141] Setting up pool2/3x3_s2
I0403 19:00:24.089316 18392 net.cpp:148] Top shape: 24 192 28 28 (3612672)
I0403 19:00:24.089330 18392 net.cpp:156] Memory required for data: 433521696
I0403 19:00:24.089344 18392 layer_factory.hpp:77] Creating layer pool2/3x3_s2_pool2/3x3_s2_0_split
I0403 19:00:24.089360 18392 net.cpp:91] Creating Layer pool2/3x3_s2_pool2/3x3_s2_0_split
I0403 19:00:24.089375 18392 net.cpp:425] pool2/3x3_s2_pool2/3x3_s2_0_split <- pool2/3x3_s2
I0403 19:00:24.089393 18392 net.cpp:399] pool2/3x3_s2_pool2/3x3_s2_0_split -> pool2/3x3_s2_pool2/3x3_s2_0_split_0
I0403 19:00:24.089412 18392 net.cpp:399] pool2/3x3_s2_pool2/3x3_s2_0_split -> pool2/3x3_s2_pool2/3x3_s2_0_split_1
I0403 19:00:24.089432 18392 net.cpp:399] pool2/3x3_s2_pool2/3x3_s2_0_split -> pool2/3x3_s2_pool2/3x3_s2_0_split_2
I0403 19:00:24.089449 18392 net.cpp:399] pool2/3x3_s2_pool2/3x3_s2_0_split -> pool2/3x3_s2_pool2/3x3_s2_0_split_3
I0403 19:00:24.089517 18392 net.cpp:141] Setting up pool2/3x3_s2_pool2/3x3_s2_0_split
I0403 19:00:24.089540 18392 net.cpp:148] Top shape: 24 192 28 28 (3612672)
I0403 19:00:24.089557 18392 net.cpp:148] Top shape: 24 192 28 28 (3612672)
I0403 19:00:24.089572 18392 net.cpp:148] Top shape: 24 192 28 28 (3612672)
I0403 19:00:24.089586 18392 net.cpp:148] Top shape: 24 192 28 28 (3612672)
I0403 19:00:24.089599 18392 net.cpp:156] Memory required for data: 491324448
I0403 19:00:24.089613 18392 layer_factory.hpp:77] Creating layer inception_3a/1x1
I0403 19:00:24.089634 18392 net.cpp:91] Creating Layer inception_3a/1x1
I0403 19:00:24.089650 18392 net.cpp:425] inception_3a/1x1 <- pool2/3x3_s2_pool2/3x3_s2_0_split_0
I0403 19:00:24.089668 18392 net.cpp:399] inception_3a/1x1 -> inception_3a/1x1
I0403 19:00:24.091164 18392 net.cpp:141] Setting up inception_3a/1x1
I0403 19:00:24.091194 18392 net.cpp:148] Top shape: 24 64 28 28 (1204224)
I0403 19:00:24.091210 18392 net.cpp:156] Memory required for data: 496141344
I0403 19:00:24.091228 18392 layer_factory.hpp:77] Creating layer inception_3a/relu_1x1
I0403 19:00:24.091249 18392 net.cpp:91] Creating Layer inception_3a/relu_1x1
I0403 19:00:24.091265 18392 net.cpp:425] inception_3a/relu_1x1 <- inception_3a/1x1
I0403 19:00:24.091282 18392 net.cpp:386] inception_3a/relu_1x1 -> inception_3a/1x1 (in-place)
I0403 19:00:24.091456 18392 net.cpp:141] Setting up inception_3a/relu_1x1
I0403 19:00:24.091481 18392 net.cpp:148] Top shape: 24 64 28 28 (1204224)
I0403 19:00:24.091495 18392 net.cpp:156] Memory required for data: 500958240
I0403 19:00:24.091511 18392 layer_factory.hpp:77] Creating layer inception_3a/3x3_reduce
I0403 19:00:24.091532 18392 net.cpp:91] Creating Layer inception_3a/3x3_reduce
I0403 19:00:24.091550 18392 net.cpp:425] inception_3a/3x3_reduce <- pool2/3x3_s2_pool2/3x3_s2_0_split_1
I0403 19:00:24.091572 18392 net.cpp:399] inception_3a/3x3_reduce -> inception_3a/3x3_reduce
I0403 19:00:24.093240 18392 net.cpp:141] Setting up inception_3a/3x3_reduce
I0403 19:00:24.093271 18392 net.cpp:148] Top shape: 24 96 28 28 (1806336)
I0403 19:00:24.093288 18392 net.cpp:156] Memory required for data: 508183584
I0403 19:00:24.093309 18392 layer_factory.hpp:77] Creating layer inception_3a/relu_3x3_reduce
I0403 19:00:24.093346 18392 net.cpp:91] Creating Layer inception_3a/relu_3x3_reduce
I0403 19:00:24.093364 18392 net.cpp:425] inception_3a/relu_3x3_reduce <- inception_3a/3x3_reduce
I0403 19:00:24.093384 18392 net.cpp:386] inception_3a/relu_3x3_reduce -> inception_3a/3x3_reduce (in-place)
I0403 19:00:24.093564 18392 net.cpp:141] Setting up inception_3a/relu_3x3_reduce
I0403 19:00:24.093588 18392 net.cpp:148] Top shape: 24 96 28 28 (1806336)
I0403 19:00:24.093602 18392 net.cpp:156] Memory required for data: 515408928
I0403 19:00:24.093616 18392 layer_factory.hpp:77] Creating layer inception_3a/3x3
I0403 19:00:24.093639 18392 net.cpp:91] Creating Layer inception_3a/3x3
I0403 19:00:24.093657 18392 net.cpp:425] inception_3a/3x3 <- inception_3a/3x3_reduce
I0403 19:00:24.093679 18392 net.cpp:399] inception_3a/3x3 -> inception_3a/3x3
I0403 19:00:24.095324 18392 net.cpp:141] Setting up inception_3a/3x3
I0403 19:00:24.095353 18392 net.cpp:148] Top shape: 24 128 28 28 (2408448)
I0403 19:00:24.095369 18392 net.cpp:156] Memory required for data: 525042720
I0403 19:00:24.095388 18392 layer_factory.hpp:77] Creating layer inception_3a/relu_3x3
I0403 19:00:24.095407 18392 net.cpp:91] Creating Layer inception_3a/relu_3x3
I0403 19:00:24.095422 18392 net.cpp:425] inception_3a/relu_3x3 <- inception_3a/3x3
I0403 19:00:24.095441 18392 net.cpp:386] inception_3a/relu_3x3 -> inception_3a/3x3 (in-place)
I0403 19:00:24.095715 18392 net.cpp:141] Setting up inception_3a/relu_3x3
I0403 19:00:24.095744 18392 net.cpp:148] Top shape: 24 128 28 28 (2408448)
I0403 19:00:24.095759 18392 net.cpp:156] Memory required for data: 534676512
I0403 19:00:24.095774 18392 layer_factory.hpp:77] Creating layer inception_3a/5x5_reduce
I0403 19:00:24.095798 18392 net.cpp:91] Creating Layer inception_3a/5x5_reduce
I0403 19:00:24.095813 18392 net.cpp:425] inception_3a/5x5_reduce <- pool2/3x3_s2_pool2/3x3_s2_0_split_2
I0403 19:00:24.095832 18392 net.cpp:399] inception_3a/5x5_reduce -> inception_3a/5x5_reduce
I0403 19:00:24.096786 18392 net.cpp:141] Setting up inception_3a/5x5_reduce
I0403 19:00:24.096818 18392 net.cpp:148] Top shape: 24 16 28 28 (301056)
I0403 19:00:24.096835 18392 net.cpp:156] Memory required for data: 535880736
I0403 19:00:24.096853 18392 layer_factory.hpp:77] Creating layer inception_3a/relu_5x5_reduce
I0403 19:00:24.096871 18392 net.cpp:91] Creating Layer inception_3a/relu_5x5_reduce
I0403 19:00:24.096887 18392 net.cpp:425] inception_3a/relu_5x5_reduce <- inception_3a/5x5_reduce
I0403 19:00:24.096907 18392 net.cpp:386] inception_3a/relu_5x5_reduce -> inception_3a/5x5_reduce (in-place)
I0403 19:00:24.097213 18392 net.cpp:141] Setting up inception_3a/relu_5x5_reduce
I0403 19:00:24.097239 18392 net.cpp:148] Top shape: 24 16 28 28 (301056)
I0403 19:00:24.097254 18392 net.cpp:156] Memory required for data: 537084960
I0403 19:00:24.097268 18392 layer_factory.hpp:77] Creating layer inception_3a/5x5
I0403 19:00:24.097290 18392 net.cpp:91] Creating Layer inception_3a/5x5
I0403 19:00:24.097307 18392 net.cpp:425] inception_3a/5x5 <- inception_3a/5x5_reduce
I0403 19:00:24.097327 18392 net.cpp:399] inception_3a/5x5 -> inception_3a/5x5
I0403 19:00:24.098336 18392 net.cpp:141] Setting up inception_3a/5x5
I0403 19:00:24.098363 18392 net.cpp:148] Top shape: 24 32 28 28 (602112)
I0403 19:00:24.098379 18392 net.cpp:156] Memory required for data: 539493408
I0403 19:00:24.098399 18392 layer_factory.hpp:77] Creating layer inception_3a/relu_5x5
I0403 19:00:24.098418 18392 net.cpp:91] Creating Layer inception_3a/relu_5x5
I0403 19:00:24.098434 18392 net.cpp:425] inception_3a/relu_5x5 <- inception_3a/5x5
I0403 19:00:24.098450 18392 net.cpp:386] inception_3a/relu_5x5 -> inception_3a/5x5 (in-place)
I0403 19:00:24.098623 18392 net.cpp:141] Setting up inception_3a/relu_5x5
I0403 19:00:24.098647 18392 net.cpp:148] Top shape: 24 32 28 28 (602112)
I0403 19:00:24.098662 18392 net.cpp:156] Memory required for data: 541901856
I0403 19:00:24.098676 18392 layer_factory.hpp:77] Creating layer inception_3a/pool
I0403 19:00:24.098695 18392 net.cpp:91] Creating Layer inception_3a/pool
I0403 19:00:24.098723 18392 net.cpp:425] inception_3a/pool <- pool2/3x3_s2_pool2/3x3_s2_0_split_3
I0403 19:00:24.098745 18392 net.cpp:399] inception_3a/pool -> inception_3a/pool
I0403 19:00:24.098803 18392 net.cpp:141] Setting up inception_3a/pool
I0403 19:00:24.098825 18392 net.cpp:148] Top shape: 24 192 28 28 (3612672)
I0403 19:00:24.098839 18392 net.cpp:156] Memory required for data: 556352544
I0403 19:00:24.098852 18392 layer_factory.hpp:77] Creating layer inception_3a/pool_proj
I0403 19:00:24.098877 18392 net.cpp:91] Creating Layer inception_3a/pool_proj
I0403 19:00:24.098896 18392 net.cpp:425] inception_3a/pool_proj <- inception_3a/pool
I0403 19:00:24.098913 18392 net.cpp:399] inception_3a/pool_proj -> inception_3a/pool_proj
I0403 19:00:24.099879 18392 net.cpp:141] Setting up inception_3a/pool_proj
I0403 19:00:24.099906 18392 net.cpp:148] Top shape: 24 32 28 28 (602112)
I0403 19:00:24.099921 18392 net.cpp:156] Memory required for data: 558760992
I0403 19:00:24.099947 18392 layer_factory.hpp:77] Creating layer inception_3a/relu_pool_proj
I0403 19:00:24.099967 18392 net.cpp:91] Creating Layer inception_3a/relu_pool_proj
I0403 19:00:24.099987 18392 net.cpp:425] inception_3a/relu_pool_proj <- inception_3a/pool_proj
I0403 19:00:24.100008 18392 net.cpp:386] inception_3a/relu_pool_proj -> inception_3a/pool_proj (in-place)
I0403 19:00:24.100280 18392 net.cpp:141] Setting up inception_3a/relu_pool_proj
I0403 19:00:24.100307 18392 net.cpp:148] Top shape: 24 32 28 28 (602112)
I0403 19:00:24.100323 18392 net.cpp:156] Memory required for data: 561169440
I0403 19:00:24.100338 18392 layer_factory.hpp:77] Creating layer inception_3a/output
I0403 19:00:24.100356 18392 net.cpp:91] Creating Layer inception_3a/output
I0403 19:00:24.100373 18392 net.cpp:425] inception_3a/output <- inception_3a/1x1
I0403 19:00:24.100389 18392 net.cpp:425] inception_3a/output <- inception_3a/3x3
I0403 19:00:24.100404 18392 net.cpp:425] inception_3a/output <- inception_3a/5x5
I0403 19:00:24.100419 18392 net.cpp:425] inception_3a/output <- inception_3a/pool_proj
I0403 19:00:24.100437 18392 net.cpp:399] inception_3a/output -> inception_3a/output
I0403 19:00:24.100483 18392 net.cpp:141] Setting up inception_3a/output
I0403 19:00:24.100507 18392 net.cpp:148] Top shape: 24 256 28 28 (4816896)
I0403 19:00:24.100520 18392 net.cpp:156] Memory required for data: 580437024
I0403 19:00:24.100534 18392 layer_factory.hpp:77] Creating layer inception_3a/output_inception_3a/output_0_split
I0403 19:00:24.100554 18392 net.cpp:91] Creating Layer inception_3a/output_inception_3a/output_0_split
I0403 19:00:24.100570 18392 net.cpp:425] inception_3a/output_inception_3a/output_0_split <- inception_3a/output
I0403 19:00:24.100587 18392 net.cpp:399] inception_3a/output_inception_3a/output_0_split -> inception_3a/output_inception_3a/output_0_split_0
I0403 19:00:24.100606 18392 net.cpp:399] inception_3a/output_inception_3a/output_0_split -> inception_3a/output_inception_3a/output_0_split_1
I0403 19:00:24.100630 18392 net.cpp:399] inception_3a/output_inception_3a/output_0_split -> inception_3a/output_inception_3a/output_0_split_2
I0403 19:00:24.100651 18392 net.cpp:399] inception_3a/output_inception_3a/output_0_split -> inception_3a/output_inception_3a/output_0_split_3
I0403 19:00:24.100723 18392 net.cpp:141] Setting up inception_3a/output_inception_3a/output_0_split
I0403 19:00:24.100745 18392 net.cpp:148] Top shape: 24 256 28 28 (4816896)
I0403 19:00:24.100764 18392 net.cpp:148] Top shape: 24 256 28 28 (4816896)
I0403 19:00:24.100780 18392 net.cpp:148] Top shape: 24 256 28 28 (4816896)
I0403 19:00:24.100796 18392 net.cpp:148] Top shape: 24 256 28 28 (4816896)
I0403 19:00:24.100810 18392 net.cpp:156] Memory required for data: 657507360
I0403 19:00:24.100823 18392 layer_factory.hpp:77] Creating layer inception_3b/1x1
I0403 19:00:24.100846 18392 net.cpp:91] Creating Layer inception_3b/1x1
I0403 19:00:24.100862 18392 net.cpp:425] inception_3b/1x1 <- inception_3a/output_inception_3a/output_0_split_0
I0403 19:00:24.100880 18392 net.cpp:399] inception_3b/1x1 -> inception_3b/1x1
I0403 19:00:24.102007 18392 net.cpp:141] Setting up inception_3b/1x1
I0403 19:00:24.102046 18392 net.cpp:148] Top shape: 24 128 28 28 (2408448)
I0403 19:00:24.102062 18392 net.cpp:156] Memory required for data: 667141152
I0403 19:00:24.102080 18392 layer_factory.hpp:77] Creating layer inception_3b/relu_1x1
I0403 19:00:24.102100 18392 net.cpp:91] Creating Layer inception_3b/relu_1x1
I0403 19:00:24.102118 18392 net.cpp:425] inception_3b/relu_1x1 <- inception_3b/1x1
I0403 19:00:24.102134 18392 net.cpp:386] inception_3b/relu_1x1 -> inception_3b/1x1 (in-place)
I0403 19:00:24.102313 18392 net.cpp:141] Setting up inception_3b/relu_1x1
I0403 19:00:24.102339 18392 net.cpp:148] Top shape: 24 128 28 28 (2408448)
I0403 19:00:24.102355 18392 net.cpp:156] Memory required for data: 676774944
I0403 19:00:24.102370 18392 layer_factory.hpp:77] Creating layer inception_3b/3x3_reduce
I0403 19:00:24.102391 18392 net.cpp:91] Creating Layer inception_3b/3x3_reduce
I0403 19:00:24.102408 18392 net.cpp:425] inception_3b/3x3_reduce <- inception_3a/output_inception_3a/output_0_split_1
I0403 19:00:24.102427 18392 net.cpp:399] inception_3b/3x3_reduce -> inception_3b/3x3_reduce
I0403 19:00:24.103552 18392 net.cpp:141] Setting up inception_3b/3x3_reduce
I0403 19:00:24.103580 18392 net.cpp:148] Top shape: 24 128 28 28 (2408448)
I0403 19:00:24.103595 18392 net.cpp:156] Memory required for data: 686408736
I0403 19:00:24.103613 18392 layer_factory.hpp:77] Creating layer inception_3b/relu_3x3_reduce
I0403 19:00:24.103633 18392 net.cpp:91] Creating Layer inception_3b/relu_3x3_reduce
I0403 19:00:24.103651 18392 net.cpp:425] inception_3b/relu_3x3_reduce <- inception_3b/3x3_reduce
I0403 19:00:24.103667 18392 net.cpp:386] inception_3b/relu_3x3_reduce -> inception_3b/3x3_reduce (in-place)
I0403 19:00:24.103837 18392 net.cpp:141] Setting up inception_3b/relu_3x3_reduce
I0403 19:00:24.103864 18392 net.cpp:148] Top shape: 24 128 28 28 (2408448)
I0403 19:00:24.103879 18392 net.cpp:156] Memory required for data: 696042528
I0403 19:00:24.103893 18392 layer_factory.hpp:77] Creating layer inception_3b/3x3
I0403 19:00:24.103917 18392 net.cpp:91] Creating Layer inception_3b/3x3
I0403 19:00:24.103935 18392 net.cpp:425] inception_3b/3x3 <- inception_3b/3x3_reduce
I0403 19:00:24.103956 18392 net.cpp:399] inception_3b/3x3 -> inception_3b/3x3
I0403 19:00:24.106832 18392 net.cpp:141] Setting up inception_3b/3x3
I0403 19:00:24.106863 18392 net.cpp:148] Top shape: 24 192 28 28 (3612672)
I0403 19:00:24.106878 18392 net.cpp:156] Memory required for data: 710493216
I0403 19:00:24.106897 18392 layer_factory.hpp:77] Creating layer inception_3b/relu_3x3
I0403 19:00:24.106915 18392 net.cpp:91] Creating Layer inception_3b/relu_3x3
I0403 19:00:24.106931 18392 net.cpp:425] inception_3b/relu_3x3 <- inception_3b/3x3
I0403 19:00:24.106950 18392 net.cpp:386] inception_3b/relu_3x3 -> inception_3b/3x3 (in-place)
I0403 19:00:24.107229 18392 net.cpp:141] Setting up inception_3b/relu_3x3
I0403 19:00:24.107259 18392 net.cpp:148] Top shape: 24 192 28 28 (3612672)
I0403 19:00:24.107273 18392 net.cpp:156] Memory required for data: 724943904
I0403 19:00:24.107288 18392 layer_factory.hpp:77] Creating layer inception_3b/5x5_reduce
I0403 19:00:24.107311 18392 net.cpp:91] Creating Layer inception_3b/5x5_reduce
I0403 19:00:24.107328 18392 net.cpp:425] inception_3b/5x5_reduce <- inception_3a/output_inception_3a/output_0_split_2
I0403 19:00:24.107347 18392 net.cpp:399] inception_3b/5x5_reduce -> inception_3b/5x5_reduce
I0403 19:00:24.108330 18392 net.cpp:141] Setting up inception_3b/5x5_reduce
I0403 19:00:24.108360 18392 net.cpp:148] Top shape: 24 32 28 28 (602112)
I0403 19:00:24.108376 18392 net.cpp:156] Memory required for data: 727352352
I0403 19:00:24.108394 18392 layer_factory.hpp:77] Creating layer inception_3b/relu_5x5_reduce
I0403 19:00:24.108412 18392 net.cpp:91] Creating Layer inception_3b/relu_5x5_reduce
I0403 19:00:24.108428 18392 net.cpp:425] inception_3b/relu_5x5_reduce <- inception_3b/5x5_reduce
I0403 19:00:24.108446 18392 net.cpp:386] inception_3b/relu_5x5_reduce -> inception_3b/5x5_reduce (in-place)
I0403 19:00:24.108636 18392 net.cpp:141] Setting up inception_3b/relu_5x5_reduce
I0403 19:00:24.108661 18392 net.cpp:148] Top shape: 24 32 28 28 (602112)
I0403 19:00:24.108675 18392 net.cpp:156] Memory required for data: 729760800
I0403 19:00:24.108690 18392 layer_factory.hpp:77] Creating layer inception_3b/5x5
I0403 19:00:24.108712 18392 net.cpp:91] Creating Layer inception_3b/5x5
I0403 19:00:24.108729 18392 net.cpp:425] inception_3b/5x5 <- inception_3b/5x5_reduce
I0403 19:00:24.108750 18392 net.cpp:399] inception_3b/5x5 -> inception_3b/5x5
I0403 19:00:24.110724 18392 net.cpp:141] Setting up inception_3b/5x5
I0403 19:00:24.110754 18392 net.cpp:148] Top shape: 24 96 28 28 (1806336)
I0403 19:00:24.110769 18392 net.cpp:156] Memory required for data: 736986144
I0403 19:00:24.110787 18392 layer_factory.hpp:77] Creating layer inception_3b/relu_5x5
I0403 19:00:24.110810 18392 net.cpp:91] Creating Layer inception_3b/relu_5x5
I0403 19:00:24.110827 18392 net.cpp:425] inception_3b/relu_5x5 <- inception_3b/5x5
I0403 19:00:24.110844 18392 net.cpp:386] inception_3b/relu_5x5 -> inception_3b/5x5 (in-place)
I0403 19:00:24.111040 18392 net.cpp:141] Setting up inception_3b/relu_5x5
I0403 19:00:24.111066 18392 net.cpp:148] Top shape: 24 96 28 28 (1806336)
I0403 19:00:24.111080 18392 net.cpp:156] Memory required for data: 744211488
I0403 19:00:24.111094 18392 layer_factory.hpp:77] Creating layer inception_3b/pool
I0403 19:00:24.111111 18392 net.cpp:91] Creating Layer inception_3b/pool
I0403 19:00:24.111129 18392 net.cpp:425] inception_3b/pool <- inception_3a/output_inception_3a/output_0_split_3
I0403 19:00:24.111146 18392 net.cpp:399] inception_3b/pool -> inception_3b/pool
I0403 19:00:24.111212 18392 net.cpp:141] Setting up inception_3b/pool
I0403 19:00:24.111234 18392 net.cpp:148] Top shape: 24 256 28 28 (4816896)
I0403 19:00:24.111248 18392 net.cpp:156] Memory required for data: 763479072
I0403 19:00:24.111261 18392 layer_factory.hpp:77] Creating layer inception_3b/pool_proj
I0403 19:00:24.111284 18392 net.cpp:91] Creating Layer inception_3b/pool_proj
I0403 19:00:24.111301 18392 net.cpp:425] inception_3b/pool_proj <- inception_3b/pool
I0403 19:00:24.111320 18392 net.cpp:399] inception_3b/pool_proj -> inception_3b/pool_proj
I0403 19:00:24.112345 18392 net.cpp:141] Setting up inception_3b/pool_proj
I0403 19:00:24.112372 18392 net.cpp:148] Top shape: 24 64 28 28 (1204224)
I0403 19:00:24.112387 18392 net.cpp:156] Memory required for data: 768295968
I0403 19:00:24.112404 18392 layer_factory.hpp:77] Creating layer inception_3b/relu_pool_proj
I0403 19:00:24.112422 18392 net.cpp:91] Creating Layer inception_3b/relu_pool_proj
I0403 19:00:24.112438 18392 net.cpp:425] inception_3b/relu_pool_proj <- inception_3b/pool_proj
I0403 19:00:24.112457 18392 net.cpp:386] inception_3b/relu_pool_proj -> inception_3b/pool_proj (in-place)
I0403 19:00:24.112845 18392 net.cpp:141] Setting up inception_3b/relu_pool_proj
I0403 19:00:24.112870 18392 net.cpp:148] Top shape: 24 64 28 28 (1204224)
I0403 19:00:24.112886 18392 net.cpp:156] Memory required for data: 773112864
I0403 19:00:24.112900 18392 layer_factory.hpp:77] Creating layer inception_3b/output
I0403 19:00:24.112916 18392 net.cpp:91] Creating Layer inception_3b/output
I0403 19:00:24.112932 18392 net.cpp:425] inception_3b/output <- inception_3b/1x1
I0403 19:00:24.112947 18392 net.cpp:425] inception_3b/output <- inception_3b/3x3
I0403 19:00:24.112963 18392 net.cpp:425] inception_3b/output <- inception_3b/5x5
I0403 19:00:24.112982 18392 net.cpp:425] inception_3b/output <- inception_3b/pool_proj
I0403 19:00:24.113001 18392 net.cpp:399] inception_3b/output -> inception_3b/output
I0403 19:00:24.113044 18392 net.cpp:141] Setting up inception_3b/output
I0403 19:00:24.113065 18392 net.cpp:148] Top shape: 24 480 28 28 (9031680)
I0403 19:00:24.113080 18392 net.cpp:156] Memory required for data: 809239584
I0403 19:00:24.113095 18392 layer_factory.hpp:77] Creating layer pool3/3x3_s2
I0403 19:00:24.113113 18392 net.cpp:91] Creating Layer pool3/3x3_s2
I0403 19:00:24.113129 18392 net.cpp:425] pool3/3x3_s2 <- inception_3b/output
I0403 19:00:24.113165 18392 net.cpp:399] pool3/3x3_s2 -> pool3/3x3_s2
I0403 19:00:24.113221 18392 net.cpp:141] Setting up pool3/3x3_s2
I0403 19:00:24.113243 18392 net.cpp:148] Top shape: 24 480 14 14 (2257920)
I0403 19:00:24.113257 18392 net.cpp:156] Memory required for data: 818271264
I0403 19:00:24.113271 18392 layer_factory.hpp:77] Creating layer pool3/3x3_s2_pool3/3x3_s2_0_split
I0403 19:00:24.113289 18392 net.cpp:91] Creating Layer pool3/3x3_s2_pool3/3x3_s2_0_split
I0403 19:00:24.113306 18392 net.cpp:425] pool3/3x3_s2_pool3/3x3_s2_0_split <- pool3/3x3_s2
I0403 19:00:24.113322 18392 net.cpp:399] pool3/3x3_s2_pool3/3x3_s2_0_split -> pool3/3x3_s2_pool3/3x3_s2_0_split_0
I0403 19:00:24.113340 18392 net.cpp:399] pool3/3x3_s2_pool3/3x3_s2_0_split -> pool3/3x3_s2_pool3/3x3_s2_0_split_1
I0403 19:00:24.113359 18392 net.cpp:399] pool3/3x3_s2_pool3/3x3_s2_0_split -> pool3/3x3_s2_pool3/3x3_s2_0_split_2
I0403 19:00:24.113376 18392 net.cpp:399] pool3/3x3_s2_pool3/3x3_s2_0_split -> pool3/3x3_s2_pool3/3x3_s2_0_split_3
I0403 19:00:24.113450 18392 net.cpp:141] Setting up pool3/3x3_s2_pool3/3x3_s2_0_split
I0403 19:00:24.113471 18392 net.cpp:148] Top shape: 24 480 14 14 (2257920)
I0403 19:00:24.113487 18392 net.cpp:148] Top shape: 24 480 14 14 (2257920)
I0403 19:00:24.113502 18392 net.cpp:148] Top shape: 24 480 14 14 (2257920)
I0403 19:00:24.113517 18392 net.cpp:148] Top shape: 24 480 14 14 (2257920)
I0403 19:00:24.113530 18392 net.cpp:156] Memory required for data: 854397984
I0403 19:00:24.113544 18392 layer_factory.hpp:77] Creating layer inception_4a/1x1
I0403 19:00:24.113565 18392 net.cpp:91] Creating Layer inception_4a/1x1
I0403 19:00:24.113581 18392 net.cpp:425] inception_4a/1x1 <- pool3/3x3_s2_pool3/3x3_s2_0_split_0
I0403 19:00:24.113602 18392 net.cpp:399] inception_4a/1x1 -> inception_4a/1x1
I0403 19:00:24.115116 18392 net.cpp:141] Setting up inception_4a/1x1
I0403 19:00:24.115142 18392 net.cpp:148] Top shape: 24 192 14 14 (903168)
I0403 19:00:24.115157 18392 net.cpp:156] Memory required for data: 858010656
I0403 19:00:24.115175 18392 layer_factory.hpp:77] Creating layer inception_4a/relu_1x1
I0403 19:00:24.115195 18392 net.cpp:91] Creating Layer inception_4a/relu_1x1
I0403 19:00:24.115212 18392 net.cpp:425] inception_4a/relu_1x1 <- inception_4a/1x1
I0403 19:00:24.115229 18392 net.cpp:386] inception_4a/relu_1x1 -> inception_4a/1x1 (in-place)
I0403 19:00:24.115399 18392 net.cpp:141] Setting up inception_4a/relu_1x1
I0403 19:00:24.115425 18392 net.cpp:148] Top shape: 24 192 14 14 (903168)
I0403 19:00:24.115440 18392 net.cpp:156] Memory required for data: 861623328
I0403 19:00:24.115453 18392 layer_factory.hpp:77] Creating layer inception_4a/3x3_reduce
I0403 19:00:24.115473 18392 net.cpp:91] Creating Layer inception_4a/3x3_reduce
I0403 19:00:24.115489 18392 net.cpp:425] inception_4a/3x3_reduce <- pool3/3x3_s2_pool3/3x3_s2_0_split_1
I0403 19:00:24.115509 18392 net.cpp:399] inception_4a/3x3_reduce -> inception_4a/3x3_reduce
I0403 19:00:24.116729 18392 net.cpp:141] Setting up inception_4a/3x3_reduce
I0403 19:00:24.116756 18392 net.cpp:148] Top shape: 24 96 14 14 (451584)
I0403 19:00:24.116771 18392 net.cpp:156] Memory required for data: 863429664
I0403 19:00:24.116794 18392 layer_factory.hpp:77] Creating layer inception_4a/relu_3x3_reduce
I0403 19:00:24.116813 18392 net.cpp:91] Creating Layer inception_4a/relu_3x3_reduce
I0403 19:00:24.116828 18392 net.cpp:425] inception_4a/relu_3x3_reduce <- inception_4a/3x3_reduce
I0403 19:00:24.116848 18392 net.cpp:386] inception_4a/relu_3x3_reduce -> inception_4a/3x3_reduce (in-place)
I0403 19:00:24.117022 18392 net.cpp:141] Setting up inception_4a/relu_3x3_reduce
I0403 19:00:24.117045 18392 net.cpp:148] Top shape: 24 96 14 14 (451584)
I0403 19:00:24.117060 18392 net.cpp:156] Memory required for data: 865236000
I0403 19:00:24.117074 18392 layer_factory.hpp:77] Creating layer inception_4a/3x3
I0403 19:00:24.117097 18392 net.cpp:91] Creating Layer inception_4a/3x3
I0403 19:00:24.117113 18392 net.cpp:425] inception_4a/3x3 <- inception_4a/3x3_reduce
I0403 19:00:24.117133 18392 net.cpp:399] inception_4a/3x3 -> inception_4a/3x3
I0403 19:00:24.119720 18392 net.cpp:141] Setting up inception_4a/3x3
I0403 19:00:24.119748 18392 net.cpp:148] Top shape: 24 208 14 14 (978432)
I0403 19:00:24.119762 18392 net.cpp:156] Memory required for data: 869149728
I0403 19:00:24.119781 18392 layer_factory.hpp:77] Creating layer inception_4a/relu_3x3
I0403 19:00:24.119801 18392 net.cpp:91] Creating Layer inception_4a/relu_3x3
I0403 19:00:24.119817 18392 net.cpp:425] inception_4a/relu_3x3 <- inception_4a/3x3
I0403 19:00:24.119833 18392 net.cpp:386] inception_4a/relu_3x3 -> inception_4a/3x3 (in-place)
I0403 19:00:24.120107 18392 net.cpp:141] Setting up inception_4a/relu_3x3
I0403 19:00:24.120132 18392 net.cpp:148] Top shape: 24 208 14 14 (978432)
I0403 19:00:24.120147 18392 net.cpp:156] Memory required for data: 873063456
I0403 19:00:24.120162 18392 layer_factory.hpp:77] Creating layer inception_4a/5x5_reduce
I0403 19:00:24.120184 18392 net.cpp:91] Creating Layer inception_4a/5x5_reduce
I0403 19:00:24.120203 18392 net.cpp:425] inception_4a/5x5_reduce <- pool3/3x3_s2_pool3/3x3_s2_0_split_2
I0403 19:00:24.120223 18392 net.cpp:399] inception_4a/5x5_reduce -> inception_4a/5x5_reduce
I0403 19:00:24.121204 18392 net.cpp:141] Setting up inception_4a/5x5_reduce
I0403 19:00:24.121230 18392 net.cpp:148] Top shape: 24 16 14 14 (75264)
I0403 19:00:24.121245 18392 net.cpp:156] Memory required for data: 873364512
I0403 19:00:24.121265 18392 layer_factory.hpp:77] Creating layer inception_4a/relu_5x5_reduce
I0403 19:00:24.121284 18392 net.cpp:91] Creating Layer inception_4a/relu_5x5_reduce
I0403 19:00:24.121299 18392 net.cpp:425] inception_4a/relu_5x5_reduce <- inception_4a/5x5_reduce
I0403 19:00:24.121315 18392 net.cpp:386] inception_4a/relu_5x5_reduce -> inception_4a/5x5_reduce (in-place)
I0403 19:00:24.121490 18392 net.cpp:141] Setting up inception_4a/relu_5x5_reduce
I0403 19:00:24.121515 18392 net.cpp:148] Top shape: 24 16 14 14 (75264)
I0403 19:00:24.121528 18392 net.cpp:156] Memory required for data: 873665568
I0403 19:00:24.121542 18392 layer_factory.hpp:77] Creating layer inception_4a/5x5
I0403 19:00:24.121563 18392 net.cpp:91] Creating Layer inception_4a/5x5
I0403 19:00:24.121580 18392 net.cpp:425] inception_4a/5x5 <- inception_4a/5x5_reduce
I0403 19:00:24.121600 18392 net.cpp:399] inception_4a/5x5 -> inception_4a/5x5
I0403 19:00:24.122638 18392 net.cpp:141] Setting up inception_4a/5x5
I0403 19:00:24.122664 18392 net.cpp:148] Top shape: 24 48 14 14 (225792)
I0403 19:00:24.122679 18392 net.cpp:156] Memory required for data: 874568736
I0403 19:00:24.122697 18392 layer_factory.hpp:77] Creating layer inception_4a/relu_5x5
I0403 19:00:24.122715 18392 net.cpp:91] Creating Layer inception_4a/relu_5x5
I0403 19:00:24.122730 18392 net.cpp:425] inception_4a/relu_5x5 <- inception_4a/5x5
I0403 19:00:24.122750 18392 net.cpp:386] inception_4a/relu_5x5 -> inception_4a/5x5 (in-place)
I0403 19:00:24.122920 18392 net.cpp:141] Setting up inception_4a/relu_5x5
I0403 19:00:24.122943 18392 net.cpp:148] Top shape: 24 48 14 14 (225792)
I0403 19:00:24.122956 18392 net.cpp:156] Memory required for data: 875471904
I0403 19:00:24.122970 18392 layer_factory.hpp:77] Creating layer inception_4a/pool
I0403 19:00:24.123008 18392 net.cpp:91] Creating Layer inception_4a/pool
I0403 19:00:24.123028 18392 net.cpp:425] inception_4a/pool <- pool3/3x3_s2_pool3/3x3_s2_0_split_3
I0403 19:00:24.123052 18392 net.cpp:399] inception_4a/pool -> inception_4a/pool
I0403 19:00:24.123114 18392 net.cpp:141] Setting up inception_4a/pool
I0403 19:00:24.123137 18392 net.cpp:148] Top shape: 24 480 14 14 (2257920)
I0403 19:00:24.123152 18392 net.cpp:156] Memory required for data: 884503584
I0403 19:00:24.123167 18392 layer_factory.hpp:77] Creating layer inception_4a/pool_proj
I0403 19:00:24.123188 18392 net.cpp:91] Creating Layer inception_4a/pool_proj
I0403 19:00:24.123204 18392 net.cpp:425] inception_4a/pool_proj <- inception_4a/pool
I0403 19:00:24.123224 18392 net.cpp:399] inception_4a/pool_proj -> inception_4a/pool_proj
I0403 19:00:24.124388 18392 net.cpp:141] Setting up inception_4a/pool_proj
I0403 19:00:24.124416 18392 net.cpp:148] Top shape: 24 64 14 14 (301056)
I0403 19:00:24.124446 18392 net.cpp:156] Memory required for data: 885707808
I0403 19:00:24.124465 18392 layer_factory.hpp:77] Creating layer inception_4a/relu_pool_proj
I0403 19:00:24.124486 18392 net.cpp:91] Creating Layer inception_4a/relu_pool_proj
I0403 19:00:24.124503 18392 net.cpp:425] inception_4a/relu_pool_proj <- inception_4a/pool_proj
I0403 19:00:24.124521 18392 net.cpp:386] inception_4a/relu_pool_proj -> inception_4a/pool_proj (in-place)
I0403 19:00:24.124807 18392 net.cpp:141] Setting up inception_4a/relu_pool_proj
I0403 19:00:24.124833 18392 net.cpp:148] Top shape: 24 64 14 14 (301056)
I0403 19:00:24.124850 18392 net.cpp:156] Memory required for data: 886912032
I0403 19:00:24.124863 18392 layer_factory.hpp:77] Creating layer inception_4a/output
I0403 19:00:24.124881 18392 net.cpp:91] Creating Layer inception_4a/output
I0403 19:00:24.124896 18392 net.cpp:425] inception_4a/output <- inception_4a/1x1
I0403 19:00:24.124912 18392 net.cpp:425] inception_4a/output <- inception_4a/3x3
I0403 19:00:24.124932 18392 net.cpp:425] inception_4a/output <- inception_4a/5x5
I0403 19:00:24.124948 18392 net.cpp:425] inception_4a/output <- inception_4a/pool_proj
I0403 19:00:24.124964 18392 net.cpp:399] inception_4a/output -> inception_4a/output
I0403 19:00:24.125011 18392 net.cpp:141] Setting up inception_4a/output
I0403 19:00:24.125037 18392 net.cpp:148] Top shape: 24 512 14 14 (2408448)
I0403 19:00:24.125052 18392 net.cpp:156] Memory required for data: 896545824
I0403 19:00:24.125067 18392 layer_factory.hpp:77] Creating layer inception_4a/output_inception_4a/output_0_split
I0403 19:00:24.125084 18392 net.cpp:91] Creating Layer inception_4a/output_inception_4a/output_0_split
I0403 19:00:24.125099 18392 net.cpp:425] inception_4a/output_inception_4a/output_0_split <- inception_4a/output
I0403 19:00:24.125118 18392 net.cpp:399] inception_4a/output_inception_4a/output_0_split -> inception_4a/output_inception_4a/output_0_split_0
I0403 19:00:24.125140 18392 net.cpp:399] inception_4a/output_inception_4a/output_0_split -> inception_4a/output_inception_4a/output_0_split_1
I0403 19:00:24.125160 18392 net.cpp:399] inception_4a/output_inception_4a/output_0_split -> inception_4a/output_inception_4a/output_0_split_2
I0403 19:00:24.125180 18392 net.cpp:399] inception_4a/output_inception_4a/output_0_split -> inception_4a/output_inception_4a/output_0_split_3
I0403 19:00:24.125198 18392 net.cpp:399] inception_4a/output_inception_4a/output_0_split -> inception_4a/output_inception_4a/output_0_split_4
I0403 19:00:24.125289 18392 net.cpp:141] Setting up inception_4a/output_inception_4a/output_0_split
I0403 19:00:24.125313 18392 net.cpp:148] Top shape: 24 512 14 14 (2408448)
I0403 19:00:24.125330 18392 net.cpp:148] Top shape: 24 512 14 14 (2408448)
I0403 19:00:24.125346 18392 net.cpp:148] Top shape: 24 512 14 14 (2408448)
I0403 19:00:24.125361 18392 net.cpp:148] Top shape: 24 512 14 14 (2408448)
I0403 19:00:24.125376 18392 net.cpp:148] Top shape: 24 512 14 14 (2408448)
I0403 19:00:24.125391 18392 net.cpp:156] Memory required for data: 944714784
I0403 19:00:24.125404 18392 layer_factory.hpp:77] Creating layer loss1/ave_pool
I0403 19:00:24.125422 18392 net.cpp:91] Creating Layer loss1/ave_pool
I0403 19:00:24.125438 18392 net.cpp:425] loss1/ave_pool <- inception_4a/output_inception_4a/output_0_split_0
I0403 19:00:24.125458 18392 net.cpp:399] loss1/ave_pool -> loss1/ave_pool
I0403 19:00:24.125660 18392 net.cpp:141] Setting up loss1/ave_pool
I0403 19:00:24.125685 18392 net.cpp:148] Top shape: 24 512 4 4 (196608)
I0403 19:00:24.125700 18392 net.cpp:156] Memory required for data: 945501216
I0403 19:00:24.125715 18392 layer_factory.hpp:77] Creating layer loss1/conv
I0403 19:00:24.125737 18392 net.cpp:91] Creating Layer loss1/conv
I0403 19:00:24.125754 18392 net.cpp:425] loss1/conv <- loss1/ave_pool
I0403 19:00:24.125774 18392 net.cpp:399] loss1/conv -> loss1/conv
I0403 19:00:24.127171 18392 net.cpp:141] Setting up loss1/conv
I0403 19:00:24.127199 18392 net.cpp:148] Top shape: 24 128 4 4 (49152)
I0403 19:00:24.127228 18392 net.cpp:156] Memory required for data: 945697824
I0403 19:00:24.127249 18392 layer_factory.hpp:77] Creating layer loss1/relu_conv
I0403 19:00:24.127269 18392 net.cpp:91] Creating Layer loss1/relu_conv
I0403 19:00:24.127286 18392 net.cpp:425] loss1/relu_conv <- loss1/conv
I0403 19:00:24.127303 18392 net.cpp:386] loss1/relu_conv -> loss1/conv (in-place)
I0403 19:00:24.127585 18392 net.cpp:141] Setting up loss1/relu_conv
I0403 19:00:24.127612 18392 net.cpp:148] Top shape: 24 128 4 4 (49152)
I0403 19:00:24.127627 18392 net.cpp:156] Memory required for data: 945894432
I0403 19:00:24.127642 18392 layer_factory.hpp:77] Creating layer loss1/fc
I0403 19:00:24.127666 18392 net.cpp:91] Creating Layer loss1/fc
I0403 19:00:24.127686 18392 net.cpp:425] loss1/fc <- loss1/conv
I0403 19:00:24.127706 18392 net.cpp:399] loss1/fc -> loss1/fc
I0403 19:00:24.145225 18392 net.cpp:141] Setting up loss1/fc
I0403 19:00:24.145261 18392 net.cpp:148] Top shape: 24 1024 (24576)
I0403 19:00:24.145275 18392 net.cpp:156] Memory required for data: 945992736
I0403 19:00:24.145293 18392 layer_factory.hpp:77] Creating layer loss1/relu_fc
I0403 19:00:24.145310 18392 net.cpp:91] Creating Layer loss1/relu_fc
I0403 19:00:24.145325 18392 net.cpp:425] loss1/relu_fc <- loss1/fc
I0403 19:00:24.145344 18392 net.cpp:386] loss1/relu_fc -> loss1/fc (in-place)
I0403 19:00:24.145524 18392 net.cpp:141] Setting up loss1/relu_fc
I0403 19:00:24.145550 18392 net.cpp:148] Top shape: 24 1024 (24576)
I0403 19:00:24.145565 18392 net.cpp:156] Memory required for data: 946091040
I0403 19:00:24.145578 18392 layer_factory.hpp:77] Creating layer loss1/drop_fc
I0403 19:00:24.145603 18392 net.cpp:91] Creating Layer loss1/drop_fc
I0403 19:00:24.145620 18392 net.cpp:425] loss1/drop_fc <- loss1/fc
I0403 19:00:24.145637 18392 net.cpp:386] loss1/drop_fc -> loss1/fc (in-place)
I0403 19:00:24.145689 18392 net.cpp:141] Setting up loss1/drop_fc
I0403 19:00:24.145710 18392 net.cpp:148] Top shape: 24 1024 (24576)
I0403 19:00:24.145725 18392 net.cpp:156] Memory required for data: 946189344
I0403 19:00:24.145740 18392 layer_factory.hpp:77] Creating layer loss1/classifier_plantvillage
I0403 19:00:24.145757 18392 net.cpp:91] Creating Layer loss1/classifier_plantvillage
I0403 19:00:24.145773 18392 net.cpp:425] loss1/classifier_plantvillage <- loss1/fc
I0403 19:00:24.145794 18392 net.cpp:399] loss1/classifier_plantvillage -> loss1/classifier_plantvillage
I0403 19:00:24.146670 18392 net.cpp:141] Setting up loss1/classifier_plantvillage
I0403 19:00:24.146697 18392 net.cpp:148] Top shape: 24 38 (912)
I0403 19:00:24.146711 18392 net.cpp:156] Memory required for data: 946192992
I0403 19:00:24.146728 18392 layer_factory.hpp:77] Creating layer loss1/classifier_plantvillage_loss1/classifier_plantvillage_0_split
I0403 19:00:24.146749 18392 net.cpp:91] Creating Layer loss1/classifier_plantvillage_loss1/classifier_plantvillage_0_split
I0403 19:00:24.146765 18392 net.cpp:425] loss1/classifier_plantvillage_loss1/classifier_plantvillage_0_split <- loss1/classifier_plantvillage
I0403 19:00:24.146782 18392 net.cpp:399] loss1/classifier_plantvillage_loss1/classifier_plantvillage_0_split -> loss1/classifier_plantvillage_loss1/classifier_plantvillage_0_split_0
I0403 19:00:24.146802 18392 net.cpp:399] loss1/classifier_plantvillage_loss1/classifier_plantvillage_0_split -> loss1/classifier_plantvillage_loss1/classifier_plantvillage_0_split_1
I0403 19:00:24.146822 18392 net.cpp:399] loss1/classifier_plantvillage_loss1/classifier_plantvillage_0_split -> loss1/classifier_plantvillage_loss1/classifier_plantvillage_0_split_2
I0403 19:00:24.146888 18392 net.cpp:141] Setting up loss1/classifier_plantvillage_loss1/classifier_plantvillage_0_split
I0403 19:00:24.146909 18392 net.cpp:148] Top shape: 24 38 (912)
I0403 19:00:24.146924 18392 net.cpp:148] Top shape: 24 38 (912)
I0403 19:00:24.146939 18392 net.cpp:148] Top shape: 24 38 (912)
I0403 19:00:24.146953 18392 net.cpp:156] Memory required for data: 946203936
I0403 19:00:24.146967 18392 layer_factory.hpp:77] Creating layer inception_4b/1x1
I0403 19:00:24.146992 18392 net.cpp:91] Creating Layer inception_4b/1x1
I0403 19:00:24.147027 18392 net.cpp:425] inception_4b/1x1 <- inception_4a/output_inception_4a/output_0_split_1
I0403 19:00:24.147045 18392 net.cpp:399] inception_4b/1x1 -> inception_4b/1x1
I0403 19:00:24.148632 18392 net.cpp:141] Setting up inception_4b/1x1
I0403 19:00:24.148659 18392 net.cpp:148] Top shape: 24 160 14 14 (752640)
I0403 19:00:24.148674 18392 net.cpp:156] Memory required for data: 949214496
I0403 19:00:24.148691 18392 layer_factory.hpp:77] Creating layer inception_4b/relu_1x1
I0403 19:00:24.148711 18392 net.cpp:91] Creating Layer inception_4b/relu_1x1
I0403 19:00:24.148727 18392 net.cpp:425] inception_4b/relu_1x1 <- inception_4b/1x1
I0403 19:00:24.148743 18392 net.cpp:386] inception_4b/relu_1x1 -> inception_4b/1x1 (in-place)
I0403 19:00:24.148917 18392 net.cpp:141] Setting up inception_4b/relu_1x1
I0403 19:00:24.148941 18392 net.cpp:148] Top shape: 24 160 14 14 (752640)
I0403 19:00:24.148954 18392 net.cpp:156] Memory required for data: 952225056
I0403 19:00:24.148968 18392 layer_factory.hpp:77] Creating layer inception_4b/3x3_reduce
I0403 19:00:24.149003 18392 net.cpp:91] Creating Layer inception_4b/3x3_reduce
I0403 19:00:24.149021 18392 net.cpp:425] inception_4b/3x3_reduce <- inception_4a/output_inception_4a/output_0_split_2
I0403 19:00:24.149041 18392 net.cpp:399] inception_4b/3x3_reduce -> inception_4b/3x3_reduce
I0403 19:00:24.150351 18392 net.cpp:141] Setting up inception_4b/3x3_reduce
I0403 19:00:24.150377 18392 net.cpp:148] Top shape: 24 112 14 14 (526848)
I0403 19:00:24.150391 18392 net.cpp:156] Memory required for data: 954332448
I0403 19:00:24.150409 18392 layer_factory.hpp:77] Creating layer inception_4b/relu_3x3_reduce
I0403 19:00:24.150427 18392 net.cpp:91] Creating Layer inception_4b/relu_3x3_reduce
I0403 19:00:24.150442 18392 net.cpp:425] inception_4b/relu_3x3_reduce <- inception_4b/3x3_reduce
I0403 19:00:24.150461 18392 net.cpp:386] inception_4b/relu_3x3_reduce -> inception_4b/3x3_reduce (in-place)
I0403 19:00:24.150738 18392 net.cpp:141] Setting up inception_4b/relu_3x3_reduce
I0403 19:00:24.150763 18392 net.cpp:148] Top shape: 24 112 14 14 (526848)
I0403 19:00:24.150777 18392 net.cpp:156] Memory required for data: 956439840
I0403 19:00:24.150791 18392 layer_factory.hpp:77] Creating layer inception_4b/3x3
I0403 19:00:24.150813 18392 net.cpp:91] Creating Layer inception_4b/3x3
I0403 19:00:24.150830 18392 net.cpp:425] inception_4b/3x3 <- inception_4b/3x3_reduce
I0403 19:00:24.150851 18392 net.cpp:399] inception_4b/3x3 -> inception_4b/3x3
I0403 19:00:24.153762 18392 net.cpp:141] Setting up inception_4b/3x3
I0403 19:00:24.153790 18392 net.cpp:148] Top shape: 24 224 14 14 (1053696)
I0403 19:00:24.153805 18392 net.cpp:156] Memory required for data: 960654624
I0403 19:00:24.153823 18392 layer_factory.hpp:77] Creating layer inception_4b/relu_3x3
I0403 19:00:24.153842 18392 net.cpp:91] Creating Layer inception_4b/relu_3x3
I0403 19:00:24.153859 18392 net.cpp:425] inception_4b/relu_3x3 <- inception_4b/3x3
I0403 19:00:24.153877 18392 net.cpp:386] inception_4b/relu_3x3 -> inception_4b/3x3 (in-place)
I0403 19:00:24.154053 18392 net.cpp:141] Setting up inception_4b/relu_3x3
I0403 19:00:24.154080 18392 net.cpp:148] Top shape: 24 224 14 14 (1053696)
I0403 19:00:24.154095 18392 net.cpp:156] Memory required for data: 964869408
I0403 19:00:24.154109 18392 layer_factory.hpp:77] Creating layer inception_4b/5x5_reduce
I0403 19:00:24.154131 18392 net.cpp:91] Creating Layer inception_4b/5x5_reduce
I0403 19:00:24.154148 18392 net.cpp:425] inception_4b/5x5_reduce <- inception_4a/output_inception_4a/output_0_split_3
I0403 19:00:24.154166 18392 net.cpp:399] inception_4b/5x5_reduce -> inception_4b/5x5_reduce
I0403 19:00:24.155215 18392 net.cpp:141] Setting up inception_4b/5x5_reduce
I0403 19:00:24.155243 18392 net.cpp:148] Top shape: 24 24 14 14 (112896)
I0403 19:00:24.155258 18392 net.cpp:156] Memory required for data: 965320992
I0403 19:00:24.155277 18392 layer_factory.hpp:77] Creating layer inception_4b/relu_5x5_reduce
I0403 19:00:24.155293 18392 net.cpp:91] Creating Layer inception_4b/relu_5x5_reduce
I0403 19:00:24.155323 18392 net.cpp:425] inception_4b/relu_5x5_reduce <- inception_4b/5x5_reduce
I0403 19:00:24.155341 18392 net.cpp:386] inception_4b/relu_5x5_reduce -> inception_4b/5x5_reduce (in-place)
I0403 19:00:24.155520 18392 net.cpp:141] Setting up inception_4b/relu_5x5_reduce
I0403 19:00:24.155544 18392 net.cpp:148] Top shape: 24 24 14 14 (112896)
I0403 19:00:24.155558 18392 net.cpp:156] Memory required for data: 965772576
I0403 19:00:24.155572 18392 layer_factory.hpp:77] Creating layer inception_4b/5x5
I0403 19:00:24.155594 18392 net.cpp:91] Creating Layer inception_4b/5x5
I0403 19:00:24.155611 18392 net.cpp:425] inception_4b/5x5 <- inception_4b/5x5_reduce
I0403 19:00:24.155632 18392 net.cpp:399] inception_4b/5x5 -> inception_4b/5x5
I0403 19:00:24.156824 18392 net.cpp:141] Setting up inception_4b/5x5
I0403 19:00:24.156852 18392 net.cpp:148] Top shape: 24 64 14 14 (301056)
I0403 19:00:24.156867 18392 net.cpp:156] Memory required for data: 966976800
I0403 19:00:24.156884 18392 layer_factory.hpp:77] Creating layer inception_4b/relu_5x5
I0403 19:00:24.156903 18392 net.cpp:91] Creating Layer inception_4b/relu_5x5
I0403 19:00:24.156920 18392 net.cpp:425] inception_4b/relu_5x5 <- inception_4b/5x5
I0403 19:00:24.156936 18392 net.cpp:386] inception_4b/relu_5x5 -> inception_4b/5x5 (in-place)
I0403 19:00:24.157220 18392 net.cpp:141] Setting up inception_4b/relu_5x5
I0403 19:00:24.157245 18392 net.cpp:148] Top shape: 24 64 14 14 (301056)
I0403 19:00:24.157260 18392 net.cpp:156] Memory required for data: 968181024
I0403 19:00:24.157274 18392 layer_factory.hpp:77] Creating layer inception_4b/pool
I0403 19:00:24.157295 18392 net.cpp:91] Creating Layer inception_4b/pool
I0403 19:00:24.157312 18392 net.cpp:425] inception_4b/pool <- inception_4a/output_inception_4a/output_0_split_4
I0403 19:00:24.157332 18392 net.cpp:399] inception_4b/pool -> inception_4b/pool
I0403 19:00:24.157393 18392 net.cpp:141] Setting up inception_4b/pool
I0403 19:00:24.157416 18392 net.cpp:148] Top shape: 24 512 14 14 (2408448)
I0403 19:00:24.157429 18392 net.cpp:156] Memory required for data: 977814816
I0403 19:00:24.157444 18392 layer_factory.hpp:77] Creating layer inception_4b/pool_proj
I0403 19:00:24.157464 18392 net.cpp:91] Creating Layer inception_4b/pool_proj
I0403 19:00:24.157481 18392 net.cpp:425] inception_4b/pool_proj <- inception_4b/pool
I0403 19:00:24.157501 18392 net.cpp:399] inception_4b/pool_proj -> inception_4b/pool_proj
I0403 19:00:24.158661 18392 net.cpp:141] Setting up inception_4b/pool_proj
I0403 19:00:24.158690 18392 net.cpp:148] Top shape: 24 64 14 14 (301056)
I0403 19:00:24.158706 18392 net.cpp:156] Memory required for data: 979019040
I0403 19:00:24.158725 18392 layer_factory.hpp:77] Creating layer inception_4b/relu_pool_proj
I0403 19:00:24.158741 18392 net.cpp:91] Creating Layer inception_4b/relu_pool_proj
I0403 19:00:24.158757 18392 net.cpp:425] inception_4b/relu_pool_proj <- inception_4b/pool_proj
I0403 19:00:24.158776 18392 net.cpp:386] inception_4b/relu_pool_proj -> inception_4b/pool_proj (in-place)
I0403 19:00:24.158952 18392 net.cpp:141] Setting up inception_4b/relu_pool_proj
I0403 19:00:24.158977 18392 net.cpp:148] Top shape: 24 64 14 14 (301056)
I0403 19:00:24.159003 18392 net.cpp:156] Memory required for data: 980223264
I0403 19:00:24.159018 18392 layer_factory.hpp:77] Creating layer inception_4b/output
I0403 19:00:24.159034 18392 net.cpp:91] Creating Layer inception_4b/output
I0403 19:00:24.159049 18392 net.cpp:425] inception_4b/output <- inception_4b/1x1
I0403 19:00:24.159065 18392 net.cpp:425] inception_4b/output <- inception_4b/3x3
I0403 19:00:24.159080 18392 net.cpp:425] inception_4b/output <- inception_4b/5x5
I0403 19:00:24.159095 18392 net.cpp:425] inception_4b/output <- inception_4b/pool_proj
I0403 19:00:24.159113 18392 net.cpp:399] inception_4b/output -> inception_4b/output
I0403 19:00:24.159158 18392 net.cpp:141] Setting up inception_4b/output
I0403 19:00:24.159183 18392 net.cpp:148] Top shape: 24 512 14 14 (2408448)
I0403 19:00:24.159198 18392 net.cpp:156] Memory required for data: 989857056
I0403 19:00:24.159225 18392 layer_factory.hpp:77] Creating layer inception_4b/output_inception_4b/output_0_split
I0403 19:00:24.159243 18392 net.cpp:91] Creating Layer inception_4b/output_inception_4b/output_0_split
I0403 19:00:24.159258 18392 net.cpp:425] inception_4b/output_inception_4b/output_0_split <- inception_4b/output
I0403 19:00:24.159276 18392 net.cpp:399] inception_4b/output_inception_4b/output_0_split -> inception_4b/output_inception_4b/output_0_split_0
I0403 19:00:24.159296 18392 net.cpp:399] inception_4b/output_inception_4b/output_0_split -> inception_4b/output_inception_4b/output_0_split_1
I0403 19:00:24.159317 18392 net.cpp:399] inception_4b/output_inception_4b/output_0_split -> inception_4b/output_inception_4b/output_0_split_2
I0403 19:00:24.159337 18392 net.cpp:399] inception_4b/output_inception_4b/output_0_split -> inception_4b/output_inception_4b/output_0_split_3
I0403 19:00:24.159420 18392 net.cpp:141] Setting up inception_4b/output_inception_4b/output_0_split
I0403 19:00:24.159442 18392 net.cpp:148] Top shape: 24 512 14 14 (2408448)
I0403 19:00:24.159457 18392 net.cpp:148] Top shape: 24 512 14 14 (2408448)
I0403 19:00:24.159472 18392 net.cpp:148] Top shape: 24 512 14 14 (2408448)
I0403 19:00:24.159487 18392 net.cpp:148] Top shape: 24 512 14 14 (2408448)
I0403 19:00:24.159500 18392 net.cpp:156] Memory required for data: 1028392224
I0403 19:00:24.159514 18392 layer_factory.hpp:77] Creating layer inception_4c/1x1
I0403 19:00:24.159536 18392 net.cpp:91] Creating Layer inception_4c/1x1
I0403 19:00:24.159554 18392 net.cpp:425] inception_4c/1x1 <- inception_4b/output_inception_4b/output_0_split_0
I0403 19:00:24.159571 18392 net.cpp:399] inception_4c/1x1 -> inception_4c/1x1
I0403 19:00:24.160992 18392 net.cpp:141] Setting up inception_4c/1x1
I0403 19:00:24.161018 18392 net.cpp:148] Top shape: 24 128 14 14 (602112)
I0403 19:00:24.161033 18392 net.cpp:156] Memory required for data: 1030800672
I0403 19:00:24.161051 18392 layer_factory.hpp:77] Creating layer inception_4c/relu_1x1
I0403 19:00:24.161068 18392 net.cpp:91] Creating Layer inception_4c/relu_1x1
I0403 19:00:24.161084 18392 net.cpp:425] inception_4c/relu_1x1 <- inception_4c/1x1
I0403 19:00:24.161103 18392 net.cpp:386] inception_4c/relu_1x1 -> inception_4c/1x1 (in-place)
I0403 19:00:24.161278 18392 net.cpp:141] Setting up inception_4c/relu_1x1
I0403 19:00:24.161301 18392 net.cpp:148] Top shape: 24 128 14 14 (602112)
I0403 19:00:24.161315 18392 net.cpp:156] Memory required for data: 1033209120
I0403 19:00:24.161329 18392 layer_factory.hpp:77] Creating layer inception_4c/3x3_reduce
I0403 19:00:24.161352 18392 net.cpp:91] Creating Layer inception_4c/3x3_reduce
I0403 19:00:24.161370 18392 net.cpp:425] inception_4c/3x3_reduce <- inception_4b/output_inception_4b/output_0_split_1
I0403 19:00:24.161392 18392 net.cpp:399] inception_4c/3x3_reduce -> inception_4c/3x3_reduce
I0403 19:00:24.163297 18392 net.cpp:141] Setting up inception_4c/3x3_reduce
I0403 19:00:24.163327 18392 net.cpp:148] Top shape: 24 128 14 14 (602112)
I0403 19:00:24.163343 18392 net.cpp:156] Memory required for data: 1035617568
I0403 19:00:24.163362 18392 layer_factory.hpp:77] Creating layer inception_4c/relu_3x3_reduce
I0403 19:00:24.163379 18392 net.cpp:91] Creating Layer inception_4c/relu_3x3_reduce
I0403 19:00:24.163394 18392 net.cpp:425] inception_4c/relu_3x3_reduce <- inception_4c/3x3_reduce
I0403 19:00:24.163411 18392 net.cpp:386] inception_4c/relu_3x3_reduce -> inception_4c/3x3_reduce (in-place)
I0403 19:00:24.163688 18392 net.cpp:141] Setting up inception_4c/relu_3x3_reduce
I0403 19:00:24.163727 18392 net.cpp:148] Top shape: 24 128 14 14 (602112)
I0403 19:00:24.163743 18392 net.cpp:156] Memory required for data: 1038026016
I0403 19:00:24.163758 18392 layer_factory.hpp:77] Creating layer inception_4c/3x3
I0403 19:00:24.163779 18392 net.cpp:91] Creating Layer inception_4c/3x3
I0403 19:00:24.163794 18392 net.cpp:425] inception_4c/3x3 <- inception_4c/3x3_reduce
I0403 19:00:24.163816 18392 net.cpp:399] inception_4c/3x3 -> inception_4c/3x3
I0403 19:00:24.167361 18392 net.cpp:141] Setting up inception_4c/3x3
I0403 19:00:24.167402 18392 net.cpp:148] Top shape: 24 256 14 14 (1204224)
I0403 19:00:24.167419 18392 net.cpp:156] Memory required for data: 1042842912
I0403 19:00:24.167449 18392 layer_factory.hpp:77] Creating layer inception_4c/relu_3x3
I0403 19:00:24.167469 18392 net.cpp:91] Creating Layer inception_4c/relu_3x3
I0403 19:00:24.167484 18392 net.cpp:425] inception_4c/relu_3x3 <- inception_4c/3x3
I0403 19:00:24.167502 18392 net.cpp:386] inception_4c/relu_3x3 -> inception_4c/3x3 (in-place)
I0403 19:00:24.167677 18392 net.cpp:141] Setting up inception_4c/relu_3x3
I0403 19:00:24.167704 18392 net.cpp:148] Top shape: 24 256 14 14 (1204224)
I0403 19:00:24.167719 18392 net.cpp:156] Memory required for data: 1047659808
I0403 19:00:24.167733 18392 layer_factory.hpp:77] Creating layer inception_4c/5x5_reduce
I0403 19:00:24.167755 18392 net.cpp:91] Creating Layer inception_4c/5x5_reduce
I0403 19:00:24.167773 18392 net.cpp:425] inception_4c/5x5_reduce <- inception_4b/output_inception_4b/output_0_split_2
I0403 19:00:24.167790 18392 net.cpp:399] inception_4c/5x5_reduce -> inception_4c/5x5_reduce
I0403 19:00:24.168846 18392 net.cpp:141] Setting up inception_4c/5x5_reduce
I0403 19:00:24.168875 18392 net.cpp:148] Top shape: 24 24 14 14 (112896)
I0403 19:00:24.168892 18392 net.cpp:156] Memory required for data: 1048111392
I0403 19:00:24.168910 18392 layer_factory.hpp:77] Creating layer inception_4c/relu_5x5_reduce
I0403 19:00:24.168927 18392 net.cpp:91] Creating Layer inception_4c/relu_5x5_reduce
I0403 19:00:24.168943 18392 net.cpp:425] inception_4c/relu_5x5_reduce <- inception_4c/5x5_reduce
I0403 19:00:24.168959 18392 net.cpp:386] inception_4c/relu_5x5_reduce -> inception_4c/5x5_reduce (in-place)
I0403 19:00:24.169152 18392 net.cpp:141] Setting up inception_4c/relu_5x5_reduce
I0403 19:00:24.169178 18392 net.cpp:148] Top shape: 24 24 14 14 (112896)
I0403 19:00:24.169191 18392 net.cpp:156] Memory required for data: 1048562976
I0403 19:00:24.169206 18392 layer_factory.hpp:77] Creating layer inception_4c/5x5
I0403 19:00:24.169227 18392 net.cpp:91] Creating Layer inception_4c/5x5
I0403 19:00:24.169245 18392 net.cpp:425] inception_4c/5x5 <- inception_4c/5x5_reduce
I0403 19:00:24.169265 18392 net.cpp:399] inception_4c/5x5 -> inception_4c/5x5
I0403 19:00:24.170480 18392 net.cpp:141] Setting up inception_4c/5x5
I0403 19:00:24.170506 18392 net.cpp:148] Top shape: 24 64 14 14 (301056)
I0403 19:00:24.170521 18392 net.cpp:156] Memory required for data: 1049767200
I0403 19:00:24.170538 18392 layer_factory.hpp:77] Creating layer inception_4c/relu_5x5
I0403 19:00:24.170555 18392 net.cpp:91] Creating Layer inception_4c/relu_5x5
I0403 19:00:24.170570 18392 net.cpp:425] inception_4c/relu_5x5 <- inception_4c/5x5
I0403 19:00:24.170589 18392 net.cpp:386] inception_4c/relu_5x5 -> inception_4c/5x5 (in-place)
I0403 19:00:24.170876 18392 net.cpp:141] Setting up inception_4c/relu_5x5
I0403 19:00:24.170902 18392 net.cpp:148] Top shape: 24 64 14 14 (301056)
I0403 19:00:24.170917 18392 net.cpp:156] Memory required for data: 1050971424
I0403 19:00:24.170930 18392 layer_factory.hpp:77] Creating layer inception_4c/pool
I0403 19:00:24.170948 18392 net.cpp:91] Creating Layer inception_4c/pool
I0403 19:00:24.170964 18392 net.cpp:425] inception_4c/pool <- inception_4b/output_inception_4b/output_0_split_3
I0403 19:00:24.170987 18392 net.cpp:399] inception_4c/pool -> inception_4c/pool
I0403 19:00:24.171052 18392 net.cpp:141] Setting up inception_4c/pool
I0403 19:00:24.171074 18392 net.cpp:148] Top shape: 24 512 14 14 (2408448)
I0403 19:00:24.171088 18392 net.cpp:156] Memory required for data: 1060605216
I0403 19:00:24.171103 18392 layer_factory.hpp:77] Creating layer inception_4c/pool_proj
I0403 19:00:24.171125 18392 net.cpp:91] Creating Layer inception_4c/pool_proj
I0403 19:00:24.171141 18392 net.cpp:425] inception_4c/pool_proj <- inception_4c/pool
I0403 19:00:24.171159 18392 net.cpp:399] inception_4c/pool_proj -> inception_4c/pool_proj
I0403 19:00:24.172387 18392 net.cpp:141] Setting up inception_4c/pool_proj
I0403 19:00:24.172417 18392 net.cpp:148] Top shape: 24 64 14 14 (301056)
I0403 19:00:24.172446 18392 net.cpp:156] Memory required for data: 1061809440
I0403 19:00:24.172466 18392 layer_factory.hpp:77] Creating layer inception_4c/relu_pool_proj
I0403 19:00:24.172485 18392 net.cpp:91] Creating Layer inception_4c/relu_pool_proj
I0403 19:00:24.172502 18392 net.cpp:425] inception_4c/relu_pool_proj <- inception_4c/pool_proj
I0403 19:00:24.172520 18392 net.cpp:386] inception_4c/relu_pool_proj -> inception_4c/pool_proj (in-place)
I0403 19:00:24.172703 18392 net.cpp:141] Setting up inception_4c/relu_pool_proj
I0403 19:00:24.172729 18392 net.cpp:148] Top shape: 24 64 14 14 (301056)
I0403 19:00:24.172742 18392 net.cpp:156] Memory required for data: 1063013664
I0403 19:00:24.172757 18392 layer_factory.hpp:77] Creating layer inception_4c/output
I0403 19:00:24.172775 18392 net.cpp:91] Creating Layer inception_4c/output
I0403 19:00:24.172790 18392 net.cpp:425] inception_4c/output <- inception_4c/1x1
I0403 19:00:24.172806 18392 net.cpp:425] inception_4c/output <- inception_4c/3x3
I0403 19:00:24.172821 18392 net.cpp:425] inception_4c/output <- inception_4c/5x5
I0403 19:00:24.172837 18392 net.cpp:425] inception_4c/output <- inception_4c/pool_proj
I0403 19:00:24.172857 18392 net.cpp:399] inception_4c/output -> inception_4c/output
I0403 19:00:24.172904 18392 net.cpp:141] Setting up inception_4c/output
I0403 19:00:24.172930 18392 net.cpp:148] Top shape: 24 512 14 14 (2408448)
I0403 19:00:24.172943 18392 net.cpp:156] Memory required for data: 1072647456
I0403 19:00:24.172957 18392 layer_factory.hpp:77] Creating layer inception_4c/output_inception_4c/output_0_split
I0403 19:00:24.172973 18392 net.cpp:91] Creating Layer inception_4c/output_inception_4c/output_0_split
I0403 19:00:24.172993 18392 net.cpp:425] inception_4c/output_inception_4c/output_0_split <- inception_4c/output
I0403 19:00:24.173012 18392 net.cpp:399] inception_4c/output_inception_4c/output_0_split -> inception_4c/output_inception_4c/output_0_split_0
I0403 19:00:24.173034 18392 net.cpp:399] inception_4c/output_inception_4c/output_0_split -> inception_4c/output_inception_4c/output_0_split_1
I0403 19:00:24.173055 18392 net.cpp:399] inception_4c/output_inception_4c/output_0_split -> inception_4c/output_inception_4c/output_0_split_2
I0403 19:00:24.173075 18392 net.cpp:399] inception_4c/output_inception_4c/output_0_split -> inception_4c/output_inception_4c/output_0_split_3
I0403 19:00:24.173162 18392 net.cpp:141] Setting up inception_4c/output_inception_4c/output_0_split
I0403 19:00:24.173185 18392 net.cpp:148] Top shape: 24 512 14 14 (2408448)
I0403 19:00:24.173203 18392 net.cpp:148] Top shape: 24 512 14 14 (2408448)
I0403 19:00:24.173218 18392 net.cpp:148] Top shape: 24 512 14 14 (2408448)
I0403 19:00:24.173233 18392 net.cpp:148] Top shape: 24 512 14 14 (2408448)
I0403 19:00:24.173246 18392 net.cpp:156] Memory required for data: 1111182624
I0403 19:00:24.173260 18392 layer_factory.hpp:77] Creating layer inception_4d/1x1
I0403 19:00:24.173282 18392 net.cpp:91] Creating Layer inception_4d/1x1
I0403 19:00:24.173300 18392 net.cpp:425] inception_4d/1x1 <- inception_4c/output_inception_4c/output_0_split_0
I0403 19:00:24.173321 18392 net.cpp:399] inception_4d/1x1 -> inception_4d/1x1
I0403 19:00:24.174706 18392 net.cpp:141] Setting up inception_4d/1x1
I0403 19:00:24.174733 18392 net.cpp:148] Top shape: 24 112 14 14 (526848)
I0403 19:00:24.174749 18392 net.cpp:156] Memory required for data: 1113290016
I0403 19:00:24.174767 18392 layer_factory.hpp:77] Creating layer inception_4d/relu_1x1
I0403 19:00:24.174787 18392 net.cpp:91] Creating Layer inception_4d/relu_1x1
I0403 19:00:24.174803 18392 net.cpp:425] inception_4d/relu_1x1 <- inception_4d/1x1
I0403 19:00:24.174821 18392 net.cpp:386] inception_4d/relu_1x1 -> inception_4d/1x1 (in-place)
I0403 19:00:24.175011 18392 net.cpp:141] Setting up inception_4d/relu_1x1
I0403 19:00:24.175039 18392 net.cpp:148] Top shape: 24 112 14 14 (526848)
I0403 19:00:24.175053 18392 net.cpp:156] Memory required for data: 1115397408
I0403 19:00:24.175068 18392 layer_factory.hpp:77] Creating layer inception_4d/3x3_reduce
I0403 19:00:24.175104 18392 net.cpp:91] Creating Layer inception_4d/3x3_reduce
I0403 19:00:24.175123 18392 net.cpp:425] inception_4d/3x3_reduce <- inception_4c/output_inception_4c/output_0_split_1
I0403 19:00:24.175143 18392 net.cpp:399] inception_4d/3x3_reduce -> inception_4d/3x3_reduce
I0403 19:00:24.176653 18392 net.cpp:141] Setting up inception_4d/3x3_reduce
I0403 19:00:24.176681 18392 net.cpp:148] Top shape: 24 144 14 14 (677376)
I0403 19:00:24.176697 18392 net.cpp:156] Memory required for data: 1118106912
I0403 19:00:24.176715 18392 layer_factory.hpp:77] Creating layer inception_4d/relu_3x3_reduce
I0403 19:00:24.176734 18392 net.cpp:91] Creating Layer inception_4d/relu_3x3_reduce
I0403 19:00:24.176751 18392 net.cpp:425] inception_4d/relu_3x3_reduce <- inception_4d/3x3_reduce
I0403 19:00:24.176769 18392 net.cpp:386] inception_4d/relu_3x3_reduce -> inception_4d/3x3_reduce (in-place)
I0403 19:00:24.177068 18392 net.cpp:141] Setting up inception_4d/relu_3x3_reduce
I0403 19:00:24.177094 18392 net.cpp:148] Top shape: 24 144 14 14 (677376)
I0403 19:00:24.177109 18392 net.cpp:156] Memory required for data: 1120816416
I0403 19:00:24.177124 18392 layer_factory.hpp:77] Creating layer inception_4d/3x3
I0403 19:00:24.177146 18392 net.cpp:91] Creating Layer inception_4d/3x3
I0403 19:00:24.177165 18392 net.cpp:425] inception_4d/3x3 <- inception_4d/3x3_reduce
I0403 19:00:24.177186 18392 net.cpp:399] inception_4d/3x3 -> inception_4d/3x3
I0403 19:00:24.181443 18392 net.cpp:141] Setting up inception_4d/3x3
I0403 19:00:24.181471 18392 net.cpp:148] Top shape: 24 288 14 14 (1354752)
I0403 19:00:24.181488 18392 net.cpp:156] Memory required for data: 1126235424
I0403 19:00:24.181505 18392 layer_factory.hpp:77] Creating layer inception_4d/relu_3x3
I0403 19:00:24.181526 18392 net.cpp:91] Creating Layer inception_4d/relu_3x3
I0403 19:00:24.181543 18392 net.cpp:425] inception_4d/relu_3x3 <- inception_4d/3x3
I0403 19:00:24.181560 18392 net.cpp:386] inception_4d/relu_3x3 -> inception_4d/3x3 (in-place)
I0403 19:00:24.181748 18392 net.cpp:141] Setting up inception_4d/relu_3x3
I0403 19:00:24.181774 18392 net.cpp:148] Top shape: 24 288 14 14 (1354752)
I0403 19:00:24.181789 18392 net.cpp:156] Memory required for data: 1131654432
I0403 19:00:24.181803 18392 layer_factory.hpp:77] Creating layer inception_4d/5x5_reduce
I0403 19:00:24.181825 18392 net.cpp:91] Creating Layer inception_4d/5x5_reduce
I0403 19:00:24.181843 18392 net.cpp:425] inception_4d/5x5_reduce <- inception_4c/output_inception_4c/output_0_split_2
I0403 19:00:24.181861 18392 net.cpp:399] inception_4d/5x5_reduce -> inception_4d/5x5_reduce
I0403 19:00:24.183012 18392 net.cpp:141] Setting up inception_4d/5x5_reduce
I0403 19:00:24.183040 18392 net.cpp:148] Top shape: 24 32 14 14 (150528)
I0403 19:00:24.183056 18392 net.cpp:156] Memory required for data: 1132256544
I0403 19:00:24.183074 18392 layer_factory.hpp:77] Creating layer inception_4d/relu_5x5_reduce
I0403 19:00:24.183094 18392 net.cpp:91] Creating Layer inception_4d/relu_5x5_reduce
I0403 19:00:24.183111 18392 net.cpp:425] inception_4d/relu_5x5_reduce <- inception_4d/5x5_reduce
I0403 19:00:24.183128 18392 net.cpp:386] inception_4d/relu_5x5_reduce -> inception_4d/5x5_reduce (in-place)
I0403 19:00:24.183313 18392 net.cpp:141] Setting up inception_4d/relu_5x5_reduce
I0403 19:00:24.183341 18392 net.cpp:148] Top shape: 24 32 14 14 (150528)
I0403 19:00:24.183357 18392 net.cpp:156] Memory required for data: 1132858656
I0403 19:00:24.183372 18392 layer_factory.hpp:77] Creating layer inception_4d/5x5
I0403 19:00:24.183393 18392 net.cpp:91] Creating Layer inception_4d/5x5
I0403 19:00:24.183411 18392 net.cpp:425] inception_4d/5x5 <- inception_4d/5x5_reduce
I0403 19:00:24.183429 18392 net.cpp:399] inception_4d/5x5 -> inception_4d/5x5
I0403 19:00:24.184902 18392 net.cpp:141] Setting up inception_4d/5x5
I0403 19:00:24.184931 18392 net.cpp:148] Top shape: 24 64 14 14 (301056)
I0403 19:00:24.184945 18392 net.cpp:156] Memory required for data: 1134062880
I0403 19:00:24.184963 18392 layer_factory.hpp:77] Creating layer inception_4d/relu_5x5
I0403 19:00:24.185000 18392 net.cpp:91] Creating Layer inception_4d/relu_5x5
I0403 19:00:24.185019 18392 net.cpp:425] inception_4d/relu_5x5 <- inception_4d/5x5
I0403 19:00:24.185039 18392 net.cpp:386] inception_4d/relu_5x5 -> inception_4d/5x5 (in-place)
I0403 19:00:24.185349 18392 net.cpp:141] Setting up inception_4d/relu_5x5
I0403 19:00:24.185376 18392 net.cpp:148] Top shape: 24 64 14 14 (301056)
I0403 19:00:24.185391 18392 net.cpp:156] Memory required for data: 1135267104
I0403 19:00:24.185405 18392 layer_factory.hpp:77] Creating layer inception_4d/pool
I0403 19:00:24.185423 18392 net.cpp:91] Creating Layer inception_4d/pool
I0403 19:00:24.185439 18392 net.cpp:425] inception_4d/pool <- inception_4c/output_inception_4c/output_0_split_3
I0403 19:00:24.185461 18392 net.cpp:399] inception_4d/pool -> inception_4d/pool
I0403 19:00:24.185528 18392 net.cpp:141] Setting up inception_4d/pool
I0403 19:00:24.185550 18392 net.cpp:148] Top shape: 24 512 14 14 (2408448)
I0403 19:00:24.185565 18392 net.cpp:156] Memory required for data: 1144900896
I0403 19:00:24.185580 18392 layer_factory.hpp:77] Creating layer inception_4d/pool_proj
I0403 19:00:24.185602 18392 net.cpp:91] Creating Layer inception_4d/pool_proj
I0403 19:00:24.185621 18392 net.cpp:425] inception_4d/pool_proj <- inception_4d/pool
I0403 19:00:24.185638 18392 net.cpp:399] inception_4d/pool_proj -> inception_4d/pool_proj
I0403 19:00:24.187402 18392 net.cpp:141] Setting up inception_4d/pool_proj
I0403 19:00:24.187432 18392 net.cpp:148] Top shape: 24 64 14 14 (301056)
I0403 19:00:24.187446 18392 net.cpp:156] Memory required for data: 1146105120
I0403 19:00:24.187464 18392 layer_factory.hpp:77] Creating layer inception_4d/relu_pool_proj
I0403 19:00:24.187485 18392 net.cpp:91] Creating Layer inception_4d/relu_pool_proj
I0403 19:00:24.187502 18392 net.cpp:425] inception_4d/relu_pool_proj <- inception_4d/pool_proj
I0403 19:00:24.187520 18392 net.cpp:386] inception_4d/relu_pool_proj -> inception_4d/pool_proj (in-place)
I0403 19:00:24.187705 18392 net.cpp:141] Setting up inception_4d/relu_pool_proj
I0403 19:00:24.187732 18392 net.cpp:148] Top shape: 24 64 14 14 (301056)
I0403 19:00:24.187747 18392 net.cpp:156] Memory required for data: 1147309344
I0403 19:00:24.187763 18392 layer_factory.hpp:77] Creating layer inception_4d/output
I0403 19:00:24.187780 18392 net.cpp:91] Creating Layer inception_4d/output
I0403 19:00:24.187796 18392 net.cpp:425] inception_4d/output <- inception_4d/1x1
I0403 19:00:24.187813 18392 net.cpp:425] inception_4d/output <- inception_4d/3x3
I0403 19:00:24.187829 18392 net.cpp:425] inception_4d/output <- inception_4d/5x5
I0403 19:00:24.187844 18392 net.cpp:425] inception_4d/output <- inception_4d/pool_proj
I0403 19:00:24.187866 18392 net.cpp:399] inception_4d/output -> inception_4d/output
I0403 19:00:24.187913 18392 net.cpp:141] Setting up inception_4d/output
I0403 19:00:24.187937 18392 net.cpp:148] Top shape: 24 528 14 14 (2483712)
I0403 19:00:24.187952 18392 net.cpp:156] Memory required for data: 1157244192
I0403 19:00:24.187965 18392 layer_factory.hpp:77] Creating layer inception_4d/output_inception_4d/output_0_split
I0403 19:00:24.187989 18392 net.cpp:91] Creating Layer inception_4d/output_inception_4d/output_0_split
I0403 19:00:24.188007 18392 net.cpp:425] inception_4d/output_inception_4d/output_0_split <- inception_4d/output
I0403 19:00:24.188025 18392 net.cpp:399] inception_4d/output_inception_4d/output_0_split -> inception_4d/output_inception_4d/output_0_split_0
I0403 19:00:24.188045 18392 net.cpp:399] inception_4d/output_inception_4d/output_0_split -> inception_4d/output_inception_4d/output_0_split_1
I0403 19:00:24.188071 18392 net.cpp:399] inception_4d/output_inception_4d/output_0_split -> inception_4d/output_inception_4d/output_0_split_2
I0403 19:00:24.188091 18392 net.cpp:399] inception_4d/output_inception_4d/output_0_split -> inception_4d/output_inception_4d/output_0_split_3
I0403 19:00:24.188112 18392 net.cpp:399] inception_4d/output_inception_4d/output_0_split -> inception_4d/output_inception_4d/output_0_split_4
I0403 19:00:24.188213 18392 net.cpp:141] Setting up inception_4d/output_inception_4d/output_0_split
I0403 19:00:24.188249 18392 net.cpp:148] Top shape: 24 528 14 14 (2483712)
I0403 19:00:24.188266 18392 net.cpp:148] Top shape: 24 528 14 14 (2483712)
I0403 19:00:24.188282 18392 net.cpp:148] Top shape: 24 528 14 14 (2483712)
I0403 19:00:24.188297 18392 net.cpp:148] Top shape: 24 528 14 14 (2483712)
I0403 19:00:24.188313 18392 net.cpp:148] Top shape: 24 528 14 14 (2483712)
I0403 19:00:24.188326 18392 net.cpp:156] Memory required for data: 1206918432
I0403 19:00:24.188340 18392 layer_factory.hpp:77] Creating layer loss2/ave_pool
I0403 19:00:24.188360 18392 net.cpp:91] Creating Layer loss2/ave_pool
I0403 19:00:24.188377 18392 net.cpp:425] loss2/ave_pool <- inception_4d/output_inception_4d/output_0_split_0
I0403 19:00:24.188395 18392 net.cpp:399] loss2/ave_pool -> loss2/ave_pool
I0403 19:00:24.188714 18392 net.cpp:141] Setting up loss2/ave_pool
I0403 19:00:24.188741 18392 net.cpp:148] Top shape: 24 528 4 4 (202752)
I0403 19:00:24.188756 18392 net.cpp:156] Memory required for data: 1207729440
I0403 19:00:24.188771 18392 layer_factory.hpp:77] Creating layer loss2/conv
I0403 19:00:24.188793 18392 net.cpp:91] Creating Layer loss2/conv
I0403 19:00:24.188812 18392 net.cpp:425] loss2/conv <- loss2/ave_pool
I0403 19:00:24.188832 18392 net.cpp:399] loss2/conv -> loss2/conv
I0403 19:00:24.190727 18392 net.cpp:141] Setting up loss2/conv
I0403 19:00:24.190757 18392 net.cpp:148] Top shape: 24 128 4 4 (49152)
I0403 19:00:24.190774 18392 net.cpp:156] Memory required for data: 1207926048
I0403 19:00:24.190793 18392 layer_factory.hpp:77] Creating layer loss2/relu_conv
I0403 19:00:24.190809 18392 net.cpp:91] Creating Layer loss2/relu_conv
I0403 19:00:24.190825 18392 net.cpp:425] loss2/relu_conv <- loss2/conv
I0403 19:00:24.190845 18392 net.cpp:386] loss2/relu_conv -> loss2/conv (in-place)
I0403 19:00:24.191128 18392 net.cpp:141] Setting up loss2/relu_conv
I0403 19:00:24.191155 18392 net.cpp:148] Top shape: 24 128 4 4 (49152)
I0403 19:00:24.191170 18392 net.cpp:156] Memory required for data: 1208122656
I0403 19:00:24.191184 18392 layer_factory.hpp:77] Creating layer loss2/fc
I0403 19:00:24.191202 18392 net.cpp:91] Creating Layer loss2/fc
I0403 19:00:24.191217 18392 net.cpp:425] loss2/fc <- loss2/conv
I0403 19:00:24.191238 18392 net.cpp:399] loss2/fc -> loss2/fc
I0403 19:00:24.208571 18392 net.cpp:141] Setting up loss2/fc
I0403 19:00:24.208605 18392 net.cpp:148] Top shape: 24 1024 (24576)
I0403 19:00:24.208619 18392 net.cpp:156] Memory required for data: 1208220960
I0403 19:00:24.208636 18392 layer_factory.hpp:77] Creating layer loss2/relu_fc
I0403 19:00:24.208657 18392 net.cpp:91] Creating Layer loss2/relu_fc
I0403 19:00:24.208673 18392 net.cpp:425] loss2/relu_fc <- loss2/fc
I0403 19:00:24.208690 18392 net.cpp:386] loss2/relu_fc -> loss2/fc (in-place)
I0403 19:00:24.208988 18392 net.cpp:141] Setting up loss2/relu_fc
I0403 19:00:24.209014 18392 net.cpp:148] Top shape: 24 1024 (24576)
I0403 19:00:24.209028 18392 net.cpp:156] Memory required for data: 1208319264
I0403 19:00:24.209043 18392 layer_factory.hpp:77] Creating layer loss2/drop_fc
I0403 19:00:24.209063 18392 net.cpp:91] Creating Layer loss2/drop_fc
I0403 19:00:24.209091 18392 net.cpp:425] loss2/drop_fc <- loss2/fc
I0403 19:00:24.209108 18392 net.cpp:386] loss2/drop_fc -> loss2/fc (in-place)
I0403 19:00:24.209161 18392 net.cpp:141] Setting up loss2/drop_fc
I0403 19:00:24.209183 18392 net.cpp:148] Top shape: 24 1024 (24576)
I0403 19:00:24.209198 18392 net.cpp:156] Memory required for data: 1208417568
I0403 19:00:24.209213 18392 layer_factory.hpp:77] Creating layer loss2/classifier_plantvillage
I0403 19:00:24.209234 18392 net.cpp:91] Creating Layer loss2/classifier_plantvillage
I0403 19:00:24.209251 18392 net.cpp:425] loss2/classifier_plantvillage <- loss2/fc
I0403 19:00:24.209270 18392 net.cpp:399] loss2/classifier_plantvillage -> loss2/classifier_plantvillage
I0403 19:00:24.209676 18392 net.cpp:141] Setting up loss2/classifier_plantvillage
I0403 19:00:24.209699 18392 net.cpp:148] Top shape: 24 38 (912)
I0403 19:00:24.209729 18392 net.cpp:156] Memory required for data: 1208421216
I0403 19:00:24.209748 18392 layer_factory.hpp:77] Creating layer loss2/classifier_plantvillage_loss2/classifier_plantvillage_0_split
I0403 19:00:24.209765 18392 net.cpp:91] Creating Layer loss2/classifier_plantvillage_loss2/classifier_plantvillage_0_split
I0403 19:00:24.209781 18392 net.cpp:425] loss2/classifier_plantvillage_loss2/classifier_plantvillage_0_split <- loss2/classifier_plantvillage
I0403 19:00:24.209800 18392 net.cpp:399] loss2/classifier_plantvillage_loss2/classifier_plantvillage_0_split -> loss2/classifier_plantvillage_loss2/classifier_plantvillage_0_split_0
I0403 19:00:24.209820 18392 net.cpp:399] loss2/classifier_plantvillage_loss2/classifier_plantvillage_0_split -> loss2/classifier_plantvillage_loss2/classifier_plantvillage_0_split_1
I0403 19:00:24.209841 18392 net.cpp:399] loss2/classifier_plantvillage_loss2/classifier_plantvillage_0_split -> loss2/classifier_plantvillage_loss2/classifier_plantvillage_0_split_2
I0403 19:00:24.209915 18392 net.cpp:141] Setting up loss2/classifier_plantvillage_loss2/classifier_plantvillage_0_split
I0403 19:00:24.209942 18392 net.cpp:148] Top shape: 24 38 (912)
I0403 19:00:24.209959 18392 net.cpp:148] Top shape: 24 38 (912)
I0403 19:00:24.209974 18392 net.cpp:148] Top shape: 24 38 (912)
I0403 19:00:24.209991 18392 net.cpp:156] Memory required for data: 1208432160
I0403 19:00:24.210005 18392 layer_factory.hpp:77] Creating layer inception_4e/1x1
I0403 19:00:24.210024 18392 net.cpp:91] Creating Layer inception_4e/1x1
I0403 19:00:24.210041 18392 net.cpp:425] inception_4e/1x1 <- inception_4d/output_inception_4d/output_0_split_1
I0403 19:00:24.210059 18392 net.cpp:399] inception_4e/1x1 -> inception_4e/1x1
I0403 19:00:24.211891 18392 net.cpp:141] Setting up inception_4e/1x1
I0403 19:00:24.211920 18392 net.cpp:148] Top shape: 24 256 14 14 (1204224)
I0403 19:00:24.211935 18392 net.cpp:156] Memory required for data: 1213249056
I0403 19:00:24.211952 18392 layer_factory.hpp:77] Creating layer inception_4e/relu_1x1
I0403 19:00:24.211971 18392 net.cpp:91] Creating Layer inception_4e/relu_1x1
I0403 19:00:24.211990 18392 net.cpp:425] inception_4e/relu_1x1 <- inception_4e/1x1
I0403 19:00:24.212010 18392 net.cpp:386] inception_4e/relu_1x1 -> inception_4e/1x1 (in-place)
I0403 19:00:24.212322 18392 net.cpp:141] Setting up inception_4e/relu_1x1
I0403 19:00:24.212348 18392 net.cpp:148] Top shape: 24 256 14 14 (1204224)
I0403 19:00:24.212363 18392 net.cpp:156] Memory required for data: 1218065952
I0403 19:00:24.212389 18392 layer_factory.hpp:77] Creating layer inception_4e/3x3_reduce
I0403 19:00:24.212410 18392 net.cpp:91] Creating Layer inception_4e/3x3_reduce
I0403 19:00:24.212429 18392 net.cpp:425] inception_4e/3x3_reduce <- inception_4d/output_inception_4d/output_0_split_2
I0403 19:00:24.212448 18392 net.cpp:399] inception_4e/3x3_reduce -> inception_4e/3x3_reduce
I0403 19:00:24.214540 18392 net.cpp:141] Setting up inception_4e/3x3_reduce
I0403 19:00:24.214570 18392 net.cpp:148] Top shape: 24 160 14 14 (752640)
I0403 19:00:24.214586 18392 net.cpp:156] Memory required for data: 1221076512
I0403 19:00:24.214603 18392 layer_factory.hpp:77] Creating layer inception_4e/relu_3x3_reduce
I0403 19:00:24.214622 18392 net.cpp:91] Creating Layer inception_4e/relu_3x3_reduce
I0403 19:00:24.214638 18392 net.cpp:425] inception_4e/relu_3x3_reduce <- inception_4e/3x3_reduce
I0403 19:00:24.214656 18392 net.cpp:386] inception_4e/relu_3x3_reduce -> inception_4e/3x3_reduce (in-place)
I0403 19:00:24.214840 18392 net.cpp:141] Setting up inception_4e/relu_3x3_reduce
I0403 19:00:24.214865 18392 net.cpp:148] Top shape: 24 160 14 14 (752640)
I0403 19:00:24.214879 18392 net.cpp:156] Memory required for data: 1224087072
I0403 19:00:24.214893 18392 layer_factory.hpp:77] Creating layer inception_4e/3x3
I0403 19:00:24.214915 18392 net.cpp:91] Creating Layer inception_4e/3x3
I0403 19:00:24.214932 18392 net.cpp:425] inception_4e/3x3 <- inception_4e/3x3_reduce
I0403 19:00:24.214953 18392 net.cpp:399] inception_4e/3x3 -> inception_4e/3x3
I0403 19:00:24.219820 18392 net.cpp:141] Setting up inception_4e/3x3
I0403 19:00:24.219859 18392 net.cpp:148] Top shape: 24 320 14 14 (1505280)
I0403 19:00:24.219877 18392 net.cpp:156] Memory required for data: 1230108192
I0403 19:00:24.219893 18392 layer_factory.hpp:77] Creating layer inception_4e/relu_3x3
I0403 19:00:24.219913 18392 net.cpp:91] Creating Layer inception_4e/relu_3x3
I0403 19:00:24.219930 18392 net.cpp:425] inception_4e/relu_3x3 <- inception_4e/3x3
I0403 19:00:24.219947 18392 net.cpp:386] inception_4e/relu_3x3 -> inception_4e/3x3 (in-place)
I0403 19:00:24.220247 18392 net.cpp:141] Setting up inception_4e/relu_3x3
I0403 19:00:24.220273 18392 net.cpp:148] Top shape: 24 320 14 14 (1505280)
I0403 19:00:24.220288 18392 net.cpp:156] Memory required for data: 1236129312
I0403 19:00:24.220301 18392 layer_factory.hpp:77] Creating layer inception_4e/5x5_reduce
I0403 19:00:24.220324 18392 net.cpp:91] Creating Layer inception_4e/5x5_reduce
I0403 19:00:24.220342 18392 net.cpp:425] inception_4e/5x5_reduce <- inception_4d/output_inception_4d/output_0_split_3
I0403 19:00:24.220365 18392 net.cpp:399] inception_4e/5x5_reduce -> inception_4e/5x5_reduce
I0403 19:00:24.221410 18392 net.cpp:141] Setting up inception_4e/5x5_reduce
I0403 19:00:24.221437 18392 net.cpp:148] Top shape: 24 32 14 14 (150528)
I0403 19:00:24.221452 18392 net.cpp:156] Memory required for data: 1236731424
I0403 19:00:24.221469 18392 layer_factory.hpp:77] Creating layer inception_4e/relu_5x5_reduce
I0403 19:00:24.221487 18392 net.cpp:91] Creating Layer inception_4e/relu_5x5_reduce
I0403 19:00:24.221503 18392 net.cpp:425] inception_4e/relu_5x5_reduce <- inception_4e/5x5_reduce
I0403 19:00:24.221521 18392 net.cpp:386] inception_4e/relu_5x5_reduce -> inception_4e/5x5_reduce (in-place)
I0403 19:00:24.221880 18392 net.cpp:141] Setting up inception_4e/relu_5x5_reduce
I0403 19:00:24.221906 18392 net.cpp:148] Top shape: 24 32 14 14 (150528)
I0403 19:00:24.221921 18392 net.cpp:156] Memory required for data: 1237333536
I0403 19:00:24.221936 18392 layer_factory.hpp:77] Creating layer inception_4e/5x5
I0403 19:00:24.221972 18392 net.cpp:91] Creating Layer inception_4e/5x5
I0403 19:00:24.221995 18392 net.cpp:425] inception_4e/5x5 <- inception_4e/5x5_reduce
I0403 19:00:24.222015 18392 net.cpp:399] inception_4e/5x5 -> inception_4e/5x5
I0403 19:00:24.223809 18392 net.cpp:141] Setting up inception_4e/5x5
I0403 19:00:24.223839 18392 net.cpp:148] Top shape: 24 128 14 14 (602112)
I0403 19:00:24.223855 18392 net.cpp:156] Memory required for data: 1239741984
I0403 19:00:24.223875 18392 layer_factory.hpp:77] Creating layer inception_4e/relu_5x5
I0403 19:00:24.223891 18392 net.cpp:91] Creating Layer inception_4e/relu_5x5
I0403 19:00:24.223907 18392 net.cpp:425] inception_4e/relu_5x5 <- inception_4e/5x5
I0403 19:00:24.223924 18392 net.cpp:386] inception_4e/relu_5x5 -> inception_4e/5x5 (in-place)
I0403 19:00:24.224125 18392 net.cpp:141] Setting up inception_4e/relu_5x5
I0403 19:00:24.224149 18392 net.cpp:148] Top shape: 24 128 14 14 (602112)
I0403 19:00:24.224164 18392 net.cpp:156] Memory required for data: 1242150432
I0403 19:00:24.224179 18392 layer_factory.hpp:77] Creating layer inception_4e/pool
I0403 19:00:24.224195 18392 net.cpp:91] Creating Layer inception_4e/pool
I0403 19:00:24.224212 18392 net.cpp:425] inception_4e/pool <- inception_4d/output_inception_4d/output_0_split_4
I0403 19:00:24.224232 18392 net.cpp:399] inception_4e/pool -> inception_4e/pool
I0403 19:00:24.224301 18392 net.cpp:141] Setting up inception_4e/pool
I0403 19:00:24.224326 18392 net.cpp:148] Top shape: 24 528 14 14 (2483712)
I0403 19:00:24.224340 18392 net.cpp:156] Memory required for data: 1252085280
I0403 19:00:24.224354 18392 layer_factory.hpp:77] Creating layer inception_4e/pool_proj
I0403 19:00:24.224375 18392 net.cpp:91] Creating Layer inception_4e/pool_proj
I0403 19:00:24.224391 18392 net.cpp:425] inception_4e/pool_proj <- inception_4e/pool
I0403 19:00:24.224409 18392 net.cpp:399] inception_4e/pool_proj -> inception_4e/pool_proj
I0403 19:00:24.225872 18392 net.cpp:141] Setting up inception_4e/pool_proj
I0403 19:00:24.225909 18392 net.cpp:148] Top shape: 24 128 14 14 (602112)
I0403 19:00:24.225929 18392 net.cpp:156] Memory required for data: 1254493728
I0403 19:00:24.225949 18392 layer_factory.hpp:77] Creating layer inception_4e/relu_pool_proj
I0403 19:00:24.225966 18392 net.cpp:91] Creating Layer inception_4e/relu_pool_proj
I0403 19:00:24.225986 18392 net.cpp:425] inception_4e/relu_pool_proj <- inception_4e/pool_proj
I0403 19:00:24.226004 18392 net.cpp:386] inception_4e/relu_pool_proj -> inception_4e/pool_proj (in-place)
I0403 19:00:24.226292 18392 net.cpp:141] Setting up inception_4e/relu_pool_proj
I0403 19:00:24.226318 18392 net.cpp:148] Top shape: 24 128 14 14 (602112)
I0403 19:00:24.226336 18392 net.cpp:156] Memory required for data: 1256902176
I0403 19:00:24.226351 18392 layer_factory.hpp:77] Creating layer inception_4e/output
I0403 19:00:24.226367 18392 net.cpp:91] Creating Layer inception_4e/output
I0403 19:00:24.226382 18392 net.cpp:425] inception_4e/output <- inception_4e/1x1
I0403 19:00:24.226398 18392 net.cpp:425] inception_4e/output <- inception_4e/3x3
I0403 19:00:24.226414 18392 net.cpp:425] inception_4e/output <- inception_4e/5x5
I0403 19:00:24.226430 18392 net.cpp:425] inception_4e/output <- inception_4e/pool_proj
I0403 19:00:24.226446 18392 net.cpp:399] inception_4e/output -> inception_4e/output
I0403 19:00:24.226496 18392 net.cpp:141] Setting up inception_4e/output
I0403 19:00:24.226518 18392 net.cpp:148] Top shape: 24 832 14 14 (3913728)
I0403 19:00:24.226532 18392 net.cpp:156] Memory required for data: 1272557088
I0403 19:00:24.226547 18392 layer_factory.hpp:77] Creating layer pool4/3x3_s2
I0403 19:00:24.226563 18392 net.cpp:91] Creating Layer pool4/3x3_s2
I0403 19:00:24.226583 18392 net.cpp:425] pool4/3x3_s2 <- inception_4e/output
I0403 19:00:24.226600 18392 net.cpp:399] pool4/3x3_s2 -> pool4/3x3_s2
I0403 19:00:24.226665 18392 net.cpp:141] Setting up pool4/3x3_s2
I0403 19:00:24.226688 18392 net.cpp:148] Top shape: 24 832 7 7 (978432)
I0403 19:00:24.226702 18392 net.cpp:156] Memory required for data: 1276470816
I0403 19:00:24.226716 18392 layer_factory.hpp:77] Creating layer pool4/3x3_s2_pool4/3x3_s2_0_split
I0403 19:00:24.226733 18392 net.cpp:91] Creating Layer pool4/3x3_s2_pool4/3x3_s2_0_split
I0403 19:00:24.226748 18392 net.cpp:425] pool4/3x3_s2_pool4/3x3_s2_0_split <- pool4/3x3_s2
I0403 19:00:24.226768 18392 net.cpp:399] pool4/3x3_s2_pool4/3x3_s2_0_split -> pool4/3x3_s2_pool4/3x3_s2_0_split_0
I0403 19:00:24.226788 18392 net.cpp:399] pool4/3x3_s2_pool4/3x3_s2_0_split -> pool4/3x3_s2_pool4/3x3_s2_0_split_1
I0403 19:00:24.226807 18392 net.cpp:399] pool4/3x3_s2_pool4/3x3_s2_0_split -> pool4/3x3_s2_pool4/3x3_s2_0_split_2
I0403 19:00:24.226826 18392 net.cpp:399] pool4/3x3_s2_pool4/3x3_s2_0_split -> pool4/3x3_s2_pool4/3x3_s2_0_split_3
I0403 19:00:24.226915 18392 net.cpp:141] Setting up pool4/3x3_s2_pool4/3x3_s2_0_split
I0403 19:00:24.226938 18392 net.cpp:148] Top shape: 24 832 7 7 (978432)
I0403 19:00:24.226953 18392 net.cpp:148] Top shape: 24 832 7 7 (978432)
I0403 19:00:24.226969 18392 net.cpp:148] Top shape: 24 832 7 7 (978432)
I0403 19:00:24.227001 18392 net.cpp:148] Top shape: 24 832 7 7 (978432)
I0403 19:00:24.227017 18392 net.cpp:156] Memory required for data: 1292125728
I0403 19:00:24.227032 18392 layer_factory.hpp:77] Creating layer inception_5a/1x1
I0403 19:00:24.227061 18392 net.cpp:91] Creating Layer inception_5a/1x1
I0403 19:00:24.227079 18392 net.cpp:425] inception_5a/1x1 <- pool4/3x3_s2_pool4/3x3_s2_0_split_0
I0403 19:00:24.227098 18392 net.cpp:399] inception_5a/1x1 -> inception_5a/1x1
I0403 19:00:24.229966 18392 net.cpp:141] Setting up inception_5a/1x1
I0403 19:00:24.230001 18392 net.cpp:148] Top shape: 24 256 7 7 (301056)
I0403 19:00:24.230020 18392 net.cpp:156] Memory required for data: 1293329952
I0403 19:00:24.230037 18392 layer_factory.hpp:77] Creating layer inception_5a/relu_1x1
I0403 19:00:24.230056 18392 net.cpp:91] Creating Layer inception_5a/relu_1x1
I0403 19:00:24.230072 18392 net.cpp:425] inception_5a/relu_1x1 <- inception_5a/1x1
I0403 19:00:24.230090 18392 net.cpp:386] inception_5a/relu_1x1 -> inception_5a/1x1 (in-place)
I0403 19:00:24.230404 18392 net.cpp:141] Setting up inception_5a/relu_1x1
I0403 19:00:24.230433 18392 net.cpp:148] Top shape: 24 256 7 7 (301056)
I0403 19:00:24.230449 18392 net.cpp:156] Memory required for data: 1294534176
I0403 19:00:24.230464 18392 layer_factory.hpp:77] Creating layer inception_5a/3x3_reduce
I0403 19:00:24.230486 18392 net.cpp:91] Creating Layer inception_5a/3x3_reduce
I0403 19:00:24.230504 18392 net.cpp:425] inception_5a/3x3_reduce <- pool4/3x3_s2_pool4/3x3_s2_0_split_1
I0403 19:00:24.230523 18392 net.cpp:399] inception_5a/3x3_reduce -> inception_5a/3x3_reduce
I0403 19:00:24.232993 18392 net.cpp:141] Setting up inception_5a/3x3_reduce
I0403 19:00:24.233023 18392 net.cpp:148] Top shape: 24 160 7 7 (188160)
I0403 19:00:24.233039 18392 net.cpp:156] Memory required for data: 1295286816
I0403 19:00:24.233057 18392 layer_factory.hpp:77] Creating layer inception_5a/relu_3x3_reduce
I0403 19:00:24.233078 18392 net.cpp:91] Creating Layer inception_5a/relu_3x3_reduce
I0403 19:00:24.233095 18392 net.cpp:425] inception_5a/relu_3x3_reduce <- inception_5a/3x3_reduce
I0403 19:00:24.233113 18392 net.cpp:386] inception_5a/relu_3x3_reduce -> inception_5a/3x3_reduce (in-place)
I0403 19:00:24.233304 18392 net.cpp:141] Setting up inception_5a/relu_3x3_reduce
I0403 19:00:24.233331 18392 net.cpp:148] Top shape: 24 160 7 7 (188160)
I0403 19:00:24.233346 18392 net.cpp:156] Memory required for data: 1296039456
I0403 19:00:24.233361 18392 layer_factory.hpp:77] Creating layer inception_5a/3x3
I0403 19:00:24.233384 18392 net.cpp:91] Creating Layer inception_5a/3x3
I0403 19:00:24.233402 18392 net.cpp:425] inception_5a/3x3 <- inception_5a/3x3_reduce
I0403 19:00:24.233420 18392 net.cpp:399] inception_5a/3x3 -> inception_5a/3x3
I0403 19:00:24.238481 18392 net.cpp:141] Setting up inception_5a/3x3
I0403 19:00:24.238513 18392 net.cpp:148] Top shape: 24 320 7 7 (376320)
I0403 19:00:24.238530 18392 net.cpp:156] Memory required for data: 1297544736
I0403 19:00:24.238549 18392 layer_factory.hpp:77] Creating layer inception_5a/relu_3x3
I0403 19:00:24.238580 18392 net.cpp:91] Creating Layer inception_5a/relu_3x3
I0403 19:00:24.238596 18392 net.cpp:425] inception_5a/relu_3x3 <- inception_5a/3x3
I0403 19:00:24.238613 18392 net.cpp:386] inception_5a/relu_3x3 -> inception_5a/3x3 (in-place)
I0403 19:00:24.238912 18392 net.cpp:141] Setting up inception_5a/relu_3x3
I0403 19:00:24.238941 18392 net.cpp:148] Top shape: 24 320 7 7 (376320)
I0403 19:00:24.238957 18392 net.cpp:156] Memory required for data: 1299050016
I0403 19:00:24.238972 18392 layer_factory.hpp:77] Creating layer inception_5a/5x5_reduce
I0403 19:00:24.239006 18392 net.cpp:91] Creating Layer inception_5a/5x5_reduce
I0403 19:00:24.239025 18392 net.cpp:425] inception_5a/5x5_reduce <- pool4/3x3_s2_pool4/3x3_s2_0_split_2
I0403 19:00:24.239045 18392 net.cpp:399] inception_5a/5x5_reduce -> inception_5a/5x5_reduce
I0403 19:00:24.240221 18392 net.cpp:141] Setting up inception_5a/5x5_reduce
I0403 19:00:24.240252 18392 net.cpp:148] Top shape: 24 32 7 7 (37632)
I0403 19:00:24.240269 18392 net.cpp:156] Memory required for data: 1299200544
I0403 19:00:24.240299 18392 layer_factory.hpp:77] Creating layer inception_5a/relu_5x5_reduce
I0403 19:00:24.240319 18392 net.cpp:91] Creating Layer inception_5a/relu_5x5_reduce
I0403 19:00:24.240335 18392 net.cpp:425] inception_5a/relu_5x5_reduce <- inception_5a/5x5_reduce
I0403 19:00:24.240355 18392 net.cpp:386] inception_5a/relu_5x5_reduce -> inception_5a/5x5_reduce (in-place)
I0403 19:00:24.240674 18392 net.cpp:141] Setting up inception_5a/relu_5x5_reduce
I0403 19:00:24.240702 18392 net.cpp:148] Top shape: 24 32 7 7 (37632)
I0403 19:00:24.240718 18392 net.cpp:156] Memory required for data: 1299351072
I0403 19:00:24.240733 18392 layer_factory.hpp:77] Creating layer inception_5a/5x5
I0403 19:00:24.240756 18392 net.cpp:91] Creating Layer inception_5a/5x5
I0403 19:00:24.240773 18392 net.cpp:425] inception_5a/5x5 <- inception_5a/5x5_reduce
I0403 19:00:24.240794 18392 net.cpp:399] inception_5a/5x5 -> inception_5a/5x5
I0403 19:00:24.242527 18392 net.cpp:141] Setting up inception_5a/5x5
I0403 19:00:24.242568 18392 net.cpp:148] Top shape: 24 128 7 7 (150528)
I0403 19:00:24.242583 18392 net.cpp:156] Memory required for data: 1299953184
I0403 19:00:24.242602 18392 layer_factory.hpp:77] Creating layer inception_5a/relu_5x5
I0403 19:00:24.242621 18392 net.cpp:91] Creating Layer inception_5a/relu_5x5
I0403 19:00:24.242638 18392 net.cpp:425] inception_5a/relu_5x5 <- inception_5a/5x5
I0403 19:00:24.242655 18392 net.cpp:386] inception_5a/relu_5x5 -> inception_5a/5x5 (in-place)
I0403 19:00:24.242853 18392 net.cpp:141] Setting up inception_5a/relu_5x5
I0403 19:00:24.242878 18392 net.cpp:148] Top shape: 24 128 7 7 (150528)
I0403 19:00:24.242892 18392 net.cpp:156] Memory required for data: 1300555296
I0403 19:00:24.242908 18392 layer_factory.hpp:77] Creating layer inception_5a/pool
I0403 19:00:24.242925 18392 net.cpp:91] Creating Layer inception_5a/pool
I0403 19:00:24.242941 18392 net.cpp:425] inception_5a/pool <- pool4/3x3_s2_pool4/3x3_s2_0_split_3
I0403 19:00:24.242961 18392 net.cpp:399] inception_5a/pool -> inception_5a/pool
I0403 19:00:24.243036 18392 net.cpp:141] Setting up inception_5a/pool
I0403 19:00:24.243062 18392 net.cpp:148] Top shape: 24 832 7 7 (978432)
I0403 19:00:24.243077 18392 net.cpp:156] Memory required for data: 1304469024
I0403 19:00:24.243091 18392 layer_factory.hpp:77] Creating layer inception_5a/pool_proj
I0403 19:00:24.243113 18392 net.cpp:91] Creating Layer inception_5a/pool_proj
I0403 19:00:24.243130 18392 net.cpp:425] inception_5a/pool_proj <- inception_5a/pool
I0403 19:00:24.243149 18392 net.cpp:399] inception_5a/pool_proj -> inception_5a/pool_proj
I0403 19:00:24.245426 18392 net.cpp:141] Setting up inception_5a/pool_proj
I0403 19:00:24.245457 18392 net.cpp:148] Top shape: 24 128 7 7 (150528)
I0403 19:00:24.245472 18392 net.cpp:156] Memory required for data: 1305071136
I0403 19:00:24.245491 18392 layer_factory.hpp:77] Creating layer inception_5a/relu_pool_proj
I0403 19:00:24.245512 18392 net.cpp:91] Creating Layer inception_5a/relu_pool_proj
I0403 19:00:24.245527 18392 net.cpp:425] inception_5a/relu_pool_proj <- inception_5a/pool_proj
I0403 19:00:24.245543 18392 net.cpp:386] inception_5a/relu_pool_proj -> inception_5a/pool_proj (in-place)
I0403 19:00:24.245838 18392 net.cpp:141] Setting up inception_5a/relu_pool_proj
I0403 19:00:24.245863 18392 net.cpp:148] Top shape: 24 128 7 7 (150528)
I0403 19:00:24.245877 18392 net.cpp:156] Memory required for data: 1305673248
I0403 19:00:24.245892 18392 layer_factory.hpp:77] Creating layer inception_5a/output
I0403 19:00:24.245910 18392 net.cpp:91] Creating Layer inception_5a/output
I0403 19:00:24.245926 18392 net.cpp:425] inception_5a/output <- inception_5a/1x1
I0403 19:00:24.245942 18392 net.cpp:425] inception_5a/output <- inception_5a/3x3
I0403 19:00:24.245959 18392 net.cpp:425] inception_5a/output <- inception_5a/5x5
I0403 19:00:24.245975 18392 net.cpp:425] inception_5a/output <- inception_5a/pool_proj
I0403 19:00:24.245995 18392 net.cpp:399] inception_5a/output -> inception_5a/output
I0403 19:00:24.246045 18392 net.cpp:141] Setting up inception_5a/output
I0403 19:00:24.246068 18392 net.cpp:148] Top shape: 24 832 7 7 (978432)
I0403 19:00:24.246083 18392 net.cpp:156] Memory required for data: 1309586976
I0403 19:00:24.246096 18392 layer_factory.hpp:77] Creating layer inception_5a/output_inception_5a/output_0_split
I0403 19:00:24.246114 18392 net.cpp:91] Creating Layer inception_5a/output_inception_5a/output_0_split
I0403 19:00:24.246129 18392 net.cpp:425] inception_5a/output_inception_5a/output_0_split <- inception_5a/output
I0403 19:00:24.246147 18392 net.cpp:399] inception_5a/output_inception_5a/output_0_split -> inception_5a/output_inception_5a/output_0_split_0
I0403 19:00:24.246167 18392 net.cpp:399] inception_5a/output_inception_5a/output_0_split -> inception_5a/output_inception_5a/output_0_split_1
I0403 19:00:24.246187 18392 net.cpp:399] inception_5a/output_inception_5a/output_0_split -> inception_5a/output_inception_5a/output_0_split_2
I0403 19:00:24.246208 18392 net.cpp:399] inception_5a/output_inception_5a/output_0_split -> inception_5a/output_inception_5a/output_0_split_3
I0403 19:00:24.246321 18392 net.cpp:141] Setting up inception_5a/output_inception_5a/output_0_split
I0403 19:00:24.246346 18392 net.cpp:148] Top shape: 24 832 7 7 (978432)
I0403 19:00:24.246362 18392 net.cpp:148] Top shape: 24 832 7 7 (978432)
I0403 19:00:24.246377 18392 net.cpp:148] Top shape: 24 832 7 7 (978432)
I0403 19:00:24.246392 18392 net.cpp:148] Top shape: 24 832 7 7 (978432)
I0403 19:00:24.246407 18392 net.cpp:156] Memory required for data: 1325241888
I0403 19:00:24.246419 18392 layer_factory.hpp:77] Creating layer inception_5b/1x1
I0403 19:00:24.246440 18392 net.cpp:91] Creating Layer inception_5b/1x1
I0403 19:00:24.246457 18392 net.cpp:425] inception_5b/1x1 <- inception_5a/output_inception_5a/output_0_split_0
I0403 19:00:24.246479 18392 net.cpp:399] inception_5b/1x1 -> inception_5b/1x1
I0403 19:00:24.250164 18392 net.cpp:141] Setting up inception_5b/1x1
I0403 19:00:24.250192 18392 net.cpp:148] Top shape: 24 384 7 7 (451584)
I0403 19:00:24.250210 18392 net.cpp:156] Memory required for data: 1327048224
I0403 19:00:24.250227 18392 layer_factory.hpp:77] Creating layer inception_5b/relu_1x1
I0403 19:00:24.250248 18392 net.cpp:91] Creating Layer inception_5b/relu_1x1
I0403 19:00:24.250264 18392 net.cpp:425] inception_5b/relu_1x1 <- inception_5b/1x1
I0403 19:00:24.250282 18392 net.cpp:386] inception_5b/relu_1x1 -> inception_5b/1x1 (in-place)
I0403 19:00:24.250579 18392 net.cpp:141] Setting up inception_5b/relu_1x1
I0403 19:00:24.250604 18392 net.cpp:148] Top shape: 24 384 7 7 (451584)
I0403 19:00:24.250619 18392 net.cpp:156] Memory required for data: 1328854560
I0403 19:00:24.250633 18392 layer_factory.hpp:77] Creating layer inception_5b/3x3_reduce
I0403 19:00:24.250655 18392 net.cpp:91] Creating Layer inception_5b/3x3_reduce
I0403 19:00:24.250672 18392 net.cpp:425] inception_5b/3x3_reduce <- inception_5a/output_inception_5a/output_0_split_1
I0403 19:00:24.250694 18392 net.cpp:399] inception_5b/3x3_reduce -> inception_5b/3x3_reduce
I0403 19:00:24.253307 18392 net.cpp:141] Setting up inception_5b/3x3_reduce
I0403 19:00:24.253337 18392 net.cpp:148] Top shape: 24 192 7 7 (225792)
I0403 19:00:24.253353 18392 net.cpp:156] Memory required for data: 1329757728
I0403 19:00:24.253372 18392 layer_factory.hpp:77] Creating layer inception_5b/relu_3x3_reduce
I0403 19:00:24.253396 18392 net.cpp:91] Creating Layer inception_5b/relu_3x3_reduce
I0403 19:00:24.253412 18392 net.cpp:425] inception_5b/relu_3x3_reduce <- inception_5b/3x3_reduce
I0403 19:00:24.253429 18392 net.cpp:386] inception_5b/relu_3x3_reduce -> inception_5b/3x3_reduce (in-place)
I0403 19:00:24.253628 18392 net.cpp:141] Setting up inception_5b/relu_3x3_reduce
I0403 19:00:24.253654 18392 net.cpp:148] Top shape: 24 192 7 7 (225792)
I0403 19:00:24.253669 18392 net.cpp:156] Memory required for data: 1330660896
I0403 19:00:24.253684 18392 layer_factory.hpp:77] Creating layer inception_5b/3x3
I0403 19:00:24.253705 18392 net.cpp:91] Creating Layer inception_5b/3x3
I0403 19:00:24.253723 18392 net.cpp:425] inception_5b/3x3 <- inception_5b/3x3_reduce
I0403 19:00:24.253741 18392 net.cpp:399] inception_5b/3x3 -> inception_5b/3x3
I0403 19:00:24.260298 18392 net.cpp:141] Setting up inception_5b/3x3
I0403 19:00:24.260326 18392 net.cpp:148] Top shape: 24 384 7 7 (451584)
I0403 19:00:24.260342 18392 net.cpp:156] Memory required for data: 1332467232
I0403 19:00:24.260360 18392 layer_factory.hpp:77] Creating layer inception_5b/relu_3x3
I0403 19:00:24.260380 18392 net.cpp:91] Creating Layer inception_5b/relu_3x3
I0403 19:00:24.260397 18392 net.cpp:425] inception_5b/relu_3x3 <- inception_5b/3x3
I0403 19:00:24.260414 18392 net.cpp:386] inception_5b/relu_3x3 -> inception_5b/3x3 (in-place)
I0403 19:00:24.260705 18392 net.cpp:141] Setting up inception_5b/relu_3x3
I0403 19:00:24.260730 18392 net.cpp:148] Top shape: 24 384 7 7 (451584)
I0403 19:00:24.260745 18392 net.cpp:156] Memory required for data: 1334273568
I0403 19:00:24.260758 18392 layer_factory.hpp:77] Creating layer inception_5b/5x5_reduce
I0403 19:00:24.260797 18392 net.cpp:91] Creating Layer inception_5b/5x5_reduce
I0403 19:00:24.260817 18392 net.cpp:425] inception_5b/5x5_reduce <- inception_5a/output_inception_5a/output_0_split_2
I0403 19:00:24.260835 18392 net.cpp:399] inception_5b/5x5_reduce -> inception_5b/5x5_reduce
I0403 19:00:24.262095 18392 net.cpp:141] Setting up inception_5b/5x5_reduce
I0403 19:00:24.262123 18392 net.cpp:148] Top shape: 24 48 7 7 (56448)
I0403 19:00:24.262138 18392 net.cpp:156] Memory required for data: 1334499360
I0403 19:00:24.262156 18392 layer_factory.hpp:77] Creating layer inception_5b/relu_5x5_reduce
I0403 19:00:24.262176 18392 net.cpp:91] Creating Layer inception_5b/relu_5x5_reduce
I0403 19:00:24.262192 18392 net.cpp:425] inception_5b/relu_5x5_reduce <- inception_5b/5x5_reduce
I0403 19:00:24.262210 18392 net.cpp:386] inception_5b/relu_5x5_reduce -> inception_5b/5x5_reduce (in-place)
I0403 19:00:24.262583 18392 net.cpp:141] Setting up inception_5b/relu_5x5_reduce
I0403 19:00:24.262609 18392 net.cpp:148] Top shape: 24 48 7 7 (56448)
I0403 19:00:24.262624 18392 net.cpp:156] Memory required for data: 1334725152
I0403 19:00:24.262639 18392 layer_factory.hpp:77] Creating layer inception_5b/5x5
I0403 19:00:24.262658 18392 net.cpp:91] Creating Layer inception_5b/5x5
I0403 19:00:24.262675 18392 net.cpp:425] inception_5b/5x5 <- inception_5b/5x5_reduce
I0403 19:00:24.262693 18392 net.cpp:399] inception_5b/5x5 -> inception_5b/5x5
I0403 19:00:24.264708 18392 net.cpp:141] Setting up inception_5b/5x5
I0403 19:00:24.264737 18392 net.cpp:148] Top shape: 24 128 7 7 (150528)
I0403 19:00:24.264752 18392 net.cpp:156] Memory required for data: 1335327264
I0403 19:00:24.264770 18392 layer_factory.hpp:77] Creating layer inception_5b/relu_5x5
I0403 19:00:24.264787 18392 net.cpp:91] Creating Layer inception_5b/relu_5x5
I0403 19:00:24.264803 18392 net.cpp:425] inception_5b/relu_5x5 <- inception_5b/5x5
I0403 19:00:24.264822 18392 net.cpp:386] inception_5b/relu_5x5 -> inception_5b/5x5 (in-place)
I0403 19:00:24.265018 18392 net.cpp:141] Setting up inception_5b/relu_5x5
I0403 19:00:24.265043 18392 net.cpp:148] Top shape: 24 128 7 7 (150528)
I0403 19:00:24.265056 18392 net.cpp:156] Memory required for data: 1335929376
I0403 19:00:24.265070 18392 layer_factory.hpp:77] Creating layer inception_5b/pool
I0403 19:00:24.265087 18392 net.cpp:91] Creating Layer inception_5b/pool
I0403 19:00:24.265103 18392 net.cpp:425] inception_5b/pool <- inception_5a/output_inception_5a/output_0_split_3
I0403 19:00:24.265123 18392 net.cpp:399] inception_5b/pool -> inception_5b/pool
I0403 19:00:24.265195 18392 net.cpp:141] Setting up inception_5b/pool
I0403 19:00:24.265219 18392 net.cpp:148] Top shape: 24 832 7 7 (978432)
I0403 19:00:24.265233 18392 net.cpp:156] Memory required for data: 1339843104
I0403 19:00:24.265246 18392 layer_factory.hpp:77] Creating layer inception_5b/pool_proj
I0403 19:00:24.265270 18392 net.cpp:91] Creating Layer inception_5b/pool_proj
I0403 19:00:24.265287 18392 net.cpp:425] inception_5b/pool_proj <- inception_5b/pool
I0403 19:00:24.265305 18392 net.cpp:399] inception_5b/pool_proj -> inception_5b/pool_proj
I0403 19:00:24.267560 18392 net.cpp:141] Setting up inception_5b/pool_proj
I0403 19:00:24.267591 18392 net.cpp:148] Top shape: 24 128 7 7 (150528)
I0403 19:00:24.267608 18392 net.cpp:156] Memory required for data: 1340445216
I0403 19:00:24.267627 18392 layer_factory.hpp:77] Creating layer inception_5b/relu_pool_proj
I0403 19:00:24.267644 18392 net.cpp:91] Creating Layer inception_5b/relu_pool_proj
I0403 19:00:24.267660 18392 net.cpp:425] inception_5b/relu_pool_proj <- inception_5b/pool_proj
I0403 19:00:24.267678 18392 net.cpp:386] inception_5b/relu_pool_proj -> inception_5b/pool_proj (in-place)
I0403 19:00:24.267969 18392 net.cpp:141] Setting up inception_5b/relu_pool_proj
I0403 19:00:24.268000 18392 net.cpp:148] Top shape: 24 128 7 7 (150528)
I0403 19:00:24.268016 18392 net.cpp:156] Memory required for data: 1341047328
I0403 19:00:24.268030 18392 layer_factory.hpp:77] Creating layer inception_5b/output
I0403 19:00:24.268048 18392 net.cpp:91] Creating Layer inception_5b/output
I0403 19:00:24.268076 18392 net.cpp:425] inception_5b/output <- inception_5b/1x1
I0403 19:00:24.268095 18392 net.cpp:425] inception_5b/output <- inception_5b/3x3
I0403 19:00:24.268110 18392 net.cpp:425] inception_5b/output <- inception_5b/5x5
I0403 19:00:24.268124 18392 net.cpp:425] inception_5b/output <- inception_5b/pool_proj
I0403 19:00:24.268141 18392 net.cpp:399] inception_5b/output -> inception_5b/output
I0403 19:00:24.268193 18392 net.cpp:141] Setting up inception_5b/output
I0403 19:00:24.268218 18392 net.cpp:148] Top shape: 24 1024 7 7 (1204224)
I0403 19:00:24.268231 18392 net.cpp:156] Memory required for data: 1345864224
I0403 19:00:24.268245 18392 layer_factory.hpp:77] Creating layer pool5/7x7_s1
I0403 19:00:24.268265 18392 net.cpp:91] Creating Layer pool5/7x7_s1
I0403 19:00:24.268280 18392 net.cpp:425] pool5/7x7_s1 <- inception_5b/output
I0403 19:00:24.268298 18392 net.cpp:399] pool5/7x7_s1 -> pool5/7x7_s1
I0403 19:00:24.268512 18392 net.cpp:141] Setting up pool5/7x7_s1
I0403 19:00:24.268539 18392 net.cpp:148] Top shape: 24 1024 1 1 (24576)
I0403 19:00:24.268554 18392 net.cpp:156] Memory required for data: 1345962528
I0403 19:00:24.268568 18392 layer_factory.hpp:77] Creating layer pool5/drop_7x7_s1
I0403 19:00:24.268585 18392 net.cpp:91] Creating Layer pool5/drop_7x7_s1
I0403 19:00:24.268601 18392 net.cpp:425] pool5/drop_7x7_s1 <- pool5/7x7_s1
I0403 19:00:24.268617 18392 net.cpp:386] pool5/drop_7x7_s1 -> pool5/7x7_s1 (in-place)
I0403 19:00:24.268668 18392 net.cpp:141] Setting up pool5/drop_7x7_s1
I0403 19:00:24.268690 18392 net.cpp:148] Top shape: 24 1024 1 1 (24576)
I0403 19:00:24.268704 18392 net.cpp:156] Memory required for data: 1346060832
I0403 19:00:24.268718 18392 layer_factory.hpp:77] Creating layer loss3/classifier_plantvillage
I0403 19:00:24.268738 18392 net.cpp:91] Creating Layer loss3/classifier_plantvillage
I0403 19:00:24.268755 18392 net.cpp:425] loss3/classifier_plantvillage <- pool5/7x7_s1
I0403 19:00:24.268774 18392 net.cpp:399] loss3/classifier_plantvillage -> loss3/classifier_plantvillage
I0403 19:00:24.269199 18392 net.cpp:141] Setting up loss3/classifier_plantvillage
I0403 19:00:24.269223 18392 net.cpp:148] Top shape: 24 38 (912)
I0403 19:00:24.269238 18392 net.cpp:156] Memory required for data: 1346064480
I0403 19:00:24.269255 18392 layer_factory.hpp:77] Creating layer loss3/classifier_plantvillage_loss3/classifier_plantvillage_0_split
I0403 19:00:24.269273 18392 net.cpp:91] Creating Layer loss3/classifier_plantvillage_loss3/classifier_plantvillage_0_split
I0403 19:00:24.269287 18392 net.cpp:425] loss3/classifier_plantvillage_loss3/classifier_plantvillage_0_split <- loss3/classifier_plantvillage
I0403 19:00:24.269309 18392 net.cpp:399] loss3/classifier_plantvillage_loss3/classifier_plantvillage_0_split -> loss3/classifier_plantvillage_loss3/classifier_plantvillage_0_split_0
I0403 19:00:24.269328 18392 net.cpp:399] loss3/classifier_plantvillage_loss3/classifier_plantvillage_0_split -> loss3/classifier_plantvillage_loss3/classifier_plantvillage_0_split_1
I0403 19:00:24.269350 18392 net.cpp:399] loss3/classifier_plantvillage_loss3/classifier_plantvillage_0_split -> loss3/classifier_plantvillage_loss3/classifier_plantvillage_0_split_2
I0403 19:00:24.269367 18392 net.cpp:399] loss3/classifier_plantvillage_loss3/classifier_plantvillage_0_split -> loss3/classifier_plantvillage_loss3/classifier_plantvillage_0_split_3
I0403 19:00:24.269470 18392 net.cpp:141] Setting up loss3/classifier_plantvillage_loss3/classifier_plantvillage_0_split
I0403 19:00:24.269493 18392 net.cpp:148] Top shape: 24 38 (912)
I0403 19:00:24.269508 18392 net.cpp:148] Top shape: 24 38 (912)
I0403 19:00:24.269523 18392 net.cpp:148] Top shape: 24 38 (912)
I0403 19:00:24.269537 18392 net.cpp:148] Top shape: 24 38 (912)
I0403 19:00:24.269551 18392 net.cpp:156] Memory required for data: 1346079072
I0403 19:00:24.269564 18392 layer_factory.hpp:77] Creating layer loss1/loss
I0403 19:00:24.269585 18392 net.cpp:91] Creating Layer loss1/loss
I0403 19:00:24.269601 18392 net.cpp:425] loss1/loss <- loss1/classifier_plantvillage_loss1/classifier_plantvillage_0_split_0
I0403 19:00:24.269631 18392 net.cpp:425] loss1/loss <- label_data_1_split_0
…
