…
I0403 19:20:02.008023 19506 net.cpp:313] The NetState phase (1) differed from the phase (0) specified by a rule in layer data
I0403 19:20:02.009218 19506 net.cpp:49] Initializing net from parameters: 
state {
  phase: TEST
}
layer {
  name: "data"
  type: "Data"
  top: "data"
  top: "label"
  include {
    phase: TEST
  }
  transform_param {
    mirror: false
    crop_size: 224
    mean_file: "/home/mohanty/data/final_dataset/lmdb/segmented-60-40/mean.binaryproto"
  }
  data_param {
    source: "/home/mohanty/data/final_dataset/lmdb/segmented-60-40/test_db"
    batch_size: 24
    backend: LMDB
  }
}
layer {
  name: "conv1/7x7_s2"
  type: "Convolution"
  bottom: "data"
  top: "conv1/7x7_s2"
  param {
    lr_mult: 1
    decay_mult: 1
  }
  param {
    lr_mult: 2
    decay_mult: 0
  }
  convolution_param {
    num_output: 64
    pad: 3
    kernel_size: 7
    stride: 2
    weight_filler {
      type: "xavier"
      std: 0.1
    }
    bias_filler {
      type: "constant"
      value: 0.2
    }
  }
}
layer {
  name: "conv1/relu_7x7"
  type: "ReLU"
  bottom: "conv1/7x7_s2"
  top: "conv1/7x7_s2"
}
layer {
  name: "pool1/3x3_s2"
  type: "Pooling"
  bottom: "conv1/7x7_s2"
  top: "pool1/3x3_s2"
  pooling_param {
    pool: MAX
    kernel_size: 3
    stride: 2
  }
}
layer {
  name: "pool1/norm1"
  type: "LRN"
  bottom: "pool1/3x3_s2"
  top: "pool1/norm1"
  lrn_param {
    local_size: 5
    alpha: 0.0001
    beta: 0.75
  }
}
layer {
  name: "conv2/3x3_reduce"
  type: "Convolution"
  bottom: "pool1/norm1"
  top: "conv2/3x3_reduce"
  param {
    lr_mult: 1
    decay_mult: 1
  }
  param {
    lr_mult: 2
    decay_mult: 0
  }
  convolution_param {
    num_output: 64
    kernel_size: 1
    weight_filler {
      type: "xavier"
      std: 0.1
    }
    bias_filler {
      type: "constant"
      value: 0.2
    }
  }
}
layer {
  name: "conv2/relu_3x3_reduce"
  type: "ReLU"
  bottom: "conv2/3x3_reduce"
  top: "conv2/3x3_reduce"
}
layer {
  name: "conv2/3x3"
  type: "Convolution"
  bottom: "conv2/3x3_reduce"
  top: "conv2/3x3"
  param {
    lr_mult: 1
    decay_mult: 1
  }
  param {
    lr_mult: 2
    decay_mult: 0
  }
  convolution_param {
    num_output: 192
    pad: 1
    kernel_size: 3
    weight_filler {
      type: "xavier"
      std: 0.03
    }
    bias_filler {
      type: "constant"
      value: 0.2
    }
  }
}
layer {
  name: "conv2/relu_3x3"
  type: "ReLU"
  bottom: "conv2/3x3"
  top: "conv2/3x3"
}
layer {
  name: "conv2/norm2"
  type: "LRN"
  bottom: "conv2/3x3"
  top: "conv2/norm2"
  lrn_param {
    local_size: 5
    alpha: 0.0001
    beta: 0.75
  }
}
layer {
  name: "pool2/3x3_s2"
  type: "Pooling"
  bottom: "conv2/norm2"
  top: "pool2/3x3_s2"
  pooling_param {
    pool: MAX
    kernel_size: 3
    stride: 2
  }
}
layer {
  name: "inception_3a/1x1"
  type: "Convolution"
  bottom: "pool2/3x3_s2"
  top: "inception_3a/1x1"
  param {
    lr_mult: 1
    decay_mult: 1
  }
  param {
    lr_mult: 2
    decay_mult: 0
  }
  convolution_param {
    num_output: 64
    kernel_size: 1
    weight_filler {
      type: "xavier"
      std: 0.03
    }
    bias_filler {
      type: "constant"
      value: 0.2
    }
  }
}
layer {
  name: "inception_3a/relu_1x1"
  type: "ReLU"
  bottom: "inception_3a/1x1"
  top: "inception_3a/1x1"
}
layer {
  name: "inception_3a/3x3_reduce"
  type: "Convolution"
  bottom: "pool2/3x3_s2"
  top: "inception_3a/3x3_reduce"
  param {
    lr_mult: 1
    decay_mult: 1
  }
  param {
    lr_mult: 2
    decay_mult: 0
  }
  convolution_param {
    num_output: 96
    kernel_size: 1
    weight_filler {
      type: "xavier"
      std: 0.09
    }
    bias_filler {
      type: "constant"
      value: 0.2
    }
  }
}
layer {
  name: "inception_3a/relu_3x3_reduce"
  type: "ReLU"
  bottom: "inception_3a/3x3_reduce"
  top: "inception_3a/3x3_reduce"
}
layer {
  name: "inception_3a/3x3"
  type: "Convolution"
  bottom: "inception_3a/3x3_reduce"
  top: "inception_3a/3x3"
  param {
    lr_mult: 1
    decay_mult: 1
  }
  param {
    lr_mult: 2
    decay_mult: 0
  }
  convolution_param {
    num_output: 128
    pad: 1
    kernel_size: 3
    weight_filler {
      type: "xavier"
      std: 0.03
    }
    bias_filler {
      type: "constant"
      value: 0.2
    }
  }
}
layer {
  name: "inception_3a/relu_3x3"
  type: "ReLU"
  bottom: "inception_3a/3x3"
  top: "inception_3a/3x3"
}
layer {
  name: "inception_3a/5x5_reduce"
  type: "Convolution"
  bottom: "pool2/3x3_s2"
  top: "inception_3a/5x5_reduce"
  param {
    lr_mult: 1
    decay_mult: 1
  }
  param {
    lr_mult: 2
    decay_mult: 0
  }
  convolution_param {
    num_output: 16
    kernel_size: 1
    weight_filler {
      type: "xavier"
      std: 0.2
    }
    bias_filler {
      type: "constant"
      value: 0.2
    }
  }
}
layer {
  name: "inception_3a/relu_5x5_reduce"
  type: "ReLU"
  bottom: "inception_3a/5x5_reduce"
  top: "inception_3a/5x5_reduce"
}
layer {
  name: "inception_3a/5x5"
  type: "Convolution"
  bottom: "inception_3a/5x5_reduce"
  top: "inception_3a/5x5"
  param {
    lr_mult: 1
    decay_mult: 1
  }
  param {
    lr_mult: 2
    decay_mult: 0
  }
  convolution_param {
    num_output: 32
    pad: 2
    kernel_size: 5
    weight_filler {
      type: "xavier"
      std: 0.03
    }
    bias_filler {
      type: "constant"
      value: 0.2
    }
  }
}
layer {
  name: "inception_3a/relu_5x5"
  type: "ReLU"
  bottom: "inception_3a/5x5"
  top: "inception_3a/5x5"
}
layer {
  name: "inception_3a/pool"
  type: "Pooling"
  bottom: "pool2/3x3_s2"
  top: "inception_3a/pool"
  pooling_param {
    pool: MAX
    kernel_size: 3
    stride: 1
    pad: 1
  }
}
layer {
  name: "inception_3a/pool_proj"
  type: "Convolution"
  bottom: "inception_3a/pool"
  top: "inception_3a/pool_proj"
  param {
    lr_mult: 1
    decay_mult: 1
  }
  param {
    lr_mult: 2
    decay_mult: 0
  }
  convolution_param {
    num_output: 32
    kernel_size: 1
    weight_filler {
      type: "xavier"
      std: 0.1
    }
    bias_filler {
      type: "constant"
      value: 0.2
    }
  }
}
layer {
  name: "inception_3a/relu_pool_proj"
  type: "ReLU"
  bottom: "inception_3a/pool_proj"
  top: "inception_3a/pool_proj"
}
layer {
  name: "inception_3a/output"
  type: "Concat"
  bottom: "inception_3a/1x1"
  bottom: "inception_3a/3x3"
  bottom: "inception_3a/5x5"
  bottom: "inception_3a/pool_proj"
  top: "inception_3a/output"
}
layer {
  name: "inception_3b/1x1"
  type: "Convolution"
  bottom: "inception_3a/output"
  top: "inception_3b/1x1"
  param {
    lr_mult: 1
    decay_mult: 1
  }
  param {
    lr_mult: 2
    decay_mult: 0
  }
  convolution_param {
    num_output: 128
    kernel_size: 1
    weight_filler {
      type: "xavier"
      std: 0.03
    }
    bias_filler {
      type: "constant"
      value: 0.2
    }
  }
}
layer {
  name: "inception_3b/relu_1x1"
  type: "ReLU"
  bottom: "inception_3b/1x1"
  top: "inception_3b/1x1"
}
layer {
  name: "inception_3b/3x3_reduce"
  type: "Convolution"
  bottom: "inception_3a/output"
  top: "inception_3b/3x3_reduce"
  param {
    lr_mult: 1
    decay_mult: 1
  }
  param {
    lr_mult: 2
    decay_mult: 0
  }
  convolution_param {
    num_output: 128
    kernel_size: 1
    weight_filler {
      type: "xavier"
      std: 0.09
    }
    bias_filler {
      type: "constant"
      value: 0.2
    }
  }
}
layer {
  name: "inception_3b/relu_3x3_reduce"
  type: "ReLU"
  bottom: "inception_3b/3x3_reduce"
  top: "inception_3b/3x3_reduce"
}
layer {
  name: "inception_3b/3x3"
  type: "Convolution"
  bottom: "inception_3b/3x3_reduce"
  top: "inception_3b/3x3"
  param {
    lr_mult: 1
    decay_mult: 1
  }
  param {
    lr_mult: 2
    decay_mult: 0
  }
  convolution_param {
    num_output: 192
    pad: 1
    kernel_size: 3
    weight_filler {
      type: "xavier"
      std: 0.03
    }
    bias_filler {
      type: "constant"
      value: 0.2
    }
  }
}
layer {
  name: "inception_3b/relu_3x3"
  type: "ReLU"
  bottom: "inception_3b/3x3"
  top: "inception_3b/3x3"
}
layer {
  name: "inception_3b/5x5_reduce"
  type: "Convolution"
  bottom: "inception_3a/output"
  top: "inception_3b/5x5_reduce"
  param {
    lr_mult: 1
    decay_mult: 1
  }
  param {
    lr_mult: 2
    decay_mult: 0
  }
  convolution_param {
    num_output: 32
    kernel_size: 1
    weight_filler {
      type: "xavier"
      std: 0.2
    }
    bias_filler {
      type: "constant"
      value: 0.2
    }
  }
}
layer {
  name: "inception_3b/relu_5x5_reduce"
  type: "ReLU"
  bottom: "inception_3b/5x5_reduce"
  top: "inception_3b/5x5_reduce"
}
layer {
  name: "inception_3b/5x5"
  type: "Convolution"
  bottom: "inception_3b/5x5_reduce"
  top: "inception_3b/5x5"
  param {
    lr_mult: 1
    decay_mult: 1
  }
  param {
    lr_mult: 2
    decay_mult: 0
  }
  convolution_param {
    num_output: 96
    pad: 2
    kernel_size: 5
    weight_filler {
      type: "xavier"
      std: 0.03
    }
    bias_filler {
      type: "constant"
      value: 0.2
    }
  }
}
layer {
  name: "inception_3b/relu_5x5"
  type: "ReLU"
  bottom: "inception_3b/5x5"
  top: "inception_3b/5x5"
}
layer {
  name: "inception_3b/pool"
  type: "Pooling"
  bottom: "inception_3a/output"
  top: "inception_3b/pool"
  pooling_param {
    pool: MAX
    kernel_size: 3
    stride: 1
    pad: 1
  }
}
layer {
  name: "inception_3b/pool_proj"
  type: "Convolution"
  bottom: "inception_3b/pool"
  top: "inception_3b/pool_proj"
  param {
    lr_mult: 1
    decay_mult: 1
  }
  param {
    lr_mult: 2
    decay_mult: 0
  }
  convolution_param {
    num_output: 64
    kernel_size: 1
    weight_filler {
      type: "xavier"
      std: 0.1
    }
    bias_filler {
      type: "constant"
      value: 0.2
    }
  }
}
layer {
  name: "inception_3b/relu_pool_proj"
  type: "ReLU"
  bottom: "inception_3b/pool_proj"
  top: "inception_3b/pool_proj"
}
layer {
  name: "inception_3b/output"
  type: "Concat"
  bottom: "inception_3b/1x1"
  bottom: "inception_3b/3x3"
  bottom: "inception_3b/5x5"
  bottom: "inception_3b/pool_proj"
  top: "inception_3b/output"
}
layer {
  name: "pool3/3x3_s2"
  type: "Pooling"
  bottom: "inception_3b/output"
  top: "pool3/3x3_s2"
  pooling_param {
    pool: MAX
    kernel_size: 3
    stride: 2
  }
}
layer {
  name: "inception_4a/1x1"
  type: "Convolution"
  bottom: "pool3/3x3_s2"
  top: "inception_4a/1x1"
  param {
    lr_mult: 1
    decay_mult: 1
  }
  param {
    lr_mult: 2
    decay_mult: 0
  }
  convolution_param {
    num_output: 192
    kernel_size: 1
    weight_filler {
      type: "xavier"
      std: 0.03
    }
    bias_filler {
      type: "constant"
      value: 0.2
    }
  }
}
layer {
  name: "inception_4a/relu_1x1"
  type: "ReLU"
  bottom: "inception_4a/1x1"
  top: "inception_4a/1x1"
}
layer {
  name: "inception_4a/3x3_reduce"
  type: "Convolution"
  bottom: "pool3/3x3_s2"
  top: "inception_4a/3x3_reduce"
  param {
    lr_mult: 1
    decay_mult: 1
  }
  param {
    lr_mult: 2
    decay_mult: 0
  }
  convolution_param {
    num_output: 96
    kernel_size: 1
    weight_filler {
      type: "xavier"
      std: 0.09
    }
    bias_filler {
      type: "constant"
      value: 0.2
    }
  }
}
layer {
  name: "inception_4a/relu_3x3_reduce"
  type: "ReLU"
  bottom: "inception_4a/3x3_reduce"
  top: "inception_4a/3x3_reduce"
}
layer {
  name: "inception_4a/3x3"
  type: "Convolution"
  bottom: "inception_4a/3x3_reduce"
  top: "inception_4a/3x3"
  param {
    lr_mult: 1
    decay_mult: 1
  }
  param {
    lr_mult: 2
    decay_mult: 0
  }
  convolution_param {
    num_output: 208
    pad: 1
    kernel_size: 3
    weight_filler {
      type: "xavier"
      std: 0.03
    }
    bias_filler {
      type: "constant"
      value: 0.2
    }
  }
}
layer {
  name: "inception_4a/relu_3x3"
  type: "ReLU"
  bottom: "inception_4a/3x3"
  top: "inception_4a/3x3"
}
layer {
  name: "inception_4a/5x5_reduce"
  type: "Convolution"
  bottom: "pool3/3x3_s2"
  top: "inception_4a/5x5_reduce"
  param {
    lr_mult: 1
    decay_mult: 1
  }
  param {
    lr_mult: 2
    decay_mult: 0
  }
  convolution_param {
    num_output: 16
    kernel_size: 1
    weight_filler {
      type: "xavier"
      std: 0.2
    }
    bias_filler {
      type: "constant"
      value: 0.2
    }
  }
}
layer {
  name: "inception_4a/relu_5x5_reduce"
  type: "ReLU"
  bottom: "inception_4a/5x5_reduce"
  top: "inception_4a/5x5_reduce"
}
layer {
  name: "inception_4a/5x5"
  type: "Convolution"
  bottom: "inception_4a/5x5_reduce"
  top: "inception_4a/5x5"
  param {
    lr_mult: 1
    decay_mult: 1
  }
  param {
    lr_mult: 2
    decay_mult: 0
  }
  convolution_param {
    num_output: 48
    pad: 2
    kernel_size: 5
    weight_filler {
      type: "xavier"
      std: 0.03
    }
    bias_filler {
      type: "constant"
      value: 0.2
    }
  }
}
layer {
  name: "inception_4a/relu_5x5"
  type: "ReLU"
  bottom: "inception_4a/5x5"
  top: "inception_4a/5x5"
}
layer {
  name: "inception_4a/pool"
  type: "Pooling"
  bottom: "pool3/3x3_s2"
  top: "inception_4a/pool"
  pooling_param {
    pool: MAX
    kernel_size: 3
    stride: 1
    pad: 1
  }
}
layer {
  name: "inception_4a/pool_proj"
  type: "Convolution"
  bottom: "inception_4a/pool"
  top: "inception_4a/pool_proj"
  param {
    lr_mult: 1
    decay_mult: 1
  }
  param {
    lr_mult: 2
    decay_mult: 0
  }
  convolution_param {
    num_output: 64
    kernel_size: 1
    weight_filler {
      type: "xavier"
      std: 0.1
    }
    bias_filler {
      type: "constant"
      value: 0.2
    }
  }
}
layer {
  name: "inception_4a/relu_pool_proj"
  type: "ReLU"
  bottom: "inception_4a/pool_proj"
  top: "inception_4a/pool_proj"
}
layer {
  name: "inception_4a/output"
  type: "Concat"
  bottom: "inception_4a/1x1"
  bottom: "inception_4a/3x3"
  bottom: "inception_4a/5x5"
  bottom: "inception_4a/pool_proj"
  top: "inception_4a/output"
}
layer {
  name: "loss1/ave_pool"
  type: "Pooling"
  bottom: "inception_4a/output"
  top: "loss1/ave_pool"
  pooling_param {
    pool: AVE
    kernel_size: 5
    stride: 3
  }
}
layer {
  name: "loss1/conv"
  type: "Convolution"
  bottom: "loss1/ave_pool"
  top: "loss1/conv"
  param {
    lr_mult: 1
    decay_mult: 1
  }
  param {
    lr_mult: 2
    decay_mult: 0
  }
  convolution_param {
    num_output: 128
    kernel_size: 1
    weight_filler {
      type: "xavier"
      std: 0.08
    }
    bias_filler {
      type: "constant"
      value: 0.2
    }
  }
}
layer {
  name: "loss1/relu_conv"
  type: "ReLU"
  bottom: "loss1/conv"
  top: "loss1/conv"
}
layer {
  name: "loss1/fc"
  type: "InnerProduct"
  bottom: "loss1/conv"
  top: "loss1/fc"
  param {
    lr_mult: 1
    decay_mult: 1
  }
  param {
    lr_mult: 2
    decay_mult: 0
  }
  inner_product_param {
    num_output: 1024
    weight_filler {
      type: "xavier"
      std: 0.02
    }
    bias_filler {
      type: "constant"
      value: 0.2
    }
  }
}
layer {
  name: "loss1/relu_fc"
  type: "ReLU"
  bottom: "loss1/fc"
  top: "loss1/fc"
}
layer {
  name: "loss1/drop_fc"
  type: "Dropout"
  bottom: "loss1/fc"
  top: "loss1/fc"
  dropout_param {
    dropout_ratio: 0.7
  }
}
layer {
  name: "loss1/classifier_plantvillage"
  type: "InnerProduct"
  bottom: "loss1/fc"
  top: "loss1/classifier_plantvillage"
  param {
    lr_mult: 1
    decay_mult: 1
  }
  param {
    lr_mult: 2
    decay_mult: 0
  }
  inner_product_param {
    num_output: 38
    weight_filler {
      type: "xavier"
      std: 0.0009765625
    }
    bias_filler {
      type: "constant"
      value: 0
    }
  }
}
layer {
  name: "inception_4b/1x1"
  type: "Convolution"
  bottom: "inception_4a/output"
  top: "inception_4b/1x1"
  param {
    lr_mult: 1
    decay_mult: 1
  }
  param {
    lr_mult: 2
    decay_mult: 0
  }
  convolution_param {
    num_output: 160
    kernel_size: 1
    weight_filler {
      type: "xavier"
      std: 0.03
    }
    bias_filler {
      type: "constant"
      value: 0.2
    }
  }
}
layer {
  name: "inception_4b/relu_1x1"
  type: "ReLU"
  bottom: "inception_4b/1x1"
  top: "inception_4b/1x1"
}
layer {
  name: "inception_4b/3x3_reduce"
  type: "Convolution"
  bottom: "inception_4a/output"
  top: "inception_4b/3x3_reduce"
  param {
    lr_mult: 1
    decay_mult: 1
  }
  param {
    lr_mult: 2
    decay_mult: 0
  }
  convolution_param {
    num_output: 112
    kernel_size: 1
    weight_filler {
      type: "xavier"
      std: 0.09
    }
    bias_filler {
      type: "constant"
      value: 0.2
    }
  }
}
layer {
  name: "inception_4b/relu_3x3_reduce"
  type: "ReLU"
  bottom: "inception_4b/3x3_reduce"
  top: "inception_4b/3x3_reduce"
}
layer {
  name: "inception_4b/3x3"
  type: "Convolution"
  bottom: "inception_4b/3x3_reduce"
  top: "inception_4b/3x3"
  param {
    lr_mult: 1
    decay_mult: 1
  }
  param {
    lr_mult: 2
    decay_mult: 0
  }
  convolution_param {
    num_output: 224
    pad: 1
    kernel_size: 3
    weight_filler {
      type: "xavier"
      std: 0.03
    }
    bias_filler {
      type: "constant"
      value: 0.2
    }
  }
}
layer {
  name: "inception_4b/relu_3x3"
  type: "ReLU"
  bottom: "inception_4b/3x3"
  top: "inception_4b/3x3"
}
layer {
  name: "inception_4b/5x5_reduce"
  type: "Convolution"
  bottom: "inception_4a/output"
  top: "inception_4b/5x5_reduce"
  param {
    lr_mult: 1
    decay_mult: 1
  }
  param {
    lr_mult: 2
    decay_mult: 0
  }
  convolution_param {
    num_output: 24
    kernel_size: 1
    weight_filler {
      type: "xavier"
      std: 0.2
    }
    bias_filler {
      type: "constant"
      value: 0.2
    }
  }
}
layer {
  name: "inception_4b/relu_5x5_reduce"
  type: "ReLU"
  bottom: "inception_4b/5x5_reduce"
  top: "inception_4b/5x5_reduce"
}
layer {
  name: "inception_4b/5x5"
  type: "Convolution"
  bottom: "inception_4b/5x5_reduce"
  top: "inception_4b/5x5"
  param {
    lr_mult: 1
    decay_mult: 1
  }
  param {
    lr_mult: 2
    decay_mult: 0
  }
  convolution_param {
    num_output: 64
    pad: 2
    kernel_size: 5
    weight_filler {
      type: "xavier"
      std: 0.03
    }
    bias_filler {
      type: "constant"
      value: 0.2
    }
  }
}
layer {
  name: "inception_4b/relu_5x5"
  type: "ReLU"
  bottom: "inception_4b/5x5"
  top: "inception_4b/5x5"
}
layer {
  name: "inception_4b/pool"
  type: "Pooling"
  bottom: "inception_4a/output"
  top: "inception_4b/pool"
  pooling_param {
    pool: MAX
    kernel_size: 3
    stride: 1
    pad: 1
  }
}
layer {
  name: "inception_4b/pool_proj"
  type: "Convolution"
  bottom: "inception_4b/pool"
  top: "inception_4b/pool_proj"
  param {
    lr_mult: 1
    decay_mult: 1
  }
  param {
    lr_mult: 2
    decay_mult: 0
  }
  convolution_param {
    num_output: 64
    kernel_size: 1
    weight_filler {
      type: "xavier"
      std: 0.1
    }
    bias_filler {
      type: "constant"
      value: 0.2
    }
  }
}
layer {
  name: "inception_4b/relu_pool_proj"
  type: "ReLU"
  bottom: "inception_4b/pool_proj"
  top: "inception_4b/pool_proj"
}
layer {
  name: "inception_4b/output"
  type: "Concat"
  bottom: "inception_4b/1x1"
  bottom: "inception_4b/3x3"
  bottom: "inception_4b/5x5"
  bottom: "inception_4b/pool_proj"
  top: "inception_4b/output"
}
layer {
  name: "inception_4c/1x1"
  type: "Convolution"
  bottom: "inception_4b/output"
  top: "inception_4c/1x1"
  param {
    lr_mult: 1
    decay_mult: 1
  }
  param {
    lr_mult: 2
    decay_mult: 0
  }
  convolution_param {
    num_output: 128
    kernel_size: 1
    weight_filler {
      type: "xavier"
      std: 0.03
    }
    bias_filler {
      type: "constant"
      value: 0.2
    }
  }
}
layer {
  name: "inception_4c/relu_1x1"
  type: "ReLU"
  bottom: "inception_4c/1x1"
  top: "inception_4c/1x1"
}
layer {
  name: "inception_4c/3x3_reduce"
  type: "Convolution"
  bottom: "inception_4b/output"
  top: "inception_4c/3x3_reduce"
  param {
    lr_mult: 1
    decay_mult: 1
  }
  param {
    lr_mult: 2
    decay_mult: 0
  }
  convolution_param {
    num_output: 128
    kernel_size: 1
    weight_filler {
      type: "xavier"
      std: 0.09
    }
    bias_filler {
      type: "constant"
      value: 0.2
    }
  }
}
layer {
  name: "inception_4c/relu_3x3_reduce"
  type: "ReLU"
  bottom: "inception_4c/3x3_reduce"
  top: "inception_4c/3x3_reduce"
}
layer {
  name: "inception_4c/3x3"
  type: "Convolution"
  bottom: "inception_4c/3x3_reduce"
  top: "inception_4c/3x3"
  param {
    lr_mult: 1
    decay_mult: 1
  }
  param {
    lr_mult: 2
    decay_mult: 0
  }
  convolution_param {
    num_output: 256
    pad: 1
    kernel_size: 3
    weight_filler {
      type: "xavier"
      std: 0.03
    }
    bias_filler {
      type: "constant"
      value: 0.2
    }
  }
}
layer {
  name: "inception_4c/relu_3x3"
  type: "ReLU"
  bottom: "inception_4c/3x3"
  top: "inception_4c/3x3"
}
layer {
  name: "inception_4c/5x5_reduce"
  type: "Convolution"
  bottom: "inception_4b/output"
  top: "inception_4c/5x5_reduce"
  param {
    lr_mult: 1
    decay_mult: 1
  }
  param {
    lr_mult: 2
    decay_mult: 0
  }
  convolution_param {
    num_output: 24
    kernel_size: 1
    weight_filler {
      type: "xavier"
      std: 0.2
    }
    bias_filler {
      type: "constant"
      value: 0.2
    }
  }
}
layer {
  name: "inception_4c/relu_5x5_reduce"
  type: "ReLU"
  bottom: "inception_4c/5x5_reduce"
  top: "inception_4c/5x5_reduce"
}
layer {
  name: "inception_4c/5x5"
  type: "Convolution"
  bottom: "inception_4c/5x5_reduce"
  top: "inception_4c/5x5"
  param {
    lr_mult: 1
    decay_mult: 1
  }
  param {
    lr_mult: 2
    decay_mult: 0
  }
  convolution_param {
    num_output: 64
    pad: 2
    kernel_size: 5
    weight_filler {
      type: "xavier"
      std: 0.03
    }
    bias_filler {
      type: "constant"
      value: 0.2
    }
  }
}
layer {
  name: "inception_4c/relu_5x5"
  type: "ReLU"
  bottom: "inception_4c/5x5"
  top: "inception_4c/5x5"
}
layer {
  name: "inception_4c/pool"
  type: "Pooling"
  bottom: "inception_4b/output"
  top: "inception_4c/pool"
  pooling_param {
    pool: MAX
    kernel_size: 3
    stride: 1
    pad: 1
  }
}
layer {
  name: "inception_4c/pool_proj"
  type: "Convolution"
  bottom: "inception_4c/pool"
  top: "inception_4c/pool_proj"
  param {
    lr_mult: 1
    decay_mult: 1
  }
  param {
    lr_mult: 2
    decay_mult: 0
  }
  convolution_param {
    num_output: 64
    kernel_size: 1
    weight_filler {
      type: "xavier"
      std: 0.1
    }
    bias_filler {
      type: "constant"
      value: 0.2
    }
  }
}
layer {
  name: "inception_4c/relu_pool_proj"
  type: "ReLU"
  bottom: "inception_4c/pool_proj"
  top: "inception_4c/pool_proj"
}
layer {
  name: "inception_4c/output"
  type: "Concat"
  bottom: "inception_4c/1x1"
  bottom: "inception_4c/3x3"
  bottom: "inception_4c/5x5"
  bottom: "inception_4c/pool_proj"
  top: "inception_4c/output"
}
layer {
  name: "inception_4d/1x1"
  type: "Convolution"
  bottom: "inception_4c/output"
  top: "inception_4d/1x1"
  param {
    lr_mult: 1
    decay_mult: 1
  }
  param {
    lr_mult: 2
    decay_mult: 0
  }
  convolution_param {
    num_output: 112
    kernel_size: 1
    weight_filler {
      type: "xavier"
      std: 0.03
    }
    bias_filler {
      type: "constant"
      value: 0.2
    }
  }
}
layer {
  name: "inception_4d/relu_1x1"
  type: "ReLU"
  bottom: "inception_4d/1x1"
  top: "inception_4d/1x1"
}
layer {
  name: "inception_4d/3x3_reduce"
  type: "Convolution"
  bottom: "inception_4c/output"
  top: "inception_4d/3x3_reduce"
  param {
    lr_mult: 1
    decay_mult: 1
  }
  param {
    lr_mult: 2
    decay_mult: 0
  }
  convolution_param {
    num_output: 144
    kernel_size: 1
    weight_filler {
      type: "xavier"
      std: 0.09
    }
    bias_filler {
      type: "constant"
      value: 0.2
    }
  }
}
layer {
  name: "inception_4d/relu_3x3_reduce"
  type: "ReLU"
  bottom: "inception_4d/3x3_reduce"
  top: "inception_4d/3x3_reduce"
}
layer {
  name: "inception_4d/3x3"
  type: "Convolution"
  bottom: "inception_4d/3x3_reduce"
  top: "inception_4d/3x3"
  param {
    lr_mult: 1
    decay_mult: 1
  }
  param {
    lr_mult: 2
    decay_mult: 0
  }
  convolution_param {
    num_output: 288
    pad: 1
    kernel_size: 3
    weight_filler {
      type: "xavier"
      std: 0.03
    }
    bias_filler {
      type: "constant"
      value: 0.2
    }
  }
}
layer {
  name: "inception_4d/relu_3x3"
  type: "ReLU"
  bottom: "inception_4d/3x3"
  top: "inception_4d/3x3"
}
layer {
  name: "inception_4d/5x5_reduce"
  type: "Convolution"
  bottom: "inception_4c/output"
  top: "inception_4d/5x5_reduce"
  param {
    lr_mult: 1
    decay_mult: 1
  }
  param {
    lr_mult: 2
    decay_mult: 0
  }
  convolution_param {
    num_output: 32
    kernel_size: 1
    weight_filler {
      type: "xavier"
      std: 0.2
    }
    bias_filler {
      type: "constant"
      value: 0.2
    }
  }
}
layer {
  name: "inception_4d/relu_5x5_reduce"
  type: "ReLU"
  bottom: "inception_4d/5x5_reduce"
  top: "inception_4d/5x5_reduce"
}
layer {
  name: "inception_4d/5x5"
  type: "Convolution"
  bottom: "inception_4d/5x5_reduce"
  top: "inception_4d/5x5"
  param {
    lr_mult: 1
    decay_mult: 1
  }
  param {
    lr_mult: 2
    decay_mult: 0
  }
  convolution_param {
    num_output: 64
    pad: 2
    kernel_size: 5
    weight_filler {
      type: "xavier"
      std: 0.03
    }
    bias_filler {
      type: "constant"
      value: 0.2
    }
  }
}
layer {
  name: "inception_4d/relu_5x5"
  type: "ReLU"
  bottom: "inception_4d/5x5"
  top: "inception_4d/5x5"
}
layer {
  name: "inception_4d/pool"
  type: "Pooling"
  bottom: "inception_4c/output"
  top: "inception_4d/pool"
  pooling_param {
    pool: MAX
    kernel_size: 3
    stride: 1
    pad: 1
  }
}
layer {
  name: "inception_4d/pool_proj"
  type: "Convolution"
  bottom: "inception_4d/pool"
  top: "inception_4d/pool_proj"
  param {
    lr_mult: 1
    decay_mult: 1
  }
  param {
    lr_mult: 2
    decay_mult: 0
  }
  convolution_param {
    num_output: 64
    kernel_size: 1
    weight_filler {
      type: "xavier"
      std: 0.1
    }
    bias_filler {
      type: "constant"
      value: 0.2
    }
  }
}
layer {
  name: "inception_4d/relu_pool_proj"
  type: "ReLU"
  bottom: "inception_4d/pool_proj"
  top: "inception_4d/pool_proj"
}
layer {
  name: "inception_4d/output"
  type: "Concat"
  bottom: "inception_4d/1x1"
  bottom: "inception_4d/3x3"
  bottom: "inception_4d/5x5"
  bottom: "inception_4d/pool_proj"
  top: "inception_4d/output"
}
layer {
  name: "loss2/ave_pool"
  type: "Pooling"
  bottom: "inception_4d/output"
  top: "loss2/ave_pool"
  pooling_param {
    pool: AVE
    kernel_size: 5
    stride: 3
  }
}
layer {
  name: "loss2/conv"
  type: "Convolution"
  bottom: "loss2/ave_pool"
  top: "loss2/conv"
  param {
    lr_mult: 1
    decay_mult: 1
  }
  param {
    lr_mult: 2
    decay_mult: 0
  }
  convolution_param {
    num_output: 128
    kernel_size: 1
    weight_filler {
      type: "xavier"
      std: 0.08
    }
    bias_filler {
      type: "constant"
      value: 0.2
    }
  }
}
layer {
  name: "loss2/relu_conv"
  type: "ReLU"
  bottom: "loss2/conv"
  top: "loss2/conv"
}
layer {
  name: "loss2/fc"
  type: "InnerProduct"
  bottom: "loss2/conv"
  top: "loss2/fc"
  param {
    lr_mult: 1
    decay_mult: 1
  }
  param {
    lr_mult: 2
    decay_mult: 0
  }
  inner_product_param {
    num_output: 1024
    weight_filler {
      type: "xavier"
      std: 0.02
    }
    bias_filler {
      type: "constant"
      value: 0.2
    }
  }
}
layer {
  name: "loss2/relu_fc"
  type: "ReLU"
  bottom: "loss2/fc"
  top: "loss2/fc"
}
layer {
  name: "loss2/drop_fc"
  type: "Dropout"
  bottom: "loss2/fc"
  top: "loss2/fc"
  dropout_param {
    dropout_ratio: 0.7
  }
}
layer {
  name: "loss2/classifier_plantvillage"
  type: "InnerProduct"
  bottom: "loss2/fc"
  top: "loss2/classifier_plantvillage"
  param {
    lr_mult: 1
    decay_mult: 1
  }
  param {
    lr_mult: 2
    decay_mult: 0
  }
  inner_product_param {
    num_output: 38
    weight_filler {
      type: "xavier"
      std: 0.0009765625
    }
    bias_filler {
      type: "constant"
      value: 0
    }
  }
}
layer {
  name: "inception_4e/1x1"
  type: "Convolution"
  bottom: "inception_4d/output"
  top: "inception_4e/1x1"
  param {
    lr_mult: 1
    decay_mult: 1
  }
  param {
    lr_mult: 2
    decay_mult: 0
  }
  convolution_param {
    num_output: 256
    kernel_size: 1
    weight_filler {
      type: "xavier"
      std: 0.03
    }
    bias_filler {
      type: "constant"
      value: 0.2
    }
  }
}
layer {
  name: "inception_4e/relu_1x1"
  type: "ReLU"
  bottom: "inception_4e/1x1"
  top: "inception_4e/1x1"
}
layer {
  name: "inception_4e/3x3_reduce"
  type: "Convolution"
  bottom: "inception_4d/output"
  top: "inception_4e/3x3_reduce"
  param {
    lr_mult: 1
    decay_mult: 1
  }
  param {
    lr_mult: 2
    decay_mult: 0
  }
  convolution_param {
    num_output: 160
    kernel_size: 1
    weight_filler {
      type: "xavier"
      std: 0.09
    }
    bias_filler {
      type: "constant"
      value: 0.2
    }
  }
}
layer {
  name: "inception_4e/relu_3x3_reduce"
  type: "ReLU"
  bottom: "inception_4e/3x3_reduce"
  top: "inception_4e/3x3_reduce"
}
layer {
  name: "inception_4e/3x3"
  type: "Convolution"
  bottom: "inception_4e/3x3_reduce"
  top: "inception_4e/3x3"
  param {
    lr_mult: 1
    decay_mult: 1
  }
  param {
    lr_mult: 2
    decay_mult: 0
  }
  convolution_param {
    num_output: 320
    pad: 1
    kernel_size: 3
    weight_filler {
      type: "xavier"
      std: 0.03
    }
    bias_filler {
      type: "constant"
      value: 0.2
    }
  }
}
layer {
  name: "inception_4e/relu_3x3"
  type: "ReLU"
  bottom: "inception_4e/3x3"
  top: "inception_4e/3x3"
}
layer {
  name: "inception_4e/5x5_reduce"
  type: "Convolution"
  bottom: "inception_4d/output"
  top: "inception_4e/5x5_reduce"
  param {
    lr_mult: 1
    decay_mult: 1
  }
  param {
    lr_mult: 2
    decay_mult: 0
  }
  convolution_param {
    num_output: 32
    kernel_size: 1
    weight_filler {
      type: "xavier"
      std: 0.2
    }
    bias_filler {
      type: "constant"
      value: 0.2
    }
  }
}
layer {
  name: "inception_4e/relu_5x5_reduce"
  type: "ReLU"
  bottom: "inception_4e/5x5_reduce"
  top: "inception_4e/5x5_reduce"
}
layer {
  name: "inception_4e/5x5"
  type: "Convolution"
  bottom: "inception_4e/5x5_reduce"
  top: "inception_4e/
I0403 19:20:02.010440 19506 layer_factory.hpp:77] Creating layer data
I0403 19:20:02.011039 19506 net.cpp:91] Creating Layer data
I0403 19:20:02.011071 19506 net.cpp:399] data -> data
I0403 19:20:02.011122 19506 net.cpp:399] data -> label
I0403 19:20:02.011160 19506 data_transformer.cpp:25] Loading mean file from: /home/mohanty/data/final_dataset/lmdb/segmented-60-40/mean.binaryproto
I0403 19:20:02.012327 19512 db_lmdb.cpp:38] Opened lmdb /home/mohanty/data/final_dataset/lmdb/segmented-60-40/test_db
I0403 19:20:02.024121 19506 data_layer.cpp:41] output data size: 24,3,224,224
I0403 19:20:02.051507 19506 net.cpp:141] Setting up data
I0403 19:20:02.051594 19506 net.cpp:148] Top shape: 24 3 224 224 (3612672)
I0403 19:20:02.051620 19506 net.cpp:148] Top shape: 24 (24)
I0403 19:20:02.051636 19506 net.cpp:156] Memory required for data: 14450784
I0403 19:20:02.051666 19506 layer_factory.hpp:77] Creating layer label_data_1_split
I0403 19:20:02.051695 19506 net.cpp:91] Creating Layer label_data_1_split
I0403 19:20:02.051714 19506 net.cpp:425] label_data_1_split <- label
I0403 19:20:02.051748 19506 net.cpp:399] label_data_1_split -> label_data_1_split_0
I0403 19:20:02.051777 19506 net.cpp:399] label_data_1_split -> label_data_1_split_1
I0403 19:20:02.051801 19506 net.cpp:399] label_data_1_split -> label_data_1_split_2
I0403 19:20:02.051823 19506 net.cpp:399] label_data_1_split -> label_data_1_split_3
I0403 19:20:02.051844 19506 net.cpp:399] label_data_1_split -> label_data_1_split_4
I0403 19:20:02.051865 19506 net.cpp:399] label_data_1_split -> label_data_1_split_5
I0403 19:20:02.051885 19506 net.cpp:399] label_data_1_split -> label_data_1_split_6
I0403 19:20:02.051906 19506 net.cpp:399] label_data_1_split -> label_data_1_split_7
I0403 19:20:02.051926 19506 net.cpp:399] label_data_1_split -> label_data_1_split_8
I0403 19:20:02.051947 19506 net.cpp:399] label_data_1_split -> label_data_1_split_9
I0403 19:20:02.052069 19506 net.cpp:141] Setting up label_data_1_split
I0403 19:20:02.052093 19506 net.cpp:148] Top shape: 24 (24)
I0403 19:20:02.052111 19506 net.cpp:148] Top shape: 24 (24)
I0403 19:20:02.052127 19506 net.cpp:148] Top shape: 24 (24)
I0403 19:20:02.052145 19506 net.cpp:148] Top shape: 24 (24)
I0403 19:20:02.052160 19506 net.cpp:148] Top shape: 24 (24)
I0403 19:20:02.052175 19506 net.cpp:148] Top shape: 24 (24)
I0403 19:20:02.052191 19506 net.cpp:148] Top shape: 24 (24)
I0403 19:20:02.052208 19506 net.cpp:148] Top shape: 24 (24)
I0403 19:20:02.052224 19506 net.cpp:148] Top shape: 24 (24)
I0403 19:20:02.052242 19506 net.cpp:148] Top shape: 24 (24)
I0403 19:20:02.052285 19506 net.cpp:156] Memory required for data: 14451744
I0403 19:20:02.052302 19506 layer_factory.hpp:77] Creating layer conv1/7x7_s2
I0403 19:20:02.052335 19506 net.cpp:91] Creating Layer conv1/7x7_s2
I0403 19:20:02.052355 19506 net.cpp:425] conv1/7x7_s2 <- data
I0403 19:20:02.052373 19506 net.cpp:399] conv1/7x7_s2 -> conv1/7x7_s2
I0403 19:20:02.190964 19506 net.cpp:141] Setting up conv1/7x7_s2
I0403 19:20:02.191050 19506 net.cpp:148] Top shape: 24 64 112 112 (19267584)
I0403 19:20:02.191068 19506 net.cpp:156] Memory required for data: 91522080
I0403 19:20:02.191103 19506 layer_factory.hpp:77] Creating layer conv1/relu_7x7
I0403 19:20:02.191133 19506 net.cpp:91] Creating Layer conv1/relu_7x7
I0403 19:20:02.191154 19506 net.cpp:425] conv1/relu_7x7 <- conv1/7x7_s2
I0403 19:20:02.191175 19506 net.cpp:386] conv1/relu_7x7 -> conv1/7x7_s2 (in-place)
I0403 19:20:02.191442 19506 net.cpp:141] Setting up conv1/relu_7x7
I0403 19:20:02.191473 19506 net.cpp:148] Top shape: 24 64 112 112 (19267584)
I0403 19:20:02.191490 19506 net.cpp:156] Memory required for data: 168592416
I0403 19:20:02.191506 19506 layer_factory.hpp:77] Creating layer pool1/3x3_s2
I0403 19:20:02.191534 19506 net.cpp:91] Creating Layer pool1/3x3_s2
I0403 19:20:02.191553 19506 net.cpp:425] pool1/3x3_s2 <- conv1/7x7_s2
I0403 19:20:02.191573 19506 net.cpp:399] pool1/3x3_s2 -> pool1/3x3_s2
I0403 19:20:02.191653 19506 net.cpp:141] Setting up pool1/3x3_s2
I0403 19:20:02.191679 19506 net.cpp:148] Top shape: 24 64 56 56 (4816896)
I0403 19:20:02.191695 19506 net.cpp:156] Memory required for data: 187860000
I0403 19:20:02.191711 19506 layer_factory.hpp:77] Creating layer pool1/norm1
I0403 19:20:02.191737 19506 net.cpp:91] Creating Layer pool1/norm1
I0403 19:20:02.191758 19506 net.cpp:425] pool1/norm1 <- pool1/3x3_s2
I0403 19:20:02.191777 19506 net.cpp:399] pool1/norm1 -> pool1/norm1
I0403 19:20:02.192087 19506 net.cpp:141] Setting up pool1/norm1
I0403 19:20:02.192116 19506 net.cpp:148] Top shape: 24 64 56 56 (4816896)
I0403 19:20:02.192131 19506 net.cpp:156] Memory required for data: 207127584
I0403 19:20:02.192147 19506 layer_factory.hpp:77] Creating layer conv2/3x3_reduce
I0403 19:20:02.192173 19506 net.cpp:91] Creating Layer conv2/3x3_reduce
I0403 19:20:02.192189 19506 net.cpp:425] conv2/3x3_reduce <- pool1/norm1
I0403 19:20:02.192210 19506 net.cpp:399] conv2/3x3_reduce -> conv2/3x3_reduce
I0403 19:20:02.193538 19506 net.cpp:141] Setting up conv2/3x3_reduce
I0403 19:20:02.193568 19506 net.cpp:148] Top shape: 24 64 56 56 (4816896)
I0403 19:20:02.193585 19506 net.cpp:156] Memory required for data: 226395168
I0403 19:20:02.193608 19506 layer_factory.hpp:77] Creating layer conv2/relu_3x3_reduce
I0403 19:20:02.193626 19506 net.cpp:91] Creating Layer conv2/relu_3x3_reduce
I0403 19:20:02.193644 19506 net.cpp:425] conv2/relu_3x3_reduce <- conv2/3x3_reduce
I0403 19:20:02.193661 19506 net.cpp:386] conv2/relu_3x3_reduce -> conv2/3x3_reduce (in-place)
I0403 19:20:02.193912 19506 net.cpp:141] Setting up conv2/relu_3x3_reduce
I0403 19:20:02.193939 19506 net.cpp:148] Top shape: 24 64 56 56 (4816896)
I0403 19:20:02.193956 19506 net.cpp:156] Memory required for data: 245662752
I0403 19:20:02.193972 19506 layer_factory.hpp:77] Creating layer conv2/3x3
I0403 19:20:02.194000 19506 net.cpp:91] Creating Layer conv2/3x3
I0403 19:20:02.194018 19506 net.cpp:425] conv2/3x3 <- conv2/3x3_reduce
I0403 19:20:02.194037 19506 net.cpp:399] conv2/3x3 -> conv2/3x3
I0403 19:20:02.196259 19506 net.cpp:141] Setting up conv2/3x3
I0403 19:20:02.196288 19506 net.cpp:148] Top shape: 24 192 56 56 (14450688)
I0403 19:20:02.196305 19506 net.cpp:156] Memory required for data: 303465504
I0403 19:20:02.196326 19506 layer_factory.hpp:77] Creating layer conv2/relu_3x3
I0403 19:20:02.196346 19506 net.cpp:91] Creating Layer conv2/relu_3x3
I0403 19:20:02.196362 19506 net.cpp:425] conv2/relu_3x3 <- conv2/3x3
I0403 19:20:02.196380 19506 net.cpp:386] conv2/relu_3x3 -> conv2/3x3 (in-place)
I0403 19:20:02.196537 19506 net.cpp:141] Setting up conv2/relu_3x3
I0403 19:20:02.196563 19506 net.cpp:148] Top shape: 24 192 56 56 (14450688)
I0403 19:20:02.196609 19506 net.cpp:156] Memory required for data: 361268256
I0403 19:20:02.196624 19506 layer_factory.hpp:77] Creating layer conv2/norm2
I0403 19:20:02.196642 19506 net.cpp:91] Creating Layer conv2/norm2
I0403 19:20:02.196660 19506 net.cpp:425] conv2/norm2 <- conv2/3x3
I0403 19:20:02.196677 19506 net.cpp:399] conv2/norm2 -> conv2/norm2
I0403 19:20:02.196959 19506 net.cpp:141] Setting up conv2/norm2
I0403 19:20:02.196988 19506 net.cpp:148] Top shape: 24 192 56 56 (14450688)
I0403 19:20:02.197006 19506 net.cpp:156] Memory required for data: 419071008
I0403 19:20:02.197021 19506 layer_factory.hpp:77] Creating layer pool2/3x3_s2
I0403 19:20:02.197039 19506 net.cpp:91] Creating Layer pool2/3x3_s2
I0403 19:20:02.197055 19506 net.cpp:425] pool2/3x3_s2 <- conv2/norm2
I0403 19:20:02.197073 19506 net.cpp:399] pool2/3x3_s2 -> pool2/3x3_s2
I0403 19:20:02.197123 19506 net.cpp:141] Setting up pool2/3x3_s2
I0403 19:20:02.197144 19506 net.cpp:148] Top shape: 24 192 28 28 (3612672)
I0403 19:20:02.197160 19506 net.cpp:156] Memory required for data: 433521696
I0403 19:20:02.197175 19506 layer_factory.hpp:77] Creating layer pool2/3x3_s2_pool2/3x3_s2_0_split
I0403 19:20:02.197192 19506 net.cpp:91] Creating Layer pool2/3x3_s2_pool2/3x3_s2_0_split
I0403 19:20:02.197209 19506 net.cpp:425] pool2/3x3_s2_pool2/3x3_s2_0_split <- pool2/3x3_s2
I0403 19:20:02.197227 19506 net.cpp:399] pool2/3x3_s2_pool2/3x3_s2_0_split -> pool2/3x3_s2_pool2/3x3_s2_0_split_0
I0403 19:20:02.197247 19506 net.cpp:399] pool2/3x3_s2_pool2/3x3_s2_0_split -> pool2/3x3_s2_pool2/3x3_s2_0_split_1
I0403 19:20:02.197268 19506 net.cpp:399] pool2/3x3_s2_pool2/3x3_s2_0_split -> pool2/3x3_s2_pool2/3x3_s2_0_split_2
I0403 19:20:02.197286 19506 net.cpp:399] pool2/3x3_s2_pool2/3x3_s2_0_split -> pool2/3x3_s2_pool2/3x3_s2_0_split_3
I0403 19:20:02.197351 19506 net.cpp:141] Setting up pool2/3x3_s2_pool2/3x3_s2_0_split
I0403 19:20:02.197373 19506 net.cpp:148] Top shape: 24 192 28 28 (3612672)
I0403 19:20:02.197391 19506 net.cpp:148] Top shape: 24 192 28 28 (3612672)
I0403 19:20:02.197405 19506 net.cpp:148] Top shape: 24 192 28 28 (3612672)
I0403 19:20:02.197422 19506 net.cpp:148] Top shape: 24 192 28 28 (3612672)
I0403 19:20:02.197437 19506 net.cpp:156] Memory required for data: 491324448
I0403 19:20:02.197451 19506 layer_factory.hpp:77] Creating layer inception_3a/1x1
I0403 19:20:02.197471 19506 net.cpp:91] Creating Layer inception_3a/1x1
I0403 19:20:02.197489 19506 net.cpp:425] inception_3a/1x1 <- pool2/3x3_s2_pool2/3x3_s2_0_split_0
I0403 19:20:02.197506 19506 net.cpp:399] inception_3a/1x1 -> inception_3a/1x1
I0403 19:20:02.199029 19506 net.cpp:141] Setting up inception_3a/1x1
I0403 19:20:02.199059 19506 net.cpp:148] Top shape: 24 64 28 28 (1204224)
I0403 19:20:02.199076 19506 net.cpp:156] Memory required for data: 496141344
I0403 19:20:02.199095 19506 layer_factory.hpp:77] Creating layer inception_3a/relu_1x1
I0403 19:20:02.199116 19506 net.cpp:91] Creating Layer inception_3a/relu_1x1
I0403 19:20:02.199133 19506 net.cpp:425] inception_3a/relu_1x1 <- inception_3a/1x1
I0403 19:20:02.199151 19506 net.cpp:386] inception_3a/relu_1x1 -> inception_3a/1x1 (in-place)
I0403 19:20:02.199328 19506 net.cpp:141] Setting up inception_3a/relu_1x1
I0403 19:20:02.199355 19506 net.cpp:148] Top shape: 24 64 28 28 (1204224)
I0403 19:20:02.199372 19506 net.cpp:156] Memory required for data: 500958240
I0403 19:20:02.199388 19506 layer_factory.hpp:77] Creating layer inception_3a/3x3_reduce
I0403 19:20:02.199410 19506 net.cpp:91] Creating Layer inception_3a/3x3_reduce
I0403 19:20:02.199429 19506 net.cpp:425] inception_3a/3x3_reduce <- pool2/3x3_s2_pool2/3x3_s2_0_split_1
I0403 19:20:02.199448 19506 net.cpp:399] inception_3a/3x3_reduce -> inception_3a/3x3_reduce
I0403 19:20:02.201158 19506 net.cpp:141] Setting up inception_3a/3x3_reduce
I0403 19:20:02.201186 19506 net.cpp:148] Top shape: 24 96 28 28 (1806336)
I0403 19:20:02.201205 19506 net.cpp:156] Memory required for data: 508183584
I0403 19:20:02.201226 19506 layer_factory.hpp:77] Creating layer inception_3a/relu_3x3_reduce
I0403 19:20:02.201266 19506 net.cpp:91] Creating Layer inception_3a/relu_3x3_reduce
I0403 19:20:02.201284 19506 net.cpp:425] inception_3a/relu_3x3_reduce <- inception_3a/3x3_reduce
I0403 19:20:02.201305 19506 net.cpp:386] inception_3a/relu_3x3_reduce -> inception_3a/3x3_reduce (in-place)
I0403 19:20:02.201488 19506 net.cpp:141] Setting up inception_3a/relu_3x3_reduce
I0403 19:20:02.201514 19506 net.cpp:148] Top shape: 24 96 28 28 (1806336)
I0403 19:20:02.201529 19506 net.cpp:156] Memory required for data: 515408928
I0403 19:20:02.201545 19506 layer_factory.hpp:77] Creating layer inception_3a/3x3
I0403 19:20:02.201568 19506 net.cpp:91] Creating Layer inception_3a/3x3
I0403 19:20:02.201586 19506 net.cpp:425] inception_3a/3x3 <- inception_3a/3x3_reduce
I0403 19:20:02.201609 19506 net.cpp:399] inception_3a/3x3 -> inception_3a/3x3
I0403 19:20:02.203292 19506 net.cpp:141] Setting up inception_3a/3x3
I0403 19:20:02.203325 19506 net.cpp:148] Top shape: 24 128 28 28 (2408448)
I0403 19:20:02.203341 19506 net.cpp:156] Memory required for data: 525042720
I0403 19:20:02.203361 19506 layer_factory.hpp:77] Creating layer inception_3a/relu_3x3
I0403 19:20:02.203380 19506 net.cpp:91] Creating Layer inception_3a/relu_3x3
I0403 19:20:02.203398 19506 net.cpp:425] inception_3a/relu_3x3 <- inception_3a/3x3
I0403 19:20:02.203418 19506 net.cpp:386] inception_3a/relu_3x3 -> inception_3a/3x3 (in-place)
I0403 19:20:02.203696 19506 net.cpp:141] Setting up inception_3a/relu_3x3
I0403 19:20:02.203727 19506 net.cpp:148] Top shape: 24 128 28 28 (2408448)
I0403 19:20:02.203742 19506 net.cpp:156] Memory required for data: 534676512
I0403 19:20:02.203758 19506 layer_factory.hpp:77] Creating layer inception_3a/5x5_reduce
I0403 19:20:02.203783 19506 net.cpp:91] Creating Layer inception_3a/5x5_reduce
I0403 19:20:02.203802 19506 net.cpp:425] inception_3a/5x5_reduce <- pool2/3x3_s2_pool2/3x3_s2_0_split_2
I0403 19:20:02.203822 19506 net.cpp:399] inception_3a/5x5_reduce -> inception_3a/5x5_reduce
I0403 19:20:02.204797 19506 net.cpp:141] Setting up inception_3a/5x5_reduce
I0403 19:20:02.204828 19506 net.cpp:148] Top shape: 24 16 28 28 (301056)
I0403 19:20:02.204845 19506 net.cpp:156] Memory required for data: 535880736
I0403 19:20:02.204864 19506 layer_factory.hpp:77] Creating layer inception_3a/relu_5x5_reduce
I0403 19:20:02.204884 19506 net.cpp:91] Creating Layer inception_3a/relu_5x5_reduce
I0403 19:20:02.204900 19506 net.cpp:425] inception_3a/relu_5x5_reduce <- inception_3a/5x5_reduce
I0403 19:20:02.204921 19506 net.cpp:386] inception_3a/relu_5x5_reduce -> inception_3a/5x5_reduce (in-place)
I0403 19:20:02.205224 19506 net.cpp:141] Setting up inception_3a/relu_5x5_reduce
I0403 19:20:02.205250 19506 net.cpp:148] Top shape: 24 16 28 28 (301056)
I0403 19:20:02.205266 19506 net.cpp:156] Memory required for data: 537084960
I0403 19:20:02.205281 19506 layer_factory.hpp:77] Creating layer inception_3a/5x5
I0403 19:20:02.205304 19506 net.cpp:91] Creating Layer inception_3a/5x5
I0403 19:20:02.205323 19506 net.cpp:425] inception_3a/5x5 <- inception_3a/5x5_reduce
I0403 19:20:02.205344 19506 net.cpp:399] inception_3a/5x5 -> inception_3a/5x5
I0403 19:20:02.206375 19506 net.cpp:141] Setting up inception_3a/5x5
I0403 19:20:02.206403 19506 net.cpp:148] Top shape: 24 32 28 28 (602112)
I0403 19:20:02.206421 19506 net.cpp:156] Memory required for data: 539493408
I0403 19:20:02.206441 19506 layer_factory.hpp:77] Creating layer inception_3a/relu_5x5
I0403 19:20:02.206460 19506 net.cpp:91] Creating Layer inception_3a/relu_5x5
I0403 19:20:02.206477 19506 net.cpp:425] inception_3a/relu_5x5 <- inception_3a/5x5
I0403 19:20:02.206495 19506 net.cpp:386] inception_3a/relu_5x5 -> inception_3a/5x5 (in-place)
I0403 19:20:02.206671 19506 net.cpp:141] Setting up inception_3a/relu_5x5
I0403 19:20:02.206699 19506 net.cpp:148] Top shape: 24 32 28 28 (602112)
I0403 19:20:02.206715 19506 net.cpp:156] Memory required for data: 541901856
I0403 19:20:02.206732 19506 layer_factory.hpp:77] Creating layer inception_3a/pool
I0403 19:20:02.206749 19506 net.cpp:91] Creating Layer inception_3a/pool
I0403 19:20:02.206780 19506 net.cpp:425] inception_3a/pool <- pool2/3x3_s2_pool2/3x3_s2_0_split_3
I0403 19:20:02.206802 19506 net.cpp:399] inception_3a/pool -> inception_3a/pool
I0403 19:20:02.206861 19506 net.cpp:141] Setting up inception_3a/pool
I0403 19:20:02.206887 19506 net.cpp:148] Top shape: 24 192 28 28 (3612672)
I0403 19:20:02.206904 19506 net.cpp:156] Memory required for data: 556352544
I0403 19:20:02.206920 19506 layer_factory.hpp:77] Creating layer inception_3a/pool_proj
I0403 19:20:02.206940 19506 net.cpp:91] Creating Layer inception_3a/pool_proj
I0403 19:20:02.206957 19506 net.cpp:425] inception_3a/pool_proj <- inception_3a/pool
I0403 19:20:02.206984 19506 net.cpp:399] inception_3a/pool_proj -> inception_3a/pool_proj
I0403 19:20:02.207960 19506 net.cpp:141] Setting up inception_3a/pool_proj
I0403 19:20:02.207993 19506 net.cpp:148] Top shape: 24 32 28 28 (602112)
I0403 19:20:02.208010 19506 net.cpp:156] Memory required for data: 558760992
I0403 19:20:02.208035 19506 layer_factory.hpp:77] Creating layer inception_3a/relu_pool_proj
I0403 19:20:02.208055 19506 net.cpp:91] Creating Layer inception_3a/relu_pool_proj
I0403 19:20:02.208073 19506 net.cpp:425] inception_3a/relu_pool_proj <- inception_3a/pool_proj
I0403 19:20:02.208093 19506 net.cpp:386] inception_3a/relu_pool_proj -> inception_3a/pool_proj (in-place)
I0403 19:20:02.208374 19506 net.cpp:141] Setting up inception_3a/relu_pool_proj
I0403 19:20:02.208402 19506 net.cpp:148] Top shape: 24 32 28 28 (602112)
I0403 19:20:02.208418 19506 net.cpp:156] Memory required for data: 561169440
I0403 19:20:02.208434 19506 layer_factory.hpp:77] Creating layer inception_3a/output
I0403 19:20:02.208453 19506 net.cpp:91] Creating Layer inception_3a/output
I0403 19:20:02.208469 19506 net.cpp:425] inception_3a/output <- inception_3a/1x1
I0403 19:20:02.208487 19506 net.cpp:425] inception_3a/output <- inception_3a/3x3
I0403 19:20:02.208504 19506 net.cpp:425] inception_3a/output <- inception_3a/5x5
I0403 19:20:02.208520 19506 net.cpp:425] inception_3a/output <- inception_3a/pool_proj
I0403 19:20:02.208537 19506 net.cpp:399] inception_3a/output -> inception_3a/output
I0403 19:20:02.208586 19506 net.cpp:141] Setting up inception_3a/output
I0403 19:20:02.208609 19506 net.cpp:148] Top shape: 24 256 28 28 (4816896)
I0403 19:20:02.208626 19506 net.cpp:156] Memory required for data: 580437024
I0403 19:20:02.208642 19506 layer_factory.hpp:77] Creating layer inception_3a/output_inception_3a/output_0_split
I0403 19:20:02.208662 19506 net.cpp:91] Creating Layer inception_3a/output_inception_3a/output_0_split
I0403 19:20:02.208678 19506 net.cpp:425] inception_3a/output_inception_3a/output_0_split <- inception_3a/output
I0403 19:20:02.208695 19506 net.cpp:399] inception_3a/output_inception_3a/output_0_split -> inception_3a/output_inception_3a/output_0_split_0
I0403 19:20:02.208716 19506 net.cpp:399] inception_3a/output_inception_3a/output_0_split -> inception_3a/output_inception_3a/output_0_split_1
I0403 19:20:02.208741 19506 net.cpp:399] inception_3a/output_inception_3a/output_0_split -> inception_3a/output_inception_3a/output_0_split_2
I0403 19:20:02.208765 19506 net.cpp:399] inception_3a/output_inception_3a/output_0_split -> inception_3a/output_inception_3a/output_0_split_3
I0403 19:20:02.208842 19506 net.cpp:141] Setting up inception_3a/output_inception_3a/output_0_split
I0403 19:20:02.208864 19506 net.cpp:148] Top shape: 24 256 28 28 (4816896)
I0403 19:20:02.208883 19506 net.cpp:148] Top shape: 24 256 28 28 (4816896)
I0403 19:20:02.208899 19506 net.cpp:148] Top shape: 24 256 28 28 (4816896)
I0403 19:20:02.208915 19506 net.cpp:148] Top shape: 24 256 28 28 (4816896)
I0403 19:20:02.208930 19506 net.cpp:156] Memory required for data: 657507360
I0403 19:20:02.208945 19506 layer_factory.hpp:77] Creating layer inception_3b/1x1
I0403 19:20:02.208968 19506 net.cpp:91] Creating Layer inception_3b/1x1
I0403 19:20:02.208999 19506 net.cpp:425] inception_3b/1x1 <- inception_3a/output_inception_3a/output_0_split_0
I0403 19:20:02.209022 19506 net.cpp:399] inception_3b/1x1 -> inception_3b/1x1
I0403 19:20:02.210177 19506 net.cpp:141] Setting up inception_3b/1x1
I0403 19:20:02.210218 19506 net.cpp:148] Top shape: 24 128 28 28 (2408448)
I0403 19:20:02.210237 19506 net.cpp:156] Memory required for data: 667141152
I0403 19:20:02.210256 19506 layer_factory.hpp:77] Creating layer inception_3b/relu_1x1
I0403 19:20:02.210278 19506 net.cpp:91] Creating Layer inception_3b/relu_1x1
I0403 19:20:02.210295 19506 net.cpp:425] inception_3b/relu_1x1 <- inception_3b/1x1
I0403 19:20:02.210314 19506 net.cpp:386] inception_3b/relu_1x1 -> inception_3b/1x1 (in-place)
I0403 19:20:02.210507 19506 net.cpp:141] Setting up inception_3b/relu_1x1
I0403 19:20:02.210536 19506 net.cpp:148] Top shape: 24 128 28 28 (2408448)
I0403 19:20:02.210553 19506 net.cpp:156] Memory required for data: 676774944
I0403 19:20:02.210568 19506 layer_factory.hpp:77] Creating layer inception_3b/3x3_reduce
I0403 19:20:02.210592 19506 net.cpp:91] Creating Layer inception_3b/3x3_reduce
I0403 19:20:02.210611 19506 net.cpp:425] inception_3b/3x3_reduce <- inception_3a/output_inception_3a/output_0_split_1
I0403 19:20:02.210644 19506 net.cpp:399] inception_3b/3x3_reduce -> inception_3b/3x3_reduce
I0403 19:20:02.211822 19506 net.cpp:141] Setting up inception_3b/3x3_reduce
I0403 19:20:02.211863 19506 net.cpp:148] Top shape: 24 128 28 28 (2408448)
I0403 19:20:02.211879 19506 net.cpp:156] Memory required for data: 686408736
I0403 19:20:02.211899 19506 layer_factory.hpp:77] Creating layer inception_3b/relu_3x3_reduce
I0403 19:20:02.211920 19506 net.cpp:91] Creating Layer inception_3b/relu_3x3_reduce
I0403 19:20:02.211937 19506 net.cpp:425] inception_3b/relu_3x3_reduce <- inception_3b/3x3_reduce
I0403 19:20:02.211956 19506 net.cpp:386] inception_3b/relu_3x3_reduce -> inception_3b/3x3_reduce (in-place)
I0403 19:20:02.212137 19506 net.cpp:141] Setting up inception_3b/relu_3x3_reduce
I0403 19:20:02.212165 19506 net.cpp:148] Top shape: 24 128 28 28 (2408448)
I0403 19:20:02.212182 19506 net.cpp:156] Memory required for data: 696042528
I0403 19:20:02.212198 19506 layer_factory.hpp:77] Creating layer inception_3b/3x3
I0403 19:20:02.212224 19506 net.cpp:91] Creating Layer inception_3b/3x3
I0403 19:20:02.212241 19506 net.cpp:425] inception_3b/3x3 <- inception_3b/3x3_reduce
I0403 19:20:02.212265 19506 net.cpp:399] inception_3b/3x3 -> inception_3b/3x3
I0403 19:20:02.215261 19506 net.cpp:141] Setting up inception_3b/3x3
I0403 19:20:02.215293 19506 net.cpp:148] Top shape: 24 192 28 28 (3612672)
I0403 19:20:02.215311 19506 net.cpp:156] Memory required for data: 710493216
I0403 19:20:02.215330 19506 layer_factory.hpp:77] Creating layer inception_3b/relu_3x3
I0403 19:20:02.215349 19506 net.cpp:91] Creating Layer inception_3b/relu_3x3
I0403 19:20:02.215366 19506 net.cpp:425] inception_3b/relu_3x3 <- inception_3b/3x3
I0403 19:20:02.215384 19506 net.cpp:386] inception_3b/relu_3x3 -> inception_3b/3x3 (in-place)
I0403 19:20:02.215667 19506 net.cpp:141] Setting up inception_3b/relu_3x3
I0403 19:20:02.215697 19506 net.cpp:148] Top shape: 24 192 28 28 (3612672)
I0403 19:20:02.215713 19506 net.cpp:156] Memory required for data: 724943904
I0403 19:20:02.215728 19506 layer_factory.hpp:77] Creating layer inception_3b/5x5_reduce
I0403 19:20:02.215752 19506 net.cpp:91] Creating Layer inception_3b/5x5_reduce
I0403 19:20:02.215771 19506 net.cpp:425] inception_3b/5x5_reduce <- inception_3a/output_inception_3a/output_0_split_2
I0403 19:20:02.215791 19506 net.cpp:399] inception_3b/5x5_reduce -> inception_3b/5x5_reduce
I0403 19:20:02.216807 19506 net.cpp:141] Setting up inception_3b/5x5_reduce
I0403 19:20:02.216838 19506 net.cpp:148] Top shape: 24 32 28 28 (602112)
I0403 19:20:02.216856 19506 net.cpp:156] Memory required for data: 727352352
I0403 19:20:02.216874 19506 layer_factory.hpp:77] Creating layer inception_3b/relu_5x5_reduce
I0403 19:20:02.216894 19506 net.cpp:91] Creating Layer inception_3b/relu_5x5_reduce
I0403 19:20:02.216912 19506 net.cpp:425] inception_3b/relu_5x5_reduce <- inception_3b/5x5_reduce
I0403 19:20:02.216929 19506 net.cpp:386] inception_3b/relu_5x5_reduce -> inception_3b/5x5_reduce (in-place)
I0403 19:20:02.217126 19506 net.cpp:141] Setting up inception_3b/relu_5x5_reduce
I0403 19:20:02.217155 19506 net.cpp:148] Top shape: 24 32 28 28 (602112)
I0403 19:20:02.217171 19506 net.cpp:156] Memory required for data: 729760800
I0403 19:20:02.217187 19506 layer_factory.hpp:77] Creating layer inception_3b/5x5
I0403 19:20:02.217211 19506 net.cpp:91] Creating Layer inception_3b/5x5
I0403 19:20:02.217229 19506 net.cpp:425] inception_3b/5x5 <- inception_3b/5x5_reduce
I0403 19:20:02.217249 19506 net.cpp:399] inception_3b/5x5 -> inception_3b/5x5
I0403 19:20:02.219267 19506 net.cpp:141] Setting up inception_3b/5x5
I0403 19:20:02.219296 19506 net.cpp:148] Top shape: 24 96 28 28 (1806336)
I0403 19:20:02.219313 19506 net.cpp:156] Memory required for data: 736986144
I0403 19:20:02.219331 19506 layer_factory.hpp:77] Creating layer inception_3b/relu_5x5
I0403 19:20:02.219352 19506 net.cpp:91] Creating Layer inception_3b/relu_5x5
I0403 19:20:02.219368 19506 net.cpp:425] inception_3b/relu_5x5 <- inception_3b/5x5
I0403 19:20:02.219386 19506 net.cpp:386] inception_3b/relu_5x5 -> inception_3b/5x5 (in-place)
I0403 19:20:02.219578 19506 net.cpp:141] Setting up inception_3b/relu_5x5
I0403 19:20:02.219615 19506 net.cpp:148] Top shape: 24 96 28 28 (1806336)
I0403 19:20:02.219631 19506 net.cpp:156] Memory required for data: 744211488
I0403 19:20:02.219646 19506 layer_factory.hpp:77] Creating layer inception_3b/pool
I0403 19:20:02.219665 19506 net.cpp:91] Creating Layer inception_3b/pool
I0403 19:20:02.219681 19506 net.cpp:425] inception_3b/pool <- inception_3a/output_inception_3a/output_0_split_3
I0403 19:20:02.219699 19506 net.cpp:399] inception_3b/pool -> inception_3b/pool
I0403 19:20:02.219758 19506 net.cpp:141] Setting up inception_3b/pool
I0403 19:20:02.219781 19506 net.cpp:148] Top shape: 24 256 28 28 (4816896)
I0403 19:20:02.219797 19506 net.cpp:156] Memory required for data: 763479072
I0403 19:20:02.219811 19506 layer_factory.hpp:77] Creating layer inception_3b/pool_proj
I0403 19:20:02.219835 19506 net.cpp:91] Creating Layer inception_3b/pool_proj
I0403 19:20:02.219853 19506 net.cpp:425] inception_3b/pool_proj <- inception_3b/pool
I0403 19:20:02.219874 19506 net.cpp:399] inception_3b/pool_proj -> inception_3b/pool_proj
I0403 19:20:02.220933 19506 net.cpp:141] Setting up inception_3b/pool_proj
I0403 19:20:02.220960 19506 net.cpp:148] Top shape: 24 64 28 28 (1204224)
I0403 19:20:02.220976 19506 net.cpp:156] Memory required for data: 768295968
I0403 19:20:02.221000 19506 layer_factory.hpp:77] Creating layer inception_3b/relu_pool_proj
I0403 19:20:02.221019 19506 net.cpp:91] Creating Layer inception_3b/relu_pool_proj
I0403 19:20:02.221035 19506 net.cpp:425] inception_3b/relu_pool_proj <- inception_3b/pool_proj
I0403 19:20:02.221055 19506 net.cpp:386] inception_3b/relu_pool_proj -> inception_3b/pool_proj (in-place)
I0403 19:20:02.221441 19506 net.cpp:141] Setting up inception_3b/relu_pool_proj
I0403 19:20:02.221469 19506 net.cpp:148] Top shape: 24 64 28 28 (1204224)
I0403 19:20:02.221485 19506 net.cpp:156] Memory required for data: 773112864
I0403 19:20:02.221500 19506 layer_factory.hpp:77] Creating layer inception_3b/output
I0403 19:20:02.221518 19506 net.cpp:91] Creating Layer inception_3b/output
I0403 19:20:02.221534 19506 net.cpp:425] inception_3b/output <- inception_3b/1x1
I0403 19:20:02.221551 19506 net.cpp:425] inception_3b/output <- inception_3b/3x3
I0403 19:20:02.221568 19506 net.cpp:425] inception_3b/output <- inception_3b/5x5
I0403 19:20:02.221583 19506 net.cpp:425] inception_3b/output <- inception_3b/pool_proj
I0403 19:20:02.221601 19506 net.cpp:399] inception_3b/output -> inception_3b/output
I0403 19:20:02.221645 19506 net.cpp:141] Setting up inception_3b/output
I0403 19:20:02.221668 19506 net.cpp:148] Top shape: 24 480 28 28 (9031680)
I0403 19:20:02.221683 19506 net.cpp:156] Memory required for data: 809239584
I0403 19:20:02.221699 19506 layer_factory.hpp:77] Creating layer pool3/3x3_s2
I0403 19:20:02.221720 19506 net.cpp:91] Creating Layer pool3/3x3_s2
I0403 19:20:02.221737 19506 net.cpp:425] pool3/3x3_s2 <- inception_3b/output
I0403 19:20:02.221771 19506 net.cpp:399] pool3/3x3_s2 -> pool3/3x3_s2
I0403 19:20:02.221832 19506 net.cpp:141] Setting up pool3/3x3_s2
I0403 19:20:02.221854 19506 net.cpp:148] Top shape: 24 480 14 14 (2257920)
I0403 19:20:02.221869 19506 net.cpp:156] Memory required for data: 818271264
I0403 19:20:02.221884 19506 layer_factory.hpp:77] Creating layer pool3/3x3_s2_pool3/3x3_s2_0_split
I0403 19:20:02.221902 19506 net.cpp:91] Creating Layer pool3/3x3_s2_pool3/3x3_s2_0_split
I0403 19:20:02.221918 19506 net.cpp:425] pool3/3x3_s2_pool3/3x3_s2_0_split <- pool3/3x3_s2
I0403 19:20:02.221940 19506 net.cpp:399] pool3/3x3_s2_pool3/3x3_s2_0_split -> pool3/3x3_s2_pool3/3x3_s2_0_split_0
I0403 19:20:02.221961 19506 net.cpp:399] pool3/3x3_s2_pool3/3x3_s2_0_split -> pool3/3x3_s2_pool3/3x3_s2_0_split_1
I0403 19:20:02.221984 19506 net.cpp:399] pool3/3x3_s2_pool3/3x3_s2_0_split -> pool3/3x3_s2_pool3/3x3_s2_0_split_2
I0403 19:20:02.222007 19506 net.cpp:399] pool3/3x3_s2_pool3/3x3_s2_0_split -> pool3/3x3_s2_pool3/3x3_s2_0_split_3
I0403 19:20:02.222084 19506 net.cpp:141] Setting up pool3/3x3_s2_pool3/3x3_s2_0_split
I0403 19:20:02.222108 19506 net.cpp:148] Top shape: 24 480 14 14 (2257920)
I0403 19:20:02.222126 19506 net.cpp:148] Top shape: 24 480 14 14 (2257920)
I0403 19:20:02.222141 19506 net.cpp:148] Top shape: 24 480 14 14 (2257920)
I0403 19:20:02.222157 19506 net.cpp:148] Top shape: 24 480 14 14 (2257920)
I0403 19:20:02.222172 19506 net.cpp:156] Memory required for data: 854397984
I0403 19:20:02.222187 19506 layer_factory.hpp:77] Creating layer inception_4a/1x1
I0403 19:20:02.222210 19506 net.cpp:91] Creating Layer inception_4a/1x1
I0403 19:20:02.222228 19506 net.cpp:425] inception_4a/1x1 <- pool3/3x3_s2_pool3/3x3_s2_0_split_0
I0403 19:20:02.222249 19506 net.cpp:399] inception_4a/1x1 -> inception_4a/1x1
I0403 19:20:02.223800 19506 net.cpp:141] Setting up inception_4a/1x1
I0403 19:20:02.223827 19506 net.cpp:148] Top shape: 24 192 14 14 (903168)
I0403 19:20:02.223844 19506 net.cpp:156] Memory required for data: 858010656
I0403 19:20:02.223862 19506 layer_factory.hpp:77] Creating layer inception_4a/relu_1x1
I0403 19:20:02.223882 19506 net.cpp:91] Creating Layer inception_4a/relu_1x1
I0403 19:20:02.223899 19506 net.cpp:425] inception_4a/relu_1x1 <- inception_4a/1x1
I0403 19:20:02.223917 19506 net.cpp:386] inception_4a/relu_1x1 -> inception_4a/1x1 (in-place)
I0403 19:20:02.224097 19506 net.cpp:141] Setting up inception_4a/relu_1x1
I0403 19:20:02.224122 19506 net.cpp:148] Top shape: 24 192 14 14 (903168)
I0403 19:20:02.224136 19506 net.cpp:156] Memory required for data: 861623328
I0403 19:20:02.224151 19506 layer_factory.hpp:77] Creating layer inception_4a/3x3_reduce
I0403 19:20:02.224174 19506 net.cpp:91] Creating Layer inception_4a/3x3_reduce
I0403 19:20:02.224191 19506 net.cpp:425] inception_4a/3x3_reduce <- pool3/3x3_s2_pool3/3x3_s2_0_split_1
I0403 19:20:02.224215 19506 net.cpp:399] inception_4a/3x3_reduce -> inception_4a/3x3_reduce
I0403 19:20:02.225481 19506 net.cpp:141] Setting up inception_4a/3x3_reduce
I0403 19:20:02.225508 19506 net.cpp:148] Top shape: 24 96 14 14 (451584)
I0403 19:20:02.225524 19506 net.cpp:156] Memory required for data: 863429664
I0403 19:20:02.225549 19506 layer_factory.hpp:77] Creating layer inception_4a/relu_3x3_reduce
I0403 19:20:02.225569 19506 net.cpp:91] Creating Layer inception_4a/relu_3x3_reduce
I0403 19:20:02.225586 19506 net.cpp:425] inception_4a/relu_3x3_reduce <- inception_4a/3x3_reduce
I0403 19:20:02.225606 19506 net.cpp:386] inception_4a/relu_3x3_reduce -> inception_4a/3x3_reduce (in-place)
I0403 19:20:02.225785 19506 net.cpp:141] Setting up inception_4a/relu_3x3_reduce
I0403 19:20:02.225810 19506 net.cpp:148] Top shape: 24 96 14 14 (451584)
I0403 19:20:02.225824 19506 net.cpp:156] Memory required for data: 865236000
I0403 19:20:02.225839 19506 layer_factory.hpp:77] Creating layer inception_4a/3x3
I0403 19:20:02.225862 19506 net.cpp:91] Creating Layer inception_4a/3x3
I0403 19:20:02.225881 19506 net.cpp:425] inception_4a/3x3 <- inception_4a/3x3_reduce
I0403 19:20:02.225903 19506 net.cpp:399] inception_4a/3x3 -> inception_4a/3x3
I0403 19:20:02.228554 19506 net.cpp:141] Setting up inception_4a/3x3
I0403 19:20:02.228582 19506 net.cpp:148] Top shape: 24 208 14 14 (978432)
I0403 19:20:02.228598 19506 net.cpp:156] Memory required for data: 869149728
I0403 19:20:02.228617 19506 layer_factory.hpp:77] Creating layer inception_4a/relu_3x3
I0403 19:20:02.228638 19506 net.cpp:91] Creating Layer inception_4a/relu_3x3
I0403 19:20:02.228657 19506 net.cpp:425] inception_4a/relu_3x3 <- inception_4a/3x3
I0403 19:20:02.228674 19506 net.cpp:386] inception_4a/relu_3x3 -> inception_4a/3x3 (in-place)
I0403 19:20:02.228945 19506 net.cpp:141] Setting up inception_4a/relu_3x3
I0403 19:20:02.228971 19506 net.cpp:148] Top shape: 24 208 14 14 (978432)
I0403 19:20:02.228997 19506 net.cpp:156] Memory required for data: 873063456
I0403 19:20:02.229014 19506 layer_factory.hpp:77] Creating layer inception_4a/5x5_reduce
I0403 19:20:02.229038 19506 net.cpp:91] Creating Layer inception_4a/5x5_reduce
I0403 19:20:02.229054 19506 net.cpp:425] inception_4a/5x5_reduce <- pool3/3x3_s2_pool3/3x3_s2_0_split_2
I0403 19:20:02.229076 19506 net.cpp:399] inception_4a/5x5_reduce -> inception_4a/5x5_reduce
I0403 19:20:02.230115 19506 net.cpp:141] Setting up inception_4a/5x5_reduce
I0403 19:20:02.230144 19506 net.cpp:148] Top shape: 24 16 14 14 (75264)
I0403 19:20:02.230160 19506 net.cpp:156] Memory required for data: 873364512
I0403 19:20:02.230180 19506 layer_factory.hpp:77] Creating layer inception_4a/relu_5x5_reduce
I0403 19:20:02.230201 19506 net.cpp:91] Creating Layer inception_4a/relu_5x5_reduce
I0403 19:20:02.230218 19506 net.cpp:425] inception_4a/relu_5x5_reduce <- inception_4a/5x5_reduce
I0403 19:20:02.230237 19506 net.cpp:386] inception_4a/relu_5x5_reduce -> inception_4a/5x5_reduce (in-place)
I0403 19:20:02.230420 19506 net.cpp:141] Setting up inception_4a/relu_5x5_reduce
I0403 19:20:02.230448 19506 net.cpp:148] Top shape: 24 16 14 14 (75264)
I0403 19:20:02.230464 19506 net.cpp:156] Memory required for data: 873665568
I0403 19:20:02.230480 19506 layer_factory.hpp:77] Creating layer inception_4a/5x5
I0403 19:20:02.230504 19506 net.cpp:91] Creating Layer inception_4a/5x5
I0403 19:20:02.230521 19506 net.cpp:425] inception_4a/5x5 <- inception_4a/5x5_reduce
I0403 19:20:02.230540 19506 net.cpp:399] inception_4a/5x5 -> inception_4a/5x5
I0403 19:20:02.231653 19506 net.cpp:141] Setting up inception_4a/5x5
I0403 19:20:02.231681 19506 net.cpp:148] Top shape: 24 48 14 14 (225792)
I0403 19:20:02.231698 19506 net.cpp:156] Memory required for data: 874568736
I0403 19:20:02.231716 19506 layer_factory.hpp:77] Creating layer inception_4a/relu_5x5
I0403 19:20:02.231736 19506 net.cpp:91] Creating Layer inception_4a/relu_5x5
I0403 19:20:02.231752 19506 net.cpp:425] inception_4a/relu_5x5 <- inception_4a/5x5
I0403 19:20:02.231772 19506 net.cpp:386] inception_4a/relu_5x5 -> inception_4a/5x5 (in-place)
I0403 19:20:02.231956 19506 net.cpp:141] Setting up inception_4a/relu_5x5
I0403 19:20:02.231984 19506 net.cpp:148] Top shape: 24 48 14 14 (225792)
I0403 19:20:02.232000 19506 net.cpp:156] Memory required for data: 875471904
I0403 19:20:02.232017 19506 layer_factory.hpp:77] Creating layer inception_4a/pool
I0403 19:20:02.232036 19506 net.cpp:91] Creating Layer inception_4a/pool
I0403 19:20:02.232054 19506 net.cpp:425] inception_4a/pool <- pool3/3x3_s2_pool3/3x3_s2_0_split_3
I0403 19:20:02.232074 19506 net.cpp:399] inception_4a/pool -> inception_4a/pool
I0403 19:20:02.232137 19506 net.cpp:141] Setting up inception_4a/pool
I0403 19:20:02.232161 19506 net.cpp:148] Top shape: 24 480 14 14 (2257920)
I0403 19:20:02.232177 19506 net.cpp:156] Memory required for data: 884503584
I0403 19:20:02.232192 19506 layer_factory.hpp:77] Creating layer inception_4a/pool_proj
I0403 19:20:02.232215 19506 net.cpp:91] Creating Layer inception_4a/pool_proj
I0403 19:20:02.232234 19506 net.cpp:425] inception_4a/pool_proj <- inception_4a/pool
I0403 19:20:02.232256 19506 net.cpp:399] inception_4a/pool_proj -> inception_4a/pool_proj
I0403 19:20:02.233450 19506 net.cpp:141] Setting up inception_4a/pool_proj
I0403 19:20:02.233479 19506 net.cpp:148] Top shape: 24 64 14 14 (301056)
I0403 19:20:02.233510 19506 net.cpp:156] Memory required for data: 885707808
I0403 19:20:02.233530 19506 layer_factory.hpp:77] Creating layer inception_4a/relu_pool_proj
I0403 19:20:02.233549 19506 net.cpp:91] Creating Layer inception_4a/relu_pool_proj
I0403 19:20:02.233566 19506 net.cpp:425] inception_4a/relu_pool_proj <- inception_4a/pool_proj
I0403 19:20:02.233588 19506 net.cpp:386] inception_4a/relu_pool_proj -> inception_4a/pool_proj (in-place)
I0403 19:20:02.233882 19506 net.cpp:141] Setting up inception_4a/relu_pool_proj
I0403 19:20:02.233911 19506 net.cpp:148] Top shape: 24 64 14 14 (301056)
I0403 19:20:02.233925 19506 net.cpp:156] Memory required for data: 886912032
I0403 19:20:02.233942 19506 layer_factory.hpp:77] Creating layer inception_4a/output
I0403 19:20:02.233959 19506 net.cpp:91] Creating Layer inception_4a/output
I0403 19:20:02.233976 19506 net.cpp:425] inception_4a/output <- inception_4a/1x1
I0403 19:20:02.233999 19506 net.cpp:425] inception_4a/output <- inception_4a/3x3
I0403 19:20:02.234016 19506 net.cpp:425] inception_4a/output <- inception_4a/5x5
I0403 19:20:02.234033 19506 net.cpp:425] inception_4a/output <- inception_4a/pool_proj
I0403 19:20:02.234053 19506 net.cpp:399] inception_4a/output -> inception_4a/output
I0403 19:20:02.234100 19506 net.cpp:141] Setting up inception_4a/output
I0403 19:20:02.234125 19506 net.cpp:148] Top shape: 24 512 14 14 (2408448)
I0403 19:20:02.234143 19506 net.cpp:156] Memory required for data: 896545824
I0403 19:20:02.234158 19506 layer_factory.hpp:77] Creating layer inception_4a/output_inception_4a/output_0_split
I0403 19:20:02.234175 19506 net.cpp:91] Creating Layer inception_4a/output_inception_4a/output_0_split
I0403 19:20:02.234192 19506 net.cpp:425] inception_4a/output_inception_4a/output_0_split <- inception_4a/output
I0403 19:20:02.234212 19506 net.cpp:399] inception_4a/output_inception_4a/output_0_split -> inception_4a/output_inception_4a/output_0_split_0
I0403 19:20:02.234236 19506 net.cpp:399] inception_4a/output_inception_4a/output_0_split -> inception_4a/output_inception_4a/output_0_split_1
I0403 19:20:02.234258 19506 net.cpp:399] inception_4a/output_inception_4a/output_0_split -> inception_4a/output_inception_4a/output_0_split_2
I0403 19:20:02.234279 19506 net.cpp:399] inception_4a/output_inception_4a/output_0_split -> inception_4a/output_inception_4a/output_0_split_3
I0403 19:20:02.234300 19506 net.cpp:399] inception_4a/output_inception_4a/output_0_split -> inception_4a/output_inception_4a/output_0_split_4
I0403 19:20:02.234396 19506 net.cpp:141] Setting up inception_4a/output_inception_4a/output_0_split
I0403 19:20:02.234421 19506 net.cpp:148] Top shape: 24 512 14 14 (2408448)
I0403 19:20:02.234439 19506 net.cpp:148] Top shape: 24 512 14 14 (2408448)
I0403 19:20:02.234457 19506 net.cpp:148] Top shape: 24 512 14 14 (2408448)
I0403 19:20:02.234474 19506 net.cpp:148] Top shape: 24 512 14 14 (2408448)
I0403 19:20:02.234490 19506 net.cpp:148] Top shape: 24 512 14 14 (2408448)
I0403 19:20:02.234504 19506 net.cpp:156] Memory required for data: 944714784
I0403 19:20:02.234519 19506 layer_factory.hpp:77] Creating layer loss1/ave_pool
I0403 19:20:02.234537 19506 net.cpp:91] Creating Layer loss1/ave_pool
I0403 19:20:02.234555 19506 net.cpp:425] loss1/ave_pool <- inception_4a/output_inception_4a/output_0_split_0
I0403 19:20:02.234573 19506 net.cpp:399] loss1/ave_pool -> loss1/ave_pool
I0403 19:20:02.234781 19506 net.cpp:141] Setting up loss1/ave_pool
I0403 19:20:02.234807 19506 net.cpp:148] Top shape: 24 512 4 4 (196608)
I0403 19:20:02.234822 19506 net.cpp:156] Memory required for data: 945501216
I0403 19:20:02.234838 19506 layer_factory.hpp:77] Creating layer loss1/conv
I0403 19:20:02.234860 19506 net.cpp:91] Creating Layer loss1/conv
I0403 19:20:02.234879 19506 net.cpp:425] loss1/conv <- loss1/ave_pool
I0403 19:20:02.234900 19506 net.cpp:399] loss1/conv -> loss1/conv
I0403 19:20:02.236337 19506 net.cpp:141] Setting up loss1/conv
I0403 19:20:02.236366 19506 net.cpp:148] Top shape: 24 128 4 4 (49152)
I0403 19:20:02.236397 19506 net.cpp:156] Memory required for data: 945697824
I0403 19:20:02.236416 19506 layer_factory.hpp:77] Creating layer loss1/relu_conv
I0403 19:20:02.236438 19506 net.cpp:91] Creating Layer loss1/relu_conv
I0403 19:20:02.236456 19506 net.cpp:425] loss1/relu_conv <- loss1/conv
I0403 19:20:02.236474 19506 net.cpp:386] loss1/relu_conv -> loss1/conv (in-place)
I0403 19:20:02.236765 19506 net.cpp:141] Setting up loss1/relu_conv
I0403 19:20:02.236793 19506 net.cpp:148] Top shape: 24 128 4 4 (49152)
I0403 19:20:02.236807 19506 net.cpp:156] Memory required for data: 945894432
I0403 19:20:02.236824 19506 layer_factory.hpp:77] Creating layer loss1/fc
I0403 19:20:02.236850 19506 net.cpp:91] Creating Layer loss1/fc
I0403 19:20:02.236868 19506 net.cpp:425] loss1/fc <- loss1/conv
I0403 19:20:02.236887 19506 net.cpp:399] loss1/fc -> loss1/fc
I0403 19:20:02.254695 19506 net.cpp:141] Setting up loss1/fc
I0403 19:20:02.254729 19506 net.cpp:148] Top shape: 24 1024 (24576)
I0403 19:20:02.254745 19506 net.cpp:156] Memory required for data: 945992736
I0403 19:20:02.254763 19506 layer_factory.hpp:77] Creating layer loss1/relu_fc
I0403 19:20:02.254781 19506 net.cpp:91] Creating Layer loss1/relu_fc
I0403 19:20:02.254796 19506 net.cpp:425] loss1/relu_fc <- loss1/fc
I0403 19:20:02.254817 19506 net.cpp:386] loss1/relu_fc -> loss1/fc (in-place)
I0403 19:20:02.255002 19506 net.cpp:141] Setting up loss1/relu_fc
I0403 19:20:02.255025 19506 net.cpp:148] Top shape: 24 1024 (24576)
I0403 19:20:02.255040 19506 net.cpp:156] Memory required for data: 946091040
I0403 19:20:02.255054 19506 layer_factory.hpp:77] Creating layer loss1/drop_fc
I0403 19:20:02.255080 19506 net.cpp:91] Creating Layer loss1/drop_fc
I0403 19:20:02.255097 19506 net.cpp:425] loss1/drop_fc <- loss1/fc
I0403 19:20:02.255115 19506 net.cpp:386] loss1/drop_fc -> loss1/fc (in-place)
I0403 19:20:02.255164 19506 net.cpp:141] Setting up loss1/drop_fc
I0403 19:20:02.255190 19506 net.cpp:148] Top shape: 24 1024 (24576)
I0403 19:20:02.255208 19506 net.cpp:156] Memory required for data: 946189344
I0403 19:20:02.255223 19506 layer_factory.hpp:77] Creating layer loss1/classifier_plantvillage
I0403 19:20:02.255240 19506 net.cpp:91] Creating Layer loss1/classifier_plantvillage
I0403 19:20:02.255255 19506 net.cpp:425] loss1/classifier_plantvillage <- loss1/fc
I0403 19:20:02.255275 19506 net.cpp:399] loss1/classifier_plantvillage -> loss1/classifier_plantvillage
I0403 19:20:02.256151 19506 net.cpp:141] Setting up loss1/classifier_plantvillage
I0403 19:20:02.256178 19506 net.cpp:148] Top shape: 24 38 (912)
I0403 19:20:02.256194 19506 net.cpp:156] Memory required for data: 946192992
I0403 19:20:02.256212 19506 layer_factory.hpp:77] Creating layer loss1/classifier_plantvillage_loss1/classifier_plantvillage_0_split
I0403 19:20:02.256232 19506 net.cpp:91] Creating Layer loss1/classifier_plantvillage_loss1/classifier_plantvillage_0_split
I0403 19:20:02.256248 19506 net.cpp:425] loss1/classifier_plantvillage_loss1/classifier_plantvillage_0_split <- loss1/classifier_plantvillage
I0403 19:20:02.256266 19506 net.cpp:399] loss1/classifier_plantvillage_loss1/classifier_plantvillage_0_split -> loss1/classifier_plantvillage_loss1/classifier_plantvillage_0_split_0
I0403 19:20:02.256286 19506 net.cpp:399] loss1/classifier_plantvillage_loss1/classifier_plantvillage_0_split -> loss1/classifier_plantvillage_loss1/classifier_plantvillage_0_split_1
I0403 19:20:02.256307 19506 net.cpp:399] loss1/classifier_plantvillage_loss1/classifier_plantvillage_0_split -> loss1/classifier_plantvillage_loss1/classifier_plantvillage_0_split_2
I0403 19:20:02.256371 19506 net.cpp:141] Setting up loss1/classifier_plantvillage_loss1/classifier_plantvillage_0_split
I0403 19:20:02.256397 19506 net.cpp:148] Top shape: 24 38 (912)
I0403 19:20:02.256412 19506 net.cpp:148] Top shape: 24 38 (912)
I0403 19:20:02.256428 19506 net.cpp:148] Top shape: 24 38 (912)
I0403 19:20:02.256441 19506 net.cpp:156] Memory required for data: 946203936
I0403 19:20:02.256456 19506 layer_factory.hpp:77] Creating layer inception_4b/1x1
I0403 19:20:02.256475 19506 net.cpp:91] Creating Layer inception_4b/1x1
I0403 19:20:02.256506 19506 net.cpp:425] inception_4b/1x1 <- inception_4a/output_inception_4a/output_0_split_1
I0403 19:20:02.256528 19506 net.cpp:399] inception_4b/1x1 -> inception_4b/1x1
I0403 19:20:02.258126 19506 net.cpp:141] Setting up inception_4b/1x1
I0403 19:20:02.258153 19506 net.cpp:148] Top shape: 24 160 14 14 (752640)
I0403 19:20:02.258168 19506 net.cpp:156] Memory required for data: 949214496
I0403 19:20:02.258186 19506 layer_factory.hpp:77] Creating layer inception_4b/relu_1x1
I0403 19:20:02.258206 19506 net.cpp:91] Creating Layer inception_4b/relu_1x1
I0403 19:20:02.258224 19506 net.cpp:425] inception_4b/relu_1x1 <- inception_4b/1x1
I0403 19:20:02.258240 19506 net.cpp:386] inception_4b/relu_1x1 -> inception_4b/1x1 (in-place)
I0403 19:20:02.258414 19506 net.cpp:141] Setting up inception_4b/relu_1x1
I0403 19:20:02.258440 19506 net.cpp:148] Top shape: 24 160 14 14 (752640)
I0403 19:20:02.258455 19506 net.cpp:156] Memory required for data: 952225056
I0403 19:20:02.258469 19506 layer_factory.hpp:77] Creating layer inception_4b/3x3_reduce
I0403 19:20:02.258491 19506 net.cpp:91] Creating Layer inception_4b/3x3_reduce
I0403 19:20:02.258508 19506 net.cpp:425] inception_4b/3x3_reduce <- inception_4a/output_inception_4a/output_0_split_2
I0403 19:20:02.258527 19506 net.cpp:399] inception_4b/3x3_reduce -> inception_4b/3x3_reduce
I0403 19:20:02.259835 19506 net.cpp:141] Setting up inception_4b/3x3_reduce
I0403 19:20:02.259865 19506 net.cpp:148] Top shape: 24 112 14 14 (526848)
I0403 19:20:02.259881 19506 net.cpp:156] Memory required for data: 954332448
I0403 19:20:02.259898 19506 layer_factory.hpp:77] Creating layer inception_4b/relu_3x3_reduce
I0403 19:20:02.259917 19506 net.cpp:91] Creating Layer inception_4b/relu_3x3_reduce
I0403 19:20:02.259932 19506 net.cpp:425] inception_4b/relu_3x3_reduce <- inception_4b/3x3_reduce
I0403 19:20:02.259953 19506 net.cpp:386] inception_4b/relu_3x3_reduce -> inception_4b/3x3_reduce (in-place)
I0403 19:20:02.260226 19506 net.cpp:141] Setting up inception_4b/relu_3x3_reduce
I0403 19:20:02.260253 19506 net.cpp:148] Top shape: 24 112 14 14 (526848)
I0403 19:20:02.260268 19506 net.cpp:156] Memory required for data: 956439840
I0403 19:20:02.260283 19506 layer_factory.hpp:77] Creating layer inception_4b/3x3
I0403 19:20:02.260305 19506 net.cpp:91] Creating Layer inception_4b/3x3
I0403 19:20:02.260324 19506 net.cpp:425] inception_4b/3x3 <- inception_4b/3x3_reduce
I0403 19:20:02.260342 19506 net.cpp:399] inception_4b/3x3 -> inception_4b/3x3
I0403 19:20:02.263244 19506 net.cpp:141] Setting up inception_4b/3x3
I0403 19:20:02.263273 19506 net.cpp:148] Top shape: 24 224 14 14 (1053696)
I0403 19:20:02.263289 19506 net.cpp:156] Memory required for data: 960654624
I0403 19:20:02.263306 19506 layer_factory.hpp:77] Creating layer inception_4b/relu_3x3
I0403 19:20:02.263326 19506 net.cpp:91] Creating Layer inception_4b/relu_3x3
I0403 19:20:02.263345 19506 net.cpp:425] inception_4b/relu_3x3 <- inception_4b/3x3
I0403 19:20:02.263361 19506 net.cpp:386] inception_4b/relu_3x3 -> inception_4b/3x3 (in-place)
I0403 19:20:02.263531 19506 net.cpp:141] Setting up inception_4b/relu_3x3
I0403 19:20:02.263556 19506 net.cpp:148] Top shape: 24 224 14 14 (1053696)
I0403 19:20:02.263571 19506 net.cpp:156] Memory required for data: 964869408
I0403 19:20:02.263584 19506 layer_factory.hpp:77] Creating layer inception_4b/5x5_reduce
I0403 19:20:02.263607 19506 net.cpp:91] Creating Layer inception_4b/5x5_reduce
I0403 19:20:02.263628 19506 net.cpp:425] inception_4b/5x5_reduce <- inception_4a/output_inception_4a/output_0_split_3
I0403 19:20:02.263645 19506 net.cpp:399] inception_4b/5x5_reduce -> inception_4b/5x5_reduce
I0403 19:20:02.264729 19506 net.cpp:141] Setting up inception_4b/5x5_reduce
I0403 19:20:02.264755 19506 net.cpp:148] Top shape: 24 24 14 14 (112896)
I0403 19:20:02.264770 19506 net.cpp:156] Memory required for data: 965320992
I0403 19:20:02.264788 19506 layer_factory.hpp:77] Creating layer inception_4b/relu_5x5_reduce
I0403 19:20:02.264808 19506 net.cpp:91] Creating Layer inception_4b/relu_5x5_reduce
I0403 19:20:02.264840 19506 net.cpp:425] inception_4b/relu_5x5_reduce <- inception_4b/5x5_reduce
I0403 19:20:02.264859 19506 net.cpp:386] inception_4b/relu_5x5_reduce -> inception_4b/5x5_reduce (in-place)
I0403 19:20:02.265040 19506 net.cpp:141] Setting up inception_4b/relu_5x5_reduce
I0403 19:20:02.265064 19506 net.cpp:148] Top shape: 24 24 14 14 (112896)
I0403 19:20:02.265079 19506 net.cpp:156] Memory required for data: 965772576
I0403 19:20:02.265094 19506 layer_factory.hpp:77] Creating layer inception_4b/5x5
I0403 19:20:02.265115 19506 net.cpp:91] Creating Layer inception_4b/5x5
I0403 19:20:02.265133 19506 net.cpp:425] inception_4b/5x5 <- inception_4b/5x5_reduce
I0403 19:20:02.265153 19506 net.cpp:399] inception_4b/5x5 -> inception_4b/5x5
I0403 19:20:02.266330 19506 net.cpp:141] Setting up inception_4b/5x5
I0403 19:20:02.266357 19506 net.cpp:148] Top shape: 24 64 14 14 (301056)
I0403 19:20:02.266372 19506 net.cpp:156] Memory required for data: 966976800
I0403 19:20:02.266391 19506 layer_factory.hpp:77] Creating layer inception_4b/relu_5x5
I0403 19:20:02.266412 19506 net.cpp:91] Creating Layer inception_4b/relu_5x5
I0403 19:20:02.266427 19506 net.cpp:425] inception_4b/relu_5x5 <- inception_4b/5x5
I0403 19:20:02.266444 19506 net.cpp:386] inception_4b/relu_5x5 -> inception_4b/5x5 (in-place)
I0403 19:20:02.266719 19506 net.cpp:141] Setting up inception_4b/relu_5x5
I0403 19:20:02.266744 19506 net.cpp:148] Top shape: 24 64 14 14 (301056)
I0403 19:20:02.266760 19506 net.cpp:156] Memory required for data: 968181024
I0403 19:20:02.266774 19506 layer_factory.hpp:77] Creating layer inception_4b/pool
I0403 19:20:02.266794 19506 net.cpp:91] Creating Layer inception_4b/pool
I0403 19:20:02.266810 19506 net.cpp:425] inception_4b/pool <- inception_4a/output_inception_4a/output_0_split_4
I0403 19:20:02.266829 19506 net.cpp:399] inception_4b/pool -> inception_4b/pool
I0403 19:20:02.266891 19506 net.cpp:141] Setting up inception_4b/pool
I0403 19:20:02.266914 19506 net.cpp:148] Top shape: 24 512 14 14 (2408448)
I0403 19:20:02.266928 19506 net.cpp:156] Memory required for data: 977814816
I0403 19:20:02.266943 19506 layer_factory.hpp:77] Creating layer inception_4b/pool_proj
I0403 19:20:02.266964 19506 net.cpp:91] Creating Layer inception_4b/pool_proj
I0403 19:20:02.266985 19506 net.cpp:425] inception_4b/pool_proj <- inception_4b/pool
I0403 19:20:02.267007 19506 net.cpp:399] inception_4b/pool_proj -> inception_4b/pool_proj
I0403 19:20:02.268164 19506 net.cpp:141] Setting up inception_4b/pool_proj
I0403 19:20:02.268194 19506 net.cpp:148] Top shape: 24 64 14 14 (301056)
I0403 19:20:02.268211 19506 net.cpp:156] Memory required for data: 979019040
I0403 19:20:02.268229 19506 layer_factory.hpp:77] Creating layer inception_4b/relu_pool_proj
I0403 19:20:02.268246 19506 net.cpp:91] Creating Layer inception_4b/relu_pool_proj
I0403 19:20:02.268262 19506 net.cpp:425] inception_4b/relu_pool_proj <- inception_4b/pool_proj
I0403 19:20:02.268280 19506 net.cpp:386] inception_4b/relu_pool_proj -> inception_4b/pool_proj (in-place)
I0403 19:20:02.268458 19506 net.cpp:141] Setting up inception_4b/relu_pool_proj
I0403 19:20:02.268484 19506 net.cpp:148] Top shape: 24 64 14 14 (301056)
I0403 19:20:02.268499 19506 net.cpp:156] Memory required for data: 980223264
I0403 19:20:02.268514 19506 layer_factory.hpp:77] Creating layer inception_4b/output
I0403 19:20:02.268532 19506 net.cpp:91] Creating Layer inception_4b/output
I0403 19:20:02.268546 19506 net.cpp:425] inception_4b/output <- inception_4b/1x1
I0403 19:20:02.268563 19506 net.cpp:425] inception_4b/output <- inception_4b/3x3
I0403 19:20:02.268579 19506 net.cpp:425] inception_4b/output <- inception_4b/5x5
I0403 19:20:02.268594 19506 net.cpp:425] inception_4b/output <- inception_4b/pool_proj
I0403 19:20:02.268613 19506 net.cpp:399] inception_4b/output -> inception_4b/output
I0403 19:20:02.268657 19506 net.cpp:141] Setting up inception_4b/output
I0403 19:20:02.268681 19506 net.cpp:148] Top shape: 24 512 14 14 (2408448)
I0403 19:20:02.268694 19506 net.cpp:156] Memory required for data: 989857056
I0403 19:20:02.268723 19506 layer_factory.hpp:77] Creating layer inception_4b/output_inception_4b/output_0_split
I0403 19:20:02.268744 19506 net.cpp:91] Creating Layer inception_4b/output_inception_4b/output_0_split
I0403 19:20:02.268760 19506 net.cpp:425] inception_4b/output_inception_4b/output_0_split <- inception_4b/output
I0403 19:20:02.268777 19506 net.cpp:399] inception_4b/output_inception_4b/output_0_split -> inception_4b/output_inception_4b/output_0_split_0
I0403 19:20:02.268797 19506 net.cpp:399] inception_4b/output_inception_4b/output_0_split -> inception_4b/output_inception_4b/output_0_split_1
I0403 19:20:02.268821 19506 net.cpp:399] inception_4b/output_inception_4b/output_0_split -> inception_4b/output_inception_4b/output_0_split_2
I0403 19:20:02.268841 19506 net.cpp:399] inception_4b/output_inception_4b/output_0_split -> inception_4b/output_inception_4b/output_0_split_3
I0403 19:20:02.268921 19506 net.cpp:141] Setting up inception_4b/output_inception_4b/output_0_split
I0403 19:20:02.268944 19506 net.cpp:148] Top shape: 24 512 14 14 (2408448)
I0403 19:20:02.268959 19506 net.cpp:148] Top shape: 24 512 14 14 (2408448)
I0403 19:20:02.268975 19506 net.cpp:148] Top shape: 24 512 14 14 (2408448)
I0403 19:20:02.269001 19506 net.cpp:148] Top shape: 24 512 14 14 (2408448)
I0403 19:20:02.269016 19506 net.cpp:156] Memory required for data: 1028392224
I0403 19:20:02.269031 19506 layer_factory.hpp:77] Creating layer inception_4c/1x1
I0403 19:20:02.269052 19506 net.cpp:91] Creating Layer inception_4c/1x1
I0403 19:20:02.269068 19506 net.cpp:425] inception_4c/1x1 <- inception_4b/output_inception_4b/output_0_split_0
I0403 19:20:02.269089 19506 net.cpp:399] inception_4c/1x1 -> inception_4c/1x1
I0403 19:20:02.270470 19506 net.cpp:141] Setting up inception_4c/1x1
I0403 19:20:02.270498 19506 net.cpp:148] Top shape: 24 128 14 14 (602112)
I0403 19:20:02.270512 19506 net.cpp:156] Memory required for data: 1030800672
I0403 19:20:02.270530 19506 layer_factory.hpp:77] Creating layer inception_4c/relu_1x1
I0403 19:20:02.270560 19506 net.cpp:91] Creating Layer inception_4c/relu_1x1
I0403 19:20:02.270577 19506 net.cpp:425] inception_4c/relu_1x1 <- inception_4c/1x1
I0403 19:20:02.270596 19506 net.cpp:386] inception_4c/relu_1x1 -> inception_4c/1x1 (in-place)
I0403 19:20:02.270781 19506 net.cpp:141] Setting up inception_4c/relu_1x1
I0403 19:20:02.270805 19506 net.cpp:148] Top shape: 24 128 14 14 (602112)
I0403 19:20:02.270819 19506 net.cpp:156] Memory required for data: 1033209120
I0403 19:20:02.270834 19506 layer_factory.hpp:77] Creating layer inception_4c/3x3_reduce
I0403 19:20:02.270869 19506 net.cpp:91] Creating Layer inception_4c/3x3_reduce
I0403 19:20:02.270885 19506 net.cpp:425] inception_4c/3x3_reduce <- inception_4b/output_inception_4b/output_0_split_1
I0403 19:20:02.270905 19506 net.cpp:399] inception_4c/3x3_reduce -> inception_4c/3x3_reduce
I0403 19:20:02.272778 19506 net.cpp:141] Setting up inception_4c/3x3_reduce
I0403 19:20:02.272805 19506 net.cpp:148] Top shape: 24 128 14 14 (602112)
I0403 19:20:02.272820 19506 net.cpp:156] Memory required for data: 1035617568
I0403 19:20:02.272838 19506 layer_factory.hpp:77] Creating layer inception_4c/relu_3x3_reduce
I0403 19:20:02.272858 19506 net.cpp:91] Creating Layer inception_4c/relu_3x3_reduce
I0403 19:20:02.272876 19506 net.cpp:425] inception_4c/relu_3x3_reduce <- inception_4c/3x3_reduce
I0403 19:20:02.272892 19506 net.cpp:386] inception_4c/relu_3x3_reduce -> inception_4c/3x3_reduce (in-place)
I0403 19:20:02.273170 19506 net.cpp:141] Setting up inception_4c/relu_3x3_reduce
I0403 19:20:02.273195 19506 net.cpp:148] Top shape: 24 128 14 14 (602112)
I0403 19:20:02.273211 19506 net.cpp:156] Memory required for data: 1038026016
I0403 19:20:02.273226 19506 layer_factory.hpp:77] Creating layer inception_4c/3x3
I0403 19:20:02.273247 19506 net.cpp:91] Creating Layer inception_4c/3x3
I0403 19:20:02.273265 19506 net.cpp:425] inception_4c/3x3 <- inception_4c/3x3_reduce
I0403 19:20:02.273288 19506 net.cpp:399] inception_4c/3x3 -> inception_4c/3x3
I0403 19:20:02.276787 19506 net.cpp:141] Setting up inception_4c/3x3
I0403 19:20:02.276828 19506 net.cpp:148] Top shape: 24 256 14 14 (1204224)
I0403 19:20:02.276846 19506 net.cpp:156] Memory required for data: 1042842912
I0403 19:20:02.276876 19506 layer_factory.hpp:77] Creating layer inception_4c/relu_3x3
I0403 19:20:02.276897 19506 net.cpp:91] Creating Layer inception_4c/relu_3x3
I0403 19:20:02.276913 19506 net.cpp:425] inception_4c/relu_3x3 <- inception_4c/3x3
I0403 19:20:02.276931 19506 net.cpp:386] inception_4c/relu_3x3 -> inception_4c/3x3 (in-place)
I0403 19:20:02.277112 19506 net.cpp:141] Setting up inception_4c/relu_3x3
I0403 19:20:02.277137 19506 net.cpp:148] Top shape: 24 256 14 14 (1204224)
I0403 19:20:02.277150 19506 net.cpp:156] Memory required for data: 1047659808
I0403 19:20:02.277165 19506 layer_factory.hpp:77] Creating layer inception_4c/5x5_reduce
I0403 19:20:02.277189 19506 net.cpp:91] Creating Layer inception_4c/5x5_reduce
I0403 19:20:02.277209 19506 net.cpp:425] inception_4c/5x5_reduce <- inception_4b/output_inception_4b/output_0_split_2
I0403 19:20:02.277227 19506 net.cpp:399] inception_4c/5x5_reduce -> inception_4c/5x5_reduce
I0403 19:20:02.278290 19506 net.cpp:141] Setting up inception_4c/5x5_reduce
I0403 19:20:02.278317 19506 net.cpp:148] Top shape: 24 24 14 14 (112896)
I0403 19:20:02.278332 19506 net.cpp:156] Memory required for data: 1048111392
I0403 19:20:02.278352 19506 layer_factory.hpp:77] Creating layer inception_4c/relu_5x5_reduce
I0403 19:20:02.278372 19506 net.cpp:91] Creating Layer inception_4c/relu_5x5_reduce
I0403 19:20:02.278388 19506 net.cpp:425] inception_4c/relu_5x5_reduce <- inception_4c/5x5_reduce
I0403 19:20:02.278404 19506 net.cpp:386] inception_4c/relu_5x5_reduce -> inception_4c/5x5_reduce (in-place)
I0403 19:20:02.278584 19506 net.cpp:141] Setting up inception_4c/relu_5x5_reduce
I0403 19:20:02.278609 19506 net.cpp:148] Top shape: 24 24 14 14 (112896)
I0403 19:20:02.278622 19506 net.cpp:156] Memory required for data: 1048562976
I0403 19:20:02.278637 19506 layer_factory.hpp:77] Creating layer inception_4c/5x5
I0403 19:20:02.278658 19506 net.cpp:91] Creating Layer inception_4c/5x5
I0403 19:20:02.278676 19506 net.cpp:425] inception_4c/5x5 <- inception_4c/5x5_reduce
I0403 19:20:02.278697 19506 net.cpp:399] inception_4c/5x5 -> inception_4c/5x5
I0403 19:20:02.279917 19506 net.cpp:141] Setting up inception_4c/5x5
I0403 19:20:02.279945 19506 net.cpp:148] Top shape: 24 64 14 14 (301056)
I0403 19:20:02.279963 19506 net.cpp:156] Memory required for data: 1049767200
I0403 19:20:02.279985 19506 layer_factory.hpp:77] Creating layer inception_4c/relu_5x5
I0403 19:20:02.280019 19506 net.cpp:91] Creating Layer inception_4c/relu_5x5
I0403 19:20:02.280045 19506 net.cpp:425] inception_4c/relu_5x5 <- inception_4c/5x5
I0403 19:20:02.280066 19506 net.cpp:386] inception_4c/relu_5x5 -> inception_4c/5x5 (in-place)
I0403 19:20:02.280359 19506 net.cpp:141] Setting up inception_4c/relu_5x5
I0403 19:20:02.280386 19506 net.cpp:148] Top shape: 24 64 14 14 (301056)
I0403 19:20:02.280402 19506 net.cpp:156] Memory required for data: 1050971424
I0403 19:20:02.280417 19506 layer_factory.hpp:77] Creating layer inception_4c/pool
I0403 19:20:02.280436 19506 net.cpp:91] Creating Layer inception_4c/pool
I0403 19:20:02.280452 19506 net.cpp:425] inception_4c/pool <- inception_4b/output_inception_4b/output_0_split_3
I0403 19:20:02.280473 19506 net.cpp:399] inception_4c/pool -> inception_4c/pool
I0403 19:20:02.280539 19506 net.cpp:141] Setting up inception_4c/pool
I0403 19:20:02.280565 19506 net.cpp:148] Top shape: 24 512 14 14 (2408448)
I0403 19:20:02.280580 19506 net.cpp:156] Memory required for data: 1060605216
I0403 19:20:02.280596 19506 layer_factory.hpp:77] Creating layer inception_4c/pool_proj
I0403 19:20:02.280617 19506 net.cpp:91] Creating Layer inception_4c/pool_proj
I0403 19:20:02.280635 19506 net.cpp:425] inception_4c/pool_proj <- inception_4c/pool
I0403 19:20:02.280654 19506 net.cpp:399] inception_4c/pool_proj -> inception_4c/pool_proj
I0403 19:20:02.281864 19506 net.cpp:141] Setting up inception_4c/pool_proj
I0403 19:20:02.281893 19506 net.cpp:148] Top shape: 24 64 14 14 (301056)
I0403 19:20:02.281924 19506 net.cpp:156] Memory required for data: 1061809440
I0403 19:20:02.281944 19506 layer_factory.hpp:77] Creating layer inception_4c/relu_pool_proj
I0403 19:20:02.281961 19506 net.cpp:91] Creating Layer inception_4c/relu_pool_proj
I0403 19:20:02.281981 19506 net.cpp:425] inception_4c/relu_pool_proj <- inception_4c/pool_proj
I0403 19:20:02.282001 19506 net.cpp:386] inception_4c/relu_pool_proj -> inception_4c/pool_proj (in-place)
I0403 19:20:02.282184 19506 net.cpp:141] Setting up inception_4c/relu_pool_proj
I0403 19:20:02.282212 19506 net.cpp:148] Top shape: 24 64 14 14 (301056)
I0403 19:20:02.282227 19506 net.cpp:156] Memory required for data: 1063013664
I0403 19:20:02.282243 19506 layer_factory.hpp:77] Creating layer inception_4c/output
I0403 19:20:02.282260 19506 net.cpp:91] Creating Layer inception_4c/output
I0403 19:20:02.282276 19506 net.cpp:425] inception_4c/output <- inception_4c/1x1
I0403 19:20:02.282292 19506 net.cpp:425] inception_4c/output <- inception_4c/3x3
I0403 19:20:02.282308 19506 net.cpp:425] inception_4c/output <- inception_4c/5x5
I0403 19:20:02.282325 19506 net.cpp:425] inception_4c/output <- inception_4c/pool_proj
I0403 19:20:02.282343 19506 net.cpp:399] inception_4c/output -> inception_4c/output
I0403 19:20:02.282389 19506 net.cpp:141] Setting up inception_4c/output
I0403 19:20:02.282412 19506 net.cpp:148] Top shape: 24 512 14 14 (2408448)
I0403 19:20:02.282426 19506 net.cpp:156] Memory required for data: 1072647456
I0403 19:20:02.282441 19506 layer_factory.hpp:77] Creating layer inception_4c/output_inception_4c/output_0_split
I0403 19:20:02.282461 19506 net.cpp:91] Creating Layer inception_4c/output_inception_4c/output_0_split
I0403 19:20:02.282477 19506 net.cpp:425] inception_4c/output_inception_4c/output_0_split <- inception_4c/output
I0403 19:20:02.282495 19506 net.cpp:399] inception_4c/output_inception_4c/output_0_split -> inception_4c/output_inception_4c/output_0_split_0
I0403 19:20:02.282516 19506 net.cpp:399] inception_4c/output_inception_4c/output_0_split -> inception_4c/output_inception_4c/output_0_split_1
I0403 19:20:02.282539 19506 net.cpp:399] inception_4c/output_inception_4c/output_0_split -> inception_4c/output_inception_4c/output_0_split_2
I0403 19:20:02.282560 19506 net.cpp:399] inception_4c/output_inception_4c/output_0_split -> inception_4c/output_inception_4c/output_0_split_3
I0403 19:20:02.282644 19506 net.cpp:141] Setting up inception_4c/output_inception_4c/output_0_split
I0403 19:20:02.282667 19506 net.cpp:148] Top shape: 24 512 14 14 (2408448)
I0403 19:20:02.282683 19506 net.cpp:148] Top shape: 24 512 14 14 (2408448)
I0403 19:20:02.282699 19506 net.cpp:148] Top shape: 24 512 14 14 (2408448)
I0403 19:20:02.282716 19506 net.cpp:148] Top shape: 24 512 14 14 (2408448)
I0403 19:20:02.282728 19506 net.cpp:156] Memory required for data: 1111182624
I0403 19:20:02.282742 19506 layer_factory.hpp:77] Creating layer inception_4d/1x1
I0403 19:20:02.282765 19506 net.cpp:91] Creating Layer inception_4d/1x1
I0403 19:20:02.282783 19506 net.cpp:425] inception_4d/1x1 <- inception_4c/output_inception_4c/output_0_split_0
I0403 19:20:02.282804 19506 net.cpp:399] inception_4d/1x1 -> inception_4d/1x1
I0403 19:20:02.284180 19506 net.cpp:141] Setting up inception_4d/1x1
I0403 19:20:02.284210 19506 net.cpp:148] Top shape: 24 112 14 14 (526848)
I0403 19:20:02.284225 19506 net.cpp:156] Memory required for data: 1113290016
I0403 19:20:02.284245 19506 layer_factory.hpp:77] Creating layer inception_4d/relu_1x1
I0403 19:20:02.284266 19506 net.cpp:91] Creating Layer inception_4d/relu_1x1
I0403 19:20:02.284283 19506 net.cpp:425] inception_4d/relu_1x1 <- inception_4d/1x1
I0403 19:20:02.284301 19506 net.cpp:386] inception_4d/relu_1x1 -> inception_4d/1x1 (in-place)
I0403 19:20:02.284482 19506 net.cpp:141] Setting up inception_4d/relu_1x1
I0403 19:20:02.284507 19506 net.cpp:148] Top shape: 24 112 14 14 (526848)
I0403 19:20:02.284521 19506 net.cpp:156] Memory required for data: 1115397408
I0403 19:20:02.284536 19506 layer_factory.hpp:77] Creating layer inception_4d/3x3_reduce
I0403 19:20:02.284574 19506 net.cpp:91] Creating Layer inception_4d/3x3_reduce
I0403 19:20:02.284592 19506 net.cpp:425] inception_4d/3x3_reduce <- inception_4c/output_inception_4c/output_0_split_1
I0403 19:20:02.284612 19506 net.cpp:399] inception_4d/3x3_reduce -> inception_4d/3x3_reduce
I0403 19:20:02.286113 19506 net.cpp:141] Setting up inception_4d/3x3_reduce
I0403 19:20:02.286140 19506 net.cpp:148] Top shape: 24 144 14 14 (677376)
I0403 19:20:02.286156 19506 net.cpp:156] Memory required for data: 1118106912
I0403 19:20:02.286175 19506 layer_factory.hpp:77] Creating layer inception_4d/relu_3x3_reduce
I0403 19:20:02.286192 19506 net.cpp:91] Creating Layer inception_4d/relu_3x3_reduce
I0403 19:20:02.286211 19506 net.cpp:425] inception_4d/relu_3x3_reduce <- inception_4d/3x3_reduce
I0403 19:20:02.286231 19506 net.cpp:386] inception_4d/relu_3x3_reduce -> inception_4d/3x3_reduce (in-place)
I0403 19:20:02.286517 19506 net.cpp:141] Setting up inception_4d/relu_3x3_reduce
I0403 19:20:02.286543 19506 net.cpp:148] Top shape: 24 144 14 14 (677376)
I0403 19:20:02.286558 19506 net.cpp:156] Memory required for data: 1120816416
I0403 19:20:02.286574 19506 layer_factory.hpp:77] Creating layer inception_4d/3x3
I0403 19:20:02.286597 19506 net.cpp:91] Creating Layer inception_4d/3x3
I0403 19:20:02.286615 19506 net.cpp:425] inception_4d/3x3 <- inception_4d/3x3_reduce
I0403 19:20:02.286638 19506 net.cpp:399] inception_4d/3x3 -> inception_4d/3x3
I0403 19:20:02.290913 19506 net.cpp:141] Setting up inception_4d/3x3
I0403 19:20:02.290942 19506 net.cpp:148] Top shape: 24 288 14 14 (1354752)
I0403 19:20:02.290958 19506 net.cpp:156] Memory required for data: 1126235424
I0403 19:20:02.290982 19506 layer_factory.hpp:77] Creating layer inception_4d/relu_3x3
I0403 19:20:02.291003 19506 net.cpp:91] Creating Layer inception_4d/relu_3x3
I0403 19:20:02.291021 19506 net.cpp:425] inception_4d/relu_3x3 <- inception_4d/3x3
I0403 19:20:02.291039 19506 net.cpp:386] inception_4d/relu_3x3 -> inception_4d/3x3 (in-place)
I0403 19:20:02.291220 19506 net.cpp:141] Setting up inception_4d/relu_3x3
I0403 19:20:02.291249 19506 net.cpp:148] Top shape: 24 288 14 14 (1354752)
I0403 19:20:02.291263 19506 net.cpp:156] Memory required for data: 1131654432
I0403 19:20:02.291280 19506 layer_factory.hpp:77] Creating layer inception_4d/5x5_reduce
I0403 19:20:02.291301 19506 net.cpp:91] Creating Layer inception_4d/5x5_reduce
I0403 19:20:02.291319 19506 net.cpp:425] inception_4d/5x5_reduce <- inception_4c/output_inception_4c/output_0_split_2
I0403 19:20:02.291338 19506 net.cpp:399] inception_4d/5x5_reduce -> inception_4d/5x5_reduce
I0403 19:20:02.292486 19506 net.cpp:141] Setting up inception_4d/5x5_reduce
I0403 19:20:02.292515 19506 net.cpp:148] Top shape: 24 32 14 14 (150528)
I0403 19:20:02.292529 19506 net.cpp:156] Memory required for data: 1132256544
I0403 19:20:02.292547 19506 layer_factory.hpp:77] Creating layer inception_4d/relu_5x5_reduce
I0403 19:20:02.292567 19506 net.cpp:91] Creating Layer inception_4d/relu_5x5_reduce
I0403 19:20:02.292585 19506 net.cpp:425] inception_4d/relu_5x5_reduce <- inception_4d/5x5_reduce
I0403 19:20:02.292603 19506 net.cpp:386] inception_4d/relu_5x5_reduce -> inception_4d/5x5_reduce (in-place)
I0403 19:20:02.292790 19506 net.cpp:141] Setting up inception_4d/relu_5x5_reduce
I0403 19:20:02.292814 19506 net.cpp:148] Top shape: 24 32 14 14 (150528)
I0403 19:20:02.292829 19506 net.cpp:156] Memory required for data: 1132858656
I0403 19:20:02.292845 19506 layer_factory.hpp:77] Creating layer inception_4d/5x5
I0403 19:20:02.292868 19506 net.cpp:91] Creating Layer inception_4d/5x5
I0403 19:20:02.292887 19506 net.cpp:425] inception_4d/5x5 <- inception_4d/5x5_reduce
I0403 19:20:02.292906 19506 net.cpp:399] inception_4d/5x5 -> inception_4d/5x5
I0403 19:20:02.294450 19506 net.cpp:141] Setting up inception_4d/5x5
I0403 19:20:02.294478 19506 net.cpp:148] Top shape: 24 64 14 14 (301056)
I0403 19:20:02.294495 19506 net.cpp:156] Memory required for data: 1134062880
I0403 19:20:02.294514 19506 layer_factory.hpp:77] Creating layer inception_4d/relu_5x5
I0403 19:20:02.294546 19506 net.cpp:91] Creating Layer inception_4d/relu_5x5
I0403 19:20:02.294564 19506 net.cpp:425] inception_4d/relu_5x5 <- inception_4d/5x5
I0403 19:20:02.294587 19506 net.cpp:386] inception_4d/relu_5x5 -> inception_4d/5x5 (in-place)
I0403 19:20:02.294889 19506 net.cpp:141] Setting up inception_4d/relu_5x5
I0403 19:20:02.294930 19506 net.cpp:148] Top shape: 24 64 14 14 (301056)
I0403 19:20:02.294946 19506 net.cpp:156] Memory required for data: 1135267104
I0403 19:20:02.294961 19506 layer_factory.hpp:77] Creating layer inception_4d/pool
I0403 19:20:02.294984 19506 net.cpp:91] Creating Layer inception_4d/pool
I0403 19:20:02.295003 19506 net.cpp:425] inception_4d/pool <- inception_4c/output_inception_4c/output_0_split_3
I0403 19:20:02.295025 19506 net.cpp:399] inception_4d/pool -> inception_4d/pool
I0403 19:20:02.295107 19506 net.cpp:141] Setting up inception_4d/pool
I0403 19:20:02.295132 19506 net.cpp:148] Top shape: 24 512 14 14 (2408448)
I0403 19:20:02.295147 19506 net.cpp:156] Memory required for data: 1144900896
I0403 19:20:02.295163 19506 layer_factory.hpp:77] Creating layer inception_4d/pool_proj
I0403 19:20:02.295186 19506 net.cpp:91] Creating Layer inception_4d/pool_proj
I0403 19:20:02.295205 19506 net.cpp:425] inception_4d/pool_proj <- inception_4d/pool
I0403 19:20:02.295239 19506 net.cpp:399] inception_4d/pool_proj -> inception_4d/pool_proj
I0403 19:20:02.296985 19506 net.cpp:141] Setting up inception_4d/pool_proj
I0403 19:20:02.297014 19506 net.cpp:148] Top shape: 24 64 14 14 (301056)
I0403 19:20:02.297030 19506 net.cpp:156] Memory required for data: 1146105120
I0403 19:20:02.297049 19506 layer_factory.hpp:77] Creating layer inception_4d/relu_pool_proj
I0403 19:20:02.297070 19506 net.cpp:91] Creating Layer inception_4d/relu_pool_proj
I0403 19:20:02.297088 19506 net.cpp:425] inception_4d/relu_pool_proj <- inception_4d/pool_proj
I0403 19:20:02.297106 19506 net.cpp:386] inception_4d/relu_pool_proj -> inception_4d/pool_proj (in-place)
I0403 19:20:02.297286 19506 net.cpp:141] Setting up inception_4d/relu_pool_proj
I0403 19:20:02.297315 19506 net.cpp:148] Top shape: 24 64 14 14 (301056)
I0403 19:20:02.297332 19506 net.cpp:156] Memory required for data: 1147309344
I0403 19:20:02.297348 19506 layer_factory.hpp:77] Creating layer inception_4d/output
I0403 19:20:02.297364 19506 net.cpp:91] Creating Layer inception_4d/output
I0403 19:20:02.297380 19506 net.cpp:425] inception_4d/output <- inception_4d/1x1
I0403 19:20:02.297397 19506 net.cpp:425] inception_4d/output <- inception_4d/3x3
I0403 19:20:02.297413 19506 net.cpp:425] inception_4d/output <- inception_4d/5x5
I0403 19:20:02.297430 19506 net.cpp:425] inception_4d/output <- inception_4d/pool_proj
I0403 19:20:02.297456 19506 net.cpp:399] inception_4d/output -> inception_4d/output
I0403 19:20:02.297505 19506 net.cpp:141] Setting up inception_4d/output
I0403 19:20:02.297528 19506 net.cpp:148] Top shape: 24 528 14 14 (2483712)
I0403 19:20:02.297544 19506 net.cpp:156] Memory required for data: 1157244192
I0403 19:20:02.297557 19506 layer_factory.hpp:77] Creating layer inception_4d/output_inception_4d/output_0_split
I0403 19:20:02.297577 19506 net.cpp:91] Creating Layer inception_4d/output_inception_4d/output_0_split
I0403 19:20:02.297595 19506 net.cpp:425] inception_4d/output_inception_4d/output_0_split <- inception_4d/output
I0403 19:20:02.297613 19506 net.cpp:399] inception_4d/output_inception_4d/output_0_split -> inception_4d/output_inception_4d/output_0_split_0
I0403 19:20:02.297633 19506 net.cpp:399] inception_4d/output_inception_4d/output_0_split -> inception_4d/output_inception_4d/output_0_split_1
I0403 19:20:02.297654 19506 net.cpp:399] inception_4d/output_inception_4d/output_0_split -> inception_4d/output_inception_4d/output_0_split_2
I0403 19:20:02.297674 19506 net.cpp:399] inception_4d/output_inception_4d/output_0_split -> inception_4d/output_inception_4d/output_0_split_3
I0403 19:20:02.297696 19506 net.cpp:399] inception_4d/output_inception_4d/output_0_split -> inception_4d/output_inception_4d/output_0_split_4
I0403 19:20:02.297811 19506 net.cpp:141] Setting up inception_4d/output_inception_4d/output_0_split
I0403 19:20:02.297845 19506 net.cpp:148] Top shape: 24 528 14 14 (2483712)
I0403 19:20:02.297863 19506 net.cpp:148] Top shape: 24 528 14 14 (2483712)
I0403 19:20:02.297878 19506 net.cpp:148] Top shape: 24 528 14 14 (2483712)
I0403 19:20:02.297893 19506 net.cpp:148] Top shape: 24 528 14 14 (2483712)
I0403 19:20:02.297906 19506 net.cpp:148] Top shape: 24 528 14 14 (2483712)
I0403 19:20:02.297920 19506 net.cpp:156] Memory required for data: 1206918432
I0403 19:20:02.297935 19506 layer_factory.hpp:77] Creating layer loss2/ave_pool
I0403 19:20:02.297951 19506 net.cpp:91] Creating Layer loss2/ave_pool
I0403 19:20:02.297971 19506 net.cpp:425] loss2/ave_pool <- inception_4d/output_inception_4d/output_0_split_0
I0403 19:20:02.297997 19506 net.cpp:399] loss2/ave_pool -> loss2/ave_pool
I0403 19:20:02.298297 19506 net.cpp:141] Setting up loss2/ave_pool
I0403 19:20:02.298331 19506 net.cpp:148] Top shape: 24 528 4 4 (202752)
I0403 19:20:02.298346 19506 net.cpp:156] Memory required for data: 1207729440
I0403 19:20:02.298360 19506 layer_factory.hpp:77] Creating layer loss2/conv
I0403 19:20:02.298382 19506 net.cpp:91] Creating Layer loss2/conv
I0403 19:20:02.298399 19506 net.cpp:425] loss2/conv <- loss2/ave_pool
I0403 19:20:02.298420 19506 net.cpp:399] loss2/conv -> loss2/conv
I0403 19:20:02.300258 19506 net.cpp:141] Setting up loss2/conv
I0403 19:20:02.300288 19506 net.cpp:148] Top shape: 24 128 4 4 (49152)
I0403 19:20:02.300304 19506 net.cpp:156] Memory required for data: 1207926048
I0403 19:20:02.300323 19506 layer_factory.hpp:77] Creating layer loss2/relu_conv
I0403 19:20:02.300340 19506 net.cpp:91] Creating Layer loss2/relu_conv
I0403 19:20:02.300356 19506 net.cpp:425] loss2/relu_conv <- loss2/conv
I0403 19:20:02.300374 19506 net.cpp:386] loss2/relu_conv -> loss2/conv (in-place)
I0403 19:20:02.300650 19506 net.cpp:141] Setting up loss2/relu_conv
I0403 19:20:02.300678 19506 net.cpp:148] Top shape: 24 128 4 4 (49152)
I0403 19:20:02.300694 19506 net.cpp:156] Memory required for data: 1208122656
I0403 19:20:02.300709 19506 layer_factory.hpp:77] Creating layer loss2/fc
I0403 19:20:02.300726 19506 net.cpp:91] Creating Layer loss2/fc
I0403 19:20:02.300743 19506 net.cpp:425] loss2/fc <- loss2/conv
I0403 19:20:02.300763 19506 net.cpp:399] loss2/fc -> loss2/fc
I0403 19:20:02.317880 19506 net.cpp:141] Setting up loss2/fc
I0403 19:20:02.317919 19506 net.cpp:148] Top shape: 24 1024 (24576)
I0403 19:20:02.317935 19506 net.cpp:156] Memory required for data: 1208220960
I0403 19:20:02.317955 19506 layer_factory.hpp:77] Creating layer loss2/relu_fc
I0403 19:20:02.317972 19506 net.cpp:91] Creating Layer loss2/relu_fc
I0403 19:20:02.317993 19506 net.cpp:425] loss2/relu_fc <- loss2/fc
I0403 19:20:02.318011 19506 net.cpp:386] loss2/relu_fc -> loss2/fc (in-place)
I0403 19:20:02.318301 19506 net.cpp:141] Setting up loss2/relu_fc
I0403 19:20:02.318327 19506 net.cpp:148] Top shape: 24 1024 (24576)
I0403 19:20:02.318341 19506 net.cpp:156] Memory required for data: 1208319264
I0403 19:20:02.318356 19506 layer_factory.hpp:77] Creating layer loss2/drop_fc
I0403 19:20:02.318375 19506 net.cpp:91] Creating Layer loss2/drop_fc
I0403 19:20:02.318392 19506 net.cpp:425] loss2/drop_fc <- loss2/fc
I0403 19:20:02.318409 19506 net.cpp:386] loss2/drop_fc -> loss2/fc (in-place)
I0403 19:20:02.318459 19506 net.cpp:141] Setting up loss2/drop_fc
I0403 19:20:02.318481 19506 net.cpp:148] Top shape: 24 1024 (24576)
I0403 19:20:02.318495 19506 net.cpp:156] Memory required for data: 1208417568
I0403 19:20:02.318509 19506 layer_factory.hpp:77] Creating layer loss2/classifier_plantvillage
I0403 19:20:02.318529 19506 net.cpp:91] Creating Layer loss2/classifier_plantvillage
I0403 19:20:02.318545 19506 net.cpp:425] loss2/classifier_plantvillage <- loss2/fc
I0403 19:20:02.318563 19506 net.cpp:399] loss2/classifier_plantvillage -> loss2/classifier_plantvillage
I0403 19:20:02.318955 19506 net.cpp:141] Setting up loss2/classifier_plantvillage
I0403 19:20:02.318987 19506 net.cpp:148] Top shape: 24 38 (912)
I0403 19:20:02.319018 19506 net.cpp:156] Memory required for data: 1208421216
I0403 19:20:02.319037 19506 layer_factory.hpp:77] Creating layer loss2/classifier_plantvillage_loss2/classifier_plantvillage_0_split
I0403 19:20:02.319056 19506 net.cpp:91] Creating Layer loss2/classifier_plantvillage_loss2/classifier_plantvillage_0_split
I0403 19:20:02.319072 19506 net.cpp:425] loss2/classifier_plantvillage_loss2/classifier_plantvillage_0_split <- loss2/classifier_plantvillage
I0403 19:20:02.319092 19506 net.cpp:399] loss2/classifier_plantvillage_loss2/classifier_plantvillage_0_split -> loss2/classifier_plantvillage_loss2/classifier_plantvillage_0_split_0
I0403 19:20:02.319111 19506 net.cpp:399] loss2/classifier_plantvillage_loss2/classifier_plantvillage_0_split -> loss2/classifier_plantvillage_loss2/classifier_plantvillage_0_split_1
I0403 19:20:02.319133 19506 net.cpp:399] loss2/classifier_plantvillage_loss2/classifier_plantvillage_0_split -> loss2/classifier_plantvillage_loss2/classifier_plantvillage_0_split_2
I0403 19:20:02.319210 19506 net.cpp:141] Setting up loss2/classifier_plantvillage_loss2/classifier_plantvillage_0_split
I0403 19:20:02.319234 19506 net.cpp:148] Top shape: 24 38 (912)
I0403 19:20:02.319252 19506 net.cpp:148] Top shape: 24 38 (912)
I0403 19:20:02.319267 19506 net.cpp:148] Top shape: 24 38 (912)
I0403 19:20:02.319279 19506 net.cpp:156] Memory required for data: 1208432160
I0403 19:20:02.319294 19506 layer_factory.hpp:77] Creating layer inception_4e/1x1
I0403 19:20:02.319316 19506 net.cpp:91] Creating Layer inception_4e/1x1
I0403 19:20:02.319334 19506 net.cpp:425] inception_4e/1x1 <- inception_4d/output_inception_4d/output_0_split_1
I0403 19:20:02.319352 19506 net.cpp:399] inception_4e/1x1 -> inception_4e/1x1
I0403 19:20:02.321110 19506 net.cpp:141] Setting up inception_4e/1x1
I0403 19:20:02.321141 19506 net.cpp:148] Top shape: 24 256 14 14 (1204224)
I0403 19:20:02.321156 19506 net.cpp:156] Memory required for data: 1213249056
I0403 19:20:02.321174 19506 layer_factory.hpp:77] Creating layer inception_4e/relu_1x1
I0403 19:20:02.321192 19506 net.cpp:91] Creating Layer inception_4e/relu_1x1
I0403 19:20:02.321210 19506 net.cpp:425] inception_4e/relu_1x1 <- inception_4e/1x1
I0403 19:20:02.321230 19506 net.cpp:386] inception_4e/relu_1x1 -> inception_4e/1x1 (in-place)
I0403 19:20:02.321516 19506 net.cpp:141] Setting up inception_4e/relu_1x1
I0403 19:20:02.321543 19506 net.cpp:148] Top shape: 24 256 14 14 (1204224)
I0403 19:20:02.321558 19506 net.cpp:156] Memory required for data: 1218065952
I0403 19:20:02.321573 19506 layer_factory.hpp:77] Creating layer inception_4e/3x3_reduce
I0403 19:20:02.321595 19506 net.cpp:91] Creating Layer inception_4e/3x3_reduce
I0403 19:20:02.321614 19506 net.cpp:425] inception_4e/3x3_reduce <- inception_4d/output_inception_4d/output_0_split_2
I0403 19:20:02.321632 19506 net.cpp:399] inception_4e/3x3_reduce -> inception_4e/3x3_reduce
I0403 19:20:02.323686 19506 net.cpp:141] Setting up inception_4e/3x3_reduce
I0403 19:20:02.323717 19506 net.cpp:148] Top shape: 24 160 14 14 (752640)
I0403 19:20:02.323734 19506 net.cpp:156] Memory required for data: 1221076512
I0403 19:20:02.323751 19506 layer_factory.hpp:77] Creating layer inception_4e/relu_3x3_reduce
I0403 19:20:02.323770 19506 net.cpp:91] Creating Layer inception_4e/relu_3x3_reduce
I0403 19:20:02.323786 19506 net.cpp:425] inception_4e/relu_3x3_reduce <- inception_4e/3x3_reduce
I0403 19:20:02.323802 19506 net.cpp:386] inception_4e/relu_3x3_reduce -> inception_4e/3x3_reduce (in-place)
I0403 19:20:02.323987 19506 net.cpp:141] Setting up inception_4e/relu_3x3_reduce
I0403 19:20:02.324012 19506 net.cpp:148] Top shape: 24 160 14 14 (752640)
I0403 19:20:02.324025 19506 net.cpp:156] Memory required for data: 1224087072
I0403 19:20:02.324040 19506 layer_factory.hpp:77] Creating layer inception_4e/3x3
I0403 19:20:02.324062 19506 net.cpp:91] Creating Layer inception_4e/3x3
I0403 19:20:02.324080 19506 net.cpp:425] inception_4e/3x3 <- inception_4e/3x3_reduce
I0403 19:20:02.324101 19506 net.cpp:399] inception_4e/3x3 -> inception_4e/3x3
I0403 19:20:02.328935 19506 net.cpp:141] Setting up inception_4e/3x3
I0403 19:20:02.328975 19506 net.cpp:148] Top shape: 24 320 14 14 (1505280)
I0403 19:20:02.329002 19506 net.cpp:156] Memory required for data: 1230108192
I0403 19:20:02.329021 19506 layer_factory.hpp:77] Creating layer inception_4e/relu_3x3
I0403 19:20:02.329040 19506 net.cpp:91] Creating Layer inception_4e/relu_3x3
I0403 19:20:02.329056 19506 net.cpp:425] inception_4e/relu_3x3 <- inception_4e/3x3
I0403 19:20:02.329076 19506 net.cpp:386] inception_4e/relu_3x3 -> inception_4e/3x3 (in-place)
I0403 19:20:02.329365 19506 net.cpp:141] Setting up inception_4e/relu_3x3
I0403 19:20:02.329390 19506 net.cpp:148] Top shape: 24 320 14 14 (1505280)
I0403 19:20:02.329404 19506 net.cpp:156] Memory required for data: 1236129312
I0403 19:20:02.329419 19506 layer_factory.hpp:77] Creating layer inception_4e/5x5_reduce
I0403 19:20:02.329442 19506 net.cpp:91] Creating Layer inception_4e/5x5_reduce
I0403 19:20:02.329458 19506 net.cpp:425] inception_4e/5x5_reduce <- inception_4d/output_inception_4d/output_0_split_3
I0403 19:20:02.329479 19506 net.cpp:399] inception_4e/5x5_reduce -> inception_4e/5x5_reduce
I0403 19:20:02.330516 19506 net.cpp:141] Setting up inception_4e/5x5_reduce
I0403 19:20:02.330544 19506 net.cpp:148] Top shape: 24 32 14 14 (150528)
I0403 19:20:02.330560 19506 net.cpp:156] Memory required for data: 1236731424
I0403 19:20:02.330579 19506 layer_factory.hpp:77] Creating layer inception_4e/relu_5x5_reduce
I0403 19:20:02.330596 19506 net.cpp:91] Creating Layer inception_4e/relu_5x5_reduce
I0403 19:20:02.330612 19506 net.cpp:425] inception_4e/relu_5x5_reduce <- inception_4e/5x5_reduce
I0403 19:20:02.330631 19506 net.cpp:386] inception_4e/relu_5x5_reduce -> inception_4e/5x5_reduce (in-place)
I0403 19:20:02.330916 19506 net.cpp:141] Setting up inception_4e/relu_5x5_reduce
I0403 19:20:02.330945 19506 net.cpp:148] Top shape: 24 32 14 14 (150528)
I0403 19:20:02.330960 19506 net.cpp:156] Memory required for data: 1237333536
I0403 19:20:02.330974 19506 layer_factory.hpp:77] Creating layer inception_4e/5x5
I0403 19:20:02.331017 19506 net.cpp:91] Creating Layer inception_4e/5x5
I0403 19:20:02.331035 19506 net.cpp:425] inception_4e/5x5 <- inception_4e/5x5_reduce
I0403 19:20:02.331054 19506 net.cpp:399] inception_4e/5x5 -> inception_4e/5x5
I0403 19:20:02.332836 19506 net.cpp:141] Setting up inception_4e/5x5
I0403 19:20:02.332864 19506 net.cpp:148] Top shape: 24 128 14 14 (602112)
I0403 19:20:02.332878 19506 net.cpp:156] Memory required for data: 1239741984
I0403 19:20:02.332896 19506 layer_factory.hpp:77] Creating layer inception_4e/relu_5x5
I0403 19:20:02.332916 19506 net.cpp:91] Creating Layer inception_4e/relu_5x5
I0403 19:20:02.332933 19506 net.cpp:425] inception_4e/relu_5x5 <- inception_4e/5x5
I0403 19:20:02.332950 19506 net.cpp:386] inception_4e/relu_5x5 -> inception_4e/5x5 (in-place)
I0403 19:20:02.333145 19506 net.cpp:141] Setting up inception_4e/relu_5x5
I0403 19:20:02.333173 19506 net.cpp:148] Top shape: 24 128 14 14 (602112)
I0403 19:20:02.333189 19506 net.cpp:156] Memory required for data: 1242150432
I0403 19:20:02.333205 19506 layer_factory.hpp:77] Creating layer inception_4e/pool
I0403 19:20:02.333222 19506 net.cpp:91] Creating Layer inception_4e/pool
I0403 19:20:02.333240 19506 net.cpp:425] inception_4e/pool <- inception_4d/output_inception_4d/output_0_split_4
I0403 19:20:02.333259 19506 net.cpp:399] inception_4e/pool -> inception_4e/pool
I0403 19:20:02.333328 19506 net.cpp:141] Setting up inception_4e/pool
I0403 19:20:02.333351 19506 net.cpp:148] Top shape: 24 528 14 14 (2483712)
I0403 19:20:02.333366 19506 net.cpp:156] Memory required for data: 1252085280
I0403 19:20:02.333380 19506 layer_factory.hpp:77] Creating layer inception_4e/pool_proj
I0403 19:20:02.333402 19506 net.cpp:91] Creating Layer inception_4e/pool_proj
I0403 19:20:02.333421 19506 net.cpp:425] inception_4e/pool_proj <- inception_4e/pool
I0403 19:20:02.333439 19506 net.cpp:399] inception_4e/pool_proj -> inception_4e/pool_proj
I0403 19:20:02.334897 19506 net.cpp:141] Setting up inception_4e/pool_proj
I0403 19:20:02.334934 19506 net.cpp:148] Top shape: 24 128 14 14 (602112)
I0403 19:20:02.334950 19506 net.cpp:156] Memory required for data: 1254493728
I0403 19:20:02.334969 19506 layer_factory.hpp:77] Creating layer inception_4e/relu_pool_proj
I0403 19:20:02.335006 19506 net.cpp:91] Creating Layer inception_4e/relu_pool_proj
I0403 19:20:02.335024 19506 net.cpp:425] inception_4e/relu_pool_proj <- inception_4e/pool_proj
I0403 19:20:02.335042 19506 net.cpp:386] inception_4e/relu_pool_proj -> inception_4e/pool_proj (in-place)
I0403 19:20:02.335340 19506 net.cpp:141] Setting up inception_4e/relu_pool_proj
I0403 19:20:02.335367 19506 net.cpp:148] Top shape: 24 128 14 14 (602112)
I0403 19:20:02.335382 19506 net.cpp:156] Memory required for data: 1256902176
I0403 19:20:02.335397 19506 layer_factory.hpp:77] Creating layer inception_4e/output
I0403 19:20:02.335415 19506 net.cpp:91] Creating Layer inception_4e/output
I0403 19:20:02.335432 19506 net.cpp:425] inception_4e/output <- inception_4e/1x1
I0403 19:20:02.335453 19506 net.cpp:425] inception_4e/output <- inception_4e/3x3
I0403 19:20:02.335470 19506 net.cpp:425] inception_4e/output <- inception_4e/5x5
I0403 19:20:02.335486 19506 net.cpp:425] inception_4e/output <- inception_4e/pool_proj
I0403 19:20:02.335503 19506 net.cpp:399] inception_4e/output -> inception_4e/output
I0403 19:20:02.335556 19506 net.cpp:141] Setting up inception_4e/output
I0403 19:20:02.335579 19506 net.cpp:148] Top shape: 24 832 14 14 (3913728)
I0403 19:20:02.335594 19506 net.cpp:156] Memory required for data: 1272557088
I0403 19:20:02.335609 19506 layer_factory.hpp:77] Creating layer pool4/3x3_s2
I0403 19:20:02.335626 19506 net.cpp:91] Creating Layer pool4/3x3_s2
I0403 19:20:02.335644 19506 net.cpp:425] pool4/3x3_s2 <- inception_4e/output
I0403 19:20:02.335665 19506 net.cpp:399] pool4/3x3_s2 -> pool4/3x3_s2
I0403 19:20:02.335733 19506 net.cpp:141] Setting up pool4/3x3_s2
I0403 19:20:02.335757 19506 net.cpp:148] Top shape: 24 832 7 7 (978432)
I0403 19:20:02.335772 19506 net.cpp:156] Memory required for data: 1276470816
I0403 19:20:02.335791 19506 layer_factory.hpp:77] Creating layer pool4/3x3_s2_pool4/3x3_s2_0_split
I0403 19:20:02.335813 19506 net.cpp:91] Creating Layer pool4/3x3_s2_pool4/3x3_s2_0_split
I0403 19:20:02.335831 19506 net.cpp:425] pool4/3x3_s2_pool4/3x3_s2_0_split <- pool4/3x3_s2
I0403 19:20:02.335850 19506 net.cpp:399] pool4/3x3_s2_pool4/3x3_s2_0_split -> pool4/3x3_s2_pool4/3x3_s2_0_split_0
I0403 19:20:02.335873 19506 net.cpp:399] pool4/3x3_s2_pool4/3x3_s2_0_split -> pool4/3x3_s2_pool4/3x3_s2_0_split_1
I0403 19:20:02.335894 19506 net.cpp:399] pool4/3x3_s2_pool4/3x3_s2_0_split -> pool4/3x3_s2_pool4/3x3_s2_0_split_2
I0403 19:20:02.335914 19506 net.cpp:399] pool4/3x3_s2_pool4/3x3_s2_0_split -> pool4/3x3_s2_pool4/3x3_s2_0_split_3
I0403 19:20:02.336010 19506 net.cpp:141] Setting up pool4/3x3_s2_pool4/3x3_s2_0_split
I0403 19:20:02.336035 19506 net.cpp:148] Top shape: 24 832 7 7 (978432)
I0403 19:20:02.336051 19506 net.cpp:148] Top shape: 24 832 7 7 (978432)
I0403 19:20:02.336066 19506 net.cpp:148] Top shape: 24 832 7 7 (978432)
I0403 19:20:02.336082 19506 net.cpp:148] Top shape: 24 832 7 7 (978432)
I0403 19:20:02.336097 19506 net.cpp:156] Memory required for data: 1292125728
I0403 19:20:02.336112 19506 layer_factory.hpp:77] Creating layer inception_5a/1x1
I0403 19:20:02.336133 19506 net.cpp:91] Creating Layer inception_5a/1x1
I0403 19:20:02.336153 19506 net.cpp:425] inception_5a/1x1 <- pool4/3x3_s2_pool4/3x3_s2_0_split_0
I0403 19:20:02.336174 19506 net.cpp:399] inception_5a/1x1 -> inception_5a/1x1
I0403 19:20:02.339041 19506 net.cpp:141] Setting up inception_5a/1x1
I0403 19:20:02.339072 19506 net.cpp:148] Top shape: 24 256 7 7 (301056)
I0403 19:20:02.339089 19506 net.cpp:156] Memory required for data: 1293329952
I0403 19:20:02.339107 19506 layer_factory.hpp:77] Creating layer inception_5a/relu_1x1
I0403 19:20:02.339126 19506 net.cpp:91] Creating Layer inception_5a/relu_1x1
I0403 19:20:02.339143 19506 net.cpp:425] inception_5a/relu_1x1 <- inception_5a/1x1
I0403 19:20:02.339161 19506 net.cpp:386] inception_5a/relu_1x1 -> inception_5a/1x1 (in-place)
I0403 19:20:02.339474 19506 net.cpp:141] Setting up inception_5a/relu_1x1
I0403 19:20:02.339503 19506 net.cpp:148] Top shape: 24 256 7 7 (301056)
I0403 19:20:02.339519 19506 net.cpp:156] Memory required for data: 1294534176
I0403 19:20:02.339534 19506 layer_factory.hpp:77] Creating layer inception_5a/3x3_reduce
I0403 19:20:02.339555 19506 net.cpp:91] Creating Layer inception_5a/3x3_reduce
I0403 19:20:02.339573 19506 net.cpp:425] inception_5a/3x3_reduce <- pool4/3x3_s2_pool4/3x3_s2_0_split_1
I0403 19:20:02.339596 19506 net.cpp:399] inception_5a/3x3_reduce -> inception_5a/3x3_reduce
I0403 19:20:02.342051 19506 net.cpp:141] Setting up inception_5a/3x3_reduce
I0403 19:20:02.342080 19506 net.cpp:148] Top shape: 24 160 7 7 (188160)
I0403 19:20:02.342097 19506 net.cpp:156] Memory required for data: 1295286816
I0403 19:20:02.342116 19506 layer_factory.hpp:77] Creating layer inception_5a/relu_3x3_reduce
I0403 19:20:02.342134 19506 net.cpp:91] Creating Layer inception_5a/relu_3x3_reduce
I0403 19:20:02.342151 19506 net.cpp:425] inception_5a/relu_3x3_reduce <- inception_5a/3x3_reduce
I0403 19:20:02.342172 19506 net.cpp:386] inception_5a/relu_3x3_reduce -> inception_5a/3x3_reduce (in-place)
I0403 19:20:02.342360 19506 net.cpp:141] Setting up inception_5a/relu_3x3_reduce
I0403 19:20:02.342386 19506 net.cpp:148] Top shape: 24 160 7 7 (188160)
I0403 19:20:02.342401 19506 net.cpp:156] Memory required for data: 1296039456
I0403 19:20:02.342416 19506 layer_factory.hpp:77] Creating layer inception_5a/3x3
I0403 19:20:02.342437 19506 net.cpp:91] Creating Layer inception_5a/3x3
I0403 19:20:02.342456 19506 net.cpp:425] inception_5a/3x3 <- inception_5a/3x3_reduce
I0403 19:20:02.342478 19506 net.cpp:399] inception_5a/3x3 -> inception_5a/3x3
I0403 19:20:02.347508 19506 net.cpp:141] Setting up inception_5a/3x3
I0403 19:20:02.347538 19506 net.cpp:148] Top shape: 24 320 7 7 (376320)
I0403 19:20:02.347555 19506 net.cpp:156] Memory required for data: 1297544736
I0403 19:20:02.347573 19506 layer_factory.hpp:77] Creating layer inception_5a/relu_3x3
I0403 19:20:02.347594 19506 net.cpp:91] Creating Layer inception_5a/relu_3x3
I0403 19:20:02.347612 19506 net.cpp:425] inception_5a/relu_3x3 <- inception_5a/3x3
I0403 19:20:02.347630 19506 net.cpp:386] inception_5a/relu_3x3 -> inception_5a/3x3 (in-place)
I0403 19:20:02.347928 19506 net.cpp:141] Setting up inception_5a/relu_3x3
I0403 19:20:02.347954 19506 net.cpp:148] Top shape: 24 320 7 7 (376320)
I0403 19:20:02.347970 19506 net.cpp:156] Memory required for data: 1299050016
I0403 19:20:02.347988 19506 layer_factory.hpp:77] Creating layer inception_5a/5x5_reduce
I0403 19:20:02.348016 19506 net.cpp:91] Creating Layer inception_5a/5x5_reduce
I0403 19:20:02.348034 19506 net.cpp:425] inception_5a/5x5_reduce <- pool4/3x3_s2_pool4/3x3_s2_0_split_2
I0403 19:20:02.348055 19506 net.cpp:399] inception_5a/5x5_reduce -> inception_5a/5x5_reduce
I0403 19:20:02.349239 19506 net.cpp:141] Setting up inception_5a/5x5_reduce
I0403 19:20:02.349270 19506 net.cpp:148] Top shape: 24 32 7 7 (37632)
I0403 19:20:02.349288 19506 net.cpp:156] Memory required for data: 1299200544
I0403 19:20:02.349306 19506 layer_factory.hpp:77] Creating layer inception_5a/relu_5x5_reduce
I0403 19:20:02.349324 19506 net.cpp:91] Creating Layer inception_5a/relu_5x5_reduce
I0403 19:20:02.349341 19506 net.cpp:425] inception_5a/relu_5x5_reduce <- inception_5a/5x5_reduce
I0403 19:20:02.349359 19506 net.cpp:386] inception_5a/relu_5x5_reduce -> inception_5a/5x5_reduce (in-place)
I0403 19:20:02.349656 19506 net.cpp:141] Setting up inception_5a/relu_5x5_reduce
I0403 19:20:02.349685 19506 net.cpp:148] Top shape: 24 32 7 7 (37632)
I0403 19:20:02.349701 19506 net.cpp:156] Memory required for data: 1299351072
I0403 19:20:02.349716 19506 layer_factory.hpp:77] Creating layer inception_5a/5x5
I0403 19:20:02.349740 19506 net.cpp:91] Creating Layer inception_5a/5x5
I0403 19:20:02.349758 19506 net.cpp:425] inception_5a/5x5 <- inception_5a/5x5_reduce
I0403 19:20:02.349777 19506 net.cpp:399] inception_5a/5x5 -> inception_5a/5x5
I0403 19:20:02.351501 19506 net.cpp:141] Setting up inception_5a/5x5
I0403 19:20:02.351541 19506 net.cpp:148] Top shape: 24 128 7 7 (150528)
I0403 19:20:02.351557 19506 net.cpp:156] Memory required for data: 1299953184
I0403 19:20:02.351575 19506 layer_factory.hpp:77] Creating layer inception_5a/relu_5x5
I0403 19:20:02.351596 19506 net.cpp:91] Creating Layer inception_5a/relu_5x5
I0403 19:20:02.351615 19506 net.cpp:425] inception_5a/relu_5x5 <- inception_5a/5x5
I0403 19:20:02.351632 19506 net.cpp:386] inception_5a/relu_5x5 -> inception_5a/5x5 (in-place)
I0403 19:20:02.351821 19506 net.cpp:141] Setting up inception_5a/relu_5x5
I0403 19:20:02.351847 19506 net.cpp:148] Top shape: 24 128 7 7 (150528)
I0403 19:20:02.351862 19506 net.cpp:156] Memory required for data: 1300555296
I0403 19:20:02.351877 19506 layer_factory.hpp:77] Creating layer inception_5a/pool
I0403 19:20:02.351896 19506 net.cpp:91] Creating Layer inception_5a/pool
I0403 19:20:02.351912 19506 net.cpp:425] inception_5a/pool <- pool4/3x3_s2_pool4/3x3_s2_0_split_3
I0403 19:20:02.351933 19506 net.cpp:399] inception_5a/pool -> inception_5a/pool
I0403 19:20:02.352010 19506 net.cpp:141] Setting up inception_5a/pool
I0403 19:20:02.352033 19506 net.cpp:148] Top shape: 24 832 7 7 (978432)
I0403 19:20:02.352047 19506 net.cpp:156] Memory required for data: 1304469024
I0403 19:20:02.352063 19506 layer_factory.hpp:77] Creating layer inception_5a/pool_proj
I0403 19:20:02.352087 19506 net.cpp:91] Creating Layer inception_5a/pool_proj
I0403 19:20:02.352105 19506 net.cpp:425] inception_5a/pool_proj <- inception_5a/pool
I0403 19:20:02.352124 19506 net.cpp:399] inception_5a/pool_proj -> inception_5a/pool_proj
I0403 19:20:02.354406 19506 net.cpp:141] Setting up inception_5a/pool_proj
I0403 19:20:02.354435 19506 net.cpp:148] Top shape: 24 128 7 7 (150528)
I0403 19:20:02.354451 19506 net.cpp:156] Memory required for data: 1305071136
I0403 19:20:02.354470 19506 layer_factory.hpp:77] Creating layer inception_5a/relu_pool_proj
I0403 19:20:02.354490 19506 net.cpp:91] Creating Layer inception_5a/relu_pool_proj
I0403 19:20:02.354507 19506 net.cpp:425] inception_5a/relu_pool_proj <- inception_5a/pool_proj
I0403 19:20:02.354524 19506 net.cpp:386] inception_5a/relu_pool_proj -> inception_5a/pool_proj (in-place)
I0403 19:20:02.354816 19506 net.cpp:141] Setting up inception_5a/relu_pool_proj
I0403 19:20:02.354841 19506 net.cpp:148] Top shape: 24 128 7 7 (150528)
I0403 19:20:02.354856 19506 net.cpp:156] Memory required for data: 1305673248
I0403 19:20:02.354871 19506 layer_factory.hpp:77] Creating layer inception_5a/output
I0403 19:20:02.354890 19506 net.cpp:91] Creating Layer inception_5a/output
I0403 19:20:02.354907 19506 net.cpp:425] inception_5a/output <- inception_5a/1x1
I0403 19:20:02.354924 19506 net.cpp:425] inception_5a/output <- inception_5a/3x3
I0403 19:20:02.354941 19506 net.cpp:425] inception_5a/output <- inception_5a/5x5
I0403 19:20:02.354957 19506 net.cpp:425] inception_5a/output <- inception_5a/pool_proj
I0403 19:20:02.354974 19506 net.cpp:399] inception_5a/output -> inception_5a/output
I0403 19:20:02.355029 19506 net.cpp:141] Setting up inception_5a/output
I0403 19:20:02.355052 19506 net.cpp:148] Top shape: 24 832 7 7 (978432)
I0403 19:20:02.355067 19506 net.cpp:156] Memory required for data: 1309586976
I0403 19:20:02.355082 19506 layer_factory.hpp:77] Creating layer inception_5a/output_inception_5a/output_0_split
I0403 19:20:02.355098 19506 net.cpp:91] Creating Layer inception_5a/output_inception_5a/output_0_split
I0403 19:20:02.355113 19506 net.cpp:425] inception_5a/output_inception_5a/output_0_split <- inception_5a/output
I0403 19:20:02.355132 19506 net.cpp:399] inception_5a/output_inception_5a/output_0_split -> inception_5a/output_inception_5a/output_0_split_0
I0403 19:20:02.355154 19506 net.cpp:399] inception_5a/output_inception_5a/output_0_split -> inception_5a/output_inception_5a/output_0_split_1
I0403 19:20:02.355173 19506 net.cpp:399] inception_5a/output_inception_5a/output_0_split -> inception_5a/output_inception_5a/output_0_split_2
I0403 19:20:02.355193 19506 net.cpp:399] inception_5a/output_inception_5a/output_0_split -> inception_5a/output_inception_5a/output_0_split_3
I0403 19:20:02.355304 19506 net.cpp:141] Setting up inception_5a/output_inception_5a/output_0_split
I0403 19:20:02.355330 19506 net.cpp:148] Top shape: 24 832 7 7 (978432)
I0403 19:20:02.355347 19506 net.cpp:148] Top shape: 24 832 7 7 (978432)
I0403 19:20:02.355363 19506 net.cpp:148] Top shape: 24 832 7 7 (978432)
I0403 19:20:02.355378 19506 net.cpp:148] Top shape: 24 832 7 7 (978432)
I0403 19:20:02.355391 19506 net.cpp:156] Memory required for data: 1325241888
I0403 19:20:02.355406 19506 layer_factory.hpp:77] Creating layer inception_5b/1x1
I0403 19:20:02.355428 19506 net.cpp:91] Creating Layer inception_5b/1x1
I0403 19:20:02.355446 19506 net.cpp:425] inception_5b/1x1 <- inception_5a/output_inception_5a/output_0_split_0
I0403 19:20:02.355465 19506 net.cpp:399] inception_5b/1x1 -> inception_5b/1x1
I0403 19:20:02.359134 19506 net.cpp:141] Setting up inception_5b/1x1
I0403 19:20:02.359164 19506 net.cpp:148] Top shape: 24 384 7 7 (451584)
I0403 19:20:02.359179 19506 net.cpp:156] Memory required for data: 1327048224
I0403 19:20:02.359199 19506 layer_factory.hpp:77] Creating layer inception_5b/relu_1x1
I0403 19:20:02.359217 19506 net.cpp:91] Creating Layer inception_5b/relu_1x1
I0403 19:20:02.359236 19506 net.cpp:425] inception_5b/relu_1x1 <- inception_5b/1x1
I0403 19:20:02.359252 19506 net.cpp:386] inception_5b/relu_1x1 -> inception_5b/1x1 (in-place)
I0403 19:20:02.359549 19506 net.cpp:141] Setting up inception_5b/relu_1x1
I0403 19:20:02.359573 19506 net.cpp:148] Top shape: 24 384 7 7 (451584)
I0403 19:20:02.359588 19506 net.cpp:156] Memory required for data: 1328854560
I0403 19:20:02.359603 19506 layer_factory.hpp:77] Creating layer inception_5b/3x3_reduce
I0403 19:20:02.359625 19506 net.cpp:91] Creating Layer inception_5b/3x3_reduce
I0403 19:20:02.359643 19506 net.cpp:425] inception_5b/3x3_reduce <- inception_5a/output_inception_5a/output_0_split_1
I0403 19:20:02.359665 19506 net.cpp:399] inception_5b/3x3_reduce -> inception_5b/3x3_reduce
I0403 19:20:02.362259 19506 net.cpp:141] Setting up inception_5b/3x3_reduce
I0403 19:20:02.362287 19506 net.cpp:148] Top shape: 24 192 7 7 (225792)
I0403 19:20:02.362303 19506 net.cpp:156] Memory required for data: 1329757728
I0403 19:20:02.362323 19506 layer_factory.hpp:77] Creating layer inception_5b/relu_3x3_reduce
I0403 19:20:02.362342 19506 net.cpp:91] Creating Layer inception_5b/relu_3x3_reduce
I0403 19:20:02.362360 19506 net.cpp:425] inception_5b/relu_3x3_reduce <- inception_5b/3x3_reduce
I0403 19:20:02.362377 19506 net.cpp:386] inception_5b/relu_3x3_reduce -> inception_5b/3x3_reduce (in-place)
I0403 19:20:02.362563 19506 net.cpp:141] Setting up inception_5b/relu_3x3_reduce
I0403 19:20:02.362587 19506 net.cpp:148] Top shape: 24 192 7 7 (225792)
I0403 19:20:02.362601 19506 net.cpp:156] Memory required for data: 1330660896
I0403 19:20:02.362615 19506 layer_factory.hpp:77] Creating layer inception_5b/3x3
I0403 19:20:02.362638 19506 net.cpp:91] Creating Layer inception_5b/3x3
I0403 19:20:02.362658 19506 net.cpp:425] inception_5b/3x3 <- inception_5b/3x3_reduce
I0403 19:20:02.362676 19506 net.cpp:399] inception_5b/3x3 -> inception_5b/3x3
I0403 19:20:02.369226 19506 net.cpp:141] Setting up inception_5b/3x3
I0403 19:20:02.369254 19506 net.cpp:148] Top shape: 24 384 7 7 (451584)
I0403 19:20:02.369269 19506 net.cpp:156] Memory required for data: 1332467232
I0403 19:20:02.369287 19506 layer_factory.hpp:77] Creating layer inception_5b/relu_3x3
I0403 19:20:02.369308 19506 net.cpp:91] Creating Layer inception_5b/relu_3x3
I0403 19:20:02.369325 19506 net.cpp:425] inception_5b/relu_3x3 <- inception_5b/3x3
I0403 19:20:02.369343 19506 net.cpp:386] inception_5b/relu_3x3 -> inception_5b/3x3 (in-place)
I0403 19:20:02.369640 19506 net.cpp:141] Setting up inception_5b/relu_3x3
I0403 19:20:02.369665 19506 net.cpp:148] Top shape: 24 384 7 7 (451584)
I0403 19:20:02.369680 19506 net.cpp:156] Memory required for data: 1334273568
I0403 19:20:02.369695 19506 layer_factory.hpp:77] Creating layer inception_5b/5x5_reduce
I0403 19:20:02.369731 19506 net.cpp:91] Creating Layer inception_5b/5x5_reduce
I0403 19:20:02.369750 19506 net.cpp:425] inception_5b/5x5_reduce <- inception_5a/output_inception_5a/output_0_split_2
I0403 19:20:02.369772 19506 net.cpp:399] inception_5b/5x5_reduce -> inception_5b/5x5_reduce
I0403 19:20:02.371019 19506 net.cpp:141] Setting up inception_5b/5x5_reduce
I0403 19:20:02.371047 19506 net.cpp:148] Top shape: 24 48 7 7 (56448)
I0403 19:20:02.371062 19506 net.cpp:156] Memory required for data: 1334499360
I0403 19:20:02.371080 19506 layer_factory.hpp:77] Creating layer inception_5b/relu_5x5_reduce
I0403 19:20:02.371100 19506 net.cpp:91] Creating Layer inception_5b/relu_5x5_reduce
I0403 19:20:02.371119 19506 net.cpp:425] inception_5b/relu_5x5_reduce <- inception_5b/5x5_reduce
I0403 19:20:02.371136 19506 net.cpp:386] inception_5b/relu_5x5_reduce -> inception_5b/5x5_reduce (in-place)
I0403 19:20:02.371498 19506 net.cpp:141] Setting up inception_5b/relu_5x5_reduce
I0403 19:20:02.371525 19506 net.cpp:148] Top shape: 24 48 7 7 (56448)
I0403 19:20:02.371539 19506 net.cpp:156] Memory required for data: 1334725152
I0403 19:20:02.371553 19506 layer_factory.hpp:77] Creating layer inception_5b/5x5
I0403 19:20:02.371574 19506 net.cpp:91] Creating Layer inception_5b/5x5
I0403 19:20:02.371592 19506 net.cpp:425] inception_5b/5x5 <- inception_5b/5x5_reduce
I0403 19:20:02.371610 19506 net.cpp:399] inception_5b/5x5 -> inception_5b/5x5
I0403 19:20:02.373647 19506 net.cpp:141] Setting up inception_5b/5x5
I0403 19:20:02.373677 19506 net.cpp:148] Top shape: 24 128 7 7 (150528)
I0403 19:20:02.373692 19506 net.cpp:156] Memory required for data: 1335327264
I0403 19:20:02.373711 19506 layer_factory.hpp:77] Creating layer inception_5b/relu_5x5
I0403 19:20:02.373728 19506 net.cpp:91] Creating Layer inception_5b/relu_5x5
I0403 19:20:02.373745 19506 net.cpp:425] inception_5b/relu_5x5 <- inception_5b/5x5
I0403 19:20:02.373764 19506 net.cpp:386] inception_5b/relu_5x5 -> inception_5b/5x5 (in-place)
I0403 19:20:02.373952 19506 net.cpp:141] Setting up inception_5b/relu_5x5
I0403 19:20:02.373982 19506 net.cpp:148] Top shape: 24 128 7 7 (150528)
I0403 19:20:02.373999 19506 net.cpp:156] Memory required for data: 1335929376
I0403 19:20:02.374014 19506 layer_factory.hpp:77] Creating layer inception_5b/pool
I0403 19:20:02.374032 19506 net.cpp:91] Creating Layer inception_5b/pool
I0403 19:20:02.374048 19506 net.cpp:425] inception_5b/pool <- inception_5a/output_inception_5a/output_0_split_3
I0403 19:20:02.374068 19506 net.cpp:399] inception_5b/pool -> inception_5b/pool
I0403 19:20:02.374140 19506 net.cpp:141] Setting up inception_5b/pool
I0403 19:20:02.374164 19506 net.cpp:148] Top shape: 24 832 7 7 (978432)
I0403 19:20:02.374179 19506 net.cpp:156] Memory required for data: 1339843104
I0403 19:20:02.374194 19506 layer_factory.hpp:77] Creating layer inception_5b/pool_proj
I0403 19:20:02.374213 19506 net.cpp:91] Creating Layer inception_5b/pool_proj
I0403 19:20:02.374231 19506 net.cpp:425] inception_5b/pool_proj <- inception_5b/pool
I0403 19:20:02.374251 19506 net.cpp:399] inception_5b/pool_proj -> inception_5b/pool_proj
I0403 19:20:02.376497 19506 net.cpp:141] Setting up inception_5b/pool_proj
I0403 19:20:02.376526 19506 net.cpp:148] Top shape: 24 128 7 7 (150528)
I0403 19:20:02.376543 19506 net.cpp:156] Memory required for data: 1340445216
I0403 19:20:02.376560 19506 layer_factory.hpp:77] Creating layer inception_5b/relu_pool_proj
I0403 19:20:02.376580 19506 net.cpp:91] Creating Layer inception_5b/relu_pool_proj
I0403 19:20:02.376597 19506 net.cpp:425] inception_5b/relu_pool_proj <- inception_5b/pool_proj
I0403 19:20:02.376615 19506 net.cpp:386] inception_5b/relu_pool_proj -> inception_5b/pool_proj (in-place)
I0403 19:20:02.376904 19506 net.cpp:141] Setting up inception_5b/relu_pool_proj
I0403 19:20:02.376929 19506 net.cpp:148] Top shape: 24 128 7 7 (150528)
I0403 19:20:02.376945 19506 net.cpp:156] Memory required for data: 1341047328
I0403 19:20:02.376958 19506 layer_factory.hpp:77] Creating layer inception_5b/output
I0403 19:20:02.376981 19506 net.cpp:91] Creating Layer inception_5b/output
I0403 19:20:02.377012 19506 net.cpp:425] inception_5b/output <- inception_5b/1x1
I0403 19:20:02.377029 19506 net.cpp:425] inception_5b/output <- inception_5b/3x3
I0403 19:20:02.377046 19506 net.cpp:425] inception_5b/output <- inception_5b/5x5
I0403 19:20:02.377061 19506 net.cpp:425] inception_5b/output <- inception_5b/pool_proj
I0403 19:20:02.377079 19506 net.cpp:399] inception_5b/output -> inception_5b/output
I0403 19:20:02.377131 19506 net.cpp:141] Setting up inception_5b/output
I0403 19:20:02.377154 19506 net.cpp:148] Top shape: 24 1024 7 7 (1204224)
I0403 19:20:02.377168 19506 net.cpp:156] Memory required for data: 1345864224
I0403 19:20:02.377182 19506 layer_factory.hpp:77] Creating layer pool5/7x7_s1
I0403 19:20:02.377199 19506 net.cpp:91] Creating Layer pool5/7x7_s1
I0403 19:20:02.377215 19506 net.cpp:425] pool5/7x7_s1 <- inception_5b/output
I0403 19:20:02.377238 19506 net.cpp:399] pool5/7x7_s1 -> pool5/7x7_s1
I0403 19:20:02.377446 19506 net.cpp:141] Setting up pool5/7x7_s1
I0403 19:20:02.377471 19506 net.cpp:148] Top shape: 24 1024 1 1 (24576)
I0403 19:20:02.377486 19506 net.cpp:156] Memory required for data: 1345962528
I0403 19:20:02.377501 19506 layer_factory.hpp:77] Creating layer pool5/drop_7x7_s1
I0403 19:20:02.377521 19506 net.cpp:91] Creating Layer pool5/drop_7x7_s1
I0403 19:20:02.377537 19506 net.cpp:425] pool5/drop_7x7_s1 <- pool5/7x7_s1
I0403 19:20:02.377554 19506 net.cpp:386] pool5/drop_7x7_s1 -> pool5/7x7_s1 (in-place)
I0403 19:20:02.377604 19506 net.cpp:141] Setting up pool5/drop_7x7_s1
I0403 19:20:02.377627 19506 net.cpp:148] Top shape: 24 1024 1 1 (24576)
I0403 19:20:02.377641 19506 net.cpp:156] Memory required for data: 1346060832
I0403 19:20:02.377655 19506 layer_factory.hpp:77] Creating layer loss3/classifier_plantvillage
I0403 19:20:02.377676 19506 net.cpp:91] Creating Layer loss3/classifier_plantvillage
I0403 19:20:02.377692 19506 net.cpp:425] loss3/classifier_plantvillage <- pool5/7x7_s1
I0403 19:20:02.377712 19506 net.cpp:399] loss3/classifier_plantvillage -> loss3/classifier_plantvillage
I0403 19:20:02.378164 19506 net.cpp:141] Setting up loss3/classifier_plantvillage
I0403 19:20:02.378188 19506 net.cpp:148] Top shape: 24 38 (912)
I0403 19:20:02.378214 19506 net.cpp:156] Memory required for data: 1346064480
I0403 19:20:02.378232 19506 layer_factory.hpp:77] Creating layer loss3/classifier_plantvillage_loss3/classifier_plantvillage_0_split
I0403 19:20:02.378252 19506 net.cpp:91] Creating Layer loss3/classifier_plantvillage_loss3/classifier_plantvillage_0_split
I0403 19:20:02.378267 19506 net.cpp:425] loss3/classifier_plantvillage_loss3/classifier_plantvillage_0_split <- loss3/classifier_plantvillage
I0403 19:20:02.378286 19506 net.cpp:399] loss3/classifier_plantvillage_loss3/classifier_plantvillage_0_split -> loss3/classifier_plantvillage_loss3/classifier_plantvillage_0_split_0
I0403 19:20:02.378307 19506 net.cpp:399] loss3/classifier_plantvillage_loss3/classifier_plantvillage_0_split -> loss3/classifier_plantvillage_loss3/classifier_plantvillage_0_split_1
I0403 19:20:02.378327 19506 net.cpp:399] loss3/classifier_plantvillage_loss3/classifier_plantvillage_0_split -> loss3/classifier_plantvillage_loss3/classifier_plantvillage_0_split_2
I0403 19:20:02.378347 19506 net.cpp:399] loss3/classifier_plantvillage_loss3/classifier_plantvillage_0_split -> loss3/classifier_plantvillage_loss3/classifier_plantvillage_0_split_3
I0403 19:20:02.378445 19506 net.cpp:141] Setting up loss3/classifier_plantvillage_loss3/classifier_plantvillage_0_split
I0403 19:20:02.378468 19506 net.cpp:148] Top shape: 24 38 (912)
I0403 19:20:02.378484 19506 net.cpp:148] Top shape: 24 38 (912)
I0403 19:20:02.378500 19506 net.cpp:148] Top shape: 24 38 (912)
I0403 19:20:02.378515 19506 net.cpp:148] Top shape: 24 38 (912)
I0403 19:20:02.378528 19506 net.cpp:156] Memory required for data: 1346079072
I0403 19:20:02.378542 19506 layer_factory.hpp:77] Creating layer loss1/loss
I0403 19:20:02.378563 19506 net.cpp:91] Creating Layer loss1/loss
I0403 19:20:02.378582 19506 net.cpp:425] loss1/loss <- loss1/classifier_plantvillage_loss1/classifier_plantvillage_0_split_0
I0403 19:20:02.378612 19506 net.cpp:425] loss1/loss <- label_data_1_split_0
…
