…
I0403 18:47:49.754596 17667 net.cpp:313] The NetState phase (1) differed from the phase (0) specified by a rule in layer data
I0403 18:47:49.755784 17667 net.cpp:49] Initializing net from parameters: 
state {
  phase: TEST
}
layer {
  name: "data"
  type: "Data"
  top: "data"
  top: "label"
  include {
    phase: TEST
  }
  transform_param {
    mirror: false
    crop_size: 224
    mean_file: "/home/mohanty/data/final_dataset/lmdb/segmented-60-40/mean.binaryproto"
  }
  data_param {
    source: "/home/mohanty/data/final_dataset/lmdb/segmented-60-40/test_db"
    batch_size: 24
    backend: LMDB
  }
}
layer {
  name: "conv1/7x7_s2"
  type: "Convolution"
  bottom: "data"
  top: "conv1/7x7_s2"
  param {
    lr_mult: 1
    decay_mult: 1
  }
  param {
    lr_mult: 2
    decay_mult: 0
  }
  convolution_param {
    num_output: 64
    pad: 3
    kernel_size: 7
    stride: 2
    weight_filler {
      type: "xavier"
      std: 0.1
    }
    bias_filler {
      type: "constant"
      value: 0.2
    }
  }
}
layer {
  name: "conv1/relu_7x7"
  type: "ReLU"
  bottom: "conv1/7x7_s2"
  top: "conv1/7x7_s2"
}
layer {
  name: "pool1/3x3_s2"
  type: "Pooling"
  bottom: "conv1/7x7_s2"
  top: "pool1/3x3_s2"
  pooling_param {
    pool: MAX
    kernel_size: 3
    stride: 2
  }
}
layer {
  name: "pool1/norm1"
  type: "LRN"
  bottom: "pool1/3x3_s2"
  top: "pool1/norm1"
  lrn_param {
    local_size: 5
    alpha: 0.0001
    beta: 0.75
  }
}
layer {
  name: "conv2/3x3_reduce"
  type: "Convolution"
  bottom: "pool1/norm1"
  top: "conv2/3x3_reduce"
  param {
    lr_mult: 1
    decay_mult: 1
  }
  param {
    lr_mult: 2
    decay_mult: 0
  }
  convolution_param {
    num_output: 64
    kernel_size: 1
    weight_filler {
      type: "xavier"
      std: 0.1
    }
    bias_filler {
      type: "constant"
      value: 0.2
    }
  }
}
layer {
  name: "conv2/relu_3x3_reduce"
  type: "ReLU"
  bottom: "conv2/3x3_reduce"
  top: "conv2/3x3_reduce"
}
layer {
  name: "conv2/3x3"
  type: "Convolution"
  bottom: "conv2/3x3_reduce"
  top: "conv2/3x3"
  param {
    lr_mult: 1
    decay_mult: 1
  }
  param {
    lr_mult: 2
    decay_mult: 0
  }
  convolution_param {
    num_output: 192
    pad: 1
    kernel_size: 3
    weight_filler {
      type: "xavier"
      std: 0.03
    }
    bias_filler {
      type: "constant"
      value: 0.2
    }
  }
}
layer {
  name: "conv2/relu_3x3"
  type: "ReLU"
  bottom: "conv2/3x3"
  top: "conv2/3x3"
}
layer {
  name: "conv2/norm2"
  type: "LRN"
  bottom: "conv2/3x3"
  top: "conv2/norm2"
  lrn_param {
    local_size: 5
    alpha: 0.0001
    beta: 0.75
  }
}
layer {
  name: "pool2/3x3_s2"
  type: "Pooling"
  bottom: "conv2/norm2"
  top: "pool2/3x3_s2"
  pooling_param {
    pool: MAX
    kernel_size: 3
    stride: 2
  }
}
layer {
  name: "inception_3a/1x1"
  type: "Convolution"
  bottom: "pool2/3x3_s2"
  top: "inception_3a/1x1"
  param {
    lr_mult: 1
    decay_mult: 1
  }
  param {
    lr_mult: 2
    decay_mult: 0
  }
  convolution_param {
    num_output: 64
    kernel_size: 1
    weight_filler {
      type: "xavier"
      std: 0.03
    }
    bias_filler {
      type: "constant"
      value: 0.2
    }
  }
}
layer {
  name: "inception_3a/relu_1x1"
  type: "ReLU"
  bottom: "inception_3a/1x1"
  top: "inception_3a/1x1"
}
layer {
  name: "inception_3a/3x3_reduce"
  type: "Convolution"
  bottom: "pool2/3x3_s2"
  top: "inception_3a/3x3_reduce"
  param {
    lr_mult: 1
    decay_mult: 1
  }
  param {
    lr_mult: 2
    decay_mult: 0
  }
  convolution_param {
    num_output: 96
    kernel_size: 1
    weight_filler {
      type: "xavier"
      std: 0.09
    }
    bias_filler {
      type: "constant"
      value: 0.2
    }
  }
}
layer {
  name: "inception_3a/relu_3x3_reduce"
  type: "ReLU"
  bottom: "inception_3a/3x3_reduce"
  top: "inception_3a/3x3_reduce"
}
layer {
  name: "inception_3a/3x3"
  type: "Convolution"
  bottom: "inception_3a/3x3_reduce"
  top: "inception_3a/3x3"
  param {
    lr_mult: 1
    decay_mult: 1
  }
  param {
    lr_mult: 2
    decay_mult: 0
  }
  convolution_param {
    num_output: 128
    pad: 1
    kernel_size: 3
    weight_filler {
      type: "xavier"
      std: 0.03
    }
    bias_filler {
      type: "constant"
      value: 0.2
    }
  }
}
layer {
  name: "inception_3a/relu_3x3"
  type: "ReLU"
  bottom: "inception_3a/3x3"
  top: "inception_3a/3x3"
}
layer {
  name: "inception_3a/5x5_reduce"
  type: "Convolution"
  bottom: "pool2/3x3_s2"
  top: "inception_3a/5x5_reduce"
  param {
    lr_mult: 1
    decay_mult: 1
  }
  param {
    lr_mult: 2
    decay_mult: 0
  }
  convolution_param {
    num_output: 16
    kernel_size: 1
    weight_filler {
      type: "xavier"
      std: 0.2
    }
    bias_filler {
      type: "constant"
      value: 0.2
    }
  }
}
layer {
  name: "inception_3a/relu_5x5_reduce"
  type: "ReLU"
  bottom: "inception_3a/5x5_reduce"
  top: "inception_3a/5x5_reduce"
}
layer {
  name: "inception_3a/5x5"
  type: "Convolution"
  bottom: "inception_3a/5x5_reduce"
  top: "inception_3a/5x5"
  param {
    lr_mult: 1
    decay_mult: 1
  }
  param {
    lr_mult: 2
    decay_mult: 0
  }
  convolution_param {
    num_output: 32
    pad: 2
    kernel_size: 5
    weight_filler {
      type: "xavier"
      std: 0.03
    }
    bias_filler {
      type: "constant"
      value: 0.2
    }
  }
}
layer {
  name: "inception_3a/relu_5x5"
  type: "ReLU"
  bottom: "inception_3a/5x5"
  top: "inception_3a/5x5"
}
layer {
  name: "inception_3a/pool"
  type: "Pooling"
  bottom: "pool2/3x3_s2"
  top: "inception_3a/pool"
  pooling_param {
    pool: MAX
    kernel_size: 3
    stride: 1
    pad: 1
  }
}
layer {
  name: "inception_3a/pool_proj"
  type: "Convolution"
  bottom: "inception_3a/pool"
  top: "inception_3a/pool_proj"
  param {
    lr_mult: 1
    decay_mult: 1
  }
  param {
    lr_mult: 2
    decay_mult: 0
  }
  convolution_param {
    num_output: 32
    kernel_size: 1
    weight_filler {
      type: "xavier"
      std: 0.1
    }
    bias_filler {
      type: "constant"
      value: 0.2
    }
  }
}
layer {
  name: "inception_3a/relu_pool_proj"
  type: "ReLU"
  bottom: "inception_3a/pool_proj"
  top: "inception_3a/pool_proj"
}
layer {
  name: "inception_3a/output"
  type: "Concat"
  bottom: "inception_3a/1x1"
  bottom: "inception_3a/3x3"
  bottom: "inception_3a/5x5"
  bottom: "inception_3a/pool_proj"
  top: "inception_3a/output"
}
layer {
  name: "inception_3b/1x1"
  type: "Convolution"
  bottom: "inception_3a/output"
  top: "inception_3b/1x1"
  param {
    lr_mult: 1
    decay_mult: 1
  }
  param {
    lr_mult: 2
    decay_mult: 0
  }
  convolution_param {
    num_output: 128
    kernel_size: 1
    weight_filler {
      type: "xavier"
      std: 0.03
    }
    bias_filler {
      type: "constant"
      value: 0.2
    }
  }
}
layer {
  name: "inception_3b/relu_1x1"
  type: "ReLU"
  bottom: "inception_3b/1x1"
  top: "inception_3b/1x1"
}
layer {
  name: "inception_3b/3x3_reduce"
  type: "Convolution"
  bottom: "inception_3a/output"
  top: "inception_3b/3x3_reduce"
  param {
    lr_mult: 1
    decay_mult: 1
  }
  param {
    lr_mult: 2
    decay_mult: 0
  }
  convolution_param {
    num_output: 128
    kernel_size: 1
    weight_filler {
      type: "xavier"
      std: 0.09
    }
    bias_filler {
      type: "constant"
      value: 0.2
    }
  }
}
layer {
  name: "inception_3b/relu_3x3_reduce"
  type: "ReLU"
  bottom: "inception_3b/3x3_reduce"
  top: "inception_3b/3x3_reduce"
}
layer {
  name: "inception_3b/3x3"
  type: "Convolution"
  bottom: "inception_3b/3x3_reduce"
  top: "inception_3b/3x3"
  param {
    lr_mult: 1
    decay_mult: 1
  }
  param {
    lr_mult: 2
    decay_mult: 0
  }
  convolution_param {
    num_output: 192
    pad: 1
    kernel_size: 3
    weight_filler {
      type: "xavier"
      std: 0.03
    }
    bias_filler {
      type: "constant"
      value: 0.2
    }
  }
}
layer {
  name: "inception_3b/relu_3x3"
  type: "ReLU"
  bottom: "inception_3b/3x3"
  top: "inception_3b/3x3"
}
layer {
  name: "inception_3b/5x5_reduce"
  type: "Convolution"
  bottom: "inception_3a/output"
  top: "inception_3b/5x5_reduce"
  param {
    lr_mult: 1
    decay_mult: 1
  }
  param {
    lr_mult: 2
    decay_mult: 0
  }
  convolution_param {
    num_output: 32
    kernel_size: 1
    weight_filler {
      type: "xavier"
      std: 0.2
    }
    bias_filler {
      type: "constant"
      value: 0.2
    }
  }
}
layer {
  name: "inception_3b/relu_5x5_reduce"
  type: "ReLU"
  bottom: "inception_3b/5x5_reduce"
  top: "inception_3b/5x5_reduce"
}
layer {
  name: "inception_3b/5x5"
  type: "Convolution"
  bottom: "inception_3b/5x5_reduce"
  top: "inception_3b/5x5"
  param {
    lr_mult: 1
    decay_mult: 1
  }
  param {
    lr_mult: 2
    decay_mult: 0
  }
  convolution_param {
    num_output: 96
    pad: 2
    kernel_size: 5
    weight_filler {
      type: "xavier"
      std: 0.03
    }
    bias_filler {
      type: "constant"
      value: 0.2
    }
  }
}
layer {
  name: "inception_3b/relu_5x5"
  type: "ReLU"
  bottom: "inception_3b/5x5"
  top: "inception_3b/5x5"
}
layer {
  name: "inception_3b/pool"
  type: "Pooling"
  bottom: "inception_3a/output"
  top: "inception_3b/pool"
  pooling_param {
    pool: MAX
    kernel_size: 3
    stride: 1
    pad: 1
  }
}
layer {
  name: "inception_3b/pool_proj"
  type: "Convolution"
  bottom: "inception_3b/pool"
  top: "inception_3b/pool_proj"
  param {
    lr_mult: 1
    decay_mult: 1
  }
  param {
    lr_mult: 2
    decay_mult: 0
  }
  convolution_param {
    num_output: 64
    kernel_size: 1
    weight_filler {
      type: "xavier"
      std: 0.1
    }
    bias_filler {
      type: "constant"
      value: 0.2
    }
  }
}
layer {
  name: "inception_3b/relu_pool_proj"
  type: "ReLU"
  bottom: "inception_3b/pool_proj"
  top: "inception_3b/pool_proj"
}
layer {
  name: "inception_3b/output"
  type: "Concat"
  bottom: "inception_3b/1x1"
  bottom: "inception_3b/3x3"
  bottom: "inception_3b/5x5"
  bottom: "inception_3b/pool_proj"
  top: "inception_3b/output"
}
layer {
  name: "pool3/3x3_s2"
  type: "Pooling"
  bottom: "inception_3b/output"
  top: "pool3/3x3_s2"
  pooling_param {
    pool: MAX
    kernel_size: 3
    stride: 2
  }
}
layer {
  name: "inception_4a/1x1"
  type: "Convolution"
  bottom: "pool3/3x3_s2"
  top: "inception_4a/1x1"
  param {
    lr_mult: 1
    decay_mult: 1
  }
  param {
    lr_mult: 2
    decay_mult: 0
  }
  convolution_param {
    num_output: 192
    kernel_size: 1
    weight_filler {
      type: "xavier"
      std: 0.03
    }
    bias_filler {
      type: "constant"
      value: 0.2
    }
  }
}
layer {
  name: "inception_4a/relu_1x1"
  type: "ReLU"
  bottom: "inception_4a/1x1"
  top: "inception_4a/1x1"
}
layer {
  name: "inception_4a/3x3_reduce"
  type: "Convolution"
  bottom: "pool3/3x3_s2"
  top: "inception_4a/3x3_reduce"
  param {
    lr_mult: 1
    decay_mult: 1
  }
  param {
    lr_mult: 2
    decay_mult: 0
  }
  convolution_param {
    num_output: 96
    kernel_size: 1
    weight_filler {
      type: "xavier"
      std: 0.09
    }
    bias_filler {
      type: "constant"
      value: 0.2
    }
  }
}
layer {
  name: "inception_4a/relu_3x3_reduce"
  type: "ReLU"
  bottom: "inception_4a/3x3_reduce"
  top: "inception_4a/3x3_reduce"
}
layer {
  name: "inception_4a/3x3"
  type: "Convolution"
  bottom: "inception_4a/3x3_reduce"
  top: "inception_4a/3x3"
  param {
    lr_mult: 1
    decay_mult: 1
  }
  param {
    lr_mult: 2
    decay_mult: 0
  }
  convolution_param {
    num_output: 208
    pad: 1
    kernel_size: 3
    weight_filler {
      type: "xavier"
      std: 0.03
    }
    bias_filler {
      type: "constant"
      value: 0.2
    }
  }
}
layer {
  name: "inception_4a/relu_3x3"
  type: "ReLU"
  bottom: "inception_4a/3x3"
  top: "inception_4a/3x3"
}
layer {
  name: "inception_4a/5x5_reduce"
  type: "Convolution"
  bottom: "pool3/3x3_s2"
  top: "inception_4a/5x5_reduce"
  param {
    lr_mult: 1
    decay_mult: 1
  }
  param {
    lr_mult: 2
    decay_mult: 0
  }
  convolution_param {
    num_output: 16
    kernel_size: 1
    weight_filler {
      type: "xavier"
      std: 0.2
    }
    bias_filler {
      type: "constant"
      value: 0.2
    }
  }
}
layer {
  name: "inception_4a/relu_5x5_reduce"
  type: "ReLU"
  bottom: "inception_4a/5x5_reduce"
  top: "inception_4a/5x5_reduce"
}
layer {
  name: "inception_4a/5x5"
  type: "Convolution"
  bottom: "inception_4a/5x5_reduce"
  top: "inception_4a/5x5"
  param {
    lr_mult: 1
    decay_mult: 1
  }
  param {
    lr_mult: 2
    decay_mult: 0
  }
  convolution_param {
    num_output: 48
    pad: 2
    kernel_size: 5
    weight_filler {
      type: "xavier"
      std: 0.03
    }
    bias_filler {
      type: "constant"
      value: 0.2
    }
  }
}
layer {
  name: "inception_4a/relu_5x5"
  type: "ReLU"
  bottom: "inception_4a/5x5"
  top: "inception_4a/5x5"
}
layer {
  name: "inception_4a/pool"
  type: "Pooling"
  bottom: "pool3/3x3_s2"
  top: "inception_4a/pool"
  pooling_param {
    pool: MAX
    kernel_size: 3
    stride: 1
    pad: 1
  }
}
layer {
  name: "inception_4a/pool_proj"
  type: "Convolution"
  bottom: "inception_4a/pool"
  top: "inception_4a/pool_proj"
  param {
    lr_mult: 1
    decay_mult: 1
  }
  param {
    lr_mult: 2
    decay_mult: 0
  }
  convolution_param {
    num_output: 64
    kernel_size: 1
    weight_filler {
      type: "xavier"
      std: 0.1
    }
    bias_filler {
      type: "constant"
      value: 0.2
    }
  }
}
layer {
  name: "inception_4a/relu_pool_proj"
  type: "ReLU"
  bottom: "inception_4a/pool_proj"
  top: "inception_4a/pool_proj"
}
layer {
  name: "inception_4a/output"
  type: "Concat"
  bottom: "inception_4a/1x1"
  bottom: "inception_4a/3x3"
  bottom: "inception_4a/5x5"
  bottom: "inception_4a/pool_proj"
  top: "inception_4a/output"
}
layer {
  name: "loss1/ave_pool"
  type: "Pooling"
  bottom: "inception_4a/output"
  top: "loss1/ave_pool"
  pooling_param {
    pool: AVE
    kernel_size: 5
    stride: 3
  }
}
layer {
  name: "loss1/conv"
  type: "Convolution"
  bottom: "loss1/ave_pool"
  top: "loss1/conv"
  param {
    lr_mult: 1
    decay_mult: 1
  }
  param {
    lr_mult: 2
    decay_mult: 0
  }
  convolution_param {
    num_output: 128
    kernel_size: 1
    weight_filler {
      type: "xavier"
      std: 0.08
    }
    bias_filler {
      type: "constant"
      value: 0.2
    }
  }
}
layer {
  name: "loss1/relu_conv"
  type: "ReLU"
  bottom: "loss1/conv"
  top: "loss1/conv"
}
layer {
  name: "loss1/fc"
  type: "InnerProduct"
  bottom: "loss1/conv"
  top: "loss1/fc"
  param {
    lr_mult: 1
    decay_mult: 1
  }
  param {
    lr_mult: 2
    decay_mult: 0
  }
  inner_product_param {
    num_output: 1024
    weight_filler {
      type: "xavier"
      std: 0.02
    }
    bias_filler {
      type: "constant"
      value: 0.2
    }
  }
}
layer {
  name: "loss1/relu_fc"
  type: "ReLU"
  bottom: "loss1/fc"
  top: "loss1/fc"
}
layer {
  name: "loss1/drop_fc"
  type: "Dropout"
  bottom: "loss1/fc"
  top: "loss1/fc"
  dropout_param {
    dropout_ratio: 0.7
  }
}
layer {
  name: "loss1/classifier_plantvillage"
  type: "InnerProduct"
  bottom: "loss1/fc"
  top: "loss1/classifier_plantvillage"
  param {
    lr_mult: 1
    decay_mult: 1
  }
  param {
    lr_mult: 2
    decay_mult: 0
  }
  inner_product_param {
    num_output: 38
    weight_filler {
      type: "xavier"
      std: 0.0009765625
    }
    bias_filler {
      type: "constant"
      value: 0
    }
  }
}
layer {
  name: "inception_4b/1x1"
  type: "Convolution"
  bottom: "inception_4a/output"
  top: "inception_4b/1x1"
  param {
    lr_mult: 1
    decay_mult: 1
  }
  param {
    lr_mult: 2
    decay_mult: 0
  }
  convolution_param {
    num_output: 160
    kernel_size: 1
    weight_filler {
      type: "xavier"
      std: 0.03
    }
    bias_filler {
      type: "constant"
      value: 0.2
    }
  }
}
layer {
  name: "inception_4b/relu_1x1"
  type: "ReLU"
  bottom: "inception_4b/1x1"
  top: "inception_4b/1x1"
}
layer {
  name: "inception_4b/3x3_reduce"
  type: "Convolution"
  bottom: "inception_4a/output"
  top: "inception_4b/3x3_reduce"
  param {
    lr_mult: 1
    decay_mult: 1
  }
  param {
    lr_mult: 2
    decay_mult: 0
  }
  convolution_param {
    num_output: 112
    kernel_size: 1
    weight_filler {
      type: "xavier"
      std: 0.09
    }
    bias_filler {
      type: "constant"
      value: 0.2
    }
  }
}
layer {
  name: "inception_4b/relu_3x3_reduce"
  type: "ReLU"
  bottom: "inception_4b/3x3_reduce"
  top: "inception_4b/3x3_reduce"
}
layer {
  name: "inception_4b/3x3"
  type: "Convolution"
  bottom: "inception_4b/3x3_reduce"
  top: "inception_4b/3x3"
  param {
    lr_mult: 1
    decay_mult: 1
  }
  param {
    lr_mult: 2
    decay_mult: 0
  }
  convolution_param {
    num_output: 224
    pad: 1
    kernel_size: 3
    weight_filler {
      type: "xavier"
      std: 0.03
    }
    bias_filler {
      type: "constant"
      value: 0.2
    }
  }
}
layer {
  name: "inception_4b/relu_3x3"
  type: "ReLU"
  bottom: "inception_4b/3x3"
  top: "inception_4b/3x3"
}
layer {
  name: "inception_4b/5x5_reduce"
  type: "Convolution"
  bottom: "inception_4a/output"
  top: "inception_4b/5x5_reduce"
  param {
    lr_mult: 1
    decay_mult: 1
  }
  param {
    lr_mult: 2
    decay_mult: 0
  }
  convolution_param {
    num_output: 24
    kernel_size: 1
    weight_filler {
      type: "xavier"
      std: 0.2
    }
    bias_filler {
      type: "constant"
      value: 0.2
    }
  }
}
layer {
  name: "inception_4b/relu_5x5_reduce"
  type: "ReLU"
  bottom: "inception_4b/5x5_reduce"
  top: "inception_4b/5x5_reduce"
}
layer {
  name: "inception_4b/5x5"
  type: "Convolution"
  bottom: "inception_4b/5x5_reduce"
  top: "inception_4b/5x5"
  param {
    lr_mult: 1
    decay_mult: 1
  }
  param {
    lr_mult: 2
    decay_mult: 0
  }
  convolution_param {
    num_output: 64
    pad: 2
    kernel_size: 5
    weight_filler {
      type: "xavier"
      std: 0.03
    }
    bias_filler {
      type: "constant"
      value: 0.2
    }
  }
}
layer {
  name: "inception_4b/relu_5x5"
  type: "ReLU"
  bottom: "inception_4b/5x5"
  top: "inception_4b/5x5"
}
layer {
  name: "inception_4b/pool"
  type: "Pooling"
  bottom: "inception_4a/output"
  top: "inception_4b/pool"
  pooling_param {
    pool: MAX
    kernel_size: 3
    stride: 1
    pad: 1
  }
}
layer {
  name: "inception_4b/pool_proj"
  type: "Convolution"
  bottom: "inception_4b/pool"
  top: "inception_4b/pool_proj"
  param {
    lr_mult: 1
    decay_mult: 1
  }
  param {
    lr_mult: 2
    decay_mult: 0
  }
  convolution_param {
    num_output: 64
    kernel_size: 1
    weight_filler {
      type: "xavier"
      std: 0.1
    }
    bias_filler {
      type: "constant"
      value: 0.2
    }
  }
}
layer {
  name: "inception_4b/relu_pool_proj"
  type: "ReLU"
  bottom: "inception_4b/pool_proj"
  top: "inception_4b/pool_proj"
}
layer {
  name: "inception_4b/output"
  type: "Concat"
  bottom: "inception_4b/1x1"
  bottom: "inception_4b/3x3"
  bottom: "inception_4b/5x5"
  bottom: "inception_4b/pool_proj"
  top: "inception_4b/output"
}
layer {
  name: "inception_4c/1x1"
  type: "Convolution"
  bottom: "inception_4b/output"
  top: "inception_4c/1x1"
  param {
    lr_mult: 1
    decay_mult: 1
  }
  param {
    lr_mult: 2
    decay_mult: 0
  }
  convolution_param {
    num_output: 128
    kernel_size: 1
    weight_filler {
      type: "xavier"
      std: 0.03
    }
    bias_filler {
      type: "constant"
      value: 0.2
    }
  }
}
layer {
  name: "inception_4c/relu_1x1"
  type: "ReLU"
  bottom: "inception_4c/1x1"
  top: "inception_4c/1x1"
}
layer {
  name: "inception_4c/3x3_reduce"
  type: "Convolution"
  bottom: "inception_4b/output"
  top: "inception_4c/3x3_reduce"
  param {
    lr_mult: 1
    decay_mult: 1
  }
  param {
    lr_mult: 2
    decay_mult: 0
  }
  convolution_param {
    num_output: 128
    kernel_size: 1
    weight_filler {
      type: "xavier"
      std: 0.09
    }
    bias_filler {
      type: "constant"
      value: 0.2
    }
  }
}
layer {
  name: "inception_4c/relu_3x3_reduce"
  type: "ReLU"
  bottom: "inception_4c/3x3_reduce"
  top: "inception_4c/3x3_reduce"
}
layer {
  name: "inception_4c/3x3"
  type: "Convolution"
  bottom: "inception_4c/3x3_reduce"
  top: "inception_4c/3x3"
  param {
    lr_mult: 1
    decay_mult: 1
  }
  param {
    lr_mult: 2
    decay_mult: 0
  }
  convolution_param {
    num_output: 256
    pad: 1
    kernel_size: 3
    weight_filler {
      type: "xavier"
      std: 0.03
    }
    bias_filler {
      type: "constant"
      value: 0.2
    }
  }
}
layer {
  name: "inception_4c/relu_3x3"
  type: "ReLU"
  bottom: "inception_4c/3x3"
  top: "inception_4c/3x3"
}
layer {
  name: "inception_4c/5x5_reduce"
  type: "Convolution"
  bottom: "inception_4b/output"
  top: "inception_4c/5x5_reduce"
  param {
    lr_mult: 1
    decay_mult: 1
  }
  param {
    lr_mult: 2
    decay_mult: 0
  }
  convolution_param {
    num_output: 24
    kernel_size: 1
    weight_filler {
      type: "xavier"
      std: 0.2
    }
    bias_filler {
      type: "constant"
      value: 0.2
    }
  }
}
layer {
  name: "inception_4c/relu_5x5_reduce"
  type: "ReLU"
  bottom: "inception_4c/5x5_reduce"
  top: "inception_4c/5x5_reduce"
}
layer {
  name: "inception_4c/5x5"
  type: "Convolution"
  bottom: "inception_4c/5x5_reduce"
  top: "inception_4c/5x5"
  param {
    lr_mult: 1
    decay_mult: 1
  }
  param {
    lr_mult: 2
    decay_mult: 0
  }
  convolution_param {
    num_output: 64
    pad: 2
    kernel_size: 5
    weight_filler {
      type: "xavier"
      std: 0.03
    }
    bias_filler {
      type: "constant"
      value: 0.2
    }
  }
}
layer {
  name: "inception_4c/relu_5x5"
  type: "ReLU"
  bottom: "inception_4c/5x5"
  top: "inception_4c/5x5"
}
layer {
  name: "inception_4c/pool"
  type: "Pooling"
  bottom: "inception_4b/output"
  top: "inception_4c/pool"
  pooling_param {
    pool: MAX
    kernel_size: 3
    stride: 1
    pad: 1
  }
}
layer {
  name: "inception_4c/pool_proj"
  type: "Convolution"
  bottom: "inception_4c/pool"
  top: "inception_4c/pool_proj"
  param {
    lr_mult: 1
    decay_mult: 1
  }
  param {
    lr_mult: 2
    decay_mult: 0
  }
  convolution_param {
    num_output: 64
    kernel_size: 1
    weight_filler {
      type: "xavier"
      std: 0.1
    }
    bias_filler {
      type: "constant"
      value: 0.2
    }
  }
}
layer {
  name: "inception_4c/relu_pool_proj"
  type: "ReLU"
  bottom: "inception_4c/pool_proj"
  top: "inception_4c/pool_proj"
}
layer {
  name: "inception_4c/output"
  type: "Concat"
  bottom: "inception_4c/1x1"
  bottom: "inception_4c/3x3"
  bottom: "inception_4c/5x5"
  bottom: "inception_4c/pool_proj"
  top: "inception_4c/output"
}
layer {
  name: "inception_4d/1x1"
  type: "Convolution"
  bottom: "inception_4c/output"
  top: "inception_4d/1x1"
  param {
    lr_mult: 1
    decay_mult: 1
  }
  param {
    lr_mult: 2
    decay_mult: 0
  }
  convolution_param {
    num_output: 112
    kernel_size: 1
    weight_filler {
      type: "xavier"
      std: 0.03
    }
    bias_filler {
      type: "constant"
      value: 0.2
    }
  }
}
layer {
  name: "inception_4d/relu_1x1"
  type: "ReLU"
  bottom: "inception_4d/1x1"
  top: "inception_4d/1x1"
}
layer {
  name: "inception_4d/3x3_reduce"
  type: "Convolution"
  bottom: "inception_4c/output"
  top: "inception_4d/3x3_reduce"
  param {
    lr_mult: 1
    decay_mult: 1
  }
  param {
    lr_mult: 2
    decay_mult: 0
  }
  convolution_param {
    num_output: 144
    kernel_size: 1
    weight_filler {
      type: "xavier"
      std: 0.09
    }
    bias_filler {
      type: "constant"
      value: 0.2
    }
  }
}
layer {
  name: "inception_4d/relu_3x3_reduce"
  type: "ReLU"
  bottom: "inception_4d/3x3_reduce"
  top: "inception_4d/3x3_reduce"
}
layer {
  name: "inception_4d/3x3"
  type: "Convolution"
  bottom: "inception_4d/3x3_reduce"
  top: "inception_4d/3x3"
  param {
    lr_mult: 1
    decay_mult: 1
  }
  param {
    lr_mult: 2
    decay_mult: 0
  }
  convolution_param {
    num_output: 288
    pad: 1
    kernel_size: 3
    weight_filler {
      type: "xavier"
      std: 0.03
    }
    bias_filler {
      type: "constant"
      value: 0.2
    }
  }
}
layer {
  name: "inception_4d/relu_3x3"
  type: "ReLU"
  bottom: "inception_4d/3x3"
  top: "inception_4d/3x3"
}
layer {
  name: "inception_4d/5x5_reduce"
  type: "Convolution"
  bottom: "inception_4c/output"
  top: "inception_4d/5x5_reduce"
  param {
    lr_mult: 1
    decay_mult: 1
  }
  param {
    lr_mult: 2
    decay_mult: 0
  }
  convolution_param {
    num_output: 32
    kernel_size: 1
    weight_filler {
      type: "xavier"
      std: 0.2
    }
    bias_filler {
      type: "constant"
      value: 0.2
    }
  }
}
layer {
  name: "inception_4d/relu_5x5_reduce"
  type: "ReLU"
  bottom: "inception_4d/5x5_reduce"
  top: "inception_4d/5x5_reduce"
}
layer {
  name: "inception_4d/5x5"
  type: "Convolution"
  bottom: "inception_4d/5x5_reduce"
  top: "inception_4d/5x5"
  param {
    lr_mult: 1
    decay_mult: 1
  }
  param {
    lr_mult: 2
    decay_mult: 0
  }
  convolution_param {
    num_output: 64
    pad: 2
    kernel_size: 5
    weight_filler {
      type: "xavier"
      std: 0.03
    }
    bias_filler {
      type: "constant"
      value: 0.2
    }
  }
}
layer {
  name: "inception_4d/relu_5x5"
  type: "ReLU"
  bottom: "inception_4d/5x5"
  top: "inception_4d/5x5"
}
layer {
  name: "inception_4d/pool"
  type: "Pooling"
  bottom: "inception_4c/output"
  top: "inception_4d/pool"
  pooling_param {
    pool: MAX
    kernel_size: 3
    stride: 1
    pad: 1
  }
}
layer {
  name: "inception_4d/pool_proj"
  type: "Convolution"
  bottom: "inception_4d/pool"
  top: "inception_4d/pool_proj"
  param {
    lr_mult: 1
    decay_mult: 1
  }
  param {
    lr_mult: 2
    decay_mult: 0
  }
  convolution_param {
    num_output: 64
    kernel_size: 1
    weight_filler {
      type: "xavier"
      std: 0.1
    }
    bias_filler {
      type: "constant"
      value: 0.2
    }
  }
}
layer {
  name: "inception_4d/relu_pool_proj"
  type: "ReLU"
  bottom: "inception_4d/pool_proj"
  top: "inception_4d/pool_proj"
}
layer {
  name: "inception_4d/output"
  type: "Concat"
  bottom: "inception_4d/1x1"
  bottom: "inception_4d/3x3"
  bottom: "inception_4d/5x5"
  bottom: "inception_4d/pool_proj"
  top: "inception_4d/output"
}
layer {
  name: "loss2/ave_pool"
  type: "Pooling"
  bottom: "inception_4d/output"
  top: "loss2/ave_pool"
  pooling_param {
    pool: AVE
    kernel_size: 5
    stride: 3
  }
}
layer {
  name: "loss2/conv"
  type: "Convolution"
  bottom: "loss2/ave_pool"
  top: "loss2/conv"
  param {
    lr_mult: 1
    decay_mult: 1
  }
  param {
    lr_mult: 2
    decay_mult: 0
  }
  convolution_param {
    num_output: 128
    kernel_size: 1
    weight_filler {
      type: "xavier"
      std: 0.08
    }
    bias_filler {
      type: "constant"
      value: 0.2
    }
  }
}
layer {
  name: "loss2/relu_conv"
  type: "ReLU"
  bottom: "loss2/conv"
  top: "loss2/conv"
}
layer {
  name: "loss2/fc"
  type: "InnerProduct"
  bottom: "loss2/conv"
  top: "loss2/fc"
  param {
    lr_mult: 1
    decay_mult: 1
  }
  param {
    lr_mult: 2
    decay_mult: 0
  }
  inner_product_param {
    num_output: 1024
    weight_filler {
      type: "xavier"
      std: 0.02
    }
    bias_filler {
      type: "constant"
      value: 0.2
    }
  }
}
layer {
  name: "loss2/relu_fc"
  type: "ReLU"
  bottom: "loss2/fc"
  top: "loss2/fc"
}
layer {
  name: "loss2/drop_fc"
  type: "Dropout"
  bottom: "loss2/fc"
  top: "loss2/fc"
  dropout_param {
    dropout_ratio: 0.7
  }
}
layer {
  name: "loss2/classifier_plantvillage"
  type: "InnerProduct"
  bottom: "loss2/fc"
  top: "loss2/classifier_plantvillage"
  param {
    lr_mult: 1
    decay_mult: 1
  }
  param {
    lr_mult: 2
    decay_mult: 0
  }
  inner_product_param {
    num_output: 38
    weight_filler {
      type: "xavier"
      std: 0.0009765625
    }
    bias_filler {
      type: "constant"
      value: 0
    }
  }
}
layer {
  name: "inception_4e/1x1"
  type: "Convolution"
  bottom: "inception_4d/output"
  top: "inception_4e/1x1"
  param {
    lr_mult: 1
    decay_mult: 1
  }
  param {
    lr_mult: 2
    decay_mult: 0
  }
  convolution_param {
    num_output: 256
    kernel_size: 1
    weight_filler {
      type: "xavier"
      std: 0.03
    }
    bias_filler {
      type: "constant"
      value: 0.2
    }
  }
}
layer {
  name: "inception_4e/relu_1x1"
  type: "ReLU"
  bottom: "inception_4e/1x1"
  top: "inception_4e/1x1"
}
layer {
  name: "inception_4e/3x3_reduce"
  type: "Convolution"
  bottom: "inception_4d/output"
  top: "inception_4e/3x3_reduce"
  param {
    lr_mult: 1
    decay_mult: 1
  }
  param {
    lr_mult: 2
    decay_mult: 0
  }
  convolution_param {
    num_output: 160
    kernel_size: 1
    weight_filler {
      type: "xavier"
      std: 0.09
    }
    bias_filler {
      type: "constant"
      value: 0.2
    }
  }
}
layer {
  name: "inception_4e/relu_3x3_reduce"
  type: "ReLU"
  bottom: "inception_4e/3x3_reduce"
  top: "inception_4e/3x3_reduce"
}
layer {
  name: "inception_4e/3x3"
  type: "Convolution"
  bottom: "inception_4e/3x3_reduce"
  top: "inception_4e/3x3"
  param {
    lr_mult: 1
    decay_mult: 1
  }
  param {
    lr_mult: 2
    decay_mult: 0
  }
  convolution_param {
    num_output: 320
    pad: 1
    kernel_size: 3
    weight_filler {
      type: "xavier"
      std: 0.03
    }
    bias_filler {
      type: "constant"
      value: 0.2
    }
  }
}
layer {
  name: "inception_4e/relu_3x3"
  type: "ReLU"
  bottom: "inception_4e/3x3"
  top: "inception_4e/3x3"
}
layer {
  name: "inception_4e/5x5_reduce"
  type: "Convolution"
  bottom: "inception_4d/output"
  top: "inception_4e/5x5_reduce"
  param {
    lr_mult: 1
    decay_mult: 1
  }
  param {
    lr_mult: 2
    decay_mult: 0
  }
  convolution_param {
    num_output: 32
    kernel_size: 1
    weight_filler {
      type: "xavier"
      std: 0.2
    }
    bias_filler {
      type: "constant"
      value: 0.2
    }
  }
}
layer {
  name: "inception_4e/relu_5x5_reduce"
  type: "ReLU"
  bottom: "inception_4e/5x5_reduce"
  top: "inception_4e/5x5_reduce"
}
layer {
  name: "inception_4e/5x5"
  type: "Convolution"
  bottom: "inception_4e/5x5_reduce"
  top: "inception_4e/
I0403 18:47:49.756953 17667 layer_factory.hpp:77] Creating layer data
I0403 18:47:49.757529 17667 net.cpp:91] Creating Layer data
I0403 18:47:49.757557 17667 net.cpp:399] data -> data
I0403 18:47:49.757606 17667 net.cpp:399] data -> label
I0403 18:47:49.757642 17667 data_transformer.cpp:25] Loading mean file from: /home/mohanty/data/final_dataset/lmdb/segmented-60-40/mean.binaryproto
I0403 18:47:49.758780 17669 db_lmdb.cpp:38] Opened lmdb /home/mohanty/data/final_dataset/lmdb/segmented-60-40/test_db
I0403 18:47:49.770023 17667 data_layer.cpp:41] output data size: 24,3,224,224
I0403 18:47:49.795752 17667 net.cpp:141] Setting up data
I0403 18:47:49.795824 17667 net.cpp:148] Top shape: 24 3 224 224 (3612672)
I0403 18:47:49.795845 17667 net.cpp:148] Top shape: 24 (24)
I0403 18:47:49.795860 17667 net.cpp:156] Memory required for data: 14450784
I0403 18:47:49.795886 17667 layer_factory.hpp:77] Creating layer label_data_1_split
I0403 18:47:49.795910 17667 net.cpp:91] Creating Layer label_data_1_split
I0403 18:47:49.795928 17667 net.cpp:425] label_data_1_split <- label
I0403 18:47:49.795961 17667 net.cpp:399] label_data_1_split -> label_data_1_split_0
I0403 18:47:49.795989 17667 net.cpp:399] label_data_1_split -> label_data_1_split_1
I0403 18:47:49.796010 17667 net.cpp:399] label_data_1_split -> label_data_1_split_2
I0403 18:47:49.796030 17667 net.cpp:399] label_data_1_split -> label_data_1_split_3
I0403 18:47:49.796049 17667 net.cpp:399] label_data_1_split -> label_data_1_split_4
I0403 18:47:49.796069 17667 net.cpp:399] label_data_1_split -> label_data_1_split_5
I0403 18:47:49.796088 17667 net.cpp:399] label_data_1_split -> label_data_1_split_6
I0403 18:47:49.796108 17667 net.cpp:399] label_data_1_split -> label_data_1_split_7
I0403 18:47:49.796126 17667 net.cpp:399] label_data_1_split -> label_data_1_split_8
I0403 18:47:49.796146 17667 net.cpp:399] label_data_1_split -> label_data_1_split_9
I0403 18:47:49.796259 17667 net.cpp:141] Setting up label_data_1_split
I0403 18:47:49.796283 17667 net.cpp:148] Top shape: 24 (24)
I0403 18:47:49.796298 17667 net.cpp:148] Top shape: 24 (24)
I0403 18:47:49.796314 17667 net.cpp:148] Top shape: 24 (24)
I0403 18:47:49.796329 17667 net.cpp:148] Top shape: 24 (24)
I0403 18:47:49.796344 17667 net.cpp:148] Top shape: 24 (24)
I0403 18:47:49.796358 17667 net.cpp:148] Top shape: 24 (24)
I0403 18:47:49.796373 17667 net.cpp:148] Top shape: 24 (24)
I0403 18:47:49.796388 17667 net.cpp:148] Top shape: 24 (24)
I0403 18:47:49.796403 17667 net.cpp:148] Top shape: 24 (24)
I0403 18:47:49.796418 17667 net.cpp:148] Top shape: 24 (24)
I0403 18:47:49.796461 17667 net.cpp:156] Memory required for data: 14451744
I0403 18:47:49.796478 17667 layer_factory.hpp:77] Creating layer conv1/7x7_s2
I0403 18:47:49.796507 17667 net.cpp:91] Creating Layer conv1/7x7_s2
I0403 18:47:49.796525 17667 net.cpp:425] conv1/7x7_s2 <- data
I0403 18:47:49.796542 17667 net.cpp:399] conv1/7x7_s2 -> conv1/7x7_s2
I0403 18:47:49.931749 17667 net.cpp:141] Setting up conv1/7x7_s2
I0403 18:47:49.931834 17667 net.cpp:148] Top shape: 24 64 112 112 (19267584)
I0403 18:47:49.931850 17667 net.cpp:156] Memory required for data: 91522080
I0403 18:47:49.931880 17667 layer_factory.hpp:77] Creating layer conv1/relu_7x7
I0403 18:47:49.931907 17667 net.cpp:91] Creating Layer conv1/relu_7x7
I0403 18:47:49.931924 17667 net.cpp:425] conv1/relu_7x7 <- conv1/7x7_s2
I0403 18:47:49.931942 17667 net.cpp:386] conv1/relu_7x7 -> conv1/7x7_s2 (in-place)
I0403 18:47:49.932193 17667 net.cpp:141] Setting up conv1/relu_7x7
I0403 18:47:49.932219 17667 net.cpp:148] Top shape: 24 64 112 112 (19267584)
I0403 18:47:49.932235 17667 net.cpp:156] Memory required for data: 168592416
I0403 18:47:49.932250 17667 layer_factory.hpp:77] Creating layer pool1/3x3_s2
I0403 18:47:49.932273 17667 net.cpp:91] Creating Layer pool1/3x3_s2
I0403 18:47:49.932291 17667 net.cpp:425] pool1/3x3_s2 <- conv1/7x7_s2
I0403 18:47:49.932308 17667 net.cpp:399] pool1/3x3_s2 -> pool1/3x3_s2
I0403 18:47:49.932379 17667 net.cpp:141] Setting up pool1/3x3_s2
I0403 18:47:49.932404 17667 net.cpp:148] Top shape: 24 64 56 56 (4816896)
I0403 18:47:49.932417 17667 net.cpp:156] Memory required for data: 187860000
I0403 18:47:49.932431 17667 layer_factory.hpp:77] Creating layer pool1/norm1
I0403 18:47:49.932454 17667 net.cpp:91] Creating Layer pool1/norm1
I0403 18:47:49.932471 17667 net.cpp:425] pool1/norm1 <- pool1/3x3_s2
I0403 18:47:49.932488 17667 net.cpp:399] pool1/norm1 -> pool1/norm1
I0403 18:47:49.932760 17667 net.cpp:141] Setting up pool1/norm1
I0403 18:47:49.932786 17667 net.cpp:148] Top shape: 24 64 56 56 (4816896)
I0403 18:47:49.932801 17667 net.cpp:156] Memory required for data: 207127584
I0403 18:47:49.932816 17667 layer_factory.hpp:77] Creating layer conv2/3x3_reduce
I0403 18:47:49.932839 17667 net.cpp:91] Creating Layer conv2/3x3_reduce
I0403 18:47:49.932855 17667 net.cpp:425] conv2/3x3_reduce <- pool1/norm1
I0403 18:47:49.932873 17667 net.cpp:399] conv2/3x3_reduce -> conv2/3x3_reduce
I0403 18:47:49.934152 17667 net.cpp:141] Setting up conv2/3x3_reduce
I0403 18:47:49.934182 17667 net.cpp:148] Top shape: 24 64 56 56 (4816896)
I0403 18:47:49.934198 17667 net.cpp:156] Memory required for data: 226395168
I0403 18:47:49.934219 17667 layer_factory.hpp:77] Creating layer conv2/relu_3x3_reduce
I0403 18:47:49.934237 17667 net.cpp:91] Creating Layer conv2/relu_3x3_reduce
I0403 18:47:49.934252 17667 net.cpp:425] conv2/relu_3x3_reduce <- conv2/3x3_reduce
I0403 18:47:49.934270 17667 net.cpp:386] conv2/relu_3x3_reduce -> conv2/3x3_reduce (in-place)
I0403 18:47:49.934530 17667 net.cpp:141] Setting up conv2/relu_3x3_reduce
I0403 18:47:49.934557 17667 net.cpp:148] Top shape: 24 64 56 56 (4816896)
I0403 18:47:49.934572 17667 net.cpp:156] Memory required for data: 245662752
I0403 18:47:49.934587 17667 layer_factory.hpp:77] Creating layer conv2/3x3
I0403 18:47:49.934610 17667 net.cpp:91] Creating Layer conv2/3x3
I0403 18:47:49.934628 17667 net.cpp:425] conv2/3x3 <- conv2/3x3_reduce
I0403 18:47:49.934648 17667 net.cpp:399] conv2/3x3 -> conv2/3x3
I0403 18:47:49.936875 17667 net.cpp:141] Setting up conv2/3x3
I0403 18:47:49.936908 17667 net.cpp:148] Top shape: 24 192 56 56 (14450688)
I0403 18:47:49.936923 17667 net.cpp:156] Memory required for data: 303465504
I0403 18:47:49.936954 17667 layer_factory.hpp:77] Creating layer conv2/relu_3x3
I0403 18:47:49.936974 17667 net.cpp:91] Creating Layer conv2/relu_3x3
I0403 18:47:49.936988 17667 net.cpp:425] conv2/relu_3x3 <- conv2/3x3
I0403 18:47:49.937007 17667 net.cpp:386] conv2/relu_3x3 -> conv2/3x3 (in-place)
I0403 18:47:49.937180 17667 net.cpp:141] Setting up conv2/relu_3x3
I0403 18:47:49.937204 17667 net.cpp:148] Top shape: 24 192 56 56 (14450688)
I0403 18:47:49.937247 17667 net.cpp:156] Memory required for data: 361268256
I0403 18:47:49.937263 17667 layer_factory.hpp:77] Creating layer conv2/norm2
I0403 18:47:49.937283 17667 net.cpp:91] Creating Layer conv2/norm2
I0403 18:47:49.937299 17667 net.cpp:425] conv2/norm2 <- conv2/3x3
I0403 18:47:49.937315 17667 net.cpp:399] conv2/norm2 -> conv2/norm2
I0403 18:47:49.937608 17667 net.cpp:141] Setting up conv2/norm2
I0403 18:47:49.937636 17667 net.cpp:148] Top shape: 24 192 56 56 (14450688)
I0403 18:47:49.937651 17667 net.cpp:156] Memory required for data: 419071008
I0403 18:47:49.937665 17667 layer_factory.hpp:77] Creating layer pool2/3x3_s2
I0403 18:47:49.937682 17667 net.cpp:91] Creating Layer pool2/3x3_s2
I0403 18:47:49.937698 17667 net.cpp:425] pool2/3x3_s2 <- conv2/norm2
I0403 18:47:49.937716 17667 net.cpp:399] pool2/3x3_s2 -> pool2/3x3_s2
I0403 18:47:49.937765 17667 net.cpp:141] Setting up pool2/3x3_s2
I0403 18:47:49.937786 17667 net.cpp:148] Top shape: 24 192 28 28 (3612672)
I0403 18:47:49.937800 17667 net.cpp:156] Memory required for data: 433521696
I0403 18:47:49.937814 17667 layer_factory.hpp:77] Creating layer pool2/3x3_s2_pool2/3x3_s2_0_split
I0403 18:47:49.937831 17667 net.cpp:91] Creating Layer pool2/3x3_s2_pool2/3x3_s2_0_split
I0403 18:47:49.937845 17667 net.cpp:425] pool2/3x3_s2_pool2/3x3_s2_0_split <- pool2/3x3_s2
I0403 18:47:49.937865 17667 net.cpp:399] pool2/3x3_s2_pool2/3x3_s2_0_split -> pool2/3x3_s2_pool2/3x3_s2_0_split_0
I0403 18:47:49.937883 17667 net.cpp:399] pool2/3x3_s2_pool2/3x3_s2_0_split -> pool2/3x3_s2_pool2/3x3_s2_0_split_1
I0403 18:47:49.937901 17667 net.cpp:399] pool2/3x3_s2_pool2/3x3_s2_0_split -> pool2/3x3_s2_pool2/3x3_s2_0_split_2
I0403 18:47:49.937919 17667 net.cpp:399] pool2/3x3_s2_pool2/3x3_s2_0_split -> pool2/3x3_s2_pool2/3x3_s2_0_split_3
I0403 18:47:49.937999 17667 net.cpp:141] Setting up pool2/3x3_s2_pool2/3x3_s2_0_split
I0403 18:47:49.938020 17667 net.cpp:148] Top shape: 24 192 28 28 (3612672)
I0403 18:47:49.938035 17667 net.cpp:148] Top shape: 24 192 28 28 (3612672)
I0403 18:47:49.938050 17667 net.cpp:148] Top shape: 24 192 28 28 (3612672)
I0403 18:47:49.938065 17667 net.cpp:148] Top shape: 24 192 28 28 (3612672)
I0403 18:47:49.938078 17667 net.cpp:156] Memory required for data: 491324448
I0403 18:47:49.938092 17667 layer_factory.hpp:77] Creating layer inception_3a/1x1
I0403 18:47:49.938113 17667 net.cpp:91] Creating Layer inception_3a/1x1
I0403 18:47:49.938129 17667 net.cpp:425] inception_3a/1x1 <- pool2/3x3_s2_pool2/3x3_s2_0_split_0
I0403 18:47:49.938149 17667 net.cpp:399] inception_3a/1x1 -> inception_3a/1x1
I0403 18:47:49.939640 17667 net.cpp:141] Setting up inception_3a/1x1
I0403 18:47:49.939671 17667 net.cpp:148] Top shape: 24 64 28 28 (1204224)
I0403 18:47:49.939688 17667 net.cpp:156] Memory required for data: 496141344
I0403 18:47:49.939707 17667 layer_factory.hpp:77] Creating layer inception_3a/relu_1x1
I0403 18:47:49.939725 17667 net.cpp:91] Creating Layer inception_3a/relu_1x1
I0403 18:47:49.939741 17667 net.cpp:425] inception_3a/relu_1x1 <- inception_3a/1x1
I0403 18:47:49.939761 17667 net.cpp:386] inception_3a/relu_1x1 -> inception_3a/1x1 (in-place)
I0403 18:47:49.939934 17667 net.cpp:141] Setting up inception_3a/relu_1x1
I0403 18:47:49.939962 17667 net.cpp:148] Top shape: 24 64 28 28 (1204224)
I0403 18:47:49.939977 17667 net.cpp:156] Memory required for data: 500958240
I0403 18:47:49.939992 17667 layer_factory.hpp:77] Creating layer inception_3a/3x3_reduce
I0403 18:47:49.940014 17667 net.cpp:91] Creating Layer inception_3a/3x3_reduce
I0403 18:47:49.940032 17667 net.cpp:425] inception_3a/3x3_reduce <- pool2/3x3_s2_pool2/3x3_s2_0_split_1
I0403 18:47:49.940053 17667 net.cpp:399] inception_3a/3x3_reduce -> inception_3a/3x3_reduce
I0403 18:47:49.941712 17667 net.cpp:141] Setting up inception_3a/3x3_reduce
I0403 18:47:49.941745 17667 net.cpp:148] Top shape: 24 96 28 28 (1806336)
I0403 18:47:49.941761 17667 net.cpp:156] Memory required for data: 508183584
I0403 18:47:49.941781 17667 layer_factory.hpp:77] Creating layer inception_3a/relu_3x3_reduce
I0403 18:47:49.941815 17667 net.cpp:91] Creating Layer inception_3a/relu_3x3_reduce
I0403 18:47:49.941833 17667 net.cpp:425] inception_3a/relu_3x3_reduce <- inception_3a/3x3_reduce
I0403 18:47:49.941854 17667 net.cpp:386] inception_3a/relu_3x3_reduce -> inception_3a/3x3_reduce (in-place)
I0403 18:47:49.942042 17667 net.cpp:141] Setting up inception_3a/relu_3x3_reduce
I0403 18:47:49.942070 17667 net.cpp:148] Top shape: 24 96 28 28 (1806336)
I0403 18:47:49.942085 17667 net.cpp:156] Memory required for data: 515408928
I0403 18:47:49.942101 17667 layer_factory.hpp:77] Creating layer inception_3a/3x3
I0403 18:47:49.942122 17667 net.cpp:91] Creating Layer inception_3a/3x3
I0403 18:47:49.942138 17667 net.cpp:425] inception_3a/3x3 <- inception_3a/3x3_reduce
I0403 18:47:49.942157 17667 net.cpp:399] inception_3a/3x3 -> inception_3a/3x3
I0403 18:47:49.943794 17667 net.cpp:141] Setting up inception_3a/3x3
I0403 18:47:49.943821 17667 net.cpp:148] Top shape: 24 128 28 28 (2408448)
I0403 18:47:49.943837 17667 net.cpp:156] Memory required for data: 525042720
I0403 18:47:49.943856 17667 layer_factory.hpp:77] Creating layer inception_3a/relu_3x3
I0403 18:47:49.943874 17667 net.cpp:91] Creating Layer inception_3a/relu_3x3
I0403 18:47:49.943889 17667 net.cpp:425] inception_3a/relu_3x3 <- inception_3a/3x3
I0403 18:47:49.943908 17667 net.cpp:386] inception_3a/relu_3x3 -> inception_3a/3x3 (in-place)
I0403 18:47:49.944185 17667 net.cpp:141] Setting up inception_3a/relu_3x3
I0403 18:47:49.944212 17667 net.cpp:148] Top shape: 24 128 28 28 (2408448)
I0403 18:47:49.944227 17667 net.cpp:156] Memory required for data: 534676512
I0403 18:47:49.944242 17667 layer_factory.hpp:77] Creating layer inception_3a/5x5_reduce
I0403 18:47:49.944264 17667 net.cpp:91] Creating Layer inception_3a/5x5_reduce
I0403 18:47:49.944281 17667 net.cpp:425] inception_3a/5x5_reduce <- pool2/3x3_s2_pool2/3x3_s2_0_split_2
I0403 18:47:49.944303 17667 net.cpp:399] inception_3a/5x5_reduce -> inception_3a/5x5_reduce
I0403 18:47:49.945257 17667 net.cpp:141] Setting up inception_3a/5x5_reduce
I0403 18:47:49.945286 17667 net.cpp:148] Top shape: 24 16 28 28 (301056)
I0403 18:47:49.945300 17667 net.cpp:156] Memory required for data: 535880736
I0403 18:47:49.945318 17667 layer_factory.hpp:77] Creating layer inception_3a/relu_5x5_reduce
I0403 18:47:49.945338 17667 net.cpp:91] Creating Layer inception_3a/relu_5x5_reduce
I0403 18:47:49.945354 17667 net.cpp:425] inception_3a/relu_5x5_reduce <- inception_3a/5x5_reduce
I0403 18:47:49.945371 17667 net.cpp:386] inception_3a/relu_5x5_reduce -> inception_3a/5x5_reduce (in-place)
I0403 18:47:49.945672 17667 net.cpp:141] Setting up inception_3a/relu_5x5_reduce
I0403 18:47:49.945698 17667 net.cpp:148] Top shape: 24 16 28 28 (301056)
I0403 18:47:49.945713 17667 net.cpp:156] Memory required for data: 537084960
I0403 18:47:49.945727 17667 layer_factory.hpp:77] Creating layer inception_3a/5x5
I0403 18:47:49.945749 17667 net.cpp:91] Creating Layer inception_3a/5x5
I0403 18:47:49.945766 17667 net.cpp:425] inception_3a/5x5 <- inception_3a/5x5_reduce
I0403 18:47:49.945786 17667 net.cpp:399] inception_3a/5x5 -> inception_3a/5x5
I0403 18:47:49.946789 17667 net.cpp:141] Setting up inception_3a/5x5
I0403 18:47:49.946820 17667 net.cpp:148] Top shape: 24 32 28 28 (602112)
I0403 18:47:49.946835 17667 net.cpp:156] Memory required for data: 539493408
I0403 18:47:49.946853 17667 layer_factory.hpp:77] Creating layer inception_3a/relu_5x5
I0403 18:47:49.946871 17667 net.cpp:91] Creating Layer inception_3a/relu_5x5
I0403 18:47:49.946887 17667 net.cpp:425] inception_3a/relu_5x5 <- inception_3a/5x5
I0403 18:47:49.946908 17667 net.cpp:386] inception_3a/relu_5x5 -> inception_3a/5x5 (in-place)
I0403 18:47:49.947088 17667 net.cpp:141] Setting up inception_3a/relu_5x5
I0403 18:47:49.947111 17667 net.cpp:148] Top shape: 24 32 28 28 (602112)
I0403 18:47:49.947125 17667 net.cpp:156] Memory required for data: 541901856
I0403 18:47:49.947140 17667 layer_factory.hpp:77] Creating layer inception_3a/pool
I0403 18:47:49.947157 17667 net.cpp:91] Creating Layer inception_3a/pool
I0403 18:47:49.947187 17667 net.cpp:425] inception_3a/pool <- pool2/3x3_s2_pool2/3x3_s2_0_split_3
I0403 18:47:49.947213 17667 net.cpp:399] inception_3a/pool -> inception_3a/pool
I0403 18:47:49.947271 17667 net.cpp:141] Setting up inception_3a/pool
I0403 18:47:49.947293 17667 net.cpp:148] Top shape: 24 192 28 28 (3612672)
I0403 18:47:49.947309 17667 net.cpp:156] Memory required for data: 556352544
I0403 18:47:49.947322 17667 layer_factory.hpp:77] Creating layer inception_3a/pool_proj
I0403 18:47:49.947345 17667 net.cpp:91] Creating Layer inception_3a/pool_proj
I0403 18:47:49.947362 17667 net.cpp:425] inception_3a/pool_proj <- inception_3a/pool
I0403 18:47:49.947381 17667 net.cpp:399] inception_3a/pool_proj -> inception_3a/pool_proj
I0403 18:47:49.948330 17667 net.cpp:141] Setting up inception_3a/pool_proj
I0403 18:47:49.948357 17667 net.cpp:148] Top shape: 24 32 28 28 (602112)
I0403 18:47:49.948374 17667 net.cpp:156] Memory required for data: 558760992
I0403 18:47:49.948396 17667 layer_factory.hpp:77] Creating layer inception_3a/relu_pool_proj
I0403 18:47:49.948418 17667 net.cpp:91] Creating Layer inception_3a/relu_pool_proj
I0403 18:47:49.948434 17667 net.cpp:425] inception_3a/relu_pool_proj <- inception_3a/pool_proj
I0403 18:47:49.948451 17667 net.cpp:386] inception_3a/relu_pool_proj -> inception_3a/pool_proj (in-place)
I0403 18:47:49.948721 17667 net.cpp:141] Setting up inception_3a/relu_pool_proj
I0403 18:47:49.948747 17667 net.cpp:148] Top shape: 24 32 28 28 (602112)
I0403 18:47:49.948762 17667 net.cpp:156] Memory required for data: 561169440
I0403 18:47:49.948777 17667 layer_factory.hpp:77] Creating layer inception_3a/output
I0403 18:47:49.948796 17667 net.cpp:91] Creating Layer inception_3a/output
I0403 18:47:49.948812 17667 net.cpp:425] inception_3a/output <- inception_3a/1x1
I0403 18:47:49.948827 17667 net.cpp:425] inception_3a/output <- inception_3a/3x3
I0403 18:47:49.948843 17667 net.cpp:425] inception_3a/output <- inception_3a/5x5
I0403 18:47:49.948859 17667 net.cpp:425] inception_3a/output <- inception_3a/pool_proj
I0403 18:47:49.948878 17667 net.cpp:399] inception_3a/output -> inception_3a/output
I0403 18:47:49.948921 17667 net.cpp:141] Setting up inception_3a/output
I0403 18:47:49.948945 17667 net.cpp:148] Top shape: 24 256 28 28 (4816896)
I0403 18:47:49.948971 17667 net.cpp:156] Memory required for data: 580437024
I0403 18:47:49.948987 17667 layer_factory.hpp:77] Creating layer inception_3a/output_inception_3a/output_0_split
I0403 18:47:49.949005 17667 net.cpp:91] Creating Layer inception_3a/output_inception_3a/output_0_split
I0403 18:47:49.949021 17667 net.cpp:425] inception_3a/output_inception_3a/output_0_split <- inception_3a/output
I0403 18:47:49.949038 17667 net.cpp:399] inception_3a/output_inception_3a/output_0_split -> inception_3a/output_inception_3a/output_0_split_0
I0403 18:47:49.949060 17667 net.cpp:399] inception_3a/output_inception_3a/output_0_split -> inception_3a/output_inception_3a/output_0_split_1
I0403 18:47:49.949082 17667 net.cpp:399] inception_3a/output_inception_3a/output_0_split -> inception_3a/output_inception_3a/output_0_split_2
I0403 18:47:49.949102 17667 net.cpp:399] inception_3a/output_inception_3a/output_0_split -> inception_3a/output_inception_3a/output_0_split_3
I0403 18:47:49.949173 17667 net.cpp:141] Setting up inception_3a/output_inception_3a/output_0_split
I0403 18:47:49.949198 17667 net.cpp:148] Top shape: 24 256 28 28 (4816896)
I0403 18:47:49.949215 17667 net.cpp:148] Top shape: 24 256 28 28 (4816896)
I0403 18:47:49.949231 17667 net.cpp:148] Top shape: 24 256 28 28 (4816896)
I0403 18:47:49.949246 17667 net.cpp:148] Top shape: 24 256 28 28 (4816896)
I0403 18:47:49.949259 17667 net.cpp:156] Memory required for data: 657507360
I0403 18:47:49.949273 17667 layer_factory.hpp:77] Creating layer inception_3b/1x1
I0403 18:47:49.949295 17667 net.cpp:91] Creating Layer inception_3b/1x1
I0403 18:47:49.949311 17667 net.cpp:425] inception_3b/1x1 <- inception_3a/output_inception_3a/output_0_split_0
I0403 18:47:49.949331 17667 net.cpp:399] inception_3b/1x1 -> inception_3b/1x1
I0403 18:47:49.950474 17667 net.cpp:141] Setting up inception_3b/1x1
I0403 18:47:49.950516 17667 net.cpp:148] Top shape: 24 128 28 28 (2408448)
I0403 18:47:49.950533 17667 net.cpp:156] Memory required for data: 667141152
I0403 18:47:49.950552 17667 layer_factory.hpp:77] Creating layer inception_3b/relu_1x1
I0403 18:47:49.950570 17667 net.cpp:91] Creating Layer inception_3b/relu_1x1
I0403 18:47:49.950587 17667 net.cpp:425] inception_3b/relu_1x1 <- inception_3b/1x1
I0403 18:47:49.950604 17667 net.cpp:386] inception_3b/relu_1x1 -> inception_3b/1x1 (in-place)
I0403 18:47:49.950783 17667 net.cpp:141] Setting up inception_3b/relu_1x1
I0403 18:47:49.950808 17667 net.cpp:148] Top shape: 24 128 28 28 (2408448)
I0403 18:47:49.950824 17667 net.cpp:156] Memory required for data: 676774944
I0403 18:47:49.950837 17667 layer_factory.hpp:77] Creating layer inception_3b/3x3_reduce
I0403 18:47:49.950860 17667 net.cpp:91] Creating Layer inception_3b/3x3_reduce
I0403 18:47:49.950878 17667 net.cpp:425] inception_3b/3x3_reduce <- inception_3a/output_inception_3a/output_0_split_1
I0403 18:47:49.950899 17667 net.cpp:399] inception_3b/3x3_reduce -> inception_3b/3x3_reduce
I0403 18:47:49.952054 17667 net.cpp:141] Setting up inception_3b/3x3_reduce
I0403 18:47:49.952082 17667 net.cpp:148] Top shape: 24 128 28 28 (2408448)
I0403 18:47:49.952098 17667 net.cpp:156] Memory required for data: 686408736
I0403 18:47:49.952119 17667 layer_factory.hpp:77] Creating layer inception_3b/relu_3x3_reduce
I0403 18:47:49.952138 17667 net.cpp:91] Creating Layer inception_3b/relu_3x3_reduce
I0403 18:47:49.952155 17667 net.cpp:425] inception_3b/relu_3x3_reduce <- inception_3b/3x3_reduce
I0403 18:47:49.952172 17667 net.cpp:386] inception_3b/relu_3x3_reduce -> inception_3b/3x3_reduce (in-place)
I0403 18:47:49.952353 17667 net.cpp:141] Setting up inception_3b/relu_3x3_reduce
I0403 18:47:49.952378 17667 net.cpp:148] Top shape: 24 128 28 28 (2408448)
I0403 18:47:49.952392 17667 net.cpp:156] Memory required for data: 696042528
I0403 18:47:49.952407 17667 layer_factory.hpp:77] Creating layer inception_3b/3x3
I0403 18:47:49.952435 17667 net.cpp:91] Creating Layer inception_3b/3x3
I0403 18:47:49.952452 17667 net.cpp:425] inception_3b/3x3 <- inception_3b/3x3_reduce
I0403 18:47:49.952471 17667 net.cpp:399] inception_3b/3x3 -> inception_3b/3x3
I0403 18:47:49.955418 17667 net.cpp:141] Setting up inception_3b/3x3
I0403 18:47:49.955451 17667 net.cpp:148] Top shape: 24 192 28 28 (3612672)
I0403 18:47:49.955467 17667 net.cpp:156] Memory required for data: 710493216
I0403 18:47:49.955487 17667 layer_factory.hpp:77] Creating layer inception_3b/relu_3x3
I0403 18:47:49.955504 17667 net.cpp:91] Creating Layer inception_3b/relu_3x3
I0403 18:47:49.955520 17667 net.cpp:425] inception_3b/relu_3x3 <- inception_3b/3x3
I0403 18:47:49.955541 17667 net.cpp:386] inception_3b/relu_3x3 -> inception_3b/3x3 (in-place)
I0403 18:47:49.955819 17667 net.cpp:141] Setting up inception_3b/relu_3x3
I0403 18:47:49.955847 17667 net.cpp:148] Top shape: 24 192 28 28 (3612672)
I0403 18:47:49.955862 17667 net.cpp:156] Memory required for data: 724943904
I0403 18:47:49.955878 17667 layer_factory.hpp:77] Creating layer inception_3b/5x5_reduce
I0403 18:47:49.955901 17667 net.cpp:91] Creating Layer inception_3b/5x5_reduce
I0403 18:47:49.955919 17667 net.cpp:425] inception_3b/5x5_reduce <- inception_3a/output_inception_3a/output_0_split_2
I0403 18:47:49.955941 17667 net.cpp:399] inception_3b/5x5_reduce -> inception_3b/5x5_reduce
I0403 18:47:49.956943 17667 net.cpp:141] Setting up inception_3b/5x5_reduce
I0403 18:47:49.956977 17667 net.cpp:148] Top shape: 24 32 28 28 (602112)
I0403 18:47:49.956993 17667 net.cpp:156] Memory required for data: 727352352
I0403 18:47:49.957013 17667 layer_factory.hpp:77] Creating layer inception_3b/relu_5x5_reduce
I0403 18:47:49.957031 17667 net.cpp:91] Creating Layer inception_3b/relu_5x5_reduce
I0403 18:47:49.957047 17667 net.cpp:425] inception_3b/relu_5x5_reduce <- inception_3b/5x5_reduce
I0403 18:47:49.957067 17667 net.cpp:386] inception_3b/relu_5x5_reduce -> inception_3b/5x5_reduce (in-place)
I0403 18:47:49.957259 17667 net.cpp:141] Setting up inception_3b/relu_5x5_reduce
I0403 18:47:49.957285 17667 net.cpp:148] Top shape: 24 32 28 28 (602112)
I0403 18:47:49.957299 17667 net.cpp:156] Memory required for data: 729760800
I0403 18:47:49.957314 17667 layer_factory.hpp:77] Creating layer inception_3b/5x5
I0403 18:47:49.957336 17667 net.cpp:91] Creating Layer inception_3b/5x5
I0403 18:47:49.957355 17667 net.cpp:425] inception_3b/5x5 <- inception_3b/5x5_reduce
I0403 18:47:49.957376 17667 net.cpp:399] inception_3b/5x5 -> inception_3b/5x5
I0403 18:47:49.959391 17667 net.cpp:141] Setting up inception_3b/5x5
I0403 18:47:49.959422 17667 net.cpp:148] Top shape: 24 96 28 28 (1806336)
I0403 18:47:49.959437 17667 net.cpp:156] Memory required for data: 736986144
I0403 18:47:49.959456 17667 layer_factory.hpp:77] Creating layer inception_3b/relu_5x5
I0403 18:47:49.959476 17667 net.cpp:91] Creating Layer inception_3b/relu_5x5
I0403 18:47:49.959493 17667 net.cpp:425] inception_3b/relu_5x5 <- inception_3b/5x5
I0403 18:47:49.959511 17667 net.cpp:386] inception_3b/relu_5x5 -> inception_3b/5x5 (in-place)
I0403 18:47:49.959709 17667 net.cpp:141] Setting up inception_3b/relu_5x5
I0403 18:47:49.959735 17667 net.cpp:148] Top shape: 24 96 28 28 (1806336)
I0403 18:47:49.959750 17667 net.cpp:156] Memory required for data: 744211488
I0403 18:47:49.959765 17667 layer_factory.hpp:77] Creating layer inception_3b/pool
I0403 18:47:49.959784 17667 net.cpp:91] Creating Layer inception_3b/pool
I0403 18:47:49.959800 17667 net.cpp:425] inception_3b/pool <- inception_3a/output_inception_3a/output_0_split_3
I0403 18:47:49.959817 17667 net.cpp:399] inception_3b/pool -> inception_3b/pool
I0403 18:47:49.959874 17667 net.cpp:141] Setting up inception_3b/pool
I0403 18:47:49.959898 17667 net.cpp:148] Top shape: 24 256 28 28 (4816896)
I0403 18:47:49.959913 17667 net.cpp:156] Memory required for data: 763479072
I0403 18:47:49.959928 17667 layer_factory.hpp:77] Creating layer inception_3b/pool_proj
I0403 18:47:49.959955 17667 net.cpp:91] Creating Layer inception_3b/pool_proj
I0403 18:47:49.959975 17667 net.cpp:425] inception_3b/pool_proj <- inception_3b/pool
I0403 18:47:49.959995 17667 net.cpp:399] inception_3b/pool_proj -> inception_3b/pool_proj
I0403 18:47:49.961076 17667 net.cpp:141] Setting up inception_3b/pool_proj
I0403 18:47:49.961103 17667 net.cpp:148] Top shape: 24 64 28 28 (1204224)
I0403 18:47:49.961119 17667 net.cpp:156] Memory required for data: 768295968
I0403 18:47:49.961138 17667 layer_factory.hpp:77] Creating layer inception_3b/relu_pool_proj
I0403 18:47:49.961158 17667 net.cpp:91] Creating Layer inception_3b/relu_pool_proj
I0403 18:47:49.961174 17667 net.cpp:425] inception_3b/relu_pool_proj <- inception_3b/pool_proj
I0403 18:47:49.961192 17667 net.cpp:386] inception_3b/relu_pool_proj -> inception_3b/pool_proj (in-place)
I0403 18:47:49.961596 17667 net.cpp:141] Setting up inception_3b/relu_pool_proj
I0403 18:47:49.961623 17667 net.cpp:148] Top shape: 24 64 28 28 (1204224)
I0403 18:47:49.961638 17667 net.cpp:156] Memory required for data: 773112864
I0403 18:47:49.961653 17667 layer_factory.hpp:77] Creating layer inception_3b/output
I0403 18:47:49.961671 17667 net.cpp:91] Creating Layer inception_3b/output
I0403 18:47:49.961688 17667 net.cpp:425] inception_3b/output <- inception_3b/1x1
I0403 18:47:49.961704 17667 net.cpp:425] inception_3b/output <- inception_3b/3x3
I0403 18:47:49.961724 17667 net.cpp:425] inception_3b/output <- inception_3b/5x5
I0403 18:47:49.961740 17667 net.cpp:425] inception_3b/output <- inception_3b/pool_proj
I0403 18:47:49.961757 17667 net.cpp:399] inception_3b/output -> inception_3b/output
I0403 18:47:49.961802 17667 net.cpp:141] Setting up inception_3b/output
I0403 18:47:49.961827 17667 net.cpp:148] Top shape: 24 480 28 28 (9031680)
I0403 18:47:49.961843 17667 net.cpp:156] Memory required for data: 809239584
I0403 18:47:49.961858 17667 layer_factory.hpp:77] Creating layer pool3/3x3_s2
I0403 18:47:49.961874 17667 net.cpp:91] Creating Layer pool3/3x3_s2
I0403 18:47:49.961891 17667 net.cpp:425] pool3/3x3_s2 <- inception_3b/output
I0403 18:47:49.961926 17667 net.cpp:399] pool3/3x3_s2 -> pool3/3x3_s2
I0403 18:47:49.961990 17667 net.cpp:141] Setting up pool3/3x3_s2
I0403 18:47:49.962014 17667 net.cpp:148] Top shape: 24 480 14 14 (2257920)
I0403 18:47:49.962029 17667 net.cpp:156] Memory required for data: 818271264
I0403 18:47:49.962044 17667 layer_factory.hpp:77] Creating layer pool3/3x3_s2_pool3/3x3_s2_0_split
I0403 18:47:49.962064 17667 net.cpp:91] Creating Layer pool3/3x3_s2_pool3/3x3_s2_0_split
I0403 18:47:49.962080 17667 net.cpp:425] pool3/3x3_s2_pool3/3x3_s2_0_split <- pool3/3x3_s2
I0403 18:47:49.962098 17667 net.cpp:399] pool3/3x3_s2_pool3/3x3_s2_0_split -> pool3/3x3_s2_pool3/3x3_s2_0_split_0
I0403 18:47:49.962117 17667 net.cpp:399] pool3/3x3_s2_pool3/3x3_s2_0_split -> pool3/3x3_s2_pool3/3x3_s2_0_split_1
I0403 18:47:49.962136 17667 net.cpp:399] pool3/3x3_s2_pool3/3x3_s2_0_split -> pool3/3x3_s2_pool3/3x3_s2_0_split_2
I0403 18:47:49.962158 17667 net.cpp:399] pool3/3x3_s2_pool3/3x3_s2_0_split -> pool3/3x3_s2_pool3/3x3_s2_0_split_3
I0403 18:47:49.962240 17667 net.cpp:141] Setting up pool3/3x3_s2_pool3/3x3_s2_0_split
I0403 18:47:49.962263 17667 net.cpp:148] Top shape: 24 480 14 14 (2257920)
I0403 18:47:49.962280 17667 net.cpp:148] Top shape: 24 480 14 14 (2257920)
I0403 18:47:49.962296 17667 net.cpp:148] Top shape: 24 480 14 14 (2257920)
I0403 18:47:49.962311 17667 net.cpp:148] Top shape: 24 480 14 14 (2257920)
I0403 18:47:49.962326 17667 net.cpp:156] Memory required for data: 854397984
I0403 18:47:49.962340 17667 layer_factory.hpp:77] Creating layer inception_4a/1x1
I0403 18:47:49.962363 17667 net.cpp:91] Creating Layer inception_4a/1x1
I0403 18:47:49.962381 17667 net.cpp:425] inception_4a/1x1 <- pool3/3x3_s2_pool3/3x3_s2_0_split_0
I0403 18:47:49.962402 17667 net.cpp:399] inception_4a/1x1 -> inception_4a/1x1
I0403 18:47:49.964012 17667 net.cpp:141] Setting up inception_4a/1x1
I0403 18:47:49.964040 17667 net.cpp:148] Top shape: 24 192 14 14 (903168)
I0403 18:47:49.964056 17667 net.cpp:156] Memory required for data: 858010656
I0403 18:47:49.964076 17667 layer_factory.hpp:77] Creating layer inception_4a/relu_1x1
I0403 18:47:49.964095 17667 net.cpp:91] Creating Layer inception_4a/relu_1x1
I0403 18:47:49.964113 17667 net.cpp:425] inception_4a/relu_1x1 <- inception_4a/1x1
I0403 18:47:49.964131 17667 net.cpp:386] inception_4a/relu_1x1 -> inception_4a/1x1 (in-place)
I0403 18:47:49.964308 17667 net.cpp:141] Setting up inception_4a/relu_1x1
I0403 18:47:49.964336 17667 net.cpp:148] Top shape: 24 192 14 14 (903168)
I0403 18:47:49.964351 17667 net.cpp:156] Memory required for data: 861623328
I0403 18:47:49.964366 17667 layer_factory.hpp:77] Creating layer inception_4a/3x3_reduce
I0403 18:47:49.964390 17667 net.cpp:91] Creating Layer inception_4a/3x3_reduce
I0403 18:47:49.964406 17667 net.cpp:425] inception_4a/3x3_reduce <- pool3/3x3_s2_pool3/3x3_s2_0_split_1
I0403 18:47:49.964426 17667 net.cpp:399] inception_4a/3x3_reduce -> inception_4a/3x3_reduce
I0403 18:47:49.965716 17667 net.cpp:141] Setting up inception_4a/3x3_reduce
I0403 18:47:49.965744 17667 net.cpp:148] Top shape: 24 96 14 14 (451584)
I0403 18:47:49.965760 17667 net.cpp:156] Memory required for data: 863429664
I0403 18:47:49.965785 17667 layer_factory.hpp:77] Creating layer inception_4a/relu_3x3_reduce
I0403 18:47:49.965806 17667 net.cpp:91] Creating Layer inception_4a/relu_3x3_reduce
I0403 18:47:49.965822 17667 net.cpp:425] inception_4a/relu_3x3_reduce <- inception_4a/3x3_reduce
I0403 18:47:49.965842 17667 net.cpp:386] inception_4a/relu_3x3_reduce -> inception_4a/3x3_reduce (in-place)
I0403 18:47:49.966027 17667 net.cpp:141] Setting up inception_4a/relu_3x3_reduce
I0403 18:47:49.966054 17667 net.cpp:148] Top shape: 24 96 14 14 (451584)
I0403 18:47:49.966070 17667 net.cpp:156] Memory required for data: 865236000
I0403 18:47:49.966085 17667 layer_factory.hpp:77] Creating layer inception_4a/3x3
I0403 18:47:49.966109 17667 net.cpp:91] Creating Layer inception_4a/3x3
I0403 18:47:49.966126 17667 net.cpp:425] inception_4a/3x3 <- inception_4a/3x3_reduce
I0403 18:47:49.966145 17667 net.cpp:399] inception_4a/3x3 -> inception_4a/3x3
I0403 18:47:49.968863 17667 net.cpp:141] Setting up inception_4a/3x3
I0403 18:47:49.968894 17667 net.cpp:148] Top shape: 24 208 14 14 (978432)
I0403 18:47:49.968909 17667 net.cpp:156] Memory required for data: 869149728
I0403 18:47:49.968929 17667 layer_factory.hpp:77] Creating layer inception_4a/relu_3x3
I0403 18:47:49.968956 17667 net.cpp:91] Creating Layer inception_4a/relu_3x3
I0403 18:47:49.968976 17667 net.cpp:425] inception_4a/relu_3x3 <- inception_4a/3x3
I0403 18:47:49.968996 17667 net.cpp:386] inception_4a/relu_3x3 -> inception_4a/3x3 (in-place)
I0403 18:47:49.969269 17667 net.cpp:141] Setting up inception_4a/relu_3x3
I0403 18:47:49.969296 17667 net.cpp:148] Top shape: 24 208 14 14 (978432)
I0403 18:47:49.969312 17667 net.cpp:156] Memory required for data: 873063456
I0403 18:47:49.969327 17667 layer_factory.hpp:77] Creating layer inception_4a/5x5_reduce
I0403 18:47:49.969350 17667 net.cpp:91] Creating Layer inception_4a/5x5_reduce
I0403 18:47:49.969367 17667 net.cpp:425] inception_4a/5x5_reduce <- pool3/3x3_s2_pool3/3x3_s2_0_split_2
I0403 18:47:49.969386 17667 net.cpp:399] inception_4a/5x5_reduce -> inception_4a/5x5_reduce
I0403 18:47:49.970394 17667 net.cpp:141] Setting up inception_4a/5x5_reduce
I0403 18:47:49.970424 17667 net.cpp:148] Top shape: 24 16 14 14 (75264)
I0403 18:47:49.970440 17667 net.cpp:156] Memory required for data: 873364512
I0403 18:47:49.970458 17667 layer_factory.hpp:77] Creating layer inception_4a/relu_5x5_reduce
I0403 18:47:49.970476 17667 net.cpp:91] Creating Layer inception_4a/relu_5x5_reduce
I0403 18:47:49.970492 17667 net.cpp:425] inception_4a/relu_5x5_reduce <- inception_4a/5x5_reduce
I0403 18:47:49.970511 17667 net.cpp:386] inception_4a/relu_5x5_reduce -> inception_4a/5x5_reduce (in-place)
I0403 18:47:49.970690 17667 net.cpp:141] Setting up inception_4a/relu_5x5_reduce
I0403 18:47:49.970715 17667 net.cpp:148] Top shape: 24 16 14 14 (75264)
I0403 18:47:49.970729 17667 net.cpp:156] Memory required for data: 873665568
I0403 18:47:49.970743 17667 layer_factory.hpp:77] Creating layer inception_4a/5x5
I0403 18:47:49.970765 17667 net.cpp:91] Creating Layer inception_4a/5x5
I0403 18:47:49.970782 17667 net.cpp:425] inception_4a/5x5 <- inception_4a/5x5_reduce
I0403 18:47:49.970803 17667 net.cpp:399] inception_4a/5x5 -> inception_4a/5x5
I0403 18:47:49.971915 17667 net.cpp:141] Setting up inception_4a/5x5
I0403 18:47:49.971941 17667 net.cpp:148] Top shape: 24 48 14 14 (225792)
I0403 18:47:49.971961 17667 net.cpp:156] Memory required for data: 874568736
I0403 18:47:49.971979 17667 layer_factory.hpp:77] Creating layer inception_4a/relu_5x5
I0403 18:47:49.971999 17667 net.cpp:91] Creating Layer inception_4a/relu_5x5
I0403 18:47:49.972017 17667 net.cpp:425] inception_4a/relu_5x5 <- inception_4a/5x5
I0403 18:47:49.972033 17667 net.cpp:386] inception_4a/relu_5x5 -> inception_4a/5x5 (in-place)
I0403 18:47:49.972213 17667 net.cpp:141] Setting up inception_4a/relu_5x5
I0403 18:47:49.972236 17667 net.cpp:148] Top shape: 24 48 14 14 (225792)
I0403 18:47:49.972251 17667 net.cpp:156] Memory required for data: 875471904
I0403 18:47:49.972265 17667 layer_factory.hpp:77] Creating layer inception_4a/pool
I0403 18:47:49.972285 17667 net.cpp:91] Creating Layer inception_4a/pool
I0403 18:47:49.972301 17667 net.cpp:425] inception_4a/pool <- pool3/3x3_s2_pool3/3x3_s2_0_split_3
I0403 18:47:49.972319 17667 net.cpp:399] inception_4a/pool -> inception_4a/pool
I0403 18:47:49.972380 17667 net.cpp:141] Setting up inception_4a/pool
I0403 18:47:49.972404 17667 net.cpp:148] Top shape: 24 480 14 14 (2257920)
I0403 18:47:49.972417 17667 net.cpp:156] Memory required for data: 884503584
I0403 18:47:49.972432 17667 layer_factory.hpp:77] Creating layer inception_4a/pool_proj
I0403 18:47:49.972453 17667 net.cpp:91] Creating Layer inception_4a/pool_proj
I0403 18:47:49.972471 17667 net.cpp:425] inception_4a/pool_proj <- inception_4a/pool
I0403 18:47:49.972491 17667 net.cpp:399] inception_4a/pool_proj -> inception_4a/pool_proj
I0403 18:47:49.973655 17667 net.cpp:141] Setting up inception_4a/pool_proj
I0403 18:47:49.973683 17667 net.cpp:148] Top shape: 24 64 14 14 (301056)
I0403 18:47:49.973713 17667 net.cpp:156] Memory required for data: 885707808
I0403 18:47:49.973733 17667 layer_factory.hpp:77] Creating layer inception_4a/relu_pool_proj
I0403 18:47:49.973754 17667 net.cpp:91] Creating Layer inception_4a/relu_pool_proj
I0403 18:47:49.973772 17667 net.cpp:425] inception_4a/relu_pool_proj <- inception_4a/pool_proj
I0403 18:47:49.973788 17667 net.cpp:386] inception_4a/relu_pool_proj -> inception_4a/pool_proj (in-place)
I0403 18:47:49.974077 17667 net.cpp:141] Setting up inception_4a/relu_pool_proj
I0403 18:47:49.974103 17667 net.cpp:148] Top shape: 24 64 14 14 (301056)
I0403 18:47:49.974118 17667 net.cpp:156] Memory required for data: 886912032
I0403 18:47:49.974133 17667 layer_factory.hpp:77] Creating layer inception_4a/output
I0403 18:47:49.974153 17667 net.cpp:91] Creating Layer inception_4a/output
I0403 18:47:49.974169 17667 net.cpp:425] inception_4a/output <- inception_4a/1x1
I0403 18:47:49.974185 17667 net.cpp:425] inception_4a/output <- inception_4a/3x3
I0403 18:47:49.974202 17667 net.cpp:425] inception_4a/output <- inception_4a/5x5
I0403 18:47:49.974218 17667 net.cpp:425] inception_4a/output <- inception_4a/pool_proj
I0403 18:47:49.974236 17667 net.cpp:399] inception_4a/output -> inception_4a/output
I0403 18:47:49.974280 17667 net.cpp:141] Setting up inception_4a/output
I0403 18:47:49.974303 17667 net.cpp:148] Top shape: 24 512 14 14 (2408448)
I0403 18:47:49.974318 17667 net.cpp:156] Memory required for data: 896545824
I0403 18:47:49.974333 17667 layer_factory.hpp:77] Creating layer inception_4a/output_inception_4a/output_0_split
I0403 18:47:49.974350 17667 net.cpp:91] Creating Layer inception_4a/output_inception_4a/output_0_split
I0403 18:47:49.974365 17667 net.cpp:425] inception_4a/output_inception_4a/output_0_split <- inception_4a/output
I0403 18:47:49.974385 17667 net.cpp:399] inception_4a/output_inception_4a/output_0_split -> inception_4a/output_inception_4a/output_0_split_0
I0403 18:47:49.974405 17667 net.cpp:399] inception_4a/output_inception_4a/output_0_split -> inception_4a/output_inception_4a/output_0_split_1
I0403 18:47:49.974426 17667 net.cpp:399] inception_4a/output_inception_4a/output_0_split -> inception_4a/output_inception_4a/output_0_split_2
I0403 18:47:49.974445 17667 net.cpp:399] inception_4a/output_inception_4a/output_0_split -> inception_4a/output_inception_4a/output_0_split_3
I0403 18:47:49.974465 17667 net.cpp:399] inception_4a/output_inception_4a/output_0_split -> inception_4a/output_inception_4a/output_0_split_4
I0403 18:47:49.974557 17667 net.cpp:141] Setting up inception_4a/output_inception_4a/output_0_split
I0403 18:47:49.974581 17667 net.cpp:148] Top shape: 24 512 14 14 (2408448)
I0403 18:47:49.974597 17667 net.cpp:148] Top shape: 24 512 14 14 (2408448)
I0403 18:47:49.974613 17667 net.cpp:148] Top shape: 24 512 14 14 (2408448)
I0403 18:47:49.974628 17667 net.cpp:148] Top shape: 24 512 14 14 (2408448)
I0403 18:47:49.974643 17667 net.cpp:148] Top shape: 24 512 14 14 (2408448)
I0403 18:47:49.974656 17667 net.cpp:156] Memory required for data: 944714784
I0403 18:47:49.974671 17667 layer_factory.hpp:77] Creating layer loss1/ave_pool
I0403 18:47:49.974689 17667 net.cpp:91] Creating Layer loss1/ave_pool
I0403 18:47:49.974704 17667 net.cpp:425] loss1/ave_pool <- inception_4a/output_inception_4a/output_0_split_0
I0403 18:47:49.974723 17667 net.cpp:399] loss1/ave_pool -> loss1/ave_pool
I0403 18:47:49.974926 17667 net.cpp:141] Setting up loss1/ave_pool
I0403 18:47:49.974956 17667 net.cpp:148] Top shape: 24 512 4 4 (196608)
I0403 18:47:49.974972 17667 net.cpp:156] Memory required for data: 945501216
I0403 18:47:49.974987 17667 layer_factory.hpp:77] Creating layer loss1/conv
I0403 18:47:49.975008 17667 net.cpp:91] Creating Layer loss1/conv
I0403 18:47:49.975024 17667 net.cpp:425] loss1/conv <- loss1/ave_pool
I0403 18:47:49.975045 17667 net.cpp:399] loss1/conv -> loss1/conv
I0403 18:47:49.976444 17667 net.cpp:141] Setting up loss1/conv
I0403 18:47:49.976474 17667 net.cpp:148] Top shape: 24 128 4 4 (49152)
I0403 18:47:49.976502 17667 net.cpp:156] Memory required for data: 945697824
I0403 18:47:49.976522 17667 layer_factory.hpp:77] Creating layer loss1/relu_conv
I0403 18:47:49.976541 17667 net.cpp:91] Creating Layer loss1/relu_conv
I0403 18:47:49.976555 17667 net.cpp:425] loss1/relu_conv <- loss1/conv
I0403 18:47:49.976574 17667 net.cpp:386] loss1/relu_conv -> loss1/conv (in-place)
I0403 18:47:49.976852 17667 net.cpp:141] Setting up loss1/relu_conv
I0403 18:47:49.976881 17667 net.cpp:148] Top shape: 24 128 4 4 (49152)
I0403 18:47:49.976896 17667 net.cpp:156] Memory required for data: 945894432
I0403 18:47:49.976909 17667 layer_factory.hpp:77] Creating layer loss1/fc
I0403 18:47:49.976933 17667 net.cpp:91] Creating Layer loss1/fc
I0403 18:47:49.976953 17667 net.cpp:425] loss1/fc <- loss1/conv
I0403 18:47:49.976979 17667 net.cpp:399] loss1/fc -> loss1/fc
I0403 18:47:49.994596 17667 net.cpp:141] Setting up loss1/fc
I0403 18:47:49.994655 17667 net.cpp:148] Top shape: 24 1024 (24576)
I0403 18:47:49.994670 17667 net.cpp:156] Memory required for data: 945992736
I0403 18:47:49.994690 17667 layer_factory.hpp:77] Creating layer loss1/relu_fc
I0403 18:47:49.994712 17667 net.cpp:91] Creating Layer loss1/relu_fc
I0403 18:47:49.994729 17667 net.cpp:425] loss1/relu_fc <- loss1/fc
I0403 18:47:49.994748 17667 net.cpp:386] loss1/relu_fc -> loss1/fc (in-place)
I0403 18:47:49.994957 17667 net.cpp:141] Setting up loss1/relu_fc
I0403 18:47:49.994984 17667 net.cpp:148] Top shape: 24 1024 (24576)
I0403 18:47:49.994999 17667 net.cpp:156] Memory required for data: 946091040
I0403 18:47:49.995014 17667 layer_factory.hpp:77] Creating layer loss1/drop_fc
I0403 18:47:49.995043 17667 net.cpp:91] Creating Layer loss1/drop_fc
I0403 18:47:49.995060 17667 net.cpp:425] loss1/drop_fc <- loss1/fc
I0403 18:47:49.995077 17667 net.cpp:386] loss1/drop_fc -> loss1/fc (in-place)
I0403 18:47:49.995131 17667 net.cpp:141] Setting up loss1/drop_fc
I0403 18:47:49.995153 17667 net.cpp:148] Top shape: 24 1024 (24576)
I0403 18:47:49.995167 17667 net.cpp:156] Memory required for data: 946189344
I0403 18:47:49.995182 17667 layer_factory.hpp:77] Creating layer loss1/classifier_plantvillage
I0403 18:47:49.995201 17667 net.cpp:91] Creating Layer loss1/classifier_plantvillage
I0403 18:47:49.995216 17667 net.cpp:425] loss1/classifier_plantvillage <- loss1/fc
I0403 18:47:49.995239 17667 net.cpp:399] loss1/classifier_plantvillage -> loss1/classifier_plantvillage
I0403 18:47:49.996166 17667 net.cpp:141] Setting up loss1/classifier_plantvillage
I0403 18:47:49.996194 17667 net.cpp:148] Top shape: 24 38 (912)
I0403 18:47:49.996209 17667 net.cpp:156] Memory required for data: 946192992
I0403 18:47:49.996227 17667 layer_factory.hpp:77] Creating layer loss1/classifier_plantvillage_loss1/classifier_plantvillage_0_split
I0403 18:47:49.996248 17667 net.cpp:91] Creating Layer loss1/classifier_plantvillage_loss1/classifier_plantvillage_0_split
I0403 18:47:49.996264 17667 net.cpp:425] loss1/classifier_plantvillage_loss1/classifier_plantvillage_0_split <- loss1/classifier_plantvillage
I0403 18:47:49.996281 17667 net.cpp:399] loss1/classifier_plantvillage_loss1/classifier_plantvillage_0_split -> loss1/classifier_plantvillage_loss1/classifier_plantvillage_0_split_0
I0403 18:47:49.996301 17667 net.cpp:399] loss1/classifier_plantvillage_loss1/classifier_plantvillage_0_split -> loss1/classifier_plantvillage_loss1/classifier_plantvillage_0_split_1
I0403 18:47:49.996327 17667 net.cpp:399] loss1/classifier_plantvillage_loss1/classifier_plantvillage_0_split -> loss1/classifier_plantvillage_loss1/classifier_plantvillage_0_split_2
I0403 18:47:49.996393 17667 net.cpp:141] Setting up loss1/classifier_plantvillage_loss1/classifier_plantvillage_0_split
I0403 18:47:49.996417 17667 net.cpp:148] Top shape: 24 38 (912)
I0403 18:47:49.996433 17667 net.cpp:148] Top shape: 24 38 (912)
I0403 18:47:49.996448 17667 net.cpp:148] Top shape: 24 38 (912)
I0403 18:47:49.996460 17667 net.cpp:156] Memory required for data: 946203936
I0403 18:47:49.996474 17667 layer_factory.hpp:77] Creating layer inception_4b/1x1
I0403 18:47:49.996497 17667 net.cpp:91] Creating Layer inception_4b/1x1
I0403 18:47:49.996532 17667 net.cpp:425] inception_4b/1x1 <- inception_4a/output_inception_4a/output_0_split_1
I0403 18:47:49.996553 17667 net.cpp:399] inception_4b/1x1 -> inception_4b/1x1
I0403 18:47:49.998281 17667 net.cpp:141] Setting up inception_4b/1x1
I0403 18:47:49.998311 17667 net.cpp:148] Top shape: 24 160 14 14 (752640)
I0403 18:47:49.998328 17667 net.cpp:156] Memory required for data: 949214496
I0403 18:47:49.998347 17667 layer_factory.hpp:77] Creating layer inception_4b/relu_1x1
I0403 18:47:49.998365 17667 net.cpp:91] Creating Layer inception_4b/relu_1x1
I0403 18:47:49.998381 17667 net.cpp:425] inception_4b/relu_1x1 <- inception_4b/1x1
I0403 18:47:49.998401 17667 net.cpp:386] inception_4b/relu_1x1 -> inception_4b/1x1 (in-place)
I0403 18:47:49.998584 17667 net.cpp:141] Setting up inception_4b/relu_1x1
I0403 18:47:49.998610 17667 net.cpp:148] Top shape: 24 160 14 14 (752640)
I0403 18:47:49.998625 17667 net.cpp:156] Memory required for data: 952225056
I0403 18:47:49.998639 17667 layer_factory.hpp:77] Creating layer inception_4b/3x3_reduce
I0403 18:47:49.998666 17667 net.cpp:91] Creating Layer inception_4b/3x3_reduce
I0403 18:47:49.998683 17667 net.cpp:425] inception_4b/3x3_reduce <- inception_4a/output_inception_4a/output_0_split_2
I0403 18:47:49.998705 17667 net.cpp:399] inception_4b/3x3_reduce -> inception_4b/3x3_reduce
I0403 18:47:50.000108 17667 net.cpp:141] Setting up inception_4b/3x3_reduce
I0403 18:47:50.000136 17667 net.cpp:148] Top shape: 24 112 14 14 (526848)
I0403 18:47:50.000151 17667 net.cpp:156] Memory required for data: 954332448
I0403 18:47:50.000170 17667 layer_factory.hpp:77] Creating layer inception_4b/relu_3x3_reduce
I0403 18:47:50.000188 17667 net.cpp:91] Creating Layer inception_4b/relu_3x3_reduce
I0403 18:47:50.000207 17667 net.cpp:425] inception_4b/relu_3x3_reduce <- inception_4b/3x3_reduce
I0403 18:47:50.000227 17667 net.cpp:386] inception_4b/relu_3x3_reduce -> inception_4b/3x3_reduce (in-place)
I0403 18:47:50.000517 17667 net.cpp:141] Setting up inception_4b/relu_3x3_reduce
I0403 18:47:50.000545 17667 net.cpp:148] Top shape: 24 112 14 14 (526848)
I0403 18:47:50.000560 17667 net.cpp:156] Memory required for data: 956439840
I0403 18:47:50.000574 17667 layer_factory.hpp:77] Creating layer inception_4b/3x3
I0403 18:47:50.000597 17667 net.cpp:91] Creating Layer inception_4b/3x3
I0403 18:47:50.000615 17667 net.cpp:425] inception_4b/3x3 <- inception_4b/3x3_reduce
I0403 18:47:50.000636 17667 net.cpp:399] inception_4b/3x3 -> inception_4b/3x3
I0403 18:47:50.003710 17667 net.cpp:141] Setting up inception_4b/3x3
I0403 18:47:50.003741 17667 net.cpp:148] Top shape: 24 224 14 14 (1053696)
I0403 18:47:50.003756 17667 net.cpp:156] Memory required for data: 960654624
I0403 18:47:50.003775 17667 layer_factory.hpp:77] Creating layer inception_4b/relu_3x3
I0403 18:47:50.003796 17667 net.cpp:91] Creating Layer inception_4b/relu_3x3
I0403 18:47:50.003813 17667 net.cpp:425] inception_4b/relu_3x3 <- inception_4b/3x3
I0403 18:47:50.003831 17667 net.cpp:386] inception_4b/relu_3x3 -> inception_4b/3x3 (in-place)
I0403 18:47:50.004020 17667 net.cpp:141] Setting up inception_4b/relu_3x3
I0403 18:47:50.004048 17667 net.cpp:148] Top shape: 24 224 14 14 (1053696)
I0403 18:47:50.004065 17667 net.cpp:156] Memory required for data: 964869408
I0403 18:47:50.004079 17667 layer_factory.hpp:77] Creating layer inception_4b/5x5_reduce
I0403 18:47:50.004102 17667 net.cpp:91] Creating Layer inception_4b/5x5_reduce
I0403 18:47:50.004119 17667 net.cpp:425] inception_4b/5x5_reduce <- inception_4a/output_inception_4a/output_0_split_3
I0403 18:47:50.004142 17667 net.cpp:399] inception_4b/5x5_reduce -> inception_4b/5x5_reduce
I0403 18:47:50.005259 17667 net.cpp:141] Setting up inception_4b/5x5_reduce
I0403 18:47:50.005288 17667 net.cpp:148] Top shape: 24 24 14 14 (112896)
I0403 18:47:50.005303 17667 net.cpp:156] Memory required for data: 965320992
I0403 18:47:50.005322 17667 layer_factory.hpp:77] Creating layer inception_4b/relu_5x5_reduce
I0403 18:47:50.005341 17667 net.cpp:91] Creating Layer inception_4b/relu_5x5_reduce
I0403 18:47:50.005372 17667 net.cpp:425] inception_4b/relu_5x5_reduce <- inception_4b/5x5_reduce
I0403 18:47:50.005393 17667 net.cpp:386] inception_4b/relu_5x5_reduce -> inception_4b/5x5_reduce (in-place)
I0403 18:47:50.005581 17667 net.cpp:141] Setting up inception_4b/relu_5x5_reduce
I0403 18:47:50.005606 17667 net.cpp:148] Top shape: 24 24 14 14 (112896)
I0403 18:47:50.005622 17667 net.cpp:156] Memory required for data: 965772576
I0403 18:47:50.005637 17667 layer_factory.hpp:77] Creating layer inception_4b/5x5
I0403 18:47:50.005659 17667 net.cpp:91] Creating Layer inception_4b/5x5
I0403 18:47:50.005678 17667 net.cpp:425] inception_4b/5x5 <- inception_4b/5x5_reduce
I0403 18:47:50.005699 17667 net.cpp:399] inception_4b/5x5 -> inception_4b/5x5
I0403 18:47:50.006973 17667 net.cpp:141] Setting up inception_4b/5x5
I0403 18:47:50.007002 17667 net.cpp:148] Top shape: 24 64 14 14 (301056)
I0403 18:47:50.007019 17667 net.cpp:156] Memory required for data: 966976800
I0403 18:47:50.007037 17667 layer_factory.hpp:77] Creating layer inception_4b/relu_5x5
I0403 18:47:50.007056 17667 net.cpp:91] Creating Layer inception_4b/relu_5x5
I0403 18:47:50.007072 17667 net.cpp:425] inception_4b/relu_5x5 <- inception_4b/5x5
I0403 18:47:50.007092 17667 net.cpp:386] inception_4b/relu_5x5 -> inception_4b/5x5 (in-place)
I0403 18:47:50.007382 17667 net.cpp:141] Setting up inception_4b/relu_5x5
I0403 18:47:50.007411 17667 net.cpp:148] Top shape: 24 64 14 14 (301056)
I0403 18:47:50.007427 17667 net.cpp:156] Memory required for data: 968181024
I0403 18:47:50.007442 17667 layer_factory.hpp:77] Creating layer inception_4b/pool
I0403 18:47:50.007462 17667 net.cpp:91] Creating Layer inception_4b/pool
I0403 18:47:50.007478 17667 net.cpp:425] inception_4b/pool <- inception_4a/output_inception_4a/output_0_split_4
I0403 18:47:50.007499 17667 net.cpp:399] inception_4b/pool -> inception_4b/pool
I0403 18:47:50.007565 17667 net.cpp:141] Setting up inception_4b/pool
I0403 18:47:50.007588 17667 net.cpp:148] Top shape: 24 512 14 14 (2408448)
I0403 18:47:50.007603 17667 net.cpp:156] Memory required for data: 977814816
I0403 18:47:50.007618 17667 layer_factory.hpp:77] Creating layer inception_4b/pool_proj
I0403 18:47:50.007642 17667 net.cpp:91] Creating Layer inception_4b/pool_proj
I0403 18:47:50.007659 17667 net.cpp:425] inception_4b/pool_proj <- inception_4b/pool
I0403 18:47:50.007680 17667 net.cpp:399] inception_4b/pool_proj -> inception_4b/pool_proj
I0403 18:47:50.008913 17667 net.cpp:141] Setting up inception_4b/pool_proj
I0403 18:47:50.008944 17667 net.cpp:148] Top shape: 24 64 14 14 (301056)
I0403 18:47:50.008972 17667 net.cpp:156] Memory required for data: 979019040
I0403 18:47:50.008992 17667 layer_factory.hpp:77] Creating layer inception_4b/relu_pool_proj
I0403 18:47:50.009011 17667 net.cpp:91] Creating Layer inception_4b/relu_pool_proj
I0403 18:47:50.009027 17667 net.cpp:425] inception_4b/relu_pool_proj <- inception_4b/pool_proj
I0403 18:47:50.009048 17667 net.cpp:386] inception_4b/relu_pool_proj -> inception_4b/pool_proj (in-place)
I0403 18:47:50.009235 17667 net.cpp:141] Setting up inception_4b/relu_pool_proj
I0403 18:47:50.009261 17667 net.cpp:148] Top shape: 24 64 14 14 (301056)
I0403 18:47:50.009276 17667 net.cpp:156] Memory required for data: 980223264
I0403 18:47:50.009291 17667 layer_factory.hpp:77] Creating layer inception_4b/output
I0403 18:47:50.009310 17667 net.cpp:91] Creating Layer inception_4b/output
I0403 18:47:50.009325 17667 net.cpp:425] inception_4b/output <- inception_4b/1x1
I0403 18:47:50.009342 17667 net.cpp:425] inception_4b/output <- inception_4b/3x3
I0403 18:47:50.009358 17667 net.cpp:425] inception_4b/output <- inception_4b/5x5
I0403 18:47:50.009374 17667 net.cpp:425] inception_4b/output <- inception_4b/pool_proj
I0403 18:47:50.009394 17667 net.cpp:399] inception_4b/output -> inception_4b/output
I0403 18:47:50.009443 17667 net.cpp:141] Setting up inception_4b/output
I0403 18:47:50.009467 17667 net.cpp:148] Top shape: 24 512 14 14 (2408448)
I0403 18:47:50.009481 17667 net.cpp:156] Memory required for data: 989857056
I0403 18:47:50.009510 17667 layer_factory.hpp:77] Creating layer inception_4b/output_inception_4b/output_0_split
I0403 18:47:50.009529 17667 net.cpp:91] Creating Layer inception_4b/output_inception_4b/output_0_split
I0403 18:47:50.009546 17667 net.cpp:425] inception_4b/output_inception_4b/output_0_split <- inception_4b/output
I0403 18:47:50.009565 17667 net.cpp:399] inception_4b/output_inception_4b/output_0_split -> inception_4b/output_inception_4b/output_0_split_0
I0403 18:47:50.009587 17667 net.cpp:399] inception_4b/output_inception_4b/output_0_split -> inception_4b/output_inception_4b/output_0_split_1
I0403 18:47:50.009606 17667 net.cpp:399] inception_4b/output_inception_4b/output_0_split -> inception_4b/output_inception_4b/output_0_split_2
I0403 18:47:50.009626 17667 net.cpp:399] inception_4b/output_inception_4b/output_0_split -> inception_4b/output_inception_4b/output_0_split_3
I0403 18:47:50.009712 17667 net.cpp:141] Setting up inception_4b/output_inception_4b/output_0_split
I0403 18:47:50.009739 17667 net.cpp:148] Top shape: 24 512 14 14 (2408448)
I0403 18:47:50.009757 17667 net.cpp:148] Top shape: 24 512 14 14 (2408448)
I0403 18:47:50.009773 17667 net.cpp:148] Top shape: 24 512 14 14 (2408448)
I0403 18:47:50.009788 17667 net.cpp:148] Top shape: 24 512 14 14 (2408448)
I0403 18:47:50.009801 17667 net.cpp:156] Memory required for data: 1028392224
I0403 18:47:50.009816 17667 layer_factory.hpp:77] Creating layer inception_4c/1x1
I0403 18:47:50.009840 17667 net.cpp:91] Creating Layer inception_4c/1x1
I0403 18:47:50.009857 17667 net.cpp:425] inception_4c/1x1 <- inception_4b/output_inception_4b/output_0_split_0
I0403 18:47:50.009877 17667 net.cpp:399] inception_4c/1x1 -> inception_4c/1x1
I0403 18:47:50.011353 17667 net.cpp:141] Setting up inception_4c/1x1
I0403 18:47:50.011382 17667 net.cpp:148] Top shape: 24 128 14 14 (602112)
I0403 18:47:50.011397 17667 net.cpp:156] Memory required for data: 1030800672
I0403 18:47:50.011415 17667 layer_factory.hpp:77] Creating layer inception_4c/relu_1x1
I0403 18:47:50.011437 17667 net.cpp:91] Creating Layer inception_4c/relu_1x1
I0403 18:47:50.011456 17667 net.cpp:425] inception_4c/relu_1x1 <- inception_4c/1x1
I0403 18:47:50.011473 17667 net.cpp:386] inception_4c/relu_1x1 -> inception_4c/1x1 (in-place)
I0403 18:47:50.011659 17667 net.cpp:141] Setting up inception_4c/relu_1x1
I0403 18:47:50.011687 17667 net.cpp:148] Top shape: 24 128 14 14 (602112)
I0403 18:47:50.011703 17667 net.cpp:156] Memory required for data: 1033209120
I0403 18:47:50.011718 17667 layer_factory.hpp:77] Creating layer inception_4c/3x3_reduce
I0403 18:47:50.011739 17667 net.cpp:91] Creating Layer inception_4c/3x3_reduce
I0403 18:47:50.011757 17667 net.cpp:425] inception_4c/3x3_reduce <- inception_4b/output_inception_4b/output_0_split_1
I0403 18:47:50.011777 17667 net.cpp:399] inception_4c/3x3_reduce -> inception_4c/3x3_reduce
I0403 18:47:50.013767 17667 net.cpp:141] Setting up inception_4c/3x3_reduce
I0403 18:47:50.013798 17667 net.cpp:148] Top shape: 24 128 14 14 (602112)
I0403 18:47:50.013815 17667 net.cpp:156] Memory required for data: 1035617568
I0403 18:47:50.013834 17667 layer_factory.hpp:77] Creating layer inception_4c/relu_3x3_reduce
I0403 18:47:50.013852 17667 net.cpp:91] Creating Layer inception_4c/relu_3x3_reduce
I0403 18:47:50.013869 17667 net.cpp:425] inception_4c/relu_3x3_reduce <- inception_4c/3x3_reduce
I0403 18:47:50.013885 17667 net.cpp:386] inception_4c/relu_3x3_reduce -> inception_4c/3x3_reduce (in-place)
I0403 18:47:50.014180 17667 net.cpp:141] Setting up inception_4c/relu_3x3_reduce
I0403 18:47:50.014211 17667 net.cpp:148] Top shape: 24 128 14 14 (602112)
I0403 18:47:50.014227 17667 net.cpp:156] Memory required for data: 1038026016
I0403 18:47:50.014242 17667 layer_factory.hpp:77] Creating layer inception_4c/3x3
I0403 18:47:50.014266 17667 net.cpp:91] Creating Layer inception_4c/3x3
I0403 18:47:50.014284 17667 net.cpp:425] inception_4c/3x3 <- inception_4c/3x3_reduce
I0403 18:47:50.014304 17667 net.cpp:399] inception_4c/3x3 -> inception_4c/3x3
I0403 18:47:50.017956 17667 net.cpp:141] Setting up inception_4c/3x3
I0403 18:47:50.017999 17667 net.cpp:148] Top shape: 24 256 14 14 (1204224)
I0403 18:47:50.018016 17667 net.cpp:156] Memory required for data: 1042842912
I0403 18:47:50.018049 17667 layer_factory.hpp:77] Creating layer inception_4c/relu_3x3
I0403 18:47:50.018067 17667 net.cpp:91] Creating Layer inception_4c/relu_3x3
I0403 18:47:50.018084 17667 net.cpp:425] inception_4c/relu_3x3 <- inception_4c/3x3
I0403 18:47:50.018103 17667 net.cpp:386] inception_4c/relu_3x3 -> inception_4c/3x3 (in-place)
I0403 18:47:50.018283 17667 net.cpp:141] Setting up inception_4c/relu_3x3
I0403 18:47:50.018308 17667 net.cpp:148] Top shape: 24 256 14 14 (1204224)
I0403 18:47:50.018323 17667 net.cpp:156] Memory required for data: 1047659808
I0403 18:47:50.018337 17667 layer_factory.hpp:77] Creating layer inception_4c/5x5_reduce
I0403 18:47:50.018360 17667 net.cpp:91] Creating Layer inception_4c/5x5_reduce
I0403 18:47:50.018378 17667 net.cpp:425] inception_4c/5x5_reduce <- inception_4b/output_inception_4b/output_0_split_2
I0403 18:47:50.018399 17667 net.cpp:399] inception_4c/5x5_reduce -> inception_4c/5x5_reduce
I0403 18:47:50.019491 17667 net.cpp:141] Setting up inception_4c/5x5_reduce
I0403 18:47:50.019520 17667 net.cpp:148] Top shape: 24 24 14 14 (112896)
I0403 18:47:50.019536 17667 net.cpp:156] Memory required for data: 1048111392
I0403 18:47:50.019553 17667 layer_factory.hpp:77] Creating layer inception_4c/relu_5x5_reduce
I0403 18:47:50.019570 17667 net.cpp:91] Creating Layer inception_4c/relu_5x5_reduce
I0403 18:47:50.019587 17667 net.cpp:425] inception_4c/relu_5x5_reduce <- inception_4c/5x5_reduce
I0403 18:47:50.019608 17667 net.cpp:386] inception_4c/relu_5x5_reduce -> inception_4c/5x5_reduce (in-place)
I0403 18:47:50.019789 17667 net.cpp:141] Setting up inception_4c/relu_5x5_reduce
I0403 18:47:50.019814 17667 net.cpp:148] Top shape: 24 24 14 14 (112896)
I0403 18:47:50.019829 17667 net.cpp:156] Memory required for data: 1048562976
I0403 18:47:50.019843 17667 layer_factory.hpp:77] Creating layer inception_4c/5x5
I0403 18:47:50.019865 17667 net.cpp:91] Creating Layer inception_4c/5x5
I0403 18:47:50.019882 17667 net.cpp:425] inception_4c/5x5 <- inception_4c/5x5_reduce
I0403 18:47:50.019903 17667 net.cpp:399] inception_4c/5x5 -> inception_4c/5x5
I0403 18:47:50.021158 17667 net.cpp:141] Setting up inception_4c/5x5
I0403 18:47:50.021186 17667 net.cpp:148] Top shape: 24 64 14 14 (301056)
I0403 18:47:50.021203 17667 net.cpp:156] Memory required for data: 1049767200
I0403 18:47:50.021221 17667 layer_factory.hpp:77] Creating layer inception_4c/relu_5x5
I0403 18:47:50.021241 17667 net.cpp:91] Creating Layer inception_4c/relu_5x5
I0403 18:47:50.021258 17667 net.cpp:425] inception_4c/relu_5x5 <- inception_4c/5x5
I0403 18:47:50.021276 17667 net.cpp:386] inception_4c/relu_5x5 -> inception_4c/5x5 (in-place)
I0403 18:47:50.021569 17667 net.cpp:141] Setting up inception_4c/relu_5x5
I0403 18:47:50.021595 17667 net.cpp:148] Top shape: 24 64 14 14 (301056)
I0403 18:47:50.021610 17667 net.cpp:156] Memory required for data: 1050971424
I0403 18:47:50.021626 17667 layer_factory.hpp:77] Creating layer inception_4c/pool
I0403 18:47:50.021643 17667 net.cpp:91] Creating Layer inception_4c/pool
I0403 18:47:50.021659 17667 net.cpp:425] inception_4c/pool <- inception_4b/output_inception_4b/output_0_split_3
I0403 18:47:50.021680 17667 net.cpp:399] inception_4c/pool -> inception_4c/pool
I0403 18:47:50.021747 17667 net.cpp:141] Setting up inception_4c/pool
I0403 18:47:50.021770 17667 net.cpp:148] Top shape: 24 512 14 14 (2408448)
I0403 18:47:50.021785 17667 net.cpp:156] Memory required for data: 1060605216
I0403 18:47:50.021800 17667 layer_factory.hpp:77] Creating layer inception_4c/pool_proj
I0403 18:47:50.021821 17667 net.cpp:91] Creating Layer inception_4c/pool_proj
I0403 18:47:50.021838 17667 net.cpp:425] inception_4c/pool_proj <- inception_4c/pool
I0403 18:47:50.021859 17667 net.cpp:399] inception_4c/pool_proj -> inception_4c/pool_proj
I0403 18:47:50.023078 17667 net.cpp:141] Setting up inception_4c/pool_proj
I0403 18:47:50.023108 17667 net.cpp:148] Top shape: 24 64 14 14 (301056)
I0403 18:47:50.023138 17667 net.cpp:156] Memory required for data: 1061809440
I0403 18:47:50.023157 17667 layer_factory.hpp:77] Creating layer inception_4c/relu_pool_proj
I0403 18:47:50.023175 17667 net.cpp:91] Creating Layer inception_4c/relu_pool_proj
I0403 18:47:50.023191 17667 net.cpp:425] inception_4c/relu_pool_proj <- inception_4c/pool_proj
I0403 18:47:50.023212 17667 net.cpp:386] inception_4c/relu_pool_proj -> inception_4c/pool_proj (in-place)
I0403 18:47:50.023393 17667 net.cpp:141] Setting up inception_4c/relu_pool_proj
I0403 18:47:50.023418 17667 net.cpp:148] Top shape: 24 64 14 14 (301056)
I0403 18:47:50.023433 17667 net.cpp:156] Memory required for data: 1063013664
I0403 18:47:50.023448 17667 layer_factory.hpp:77] Creating layer inception_4c/output
I0403 18:47:50.023465 17667 net.cpp:91] Creating Layer inception_4c/output
I0403 18:47:50.023480 17667 net.cpp:425] inception_4c/output <- inception_4c/1x1
I0403 18:47:50.023496 17667 net.cpp:425] inception_4c/output <- inception_4c/3x3
I0403 18:47:50.023511 17667 net.cpp:425] inception_4c/output <- inception_4c/5x5
I0403 18:47:50.023529 17667 net.cpp:425] inception_4c/output <- inception_4c/pool_proj
I0403 18:47:50.023546 17667 net.cpp:399] inception_4c/output -> inception_4c/output
I0403 18:47:50.023596 17667 net.cpp:141] Setting up inception_4c/output
I0403 18:47:50.023618 17667 net.cpp:148] Top shape: 24 512 14 14 (2408448)
I0403 18:47:50.023633 17667 net.cpp:156] Memory required for data: 1072647456
I0403 18:47:50.023648 17667 layer_factory.hpp:77] Creating layer inception_4c/output_inception_4c/output_0_split
I0403 18:47:50.023663 17667 net.cpp:91] Creating Layer inception_4c/output_inception_4c/output_0_split
I0403 18:47:50.023679 17667 net.cpp:425] inception_4c/output_inception_4c/output_0_split <- inception_4c/output
I0403 18:47:50.023699 17667 net.cpp:399] inception_4c/output_inception_4c/output_0_split -> inception_4c/output_inception_4c/output_0_split_0
I0403 18:47:50.023720 17667 net.cpp:399] inception_4c/output_inception_4c/output_0_split -> inception_4c/output_inception_4c/output_0_split_1
I0403 18:47:50.023739 17667 net.cpp:399] inception_4c/output_inception_4c/output_0_split -> inception_4c/output_inception_4c/output_0_split_2
I0403 18:47:50.023758 17667 net.cpp:399] inception_4c/output_inception_4c/output_0_split -> inception_4c/output_inception_4c/output_0_split_3
I0403 18:47:50.023847 17667 net.cpp:141] Setting up inception_4c/output_inception_4c/output_0_split
I0403 18:47:50.023870 17667 net.cpp:148] Top shape: 24 512 14 14 (2408448)
I0403 18:47:50.023886 17667 net.cpp:148] Top shape: 24 512 14 14 (2408448)
I0403 18:47:50.023901 17667 net.cpp:148] Top shape: 24 512 14 14 (2408448)
I0403 18:47:50.023916 17667 net.cpp:148] Top shape: 24 512 14 14 (2408448)
I0403 18:47:50.023929 17667 net.cpp:156] Memory required for data: 1111182624
I0403 18:47:50.023942 17667 layer_factory.hpp:77] Creating layer inception_4d/1x1
I0403 18:47:50.023970 17667 net.cpp:91] Creating Layer inception_4d/1x1
I0403 18:47:50.023988 17667 net.cpp:425] inception_4d/1x1 <- inception_4c/output_inception_4c/output_0_split_0
I0403 18:47:50.024006 17667 net.cpp:399] inception_4d/1x1 -> inception_4d/1x1
I0403 18:47:50.025385 17667 net.cpp:141] Setting up inception_4d/1x1
I0403 18:47:50.025413 17667 net.cpp:148] Top shape: 24 112 14 14 (526848)
I0403 18:47:50.025429 17667 net.cpp:156] Memory required for data: 1113290016
I0403 18:47:50.025447 17667 layer_factory.hpp:77] Creating layer inception_4d/relu_1x1
I0403 18:47:50.025466 17667 net.cpp:91] Creating Layer inception_4d/relu_1x1
I0403 18:47:50.025483 17667 net.cpp:425] inception_4d/relu_1x1 <- inception_4d/1x1
I0403 18:47:50.025501 17667 net.cpp:386] inception_4d/relu_1x1 -> inception_4d/1x1 (in-place)
I0403 18:47:50.025686 17667 net.cpp:141] Setting up inception_4d/relu_1x1
I0403 18:47:50.025712 17667 net.cpp:148] Top shape: 24 112 14 14 (526848)
I0403 18:47:50.025727 17667 net.cpp:156] Memory required for data: 1115397408
I0403 18:47:50.025740 17667 layer_factory.hpp:77] Creating layer inception_4d/3x3_reduce
I0403 18:47:50.025776 17667 net.cpp:91] Creating Layer inception_4d/3x3_reduce
I0403 18:47:50.025794 17667 net.cpp:425] inception_4d/3x3_reduce <- inception_4c/output_inception_4c/output_0_split_1
I0403 18:47:50.025815 17667 net.cpp:399] inception_4d/3x3_reduce -> inception_4d/3x3_reduce
I0403 18:47:50.027333 17667 net.cpp:141] Setting up inception_4d/3x3_reduce
I0403 18:47:50.027360 17667 net.cpp:148] Top shape: 24 144 14 14 (677376)
I0403 18:47:50.027375 17667 net.cpp:156] Memory required for data: 1118106912
I0403 18:47:50.027393 17667 layer_factory.hpp:77] Creating layer inception_4d/relu_3x3_reduce
I0403 18:47:50.027413 17667 net.cpp:91] Creating Layer inception_4d/relu_3x3_reduce
I0403 18:47:50.027431 17667 net.cpp:425] inception_4d/relu_3x3_reduce <- inception_4d/3x3_reduce
I0403 18:47:50.027447 17667 net.cpp:386] inception_4d/relu_3x3_reduce -> inception_4d/3x3_reduce (in-place)
I0403 18:47:50.027735 17667 net.cpp:141] Setting up inception_4d/relu_3x3_reduce
I0403 18:47:50.027761 17667 net.cpp:148] Top shape: 24 144 14 14 (677376)
I0403 18:47:50.027776 17667 net.cpp:156] Memory required for data: 1120816416
I0403 18:47:50.027791 17667 layer_factory.hpp:77] Creating layer inception_4d/3x3
I0403 18:47:50.027812 17667 net.cpp:91] Creating Layer inception_4d/3x3
I0403 18:47:50.027830 17667 net.cpp:425] inception_4d/3x3 <- inception_4d/3x3_reduce
I0403 18:47:50.027850 17667 net.cpp:399] inception_4d/3x3 -> inception_4d/3x3
I0403 18:47:50.032145 17667 net.cpp:141] Setting up inception_4d/3x3
I0403 18:47:50.032176 17667 net.cpp:148] Top shape: 24 288 14 14 (1354752)
I0403 18:47:50.032191 17667 net.cpp:156] Memory required for data: 1126235424
I0403 18:47:50.032212 17667 layer_factory.hpp:77] Creating layer inception_4d/relu_3x3
I0403 18:47:50.032228 17667 net.cpp:91] Creating Layer inception_4d/relu_3x3
I0403 18:47:50.032245 17667 net.cpp:425] inception_4d/relu_3x3 <- inception_4d/3x3
I0403 18:47:50.032261 17667 net.cpp:386] inception_4d/relu_3x3 -> inception_4d/3x3 (in-place)
I0403 18:47:50.032447 17667 net.cpp:141] Setting up inception_4d/relu_3x3
I0403 18:47:50.032472 17667 net.cpp:148] Top shape: 24 288 14 14 (1354752)
I0403 18:47:50.032486 17667 net.cpp:156] Memory required for data: 1131654432
I0403 18:47:50.032501 17667 layer_factory.hpp:77] Creating layer inception_4d/5x5_reduce
I0403 18:47:50.032523 17667 net.cpp:91] Creating Layer inception_4d/5x5_reduce
I0403 18:47:50.032541 17667 net.cpp:425] inception_4d/5x5_reduce <- inception_4c/output_inception_4c/output_0_split_2
I0403 18:47:50.032563 17667 net.cpp:399] inception_4d/5x5_reduce -> inception_4d/5x5_reduce
I0403 18:47:50.033712 17667 net.cpp:141] Setting up inception_4d/5x5_reduce
I0403 18:47:50.033740 17667 net.cpp:148] Top shape: 24 32 14 14 (150528)
I0403 18:47:50.033756 17667 net.cpp:156] Memory required for data: 1132256544
I0403 18:47:50.033774 17667 layer_factory.hpp:77] Creating layer inception_4d/relu_5x5_reduce
I0403 18:47:50.033794 17667 net.cpp:91] Creating Layer inception_4d/relu_5x5_reduce
I0403 18:47:50.033812 17667 net.cpp:425] inception_4d/relu_5x5_reduce <- inception_4d/5x5_reduce
I0403 18:47:50.033829 17667 net.cpp:386] inception_4d/relu_5x5_reduce -> inception_4d/5x5_reduce (in-place)
I0403 18:47:50.034024 17667 net.cpp:141] Setting up inception_4d/relu_5x5_reduce
I0403 18:47:50.034049 17667 net.cpp:148] Top shape: 24 32 14 14 (150528)
I0403 18:47:50.034065 17667 net.cpp:156] Memory required for data: 1132858656
I0403 18:47:50.034080 17667 layer_factory.hpp:77] Creating layer inception_4d/5x5
I0403 18:47:50.034101 17667 net.cpp:91] Creating Layer inception_4d/5x5
I0403 18:47:50.034118 17667 net.cpp:425] inception_4d/5x5 <- inception_4d/5x5_reduce
I0403 18:47:50.034139 17667 net.cpp:399] inception_4d/5x5 -> inception_4d/5x5
I0403 18:47:50.035624 17667 net.cpp:141] Setting up inception_4d/5x5
I0403 18:47:50.035651 17667 net.cpp:148] Top shape: 24 64 14 14 (301056)
I0403 18:47:50.035668 17667 net.cpp:156] Memory required for data: 1134062880
I0403 18:47:50.035687 17667 layer_factory.hpp:77] Creating layer inception_4d/relu_5x5
I0403 18:47:50.035719 17667 net.cpp:91] Creating Layer inception_4d/relu_5x5
I0403 18:47:50.035737 17667 net.cpp:425] inception_4d/relu_5x5 <- inception_4d/5x5
I0403 18:47:50.035756 17667 net.cpp:386] inception_4d/relu_5x5 -> inception_4d/5x5 (in-place)
I0403 18:47:50.036064 17667 net.cpp:141] Setting up inception_4d/relu_5x5
I0403 18:47:50.036090 17667 net.cpp:148] Top shape: 24 64 14 14 (301056)
I0403 18:47:50.036104 17667 net.cpp:156] Memory required for data: 1135267104
I0403 18:47:50.036119 17667 layer_factory.hpp:77] Creating layer inception_4d/pool
I0403 18:47:50.036137 17667 net.cpp:91] Creating Layer inception_4d/pool
I0403 18:47:50.036154 17667 net.cpp:425] inception_4d/pool <- inception_4c/output_inception_4c/output_0_split_3
I0403 18:47:50.036173 17667 net.cpp:399] inception_4d/pool -> inception_4d/pool
I0403 18:47:50.036240 17667 net.cpp:141] Setting up inception_4d/pool
I0403 18:47:50.036264 17667 net.cpp:148] Top shape: 24 512 14 14 (2408448)
I0403 18:47:50.036278 17667 net.cpp:156] Memory required for data: 1144900896
I0403 18:47:50.036293 17667 layer_factory.hpp:77] Creating layer inception_4d/pool_proj
I0403 18:47:50.036317 17667 net.cpp:91] Creating Layer inception_4d/pool_proj
I0403 18:47:50.036335 17667 net.cpp:425] inception_4d/pool_proj <- inception_4d/pool
I0403 18:47:50.036355 17667 net.cpp:399] inception_4d/pool_proj -> inception_4d/pool_proj
I0403 18:47:50.038158 17667 net.cpp:141] Setting up inception_4d/pool_proj
I0403 18:47:50.038192 17667 net.cpp:148] Top shape: 24 64 14 14 (301056)
I0403 18:47:50.038209 17667 net.cpp:156] Memory required for data: 1146105120
I0403 18:47:50.038228 17667 layer_factory.hpp:77] Creating layer inception_4d/relu_pool_proj
I0403 18:47:50.038246 17667 net.cpp:91] Creating Layer inception_4d/relu_pool_proj
I0403 18:47:50.038264 17667 net.cpp:425] inception_4d/relu_pool_proj <- inception_4d/pool_proj
I0403 18:47:50.038281 17667 net.cpp:386] inception_4d/relu_pool_proj -> inception_4d/pool_proj (in-place)
I0403 18:47:50.038475 17667 net.cpp:141] Setting up inception_4d/relu_pool_proj
I0403 18:47:50.038501 17667 net.cpp:148] Top shape: 24 64 14 14 (301056)
I0403 18:47:50.038516 17667 net.cpp:156] Memory required for data: 1147309344
I0403 18:47:50.038530 17667 layer_factory.hpp:77] Creating layer inception_4d/output
I0403 18:47:50.038548 17667 net.cpp:91] Creating Layer inception_4d/output
I0403 18:47:50.038564 17667 net.cpp:425] inception_4d/output <- inception_4d/1x1
I0403 18:47:50.038581 17667 net.cpp:425] inception_4d/output <- inception_4d/3x3
I0403 18:47:50.038597 17667 net.cpp:425] inception_4d/output <- inception_4d/5x5
I0403 18:47:50.038614 17667 net.cpp:425] inception_4d/output <- inception_4d/pool_proj
I0403 18:47:50.038633 17667 net.cpp:399] inception_4d/output -> inception_4d/output
I0403 18:47:50.038683 17667 net.cpp:141] Setting up inception_4d/output
I0403 18:47:50.038707 17667 net.cpp:148] Top shape: 24 528 14 14 (2483712)
I0403 18:47:50.038722 17667 net.cpp:156] Memory required for data: 1157244192
I0403 18:47:50.038736 17667 layer_factory.hpp:77] Creating layer inception_4d/output_inception_4d/output_0_split
I0403 18:47:50.038758 17667 net.cpp:91] Creating Layer inception_4d/output_inception_4d/output_0_split
I0403 18:47:50.038774 17667 net.cpp:425] inception_4d/output_inception_4d/output_0_split <- inception_4d/output
I0403 18:47:50.038796 17667 net.cpp:399] inception_4d/output_inception_4d/output_0_split -> inception_4d/output_inception_4d/output_0_split_0
I0403 18:47:50.038817 17667 net.cpp:399] inception_4d/output_inception_4d/output_0_split -> inception_4d/output_inception_4d/output_0_split_1
I0403 18:47:50.038839 17667 net.cpp:399] inception_4d/output_inception_4d/output_0_split -> inception_4d/output_inception_4d/output_0_split_2
I0403 18:47:50.038861 17667 net.cpp:399] inception_4d/output_inception_4d/output_0_split -> inception_4d/output_inception_4d/output_0_split_3
I0403 18:47:50.038880 17667 net.cpp:399] inception_4d/output_inception_4d/output_0_split -> inception_4d/output_inception_4d/output_0_split_4
I0403 18:47:50.039002 17667 net.cpp:141] Setting up inception_4d/output_inception_4d/output_0_split
I0403 18:47:50.039039 17667 net.cpp:148] Top shape: 24 528 14 14 (2483712)
I0403 18:47:50.039057 17667 net.cpp:148] Top shape: 24 528 14 14 (2483712)
I0403 18:47:50.039072 17667 net.cpp:148] Top shape: 24 528 14 14 (2483712)
I0403 18:47:50.039088 17667 net.cpp:148] Top shape: 24 528 14 14 (2483712)
I0403 18:47:50.039104 17667 net.cpp:148] Top shape: 24 528 14 14 (2483712)
I0403 18:47:50.039119 17667 net.cpp:156] Memory required for data: 1206918432
I0403 18:47:50.039134 17667 layer_factory.hpp:77] Creating layer loss2/ave_pool
I0403 18:47:50.039154 17667 net.cpp:91] Creating Layer loss2/ave_pool
I0403 18:47:50.039171 17667 net.cpp:425] loss2/ave_pool <- inception_4d/output_inception_4d/output_0_split_0
I0403 18:47:50.039191 17667 net.cpp:399] loss2/ave_pool -> loss2/ave_pool
I0403 18:47:50.039512 17667 net.cpp:141] Setting up loss2/ave_pool
I0403 18:47:50.039542 17667 net.cpp:148] Top shape: 24 528 4 4 (202752)
I0403 18:47:50.039558 17667 net.cpp:156] Memory required for data: 1207729440
I0403 18:47:50.039573 17667 layer_factory.hpp:77] Creating layer loss2/conv
I0403 18:47:50.039597 17667 net.cpp:91] Creating Layer loss2/conv
I0403 18:47:50.039614 17667 net.cpp:425] loss2/conv <- loss2/ave_pool
I0403 18:47:50.039633 17667 net.cpp:399] loss2/conv -> loss2/conv
I0403 18:47:50.041577 17667 net.cpp:141] Setting up loss2/conv
I0403 18:47:50.041606 17667 net.cpp:148] Top shape: 24 128 4 4 (49152)
I0403 18:47:50.041622 17667 net.cpp:156] Memory required for data: 1207926048
I0403 18:47:50.041640 17667 layer_factory.hpp:77] Creating layer loss2/relu_conv
I0403 18:47:50.041661 17667 net.cpp:91] Creating Layer loss2/relu_conv
I0403 18:47:50.041679 17667 net.cpp:425] loss2/relu_conv <- loss2/conv
I0403 18:47:50.041697 17667 net.cpp:386] loss2/relu_conv -> loss2/conv (in-place)
I0403 18:47:50.041995 17667 net.cpp:141] Setting up loss2/relu_conv
I0403 18:47:50.042021 17667 net.cpp:148] Top shape: 24 128 4 4 (49152)
I0403 18:47:50.042037 17667 net.cpp:156] Memory required for data: 1208122656
I0403 18:47:50.042052 17667 layer_factory.hpp:77] Creating layer loss2/fc
I0403 18:47:50.042074 17667 net.cpp:91] Creating Layer loss2/fc
I0403 18:47:50.042093 17667 net.cpp:425] loss2/fc <- loss2/conv
I0403 18:47:50.042111 17667 net.cpp:399] loss2/fc -> loss2/fc
I0403 18:47:50.060078 17667 net.cpp:141] Setting up loss2/fc
I0403 18:47:50.060119 17667 net.cpp:148] Top shape: 24 1024 (24576)
I0403 18:47:50.060134 17667 net.cpp:156] Memory required for data: 1208220960
I0403 18:47:50.060153 17667 layer_factory.hpp:77] Creating layer loss2/relu_fc
I0403 18:47:50.060173 17667 net.cpp:91] Creating Layer loss2/relu_fc
I0403 18:47:50.060190 17667 net.cpp:425] loss2/relu_fc <- loss2/fc
I0403 18:47:50.060211 17667 net.cpp:386] loss2/relu_fc -> loss2/fc (in-place)
I0403 18:47:50.060509 17667 net.cpp:141] Setting up loss2/relu_fc
I0403 18:47:50.060537 17667 net.cpp:148] Top shape: 24 1024 (24576)
I0403 18:47:50.060554 17667 net.cpp:156] Memory required for data: 1208319264
I0403 18:47:50.060569 17667 layer_factory.hpp:77] Creating layer loss2/drop_fc
I0403 18:47:50.060586 17667 net.cpp:91] Creating Layer loss2/drop_fc
I0403 18:47:50.060602 17667 net.cpp:425] loss2/drop_fc <- loss2/fc
I0403 18:47:50.060621 17667 net.cpp:386] loss2/drop_fc -> loss2/fc (in-place)
I0403 18:47:50.060670 17667 net.cpp:141] Setting up loss2/drop_fc
I0403 18:47:50.060693 17667 net.cpp:148] Top shape: 24 1024 (24576)
I0403 18:47:50.060708 17667 net.cpp:156] Memory required for data: 1208417568
I0403 18:47:50.060722 17667 layer_factory.hpp:77] Creating layer loss2/classifier_plantvillage
I0403 18:47:50.060745 17667 net.cpp:91] Creating Layer loss2/classifier_plantvillage
I0403 18:47:50.060762 17667 net.cpp:425] loss2/classifier_plantvillage <- loss2/fc
I0403 18:47:50.060782 17667 net.cpp:399] loss2/classifier_plantvillage -> loss2/classifier_plantvillage
I0403 18:47:50.061190 17667 net.cpp:141] Setting up loss2/classifier_plantvillage
I0403 18:47:50.061215 17667 net.cpp:148] Top shape: 24 38 (912)
I0403 18:47:50.061249 17667 net.cpp:156] Memory required for data: 1208421216
I0403 18:47:50.061267 17667 layer_factory.hpp:77] Creating layer loss2/classifier_plantvillage_loss2/classifier_plantvillage_0_split
I0403 18:47:50.061287 17667 net.cpp:91] Creating Layer loss2/classifier_plantvillage_loss2/classifier_plantvillage_0_split
I0403 18:47:50.061305 17667 net.cpp:425] loss2/classifier_plantvillage_loss2/classifier_plantvillage_0_split <- loss2/classifier_plantvillage
I0403 18:47:50.061321 17667 net.cpp:399] loss2/classifier_plantvillage_loss2/classifier_plantvillage_0_split -> loss2/classifier_plantvillage_loss2/classifier_plantvillage_0_split_0
I0403 18:47:50.061342 17667 net.cpp:399] loss2/classifier_plantvillage_loss2/classifier_plantvillage_0_split -> loss2/classifier_plantvillage_loss2/classifier_plantvillage_0_split_1
I0403 18:47:50.061362 17667 net.cpp:399] loss2/classifier_plantvillage_loss2/classifier_plantvillage_0_split -> loss2/classifier_plantvillage_loss2/classifier_plantvillage_0_split_2
I0403 18:47:50.061442 17667 net.cpp:141] Setting up loss2/classifier_plantvillage_loss2/classifier_plantvillage_0_split
I0403 18:47:50.061465 17667 net.cpp:148] Top shape: 24 38 (912)
I0403 18:47:50.061480 17667 net.cpp:148] Top shape: 24 38 (912)
I0403 18:47:50.061496 17667 net.cpp:148] Top shape: 24 38 (912)
I0403 18:47:50.061509 17667 net.cpp:156] Memory required for data: 1208432160
I0403 18:47:50.061547 17667 layer_factory.hpp:77] Creating layer inception_4e/1x1
I0403 18:47:50.061569 17667 net.cpp:91] Creating Layer inception_4e/1x1
I0403 18:47:50.061588 17667 net.cpp:425] inception_4e/1x1 <- inception_4d/output_inception_4d/output_0_split_1
I0403 18:47:50.061607 17667 net.cpp:399] inception_4e/1x1 -> inception_4e/1x1
I0403 18:47:50.063436 17667 net.cpp:141] Setting up inception_4e/1x1
I0403 18:47:50.063464 17667 net.cpp:148] Top shape: 24 256 14 14 (1204224)
I0403 18:47:50.063480 17667 net.cpp:156] Memory required for data: 1213249056
I0403 18:47:50.063498 17667 layer_factory.hpp:77] Creating layer inception_4e/relu_1x1
I0403 18:47:50.063519 17667 net.cpp:91] Creating Layer inception_4e/relu_1x1
I0403 18:47:50.063534 17667 net.cpp:425] inception_4e/relu_1x1 <- inception_4e/1x1
I0403 18:47:50.063552 17667 net.cpp:386] inception_4e/relu_1x1 -> inception_4e/1x1 (in-place)
I0403 18:47:50.063853 17667 net.cpp:141] Setting up inception_4e/relu_1x1
I0403 18:47:50.063877 17667 net.cpp:148] Top shape: 24 256 14 14 (1204224)
I0403 18:47:50.063892 17667 net.cpp:156] Memory required for data: 1218065952
I0403 18:47:50.063907 17667 layer_factory.hpp:77] Creating layer inception_4e/3x3_reduce
I0403 18:47:50.063930 17667 net.cpp:91] Creating Layer inception_4e/3x3_reduce
I0403 18:47:50.063951 17667 net.cpp:425] inception_4e/3x3_reduce <- inception_4d/output_inception_4d/output_0_split_2
I0403 18:47:50.063974 17667 net.cpp:399] inception_4e/3x3_reduce -> inception_4e/3x3_reduce
I0403 18:47:50.066097 17667 net.cpp:141] Setting up inception_4e/3x3_reduce
I0403 18:47:50.066128 17667 net.cpp:148] Top shape: 24 160 14 14 (752640)
I0403 18:47:50.066143 17667 net.cpp:156] Memory required for data: 1221076512
I0403 18:47:50.066160 17667 layer_factory.hpp:77] Creating layer inception_4e/relu_3x3_reduce
I0403 18:47:50.066179 17667 net.cpp:91] Creating Layer inception_4e/relu_3x3_reduce
I0403 18:47:50.066193 17667 net.cpp:425] inception_4e/relu_3x3_reduce <- inception_4e/3x3_reduce
I0403 18:47:50.066215 17667 net.cpp:386] inception_4e/relu_3x3_reduce -> inception_4e/3x3_reduce (in-place)
I0403 18:47:50.066401 17667 net.cpp:141] Setting up inception_4e/relu_3x3_reduce
I0403 18:47:50.066426 17667 net.cpp:148] Top shape: 24 160 14 14 (752640)
I0403 18:47:50.066439 17667 net.cpp:156] Memory required for data: 1224087072
I0403 18:47:50.066453 17667 layer_factory.hpp:77] Creating layer inception_4e/3x3
I0403 18:47:50.066475 17667 net.cpp:91] Creating Layer inception_4e/3x3
I0403 18:47:50.066493 17667 net.cpp:425] inception_4e/3x3 <- inception_4e/3x3_reduce
I0403 18:47:50.066514 17667 net.cpp:399] inception_4e/3x3 -> inception_4e/3x3
I0403 18:47:50.071523 17667 net.cpp:141] Setting up inception_4e/3x3
I0403 18:47:50.071563 17667 net.cpp:148] Top shape: 24 320 14 14 (1505280)
I0403 18:47:50.071580 17667 net.cpp:156] Memory required for data: 1230108192
I0403 18:47:50.071599 17667 layer_factory.hpp:77] Creating layer inception_4e/relu_3x3
I0403 18:47:50.071619 17667 net.cpp:91] Creating Layer inception_4e/relu_3x3
I0403 18:47:50.071636 17667 net.cpp:425] inception_4e/relu_3x3 <- inception_4e/3x3
I0403 18:47:50.071655 17667 net.cpp:386] inception_4e/relu_3x3 -> inception_4e/3x3 (in-place)
I0403 18:47:50.071959 17667 net.cpp:141] Setting up inception_4e/relu_3x3
I0403 18:47:50.071985 17667 net.cpp:148] Top shape: 24 320 14 14 (1505280)
I0403 18:47:50.072000 17667 net.cpp:156] Memory required for data: 1236129312
I0403 18:47:50.072015 17667 layer_factory.hpp:77] Creating layer inception_4e/5x5_reduce
I0403 18:47:50.072039 17667 net.cpp:91] Creating Layer inception_4e/5x5_reduce
I0403 18:47:50.072057 17667 net.cpp:425] inception_4e/5x5_reduce <- inception_4d/output_inception_4d/output_0_split_3
I0403 18:47:50.072077 17667 net.cpp:399] inception_4e/5x5_reduce -> inception_4e/5x5_reduce
I0403 18:47:50.073148 17667 net.cpp:141] Setting up inception_4e/5x5_reduce
I0403 18:47:50.073176 17667 net.cpp:148] Top shape: 24 32 14 14 (150528)
I0403 18:47:50.073191 17667 net.cpp:156] Memory required for data: 1236731424
I0403 18:47:50.073211 17667 layer_factory.hpp:77] Creating layer inception_4e/relu_5x5_reduce
I0403 18:47:50.073230 17667 net.cpp:91] Creating Layer inception_4e/relu_5x5_reduce
I0403 18:47:50.073246 17667 net.cpp:425] inception_4e/relu_5x5_reduce <- inception_4e/5x5_reduce
I0403 18:47:50.073266 17667 net.cpp:386] inception_4e/relu_5x5_reduce -> inception_4e/5x5_reduce (in-place)
I0403 18:47:50.073565 17667 net.cpp:141] Setting up inception_4e/relu_5x5_reduce
I0403 18:47:50.073591 17667 net.cpp:148] Top shape: 24 32 14 14 (150528)
I0403 18:47:50.073606 17667 net.cpp:156] Memory required for data: 1237333536
I0403 18:47:50.073621 17667 layer_factory.hpp:77] Creating layer inception_4e/5x5
I0403 18:47:50.073658 17667 net.cpp:91] Creating Layer inception_4e/5x5
I0403 18:47:50.073678 17667 net.cpp:425] inception_4e/5x5 <- inception_4e/5x5_reduce
I0403 18:47:50.073696 17667 net.cpp:399] inception_4e/5x5 -> inception_4e/5x5
I0403 18:47:50.075547 17667 net.cpp:141] Setting up inception_4e/5x5
I0403 18:47:50.075577 17667 net.cpp:148] Top shape: 24 128 14 14 (602112)
I0403 18:47:50.075594 17667 net.cpp:156] Memory required for data: 1239741984
I0403 18:47:50.075613 17667 layer_factory.hpp:77] Creating layer inception_4e/relu_5x5
I0403 18:47:50.075631 17667 net.cpp:91] Creating Layer inception_4e/relu_5x5
I0403 18:47:50.075647 17667 net.cpp:425] inception_4e/relu_5x5 <- inception_4e/5x5
I0403 18:47:50.075666 17667 net.cpp:386] inception_4e/relu_5x5 -> inception_4e/5x5 (in-place)
I0403 18:47:50.075863 17667 net.cpp:141] Setting up inception_4e/relu_5x5
I0403 18:47:50.075887 17667 net.cpp:148] Top shape: 24 128 14 14 (602112)
I0403 18:47:50.075901 17667 net.cpp:156] Memory required for data: 1242150432
I0403 18:47:50.075917 17667 layer_factory.hpp:77] Creating layer inception_4e/pool
I0403 18:47:50.075934 17667 net.cpp:91] Creating Layer inception_4e/pool
I0403 18:47:50.075955 17667 net.cpp:425] inception_4e/pool <- inception_4d/output_inception_4d/output_0_split_4
I0403 18:47:50.075978 17667 net.cpp:399] inception_4e/pool -> inception_4e/pool
I0403 18:47:50.076047 17667 net.cpp:141] Setting up inception_4e/pool
I0403 18:47:50.076071 17667 net.cpp:148] Top shape: 24 528 14 14 (2483712)
I0403 18:47:50.076086 17667 net.cpp:156] Memory required for data: 1252085280
I0403 18:47:50.076099 17667 layer_factory.hpp:77] Creating layer inception_4e/pool_proj
I0403 18:47:50.076122 17667 net.cpp:91] Creating Layer inception_4e/pool_proj
I0403 18:47:50.076138 17667 net.cpp:425] inception_4e/pool_proj <- inception_4e/pool
I0403 18:47:50.076161 17667 net.cpp:399] inception_4e/pool_proj -> inception_4e/pool_proj
I0403 18:47:50.077664 17667 net.cpp:141] Setting up inception_4e/pool_proj
I0403 18:47:50.077705 17667 net.cpp:148] Top shape: 24 128 14 14 (602112)
I0403 18:47:50.077723 17667 net.cpp:156] Memory required for data: 1254493728
I0403 18:47:50.077740 17667 layer_factory.hpp:77] Creating layer inception_4e/relu_pool_proj
I0403 18:47:50.077759 17667 net.cpp:91] Creating Layer inception_4e/relu_pool_proj
I0403 18:47:50.077775 17667 net.cpp:425] inception_4e/relu_pool_proj <- inception_4e/pool_proj
I0403 18:47:50.077791 17667 net.cpp:386] inception_4e/relu_pool_proj -> inception_4e/pool_proj (in-place)
I0403 18:47:50.078088 17667 net.cpp:141] Setting up inception_4e/relu_pool_proj
I0403 18:47:50.078115 17667 net.cpp:148] Top shape: 24 128 14 14 (602112)
I0403 18:47:50.078131 17667 net.cpp:156] Memory required for data: 1256902176
I0403 18:47:50.078146 17667 layer_factory.hpp:77] Creating layer inception_4e/output
I0403 18:47:50.078163 17667 net.cpp:91] Creating Layer inception_4e/output
I0403 18:47:50.078178 17667 net.cpp:425] inception_4e/output <- inception_4e/1x1
I0403 18:47:50.078196 17667 net.cpp:425] inception_4e/output <- inception_4e/3x3
I0403 18:47:50.078212 17667 net.cpp:425] inception_4e/output <- inception_4e/5x5
I0403 18:47:50.078227 17667 net.cpp:425] inception_4e/output <- inception_4e/pool_proj
I0403 18:47:50.078243 17667 net.cpp:399] inception_4e/output -> inception_4e/output
I0403 18:47:50.078294 17667 net.cpp:141] Setting up inception_4e/output
I0403 18:47:50.078318 17667 net.cpp:148] Top shape: 24 832 14 14 (3913728)
I0403 18:47:50.078332 17667 net.cpp:156] Memory required for data: 1272557088
I0403 18:47:50.078346 17667 layer_factory.hpp:77] Creating layer pool4/3x3_s2
I0403 18:47:50.078366 17667 net.cpp:91] Creating Layer pool4/3x3_s2
I0403 18:47:50.078382 17667 net.cpp:425] pool4/3x3_s2 <- inception_4e/output
I0403 18:47:50.078402 17667 net.cpp:399] pool4/3x3_s2 -> pool4/3x3_s2
I0403 18:47:50.078467 17667 net.cpp:141] Setting up pool4/3x3_s2
I0403 18:47:50.078491 17667 net.cpp:148] Top shape: 24 832 7 7 (978432)
I0403 18:47:50.078505 17667 net.cpp:156] Memory required for data: 1276470816
I0403 18:47:50.078521 17667 layer_factory.hpp:77] Creating layer pool4/3x3_s2_pool4/3x3_s2_0_split
I0403 18:47:50.078536 17667 net.cpp:91] Creating Layer pool4/3x3_s2_pool4/3x3_s2_0_split
I0403 18:47:50.078552 17667 net.cpp:425] pool4/3x3_s2_pool4/3x3_s2_0_split <- pool4/3x3_s2
I0403 18:47:50.078570 17667 net.cpp:399] pool4/3x3_s2_pool4/3x3_s2_0_split -> pool4/3x3_s2_pool4/3x3_s2_0_split_0
I0403 18:47:50.078591 17667 net.cpp:399] pool4/3x3_s2_pool4/3x3_s2_0_split -> pool4/3x3_s2_pool4/3x3_s2_0_split_1
I0403 18:47:50.078611 17667 net.cpp:399] pool4/3x3_s2_pool4/3x3_s2_0_split -> pool4/3x3_s2_pool4/3x3_s2_0_split_2
I0403 18:47:50.078630 17667 net.cpp:399] pool4/3x3_s2_pool4/3x3_s2_0_split -> pool4/3x3_s2_pool4/3x3_s2_0_split_3
I0403 18:47:50.078722 17667 net.cpp:141] Setting up pool4/3x3_s2_pool4/3x3_s2_0_split
I0403 18:47:50.078747 17667 net.cpp:148] Top shape: 24 832 7 7 (978432)
I0403 18:47:50.078763 17667 net.cpp:148] Top shape: 24 832 7 7 (978432)
I0403 18:47:50.078778 17667 net.cpp:148] Top shape: 24 832 7 7 (978432)
I0403 18:47:50.078794 17667 net.cpp:148] Top shape: 24 832 7 7 (978432)
I0403 18:47:50.078807 17667 net.cpp:156] Memory required for data: 1292125728
I0403 18:47:50.078821 17667 layer_factory.hpp:77] Creating layer inception_5a/1x1
I0403 18:47:50.078845 17667 net.cpp:91] Creating Layer inception_5a/1x1
I0403 18:47:50.078861 17667 net.cpp:425] inception_5a/1x1 <- pool4/3x3_s2_pool4/3x3_s2_0_split_0
I0403 18:47:50.078879 17667 net.cpp:399] inception_5a/1x1 -> inception_5a/1x1
I0403 18:47:50.081749 17667 net.cpp:141] Setting up inception_5a/1x1
I0403 18:47:50.081780 17667 net.cpp:148] Top shape: 24 256 7 7 (301056)
I0403 18:47:50.081797 17667 net.cpp:156] Memory required for data: 1293329952
I0403 18:47:50.081816 17667 layer_factory.hpp:77] Creating layer inception_5a/relu_1x1
I0403 18:47:50.081833 17667 net.cpp:91] Creating Layer inception_5a/relu_1x1
I0403 18:47:50.081850 17667 net.cpp:425] inception_5a/relu_1x1 <- inception_5a/1x1
I0403 18:47:50.081869 17667 net.cpp:386] inception_5a/relu_1x1 -> inception_5a/1x1 (in-place)
I0403 18:47:50.082190 17667 net.cpp:141] Setting up inception_5a/relu_1x1
I0403 18:47:50.082218 17667 net.cpp:148] Top shape: 24 256 7 7 (301056)
I0403 18:47:50.082233 17667 net.cpp:156] Memory required for data: 1294534176
I0403 18:47:50.082248 17667 layer_factory.hpp:77] Creating layer inception_5a/3x3_reduce
I0403 18:47:50.082270 17667 net.cpp:91] Creating Layer inception_5a/3x3_reduce
I0403 18:47:50.082288 17667 net.cpp:425] inception_5a/3x3_reduce <- pool4/3x3_s2_pool4/3x3_s2_0_split_1
I0403 18:47:50.082309 17667 net.cpp:399] inception_5a/3x3_reduce -> inception_5a/3x3_reduce
I0403 18:47:50.084764 17667 net.cpp:141] Setting up inception_5a/3x3_reduce
I0403 18:47:50.084794 17667 net.cpp:148] Top shape: 24 160 7 7 (188160)
I0403 18:47:50.084810 17667 net.cpp:156] Memory required for data: 1295286816
I0403 18:47:50.084827 17667 layer_factory.hpp:77] Creating layer inception_5a/relu_3x3_reduce
I0403 18:47:50.084848 17667 net.cpp:91] Creating Layer inception_5a/relu_3x3_reduce
I0403 18:47:50.084864 17667 net.cpp:425] inception_5a/relu_3x3_reduce <- inception_5a/3x3_reduce
I0403 18:47:50.084882 17667 net.cpp:386] inception_5a/relu_3x3_reduce -> inception_5a/3x3_reduce (in-place)
I0403 18:47:50.085078 17667 net.cpp:141] Setting up inception_5a/relu_3x3_reduce
I0403 18:47:50.085106 17667 net.cpp:148] Top shape: 24 160 7 7 (188160)
I0403 18:47:50.085122 17667 net.cpp:156] Memory required for data: 1296039456
I0403 18:47:50.085136 17667 layer_factory.hpp:77] Creating layer inception_5a/3x3
I0403 18:47:50.085158 17667 net.cpp:91] Creating Layer inception_5a/3x3
I0403 18:47:50.085176 17667 net.cpp:425] inception_5a/3x3 <- inception_5a/3x3_reduce
I0403 18:47:50.085196 17667 net.cpp:399] inception_5a/3x3 -> inception_5a/3x3
I0403 18:47:50.090271 17667 net.cpp:141] Setting up inception_5a/3x3
I0403 18:47:50.090301 17667 net.cpp:148] Top shape: 24 320 7 7 (376320)
I0403 18:47:50.090317 17667 net.cpp:156] Memory required for data: 1297544736
I0403 18:47:50.090337 17667 layer_factory.hpp:77] Creating layer inception_5a/relu_3x3
I0403 18:47:50.090354 17667 net.cpp:91] Creating Layer inception_5a/relu_3x3
I0403 18:47:50.090370 17667 net.cpp:425] inception_5a/relu_3x3 <- inception_5a/3x3
I0403 18:47:50.090390 17667 net.cpp:386] inception_5a/relu_3x3 -> inception_5a/3x3 (in-place)
I0403 18:47:50.090690 17667 net.cpp:141] Setting up inception_5a/relu_3x3
I0403 18:47:50.090716 17667 net.cpp:148] Top shape: 24 320 7 7 (376320)
I0403 18:47:50.090731 17667 net.cpp:156] Memory required for data: 1299050016
I0403 18:47:50.090746 17667 layer_factory.hpp:77] Creating layer inception_5a/5x5_reduce
I0403 18:47:50.090771 17667 net.cpp:91] Creating Layer inception_5a/5x5_reduce
I0403 18:47:50.090790 17667 net.cpp:425] inception_5a/5x5_reduce <- pool4/3x3_s2_pool4/3x3_s2_0_split_2
I0403 18:47:50.090812 17667 net.cpp:399] inception_5a/5x5_reduce -> inception_5a/5x5_reduce
I0403 18:47:50.091997 17667 net.cpp:141] Setting up inception_5a/5x5_reduce
I0403 18:47:50.092028 17667 net.cpp:148] Top shape: 24 32 7 7 (37632)
I0403 18:47:50.092044 17667 net.cpp:156] Memory required for data: 1299200544
I0403 18:47:50.092063 17667 layer_factory.hpp:77] Creating layer inception_5a/relu_5x5_reduce
I0403 18:47:50.092080 17667 net.cpp:91] Creating Layer inception_5a/relu_5x5_reduce
I0403 18:47:50.092099 17667 net.cpp:425] inception_5a/relu_5x5_reduce <- inception_5a/5x5_reduce
I0403 18:47:50.092116 17667 net.cpp:386] inception_5a/relu_5x5_reduce -> inception_5a/5x5_reduce (in-place)
I0403 18:47:50.092416 17667 net.cpp:141] Setting up inception_5a/relu_5x5_reduce
I0403 18:47:50.092442 17667 net.cpp:148] Top shape: 24 32 7 7 (37632)
I0403 18:47:50.092456 17667 net.cpp:156] Memory required for data: 1299351072
I0403 18:47:50.092471 17667 layer_factory.hpp:77] Creating layer inception_5a/5x5
I0403 18:47:50.092494 17667 net.cpp:91] Creating Layer inception_5a/5x5
I0403 18:47:50.092510 17667 net.cpp:425] inception_5a/5x5 <- inception_5a/5x5_reduce
I0403 18:47:50.092531 17667 net.cpp:399] inception_5a/5x5 -> inception_5a/5x5
I0403 18:47:50.094270 17667 net.cpp:141] Setting up inception_5a/5x5
I0403 18:47:50.094311 17667 net.cpp:148] Top shape: 24 128 7 7 (150528)
I0403 18:47:50.094327 17667 net.cpp:156] Memory required for data: 1299953184
I0403 18:47:50.094346 17667 layer_factory.hpp:77] Creating layer inception_5a/relu_5x5
I0403 18:47:50.094363 17667 net.cpp:91] Creating Layer inception_5a/relu_5x5
I0403 18:47:50.094379 17667 net.cpp:425] inception_5a/relu_5x5 <- inception_5a/5x5
I0403 18:47:50.094399 17667 net.cpp:386] inception_5a/relu_5x5 -> inception_5a/5x5 (in-place)
I0403 18:47:50.094595 17667 net.cpp:141] Setting up inception_5a/relu_5x5
I0403 18:47:50.094620 17667 net.cpp:148] Top shape: 24 128 7 7 (150528)
I0403 18:47:50.094636 17667 net.cpp:156] Memory required for data: 1300555296
I0403 18:47:50.094651 17667 layer_factory.hpp:77] Creating layer inception_5a/pool
I0403 18:47:50.094671 17667 net.cpp:91] Creating Layer inception_5a/pool
I0403 18:47:50.094688 17667 net.cpp:425] inception_5a/pool <- pool4/3x3_s2_pool4/3x3_s2_0_split_3
I0403 18:47:50.094707 17667 net.cpp:399] inception_5a/pool -> inception_5a/pool
I0403 18:47:50.094779 17667 net.cpp:141] Setting up inception_5a/pool
I0403 18:47:50.094802 17667 net.cpp:148] Top shape: 24 832 7 7 (978432)
I0403 18:47:50.094816 17667 net.cpp:156] Memory required for data: 1304469024
I0403 18:47:50.094830 17667 layer_factory.hpp:77] Creating layer inception_5a/pool_proj
I0403 18:47:50.094852 17667 net.cpp:91] Creating Layer inception_5a/pool_proj
I0403 18:47:50.094869 17667 net.cpp:425] inception_5a/pool_proj <- inception_5a/pool
I0403 18:47:50.094890 17667 net.cpp:399] inception_5a/pool_proj -> inception_5a/pool_proj
I0403 18:47:50.097251 17667 net.cpp:141] Setting up inception_5a/pool_proj
I0403 18:47:50.097285 17667 net.cpp:148] Top shape: 24 128 7 7 (150528)
I0403 18:47:50.097301 17667 net.cpp:156] Memory required for data: 1305071136
I0403 18:47:50.097319 17667 layer_factory.hpp:77] Creating layer inception_5a/relu_pool_proj
I0403 18:47:50.097337 17667 net.cpp:91] Creating Layer inception_5a/relu_pool_proj
I0403 18:47:50.097355 17667 net.cpp:425] inception_5a/relu_pool_proj <- inception_5a/pool_proj
I0403 18:47:50.097375 17667 net.cpp:386] inception_5a/relu_pool_proj -> inception_5a/pool_proj (in-place)
I0403 18:47:50.097678 17667 net.cpp:141] Setting up inception_5a/relu_pool_proj
I0403 18:47:50.097707 17667 net.cpp:148] Top shape: 24 128 7 7 (150528)
I0403 18:47:50.097723 17667 net.cpp:156] Memory required for data: 1305673248
I0403 18:47:50.097738 17667 layer_factory.hpp:77] Creating layer inception_5a/output
I0403 18:47:50.097756 17667 net.cpp:91] Creating Layer inception_5a/output
I0403 18:47:50.097772 17667 net.cpp:425] inception_5a/output <- inception_5a/1x1
I0403 18:47:50.097790 17667 net.cpp:425] inception_5a/output <- inception_5a/3x3
I0403 18:47:50.097806 17667 net.cpp:425] inception_5a/output <- inception_5a/5x5
I0403 18:47:50.097821 17667 net.cpp:425] inception_5a/output <- inception_5a/pool_proj
I0403 18:47:50.097839 17667 net.cpp:399] inception_5a/output -> inception_5a/output
I0403 18:47:50.097892 17667 net.cpp:141] Setting up inception_5a/output
I0403 18:47:50.097916 17667 net.cpp:148] Top shape: 24 832 7 7 (978432)
I0403 18:47:50.097931 17667 net.cpp:156] Memory required for data: 1309586976
I0403 18:47:50.097950 17667 layer_factory.hpp:77] Creating layer inception_5a/output_inception_5a/output_0_split
I0403 18:47:50.097970 17667 net.cpp:91] Creating Layer inception_5a/output_inception_5a/output_0_split
I0403 18:47:50.097985 17667 net.cpp:425] inception_5a/output_inception_5a/output_0_split <- inception_5a/output
I0403 18:47:50.098006 17667 net.cpp:399] inception_5a/output_inception_5a/output_0_split -> inception_5a/output_inception_5a/output_0_split_0
I0403 18:47:50.098027 17667 net.cpp:399] inception_5a/output_inception_5a/output_0_split -> inception_5a/output_inception_5a/output_0_split_1
I0403 18:47:50.098048 17667 net.cpp:399] inception_5a/output_inception_5a/output_0_split -> inception_5a/output_inception_5a/output_0_split_2
I0403 18:47:50.098073 17667 net.cpp:399] inception_5a/output_inception_5a/output_0_split -> inception_5a/output_inception_5a/output_0_split_3
I0403 18:47:50.098187 17667 net.cpp:141] Setting up inception_5a/output_inception_5a/output_0_split
I0403 18:47:50.098213 17667 net.cpp:148] Top shape: 24 832 7 7 (978432)
I0403 18:47:50.098229 17667 net.cpp:148] Top shape: 24 832 7 7 (978432)
I0403 18:47:50.098245 17667 net.cpp:148] Top shape: 24 832 7 7 (978432)
I0403 18:47:50.098260 17667 net.cpp:148] Top shape: 24 832 7 7 (978432)
I0403 18:47:50.098273 17667 net.cpp:156] Memory required for data: 1325241888
I0403 18:47:50.098289 17667 layer_factory.hpp:77] Creating layer inception_5b/1x1
I0403 18:47:50.098311 17667 net.cpp:91] Creating Layer inception_5b/1x1
I0403 18:47:50.098330 17667 net.cpp:425] inception_5b/1x1 <- inception_5a/output_inception_5a/output_0_split_0
I0403 18:47:50.098353 17667 net.cpp:399] inception_5b/1x1 -> inception_5b/1x1
I0403 18:47:50.102262 17667 net.cpp:141] Setting up inception_5b/1x1
I0403 18:47:50.102293 17667 net.cpp:148] Top shape: 24 384 7 7 (451584)
I0403 18:47:50.102311 17667 net.cpp:156] Memory required for data: 1327048224
I0403 18:47:50.102330 17667 layer_factory.hpp:77] Creating layer inception_5b/relu_1x1
I0403 18:47:50.102349 17667 net.cpp:91] Creating Layer inception_5b/relu_1x1
I0403 18:47:50.102365 17667 net.cpp:425] inception_5b/relu_1x1 <- inception_5b/1x1
I0403 18:47:50.102382 17667 net.cpp:386] inception_5b/relu_1x1 -> inception_5b/1x1 (in-place)
I0403 18:47:50.102699 17667 net.cpp:141] Setting up inception_5b/relu_1x1
I0403 18:47:50.102725 17667 net.cpp:148] Top shape: 24 384 7 7 (451584)
I0403 18:47:50.102743 17667 net.cpp:156] Memory required for data: 1328854560
I0403 18:47:50.102758 17667 layer_factory.hpp:77] Creating layer inception_5b/3x3_reduce
I0403 18:47:50.102779 17667 net.cpp:91] Creating Layer inception_5b/3x3_reduce
I0403 18:47:50.102797 17667 net.cpp:425] inception_5b/3x3_reduce <- inception_5a/output_inception_5a/output_0_split_1
I0403 18:47:50.102819 17667 net.cpp:399] inception_5b/3x3_reduce -> inception_5b/3x3_reduce
I0403 18:47:50.105571 17667 net.cpp:141] Setting up inception_5b/3x3_reduce
I0403 18:47:50.105602 17667 net.cpp:148] Top shape: 24 192 7 7 (225792)
I0403 18:47:50.105618 17667 net.cpp:156] Memory required for data: 1329757728
I0403 18:47:50.105638 17667 layer_factory.hpp:77] Creating layer inception_5b/relu_3x3_reduce
I0403 18:47:50.105659 17667 net.cpp:91] Creating Layer inception_5b/relu_3x3_reduce
I0403 18:47:50.105676 17667 net.cpp:425] inception_5b/relu_3x3_reduce <- inception_5b/3x3_reduce
I0403 18:47:50.105695 17667 net.cpp:386] inception_5b/relu_3x3_reduce -> inception_5b/3x3_reduce (in-place)
I0403 18:47:50.105897 17667 net.cpp:141] Setting up inception_5b/relu_3x3_reduce
I0403 18:47:50.105923 17667 net.cpp:148] Top shape: 24 192 7 7 (225792)
I0403 18:47:50.105937 17667 net.cpp:156] Memory required for data: 1330660896
I0403 18:47:50.105958 17667 layer_factory.hpp:77] Creating layer inception_5b/3x3
I0403 18:47:50.105981 17667 net.cpp:91] Creating Layer inception_5b/3x3
I0403 18:47:50.106000 17667 net.cpp:425] inception_5b/3x3 <- inception_5b/3x3_reduce
I0403 18:47:50.106024 17667 net.cpp:399] inception_5b/3x3 -> inception_5b/3x3
I0403 18:47:50.112977 17667 net.cpp:141] Setting up inception_5b/3x3
I0403 18:47:50.113009 17667 net.cpp:148] Top shape: 24 384 7 7 (451584)
I0403 18:47:50.113026 17667 net.cpp:156] Memory required for data: 1332467232
I0403 18:47:50.113044 17667 layer_factory.hpp:77] Creating layer inception_5b/relu_3x3
I0403 18:47:50.113062 17667 net.cpp:91] Creating Layer inception_5b/relu_3x3
I0403 18:47:50.113080 17667 net.cpp:425] inception_5b/relu_3x3 <- inception_5b/3x3
I0403 18:47:50.113098 17667 net.cpp:386] inception_5b/relu_3x3 -> inception_5b/3x3 (in-place)
I0403 18:47:50.113405 17667 net.cpp:141] Setting up inception_5b/relu_3x3
I0403 18:47:50.113435 17667 net.cpp:148] Top shape: 24 384 7 7 (451584)
I0403 18:47:50.113451 17667 net.cpp:156] Memory required for data: 1334273568
I0403 18:47:50.113466 17667 layer_factory.hpp:77] Creating layer inception_5b/5x5_reduce
I0403 18:47:50.113505 17667 net.cpp:91] Creating Layer inception_5b/5x5_reduce
I0403 18:47:50.113525 17667 net.cpp:425] inception_5b/5x5_reduce <- inception_5a/output_inception_5a/output_0_split_2
I0403 18:47:50.113545 17667 net.cpp:399] inception_5b/5x5_reduce -> inception_5b/5x5_reduce
I0403 18:47:50.114866 17667 net.cpp:141] Setting up inception_5b/5x5_reduce
I0403 18:47:50.114897 17667 net.cpp:148] Top shape: 24 48 7 7 (56448)
I0403 18:47:50.114912 17667 net.cpp:156] Memory required for data: 1334499360
I0403 18:47:50.114930 17667 layer_factory.hpp:77] Creating layer inception_5b/relu_5x5_reduce
I0403 18:47:50.114951 17667 net.cpp:91] Creating Layer inception_5b/relu_5x5_reduce
I0403 18:47:50.114969 17667 net.cpp:425] inception_5b/relu_5x5_reduce <- inception_5b/5x5_reduce
I0403 18:47:50.114986 17667 net.cpp:386] inception_5b/relu_5x5_reduce -> inception_5b/5x5_reduce (in-place)
I0403 18:47:50.115362 17667 net.cpp:141] Setting up inception_5b/relu_5x5_reduce
I0403 18:47:50.115388 17667 net.cpp:148] Top shape: 24 48 7 7 (56448)
I0403 18:47:50.115403 17667 net.cpp:156] Memory required for data: 1334725152
I0403 18:47:50.115417 17667 layer_factory.hpp:77] Creating layer inception_5b/5x5
I0403 18:47:50.115437 17667 net.cpp:91] Creating Layer inception_5b/5x5
I0403 18:47:50.115454 17667 net.cpp:425] inception_5b/5x5 <- inception_5b/5x5_reduce
I0403 18:47:50.115473 17667 net.cpp:399] inception_5b/5x5 -> inception_5b/5x5
I0403 18:47:50.117540 17667 net.cpp:141] Setting up inception_5b/5x5
I0403 18:47:50.117570 17667 net.cpp:148] Top shape: 24 128 7 7 (150528)
I0403 18:47:50.117586 17667 net.cpp:156] Memory required for data: 1335327264
I0403 18:47:50.117604 17667 layer_factory.hpp:77] Creating layer inception_5b/relu_5x5
I0403 18:47:50.117624 17667 net.cpp:91] Creating Layer inception_5b/relu_5x5
I0403 18:47:50.117640 17667 net.cpp:425] inception_5b/relu_5x5 <- inception_5b/5x5
I0403 18:47:50.117658 17667 net.cpp:386] inception_5b/relu_5x5 -> inception_5b/5x5 (in-place)
I0403 18:47:50.117853 17667 net.cpp:141] Setting up inception_5b/relu_5x5
I0403 18:47:50.117877 17667 net.cpp:148] Top shape: 24 128 7 7 (150528)
I0403 18:47:50.117892 17667 net.cpp:156] Memory required for data: 1335929376
I0403 18:47:50.117916 17667 layer_factory.hpp:77] Creating layer inception_5b/pool
I0403 18:47:50.117935 17667 net.cpp:91] Creating Layer inception_5b/pool
I0403 18:47:50.117962 17667 net.cpp:425] inception_5b/pool <- inception_5a/output_inception_5a/output_0_split_3
I0403 18:47:50.117985 17667 net.cpp:399] inception_5b/pool -> inception_5b/pool
I0403 18:47:50.118063 17667 net.cpp:141] Setting up inception_5b/pool
I0403 18:47:50.118086 17667 net.cpp:148] Top shape: 24 832 7 7 (978432)
I0403 18:47:50.118101 17667 net.cpp:156] Memory required for data: 1339843104
I0403 18:47:50.118115 17667 layer_factory.hpp:77] Creating layer inception_5b/pool_proj
I0403 18:47:50.118139 17667 net.cpp:91] Creating Layer inception_5b/pool_proj
I0403 18:47:50.118155 17667 net.cpp:425] inception_5b/pool_proj <- inception_5b/pool
I0403 18:47:50.118176 17667 net.cpp:399] inception_5b/pool_proj -> inception_5b/pool_proj
I0403 18:47:50.120491 17667 net.cpp:141] Setting up inception_5b/pool_proj
I0403 18:47:50.120523 17667 net.cpp:148] Top shape: 24 128 7 7 (150528)
I0403 18:47:50.120539 17667 net.cpp:156] Memory required for data: 1340445216
I0403 18:47:50.120558 17667 layer_factory.hpp:77] Creating layer inception_5b/relu_pool_proj
I0403 18:47:50.120575 17667 net.cpp:91] Creating Layer inception_5b/relu_pool_proj
I0403 18:47:50.120592 17667 net.cpp:425] inception_5b/relu_pool_proj <- inception_5b/pool_proj
I0403 18:47:50.120609 17667 net.cpp:386] inception_5b/relu_pool_proj -> inception_5b/pool_proj (in-place)
I0403 18:47:50.120911 17667 net.cpp:141] Setting up inception_5b/relu_pool_proj
I0403 18:47:50.120939 17667 net.cpp:148] Top shape: 24 128 7 7 (150528)
I0403 18:47:50.120959 17667 net.cpp:156] Memory required for data: 1341047328
I0403 18:47:50.120975 17667 layer_factory.hpp:77] Creating layer inception_5b/output
I0403 18:47:50.120993 17667 net.cpp:91] Creating Layer inception_5b/output
I0403 18:47:50.121023 17667 net.cpp:425] inception_5b/output <- inception_5b/1x1
I0403 18:47:50.121042 17667 net.cpp:425] inception_5b/output <- inception_5b/3x3
I0403 18:47:50.121057 17667 net.cpp:425] inception_5b/output <- inception_5b/5x5
I0403 18:47:50.121073 17667 net.cpp:425] inception_5b/output <- inception_5b/pool_proj
I0403 18:47:50.121090 17667 net.cpp:399] inception_5b/output -> inception_5b/output
I0403 18:47:50.121143 17667 net.cpp:141] Setting up inception_5b/output
I0403 18:47:50.121166 17667 net.cpp:148] Top shape: 24 1024 7 7 (1204224)
I0403 18:47:50.121181 17667 net.cpp:156] Memory required for data: 1345864224
I0403 18:47:50.121196 17667 layer_factory.hpp:77] Creating layer pool5/7x7_s1
I0403 18:47:50.121217 17667 net.cpp:91] Creating Layer pool5/7x7_s1
I0403 18:47:50.121232 17667 net.cpp:425] pool5/7x7_s1 <- inception_5b/output
I0403 18:47:50.121250 17667 net.cpp:399] pool5/7x7_s1 -> pool5/7x7_s1
I0403 18:47:50.121474 17667 net.cpp:141] Setting up pool5/7x7_s1
I0403 18:47:50.121498 17667 net.cpp:148] Top shape: 24 1024 1 1 (24576)
I0403 18:47:50.121513 17667 net.cpp:156] Memory required for data: 1345962528
I0403 18:47:50.121528 17667 layer_factory.hpp:77] Creating layer pool5/drop_7x7_s1
I0403 18:47:50.121546 17667 net.cpp:91] Creating Layer pool5/drop_7x7_s1
I0403 18:47:50.121562 17667 net.cpp:425] pool5/drop_7x7_s1 <- pool5/7x7_s1
I0403 18:47:50.121582 17667 net.cpp:386] pool5/drop_7x7_s1 -> pool5/7x7_s1 (in-place)
I0403 18:47:50.121631 17667 net.cpp:141] Setting up pool5/drop_7x7_s1
I0403 18:47:50.121654 17667 net.cpp:148] Top shape: 24 1024 1 1 (24576)
I0403 18:47:50.121671 17667 net.cpp:156] Memory required for data: 1346060832
I0403 18:47:50.121685 17667 layer_factory.hpp:77] Creating layer loss3/classifier_plantvillage
I0403 18:47:50.121704 17667 net.cpp:91] Creating Layer loss3/classifier_plantvillage
I0403 18:47:50.121721 17667 net.cpp:425] loss3/classifier_plantvillage <- pool5/7x7_s1
I0403 18:47:50.121740 17667 net.cpp:399] loss3/classifier_plantvillage -> loss3/classifier_plantvillage
I0403 18:47:50.122176 17667 net.cpp:141] Setting up loss3/classifier_plantvillage
I0403 18:47:50.122200 17667 net.cpp:148] Top shape: 24 38 (912)
I0403 18:47:50.122215 17667 net.cpp:156] Memory required for data: 1346064480
I0403 18:47:50.122232 17667 layer_factory.hpp:77] Creating layer loss3/classifier_plantvillage_loss3/classifier_plantvillage_0_split
I0403 18:47:50.122253 17667 net.cpp:91] Creating Layer loss3/classifier_plantvillage_loss3/classifier_plantvillage_0_split
I0403 18:47:50.122270 17667 net.cpp:425] loss3/classifier_plantvillage_loss3/classifier_plantvillage_0_split <- loss3/classifier_plantvillage
I0403 18:47:50.122288 17667 net.cpp:399] loss3/classifier_plantvillage_loss3/classifier_plantvillage_0_split -> loss3/classifier_plantvillage_loss3/classifier_plantvillage_0_split_0
I0403 18:47:50.122308 17667 net.cpp:399] loss3/classifier_plantvillage_loss3/classifier_plantvillage_0_split -> loss3/classifier_plantvillage_loss3/classifier_plantvillage_0_split_1
I0403 18:47:50.122328 17667 net.cpp:399] loss3/classifier_plantvillage_loss3/classifier_plantvillage_0_split -> loss3/classifier_plantvillage_loss3/classifier_plantvillage_0_split_2
I0403 18:47:50.122352 17667 net.cpp:399] loss3/classifier_plantvillage_loss3/classifier_plantvillage_0_split -> loss3/classifier_plantvillage_loss3/classifier_plantvillage_0_split_3
I0403 18:47:50.122457 17667 net.cpp:141] Setting up loss3/classifier_plantvillage_loss3/classifier_plantvillage_0_split
I0403 18:47:50.122479 17667 net.cpp:148] Top shape: 24 38 (912)
I0403 18:47:50.122494 17667 net.cpp:148] Top shape: 24 38 (912)
I0403 18:47:50.122509 17667 net.cpp:148] Top shape: 24 38 (912)
I0403 18:47:50.122524 17667 net.cpp:148] Top shape: 24 38 (912)
I0403 18:47:50.122537 17667 net.cpp:156] Memory required for data: 1346079072
I0403 18:47:50.122552 17667 layer_factory.hpp:77] Creating layer loss1/loss
I0403 18:47:50.122573 17667 net.cpp:91] Creating Layer loss1/loss
I0403 18:47:50.122591 17667 net.cpp:425] loss1/loss <- loss1/classifier_plantvillage_loss1/classifier_plantvillage_0_split_0
I0403 18:47:50.122622 17667 net.cpp:425] loss1/loss <- label_data_1_split_0
…
