…
I0403 19:22:48.802883 19670 net.cpp:313] The NetState phase (1) differed from the phase (0) specified by a rule in layer data
I0403 19:22:48.804049 19670 net.cpp:49] Initializing net from parameters: 
state {
  phase: TEST
}
layer {
  name: "data"
  type: "Data"
  top: "data"
  top: "label"
  include {
    phase: TEST
  }
  transform_param {
    mirror: false
    crop_size: 224
    mean_file: "/home/mohanty/data/final_dataset/lmdb/segmented-60-40/mean.binaryproto"
  }
  data_param {
    source: "/home/mohanty/data/final_dataset/lmdb/segmented-60-40/test_db"
    batch_size: 24
    backend: LMDB
  }
}
layer {
  name: "conv1/7x7_s2"
  type: "Convolution"
  bottom: "data"
  top: "conv1/7x7_s2"
  param {
    lr_mult: 1
    decay_mult: 1
  }
  param {
    lr_mult: 2
    decay_mult: 0
  }
  convolution_param {
    num_output: 64
    pad: 3
    kernel_size: 7
    stride: 2
    weight_filler {
      type: "xavier"
      std: 0.1
    }
    bias_filler {
      type: "constant"
      value: 0.2
    }
  }
}
layer {
  name: "conv1/relu_7x7"
  type: "ReLU"
  bottom: "conv1/7x7_s2"
  top: "conv1/7x7_s2"
}
layer {
  name: "pool1/3x3_s2"
  type: "Pooling"
  bottom: "conv1/7x7_s2"
  top: "pool1/3x3_s2"
  pooling_param {
    pool: MAX
    kernel_size: 3
    stride: 2
  }
}
layer {
  name: "pool1/norm1"
  type: "LRN"
  bottom: "pool1/3x3_s2"
  top: "pool1/norm1"
  lrn_param {
    local_size: 5
    alpha: 0.0001
    beta: 0.75
  }
}
layer {
  name: "conv2/3x3_reduce"
  type: "Convolution"
  bottom: "pool1/norm1"
  top: "conv2/3x3_reduce"
  param {
    lr_mult: 1
    decay_mult: 1
  }
  param {
    lr_mult: 2
    decay_mult: 0
  }
  convolution_param {
    num_output: 64
    kernel_size: 1
    weight_filler {
      type: "xavier"
      std: 0.1
    }
    bias_filler {
      type: "constant"
      value: 0.2
    }
  }
}
layer {
  name: "conv2/relu_3x3_reduce"
  type: "ReLU"
  bottom: "conv2/3x3_reduce"
  top: "conv2/3x3_reduce"
}
layer {
  name: "conv2/3x3"
  type: "Convolution"
  bottom: "conv2/3x3_reduce"
  top: "conv2/3x3"
  param {
    lr_mult: 1
    decay_mult: 1
  }
  param {
    lr_mult: 2
    decay_mult: 0
  }
  convolution_param {
    num_output: 192
    pad: 1
    kernel_size: 3
    weight_filler {
      type: "xavier"
      std: 0.03
    }
    bias_filler {
      type: "constant"
      value: 0.2
    }
  }
}
layer {
  name: "conv2/relu_3x3"
  type: "ReLU"
  bottom: "conv2/3x3"
  top: "conv2/3x3"
}
layer {
  name: "conv2/norm2"
  type: "LRN"
  bottom: "conv2/3x3"
  top: "conv2/norm2"
  lrn_param {
    local_size: 5
    alpha: 0.0001
    beta: 0.75
  }
}
layer {
  name: "pool2/3x3_s2"
  type: "Pooling"
  bottom: "conv2/norm2"
  top: "pool2/3x3_s2"
  pooling_param {
    pool: MAX
    kernel_size: 3
    stride: 2
  }
}
layer {
  name: "inception_3a/1x1"
  type: "Convolution"
  bottom: "pool2/3x3_s2"
  top: "inception_3a/1x1"
  param {
    lr_mult: 1
    decay_mult: 1
  }
  param {
    lr_mult: 2
    decay_mult: 0
  }
  convolution_param {
    num_output: 64
    kernel_size: 1
    weight_filler {
      type: "xavier"
      std: 0.03
    }
    bias_filler {
      type: "constant"
      value: 0.2
    }
  }
}
layer {
  name: "inception_3a/relu_1x1"
  type: "ReLU"
  bottom: "inception_3a/1x1"
  top: "inception_3a/1x1"
}
layer {
  name: "inception_3a/3x3_reduce"
  type: "Convolution"
  bottom: "pool2/3x3_s2"
  top: "inception_3a/3x3_reduce"
  param {
    lr_mult: 1
    decay_mult: 1
  }
  param {
    lr_mult: 2
    decay_mult: 0
  }
  convolution_param {
    num_output: 96
    kernel_size: 1
    weight_filler {
      type: "xavier"
      std: 0.09
    }
    bias_filler {
      type: "constant"
      value: 0.2
    }
  }
}
layer {
  name: "inception_3a/relu_3x3_reduce"
  type: "ReLU"
  bottom: "inception_3a/3x3_reduce"
  top: "inception_3a/3x3_reduce"
}
layer {
  name: "inception_3a/3x3"
  type: "Convolution"
  bottom: "inception_3a/3x3_reduce"
  top: "inception_3a/3x3"
  param {
    lr_mult: 1
    decay_mult: 1
  }
  param {
    lr_mult: 2
    decay_mult: 0
  }
  convolution_param {
    num_output: 128
    pad: 1
    kernel_size: 3
    weight_filler {
      type: "xavier"
      std: 0.03
    }
    bias_filler {
      type: "constant"
      value: 0.2
    }
  }
}
layer {
  name: "inception_3a/relu_3x3"
  type: "ReLU"
  bottom: "inception_3a/3x3"
  top: "inception_3a/3x3"
}
layer {
  name: "inception_3a/5x5_reduce"
  type: "Convolution"
  bottom: "pool2/3x3_s2"
  top: "inception_3a/5x5_reduce"
  param {
    lr_mult: 1
    decay_mult: 1
  }
  param {
    lr_mult: 2
    decay_mult: 0
  }
  convolution_param {
    num_output: 16
    kernel_size: 1
    weight_filler {
      type: "xavier"
      std: 0.2
    }
    bias_filler {
      type: "constant"
      value: 0.2
    }
  }
}
layer {
  name: "inception_3a/relu_5x5_reduce"
  type: "ReLU"
  bottom: "inception_3a/5x5_reduce"
  top: "inception_3a/5x5_reduce"
}
layer {
  name: "inception_3a/5x5"
  type: "Convolution"
  bottom: "inception_3a/5x5_reduce"
  top: "inception_3a/5x5"
  param {
    lr_mult: 1
    decay_mult: 1
  }
  param {
    lr_mult: 2
    decay_mult: 0
  }
  convolution_param {
    num_output: 32
    pad: 2
    kernel_size: 5
    weight_filler {
      type: "xavier"
      std: 0.03
    }
    bias_filler {
      type: "constant"
      value: 0.2
    }
  }
}
layer {
  name: "inception_3a/relu_5x5"
  type: "ReLU"
  bottom: "inception_3a/5x5"
  top: "inception_3a/5x5"
}
layer {
  name: "inception_3a/pool"
  type: "Pooling"
  bottom: "pool2/3x3_s2"
  top: "inception_3a/pool"
  pooling_param {
    pool: MAX
    kernel_size: 3
    stride: 1
    pad: 1
  }
}
layer {
  name: "inception_3a/pool_proj"
  type: "Convolution"
  bottom: "inception_3a/pool"
  top: "inception_3a/pool_proj"
  param {
    lr_mult: 1
    decay_mult: 1
  }
  param {
    lr_mult: 2
    decay_mult: 0
  }
  convolution_param {
    num_output: 32
    kernel_size: 1
    weight_filler {
      type: "xavier"
      std: 0.1
    }
    bias_filler {
      type: "constant"
      value: 0.2
    }
  }
}
layer {
  name: "inception_3a/relu_pool_proj"
  type: "ReLU"
  bottom: "inception_3a/pool_proj"
  top: "inception_3a/pool_proj"
}
layer {
  name: "inception_3a/output"
  type: "Concat"
  bottom: "inception_3a/1x1"
  bottom: "inception_3a/3x3"
  bottom: "inception_3a/5x5"
  bottom: "inception_3a/pool_proj"
  top: "inception_3a/output"
}
layer {
  name: "inception_3b/1x1"
  type: "Convolution"
  bottom: "inception_3a/output"
  top: "inception_3b/1x1"
  param {
    lr_mult: 1
    decay_mult: 1
  }
  param {
    lr_mult: 2
    decay_mult: 0
  }
  convolution_param {
    num_output: 128
    kernel_size: 1
    weight_filler {
      type: "xavier"
      std: 0.03
    }
    bias_filler {
      type: "constant"
      value: 0.2
    }
  }
}
layer {
  name: "inception_3b/relu_1x1"
  type: "ReLU"
  bottom: "inception_3b/1x1"
  top: "inception_3b/1x1"
}
layer {
  name: "inception_3b/3x3_reduce"
  type: "Convolution"
  bottom: "inception_3a/output"
  top: "inception_3b/3x3_reduce"
  param {
    lr_mult: 1
    decay_mult: 1
  }
  param {
    lr_mult: 2
    decay_mult: 0
  }
  convolution_param {
    num_output: 128
    kernel_size: 1
    weight_filler {
      type: "xavier"
      std: 0.09
    }
    bias_filler {
      type: "constant"
      value: 0.2
    }
  }
}
layer {
  name: "inception_3b/relu_3x3_reduce"
  type: "ReLU"
  bottom: "inception_3b/3x3_reduce"
  top: "inception_3b/3x3_reduce"
}
layer {
  name: "inception_3b/3x3"
  type: "Convolution"
  bottom: "inception_3b/3x3_reduce"
  top: "inception_3b/3x3"
  param {
    lr_mult: 1
    decay_mult: 1
  }
  param {
    lr_mult: 2
    decay_mult: 0
  }
  convolution_param {
    num_output: 192
    pad: 1
    kernel_size: 3
    weight_filler {
      type: "xavier"
      std: 0.03
    }
    bias_filler {
      type: "constant"
      value: 0.2
    }
  }
}
layer {
  name: "inception_3b/relu_3x3"
  type: "ReLU"
  bottom: "inception_3b/3x3"
  top: "inception_3b/3x3"
}
layer {
  name: "inception_3b/5x5_reduce"
  type: "Convolution"
  bottom: "inception_3a/output"
  top: "inception_3b/5x5_reduce"
  param {
    lr_mult: 1
    decay_mult: 1
  }
  param {
    lr_mult: 2
    decay_mult: 0
  }
  convolution_param {
    num_output: 32
    kernel_size: 1
    weight_filler {
      type: "xavier"
      std: 0.2
    }
    bias_filler {
      type: "constant"
      value: 0.2
    }
  }
}
layer {
  name: "inception_3b/relu_5x5_reduce"
  type: "ReLU"
  bottom: "inception_3b/5x5_reduce"
  top: "inception_3b/5x5_reduce"
}
layer {
  name: "inception_3b/5x5"
  type: "Convolution"
  bottom: "inception_3b/5x5_reduce"
  top: "inception_3b/5x5"
  param {
    lr_mult: 1
    decay_mult: 1
  }
  param {
    lr_mult: 2
    decay_mult: 0
  }
  convolution_param {
    num_output: 96
    pad: 2
    kernel_size: 5
    weight_filler {
      type: "xavier"
      std: 0.03
    }
    bias_filler {
      type: "constant"
      value: 0.2
    }
  }
}
layer {
  name: "inception_3b/relu_5x5"
  type: "ReLU"
  bottom: "inception_3b/5x5"
  top: "inception_3b/5x5"
}
layer {
  name: "inception_3b/pool"
  type: "Pooling"
  bottom: "inception_3a/output"
  top: "inception_3b/pool"
  pooling_param {
    pool: MAX
    kernel_size: 3
    stride: 1
    pad: 1
  }
}
layer {
  name: "inception_3b/pool_proj"
  type: "Convolution"
  bottom: "inception_3b/pool"
  top: "inception_3b/pool_proj"
  param {
    lr_mult: 1
    decay_mult: 1
  }
  param {
    lr_mult: 2
    decay_mult: 0
  }
  convolution_param {
    num_output: 64
    kernel_size: 1
    weight_filler {
      type: "xavier"
      std: 0.1
    }
    bias_filler {
      type: "constant"
      value: 0.2
    }
  }
}
layer {
  name: "inception_3b/relu_pool_proj"
  type: "ReLU"
  bottom: "inception_3b/pool_proj"
  top: "inception_3b/pool_proj"
}
layer {
  name: "inception_3b/output"
  type: "Concat"
  bottom: "inception_3b/1x1"
  bottom: "inception_3b/3x3"
  bottom: "inception_3b/5x5"
  bottom: "inception_3b/pool_proj"
  top: "inception_3b/output"
}
layer {
  name: "pool3/3x3_s2"
  type: "Pooling"
  bottom: "inception_3b/output"
  top: "pool3/3x3_s2"
  pooling_param {
    pool: MAX
    kernel_size: 3
    stride: 2
  }
}
layer {
  name: "inception_4a/1x1"
  type: "Convolution"
  bottom: "pool3/3x3_s2"
  top: "inception_4a/1x1"
  param {
    lr_mult: 1
    decay_mult: 1
  }
  param {
    lr_mult: 2
    decay_mult: 0
  }
  convolution_param {
    num_output: 192
    kernel_size: 1
    weight_filler {
      type: "xavier"
      std: 0.03
    }
    bias_filler {
      type: "constant"
      value: 0.2
    }
  }
}
layer {
  name: "inception_4a/relu_1x1"
  type: "ReLU"
  bottom: "inception_4a/1x1"
  top: "inception_4a/1x1"
}
layer {
  name: "inception_4a/3x3_reduce"
  type: "Convolution"
  bottom: "pool3/3x3_s2"
  top: "inception_4a/3x3_reduce"
  param {
    lr_mult: 1
    decay_mult: 1
  }
  param {
    lr_mult: 2
    decay_mult: 0
  }
  convolution_param {
    num_output: 96
    kernel_size: 1
    weight_filler {
      type: "xavier"
      std: 0.09
    }
    bias_filler {
      type: "constant"
      value: 0.2
    }
  }
}
layer {
  name: "inception_4a/relu_3x3_reduce"
  type: "ReLU"
  bottom: "inception_4a/3x3_reduce"
  top: "inception_4a/3x3_reduce"
}
layer {
  name: "inception_4a/3x3"
  type: "Convolution"
  bottom: "inception_4a/3x3_reduce"
  top: "inception_4a/3x3"
  param {
    lr_mult: 1
    decay_mult: 1
  }
  param {
    lr_mult: 2
    decay_mult: 0
  }
  convolution_param {
    num_output: 208
    pad: 1
    kernel_size: 3
    weight_filler {
      type: "xavier"
      std: 0.03
    }
    bias_filler {
      type: "constant"
      value: 0.2
    }
  }
}
layer {
  name: "inception_4a/relu_3x3"
  type: "ReLU"
  bottom: "inception_4a/3x3"
  top: "inception_4a/3x3"
}
layer {
  name: "inception_4a/5x5_reduce"
  type: "Convolution"
  bottom: "pool3/3x3_s2"
  top: "inception_4a/5x5_reduce"
  param {
    lr_mult: 1
    decay_mult: 1
  }
  param {
    lr_mult: 2
    decay_mult: 0
  }
  convolution_param {
    num_output: 16
    kernel_size: 1
    weight_filler {
      type: "xavier"
      std: 0.2
    }
    bias_filler {
      type: "constant"
      value: 0.2
    }
  }
}
layer {
  name: "inception_4a/relu_5x5_reduce"
  type: "ReLU"
  bottom: "inception_4a/5x5_reduce"
  top: "inception_4a/5x5_reduce"
}
layer {
  name: "inception_4a/5x5"
  type: "Convolution"
  bottom: "inception_4a/5x5_reduce"
  top: "inception_4a/5x5"
  param {
    lr_mult: 1
    decay_mult: 1
  }
  param {
    lr_mult: 2
    decay_mult: 0
  }
  convolution_param {
    num_output: 48
    pad: 2
    kernel_size: 5
    weight_filler {
      type: "xavier"
      std: 0.03
    }
    bias_filler {
      type: "constant"
      value: 0.2
    }
  }
}
layer {
  name: "inception_4a/relu_5x5"
  type: "ReLU"
  bottom: "inception_4a/5x5"
  top: "inception_4a/5x5"
}
layer {
  name: "inception_4a/pool"
  type: "Pooling"
  bottom: "pool3/3x3_s2"
  top: "inception_4a/pool"
  pooling_param {
    pool: MAX
    kernel_size: 3
    stride: 1
    pad: 1
  }
}
layer {
  name: "inception_4a/pool_proj"
  type: "Convolution"
  bottom: "inception_4a/pool"
  top: "inception_4a/pool_proj"
  param {
    lr_mult: 1
    decay_mult: 1
  }
  param {
    lr_mult: 2
    decay_mult: 0
  }
  convolution_param {
    num_output: 64
    kernel_size: 1
    weight_filler {
      type: "xavier"
      std: 0.1
    }
    bias_filler {
      type: "constant"
      value: 0.2
    }
  }
}
layer {
  name: "inception_4a/relu_pool_proj"
  type: "ReLU"
  bottom: "inception_4a/pool_proj"
  top: "inception_4a/pool_proj"
}
layer {
  name: "inception_4a/output"
  type: "Concat"
  bottom: "inception_4a/1x1"
  bottom: "inception_4a/3x3"
  bottom: "inception_4a/5x5"
  bottom: "inception_4a/pool_proj"
  top: "inception_4a/output"
}
layer {
  name: "loss1/ave_pool"
  type: "Pooling"
  bottom: "inception_4a/output"
  top: "loss1/ave_pool"
  pooling_param {
    pool: AVE
    kernel_size: 5
    stride: 3
  }
}
layer {
  name: "loss1/conv"
  type: "Convolution"
  bottom: "loss1/ave_pool"
  top: "loss1/conv"
  param {
    lr_mult: 1
    decay_mult: 1
  }
  param {
    lr_mult: 2
    decay_mult: 0
  }
  convolution_param {
    num_output: 128
    kernel_size: 1
    weight_filler {
      type: "xavier"
      std: 0.08
    }
    bias_filler {
      type: "constant"
      value: 0.2
    }
  }
}
layer {
  name: "loss1/relu_conv"
  type: "ReLU"
  bottom: "loss1/conv"
  top: "loss1/conv"
}
layer {
  name: "loss1/fc"
  type: "InnerProduct"
  bottom: "loss1/conv"
  top: "loss1/fc"
  param {
    lr_mult: 1
    decay_mult: 1
  }
  param {
    lr_mult: 2
    decay_mult: 0
  }
  inner_product_param {
    num_output: 1024
    weight_filler {
      type: "xavier"
      std: 0.02
    }
    bias_filler {
      type: "constant"
      value: 0.2
    }
  }
}
layer {
  name: "loss1/relu_fc"
  type: "ReLU"
  bottom: "loss1/fc"
  top: "loss1/fc"
}
layer {
  name: "loss1/drop_fc"
  type: "Dropout"
  bottom: "loss1/fc"
  top: "loss1/fc"
  dropout_param {
    dropout_ratio: 0.7
  }
}
layer {
  name: "loss1/classifier_plantvillage"
  type: "InnerProduct"
  bottom: "loss1/fc"
  top: "loss1/classifier_plantvillage"
  param {
    lr_mult: 1
    decay_mult: 1
  }
  param {
    lr_mult: 2
    decay_mult: 0
  }
  inner_product_param {
    num_output: 38
    weight_filler {
      type: "xavier"
      std: 0.0009765625
    }
    bias_filler {
      type: "constant"
      value: 0
    }
  }
}
layer {
  name: "inception_4b/1x1"
  type: "Convolution"
  bottom: "inception_4a/output"
  top: "inception_4b/1x1"
  param {
    lr_mult: 1
    decay_mult: 1
  }
  param {
    lr_mult: 2
    decay_mult: 0
  }
  convolution_param {
    num_output: 160
    kernel_size: 1
    weight_filler {
      type: "xavier"
      std: 0.03
    }
    bias_filler {
      type: "constant"
      value: 0.2
    }
  }
}
layer {
  name: "inception_4b/relu_1x1"
  type: "ReLU"
  bottom: "inception_4b/1x1"
  top: "inception_4b/1x1"
}
layer {
  name: "inception_4b/3x3_reduce"
  type: "Convolution"
  bottom: "inception_4a/output"
  top: "inception_4b/3x3_reduce"
  param {
    lr_mult: 1
    decay_mult: 1
  }
  param {
    lr_mult: 2
    decay_mult: 0
  }
  convolution_param {
    num_output: 112
    kernel_size: 1
    weight_filler {
      type: "xavier"
      std: 0.09
    }
    bias_filler {
      type: "constant"
      value: 0.2
    }
  }
}
layer {
  name: "inception_4b/relu_3x3_reduce"
  type: "ReLU"
  bottom: "inception_4b/3x3_reduce"
  top: "inception_4b/3x3_reduce"
}
layer {
  name: "inception_4b/3x3"
  type: "Convolution"
  bottom: "inception_4b/3x3_reduce"
  top: "inception_4b/3x3"
  param {
    lr_mult: 1
    decay_mult: 1
  }
  param {
    lr_mult: 2
    decay_mult: 0
  }
  convolution_param {
    num_output: 224
    pad: 1
    kernel_size: 3
    weight_filler {
      type: "xavier"
      std: 0.03
    }
    bias_filler {
      type: "constant"
      value: 0.2
    }
  }
}
layer {
  name: "inception_4b/relu_3x3"
  type: "ReLU"
  bottom: "inception_4b/3x3"
  top: "inception_4b/3x3"
}
layer {
  name: "inception_4b/5x5_reduce"
  type: "Convolution"
  bottom: "inception_4a/output"
  top: "inception_4b/5x5_reduce"
  param {
    lr_mult: 1
    decay_mult: 1
  }
  param {
    lr_mult: 2
    decay_mult: 0
  }
  convolution_param {
    num_output: 24
    kernel_size: 1
    weight_filler {
      type: "xavier"
      std: 0.2
    }
    bias_filler {
      type: "constant"
      value: 0.2
    }
  }
}
layer {
  name: "inception_4b/relu_5x5_reduce"
  type: "ReLU"
  bottom: "inception_4b/5x5_reduce"
  top: "inception_4b/5x5_reduce"
}
layer {
  name: "inception_4b/5x5"
  type: "Convolution"
  bottom: "inception_4b/5x5_reduce"
  top: "inception_4b/5x5"
  param {
    lr_mult: 1
    decay_mult: 1
  }
  param {
    lr_mult: 2
    decay_mult: 0
  }
  convolution_param {
    num_output: 64
    pad: 2
    kernel_size: 5
    weight_filler {
      type: "xavier"
      std: 0.03
    }
    bias_filler {
      type: "constant"
      value: 0.2
    }
  }
}
layer {
  name: "inception_4b/relu_5x5"
  type: "ReLU"
  bottom: "inception_4b/5x5"
  top: "inception_4b/5x5"
}
layer {
  name: "inception_4b/pool"
  type: "Pooling"
  bottom: "inception_4a/output"
  top: "inception_4b/pool"
  pooling_param {
    pool: MAX
    kernel_size: 3
    stride: 1
    pad: 1
  }
}
layer {
  name: "inception_4b/pool_proj"
  type: "Convolution"
  bottom: "inception_4b/pool"
  top: "inception_4b/pool_proj"
  param {
    lr_mult: 1
    decay_mult: 1
  }
  param {
    lr_mult: 2
    decay_mult: 0
  }
  convolution_param {
    num_output: 64
    kernel_size: 1
    weight_filler {
      type: "xavier"
      std: 0.1
    }
    bias_filler {
      type: "constant"
      value: 0.2
    }
  }
}
layer {
  name: "inception_4b/relu_pool_proj"
  type: "ReLU"
  bottom: "inception_4b/pool_proj"
  top: "inception_4b/pool_proj"
}
layer {
  name: "inception_4b/output"
  type: "Concat"
  bottom: "inception_4b/1x1"
  bottom: "inception_4b/3x3"
  bottom: "inception_4b/5x5"
  bottom: "inception_4b/pool_proj"
  top: "inception_4b/output"
}
layer {
  name: "inception_4c/1x1"
  type: "Convolution"
  bottom: "inception_4b/output"
  top: "inception_4c/1x1"
  param {
    lr_mult: 1
    decay_mult: 1
  }
  param {
    lr_mult: 2
    decay_mult: 0
  }
  convolution_param {
    num_output: 128
    kernel_size: 1
    weight_filler {
      type: "xavier"
      std: 0.03
    }
    bias_filler {
      type: "constant"
      value: 0.2
    }
  }
}
layer {
  name: "inception_4c/relu_1x1"
  type: "ReLU"
  bottom: "inception_4c/1x1"
  top: "inception_4c/1x1"
}
layer {
  name: "inception_4c/3x3_reduce"
  type: "Convolution"
  bottom: "inception_4b/output"
  top: "inception_4c/3x3_reduce"
  param {
    lr_mult: 1
    decay_mult: 1
  }
  param {
    lr_mult: 2
    decay_mult: 0
  }
  convolution_param {
    num_output: 128
    kernel_size: 1
    weight_filler {
      type: "xavier"
      std: 0.09
    }
    bias_filler {
      type: "constant"
      value: 0.2
    }
  }
}
layer {
  name: "inception_4c/relu_3x3_reduce"
  type: "ReLU"
  bottom: "inception_4c/3x3_reduce"
  top: "inception_4c/3x3_reduce"
}
layer {
  name: "inception_4c/3x3"
  type: "Convolution"
  bottom: "inception_4c/3x3_reduce"
  top: "inception_4c/3x3"
  param {
    lr_mult: 1
    decay_mult: 1
  }
  param {
    lr_mult: 2
    decay_mult: 0
  }
  convolution_param {
    num_output: 256
    pad: 1
    kernel_size: 3
    weight_filler {
      type: "xavier"
      std: 0.03
    }
    bias_filler {
      type: "constant"
      value: 0.2
    }
  }
}
layer {
  name: "inception_4c/relu_3x3"
  type: "ReLU"
  bottom: "inception_4c/3x3"
  top: "inception_4c/3x3"
}
layer {
  name: "inception_4c/5x5_reduce"
  type: "Convolution"
  bottom: "inception_4b/output"
  top: "inception_4c/5x5_reduce"
  param {
    lr_mult: 1
    decay_mult: 1
  }
  param {
    lr_mult: 2
    decay_mult: 0
  }
  convolution_param {
    num_output: 24
    kernel_size: 1
    weight_filler {
      type: "xavier"
      std: 0.2
    }
    bias_filler {
      type: "constant"
      value: 0.2
    }
  }
}
layer {
  name: "inception_4c/relu_5x5_reduce"
  type: "ReLU"
  bottom: "inception_4c/5x5_reduce"
  top: "inception_4c/5x5_reduce"
}
layer {
  name: "inception_4c/5x5"
  type: "Convolution"
  bottom: "inception_4c/5x5_reduce"
  top: "inception_4c/5x5"
  param {
    lr_mult: 1
    decay_mult: 1
  }
  param {
    lr_mult: 2
    decay_mult: 0
  }
  convolution_param {
    num_output: 64
    pad: 2
    kernel_size: 5
    weight_filler {
      type: "xavier"
      std: 0.03
    }
    bias_filler {
      type: "constant"
      value: 0.2
    }
  }
}
layer {
  name: "inception_4c/relu_5x5"
  type: "ReLU"
  bottom: "inception_4c/5x5"
  top: "inception_4c/5x5"
}
layer {
  name: "inception_4c/pool"
  type: "Pooling"
  bottom: "inception_4b/output"
  top: "inception_4c/pool"
  pooling_param {
    pool: MAX
    kernel_size: 3
    stride: 1
    pad: 1
  }
}
layer {
  name: "inception_4c/pool_proj"
  type: "Convolution"
  bottom: "inception_4c/pool"
  top: "inception_4c/pool_proj"
  param {
    lr_mult: 1
    decay_mult: 1
  }
  param {
    lr_mult: 2
    decay_mult: 0
  }
  convolution_param {
    num_output: 64
    kernel_size: 1
    weight_filler {
      type: "xavier"
      std: 0.1
    }
    bias_filler {
      type: "constant"
      value: 0.2
    }
  }
}
layer {
  name: "inception_4c/relu_pool_proj"
  type: "ReLU"
  bottom: "inception_4c/pool_proj"
  top: "inception_4c/pool_proj"
}
layer {
  name: "inception_4c/output"
  type: "Concat"
  bottom: "inception_4c/1x1"
  bottom: "inception_4c/3x3"
  bottom: "inception_4c/5x5"
  bottom: "inception_4c/pool_proj"
  top: "inception_4c/output"
}
layer {
  name: "inception_4d/1x1"
  type: "Convolution"
  bottom: "inception_4c/output"
  top: "inception_4d/1x1"
  param {
    lr_mult: 1
    decay_mult: 1
  }
  param {
    lr_mult: 2
    decay_mult: 0
  }
  convolution_param {
    num_output: 112
    kernel_size: 1
    weight_filler {
      type: "xavier"
      std: 0.03
    }
    bias_filler {
      type: "constant"
      value: 0.2
    }
  }
}
layer {
  name: "inception_4d/relu_1x1"
  type: "ReLU"
  bottom: "inception_4d/1x1"
  top: "inception_4d/1x1"
}
layer {
  name: "inception_4d/3x3_reduce"
  type: "Convolution"
  bottom: "inception_4c/output"
  top: "inception_4d/3x3_reduce"
  param {
    lr_mult: 1
    decay_mult: 1
  }
  param {
    lr_mult: 2
    decay_mult: 0
  }
  convolution_param {
    num_output: 144
    kernel_size: 1
    weight_filler {
      type: "xavier"
      std: 0.09
    }
    bias_filler {
      type: "constant"
      value: 0.2
    }
  }
}
layer {
  name: "inception_4d/relu_3x3_reduce"
  type: "ReLU"
  bottom: "inception_4d/3x3_reduce"
  top: "inception_4d/3x3_reduce"
}
layer {
  name: "inception_4d/3x3"
  type: "Convolution"
  bottom: "inception_4d/3x3_reduce"
  top: "inception_4d/3x3"
  param {
    lr_mult: 1
    decay_mult: 1
  }
  param {
    lr_mult: 2
    decay_mult: 0
  }
  convolution_param {
    num_output: 288
    pad: 1
    kernel_size: 3
    weight_filler {
      type: "xavier"
      std: 0.03
    }
    bias_filler {
      type: "constant"
      value: 0.2
    }
  }
}
layer {
  name: "inception_4d/relu_3x3"
  type: "ReLU"
  bottom: "inception_4d/3x3"
  top: "inception_4d/3x3"
}
layer {
  name: "inception_4d/5x5_reduce"
  type: "Convolution"
  bottom: "inception_4c/output"
  top: "inception_4d/5x5_reduce"
  param {
    lr_mult: 1
    decay_mult: 1
  }
  param {
    lr_mult: 2
    decay_mult: 0
  }
  convolution_param {
    num_output: 32
    kernel_size: 1
    weight_filler {
      type: "xavier"
      std: 0.2
    }
    bias_filler {
      type: "constant"
      value: 0.2
    }
  }
}
layer {
  name: "inception_4d/relu_5x5_reduce"
  type: "ReLU"
  bottom: "inception_4d/5x5_reduce"
  top: "inception_4d/5x5_reduce"
}
layer {
  name: "inception_4d/5x5"
  type: "Convolution"
  bottom: "inception_4d/5x5_reduce"
  top: "inception_4d/5x5"
  param {
    lr_mult: 1
    decay_mult: 1
  }
  param {
    lr_mult: 2
    decay_mult: 0
  }
  convolution_param {
    num_output: 64
    pad: 2
    kernel_size: 5
    weight_filler {
      type: "xavier"
      std: 0.03
    }
    bias_filler {
      type: "constant"
      value: 0.2
    }
  }
}
layer {
  name: "inception_4d/relu_5x5"
  type: "ReLU"
  bottom: "inception_4d/5x5"
  top: "inception_4d/5x5"
}
layer {
  name: "inception_4d/pool"
  type: "Pooling"
  bottom: "inception_4c/output"
  top: "inception_4d/pool"
  pooling_param {
    pool: MAX
    kernel_size: 3
    stride: 1
    pad: 1
  }
}
layer {
  name: "inception_4d/pool_proj"
  type: "Convolution"
  bottom: "inception_4d/pool"
  top: "inception_4d/pool_proj"
  param {
    lr_mult: 1
    decay_mult: 1
  }
  param {
    lr_mult: 2
    decay_mult: 0
  }
  convolution_param {
    num_output: 64
    kernel_size: 1
    weight_filler {
      type: "xavier"
      std: 0.1
    }
    bias_filler {
      type: "constant"
      value: 0.2
    }
  }
}
layer {
  name: "inception_4d/relu_pool_proj"
  type: "ReLU"
  bottom: "inception_4d/pool_proj"
  top: "inception_4d/pool_proj"
}
layer {
  name: "inception_4d/output"
  type: "Concat"
  bottom: "inception_4d/1x1"
  bottom: "inception_4d/3x3"
  bottom: "inception_4d/5x5"
  bottom: "inception_4d/pool_proj"
  top: "inception_4d/output"
}
layer {
  name: "loss2/ave_pool"
  type: "Pooling"
  bottom: "inception_4d/output"
  top: "loss2/ave_pool"
  pooling_param {
    pool: AVE
    kernel_size: 5
    stride: 3
  }
}
layer {
  name: "loss2/conv"
  type: "Convolution"
  bottom: "loss2/ave_pool"
  top: "loss2/conv"
  param {
    lr_mult: 1
    decay_mult: 1
  }
  param {
    lr_mult: 2
    decay_mult: 0
  }
  convolution_param {
    num_output: 128
    kernel_size: 1
    weight_filler {
      type: "xavier"
      std: 0.08
    }
    bias_filler {
      type: "constant"
      value: 0.2
    }
  }
}
layer {
  name: "loss2/relu_conv"
  type: "ReLU"
  bottom: "loss2/conv"
  top: "loss2/conv"
}
layer {
  name: "loss2/fc"
  type: "InnerProduct"
  bottom: "loss2/conv"
  top: "loss2/fc"
  param {
    lr_mult: 1
    decay_mult: 1
  }
  param {
    lr_mult: 2
    decay_mult: 0
  }
  inner_product_param {
    num_output: 1024
    weight_filler {
      type: "xavier"
      std: 0.02
    }
    bias_filler {
      type: "constant"
      value: 0.2
    }
  }
}
layer {
  name: "loss2/relu_fc"
  type: "ReLU"
  bottom: "loss2/fc"
  top: "loss2/fc"
}
layer {
  name: "loss2/drop_fc"
  type: "Dropout"
  bottom: "loss2/fc"
  top: "loss2/fc"
  dropout_param {
    dropout_ratio: 0.7
  }
}
layer {
  name: "loss2/classifier_plantvillage"
  type: "InnerProduct"
  bottom: "loss2/fc"
  top: "loss2/classifier_plantvillage"
  param {
    lr_mult: 1
    decay_mult: 1
  }
  param {
    lr_mult: 2
    decay_mult: 0
  }
  inner_product_param {
    num_output: 38
    weight_filler {
      type: "xavier"
      std: 0.0009765625
    }
    bias_filler {
      type: "constant"
      value: 0
    }
  }
}
layer {
  name: "inception_4e/1x1"
  type: "Convolution"
  bottom: "inception_4d/output"
  top: "inception_4e/1x1"
  param {
    lr_mult: 1
    decay_mult: 1
  }
  param {
    lr_mult: 2
    decay_mult: 0
  }
  convolution_param {
    num_output: 256
    kernel_size: 1
    weight_filler {
      type: "xavier"
      std: 0.03
    }
    bias_filler {
      type: "constant"
      value: 0.2
    }
  }
}
layer {
  name: "inception_4e/relu_1x1"
  type: "ReLU"
  bottom: "inception_4e/1x1"
  top: "inception_4e/1x1"
}
layer {
  name: "inception_4e/3x3_reduce"
  type: "Convolution"
  bottom: "inception_4d/output"
  top: "inception_4e/3x3_reduce"
  param {
    lr_mult: 1
    decay_mult: 1
  }
  param {
    lr_mult: 2
    decay_mult: 0
  }
  convolution_param {
    num_output: 160
    kernel_size: 1
    weight_filler {
      type: "xavier"
      std: 0.09
    }
    bias_filler {
      type: "constant"
      value: 0.2
    }
  }
}
layer {
  name: "inception_4e/relu_3x3_reduce"
  type: "ReLU"
  bottom: "inception_4e/3x3_reduce"
  top: "inception_4e/3x3_reduce"
}
layer {
  name: "inception_4e/3x3"
  type: "Convolution"
  bottom: "inception_4e/3x3_reduce"
  top: "inception_4e/3x3"
  param {
    lr_mult: 1
    decay_mult: 1
  }
  param {
    lr_mult: 2
    decay_mult: 0
  }
  convolution_param {
    num_output: 320
    pad: 1
    kernel_size: 3
    weight_filler {
      type: "xavier"
      std: 0.03
    }
    bias_filler {
      type: "constant"
      value: 0.2
    }
  }
}
layer {
  name: "inception_4e/relu_3x3"
  type: "ReLU"
  bottom: "inception_4e/3x3"
  top: "inception_4e/3x3"
}
layer {
  name: "inception_4e/5x5_reduce"
  type: "Convolution"
  bottom: "inception_4d/output"
  top: "inception_4e/5x5_reduce"
  param {
    lr_mult: 1
    decay_mult: 1
  }
  param {
    lr_mult: 2
    decay_mult: 0
  }
  convolution_param {
    num_output: 32
    kernel_size: 1
    weight_filler {
      type: "xavier"
      std: 0.2
    }
    bias_filler {
      type: "constant"
      value: 0.2
    }
  }
}
layer {
  name: "inception_4e/relu_5x5_reduce"
  type: "ReLU"
  bottom: "inception_4e/5x5_reduce"
  top: "inception_4e/5x5_reduce"
}
layer {
  name: "inception_4e/5x5"
  type: "Convolution"
  bottom: "inception_4e/5x5_reduce"
  top: "inception_4e/
I0403 19:22:48.805310 19670 layer_factory.hpp:77] Creating layer data
I0403 19:22:48.805894 19670 net.cpp:91] Creating Layer data
I0403 19:22:48.805927 19670 net.cpp:399] data -> data
I0403 19:22:48.805981 19670 net.cpp:399] data -> label
I0403 19:22:48.806020 19670 data_transformer.cpp:25] Loading mean file from: /home/mohanty/data/final_dataset/lmdb/segmented-60-40/mean.binaryproto
I0403 19:22:48.807200 19673 db_lmdb.cpp:38] Opened lmdb /home/mohanty/data/final_dataset/lmdb/segmented-60-40/test_db
I0403 19:22:48.818678 19670 data_layer.cpp:41] output data size: 24,3,224,224
I0403 19:22:48.845723 19670 net.cpp:141] Setting up data
I0403 19:22:48.845808 19670 net.cpp:148] Top shape: 24 3 224 224 (3612672)
I0403 19:22:48.845830 19670 net.cpp:148] Top shape: 24 (24)
I0403 19:22:48.845846 19670 net.cpp:156] Memory required for data: 14450784
I0403 19:22:48.845875 19670 layer_factory.hpp:77] Creating layer label_data_1_split
I0403 19:22:48.845902 19670 net.cpp:91] Creating Layer label_data_1_split
I0403 19:22:48.845921 19670 net.cpp:425] label_data_1_split <- label
I0403 19:22:48.845952 19670 net.cpp:399] label_data_1_split -> label_data_1_split_0
I0403 19:22:48.845983 19670 net.cpp:399] label_data_1_split -> label_data_1_split_1
I0403 19:22:48.846006 19670 net.cpp:399] label_data_1_split -> label_data_1_split_2
I0403 19:22:48.846027 19670 net.cpp:399] label_data_1_split -> label_data_1_split_3
I0403 19:22:48.846048 19670 net.cpp:399] label_data_1_split -> label_data_1_split_4
I0403 19:22:48.846068 19670 net.cpp:399] label_data_1_split -> label_data_1_split_5
I0403 19:22:48.846087 19670 net.cpp:399] label_data_1_split -> label_data_1_split_6
I0403 19:22:48.846108 19670 net.cpp:399] label_data_1_split -> label_data_1_split_7
I0403 19:22:48.846128 19670 net.cpp:399] label_data_1_split -> label_data_1_split_8
I0403 19:22:48.846149 19670 net.cpp:399] label_data_1_split -> label_data_1_split_9
I0403 19:22:48.846269 19670 net.cpp:141] Setting up label_data_1_split
I0403 19:22:48.846293 19670 net.cpp:148] Top shape: 24 (24)
I0403 19:22:48.846310 19670 net.cpp:148] Top shape: 24 (24)
I0403 19:22:48.846326 19670 net.cpp:148] Top shape: 24 (24)
I0403 19:22:48.846343 19670 net.cpp:148] Top shape: 24 (24)
I0403 19:22:48.846359 19670 net.cpp:148] Top shape: 24 (24)
I0403 19:22:48.846374 19670 net.cpp:148] Top shape: 24 (24)
I0403 19:22:48.846390 19670 net.cpp:148] Top shape: 24 (24)
I0403 19:22:48.846405 19670 net.cpp:148] Top shape: 24 (24)
I0403 19:22:48.846420 19670 net.cpp:148] Top shape: 24 (24)
I0403 19:22:48.846436 19670 net.cpp:148] Top shape: 24 (24)
I0403 19:22:48.846480 19670 net.cpp:156] Memory required for data: 14451744
I0403 19:22:48.846498 19670 layer_factory.hpp:77] Creating layer conv1/7x7_s2
I0403 19:22:48.846529 19670 net.cpp:91] Creating Layer conv1/7x7_s2
I0403 19:22:48.846549 19670 net.cpp:425] conv1/7x7_s2 <- data
I0403 19:22:48.846567 19670 net.cpp:399] conv1/7x7_s2 -> conv1/7x7_s2
I0403 19:22:48.984016 19670 net.cpp:141] Setting up conv1/7x7_s2
I0403 19:22:48.984102 19670 net.cpp:148] Top shape: 24 64 112 112 (19267584)
I0403 19:22:48.984119 19670 net.cpp:156] Memory required for data: 91522080
I0403 19:22:48.984150 19670 layer_factory.hpp:77] Creating layer conv1/relu_7x7
I0403 19:22:48.984176 19670 net.cpp:91] Creating Layer conv1/relu_7x7
I0403 19:22:48.984194 19670 net.cpp:425] conv1/relu_7x7 <- conv1/7x7_s2
I0403 19:22:48.984212 19670 net.cpp:386] conv1/relu_7x7 -> conv1/7x7_s2 (in-place)
I0403 19:22:48.984462 19670 net.cpp:141] Setting up conv1/relu_7x7
I0403 19:22:48.984488 19670 net.cpp:148] Top shape: 24 64 112 112 (19267584)
I0403 19:22:48.984503 19670 net.cpp:156] Memory required for data: 168592416
I0403 19:22:48.984518 19670 layer_factory.hpp:77] Creating layer pool1/3x3_s2
I0403 19:22:48.984541 19670 net.cpp:91] Creating Layer pool1/3x3_s2
I0403 19:22:48.984560 19670 net.cpp:425] pool1/3x3_s2 <- conv1/7x7_s2
I0403 19:22:48.984578 19670 net.cpp:399] pool1/3x3_s2 -> pool1/3x3_s2
I0403 19:22:48.984650 19670 net.cpp:141] Setting up pool1/3x3_s2
I0403 19:22:48.984673 19670 net.cpp:148] Top shape: 24 64 56 56 (4816896)
I0403 19:22:48.984688 19670 net.cpp:156] Memory required for data: 187860000
I0403 19:22:48.984704 19670 layer_factory.hpp:77] Creating layer pool1/norm1
I0403 19:22:48.984726 19670 net.cpp:91] Creating Layer pool1/norm1
I0403 19:22:48.984743 19670 net.cpp:425] pool1/norm1 <- pool1/3x3_s2
I0403 19:22:48.984761 19670 net.cpp:399] pool1/norm1 -> pool1/norm1
I0403 19:22:48.985052 19670 net.cpp:141] Setting up pool1/norm1
I0403 19:22:48.985080 19670 net.cpp:148] Top shape: 24 64 56 56 (4816896)
I0403 19:22:48.985095 19670 net.cpp:156] Memory required for data: 207127584
I0403 19:22:48.985110 19670 layer_factory.hpp:77] Creating layer conv2/3x3_reduce
I0403 19:22:48.985137 19670 net.cpp:91] Creating Layer conv2/3x3_reduce
I0403 19:22:48.985154 19670 net.cpp:425] conv2/3x3_reduce <- pool1/norm1
I0403 19:22:48.985172 19670 net.cpp:399] conv2/3x3_reduce -> conv2/3x3_reduce
I0403 19:22:48.986511 19670 net.cpp:141] Setting up conv2/3x3_reduce
I0403 19:22:48.986541 19670 net.cpp:148] Top shape: 24 64 56 56 (4816896)
I0403 19:22:48.986555 19670 net.cpp:156] Memory required for data: 226395168
I0403 19:22:48.986575 19670 layer_factory.hpp:77] Creating layer conv2/relu_3x3_reduce
I0403 19:22:48.986593 19670 net.cpp:91] Creating Layer conv2/relu_3x3_reduce
I0403 19:22:48.986609 19670 net.cpp:425] conv2/relu_3x3_reduce <- conv2/3x3_reduce
I0403 19:22:48.986627 19670 net.cpp:386] conv2/relu_3x3_reduce -> conv2/3x3_reduce (in-place)
I0403 19:22:48.986887 19670 net.cpp:141] Setting up conv2/relu_3x3_reduce
I0403 19:22:48.986913 19670 net.cpp:148] Top shape: 24 64 56 56 (4816896)
I0403 19:22:48.986928 19670 net.cpp:156] Memory required for data: 245662752
I0403 19:22:48.986943 19670 layer_factory.hpp:77] Creating layer conv2/3x3
I0403 19:22:48.986965 19670 net.cpp:91] Creating Layer conv2/3x3
I0403 19:22:48.986987 19670 net.cpp:425] conv2/3x3 <- conv2/3x3_reduce
I0403 19:22:48.987009 19670 net.cpp:399] conv2/3x3 -> conv2/3x3
I0403 19:22:48.989226 19670 net.cpp:141] Setting up conv2/3x3
I0403 19:22:48.989255 19670 net.cpp:148] Top shape: 24 192 56 56 (14450688)
I0403 19:22:48.989271 19670 net.cpp:156] Memory required for data: 303465504
I0403 19:22:48.989291 19670 layer_factory.hpp:77] Creating layer conv2/relu_3x3
I0403 19:22:48.989312 19670 net.cpp:91] Creating Layer conv2/relu_3x3
I0403 19:22:48.989329 19670 net.cpp:425] conv2/relu_3x3 <- conv2/3x3
I0403 19:22:48.989346 19670 net.cpp:386] conv2/relu_3x3 -> conv2/3x3 (in-place)
I0403 19:22:48.989517 19670 net.cpp:141] Setting up conv2/relu_3x3
I0403 19:22:48.989544 19670 net.cpp:148] Top shape: 24 192 56 56 (14450688)
I0403 19:22:48.989589 19670 net.cpp:156] Memory required for data: 361268256
I0403 19:22:48.989605 19670 layer_factory.hpp:77] Creating layer conv2/norm2
I0403 19:22:48.989622 19670 net.cpp:91] Creating Layer conv2/norm2
I0403 19:22:48.989639 19670 net.cpp:425] conv2/norm2 <- conv2/3x3
I0403 19:22:48.989657 19670 net.cpp:399] conv2/norm2 -> conv2/norm2
I0403 19:22:48.989953 19670 net.cpp:141] Setting up conv2/norm2
I0403 19:22:48.989984 19670 net.cpp:148] Top shape: 24 192 56 56 (14450688)
I0403 19:22:48.990000 19670 net.cpp:156] Memory required for data: 419071008
I0403 19:22:48.990015 19670 layer_factory.hpp:77] Creating layer pool2/3x3_s2
I0403 19:22:48.990032 19670 net.cpp:91] Creating Layer pool2/3x3_s2
I0403 19:22:48.990047 19670 net.cpp:425] pool2/3x3_s2 <- conv2/norm2
I0403 19:22:48.990067 19670 net.cpp:399] pool2/3x3_s2 -> pool2/3x3_s2
I0403 19:22:48.990118 19670 net.cpp:141] Setting up pool2/3x3_s2
I0403 19:22:48.990139 19670 net.cpp:148] Top shape: 24 192 28 28 (3612672)
I0403 19:22:48.990154 19670 net.cpp:156] Memory required for data: 433521696
I0403 19:22:48.990167 19670 layer_factory.hpp:77] Creating layer pool2/3x3_s2_pool2/3x3_s2_0_split
I0403 19:22:48.990186 19670 net.cpp:91] Creating Layer pool2/3x3_s2_pool2/3x3_s2_0_split
I0403 19:22:48.990206 19670 net.cpp:425] pool2/3x3_s2_pool2/3x3_s2_0_split <- pool2/3x3_s2
I0403 19:22:48.990221 19670 net.cpp:399] pool2/3x3_s2_pool2/3x3_s2_0_split -> pool2/3x3_s2_pool2/3x3_s2_0_split_0
I0403 19:22:48.990243 19670 net.cpp:399] pool2/3x3_s2_pool2/3x3_s2_0_split -> pool2/3x3_s2_pool2/3x3_s2_0_split_1
I0403 19:22:48.990263 19670 net.cpp:399] pool2/3x3_s2_pool2/3x3_s2_0_split -> pool2/3x3_s2_pool2/3x3_s2_0_split_2
I0403 19:22:48.990283 19670 net.cpp:399] pool2/3x3_s2_pool2/3x3_s2_0_split -> pool2/3x3_s2_pool2/3x3_s2_0_split_3
I0403 19:22:48.990350 19670 net.cpp:141] Setting up pool2/3x3_s2_pool2/3x3_s2_0_split
I0403 19:22:48.990371 19670 net.cpp:148] Top shape: 24 192 28 28 (3612672)
I0403 19:22:48.990387 19670 net.cpp:148] Top shape: 24 192 28 28 (3612672)
I0403 19:22:48.990402 19670 net.cpp:148] Top shape: 24 192 28 28 (3612672)
I0403 19:22:48.990417 19670 net.cpp:148] Top shape: 24 192 28 28 (3612672)
I0403 19:22:48.990430 19670 net.cpp:156] Memory required for data: 491324448
I0403 19:22:48.990444 19670 layer_factory.hpp:77] Creating layer inception_3a/1x1
I0403 19:22:48.990466 19670 net.cpp:91] Creating Layer inception_3a/1x1
I0403 19:22:48.990483 19670 net.cpp:425] inception_3a/1x1 <- pool2/3x3_s2_pool2/3x3_s2_0_split_0
I0403 19:22:48.990504 19670 net.cpp:399] inception_3a/1x1 -> inception_3a/1x1
I0403 19:22:48.991986 19670 net.cpp:141] Setting up inception_3a/1x1
I0403 19:22:48.992015 19670 net.cpp:148] Top shape: 24 64 28 28 (1204224)
I0403 19:22:48.992033 19670 net.cpp:156] Memory required for data: 496141344
I0403 19:22:48.992050 19670 layer_factory.hpp:77] Creating layer inception_3a/relu_1x1
I0403 19:22:48.992071 19670 net.cpp:91] Creating Layer inception_3a/relu_1x1
I0403 19:22:48.992089 19670 net.cpp:425] inception_3a/relu_1x1 <- inception_3a/1x1
I0403 19:22:48.992105 19670 net.cpp:386] inception_3a/relu_1x1 -> inception_3a/1x1 (in-place)
I0403 19:22:48.992288 19670 net.cpp:141] Setting up inception_3a/relu_1x1
I0403 19:22:48.992312 19670 net.cpp:148] Top shape: 24 64 28 28 (1204224)
I0403 19:22:48.992327 19670 net.cpp:156] Memory required for data: 500958240
I0403 19:22:48.992341 19670 layer_factory.hpp:77] Creating layer inception_3a/3x3_reduce
I0403 19:22:48.992362 19670 net.cpp:91] Creating Layer inception_3a/3x3_reduce
I0403 19:22:48.992380 19670 net.cpp:425] inception_3a/3x3_reduce <- pool2/3x3_s2_pool2/3x3_s2_0_split_1
I0403 19:22:48.992401 19670 net.cpp:399] inception_3a/3x3_reduce -> inception_3a/3x3_reduce
I0403 19:22:48.994036 19670 net.cpp:141] Setting up inception_3a/3x3_reduce
I0403 19:22:48.994065 19670 net.cpp:148] Top shape: 24 96 28 28 (1806336)
I0403 19:22:48.994081 19670 net.cpp:156] Memory required for data: 508183584
I0403 19:22:48.994101 19670 layer_factory.hpp:77] Creating layer inception_3a/relu_3x3_reduce
I0403 19:22:48.994137 19670 net.cpp:91] Creating Layer inception_3a/relu_3x3_reduce
I0403 19:22:48.994153 19670 net.cpp:425] inception_3a/relu_3x3_reduce <- inception_3a/3x3_reduce
I0403 19:22:48.994170 19670 net.cpp:386] inception_3a/relu_3x3_reduce -> inception_3a/3x3_reduce (in-place)
I0403 19:22:48.994350 19670 net.cpp:141] Setting up inception_3a/relu_3x3_reduce
I0403 19:22:48.994375 19670 net.cpp:148] Top shape: 24 96 28 28 (1806336)
I0403 19:22:48.994390 19670 net.cpp:156] Memory required for data: 515408928
I0403 19:22:48.994405 19670 layer_factory.hpp:77] Creating layer inception_3a/3x3
I0403 19:22:48.994426 19670 net.cpp:91] Creating Layer inception_3a/3x3
I0403 19:22:48.994443 19670 net.cpp:425] inception_3a/3x3 <- inception_3a/3x3_reduce
I0403 19:22:48.994465 19670 net.cpp:399] inception_3a/3x3 -> inception_3a/3x3
I0403 19:22:48.996093 19670 net.cpp:141] Setting up inception_3a/3x3
I0403 19:22:48.996120 19670 net.cpp:148] Top shape: 24 128 28 28 (2408448)
I0403 19:22:48.996136 19670 net.cpp:156] Memory required for data: 525042720
I0403 19:22:48.996153 19670 layer_factory.hpp:77] Creating layer inception_3a/relu_3x3
I0403 19:22:48.996175 19670 net.cpp:91] Creating Layer inception_3a/relu_3x3
I0403 19:22:48.996191 19670 net.cpp:425] inception_3a/relu_3x3 <- inception_3a/3x3
I0403 19:22:48.996208 19670 net.cpp:386] inception_3a/relu_3x3 -> inception_3a/3x3 (in-place)
I0403 19:22:48.996477 19670 net.cpp:141] Setting up inception_3a/relu_3x3
I0403 19:22:48.996503 19670 net.cpp:148] Top shape: 24 128 28 28 (2408448)
I0403 19:22:48.996518 19670 net.cpp:156] Memory required for data: 534676512
I0403 19:22:48.996532 19670 layer_factory.hpp:77] Creating layer inception_3a/5x5_reduce
I0403 19:22:48.996554 19670 net.cpp:91] Creating Layer inception_3a/5x5_reduce
I0403 19:22:48.996572 19670 net.cpp:425] inception_3a/5x5_reduce <- pool2/3x3_s2_pool2/3x3_s2_0_split_2
I0403 19:22:48.996592 19670 net.cpp:399] inception_3a/5x5_reduce -> inception_3a/5x5_reduce
I0403 19:22:48.997530 19670 net.cpp:141] Setting up inception_3a/5x5_reduce
I0403 19:22:48.997557 19670 net.cpp:148] Top shape: 24 16 28 28 (301056)
I0403 19:22:48.997573 19670 net.cpp:156] Memory required for data: 535880736
I0403 19:22:48.997591 19670 layer_factory.hpp:77] Creating layer inception_3a/relu_5x5_reduce
I0403 19:22:48.997611 19670 net.cpp:91] Creating Layer inception_3a/relu_5x5_reduce
I0403 19:22:48.997627 19670 net.cpp:425] inception_3a/relu_5x5_reduce <- inception_3a/5x5_reduce
I0403 19:22:48.997645 19670 net.cpp:386] inception_3a/relu_5x5_reduce -> inception_3a/5x5_reduce (in-place)
I0403 19:22:48.997938 19670 net.cpp:141] Setting up inception_3a/relu_5x5_reduce
I0403 19:22:48.997967 19670 net.cpp:148] Top shape: 24 16 28 28 (301056)
I0403 19:22:48.997985 19670 net.cpp:156] Memory required for data: 537084960
I0403 19:22:48.998002 19670 layer_factory.hpp:77] Creating layer inception_3a/5x5
I0403 19:22:48.998024 19670 net.cpp:91] Creating Layer inception_3a/5x5
I0403 19:22:48.998041 19670 net.cpp:425] inception_3a/5x5 <- inception_3a/5x5_reduce
I0403 19:22:48.998060 19670 net.cpp:399] inception_3a/5x5 -> inception_3a/5x5
I0403 19:22:48.999044 19670 net.cpp:141] Setting up inception_3a/5x5
I0403 19:22:48.999071 19670 net.cpp:148] Top shape: 24 32 28 28 (602112)
I0403 19:22:48.999088 19670 net.cpp:156] Memory required for data: 539493408
I0403 19:22:48.999105 19670 layer_factory.hpp:77] Creating layer inception_3a/relu_5x5
I0403 19:22:48.999125 19670 net.cpp:91] Creating Layer inception_3a/relu_5x5
I0403 19:22:48.999142 19670 net.cpp:425] inception_3a/relu_5x5 <- inception_3a/5x5
I0403 19:22:48.999160 19670 net.cpp:386] inception_3a/relu_5x5 -> inception_3a/5x5 (in-place)
I0403 19:22:48.999326 19670 net.cpp:141] Setting up inception_3a/relu_5x5
I0403 19:22:48.999351 19670 net.cpp:148] Top shape: 24 32 28 28 (602112)
I0403 19:22:48.999366 19670 net.cpp:156] Memory required for data: 541901856
I0403 19:22:48.999379 19670 layer_factory.hpp:77] Creating layer inception_3a/pool
I0403 19:22:48.999399 19670 net.cpp:91] Creating Layer inception_3a/pool
I0403 19:22:48.999428 19670 net.cpp:425] inception_3a/pool <- pool2/3x3_s2_pool2/3x3_s2_0_split_3
I0403 19:22:48.999446 19670 net.cpp:399] inception_3a/pool -> inception_3a/pool
I0403 19:22:48.999503 19670 net.cpp:141] Setting up inception_3a/pool
I0403 19:22:48.999526 19670 net.cpp:148] Top shape: 24 192 28 28 (3612672)
I0403 19:22:48.999541 19670 net.cpp:156] Memory required for data: 556352544
I0403 19:22:48.999554 19670 layer_factory.hpp:77] Creating layer inception_3a/pool_proj
I0403 19:22:48.999575 19670 net.cpp:91] Creating Layer inception_3a/pool_proj
I0403 19:22:48.999593 19670 net.cpp:425] inception_3a/pool_proj <- inception_3a/pool
I0403 19:22:48.999613 19670 net.cpp:399] inception_3a/pool_proj -> inception_3a/pool_proj
I0403 19:22:49.000547 19670 net.cpp:141] Setting up inception_3a/pool_proj
I0403 19:22:49.000577 19670 net.cpp:148] Top shape: 24 32 28 28 (602112)
I0403 19:22:49.000593 19670 net.cpp:156] Memory required for data: 558760992
I0403 19:22:49.000614 19670 layer_factory.hpp:77] Creating layer inception_3a/relu_pool_proj
I0403 19:22:49.000635 19670 net.cpp:91] Creating Layer inception_3a/relu_pool_proj
I0403 19:22:49.000653 19670 net.cpp:425] inception_3a/relu_pool_proj <- inception_3a/pool_proj
I0403 19:22:49.000669 19670 net.cpp:386] inception_3a/relu_pool_proj -> inception_3a/pool_proj (in-place)
I0403 19:22:49.000938 19670 net.cpp:141] Setting up inception_3a/relu_pool_proj
I0403 19:22:49.000965 19670 net.cpp:148] Top shape: 24 32 28 28 (602112)
I0403 19:22:49.000984 19670 net.cpp:156] Memory required for data: 561169440
I0403 19:22:49.001000 19670 layer_factory.hpp:77] Creating layer inception_3a/output
I0403 19:22:49.001020 19670 net.cpp:91] Creating Layer inception_3a/output
I0403 19:22:49.001037 19670 net.cpp:425] inception_3a/output <- inception_3a/1x1
I0403 19:22:49.001054 19670 net.cpp:425] inception_3a/output <- inception_3a/3x3
I0403 19:22:49.001070 19670 net.cpp:425] inception_3a/output <- inception_3a/5x5
I0403 19:22:49.001085 19670 net.cpp:425] inception_3a/output <- inception_3a/pool_proj
I0403 19:22:49.001101 19670 net.cpp:399] inception_3a/output -> inception_3a/output
I0403 19:22:49.001148 19670 net.cpp:141] Setting up inception_3a/output
I0403 19:22:49.001171 19670 net.cpp:148] Top shape: 24 256 28 28 (4816896)
I0403 19:22:49.001185 19670 net.cpp:156] Memory required for data: 580437024
I0403 19:22:49.001200 19670 layer_factory.hpp:77] Creating layer inception_3a/output_inception_3a/output_0_split
I0403 19:22:49.001221 19670 net.cpp:91] Creating Layer inception_3a/output_inception_3a/output_0_split
I0403 19:22:49.001235 19670 net.cpp:425] inception_3a/output_inception_3a/output_0_split <- inception_3a/output
I0403 19:22:49.001255 19670 net.cpp:399] inception_3a/output_inception_3a/output_0_split -> inception_3a/output_inception_3a/output_0_split_0
I0403 19:22:49.001274 19670 net.cpp:399] inception_3a/output_inception_3a/output_0_split -> inception_3a/output_inception_3a/output_0_split_1
I0403 19:22:49.001296 19670 net.cpp:399] inception_3a/output_inception_3a/output_0_split -> inception_3a/output_inception_3a/output_0_split_2
I0403 19:22:49.001317 19670 net.cpp:399] inception_3a/output_inception_3a/output_0_split -> inception_3a/output_inception_3a/output_0_split_3
I0403 19:22:49.001389 19670 net.cpp:141] Setting up inception_3a/output_inception_3a/output_0_split
I0403 19:22:49.001411 19670 net.cpp:148] Top shape: 24 256 28 28 (4816896)
I0403 19:22:49.001427 19670 net.cpp:148] Top shape: 24 256 28 28 (4816896)
I0403 19:22:49.001442 19670 net.cpp:148] Top shape: 24 256 28 28 (4816896)
I0403 19:22:49.001457 19670 net.cpp:148] Top shape: 24 256 28 28 (4816896)
I0403 19:22:49.001471 19670 net.cpp:156] Memory required for data: 657507360
I0403 19:22:49.001485 19670 layer_factory.hpp:77] Creating layer inception_3b/1x1
I0403 19:22:49.001507 19670 net.cpp:91] Creating Layer inception_3b/1x1
I0403 19:22:49.001523 19670 net.cpp:425] inception_3b/1x1 <- inception_3a/output_inception_3a/output_0_split_0
I0403 19:22:49.001543 19670 net.cpp:399] inception_3b/1x1 -> inception_3b/1x1
I0403 19:22:49.002645 19670 net.cpp:141] Setting up inception_3b/1x1
I0403 19:22:49.002682 19670 net.cpp:148] Top shape: 24 128 28 28 (2408448)
I0403 19:22:49.002699 19670 net.cpp:156] Memory required for data: 667141152
I0403 19:22:49.002717 19670 layer_factory.hpp:77] Creating layer inception_3b/relu_1x1
I0403 19:22:49.002735 19670 net.cpp:91] Creating Layer inception_3b/relu_1x1
I0403 19:22:49.002750 19670 net.cpp:425] inception_3b/relu_1x1 <- inception_3b/1x1
I0403 19:22:49.002769 19670 net.cpp:386] inception_3b/relu_1x1 -> inception_3b/1x1 (in-place)
I0403 19:22:49.002940 19670 net.cpp:141] Setting up inception_3b/relu_1x1
I0403 19:22:49.002964 19670 net.cpp:148] Top shape: 24 128 28 28 (2408448)
I0403 19:22:49.002982 19670 net.cpp:156] Memory required for data: 676774944
I0403 19:22:49.002998 19670 layer_factory.hpp:77] Creating layer inception_3b/3x3_reduce
I0403 19:22:49.003020 19670 net.cpp:91] Creating Layer inception_3b/3x3_reduce
I0403 19:22:49.003036 19670 net.cpp:425] inception_3b/3x3_reduce <- inception_3a/output_inception_3a/output_0_split_1
I0403 19:22:49.003057 19670 net.cpp:399] inception_3b/3x3_reduce -> inception_3b/3x3_reduce
I0403 19:22:49.004156 19670 net.cpp:141] Setting up inception_3b/3x3_reduce
I0403 19:22:49.004184 19670 net.cpp:148] Top shape: 24 128 28 28 (2408448)
I0403 19:22:49.004199 19670 net.cpp:156] Memory required for data: 686408736
I0403 19:22:49.004216 19670 layer_factory.hpp:77] Creating layer inception_3b/relu_3x3_reduce
I0403 19:22:49.004235 19670 net.cpp:91] Creating Layer inception_3b/relu_3x3_reduce
I0403 19:22:49.004251 19670 net.cpp:425] inception_3b/relu_3x3_reduce <- inception_3b/3x3_reduce
I0403 19:22:49.004269 19670 net.cpp:386] inception_3b/relu_3x3_reduce -> inception_3b/3x3_reduce (in-place)
I0403 19:22:49.004449 19670 net.cpp:141] Setting up inception_3b/relu_3x3_reduce
I0403 19:22:49.004474 19670 net.cpp:148] Top shape: 24 128 28 28 (2408448)
I0403 19:22:49.004489 19670 net.cpp:156] Memory required for data: 696042528
I0403 19:22:49.004504 19670 layer_factory.hpp:77] Creating layer inception_3b/3x3
I0403 19:22:49.004529 19670 net.cpp:91] Creating Layer inception_3b/3x3
I0403 19:22:49.004549 19670 net.cpp:425] inception_3b/3x3 <- inception_3b/3x3_reduce
I0403 19:22:49.004567 19670 net.cpp:399] inception_3b/3x3 -> inception_3b/3x3
I0403 19:22:49.007395 19670 net.cpp:141] Setting up inception_3b/3x3
I0403 19:22:49.007423 19670 net.cpp:148] Top shape: 24 192 28 28 (3612672)
I0403 19:22:49.007439 19670 net.cpp:156] Memory required for data: 710493216
I0403 19:22:49.007457 19670 layer_factory.hpp:77] Creating layer inception_3b/relu_3x3
I0403 19:22:49.007478 19670 net.cpp:91] Creating Layer inception_3b/relu_3x3
I0403 19:22:49.007495 19670 net.cpp:425] inception_3b/relu_3x3 <- inception_3b/3x3
I0403 19:22:49.007513 19670 net.cpp:386] inception_3b/relu_3x3 -> inception_3b/3x3 (in-place)
I0403 19:22:49.007781 19670 net.cpp:141] Setting up inception_3b/relu_3x3
I0403 19:22:49.007807 19670 net.cpp:148] Top shape: 24 192 28 28 (3612672)
I0403 19:22:49.007822 19670 net.cpp:156] Memory required for data: 724943904
I0403 19:22:49.007838 19670 layer_factory.hpp:77] Creating layer inception_3b/5x5_reduce
I0403 19:22:49.007859 19670 net.cpp:91] Creating Layer inception_3b/5x5_reduce
I0403 19:22:49.007876 19670 net.cpp:425] inception_3b/5x5_reduce <- inception_3a/output_inception_3a/output_0_split_2
I0403 19:22:49.007899 19670 net.cpp:399] inception_3b/5x5_reduce -> inception_3b/5x5_reduce
I0403 19:22:49.008860 19670 net.cpp:141] Setting up inception_3b/5x5_reduce
I0403 19:22:49.008888 19670 net.cpp:148] Top shape: 24 32 28 28 (602112)
I0403 19:22:49.008903 19670 net.cpp:156] Memory required for data: 727352352
I0403 19:22:49.008920 19670 layer_factory.hpp:77] Creating layer inception_3b/relu_5x5_reduce
I0403 19:22:49.008940 19670 net.cpp:91] Creating Layer inception_3b/relu_5x5_reduce
I0403 19:22:49.008957 19670 net.cpp:425] inception_3b/relu_5x5_reduce <- inception_3b/5x5_reduce
I0403 19:22:49.008973 19670 net.cpp:386] inception_3b/relu_5x5_reduce -> inception_3b/5x5_reduce (in-place)
I0403 19:22:49.009171 19670 net.cpp:141] Setting up inception_3b/relu_5x5_reduce
I0403 19:22:49.009196 19670 net.cpp:148] Top shape: 24 32 28 28 (602112)
I0403 19:22:49.009212 19670 net.cpp:156] Memory required for data: 729760800
I0403 19:22:49.009227 19670 layer_factory.hpp:77] Creating layer inception_3b/5x5
I0403 19:22:49.009249 19670 net.cpp:91] Creating Layer inception_3b/5x5
I0403 19:22:49.009266 19670 net.cpp:425] inception_3b/5x5 <- inception_3b/5x5_reduce
I0403 19:22:49.009285 19670 net.cpp:399] inception_3b/5x5 -> inception_3b/5x5
I0403 19:22:49.011224 19670 net.cpp:141] Setting up inception_3b/5x5
I0403 19:22:49.011255 19670 net.cpp:148] Top shape: 24 96 28 28 (1806336)
I0403 19:22:49.011271 19670 net.cpp:156] Memory required for data: 736986144
I0403 19:22:49.011289 19670 layer_factory.hpp:77] Creating layer inception_3b/relu_5x5
I0403 19:22:49.011307 19670 net.cpp:91] Creating Layer inception_3b/relu_5x5
I0403 19:22:49.011322 19670 net.cpp:425] inception_3b/relu_5x5 <- inception_3b/5x5
I0403 19:22:49.011342 19670 net.cpp:386] inception_3b/relu_5x5 -> inception_3b/5x5 (in-place)
I0403 19:22:49.011526 19670 net.cpp:141] Setting up inception_3b/relu_5x5
I0403 19:22:49.011551 19670 net.cpp:148] Top shape: 24 96 28 28 (1806336)
I0403 19:22:49.011566 19670 net.cpp:156] Memory required for data: 744211488
I0403 19:22:49.011581 19670 layer_factory.hpp:77] Creating layer inception_3b/pool
I0403 19:22:49.011598 19670 net.cpp:91] Creating Layer inception_3b/pool
I0403 19:22:49.011615 19670 net.cpp:425] inception_3b/pool <- inception_3a/output_inception_3a/output_0_split_3
I0403 19:22:49.011632 19670 net.cpp:399] inception_3b/pool -> inception_3b/pool
I0403 19:22:49.011688 19670 net.cpp:141] Setting up inception_3b/pool
I0403 19:22:49.011711 19670 net.cpp:148] Top shape: 24 256 28 28 (4816896)
I0403 19:22:49.011725 19670 net.cpp:156] Memory required for data: 763479072
I0403 19:22:49.011740 19670 layer_factory.hpp:77] Creating layer inception_3b/pool_proj
I0403 19:22:49.011761 19670 net.cpp:91] Creating Layer inception_3b/pool_proj
I0403 19:22:49.011778 19670 net.cpp:425] inception_3b/pool_proj <- inception_3b/pool
I0403 19:22:49.011798 19670 net.cpp:399] inception_3b/pool_proj -> inception_3b/pool_proj
I0403 19:22:49.012830 19670 net.cpp:141] Setting up inception_3b/pool_proj
I0403 19:22:49.012857 19670 net.cpp:148] Top shape: 24 64 28 28 (1204224)
I0403 19:22:49.012873 19670 net.cpp:156] Memory required for data: 768295968
I0403 19:22:49.012892 19670 layer_factory.hpp:77] Creating layer inception_3b/relu_pool_proj
I0403 19:22:49.012912 19670 net.cpp:91] Creating Layer inception_3b/relu_pool_proj
I0403 19:22:49.012928 19670 net.cpp:425] inception_3b/relu_pool_proj <- inception_3b/pool_proj
I0403 19:22:49.012944 19670 net.cpp:386] inception_3b/relu_pool_proj -> inception_3b/pool_proj (in-place)
I0403 19:22:49.013341 19670 net.cpp:141] Setting up inception_3b/relu_pool_proj
I0403 19:22:49.013367 19670 net.cpp:148] Top shape: 24 64 28 28 (1204224)
I0403 19:22:49.013386 19670 net.cpp:156] Memory required for data: 773112864
I0403 19:22:49.013399 19670 layer_factory.hpp:77] Creating layer inception_3b/output
I0403 19:22:49.013417 19670 net.cpp:91] Creating Layer inception_3b/output
I0403 19:22:49.013432 19670 net.cpp:425] inception_3b/output <- inception_3b/1x1
I0403 19:22:49.013448 19670 net.cpp:425] inception_3b/output <- inception_3b/3x3
I0403 19:22:49.013464 19670 net.cpp:425] inception_3b/output <- inception_3b/5x5
I0403 19:22:49.013479 19670 net.cpp:425] inception_3b/output <- inception_3b/pool_proj
I0403 19:22:49.013495 19670 net.cpp:399] inception_3b/output -> inception_3b/output
I0403 19:22:49.013540 19670 net.cpp:141] Setting up inception_3b/output
I0403 19:22:49.013561 19670 net.cpp:148] Top shape: 24 480 28 28 (9031680)
I0403 19:22:49.013576 19670 net.cpp:156] Memory required for data: 809239584
I0403 19:22:49.013591 19670 layer_factory.hpp:77] Creating layer pool3/3x3_s2
I0403 19:22:49.013607 19670 net.cpp:91] Creating Layer pool3/3x3_s2
I0403 19:22:49.013628 19670 net.cpp:425] pool3/3x3_s2 <- inception_3b/output
I0403 19:22:49.013659 19670 net.cpp:399] pool3/3x3_s2 -> pool3/3x3_s2
I0403 19:22:49.013716 19670 net.cpp:141] Setting up pool3/3x3_s2
I0403 19:22:49.013739 19670 net.cpp:148] Top shape: 24 480 14 14 (2257920)
I0403 19:22:49.013753 19670 net.cpp:156] Memory required for data: 818271264
I0403 19:22:49.013767 19670 layer_factory.hpp:77] Creating layer pool3/3x3_s2_pool3/3x3_s2_0_split
I0403 19:22:49.013784 19670 net.cpp:91] Creating Layer pool3/3x3_s2_pool3/3x3_s2_0_split
I0403 19:22:49.013799 19670 net.cpp:425] pool3/3x3_s2_pool3/3x3_s2_0_split <- pool3/3x3_s2
I0403 19:22:49.013818 19670 net.cpp:399] pool3/3x3_s2_pool3/3x3_s2_0_split -> pool3/3x3_s2_pool3/3x3_s2_0_split_0
I0403 19:22:49.013839 19670 net.cpp:399] pool3/3x3_s2_pool3/3x3_s2_0_split -> pool3/3x3_s2_pool3/3x3_s2_0_split_1
I0403 19:22:49.013857 19670 net.cpp:399] pool3/3x3_s2_pool3/3x3_s2_0_split -> pool3/3x3_s2_pool3/3x3_s2_0_split_2
I0403 19:22:49.013877 19670 net.cpp:399] pool3/3x3_s2_pool3/3x3_s2_0_split -> pool3/3x3_s2_pool3/3x3_s2_0_split_3
I0403 19:22:49.013952 19670 net.cpp:141] Setting up pool3/3x3_s2_pool3/3x3_s2_0_split
I0403 19:22:49.013974 19670 net.cpp:148] Top shape: 24 480 14 14 (2257920)
I0403 19:22:49.013994 19670 net.cpp:148] Top shape: 24 480 14 14 (2257920)
I0403 19:22:49.014010 19670 net.cpp:148] Top shape: 24 480 14 14 (2257920)
I0403 19:22:49.014025 19670 net.cpp:148] Top shape: 24 480 14 14 (2257920)
I0403 19:22:49.014039 19670 net.cpp:156] Memory required for data: 854397984
I0403 19:22:49.014052 19670 layer_factory.hpp:77] Creating layer inception_4a/1x1
I0403 19:22:49.014076 19670 net.cpp:91] Creating Layer inception_4a/1x1
I0403 19:22:49.014093 19670 net.cpp:425] inception_4a/1x1 <- pool3/3x3_s2_pool3/3x3_s2_0_split_0
I0403 19:22:49.014112 19670 net.cpp:399] inception_4a/1x1 -> inception_4a/1x1
I0403 19:22:49.015657 19670 net.cpp:141] Setting up inception_4a/1x1
I0403 19:22:49.015686 19670 net.cpp:148] Top shape: 24 192 14 14 (903168)
I0403 19:22:49.015702 19670 net.cpp:156] Memory required for data: 858010656
I0403 19:22:49.015720 19670 layer_factory.hpp:77] Creating layer inception_4a/relu_1x1
I0403 19:22:49.015738 19670 net.cpp:91] Creating Layer inception_4a/relu_1x1
I0403 19:22:49.015754 19670 net.cpp:425] inception_4a/relu_1x1 <- inception_4a/1x1
I0403 19:22:49.015774 19670 net.cpp:386] inception_4a/relu_1x1 -> inception_4a/1x1 (in-place)
I0403 19:22:49.015944 19670 net.cpp:141] Setting up inception_4a/relu_1x1
I0403 19:22:49.015969 19670 net.cpp:148] Top shape: 24 192 14 14 (903168)
I0403 19:22:49.015987 19670 net.cpp:156] Memory required for data: 861623328
I0403 19:22:49.016003 19670 layer_factory.hpp:77] Creating layer inception_4a/3x3_reduce
I0403 19:22:49.016024 19670 net.cpp:91] Creating Layer inception_4a/3x3_reduce
I0403 19:22:49.016041 19670 net.cpp:425] inception_4a/3x3_reduce <- pool3/3x3_s2_pool3/3x3_s2_0_split_1
I0403 19:22:49.016062 19670 net.cpp:399] inception_4a/3x3_reduce -> inception_4a/3x3_reduce
I0403 19:22:49.017282 19670 net.cpp:141] Setting up inception_4a/3x3_reduce
I0403 19:22:49.017310 19670 net.cpp:148] Top shape: 24 96 14 14 (451584)
I0403 19:22:49.017328 19670 net.cpp:156] Memory required for data: 863429664
I0403 19:22:49.017349 19670 layer_factory.hpp:77] Creating layer inception_4a/relu_3x3_reduce
I0403 19:22:49.017369 19670 net.cpp:91] Creating Layer inception_4a/relu_3x3_reduce
I0403 19:22:49.017386 19670 net.cpp:425] inception_4a/relu_3x3_reduce <- inception_4a/3x3_reduce
I0403 19:22:49.017405 19670 net.cpp:386] inception_4a/relu_3x3_reduce -> inception_4a/3x3_reduce (in-place)
I0403 19:22:49.017576 19670 net.cpp:141] Setting up inception_4a/relu_3x3_reduce
I0403 19:22:49.017601 19670 net.cpp:148] Top shape: 24 96 14 14 (451584)
I0403 19:22:49.017616 19670 net.cpp:156] Memory required for data: 865236000
I0403 19:22:49.017629 19670 layer_factory.hpp:77] Creating layer inception_4a/3x3
I0403 19:22:49.017652 19670 net.cpp:91] Creating Layer inception_4a/3x3
I0403 19:22:49.017668 19670 net.cpp:425] inception_4a/3x3 <- inception_4a/3x3_reduce
I0403 19:22:49.017689 19670 net.cpp:399] inception_4a/3x3 -> inception_4a/3x3
I0403 19:22:49.020262 19670 net.cpp:141] Setting up inception_4a/3x3
I0403 19:22:49.020289 19670 net.cpp:148] Top shape: 24 208 14 14 (978432)
I0403 19:22:49.020305 19670 net.cpp:156] Memory required for data: 869149728
I0403 19:22:49.020323 19670 layer_factory.hpp:77] Creating layer inception_4a/relu_3x3
I0403 19:22:49.020341 19670 net.cpp:91] Creating Layer inception_4a/relu_3x3
I0403 19:22:49.020360 19670 net.cpp:425] inception_4a/relu_3x3 <- inception_4a/3x3
I0403 19:22:49.020377 19670 net.cpp:386] inception_4a/relu_3x3 -> inception_4a/3x3 (in-place)
I0403 19:22:49.020648 19670 net.cpp:141] Setting up inception_4a/relu_3x3
I0403 19:22:49.020673 19670 net.cpp:148] Top shape: 24 208 14 14 (978432)
I0403 19:22:49.020687 19670 net.cpp:156] Memory required for data: 873063456
I0403 19:22:49.020702 19670 layer_factory.hpp:77] Creating layer inception_4a/5x5_reduce
I0403 19:22:49.020725 19670 net.cpp:91] Creating Layer inception_4a/5x5_reduce
I0403 19:22:49.020742 19670 net.cpp:425] inception_4a/5x5_reduce <- pool3/3x3_s2_pool3/3x3_s2_0_split_2
I0403 19:22:49.020762 19670 net.cpp:399] inception_4a/5x5_reduce -> inception_4a/5x5_reduce
I0403 19:22:49.021733 19670 net.cpp:141] Setting up inception_4a/5x5_reduce
I0403 19:22:49.021760 19670 net.cpp:148] Top shape: 24 16 14 14 (75264)
I0403 19:22:49.021776 19670 net.cpp:156] Memory required for data: 873364512
I0403 19:22:49.021793 19670 layer_factory.hpp:77] Creating layer inception_4a/relu_5x5_reduce
I0403 19:22:49.021816 19670 net.cpp:91] Creating Layer inception_4a/relu_5x5_reduce
I0403 19:22:49.021833 19670 net.cpp:425] inception_4a/relu_5x5_reduce <- inception_4a/5x5_reduce
I0403 19:22:49.021850 19670 net.cpp:386] inception_4a/relu_5x5_reduce -> inception_4a/5x5_reduce (in-place)
I0403 19:22:49.022023 19670 net.cpp:141] Setting up inception_4a/relu_5x5_reduce
I0403 19:22:49.022048 19670 net.cpp:148] Top shape: 24 16 14 14 (75264)
I0403 19:22:49.022063 19670 net.cpp:156] Memory required for data: 873665568
I0403 19:22:49.022078 19670 layer_factory.hpp:77] Creating layer inception_4a/5x5
I0403 19:22:49.022101 19670 net.cpp:91] Creating Layer inception_4a/5x5
I0403 19:22:49.022119 19670 net.cpp:425] inception_4a/5x5 <- inception_4a/5x5_reduce
I0403 19:22:49.022137 19670 net.cpp:399] inception_4a/5x5 -> inception_4a/5x5
I0403 19:22:49.023172 19670 net.cpp:141] Setting up inception_4a/5x5
I0403 19:22:49.023200 19670 net.cpp:148] Top shape: 24 48 14 14 (225792)
I0403 19:22:49.023217 19670 net.cpp:156] Memory required for data: 874568736
I0403 19:22:49.023236 19670 layer_factory.hpp:77] Creating layer inception_4a/relu_5x5
I0403 19:22:49.023254 19670 net.cpp:91] Creating Layer inception_4a/relu_5x5
I0403 19:22:49.023270 19670 net.cpp:425] inception_4a/relu_5x5 <- inception_4a/5x5
I0403 19:22:49.023286 19670 net.cpp:386] inception_4a/relu_5x5 -> inception_4a/5x5 (in-place)
I0403 19:22:49.023454 19670 net.cpp:141] Setting up inception_4a/relu_5x5
I0403 19:22:49.023481 19670 net.cpp:148] Top shape: 24 48 14 14 (225792)
I0403 19:22:49.023497 19670 net.cpp:156] Memory required for data: 875471904
I0403 19:22:49.023512 19670 layer_factory.hpp:77] Creating layer inception_4a/pool
I0403 19:22:49.023530 19670 net.cpp:91] Creating Layer inception_4a/pool
I0403 19:22:49.023545 19670 net.cpp:425] inception_4a/pool <- pool3/3x3_s2_pool3/3x3_s2_0_split_3
I0403 19:22:49.023564 19670 net.cpp:399] inception_4a/pool -> inception_4a/pool
I0403 19:22:49.023623 19670 net.cpp:141] Setting up inception_4a/pool
I0403 19:22:49.023648 19670 net.cpp:148] Top shape: 24 480 14 14 (2257920)
I0403 19:22:49.023664 19670 net.cpp:156] Memory required for data: 884503584
I0403 19:22:49.023679 19670 layer_factory.hpp:77] Creating layer inception_4a/pool_proj
I0403 19:22:49.023697 19670 net.cpp:91] Creating Layer inception_4a/pool_proj
I0403 19:22:49.023715 19670 net.cpp:425] inception_4a/pool_proj <- inception_4a/pool
I0403 19:22:49.023733 19670 net.cpp:399] inception_4a/pool_proj -> inception_4a/pool_proj
I0403 19:22:49.024852 19670 net.cpp:141] Setting up inception_4a/pool_proj
I0403 19:22:49.024883 19670 net.cpp:148] Top shape: 24 64 14 14 (301056)
I0403 19:22:49.024911 19670 net.cpp:156] Memory required for data: 885707808
I0403 19:22:49.024942 19670 layer_factory.hpp:77] Creating layer inception_4a/relu_pool_proj
I0403 19:22:49.024960 19670 net.cpp:91] Creating Layer inception_4a/relu_pool_proj
I0403 19:22:49.024976 19670 net.cpp:425] inception_4a/relu_pool_proj <- inception_4a/pool_proj
I0403 19:22:49.024999 19670 net.cpp:386] inception_4a/relu_pool_proj -> inception_4a/pool_proj (in-place)
I0403 19:22:49.025292 19670 net.cpp:141] Setting up inception_4a/relu_pool_proj
I0403 19:22:49.025320 19670 net.cpp:148] Top shape: 24 64 14 14 (301056)
I0403 19:22:49.025336 19670 net.cpp:156] Memory required for data: 886912032
I0403 19:22:49.025351 19670 layer_factory.hpp:77] Creating layer inception_4a/output
I0403 19:22:49.025367 19670 net.cpp:91] Creating Layer inception_4a/output
I0403 19:22:49.025382 19670 net.cpp:425] inception_4a/output <- inception_4a/1x1
I0403 19:22:49.025399 19670 net.cpp:425] inception_4a/output <- inception_4a/3x3
I0403 19:22:49.025416 19670 net.cpp:425] inception_4a/output <- inception_4a/5x5
I0403 19:22:49.025431 19670 net.cpp:425] inception_4a/output <- inception_4a/pool_proj
I0403 19:22:49.025447 19670 net.cpp:399] inception_4a/output -> inception_4a/output
I0403 19:22:49.025491 19670 net.cpp:141] Setting up inception_4a/output
I0403 19:22:49.025514 19670 net.cpp:148] Top shape: 24 512 14 14 (2408448)
I0403 19:22:49.025528 19670 net.cpp:156] Memory required for data: 896545824
I0403 19:22:49.025542 19670 layer_factory.hpp:77] Creating layer inception_4a/output_inception_4a/output_0_split
I0403 19:22:49.025562 19670 net.cpp:91] Creating Layer inception_4a/output_inception_4a/output_0_split
I0403 19:22:49.025578 19670 net.cpp:425] inception_4a/output_inception_4a/output_0_split <- inception_4a/output
I0403 19:22:49.025595 19670 net.cpp:399] inception_4a/output_inception_4a/output_0_split -> inception_4a/output_inception_4a/output_0_split_0
I0403 19:22:49.025614 19670 net.cpp:399] inception_4a/output_inception_4a/output_0_split -> inception_4a/output_inception_4a/output_0_split_1
I0403 19:22:49.025635 19670 net.cpp:399] inception_4a/output_inception_4a/output_0_split -> inception_4a/output_inception_4a/output_0_split_2
I0403 19:22:49.025656 19670 net.cpp:399] inception_4a/output_inception_4a/output_0_split -> inception_4a/output_inception_4a/output_0_split_3
I0403 19:22:49.025677 19670 net.cpp:399] inception_4a/output_inception_4a/output_0_split -> inception_4a/output_inception_4a/output_0_split_4
I0403 19:22:49.025766 19670 net.cpp:141] Setting up inception_4a/output_inception_4a/output_0_split
I0403 19:22:49.025789 19670 net.cpp:148] Top shape: 24 512 14 14 (2408448)
I0403 19:22:49.025804 19670 net.cpp:148] Top shape: 24 512 14 14 (2408448)
I0403 19:22:49.025820 19670 net.cpp:148] Top shape: 24 512 14 14 (2408448)
I0403 19:22:49.025835 19670 net.cpp:148] Top shape: 24 512 14 14 (2408448)
I0403 19:22:49.025851 19670 net.cpp:148] Top shape: 24 512 14 14 (2408448)
I0403 19:22:49.025864 19670 net.cpp:156] Memory required for data: 944714784
I0403 19:22:49.025878 19670 layer_factory.hpp:77] Creating layer loss1/ave_pool
I0403 19:22:49.025897 19670 net.cpp:91] Creating Layer loss1/ave_pool
I0403 19:22:49.025913 19670 net.cpp:425] loss1/ave_pool <- inception_4a/output_inception_4a/output_0_split_0
I0403 19:22:49.025931 19670 net.cpp:399] loss1/ave_pool -> loss1/ave_pool
I0403 19:22:49.026127 19670 net.cpp:141] Setting up loss1/ave_pool
I0403 19:22:49.026155 19670 net.cpp:148] Top shape: 24 512 4 4 (196608)
I0403 19:22:49.026171 19670 net.cpp:156] Memory required for data: 945501216
I0403 19:22:49.026185 19670 layer_factory.hpp:77] Creating layer loss1/conv
I0403 19:22:49.026208 19670 net.cpp:91] Creating Layer loss1/conv
I0403 19:22:49.026226 19670 net.cpp:425] loss1/conv <- loss1/ave_pool
I0403 19:22:49.026244 19670 net.cpp:399] loss1/conv -> loss1/conv
I0403 19:22:49.027590 19670 net.cpp:141] Setting up loss1/conv
I0403 19:22:49.027617 19670 net.cpp:148] Top shape: 24 128 4 4 (49152)
I0403 19:22:49.027645 19670 net.cpp:156] Memory required for data: 945697824
I0403 19:22:49.027664 19670 layer_factory.hpp:77] Creating layer loss1/relu_conv
I0403 19:22:49.027684 19670 net.cpp:91] Creating Layer loss1/relu_conv
I0403 19:22:49.027700 19670 net.cpp:425] loss1/relu_conv <- loss1/conv
I0403 19:22:49.027719 19670 net.cpp:386] loss1/relu_conv -> loss1/conv (in-place)
I0403 19:22:49.027995 19670 net.cpp:141] Setting up loss1/relu_conv
I0403 19:22:49.028022 19670 net.cpp:148] Top shape: 24 128 4 4 (49152)
I0403 19:22:49.028036 19670 net.cpp:156] Memory required for data: 945894432
I0403 19:22:49.028051 19670 layer_factory.hpp:77] Creating layer loss1/fc
I0403 19:22:49.028076 19670 net.cpp:91] Creating Layer loss1/fc
I0403 19:22:49.028093 19670 net.cpp:425] loss1/fc <- loss1/conv
I0403 19:22:49.028111 19670 net.cpp:399] loss1/fc -> loss1/fc
I0403 19:22:49.045239 19670 net.cpp:141] Setting up loss1/fc
I0403 19:22:49.045272 19670 net.cpp:148] Top shape: 24 1024 (24576)
I0403 19:22:49.045289 19670 net.cpp:156] Memory required for data: 945992736
I0403 19:22:49.045308 19670 layer_factory.hpp:77] Creating layer loss1/relu_fc
I0403 19:22:49.045328 19670 net.cpp:91] Creating Layer loss1/relu_fc
I0403 19:22:49.045346 19670 net.cpp:425] loss1/relu_fc <- loss1/fc
I0403 19:22:49.045366 19670 net.cpp:386] loss1/relu_fc -> loss1/fc (in-place)
I0403 19:22:49.045542 19670 net.cpp:141] Setting up loss1/relu_fc
I0403 19:22:49.045567 19670 net.cpp:148] Top shape: 24 1024 (24576)
I0403 19:22:49.045583 19670 net.cpp:156] Memory required for data: 946091040
I0403 19:22:49.045596 19670 layer_factory.hpp:77] Creating layer loss1/drop_fc
I0403 19:22:49.045621 19670 net.cpp:91] Creating Layer loss1/drop_fc
I0403 19:22:49.045639 19670 net.cpp:425] loss1/drop_fc <- loss1/fc
I0403 19:22:49.045657 19670 net.cpp:386] loss1/drop_fc -> loss1/fc (in-place)
I0403 19:22:49.045707 19670 net.cpp:141] Setting up loss1/drop_fc
I0403 19:22:49.045730 19670 net.cpp:148] Top shape: 24 1024 (24576)
I0403 19:22:49.045744 19670 net.cpp:156] Memory required for data: 946189344
I0403 19:22:49.045758 19670 layer_factory.hpp:77] Creating layer loss1/classifier_plantvillage
I0403 19:22:49.045780 19670 net.cpp:91] Creating Layer loss1/classifier_plantvillage
I0403 19:22:49.045797 19670 net.cpp:425] loss1/classifier_plantvillage <- loss1/fc
I0403 19:22:49.045817 19670 net.cpp:399] loss1/classifier_plantvillage -> loss1/classifier_plantvillage
I0403 19:22:49.046689 19670 net.cpp:141] Setting up loss1/classifier_plantvillage
I0403 19:22:49.046717 19670 net.cpp:148] Top shape: 24 38 (912)
I0403 19:22:49.046735 19670 net.cpp:156] Memory required for data: 946192992
I0403 19:22:49.046752 19670 layer_factory.hpp:77] Creating layer loss1/classifier_plantvillage_loss1/classifier_plantvillage_0_split
I0403 19:22:49.046771 19670 net.cpp:91] Creating Layer loss1/classifier_plantvillage_loss1/classifier_plantvillage_0_split
I0403 19:22:49.046785 19670 net.cpp:425] loss1/classifier_plantvillage_loss1/classifier_plantvillage_0_split <- loss1/classifier_plantvillage
I0403 19:22:49.046805 19670 net.cpp:399] loss1/classifier_plantvillage_loss1/classifier_plantvillage_0_split -> loss1/classifier_plantvillage_loss1/classifier_plantvillage_0_split_0
I0403 19:22:49.046825 19670 net.cpp:399] loss1/classifier_plantvillage_loss1/classifier_plantvillage_0_split -> loss1/classifier_plantvillage_loss1/classifier_plantvillage_0_split_1
I0403 19:22:49.046845 19670 net.cpp:399] loss1/classifier_plantvillage_loss1/classifier_plantvillage_0_split -> loss1/classifier_plantvillage_loss1/classifier_plantvillage_0_split_2
I0403 19:22:49.046908 19670 net.cpp:141] Setting up loss1/classifier_plantvillage_loss1/classifier_plantvillage_0_split
I0403 19:22:49.046931 19670 net.cpp:148] Top shape: 24 38 (912)
I0403 19:22:49.046947 19670 net.cpp:148] Top shape: 24 38 (912)
I0403 19:22:49.046962 19670 net.cpp:148] Top shape: 24 38 (912)
I0403 19:22:49.046977 19670 net.cpp:156] Memory required for data: 946203936
I0403 19:22:49.046994 19670 layer_factory.hpp:77] Creating layer inception_4b/1x1
I0403 19:22:49.047018 19670 net.cpp:91] Creating Layer inception_4b/1x1
I0403 19:22:49.047049 19670 net.cpp:425] inception_4b/1x1 <- inception_4a/output_inception_4a/output_0_split_1
I0403 19:22:49.047067 19670 net.cpp:399] inception_4b/1x1 -> inception_4b/1x1
I0403 19:22:49.048646 19670 net.cpp:141] Setting up inception_4b/1x1
I0403 19:22:49.048673 19670 net.cpp:148] Top shape: 24 160 14 14 (752640)
I0403 19:22:49.048689 19670 net.cpp:156] Memory required for data: 949214496
I0403 19:22:49.048707 19670 layer_factory.hpp:77] Creating layer inception_4b/relu_1x1
I0403 19:22:49.048727 19670 net.cpp:91] Creating Layer inception_4b/relu_1x1
I0403 19:22:49.048744 19670 net.cpp:425] inception_4b/relu_1x1 <- inception_4b/1x1
I0403 19:22:49.048761 19670 net.cpp:386] inception_4b/relu_1x1 -> inception_4b/1x1 (in-place)
I0403 19:22:49.048933 19670 net.cpp:141] Setting up inception_4b/relu_1x1
I0403 19:22:49.048959 19670 net.cpp:148] Top shape: 24 160 14 14 (752640)
I0403 19:22:49.048974 19670 net.cpp:156] Memory required for data: 952225056
I0403 19:22:49.049000 19670 layer_factory.hpp:77] Creating layer inception_4b/3x3_reduce
I0403 19:22:49.049023 19670 net.cpp:91] Creating Layer inception_4b/3x3_reduce
I0403 19:22:49.049042 19670 net.cpp:425] inception_4b/3x3_reduce <- inception_4a/output_inception_4a/output_0_split_2
I0403 19:22:49.049060 19670 net.cpp:399] inception_4b/3x3_reduce -> inception_4b/3x3_reduce
I0403 19:22:49.050360 19670 net.cpp:141] Setting up inception_4b/3x3_reduce
I0403 19:22:49.050389 19670 net.cpp:148] Top shape: 24 112 14 14 (526848)
I0403 19:22:49.050403 19670 net.cpp:156] Memory required for data: 954332448
I0403 19:22:49.050420 19670 layer_factory.hpp:77] Creating layer inception_4b/relu_3x3_reduce
I0403 19:22:49.050439 19670 net.cpp:91] Creating Layer inception_4b/relu_3x3_reduce
I0403 19:22:49.050457 19670 net.cpp:425] inception_4b/relu_3x3_reduce <- inception_4b/3x3_reduce
I0403 19:22:49.050473 19670 net.cpp:386] inception_4b/relu_3x3_reduce -> inception_4b/3x3_reduce (in-place)
I0403 19:22:49.050745 19670 net.cpp:141] Setting up inception_4b/relu_3x3_reduce
I0403 19:22:49.050770 19670 net.cpp:148] Top shape: 24 112 14 14 (526848)
I0403 19:22:49.050786 19670 net.cpp:156] Memory required for data: 956439840
I0403 19:22:49.050799 19670 layer_factory.hpp:77] Creating layer inception_4b/3x3
I0403 19:22:49.050822 19670 net.cpp:91] Creating Layer inception_4b/3x3
I0403 19:22:49.050838 19670 net.cpp:425] inception_4b/3x3 <- inception_4b/3x3_reduce
I0403 19:22:49.050859 19670 net.cpp:399] inception_4b/3x3 -> inception_4b/3x3
I0403 19:22:49.053740 19670 net.cpp:141] Setting up inception_4b/3x3
I0403 19:22:49.053771 19670 net.cpp:148] Top shape: 24 224 14 14 (1053696)
I0403 19:22:49.053787 19670 net.cpp:156] Memory required for data: 960654624
I0403 19:22:49.053805 19670 layer_factory.hpp:77] Creating layer inception_4b/relu_3x3
I0403 19:22:49.053823 19670 net.cpp:91] Creating Layer inception_4b/relu_3x3
I0403 19:22:49.053839 19670 net.cpp:425] inception_4b/relu_3x3 <- inception_4b/3x3
I0403 19:22:49.053858 19670 net.cpp:386] inception_4b/relu_3x3 -> inception_4b/3x3 (in-place)
I0403 19:22:49.054038 19670 net.cpp:141] Setting up inception_4b/relu_3x3
I0403 19:22:49.054062 19670 net.cpp:148] Top shape: 24 224 14 14 (1053696)
I0403 19:22:49.054077 19670 net.cpp:156] Memory required for data: 964869408
I0403 19:22:49.054091 19670 layer_factory.hpp:77] Creating layer inception_4b/5x5_reduce
I0403 19:22:49.054113 19670 net.cpp:91] Creating Layer inception_4b/5x5_reduce
I0403 19:22:49.054131 19670 net.cpp:425] inception_4b/5x5_reduce <- inception_4a/output_inception_4a/output_0_split_3
I0403 19:22:49.054152 19670 net.cpp:399] inception_4b/5x5_reduce -> inception_4b/5x5_reduce
I0403 19:22:49.055207 19670 net.cpp:141] Setting up inception_4b/5x5_reduce
I0403 19:22:49.055235 19670 net.cpp:148] Top shape: 24 24 14 14 (112896)
I0403 19:22:49.055251 19670 net.cpp:156] Memory required for data: 965320992
I0403 19:22:49.055269 19670 layer_factory.hpp:77] Creating layer inception_4b/relu_5x5_reduce
I0403 19:22:49.055289 19670 net.cpp:91] Creating Layer inception_4b/relu_5x5_reduce
I0403 19:22:49.055322 19670 net.cpp:425] inception_4b/relu_5x5_reduce <- inception_4b/5x5_reduce
I0403 19:22:49.055341 19670 net.cpp:386] inception_4b/relu_5x5_reduce -> inception_4b/5x5_reduce (in-place)
I0403 19:22:49.055515 19670 net.cpp:141] Setting up inception_4b/relu_5x5_reduce
I0403 19:22:49.055542 19670 net.cpp:148] Top shape: 24 24 14 14 (112896)
I0403 19:22:49.055557 19670 net.cpp:156] Memory required for data: 965772576
I0403 19:22:49.055572 19670 layer_factory.hpp:77] Creating layer inception_4b/5x5
I0403 19:22:49.055593 19670 net.cpp:91] Creating Layer inception_4b/5x5
I0403 19:22:49.055610 19670 net.cpp:425] inception_4b/5x5 <- inception_4b/5x5_reduce
I0403 19:22:49.055629 19670 net.cpp:399] inception_4b/5x5 -> inception_4b/5x5
I0403 19:22:49.056823 19670 net.cpp:141] Setting up inception_4b/5x5
I0403 19:22:49.056849 19670 net.cpp:148] Top shape: 24 64 14 14 (301056)
I0403 19:22:49.056865 19670 net.cpp:156] Memory required for data: 966976800
I0403 19:22:49.056882 19670 layer_factory.hpp:77] Creating layer inception_4b/relu_5x5
I0403 19:22:49.056902 19670 net.cpp:91] Creating Layer inception_4b/relu_5x5
I0403 19:22:49.056920 19670 net.cpp:425] inception_4b/relu_5x5 <- inception_4b/5x5
I0403 19:22:49.056951 19670 net.cpp:386] inception_4b/relu_5x5 -> inception_4b/5x5 (in-place)
I0403 19:22:49.057253 19670 net.cpp:141] Setting up inception_4b/relu_5x5
I0403 19:22:49.057279 19670 net.cpp:148] Top shape: 24 64 14 14 (301056)
I0403 19:22:49.057294 19670 net.cpp:156] Memory required for data: 968181024
I0403 19:22:49.057309 19670 layer_factory.hpp:77] Creating layer inception_4b/pool
I0403 19:22:49.057327 19670 net.cpp:91] Creating Layer inception_4b/pool
I0403 19:22:49.057344 19670 net.cpp:425] inception_4b/pool <- inception_4a/output_inception_4a/output_0_split_4
I0403 19:22:49.057363 19670 net.cpp:399] inception_4b/pool -> inception_4b/pool
I0403 19:22:49.057426 19670 net.cpp:141] Setting up inception_4b/pool
I0403 19:22:49.057449 19670 net.cpp:148] Top shape: 24 512 14 14 (2408448)
I0403 19:22:49.057464 19670 net.cpp:156] Memory required for data: 977814816
I0403 19:22:49.057479 19670 layer_factory.hpp:77] Creating layer inception_4b/pool_proj
I0403 19:22:49.057500 19670 net.cpp:91] Creating Layer inception_4b/pool_proj
I0403 19:22:49.057518 19670 net.cpp:425] inception_4b/pool_proj <- inception_4b/pool
I0403 19:22:49.057538 19670 net.cpp:399] inception_4b/pool_proj -> inception_4b/pool_proj
I0403 19:22:49.058709 19670 net.cpp:141] Setting up inception_4b/pool_proj
I0403 19:22:49.058737 19670 net.cpp:148] Top shape: 24 64 14 14 (301056)
I0403 19:22:49.058753 19670 net.cpp:156] Memory required for data: 979019040
I0403 19:22:49.058769 19670 layer_factory.hpp:77] Creating layer inception_4b/relu_pool_proj
I0403 19:22:49.058790 19670 net.cpp:91] Creating Layer inception_4b/relu_pool_proj
I0403 19:22:49.058807 19670 net.cpp:425] inception_4b/relu_pool_proj <- inception_4b/pool_proj
I0403 19:22:49.058825 19670 net.cpp:386] inception_4b/relu_pool_proj -> inception_4b/pool_proj (in-place)
I0403 19:22:49.059015 19670 net.cpp:141] Setting up inception_4b/relu_pool_proj
I0403 19:22:49.059039 19670 net.cpp:148] Top shape: 24 64 14 14 (301056)
I0403 19:22:49.059054 19670 net.cpp:156] Memory required for data: 980223264
I0403 19:22:49.059068 19670 layer_factory.hpp:77] Creating layer inception_4b/output
I0403 19:22:49.059088 19670 net.cpp:91] Creating Layer inception_4b/output
I0403 19:22:49.059104 19670 net.cpp:425] inception_4b/output <- inception_4b/1x1
I0403 19:22:49.059120 19670 net.cpp:425] inception_4b/output <- inception_4b/3x3
I0403 19:22:49.059136 19670 net.cpp:425] inception_4b/output <- inception_4b/5x5
I0403 19:22:49.059152 19670 net.cpp:425] inception_4b/output <- inception_4b/pool_proj
I0403 19:22:49.059168 19670 net.cpp:399] inception_4b/output -> inception_4b/output
I0403 19:22:49.059214 19670 net.cpp:141] Setting up inception_4b/output
I0403 19:22:49.059237 19670 net.cpp:148] Top shape: 24 512 14 14 (2408448)
I0403 19:22:49.059252 19670 net.cpp:156] Memory required for data: 989857056
I0403 19:22:49.059280 19670 layer_factory.hpp:77] Creating layer inception_4b/output_inception_4b/output_0_split
I0403 19:22:49.059298 19670 net.cpp:91] Creating Layer inception_4b/output_inception_4b/output_0_split
I0403 19:22:49.059314 19670 net.cpp:425] inception_4b/output_inception_4b/output_0_split <- inception_4b/output
I0403 19:22:49.059332 19670 net.cpp:399] inception_4b/output_inception_4b/output_0_split -> inception_4b/output_inception_4b/output_0_split_0
I0403 19:22:49.059353 19670 net.cpp:399] inception_4b/output_inception_4b/output_0_split -> inception_4b/output_inception_4b/output_0_split_1
I0403 19:22:49.059372 19670 net.cpp:399] inception_4b/output_inception_4b/output_0_split -> inception_4b/output_inception_4b/output_0_split_2
I0403 19:22:49.059392 19670 net.cpp:399] inception_4b/output_inception_4b/output_0_split -> inception_4b/output_inception_4b/output_0_split_3
I0403 19:22:49.059478 19670 net.cpp:141] Setting up inception_4b/output_inception_4b/output_0_split
I0403 19:22:49.059500 19670 net.cpp:148] Top shape: 24 512 14 14 (2408448)
I0403 19:22:49.059516 19670 net.cpp:148] Top shape: 24 512 14 14 (2408448)
I0403 19:22:49.059531 19670 net.cpp:148] Top shape: 24 512 14 14 (2408448)
I0403 19:22:49.059546 19670 net.cpp:148] Top shape: 24 512 14 14 (2408448)
I0403 19:22:49.059561 19670 net.cpp:156] Memory required for data: 1028392224
I0403 19:22:49.059574 19670 layer_factory.hpp:77] Creating layer inception_4c/1x1
I0403 19:22:49.059595 19670 net.cpp:91] Creating Layer inception_4c/1x1
I0403 19:22:49.059612 19670 net.cpp:425] inception_4c/1x1 <- inception_4b/output_inception_4b/output_0_split_0
I0403 19:22:49.059633 19670 net.cpp:399] inception_4c/1x1 -> inception_4c/1x1
I0403 19:22:49.061049 19670 net.cpp:141] Setting up inception_4c/1x1
I0403 19:22:49.061079 19670 net.cpp:148] Top shape: 24 128 14 14 (602112)
I0403 19:22:49.061096 19670 net.cpp:156] Memory required for data: 1030800672
I0403 19:22:49.061115 19670 layer_factory.hpp:77] Creating layer inception_4c/relu_1x1
I0403 19:22:49.061133 19670 net.cpp:91] Creating Layer inception_4c/relu_1x1
I0403 19:22:49.061149 19670 net.cpp:425] inception_4c/relu_1x1 <- inception_4c/1x1
I0403 19:22:49.061168 19670 net.cpp:386] inception_4c/relu_1x1 -> inception_4c/1x1 (in-place)
I0403 19:22:49.061345 19670 net.cpp:141] Setting up inception_4c/relu_1x1
I0403 19:22:49.061370 19670 net.cpp:148] Top shape: 24 128 14 14 (602112)
I0403 19:22:49.061385 19670 net.cpp:156] Memory required for data: 1033209120
I0403 19:22:49.061399 19670 layer_factory.hpp:77] Creating layer inception_4c/3x3_reduce
I0403 19:22:49.061421 19670 net.cpp:91] Creating Layer inception_4c/3x3_reduce
I0403 19:22:49.061440 19670 net.cpp:425] inception_4c/3x3_reduce <- inception_4b/output_inception_4b/output_0_split_1
I0403 19:22:49.061460 19670 net.cpp:399] inception_4c/3x3_reduce -> inception_4c/3x3_reduce
I0403 19:22:49.063403 19670 net.cpp:141] Setting up inception_4c/3x3_reduce
I0403 19:22:49.063431 19670 net.cpp:148] Top shape: 24 128 14 14 (602112)
I0403 19:22:49.063447 19670 net.cpp:156] Memory required for data: 1035617568
I0403 19:22:49.063464 19670 layer_factory.hpp:77] Creating layer inception_4c/relu_3x3_reduce
I0403 19:22:49.063482 19670 net.cpp:91] Creating Layer inception_4c/relu_3x3_reduce
I0403 19:22:49.063499 19670 net.cpp:425] inception_4c/relu_3x3_reduce <- inception_4c/3x3_reduce
I0403 19:22:49.063518 19670 net.cpp:386] inception_4c/relu_3x3_reduce -> inception_4c/3x3_reduce (in-place)
I0403 19:22:49.063796 19670 net.cpp:141] Setting up inception_4c/relu_3x3_reduce
I0403 19:22:49.063822 19670 net.cpp:148] Top shape: 24 128 14 14 (602112)
I0403 19:22:49.063838 19670 net.cpp:156] Memory required for data: 1038026016
I0403 19:22:49.063851 19670 layer_factory.hpp:77] Creating layer inception_4c/3x3
I0403 19:22:49.063875 19670 net.cpp:91] Creating Layer inception_4c/3x3
I0403 19:22:49.063892 19670 net.cpp:425] inception_4c/3x3 <- inception_4c/3x3_reduce
I0403 19:22:49.063913 19670 net.cpp:399] inception_4c/3x3 -> inception_4c/3x3
I0403 19:22:49.067419 19670 net.cpp:141] Setting up inception_4c/3x3
I0403 19:22:49.067457 19670 net.cpp:148] Top shape: 24 256 14 14 (1204224)
I0403 19:22:49.067474 19670 net.cpp:156] Memory required for data: 1042842912
I0403 19:22:49.067504 19670 layer_factory.hpp:77] Creating layer inception_4c/relu_3x3
I0403 19:22:49.067526 19670 net.cpp:91] Creating Layer inception_4c/relu_3x3
I0403 19:22:49.067544 19670 net.cpp:425] inception_4c/relu_3x3 <- inception_4c/3x3
I0403 19:22:49.067561 19670 net.cpp:386] inception_4c/relu_3x3 -> inception_4c/3x3 (in-place)
I0403 19:22:49.067739 19670 net.cpp:141] Setting up inception_4c/relu_3x3
I0403 19:22:49.067764 19670 net.cpp:148] Top shape: 24 256 14 14 (1204224)
I0403 19:22:49.067778 19670 net.cpp:156] Memory required for data: 1047659808
I0403 19:22:49.067792 19670 layer_factory.hpp:77] Creating layer inception_4c/5x5_reduce
I0403 19:22:49.067814 19670 net.cpp:91] Creating Layer inception_4c/5x5_reduce
I0403 19:22:49.067832 19670 net.cpp:425] inception_4c/5x5_reduce <- inception_4b/output_inception_4b/output_0_split_2
I0403 19:22:49.067853 19670 net.cpp:399] inception_4c/5x5_reduce -> inception_4c/5x5_reduce
I0403 19:22:49.068913 19670 net.cpp:141] Setting up inception_4c/5x5_reduce
I0403 19:22:49.068940 19670 net.cpp:148] Top shape: 24 24 14 14 (112896)
I0403 19:22:49.068956 19670 net.cpp:156] Memory required for data: 1048111392
I0403 19:22:49.068974 19670 layer_factory.hpp:77] Creating layer inception_4c/relu_5x5_reduce
I0403 19:22:49.069005 19670 net.cpp:91] Creating Layer inception_4c/relu_5x5_reduce
I0403 19:22:49.069023 19670 net.cpp:425] inception_4c/relu_5x5_reduce <- inception_4c/5x5_reduce
I0403 19:22:49.069039 19670 net.cpp:386] inception_4c/relu_5x5_reduce -> inception_4c/5x5_reduce (in-place)
I0403 19:22:49.069221 19670 net.cpp:141] Setting up inception_4c/relu_5x5_reduce
I0403 19:22:49.069247 19670 net.cpp:148] Top shape: 24 24 14 14 (112896)
I0403 19:22:49.069262 19670 net.cpp:156] Memory required for data: 1048562976
I0403 19:22:49.069278 19670 layer_factory.hpp:77] Creating layer inception_4c/5x5
I0403 19:22:49.069298 19670 net.cpp:91] Creating Layer inception_4c/5x5
I0403 19:22:49.069314 19670 net.cpp:425] inception_4c/5x5 <- inception_4c/5x5_reduce
I0403 19:22:49.069334 19670 net.cpp:399] inception_4c/5x5 -> inception_4c/5x5
I0403 19:22:49.070556 19670 net.cpp:141] Setting up inception_4c/5x5
I0403 19:22:49.070583 19670 net.cpp:148] Top shape: 24 64 14 14 (301056)
I0403 19:22:49.070598 19670 net.cpp:156] Memory required for data: 1049767200
I0403 19:22:49.070616 19670 layer_factory.hpp:77] Creating layer inception_4c/relu_5x5
I0403 19:22:49.070637 19670 net.cpp:91] Creating Layer inception_4c/relu_5x5
I0403 19:22:49.070654 19670 net.cpp:425] inception_4c/relu_5x5 <- inception_4c/5x5
I0403 19:22:49.070672 19670 net.cpp:386] inception_4c/relu_5x5 -> inception_4c/5x5 (in-place)
I0403 19:22:49.070960 19670 net.cpp:141] Setting up inception_4c/relu_5x5
I0403 19:22:49.070989 19670 net.cpp:148] Top shape: 24 64 14 14 (301056)
I0403 19:22:49.071007 19670 net.cpp:156] Memory required for data: 1050971424
I0403 19:22:49.071022 19670 layer_factory.hpp:77] Creating layer inception_4c/pool
I0403 19:22:49.071040 19670 net.cpp:91] Creating Layer inception_4c/pool
I0403 19:22:49.071058 19670 net.cpp:425] inception_4c/pool <- inception_4b/output_inception_4b/output_0_split_3
I0403 19:22:49.071076 19670 net.cpp:399] inception_4c/pool -> inception_4c/pool
I0403 19:22:49.071142 19670 net.cpp:141] Setting up inception_4c/pool
I0403 19:22:49.071166 19670 net.cpp:148] Top shape: 24 512 14 14 (2408448)
I0403 19:22:49.071180 19670 net.cpp:156] Memory required for data: 1060605216
I0403 19:22:49.071195 19670 layer_factory.hpp:77] Creating layer inception_4c/pool_proj
I0403 19:22:49.071218 19670 net.cpp:91] Creating Layer inception_4c/pool_proj
I0403 19:22:49.071234 19670 net.cpp:425] inception_4c/pool_proj <- inception_4c/pool
I0403 19:22:49.071255 19670 net.cpp:399] inception_4c/pool_proj -> inception_4c/pool_proj
I0403 19:22:49.072458 19670 net.cpp:141] Setting up inception_4c/pool_proj
I0403 19:22:49.072485 19670 net.cpp:148] Top shape: 24 64 14 14 (301056)
I0403 19:22:49.072515 19670 net.cpp:156] Memory required for data: 1061809440
I0403 19:22:49.072533 19670 layer_factory.hpp:77] Creating layer inception_4c/relu_pool_proj
I0403 19:22:49.072554 19670 net.cpp:91] Creating Layer inception_4c/relu_pool_proj
I0403 19:22:49.072571 19670 net.cpp:425] inception_4c/relu_pool_proj <- inception_4c/pool_proj
I0403 19:22:49.072589 19670 net.cpp:386] inception_4c/relu_pool_proj -> inception_4c/pool_proj (in-place)
I0403 19:22:49.072769 19670 net.cpp:141] Setting up inception_4c/relu_pool_proj
I0403 19:22:49.072794 19670 net.cpp:148] Top shape: 24 64 14 14 (301056)
I0403 19:22:49.072809 19670 net.cpp:156] Memory required for data: 1063013664
I0403 19:22:49.072824 19670 layer_factory.hpp:77] Creating layer inception_4c/output
I0403 19:22:49.072844 19670 net.cpp:91] Creating Layer inception_4c/output
I0403 19:22:49.072860 19670 net.cpp:425] inception_4c/output <- inception_4c/1x1
I0403 19:22:49.072877 19670 net.cpp:425] inception_4c/output <- inception_4c/3x3
I0403 19:22:49.072892 19670 net.cpp:425] inception_4c/output <- inception_4c/5x5
I0403 19:22:49.072908 19670 net.cpp:425] inception_4c/output <- inception_4c/pool_proj
I0403 19:22:49.072924 19670 net.cpp:399] inception_4c/output -> inception_4c/output
I0403 19:22:49.072971 19670 net.cpp:141] Setting up inception_4c/output
I0403 19:22:49.072999 19670 net.cpp:148] Top shape: 24 512 14 14 (2408448)
I0403 19:22:49.073014 19670 net.cpp:156] Memory required for data: 1072647456
I0403 19:22:49.073029 19670 layer_factory.hpp:77] Creating layer inception_4c/output_inception_4c/output_0_split
I0403 19:22:49.073045 19670 net.cpp:91] Creating Layer inception_4c/output_inception_4c/output_0_split
I0403 19:22:49.073060 19670 net.cpp:425] inception_4c/output_inception_4c/output_0_split <- inception_4c/output
I0403 19:22:49.073079 19670 net.cpp:399] inception_4c/output_inception_4c/output_0_split -> inception_4c/output_inception_4c/output_0_split_0
I0403 19:22:49.073101 19670 net.cpp:399] inception_4c/output_inception_4c/output_0_split -> inception_4c/output_inception_4c/output_0_split_1
I0403 19:22:49.073120 19670 net.cpp:399] inception_4c/output_inception_4c/output_0_split -> inception_4c/output_inception_4c/output_0_split_2
I0403 19:22:49.073140 19670 net.cpp:399] inception_4c/output_inception_4c/output_0_split -> inception_4c/output_inception_4c/output_0_split_3
I0403 19:22:49.073227 19670 net.cpp:141] Setting up inception_4c/output_inception_4c/output_0_split
I0403 19:22:49.073251 19670 net.cpp:148] Top shape: 24 512 14 14 (2408448)
I0403 19:22:49.073266 19670 net.cpp:148] Top shape: 24 512 14 14 (2408448)
I0403 19:22:49.073282 19670 net.cpp:148] Top shape: 24 512 14 14 (2408448)
I0403 19:22:49.073297 19670 net.cpp:148] Top shape: 24 512 14 14 (2408448)
I0403 19:22:49.073310 19670 net.cpp:156] Memory required for data: 1111182624
I0403 19:22:49.073324 19670 layer_factory.hpp:77] Creating layer inception_4d/1x1
I0403 19:22:49.073345 19670 net.cpp:91] Creating Layer inception_4d/1x1
I0403 19:22:49.073362 19670 net.cpp:425] inception_4d/1x1 <- inception_4c/output_inception_4c/output_0_split_0
I0403 19:22:49.073382 19670 net.cpp:399] inception_4d/1x1 -> inception_4d/1x1
I0403 19:22:49.074724 19670 net.cpp:141] Setting up inception_4d/1x1
I0403 19:22:49.074753 19670 net.cpp:148] Top shape: 24 112 14 14 (526848)
I0403 19:22:49.074770 19670 net.cpp:156] Memory required for data: 1113290016
I0403 19:22:49.074789 19670 layer_factory.hpp:77] Creating layer inception_4d/relu_1x1
I0403 19:22:49.074806 19670 net.cpp:91] Creating Layer inception_4d/relu_1x1
I0403 19:22:49.074822 19670 net.cpp:425] inception_4d/relu_1x1 <- inception_4d/1x1
I0403 19:22:49.074841 19670 net.cpp:386] inception_4d/relu_1x1 -> inception_4d/1x1 (in-place)
I0403 19:22:49.075027 19670 net.cpp:141] Setting up inception_4d/relu_1x1
I0403 19:22:49.075052 19670 net.cpp:148] Top shape: 24 112 14 14 (526848)
I0403 19:22:49.075067 19670 net.cpp:156] Memory required for data: 1115397408
I0403 19:22:49.075081 19670 layer_factory.hpp:77] Creating layer inception_4d/3x3_reduce
I0403 19:22:49.075117 19670 net.cpp:91] Creating Layer inception_4d/3x3_reduce
I0403 19:22:49.075136 19670 net.cpp:425] inception_4d/3x3_reduce <- inception_4c/output_inception_4c/output_0_split_1
I0403 19:22:49.075157 19670 net.cpp:399] inception_4d/3x3_reduce -> inception_4d/3x3_reduce
I0403 19:22:49.076694 19670 net.cpp:141] Setting up inception_4d/3x3_reduce
I0403 19:22:49.076725 19670 net.cpp:148] Top shape: 24 144 14 14 (677376)
I0403 19:22:49.076740 19670 net.cpp:156] Memory required for data: 1118106912
I0403 19:22:49.076758 19670 layer_factory.hpp:77] Creating layer inception_4d/relu_3x3_reduce
I0403 19:22:49.076776 19670 net.cpp:91] Creating Layer inception_4d/relu_3x3_reduce
I0403 19:22:49.076793 19670 net.cpp:425] inception_4d/relu_3x3_reduce <- inception_4d/3x3_reduce
I0403 19:22:49.076810 19670 net.cpp:386] inception_4d/relu_3x3_reduce -> inception_4d/3x3_reduce (in-place)
I0403 19:22:49.077100 19670 net.cpp:141] Setting up inception_4d/relu_3x3_reduce
I0403 19:22:49.077128 19670 net.cpp:148] Top shape: 24 144 14 14 (677376)
I0403 19:22:49.077144 19670 net.cpp:156] Memory required for data: 1120816416
I0403 19:22:49.077159 19670 layer_factory.hpp:77] Creating layer inception_4d/3x3
I0403 19:22:49.077181 19670 net.cpp:91] Creating Layer inception_4d/3x3
I0403 19:22:49.077199 19670 net.cpp:425] inception_4d/3x3 <- inception_4d/3x3_reduce
I0403 19:22:49.077219 19670 net.cpp:399] inception_4d/3x3 -> inception_4d/3x3
I0403 19:22:49.081437 19670 net.cpp:141] Setting up inception_4d/3x3
I0403 19:22:49.081465 19670 net.cpp:148] Top shape: 24 288 14 14 (1354752)
I0403 19:22:49.081481 19670 net.cpp:156] Memory required for data: 1126235424
I0403 19:22:49.081499 19670 layer_factory.hpp:77] Creating layer inception_4d/relu_3x3
I0403 19:22:49.081517 19670 net.cpp:91] Creating Layer inception_4d/relu_3x3
I0403 19:22:49.081533 19670 net.cpp:425] inception_4d/relu_3x3 <- inception_4d/3x3
I0403 19:22:49.081554 19670 net.cpp:386] inception_4d/relu_3x3 -> inception_4d/3x3 (in-place)
I0403 19:22:49.081733 19670 net.cpp:141] Setting up inception_4d/relu_3x3
I0403 19:22:49.081758 19670 net.cpp:148] Top shape: 24 288 14 14 (1354752)
I0403 19:22:49.081773 19670 net.cpp:156] Memory required for data: 1131654432
I0403 19:22:49.081787 19670 layer_factory.hpp:77] Creating layer inception_4d/5x5_reduce
I0403 19:22:49.081809 19670 net.cpp:91] Creating Layer inception_4d/5x5_reduce
I0403 19:22:49.081825 19670 net.cpp:425] inception_4d/5x5_reduce <- inception_4c/output_inception_4c/output_0_split_2
I0403 19:22:49.081846 19670 net.cpp:399] inception_4d/5x5_reduce -> inception_4d/5x5_reduce
I0403 19:22:49.082967 19670 net.cpp:141] Setting up inception_4d/5x5_reduce
I0403 19:22:49.082998 19670 net.cpp:148] Top shape: 24 32 14 14 (150528)
I0403 19:22:49.083014 19670 net.cpp:156] Memory required for data: 1132256544
I0403 19:22:49.083032 19670 layer_factory.hpp:77] Creating layer inception_4d/relu_5x5_reduce
I0403 19:22:49.083050 19670 net.cpp:91] Creating Layer inception_4d/relu_5x5_reduce
I0403 19:22:49.083066 19670 net.cpp:425] inception_4d/relu_5x5_reduce <- inception_4d/5x5_reduce
I0403 19:22:49.083086 19670 net.cpp:386] inception_4d/relu_5x5_reduce -> inception_4d/5x5_reduce (in-place)
I0403 19:22:49.083269 19670 net.cpp:141] Setting up inception_4d/relu_5x5_reduce
I0403 19:22:49.083293 19670 net.cpp:148] Top shape: 24 32 14 14 (150528)
I0403 19:22:49.083308 19670 net.cpp:156] Memory required for data: 1132858656
I0403 19:22:49.083323 19670 layer_factory.hpp:77] Creating layer inception_4d/5x5
I0403 19:22:49.083344 19670 net.cpp:91] Creating Layer inception_4d/5x5
I0403 19:22:49.083360 19670 net.cpp:425] inception_4d/5x5 <- inception_4d/5x5_reduce
I0403 19:22:49.083381 19670 net.cpp:399] inception_4d/5x5 -> inception_4d/5x5
I0403 19:22:49.084812 19670 net.cpp:141] Setting up inception_4d/5x5
I0403 19:22:49.084839 19670 net.cpp:148] Top shape: 24 64 14 14 (301056)
I0403 19:22:49.084856 19670 net.cpp:156] Memory required for data: 1134062880
I0403 19:22:49.084873 19670 layer_factory.hpp:77] Creating layer inception_4d/relu_5x5
I0403 19:22:49.084906 19670 net.cpp:91] Creating Layer inception_4d/relu_5x5
I0403 19:22:49.084924 19670 net.cpp:425] inception_4d/relu_5x5 <- inception_4d/5x5
I0403 19:22:49.084941 19670 net.cpp:386] inception_4d/relu_5x5 -> inception_4d/5x5 (in-place)
I0403 19:22:49.085247 19670 net.cpp:141] Setting up inception_4d/relu_5x5
I0403 19:22:49.085273 19670 net.cpp:148] Top shape: 24 64 14 14 (301056)
I0403 19:22:49.085289 19670 net.cpp:156] Memory required for data: 1135267104
I0403 19:22:49.085302 19670 layer_factory.hpp:77] Creating layer inception_4d/pool
I0403 19:22:49.085322 19670 net.cpp:91] Creating Layer inception_4d/pool
I0403 19:22:49.085340 19670 net.cpp:425] inception_4d/pool <- inception_4c/output_inception_4c/output_0_split_3
I0403 19:22:49.085357 19670 net.cpp:399] inception_4d/pool -> inception_4d/pool
I0403 19:22:49.085425 19670 net.cpp:141] Setting up inception_4d/pool
I0403 19:22:49.085448 19670 net.cpp:148] Top shape: 24 512 14 14 (2408448)
I0403 19:22:49.085464 19670 net.cpp:156] Memory required for data: 1144900896
I0403 19:22:49.085477 19670 layer_factory.hpp:77] Creating layer inception_4d/pool_proj
I0403 19:22:49.085499 19670 net.cpp:91] Creating Layer inception_4d/pool_proj
I0403 19:22:49.085516 19670 net.cpp:425] inception_4d/pool_proj <- inception_4d/pool
I0403 19:22:49.085536 19670 net.cpp:399] inception_4d/pool_proj -> inception_4d/pool_proj
I0403 19:22:49.087261 19670 net.cpp:141] Setting up inception_4d/pool_proj
I0403 19:22:49.087291 19670 net.cpp:148] Top shape: 24 64 14 14 (301056)
I0403 19:22:49.087306 19670 net.cpp:156] Memory required for data: 1146105120
I0403 19:22:49.087323 19670 layer_factory.hpp:77] Creating layer inception_4d/relu_pool_proj
I0403 19:22:49.087342 19670 net.cpp:91] Creating Layer inception_4d/relu_pool_proj
I0403 19:22:49.087358 19670 net.cpp:425] inception_4d/relu_pool_proj <- inception_4d/pool_proj
I0403 19:22:49.087378 19670 net.cpp:386] inception_4d/relu_pool_proj -> inception_4d/pool_proj (in-place)
I0403 19:22:49.087556 19670 net.cpp:141] Setting up inception_4d/relu_pool_proj
I0403 19:22:49.087581 19670 net.cpp:148] Top shape: 24 64 14 14 (301056)
I0403 19:22:49.087595 19670 net.cpp:156] Memory required for data: 1147309344
I0403 19:22:49.087610 19670 layer_factory.hpp:77] Creating layer inception_4d/output
I0403 19:22:49.087630 19670 net.cpp:91] Creating Layer inception_4d/output
I0403 19:22:49.087647 19670 net.cpp:425] inception_4d/output <- inception_4d/1x1
I0403 19:22:49.087663 19670 net.cpp:425] inception_4d/output <- inception_4d/3x3
I0403 19:22:49.087679 19670 net.cpp:425] inception_4d/output <- inception_4d/5x5
I0403 19:22:49.087694 19670 net.cpp:425] inception_4d/output <- inception_4d/pool_proj
I0403 19:22:49.087710 19670 net.cpp:399] inception_4d/output -> inception_4d/output
I0403 19:22:49.087759 19670 net.cpp:141] Setting up inception_4d/output
I0403 19:22:49.087782 19670 net.cpp:148] Top shape: 24 528 14 14 (2483712)
I0403 19:22:49.087796 19670 net.cpp:156] Memory required for data: 1157244192
I0403 19:22:49.087810 19670 layer_factory.hpp:77] Creating layer inception_4d/output_inception_4d/output_0_split
I0403 19:22:49.087827 19670 net.cpp:91] Creating Layer inception_4d/output_inception_4d/output_0_split
I0403 19:22:49.087842 19670 net.cpp:425] inception_4d/output_inception_4d/output_0_split <- inception_4d/output
I0403 19:22:49.087862 19670 net.cpp:399] inception_4d/output_inception_4d/output_0_split -> inception_4d/output_inception_4d/output_0_split_0
I0403 19:22:49.087883 19670 net.cpp:399] inception_4d/output_inception_4d/output_0_split -> inception_4d/output_inception_4d/output_0_split_1
I0403 19:22:49.087903 19670 net.cpp:399] inception_4d/output_inception_4d/output_0_split -> inception_4d/output_inception_4d/output_0_split_2
I0403 19:22:49.087924 19670 net.cpp:399] inception_4d/output_inception_4d/output_0_split -> inception_4d/output_inception_4d/output_0_split_3
I0403 19:22:49.087942 19670 net.cpp:399] inception_4d/output_inception_4d/output_0_split -> inception_4d/output_inception_4d/output_0_split_4
I0403 19:22:49.088049 19670 net.cpp:141] Setting up inception_4d/output_inception_4d/output_0_split
I0403 19:22:49.088083 19670 net.cpp:148] Top shape: 24 528 14 14 (2483712)
I0403 19:22:49.088102 19670 net.cpp:148] Top shape: 24 528 14 14 (2483712)
I0403 19:22:49.088119 19670 net.cpp:148] Top shape: 24 528 14 14 (2483712)
I0403 19:22:49.088135 19670 net.cpp:148] Top shape: 24 528 14 14 (2483712)
I0403 19:22:49.088150 19670 net.cpp:148] Top shape: 24 528 14 14 (2483712)
I0403 19:22:49.088162 19670 net.cpp:156] Memory required for data: 1206918432
I0403 19:22:49.088176 19670 layer_factory.hpp:77] Creating layer loss2/ave_pool
I0403 19:22:49.088193 19670 net.cpp:91] Creating Layer loss2/ave_pool
I0403 19:22:49.088210 19670 net.cpp:425] loss2/ave_pool <- inception_4d/output_inception_4d/output_0_split_0
I0403 19:22:49.088230 19670 net.cpp:399] loss2/ave_pool -> loss2/ave_pool
I0403 19:22:49.088542 19670 net.cpp:141] Setting up loss2/ave_pool
I0403 19:22:49.088568 19670 net.cpp:148] Top shape: 24 528 4 4 (202752)
I0403 19:22:49.088583 19670 net.cpp:156] Memory required for data: 1207729440
I0403 19:22:49.088598 19670 layer_factory.hpp:77] Creating layer loss2/conv
I0403 19:22:49.088619 19670 net.cpp:91] Creating Layer loss2/conv
I0403 19:22:49.088636 19670 net.cpp:425] loss2/conv <- loss2/ave_pool
I0403 19:22:49.088656 19670 net.cpp:399] loss2/conv -> loss2/conv
I0403 19:22:49.090534 19670 net.cpp:141] Setting up loss2/conv
I0403 19:22:49.090561 19670 net.cpp:148] Top shape: 24 128 4 4 (49152)
I0403 19:22:49.090577 19670 net.cpp:156] Memory required for data: 1207926048
I0403 19:22:49.090595 19670 layer_factory.hpp:77] Creating layer loss2/relu_conv
I0403 19:22:49.090615 19670 net.cpp:91] Creating Layer loss2/relu_conv
I0403 19:22:49.090632 19670 net.cpp:425] loss2/relu_conv <- loss2/conv
I0403 19:22:49.090649 19670 net.cpp:386] loss2/relu_conv -> loss2/conv (in-place)
I0403 19:22:49.090932 19670 net.cpp:141] Setting up loss2/relu_conv
I0403 19:22:49.090958 19670 net.cpp:148] Top shape: 24 128 4 4 (49152)
I0403 19:22:49.090973 19670 net.cpp:156] Memory required for data: 1208122656
I0403 19:22:49.090992 19670 layer_factory.hpp:77] Creating layer loss2/fc
I0403 19:22:49.091013 19670 net.cpp:91] Creating Layer loss2/fc
I0403 19:22:49.091032 19670 net.cpp:425] loss2/fc <- loss2/conv
I0403 19:22:49.091049 19670 net.cpp:399] loss2/fc -> loss2/fc
I0403 19:22:49.108165 19670 net.cpp:141] Setting up loss2/fc
I0403 19:22:49.108206 19670 net.cpp:148] Top shape: 24 1024 (24576)
I0403 19:22:49.108222 19670 net.cpp:156] Memory required for data: 1208220960
I0403 19:22:49.108242 19670 layer_factory.hpp:77] Creating layer loss2/relu_fc
I0403 19:22:49.108260 19670 net.cpp:91] Creating Layer loss2/relu_fc
I0403 19:22:49.108278 19670 net.cpp:425] loss2/relu_fc <- loss2/fc
I0403 19:22:49.108297 19670 net.cpp:386] loss2/relu_fc -> loss2/fc (in-place)
I0403 19:22:49.108595 19670 net.cpp:141] Setting up loss2/relu_fc
I0403 19:22:49.108621 19670 net.cpp:148] Top shape: 24 1024 (24576)
I0403 19:22:49.108636 19670 net.cpp:156] Memory required for data: 1208319264
I0403 19:22:49.108650 19670 layer_factory.hpp:77] Creating layer loss2/drop_fc
I0403 19:22:49.108669 19670 net.cpp:91] Creating Layer loss2/drop_fc
I0403 19:22:49.108683 19670 net.cpp:425] loss2/drop_fc <- loss2/fc
I0403 19:22:49.108703 19670 net.cpp:386] loss2/drop_fc -> loss2/fc (in-place)
I0403 19:22:49.108752 19670 net.cpp:141] Setting up loss2/drop_fc
I0403 19:22:49.108777 19670 net.cpp:148] Top shape: 24 1024 (24576)
I0403 19:22:49.108793 19670 net.cpp:156] Memory required for data: 1208417568
I0403 19:22:49.108808 19670 layer_factory.hpp:77] Creating layer loss2/classifier_plantvillage
I0403 19:22:49.108825 19670 net.cpp:91] Creating Layer loss2/classifier_plantvillage
I0403 19:22:49.108840 19670 net.cpp:425] loss2/classifier_plantvillage <- loss2/fc
I0403 19:22:49.108860 19670 net.cpp:399] loss2/classifier_plantvillage -> loss2/classifier_plantvillage
I0403 19:22:49.109263 19670 net.cpp:141] Setting up loss2/classifier_plantvillage
I0403 19:22:49.109290 19670 net.cpp:148] Top shape: 24 38 (912)
I0403 19:22:49.109320 19670 net.cpp:156] Memory required for data: 1208421216
I0403 19:22:49.109338 19670 layer_factory.hpp:77] Creating layer loss2/classifier_plantvillage_loss2/classifier_plantvillage_0_split
I0403 19:22:49.109356 19670 net.cpp:91] Creating Layer loss2/classifier_plantvillage_loss2/classifier_plantvillage_0_split
I0403 19:22:49.109372 19670 net.cpp:425] loss2/classifier_plantvillage_loss2/classifier_plantvillage_0_split <- loss2/classifier_plantvillage
I0403 19:22:49.109390 19670 net.cpp:399] loss2/classifier_plantvillage_loss2/classifier_plantvillage_0_split -> loss2/classifier_plantvillage_loss2/classifier_plantvillage_0_split_0
I0403 19:22:49.109410 19670 net.cpp:399] loss2/classifier_plantvillage_loss2/classifier_plantvillage_0_split -> loss2/classifier_plantvillage_loss2/classifier_plantvillage_0_split_1
I0403 19:22:49.109431 19670 net.cpp:399] loss2/classifier_plantvillage_loss2/classifier_plantvillage_0_split -> loss2/classifier_plantvillage_loss2/classifier_plantvillage_0_split_2
I0403 19:22:49.109510 19670 net.cpp:141] Setting up loss2/classifier_plantvillage_loss2/classifier_plantvillage_0_split
I0403 19:22:49.109532 19670 net.cpp:148] Top shape: 24 38 (912)
I0403 19:22:49.109549 19670 net.cpp:148] Top shape: 24 38 (912)
I0403 19:22:49.109563 19670 net.cpp:148] Top shape: 24 38 (912)
I0403 19:22:49.109576 19670 net.cpp:156] Memory required for data: 1208432160
I0403 19:22:49.109591 19670 layer_factory.hpp:77] Creating layer inception_4e/1x1
I0403 19:22:49.109609 19670 net.cpp:91] Creating Layer inception_4e/1x1
I0403 19:22:49.109627 19670 net.cpp:425] inception_4e/1x1 <- inception_4d/output_inception_4d/output_0_split_1
I0403 19:22:49.109647 19670 net.cpp:399] inception_4e/1x1 -> inception_4e/1x1
I0403 19:22:49.111425 19670 net.cpp:141] Setting up inception_4e/1x1
I0403 19:22:49.111452 19670 net.cpp:148] Top shape: 24 256 14 14 (1204224)
I0403 19:22:49.111467 19670 net.cpp:156] Memory required for data: 1213249056
I0403 19:22:49.111485 19670 layer_factory.hpp:77] Creating layer inception_4e/relu_1x1
I0403 19:22:49.111505 19670 net.cpp:91] Creating Layer inception_4e/relu_1x1
I0403 19:22:49.111521 19670 net.cpp:425] inception_4e/relu_1x1 <- inception_4e/1x1
I0403 19:22:49.111538 19670 net.cpp:386] inception_4e/relu_1x1 -> inception_4e/1x1 (in-place)
I0403 19:22:49.111827 19670 net.cpp:141] Setting up inception_4e/relu_1x1
I0403 19:22:49.111853 19670 net.cpp:148] Top shape: 24 256 14 14 (1204224)
I0403 19:22:49.111868 19670 net.cpp:156] Memory required for data: 1218065952
I0403 19:22:49.111882 19670 layer_factory.hpp:77] Creating layer inception_4e/3x3_reduce
I0403 19:22:49.111906 19670 net.cpp:91] Creating Layer inception_4e/3x3_reduce
I0403 19:22:49.111923 19670 net.cpp:425] inception_4e/3x3_reduce <- inception_4d/output_inception_4d/output_0_split_2
I0403 19:22:49.111943 19670 net.cpp:399] inception_4e/3x3_reduce -> inception_4e/3x3_reduce
I0403 19:22:49.114017 19670 net.cpp:141] Setting up inception_4e/3x3_reduce
I0403 19:22:49.114045 19670 net.cpp:148] Top shape: 24 160 14 14 (752640)
I0403 19:22:49.114061 19670 net.cpp:156] Memory required for data: 1221076512
I0403 19:22:49.114079 19670 layer_factory.hpp:77] Creating layer inception_4e/relu_3x3_reduce
I0403 19:22:49.114099 19670 net.cpp:91] Creating Layer inception_4e/relu_3x3_reduce
I0403 19:22:49.114116 19670 net.cpp:425] inception_4e/relu_3x3_reduce <- inception_4e/3x3_reduce
I0403 19:22:49.114133 19670 net.cpp:386] inception_4e/relu_3x3_reduce -> inception_4e/3x3_reduce (in-place)
I0403 19:22:49.114317 19670 net.cpp:141] Setting up inception_4e/relu_3x3_reduce
I0403 19:22:49.114344 19670 net.cpp:148] Top shape: 24 160 14 14 (752640)
I0403 19:22:49.114359 19670 net.cpp:156] Memory required for data: 1224087072
I0403 19:22:49.114374 19670 layer_factory.hpp:77] Creating layer inception_4e/3x3
I0403 19:22:49.114397 19670 net.cpp:91] Creating Layer inception_4e/3x3
I0403 19:22:49.114415 19670 net.cpp:425] inception_4e/3x3 <- inception_4e/3x3_reduce
I0403 19:22:49.114434 19670 net.cpp:399] inception_4e/3x3 -> inception_4e/3x3
I0403 19:22:49.119365 19670 net.cpp:141] Setting up inception_4e/3x3
I0403 19:22:49.119407 19670 net.cpp:148] Top shape: 24 320 14 14 (1505280)
I0403 19:22:49.119424 19670 net.cpp:156] Memory required for data: 1230108192
I0403 19:22:49.119442 19670 layer_factory.hpp:77] Creating layer inception_4e/relu_3x3
I0403 19:22:49.119462 19670 net.cpp:91] Creating Layer inception_4e/relu_3x3
I0403 19:22:49.119477 19670 net.cpp:425] inception_4e/relu_3x3 <- inception_4e/3x3
I0403 19:22:49.119495 19670 net.cpp:386] inception_4e/relu_3x3 -> inception_4e/3x3 (in-place)
I0403 19:22:49.119791 19670 net.cpp:141] Setting up inception_4e/relu_3x3
I0403 19:22:49.119819 19670 net.cpp:148] Top shape: 24 320 14 14 (1505280)
I0403 19:22:49.119835 19670 net.cpp:156] Memory required for data: 1236129312
I0403 19:22:49.119850 19670 layer_factory.hpp:77] Creating layer inception_4e/5x5_reduce
I0403 19:22:49.119873 19670 net.cpp:91] Creating Layer inception_4e/5x5_reduce
I0403 19:22:49.119889 19670 net.cpp:425] inception_4e/5x5_reduce <- inception_4d/output_inception_4d/output_0_split_3
I0403 19:22:49.119910 19670 net.cpp:399] inception_4e/5x5_reduce -> inception_4e/5x5_reduce
I0403 19:22:49.120961 19670 net.cpp:141] Setting up inception_4e/5x5_reduce
I0403 19:22:49.120992 19670 net.cpp:148] Top shape: 24 32 14 14 (150528)
I0403 19:22:49.121008 19670 net.cpp:156] Memory required for data: 1236731424
I0403 19:22:49.121027 19670 layer_factory.hpp:77] Creating layer inception_4e/relu_5x5_reduce
I0403 19:22:49.121047 19670 net.cpp:91] Creating Layer inception_4e/relu_5x5_reduce
I0403 19:22:49.121063 19670 net.cpp:425] inception_4e/relu_5x5_reduce <- inception_4e/5x5_reduce
I0403 19:22:49.121081 19670 net.cpp:386] inception_4e/relu_5x5_reduce -> inception_4e/5x5_reduce (in-place)
I0403 19:22:49.121376 19670 net.cpp:141] Setting up inception_4e/relu_5x5_reduce
I0403 19:22:49.121402 19670 net.cpp:148] Top shape: 24 32 14 14 (150528)
I0403 19:22:49.121417 19670 net.cpp:156] Memory required for data: 1237333536
I0403 19:22:49.121430 19670 layer_factory.hpp:77] Creating layer inception_4e/5x5
I0403 19:22:49.121466 19670 net.cpp:91] Creating Layer inception_4e/5x5
I0403 19:22:49.121485 19670 net.cpp:425] inception_4e/5x5 <- inception_4e/5x5_reduce
I0403 19:22:49.121506 19670 net.cpp:399] inception_4e/5x5 -> inception_4e/5x5
I0403 19:22:49.123378 19670 net.cpp:141] Setting up inception_4e/5x5
I0403 19:22:49.123405 19670 net.cpp:148] Top shape: 24 128 14 14 (602112)
I0403 19:22:49.123432 19670 net.cpp:156] Memory required for data: 1239741984
I0403 19:22:49.123451 19670 layer_factory.hpp:77] Creating layer inception_4e/relu_5x5
I0403 19:22:49.123469 19670 net.cpp:91] Creating Layer inception_4e/relu_5x5
I0403 19:22:49.123486 19670 net.cpp:425] inception_4e/relu_5x5 <- inception_4e/5x5
I0403 19:22:49.123505 19670 net.cpp:386] inception_4e/relu_5x5 -> inception_4e/5x5 (in-place)
I0403 19:22:49.123719 19670 net.cpp:141] Setting up inception_4e/relu_5x5
I0403 19:22:49.123744 19670 net.cpp:148] Top shape: 24 128 14 14 (602112)
I0403 19:22:49.123759 19670 net.cpp:156] Memory required for data: 1242150432
I0403 19:22:49.123774 19670 layer_factory.hpp:77] Creating layer inception_4e/pool
I0403 19:22:49.123793 19670 net.cpp:91] Creating Layer inception_4e/pool
I0403 19:22:49.123811 19670 net.cpp:425] inception_4e/pool <- inception_4d/output_inception_4d/output_0_split_4
I0403 19:22:49.123828 19670 net.cpp:399] inception_4e/pool -> inception_4e/pool
I0403 19:22:49.123898 19670 net.cpp:141] Setting up inception_4e/pool
I0403 19:22:49.123921 19670 net.cpp:148] Top shape: 24 528 14 14 (2483712)
I0403 19:22:49.123936 19670 net.cpp:156] Memory required for data: 1252085280
I0403 19:22:49.123950 19670 layer_factory.hpp:77] Creating layer inception_4e/pool_proj
I0403 19:22:49.123971 19670 net.cpp:91] Creating Layer inception_4e/pool_proj
I0403 19:22:49.123993 19670 net.cpp:425] inception_4e/pool_proj <- inception_4e/pool
I0403 19:22:49.124016 19670 net.cpp:399] inception_4e/pool_proj -> inception_4e/pool_proj
I0403 19:22:49.125493 19670 net.cpp:141] Setting up inception_4e/pool_proj
I0403 19:22:49.125531 19670 net.cpp:148] Top shape: 24 128 14 14 (602112)
I0403 19:22:49.125547 19670 net.cpp:156] Memory required for data: 1254493728
I0403 19:22:49.125566 19670 layer_factory.hpp:77] Creating layer inception_4e/relu_pool_proj
I0403 19:22:49.125583 19670 net.cpp:91] Creating Layer inception_4e/relu_pool_proj
I0403 19:22:49.125599 19670 net.cpp:425] inception_4e/relu_pool_proj <- inception_4e/pool_proj
I0403 19:22:49.125618 19670 net.cpp:386] inception_4e/relu_pool_proj -> inception_4e/pool_proj (in-place)
I0403 19:22:49.125905 19670 net.cpp:141] Setting up inception_4e/relu_pool_proj
I0403 19:22:49.125931 19670 net.cpp:148] Top shape: 24 128 14 14 (602112)
I0403 19:22:49.125946 19670 net.cpp:156] Memory required for data: 1256902176
I0403 19:22:49.125962 19670 layer_factory.hpp:77] Creating layer inception_4e/output
I0403 19:22:49.125982 19670 net.cpp:91] Creating Layer inception_4e/output
I0403 19:22:49.125999 19670 net.cpp:425] inception_4e/output <- inception_4e/1x1
I0403 19:22:49.126015 19670 net.cpp:425] inception_4e/output <- inception_4e/3x3
I0403 19:22:49.126030 19670 net.cpp:425] inception_4e/output <- inception_4e/5x5
I0403 19:22:49.126046 19670 net.cpp:425] inception_4e/output <- inception_4e/pool_proj
I0403 19:22:49.126065 19670 net.cpp:399] inception_4e/output -> inception_4e/output
I0403 19:22:49.126116 19670 net.cpp:141] Setting up inception_4e/output
I0403 19:22:49.126140 19670 net.cpp:148] Top shape: 24 832 14 14 (3913728)
I0403 19:22:49.126155 19670 net.cpp:156] Memory required for data: 1272557088
I0403 19:22:49.126169 19670 layer_factory.hpp:77] Creating layer pool4/3x3_s2
I0403 19:22:49.126186 19670 net.cpp:91] Creating Layer pool4/3x3_s2
I0403 19:22:49.126204 19670 net.cpp:425] pool4/3x3_s2 <- inception_4e/output
I0403 19:22:49.126220 19670 net.cpp:399] pool4/3x3_s2 -> pool4/3x3_s2
I0403 19:22:49.126288 19670 net.cpp:141] Setting up pool4/3x3_s2
I0403 19:22:49.126312 19670 net.cpp:148] Top shape: 24 832 7 7 (978432)
I0403 19:22:49.126327 19670 net.cpp:156] Memory required for data: 1276470816
I0403 19:22:49.126341 19670 layer_factory.hpp:77] Creating layer pool4/3x3_s2_pool4/3x3_s2_0_split
I0403 19:22:49.126359 19670 net.cpp:91] Creating Layer pool4/3x3_s2_pool4/3x3_s2_0_split
I0403 19:22:49.126376 19670 net.cpp:425] pool4/3x3_s2_pool4/3x3_s2_0_split <- pool4/3x3_s2
I0403 19:22:49.126394 19670 net.cpp:399] pool4/3x3_s2_pool4/3x3_s2_0_split -> pool4/3x3_s2_pool4/3x3_s2_0_split_0
I0403 19:22:49.126412 19670 net.cpp:399] pool4/3x3_s2_pool4/3x3_s2_0_split -> pool4/3x3_s2_pool4/3x3_s2_0_split_1
I0403 19:22:49.126431 19670 net.cpp:399] pool4/3x3_s2_pool4/3x3_s2_0_split -> pool4/3x3_s2_pool4/3x3_s2_0_split_2
I0403 19:22:49.126453 19670 net.cpp:399] pool4/3x3_s2_pool4/3x3_s2_0_split -> pool4/3x3_s2_pool4/3x3_s2_0_split_3
I0403 19:22:49.126545 19670 net.cpp:141] Setting up pool4/3x3_s2_pool4/3x3_s2_0_split
I0403 19:22:49.126569 19670 net.cpp:148] Top shape: 24 832 7 7 (978432)
I0403 19:22:49.126585 19670 net.cpp:148] Top shape: 24 832 7 7 (978432)
I0403 19:22:49.126600 19670 net.cpp:148] Top shape: 24 832 7 7 (978432)
I0403 19:22:49.126615 19670 net.cpp:148] Top shape: 24 832 7 7 (978432)
I0403 19:22:49.126627 19670 net.cpp:156] Memory required for data: 1292125728
I0403 19:22:49.126641 19670 layer_factory.hpp:77] Creating layer inception_5a/1x1
I0403 19:22:49.126663 19670 net.cpp:91] Creating Layer inception_5a/1x1
I0403 19:22:49.126680 19670 net.cpp:425] inception_5a/1x1 <- pool4/3x3_s2_pool4/3x3_s2_0_split_0
I0403 19:22:49.126701 19670 net.cpp:399] inception_5a/1x1 -> inception_5a/1x1
I0403 19:22:49.129524 19670 net.cpp:141] Setting up inception_5a/1x1
I0403 19:22:49.129554 19670 net.cpp:148] Top shape: 24 256 7 7 (301056)
I0403 19:22:49.129570 19670 net.cpp:156] Memory required for data: 1293329952
I0403 19:22:49.129590 19670 layer_factory.hpp:77] Creating layer inception_5a/relu_1x1
I0403 19:22:49.129611 19670 net.cpp:91] Creating Layer inception_5a/relu_1x1
I0403 19:22:49.129628 19670 net.cpp:425] inception_5a/relu_1x1 <- inception_5a/1x1
I0403 19:22:49.129645 19670 net.cpp:386] inception_5a/relu_1x1 -> inception_5a/1x1 (in-place)
I0403 19:22:49.129961 19670 net.cpp:141] Setting up inception_5a/relu_1x1
I0403 19:22:49.130002 19670 net.cpp:148] Top shape: 24 256 7 7 (301056)
I0403 19:22:49.130018 19670 net.cpp:156] Memory required for data: 1294534176
I0403 19:22:49.130033 19670 layer_factory.hpp:77] Creating layer inception_5a/3x3_reduce
I0403 19:22:49.130055 19670 net.cpp:91] Creating Layer inception_5a/3x3_reduce
I0403 19:22:49.130074 19670 net.cpp:425] inception_5a/3x3_reduce <- pool4/3x3_s2_pool4/3x3_s2_0_split_1
I0403 19:22:49.130095 19670 net.cpp:399] inception_5a/3x3_reduce -> inception_5a/3x3_reduce
I0403 19:22:49.132508 19670 net.cpp:141] Setting up inception_5a/3x3_reduce
I0403 19:22:49.132537 19670 net.cpp:148] Top shape: 24 160 7 7 (188160)
I0403 19:22:49.132553 19670 net.cpp:156] Memory required for data: 1295286816
I0403 19:22:49.132571 19670 layer_factory.hpp:77] Creating layer inception_5a/relu_3x3_reduce
I0403 19:22:49.132591 19670 net.cpp:91] Creating Layer inception_5a/relu_3x3_reduce
I0403 19:22:49.132606 19670 net.cpp:425] inception_5a/relu_3x3_reduce <- inception_5a/3x3_reduce
I0403 19:22:49.132625 19670 net.cpp:386] inception_5a/relu_3x3_reduce -> inception_5a/3x3_reduce (in-place)
I0403 19:22:49.132812 19670 net.cpp:141] Setting up inception_5a/relu_3x3_reduce
I0403 19:22:49.132838 19670 net.cpp:148] Top shape: 24 160 7 7 (188160)
I0403 19:22:49.132853 19670 net.cpp:156] Memory required for data: 1296039456
I0403 19:22:49.132868 19670 layer_factory.hpp:77] Creating layer inception_5a/3x3
I0403 19:22:49.132889 19670 net.cpp:91] Creating Layer inception_5a/3x3
I0403 19:22:49.132906 19670 net.cpp:425] inception_5a/3x3 <- inception_5a/3x3_reduce
I0403 19:22:49.132928 19670 net.cpp:399] inception_5a/3x3 -> inception_5a/3x3
I0403 19:22:49.137876 19670 net.cpp:141] Setting up inception_5a/3x3
I0403 19:22:49.137904 19670 net.cpp:148] Top shape: 24 320 7 7 (376320)
I0403 19:22:49.137920 19670 net.cpp:156] Memory required for data: 1297544736
I0403 19:22:49.137938 19670 layer_factory.hpp:77] Creating layer inception_5a/relu_3x3
I0403 19:22:49.137959 19670 net.cpp:91] Creating Layer inception_5a/relu_3x3
I0403 19:22:49.137974 19670 net.cpp:425] inception_5a/relu_3x3 <- inception_5a/3x3
I0403 19:22:49.137997 19670 net.cpp:386] inception_5a/relu_3x3 -> inception_5a/3x3 (in-place)
I0403 19:22:49.138291 19670 net.cpp:141] Setting up inception_5a/relu_3x3
I0403 19:22:49.138317 19670 net.cpp:148] Top shape: 24 320 7 7 (376320)
I0403 19:22:49.138332 19670 net.cpp:156] Memory required for data: 1299050016
I0403 19:22:49.138347 19670 layer_factory.hpp:77] Creating layer inception_5a/5x5_reduce
I0403 19:22:49.138370 19670 net.cpp:91] Creating Layer inception_5a/5x5_reduce
I0403 19:22:49.138387 19670 net.cpp:425] inception_5a/5x5_reduce <- pool4/3x3_s2_pool4/3x3_s2_0_split_2
I0403 19:22:49.138409 19670 net.cpp:399] inception_5a/5x5_reduce -> inception_5a/5x5_reduce
I0403 19:22:49.139631 19670 net.cpp:141] Setting up inception_5a/5x5_reduce
I0403 19:22:49.139660 19670 net.cpp:148] Top shape: 24 32 7 7 (37632)
I0403 19:22:49.139678 19670 net.cpp:156] Memory required for data: 1299200544
I0403 19:22:49.139694 19670 layer_factory.hpp:77] Creating layer inception_5a/relu_5x5_reduce
I0403 19:22:49.139711 19670 net.cpp:91] Creating Layer inception_5a/relu_5x5_reduce
I0403 19:22:49.139727 19670 net.cpp:425] inception_5a/relu_5x5_reduce <- inception_5a/5x5_reduce
I0403 19:22:49.139745 19670 net.cpp:386] inception_5a/relu_5x5_reduce -> inception_5a/5x5_reduce (in-place)
I0403 19:22:49.140044 19670 net.cpp:141] Setting up inception_5a/relu_5x5_reduce
I0403 19:22:49.140069 19670 net.cpp:148] Top shape: 24 32 7 7 (37632)
I0403 19:22:49.140084 19670 net.cpp:156] Memory required for data: 1299351072
I0403 19:22:49.140100 19670 layer_factory.hpp:77] Creating layer inception_5a/5x5
I0403 19:22:49.140121 19670 net.cpp:91] Creating Layer inception_5a/5x5
I0403 19:22:49.140139 19670 net.cpp:425] inception_5a/5x5 <- inception_5a/5x5_reduce
I0403 19:22:49.140161 19670 net.cpp:399] inception_5a/5x5 -> inception_5a/5x5
I0403 19:22:49.141846 19670 net.cpp:141] Setting up inception_5a/5x5
I0403 19:22:49.141885 19670 net.cpp:148] Top shape: 24 128 7 7 (150528)
I0403 19:22:49.141901 19670 net.cpp:156] Memory required for data: 1299953184
I0403 19:22:49.141919 19670 layer_factory.hpp:77] Creating layer inception_5a/relu_5x5
I0403 19:22:49.141939 19670 net.cpp:91] Creating Layer inception_5a/relu_5x5
I0403 19:22:49.141957 19670 net.cpp:425] inception_5a/relu_5x5 <- inception_5a/5x5
I0403 19:22:49.141974 19670 net.cpp:386] inception_5a/relu_5x5 -> inception_5a/5x5 (in-place)
I0403 19:22:49.142169 19670 net.cpp:141] Setting up inception_5a/relu_5x5
I0403 19:22:49.142194 19670 net.cpp:148] Top shape: 24 128 7 7 (150528)
I0403 19:22:49.142211 19670 net.cpp:156] Memory required for data: 1300555296
I0403 19:22:49.142226 19670 layer_factory.hpp:77] Creating layer inception_5a/pool
I0403 19:22:49.142243 19670 net.cpp:91] Creating Layer inception_5a/pool
I0403 19:22:49.142259 19670 net.cpp:425] inception_5a/pool <- pool4/3x3_s2_pool4/3x3_s2_0_split_3
I0403 19:22:49.142277 19670 net.cpp:399] inception_5a/pool -> inception_5a/pool
I0403 19:22:49.142348 19670 net.cpp:141] Setting up inception_5a/pool
I0403 19:22:49.142370 19670 net.cpp:148] Top shape: 24 832 7 7 (978432)
I0403 19:22:49.142385 19670 net.cpp:156] Memory required for data: 1304469024
I0403 19:22:49.142398 19670 layer_factory.hpp:77] Creating layer inception_5a/pool_proj
I0403 19:22:49.142421 19670 net.cpp:91] Creating Layer inception_5a/pool_proj
I0403 19:22:49.142437 19670 net.cpp:425] inception_5a/pool_proj <- inception_5a/pool
I0403 19:22:49.142458 19670 net.cpp:399] inception_5a/pool_proj -> inception_5a/pool_proj
I0403 19:22:49.144683 19670 net.cpp:141] Setting up inception_5a/pool_proj
I0403 19:22:49.144712 19670 net.cpp:148] Top shape: 24 128 7 7 (150528)
I0403 19:22:49.144728 19670 net.cpp:156] Memory required for data: 1305071136
I0403 19:22:49.144747 19670 layer_factory.hpp:77] Creating layer inception_5a/relu_pool_proj
I0403 19:22:49.144764 19670 net.cpp:91] Creating Layer inception_5a/relu_pool_proj
I0403 19:22:49.144783 19670 net.cpp:425] inception_5a/relu_pool_proj <- inception_5a/pool_proj
I0403 19:22:49.144800 19670 net.cpp:386] inception_5a/relu_pool_proj -> inception_5a/pool_proj (in-place)
I0403 19:22:49.145092 19670 net.cpp:141] Setting up inception_5a/relu_pool_proj
I0403 19:22:49.145117 19670 net.cpp:148] Top shape: 24 128 7 7 (150528)
I0403 19:22:49.145133 19670 net.cpp:156] Memory required for data: 1305673248
I0403 19:22:49.145148 19670 layer_factory.hpp:77] Creating layer inception_5a/output
I0403 19:22:49.145165 19670 net.cpp:91] Creating Layer inception_5a/output
I0403 19:22:49.145180 19670 net.cpp:425] inception_5a/output <- inception_5a/1x1
I0403 19:22:49.145197 19670 net.cpp:425] inception_5a/output <- inception_5a/3x3
I0403 19:22:49.145213 19670 net.cpp:425] inception_5a/output <- inception_5a/5x5
I0403 19:22:49.145228 19670 net.cpp:425] inception_5a/output <- inception_5a/pool_proj
I0403 19:22:49.145247 19670 net.cpp:399] inception_5a/output -> inception_5a/output
I0403 19:22:49.145297 19670 net.cpp:141] Setting up inception_5a/output
I0403 19:22:49.145321 19670 net.cpp:148] Top shape: 24 832 7 7 (978432)
I0403 19:22:49.145336 19670 net.cpp:156] Memory required for data: 1309586976
I0403 19:22:49.145350 19670 layer_factory.hpp:77] Creating layer inception_5a/output_inception_5a/output_0_split
I0403 19:22:49.145367 19670 net.cpp:91] Creating Layer inception_5a/output_inception_5a/output_0_split
I0403 19:22:49.145383 19670 net.cpp:425] inception_5a/output_inception_5a/output_0_split <- inception_5a/output
I0403 19:22:49.145401 19670 net.cpp:399] inception_5a/output_inception_5a/output_0_split -> inception_5a/output_inception_5a/output_0_split_0
I0403 19:22:49.145427 19670 net.cpp:399] inception_5a/output_inception_5a/output_0_split -> inception_5a/output_inception_5a/output_0_split_1
I0403 19:22:49.145448 19670 net.cpp:399] inception_5a/output_inception_5a/output_0_split -> inception_5a/output_inception_5a/output_0_split_2
I0403 19:22:49.145468 19670 net.cpp:399] inception_5a/output_inception_5a/output_0_split -> inception_5a/output_inception_5a/output_0_split_3
I0403 19:22:49.145576 19670 net.cpp:141] Setting up inception_5a/output_inception_5a/output_0_split
I0403 19:22:49.145599 19670 net.cpp:148] Top shape: 24 832 7 7 (978432)
I0403 19:22:49.145615 19670 net.cpp:148] Top shape: 24 832 7 7 (978432)
I0403 19:22:49.145630 19670 net.cpp:148] Top shape: 24 832 7 7 (978432)
I0403 19:22:49.145645 19670 net.cpp:148] Top shape: 24 832 7 7 (978432)
I0403 19:22:49.145659 19670 net.cpp:156] Memory required for data: 1325241888
I0403 19:22:49.145673 19670 layer_factory.hpp:77] Creating layer inception_5b/1x1
I0403 19:22:49.145694 19670 net.cpp:91] Creating Layer inception_5b/1x1
I0403 19:22:49.145711 19670 net.cpp:425] inception_5b/1x1 <- inception_5a/output_inception_5a/output_0_split_0
I0403 19:22:49.145732 19670 net.cpp:399] inception_5b/1x1 -> inception_5b/1x1
I0403 19:22:49.149457 19670 net.cpp:141] Setting up inception_5b/1x1
I0403 19:22:49.149487 19670 net.cpp:148] Top shape: 24 384 7 7 (451584)
I0403 19:22:49.149502 19670 net.cpp:156] Memory required for data: 1327048224
I0403 19:22:49.149519 19670 layer_factory.hpp:77] Creating layer inception_5b/relu_1x1
I0403 19:22:49.149538 19670 net.cpp:91] Creating Layer inception_5b/relu_1x1
I0403 19:22:49.149552 19670 net.cpp:425] inception_5b/relu_1x1 <- inception_5b/1x1
I0403 19:22:49.149571 19670 net.cpp:386] inception_5b/relu_1x1 -> inception_5b/1x1 (in-place)
I0403 19:22:49.149871 19670 net.cpp:141] Setting up inception_5b/relu_1x1
I0403 19:22:49.149898 19670 net.cpp:148] Top shape: 24 384 7 7 (451584)
I0403 19:22:49.149914 19670 net.cpp:156] Memory required for data: 1328854560
I0403 19:22:49.149927 19670 layer_factory.hpp:77] Creating layer inception_5b/3x3_reduce
I0403 19:22:49.149950 19670 net.cpp:91] Creating Layer inception_5b/3x3_reduce
I0403 19:22:49.149967 19670 net.cpp:425] inception_5b/3x3_reduce <- inception_5a/output_inception_5a/output_0_split_1
I0403 19:22:49.149993 19670 net.cpp:399] inception_5b/3x3_reduce -> inception_5b/3x3_reduce
I0403 19:22:49.152596 19670 net.cpp:141] Setting up inception_5b/3x3_reduce
I0403 19:22:49.152624 19670 net.cpp:148] Top shape: 24 192 7 7 (225792)
I0403 19:22:49.152640 19670 net.cpp:156] Memory required for data: 1329757728
I0403 19:22:49.152658 19670 layer_factory.hpp:77] Creating layer inception_5b/relu_3x3_reduce
I0403 19:22:49.152675 19670 net.cpp:91] Creating Layer inception_5b/relu_3x3_reduce
I0403 19:22:49.152690 19670 net.cpp:425] inception_5b/relu_3x3_reduce <- inception_5b/3x3_reduce
I0403 19:22:49.152710 19670 net.cpp:386] inception_5b/relu_3x3_reduce -> inception_5b/3x3_reduce (in-place)
I0403 19:22:49.152897 19670 net.cpp:141] Setting up inception_5b/relu_3x3_reduce
I0403 19:22:49.152922 19670 net.cpp:148] Top shape: 24 192 7 7 (225792)
I0403 19:22:49.152937 19670 net.cpp:156] Memory required for data: 1330660896
I0403 19:22:49.152951 19670 layer_factory.hpp:77] Creating layer inception_5b/3x3
I0403 19:22:49.152972 19670 net.cpp:91] Creating Layer inception_5b/3x3
I0403 19:22:49.152994 19670 net.cpp:425] inception_5b/3x3 <- inception_5b/3x3_reduce
I0403 19:22:49.153017 19670 net.cpp:399] inception_5b/3x3 -> inception_5b/3x3
I0403 19:22:49.159623 19670 net.cpp:141] Setting up inception_5b/3x3
I0403 19:22:49.159652 19670 net.cpp:148] Top shape: 24 384 7 7 (451584)
I0403 19:22:49.159668 19670 net.cpp:156] Memory required for data: 1332467232
I0403 19:22:49.159687 19670 layer_factory.hpp:77] Creating layer inception_5b/relu_3x3
I0403 19:22:49.159704 19670 net.cpp:91] Creating Layer inception_5b/relu_3x3
I0403 19:22:49.159723 19670 net.cpp:425] inception_5b/relu_3x3 <- inception_5b/3x3
I0403 19:22:49.159740 19670 net.cpp:386] inception_5b/relu_3x3 -> inception_5b/3x3 (in-place)
I0403 19:22:49.160037 19670 net.cpp:141] Setting up inception_5b/relu_3x3
I0403 19:22:49.160063 19670 net.cpp:148] Top shape: 24 384 7 7 (451584)
I0403 19:22:49.160079 19670 net.cpp:156] Memory required for data: 1334273568
I0403 19:22:49.160092 19670 layer_factory.hpp:77] Creating layer inception_5b/5x5_reduce
I0403 19:22:49.160130 19670 net.cpp:91] Creating Layer inception_5b/5x5_reduce
I0403 19:22:49.160148 19670 net.cpp:425] inception_5b/5x5_reduce <- inception_5a/output_inception_5a/output_0_split_2
I0403 19:22:49.160171 19670 net.cpp:399] inception_5b/5x5_reduce -> inception_5b/5x5_reduce
I0403 19:22:49.161422 19670 net.cpp:141] Setting up inception_5b/5x5_reduce
I0403 19:22:49.161448 19670 net.cpp:148] Top shape: 24 48 7 7 (56448)
I0403 19:22:49.161463 19670 net.cpp:156] Memory required for data: 1334499360
I0403 19:22:49.161481 19670 layer_factory.hpp:77] Creating layer inception_5b/relu_5x5_reduce
I0403 19:22:49.161499 19670 net.cpp:91] Creating Layer inception_5b/relu_5x5_reduce
I0403 19:22:49.161515 19670 net.cpp:425] inception_5b/relu_5x5_reduce <- inception_5b/5x5_reduce
I0403 19:22:49.161535 19670 net.cpp:386] inception_5b/relu_5x5_reduce -> inception_5b/5x5_reduce (in-place)
I0403 19:22:49.161908 19670 net.cpp:141] Setting up inception_5b/relu_5x5_reduce
I0403 19:22:49.161934 19670 net.cpp:148] Top shape: 24 48 7 7 (56448)
I0403 19:22:49.161949 19670 net.cpp:156] Memory required for data: 1334725152
I0403 19:22:49.161964 19670 layer_factory.hpp:77] Creating layer inception_5b/5x5
I0403 19:22:49.161988 19670 net.cpp:91] Creating Layer inception_5b/5x5
I0403 19:22:49.162006 19670 net.cpp:425] inception_5b/5x5 <- inception_5b/5x5_reduce
I0403 19:22:49.162024 19670 net.cpp:399] inception_5b/5x5 -> inception_5b/5x5
I0403 19:22:49.164069 19670 net.cpp:141] Setting up inception_5b/5x5
I0403 19:22:49.164098 19670 net.cpp:148] Top shape: 24 128 7 7 (150528)
I0403 19:22:49.164113 19670 net.cpp:156] Memory required for data: 1335327264
I0403 19:22:49.164129 19670 layer_factory.hpp:77] Creating layer inception_5b/relu_5x5
I0403 19:22:49.164149 19670 net.cpp:91] Creating Layer inception_5b/relu_5x5
I0403 19:22:49.164167 19670 net.cpp:425] inception_5b/relu_5x5 <- inception_5b/5x5
I0403 19:22:49.164183 19670 net.cpp:386] inception_5b/relu_5x5 -> inception_5b/5x5 (in-place)
I0403 19:22:49.164376 19670 net.cpp:141] Setting up inception_5b/relu_5x5
I0403 19:22:49.164402 19670 net.cpp:148] Top shape: 24 128 7 7 (150528)
I0403 19:22:49.164415 19670 net.cpp:156] Memory required for data: 1335929376
I0403 19:22:49.164430 19670 layer_factory.hpp:77] Creating layer inception_5b/pool
I0403 19:22:49.164450 19670 net.cpp:91] Creating Layer inception_5b/pool
I0403 19:22:49.164468 19670 net.cpp:425] inception_5b/pool <- inception_5a/output_inception_5a/output_0_split_3
I0403 19:22:49.164485 19670 net.cpp:399] inception_5b/pool -> inception_5b/pool
I0403 19:22:49.164559 19670 net.cpp:141] Setting up inception_5b/pool
I0403 19:22:49.164582 19670 net.cpp:148] Top shape: 24 832 7 7 (978432)
I0403 19:22:49.164597 19670 net.cpp:156] Memory required for data: 1339843104
I0403 19:22:49.164611 19670 layer_factory.hpp:77] Creating layer inception_5b/pool_proj
I0403 19:22:49.164633 19670 net.cpp:91] Creating Layer inception_5b/pool_proj
I0403 19:22:49.164649 19670 net.cpp:425] inception_5b/pool_proj <- inception_5b/pool
I0403 19:22:49.164670 19670 net.cpp:399] inception_5b/pool_proj -> inception_5b/pool_proj
I0403 19:22:49.166923 19670 net.cpp:141] Setting up inception_5b/pool_proj
I0403 19:22:49.166951 19670 net.cpp:148] Top shape: 24 128 7 7 (150528)
I0403 19:22:49.166966 19670 net.cpp:156] Memory required for data: 1340445216
I0403 19:22:49.166988 19670 layer_factory.hpp:77] Creating layer inception_5b/relu_pool_proj
I0403 19:22:49.167007 19670 net.cpp:91] Creating Layer inception_5b/relu_pool_proj
I0403 19:22:49.167023 19670 net.cpp:425] inception_5b/relu_pool_proj <- inception_5b/pool_proj
I0403 19:22:49.167042 19670 net.cpp:386] inception_5b/relu_pool_proj -> inception_5b/pool_proj (in-place)
I0403 19:22:49.167337 19670 net.cpp:141] Setting up inception_5b/relu_pool_proj
I0403 19:22:49.167363 19670 net.cpp:148] Top shape: 24 128 7 7 (150528)
I0403 19:22:49.167377 19670 net.cpp:156] Memory required for data: 1341047328
I0403 19:22:49.167392 19670 layer_factory.hpp:77] Creating layer inception_5b/output
I0403 19:22:49.167409 19670 net.cpp:91] Creating Layer inception_5b/output
I0403 19:22:49.167439 19670 net.cpp:425] inception_5b/output <- inception_5b/1x1
I0403 19:22:49.167457 19670 net.cpp:425] inception_5b/output <- inception_5b/3x3
I0403 19:22:49.167474 19670 net.cpp:425] inception_5b/output <- inception_5b/5x5
I0403 19:22:49.167490 19670 net.cpp:425] inception_5b/output <- inception_5b/pool_proj
I0403 19:22:49.167508 19670 net.cpp:399] inception_5b/output -> inception_5b/output
I0403 19:22:49.167559 19670 net.cpp:141] Setting up inception_5b/output
I0403 19:22:49.167584 19670 net.cpp:148] Top shape: 24 1024 7 7 (1204224)
I0403 19:22:49.167601 19670 net.cpp:156] Memory required for data: 1345864224
I0403 19:22:49.167615 19670 layer_factory.hpp:77] Creating layer pool5/7x7_s1
I0403 19:22:49.167632 19670 net.cpp:91] Creating Layer pool5/7x7_s1
I0403 19:22:49.167649 19670 net.cpp:425] pool5/7x7_s1 <- inception_5b/output
I0403 19:22:49.167671 19670 net.cpp:399] pool5/7x7_s1 -> pool5/7x7_s1
I0403 19:22:49.167883 19670 net.cpp:141] Setting up pool5/7x7_s1
I0403 19:22:49.167909 19670 net.cpp:148] Top shape: 24 1024 1 1 (24576)
I0403 19:22:49.167924 19670 net.cpp:156] Memory required for data: 1345962528
I0403 19:22:49.167938 19670 layer_factory.hpp:77] Creating layer pool5/drop_7x7_s1
I0403 19:22:49.167955 19670 net.cpp:91] Creating Layer pool5/drop_7x7_s1
I0403 19:22:49.167971 19670 net.cpp:425] pool5/drop_7x7_s1 <- pool5/7x7_s1
I0403 19:22:49.167995 19670 net.cpp:386] pool5/drop_7x7_s1 -> pool5/7x7_s1 (in-place)
I0403 19:22:49.168048 19670 net.cpp:141] Setting up pool5/drop_7x7_s1
I0403 19:22:49.168071 19670 net.cpp:148] Top shape: 24 1024 1 1 (24576)
I0403 19:22:49.168084 19670 net.cpp:156] Memory required for data: 1346060832
I0403 19:22:49.168098 19670 layer_factory.hpp:77] Creating layer loss3/classifier_plantvillage
I0403 19:22:49.168117 19670 net.cpp:91] Creating Layer loss3/classifier_plantvillage
I0403 19:22:49.168133 19670 net.cpp:425] loss3/classifier_plantvillage <- pool5/7x7_s1
I0403 19:22:49.168153 19670 net.cpp:399] loss3/classifier_plantvillage -> loss3/classifier_plantvillage
I0403 19:22:49.168568 19670 net.cpp:141] Setting up loss3/classifier_plantvillage
I0403 19:22:49.168593 19670 net.cpp:148] Top shape: 24 38 (912)
I0403 19:22:49.168608 19670 net.cpp:156] Memory required for data: 1346064480
I0403 19:22:49.168625 19670 layer_factory.hpp:77] Creating layer loss3/classifier_plantvillage_loss3/classifier_plantvillage_0_split
I0403 19:22:49.168647 19670 net.cpp:91] Creating Layer loss3/classifier_plantvillage_loss3/classifier_plantvillage_0_split
I0403 19:22:49.168663 19670 net.cpp:425] loss3/classifier_plantvillage_loss3/classifier_plantvillage_0_split <- loss3/classifier_plantvillage
I0403 19:22:49.168683 19670 net.cpp:399] loss3/classifier_plantvillage_loss3/classifier_plantvillage_0_split -> loss3/classifier_plantvillage_loss3/classifier_plantvillage_0_split_0
I0403 19:22:49.168704 19670 net.cpp:399] loss3/classifier_plantvillage_loss3/classifier_plantvillage_0_split -> loss3/classifier_plantvillage_loss3/classifier_plantvillage_0_split_1
I0403 19:22:49.168723 19670 net.cpp:399] loss3/classifier_plantvillage_loss3/classifier_plantvillage_0_split -> loss3/classifier_plantvillage_loss3/classifier_plantvillage_0_split_2
I0403 19:22:49.168742 19670 net.cpp:399] loss3/classifier_plantvillage_loss3/classifier_plantvillage_0_split -> loss3/classifier_plantvillage_loss3/classifier_plantvillage_0_split_3
I0403 19:22:49.168840 19670 net.cpp:141] Setting up loss3/classifier_plantvillage_loss3/classifier_plantvillage_0_split
I0403 19:22:49.168864 19670 net.cpp:148] Top shape: 24 38 (912)
I0403 19:22:49.168879 19670 net.cpp:148] Top shape: 24 38 (912)
I0403 19:22:49.168895 19670 net.cpp:148] Top shape: 24 38 (912)
I0403 19:22:49.168910 19670 net.cpp:148] Top shape: 24 38 (912)
I0403 19:22:49.168922 19670 net.cpp:156] Memory required for data: 1346079072
I0403 19:22:49.168936 19670 layer_factory.hpp:77] Creating layer loss1/loss
I0403 19:22:49.168956 19670 net.cpp:91] Creating Layer loss1/loss
I0403 19:22:49.168973 19670 net.cpp:425] loss1/loss <- loss1/classifier_plantvillage_loss1/classifier_plantvillage_0_split_0
I0403 19:22:49.169025 19670 net.cpp:425] loss1/loss <- label_data_1_split_0
…
