…
I0403 18:58:59.338099 18311 net.cpp:313] The NetState phase (1) differed from the phase (0) specified by a rule in layer data
I0403 18:58:59.339242 18311 net.cpp:49] Initializing net from parameters: 
state {
  phase: TEST
}
layer {
  name: "data"
  type: "Data"
  top: "data"
  top: "label"
  include {
    phase: TEST
  }
  transform_param {
    mirror: false
    crop_size: 224
    mean_file: "/home/mohanty/data/final_dataset/lmdb/segmented-60-40/mean.binaryproto"
  }
  data_param {
    source: "/home/mohanty/data/final_dataset/lmdb/segmented-60-40/test_db"
    batch_size: 24
    backend: LMDB
  }
}
layer {
  name: "conv1/7x7_s2"
  type: "Convolution"
  bottom: "data"
  top: "conv1/7x7_s2"
  param {
    lr_mult: 1
    decay_mult: 1
  }
  param {
    lr_mult: 2
    decay_mult: 0
  }
  convolution_param {
    num_output: 64
    pad: 3
    kernel_size: 7
    stride: 2
    weight_filler {
      type: "xavier"
      std: 0.1
    }
    bias_filler {
      type: "constant"
      value: 0.2
    }
  }
}
layer {
  name: "conv1/relu_7x7"
  type: "ReLU"
  bottom: "conv1/7x7_s2"
  top: "conv1/7x7_s2"
}
layer {
  name: "pool1/3x3_s2"
  type: "Pooling"
  bottom: "conv1/7x7_s2"
  top: "pool1/3x3_s2"
  pooling_param {
    pool: MAX
    kernel_size: 3
    stride: 2
  }
}
layer {
  name: "pool1/norm1"
  type: "LRN"
  bottom: "pool1/3x3_s2"
  top: "pool1/norm1"
  lrn_param {
    local_size: 5
    alpha: 0.0001
    beta: 0.75
  }
}
layer {
  name: "conv2/3x3_reduce"
  type: "Convolution"
  bottom: "pool1/norm1"
  top: "conv2/3x3_reduce"
  param {
    lr_mult: 1
    decay_mult: 1
  }
  param {
    lr_mult: 2
    decay_mult: 0
  }
  convolution_param {
    num_output: 64
    kernel_size: 1
    weight_filler {
      type: "xavier"
      std: 0.1
    }
    bias_filler {
      type: "constant"
      value: 0.2
    }
  }
}
layer {
  name: "conv2/relu_3x3_reduce"
  type: "ReLU"
  bottom: "conv2/3x3_reduce"
  top: "conv2/3x3_reduce"
}
layer {
  name: "conv2/3x3"
  type: "Convolution"
  bottom: "conv2/3x3_reduce"
  top: "conv2/3x3"
  param {
    lr_mult: 1
    decay_mult: 1
  }
  param {
    lr_mult: 2
    decay_mult: 0
  }
  convolution_param {
    num_output: 192
    pad: 1
    kernel_size: 3
    weight_filler {
      type: "xavier"
      std: 0.03
    }
    bias_filler {
      type: "constant"
      value: 0.2
    }
  }
}
layer {
  name: "conv2/relu_3x3"
  type: "ReLU"
  bottom: "conv2/3x3"
  top: "conv2/3x3"
}
layer {
  name: "conv2/norm2"
  type: "LRN"
  bottom: "conv2/3x3"
  top: "conv2/norm2"
  lrn_param {
    local_size: 5
    alpha: 0.0001
    beta: 0.75
  }
}
layer {
  name: "pool2/3x3_s2"
  type: "Pooling"
  bottom: "conv2/norm2"
  top: "pool2/3x3_s2"
  pooling_param {
    pool: MAX
    kernel_size: 3
    stride: 2
  }
}
layer {
  name: "inception_3a/1x1"
  type: "Convolution"
  bottom: "pool2/3x3_s2"
  top: "inception_3a/1x1"
  param {
    lr_mult: 1
    decay_mult: 1
  }
  param {
    lr_mult: 2
    decay_mult: 0
  }
  convolution_param {
    num_output: 64
    kernel_size: 1
    weight_filler {
      type: "xavier"
      std: 0.03
    }
    bias_filler {
      type: "constant"
      value: 0.2
    }
  }
}
layer {
  name: "inception_3a/relu_1x1"
  type: "ReLU"
  bottom: "inception_3a/1x1"
  top: "inception_3a/1x1"
}
layer {
  name: "inception_3a/3x3_reduce"
  type: "Convolution"
  bottom: "pool2/3x3_s2"
  top: "inception_3a/3x3_reduce"
  param {
    lr_mult: 1
    decay_mult: 1
  }
  param {
    lr_mult: 2
    decay_mult: 0
  }
  convolution_param {
    num_output: 96
    kernel_size: 1
    weight_filler {
      type: "xavier"
      std: 0.09
    }
    bias_filler {
      type: "constant"
      value: 0.2
    }
  }
}
layer {
  name: "inception_3a/relu_3x3_reduce"
  type: "ReLU"
  bottom: "inception_3a/3x3_reduce"
  top: "inception_3a/3x3_reduce"
}
layer {
  name: "inception_3a/3x3"
  type: "Convolution"
  bottom: "inception_3a/3x3_reduce"
  top: "inception_3a/3x3"
  param {
    lr_mult: 1
    decay_mult: 1
  }
  param {
    lr_mult: 2
    decay_mult: 0
  }
  convolution_param {
    num_output: 128
    pad: 1
    kernel_size: 3
    weight_filler {
      type: "xavier"
      std: 0.03
    }
    bias_filler {
      type: "constant"
      value: 0.2
    }
  }
}
layer {
  name: "inception_3a/relu_3x3"
  type: "ReLU"
  bottom: "inception_3a/3x3"
  top: "inception_3a/3x3"
}
layer {
  name: "inception_3a/5x5_reduce"
  type: "Convolution"
  bottom: "pool2/3x3_s2"
  top: "inception_3a/5x5_reduce"
  param {
    lr_mult: 1
    decay_mult: 1
  }
  param {
    lr_mult: 2
    decay_mult: 0
  }
  convolution_param {
    num_output: 16
    kernel_size: 1
    weight_filler {
      type: "xavier"
      std: 0.2
    }
    bias_filler {
      type: "constant"
      value: 0.2
    }
  }
}
layer {
  name: "inception_3a/relu_5x5_reduce"
  type: "ReLU"
  bottom: "inception_3a/5x5_reduce"
  top: "inception_3a/5x5_reduce"
}
layer {
  name: "inception_3a/5x5"
  type: "Convolution"
  bottom: "inception_3a/5x5_reduce"
  top: "inception_3a/5x5"
  param {
    lr_mult: 1
    decay_mult: 1
  }
  param {
    lr_mult: 2
    decay_mult: 0
  }
  convolution_param {
    num_output: 32
    pad: 2
    kernel_size: 5
    weight_filler {
      type: "xavier"
      std: 0.03
    }
    bias_filler {
      type: "constant"
      value: 0.2
    }
  }
}
layer {
  name: "inception_3a/relu_5x5"
  type: "ReLU"
  bottom: "inception_3a/5x5"
  top: "inception_3a/5x5"
}
layer {
  name: "inception_3a/pool"
  type: "Pooling"
  bottom: "pool2/3x3_s2"
  top: "inception_3a/pool"
  pooling_param {
    pool: MAX
    kernel_size: 3
    stride: 1
    pad: 1
  }
}
layer {
  name: "inception_3a/pool_proj"
  type: "Convolution"
  bottom: "inception_3a/pool"
  top: "inception_3a/pool_proj"
  param {
    lr_mult: 1
    decay_mult: 1
  }
  param {
    lr_mult: 2
    decay_mult: 0
  }
  convolution_param {
    num_output: 32
    kernel_size: 1
    weight_filler {
      type: "xavier"
      std: 0.1
    }
    bias_filler {
      type: "constant"
      value: 0.2
    }
  }
}
layer {
  name: "inception_3a/relu_pool_proj"
  type: "ReLU"
  bottom: "inception_3a/pool_proj"
  top: "inception_3a/pool_proj"
}
layer {
  name: "inception_3a/output"
  type: "Concat"
  bottom: "inception_3a/1x1"
  bottom: "inception_3a/3x3"
  bottom: "inception_3a/5x5"
  bottom: "inception_3a/pool_proj"
  top: "inception_3a/output"
}
layer {
  name: "inception_3b/1x1"
  type: "Convolution"
  bottom: "inception_3a/output"
  top: "inception_3b/1x1"
  param {
    lr_mult: 1
    decay_mult: 1
  }
  param {
    lr_mult: 2
    decay_mult: 0
  }
  convolution_param {
    num_output: 128
    kernel_size: 1
    weight_filler {
      type: "xavier"
      std: 0.03
    }
    bias_filler {
      type: "constant"
      value: 0.2
    }
  }
}
layer {
  name: "inception_3b/relu_1x1"
  type: "ReLU"
  bottom: "inception_3b/1x1"
  top: "inception_3b/1x1"
}
layer {
  name: "inception_3b/3x3_reduce"
  type: "Convolution"
  bottom: "inception_3a/output"
  top: "inception_3b/3x3_reduce"
  param {
    lr_mult: 1
    decay_mult: 1
  }
  param {
    lr_mult: 2
    decay_mult: 0
  }
  convolution_param {
    num_output: 128
    kernel_size: 1
    weight_filler {
      type: "xavier"
      std: 0.09
    }
    bias_filler {
      type: "constant"
      value: 0.2
    }
  }
}
layer {
  name: "inception_3b/relu_3x3_reduce"
  type: "ReLU"
  bottom: "inception_3b/3x3_reduce"
  top: "inception_3b/3x3_reduce"
}
layer {
  name: "inception_3b/3x3"
  type: "Convolution"
  bottom: "inception_3b/3x3_reduce"
  top: "inception_3b/3x3"
  param {
    lr_mult: 1
    decay_mult: 1
  }
  param {
    lr_mult: 2
    decay_mult: 0
  }
  convolution_param {
    num_output: 192
    pad: 1
    kernel_size: 3
    weight_filler {
      type: "xavier"
      std: 0.03
    }
    bias_filler {
      type: "constant"
      value: 0.2
    }
  }
}
layer {
  name: "inception_3b/relu_3x3"
  type: "ReLU"
  bottom: "inception_3b/3x3"
  top: "inception_3b/3x3"
}
layer {
  name: "inception_3b/5x5_reduce"
  type: "Convolution"
  bottom: "inception_3a/output"
  top: "inception_3b/5x5_reduce"
  param {
    lr_mult: 1
    decay_mult: 1
  }
  param {
    lr_mult: 2
    decay_mult: 0
  }
  convolution_param {
    num_output: 32
    kernel_size: 1
    weight_filler {
      type: "xavier"
      std: 0.2
    }
    bias_filler {
      type: "constant"
      value: 0.2
    }
  }
}
layer {
  name: "inception_3b/relu_5x5_reduce"
  type: "ReLU"
  bottom: "inception_3b/5x5_reduce"
  top: "inception_3b/5x5_reduce"
}
layer {
  name: "inception_3b/5x5"
  type: "Convolution"
  bottom: "inception_3b/5x5_reduce"
  top: "inception_3b/5x5"
  param {
    lr_mult: 1
    decay_mult: 1
  }
  param {
    lr_mult: 2
    decay_mult: 0
  }
  convolution_param {
    num_output: 96
    pad: 2
    kernel_size: 5
    weight_filler {
      type: "xavier"
      std: 0.03
    }
    bias_filler {
      type: "constant"
      value: 0.2
    }
  }
}
layer {
  name: "inception_3b/relu_5x5"
  type: "ReLU"
  bottom: "inception_3b/5x5"
  top: "inception_3b/5x5"
}
layer {
  name: "inception_3b/pool"
  type: "Pooling"
  bottom: "inception_3a/output"
  top: "inception_3b/pool"
  pooling_param {
    pool: MAX
    kernel_size: 3
    stride: 1
    pad: 1
  }
}
layer {
  name: "inception_3b/pool_proj"
  type: "Convolution"
  bottom: "inception_3b/pool"
  top: "inception_3b/pool_proj"
  param {
    lr_mult: 1
    decay_mult: 1
  }
  param {
    lr_mult: 2
    decay_mult: 0
  }
  convolution_param {
    num_output: 64
    kernel_size: 1
    weight_filler {
      type: "xavier"
      std: 0.1
    }
    bias_filler {
      type: "constant"
      value: 0.2
    }
  }
}
layer {
  name: "inception_3b/relu_pool_proj"
  type: "ReLU"
  bottom: "inception_3b/pool_proj"
  top: "inception_3b/pool_proj"
}
layer {
  name: "inception_3b/output"
  type: "Concat"
  bottom: "inception_3b/1x1"
  bottom: "inception_3b/3x3"
  bottom: "inception_3b/5x5"
  bottom: "inception_3b/pool_proj"
  top: "inception_3b/output"
}
layer {
  name: "pool3/3x3_s2"
  type: "Pooling"
  bottom: "inception_3b/output"
  top: "pool3/3x3_s2"
  pooling_param {
    pool: MAX
    kernel_size: 3
    stride: 2
  }
}
layer {
  name: "inception_4a/1x1"
  type: "Convolution"
  bottom: "pool3/3x3_s2"
  top: "inception_4a/1x1"
  param {
    lr_mult: 1
    decay_mult: 1
  }
  param {
    lr_mult: 2
    decay_mult: 0
  }
  convolution_param {
    num_output: 192
    kernel_size: 1
    weight_filler {
      type: "xavier"
      std: 0.03
    }
    bias_filler {
      type: "constant"
      value: 0.2
    }
  }
}
layer {
  name: "inception_4a/relu_1x1"
  type: "ReLU"
  bottom: "inception_4a/1x1"
  top: "inception_4a/1x1"
}
layer {
  name: "inception_4a/3x3_reduce"
  type: "Convolution"
  bottom: "pool3/3x3_s2"
  top: "inception_4a/3x3_reduce"
  param {
    lr_mult: 1
    decay_mult: 1
  }
  param {
    lr_mult: 2
    decay_mult: 0
  }
  convolution_param {
    num_output: 96
    kernel_size: 1
    weight_filler {
      type: "xavier"
      std: 0.09
    }
    bias_filler {
      type: "constant"
      value: 0.2
    }
  }
}
layer {
  name: "inception_4a/relu_3x3_reduce"
  type: "ReLU"
  bottom: "inception_4a/3x3_reduce"
  top: "inception_4a/3x3_reduce"
}
layer {
  name: "inception_4a/3x3"
  type: "Convolution"
  bottom: "inception_4a/3x3_reduce"
  top: "inception_4a/3x3"
  param {
    lr_mult: 1
    decay_mult: 1
  }
  param {
    lr_mult: 2
    decay_mult: 0
  }
  convolution_param {
    num_output: 208
    pad: 1
    kernel_size: 3
    weight_filler {
      type: "xavier"
      std: 0.03
    }
    bias_filler {
      type: "constant"
      value: 0.2
    }
  }
}
layer {
  name: "inception_4a/relu_3x3"
  type: "ReLU"
  bottom: "inception_4a/3x3"
  top: "inception_4a/3x3"
}
layer {
  name: "inception_4a/5x5_reduce"
  type: "Convolution"
  bottom: "pool3/3x3_s2"
  top: "inception_4a/5x5_reduce"
  param {
    lr_mult: 1
    decay_mult: 1
  }
  param {
    lr_mult: 2
    decay_mult: 0
  }
  convolution_param {
    num_output: 16
    kernel_size: 1
    weight_filler {
      type: "xavier"
      std: 0.2
    }
    bias_filler {
      type: "constant"
      value: 0.2
    }
  }
}
layer {
  name: "inception_4a/relu_5x5_reduce"
  type: "ReLU"
  bottom: "inception_4a/5x5_reduce"
  top: "inception_4a/5x5_reduce"
}
layer {
  name: "inception_4a/5x5"
  type: "Convolution"
  bottom: "inception_4a/5x5_reduce"
  top: "inception_4a/5x5"
  param {
    lr_mult: 1
    decay_mult: 1
  }
  param {
    lr_mult: 2
    decay_mult: 0
  }
  convolution_param {
    num_output: 48
    pad: 2
    kernel_size: 5
    weight_filler {
      type: "xavier"
      std: 0.03
    }
    bias_filler {
      type: "constant"
      value: 0.2
    }
  }
}
layer {
  name: "inception_4a/relu_5x5"
  type: "ReLU"
  bottom: "inception_4a/5x5"
  top: "inception_4a/5x5"
}
layer {
  name: "inception_4a/pool"
  type: "Pooling"
  bottom: "pool3/3x3_s2"
  top: "inception_4a/pool"
  pooling_param {
    pool: MAX
    kernel_size: 3
    stride: 1
    pad: 1
  }
}
layer {
  name: "inception_4a/pool_proj"
  type: "Convolution"
  bottom: "inception_4a/pool"
  top: "inception_4a/pool_proj"
  param {
    lr_mult: 1
    decay_mult: 1
  }
  param {
    lr_mult: 2
    decay_mult: 0
  }
  convolution_param {
    num_output: 64
    kernel_size: 1
    weight_filler {
      type: "xavier"
      std: 0.1
    }
    bias_filler {
      type: "constant"
      value: 0.2
    }
  }
}
layer {
  name: "inception_4a/relu_pool_proj"
  type: "ReLU"
  bottom: "inception_4a/pool_proj"
  top: "inception_4a/pool_proj"
}
layer {
  name: "inception_4a/output"
  type: "Concat"
  bottom: "inception_4a/1x1"
  bottom: "inception_4a/3x3"
  bottom: "inception_4a/5x5"
  bottom: "inception_4a/pool_proj"
  top: "inception_4a/output"
}
layer {
  name: "loss1/ave_pool"
  type: "Pooling"
  bottom: "inception_4a/output"
  top: "loss1/ave_pool"
  pooling_param {
    pool: AVE
    kernel_size: 5
    stride: 3
  }
}
layer {
  name: "loss1/conv"
  type: "Convolution"
  bottom: "loss1/ave_pool"
  top: "loss1/conv"
  param {
    lr_mult: 1
    decay_mult: 1
  }
  param {
    lr_mult: 2
    decay_mult: 0
  }
  convolution_param {
    num_output: 128
    kernel_size: 1
    weight_filler {
      type: "xavier"
      std: 0.08
    }
    bias_filler {
      type: "constant"
      value: 0.2
    }
  }
}
layer {
  name: "loss1/relu_conv"
  type: "ReLU"
  bottom: "loss1/conv"
  top: "loss1/conv"
}
layer {
  name: "loss1/fc"
  type: "InnerProduct"
  bottom: "loss1/conv"
  top: "loss1/fc"
  param {
    lr_mult: 1
    decay_mult: 1
  }
  param {
    lr_mult: 2
    decay_mult: 0
  }
  inner_product_param {
    num_output: 1024
    weight_filler {
      type: "xavier"
      std: 0.02
    }
    bias_filler {
      type: "constant"
      value: 0.2
    }
  }
}
layer {
  name: "loss1/relu_fc"
  type: "ReLU"
  bottom: "loss1/fc"
  top: "loss1/fc"
}
layer {
  name: "loss1/drop_fc"
  type: "Dropout"
  bottom: "loss1/fc"
  top: "loss1/fc"
  dropout_param {
    dropout_ratio: 0.7
  }
}
layer {
  name: "loss1/classifier_plantvillage"
  type: "InnerProduct"
  bottom: "loss1/fc"
  top: "loss1/classifier_plantvillage"
  param {
    lr_mult: 1
    decay_mult: 1
  }
  param {
    lr_mult: 2
    decay_mult: 0
  }
  inner_product_param {
    num_output: 38
    weight_filler {
      type: "xavier"
      std: 0.0009765625
    }
    bias_filler {
      type: "constant"
      value: 0
    }
  }
}
layer {
  name: "inception_4b/1x1"
  type: "Convolution"
  bottom: "inception_4a/output"
  top: "inception_4b/1x1"
  param {
    lr_mult: 1
    decay_mult: 1
  }
  param {
    lr_mult: 2
    decay_mult: 0
  }
  convolution_param {
    num_output: 160
    kernel_size: 1
    weight_filler {
      type: "xavier"
      std: 0.03
    }
    bias_filler {
      type: "constant"
      value: 0.2
    }
  }
}
layer {
  name: "inception_4b/relu_1x1"
  type: "ReLU"
  bottom: "inception_4b/1x1"
  top: "inception_4b/1x1"
}
layer {
  name: "inception_4b/3x3_reduce"
  type: "Convolution"
  bottom: "inception_4a/output"
  top: "inception_4b/3x3_reduce"
  param {
    lr_mult: 1
    decay_mult: 1
  }
  param {
    lr_mult: 2
    decay_mult: 0
  }
  convolution_param {
    num_output: 112
    kernel_size: 1
    weight_filler {
      type: "xavier"
      std: 0.09
    }
    bias_filler {
      type: "constant"
      value: 0.2
    }
  }
}
layer {
  name: "inception_4b/relu_3x3_reduce"
  type: "ReLU"
  bottom: "inception_4b/3x3_reduce"
  top: "inception_4b/3x3_reduce"
}
layer {
  name: "inception_4b/3x3"
  type: "Convolution"
  bottom: "inception_4b/3x3_reduce"
  top: "inception_4b/3x3"
  param {
    lr_mult: 1
    decay_mult: 1
  }
  param {
    lr_mult: 2
    decay_mult: 0
  }
  convolution_param {
    num_output: 224
    pad: 1
    kernel_size: 3
    weight_filler {
      type: "xavier"
      std: 0.03
    }
    bias_filler {
      type: "constant"
      value: 0.2
    }
  }
}
layer {
  name: "inception_4b/relu_3x3"
  type: "ReLU"
  bottom: "inception_4b/3x3"
  top: "inception_4b/3x3"
}
layer {
  name: "inception_4b/5x5_reduce"
  type: "Convolution"
  bottom: "inception_4a/output"
  top: "inception_4b/5x5_reduce"
  param {
    lr_mult: 1
    decay_mult: 1
  }
  param {
    lr_mult: 2
    decay_mult: 0
  }
  convolution_param {
    num_output: 24
    kernel_size: 1
    weight_filler {
      type: "xavier"
      std: 0.2
    }
    bias_filler {
      type: "constant"
      value: 0.2
    }
  }
}
layer {
  name: "inception_4b/relu_5x5_reduce"
  type: "ReLU"
  bottom: "inception_4b/5x5_reduce"
  top: "inception_4b/5x5_reduce"
}
layer {
  name: "inception_4b/5x5"
  type: "Convolution"
  bottom: "inception_4b/5x5_reduce"
  top: "inception_4b/5x5"
  param {
    lr_mult: 1
    decay_mult: 1
  }
  param {
    lr_mult: 2
    decay_mult: 0
  }
  convolution_param {
    num_output: 64
    pad: 2
    kernel_size: 5
    weight_filler {
      type: "xavier"
      std: 0.03
    }
    bias_filler {
      type: "constant"
      value: 0.2
    }
  }
}
layer {
  name: "inception_4b/relu_5x5"
  type: "ReLU"
  bottom: "inception_4b/5x5"
  top: "inception_4b/5x5"
}
layer {
  name: "inception_4b/pool"
  type: "Pooling"
  bottom: "inception_4a/output"
  top: "inception_4b/pool"
  pooling_param {
    pool: MAX
    kernel_size: 3
    stride: 1
    pad: 1
  }
}
layer {
  name: "inception_4b/pool_proj"
  type: "Convolution"
  bottom: "inception_4b/pool"
  top: "inception_4b/pool_proj"
  param {
    lr_mult: 1
    decay_mult: 1
  }
  param {
    lr_mult: 2
    decay_mult: 0
  }
  convolution_param {
    num_output: 64
    kernel_size: 1
    weight_filler {
      type: "xavier"
      std: 0.1
    }
    bias_filler {
      type: "constant"
      value: 0.2
    }
  }
}
layer {
  name: "inception_4b/relu_pool_proj"
  type: "ReLU"
  bottom: "inception_4b/pool_proj"
  top: "inception_4b/pool_proj"
}
layer {
  name: "inception_4b/output"
  type: "Concat"
  bottom: "inception_4b/1x1"
  bottom: "inception_4b/3x3"
  bottom: "inception_4b/5x5"
  bottom: "inception_4b/pool_proj"
  top: "inception_4b/output"
}
layer {
  name: "inception_4c/1x1"
  type: "Convolution"
  bottom: "inception_4b/output"
  top: "inception_4c/1x1"
  param {
    lr_mult: 1
    decay_mult: 1
  }
  param {
    lr_mult: 2
    decay_mult: 0
  }
  convolution_param {
    num_output: 128
    kernel_size: 1
    weight_filler {
      type: "xavier"
      std: 0.03
    }
    bias_filler {
      type: "constant"
      value: 0.2
    }
  }
}
layer {
  name: "inception_4c/relu_1x1"
  type: "ReLU"
  bottom: "inception_4c/1x1"
  top: "inception_4c/1x1"
}
layer {
  name: "inception_4c/3x3_reduce"
  type: "Convolution"
  bottom: "inception_4b/output"
  top: "inception_4c/3x3_reduce"
  param {
    lr_mult: 1
    decay_mult: 1
  }
  param {
    lr_mult: 2
    decay_mult: 0
  }
  convolution_param {
    num_output: 128
    kernel_size: 1
    weight_filler {
      type: "xavier"
      std: 0.09
    }
    bias_filler {
      type: "constant"
      value: 0.2
    }
  }
}
layer {
  name: "inception_4c/relu_3x3_reduce"
  type: "ReLU"
  bottom: "inception_4c/3x3_reduce"
  top: "inception_4c/3x3_reduce"
}
layer {
  name: "inception_4c/3x3"
  type: "Convolution"
  bottom: "inception_4c/3x3_reduce"
  top: "inception_4c/3x3"
  param {
    lr_mult: 1
    decay_mult: 1
  }
  param {
    lr_mult: 2
    decay_mult: 0
  }
  convolution_param {
    num_output: 256
    pad: 1
    kernel_size: 3
    weight_filler {
      type: "xavier"
      std: 0.03
    }
    bias_filler {
      type: "constant"
      value: 0.2
    }
  }
}
layer {
  name: "inception_4c/relu_3x3"
  type: "ReLU"
  bottom: "inception_4c/3x3"
  top: "inception_4c/3x3"
}
layer {
  name: "inception_4c/5x5_reduce"
  type: "Convolution"
  bottom: "inception_4b/output"
  top: "inception_4c/5x5_reduce"
  param {
    lr_mult: 1
    decay_mult: 1
  }
  param {
    lr_mult: 2
    decay_mult: 0
  }
  convolution_param {
    num_output: 24
    kernel_size: 1
    weight_filler {
      type: "xavier"
      std: 0.2
    }
    bias_filler {
      type: "constant"
      value: 0.2
    }
  }
}
layer {
  name: "inception_4c/relu_5x5_reduce"
  type: "ReLU"
  bottom: "inception_4c/5x5_reduce"
  top: "inception_4c/5x5_reduce"
}
layer {
  name: "inception_4c/5x5"
  type: "Convolution"
  bottom: "inception_4c/5x5_reduce"
  top: "inception_4c/5x5"
  param {
    lr_mult: 1
    decay_mult: 1
  }
  param {
    lr_mult: 2
    decay_mult: 0
  }
  convolution_param {
    num_output: 64
    pad: 2
    kernel_size: 5
    weight_filler {
      type: "xavier"
      std: 0.03
    }
    bias_filler {
      type: "constant"
      value: 0.2
    }
  }
}
layer {
  name: "inception_4c/relu_5x5"
  type: "ReLU"
  bottom: "inception_4c/5x5"
  top: "inception_4c/5x5"
}
layer {
  name: "inception_4c/pool"
  type: "Pooling"
  bottom: "inception_4b/output"
  top: "inception_4c/pool"
  pooling_param {
    pool: MAX
    kernel_size: 3
    stride: 1
    pad: 1
  }
}
layer {
  name: "inception_4c/pool_proj"
  type: "Convolution"
  bottom: "inception_4c/pool"
  top: "inception_4c/pool_proj"
  param {
    lr_mult: 1
    decay_mult: 1
  }
  param {
    lr_mult: 2
    decay_mult: 0
  }
  convolution_param {
    num_output: 64
    kernel_size: 1
    weight_filler {
      type: "xavier"
      std: 0.1
    }
    bias_filler {
      type: "constant"
      value: 0.2
    }
  }
}
layer {
  name: "inception_4c/relu_pool_proj"
  type: "ReLU"
  bottom: "inception_4c/pool_proj"
  top: "inception_4c/pool_proj"
}
layer {
  name: "inception_4c/output"
  type: "Concat"
  bottom: "inception_4c/1x1"
  bottom: "inception_4c/3x3"
  bottom: "inception_4c/5x5"
  bottom: "inception_4c/pool_proj"
  top: "inception_4c/output"
}
layer {
  name: "inception_4d/1x1"
  type: "Convolution"
  bottom: "inception_4c/output"
  top: "inception_4d/1x1"
  param {
    lr_mult: 1
    decay_mult: 1
  }
  param {
    lr_mult: 2
    decay_mult: 0
  }
  convolution_param {
    num_output: 112
    kernel_size: 1
    weight_filler {
      type: "xavier"
      std: 0.03
    }
    bias_filler {
      type: "constant"
      value: 0.2
    }
  }
}
layer {
  name: "inception_4d/relu_1x1"
  type: "ReLU"
  bottom: "inception_4d/1x1"
  top: "inception_4d/1x1"
}
layer {
  name: "inception_4d/3x3_reduce"
  type: "Convolution"
  bottom: "inception_4c/output"
  top: "inception_4d/3x3_reduce"
  param {
    lr_mult: 1
    decay_mult: 1
  }
  param {
    lr_mult: 2
    decay_mult: 0
  }
  convolution_param {
    num_output: 144
    kernel_size: 1
    weight_filler {
      type: "xavier"
      std: 0.09
    }
    bias_filler {
      type: "constant"
      value: 0.2
    }
  }
}
layer {
  name: "inception_4d/relu_3x3_reduce"
  type: "ReLU"
  bottom: "inception_4d/3x3_reduce"
  top: "inception_4d/3x3_reduce"
}
layer {
  name: "inception_4d/3x3"
  type: "Convolution"
  bottom: "inception_4d/3x3_reduce"
  top: "inception_4d/3x3"
  param {
    lr_mult: 1
    decay_mult: 1
  }
  param {
    lr_mult: 2
    decay_mult: 0
  }
  convolution_param {
    num_output: 288
    pad: 1
    kernel_size: 3
    weight_filler {
      type: "xavier"
      std: 0.03
    }
    bias_filler {
      type: "constant"
      value: 0.2
    }
  }
}
layer {
  name: "inception_4d/relu_3x3"
  type: "ReLU"
  bottom: "inception_4d/3x3"
  top: "inception_4d/3x3"
}
layer {
  name: "inception_4d/5x5_reduce"
  type: "Convolution"
  bottom: "inception_4c/output"
  top: "inception_4d/5x5_reduce"
  param {
    lr_mult: 1
    decay_mult: 1
  }
  param {
    lr_mult: 2
    decay_mult: 0
  }
  convolution_param {
    num_output: 32
    kernel_size: 1
    weight_filler {
      type: "xavier"
      std: 0.2
    }
    bias_filler {
      type: "constant"
      value: 0.2
    }
  }
}
layer {
  name: "inception_4d/relu_5x5_reduce"
  type: "ReLU"
  bottom: "inception_4d/5x5_reduce"
  top: "inception_4d/5x5_reduce"
}
layer {
  name: "inception_4d/5x5"
  type: "Convolution"
  bottom: "inception_4d/5x5_reduce"
  top: "inception_4d/5x5"
  param {
    lr_mult: 1
    decay_mult: 1
  }
  param {
    lr_mult: 2
    decay_mult: 0
  }
  convolution_param {
    num_output: 64
    pad: 2
    kernel_size: 5
    weight_filler {
      type: "xavier"
      std: 0.03
    }
    bias_filler {
      type: "constant"
      value: 0.2
    }
  }
}
layer {
  name: "inception_4d/relu_5x5"
  type: "ReLU"
  bottom: "inception_4d/5x5"
  top: "inception_4d/5x5"
}
layer {
  name: "inception_4d/pool"
  type: "Pooling"
  bottom: "inception_4c/output"
  top: "inception_4d/pool"
  pooling_param {
    pool: MAX
    kernel_size: 3
    stride: 1
    pad: 1
  }
}
layer {
  name: "inception_4d/pool_proj"
  type: "Convolution"
  bottom: "inception_4d/pool"
  top: "inception_4d/pool_proj"
  param {
    lr_mult: 1
    decay_mult: 1
  }
  param {
    lr_mult: 2
    decay_mult: 0
  }
  convolution_param {
    num_output: 64
    kernel_size: 1
    weight_filler {
      type: "xavier"
      std: 0.1
    }
    bias_filler {
      type: "constant"
      value: 0.2
    }
  }
}
layer {
  name: "inception_4d/relu_pool_proj"
  type: "ReLU"
  bottom: "inception_4d/pool_proj"
  top: "inception_4d/pool_proj"
}
layer {
  name: "inception_4d/output"
  type: "Concat"
  bottom: "inception_4d/1x1"
  bottom: "inception_4d/3x3"
  bottom: "inception_4d/5x5"
  bottom: "inception_4d/pool_proj"
  top: "inception_4d/output"
}
layer {
  name: "loss2/ave_pool"
  type: "Pooling"
  bottom: "inception_4d/output"
  top: "loss2/ave_pool"
  pooling_param {
    pool: AVE
    kernel_size: 5
    stride: 3
  }
}
layer {
  name: "loss2/conv"
  type: "Convolution"
  bottom: "loss2/ave_pool"
  top: "loss2/conv"
  param {
    lr_mult: 1
    decay_mult: 1
  }
  param {
    lr_mult: 2
    decay_mult: 0
  }
  convolution_param {
    num_output: 128
    kernel_size: 1
    weight_filler {
      type: "xavier"
      std: 0.08
    }
    bias_filler {
      type: "constant"
      value: 0.2
    }
  }
}
layer {
  name: "loss2/relu_conv"
  type: "ReLU"
  bottom: "loss2/conv"
  top: "loss2/conv"
}
layer {
  name: "loss2/fc"
  type: "InnerProduct"
  bottom: "loss2/conv"
  top: "loss2/fc"
  param {
    lr_mult: 1
    decay_mult: 1
  }
  param {
    lr_mult: 2
    decay_mult: 0
  }
  inner_product_param {
    num_output: 1024
    weight_filler {
      type: "xavier"
      std: 0.02
    }
    bias_filler {
      type: "constant"
      value: 0.2
    }
  }
}
layer {
  name: "loss2/relu_fc"
  type: "ReLU"
  bottom: "loss2/fc"
  top: "loss2/fc"
}
layer {
  name: "loss2/drop_fc"
  type: "Dropout"
  bottom: "loss2/fc"
  top: "loss2/fc"
  dropout_param {
    dropout_ratio: 0.7
  }
}
layer {
  name: "loss2/classifier_plantvillage"
  type: "InnerProduct"
  bottom: "loss2/fc"
  top: "loss2/classifier_plantvillage"
  param {
    lr_mult: 1
    decay_mult: 1
  }
  param {
    lr_mult: 2
    decay_mult: 0
  }
  inner_product_param {
    num_output: 38
    weight_filler {
      type: "xavier"
      std: 0.0009765625
    }
    bias_filler {
      type: "constant"
      value: 0
    }
  }
}
layer {
  name: "inception_4e/1x1"
  type: "Convolution"
  bottom: "inception_4d/output"
  top: "inception_4e/1x1"
  param {
    lr_mult: 1
    decay_mult: 1
  }
  param {
    lr_mult: 2
    decay_mult: 0
  }
  convolution_param {
    num_output: 256
    kernel_size: 1
    weight_filler {
      type: "xavier"
      std: 0.03
    }
    bias_filler {
      type: "constant"
      value: 0.2
    }
  }
}
layer {
  name: "inception_4e/relu_1x1"
  type: "ReLU"
  bottom: "inception_4e/1x1"
  top: "inception_4e/1x1"
}
layer {
  name: "inception_4e/3x3_reduce"
  type: "Convolution"
  bottom: "inception_4d/output"
  top: "inception_4e/3x3_reduce"
  param {
    lr_mult: 1
    decay_mult: 1
  }
  param {
    lr_mult: 2
    decay_mult: 0
  }
  convolution_param {
    num_output: 160
    kernel_size: 1
    weight_filler {
      type: "xavier"
      std: 0.09
    }
    bias_filler {
      type: "constant"
      value: 0.2
    }
  }
}
layer {
  name: "inception_4e/relu_3x3_reduce"
  type: "ReLU"
  bottom: "inception_4e/3x3_reduce"
  top: "inception_4e/3x3_reduce"
}
layer {
  name: "inception_4e/3x3"
  type: "Convolution"
  bottom: "inception_4e/3x3_reduce"
  top: "inception_4e/3x3"
  param {
    lr_mult: 1
    decay_mult: 1
  }
  param {
    lr_mult: 2
    decay_mult: 0
  }
  convolution_param {
    num_output: 320
    pad: 1
    kernel_size: 3
    weight_filler {
      type: "xavier"
      std: 0.03
    }
    bias_filler {
      type: "constant"
      value: 0.2
    }
  }
}
layer {
  name: "inception_4e/relu_3x3"
  type: "ReLU"
  bottom: "inception_4e/3x3"
  top: "inception_4e/3x3"
}
layer {
  name: "inception_4e/5x5_reduce"
  type: "Convolution"
  bottom: "inception_4d/output"
  top: "inception_4e/5x5_reduce"
  param {
    lr_mult: 1
    decay_mult: 1
  }
  param {
    lr_mult: 2
    decay_mult: 0
  }
  convolution_param {
    num_output: 32
    kernel_size: 1
    weight_filler {
      type: "xavier"
      std: 0.2
    }
    bias_filler {
      type: "constant"
      value: 0.2
    }
  }
}
layer {
  name: "inception_4e/relu_5x5_reduce"
  type: "ReLU"
  bottom: "inception_4e/5x5_reduce"
  top: "inception_4e/5x5_reduce"
}
layer {
  name: "inception_4e/5x5"
  type: "Convolution"
  bottom: "inception_4e/5x5_reduce"
  top: "inception_4e/
I0403 18:58:59.340407 18311 layer_factory.hpp:77] Creating layer data
I0403 18:58:59.340975 18311 net.cpp:91] Creating Layer data
I0403 18:58:59.341007 18311 net.cpp:399] data -> data
I0403 18:58:59.341055 18311 net.cpp:399] data -> label
I0403 18:58:59.341090 18311 data_transformer.cpp:25] Loading mean file from: /home/mohanty/data/final_dataset/lmdb/segmented-60-40/mean.binaryproto
I0403 18:58:59.342248 18321 db_lmdb.cpp:38] Opened lmdb /home/mohanty/data/final_dataset/lmdb/segmented-60-40/test_db
I0403 18:58:59.353394 18311 data_layer.cpp:41] output data size: 24,3,224,224
I0403 18:58:59.379240 18311 net.cpp:141] Setting up data
I0403 18:58:59.379320 18311 net.cpp:148] Top shape: 24 3 224 224 (3612672)
I0403 18:58:59.379341 18311 net.cpp:148] Top shape: 24 (24)
I0403 18:58:59.379355 18311 net.cpp:156] Memory required for data: 14450784
I0403 18:58:59.379380 18311 layer_factory.hpp:77] Creating layer label_data_1_split
I0403 18:58:59.379407 18311 net.cpp:91] Creating Layer label_data_1_split
I0403 18:58:59.379425 18311 net.cpp:425] label_data_1_split <- label
I0403 18:58:59.379454 18311 net.cpp:399] label_data_1_split -> label_data_1_split_0
I0403 18:58:59.379482 18311 net.cpp:399] label_data_1_split -> label_data_1_split_1
I0403 18:58:59.379501 18311 net.cpp:399] label_data_1_split -> label_data_1_split_2
I0403 18:58:59.379521 18311 net.cpp:399] label_data_1_split -> label_data_1_split_3
I0403 18:58:59.379540 18311 net.cpp:399] label_data_1_split -> label_data_1_split_4
I0403 18:58:59.379559 18311 net.cpp:399] label_data_1_split -> label_data_1_split_5
I0403 18:58:59.379578 18311 net.cpp:399] label_data_1_split -> label_data_1_split_6
I0403 18:58:59.379598 18311 net.cpp:399] label_data_1_split -> label_data_1_split_7
I0403 18:58:59.379617 18311 net.cpp:399] label_data_1_split -> label_data_1_split_8
I0403 18:58:59.379637 18311 net.cpp:399] label_data_1_split -> label_data_1_split_9
I0403 18:58:59.379748 18311 net.cpp:141] Setting up label_data_1_split
I0403 18:58:59.379771 18311 net.cpp:148] Top shape: 24 (24)
I0403 18:58:59.379787 18311 net.cpp:148] Top shape: 24 (24)
I0403 18:58:59.379802 18311 net.cpp:148] Top shape: 24 (24)
I0403 18:58:59.379817 18311 net.cpp:148] Top shape: 24 (24)
I0403 18:58:59.379832 18311 net.cpp:148] Top shape: 24 (24)
I0403 18:58:59.379848 18311 net.cpp:148] Top shape: 24 (24)
I0403 18:58:59.379863 18311 net.cpp:148] Top shape: 24 (24)
I0403 18:58:59.379878 18311 net.cpp:148] Top shape: 24 (24)
I0403 18:58:59.379891 18311 net.cpp:148] Top shape: 24 (24)
I0403 18:58:59.379907 18311 net.cpp:148] Top shape: 24 (24)
I0403 18:58:59.379953 18311 net.cpp:156] Memory required for data: 14451744
I0403 18:58:59.379971 18311 layer_factory.hpp:77] Creating layer conv1/7x7_s2
I0403 18:58:59.380000 18311 net.cpp:91] Creating Layer conv1/7x7_s2
I0403 18:58:59.380018 18311 net.cpp:425] conv1/7x7_s2 <- data
I0403 18:58:59.380038 18311 net.cpp:399] conv1/7x7_s2 -> conv1/7x7_s2
I0403 18:58:59.516641 18311 net.cpp:141] Setting up conv1/7x7_s2
I0403 18:58:59.516726 18311 net.cpp:148] Top shape: 24 64 112 112 (19267584)
I0403 18:58:59.516743 18311 net.cpp:156] Memory required for data: 91522080
I0403 18:58:59.516772 18311 layer_factory.hpp:77] Creating layer conv1/relu_7x7
I0403 18:58:59.516798 18311 net.cpp:91] Creating Layer conv1/relu_7x7
I0403 18:58:59.516815 18311 net.cpp:425] conv1/relu_7x7 <- conv1/7x7_s2
I0403 18:58:59.516834 18311 net.cpp:386] conv1/relu_7x7 -> conv1/7x7_s2 (in-place)
I0403 18:58:59.517092 18311 net.cpp:141] Setting up conv1/relu_7x7
I0403 18:58:59.517117 18311 net.cpp:148] Top shape: 24 64 112 112 (19267584)
I0403 18:58:59.517132 18311 net.cpp:156] Memory required for data: 168592416
I0403 18:58:59.517148 18311 layer_factory.hpp:77] Creating layer pool1/3x3_s2
I0403 18:58:59.517170 18311 net.cpp:91] Creating Layer pool1/3x3_s2
I0403 18:58:59.517186 18311 net.cpp:425] pool1/3x3_s2 <- conv1/7x7_s2
I0403 18:58:59.517206 18311 net.cpp:399] pool1/3x3_s2 -> pool1/3x3_s2
I0403 18:58:59.517277 18311 net.cpp:141] Setting up pool1/3x3_s2
I0403 18:58:59.517299 18311 net.cpp:148] Top shape: 24 64 56 56 (4816896)
I0403 18:58:59.517313 18311 net.cpp:156] Memory required for data: 187860000
I0403 18:58:59.517326 18311 layer_factory.hpp:77] Creating layer pool1/norm1
I0403 18:58:59.517350 18311 net.cpp:91] Creating Layer pool1/norm1
I0403 18:58:59.517367 18311 net.cpp:425] pool1/norm1 <- pool1/3x3_s2
I0403 18:58:59.517385 18311 net.cpp:399] pool1/norm1 -> pool1/norm1
I0403 18:58:59.517662 18311 net.cpp:141] Setting up pool1/norm1
I0403 18:58:59.517688 18311 net.cpp:148] Top shape: 24 64 56 56 (4816896)
I0403 18:58:59.517702 18311 net.cpp:156] Memory required for data: 207127584
I0403 18:58:59.517716 18311 layer_factory.hpp:77] Creating layer conv2/3x3_reduce
I0403 18:58:59.517740 18311 net.cpp:91] Creating Layer conv2/3x3_reduce
I0403 18:58:59.517755 18311 net.cpp:425] conv2/3x3_reduce <- pool1/norm1
I0403 18:58:59.517772 18311 net.cpp:399] conv2/3x3_reduce -> conv2/3x3_reduce
I0403 18:58:59.519111 18311 net.cpp:141] Setting up conv2/3x3_reduce
I0403 18:58:59.519141 18311 net.cpp:148] Top shape: 24 64 56 56 (4816896)
I0403 18:58:59.519156 18311 net.cpp:156] Memory required for data: 226395168
I0403 18:58:59.519177 18311 layer_factory.hpp:77] Creating layer conv2/relu_3x3_reduce
I0403 18:58:59.519196 18311 net.cpp:91] Creating Layer conv2/relu_3x3_reduce
I0403 18:58:59.519222 18311 net.cpp:425] conv2/relu_3x3_reduce <- conv2/3x3_reduce
I0403 18:58:59.519242 18311 net.cpp:386] conv2/relu_3x3_reduce -> conv2/3x3_reduce (in-place)
I0403 18:58:59.519505 18311 net.cpp:141] Setting up conv2/relu_3x3_reduce
I0403 18:58:59.519529 18311 net.cpp:148] Top shape: 24 64 56 56 (4816896)
I0403 18:58:59.519543 18311 net.cpp:156] Memory required for data: 245662752
I0403 18:58:59.519558 18311 layer_factory.hpp:77] Creating layer conv2/3x3
I0403 18:58:59.519580 18311 net.cpp:91] Creating Layer conv2/3x3
I0403 18:58:59.519598 18311 net.cpp:425] conv2/3x3 <- conv2/3x3_reduce
I0403 18:58:59.519618 18311 net.cpp:399] conv2/3x3 -> conv2/3x3
I0403 18:58:59.521849 18311 net.cpp:141] Setting up conv2/3x3
I0403 18:58:59.521878 18311 net.cpp:148] Top shape: 24 192 56 56 (14450688)
I0403 18:58:59.521893 18311 net.cpp:156] Memory required for data: 303465504
I0403 18:58:59.521914 18311 layer_factory.hpp:77] Creating layer conv2/relu_3x3
I0403 18:58:59.521934 18311 net.cpp:91] Creating Layer conv2/relu_3x3
I0403 18:58:59.521955 18311 net.cpp:425] conv2/relu_3x3 <- conv2/3x3
I0403 18:58:59.521972 18311 net.cpp:386] conv2/relu_3x3 -> conv2/3x3 (in-place)
I0403 18:58:59.522141 18311 net.cpp:141] Setting up conv2/relu_3x3
I0403 18:58:59.522167 18311 net.cpp:148] Top shape: 24 192 56 56 (14450688)
I0403 18:58:59.522207 18311 net.cpp:156] Memory required for data: 361268256
I0403 18:58:59.522222 18311 layer_factory.hpp:77] Creating layer conv2/norm2
I0403 18:58:59.522238 18311 net.cpp:91] Creating Layer conv2/norm2
I0403 18:58:59.522253 18311 net.cpp:425] conv2/norm2 <- conv2/3x3
I0403 18:58:59.522272 18311 net.cpp:399] conv2/norm2 -> conv2/norm2
I0403 18:58:59.522567 18311 net.cpp:141] Setting up conv2/norm2
I0403 18:58:59.522593 18311 net.cpp:148] Top shape: 24 192 56 56 (14450688)
I0403 18:58:59.522608 18311 net.cpp:156] Memory required for data: 419071008
I0403 18:58:59.522620 18311 layer_factory.hpp:77] Creating layer pool2/3x3_s2
I0403 18:58:59.522637 18311 net.cpp:91] Creating Layer pool2/3x3_s2
I0403 18:58:59.522653 18311 net.cpp:425] pool2/3x3_s2 <- conv2/norm2
I0403 18:58:59.522671 18311 net.cpp:399] pool2/3x3_s2 -> pool2/3x3_s2
I0403 18:58:59.522722 18311 net.cpp:141] Setting up pool2/3x3_s2
I0403 18:58:59.522743 18311 net.cpp:148] Top shape: 24 192 28 28 (3612672)
I0403 18:58:59.522756 18311 net.cpp:156] Memory required for data: 433521696
I0403 18:58:59.522770 18311 layer_factory.hpp:77] Creating layer pool2/3x3_s2_pool2/3x3_s2_0_split
I0403 18:58:59.522789 18311 net.cpp:91] Creating Layer pool2/3x3_s2_pool2/3x3_s2_0_split
I0403 18:58:59.522804 18311 net.cpp:425] pool2/3x3_s2_pool2/3x3_s2_0_split <- pool2/3x3_s2
I0403 18:58:59.522819 18311 net.cpp:399] pool2/3x3_s2_pool2/3x3_s2_0_split -> pool2/3x3_s2_pool2/3x3_s2_0_split_0
I0403 18:58:59.522841 18311 net.cpp:399] pool2/3x3_s2_pool2/3x3_s2_0_split -> pool2/3x3_s2_pool2/3x3_s2_0_split_1
I0403 18:58:59.522861 18311 net.cpp:399] pool2/3x3_s2_pool2/3x3_s2_0_split -> pool2/3x3_s2_pool2/3x3_s2_0_split_2
I0403 18:58:59.522878 18311 net.cpp:399] pool2/3x3_s2_pool2/3x3_s2_0_split -> pool2/3x3_s2_pool2/3x3_s2_0_split_3
I0403 18:58:59.522949 18311 net.cpp:141] Setting up pool2/3x3_s2_pool2/3x3_s2_0_split
I0403 18:58:59.522971 18311 net.cpp:148] Top shape: 24 192 28 28 (3612672)
I0403 18:58:59.522987 18311 net.cpp:148] Top shape: 24 192 28 28 (3612672)
I0403 18:58:59.523002 18311 net.cpp:148] Top shape: 24 192 28 28 (3612672)
I0403 18:58:59.523017 18311 net.cpp:148] Top shape: 24 192 28 28 (3612672)
I0403 18:58:59.523030 18311 net.cpp:156] Memory required for data: 491324448
I0403 18:58:59.523044 18311 layer_factory.hpp:77] Creating layer inception_3a/1x1
I0403 18:58:59.523066 18311 net.cpp:91] Creating Layer inception_3a/1x1
I0403 18:58:59.523082 18311 net.cpp:425] inception_3a/1x1 <- pool2/3x3_s2_pool2/3x3_s2_0_split_0
I0403 18:58:59.523102 18311 net.cpp:399] inception_3a/1x1 -> inception_3a/1x1
I0403 18:58:59.524566 18311 net.cpp:141] Setting up inception_3a/1x1
I0403 18:58:59.524595 18311 net.cpp:148] Top shape: 24 64 28 28 (1204224)
I0403 18:58:59.524610 18311 net.cpp:156] Memory required for data: 496141344
I0403 18:58:59.524627 18311 layer_factory.hpp:77] Creating layer inception_3a/relu_1x1
I0403 18:58:59.524646 18311 net.cpp:91] Creating Layer inception_3a/relu_1x1
I0403 18:58:59.524662 18311 net.cpp:425] inception_3a/relu_1x1 <- inception_3a/1x1
I0403 18:58:59.524678 18311 net.cpp:386] inception_3a/relu_1x1 -> inception_3a/1x1 (in-place)
I0403 18:58:59.524845 18311 net.cpp:141] Setting up inception_3a/relu_1x1
I0403 18:58:59.524868 18311 net.cpp:148] Top shape: 24 64 28 28 (1204224)
I0403 18:58:59.524883 18311 net.cpp:156] Memory required for data: 500958240
I0403 18:58:59.524896 18311 layer_factory.hpp:77] Creating layer inception_3a/3x3_reduce
I0403 18:58:59.524917 18311 net.cpp:91] Creating Layer inception_3a/3x3_reduce
I0403 18:58:59.524935 18311 net.cpp:425] inception_3a/3x3_reduce <- pool2/3x3_s2_pool2/3x3_s2_0_split_1
I0403 18:58:59.524957 18311 net.cpp:399] inception_3a/3x3_reduce -> inception_3a/3x3_reduce
I0403 18:58:59.526578 18311 net.cpp:141] Setting up inception_3a/3x3_reduce
I0403 18:58:59.526607 18311 net.cpp:148] Top shape: 24 96 28 28 (1806336)
I0403 18:58:59.526621 18311 net.cpp:156] Memory required for data: 508183584
I0403 18:58:59.526641 18311 layer_factory.hpp:77] Creating layer inception_3a/relu_3x3_reduce
I0403 18:58:59.526677 18311 net.cpp:91] Creating Layer inception_3a/relu_3x3_reduce
I0403 18:58:59.526695 18311 net.cpp:425] inception_3a/relu_3x3_reduce <- inception_3a/3x3_reduce
I0403 18:58:59.526711 18311 net.cpp:386] inception_3a/relu_3x3_reduce -> inception_3a/3x3_reduce (in-place)
I0403 18:58:59.526886 18311 net.cpp:141] Setting up inception_3a/relu_3x3_reduce
I0403 18:58:59.526911 18311 net.cpp:148] Top shape: 24 96 28 28 (1806336)
I0403 18:58:59.526924 18311 net.cpp:156] Memory required for data: 515408928
I0403 18:58:59.526938 18311 layer_factory.hpp:77] Creating layer inception_3a/3x3
I0403 18:58:59.526964 18311 net.cpp:91] Creating Layer inception_3a/3x3
I0403 18:58:59.526983 18311 net.cpp:425] inception_3a/3x3 <- inception_3a/3x3_reduce
I0403 18:58:59.527004 18311 net.cpp:399] inception_3a/3x3 -> inception_3a/3x3
I0403 18:58:59.528583 18311 net.cpp:141] Setting up inception_3a/3x3
I0403 18:58:59.528609 18311 net.cpp:148] Top shape: 24 128 28 28 (2408448)
I0403 18:58:59.528625 18311 net.cpp:156] Memory required for data: 525042720
I0403 18:58:59.528642 18311 layer_factory.hpp:77] Creating layer inception_3a/relu_3x3
I0403 18:58:59.528661 18311 net.cpp:91] Creating Layer inception_3a/relu_3x3
I0403 18:58:59.528678 18311 net.cpp:425] inception_3a/relu_3x3 <- inception_3a/3x3
I0403 18:58:59.528694 18311 net.cpp:386] inception_3a/relu_3x3 -> inception_3a/3x3 (in-place)
I0403 18:58:59.528970 18311 net.cpp:141] Setting up inception_3a/relu_3x3
I0403 18:58:59.528996 18311 net.cpp:148] Top shape: 24 128 28 28 (2408448)
I0403 18:58:59.529011 18311 net.cpp:156] Memory required for data: 534676512
I0403 18:58:59.529024 18311 layer_factory.hpp:77] Creating layer inception_3a/5x5_reduce
I0403 18:58:59.529047 18311 net.cpp:91] Creating Layer inception_3a/5x5_reduce
I0403 18:58:59.529062 18311 net.cpp:425] inception_3a/5x5_reduce <- pool2/3x3_s2_pool2/3x3_s2_0_split_2
I0403 18:58:59.529083 18311 net.cpp:399] inception_3a/5x5_reduce -> inception_3a/5x5_reduce
I0403 18:58:59.530010 18311 net.cpp:141] Setting up inception_3a/5x5_reduce
I0403 18:58:59.530036 18311 net.cpp:148] Top shape: 24 16 28 28 (301056)
I0403 18:58:59.530051 18311 net.cpp:156] Memory required for data: 535880736
I0403 18:58:59.530068 18311 layer_factory.hpp:77] Creating layer inception_3a/relu_5x5_reduce
I0403 18:58:59.530088 18311 net.cpp:91] Creating Layer inception_3a/relu_5x5_reduce
I0403 18:58:59.530104 18311 net.cpp:425] inception_3a/relu_5x5_reduce <- inception_3a/5x5_reduce
I0403 18:58:59.530120 18311 net.cpp:386] inception_3a/relu_5x5_reduce -> inception_3a/5x5_reduce (in-place)
I0403 18:58:59.530413 18311 net.cpp:141] Setting up inception_3a/relu_5x5_reduce
I0403 18:58:59.530441 18311 net.cpp:148] Top shape: 24 16 28 28 (301056)
I0403 18:58:59.530455 18311 net.cpp:156] Memory required for data: 537084960
I0403 18:58:59.530469 18311 layer_factory.hpp:77] Creating layer inception_3a/5x5
I0403 18:58:59.530491 18311 net.cpp:91] Creating Layer inception_3a/5x5
I0403 18:58:59.530508 18311 net.cpp:425] inception_3a/5x5 <- inception_3a/5x5_reduce
I0403 18:58:59.530525 18311 net.cpp:399] inception_3a/5x5 -> inception_3a/5x5
I0403 18:58:59.531517 18311 net.cpp:141] Setting up inception_3a/5x5
I0403 18:58:59.531543 18311 net.cpp:148] Top shape: 24 32 28 28 (602112)
I0403 18:58:59.531558 18311 net.cpp:156] Memory required for data: 539493408
I0403 18:58:59.531575 18311 layer_factory.hpp:77] Creating layer inception_3a/relu_5x5
I0403 18:58:59.531595 18311 net.cpp:91] Creating Layer inception_3a/relu_5x5
I0403 18:58:59.531611 18311 net.cpp:425] inception_3a/relu_5x5 <- inception_3a/5x5
I0403 18:58:59.531627 18311 net.cpp:386] inception_3a/relu_5x5 -> inception_3a/5x5 (in-place)
I0403 18:58:59.531796 18311 net.cpp:141] Setting up inception_3a/relu_5x5
I0403 18:58:59.531821 18311 net.cpp:148] Top shape: 24 32 28 28 (602112)
I0403 18:58:59.531834 18311 net.cpp:156] Memory required for data: 541901856
I0403 18:58:59.531848 18311 layer_factory.hpp:77] Creating layer inception_3a/pool
I0403 18:58:59.531867 18311 net.cpp:91] Creating Layer inception_3a/pool
I0403 18:58:59.531894 18311 net.cpp:425] inception_3a/pool <- pool2/3x3_s2_pool2/3x3_s2_0_split_3
I0403 18:58:59.531913 18311 net.cpp:399] inception_3a/pool -> inception_3a/pool
I0403 18:58:59.531973 18311 net.cpp:141] Setting up inception_3a/pool
I0403 18:58:59.531996 18311 net.cpp:148] Top shape: 24 192 28 28 (3612672)
I0403 18:58:59.532011 18311 net.cpp:156] Memory required for data: 556352544
I0403 18:58:59.532023 18311 layer_factory.hpp:77] Creating layer inception_3a/pool_proj
I0403 18:58:59.532044 18311 net.cpp:91] Creating Layer inception_3a/pool_proj
I0403 18:58:59.532061 18311 net.cpp:425] inception_3a/pool_proj <- inception_3a/pool
I0403 18:58:59.532083 18311 net.cpp:399] inception_3a/pool_proj -> inception_3a/pool_proj
I0403 18:58:59.533035 18311 net.cpp:141] Setting up inception_3a/pool_proj
I0403 18:58:59.533062 18311 net.cpp:148] Top shape: 24 32 28 28 (602112)
I0403 18:58:59.533078 18311 net.cpp:156] Memory required for data: 558760992
I0403 18:58:59.533098 18311 layer_factory.hpp:77] Creating layer inception_3a/relu_pool_proj
I0403 18:58:59.533144 18311 net.cpp:91] Creating Layer inception_3a/relu_pool_proj
I0403 18:58:59.533160 18311 net.cpp:425] inception_3a/relu_pool_proj <- inception_3a/pool_proj
I0403 18:58:59.533177 18311 net.cpp:386] inception_3a/relu_pool_proj -> inception_3a/pool_proj (in-place)
I0403 18:58:59.533464 18311 net.cpp:141] Setting up inception_3a/relu_pool_proj
I0403 18:58:59.533489 18311 net.cpp:148] Top shape: 24 32 28 28 (602112)
I0403 18:58:59.533504 18311 net.cpp:156] Memory required for data: 561169440
I0403 18:58:59.533517 18311 layer_factory.hpp:77] Creating layer inception_3a/output
I0403 18:58:59.533536 18311 net.cpp:91] Creating Layer inception_3a/output
I0403 18:58:59.533552 18311 net.cpp:425] inception_3a/output <- inception_3a/1x1
I0403 18:58:59.533568 18311 net.cpp:425] inception_3a/output <- inception_3a/3x3
I0403 18:58:59.533582 18311 net.cpp:425] inception_3a/output <- inception_3a/5x5
I0403 18:58:59.533597 18311 net.cpp:425] inception_3a/output <- inception_3a/pool_proj
I0403 18:58:59.533612 18311 net.cpp:399] inception_3a/output -> inception_3a/output
I0403 18:58:59.533658 18311 net.cpp:141] Setting up inception_3a/output
I0403 18:58:59.533679 18311 net.cpp:148] Top shape: 24 256 28 28 (4816896)
I0403 18:58:59.533694 18311 net.cpp:156] Memory required for data: 580437024
I0403 18:58:59.533707 18311 layer_factory.hpp:77] Creating layer inception_3a/output_inception_3a/output_0_split
I0403 18:58:59.533723 18311 net.cpp:91] Creating Layer inception_3a/output_inception_3a/output_0_split
I0403 18:58:59.533737 18311 net.cpp:425] inception_3a/output_inception_3a/output_0_split <- inception_3a/output
I0403 18:58:59.533756 18311 net.cpp:399] inception_3a/output_inception_3a/output_0_split -> inception_3a/output_inception_3a/output_0_split_0
I0403 18:58:59.533776 18311 net.cpp:399] inception_3a/output_inception_3a/output_0_split -> inception_3a/output_inception_3a/output_0_split_1
I0403 18:58:59.533797 18311 net.cpp:399] inception_3a/output_inception_3a/output_0_split -> inception_3a/output_inception_3a/output_0_split_2
I0403 18:58:59.533815 18311 net.cpp:399] inception_3a/output_inception_3a/output_0_split -> inception_3a/output_inception_3a/output_0_split_3
I0403 18:58:59.533885 18311 net.cpp:141] Setting up inception_3a/output_inception_3a/output_0_split
I0403 18:58:59.533907 18311 net.cpp:148] Top shape: 24 256 28 28 (4816896)
I0403 18:58:59.533923 18311 net.cpp:148] Top shape: 24 256 28 28 (4816896)
I0403 18:58:59.533937 18311 net.cpp:148] Top shape: 24 256 28 28 (4816896)
I0403 18:58:59.533957 18311 net.cpp:148] Top shape: 24 256 28 28 (4816896)
I0403 18:58:59.533972 18311 net.cpp:156] Memory required for data: 657507360
I0403 18:58:59.533985 18311 layer_factory.hpp:77] Creating layer inception_3b/1x1
I0403 18:58:59.534006 18311 net.cpp:91] Creating Layer inception_3b/1x1
I0403 18:58:59.534023 18311 net.cpp:425] inception_3b/1x1 <- inception_3a/output_inception_3a/output_0_split_0
I0403 18:58:59.534042 18311 net.cpp:399] inception_3b/1x1 -> inception_3b/1x1
I0403 18:58:59.535145 18311 net.cpp:141] Setting up inception_3b/1x1
I0403 18:58:59.535181 18311 net.cpp:148] Top shape: 24 128 28 28 (2408448)
I0403 18:58:59.535197 18311 net.cpp:156] Memory required for data: 667141152
I0403 18:58:59.535215 18311 layer_factory.hpp:77] Creating layer inception_3b/relu_1x1
I0403 18:58:59.535233 18311 net.cpp:91] Creating Layer inception_3b/relu_1x1
I0403 18:58:59.535246 18311 net.cpp:425] inception_3b/relu_1x1 <- inception_3b/1x1
I0403 18:58:59.535265 18311 net.cpp:386] inception_3b/relu_1x1 -> inception_3b/1x1 (in-place)
I0403 18:58:59.535439 18311 net.cpp:141] Setting up inception_3b/relu_1x1
I0403 18:58:59.535462 18311 net.cpp:148] Top shape: 24 128 28 28 (2408448)
I0403 18:58:59.535476 18311 net.cpp:156] Memory required for data: 676774944
I0403 18:58:59.535490 18311 layer_factory.hpp:77] Creating layer inception_3b/3x3_reduce
I0403 18:58:59.535511 18311 net.cpp:91] Creating Layer inception_3b/3x3_reduce
I0403 18:58:59.535527 18311 net.cpp:425] inception_3b/3x3_reduce <- inception_3a/output_inception_3a/output_0_split_1
I0403 18:58:59.535547 18311 net.cpp:399] inception_3b/3x3_reduce -> inception_3b/3x3_reduce
I0403 18:58:59.536645 18311 net.cpp:141] Setting up inception_3b/3x3_reduce
I0403 18:58:59.536670 18311 net.cpp:148] Top shape: 24 128 28 28 (2408448)
I0403 18:58:59.536685 18311 net.cpp:156] Memory required for data: 686408736
I0403 18:58:59.536702 18311 layer_factory.hpp:77] Creating layer inception_3b/relu_3x3_reduce
I0403 18:58:59.536720 18311 net.cpp:91] Creating Layer inception_3b/relu_3x3_reduce
I0403 18:58:59.536736 18311 net.cpp:425] inception_3b/relu_3x3_reduce <- inception_3b/3x3_reduce
I0403 18:58:59.536754 18311 net.cpp:386] inception_3b/relu_3x3_reduce -> inception_3b/3x3_reduce (in-place)
I0403 18:58:59.536922 18311 net.cpp:141] Setting up inception_3b/relu_3x3_reduce
I0403 18:58:59.536949 18311 net.cpp:148] Top shape: 24 128 28 28 (2408448)
I0403 18:58:59.536964 18311 net.cpp:156] Memory required for data: 696042528
I0403 18:58:59.536978 18311 layer_factory.hpp:77] Creating layer inception_3b/3x3
I0403 18:58:59.537003 18311 net.cpp:91] Creating Layer inception_3b/3x3
I0403 18:58:59.537019 18311 net.cpp:425] inception_3b/3x3 <- inception_3b/3x3_reduce
I0403 18:58:59.537037 18311 net.cpp:399] inception_3b/3x3 -> inception_3b/3x3
I0403 18:58:59.539844 18311 net.cpp:141] Setting up inception_3b/3x3
I0403 18:58:59.539872 18311 net.cpp:148] Top shape: 24 192 28 28 (3612672)
I0403 18:58:59.539887 18311 net.cpp:156] Memory required for data: 710493216
I0403 18:58:59.539904 18311 layer_factory.hpp:77] Creating layer inception_3b/relu_3x3
I0403 18:58:59.539924 18311 net.cpp:91] Creating Layer inception_3b/relu_3x3
I0403 18:58:59.539940 18311 net.cpp:425] inception_3b/relu_3x3 <- inception_3b/3x3
I0403 18:58:59.539961 18311 net.cpp:386] inception_3b/relu_3x3 -> inception_3b/3x3 (in-place)
I0403 18:58:59.540233 18311 net.cpp:141] Setting up inception_3b/relu_3x3
I0403 18:58:59.540257 18311 net.cpp:148] Top shape: 24 192 28 28 (3612672)
I0403 18:58:59.540272 18311 net.cpp:156] Memory required for data: 724943904
I0403 18:58:59.540287 18311 layer_factory.hpp:77] Creating layer inception_3b/5x5_reduce
I0403 18:58:59.540307 18311 net.cpp:91] Creating Layer inception_3b/5x5_reduce
I0403 18:58:59.540324 18311 net.cpp:425] inception_3b/5x5_reduce <- inception_3a/output_inception_3a/output_0_split_2
I0403 18:58:59.540345 18311 net.cpp:399] inception_3b/5x5_reduce -> inception_3b/5x5_reduce
I0403 18:58:59.541312 18311 net.cpp:141] Setting up inception_3b/5x5_reduce
I0403 18:58:59.541339 18311 net.cpp:148] Top shape: 24 32 28 28 (602112)
I0403 18:58:59.541354 18311 net.cpp:156] Memory required for data: 727352352
I0403 18:58:59.541371 18311 layer_factory.hpp:77] Creating layer inception_3b/relu_5x5_reduce
I0403 18:58:59.541390 18311 net.cpp:91] Creating Layer inception_3b/relu_5x5_reduce
I0403 18:58:59.541406 18311 net.cpp:425] inception_3b/relu_5x5_reduce <- inception_3b/5x5_reduce
I0403 18:58:59.541422 18311 net.cpp:386] inception_3b/relu_5x5_reduce -> inception_3b/5x5_reduce (in-place)
I0403 18:58:59.541610 18311 net.cpp:141] Setting up inception_3b/relu_5x5_reduce
I0403 18:58:59.541635 18311 net.cpp:148] Top shape: 24 32 28 28 (602112)
I0403 18:58:59.541648 18311 net.cpp:156] Memory required for data: 729760800
I0403 18:58:59.541662 18311 layer_factory.hpp:77] Creating layer inception_3b/5x5
I0403 18:58:59.541684 18311 net.cpp:91] Creating Layer inception_3b/5x5
I0403 18:58:59.541702 18311 net.cpp:425] inception_3b/5x5 <- inception_3b/5x5_reduce
I0403 18:58:59.541719 18311 net.cpp:399] inception_3b/5x5 -> inception_3b/5x5
I0403 18:58:59.543620 18311 net.cpp:141] Setting up inception_3b/5x5
I0403 18:58:59.543648 18311 net.cpp:148] Top shape: 24 96 28 28 (1806336)
I0403 18:58:59.543663 18311 net.cpp:156] Memory required for data: 736986144
I0403 18:58:59.543679 18311 layer_factory.hpp:77] Creating layer inception_3b/relu_5x5
I0403 18:58:59.543696 18311 net.cpp:91] Creating Layer inception_3b/relu_5x5
I0403 18:58:59.543711 18311 net.cpp:425] inception_3b/relu_5x5 <- inception_3b/5x5
I0403 18:58:59.543730 18311 net.cpp:386] inception_3b/relu_5x5 -> inception_3b/5x5 (in-place)
I0403 18:58:59.543916 18311 net.cpp:141] Setting up inception_3b/relu_5x5
I0403 18:58:59.543941 18311 net.cpp:148] Top shape: 24 96 28 28 (1806336)
I0403 18:58:59.543959 18311 net.cpp:156] Memory required for data: 744211488
I0403 18:58:59.543974 18311 layer_factory.hpp:77] Creating layer inception_3b/pool
I0403 18:58:59.543990 18311 net.cpp:91] Creating Layer inception_3b/pool
I0403 18:58:59.544005 18311 net.cpp:425] inception_3b/pool <- inception_3a/output_inception_3a/output_0_split_3
I0403 18:58:59.544023 18311 net.cpp:399] inception_3b/pool -> inception_3b/pool
I0403 18:58:59.544080 18311 net.cpp:141] Setting up inception_3b/pool
I0403 18:58:59.544101 18311 net.cpp:148] Top shape: 24 256 28 28 (4816896)
I0403 18:58:59.544114 18311 net.cpp:156] Memory required for data: 763479072
I0403 18:58:59.544128 18311 layer_factory.hpp:77] Creating layer inception_3b/pool_proj
I0403 18:58:59.544149 18311 net.cpp:91] Creating Layer inception_3b/pool_proj
I0403 18:58:59.544165 18311 net.cpp:425] inception_3b/pool_proj <- inception_3b/pool
I0403 18:58:59.544186 18311 net.cpp:399] inception_3b/pool_proj -> inception_3b/pool_proj
I0403 18:58:59.545260 18311 net.cpp:141] Setting up inception_3b/pool_proj
I0403 18:58:59.545289 18311 net.cpp:148] Top shape: 24 64 28 28 (1204224)
I0403 18:58:59.545316 18311 net.cpp:156] Memory required for data: 768295968
I0403 18:58:59.545336 18311 layer_factory.hpp:77] Creating layer inception_3b/relu_pool_proj
I0403 18:58:59.545354 18311 net.cpp:91] Creating Layer inception_3b/relu_pool_proj
I0403 18:58:59.545369 18311 net.cpp:425] inception_3b/relu_pool_proj <- inception_3b/pool_proj
I0403 18:58:59.545387 18311 net.cpp:386] inception_3b/relu_pool_proj -> inception_3b/pool_proj (in-place)
I0403 18:58:59.545789 18311 net.cpp:141] Setting up inception_3b/relu_pool_proj
I0403 18:58:59.545814 18311 net.cpp:148] Top shape: 24 64 28 28 (1204224)
I0403 18:58:59.545832 18311 net.cpp:156] Memory required for data: 773112864
I0403 18:58:59.545847 18311 layer_factory.hpp:77] Creating layer inception_3b/output
I0403 18:58:59.545864 18311 net.cpp:91] Creating Layer inception_3b/output
I0403 18:58:59.545879 18311 net.cpp:425] inception_3b/output <- inception_3b/1x1
I0403 18:58:59.545895 18311 net.cpp:425] inception_3b/output <- inception_3b/3x3
I0403 18:58:59.545919 18311 net.cpp:425] inception_3b/output <- inception_3b/5x5
I0403 18:58:59.545936 18311 net.cpp:425] inception_3b/output <- inception_3b/pool_proj
I0403 18:58:59.545958 18311 net.cpp:399] inception_3b/output -> inception_3b/output
I0403 18:58:59.546003 18311 net.cpp:141] Setting up inception_3b/output
I0403 18:58:59.546025 18311 net.cpp:148] Top shape: 24 480 28 28 (9031680)
I0403 18:58:59.546039 18311 net.cpp:156] Memory required for data: 809239584
I0403 18:58:59.546053 18311 layer_factory.hpp:77] Creating layer pool3/3x3_s2
I0403 18:58:59.546075 18311 net.cpp:91] Creating Layer pool3/3x3_s2
I0403 18:58:59.546092 18311 net.cpp:425] pool3/3x3_s2 <- inception_3b/output
I0403 18:58:59.546123 18311 net.cpp:399] pool3/3x3_s2 -> pool3/3x3_s2
I0403 18:58:59.546182 18311 net.cpp:141] Setting up pool3/3x3_s2
I0403 18:58:59.546205 18311 net.cpp:148] Top shape: 24 480 14 14 (2257920)
I0403 18:58:59.546224 18311 net.cpp:156] Memory required for data: 818271264
I0403 18:58:59.546237 18311 layer_factory.hpp:77] Creating layer pool3/3x3_s2_pool3/3x3_s2_0_split
I0403 18:58:59.546253 18311 net.cpp:91] Creating Layer pool3/3x3_s2_pool3/3x3_s2_0_split
I0403 18:58:59.546268 18311 net.cpp:425] pool3/3x3_s2_pool3/3x3_s2_0_split <- pool3/3x3_s2
I0403 18:58:59.546288 18311 net.cpp:399] pool3/3x3_s2_pool3/3x3_s2_0_split -> pool3/3x3_s2_pool3/3x3_s2_0_split_0
I0403 18:58:59.546308 18311 net.cpp:399] pool3/3x3_s2_pool3/3x3_s2_0_split -> pool3/3x3_s2_pool3/3x3_s2_0_split_1
I0403 18:58:59.546327 18311 net.cpp:399] pool3/3x3_s2_pool3/3x3_s2_0_split -> pool3/3x3_s2_pool3/3x3_s2_0_split_2
I0403 18:58:59.546346 18311 net.cpp:399] pool3/3x3_s2_pool3/3x3_s2_0_split -> pool3/3x3_s2_pool3/3x3_s2_0_split_3
I0403 18:58:59.546422 18311 net.cpp:141] Setting up pool3/3x3_s2_pool3/3x3_s2_0_split
I0403 18:58:59.546444 18311 net.cpp:148] Top shape: 24 480 14 14 (2257920)
I0403 18:58:59.546460 18311 net.cpp:148] Top shape: 24 480 14 14 (2257920)
I0403 18:58:59.546475 18311 net.cpp:148] Top shape: 24 480 14 14 (2257920)
I0403 18:58:59.546490 18311 net.cpp:148] Top shape: 24 480 14 14 (2257920)
I0403 18:58:59.546504 18311 net.cpp:156] Memory required for data: 854397984
I0403 18:58:59.546519 18311 layer_factory.hpp:77] Creating layer inception_4a/1x1
I0403 18:58:59.546540 18311 net.cpp:91] Creating Layer inception_4a/1x1
I0403 18:58:59.546557 18311 net.cpp:425] inception_4a/1x1 <- pool3/3x3_s2_pool3/3x3_s2_0_split_0
I0403 18:58:59.546576 18311 net.cpp:399] inception_4a/1x1 -> inception_4a/1x1
I0403 18:58:59.548183 18311 net.cpp:141] Setting up inception_4a/1x1
I0403 18:58:59.548220 18311 net.cpp:148] Top shape: 24 192 14 14 (903168)
I0403 18:58:59.548236 18311 net.cpp:156] Memory required for data: 858010656
I0403 18:58:59.548254 18311 layer_factory.hpp:77] Creating layer inception_4a/relu_1x1
I0403 18:58:59.548272 18311 net.cpp:91] Creating Layer inception_4a/relu_1x1
I0403 18:58:59.548288 18311 net.cpp:425] inception_4a/relu_1x1 <- inception_4a/1x1
I0403 18:58:59.548307 18311 net.cpp:386] inception_4a/relu_1x1 -> inception_4a/1x1 (in-place)
I0403 18:58:59.548483 18311 net.cpp:141] Setting up inception_4a/relu_1x1
I0403 18:58:59.548508 18311 net.cpp:148] Top shape: 24 192 14 14 (903168)
I0403 18:58:59.548522 18311 net.cpp:156] Memory required for data: 861623328
I0403 18:58:59.548537 18311 layer_factory.hpp:77] Creating layer inception_4a/3x3_reduce
I0403 18:58:59.548558 18311 net.cpp:91] Creating Layer inception_4a/3x3_reduce
I0403 18:58:59.548575 18311 net.cpp:425] inception_4a/3x3_reduce <- pool3/3x3_s2_pool3/3x3_s2_0_split_1
I0403 18:58:59.548596 18311 net.cpp:399] inception_4a/3x3_reduce -> inception_4a/3x3_reduce
I0403 18:58:59.549868 18311 net.cpp:141] Setting up inception_4a/3x3_reduce
I0403 18:58:59.549898 18311 net.cpp:148] Top shape: 24 96 14 14 (451584)
I0403 18:58:59.549917 18311 net.cpp:156] Memory required for data: 863429664
I0403 18:58:59.549938 18311 layer_factory.hpp:77] Creating layer inception_4a/relu_3x3_reduce
I0403 18:58:59.549964 18311 net.cpp:91] Creating Layer inception_4a/relu_3x3_reduce
I0403 18:58:59.549983 18311 net.cpp:425] inception_4a/relu_3x3_reduce <- inception_4a/3x3_reduce
I0403 18:58:59.550000 18311 net.cpp:386] inception_4a/relu_3x3_reduce -> inception_4a/3x3_reduce (in-place)
I0403 18:58:59.550179 18311 net.cpp:141] Setting up inception_4a/relu_3x3_reduce
I0403 18:58:59.550202 18311 net.cpp:148] Top shape: 24 96 14 14 (451584)
I0403 18:58:59.550220 18311 net.cpp:156] Memory required for data: 865236000
I0403 18:58:59.550233 18311 layer_factory.hpp:77] Creating layer inception_4a/3x3
I0403 18:58:59.550256 18311 net.cpp:91] Creating Layer inception_4a/3x3
I0403 18:58:59.550272 18311 net.cpp:425] inception_4a/3x3 <- inception_4a/3x3_reduce
I0403 18:58:59.550292 18311 net.cpp:399] inception_4a/3x3 -> inception_4a/3x3
I0403 18:58:59.552986 18311 net.cpp:141] Setting up inception_4a/3x3
I0403 18:58:59.553014 18311 net.cpp:148] Top shape: 24 208 14 14 (978432)
I0403 18:58:59.553030 18311 net.cpp:156] Memory required for data: 869149728
I0403 18:58:59.553047 18311 layer_factory.hpp:77] Creating layer inception_4a/relu_3x3
I0403 18:58:59.553066 18311 net.cpp:91] Creating Layer inception_4a/relu_3x3
I0403 18:58:59.553086 18311 net.cpp:425] inception_4a/relu_3x3 <- inception_4a/3x3
I0403 18:58:59.553102 18311 net.cpp:386] inception_4a/relu_3x3 -> inception_4a/3x3 (in-place)
I0403 18:58:59.553381 18311 net.cpp:141] Setting up inception_4a/relu_3x3
I0403 18:58:59.553406 18311 net.cpp:148] Top shape: 24 208 14 14 (978432)
I0403 18:58:59.553421 18311 net.cpp:156] Memory required for data: 873063456
I0403 18:58:59.553436 18311 layer_factory.hpp:77] Creating layer inception_4a/5x5_reduce
I0403 18:58:59.553459 18311 net.cpp:91] Creating Layer inception_4a/5x5_reduce
I0403 18:58:59.553477 18311 net.cpp:425] inception_4a/5x5_reduce <- pool3/3x3_s2_pool3/3x3_s2_0_split_2
I0403 18:58:59.553496 18311 net.cpp:399] inception_4a/5x5_reduce -> inception_4a/5x5_reduce
I0403 18:58:59.554518 18311 net.cpp:141] Setting up inception_4a/5x5_reduce
I0403 18:58:59.554545 18311 net.cpp:148] Top shape: 24 16 14 14 (75264)
I0403 18:58:59.554561 18311 net.cpp:156] Memory required for data: 873364512
I0403 18:58:59.554579 18311 layer_factory.hpp:77] Creating layer inception_4a/relu_5x5_reduce
I0403 18:58:59.554601 18311 net.cpp:91] Creating Layer inception_4a/relu_5x5_reduce
I0403 18:58:59.554617 18311 net.cpp:425] inception_4a/relu_5x5_reduce <- inception_4a/5x5_reduce
I0403 18:58:59.554635 18311 net.cpp:386] inception_4a/relu_5x5_reduce -> inception_4a/5x5_reduce (in-place)
I0403 18:58:59.554812 18311 net.cpp:141] Setting up inception_4a/relu_5x5_reduce
I0403 18:58:59.554836 18311 net.cpp:148] Top shape: 24 16 14 14 (75264)
I0403 18:58:59.554850 18311 net.cpp:156] Memory required for data: 873665568
I0403 18:58:59.554865 18311 layer_factory.hpp:77] Creating layer inception_4a/5x5
I0403 18:58:59.554888 18311 net.cpp:91] Creating Layer inception_4a/5x5
I0403 18:58:59.554904 18311 net.cpp:425] inception_4a/5x5 <- inception_4a/5x5_reduce
I0403 18:58:59.554922 18311 net.cpp:399] inception_4a/5x5 -> inception_4a/5x5
I0403 18:58:59.556007 18311 net.cpp:141] Setting up inception_4a/5x5
I0403 18:58:59.556037 18311 net.cpp:148] Top shape: 24 48 14 14 (225792)
I0403 18:58:59.556053 18311 net.cpp:156] Memory required for data: 874568736
I0403 18:58:59.556071 18311 layer_factory.hpp:77] Creating layer inception_4a/relu_5x5
I0403 18:58:59.556088 18311 net.cpp:91] Creating Layer inception_4a/relu_5x5
I0403 18:58:59.556104 18311 net.cpp:425] inception_4a/relu_5x5 <- inception_4a/5x5
I0403 18:58:59.556121 18311 net.cpp:386] inception_4a/relu_5x5 -> inception_4a/5x5 (in-place)
I0403 18:58:59.556303 18311 net.cpp:141] Setting up inception_4a/relu_5x5
I0403 18:58:59.556329 18311 net.cpp:148] Top shape: 24 48 14 14 (225792)
I0403 18:58:59.556344 18311 net.cpp:156] Memory required for data: 875471904
I0403 18:58:59.556359 18311 layer_factory.hpp:77] Creating layer inception_4a/pool
I0403 18:58:59.556375 18311 net.cpp:91] Creating Layer inception_4a/pool
I0403 18:58:59.556391 18311 net.cpp:425] inception_4a/pool <- pool3/3x3_s2_pool3/3x3_s2_0_split_3
I0403 18:58:59.556411 18311 net.cpp:399] inception_4a/pool -> inception_4a/pool
I0403 18:58:59.556469 18311 net.cpp:141] Setting up inception_4a/pool
I0403 18:58:59.556495 18311 net.cpp:148] Top shape: 24 480 14 14 (2257920)
I0403 18:58:59.556510 18311 net.cpp:156] Memory required for data: 884503584
I0403 18:58:59.556524 18311 layer_factory.hpp:77] Creating layer inception_4a/pool_proj
I0403 18:58:59.556543 18311 net.cpp:91] Creating Layer inception_4a/pool_proj
I0403 18:58:59.556560 18311 net.cpp:425] inception_4a/pool_proj <- inception_4a/pool
I0403 18:58:59.556581 18311 net.cpp:399] inception_4a/pool_proj -> inception_4a/pool_proj
I0403 18:58:59.557744 18311 net.cpp:141] Setting up inception_4a/pool_proj
I0403 18:58:59.557776 18311 net.cpp:148] Top shape: 24 64 14 14 (301056)
I0403 18:58:59.557806 18311 net.cpp:156] Memory required for data: 885707808
I0403 18:58:59.557824 18311 layer_factory.hpp:77] Creating layer inception_4a/relu_pool_proj
I0403 18:58:59.557842 18311 net.cpp:91] Creating Layer inception_4a/relu_pool_proj
I0403 18:58:59.557857 18311 net.cpp:425] inception_4a/relu_pool_proj <- inception_4a/pool_proj
I0403 18:58:59.557874 18311 net.cpp:386] inception_4a/relu_pool_proj -> inception_4a/pool_proj (in-place)
I0403 18:58:59.558162 18311 net.cpp:141] Setting up inception_4a/relu_pool_proj
I0403 18:58:59.558192 18311 net.cpp:148] Top shape: 24 64 14 14 (301056)
I0403 18:58:59.558208 18311 net.cpp:156] Memory required for data: 886912032
I0403 18:58:59.558223 18311 layer_factory.hpp:77] Creating layer inception_4a/output
I0403 18:58:59.558239 18311 net.cpp:91] Creating Layer inception_4a/output
I0403 18:58:59.558254 18311 net.cpp:425] inception_4a/output <- inception_4a/1x1
I0403 18:58:59.558269 18311 net.cpp:425] inception_4a/output <- inception_4a/3x3
I0403 18:58:59.558285 18311 net.cpp:425] inception_4a/output <- inception_4a/5x5
I0403 18:58:59.558300 18311 net.cpp:425] inception_4a/output <- inception_4a/pool_proj
I0403 18:58:59.558316 18311 net.cpp:399] inception_4a/output -> inception_4a/output
I0403 18:58:59.558362 18311 net.cpp:141] Setting up inception_4a/output
I0403 18:58:59.558384 18311 net.cpp:148] Top shape: 24 512 14 14 (2408448)
I0403 18:58:59.558398 18311 net.cpp:156] Memory required for data: 896545824
I0403 18:58:59.558413 18311 layer_factory.hpp:77] Creating layer inception_4a/output_inception_4a/output_0_split
I0403 18:58:59.558431 18311 net.cpp:91] Creating Layer inception_4a/output_inception_4a/output_0_split
I0403 18:58:59.558449 18311 net.cpp:425] inception_4a/output_inception_4a/output_0_split <- inception_4a/output
I0403 18:58:59.558465 18311 net.cpp:399] inception_4a/output_inception_4a/output_0_split -> inception_4a/output_inception_4a/output_0_split_0
I0403 18:58:59.558485 18311 net.cpp:399] inception_4a/output_inception_4a/output_0_split -> inception_4a/output_inception_4a/output_0_split_1
I0403 18:58:59.558506 18311 net.cpp:399] inception_4a/output_inception_4a/output_0_split -> inception_4a/output_inception_4a/output_0_split_2
I0403 18:58:59.558526 18311 net.cpp:399] inception_4a/output_inception_4a/output_0_split -> inception_4a/output_inception_4a/output_0_split_3
I0403 18:58:59.558547 18311 net.cpp:399] inception_4a/output_inception_4a/output_0_split -> inception_4a/output_inception_4a/output_0_split_4
I0403 18:58:59.558640 18311 net.cpp:141] Setting up inception_4a/output_inception_4a/output_0_split
I0403 18:58:59.558661 18311 net.cpp:148] Top shape: 24 512 14 14 (2408448)
I0403 18:58:59.558677 18311 net.cpp:148] Top shape: 24 512 14 14 (2408448)
I0403 18:58:59.558693 18311 net.cpp:148] Top shape: 24 512 14 14 (2408448)
I0403 18:58:59.558707 18311 net.cpp:148] Top shape: 24 512 14 14 (2408448)
I0403 18:58:59.558722 18311 net.cpp:148] Top shape: 24 512 14 14 (2408448)
I0403 18:58:59.558737 18311 net.cpp:156] Memory required for data: 944714784
I0403 18:58:59.558749 18311 layer_factory.hpp:77] Creating layer loss1/ave_pool
I0403 18:58:59.558768 18311 net.cpp:91] Creating Layer loss1/ave_pool
I0403 18:58:59.558784 18311 net.cpp:425] loss1/ave_pool <- inception_4a/output_inception_4a/output_0_split_0
I0403 18:58:59.558801 18311 net.cpp:399] loss1/ave_pool -> loss1/ave_pool
I0403 18:58:59.559020 18311 net.cpp:141] Setting up loss1/ave_pool
I0403 18:58:59.559046 18311 net.cpp:148] Top shape: 24 512 4 4 (196608)
I0403 18:58:59.559062 18311 net.cpp:156] Memory required for data: 945501216
I0403 18:58:59.559077 18311 layer_factory.hpp:77] Creating layer loss1/conv
I0403 18:58:59.559099 18311 net.cpp:91] Creating Layer loss1/conv
I0403 18:58:59.559116 18311 net.cpp:425] loss1/conv <- loss1/ave_pool
I0403 18:58:59.559134 18311 net.cpp:399] loss1/conv -> loss1/conv
I0403 18:58:59.560545 18311 net.cpp:141] Setting up loss1/conv
I0403 18:58:59.560573 18311 net.cpp:148] Top shape: 24 128 4 4 (49152)
I0403 18:58:59.560602 18311 net.cpp:156] Memory required for data: 945697824
I0403 18:58:59.560622 18311 layer_factory.hpp:77] Creating layer loss1/relu_conv
I0403 18:58:59.560642 18311 net.cpp:91] Creating Layer loss1/relu_conv
I0403 18:58:59.560659 18311 net.cpp:425] loss1/relu_conv <- loss1/conv
I0403 18:58:59.560677 18311 net.cpp:386] loss1/relu_conv -> loss1/conv (in-place)
I0403 18:58:59.560967 18311 net.cpp:141] Setting up loss1/relu_conv
I0403 18:58:59.560993 18311 net.cpp:148] Top shape: 24 128 4 4 (49152)
I0403 18:58:59.561008 18311 net.cpp:156] Memory required for data: 945894432
I0403 18:58:59.561022 18311 layer_factory.hpp:77] Creating layer loss1/fc
I0403 18:58:59.561048 18311 net.cpp:91] Creating Layer loss1/fc
I0403 18:58:59.561066 18311 net.cpp:425] loss1/fc <- loss1/conv
I0403 18:58:59.561084 18311 net.cpp:399] loss1/fc -> loss1/fc
I0403 18:58:59.578253 18311 net.cpp:141] Setting up loss1/fc
I0403 18:58:59.578284 18311 net.cpp:148] Top shape: 24 1024 (24576)
I0403 18:58:59.578299 18311 net.cpp:156] Memory required for data: 945992736
I0403 18:58:59.578316 18311 layer_factory.hpp:77] Creating layer loss1/relu_fc
I0403 18:58:59.578333 18311 net.cpp:91] Creating Layer loss1/relu_fc
I0403 18:58:59.578348 18311 net.cpp:425] loss1/relu_fc <- loss1/fc
I0403 18:58:59.578367 18311 net.cpp:386] loss1/relu_fc -> loss1/fc (in-place)
I0403 18:58:59.578550 18311 net.cpp:141] Setting up loss1/relu_fc
I0403 18:58:59.578573 18311 net.cpp:148] Top shape: 24 1024 (24576)
I0403 18:58:59.578588 18311 net.cpp:156] Memory required for data: 946091040
I0403 18:58:59.578601 18311 layer_factory.hpp:77] Creating layer loss1/drop_fc
I0403 18:58:59.578625 18311 net.cpp:91] Creating Layer loss1/drop_fc
I0403 18:58:59.578642 18311 net.cpp:425] loss1/drop_fc <- loss1/fc
I0403 18:58:59.578660 18311 net.cpp:386] loss1/drop_fc -> loss1/fc (in-place)
I0403 18:58:59.578709 18311 net.cpp:141] Setting up loss1/drop_fc
I0403 18:58:59.578732 18311 net.cpp:148] Top shape: 24 1024 (24576)
I0403 18:58:59.578745 18311 net.cpp:156] Memory required for data: 946189344
I0403 18:58:59.578759 18311 layer_factory.hpp:77] Creating layer loss1/classifier_plantvillage
I0403 18:58:59.578780 18311 net.cpp:91] Creating Layer loss1/classifier_plantvillage
I0403 18:58:59.578796 18311 net.cpp:425] loss1/classifier_plantvillage <- loss1/fc
I0403 18:58:59.578816 18311 net.cpp:399] loss1/classifier_plantvillage -> loss1/classifier_plantvillage
I0403 18:58:59.579747 18311 net.cpp:141] Setting up loss1/classifier_plantvillage
I0403 18:58:59.579777 18311 net.cpp:148] Top shape: 24 38 (912)
I0403 18:58:59.579792 18311 net.cpp:156] Memory required for data: 946192992
I0403 18:58:59.579808 18311 layer_factory.hpp:77] Creating layer loss1/classifier_plantvillage_loss1/classifier_plantvillage_0_split
I0403 18:58:59.579826 18311 net.cpp:91] Creating Layer loss1/classifier_plantvillage_loss1/classifier_plantvillage_0_split
I0403 18:58:59.579841 18311 net.cpp:425] loss1/classifier_plantvillage_loss1/classifier_plantvillage_0_split <- loss1/classifier_plantvillage
I0403 18:58:59.579860 18311 net.cpp:399] loss1/classifier_plantvillage_loss1/classifier_plantvillage_0_split -> loss1/classifier_plantvillage_loss1/classifier_plantvillage_0_split_0
I0403 18:58:59.579881 18311 net.cpp:399] loss1/classifier_plantvillage_loss1/classifier_plantvillage_0_split -> loss1/classifier_plantvillage_loss1/classifier_plantvillage_0_split_1
I0403 18:58:59.579900 18311 net.cpp:399] loss1/classifier_plantvillage_loss1/classifier_plantvillage_0_split -> loss1/classifier_plantvillage_loss1/classifier_plantvillage_0_split_2
I0403 18:58:59.579968 18311 net.cpp:141] Setting up loss1/classifier_plantvillage_loss1/classifier_plantvillage_0_split
I0403 18:58:59.579990 18311 net.cpp:148] Top shape: 24 38 (912)
I0403 18:58:59.580006 18311 net.cpp:148] Top shape: 24 38 (912)
I0403 18:58:59.580021 18311 net.cpp:148] Top shape: 24 38 (912)
I0403 18:58:59.580034 18311 net.cpp:156] Memory required for data: 946203936
I0403 18:58:59.580049 18311 layer_factory.hpp:77] Creating layer inception_4b/1x1
I0403 18:58:59.580070 18311 net.cpp:91] Creating Layer inception_4b/1x1
I0403 18:58:59.580116 18311 net.cpp:425] inception_4b/1x1 <- inception_4a/output_inception_4a/output_0_split_1
I0403 18:58:59.580137 18311 net.cpp:399] inception_4b/1x1 -> inception_4b/1x1
I0403 18:58:59.581789 18311 net.cpp:141] Setting up inception_4b/1x1
I0403 18:58:59.581816 18311 net.cpp:148] Top shape: 24 160 14 14 (752640)
I0403 18:58:59.581832 18311 net.cpp:156] Memory required for data: 949214496
I0403 18:58:59.581850 18311 layer_factory.hpp:77] Creating layer inception_4b/relu_1x1
I0403 18:58:59.581869 18311 net.cpp:91] Creating Layer inception_4b/relu_1x1
I0403 18:58:59.581886 18311 net.cpp:425] inception_4b/relu_1x1 <- inception_4b/1x1
I0403 18:58:59.581902 18311 net.cpp:386] inception_4b/relu_1x1 -> inception_4b/1x1 (in-place)
I0403 18:58:59.582087 18311 net.cpp:141] Setting up inception_4b/relu_1x1
I0403 18:58:59.582113 18311 net.cpp:148] Top shape: 24 160 14 14 (752640)
I0403 18:58:59.582126 18311 net.cpp:156] Memory required for data: 952225056
I0403 18:58:59.582141 18311 layer_factory.hpp:77] Creating layer inception_4b/3x3_reduce
I0403 18:58:59.582164 18311 net.cpp:91] Creating Layer inception_4b/3x3_reduce
I0403 18:58:59.582180 18311 net.cpp:425] inception_4b/3x3_reduce <- inception_4a/output_inception_4a/output_0_split_2
I0403 18:58:59.582200 18311 net.cpp:399] inception_4b/3x3_reduce -> inception_4b/3x3_reduce
I0403 18:58:59.583549 18311 net.cpp:141] Setting up inception_4b/3x3_reduce
I0403 18:58:59.583576 18311 net.cpp:148] Top shape: 24 112 14 14 (526848)
I0403 18:58:59.583592 18311 net.cpp:156] Memory required for data: 954332448
I0403 18:58:59.583611 18311 layer_factory.hpp:77] Creating layer inception_4b/relu_3x3_reduce
I0403 18:58:59.583629 18311 net.cpp:91] Creating Layer inception_4b/relu_3x3_reduce
I0403 18:58:59.583647 18311 net.cpp:425] inception_4b/relu_3x3_reduce <- inception_4b/3x3_reduce
I0403 18:58:59.583664 18311 net.cpp:386] inception_4b/relu_3x3_reduce -> inception_4b/3x3_reduce (in-place)
I0403 18:58:59.583952 18311 net.cpp:141] Setting up inception_4b/relu_3x3_reduce
I0403 18:58:59.583978 18311 net.cpp:148] Top shape: 24 112 14 14 (526848)
I0403 18:58:59.583992 18311 net.cpp:156] Memory required for data: 956439840
I0403 18:58:59.584007 18311 layer_factory.hpp:77] Creating layer inception_4b/3x3
I0403 18:58:59.584029 18311 net.cpp:91] Creating Layer inception_4b/3x3
I0403 18:58:59.584046 18311 net.cpp:425] inception_4b/3x3 <- inception_4b/3x3_reduce
I0403 18:58:59.584067 18311 net.cpp:399] inception_4b/3x3 -> inception_4b/3x3
I0403 18:58:59.587039 18311 net.cpp:141] Setting up inception_4b/3x3
I0403 18:58:59.587069 18311 net.cpp:148] Top shape: 24 224 14 14 (1053696)
I0403 18:58:59.587086 18311 net.cpp:156] Memory required for data: 960654624
I0403 18:58:59.587105 18311 layer_factory.hpp:77] Creating layer inception_4b/relu_3x3
I0403 18:58:59.587122 18311 net.cpp:91] Creating Layer inception_4b/relu_3x3
I0403 18:58:59.587137 18311 net.cpp:425] inception_4b/relu_3x3 <- inception_4b/3x3
I0403 18:58:59.587157 18311 net.cpp:386] inception_4b/relu_3x3 -> inception_4b/3x3 (in-place)
I0403 18:58:59.587340 18311 net.cpp:141] Setting up inception_4b/relu_3x3
I0403 18:58:59.587364 18311 net.cpp:148] Top shape: 24 224 14 14 (1053696)
I0403 18:58:59.587378 18311 net.cpp:156] Memory required for data: 964869408
I0403 18:58:59.587393 18311 layer_factory.hpp:77] Creating layer inception_4b/5x5_reduce
I0403 18:58:59.587415 18311 net.cpp:91] Creating Layer inception_4b/5x5_reduce
I0403 18:58:59.587432 18311 net.cpp:425] inception_4b/5x5_reduce <- inception_4a/output_inception_4a/output_0_split_3
I0403 18:58:59.587453 18311 net.cpp:399] inception_4b/5x5_reduce -> inception_4b/5x5_reduce
I0403 18:58:59.588546 18311 net.cpp:141] Setting up inception_4b/5x5_reduce
I0403 18:58:59.588573 18311 net.cpp:148] Top shape: 24 24 14 14 (112896)
I0403 18:58:59.588588 18311 net.cpp:156] Memory required for data: 965320992
I0403 18:58:59.588606 18311 layer_factory.hpp:77] Creating layer inception_4b/relu_5x5_reduce
I0403 18:58:59.588625 18311 net.cpp:91] Creating Layer inception_4b/relu_5x5_reduce
I0403 18:58:59.588660 18311 net.cpp:425] inception_4b/relu_5x5_reduce <- inception_4b/5x5_reduce
I0403 18:58:59.588678 18311 net.cpp:386] inception_4b/relu_5x5_reduce -> inception_4b/5x5_reduce (in-place)
I0403 18:58:59.588865 18311 net.cpp:141] Setting up inception_4b/relu_5x5_reduce
I0403 18:58:59.588892 18311 net.cpp:148] Top shape: 24 24 14 14 (112896)
I0403 18:58:59.588907 18311 net.cpp:156] Memory required for data: 965772576
I0403 18:58:59.588922 18311 layer_factory.hpp:77] Creating layer inception_4b/5x5
I0403 18:58:59.588958 18311 net.cpp:91] Creating Layer inception_4b/5x5
I0403 18:58:59.588978 18311 net.cpp:425] inception_4b/5x5 <- inception_4b/5x5_reduce
I0403 18:58:59.588996 18311 net.cpp:399] inception_4b/5x5 -> inception_4b/5x5
I0403 18:58:59.590230 18311 net.cpp:141] Setting up inception_4b/5x5
I0403 18:58:59.590258 18311 net.cpp:148] Top shape: 24 64 14 14 (301056)
I0403 18:58:59.590273 18311 net.cpp:156] Memory required for data: 966976800
I0403 18:58:59.590291 18311 layer_factory.hpp:77] Creating layer inception_4b/relu_5x5
I0403 18:58:59.590311 18311 net.cpp:91] Creating Layer inception_4b/relu_5x5
I0403 18:58:59.590327 18311 net.cpp:425] inception_4b/relu_5x5 <- inception_4b/5x5
I0403 18:58:59.590343 18311 net.cpp:386] inception_4b/relu_5x5 -> inception_4b/5x5 (in-place)
I0403 18:58:59.590646 18311 net.cpp:141] Setting up inception_4b/relu_5x5
I0403 18:58:59.590672 18311 net.cpp:148] Top shape: 24 64 14 14 (301056)
I0403 18:58:59.590685 18311 net.cpp:156] Memory required for data: 968181024
I0403 18:58:59.590699 18311 layer_factory.hpp:77] Creating layer inception_4b/pool
I0403 18:58:59.590718 18311 net.cpp:91] Creating Layer inception_4b/pool
I0403 18:58:59.590734 18311 net.cpp:425] inception_4b/pool <- inception_4a/output_inception_4a/output_0_split_4
I0403 18:58:59.590751 18311 net.cpp:399] inception_4b/pool -> inception_4b/pool
I0403 18:58:59.590812 18311 net.cpp:141] Setting up inception_4b/pool
I0403 18:58:59.590836 18311 net.cpp:148] Top shape: 24 512 14 14 (2408448)
I0403 18:58:59.590848 18311 net.cpp:156] Memory required for data: 977814816
I0403 18:58:59.590862 18311 layer_factory.hpp:77] Creating layer inception_4b/pool_proj
I0403 18:58:59.590883 18311 net.cpp:91] Creating Layer inception_4b/pool_proj
I0403 18:58:59.590900 18311 net.cpp:425] inception_4b/pool_proj <- inception_4b/pool
I0403 18:58:59.590920 18311 net.cpp:399] inception_4b/pool_proj -> inception_4b/pool_proj
I0403 18:58:59.592102 18311 net.cpp:141] Setting up inception_4b/pool_proj
I0403 18:58:59.592128 18311 net.cpp:148] Top shape: 24 64 14 14 (301056)
I0403 18:58:59.592142 18311 net.cpp:156] Memory required for data: 979019040
I0403 18:58:59.592159 18311 layer_factory.hpp:77] Creating layer inception_4b/relu_pool_proj
I0403 18:58:59.592180 18311 net.cpp:91] Creating Layer inception_4b/relu_pool_proj
I0403 18:58:59.592195 18311 net.cpp:425] inception_4b/relu_pool_proj <- inception_4b/pool_proj
I0403 18:58:59.592213 18311 net.cpp:386] inception_4b/relu_pool_proj -> inception_4b/pool_proj (in-place)
I0403 18:58:59.592396 18311 net.cpp:141] Setting up inception_4b/relu_pool_proj
I0403 18:58:59.592419 18311 net.cpp:148] Top shape: 24 64 14 14 (301056)
I0403 18:58:59.592433 18311 net.cpp:156] Memory required for data: 980223264
I0403 18:58:59.592447 18311 layer_factory.hpp:77] Creating layer inception_4b/output
I0403 18:58:59.592465 18311 net.cpp:91] Creating Layer inception_4b/output
I0403 18:58:59.592480 18311 net.cpp:425] inception_4b/output <- inception_4b/1x1
I0403 18:58:59.592496 18311 net.cpp:425] inception_4b/output <- inception_4b/3x3
I0403 18:58:59.592511 18311 net.cpp:425] inception_4b/output <- inception_4b/5x5
I0403 18:58:59.592526 18311 net.cpp:425] inception_4b/output <- inception_4b/pool_proj
I0403 18:58:59.592542 18311 net.cpp:399] inception_4b/output -> inception_4b/output
I0403 18:58:59.592586 18311 net.cpp:141] Setting up inception_4b/output
I0403 18:58:59.592608 18311 net.cpp:148] Top shape: 24 512 14 14 (2408448)
I0403 18:58:59.592622 18311 net.cpp:156] Memory required for data: 989857056
I0403 18:58:59.592649 18311 layer_factory.hpp:77] Creating layer inception_4b/output_inception_4b/output_0_split
I0403 18:58:59.592667 18311 net.cpp:91] Creating Layer inception_4b/output_inception_4b/output_0_split
I0403 18:58:59.592681 18311 net.cpp:425] inception_4b/output_inception_4b/output_0_split <- inception_4b/output
I0403 18:58:59.592701 18311 net.cpp:399] inception_4b/output_inception_4b/output_0_split -> inception_4b/output_inception_4b/output_0_split_0
I0403 18:58:59.592721 18311 net.cpp:399] inception_4b/output_inception_4b/output_0_split -> inception_4b/output_inception_4b/output_0_split_1
I0403 18:58:59.592741 18311 net.cpp:399] inception_4b/output_inception_4b/output_0_split -> inception_4b/output_inception_4b/output_0_split_2
I0403 18:58:59.592759 18311 net.cpp:399] inception_4b/output_inception_4b/output_0_split -> inception_4b/output_inception_4b/output_0_split_3
I0403 18:58:59.592842 18311 net.cpp:141] Setting up inception_4b/output_inception_4b/output_0_split
I0403 18:58:59.592864 18311 net.cpp:148] Top shape: 24 512 14 14 (2408448)
I0403 18:58:59.592880 18311 net.cpp:148] Top shape: 24 512 14 14 (2408448)
I0403 18:58:59.592895 18311 net.cpp:148] Top shape: 24 512 14 14 (2408448)
I0403 18:58:59.592908 18311 net.cpp:148] Top shape: 24 512 14 14 (2408448)
I0403 18:58:59.592921 18311 net.cpp:156] Memory required for data: 1028392224
I0403 18:58:59.592936 18311 layer_factory.hpp:77] Creating layer inception_4c/1x1
I0403 18:58:59.592960 18311 net.cpp:91] Creating Layer inception_4c/1x1
I0403 18:58:59.592978 18311 net.cpp:425] inception_4c/1x1 <- inception_4b/output_inception_4b/output_0_split_0
I0403 18:58:59.592998 18311 net.cpp:399] inception_4c/1x1 -> inception_4c/1x1
I0403 18:58:59.594486 18311 net.cpp:141] Setting up inception_4c/1x1
I0403 18:58:59.594516 18311 net.cpp:148] Top shape: 24 128 14 14 (602112)
I0403 18:58:59.594533 18311 net.cpp:156] Memory required for data: 1030800672
I0403 18:58:59.594550 18311 layer_factory.hpp:77] Creating layer inception_4c/relu_1x1
I0403 18:58:59.594568 18311 net.cpp:91] Creating Layer inception_4c/relu_1x1
I0403 18:58:59.594583 18311 net.cpp:425] inception_4c/relu_1x1 <- inception_4c/1x1
I0403 18:58:59.594602 18311 net.cpp:386] inception_4c/relu_1x1 -> inception_4c/1x1 (in-place)
I0403 18:58:59.594787 18311 net.cpp:141] Setting up inception_4c/relu_1x1
I0403 18:58:59.594811 18311 net.cpp:148] Top shape: 24 128 14 14 (602112)
I0403 18:58:59.594826 18311 net.cpp:156] Memory required for data: 1033209120
I0403 18:58:59.594841 18311 layer_factory.hpp:77] Creating layer inception_4c/3x3_reduce
I0403 18:58:59.594873 18311 net.cpp:91] Creating Layer inception_4c/3x3_reduce
I0403 18:58:59.594892 18311 net.cpp:425] inception_4c/3x3_reduce <- inception_4b/output_inception_4b/output_0_split_1
I0403 18:58:59.594913 18311 net.cpp:399] inception_4c/3x3_reduce -> inception_4c/3x3_reduce
I0403 18:58:59.596915 18311 net.cpp:141] Setting up inception_4c/3x3_reduce
I0403 18:58:59.596942 18311 net.cpp:148] Top shape: 24 128 14 14 (602112)
I0403 18:58:59.596962 18311 net.cpp:156] Memory required for data: 1035617568
I0403 18:58:59.596982 18311 layer_factory.hpp:77] Creating layer inception_4c/relu_3x3_reduce
I0403 18:58:59.597000 18311 net.cpp:91] Creating Layer inception_4c/relu_3x3_reduce
I0403 18:58:59.597017 18311 net.cpp:425] inception_4c/relu_3x3_reduce <- inception_4c/3x3_reduce
I0403 18:58:59.597035 18311 net.cpp:386] inception_4c/relu_3x3_reduce -> inception_4c/3x3_reduce (in-place)
I0403 18:58:59.597324 18311 net.cpp:141] Setting up inception_4c/relu_3x3_reduce
I0403 18:58:59.597350 18311 net.cpp:148] Top shape: 24 128 14 14 (602112)
I0403 18:58:59.597364 18311 net.cpp:156] Memory required for data: 1038026016
I0403 18:58:59.597379 18311 layer_factory.hpp:77] Creating layer inception_4c/3x3
I0403 18:58:59.597403 18311 net.cpp:91] Creating Layer inception_4c/3x3
I0403 18:58:59.597419 18311 net.cpp:425] inception_4c/3x3 <- inception_4c/3x3_reduce
I0403 18:58:59.597440 18311 net.cpp:399] inception_4c/3x3 -> inception_4c/3x3
I0403 18:58:59.601055 18311 net.cpp:141] Setting up inception_4c/3x3
I0403 18:58:59.601096 18311 net.cpp:148] Top shape: 24 256 14 14 (1204224)
I0403 18:58:59.601112 18311 net.cpp:156] Memory required for data: 1042842912
I0403 18:58:59.601145 18311 layer_factory.hpp:77] Creating layer inception_4c/relu_3x3
I0403 18:58:59.601166 18311 net.cpp:91] Creating Layer inception_4c/relu_3x3
I0403 18:58:59.601182 18311 net.cpp:425] inception_4c/relu_3x3 <- inception_4c/3x3
I0403 18:58:59.601198 18311 net.cpp:386] inception_4c/relu_3x3 -> inception_4c/3x3 (in-place)
I0403 18:58:59.601383 18311 net.cpp:141] Setting up inception_4c/relu_3x3
I0403 18:58:59.601408 18311 net.cpp:148] Top shape: 24 256 14 14 (1204224)
I0403 18:58:59.601421 18311 net.cpp:156] Memory required for data: 1047659808
I0403 18:58:59.601436 18311 layer_factory.hpp:77] Creating layer inception_4c/5x5_reduce
I0403 18:58:59.601459 18311 net.cpp:91] Creating Layer inception_4c/5x5_reduce
I0403 18:58:59.601475 18311 net.cpp:425] inception_4c/5x5_reduce <- inception_4b/output_inception_4b/output_0_split_2
I0403 18:58:59.601497 18311 net.cpp:399] inception_4c/5x5_reduce -> inception_4c/5x5_reduce
I0403 18:58:59.602586 18311 net.cpp:141] Setting up inception_4c/5x5_reduce
I0403 18:58:59.602613 18311 net.cpp:148] Top shape: 24 24 14 14 (112896)
I0403 18:58:59.602628 18311 net.cpp:156] Memory required for data: 1048111392
I0403 18:58:59.602646 18311 layer_factory.hpp:77] Creating layer inception_4c/relu_5x5_reduce
I0403 18:58:59.602668 18311 net.cpp:91] Creating Layer inception_4c/relu_5x5_reduce
I0403 18:58:59.602684 18311 net.cpp:425] inception_4c/relu_5x5_reduce <- inception_4c/5x5_reduce
I0403 18:58:59.602700 18311 net.cpp:386] inception_4c/relu_5x5_reduce -> inception_4c/5x5_reduce (in-place)
I0403 18:58:59.602885 18311 net.cpp:141] Setting up inception_4c/relu_5x5_reduce
I0403 18:58:59.602912 18311 net.cpp:148] Top shape: 24 24 14 14 (112896)
I0403 18:58:59.602928 18311 net.cpp:156] Memory required for data: 1048562976
I0403 18:58:59.602942 18311 layer_factory.hpp:77] Creating layer inception_4c/5x5
I0403 18:58:59.602968 18311 net.cpp:91] Creating Layer inception_4c/5x5
I0403 18:58:59.602988 18311 net.cpp:425] inception_4c/5x5 <- inception_4c/5x5_reduce
I0403 18:58:59.603005 18311 net.cpp:399] inception_4c/5x5 -> inception_4c/5x5
I0403 18:58:59.604254 18311 net.cpp:141] Setting up inception_4c/5x5
I0403 18:58:59.604280 18311 net.cpp:148] Top shape: 24 64 14 14 (301056)
I0403 18:58:59.604296 18311 net.cpp:156] Memory required for data: 1049767200
I0403 18:58:59.604315 18311 layer_factory.hpp:77] Creating layer inception_4c/relu_5x5
I0403 18:58:59.604333 18311 net.cpp:91] Creating Layer inception_4c/relu_5x5
I0403 18:58:59.604351 18311 net.cpp:425] inception_4c/relu_5x5 <- inception_4c/5x5
I0403 18:58:59.604367 18311 net.cpp:386] inception_4c/relu_5x5 -> inception_4c/5x5 (in-place)
I0403 18:58:59.604656 18311 net.cpp:141] Setting up inception_4c/relu_5x5
I0403 18:58:59.604682 18311 net.cpp:148] Top shape: 24 64 14 14 (301056)
I0403 18:58:59.604696 18311 net.cpp:156] Memory required for data: 1050971424
I0403 18:58:59.604712 18311 layer_factory.hpp:77] Creating layer inception_4c/pool
I0403 18:58:59.604730 18311 net.cpp:91] Creating Layer inception_4c/pool
I0403 18:58:59.604748 18311 net.cpp:425] inception_4c/pool <- inception_4b/output_inception_4b/output_0_split_3
I0403 18:58:59.604768 18311 net.cpp:399] inception_4c/pool -> inception_4c/pool
I0403 18:58:59.604832 18311 net.cpp:141] Setting up inception_4c/pool
I0403 18:58:59.604856 18311 net.cpp:148] Top shape: 24 512 14 14 (2408448)
I0403 18:58:59.604871 18311 net.cpp:156] Memory required for data: 1060605216
I0403 18:58:59.604884 18311 layer_factory.hpp:77] Creating layer inception_4c/pool_proj
I0403 18:58:59.604907 18311 net.cpp:91] Creating Layer inception_4c/pool_proj
I0403 18:58:59.604923 18311 net.cpp:425] inception_4c/pool_proj <- inception_4c/pool
I0403 18:58:59.604943 18311 net.cpp:399] inception_4c/pool_proj -> inception_4c/pool_proj
I0403 18:58:59.606173 18311 net.cpp:141] Setting up inception_4c/pool_proj
I0403 18:58:59.606200 18311 net.cpp:148] Top shape: 24 64 14 14 (301056)
I0403 18:58:59.606230 18311 net.cpp:156] Memory required for data: 1061809440
I0403 18:58:59.606250 18311 layer_factory.hpp:77] Creating layer inception_4c/relu_pool_proj
I0403 18:58:59.606271 18311 net.cpp:91] Creating Layer inception_4c/relu_pool_proj
I0403 18:58:59.606287 18311 net.cpp:425] inception_4c/relu_pool_proj <- inception_4c/pool_proj
I0403 18:58:59.606304 18311 net.cpp:386] inception_4c/relu_pool_proj -> inception_4c/pool_proj (in-place)
I0403 18:58:59.606489 18311 net.cpp:141] Setting up inception_4c/relu_pool_proj
I0403 18:58:59.606514 18311 net.cpp:148] Top shape: 24 64 14 14 (301056)
I0403 18:58:59.606528 18311 net.cpp:156] Memory required for data: 1063013664
I0403 18:58:59.606542 18311 layer_factory.hpp:77] Creating layer inception_4c/output
I0403 18:58:59.606561 18311 net.cpp:91] Creating Layer inception_4c/output
I0403 18:58:59.606577 18311 net.cpp:425] inception_4c/output <- inception_4c/1x1
I0403 18:58:59.606592 18311 net.cpp:425] inception_4c/output <- inception_4c/3x3
I0403 18:58:59.606608 18311 net.cpp:425] inception_4c/output <- inception_4c/5x5
I0403 18:58:59.606623 18311 net.cpp:425] inception_4c/output <- inception_4c/pool_proj
I0403 18:58:59.606639 18311 net.cpp:399] inception_4c/output -> inception_4c/output
I0403 18:58:59.606688 18311 net.cpp:141] Setting up inception_4c/output
I0403 18:58:59.606710 18311 net.cpp:148] Top shape: 24 512 14 14 (2408448)
I0403 18:58:59.606724 18311 net.cpp:156] Memory required for data: 1072647456
I0403 18:58:59.606739 18311 layer_factory.hpp:77] Creating layer inception_4c/output_inception_4c/output_0_split
I0403 18:58:59.606755 18311 net.cpp:91] Creating Layer inception_4c/output_inception_4c/output_0_split
I0403 18:58:59.606770 18311 net.cpp:425] inception_4c/output_inception_4c/output_0_split <- inception_4c/output
I0403 18:58:59.606788 18311 net.cpp:399] inception_4c/output_inception_4c/output_0_split -> inception_4c/output_inception_4c/output_0_split_0
I0403 18:58:59.606808 18311 net.cpp:399] inception_4c/output_inception_4c/output_0_split -> inception_4c/output_inception_4c/output_0_split_1
I0403 18:58:59.606827 18311 net.cpp:399] inception_4c/output_inception_4c/output_0_split -> inception_4c/output_inception_4c/output_0_split_2
I0403 18:58:59.606848 18311 net.cpp:399] inception_4c/output_inception_4c/output_0_split -> inception_4c/output_inception_4c/output_0_split_3
I0403 18:58:59.606935 18311 net.cpp:141] Setting up inception_4c/output_inception_4c/output_0_split
I0403 18:58:59.606962 18311 net.cpp:148] Top shape: 24 512 14 14 (2408448)
I0403 18:58:59.606979 18311 net.cpp:148] Top shape: 24 512 14 14 (2408448)
I0403 18:58:59.606994 18311 net.cpp:148] Top shape: 24 512 14 14 (2408448)
I0403 18:58:59.607008 18311 net.cpp:148] Top shape: 24 512 14 14 (2408448)
I0403 18:58:59.607023 18311 net.cpp:156] Memory required for data: 1111182624
I0403 18:58:59.607035 18311 layer_factory.hpp:77] Creating layer inception_4d/1x1
I0403 18:58:59.607058 18311 net.cpp:91] Creating Layer inception_4d/1x1
I0403 18:58:59.607074 18311 net.cpp:425] inception_4d/1x1 <- inception_4c/output_inception_4c/output_0_split_0
I0403 18:58:59.607095 18311 net.cpp:399] inception_4d/1x1 -> inception_4d/1x1
I0403 18:58:59.608502 18311 net.cpp:141] Setting up inception_4d/1x1
I0403 18:58:59.608532 18311 net.cpp:148] Top shape: 24 112 14 14 (526848)
I0403 18:58:59.608548 18311 net.cpp:156] Memory required for data: 1113290016
I0403 18:58:59.608566 18311 layer_factory.hpp:77] Creating layer inception_4d/relu_1x1
I0403 18:58:59.608583 18311 net.cpp:91] Creating Layer inception_4d/relu_1x1
I0403 18:58:59.608599 18311 net.cpp:425] inception_4d/relu_1x1 <- inception_4d/1x1
I0403 18:58:59.608618 18311 net.cpp:386] inception_4d/relu_1x1 -> inception_4d/1x1 (in-place)
I0403 18:58:59.608804 18311 net.cpp:141] Setting up inception_4d/relu_1x1
I0403 18:58:59.608829 18311 net.cpp:148] Top shape: 24 112 14 14 (526848)
I0403 18:58:59.608842 18311 net.cpp:156] Memory required for data: 1115397408
I0403 18:58:59.608857 18311 layer_factory.hpp:77] Creating layer inception_4d/3x3_reduce
I0403 18:58:59.608892 18311 net.cpp:91] Creating Layer inception_4d/3x3_reduce
I0403 18:58:59.608909 18311 net.cpp:425] inception_4d/3x3_reduce <- inception_4c/output_inception_4c/output_0_split_1
I0403 18:58:59.608930 18311 net.cpp:399] inception_4d/3x3_reduce -> inception_4d/3x3_reduce
I0403 18:58:59.610455 18311 net.cpp:141] Setting up inception_4d/3x3_reduce
I0403 18:58:59.610483 18311 net.cpp:148] Top shape: 24 144 14 14 (677376)
I0403 18:58:59.610499 18311 net.cpp:156] Memory required for data: 1118106912
I0403 18:58:59.610517 18311 layer_factory.hpp:77] Creating layer inception_4d/relu_3x3_reduce
I0403 18:58:59.610534 18311 net.cpp:91] Creating Layer inception_4d/relu_3x3_reduce
I0403 18:58:59.610549 18311 net.cpp:425] inception_4d/relu_3x3_reduce <- inception_4d/3x3_reduce
I0403 18:58:59.610566 18311 net.cpp:386] inception_4d/relu_3x3_reduce -> inception_4d/3x3_reduce (in-place)
I0403 18:58:59.610857 18311 net.cpp:141] Setting up inception_4d/relu_3x3_reduce
I0403 18:58:59.610885 18311 net.cpp:148] Top shape: 24 144 14 14 (677376)
I0403 18:58:59.610900 18311 net.cpp:156] Memory required for data: 1120816416
I0403 18:58:59.610914 18311 layer_factory.hpp:77] Creating layer inception_4d/3x3
I0403 18:58:59.610936 18311 net.cpp:91] Creating Layer inception_4d/3x3
I0403 18:58:59.610960 18311 net.cpp:425] inception_4d/3x3 <- inception_4d/3x3_reduce
I0403 18:58:59.610980 18311 net.cpp:399] inception_4d/3x3 -> inception_4d/3x3
I0403 18:58:59.615185 18311 net.cpp:141] Setting up inception_4d/3x3
I0403 18:58:59.615216 18311 net.cpp:148] Top shape: 24 288 14 14 (1354752)
I0403 18:58:59.615231 18311 net.cpp:156] Memory required for data: 1126235424
I0403 18:58:59.615248 18311 layer_factory.hpp:77] Creating layer inception_4d/relu_3x3
I0403 18:58:59.615265 18311 net.cpp:91] Creating Layer inception_4d/relu_3x3
I0403 18:58:59.615281 18311 net.cpp:425] inception_4d/relu_3x3 <- inception_4d/3x3
I0403 18:58:59.615299 18311 net.cpp:386] inception_4d/relu_3x3 -> inception_4d/3x3 (in-place)
I0403 18:58:59.615478 18311 net.cpp:141] Setting up inception_4d/relu_3x3
I0403 18:58:59.615502 18311 net.cpp:148] Top shape: 24 288 14 14 (1354752)
I0403 18:58:59.615517 18311 net.cpp:156] Memory required for data: 1131654432
I0403 18:58:59.615531 18311 layer_factory.hpp:77] Creating layer inception_4d/5x5_reduce
I0403 18:58:59.615552 18311 net.cpp:91] Creating Layer inception_4d/5x5_reduce
I0403 18:58:59.615568 18311 net.cpp:425] inception_4d/5x5_reduce <- inception_4c/output_inception_4c/output_0_split_2
I0403 18:58:59.615588 18311 net.cpp:399] inception_4d/5x5_reduce -> inception_4d/5x5_reduce
I0403 18:58:59.616710 18311 net.cpp:141] Setting up inception_4d/5x5_reduce
I0403 18:58:59.616736 18311 net.cpp:148] Top shape: 24 32 14 14 (150528)
I0403 18:58:59.616751 18311 net.cpp:156] Memory required for data: 1132256544
I0403 18:58:59.616767 18311 layer_factory.hpp:77] Creating layer inception_4d/relu_5x5_reduce
I0403 18:58:59.616786 18311 net.cpp:91] Creating Layer inception_4d/relu_5x5_reduce
I0403 18:58:59.616801 18311 net.cpp:425] inception_4d/relu_5x5_reduce <- inception_4d/5x5_reduce
I0403 18:58:59.616818 18311 net.cpp:386] inception_4d/relu_5x5_reduce -> inception_4d/5x5_reduce (in-place)
I0403 18:58:59.617017 18311 net.cpp:141] Setting up inception_4d/relu_5x5_reduce
I0403 18:58:59.617039 18311 net.cpp:148] Top shape: 24 32 14 14 (150528)
I0403 18:58:59.617053 18311 net.cpp:156] Memory required for data: 1132858656
I0403 18:58:59.617068 18311 layer_factory.hpp:77] Creating layer inception_4d/5x5
I0403 18:58:59.617089 18311 net.cpp:91] Creating Layer inception_4d/5x5
I0403 18:58:59.617105 18311 net.cpp:425] inception_4d/5x5 <- inception_4d/5x5_reduce
I0403 18:58:59.617125 18311 net.cpp:399] inception_4d/5x5 -> inception_4d/5x5
I0403 18:58:59.618562 18311 net.cpp:141] Setting up inception_4d/5x5
I0403 18:58:59.618589 18311 net.cpp:148] Top shape: 24 64 14 14 (301056)
I0403 18:58:59.618604 18311 net.cpp:156] Memory required for data: 1134062880
I0403 18:58:59.618621 18311 layer_factory.hpp:77] Creating layer inception_4d/relu_5x5
I0403 18:58:59.618655 18311 net.cpp:91] Creating Layer inception_4d/relu_5x5
I0403 18:58:59.618672 18311 net.cpp:425] inception_4d/relu_5x5 <- inception_4d/5x5
I0403 18:58:59.618690 18311 net.cpp:386] inception_4d/relu_5x5 -> inception_4d/5x5 (in-place)
I0403 18:58:59.618995 18311 net.cpp:141] Setting up inception_4d/relu_5x5
I0403 18:58:59.619020 18311 net.cpp:148] Top shape: 24 64 14 14 (301056)
I0403 18:58:59.619035 18311 net.cpp:156] Memory required for data: 1135267104
I0403 18:58:59.619050 18311 layer_factory.hpp:77] Creating layer inception_4d/pool
I0403 18:58:59.619068 18311 net.cpp:91] Creating Layer inception_4d/pool
I0403 18:58:59.619086 18311 net.cpp:425] inception_4d/pool <- inception_4c/output_inception_4c/output_0_split_3
I0403 18:58:59.619102 18311 net.cpp:399] inception_4d/pool -> inception_4d/pool
I0403 18:58:59.619166 18311 net.cpp:141] Setting up inception_4d/pool
I0403 18:58:59.619189 18311 net.cpp:148] Top shape: 24 512 14 14 (2408448)
I0403 18:58:59.619204 18311 net.cpp:156] Memory required for data: 1144900896
I0403 18:58:59.619218 18311 layer_factory.hpp:77] Creating layer inception_4d/pool_proj
I0403 18:58:59.619240 18311 net.cpp:91] Creating Layer inception_4d/pool_proj
I0403 18:58:59.619256 18311 net.cpp:425] inception_4d/pool_proj <- inception_4d/pool
I0403 18:58:59.619276 18311 net.cpp:399] inception_4d/pool_proj -> inception_4d/pool_proj
I0403 18:58:59.620986 18311 net.cpp:141] Setting up inception_4d/pool_proj
I0403 18:58:59.621014 18311 net.cpp:148] Top shape: 24 64 14 14 (301056)
I0403 18:58:59.621029 18311 net.cpp:156] Memory required for data: 1146105120
I0403 18:58:59.621047 18311 layer_factory.hpp:77] Creating layer inception_4d/relu_pool_proj
I0403 18:58:59.621064 18311 net.cpp:91] Creating Layer inception_4d/relu_pool_proj
I0403 18:58:59.621079 18311 net.cpp:425] inception_4d/relu_pool_proj <- inception_4d/pool_proj
I0403 18:58:59.621098 18311 net.cpp:386] inception_4d/relu_pool_proj -> inception_4d/pool_proj (in-place)
I0403 18:58:59.621279 18311 net.cpp:141] Setting up inception_4d/relu_pool_proj
I0403 18:58:59.621304 18311 net.cpp:148] Top shape: 24 64 14 14 (301056)
I0403 18:58:59.621317 18311 net.cpp:156] Memory required for data: 1147309344
I0403 18:58:59.621331 18311 layer_factory.hpp:77] Creating layer inception_4d/output
I0403 18:58:59.621352 18311 net.cpp:91] Creating Layer inception_4d/output
I0403 18:58:59.621367 18311 net.cpp:425] inception_4d/output <- inception_4d/1x1
I0403 18:58:59.621382 18311 net.cpp:425] inception_4d/output <- inception_4d/3x3
I0403 18:58:59.621398 18311 net.cpp:425] inception_4d/output <- inception_4d/5x5
I0403 18:58:59.621413 18311 net.cpp:425] inception_4d/output <- inception_4d/pool_proj
I0403 18:58:59.621429 18311 net.cpp:399] inception_4d/output -> inception_4d/output
I0403 18:58:59.621475 18311 net.cpp:141] Setting up inception_4d/output
I0403 18:58:59.621497 18311 net.cpp:148] Top shape: 24 528 14 14 (2483712)
I0403 18:58:59.621511 18311 net.cpp:156] Memory required for data: 1157244192
I0403 18:58:59.621526 18311 layer_factory.hpp:77] Creating layer inception_4d/output_inception_4d/output_0_split
I0403 18:58:59.621541 18311 net.cpp:91] Creating Layer inception_4d/output_inception_4d/output_0_split
I0403 18:58:59.621556 18311 net.cpp:425] inception_4d/output_inception_4d/output_0_split <- inception_4d/output
I0403 18:58:59.621575 18311 net.cpp:399] inception_4d/output_inception_4d/output_0_split -> inception_4d/output_inception_4d/output_0_split_0
I0403 18:58:59.621595 18311 net.cpp:399] inception_4d/output_inception_4d/output_0_split -> inception_4d/output_inception_4d/output_0_split_1
I0403 18:58:59.621615 18311 net.cpp:399] inception_4d/output_inception_4d/output_0_split -> inception_4d/output_inception_4d/output_0_split_2
I0403 18:58:59.621635 18311 net.cpp:399] inception_4d/output_inception_4d/output_0_split -> inception_4d/output_inception_4d/output_0_split_3
I0403 18:58:59.621654 18311 net.cpp:399] inception_4d/output_inception_4d/output_0_split -> inception_4d/output_inception_4d/output_0_split_4
I0403 18:58:59.621752 18311 net.cpp:141] Setting up inception_4d/output_inception_4d/output_0_split
I0403 18:58:59.621786 18311 net.cpp:148] Top shape: 24 528 14 14 (2483712)
I0403 18:58:59.621804 18311 net.cpp:148] Top shape: 24 528 14 14 (2483712)
I0403 18:58:59.621819 18311 net.cpp:148] Top shape: 24 528 14 14 (2483712)
I0403 18:58:59.621834 18311 net.cpp:148] Top shape: 24 528 14 14 (2483712)
I0403 18:58:59.621848 18311 net.cpp:148] Top shape: 24 528 14 14 (2483712)
I0403 18:58:59.621861 18311 net.cpp:156] Memory required for data: 1206918432
I0403 18:58:59.621876 18311 layer_factory.hpp:77] Creating layer loss2/ave_pool
I0403 18:58:59.621892 18311 net.cpp:91] Creating Layer loss2/ave_pool
I0403 18:58:59.621906 18311 net.cpp:425] loss2/ave_pool <- inception_4d/output_inception_4d/output_0_split_0
I0403 18:58:59.621925 18311 net.cpp:399] loss2/ave_pool -> loss2/ave_pool
I0403 18:58:59.622236 18311 net.cpp:141] Setting up loss2/ave_pool
I0403 18:58:59.622261 18311 net.cpp:148] Top shape: 24 528 4 4 (202752)
I0403 18:58:59.622275 18311 net.cpp:156] Memory required for data: 1207729440
I0403 18:58:59.622290 18311 layer_factory.hpp:77] Creating layer loss2/conv
I0403 18:58:59.622311 18311 net.cpp:91] Creating Layer loss2/conv
I0403 18:58:59.622328 18311 net.cpp:425] loss2/conv <- loss2/ave_pool
I0403 18:58:59.622349 18311 net.cpp:399] loss2/conv -> loss2/conv
I0403 18:58:59.624196 18311 net.cpp:141] Setting up loss2/conv
I0403 18:58:59.624223 18311 net.cpp:148] Top shape: 24 128 4 4 (49152)
I0403 18:58:59.624238 18311 net.cpp:156] Memory required for data: 1207926048
I0403 18:58:59.624255 18311 layer_factory.hpp:77] Creating layer loss2/relu_conv
I0403 18:58:59.624274 18311 net.cpp:91] Creating Layer loss2/relu_conv
I0403 18:58:59.624291 18311 net.cpp:425] loss2/relu_conv <- loss2/conv
I0403 18:58:59.624307 18311 net.cpp:386] loss2/relu_conv -> loss2/conv (in-place)
I0403 18:58:59.624595 18311 net.cpp:141] Setting up loss2/relu_conv
I0403 18:58:59.624620 18311 net.cpp:148] Top shape: 24 128 4 4 (49152)
I0403 18:58:59.624635 18311 net.cpp:156] Memory required for data: 1208122656
I0403 18:58:59.624650 18311 layer_factory.hpp:77] Creating layer loss2/fc
I0403 18:58:59.624670 18311 net.cpp:91] Creating Layer loss2/fc
I0403 18:58:59.624686 18311 net.cpp:425] loss2/fc <- loss2/conv
I0403 18:58:59.624706 18311 net.cpp:399] loss2/fc -> loss2/fc
I0403 18:58:59.641803 18311 net.cpp:141] Setting up loss2/fc
I0403 18:58:59.641834 18311 net.cpp:148] Top shape: 24 1024 (24576)
I0403 18:58:59.641849 18311 net.cpp:156] Memory required for data: 1208220960
I0403 18:58:59.641867 18311 layer_factory.hpp:77] Creating layer loss2/relu_fc
I0403 18:58:59.641885 18311 net.cpp:91] Creating Layer loss2/relu_fc
I0403 18:58:59.641901 18311 net.cpp:425] loss2/relu_fc <- loss2/fc
I0403 18:58:59.641918 18311 net.cpp:386] loss2/relu_fc -> loss2/fc (in-place)
I0403 18:58:59.642218 18311 net.cpp:141] Setting up loss2/relu_fc
I0403 18:58:59.642243 18311 net.cpp:148] Top shape: 24 1024 (24576)
I0403 18:58:59.642257 18311 net.cpp:156] Memory required for data: 1208319264
I0403 18:58:59.642271 18311 layer_factory.hpp:77] Creating layer loss2/drop_fc
I0403 18:58:59.642289 18311 net.cpp:91] Creating Layer loss2/drop_fc
I0403 18:58:59.642304 18311 net.cpp:425] loss2/drop_fc <- loss2/fc
I0403 18:58:59.642323 18311 net.cpp:386] loss2/drop_fc -> loss2/fc (in-place)
I0403 18:58:59.642370 18311 net.cpp:141] Setting up loss2/drop_fc
I0403 18:58:59.642395 18311 net.cpp:148] Top shape: 24 1024 (24576)
I0403 18:58:59.642410 18311 net.cpp:156] Memory required for data: 1208417568
I0403 18:58:59.642423 18311 layer_factory.hpp:77] Creating layer loss2/classifier_plantvillage
I0403 18:58:59.642441 18311 net.cpp:91] Creating Layer loss2/classifier_plantvillage
I0403 18:58:59.642455 18311 net.cpp:425] loss2/classifier_plantvillage <- loss2/fc
I0403 18:58:59.642475 18311 net.cpp:399] loss2/classifier_plantvillage -> loss2/classifier_plantvillage
I0403 18:58:59.642860 18311 net.cpp:141] Setting up loss2/classifier_plantvillage
I0403 18:58:59.642886 18311 net.cpp:148] Top shape: 24 38 (912)
I0403 18:58:59.642916 18311 net.cpp:156] Memory required for data: 1208421216
I0403 18:58:59.642935 18311 layer_factory.hpp:77] Creating layer loss2/classifier_plantvillage_loss2/classifier_plantvillage_0_split
I0403 18:58:59.642957 18311 net.cpp:91] Creating Layer loss2/classifier_plantvillage_loss2/classifier_plantvillage_0_split
I0403 18:58:59.642973 18311 net.cpp:425] loss2/classifier_plantvillage_loss2/classifier_plantvillage_0_split <- loss2/classifier_plantvillage
I0403 18:58:59.642990 18311 net.cpp:399] loss2/classifier_plantvillage_loss2/classifier_plantvillage_0_split -> loss2/classifier_plantvillage_loss2/classifier_plantvillage_0_split_0
I0403 18:58:59.643009 18311 net.cpp:399] loss2/classifier_plantvillage_loss2/classifier_plantvillage_0_split -> loss2/classifier_plantvillage_loss2/classifier_plantvillage_0_split_1
I0403 18:58:59.643031 18311 net.cpp:399] loss2/classifier_plantvillage_loss2/classifier_plantvillage_0_split -> loss2/classifier_plantvillage_loss2/classifier_plantvillage_0_split_2
I0403 18:58:59.643108 18311 net.cpp:141] Setting up loss2/classifier_plantvillage_loss2/classifier_plantvillage_0_split
I0403 18:58:59.643131 18311 net.cpp:148] Top shape: 24 38 (912)
I0403 18:58:59.643146 18311 net.cpp:148] Top shape: 24 38 (912)
I0403 18:58:59.643159 18311 net.cpp:148] Top shape: 24 38 (912)
I0403 18:58:59.643172 18311 net.cpp:156] Memory required for data: 1208432160
I0403 18:58:59.643187 18311 layer_factory.hpp:77] Creating layer inception_4e/1x1
I0403 18:58:59.643208 18311 net.cpp:91] Creating Layer inception_4e/1x1
I0403 18:58:59.643224 18311 net.cpp:425] inception_4e/1x1 <- inception_4d/output_inception_4d/output_0_split_1
I0403 18:58:59.643244 18311 net.cpp:399] inception_4e/1x1 -> inception_4e/1x1
I0403 18:58:59.645100 18311 net.cpp:141] Setting up inception_4e/1x1
I0403 18:58:59.645128 18311 net.cpp:148] Top shape: 24 256 14 14 (1204224)
I0403 18:58:59.645143 18311 net.cpp:156] Memory required for data: 1213249056
I0403 18:58:59.645161 18311 layer_factory.hpp:77] Creating layer inception_4e/relu_1x1
I0403 18:58:59.645181 18311 net.cpp:91] Creating Layer inception_4e/relu_1x1
I0403 18:58:59.645198 18311 net.cpp:425] inception_4e/relu_1x1 <- inception_4e/1x1
I0403 18:58:59.645215 18311 net.cpp:386] inception_4e/relu_1x1 -> inception_4e/1x1 (in-place)
I0403 18:58:59.645511 18311 net.cpp:141] Setting up inception_4e/relu_1x1
I0403 18:58:59.645537 18311 net.cpp:148] Top shape: 24 256 14 14 (1204224)
I0403 18:58:59.645552 18311 net.cpp:156] Memory required for data: 1218065952
I0403 18:58:59.645566 18311 layer_factory.hpp:77] Creating layer inception_4e/3x3_reduce
I0403 18:58:59.645589 18311 net.cpp:91] Creating Layer inception_4e/3x3_reduce
I0403 18:58:59.645606 18311 net.cpp:425] inception_4e/3x3_reduce <- inception_4d/output_inception_4d/output_0_split_2
I0403 18:58:59.645625 18311 net.cpp:399] inception_4e/3x3_reduce -> inception_4e/3x3_reduce
I0403 18:58:59.647768 18311 net.cpp:141] Setting up inception_4e/3x3_reduce
I0403 18:58:59.647796 18311 net.cpp:148] Top shape: 24 160 14 14 (752640)
I0403 18:58:59.647812 18311 net.cpp:156] Memory required for data: 1221076512
I0403 18:58:59.647830 18311 layer_factory.hpp:77] Creating layer inception_4e/relu_3x3_reduce
I0403 18:58:59.647850 18311 net.cpp:91] Creating Layer inception_4e/relu_3x3_reduce
I0403 18:58:59.647866 18311 net.cpp:425] inception_4e/relu_3x3_reduce <- inception_4e/3x3_reduce
I0403 18:58:59.647883 18311 net.cpp:386] inception_4e/relu_3x3_reduce -> inception_4e/3x3_reduce (in-place)
I0403 18:58:59.648082 18311 net.cpp:141] Setting up inception_4e/relu_3x3_reduce
I0403 18:58:59.648108 18311 net.cpp:148] Top shape: 24 160 14 14 (752640)
I0403 18:58:59.648123 18311 net.cpp:156] Memory required for data: 1224087072
I0403 18:58:59.648138 18311 layer_factory.hpp:77] Creating layer inception_4e/3x3
I0403 18:58:59.648159 18311 net.cpp:91] Creating Layer inception_4e/3x3
I0403 18:58:59.648176 18311 net.cpp:425] inception_4e/3x3 <- inception_4e/3x3_reduce
I0403 18:58:59.648195 18311 net.cpp:399] inception_4e/3x3 -> inception_4e/3x3
I0403 18:58:59.653267 18311 net.cpp:141] Setting up inception_4e/3x3
I0403 18:58:59.653311 18311 net.cpp:148] Top shape: 24 320 14 14 (1505280)
I0403 18:58:59.653328 18311 net.cpp:156] Memory required for data: 1230108192
I0403 18:58:59.653347 18311 layer_factory.hpp:77] Creating layer inception_4e/relu_3x3
I0403 18:58:59.653364 18311 net.cpp:91] Creating Layer inception_4e/relu_3x3
I0403 18:58:59.653380 18311 net.cpp:425] inception_4e/relu_3x3 <- inception_4e/3x3
I0403 18:58:59.653399 18311 net.cpp:386] inception_4e/relu_3x3 -> inception_4e/3x3 (in-place)
I0403 18:58:59.653705 18311 net.cpp:141] Setting up inception_4e/relu_3x3
I0403 18:58:59.653734 18311 net.cpp:148] Top shape: 24 320 14 14 (1505280)
I0403 18:58:59.653749 18311 net.cpp:156] Memory required for data: 1236129312
I0403 18:58:59.653764 18311 layer_factory.hpp:77] Creating layer inception_4e/5x5_reduce
I0403 18:58:59.653786 18311 net.cpp:91] Creating Layer inception_4e/5x5_reduce
I0403 18:58:59.653803 18311 net.cpp:425] inception_4e/5x5_reduce <- inception_4d/output_inception_4d/output_0_split_3
I0403 18:58:59.653825 18311 net.cpp:399] inception_4e/5x5_reduce -> inception_4e/5x5_reduce
I0403 18:58:59.654914 18311 net.cpp:141] Setting up inception_4e/5x5_reduce
I0403 18:58:59.654942 18311 net.cpp:148] Top shape: 24 32 14 14 (150528)
I0403 18:58:59.654961 18311 net.cpp:156] Memory required for data: 1236731424
I0403 18:58:59.654980 18311 layer_factory.hpp:77] Creating layer inception_4e/relu_5x5_reduce
I0403 18:58:59.655000 18311 net.cpp:91] Creating Layer inception_4e/relu_5x5_reduce
I0403 18:58:59.655017 18311 net.cpp:425] inception_4e/relu_5x5_reduce <- inception_4e/5x5_reduce
I0403 18:58:59.655035 18311 net.cpp:386] inception_4e/relu_5x5_reduce -> inception_4e/5x5_reduce (in-place)
I0403 18:58:59.655340 18311 net.cpp:141] Setting up inception_4e/relu_5x5_reduce
I0403 18:58:59.655366 18311 net.cpp:148] Top shape: 24 32 14 14 (150528)
I0403 18:58:59.655380 18311 net.cpp:156] Memory required for data: 1237333536
I0403 18:58:59.655395 18311 layer_factory.hpp:77] Creating layer inception_4e/5x5
I0403 18:58:59.655433 18311 net.cpp:91] Creating Layer inception_4e/5x5
I0403 18:58:59.655452 18311 net.cpp:425] inception_4e/5x5 <- inception_4e/5x5_reduce
I0403 18:58:59.655473 18311 net.cpp:399] inception_4e/5x5 -> inception_4e/5x5
I0403 18:58:59.657331 18311 net.cpp:141] Setting up inception_4e/5x5
I0403 18:58:59.657359 18311 net.cpp:148] Top shape: 24 128 14 14 (602112)
I0403 18:58:59.657374 18311 net.cpp:156] Memory required for data: 1239741984
I0403 18:58:59.657392 18311 layer_factory.hpp:77] Creating layer inception_4e/relu_5x5
I0403 18:58:59.657413 18311 net.cpp:91] Creating Layer inception_4e/relu_5x5
I0403 18:58:59.657429 18311 net.cpp:425] inception_4e/relu_5x5 <- inception_4e/5x5
I0403 18:58:59.657446 18311 net.cpp:386] inception_4e/relu_5x5 -> inception_4e/5x5 (in-place)
I0403 18:58:59.657647 18311 net.cpp:141] Setting up inception_4e/relu_5x5
I0403 18:58:59.657671 18311 net.cpp:148] Top shape: 24 128 14 14 (602112)
I0403 18:58:59.657685 18311 net.cpp:156] Memory required for data: 1242150432
I0403 18:58:59.657699 18311 layer_factory.hpp:77] Creating layer inception_4e/pool
I0403 18:58:59.657719 18311 net.cpp:91] Creating Layer inception_4e/pool
I0403 18:58:59.657737 18311 net.cpp:425] inception_4e/pool <- inception_4d/output_inception_4d/output_0_split_4
I0403 18:58:59.657754 18311 net.cpp:399] inception_4e/pool -> inception_4e/pool
I0403 18:58:59.657824 18311 net.cpp:141] Setting up inception_4e/pool
I0403 18:58:59.657847 18311 net.cpp:148] Top shape: 24 528 14 14 (2483712)
I0403 18:58:59.657861 18311 net.cpp:156] Memory required for data: 1252085280
I0403 18:58:59.657876 18311 layer_factory.hpp:77] Creating layer inception_4e/pool_proj
I0403 18:58:59.657897 18311 net.cpp:91] Creating Layer inception_4e/pool_proj
I0403 18:58:59.657915 18311 net.cpp:425] inception_4e/pool_proj <- inception_4e/pool
I0403 18:58:59.657935 18311 net.cpp:399] inception_4e/pool_proj -> inception_4e/pool_proj
I0403 18:58:59.659461 18311 net.cpp:141] Setting up inception_4e/pool_proj
I0403 18:58:59.659499 18311 net.cpp:148] Top shape: 24 128 14 14 (602112)
I0403 18:58:59.659515 18311 net.cpp:156] Memory required for data: 1254493728
I0403 18:58:59.659533 18311 layer_factory.hpp:77] Creating layer inception_4e/relu_pool_proj
I0403 18:58:59.659551 18311 net.cpp:91] Creating Layer inception_4e/relu_pool_proj
I0403 18:58:59.659567 18311 net.cpp:425] inception_4e/relu_pool_proj <- inception_4e/pool_proj
I0403 18:58:59.659585 18311 net.cpp:386] inception_4e/relu_pool_proj -> inception_4e/pool_proj (in-place)
I0403 18:58:59.659883 18311 net.cpp:141] Setting up inception_4e/relu_pool_proj
I0403 18:58:59.659909 18311 net.cpp:148] Top shape: 24 128 14 14 (602112)
I0403 18:58:59.659924 18311 net.cpp:156] Memory required for data: 1256902176
I0403 18:58:59.659939 18311 layer_factory.hpp:77] Creating layer inception_4e/output
I0403 18:58:59.659960 18311 net.cpp:91] Creating Layer inception_4e/output
I0403 18:58:59.659976 18311 net.cpp:425] inception_4e/output <- inception_4e/1x1
I0403 18:58:59.659992 18311 net.cpp:425] inception_4e/output <- inception_4e/3x3
I0403 18:58:59.660008 18311 net.cpp:425] inception_4e/output <- inception_4e/5x5
I0403 18:58:59.660023 18311 net.cpp:425] inception_4e/output <- inception_4e/pool_proj
I0403 18:58:59.660043 18311 net.cpp:399] inception_4e/output -> inception_4e/output
I0403 18:58:59.660090 18311 net.cpp:141] Setting up inception_4e/output
I0403 18:58:59.660116 18311 net.cpp:148] Top shape: 24 832 14 14 (3913728)
I0403 18:58:59.660131 18311 net.cpp:156] Memory required for data: 1272557088
I0403 18:58:59.660146 18311 layer_factory.hpp:77] Creating layer pool4/3x3_s2
I0403 18:58:59.660163 18311 net.cpp:91] Creating Layer pool4/3x3_s2
I0403 18:58:59.660178 18311 net.cpp:425] pool4/3x3_s2 <- inception_4e/output
I0403 18:58:59.660197 18311 net.cpp:399] pool4/3x3_s2 -> pool4/3x3_s2
I0403 18:58:59.660264 18311 net.cpp:141] Setting up pool4/3x3_s2
I0403 18:58:59.660287 18311 net.cpp:148] Top shape: 24 832 7 7 (978432)
I0403 18:58:59.660301 18311 net.cpp:156] Memory required for data: 1276470816
I0403 18:58:59.660315 18311 layer_factory.hpp:77] Creating layer pool4/3x3_s2_pool4/3x3_s2_0_split
I0403 18:58:59.660333 18311 net.cpp:91] Creating Layer pool4/3x3_s2_pool4/3x3_s2_0_split
I0403 18:58:59.660349 18311 net.cpp:425] pool4/3x3_s2_pool4/3x3_s2_0_split <- pool4/3x3_s2
I0403 18:58:59.660367 18311 net.cpp:399] pool4/3x3_s2_pool4/3x3_s2_0_split -> pool4/3x3_s2_pool4/3x3_s2_0_split_0
I0403 18:58:59.660385 18311 net.cpp:399] pool4/3x3_s2_pool4/3x3_s2_0_split -> pool4/3x3_s2_pool4/3x3_s2_0_split_1
I0403 18:58:59.660405 18311 net.cpp:399] pool4/3x3_s2_pool4/3x3_s2_0_split -> pool4/3x3_s2_pool4/3x3_s2_0_split_2
I0403 18:58:59.660429 18311 net.cpp:399] pool4/3x3_s2_pool4/3x3_s2_0_split -> pool4/3x3_s2_pool4/3x3_s2_0_split_3
I0403 18:58:59.660521 18311 net.cpp:141] Setting up pool4/3x3_s2_pool4/3x3_s2_0_split
I0403 18:58:59.660543 18311 net.cpp:148] Top shape: 24 832 7 7 (978432)
I0403 18:58:59.660558 18311 net.cpp:148] Top shape: 24 832 7 7 (978432)
I0403 18:58:59.660573 18311 net.cpp:148] Top shape: 24 832 7 7 (978432)
I0403 18:58:59.660588 18311 net.cpp:148] Top shape: 24 832 7 7 (978432)
I0403 18:58:59.660601 18311 net.cpp:156] Memory required for data: 1292125728
I0403 18:58:59.660615 18311 layer_factory.hpp:77] Creating layer inception_5a/1x1
I0403 18:58:59.660636 18311 net.cpp:91] Creating Layer inception_5a/1x1
I0403 18:58:59.660655 18311 net.cpp:425] inception_5a/1x1 <- pool4/3x3_s2_pool4/3x3_s2_0_split_0
I0403 18:58:59.660675 18311 net.cpp:399] inception_5a/1x1 -> inception_5a/1x1
I0403 18:58:59.663540 18311 net.cpp:141] Setting up inception_5a/1x1
I0403 18:58:59.663568 18311 net.cpp:148] Top shape: 24 256 7 7 (301056)
I0403 18:58:59.663583 18311 net.cpp:156] Memory required for data: 1293329952
I0403 18:58:59.663600 18311 layer_factory.hpp:77] Creating layer inception_5a/relu_1x1
I0403 18:58:59.663620 18311 net.cpp:91] Creating Layer inception_5a/relu_1x1
I0403 18:58:59.663637 18311 net.cpp:425] inception_5a/relu_1x1 <- inception_5a/1x1
I0403 18:58:59.663653 18311 net.cpp:386] inception_5a/relu_1x1 -> inception_5a/1x1 (in-place)
I0403 18:58:59.663965 18311 net.cpp:141] Setting up inception_5a/relu_1x1
I0403 18:58:59.663990 18311 net.cpp:148] Top shape: 24 256 7 7 (301056)
I0403 18:58:59.664005 18311 net.cpp:156] Memory required for data: 1294534176
I0403 18:58:59.664019 18311 layer_factory.hpp:77] Creating layer inception_5a/3x3_reduce
I0403 18:58:59.664039 18311 net.cpp:91] Creating Layer inception_5a/3x3_reduce
I0403 18:58:59.664057 18311 net.cpp:425] inception_5a/3x3_reduce <- pool4/3x3_s2_pool4/3x3_s2_0_split_1
I0403 18:58:59.664077 18311 net.cpp:399] inception_5a/3x3_reduce -> inception_5a/3x3_reduce
I0403 18:58:59.666488 18311 net.cpp:141] Setting up inception_5a/3x3_reduce
I0403 18:58:59.666515 18311 net.cpp:148] Top shape: 24 160 7 7 (188160)
I0403 18:58:59.666532 18311 net.cpp:156] Memory required for data: 1295286816
I0403 18:58:59.666548 18311 layer_factory.hpp:77] Creating layer inception_5a/relu_3x3_reduce
I0403 18:58:59.666565 18311 net.cpp:91] Creating Layer inception_5a/relu_3x3_reduce
I0403 18:58:59.666581 18311 net.cpp:425] inception_5a/relu_3x3_reduce <- inception_5a/3x3_reduce
I0403 18:58:59.666599 18311 net.cpp:386] inception_5a/relu_3x3_reduce -> inception_5a/3x3_reduce (in-place)
I0403 18:58:59.666786 18311 net.cpp:141] Setting up inception_5a/relu_3x3_reduce
I0403 18:58:59.666810 18311 net.cpp:148] Top shape: 24 160 7 7 (188160)
I0403 18:58:59.666824 18311 net.cpp:156] Memory required for data: 1296039456
I0403 18:58:59.666838 18311 layer_factory.hpp:77] Creating layer inception_5a/3x3
I0403 18:58:59.666859 18311 net.cpp:91] Creating Layer inception_5a/3x3
I0403 18:58:59.666877 18311 net.cpp:425] inception_5a/3x3 <- inception_5a/3x3_reduce
I0403 18:58:59.666898 18311 net.cpp:399] inception_5a/3x3 -> inception_5a/3x3
I0403 18:58:59.671802 18311 net.cpp:141] Setting up inception_5a/3x3
I0403 18:58:59.671829 18311 net.cpp:148] Top shape: 24 320 7 7 (376320)
I0403 18:58:59.671845 18311 net.cpp:156] Memory required for data: 1297544736
I0403 18:58:59.671862 18311 layer_factory.hpp:77] Creating layer inception_5a/relu_3x3
I0403 18:58:59.671882 18311 net.cpp:91] Creating Layer inception_5a/relu_3x3
I0403 18:58:59.671898 18311 net.cpp:425] inception_5a/relu_3x3 <- inception_5a/3x3
I0403 18:58:59.671916 18311 net.cpp:386] inception_5a/relu_3x3 -> inception_5a/3x3 (in-place)
I0403 18:58:59.672212 18311 net.cpp:141] Setting up inception_5a/relu_3x3
I0403 18:58:59.672237 18311 net.cpp:148] Top shape: 24 320 7 7 (376320)
I0403 18:58:59.672251 18311 net.cpp:156] Memory required for data: 1299050016
I0403 18:58:59.672266 18311 layer_factory.hpp:77] Creating layer inception_5a/5x5_reduce
I0403 18:58:59.672287 18311 net.cpp:91] Creating Layer inception_5a/5x5_reduce
I0403 18:58:59.672304 18311 net.cpp:425] inception_5a/5x5_reduce <- pool4/3x3_s2_pool4/3x3_s2_0_split_2
I0403 18:58:59.672327 18311 net.cpp:399] inception_5a/5x5_reduce -> inception_5a/5x5_reduce
I0403 18:58:59.673476 18311 net.cpp:141] Setting up inception_5a/5x5_reduce
I0403 18:58:59.673506 18311 net.cpp:148] Top shape: 24 32 7 7 (37632)
I0403 18:58:59.673522 18311 net.cpp:156] Memory required for data: 1299200544
I0403 18:58:59.673540 18311 layer_factory.hpp:77] Creating layer inception_5a/relu_5x5_reduce
I0403 18:58:59.673557 18311 net.cpp:91] Creating Layer inception_5a/relu_5x5_reduce
I0403 18:58:59.673573 18311 net.cpp:425] inception_5a/relu_5x5_reduce <- inception_5a/5x5_reduce
I0403 18:58:59.673589 18311 net.cpp:386] inception_5a/relu_5x5_reduce -> inception_5a/5x5_reduce (in-place)
I0403 18:58:59.673887 18311 net.cpp:141] Setting up inception_5a/relu_5x5_reduce
I0403 18:58:59.673912 18311 net.cpp:148] Top shape: 24 32 7 7 (37632)
I0403 18:58:59.673925 18311 net.cpp:156] Memory required for data: 1299351072
I0403 18:58:59.673940 18311 layer_factory.hpp:77] Creating layer inception_5a/5x5
I0403 18:58:59.673965 18311 net.cpp:91] Creating Layer inception_5a/5x5
I0403 18:58:59.673984 18311 net.cpp:425] inception_5a/5x5 <- inception_5a/5x5_reduce
I0403 18:58:59.674003 18311 net.cpp:399] inception_5a/5x5 -> inception_5a/5x5
I0403 18:58:59.675683 18311 net.cpp:141] Setting up inception_5a/5x5
I0403 18:58:59.675722 18311 net.cpp:148] Top shape: 24 128 7 7 (150528)
I0403 18:58:59.675737 18311 net.cpp:156] Memory required for data: 1299953184
I0403 18:58:59.675755 18311 layer_factory.hpp:77] Creating layer inception_5a/relu_5x5
I0403 18:58:59.675775 18311 net.cpp:91] Creating Layer inception_5a/relu_5x5
I0403 18:58:59.675789 18311 net.cpp:425] inception_5a/relu_5x5 <- inception_5a/5x5
I0403 18:58:59.675806 18311 net.cpp:386] inception_5a/relu_5x5 -> inception_5a/5x5 (in-place)
I0403 18:58:59.676000 18311 net.cpp:141] Setting up inception_5a/relu_5x5
I0403 18:58:59.676026 18311 net.cpp:148] Top shape: 24 128 7 7 (150528)
I0403 18:58:59.676043 18311 net.cpp:156] Memory required for data: 1300555296
I0403 18:58:59.676056 18311 layer_factory.hpp:77] Creating layer inception_5a/pool
I0403 18:58:59.676072 18311 net.cpp:91] Creating Layer inception_5a/pool
I0403 18:58:59.676089 18311 net.cpp:425] inception_5a/pool <- pool4/3x3_s2_pool4/3x3_s2_0_split_3
I0403 18:58:59.676105 18311 net.cpp:399] inception_5a/pool -> inception_5a/pool
I0403 18:58:59.676175 18311 net.cpp:141] Setting up inception_5a/pool
I0403 18:58:59.676198 18311 net.cpp:148] Top shape: 24 832 7 7 (978432)
I0403 18:58:59.676213 18311 net.cpp:156] Memory required for data: 1304469024
I0403 18:58:59.676225 18311 layer_factory.hpp:77] Creating layer inception_5a/pool_proj
I0403 18:58:59.676246 18311 net.cpp:91] Creating Layer inception_5a/pool_proj
I0403 18:58:59.676264 18311 net.cpp:425] inception_5a/pool_proj <- inception_5a/pool
I0403 18:58:59.676283 18311 net.cpp:399] inception_5a/pool_proj -> inception_5a/pool_proj
I0403 18:58:59.678526 18311 net.cpp:141] Setting up inception_5a/pool_proj
I0403 18:58:59.678555 18311 net.cpp:148] Top shape: 24 128 7 7 (150528)
I0403 18:58:59.678570 18311 net.cpp:156] Memory required for data: 1305071136
I0403 18:58:59.678587 18311 layer_factory.hpp:77] Creating layer inception_5a/relu_pool_proj
I0403 18:58:59.678607 18311 net.cpp:91] Creating Layer inception_5a/relu_pool_proj
I0403 18:58:59.678623 18311 net.cpp:425] inception_5a/relu_pool_proj <- inception_5a/pool_proj
I0403 18:58:59.678640 18311 net.cpp:386] inception_5a/relu_pool_proj -> inception_5a/pool_proj (in-place)
I0403 18:58:59.678933 18311 net.cpp:141] Setting up inception_5a/relu_pool_proj
I0403 18:58:59.678962 18311 net.cpp:148] Top shape: 24 128 7 7 (150528)
I0403 18:58:59.678977 18311 net.cpp:156] Memory required for data: 1305673248
I0403 18:58:59.678992 18311 layer_factory.hpp:77] Creating layer inception_5a/output
I0403 18:58:59.679008 18311 net.cpp:91] Creating Layer inception_5a/output
I0403 18:58:59.679023 18311 net.cpp:425] inception_5a/output <- inception_5a/1x1
I0403 18:58:59.679038 18311 net.cpp:425] inception_5a/output <- inception_5a/3x3
I0403 18:58:59.679054 18311 net.cpp:425] inception_5a/output <- inception_5a/5x5
I0403 18:58:59.679069 18311 net.cpp:425] inception_5a/output <- inception_5a/pool_proj
I0403 18:58:59.679086 18311 net.cpp:399] inception_5a/output -> inception_5a/output
I0403 18:58:59.679136 18311 net.cpp:141] Setting up inception_5a/output
I0403 18:58:59.679159 18311 net.cpp:148] Top shape: 24 832 7 7 (978432)
I0403 18:58:59.679174 18311 net.cpp:156] Memory required for data: 1309586976
I0403 18:58:59.679188 18311 layer_factory.hpp:77] Creating layer inception_5a/output_inception_5a/output_0_split
I0403 18:58:59.679204 18311 net.cpp:91] Creating Layer inception_5a/output_inception_5a/output_0_split
I0403 18:58:59.679219 18311 net.cpp:425] inception_5a/output_inception_5a/output_0_split <- inception_5a/output
I0403 18:58:59.679239 18311 net.cpp:399] inception_5a/output_inception_5a/output_0_split -> inception_5a/output_inception_5a/output_0_split_0
I0403 18:58:59.679260 18311 net.cpp:399] inception_5a/output_inception_5a/output_0_split -> inception_5a/output_inception_5a/output_0_split_1
I0403 18:58:59.679280 18311 net.cpp:399] inception_5a/output_inception_5a/output_0_split -> inception_5a/output_inception_5a/output_0_split_2
I0403 18:58:59.679298 18311 net.cpp:399] inception_5a/output_inception_5a/output_0_split -> inception_5a/output_inception_5a/output_0_split_3
I0403 18:58:59.679405 18311 net.cpp:141] Setting up inception_5a/output_inception_5a/output_0_split
I0403 18:58:59.679427 18311 net.cpp:148] Top shape: 24 832 7 7 (978432)
I0403 18:58:59.679442 18311 net.cpp:148] Top shape: 24 832 7 7 (978432)
I0403 18:58:59.679457 18311 net.cpp:148] Top shape: 24 832 7 7 (978432)
I0403 18:58:59.679471 18311 net.cpp:148] Top shape: 24 832 7 7 (978432)
I0403 18:58:59.679484 18311 net.cpp:156] Memory required for data: 1325241888
I0403 18:58:59.679498 18311 layer_factory.hpp:77] Creating layer inception_5b/1x1
I0403 18:58:59.679519 18311 net.cpp:91] Creating Layer inception_5b/1x1
I0403 18:58:59.679536 18311 net.cpp:425] inception_5b/1x1 <- inception_5a/output_inception_5a/output_0_split_0
I0403 18:58:59.679556 18311 net.cpp:399] inception_5b/1x1 -> inception_5b/1x1
I0403 18:58:59.683234 18311 net.cpp:141] Setting up inception_5b/1x1
I0403 18:58:59.683264 18311 net.cpp:148] Top shape: 24 384 7 7 (451584)
I0403 18:58:59.683279 18311 net.cpp:156] Memory required for data: 1327048224
I0403 18:58:59.683296 18311 layer_factory.hpp:77] Creating layer inception_5b/relu_1x1
I0403 18:58:59.683315 18311 net.cpp:91] Creating Layer inception_5b/relu_1x1
I0403 18:58:59.683329 18311 net.cpp:425] inception_5b/relu_1x1 <- inception_5b/1x1
I0403 18:58:59.683348 18311 net.cpp:386] inception_5b/relu_1x1 -> inception_5b/1x1 (in-place)
I0403 18:58:59.683652 18311 net.cpp:141] Setting up inception_5b/relu_1x1
I0403 18:58:59.683678 18311 net.cpp:148] Top shape: 24 384 7 7 (451584)
I0403 18:58:59.683691 18311 net.cpp:156] Memory required for data: 1328854560
I0403 18:58:59.683706 18311 layer_factory.hpp:77] Creating layer inception_5b/3x3_reduce
I0403 18:58:59.683727 18311 net.cpp:91] Creating Layer inception_5b/3x3_reduce
I0403 18:58:59.683745 18311 net.cpp:425] inception_5b/3x3_reduce <- inception_5a/output_inception_5a/output_0_split_1
I0403 18:58:59.683766 18311 net.cpp:399] inception_5b/3x3_reduce -> inception_5b/3x3_reduce
I0403 18:58:59.686414 18311 net.cpp:141] Setting up inception_5b/3x3_reduce
I0403 18:58:59.686444 18311 net.cpp:148] Top shape: 24 192 7 7 (225792)
I0403 18:58:59.686458 18311 net.cpp:156] Memory required for data: 1329757728
I0403 18:58:59.686476 18311 layer_factory.hpp:77] Creating layer inception_5b/relu_3x3_reduce
I0403 18:58:59.686493 18311 net.cpp:91] Creating Layer inception_5b/relu_3x3_reduce
I0403 18:58:59.686509 18311 net.cpp:425] inception_5b/relu_3x3_reduce <- inception_5b/3x3_reduce
I0403 18:58:59.686527 18311 net.cpp:386] inception_5b/relu_3x3_reduce -> inception_5b/3x3_reduce (in-place)
I0403 18:58:59.686715 18311 net.cpp:141] Setting up inception_5b/relu_3x3_reduce
I0403 18:58:59.686739 18311 net.cpp:148] Top shape: 24 192 7 7 (225792)
I0403 18:58:59.686753 18311 net.cpp:156] Memory required for data: 1330660896
I0403 18:58:59.686767 18311 layer_factory.hpp:77] Creating layer inception_5b/3x3
I0403 18:58:59.686789 18311 net.cpp:91] Creating Layer inception_5b/3x3
I0403 18:58:59.686805 18311 net.cpp:425] inception_5b/3x3 <- inception_5b/3x3_reduce
I0403 18:58:59.686827 18311 net.cpp:399] inception_5b/3x3 -> inception_5b/3x3
I0403 18:58:59.693459 18311 net.cpp:141] Setting up inception_5b/3x3
I0403 18:58:59.693488 18311 net.cpp:148] Top shape: 24 384 7 7 (451584)
I0403 18:58:59.693508 18311 net.cpp:156] Memory required for data: 1332467232
I0403 18:58:59.693526 18311 layer_factory.hpp:77] Creating layer inception_5b/relu_3x3
I0403 18:58:59.693547 18311 net.cpp:91] Creating Layer inception_5b/relu_3x3
I0403 18:58:59.693563 18311 net.cpp:425] inception_5b/relu_3x3 <- inception_5b/3x3
I0403 18:58:59.693580 18311 net.cpp:386] inception_5b/relu_3x3 -> inception_5b/3x3 (in-place)
I0403 18:58:59.693922 18311 net.cpp:141] Setting up inception_5b/relu_3x3
I0403 18:58:59.693954 18311 net.cpp:148] Top shape: 24 384 7 7 (451584)
I0403 18:58:59.693972 18311 net.cpp:156] Memory required for data: 1334273568
I0403 18:58:59.693987 18311 layer_factory.hpp:77] Creating layer inception_5b/5x5_reduce
I0403 18:58:59.694028 18311 net.cpp:91] Creating Layer inception_5b/5x5_reduce
I0403 18:58:59.694051 18311 net.cpp:425] inception_5b/5x5_reduce <- inception_5a/output_inception_5a/output_0_split_2
I0403 18:58:59.694074 18311 net.cpp:399] inception_5b/5x5_reduce -> inception_5b/5x5_reduce
I0403 18:58:59.695449 18311 net.cpp:141] Setting up inception_5b/5x5_reduce
I0403 18:58:59.695479 18311 net.cpp:148] Top shape: 24 48 7 7 (56448)
I0403 18:58:59.695495 18311 net.cpp:156] Memory required for data: 1334499360
I0403 18:58:59.695514 18311 layer_factory.hpp:77] Creating layer inception_5b/relu_5x5_reduce
I0403 18:58:59.695533 18311 net.cpp:91] Creating Layer inception_5b/relu_5x5_reduce
I0403 18:58:59.695549 18311 net.cpp:425] inception_5b/relu_5x5_reduce <- inception_5b/5x5_reduce
I0403 18:58:59.695570 18311 net.cpp:386] inception_5b/relu_5x5_reduce -> inception_5b/5x5_reduce (in-place)
I0403 18:58:59.695986 18311 net.cpp:141] Setting up inception_5b/relu_5x5_reduce
I0403 18:58:59.696013 18311 net.cpp:148] Top shape: 24 48 7 7 (56448)
I0403 18:58:59.696029 18311 net.cpp:156] Memory required for data: 1334725152
I0403 18:58:59.696045 18311 layer_factory.hpp:77] Creating layer inception_5b/5x5
I0403 18:58:59.696066 18311 net.cpp:91] Creating Layer inception_5b/5x5
I0403 18:58:59.696084 18311 net.cpp:425] inception_5b/5x5 <- inception_5b/5x5_reduce
I0403 18:58:59.696104 18311 net.cpp:399] inception_5b/5x5 -> inception_5b/5x5
I0403 18:58:59.698330 18311 net.cpp:141] Setting up inception_5b/5x5
I0403 18:58:59.698360 18311 net.cpp:148] Top shape: 24 128 7 7 (150528)
I0403 18:58:59.698377 18311 net.cpp:156] Memory required for data: 1335327264
I0403 18:58:59.698395 18311 layer_factory.hpp:77] Creating layer inception_5b/relu_5x5
I0403 18:58:59.698417 18311 net.cpp:91] Creating Layer inception_5b/relu_5x5
I0403 18:58:59.698434 18311 net.cpp:425] inception_5b/relu_5x5 <- inception_5b/5x5
I0403 18:58:59.698453 18311 net.cpp:386] inception_5b/relu_5x5 -> inception_5b/5x5 (in-place)
I0403 18:58:59.698669 18311 net.cpp:141] Setting up inception_5b/relu_5x5
I0403 18:58:59.698695 18311 net.cpp:148] Top shape: 24 128 7 7 (150528)
I0403 18:58:59.698710 18311 net.cpp:156] Memory required for data: 1335929376
I0403 18:58:59.698725 18311 layer_factory.hpp:77] Creating layer inception_5b/pool
I0403 18:58:59.698746 18311 net.cpp:91] Creating Layer inception_5b/pool
I0403 18:58:59.698763 18311 net.cpp:425] inception_5b/pool <- inception_5a/output_inception_5a/output_0_split_3
I0403 18:58:59.698784 18311 net.cpp:399] inception_5b/pool -> inception_5b/pool
I0403 18:58:59.698860 18311 net.cpp:141] Setting up inception_5b/pool
I0403 18:58:59.698885 18311 net.cpp:148] Top shape: 24 832 7 7 (978432)
I0403 18:58:59.698900 18311 net.cpp:156] Memory required for data: 1339843104
I0403 18:58:59.698915 18311 layer_factory.hpp:77] Creating layer inception_5b/pool_proj
I0403 18:58:59.698938 18311 net.cpp:91] Creating Layer inception_5b/pool_proj
I0403 18:58:59.698961 18311 net.cpp:425] inception_5b/pool_proj <- inception_5b/pool
I0403 18:58:59.698984 18311 net.cpp:399] inception_5b/pool_proj -> inception_5b/pool_proj
I0403 18:58:59.701457 18311 net.cpp:141] Setting up inception_5b/pool_proj
I0403 18:58:59.701488 18311 net.cpp:148] Top shape: 24 128 7 7 (150528)
I0403 18:58:59.701504 18311 net.cpp:156] Memory required for data: 1340445216
I0403 18:58:59.701524 18311 layer_factory.hpp:77] Creating layer inception_5b/relu_pool_proj
I0403 18:58:59.701544 18311 net.cpp:91] Creating Layer inception_5b/relu_pool_proj
I0403 18:58:59.701560 18311 net.cpp:425] inception_5b/relu_pool_proj <- inception_5b/pool_proj
I0403 18:58:59.701581 18311 net.cpp:386] inception_5b/relu_pool_proj -> inception_5b/pool_proj (in-place)
I0403 18:58:59.701901 18311 net.cpp:141] Setting up inception_5b/relu_pool_proj
I0403 18:58:59.701930 18311 net.cpp:148] Top shape: 24 128 7 7 (150528)
I0403 18:58:59.701951 18311 net.cpp:156] Memory required for data: 1341047328
I0403 18:58:59.701968 18311 layer_factory.hpp:77] Creating layer inception_5b/output
I0403 18:58:59.701987 18311 net.cpp:91] Creating Layer inception_5b/output
I0403 18:58:59.702019 18311 net.cpp:425] inception_5b/output <- inception_5b/1x1
I0403 18:58:59.702039 18311 net.cpp:425] inception_5b/output <- inception_5b/3x3
I0403 18:58:59.702055 18311 net.cpp:425] inception_5b/output <- inception_5b/5x5
I0403 18:58:59.702072 18311 net.cpp:425] inception_5b/output <- inception_5b/pool_proj
I0403 18:58:59.702092 18311 net.cpp:399] inception_5b/output -> inception_5b/output
I0403 18:58:59.702148 18311 net.cpp:141] Setting up inception_5b/output
I0403 18:58:59.702175 18311 net.cpp:148] Top shape: 24 1024 7 7 (1204224)
I0403 18:58:59.702191 18311 net.cpp:156] Memory required for data: 1345864224
I0403 18:58:59.702206 18311 layer_factory.hpp:77] Creating layer pool5/7x7_s1
I0403 18:58:59.702224 18311 net.cpp:91] Creating Layer pool5/7x7_s1
I0403 18:58:59.702240 18311 net.cpp:425] pool5/7x7_s1 <- inception_5b/output
I0403 18:58:59.702276 18311 net.cpp:399] pool5/7x7_s1 -> pool5/7x7_s1
I0403 18:58:59.702505 18311 net.cpp:141] Setting up pool5/7x7_s1
I0403 18:58:59.702532 18311 net.cpp:148] Top shape: 24 1024 1 1 (24576)
I0403 18:58:59.702548 18311 net.cpp:156] Memory required for data: 1345962528
I0403 18:58:59.702561 18311 layer_factory.hpp:77] Creating layer pool5/drop_7x7_s1
I0403 18:58:59.702579 18311 net.cpp:91] Creating Layer pool5/drop_7x7_s1
I0403 18:58:59.702595 18311 net.cpp:425] pool5/drop_7x7_s1 <- pool5/7x7_s1
I0403 18:58:59.702615 18311 net.cpp:386] pool5/drop_7x7_s1 -> pool5/7x7_s1 (in-place)
I0403 18:58:59.702668 18311 net.cpp:141] Setting up pool5/drop_7x7_s1
I0403 18:58:59.702692 18311 net.cpp:148] Top shape: 24 1024 1 1 (24576)
I0403 18:58:59.702707 18311 net.cpp:156] Memory required for data: 1346060832
I0403 18:58:59.702720 18311 layer_factory.hpp:77] Creating layer loss3/classifier_plantvillage
I0403 18:58:59.702739 18311 net.cpp:91] Creating Layer loss3/classifier_plantvillage
I0403 18:58:59.702756 18311 net.cpp:425] loss3/classifier_plantvillage <- pool5/7x7_s1
I0403 18:58:59.702776 18311 net.cpp:399] loss3/classifier_plantvillage -> loss3/classifier_plantvillage
I0403 18:58:59.703222 18311 net.cpp:141] Setting up loss3/classifier_plantvillage
I0403 18:58:59.703248 18311 net.cpp:148] Top shape: 24 38 (912)
I0403 18:58:59.703263 18311 net.cpp:156] Memory required for data: 1346064480
I0403 18:58:59.703280 18311 layer_factory.hpp:77] Creating layer loss3/classifier_plantvillage_loss3/classifier_plantvillage_0_split
I0403 18:58:59.703301 18311 net.cpp:91] Creating Layer loss3/classifier_plantvillage_loss3/classifier_plantvillage_0_split
I0403 18:58:59.703320 18311 net.cpp:425] loss3/classifier_plantvillage_loss3/classifier_plantvillage_0_split <- loss3/classifier_plantvillage
I0403 18:58:59.703339 18311 net.cpp:399] loss3/classifier_plantvillage_loss3/classifier_plantvillage_0_split -> loss3/classifier_plantvillage_loss3/classifier_plantvillage_0_split_0
I0403 18:58:59.703359 18311 net.cpp:399] loss3/classifier_plantvillage_loss3/classifier_plantvillage_0_split -> loss3/classifier_plantvillage_loss3/classifier_plantvillage_0_split_1
I0403 18:58:59.703380 18311 net.cpp:399] loss3/classifier_plantvillage_loss3/classifier_plantvillage_0_split -> loss3/classifier_plantvillage_loss3/classifier_plantvillage_0_split_2
I0403 18:58:59.703400 18311 net.cpp:399] loss3/classifier_plantvillage_loss3/classifier_plantvillage_0_split -> loss3/classifier_plantvillage_loss3/classifier_plantvillage_0_split_3
I0403 18:58:59.703503 18311 net.cpp:141] Setting up loss3/classifier_plantvillage_loss3/classifier_plantvillage_0_split
I0403 18:58:59.703527 18311 net.cpp:148] Top shape: 24 38 (912)
I0403 18:58:59.703543 18311 net.cpp:148] Top shape: 24 38 (912)
I0403 18:58:59.703558 18311 net.cpp:148] Top shape: 24 38 (912)
I0403 18:58:59.703573 18311 net.cpp:148] Top shape: 24 38 (912)
I0403 18:58:59.703588 18311 net.cpp:156] Memory required for data: 1346079072
I0403 18:58:59.703601 18311 layer_factory.hpp:77] Creating layer loss1/loss
I0403 18:58:59.703624 18311 net.cpp:91] Creating Layer loss1/loss
I0403 18:58:59.703639 18311 net.cpp:425] loss1/loss <- loss1/classifier_plantvillage_loss1/classifier_plantvillage_0_split_0
I0403 18:58:59.703670 18311 net.cpp:425] loss1/loss <- label_data_1_split_0
…
