…
I0403 19:08:46.477900 18870 net.cpp:313] The NetState phase (1) differed from the phase (0) specified by a rule in layer data
I0403 19:08:46.479054 18870 net.cpp:49] Initializing net from parameters: 
state {
  phase: TEST
}
layer {
  name: "data"
  type: "Data"
  top: "data"
  top: "label"
  include {
    phase: TEST
  }
  transform_param {
    mirror: false
    crop_size: 224
    mean_file: "/home/mohanty/data/final_dataset/lmdb/segmented-60-40/mean.binaryproto"
  }
  data_param {
    source: "/home/mohanty/data/final_dataset/lmdb/segmented-60-40/test_db"
    batch_size: 24
    backend: LMDB
  }
}
layer {
  name: "conv1/7x7_s2"
  type: "Convolution"
  bottom: "data"
  top: "conv1/7x7_s2"
  param {
    lr_mult: 1
    decay_mult: 1
  }
  param {
    lr_mult: 2
    decay_mult: 0
  }
  convolution_param {
    num_output: 64
    pad: 3
    kernel_size: 7
    stride: 2
    weight_filler {
      type: "xavier"
      std: 0.1
    }
    bias_filler {
      type: "constant"
      value: 0.2
    }
  }
}
layer {
  name: "conv1/relu_7x7"
  type: "ReLU"
  bottom: "conv1/7x7_s2"
  top: "conv1/7x7_s2"
}
layer {
  name: "pool1/3x3_s2"
  type: "Pooling"
  bottom: "conv1/7x7_s2"
  top: "pool1/3x3_s2"
  pooling_param {
    pool: MAX
    kernel_size: 3
    stride: 2
  }
}
layer {
  name: "pool1/norm1"
  type: "LRN"
  bottom: "pool1/3x3_s2"
  top: "pool1/norm1"
  lrn_param {
    local_size: 5
    alpha: 0.0001
    beta: 0.75
  }
}
layer {
  name: "conv2/3x3_reduce"
  type: "Convolution"
  bottom: "pool1/norm1"
  top: "conv2/3x3_reduce"
  param {
    lr_mult: 1
    decay_mult: 1
  }
  param {
    lr_mult: 2
    decay_mult: 0
  }
  convolution_param {
    num_output: 64
    kernel_size: 1
    weight_filler {
      type: "xavier"
      std: 0.1
    }
    bias_filler {
      type: "constant"
      value: 0.2
    }
  }
}
layer {
  name: "conv2/relu_3x3_reduce"
  type: "ReLU"
  bottom: "conv2/3x3_reduce"
  top: "conv2/3x3_reduce"
}
layer {
  name: "conv2/3x3"
  type: "Convolution"
  bottom: "conv2/3x3_reduce"
  top: "conv2/3x3"
  param {
    lr_mult: 1
    decay_mult: 1
  }
  param {
    lr_mult: 2
    decay_mult: 0
  }
  convolution_param {
    num_output: 192
    pad: 1
    kernel_size: 3
    weight_filler {
      type: "xavier"
      std: 0.03
    }
    bias_filler {
      type: "constant"
      value: 0.2
    }
  }
}
layer {
  name: "conv2/relu_3x3"
  type: "ReLU"
  bottom: "conv2/3x3"
  top: "conv2/3x3"
}
layer {
  name: "conv2/norm2"
  type: "LRN"
  bottom: "conv2/3x3"
  top: "conv2/norm2"
  lrn_param {
    local_size: 5
    alpha: 0.0001
    beta: 0.75
  }
}
layer {
  name: "pool2/3x3_s2"
  type: "Pooling"
  bottom: "conv2/norm2"
  top: "pool2/3x3_s2"
  pooling_param {
    pool: MAX
    kernel_size: 3
    stride: 2
  }
}
layer {
  name: "inception_3a/1x1"
  type: "Convolution"
  bottom: "pool2/3x3_s2"
  top: "inception_3a/1x1"
  param {
    lr_mult: 1
    decay_mult: 1
  }
  param {
    lr_mult: 2
    decay_mult: 0
  }
  convolution_param {
    num_output: 64
    kernel_size: 1
    weight_filler {
      type: "xavier"
      std: 0.03
    }
    bias_filler {
      type: "constant"
      value: 0.2
    }
  }
}
layer {
  name: "inception_3a/relu_1x1"
  type: "ReLU"
  bottom: "inception_3a/1x1"
  top: "inception_3a/1x1"
}
layer {
  name: "inception_3a/3x3_reduce"
  type: "Convolution"
  bottom: "pool2/3x3_s2"
  top: "inception_3a/3x3_reduce"
  param {
    lr_mult: 1
    decay_mult: 1
  }
  param {
    lr_mult: 2
    decay_mult: 0
  }
  convolution_param {
    num_output: 96
    kernel_size: 1
    weight_filler {
      type: "xavier"
      std: 0.09
    }
    bias_filler {
      type: "constant"
      value: 0.2
    }
  }
}
layer {
  name: "inception_3a/relu_3x3_reduce"
  type: "ReLU"
  bottom: "inception_3a/3x3_reduce"
  top: "inception_3a/3x3_reduce"
}
layer {
  name: "inception_3a/3x3"
  type: "Convolution"
  bottom: "inception_3a/3x3_reduce"
  top: "inception_3a/3x3"
  param {
    lr_mult: 1
    decay_mult: 1
  }
  param {
    lr_mult: 2
    decay_mult: 0
  }
  convolution_param {
    num_output: 128
    pad: 1
    kernel_size: 3
    weight_filler {
      type: "xavier"
      std: 0.03
    }
    bias_filler {
      type: "constant"
      value: 0.2
    }
  }
}
layer {
  name: "inception_3a/relu_3x3"
  type: "ReLU"
  bottom: "inception_3a/3x3"
  top: "inception_3a/3x3"
}
layer {
  name: "inception_3a/5x5_reduce"
  type: "Convolution"
  bottom: "pool2/3x3_s2"
  top: "inception_3a/5x5_reduce"
  param {
    lr_mult: 1
    decay_mult: 1
  }
  param {
    lr_mult: 2
    decay_mult: 0
  }
  convolution_param {
    num_output: 16
    kernel_size: 1
    weight_filler {
      type: "xavier"
      std: 0.2
    }
    bias_filler {
      type: "constant"
      value: 0.2
    }
  }
}
layer {
  name: "inception_3a/relu_5x5_reduce"
  type: "ReLU"
  bottom: "inception_3a/5x5_reduce"
  top: "inception_3a/5x5_reduce"
}
layer {
  name: "inception_3a/5x5"
  type: "Convolution"
  bottom: "inception_3a/5x5_reduce"
  top: "inception_3a/5x5"
  param {
    lr_mult: 1
    decay_mult: 1
  }
  param {
    lr_mult: 2
    decay_mult: 0
  }
  convolution_param {
    num_output: 32
    pad: 2
    kernel_size: 5
    weight_filler {
      type: "xavier"
      std: 0.03
    }
    bias_filler {
      type: "constant"
      value: 0.2
    }
  }
}
layer {
  name: "inception_3a/relu_5x5"
  type: "ReLU"
  bottom: "inception_3a/5x5"
  top: "inception_3a/5x5"
}
layer {
  name: "inception_3a/pool"
  type: "Pooling"
  bottom: "pool2/3x3_s2"
  top: "inception_3a/pool"
  pooling_param {
    pool: MAX
    kernel_size: 3
    stride: 1
    pad: 1
  }
}
layer {
  name: "inception_3a/pool_proj"
  type: "Convolution"
  bottom: "inception_3a/pool"
  top: "inception_3a/pool_proj"
  param {
    lr_mult: 1
    decay_mult: 1
  }
  param {
    lr_mult: 2
    decay_mult: 0
  }
  convolution_param {
    num_output: 32
    kernel_size: 1
    weight_filler {
      type: "xavier"
      std: 0.1
    }
    bias_filler {
      type: "constant"
      value: 0.2
    }
  }
}
layer {
  name: "inception_3a/relu_pool_proj"
  type: "ReLU"
  bottom: "inception_3a/pool_proj"
  top: "inception_3a/pool_proj"
}
layer {
  name: "inception_3a/output"
  type: "Concat"
  bottom: "inception_3a/1x1"
  bottom: "inception_3a/3x3"
  bottom: "inception_3a/5x5"
  bottom: "inception_3a/pool_proj"
  top: "inception_3a/output"
}
layer {
  name: "inception_3b/1x1"
  type: "Convolution"
  bottom: "inception_3a/output"
  top: "inception_3b/1x1"
  param {
    lr_mult: 1
    decay_mult: 1
  }
  param {
    lr_mult: 2
    decay_mult: 0
  }
  convolution_param {
    num_output: 128
    kernel_size: 1
    weight_filler {
      type: "xavier"
      std: 0.03
    }
    bias_filler {
      type: "constant"
      value: 0.2
    }
  }
}
layer {
  name: "inception_3b/relu_1x1"
  type: "ReLU"
  bottom: "inception_3b/1x1"
  top: "inception_3b/1x1"
}
layer {
  name: "inception_3b/3x3_reduce"
  type: "Convolution"
  bottom: "inception_3a/output"
  top: "inception_3b/3x3_reduce"
  param {
    lr_mult: 1
    decay_mult: 1
  }
  param {
    lr_mult: 2
    decay_mult: 0
  }
  convolution_param {
    num_output: 128
    kernel_size: 1
    weight_filler {
      type: "xavier"
      std: 0.09
    }
    bias_filler {
      type: "constant"
      value: 0.2
    }
  }
}
layer {
  name: "inception_3b/relu_3x3_reduce"
  type: "ReLU"
  bottom: "inception_3b/3x3_reduce"
  top: "inception_3b/3x3_reduce"
}
layer {
  name: "inception_3b/3x3"
  type: "Convolution"
  bottom: "inception_3b/3x3_reduce"
  top: "inception_3b/3x3"
  param {
    lr_mult: 1
    decay_mult: 1
  }
  param {
    lr_mult: 2
    decay_mult: 0
  }
  convolution_param {
    num_output: 192
    pad: 1
    kernel_size: 3
    weight_filler {
      type: "xavier"
      std: 0.03
    }
    bias_filler {
      type: "constant"
      value: 0.2
    }
  }
}
layer {
  name: "inception_3b/relu_3x3"
  type: "ReLU"
  bottom: "inception_3b/3x3"
  top: "inception_3b/3x3"
}
layer {
  name: "inception_3b/5x5_reduce"
  type: "Convolution"
  bottom: "inception_3a/output"
  top: "inception_3b/5x5_reduce"
  param {
    lr_mult: 1
    decay_mult: 1
  }
  param {
    lr_mult: 2
    decay_mult: 0
  }
  convolution_param {
    num_output: 32
    kernel_size: 1
    weight_filler {
      type: "xavier"
      std: 0.2
    }
    bias_filler {
      type: "constant"
      value: 0.2
    }
  }
}
layer {
  name: "inception_3b/relu_5x5_reduce"
  type: "ReLU"
  bottom: "inception_3b/5x5_reduce"
  top: "inception_3b/5x5_reduce"
}
layer {
  name: "inception_3b/5x5"
  type: "Convolution"
  bottom: "inception_3b/5x5_reduce"
  top: "inception_3b/5x5"
  param {
    lr_mult: 1
    decay_mult: 1
  }
  param {
    lr_mult: 2
    decay_mult: 0
  }
  convolution_param {
    num_output: 96
    pad: 2
    kernel_size: 5
    weight_filler {
      type: "xavier"
      std: 0.03
    }
    bias_filler {
      type: "constant"
      value: 0.2
    }
  }
}
layer {
  name: "inception_3b/relu_5x5"
  type: "ReLU"
  bottom: "inception_3b/5x5"
  top: "inception_3b/5x5"
}
layer {
  name: "inception_3b/pool"
  type: "Pooling"
  bottom: "inception_3a/output"
  top: "inception_3b/pool"
  pooling_param {
    pool: MAX
    kernel_size: 3
    stride: 1
    pad: 1
  }
}
layer {
  name: "inception_3b/pool_proj"
  type: "Convolution"
  bottom: "inception_3b/pool"
  top: "inception_3b/pool_proj"
  param {
    lr_mult: 1
    decay_mult: 1
  }
  param {
    lr_mult: 2
    decay_mult: 0
  }
  convolution_param {
    num_output: 64
    kernel_size: 1
    weight_filler {
      type: "xavier"
      std: 0.1
    }
    bias_filler {
      type: "constant"
      value: 0.2
    }
  }
}
layer {
  name: "inception_3b/relu_pool_proj"
  type: "ReLU"
  bottom: "inception_3b/pool_proj"
  top: "inception_3b/pool_proj"
}
layer {
  name: "inception_3b/output"
  type: "Concat"
  bottom: "inception_3b/1x1"
  bottom: "inception_3b/3x3"
  bottom: "inception_3b/5x5"
  bottom: "inception_3b/pool_proj"
  top: "inception_3b/output"
}
layer {
  name: "pool3/3x3_s2"
  type: "Pooling"
  bottom: "inception_3b/output"
  top: "pool3/3x3_s2"
  pooling_param {
    pool: MAX
    kernel_size: 3
    stride: 2
  }
}
layer {
  name: "inception_4a/1x1"
  type: "Convolution"
  bottom: "pool3/3x3_s2"
  top: "inception_4a/1x1"
  param {
    lr_mult: 1
    decay_mult: 1
  }
  param {
    lr_mult: 2
    decay_mult: 0
  }
  convolution_param {
    num_output: 192
    kernel_size: 1
    weight_filler {
      type: "xavier"
      std: 0.03
    }
    bias_filler {
      type: "constant"
      value: 0.2
    }
  }
}
layer {
  name: "inception_4a/relu_1x1"
  type: "ReLU"
  bottom: "inception_4a/1x1"
  top: "inception_4a/1x1"
}
layer {
  name: "inception_4a/3x3_reduce"
  type: "Convolution"
  bottom: "pool3/3x3_s2"
  top: "inception_4a/3x3_reduce"
  param {
    lr_mult: 1
    decay_mult: 1
  }
  param {
    lr_mult: 2
    decay_mult: 0
  }
  convolution_param {
    num_output: 96
    kernel_size: 1
    weight_filler {
      type: "xavier"
      std: 0.09
    }
    bias_filler {
      type: "constant"
      value: 0.2
    }
  }
}
layer {
  name: "inception_4a/relu_3x3_reduce"
  type: "ReLU"
  bottom: "inception_4a/3x3_reduce"
  top: "inception_4a/3x3_reduce"
}
layer {
  name: "inception_4a/3x3"
  type: "Convolution"
  bottom: "inception_4a/3x3_reduce"
  top: "inception_4a/3x3"
  param {
    lr_mult: 1
    decay_mult: 1
  }
  param {
    lr_mult: 2
    decay_mult: 0
  }
  convolution_param {
    num_output: 208
    pad: 1
    kernel_size: 3
    weight_filler {
      type: "xavier"
      std: 0.03
    }
    bias_filler {
      type: "constant"
      value: 0.2
    }
  }
}
layer {
  name: "inception_4a/relu_3x3"
  type: "ReLU"
  bottom: "inception_4a/3x3"
  top: "inception_4a/3x3"
}
layer {
  name: "inception_4a/5x5_reduce"
  type: "Convolution"
  bottom: "pool3/3x3_s2"
  top: "inception_4a/5x5_reduce"
  param {
    lr_mult: 1
    decay_mult: 1
  }
  param {
    lr_mult: 2
    decay_mult: 0
  }
  convolution_param {
    num_output: 16
    kernel_size: 1
    weight_filler {
      type: "xavier"
      std: 0.2
    }
    bias_filler {
      type: "constant"
      value: 0.2
    }
  }
}
layer {
  name: "inception_4a/relu_5x5_reduce"
  type: "ReLU"
  bottom: "inception_4a/5x5_reduce"
  top: "inception_4a/5x5_reduce"
}
layer {
  name: "inception_4a/5x5"
  type: "Convolution"
  bottom: "inception_4a/5x5_reduce"
  top: "inception_4a/5x5"
  param {
    lr_mult: 1
    decay_mult: 1
  }
  param {
    lr_mult: 2
    decay_mult: 0
  }
  convolution_param {
    num_output: 48
    pad: 2
    kernel_size: 5
    weight_filler {
      type: "xavier"
      std: 0.03
    }
    bias_filler {
      type: "constant"
      value: 0.2
    }
  }
}
layer {
  name: "inception_4a/relu_5x5"
  type: "ReLU"
  bottom: "inception_4a/5x5"
  top: "inception_4a/5x5"
}
layer {
  name: "inception_4a/pool"
  type: "Pooling"
  bottom: "pool3/3x3_s2"
  top: "inception_4a/pool"
  pooling_param {
    pool: MAX
    kernel_size: 3
    stride: 1
    pad: 1
  }
}
layer {
  name: "inception_4a/pool_proj"
  type: "Convolution"
  bottom: "inception_4a/pool"
  top: "inception_4a/pool_proj"
  param {
    lr_mult: 1
    decay_mult: 1
  }
  param {
    lr_mult: 2
    decay_mult: 0
  }
  convolution_param {
    num_output: 64
    kernel_size: 1
    weight_filler {
      type: "xavier"
      std: 0.1
    }
    bias_filler {
      type: "constant"
      value: 0.2
    }
  }
}
layer {
  name: "inception_4a/relu_pool_proj"
  type: "ReLU"
  bottom: "inception_4a/pool_proj"
  top: "inception_4a/pool_proj"
}
layer {
  name: "inception_4a/output"
  type: "Concat"
  bottom: "inception_4a/1x1"
  bottom: "inception_4a/3x3"
  bottom: "inception_4a/5x5"
  bottom: "inception_4a/pool_proj"
  top: "inception_4a/output"
}
layer {
  name: "loss1/ave_pool"
  type: "Pooling"
  bottom: "inception_4a/output"
  top: "loss1/ave_pool"
  pooling_param {
    pool: AVE
    kernel_size: 5
    stride: 3
  }
}
layer {
  name: "loss1/conv"
  type: "Convolution"
  bottom: "loss1/ave_pool"
  top: "loss1/conv"
  param {
    lr_mult: 1
    decay_mult: 1
  }
  param {
    lr_mult: 2
    decay_mult: 0
  }
  convolution_param {
    num_output: 128
    kernel_size: 1
    weight_filler {
      type: "xavier"
      std: 0.08
    }
    bias_filler {
      type: "constant"
      value: 0.2
    }
  }
}
layer {
  name: "loss1/relu_conv"
  type: "ReLU"
  bottom: "loss1/conv"
  top: "loss1/conv"
}
layer {
  name: "loss1/fc"
  type: "InnerProduct"
  bottom: "loss1/conv"
  top: "loss1/fc"
  param {
    lr_mult: 1
    decay_mult: 1
  }
  param {
    lr_mult: 2
    decay_mult: 0
  }
  inner_product_param {
    num_output: 1024
    weight_filler {
      type: "xavier"
      std: 0.02
    }
    bias_filler {
      type: "constant"
      value: 0.2
    }
  }
}
layer {
  name: "loss1/relu_fc"
  type: "ReLU"
  bottom: "loss1/fc"
  top: "loss1/fc"
}
layer {
  name: "loss1/drop_fc"
  type: "Dropout"
  bottom: "loss1/fc"
  top: "loss1/fc"
  dropout_param {
    dropout_ratio: 0.7
  }
}
layer {
  name: "loss1/classifier_plantvillage"
  type: "InnerProduct"
  bottom: "loss1/fc"
  top: "loss1/classifier_plantvillage"
  param {
    lr_mult: 1
    decay_mult: 1
  }
  param {
    lr_mult: 2
    decay_mult: 0
  }
  inner_product_param {
    num_output: 38
    weight_filler {
      type: "xavier"
      std: 0.0009765625
    }
    bias_filler {
      type: "constant"
      value: 0
    }
  }
}
layer {
  name: "inception_4b/1x1"
  type: "Convolution"
  bottom: "inception_4a/output"
  top: "inception_4b/1x1"
  param {
    lr_mult: 1
    decay_mult: 1
  }
  param {
    lr_mult: 2
    decay_mult: 0
  }
  convolution_param {
    num_output: 160
    kernel_size: 1
    weight_filler {
      type: "xavier"
      std: 0.03
    }
    bias_filler {
      type: "constant"
      value: 0.2
    }
  }
}
layer {
  name: "inception_4b/relu_1x1"
  type: "ReLU"
  bottom: "inception_4b/1x1"
  top: "inception_4b/1x1"
}
layer {
  name: "inception_4b/3x3_reduce"
  type: "Convolution"
  bottom: "inception_4a/output"
  top: "inception_4b/3x3_reduce"
  param {
    lr_mult: 1
    decay_mult: 1
  }
  param {
    lr_mult: 2
    decay_mult: 0
  }
  convolution_param {
    num_output: 112
    kernel_size: 1
    weight_filler {
      type: "xavier"
      std: 0.09
    }
    bias_filler {
      type: "constant"
      value: 0.2
    }
  }
}
layer {
  name: "inception_4b/relu_3x3_reduce"
  type: "ReLU"
  bottom: "inception_4b/3x3_reduce"
  top: "inception_4b/3x3_reduce"
}
layer {
  name: "inception_4b/3x3"
  type: "Convolution"
  bottom: "inception_4b/3x3_reduce"
  top: "inception_4b/3x3"
  param {
    lr_mult: 1
    decay_mult: 1
  }
  param {
    lr_mult: 2
    decay_mult: 0
  }
  convolution_param {
    num_output: 224
    pad: 1
    kernel_size: 3
    weight_filler {
      type: "xavier"
      std: 0.03
    }
    bias_filler {
      type: "constant"
      value: 0.2
    }
  }
}
layer {
  name: "inception_4b/relu_3x3"
  type: "ReLU"
  bottom: "inception_4b/3x3"
  top: "inception_4b/3x3"
}
layer {
  name: "inception_4b/5x5_reduce"
  type: "Convolution"
  bottom: "inception_4a/output"
  top: "inception_4b/5x5_reduce"
  param {
    lr_mult: 1
    decay_mult: 1
  }
  param {
    lr_mult: 2
    decay_mult: 0
  }
  convolution_param {
    num_output: 24
    kernel_size: 1
    weight_filler {
      type: "xavier"
      std: 0.2
    }
    bias_filler {
      type: "constant"
      value: 0.2
    }
  }
}
layer {
  name: "inception_4b/relu_5x5_reduce"
  type: "ReLU"
  bottom: "inception_4b/5x5_reduce"
  top: "inception_4b/5x5_reduce"
}
layer {
  name: "inception_4b/5x5"
  type: "Convolution"
  bottom: "inception_4b/5x5_reduce"
  top: "inception_4b/5x5"
  param {
    lr_mult: 1
    decay_mult: 1
  }
  param {
    lr_mult: 2
    decay_mult: 0
  }
  convolution_param {
    num_output: 64
    pad: 2
    kernel_size: 5
    weight_filler {
      type: "xavier"
      std: 0.03
    }
    bias_filler {
      type: "constant"
      value: 0.2
    }
  }
}
layer {
  name: "inception_4b/relu_5x5"
  type: "ReLU"
  bottom: "inception_4b/5x5"
  top: "inception_4b/5x5"
}
layer {
  name: "inception_4b/pool"
  type: "Pooling"
  bottom: "inception_4a/output"
  top: "inception_4b/pool"
  pooling_param {
    pool: MAX
    kernel_size: 3
    stride: 1
    pad: 1
  }
}
layer {
  name: "inception_4b/pool_proj"
  type: "Convolution"
  bottom: "inception_4b/pool"
  top: "inception_4b/pool_proj"
  param {
    lr_mult: 1
    decay_mult: 1
  }
  param {
    lr_mult: 2
    decay_mult: 0
  }
  convolution_param {
    num_output: 64
    kernel_size: 1
    weight_filler {
      type: "xavier"
      std: 0.1
    }
    bias_filler {
      type: "constant"
      value: 0.2
    }
  }
}
layer {
  name: "inception_4b/relu_pool_proj"
  type: "ReLU"
  bottom: "inception_4b/pool_proj"
  top: "inception_4b/pool_proj"
}
layer {
  name: "inception_4b/output"
  type: "Concat"
  bottom: "inception_4b/1x1"
  bottom: "inception_4b/3x3"
  bottom: "inception_4b/5x5"
  bottom: "inception_4b/pool_proj"
  top: "inception_4b/output"
}
layer {
  name: "inception_4c/1x1"
  type: "Convolution"
  bottom: "inception_4b/output"
  top: "inception_4c/1x1"
  param {
    lr_mult: 1
    decay_mult: 1
  }
  param {
    lr_mult: 2
    decay_mult: 0
  }
  convolution_param {
    num_output: 128
    kernel_size: 1
    weight_filler {
      type: "xavier"
      std: 0.03
    }
    bias_filler {
      type: "constant"
      value: 0.2
    }
  }
}
layer {
  name: "inception_4c/relu_1x1"
  type: "ReLU"
  bottom: "inception_4c/1x1"
  top: "inception_4c/1x1"
}
layer {
  name: "inception_4c/3x3_reduce"
  type: "Convolution"
  bottom: "inception_4b/output"
  top: "inception_4c/3x3_reduce"
  param {
    lr_mult: 1
    decay_mult: 1
  }
  param {
    lr_mult: 2
    decay_mult: 0
  }
  convolution_param {
    num_output: 128
    kernel_size: 1
    weight_filler {
      type: "xavier"
      std: 0.09
    }
    bias_filler {
      type: "constant"
      value: 0.2
    }
  }
}
layer {
  name: "inception_4c/relu_3x3_reduce"
  type: "ReLU"
  bottom: "inception_4c/3x3_reduce"
  top: "inception_4c/3x3_reduce"
}
layer {
  name: "inception_4c/3x3"
  type: "Convolution"
  bottom: "inception_4c/3x3_reduce"
  top: "inception_4c/3x3"
  param {
    lr_mult: 1
    decay_mult: 1
  }
  param {
    lr_mult: 2
    decay_mult: 0
  }
  convolution_param {
    num_output: 256
    pad: 1
    kernel_size: 3
    weight_filler {
      type: "xavier"
      std: 0.03
    }
    bias_filler {
      type: "constant"
      value: 0.2
    }
  }
}
layer {
  name: "inception_4c/relu_3x3"
  type: "ReLU"
  bottom: "inception_4c/3x3"
  top: "inception_4c/3x3"
}
layer {
  name: "inception_4c/5x5_reduce"
  type: "Convolution"
  bottom: "inception_4b/output"
  top: "inception_4c/5x5_reduce"
  param {
    lr_mult: 1
    decay_mult: 1
  }
  param {
    lr_mult: 2
    decay_mult: 0
  }
  convolution_param {
    num_output: 24
    kernel_size: 1
    weight_filler {
      type: "xavier"
      std: 0.2
    }
    bias_filler {
      type: "constant"
      value: 0.2
    }
  }
}
layer {
  name: "inception_4c/relu_5x5_reduce"
  type: "ReLU"
  bottom: "inception_4c/5x5_reduce"
  top: "inception_4c/5x5_reduce"
}
layer {
  name: "inception_4c/5x5"
  type: "Convolution"
  bottom: "inception_4c/5x5_reduce"
  top: "inception_4c/5x5"
  param {
    lr_mult: 1
    decay_mult: 1
  }
  param {
    lr_mult: 2
    decay_mult: 0
  }
  convolution_param {
    num_output: 64
    pad: 2
    kernel_size: 5
    weight_filler {
      type: "xavier"
      std: 0.03
    }
    bias_filler {
      type: "constant"
      value: 0.2
    }
  }
}
layer {
  name: "inception_4c/relu_5x5"
  type: "ReLU"
  bottom: "inception_4c/5x5"
  top: "inception_4c/5x5"
}
layer {
  name: "inception_4c/pool"
  type: "Pooling"
  bottom: "inception_4b/output"
  top: "inception_4c/pool"
  pooling_param {
    pool: MAX
    kernel_size: 3
    stride: 1
    pad: 1
  }
}
layer {
  name: "inception_4c/pool_proj"
  type: "Convolution"
  bottom: "inception_4c/pool"
  top: "inception_4c/pool_proj"
  param {
    lr_mult: 1
    decay_mult: 1
  }
  param {
    lr_mult: 2
    decay_mult: 0
  }
  convolution_param {
    num_output: 64
    kernel_size: 1
    weight_filler {
      type: "xavier"
      std: 0.1
    }
    bias_filler {
      type: "constant"
      value: 0.2
    }
  }
}
layer {
  name: "inception_4c/relu_pool_proj"
  type: "ReLU"
  bottom: "inception_4c/pool_proj"
  top: "inception_4c/pool_proj"
}
layer {
  name: "inception_4c/output"
  type: "Concat"
  bottom: "inception_4c/1x1"
  bottom: "inception_4c/3x3"
  bottom: "inception_4c/5x5"
  bottom: "inception_4c/pool_proj"
  top: "inception_4c/output"
}
layer {
  name: "inception_4d/1x1"
  type: "Convolution"
  bottom: "inception_4c/output"
  top: "inception_4d/1x1"
  param {
    lr_mult: 1
    decay_mult: 1
  }
  param {
    lr_mult: 2
    decay_mult: 0
  }
  convolution_param {
    num_output: 112
    kernel_size: 1
    weight_filler {
      type: "xavier"
      std: 0.03
    }
    bias_filler {
      type: "constant"
      value: 0.2
    }
  }
}
layer {
  name: "inception_4d/relu_1x1"
  type: "ReLU"
  bottom: "inception_4d/1x1"
  top: "inception_4d/1x1"
}
layer {
  name: "inception_4d/3x3_reduce"
  type: "Convolution"
  bottom: "inception_4c/output"
  top: "inception_4d/3x3_reduce"
  param {
    lr_mult: 1
    decay_mult: 1
  }
  param {
    lr_mult: 2
    decay_mult: 0
  }
  convolution_param {
    num_output: 144
    kernel_size: 1
    weight_filler {
      type: "xavier"
      std: 0.09
    }
    bias_filler {
      type: "constant"
      value: 0.2
    }
  }
}
layer {
  name: "inception_4d/relu_3x3_reduce"
  type: "ReLU"
  bottom: "inception_4d/3x3_reduce"
  top: "inception_4d/3x3_reduce"
}
layer {
  name: "inception_4d/3x3"
  type: "Convolution"
  bottom: "inception_4d/3x3_reduce"
  top: "inception_4d/3x3"
  param {
    lr_mult: 1
    decay_mult: 1
  }
  param {
    lr_mult: 2
    decay_mult: 0
  }
  convolution_param {
    num_output: 288
    pad: 1
    kernel_size: 3
    weight_filler {
      type: "xavier"
      std: 0.03
    }
    bias_filler {
      type: "constant"
      value: 0.2
    }
  }
}
layer {
  name: "inception_4d/relu_3x3"
  type: "ReLU"
  bottom: "inception_4d/3x3"
  top: "inception_4d/3x3"
}
layer {
  name: "inception_4d/5x5_reduce"
  type: "Convolution"
  bottom: "inception_4c/output"
  top: "inception_4d/5x5_reduce"
  param {
    lr_mult: 1
    decay_mult: 1
  }
  param {
    lr_mult: 2
    decay_mult: 0
  }
  convolution_param {
    num_output: 32
    kernel_size: 1
    weight_filler {
      type: "xavier"
      std: 0.2
    }
    bias_filler {
      type: "constant"
      value: 0.2
    }
  }
}
layer {
  name: "inception_4d/relu_5x5_reduce"
  type: "ReLU"
  bottom: "inception_4d/5x5_reduce"
  top: "inception_4d/5x5_reduce"
}
layer {
  name: "inception_4d/5x5"
  type: "Convolution"
  bottom: "inception_4d/5x5_reduce"
  top: "inception_4d/5x5"
  param {
    lr_mult: 1
    decay_mult: 1
  }
  param {
    lr_mult: 2
    decay_mult: 0
  }
  convolution_param {
    num_output: 64
    pad: 2
    kernel_size: 5
    weight_filler {
      type: "xavier"
      std: 0.03
    }
    bias_filler {
      type: "constant"
      value: 0.2
    }
  }
}
layer {
  name: "inception_4d/relu_5x5"
  type: "ReLU"
  bottom: "inception_4d/5x5"
  top: "inception_4d/5x5"
}
layer {
  name: "inception_4d/pool"
  type: "Pooling"
  bottom: "inception_4c/output"
  top: "inception_4d/pool"
  pooling_param {
    pool: MAX
    kernel_size: 3
    stride: 1
    pad: 1
  }
}
layer {
  name: "inception_4d/pool_proj"
  type: "Convolution"
  bottom: "inception_4d/pool"
  top: "inception_4d/pool_proj"
  param {
    lr_mult: 1
    decay_mult: 1
  }
  param {
    lr_mult: 2
    decay_mult: 0
  }
  convolution_param {
    num_output: 64
    kernel_size: 1
    weight_filler {
      type: "xavier"
      std: 0.1
    }
    bias_filler {
      type: "constant"
      value: 0.2
    }
  }
}
layer {
  name: "inception_4d/relu_pool_proj"
  type: "ReLU"
  bottom: "inception_4d/pool_proj"
  top: "inception_4d/pool_proj"
}
layer {
  name: "inception_4d/output"
  type: "Concat"
  bottom: "inception_4d/1x1"
  bottom: "inception_4d/3x3"
  bottom: "inception_4d/5x5"
  bottom: "inception_4d/pool_proj"
  top: "inception_4d/output"
}
layer {
  name: "loss2/ave_pool"
  type: "Pooling"
  bottom: "inception_4d/output"
  top: "loss2/ave_pool"
  pooling_param {
    pool: AVE
    kernel_size: 5
    stride: 3
  }
}
layer {
  name: "loss2/conv"
  type: "Convolution"
  bottom: "loss2/ave_pool"
  top: "loss2/conv"
  param {
    lr_mult: 1
    decay_mult: 1
  }
  param {
    lr_mult: 2
    decay_mult: 0
  }
  convolution_param {
    num_output: 128
    kernel_size: 1
    weight_filler {
      type: "xavier"
      std: 0.08
    }
    bias_filler {
      type: "constant"
      value: 0.2
    }
  }
}
layer {
  name: "loss2/relu_conv"
  type: "ReLU"
  bottom: "loss2/conv"
  top: "loss2/conv"
}
layer {
  name: "loss2/fc"
  type: "InnerProduct"
  bottom: "loss2/conv"
  top: "loss2/fc"
  param {
    lr_mult: 1
    decay_mult: 1
  }
  param {
    lr_mult: 2
    decay_mult: 0
  }
  inner_product_param {
    num_output: 1024
    weight_filler {
      type: "xavier"
      std: 0.02
    }
    bias_filler {
      type: "constant"
      value: 0.2
    }
  }
}
layer {
  name: "loss2/relu_fc"
  type: "ReLU"
  bottom: "loss2/fc"
  top: "loss2/fc"
}
layer {
  name: "loss2/drop_fc"
  type: "Dropout"
  bottom: "loss2/fc"
  top: "loss2/fc"
  dropout_param {
    dropout_ratio: 0.7
  }
}
layer {
  name: "loss2/classifier_plantvillage"
  type: "InnerProduct"
  bottom: "loss2/fc"
  top: "loss2/classifier_plantvillage"
  param {
    lr_mult: 1
    decay_mult: 1
  }
  param {
    lr_mult: 2
    decay_mult: 0
  }
  inner_product_param {
    num_output: 38
    weight_filler {
      type: "xavier"
      std: 0.0009765625
    }
    bias_filler {
      type: "constant"
      value: 0
    }
  }
}
layer {
  name: "inception_4e/1x1"
  type: "Convolution"
  bottom: "inception_4d/output"
  top: "inception_4e/1x1"
  param {
    lr_mult: 1
    decay_mult: 1
  }
  param {
    lr_mult: 2
    decay_mult: 0
  }
  convolution_param {
    num_output: 256
    kernel_size: 1
    weight_filler {
      type: "xavier"
      std: 0.03
    }
    bias_filler {
      type: "constant"
      value: 0.2
    }
  }
}
layer {
  name: "inception_4e/relu_1x1"
  type: "ReLU"
  bottom: "inception_4e/1x1"
  top: "inception_4e/1x1"
}
layer {
  name: "inception_4e/3x3_reduce"
  type: "Convolution"
  bottom: "inception_4d/output"
  top: "inception_4e/3x3_reduce"
  param {
    lr_mult: 1
    decay_mult: 1
  }
  param {
    lr_mult: 2
    decay_mult: 0
  }
  convolution_param {
    num_output: 160
    kernel_size: 1
    weight_filler {
      type: "xavier"
      std: 0.09
    }
    bias_filler {
      type: "constant"
      value: 0.2
    }
  }
}
layer {
  name: "inception_4e/relu_3x3_reduce"
  type: "ReLU"
  bottom: "inception_4e/3x3_reduce"
  top: "inception_4e/3x3_reduce"
}
layer {
  name: "inception_4e/3x3"
  type: "Convolution"
  bottom: "inception_4e/3x3_reduce"
  top: "inception_4e/3x3"
  param {
    lr_mult: 1
    decay_mult: 1
  }
  param {
    lr_mult: 2
    decay_mult: 0
  }
  convolution_param {
    num_output: 320
    pad: 1
    kernel_size: 3
    weight_filler {
      type: "xavier"
      std: 0.03
    }
    bias_filler {
      type: "constant"
      value: 0.2
    }
  }
}
layer {
  name: "inception_4e/relu_3x3"
  type: "ReLU"
  bottom: "inception_4e/3x3"
  top: "inception_4e/3x3"
}
layer {
  name: "inception_4e/5x5_reduce"
  type: "Convolution"
  bottom: "inception_4d/output"
  top: "inception_4e/5x5_reduce"
  param {
    lr_mult: 1
    decay_mult: 1
  }
  param {
    lr_mult: 2
    decay_mult: 0
  }
  convolution_param {
    num_output: 32
    kernel_size: 1
    weight_filler {
      type: "xavier"
      std: 0.2
    }
    bias_filler {
      type: "constant"
      value: 0.2
    }
  }
}
layer {
  name: "inception_4e/relu_5x5_reduce"
  type: "ReLU"
  bottom: "inception_4e/5x5_reduce"
  top: "inception_4e/5x5_reduce"
}
layer {
  name: "inception_4e/5x5"
  type: "Convolution"
  bottom: "inception_4e/5x5_reduce"
  top: "inception_4e/
I0403 19:08:46.480276 18870 layer_factory.hpp:77] Creating layer data
I0403 19:08:46.480867 18870 net.cpp:91] Creating Layer data
I0403 19:08:46.480901 18870 net.cpp:399] data -> data
I0403 19:08:46.480952 18870 net.cpp:399] data -> label
I0403 19:08:46.480993 18870 data_transformer.cpp:25] Loading mean file from: /home/mohanty/data/final_dataset/lmdb/segmented-60-40/mean.binaryproto
I0403 19:08:46.482131 18873 db_lmdb.cpp:38] Opened lmdb /home/mohanty/data/final_dataset/lmdb/segmented-60-40/test_db
I0403 19:08:46.493734 18870 data_layer.cpp:41] output data size: 24,3,224,224
I0403 19:08:46.520184 18870 net.cpp:141] Setting up data
I0403 19:08:46.520269 18870 net.cpp:148] Top shape: 24 3 224 224 (3612672)
I0403 19:08:46.520293 18870 net.cpp:148] Top shape: 24 (24)
I0403 19:08:46.520310 18870 net.cpp:156] Memory required for data: 14450784
I0403 19:08:46.520339 18870 layer_factory.hpp:77] Creating layer label_data_1_split
I0403 19:08:46.520367 18870 net.cpp:91] Creating Layer label_data_1_split
I0403 19:08:46.520386 18870 net.cpp:425] label_data_1_split <- label
I0403 19:08:46.520419 18870 net.cpp:399] label_data_1_split -> label_data_1_split_0
I0403 19:08:46.520449 18870 net.cpp:399] label_data_1_split -> label_data_1_split_1
I0403 19:08:46.520473 18870 net.cpp:399] label_data_1_split -> label_data_1_split_2
I0403 19:08:46.520496 18870 net.cpp:399] label_data_1_split -> label_data_1_split_3
I0403 19:08:46.520519 18870 net.cpp:399] label_data_1_split -> label_data_1_split_4
I0403 19:08:46.520541 18870 net.cpp:399] label_data_1_split -> label_data_1_split_5
I0403 19:08:46.520562 18870 net.cpp:399] label_data_1_split -> label_data_1_split_6
I0403 19:08:46.520584 18870 net.cpp:399] label_data_1_split -> label_data_1_split_7
I0403 19:08:46.520606 18870 net.cpp:399] label_data_1_split -> label_data_1_split_8
I0403 19:08:46.520627 18870 net.cpp:399] label_data_1_split -> label_data_1_split_9
I0403 19:08:46.520745 18870 net.cpp:141] Setting up label_data_1_split
I0403 19:08:46.520771 18870 net.cpp:148] Top shape: 24 (24)
I0403 19:08:46.520788 18870 net.cpp:148] Top shape: 24 (24)
I0403 19:08:46.520805 18870 net.cpp:148] Top shape: 24 (24)
I0403 19:08:46.520823 18870 net.cpp:148] Top shape: 24 (24)
I0403 19:08:46.520839 18870 net.cpp:148] Top shape: 24 (24)
I0403 19:08:46.520858 18870 net.cpp:148] Top shape: 24 (24)
I0403 19:08:46.520874 18870 net.cpp:148] Top shape: 24 (24)
I0403 19:08:46.520891 18870 net.cpp:148] Top shape: 24 (24)
I0403 19:08:46.520908 18870 net.cpp:148] Top shape: 24 (24)
I0403 19:08:46.520925 18870 net.cpp:148] Top shape: 24 (24)
I0403 19:08:46.520970 18870 net.cpp:156] Memory required for data: 14451744
I0403 19:08:46.520994 18870 layer_factory.hpp:77] Creating layer conv1/7x7_s2
I0403 19:08:46.521028 18870 net.cpp:91] Creating Layer conv1/7x7_s2
I0403 19:08:46.521049 18870 net.cpp:425] conv1/7x7_s2 <- data
I0403 19:08:46.521070 18870 net.cpp:399] conv1/7x7_s2 -> conv1/7x7_s2
I0403 19:08:46.659445 18870 net.cpp:141] Setting up conv1/7x7_s2
I0403 19:08:46.659533 18870 net.cpp:148] Top shape: 24 64 112 112 (19267584)
I0403 19:08:46.659548 18870 net.cpp:156] Memory required for data: 91522080
I0403 19:08:46.659579 18870 layer_factory.hpp:77] Creating layer conv1/relu_7x7
I0403 19:08:46.659605 18870 net.cpp:91] Creating Layer conv1/relu_7x7
I0403 19:08:46.659624 18870 net.cpp:425] conv1/relu_7x7 <- conv1/7x7_s2
I0403 19:08:46.659642 18870 net.cpp:386] conv1/relu_7x7 -> conv1/7x7_s2 (in-place)
I0403 19:08:46.659888 18870 net.cpp:141] Setting up conv1/relu_7x7
I0403 19:08:46.659914 18870 net.cpp:148] Top shape: 24 64 112 112 (19267584)
I0403 19:08:46.659929 18870 net.cpp:156] Memory required for data: 168592416
I0403 19:08:46.659945 18870 layer_factory.hpp:77] Creating layer pool1/3x3_s2
I0403 19:08:46.659968 18870 net.cpp:91] Creating Layer pool1/3x3_s2
I0403 19:08:46.659991 18870 net.cpp:425] pool1/3x3_s2 <- conv1/7x7_s2
I0403 19:08:46.660009 18870 net.cpp:399] pool1/3x3_s2 -> pool1/3x3_s2
I0403 19:08:46.660081 18870 net.cpp:141] Setting up pool1/3x3_s2
I0403 19:08:46.660104 18870 net.cpp:148] Top shape: 24 64 56 56 (4816896)
I0403 19:08:46.660120 18870 net.cpp:156] Memory required for data: 187860000
I0403 19:08:46.660135 18870 layer_factory.hpp:77] Creating layer pool1/norm1
I0403 19:08:46.660158 18870 net.cpp:91] Creating Layer pool1/norm1
I0403 19:08:46.660176 18870 net.cpp:425] pool1/norm1 <- pool1/3x3_s2
I0403 19:08:46.660193 18870 net.cpp:399] pool1/norm1 -> pool1/norm1
I0403 19:08:46.660465 18870 net.cpp:141] Setting up pool1/norm1
I0403 19:08:46.660491 18870 net.cpp:148] Top shape: 24 64 56 56 (4816896)
I0403 19:08:46.660506 18870 net.cpp:156] Memory required for data: 207127584
I0403 19:08:46.660522 18870 layer_factory.hpp:77] Creating layer conv2/3x3_reduce
I0403 19:08:46.660545 18870 net.cpp:91] Creating Layer conv2/3x3_reduce
I0403 19:08:46.660562 18870 net.cpp:425] conv2/3x3_reduce <- pool1/norm1
I0403 19:08:46.660580 18870 net.cpp:399] conv2/3x3_reduce -> conv2/3x3_reduce
I0403 19:08:46.661834 18870 net.cpp:141] Setting up conv2/3x3_reduce
I0403 19:08:46.661861 18870 net.cpp:148] Top shape: 24 64 56 56 (4816896)
I0403 19:08:46.661877 18870 net.cpp:156] Memory required for data: 226395168
I0403 19:08:46.661897 18870 layer_factory.hpp:77] Creating layer conv2/relu_3x3_reduce
I0403 19:08:46.661928 18870 net.cpp:91] Creating Layer conv2/relu_3x3_reduce
I0403 19:08:46.661944 18870 net.cpp:425] conv2/relu_3x3_reduce <- conv2/3x3_reduce
I0403 19:08:46.661962 18870 net.cpp:386] conv2/relu_3x3_reduce -> conv2/3x3_reduce (in-place)
I0403 19:08:46.662223 18870 net.cpp:141] Setting up conv2/relu_3x3_reduce
I0403 19:08:46.662248 18870 net.cpp:148] Top shape: 24 64 56 56 (4816896)
I0403 19:08:46.662263 18870 net.cpp:156] Memory required for data: 245662752
I0403 19:08:46.662278 18870 layer_factory.hpp:77] Creating layer conv2/3x3
I0403 19:08:46.662300 18870 net.cpp:91] Creating Layer conv2/3x3
I0403 19:08:46.662317 18870 net.cpp:425] conv2/3x3 <- conv2/3x3_reduce
I0403 19:08:46.662335 18870 net.cpp:399] conv2/3x3 -> conv2/3x3
I0403 19:08:46.664456 18870 net.cpp:141] Setting up conv2/3x3
I0403 19:08:46.664485 18870 net.cpp:148] Top shape: 24 192 56 56 (14450688)
I0403 19:08:46.664501 18870 net.cpp:156] Memory required for data: 303465504
I0403 19:08:46.664522 18870 layer_factory.hpp:77] Creating layer conv2/relu_3x3
I0403 19:08:46.664541 18870 net.cpp:91] Creating Layer conv2/relu_3x3
I0403 19:08:46.664556 18870 net.cpp:425] conv2/relu_3x3 <- conv2/3x3
I0403 19:08:46.664574 18870 net.cpp:386] conv2/relu_3x3 -> conv2/3x3 (in-place)
I0403 19:08:46.664733 18870 net.cpp:141] Setting up conv2/relu_3x3
I0403 19:08:46.664758 18870 net.cpp:148] Top shape: 24 192 56 56 (14450688)
I0403 19:08:46.664803 18870 net.cpp:156] Memory required for data: 361268256
I0403 19:08:46.664819 18870 layer_factory.hpp:77] Creating layer conv2/norm2
I0403 19:08:46.664837 18870 net.cpp:91] Creating Layer conv2/norm2
I0403 19:08:46.664855 18870 net.cpp:425] conv2/norm2 <- conv2/3x3
I0403 19:08:46.664871 18870 net.cpp:399] conv2/norm2 -> conv2/norm2
I0403 19:08:46.665163 18870 net.cpp:141] Setting up conv2/norm2
I0403 19:08:46.665190 18870 net.cpp:148] Top shape: 24 192 56 56 (14450688)
I0403 19:08:46.665207 18870 net.cpp:156] Memory required for data: 419071008
I0403 19:08:46.665222 18870 layer_factory.hpp:77] Creating layer pool2/3x3_s2
I0403 19:08:46.665242 18870 net.cpp:91] Creating Layer pool2/3x3_s2
I0403 19:08:46.665258 18870 net.cpp:425] pool2/3x3_s2 <- conv2/norm2
I0403 19:08:46.665277 18870 net.cpp:399] pool2/3x3_s2 -> pool2/3x3_s2
I0403 19:08:46.665328 18870 net.cpp:141] Setting up pool2/3x3_s2
I0403 19:08:46.665351 18870 net.cpp:148] Top shape: 24 192 28 28 (3612672)
I0403 19:08:46.665365 18870 net.cpp:156] Memory required for data: 433521696
I0403 19:08:46.665380 18870 layer_factory.hpp:77] Creating layer pool2/3x3_s2_pool2/3x3_s2_0_split
I0403 19:08:46.665398 18870 net.cpp:91] Creating Layer pool2/3x3_s2_pool2/3x3_s2_0_split
I0403 19:08:46.665413 18870 net.cpp:425] pool2/3x3_s2_pool2/3x3_s2_0_split <- pool2/3x3_s2
I0403 19:08:46.665433 18870 net.cpp:399] pool2/3x3_s2_pool2/3x3_s2_0_split -> pool2/3x3_s2_pool2/3x3_s2_0_split_0
I0403 19:08:46.665453 18870 net.cpp:399] pool2/3x3_s2_pool2/3x3_s2_0_split -> pool2/3x3_s2_pool2/3x3_s2_0_split_1
I0403 19:08:46.665474 18870 net.cpp:399] pool2/3x3_s2_pool2/3x3_s2_0_split -> pool2/3x3_s2_pool2/3x3_s2_0_split_2
I0403 19:08:46.665493 18870 net.cpp:399] pool2/3x3_s2_pool2/3x3_s2_0_split -> pool2/3x3_s2_pool2/3x3_s2_0_split_3
I0403 19:08:46.665560 18870 net.cpp:141] Setting up pool2/3x3_s2_pool2/3x3_s2_0_split
I0403 19:08:46.665585 18870 net.cpp:148] Top shape: 24 192 28 28 (3612672)
I0403 19:08:46.665601 18870 net.cpp:148] Top shape: 24 192 28 28 (3612672)
I0403 19:08:46.665617 18870 net.cpp:148] Top shape: 24 192 28 28 (3612672)
I0403 19:08:46.665632 18870 net.cpp:148] Top shape: 24 192 28 28 (3612672)
I0403 19:08:46.665647 18870 net.cpp:156] Memory required for data: 491324448
I0403 19:08:46.665662 18870 layer_factory.hpp:77] Creating layer inception_3a/1x1
I0403 19:08:46.665681 18870 net.cpp:91] Creating Layer inception_3a/1x1
I0403 19:08:46.665698 18870 net.cpp:425] inception_3a/1x1 <- pool2/3x3_s2_pool2/3x3_s2_0_split_0
I0403 19:08:46.665716 18870 net.cpp:399] inception_3a/1x1 -> inception_3a/1x1
I0403 19:08:46.667186 18870 net.cpp:141] Setting up inception_3a/1x1
I0403 19:08:46.667215 18870 net.cpp:148] Top shape: 24 64 28 28 (1204224)
I0403 19:08:46.667232 18870 net.cpp:156] Memory required for data: 496141344
I0403 19:08:46.667249 18870 layer_factory.hpp:77] Creating layer inception_3a/relu_1x1
I0403 19:08:46.667269 18870 net.cpp:91] Creating Layer inception_3a/relu_1x1
I0403 19:08:46.667286 18870 net.cpp:425] inception_3a/relu_1x1 <- inception_3a/1x1
I0403 19:08:46.667304 18870 net.cpp:386] inception_3a/relu_1x1 -> inception_3a/1x1 (in-place)
I0403 19:08:46.667469 18870 net.cpp:141] Setting up inception_3a/relu_1x1
I0403 19:08:46.667495 18870 net.cpp:148] Top shape: 24 64 28 28 (1204224)
I0403 19:08:46.667510 18870 net.cpp:156] Memory required for data: 500958240
I0403 19:08:46.667526 18870 layer_factory.hpp:77] Creating layer inception_3a/3x3_reduce
I0403 19:08:46.667547 18870 net.cpp:91] Creating Layer inception_3a/3x3_reduce
I0403 19:08:46.667565 18870 net.cpp:425] inception_3a/3x3_reduce <- pool2/3x3_s2_pool2/3x3_s2_0_split_1
I0403 19:08:46.667584 18870 net.cpp:399] inception_3a/3x3_reduce -> inception_3a/3x3_reduce
I0403 19:08:46.669232 18870 net.cpp:141] Setting up inception_3a/3x3_reduce
I0403 19:08:46.669261 18870 net.cpp:148] Top shape: 24 96 28 28 (1806336)
I0403 19:08:46.669277 18870 net.cpp:156] Memory required for data: 508183584
I0403 19:08:46.669301 18870 layer_factory.hpp:77] Creating layer inception_3a/relu_3x3_reduce
I0403 19:08:46.669333 18870 net.cpp:91] Creating Layer inception_3a/relu_3x3_reduce
I0403 19:08:46.669351 18870 net.cpp:425] inception_3a/relu_3x3_reduce <- inception_3a/3x3_reduce
I0403 19:08:46.669371 18870 net.cpp:386] inception_3a/relu_3x3_reduce -> inception_3a/3x3_reduce (in-place)
I0403 19:08:46.669549 18870 net.cpp:141] Setting up inception_3a/relu_3x3_reduce
I0403 19:08:46.669574 18870 net.cpp:148] Top shape: 24 96 28 28 (1806336)
I0403 19:08:46.669589 18870 net.cpp:156] Memory required for data: 515408928
I0403 19:08:46.669605 18870 layer_factory.hpp:77] Creating layer inception_3a/3x3
I0403 19:08:46.669626 18870 net.cpp:91] Creating Layer inception_3a/3x3
I0403 19:08:46.669643 18870 net.cpp:425] inception_3a/3x3 <- inception_3a/3x3_reduce
I0403 19:08:46.669666 18870 net.cpp:399] inception_3a/3x3 -> inception_3a/3x3
I0403 19:08:46.671324 18870 net.cpp:141] Setting up inception_3a/3x3
I0403 19:08:46.671352 18870 net.cpp:148] Top shape: 24 128 28 28 (2408448)
I0403 19:08:46.671368 18870 net.cpp:156] Memory required for data: 525042720
I0403 19:08:46.671386 18870 layer_factory.hpp:77] Creating layer inception_3a/relu_3x3
I0403 19:08:46.671406 18870 net.cpp:91] Creating Layer inception_3a/relu_3x3
I0403 19:08:46.671422 18870 net.cpp:425] inception_3a/relu_3x3 <- inception_3a/3x3
I0403 19:08:46.671440 18870 net.cpp:386] inception_3a/relu_3x3 -> inception_3a/3x3 (in-place)
I0403 19:08:46.671710 18870 net.cpp:141] Setting up inception_3a/relu_3x3
I0403 19:08:46.671735 18870 net.cpp:148] Top shape: 24 128 28 28 (2408448)
I0403 19:08:46.671749 18870 net.cpp:156] Memory required for data: 534676512
I0403 19:08:46.671764 18870 layer_factory.hpp:77] Creating layer inception_3a/5x5_reduce
I0403 19:08:46.671788 18870 net.cpp:91] Creating Layer inception_3a/5x5_reduce
I0403 19:08:46.671805 18870 net.cpp:425] inception_3a/5x5_reduce <- pool2/3x3_s2_pool2/3x3_s2_0_split_2
I0403 19:08:46.671825 18870 net.cpp:399] inception_3a/5x5_reduce -> inception_3a/5x5_reduce
I0403 19:08:46.672782 18870 net.cpp:141] Setting up inception_3a/5x5_reduce
I0403 19:08:46.672811 18870 net.cpp:148] Top shape: 24 16 28 28 (301056)
I0403 19:08:46.672828 18870 net.cpp:156] Memory required for data: 535880736
I0403 19:08:46.672847 18870 layer_factory.hpp:77] Creating layer inception_3a/relu_5x5_reduce
I0403 19:08:46.672864 18870 net.cpp:91] Creating Layer inception_3a/relu_5x5_reduce
I0403 19:08:46.672881 18870 net.cpp:425] inception_3a/relu_5x5_reduce <- inception_3a/5x5_reduce
I0403 19:08:46.672902 18870 net.cpp:386] inception_3a/relu_5x5_reduce -> inception_3a/5x5_reduce (in-place)
I0403 19:08:46.673197 18870 net.cpp:141] Setting up inception_3a/relu_5x5_reduce
I0403 19:08:46.673224 18870 net.cpp:148] Top shape: 24 16 28 28 (301056)
I0403 19:08:46.673240 18870 net.cpp:156] Memory required for data: 537084960
I0403 19:08:46.673255 18870 layer_factory.hpp:77] Creating layer inception_3a/5x5
I0403 19:08:46.673277 18870 net.cpp:91] Creating Layer inception_3a/5x5
I0403 19:08:46.673295 18870 net.cpp:425] inception_3a/5x5 <- inception_3a/5x5_reduce
I0403 19:08:46.673317 18870 net.cpp:399] inception_3a/5x5 -> inception_3a/5x5
I0403 19:08:46.674296 18870 net.cpp:141] Setting up inception_3a/5x5
I0403 19:08:46.674324 18870 net.cpp:148] Top shape: 24 32 28 28 (602112)
I0403 19:08:46.674338 18870 net.cpp:156] Memory required for data: 539493408
I0403 19:08:46.674356 18870 layer_factory.hpp:77] Creating layer inception_3a/relu_5x5
I0403 19:08:46.674376 18870 net.cpp:91] Creating Layer inception_3a/relu_5x5
I0403 19:08:46.674393 18870 net.cpp:425] inception_3a/relu_5x5 <- inception_3a/5x5
I0403 19:08:46.674412 18870 net.cpp:386] inception_3a/relu_5x5 -> inception_3a/5x5 (in-place)
I0403 19:08:46.674578 18870 net.cpp:141] Setting up inception_3a/relu_5x5
I0403 19:08:46.674605 18870 net.cpp:148] Top shape: 24 32 28 28 (602112)
I0403 19:08:46.674620 18870 net.cpp:156] Memory required for data: 541901856
I0403 19:08:46.674635 18870 layer_factory.hpp:77] Creating layer inception_3a/pool
I0403 19:08:46.674654 18870 net.cpp:91] Creating Layer inception_3a/pool
I0403 19:08:46.674682 18870 net.cpp:425] inception_3a/pool <- pool2/3x3_s2_pool2/3x3_s2_0_split_3
I0403 19:08:46.674703 18870 net.cpp:399] inception_3a/pool -> inception_3a/pool
I0403 19:08:46.674759 18870 net.cpp:141] Setting up inception_3a/pool
I0403 19:08:46.674782 18870 net.cpp:148] Top shape: 24 192 28 28 (3612672)
I0403 19:08:46.674798 18870 net.cpp:156] Memory required for data: 556352544
I0403 19:08:46.674811 18870 layer_factory.hpp:77] Creating layer inception_3a/pool_proj
I0403 19:08:46.674834 18870 net.cpp:91] Creating Layer inception_3a/pool_proj
I0403 19:08:46.674854 18870 net.cpp:425] inception_3a/pool_proj <- inception_3a/pool
I0403 19:08:46.674872 18870 net.cpp:399] inception_3a/pool_proj -> inception_3a/pool_proj
I0403 19:08:46.675801 18870 net.cpp:141] Setting up inception_3a/pool_proj
I0403 19:08:46.675827 18870 net.cpp:148] Top shape: 24 32 28 28 (602112)
I0403 19:08:46.675843 18870 net.cpp:156] Memory required for data: 558760992
I0403 19:08:46.675866 18870 layer_factory.hpp:77] Creating layer inception_3a/relu_pool_proj
I0403 19:08:46.675885 18870 net.cpp:91] Creating Layer inception_3a/relu_pool_proj
I0403 19:08:46.675901 18870 net.cpp:425] inception_3a/relu_pool_proj <- inception_3a/pool_proj
I0403 19:08:46.675921 18870 net.cpp:386] inception_3a/relu_pool_proj -> inception_3a/pool_proj (in-place)
I0403 19:08:46.676187 18870 net.cpp:141] Setting up inception_3a/relu_pool_proj
I0403 19:08:46.676214 18870 net.cpp:148] Top shape: 24 32 28 28 (602112)
I0403 19:08:46.676229 18870 net.cpp:156] Memory required for data: 561169440
I0403 19:08:46.676245 18870 layer_factory.hpp:77] Creating layer inception_3a/output
I0403 19:08:46.676265 18870 net.cpp:91] Creating Layer inception_3a/output
I0403 19:08:46.676281 18870 net.cpp:425] inception_3a/output <- inception_3a/1x1
I0403 19:08:46.676297 18870 net.cpp:425] inception_3a/output <- inception_3a/3x3
I0403 19:08:46.676313 18870 net.cpp:425] inception_3a/output <- inception_3a/5x5
I0403 19:08:46.676329 18870 net.cpp:425] inception_3a/output <- inception_3a/pool_proj
I0403 19:08:46.676345 18870 net.cpp:399] inception_3a/output -> inception_3a/output
I0403 19:08:46.676393 18870 net.cpp:141] Setting up inception_3a/output
I0403 19:08:46.676414 18870 net.cpp:148] Top shape: 24 256 28 28 (4816896)
I0403 19:08:46.676429 18870 net.cpp:156] Memory required for data: 580437024
I0403 19:08:46.676443 18870 layer_factory.hpp:77] Creating layer inception_3a/output_inception_3a/output_0_split
I0403 19:08:46.676461 18870 net.cpp:91] Creating Layer inception_3a/output_inception_3a/output_0_split
I0403 19:08:46.676477 18870 net.cpp:425] inception_3a/output_inception_3a/output_0_split <- inception_3a/output
I0403 19:08:46.676496 18870 net.cpp:399] inception_3a/output_inception_3a/output_0_split -> inception_3a/output_inception_3a/output_0_split_0
I0403 19:08:46.676517 18870 net.cpp:399] inception_3a/output_inception_3a/output_0_split -> inception_3a/output_inception_3a/output_0_split_1
I0403 19:08:46.676542 18870 net.cpp:399] inception_3a/output_inception_3a/output_0_split -> inception_3a/output_inception_3a/output_0_split_2
I0403 19:08:46.676563 18870 net.cpp:399] inception_3a/output_inception_3a/output_0_split -> inception_3a/output_inception_3a/output_0_split_3
I0403 19:08:46.676635 18870 net.cpp:141] Setting up inception_3a/output_inception_3a/output_0_split
I0403 19:08:46.676657 18870 net.cpp:148] Top shape: 24 256 28 28 (4816896)
I0403 19:08:46.676676 18870 net.cpp:148] Top shape: 24 256 28 28 (4816896)
I0403 19:08:46.676692 18870 net.cpp:148] Top shape: 24 256 28 28 (4816896)
I0403 19:08:46.676707 18870 net.cpp:148] Top shape: 24 256 28 28 (4816896)
I0403 19:08:46.676722 18870 net.cpp:156] Memory required for data: 657507360
I0403 19:08:46.676736 18870 layer_factory.hpp:77] Creating layer inception_3b/1x1
I0403 19:08:46.676756 18870 net.cpp:91] Creating Layer inception_3b/1x1
I0403 19:08:46.676772 18870 net.cpp:425] inception_3b/1x1 <- inception_3a/output_inception_3a/output_0_split_0
I0403 19:08:46.676795 18870 net.cpp:399] inception_3b/1x1 -> inception_3b/1x1
I0403 19:08:46.677882 18870 net.cpp:141] Setting up inception_3b/1x1
I0403 19:08:46.677920 18870 net.cpp:148] Top shape: 24 128 28 28 (2408448)
I0403 19:08:46.677937 18870 net.cpp:156] Memory required for data: 667141152
I0403 19:08:46.677953 18870 layer_factory.hpp:77] Creating layer inception_3b/relu_1x1
I0403 19:08:46.677975 18870 net.cpp:91] Creating Layer inception_3b/relu_1x1
I0403 19:08:46.677997 18870 net.cpp:425] inception_3b/relu_1x1 <- inception_3b/1x1
I0403 19:08:46.678014 18870 net.cpp:386] inception_3b/relu_1x1 -> inception_3b/1x1 (in-place)
I0403 19:08:46.678182 18870 net.cpp:141] Setting up inception_3b/relu_1x1
I0403 19:08:46.678207 18870 net.cpp:148] Top shape: 24 128 28 28 (2408448)
I0403 19:08:46.678222 18870 net.cpp:156] Memory required for data: 676774944
I0403 19:08:46.678237 18870 layer_factory.hpp:77] Creating layer inception_3b/3x3_reduce
I0403 19:08:46.678261 18870 net.cpp:91] Creating Layer inception_3b/3x3_reduce
I0403 19:08:46.678277 18870 net.cpp:425] inception_3b/3x3_reduce <- inception_3a/output_inception_3a/output_0_split_1
I0403 19:08:46.678297 18870 net.cpp:399] inception_3b/3x3_reduce -> inception_3b/3x3_reduce
I0403 19:08:46.679404 18870 net.cpp:141] Setting up inception_3b/3x3_reduce
I0403 19:08:46.679430 18870 net.cpp:148] Top shape: 24 128 28 28 (2408448)
I0403 19:08:46.679446 18870 net.cpp:156] Memory required for data: 686408736
I0403 19:08:46.679464 18870 layer_factory.hpp:77] Creating layer inception_3b/relu_3x3_reduce
I0403 19:08:46.679484 18870 net.cpp:91] Creating Layer inception_3b/relu_3x3_reduce
I0403 19:08:46.679502 18870 net.cpp:425] inception_3b/relu_3x3_reduce <- inception_3b/3x3_reduce
I0403 19:08:46.679519 18870 net.cpp:386] inception_3b/relu_3x3_reduce -> inception_3b/3x3_reduce (in-place)
I0403 19:08:46.679684 18870 net.cpp:141] Setting up inception_3b/relu_3x3_reduce
I0403 19:08:46.679711 18870 net.cpp:148] Top shape: 24 128 28 28 (2408448)
I0403 19:08:46.679726 18870 net.cpp:156] Memory required for data: 696042528
I0403 19:08:46.679741 18870 layer_factory.hpp:77] Creating layer inception_3b/3x3
I0403 19:08:46.679765 18870 net.cpp:91] Creating Layer inception_3b/3x3
I0403 19:08:46.679783 18870 net.cpp:425] inception_3b/3x3 <- inception_3b/3x3_reduce
I0403 19:08:46.679805 18870 net.cpp:399] inception_3b/3x3 -> inception_3b/3x3
I0403 19:08:46.682596 18870 net.cpp:141] Setting up inception_3b/3x3
I0403 19:08:46.682624 18870 net.cpp:148] Top shape: 24 192 28 28 (3612672)
I0403 19:08:46.682641 18870 net.cpp:156] Memory required for data: 710493216
I0403 19:08:46.682657 18870 layer_factory.hpp:77] Creating layer inception_3b/relu_3x3
I0403 19:08:46.682677 18870 net.cpp:91] Creating Layer inception_3b/relu_3x3
I0403 19:08:46.682695 18870 net.cpp:425] inception_3b/relu_3x3 <- inception_3b/3x3
I0403 19:08:46.682713 18870 net.cpp:386] inception_3b/relu_3x3 -> inception_3b/3x3 (in-place)
I0403 19:08:46.682976 18870 net.cpp:141] Setting up inception_3b/relu_3x3
I0403 19:08:46.683006 18870 net.cpp:148] Top shape: 24 192 28 28 (3612672)
I0403 19:08:46.683020 18870 net.cpp:156] Memory required for data: 724943904
I0403 19:08:46.683035 18870 layer_factory.hpp:77] Creating layer inception_3b/5x5_reduce
I0403 19:08:46.683060 18870 net.cpp:91] Creating Layer inception_3b/5x5_reduce
I0403 19:08:46.683079 18870 net.cpp:425] inception_3b/5x5_reduce <- inception_3a/output_inception_3a/output_0_split_2
I0403 19:08:46.683097 18870 net.cpp:399] inception_3b/5x5_reduce -> inception_3b/5x5_reduce
I0403 19:08:46.684084 18870 net.cpp:141] Setting up inception_3b/5x5_reduce
I0403 19:08:46.684111 18870 net.cpp:148] Top shape: 24 32 28 28 (602112)
I0403 19:08:46.684128 18870 net.cpp:156] Memory required for data: 727352352
I0403 19:08:46.684145 18870 layer_factory.hpp:77] Creating layer inception_3b/relu_5x5_reduce
I0403 19:08:46.684166 18870 net.cpp:91] Creating Layer inception_3b/relu_5x5_reduce
I0403 19:08:46.684183 18870 net.cpp:425] inception_3b/relu_5x5_reduce <- inception_3b/5x5_reduce
I0403 19:08:46.684201 18870 net.cpp:386] inception_3b/relu_5x5_reduce -> inception_3b/5x5_reduce (in-place)
I0403 19:08:46.684382 18870 net.cpp:141] Setting up inception_3b/relu_5x5_reduce
I0403 19:08:46.684408 18870 net.cpp:148] Top shape: 24 32 28 28 (602112)
I0403 19:08:46.684423 18870 net.cpp:156] Memory required for data: 729760800
I0403 19:08:46.684438 18870 layer_factory.hpp:77] Creating layer inception_3b/5x5
I0403 19:08:46.684460 18870 net.cpp:91] Creating Layer inception_3b/5x5
I0403 19:08:46.684478 18870 net.cpp:425] inception_3b/5x5 <- inception_3b/5x5_reduce
I0403 19:08:46.684501 18870 net.cpp:399] inception_3b/5x5 -> inception_3b/5x5
I0403 19:08:46.686458 18870 net.cpp:141] Setting up inception_3b/5x5
I0403 19:08:46.686486 18870 net.cpp:148] Top shape: 24 96 28 28 (1806336)
I0403 19:08:46.686501 18870 net.cpp:156] Memory required for data: 736986144
I0403 19:08:46.686520 18870 layer_factory.hpp:77] Creating layer inception_3b/relu_5x5
I0403 19:08:46.686540 18870 net.cpp:91] Creating Layer inception_3b/relu_5x5
I0403 19:08:46.686558 18870 net.cpp:425] inception_3b/relu_5x5 <- inception_3b/5x5
I0403 19:08:46.686574 18870 net.cpp:386] inception_3b/relu_5x5 -> inception_3b/5x5 (in-place)
I0403 19:08:46.686758 18870 net.cpp:141] Setting up inception_3b/relu_5x5
I0403 19:08:46.686782 18870 net.cpp:148] Top shape: 24 96 28 28 (1806336)
I0403 19:08:46.686797 18870 net.cpp:156] Memory required for data: 744211488
I0403 19:08:46.686812 18870 layer_factory.hpp:77] Creating layer inception_3b/pool
I0403 19:08:46.686830 18870 net.cpp:91] Creating Layer inception_3b/pool
I0403 19:08:46.686846 18870 net.cpp:425] inception_3b/pool <- inception_3a/output_inception_3a/output_0_split_3
I0403 19:08:46.686863 18870 net.cpp:399] inception_3b/pool -> inception_3b/pool
I0403 19:08:46.686918 18870 net.cpp:141] Setting up inception_3b/pool
I0403 19:08:46.686952 18870 net.cpp:148] Top shape: 24 256 28 28 (4816896)
I0403 19:08:46.686967 18870 net.cpp:156] Memory required for data: 763479072
I0403 19:08:46.686987 18870 layer_factory.hpp:77] Creating layer inception_3b/pool_proj
I0403 19:08:46.687012 18870 net.cpp:91] Creating Layer inception_3b/pool_proj
I0403 19:08:46.687031 18870 net.cpp:425] inception_3b/pool_proj <- inception_3b/pool
I0403 19:08:46.687052 18870 net.cpp:399] inception_3b/pool_proj -> inception_3b/pool_proj
I0403 19:08:46.688089 18870 net.cpp:141] Setting up inception_3b/pool_proj
I0403 19:08:46.688117 18870 net.cpp:148] Top shape: 24 64 28 28 (1204224)
I0403 19:08:46.688132 18870 net.cpp:156] Memory required for data: 768295968
I0403 19:08:46.688149 18870 layer_factory.hpp:77] Creating layer inception_3b/relu_pool_proj
I0403 19:08:46.688168 18870 net.cpp:91] Creating Layer inception_3b/relu_pool_proj
I0403 19:08:46.688184 18870 net.cpp:425] inception_3b/relu_pool_proj <- inception_3b/pool_proj
I0403 19:08:46.688204 18870 net.cpp:386] inception_3b/relu_pool_proj -> inception_3b/pool_proj (in-place)
I0403 19:08:46.688591 18870 net.cpp:141] Setting up inception_3b/relu_pool_proj
I0403 19:08:46.688619 18870 net.cpp:148] Top shape: 24 64 28 28 (1204224)
I0403 19:08:46.688635 18870 net.cpp:156] Memory required for data: 773112864
I0403 19:08:46.688650 18870 layer_factory.hpp:77] Creating layer inception_3b/output
I0403 19:08:46.688668 18870 net.cpp:91] Creating Layer inception_3b/output
I0403 19:08:46.688683 18870 net.cpp:425] inception_3b/output <- inception_3b/1x1
I0403 19:08:46.688699 18870 net.cpp:425] inception_3b/output <- inception_3b/3x3
I0403 19:08:46.688716 18870 net.cpp:425] inception_3b/output <- inception_3b/5x5
I0403 19:08:46.688731 18870 net.cpp:425] inception_3b/output <- inception_3b/pool_proj
I0403 19:08:46.688751 18870 net.cpp:399] inception_3b/output -> inception_3b/output
I0403 19:08:46.688794 18870 net.cpp:141] Setting up inception_3b/output
I0403 19:08:46.688817 18870 net.cpp:148] Top shape: 24 480 28 28 (9031680)
I0403 19:08:46.688832 18870 net.cpp:156] Memory required for data: 809239584
I0403 19:08:46.688846 18870 layer_factory.hpp:77] Creating layer pool3/3x3_s2
I0403 19:08:46.688866 18870 net.cpp:91] Creating Layer pool3/3x3_s2
I0403 19:08:46.688882 18870 net.cpp:425] pool3/3x3_s2 <- inception_3b/output
I0403 19:08:46.688915 18870 net.cpp:399] pool3/3x3_s2 -> pool3/3x3_s2
I0403 19:08:46.688973 18870 net.cpp:141] Setting up pool3/3x3_s2
I0403 19:08:46.689007 18870 net.cpp:148] Top shape: 24 480 14 14 (2257920)
I0403 19:08:46.689021 18870 net.cpp:156] Memory required for data: 818271264
I0403 19:08:46.689036 18870 layer_factory.hpp:77] Creating layer pool3/3x3_s2_pool3/3x3_s2_0_split
I0403 19:08:46.689054 18870 net.cpp:91] Creating Layer pool3/3x3_s2_pool3/3x3_s2_0_split
I0403 19:08:46.689069 18870 net.cpp:425] pool3/3x3_s2_pool3/3x3_s2_0_split <- pool3/3x3_s2
I0403 19:08:46.689088 18870 net.cpp:399] pool3/3x3_s2_pool3/3x3_s2_0_split -> pool3/3x3_s2_pool3/3x3_s2_0_split_0
I0403 19:08:46.689110 18870 net.cpp:399] pool3/3x3_s2_pool3/3x3_s2_0_split -> pool3/3x3_s2_pool3/3x3_s2_0_split_1
I0403 19:08:46.689129 18870 net.cpp:399] pool3/3x3_s2_pool3/3x3_s2_0_split -> pool3/3x3_s2_pool3/3x3_s2_0_split_2
I0403 19:08:46.689149 18870 net.cpp:399] pool3/3x3_s2_pool3/3x3_s2_0_split -> pool3/3x3_s2_pool3/3x3_s2_0_split_3
I0403 19:08:46.689224 18870 net.cpp:141] Setting up pool3/3x3_s2_pool3/3x3_s2_0_split
I0403 19:08:46.689246 18870 net.cpp:148] Top shape: 24 480 14 14 (2257920)
I0403 19:08:46.689262 18870 net.cpp:148] Top shape: 24 480 14 14 (2257920)
I0403 19:08:46.689278 18870 net.cpp:148] Top shape: 24 480 14 14 (2257920)
I0403 19:08:46.689294 18870 net.cpp:148] Top shape: 24 480 14 14 (2257920)
I0403 19:08:46.689308 18870 net.cpp:156] Memory required for data: 854397984
I0403 19:08:46.689322 18870 layer_factory.hpp:77] Creating layer inception_4a/1x1
I0403 19:08:46.689345 18870 net.cpp:91] Creating Layer inception_4a/1x1
I0403 19:08:46.689363 18870 net.cpp:425] inception_4a/1x1 <- pool3/3x3_s2_pool3/3x3_s2_0_split_0
I0403 19:08:46.689383 18870 net.cpp:399] inception_4a/1x1 -> inception_4a/1x1
I0403 19:08:46.690946 18870 net.cpp:141] Setting up inception_4a/1x1
I0403 19:08:46.690973 18870 net.cpp:148] Top shape: 24 192 14 14 (903168)
I0403 19:08:46.690994 18870 net.cpp:156] Memory required for data: 858010656
I0403 19:08:46.691012 18870 layer_factory.hpp:77] Creating layer inception_4a/relu_1x1
I0403 19:08:46.691030 18870 net.cpp:91] Creating Layer inception_4a/relu_1x1
I0403 19:08:46.691045 18870 net.cpp:425] inception_4a/relu_1x1 <- inception_4a/1x1
I0403 19:08:46.691064 18870 net.cpp:386] inception_4a/relu_1x1 -> inception_4a/1x1 (in-place)
I0403 19:08:46.691234 18870 net.cpp:141] Setting up inception_4a/relu_1x1
I0403 19:08:46.691258 18870 net.cpp:148] Top shape: 24 192 14 14 (903168)
I0403 19:08:46.691273 18870 net.cpp:156] Memory required for data: 861623328
I0403 19:08:46.691288 18870 layer_factory.hpp:77] Creating layer inception_4a/3x3_reduce
I0403 19:08:46.691310 18870 net.cpp:91] Creating Layer inception_4a/3x3_reduce
I0403 19:08:46.691329 18870 net.cpp:425] inception_4a/3x3_reduce <- pool3/3x3_s2_pool3/3x3_s2_0_split_1
I0403 19:08:46.691349 18870 net.cpp:399] inception_4a/3x3_reduce -> inception_4a/3x3_reduce
I0403 19:08:46.692570 18870 net.cpp:141] Setting up inception_4a/3x3_reduce
I0403 19:08:46.692598 18870 net.cpp:148] Top shape: 24 96 14 14 (451584)
I0403 19:08:46.692613 18870 net.cpp:156] Memory required for data: 863429664
I0403 19:08:46.692636 18870 layer_factory.hpp:77] Creating layer inception_4a/relu_3x3_reduce
I0403 19:08:46.692656 18870 net.cpp:91] Creating Layer inception_4a/relu_3x3_reduce
I0403 19:08:46.692672 18870 net.cpp:425] inception_4a/relu_3x3_reduce <- inception_4a/3x3_reduce
I0403 19:08:46.692692 18870 net.cpp:386] inception_4a/relu_3x3_reduce -> inception_4a/3x3_reduce (in-place)
I0403 19:08:46.692859 18870 net.cpp:141] Setting up inception_4a/relu_3x3_reduce
I0403 19:08:46.692884 18870 net.cpp:148] Top shape: 24 96 14 14 (451584)
I0403 19:08:46.692898 18870 net.cpp:156] Memory required for data: 865236000
I0403 19:08:46.692925 18870 layer_factory.hpp:77] Creating layer inception_4a/3x3
I0403 19:08:46.692948 18870 net.cpp:91] Creating Layer inception_4a/3x3
I0403 19:08:46.692967 18870 net.cpp:425] inception_4a/3x3 <- inception_4a/3x3_reduce
I0403 19:08:46.692993 18870 net.cpp:399] inception_4a/3x3 -> inception_4a/3x3
I0403 19:08:46.695575 18870 net.cpp:141] Setting up inception_4a/3x3
I0403 19:08:46.695603 18870 net.cpp:148] Top shape: 24 208 14 14 (978432)
I0403 19:08:46.695619 18870 net.cpp:156] Memory required for data: 869149728
I0403 19:08:46.695638 18870 layer_factory.hpp:77] Creating layer inception_4a/relu_3x3
I0403 19:08:46.695658 18870 net.cpp:91] Creating Layer inception_4a/relu_3x3
I0403 19:08:46.695675 18870 net.cpp:425] inception_4a/relu_3x3 <- inception_4a/3x3
I0403 19:08:46.695693 18870 net.cpp:386] inception_4a/relu_3x3 -> inception_4a/3x3 (in-place)
I0403 19:08:46.695973 18870 net.cpp:141] Setting up inception_4a/relu_3x3
I0403 19:08:46.696004 18870 net.cpp:148] Top shape: 24 208 14 14 (978432)
I0403 19:08:46.696019 18870 net.cpp:156] Memory required for data: 873063456
I0403 19:08:46.696035 18870 layer_factory.hpp:77] Creating layer inception_4a/5x5_reduce
I0403 19:08:46.696058 18870 net.cpp:91] Creating Layer inception_4a/5x5_reduce
I0403 19:08:46.696076 18870 net.cpp:425] inception_4a/5x5_reduce <- pool3/3x3_s2_pool3/3x3_s2_0_split_2
I0403 19:08:46.696100 18870 net.cpp:399] inception_4a/5x5_reduce -> inception_4a/5x5_reduce
I0403 19:08:46.697093 18870 net.cpp:141] Setting up inception_4a/5x5_reduce
I0403 19:08:46.697120 18870 net.cpp:148] Top shape: 24 16 14 14 (75264)
I0403 19:08:46.697135 18870 net.cpp:156] Memory required for data: 873364512
I0403 19:08:46.697154 18870 layer_factory.hpp:77] Creating layer inception_4a/relu_5x5_reduce
I0403 19:08:46.697173 18870 net.cpp:91] Creating Layer inception_4a/relu_5x5_reduce
I0403 19:08:46.697190 18870 net.cpp:425] inception_4a/relu_5x5_reduce <- inception_4a/5x5_reduce
I0403 19:08:46.697209 18870 net.cpp:386] inception_4a/relu_5x5_reduce -> inception_4a/5x5_reduce (in-place)
I0403 19:08:46.697377 18870 net.cpp:141] Setting up inception_4a/relu_5x5_reduce
I0403 19:08:46.697404 18870 net.cpp:148] Top shape: 24 16 14 14 (75264)
I0403 19:08:46.697419 18870 net.cpp:156] Memory required for data: 873665568
I0403 19:08:46.697434 18870 layer_factory.hpp:77] Creating layer inception_4a/5x5
I0403 19:08:46.697456 18870 net.cpp:91] Creating Layer inception_4a/5x5
I0403 19:08:46.697474 18870 net.cpp:425] inception_4a/5x5 <- inception_4a/5x5_reduce
I0403 19:08:46.697494 18870 net.cpp:399] inception_4a/5x5 -> inception_4a/5x5
I0403 19:08:46.698537 18870 net.cpp:141] Setting up inception_4a/5x5
I0403 19:08:46.698566 18870 net.cpp:148] Top shape: 24 48 14 14 (225792)
I0403 19:08:46.698582 18870 net.cpp:156] Memory required for data: 874568736
I0403 19:08:46.698601 18870 layer_factory.hpp:77] Creating layer inception_4a/relu_5x5
I0403 19:08:46.698619 18870 net.cpp:91] Creating Layer inception_4a/relu_5x5
I0403 19:08:46.698635 18870 net.cpp:425] inception_4a/relu_5x5 <- inception_4a/5x5
I0403 19:08:46.698655 18870 net.cpp:386] inception_4a/relu_5x5 -> inception_4a/5x5 (in-place)
I0403 19:08:46.698827 18870 net.cpp:141] Setting up inception_4a/relu_5x5
I0403 19:08:46.698851 18870 net.cpp:148] Top shape: 24 48 14 14 (225792)
I0403 19:08:46.698866 18870 net.cpp:156] Memory required for data: 875471904
I0403 19:08:46.698880 18870 layer_factory.hpp:77] Creating layer inception_4a/pool
I0403 19:08:46.698899 18870 net.cpp:91] Creating Layer inception_4a/pool
I0403 19:08:46.698915 18870 net.cpp:425] inception_4a/pool <- pool3/3x3_s2_pool3/3x3_s2_0_split_3
I0403 19:08:46.698935 18870 net.cpp:399] inception_4a/pool -> inception_4a/pool
I0403 19:08:46.699005 18870 net.cpp:141] Setting up inception_4a/pool
I0403 19:08:46.699029 18870 net.cpp:148] Top shape: 24 480 14 14 (2257920)
I0403 19:08:46.699043 18870 net.cpp:156] Memory required for data: 884503584
I0403 19:08:46.699059 18870 layer_factory.hpp:77] Creating layer inception_4a/pool_proj
I0403 19:08:46.699081 18870 net.cpp:91] Creating Layer inception_4a/pool_proj
I0403 19:08:46.699100 18870 net.cpp:425] inception_4a/pool_proj <- inception_4a/pool
I0403 19:08:46.699118 18870 net.cpp:399] inception_4a/pool_proj -> inception_4a/pool_proj
I0403 19:08:46.700235 18870 net.cpp:141] Setting up inception_4a/pool_proj
I0403 19:08:46.700263 18870 net.cpp:148] Top shape: 24 64 14 14 (301056)
I0403 19:08:46.700291 18870 net.cpp:156] Memory required for data: 885707808
I0403 19:08:46.700310 18870 layer_factory.hpp:77] Creating layer inception_4a/relu_pool_proj
I0403 19:08:46.700328 18870 net.cpp:91] Creating Layer inception_4a/relu_pool_proj
I0403 19:08:46.700345 18870 net.cpp:425] inception_4a/relu_pool_proj <- inception_4a/pool_proj
I0403 19:08:46.700364 18870 net.cpp:386] inception_4a/relu_pool_proj -> inception_4a/pool_proj (in-place)
I0403 19:08:46.700637 18870 net.cpp:141] Setting up inception_4a/relu_pool_proj
I0403 19:08:46.700664 18870 net.cpp:148] Top shape: 24 64 14 14 (301056)
I0403 19:08:46.700678 18870 net.cpp:156] Memory required for data: 886912032
I0403 19:08:46.700693 18870 layer_factory.hpp:77] Creating layer inception_4a/output
I0403 19:08:46.700711 18870 net.cpp:91] Creating Layer inception_4a/output
I0403 19:08:46.700726 18870 net.cpp:425] inception_4a/output <- inception_4a/1x1
I0403 19:08:46.700742 18870 net.cpp:425] inception_4a/output <- inception_4a/3x3
I0403 19:08:46.700759 18870 net.cpp:425] inception_4a/output <- inception_4a/5x5
I0403 19:08:46.700774 18870 net.cpp:425] inception_4a/output <- inception_4a/pool_proj
I0403 19:08:46.700793 18870 net.cpp:399] inception_4a/output -> inception_4a/output
I0403 19:08:46.700836 18870 net.cpp:141] Setting up inception_4a/output
I0403 19:08:46.700860 18870 net.cpp:148] Top shape: 24 512 14 14 (2408448)
I0403 19:08:46.700873 18870 net.cpp:156] Memory required for data: 896545824
I0403 19:08:46.700888 18870 layer_factory.hpp:77] Creating layer inception_4a/output_inception_4a/output_0_split
I0403 19:08:46.700908 18870 net.cpp:91] Creating Layer inception_4a/output_inception_4a/output_0_split
I0403 19:08:46.700924 18870 net.cpp:425] inception_4a/output_inception_4a/output_0_split <- inception_4a/output
I0403 19:08:46.700943 18870 net.cpp:399] inception_4a/output_inception_4a/output_0_split -> inception_4a/output_inception_4a/output_0_split_0
I0403 19:08:46.700965 18870 net.cpp:399] inception_4a/output_inception_4a/output_0_split -> inception_4a/output_inception_4a/output_0_split_1
I0403 19:08:46.700989 18870 net.cpp:399] inception_4a/output_inception_4a/output_0_split -> inception_4a/output_inception_4a/output_0_split_2
I0403 19:08:46.701011 18870 net.cpp:399] inception_4a/output_inception_4a/output_0_split -> inception_4a/output_inception_4a/output_0_split_3
I0403 19:08:46.701031 18870 net.cpp:399] inception_4a/output_inception_4a/output_0_split -> inception_4a/output_inception_4a/output_0_split_4
I0403 19:08:46.701122 18870 net.cpp:141] Setting up inception_4a/output_inception_4a/output_0_split
I0403 19:08:46.701143 18870 net.cpp:148] Top shape: 24 512 14 14 (2408448)
I0403 19:08:46.701160 18870 net.cpp:148] Top shape: 24 512 14 14 (2408448)
I0403 19:08:46.701175 18870 net.cpp:148] Top shape: 24 512 14 14 (2408448)
I0403 19:08:46.701191 18870 net.cpp:148] Top shape: 24 512 14 14 (2408448)
I0403 19:08:46.701208 18870 net.cpp:148] Top shape: 24 512 14 14 (2408448)
I0403 19:08:46.701221 18870 net.cpp:156] Memory required for data: 944714784
I0403 19:08:46.701236 18870 layer_factory.hpp:77] Creating layer loss1/ave_pool
I0403 19:08:46.701256 18870 net.cpp:91] Creating Layer loss1/ave_pool
I0403 19:08:46.701272 18870 net.cpp:425] loss1/ave_pool <- inception_4a/output_inception_4a/output_0_split_0
I0403 19:08:46.701290 18870 net.cpp:399] loss1/ave_pool -> loss1/ave_pool
I0403 19:08:46.701489 18870 net.cpp:141] Setting up loss1/ave_pool
I0403 19:08:46.701514 18870 net.cpp:148] Top shape: 24 512 4 4 (196608)
I0403 19:08:46.701529 18870 net.cpp:156] Memory required for data: 945501216
I0403 19:08:46.701544 18870 layer_factory.hpp:77] Creating layer loss1/conv
I0403 19:08:46.701565 18870 net.cpp:91] Creating Layer loss1/conv
I0403 19:08:46.701583 18870 net.cpp:425] loss1/conv <- loss1/ave_pool
I0403 19:08:46.701603 18870 net.cpp:399] loss1/conv -> loss1/conv
I0403 19:08:46.702956 18870 net.cpp:141] Setting up loss1/conv
I0403 19:08:46.702994 18870 net.cpp:148] Top shape: 24 128 4 4 (49152)
I0403 19:08:46.703024 18870 net.cpp:156] Memory required for data: 945697824
I0403 19:08:46.703044 18870 layer_factory.hpp:77] Creating layer loss1/relu_conv
I0403 19:08:46.703065 18870 net.cpp:91] Creating Layer loss1/relu_conv
I0403 19:08:46.703083 18870 net.cpp:425] loss1/relu_conv <- loss1/conv
I0403 19:08:46.703100 18870 net.cpp:386] loss1/relu_conv -> loss1/conv (in-place)
I0403 19:08:46.703377 18870 net.cpp:141] Setting up loss1/relu_conv
I0403 19:08:46.703403 18870 net.cpp:148] Top shape: 24 128 4 4 (49152)
I0403 19:08:46.703418 18870 net.cpp:156] Memory required for data: 945894432
I0403 19:08:46.703433 18870 layer_factory.hpp:77] Creating layer loss1/fc
I0403 19:08:46.703459 18870 net.cpp:91] Creating Layer loss1/fc
I0403 19:08:46.703479 18870 net.cpp:425] loss1/fc <- loss1/conv
I0403 19:08:46.703500 18870 net.cpp:399] loss1/fc -> loss1/fc
I0403 19:08:46.720813 18870 net.cpp:141] Setting up loss1/fc
I0403 19:08:46.720847 18870 net.cpp:148] Top shape: 24 1024 (24576)
I0403 19:08:46.720863 18870 net.cpp:156] Memory required for data: 945992736
I0403 19:08:46.720883 18870 layer_factory.hpp:77] Creating layer loss1/relu_fc
I0403 19:08:46.720902 18870 net.cpp:91] Creating Layer loss1/relu_fc
I0403 19:08:46.720919 18870 net.cpp:425] loss1/relu_fc <- loss1/fc
I0403 19:08:46.720939 18870 net.cpp:386] loss1/relu_fc -> loss1/fc (in-place)
I0403 19:08:46.721118 18870 net.cpp:141] Setting up loss1/relu_fc
I0403 19:08:46.721143 18870 net.cpp:148] Top shape: 24 1024 (24576)
I0403 19:08:46.721158 18870 net.cpp:156] Memory required for data: 946091040
I0403 19:08:46.721174 18870 layer_factory.hpp:77] Creating layer loss1/drop_fc
I0403 19:08:46.721201 18870 net.cpp:91] Creating Layer loss1/drop_fc
I0403 19:08:46.721220 18870 net.cpp:425] loss1/drop_fc <- loss1/fc
I0403 19:08:46.721237 18870 net.cpp:386] loss1/drop_fc -> loss1/fc (in-place)
I0403 19:08:46.721287 18870 net.cpp:141] Setting up loss1/drop_fc
I0403 19:08:46.721312 18870 net.cpp:148] Top shape: 24 1024 (24576)
I0403 19:08:46.721328 18870 net.cpp:156] Memory required for data: 946189344
I0403 19:08:46.721343 18870 layer_factory.hpp:77] Creating layer loss1/classifier_plantvillage
I0403 19:08:46.721360 18870 net.cpp:91] Creating Layer loss1/classifier_plantvillage
I0403 19:08:46.721376 18870 net.cpp:425] loss1/classifier_plantvillage <- loss1/fc
I0403 19:08:46.721398 18870 net.cpp:399] loss1/classifier_plantvillage -> loss1/classifier_plantvillage
I0403 19:08:46.722275 18870 net.cpp:141] Setting up loss1/classifier_plantvillage
I0403 19:08:46.722302 18870 net.cpp:148] Top shape: 24 38 (912)
I0403 19:08:46.722316 18870 net.cpp:156] Memory required for data: 946192992
I0403 19:08:46.722335 18870 layer_factory.hpp:77] Creating layer loss1/classifier_plantvillage_loss1/classifier_plantvillage_0_split
I0403 19:08:46.722352 18870 net.cpp:91] Creating Layer loss1/classifier_plantvillage_loss1/classifier_plantvillage_0_split
I0403 19:08:46.722368 18870 net.cpp:425] loss1/classifier_plantvillage_loss1/classifier_plantvillage_0_split <- loss1/classifier_plantvillage
I0403 19:08:46.722388 18870 net.cpp:399] loss1/classifier_plantvillage_loss1/classifier_plantvillage_0_split -> loss1/classifier_plantvillage_loss1/classifier_plantvillage_0_split_0
I0403 19:08:46.722410 18870 net.cpp:399] loss1/classifier_plantvillage_loss1/classifier_plantvillage_0_split -> loss1/classifier_plantvillage_loss1/classifier_plantvillage_0_split_1
I0403 19:08:46.722430 18870 net.cpp:399] loss1/classifier_plantvillage_loss1/classifier_plantvillage_0_split -> loss1/classifier_plantvillage_loss1/classifier_plantvillage_0_split_2
I0403 19:08:46.722511 18870 net.cpp:141] Setting up loss1/classifier_plantvillage_loss1/classifier_plantvillage_0_split
I0403 19:08:46.722533 18870 net.cpp:148] Top shape: 24 38 (912)
I0403 19:08:46.722550 18870 net.cpp:148] Top shape: 24 38 (912)
I0403 19:08:46.722566 18870 net.cpp:148] Top shape: 24 38 (912)
I0403 19:08:46.722580 18870 net.cpp:156] Memory required for data: 946203936
I0403 19:08:46.722596 18870 layer_factory.hpp:77] Creating layer inception_4b/1x1
I0403 19:08:46.722620 18870 net.cpp:91] Creating Layer inception_4b/1x1
I0403 19:08:46.722651 18870 net.cpp:425] inception_4b/1x1 <- inception_4a/output_inception_4a/output_0_split_1
I0403 19:08:46.722673 18870 net.cpp:399] inception_4b/1x1 -> inception_4b/1x1
I0403 19:08:46.724278 18870 net.cpp:141] Setting up inception_4b/1x1
I0403 19:08:46.724305 18870 net.cpp:148] Top shape: 24 160 14 14 (752640)
I0403 19:08:46.724321 18870 net.cpp:156] Memory required for data: 949214496
I0403 19:08:46.724339 18870 layer_factory.hpp:77] Creating layer inception_4b/relu_1x1
I0403 19:08:46.724359 18870 net.cpp:91] Creating Layer inception_4b/relu_1x1
I0403 19:08:46.724377 18870 net.cpp:425] inception_4b/relu_1x1 <- inception_4b/1x1
I0403 19:08:46.724395 18870 net.cpp:386] inception_4b/relu_1x1 -> inception_4b/1x1 (in-place)
I0403 19:08:46.724567 18870 net.cpp:141] Setting up inception_4b/relu_1x1
I0403 19:08:46.724594 18870 net.cpp:148] Top shape: 24 160 14 14 (752640)
I0403 19:08:46.724609 18870 net.cpp:156] Memory required for data: 952225056
I0403 19:08:46.724624 18870 layer_factory.hpp:77] Creating layer inception_4b/3x3_reduce
I0403 19:08:46.724650 18870 net.cpp:91] Creating Layer inception_4b/3x3_reduce
I0403 19:08:46.724668 18870 net.cpp:425] inception_4b/3x3_reduce <- inception_4a/output_inception_4a/output_0_split_2
I0403 19:08:46.724689 18870 net.cpp:399] inception_4b/3x3_reduce -> inception_4b/3x3_reduce
I0403 19:08:46.725992 18870 net.cpp:141] Setting up inception_4b/3x3_reduce
I0403 19:08:46.726022 18870 net.cpp:148] Top shape: 24 112 14 14 (526848)
I0403 19:08:46.726039 18870 net.cpp:156] Memory required for data: 954332448
I0403 19:08:46.726058 18870 layer_factory.hpp:77] Creating layer inception_4b/relu_3x3_reduce
I0403 19:08:46.726075 18870 net.cpp:91] Creating Layer inception_4b/relu_3x3_reduce
I0403 19:08:46.726092 18870 net.cpp:425] inception_4b/relu_3x3_reduce <- inception_4b/3x3_reduce
I0403 19:08:46.726109 18870 net.cpp:386] inception_4b/relu_3x3_reduce -> inception_4b/3x3_reduce (in-place)
I0403 19:08:46.726395 18870 net.cpp:141] Setting up inception_4b/relu_3x3_reduce
I0403 19:08:46.726424 18870 net.cpp:148] Top shape: 24 112 14 14 (526848)
I0403 19:08:46.726440 18870 net.cpp:156] Memory required for data: 956439840
I0403 19:08:46.726455 18870 layer_factory.hpp:77] Creating layer inception_4b/3x3
I0403 19:08:46.726477 18870 net.cpp:91] Creating Layer inception_4b/3x3
I0403 19:08:46.726495 18870 net.cpp:425] inception_4b/3x3 <- inception_4b/3x3_reduce
I0403 19:08:46.726514 18870 net.cpp:399] inception_4b/3x3 -> inception_4b/3x3
I0403 19:08:46.729396 18870 net.cpp:141] Setting up inception_4b/3x3
I0403 19:08:46.729425 18870 net.cpp:148] Top shape: 24 224 14 14 (1053696)
I0403 19:08:46.729441 18870 net.cpp:156] Memory required for data: 960654624
I0403 19:08:46.729460 18870 layer_factory.hpp:77] Creating layer inception_4b/relu_3x3
I0403 19:08:46.729477 18870 net.cpp:91] Creating Layer inception_4b/relu_3x3
I0403 19:08:46.729495 18870 net.cpp:425] inception_4b/relu_3x3 <- inception_4b/3x3
I0403 19:08:46.729514 18870 net.cpp:386] inception_4b/relu_3x3 -> inception_4b/3x3 (in-place)
I0403 19:08:46.729691 18870 net.cpp:141] Setting up inception_4b/relu_3x3
I0403 19:08:46.729715 18870 net.cpp:148] Top shape: 24 224 14 14 (1053696)
I0403 19:08:46.729729 18870 net.cpp:156] Memory required for data: 964869408
I0403 19:08:46.729744 18870 layer_factory.hpp:77] Creating layer inception_4b/5x5_reduce
I0403 19:08:46.729766 18870 net.cpp:91] Creating Layer inception_4b/5x5_reduce
I0403 19:08:46.729784 18870 net.cpp:425] inception_4b/5x5_reduce <- inception_4a/output_inception_4a/output_0_split_3
I0403 19:08:46.729807 18870 net.cpp:399] inception_4b/5x5_reduce -> inception_4b/5x5_reduce
I0403 19:08:46.730849 18870 net.cpp:141] Setting up inception_4b/5x5_reduce
I0403 19:08:46.730878 18870 net.cpp:148] Top shape: 24 24 14 14 (112896)
I0403 19:08:46.730895 18870 net.cpp:156] Memory required for data: 965320992
I0403 19:08:46.730913 18870 layer_factory.hpp:77] Creating layer inception_4b/relu_5x5_reduce
I0403 19:08:46.730931 18870 net.cpp:91] Creating Layer inception_4b/relu_5x5_reduce
I0403 19:08:46.730960 18870 net.cpp:425] inception_4b/relu_5x5_reduce <- inception_4b/5x5_reduce
I0403 19:08:46.730983 18870 net.cpp:386] inception_4b/relu_5x5_reduce -> inception_4b/5x5_reduce (in-place)
I0403 19:08:46.731160 18870 net.cpp:141] Setting up inception_4b/relu_5x5_reduce
I0403 19:08:46.731186 18870 net.cpp:148] Top shape: 24 24 14 14 (112896)
I0403 19:08:46.731204 18870 net.cpp:156] Memory required for data: 965772576
I0403 19:08:46.731220 18870 layer_factory.hpp:77] Creating layer inception_4b/5x5
I0403 19:08:46.731241 18870 net.cpp:91] Creating Layer inception_4b/5x5
I0403 19:08:46.731259 18870 net.cpp:425] inception_4b/5x5 <- inception_4b/5x5_reduce
I0403 19:08:46.731279 18870 net.cpp:399] inception_4b/5x5 -> inception_4b/5x5
I0403 19:08:46.732468 18870 net.cpp:141] Setting up inception_4b/5x5
I0403 19:08:46.732496 18870 net.cpp:148] Top shape: 24 64 14 14 (301056)
I0403 19:08:46.732511 18870 net.cpp:156] Memory required for data: 966976800
I0403 19:08:46.732529 18870 layer_factory.hpp:77] Creating layer inception_4b/relu_5x5
I0403 19:08:46.732549 18870 net.cpp:91] Creating Layer inception_4b/relu_5x5
I0403 19:08:46.732568 18870 net.cpp:425] inception_4b/relu_5x5 <- inception_4b/5x5
I0403 19:08:46.732585 18870 net.cpp:386] inception_4b/relu_5x5 -> inception_4b/5x5 (in-place)
I0403 19:08:46.732866 18870 net.cpp:141] Setting up inception_4b/relu_5x5
I0403 19:08:46.732892 18870 net.cpp:148] Top shape: 24 64 14 14 (301056)
I0403 19:08:46.732905 18870 net.cpp:156] Memory required for data: 968181024
I0403 19:08:46.732921 18870 layer_factory.hpp:77] Creating layer inception_4b/pool
I0403 19:08:46.732940 18870 net.cpp:91] Creating Layer inception_4b/pool
I0403 19:08:46.732959 18870 net.cpp:425] inception_4b/pool <- inception_4a/output_inception_4a/output_0_split_4
I0403 19:08:46.732976 18870 net.cpp:399] inception_4b/pool -> inception_4b/pool
I0403 19:08:46.733047 18870 net.cpp:141] Setting up inception_4b/pool
I0403 19:08:46.733069 18870 net.cpp:148] Top shape: 24 512 14 14 (2408448)
I0403 19:08:46.733084 18870 net.cpp:156] Memory required for data: 977814816
I0403 19:08:46.733099 18870 layer_factory.hpp:77] Creating layer inception_4b/pool_proj
I0403 19:08:46.733121 18870 net.cpp:91] Creating Layer inception_4b/pool_proj
I0403 19:08:46.733139 18870 net.cpp:425] inception_4b/pool_proj <- inception_4b/pool
I0403 19:08:46.733160 18870 net.cpp:399] inception_4b/pool_proj -> inception_4b/pool_proj
I0403 19:08:46.734333 18870 net.cpp:141] Setting up inception_4b/pool_proj
I0403 19:08:46.734360 18870 net.cpp:148] Top shape: 24 64 14 14 (301056)
I0403 19:08:46.734375 18870 net.cpp:156] Memory required for data: 979019040
I0403 19:08:46.734393 18870 layer_factory.hpp:77] Creating layer inception_4b/relu_pool_proj
I0403 19:08:46.734414 18870 net.cpp:91] Creating Layer inception_4b/relu_pool_proj
I0403 19:08:46.734431 18870 net.cpp:425] inception_4b/relu_pool_proj <- inception_4b/pool_proj
I0403 19:08:46.734449 18870 net.cpp:386] inception_4b/relu_pool_proj -> inception_4b/pool_proj (in-place)
I0403 19:08:46.734622 18870 net.cpp:141] Setting up inception_4b/relu_pool_proj
I0403 19:08:46.734647 18870 net.cpp:148] Top shape: 24 64 14 14 (301056)
I0403 19:08:46.734661 18870 net.cpp:156] Memory required for data: 980223264
I0403 19:08:46.734676 18870 layer_factory.hpp:77] Creating layer inception_4b/output
I0403 19:08:46.734694 18870 net.cpp:91] Creating Layer inception_4b/output
I0403 19:08:46.734709 18870 net.cpp:425] inception_4b/output <- inception_4b/1x1
I0403 19:08:46.734726 18870 net.cpp:425] inception_4b/output <- inception_4b/3x3
I0403 19:08:46.734742 18870 net.cpp:425] inception_4b/output <- inception_4b/5x5
I0403 19:08:46.734758 18870 net.cpp:425] inception_4b/output <- inception_4b/pool_proj
I0403 19:08:46.734777 18870 net.cpp:399] inception_4b/output -> inception_4b/output
I0403 19:08:46.734822 18870 net.cpp:141] Setting up inception_4b/output
I0403 19:08:46.734844 18870 net.cpp:148] Top shape: 24 512 14 14 (2408448)
I0403 19:08:46.734861 18870 net.cpp:156] Memory required for data: 989857056
I0403 19:08:46.734889 18870 layer_factory.hpp:77] Creating layer inception_4b/output_inception_4b/output_0_split
I0403 19:08:46.734908 18870 net.cpp:91] Creating Layer inception_4b/output_inception_4b/output_0_split
I0403 19:08:46.734925 18870 net.cpp:425] inception_4b/output_inception_4b/output_0_split <- inception_4b/output
I0403 19:08:46.734942 18870 net.cpp:399] inception_4b/output_inception_4b/output_0_split -> inception_4b/output_inception_4b/output_0_split_0
I0403 19:08:46.734963 18870 net.cpp:399] inception_4b/output_inception_4b/output_0_split -> inception_4b/output_inception_4b/output_0_split_1
I0403 19:08:46.734987 18870 net.cpp:399] inception_4b/output_inception_4b/output_0_split -> inception_4b/output_inception_4b/output_0_split_2
I0403 19:08:46.735011 18870 net.cpp:399] inception_4b/output_inception_4b/output_0_split -> inception_4b/output_inception_4b/output_0_split_3
I0403 19:08:46.735095 18870 net.cpp:141] Setting up inception_4b/output_inception_4b/output_0_split
I0403 19:08:46.735118 18870 net.cpp:148] Top shape: 24 512 14 14 (2408448)
I0403 19:08:46.735134 18870 net.cpp:148] Top shape: 24 512 14 14 (2408448)
I0403 19:08:46.735149 18870 net.cpp:148] Top shape: 24 512 14 14 (2408448)
I0403 19:08:46.735164 18870 net.cpp:148] Top shape: 24 512 14 14 (2408448)
I0403 19:08:46.735178 18870 net.cpp:156] Memory required for data: 1028392224
I0403 19:08:46.735193 18870 layer_factory.hpp:77] Creating layer inception_4c/1x1
I0403 19:08:46.735216 18870 net.cpp:91] Creating Layer inception_4c/1x1
I0403 19:08:46.735234 18870 net.cpp:425] inception_4c/1x1 <- inception_4b/output_inception_4b/output_0_split_0
I0403 19:08:46.735255 18870 net.cpp:399] inception_4c/1x1 -> inception_4c/1x1
I0403 19:08:46.736649 18870 net.cpp:141] Setting up inception_4c/1x1
I0403 19:08:46.736675 18870 net.cpp:148] Top shape: 24 128 14 14 (602112)
I0403 19:08:46.736691 18870 net.cpp:156] Memory required for data: 1030800672
I0403 19:08:46.736709 18870 layer_factory.hpp:77] Creating layer inception_4c/relu_1x1
I0403 19:08:46.736727 18870 net.cpp:91] Creating Layer inception_4c/relu_1x1
I0403 19:08:46.736743 18870 net.cpp:425] inception_4c/relu_1x1 <- inception_4c/1x1
I0403 19:08:46.736763 18870 net.cpp:386] inception_4c/relu_1x1 -> inception_4c/1x1 (in-place)
I0403 19:08:46.736940 18870 net.cpp:141] Setting up inception_4c/relu_1x1
I0403 19:08:46.736964 18870 net.cpp:148] Top shape: 24 128 14 14 (602112)
I0403 19:08:46.736984 18870 net.cpp:156] Memory required for data: 1033209120
I0403 19:08:46.736999 18870 layer_factory.hpp:77] Creating layer inception_4c/3x3_reduce
I0403 19:08:46.737021 18870 net.cpp:91] Creating Layer inception_4c/3x3_reduce
I0403 19:08:46.737040 18870 net.cpp:425] inception_4c/3x3_reduce <- inception_4b/output_inception_4b/output_0_split_1
I0403 19:08:46.737061 18870 net.cpp:399] inception_4c/3x3_reduce -> inception_4c/3x3_reduce
I0403 19:08:46.738927 18870 net.cpp:141] Setting up inception_4c/3x3_reduce
I0403 19:08:46.738955 18870 net.cpp:148] Top shape: 24 128 14 14 (602112)
I0403 19:08:46.738970 18870 net.cpp:156] Memory required for data: 1035617568
I0403 19:08:46.738999 18870 layer_factory.hpp:77] Creating layer inception_4c/relu_3x3_reduce
I0403 19:08:46.739022 18870 net.cpp:91] Creating Layer inception_4c/relu_3x3_reduce
I0403 19:08:46.739039 18870 net.cpp:425] inception_4c/relu_3x3_reduce <- inception_4c/3x3_reduce
I0403 19:08:46.739056 18870 net.cpp:386] inception_4c/relu_3x3_reduce -> inception_4c/3x3_reduce (in-place)
I0403 19:08:46.739336 18870 net.cpp:141] Setting up inception_4c/relu_3x3_reduce
I0403 19:08:46.739362 18870 net.cpp:148] Top shape: 24 128 14 14 (602112)
I0403 19:08:46.739377 18870 net.cpp:156] Memory required for data: 1038026016
I0403 19:08:46.739392 18870 layer_factory.hpp:77] Creating layer inception_4c/3x3
I0403 19:08:46.739414 18870 net.cpp:91] Creating Layer inception_4c/3x3
I0403 19:08:46.739433 18870 net.cpp:425] inception_4c/3x3 <- inception_4c/3x3_reduce
I0403 19:08:46.739454 18870 net.cpp:399] inception_4c/3x3 -> inception_4c/3x3
I0403 19:08:46.742956 18870 net.cpp:141] Setting up inception_4c/3x3
I0403 19:08:46.743001 18870 net.cpp:148] Top shape: 24 256 14 14 (1204224)
I0403 19:08:46.743018 18870 net.cpp:156] Memory required for data: 1042842912
I0403 19:08:46.743051 18870 layer_factory.hpp:77] Creating layer inception_4c/relu_3x3
I0403 19:08:46.743073 18870 net.cpp:91] Creating Layer inception_4c/relu_3x3
I0403 19:08:46.743090 18870 net.cpp:425] inception_4c/relu_3x3 <- inception_4c/3x3
I0403 19:08:46.743109 18870 net.cpp:386] inception_4c/relu_3x3 -> inception_4c/3x3 (in-place)
I0403 19:08:46.743299 18870 net.cpp:141] Setting up inception_4c/relu_3x3
I0403 19:08:46.743326 18870 net.cpp:148] Top shape: 24 256 14 14 (1204224)
I0403 19:08:46.743341 18870 net.cpp:156] Memory required for data: 1047659808
I0403 19:08:46.743356 18870 layer_factory.hpp:77] Creating layer inception_4c/5x5_reduce
I0403 19:08:46.743376 18870 net.cpp:91] Creating Layer inception_4c/5x5_reduce
I0403 19:08:46.743393 18870 net.cpp:425] inception_4c/5x5_reduce <- inception_4b/output_inception_4b/output_0_split_2
I0403 19:08:46.743419 18870 net.cpp:399] inception_4c/5x5_reduce -> inception_4c/5x5_reduce
I0403 19:08:46.744477 18870 net.cpp:141] Setting up inception_4c/5x5_reduce
I0403 19:08:46.744503 18870 net.cpp:148] Top shape: 24 24 14 14 (112896)
I0403 19:08:46.744518 18870 net.cpp:156] Memory required for data: 1048111392
I0403 19:08:46.744537 18870 layer_factory.hpp:77] Creating layer inception_4c/relu_5x5_reduce
I0403 19:08:46.744559 18870 net.cpp:91] Creating Layer inception_4c/relu_5x5_reduce
I0403 19:08:46.744575 18870 net.cpp:425] inception_4c/relu_5x5_reduce <- inception_4c/5x5_reduce
I0403 19:08:46.744592 18870 net.cpp:386] inception_4c/relu_5x5_reduce -> inception_4c/5x5_reduce (in-place)
I0403 19:08:46.744771 18870 net.cpp:141] Setting up inception_4c/relu_5x5_reduce
I0403 19:08:46.744797 18870 net.cpp:148] Top shape: 24 24 14 14 (112896)
I0403 19:08:46.744812 18870 net.cpp:156] Memory required for data: 1048562976
I0403 19:08:46.744827 18870 layer_factory.hpp:77] Creating layer inception_4c/5x5
I0403 19:08:46.744849 18870 net.cpp:91] Creating Layer inception_4c/5x5
I0403 19:08:46.744866 18870 net.cpp:425] inception_4c/5x5 <- inception_4c/5x5_reduce
I0403 19:08:46.744886 18870 net.cpp:399] inception_4c/5x5 -> inception_4c/5x5
I0403 19:08:46.746129 18870 net.cpp:141] Setting up inception_4c/5x5
I0403 19:08:46.746155 18870 net.cpp:148] Top shape: 24 64 14 14 (301056)
I0403 19:08:46.746171 18870 net.cpp:156] Memory required for data: 1049767200
I0403 19:08:46.746189 18870 layer_factory.hpp:77] Creating layer inception_4c/relu_5x5
I0403 19:08:46.746209 18870 net.cpp:91] Creating Layer inception_4c/relu_5x5
I0403 19:08:46.746225 18870 net.cpp:425] inception_4c/relu_5x5 <- inception_4c/5x5
I0403 19:08:46.746245 18870 net.cpp:386] inception_4c/relu_5x5 -> inception_4c/5x5 (in-place)
I0403 19:08:46.746531 18870 net.cpp:141] Setting up inception_4c/relu_5x5
I0403 19:08:46.746556 18870 net.cpp:148] Top shape: 24 64 14 14 (301056)
I0403 19:08:46.746572 18870 net.cpp:156] Memory required for data: 1050971424
I0403 19:08:46.746587 18870 layer_factory.hpp:77] Creating layer inception_4c/pool
I0403 19:08:46.746604 18870 net.cpp:91] Creating Layer inception_4c/pool
I0403 19:08:46.746620 18870 net.cpp:425] inception_4c/pool <- inception_4b/output_inception_4b/output_0_split_3
I0403 19:08:46.746641 18870 net.cpp:399] inception_4c/pool -> inception_4c/pool
I0403 19:08:46.746706 18870 net.cpp:141] Setting up inception_4c/pool
I0403 19:08:46.746729 18870 net.cpp:148] Top shape: 24 512 14 14 (2408448)
I0403 19:08:46.746744 18870 net.cpp:156] Memory required for data: 1060605216
I0403 19:08:46.746758 18870 layer_factory.hpp:77] Creating layer inception_4c/pool_proj
I0403 19:08:46.746784 18870 net.cpp:91] Creating Layer inception_4c/pool_proj
I0403 19:08:46.746801 18870 net.cpp:425] inception_4c/pool_proj <- inception_4c/pool
I0403 19:08:46.746820 18870 net.cpp:399] inception_4c/pool_proj -> inception_4c/pool_proj
I0403 19:08:46.748019 18870 net.cpp:141] Setting up inception_4c/pool_proj
I0403 19:08:46.748046 18870 net.cpp:148] Top shape: 24 64 14 14 (301056)
I0403 19:08:46.748075 18870 net.cpp:156] Memory required for data: 1061809440
I0403 19:08:46.748095 18870 layer_factory.hpp:77] Creating layer inception_4c/relu_pool_proj
I0403 19:08:46.748116 18870 net.cpp:91] Creating Layer inception_4c/relu_pool_proj
I0403 19:08:46.748133 18870 net.cpp:425] inception_4c/relu_pool_proj <- inception_4c/pool_proj
I0403 19:08:46.748152 18870 net.cpp:386] inception_4c/relu_pool_proj -> inception_4c/pool_proj (in-place)
I0403 19:08:46.748329 18870 net.cpp:141] Setting up inception_4c/relu_pool_proj
I0403 19:08:46.748355 18870 net.cpp:148] Top shape: 24 64 14 14 (301056)
I0403 19:08:46.748370 18870 net.cpp:156] Memory required for data: 1063013664
I0403 19:08:46.748385 18870 layer_factory.hpp:77] Creating layer inception_4c/output
I0403 19:08:46.748402 18870 net.cpp:91] Creating Layer inception_4c/output
I0403 19:08:46.748419 18870 net.cpp:425] inception_4c/output <- inception_4c/1x1
I0403 19:08:46.748435 18870 net.cpp:425] inception_4c/output <- inception_4c/3x3
I0403 19:08:46.748450 18870 net.cpp:425] inception_4c/output <- inception_4c/5x5
I0403 19:08:46.748466 18870 net.cpp:425] inception_4c/output <- inception_4c/pool_proj
I0403 19:08:46.748482 18870 net.cpp:399] inception_4c/output -> inception_4c/output
I0403 19:08:46.748529 18870 net.cpp:141] Setting up inception_4c/output
I0403 19:08:46.748553 18870 net.cpp:148] Top shape: 24 512 14 14 (2408448)
I0403 19:08:46.748567 18870 net.cpp:156] Memory required for data: 1072647456
I0403 19:08:46.748582 18870 layer_factory.hpp:77] Creating layer inception_4c/output_inception_4c/output_0_split
I0403 19:08:46.748602 18870 net.cpp:91] Creating Layer inception_4c/output_inception_4c/output_0_split
I0403 19:08:46.748618 18870 net.cpp:425] inception_4c/output_inception_4c/output_0_split <- inception_4c/output
I0403 19:08:46.748636 18870 net.cpp:399] inception_4c/output_inception_4c/output_0_split -> inception_4c/output_inception_4c/output_0_split_0
I0403 19:08:46.748656 18870 net.cpp:399] inception_4c/output_inception_4c/output_0_split -> inception_4c/output_inception_4c/output_0_split_1
I0403 19:08:46.748677 18870 net.cpp:399] inception_4c/output_inception_4c/output_0_split -> inception_4c/output_inception_4c/output_0_split_2
I0403 19:08:46.748699 18870 net.cpp:399] inception_4c/output_inception_4c/output_0_split -> inception_4c/output_inception_4c/output_0_split_3
I0403 19:08:46.748786 18870 net.cpp:141] Setting up inception_4c/output_inception_4c/output_0_split
I0403 19:08:46.748808 18870 net.cpp:148] Top shape: 24 512 14 14 (2408448)
I0403 19:08:46.748824 18870 net.cpp:148] Top shape: 24 512 14 14 (2408448)
I0403 19:08:46.748841 18870 net.cpp:148] Top shape: 24 512 14 14 (2408448)
I0403 19:08:46.748855 18870 net.cpp:148] Top shape: 24 512 14 14 (2408448)
I0403 19:08:46.748869 18870 net.cpp:156] Memory required for data: 1111182624
I0403 19:08:46.748884 18870 layer_factory.hpp:77] Creating layer inception_4d/1x1
I0403 19:08:46.748906 18870 net.cpp:91] Creating Layer inception_4d/1x1
I0403 19:08:46.748924 18870 net.cpp:425] inception_4d/1x1 <- inception_4c/output_inception_4c/output_0_split_0
I0403 19:08:46.748945 18870 net.cpp:399] inception_4d/1x1 -> inception_4d/1x1
I0403 19:08:46.750335 18870 net.cpp:141] Setting up inception_4d/1x1
I0403 19:08:46.750362 18870 net.cpp:148] Top shape: 24 112 14 14 (526848)
I0403 19:08:46.750378 18870 net.cpp:156] Memory required for data: 1113290016
I0403 19:08:46.750396 18870 layer_factory.hpp:77] Creating layer inception_4d/relu_1x1
I0403 19:08:46.750414 18870 net.cpp:91] Creating Layer inception_4d/relu_1x1
I0403 19:08:46.750432 18870 net.cpp:425] inception_4d/relu_1x1 <- inception_4d/1x1
I0403 19:08:46.750452 18870 net.cpp:386] inception_4d/relu_1x1 -> inception_4d/1x1 (in-place)
I0403 19:08:46.750632 18870 net.cpp:141] Setting up inception_4d/relu_1x1
I0403 19:08:46.750655 18870 net.cpp:148] Top shape: 24 112 14 14 (526848)
I0403 19:08:46.750670 18870 net.cpp:156] Memory required for data: 1115397408
I0403 19:08:46.750685 18870 layer_factory.hpp:77] Creating layer inception_4d/3x3_reduce
I0403 19:08:46.750720 18870 net.cpp:91] Creating Layer inception_4d/3x3_reduce
I0403 19:08:46.750740 18870 net.cpp:425] inception_4d/3x3_reduce <- inception_4c/output_inception_4c/output_0_split_1
I0403 19:08:46.750763 18870 net.cpp:399] inception_4d/3x3_reduce -> inception_4d/3x3_reduce
I0403 19:08:46.752269 18870 net.cpp:141] Setting up inception_4d/3x3_reduce
I0403 19:08:46.752298 18870 net.cpp:148] Top shape: 24 144 14 14 (677376)
I0403 19:08:46.752315 18870 net.cpp:156] Memory required for data: 1118106912
I0403 19:08:46.752333 18870 layer_factory.hpp:77] Creating layer inception_4d/relu_3x3_reduce
I0403 19:08:46.752351 18870 net.cpp:91] Creating Layer inception_4d/relu_3x3_reduce
I0403 19:08:46.752368 18870 net.cpp:425] inception_4d/relu_3x3_reduce <- inception_4d/3x3_reduce
I0403 19:08:46.752388 18870 net.cpp:386] inception_4d/relu_3x3_reduce -> inception_4d/3x3_reduce (in-place)
I0403 19:08:46.752671 18870 net.cpp:141] Setting up inception_4d/relu_3x3_reduce
I0403 19:08:46.752699 18870 net.cpp:148] Top shape: 24 144 14 14 (677376)
I0403 19:08:46.752715 18870 net.cpp:156] Memory required for data: 1120816416
I0403 19:08:46.752730 18870 layer_factory.hpp:77] Creating layer inception_4d/3x3
I0403 19:08:46.752753 18870 net.cpp:91] Creating Layer inception_4d/3x3
I0403 19:08:46.752771 18870 net.cpp:425] inception_4d/3x3 <- inception_4d/3x3_reduce
I0403 19:08:46.752792 18870 net.cpp:399] inception_4d/3x3 -> inception_4d/3x3
I0403 19:08:46.759291 18870 net.cpp:141] Setting up inception_4d/3x3
I0403 19:08:46.759325 18870 net.cpp:148] Top shape: 24 288 14 14 (1354752)
I0403 19:08:46.759341 18870 net.cpp:156] Memory required for data: 1126235424
I0403 19:08:46.759359 18870 layer_factory.hpp:77] Creating layer inception_4d/relu_3x3
I0403 19:08:46.759379 18870 net.cpp:91] Creating Layer inception_4d/relu_3x3
I0403 19:08:46.759397 18870 net.cpp:425] inception_4d/relu_3x3 <- inception_4d/3x3
I0403 19:08:46.759415 18870 net.cpp:386] inception_4d/relu_3x3 -> inception_4d/3x3 (in-place)
I0403 19:08:46.759598 18870 net.cpp:141] Setting up inception_4d/relu_3x3
I0403 19:08:46.759623 18870 net.cpp:148] Top shape: 24 288 14 14 (1354752)
I0403 19:08:46.759636 18870 net.cpp:156] Memory required for data: 1131654432
I0403 19:08:46.759651 18870 layer_factory.hpp:77] Creating layer inception_4d/5x5_reduce
I0403 19:08:46.759675 18870 net.cpp:91] Creating Layer inception_4d/5x5_reduce
I0403 19:08:46.759693 18870 net.cpp:425] inception_4d/5x5_reduce <- inception_4c/output_inception_4c/output_0_split_2
I0403 19:08:46.759713 18870 net.cpp:399] inception_4d/5x5_reduce -> inception_4d/5x5_reduce
I0403 19:08:46.760839 18870 net.cpp:141] Setting up inception_4d/5x5_reduce
I0403 19:08:46.760867 18870 net.cpp:148] Top shape: 24 32 14 14 (150528)
I0403 19:08:46.760882 18870 net.cpp:156] Memory required for data: 1132256544
I0403 19:08:46.760900 18870 layer_factory.hpp:77] Creating layer inception_4d/relu_5x5_reduce
I0403 19:08:46.760921 18870 net.cpp:91] Creating Layer inception_4d/relu_5x5_reduce
I0403 19:08:46.760938 18870 net.cpp:425] inception_4d/relu_5x5_reduce <- inception_4d/5x5_reduce
I0403 19:08:46.760957 18870 net.cpp:386] inception_4d/relu_5x5_reduce -> inception_4d/5x5_reduce (in-place)
I0403 19:08:46.761145 18870 net.cpp:141] Setting up inception_4d/relu_5x5_reduce
I0403 19:08:46.761173 18870 net.cpp:148] Top shape: 24 32 14 14 (150528)
I0403 19:08:46.761189 18870 net.cpp:156] Memory required for data: 1132858656
I0403 19:08:46.761205 18870 layer_factory.hpp:77] Creating layer inception_4d/5x5
I0403 19:08:46.761225 18870 net.cpp:91] Creating Layer inception_4d/5x5
I0403 19:08:46.761242 18870 net.cpp:425] inception_4d/5x5 <- inception_4d/5x5_reduce
I0403 19:08:46.761263 18870 net.cpp:399] inception_4d/5x5 -> inception_4d/5x5
I0403 19:08:46.762748 18870 net.cpp:141] Setting up inception_4d/5x5
I0403 19:08:46.762778 18870 net.cpp:148] Top shape: 24 64 14 14 (301056)
I0403 19:08:46.762794 18870 net.cpp:156] Memory required for data: 1134062880
I0403 19:08:46.762812 18870 layer_factory.hpp:77] Creating layer inception_4d/relu_5x5
I0403 19:08:46.762845 18870 net.cpp:91] Creating Layer inception_4d/relu_5x5
I0403 19:08:46.762862 18870 net.cpp:425] inception_4d/relu_5x5 <- inception_4d/5x5
I0403 19:08:46.762881 18870 net.cpp:386] inception_4d/relu_5x5 -> inception_4d/5x5 (in-place)
I0403 19:08:46.763176 18870 net.cpp:141] Setting up inception_4d/relu_5x5
I0403 19:08:46.763205 18870 net.cpp:148] Top shape: 24 64 14 14 (301056)
I0403 19:08:46.763219 18870 net.cpp:156] Memory required for data: 1135267104
I0403 19:08:46.763234 18870 layer_factory.hpp:77] Creating layer inception_4d/pool
I0403 19:08:46.763252 18870 net.cpp:91] Creating Layer inception_4d/pool
I0403 19:08:46.763268 18870 net.cpp:425] inception_4d/pool <- inception_4c/output_inception_4c/output_0_split_3
I0403 19:08:46.763288 18870 net.cpp:399] inception_4d/pool -> inception_4d/pool
I0403 19:08:46.763355 18870 net.cpp:141] Setting up inception_4d/pool
I0403 19:08:46.763376 18870 net.cpp:148] Top shape: 24 512 14 14 (2408448)
I0403 19:08:46.763391 18870 net.cpp:156] Memory required for data: 1144900896
I0403 19:08:46.763406 18870 layer_factory.hpp:77] Creating layer inception_4d/pool_proj
I0403 19:08:46.763427 18870 net.cpp:91] Creating Layer inception_4d/pool_proj
I0403 19:08:46.763445 18870 net.cpp:425] inception_4d/pool_proj <- inception_4d/pool
I0403 19:08:46.763468 18870 net.cpp:399] inception_4d/pool_proj -> inception_4d/pool_proj
I0403 19:08:46.765194 18870 net.cpp:141] Setting up inception_4d/pool_proj
I0403 19:08:46.765224 18870 net.cpp:148] Top shape: 24 64 14 14 (301056)
I0403 19:08:46.765239 18870 net.cpp:156] Memory required for data: 1146105120
I0403 19:08:46.765257 18870 layer_factory.hpp:77] Creating layer inception_4d/relu_pool_proj
I0403 19:08:46.765277 18870 net.cpp:91] Creating Layer inception_4d/relu_pool_proj
I0403 19:08:46.765295 18870 net.cpp:425] inception_4d/relu_pool_proj <- inception_4d/pool_proj
I0403 19:08:46.765313 18870 net.cpp:386] inception_4d/relu_pool_proj -> inception_4d/pool_proj (in-place)
I0403 19:08:46.765493 18870 net.cpp:141] Setting up inception_4d/relu_pool_proj
I0403 19:08:46.765517 18870 net.cpp:148] Top shape: 24 64 14 14 (301056)
I0403 19:08:46.765532 18870 net.cpp:156] Memory required for data: 1147309344
I0403 19:08:46.765547 18870 layer_factory.hpp:77] Creating layer inception_4d/output
I0403 19:08:46.765566 18870 net.cpp:91] Creating Layer inception_4d/output
I0403 19:08:46.765583 18870 net.cpp:425] inception_4d/output <- inception_4d/1x1
I0403 19:08:46.765600 18870 net.cpp:425] inception_4d/output <- inception_4d/3x3
I0403 19:08:46.765615 18870 net.cpp:425] inception_4d/output <- inception_4d/5x5
I0403 19:08:46.765631 18870 net.cpp:425] inception_4d/output <- inception_4d/pool_proj
I0403 19:08:46.765648 18870 net.cpp:399] inception_4d/output -> inception_4d/output
I0403 19:08:46.765697 18870 net.cpp:141] Setting up inception_4d/output
I0403 19:08:46.765719 18870 net.cpp:148] Top shape: 24 528 14 14 (2483712)
I0403 19:08:46.765734 18870 net.cpp:156] Memory required for data: 1157244192
I0403 19:08:46.765748 18870 layer_factory.hpp:77] Creating layer inception_4d/output_inception_4d/output_0_split
I0403 19:08:46.765765 18870 net.cpp:91] Creating Layer inception_4d/output_inception_4d/output_0_split
I0403 19:08:46.765782 18870 net.cpp:425] inception_4d/output_inception_4d/output_0_split <- inception_4d/output
I0403 19:08:46.765801 18870 net.cpp:399] inception_4d/output_inception_4d/output_0_split -> inception_4d/output_inception_4d/output_0_split_0
I0403 19:08:46.765823 18870 net.cpp:399] inception_4d/output_inception_4d/output_0_split -> inception_4d/output_inception_4d/output_0_split_1
I0403 19:08:46.765844 18870 net.cpp:399] inception_4d/output_inception_4d/output_0_split -> inception_4d/output_inception_4d/output_0_split_2
I0403 19:08:46.765868 18870 net.cpp:399] inception_4d/output_inception_4d/output_0_split -> inception_4d/output_inception_4d/output_0_split_3
I0403 19:08:46.765889 18870 net.cpp:399] inception_4d/output_inception_4d/output_0_split -> inception_4d/output_inception_4d/output_0_split_4
I0403 19:08:46.765995 18870 net.cpp:141] Setting up inception_4d/output_inception_4d/output_0_split
I0403 19:08:46.766029 18870 net.cpp:148] Top shape: 24 528 14 14 (2483712)
I0403 19:08:46.766047 18870 net.cpp:148] Top shape: 24 528 14 14 (2483712)
I0403 19:08:46.766062 18870 net.cpp:148] Top shape: 24 528 14 14 (2483712)
I0403 19:08:46.766077 18870 net.cpp:148] Top shape: 24 528 14 14 (2483712)
I0403 19:08:46.766093 18870 net.cpp:148] Top shape: 24 528 14 14 (2483712)
I0403 19:08:46.766106 18870 net.cpp:156] Memory required for data: 1206918432
I0403 19:08:46.766121 18870 layer_factory.hpp:77] Creating layer loss2/ave_pool
I0403 19:08:46.766139 18870 net.cpp:91] Creating Layer loss2/ave_pool
I0403 19:08:46.766155 18870 net.cpp:425] loss2/ave_pool <- inception_4d/output_inception_4d/output_0_split_0
I0403 19:08:46.766176 18870 net.cpp:399] loss2/ave_pool -> loss2/ave_pool
I0403 19:08:46.766481 18870 net.cpp:141] Setting up loss2/ave_pool
I0403 19:08:46.766506 18870 net.cpp:148] Top shape: 24 528 4 4 (202752)
I0403 19:08:46.766521 18870 net.cpp:156] Memory required for data: 1207729440
I0403 19:08:46.766536 18870 layer_factory.hpp:77] Creating layer loss2/conv
I0403 19:08:46.766558 18870 net.cpp:91] Creating Layer loss2/conv
I0403 19:08:46.766577 18870 net.cpp:425] loss2/conv <- loss2/ave_pool
I0403 19:08:46.766597 18870 net.cpp:399] loss2/conv -> loss2/conv
I0403 19:08:46.768438 18870 net.cpp:141] Setting up loss2/conv
I0403 19:08:46.768468 18870 net.cpp:148] Top shape: 24 128 4 4 (49152)
I0403 19:08:46.768486 18870 net.cpp:156] Memory required for data: 1207926048
I0403 19:08:46.768503 18870 layer_factory.hpp:77] Creating layer loss2/relu_conv
I0403 19:08:46.768522 18870 net.cpp:91] Creating Layer loss2/relu_conv
I0403 19:08:46.768538 18870 net.cpp:425] loss2/relu_conv <- loss2/conv
I0403 19:08:46.768558 18870 net.cpp:386] loss2/relu_conv -> loss2/conv (in-place)
I0403 19:08:46.768836 18870 net.cpp:141] Setting up loss2/relu_conv
I0403 19:08:46.768863 18870 net.cpp:148] Top shape: 24 128 4 4 (49152)
I0403 19:08:46.768879 18870 net.cpp:156] Memory required for data: 1208122656
I0403 19:08:46.768894 18870 layer_factory.hpp:77] Creating layer loss2/fc
I0403 19:08:46.768913 18870 net.cpp:91] Creating Layer loss2/fc
I0403 19:08:46.768929 18870 net.cpp:425] loss2/fc <- loss2/conv
I0403 19:08:46.768951 18870 net.cpp:399] loss2/fc -> loss2/fc
I0403 19:08:46.786129 18870 net.cpp:141] Setting up loss2/fc
I0403 19:08:46.786162 18870 net.cpp:148] Top shape: 24 1024 (24576)
I0403 19:08:46.786180 18870 net.cpp:156] Memory required for data: 1208220960
I0403 19:08:46.786198 18870 layer_factory.hpp:77] Creating layer loss2/relu_fc
I0403 19:08:46.786221 18870 net.cpp:91] Creating Layer loss2/relu_fc
I0403 19:08:46.786239 18870 net.cpp:425] loss2/relu_fc <- loss2/fc
I0403 19:08:46.786257 18870 net.cpp:386] loss2/relu_fc -> loss2/fc (in-place)
I0403 19:08:46.786548 18870 net.cpp:141] Setting up loss2/relu_fc
I0403 19:08:46.786573 18870 net.cpp:148] Top shape: 24 1024 (24576)
I0403 19:08:46.786588 18870 net.cpp:156] Memory required for data: 1208319264
I0403 19:08:46.786602 18870 layer_factory.hpp:77] Creating layer loss2/drop_fc
I0403 19:08:46.786623 18870 net.cpp:91] Creating Layer loss2/drop_fc
I0403 19:08:46.786640 18870 net.cpp:425] loss2/drop_fc <- loss2/fc
I0403 19:08:46.786659 18870 net.cpp:386] loss2/drop_fc -> loss2/fc (in-place)
I0403 19:08:46.786721 18870 net.cpp:141] Setting up loss2/drop_fc
I0403 19:08:46.786744 18870 net.cpp:148] Top shape: 24 1024 (24576)
I0403 19:08:46.786759 18870 net.cpp:156] Memory required for data: 1208417568
I0403 19:08:46.786773 18870 layer_factory.hpp:77] Creating layer loss2/classifier_plantvillage
I0403 19:08:46.786792 18870 net.cpp:91] Creating Layer loss2/classifier_plantvillage
I0403 19:08:46.786809 18870 net.cpp:425] loss2/classifier_plantvillage <- loss2/fc
I0403 19:08:46.786831 18870 net.cpp:399] loss2/classifier_plantvillage -> loss2/classifier_plantvillage
I0403 19:08:46.787247 18870 net.cpp:141] Setting up loss2/classifier_plantvillage
I0403 19:08:46.787271 18870 net.cpp:148] Top shape: 24 38 (912)
I0403 19:08:46.787302 18870 net.cpp:156] Memory required for data: 1208421216
I0403 19:08:46.787322 18870 layer_factory.hpp:77] Creating layer loss2/classifier_plantvillage_loss2/classifier_plantvillage_0_split
I0403 19:08:46.787339 18870 net.cpp:91] Creating Layer loss2/classifier_plantvillage_loss2/classifier_plantvillage_0_split
I0403 19:08:46.787355 18870 net.cpp:425] loss2/classifier_plantvillage_loss2/classifier_plantvillage_0_split <- loss2/classifier_plantvillage
I0403 19:08:46.787375 18870 net.cpp:399] loss2/classifier_plantvillage_loss2/classifier_plantvillage_0_split -> loss2/classifier_plantvillage_loss2/classifier_plantvillage_0_split_0
I0403 19:08:46.787396 18870 net.cpp:399] loss2/classifier_plantvillage_loss2/classifier_plantvillage_0_split -> loss2/classifier_plantvillage_loss2/classifier_plantvillage_0_split_1
I0403 19:08:46.787417 18870 net.cpp:399] loss2/classifier_plantvillage_loss2/classifier_plantvillage_0_split -> loss2/classifier_plantvillage_loss2/classifier_plantvillage_0_split_2
I0403 19:08:46.787493 18870 net.cpp:141] Setting up loss2/classifier_plantvillage_loss2/classifier_plantvillage_0_split
I0403 19:08:46.787516 18870 net.cpp:148] Top shape: 24 38 (912)
I0403 19:08:46.787531 18870 net.cpp:148] Top shape: 24 38 (912)
I0403 19:08:46.787547 18870 net.cpp:148] Top shape: 24 38 (912)
I0403 19:08:46.787561 18870 net.cpp:156] Memory required for data: 1208432160
I0403 19:08:46.787576 18870 layer_factory.hpp:77] Creating layer inception_4e/1x1
I0403 19:08:46.787598 18870 net.cpp:91] Creating Layer inception_4e/1x1
I0403 19:08:46.787616 18870 net.cpp:425] inception_4e/1x1 <- inception_4d/output_inception_4d/output_0_split_1
I0403 19:08:46.787636 18870 net.cpp:399] inception_4e/1x1 -> inception_4e/1x1
I0403 19:08:46.789408 18870 net.cpp:141] Setting up inception_4e/1x1
I0403 19:08:46.789438 18870 net.cpp:148] Top shape: 24 256 14 14 (1204224)
I0403 19:08:46.789454 18870 net.cpp:156] Memory required for data: 1213249056
I0403 19:08:46.789474 18870 layer_factory.hpp:77] Creating layer inception_4e/relu_1x1
I0403 19:08:46.789491 18870 net.cpp:91] Creating Layer inception_4e/relu_1x1
I0403 19:08:46.789507 18870 net.cpp:425] inception_4e/relu_1x1 <- inception_4e/1x1
I0403 19:08:46.789527 18870 net.cpp:386] inception_4e/relu_1x1 -> inception_4e/1x1 (in-place)
I0403 19:08:46.789816 18870 net.cpp:141] Setting up inception_4e/relu_1x1
I0403 19:08:46.789844 18870 net.cpp:148] Top shape: 24 256 14 14 (1204224)
I0403 19:08:46.789860 18870 net.cpp:156] Memory required for data: 1218065952
I0403 19:08:46.789875 18870 layer_factory.hpp:77] Creating layer inception_4e/3x3_reduce
I0403 19:08:46.789896 18870 net.cpp:91] Creating Layer inception_4e/3x3_reduce
I0403 19:08:46.789914 18870 net.cpp:425] inception_4e/3x3_reduce <- inception_4d/output_inception_4d/output_0_split_2
I0403 19:08:46.789933 18870 net.cpp:399] inception_4e/3x3_reduce -> inception_4e/3x3_reduce
I0403 19:08:46.792052 18870 net.cpp:141] Setting up inception_4e/3x3_reduce
I0403 19:08:46.792079 18870 net.cpp:148] Top shape: 24 160 14 14 (752640)
I0403 19:08:46.792094 18870 net.cpp:156] Memory required for data: 1221076512
I0403 19:08:46.792114 18870 layer_factory.hpp:77] Creating layer inception_4e/relu_3x3_reduce
I0403 19:08:46.792134 18870 net.cpp:91] Creating Layer inception_4e/relu_3x3_reduce
I0403 19:08:46.792150 18870 net.cpp:425] inception_4e/relu_3x3_reduce <- inception_4e/3x3_reduce
I0403 19:08:46.792168 18870 net.cpp:386] inception_4e/relu_3x3_reduce -> inception_4e/3x3_reduce (in-place)
I0403 19:08:46.792349 18870 net.cpp:141] Setting up inception_4e/relu_3x3_reduce
I0403 19:08:46.792374 18870 net.cpp:148] Top shape: 24 160 14 14 (752640)
I0403 19:08:46.792389 18870 net.cpp:156] Memory required for data: 1224087072
I0403 19:08:46.792404 18870 layer_factory.hpp:77] Creating layer inception_4e/3x3
I0403 19:08:46.792426 18870 net.cpp:91] Creating Layer inception_4e/3x3
I0403 19:08:46.792444 18870 net.cpp:425] inception_4e/3x3 <- inception_4e/3x3_reduce
I0403 19:08:46.792467 18870 net.cpp:399] inception_4e/3x3 -> inception_4e/3x3
I0403 19:08:46.797363 18870 net.cpp:141] Setting up inception_4e/3x3
I0403 19:08:46.797402 18870 net.cpp:148] Top shape: 24 320 14 14 (1505280)
I0403 19:08:46.797418 18870 net.cpp:156] Memory required for data: 1230108192
I0403 19:08:46.797437 18870 layer_factory.hpp:77] Creating layer inception_4e/relu_3x3
I0403 19:08:46.797456 18870 net.cpp:91] Creating Layer inception_4e/relu_3x3
I0403 19:08:46.797473 18870 net.cpp:425] inception_4e/relu_3x3 <- inception_4e/3x3
I0403 19:08:46.797493 18870 net.cpp:386] inception_4e/relu_3x3 -> inception_4e/3x3 (in-place)
I0403 19:08:46.797788 18870 net.cpp:141] Setting up inception_4e/relu_3x3
I0403 19:08:46.797814 18870 net.cpp:148] Top shape: 24 320 14 14 (1505280)
I0403 19:08:46.797829 18870 net.cpp:156] Memory required for data: 1236129312
I0403 19:08:46.797844 18870 layer_factory.hpp:77] Creating layer inception_4e/5x5_reduce
I0403 19:08:46.797868 18870 net.cpp:91] Creating Layer inception_4e/5x5_reduce
I0403 19:08:46.797886 18870 net.cpp:425] inception_4e/5x5_reduce <- inception_4d/output_inception_4d/output_0_split_3
I0403 19:08:46.797909 18870 net.cpp:399] inception_4e/5x5_reduce -> inception_4e/5x5_reduce
I0403 19:08:46.798956 18870 net.cpp:141] Setting up inception_4e/5x5_reduce
I0403 19:08:46.798995 18870 net.cpp:148] Top shape: 24 32 14 14 (150528)
I0403 19:08:46.799013 18870 net.cpp:156] Memory required for data: 1236731424
I0403 19:08:46.799032 18870 layer_factory.hpp:77] Creating layer inception_4e/relu_5x5_reduce
I0403 19:08:46.799051 18870 net.cpp:91] Creating Layer inception_4e/relu_5x5_reduce
I0403 19:08:46.799067 18870 net.cpp:425] inception_4e/relu_5x5_reduce <- inception_4e/5x5_reduce
I0403 19:08:46.799083 18870 net.cpp:386] inception_4e/relu_5x5_reduce -> inception_4e/5x5_reduce (in-place)
I0403 19:08:46.799376 18870 net.cpp:141] Setting up inception_4e/relu_5x5_reduce
I0403 19:08:46.799403 18870 net.cpp:148] Top shape: 24 32 14 14 (150528)
I0403 19:08:46.799419 18870 net.cpp:156] Memory required for data: 1237333536
I0403 19:08:46.799434 18870 layer_factory.hpp:77] Creating layer inception_4e/5x5
I0403 19:08:46.799474 18870 net.cpp:91] Creating Layer inception_4e/5x5
I0403 19:08:46.799494 18870 net.cpp:425] inception_4e/5x5 <- inception_4e/5x5_reduce
I0403 19:08:46.799513 18870 net.cpp:399] inception_4e/5x5 -> inception_4e/5x5
I0403 19:08:46.801316 18870 net.cpp:141] Setting up inception_4e/5x5
I0403 19:08:46.801344 18870 net.cpp:148] Top shape: 24 128 14 14 (602112)
I0403 19:08:46.801359 18870 net.cpp:156] Memory required for data: 1239741984
I0403 19:08:46.801379 18870 layer_factory.hpp:77] Creating layer inception_4e/relu_5x5
I0403 19:08:46.801399 18870 net.cpp:91] Creating Layer inception_4e/relu_5x5
I0403 19:08:46.801417 18870 net.cpp:425] inception_4e/relu_5x5 <- inception_4e/5x5
I0403 19:08:46.801435 18870 net.cpp:386] inception_4e/relu_5x5 -> inception_4e/5x5 (in-place)
I0403 19:08:46.801626 18870 net.cpp:141] Setting up inception_4e/relu_5x5
I0403 19:08:46.801653 18870 net.cpp:148] Top shape: 24 128 14 14 (602112)
I0403 19:08:46.801668 18870 net.cpp:156] Memory required for data: 1242150432
I0403 19:08:46.801683 18870 layer_factory.hpp:77] Creating layer inception_4e/pool
I0403 19:08:46.801702 18870 net.cpp:91] Creating Layer inception_4e/pool
I0403 19:08:46.801718 18870 net.cpp:425] inception_4e/pool <- inception_4d/output_inception_4d/output_0_split_4
I0403 19:08:46.801739 18870 net.cpp:399] inception_4e/pool -> inception_4e/pool
I0403 19:08:46.801810 18870 net.cpp:141] Setting up inception_4e/pool
I0403 19:08:46.801833 18870 net.cpp:148] Top shape: 24 528 14 14 (2483712)
I0403 19:08:46.801847 18870 net.cpp:156] Memory required for data: 1252085280
I0403 19:08:46.801862 18870 layer_factory.hpp:77] Creating layer inception_4e/pool_proj
I0403 19:08:46.801884 18870 net.cpp:91] Creating Layer inception_4e/pool_proj
I0403 19:08:46.801903 18870 net.cpp:425] inception_4e/pool_proj <- inception_4e/pool
I0403 19:08:46.801924 18870 net.cpp:399] inception_4e/pool_proj -> inception_4e/pool_proj
I0403 19:08:46.803402 18870 net.cpp:141] Setting up inception_4e/pool_proj
I0403 19:08:46.803442 18870 net.cpp:148] Top shape: 24 128 14 14 (602112)
I0403 19:08:46.803457 18870 net.cpp:156] Memory required for data: 1254493728
I0403 19:08:46.803475 18870 layer_factory.hpp:77] Creating layer inception_4e/relu_pool_proj
I0403 19:08:46.803495 18870 net.cpp:91] Creating Layer inception_4e/relu_pool_proj
I0403 19:08:46.803514 18870 net.cpp:425] inception_4e/relu_pool_proj <- inception_4e/pool_proj
I0403 19:08:46.803531 18870 net.cpp:386] inception_4e/relu_pool_proj -> inception_4e/pool_proj (in-place)
I0403 19:08:46.803817 18870 net.cpp:141] Setting up inception_4e/relu_pool_proj
I0403 19:08:46.803843 18870 net.cpp:148] Top shape: 24 128 14 14 (602112)
I0403 19:08:46.803858 18870 net.cpp:156] Memory required for data: 1256902176
I0403 19:08:46.803874 18870 layer_factory.hpp:77] Creating layer inception_4e/output
I0403 19:08:46.803894 18870 net.cpp:91] Creating Layer inception_4e/output
I0403 19:08:46.803911 18870 net.cpp:425] inception_4e/output <- inception_4e/1x1
I0403 19:08:46.803927 18870 net.cpp:425] inception_4e/output <- inception_4e/3x3
I0403 19:08:46.803943 18870 net.cpp:425] inception_4e/output <- inception_4e/5x5
I0403 19:08:46.803959 18870 net.cpp:425] inception_4e/output <- inception_4e/pool_proj
I0403 19:08:46.803980 18870 net.cpp:399] inception_4e/output -> inception_4e/output
I0403 19:08:46.804030 18870 net.cpp:141] Setting up inception_4e/output
I0403 19:08:46.804056 18870 net.cpp:148] Top shape: 24 832 14 14 (3913728)
I0403 19:08:46.804071 18870 net.cpp:156] Memory required for data: 1272557088
I0403 19:08:46.804086 18870 layer_factory.hpp:77] Creating layer pool4/3x3_s2
I0403 19:08:46.804103 18870 net.cpp:91] Creating Layer pool4/3x3_s2
I0403 19:08:46.804121 18870 net.cpp:425] pool4/3x3_s2 <- inception_4e/output
I0403 19:08:46.804143 18870 net.cpp:399] pool4/3x3_s2 -> pool4/3x3_s2
I0403 19:08:46.804210 18870 net.cpp:141] Setting up pool4/3x3_s2
I0403 19:08:46.804235 18870 net.cpp:148] Top shape: 24 832 7 7 (978432)
I0403 19:08:46.804250 18870 net.cpp:156] Memory required for data: 1276470816
I0403 19:08:46.804265 18870 layer_factory.hpp:77] Creating layer pool4/3x3_s2_pool4/3x3_s2_0_split
I0403 19:08:46.804282 18870 net.cpp:91] Creating Layer pool4/3x3_s2_pool4/3x3_s2_0_split
I0403 19:08:46.804299 18870 net.cpp:425] pool4/3x3_s2_pool4/3x3_s2_0_split <- pool4/3x3_s2
I0403 19:08:46.804317 18870 net.cpp:399] pool4/3x3_s2_pool4/3x3_s2_0_split -> pool4/3x3_s2_pool4/3x3_s2_0_split_0
I0403 19:08:46.804337 18870 net.cpp:399] pool4/3x3_s2_pool4/3x3_s2_0_split -> pool4/3x3_s2_pool4/3x3_s2_0_split_1
I0403 19:08:46.804359 18870 net.cpp:399] pool4/3x3_s2_pool4/3x3_s2_0_split -> pool4/3x3_s2_pool4/3x3_s2_0_split_2
I0403 19:08:46.804380 18870 net.cpp:399] pool4/3x3_s2_pool4/3x3_s2_0_split -> pool4/3x3_s2_pool4/3x3_s2_0_split_3
I0403 19:08:46.804472 18870 net.cpp:141] Setting up pool4/3x3_s2_pool4/3x3_s2_0_split
I0403 19:08:46.804496 18870 net.cpp:148] Top shape: 24 832 7 7 (978432)
I0403 19:08:46.804512 18870 net.cpp:148] Top shape: 24 832 7 7 (978432)
I0403 19:08:46.804527 18870 net.cpp:148] Top shape: 24 832 7 7 (978432)
I0403 19:08:46.804543 18870 net.cpp:148] Top shape: 24 832 7 7 (978432)
I0403 19:08:46.804555 18870 net.cpp:156] Memory required for data: 1292125728
I0403 19:08:46.804570 18870 layer_factory.hpp:77] Creating layer inception_5a/1x1
I0403 19:08:46.804592 18870 net.cpp:91] Creating Layer inception_5a/1x1
I0403 19:08:46.804610 18870 net.cpp:425] inception_5a/1x1 <- pool4/3x3_s2_pool4/3x3_s2_0_split_0
I0403 19:08:46.804632 18870 net.cpp:399] inception_5a/1x1 -> inception_5a/1x1
I0403 19:08:46.807485 18870 net.cpp:141] Setting up inception_5a/1x1
I0403 19:08:46.807514 18870 net.cpp:148] Top shape: 24 256 7 7 (301056)
I0403 19:08:46.807530 18870 net.cpp:156] Memory required for data: 1293329952
I0403 19:08:46.807548 18870 layer_factory.hpp:77] Creating layer inception_5a/relu_1x1
I0403 19:08:46.807569 18870 net.cpp:91] Creating Layer inception_5a/relu_1x1
I0403 19:08:46.807585 18870 net.cpp:425] inception_5a/relu_1x1 <- inception_5a/1x1
I0403 19:08:46.807603 18870 net.cpp:386] inception_5a/relu_1x1 -> inception_5a/1x1 (in-place)
I0403 19:08:46.807917 18870 net.cpp:141] Setting up inception_5a/relu_1x1
I0403 19:08:46.807945 18870 net.cpp:148] Top shape: 24 256 7 7 (301056)
I0403 19:08:46.807960 18870 net.cpp:156] Memory required for data: 1294534176
I0403 19:08:46.807974 18870 layer_factory.hpp:77] Creating layer inception_5a/3x3_reduce
I0403 19:08:46.808022 18870 net.cpp:91] Creating Layer inception_5a/3x3_reduce
I0403 19:08:46.808043 18870 net.cpp:425] inception_5a/3x3_reduce <- pool4/3x3_s2_pool4/3x3_s2_0_split_1
I0403 19:08:46.808063 18870 net.cpp:399] inception_5a/3x3_reduce -> inception_5a/3x3_reduce
I0403 19:08:46.810539 18870 net.cpp:141] Setting up inception_5a/3x3_reduce
I0403 19:08:46.810569 18870 net.cpp:148] Top shape: 24 160 7 7 (188160)
I0403 19:08:46.810583 18870 net.cpp:156] Memory required for data: 1295286816
I0403 19:08:46.810602 18870 layer_factory.hpp:77] Creating layer inception_5a/relu_3x3_reduce
I0403 19:08:46.810622 18870 net.cpp:91] Creating Layer inception_5a/relu_3x3_reduce
I0403 19:08:46.810639 18870 net.cpp:425] inception_5a/relu_3x3_reduce <- inception_5a/3x3_reduce
I0403 19:08:46.810657 18870 net.cpp:386] inception_5a/relu_3x3_reduce -> inception_5a/3x3_reduce (in-place)
I0403 19:08:46.810840 18870 net.cpp:141] Setting up inception_5a/relu_3x3_reduce
I0403 19:08:46.810864 18870 net.cpp:148] Top shape: 24 160 7 7 (188160)
I0403 19:08:46.810879 18870 net.cpp:156] Memory required for data: 1296039456
I0403 19:08:46.810894 18870 layer_factory.hpp:77] Creating layer inception_5a/3x3
I0403 19:08:46.810915 18870 net.cpp:91] Creating Layer inception_5a/3x3
I0403 19:08:46.810936 18870 net.cpp:425] inception_5a/3x3 <- inception_5a/3x3_reduce
I0403 19:08:46.810956 18870 net.cpp:399] inception_5a/3x3 -> inception_5a/3x3
I0403 19:08:46.815935 18870 net.cpp:141] Setting up inception_5a/3x3
I0403 19:08:46.815965 18870 net.cpp:148] Top shape: 24 320 7 7 (376320)
I0403 19:08:46.815985 18870 net.cpp:156] Memory required for data: 1297544736
I0403 19:08:46.816005 18870 layer_factory.hpp:77] Creating layer inception_5a/relu_3x3
I0403 19:08:46.816027 18870 net.cpp:91] Creating Layer inception_5a/relu_3x3
I0403 19:08:46.816045 18870 net.cpp:425] inception_5a/relu_3x3 <- inception_5a/3x3
I0403 19:08:46.816062 18870 net.cpp:386] inception_5a/relu_3x3 -> inception_5a/3x3 (in-place)
I0403 19:08:46.816398 18870 net.cpp:141] Setting up inception_5a/relu_3x3
I0403 19:08:46.816426 18870 net.cpp:148] Top shape: 24 320 7 7 (376320)
I0403 19:08:46.816442 18870 net.cpp:156] Memory required for data: 1299050016
I0403 19:08:46.816457 18870 layer_factory.hpp:77] Creating layer inception_5a/5x5_reduce
I0403 19:08:46.816481 18870 net.cpp:91] Creating Layer inception_5a/5x5_reduce
I0403 19:08:46.816511 18870 net.cpp:425] inception_5a/5x5_reduce <- pool4/3x3_s2_pool4/3x3_s2_0_split_2
I0403 19:08:46.816534 18870 net.cpp:399] inception_5a/5x5_reduce -> inception_5a/5x5_reduce
I0403 19:08:46.817700 18870 net.cpp:141] Setting up inception_5a/5x5_reduce
I0403 19:08:46.817730 18870 net.cpp:148] Top shape: 24 32 7 7 (37632)
I0403 19:08:46.817746 18870 net.cpp:156] Memory required for data: 1299200544
I0403 19:08:46.817765 18870 layer_factory.hpp:77] Creating layer inception_5a/relu_5x5_reduce
I0403 19:08:46.817782 18870 net.cpp:91] Creating Layer inception_5a/relu_5x5_reduce
I0403 19:08:46.817800 18870 net.cpp:425] inception_5a/relu_5x5_reduce <- inception_5a/5x5_reduce
I0403 19:08:46.817819 18870 net.cpp:386] inception_5a/relu_5x5_reduce -> inception_5a/5x5_reduce (in-place)
I0403 19:08:46.818117 18870 net.cpp:141] Setting up inception_5a/relu_5x5_reduce
I0403 19:08:46.818145 18870 net.cpp:148] Top shape: 24 32 7 7 (37632)
I0403 19:08:46.818161 18870 net.cpp:156] Memory required for data: 1299351072
I0403 19:08:46.818176 18870 layer_factory.hpp:77] Creating layer inception_5a/5x5
I0403 19:08:46.818197 18870 net.cpp:91] Creating Layer inception_5a/5x5
I0403 19:08:46.818215 18870 net.cpp:425] inception_5a/5x5 <- inception_5a/5x5_reduce
I0403 19:08:46.818234 18870 net.cpp:399] inception_5a/5x5 -> inception_5a/5x5
I0403 19:08:46.819924 18870 net.cpp:141] Setting up inception_5a/5x5
I0403 19:08:46.819962 18870 net.cpp:148] Top shape: 24 128 7 7 (150528)
I0403 19:08:46.819983 18870 net.cpp:156] Memory required for data: 1299953184
I0403 19:08:46.820003 18870 layer_factory.hpp:77] Creating layer inception_5a/relu_5x5
I0403 19:08:46.820021 18870 net.cpp:91] Creating Layer inception_5a/relu_5x5
I0403 19:08:46.820039 18870 net.cpp:425] inception_5a/relu_5x5 <- inception_5a/5x5
I0403 19:08:46.820056 18870 net.cpp:386] inception_5a/relu_5x5 -> inception_5a/5x5 (in-place)
I0403 19:08:46.820243 18870 net.cpp:141] Setting up inception_5a/relu_5x5
I0403 19:08:46.820271 18870 net.cpp:148] Top shape: 24 128 7 7 (150528)
I0403 19:08:46.820286 18870 net.cpp:156] Memory required for data: 1300555296
I0403 19:08:46.820300 18870 layer_factory.hpp:77] Creating layer inception_5a/pool
I0403 19:08:46.820318 18870 net.cpp:91] Creating Layer inception_5a/pool
I0403 19:08:46.820335 18870 net.cpp:425] inception_5a/pool <- pool4/3x3_s2_pool4/3x3_s2_0_split_3
I0403 19:08:46.820356 18870 net.cpp:399] inception_5a/pool -> inception_5a/pool
I0403 19:08:46.820425 18870 net.cpp:141] Setting up inception_5a/pool
I0403 19:08:46.820448 18870 net.cpp:148] Top shape: 24 832 7 7 (978432)
I0403 19:08:46.820463 18870 net.cpp:156] Memory required for data: 1304469024
I0403 19:08:46.820477 18870 layer_factory.hpp:77] Creating layer inception_5a/pool_proj
I0403 19:08:46.820499 18870 net.cpp:91] Creating Layer inception_5a/pool_proj
I0403 19:08:46.820516 18870 net.cpp:425] inception_5a/pool_proj <- inception_5a/pool
I0403 19:08:46.820538 18870 net.cpp:399] inception_5a/pool_proj -> inception_5a/pool_proj
I0403 19:08:46.822794 18870 net.cpp:141] Setting up inception_5a/pool_proj
I0403 19:08:46.822824 18870 net.cpp:148] Top shape: 24 128 7 7 (150528)
I0403 19:08:46.822840 18870 net.cpp:156] Memory required for data: 1305071136
I0403 19:08:46.822860 18870 layer_factory.hpp:77] Creating layer inception_5a/relu_pool_proj
I0403 19:08:46.822895 18870 net.cpp:91] Creating Layer inception_5a/relu_pool_proj
I0403 19:08:46.822912 18870 net.cpp:425] inception_5a/relu_pool_proj <- inception_5a/pool_proj
I0403 19:08:46.822931 18870 net.cpp:386] inception_5a/relu_pool_proj -> inception_5a/pool_proj (in-place)
I0403 19:08:46.823223 18870 net.cpp:141] Setting up inception_5a/relu_pool_proj
I0403 19:08:46.823249 18870 net.cpp:148] Top shape: 24 128 7 7 (150528)
I0403 19:08:46.823263 18870 net.cpp:156] Memory required for data: 1305673248
I0403 19:08:46.823278 18870 layer_factory.hpp:77] Creating layer inception_5a/output
I0403 19:08:46.823295 18870 net.cpp:91] Creating Layer inception_5a/output
I0403 19:08:46.823312 18870 net.cpp:425] inception_5a/output <- inception_5a/1x1
I0403 19:08:46.823328 18870 net.cpp:425] inception_5a/output <- inception_5a/3x3
I0403 19:08:46.823344 18870 net.cpp:425] inception_5a/output <- inception_5a/5x5
I0403 19:08:46.823360 18870 net.cpp:425] inception_5a/output <- inception_5a/pool_proj
I0403 19:08:46.823379 18870 net.cpp:399] inception_5a/output -> inception_5a/output
I0403 19:08:46.823431 18870 net.cpp:141] Setting up inception_5a/output
I0403 19:08:46.823456 18870 net.cpp:148] Top shape: 24 832 7 7 (978432)
I0403 19:08:46.823469 18870 net.cpp:156] Memory required for data: 1309586976
I0403 19:08:46.823483 18870 layer_factory.hpp:77] Creating layer inception_5a/output_inception_5a/output_0_split
I0403 19:08:46.823500 18870 net.cpp:91] Creating Layer inception_5a/output_inception_5a/output_0_split
I0403 19:08:46.823516 18870 net.cpp:425] inception_5a/output_inception_5a/output_0_split <- inception_5a/output
I0403 19:08:46.823536 18870 net.cpp:399] inception_5a/output_inception_5a/output_0_split -> inception_5a/output_inception_5a/output_0_split_0
I0403 19:08:46.823557 18870 net.cpp:399] inception_5a/output_inception_5a/output_0_split -> inception_5a/output_inception_5a/output_0_split_1
I0403 19:08:46.823578 18870 net.cpp:399] inception_5a/output_inception_5a/output_0_split -> inception_5a/output_inception_5a/output_0_split_2
I0403 19:08:46.823599 18870 net.cpp:399] inception_5a/output_inception_5a/output_0_split -> inception_5a/output_inception_5a/output_0_split_3
I0403 19:08:46.823710 18870 net.cpp:141] Setting up inception_5a/output_inception_5a/output_0_split
I0403 19:08:46.823735 18870 net.cpp:148] Top shape: 24 832 7 7 (978432)
I0403 19:08:46.823751 18870 net.cpp:148] Top shape: 24 832 7 7 (978432)
I0403 19:08:46.823767 18870 net.cpp:148] Top shape: 24 832 7 7 (978432)
I0403 19:08:46.823782 18870 net.cpp:148] Top shape: 24 832 7 7 (978432)
I0403 19:08:46.823796 18870 net.cpp:156] Memory required for data: 1325241888
I0403 19:08:46.823809 18870 layer_factory.hpp:77] Creating layer inception_5b/1x1
I0403 19:08:46.823832 18870 net.cpp:91] Creating Layer inception_5b/1x1
I0403 19:08:46.823849 18870 net.cpp:425] inception_5b/1x1 <- inception_5a/output_inception_5a/output_0_split_0
I0403 19:08:46.823868 18870 net.cpp:399] inception_5b/1x1 -> inception_5b/1x1
I0403 19:08:46.827553 18870 net.cpp:141] Setting up inception_5b/1x1
I0403 19:08:46.827584 18870 net.cpp:148] Top shape: 24 384 7 7 (451584)
I0403 19:08:46.827599 18870 net.cpp:156] Memory required for data: 1327048224
I0403 19:08:46.827617 18870 layer_factory.hpp:77] Creating layer inception_5b/relu_1x1
I0403 19:08:46.827637 18870 net.cpp:91] Creating Layer inception_5b/relu_1x1
I0403 19:08:46.827656 18870 net.cpp:425] inception_5b/relu_1x1 <- inception_5b/1x1
I0403 19:08:46.827672 18870 net.cpp:386] inception_5b/relu_1x1 -> inception_5b/1x1 (in-place)
I0403 19:08:46.827971 18870 net.cpp:141] Setting up inception_5b/relu_1x1
I0403 19:08:46.828001 18870 net.cpp:148] Top shape: 24 384 7 7 (451584)
I0403 19:08:46.828016 18870 net.cpp:156] Memory required for data: 1328854560
I0403 19:08:46.828030 18870 layer_factory.hpp:77] Creating layer inception_5b/3x3_reduce
I0403 19:08:46.828055 18870 net.cpp:91] Creating Layer inception_5b/3x3_reduce
I0403 19:08:46.828073 18870 net.cpp:425] inception_5b/3x3_reduce <- inception_5a/output_inception_5a/output_0_split_1
I0403 19:08:46.828096 18870 net.cpp:399] inception_5b/3x3_reduce -> inception_5b/3x3_reduce
I0403 19:08:46.830730 18870 net.cpp:141] Setting up inception_5b/3x3_reduce
I0403 19:08:46.830759 18870 net.cpp:148] Top shape: 24 192 7 7 (225792)
I0403 19:08:46.830775 18870 net.cpp:156] Memory required for data: 1329757728
I0403 19:08:46.830793 18870 layer_factory.hpp:77] Creating layer inception_5b/relu_3x3_reduce
I0403 19:08:46.830813 18870 net.cpp:91] Creating Layer inception_5b/relu_3x3_reduce
I0403 19:08:46.830831 18870 net.cpp:425] inception_5b/relu_3x3_reduce <- inception_5b/3x3_reduce
I0403 19:08:46.830847 18870 net.cpp:386] inception_5b/relu_3x3_reduce -> inception_5b/3x3_reduce (in-place)
I0403 19:08:46.831037 18870 net.cpp:141] Setting up inception_5b/relu_3x3_reduce
I0403 19:08:46.831064 18870 net.cpp:148] Top shape: 24 192 7 7 (225792)
I0403 19:08:46.831080 18870 net.cpp:156] Memory required for data: 1330660896
I0403 19:08:46.831094 18870 layer_factory.hpp:77] Creating layer inception_5b/3x3
I0403 19:08:46.831115 18870 net.cpp:91] Creating Layer inception_5b/3x3
I0403 19:08:46.831131 18870 net.cpp:425] inception_5b/3x3 <- inception_5b/3x3_reduce
I0403 19:08:46.831152 18870 net.cpp:399] inception_5b/3x3 -> inception_5b/3x3
I0403 19:08:46.837699 18870 net.cpp:141] Setting up inception_5b/3x3
I0403 19:08:46.837728 18870 net.cpp:148] Top shape: 24 384 7 7 (451584)
I0403 19:08:46.837744 18870 net.cpp:156] Memory required for data: 1332467232
I0403 19:08:46.837762 18870 layer_factory.hpp:77] Creating layer inception_5b/relu_3x3
I0403 19:08:46.837782 18870 net.cpp:91] Creating Layer inception_5b/relu_3x3
I0403 19:08:46.837800 18870 net.cpp:425] inception_5b/relu_3x3 <- inception_5b/3x3
I0403 19:08:46.837817 18870 net.cpp:386] inception_5b/relu_3x3 -> inception_5b/3x3 (in-place)
I0403 19:08:46.838121 18870 net.cpp:141] Setting up inception_5b/relu_3x3
I0403 19:08:46.838147 18870 net.cpp:148] Top shape: 24 384 7 7 (451584)
I0403 19:08:46.838162 18870 net.cpp:156] Memory required for data: 1334273568
I0403 19:08:46.838176 18870 layer_factory.hpp:77] Creating layer inception_5b/5x5_reduce
I0403 19:08:46.838215 18870 net.cpp:91] Creating Layer inception_5b/5x5_reduce
I0403 19:08:46.838234 18870 net.cpp:425] inception_5b/5x5_reduce <- inception_5a/output_inception_5a/output_0_split_2
I0403 19:08:46.838256 18870 net.cpp:399] inception_5b/5x5_reduce -> inception_5b/5x5_reduce
I0403 19:08:46.839524 18870 net.cpp:141] Setting up inception_5b/5x5_reduce
I0403 19:08:46.839552 18870 net.cpp:148] Top shape: 24 48 7 7 (56448)
I0403 19:08:46.839568 18870 net.cpp:156] Memory required for data: 1334499360
I0403 19:08:46.839587 18870 layer_factory.hpp:77] Creating layer inception_5b/relu_5x5_reduce
I0403 19:08:46.839607 18870 net.cpp:91] Creating Layer inception_5b/relu_5x5_reduce
I0403 19:08:46.839624 18870 net.cpp:425] inception_5b/relu_5x5_reduce <- inception_5b/5x5_reduce
I0403 19:08:46.839642 18870 net.cpp:386] inception_5b/relu_5x5_reduce -> inception_5b/5x5_reduce (in-place)
I0403 19:08:46.840016 18870 net.cpp:141] Setting up inception_5b/relu_5x5_reduce
I0403 19:08:46.840042 18870 net.cpp:148] Top shape: 24 48 7 7 (56448)
I0403 19:08:46.840057 18870 net.cpp:156] Memory required for data: 1334725152
I0403 19:08:46.840072 18870 layer_factory.hpp:77] Creating layer inception_5b/5x5
I0403 19:08:46.840092 18870 net.cpp:91] Creating Layer inception_5b/5x5
I0403 19:08:46.840111 18870 net.cpp:425] inception_5b/5x5 <- inception_5b/5x5_reduce
I0403 19:08:46.840129 18870 net.cpp:399] inception_5b/5x5 -> inception_5b/5x5
I0403 19:08:46.842146 18870 net.cpp:141] Setting up inception_5b/5x5
I0403 19:08:46.842173 18870 net.cpp:148] Top shape: 24 128 7 7 (150528)
I0403 19:08:46.842190 18870 net.cpp:156] Memory required for data: 1335327264
I0403 19:08:46.842208 18870 layer_factory.hpp:77] Creating layer inception_5b/relu_5x5
I0403 19:08:46.842228 18870 net.cpp:91] Creating Layer inception_5b/relu_5x5
I0403 19:08:46.842247 18870 net.cpp:425] inception_5b/relu_5x5 <- inception_5b/5x5
I0403 19:08:46.842263 18870 net.cpp:386] inception_5b/relu_5x5 -> inception_5b/5x5 (in-place)
I0403 19:08:46.842455 18870 net.cpp:141] Setting up inception_5b/relu_5x5
I0403 19:08:46.842479 18870 net.cpp:148] Top shape: 24 128 7 7 (150528)
I0403 19:08:46.842494 18870 net.cpp:156] Memory required for data: 1335929376
I0403 19:08:46.842509 18870 layer_factory.hpp:77] Creating layer inception_5b/pool
I0403 19:08:46.842526 18870 net.cpp:91] Creating Layer inception_5b/pool
I0403 19:08:46.842543 18870 net.cpp:425] inception_5b/pool <- inception_5a/output_inception_5a/output_0_split_3
I0403 19:08:46.842563 18870 net.cpp:399] inception_5b/pool -> inception_5b/pool
I0403 19:08:46.842635 18870 net.cpp:141] Setting up inception_5b/pool
I0403 19:08:46.842660 18870 net.cpp:148] Top shape: 24 832 7 7 (978432)
I0403 19:08:46.842674 18870 net.cpp:156] Memory required for data: 1339843104
I0403 19:08:46.842689 18870 layer_factory.hpp:77] Creating layer inception_5b/pool_proj
I0403 19:08:46.842712 18870 net.cpp:91] Creating Layer inception_5b/pool_proj
I0403 19:08:46.842730 18870 net.cpp:425] inception_5b/pool_proj <- inception_5b/pool
I0403 19:08:46.842749 18870 net.cpp:399] inception_5b/pool_proj -> inception_5b/pool_proj
I0403 19:08:46.845015 18870 net.cpp:141] Setting up inception_5b/pool_proj
I0403 19:08:46.845046 18870 net.cpp:148] Top shape: 24 128 7 7 (150528)
I0403 19:08:46.845060 18870 net.cpp:156] Memory required for data: 1340445216
I0403 19:08:46.845079 18870 layer_factory.hpp:77] Creating layer inception_5b/relu_pool_proj
I0403 19:08:46.845100 18870 net.cpp:91] Creating Layer inception_5b/relu_pool_proj
I0403 19:08:46.845118 18870 net.cpp:425] inception_5b/relu_pool_proj <- inception_5b/pool_proj
I0403 19:08:46.845135 18870 net.cpp:386] inception_5b/relu_pool_proj -> inception_5b/pool_proj (in-place)
I0403 19:08:46.845432 18870 net.cpp:141] Setting up inception_5b/relu_pool_proj
I0403 19:08:46.845458 18870 net.cpp:148] Top shape: 24 128 7 7 (150528)
I0403 19:08:46.845473 18870 net.cpp:156] Memory required for data: 1341047328
I0403 19:08:46.845487 18870 layer_factory.hpp:77] Creating layer inception_5b/output
I0403 19:08:46.845509 18870 net.cpp:91] Creating Layer inception_5b/output
I0403 19:08:46.845538 18870 net.cpp:425] inception_5b/output <- inception_5b/1x1
I0403 19:08:46.845556 18870 net.cpp:425] inception_5b/output <- inception_5b/3x3
I0403 19:08:46.845573 18870 net.cpp:425] inception_5b/output <- inception_5b/5x5
I0403 19:08:46.845589 18870 net.cpp:425] inception_5b/output <- inception_5b/pool_proj
I0403 19:08:46.845607 18870 net.cpp:399] inception_5b/output -> inception_5b/output
I0403 19:08:46.845659 18870 net.cpp:141] Setting up inception_5b/output
I0403 19:08:46.845684 18870 net.cpp:148] Top shape: 24 1024 7 7 (1204224)
I0403 19:08:46.845697 18870 net.cpp:156] Memory required for data: 1345864224
I0403 19:08:46.845712 18870 layer_factory.hpp:77] Creating layer pool5/7x7_s1
I0403 19:08:46.845729 18870 net.cpp:91] Creating Layer pool5/7x7_s1
I0403 19:08:46.845746 18870 net.cpp:425] pool5/7x7_s1 <- inception_5b/output
I0403 19:08:46.845765 18870 net.cpp:399] pool5/7x7_s1 -> pool5/7x7_s1
I0403 19:08:46.845983 18870 net.cpp:141] Setting up pool5/7x7_s1
I0403 19:08:46.846009 18870 net.cpp:148] Top shape: 24 1024 1 1 (24576)
I0403 19:08:46.846025 18870 net.cpp:156] Memory required for data: 1345962528
I0403 19:08:46.846040 18870 layer_factory.hpp:77] Creating layer pool5/drop_7x7_s1
I0403 19:08:46.846058 18870 net.cpp:91] Creating Layer pool5/drop_7x7_s1
I0403 19:08:46.846074 18870 net.cpp:425] pool5/drop_7x7_s1 <- pool5/7x7_s1
I0403 19:08:46.846092 18870 net.cpp:386] pool5/drop_7x7_s1 -> pool5/7x7_s1 (in-place)
I0403 19:08:46.846144 18870 net.cpp:141] Setting up pool5/drop_7x7_s1
I0403 19:08:46.846168 18870 net.cpp:148] Top shape: 24 1024 1 1 (24576)
I0403 19:08:46.846181 18870 net.cpp:156] Memory required for data: 1346060832
I0403 19:08:46.846197 18870 layer_factory.hpp:77] Creating layer loss3/classifier_plantvillage
I0403 19:08:46.846217 18870 net.cpp:91] Creating Layer loss3/classifier_plantvillage
I0403 19:08:46.846235 18870 net.cpp:425] loss3/classifier_plantvillage <- pool5/7x7_s1
I0403 19:08:46.846254 18870 net.cpp:399] loss3/classifier_plantvillage -> loss3/classifier_plantvillage
I0403 19:08:46.846670 18870 net.cpp:141] Setting up loss3/classifier_plantvillage
I0403 19:08:46.846694 18870 net.cpp:148] Top shape: 24 38 (912)
I0403 19:08:46.846709 18870 net.cpp:156] Memory required for data: 1346064480
I0403 19:08:46.846727 18870 layer_factory.hpp:77] Creating layer loss3/classifier_plantvillage_loss3/classifier_plantvillage_0_split
I0403 19:08:46.846745 18870 net.cpp:91] Creating Layer loss3/classifier_plantvillage_loss3/classifier_plantvillage_0_split
I0403 19:08:46.846761 18870 net.cpp:425] loss3/classifier_plantvillage_loss3/classifier_plantvillage_0_split <- loss3/classifier_plantvillage
I0403 19:08:46.846782 18870 net.cpp:399] loss3/classifier_plantvillage_loss3/classifier_plantvillage_0_split -> loss3/classifier_plantvillage_loss3/classifier_plantvillage_0_split_0
I0403 19:08:46.846804 18870 net.cpp:399] loss3/classifier_plantvillage_loss3/classifier_plantvillage_0_split -> loss3/classifier_plantvillage_loss3/classifier_plantvillage_0_split_1
I0403 19:08:46.846825 18870 net.cpp:399] loss3/classifier_plantvillage_loss3/classifier_plantvillage_0_split -> loss3/classifier_plantvillage_loss3/classifier_plantvillage_0_split_2
I0403 19:08:46.846845 18870 net.cpp:399] loss3/classifier_plantvillage_loss3/classifier_plantvillage_0_split -> loss3/classifier_plantvillage_loss3/classifier_plantvillage_0_split_3
I0403 19:08:46.846947 18870 net.cpp:141] Setting up loss3/classifier_plantvillage_loss3/classifier_plantvillage_0_split
I0403 19:08:46.846972 18870 net.cpp:148] Top shape: 24 38 (912)
I0403 19:08:46.846993 18870 net.cpp:148] Top shape: 24 38 (912)
I0403 19:08:46.847009 18870 net.cpp:148] Top shape: 24 38 (912)
I0403 19:08:46.847025 18870 net.cpp:148] Top shape: 24 38 (912)
I0403 19:08:46.847039 18870 net.cpp:156] Memory required for data: 1346079072
I0403 19:08:46.847054 18870 layer_factory.hpp:77] Creating layer loss1/loss
I0403 19:08:46.847075 18870 net.cpp:91] Creating Layer loss1/loss
I0403 19:08:46.847092 18870 net.cpp:425] loss1/loss <- loss1/classifier_plantvillage_loss1/classifier_plantvillage_0_split_0
I0403 19:08:46.847126 18870 net.cpp:425] loss1/loss <- label_data_1_split_0
…
