…
I0403 19:15:43.914031 19266 net.cpp:313] The NetState phase (1) differed from the phase (0) specified by a rule in layer data
I0403 19:15:43.915138 19266 net.cpp:49] Initializing net from parameters: 
state {
  phase: TEST
}
layer {
  name: "data"
  type: "Data"
  top: "data"
  top: "label"
  include {
    phase: TEST
  }
  transform_param {
    mirror: false
    crop_size: 224
    mean_file: "/home/mohanty/data/final_dataset/lmdb/segmented-60-40/mean.binaryproto"
  }
  data_param {
    source: "/home/mohanty/data/final_dataset/lmdb/segmented-60-40/test_db"
    batch_size: 24
    backend: LMDB
  }
}
layer {
  name: "conv1/7x7_s2"
  type: "Convolution"
  bottom: "data"
  top: "conv1/7x7_s2"
  param {
    lr_mult: 1
    decay_mult: 1
  }
  param {
    lr_mult: 2
    decay_mult: 0
  }
  convolution_param {
    num_output: 64
    pad: 3
    kernel_size: 7
    stride: 2
    weight_filler {
      type: "xavier"
      std: 0.1
    }
    bias_filler {
      type: "constant"
      value: 0.2
    }
  }
}
layer {
  name: "conv1/relu_7x7"
  type: "ReLU"
  bottom: "conv1/7x7_s2"
  top: "conv1/7x7_s2"
}
layer {
  name: "pool1/3x3_s2"
  type: "Pooling"
  bottom: "conv1/7x7_s2"
  top: "pool1/3x3_s2"
  pooling_param {
    pool: MAX
    kernel_size: 3
    stride: 2
  }
}
layer {
  name: "pool1/norm1"
  type: "LRN"
  bottom: "pool1/3x3_s2"
  top: "pool1/norm1"
  lrn_param {
    local_size: 5
    alpha: 0.0001
    beta: 0.75
  }
}
layer {
  name: "conv2/3x3_reduce"
  type: "Convolution"
  bottom: "pool1/norm1"
  top: "conv2/3x3_reduce"
  param {
    lr_mult: 1
    decay_mult: 1
  }
  param {
    lr_mult: 2
    decay_mult: 0
  }
  convolution_param {
    num_output: 64
    kernel_size: 1
    weight_filler {
      type: "xavier"
      std: 0.1
    }
    bias_filler {
      type: "constant"
      value: 0.2
    }
  }
}
layer {
  name: "conv2/relu_3x3_reduce"
  type: "ReLU"
  bottom: "conv2/3x3_reduce"
  top: "conv2/3x3_reduce"
}
layer {
  name: "conv2/3x3"
  type: "Convolution"
  bottom: "conv2/3x3_reduce"
  top: "conv2/3x3"
  param {
    lr_mult: 1
    decay_mult: 1
  }
  param {
    lr_mult: 2
    decay_mult: 0
  }
  convolution_param {
    num_output: 192
    pad: 1
    kernel_size: 3
    weight_filler {
      type: "xavier"
      std: 0.03
    }
    bias_filler {
      type: "constant"
      value: 0.2
    }
  }
}
layer {
  name: "conv2/relu_3x3"
  type: "ReLU"
  bottom: "conv2/3x3"
  top: "conv2/3x3"
}
layer {
  name: "conv2/norm2"
  type: "LRN"
  bottom: "conv2/3x3"
  top: "conv2/norm2"
  lrn_param {
    local_size: 5
    alpha: 0.0001
    beta: 0.75
  }
}
layer {
  name: "pool2/3x3_s2"
  type: "Pooling"
  bottom: "conv2/norm2"
  top: "pool2/3x3_s2"
  pooling_param {
    pool: MAX
    kernel_size: 3
    stride: 2
  }
}
layer {
  name: "inception_3a/1x1"
  type: "Convolution"
  bottom: "pool2/3x3_s2"
  top: "inception_3a/1x1"
  param {
    lr_mult: 1
    decay_mult: 1
  }
  param {
    lr_mult: 2
    decay_mult: 0
  }
  convolution_param {
    num_output: 64
    kernel_size: 1
    weight_filler {
      type: "xavier"
      std: 0.03
    }
    bias_filler {
      type: "constant"
      value: 0.2
    }
  }
}
layer {
  name: "inception_3a/relu_1x1"
  type: "ReLU"
  bottom: "inception_3a/1x1"
  top: "inception_3a/1x1"
}
layer {
  name: "inception_3a/3x3_reduce"
  type: "Convolution"
  bottom: "pool2/3x3_s2"
  top: "inception_3a/3x3_reduce"
  param {
    lr_mult: 1
    decay_mult: 1
  }
  param {
    lr_mult: 2
    decay_mult: 0
  }
  convolution_param {
    num_output: 96
    kernel_size: 1
    weight_filler {
      type: "xavier"
      std: 0.09
    }
    bias_filler {
      type: "constant"
      value: 0.2
    }
  }
}
layer {
  name: "inception_3a/relu_3x3_reduce"
  type: "ReLU"
  bottom: "inception_3a/3x3_reduce"
  top: "inception_3a/3x3_reduce"
}
layer {
  name: "inception_3a/3x3"
  type: "Convolution"
  bottom: "inception_3a/3x3_reduce"
  top: "inception_3a/3x3"
  param {
    lr_mult: 1
    decay_mult: 1
  }
  param {
    lr_mult: 2
    decay_mult: 0
  }
  convolution_param {
    num_output: 128
    pad: 1
    kernel_size: 3
    weight_filler {
      type: "xavier"
      std: 0.03
    }
    bias_filler {
      type: "constant"
      value: 0.2
    }
  }
}
layer {
  name: "inception_3a/relu_3x3"
  type: "ReLU"
  bottom: "inception_3a/3x3"
  top: "inception_3a/3x3"
}
layer {
  name: "inception_3a/5x5_reduce"
  type: "Convolution"
  bottom: "pool2/3x3_s2"
  top: "inception_3a/5x5_reduce"
  param {
    lr_mult: 1
    decay_mult: 1
  }
  param {
    lr_mult: 2
    decay_mult: 0
  }
  convolution_param {
    num_output: 16
    kernel_size: 1
    weight_filler {
      type: "xavier"
      std: 0.2
    }
    bias_filler {
      type: "constant"
      value: 0.2
    }
  }
}
layer {
  name: "inception_3a/relu_5x5_reduce"
  type: "ReLU"
  bottom: "inception_3a/5x5_reduce"
  top: "inception_3a/5x5_reduce"
}
layer {
  name: "inception_3a/5x5"
  type: "Convolution"
  bottom: "inception_3a/5x5_reduce"
  top: "inception_3a/5x5"
  param {
    lr_mult: 1
    decay_mult: 1
  }
  param {
    lr_mult: 2
    decay_mult: 0
  }
  convolution_param {
    num_output: 32
    pad: 2
    kernel_size: 5
    weight_filler {
      type: "xavier"
      std: 0.03
    }
    bias_filler {
      type: "constant"
      value: 0.2
    }
  }
}
layer {
  name: "inception_3a/relu_5x5"
  type: "ReLU"
  bottom: "inception_3a/5x5"
  top: "inception_3a/5x5"
}
layer {
  name: "inception_3a/pool"
  type: "Pooling"
  bottom: "pool2/3x3_s2"
  top: "inception_3a/pool"
  pooling_param {
    pool: MAX
    kernel_size: 3
    stride: 1
    pad: 1
  }
}
layer {
  name: "inception_3a/pool_proj"
  type: "Convolution"
  bottom: "inception_3a/pool"
  top: "inception_3a/pool_proj"
  param {
    lr_mult: 1
    decay_mult: 1
  }
  param {
    lr_mult: 2
    decay_mult: 0
  }
  convolution_param {
    num_output: 32
    kernel_size: 1
    weight_filler {
      type: "xavier"
      std: 0.1
    }
    bias_filler {
      type: "constant"
      value: 0.2
    }
  }
}
layer {
  name: "inception_3a/relu_pool_proj"
  type: "ReLU"
  bottom: "inception_3a/pool_proj"
  top: "inception_3a/pool_proj"
}
layer {
  name: "inception_3a/output"
  type: "Concat"
  bottom: "inception_3a/1x1"
  bottom: "inception_3a/3x3"
  bottom: "inception_3a/5x5"
  bottom: "inception_3a/pool_proj"
  top: "inception_3a/output"
}
layer {
  name: "inception_3b/1x1"
  type: "Convolution"
  bottom: "inception_3a/output"
  top: "inception_3b/1x1"
  param {
    lr_mult: 1
    decay_mult: 1
  }
  param {
    lr_mult: 2
    decay_mult: 0
  }
  convolution_param {
    num_output: 128
    kernel_size: 1
    weight_filler {
      type: "xavier"
      std: 0.03
    }
    bias_filler {
      type: "constant"
      value: 0.2
    }
  }
}
layer {
  name: "inception_3b/relu_1x1"
  type: "ReLU"
  bottom: "inception_3b/1x1"
  top: "inception_3b/1x1"
}
layer {
  name: "inception_3b/3x3_reduce"
  type: "Convolution"
  bottom: "inception_3a/output"
  top: "inception_3b/3x3_reduce"
  param {
    lr_mult: 1
    decay_mult: 1
  }
  param {
    lr_mult: 2
    decay_mult: 0
  }
  convolution_param {
    num_output: 128
    kernel_size: 1
    weight_filler {
      type: "xavier"
      std: 0.09
    }
    bias_filler {
      type: "constant"
      value: 0.2
    }
  }
}
layer {
  name: "inception_3b/relu_3x3_reduce"
  type: "ReLU"
  bottom: "inception_3b/3x3_reduce"
  top: "inception_3b/3x3_reduce"
}
layer {
  name: "inception_3b/3x3"
  type: "Convolution"
  bottom: "inception_3b/3x3_reduce"
  top: "inception_3b/3x3"
  param {
    lr_mult: 1
    decay_mult: 1
  }
  param {
    lr_mult: 2
    decay_mult: 0
  }
  convolution_param {
    num_output: 192
    pad: 1
    kernel_size: 3
    weight_filler {
      type: "xavier"
      std: 0.03
    }
    bias_filler {
      type: "constant"
      value: 0.2
    }
  }
}
layer {
  name: "inception_3b/relu_3x3"
  type: "ReLU"
  bottom: "inception_3b/3x3"
  top: "inception_3b/3x3"
}
layer {
  name: "inception_3b/5x5_reduce"
  type: "Convolution"
  bottom: "inception_3a/output"
  top: "inception_3b/5x5_reduce"
  param {
    lr_mult: 1
    decay_mult: 1
  }
  param {
    lr_mult: 2
    decay_mult: 0
  }
  convolution_param {
    num_output: 32
    kernel_size: 1
    weight_filler {
      type: "xavier"
      std: 0.2
    }
    bias_filler {
      type: "constant"
      value: 0.2
    }
  }
}
layer {
  name: "inception_3b/relu_5x5_reduce"
  type: "ReLU"
  bottom: "inception_3b/5x5_reduce"
  top: "inception_3b/5x5_reduce"
}
layer {
  name: "inception_3b/5x5"
  type: "Convolution"
  bottom: "inception_3b/5x5_reduce"
  top: "inception_3b/5x5"
  param {
    lr_mult: 1
    decay_mult: 1
  }
  param {
    lr_mult: 2
    decay_mult: 0
  }
  convolution_param {
    num_output: 96
    pad: 2
    kernel_size: 5
    weight_filler {
      type: "xavier"
      std: 0.03
    }
    bias_filler {
      type: "constant"
      value: 0.2
    }
  }
}
layer {
  name: "inception_3b/relu_5x5"
  type: "ReLU"
  bottom: "inception_3b/5x5"
  top: "inception_3b/5x5"
}
layer {
  name: "inception_3b/pool"
  type: "Pooling"
  bottom: "inception_3a/output"
  top: "inception_3b/pool"
  pooling_param {
    pool: MAX
    kernel_size: 3
    stride: 1
    pad: 1
  }
}
layer {
  name: "inception_3b/pool_proj"
  type: "Convolution"
  bottom: "inception_3b/pool"
  top: "inception_3b/pool_proj"
  param {
    lr_mult: 1
    decay_mult: 1
  }
  param {
    lr_mult: 2
    decay_mult: 0
  }
  convolution_param {
    num_output: 64
    kernel_size: 1
    weight_filler {
      type: "xavier"
      std: 0.1
    }
    bias_filler {
      type: "constant"
      value: 0.2
    }
  }
}
layer {
  name: "inception_3b/relu_pool_proj"
  type: "ReLU"
  bottom: "inception_3b/pool_proj"
  top: "inception_3b/pool_proj"
}
layer {
  name: "inception_3b/output"
  type: "Concat"
  bottom: "inception_3b/1x1"
  bottom: "inception_3b/3x3"
  bottom: "inception_3b/5x5"
  bottom: "inception_3b/pool_proj"
  top: "inception_3b/output"
}
layer {
  name: "pool3/3x3_s2"
  type: "Pooling"
  bottom: "inception_3b/output"
  top: "pool3/3x3_s2"
  pooling_param {
    pool: MAX
    kernel_size: 3
    stride: 2
  }
}
layer {
  name: "inception_4a/1x1"
  type: "Convolution"
  bottom: "pool3/3x3_s2"
  top: "inception_4a/1x1"
  param {
    lr_mult: 1
    decay_mult: 1
  }
  param {
    lr_mult: 2
    decay_mult: 0
  }
  convolution_param {
    num_output: 192
    kernel_size: 1
    weight_filler {
      type: "xavier"
      std: 0.03
    }
    bias_filler {
      type: "constant"
      value: 0.2
    }
  }
}
layer {
  name: "inception_4a/relu_1x1"
  type: "ReLU"
  bottom: "inception_4a/1x1"
  top: "inception_4a/1x1"
}
layer {
  name: "inception_4a/3x3_reduce"
  type: "Convolution"
  bottom: "pool3/3x3_s2"
  top: "inception_4a/3x3_reduce"
  param {
    lr_mult: 1
    decay_mult: 1
  }
  param {
    lr_mult: 2
    decay_mult: 0
  }
  convolution_param {
    num_output: 96
    kernel_size: 1
    weight_filler {
      type: "xavier"
      std: 0.09
    }
    bias_filler {
      type: "constant"
      value: 0.2
    }
  }
}
layer {
  name: "inception_4a/relu_3x3_reduce"
  type: "ReLU"
  bottom: "inception_4a/3x3_reduce"
  top: "inception_4a/3x3_reduce"
}
layer {
  name: "inception_4a/3x3"
  type: "Convolution"
  bottom: "inception_4a/3x3_reduce"
  top: "inception_4a/3x3"
  param {
    lr_mult: 1
    decay_mult: 1
  }
  param {
    lr_mult: 2
    decay_mult: 0
  }
  convolution_param {
    num_output: 208
    pad: 1
    kernel_size: 3
    weight_filler {
      type: "xavier"
      std: 0.03
    }
    bias_filler {
      type: "constant"
      value: 0.2
    }
  }
}
layer {
  name: "inception_4a/relu_3x3"
  type: "ReLU"
  bottom: "inception_4a/3x3"
  top: "inception_4a/3x3"
}
layer {
  name: "inception_4a/5x5_reduce"
  type: "Convolution"
  bottom: "pool3/3x3_s2"
  top: "inception_4a/5x5_reduce"
  param {
    lr_mult: 1
    decay_mult: 1
  }
  param {
    lr_mult: 2
    decay_mult: 0
  }
  convolution_param {
    num_output: 16
    kernel_size: 1
    weight_filler {
      type: "xavier"
      std: 0.2
    }
    bias_filler {
      type: "constant"
      value: 0.2
    }
  }
}
layer {
  name: "inception_4a/relu_5x5_reduce"
  type: "ReLU"
  bottom: "inception_4a/5x5_reduce"
  top: "inception_4a/5x5_reduce"
}
layer {
  name: "inception_4a/5x5"
  type: "Convolution"
  bottom: "inception_4a/5x5_reduce"
  top: "inception_4a/5x5"
  param {
    lr_mult: 1
    decay_mult: 1
  }
  param {
    lr_mult: 2
    decay_mult: 0
  }
  convolution_param {
    num_output: 48
    pad: 2
    kernel_size: 5
    weight_filler {
      type: "xavier"
      std: 0.03
    }
    bias_filler {
      type: "constant"
      value: 0.2
    }
  }
}
layer {
  name: "inception_4a/relu_5x5"
  type: "ReLU"
  bottom: "inception_4a/5x5"
  top: "inception_4a/5x5"
}
layer {
  name: "inception_4a/pool"
  type: "Pooling"
  bottom: "pool3/3x3_s2"
  top: "inception_4a/pool"
  pooling_param {
    pool: MAX
    kernel_size: 3
    stride: 1
    pad: 1
  }
}
layer {
  name: "inception_4a/pool_proj"
  type: "Convolution"
  bottom: "inception_4a/pool"
  top: "inception_4a/pool_proj"
  param {
    lr_mult: 1
    decay_mult: 1
  }
  param {
    lr_mult: 2
    decay_mult: 0
  }
  convolution_param {
    num_output: 64
    kernel_size: 1
    weight_filler {
      type: "xavier"
      std: 0.1
    }
    bias_filler {
      type: "constant"
      value: 0.2
    }
  }
}
layer {
  name: "inception_4a/relu_pool_proj"
  type: "ReLU"
  bottom: "inception_4a/pool_proj"
  top: "inception_4a/pool_proj"
}
layer {
  name: "inception_4a/output"
  type: "Concat"
  bottom: "inception_4a/1x1"
  bottom: "inception_4a/3x3"
  bottom: "inception_4a/5x5"
  bottom: "inception_4a/pool_proj"
  top: "inception_4a/output"
}
layer {
  name: "loss1/ave_pool"
  type: "Pooling"
  bottom: "inception_4a/output"
  top: "loss1/ave_pool"
  pooling_param {
    pool: AVE
    kernel_size: 5
    stride: 3
  }
}
layer {
  name: "loss1/conv"
  type: "Convolution"
  bottom: "loss1/ave_pool"
  top: "loss1/conv"
  param {
    lr_mult: 1
    decay_mult: 1
  }
  param {
    lr_mult: 2
    decay_mult: 0
  }
  convolution_param {
    num_output: 128
    kernel_size: 1
    weight_filler {
      type: "xavier"
      std: 0.08
    }
    bias_filler {
      type: "constant"
      value: 0.2
    }
  }
}
layer {
  name: "loss1/relu_conv"
  type: "ReLU"
  bottom: "loss1/conv"
  top: "loss1/conv"
}
layer {
  name: "loss1/fc"
  type: "InnerProduct"
  bottom: "loss1/conv"
  top: "loss1/fc"
  param {
    lr_mult: 1
    decay_mult: 1
  }
  param {
    lr_mult: 2
    decay_mult: 0
  }
  inner_product_param {
    num_output: 1024
    weight_filler {
      type: "xavier"
      std: 0.02
    }
    bias_filler {
      type: "constant"
      value: 0.2
    }
  }
}
layer {
  name: "loss1/relu_fc"
  type: "ReLU"
  bottom: "loss1/fc"
  top: "loss1/fc"
}
layer {
  name: "loss1/drop_fc"
  type: "Dropout"
  bottom: "loss1/fc"
  top: "loss1/fc"
  dropout_param {
    dropout_ratio: 0.7
  }
}
layer {
  name: "loss1/classifier_plantvillage"
  type: "InnerProduct"
  bottom: "loss1/fc"
  top: "loss1/classifier_plantvillage"
  param {
    lr_mult: 1
    decay_mult: 1
  }
  param {
    lr_mult: 2
    decay_mult: 0
  }
  inner_product_param {
    num_output: 38
    weight_filler {
      type: "xavier"
      std: 0.0009765625
    }
    bias_filler {
      type: "constant"
      value: 0
    }
  }
}
layer {
  name: "inception_4b/1x1"
  type: "Convolution"
  bottom: "inception_4a/output"
  top: "inception_4b/1x1"
  param {
    lr_mult: 1
    decay_mult: 1
  }
  param {
    lr_mult: 2
    decay_mult: 0
  }
  convolution_param {
    num_output: 160
    kernel_size: 1
    weight_filler {
      type: "xavier"
      std: 0.03
    }
    bias_filler {
      type: "constant"
      value: 0.2
    }
  }
}
layer {
  name: "inception_4b/relu_1x1"
  type: "ReLU"
  bottom: "inception_4b/1x1"
  top: "inception_4b/1x1"
}
layer {
  name: "inception_4b/3x3_reduce"
  type: "Convolution"
  bottom: "inception_4a/output"
  top: "inception_4b/3x3_reduce"
  param {
    lr_mult: 1
    decay_mult: 1
  }
  param {
    lr_mult: 2
    decay_mult: 0
  }
  convolution_param {
    num_output: 112
    kernel_size: 1
    weight_filler {
      type: "xavier"
      std: 0.09
    }
    bias_filler {
      type: "constant"
      value: 0.2
    }
  }
}
layer {
  name: "inception_4b/relu_3x3_reduce"
  type: "ReLU"
  bottom: "inception_4b/3x3_reduce"
  top: "inception_4b/3x3_reduce"
}
layer {
  name: "inception_4b/3x3"
  type: "Convolution"
  bottom: "inception_4b/3x3_reduce"
  top: "inception_4b/3x3"
  param {
    lr_mult: 1
    decay_mult: 1
  }
  param {
    lr_mult: 2
    decay_mult: 0
  }
  convolution_param {
    num_output: 224
    pad: 1
    kernel_size: 3
    weight_filler {
      type: "xavier"
      std: 0.03
    }
    bias_filler {
      type: "constant"
      value: 0.2
    }
  }
}
layer {
  name: "inception_4b/relu_3x3"
  type: "ReLU"
  bottom: "inception_4b/3x3"
  top: "inception_4b/3x3"
}
layer {
  name: "inception_4b/5x5_reduce"
  type: "Convolution"
  bottom: "inception_4a/output"
  top: "inception_4b/5x5_reduce"
  param {
    lr_mult: 1
    decay_mult: 1
  }
  param {
    lr_mult: 2
    decay_mult: 0
  }
  convolution_param {
    num_output: 24
    kernel_size: 1
    weight_filler {
      type: "xavier"
      std: 0.2
    }
    bias_filler {
      type: "constant"
      value: 0.2
    }
  }
}
layer {
  name: "inception_4b/relu_5x5_reduce"
  type: "ReLU"
  bottom: "inception_4b/5x5_reduce"
  top: "inception_4b/5x5_reduce"
}
layer {
  name: "inception_4b/5x5"
  type: "Convolution"
  bottom: "inception_4b/5x5_reduce"
  top: "inception_4b/5x5"
  param {
    lr_mult: 1
    decay_mult: 1
  }
  param {
    lr_mult: 2
    decay_mult: 0
  }
  convolution_param {
    num_output: 64
    pad: 2
    kernel_size: 5
    weight_filler {
      type: "xavier"
      std: 0.03
    }
    bias_filler {
      type: "constant"
      value: 0.2
    }
  }
}
layer {
  name: "inception_4b/relu_5x5"
  type: "ReLU"
  bottom: "inception_4b/5x5"
  top: "inception_4b/5x5"
}
layer {
  name: "inception_4b/pool"
  type: "Pooling"
  bottom: "inception_4a/output"
  top: "inception_4b/pool"
  pooling_param {
    pool: MAX
    kernel_size: 3
    stride: 1
    pad: 1
  }
}
layer {
  name: "inception_4b/pool_proj"
  type: "Convolution"
  bottom: "inception_4b/pool"
  top: "inception_4b/pool_proj"
  param {
    lr_mult: 1
    decay_mult: 1
  }
  param {
    lr_mult: 2
    decay_mult: 0
  }
  convolution_param {
    num_output: 64
    kernel_size: 1
    weight_filler {
      type: "xavier"
      std: 0.1
    }
    bias_filler {
      type: "constant"
      value: 0.2
    }
  }
}
layer {
  name: "inception_4b/relu_pool_proj"
  type: "ReLU"
  bottom: "inception_4b/pool_proj"
  top: "inception_4b/pool_proj"
}
layer {
  name: "inception_4b/output"
  type: "Concat"
  bottom: "inception_4b/1x1"
  bottom: "inception_4b/3x3"
  bottom: "inception_4b/5x5"
  bottom: "inception_4b/pool_proj"
  top: "inception_4b/output"
}
layer {
  name: "inception_4c/1x1"
  type: "Convolution"
  bottom: "inception_4b/output"
  top: "inception_4c/1x1"
  param {
    lr_mult: 1
    decay_mult: 1
  }
  param {
    lr_mult: 2
    decay_mult: 0
  }
  convolution_param {
    num_output: 128
    kernel_size: 1
    weight_filler {
      type: "xavier"
      std: 0.03
    }
    bias_filler {
      type: "constant"
      value: 0.2
    }
  }
}
layer {
  name: "inception_4c/relu_1x1"
  type: "ReLU"
  bottom: "inception_4c/1x1"
  top: "inception_4c/1x1"
}
layer {
  name: "inception_4c/3x3_reduce"
  type: "Convolution"
  bottom: "inception_4b/output"
  top: "inception_4c/3x3_reduce"
  param {
    lr_mult: 1
    decay_mult: 1
  }
  param {
    lr_mult: 2
    decay_mult: 0
  }
  convolution_param {
    num_output: 128
    kernel_size: 1
    weight_filler {
      type: "xavier"
      std: 0.09
    }
    bias_filler {
      type: "constant"
      value: 0.2
    }
  }
}
layer {
  name: "inception_4c/relu_3x3_reduce"
  type: "ReLU"
  bottom: "inception_4c/3x3_reduce"
  top: "inception_4c/3x3_reduce"
}
layer {
  name: "inception_4c/3x3"
  type: "Convolution"
  bottom: "inception_4c/3x3_reduce"
  top: "inception_4c/3x3"
  param {
    lr_mult: 1
    decay_mult: 1
  }
  param {
    lr_mult: 2
    decay_mult: 0
  }
  convolution_param {
    num_output: 256
    pad: 1
    kernel_size: 3
    weight_filler {
      type: "xavier"
      std: 0.03
    }
    bias_filler {
      type: "constant"
      value: 0.2
    }
  }
}
layer {
  name: "inception_4c/relu_3x3"
  type: "ReLU"
  bottom: "inception_4c/3x3"
  top: "inception_4c/3x3"
}
layer {
  name: "inception_4c/5x5_reduce"
  type: "Convolution"
  bottom: "inception_4b/output"
  top: "inception_4c/5x5_reduce"
  param {
    lr_mult: 1
    decay_mult: 1
  }
  param {
    lr_mult: 2
    decay_mult: 0
  }
  convolution_param {
    num_output: 24
    kernel_size: 1
    weight_filler {
      type: "xavier"
      std: 0.2
    }
    bias_filler {
      type: "constant"
      value: 0.2
    }
  }
}
layer {
  name: "inception_4c/relu_5x5_reduce"
  type: "ReLU"
  bottom: "inception_4c/5x5_reduce"
  top: "inception_4c/5x5_reduce"
}
layer {
  name: "inception_4c/5x5"
  type: "Convolution"
  bottom: "inception_4c/5x5_reduce"
  top: "inception_4c/5x5"
  param {
    lr_mult: 1
    decay_mult: 1
  }
  param {
    lr_mult: 2
    decay_mult: 0
  }
  convolution_param {
    num_output: 64
    pad: 2
    kernel_size: 5
    weight_filler {
      type: "xavier"
      std: 0.03
    }
    bias_filler {
      type: "constant"
      value: 0.2
    }
  }
}
layer {
  name: "inception_4c/relu_5x5"
  type: "ReLU"
  bottom: "inception_4c/5x5"
  top: "inception_4c/5x5"
}
layer {
  name: "inception_4c/pool"
  type: "Pooling"
  bottom: "inception_4b/output"
  top: "inception_4c/pool"
  pooling_param {
    pool: MAX
    kernel_size: 3
    stride: 1
    pad: 1
  }
}
layer {
  name: "inception_4c/pool_proj"
  type: "Convolution"
  bottom: "inception_4c/pool"
  top: "inception_4c/pool_proj"
  param {
    lr_mult: 1
    decay_mult: 1
  }
  param {
    lr_mult: 2
    decay_mult: 0
  }
  convolution_param {
    num_output: 64
    kernel_size: 1
    weight_filler {
      type: "xavier"
      std: 0.1
    }
    bias_filler {
      type: "constant"
      value: 0.2
    }
  }
}
layer {
  name: "inception_4c/relu_pool_proj"
  type: "ReLU"
  bottom: "inception_4c/pool_proj"
  top: "inception_4c/pool_proj"
}
layer {
  name: "inception_4c/output"
  type: "Concat"
  bottom: "inception_4c/1x1"
  bottom: "inception_4c/3x3"
  bottom: "inception_4c/5x5"
  bottom: "inception_4c/pool_proj"
  top: "inception_4c/output"
}
layer {
  name: "inception_4d/1x1"
  type: "Convolution"
  bottom: "inception_4c/output"
  top: "inception_4d/1x1"
  param {
    lr_mult: 1
    decay_mult: 1
  }
  param {
    lr_mult: 2
    decay_mult: 0
  }
  convolution_param {
    num_output: 112
    kernel_size: 1
    weight_filler {
      type: "xavier"
      std: 0.03
    }
    bias_filler {
      type: "constant"
      value: 0.2
    }
  }
}
layer {
  name: "inception_4d/relu_1x1"
  type: "ReLU"
  bottom: "inception_4d/1x1"
  top: "inception_4d/1x1"
}
layer {
  name: "inception_4d/3x3_reduce"
  type: "Convolution"
  bottom: "inception_4c/output"
  top: "inception_4d/3x3_reduce"
  param {
    lr_mult: 1
    decay_mult: 1
  }
  param {
    lr_mult: 2
    decay_mult: 0
  }
  convolution_param {
    num_output: 144
    kernel_size: 1
    weight_filler {
      type: "xavier"
      std: 0.09
    }
    bias_filler {
      type: "constant"
      value: 0.2
    }
  }
}
layer {
  name: "inception_4d/relu_3x3_reduce"
  type: "ReLU"
  bottom: "inception_4d/3x3_reduce"
  top: "inception_4d/3x3_reduce"
}
layer {
  name: "inception_4d/3x3"
  type: "Convolution"
  bottom: "inception_4d/3x3_reduce"
  top: "inception_4d/3x3"
  param {
    lr_mult: 1
    decay_mult: 1
  }
  param {
    lr_mult: 2
    decay_mult: 0
  }
  convolution_param {
    num_output: 288
    pad: 1
    kernel_size: 3
    weight_filler {
      type: "xavier"
      std: 0.03
    }
    bias_filler {
      type: "constant"
      value: 0.2
    }
  }
}
layer {
  name: "inception_4d/relu_3x3"
  type: "ReLU"
  bottom: "inception_4d/3x3"
  top: "inception_4d/3x3"
}
layer {
  name: "inception_4d/5x5_reduce"
  type: "Convolution"
  bottom: "inception_4c/output"
  top: "inception_4d/5x5_reduce"
  param {
    lr_mult: 1
    decay_mult: 1
  }
  param {
    lr_mult: 2
    decay_mult: 0
  }
  convolution_param {
    num_output: 32
    kernel_size: 1
    weight_filler {
      type: "xavier"
      std: 0.2
    }
    bias_filler {
      type: "constant"
      value: 0.2
    }
  }
}
layer {
  name: "inception_4d/relu_5x5_reduce"
  type: "ReLU"
  bottom: "inception_4d/5x5_reduce"
  top: "inception_4d/5x5_reduce"
}
layer {
  name: "inception_4d/5x5"
  type: "Convolution"
  bottom: "inception_4d/5x5_reduce"
  top: "inception_4d/5x5"
  param {
    lr_mult: 1
    decay_mult: 1
  }
  param {
    lr_mult: 2
    decay_mult: 0
  }
  convolution_param {
    num_output: 64
    pad: 2
    kernel_size: 5
    weight_filler {
      type: "xavier"
      std: 0.03
    }
    bias_filler {
      type: "constant"
      value: 0.2
    }
  }
}
layer {
  name: "inception_4d/relu_5x5"
  type: "ReLU"
  bottom: "inception_4d/5x5"
  top: "inception_4d/5x5"
}
layer {
  name: "inception_4d/pool"
  type: "Pooling"
  bottom: "inception_4c/output"
  top: "inception_4d/pool"
  pooling_param {
    pool: MAX
    kernel_size: 3
    stride: 1
    pad: 1
  }
}
layer {
  name: "inception_4d/pool_proj"
  type: "Convolution"
  bottom: "inception_4d/pool"
  top: "inception_4d/pool_proj"
  param {
    lr_mult: 1
    decay_mult: 1
  }
  param {
    lr_mult: 2
    decay_mult: 0
  }
  convolution_param {
    num_output: 64
    kernel_size: 1
    weight_filler {
      type: "xavier"
      std: 0.1
    }
    bias_filler {
      type: "constant"
      value: 0.2
    }
  }
}
layer {
  name: "inception_4d/relu_pool_proj"
  type: "ReLU"
  bottom: "inception_4d/pool_proj"
  top: "inception_4d/pool_proj"
}
layer {
  name: "inception_4d/output"
  type: "Concat"
  bottom: "inception_4d/1x1"
  bottom: "inception_4d/3x3"
  bottom: "inception_4d/5x5"
  bottom: "inception_4d/pool_proj"
  top: "inception_4d/output"
}
layer {
  name: "loss2/ave_pool"
  type: "Pooling"
  bottom: "inception_4d/output"
  top: "loss2/ave_pool"
  pooling_param {
    pool: AVE
    kernel_size: 5
    stride: 3
  }
}
layer {
  name: "loss2/conv"
  type: "Convolution"
  bottom: "loss2/ave_pool"
  top: "loss2/conv"
  param {
    lr_mult: 1
    decay_mult: 1
  }
  param {
    lr_mult: 2
    decay_mult: 0
  }
  convolution_param {
    num_output: 128
    kernel_size: 1
    weight_filler {
      type: "xavier"
      std: 0.08
    }
    bias_filler {
      type: "constant"
      value: 0.2
    }
  }
}
layer {
  name: "loss2/relu_conv"
  type: "ReLU"
  bottom: "loss2/conv"
  top: "loss2/conv"
}
layer {
  name: "loss2/fc"
  type: "InnerProduct"
  bottom: "loss2/conv"
  top: "loss2/fc"
  param {
    lr_mult: 1
    decay_mult: 1
  }
  param {
    lr_mult: 2
    decay_mult: 0
  }
  inner_product_param {
    num_output: 1024
    weight_filler {
      type: "xavier"
      std: 0.02
    }
    bias_filler {
      type: "constant"
      value: 0.2
    }
  }
}
layer {
  name: "loss2/relu_fc"
  type: "ReLU"
  bottom: "loss2/fc"
  top: "loss2/fc"
}
layer {
  name: "loss2/drop_fc"
  type: "Dropout"
  bottom: "loss2/fc"
  top: "loss2/fc"
  dropout_param {
    dropout_ratio: 0.7
  }
}
layer {
  name: "loss2/classifier_plantvillage"
  type: "InnerProduct"
  bottom: "loss2/fc"
  top: "loss2/classifier_plantvillage"
  param {
    lr_mult: 1
    decay_mult: 1
  }
  param {
    lr_mult: 2
    decay_mult: 0
  }
  inner_product_param {
    num_output: 38
    weight_filler {
      type: "xavier"
      std: 0.0009765625
    }
    bias_filler {
      type: "constant"
      value: 0
    }
  }
}
layer {
  name: "inception_4e/1x1"
  type: "Convolution"
  bottom: "inception_4d/output"
  top: "inception_4e/1x1"
  param {
    lr_mult: 1
    decay_mult: 1
  }
  param {
    lr_mult: 2
    decay_mult: 0
  }
  convolution_param {
    num_output: 256
    kernel_size: 1
    weight_filler {
      type: "xavier"
      std: 0.03
    }
    bias_filler {
      type: "constant"
      value: 0.2
    }
  }
}
layer {
  name: "inception_4e/relu_1x1"
  type: "ReLU"
  bottom: "inception_4e/1x1"
  top: "inception_4e/1x1"
}
layer {
  name: "inception_4e/3x3_reduce"
  type: "Convolution"
  bottom: "inception_4d/output"
  top: "inception_4e/3x3_reduce"
  param {
    lr_mult: 1
    decay_mult: 1
  }
  param {
    lr_mult: 2
    decay_mult: 0
  }
  convolution_param {
    num_output: 160
    kernel_size: 1
    weight_filler {
      type: "xavier"
      std: 0.09
    }
    bias_filler {
      type: "constant"
      value: 0.2
    }
  }
}
layer {
  name: "inception_4e/relu_3x3_reduce"
  type: "ReLU"
  bottom: "inception_4e/3x3_reduce"
  top: "inception_4e/3x3_reduce"
}
layer {
  name: "inception_4e/3x3"
  type: "Convolution"
  bottom: "inception_4e/3x3_reduce"
  top: "inception_4e/3x3"
  param {
    lr_mult: 1
    decay_mult: 1
  }
  param {
    lr_mult: 2
    decay_mult: 0
  }
  convolution_param {
    num_output: 320
    pad: 1
    kernel_size: 3
    weight_filler {
      type: "xavier"
      std: 0.03
    }
    bias_filler {
      type: "constant"
      value: 0.2
    }
  }
}
layer {
  name: "inception_4e/relu_3x3"
  type: "ReLU"
  bottom: "inception_4e/3x3"
  top: "inception_4e/3x3"
}
layer {
  name: "inception_4e/5x5_reduce"
  type: "Convolution"
  bottom: "inception_4d/output"
  top: "inception_4e/5x5_reduce"
  param {
    lr_mult: 1
    decay_mult: 1
  }
  param {
    lr_mult: 2
    decay_mult: 0
  }
  convolution_param {
    num_output: 32
    kernel_size: 1
    weight_filler {
      type: "xavier"
      std: 0.2
    }
    bias_filler {
      type: "constant"
      value: 0.2
    }
  }
}
layer {
  name: "inception_4e/relu_5x5_reduce"
  type: "ReLU"
  bottom: "inception_4e/5x5_reduce"
  top: "inception_4e/5x5_reduce"
}
layer {
  name: "inception_4e/5x5"
  type: "Convolution"
  bottom: "inception_4e/5x5_reduce"
  top: "inception_4e/
I0403 19:15:43.916357 19266 layer_factory.hpp:77] Creating layer data
I0403 19:15:43.916929 19266 net.cpp:91] Creating Layer data
I0403 19:15:43.916966 19266 net.cpp:399] data -> data
I0403 19:15:43.917017 19266 net.cpp:399] data -> label
I0403 19:15:43.917053 19266 data_transformer.cpp:25] Loading mean file from: /home/mohanty/data/final_dataset/lmdb/segmented-60-40/mean.binaryproto
I0403 19:15:43.918226 19268 db_lmdb.cpp:38] Opened lmdb /home/mohanty/data/final_dataset/lmdb/segmented-60-40/test_db
I0403 19:15:43.929554 19266 data_layer.cpp:41] output data size: 24,3,224,224
I0403 19:15:43.955668 19266 net.cpp:141] Setting up data
I0403 19:15:43.955756 19266 net.cpp:148] Top shape: 24 3 224 224 (3612672)
I0403 19:15:43.955780 19266 net.cpp:148] Top shape: 24 (24)
I0403 19:15:43.955796 19266 net.cpp:156] Memory required for data: 14450784
I0403 19:15:43.955821 19266 layer_factory.hpp:77] Creating layer label_data_1_split
I0403 19:15:43.955847 19266 net.cpp:91] Creating Layer label_data_1_split
I0403 19:15:43.955865 19266 net.cpp:425] label_data_1_split <- label
I0403 19:15:43.955895 19266 net.cpp:399] label_data_1_split -> label_data_1_split_0
I0403 19:15:43.955924 19266 net.cpp:399] label_data_1_split -> label_data_1_split_1
I0403 19:15:43.955943 19266 net.cpp:399] label_data_1_split -> label_data_1_split_2
I0403 19:15:43.955970 19266 net.cpp:399] label_data_1_split -> label_data_1_split_3
I0403 19:15:43.955988 19266 net.cpp:399] label_data_1_split -> label_data_1_split_4
I0403 19:15:43.956008 19266 net.cpp:399] label_data_1_split -> label_data_1_split_5
I0403 19:15:43.956028 19266 net.cpp:399] label_data_1_split -> label_data_1_split_6
I0403 19:15:43.956049 19266 net.cpp:399] label_data_1_split -> label_data_1_split_7
I0403 19:15:43.956068 19266 net.cpp:399] label_data_1_split -> label_data_1_split_8
I0403 19:15:43.956089 19266 net.cpp:399] label_data_1_split -> label_data_1_split_9
I0403 19:15:43.956198 19266 net.cpp:141] Setting up label_data_1_split
I0403 19:15:43.956221 19266 net.cpp:148] Top shape: 24 (24)
I0403 19:15:43.956238 19266 net.cpp:148] Top shape: 24 (24)
I0403 19:15:43.956254 19266 net.cpp:148] Top shape: 24 (24)
I0403 19:15:43.956269 19266 net.cpp:148] Top shape: 24 (24)
I0403 19:15:43.956284 19266 net.cpp:148] Top shape: 24 (24)
I0403 19:15:43.956300 19266 net.cpp:148] Top shape: 24 (24)
I0403 19:15:43.956315 19266 net.cpp:148] Top shape: 24 (24)
I0403 19:15:43.956329 19266 net.cpp:148] Top shape: 24 (24)
I0403 19:15:43.956344 19266 net.cpp:148] Top shape: 24 (24)
I0403 19:15:43.956360 19266 net.cpp:148] Top shape: 24 (24)
I0403 19:15:43.956394 19266 net.cpp:156] Memory required for data: 14451744
I0403 19:15:43.956410 19266 layer_factory.hpp:77] Creating layer conv1/7x7_s2
I0403 19:15:43.956440 19266 net.cpp:91] Creating Layer conv1/7x7_s2
I0403 19:15:43.956459 19266 net.cpp:425] conv1/7x7_s2 <- data
I0403 19:15:43.956477 19266 net.cpp:399] conv1/7x7_s2 -> conv1/7x7_s2
I0403 19:15:44.093669 19266 net.cpp:141] Setting up conv1/7x7_s2
I0403 19:15:44.093757 19266 net.cpp:148] Top shape: 24 64 112 112 (19267584)
I0403 19:15:44.093776 19266 net.cpp:156] Memory required for data: 91522080
I0403 19:15:44.093807 19266 layer_factory.hpp:77] Creating layer conv1/relu_7x7
I0403 19:15:44.093835 19266 net.cpp:91] Creating Layer conv1/relu_7x7
I0403 19:15:44.093853 19266 net.cpp:425] conv1/relu_7x7 <- conv1/7x7_s2
I0403 19:15:44.093871 19266 net.cpp:386] conv1/relu_7x7 -> conv1/7x7_s2 (in-place)
I0403 19:15:44.094133 19266 net.cpp:141] Setting up conv1/relu_7x7
I0403 19:15:44.094161 19266 net.cpp:148] Top shape: 24 64 112 112 (19267584)
I0403 19:15:44.094177 19266 net.cpp:156] Memory required for data: 168592416
I0403 19:15:44.094192 19266 layer_factory.hpp:77] Creating layer pool1/3x3_s2
I0403 19:15:44.094218 19266 net.cpp:91] Creating Layer pool1/3x3_s2
I0403 19:15:44.094235 19266 net.cpp:425] pool1/3x3_s2 <- conv1/7x7_s2
I0403 19:15:44.094254 19266 net.cpp:399] pool1/3x3_s2 -> pool1/3x3_s2
I0403 19:15:44.094326 19266 net.cpp:141] Setting up pool1/3x3_s2
I0403 19:15:44.094350 19266 net.cpp:148] Top shape: 24 64 56 56 (4816896)
I0403 19:15:44.094364 19266 net.cpp:156] Memory required for data: 187860000
I0403 19:15:44.094378 19266 layer_factory.hpp:77] Creating layer pool1/norm1
I0403 19:15:44.094403 19266 net.cpp:91] Creating Layer pool1/norm1
I0403 19:15:44.094420 19266 net.cpp:425] pool1/norm1 <- pool1/3x3_s2
I0403 19:15:44.094437 19266 net.cpp:399] pool1/norm1 -> pool1/norm1
I0403 19:15:44.094720 19266 net.cpp:141] Setting up pool1/norm1
I0403 19:15:44.094748 19266 net.cpp:148] Top shape: 24 64 56 56 (4816896)
I0403 19:15:44.094763 19266 net.cpp:156] Memory required for data: 207127584
I0403 19:15:44.094777 19266 layer_factory.hpp:77] Creating layer conv2/3x3_reduce
I0403 19:15:44.094802 19266 net.cpp:91] Creating Layer conv2/3x3_reduce
I0403 19:15:44.094818 19266 net.cpp:425] conv2/3x3_reduce <- pool1/norm1
I0403 19:15:44.094836 19266 net.cpp:399] conv2/3x3_reduce -> conv2/3x3_reduce
I0403 19:15:44.096202 19266 net.cpp:141] Setting up conv2/3x3_reduce
I0403 19:15:44.096231 19266 net.cpp:148] Top shape: 24 64 56 56 (4816896)
I0403 19:15:44.096247 19266 net.cpp:156] Memory required for data: 226395168
I0403 19:15:44.096268 19266 layer_factory.hpp:77] Creating layer conv2/relu_3x3_reduce
I0403 19:15:44.096287 19266 net.cpp:91] Creating Layer conv2/relu_3x3_reduce
I0403 19:15:44.096302 19266 net.cpp:425] conv2/relu_3x3_reduce <- conv2/3x3_reduce
I0403 19:15:44.096318 19266 net.cpp:386] conv2/relu_3x3_reduce -> conv2/3x3_reduce (in-place)
I0403 19:15:44.096573 19266 net.cpp:141] Setting up conv2/relu_3x3_reduce
I0403 19:15:44.096599 19266 net.cpp:148] Top shape: 24 64 56 56 (4816896)
I0403 19:15:44.096616 19266 net.cpp:156] Memory required for data: 245662752
I0403 19:15:44.096631 19266 layer_factory.hpp:77] Creating layer conv2/3x3
I0403 19:15:44.096652 19266 net.cpp:91] Creating Layer conv2/3x3
I0403 19:15:44.096668 19266 net.cpp:425] conv2/3x3 <- conv2/3x3_reduce
I0403 19:15:44.096686 19266 net.cpp:399] conv2/3x3 -> conv2/3x3
I0403 19:15:44.098876 19266 net.cpp:141] Setting up conv2/3x3
I0403 19:15:44.098906 19266 net.cpp:148] Top shape: 24 192 56 56 (14450688)
I0403 19:15:44.098922 19266 net.cpp:156] Memory required for data: 303465504
I0403 19:15:44.098944 19266 layer_factory.hpp:77] Creating layer conv2/relu_3x3
I0403 19:15:44.098975 19266 net.cpp:91] Creating Layer conv2/relu_3x3
I0403 19:15:44.098992 19266 net.cpp:425] conv2/relu_3x3 <- conv2/3x3
I0403 19:15:44.099009 19266 net.cpp:386] conv2/relu_3x3 -> conv2/3x3 (in-place)
I0403 19:15:44.099169 19266 net.cpp:141] Setting up conv2/relu_3x3
I0403 19:15:44.099194 19266 net.cpp:148] Top shape: 24 192 56 56 (14450688)
I0403 19:15:44.099241 19266 net.cpp:156] Memory required for data: 361268256
I0403 19:15:44.099257 19266 layer_factory.hpp:77] Creating layer conv2/norm2
I0403 19:15:44.099275 19266 net.cpp:91] Creating Layer conv2/norm2
I0403 19:15:44.099292 19266 net.cpp:425] conv2/norm2 <- conv2/3x3
I0403 19:15:44.099309 19266 net.cpp:399] conv2/norm2 -> conv2/norm2
I0403 19:15:44.099591 19266 net.cpp:141] Setting up conv2/norm2
I0403 19:15:44.099617 19266 net.cpp:148] Top shape: 24 192 56 56 (14450688)
I0403 19:15:44.099632 19266 net.cpp:156] Memory required for data: 419071008
I0403 19:15:44.099647 19266 layer_factory.hpp:77] Creating layer pool2/3x3_s2
I0403 19:15:44.099665 19266 net.cpp:91] Creating Layer pool2/3x3_s2
I0403 19:15:44.099680 19266 net.cpp:425] pool2/3x3_s2 <- conv2/norm2
I0403 19:15:44.099697 19266 net.cpp:399] pool2/3x3_s2 -> pool2/3x3_s2
I0403 19:15:44.099747 19266 net.cpp:141] Setting up pool2/3x3_s2
I0403 19:15:44.099771 19266 net.cpp:148] Top shape: 24 192 28 28 (3612672)
I0403 19:15:44.099786 19266 net.cpp:156] Memory required for data: 433521696
I0403 19:15:44.099799 19266 layer_factory.hpp:77] Creating layer pool2/3x3_s2_pool2/3x3_s2_0_split
I0403 19:15:44.099817 19266 net.cpp:91] Creating Layer pool2/3x3_s2_pool2/3x3_s2_0_split
I0403 19:15:44.099833 19266 net.cpp:425] pool2/3x3_s2_pool2/3x3_s2_0_split <- pool2/3x3_s2
I0403 19:15:44.099848 19266 net.cpp:399] pool2/3x3_s2_pool2/3x3_s2_0_split -> pool2/3x3_s2_pool2/3x3_s2_0_split_0
I0403 19:15:44.099867 19266 net.cpp:399] pool2/3x3_s2_pool2/3x3_s2_0_split -> pool2/3x3_s2_pool2/3x3_s2_0_split_1
I0403 19:15:44.099886 19266 net.cpp:399] pool2/3x3_s2_pool2/3x3_s2_0_split -> pool2/3x3_s2_pool2/3x3_s2_0_split_2
I0403 19:15:44.099906 19266 net.cpp:399] pool2/3x3_s2_pool2/3x3_s2_0_split -> pool2/3x3_s2_pool2/3x3_s2_0_split_3
I0403 19:15:44.099972 19266 net.cpp:141] Setting up pool2/3x3_s2_pool2/3x3_s2_0_split
I0403 19:15:44.099995 19266 net.cpp:148] Top shape: 24 192 28 28 (3612672)
I0403 19:15:44.100011 19266 net.cpp:148] Top shape: 24 192 28 28 (3612672)
I0403 19:15:44.100028 19266 net.cpp:148] Top shape: 24 192 28 28 (3612672)
I0403 19:15:44.100044 19266 net.cpp:148] Top shape: 24 192 28 28 (3612672)
I0403 19:15:44.100056 19266 net.cpp:156] Memory required for data: 491324448
I0403 19:15:44.100071 19266 layer_factory.hpp:77] Creating layer inception_3a/1x1
I0403 19:15:44.100091 19266 net.cpp:91] Creating Layer inception_3a/1x1
I0403 19:15:44.100107 19266 net.cpp:425] inception_3a/1x1 <- pool2/3x3_s2_pool2/3x3_s2_0_split_0
I0403 19:15:44.100126 19266 net.cpp:399] inception_3a/1x1 -> inception_3a/1x1
I0403 19:15:44.101619 19266 net.cpp:141] Setting up inception_3a/1x1
I0403 19:15:44.101651 19266 net.cpp:148] Top shape: 24 64 28 28 (1204224)
I0403 19:15:44.101670 19266 net.cpp:156] Memory required for data: 496141344
I0403 19:15:44.101688 19266 layer_factory.hpp:77] Creating layer inception_3a/relu_1x1
I0403 19:15:44.101706 19266 net.cpp:91] Creating Layer inception_3a/relu_1x1
I0403 19:15:44.101723 19266 net.cpp:425] inception_3a/relu_1x1 <- inception_3a/1x1
I0403 19:15:44.101740 19266 net.cpp:386] inception_3a/relu_1x1 -> inception_3a/1x1 (in-place)
I0403 19:15:44.101917 19266 net.cpp:141] Setting up inception_3a/relu_1x1
I0403 19:15:44.101943 19266 net.cpp:148] Top shape: 24 64 28 28 (1204224)
I0403 19:15:44.101963 19266 net.cpp:156] Memory required for data: 500958240
I0403 19:15:44.101979 19266 layer_factory.hpp:77] Creating layer inception_3a/3x3_reduce
I0403 19:15:44.102000 19266 net.cpp:91] Creating Layer inception_3a/3x3_reduce
I0403 19:15:44.102018 19266 net.cpp:425] inception_3a/3x3_reduce <- pool2/3x3_s2_pool2/3x3_s2_0_split_1
I0403 19:15:44.102040 19266 net.cpp:399] inception_3a/3x3_reduce -> inception_3a/3x3_reduce
I0403 19:15:44.103703 19266 net.cpp:141] Setting up inception_3a/3x3_reduce
I0403 19:15:44.103736 19266 net.cpp:148] Top shape: 24 96 28 28 (1806336)
I0403 19:15:44.103752 19266 net.cpp:156] Memory required for data: 508183584
I0403 19:15:44.103775 19266 layer_factory.hpp:77] Creating layer inception_3a/relu_3x3_reduce
I0403 19:15:44.103811 19266 net.cpp:91] Creating Layer inception_3a/relu_3x3_reduce
I0403 19:15:44.103829 19266 net.cpp:425] inception_3a/relu_3x3_reduce <- inception_3a/3x3_reduce
I0403 19:15:44.103847 19266 net.cpp:386] inception_3a/relu_3x3_reduce -> inception_3a/3x3_reduce (in-place)
I0403 19:15:44.104035 19266 net.cpp:141] Setting up inception_3a/relu_3x3_reduce
I0403 19:15:44.104060 19266 net.cpp:148] Top shape: 24 96 28 28 (1806336)
I0403 19:15:44.104074 19266 net.cpp:156] Memory required for data: 515408928
I0403 19:15:44.104090 19266 layer_factory.hpp:77] Creating layer inception_3a/3x3
I0403 19:15:44.104113 19266 net.cpp:91] Creating Layer inception_3a/3x3
I0403 19:15:44.104130 19266 net.cpp:425] inception_3a/3x3 <- inception_3a/3x3_reduce
I0403 19:15:44.104149 19266 net.cpp:399] inception_3a/3x3 -> inception_3a/3x3
I0403 19:15:44.105779 19266 net.cpp:141] Setting up inception_3a/3x3
I0403 19:15:44.105808 19266 net.cpp:148] Top shape: 24 128 28 28 (2408448)
I0403 19:15:44.105823 19266 net.cpp:156] Memory required for data: 525042720
I0403 19:15:44.105840 19266 layer_factory.hpp:77] Creating layer inception_3a/relu_3x3
I0403 19:15:44.105859 19266 net.cpp:91] Creating Layer inception_3a/relu_3x3
I0403 19:15:44.105875 19266 net.cpp:425] inception_3a/relu_3x3 <- inception_3a/3x3
I0403 19:15:44.105895 19266 net.cpp:386] inception_3a/relu_3x3 -> inception_3a/3x3 (in-place)
I0403 19:15:44.106169 19266 net.cpp:141] Setting up inception_3a/relu_3x3
I0403 19:15:44.106195 19266 net.cpp:148] Top shape: 24 128 28 28 (2408448)
I0403 19:15:44.106211 19266 net.cpp:156] Memory required for data: 534676512
I0403 19:15:44.106225 19266 layer_factory.hpp:77] Creating layer inception_3a/5x5_reduce
I0403 19:15:44.106247 19266 net.cpp:91] Creating Layer inception_3a/5x5_reduce
I0403 19:15:44.106264 19266 net.cpp:425] inception_3a/5x5_reduce <- pool2/3x3_s2_pool2/3x3_s2_0_split_2
I0403 19:15:44.106286 19266 net.cpp:399] inception_3a/5x5_reduce -> inception_3a/5x5_reduce
I0403 19:15:44.107239 19266 net.cpp:141] Setting up inception_3a/5x5_reduce
I0403 19:15:44.107265 19266 net.cpp:148] Top shape: 24 16 28 28 (301056)
I0403 19:15:44.107281 19266 net.cpp:156] Memory required for data: 535880736
I0403 19:15:44.107300 19266 layer_factory.hpp:77] Creating layer inception_3a/relu_5x5_reduce
I0403 19:15:44.107317 19266 net.cpp:91] Creating Layer inception_3a/relu_5x5_reduce
I0403 19:15:44.107333 19266 net.cpp:425] inception_3a/relu_5x5_reduce <- inception_3a/5x5_reduce
I0403 19:15:44.107352 19266 net.cpp:386] inception_3a/relu_5x5_reduce -> inception_3a/5x5_reduce (in-place)
I0403 19:15:44.107650 19266 net.cpp:141] Setting up inception_3a/relu_5x5_reduce
I0403 19:15:44.107674 19266 net.cpp:148] Top shape: 24 16 28 28 (301056)
I0403 19:15:44.107691 19266 net.cpp:156] Memory required for data: 537084960
I0403 19:15:44.107705 19266 layer_factory.hpp:77] Creating layer inception_3a/5x5
I0403 19:15:44.107728 19266 net.cpp:91] Creating Layer inception_3a/5x5
I0403 19:15:44.107743 19266 net.cpp:425] inception_3a/5x5 <- inception_3a/5x5_reduce
I0403 19:15:44.107764 19266 net.cpp:399] inception_3a/5x5 -> inception_3a/5x5
I0403 19:15:44.108800 19266 net.cpp:141] Setting up inception_3a/5x5
I0403 19:15:44.108830 19266 net.cpp:148] Top shape: 24 32 28 28 (602112)
I0403 19:15:44.108847 19266 net.cpp:156] Memory required for data: 539493408
I0403 19:15:44.108866 19266 layer_factory.hpp:77] Creating layer inception_3a/relu_5x5
I0403 19:15:44.108883 19266 net.cpp:91] Creating Layer inception_3a/relu_5x5
I0403 19:15:44.108898 19266 net.cpp:425] inception_3a/relu_5x5 <- inception_3a/5x5
I0403 19:15:44.108917 19266 net.cpp:386] inception_3a/relu_5x5 -> inception_3a/5x5 (in-place)
I0403 19:15:44.109102 19266 net.cpp:141] Setting up inception_3a/relu_5x5
I0403 19:15:44.109128 19266 net.cpp:148] Top shape: 24 32 28 28 (602112)
I0403 19:15:44.109143 19266 net.cpp:156] Memory required for data: 541901856
I0403 19:15:44.109158 19266 layer_factory.hpp:77] Creating layer inception_3a/pool
I0403 19:15:44.109176 19266 net.cpp:91] Creating Layer inception_3a/pool
I0403 19:15:44.109210 19266 net.cpp:425] inception_3a/pool <- pool2/3x3_s2_pool2/3x3_s2_0_split_3
I0403 19:15:44.109228 19266 net.cpp:399] inception_3a/pool -> inception_3a/pool
I0403 19:15:44.109285 19266 net.cpp:141] Setting up inception_3a/pool
I0403 19:15:44.109309 19266 net.cpp:148] Top shape: 24 192 28 28 (3612672)
I0403 19:15:44.109324 19266 net.cpp:156] Memory required for data: 556352544
I0403 19:15:44.109338 19266 layer_factory.hpp:77] Creating layer inception_3a/pool_proj
I0403 19:15:44.109359 19266 net.cpp:91] Creating Layer inception_3a/pool_proj
I0403 19:15:44.109377 19266 net.cpp:425] inception_3a/pool_proj <- inception_3a/pool
I0403 19:15:44.109398 19266 net.cpp:399] inception_3a/pool_proj -> inception_3a/pool_proj
I0403 19:15:44.110362 19266 net.cpp:141] Setting up inception_3a/pool_proj
I0403 19:15:44.110388 19266 net.cpp:148] Top shape: 24 32 28 28 (602112)
I0403 19:15:44.110404 19266 net.cpp:156] Memory required for data: 558760992
I0403 19:15:44.110429 19266 layer_factory.hpp:77] Creating layer inception_3a/relu_pool_proj
I0403 19:15:44.110448 19266 net.cpp:91] Creating Layer inception_3a/relu_pool_proj
I0403 19:15:44.110465 19266 net.cpp:425] inception_3a/relu_pool_proj <- inception_3a/pool_proj
I0403 19:15:44.110483 19266 net.cpp:386] inception_3a/relu_pool_proj -> inception_3a/pool_proj (in-place)
I0403 19:15:44.110760 19266 net.cpp:141] Setting up inception_3a/relu_pool_proj
I0403 19:15:44.110785 19266 net.cpp:148] Top shape: 24 32 28 28 (602112)
I0403 19:15:44.110801 19266 net.cpp:156] Memory required for data: 561169440
I0403 19:15:44.110816 19266 layer_factory.hpp:77] Creating layer inception_3a/output
I0403 19:15:44.110833 19266 net.cpp:91] Creating Layer inception_3a/output
I0403 19:15:44.110849 19266 net.cpp:425] inception_3a/output <- inception_3a/1x1
I0403 19:15:44.110865 19266 net.cpp:425] inception_3a/output <- inception_3a/3x3
I0403 19:15:44.110882 19266 net.cpp:425] inception_3a/output <- inception_3a/5x5
I0403 19:15:44.110896 19266 net.cpp:425] inception_3a/output <- inception_3a/pool_proj
I0403 19:15:44.110914 19266 net.cpp:399] inception_3a/output -> inception_3a/output
I0403 19:15:44.110963 19266 net.cpp:141] Setting up inception_3a/output
I0403 19:15:44.110990 19266 net.cpp:148] Top shape: 24 256 28 28 (4816896)
I0403 19:15:44.111006 19266 net.cpp:156] Memory required for data: 580437024
I0403 19:15:44.111021 19266 layer_factory.hpp:77] Creating layer inception_3a/output_inception_3a/output_0_split
I0403 19:15:44.111037 19266 net.cpp:91] Creating Layer inception_3a/output_inception_3a/output_0_split
I0403 19:15:44.111052 19266 net.cpp:425] inception_3a/output_inception_3a/output_0_split <- inception_3a/output
I0403 19:15:44.111068 19266 net.cpp:399] inception_3a/output_inception_3a/output_0_split -> inception_3a/output_inception_3a/output_0_split_0
I0403 19:15:44.111088 19266 net.cpp:399] inception_3a/output_inception_3a/output_0_split -> inception_3a/output_inception_3a/output_0_split_1
I0403 19:15:44.111112 19266 net.cpp:399] inception_3a/output_inception_3a/output_0_split -> inception_3a/output_inception_3a/output_0_split_2
I0403 19:15:44.111134 19266 net.cpp:399] inception_3a/output_inception_3a/output_0_split -> inception_3a/output_inception_3a/output_0_split_3
I0403 19:15:44.111207 19266 net.cpp:141] Setting up inception_3a/output_inception_3a/output_0_split
I0403 19:15:44.111232 19266 net.cpp:148] Top shape: 24 256 28 28 (4816896)
I0403 19:15:44.111248 19266 net.cpp:148] Top shape: 24 256 28 28 (4816896)
I0403 19:15:44.111264 19266 net.cpp:148] Top shape: 24 256 28 28 (4816896)
I0403 19:15:44.111279 19266 net.cpp:148] Top shape: 24 256 28 28 (4816896)
I0403 19:15:44.111294 19266 net.cpp:156] Memory required for data: 657507360
I0403 19:15:44.111309 19266 layer_factory.hpp:77] Creating layer inception_3b/1x1
I0403 19:15:44.111330 19266 net.cpp:91] Creating Layer inception_3b/1x1
I0403 19:15:44.111346 19266 net.cpp:425] inception_3b/1x1 <- inception_3a/output_inception_3a/output_0_split_0
I0403 19:15:44.111366 19266 net.cpp:399] inception_3b/1x1 -> inception_3b/1x1
I0403 19:15:44.112504 19266 net.cpp:141] Setting up inception_3b/1x1
I0403 19:15:44.112542 19266 net.cpp:148] Top shape: 24 128 28 28 (2408448)
I0403 19:15:44.112558 19266 net.cpp:156] Memory required for data: 667141152
I0403 19:15:44.112576 19266 layer_factory.hpp:77] Creating layer inception_3b/relu_1x1
I0403 19:15:44.112596 19266 net.cpp:91] Creating Layer inception_3b/relu_1x1
I0403 19:15:44.112613 19266 net.cpp:425] inception_3b/relu_1x1 <- inception_3b/1x1
I0403 19:15:44.112630 19266 net.cpp:386] inception_3b/relu_1x1 -> inception_3b/1x1 (in-place)
I0403 19:15:44.112812 19266 net.cpp:141] Setting up inception_3b/relu_1x1
I0403 19:15:44.112835 19266 net.cpp:148] Top shape: 24 128 28 28 (2408448)
I0403 19:15:44.112849 19266 net.cpp:156] Memory required for data: 676774944
I0403 19:15:44.112864 19266 layer_factory.hpp:77] Creating layer inception_3b/3x3_reduce
I0403 19:15:44.112886 19266 net.cpp:91] Creating Layer inception_3b/3x3_reduce
I0403 19:15:44.112903 19266 net.cpp:425] inception_3b/3x3_reduce <- inception_3a/output_inception_3a/output_0_split_1
I0403 19:15:44.112923 19266 net.cpp:399] inception_3b/3x3_reduce -> inception_3b/3x3_reduce
I0403 19:15:44.114063 19266 net.cpp:141] Setting up inception_3b/3x3_reduce
I0403 19:15:44.114094 19266 net.cpp:148] Top shape: 24 128 28 28 (2408448)
I0403 19:15:44.114109 19266 net.cpp:156] Memory required for data: 686408736
I0403 19:15:44.114127 19266 layer_factory.hpp:77] Creating layer inception_3b/relu_3x3_reduce
I0403 19:15:44.114145 19266 net.cpp:91] Creating Layer inception_3b/relu_3x3_reduce
I0403 19:15:44.114161 19266 net.cpp:425] inception_3b/relu_3x3_reduce <- inception_3b/3x3_reduce
I0403 19:15:44.114178 19266 net.cpp:386] inception_3b/relu_3x3_reduce -> inception_3b/3x3_reduce (in-place)
I0403 19:15:44.114356 19266 net.cpp:141] Setting up inception_3b/relu_3x3_reduce
I0403 19:15:44.114379 19266 net.cpp:148] Top shape: 24 128 28 28 (2408448)
I0403 19:15:44.114394 19266 net.cpp:156] Memory required for data: 696042528
I0403 19:15:44.114409 19266 layer_factory.hpp:77] Creating layer inception_3b/3x3
I0403 19:15:44.114434 19266 net.cpp:91] Creating Layer inception_3b/3x3
I0403 19:15:44.114452 19266 net.cpp:425] inception_3b/3x3 <- inception_3b/3x3_reduce
I0403 19:15:44.114472 19266 net.cpp:399] inception_3b/3x3 -> inception_3b/3x3
I0403 19:15:44.117373 19266 net.cpp:141] Setting up inception_3b/3x3
I0403 19:15:44.117414 19266 net.cpp:148] Top shape: 24 192 28 28 (3612672)
I0403 19:15:44.117430 19266 net.cpp:156] Memory required for data: 710493216
I0403 19:15:44.117449 19266 layer_factory.hpp:77] Creating layer inception_3b/relu_3x3
I0403 19:15:44.117467 19266 net.cpp:91] Creating Layer inception_3b/relu_3x3
I0403 19:15:44.117483 19266 net.cpp:425] inception_3b/relu_3x3 <- inception_3b/3x3
I0403 19:15:44.117502 19266 net.cpp:386] inception_3b/relu_3x3 -> inception_3b/3x3 (in-place)
I0403 19:15:44.117779 19266 net.cpp:141] Setting up inception_3b/relu_3x3
I0403 19:15:44.117805 19266 net.cpp:148] Top shape: 24 192 28 28 (3612672)
I0403 19:15:44.117820 19266 net.cpp:156] Memory required for data: 724943904
I0403 19:15:44.117835 19266 layer_factory.hpp:77] Creating layer inception_3b/5x5_reduce
I0403 19:15:44.117856 19266 net.cpp:91] Creating Layer inception_3b/5x5_reduce
I0403 19:15:44.117874 19266 net.cpp:425] inception_3b/5x5_reduce <- inception_3a/output_inception_3a/output_0_split_2
I0403 19:15:44.117895 19266 net.cpp:399] inception_3b/5x5_reduce -> inception_3b/5x5_reduce
I0403 19:15:44.118886 19266 net.cpp:141] Setting up inception_3b/5x5_reduce
I0403 19:15:44.118914 19266 net.cpp:148] Top shape: 24 32 28 28 (602112)
I0403 19:15:44.118929 19266 net.cpp:156] Memory required for data: 727352352
I0403 19:15:44.118957 19266 layer_factory.hpp:77] Creating layer inception_3b/relu_5x5_reduce
I0403 19:15:44.118978 19266 net.cpp:91] Creating Layer inception_3b/relu_5x5_reduce
I0403 19:15:44.118993 19266 net.cpp:425] inception_3b/relu_5x5_reduce <- inception_3b/5x5_reduce
I0403 19:15:44.119012 19266 net.cpp:386] inception_3b/relu_5x5_reduce -> inception_3b/5x5_reduce (in-place)
I0403 19:15:44.119205 19266 net.cpp:141] Setting up inception_3b/relu_5x5_reduce
I0403 19:15:44.119230 19266 net.cpp:148] Top shape: 24 32 28 28 (602112)
I0403 19:15:44.119245 19266 net.cpp:156] Memory required for data: 729760800
I0403 19:15:44.119261 19266 layer_factory.hpp:77] Creating layer inception_3b/5x5
I0403 19:15:44.119282 19266 net.cpp:91] Creating Layer inception_3b/5x5
I0403 19:15:44.119299 19266 net.cpp:425] inception_3b/5x5 <- inception_3b/5x5_reduce
I0403 19:15:44.119320 19266 net.cpp:399] inception_3b/5x5 -> inception_3b/5x5
I0403 19:15:44.121275 19266 net.cpp:141] Setting up inception_3b/5x5
I0403 19:15:44.121306 19266 net.cpp:148] Top shape: 24 96 28 28 (1806336)
I0403 19:15:44.121323 19266 net.cpp:156] Memory required for data: 736986144
I0403 19:15:44.121342 19266 layer_factory.hpp:77] Creating layer inception_3b/relu_5x5
I0403 19:15:44.121361 19266 net.cpp:91] Creating Layer inception_3b/relu_5x5
I0403 19:15:44.121376 19266 net.cpp:425] inception_3b/relu_5x5 <- inception_3b/5x5
I0403 19:15:44.121393 19266 net.cpp:386] inception_3b/relu_5x5 -> inception_3b/5x5 (in-place)
I0403 19:15:44.121608 19266 net.cpp:141] Setting up inception_3b/relu_5x5
I0403 19:15:44.121634 19266 net.cpp:148] Top shape: 24 96 28 28 (1806336)
I0403 19:15:44.121649 19266 net.cpp:156] Memory required for data: 744211488
I0403 19:15:44.121664 19266 layer_factory.hpp:77] Creating layer inception_3b/pool
I0403 19:15:44.121681 19266 net.cpp:91] Creating Layer inception_3b/pool
I0403 19:15:44.121697 19266 net.cpp:425] inception_3b/pool <- inception_3a/output_inception_3a/output_0_split_3
I0403 19:15:44.121714 19266 net.cpp:399] inception_3b/pool -> inception_3b/pool
I0403 19:15:44.121770 19266 net.cpp:141] Setting up inception_3b/pool
I0403 19:15:44.121795 19266 net.cpp:148] Top shape: 24 256 28 28 (4816896)
I0403 19:15:44.121811 19266 net.cpp:156] Memory required for data: 763479072
I0403 19:15:44.121825 19266 layer_factory.hpp:77] Creating layer inception_3b/pool_proj
I0403 19:15:44.121847 19266 net.cpp:91] Creating Layer inception_3b/pool_proj
I0403 19:15:44.121865 19266 net.cpp:425] inception_3b/pool_proj <- inception_3b/pool
I0403 19:15:44.121883 19266 net.cpp:399] inception_3b/pool_proj -> inception_3b/pool_proj
I0403 19:15:44.122941 19266 net.cpp:141] Setting up inception_3b/pool_proj
I0403 19:15:44.122973 19266 net.cpp:148] Top shape: 24 64 28 28 (1204224)
I0403 19:15:44.122989 19266 net.cpp:156] Memory required for data: 768295968
I0403 19:15:44.123008 19266 layer_factory.hpp:77] Creating layer inception_3b/relu_pool_proj
I0403 19:15:44.123028 19266 net.cpp:91] Creating Layer inception_3b/relu_pool_proj
I0403 19:15:44.123044 19266 net.cpp:425] inception_3b/relu_pool_proj <- inception_3b/pool_proj
I0403 19:15:44.123062 19266 net.cpp:386] inception_3b/relu_pool_proj -> inception_3b/pool_proj (in-place)
I0403 19:15:44.123474 19266 net.cpp:141] Setting up inception_3b/relu_pool_proj
I0403 19:15:44.123512 19266 net.cpp:148] Top shape: 24 64 28 28 (1204224)
I0403 19:15:44.123528 19266 net.cpp:156] Memory required for data: 773112864
I0403 19:15:44.123543 19266 layer_factory.hpp:77] Creating layer inception_3b/output
I0403 19:15:44.123559 19266 net.cpp:91] Creating Layer inception_3b/output
I0403 19:15:44.123575 19266 net.cpp:425] inception_3b/output <- inception_3b/1x1
I0403 19:15:44.123591 19266 net.cpp:425] inception_3b/output <- inception_3b/3x3
I0403 19:15:44.123606 19266 net.cpp:425] inception_3b/output <- inception_3b/5x5
I0403 19:15:44.123621 19266 net.cpp:425] inception_3b/output <- inception_3b/pool_proj
I0403 19:15:44.123639 19266 net.cpp:399] inception_3b/output -> inception_3b/output
I0403 19:15:44.123680 19266 net.cpp:141] Setting up inception_3b/output
I0403 19:15:44.123705 19266 net.cpp:148] Top shape: 24 480 28 28 (9031680)
I0403 19:15:44.123720 19266 net.cpp:156] Memory required for data: 809239584
I0403 19:15:44.123734 19266 layer_factory.hpp:77] Creating layer pool3/3x3_s2
I0403 19:15:44.123750 19266 net.cpp:91] Creating Layer pool3/3x3_s2
I0403 19:15:44.123765 19266 net.cpp:425] pool3/3x3_s2 <- inception_3b/output
I0403 19:15:44.123800 19266 net.cpp:399] pool3/3x3_s2 -> pool3/3x3_s2
I0403 19:15:44.123855 19266 net.cpp:141] Setting up pool3/3x3_s2
I0403 19:15:44.123878 19266 net.cpp:148] Top shape: 24 480 14 14 (2257920)
I0403 19:15:44.123893 19266 net.cpp:156] Memory required for data: 818271264
I0403 19:15:44.123905 19266 layer_factory.hpp:77] Creating layer pool3/3x3_s2_pool3/3x3_s2_0_split
I0403 19:15:44.123929 19266 net.cpp:91] Creating Layer pool3/3x3_s2_pool3/3x3_s2_0_split
I0403 19:15:44.123951 19266 net.cpp:425] pool3/3x3_s2_pool3/3x3_s2_0_split <- pool3/3x3_s2
I0403 19:15:44.123968 19266 net.cpp:399] pool3/3x3_s2_pool3/3x3_s2_0_split -> pool3/3x3_s2_pool3/3x3_s2_0_split_0
I0403 19:15:44.123987 19266 net.cpp:399] pool3/3x3_s2_pool3/3x3_s2_0_split -> pool3/3x3_s2_pool3/3x3_s2_0_split_1
I0403 19:15:44.124009 19266 net.cpp:399] pool3/3x3_s2_pool3/3x3_s2_0_split -> pool3/3x3_s2_pool3/3x3_s2_0_split_2
I0403 19:15:44.124029 19266 net.cpp:399] pool3/3x3_s2_pool3/3x3_s2_0_split -> pool3/3x3_s2_pool3/3x3_s2_0_split_3
I0403 19:15:44.124104 19266 net.cpp:141] Setting up pool3/3x3_s2_pool3/3x3_s2_0_split
I0403 19:15:44.124126 19266 net.cpp:148] Top shape: 24 480 14 14 (2257920)
I0403 19:15:44.124141 19266 net.cpp:148] Top shape: 24 480 14 14 (2257920)
I0403 19:15:44.124156 19266 net.cpp:148] Top shape: 24 480 14 14 (2257920)
I0403 19:15:44.124172 19266 net.cpp:148] Top shape: 24 480 14 14 (2257920)
I0403 19:15:44.124186 19266 net.cpp:156] Memory required for data: 854397984
I0403 19:15:44.124198 19266 layer_factory.hpp:77] Creating layer inception_4a/1x1
I0403 19:15:44.124220 19266 net.cpp:91] Creating Layer inception_4a/1x1
I0403 19:15:44.124241 19266 net.cpp:425] inception_4a/1x1 <- pool3/3x3_s2_pool3/3x3_s2_0_split_0
I0403 19:15:44.124261 19266 net.cpp:399] inception_4a/1x1 -> inception_4a/1x1
I0403 19:15:44.125793 19266 net.cpp:141] Setting up inception_4a/1x1
I0403 19:15:44.125820 19266 net.cpp:148] Top shape: 24 192 14 14 (903168)
I0403 19:15:44.125836 19266 net.cpp:156] Memory required for data: 858010656
I0403 19:15:44.125854 19266 layer_factory.hpp:77] Creating layer inception_4a/relu_1x1
I0403 19:15:44.125874 19266 net.cpp:91] Creating Layer inception_4a/relu_1x1
I0403 19:15:44.125890 19266 net.cpp:425] inception_4a/relu_1x1 <- inception_4a/1x1
I0403 19:15:44.125906 19266 net.cpp:386] inception_4a/relu_1x1 -> inception_4a/1x1 (in-place)
I0403 19:15:44.126083 19266 net.cpp:141] Setting up inception_4a/relu_1x1
I0403 19:15:44.126109 19266 net.cpp:148] Top shape: 24 192 14 14 (903168)
I0403 19:15:44.126124 19266 net.cpp:156] Memory required for data: 861623328
I0403 19:15:44.126139 19266 layer_factory.hpp:77] Creating layer inception_4a/3x3_reduce
I0403 19:15:44.126160 19266 net.cpp:91] Creating Layer inception_4a/3x3_reduce
I0403 19:15:44.126176 19266 net.cpp:425] inception_4a/3x3_reduce <- pool3/3x3_s2_pool3/3x3_s2_0_split_1
I0403 19:15:44.126199 19266 net.cpp:399] inception_4a/3x3_reduce -> inception_4a/3x3_reduce
I0403 19:15:44.127444 19266 net.cpp:141] Setting up inception_4a/3x3_reduce
I0403 19:15:44.127471 19266 net.cpp:148] Top shape: 24 96 14 14 (451584)
I0403 19:15:44.127486 19266 net.cpp:156] Memory required for data: 863429664
I0403 19:15:44.127509 19266 layer_factory.hpp:77] Creating layer inception_4a/relu_3x3_reduce
I0403 19:15:44.127531 19266 net.cpp:91] Creating Layer inception_4a/relu_3x3_reduce
I0403 19:15:44.127547 19266 net.cpp:425] inception_4a/relu_3x3_reduce <- inception_4a/3x3_reduce
I0403 19:15:44.127563 19266 net.cpp:386] inception_4a/relu_3x3_reduce -> inception_4a/3x3_reduce (in-place)
I0403 19:15:44.127733 19266 net.cpp:141] Setting up inception_4a/relu_3x3_reduce
I0403 19:15:44.127758 19266 net.cpp:148] Top shape: 24 96 14 14 (451584)
I0403 19:15:44.127771 19266 net.cpp:156] Memory required for data: 865236000
I0403 19:15:44.127785 19266 layer_factory.hpp:77] Creating layer inception_4a/3x3
I0403 19:15:44.127809 19266 net.cpp:91] Creating Layer inception_4a/3x3
I0403 19:15:44.127826 19266 net.cpp:425] inception_4a/3x3 <- inception_4a/3x3_reduce
I0403 19:15:44.127845 19266 net.cpp:399] inception_4a/3x3 -> inception_4a/3x3
I0403 19:15:44.130453 19266 net.cpp:141] Setting up inception_4a/3x3
I0403 19:15:44.130493 19266 net.cpp:148] Top shape: 24 208 14 14 (978432)
I0403 19:15:44.130509 19266 net.cpp:156] Memory required for data: 869149728
I0403 19:15:44.130527 19266 layer_factory.hpp:77] Creating layer inception_4a/relu_3x3
I0403 19:15:44.130545 19266 net.cpp:91] Creating Layer inception_4a/relu_3x3
I0403 19:15:44.130561 19266 net.cpp:425] inception_4a/relu_3x3 <- inception_4a/3x3
I0403 19:15:44.130578 19266 net.cpp:386] inception_4a/relu_3x3 -> inception_4a/3x3 (in-place)
I0403 19:15:44.130848 19266 net.cpp:141] Setting up inception_4a/relu_3x3
I0403 19:15:44.130875 19266 net.cpp:148] Top shape: 24 208 14 14 (978432)
I0403 19:15:44.130890 19266 net.cpp:156] Memory required for data: 873063456
I0403 19:15:44.130905 19266 layer_factory.hpp:77] Creating layer inception_4a/5x5_reduce
I0403 19:15:44.130928 19266 net.cpp:91] Creating Layer inception_4a/5x5_reduce
I0403 19:15:44.130944 19266 net.cpp:425] inception_4a/5x5_reduce <- pool3/3x3_s2_pool3/3x3_s2_0_split_2
I0403 19:15:44.130967 19266 net.cpp:399] inception_4a/5x5_reduce -> inception_4a/5x5_reduce
I0403 19:15:44.131955 19266 net.cpp:141] Setting up inception_4a/5x5_reduce
I0403 19:15:44.131984 19266 net.cpp:148] Top shape: 24 16 14 14 (75264)
I0403 19:15:44.132000 19266 net.cpp:156] Memory required for data: 873364512
I0403 19:15:44.132019 19266 layer_factory.hpp:77] Creating layer inception_4a/relu_5x5_reduce
I0403 19:15:44.132035 19266 net.cpp:91] Creating Layer inception_4a/relu_5x5_reduce
I0403 19:15:44.132050 19266 net.cpp:425] inception_4a/relu_5x5_reduce <- inception_4a/5x5_reduce
I0403 19:15:44.132068 19266 net.cpp:386] inception_4a/relu_5x5_reduce -> inception_4a/5x5_reduce (in-place)
I0403 19:15:44.132246 19266 net.cpp:141] Setting up inception_4a/relu_5x5_reduce
I0403 19:15:44.132271 19266 net.cpp:148] Top shape: 24 16 14 14 (75264)
I0403 19:15:44.132285 19266 net.cpp:156] Memory required for data: 873665568
I0403 19:15:44.132300 19266 layer_factory.hpp:77] Creating layer inception_4a/5x5
I0403 19:15:44.132323 19266 net.cpp:91] Creating Layer inception_4a/5x5
I0403 19:15:44.132340 19266 net.cpp:425] inception_4a/5x5 <- inception_4a/5x5_reduce
I0403 19:15:44.132359 19266 net.cpp:399] inception_4a/5x5 -> inception_4a/5x5
I0403 19:15:44.133409 19266 net.cpp:141] Setting up inception_4a/5x5
I0403 19:15:44.133436 19266 net.cpp:148] Top shape: 24 48 14 14 (225792)
I0403 19:15:44.133451 19266 net.cpp:156] Memory required for data: 874568736
I0403 19:15:44.133468 19266 layer_factory.hpp:77] Creating layer inception_4a/relu_5x5
I0403 19:15:44.133488 19266 net.cpp:91] Creating Layer inception_4a/relu_5x5
I0403 19:15:44.133504 19266 net.cpp:425] inception_4a/relu_5x5 <- inception_4a/5x5
I0403 19:15:44.133522 19266 net.cpp:386] inception_4a/relu_5x5 -> inception_4a/5x5 (in-place)
I0403 19:15:44.133693 19266 net.cpp:141] Setting up inception_4a/relu_5x5
I0403 19:15:44.133718 19266 net.cpp:148] Top shape: 24 48 14 14 (225792)
I0403 19:15:44.133731 19266 net.cpp:156] Memory required for data: 875471904
I0403 19:15:44.133745 19266 layer_factory.hpp:77] Creating layer inception_4a/pool
I0403 19:15:44.133764 19266 net.cpp:91] Creating Layer inception_4a/pool
I0403 19:15:44.133780 19266 net.cpp:425] inception_4a/pool <- pool3/3x3_s2_pool3/3x3_s2_0_split_3
I0403 19:15:44.133798 19266 net.cpp:399] inception_4a/pool -> inception_4a/pool
I0403 19:15:44.133858 19266 net.cpp:141] Setting up inception_4a/pool
I0403 19:15:44.133880 19266 net.cpp:148] Top shape: 24 480 14 14 (2257920)
I0403 19:15:44.133895 19266 net.cpp:156] Memory required for data: 884503584
I0403 19:15:44.133908 19266 layer_factory.hpp:77] Creating layer inception_4a/pool_proj
I0403 19:15:44.133930 19266 net.cpp:91] Creating Layer inception_4a/pool_proj
I0403 19:15:44.133950 19266 net.cpp:425] inception_4a/pool_proj <- inception_4a/pool
I0403 19:15:44.133972 19266 net.cpp:399] inception_4a/pool_proj -> inception_4a/pool_proj
I0403 19:15:44.135098 19266 net.cpp:141] Setting up inception_4a/pool_proj
I0403 19:15:44.135126 19266 net.cpp:148] Top shape: 24 64 14 14 (301056)
I0403 19:15:44.135155 19266 net.cpp:156] Memory required for data: 885707808
I0403 19:15:44.135174 19266 layer_factory.hpp:77] Creating layer inception_4a/relu_pool_proj
I0403 19:15:44.135195 19266 net.cpp:91] Creating Layer inception_4a/relu_pool_proj
I0403 19:15:44.135215 19266 net.cpp:425] inception_4a/relu_pool_proj <- inception_4a/pool_proj
I0403 19:15:44.135231 19266 net.cpp:386] inception_4a/relu_pool_proj -> inception_4a/pool_proj (in-place)
I0403 19:15:44.135507 19266 net.cpp:141] Setting up inception_4a/relu_pool_proj
I0403 19:15:44.135532 19266 net.cpp:148] Top shape: 24 64 14 14 (301056)
I0403 19:15:44.135547 19266 net.cpp:156] Memory required for data: 886912032
I0403 19:15:44.135561 19266 layer_factory.hpp:77] Creating layer inception_4a/output
I0403 19:15:44.135578 19266 net.cpp:91] Creating Layer inception_4a/output
I0403 19:15:44.135594 19266 net.cpp:425] inception_4a/output <- inception_4a/1x1
I0403 19:15:44.135613 19266 net.cpp:425] inception_4a/output <- inception_4a/3x3
I0403 19:15:44.135629 19266 net.cpp:425] inception_4a/output <- inception_4a/5x5
I0403 19:15:44.135644 19266 net.cpp:425] inception_4a/output <- inception_4a/pool_proj
I0403 19:15:44.135660 19266 net.cpp:399] inception_4a/output -> inception_4a/output
I0403 19:15:44.135704 19266 net.cpp:141] Setting up inception_4a/output
I0403 19:15:44.135727 19266 net.cpp:148] Top shape: 24 512 14 14 (2408448)
I0403 19:15:44.135741 19266 net.cpp:156] Memory required for data: 896545824
I0403 19:15:44.135754 19266 layer_factory.hpp:77] Creating layer inception_4a/output_inception_4a/output_0_split
I0403 19:15:44.135771 19266 net.cpp:91] Creating Layer inception_4a/output_inception_4a/output_0_split
I0403 19:15:44.135787 19266 net.cpp:425] inception_4a/output_inception_4a/output_0_split <- inception_4a/output
I0403 19:15:44.135805 19266 net.cpp:399] inception_4a/output_inception_4a/output_0_split -> inception_4a/output_inception_4a/output_0_split_0
I0403 19:15:44.135825 19266 net.cpp:399] inception_4a/output_inception_4a/output_0_split -> inception_4a/output_inception_4a/output_0_split_1
I0403 19:15:44.135845 19266 net.cpp:399] inception_4a/output_inception_4a/output_0_split -> inception_4a/output_inception_4a/output_0_split_2
I0403 19:15:44.135865 19266 net.cpp:399] inception_4a/output_inception_4a/output_0_split -> inception_4a/output_inception_4a/output_0_split_3
I0403 19:15:44.135885 19266 net.cpp:399] inception_4a/output_inception_4a/output_0_split -> inception_4a/output_inception_4a/output_0_split_4
I0403 19:15:44.135980 19266 net.cpp:141] Setting up inception_4a/output_inception_4a/output_0_split
I0403 19:15:44.136003 19266 net.cpp:148] Top shape: 24 512 14 14 (2408448)
I0403 19:15:44.136019 19266 net.cpp:148] Top shape: 24 512 14 14 (2408448)
I0403 19:15:44.136034 19266 net.cpp:148] Top shape: 24 512 14 14 (2408448)
I0403 19:15:44.136049 19266 net.cpp:148] Top shape: 24 512 14 14 (2408448)
I0403 19:15:44.136065 19266 net.cpp:148] Top shape: 24 512 14 14 (2408448)
I0403 19:15:44.136076 19266 net.cpp:156] Memory required for data: 944714784
I0403 19:15:44.136091 19266 layer_factory.hpp:77] Creating layer loss1/ave_pool
I0403 19:15:44.136109 19266 net.cpp:91] Creating Layer loss1/ave_pool
I0403 19:15:44.136126 19266 net.cpp:425] loss1/ave_pool <- inception_4a/output_inception_4a/output_0_split_0
I0403 19:15:44.136144 19266 net.cpp:399] loss1/ave_pool -> loss1/ave_pool
I0403 19:15:44.136343 19266 net.cpp:141] Setting up loss1/ave_pool
I0403 19:15:44.136366 19266 net.cpp:148] Top shape: 24 512 4 4 (196608)
I0403 19:15:44.136381 19266 net.cpp:156] Memory required for data: 945501216
I0403 19:15:44.136396 19266 layer_factory.hpp:77] Creating layer loss1/conv
I0403 19:15:44.136417 19266 net.cpp:91] Creating Layer loss1/conv
I0403 19:15:44.136435 19266 net.cpp:425] loss1/conv <- loss1/ave_pool
I0403 19:15:44.136456 19266 net.cpp:399] loss1/conv -> loss1/conv
I0403 19:15:44.137840 19266 net.cpp:141] Setting up loss1/conv
I0403 19:15:44.137869 19266 net.cpp:148] Top shape: 24 128 4 4 (49152)
I0403 19:15:44.137897 19266 net.cpp:156] Memory required for data: 945697824
I0403 19:15:44.137917 19266 layer_factory.hpp:77] Creating layer loss1/relu_conv
I0403 19:15:44.137934 19266 net.cpp:91] Creating Layer loss1/relu_conv
I0403 19:15:44.137954 19266 net.cpp:425] loss1/relu_conv <- loss1/conv
I0403 19:15:44.137972 19266 net.cpp:386] loss1/relu_conv -> loss1/conv (in-place)
I0403 19:15:44.138245 19266 net.cpp:141] Setting up loss1/relu_conv
I0403 19:15:44.138273 19266 net.cpp:148] Top shape: 24 128 4 4 (49152)
I0403 19:15:44.138288 19266 net.cpp:156] Memory required for data: 945894432
I0403 19:15:44.138303 19266 layer_factory.hpp:77] Creating layer loss1/fc
I0403 19:15:44.138325 19266 net.cpp:91] Creating Layer loss1/fc
I0403 19:15:44.138342 19266 net.cpp:425] loss1/fc <- loss1/conv
I0403 19:15:44.138362 19266 net.cpp:399] loss1/fc -> loss1/fc
I0403 19:15:44.155491 19266 net.cpp:141] Setting up loss1/fc
I0403 19:15:44.155524 19266 net.cpp:148] Top shape: 24 1024 (24576)
I0403 19:15:44.155539 19266 net.cpp:156] Memory required for data: 945992736
I0403 19:15:44.155558 19266 layer_factory.hpp:77] Creating layer loss1/relu_fc
I0403 19:15:44.155591 19266 net.cpp:91] Creating Layer loss1/relu_fc
I0403 19:15:44.155606 19266 net.cpp:425] loss1/relu_fc <- loss1/fc
I0403 19:15:44.155623 19266 net.cpp:386] loss1/relu_fc -> loss1/fc (in-place)
I0403 19:15:44.155807 19266 net.cpp:141] Setting up loss1/relu_fc
I0403 19:15:44.155833 19266 net.cpp:148] Top shape: 24 1024 (24576)
I0403 19:15:44.155848 19266 net.cpp:156] Memory required for data: 946091040
I0403 19:15:44.155863 19266 layer_factory.hpp:77] Creating layer loss1/drop_fc
I0403 19:15:44.155886 19266 net.cpp:91] Creating Layer loss1/drop_fc
I0403 19:15:44.155903 19266 net.cpp:425] loss1/drop_fc <- loss1/fc
I0403 19:15:44.155920 19266 net.cpp:386] loss1/drop_fc -> loss1/fc (in-place)
I0403 19:15:44.155973 19266 net.cpp:141] Setting up loss1/drop_fc
I0403 19:15:44.155997 19266 net.cpp:148] Top shape: 24 1024 (24576)
I0403 19:15:44.156010 19266 net.cpp:156] Memory required for data: 946189344
I0403 19:15:44.156025 19266 layer_factory.hpp:77] Creating layer loss1/classifier_plantvillage
I0403 19:15:44.156046 19266 net.cpp:91] Creating Layer loss1/classifier_plantvillage
I0403 19:15:44.156064 19266 net.cpp:425] loss1/classifier_plantvillage <- loss1/fc
I0403 19:15:44.156080 19266 net.cpp:399] loss1/classifier_plantvillage -> loss1/classifier_plantvillage
I0403 19:15:44.156957 19266 net.cpp:141] Setting up loss1/classifier_plantvillage
I0403 19:15:44.156986 19266 net.cpp:148] Top shape: 24 38 (912)
I0403 19:15:44.157002 19266 net.cpp:156] Memory required for data: 946192992
I0403 19:15:44.157019 19266 layer_factory.hpp:77] Creating layer loss1/classifier_plantvillage_loss1/classifier_plantvillage_0_split
I0403 19:15:44.157037 19266 net.cpp:91] Creating Layer loss1/classifier_plantvillage_loss1/classifier_plantvillage_0_split
I0403 19:15:44.157052 19266 net.cpp:425] loss1/classifier_plantvillage_loss1/classifier_plantvillage_0_split <- loss1/classifier_plantvillage
I0403 19:15:44.157069 19266 net.cpp:399] loss1/classifier_plantvillage_loss1/classifier_plantvillage_0_split -> loss1/classifier_plantvillage_loss1/classifier_plantvillage_0_split_0
I0403 19:15:44.157089 19266 net.cpp:399] loss1/classifier_plantvillage_loss1/classifier_plantvillage_0_split -> loss1/classifier_plantvillage_loss1/classifier_plantvillage_0_split_1
I0403 19:15:44.157109 19266 net.cpp:399] loss1/classifier_plantvillage_loss1/classifier_plantvillage_0_split -> loss1/classifier_plantvillage_loss1/classifier_plantvillage_0_split_2
I0403 19:15:44.157172 19266 net.cpp:141] Setting up loss1/classifier_plantvillage_loss1/classifier_plantvillage_0_split
I0403 19:15:44.157194 19266 net.cpp:148] Top shape: 24 38 (912)
I0403 19:15:44.157212 19266 net.cpp:148] Top shape: 24 38 (912)
I0403 19:15:44.157227 19266 net.cpp:148] Top shape: 24 38 (912)
I0403 19:15:44.157239 19266 net.cpp:156] Memory required for data: 946203936
I0403 19:15:44.157253 19266 layer_factory.hpp:77] Creating layer inception_4b/1x1
I0403 19:15:44.157272 19266 net.cpp:91] Creating Layer inception_4b/1x1
I0403 19:15:44.157305 19266 net.cpp:425] inception_4b/1x1 <- inception_4a/output_inception_4a/output_0_split_1
I0403 19:15:44.157327 19266 net.cpp:399] inception_4b/1x1 -> inception_4b/1x1
I0403 19:15:44.158916 19266 net.cpp:141] Setting up inception_4b/1x1
I0403 19:15:44.158957 19266 net.cpp:148] Top shape: 24 160 14 14 (752640)
I0403 19:15:44.158974 19266 net.cpp:156] Memory required for data: 949214496
I0403 19:15:44.158993 19266 layer_factory.hpp:77] Creating layer inception_4b/relu_1x1
I0403 19:15:44.159010 19266 net.cpp:91] Creating Layer inception_4b/relu_1x1
I0403 19:15:44.159025 19266 net.cpp:425] inception_4b/relu_1x1 <- inception_4b/1x1
I0403 19:15:44.159044 19266 net.cpp:386] inception_4b/relu_1x1 -> inception_4b/1x1 (in-place)
I0403 19:15:44.159220 19266 net.cpp:141] Setting up inception_4b/relu_1x1
I0403 19:15:44.159245 19266 net.cpp:148] Top shape: 24 160 14 14 (752640)
I0403 19:15:44.159258 19266 net.cpp:156] Memory required for data: 952225056
I0403 19:15:44.159272 19266 layer_factory.hpp:77] Creating layer inception_4b/3x3_reduce
I0403 19:15:44.159294 19266 net.cpp:91] Creating Layer inception_4b/3x3_reduce
I0403 19:15:44.159312 19266 net.cpp:425] inception_4b/3x3_reduce <- inception_4a/output_inception_4a/output_0_split_2
I0403 19:15:44.159330 19266 net.cpp:399] inception_4b/3x3_reduce -> inception_4b/3x3_reduce
I0403 19:15:44.160648 19266 net.cpp:141] Setting up inception_4b/3x3_reduce
I0403 19:15:44.160676 19266 net.cpp:148] Top shape: 24 112 14 14 (526848)
I0403 19:15:44.160691 19266 net.cpp:156] Memory required for data: 954332448
I0403 19:15:44.160707 19266 layer_factory.hpp:77] Creating layer inception_4b/relu_3x3_reduce
I0403 19:15:44.160727 19266 net.cpp:91] Creating Layer inception_4b/relu_3x3_reduce
I0403 19:15:44.160743 19266 net.cpp:425] inception_4b/relu_3x3_reduce <- inception_4b/3x3_reduce
I0403 19:15:44.160760 19266 net.cpp:386] inception_4b/relu_3x3_reduce -> inception_4b/3x3_reduce (in-place)
I0403 19:15:44.161041 19266 net.cpp:141] Setting up inception_4b/relu_3x3_reduce
I0403 19:15:44.161067 19266 net.cpp:148] Top shape: 24 112 14 14 (526848)
I0403 19:15:44.161082 19266 net.cpp:156] Memory required for data: 956439840
I0403 19:15:44.161098 19266 layer_factory.hpp:77] Creating layer inception_4b/3x3
I0403 19:15:44.161118 19266 net.cpp:91] Creating Layer inception_4b/3x3
I0403 19:15:44.161135 19266 net.cpp:425] inception_4b/3x3 <- inception_4b/3x3_reduce
I0403 19:15:44.161159 19266 net.cpp:399] inception_4b/3x3 -> inception_4b/3x3
I0403 19:15:44.164135 19266 net.cpp:141] Setting up inception_4b/3x3
I0403 19:15:44.164175 19266 net.cpp:148] Top shape: 24 224 14 14 (1053696)
I0403 19:15:44.164191 19266 net.cpp:156] Memory required for data: 960654624
I0403 19:15:44.164209 19266 layer_factory.hpp:77] Creating layer inception_4b/relu_3x3
I0403 19:15:44.164230 19266 net.cpp:91] Creating Layer inception_4b/relu_3x3
I0403 19:15:44.164247 19266 net.cpp:425] inception_4b/relu_3x3 <- inception_4b/3x3
I0403 19:15:44.164264 19266 net.cpp:386] inception_4b/relu_3x3 -> inception_4b/3x3 (in-place)
I0403 19:15:44.164458 19266 net.cpp:141] Setting up inception_4b/relu_3x3
I0403 19:15:44.164484 19266 net.cpp:148] Top shape: 24 224 14 14 (1053696)
I0403 19:15:44.164499 19266 net.cpp:156] Memory required for data: 964869408
I0403 19:15:44.164515 19266 layer_factory.hpp:77] Creating layer inception_4b/5x5_reduce
I0403 19:15:44.164536 19266 net.cpp:91] Creating Layer inception_4b/5x5_reduce
I0403 19:15:44.164553 19266 net.cpp:425] inception_4b/5x5_reduce <- inception_4a/output_inception_4a/output_0_split_3
I0403 19:15:44.164572 19266 net.cpp:399] inception_4b/5x5_reduce -> inception_4b/5x5_reduce
I0403 19:15:44.165624 19266 net.cpp:141] Setting up inception_4b/5x5_reduce
I0403 19:15:44.165653 19266 net.cpp:148] Top shape: 24 24 14 14 (112896)
I0403 19:15:44.165669 19266 net.cpp:156] Memory required for data: 965320992
I0403 19:15:44.165688 19266 layer_factory.hpp:77] Creating layer inception_4b/relu_5x5_reduce
I0403 19:15:44.165705 19266 net.cpp:91] Creating Layer inception_4b/relu_5x5_reduce
I0403 19:15:44.165735 19266 net.cpp:425] inception_4b/relu_5x5_reduce <- inception_4b/5x5_reduce
I0403 19:15:44.165756 19266 net.cpp:386] inception_4b/relu_5x5_reduce -> inception_4b/5x5_reduce (in-place)
I0403 19:15:44.165936 19266 net.cpp:141] Setting up inception_4b/relu_5x5_reduce
I0403 19:15:44.165964 19266 net.cpp:148] Top shape: 24 24 14 14 (112896)
I0403 19:15:44.165979 19266 net.cpp:156] Memory required for data: 965772576
I0403 19:15:44.165993 19266 layer_factory.hpp:77] Creating layer inception_4b/5x5
I0403 19:15:44.166015 19266 net.cpp:91] Creating Layer inception_4b/5x5
I0403 19:15:44.166033 19266 net.cpp:425] inception_4b/5x5 <- inception_4b/5x5_reduce
I0403 19:15:44.166052 19266 net.cpp:399] inception_4b/5x5 -> inception_4b/5x5
I0403 19:15:44.167251 19266 net.cpp:141] Setting up inception_4b/5x5
I0403 19:15:44.167280 19266 net.cpp:148] Top shape: 24 64 14 14 (301056)
I0403 19:15:44.167296 19266 net.cpp:156] Memory required for data: 966976800
I0403 19:15:44.167315 19266 layer_factory.hpp:77] Creating layer inception_4b/relu_5x5
I0403 19:15:44.167331 19266 net.cpp:91] Creating Layer inception_4b/relu_5x5
I0403 19:15:44.167347 19266 net.cpp:425] inception_4b/relu_5x5 <- inception_4b/5x5
I0403 19:15:44.167366 19266 net.cpp:386] inception_4b/relu_5x5 -> inception_4b/5x5 (in-place)
I0403 19:15:44.167641 19266 net.cpp:141] Setting up inception_4b/relu_5x5
I0403 19:15:44.167670 19266 net.cpp:148] Top shape: 24 64 14 14 (301056)
I0403 19:15:44.167685 19266 net.cpp:156] Memory required for data: 968181024
I0403 19:15:44.167700 19266 layer_factory.hpp:77] Creating layer inception_4b/pool
I0403 19:15:44.167716 19266 net.cpp:91] Creating Layer inception_4b/pool
I0403 19:15:44.167732 19266 net.cpp:425] inception_4b/pool <- inception_4a/output_inception_4a/output_0_split_4
I0403 19:15:44.167752 19266 net.cpp:399] inception_4b/pool -> inception_4b/pool
I0403 19:15:44.167815 19266 net.cpp:141] Setting up inception_4b/pool
I0403 19:15:44.167839 19266 net.cpp:148] Top shape: 24 512 14 14 (2408448)
I0403 19:15:44.167852 19266 net.cpp:156] Memory required for data: 977814816
I0403 19:15:44.167866 19266 layer_factory.hpp:77] Creating layer inception_4b/pool_proj
I0403 19:15:44.167888 19266 net.cpp:91] Creating Layer inception_4b/pool_proj
I0403 19:15:44.167906 19266 net.cpp:425] inception_4b/pool_proj <- inception_4b/pool
I0403 19:15:44.167925 19266 net.cpp:399] inception_4b/pool_proj -> inception_4b/pool_proj
I0403 19:15:44.169106 19266 net.cpp:141] Setting up inception_4b/pool_proj
I0403 19:15:44.169132 19266 net.cpp:148] Top shape: 24 64 14 14 (301056)
I0403 19:15:44.169148 19266 net.cpp:156] Memory required for data: 979019040
I0403 19:15:44.169165 19266 layer_factory.hpp:77] Creating layer inception_4b/relu_pool_proj
I0403 19:15:44.169183 19266 net.cpp:91] Creating Layer inception_4b/relu_pool_proj
I0403 19:15:44.169198 19266 net.cpp:425] inception_4b/relu_pool_proj <- inception_4b/pool_proj
I0403 19:15:44.169217 19266 net.cpp:386] inception_4b/relu_pool_proj -> inception_4b/pool_proj (in-place)
I0403 19:15:44.169395 19266 net.cpp:141] Setting up inception_4b/relu_pool_proj
I0403 19:15:44.169420 19266 net.cpp:148] Top shape: 24 64 14 14 (301056)
I0403 19:15:44.169435 19266 net.cpp:156] Memory required for data: 980223264
I0403 19:15:44.169448 19266 layer_factory.hpp:77] Creating layer inception_4b/output
I0403 19:15:44.169469 19266 net.cpp:91] Creating Layer inception_4b/output
I0403 19:15:44.169486 19266 net.cpp:425] inception_4b/output <- inception_4b/1x1
I0403 19:15:44.169502 19266 net.cpp:425] inception_4b/output <- inception_4b/3x3
I0403 19:15:44.169517 19266 net.cpp:425] inception_4b/output <- inception_4b/5x5
I0403 19:15:44.169531 19266 net.cpp:425] inception_4b/output <- inception_4b/pool_proj
I0403 19:15:44.169548 19266 net.cpp:399] inception_4b/output -> inception_4b/output
I0403 19:15:44.169590 19266 net.cpp:141] Setting up inception_4b/output
I0403 19:15:44.169615 19266 net.cpp:148] Top shape: 24 512 14 14 (2408448)
I0403 19:15:44.169630 19266 net.cpp:156] Memory required for data: 989857056
I0403 19:15:44.169657 19266 layer_factory.hpp:77] Creating layer inception_4b/output_inception_4b/output_0_split
I0403 19:15:44.169674 19266 net.cpp:91] Creating Layer inception_4b/output_inception_4b/output_0_split
I0403 19:15:44.169689 19266 net.cpp:425] inception_4b/output_inception_4b/output_0_split <- inception_4b/output
I0403 19:15:44.169708 19266 net.cpp:399] inception_4b/output_inception_4b/output_0_split -> inception_4b/output_inception_4b/output_0_split_0
I0403 19:15:44.169729 19266 net.cpp:399] inception_4b/output_inception_4b/output_0_split -> inception_4b/output_inception_4b/output_0_split_1
I0403 19:15:44.169749 19266 net.cpp:399] inception_4b/output_inception_4b/output_0_split -> inception_4b/output_inception_4b/output_0_split_2
I0403 19:15:44.169769 19266 net.cpp:399] inception_4b/output_inception_4b/output_0_split -> inception_4b/output_inception_4b/output_0_split_3
I0403 19:15:44.169847 19266 net.cpp:141] Setting up inception_4b/output_inception_4b/output_0_split
I0403 19:15:44.169872 19266 net.cpp:148] Top shape: 24 512 14 14 (2408448)
I0403 19:15:44.169888 19266 net.cpp:148] Top shape: 24 512 14 14 (2408448)
I0403 19:15:44.169903 19266 net.cpp:148] Top shape: 24 512 14 14 (2408448)
I0403 19:15:44.169919 19266 net.cpp:148] Top shape: 24 512 14 14 (2408448)
I0403 19:15:44.169931 19266 net.cpp:156] Memory required for data: 1028392224
I0403 19:15:44.169945 19266 layer_factory.hpp:77] Creating layer inception_4c/1x1
I0403 19:15:44.169971 19266 net.cpp:91] Creating Layer inception_4c/1x1
I0403 19:15:44.169989 19266 net.cpp:425] inception_4c/1x1 <- inception_4b/output_inception_4b/output_0_split_0
I0403 19:15:44.170006 19266 net.cpp:399] inception_4c/1x1 -> inception_4c/1x1
I0403 19:15:44.171409 19266 net.cpp:141] Setting up inception_4c/1x1
I0403 19:15:44.171437 19266 net.cpp:148] Top shape: 24 128 14 14 (602112)
I0403 19:15:44.171452 19266 net.cpp:156] Memory required for data: 1030800672
I0403 19:15:44.171469 19266 layer_factory.hpp:77] Creating layer inception_4c/relu_1x1
I0403 19:15:44.171489 19266 net.cpp:91] Creating Layer inception_4c/relu_1x1
I0403 19:15:44.171505 19266 net.cpp:425] inception_4c/relu_1x1 <- inception_4c/1x1
I0403 19:15:44.171522 19266 net.cpp:386] inception_4c/relu_1x1 -> inception_4c/1x1 (in-place)
I0403 19:15:44.171701 19266 net.cpp:141] Setting up inception_4c/relu_1x1
I0403 19:15:44.171725 19266 net.cpp:148] Top shape: 24 128 14 14 (602112)
I0403 19:15:44.171739 19266 net.cpp:156] Memory required for data: 1033209120
I0403 19:15:44.171754 19266 layer_factory.hpp:77] Creating layer inception_4c/3x3_reduce
I0403 19:15:44.171777 19266 net.cpp:91] Creating Layer inception_4c/3x3_reduce
I0403 19:15:44.171794 19266 net.cpp:425] inception_4c/3x3_reduce <- inception_4b/output_inception_4b/output_0_split_1
I0403 19:15:44.171813 19266 net.cpp:399] inception_4c/3x3_reduce -> inception_4c/3x3_reduce
I0403 19:15:44.173709 19266 net.cpp:141] Setting up inception_4c/3x3_reduce
I0403 19:15:44.173739 19266 net.cpp:148] Top shape: 24 128 14 14 (602112)
I0403 19:15:44.173755 19266 net.cpp:156] Memory required for data: 1035617568
I0403 19:15:44.173774 19266 layer_factory.hpp:77] Creating layer inception_4c/relu_3x3_reduce
I0403 19:15:44.173790 19266 net.cpp:91] Creating Layer inception_4c/relu_3x3_reduce
I0403 19:15:44.173806 19266 net.cpp:425] inception_4c/relu_3x3_reduce <- inception_4c/3x3_reduce
I0403 19:15:44.173825 19266 net.cpp:386] inception_4c/relu_3x3_reduce -> inception_4c/3x3_reduce (in-place)
I0403 19:15:44.174108 19266 net.cpp:141] Setting up inception_4c/relu_3x3_reduce
I0403 19:15:44.174135 19266 net.cpp:148] Top shape: 24 128 14 14 (602112)
I0403 19:15:44.174150 19266 net.cpp:156] Memory required for data: 1038026016
I0403 19:15:44.174165 19266 layer_factory.hpp:77] Creating layer inception_4c/3x3
I0403 19:15:44.174188 19266 net.cpp:91] Creating Layer inception_4c/3x3
I0403 19:15:44.174207 19266 net.cpp:425] inception_4c/3x3 <- inception_4c/3x3_reduce
I0403 19:15:44.174226 19266 net.cpp:399] inception_4c/3x3 -> inception_4c/3x3
I0403 19:15:44.177786 19266 net.cpp:141] Setting up inception_4c/3x3
I0403 19:15:44.177825 19266 net.cpp:148] Top shape: 24 256 14 14 (1204224)
I0403 19:15:44.177842 19266 net.cpp:156] Memory required for data: 1042842912
I0403 19:15:44.177872 19266 layer_factory.hpp:77] Creating layer inception_4c/relu_3x3
I0403 19:15:44.177893 19266 net.cpp:91] Creating Layer inception_4c/relu_3x3
I0403 19:15:44.177909 19266 net.cpp:425] inception_4c/relu_3x3 <- inception_4c/3x3
I0403 19:15:44.177927 19266 net.cpp:386] inception_4c/relu_3x3 -> inception_4c/3x3 (in-place)
I0403 19:15:44.178112 19266 net.cpp:141] Setting up inception_4c/relu_3x3
I0403 19:15:44.178135 19266 net.cpp:148] Top shape: 24 256 14 14 (1204224)
I0403 19:15:44.178150 19266 net.cpp:156] Memory required for data: 1047659808
I0403 19:15:44.178165 19266 layer_factory.hpp:77] Creating layer inception_4c/5x5_reduce
I0403 19:15:44.178189 19266 net.cpp:91] Creating Layer inception_4c/5x5_reduce
I0403 19:15:44.178207 19266 net.cpp:425] inception_4c/5x5_reduce <- inception_4b/output_inception_4b/output_0_split_2
I0403 19:15:44.178227 19266 net.cpp:399] inception_4c/5x5_reduce -> inception_4c/5x5_reduce
I0403 19:15:44.179302 19266 net.cpp:141] Setting up inception_4c/5x5_reduce
I0403 19:15:44.179332 19266 net.cpp:148] Top shape: 24 24 14 14 (112896)
I0403 19:15:44.179348 19266 net.cpp:156] Memory required for data: 1048111392
I0403 19:15:44.179366 19266 layer_factory.hpp:77] Creating layer inception_4c/relu_5x5_reduce
I0403 19:15:44.179383 19266 net.cpp:91] Creating Layer inception_4c/relu_5x5_reduce
I0403 19:15:44.179399 19266 net.cpp:425] inception_4c/relu_5x5_reduce <- inception_4c/5x5_reduce
I0403 19:15:44.179419 19266 net.cpp:386] inception_4c/relu_5x5_reduce -> inception_4c/5x5_reduce (in-place)
I0403 19:15:44.179600 19266 net.cpp:141] Setting up inception_4c/relu_5x5_reduce
I0403 19:15:44.179623 19266 net.cpp:148] Top shape: 24 24 14 14 (112896)
I0403 19:15:44.179638 19266 net.cpp:156] Memory required for data: 1048562976
I0403 19:15:44.179652 19266 layer_factory.hpp:77] Creating layer inception_4c/5x5
I0403 19:15:44.179673 19266 net.cpp:91] Creating Layer inception_4c/5x5
I0403 19:15:44.179692 19266 net.cpp:425] inception_4c/5x5 <- inception_4c/5x5_reduce
I0403 19:15:44.179711 19266 net.cpp:399] inception_4c/5x5 -> inception_4c/5x5
I0403 19:15:44.180929 19266 net.cpp:141] Setting up inception_4c/5x5
I0403 19:15:44.180959 19266 net.cpp:148] Top shape: 24 64 14 14 (301056)
I0403 19:15:44.180976 19266 net.cpp:156] Memory required for data: 1049767200
I0403 19:15:44.180994 19266 layer_factory.hpp:77] Creating layer inception_4c/relu_5x5
I0403 19:15:44.181015 19266 net.cpp:91] Creating Layer inception_4c/relu_5x5
I0403 19:15:44.181032 19266 net.cpp:425] inception_4c/relu_5x5 <- inception_4c/5x5
I0403 19:15:44.181048 19266 net.cpp:386] inception_4c/relu_5x5 -> inception_4c/5x5 (in-place)
I0403 19:15:44.181330 19266 net.cpp:141] Setting up inception_4c/relu_5x5
I0403 19:15:44.181356 19266 net.cpp:148] Top shape: 24 64 14 14 (301056)
I0403 19:15:44.181371 19266 net.cpp:156] Memory required for data: 1050971424
I0403 19:15:44.181385 19266 layer_factory.hpp:77] Creating layer inception_4c/pool
I0403 19:15:44.181406 19266 net.cpp:91] Creating Layer inception_4c/pool
I0403 19:15:44.181421 19266 net.cpp:425] inception_4c/pool <- inception_4b/output_inception_4b/output_0_split_3
I0403 19:15:44.181438 19266 net.cpp:399] inception_4c/pool -> inception_4c/pool
I0403 19:15:44.181504 19266 net.cpp:141] Setting up inception_4c/pool
I0403 19:15:44.181525 19266 net.cpp:148] Top shape: 24 512 14 14 (2408448)
I0403 19:15:44.181540 19266 net.cpp:156] Memory required for data: 1060605216
I0403 19:15:44.181555 19266 layer_factory.hpp:77] Creating layer inception_4c/pool_proj
I0403 19:15:44.181576 19266 net.cpp:91] Creating Layer inception_4c/pool_proj
I0403 19:15:44.181592 19266 net.cpp:425] inception_4c/pool_proj <- inception_4c/pool
I0403 19:15:44.181612 19266 net.cpp:399] inception_4c/pool_proj -> inception_4c/pool_proj
I0403 19:15:44.182816 19266 net.cpp:141] Setting up inception_4c/pool_proj
I0403 19:15:44.182842 19266 net.cpp:148] Top shape: 24 64 14 14 (301056)
I0403 19:15:44.182870 19266 net.cpp:156] Memory required for data: 1061809440
I0403 19:15:44.182889 19266 layer_factory.hpp:77] Creating layer inception_4c/relu_pool_proj
I0403 19:15:44.182907 19266 net.cpp:91] Creating Layer inception_4c/relu_pool_proj
I0403 19:15:44.182924 19266 net.cpp:425] inception_4c/relu_pool_proj <- inception_4c/pool_proj
I0403 19:15:44.182942 19266 net.cpp:386] inception_4c/relu_pool_proj -> inception_4c/pool_proj (in-place)
I0403 19:15:44.183125 19266 net.cpp:141] Setting up inception_4c/relu_pool_proj
I0403 19:15:44.183150 19266 net.cpp:148] Top shape: 24 64 14 14 (301056)
I0403 19:15:44.183163 19266 net.cpp:156] Memory required for data: 1063013664
I0403 19:15:44.183177 19266 layer_factory.hpp:77] Creating layer inception_4c/output
I0403 19:15:44.183195 19266 net.cpp:91] Creating Layer inception_4c/output
I0403 19:15:44.183212 19266 net.cpp:425] inception_4c/output <- inception_4c/1x1
I0403 19:15:44.183230 19266 net.cpp:425] inception_4c/output <- inception_4c/3x3
I0403 19:15:44.183246 19266 net.cpp:425] inception_4c/output <- inception_4c/5x5
I0403 19:15:44.183261 19266 net.cpp:425] inception_4c/output <- inception_4c/pool_proj
I0403 19:15:44.183277 19266 net.cpp:399] inception_4c/output -> inception_4c/output
I0403 19:15:44.183322 19266 net.cpp:141] Setting up inception_4c/output
I0403 19:15:44.183347 19266 net.cpp:148] Top shape: 24 512 14 14 (2408448)
I0403 19:15:44.183362 19266 net.cpp:156] Memory required for data: 1072647456
I0403 19:15:44.183377 19266 layer_factory.hpp:77] Creating layer inception_4c/output_inception_4c/output_0_split
I0403 19:15:44.183393 19266 net.cpp:91] Creating Layer inception_4c/output_inception_4c/output_0_split
I0403 19:15:44.183408 19266 net.cpp:425] inception_4c/output_inception_4c/output_0_split <- inception_4c/output
I0403 19:15:44.183426 19266 net.cpp:399] inception_4c/output_inception_4c/output_0_split -> inception_4c/output_inception_4c/output_0_split_0
I0403 19:15:44.183446 19266 net.cpp:399] inception_4c/output_inception_4c/output_0_split -> inception_4c/output_inception_4c/output_0_split_1
I0403 19:15:44.183465 19266 net.cpp:399] inception_4c/output_inception_4c/output_0_split -> inception_4c/output_inception_4c/output_0_split_2
I0403 19:15:44.183485 19266 net.cpp:399] inception_4c/output_inception_4c/output_0_split -> inception_4c/output_inception_4c/output_0_split_3
I0403 19:15:44.183567 19266 net.cpp:141] Setting up inception_4c/output_inception_4c/output_0_split
I0403 19:15:44.183593 19266 net.cpp:148] Top shape: 24 512 14 14 (2408448)
I0403 19:15:44.183610 19266 net.cpp:148] Top shape: 24 512 14 14 (2408448)
I0403 19:15:44.183626 19266 net.cpp:148] Top shape: 24 512 14 14 (2408448)
I0403 19:15:44.183641 19266 net.cpp:148] Top shape: 24 512 14 14 (2408448)
I0403 19:15:44.183653 19266 net.cpp:156] Memory required for data: 1111182624
I0403 19:15:44.183667 19266 layer_factory.hpp:77] Creating layer inception_4d/1x1
I0403 19:15:44.183691 19266 net.cpp:91] Creating Layer inception_4d/1x1
I0403 19:15:44.183707 19266 net.cpp:425] inception_4d/1x1 <- inception_4c/output_inception_4c/output_0_split_0
I0403 19:15:44.183725 19266 net.cpp:399] inception_4d/1x1 -> inception_4d/1x1
I0403 19:15:44.185114 19266 net.cpp:141] Setting up inception_4d/1x1
I0403 19:15:44.185142 19266 net.cpp:148] Top shape: 24 112 14 14 (526848)
I0403 19:15:44.185161 19266 net.cpp:156] Memory required for data: 1113290016
I0403 19:15:44.185180 19266 layer_factory.hpp:77] Creating layer inception_4d/relu_1x1
I0403 19:15:44.185199 19266 net.cpp:91] Creating Layer inception_4d/relu_1x1
I0403 19:15:44.185215 19266 net.cpp:425] inception_4d/relu_1x1 <- inception_4d/1x1
I0403 19:15:44.185232 19266 net.cpp:386] inception_4d/relu_1x1 -> inception_4d/1x1 (in-place)
I0403 19:15:44.185425 19266 net.cpp:141] Setting up inception_4d/relu_1x1
I0403 19:15:44.185451 19266 net.cpp:148] Top shape: 24 112 14 14 (526848)
I0403 19:15:44.185466 19266 net.cpp:156] Memory required for data: 1115397408
I0403 19:15:44.185480 19266 layer_factory.hpp:77] Creating layer inception_4d/3x3_reduce
I0403 19:15:44.185515 19266 net.cpp:91] Creating Layer inception_4d/3x3_reduce
I0403 19:15:44.185534 19266 net.cpp:425] inception_4d/3x3_reduce <- inception_4c/output_inception_4c/output_0_split_1
I0403 19:15:44.185552 19266 net.cpp:399] inception_4d/3x3_reduce -> inception_4d/3x3_reduce
I0403 19:15:44.187034 19266 net.cpp:141] Setting up inception_4d/3x3_reduce
I0403 19:15:44.187062 19266 net.cpp:148] Top shape: 24 144 14 14 (677376)
I0403 19:15:44.187075 19266 net.cpp:156] Memory required for data: 1118106912
I0403 19:15:44.187093 19266 layer_factory.hpp:77] Creating layer inception_4d/relu_3x3_reduce
I0403 19:15:44.187114 19266 net.cpp:91] Creating Layer inception_4d/relu_3x3_reduce
I0403 19:15:44.187130 19266 net.cpp:425] inception_4d/relu_3x3_reduce <- inception_4d/3x3_reduce
I0403 19:15:44.187146 19266 net.cpp:386] inception_4d/relu_3x3_reduce -> inception_4d/3x3_reduce (in-place)
I0403 19:15:44.187433 19266 net.cpp:141] Setting up inception_4d/relu_3x3_reduce
I0403 19:15:44.187458 19266 net.cpp:148] Top shape: 24 144 14 14 (677376)
I0403 19:15:44.187472 19266 net.cpp:156] Memory required for data: 1120816416
I0403 19:15:44.187487 19266 layer_factory.hpp:77] Creating layer inception_4d/3x3
I0403 19:15:44.187510 19266 net.cpp:91] Creating Layer inception_4d/3x3
I0403 19:15:44.187526 19266 net.cpp:425] inception_4d/3x3 <- inception_4d/3x3_reduce
I0403 19:15:44.187547 19266 net.cpp:399] inception_4d/3x3 -> inception_4d/3x3
I0403 19:15:44.191681 19266 net.cpp:141] Setting up inception_4d/3x3
I0403 19:15:44.191709 19266 net.cpp:148] Top shape: 24 288 14 14 (1354752)
I0403 19:15:44.191725 19266 net.cpp:156] Memory required for data: 1126235424
I0403 19:15:44.191742 19266 layer_factory.hpp:77] Creating layer inception_4d/relu_3x3
I0403 19:15:44.191762 19266 net.cpp:91] Creating Layer inception_4d/relu_3x3
I0403 19:15:44.191778 19266 net.cpp:425] inception_4d/relu_3x3 <- inception_4d/3x3
I0403 19:15:44.191795 19266 net.cpp:386] inception_4d/relu_3x3 -> inception_4d/3x3 (in-place)
I0403 19:15:44.191987 19266 net.cpp:141] Setting up inception_4d/relu_3x3
I0403 19:15:44.192010 19266 net.cpp:148] Top shape: 24 288 14 14 (1354752)
I0403 19:15:44.192025 19266 net.cpp:156] Memory required for data: 1131654432
I0403 19:15:44.192040 19266 layer_factory.hpp:77] Creating layer inception_4d/5x5_reduce
I0403 19:15:44.192062 19266 net.cpp:91] Creating Layer inception_4d/5x5_reduce
I0403 19:15:44.192080 19266 net.cpp:425] inception_4d/5x5_reduce <- inception_4c/output_inception_4c/output_0_split_2
I0403 19:15:44.192101 19266 net.cpp:399] inception_4d/5x5_reduce -> inception_4d/5x5_reduce
I0403 19:15:44.193253 19266 net.cpp:141] Setting up inception_4d/5x5_reduce
I0403 19:15:44.193282 19266 net.cpp:148] Top shape: 24 32 14 14 (150528)
I0403 19:15:44.193298 19266 net.cpp:156] Memory required for data: 1132256544
I0403 19:15:44.193315 19266 layer_factory.hpp:77] Creating layer inception_4d/relu_5x5_reduce
I0403 19:15:44.193333 19266 net.cpp:91] Creating Layer inception_4d/relu_5x5_reduce
I0403 19:15:44.193349 19266 net.cpp:425] inception_4d/relu_5x5_reduce <- inception_4d/5x5_reduce
I0403 19:15:44.193367 19266 net.cpp:386] inception_4d/relu_5x5_reduce -> inception_4d/5x5_reduce (in-place)
I0403 19:15:44.193552 19266 net.cpp:141] Setting up inception_4d/relu_5x5_reduce
I0403 19:15:44.193578 19266 net.cpp:148] Top shape: 24 32 14 14 (150528)
I0403 19:15:44.193593 19266 net.cpp:156] Memory required for data: 1132858656
I0403 19:15:44.193608 19266 layer_factory.hpp:77] Creating layer inception_4d/5x5
I0403 19:15:44.193629 19266 net.cpp:91] Creating Layer inception_4d/5x5
I0403 19:15:44.193646 19266 net.cpp:425] inception_4d/5x5 <- inception_4d/5x5_reduce
I0403 19:15:44.193666 19266 net.cpp:399] inception_4d/5x5 -> inception_4d/5x5
I0403 19:15:44.195098 19266 net.cpp:141] Setting up inception_4d/5x5
I0403 19:15:44.195127 19266 net.cpp:148] Top shape: 24 64 14 14 (301056)
I0403 19:15:44.195142 19266 net.cpp:156] Memory required for data: 1134062880
I0403 19:15:44.195160 19266 layer_factory.hpp:77] Creating layer inception_4d/relu_5x5
I0403 19:15:44.195194 19266 net.cpp:91] Creating Layer inception_4d/relu_5x5
I0403 19:15:44.195212 19266 net.cpp:425] inception_4d/relu_5x5 <- inception_4d/5x5
I0403 19:15:44.195230 19266 net.cpp:386] inception_4d/relu_5x5 -> inception_4d/5x5 (in-place)
I0403 19:15:44.195540 19266 net.cpp:141] Setting up inception_4d/relu_5x5
I0403 19:15:44.195566 19266 net.cpp:148] Top shape: 24 64 14 14 (301056)
I0403 19:15:44.195593 19266 net.cpp:156] Memory required for data: 1135267104
I0403 19:15:44.195608 19266 layer_factory.hpp:77] Creating layer inception_4d/pool
I0403 19:15:44.195626 19266 net.cpp:91] Creating Layer inception_4d/pool
I0403 19:15:44.195641 19266 net.cpp:425] inception_4d/pool <- inception_4c/output_inception_4c/output_0_split_3
I0403 19:15:44.195662 19266 net.cpp:399] inception_4d/pool -> inception_4d/pool
I0403 19:15:44.195725 19266 net.cpp:141] Setting up inception_4d/pool
I0403 19:15:44.195750 19266 net.cpp:148] Top shape: 24 512 14 14 (2408448)
I0403 19:15:44.195765 19266 net.cpp:156] Memory required for data: 1144900896
I0403 19:15:44.195780 19266 layer_factory.hpp:77] Creating layer inception_4d/pool_proj
I0403 19:15:44.195802 19266 net.cpp:91] Creating Layer inception_4d/pool_proj
I0403 19:15:44.195819 19266 net.cpp:425] inception_4d/pool_proj <- inception_4d/pool
I0403 19:15:44.195837 19266 net.cpp:399] inception_4d/pool_proj -> inception_4d/pool_proj
I0403 19:15:44.197551 19266 net.cpp:141] Setting up inception_4d/pool_proj
I0403 19:15:44.197581 19266 net.cpp:148] Top shape: 24 64 14 14 (301056)
I0403 19:15:44.197597 19266 net.cpp:156] Memory required for data: 1146105120
I0403 19:15:44.197614 19266 layer_factory.hpp:77] Creating layer inception_4d/relu_pool_proj
I0403 19:15:44.197633 19266 net.cpp:91] Creating Layer inception_4d/relu_pool_proj
I0403 19:15:44.197650 19266 net.cpp:425] inception_4d/relu_pool_proj <- inception_4d/pool_proj
I0403 19:15:44.197667 19266 net.cpp:386] inception_4d/relu_pool_proj -> inception_4d/pool_proj (in-place)
I0403 19:15:44.197850 19266 net.cpp:141] Setting up inception_4d/relu_pool_proj
I0403 19:15:44.197875 19266 net.cpp:148] Top shape: 24 64 14 14 (301056)
I0403 19:15:44.197890 19266 net.cpp:156] Memory required for data: 1147309344
I0403 19:15:44.197904 19266 layer_factory.hpp:77] Creating layer inception_4d/output
I0403 19:15:44.197921 19266 net.cpp:91] Creating Layer inception_4d/output
I0403 19:15:44.197937 19266 net.cpp:425] inception_4d/output <- inception_4d/1x1
I0403 19:15:44.197957 19266 net.cpp:425] inception_4d/output <- inception_4d/3x3
I0403 19:15:44.197973 19266 net.cpp:425] inception_4d/output <- inception_4d/5x5
I0403 19:15:44.197989 19266 net.cpp:425] inception_4d/output <- inception_4d/pool_proj
I0403 19:15:44.198009 19266 net.cpp:399] inception_4d/output -> inception_4d/output
I0403 19:15:44.198055 19266 net.cpp:141] Setting up inception_4d/output
I0403 19:15:44.198079 19266 net.cpp:148] Top shape: 24 528 14 14 (2483712)
I0403 19:15:44.198096 19266 net.cpp:156] Memory required for data: 1157244192
I0403 19:15:44.198109 19266 layer_factory.hpp:77] Creating layer inception_4d/output_inception_4d/output_0_split
I0403 19:15:44.198127 19266 net.cpp:91] Creating Layer inception_4d/output_inception_4d/output_0_split
I0403 19:15:44.198143 19266 net.cpp:425] inception_4d/output_inception_4d/output_0_split <- inception_4d/output
I0403 19:15:44.198160 19266 net.cpp:399] inception_4d/output_inception_4d/output_0_split -> inception_4d/output_inception_4d/output_0_split_0
I0403 19:15:44.198182 19266 net.cpp:399] inception_4d/output_inception_4d/output_0_split -> inception_4d/output_inception_4d/output_0_split_1
I0403 19:15:44.198206 19266 net.cpp:399] inception_4d/output_inception_4d/output_0_split -> inception_4d/output_inception_4d/output_0_split_2
I0403 19:15:44.198226 19266 net.cpp:399] inception_4d/output_inception_4d/output_0_split -> inception_4d/output_inception_4d/output_0_split_3
I0403 19:15:44.198246 19266 net.cpp:399] inception_4d/output_inception_4d/output_0_split -> inception_4d/output_inception_4d/output_0_split_4
I0403 19:15:44.198345 19266 net.cpp:141] Setting up inception_4d/output_inception_4d/output_0_split
I0403 19:15:44.198381 19266 net.cpp:148] Top shape: 24 528 14 14 (2483712)
I0403 19:15:44.198400 19266 net.cpp:148] Top shape: 24 528 14 14 (2483712)
I0403 19:15:44.198415 19266 net.cpp:148] Top shape: 24 528 14 14 (2483712)
I0403 19:15:44.198429 19266 net.cpp:148] Top shape: 24 528 14 14 (2483712)
I0403 19:15:44.198444 19266 net.cpp:148] Top shape: 24 528 14 14 (2483712)
I0403 19:15:44.198457 19266 net.cpp:156] Memory required for data: 1206918432
I0403 19:15:44.198472 19266 layer_factory.hpp:77] Creating layer loss2/ave_pool
I0403 19:15:44.198492 19266 net.cpp:91] Creating Layer loss2/ave_pool
I0403 19:15:44.198508 19266 net.cpp:425] loss2/ave_pool <- inception_4d/output_inception_4d/output_0_split_0
I0403 19:15:44.198525 19266 net.cpp:399] loss2/ave_pool -> loss2/ave_pool
I0403 19:15:44.198832 19266 net.cpp:141] Setting up loss2/ave_pool
I0403 19:15:44.198859 19266 net.cpp:148] Top shape: 24 528 4 4 (202752)
I0403 19:15:44.198875 19266 net.cpp:156] Memory required for data: 1207729440
I0403 19:15:44.198890 19266 layer_factory.hpp:77] Creating layer loss2/conv
I0403 19:15:44.198912 19266 net.cpp:91] Creating Layer loss2/conv
I0403 19:15:44.198930 19266 net.cpp:425] loss2/conv <- loss2/ave_pool
I0403 19:15:44.198956 19266 net.cpp:399] loss2/conv -> loss2/conv
I0403 19:15:44.200821 19266 net.cpp:141] Setting up loss2/conv
I0403 19:15:44.200850 19266 net.cpp:148] Top shape: 24 128 4 4 (49152)
I0403 19:15:44.200865 19266 net.cpp:156] Memory required for data: 1207926048
I0403 19:15:44.200883 19266 layer_factory.hpp:77] Creating layer loss2/relu_conv
I0403 19:15:44.200901 19266 net.cpp:91] Creating Layer loss2/relu_conv
I0403 19:15:44.200917 19266 net.cpp:425] loss2/relu_conv <- loss2/conv
I0403 19:15:44.200935 19266 net.cpp:386] loss2/relu_conv -> loss2/conv (in-place)
I0403 19:15:44.201223 19266 net.cpp:141] Setting up loss2/relu_conv
I0403 19:15:44.201249 19266 net.cpp:148] Top shape: 24 128 4 4 (49152)
I0403 19:15:44.201264 19266 net.cpp:156] Memory required for data: 1208122656
I0403 19:15:44.201279 19266 layer_factory.hpp:77] Creating layer loss2/fc
I0403 19:15:44.201297 19266 net.cpp:91] Creating Layer loss2/fc
I0403 19:15:44.201313 19266 net.cpp:425] loss2/fc <- loss2/conv
I0403 19:15:44.201335 19266 net.cpp:399] loss2/fc -> loss2/fc
I0403 19:15:44.218518 19266 net.cpp:141] Setting up loss2/fc
I0403 19:15:44.218550 19266 net.cpp:148] Top shape: 24 1024 (24576)
I0403 19:15:44.218567 19266 net.cpp:156] Memory required for data: 1208220960
I0403 19:15:44.218585 19266 layer_factory.hpp:77] Creating layer loss2/relu_fc
I0403 19:15:44.218602 19266 net.cpp:91] Creating Layer loss2/relu_fc
I0403 19:15:44.218617 19266 net.cpp:425] loss2/relu_fc <- loss2/fc
I0403 19:15:44.218634 19266 net.cpp:386] loss2/relu_fc -> loss2/fc (in-place)
I0403 19:15:44.218930 19266 net.cpp:141] Setting up loss2/relu_fc
I0403 19:15:44.218966 19266 net.cpp:148] Top shape: 24 1024 (24576)
I0403 19:15:44.218982 19266 net.cpp:156] Memory required for data: 1208319264
I0403 19:15:44.218997 19266 layer_factory.hpp:77] Creating layer loss2/drop_fc
I0403 19:15:44.219014 19266 net.cpp:91] Creating Layer loss2/drop_fc
I0403 19:15:44.219029 19266 net.cpp:425] loss2/drop_fc <- loss2/fc
I0403 19:15:44.219045 19266 net.cpp:386] loss2/drop_fc -> loss2/fc (in-place)
I0403 19:15:44.219095 19266 net.cpp:141] Setting up loss2/drop_fc
I0403 19:15:44.219118 19266 net.cpp:148] Top shape: 24 1024 (24576)
I0403 19:15:44.219132 19266 net.cpp:156] Memory required for data: 1208417568
I0403 19:15:44.219146 19266 layer_factory.hpp:77] Creating layer loss2/classifier_plantvillage
I0403 19:15:44.219166 19266 net.cpp:91] Creating Layer loss2/classifier_plantvillage
I0403 19:15:44.219182 19266 net.cpp:425] loss2/classifier_plantvillage <- loss2/fc
I0403 19:15:44.219199 19266 net.cpp:399] loss2/classifier_plantvillage -> loss2/classifier_plantvillage
I0403 19:15:44.219586 19266 net.cpp:141] Setting up loss2/classifier_plantvillage
I0403 19:15:44.219610 19266 net.cpp:148] Top shape: 24 38 (912)
I0403 19:15:44.219640 19266 net.cpp:156] Memory required for data: 1208421216
I0403 19:15:44.219658 19266 layer_factory.hpp:77] Creating layer loss2/classifier_plantvillage_loss2/classifier_plantvillage_0_split
I0403 19:15:44.219676 19266 net.cpp:91] Creating Layer loss2/classifier_plantvillage_loss2/classifier_plantvillage_0_split
I0403 19:15:44.219691 19266 net.cpp:425] loss2/classifier_plantvillage_loss2/classifier_plantvillage_0_split <- loss2/classifier_plantvillage
I0403 19:15:44.219712 19266 net.cpp:399] loss2/classifier_plantvillage_loss2/classifier_plantvillage_0_split -> loss2/classifier_plantvillage_loss2/classifier_plantvillage_0_split_0
I0403 19:15:44.219732 19266 net.cpp:399] loss2/classifier_plantvillage_loss2/classifier_plantvillage_0_split -> loss2/classifier_plantvillage_loss2/classifier_plantvillage_0_split_1
I0403 19:15:44.219751 19266 net.cpp:399] loss2/classifier_plantvillage_loss2/classifier_plantvillage_0_split -> loss2/classifier_plantvillage_loss2/classifier_plantvillage_0_split_2
I0403 19:15:44.219827 19266 net.cpp:141] Setting up loss2/classifier_plantvillage_loss2/classifier_plantvillage_0_split
I0403 19:15:44.219851 19266 net.cpp:148] Top shape: 24 38 (912)
I0403 19:15:44.219866 19266 net.cpp:148] Top shape: 24 38 (912)
I0403 19:15:44.219880 19266 net.cpp:148] Top shape: 24 38 (912)
I0403 19:15:44.219894 19266 net.cpp:156] Memory required for data: 1208432160
I0403 19:15:44.219907 19266 layer_factory.hpp:77] Creating layer inception_4e/1x1
I0403 19:15:44.219929 19266 net.cpp:91] Creating Layer inception_4e/1x1
I0403 19:15:44.219949 19266 net.cpp:425] inception_4e/1x1 <- inception_4d/output_inception_4d/output_0_split_1
I0403 19:15:44.219969 19266 net.cpp:399] inception_4e/1x1 -> inception_4e/1x1
I0403 19:15:44.221740 19266 net.cpp:141] Setting up inception_4e/1x1
I0403 19:15:44.221766 19266 net.cpp:148] Top shape: 24 256 14 14 (1204224)
I0403 19:15:44.221781 19266 net.cpp:156] Memory required for data: 1213249056
I0403 19:15:44.221798 19266 layer_factory.hpp:77] Creating layer inception_4e/relu_1x1
I0403 19:15:44.221818 19266 net.cpp:91] Creating Layer inception_4e/relu_1x1
I0403 19:15:44.221834 19266 net.cpp:425] inception_4e/relu_1x1 <- inception_4e/1x1
I0403 19:15:44.221850 19266 net.cpp:386] inception_4e/relu_1x1 -> inception_4e/1x1 (in-place)
I0403 19:15:44.222146 19266 net.cpp:141] Setting up inception_4e/relu_1x1
I0403 19:15:44.222172 19266 net.cpp:148] Top shape: 24 256 14 14 (1204224)
I0403 19:15:44.222185 19266 net.cpp:156] Memory required for data: 1218065952
I0403 19:15:44.222201 19266 layer_factory.hpp:77] Creating layer inception_4e/3x3_reduce
I0403 19:15:44.222223 19266 net.cpp:91] Creating Layer inception_4e/3x3_reduce
I0403 19:15:44.222240 19266 net.cpp:425] inception_4e/3x3_reduce <- inception_4d/output_inception_4d/output_0_split_2
I0403 19:15:44.222262 19266 net.cpp:399] inception_4e/3x3_reduce -> inception_4e/3x3_reduce
I0403 19:15:44.224321 19266 net.cpp:141] Setting up inception_4e/3x3_reduce
I0403 19:15:44.224349 19266 net.cpp:148] Top shape: 24 160 14 14 (752640)
I0403 19:15:44.224364 19266 net.cpp:156] Memory required for data: 1221076512
I0403 19:15:44.224382 19266 layer_factory.hpp:77] Creating layer inception_4e/relu_3x3_reduce
I0403 19:15:44.224400 19266 net.cpp:91] Creating Layer inception_4e/relu_3x3_reduce
I0403 19:15:44.224416 19266 net.cpp:425] inception_4e/relu_3x3_reduce <- inception_4e/3x3_reduce
I0403 19:15:44.224434 19266 net.cpp:386] inception_4e/relu_3x3_reduce -> inception_4e/3x3_reduce (in-place)
I0403 19:15:44.224614 19266 net.cpp:141] Setting up inception_4e/relu_3x3_reduce
I0403 19:15:44.224638 19266 net.cpp:148] Top shape: 24 160 14 14 (752640)
I0403 19:15:44.224653 19266 net.cpp:156] Memory required for data: 1224087072
I0403 19:15:44.224668 19266 layer_factory.hpp:77] Creating layer inception_4e/3x3
I0403 19:15:44.224689 19266 net.cpp:91] Creating Layer inception_4e/3x3
I0403 19:15:44.224705 19266 net.cpp:425] inception_4e/3x3 <- inception_4e/3x3_reduce
I0403 19:15:44.224725 19266 net.cpp:399] inception_4e/3x3 -> inception_4e/3x3
I0403 19:15:44.229642 19266 net.cpp:141] Setting up inception_4e/3x3
I0403 19:15:44.229683 19266 net.cpp:148] Top shape: 24 320 14 14 (1505280)
I0403 19:15:44.229699 19266 net.cpp:156] Memory required for data: 1230108192
I0403 19:15:44.229717 19266 layer_factory.hpp:77] Creating layer inception_4e/relu_3x3
I0403 19:15:44.229738 19266 net.cpp:91] Creating Layer inception_4e/relu_3x3
I0403 19:15:44.229754 19266 net.cpp:425] inception_4e/relu_3x3 <- inception_4e/3x3
I0403 19:15:44.229771 19266 net.cpp:386] inception_4e/relu_3x3 -> inception_4e/3x3 (in-place)
I0403 19:15:44.230073 19266 net.cpp:141] Setting up inception_4e/relu_3x3
I0403 19:15:44.230101 19266 net.cpp:148] Top shape: 24 320 14 14 (1505280)
I0403 19:15:44.230116 19266 net.cpp:156] Memory required for data: 1236129312
I0403 19:15:44.230131 19266 layer_factory.hpp:77] Creating layer inception_4e/5x5_reduce
I0403 19:15:44.230151 19266 net.cpp:91] Creating Layer inception_4e/5x5_reduce
I0403 19:15:44.230167 19266 net.cpp:425] inception_4e/5x5_reduce <- inception_4d/output_inception_4d/output_0_split_3
I0403 19:15:44.230190 19266 net.cpp:399] inception_4e/5x5_reduce -> inception_4e/5x5_reduce
I0403 19:15:44.231240 19266 net.cpp:141] Setting up inception_4e/5x5_reduce
I0403 19:15:44.231266 19266 net.cpp:148] Top shape: 24 32 14 14 (150528)
I0403 19:15:44.231282 19266 net.cpp:156] Memory required for data: 1236731424
I0403 19:15:44.231300 19266 layer_factory.hpp:77] Creating layer inception_4e/relu_5x5_reduce
I0403 19:15:44.231317 19266 net.cpp:91] Creating Layer inception_4e/relu_5x5_reduce
I0403 19:15:44.231336 19266 net.cpp:425] inception_4e/relu_5x5_reduce <- inception_4e/5x5_reduce
I0403 19:15:44.231353 19266 net.cpp:386] inception_4e/relu_5x5_reduce -> inception_4e/5x5_reduce (in-place)
I0403 19:15:44.231647 19266 net.cpp:141] Setting up inception_4e/relu_5x5_reduce
I0403 19:15:44.231673 19266 net.cpp:148] Top shape: 24 32 14 14 (150528)
I0403 19:15:44.231688 19266 net.cpp:156] Memory required for data: 1237333536
I0403 19:15:44.231701 19266 layer_factory.hpp:77] Creating layer inception_4e/5x5
I0403 19:15:44.231739 19266 net.cpp:91] Creating Layer inception_4e/5x5
I0403 19:15:44.231758 19266 net.cpp:425] inception_4e/5x5 <- inception_4e/5x5_reduce
I0403 19:15:44.231776 19266 net.cpp:399] inception_4e/5x5 -> inception_4e/5x5
I0403 19:15:44.233583 19266 net.cpp:141] Setting up inception_4e/5x5
I0403 19:15:44.233613 19266 net.cpp:148] Top shape: 24 128 14 14 (602112)
I0403 19:15:44.233628 19266 net.cpp:156] Memory required for data: 1239741984
I0403 19:15:44.233646 19266 layer_factory.hpp:77] Creating layer inception_4e/relu_5x5
I0403 19:15:44.233664 19266 net.cpp:91] Creating Layer inception_4e/relu_5x5
I0403 19:15:44.233680 19266 net.cpp:425] inception_4e/relu_5x5 <- inception_4e/5x5
I0403 19:15:44.233697 19266 net.cpp:386] inception_4e/relu_5x5 -> inception_4e/5x5 (in-place)
I0403 19:15:44.233889 19266 net.cpp:141] Setting up inception_4e/relu_5x5
I0403 19:15:44.233913 19266 net.cpp:148] Top shape: 24 128 14 14 (602112)
I0403 19:15:44.233928 19266 net.cpp:156] Memory required for data: 1242150432
I0403 19:15:44.233942 19266 layer_factory.hpp:77] Creating layer inception_4e/pool
I0403 19:15:44.233963 19266 net.cpp:91] Creating Layer inception_4e/pool
I0403 19:15:44.233980 19266 net.cpp:425] inception_4e/pool <- inception_4d/output_inception_4d/output_0_split_4
I0403 19:15:44.233999 19266 net.cpp:399] inception_4e/pool -> inception_4e/pool
I0403 19:15:44.234067 19266 net.cpp:141] Setting up inception_4e/pool
I0403 19:15:44.234091 19266 net.cpp:148] Top shape: 24 528 14 14 (2483712)
I0403 19:15:44.234104 19266 net.cpp:156] Memory required for data: 1252085280
I0403 19:15:44.234118 19266 layer_factory.hpp:77] Creating layer inception_4e/pool_proj
I0403 19:15:44.234141 19266 net.cpp:91] Creating Layer inception_4e/pool_proj
I0403 19:15:44.234158 19266 net.cpp:425] inception_4e/pool_proj <- inception_4e/pool
I0403 19:15:44.234176 19266 net.cpp:399] inception_4e/pool_proj -> inception_4e/pool_proj
I0403 19:15:44.235635 19266 net.cpp:141] Setting up inception_4e/pool_proj
I0403 19:15:44.235676 19266 net.cpp:148] Top shape: 24 128 14 14 (602112)
I0403 19:15:44.235692 19266 net.cpp:156] Memory required for data: 1254493728
I0403 19:15:44.235710 19266 layer_factory.hpp:77] Creating layer inception_4e/relu_pool_proj
I0403 19:15:44.235728 19266 net.cpp:91] Creating Layer inception_4e/relu_pool_proj
I0403 19:15:44.235743 19266 net.cpp:425] inception_4e/relu_pool_proj <- inception_4e/pool_proj
I0403 19:15:44.235762 19266 net.cpp:386] inception_4e/relu_pool_proj -> inception_4e/pool_proj (in-place)
I0403 19:15:44.236069 19266 net.cpp:141] Setting up inception_4e/relu_pool_proj
I0403 19:15:44.236098 19266 net.cpp:148] Top shape: 24 128 14 14 (602112)
I0403 19:15:44.236114 19266 net.cpp:156] Memory required for data: 1256902176
I0403 19:15:44.236129 19266 layer_factory.hpp:77] Creating layer inception_4e/output
I0403 19:15:44.236145 19266 net.cpp:91] Creating Layer inception_4e/output
I0403 19:15:44.236161 19266 net.cpp:425] inception_4e/output <- inception_4e/1x1
I0403 19:15:44.236177 19266 net.cpp:425] inception_4e/output <- inception_4e/3x3
I0403 19:15:44.236204 19266 net.cpp:425] inception_4e/output <- inception_4e/5x5
I0403 19:15:44.236219 19266 net.cpp:425] inception_4e/output <- inception_4e/pool_proj
I0403 19:15:44.236235 19266 net.cpp:399] inception_4e/output -> inception_4e/output
I0403 19:15:44.236284 19266 net.cpp:141] Setting up inception_4e/output
I0403 19:15:44.236307 19266 net.cpp:148] Top shape: 24 832 14 14 (3913728)
I0403 19:15:44.236321 19266 net.cpp:156] Memory required for data: 1272557088
I0403 19:15:44.236335 19266 layer_factory.hpp:77] Creating layer pool4/3x3_s2
I0403 19:15:44.236354 19266 net.cpp:91] Creating Layer pool4/3x3_s2
I0403 19:15:44.236371 19266 net.cpp:425] pool4/3x3_s2 <- inception_4e/output
I0403 19:15:44.236387 19266 net.cpp:399] pool4/3x3_s2 -> pool4/3x3_s2
I0403 19:15:44.236454 19266 net.cpp:141] Setting up pool4/3x3_s2
I0403 19:15:44.236477 19266 net.cpp:148] Top shape: 24 832 7 7 (978432)
I0403 19:15:44.236491 19266 net.cpp:156] Memory required for data: 1276470816
I0403 19:15:44.236505 19266 layer_factory.hpp:77] Creating layer pool4/3x3_s2_pool4/3x3_s2_0_split
I0403 19:15:44.236521 19266 net.cpp:91] Creating Layer pool4/3x3_s2_pool4/3x3_s2_0_split
I0403 19:15:44.236536 19266 net.cpp:425] pool4/3x3_s2_pool4/3x3_s2_0_split <- pool4/3x3_s2
I0403 19:15:44.236555 19266 net.cpp:399] pool4/3x3_s2_pool4/3x3_s2_0_split -> pool4/3x3_s2_pool4/3x3_s2_0_split_0
I0403 19:15:44.236575 19266 net.cpp:399] pool4/3x3_s2_pool4/3x3_s2_0_split -> pool4/3x3_s2_pool4/3x3_s2_0_split_1
I0403 19:15:44.236594 19266 net.cpp:399] pool4/3x3_s2_pool4/3x3_s2_0_split -> pool4/3x3_s2_pool4/3x3_s2_0_split_2
I0403 19:15:44.236613 19266 net.cpp:399] pool4/3x3_s2_pool4/3x3_s2_0_split -> pool4/3x3_s2_pool4/3x3_s2_0_split_3
I0403 19:15:44.236699 19266 net.cpp:141] Setting up pool4/3x3_s2_pool4/3x3_s2_0_split
I0403 19:15:44.236723 19266 net.cpp:148] Top shape: 24 832 7 7 (978432)
I0403 19:15:44.236740 19266 net.cpp:148] Top shape: 24 832 7 7 (978432)
I0403 19:15:44.236755 19266 net.cpp:148] Top shape: 24 832 7 7 (978432)
I0403 19:15:44.236770 19266 net.cpp:148] Top shape: 24 832 7 7 (978432)
I0403 19:15:44.236783 19266 net.cpp:156] Memory required for data: 1292125728
I0403 19:15:44.236798 19266 layer_factory.hpp:77] Creating layer inception_5a/1x1
I0403 19:15:44.236819 19266 net.cpp:91] Creating Layer inception_5a/1x1
I0403 19:15:44.236836 19266 net.cpp:425] inception_5a/1x1 <- pool4/3x3_s2_pool4/3x3_s2_0_split_0
I0403 19:15:44.236855 19266 net.cpp:399] inception_5a/1x1 -> inception_5a/1x1
I0403 19:15:44.239684 19266 net.cpp:141] Setting up inception_5a/1x1
I0403 19:15:44.239713 19266 net.cpp:148] Top shape: 24 256 7 7 (301056)
I0403 19:15:44.239728 19266 net.cpp:156] Memory required for data: 1293329952
I0403 19:15:44.239747 19266 layer_factory.hpp:77] Creating layer inception_5a/relu_1x1
I0403 19:15:44.239764 19266 net.cpp:91] Creating Layer inception_5a/relu_1x1
I0403 19:15:44.239780 19266 net.cpp:425] inception_5a/relu_1x1 <- inception_5a/1x1
I0403 19:15:44.239799 19266 net.cpp:386] inception_5a/relu_1x1 -> inception_5a/1x1 (in-place)
I0403 19:15:44.240111 19266 net.cpp:141] Setting up inception_5a/relu_1x1
I0403 19:15:44.240137 19266 net.cpp:148] Top shape: 24 256 7 7 (301056)
I0403 19:15:44.240152 19266 net.cpp:156] Memory required for data: 1294534176
I0403 19:15:44.240166 19266 layer_factory.hpp:77] Creating layer inception_5a/3x3_reduce
I0403 19:15:44.240188 19266 net.cpp:91] Creating Layer inception_5a/3x3_reduce
I0403 19:15:44.240207 19266 net.cpp:425] inception_5a/3x3_reduce <- pool4/3x3_s2_pool4/3x3_s2_0_split_1
I0403 19:15:44.240228 19266 net.cpp:399] inception_5a/3x3_reduce -> inception_5a/3x3_reduce
I0403 19:15:44.242629 19266 net.cpp:141] Setting up inception_5a/3x3_reduce
I0403 19:15:44.242657 19266 net.cpp:148] Top shape: 24 160 7 7 (188160)
I0403 19:15:44.242672 19266 net.cpp:156] Memory required for data: 1295286816
I0403 19:15:44.242691 19266 layer_factory.hpp:77] Creating layer inception_5a/relu_3x3_reduce
I0403 19:15:44.242712 19266 net.cpp:91] Creating Layer inception_5a/relu_3x3_reduce
I0403 19:15:44.242728 19266 net.cpp:425] inception_5a/relu_3x3_reduce <- inception_5a/3x3_reduce
I0403 19:15:44.242744 19266 net.cpp:386] inception_5a/relu_3x3_reduce -> inception_5a/3x3_reduce (in-place)
I0403 19:15:44.242929 19266 net.cpp:141] Setting up inception_5a/relu_3x3_reduce
I0403 19:15:44.242959 19266 net.cpp:148] Top shape: 24 160 7 7 (188160)
I0403 19:15:44.242974 19266 net.cpp:156] Memory required for data: 1296039456
I0403 19:15:44.242988 19266 layer_factory.hpp:77] Creating layer inception_5a/3x3
I0403 19:15:44.243013 19266 net.cpp:91] Creating Layer inception_5a/3x3
I0403 19:15:44.243031 19266 net.cpp:425] inception_5a/3x3 <- inception_5a/3x3_reduce
I0403 19:15:44.243052 19266 net.cpp:399] inception_5a/3x3 -> inception_5a/3x3
I0403 19:15:44.247944 19266 net.cpp:141] Setting up inception_5a/3x3
I0403 19:15:44.247979 19266 net.cpp:148] Top shape: 24 320 7 7 (376320)
I0403 19:15:44.247997 19266 net.cpp:156] Memory required for data: 1297544736
I0403 19:15:44.248014 19266 layer_factory.hpp:77] Creating layer inception_5a/relu_3x3
I0403 19:15:44.248031 19266 net.cpp:91] Creating Layer inception_5a/relu_3x3
I0403 19:15:44.248047 19266 net.cpp:425] inception_5a/relu_3x3 <- inception_5a/3x3
I0403 19:15:44.248065 19266 net.cpp:386] inception_5a/relu_3x3 -> inception_5a/3x3 (in-place)
I0403 19:15:44.248360 19266 net.cpp:141] Setting up inception_5a/relu_3x3
I0403 19:15:44.248389 19266 net.cpp:148] Top shape: 24 320 7 7 (376320)
I0403 19:15:44.248404 19266 net.cpp:156] Memory required for data: 1299050016
I0403 19:15:44.248420 19266 layer_factory.hpp:77] Creating layer inception_5a/5x5_reduce
I0403 19:15:44.248443 19266 net.cpp:91] Creating Layer inception_5a/5x5_reduce
I0403 19:15:44.248461 19266 net.cpp:425] inception_5a/5x5_reduce <- pool4/3x3_s2_pool4/3x3_s2_0_split_2
I0403 19:15:44.248481 19266 net.cpp:399] inception_5a/5x5_reduce -> inception_5a/5x5_reduce
I0403 19:15:44.249640 19266 net.cpp:141] Setting up inception_5a/5x5_reduce
I0403 19:15:44.249668 19266 net.cpp:148] Top shape: 24 32 7 7 (37632)
I0403 19:15:44.249685 19266 net.cpp:156] Memory required for data: 1299200544
I0403 19:15:44.249702 19266 layer_factory.hpp:77] Creating layer inception_5a/relu_5x5_reduce
I0403 19:15:44.249719 19266 net.cpp:91] Creating Layer inception_5a/relu_5x5_reduce
I0403 19:15:44.249735 19266 net.cpp:425] inception_5a/relu_5x5_reduce <- inception_5a/5x5_reduce
I0403 19:15:44.249754 19266 net.cpp:386] inception_5a/relu_5x5_reduce -> inception_5a/5x5_reduce (in-place)
I0403 19:15:44.250056 19266 net.cpp:141] Setting up inception_5a/relu_5x5_reduce
I0403 19:15:44.250082 19266 net.cpp:148] Top shape: 24 32 7 7 (37632)
I0403 19:15:44.250095 19266 net.cpp:156] Memory required for data: 1299351072
I0403 19:15:44.250110 19266 layer_factory.hpp:77] Creating layer inception_5a/5x5
I0403 19:15:44.250131 19266 net.cpp:91] Creating Layer inception_5a/5x5
I0403 19:15:44.250149 19266 net.cpp:425] inception_5a/5x5 <- inception_5a/5x5_reduce
I0403 19:15:44.250170 19266 net.cpp:399] inception_5a/5x5 -> inception_5a/5x5
I0403 19:15:44.251852 19266 net.cpp:141] Setting up inception_5a/5x5
I0403 19:15:44.251893 19266 net.cpp:148] Top shape: 24 128 7 7 (150528)
I0403 19:15:44.251909 19266 net.cpp:156] Memory required for data: 1299953184
I0403 19:15:44.251926 19266 layer_factory.hpp:77] Creating layer inception_5a/relu_5x5
I0403 19:15:44.251945 19266 net.cpp:91] Creating Layer inception_5a/relu_5x5
I0403 19:15:44.251965 19266 net.cpp:425] inception_5a/relu_5x5 <- inception_5a/5x5
I0403 19:15:44.251984 19266 net.cpp:386] inception_5a/relu_5x5 -> inception_5a/5x5 (in-place)
I0403 19:15:44.252174 19266 net.cpp:141] Setting up inception_5a/relu_5x5
I0403 19:15:44.252198 19266 net.cpp:148] Top shape: 24 128 7 7 (150528)
I0403 19:15:44.252213 19266 net.cpp:156] Memory required for data: 1300555296
I0403 19:15:44.252228 19266 layer_factory.hpp:77] Creating layer inception_5a/pool
I0403 19:15:44.252245 19266 net.cpp:91] Creating Layer inception_5a/pool
I0403 19:15:44.252261 19266 net.cpp:425] inception_5a/pool <- pool4/3x3_s2_pool4/3x3_s2_0_split_3
I0403 19:15:44.252280 19266 net.cpp:399] inception_5a/pool -> inception_5a/pool
I0403 19:15:44.252348 19266 net.cpp:141] Setting up inception_5a/pool
I0403 19:15:44.252372 19266 net.cpp:148] Top shape: 24 832 7 7 (978432)
I0403 19:15:44.252387 19266 net.cpp:156] Memory required for data: 1304469024
I0403 19:15:44.252401 19266 layer_factory.hpp:77] Creating layer inception_5a/pool_proj
I0403 19:15:44.252426 19266 net.cpp:91] Creating Layer inception_5a/pool_proj
I0403 19:15:44.252444 19266 net.cpp:425] inception_5a/pool_proj <- inception_5a/pool
I0403 19:15:44.252461 19266 net.cpp:399] inception_5a/pool_proj -> inception_5a/pool_proj
I0403 19:15:44.254684 19266 net.cpp:141] Setting up inception_5a/pool_proj
I0403 19:15:44.254715 19266 net.cpp:148] Top shape: 24 128 7 7 (150528)
I0403 19:15:44.254732 19266 net.cpp:156] Memory required for data: 1305071136
I0403 19:15:44.254750 19266 layer_factory.hpp:77] Creating layer inception_5a/relu_pool_proj
I0403 19:15:44.254768 19266 net.cpp:91] Creating Layer inception_5a/relu_pool_proj
I0403 19:15:44.254783 19266 net.cpp:425] inception_5a/relu_pool_proj <- inception_5a/pool_proj
I0403 19:15:44.254801 19266 net.cpp:386] inception_5a/relu_pool_proj -> inception_5a/pool_proj (in-place)
I0403 19:15:44.255095 19266 net.cpp:141] Setting up inception_5a/relu_pool_proj
I0403 19:15:44.255123 19266 net.cpp:148] Top shape: 24 128 7 7 (150528)
I0403 19:15:44.255139 19266 net.cpp:156] Memory required for data: 1305673248
I0403 19:15:44.255154 19266 layer_factory.hpp:77] Creating layer inception_5a/output
I0403 19:15:44.255172 19266 net.cpp:91] Creating Layer inception_5a/output
I0403 19:15:44.255187 19266 net.cpp:425] inception_5a/output <- inception_5a/1x1
I0403 19:15:44.255205 19266 net.cpp:425] inception_5a/output <- inception_5a/3x3
I0403 19:15:44.255220 19266 net.cpp:425] inception_5a/output <- inception_5a/5x5
I0403 19:15:44.255236 19266 net.cpp:425] inception_5a/output <- inception_5a/pool_proj
I0403 19:15:44.255252 19266 net.cpp:399] inception_5a/output -> inception_5a/output
I0403 19:15:44.255303 19266 net.cpp:141] Setting up inception_5a/output
I0403 19:15:44.255326 19266 net.cpp:148] Top shape: 24 832 7 7 (978432)
I0403 19:15:44.255341 19266 net.cpp:156] Memory required for data: 1309586976
I0403 19:15:44.255354 19266 layer_factory.hpp:77] Creating layer inception_5a/output_inception_5a/output_0_split
I0403 19:15:44.255373 19266 net.cpp:91] Creating Layer inception_5a/output_inception_5a/output_0_split
I0403 19:15:44.255390 19266 net.cpp:425] inception_5a/output_inception_5a/output_0_split <- inception_5a/output
I0403 19:15:44.255408 19266 net.cpp:399] inception_5a/output_inception_5a/output_0_split -> inception_5a/output_inception_5a/output_0_split_0
I0403 19:15:44.255426 19266 net.cpp:399] inception_5a/output_inception_5a/output_0_split -> inception_5a/output_inception_5a/output_0_split_1
I0403 19:15:44.255445 19266 net.cpp:399] inception_5a/output_inception_5a/output_0_split -> inception_5a/output_inception_5a/output_0_split_2
I0403 19:15:44.255477 19266 net.cpp:399] inception_5a/output_inception_5a/output_0_split -> inception_5a/output_inception_5a/output_0_split_3
I0403 19:15:44.255589 19266 net.cpp:141] Setting up inception_5a/output_inception_5a/output_0_split
I0403 19:15:44.255612 19266 net.cpp:148] Top shape: 24 832 7 7 (978432)
I0403 19:15:44.255630 19266 net.cpp:148] Top shape: 24 832 7 7 (978432)
I0403 19:15:44.255645 19266 net.cpp:148] Top shape: 24 832 7 7 (978432)
I0403 19:15:44.255659 19266 net.cpp:148] Top shape: 24 832 7 7 (978432)
I0403 19:15:44.255673 19266 net.cpp:156] Memory required for data: 1325241888
I0403 19:15:44.255688 19266 layer_factory.hpp:77] Creating layer inception_5b/1x1
I0403 19:15:44.255710 19266 net.cpp:91] Creating Layer inception_5b/1x1
I0403 19:15:44.255728 19266 net.cpp:425] inception_5b/1x1 <- inception_5a/output_inception_5a/output_0_split_0
I0403 19:15:44.255756 19266 net.cpp:399] inception_5b/1x1 -> inception_5b/1x1
I0403 19:15:44.259462 19266 net.cpp:141] Setting up inception_5b/1x1
I0403 19:15:44.259493 19266 net.cpp:148] Top shape: 24 384 7 7 (451584)
I0403 19:15:44.259508 19266 net.cpp:156] Memory required for data: 1327048224
I0403 19:15:44.259527 19266 layer_factory.hpp:77] Creating layer inception_5b/relu_1x1
I0403 19:15:44.259547 19266 net.cpp:91] Creating Layer inception_5b/relu_1x1
I0403 19:15:44.259564 19266 net.cpp:425] inception_5b/relu_1x1 <- inception_5b/1x1
I0403 19:15:44.259582 19266 net.cpp:386] inception_5b/relu_1x1 -> inception_5b/1x1 (in-place)
I0403 19:15:44.259882 19266 net.cpp:141] Setting up inception_5b/relu_1x1
I0403 19:15:44.259907 19266 net.cpp:148] Top shape: 24 384 7 7 (451584)
I0403 19:15:44.259922 19266 net.cpp:156] Memory required for data: 1328854560
I0403 19:15:44.259938 19266 layer_factory.hpp:77] Creating layer inception_5b/3x3_reduce
I0403 19:15:44.259966 19266 net.cpp:91] Creating Layer inception_5b/3x3_reduce
I0403 19:15:44.259984 19266 net.cpp:425] inception_5b/3x3_reduce <- inception_5a/output_inception_5a/output_0_split_1
I0403 19:15:44.260004 19266 net.cpp:399] inception_5b/3x3_reduce -> inception_5b/3x3_reduce
I0403 19:15:44.262616 19266 net.cpp:141] Setting up inception_5b/3x3_reduce
I0403 19:15:44.262647 19266 net.cpp:148] Top shape: 24 192 7 7 (225792)
I0403 19:15:44.262663 19266 net.cpp:156] Memory required for data: 1329757728
I0403 19:15:44.262681 19266 layer_factory.hpp:77] Creating layer inception_5b/relu_3x3_reduce
I0403 19:15:44.262699 19266 net.cpp:91] Creating Layer inception_5b/relu_3x3_reduce
I0403 19:15:44.262714 19266 net.cpp:425] inception_5b/relu_3x3_reduce <- inception_5b/3x3_reduce
I0403 19:15:44.262732 19266 net.cpp:386] inception_5b/relu_3x3_reduce -> inception_5b/3x3_reduce (in-place)
I0403 19:15:44.262923 19266 net.cpp:141] Setting up inception_5b/relu_3x3_reduce
I0403 19:15:44.262953 19266 net.cpp:148] Top shape: 24 192 7 7 (225792)
I0403 19:15:44.262969 19266 net.cpp:156] Memory required for data: 1330660896
I0403 19:15:44.262982 19266 layer_factory.hpp:77] Creating layer inception_5b/3x3
I0403 19:15:44.263005 19266 net.cpp:91] Creating Layer inception_5b/3x3
I0403 19:15:44.263021 19266 net.cpp:425] inception_5b/3x3 <- inception_5b/3x3_reduce
I0403 19:15:44.263042 19266 net.cpp:399] inception_5b/3x3 -> inception_5b/3x3
I0403 19:15:44.269573 19266 net.cpp:141] Setting up inception_5b/3x3
I0403 19:15:44.269603 19266 net.cpp:148] Top shape: 24 384 7 7 (451584)
I0403 19:15:44.269620 19266 net.cpp:156] Memory required for data: 1332467232
I0403 19:15:44.269639 19266 layer_factory.hpp:77] Creating layer inception_5b/relu_3x3
I0403 19:15:44.269655 19266 net.cpp:91] Creating Layer inception_5b/relu_3x3
I0403 19:15:44.269671 19266 net.cpp:425] inception_5b/relu_3x3 <- inception_5b/3x3
I0403 19:15:44.269688 19266 net.cpp:386] inception_5b/relu_3x3 -> inception_5b/3x3 (in-place)
I0403 19:15:44.269986 19266 net.cpp:141] Setting up inception_5b/relu_3x3
I0403 19:15:44.270015 19266 net.cpp:148] Top shape: 24 384 7 7 (451584)
I0403 19:15:44.270030 19266 net.cpp:156] Memory required for data: 1334273568
I0403 19:15:44.270045 19266 layer_factory.hpp:77] Creating layer inception_5b/5x5_reduce
I0403 19:15:44.270081 19266 net.cpp:91] Creating Layer inception_5b/5x5_reduce
I0403 19:15:44.270099 19266 net.cpp:425] inception_5b/5x5_reduce <- inception_5a/output_inception_5a/output_0_split_2
I0403 19:15:44.270118 19266 net.cpp:399] inception_5b/5x5_reduce -> inception_5b/5x5_reduce
I0403 19:15:44.271360 19266 net.cpp:141] Setting up inception_5b/5x5_reduce
I0403 19:15:44.271390 19266 net.cpp:148] Top shape: 24 48 7 7 (56448)
I0403 19:15:44.271406 19266 net.cpp:156] Memory required for data: 1334499360
I0403 19:15:44.271425 19266 layer_factory.hpp:77] Creating layer inception_5b/relu_5x5_reduce
I0403 19:15:44.271442 19266 net.cpp:91] Creating Layer inception_5b/relu_5x5_reduce
I0403 19:15:44.271457 19266 net.cpp:425] inception_5b/relu_5x5_reduce <- inception_5b/5x5_reduce
I0403 19:15:44.271477 19266 net.cpp:386] inception_5b/relu_5x5_reduce -> inception_5b/5x5_reduce (in-place)
I0403 19:15:44.271842 19266 net.cpp:141] Setting up inception_5b/relu_5x5_reduce
I0403 19:15:44.271867 19266 net.cpp:148] Top shape: 24 48 7 7 (56448)
I0403 19:15:44.271881 19266 net.cpp:156] Memory required for data: 1334725152
I0403 19:15:44.271896 19266 layer_factory.hpp:77] Creating layer inception_5b/5x5
I0403 19:15:44.271915 19266 net.cpp:91] Creating Layer inception_5b/5x5
I0403 19:15:44.271932 19266 net.cpp:425] inception_5b/5x5 <- inception_5b/5x5_reduce
I0403 19:15:44.271953 19266 net.cpp:399] inception_5b/5x5 -> inception_5b/5x5
I0403 19:15:44.273958 19266 net.cpp:141] Setting up inception_5b/5x5
I0403 19:15:44.273985 19266 net.cpp:148] Top shape: 24 128 7 7 (150528)
I0403 19:15:44.274000 19266 net.cpp:156] Memory required for data: 1335327264
I0403 19:15:44.274019 19266 layer_factory.hpp:77] Creating layer inception_5b/relu_5x5
I0403 19:15:44.274036 19266 net.cpp:91] Creating Layer inception_5b/relu_5x5
I0403 19:15:44.274051 19266 net.cpp:425] inception_5b/relu_5x5 <- inception_5b/5x5
I0403 19:15:44.274070 19266 net.cpp:386] inception_5b/relu_5x5 -> inception_5b/5x5 (in-place)
I0403 19:15:44.274261 19266 net.cpp:141] Setting up inception_5b/relu_5x5
I0403 19:15:44.274286 19266 net.cpp:148] Top shape: 24 128 7 7 (150528)
I0403 19:15:44.274299 19266 net.cpp:156] Memory required for data: 1335929376
I0403 19:15:44.274314 19266 layer_factory.hpp:77] Creating layer inception_5b/pool
I0403 19:15:44.274334 19266 net.cpp:91] Creating Layer inception_5b/pool
I0403 19:15:44.274350 19266 net.cpp:425] inception_5b/pool <- inception_5a/output_inception_5a/output_0_split_3
I0403 19:15:44.274369 19266 net.cpp:399] inception_5b/pool -> inception_5b/pool
I0403 19:15:44.274438 19266 net.cpp:141] Setting up inception_5b/pool
I0403 19:15:44.274461 19266 net.cpp:148] Top shape: 24 832 7 7 (978432)
I0403 19:15:44.274476 19266 net.cpp:156] Memory required for data: 1339843104
I0403 19:15:44.274489 19266 layer_factory.hpp:77] Creating layer inception_5b/pool_proj
I0403 19:15:44.274513 19266 net.cpp:91] Creating Layer inception_5b/pool_proj
I0403 19:15:44.274529 19266 net.cpp:425] inception_5b/pool_proj <- inception_5b/pool
I0403 19:15:44.274549 19266 net.cpp:399] inception_5b/pool_proj -> inception_5b/pool_proj
I0403 19:15:44.276837 19266 net.cpp:141] Setting up inception_5b/pool_proj
I0403 19:15:44.276868 19266 net.cpp:148] Top shape: 24 128 7 7 (150528)
I0403 19:15:44.276885 19266 net.cpp:156] Memory required for data: 1340445216
I0403 19:15:44.276902 19266 layer_factory.hpp:77] Creating layer inception_5b/relu_pool_proj
I0403 19:15:44.276919 19266 net.cpp:91] Creating Layer inception_5b/relu_pool_proj
I0403 19:15:44.276935 19266 net.cpp:425] inception_5b/relu_pool_proj <- inception_5b/pool_proj
I0403 19:15:44.276957 19266 net.cpp:386] inception_5b/relu_pool_proj -> inception_5b/pool_proj (in-place)
I0403 19:15:44.277256 19266 net.cpp:141] Setting up inception_5b/relu_pool_proj
I0403 19:15:44.277283 19266 net.cpp:148] Top shape: 24 128 7 7 (150528)
I0403 19:15:44.277299 19266 net.cpp:156] Memory required for data: 1341047328
I0403 19:15:44.277313 19266 layer_factory.hpp:77] Creating layer inception_5b/output
I0403 19:15:44.277330 19266 net.cpp:91] Creating Layer inception_5b/output
I0403 19:15:44.277359 19266 net.cpp:425] inception_5b/output <- inception_5b/1x1
I0403 19:15:44.277377 19266 net.cpp:425] inception_5b/output <- inception_5b/3x3
I0403 19:15:44.277393 19266 net.cpp:425] inception_5b/output <- inception_5b/5x5
I0403 19:15:44.277408 19266 net.cpp:425] inception_5b/output <- inception_5b/pool_proj
I0403 19:15:44.277426 19266 net.cpp:399] inception_5b/output -> inception_5b/output
I0403 19:15:44.277477 19266 net.cpp:141] Setting up inception_5b/output
I0403 19:15:44.277499 19266 net.cpp:148] Top shape: 24 1024 7 7 (1204224)
I0403 19:15:44.277513 19266 net.cpp:156] Memory required for data: 1345864224
I0403 19:15:44.277529 19266 layer_factory.hpp:77] Creating layer pool5/7x7_s1
I0403 19:15:44.277549 19266 net.cpp:91] Creating Layer pool5/7x7_s1
I0403 19:15:44.277565 19266 net.cpp:425] pool5/7x7_s1 <- inception_5b/output
I0403 19:15:44.277581 19266 net.cpp:399] pool5/7x7_s1 -> pool5/7x7_s1
I0403 19:15:44.277796 19266 net.cpp:141] Setting up pool5/7x7_s1
I0403 19:15:44.277822 19266 net.cpp:148] Top shape: 24 1024 1 1 (24576)
I0403 19:15:44.277837 19266 net.cpp:156] Memory required for data: 1345962528
I0403 19:15:44.277853 19266 layer_factory.hpp:77] Creating layer pool5/drop_7x7_s1
I0403 19:15:44.277869 19266 net.cpp:91] Creating Layer pool5/drop_7x7_s1
I0403 19:15:44.277885 19266 net.cpp:425] pool5/drop_7x7_s1 <- pool5/7x7_s1
I0403 19:15:44.277904 19266 net.cpp:386] pool5/drop_7x7_s1 -> pool5/7x7_s1 (in-place)
I0403 19:15:44.277956 19266 net.cpp:141] Setting up pool5/drop_7x7_s1
I0403 19:15:44.277978 19266 net.cpp:148] Top shape: 24 1024 1 1 (24576)
I0403 19:15:44.277992 19266 net.cpp:156] Memory required for data: 1346060832
I0403 19:15:44.278007 19266 layer_factory.hpp:77] Creating layer loss3/classifier_plantvillage
I0403 19:15:44.278028 19266 net.cpp:91] Creating Layer loss3/classifier_plantvillage
I0403 19:15:44.278043 19266 net.cpp:425] loss3/classifier_plantvillage <- pool5/7x7_s1
I0403 19:15:44.278064 19266 net.cpp:399] loss3/classifier_plantvillage -> loss3/classifier_plantvillage
I0403 19:15:44.278483 19266 net.cpp:141] Setting up loss3/classifier_plantvillage
I0403 19:15:44.278506 19266 net.cpp:148] Top shape: 24 38 (912)
I0403 19:15:44.278522 19266 net.cpp:156] Memory required for data: 1346064480
I0403 19:15:44.278538 19266 layer_factory.hpp:77] Creating layer loss3/classifier_plantvillage_loss3/classifier_plantvillage_0_split
I0403 19:15:44.278558 19266 net.cpp:91] Creating Layer loss3/classifier_plantvillage_loss3/classifier_plantvillage_0_split
I0403 19:15:44.278574 19266 net.cpp:425] loss3/classifier_plantvillage_loss3/classifier_plantvillage_0_split <- loss3/classifier_plantvillage
I0403 19:15:44.278590 19266 net.cpp:399] loss3/classifier_plantvillage_loss3/classifier_plantvillage_0_split -> loss3/classifier_plantvillage_loss3/classifier_plantvillage_0_split_0
I0403 19:15:44.278610 19266 net.cpp:399] loss3/classifier_plantvillage_loss3/classifier_plantvillage_0_split -> loss3/classifier_plantvillage_loss3/classifier_plantvillage_0_split_1
I0403 19:15:44.278630 19266 net.cpp:399] loss3/classifier_plantvillage_loss3/classifier_plantvillage_0_split -> loss3/classifier_plantvillage_loss3/classifier_plantvillage_0_split_2
I0403 19:15:44.278650 19266 net.cpp:399] loss3/classifier_plantvillage_loss3/classifier_plantvillage_0_split -> loss3/classifier_plantvillage_loss3/classifier_plantvillage_0_split_3
I0403 19:15:44.278744 19266 net.cpp:141] Setting up loss3/classifier_plantvillage_loss3/classifier_plantvillage_0_split
I0403 19:15:44.278766 19266 net.cpp:148] Top shape: 24 38 (912)
I0403 19:15:44.278782 19266 net.cpp:148] Top shape: 24 38 (912)
I0403 19:15:44.278796 19266 net.cpp:148] Top shape: 24 38 (912)
I0403 19:15:44.278811 19266 net.cpp:148] Top shape: 24 38 (912)
I0403 19:15:44.278825 19266 net.cpp:156] Memory required for data: 1346079072
I0403 19:15:44.278838 19266 layer_factory.hpp:77] Creating layer loss1/loss
I0403 19:15:44.278859 19266 net.cpp:91] Creating Layer loss1/loss
I0403 19:15:44.278875 19266 net.cpp:425] loss1/loss <- loss1/classifier_plantvillage_loss1/classifier_plantvillage_0_split_0
I0403 19:15:44.278905 19266 net.cpp:425] loss1/loss <- label_data_1_split_0
…
