…
I0403 19:10:10.097970 18952 net.cpp:313] The NetState phase (1) differed from the phase (0) specified by a rule in layer data
I0403 19:10:10.099097 18952 net.cpp:49] Initializing net from parameters: 
state {
  phase: TEST
}
layer {
  name: "data"
  type: "Data"
  top: "data"
  top: "label"
  include {
    phase: TEST
  }
  transform_param {
    mirror: false
    crop_size: 224
    mean_file: "/home/mohanty/data/final_dataset/lmdb/segmented-60-40/mean.binaryproto"
  }
  data_param {
    source: "/home/mohanty/data/final_dataset/lmdb/segmented-60-40/test_db"
    batch_size: 24
    backend: LMDB
  }
}
layer {
  name: "conv1/7x7_s2"
  type: "Convolution"
  bottom: "data"
  top: "conv1/7x7_s2"
  param {
    lr_mult: 1
    decay_mult: 1
  }
  param {
    lr_mult: 2
    decay_mult: 0
  }
  convolution_param {
    num_output: 64
    pad: 3
    kernel_size: 7
    stride: 2
    weight_filler {
      type: "xavier"
      std: 0.1
    }
    bias_filler {
      type: "constant"
      value: 0.2
    }
  }
}
layer {
  name: "conv1/relu_7x7"
  type: "ReLU"
  bottom: "conv1/7x7_s2"
  top: "conv1/7x7_s2"
}
layer {
  name: "pool1/3x3_s2"
  type: "Pooling"
  bottom: "conv1/7x7_s2"
  top: "pool1/3x3_s2"
  pooling_param {
    pool: MAX
    kernel_size: 3
    stride: 2
  }
}
layer {
  name: "pool1/norm1"
  type: "LRN"
  bottom: "pool1/3x3_s2"
  top: "pool1/norm1"
  lrn_param {
    local_size: 5
    alpha: 0.0001
    beta: 0.75
  }
}
layer {
  name: "conv2/3x3_reduce"
  type: "Convolution"
  bottom: "pool1/norm1"
  top: "conv2/3x3_reduce"
  param {
    lr_mult: 1
    decay_mult: 1
  }
  param {
    lr_mult: 2
    decay_mult: 0
  }
  convolution_param {
    num_output: 64
    kernel_size: 1
    weight_filler {
      type: "xavier"
      std: 0.1
    }
    bias_filler {
      type: "constant"
      value: 0.2
    }
  }
}
layer {
  name: "conv2/relu_3x3_reduce"
  type: "ReLU"
  bottom: "conv2/3x3_reduce"
  top: "conv2/3x3_reduce"
}
layer {
  name: "conv2/3x3"
  type: "Convolution"
  bottom: "conv2/3x3_reduce"
  top: "conv2/3x3"
  param {
    lr_mult: 1
    decay_mult: 1
  }
  param {
    lr_mult: 2
    decay_mult: 0
  }
  convolution_param {
    num_output: 192
    pad: 1
    kernel_size: 3
    weight_filler {
      type: "xavier"
      std: 0.03
    }
    bias_filler {
      type: "constant"
      value: 0.2
    }
  }
}
layer {
  name: "conv2/relu_3x3"
  type: "ReLU"
  bottom: "conv2/3x3"
  top: "conv2/3x3"
}
layer {
  name: "conv2/norm2"
  type: "LRN"
  bottom: "conv2/3x3"
  top: "conv2/norm2"
  lrn_param {
    local_size: 5
    alpha: 0.0001
    beta: 0.75
  }
}
layer {
  name: "pool2/3x3_s2"
  type: "Pooling"
  bottom: "conv2/norm2"
  top: "pool2/3x3_s2"
  pooling_param {
    pool: MAX
    kernel_size: 3
    stride: 2
  }
}
layer {
  name: "inception_3a/1x1"
  type: "Convolution"
  bottom: "pool2/3x3_s2"
  top: "inception_3a/1x1"
  param {
    lr_mult: 1
    decay_mult: 1
  }
  param {
    lr_mult: 2
    decay_mult: 0
  }
  convolution_param {
    num_output: 64
    kernel_size: 1
    weight_filler {
      type: "xavier"
      std: 0.03
    }
    bias_filler {
      type: "constant"
      value: 0.2
    }
  }
}
layer {
  name: "inception_3a/relu_1x1"
  type: "ReLU"
  bottom: "inception_3a/1x1"
  top: "inception_3a/1x1"
}
layer {
  name: "inception_3a/3x3_reduce"
  type: "Convolution"
  bottom: "pool2/3x3_s2"
  top: "inception_3a/3x3_reduce"
  param {
    lr_mult: 1
    decay_mult: 1
  }
  param {
    lr_mult: 2
    decay_mult: 0
  }
  convolution_param {
    num_output: 96
    kernel_size: 1
    weight_filler {
      type: "xavier"
      std: 0.09
    }
    bias_filler {
      type: "constant"
      value: 0.2
    }
  }
}
layer {
  name: "inception_3a/relu_3x3_reduce"
  type: "ReLU"
  bottom: "inception_3a/3x3_reduce"
  top: "inception_3a/3x3_reduce"
}
layer {
  name: "inception_3a/3x3"
  type: "Convolution"
  bottom: "inception_3a/3x3_reduce"
  top: "inception_3a/3x3"
  param {
    lr_mult: 1
    decay_mult: 1
  }
  param {
    lr_mult: 2
    decay_mult: 0
  }
  convolution_param {
    num_output: 128
    pad: 1
    kernel_size: 3
    weight_filler {
      type: "xavier"
      std: 0.03
    }
    bias_filler {
      type: "constant"
      value: 0.2
    }
  }
}
layer {
  name: "inception_3a/relu_3x3"
  type: "ReLU"
  bottom: "inception_3a/3x3"
  top: "inception_3a/3x3"
}
layer {
  name: "inception_3a/5x5_reduce"
  type: "Convolution"
  bottom: "pool2/3x3_s2"
  top: "inception_3a/5x5_reduce"
  param {
    lr_mult: 1
    decay_mult: 1
  }
  param {
    lr_mult: 2
    decay_mult: 0
  }
  convolution_param {
    num_output: 16
    kernel_size: 1
    weight_filler {
      type: "xavier"
      std: 0.2
    }
    bias_filler {
      type: "constant"
      value: 0.2
    }
  }
}
layer {
  name: "inception_3a/relu_5x5_reduce"
  type: "ReLU"
  bottom: "inception_3a/5x5_reduce"
  top: "inception_3a/5x5_reduce"
}
layer {
  name: "inception_3a/5x5"
  type: "Convolution"
  bottom: "inception_3a/5x5_reduce"
  top: "inception_3a/5x5"
  param {
    lr_mult: 1
    decay_mult: 1
  }
  param {
    lr_mult: 2
    decay_mult: 0
  }
  convolution_param {
    num_output: 32
    pad: 2
    kernel_size: 5
    weight_filler {
      type: "xavier"
      std: 0.03
    }
    bias_filler {
      type: "constant"
      value: 0.2
    }
  }
}
layer {
  name: "inception_3a/relu_5x5"
  type: "ReLU"
  bottom: "inception_3a/5x5"
  top: "inception_3a/5x5"
}
layer {
  name: "inception_3a/pool"
  type: "Pooling"
  bottom: "pool2/3x3_s2"
  top: "inception_3a/pool"
  pooling_param {
    pool: MAX
    kernel_size: 3
    stride: 1
    pad: 1
  }
}
layer {
  name: "inception_3a/pool_proj"
  type: "Convolution"
  bottom: "inception_3a/pool"
  top: "inception_3a/pool_proj"
  param {
    lr_mult: 1
    decay_mult: 1
  }
  param {
    lr_mult: 2
    decay_mult: 0
  }
  convolution_param {
    num_output: 32
    kernel_size: 1
    weight_filler {
      type: "xavier"
      std: 0.1
    }
    bias_filler {
      type: "constant"
      value: 0.2
    }
  }
}
layer {
  name: "inception_3a/relu_pool_proj"
  type: "ReLU"
  bottom: "inception_3a/pool_proj"
  top: "inception_3a/pool_proj"
}
layer {
  name: "inception_3a/output"
  type: "Concat"
  bottom: "inception_3a/1x1"
  bottom: "inception_3a/3x3"
  bottom: "inception_3a/5x5"
  bottom: "inception_3a/pool_proj"
  top: "inception_3a/output"
}
layer {
  name: "inception_3b/1x1"
  type: "Convolution"
  bottom: "inception_3a/output"
  top: "inception_3b/1x1"
  param {
    lr_mult: 1
    decay_mult: 1
  }
  param {
    lr_mult: 2
    decay_mult: 0
  }
  convolution_param {
    num_output: 128
    kernel_size: 1
    weight_filler {
      type: "xavier"
      std: 0.03
    }
    bias_filler {
      type: "constant"
      value: 0.2
    }
  }
}
layer {
  name: "inception_3b/relu_1x1"
  type: "ReLU"
  bottom: "inception_3b/1x1"
  top: "inception_3b/1x1"
}
layer {
  name: "inception_3b/3x3_reduce"
  type: "Convolution"
  bottom: "inception_3a/output"
  top: "inception_3b/3x3_reduce"
  param {
    lr_mult: 1
    decay_mult: 1
  }
  param {
    lr_mult: 2
    decay_mult: 0
  }
  convolution_param {
    num_output: 128
    kernel_size: 1
    weight_filler {
      type: "xavier"
      std: 0.09
    }
    bias_filler {
      type: "constant"
      value: 0.2
    }
  }
}
layer {
  name: "inception_3b/relu_3x3_reduce"
  type: "ReLU"
  bottom: "inception_3b/3x3_reduce"
  top: "inception_3b/3x3_reduce"
}
layer {
  name: "inception_3b/3x3"
  type: "Convolution"
  bottom: "inception_3b/3x3_reduce"
  top: "inception_3b/3x3"
  param {
    lr_mult: 1
    decay_mult: 1
  }
  param {
    lr_mult: 2
    decay_mult: 0
  }
  convolution_param {
    num_output: 192
    pad: 1
    kernel_size: 3
    weight_filler {
      type: "xavier"
      std: 0.03
    }
    bias_filler {
      type: "constant"
      value: 0.2
    }
  }
}
layer {
  name: "inception_3b/relu_3x3"
  type: "ReLU"
  bottom: "inception_3b/3x3"
  top: "inception_3b/3x3"
}
layer {
  name: "inception_3b/5x5_reduce"
  type: "Convolution"
  bottom: "inception_3a/output"
  top: "inception_3b/5x5_reduce"
  param {
    lr_mult: 1
    decay_mult: 1
  }
  param {
    lr_mult: 2
    decay_mult: 0
  }
  convolution_param {
    num_output: 32
    kernel_size: 1
    weight_filler {
      type: "xavier"
      std: 0.2
    }
    bias_filler {
      type: "constant"
      value: 0.2
    }
  }
}
layer {
  name: "inception_3b/relu_5x5_reduce"
  type: "ReLU"
  bottom: "inception_3b/5x5_reduce"
  top: "inception_3b/5x5_reduce"
}
layer {
  name: "inception_3b/5x5"
  type: "Convolution"
  bottom: "inception_3b/5x5_reduce"
  top: "inception_3b/5x5"
  param {
    lr_mult: 1
    decay_mult: 1
  }
  param {
    lr_mult: 2
    decay_mult: 0
  }
  convolution_param {
    num_output: 96
    pad: 2
    kernel_size: 5
    weight_filler {
      type: "xavier"
      std: 0.03
    }
    bias_filler {
      type: "constant"
      value: 0.2
    }
  }
}
layer {
  name: "inception_3b/relu_5x5"
  type: "ReLU"
  bottom: "inception_3b/5x5"
  top: "inception_3b/5x5"
}
layer {
  name: "inception_3b/pool"
  type: "Pooling"
  bottom: "inception_3a/output"
  top: "inception_3b/pool"
  pooling_param {
    pool: MAX
    kernel_size: 3
    stride: 1
    pad: 1
  }
}
layer {
  name: "inception_3b/pool_proj"
  type: "Convolution"
  bottom: "inception_3b/pool"
  top: "inception_3b/pool_proj"
  param {
    lr_mult: 1
    decay_mult: 1
  }
  param {
    lr_mult: 2
    decay_mult: 0
  }
  convolution_param {
    num_output: 64
    kernel_size: 1
    weight_filler {
      type: "xavier"
      std: 0.1
    }
    bias_filler {
      type: "constant"
      value: 0.2
    }
  }
}
layer {
  name: "inception_3b/relu_pool_proj"
  type: "ReLU"
  bottom: "inception_3b/pool_proj"
  top: "inception_3b/pool_proj"
}
layer {
  name: "inception_3b/output"
  type: "Concat"
  bottom: "inception_3b/1x1"
  bottom: "inception_3b/3x3"
  bottom: "inception_3b/5x5"
  bottom: "inception_3b/pool_proj"
  top: "inception_3b/output"
}
layer {
  name: "pool3/3x3_s2"
  type: "Pooling"
  bottom: "inception_3b/output"
  top: "pool3/3x3_s2"
  pooling_param {
    pool: MAX
    kernel_size: 3
    stride: 2
  }
}
layer {
  name: "inception_4a/1x1"
  type: "Convolution"
  bottom: "pool3/3x3_s2"
  top: "inception_4a/1x1"
  param {
    lr_mult: 1
    decay_mult: 1
  }
  param {
    lr_mult: 2
    decay_mult: 0
  }
  convolution_param {
    num_output: 192
    kernel_size: 1
    weight_filler {
      type: "xavier"
      std: 0.03
    }
    bias_filler {
      type: "constant"
      value: 0.2
    }
  }
}
layer {
  name: "inception_4a/relu_1x1"
  type: "ReLU"
  bottom: "inception_4a/1x1"
  top: "inception_4a/1x1"
}
layer {
  name: "inception_4a/3x3_reduce"
  type: "Convolution"
  bottom: "pool3/3x3_s2"
  top: "inception_4a/3x3_reduce"
  param {
    lr_mult: 1
    decay_mult: 1
  }
  param {
    lr_mult: 2
    decay_mult: 0
  }
  convolution_param {
    num_output: 96
    kernel_size: 1
    weight_filler {
      type: "xavier"
      std: 0.09
    }
    bias_filler {
      type: "constant"
      value: 0.2
    }
  }
}
layer {
  name: "inception_4a/relu_3x3_reduce"
  type: "ReLU"
  bottom: "inception_4a/3x3_reduce"
  top: "inception_4a/3x3_reduce"
}
layer {
  name: "inception_4a/3x3"
  type: "Convolution"
  bottom: "inception_4a/3x3_reduce"
  top: "inception_4a/3x3"
  param {
    lr_mult: 1
    decay_mult: 1
  }
  param {
    lr_mult: 2
    decay_mult: 0
  }
  convolution_param {
    num_output: 208
    pad: 1
    kernel_size: 3
    weight_filler {
      type: "xavier"
      std: 0.03
    }
    bias_filler {
      type: "constant"
      value: 0.2
    }
  }
}
layer {
  name: "inception_4a/relu_3x3"
  type: "ReLU"
  bottom: "inception_4a/3x3"
  top: "inception_4a/3x3"
}
layer {
  name: "inception_4a/5x5_reduce"
  type: "Convolution"
  bottom: "pool3/3x3_s2"
  top: "inception_4a/5x5_reduce"
  param {
    lr_mult: 1
    decay_mult: 1
  }
  param {
    lr_mult: 2
    decay_mult: 0
  }
  convolution_param {
    num_output: 16
    kernel_size: 1
    weight_filler {
      type: "xavier"
      std: 0.2
    }
    bias_filler {
      type: "constant"
      value: 0.2
    }
  }
}
layer {
  name: "inception_4a/relu_5x5_reduce"
  type: "ReLU"
  bottom: "inception_4a/5x5_reduce"
  top: "inception_4a/5x5_reduce"
}
layer {
  name: "inception_4a/5x5"
  type: "Convolution"
  bottom: "inception_4a/5x5_reduce"
  top: "inception_4a/5x5"
  param {
    lr_mult: 1
    decay_mult: 1
  }
  param {
    lr_mult: 2
    decay_mult: 0
  }
  convolution_param {
    num_output: 48
    pad: 2
    kernel_size: 5
    weight_filler {
      type: "xavier"
      std: 0.03
    }
    bias_filler {
      type: "constant"
      value: 0.2
    }
  }
}
layer {
  name: "inception_4a/relu_5x5"
  type: "ReLU"
  bottom: "inception_4a/5x5"
  top: "inception_4a/5x5"
}
layer {
  name: "inception_4a/pool"
  type: "Pooling"
  bottom: "pool3/3x3_s2"
  top: "inception_4a/pool"
  pooling_param {
    pool: MAX
    kernel_size: 3
    stride: 1
    pad: 1
  }
}
layer {
  name: "inception_4a/pool_proj"
  type: "Convolution"
  bottom: "inception_4a/pool"
  top: "inception_4a/pool_proj"
  param {
    lr_mult: 1
    decay_mult: 1
  }
  param {
    lr_mult: 2
    decay_mult: 0
  }
  convolution_param {
    num_output: 64
    kernel_size: 1
    weight_filler {
      type: "xavier"
      std: 0.1
    }
    bias_filler {
      type: "constant"
      value: 0.2
    }
  }
}
layer {
  name: "inception_4a/relu_pool_proj"
  type: "ReLU"
  bottom: "inception_4a/pool_proj"
  top: "inception_4a/pool_proj"
}
layer {
  name: "inception_4a/output"
  type: "Concat"
  bottom: "inception_4a/1x1"
  bottom: "inception_4a/3x3"
  bottom: "inception_4a/5x5"
  bottom: "inception_4a/pool_proj"
  top: "inception_4a/output"
}
layer {
  name: "loss1/ave_pool"
  type: "Pooling"
  bottom: "inception_4a/output"
  top: "loss1/ave_pool"
  pooling_param {
    pool: AVE
    kernel_size: 5
    stride: 3
  }
}
layer {
  name: "loss1/conv"
  type: "Convolution"
  bottom: "loss1/ave_pool"
  top: "loss1/conv"
  param {
    lr_mult: 1
    decay_mult: 1
  }
  param {
    lr_mult: 2
    decay_mult: 0
  }
  convolution_param {
    num_output: 128
    kernel_size: 1
    weight_filler {
      type: "xavier"
      std: 0.08
    }
    bias_filler {
      type: "constant"
      value: 0.2
    }
  }
}
layer {
  name: "loss1/relu_conv"
  type: "ReLU"
  bottom: "loss1/conv"
  top: "loss1/conv"
}
layer {
  name: "loss1/fc"
  type: "InnerProduct"
  bottom: "loss1/conv"
  top: "loss1/fc"
  param {
    lr_mult: 1
    decay_mult: 1
  }
  param {
    lr_mult: 2
    decay_mult: 0
  }
  inner_product_param {
    num_output: 1024
    weight_filler {
      type: "xavier"
      std: 0.02
    }
    bias_filler {
      type: "constant"
      value: 0.2
    }
  }
}
layer {
  name: "loss1/relu_fc"
  type: "ReLU"
  bottom: "loss1/fc"
  top: "loss1/fc"
}
layer {
  name: "loss1/drop_fc"
  type: "Dropout"
  bottom: "loss1/fc"
  top: "loss1/fc"
  dropout_param {
    dropout_ratio: 0.7
  }
}
layer {
  name: "loss1/classifier_plantvillage"
  type: "InnerProduct"
  bottom: "loss1/fc"
  top: "loss1/classifier_plantvillage"
  param {
    lr_mult: 1
    decay_mult: 1
  }
  param {
    lr_mult: 2
    decay_mult: 0
  }
  inner_product_param {
    num_output: 38
    weight_filler {
      type: "xavier"
      std: 0.0009765625
    }
    bias_filler {
      type: "constant"
      value: 0
    }
  }
}
layer {
  name: "inception_4b/1x1"
  type: "Convolution"
  bottom: "inception_4a/output"
  top: "inception_4b/1x1"
  param {
    lr_mult: 1
    decay_mult: 1
  }
  param {
    lr_mult: 2
    decay_mult: 0
  }
  convolution_param {
    num_output: 160
    kernel_size: 1
    weight_filler {
      type: "xavier"
      std: 0.03
    }
    bias_filler {
      type: "constant"
      value: 0.2
    }
  }
}
layer {
  name: "inception_4b/relu_1x1"
  type: "ReLU"
  bottom: "inception_4b/1x1"
  top: "inception_4b/1x1"
}
layer {
  name: "inception_4b/3x3_reduce"
  type: "Convolution"
  bottom: "inception_4a/output"
  top: "inception_4b/3x3_reduce"
  param {
    lr_mult: 1
    decay_mult: 1
  }
  param {
    lr_mult: 2
    decay_mult: 0
  }
  convolution_param {
    num_output: 112
    kernel_size: 1
    weight_filler {
      type: "xavier"
      std: 0.09
    }
    bias_filler {
      type: "constant"
      value: 0.2
    }
  }
}
layer {
  name: "inception_4b/relu_3x3_reduce"
  type: "ReLU"
  bottom: "inception_4b/3x3_reduce"
  top: "inception_4b/3x3_reduce"
}
layer {
  name: "inception_4b/3x3"
  type: "Convolution"
  bottom: "inception_4b/3x3_reduce"
  top: "inception_4b/3x3"
  param {
    lr_mult: 1
    decay_mult: 1
  }
  param {
    lr_mult: 2
    decay_mult: 0
  }
  convolution_param {
    num_output: 224
    pad: 1
    kernel_size: 3
    weight_filler {
      type: "xavier"
      std: 0.03
    }
    bias_filler {
      type: "constant"
      value: 0.2
    }
  }
}
layer {
  name: "inception_4b/relu_3x3"
  type: "ReLU"
  bottom: "inception_4b/3x3"
  top: "inception_4b/3x3"
}
layer {
  name: "inception_4b/5x5_reduce"
  type: "Convolution"
  bottom: "inception_4a/output"
  top: "inception_4b/5x5_reduce"
  param {
    lr_mult: 1
    decay_mult: 1
  }
  param {
    lr_mult: 2
    decay_mult: 0
  }
  convolution_param {
    num_output: 24
    kernel_size: 1
    weight_filler {
      type: "xavier"
      std: 0.2
    }
    bias_filler {
      type: "constant"
      value: 0.2
    }
  }
}
layer {
  name: "inception_4b/relu_5x5_reduce"
  type: "ReLU"
  bottom: "inception_4b/5x5_reduce"
  top: "inception_4b/5x5_reduce"
}
layer {
  name: "inception_4b/5x5"
  type: "Convolution"
  bottom: "inception_4b/5x5_reduce"
  top: "inception_4b/5x5"
  param {
    lr_mult: 1
    decay_mult: 1
  }
  param {
    lr_mult: 2
    decay_mult: 0
  }
  convolution_param {
    num_output: 64
    pad: 2
    kernel_size: 5
    weight_filler {
      type: "xavier"
      std: 0.03
    }
    bias_filler {
      type: "constant"
      value: 0.2
    }
  }
}
layer {
  name: "inception_4b/relu_5x5"
  type: "ReLU"
  bottom: "inception_4b/5x5"
  top: "inception_4b/5x5"
}
layer {
  name: "inception_4b/pool"
  type: "Pooling"
  bottom: "inception_4a/output"
  top: "inception_4b/pool"
  pooling_param {
    pool: MAX
    kernel_size: 3
    stride: 1
    pad: 1
  }
}
layer {
  name: "inception_4b/pool_proj"
  type: "Convolution"
  bottom: "inception_4b/pool"
  top: "inception_4b/pool_proj"
  param {
    lr_mult: 1
    decay_mult: 1
  }
  param {
    lr_mult: 2
    decay_mult: 0
  }
  convolution_param {
    num_output: 64
    kernel_size: 1
    weight_filler {
      type: "xavier"
      std: 0.1
    }
    bias_filler {
      type: "constant"
      value: 0.2
    }
  }
}
layer {
  name: "inception_4b/relu_pool_proj"
  type: "ReLU"
  bottom: "inception_4b/pool_proj"
  top: "inception_4b/pool_proj"
}
layer {
  name: "inception_4b/output"
  type: "Concat"
  bottom: "inception_4b/1x1"
  bottom: "inception_4b/3x3"
  bottom: "inception_4b/5x5"
  bottom: "inception_4b/pool_proj"
  top: "inception_4b/output"
}
layer {
  name: "inception_4c/1x1"
  type: "Convolution"
  bottom: "inception_4b/output"
  top: "inception_4c/1x1"
  param {
    lr_mult: 1
    decay_mult: 1
  }
  param {
    lr_mult: 2
    decay_mult: 0
  }
  convolution_param {
    num_output: 128
    kernel_size: 1
    weight_filler {
      type: "xavier"
      std: 0.03
    }
    bias_filler {
      type: "constant"
      value: 0.2
    }
  }
}
layer {
  name: "inception_4c/relu_1x1"
  type: "ReLU"
  bottom: "inception_4c/1x1"
  top: "inception_4c/1x1"
}
layer {
  name: "inception_4c/3x3_reduce"
  type: "Convolution"
  bottom: "inception_4b/output"
  top: "inception_4c/3x3_reduce"
  param {
    lr_mult: 1
    decay_mult: 1
  }
  param {
    lr_mult: 2
    decay_mult: 0
  }
  convolution_param {
    num_output: 128
    kernel_size: 1
    weight_filler {
      type: "xavier"
      std: 0.09
    }
    bias_filler {
      type: "constant"
      value: 0.2
    }
  }
}
layer {
  name: "inception_4c/relu_3x3_reduce"
  type: "ReLU"
  bottom: "inception_4c/3x3_reduce"
  top: "inception_4c/3x3_reduce"
}
layer {
  name: "inception_4c/3x3"
  type: "Convolution"
  bottom: "inception_4c/3x3_reduce"
  top: "inception_4c/3x3"
  param {
    lr_mult: 1
    decay_mult: 1
  }
  param {
    lr_mult: 2
    decay_mult: 0
  }
  convolution_param {
    num_output: 256
    pad: 1
    kernel_size: 3
    weight_filler {
      type: "xavier"
      std: 0.03
    }
    bias_filler {
      type: "constant"
      value: 0.2
    }
  }
}
layer {
  name: "inception_4c/relu_3x3"
  type: "ReLU"
  bottom: "inception_4c/3x3"
  top: "inception_4c/3x3"
}
layer {
  name: "inception_4c/5x5_reduce"
  type: "Convolution"
  bottom: "inception_4b/output"
  top: "inception_4c/5x5_reduce"
  param {
    lr_mult: 1
    decay_mult: 1
  }
  param {
    lr_mult: 2
    decay_mult: 0
  }
  convolution_param {
    num_output: 24
    kernel_size: 1
    weight_filler {
      type: "xavier"
      std: 0.2
    }
    bias_filler {
      type: "constant"
      value: 0.2
    }
  }
}
layer {
  name: "inception_4c/relu_5x5_reduce"
  type: "ReLU"
  bottom: "inception_4c/5x5_reduce"
  top: "inception_4c/5x5_reduce"
}
layer {
  name: "inception_4c/5x5"
  type: "Convolution"
  bottom: "inception_4c/5x5_reduce"
  top: "inception_4c/5x5"
  param {
    lr_mult: 1
    decay_mult: 1
  }
  param {
    lr_mult: 2
    decay_mult: 0
  }
  convolution_param {
    num_output: 64
    pad: 2
    kernel_size: 5
    weight_filler {
      type: "xavier"
      std: 0.03
    }
    bias_filler {
      type: "constant"
      value: 0.2
    }
  }
}
layer {
  name: "inception_4c/relu_5x5"
  type: "ReLU"
  bottom: "inception_4c/5x5"
  top: "inception_4c/5x5"
}
layer {
  name: "inception_4c/pool"
  type: "Pooling"
  bottom: "inception_4b/output"
  top: "inception_4c/pool"
  pooling_param {
    pool: MAX
    kernel_size: 3
    stride: 1
    pad: 1
  }
}
layer {
  name: "inception_4c/pool_proj"
  type: "Convolution"
  bottom: "inception_4c/pool"
  top: "inception_4c/pool_proj"
  param {
    lr_mult: 1
    decay_mult: 1
  }
  param {
    lr_mult: 2
    decay_mult: 0
  }
  convolution_param {
    num_output: 64
    kernel_size: 1
    weight_filler {
      type: "xavier"
      std: 0.1
    }
    bias_filler {
      type: "constant"
      value: 0.2
    }
  }
}
layer {
  name: "inception_4c/relu_pool_proj"
  type: "ReLU"
  bottom: "inception_4c/pool_proj"
  top: "inception_4c/pool_proj"
}
layer {
  name: "inception_4c/output"
  type: "Concat"
  bottom: "inception_4c/1x1"
  bottom: "inception_4c/3x3"
  bottom: "inception_4c/5x5"
  bottom: "inception_4c/pool_proj"
  top: "inception_4c/output"
}
layer {
  name: "inception_4d/1x1"
  type: "Convolution"
  bottom: "inception_4c/output"
  top: "inception_4d/1x1"
  param {
    lr_mult: 1
    decay_mult: 1
  }
  param {
    lr_mult: 2
    decay_mult: 0
  }
  convolution_param {
    num_output: 112
    kernel_size: 1
    weight_filler {
      type: "xavier"
      std: 0.03
    }
    bias_filler {
      type: "constant"
      value: 0.2
    }
  }
}
layer {
  name: "inception_4d/relu_1x1"
  type: "ReLU"
  bottom: "inception_4d/1x1"
  top: "inception_4d/1x1"
}
layer {
  name: "inception_4d/3x3_reduce"
  type: "Convolution"
  bottom: "inception_4c/output"
  top: "inception_4d/3x3_reduce"
  param {
    lr_mult: 1
    decay_mult: 1
  }
  param {
    lr_mult: 2
    decay_mult: 0
  }
  convolution_param {
    num_output: 144
    kernel_size: 1
    weight_filler {
      type: "xavier"
      std: 0.09
    }
    bias_filler {
      type: "constant"
      value: 0.2
    }
  }
}
layer {
  name: "inception_4d/relu_3x3_reduce"
  type: "ReLU"
  bottom: "inception_4d/3x3_reduce"
  top: "inception_4d/3x3_reduce"
}
layer {
  name: "inception_4d/3x3"
  type: "Convolution"
  bottom: "inception_4d/3x3_reduce"
  top: "inception_4d/3x3"
  param {
    lr_mult: 1
    decay_mult: 1
  }
  param {
    lr_mult: 2
    decay_mult: 0
  }
  convolution_param {
    num_output: 288
    pad: 1
    kernel_size: 3
    weight_filler {
      type: "xavier"
      std: 0.03
    }
    bias_filler {
      type: "constant"
      value: 0.2
    }
  }
}
layer {
  name: "inception_4d/relu_3x3"
  type: "ReLU"
  bottom: "inception_4d/3x3"
  top: "inception_4d/3x3"
}
layer {
  name: "inception_4d/5x5_reduce"
  type: "Convolution"
  bottom: "inception_4c/output"
  top: "inception_4d/5x5_reduce"
  param {
    lr_mult: 1
    decay_mult: 1
  }
  param {
    lr_mult: 2
    decay_mult: 0
  }
  convolution_param {
    num_output: 32
    kernel_size: 1
    weight_filler {
      type: "xavier"
      std: 0.2
    }
    bias_filler {
      type: "constant"
      value: 0.2
    }
  }
}
layer {
  name: "inception_4d/relu_5x5_reduce"
  type: "ReLU"
  bottom: "inception_4d/5x5_reduce"
  top: "inception_4d/5x5_reduce"
}
layer {
  name: "inception_4d/5x5"
  type: "Convolution"
  bottom: "inception_4d/5x5_reduce"
  top: "inception_4d/5x5"
  param {
    lr_mult: 1
    decay_mult: 1
  }
  param {
    lr_mult: 2
    decay_mult: 0
  }
  convolution_param {
    num_output: 64
    pad: 2
    kernel_size: 5
    weight_filler {
      type: "xavier"
      std: 0.03
    }
    bias_filler {
      type: "constant"
      value: 0.2
    }
  }
}
layer {
  name: "inception_4d/relu_5x5"
  type: "ReLU"
  bottom: "inception_4d/5x5"
  top: "inception_4d/5x5"
}
layer {
  name: "inception_4d/pool"
  type: "Pooling"
  bottom: "inception_4c/output"
  top: "inception_4d/pool"
  pooling_param {
    pool: MAX
    kernel_size: 3
    stride: 1
    pad: 1
  }
}
layer {
  name: "inception_4d/pool_proj"
  type: "Convolution"
  bottom: "inception_4d/pool"
  top: "inception_4d/pool_proj"
  param {
    lr_mult: 1
    decay_mult: 1
  }
  param {
    lr_mult: 2
    decay_mult: 0
  }
  convolution_param {
    num_output: 64
    kernel_size: 1
    weight_filler {
      type: "xavier"
      std: 0.1
    }
    bias_filler {
      type: "constant"
      value: 0.2
    }
  }
}
layer {
  name: "inception_4d/relu_pool_proj"
  type: "ReLU"
  bottom: "inception_4d/pool_proj"
  top: "inception_4d/pool_proj"
}
layer {
  name: "inception_4d/output"
  type: "Concat"
  bottom: "inception_4d/1x1"
  bottom: "inception_4d/3x3"
  bottom: "inception_4d/5x5"
  bottom: "inception_4d/pool_proj"
  top: "inception_4d/output"
}
layer {
  name: "loss2/ave_pool"
  type: "Pooling"
  bottom: "inception_4d/output"
  top: "loss2/ave_pool"
  pooling_param {
    pool: AVE
    kernel_size: 5
    stride: 3
  }
}
layer {
  name: "loss2/conv"
  type: "Convolution"
  bottom: "loss2/ave_pool"
  top: "loss2/conv"
  param {
    lr_mult: 1
    decay_mult: 1
  }
  param {
    lr_mult: 2
    decay_mult: 0
  }
  convolution_param {
    num_output: 128
    kernel_size: 1
    weight_filler {
      type: "xavier"
      std: 0.08
    }
    bias_filler {
      type: "constant"
      value: 0.2
    }
  }
}
layer {
  name: "loss2/relu_conv"
  type: "ReLU"
  bottom: "loss2/conv"
  top: "loss2/conv"
}
layer {
  name: "loss2/fc"
  type: "InnerProduct"
  bottom: "loss2/conv"
  top: "loss2/fc"
  param {
    lr_mult: 1
    decay_mult: 1
  }
  param {
    lr_mult: 2
    decay_mult: 0
  }
  inner_product_param {
    num_output: 1024
    weight_filler {
      type: "xavier"
      std: 0.02
    }
    bias_filler {
      type: "constant"
      value: 0.2
    }
  }
}
layer {
  name: "loss2/relu_fc"
  type: "ReLU"
  bottom: "loss2/fc"
  top: "loss2/fc"
}
layer {
  name: "loss2/drop_fc"
  type: "Dropout"
  bottom: "loss2/fc"
  top: "loss2/fc"
  dropout_param {
    dropout_ratio: 0.7
  }
}
layer {
  name: "loss2/classifier_plantvillage"
  type: "InnerProduct"
  bottom: "loss2/fc"
  top: "loss2/classifier_plantvillage"
  param {
    lr_mult: 1
    decay_mult: 1
  }
  param {
    lr_mult: 2
    decay_mult: 0
  }
  inner_product_param {
    num_output: 38
    weight_filler {
      type: "xavier"
      std: 0.0009765625
    }
    bias_filler {
      type: "constant"
      value: 0
    }
  }
}
layer {
  name: "inception_4e/1x1"
  type: "Convolution"
  bottom: "inception_4d/output"
  top: "inception_4e/1x1"
  param {
    lr_mult: 1
    decay_mult: 1
  }
  param {
    lr_mult: 2
    decay_mult: 0
  }
  convolution_param {
    num_output: 256
    kernel_size: 1
    weight_filler {
      type: "xavier"
      std: 0.03
    }
    bias_filler {
      type: "constant"
      value: 0.2
    }
  }
}
layer {
  name: "inception_4e/relu_1x1"
  type: "ReLU"
  bottom: "inception_4e/1x1"
  top: "inception_4e/1x1"
}
layer {
  name: "inception_4e/3x3_reduce"
  type: "Convolution"
  bottom: "inception_4d/output"
  top: "inception_4e/3x3_reduce"
  param {
    lr_mult: 1
    decay_mult: 1
  }
  param {
    lr_mult: 2
    decay_mult: 0
  }
  convolution_param {
    num_output: 160
    kernel_size: 1
    weight_filler {
      type: "xavier"
      std: 0.09
    }
    bias_filler {
      type: "constant"
      value: 0.2
    }
  }
}
layer {
  name: "inception_4e/relu_3x3_reduce"
  type: "ReLU"
  bottom: "inception_4e/3x3_reduce"
  top: "inception_4e/3x3_reduce"
}
layer {
  name: "inception_4e/3x3"
  type: "Convolution"
  bottom: "inception_4e/3x3_reduce"
  top: "inception_4e/3x3"
  param {
    lr_mult: 1
    decay_mult: 1
  }
  param {
    lr_mult: 2
    decay_mult: 0
  }
  convolution_param {
    num_output: 320
    pad: 1
    kernel_size: 3
    weight_filler {
      type: "xavier"
      std: 0.03
    }
    bias_filler {
      type: "constant"
      value: 0.2
    }
  }
}
layer {
  name: "inception_4e/relu_3x3"
  type: "ReLU"
  bottom: "inception_4e/3x3"
  top: "inception_4e/3x3"
}
layer {
  name: "inception_4e/5x5_reduce"
  type: "Convolution"
  bottom: "inception_4d/output"
  top: "inception_4e/5x5_reduce"
  param {
    lr_mult: 1
    decay_mult: 1
  }
  param {
    lr_mult: 2
    decay_mult: 0
  }
  convolution_param {
    num_output: 32
    kernel_size: 1
    weight_filler {
      type: "xavier"
      std: 0.2
    }
    bias_filler {
      type: "constant"
      value: 0.2
    }
  }
}
layer {
  name: "inception_4e/relu_5x5_reduce"
  type: "ReLU"
  bottom: "inception_4e/5x5_reduce"
  top: "inception_4e/5x5_reduce"
}
layer {
  name: "inception_4e/5x5"
  type: "Convolution"
  bottom: "inception_4e/5x5_reduce"
  top: "inception_4e/
I0403 19:10:10.100319 18952 layer_factory.hpp:77] Creating layer data
I0403 19:10:10.100898 18952 net.cpp:91] Creating Layer data
I0403 19:10:10.100931 18952 net.cpp:399] data -> data
I0403 19:10:10.100987 18952 net.cpp:399] data -> label
I0403 19:10:10.101025 18952 data_transformer.cpp:25] Loading mean file from: /home/mohanty/data/final_dataset/lmdb/segmented-60-40/mean.binaryproto
I0403 19:10:10.102159 18957 db_lmdb.cpp:38] Opened lmdb /home/mohanty/data/final_dataset/lmdb/segmented-60-40/test_db
I0403 19:10:10.113677 18952 data_layer.cpp:41] output data size: 24,3,224,224
I0403 19:10:10.140190 18952 net.cpp:141] Setting up data
I0403 19:10:10.140276 18952 net.cpp:148] Top shape: 24 3 224 224 (3612672)
I0403 19:10:10.140298 18952 net.cpp:148] Top shape: 24 (24)
I0403 19:10:10.140314 18952 net.cpp:156] Memory required for data: 14450784
I0403 19:10:10.140341 18952 layer_factory.hpp:77] Creating layer label_data_1_split
I0403 19:10:10.140368 18952 net.cpp:91] Creating Layer label_data_1_split
I0403 19:10:10.140388 18952 net.cpp:425] label_data_1_split <- label
I0403 19:10:10.140419 18952 net.cpp:399] label_data_1_split -> label_data_1_split_0
I0403 19:10:10.140445 18952 net.cpp:399] label_data_1_split -> label_data_1_split_1
I0403 19:10:10.140468 18952 net.cpp:399] label_data_1_split -> label_data_1_split_2
I0403 19:10:10.140489 18952 net.cpp:399] label_data_1_split -> label_data_1_split_3
I0403 19:10:10.140509 18952 net.cpp:399] label_data_1_split -> label_data_1_split_4
I0403 19:10:10.140529 18952 net.cpp:399] label_data_1_split -> label_data_1_split_5
I0403 19:10:10.140549 18952 net.cpp:399] label_data_1_split -> label_data_1_split_6
I0403 19:10:10.140570 18952 net.cpp:399] label_data_1_split -> label_data_1_split_7
I0403 19:10:10.140590 18952 net.cpp:399] label_data_1_split -> label_data_1_split_8
I0403 19:10:10.140611 18952 net.cpp:399] label_data_1_split -> label_data_1_split_9
I0403 19:10:10.140729 18952 net.cpp:141] Setting up label_data_1_split
I0403 19:10:10.140753 18952 net.cpp:148] Top shape: 24 (24)
I0403 19:10:10.140770 18952 net.cpp:148] Top shape: 24 (24)
I0403 19:10:10.140786 18952 net.cpp:148] Top shape: 24 (24)
I0403 19:10:10.140804 18952 net.cpp:148] Top shape: 24 (24)
I0403 19:10:10.140818 18952 net.cpp:148] Top shape: 24 (24)
I0403 19:10:10.140835 18952 net.cpp:148] Top shape: 24 (24)
I0403 19:10:10.140851 18952 net.cpp:148] Top shape: 24 (24)
I0403 19:10:10.140866 18952 net.cpp:148] Top shape: 24 (24)
I0403 19:10:10.140882 18952 net.cpp:148] Top shape: 24 (24)
I0403 19:10:10.140897 18952 net.cpp:148] Top shape: 24 (24)
I0403 19:10:10.140941 18952 net.cpp:156] Memory required for data: 14451744
I0403 19:10:10.140962 18952 layer_factory.hpp:77] Creating layer conv1/7x7_s2
I0403 19:10:10.140995 18952 net.cpp:91] Creating Layer conv1/7x7_s2
I0403 19:10:10.141015 18952 net.cpp:425] conv1/7x7_s2 <- data
I0403 19:10:10.141034 18952 net.cpp:399] conv1/7x7_s2 -> conv1/7x7_s2
I0403 19:10:10.278656 18952 net.cpp:141] Setting up conv1/7x7_s2
I0403 19:10:10.278744 18952 net.cpp:148] Top shape: 24 64 112 112 (19267584)
I0403 19:10:10.278761 18952 net.cpp:156] Memory required for data: 91522080
I0403 19:10:10.278791 18952 layer_factory.hpp:77] Creating layer conv1/relu_7x7
I0403 19:10:10.278818 18952 net.cpp:91] Creating Layer conv1/relu_7x7
I0403 19:10:10.278837 18952 net.cpp:425] conv1/relu_7x7 <- conv1/7x7_s2
I0403 19:10:10.278857 18952 net.cpp:386] conv1/relu_7x7 -> conv1/7x7_s2 (in-place)
I0403 19:10:10.279120 18952 net.cpp:141] Setting up conv1/relu_7x7
I0403 19:10:10.279148 18952 net.cpp:148] Top shape: 24 64 112 112 (19267584)
I0403 19:10:10.279163 18952 net.cpp:156] Memory required for data: 168592416
I0403 19:10:10.279180 18952 layer_factory.hpp:77] Creating layer pool1/3x3_s2
I0403 19:10:10.279203 18952 net.cpp:91] Creating Layer pool1/3x3_s2
I0403 19:10:10.279222 18952 net.cpp:425] pool1/3x3_s2 <- conv1/7x7_s2
I0403 19:10:10.279240 18952 net.cpp:399] pool1/3x3_s2 -> pool1/3x3_s2
I0403 19:10:10.279314 18952 net.cpp:141] Setting up pool1/3x3_s2
I0403 19:10:10.279338 18952 net.cpp:148] Top shape: 24 64 56 56 (4816896)
I0403 19:10:10.279353 18952 net.cpp:156] Memory required for data: 187860000
I0403 19:10:10.279368 18952 layer_factory.hpp:77] Creating layer pool1/norm1
I0403 19:10:10.279392 18952 net.cpp:91] Creating Layer pool1/norm1
I0403 19:10:10.279410 18952 net.cpp:425] pool1/norm1 <- pool1/3x3_s2
I0403 19:10:10.279428 18952 net.cpp:399] pool1/norm1 -> pool1/norm1
I0403 19:10:10.279708 18952 net.cpp:141] Setting up pool1/norm1
I0403 19:10:10.279734 18952 net.cpp:148] Top shape: 24 64 56 56 (4816896)
I0403 19:10:10.279752 18952 net.cpp:156] Memory required for data: 207127584
I0403 19:10:10.279767 18952 layer_factory.hpp:77] Creating layer conv2/3x3_reduce
I0403 19:10:10.279791 18952 net.cpp:91] Creating Layer conv2/3x3_reduce
I0403 19:10:10.279808 18952 net.cpp:425] conv2/3x3_reduce <- pool1/norm1
I0403 19:10:10.279826 18952 net.cpp:399] conv2/3x3_reduce -> conv2/3x3_reduce
I0403 19:10:10.281208 18952 net.cpp:141] Setting up conv2/3x3_reduce
I0403 19:10:10.281236 18952 net.cpp:148] Top shape: 24 64 56 56 (4816896)
I0403 19:10:10.281254 18952 net.cpp:156] Memory required for data: 226395168
I0403 19:10:10.281275 18952 layer_factory.hpp:77] Creating layer conv2/relu_3x3_reduce
I0403 19:10:10.281293 18952 net.cpp:91] Creating Layer conv2/relu_3x3_reduce
I0403 19:10:10.281309 18952 net.cpp:425] conv2/relu_3x3_reduce <- conv2/3x3_reduce
I0403 19:10:10.281327 18952 net.cpp:386] conv2/relu_3x3_reduce -> conv2/3x3_reduce (in-place)
I0403 19:10:10.281579 18952 net.cpp:141] Setting up conv2/relu_3x3_reduce
I0403 19:10:10.281605 18952 net.cpp:148] Top shape: 24 64 56 56 (4816896)
I0403 19:10:10.281620 18952 net.cpp:156] Memory required for data: 245662752
I0403 19:10:10.281635 18952 layer_factory.hpp:77] Creating layer conv2/3x3
I0403 19:10:10.281656 18952 net.cpp:91] Creating Layer conv2/3x3
I0403 19:10:10.281672 18952 net.cpp:425] conv2/3x3 <- conv2/3x3_reduce
I0403 19:10:10.281690 18952 net.cpp:399] conv2/3x3 -> conv2/3x3
I0403 19:10:10.283808 18952 net.cpp:141] Setting up conv2/3x3
I0403 19:10:10.283836 18952 net.cpp:148] Top shape: 24 192 56 56 (14450688)
I0403 19:10:10.283854 18952 net.cpp:156] Memory required for data: 303465504
I0403 19:10:10.283879 18952 layer_factory.hpp:77] Creating layer conv2/relu_3x3
I0403 19:10:10.283898 18952 net.cpp:91] Creating Layer conv2/relu_3x3
I0403 19:10:10.283913 18952 net.cpp:425] conv2/relu_3x3 <- conv2/3x3
I0403 19:10:10.283931 18952 net.cpp:386] conv2/relu_3x3 -> conv2/3x3 (in-place)
I0403 19:10:10.284102 18952 net.cpp:141] Setting up conv2/relu_3x3
I0403 19:10:10.284126 18952 net.cpp:148] Top shape: 24 192 56 56 (14450688)
I0403 19:10:10.284162 18952 net.cpp:156] Memory required for data: 361268256
I0403 19:10:10.284178 18952 layer_factory.hpp:77] Creating layer conv2/norm2
I0403 19:10:10.284201 18952 net.cpp:91] Creating Layer conv2/norm2
I0403 19:10:10.284217 18952 net.cpp:425] conv2/norm2 <- conv2/3x3
I0403 19:10:10.284237 18952 net.cpp:399] conv2/norm2 -> conv2/norm2
I0403 19:10:10.284529 18952 net.cpp:141] Setting up conv2/norm2
I0403 19:10:10.284556 18952 net.cpp:148] Top shape: 24 192 56 56 (14450688)
I0403 19:10:10.284572 18952 net.cpp:156] Memory required for data: 419071008
I0403 19:10:10.284587 18952 layer_factory.hpp:77] Creating layer pool2/3x3_s2
I0403 19:10:10.284605 18952 net.cpp:91] Creating Layer pool2/3x3_s2
I0403 19:10:10.284620 18952 net.cpp:425] pool2/3x3_s2 <- conv2/norm2
I0403 19:10:10.284639 18952 net.cpp:399] pool2/3x3_s2 -> pool2/3x3_s2
I0403 19:10:10.284689 18952 net.cpp:141] Setting up pool2/3x3_s2
I0403 19:10:10.284714 18952 net.cpp:148] Top shape: 24 192 28 28 (3612672)
I0403 19:10:10.284729 18952 net.cpp:156] Memory required for data: 433521696
I0403 19:10:10.284744 18952 layer_factory.hpp:77] Creating layer pool2/3x3_s2_pool2/3x3_s2_0_split
I0403 19:10:10.284760 18952 net.cpp:91] Creating Layer pool2/3x3_s2_pool2/3x3_s2_0_split
I0403 19:10:10.284775 18952 net.cpp:425] pool2/3x3_s2_pool2/3x3_s2_0_split <- pool2/3x3_s2
I0403 19:10:10.284792 18952 net.cpp:399] pool2/3x3_s2_pool2/3x3_s2_0_split -> pool2/3x3_s2_pool2/3x3_s2_0_split_0
I0403 19:10:10.284811 18952 net.cpp:399] pool2/3x3_s2_pool2/3x3_s2_0_split -> pool2/3x3_s2_pool2/3x3_s2_0_split_1
I0403 19:10:10.284832 18952 net.cpp:399] pool2/3x3_s2_pool2/3x3_s2_0_split -> pool2/3x3_s2_pool2/3x3_s2_0_split_2
I0403 19:10:10.284853 18952 net.cpp:399] pool2/3x3_s2_pool2/3x3_s2_0_split -> pool2/3x3_s2_pool2/3x3_s2_0_split_3
I0403 19:10:10.284921 18952 net.cpp:141] Setting up pool2/3x3_s2_pool2/3x3_s2_0_split
I0403 19:10:10.284942 18952 net.cpp:148] Top shape: 24 192 28 28 (3612672)
I0403 19:10:10.284965 18952 net.cpp:148] Top shape: 24 192 28 28 (3612672)
I0403 19:10:10.284979 18952 net.cpp:148] Top shape: 24 192 28 28 (3612672)
I0403 19:10:10.284994 18952 net.cpp:148] Top shape: 24 192 28 28 (3612672)
I0403 19:10:10.285008 18952 net.cpp:156] Memory required for data: 491324448
I0403 19:10:10.285022 18952 layer_factory.hpp:77] Creating layer inception_3a/1x1
I0403 19:10:10.285045 18952 net.cpp:91] Creating Layer inception_3a/1x1
I0403 19:10:10.285063 18952 net.cpp:425] inception_3a/1x1 <- pool2/3x3_s2_pool2/3x3_s2_0_split_0
I0403 19:10:10.285082 18952 net.cpp:399] inception_3a/1x1 -> inception_3a/1x1
I0403 19:10:10.286541 18952 net.cpp:141] Setting up inception_3a/1x1
I0403 19:10:10.286571 18952 net.cpp:148] Top shape: 24 64 28 28 (1204224)
I0403 19:10:10.286586 18952 net.cpp:156] Memory required for data: 496141344
I0403 19:10:10.286603 18952 layer_factory.hpp:77] Creating layer inception_3a/relu_1x1
I0403 19:10:10.286622 18952 net.cpp:91] Creating Layer inception_3a/relu_1x1
I0403 19:10:10.286638 18952 net.cpp:425] inception_3a/relu_1x1 <- inception_3a/1x1
I0403 19:10:10.286656 18952 net.cpp:386] inception_3a/relu_1x1 -> inception_3a/1x1 (in-place)
I0403 19:10:10.286828 18952 net.cpp:141] Setting up inception_3a/relu_1x1
I0403 19:10:10.286851 18952 net.cpp:148] Top shape: 24 64 28 28 (1204224)
I0403 19:10:10.286866 18952 net.cpp:156] Memory required for data: 500958240
I0403 19:10:10.286880 18952 layer_factory.hpp:77] Creating layer inception_3a/3x3_reduce
I0403 19:10:10.286902 18952 net.cpp:91] Creating Layer inception_3a/3x3_reduce
I0403 19:10:10.286919 18952 net.cpp:425] inception_3a/3x3_reduce <- pool2/3x3_s2_pool2/3x3_s2_0_split_1
I0403 19:10:10.286939 18952 net.cpp:399] inception_3a/3x3_reduce -> inception_3a/3x3_reduce
I0403 19:10:10.288599 18952 net.cpp:141] Setting up inception_3a/3x3_reduce
I0403 19:10:10.288625 18952 net.cpp:148] Top shape: 24 96 28 28 (1806336)
I0403 19:10:10.288641 18952 net.cpp:156] Memory required for data: 508183584
I0403 19:10:10.288662 18952 layer_factory.hpp:77] Creating layer inception_3a/relu_3x3_reduce
I0403 19:10:10.288698 18952 net.cpp:91] Creating Layer inception_3a/relu_3x3_reduce
I0403 19:10:10.288717 18952 net.cpp:425] inception_3a/relu_3x3_reduce <- inception_3a/3x3_reduce
I0403 19:10:10.288733 18952 net.cpp:386] inception_3a/relu_3x3_reduce -> inception_3a/3x3_reduce (in-place)
I0403 19:10:10.288908 18952 net.cpp:141] Setting up inception_3a/relu_3x3_reduce
I0403 19:10:10.288933 18952 net.cpp:148] Top shape: 24 96 28 28 (1806336)
I0403 19:10:10.288959 18952 net.cpp:156] Memory required for data: 515408928
I0403 19:10:10.288976 18952 layer_factory.hpp:77] Creating layer inception_3a/3x3
I0403 19:10:10.289002 18952 net.cpp:91] Creating Layer inception_3a/3x3
I0403 19:10:10.289021 18952 net.cpp:425] inception_3a/3x3 <- inception_3a/3x3_reduce
I0403 19:10:10.289039 18952 net.cpp:399] inception_3a/3x3 -> inception_3a/3x3
I0403 19:10:10.290627 18952 net.cpp:141] Setting up inception_3a/3x3
I0403 19:10:10.290653 18952 net.cpp:148] Top shape: 24 128 28 28 (2408448)
I0403 19:10:10.290669 18952 net.cpp:156] Memory required for data: 525042720
I0403 19:10:10.290688 18952 layer_factory.hpp:77] Creating layer inception_3a/relu_3x3
I0403 19:10:10.290707 18952 net.cpp:91] Creating Layer inception_3a/relu_3x3
I0403 19:10:10.290724 18952 net.cpp:425] inception_3a/relu_3x3 <- inception_3a/3x3
I0403 19:10:10.290742 18952 net.cpp:386] inception_3a/relu_3x3 -> inception_3a/3x3 (in-place)
I0403 19:10:10.291013 18952 net.cpp:141] Setting up inception_3a/relu_3x3
I0403 19:10:10.291038 18952 net.cpp:148] Top shape: 24 128 28 28 (2408448)
I0403 19:10:10.291052 18952 net.cpp:156] Memory required for data: 534676512
I0403 19:10:10.291067 18952 layer_factory.hpp:77] Creating layer inception_3a/5x5_reduce
I0403 19:10:10.291090 18952 net.cpp:91] Creating Layer inception_3a/5x5_reduce
I0403 19:10:10.291106 18952 net.cpp:425] inception_3a/5x5_reduce <- pool2/3x3_s2_pool2/3x3_s2_0_split_2
I0403 19:10:10.291126 18952 net.cpp:399] inception_3a/5x5_reduce -> inception_3a/5x5_reduce
I0403 19:10:10.292086 18952 net.cpp:141] Setting up inception_3a/5x5_reduce
I0403 19:10:10.292114 18952 net.cpp:148] Top shape: 24 16 28 28 (301056)
I0403 19:10:10.292129 18952 net.cpp:156] Memory required for data: 535880736
I0403 19:10:10.292147 18952 layer_factory.hpp:77] Creating layer inception_3a/relu_5x5_reduce
I0403 19:10:10.292167 18952 net.cpp:91] Creating Layer inception_3a/relu_5x5_reduce
I0403 19:10:10.292184 18952 net.cpp:425] inception_3a/relu_5x5_reduce <- inception_3a/5x5_reduce
I0403 19:10:10.292201 18952 net.cpp:386] inception_3a/relu_5x5_reduce -> inception_3a/5x5_reduce (in-place)
I0403 19:10:10.292487 18952 net.cpp:141] Setting up inception_3a/relu_5x5_reduce
I0403 19:10:10.292513 18952 net.cpp:148] Top shape: 24 16 28 28 (301056)
I0403 19:10:10.292527 18952 net.cpp:156] Memory required for data: 537084960
I0403 19:10:10.292542 18952 layer_factory.hpp:77] Creating layer inception_3a/5x5
I0403 19:10:10.292567 18952 net.cpp:91] Creating Layer inception_3a/5x5
I0403 19:10:10.292585 18952 net.cpp:425] inception_3a/5x5 <- inception_3a/5x5_reduce
I0403 19:10:10.292604 18952 net.cpp:399] inception_3a/5x5 -> inception_3a/5x5
I0403 19:10:10.293570 18952 net.cpp:141] Setting up inception_3a/5x5
I0403 19:10:10.293596 18952 net.cpp:148] Top shape: 24 32 28 28 (602112)
I0403 19:10:10.293612 18952 net.cpp:156] Memory required for data: 539493408
I0403 19:10:10.293629 18952 layer_factory.hpp:77] Creating layer inception_3a/relu_5x5
I0403 19:10:10.293648 18952 net.cpp:91] Creating Layer inception_3a/relu_5x5
I0403 19:10:10.293663 18952 net.cpp:425] inception_3a/relu_5x5 <- inception_3a/5x5
I0403 19:10:10.293683 18952 net.cpp:386] inception_3a/relu_5x5 -> inception_3a/5x5 (in-place)
I0403 19:10:10.293848 18952 net.cpp:141] Setting up inception_3a/relu_5x5
I0403 19:10:10.293871 18952 net.cpp:148] Top shape: 24 32 28 28 (602112)
I0403 19:10:10.293885 18952 net.cpp:156] Memory required for data: 541901856
I0403 19:10:10.293900 18952 layer_factory.hpp:77] Creating layer inception_3a/pool
I0403 19:10:10.293920 18952 net.cpp:91] Creating Layer inception_3a/pool
I0403 19:10:10.293952 18952 net.cpp:425] inception_3a/pool <- pool2/3x3_s2_pool2/3x3_s2_0_split_3
I0403 19:10:10.293973 18952 net.cpp:399] inception_3a/pool -> inception_3a/pool
I0403 19:10:10.294029 18952 net.cpp:141] Setting up inception_3a/pool
I0403 19:10:10.294052 18952 net.cpp:148] Top shape: 24 192 28 28 (3612672)
I0403 19:10:10.294066 18952 net.cpp:156] Memory required for data: 556352544
I0403 19:10:10.294081 18952 layer_factory.hpp:77] Creating layer inception_3a/pool_proj
I0403 19:10:10.294102 18952 net.cpp:91] Creating Layer inception_3a/pool_proj
I0403 19:10:10.294119 18952 net.cpp:425] inception_3a/pool_proj <- inception_3a/pool
I0403 19:10:10.294142 18952 net.cpp:399] inception_3a/pool_proj -> inception_3a/pool_proj
I0403 19:10:10.295056 18952 net.cpp:141] Setting up inception_3a/pool_proj
I0403 19:10:10.295084 18952 net.cpp:148] Top shape: 24 32 28 28 (602112)
I0403 19:10:10.295101 18952 net.cpp:156] Memory required for data: 558760992
I0403 19:10:10.295122 18952 layer_factory.hpp:77] Creating layer inception_3a/relu_pool_proj
I0403 19:10:10.295143 18952 net.cpp:91] Creating Layer inception_3a/relu_pool_proj
I0403 19:10:10.295161 18952 net.cpp:425] inception_3a/relu_pool_proj <- inception_3a/pool_proj
I0403 19:10:10.295177 18952 net.cpp:386] inception_3a/relu_pool_proj -> inception_3a/pool_proj (in-place)
I0403 19:10:10.295440 18952 net.cpp:141] Setting up inception_3a/relu_pool_proj
I0403 19:10:10.295465 18952 net.cpp:148] Top shape: 24 32 28 28 (602112)
I0403 19:10:10.295480 18952 net.cpp:156] Memory required for data: 561169440
I0403 19:10:10.295493 18952 layer_factory.hpp:77] Creating layer inception_3a/output
I0403 19:10:10.295511 18952 net.cpp:91] Creating Layer inception_3a/output
I0403 19:10:10.295526 18952 net.cpp:425] inception_3a/output <- inception_3a/1x1
I0403 19:10:10.295542 18952 net.cpp:425] inception_3a/output <- inception_3a/3x3
I0403 19:10:10.295557 18952 net.cpp:425] inception_3a/output <- inception_3a/5x5
I0403 19:10:10.295573 18952 net.cpp:425] inception_3a/output <- inception_3a/pool_proj
I0403 19:10:10.295593 18952 net.cpp:399] inception_3a/output -> inception_3a/output
I0403 19:10:10.295642 18952 net.cpp:141] Setting up inception_3a/output
I0403 19:10:10.295665 18952 net.cpp:148] Top shape: 24 256 28 28 (4816896)
I0403 19:10:10.295680 18952 net.cpp:156] Memory required for data: 580437024
I0403 19:10:10.295693 18952 layer_factory.hpp:77] Creating layer inception_3a/output_inception_3a/output_0_split
I0403 19:10:10.295711 18952 net.cpp:91] Creating Layer inception_3a/output_inception_3a/output_0_split
I0403 19:10:10.295725 18952 net.cpp:425] inception_3a/output_inception_3a/output_0_split <- inception_3a/output
I0403 19:10:10.295744 18952 net.cpp:399] inception_3a/output_inception_3a/output_0_split -> inception_3a/output_inception_3a/output_0_split_0
I0403 19:10:10.295765 18952 net.cpp:399] inception_3a/output_inception_3a/output_0_split -> inception_3a/output_inception_3a/output_0_split_1
I0403 19:10:10.295788 18952 net.cpp:399] inception_3a/output_inception_3a/output_0_split -> inception_3a/output_inception_3a/output_0_split_2
I0403 19:10:10.295809 18952 net.cpp:399] inception_3a/output_inception_3a/output_0_split -> inception_3a/output_inception_3a/output_0_split_3
I0403 19:10:10.295883 18952 net.cpp:141] Setting up inception_3a/output_inception_3a/output_0_split
I0403 19:10:10.295905 18952 net.cpp:148] Top shape: 24 256 28 28 (4816896)
I0403 19:10:10.295922 18952 net.cpp:148] Top shape: 24 256 28 28 (4816896)
I0403 19:10:10.295938 18952 net.cpp:148] Top shape: 24 256 28 28 (4816896)
I0403 19:10:10.295958 18952 net.cpp:148] Top shape: 24 256 28 28 (4816896)
I0403 19:10:10.295972 18952 net.cpp:156] Memory required for data: 657507360
I0403 19:10:10.295987 18952 layer_factory.hpp:77] Creating layer inception_3b/1x1
I0403 19:10:10.296010 18952 net.cpp:91] Creating Layer inception_3b/1x1
I0403 19:10:10.296026 18952 net.cpp:425] inception_3b/1x1 <- inception_3a/output_inception_3a/output_0_split_0
I0403 19:10:10.296046 18952 net.cpp:399] inception_3b/1x1 -> inception_3b/1x1
I0403 19:10:10.297132 18952 net.cpp:141] Setting up inception_3b/1x1
I0403 19:10:10.297170 18952 net.cpp:148] Top shape: 24 128 28 28 (2408448)
I0403 19:10:10.297188 18952 net.cpp:156] Memory required for data: 667141152
I0403 19:10:10.297207 18952 layer_factory.hpp:77] Creating layer inception_3b/relu_1x1
I0403 19:10:10.297225 18952 net.cpp:91] Creating Layer inception_3b/relu_1x1
I0403 19:10:10.297240 18952 net.cpp:425] inception_3b/relu_1x1 <- inception_3b/1x1
I0403 19:10:10.297260 18952 net.cpp:386] inception_3b/relu_1x1 -> inception_3b/1x1 (in-place)
I0403 19:10:10.297427 18952 net.cpp:141] Setting up inception_3b/relu_1x1
I0403 19:10:10.297451 18952 net.cpp:148] Top shape: 24 128 28 28 (2408448)
I0403 19:10:10.297466 18952 net.cpp:156] Memory required for data: 676774944
I0403 19:10:10.297480 18952 layer_factory.hpp:77] Creating layer inception_3b/3x3_reduce
I0403 19:10:10.297502 18952 net.cpp:91] Creating Layer inception_3b/3x3_reduce
I0403 19:10:10.297519 18952 net.cpp:425] inception_3b/3x3_reduce <- inception_3a/output_inception_3a/output_0_split_1
I0403 19:10:10.297540 18952 net.cpp:399] inception_3b/3x3_reduce -> inception_3b/3x3_reduce
I0403 19:10:10.298625 18952 net.cpp:141] Setting up inception_3b/3x3_reduce
I0403 19:10:10.298651 18952 net.cpp:148] Top shape: 24 128 28 28 (2408448)
I0403 19:10:10.298666 18952 net.cpp:156] Memory required for data: 686408736
I0403 19:10:10.298684 18952 layer_factory.hpp:77] Creating layer inception_3b/relu_3x3_reduce
I0403 19:10:10.298702 18952 net.cpp:91] Creating Layer inception_3b/relu_3x3_reduce
I0403 19:10:10.298717 18952 net.cpp:425] inception_3b/relu_3x3_reduce <- inception_3b/3x3_reduce
I0403 19:10:10.298738 18952 net.cpp:386] inception_3b/relu_3x3_reduce -> inception_3b/3x3_reduce (in-place)
I0403 19:10:10.298900 18952 net.cpp:141] Setting up inception_3b/relu_3x3_reduce
I0403 19:10:10.298930 18952 net.cpp:148] Top shape: 24 128 28 28 (2408448)
I0403 19:10:10.298945 18952 net.cpp:156] Memory required for data: 696042528
I0403 19:10:10.298972 18952 layer_factory.hpp:77] Creating layer inception_3b/3x3
I0403 19:10:10.299000 18952 net.cpp:91] Creating Layer inception_3b/3x3
I0403 19:10:10.299018 18952 net.cpp:425] inception_3b/3x3 <- inception_3b/3x3_reduce
I0403 19:10:10.299037 18952 net.cpp:399] inception_3b/3x3 -> inception_3b/3x3
I0403 19:10:10.301827 18952 net.cpp:141] Setting up inception_3b/3x3
I0403 19:10:10.301854 18952 net.cpp:148] Top shape: 24 192 28 28 (3612672)
I0403 19:10:10.301869 18952 net.cpp:156] Memory required for data: 710493216
I0403 19:10:10.301887 18952 layer_factory.hpp:77] Creating layer inception_3b/relu_3x3
I0403 19:10:10.301908 18952 net.cpp:91] Creating Layer inception_3b/relu_3x3
I0403 19:10:10.301924 18952 net.cpp:425] inception_3b/relu_3x3 <- inception_3b/3x3
I0403 19:10:10.301942 18952 net.cpp:386] inception_3b/relu_3x3 -> inception_3b/3x3 (in-place)
I0403 19:10:10.302212 18952 net.cpp:141] Setting up inception_3b/relu_3x3
I0403 19:10:10.302237 18952 net.cpp:148] Top shape: 24 192 28 28 (3612672)
I0403 19:10:10.302253 18952 net.cpp:156] Memory required for data: 724943904
I0403 19:10:10.302268 18952 layer_factory.hpp:77] Creating layer inception_3b/5x5_reduce
I0403 19:10:10.302290 18952 net.cpp:91] Creating Layer inception_3b/5x5_reduce
I0403 19:10:10.302309 18952 net.cpp:425] inception_3b/5x5_reduce <- inception_3a/output_inception_3a/output_0_split_2
I0403 19:10:10.302330 18952 net.cpp:399] inception_3b/5x5_reduce -> inception_3b/5x5_reduce
I0403 19:10:10.303315 18952 net.cpp:141] Setting up inception_3b/5x5_reduce
I0403 19:10:10.303341 18952 net.cpp:148] Top shape: 24 32 28 28 (602112)
I0403 19:10:10.303356 18952 net.cpp:156] Memory required for data: 727352352
I0403 19:10:10.303375 18952 layer_factory.hpp:77] Creating layer inception_3b/relu_5x5_reduce
I0403 19:10:10.303395 18952 net.cpp:91] Creating Layer inception_3b/relu_5x5_reduce
I0403 19:10:10.303411 18952 net.cpp:425] inception_3b/relu_5x5_reduce <- inception_3b/5x5_reduce
I0403 19:10:10.303428 18952 net.cpp:386] inception_3b/relu_5x5_reduce -> inception_3b/5x5_reduce (in-place)
I0403 19:10:10.303612 18952 net.cpp:141] Setting up inception_3b/relu_5x5_reduce
I0403 19:10:10.303637 18952 net.cpp:148] Top shape: 24 32 28 28 (602112)
I0403 19:10:10.303653 18952 net.cpp:156] Memory required for data: 729760800
I0403 19:10:10.303668 18952 layer_factory.hpp:77] Creating layer inception_3b/5x5
I0403 19:10:10.303689 18952 net.cpp:91] Creating Layer inception_3b/5x5
I0403 19:10:10.303704 18952 net.cpp:425] inception_3b/5x5 <- inception_3b/5x5_reduce
I0403 19:10:10.303725 18952 net.cpp:399] inception_3b/5x5 -> inception_3b/5x5
I0403 19:10:10.305655 18952 net.cpp:141] Setting up inception_3b/5x5
I0403 19:10:10.305682 18952 net.cpp:148] Top shape: 24 96 28 28 (1806336)
I0403 19:10:10.305698 18952 net.cpp:156] Memory required for data: 736986144
I0403 19:10:10.305716 18952 layer_factory.hpp:77] Creating layer inception_3b/relu_5x5
I0403 19:10:10.305733 18952 net.cpp:91] Creating Layer inception_3b/relu_5x5
I0403 19:10:10.305749 18952 net.cpp:425] inception_3b/relu_5x5 <- inception_3b/5x5
I0403 19:10:10.305769 18952 net.cpp:386] inception_3b/relu_5x5 -> inception_3b/5x5 (in-place)
I0403 19:10:10.305974 18952 net.cpp:141] Setting up inception_3b/relu_5x5
I0403 19:10:10.305999 18952 net.cpp:148] Top shape: 24 96 28 28 (1806336)
I0403 19:10:10.306015 18952 net.cpp:156] Memory required for data: 744211488
I0403 19:10:10.306030 18952 layer_factory.hpp:77] Creating layer inception_3b/pool
I0403 19:10:10.306047 18952 net.cpp:91] Creating Layer inception_3b/pool
I0403 19:10:10.306063 18952 net.cpp:425] inception_3b/pool <- inception_3a/output_inception_3a/output_0_split_3
I0403 19:10:10.306082 18952 net.cpp:399] inception_3b/pool -> inception_3b/pool
I0403 19:10:10.306140 18952 net.cpp:141] Setting up inception_3b/pool
I0403 19:10:10.306164 18952 net.cpp:148] Top shape: 24 256 28 28 (4816896)
I0403 19:10:10.306180 18952 net.cpp:156] Memory required for data: 763479072
I0403 19:10:10.306193 18952 layer_factory.hpp:77] Creating layer inception_3b/pool_proj
I0403 19:10:10.306227 18952 net.cpp:91] Creating Layer inception_3b/pool_proj
I0403 19:10:10.306244 18952 net.cpp:425] inception_3b/pool_proj <- inception_3b/pool
I0403 19:10:10.306265 18952 net.cpp:399] inception_3b/pool_proj -> inception_3b/pool_proj
I0403 19:10:10.307289 18952 net.cpp:141] Setting up inception_3b/pool_proj
I0403 19:10:10.307318 18952 net.cpp:148] Top shape: 24 64 28 28 (1204224)
I0403 19:10:10.307334 18952 net.cpp:156] Memory required for data: 768295968
I0403 19:10:10.307353 18952 layer_factory.hpp:77] Creating layer inception_3b/relu_pool_proj
I0403 19:10:10.307370 18952 net.cpp:91] Creating Layer inception_3b/relu_pool_proj
I0403 19:10:10.307387 18952 net.cpp:425] inception_3b/relu_pool_proj <- inception_3b/pool_proj
I0403 19:10:10.307404 18952 net.cpp:386] inception_3b/relu_pool_proj -> inception_3b/pool_proj (in-place)
I0403 19:10:10.307786 18952 net.cpp:141] Setting up inception_3b/relu_pool_proj
I0403 19:10:10.307811 18952 net.cpp:148] Top shape: 24 64 28 28 (1204224)
I0403 19:10:10.307826 18952 net.cpp:156] Memory required for data: 773112864
I0403 19:10:10.307840 18952 layer_factory.hpp:77] Creating layer inception_3b/output
I0403 19:10:10.307860 18952 net.cpp:91] Creating Layer inception_3b/output
I0403 19:10:10.307876 18952 net.cpp:425] inception_3b/output <- inception_3b/1x1
I0403 19:10:10.307893 18952 net.cpp:425] inception_3b/output <- inception_3b/3x3
I0403 19:10:10.307910 18952 net.cpp:425] inception_3b/output <- inception_3b/5x5
I0403 19:10:10.307925 18952 net.cpp:425] inception_3b/output <- inception_3b/pool_proj
I0403 19:10:10.307941 18952 net.cpp:399] inception_3b/output -> inception_3b/output
I0403 19:10:10.307991 18952 net.cpp:141] Setting up inception_3b/output
I0403 19:10:10.308013 18952 net.cpp:148] Top shape: 24 480 28 28 (9031680)
I0403 19:10:10.308028 18952 net.cpp:156] Memory required for data: 809239584
I0403 19:10:10.308043 18952 layer_factory.hpp:77] Creating layer pool3/3x3_s2
I0403 19:10:10.308060 18952 net.cpp:91] Creating Layer pool3/3x3_s2
I0403 19:10:10.308075 18952 net.cpp:425] pool3/3x3_s2 <- inception_3b/output
I0403 19:10:10.308110 18952 net.cpp:399] pool3/3x3_s2 -> pool3/3x3_s2
I0403 19:10:10.308168 18952 net.cpp:141] Setting up pool3/3x3_s2
I0403 19:10:10.308190 18952 net.cpp:148] Top shape: 24 480 14 14 (2257920)
I0403 19:10:10.308207 18952 net.cpp:156] Memory required for data: 818271264
I0403 19:10:10.308220 18952 layer_factory.hpp:77] Creating layer pool3/3x3_s2_pool3/3x3_s2_0_split
I0403 19:10:10.308239 18952 net.cpp:91] Creating Layer pool3/3x3_s2_pool3/3x3_s2_0_split
I0403 19:10:10.308254 18952 net.cpp:425] pool3/3x3_s2_pool3/3x3_s2_0_split <- pool3/3x3_s2
I0403 19:10:10.308274 18952 net.cpp:399] pool3/3x3_s2_pool3/3x3_s2_0_split -> pool3/3x3_s2_pool3/3x3_s2_0_split_0
I0403 19:10:10.308293 18952 net.cpp:399] pool3/3x3_s2_pool3/3x3_s2_0_split -> pool3/3x3_s2_pool3/3x3_s2_0_split_1
I0403 19:10:10.308313 18952 net.cpp:399] pool3/3x3_s2_pool3/3x3_s2_0_split -> pool3/3x3_s2_pool3/3x3_s2_0_split_2
I0403 19:10:10.308332 18952 net.cpp:399] pool3/3x3_s2_pool3/3x3_s2_0_split -> pool3/3x3_s2_pool3/3x3_s2_0_split_3
I0403 19:10:10.308405 18952 net.cpp:141] Setting up pool3/3x3_s2_pool3/3x3_s2_0_split
I0403 19:10:10.308429 18952 net.cpp:148] Top shape: 24 480 14 14 (2257920)
I0403 19:10:10.308446 18952 net.cpp:148] Top shape: 24 480 14 14 (2257920)
I0403 19:10:10.308461 18952 net.cpp:148] Top shape: 24 480 14 14 (2257920)
I0403 19:10:10.308476 18952 net.cpp:148] Top shape: 24 480 14 14 (2257920)
I0403 19:10:10.308490 18952 net.cpp:156] Memory required for data: 854397984
I0403 19:10:10.308504 18952 layer_factory.hpp:77] Creating layer inception_4a/1x1
I0403 19:10:10.308524 18952 net.cpp:91] Creating Layer inception_4a/1x1
I0403 19:10:10.308540 18952 net.cpp:425] inception_4a/1x1 <- pool3/3x3_s2_pool3/3x3_s2_0_split_0
I0403 19:10:10.308562 18952 net.cpp:399] inception_4a/1x1 -> inception_4a/1x1
I0403 19:10:10.310199 18952 net.cpp:141] Setting up inception_4a/1x1
I0403 19:10:10.310227 18952 net.cpp:148] Top shape: 24 192 14 14 (903168)
I0403 19:10:10.310243 18952 net.cpp:156] Memory required for data: 858010656
I0403 19:10:10.310263 18952 layer_factory.hpp:77] Creating layer inception_4a/relu_1x1
I0403 19:10:10.310281 18952 net.cpp:91] Creating Layer inception_4a/relu_1x1
I0403 19:10:10.310297 18952 net.cpp:425] inception_4a/relu_1x1 <- inception_4a/1x1
I0403 19:10:10.310314 18952 net.cpp:386] inception_4a/relu_1x1 -> inception_4a/1x1 (in-place)
I0403 19:10:10.310494 18952 net.cpp:141] Setting up inception_4a/relu_1x1
I0403 19:10:10.310519 18952 net.cpp:148] Top shape: 24 192 14 14 (903168)
I0403 19:10:10.310534 18952 net.cpp:156] Memory required for data: 861623328
I0403 19:10:10.310549 18952 layer_factory.hpp:77] Creating layer inception_4a/3x3_reduce
I0403 19:10:10.310572 18952 net.cpp:91] Creating Layer inception_4a/3x3_reduce
I0403 19:10:10.310590 18952 net.cpp:425] inception_4a/3x3_reduce <- pool3/3x3_s2_pool3/3x3_s2_0_split_1
I0403 19:10:10.310611 18952 net.cpp:399] inception_4a/3x3_reduce -> inception_4a/3x3_reduce
I0403 19:10:10.311900 18952 net.cpp:141] Setting up inception_4a/3x3_reduce
I0403 19:10:10.311930 18952 net.cpp:148] Top shape: 24 96 14 14 (451584)
I0403 19:10:10.311950 18952 net.cpp:156] Memory required for data: 863429664
I0403 19:10:10.311977 18952 layer_factory.hpp:77] Creating layer inception_4a/relu_3x3_reduce
I0403 19:10:10.311997 18952 net.cpp:91] Creating Layer inception_4a/relu_3x3_reduce
I0403 19:10:10.312013 18952 net.cpp:425] inception_4a/relu_3x3_reduce <- inception_4a/3x3_reduce
I0403 19:10:10.312032 18952 net.cpp:386] inception_4a/relu_3x3_reduce -> inception_4a/3x3_reduce (in-place)
I0403 19:10:10.312206 18952 net.cpp:141] Setting up inception_4a/relu_3x3_reduce
I0403 19:10:10.312232 18952 net.cpp:148] Top shape: 24 96 14 14 (451584)
I0403 19:10:10.312247 18952 net.cpp:156] Memory required for data: 865236000
I0403 19:10:10.312263 18952 layer_factory.hpp:77] Creating layer inception_4a/3x3
I0403 19:10:10.312285 18952 net.cpp:91] Creating Layer inception_4a/3x3
I0403 19:10:10.312304 18952 net.cpp:425] inception_4a/3x3 <- inception_4a/3x3_reduce
I0403 19:10:10.312322 18952 net.cpp:399] inception_4a/3x3 -> inception_4a/3x3
I0403 19:10:10.314977 18952 net.cpp:141] Setting up inception_4a/3x3
I0403 19:10:10.315006 18952 net.cpp:148] Top shape: 24 208 14 14 (978432)
I0403 19:10:10.315021 18952 net.cpp:156] Memory required for data: 869149728
I0403 19:10:10.315040 18952 layer_factory.hpp:77] Creating layer inception_4a/relu_3x3
I0403 19:10:10.315058 18952 net.cpp:91] Creating Layer inception_4a/relu_3x3
I0403 19:10:10.315075 18952 net.cpp:425] inception_4a/relu_3x3 <- inception_4a/3x3
I0403 19:10:10.315095 18952 net.cpp:386] inception_4a/relu_3x3 -> inception_4a/3x3 (in-place)
I0403 19:10:10.315376 18952 net.cpp:141] Setting up inception_4a/relu_3x3
I0403 19:10:10.315402 18952 net.cpp:148] Top shape: 24 208 14 14 (978432)
I0403 19:10:10.315418 18952 net.cpp:156] Memory required for data: 873063456
I0403 19:10:10.315433 18952 layer_factory.hpp:77] Creating layer inception_4a/5x5_reduce
I0403 19:10:10.315456 18952 net.cpp:91] Creating Layer inception_4a/5x5_reduce
I0403 19:10:10.315474 18952 net.cpp:425] inception_4a/5x5_reduce <- pool3/3x3_s2_pool3/3x3_s2_0_split_2
I0403 19:10:10.315497 18952 net.cpp:399] inception_4a/5x5_reduce -> inception_4a/5x5_reduce
I0403 19:10:10.316511 18952 net.cpp:141] Setting up inception_4a/5x5_reduce
I0403 19:10:10.316539 18952 net.cpp:148] Top shape: 24 16 14 14 (75264)
I0403 19:10:10.316553 18952 net.cpp:156] Memory required for data: 873364512
I0403 19:10:10.316572 18952 layer_factory.hpp:77] Creating layer inception_4a/relu_5x5_reduce
I0403 19:10:10.316591 18952 net.cpp:91] Creating Layer inception_4a/relu_5x5_reduce
I0403 19:10:10.316607 18952 net.cpp:425] inception_4a/relu_5x5_reduce <- inception_4a/5x5_reduce
I0403 19:10:10.316627 18952 net.cpp:386] inception_4a/relu_5x5_reduce -> inception_4a/5x5_reduce (in-place)
I0403 19:10:10.316805 18952 net.cpp:141] Setting up inception_4a/relu_5x5_reduce
I0403 19:10:10.316830 18952 net.cpp:148] Top shape: 24 16 14 14 (75264)
I0403 19:10:10.316844 18952 net.cpp:156] Memory required for data: 873665568
I0403 19:10:10.316859 18952 layer_factory.hpp:77] Creating layer inception_4a/5x5
I0403 19:10:10.316882 18952 net.cpp:91] Creating Layer inception_4a/5x5
I0403 19:10:10.316900 18952 net.cpp:425] inception_4a/5x5 <- inception_4a/5x5_reduce
I0403 19:10:10.316921 18952 net.cpp:399] inception_4a/5x5 -> inception_4a/5x5
I0403 19:10:10.318032 18952 net.cpp:141] Setting up inception_4a/5x5
I0403 19:10:10.318060 18952 net.cpp:148] Top shape: 24 48 14 14 (225792)
I0403 19:10:10.318076 18952 net.cpp:156] Memory required for data: 874568736
I0403 19:10:10.318095 18952 layer_factory.hpp:77] Creating layer inception_4a/relu_5x5
I0403 19:10:10.318115 18952 net.cpp:91] Creating Layer inception_4a/relu_5x5
I0403 19:10:10.318132 18952 net.cpp:425] inception_4a/relu_5x5 <- inception_4a/5x5
I0403 19:10:10.318150 18952 net.cpp:386] inception_4a/relu_5x5 -> inception_4a/5x5 (in-place)
I0403 19:10:10.318328 18952 net.cpp:141] Setting up inception_4a/relu_5x5
I0403 19:10:10.318354 18952 net.cpp:148] Top shape: 24 48 14 14 (225792)
I0403 19:10:10.318370 18952 net.cpp:156] Memory required for data: 875471904
I0403 19:10:10.318385 18952 layer_factory.hpp:77] Creating layer inception_4a/pool
I0403 19:10:10.318403 18952 net.cpp:91] Creating Layer inception_4a/pool
I0403 19:10:10.318419 18952 net.cpp:425] inception_4a/pool <- pool3/3x3_s2_pool3/3x3_s2_0_split_3
I0403 19:10:10.318439 18952 net.cpp:399] inception_4a/pool -> inception_4a/pool
I0403 19:10:10.318500 18952 net.cpp:141] Setting up inception_4a/pool
I0403 19:10:10.318523 18952 net.cpp:148] Top shape: 24 480 14 14 (2257920)
I0403 19:10:10.318538 18952 net.cpp:156] Memory required for data: 884503584
I0403 19:10:10.318553 18952 layer_factory.hpp:77] Creating layer inception_4a/pool_proj
I0403 19:10:10.318577 18952 net.cpp:91] Creating Layer inception_4a/pool_proj
I0403 19:10:10.318594 18952 net.cpp:425] inception_4a/pool_proj <- inception_4a/pool
I0403 19:10:10.318614 18952 net.cpp:399] inception_4a/pool_proj -> inception_4a/pool_proj
I0403 19:10:10.319792 18952 net.cpp:141] Setting up inception_4a/pool_proj
I0403 19:10:10.319823 18952 net.cpp:148] Top shape: 24 64 14 14 (301056)
I0403 19:10:10.319854 18952 net.cpp:156] Memory required for data: 885707808
I0403 19:10:10.319874 18952 layer_factory.hpp:77] Creating layer inception_4a/relu_pool_proj
I0403 19:10:10.319891 18952 net.cpp:91] Creating Layer inception_4a/relu_pool_proj
I0403 19:10:10.319907 18952 net.cpp:425] inception_4a/relu_pool_proj <- inception_4a/pool_proj
I0403 19:10:10.319928 18952 net.cpp:386] inception_4a/relu_pool_proj -> inception_4a/pool_proj (in-place)
I0403 19:10:10.320212 18952 net.cpp:141] Setting up inception_4a/relu_pool_proj
I0403 19:10:10.320240 18952 net.cpp:148] Top shape: 24 64 14 14 (301056)
I0403 19:10:10.320256 18952 net.cpp:156] Memory required for data: 886912032
I0403 19:10:10.320271 18952 layer_factory.hpp:77] Creating layer inception_4a/output
I0403 19:10:10.320289 18952 net.cpp:91] Creating Layer inception_4a/output
I0403 19:10:10.320305 18952 net.cpp:425] inception_4a/output <- inception_4a/1x1
I0403 19:10:10.320322 18952 net.cpp:425] inception_4a/output <- inception_4a/3x3
I0403 19:10:10.320338 18952 net.cpp:425] inception_4a/output <- inception_4a/5x5
I0403 19:10:10.320353 18952 net.cpp:425] inception_4a/output <- inception_4a/pool_proj
I0403 19:10:10.320370 18952 net.cpp:399] inception_4a/output -> inception_4a/output
I0403 19:10:10.320416 18952 net.cpp:141] Setting up inception_4a/output
I0403 19:10:10.320439 18952 net.cpp:148] Top shape: 24 512 14 14 (2408448)
I0403 19:10:10.320454 18952 net.cpp:156] Memory required for data: 896545824
I0403 19:10:10.320469 18952 layer_factory.hpp:77] Creating layer inception_4a/output_inception_4a/output_0_split
I0403 19:10:10.320487 18952 net.cpp:91] Creating Layer inception_4a/output_inception_4a/output_0_split
I0403 19:10:10.320502 18952 net.cpp:425] inception_4a/output_inception_4a/output_0_split <- inception_4a/output
I0403 19:10:10.320523 18952 net.cpp:399] inception_4a/output_inception_4a/output_0_split -> inception_4a/output_inception_4a/output_0_split_0
I0403 19:10:10.320544 18952 net.cpp:399] inception_4a/output_inception_4a/output_0_split -> inception_4a/output_inception_4a/output_0_split_1
I0403 19:10:10.320564 18952 net.cpp:399] inception_4a/output_inception_4a/output_0_split -> inception_4a/output_inception_4a/output_0_split_2
I0403 19:10:10.320588 18952 net.cpp:399] inception_4a/output_inception_4a/output_0_split -> inception_4a/output_inception_4a/output_0_split_3
I0403 19:10:10.320610 18952 net.cpp:399] inception_4a/output_inception_4a/output_0_split -> inception_4a/output_inception_4a/output_0_split_4
I0403 19:10:10.320703 18952 net.cpp:141] Setting up inception_4a/output_inception_4a/output_0_split
I0403 19:10:10.320725 18952 net.cpp:148] Top shape: 24 512 14 14 (2408448)
I0403 19:10:10.320741 18952 net.cpp:148] Top shape: 24 512 14 14 (2408448)
I0403 19:10:10.320757 18952 net.cpp:148] Top shape: 24 512 14 14 (2408448)
I0403 19:10:10.320773 18952 net.cpp:148] Top shape: 24 512 14 14 (2408448)
I0403 19:10:10.320788 18952 net.cpp:148] Top shape: 24 512 14 14 (2408448)
I0403 19:10:10.320802 18952 net.cpp:156] Memory required for data: 944714784
I0403 19:10:10.320816 18952 layer_factory.hpp:77] Creating layer loss1/ave_pool
I0403 19:10:10.320834 18952 net.cpp:91] Creating Layer loss1/ave_pool
I0403 19:10:10.320850 18952 net.cpp:425] loss1/ave_pool <- inception_4a/output_inception_4a/output_0_split_0
I0403 19:10:10.320870 18952 net.cpp:399] loss1/ave_pool -> loss1/ave_pool
I0403 19:10:10.321079 18952 net.cpp:141] Setting up loss1/ave_pool
I0403 19:10:10.321106 18952 net.cpp:148] Top shape: 24 512 4 4 (196608)
I0403 19:10:10.321122 18952 net.cpp:156] Memory required for data: 945501216
I0403 19:10:10.321137 18952 layer_factory.hpp:77] Creating layer loss1/conv
I0403 19:10:10.321161 18952 net.cpp:91] Creating Layer loss1/conv
I0403 19:10:10.321189 18952 net.cpp:425] loss1/conv <- loss1/ave_pool
I0403 19:10:10.321211 18952 net.cpp:399] loss1/conv -> loss1/conv
I0403 19:10:10.322655 18952 net.cpp:141] Setting up loss1/conv
I0403 19:10:10.322684 18952 net.cpp:148] Top shape: 24 128 4 4 (49152)
I0403 19:10:10.322712 18952 net.cpp:156] Memory required for data: 945697824
I0403 19:10:10.322732 18952 layer_factory.hpp:77] Creating layer loss1/relu_conv
I0403 19:10:10.322751 18952 net.cpp:91] Creating Layer loss1/relu_conv
I0403 19:10:10.322767 18952 net.cpp:425] loss1/relu_conv <- loss1/conv
I0403 19:10:10.322787 18952 net.cpp:386] loss1/relu_conv -> loss1/conv (in-place)
I0403 19:10:10.323072 18952 net.cpp:141] Setting up loss1/relu_conv
I0403 19:10:10.323098 18952 net.cpp:148] Top shape: 24 128 4 4 (49152)
I0403 19:10:10.323113 18952 net.cpp:156] Memory required for data: 945894432
I0403 19:10:10.323129 18952 layer_factory.hpp:77] Creating layer loss1/fc
I0403 19:10:10.323153 18952 net.cpp:91] Creating Layer loss1/fc
I0403 19:10:10.323171 18952 net.cpp:425] loss1/fc <- loss1/conv
I0403 19:10:10.323192 18952 net.cpp:399] loss1/fc -> loss1/fc
I0403 19:10:10.340518 18952 net.cpp:141] Setting up loss1/fc
I0403 19:10:10.340551 18952 net.cpp:148] Top shape: 24 1024 (24576)
I0403 19:10:10.340566 18952 net.cpp:156] Memory required for data: 945992736
I0403 19:10:10.340584 18952 layer_factory.hpp:77] Creating layer loss1/relu_fc
I0403 19:10:10.340602 18952 net.cpp:91] Creating Layer loss1/relu_fc
I0403 19:10:10.340618 18952 net.cpp:425] loss1/relu_fc <- loss1/fc
I0403 19:10:10.340634 18952 net.cpp:386] loss1/relu_fc -> loss1/fc (in-place)
I0403 19:10:10.340818 18952 net.cpp:141] Setting up loss1/relu_fc
I0403 19:10:10.340842 18952 net.cpp:148] Top shape: 24 1024 (24576)
I0403 19:10:10.340857 18952 net.cpp:156] Memory required for data: 946091040
I0403 19:10:10.340872 18952 layer_factory.hpp:77] Creating layer loss1/drop_fc
I0403 19:10:10.340896 18952 net.cpp:91] Creating Layer loss1/drop_fc
I0403 19:10:10.340914 18952 net.cpp:425] loss1/drop_fc <- loss1/fc
I0403 19:10:10.340934 18952 net.cpp:386] loss1/drop_fc -> loss1/fc (in-place)
I0403 19:10:10.340986 18952 net.cpp:141] Setting up loss1/drop_fc
I0403 19:10:10.341009 18952 net.cpp:148] Top shape: 24 1024 (24576)
I0403 19:10:10.341023 18952 net.cpp:156] Memory required for data: 946189344
I0403 19:10:10.341039 18952 layer_factory.hpp:77] Creating layer loss1/classifier_plantvillage
I0403 19:10:10.341061 18952 net.cpp:91] Creating Layer loss1/classifier_plantvillage
I0403 19:10:10.341078 18952 net.cpp:425] loss1/classifier_plantvillage <- loss1/fc
I0403 19:10:10.341095 18952 net.cpp:399] loss1/classifier_plantvillage -> loss1/classifier_plantvillage
I0403 19:10:10.341971 18952 net.cpp:141] Setting up loss1/classifier_plantvillage
I0403 19:10:10.341998 18952 net.cpp:148] Top shape: 24 38 (912)
I0403 19:10:10.342013 18952 net.cpp:156] Memory required for data: 946192992
I0403 19:10:10.342031 18952 layer_factory.hpp:77] Creating layer loss1/classifier_plantvillage_loss1/classifier_plantvillage_0_split
I0403 19:10:10.342048 18952 net.cpp:91] Creating Layer loss1/classifier_plantvillage_loss1/classifier_plantvillage_0_split
I0403 19:10:10.342064 18952 net.cpp:425] loss1/classifier_plantvillage_loss1/classifier_plantvillage_0_split <- loss1/classifier_plantvillage
I0403 19:10:10.342083 18952 net.cpp:399] loss1/classifier_plantvillage_loss1/classifier_plantvillage_0_split -> loss1/classifier_plantvillage_loss1/classifier_plantvillage_0_split_0
I0403 19:10:10.342104 18952 net.cpp:399] loss1/classifier_plantvillage_loss1/classifier_plantvillage_0_split -> loss1/classifier_plantvillage_loss1/classifier_plantvillage_0_split_1
I0403 19:10:10.342124 18952 net.cpp:399] loss1/classifier_plantvillage_loss1/classifier_plantvillage_0_split -> loss1/classifier_plantvillage_loss1/classifier_plantvillage_0_split_2
I0403 19:10:10.342190 18952 net.cpp:141] Setting up loss1/classifier_plantvillage_loss1/classifier_plantvillage_0_split
I0403 19:10:10.342212 18952 net.cpp:148] Top shape: 24 38 (912)
I0403 19:10:10.342228 18952 net.cpp:148] Top shape: 24 38 (912)
I0403 19:10:10.342243 18952 net.cpp:148] Top shape: 24 38 (912)
I0403 19:10:10.342257 18952 net.cpp:156] Memory required for data: 946203936
I0403 19:10:10.342272 18952 layer_factory.hpp:77] Creating layer inception_4b/1x1
I0403 19:10:10.342293 18952 net.cpp:91] Creating Layer inception_4b/1x1
I0403 19:10:10.342321 18952 net.cpp:425] inception_4b/1x1 <- inception_4a/output_inception_4a/output_0_split_1
I0403 19:10:10.342344 18952 net.cpp:399] inception_4b/1x1 -> inception_4b/1x1
I0403 19:10:10.343930 18952 net.cpp:141] Setting up inception_4b/1x1
I0403 19:10:10.343961 18952 net.cpp:148] Top shape: 24 160 14 14 (752640)
I0403 19:10:10.343977 18952 net.cpp:156] Memory required for data: 949214496
I0403 19:10:10.343996 18952 layer_factory.hpp:77] Creating layer inception_4b/relu_1x1
I0403 19:10:10.344013 18952 net.cpp:91] Creating Layer inception_4b/relu_1x1
I0403 19:10:10.344029 18952 net.cpp:425] inception_4b/relu_1x1 <- inception_4b/1x1
I0403 19:10:10.344048 18952 net.cpp:386] inception_4b/relu_1x1 -> inception_4b/1x1 (in-place)
I0403 19:10:10.344238 18952 net.cpp:141] Setting up inception_4b/relu_1x1
I0403 19:10:10.344264 18952 net.cpp:148] Top shape: 24 160 14 14 (752640)
I0403 19:10:10.344279 18952 net.cpp:156] Memory required for data: 952225056
I0403 19:10:10.344293 18952 layer_factory.hpp:77] Creating layer inception_4b/3x3_reduce
I0403 19:10:10.344316 18952 net.cpp:91] Creating Layer inception_4b/3x3_reduce
I0403 19:10:10.344333 18952 net.cpp:425] inception_4b/3x3_reduce <- inception_4a/output_inception_4a/output_0_split_2
I0403 19:10:10.344355 18952 net.cpp:399] inception_4b/3x3_reduce -> inception_4b/3x3_reduce
I0403 19:10:10.345675 18952 net.cpp:141] Setting up inception_4b/3x3_reduce
I0403 19:10:10.345702 18952 net.cpp:148] Top shape: 24 112 14 14 (526848)
I0403 19:10:10.345718 18952 net.cpp:156] Memory required for data: 954332448
I0403 19:10:10.345736 18952 layer_factory.hpp:77] Creating layer inception_4b/relu_3x3_reduce
I0403 19:10:10.345757 18952 net.cpp:91] Creating Layer inception_4b/relu_3x3_reduce
I0403 19:10:10.345774 18952 net.cpp:425] inception_4b/relu_3x3_reduce <- inception_4b/3x3_reduce
I0403 19:10:10.345791 18952 net.cpp:386] inception_4b/relu_3x3_reduce -> inception_4b/3x3_reduce (in-place)
I0403 19:10:10.346070 18952 net.cpp:141] Setting up inception_4b/relu_3x3_reduce
I0403 19:10:10.346094 18952 net.cpp:148] Top shape: 24 112 14 14 (526848)
I0403 19:10:10.346108 18952 net.cpp:156] Memory required for data: 956439840
I0403 19:10:10.346123 18952 layer_factory.hpp:77] Creating layer inception_4b/3x3
I0403 19:10:10.346145 18952 net.cpp:91] Creating Layer inception_4b/3x3
I0403 19:10:10.346163 18952 net.cpp:425] inception_4b/3x3 <- inception_4b/3x3_reduce
I0403 19:10:10.346184 18952 net.cpp:399] inception_4b/3x3 -> inception_4b/3x3
I0403 19:10:10.349081 18952 net.cpp:141] Setting up inception_4b/3x3
I0403 19:10:10.349110 18952 net.cpp:148] Top shape: 24 224 14 14 (1053696)
I0403 19:10:10.349126 18952 net.cpp:156] Memory required for data: 960654624
I0403 19:10:10.349145 18952 layer_factory.hpp:77] Creating layer inception_4b/relu_3x3
I0403 19:10:10.349164 18952 net.cpp:91] Creating Layer inception_4b/relu_3x3
I0403 19:10:10.349179 18952 net.cpp:425] inception_4b/relu_3x3 <- inception_4b/3x3
I0403 19:10:10.349197 18952 net.cpp:386] inception_4b/relu_3x3 -> inception_4b/3x3 (in-place)
I0403 19:10:10.349375 18952 net.cpp:141] Setting up inception_4b/relu_3x3
I0403 19:10:10.349398 18952 net.cpp:148] Top shape: 24 224 14 14 (1053696)
I0403 19:10:10.349413 18952 net.cpp:156] Memory required for data: 964869408
I0403 19:10:10.349427 18952 layer_factory.hpp:77] Creating layer inception_4b/5x5_reduce
I0403 19:10:10.349450 18952 net.cpp:91] Creating Layer inception_4b/5x5_reduce
I0403 19:10:10.349467 18952 net.cpp:425] inception_4b/5x5_reduce <- inception_4a/output_inception_4a/output_0_split_3
I0403 19:10:10.349488 18952 net.cpp:399] inception_4b/5x5_reduce -> inception_4b/5x5_reduce
I0403 19:10:10.350543 18952 net.cpp:141] Setting up inception_4b/5x5_reduce
I0403 19:10:10.350569 18952 net.cpp:148] Top shape: 24 24 14 14 (112896)
I0403 19:10:10.350584 18952 net.cpp:156] Memory required for data: 965320992
I0403 19:10:10.350603 18952 layer_factory.hpp:77] Creating layer inception_4b/relu_5x5_reduce
I0403 19:10:10.350625 18952 net.cpp:91] Creating Layer inception_4b/relu_5x5_reduce
I0403 19:10:10.350654 18952 net.cpp:425] inception_4b/relu_5x5_reduce <- inception_4b/5x5_reduce
I0403 19:10:10.350672 18952 net.cpp:386] inception_4b/relu_5x5_reduce -> inception_4b/5x5_reduce (in-place)
I0403 19:10:10.350849 18952 net.cpp:141] Setting up inception_4b/relu_5x5_reduce
I0403 19:10:10.350873 18952 net.cpp:148] Top shape: 24 24 14 14 (112896)
I0403 19:10:10.350888 18952 net.cpp:156] Memory required for data: 965772576
I0403 19:10:10.350903 18952 layer_factory.hpp:77] Creating layer inception_4b/5x5
I0403 19:10:10.350925 18952 net.cpp:91] Creating Layer inception_4b/5x5
I0403 19:10:10.350942 18952 net.cpp:425] inception_4b/5x5 <- inception_4b/5x5_reduce
I0403 19:10:10.350966 18952 net.cpp:399] inception_4b/5x5 -> inception_4b/5x5
I0403 19:10:10.352166 18952 net.cpp:141] Setting up inception_4b/5x5
I0403 19:10:10.352192 18952 net.cpp:148] Top shape: 24 64 14 14 (301056)
I0403 19:10:10.352210 18952 net.cpp:156] Memory required for data: 966976800
I0403 19:10:10.352227 18952 layer_factory.hpp:77] Creating layer inception_4b/relu_5x5
I0403 19:10:10.352246 18952 net.cpp:91] Creating Layer inception_4b/relu_5x5
I0403 19:10:10.352260 18952 net.cpp:425] inception_4b/relu_5x5 <- inception_4b/5x5
I0403 19:10:10.352279 18952 net.cpp:386] inception_4b/relu_5x5 -> inception_4b/5x5 (in-place)
I0403 19:10:10.352562 18952 net.cpp:141] Setting up inception_4b/relu_5x5
I0403 19:10:10.352587 18952 net.cpp:148] Top shape: 24 64 14 14 (301056)
I0403 19:10:10.352602 18952 net.cpp:156] Memory required for data: 968181024
I0403 19:10:10.352617 18952 layer_factory.hpp:77] Creating layer inception_4b/pool
I0403 19:10:10.352634 18952 net.cpp:91] Creating Layer inception_4b/pool
I0403 19:10:10.352650 18952 net.cpp:425] inception_4b/pool <- inception_4a/output_inception_4a/output_0_split_4
I0403 19:10:10.352672 18952 net.cpp:399] inception_4b/pool -> inception_4b/pool
I0403 19:10:10.352735 18952 net.cpp:141] Setting up inception_4b/pool
I0403 19:10:10.352758 18952 net.cpp:148] Top shape: 24 512 14 14 (2408448)
I0403 19:10:10.352773 18952 net.cpp:156] Memory required for data: 977814816
I0403 19:10:10.352787 18952 layer_factory.hpp:77] Creating layer inception_4b/pool_proj
I0403 19:10:10.352810 18952 net.cpp:91] Creating Layer inception_4b/pool_proj
I0403 19:10:10.352828 18952 net.cpp:425] inception_4b/pool_proj <- inception_4b/pool
I0403 19:10:10.352845 18952 net.cpp:399] inception_4b/pool_proj -> inception_4b/pool_proj
I0403 19:10:10.354081 18952 net.cpp:141] Setting up inception_4b/pool_proj
I0403 19:10:10.354109 18952 net.cpp:148] Top shape: 24 64 14 14 (301056)
I0403 19:10:10.354123 18952 net.cpp:156] Memory required for data: 979019040
I0403 19:10:10.354141 18952 layer_factory.hpp:77] Creating layer inception_4b/relu_pool_proj
I0403 19:10:10.354161 18952 net.cpp:91] Creating Layer inception_4b/relu_pool_proj
I0403 19:10:10.354178 18952 net.cpp:425] inception_4b/relu_pool_proj <- inception_4b/pool_proj
I0403 19:10:10.354197 18952 net.cpp:386] inception_4b/relu_pool_proj -> inception_4b/pool_proj (in-place)
I0403 19:10:10.354372 18952 net.cpp:141] Setting up inception_4b/relu_pool_proj
I0403 19:10:10.354398 18952 net.cpp:148] Top shape: 24 64 14 14 (301056)
I0403 19:10:10.354413 18952 net.cpp:156] Memory required for data: 980223264
I0403 19:10:10.354428 18952 layer_factory.hpp:77] Creating layer inception_4b/output
I0403 19:10:10.354444 18952 net.cpp:91] Creating Layer inception_4b/output
I0403 19:10:10.354460 18952 net.cpp:425] inception_4b/output <- inception_4b/1x1
I0403 19:10:10.354476 18952 net.cpp:425] inception_4b/output <- inception_4b/3x3
I0403 19:10:10.354492 18952 net.cpp:425] inception_4b/output <- inception_4b/5x5
I0403 19:10:10.354507 18952 net.cpp:425] inception_4b/output <- inception_4b/pool_proj
I0403 19:10:10.354524 18952 net.cpp:399] inception_4b/output -> inception_4b/output
I0403 19:10:10.354569 18952 net.cpp:141] Setting up inception_4b/output
I0403 19:10:10.354593 18952 net.cpp:148] Top shape: 24 512 14 14 (2408448)
I0403 19:10:10.354606 18952 net.cpp:156] Memory required for data: 989857056
I0403 19:10:10.354635 18952 layer_factory.hpp:77] Creating layer inception_4b/output_inception_4b/output_0_split
I0403 19:10:10.354655 18952 net.cpp:91] Creating Layer inception_4b/output_inception_4b/output_0_split
I0403 19:10:10.354673 18952 net.cpp:425] inception_4b/output_inception_4b/output_0_split <- inception_4b/output
I0403 19:10:10.354691 18952 net.cpp:399] inception_4b/output_inception_4b/output_0_split -> inception_4b/output_inception_4b/output_0_split_0
I0403 19:10:10.354712 18952 net.cpp:399] inception_4b/output_inception_4b/output_0_split -> inception_4b/output_inception_4b/output_0_split_1
I0403 19:10:10.354732 18952 net.cpp:399] inception_4b/output_inception_4b/output_0_split -> inception_4b/output_inception_4b/output_0_split_2
I0403 19:10:10.354750 18952 net.cpp:399] inception_4b/output_inception_4b/output_0_split -> inception_4b/output_inception_4b/output_0_split_3
I0403 19:10:10.354835 18952 net.cpp:141] Setting up inception_4b/output_inception_4b/output_0_split
I0403 19:10:10.354857 18952 net.cpp:148] Top shape: 24 512 14 14 (2408448)
I0403 19:10:10.354873 18952 net.cpp:148] Top shape: 24 512 14 14 (2408448)
I0403 19:10:10.354887 18952 net.cpp:148] Top shape: 24 512 14 14 (2408448)
I0403 19:10:10.354902 18952 net.cpp:148] Top shape: 24 512 14 14 (2408448)
I0403 19:10:10.354917 18952 net.cpp:156] Memory required for data: 1028392224
I0403 19:10:10.354930 18952 layer_factory.hpp:77] Creating layer inception_4c/1x1
I0403 19:10:10.354955 18952 net.cpp:91] Creating Layer inception_4c/1x1
I0403 19:10:10.354974 18952 net.cpp:425] inception_4c/1x1 <- inception_4b/output_inception_4b/output_0_split_0
I0403 19:10:10.354995 18952 net.cpp:399] inception_4c/1x1 -> inception_4c/1x1
I0403 19:10:10.356431 18952 net.cpp:141] Setting up inception_4c/1x1
I0403 19:10:10.356473 18952 net.cpp:148] Top shape: 24 128 14 14 (602112)
I0403 19:10:10.356490 18952 net.cpp:156] Memory required for data: 1030800672
I0403 19:10:10.356509 18952 layer_factory.hpp:77] Creating layer inception_4c/relu_1x1
I0403 19:10:10.356528 18952 net.cpp:91] Creating Layer inception_4c/relu_1x1
I0403 19:10:10.356544 18952 net.cpp:425] inception_4c/relu_1x1 <- inception_4c/1x1
I0403 19:10:10.356560 18952 net.cpp:386] inception_4c/relu_1x1 -> inception_4c/1x1 (in-place)
I0403 19:10:10.356744 18952 net.cpp:141] Setting up inception_4c/relu_1x1
I0403 19:10:10.356768 18952 net.cpp:148] Top shape: 24 128 14 14 (602112)
I0403 19:10:10.356783 18952 net.cpp:156] Memory required for data: 1033209120
I0403 19:10:10.356797 18952 layer_factory.hpp:77] Creating layer inception_4c/3x3_reduce
I0403 19:10:10.356820 18952 net.cpp:91] Creating Layer inception_4c/3x3_reduce
I0403 19:10:10.356838 18952 net.cpp:425] inception_4c/3x3_reduce <- inception_4b/output_inception_4b/output_0_split_1
I0403 19:10:10.356861 18952 net.cpp:399] inception_4c/3x3_reduce -> inception_4c/3x3_reduce
I0403 19:10:10.358793 18952 net.cpp:141] Setting up inception_4c/3x3_reduce
I0403 19:10:10.358821 18952 net.cpp:148] Top shape: 24 128 14 14 (602112)
I0403 19:10:10.358837 18952 net.cpp:156] Memory required for data: 1035617568
I0403 19:10:10.358855 18952 layer_factory.hpp:77] Creating layer inception_4c/relu_3x3_reduce
I0403 19:10:10.358876 18952 net.cpp:91] Creating Layer inception_4c/relu_3x3_reduce
I0403 19:10:10.358894 18952 net.cpp:425] inception_4c/relu_3x3_reduce <- inception_4c/3x3_reduce
I0403 19:10:10.358912 18952 net.cpp:386] inception_4c/relu_3x3_reduce -> inception_4c/3x3_reduce (in-place)
I0403 19:10:10.359208 18952 net.cpp:141] Setting up inception_4c/relu_3x3_reduce
I0403 19:10:10.359235 18952 net.cpp:148] Top shape: 24 128 14 14 (602112)
I0403 19:10:10.359251 18952 net.cpp:156] Memory required for data: 1038026016
I0403 19:10:10.359266 18952 layer_factory.hpp:77] Creating layer inception_4c/3x3
I0403 19:10:10.359288 18952 net.cpp:91] Creating Layer inception_4c/3x3
I0403 19:10:10.359307 18952 net.cpp:425] inception_4c/3x3 <- inception_4c/3x3_reduce
I0403 19:10:10.359328 18952 net.cpp:399] inception_4c/3x3 -> inception_4c/3x3
I0403 19:10:10.362915 18952 net.cpp:141] Setting up inception_4c/3x3
I0403 19:10:10.362959 18952 net.cpp:148] Top shape: 24 256 14 14 (1204224)
I0403 19:10:10.362977 18952 net.cpp:156] Memory required for data: 1042842912
I0403 19:10:10.363008 18952 layer_factory.hpp:77] Creating layer inception_4c/relu_3x3
I0403 19:10:10.363034 18952 net.cpp:91] Creating Layer inception_4c/relu_3x3
I0403 19:10:10.363051 18952 net.cpp:425] inception_4c/relu_3x3 <- inception_4c/3x3
I0403 19:10:10.363070 18952 net.cpp:386] inception_4c/relu_3x3 -> inception_4c/3x3 (in-place)
I0403 19:10:10.363250 18952 net.cpp:141] Setting up inception_4c/relu_3x3
I0403 19:10:10.363275 18952 net.cpp:148] Top shape: 24 256 14 14 (1204224)
I0403 19:10:10.363288 18952 net.cpp:156] Memory required for data: 1047659808
I0403 19:10:10.363303 18952 layer_factory.hpp:77] Creating layer inception_4c/5x5_reduce
I0403 19:10:10.363327 18952 net.cpp:91] Creating Layer inception_4c/5x5_reduce
I0403 19:10:10.363343 18952 net.cpp:425] inception_4c/5x5_reduce <- inception_4b/output_inception_4b/output_0_split_2
I0403 19:10:10.363364 18952 net.cpp:399] inception_4c/5x5_reduce -> inception_4c/5x5_reduce
I0403 19:10:10.364466 18952 net.cpp:141] Setting up inception_4c/5x5_reduce
I0403 19:10:10.364495 18952 net.cpp:148] Top shape: 24 24 14 14 (112896)
I0403 19:10:10.364511 18952 net.cpp:156] Memory required for data: 1048111392
I0403 19:10:10.364529 18952 layer_factory.hpp:77] Creating layer inception_4c/relu_5x5_reduce
I0403 19:10:10.364550 18952 net.cpp:91] Creating Layer inception_4c/relu_5x5_reduce
I0403 19:10:10.364567 18952 net.cpp:425] inception_4c/relu_5x5_reduce <- inception_4c/5x5_reduce
I0403 19:10:10.364585 18952 net.cpp:386] inception_4c/relu_5x5_reduce -> inception_4c/5x5_reduce (in-place)
I0403 19:10:10.364771 18952 net.cpp:141] Setting up inception_4c/relu_5x5_reduce
I0403 19:10:10.364796 18952 net.cpp:148] Top shape: 24 24 14 14 (112896)
I0403 19:10:10.364810 18952 net.cpp:156] Memory required for data: 1048562976
I0403 19:10:10.364827 18952 layer_factory.hpp:77] Creating layer inception_4c/5x5
I0403 19:10:10.364850 18952 net.cpp:91] Creating Layer inception_4c/5x5
I0403 19:10:10.364868 18952 net.cpp:425] inception_4c/5x5 <- inception_4c/5x5_reduce
I0403 19:10:10.364886 18952 net.cpp:399] inception_4c/5x5 -> inception_4c/5x5
I0403 19:10:10.366134 18952 net.cpp:141] Setting up inception_4c/5x5
I0403 19:10:10.366164 18952 net.cpp:148] Top shape: 24 64 14 14 (301056)
I0403 19:10:10.366181 18952 net.cpp:156] Memory required for data: 1049767200
I0403 19:10:10.366199 18952 layer_factory.hpp:77] Creating layer inception_4c/relu_5x5
I0403 19:10:10.366217 18952 net.cpp:91] Creating Layer inception_4c/relu_5x5
I0403 19:10:10.366235 18952 net.cpp:425] inception_4c/relu_5x5 <- inception_4c/5x5
I0403 19:10:10.366251 18952 net.cpp:386] inception_4c/relu_5x5 -> inception_4c/5x5 (in-place)
I0403 19:10:10.366544 18952 net.cpp:141] Setting up inception_4c/relu_5x5
I0403 19:10:10.366572 18952 net.cpp:148] Top shape: 24 64 14 14 (301056)
I0403 19:10:10.366588 18952 net.cpp:156] Memory required for data: 1050971424
I0403 19:10:10.366603 18952 layer_factory.hpp:77] Creating layer inception_4c/pool
I0403 19:10:10.366621 18952 net.cpp:91] Creating Layer inception_4c/pool
I0403 19:10:10.366637 18952 net.cpp:425] inception_4c/pool <- inception_4b/output_inception_4b/output_0_split_3
I0403 19:10:10.366655 18952 net.cpp:399] inception_4c/pool -> inception_4c/pool
I0403 19:10:10.366721 18952 net.cpp:141] Setting up inception_4c/pool
I0403 19:10:10.366745 18952 net.cpp:148] Top shape: 24 512 14 14 (2408448)
I0403 19:10:10.366760 18952 net.cpp:156] Memory required for data: 1060605216
I0403 19:10:10.366775 18952 layer_factory.hpp:77] Creating layer inception_4c/pool_proj
I0403 19:10:10.366796 18952 net.cpp:91] Creating Layer inception_4c/pool_proj
I0403 19:10:10.366813 18952 net.cpp:425] inception_4c/pool_proj <- inception_4c/pool
I0403 19:10:10.366834 18952 net.cpp:399] inception_4c/pool_proj -> inception_4c/pool_proj
I0403 19:10:10.368059 18952 net.cpp:141] Setting up inception_4c/pool_proj
I0403 19:10:10.368088 18952 net.cpp:148] Top shape: 24 64 14 14 (301056)
I0403 19:10:10.368116 18952 net.cpp:156] Memory required for data: 1061809440
I0403 19:10:10.368136 18952 layer_factory.hpp:77] Creating layer inception_4c/relu_pool_proj
I0403 19:10:10.368158 18952 net.cpp:91] Creating Layer inception_4c/relu_pool_proj
I0403 19:10:10.368175 18952 net.cpp:425] inception_4c/relu_pool_proj <- inception_4c/pool_proj
I0403 19:10:10.368194 18952 net.cpp:386] inception_4c/relu_pool_proj -> inception_4c/pool_proj (in-place)
I0403 19:10:10.368378 18952 net.cpp:141] Setting up inception_4c/relu_pool_proj
I0403 19:10:10.368403 18952 net.cpp:148] Top shape: 24 64 14 14 (301056)
I0403 19:10:10.368422 18952 net.cpp:156] Memory required for data: 1063013664
I0403 19:10:10.368437 18952 layer_factory.hpp:77] Creating layer inception_4c/output
I0403 19:10:10.368454 18952 net.cpp:91] Creating Layer inception_4c/output
I0403 19:10:10.368470 18952 net.cpp:425] inception_4c/output <- inception_4c/1x1
I0403 19:10:10.368487 18952 net.cpp:425] inception_4c/output <- inception_4c/3x3
I0403 19:10:10.368504 18952 net.cpp:425] inception_4c/output <- inception_4c/5x5
I0403 19:10:10.368520 18952 net.cpp:425] inception_4c/output <- inception_4c/pool_proj
I0403 19:10:10.368536 18952 net.cpp:399] inception_4c/output -> inception_4c/output
I0403 19:10:10.368584 18952 net.cpp:141] Setting up inception_4c/output
I0403 19:10:10.368607 18952 net.cpp:148] Top shape: 24 512 14 14 (2408448)
I0403 19:10:10.368623 18952 net.cpp:156] Memory required for data: 1072647456
I0403 19:10:10.368638 18952 layer_factory.hpp:77] Creating layer inception_4c/output_inception_4c/output_0_split
I0403 19:10:10.368654 18952 net.cpp:91] Creating Layer inception_4c/output_inception_4c/output_0_split
I0403 19:10:10.368670 18952 net.cpp:425] inception_4c/output_inception_4c/output_0_split <- inception_4c/output
I0403 19:10:10.368690 18952 net.cpp:399] inception_4c/output_inception_4c/output_0_split -> inception_4c/output_inception_4c/output_0_split_0
I0403 19:10:10.368711 18952 net.cpp:399] inception_4c/output_inception_4c/output_0_split -> inception_4c/output_inception_4c/output_0_split_1
I0403 19:10:10.368731 18952 net.cpp:399] inception_4c/output_inception_4c/output_0_split -> inception_4c/output_inception_4c/output_0_split_2
I0403 19:10:10.368752 18952 net.cpp:399] inception_4c/output_inception_4c/output_0_split -> inception_4c/output_inception_4c/output_0_split_3
I0403 19:10:10.368836 18952 net.cpp:141] Setting up inception_4c/output_inception_4c/output_0_split
I0403 19:10:10.368860 18952 net.cpp:148] Top shape: 24 512 14 14 (2408448)
I0403 19:10:10.368876 18952 net.cpp:148] Top shape: 24 512 14 14 (2408448)
I0403 19:10:10.368891 18952 net.cpp:148] Top shape: 24 512 14 14 (2408448)
I0403 19:10:10.368907 18952 net.cpp:148] Top shape: 24 512 14 14 (2408448)
I0403 19:10:10.368921 18952 net.cpp:156] Memory required for data: 1111182624
I0403 19:10:10.368937 18952 layer_factory.hpp:77] Creating layer inception_4d/1x1
I0403 19:10:10.368971 18952 net.cpp:91] Creating Layer inception_4d/1x1
I0403 19:10:10.368991 18952 net.cpp:425] inception_4d/1x1 <- inception_4c/output_inception_4c/output_0_split_0
I0403 19:10:10.369014 18952 net.cpp:399] inception_4d/1x1 -> inception_4d/1x1
I0403 19:10:10.370391 18952 net.cpp:141] Setting up inception_4d/1x1
I0403 19:10:10.370419 18952 net.cpp:148] Top shape: 24 112 14 14 (526848)
I0403 19:10:10.370435 18952 net.cpp:156] Memory required for data: 1113290016
I0403 19:10:10.370453 18952 layer_factory.hpp:77] Creating layer inception_4d/relu_1x1
I0403 19:10:10.370471 18952 net.cpp:91] Creating Layer inception_4d/relu_1x1
I0403 19:10:10.370488 18952 net.cpp:425] inception_4d/relu_1x1 <- inception_4d/1x1
I0403 19:10:10.370508 18952 net.cpp:386] inception_4d/relu_1x1 -> inception_4d/1x1 (in-place)
I0403 19:10:10.370694 18952 net.cpp:141] Setting up inception_4d/relu_1x1
I0403 19:10:10.370719 18952 net.cpp:148] Top shape: 24 112 14 14 (526848)
I0403 19:10:10.370735 18952 net.cpp:156] Memory required for data: 1115397408
I0403 19:10:10.370749 18952 layer_factory.hpp:77] Creating layer inception_4d/3x3_reduce
I0403 19:10:10.370785 18952 net.cpp:91] Creating Layer inception_4d/3x3_reduce
I0403 19:10:10.370805 18952 net.cpp:425] inception_4d/3x3_reduce <- inception_4c/output_inception_4c/output_0_split_1
I0403 19:10:10.370826 18952 net.cpp:399] inception_4d/3x3_reduce -> inception_4d/3x3_reduce
I0403 19:10:10.372366 18952 net.cpp:141] Setting up inception_4d/3x3_reduce
I0403 19:10:10.372393 18952 net.cpp:148] Top shape: 24 144 14 14 (677376)
I0403 19:10:10.372409 18952 net.cpp:156] Memory required for data: 1118106912
I0403 19:10:10.372428 18952 layer_factory.hpp:77] Creating layer inception_4d/relu_3x3_reduce
I0403 19:10:10.372449 18952 net.cpp:91] Creating Layer inception_4d/relu_3x3_reduce
I0403 19:10:10.372467 18952 net.cpp:425] inception_4d/relu_3x3_reduce <- inception_4d/3x3_reduce
I0403 19:10:10.372484 18952 net.cpp:386] inception_4d/relu_3x3_reduce -> inception_4d/3x3_reduce (in-place)
I0403 19:10:10.372772 18952 net.cpp:141] Setting up inception_4d/relu_3x3_reduce
I0403 19:10:10.372798 18952 net.cpp:148] Top shape: 24 144 14 14 (677376)
I0403 19:10:10.372813 18952 net.cpp:156] Memory required for data: 1120816416
I0403 19:10:10.372829 18952 layer_factory.hpp:77] Creating layer inception_4d/3x3
I0403 19:10:10.372853 18952 net.cpp:91] Creating Layer inception_4d/3x3
I0403 19:10:10.372870 18952 net.cpp:425] inception_4d/3x3 <- inception_4d/3x3_reduce
I0403 19:10:10.372889 18952 net.cpp:399] inception_4d/3x3 -> inception_4d/3x3
I0403 19:10:10.377117 18952 net.cpp:141] Setting up inception_4d/3x3
I0403 19:10:10.377146 18952 net.cpp:148] Top shape: 24 288 14 14 (1354752)
I0403 19:10:10.377162 18952 net.cpp:156] Memory required for data: 1126235424
I0403 19:10:10.377193 18952 layer_factory.hpp:77] Creating layer inception_4d/relu_3x3
I0403 19:10:10.377213 18952 net.cpp:91] Creating Layer inception_4d/relu_3x3
I0403 19:10:10.377228 18952 net.cpp:425] inception_4d/relu_3x3 <- inception_4d/3x3
I0403 19:10:10.377249 18952 net.cpp:386] inception_4d/relu_3x3 -> inception_4d/3x3 (in-place)
I0403 19:10:10.377434 18952 net.cpp:141] Setting up inception_4d/relu_3x3
I0403 19:10:10.377457 18952 net.cpp:148] Top shape: 24 288 14 14 (1354752)
I0403 19:10:10.377485 18952 net.cpp:156] Memory required for data: 1131654432
I0403 19:10:10.377499 18952 layer_factory.hpp:77] Creating layer inception_4d/5x5_reduce
I0403 19:10:10.377521 18952 net.cpp:91] Creating Layer inception_4d/5x5_reduce
I0403 19:10:10.377538 18952 net.cpp:425] inception_4d/5x5_reduce <- inception_4c/output_inception_4c/output_0_split_2
I0403 19:10:10.377558 18952 net.cpp:399] inception_4d/5x5_reduce -> inception_4d/5x5_reduce
I0403 19:10:10.378670 18952 net.cpp:141] Setting up inception_4d/5x5_reduce
I0403 19:10:10.378697 18952 net.cpp:148] Top shape: 24 32 14 14 (150528)
I0403 19:10:10.378712 18952 net.cpp:156] Memory required for data: 1132256544
I0403 19:10:10.378731 18952 layer_factory.hpp:77] Creating layer inception_4d/relu_5x5_reduce
I0403 19:10:10.378748 18952 net.cpp:91] Creating Layer inception_4d/relu_5x5_reduce
I0403 19:10:10.378764 18952 net.cpp:425] inception_4d/relu_5x5_reduce <- inception_4d/5x5_reduce
I0403 19:10:10.378784 18952 net.cpp:386] inception_4d/relu_5x5_reduce -> inception_4d/5x5_reduce (in-place)
I0403 19:10:10.378978 18952 net.cpp:141] Setting up inception_4d/relu_5x5_reduce
I0403 19:10:10.379001 18952 net.cpp:148] Top shape: 24 32 14 14 (150528)
I0403 19:10:10.379016 18952 net.cpp:156] Memory required for data: 1132858656
I0403 19:10:10.379030 18952 layer_factory.hpp:77] Creating layer inception_4d/5x5
I0403 19:10:10.379052 18952 net.cpp:91] Creating Layer inception_4d/5x5
I0403 19:10:10.379070 18952 net.cpp:425] inception_4d/5x5 <- inception_4d/5x5_reduce
I0403 19:10:10.379091 18952 net.cpp:399] inception_4d/5x5 -> inception_4d/5x5
I0403 19:10:10.380566 18952 net.cpp:141] Setting up inception_4d/5x5
I0403 19:10:10.380592 18952 net.cpp:148] Top shape: 24 64 14 14 (301056)
I0403 19:10:10.380609 18952 net.cpp:156] Memory required for data: 1134062880
I0403 19:10:10.380626 18952 layer_factory.hpp:77] Creating layer inception_4d/relu_5x5
I0403 19:10:10.380661 18952 net.cpp:91] Creating Layer inception_4d/relu_5x5
I0403 19:10:10.380678 18952 net.cpp:425] inception_4d/relu_5x5 <- inception_4d/5x5
I0403 19:10:10.380695 18952 net.cpp:386] inception_4d/relu_5x5 -> inception_4d/5x5 (in-place)
I0403 19:10:10.380995 18952 net.cpp:141] Setting up inception_4d/relu_5x5
I0403 19:10:10.381021 18952 net.cpp:148] Top shape: 24 64 14 14 (301056)
I0403 19:10:10.381036 18952 net.cpp:156] Memory required for data: 1135267104
I0403 19:10:10.381050 18952 layer_factory.hpp:77] Creating layer inception_4d/pool
I0403 19:10:10.381070 18952 net.cpp:91] Creating Layer inception_4d/pool
I0403 19:10:10.381088 18952 net.cpp:425] inception_4d/pool <- inception_4c/output_inception_4c/output_0_split_3
I0403 19:10:10.381106 18952 net.cpp:399] inception_4d/pool -> inception_4d/pool
I0403 19:10:10.381172 18952 net.cpp:141] Setting up inception_4d/pool
I0403 19:10:10.381196 18952 net.cpp:148] Top shape: 24 512 14 14 (2408448)
I0403 19:10:10.381211 18952 net.cpp:156] Memory required for data: 1144900896
I0403 19:10:10.381224 18952 layer_factory.hpp:77] Creating layer inception_4d/pool_proj
I0403 19:10:10.381247 18952 net.cpp:91] Creating Layer inception_4d/pool_proj
I0403 19:10:10.381264 18952 net.cpp:425] inception_4d/pool_proj <- inception_4d/pool
I0403 19:10:10.381289 18952 net.cpp:399] inception_4d/pool_proj -> inception_4d/pool_proj
I0403 19:10:10.383011 18952 net.cpp:141] Setting up inception_4d/pool_proj
I0403 19:10:10.383041 18952 net.cpp:148] Top shape: 24 64 14 14 (301056)
I0403 19:10:10.383059 18952 net.cpp:156] Memory required for data: 1146105120
I0403 19:10:10.383076 18952 layer_factory.hpp:77] Creating layer inception_4d/relu_pool_proj
I0403 19:10:10.383095 18952 net.cpp:91] Creating Layer inception_4d/relu_pool_proj
I0403 19:10:10.383111 18952 net.cpp:425] inception_4d/relu_pool_proj <- inception_4d/pool_proj
I0403 19:10:10.383131 18952 net.cpp:386] inception_4d/relu_pool_proj -> inception_4d/pool_proj (in-place)
I0403 19:10:10.383308 18952 net.cpp:141] Setting up inception_4d/relu_pool_proj
I0403 19:10:10.383332 18952 net.cpp:148] Top shape: 24 64 14 14 (301056)
I0403 19:10:10.383347 18952 net.cpp:156] Memory required for data: 1147309344
I0403 19:10:10.383361 18952 layer_factory.hpp:77] Creating layer inception_4d/output
I0403 19:10:10.383378 18952 net.cpp:91] Creating Layer inception_4d/output
I0403 19:10:10.383394 18952 net.cpp:425] inception_4d/output <- inception_4d/1x1
I0403 19:10:10.383410 18952 net.cpp:425] inception_4d/output <- inception_4d/3x3
I0403 19:10:10.383425 18952 net.cpp:425] inception_4d/output <- inception_4d/5x5
I0403 19:10:10.383441 18952 net.cpp:425] inception_4d/output <- inception_4d/pool_proj
I0403 19:10:10.383460 18952 net.cpp:399] inception_4d/output -> inception_4d/output
I0403 19:10:10.383509 18952 net.cpp:141] Setting up inception_4d/output
I0403 19:10:10.383533 18952 net.cpp:148] Top shape: 24 528 14 14 (2483712)
I0403 19:10:10.383548 18952 net.cpp:156] Memory required for data: 1157244192
I0403 19:10:10.383561 18952 layer_factory.hpp:77] Creating layer inception_4d/output_inception_4d/output_0_split
I0403 19:10:10.383579 18952 net.cpp:91] Creating Layer inception_4d/output_inception_4d/output_0_split
I0403 19:10:10.383595 18952 net.cpp:425] inception_4d/output_inception_4d/output_0_split <- inception_4d/output
I0403 19:10:10.383615 18952 net.cpp:399] inception_4d/output_inception_4d/output_0_split -> inception_4d/output_inception_4d/output_0_split_0
I0403 19:10:10.383636 18952 net.cpp:399] inception_4d/output_inception_4d/output_0_split -> inception_4d/output_inception_4d/output_0_split_1
I0403 19:10:10.383657 18952 net.cpp:399] inception_4d/output_inception_4d/output_0_split -> inception_4d/output_inception_4d/output_0_split_2
I0403 19:10:10.383677 18952 net.cpp:399] inception_4d/output_inception_4d/output_0_split -> inception_4d/output_inception_4d/output_0_split_3
I0403 19:10:10.383697 18952 net.cpp:399] inception_4d/output_inception_4d/output_0_split -> inception_4d/output_inception_4d/output_0_split_4
I0403 19:10:10.383797 18952 net.cpp:141] Setting up inception_4d/output_inception_4d/output_0_split
I0403 19:10:10.383833 18952 net.cpp:148] Top shape: 24 528 14 14 (2483712)
I0403 19:10:10.383851 18952 net.cpp:148] Top shape: 24 528 14 14 (2483712)
I0403 19:10:10.383867 18952 net.cpp:148] Top shape: 24 528 14 14 (2483712)
I0403 19:10:10.383882 18952 net.cpp:148] Top shape: 24 528 14 14 (2483712)
I0403 19:10:10.383898 18952 net.cpp:148] Top shape: 24 528 14 14 (2483712)
I0403 19:10:10.383910 18952 net.cpp:156] Memory required for data: 1206918432
I0403 19:10:10.383925 18952 layer_factory.hpp:77] Creating layer loss2/ave_pool
I0403 19:10:10.383942 18952 net.cpp:91] Creating Layer loss2/ave_pool
I0403 19:10:10.383962 18952 net.cpp:425] loss2/ave_pool <- inception_4d/output_inception_4d/output_0_split_0
I0403 19:10:10.383983 18952 net.cpp:399] loss2/ave_pool -> loss2/ave_pool
I0403 19:10:10.384289 18952 net.cpp:141] Setting up loss2/ave_pool
I0403 19:10:10.384315 18952 net.cpp:148] Top shape: 24 528 4 4 (202752)
I0403 19:10:10.384330 18952 net.cpp:156] Memory required for data: 1207729440
I0403 19:10:10.384344 18952 layer_factory.hpp:77] Creating layer loss2/conv
I0403 19:10:10.384366 18952 net.cpp:91] Creating Layer loss2/conv
I0403 19:10:10.384383 18952 net.cpp:425] loss2/conv <- loss2/ave_pool
I0403 19:10:10.384405 18952 net.cpp:399] loss2/conv -> loss2/conv
I0403 19:10:10.386255 18952 net.cpp:141] Setting up loss2/conv
I0403 19:10:10.386283 18952 net.cpp:148] Top shape: 24 128 4 4 (49152)
I0403 19:10:10.386299 18952 net.cpp:156] Memory required for data: 1207926048
I0403 19:10:10.386318 18952 layer_factory.hpp:77] Creating layer loss2/relu_conv
I0403 19:10:10.386338 18952 net.cpp:91] Creating Layer loss2/relu_conv
I0403 19:10:10.386355 18952 net.cpp:425] loss2/relu_conv <- loss2/conv
I0403 19:10:10.386373 18952 net.cpp:386] loss2/relu_conv -> loss2/conv (in-place)
I0403 19:10:10.386664 18952 net.cpp:141] Setting up loss2/relu_conv
I0403 19:10:10.386689 18952 net.cpp:148] Top shape: 24 128 4 4 (49152)
I0403 19:10:10.386704 18952 net.cpp:156] Memory required for data: 1208122656
I0403 19:10:10.386719 18952 layer_factory.hpp:77] Creating layer loss2/fc
I0403 19:10:10.386740 18952 net.cpp:91] Creating Layer loss2/fc
I0403 19:10:10.386757 18952 net.cpp:425] loss2/fc <- loss2/conv
I0403 19:10:10.386777 18952 net.cpp:399] loss2/fc -> loss2/fc
I0403 19:10:10.403992 18952 net.cpp:141] Setting up loss2/fc
I0403 19:10:10.404026 18952 net.cpp:148] Top shape: 24 1024 (24576)
I0403 19:10:10.404041 18952 net.cpp:156] Memory required for data: 1208220960
I0403 19:10:10.404058 18952 layer_factory.hpp:77] Creating layer loss2/relu_fc
I0403 19:10:10.404077 18952 net.cpp:91] Creating Layer loss2/relu_fc
I0403 19:10:10.404093 18952 net.cpp:425] loss2/relu_fc <- loss2/fc
I0403 19:10:10.404111 18952 net.cpp:386] loss2/relu_fc -> loss2/fc (in-place)
I0403 19:10:10.404399 18952 net.cpp:141] Setting up loss2/relu_fc
I0403 19:10:10.404425 18952 net.cpp:148] Top shape: 24 1024 (24576)
I0403 19:10:10.404440 18952 net.cpp:156] Memory required for data: 1208319264
I0403 19:10:10.404454 18952 layer_factory.hpp:77] Creating layer loss2/drop_fc
I0403 19:10:10.404472 18952 net.cpp:91] Creating Layer loss2/drop_fc
I0403 19:10:10.404489 18952 net.cpp:425] loss2/drop_fc <- loss2/fc
I0403 19:10:10.404508 18952 net.cpp:386] loss2/drop_fc -> loss2/fc (in-place)
I0403 19:10:10.404556 18952 net.cpp:141] Setting up loss2/drop_fc
I0403 19:10:10.404582 18952 net.cpp:148] Top shape: 24 1024 (24576)
I0403 19:10:10.404597 18952 net.cpp:156] Memory required for data: 1208417568
I0403 19:10:10.404611 18952 layer_factory.hpp:77] Creating layer loss2/classifier_plantvillage
I0403 19:10:10.404629 18952 net.cpp:91] Creating Layer loss2/classifier_plantvillage
I0403 19:10:10.404645 18952 net.cpp:425] loss2/classifier_plantvillage <- loss2/fc
I0403 19:10:10.404666 18952 net.cpp:399] loss2/classifier_plantvillage -> loss2/classifier_plantvillage
I0403 19:10:10.405062 18952 net.cpp:141] Setting up loss2/classifier_plantvillage
I0403 19:10:10.405086 18952 net.cpp:148] Top shape: 24 38 (912)
I0403 19:10:10.405115 18952 net.cpp:156] Memory required for data: 1208421216
I0403 19:10:10.405134 18952 layer_factory.hpp:77] Creating layer loss2/classifier_plantvillage_loss2/classifier_plantvillage_0_split
I0403 19:10:10.405154 18952 net.cpp:91] Creating Layer loss2/classifier_plantvillage_loss2/classifier_plantvillage_0_split
I0403 19:10:10.405171 18952 net.cpp:425] loss2/classifier_plantvillage_loss2/classifier_plantvillage_0_split <- loss2/classifier_plantvillage
I0403 19:10:10.405189 18952 net.cpp:399] loss2/classifier_plantvillage_loss2/classifier_plantvillage_0_split -> loss2/classifier_plantvillage_loss2/classifier_plantvillage_0_split_0
I0403 19:10:10.405211 18952 net.cpp:399] loss2/classifier_plantvillage_loss2/classifier_plantvillage_0_split -> loss2/classifier_plantvillage_loss2/classifier_plantvillage_0_split_1
I0403 19:10:10.405235 18952 net.cpp:399] loss2/classifier_plantvillage_loss2/classifier_plantvillage_0_split -> loss2/classifier_plantvillage_loss2/classifier_plantvillage_0_split_2
I0403 19:10:10.405308 18952 net.cpp:141] Setting up loss2/classifier_plantvillage_loss2/classifier_plantvillage_0_split
I0403 19:10:10.405331 18952 net.cpp:148] Top shape: 24 38 (912)
I0403 19:10:10.405347 18952 net.cpp:148] Top shape: 24 38 (912)
I0403 19:10:10.405362 18952 net.cpp:148] Top shape: 24 38 (912)
I0403 19:10:10.405375 18952 net.cpp:156] Memory required for data: 1208432160
I0403 19:10:10.405390 18952 layer_factory.hpp:77] Creating layer inception_4e/1x1
I0403 19:10:10.405411 18952 net.cpp:91] Creating Layer inception_4e/1x1
I0403 19:10:10.405429 18952 net.cpp:425] inception_4e/1x1 <- inception_4d/output_inception_4d/output_0_split_1
I0403 19:10:10.405449 18952 net.cpp:399] inception_4e/1x1 -> inception_4e/1x1
I0403 19:10:10.407281 18952 net.cpp:141] Setting up inception_4e/1x1
I0403 19:10:10.407321 18952 net.cpp:148] Top shape: 24 256 14 14 (1204224)
I0403 19:10:10.407337 18952 net.cpp:156] Memory required for data: 1213249056
I0403 19:10:10.407356 18952 layer_factory.hpp:77] Creating layer inception_4e/relu_1x1
I0403 19:10:10.407377 18952 net.cpp:91] Creating Layer inception_4e/relu_1x1
I0403 19:10:10.407393 18952 net.cpp:425] inception_4e/relu_1x1 <- inception_4e/1x1
I0403 19:10:10.407412 18952 net.cpp:386] inception_4e/relu_1x1 -> inception_4e/1x1 (in-place)
I0403 19:10:10.407704 18952 net.cpp:141] Setting up inception_4e/relu_1x1
I0403 19:10:10.407730 18952 net.cpp:148] Top shape: 24 256 14 14 (1204224)
I0403 19:10:10.407745 18952 net.cpp:156] Memory required for data: 1218065952
I0403 19:10:10.407760 18952 layer_factory.hpp:77] Creating layer inception_4e/3x3_reduce
I0403 19:10:10.407784 18952 net.cpp:91] Creating Layer inception_4e/3x3_reduce
I0403 19:10:10.407802 18952 net.cpp:425] inception_4e/3x3_reduce <- inception_4d/output_inception_4d/output_0_split_2
I0403 19:10:10.407825 18952 net.cpp:399] inception_4e/3x3_reduce -> inception_4e/3x3_reduce
I0403 19:10:10.409979 18952 net.cpp:141] Setting up inception_4e/3x3_reduce
I0403 19:10:10.410007 18952 net.cpp:148] Top shape: 24 160 14 14 (752640)
I0403 19:10:10.410023 18952 net.cpp:156] Memory required for data: 1221076512
I0403 19:10:10.410043 18952 layer_factory.hpp:77] Creating layer inception_4e/relu_3x3_reduce
I0403 19:10:10.410063 18952 net.cpp:91] Creating Layer inception_4e/relu_3x3_reduce
I0403 19:10:10.410080 18952 net.cpp:425] inception_4e/relu_3x3_reduce <- inception_4e/3x3_reduce
I0403 19:10:10.410099 18952 net.cpp:386] inception_4e/relu_3x3_reduce -> inception_4e/3x3_reduce (in-place)
I0403 19:10:10.410282 18952 net.cpp:141] Setting up inception_4e/relu_3x3_reduce
I0403 19:10:10.410310 18952 net.cpp:148] Top shape: 24 160 14 14 (752640)
I0403 19:10:10.410325 18952 net.cpp:156] Memory required for data: 1224087072
I0403 19:10:10.410339 18952 layer_factory.hpp:77] Creating layer inception_4e/3x3
I0403 19:10:10.410362 18952 net.cpp:91] Creating Layer inception_4e/3x3
I0403 19:10:10.410379 18952 net.cpp:425] inception_4e/3x3 <- inception_4e/3x3_reduce
I0403 19:10:10.410398 18952 net.cpp:399] inception_4e/3x3 -> inception_4e/3x3
I0403 19:10:10.415395 18952 net.cpp:141] Setting up inception_4e/3x3
I0403 19:10:10.415438 18952 net.cpp:148] Top shape: 24 320 14 14 (1505280)
I0403 19:10:10.415455 18952 net.cpp:156] Memory required for data: 1230108192
I0403 19:10:10.415475 18952 layer_factory.hpp:77] Creating layer inception_4e/relu_3x3
I0403 19:10:10.415493 18952 net.cpp:91] Creating Layer inception_4e/relu_3x3
I0403 19:10:10.415510 18952 net.cpp:425] inception_4e/relu_3x3 <- inception_4e/3x3
I0403 19:10:10.415527 18952 net.cpp:386] inception_4e/relu_3x3 -> inception_4e/3x3 (in-place)
I0403 19:10:10.415827 18952 net.cpp:141] Setting up inception_4e/relu_3x3
I0403 19:10:10.415853 18952 net.cpp:148] Top shape: 24 320 14 14 (1505280)
I0403 19:10:10.415868 18952 net.cpp:156] Memory required for data: 1236129312
I0403 19:10:10.415884 18952 layer_factory.hpp:77] Creating layer inception_4e/5x5_reduce
I0403 19:10:10.415907 18952 net.cpp:91] Creating Layer inception_4e/5x5_reduce
I0403 19:10:10.415926 18952 net.cpp:425] inception_4e/5x5_reduce <- inception_4d/output_inception_4d/output_0_split_3
I0403 19:10:10.415953 18952 net.cpp:399] inception_4e/5x5_reduce -> inception_4e/5x5_reduce
I0403 19:10:10.417107 18952 net.cpp:141] Setting up inception_4e/5x5_reduce
I0403 19:10:10.417135 18952 net.cpp:148] Top shape: 24 32 14 14 (150528)
I0403 19:10:10.417151 18952 net.cpp:156] Memory required for data: 1236731424
I0403 19:10:10.417171 18952 layer_factory.hpp:77] Creating layer inception_4e/relu_5x5_reduce
I0403 19:10:10.417192 18952 net.cpp:91] Creating Layer inception_4e/relu_5x5_reduce
I0403 19:10:10.417212 18952 net.cpp:425] inception_4e/relu_5x5_reduce <- inception_4e/5x5_reduce
I0403 19:10:10.417229 18952 net.cpp:386] inception_4e/relu_5x5_reduce -> inception_4e/5x5_reduce (in-place)
I0403 19:10:10.417541 18952 net.cpp:141] Setting up inception_4e/relu_5x5_reduce
I0403 19:10:10.417567 18952 net.cpp:148] Top shape: 24 32 14 14 (150528)
I0403 19:10:10.417582 18952 net.cpp:156] Memory required for data: 1237333536
I0403 19:10:10.417596 18952 layer_factory.hpp:77] Creating layer inception_4e/5x5
I0403 19:10:10.417635 18952 net.cpp:91] Creating Layer inception_4e/5x5
I0403 19:10:10.417654 18952 net.cpp:425] inception_4e/5x5 <- inception_4e/5x5_reduce
I0403 19:10:10.417675 18952 net.cpp:399] inception_4e/5x5 -> inception_4e/5x5
I0403 19:10:10.419564 18952 net.cpp:141] Setting up inception_4e/5x5
I0403 19:10:10.419591 18952 net.cpp:148] Top shape: 24 128 14 14 (602112)
I0403 19:10:10.419607 18952 net.cpp:156] Memory required for data: 1239741984
I0403 19:10:10.419627 18952 layer_factory.hpp:77] Creating layer inception_4e/relu_5x5
I0403 19:10:10.419648 18952 net.cpp:91] Creating Layer inception_4e/relu_5x5
I0403 19:10:10.419666 18952 net.cpp:425] inception_4e/relu_5x5 <- inception_4e/5x5
I0403 19:10:10.419683 18952 net.cpp:386] inception_4e/relu_5x5 -> inception_4e/5x5 (in-place)
I0403 19:10:10.419880 18952 net.cpp:141] Setting up inception_4e/relu_5x5
I0403 19:10:10.419905 18952 net.cpp:148] Top shape: 24 128 14 14 (602112)
I0403 19:10:10.419919 18952 net.cpp:156] Memory required for data: 1242150432
I0403 19:10:10.419935 18952 layer_factory.hpp:77] Creating layer inception_4e/pool
I0403 19:10:10.419960 18952 net.cpp:91] Creating Layer inception_4e/pool
I0403 19:10:10.419978 18952 net.cpp:425] inception_4e/pool <- inception_4d/output_inception_4d/output_0_split_4
I0403 19:10:10.419997 18952 net.cpp:399] inception_4e/pool -> inception_4e/pool
I0403 19:10:10.420069 18952 net.cpp:141] Setting up inception_4e/pool
I0403 19:10:10.420094 18952 net.cpp:148] Top shape: 24 528 14 14 (2483712)
I0403 19:10:10.420109 18952 net.cpp:156] Memory required for data: 1252085280
I0403 19:10:10.420123 18952 layer_factory.hpp:77] Creating layer inception_4e/pool_proj
I0403 19:10:10.420145 18952 net.cpp:91] Creating Layer inception_4e/pool_proj
I0403 19:10:10.420163 18952 net.cpp:425] inception_4e/pool_proj <- inception_4e/pool
I0403 19:10:10.420184 18952 net.cpp:399] inception_4e/pool_proj -> inception_4e/pool_proj
I0403 19:10:10.421689 18952 net.cpp:141] Setting up inception_4e/pool_proj
I0403 19:10:10.421728 18952 net.cpp:148] Top shape: 24 128 14 14 (602112)
I0403 19:10:10.421744 18952 net.cpp:156] Memory required for data: 1254493728
I0403 19:10:10.421763 18952 layer_factory.hpp:77] Creating layer inception_4e/relu_pool_proj
I0403 19:10:10.421782 18952 net.cpp:91] Creating Layer inception_4e/relu_pool_proj
I0403 19:10:10.421798 18952 net.cpp:425] inception_4e/relu_pool_proj <- inception_4e/pool_proj
I0403 19:10:10.421818 18952 net.cpp:386] inception_4e/relu_pool_proj -> inception_4e/pool_proj (in-place)
I0403 19:10:10.422118 18952 net.cpp:141] Setting up inception_4e/relu_pool_proj
I0403 19:10:10.422144 18952 net.cpp:148] Top shape: 24 128 14 14 (602112)
I0403 19:10:10.422159 18952 net.cpp:156] Memory required for data: 1256902176
I0403 19:10:10.422188 18952 layer_factory.hpp:77] Creating layer inception_4e/output
I0403 19:10:10.422207 18952 net.cpp:91] Creating Layer inception_4e/output
I0403 19:10:10.422224 18952 net.cpp:425] inception_4e/output <- inception_4e/1x1
I0403 19:10:10.422241 18952 net.cpp:425] inception_4e/output <- inception_4e/3x3
I0403 19:10:10.422257 18952 net.cpp:425] inception_4e/output <- inception_4e/5x5
I0403 19:10:10.422274 18952 net.cpp:425] inception_4e/output <- inception_4e/pool_proj
I0403 19:10:10.422294 18952 net.cpp:399] inception_4e/output -> inception_4e/output
I0403 19:10:10.422345 18952 net.cpp:141] Setting up inception_4e/output
I0403 19:10:10.422372 18952 net.cpp:148] Top shape: 24 832 14 14 (3913728)
I0403 19:10:10.422389 18952 net.cpp:156] Memory required for data: 1272557088
I0403 19:10:10.422405 18952 layer_factory.hpp:77] Creating layer pool4/3x3_s2
I0403 19:10:10.422422 18952 net.cpp:91] Creating Layer pool4/3x3_s2
I0403 19:10:10.422440 18952 net.cpp:425] pool4/3x3_s2 <- inception_4e/output
I0403 19:10:10.422474 18952 net.cpp:399] pool4/3x3_s2 -> pool4/3x3_s2
I0403 19:10:10.422540 18952 net.cpp:141] Setting up pool4/3x3_s2
I0403 19:10:10.422564 18952 net.cpp:148] Top shape: 24 832 7 7 (978432)
I0403 19:10:10.422580 18952 net.cpp:156] Memory required for data: 1276470816
I0403 19:10:10.422595 18952 layer_factory.hpp:77] Creating layer pool4/3x3_s2_pool4/3x3_s2_0_split
I0403 19:10:10.422615 18952 net.cpp:91] Creating Layer pool4/3x3_s2_pool4/3x3_s2_0_split
I0403 19:10:10.422632 18952 net.cpp:425] pool4/3x3_s2_pool4/3x3_s2_0_split <- pool4/3x3_s2
I0403 19:10:10.422651 18952 net.cpp:399] pool4/3x3_s2_pool4/3x3_s2_0_split -> pool4/3x3_s2_pool4/3x3_s2_0_split_0
I0403 19:10:10.422669 18952 net.cpp:399] pool4/3x3_s2_pool4/3x3_s2_0_split -> pool4/3x3_s2_pool4/3x3_s2_0_split_1
I0403 19:10:10.422689 18952 net.cpp:399] pool4/3x3_s2_pool4/3x3_s2_0_split -> pool4/3x3_s2_pool4/3x3_s2_0_split_2
I0403 19:10:10.422710 18952 net.cpp:399] pool4/3x3_s2_pool4/3x3_s2_0_split -> pool4/3x3_s2_pool4/3x3_s2_0_split_3
I0403 19:10:10.422802 18952 net.cpp:141] Setting up pool4/3x3_s2_pool4/3x3_s2_0_split
I0403 19:10:10.422826 18952 net.cpp:148] Top shape: 24 832 7 7 (978432)
I0403 19:10:10.422842 18952 net.cpp:148] Top shape: 24 832 7 7 (978432)
I0403 19:10:10.422858 18952 net.cpp:148] Top shape: 24 832 7 7 (978432)
I0403 19:10:10.422873 18952 net.cpp:148] Top shape: 24 832 7 7 (978432)
I0403 19:10:10.422888 18952 net.cpp:156] Memory required for data: 1292125728
I0403 19:10:10.422902 18952 layer_factory.hpp:77] Creating layer inception_5a/1x1
I0403 19:10:10.422924 18952 net.cpp:91] Creating Layer inception_5a/1x1
I0403 19:10:10.422942 18952 net.cpp:425] inception_5a/1x1 <- pool4/3x3_s2_pool4/3x3_s2_0_split_0
I0403 19:10:10.422969 18952 net.cpp:399] inception_5a/1x1 -> inception_5a/1x1
I0403 19:10:10.425843 18952 net.cpp:141] Setting up inception_5a/1x1
I0403 19:10:10.425870 18952 net.cpp:148] Top shape: 24 256 7 7 (301056)
I0403 19:10:10.425885 18952 net.cpp:156] Memory required for data: 1293329952
I0403 19:10:10.425904 18952 layer_factory.hpp:77] Creating layer inception_5a/relu_1x1
I0403 19:10:10.425925 18952 net.cpp:91] Creating Layer inception_5a/relu_1x1
I0403 19:10:10.425942 18952 net.cpp:425] inception_5a/relu_1x1 <- inception_5a/1x1
I0403 19:10:10.425964 18952 net.cpp:386] inception_5a/relu_1x1 -> inception_5a/1x1 (in-place)
I0403 19:10:10.426277 18952 net.cpp:141] Setting up inception_5a/relu_1x1
I0403 19:10:10.426302 18952 net.cpp:148] Top shape: 24 256 7 7 (301056)
I0403 19:10:10.426317 18952 net.cpp:156] Memory required for data: 1294534176
I0403 19:10:10.426332 18952 layer_factory.hpp:77] Creating layer inception_5a/3x3_reduce
I0403 19:10:10.426355 18952 net.cpp:91] Creating Layer inception_5a/3x3_reduce
I0403 19:10:10.426373 18952 net.cpp:425] inception_5a/3x3_reduce <- pool4/3x3_s2_pool4/3x3_s2_0_split_1
I0403 19:10:10.426394 18952 net.cpp:399] inception_5a/3x3_reduce -> inception_5a/3x3_reduce
I0403 19:10:10.428783 18952 net.cpp:141] Setting up inception_5a/3x3_reduce
I0403 19:10:10.428812 18952 net.cpp:148] Top shape: 24 160 7 7 (188160)
I0403 19:10:10.428828 18952 net.cpp:156] Memory required for data: 1295286816
I0403 19:10:10.428848 18952 layer_factory.hpp:77] Creating layer inception_5a/relu_3x3_reduce
I0403 19:10:10.428865 18952 net.cpp:91] Creating Layer inception_5a/relu_3x3_reduce
I0403 19:10:10.428880 18952 net.cpp:425] inception_5a/relu_3x3_reduce <- inception_5a/3x3_reduce
I0403 19:10:10.428900 18952 net.cpp:386] inception_5a/relu_3x3_reduce -> inception_5a/3x3_reduce (in-place)
I0403 19:10:10.429092 18952 net.cpp:141] Setting up inception_5a/relu_3x3_reduce
I0403 19:10:10.429117 18952 net.cpp:148] Top shape: 24 160 7 7 (188160)
I0403 19:10:10.429132 18952 net.cpp:156] Memory required for data: 1296039456
I0403 19:10:10.429148 18952 layer_factory.hpp:77] Creating layer inception_5a/3x3
I0403 19:10:10.429170 18952 net.cpp:91] Creating Layer inception_5a/3x3
I0403 19:10:10.429188 18952 net.cpp:425] inception_5a/3x3 <- inception_5a/3x3_reduce
I0403 19:10:10.429210 18952 net.cpp:399] inception_5a/3x3 -> inception_5a/3x3
I0403 19:10:10.434201 18952 net.cpp:141] Setting up inception_5a/3x3
I0403 19:10:10.434229 18952 net.cpp:148] Top shape: 24 320 7 7 (376320)
I0403 19:10:10.434244 18952 net.cpp:156] Memory required for data: 1297544736
I0403 19:10:10.434263 18952 layer_factory.hpp:77] Creating layer inception_5a/relu_3x3
I0403 19:10:10.434283 18952 net.cpp:91] Creating Layer inception_5a/relu_3x3
I0403 19:10:10.434300 18952 net.cpp:425] inception_5a/relu_3x3 <- inception_5a/3x3
I0403 19:10:10.434317 18952 net.cpp:386] inception_5a/relu_3x3 -> inception_5a/3x3 (in-place)
I0403 19:10:10.434602 18952 net.cpp:141] Setting up inception_5a/relu_3x3
I0403 19:10:10.434628 18952 net.cpp:148] Top shape: 24 320 7 7 (376320)
I0403 19:10:10.434643 18952 net.cpp:156] Memory required for data: 1299050016
I0403 19:10:10.434656 18952 layer_factory.hpp:77] Creating layer inception_5a/5x5_reduce
I0403 19:10:10.434679 18952 net.cpp:91] Creating Layer inception_5a/5x5_reduce
I0403 19:10:10.434696 18952 net.cpp:425] inception_5a/5x5_reduce <- pool4/3x3_s2_pool4/3x3_s2_0_split_2
I0403 19:10:10.434720 18952 net.cpp:399] inception_5a/5x5_reduce -> inception_5a/5x5_reduce
I0403 19:10:10.435863 18952 net.cpp:141] Setting up inception_5a/5x5_reduce
I0403 19:10:10.435889 18952 net.cpp:148] Top shape: 24 32 7 7 (37632)
I0403 19:10:10.435904 18952 net.cpp:156] Memory required for data: 1299200544
I0403 19:10:10.435923 18952 layer_factory.hpp:77] Creating layer inception_5a/relu_5x5_reduce
I0403 19:10:10.435945 18952 net.cpp:91] Creating Layer inception_5a/relu_5x5_reduce
I0403 19:10:10.435967 18952 net.cpp:425] inception_5a/relu_5x5_reduce <- inception_5a/5x5_reduce
I0403 19:10:10.435986 18952 net.cpp:386] inception_5a/relu_5x5_reduce -> inception_5a/5x5_reduce (in-place)
I0403 19:10:10.436277 18952 net.cpp:141] Setting up inception_5a/relu_5x5_reduce
I0403 19:10:10.436302 18952 net.cpp:148] Top shape: 24 32 7 7 (37632)
I0403 19:10:10.436317 18952 net.cpp:156] Memory required for data: 1299351072
I0403 19:10:10.436332 18952 layer_factory.hpp:77] Creating layer inception_5a/5x5
I0403 19:10:10.436355 18952 net.cpp:91] Creating Layer inception_5a/5x5
I0403 19:10:10.436372 18952 net.cpp:425] inception_5a/5x5 <- inception_5a/5x5_reduce
I0403 19:10:10.436393 18952 net.cpp:399] inception_5a/5x5 -> inception_5a/5x5
I0403 19:10:10.438073 18952 net.cpp:141] Setting up inception_5a/5x5
I0403 19:10:10.438112 18952 net.cpp:148] Top shape: 24 128 7 7 (150528)
I0403 19:10:10.438128 18952 net.cpp:156] Memory required for data: 1299953184
I0403 19:10:10.438148 18952 layer_factory.hpp:77] Creating layer inception_5a/relu_5x5
I0403 19:10:10.438168 18952 net.cpp:91] Creating Layer inception_5a/relu_5x5
I0403 19:10:10.438185 18952 net.cpp:425] inception_5a/relu_5x5 <- inception_5a/5x5
I0403 19:10:10.438204 18952 net.cpp:386] inception_5a/relu_5x5 -> inception_5a/5x5 (in-place)
I0403 19:10:10.438390 18952 net.cpp:141] Setting up inception_5a/relu_5x5
I0403 19:10:10.438415 18952 net.cpp:148] Top shape: 24 128 7 7 (150528)
I0403 19:10:10.438429 18952 net.cpp:156] Memory required for data: 1300555296
I0403 19:10:10.438443 18952 layer_factory.hpp:77] Creating layer inception_5a/pool
I0403 19:10:10.438463 18952 net.cpp:91] Creating Layer inception_5a/pool
I0403 19:10:10.438479 18952 net.cpp:425] inception_5a/pool <- pool4/3x3_s2_pool4/3x3_s2_0_split_3
I0403 19:10:10.438498 18952 net.cpp:399] inception_5a/pool -> inception_5a/pool
I0403 19:10:10.438567 18952 net.cpp:141] Setting up inception_5a/pool
I0403 19:10:10.438591 18952 net.cpp:148] Top shape: 24 832 7 7 (978432)
I0403 19:10:10.438604 18952 net.cpp:156] Memory required for data: 1304469024
I0403 19:10:10.438619 18952 layer_factory.hpp:77] Creating layer inception_5a/pool_proj
I0403 19:10:10.438640 18952 net.cpp:91] Creating Layer inception_5a/pool_proj
I0403 19:10:10.438657 18952 net.cpp:425] inception_5a/pool_proj <- inception_5a/pool
I0403 19:10:10.438678 18952 net.cpp:399] inception_5a/pool_proj -> inception_5a/pool_proj
I0403 19:10:10.440954 18952 net.cpp:141] Setting up inception_5a/pool_proj
I0403 19:10:10.440984 18952 net.cpp:148] Top shape: 24 128 7 7 (150528)
I0403 19:10:10.440999 18952 net.cpp:156] Memory required for data: 1305071136
I0403 19:10:10.441017 18952 layer_factory.hpp:77] Creating layer inception_5a/relu_pool_proj
I0403 19:10:10.441035 18952 net.cpp:91] Creating Layer inception_5a/relu_pool_proj
I0403 19:10:10.441051 18952 net.cpp:425] inception_5a/relu_pool_proj <- inception_5a/pool_proj
I0403 19:10:10.441069 18952 net.cpp:386] inception_5a/relu_pool_proj -> inception_5a/pool_proj (in-place)
I0403 19:10:10.441365 18952 net.cpp:141] Setting up inception_5a/relu_pool_proj
I0403 19:10:10.441390 18952 net.cpp:148] Top shape: 24 128 7 7 (150528)
I0403 19:10:10.441406 18952 net.cpp:156] Memory required for data: 1305673248
I0403 19:10:10.441421 18952 layer_factory.hpp:77] Creating layer inception_5a/output
I0403 19:10:10.441437 18952 net.cpp:91] Creating Layer inception_5a/output
I0403 19:10:10.441453 18952 net.cpp:425] inception_5a/output <- inception_5a/1x1
I0403 19:10:10.441469 18952 net.cpp:425] inception_5a/output <- inception_5a/3x3
I0403 19:10:10.441485 18952 net.cpp:425] inception_5a/output <- inception_5a/5x5
I0403 19:10:10.441501 18952 net.cpp:425] inception_5a/output <- inception_5a/pool_proj
I0403 19:10:10.441520 18952 net.cpp:399] inception_5a/output -> inception_5a/output
I0403 19:10:10.441570 18952 net.cpp:141] Setting up inception_5a/output
I0403 19:10:10.441594 18952 net.cpp:148] Top shape: 24 832 7 7 (978432)
I0403 19:10:10.441611 18952 net.cpp:156] Memory required for data: 1309586976
I0403 19:10:10.441624 18952 layer_factory.hpp:77] Creating layer inception_5a/output_inception_5a/output_0_split
I0403 19:10:10.441642 18952 net.cpp:91] Creating Layer inception_5a/output_inception_5a/output_0_split
I0403 19:10:10.441658 18952 net.cpp:425] inception_5a/output_inception_5a/output_0_split <- inception_5a/output
I0403 19:10:10.441674 18952 net.cpp:399] inception_5a/output_inception_5a/output_0_split -> inception_5a/output_inception_5a/output_0_split_0
I0403 19:10:10.441694 18952 net.cpp:399] inception_5a/output_inception_5a/output_0_split -> inception_5a/output_inception_5a/output_0_split_1
I0403 19:10:10.441715 18952 net.cpp:399] inception_5a/output_inception_5a/output_0_split -> inception_5a/output_inception_5a/output_0_split_2
I0403 19:10:10.441736 18952 net.cpp:399] inception_5a/output_inception_5a/output_0_split -> inception_5a/output_inception_5a/output_0_split_3
I0403 19:10:10.441846 18952 net.cpp:141] Setting up inception_5a/output_inception_5a/output_0_split
I0403 19:10:10.441869 18952 net.cpp:148] Top shape: 24 832 7 7 (978432)
I0403 19:10:10.441885 18952 net.cpp:148] Top shape: 24 832 7 7 (978432)
I0403 19:10:10.441900 18952 net.cpp:148] Top shape: 24 832 7 7 (978432)
I0403 19:10:10.441915 18952 net.cpp:148] Top shape: 24 832 7 7 (978432)
I0403 19:10:10.441929 18952 net.cpp:156] Memory required for data: 1325241888
I0403 19:10:10.441944 18952 layer_factory.hpp:77] Creating layer inception_5b/1x1
I0403 19:10:10.441972 18952 net.cpp:91] Creating Layer inception_5b/1x1
I0403 19:10:10.441988 18952 net.cpp:425] inception_5b/1x1 <- inception_5a/output_inception_5a/output_0_split_0
I0403 19:10:10.442009 18952 net.cpp:399] inception_5b/1x1 -> inception_5b/1x1
I0403 19:10:10.445706 18952 net.cpp:141] Setting up inception_5b/1x1
I0403 19:10:10.445737 18952 net.cpp:148] Top shape: 24 384 7 7 (451584)
I0403 19:10:10.445754 18952 net.cpp:156] Memory required for data: 1327048224
I0403 19:10:10.445772 18952 layer_factory.hpp:77] Creating layer inception_5b/relu_1x1
I0403 19:10:10.445791 18952 net.cpp:91] Creating Layer inception_5b/relu_1x1
I0403 19:10:10.445806 18952 net.cpp:425] inception_5b/relu_1x1 <- inception_5b/1x1
I0403 19:10:10.445825 18952 net.cpp:386] inception_5b/relu_1x1 -> inception_5b/1x1 (in-place)
I0403 19:10:10.446127 18952 net.cpp:141] Setting up inception_5b/relu_1x1
I0403 19:10:10.446156 18952 net.cpp:148] Top shape: 24 384 7 7 (451584)
I0403 19:10:10.446171 18952 net.cpp:156] Memory required for data: 1328854560
I0403 19:10:10.446187 18952 layer_factory.hpp:77] Creating layer inception_5b/3x3_reduce
I0403 19:10:10.446210 18952 net.cpp:91] Creating Layer inception_5b/3x3_reduce
I0403 19:10:10.446228 18952 net.cpp:425] inception_5b/3x3_reduce <- inception_5a/output_inception_5a/output_0_split_1
I0403 19:10:10.446246 18952 net.cpp:399] inception_5b/3x3_reduce -> inception_5b/3x3_reduce
I0403 19:10:10.448842 18952 net.cpp:141] Setting up inception_5b/3x3_reduce
I0403 19:10:10.448870 18952 net.cpp:148] Top shape: 24 192 7 7 (225792)
I0403 19:10:10.448885 18952 net.cpp:156] Memory required for data: 1329757728
I0403 19:10:10.448904 18952 layer_factory.hpp:77] Creating layer inception_5b/relu_3x3_reduce
I0403 19:10:10.448922 18952 net.cpp:91] Creating Layer inception_5b/relu_3x3_reduce
I0403 19:10:10.448938 18952 net.cpp:425] inception_5b/relu_3x3_reduce <- inception_5b/3x3_reduce
I0403 19:10:10.448971 18952 net.cpp:386] inception_5b/relu_3x3_reduce -> inception_5b/3x3_reduce (in-place)
I0403 19:10:10.449159 18952 net.cpp:141] Setting up inception_5b/relu_3x3_reduce
I0403 19:10:10.449183 18952 net.cpp:148] Top shape: 24 192 7 7 (225792)
I0403 19:10:10.449198 18952 net.cpp:156] Memory required for data: 1330660896
I0403 19:10:10.449213 18952 layer_factory.hpp:77] Creating layer inception_5b/3x3
I0403 19:10:10.449235 18952 net.cpp:91] Creating Layer inception_5b/3x3
I0403 19:10:10.449252 18952 net.cpp:425] inception_5b/3x3 <- inception_5b/3x3_reduce
I0403 19:10:10.449272 18952 net.cpp:399] inception_5b/3x3 -> inception_5b/3x3
I0403 19:10:10.455888 18952 net.cpp:141] Setting up inception_5b/3x3
I0403 19:10:10.455915 18952 net.cpp:148] Top shape: 24 384 7 7 (451584)
I0403 19:10:10.455930 18952 net.cpp:156] Memory required for data: 1332467232
I0403 19:10:10.455952 18952 layer_factory.hpp:77] Creating layer inception_5b/relu_3x3
I0403 19:10:10.455971 18952 net.cpp:91] Creating Layer inception_5b/relu_3x3
I0403 19:10:10.455988 18952 net.cpp:425] inception_5b/relu_3x3 <- inception_5b/3x3
I0403 19:10:10.456008 18952 net.cpp:386] inception_5b/relu_3x3 -> inception_5b/3x3 (in-place)
I0403 19:10:10.456302 18952 net.cpp:141] Setting up inception_5b/relu_3x3
I0403 19:10:10.456327 18952 net.cpp:148] Top shape: 24 384 7 7 (451584)
I0403 19:10:10.456342 18952 net.cpp:156] Memory required for data: 1334273568
I0403 19:10:10.456357 18952 layer_factory.hpp:77] Creating layer inception_5b/5x5_reduce
I0403 19:10:10.456394 18952 net.cpp:91] Creating Layer inception_5b/5x5_reduce
I0403 19:10:10.456413 18952 net.cpp:425] inception_5b/5x5_reduce <- inception_5a/output_inception_5a/output_0_split_2
I0403 19:10:10.456436 18952 net.cpp:399] inception_5b/5x5_reduce -> inception_5b/5x5_reduce
I0403 19:10:10.457684 18952 net.cpp:141] Setting up inception_5b/5x5_reduce
I0403 19:10:10.457710 18952 net.cpp:148] Top shape: 24 48 7 7 (56448)
I0403 19:10:10.457726 18952 net.cpp:156] Memory required for data: 1334499360
I0403 19:10:10.457743 18952 layer_factory.hpp:77] Creating layer inception_5b/relu_5x5_reduce
I0403 19:10:10.457762 18952 net.cpp:91] Creating Layer inception_5b/relu_5x5_reduce
I0403 19:10:10.457777 18952 net.cpp:425] inception_5b/relu_5x5_reduce <- inception_5b/5x5_reduce
I0403 19:10:10.457798 18952 net.cpp:386] inception_5b/relu_5x5_reduce -> inception_5b/5x5_reduce (in-place)
I0403 19:10:10.458173 18952 net.cpp:141] Setting up inception_5b/relu_5x5_reduce
I0403 19:10:10.458199 18952 net.cpp:148] Top shape: 24 48 7 7 (56448)
I0403 19:10:10.458214 18952 net.cpp:156] Memory required for data: 1334725152
I0403 19:10:10.458228 18952 layer_factory.hpp:77] Creating layer inception_5b/5x5
I0403 19:10:10.458250 18952 net.cpp:91] Creating Layer inception_5b/5x5
I0403 19:10:10.458266 18952 net.cpp:425] inception_5b/5x5 <- inception_5b/5x5_reduce
I0403 19:10:10.458284 18952 net.cpp:399] inception_5b/5x5 -> inception_5b/5x5
I0403 19:10:10.460285 18952 net.cpp:141] Setting up inception_5b/5x5
I0403 19:10:10.460312 18952 net.cpp:148] Top shape: 24 128 7 7 (150528)
I0403 19:10:10.460327 18952 net.cpp:156] Memory required for data: 1335327264
I0403 19:10:10.460346 18952 layer_factory.hpp:77] Creating layer inception_5b/relu_5x5
I0403 19:10:10.460366 18952 net.cpp:91] Creating Layer inception_5b/relu_5x5
I0403 19:10:10.460382 18952 net.cpp:425] inception_5b/relu_5x5 <- inception_5b/5x5
I0403 19:10:10.460399 18952 net.cpp:386] inception_5b/relu_5x5 -> inception_5b/5x5 (in-place)
I0403 19:10:10.460589 18952 net.cpp:141] Setting up inception_5b/relu_5x5
I0403 19:10:10.460615 18952 net.cpp:148] Top shape: 24 128 7 7 (150528)
I0403 19:10:10.460631 18952 net.cpp:156] Memory required for data: 1335929376
I0403 19:10:10.460646 18952 layer_factory.hpp:77] Creating layer inception_5b/pool
I0403 19:10:10.460664 18952 net.cpp:91] Creating Layer inception_5b/pool
I0403 19:10:10.460680 18952 net.cpp:425] inception_5b/pool <- inception_5a/output_inception_5a/output_0_split_3
I0403 19:10:10.460700 18952 net.cpp:399] inception_5b/pool -> inception_5b/pool
I0403 19:10:10.460772 18952 net.cpp:141] Setting up inception_5b/pool
I0403 19:10:10.460794 18952 net.cpp:148] Top shape: 24 832 7 7 (978432)
I0403 19:10:10.460808 18952 net.cpp:156] Memory required for data: 1339843104
I0403 19:10:10.460822 18952 layer_factory.hpp:77] Creating layer inception_5b/pool_proj
I0403 19:10:10.460844 18952 net.cpp:91] Creating Layer inception_5b/pool_proj
I0403 19:10:10.460861 18952 net.cpp:425] inception_5b/pool_proj <- inception_5b/pool
I0403 19:10:10.460882 18952 net.cpp:399] inception_5b/pool_proj -> inception_5b/pool_proj
I0403 19:10:10.463210 18952 net.cpp:141] Setting up inception_5b/pool_proj
I0403 19:10:10.463239 18952 net.cpp:148] Top shape: 24 128 7 7 (150528)
I0403 19:10:10.463255 18952 net.cpp:156] Memory required for data: 1340445216
I0403 19:10:10.463274 18952 layer_factory.hpp:77] Creating layer inception_5b/relu_pool_proj
I0403 19:10:10.463294 18952 net.cpp:91] Creating Layer inception_5b/relu_pool_proj
I0403 19:10:10.463312 18952 net.cpp:425] inception_5b/relu_pool_proj <- inception_5b/pool_proj
I0403 19:10:10.463330 18952 net.cpp:386] inception_5b/relu_pool_proj -> inception_5b/pool_proj (in-place)
I0403 19:10:10.463629 18952 net.cpp:141] Setting up inception_5b/relu_pool_proj
I0403 19:10:10.463655 18952 net.cpp:148] Top shape: 24 128 7 7 (150528)
I0403 19:10:10.463670 18952 net.cpp:156] Memory required for data: 1341047328
I0403 19:10:10.463685 18952 layer_factory.hpp:77] Creating layer inception_5b/output
I0403 19:10:10.463704 18952 net.cpp:91] Creating Layer inception_5b/output
I0403 19:10:10.463734 18952 net.cpp:425] inception_5b/output <- inception_5b/1x1
I0403 19:10:10.463752 18952 net.cpp:425] inception_5b/output <- inception_5b/3x3
I0403 19:10:10.463769 18952 net.cpp:425] inception_5b/output <- inception_5b/5x5
I0403 19:10:10.463786 18952 net.cpp:425] inception_5b/output <- inception_5b/pool_proj
I0403 19:10:10.463805 18952 net.cpp:399] inception_5b/output -> inception_5b/output
I0403 19:10:10.463858 18952 net.cpp:141] Setting up inception_5b/output
I0403 19:10:10.463884 18952 net.cpp:148] Top shape: 24 1024 7 7 (1204224)
I0403 19:10:10.463901 18952 net.cpp:156] Memory required for data: 1345864224
I0403 19:10:10.463917 18952 layer_factory.hpp:77] Creating layer pool5/7x7_s1
I0403 19:10:10.463934 18952 net.cpp:91] Creating Layer pool5/7x7_s1
I0403 19:10:10.463954 18952 net.cpp:425] pool5/7x7_s1 <- inception_5b/output
I0403 19:10:10.463978 18952 net.cpp:399] pool5/7x7_s1 -> pool5/7x7_s1
I0403 19:10:10.464195 18952 net.cpp:141] Setting up pool5/7x7_s1
I0403 19:10:10.464222 18952 net.cpp:148] Top shape: 24 1024 1 1 (24576)
I0403 19:10:10.464237 18952 net.cpp:156] Memory required for data: 1345962528
I0403 19:10:10.464252 18952 layer_factory.hpp:77] Creating layer pool5/drop_7x7_s1
I0403 19:10:10.464270 18952 net.cpp:91] Creating Layer pool5/drop_7x7_s1
I0403 19:10:10.464290 18952 net.cpp:425] pool5/drop_7x7_s1 <- pool5/7x7_s1
I0403 19:10:10.464308 18952 net.cpp:386] pool5/drop_7x7_s1 -> pool5/7x7_s1 (in-place)
I0403 19:10:10.464359 18952 net.cpp:141] Setting up pool5/drop_7x7_s1
I0403 19:10:10.464385 18952 net.cpp:148] Top shape: 24 1024 1 1 (24576)
I0403 19:10:10.464400 18952 net.cpp:156] Memory required for data: 1346060832
I0403 19:10:10.464416 18952 layer_factory.hpp:77] Creating layer loss3/classifier_plantvillage
I0403 19:10:10.464434 18952 net.cpp:91] Creating Layer loss3/classifier_plantvillage
I0403 19:10:10.464450 18952 net.cpp:425] loss3/classifier_plantvillage <- pool5/7x7_s1
I0403 19:10:10.464471 18952 net.cpp:399] loss3/classifier_plantvillage -> loss3/classifier_plantvillage
I0403 19:10:10.464901 18952 net.cpp:141] Setting up loss3/classifier_plantvillage
I0403 19:10:10.464927 18952 net.cpp:148] Top shape: 24 38 (912)
I0403 19:10:10.464941 18952 net.cpp:156] Memory required for data: 1346064480
I0403 19:10:10.464964 18952 layer_factory.hpp:77] Creating layer loss3/classifier_plantvillage_loss3/classifier_plantvillage_0_split
I0403 19:10:10.464983 18952 net.cpp:91] Creating Layer loss3/classifier_plantvillage_loss3/classifier_plantvillage_0_split
I0403 19:10:10.464999 18952 net.cpp:425] loss3/classifier_plantvillage_loss3/classifier_plantvillage_0_split <- loss3/classifier_plantvillage
I0403 19:10:10.465018 18952 net.cpp:399] loss3/classifier_plantvillage_loss3/classifier_plantvillage_0_split -> loss3/classifier_plantvillage_loss3/classifier_plantvillage_0_split_0
I0403 19:10:10.465040 18952 net.cpp:399] loss3/classifier_plantvillage_loss3/classifier_plantvillage_0_split -> loss3/classifier_plantvillage_loss3/classifier_plantvillage_0_split_1
I0403 19:10:10.465062 18952 net.cpp:399] loss3/classifier_plantvillage_loss3/classifier_plantvillage_0_split -> loss3/classifier_plantvillage_loss3/classifier_plantvillage_0_split_2
I0403 19:10:10.465082 18952 net.cpp:399] loss3/classifier_plantvillage_loss3/classifier_plantvillage_0_split -> loss3/classifier_plantvillage_loss3/classifier_plantvillage_0_split_3
I0403 19:10:10.465186 18952 net.cpp:141] Setting up loss3/classifier_plantvillage_loss3/classifier_plantvillage_0_split
I0403 19:10:10.465211 18952 net.cpp:148] Top shape: 24 38 (912)
I0403 19:10:10.465227 18952 net.cpp:148] Top shape: 24 38 (912)
I0403 19:10:10.465245 18952 net.cpp:148] Top shape: 24 38 (912)
I0403 19:10:10.465260 18952 net.cpp:148] Top shape: 24 38 (912)
I0403 19:10:10.465275 18952 net.cpp:156] Memory required for data: 1346079072
I0403 19:10:10.465289 18952 layer_factory.hpp:77] Creating layer loss1/loss
I0403 19:10:10.465314 18952 net.cpp:91] Creating Layer loss1/loss
I0403 19:10:10.465332 18952 net.cpp:425] loss1/loss <- loss1/classifier_plantvillage_loss1/classifier_plantvillage_0_split_0
I0403 19:10:10.465363 18952 net.cpp:425] loss1/loss <- label_data_1_split_0
…
