…
I0403 19:01:48.497161 18491 net.cpp:313] The NetState phase (1) differed from the phase (0) specified by a rule in layer data
I0403 19:01:48.498344 18491 net.cpp:49] Initializing net from parameters: 
state {
  phase: TEST
}
layer {
  name: "data"
  type: "Data"
  top: "data"
  top: "label"
  include {
    phase: TEST
  }
  transform_param {
    mirror: false
    crop_size: 224
    mean_file: "/home/mohanty/data/final_dataset/lmdb/segmented-60-40/mean.binaryproto"
  }
  data_param {
    source: "/home/mohanty/data/final_dataset/lmdb/segmented-60-40/test_db"
    batch_size: 24
    backend: LMDB
  }
}
layer {
  name: "conv1/7x7_s2"
  type: "Convolution"
  bottom: "data"
  top: "conv1/7x7_s2"
  param {
    lr_mult: 1
    decay_mult: 1
  }
  param {
    lr_mult: 2
    decay_mult: 0
  }
  convolution_param {
    num_output: 64
    pad: 3
    kernel_size: 7
    stride: 2
    weight_filler {
      type: "xavier"
      std: 0.1
    }
    bias_filler {
      type: "constant"
      value: 0.2
    }
  }
}
layer {
  name: "conv1/relu_7x7"
  type: "ReLU"
  bottom: "conv1/7x7_s2"
  top: "conv1/7x7_s2"
}
layer {
  name: "pool1/3x3_s2"
  type: "Pooling"
  bottom: "conv1/7x7_s2"
  top: "pool1/3x3_s2"
  pooling_param {
    pool: MAX
    kernel_size: 3
    stride: 2
  }
}
layer {
  name: "pool1/norm1"
  type: "LRN"
  bottom: "pool1/3x3_s2"
  top: "pool1/norm1"
  lrn_param {
    local_size: 5
    alpha: 0.0001
    beta: 0.75
  }
}
layer {
  name: "conv2/3x3_reduce"
  type: "Convolution"
  bottom: "pool1/norm1"
  top: "conv2/3x3_reduce"
  param {
    lr_mult: 1
    decay_mult: 1
  }
  param {
    lr_mult: 2
    decay_mult: 0
  }
  convolution_param {
    num_output: 64
    kernel_size: 1
    weight_filler {
      type: "xavier"
      std: 0.1
    }
    bias_filler {
      type: "constant"
      value: 0.2
    }
  }
}
layer {
  name: "conv2/relu_3x3_reduce"
  type: "ReLU"
  bottom: "conv2/3x3_reduce"
  top: "conv2/3x3_reduce"
}
layer {
  name: "conv2/3x3"
  type: "Convolution"
  bottom: "conv2/3x3_reduce"
  top: "conv2/3x3"
  param {
    lr_mult: 1
    decay_mult: 1
  }
  param {
    lr_mult: 2
    decay_mult: 0
  }
  convolution_param {
    num_output: 192
    pad: 1
    kernel_size: 3
    weight_filler {
      type: "xavier"
      std: 0.03
    }
    bias_filler {
      type: "constant"
      value: 0.2
    }
  }
}
layer {
  name: "conv2/relu_3x3"
  type: "ReLU"
  bottom: "conv2/3x3"
  top: "conv2/3x3"
}
layer {
  name: "conv2/norm2"
  type: "LRN"
  bottom: "conv2/3x3"
  top: "conv2/norm2"
  lrn_param {
    local_size: 5
    alpha: 0.0001
    beta: 0.75
  }
}
layer {
  name: "pool2/3x3_s2"
  type: "Pooling"
  bottom: "conv2/norm2"
  top: "pool2/3x3_s2"
  pooling_param {
    pool: MAX
    kernel_size: 3
    stride: 2
  }
}
layer {
  name: "inception_3a/1x1"
  type: "Convolution"
  bottom: "pool2/3x3_s2"
  top: "inception_3a/1x1"
  param {
    lr_mult: 1
    decay_mult: 1
  }
  param {
    lr_mult: 2
    decay_mult: 0
  }
  convolution_param {
    num_output: 64
    kernel_size: 1
    weight_filler {
      type: "xavier"
      std: 0.03
    }
    bias_filler {
      type: "constant"
      value: 0.2
    }
  }
}
layer {
  name: "inception_3a/relu_1x1"
  type: "ReLU"
  bottom: "inception_3a/1x1"
  top: "inception_3a/1x1"
}
layer {
  name: "inception_3a/3x3_reduce"
  type: "Convolution"
  bottom: "pool2/3x3_s2"
  top: "inception_3a/3x3_reduce"
  param {
    lr_mult: 1
    decay_mult: 1
  }
  param {
    lr_mult: 2
    decay_mult: 0
  }
  convolution_param {
    num_output: 96
    kernel_size: 1
    weight_filler {
      type: "xavier"
      std: 0.09
    }
    bias_filler {
      type: "constant"
      value: 0.2
    }
  }
}
layer {
  name: "inception_3a/relu_3x3_reduce"
  type: "ReLU"
  bottom: "inception_3a/3x3_reduce"
  top: "inception_3a/3x3_reduce"
}
layer {
  name: "inception_3a/3x3"
  type: "Convolution"
  bottom: "inception_3a/3x3_reduce"
  top: "inception_3a/3x3"
  param {
    lr_mult: 1
    decay_mult: 1
  }
  param {
    lr_mult: 2
    decay_mult: 0
  }
  convolution_param {
    num_output: 128
    pad: 1
    kernel_size: 3
    weight_filler {
      type: "xavier"
      std: 0.03
    }
    bias_filler {
      type: "constant"
      value: 0.2
    }
  }
}
layer {
  name: "inception_3a/relu_3x3"
  type: "ReLU"
  bottom: "inception_3a/3x3"
  top: "inception_3a/3x3"
}
layer {
  name: "inception_3a/5x5_reduce"
  type: "Convolution"
  bottom: "pool2/3x3_s2"
  top: "inception_3a/5x5_reduce"
  param {
    lr_mult: 1
    decay_mult: 1
  }
  param {
    lr_mult: 2
    decay_mult: 0
  }
  convolution_param {
    num_output: 16
    kernel_size: 1
    weight_filler {
      type: "xavier"
      std: 0.2
    }
    bias_filler {
      type: "constant"
      value: 0.2
    }
  }
}
layer {
  name: "inception_3a/relu_5x5_reduce"
  type: "ReLU"
  bottom: "inception_3a/5x5_reduce"
  top: "inception_3a/5x5_reduce"
}
layer {
  name: "inception_3a/5x5"
  type: "Convolution"
  bottom: "inception_3a/5x5_reduce"
  top: "inception_3a/5x5"
  param {
    lr_mult: 1
    decay_mult: 1
  }
  param {
    lr_mult: 2
    decay_mult: 0
  }
  convolution_param {
    num_output: 32
    pad: 2
    kernel_size: 5
    weight_filler {
      type: "xavier"
      std: 0.03
    }
    bias_filler {
      type: "constant"
      value: 0.2
    }
  }
}
layer {
  name: "inception_3a/relu_5x5"
  type: "ReLU"
  bottom: "inception_3a/5x5"
  top: "inception_3a/5x5"
}
layer {
  name: "inception_3a/pool"
  type: "Pooling"
  bottom: "pool2/3x3_s2"
  top: "inception_3a/pool"
  pooling_param {
    pool: MAX
    kernel_size: 3
    stride: 1
    pad: 1
  }
}
layer {
  name: "inception_3a/pool_proj"
  type: "Convolution"
  bottom: "inception_3a/pool"
  top: "inception_3a/pool_proj"
  param {
    lr_mult: 1
    decay_mult: 1
  }
  param {
    lr_mult: 2
    decay_mult: 0
  }
  convolution_param {
    num_output: 32
    kernel_size: 1
    weight_filler {
      type: "xavier"
      std: 0.1
    }
    bias_filler {
      type: "constant"
      value: 0.2
    }
  }
}
layer {
  name: "inception_3a/relu_pool_proj"
  type: "ReLU"
  bottom: "inception_3a/pool_proj"
  top: "inception_3a/pool_proj"
}
layer {
  name: "inception_3a/output"
  type: "Concat"
  bottom: "inception_3a/1x1"
  bottom: "inception_3a/3x3"
  bottom: "inception_3a/5x5"
  bottom: "inception_3a/pool_proj"
  top: "inception_3a/output"
}
layer {
  name: "inception_3b/1x1"
  type: "Convolution"
  bottom: "inception_3a/output"
  top: "inception_3b/1x1"
  param {
    lr_mult: 1
    decay_mult: 1
  }
  param {
    lr_mult: 2
    decay_mult: 0
  }
  convolution_param {
    num_output: 128
    kernel_size: 1
    weight_filler {
      type: "xavier"
      std: 0.03
    }
    bias_filler {
      type: "constant"
      value: 0.2
    }
  }
}
layer {
  name: "inception_3b/relu_1x1"
  type: "ReLU"
  bottom: "inception_3b/1x1"
  top: "inception_3b/1x1"
}
layer {
  name: "inception_3b/3x3_reduce"
  type: "Convolution"
  bottom: "inception_3a/output"
  top: "inception_3b/3x3_reduce"
  param {
    lr_mult: 1
    decay_mult: 1
  }
  param {
    lr_mult: 2
    decay_mult: 0
  }
  convolution_param {
    num_output: 128
    kernel_size: 1
    weight_filler {
      type: "xavier"
      std: 0.09
    }
    bias_filler {
      type: "constant"
      value: 0.2
    }
  }
}
layer {
  name: "inception_3b/relu_3x3_reduce"
  type: "ReLU"
  bottom: "inception_3b/3x3_reduce"
  top: "inception_3b/3x3_reduce"
}
layer {
  name: "inception_3b/3x3"
  type: "Convolution"
  bottom: "inception_3b/3x3_reduce"
  top: "inception_3b/3x3"
  param {
    lr_mult: 1
    decay_mult: 1
  }
  param {
    lr_mult: 2
    decay_mult: 0
  }
  convolution_param {
    num_output: 192
    pad: 1
    kernel_size: 3
    weight_filler {
      type: "xavier"
      std: 0.03
    }
    bias_filler {
      type: "constant"
      value: 0.2
    }
  }
}
layer {
  name: "inception_3b/relu_3x3"
  type: "ReLU"
  bottom: "inception_3b/3x3"
  top: "inception_3b/3x3"
}
layer {
  name: "inception_3b/5x5_reduce"
  type: "Convolution"
  bottom: "inception_3a/output"
  top: "inception_3b/5x5_reduce"
  param {
    lr_mult: 1
    decay_mult: 1
  }
  param {
    lr_mult: 2
    decay_mult: 0
  }
  convolution_param {
    num_output: 32
    kernel_size: 1
    weight_filler {
      type: "xavier"
      std: 0.2
    }
    bias_filler {
      type: "constant"
      value: 0.2
    }
  }
}
layer {
  name: "inception_3b/relu_5x5_reduce"
  type: "ReLU"
  bottom: "inception_3b/5x5_reduce"
  top: "inception_3b/5x5_reduce"
}
layer {
  name: "inception_3b/5x5"
  type: "Convolution"
  bottom: "inception_3b/5x5_reduce"
  top: "inception_3b/5x5"
  param {
    lr_mult: 1
    decay_mult: 1
  }
  param {
    lr_mult: 2
    decay_mult: 0
  }
  convolution_param {
    num_output: 96
    pad: 2
    kernel_size: 5
    weight_filler {
      type: "xavier"
      std: 0.03
    }
    bias_filler {
      type: "constant"
      value: 0.2
    }
  }
}
layer {
  name: "inception_3b/relu_5x5"
  type: "ReLU"
  bottom: "inception_3b/5x5"
  top: "inception_3b/5x5"
}
layer {
  name: "inception_3b/pool"
  type: "Pooling"
  bottom: "inception_3a/output"
  top: "inception_3b/pool"
  pooling_param {
    pool: MAX
    kernel_size: 3
    stride: 1
    pad: 1
  }
}
layer {
  name: "inception_3b/pool_proj"
  type: "Convolution"
  bottom: "inception_3b/pool"
  top: "inception_3b/pool_proj"
  param {
    lr_mult: 1
    decay_mult: 1
  }
  param {
    lr_mult: 2
    decay_mult: 0
  }
  convolution_param {
    num_output: 64
    kernel_size: 1
    weight_filler {
      type: "xavier"
      std: 0.1
    }
    bias_filler {
      type: "constant"
      value: 0.2
    }
  }
}
layer {
  name: "inception_3b/relu_pool_proj"
  type: "ReLU"
  bottom: "inception_3b/pool_proj"
  top: "inception_3b/pool_proj"
}
layer {
  name: "inception_3b/output"
  type: "Concat"
  bottom: "inception_3b/1x1"
  bottom: "inception_3b/3x3"
  bottom: "inception_3b/5x5"
  bottom: "inception_3b/pool_proj"
  top: "inception_3b/output"
}
layer {
  name: "pool3/3x3_s2"
  type: "Pooling"
  bottom: "inception_3b/output"
  top: "pool3/3x3_s2"
  pooling_param {
    pool: MAX
    kernel_size: 3
    stride: 2
  }
}
layer {
  name: "inception_4a/1x1"
  type: "Convolution"
  bottom: "pool3/3x3_s2"
  top: "inception_4a/1x1"
  param {
    lr_mult: 1
    decay_mult: 1
  }
  param {
    lr_mult: 2
    decay_mult: 0
  }
  convolution_param {
    num_output: 192
    kernel_size: 1
    weight_filler {
      type: "xavier"
      std: 0.03
    }
    bias_filler {
      type: "constant"
      value: 0.2
    }
  }
}
layer {
  name: "inception_4a/relu_1x1"
  type: "ReLU"
  bottom: "inception_4a/1x1"
  top: "inception_4a/1x1"
}
layer {
  name: "inception_4a/3x3_reduce"
  type: "Convolution"
  bottom: "pool3/3x3_s2"
  top: "inception_4a/3x3_reduce"
  param {
    lr_mult: 1
    decay_mult: 1
  }
  param {
    lr_mult: 2
    decay_mult: 0
  }
  convolution_param {
    num_output: 96
    kernel_size: 1
    weight_filler {
      type: "xavier"
      std: 0.09
    }
    bias_filler {
      type: "constant"
      value: 0.2
    }
  }
}
layer {
  name: "inception_4a/relu_3x3_reduce"
  type: "ReLU"
  bottom: "inception_4a/3x3_reduce"
  top: "inception_4a/3x3_reduce"
}
layer {
  name: "inception_4a/3x3"
  type: "Convolution"
  bottom: "inception_4a/3x3_reduce"
  top: "inception_4a/3x3"
  param {
    lr_mult: 1
    decay_mult: 1
  }
  param {
    lr_mult: 2
    decay_mult: 0
  }
  convolution_param {
    num_output: 208
    pad: 1
    kernel_size: 3
    weight_filler {
      type: "xavier"
      std: 0.03
    }
    bias_filler {
      type: "constant"
      value: 0.2
    }
  }
}
layer {
  name: "inception_4a/relu_3x3"
  type: "ReLU"
  bottom: "inception_4a/3x3"
  top: "inception_4a/3x3"
}
layer {
  name: "inception_4a/5x5_reduce"
  type: "Convolution"
  bottom: "pool3/3x3_s2"
  top: "inception_4a/5x5_reduce"
  param {
    lr_mult: 1
    decay_mult: 1
  }
  param {
    lr_mult: 2
    decay_mult: 0
  }
  convolution_param {
    num_output: 16
    kernel_size: 1
    weight_filler {
      type: "xavier"
      std: 0.2
    }
    bias_filler {
      type: "constant"
      value: 0.2
    }
  }
}
layer {
  name: "inception_4a/relu_5x5_reduce"
  type: "ReLU"
  bottom: "inception_4a/5x5_reduce"
  top: "inception_4a/5x5_reduce"
}
layer {
  name: "inception_4a/5x5"
  type: "Convolution"
  bottom: "inception_4a/5x5_reduce"
  top: "inception_4a/5x5"
  param {
    lr_mult: 1
    decay_mult: 1
  }
  param {
    lr_mult: 2
    decay_mult: 0
  }
  convolution_param {
    num_output: 48
    pad: 2
    kernel_size: 5
    weight_filler {
      type: "xavier"
      std: 0.03
    }
    bias_filler {
      type: "constant"
      value: 0.2
    }
  }
}
layer {
  name: "inception_4a/relu_5x5"
  type: "ReLU"
  bottom: "inception_4a/5x5"
  top: "inception_4a/5x5"
}
layer {
  name: "inception_4a/pool"
  type: "Pooling"
  bottom: "pool3/3x3_s2"
  top: "inception_4a/pool"
  pooling_param {
    pool: MAX
    kernel_size: 3
    stride: 1
    pad: 1
  }
}
layer {
  name: "inception_4a/pool_proj"
  type: "Convolution"
  bottom: "inception_4a/pool"
  top: "inception_4a/pool_proj"
  param {
    lr_mult: 1
    decay_mult: 1
  }
  param {
    lr_mult: 2
    decay_mult: 0
  }
  convolution_param {
    num_output: 64
    kernel_size: 1
    weight_filler {
      type: "xavier"
      std: 0.1
    }
    bias_filler {
      type: "constant"
      value: 0.2
    }
  }
}
layer {
  name: "inception_4a/relu_pool_proj"
  type: "ReLU"
  bottom: "inception_4a/pool_proj"
  top: "inception_4a/pool_proj"
}
layer {
  name: "inception_4a/output"
  type: "Concat"
  bottom: "inception_4a/1x1"
  bottom: "inception_4a/3x3"
  bottom: "inception_4a/5x5"
  bottom: "inception_4a/pool_proj"
  top: "inception_4a/output"
}
layer {
  name: "loss1/ave_pool"
  type: "Pooling"
  bottom: "inception_4a/output"
  top: "loss1/ave_pool"
  pooling_param {
    pool: AVE
    kernel_size: 5
    stride: 3
  }
}
layer {
  name: "loss1/conv"
  type: "Convolution"
  bottom: "loss1/ave_pool"
  top: "loss1/conv"
  param {
    lr_mult: 1
    decay_mult: 1
  }
  param {
    lr_mult: 2
    decay_mult: 0
  }
  convolution_param {
    num_output: 128
    kernel_size: 1
    weight_filler {
      type: "xavier"
      std: 0.08
    }
    bias_filler {
      type: "constant"
      value: 0.2
    }
  }
}
layer {
  name: "loss1/relu_conv"
  type: "ReLU"
  bottom: "loss1/conv"
  top: "loss1/conv"
}
layer {
  name: "loss1/fc"
  type: "InnerProduct"
  bottom: "loss1/conv"
  top: "loss1/fc"
  param {
    lr_mult: 1
    decay_mult: 1
  }
  param {
    lr_mult: 2
    decay_mult: 0
  }
  inner_product_param {
    num_output: 1024
    weight_filler {
      type: "xavier"
      std: 0.02
    }
    bias_filler {
      type: "constant"
      value: 0.2
    }
  }
}
layer {
  name: "loss1/relu_fc"
  type: "ReLU"
  bottom: "loss1/fc"
  top: "loss1/fc"
}
layer {
  name: "loss1/drop_fc"
  type: "Dropout"
  bottom: "loss1/fc"
  top: "loss1/fc"
  dropout_param {
    dropout_ratio: 0.7
  }
}
layer {
  name: "loss1/classifier_plantvillage"
  type: "InnerProduct"
  bottom: "loss1/fc"
  top: "loss1/classifier_plantvillage"
  param {
    lr_mult: 1
    decay_mult: 1
  }
  param {
    lr_mult: 2
    decay_mult: 0
  }
  inner_product_param {
    num_output: 38
    weight_filler {
      type: "xavier"
      std: 0.0009765625
    }
    bias_filler {
      type: "constant"
      value: 0
    }
  }
}
layer {
  name: "inception_4b/1x1"
  type: "Convolution"
  bottom: "inception_4a/output"
  top: "inception_4b/1x1"
  param {
    lr_mult: 1
    decay_mult: 1
  }
  param {
    lr_mult: 2
    decay_mult: 0
  }
  convolution_param {
    num_output: 160
    kernel_size: 1
    weight_filler {
      type: "xavier"
      std: 0.03
    }
    bias_filler {
      type: "constant"
      value: 0.2
    }
  }
}
layer {
  name: "inception_4b/relu_1x1"
  type: "ReLU"
  bottom: "inception_4b/1x1"
  top: "inception_4b/1x1"
}
layer {
  name: "inception_4b/3x3_reduce"
  type: "Convolution"
  bottom: "inception_4a/output"
  top: "inception_4b/3x3_reduce"
  param {
    lr_mult: 1
    decay_mult: 1
  }
  param {
    lr_mult: 2
    decay_mult: 0
  }
  convolution_param {
    num_output: 112
    kernel_size: 1
    weight_filler {
      type: "xavier"
      std: 0.09
    }
    bias_filler {
      type: "constant"
      value: 0.2
    }
  }
}
layer {
  name: "inception_4b/relu_3x3_reduce"
  type: "ReLU"
  bottom: "inception_4b/3x3_reduce"
  top: "inception_4b/3x3_reduce"
}
layer {
  name: "inception_4b/3x3"
  type: "Convolution"
  bottom: "inception_4b/3x3_reduce"
  top: "inception_4b/3x3"
  param {
    lr_mult: 1
    decay_mult: 1
  }
  param {
    lr_mult: 2
    decay_mult: 0
  }
  convolution_param {
    num_output: 224
    pad: 1
    kernel_size: 3
    weight_filler {
      type: "xavier"
      std: 0.03
    }
    bias_filler {
      type: "constant"
      value: 0.2
    }
  }
}
layer {
  name: "inception_4b/relu_3x3"
  type: "ReLU"
  bottom: "inception_4b/3x3"
  top: "inception_4b/3x3"
}
layer {
  name: "inception_4b/5x5_reduce"
  type: "Convolution"
  bottom: "inception_4a/output"
  top: "inception_4b/5x5_reduce"
  param {
    lr_mult: 1
    decay_mult: 1
  }
  param {
    lr_mult: 2
    decay_mult: 0
  }
  convolution_param {
    num_output: 24
    kernel_size: 1
    weight_filler {
      type: "xavier"
      std: 0.2
    }
    bias_filler {
      type: "constant"
      value: 0.2
    }
  }
}
layer {
  name: "inception_4b/relu_5x5_reduce"
  type: "ReLU"
  bottom: "inception_4b/5x5_reduce"
  top: "inception_4b/5x5_reduce"
}
layer {
  name: "inception_4b/5x5"
  type: "Convolution"
  bottom: "inception_4b/5x5_reduce"
  top: "inception_4b/5x5"
  param {
    lr_mult: 1
    decay_mult: 1
  }
  param {
    lr_mult: 2
    decay_mult: 0
  }
  convolution_param {
    num_output: 64
    pad: 2
    kernel_size: 5
    weight_filler {
      type: "xavier"
      std: 0.03
    }
    bias_filler {
      type: "constant"
      value: 0.2
    }
  }
}
layer {
  name: "inception_4b/relu_5x5"
  type: "ReLU"
  bottom: "inception_4b/5x5"
  top: "inception_4b/5x5"
}
layer {
  name: "inception_4b/pool"
  type: "Pooling"
  bottom: "inception_4a/output"
  top: "inception_4b/pool"
  pooling_param {
    pool: MAX
    kernel_size: 3
    stride: 1
    pad: 1
  }
}
layer {
  name: "inception_4b/pool_proj"
  type: "Convolution"
  bottom: "inception_4b/pool"
  top: "inception_4b/pool_proj"
  param {
    lr_mult: 1
    decay_mult: 1
  }
  param {
    lr_mult: 2
    decay_mult: 0
  }
  convolution_param {
    num_output: 64
    kernel_size: 1
    weight_filler {
      type: "xavier"
      std: 0.1
    }
    bias_filler {
      type: "constant"
      value: 0.2
    }
  }
}
layer {
  name: "inception_4b/relu_pool_proj"
  type: "ReLU"
  bottom: "inception_4b/pool_proj"
  top: "inception_4b/pool_proj"
}
layer {
  name: "inception_4b/output"
  type: "Concat"
  bottom: "inception_4b/1x1"
  bottom: "inception_4b/3x3"
  bottom: "inception_4b/5x5"
  bottom: "inception_4b/pool_proj"
  top: "inception_4b/output"
}
layer {
  name: "inception_4c/1x1"
  type: "Convolution"
  bottom: "inception_4b/output"
  top: "inception_4c/1x1"
  param {
    lr_mult: 1
    decay_mult: 1
  }
  param {
    lr_mult: 2
    decay_mult: 0
  }
  convolution_param {
    num_output: 128
    kernel_size: 1
    weight_filler {
      type: "xavier"
      std: 0.03
    }
    bias_filler {
      type: "constant"
      value: 0.2
    }
  }
}
layer {
  name: "inception_4c/relu_1x1"
  type: "ReLU"
  bottom: "inception_4c/1x1"
  top: "inception_4c/1x1"
}
layer {
  name: "inception_4c/3x3_reduce"
  type: "Convolution"
  bottom: "inception_4b/output"
  top: "inception_4c/3x3_reduce"
  param {
    lr_mult: 1
    decay_mult: 1
  }
  param {
    lr_mult: 2
    decay_mult: 0
  }
  convolution_param {
    num_output: 128
    kernel_size: 1
    weight_filler {
      type: "xavier"
      std: 0.09
    }
    bias_filler {
      type: "constant"
      value: 0.2
    }
  }
}
layer {
  name: "inception_4c/relu_3x3_reduce"
  type: "ReLU"
  bottom: "inception_4c/3x3_reduce"
  top: "inception_4c/3x3_reduce"
}
layer {
  name: "inception_4c/3x3"
  type: "Convolution"
  bottom: "inception_4c/3x3_reduce"
  top: "inception_4c/3x3"
  param {
    lr_mult: 1
    decay_mult: 1
  }
  param {
    lr_mult: 2
    decay_mult: 0
  }
  convolution_param {
    num_output: 256
    pad: 1
    kernel_size: 3
    weight_filler {
      type: "xavier"
      std: 0.03
    }
    bias_filler {
      type: "constant"
      value: 0.2
    }
  }
}
layer {
  name: "inception_4c/relu_3x3"
  type: "ReLU"
  bottom: "inception_4c/3x3"
  top: "inception_4c/3x3"
}
layer {
  name: "inception_4c/5x5_reduce"
  type: "Convolution"
  bottom: "inception_4b/output"
  top: "inception_4c/5x5_reduce"
  param {
    lr_mult: 1
    decay_mult: 1
  }
  param {
    lr_mult: 2
    decay_mult: 0
  }
  convolution_param {
    num_output: 24
    kernel_size: 1
    weight_filler {
      type: "xavier"
      std: 0.2
    }
    bias_filler {
      type: "constant"
      value: 0.2
    }
  }
}
layer {
  name: "inception_4c/relu_5x5_reduce"
  type: "ReLU"
  bottom: "inception_4c/5x5_reduce"
  top: "inception_4c/5x5_reduce"
}
layer {
  name: "inception_4c/5x5"
  type: "Convolution"
  bottom: "inception_4c/5x5_reduce"
  top: "inception_4c/5x5"
  param {
    lr_mult: 1
    decay_mult: 1
  }
  param {
    lr_mult: 2
    decay_mult: 0
  }
  convolution_param {
    num_output: 64
    pad: 2
    kernel_size: 5
    weight_filler {
      type: "xavier"
      std: 0.03
    }
    bias_filler {
      type: "constant"
      value: 0.2
    }
  }
}
layer {
  name: "inception_4c/relu_5x5"
  type: "ReLU"
  bottom: "inception_4c/5x5"
  top: "inception_4c/5x5"
}
layer {
  name: "inception_4c/pool"
  type: "Pooling"
  bottom: "inception_4b/output"
  top: "inception_4c/pool"
  pooling_param {
    pool: MAX
    kernel_size: 3
    stride: 1
    pad: 1
  }
}
layer {
  name: "inception_4c/pool_proj"
  type: "Convolution"
  bottom: "inception_4c/pool"
  top: "inception_4c/pool_proj"
  param {
    lr_mult: 1
    decay_mult: 1
  }
  param {
    lr_mult: 2
    decay_mult: 0
  }
  convolution_param {
    num_output: 64
    kernel_size: 1
    weight_filler {
      type: "xavier"
      std: 0.1
    }
    bias_filler {
      type: "constant"
      value: 0.2
    }
  }
}
layer {
  name: "inception_4c/relu_pool_proj"
  type: "ReLU"
  bottom: "inception_4c/pool_proj"
  top: "inception_4c/pool_proj"
}
layer {
  name: "inception_4c/output"
  type: "Concat"
  bottom: "inception_4c/1x1"
  bottom: "inception_4c/3x3"
  bottom: "inception_4c/5x5"
  bottom: "inception_4c/pool_proj"
  top: "inception_4c/output"
}
layer {
  name: "inception_4d/1x1"
  type: "Convolution"
  bottom: "inception_4c/output"
  top: "inception_4d/1x1"
  param {
    lr_mult: 1
    decay_mult: 1
  }
  param {
    lr_mult: 2
    decay_mult: 0
  }
  convolution_param {
    num_output: 112
    kernel_size: 1
    weight_filler {
      type: "xavier"
      std: 0.03
    }
    bias_filler {
      type: "constant"
      value: 0.2
    }
  }
}
layer {
  name: "inception_4d/relu_1x1"
  type: "ReLU"
  bottom: "inception_4d/1x1"
  top: "inception_4d/1x1"
}
layer {
  name: "inception_4d/3x3_reduce"
  type: "Convolution"
  bottom: "inception_4c/output"
  top: "inception_4d/3x3_reduce"
  param {
    lr_mult: 1
    decay_mult: 1
  }
  param {
    lr_mult: 2
    decay_mult: 0
  }
  convolution_param {
    num_output: 144
    kernel_size: 1
    weight_filler {
      type: "xavier"
      std: 0.09
    }
    bias_filler {
      type: "constant"
      value: 0.2
    }
  }
}
layer {
  name: "inception_4d/relu_3x3_reduce"
  type: "ReLU"
  bottom: "inception_4d/3x3_reduce"
  top: "inception_4d/3x3_reduce"
}
layer {
  name: "inception_4d/3x3"
  type: "Convolution"
  bottom: "inception_4d/3x3_reduce"
  top: "inception_4d/3x3"
  param {
    lr_mult: 1
    decay_mult: 1
  }
  param {
    lr_mult: 2
    decay_mult: 0
  }
  convolution_param {
    num_output: 288
    pad: 1
    kernel_size: 3
    weight_filler {
      type: "xavier"
      std: 0.03
    }
    bias_filler {
      type: "constant"
      value: 0.2
    }
  }
}
layer {
  name: "inception_4d/relu_3x3"
  type: "ReLU"
  bottom: "inception_4d/3x3"
  top: "inception_4d/3x3"
}
layer {
  name: "inception_4d/5x5_reduce"
  type: "Convolution"
  bottom: "inception_4c/output"
  top: "inception_4d/5x5_reduce"
  param {
    lr_mult: 1
    decay_mult: 1
  }
  param {
    lr_mult: 2
    decay_mult: 0
  }
  convolution_param {
    num_output: 32
    kernel_size: 1
    weight_filler {
      type: "xavier"
      std: 0.2
    }
    bias_filler {
      type: "constant"
      value: 0.2
    }
  }
}
layer {
  name: "inception_4d/relu_5x5_reduce"
  type: "ReLU"
  bottom: "inception_4d/5x5_reduce"
  top: "inception_4d/5x5_reduce"
}
layer {
  name: "inception_4d/5x5"
  type: "Convolution"
  bottom: "inception_4d/5x5_reduce"
  top: "inception_4d/5x5"
  param {
    lr_mult: 1
    decay_mult: 1
  }
  param {
    lr_mult: 2
    decay_mult: 0
  }
  convolution_param {
    num_output: 64
    pad: 2
    kernel_size: 5
    weight_filler {
      type: "xavier"
      std: 0.03
    }
    bias_filler {
      type: "constant"
      value: 0.2
    }
  }
}
layer {
  name: "inception_4d/relu_5x5"
  type: "ReLU"
  bottom: "inception_4d/5x5"
  top: "inception_4d/5x5"
}
layer {
  name: "inception_4d/pool"
  type: "Pooling"
  bottom: "inception_4c/output"
  top: "inception_4d/pool"
  pooling_param {
    pool: MAX
    kernel_size: 3
    stride: 1
    pad: 1
  }
}
layer {
  name: "inception_4d/pool_proj"
  type: "Convolution"
  bottom: "inception_4d/pool"
  top: "inception_4d/pool_proj"
  param {
    lr_mult: 1
    decay_mult: 1
  }
  param {
    lr_mult: 2
    decay_mult: 0
  }
  convolution_param {
    num_output: 64
    kernel_size: 1
    weight_filler {
      type: "xavier"
      std: 0.1
    }
    bias_filler {
      type: "constant"
      value: 0.2
    }
  }
}
layer {
  name: "inception_4d/relu_pool_proj"
  type: "ReLU"
  bottom: "inception_4d/pool_proj"
  top: "inception_4d/pool_proj"
}
layer {
  name: "inception_4d/output"
  type: "Concat"
  bottom: "inception_4d/1x1"
  bottom: "inception_4d/3x3"
  bottom: "inception_4d/5x5"
  bottom: "inception_4d/pool_proj"
  top: "inception_4d/output"
}
layer {
  name: "loss2/ave_pool"
  type: "Pooling"
  bottom: "inception_4d/output"
  top: "loss2/ave_pool"
  pooling_param {
    pool: AVE
    kernel_size: 5
    stride: 3
  }
}
layer {
  name: "loss2/conv"
  type: "Convolution"
  bottom: "loss2/ave_pool"
  top: "loss2/conv"
  param {
    lr_mult: 1
    decay_mult: 1
  }
  param {
    lr_mult: 2
    decay_mult: 0
  }
  convolution_param {
    num_output: 128
    kernel_size: 1
    weight_filler {
      type: "xavier"
      std: 0.08
    }
    bias_filler {
      type: "constant"
      value: 0.2
    }
  }
}
layer {
  name: "loss2/relu_conv"
  type: "ReLU"
  bottom: "loss2/conv"
  top: "loss2/conv"
}
layer {
  name: "loss2/fc"
  type: "InnerProduct"
  bottom: "loss2/conv"
  top: "loss2/fc"
  param {
    lr_mult: 1
    decay_mult: 1
  }
  param {
    lr_mult: 2
    decay_mult: 0
  }
  inner_product_param {
    num_output: 1024
    weight_filler {
      type: "xavier"
      std: 0.02
    }
    bias_filler {
      type: "constant"
      value: 0.2
    }
  }
}
layer {
  name: "loss2/relu_fc"
  type: "ReLU"
  bottom: "loss2/fc"
  top: "loss2/fc"
}
layer {
  name: "loss2/drop_fc"
  type: "Dropout"
  bottom: "loss2/fc"
  top: "loss2/fc"
  dropout_param {
    dropout_ratio: 0.7
  }
}
layer {
  name: "loss2/classifier_plantvillage"
  type: "InnerProduct"
  bottom: "loss2/fc"
  top: "loss2/classifier_plantvillage"
  param {
    lr_mult: 1
    decay_mult: 1
  }
  param {
    lr_mult: 2
    decay_mult: 0
  }
  inner_product_param {
    num_output: 38
    weight_filler {
      type: "xavier"
      std: 0.0009765625
    }
    bias_filler {
      type: "constant"
      value: 0
    }
  }
}
layer {
  name: "inception_4e/1x1"
  type: "Convolution"
  bottom: "inception_4d/output"
  top: "inception_4e/1x1"
  param {
    lr_mult: 1
    decay_mult: 1
  }
  param {
    lr_mult: 2
    decay_mult: 0
  }
  convolution_param {
    num_output: 256
    kernel_size: 1
    weight_filler {
      type: "xavier"
      std: 0.03
    }
    bias_filler {
      type: "constant"
      value: 0.2
    }
  }
}
layer {
  name: "inception_4e/relu_1x1"
  type: "ReLU"
  bottom: "inception_4e/1x1"
  top: "inception_4e/1x1"
}
layer {
  name: "inception_4e/3x3_reduce"
  type: "Convolution"
  bottom: "inception_4d/output"
  top: "inception_4e/3x3_reduce"
  param {
    lr_mult: 1
    decay_mult: 1
  }
  param {
    lr_mult: 2
    decay_mult: 0
  }
  convolution_param {
    num_output: 160
    kernel_size: 1
    weight_filler {
      type: "xavier"
      std: 0.09
    }
    bias_filler {
      type: "constant"
      value: 0.2
    }
  }
}
layer {
  name: "inception_4e/relu_3x3_reduce"
  type: "ReLU"
  bottom: "inception_4e/3x3_reduce"
  top: "inception_4e/3x3_reduce"
}
layer {
  name: "inception_4e/3x3"
  type: "Convolution"
  bottom: "inception_4e/3x3_reduce"
  top: "inception_4e/3x3"
  param {
    lr_mult: 1
    decay_mult: 1
  }
  param {
    lr_mult: 2
    decay_mult: 0
  }
  convolution_param {
    num_output: 320
    pad: 1
    kernel_size: 3
    weight_filler {
      type: "xavier"
      std: 0.03
    }
    bias_filler {
      type: "constant"
      value: 0.2
    }
  }
}
layer {
  name: "inception_4e/relu_3x3"
  type: "ReLU"
  bottom: "inception_4e/3x3"
  top: "inception_4e/3x3"
}
layer {
  name: "inception_4e/5x5_reduce"
  type: "Convolution"
  bottom: "inception_4d/output"
  top: "inception_4e/5x5_reduce"
  param {
    lr_mult: 1
    decay_mult: 1
  }
  param {
    lr_mult: 2
    decay_mult: 0
  }
  convolution_param {
    num_output: 32
    kernel_size: 1
    weight_filler {
      type: "xavier"
      std: 0.2
    }
    bias_filler {
      type: "constant"
      value: 0.2
    }
  }
}
layer {
  name: "inception_4e/relu_5x5_reduce"
  type: "ReLU"
  bottom: "inception_4e/5x5_reduce"
  top: "inception_4e/5x5_reduce"
}
layer {
  name: "inception_4e/5x5"
  type: "Convolution"
  bottom: "inception_4e/5x5_reduce"
  top: "inception_4e/
I0403 19:01:48.499598 18491 layer_factory.hpp:77] Creating layer data
I0403 19:01:48.500211 18491 net.cpp:91] Creating Layer data
I0403 19:01:48.500241 18491 net.cpp:399] data -> data
I0403 19:01:48.500295 18491 net.cpp:399] data -> label
I0403 19:01:48.500331 18491 data_transformer.cpp:25] Loading mean file from: /home/mohanty/data/final_dataset/lmdb/segmented-60-40/mean.binaryproto
I0403 19:01:48.501484 18494 db_lmdb.cpp:38] Opened lmdb /home/mohanty/data/final_dataset/lmdb/segmented-60-40/test_db
I0403 19:01:48.513245 18491 data_layer.cpp:41] output data size: 24,3,224,224
I0403 19:01:48.540235 18491 net.cpp:141] Setting up data
I0403 19:01:48.540308 18491 net.cpp:148] Top shape: 24 3 224 224 (3612672)
I0403 19:01:48.540331 18491 net.cpp:148] Top shape: 24 (24)
I0403 19:01:48.540348 18491 net.cpp:156] Memory required for data: 14450784
I0403 19:01:48.540375 18491 layer_factory.hpp:77] Creating layer label_data_1_split
I0403 19:01:48.540402 18491 net.cpp:91] Creating Layer label_data_1_split
I0403 19:01:48.540421 18491 net.cpp:425] label_data_1_split <- label
I0403 19:01:48.540454 18491 net.cpp:399] label_data_1_split -> label_data_1_split_0
I0403 19:01:48.540483 18491 net.cpp:399] label_data_1_split -> label_data_1_split_1
I0403 19:01:48.540505 18491 net.cpp:399] label_data_1_split -> label_data_1_split_2
I0403 19:01:48.540527 18491 net.cpp:399] label_data_1_split -> label_data_1_split_3
I0403 19:01:48.540549 18491 net.cpp:399] label_data_1_split -> label_data_1_split_4
I0403 19:01:48.540571 18491 net.cpp:399] label_data_1_split -> label_data_1_split_5
I0403 19:01:48.540592 18491 net.cpp:399] label_data_1_split -> label_data_1_split_6
I0403 19:01:48.540613 18491 net.cpp:399] label_data_1_split -> label_data_1_split_7
I0403 19:01:48.540635 18491 net.cpp:399] label_data_1_split -> label_data_1_split_8
I0403 19:01:48.540657 18491 net.cpp:399] label_data_1_split -> label_data_1_split_9
I0403 19:01:48.540776 18491 net.cpp:141] Setting up label_data_1_split
I0403 19:01:48.540801 18491 net.cpp:148] Top shape: 24 (24)
I0403 19:01:48.540818 18491 net.cpp:148] Top shape: 24 (24)
I0403 19:01:48.540835 18491 net.cpp:148] Top shape: 24 (24)
I0403 19:01:48.540851 18491 net.cpp:148] Top shape: 24 (24)
I0403 19:01:48.540868 18491 net.cpp:148] Top shape: 24 (24)
I0403 19:01:48.540884 18491 net.cpp:148] Top shape: 24 (24)
I0403 19:01:48.540900 18491 net.cpp:148] Top shape: 24 (24)
I0403 19:01:48.540925 18491 net.cpp:148] Top shape: 24 (24)
I0403 19:01:48.540941 18491 net.cpp:148] Top shape: 24 (24)
I0403 19:01:48.540958 18491 net.cpp:148] Top shape: 24 (24)
I0403 19:01:48.541020 18491 net.cpp:156] Memory required for data: 14451744
I0403 19:01:48.541038 18491 layer_factory.hpp:77] Creating layer conv1/7x7_s2
I0403 19:01:48.541070 18491 net.cpp:91] Creating Layer conv1/7x7_s2
I0403 19:01:48.541090 18491 net.cpp:425] conv1/7x7_s2 <- data
I0403 19:01:48.541111 18491 net.cpp:399] conv1/7x7_s2 -> conv1/7x7_s2
I0403 19:01:48.683365 18491 net.cpp:141] Setting up conv1/7x7_s2
I0403 19:01:48.683451 18491 net.cpp:148] Top shape: 24 64 112 112 (19267584)
I0403 19:01:48.683470 18491 net.cpp:156] Memory required for data: 91522080
I0403 19:01:48.683501 18491 layer_factory.hpp:77] Creating layer conv1/relu_7x7
I0403 19:01:48.683528 18491 net.cpp:91] Creating Layer conv1/relu_7x7
I0403 19:01:48.683547 18491 net.cpp:425] conv1/relu_7x7 <- conv1/7x7_s2
I0403 19:01:48.683565 18491 net.cpp:386] conv1/relu_7x7 -> conv1/7x7_s2 (in-place)
I0403 19:01:48.683817 18491 net.cpp:141] Setting up conv1/relu_7x7
I0403 19:01:48.683845 18491 net.cpp:148] Top shape: 24 64 112 112 (19267584)
I0403 19:01:48.683859 18491 net.cpp:156] Memory required for data: 168592416
I0403 19:01:48.683874 18491 layer_factory.hpp:77] Creating layer pool1/3x3_s2
I0403 19:01:48.683899 18491 net.cpp:91] Creating Layer pool1/3x3_s2
I0403 19:01:48.683917 18491 net.cpp:425] pool1/3x3_s2 <- conv1/7x7_s2
I0403 19:01:48.683941 18491 net.cpp:399] pool1/3x3_s2 -> pool1/3x3_s2
I0403 19:01:48.684026 18491 net.cpp:141] Setting up pool1/3x3_s2
I0403 19:01:48.684049 18491 net.cpp:148] Top shape: 24 64 56 56 (4816896)
I0403 19:01:48.684064 18491 net.cpp:156] Memory required for data: 187860000
I0403 19:01:48.684079 18491 layer_factory.hpp:77] Creating layer pool1/norm1
I0403 19:01:48.684106 18491 net.cpp:91] Creating Layer pool1/norm1
I0403 19:01:48.684123 18491 net.cpp:425] pool1/norm1 <- pool1/3x3_s2
I0403 19:01:48.684144 18491 net.cpp:399] pool1/norm1 -> pool1/norm1
I0403 19:01:48.684442 18491 net.cpp:141] Setting up pool1/norm1
I0403 19:01:48.684468 18491 net.cpp:148] Top shape: 24 64 56 56 (4816896)
I0403 19:01:48.684484 18491 net.cpp:156] Memory required for data: 207127584
I0403 19:01:48.684499 18491 layer_factory.hpp:77] Creating layer conv2/3x3_reduce
I0403 19:01:48.684526 18491 net.cpp:91] Creating Layer conv2/3x3_reduce
I0403 19:01:48.684543 18491 net.cpp:425] conv2/3x3_reduce <- pool1/norm1
I0403 19:01:48.684564 18491 net.cpp:399] conv2/3x3_reduce -> conv2/3x3_reduce
I0403 19:01:48.685912 18491 net.cpp:141] Setting up conv2/3x3_reduce
I0403 19:01:48.685945 18491 net.cpp:148] Top shape: 24 64 56 56 (4816896)
I0403 19:01:48.685961 18491 net.cpp:156] Memory required for data: 226395168
I0403 19:01:48.685986 18491 layer_factory.hpp:77] Creating layer conv2/relu_3x3_reduce
I0403 19:01:48.686007 18491 net.cpp:91] Creating Layer conv2/relu_3x3_reduce
I0403 19:01:48.686022 18491 net.cpp:425] conv2/relu_3x3_reduce <- conv2/3x3_reduce
I0403 19:01:48.686039 18491 net.cpp:386] conv2/relu_3x3_reduce -> conv2/3x3_reduce (in-place)
I0403 19:01:48.686300 18491 net.cpp:141] Setting up conv2/relu_3x3_reduce
I0403 19:01:48.686327 18491 net.cpp:148] Top shape: 24 64 56 56 (4816896)
I0403 19:01:48.686343 18491 net.cpp:156] Memory required for data: 245662752
I0403 19:01:48.686359 18491 layer_factory.hpp:77] Creating layer conv2/3x3
I0403 19:01:48.686383 18491 net.cpp:91] Creating Layer conv2/3x3
I0403 19:01:48.686401 18491 net.cpp:425] conv2/3x3 <- conv2/3x3_reduce
I0403 19:01:48.686420 18491 net.cpp:399] conv2/3x3 -> conv2/3x3
I0403 19:01:48.688697 18491 net.cpp:141] Setting up conv2/3x3
I0403 19:01:48.688730 18491 net.cpp:148] Top shape: 24 192 56 56 (14450688)
I0403 19:01:48.688746 18491 net.cpp:156] Memory required for data: 303465504
I0403 19:01:48.688767 18491 layer_factory.hpp:77] Creating layer conv2/relu_3x3
I0403 19:01:48.688787 18491 net.cpp:91] Creating Layer conv2/relu_3x3
I0403 19:01:48.688803 18491 net.cpp:425] conv2/relu_3x3 <- conv2/3x3
I0403 19:01:48.688820 18491 net.cpp:386] conv2/relu_3x3 -> conv2/3x3 (in-place)
I0403 19:01:48.689008 18491 net.cpp:141] Setting up conv2/relu_3x3
I0403 19:01:48.689046 18491 net.cpp:148] Top shape: 24 192 56 56 (14450688)
I0403 19:01:48.689088 18491 net.cpp:156] Memory required for data: 361268256
I0403 19:01:48.689105 18491 layer_factory.hpp:77] Creating layer conv2/norm2
I0403 19:01:48.689128 18491 net.cpp:91] Creating Layer conv2/norm2
I0403 19:01:48.689146 18491 net.cpp:425] conv2/norm2 <- conv2/3x3
I0403 19:01:48.689164 18491 net.cpp:399] conv2/norm2 -> conv2/norm2
I0403 19:01:48.689508 18491 net.cpp:141] Setting up conv2/norm2
I0403 19:01:48.689534 18491 net.cpp:148] Top shape: 24 192 56 56 (14450688)
I0403 19:01:48.689550 18491 net.cpp:156] Memory required for data: 419071008
I0403 19:01:48.689565 18491 layer_factory.hpp:77] Creating layer pool2/3x3_s2
I0403 19:01:48.689585 18491 net.cpp:91] Creating Layer pool2/3x3_s2
I0403 19:01:48.689602 18491 net.cpp:425] pool2/3x3_s2 <- conv2/norm2
I0403 19:01:48.689620 18491 net.cpp:399] pool2/3x3_s2 -> pool2/3x3_s2
I0403 19:01:48.689673 18491 net.cpp:141] Setting up pool2/3x3_s2
I0403 19:01:48.689697 18491 net.cpp:148] Top shape: 24 192 28 28 (3612672)
I0403 19:01:48.689712 18491 net.cpp:156] Memory required for data: 433521696
I0403 19:01:48.689725 18491 layer_factory.hpp:77] Creating layer pool2/3x3_s2_pool2/3x3_s2_0_split
I0403 19:01:48.689743 18491 net.cpp:91] Creating Layer pool2/3x3_s2_pool2/3x3_s2_0_split
I0403 19:01:48.689759 18491 net.cpp:425] pool2/3x3_s2_pool2/3x3_s2_0_split <- pool2/3x3_s2
I0403 19:01:48.689779 18491 net.cpp:399] pool2/3x3_s2_pool2/3x3_s2_0_split -> pool2/3x3_s2_pool2/3x3_s2_0_split_0
I0403 19:01:48.689800 18491 net.cpp:399] pool2/3x3_s2_pool2/3x3_s2_0_split -> pool2/3x3_s2_pool2/3x3_s2_0_split_1
I0403 19:01:48.689820 18491 net.cpp:399] pool2/3x3_s2_pool2/3x3_s2_0_split -> pool2/3x3_s2_pool2/3x3_s2_0_split_2
I0403 19:01:48.689839 18491 net.cpp:399] pool2/3x3_s2_pool2/3x3_s2_0_split -> pool2/3x3_s2_pool2/3x3_s2_0_split_3
I0403 19:01:48.689923 18491 net.cpp:141] Setting up pool2/3x3_s2_pool2/3x3_s2_0_split
I0403 19:01:48.689949 18491 net.cpp:148] Top shape: 24 192 28 28 (3612672)
I0403 19:01:48.689966 18491 net.cpp:148] Top shape: 24 192 28 28 (3612672)
I0403 19:01:48.689988 18491 net.cpp:148] Top shape: 24 192 28 28 (3612672)
I0403 19:01:48.690006 18491 net.cpp:148] Top shape: 24 192 28 28 (3612672)
I0403 19:01:48.690019 18491 net.cpp:156] Memory required for data: 491324448
I0403 19:01:48.690034 18491 layer_factory.hpp:77] Creating layer inception_3a/1x1
I0403 19:01:48.690057 18491 net.cpp:91] Creating Layer inception_3a/1x1
I0403 19:01:48.690075 18491 net.cpp:425] inception_3a/1x1 <- pool2/3x3_s2_pool2/3x3_s2_0_split_0
I0403 19:01:48.690094 18491 net.cpp:399] inception_3a/1x1 -> inception_3a/1x1
I0403 19:01:48.691627 18491 net.cpp:141] Setting up inception_3a/1x1
I0403 19:01:48.691655 18491 net.cpp:148] Top shape: 24 64 28 28 (1204224)
I0403 19:01:48.691671 18491 net.cpp:156] Memory required for data: 496141344
I0403 19:01:48.691689 18491 layer_factory.hpp:77] Creating layer inception_3a/relu_1x1
I0403 19:01:48.691710 18491 net.cpp:91] Creating Layer inception_3a/relu_1x1
I0403 19:01:48.691727 18491 net.cpp:425] inception_3a/relu_1x1 <- inception_3a/1x1
I0403 19:01:48.691745 18491 net.cpp:386] inception_3a/relu_1x1 -> inception_3a/1x1 (in-place)
I0403 19:01:48.691913 18491 net.cpp:141] Setting up inception_3a/relu_1x1
I0403 19:01:48.691937 18491 net.cpp:148] Top shape: 24 64 28 28 (1204224)
I0403 19:01:48.691952 18491 net.cpp:156] Memory required for data: 500958240
I0403 19:01:48.691967 18491 layer_factory.hpp:77] Creating layer inception_3a/3x3_reduce
I0403 19:01:48.691994 18491 net.cpp:91] Creating Layer inception_3a/3x3_reduce
I0403 19:01:48.692013 18491 net.cpp:425] inception_3a/3x3_reduce <- pool2/3x3_s2_pool2/3x3_s2_0_split_1
I0403 19:01:48.692034 18491 net.cpp:399] inception_3a/3x3_reduce -> inception_3a/3x3_reduce
I0403 19:01:48.693727 18491 net.cpp:141] Setting up inception_3a/3x3_reduce
I0403 19:01:48.693759 18491 net.cpp:148] Top shape: 24 96 28 28 (1806336)
I0403 19:01:48.693776 18491 net.cpp:156] Memory required for data: 508183584
I0403 19:01:48.693797 18491 layer_factory.hpp:77] Creating layer inception_3a/relu_3x3_reduce
I0403 19:01:48.693832 18491 net.cpp:91] Creating Layer inception_3a/relu_3x3_reduce
I0403 19:01:48.693851 18491 net.cpp:425] inception_3a/relu_3x3_reduce <- inception_3a/3x3_reduce
I0403 19:01:48.693871 18491 net.cpp:386] inception_3a/relu_3x3_reduce -> inception_3a/3x3_reduce (in-place)
I0403 19:01:48.694054 18491 net.cpp:141] Setting up inception_3a/relu_3x3_reduce
I0403 19:01:48.694079 18491 net.cpp:148] Top shape: 24 96 28 28 (1806336)
I0403 19:01:48.694094 18491 net.cpp:156] Memory required for data: 515408928
I0403 19:01:48.694108 18491 layer_factory.hpp:77] Creating layer inception_3a/3x3
I0403 19:01:48.694131 18491 net.cpp:91] Creating Layer inception_3a/3x3
I0403 19:01:48.694149 18491 net.cpp:425] inception_3a/3x3 <- inception_3a/3x3_reduce
I0403 19:01:48.694169 18491 net.cpp:399] inception_3a/3x3 -> inception_3a/3x3
I0403 19:01:48.695818 18491 net.cpp:141] Setting up inception_3a/3x3
I0403 19:01:48.695849 18491 net.cpp:148] Top shape: 24 128 28 28 (2408448)
I0403 19:01:48.695865 18491 net.cpp:156] Memory required for data: 525042720
I0403 19:01:48.695884 18491 layer_factory.hpp:77] Creating layer inception_3a/relu_3x3
I0403 19:01:48.695904 18491 net.cpp:91] Creating Layer inception_3a/relu_3x3
I0403 19:01:48.695919 18491 net.cpp:425] inception_3a/relu_3x3 <- inception_3a/3x3
I0403 19:01:48.695941 18491 net.cpp:386] inception_3a/relu_3x3 -> inception_3a/3x3 (in-place)
I0403 19:01:48.696219 18491 net.cpp:141] Setting up inception_3a/relu_3x3
I0403 19:01:48.696259 18491 net.cpp:148] Top shape: 24 128 28 28 (2408448)
I0403 19:01:48.696274 18491 net.cpp:156] Memory required for data: 534676512
I0403 19:01:48.696290 18491 layer_factory.hpp:77] Creating layer inception_3a/5x5_reduce
I0403 19:01:48.696311 18491 net.cpp:91] Creating Layer inception_3a/5x5_reduce
I0403 19:01:48.696327 18491 net.cpp:425] inception_3a/5x5_reduce <- pool2/3x3_s2_pool2/3x3_s2_0_split_2
I0403 19:01:48.696346 18491 net.cpp:399] inception_3a/5x5_reduce -> inception_3a/5x5_reduce
I0403 19:01:48.697254 18491 net.cpp:141] Setting up inception_3a/5x5_reduce
I0403 19:01:48.697281 18491 net.cpp:148] Top shape: 24 16 28 28 (301056)
I0403 19:01:48.697298 18491 net.cpp:156] Memory required for data: 535880736
I0403 19:01:48.697315 18491 layer_factory.hpp:77] Creating layer inception_3a/relu_5x5_reduce
I0403 19:01:48.697332 18491 net.cpp:91] Creating Layer inception_3a/relu_5x5_reduce
I0403 19:01:48.697348 18491 net.cpp:425] inception_3a/relu_5x5_reduce <- inception_3a/5x5_reduce
I0403 19:01:48.697368 18491 net.cpp:386] inception_3a/relu_5x5_reduce -> inception_3a/5x5_reduce (in-place)
I0403 19:01:48.697654 18491 net.cpp:141] Setting up inception_3a/relu_5x5_reduce
I0403 19:01:48.697679 18491 net.cpp:148] Top shape: 24 16 28 28 (301056)
I0403 19:01:48.697693 18491 net.cpp:156] Memory required for data: 537084960
I0403 19:01:48.697708 18491 layer_factory.hpp:77] Creating layer inception_3a/5x5
I0403 19:01:48.697729 18491 net.cpp:91] Creating Layer inception_3a/5x5
I0403 19:01:48.697747 18491 net.cpp:425] inception_3a/5x5 <- inception_3a/5x5_reduce
I0403 19:01:48.697767 18491 net.cpp:399] inception_3a/5x5 -> inception_3a/5x5
I0403 19:01:48.698726 18491 net.cpp:141] Setting up inception_3a/5x5
I0403 19:01:48.698755 18491 net.cpp:148] Top shape: 24 32 28 28 (602112)
I0403 19:01:48.698770 18491 net.cpp:156] Memory required for data: 539493408
I0403 19:01:48.698788 18491 layer_factory.hpp:77] Creating layer inception_3a/relu_5x5
I0403 19:01:48.698807 18491 net.cpp:91] Creating Layer inception_3a/relu_5x5
I0403 19:01:48.698822 18491 net.cpp:425] inception_3a/relu_5x5 <- inception_3a/5x5
I0403 19:01:48.698840 18491 net.cpp:386] inception_3a/relu_5x5 -> inception_3a/5x5 (in-place)
I0403 19:01:48.699015 18491 net.cpp:141] Setting up inception_3a/relu_5x5
I0403 19:01:48.699038 18491 net.cpp:148] Top shape: 24 32 28 28 (602112)
I0403 19:01:48.699054 18491 net.cpp:156] Memory required for data: 541901856
I0403 19:01:48.699069 18491 layer_factory.hpp:77] Creating layer inception_3a/pool
I0403 19:01:48.699085 18491 net.cpp:91] Creating Layer inception_3a/pool
I0403 19:01:48.699115 18491 net.cpp:425] inception_3a/pool <- pool2/3x3_s2_pool2/3x3_s2_0_split_3
I0403 19:01:48.699136 18491 net.cpp:399] inception_3a/pool -> inception_3a/pool
I0403 19:01:48.699204 18491 net.cpp:141] Setting up inception_3a/pool
I0403 19:01:48.699229 18491 net.cpp:148] Top shape: 24 192 28 28 (3612672)
I0403 19:01:48.699244 18491 net.cpp:156] Memory required for data: 556352544
I0403 19:01:48.699257 18491 layer_factory.hpp:77] Creating layer inception_3a/pool_proj
I0403 19:01:48.699282 18491 net.cpp:91] Creating Layer inception_3a/pool_proj
I0403 19:01:48.699300 18491 net.cpp:425] inception_3a/pool_proj <- inception_3a/pool
I0403 19:01:48.699319 18491 net.cpp:399] inception_3a/pool_proj -> inception_3a/pool_proj
I0403 19:01:48.700259 18491 net.cpp:141] Setting up inception_3a/pool_proj
I0403 19:01:48.700286 18491 net.cpp:148] Top shape: 24 32 28 28 (602112)
I0403 19:01:48.700300 18491 net.cpp:156] Memory required for data: 558760992
I0403 19:01:48.700325 18491 layer_factory.hpp:77] Creating layer inception_3a/relu_pool_proj
I0403 19:01:48.700343 18491 net.cpp:91] Creating Layer inception_3a/relu_pool_proj
I0403 19:01:48.700358 18491 net.cpp:425] inception_3a/relu_pool_proj <- inception_3a/pool_proj
I0403 19:01:48.700378 18491 net.cpp:386] inception_3a/relu_pool_proj -> inception_3a/pool_proj (in-place)
I0403 19:01:48.700640 18491 net.cpp:141] Setting up inception_3a/relu_pool_proj
I0403 19:01:48.700667 18491 net.cpp:148] Top shape: 24 32 28 28 (602112)
I0403 19:01:48.700683 18491 net.cpp:156] Memory required for data: 561169440
I0403 19:01:48.700698 18491 layer_factory.hpp:77] Creating layer inception_3a/output
I0403 19:01:48.700716 18491 net.cpp:91] Creating Layer inception_3a/output
I0403 19:01:48.700731 18491 net.cpp:425] inception_3a/output <- inception_3a/1x1
I0403 19:01:48.700747 18491 net.cpp:425] inception_3a/output <- inception_3a/3x3
I0403 19:01:48.700762 18491 net.cpp:425] inception_3a/output <- inception_3a/5x5
I0403 19:01:48.700778 18491 net.cpp:425] inception_3a/output <- inception_3a/pool_proj
I0403 19:01:48.700796 18491 net.cpp:399] inception_3a/output -> inception_3a/output
I0403 19:01:48.700840 18491 net.cpp:141] Setting up inception_3a/output
I0403 19:01:48.700862 18491 net.cpp:148] Top shape: 24 256 28 28 (4816896)
I0403 19:01:48.700876 18491 net.cpp:156] Memory required for data: 580437024
I0403 19:01:48.700891 18491 layer_factory.hpp:77] Creating layer inception_3a/output_inception_3a/output_0_split
I0403 19:01:48.700917 18491 net.cpp:91] Creating Layer inception_3a/output_inception_3a/output_0_split
I0403 19:01:48.700935 18491 net.cpp:425] inception_3a/output_inception_3a/output_0_split <- inception_3a/output
I0403 19:01:48.700953 18491 net.cpp:399] inception_3a/output_inception_3a/output_0_split -> inception_3a/output_inception_3a/output_0_split_0
I0403 19:01:48.700971 18491 net.cpp:399] inception_3a/output_inception_3a/output_0_split -> inception_3a/output_inception_3a/output_0_split_1
I0403 19:01:48.701000 18491 net.cpp:399] inception_3a/output_inception_3a/output_0_split -> inception_3a/output_inception_3a/output_0_split_2
I0403 19:01:48.701021 18491 net.cpp:399] inception_3a/output_inception_3a/output_0_split -> inception_3a/output_inception_3a/output_0_split_3
I0403 19:01:48.701092 18491 net.cpp:141] Setting up inception_3a/output_inception_3a/output_0_split
I0403 19:01:48.701115 18491 net.cpp:148] Top shape: 24 256 28 28 (4816896)
I0403 19:01:48.701133 18491 net.cpp:148] Top shape: 24 256 28 28 (4816896)
I0403 19:01:48.701148 18491 net.cpp:148] Top shape: 24 256 28 28 (4816896)
I0403 19:01:48.701162 18491 net.cpp:148] Top shape: 24 256 28 28 (4816896)
I0403 19:01:48.701175 18491 net.cpp:156] Memory required for data: 657507360
I0403 19:01:48.701190 18491 layer_factory.hpp:77] Creating layer inception_3b/1x1
I0403 19:01:48.701218 18491 net.cpp:91] Creating Layer inception_3b/1x1
I0403 19:01:48.701236 18491 net.cpp:425] inception_3b/1x1 <- inception_3a/output_inception_3a/output_0_split_0
I0403 19:01:48.701254 18491 net.cpp:399] inception_3b/1x1 -> inception_3b/1x1
I0403 19:01:48.702337 18491 net.cpp:141] Setting up inception_3b/1x1
I0403 19:01:48.702374 18491 net.cpp:148] Top shape: 24 128 28 28 (2408448)
I0403 19:01:48.702390 18491 net.cpp:156] Memory required for data: 667141152
I0403 19:01:48.702409 18491 layer_factory.hpp:77] Creating layer inception_3b/relu_1x1
I0403 19:01:48.702430 18491 net.cpp:91] Creating Layer inception_3b/relu_1x1
I0403 19:01:48.702445 18491 net.cpp:425] inception_3b/relu_1x1 <- inception_3b/1x1
I0403 19:01:48.702461 18491 net.cpp:386] inception_3b/relu_1x1 -> inception_3b/1x1 (in-place)
I0403 19:01:48.702630 18491 net.cpp:141] Setting up inception_3b/relu_1x1
I0403 19:01:48.702656 18491 net.cpp:148] Top shape: 24 128 28 28 (2408448)
I0403 19:01:48.702671 18491 net.cpp:156] Memory required for data: 676774944
I0403 19:01:48.702684 18491 layer_factory.hpp:77] Creating layer inception_3b/3x3_reduce
I0403 19:01:48.702707 18491 net.cpp:91] Creating Layer inception_3b/3x3_reduce
I0403 19:01:48.702723 18491 net.cpp:425] inception_3b/3x3_reduce <- inception_3a/output_inception_3a/output_0_split_1
I0403 19:01:48.702742 18491 net.cpp:399] inception_3b/3x3_reduce -> inception_3b/3x3_reduce
I0403 19:01:48.703835 18491 net.cpp:141] Setting up inception_3b/3x3_reduce
I0403 19:01:48.703860 18491 net.cpp:148] Top shape: 24 128 28 28 (2408448)
I0403 19:01:48.703876 18491 net.cpp:156] Memory required for data: 686408736
I0403 19:01:48.703893 18491 layer_factory.hpp:77] Creating layer inception_3b/relu_3x3_reduce
I0403 19:01:48.703913 18491 net.cpp:91] Creating Layer inception_3b/relu_3x3_reduce
I0403 19:01:48.703930 18491 net.cpp:425] inception_3b/relu_3x3_reduce <- inception_3b/3x3_reduce
I0403 19:01:48.703948 18491 net.cpp:386] inception_3b/relu_3x3_reduce -> inception_3b/3x3_reduce (in-place)
I0403 19:01:48.704119 18491 net.cpp:141] Setting up inception_3b/relu_3x3_reduce
I0403 19:01:48.704145 18491 net.cpp:148] Top shape: 24 128 28 28 (2408448)
I0403 19:01:48.704160 18491 net.cpp:156] Memory required for data: 696042528
I0403 19:01:48.704175 18491 layer_factory.hpp:77] Creating layer inception_3b/3x3
I0403 19:01:48.704200 18491 net.cpp:91] Creating Layer inception_3b/3x3
I0403 19:01:48.704217 18491 net.cpp:425] inception_3b/3x3 <- inception_3b/3x3_reduce
I0403 19:01:48.704237 18491 net.cpp:399] inception_3b/3x3 -> inception_3b/3x3
I0403 19:01:48.707087 18491 net.cpp:141] Setting up inception_3b/3x3
I0403 19:01:48.707118 18491 net.cpp:148] Top shape: 24 192 28 28 (3612672)
I0403 19:01:48.707135 18491 net.cpp:156] Memory required for data: 710493216
I0403 19:01:48.707154 18491 layer_factory.hpp:77] Creating layer inception_3b/relu_3x3
I0403 19:01:48.707172 18491 net.cpp:91] Creating Layer inception_3b/relu_3x3
I0403 19:01:48.707188 18491 net.cpp:425] inception_3b/relu_3x3 <- inception_3b/3x3
I0403 19:01:48.707209 18491 net.cpp:386] inception_3b/relu_3x3 -> inception_3b/3x3 (in-place)
I0403 19:01:48.707484 18491 net.cpp:141] Setting up inception_3b/relu_3x3
I0403 19:01:48.707512 18491 net.cpp:148] Top shape: 24 192 28 28 (3612672)
I0403 19:01:48.707527 18491 net.cpp:156] Memory required for data: 724943904
I0403 19:01:48.707543 18491 layer_factory.hpp:77] Creating layer inception_3b/5x5_reduce
I0403 19:01:48.707566 18491 net.cpp:91] Creating Layer inception_3b/5x5_reduce
I0403 19:01:48.707583 18491 net.cpp:425] inception_3b/5x5_reduce <- inception_3a/output_inception_3a/output_0_split_2
I0403 19:01:48.707603 18491 net.cpp:399] inception_3b/5x5_reduce -> inception_3b/5x5_reduce
I0403 19:01:48.708581 18491 net.cpp:141] Setting up inception_3b/5x5_reduce
I0403 19:01:48.708611 18491 net.cpp:148] Top shape: 24 32 28 28 (602112)
I0403 19:01:48.708627 18491 net.cpp:156] Memory required for data: 727352352
I0403 19:01:48.708647 18491 layer_factory.hpp:77] Creating layer inception_3b/relu_5x5_reduce
I0403 19:01:48.708664 18491 net.cpp:91] Creating Layer inception_3b/relu_5x5_reduce
I0403 19:01:48.708680 18491 net.cpp:425] inception_3b/relu_5x5_reduce <- inception_3b/5x5_reduce
I0403 19:01:48.708699 18491 net.cpp:386] inception_3b/relu_5x5_reduce -> inception_3b/5x5_reduce (in-place)
I0403 19:01:48.708885 18491 net.cpp:141] Setting up inception_3b/relu_5x5_reduce
I0403 19:01:48.708910 18491 net.cpp:148] Top shape: 24 32 28 28 (602112)
I0403 19:01:48.708925 18491 net.cpp:156] Memory required for data: 729760800
I0403 19:01:48.708940 18491 layer_factory.hpp:77] Creating layer inception_3b/5x5
I0403 19:01:48.708962 18491 net.cpp:91] Creating Layer inception_3b/5x5
I0403 19:01:48.708991 18491 net.cpp:425] inception_3b/5x5 <- inception_3b/5x5_reduce
I0403 19:01:48.709015 18491 net.cpp:399] inception_3b/5x5 -> inception_3b/5x5
I0403 19:01:48.710961 18491 net.cpp:141] Setting up inception_3b/5x5
I0403 19:01:48.710994 18491 net.cpp:148] Top shape: 24 96 28 28 (1806336)
I0403 19:01:48.711010 18491 net.cpp:156] Memory required for data: 736986144
I0403 19:01:48.711029 18491 layer_factory.hpp:77] Creating layer inception_3b/relu_5x5
I0403 19:01:48.711050 18491 net.cpp:91] Creating Layer inception_3b/relu_5x5
I0403 19:01:48.711066 18491 net.cpp:425] inception_3b/relu_5x5 <- inception_3b/5x5
I0403 19:01:48.711083 18491 net.cpp:386] inception_3b/relu_5x5 -> inception_3b/5x5 (in-place)
I0403 19:01:48.711277 18491 net.cpp:141] Setting up inception_3b/relu_5x5
I0403 19:01:48.711302 18491 net.cpp:148] Top shape: 24 96 28 28 (1806336)
I0403 19:01:48.711318 18491 net.cpp:156] Memory required for data: 744211488
I0403 19:01:48.711333 18491 layer_factory.hpp:77] Creating layer inception_3b/pool
I0403 19:01:48.711350 18491 net.cpp:91] Creating Layer inception_3b/pool
I0403 19:01:48.711366 18491 net.cpp:425] inception_3b/pool <- inception_3a/output_inception_3a/output_0_split_3
I0403 19:01:48.711385 18491 net.cpp:399] inception_3b/pool -> inception_3b/pool
I0403 19:01:48.711441 18491 net.cpp:141] Setting up inception_3b/pool
I0403 19:01:48.711463 18491 net.cpp:148] Top shape: 24 256 28 28 (4816896)
I0403 19:01:48.711478 18491 net.cpp:156] Memory required for data: 763479072
I0403 19:01:48.711493 18491 layer_factory.hpp:77] Creating layer inception_3b/pool_proj
I0403 19:01:48.711524 18491 net.cpp:91] Creating Layer inception_3b/pool_proj
I0403 19:01:48.711541 18491 net.cpp:425] inception_3b/pool_proj <- inception_3b/pool
I0403 19:01:48.711560 18491 net.cpp:399] inception_3b/pool_proj -> inception_3b/pool_proj
I0403 19:01:48.712599 18491 net.cpp:141] Setting up inception_3b/pool_proj
I0403 19:01:48.712626 18491 net.cpp:148] Top shape: 24 64 28 28 (1204224)
I0403 19:01:48.712642 18491 net.cpp:156] Memory required for data: 768295968
I0403 19:01:48.712661 18491 layer_factory.hpp:77] Creating layer inception_3b/relu_pool_proj
I0403 19:01:48.712678 18491 net.cpp:91] Creating Layer inception_3b/relu_pool_proj
I0403 19:01:48.712694 18491 net.cpp:425] inception_3b/relu_pool_proj <- inception_3b/pool_proj
I0403 19:01:48.712714 18491 net.cpp:386] inception_3b/relu_pool_proj -> inception_3b/pool_proj (in-place)
I0403 19:01:48.713109 18491 net.cpp:141] Setting up inception_3b/relu_pool_proj
I0403 19:01:48.713135 18491 net.cpp:148] Top shape: 24 64 28 28 (1204224)
I0403 19:01:48.713150 18491 net.cpp:156] Memory required for data: 773112864
I0403 19:01:48.713165 18491 layer_factory.hpp:77] Creating layer inception_3b/output
I0403 19:01:48.713182 18491 net.cpp:91] Creating Layer inception_3b/output
I0403 19:01:48.713197 18491 net.cpp:425] inception_3b/output <- inception_3b/1x1
I0403 19:01:48.713214 18491 net.cpp:425] inception_3b/output <- inception_3b/3x3
I0403 19:01:48.713229 18491 net.cpp:425] inception_3b/output <- inception_3b/5x5
I0403 19:01:48.713245 18491 net.cpp:425] inception_3b/output <- inception_3b/pool_proj
I0403 19:01:48.713264 18491 net.cpp:399] inception_3b/output -> inception_3b/output
I0403 19:01:48.713309 18491 net.cpp:141] Setting up inception_3b/output
I0403 19:01:48.713333 18491 net.cpp:148] Top shape: 24 480 28 28 (9031680)
I0403 19:01:48.713349 18491 net.cpp:156] Memory required for data: 809239584
I0403 19:01:48.713364 18491 layer_factory.hpp:77] Creating layer pool3/3x3_s2
I0403 19:01:48.713382 18491 net.cpp:91] Creating Layer pool3/3x3_s2
I0403 19:01:48.713397 18491 net.cpp:425] pool3/3x3_s2 <- inception_3b/output
I0403 19:01:48.713433 18491 net.cpp:399] pool3/3x3_s2 -> pool3/3x3_s2
I0403 19:01:48.713491 18491 net.cpp:141] Setting up pool3/3x3_s2
I0403 19:01:48.713515 18491 net.cpp:148] Top shape: 24 480 14 14 (2257920)
I0403 19:01:48.713528 18491 net.cpp:156] Memory required for data: 818271264
I0403 19:01:48.713543 18491 layer_factory.hpp:77] Creating layer pool3/3x3_s2_pool3/3x3_s2_0_split
I0403 19:01:48.713562 18491 net.cpp:91] Creating Layer pool3/3x3_s2_pool3/3x3_s2_0_split
I0403 19:01:48.713578 18491 net.cpp:425] pool3/3x3_s2_pool3/3x3_s2_0_split <- pool3/3x3_s2
I0403 19:01:48.713595 18491 net.cpp:399] pool3/3x3_s2_pool3/3x3_s2_0_split -> pool3/3x3_s2_pool3/3x3_s2_0_split_0
I0403 19:01:48.713615 18491 net.cpp:399] pool3/3x3_s2_pool3/3x3_s2_0_split -> pool3/3x3_s2_pool3/3x3_s2_0_split_1
I0403 19:01:48.713634 18491 net.cpp:399] pool3/3x3_s2_pool3/3x3_s2_0_split -> pool3/3x3_s2_pool3/3x3_s2_0_split_2
I0403 19:01:48.713654 18491 net.cpp:399] pool3/3x3_s2_pool3/3x3_s2_0_split -> pool3/3x3_s2_pool3/3x3_s2_0_split_3
I0403 19:01:48.713732 18491 net.cpp:141] Setting up pool3/3x3_s2_pool3/3x3_s2_0_split
I0403 19:01:48.713754 18491 net.cpp:148] Top shape: 24 480 14 14 (2257920)
I0403 19:01:48.713771 18491 net.cpp:148] Top shape: 24 480 14 14 (2257920)
I0403 19:01:48.713788 18491 net.cpp:148] Top shape: 24 480 14 14 (2257920)
I0403 19:01:48.713803 18491 net.cpp:148] Top shape: 24 480 14 14 (2257920)
I0403 19:01:48.713815 18491 net.cpp:156] Memory required for data: 854397984
I0403 19:01:48.713830 18491 layer_factory.hpp:77] Creating layer inception_4a/1x1
I0403 19:01:48.713853 18491 net.cpp:91] Creating Layer inception_4a/1x1
I0403 19:01:48.713871 18491 net.cpp:425] inception_4a/1x1 <- pool3/3x3_s2_pool3/3x3_s2_0_split_0
I0403 19:01:48.713892 18491 net.cpp:399] inception_4a/1x1 -> inception_4a/1x1
I0403 19:01:48.715478 18491 net.cpp:141] Setting up inception_4a/1x1
I0403 19:01:48.715507 18491 net.cpp:148] Top shape: 24 192 14 14 (903168)
I0403 19:01:48.715522 18491 net.cpp:156] Memory required for data: 858010656
I0403 19:01:48.715540 18491 layer_factory.hpp:77] Creating layer inception_4a/relu_1x1
I0403 19:01:48.715560 18491 net.cpp:91] Creating Layer inception_4a/relu_1x1
I0403 19:01:48.715577 18491 net.cpp:425] inception_4a/relu_1x1 <- inception_4a/1x1
I0403 19:01:48.715595 18491 net.cpp:386] inception_4a/relu_1x1 -> inception_4a/1x1 (in-place)
I0403 19:01:48.715770 18491 net.cpp:141] Setting up inception_4a/relu_1x1
I0403 19:01:48.715796 18491 net.cpp:148] Top shape: 24 192 14 14 (903168)
I0403 19:01:48.715812 18491 net.cpp:156] Memory required for data: 861623328
I0403 19:01:48.715826 18491 layer_factory.hpp:77] Creating layer inception_4a/3x3_reduce
I0403 19:01:48.715848 18491 net.cpp:91] Creating Layer inception_4a/3x3_reduce
I0403 19:01:48.715867 18491 net.cpp:425] inception_4a/3x3_reduce <- pool3/3x3_s2_pool3/3x3_s2_0_split_1
I0403 19:01:48.715886 18491 net.cpp:399] inception_4a/3x3_reduce -> inception_4a/3x3_reduce
I0403 19:01:48.717164 18491 net.cpp:141] Setting up inception_4a/3x3_reduce
I0403 19:01:48.717192 18491 net.cpp:148] Top shape: 24 96 14 14 (451584)
I0403 19:01:48.717221 18491 net.cpp:156] Memory required for data: 863429664
I0403 19:01:48.717245 18491 layer_factory.hpp:77] Creating layer inception_4a/relu_3x3_reduce
I0403 19:01:48.717265 18491 net.cpp:91] Creating Layer inception_4a/relu_3x3_reduce
I0403 19:01:48.717281 18491 net.cpp:425] inception_4a/relu_3x3_reduce <- inception_4a/3x3_reduce
I0403 19:01:48.717301 18491 net.cpp:386] inception_4a/relu_3x3_reduce -> inception_4a/3x3_reduce (in-place)
I0403 19:01:48.717476 18491 net.cpp:141] Setting up inception_4a/relu_3x3_reduce
I0403 19:01:48.717500 18491 net.cpp:148] Top shape: 24 96 14 14 (451584)
I0403 19:01:48.717515 18491 net.cpp:156] Memory required for data: 865236000
I0403 19:01:48.717530 18491 layer_factory.hpp:77] Creating layer inception_4a/3x3
I0403 19:01:48.717552 18491 net.cpp:91] Creating Layer inception_4a/3x3
I0403 19:01:48.717571 18491 net.cpp:425] inception_4a/3x3 <- inception_4a/3x3_reduce
I0403 19:01:48.717592 18491 net.cpp:399] inception_4a/3x3 -> inception_4a/3x3
I0403 19:01:48.720234 18491 net.cpp:141] Setting up inception_4a/3x3
I0403 19:01:48.720263 18491 net.cpp:148] Top shape: 24 208 14 14 (978432)
I0403 19:01:48.720278 18491 net.cpp:156] Memory required for data: 869149728
I0403 19:01:48.720298 18491 layer_factory.hpp:77] Creating layer inception_4a/relu_3x3
I0403 19:01:48.720319 18491 net.cpp:91] Creating Layer inception_4a/relu_3x3
I0403 19:01:48.720335 18491 net.cpp:425] inception_4a/relu_3x3 <- inception_4a/3x3
I0403 19:01:48.720352 18491 net.cpp:386] inception_4a/relu_3x3 -> inception_4a/3x3 (in-place)
I0403 19:01:48.720623 18491 net.cpp:141] Setting up inception_4a/relu_3x3
I0403 19:01:48.720649 18491 net.cpp:148] Top shape: 24 208 14 14 (978432)
I0403 19:01:48.720664 18491 net.cpp:156] Memory required for data: 873063456
I0403 19:01:48.720679 18491 layer_factory.hpp:77] Creating layer inception_4a/5x5_reduce
I0403 19:01:48.720703 18491 net.cpp:91] Creating Layer inception_4a/5x5_reduce
I0403 19:01:48.720721 18491 net.cpp:425] inception_4a/5x5_reduce <- pool3/3x3_s2_pool3/3x3_s2_0_split_2
I0403 19:01:48.720741 18491 net.cpp:399] inception_4a/5x5_reduce -> inception_4a/5x5_reduce
I0403 19:01:48.721745 18491 net.cpp:141] Setting up inception_4a/5x5_reduce
I0403 19:01:48.721774 18491 net.cpp:148] Top shape: 24 16 14 14 (75264)
I0403 19:01:48.721791 18491 net.cpp:156] Memory required for data: 873364512
I0403 19:01:48.721809 18491 layer_factory.hpp:77] Creating layer inception_4a/relu_5x5_reduce
I0403 19:01:48.721827 18491 net.cpp:91] Creating Layer inception_4a/relu_5x5_reduce
I0403 19:01:48.721844 18491 net.cpp:425] inception_4a/relu_5x5_reduce <- inception_4a/5x5_reduce
I0403 19:01:48.721863 18491 net.cpp:386] inception_4a/relu_5x5_reduce -> inception_4a/5x5_reduce (in-place)
I0403 19:01:48.722045 18491 net.cpp:141] Setting up inception_4a/relu_5x5_reduce
I0403 19:01:48.722070 18491 net.cpp:148] Top shape: 24 16 14 14 (75264)
I0403 19:01:48.722085 18491 net.cpp:156] Memory required for data: 873665568
I0403 19:01:48.722100 18491 layer_factory.hpp:77] Creating layer inception_4a/5x5
I0403 19:01:48.722122 18491 net.cpp:91] Creating Layer inception_4a/5x5
I0403 19:01:48.722141 18491 net.cpp:425] inception_4a/5x5 <- inception_4a/5x5_reduce
I0403 19:01:48.722162 18491 net.cpp:399] inception_4a/5x5 -> inception_4a/5x5
I0403 19:01:48.723276 18491 net.cpp:141] Setting up inception_4a/5x5
I0403 19:01:48.723302 18491 net.cpp:148] Top shape: 24 48 14 14 (225792)
I0403 19:01:48.723317 18491 net.cpp:156] Memory required for data: 874568736
I0403 19:01:48.723335 18491 layer_factory.hpp:77] Creating layer inception_4a/relu_5x5
I0403 19:01:48.723352 18491 net.cpp:91] Creating Layer inception_4a/relu_5x5
I0403 19:01:48.723372 18491 net.cpp:425] inception_4a/relu_5x5 <- inception_4a/5x5
I0403 19:01:48.723389 18491 net.cpp:386] inception_4a/relu_5x5 -> inception_4a/5x5 (in-place)
I0403 19:01:48.723557 18491 net.cpp:141] Setting up inception_4a/relu_5x5
I0403 19:01:48.723582 18491 net.cpp:148] Top shape: 24 48 14 14 (225792)
I0403 19:01:48.723597 18491 net.cpp:156] Memory required for data: 875471904
I0403 19:01:48.723610 18491 layer_factory.hpp:77] Creating layer inception_4a/pool
I0403 19:01:48.723629 18491 net.cpp:91] Creating Layer inception_4a/pool
I0403 19:01:48.723646 18491 net.cpp:425] inception_4a/pool <- pool3/3x3_s2_pool3/3x3_s2_0_split_3
I0403 19:01:48.723664 18491 net.cpp:399] inception_4a/pool -> inception_4a/pool
I0403 19:01:48.723724 18491 net.cpp:141] Setting up inception_4a/pool
I0403 19:01:48.723747 18491 net.cpp:148] Top shape: 24 480 14 14 (2257920)
I0403 19:01:48.723762 18491 net.cpp:156] Memory required for data: 884503584
I0403 19:01:48.723776 18491 layer_factory.hpp:77] Creating layer inception_4a/pool_proj
I0403 19:01:48.723798 18491 net.cpp:91] Creating Layer inception_4a/pool_proj
I0403 19:01:48.723816 18491 net.cpp:425] inception_4a/pool_proj <- inception_4a/pool
I0403 19:01:48.723836 18491 net.cpp:399] inception_4a/pool_proj -> inception_4a/pool_proj
I0403 19:01:48.724987 18491 net.cpp:141] Setting up inception_4a/pool_proj
I0403 19:01:48.725014 18491 net.cpp:148] Top shape: 24 64 14 14 (301056)
I0403 19:01:48.725044 18491 net.cpp:156] Memory required for data: 885707808
I0403 19:01:48.725064 18491 layer_factory.hpp:77] Creating layer inception_4a/relu_pool_proj
I0403 19:01:48.725085 18491 net.cpp:91] Creating Layer inception_4a/relu_pool_proj
I0403 19:01:48.725101 18491 net.cpp:425] inception_4a/relu_pool_proj <- inception_4a/pool_proj
I0403 19:01:48.725118 18491 net.cpp:386] inception_4a/relu_pool_proj -> inception_4a/pool_proj (in-place)
I0403 19:01:48.725395 18491 net.cpp:141] Setting up inception_4a/relu_pool_proj
I0403 19:01:48.725420 18491 net.cpp:148] Top shape: 24 64 14 14 (301056)
I0403 19:01:48.725435 18491 net.cpp:156] Memory required for data: 886912032
I0403 19:01:48.725450 18491 layer_factory.hpp:77] Creating layer inception_4a/output
I0403 19:01:48.725466 18491 net.cpp:91] Creating Layer inception_4a/output
I0403 19:01:48.725486 18491 net.cpp:425] inception_4a/output <- inception_4a/1x1
I0403 19:01:48.725502 18491 net.cpp:425] inception_4a/output <- inception_4a/3x3
I0403 19:01:48.725517 18491 net.cpp:425] inception_4a/output <- inception_4a/5x5
I0403 19:01:48.725533 18491 net.cpp:425] inception_4a/output <- inception_4a/pool_proj
I0403 19:01:48.725550 18491 net.cpp:399] inception_4a/output -> inception_4a/output
I0403 19:01:48.725591 18491 net.cpp:141] Setting up inception_4a/output
I0403 19:01:48.725616 18491 net.cpp:148] Top shape: 24 512 14 14 (2408448)
I0403 19:01:48.725631 18491 net.cpp:156] Memory required for data: 896545824
I0403 19:01:48.725646 18491 layer_factory.hpp:77] Creating layer inception_4a/output_inception_4a/output_0_split
I0403 19:01:48.725663 18491 net.cpp:91] Creating Layer inception_4a/output_inception_4a/output_0_split
I0403 19:01:48.725678 18491 net.cpp:425] inception_4a/output_inception_4a/output_0_split <- inception_4a/output
I0403 19:01:48.725698 18491 net.cpp:399] inception_4a/output_inception_4a/output_0_split -> inception_4a/output_inception_4a/output_0_split_0
I0403 19:01:48.725719 18491 net.cpp:399] inception_4a/output_inception_4a/output_0_split -> inception_4a/output_inception_4a/output_0_split_1
I0403 19:01:48.725739 18491 net.cpp:399] inception_4a/output_inception_4a/output_0_split -> inception_4a/output_inception_4a/output_0_split_2
I0403 19:01:48.725759 18491 net.cpp:399] inception_4a/output_inception_4a/output_0_split -> inception_4a/output_inception_4a/output_0_split_3
I0403 19:01:48.725780 18491 net.cpp:399] inception_4a/output_inception_4a/output_0_split -> inception_4a/output_inception_4a/output_0_split_4
I0403 19:01:48.725867 18491 net.cpp:141] Setting up inception_4a/output_inception_4a/output_0_split
I0403 19:01:48.725889 18491 net.cpp:148] Top shape: 24 512 14 14 (2408448)
I0403 19:01:48.725908 18491 net.cpp:148] Top shape: 24 512 14 14 (2408448)
I0403 19:01:48.725924 18491 net.cpp:148] Top shape: 24 512 14 14 (2408448)
I0403 19:01:48.725939 18491 net.cpp:148] Top shape: 24 512 14 14 (2408448)
I0403 19:01:48.725953 18491 net.cpp:148] Top shape: 24 512 14 14 (2408448)
I0403 19:01:48.725967 18491 net.cpp:156] Memory required for data: 944714784
I0403 19:01:48.725986 18491 layer_factory.hpp:77] Creating layer loss1/ave_pool
I0403 19:01:48.726006 18491 net.cpp:91] Creating Layer loss1/ave_pool
I0403 19:01:48.726021 18491 net.cpp:425] loss1/ave_pool <- inception_4a/output_inception_4a/output_0_split_0
I0403 19:01:48.726039 18491 net.cpp:399] loss1/ave_pool -> loss1/ave_pool
I0403 19:01:48.726238 18491 net.cpp:141] Setting up loss1/ave_pool
I0403 19:01:48.726263 18491 net.cpp:148] Top shape: 24 512 4 4 (196608)
I0403 19:01:48.726276 18491 net.cpp:156] Memory required for data: 945501216
I0403 19:01:48.726291 18491 layer_factory.hpp:77] Creating layer loss1/conv
I0403 19:01:48.726312 18491 net.cpp:91] Creating Layer loss1/conv
I0403 19:01:48.726330 18491 net.cpp:425] loss1/conv <- loss1/ave_pool
I0403 19:01:48.726351 18491 net.cpp:399] loss1/conv -> loss1/conv
I0403 19:01:48.727700 18491 net.cpp:141] Setting up loss1/conv
I0403 19:01:48.727727 18491 net.cpp:148] Top shape: 24 128 4 4 (49152)
I0403 19:01:48.727756 18491 net.cpp:156] Memory required for data: 945697824
I0403 19:01:48.727774 18491 layer_factory.hpp:77] Creating layer loss1/relu_conv
I0403 19:01:48.727794 18491 net.cpp:91] Creating Layer loss1/relu_conv
I0403 19:01:48.727812 18491 net.cpp:425] loss1/relu_conv <- loss1/conv
I0403 19:01:48.727828 18491 net.cpp:386] loss1/relu_conv -> loss1/conv (in-place)
I0403 19:01:48.728101 18491 net.cpp:141] Setting up loss1/relu_conv
I0403 19:01:48.728127 18491 net.cpp:148] Top shape: 24 128 4 4 (49152)
I0403 19:01:48.728142 18491 net.cpp:156] Memory required for data: 945894432
I0403 19:01:48.728157 18491 layer_factory.hpp:77] Creating layer loss1/fc
I0403 19:01:48.728183 18491 net.cpp:91] Creating Layer loss1/fc
I0403 19:01:48.728199 18491 net.cpp:425] loss1/fc <- loss1/conv
I0403 19:01:48.728222 18491 net.cpp:399] loss1/fc -> loss1/fc
I0403 19:01:48.745417 18491 net.cpp:141] Setting up loss1/fc
I0403 19:01:48.745451 18491 net.cpp:148] Top shape: 24 1024 (24576)
I0403 19:01:48.745467 18491 net.cpp:156] Memory required for data: 945992736
I0403 19:01:48.745486 18491 layer_factory.hpp:77] Creating layer loss1/relu_fc
I0403 19:01:48.745503 18491 net.cpp:91] Creating Layer loss1/relu_fc
I0403 19:01:48.745518 18491 net.cpp:425] loss1/relu_fc <- loss1/fc
I0403 19:01:48.745537 18491 net.cpp:386] loss1/relu_fc -> loss1/fc (in-place)
I0403 19:01:48.745714 18491 net.cpp:141] Setting up loss1/relu_fc
I0403 19:01:48.745740 18491 net.cpp:148] Top shape: 24 1024 (24576)
I0403 19:01:48.745755 18491 net.cpp:156] Memory required for data: 946091040
I0403 19:01:48.745770 18491 layer_factory.hpp:77] Creating layer loss1/drop_fc
I0403 19:01:48.745796 18491 net.cpp:91] Creating Layer loss1/drop_fc
I0403 19:01:48.745813 18491 net.cpp:425] loss1/drop_fc <- loss1/fc
I0403 19:01:48.745831 18491 net.cpp:386] loss1/drop_fc -> loss1/fc (in-place)
I0403 19:01:48.745880 18491 net.cpp:141] Setting up loss1/drop_fc
I0403 19:01:48.745903 18491 net.cpp:148] Top shape: 24 1024 (24576)
I0403 19:01:48.745918 18491 net.cpp:156] Memory required for data: 946189344
I0403 19:01:48.745932 18491 layer_factory.hpp:77] Creating layer loss1/classifier_plantvillage
I0403 19:01:48.745949 18491 net.cpp:91] Creating Layer loss1/classifier_plantvillage
I0403 19:01:48.745966 18491 net.cpp:425] loss1/classifier_plantvillage <- loss1/fc
I0403 19:01:48.745991 18491 net.cpp:399] loss1/classifier_plantvillage -> loss1/classifier_plantvillage
I0403 19:01:48.746861 18491 net.cpp:141] Setting up loss1/classifier_plantvillage
I0403 19:01:48.746888 18491 net.cpp:148] Top shape: 24 38 (912)
I0403 19:01:48.746903 18491 net.cpp:156] Memory required for data: 946192992
I0403 19:01:48.746922 18491 layer_factory.hpp:77] Creating layer loss1/classifier_plantvillage_loss1/classifier_plantvillage_0_split
I0403 19:01:48.746942 18491 net.cpp:91] Creating Layer loss1/classifier_plantvillage_loss1/classifier_plantvillage_0_split
I0403 19:01:48.746958 18491 net.cpp:425] loss1/classifier_plantvillage_loss1/classifier_plantvillage_0_split <- loss1/classifier_plantvillage
I0403 19:01:48.746975 18491 net.cpp:399] loss1/classifier_plantvillage_loss1/classifier_plantvillage_0_split -> loss1/classifier_plantvillage_loss1/classifier_plantvillage_0_split_0
I0403 19:01:48.747000 18491 net.cpp:399] loss1/classifier_plantvillage_loss1/classifier_plantvillage_0_split -> loss1/classifier_plantvillage_loss1/classifier_plantvillage_0_split_1
I0403 19:01:48.747020 18491 net.cpp:399] loss1/classifier_plantvillage_loss1/classifier_plantvillage_0_split -> loss1/classifier_plantvillage_loss1/classifier_plantvillage_0_split_2
I0403 19:01:48.747089 18491 net.cpp:141] Setting up loss1/classifier_plantvillage_loss1/classifier_plantvillage_0_split
I0403 19:01:48.747112 18491 net.cpp:148] Top shape: 24 38 (912)
I0403 19:01:48.747126 18491 net.cpp:148] Top shape: 24 38 (912)
I0403 19:01:48.747141 18491 net.cpp:148] Top shape: 24 38 (912)
I0403 19:01:48.747154 18491 net.cpp:156] Memory required for data: 946203936
I0403 19:01:48.747169 18491 layer_factory.hpp:77] Creating layer inception_4b/1x1
I0403 19:01:48.747205 18491 net.cpp:91] Creating Layer inception_4b/1x1
I0403 19:01:48.747237 18491 net.cpp:425] inception_4b/1x1 <- inception_4a/output_inception_4a/output_0_split_1
I0403 19:01:48.747258 18491 net.cpp:399] inception_4b/1x1 -> inception_4b/1x1
I0403 19:01:48.748858 18491 net.cpp:141] Setting up inception_4b/1x1
I0403 19:01:48.748888 18491 net.cpp:148] Top shape: 24 160 14 14 (752640)
I0403 19:01:48.748903 18491 net.cpp:156] Memory required for data: 949214496
I0403 19:01:48.748921 18491 layer_factory.hpp:77] Creating layer inception_4b/relu_1x1
I0403 19:01:48.748939 18491 net.cpp:91] Creating Layer inception_4b/relu_1x1
I0403 19:01:48.748955 18491 net.cpp:425] inception_4b/relu_1x1 <- inception_4b/1x1
I0403 19:01:48.748975 18491 net.cpp:386] inception_4b/relu_1x1 -> inception_4b/1x1 (in-place)
I0403 19:01:48.749157 18491 net.cpp:141] Setting up inception_4b/relu_1x1
I0403 19:01:48.749182 18491 net.cpp:148] Top shape: 24 160 14 14 (752640)
I0403 19:01:48.749197 18491 net.cpp:156] Memory required for data: 952225056
I0403 19:01:48.749210 18491 layer_factory.hpp:77] Creating layer inception_4b/3x3_reduce
I0403 19:01:48.749234 18491 net.cpp:91] Creating Layer inception_4b/3x3_reduce
I0403 19:01:48.749253 18491 net.cpp:425] inception_4b/3x3_reduce <- inception_4a/output_inception_4a/output_0_split_2
I0403 19:01:48.749274 18491 net.cpp:399] inception_4b/3x3_reduce -> inception_4b/3x3_reduce
I0403 19:01:48.750571 18491 net.cpp:141] Setting up inception_4b/3x3_reduce
I0403 19:01:48.750598 18491 net.cpp:148] Top shape: 24 112 14 14 (526848)
I0403 19:01:48.750613 18491 net.cpp:156] Memory required for data: 954332448
I0403 19:01:48.750632 18491 layer_factory.hpp:77] Creating layer inception_4b/relu_3x3_reduce
I0403 19:01:48.750649 18491 net.cpp:91] Creating Layer inception_4b/relu_3x3_reduce
I0403 19:01:48.750665 18491 net.cpp:425] inception_4b/relu_3x3_reduce <- inception_4b/3x3_reduce
I0403 19:01:48.750684 18491 net.cpp:386] inception_4b/relu_3x3_reduce -> inception_4b/3x3_reduce (in-place)
I0403 19:01:48.750957 18491 net.cpp:141] Setting up inception_4b/relu_3x3_reduce
I0403 19:01:48.750985 18491 net.cpp:148] Top shape: 24 112 14 14 (526848)
I0403 19:01:48.751001 18491 net.cpp:156] Memory required for data: 956439840
I0403 19:01:48.751016 18491 layer_factory.hpp:77] Creating layer inception_4b/3x3
I0403 19:01:48.751039 18491 net.cpp:91] Creating Layer inception_4b/3x3
I0403 19:01:48.751055 18491 net.cpp:425] inception_4b/3x3 <- inception_4b/3x3_reduce
I0403 19:01:48.751076 18491 net.cpp:399] inception_4b/3x3 -> inception_4b/3x3
I0403 19:01:48.753942 18491 net.cpp:141] Setting up inception_4b/3x3
I0403 19:01:48.753971 18491 net.cpp:148] Top shape: 24 224 14 14 (1053696)
I0403 19:01:48.753990 18491 net.cpp:156] Memory required for data: 960654624
I0403 19:01:48.754010 18491 layer_factory.hpp:77] Creating layer inception_4b/relu_3x3
I0403 19:01:48.754030 18491 net.cpp:91] Creating Layer inception_4b/relu_3x3
I0403 19:01:48.754047 18491 net.cpp:425] inception_4b/relu_3x3 <- inception_4b/3x3
I0403 19:01:48.754065 18491 net.cpp:386] inception_4b/relu_3x3 -> inception_4b/3x3 (in-place)
I0403 19:01:48.754235 18491 net.cpp:141] Setting up inception_4b/relu_3x3
I0403 19:01:48.754261 18491 net.cpp:148] Top shape: 24 224 14 14 (1053696)
I0403 19:01:48.754277 18491 net.cpp:156] Memory required for data: 964869408
I0403 19:01:48.754292 18491 layer_factory.hpp:77] Creating layer inception_4b/5x5_reduce
I0403 19:01:48.754314 18491 net.cpp:91] Creating Layer inception_4b/5x5_reduce
I0403 19:01:48.754331 18491 net.cpp:425] inception_4b/5x5_reduce <- inception_4a/output_inception_4a/output_0_split_3
I0403 19:01:48.754350 18491 net.cpp:399] inception_4b/5x5_reduce -> inception_4b/5x5_reduce
I0403 19:01:48.755455 18491 net.cpp:141] Setting up inception_4b/5x5_reduce
I0403 19:01:48.755497 18491 net.cpp:148] Top shape: 24 24 14 14 (112896)
I0403 19:01:48.755514 18491 net.cpp:156] Memory required for data: 965320992
I0403 19:01:48.755532 18491 layer_factory.hpp:77] Creating layer inception_4b/relu_5x5_reduce
I0403 19:01:48.755550 18491 net.cpp:91] Creating Layer inception_4b/relu_5x5_reduce
I0403 19:01:48.755580 18491 net.cpp:425] inception_4b/relu_5x5_reduce <- inception_4b/5x5_reduce
I0403 19:01:48.755601 18491 net.cpp:386] inception_4b/relu_5x5_reduce -> inception_4b/5x5_reduce (in-place)
I0403 19:01:48.755786 18491 net.cpp:141] Setting up inception_4b/relu_5x5_reduce
I0403 19:01:48.755811 18491 net.cpp:148] Top shape: 24 24 14 14 (112896)
I0403 19:01:48.755826 18491 net.cpp:156] Memory required for data: 965772576
I0403 19:01:48.755841 18491 layer_factory.hpp:77] Creating layer inception_4b/5x5
I0403 19:01:48.755863 18491 net.cpp:91] Creating Layer inception_4b/5x5
I0403 19:01:48.755882 18491 net.cpp:425] inception_4b/5x5 <- inception_4b/5x5_reduce
I0403 19:01:48.755903 18491 net.cpp:399] inception_4b/5x5 -> inception_4b/5x5
I0403 19:01:48.757122 18491 net.cpp:141] Setting up inception_4b/5x5
I0403 19:01:48.757150 18491 net.cpp:148] Top shape: 24 64 14 14 (301056)
I0403 19:01:48.757165 18491 net.cpp:156] Memory required for data: 966976800
I0403 19:01:48.757186 18491 layer_factory.hpp:77] Creating layer inception_4b/relu_5x5
I0403 19:01:48.757207 18491 net.cpp:91] Creating Layer inception_4b/relu_5x5
I0403 19:01:48.757225 18491 net.cpp:425] inception_4b/relu_5x5 <- inception_4b/5x5
I0403 19:01:48.757241 18491 net.cpp:386] inception_4b/relu_5x5 -> inception_4b/5x5 (in-place)
I0403 19:01:48.757521 18491 net.cpp:141] Setting up inception_4b/relu_5x5
I0403 19:01:48.757549 18491 net.cpp:148] Top shape: 24 64 14 14 (301056)
I0403 19:01:48.757565 18491 net.cpp:156] Memory required for data: 968181024
I0403 19:01:48.757580 18491 layer_factory.hpp:77] Creating layer inception_4b/pool
I0403 19:01:48.757597 18491 net.cpp:91] Creating Layer inception_4b/pool
I0403 19:01:48.757616 18491 net.cpp:425] inception_4b/pool <- inception_4a/output_inception_4a/output_0_split_4
I0403 19:01:48.757637 18491 net.cpp:399] inception_4b/pool -> inception_4b/pool
I0403 19:01:48.757699 18491 net.cpp:141] Setting up inception_4b/pool
I0403 19:01:48.757724 18491 net.cpp:148] Top shape: 24 512 14 14 (2408448)
I0403 19:01:48.757738 18491 net.cpp:156] Memory required for data: 977814816
I0403 19:01:48.757753 18491 layer_factory.hpp:77] Creating layer inception_4b/pool_proj
I0403 19:01:48.757776 18491 net.cpp:91] Creating Layer inception_4b/pool_proj
I0403 19:01:48.757793 18491 net.cpp:425] inception_4b/pool_proj <- inception_4b/pool
I0403 19:01:48.757814 18491 net.cpp:399] inception_4b/pool_proj -> inception_4b/pool_proj
I0403 19:01:48.759009 18491 net.cpp:141] Setting up inception_4b/pool_proj
I0403 19:01:48.759039 18491 net.cpp:148] Top shape: 24 64 14 14 (301056)
I0403 19:01:48.759057 18491 net.cpp:156] Memory required for data: 979019040
I0403 19:01:48.759074 18491 layer_factory.hpp:77] Creating layer inception_4b/relu_pool_proj
I0403 19:01:48.759093 18491 net.cpp:91] Creating Layer inception_4b/relu_pool_proj
I0403 19:01:48.759109 18491 net.cpp:425] inception_4b/relu_pool_proj <- inception_4b/pool_proj
I0403 19:01:48.759130 18491 net.cpp:386] inception_4b/relu_pool_proj -> inception_4b/pool_proj (in-place)
I0403 19:01:48.759308 18491 net.cpp:141] Setting up inception_4b/relu_pool_proj
I0403 19:01:48.759335 18491 net.cpp:148] Top shape: 24 64 14 14 (301056)
I0403 19:01:48.759348 18491 net.cpp:156] Memory required for data: 980223264
I0403 19:01:48.759363 18491 layer_factory.hpp:77] Creating layer inception_4b/output
I0403 19:01:48.759382 18491 net.cpp:91] Creating Layer inception_4b/output
I0403 19:01:48.759397 18491 net.cpp:425] inception_4b/output <- inception_4b/1x1
I0403 19:01:48.759413 18491 net.cpp:425] inception_4b/output <- inception_4b/3x3
I0403 19:01:48.759429 18491 net.cpp:425] inception_4b/output <- inception_4b/5x5
I0403 19:01:48.759444 18491 net.cpp:425] inception_4b/output <- inception_4b/pool_proj
I0403 19:01:48.759464 18491 net.cpp:399] inception_4b/output -> inception_4b/output
I0403 19:01:48.759510 18491 net.cpp:141] Setting up inception_4b/output
I0403 19:01:48.759534 18491 net.cpp:148] Top shape: 24 512 14 14 (2408448)
I0403 19:01:48.759551 18491 net.cpp:156] Memory required for data: 989857056
I0403 19:01:48.759579 18491 layer_factory.hpp:77] Creating layer inception_4b/output_inception_4b/output_0_split
I0403 19:01:48.759598 18491 net.cpp:91] Creating Layer inception_4b/output_inception_4b/output_0_split
I0403 19:01:48.759613 18491 net.cpp:425] inception_4b/output_inception_4b/output_0_split <- inception_4b/output
I0403 19:01:48.759631 18491 net.cpp:399] inception_4b/output_inception_4b/output_0_split -> inception_4b/output_inception_4b/output_0_split_0
I0403 19:01:48.759654 18491 net.cpp:399] inception_4b/output_inception_4b/output_0_split -> inception_4b/output_inception_4b/output_0_split_1
I0403 19:01:48.759675 18491 net.cpp:399] inception_4b/output_inception_4b/output_0_split -> inception_4b/output_inception_4b/output_0_split_2
I0403 19:01:48.759696 18491 net.cpp:399] inception_4b/output_inception_4b/output_0_split -> inception_4b/output_inception_4b/output_0_split_3
I0403 19:01:48.759778 18491 net.cpp:141] Setting up inception_4b/output_inception_4b/output_0_split
I0403 19:01:48.759800 18491 net.cpp:148] Top shape: 24 512 14 14 (2408448)
I0403 19:01:48.759817 18491 net.cpp:148] Top shape: 24 512 14 14 (2408448)
I0403 19:01:48.759834 18491 net.cpp:148] Top shape: 24 512 14 14 (2408448)
I0403 19:01:48.759850 18491 net.cpp:148] Top shape: 24 512 14 14 (2408448)
I0403 19:01:48.759862 18491 net.cpp:156] Memory required for data: 1028392224
I0403 19:01:48.759876 18491 layer_factory.hpp:77] Creating layer inception_4c/1x1
I0403 19:01:48.759902 18491 net.cpp:91] Creating Layer inception_4c/1x1
I0403 19:01:48.759918 18491 net.cpp:425] inception_4c/1x1 <- inception_4b/output_inception_4b/output_0_split_0
I0403 19:01:48.759938 18491 net.cpp:399] inception_4c/1x1 -> inception_4c/1x1
I0403 19:01:48.761355 18491 net.cpp:141] Setting up inception_4c/1x1
I0403 19:01:48.761384 18491 net.cpp:148] Top shape: 24 128 14 14 (602112)
I0403 19:01:48.761399 18491 net.cpp:156] Memory required for data: 1030800672
I0403 19:01:48.761417 18491 layer_factory.hpp:77] Creating layer inception_4c/relu_1x1
I0403 19:01:48.761438 18491 net.cpp:91] Creating Layer inception_4c/relu_1x1
I0403 19:01:48.761456 18491 net.cpp:425] inception_4c/relu_1x1 <- inception_4c/1x1
I0403 19:01:48.761473 18491 net.cpp:386] inception_4c/relu_1x1 -> inception_4c/1x1 (in-place)
I0403 19:01:48.761651 18491 net.cpp:141] Setting up inception_4c/relu_1x1
I0403 19:01:48.761675 18491 net.cpp:148] Top shape: 24 128 14 14 (602112)
I0403 19:01:48.761690 18491 net.cpp:156] Memory required for data: 1033209120
I0403 19:01:48.761705 18491 layer_factory.hpp:77] Creating layer inception_4c/3x3_reduce
I0403 19:01:48.761728 18491 net.cpp:91] Creating Layer inception_4c/3x3_reduce
I0403 19:01:48.761745 18491 net.cpp:425] inception_4c/3x3_reduce <- inception_4b/output_inception_4b/output_0_split_1
I0403 19:01:48.761766 18491 net.cpp:399] inception_4c/3x3_reduce -> inception_4c/3x3_reduce
I0403 19:01:48.763684 18491 net.cpp:141] Setting up inception_4c/3x3_reduce
I0403 19:01:48.763713 18491 net.cpp:148] Top shape: 24 128 14 14 (602112)
I0403 19:01:48.763731 18491 net.cpp:156] Memory required for data: 1035617568
I0403 19:01:48.763748 18491 layer_factory.hpp:77] Creating layer inception_4c/relu_3x3_reduce
I0403 19:01:48.763767 18491 net.cpp:91] Creating Layer inception_4c/relu_3x3_reduce
I0403 19:01:48.763782 18491 net.cpp:425] inception_4c/relu_3x3_reduce <- inception_4c/3x3_reduce
I0403 19:01:48.763800 18491 net.cpp:386] inception_4c/relu_3x3_reduce -> inception_4c/3x3_reduce (in-place)
I0403 19:01:48.764086 18491 net.cpp:141] Setting up inception_4c/relu_3x3_reduce
I0403 19:01:48.764114 18491 net.cpp:148] Top shape: 24 128 14 14 (602112)
I0403 19:01:48.764129 18491 net.cpp:156] Memory required for data: 1038026016
I0403 19:01:48.764144 18491 layer_factory.hpp:77] Creating layer inception_4c/3x3
I0403 19:01:48.764168 18491 net.cpp:91] Creating Layer inception_4c/3x3
I0403 19:01:48.764188 18491 net.cpp:425] inception_4c/3x3 <- inception_4c/3x3_reduce
I0403 19:01:48.764207 18491 net.cpp:399] inception_4c/3x3 -> inception_4c/3x3
I0403 19:01:48.767781 18491 net.cpp:141] Setting up inception_4c/3x3
I0403 19:01:48.767823 18491 net.cpp:148] Top shape: 24 256 14 14 (1204224)
I0403 19:01:48.767841 18491 net.cpp:156] Memory required for data: 1042842912
I0403 19:01:48.767874 18491 layer_factory.hpp:77] Creating layer inception_4c/relu_3x3
I0403 19:01:48.767894 18491 net.cpp:91] Creating Layer inception_4c/relu_3x3
I0403 19:01:48.767911 18491 net.cpp:425] inception_4c/relu_3x3 <- inception_4c/3x3
I0403 19:01:48.767930 18491 net.cpp:386] inception_4c/relu_3x3 -> inception_4c/3x3 (in-place)
I0403 19:01:48.768113 18491 net.cpp:141] Setting up inception_4c/relu_3x3
I0403 19:01:48.768141 18491 net.cpp:148] Top shape: 24 256 14 14 (1204224)
I0403 19:01:48.768157 18491 net.cpp:156] Memory required for data: 1047659808
I0403 19:01:48.768172 18491 layer_factory.hpp:77] Creating layer inception_4c/5x5_reduce
I0403 19:01:48.768196 18491 net.cpp:91] Creating Layer inception_4c/5x5_reduce
I0403 19:01:48.768214 18491 net.cpp:425] inception_4c/5x5_reduce <- inception_4b/output_inception_4b/output_0_split_2
I0403 19:01:48.768236 18491 net.cpp:399] inception_4c/5x5_reduce -> inception_4c/5x5_reduce
I0403 19:01:48.769328 18491 net.cpp:141] Setting up inception_4c/5x5_reduce
I0403 19:01:48.769358 18491 net.cpp:148] Top shape: 24 24 14 14 (112896)
I0403 19:01:48.769374 18491 net.cpp:156] Memory required for data: 1048111392
I0403 19:01:48.769393 18491 layer_factory.hpp:77] Creating layer inception_4c/relu_5x5_reduce
I0403 19:01:48.769412 18491 net.cpp:91] Creating Layer inception_4c/relu_5x5_reduce
I0403 19:01:48.769428 18491 net.cpp:425] inception_4c/relu_5x5_reduce <- inception_4c/5x5_reduce
I0403 19:01:48.769445 18491 net.cpp:386] inception_4c/relu_5x5_reduce -> inception_4c/5x5_reduce (in-place)
I0403 19:01:48.769631 18491 net.cpp:141] Setting up inception_4c/relu_5x5_reduce
I0403 19:01:48.769655 18491 net.cpp:148] Top shape: 24 24 14 14 (112896)
I0403 19:01:48.769670 18491 net.cpp:156] Memory required for data: 1048562976
I0403 19:01:48.769685 18491 layer_factory.hpp:77] Creating layer inception_4c/5x5
I0403 19:01:48.769707 18491 net.cpp:91] Creating Layer inception_4c/5x5
I0403 19:01:48.769726 18491 net.cpp:425] inception_4c/5x5 <- inception_4c/5x5_reduce
I0403 19:01:48.769747 18491 net.cpp:399] inception_4c/5x5 -> inception_4c/5x5
I0403 19:01:48.770993 18491 net.cpp:141] Setting up inception_4c/5x5
I0403 19:01:48.771020 18491 net.cpp:148] Top shape: 24 64 14 14 (301056)
I0403 19:01:48.771036 18491 net.cpp:156] Memory required for data: 1049767200
I0403 19:01:48.771054 18491 layer_factory.hpp:77] Creating layer inception_4c/relu_5x5
I0403 19:01:48.771073 18491 net.cpp:91] Creating Layer inception_4c/relu_5x5
I0403 19:01:48.771090 18491 net.cpp:425] inception_4c/relu_5x5 <- inception_4c/5x5
I0403 19:01:48.771111 18491 net.cpp:386] inception_4c/relu_5x5 -> inception_4c/5x5 (in-place)
I0403 19:01:48.771401 18491 net.cpp:141] Setting up inception_4c/relu_5x5
I0403 19:01:48.771427 18491 net.cpp:148] Top shape: 24 64 14 14 (301056)
I0403 19:01:48.771442 18491 net.cpp:156] Memory required for data: 1050971424
I0403 19:01:48.771457 18491 layer_factory.hpp:77] Creating layer inception_4c/pool
I0403 19:01:48.771476 18491 net.cpp:91] Creating Layer inception_4c/pool
I0403 19:01:48.771492 18491 net.cpp:425] inception_4c/pool <- inception_4b/output_inception_4b/output_0_split_3
I0403 19:01:48.771513 18491 net.cpp:399] inception_4c/pool -> inception_4c/pool
I0403 19:01:48.771579 18491 net.cpp:141] Setting up inception_4c/pool
I0403 19:01:48.771602 18491 net.cpp:148] Top shape: 24 512 14 14 (2408448)
I0403 19:01:48.771616 18491 net.cpp:156] Memory required for data: 1060605216
I0403 19:01:48.771631 18491 layer_factory.hpp:77] Creating layer inception_4c/pool_proj
I0403 19:01:48.771654 18491 net.cpp:91] Creating Layer inception_4c/pool_proj
I0403 19:01:48.771672 18491 net.cpp:425] inception_4c/pool_proj <- inception_4c/pool
I0403 19:01:48.771690 18491 net.cpp:399] inception_4c/pool_proj -> inception_4c/pool_proj
I0403 19:01:48.772902 18491 net.cpp:141] Setting up inception_4c/pool_proj
I0403 19:01:48.772932 18491 net.cpp:148] Top shape: 24 64 14 14 (301056)
I0403 19:01:48.772959 18491 net.cpp:156] Memory required for data: 1061809440
I0403 19:01:48.772984 18491 layer_factory.hpp:77] Creating layer inception_4c/relu_pool_proj
I0403 19:01:48.773002 18491 net.cpp:91] Creating Layer inception_4c/relu_pool_proj
I0403 19:01:48.773018 18491 net.cpp:425] inception_4c/relu_pool_proj <- inception_4c/pool_proj
I0403 19:01:48.773037 18491 net.cpp:386] inception_4c/relu_pool_proj -> inception_4c/pool_proj (in-place)
I0403 19:01:48.773214 18491 net.cpp:141] Setting up inception_4c/relu_pool_proj
I0403 19:01:48.773238 18491 net.cpp:148] Top shape: 24 64 14 14 (301056)
I0403 19:01:48.773252 18491 net.cpp:156] Memory required for data: 1063013664
I0403 19:01:48.773267 18491 layer_factory.hpp:77] Creating layer inception_4c/output
I0403 19:01:48.773284 18491 net.cpp:91] Creating Layer inception_4c/output
I0403 19:01:48.773300 18491 net.cpp:425] inception_4c/output <- inception_4c/1x1
I0403 19:01:48.773316 18491 net.cpp:425] inception_4c/output <- inception_4c/3x3
I0403 19:01:48.773331 18491 net.cpp:425] inception_4c/output <- inception_4c/5x5
I0403 19:01:48.773346 18491 net.cpp:425] inception_4c/output <- inception_4c/pool_proj
I0403 19:01:48.773365 18491 net.cpp:399] inception_4c/output -> inception_4c/output
I0403 19:01:48.773409 18491 net.cpp:141] Setting up inception_4c/output
I0403 19:01:48.773434 18491 net.cpp:148] Top shape: 24 512 14 14 (2408448)
I0403 19:01:48.773449 18491 net.cpp:156] Memory required for data: 1072647456
I0403 19:01:48.773464 18491 layer_factory.hpp:77] Creating layer inception_4c/output_inception_4c/output_0_split
I0403 19:01:48.773481 18491 net.cpp:91] Creating Layer inception_4c/output_inception_4c/output_0_split
I0403 19:01:48.773496 18491 net.cpp:425] inception_4c/output_inception_4c/output_0_split <- inception_4c/output
I0403 19:01:48.773514 18491 net.cpp:399] inception_4c/output_inception_4c/output_0_split -> inception_4c/output_inception_4c/output_0_split_0
I0403 19:01:48.773535 18491 net.cpp:399] inception_4c/output_inception_4c/output_0_split -> inception_4c/output_inception_4c/output_0_split_1
I0403 19:01:48.773555 18491 net.cpp:399] inception_4c/output_inception_4c/output_0_split -> inception_4c/output_inception_4c/output_0_split_2
I0403 19:01:48.773576 18491 net.cpp:399] inception_4c/output_inception_4c/output_0_split -> inception_4c/output_inception_4c/output_0_split_3
I0403 19:01:48.773660 18491 net.cpp:141] Setting up inception_4c/output_inception_4c/output_0_split
I0403 19:01:48.773682 18491 net.cpp:148] Top shape: 24 512 14 14 (2408448)
I0403 19:01:48.773699 18491 net.cpp:148] Top shape: 24 512 14 14 (2408448)
I0403 19:01:48.773713 18491 net.cpp:148] Top shape: 24 512 14 14 (2408448)
I0403 19:01:48.773728 18491 net.cpp:148] Top shape: 24 512 14 14 (2408448)
I0403 19:01:48.773741 18491 net.cpp:156] Memory required for data: 1111182624
I0403 19:01:48.773756 18491 layer_factory.hpp:77] Creating layer inception_4d/1x1
I0403 19:01:48.773777 18491 net.cpp:91] Creating Layer inception_4d/1x1
I0403 19:01:48.773797 18491 net.cpp:425] inception_4d/1x1 <- inception_4c/output_inception_4c/output_0_split_0
I0403 19:01:48.773814 18491 net.cpp:399] inception_4d/1x1 -> inception_4d/1x1
I0403 19:01:48.775146 18491 net.cpp:141] Setting up inception_4d/1x1
I0403 19:01:48.775172 18491 net.cpp:148] Top shape: 24 112 14 14 (526848)
I0403 19:01:48.775187 18491 net.cpp:156] Memory required for data: 1113290016
I0403 19:01:48.775207 18491 layer_factory.hpp:77] Creating layer inception_4d/relu_1x1
I0403 19:01:48.775228 18491 net.cpp:91] Creating Layer inception_4d/relu_1x1
I0403 19:01:48.775244 18491 net.cpp:425] inception_4d/relu_1x1 <- inception_4d/1x1
I0403 19:01:48.775260 18491 net.cpp:386] inception_4d/relu_1x1 -> inception_4d/1x1 (in-place)
I0403 19:01:48.775439 18491 net.cpp:141] Setting up inception_4d/relu_1x1
I0403 19:01:48.775465 18491 net.cpp:148] Top shape: 24 112 14 14 (526848)
I0403 19:01:48.775480 18491 net.cpp:156] Memory required for data: 1115397408
I0403 19:01:48.775495 18491 layer_factory.hpp:77] Creating layer inception_4d/3x3_reduce
I0403 19:01:48.775529 18491 net.cpp:91] Creating Layer inception_4d/3x3_reduce
I0403 19:01:48.775547 18491 net.cpp:425] inception_4d/3x3_reduce <- inception_4c/output_inception_4c/output_0_split_1
I0403 19:01:48.775566 18491 net.cpp:399] inception_4d/3x3_reduce -> inception_4d/3x3_reduce
I0403 19:01:48.777027 18491 net.cpp:141] Setting up inception_4d/3x3_reduce
I0403 19:01:48.777053 18491 net.cpp:148] Top shape: 24 144 14 14 (677376)
I0403 19:01:48.777070 18491 net.cpp:156] Memory required for data: 1118106912
I0403 19:01:48.777087 18491 layer_factory.hpp:77] Creating layer inception_4d/relu_3x3_reduce
I0403 19:01:48.777107 18491 net.cpp:91] Creating Layer inception_4d/relu_3x3_reduce
I0403 19:01:48.777124 18491 net.cpp:425] inception_4d/relu_3x3_reduce <- inception_4d/3x3_reduce
I0403 19:01:48.777142 18491 net.cpp:386] inception_4d/relu_3x3_reduce -> inception_4d/3x3_reduce (in-place)
I0403 19:01:48.777421 18491 net.cpp:141] Setting up inception_4d/relu_3x3_reduce
I0403 19:01:48.777447 18491 net.cpp:148] Top shape: 24 144 14 14 (677376)
I0403 19:01:48.777462 18491 net.cpp:156] Memory required for data: 1120816416
I0403 19:01:48.777477 18491 layer_factory.hpp:77] Creating layer inception_4d/3x3
I0403 19:01:48.777498 18491 net.cpp:91] Creating Layer inception_4d/3x3
I0403 19:01:48.777516 18491 net.cpp:425] inception_4d/3x3 <- inception_4d/3x3_reduce
I0403 19:01:48.777537 18491 net.cpp:399] inception_4d/3x3 -> inception_4d/3x3
I0403 19:01:48.781700 18491 net.cpp:141] Setting up inception_4d/3x3
I0403 19:01:48.781728 18491 net.cpp:148] Top shape: 24 288 14 14 (1354752)
I0403 19:01:48.781744 18491 net.cpp:156] Memory required for data: 1126235424
I0403 19:01:48.781764 18491 layer_factory.hpp:77] Creating layer inception_4d/relu_3x3
I0403 19:01:48.781783 18491 net.cpp:91] Creating Layer inception_4d/relu_3x3
I0403 19:01:48.781801 18491 net.cpp:425] inception_4d/relu_3x3 <- inception_4d/3x3
I0403 19:01:48.781818 18491 net.cpp:386] inception_4d/relu_3x3 -> inception_4d/3x3 (in-place)
I0403 19:01:48.782001 18491 net.cpp:141] Setting up inception_4d/relu_3x3
I0403 19:01:48.782028 18491 net.cpp:148] Top shape: 24 288 14 14 (1354752)
I0403 19:01:48.782043 18491 net.cpp:156] Memory required for data: 1131654432
I0403 19:01:48.782058 18491 layer_factory.hpp:77] Creating layer inception_4d/5x5_reduce
I0403 19:01:48.782079 18491 net.cpp:91] Creating Layer inception_4d/5x5_reduce
I0403 19:01:48.782097 18491 net.cpp:425] inception_4d/5x5_reduce <- inception_4c/output_inception_4c/output_0_split_2
I0403 19:01:48.782116 18491 net.cpp:399] inception_4d/5x5_reduce -> inception_4d/5x5_reduce
I0403 19:01:48.783221 18491 net.cpp:141] Setting up inception_4d/5x5_reduce
I0403 19:01:48.783248 18491 net.cpp:148] Top shape: 24 32 14 14 (150528)
I0403 19:01:48.783263 18491 net.cpp:156] Memory required for data: 1132256544
I0403 19:01:48.783282 18491 layer_factory.hpp:77] Creating layer inception_4d/relu_5x5_reduce
I0403 19:01:48.783301 18491 net.cpp:91] Creating Layer inception_4d/relu_5x5_reduce
I0403 19:01:48.783318 18491 net.cpp:425] inception_4d/relu_5x5_reduce <- inception_4d/5x5_reduce
I0403 19:01:48.783336 18491 net.cpp:386] inception_4d/relu_5x5_reduce -> inception_4d/5x5_reduce (in-place)
I0403 19:01:48.783514 18491 net.cpp:141] Setting up inception_4d/relu_5x5_reduce
I0403 19:01:48.783541 18491 net.cpp:148] Top shape: 24 32 14 14 (150528)
I0403 19:01:48.783556 18491 net.cpp:156] Memory required for data: 1132858656
I0403 19:01:48.783571 18491 layer_factory.hpp:77] Creating layer inception_4d/5x5
I0403 19:01:48.783593 18491 net.cpp:91] Creating Layer inception_4d/5x5
I0403 19:01:48.783612 18491 net.cpp:425] inception_4d/5x5 <- inception_4d/5x5_reduce
I0403 19:01:48.783629 18491 net.cpp:399] inception_4d/5x5 -> inception_4d/5x5
I0403 19:01:48.785073 18491 net.cpp:141] Setting up inception_4d/5x5
I0403 19:01:48.785099 18491 net.cpp:148] Top shape: 24 64 14 14 (301056)
I0403 19:01:48.785115 18491 net.cpp:156] Memory required for data: 1134062880
I0403 19:01:48.785133 18491 layer_factory.hpp:77] Creating layer inception_4d/relu_5x5
I0403 19:01:48.785164 18491 net.cpp:91] Creating Layer inception_4d/relu_5x5
I0403 19:01:48.785182 18491 net.cpp:425] inception_4d/relu_5x5 <- inception_4d/5x5
I0403 19:01:48.785202 18491 net.cpp:386] inception_4d/relu_5x5 -> inception_4d/5x5 (in-place)
I0403 19:01:48.785501 18491 net.cpp:141] Setting up inception_4d/relu_5x5
I0403 19:01:48.785527 18491 net.cpp:148] Top shape: 24 64 14 14 (301056)
I0403 19:01:48.785542 18491 net.cpp:156] Memory required for data: 1135267104
I0403 19:01:48.785557 18491 layer_factory.hpp:77] Creating layer inception_4d/pool
I0403 19:01:48.785574 18491 net.cpp:91] Creating Layer inception_4d/pool
I0403 19:01:48.785590 18491 net.cpp:425] inception_4d/pool <- inception_4c/output_inception_4c/output_0_split_3
I0403 19:01:48.785610 18491 net.cpp:399] inception_4d/pool -> inception_4d/pool
I0403 19:01:48.785675 18491 net.cpp:141] Setting up inception_4d/pool
I0403 19:01:48.785697 18491 net.cpp:148] Top shape: 24 512 14 14 (2408448)
I0403 19:01:48.785712 18491 net.cpp:156] Memory required for data: 1144900896
I0403 19:01:48.785727 18491 layer_factory.hpp:77] Creating layer inception_4d/pool_proj
I0403 19:01:48.785749 18491 net.cpp:91] Creating Layer inception_4d/pool_proj
I0403 19:01:48.785768 18491 net.cpp:425] inception_4d/pool_proj <- inception_4d/pool
I0403 19:01:48.785785 18491 net.cpp:399] inception_4d/pool_proj -> inception_4d/pool_proj
I0403 19:01:48.787497 18491 net.cpp:141] Setting up inception_4d/pool_proj
I0403 19:01:48.787524 18491 net.cpp:148] Top shape: 24 64 14 14 (301056)
I0403 19:01:48.787539 18491 net.cpp:156] Memory required for data: 1146105120
I0403 19:01:48.787557 18491 layer_factory.hpp:77] Creating layer inception_4d/relu_pool_proj
I0403 19:01:48.787606 18491 net.cpp:91] Creating Layer inception_4d/relu_pool_proj
I0403 19:01:48.787623 18491 net.cpp:425] inception_4d/relu_pool_proj <- inception_4d/pool_proj
I0403 19:01:48.787641 18491 net.cpp:386] inception_4d/relu_pool_proj -> inception_4d/pool_proj (in-place)
I0403 19:01:48.787823 18491 net.cpp:141] Setting up inception_4d/relu_pool_proj
I0403 19:01:48.787863 18491 net.cpp:148] Top shape: 24 64 14 14 (301056)
I0403 19:01:48.787878 18491 net.cpp:156] Memory required for data: 1147309344
I0403 19:01:48.787892 18491 layer_factory.hpp:77] Creating layer inception_4d/output
I0403 19:01:48.787909 18491 net.cpp:91] Creating Layer inception_4d/output
I0403 19:01:48.787925 18491 net.cpp:425] inception_4d/output <- inception_4d/1x1
I0403 19:01:48.787940 18491 net.cpp:425] inception_4d/output <- inception_4d/3x3
I0403 19:01:48.787956 18491 net.cpp:425] inception_4d/output <- inception_4d/5x5
I0403 19:01:48.787971 18491 net.cpp:425] inception_4d/output <- inception_4d/pool_proj
I0403 19:01:48.787995 18491 net.cpp:399] inception_4d/output -> inception_4d/output
I0403 19:01:48.788041 18491 net.cpp:141] Setting up inception_4d/output
I0403 19:01:48.788064 18491 net.cpp:148] Top shape: 24 528 14 14 (2483712)
I0403 19:01:48.788079 18491 net.cpp:156] Memory required for data: 1157244192
I0403 19:01:48.788092 18491 layer_factory.hpp:77] Creating layer inception_4d/output_inception_4d/output_0_split
I0403 19:01:48.788112 18491 net.cpp:91] Creating Layer inception_4d/output_inception_4d/output_0_split
I0403 19:01:48.788128 18491 net.cpp:425] inception_4d/output_inception_4d/output_0_split <- inception_4d/output
I0403 19:01:48.788146 18491 net.cpp:399] inception_4d/output_inception_4d/output_0_split -> inception_4d/output_inception_4d/output_0_split_0
I0403 19:01:48.788168 18491 net.cpp:399] inception_4d/output_inception_4d/output_0_split -> inception_4d/output_inception_4d/output_0_split_1
I0403 19:01:48.788204 18491 net.cpp:399] inception_4d/output_inception_4d/output_0_split -> inception_4d/output_inception_4d/output_0_split_2
I0403 19:01:48.788225 18491 net.cpp:399] inception_4d/output_inception_4d/output_0_split -> inception_4d/output_inception_4d/output_0_split_3
I0403 19:01:48.788246 18491 net.cpp:399] inception_4d/output_inception_4d/output_0_split -> inception_4d/output_inception_4d/output_0_split_4
I0403 19:01:48.788348 18491 net.cpp:141] Setting up inception_4d/output_inception_4d/output_0_split
I0403 19:01:48.788383 18491 net.cpp:148] Top shape: 24 528 14 14 (2483712)
I0403 19:01:48.788401 18491 net.cpp:148] Top shape: 24 528 14 14 (2483712)
I0403 19:01:48.788417 18491 net.cpp:148] Top shape: 24 528 14 14 (2483712)
I0403 19:01:48.788432 18491 net.cpp:148] Top shape: 24 528 14 14 (2483712)
I0403 19:01:48.788449 18491 net.cpp:148] Top shape: 24 528 14 14 (2483712)
I0403 19:01:48.788461 18491 net.cpp:156] Memory required for data: 1206918432
I0403 19:01:48.788487 18491 layer_factory.hpp:77] Creating layer loss2/ave_pool
I0403 19:01:48.788506 18491 net.cpp:91] Creating Layer loss2/ave_pool
I0403 19:01:48.788524 18491 net.cpp:425] loss2/ave_pool <- inception_4d/output_inception_4d/output_0_split_0
I0403 19:01:48.788542 18491 net.cpp:399] loss2/ave_pool -> loss2/ave_pool
I0403 19:01:48.788843 18491 net.cpp:141] Setting up loss2/ave_pool
I0403 19:01:48.788868 18491 net.cpp:148] Top shape: 24 528 4 4 (202752)
I0403 19:01:48.788887 18491 net.cpp:156] Memory required for data: 1207729440
I0403 19:01:48.788900 18491 layer_factory.hpp:77] Creating layer loss2/conv
I0403 19:01:48.788920 18491 net.cpp:91] Creating Layer loss2/conv
I0403 19:01:48.788936 18491 net.cpp:425] loss2/conv <- loss2/ave_pool
I0403 19:01:48.788957 18491 net.cpp:399] loss2/conv -> loss2/conv
I0403 19:01:48.790827 18491 net.cpp:141] Setting up loss2/conv
I0403 19:01:48.790856 18491 net.cpp:148] Top shape: 24 128 4 4 (49152)
I0403 19:01:48.790874 18491 net.cpp:156] Memory required for data: 1207926048
I0403 19:01:48.790892 18491 layer_factory.hpp:77] Creating layer loss2/relu_conv
I0403 19:01:48.790910 18491 net.cpp:91] Creating Layer loss2/relu_conv
I0403 19:01:48.790927 18491 net.cpp:425] loss2/relu_conv <- loss2/conv
I0403 19:01:48.790946 18491 net.cpp:386] loss2/relu_conv -> loss2/conv (in-place)
I0403 19:01:48.791232 18491 net.cpp:141] Setting up loss2/relu_conv
I0403 19:01:48.791263 18491 net.cpp:148] Top shape: 24 128 4 4 (49152)
I0403 19:01:48.791278 18491 net.cpp:156] Memory required for data: 1208122656
I0403 19:01:48.791295 18491 layer_factory.hpp:77] Creating layer loss2/fc
I0403 19:01:48.791312 18491 net.cpp:91] Creating Layer loss2/fc
I0403 19:01:48.791331 18491 net.cpp:425] loss2/fc <- loss2/conv
I0403 19:01:48.791352 18491 net.cpp:399] loss2/fc -> loss2/fc
I0403 19:01:48.808960 18491 net.cpp:141] Setting up loss2/fc
I0403 19:01:48.809000 18491 net.cpp:148] Top shape: 24 1024 (24576)
I0403 19:01:48.809017 18491 net.cpp:156] Memory required for data: 1208220960
I0403 19:01:48.809034 18491 layer_factory.hpp:77] Creating layer loss2/relu_fc
I0403 19:01:48.809056 18491 net.cpp:91] Creating Layer loss2/relu_fc
I0403 19:01:48.809072 18491 net.cpp:425] loss2/relu_fc <- loss2/fc
I0403 19:01:48.809090 18491 net.cpp:386] loss2/relu_fc -> loss2/fc (in-place)
I0403 19:01:48.809386 18491 net.cpp:141] Setting up loss2/relu_fc
I0403 19:01:48.809411 18491 net.cpp:148] Top shape: 24 1024 (24576)
I0403 19:01:48.809425 18491 net.cpp:156] Memory required for data: 1208319264
I0403 19:01:48.809439 18491 layer_factory.hpp:77] Creating layer loss2/drop_fc
I0403 19:01:48.809459 18491 net.cpp:91] Creating Layer loss2/drop_fc
I0403 19:01:48.809476 18491 net.cpp:425] loss2/drop_fc <- loss2/fc
I0403 19:01:48.809494 18491 net.cpp:386] loss2/drop_fc -> loss2/fc (in-place)
I0403 19:01:48.809543 18491 net.cpp:141] Setting up loss2/drop_fc
I0403 19:01:48.809566 18491 net.cpp:148] Top shape: 24 1024 (24576)
I0403 19:01:48.809581 18491 net.cpp:156] Memory required for data: 1208417568
I0403 19:01:48.809594 18491 layer_factory.hpp:77] Creating layer loss2/classifier_plantvillage
I0403 19:01:48.809617 18491 net.cpp:91] Creating Layer loss2/classifier_plantvillage
I0403 19:01:48.809633 18491 net.cpp:425] loss2/classifier_plantvillage <- loss2/fc
I0403 19:01:48.809650 18491 net.cpp:399] loss2/classifier_plantvillage -> loss2/classifier_plantvillage
I0403 19:01:48.810041 18491 net.cpp:141] Setting up loss2/classifier_plantvillage
I0403 19:01:48.810065 18491 net.cpp:148] Top shape: 24 38 (912)
I0403 19:01:48.810096 18491 net.cpp:156] Memory required for data: 1208421216
I0403 19:01:48.810117 18491 layer_factory.hpp:77] Creating layer loss2/classifier_plantvillage_loss2/classifier_plantvillage_0_split
I0403 19:01:48.810134 18491 net.cpp:91] Creating Layer loss2/classifier_plantvillage_loss2/classifier_plantvillage_0_split
I0403 19:01:48.810150 18491 net.cpp:425] loss2/classifier_plantvillage_loss2/classifier_plantvillage_0_split <- loss2/classifier_plantvillage
I0403 19:01:48.810169 18491 net.cpp:399] loss2/classifier_plantvillage_loss2/classifier_plantvillage_0_split -> loss2/classifier_plantvillage_loss2/classifier_plantvillage_0_split_0
I0403 19:01:48.810190 18491 net.cpp:399] loss2/classifier_plantvillage_loss2/classifier_plantvillage_0_split -> loss2/classifier_plantvillage_loss2/classifier_plantvillage_0_split_1
I0403 19:01:48.810212 18491 net.cpp:399] loss2/classifier_plantvillage_loss2/classifier_plantvillage_0_split -> loss2/classifier_plantvillage_loss2/classifier_plantvillage_0_split_2
I0403 19:01:48.810287 18491 net.cpp:141] Setting up loss2/classifier_plantvillage_loss2/classifier_plantvillage_0_split
I0403 19:01:48.810312 18491 net.cpp:148] Top shape: 24 38 (912)
I0403 19:01:48.810328 18491 net.cpp:148] Top shape: 24 38 (912)
I0403 19:01:48.810344 18491 net.cpp:148] Top shape: 24 38 (912)
I0403 19:01:48.810358 18491 net.cpp:156] Memory required for data: 1208432160
I0403 19:01:48.810371 18491 layer_factory.hpp:77] Creating layer inception_4e/1x1
I0403 19:01:48.810391 18491 net.cpp:91] Creating Layer inception_4e/1x1
I0403 19:01:48.810408 18491 net.cpp:425] inception_4e/1x1 <- inception_4d/output_inception_4d/output_0_split_1
I0403 19:01:48.810426 18491 net.cpp:399] inception_4e/1x1 -> inception_4e/1x1
I0403 19:01:48.812194 18491 net.cpp:141] Setting up inception_4e/1x1
I0403 19:01:48.812222 18491 net.cpp:148] Top shape: 24 256 14 14 (1204224)
I0403 19:01:48.812237 18491 net.cpp:156] Memory required for data: 1213249056
I0403 19:01:48.812255 18491 layer_factory.hpp:77] Creating layer inception_4e/relu_1x1
I0403 19:01:48.812273 18491 net.cpp:91] Creating Layer inception_4e/relu_1x1
I0403 19:01:48.812288 18491 net.cpp:425] inception_4e/relu_1x1 <- inception_4e/1x1
I0403 19:01:48.812307 18491 net.cpp:386] inception_4e/relu_1x1 -> inception_4e/1x1 (in-place)
I0403 19:01:48.812597 18491 net.cpp:141] Setting up inception_4e/relu_1x1
I0403 19:01:48.812621 18491 net.cpp:148] Top shape: 24 256 14 14 (1204224)
I0403 19:01:48.812638 18491 net.cpp:156] Memory required for data: 1218065952
I0403 19:01:48.812651 18491 layer_factory.hpp:77] Creating layer inception_4e/3x3_reduce
I0403 19:01:48.812674 18491 net.cpp:91] Creating Layer inception_4e/3x3_reduce
I0403 19:01:48.812690 18491 net.cpp:425] inception_4e/3x3_reduce <- inception_4d/output_inception_4d/output_0_split_2
I0403 19:01:48.812711 18491 net.cpp:399] inception_4e/3x3_reduce -> inception_4e/3x3_reduce
I0403 19:01:48.814795 18491 net.cpp:141] Setting up inception_4e/3x3_reduce
I0403 19:01:48.814824 18491 net.cpp:148] Top shape: 24 160 14 14 (752640)
I0403 19:01:48.814841 18491 net.cpp:156] Memory required for data: 1221076512
I0403 19:01:48.814858 18491 layer_factory.hpp:77] Creating layer inception_4e/relu_3x3_reduce
I0403 19:01:48.814877 18491 net.cpp:91] Creating Layer inception_4e/relu_3x3_reduce
I0403 19:01:48.814893 18491 net.cpp:425] inception_4e/relu_3x3_reduce <- inception_4e/3x3_reduce
I0403 19:01:48.814911 18491 net.cpp:386] inception_4e/relu_3x3_reduce -> inception_4e/3x3_reduce (in-place)
I0403 19:01:48.815096 18491 net.cpp:141] Setting up inception_4e/relu_3x3_reduce
I0403 19:01:48.815121 18491 net.cpp:148] Top shape: 24 160 14 14 (752640)
I0403 19:01:48.815135 18491 net.cpp:156] Memory required for data: 1224087072
I0403 19:01:48.815150 18491 layer_factory.hpp:77] Creating layer inception_4e/3x3
I0403 19:01:48.815172 18491 net.cpp:91] Creating Layer inception_4e/3x3
I0403 19:01:48.815191 18491 net.cpp:425] inception_4e/3x3 <- inception_4e/3x3_reduce
I0403 19:01:48.815213 18491 net.cpp:399] inception_4e/3x3 -> inception_4e/3x3
I0403 19:01:48.820075 18491 net.cpp:141] Setting up inception_4e/3x3
I0403 19:01:48.820116 18491 net.cpp:148] Top shape: 24 320 14 14 (1505280)
I0403 19:01:48.820132 18491 net.cpp:156] Memory required for data: 1230108192
I0403 19:01:48.820149 18491 layer_factory.hpp:77] Creating layer inception_4e/relu_3x3
I0403 19:01:48.820170 18491 net.cpp:91] Creating Layer inception_4e/relu_3x3
I0403 19:01:48.820188 18491 net.cpp:425] inception_4e/relu_3x3 <- inception_4e/3x3
I0403 19:01:48.820206 18491 net.cpp:386] inception_4e/relu_3x3 -> inception_4e/3x3 (in-place)
I0403 19:01:48.820497 18491 net.cpp:141] Setting up inception_4e/relu_3x3
I0403 19:01:48.820523 18491 net.cpp:148] Top shape: 24 320 14 14 (1505280)
I0403 19:01:48.820538 18491 net.cpp:156] Memory required for data: 1236129312
I0403 19:01:48.820551 18491 layer_factory.hpp:77] Creating layer inception_4e/5x5_reduce
I0403 19:01:48.820575 18491 net.cpp:91] Creating Layer inception_4e/5x5_reduce
I0403 19:01:48.820595 18491 net.cpp:425] inception_4e/5x5_reduce <- inception_4d/output_inception_4d/output_0_split_3
I0403 19:01:48.820616 18491 net.cpp:399] inception_4e/5x5_reduce -> inception_4e/5x5_reduce
I0403 19:01:48.821679 18491 net.cpp:141] Setting up inception_4e/5x5_reduce
I0403 19:01:48.821707 18491 net.cpp:148] Top shape: 24 32 14 14 (150528)
I0403 19:01:48.821722 18491 net.cpp:156] Memory required for data: 1236731424
I0403 19:01:48.821740 18491 layer_factory.hpp:77] Creating layer inception_4e/relu_5x5_reduce
I0403 19:01:48.821758 18491 net.cpp:91] Creating Layer inception_4e/relu_5x5_reduce
I0403 19:01:48.821774 18491 net.cpp:425] inception_4e/relu_5x5_reduce <- inception_4e/5x5_reduce
I0403 19:01:48.821794 18491 net.cpp:386] inception_4e/relu_5x5_reduce -> inception_4e/5x5_reduce (in-place)
I0403 19:01:48.822084 18491 net.cpp:141] Setting up inception_4e/relu_5x5_reduce
I0403 19:01:48.822109 18491 net.cpp:148] Top shape: 24 32 14 14 (150528)
I0403 19:01:48.822124 18491 net.cpp:156] Memory required for data: 1237333536
I0403 19:01:48.822139 18491 layer_factory.hpp:77] Creating layer inception_4e/5x5
I0403 19:01:48.822175 18491 net.cpp:91] Creating Layer inception_4e/5x5
I0403 19:01:48.822195 18491 net.cpp:425] inception_4e/5x5 <- inception_4e/5x5_reduce
I0403 19:01:48.822213 18491 net.cpp:399] inception_4e/5x5 -> inception_4e/5x5
I0403 19:01:48.824028 18491 net.cpp:141] Setting up inception_4e/5x5
I0403 19:01:48.824057 18491 net.cpp:148] Top shape: 24 128 14 14 (602112)
I0403 19:01:48.824074 18491 net.cpp:156] Memory required for data: 1239741984
I0403 19:01:48.824092 18491 layer_factory.hpp:77] Creating layer inception_4e/relu_5x5
I0403 19:01:48.824110 18491 net.cpp:91] Creating Layer inception_4e/relu_5x5
I0403 19:01:48.824126 18491 net.cpp:425] inception_4e/relu_5x5 <- inception_4e/5x5
I0403 19:01:48.824142 18491 net.cpp:386] inception_4e/relu_5x5 -> inception_4e/5x5 (in-place)
I0403 19:01:48.824334 18491 net.cpp:141] Setting up inception_4e/relu_5x5
I0403 19:01:48.824359 18491 net.cpp:148] Top shape: 24 128 14 14 (602112)
I0403 19:01:48.824373 18491 net.cpp:156] Memory required for data: 1242150432
I0403 19:01:48.824388 18491 layer_factory.hpp:77] Creating layer inception_4e/pool
I0403 19:01:48.824405 18491 net.cpp:91] Creating Layer inception_4e/pool
I0403 19:01:48.824420 18491 net.cpp:425] inception_4e/pool <- inception_4d/output_inception_4d/output_0_split_4
I0403 19:01:48.824440 18491 net.cpp:399] inception_4e/pool -> inception_4e/pool
I0403 19:01:48.824507 18491 net.cpp:141] Setting up inception_4e/pool
I0403 19:01:48.824533 18491 net.cpp:148] Top shape: 24 528 14 14 (2483712)
I0403 19:01:48.824548 18491 net.cpp:156] Memory required for data: 1252085280
I0403 19:01:48.824563 18491 layer_factory.hpp:77] Creating layer inception_4e/pool_proj
I0403 19:01:48.824584 18491 net.cpp:91] Creating Layer inception_4e/pool_proj
I0403 19:01:48.824601 18491 net.cpp:425] inception_4e/pool_proj <- inception_4e/pool
I0403 19:01:48.824620 18491 net.cpp:399] inception_4e/pool_proj -> inception_4e/pool_proj
I0403 19:01:48.826102 18491 net.cpp:141] Setting up inception_4e/pool_proj
I0403 19:01:48.826140 18491 net.cpp:148] Top shape: 24 128 14 14 (602112)
I0403 19:01:48.826159 18491 net.cpp:156] Memory required for data: 1254493728
I0403 19:01:48.826179 18491 layer_factory.hpp:77] Creating layer inception_4e/relu_pool_proj
I0403 19:01:48.826195 18491 net.cpp:91] Creating Layer inception_4e/relu_pool_proj
I0403 19:01:48.826212 18491 net.cpp:425] inception_4e/relu_pool_proj <- inception_4e/pool_proj
I0403 19:01:48.826228 18491 net.cpp:386] inception_4e/relu_pool_proj -> inception_4e/pool_proj (in-place)
I0403 19:01:48.826514 18491 net.cpp:141] Setting up inception_4e/relu_pool_proj
I0403 19:01:48.826539 18491 net.cpp:148] Top shape: 24 128 14 14 (602112)
I0403 19:01:48.826556 18491 net.cpp:156] Memory required for data: 1256902176
I0403 19:01:48.826570 18491 layer_factory.hpp:77] Creating layer inception_4e/output
I0403 19:01:48.826587 18491 net.cpp:91] Creating Layer inception_4e/output
I0403 19:01:48.826603 18491 net.cpp:425] inception_4e/output <- inception_4e/1x1
I0403 19:01:48.826619 18491 net.cpp:425] inception_4e/output <- inception_4e/3x3
I0403 19:01:48.826634 18491 net.cpp:425] inception_4e/output <- inception_4e/5x5
I0403 19:01:48.826650 18491 net.cpp:425] inception_4e/output <- inception_4e/pool_proj
I0403 19:01:48.826666 18491 net.cpp:399] inception_4e/output -> inception_4e/output
I0403 19:01:48.826717 18491 net.cpp:141] Setting up inception_4e/output
I0403 19:01:48.826740 18491 net.cpp:148] Top shape: 24 832 14 14 (3913728)
I0403 19:01:48.826755 18491 net.cpp:156] Memory required for data: 1272557088
I0403 19:01:48.826769 18491 layer_factory.hpp:77] Creating layer pool4/3x3_s2
I0403 19:01:48.826789 18491 net.cpp:91] Creating Layer pool4/3x3_s2
I0403 19:01:48.826805 18491 net.cpp:425] pool4/3x3_s2 <- inception_4e/output
I0403 19:01:48.826822 18491 net.cpp:399] pool4/3x3_s2 -> pool4/3x3_s2
I0403 19:01:48.826889 18491 net.cpp:141] Setting up pool4/3x3_s2
I0403 19:01:48.826911 18491 net.cpp:148] Top shape: 24 832 7 7 (978432)
I0403 19:01:48.826926 18491 net.cpp:156] Memory required for data: 1276470816
I0403 19:01:48.826941 18491 layer_factory.hpp:77] Creating layer pool4/3x3_s2_pool4/3x3_s2_0_split
I0403 19:01:48.826956 18491 net.cpp:91] Creating Layer pool4/3x3_s2_pool4/3x3_s2_0_split
I0403 19:01:48.826972 18491 net.cpp:425] pool4/3x3_s2_pool4/3x3_s2_0_split <- pool4/3x3_s2
I0403 19:01:48.826997 18491 net.cpp:399] pool4/3x3_s2_pool4/3x3_s2_0_split -> pool4/3x3_s2_pool4/3x3_s2_0_split_0
I0403 19:01:48.827018 18491 net.cpp:399] pool4/3x3_s2_pool4/3x3_s2_0_split -> pool4/3x3_s2_pool4/3x3_s2_0_split_1
I0403 19:01:48.827039 18491 net.cpp:399] pool4/3x3_s2_pool4/3x3_s2_0_split -> pool4/3x3_s2_pool4/3x3_s2_0_split_2
I0403 19:01:48.827059 18491 net.cpp:399] pool4/3x3_s2_pool4/3x3_s2_0_split -> pool4/3x3_s2_pool4/3x3_s2_0_split_3
I0403 19:01:48.827145 18491 net.cpp:141] Setting up pool4/3x3_s2_pool4/3x3_s2_0_split
I0403 19:01:48.827168 18491 net.cpp:148] Top shape: 24 832 7 7 (978432)
I0403 19:01:48.827184 18491 net.cpp:148] Top shape: 24 832 7 7 (978432)
I0403 19:01:48.827199 18491 net.cpp:148] Top shape: 24 832 7 7 (978432)
I0403 19:01:48.827214 18491 net.cpp:148] Top shape: 24 832 7 7 (978432)
I0403 19:01:48.827229 18491 net.cpp:156] Memory required for data: 1292125728
I0403 19:01:48.827242 18491 layer_factory.hpp:77] Creating layer inception_5a/1x1
I0403 19:01:48.827265 18491 net.cpp:91] Creating Layer inception_5a/1x1
I0403 19:01:48.827282 18491 net.cpp:425] inception_5a/1x1 <- pool4/3x3_s2_pool4/3x3_s2_0_split_0
I0403 19:01:48.827301 18491 net.cpp:399] inception_5a/1x1 -> inception_5a/1x1
I0403 19:01:48.830075 18491 net.cpp:141] Setting up inception_5a/1x1
I0403 19:01:48.830103 18491 net.cpp:148] Top shape: 24 256 7 7 (301056)
I0403 19:01:48.830121 18491 net.cpp:156] Memory required for data: 1293329952
I0403 19:01:48.830138 18491 layer_factory.hpp:77] Creating layer inception_5a/relu_1x1
I0403 19:01:48.830157 18491 net.cpp:91] Creating Layer inception_5a/relu_1x1
I0403 19:01:48.830173 18491 net.cpp:425] inception_5a/relu_1x1 <- inception_5a/1x1
I0403 19:01:48.830191 18491 net.cpp:386] inception_5a/relu_1x1 -> inception_5a/1x1 (in-place)
I0403 19:01:48.830493 18491 net.cpp:141] Setting up inception_5a/relu_1x1
I0403 19:01:48.830520 18491 net.cpp:148] Top shape: 24 256 7 7 (301056)
I0403 19:01:48.830536 18491 net.cpp:156] Memory required for data: 1294534176
I0403 19:01:48.830551 18491 layer_factory.hpp:77] Creating layer inception_5a/3x3_reduce
I0403 19:01:48.830574 18491 net.cpp:91] Creating Layer inception_5a/3x3_reduce
I0403 19:01:48.830592 18491 net.cpp:425] inception_5a/3x3_reduce <- pool4/3x3_s2_pool4/3x3_s2_0_split_1
I0403 19:01:48.830611 18491 net.cpp:399] inception_5a/3x3_reduce -> inception_5a/3x3_reduce
I0403 19:01:48.833037 18491 net.cpp:141] Setting up inception_5a/3x3_reduce
I0403 19:01:48.833065 18491 net.cpp:148] Top shape: 24 160 7 7 (188160)
I0403 19:01:48.833079 18491 net.cpp:156] Memory required for data: 1295286816
I0403 19:01:48.833097 18491 layer_factory.hpp:77] Creating layer inception_5a/relu_3x3_reduce
I0403 19:01:48.833117 18491 net.cpp:91] Creating Layer inception_5a/relu_3x3_reduce
I0403 19:01:48.833134 18491 net.cpp:425] inception_5a/relu_3x3_reduce <- inception_5a/3x3_reduce
I0403 19:01:48.833151 18491 net.cpp:386] inception_5a/relu_3x3_reduce -> inception_5a/3x3_reduce (in-place)
I0403 19:01:48.833334 18491 net.cpp:141] Setting up inception_5a/relu_3x3_reduce
I0403 19:01:48.833364 18491 net.cpp:148] Top shape: 24 160 7 7 (188160)
I0403 19:01:48.833379 18491 net.cpp:156] Memory required for data: 1296039456
I0403 19:01:48.833394 18491 layer_factory.hpp:77] Creating layer inception_5a/3x3
I0403 19:01:48.833416 18491 net.cpp:91] Creating Layer inception_5a/3x3
I0403 19:01:48.833434 18491 net.cpp:425] inception_5a/3x3 <- inception_5a/3x3_reduce
I0403 19:01:48.833453 18491 net.cpp:399] inception_5a/3x3 -> inception_5a/3x3
I0403 19:01:48.838354 18491 net.cpp:141] Setting up inception_5a/3x3
I0403 19:01:48.838385 18491 net.cpp:148] Top shape: 24 320 7 7 (376320)
I0403 19:01:48.838402 18491 net.cpp:156] Memory required for data: 1297544736
I0403 19:01:48.838419 18491 layer_factory.hpp:77] Creating layer inception_5a/relu_3x3
I0403 19:01:48.838438 18491 net.cpp:91] Creating Layer inception_5a/relu_3x3
I0403 19:01:48.838454 18491 net.cpp:425] inception_5a/relu_3x3 <- inception_5a/3x3
I0403 19:01:48.838471 18491 net.cpp:386] inception_5a/relu_3x3 -> inception_5a/3x3 (in-place)
I0403 19:01:48.838757 18491 net.cpp:141] Setting up inception_5a/relu_3x3
I0403 19:01:48.838784 18491 net.cpp:148] Top shape: 24 320 7 7 (376320)
I0403 19:01:48.838799 18491 net.cpp:156] Memory required for data: 1299050016
I0403 19:01:48.838814 18491 layer_factory.hpp:77] Creating layer inception_5a/5x5_reduce
I0403 19:01:48.838838 18491 net.cpp:91] Creating Layer inception_5a/5x5_reduce
I0403 19:01:48.838857 18491 net.cpp:425] inception_5a/5x5_reduce <- pool4/3x3_s2_pool4/3x3_s2_0_split_2
I0403 19:01:48.838876 18491 net.cpp:399] inception_5a/5x5_reduce -> inception_5a/5x5_reduce
I0403 19:01:48.840020 18491 net.cpp:141] Setting up inception_5a/5x5_reduce
I0403 19:01:48.840050 18491 net.cpp:148] Top shape: 24 32 7 7 (37632)
I0403 19:01:48.840066 18491 net.cpp:156] Memory required for data: 1299200544
I0403 19:01:48.840085 18491 layer_factory.hpp:77] Creating layer inception_5a/relu_5x5_reduce
I0403 19:01:48.840103 18491 net.cpp:91] Creating Layer inception_5a/relu_5x5_reduce
I0403 19:01:48.840119 18491 net.cpp:425] inception_5a/relu_5x5_reduce <- inception_5a/5x5_reduce
I0403 19:01:48.840137 18491 net.cpp:386] inception_5a/relu_5x5_reduce -> inception_5a/5x5_reduce (in-place)
I0403 19:01:48.840428 18491 net.cpp:141] Setting up inception_5a/relu_5x5_reduce
I0403 19:01:48.840454 18491 net.cpp:148] Top shape: 24 32 7 7 (37632)
I0403 19:01:48.840468 18491 net.cpp:156] Memory required for data: 1299351072
I0403 19:01:48.840483 18491 layer_factory.hpp:77] Creating layer inception_5a/5x5
I0403 19:01:48.840505 18491 net.cpp:91] Creating Layer inception_5a/5x5
I0403 19:01:48.840523 18491 net.cpp:425] inception_5a/5x5 <- inception_5a/5x5_reduce
I0403 19:01:48.840544 18491 net.cpp:399] inception_5a/5x5 -> inception_5a/5x5
I0403 19:01:48.842245 18491 net.cpp:141] Setting up inception_5a/5x5
I0403 19:01:48.842288 18491 net.cpp:148] Top shape: 24 128 7 7 (150528)
I0403 19:01:48.842304 18491 net.cpp:156] Memory required for data: 1299953184
I0403 19:01:48.842322 18491 layer_factory.hpp:77] Creating layer inception_5a/relu_5x5
I0403 19:01:48.842340 18491 net.cpp:91] Creating Layer inception_5a/relu_5x5
I0403 19:01:48.842356 18491 net.cpp:425] inception_5a/relu_5x5 <- inception_5a/5x5
I0403 19:01:48.842373 18491 net.cpp:386] inception_5a/relu_5x5 -> inception_5a/5x5 (in-place)
I0403 19:01:48.842576 18491 net.cpp:141] Setting up inception_5a/relu_5x5
I0403 19:01:48.842602 18491 net.cpp:148] Top shape: 24 128 7 7 (150528)
I0403 19:01:48.842617 18491 net.cpp:156] Memory required for data: 1300555296
I0403 19:01:48.842631 18491 layer_factory.hpp:77] Creating layer inception_5a/pool
I0403 19:01:48.842649 18491 net.cpp:91] Creating Layer inception_5a/pool
I0403 19:01:48.842666 18491 net.cpp:425] inception_5a/pool <- pool4/3x3_s2_pool4/3x3_s2_0_split_3
I0403 19:01:48.842686 18491 net.cpp:399] inception_5a/pool -> inception_5a/pool
I0403 19:01:48.842772 18491 net.cpp:141] Setting up inception_5a/pool
I0403 19:01:48.842797 18491 net.cpp:148] Top shape: 24 832 7 7 (978432)
I0403 19:01:48.842813 18491 net.cpp:156] Memory required for data: 1304469024
I0403 19:01:48.842826 18491 layer_factory.hpp:77] Creating layer inception_5a/pool_proj
I0403 19:01:48.842849 18491 net.cpp:91] Creating Layer inception_5a/pool_proj
I0403 19:01:48.842865 18491 net.cpp:425] inception_5a/pool_proj <- inception_5a/pool
I0403 19:01:48.842885 18491 net.cpp:399] inception_5a/pool_proj -> inception_5a/pool_proj
I0403 19:01:48.845106 18491 net.cpp:141] Setting up inception_5a/pool_proj
I0403 19:01:48.845134 18491 net.cpp:148] Top shape: 24 128 7 7 (150528)
I0403 19:01:48.845149 18491 net.cpp:156] Memory required for data: 1305071136
I0403 19:01:48.845167 18491 layer_factory.hpp:77] Creating layer inception_5a/relu_pool_proj
I0403 19:01:48.845188 18491 net.cpp:91] Creating Layer inception_5a/relu_pool_proj
I0403 19:01:48.845206 18491 net.cpp:425] inception_5a/relu_pool_proj <- inception_5a/pool_proj
I0403 19:01:48.845223 18491 net.cpp:386] inception_5a/relu_pool_proj -> inception_5a/pool_proj (in-place)
I0403 19:01:48.845515 18491 net.cpp:141] Setting up inception_5a/relu_pool_proj
I0403 19:01:48.845541 18491 net.cpp:148] Top shape: 24 128 7 7 (150528)
I0403 19:01:48.845556 18491 net.cpp:156] Memory required for data: 1305673248
I0403 19:01:48.845571 18491 layer_factory.hpp:77] Creating layer inception_5a/output
I0403 19:01:48.845589 18491 net.cpp:91] Creating Layer inception_5a/output
I0403 19:01:48.845607 18491 net.cpp:425] inception_5a/output <- inception_5a/1x1
I0403 19:01:48.845623 18491 net.cpp:425] inception_5a/output <- inception_5a/3x3
I0403 19:01:48.845638 18491 net.cpp:425] inception_5a/output <- inception_5a/5x5
I0403 19:01:48.845654 18491 net.cpp:425] inception_5a/output <- inception_5a/pool_proj
I0403 19:01:48.845670 18491 net.cpp:399] inception_5a/output -> inception_5a/output
I0403 19:01:48.845721 18491 net.cpp:141] Setting up inception_5a/output
I0403 19:01:48.845743 18491 net.cpp:148] Top shape: 24 832 7 7 (978432)
I0403 19:01:48.845758 18491 net.cpp:156] Memory required for data: 1309586976
I0403 19:01:48.845772 18491 layer_factory.hpp:77] Creating layer inception_5a/output_inception_5a/output_0_split
I0403 19:01:48.845789 18491 net.cpp:91] Creating Layer inception_5a/output_inception_5a/output_0_split
I0403 19:01:48.845804 18491 net.cpp:425] inception_5a/output_inception_5a/output_0_split <- inception_5a/output
I0403 19:01:48.845824 18491 net.cpp:399] inception_5a/output_inception_5a/output_0_split -> inception_5a/output_inception_5a/output_0_split_0
I0403 19:01:48.845844 18491 net.cpp:399] inception_5a/output_inception_5a/output_0_split -> inception_5a/output_inception_5a/output_0_split_1
I0403 19:01:48.845865 18491 net.cpp:399] inception_5a/output_inception_5a/output_0_split -> inception_5a/output_inception_5a/output_0_split_2
I0403 19:01:48.845885 18491 net.cpp:399] inception_5a/output_inception_5a/output_0_split -> inception_5a/output_inception_5a/output_0_split_3
I0403 19:01:48.845999 18491 net.cpp:141] Setting up inception_5a/output_inception_5a/output_0_split
I0403 19:01:48.846024 18491 net.cpp:148] Top shape: 24 832 7 7 (978432)
I0403 19:01:48.846040 18491 net.cpp:148] Top shape: 24 832 7 7 (978432)
I0403 19:01:48.846056 18491 net.cpp:148] Top shape: 24 832 7 7 (978432)
I0403 19:01:48.846071 18491 net.cpp:148] Top shape: 24 832 7 7 (978432)
I0403 19:01:48.846084 18491 net.cpp:156] Memory required for data: 1325241888
I0403 19:01:48.846099 18491 layer_factory.hpp:77] Creating layer inception_5b/1x1
I0403 19:01:48.846120 18491 net.cpp:91] Creating Layer inception_5b/1x1
I0403 19:01:48.846138 18491 net.cpp:425] inception_5b/1x1 <- inception_5a/output_inception_5a/output_0_split_0
I0403 19:01:48.846163 18491 net.cpp:399] inception_5b/1x1 -> inception_5b/1x1
I0403 19:01:48.849953 18491 net.cpp:141] Setting up inception_5b/1x1
I0403 19:01:48.849987 18491 net.cpp:148] Top shape: 24 384 7 7 (451584)
I0403 19:01:48.850003 18491 net.cpp:156] Memory required for data: 1327048224
I0403 19:01:48.850023 18491 layer_factory.hpp:77] Creating layer inception_5b/relu_1x1
I0403 19:01:48.850044 18491 net.cpp:91] Creating Layer inception_5b/relu_1x1
I0403 19:01:48.850060 18491 net.cpp:425] inception_5b/relu_1x1 <- inception_5b/1x1
I0403 19:01:48.850078 18491 net.cpp:386] inception_5b/relu_1x1 -> inception_5b/1x1 (in-place)
I0403 19:01:48.850380 18491 net.cpp:141] Setting up inception_5b/relu_1x1
I0403 19:01:48.850406 18491 net.cpp:148] Top shape: 24 384 7 7 (451584)
I0403 19:01:48.850421 18491 net.cpp:156] Memory required for data: 1328854560
I0403 19:01:48.850435 18491 layer_factory.hpp:77] Creating layer inception_5b/3x3_reduce
I0403 19:01:48.850458 18491 net.cpp:91] Creating Layer inception_5b/3x3_reduce
I0403 19:01:48.850477 18491 net.cpp:425] inception_5b/3x3_reduce <- inception_5a/output_inception_5a/output_0_split_1
I0403 19:01:48.850499 18491 net.cpp:399] inception_5b/3x3_reduce -> inception_5b/3x3_reduce
I0403 19:01:48.853157 18491 net.cpp:141] Setting up inception_5b/3x3_reduce
I0403 19:01:48.853186 18491 net.cpp:148] Top shape: 24 192 7 7 (225792)
I0403 19:01:48.853204 18491 net.cpp:156] Memory required for data: 1329757728
I0403 19:01:48.853222 18491 layer_factory.hpp:77] Creating layer inception_5b/relu_3x3_reduce
I0403 19:01:48.853243 18491 net.cpp:91] Creating Layer inception_5b/relu_3x3_reduce
I0403 19:01:48.853260 18491 net.cpp:425] inception_5b/relu_3x3_reduce <- inception_5b/3x3_reduce
I0403 19:01:48.853279 18491 net.cpp:386] inception_5b/relu_3x3_reduce -> inception_5b/3x3_reduce (in-place)
I0403 19:01:48.853471 18491 net.cpp:141] Setting up inception_5b/relu_3x3_reduce
I0403 19:01:48.853497 18491 net.cpp:148] Top shape: 24 192 7 7 (225792)
I0403 19:01:48.853513 18491 net.cpp:156] Memory required for data: 1330660896
I0403 19:01:48.853528 18491 layer_factory.hpp:77] Creating layer inception_5b/3x3
I0403 19:01:48.853550 18491 net.cpp:91] Creating Layer inception_5b/3x3
I0403 19:01:48.853569 18491 net.cpp:425] inception_5b/3x3 <- inception_5b/3x3_reduce
I0403 19:01:48.853591 18491 net.cpp:399] inception_5b/3x3 -> inception_5b/3x3
I0403 19:01:48.860337 18491 net.cpp:141] Setting up inception_5b/3x3
I0403 19:01:48.860364 18491 net.cpp:148] Top shape: 24 384 7 7 (451584)
I0403 19:01:48.860380 18491 net.cpp:156] Memory required for data: 1332467232
I0403 19:01:48.860399 18491 layer_factory.hpp:77] Creating layer inception_5b/relu_3x3
I0403 19:01:48.860419 18491 net.cpp:91] Creating Layer inception_5b/relu_3x3
I0403 19:01:48.860437 18491 net.cpp:425] inception_5b/relu_3x3 <- inception_5b/3x3
I0403 19:01:48.860455 18491 net.cpp:386] inception_5b/relu_3x3 -> inception_5b/3x3 (in-place)
I0403 19:01:48.860754 18491 net.cpp:141] Setting up inception_5b/relu_3x3
I0403 19:01:48.860780 18491 net.cpp:148] Top shape: 24 384 7 7 (451584)
I0403 19:01:48.860795 18491 net.cpp:156] Memory required for data: 1334273568
I0403 19:01:48.860810 18491 layer_factory.hpp:77] Creating layer inception_5b/5x5_reduce
I0403 19:01:48.860849 18491 net.cpp:91] Creating Layer inception_5b/5x5_reduce
I0403 19:01:48.860869 18491 net.cpp:425] inception_5b/5x5_reduce <- inception_5a/output_inception_5a/output_0_split_2
I0403 19:01:48.860888 18491 net.cpp:399] inception_5b/5x5_reduce -> inception_5b/5x5_reduce
I0403 19:01:48.862202 18491 net.cpp:141] Setting up inception_5b/5x5_reduce
I0403 19:01:48.862232 18491 net.cpp:148] Top shape: 24 48 7 7 (56448)
I0403 19:01:48.862252 18491 net.cpp:156] Memory required for data: 1334499360
I0403 19:01:48.862273 18491 layer_factory.hpp:77] Creating layer inception_5b/relu_5x5_reduce
I0403 19:01:48.862293 18491 net.cpp:91] Creating Layer inception_5b/relu_5x5_reduce
I0403 19:01:48.862310 18491 net.cpp:425] inception_5b/relu_5x5_reduce <- inception_5b/5x5_reduce
I0403 19:01:48.862340 18491 net.cpp:386] inception_5b/relu_5x5_reduce -> inception_5b/5x5_reduce (in-place)
I0403 19:01:48.862732 18491 net.cpp:141] Setting up inception_5b/relu_5x5_reduce
I0403 19:01:48.862759 18491 net.cpp:148] Top shape: 24 48 7 7 (56448)
I0403 19:01:48.862774 18491 net.cpp:156] Memory required for data: 1334725152
I0403 19:01:48.862789 18491 layer_factory.hpp:77] Creating layer inception_5b/5x5
I0403 19:01:48.862810 18491 net.cpp:91] Creating Layer inception_5b/5x5
I0403 19:01:48.862828 18491 net.cpp:425] inception_5b/5x5 <- inception_5b/5x5_reduce
I0403 19:01:48.862848 18491 net.cpp:399] inception_5b/5x5 -> inception_5b/5x5
I0403 19:01:48.864912 18491 net.cpp:141] Setting up inception_5b/5x5
I0403 19:01:48.864941 18491 net.cpp:148] Top shape: 24 128 7 7 (150528)
I0403 19:01:48.864958 18491 net.cpp:156] Memory required for data: 1335327264
I0403 19:01:48.864974 18491 layer_factory.hpp:77] Creating layer inception_5b/relu_5x5
I0403 19:01:48.864997 18491 net.cpp:91] Creating Layer inception_5b/relu_5x5
I0403 19:01:48.865013 18491 net.cpp:425] inception_5b/relu_5x5 <- inception_5b/5x5
I0403 19:01:48.865033 18491 net.cpp:386] inception_5b/relu_5x5 -> inception_5b/5x5 (in-place)
I0403 19:01:48.865226 18491 net.cpp:141] Setting up inception_5b/relu_5x5
I0403 19:01:48.865250 18491 net.cpp:148] Top shape: 24 128 7 7 (150528)
I0403 19:01:48.865265 18491 net.cpp:156] Memory required for data: 1335929376
I0403 19:01:48.865279 18491 layer_factory.hpp:77] Creating layer inception_5b/pool
I0403 19:01:48.865298 18491 net.cpp:91] Creating Layer inception_5b/pool
I0403 19:01:48.865314 18491 net.cpp:425] inception_5b/pool <- inception_5a/output_inception_5a/output_0_split_3
I0403 19:01:48.865334 18491 net.cpp:399] inception_5b/pool -> inception_5b/pool
I0403 19:01:48.865404 18491 net.cpp:141] Setting up inception_5b/pool
I0403 19:01:48.865427 18491 net.cpp:148] Top shape: 24 832 7 7 (978432)
I0403 19:01:48.865442 18491 net.cpp:156] Memory required for data: 1339843104
I0403 19:01:48.865455 18491 layer_factory.hpp:77] Creating layer inception_5b/pool_proj
I0403 19:01:48.865481 18491 net.cpp:91] Creating Layer inception_5b/pool_proj
I0403 19:01:48.865499 18491 net.cpp:425] inception_5b/pool_proj <- inception_5b/pool
I0403 19:01:48.865517 18491 net.cpp:399] inception_5b/pool_proj -> inception_5b/pool_proj
I0403 19:01:48.867763 18491 net.cpp:141] Setting up inception_5b/pool_proj
I0403 19:01:48.867792 18491 net.cpp:148] Top shape: 24 128 7 7 (150528)
I0403 19:01:48.867810 18491 net.cpp:156] Memory required for data: 1340445216
I0403 19:01:48.867827 18491 layer_factory.hpp:77] Creating layer inception_5b/relu_pool_proj
I0403 19:01:48.867846 18491 net.cpp:91] Creating Layer inception_5b/relu_pool_proj
I0403 19:01:48.867861 18491 net.cpp:425] inception_5b/relu_pool_proj <- inception_5b/pool_proj
I0403 19:01:48.867878 18491 net.cpp:386] inception_5b/relu_pool_proj -> inception_5b/pool_proj (in-place)
I0403 19:01:48.868175 18491 net.cpp:141] Setting up inception_5b/relu_pool_proj
I0403 19:01:48.868202 18491 net.cpp:148] Top shape: 24 128 7 7 (150528)
I0403 19:01:48.868217 18491 net.cpp:156] Memory required for data: 1341047328
I0403 19:01:48.868232 18491 layer_factory.hpp:77] Creating layer inception_5b/output
I0403 19:01:48.868249 18491 net.cpp:91] Creating Layer inception_5b/output
I0403 19:01:48.868279 18491 net.cpp:425] inception_5b/output <- inception_5b/1x1
I0403 19:01:48.868297 18491 net.cpp:425] inception_5b/output <- inception_5b/3x3
I0403 19:01:48.868314 18491 net.cpp:425] inception_5b/output <- inception_5b/5x5
I0403 19:01:48.868330 18491 net.cpp:425] inception_5b/output <- inception_5b/pool_proj
I0403 19:01:48.868346 18491 net.cpp:399] inception_5b/output -> inception_5b/output
I0403 19:01:48.868397 18491 net.cpp:141] Setting up inception_5b/output
I0403 19:01:48.868422 18491 net.cpp:148] Top shape: 24 1024 7 7 (1204224)
I0403 19:01:48.868435 18491 net.cpp:156] Memory required for data: 1345864224
I0403 19:01:48.868449 18491 layer_factory.hpp:77] Creating layer pool5/7x7_s1
I0403 19:01:48.868469 18491 net.cpp:91] Creating Layer pool5/7x7_s1
I0403 19:01:48.868485 18491 net.cpp:425] pool5/7x7_s1 <- inception_5b/output
I0403 19:01:48.868504 18491 net.cpp:399] pool5/7x7_s1 -> pool5/7x7_s1
I0403 19:01:48.868716 18491 net.cpp:141] Setting up pool5/7x7_s1
I0403 19:01:48.868742 18491 net.cpp:148] Top shape: 24 1024 1 1 (24576)
I0403 19:01:48.868758 18491 net.cpp:156] Memory required for data: 1345962528
I0403 19:01:48.868772 18491 layer_factory.hpp:77] Creating layer pool5/drop_7x7_s1
I0403 19:01:48.868789 18491 net.cpp:91] Creating Layer pool5/drop_7x7_s1
I0403 19:01:48.868805 18491 net.cpp:425] pool5/drop_7x7_s1 <- pool5/7x7_s1
I0403 19:01:48.868824 18491 net.cpp:386] pool5/drop_7x7_s1 -> pool5/7x7_s1 (in-place)
I0403 19:01:48.868873 18491 net.cpp:141] Setting up pool5/drop_7x7_s1
I0403 19:01:48.868896 18491 net.cpp:148] Top shape: 24 1024 1 1 (24576)
I0403 19:01:48.868909 18491 net.cpp:156] Memory required for data: 1346060832
I0403 19:01:48.868923 18491 layer_factory.hpp:77] Creating layer loss3/classifier_plantvillage
I0403 19:01:48.868943 18491 net.cpp:91] Creating Layer loss3/classifier_plantvillage
I0403 19:01:48.868960 18491 net.cpp:425] loss3/classifier_plantvillage <- pool5/7x7_s1
I0403 19:01:48.868988 18491 net.cpp:399] loss3/classifier_plantvillage -> loss3/classifier_plantvillage
I0403 19:01:48.869407 18491 net.cpp:141] Setting up loss3/classifier_plantvillage
I0403 19:01:48.869431 18491 net.cpp:148] Top shape: 24 38 (912)
I0403 19:01:48.869446 18491 net.cpp:156] Memory required for data: 1346064480
I0403 19:01:48.869462 18491 layer_factory.hpp:77] Creating layer loss3/classifier_plantvillage_loss3/classifier_plantvillage_0_split
I0403 19:01:48.869479 18491 net.cpp:91] Creating Layer loss3/classifier_plantvillage_loss3/classifier_plantvillage_0_split
I0403 19:01:48.869495 18491 net.cpp:425] loss3/classifier_plantvillage_loss3/classifier_plantvillage_0_split <- loss3/classifier_plantvillage
I0403 19:01:48.869515 18491 net.cpp:399] loss3/classifier_plantvillage_loss3/classifier_plantvillage_0_split -> loss3/classifier_plantvillage_loss3/classifier_plantvillage_0_split_0
I0403 19:01:48.869536 18491 net.cpp:399] loss3/classifier_plantvillage_loss3/classifier_plantvillage_0_split -> loss3/classifier_plantvillage_loss3/classifier_plantvillage_0_split_1
I0403 19:01:48.869555 18491 net.cpp:399] loss3/classifier_plantvillage_loss3/classifier_plantvillage_0_split -> loss3/classifier_plantvillage_loss3/classifier_plantvillage_0_split_2
I0403 19:01:48.869575 18491 net.cpp:399] loss3/classifier_plantvillage_loss3/classifier_plantvillage_0_split -> loss3/classifier_plantvillage_loss3/classifier_plantvillage_0_split_3
I0403 19:01:48.869676 18491 net.cpp:141] Setting up loss3/classifier_plantvillage_loss3/classifier_plantvillage_0_split
I0403 19:01:48.869699 18491 net.cpp:148] Top shape: 24 38 (912)
I0403 19:01:48.869714 18491 net.cpp:148] Top shape: 24 38 (912)
I0403 19:01:48.869729 18491 net.cpp:148] Top shape: 24 38 (912)
I0403 19:01:48.869742 18491 net.cpp:148] Top shape: 24 38 (912)
I0403 19:01:48.869756 18491 net.cpp:156] Memory required for data: 1346079072
I0403 19:01:48.869771 18491 layer_factory.hpp:77] Creating layer loss1/loss
I0403 19:01:48.869791 18491 net.cpp:91] Creating Layer loss1/loss
I0403 19:01:48.869808 18491 net.cpp:425] loss1/loss <- loss1/classifier_plantvillage_loss1/classifier_plantvillage_0_split_0
I0403 19:01:48.869838 18491 net.cpp:425] loss1/loss <- label_data_1_split_0
…
