…
I0403 19:07:22.817489 18797 net.cpp:313] The NetState phase (1) differed from the phase (0) specified by a rule in layer data
I0403 19:07:22.818629 18797 net.cpp:49] Initializing net from parameters: 
state {
  phase: TEST
}
layer {
  name: "data"
  type: "Data"
  top: "data"
  top: "label"
  include {
    phase: TEST
  }
  transform_param {
    mirror: false
    crop_size: 224
    mean_file: "/home/mohanty/data/final_dataset/lmdb/segmented-60-40/mean.binaryproto"
  }
  data_param {
    source: "/home/mohanty/data/final_dataset/lmdb/segmented-60-40/test_db"
    batch_size: 24
    backend: LMDB
  }
}
layer {
  name: "conv1/7x7_s2"
  type: "Convolution"
  bottom: "data"
  top: "conv1/7x7_s2"
  param {
    lr_mult: 1
    decay_mult: 1
  }
  param {
    lr_mult: 2
    decay_mult: 0
  }
  convolution_param {
    num_output: 64
    pad: 3
    kernel_size: 7
    stride: 2
    weight_filler {
      type: "xavier"
      std: 0.1
    }
    bias_filler {
      type: "constant"
      value: 0.2
    }
  }
}
layer {
  name: "conv1/relu_7x7"
  type: "ReLU"
  bottom: "conv1/7x7_s2"
  top: "conv1/7x7_s2"
}
layer {
  name: "pool1/3x3_s2"
  type: "Pooling"
  bottom: "conv1/7x7_s2"
  top: "pool1/3x3_s2"
  pooling_param {
    pool: MAX
    kernel_size: 3
    stride: 2
  }
}
layer {
  name: "pool1/norm1"
  type: "LRN"
  bottom: "pool1/3x3_s2"
  top: "pool1/norm1"
  lrn_param {
    local_size: 5
    alpha: 0.0001
    beta: 0.75
  }
}
layer {
  name: "conv2/3x3_reduce"
  type: "Convolution"
  bottom: "pool1/norm1"
  top: "conv2/3x3_reduce"
  param {
    lr_mult: 1
    decay_mult: 1
  }
  param {
    lr_mult: 2
    decay_mult: 0
  }
  convolution_param {
    num_output: 64
    kernel_size: 1
    weight_filler {
      type: "xavier"
      std: 0.1
    }
    bias_filler {
      type: "constant"
      value: 0.2
    }
  }
}
layer {
  name: "conv2/relu_3x3_reduce"
  type: "ReLU"
  bottom: "conv2/3x3_reduce"
  top: "conv2/3x3_reduce"
}
layer {
  name: "conv2/3x3"
  type: "Convolution"
  bottom: "conv2/3x3_reduce"
  top: "conv2/3x3"
  param {
    lr_mult: 1
    decay_mult: 1
  }
  param {
    lr_mult: 2
    decay_mult: 0
  }
  convolution_param {
    num_output: 192
    pad: 1
    kernel_size: 3
    weight_filler {
      type: "xavier"
      std: 0.03
    }
    bias_filler {
      type: "constant"
      value: 0.2
    }
  }
}
layer {
  name: "conv2/relu_3x3"
  type: "ReLU"
  bottom: "conv2/3x3"
  top: "conv2/3x3"
}
layer {
  name: "conv2/norm2"
  type: "LRN"
  bottom: "conv2/3x3"
  top: "conv2/norm2"
  lrn_param {
    local_size: 5
    alpha: 0.0001
    beta: 0.75
  }
}
layer {
  name: "pool2/3x3_s2"
  type: "Pooling"
  bottom: "conv2/norm2"
  top: "pool2/3x3_s2"
  pooling_param {
    pool: MAX
    kernel_size: 3
    stride: 2
  }
}
layer {
  name: "inception_3a/1x1"
  type: "Convolution"
  bottom: "pool2/3x3_s2"
  top: "inception_3a/1x1"
  param {
    lr_mult: 1
    decay_mult: 1
  }
  param {
    lr_mult: 2
    decay_mult: 0
  }
  convolution_param {
    num_output: 64
    kernel_size: 1
    weight_filler {
      type: "xavier"
      std: 0.03
    }
    bias_filler {
      type: "constant"
      value: 0.2
    }
  }
}
layer {
  name: "inception_3a/relu_1x1"
  type: "ReLU"
  bottom: "inception_3a/1x1"
  top: "inception_3a/1x1"
}
layer {
  name: "inception_3a/3x3_reduce"
  type: "Convolution"
  bottom: "pool2/3x3_s2"
  top: "inception_3a/3x3_reduce"
  param {
    lr_mult: 1
    decay_mult: 1
  }
  param {
    lr_mult: 2
    decay_mult: 0
  }
  convolution_param {
    num_output: 96
    kernel_size: 1
    weight_filler {
      type: "xavier"
      std: 0.09
    }
    bias_filler {
      type: "constant"
      value: 0.2
    }
  }
}
layer {
  name: "inception_3a/relu_3x3_reduce"
  type: "ReLU"
  bottom: "inception_3a/3x3_reduce"
  top: "inception_3a/3x3_reduce"
}
layer {
  name: "inception_3a/3x3"
  type: "Convolution"
  bottom: "inception_3a/3x3_reduce"
  top: "inception_3a/3x3"
  param {
    lr_mult: 1
    decay_mult: 1
  }
  param {
    lr_mult: 2
    decay_mult: 0
  }
  convolution_param {
    num_output: 128
    pad: 1
    kernel_size: 3
    weight_filler {
      type: "xavier"
      std: 0.03
    }
    bias_filler {
      type: "constant"
      value: 0.2
    }
  }
}
layer {
  name: "inception_3a/relu_3x3"
  type: "ReLU"
  bottom: "inception_3a/3x3"
  top: "inception_3a/3x3"
}
layer {
  name: "inception_3a/5x5_reduce"
  type: "Convolution"
  bottom: "pool2/3x3_s2"
  top: "inception_3a/5x5_reduce"
  param {
    lr_mult: 1
    decay_mult: 1
  }
  param {
    lr_mult: 2
    decay_mult: 0
  }
  convolution_param {
    num_output: 16
    kernel_size: 1
    weight_filler {
      type: "xavier"
      std: 0.2
    }
    bias_filler {
      type: "constant"
      value: 0.2
    }
  }
}
layer {
  name: "inception_3a/relu_5x5_reduce"
  type: "ReLU"
  bottom: "inception_3a/5x5_reduce"
  top: "inception_3a/5x5_reduce"
}
layer {
  name: "inception_3a/5x5"
  type: "Convolution"
  bottom: "inception_3a/5x5_reduce"
  top: "inception_3a/5x5"
  param {
    lr_mult: 1
    decay_mult: 1
  }
  param {
    lr_mult: 2
    decay_mult: 0
  }
  convolution_param {
    num_output: 32
    pad: 2
    kernel_size: 5
    weight_filler {
      type: "xavier"
      std: 0.03
    }
    bias_filler {
      type: "constant"
      value: 0.2
    }
  }
}
layer {
  name: "inception_3a/relu_5x5"
  type: "ReLU"
  bottom: "inception_3a/5x5"
  top: "inception_3a/5x5"
}
layer {
  name: "inception_3a/pool"
  type: "Pooling"
  bottom: "pool2/3x3_s2"
  top: "inception_3a/pool"
  pooling_param {
    pool: MAX
    kernel_size: 3
    stride: 1
    pad: 1
  }
}
layer {
  name: "inception_3a/pool_proj"
  type: "Convolution"
  bottom: "inception_3a/pool"
  top: "inception_3a/pool_proj"
  param {
    lr_mult: 1
    decay_mult: 1
  }
  param {
    lr_mult: 2
    decay_mult: 0
  }
  convolution_param {
    num_output: 32
    kernel_size: 1
    weight_filler {
      type: "xavier"
      std: 0.1
    }
    bias_filler {
      type: "constant"
      value: 0.2
    }
  }
}
layer {
  name: "inception_3a/relu_pool_proj"
  type: "ReLU"
  bottom: "inception_3a/pool_proj"
  top: "inception_3a/pool_proj"
}
layer {
  name: "inception_3a/output"
  type: "Concat"
  bottom: "inception_3a/1x1"
  bottom: "inception_3a/3x3"
  bottom: "inception_3a/5x5"
  bottom: "inception_3a/pool_proj"
  top: "inception_3a/output"
}
layer {
  name: "inception_3b/1x1"
  type: "Convolution"
  bottom: "inception_3a/output"
  top: "inception_3b/1x1"
  param {
    lr_mult: 1
    decay_mult: 1
  }
  param {
    lr_mult: 2
    decay_mult: 0
  }
  convolution_param {
    num_output: 128
    kernel_size: 1
    weight_filler {
      type: "xavier"
      std: 0.03
    }
    bias_filler {
      type: "constant"
      value: 0.2
    }
  }
}
layer {
  name: "inception_3b/relu_1x1"
  type: "ReLU"
  bottom: "inception_3b/1x1"
  top: "inception_3b/1x1"
}
layer {
  name: "inception_3b/3x3_reduce"
  type: "Convolution"
  bottom: "inception_3a/output"
  top: "inception_3b/3x3_reduce"
  param {
    lr_mult: 1
    decay_mult: 1
  }
  param {
    lr_mult: 2
    decay_mult: 0
  }
  convolution_param {
    num_output: 128
    kernel_size: 1
    weight_filler {
      type: "xavier"
      std: 0.09
    }
    bias_filler {
      type: "constant"
      value: 0.2
    }
  }
}
layer {
  name: "inception_3b/relu_3x3_reduce"
  type: "ReLU"
  bottom: "inception_3b/3x3_reduce"
  top: "inception_3b/3x3_reduce"
}
layer {
  name: "inception_3b/3x3"
  type: "Convolution"
  bottom: "inception_3b/3x3_reduce"
  top: "inception_3b/3x3"
  param {
    lr_mult: 1
    decay_mult: 1
  }
  param {
    lr_mult: 2
    decay_mult: 0
  }
  convolution_param {
    num_output: 192
    pad: 1
    kernel_size: 3
    weight_filler {
      type: "xavier"
      std: 0.03
    }
    bias_filler {
      type: "constant"
      value: 0.2
    }
  }
}
layer {
  name: "inception_3b/relu_3x3"
  type: "ReLU"
  bottom: "inception_3b/3x3"
  top: "inception_3b/3x3"
}
layer {
  name: "inception_3b/5x5_reduce"
  type: "Convolution"
  bottom: "inception_3a/output"
  top: "inception_3b/5x5_reduce"
  param {
    lr_mult: 1
    decay_mult: 1
  }
  param {
    lr_mult: 2
    decay_mult: 0
  }
  convolution_param {
    num_output: 32
    kernel_size: 1
    weight_filler {
      type: "xavier"
      std: 0.2
    }
    bias_filler {
      type: "constant"
      value: 0.2
    }
  }
}
layer {
  name: "inception_3b/relu_5x5_reduce"
  type: "ReLU"
  bottom: "inception_3b/5x5_reduce"
  top: "inception_3b/5x5_reduce"
}
layer {
  name: "inception_3b/5x5"
  type: "Convolution"
  bottom: "inception_3b/5x5_reduce"
  top: "inception_3b/5x5"
  param {
    lr_mult: 1
    decay_mult: 1
  }
  param {
    lr_mult: 2
    decay_mult: 0
  }
  convolution_param {
    num_output: 96
    pad: 2
    kernel_size: 5
    weight_filler {
      type: "xavier"
      std: 0.03
    }
    bias_filler {
      type: "constant"
      value: 0.2
    }
  }
}
layer {
  name: "inception_3b/relu_5x5"
  type: "ReLU"
  bottom: "inception_3b/5x5"
  top: "inception_3b/5x5"
}
layer {
  name: "inception_3b/pool"
  type: "Pooling"
  bottom: "inception_3a/output"
  top: "inception_3b/pool"
  pooling_param {
    pool: MAX
    kernel_size: 3
    stride: 1
    pad: 1
  }
}
layer {
  name: "inception_3b/pool_proj"
  type: "Convolution"
  bottom: "inception_3b/pool"
  top: "inception_3b/pool_proj"
  param {
    lr_mult: 1
    decay_mult: 1
  }
  param {
    lr_mult: 2
    decay_mult: 0
  }
  convolution_param {
    num_output: 64
    kernel_size: 1
    weight_filler {
      type: "xavier"
      std: 0.1
    }
    bias_filler {
      type: "constant"
      value: 0.2
    }
  }
}
layer {
  name: "inception_3b/relu_pool_proj"
  type: "ReLU"
  bottom: "inception_3b/pool_proj"
  top: "inception_3b/pool_proj"
}
layer {
  name: "inception_3b/output"
  type: "Concat"
  bottom: "inception_3b/1x1"
  bottom: "inception_3b/3x3"
  bottom: "inception_3b/5x5"
  bottom: "inception_3b/pool_proj"
  top: "inception_3b/output"
}
layer {
  name: "pool3/3x3_s2"
  type: "Pooling"
  bottom: "inception_3b/output"
  top: "pool3/3x3_s2"
  pooling_param {
    pool: MAX
    kernel_size: 3
    stride: 2
  }
}
layer {
  name: "inception_4a/1x1"
  type: "Convolution"
  bottom: "pool3/3x3_s2"
  top: "inception_4a/1x1"
  param {
    lr_mult: 1
    decay_mult: 1
  }
  param {
    lr_mult: 2
    decay_mult: 0
  }
  convolution_param {
    num_output: 192
    kernel_size: 1
    weight_filler {
      type: "xavier"
      std: 0.03
    }
    bias_filler {
      type: "constant"
      value: 0.2
    }
  }
}
layer {
  name: "inception_4a/relu_1x1"
  type: "ReLU"
  bottom: "inception_4a/1x1"
  top: "inception_4a/1x1"
}
layer {
  name: "inception_4a/3x3_reduce"
  type: "Convolution"
  bottom: "pool3/3x3_s2"
  top: "inception_4a/3x3_reduce"
  param {
    lr_mult: 1
    decay_mult: 1
  }
  param {
    lr_mult: 2
    decay_mult: 0
  }
  convolution_param {
    num_output: 96
    kernel_size: 1
    weight_filler {
      type: "xavier"
      std: 0.09
    }
    bias_filler {
      type: "constant"
      value: 0.2
    }
  }
}
layer {
  name: "inception_4a/relu_3x3_reduce"
  type: "ReLU"
  bottom: "inception_4a/3x3_reduce"
  top: "inception_4a/3x3_reduce"
}
layer {
  name: "inception_4a/3x3"
  type: "Convolution"
  bottom: "inception_4a/3x3_reduce"
  top: "inception_4a/3x3"
  param {
    lr_mult: 1
    decay_mult: 1
  }
  param {
    lr_mult: 2
    decay_mult: 0
  }
  convolution_param {
    num_output: 208
    pad: 1
    kernel_size: 3
    weight_filler {
      type: "xavier"
      std: 0.03
    }
    bias_filler {
      type: "constant"
      value: 0.2
    }
  }
}
layer {
  name: "inception_4a/relu_3x3"
  type: "ReLU"
  bottom: "inception_4a/3x3"
  top: "inception_4a/3x3"
}
layer {
  name: "inception_4a/5x5_reduce"
  type: "Convolution"
  bottom: "pool3/3x3_s2"
  top: "inception_4a/5x5_reduce"
  param {
    lr_mult: 1
    decay_mult: 1
  }
  param {
    lr_mult: 2
    decay_mult: 0
  }
  convolution_param {
    num_output: 16
    kernel_size: 1
    weight_filler {
      type: "xavier"
      std: 0.2
    }
    bias_filler {
      type: "constant"
      value: 0.2
    }
  }
}
layer {
  name: "inception_4a/relu_5x5_reduce"
  type: "ReLU"
  bottom: "inception_4a/5x5_reduce"
  top: "inception_4a/5x5_reduce"
}
layer {
  name: "inception_4a/5x5"
  type: "Convolution"
  bottom: "inception_4a/5x5_reduce"
  top: "inception_4a/5x5"
  param {
    lr_mult: 1
    decay_mult: 1
  }
  param {
    lr_mult: 2
    decay_mult: 0
  }
  convolution_param {
    num_output: 48
    pad: 2
    kernel_size: 5
    weight_filler {
      type: "xavier"
      std: 0.03
    }
    bias_filler {
      type: "constant"
      value: 0.2
    }
  }
}
layer {
  name: "inception_4a/relu_5x5"
  type: "ReLU"
  bottom: "inception_4a/5x5"
  top: "inception_4a/5x5"
}
layer {
  name: "inception_4a/pool"
  type: "Pooling"
  bottom: "pool3/3x3_s2"
  top: "inception_4a/pool"
  pooling_param {
    pool: MAX
    kernel_size: 3
    stride: 1
    pad: 1
  }
}
layer {
  name: "inception_4a/pool_proj"
  type: "Convolution"
  bottom: "inception_4a/pool"
  top: "inception_4a/pool_proj"
  param {
    lr_mult: 1
    decay_mult: 1
  }
  param {
    lr_mult: 2
    decay_mult: 0
  }
  convolution_param {
    num_output: 64
    kernel_size: 1
    weight_filler {
      type: "xavier"
      std: 0.1
    }
    bias_filler {
      type: "constant"
      value: 0.2
    }
  }
}
layer {
  name: "inception_4a/relu_pool_proj"
  type: "ReLU"
  bottom: "inception_4a/pool_proj"
  top: "inception_4a/pool_proj"
}
layer {
  name: "inception_4a/output"
  type: "Concat"
  bottom: "inception_4a/1x1"
  bottom: "inception_4a/3x3"
  bottom: "inception_4a/5x5"
  bottom: "inception_4a/pool_proj"
  top: "inception_4a/output"
}
layer {
  name: "loss1/ave_pool"
  type: "Pooling"
  bottom: "inception_4a/output"
  top: "loss1/ave_pool"
  pooling_param {
    pool: AVE
    kernel_size: 5
    stride: 3
  }
}
layer {
  name: "loss1/conv"
  type: "Convolution"
  bottom: "loss1/ave_pool"
  top: "loss1/conv"
  param {
    lr_mult: 1
    decay_mult: 1
  }
  param {
    lr_mult: 2
    decay_mult: 0
  }
  convolution_param {
    num_output: 128
    kernel_size: 1
    weight_filler {
      type: "xavier"
      std: 0.08
    }
    bias_filler {
      type: "constant"
      value: 0.2
    }
  }
}
layer {
  name: "loss1/relu_conv"
  type: "ReLU"
  bottom: "loss1/conv"
  top: "loss1/conv"
}
layer {
  name: "loss1/fc"
  type: "InnerProduct"
  bottom: "loss1/conv"
  top: "loss1/fc"
  param {
    lr_mult: 1
    decay_mult: 1
  }
  param {
    lr_mult: 2
    decay_mult: 0
  }
  inner_product_param {
    num_output: 1024
    weight_filler {
      type: "xavier"
      std: 0.02
    }
    bias_filler {
      type: "constant"
      value: 0.2
    }
  }
}
layer {
  name: "loss1/relu_fc"
  type: "ReLU"
  bottom: "loss1/fc"
  top: "loss1/fc"
}
layer {
  name: "loss1/drop_fc"
  type: "Dropout"
  bottom: "loss1/fc"
  top: "loss1/fc"
  dropout_param {
    dropout_ratio: 0.7
  }
}
layer {
  name: "loss1/classifier_plantvillage"
  type: "InnerProduct"
  bottom: "loss1/fc"
  top: "loss1/classifier_plantvillage"
  param {
    lr_mult: 1
    decay_mult: 1
  }
  param {
    lr_mult: 2
    decay_mult: 0
  }
  inner_product_param {
    num_output: 38
    weight_filler {
      type: "xavier"
      std: 0.0009765625
    }
    bias_filler {
      type: "constant"
      value: 0
    }
  }
}
layer {
  name: "inception_4b/1x1"
  type: "Convolution"
  bottom: "inception_4a/output"
  top: "inception_4b/1x1"
  param {
    lr_mult: 1
    decay_mult: 1
  }
  param {
    lr_mult: 2
    decay_mult: 0
  }
  convolution_param {
    num_output: 160
    kernel_size: 1
    weight_filler {
      type: "xavier"
      std: 0.03
    }
    bias_filler {
      type: "constant"
      value: 0.2
    }
  }
}
layer {
  name: "inception_4b/relu_1x1"
  type: "ReLU"
  bottom: "inception_4b/1x1"
  top: "inception_4b/1x1"
}
layer {
  name: "inception_4b/3x3_reduce"
  type: "Convolution"
  bottom: "inception_4a/output"
  top: "inception_4b/3x3_reduce"
  param {
    lr_mult: 1
    decay_mult: 1
  }
  param {
    lr_mult: 2
    decay_mult: 0
  }
  convolution_param {
    num_output: 112
    kernel_size: 1
    weight_filler {
      type: "xavier"
      std: 0.09
    }
    bias_filler {
      type: "constant"
      value: 0.2
    }
  }
}
layer {
  name: "inception_4b/relu_3x3_reduce"
  type: "ReLU"
  bottom: "inception_4b/3x3_reduce"
  top: "inception_4b/3x3_reduce"
}
layer {
  name: "inception_4b/3x3"
  type: "Convolution"
  bottom: "inception_4b/3x3_reduce"
  top: "inception_4b/3x3"
  param {
    lr_mult: 1
    decay_mult: 1
  }
  param {
    lr_mult: 2
    decay_mult: 0
  }
  convolution_param {
    num_output: 224
    pad: 1
    kernel_size: 3
    weight_filler {
      type: "xavier"
      std: 0.03
    }
    bias_filler {
      type: "constant"
      value: 0.2
    }
  }
}
layer {
  name: "inception_4b/relu_3x3"
  type: "ReLU"
  bottom: "inception_4b/3x3"
  top: "inception_4b/3x3"
}
layer {
  name: "inception_4b/5x5_reduce"
  type: "Convolution"
  bottom: "inception_4a/output"
  top: "inception_4b/5x5_reduce"
  param {
    lr_mult: 1
    decay_mult: 1
  }
  param {
    lr_mult: 2
    decay_mult: 0
  }
  convolution_param {
    num_output: 24
    kernel_size: 1
    weight_filler {
      type: "xavier"
      std: 0.2
    }
    bias_filler {
      type: "constant"
      value: 0.2
    }
  }
}
layer {
  name: "inception_4b/relu_5x5_reduce"
  type: "ReLU"
  bottom: "inception_4b/5x5_reduce"
  top: "inception_4b/5x5_reduce"
}
layer {
  name: "inception_4b/5x5"
  type: "Convolution"
  bottom: "inception_4b/5x5_reduce"
  top: "inception_4b/5x5"
  param {
    lr_mult: 1
    decay_mult: 1
  }
  param {
    lr_mult: 2
    decay_mult: 0
  }
  convolution_param {
    num_output: 64
    pad: 2
    kernel_size: 5
    weight_filler {
      type: "xavier"
      std: 0.03
    }
    bias_filler {
      type: "constant"
      value: 0.2
    }
  }
}
layer {
  name: "inception_4b/relu_5x5"
  type: "ReLU"
  bottom: "inception_4b/5x5"
  top: "inception_4b/5x5"
}
layer {
  name: "inception_4b/pool"
  type: "Pooling"
  bottom: "inception_4a/output"
  top: "inception_4b/pool"
  pooling_param {
    pool: MAX
    kernel_size: 3
    stride: 1
    pad: 1
  }
}
layer {
  name: "inception_4b/pool_proj"
  type: "Convolution"
  bottom: "inception_4b/pool"
  top: "inception_4b/pool_proj"
  param {
    lr_mult: 1
    decay_mult: 1
  }
  param {
    lr_mult: 2
    decay_mult: 0
  }
  convolution_param {
    num_output: 64
    kernel_size: 1
    weight_filler {
      type: "xavier"
      std: 0.1
    }
    bias_filler {
      type: "constant"
      value: 0.2
    }
  }
}
layer {
  name: "inception_4b/relu_pool_proj"
  type: "ReLU"
  bottom: "inception_4b/pool_proj"
  top: "inception_4b/pool_proj"
}
layer {
  name: "inception_4b/output"
  type: "Concat"
  bottom: "inception_4b/1x1"
  bottom: "inception_4b/3x3"
  bottom: "inception_4b/5x5"
  bottom: "inception_4b/pool_proj"
  top: "inception_4b/output"
}
layer {
  name: "inception_4c/1x1"
  type: "Convolution"
  bottom: "inception_4b/output"
  top: "inception_4c/1x1"
  param {
    lr_mult: 1
    decay_mult: 1
  }
  param {
    lr_mult: 2
    decay_mult: 0
  }
  convolution_param {
    num_output: 128
    kernel_size: 1
    weight_filler {
      type: "xavier"
      std: 0.03
    }
    bias_filler {
      type: "constant"
      value: 0.2
    }
  }
}
layer {
  name: "inception_4c/relu_1x1"
  type: "ReLU"
  bottom: "inception_4c/1x1"
  top: "inception_4c/1x1"
}
layer {
  name: "inception_4c/3x3_reduce"
  type: "Convolution"
  bottom: "inception_4b/output"
  top: "inception_4c/3x3_reduce"
  param {
    lr_mult: 1
    decay_mult: 1
  }
  param {
    lr_mult: 2
    decay_mult: 0
  }
  convolution_param {
    num_output: 128
    kernel_size: 1
    weight_filler {
      type: "xavier"
      std: 0.09
    }
    bias_filler {
      type: "constant"
      value: 0.2
    }
  }
}
layer {
  name: "inception_4c/relu_3x3_reduce"
  type: "ReLU"
  bottom: "inception_4c/3x3_reduce"
  top: "inception_4c/3x3_reduce"
}
layer {
  name: "inception_4c/3x3"
  type: "Convolution"
  bottom: "inception_4c/3x3_reduce"
  top: "inception_4c/3x3"
  param {
    lr_mult: 1
    decay_mult: 1
  }
  param {
    lr_mult: 2
    decay_mult: 0
  }
  convolution_param {
    num_output: 256
    pad: 1
    kernel_size: 3
    weight_filler {
      type: "xavier"
      std: 0.03
    }
    bias_filler {
      type: "constant"
      value: 0.2
    }
  }
}
layer {
  name: "inception_4c/relu_3x3"
  type: "ReLU"
  bottom: "inception_4c/3x3"
  top: "inception_4c/3x3"
}
layer {
  name: "inception_4c/5x5_reduce"
  type: "Convolution"
  bottom: "inception_4b/output"
  top: "inception_4c/5x5_reduce"
  param {
    lr_mult: 1
    decay_mult: 1
  }
  param {
    lr_mult: 2
    decay_mult: 0
  }
  convolution_param {
    num_output: 24
    kernel_size: 1
    weight_filler {
      type: "xavier"
      std: 0.2
    }
    bias_filler {
      type: "constant"
      value: 0.2
    }
  }
}
layer {
  name: "inception_4c/relu_5x5_reduce"
  type: "ReLU"
  bottom: "inception_4c/5x5_reduce"
  top: "inception_4c/5x5_reduce"
}
layer {
  name: "inception_4c/5x5"
  type: "Convolution"
  bottom: "inception_4c/5x5_reduce"
  top: "inception_4c/5x5"
  param {
    lr_mult: 1
    decay_mult: 1
  }
  param {
    lr_mult: 2
    decay_mult: 0
  }
  convolution_param {
    num_output: 64
    pad: 2
    kernel_size: 5
    weight_filler {
      type: "xavier"
      std: 0.03
    }
    bias_filler {
      type: "constant"
      value: 0.2
    }
  }
}
layer {
  name: "inception_4c/relu_5x5"
  type: "ReLU"
  bottom: "inception_4c/5x5"
  top: "inception_4c/5x5"
}
layer {
  name: "inception_4c/pool"
  type: "Pooling"
  bottom: "inception_4b/output"
  top: "inception_4c/pool"
  pooling_param {
    pool: MAX
    kernel_size: 3
    stride: 1
    pad: 1
  }
}
layer {
  name: "inception_4c/pool_proj"
  type: "Convolution"
  bottom: "inception_4c/pool"
  top: "inception_4c/pool_proj"
  param {
    lr_mult: 1
    decay_mult: 1
  }
  param {
    lr_mult: 2
    decay_mult: 0
  }
  convolution_param {
    num_output: 64
    kernel_size: 1
    weight_filler {
      type: "xavier"
      std: 0.1
    }
    bias_filler {
      type: "constant"
      value: 0.2
    }
  }
}
layer {
  name: "inception_4c/relu_pool_proj"
  type: "ReLU"
  bottom: "inception_4c/pool_proj"
  top: "inception_4c/pool_proj"
}
layer {
  name: "inception_4c/output"
  type: "Concat"
  bottom: "inception_4c/1x1"
  bottom: "inception_4c/3x3"
  bottom: "inception_4c/5x5"
  bottom: "inception_4c/pool_proj"
  top: "inception_4c/output"
}
layer {
  name: "inception_4d/1x1"
  type: "Convolution"
  bottom: "inception_4c/output"
  top: "inception_4d/1x1"
  param {
    lr_mult: 1
    decay_mult: 1
  }
  param {
    lr_mult: 2
    decay_mult: 0
  }
  convolution_param {
    num_output: 112
    kernel_size: 1
    weight_filler {
      type: "xavier"
      std: 0.03
    }
    bias_filler {
      type: "constant"
      value: 0.2
    }
  }
}
layer {
  name: "inception_4d/relu_1x1"
  type: "ReLU"
  bottom: "inception_4d/1x1"
  top: "inception_4d/1x1"
}
layer {
  name: "inception_4d/3x3_reduce"
  type: "Convolution"
  bottom: "inception_4c/output"
  top: "inception_4d/3x3_reduce"
  param {
    lr_mult: 1
    decay_mult: 1
  }
  param {
    lr_mult: 2
    decay_mult: 0
  }
  convolution_param {
    num_output: 144
    kernel_size: 1
    weight_filler {
      type: "xavier"
      std: 0.09
    }
    bias_filler {
      type: "constant"
      value: 0.2
    }
  }
}
layer {
  name: "inception_4d/relu_3x3_reduce"
  type: "ReLU"
  bottom: "inception_4d/3x3_reduce"
  top: "inception_4d/3x3_reduce"
}
layer {
  name: "inception_4d/3x3"
  type: "Convolution"
  bottom: "inception_4d/3x3_reduce"
  top: "inception_4d/3x3"
  param {
    lr_mult: 1
    decay_mult: 1
  }
  param {
    lr_mult: 2
    decay_mult: 0
  }
  convolution_param {
    num_output: 288
    pad: 1
    kernel_size: 3
    weight_filler {
      type: "xavier"
      std: 0.03
    }
    bias_filler {
      type: "constant"
      value: 0.2
    }
  }
}
layer {
  name: "inception_4d/relu_3x3"
  type: "ReLU"
  bottom: "inception_4d/3x3"
  top: "inception_4d/3x3"
}
layer {
  name: "inception_4d/5x5_reduce"
  type: "Convolution"
  bottom: "inception_4c/output"
  top: "inception_4d/5x5_reduce"
  param {
    lr_mult: 1
    decay_mult: 1
  }
  param {
    lr_mult: 2
    decay_mult: 0
  }
  convolution_param {
    num_output: 32
    kernel_size: 1
    weight_filler {
      type: "xavier"
      std: 0.2
    }
    bias_filler {
      type: "constant"
      value: 0.2
    }
  }
}
layer {
  name: "inception_4d/relu_5x5_reduce"
  type: "ReLU"
  bottom: "inception_4d/5x5_reduce"
  top: "inception_4d/5x5_reduce"
}
layer {
  name: "inception_4d/5x5"
  type: "Convolution"
  bottom: "inception_4d/5x5_reduce"
  top: "inception_4d/5x5"
  param {
    lr_mult: 1
    decay_mult: 1
  }
  param {
    lr_mult: 2
    decay_mult: 0
  }
  convolution_param {
    num_output: 64
    pad: 2
    kernel_size: 5
    weight_filler {
      type: "xavier"
      std: 0.03
    }
    bias_filler {
      type: "constant"
      value: 0.2
    }
  }
}
layer {
  name: "inception_4d/relu_5x5"
  type: "ReLU"
  bottom: "inception_4d/5x5"
  top: "inception_4d/5x5"
}
layer {
  name: "inception_4d/pool"
  type: "Pooling"
  bottom: "inception_4c/output"
  top: "inception_4d/pool"
  pooling_param {
    pool: MAX
    kernel_size: 3
    stride: 1
    pad: 1
  }
}
layer {
  name: "inception_4d/pool_proj"
  type: "Convolution"
  bottom: "inception_4d/pool"
  top: "inception_4d/pool_proj"
  param {
    lr_mult: 1
    decay_mult: 1
  }
  param {
    lr_mult: 2
    decay_mult: 0
  }
  convolution_param {
    num_output: 64
    kernel_size: 1
    weight_filler {
      type: "xavier"
      std: 0.1
    }
    bias_filler {
      type: "constant"
      value: 0.2
    }
  }
}
layer {
  name: "inception_4d/relu_pool_proj"
  type: "ReLU"
  bottom: "inception_4d/pool_proj"
  top: "inception_4d/pool_proj"
}
layer {
  name: "inception_4d/output"
  type: "Concat"
  bottom: "inception_4d/1x1"
  bottom: "inception_4d/3x3"
  bottom: "inception_4d/5x5"
  bottom: "inception_4d/pool_proj"
  top: "inception_4d/output"
}
layer {
  name: "loss2/ave_pool"
  type: "Pooling"
  bottom: "inception_4d/output"
  top: "loss2/ave_pool"
  pooling_param {
    pool: AVE
    kernel_size: 5
    stride: 3
  }
}
layer {
  name: "loss2/conv"
  type: "Convolution"
  bottom: "loss2/ave_pool"
  top: "loss2/conv"
  param {
    lr_mult: 1
    decay_mult: 1
  }
  param {
    lr_mult: 2
    decay_mult: 0
  }
  convolution_param {
    num_output: 128
    kernel_size: 1
    weight_filler {
      type: "xavier"
      std: 0.08
    }
    bias_filler {
      type: "constant"
      value: 0.2
    }
  }
}
layer {
  name: "loss2/relu_conv"
  type: "ReLU"
  bottom: "loss2/conv"
  top: "loss2/conv"
}
layer {
  name: "loss2/fc"
  type: "InnerProduct"
  bottom: "loss2/conv"
  top: "loss2/fc"
  param {
    lr_mult: 1
    decay_mult: 1
  }
  param {
    lr_mult: 2
    decay_mult: 0
  }
  inner_product_param {
    num_output: 1024
    weight_filler {
      type: "xavier"
      std: 0.02
    }
    bias_filler {
      type: "constant"
      value: 0.2
    }
  }
}
layer {
  name: "loss2/relu_fc"
  type: "ReLU"
  bottom: "loss2/fc"
  top: "loss2/fc"
}
layer {
  name: "loss2/drop_fc"
  type: "Dropout"
  bottom: "loss2/fc"
  top: "loss2/fc"
  dropout_param {
    dropout_ratio: 0.7
  }
}
layer {
  name: "loss2/classifier_plantvillage"
  type: "InnerProduct"
  bottom: "loss2/fc"
  top: "loss2/classifier_plantvillage"
  param {
    lr_mult: 1
    decay_mult: 1
  }
  param {
    lr_mult: 2
    decay_mult: 0
  }
  inner_product_param {
    num_output: 38
    weight_filler {
      type: "xavier"
      std: 0.0009765625
    }
    bias_filler {
      type: "constant"
      value: 0
    }
  }
}
layer {
  name: "inception_4e/1x1"
  type: "Convolution"
  bottom: "inception_4d/output"
  top: "inception_4e/1x1"
  param {
    lr_mult: 1
    decay_mult: 1
  }
  param {
    lr_mult: 2
    decay_mult: 0
  }
  convolution_param {
    num_output: 256
    kernel_size: 1
    weight_filler {
      type: "xavier"
      std: 0.03
    }
    bias_filler {
      type: "constant"
      value: 0.2
    }
  }
}
layer {
  name: "inception_4e/relu_1x1"
  type: "ReLU"
  bottom: "inception_4e/1x1"
  top: "inception_4e/1x1"
}
layer {
  name: "inception_4e/3x3_reduce"
  type: "Convolution"
  bottom: "inception_4d/output"
  top: "inception_4e/3x3_reduce"
  param {
    lr_mult: 1
    decay_mult: 1
  }
  param {
    lr_mult: 2
    decay_mult: 0
  }
  convolution_param {
    num_output: 160
    kernel_size: 1
    weight_filler {
      type: "xavier"
      std: 0.09
    }
    bias_filler {
      type: "constant"
      value: 0.2
    }
  }
}
layer {
  name: "inception_4e/relu_3x3_reduce"
  type: "ReLU"
  bottom: "inception_4e/3x3_reduce"
  top: "inception_4e/3x3_reduce"
}
layer {
  name: "inception_4e/3x3"
  type: "Convolution"
  bottom: "inception_4e/3x3_reduce"
  top: "inception_4e/3x3"
  param {
    lr_mult: 1
    decay_mult: 1
  }
  param {
    lr_mult: 2
    decay_mult: 0
  }
  convolution_param {
    num_output: 320
    pad: 1
    kernel_size: 3
    weight_filler {
      type: "xavier"
      std: 0.03
    }
    bias_filler {
      type: "constant"
      value: 0.2
    }
  }
}
layer {
  name: "inception_4e/relu_3x3"
  type: "ReLU"
  bottom: "inception_4e/3x3"
  top: "inception_4e/3x3"
}
layer {
  name: "inception_4e/5x5_reduce"
  type: "Convolution"
  bottom: "inception_4d/output"
  top: "inception_4e/5x5_reduce"
  param {
    lr_mult: 1
    decay_mult: 1
  }
  param {
    lr_mult: 2
    decay_mult: 0
  }
  convolution_param {
    num_output: 32
    kernel_size: 1
    weight_filler {
      type: "xavier"
      std: 0.2
    }
    bias_filler {
      type: "constant"
      value: 0.2
    }
  }
}
layer {
  name: "inception_4e/relu_5x5_reduce"
  type: "ReLU"
  bottom: "inception_4e/5x5_reduce"
  top: "inception_4e/5x5_reduce"
}
layer {
  name: "inception_4e/5x5"
  type: "Convolution"
  bottom: "inception_4e/5x5_reduce"
  top: "inception_4e/
I0403 19:07:22.819799 18797 layer_factory.hpp:77] Creating layer data
I0403 19:07:22.820396 18797 net.cpp:91] Creating Layer data
I0403 19:07:22.820430 18797 net.cpp:399] data -> data
I0403 19:07:22.820480 18797 net.cpp:399] data -> label
I0403 19:07:22.820518 18797 data_transformer.cpp:25] Loading mean file from: /home/mohanty/data/final_dataset/lmdb/segmented-60-40/mean.binaryproto
I0403 19:07:22.821658 18799 db_lmdb.cpp:38] Opened lmdb /home/mohanty/data/final_dataset/lmdb/segmented-60-40/test_db
I0403 19:07:22.833421 18797 data_layer.cpp:41] output data size: 24,3,224,224
I0403 19:07:22.859999 18797 net.cpp:141] Setting up data
I0403 19:07:22.860082 18797 net.cpp:148] Top shape: 24 3 224 224 (3612672)
I0403 19:07:22.860107 18797 net.cpp:148] Top shape: 24 (24)
I0403 19:07:22.860124 18797 net.cpp:156] Memory required for data: 14450784
I0403 19:07:22.860153 18797 layer_factory.hpp:77] Creating layer label_data_1_split
I0403 19:07:22.860183 18797 net.cpp:91] Creating Layer label_data_1_split
I0403 19:07:22.860203 18797 net.cpp:425] label_data_1_split <- label
I0403 19:07:22.860235 18797 net.cpp:399] label_data_1_split -> label_data_1_split_0
I0403 19:07:22.860265 18797 net.cpp:399] label_data_1_split -> label_data_1_split_1
I0403 19:07:22.860288 18797 net.cpp:399] label_data_1_split -> label_data_1_split_2
I0403 19:07:22.860313 18797 net.cpp:399] label_data_1_split -> label_data_1_split_3
I0403 19:07:22.860335 18797 net.cpp:399] label_data_1_split -> label_data_1_split_4
I0403 19:07:22.860358 18797 net.cpp:399] label_data_1_split -> label_data_1_split_5
I0403 19:07:22.860380 18797 net.cpp:399] label_data_1_split -> label_data_1_split_6
I0403 19:07:22.860402 18797 net.cpp:399] label_data_1_split -> label_data_1_split_7
I0403 19:07:22.860424 18797 net.cpp:399] label_data_1_split -> label_data_1_split_8
I0403 19:07:22.860447 18797 net.cpp:399] label_data_1_split -> label_data_1_split_9
I0403 19:07:22.860564 18797 net.cpp:141] Setting up label_data_1_split
I0403 19:07:22.860589 18797 net.cpp:148] Top shape: 24 (24)
I0403 19:07:22.860607 18797 net.cpp:148] Top shape: 24 (24)
I0403 19:07:22.860625 18797 net.cpp:148] Top shape: 24 (24)
I0403 19:07:22.860642 18797 net.cpp:148] Top shape: 24 (24)
I0403 19:07:22.860659 18797 net.cpp:148] Top shape: 24 (24)
I0403 19:07:22.860677 18797 net.cpp:148] Top shape: 24 (24)
I0403 19:07:22.860693 18797 net.cpp:148] Top shape: 24 (24)
I0403 19:07:22.860710 18797 net.cpp:148] Top shape: 24 (24)
I0403 19:07:22.860726 18797 net.cpp:148] Top shape: 24 (24)
I0403 19:07:22.860743 18797 net.cpp:148] Top shape: 24 (24)
I0403 19:07:22.860790 18797 net.cpp:156] Memory required for data: 14451744
I0403 19:07:22.860807 18797 layer_factory.hpp:77] Creating layer conv1/7x7_s2
I0403 19:07:22.860841 18797 net.cpp:91] Creating Layer conv1/7x7_s2
I0403 19:07:22.860859 18797 net.cpp:425] conv1/7x7_s2 <- data
I0403 19:07:22.860879 18797 net.cpp:399] conv1/7x7_s2 -> conv1/7x7_s2
I0403 19:07:22.995405 18797 net.cpp:141] Setting up conv1/7x7_s2
I0403 19:07:22.995493 18797 net.cpp:148] Top shape: 24 64 112 112 (19267584)
I0403 19:07:22.995512 18797 net.cpp:156] Memory required for data: 91522080
I0403 19:07:22.995543 18797 layer_factory.hpp:77] Creating layer conv1/relu_7x7
I0403 19:07:22.995570 18797 net.cpp:91] Creating Layer conv1/relu_7x7
I0403 19:07:22.995589 18797 net.cpp:425] conv1/relu_7x7 <- conv1/7x7_s2
I0403 19:07:22.995609 18797 net.cpp:386] conv1/relu_7x7 -> conv1/7x7_s2 (in-place)
I0403 19:07:22.995857 18797 net.cpp:141] Setting up conv1/relu_7x7
I0403 19:07:22.995883 18797 net.cpp:148] Top shape: 24 64 112 112 (19267584)
I0403 19:07:22.995911 18797 net.cpp:156] Memory required for data: 168592416
I0403 19:07:22.995928 18797 layer_factory.hpp:77] Creating layer pool1/3x3_s2
I0403 19:07:22.995966 18797 net.cpp:91] Creating Layer pool1/3x3_s2
I0403 19:07:22.995992 18797 net.cpp:425] pool1/3x3_s2 <- conv1/7x7_s2
I0403 19:07:22.996013 18797 net.cpp:399] pool1/3x3_s2 -> pool1/3x3_s2
I0403 19:07:22.996090 18797 net.cpp:141] Setting up pool1/3x3_s2
I0403 19:07:22.996116 18797 net.cpp:148] Top shape: 24 64 56 56 (4816896)
I0403 19:07:22.996132 18797 net.cpp:156] Memory required for data: 187860000
I0403 19:07:22.996150 18797 layer_factory.hpp:77] Creating layer pool1/norm1
I0403 19:07:22.996188 18797 net.cpp:91] Creating Layer pool1/norm1
I0403 19:07:22.996208 18797 net.cpp:425] pool1/norm1 <- pool1/3x3_s2
I0403 19:07:22.996228 18797 net.cpp:399] pool1/norm1 -> pool1/norm1
I0403 19:07:22.996536 18797 net.cpp:141] Setting up pool1/norm1
I0403 19:07:22.996562 18797 net.cpp:148] Top shape: 24 64 56 56 (4816896)
I0403 19:07:22.996577 18797 net.cpp:156] Memory required for data: 207127584
I0403 19:07:22.996592 18797 layer_factory.hpp:77] Creating layer conv2/3x3_reduce
I0403 19:07:22.996618 18797 net.cpp:91] Creating Layer conv2/3x3_reduce
I0403 19:07:22.996634 18797 net.cpp:425] conv2/3x3_reduce <- pool1/norm1
I0403 19:07:22.996654 18797 net.cpp:399] conv2/3x3_reduce -> conv2/3x3_reduce
I0403 19:07:22.997947 18797 net.cpp:141] Setting up conv2/3x3_reduce
I0403 19:07:22.997975 18797 net.cpp:148] Top shape: 24 64 56 56 (4816896)
I0403 19:07:22.997997 18797 net.cpp:156] Memory required for data: 226395168
I0403 19:07:22.998021 18797 layer_factory.hpp:77] Creating layer conv2/relu_3x3_reduce
I0403 19:07:22.998041 18797 net.cpp:91] Creating Layer conv2/relu_3x3_reduce
I0403 19:07:22.998057 18797 net.cpp:425] conv2/relu_3x3_reduce <- conv2/3x3_reduce
I0403 19:07:22.998075 18797 net.cpp:386] conv2/relu_3x3_reduce -> conv2/3x3_reduce (in-place)
I0403 19:07:22.998335 18797 net.cpp:141] Setting up conv2/relu_3x3_reduce
I0403 19:07:22.998361 18797 net.cpp:148] Top shape: 24 64 56 56 (4816896)
I0403 19:07:22.998378 18797 net.cpp:156] Memory required for data: 245662752
I0403 19:07:22.998392 18797 layer_factory.hpp:77] Creating layer conv2/3x3
I0403 19:07:22.998417 18797 net.cpp:91] Creating Layer conv2/3x3
I0403 19:07:22.998435 18797 net.cpp:425] conv2/3x3 <- conv2/3x3_reduce
I0403 19:07:22.998456 18797 net.cpp:399] conv2/3x3 -> conv2/3x3
I0403 19:07:23.000666 18797 net.cpp:141] Setting up conv2/3x3
I0403 19:07:23.000695 18797 net.cpp:148] Top shape: 24 192 56 56 (14450688)
I0403 19:07:23.000713 18797 net.cpp:156] Memory required for data: 303465504
I0403 19:07:23.000737 18797 layer_factory.hpp:77] Creating layer conv2/relu_3x3
I0403 19:07:23.000757 18797 net.cpp:91] Creating Layer conv2/relu_3x3
I0403 19:07:23.000774 18797 net.cpp:425] conv2/relu_3x3 <- conv2/3x3
I0403 19:07:23.000792 18797 net.cpp:386] conv2/relu_3x3 -> conv2/3x3 (in-place)
I0403 19:07:23.000963 18797 net.cpp:141] Setting up conv2/relu_3x3
I0403 19:07:23.000994 18797 net.cpp:148] Top shape: 24 192 56 56 (14450688)
I0403 19:07:23.001039 18797 net.cpp:156] Memory required for data: 361268256
I0403 19:07:23.001055 18797 layer_factory.hpp:77] Creating layer conv2/norm2
I0403 19:07:23.001078 18797 net.cpp:91] Creating Layer conv2/norm2
I0403 19:07:23.001096 18797 net.cpp:425] conv2/norm2 <- conv2/3x3
I0403 19:07:23.001114 18797 net.cpp:399] conv2/norm2 -> conv2/norm2
I0403 19:07:23.001405 18797 net.cpp:141] Setting up conv2/norm2
I0403 19:07:23.001431 18797 net.cpp:148] Top shape: 24 192 56 56 (14450688)
I0403 19:07:23.001446 18797 net.cpp:156] Memory required for data: 419071008
I0403 19:07:23.001461 18797 layer_factory.hpp:77] Creating layer pool2/3x3_s2
I0403 19:07:23.001482 18797 net.cpp:91] Creating Layer pool2/3x3_s2
I0403 19:07:23.001499 18797 net.cpp:425] pool2/3x3_s2 <- conv2/norm2
I0403 19:07:23.001518 18797 net.cpp:399] pool2/3x3_s2 -> pool2/3x3_s2
I0403 19:07:23.001570 18797 net.cpp:141] Setting up pool2/3x3_s2
I0403 19:07:23.001593 18797 net.cpp:148] Top shape: 24 192 28 28 (3612672)
I0403 19:07:23.001608 18797 net.cpp:156] Memory required for data: 433521696
I0403 19:07:23.001623 18797 layer_factory.hpp:77] Creating layer pool2/3x3_s2_pool2/3x3_s2_0_split
I0403 19:07:23.001641 18797 net.cpp:91] Creating Layer pool2/3x3_s2_pool2/3x3_s2_0_split
I0403 19:07:23.001657 18797 net.cpp:425] pool2/3x3_s2_pool2/3x3_s2_0_split <- pool2/3x3_s2
I0403 19:07:23.001678 18797 net.cpp:399] pool2/3x3_s2_pool2/3x3_s2_0_split -> pool2/3x3_s2_pool2/3x3_s2_0_split_0
I0403 19:07:23.001699 18797 net.cpp:399] pool2/3x3_s2_pool2/3x3_s2_0_split -> pool2/3x3_s2_pool2/3x3_s2_0_split_1
I0403 19:07:23.001720 18797 net.cpp:399] pool2/3x3_s2_pool2/3x3_s2_0_split -> pool2/3x3_s2_pool2/3x3_s2_0_split_2
I0403 19:07:23.001740 18797 net.cpp:399] pool2/3x3_s2_pool2/3x3_s2_0_split -> pool2/3x3_s2_pool2/3x3_s2_0_split_3
I0403 19:07:23.001813 18797 net.cpp:141] Setting up pool2/3x3_s2_pool2/3x3_s2_0_split
I0403 19:07:23.001837 18797 net.cpp:148] Top shape: 24 192 28 28 (3612672)
I0403 19:07:23.001853 18797 net.cpp:148] Top shape: 24 192 28 28 (3612672)
I0403 19:07:23.001869 18797 net.cpp:148] Top shape: 24 192 28 28 (3612672)
I0403 19:07:23.001885 18797 net.cpp:148] Top shape: 24 192 28 28 (3612672)
I0403 19:07:23.001900 18797 net.cpp:156] Memory required for data: 491324448
I0403 19:07:23.001915 18797 layer_factory.hpp:77] Creating layer inception_3a/1x1
I0403 19:07:23.001940 18797 net.cpp:91] Creating Layer inception_3a/1x1
I0403 19:07:23.001956 18797 net.cpp:425] inception_3a/1x1 <- pool2/3x3_s2_pool2/3x3_s2_0_split_0
I0403 19:07:23.001976 18797 net.cpp:399] inception_3a/1x1 -> inception_3a/1x1
I0403 19:07:23.003445 18797 net.cpp:141] Setting up inception_3a/1x1
I0403 19:07:23.003474 18797 net.cpp:148] Top shape: 24 64 28 28 (1204224)
I0403 19:07:23.003490 18797 net.cpp:156] Memory required for data: 496141344
I0403 19:07:23.003509 18797 layer_factory.hpp:77] Creating layer inception_3a/relu_1x1
I0403 19:07:23.003530 18797 net.cpp:91] Creating Layer inception_3a/relu_1x1
I0403 19:07:23.003547 18797 net.cpp:425] inception_3a/relu_1x1 <- inception_3a/1x1
I0403 19:07:23.003566 18797 net.cpp:386] inception_3a/relu_1x1 -> inception_3a/1x1 (in-place)
I0403 19:07:23.003733 18797 net.cpp:141] Setting up inception_3a/relu_1x1
I0403 19:07:23.003761 18797 net.cpp:148] Top shape: 24 64 28 28 (1204224)
I0403 19:07:23.003777 18797 net.cpp:156] Memory required for data: 500958240
I0403 19:07:23.003793 18797 layer_factory.hpp:77] Creating layer inception_3a/3x3_reduce
I0403 19:07:23.003814 18797 net.cpp:91] Creating Layer inception_3a/3x3_reduce
I0403 19:07:23.003832 18797 net.cpp:425] inception_3a/3x3_reduce <- pool2/3x3_s2_pool2/3x3_s2_0_split_1
I0403 19:07:23.003852 18797 net.cpp:399] inception_3a/3x3_reduce -> inception_3a/3x3_reduce
I0403 19:07:23.005486 18797 net.cpp:141] Setting up inception_3a/3x3_reduce
I0403 19:07:23.005514 18797 net.cpp:148] Top shape: 24 96 28 28 (1806336)
I0403 19:07:23.005532 18797 net.cpp:156] Memory required for data: 508183584
I0403 19:07:23.005555 18797 layer_factory.hpp:77] Creating layer inception_3a/relu_3x3_reduce
I0403 19:07:23.005590 18797 net.cpp:91] Creating Layer inception_3a/relu_3x3_reduce
I0403 19:07:23.005609 18797 net.cpp:425] inception_3a/relu_3x3_reduce <- inception_3a/3x3_reduce
I0403 19:07:23.005627 18797 net.cpp:386] inception_3a/relu_3x3_reduce -> inception_3a/3x3_reduce (in-place)
I0403 19:07:23.005803 18797 net.cpp:141] Setting up inception_3a/relu_3x3_reduce
I0403 19:07:23.005828 18797 net.cpp:148] Top shape: 24 96 28 28 (1806336)
I0403 19:07:23.005843 18797 net.cpp:156] Memory required for data: 515408928
I0403 19:07:23.005858 18797 layer_factory.hpp:77] Creating layer inception_3a/3x3
I0403 19:07:23.005882 18797 net.cpp:91] Creating Layer inception_3a/3x3
I0403 19:07:23.005902 18797 net.cpp:425] inception_3a/3x3 <- inception_3a/3x3_reduce
I0403 19:07:23.005923 18797 net.cpp:399] inception_3a/3x3 -> inception_3a/3x3
I0403 19:07:23.007547 18797 net.cpp:141] Setting up inception_3a/3x3
I0403 19:07:23.007575 18797 net.cpp:148] Top shape: 24 128 28 28 (2408448)
I0403 19:07:23.007591 18797 net.cpp:156] Memory required for data: 525042720
I0403 19:07:23.007609 18797 layer_factory.hpp:77] Creating layer inception_3a/relu_3x3
I0403 19:07:23.007630 18797 net.cpp:91] Creating Layer inception_3a/relu_3x3
I0403 19:07:23.007648 18797 net.cpp:425] inception_3a/relu_3x3 <- inception_3a/3x3
I0403 19:07:23.007665 18797 net.cpp:386] inception_3a/relu_3x3 -> inception_3a/3x3 (in-place)
I0403 19:07:23.007936 18797 net.cpp:141] Setting up inception_3a/relu_3x3
I0403 19:07:23.007961 18797 net.cpp:148] Top shape: 24 128 28 28 (2408448)
I0403 19:07:23.007977 18797 net.cpp:156] Memory required for data: 534676512
I0403 19:07:23.007997 18797 layer_factory.hpp:77] Creating layer inception_3a/5x5_reduce
I0403 19:07:23.008023 18797 net.cpp:91] Creating Layer inception_3a/5x5_reduce
I0403 19:07:23.008041 18797 net.cpp:425] inception_3a/5x5_reduce <- pool2/3x3_s2_pool2/3x3_s2_0_split_2
I0403 19:07:23.008061 18797 net.cpp:399] inception_3a/5x5_reduce -> inception_3a/5x5_reduce
I0403 19:07:23.009004 18797 net.cpp:141] Setting up inception_3a/5x5_reduce
I0403 19:07:23.009034 18797 net.cpp:148] Top shape: 24 16 28 28 (301056)
I0403 19:07:23.009052 18797 net.cpp:156] Memory required for data: 535880736
I0403 19:07:23.009070 18797 layer_factory.hpp:77] Creating layer inception_3a/relu_5x5_reduce
I0403 19:07:23.009089 18797 net.cpp:91] Creating Layer inception_3a/relu_5x5_reduce
I0403 19:07:23.009105 18797 net.cpp:425] inception_3a/relu_5x5_reduce <- inception_3a/5x5_reduce
I0403 19:07:23.009127 18797 net.cpp:386] inception_3a/relu_5x5_reduce -> inception_3a/5x5_reduce (in-place)
I0403 19:07:23.009434 18797 net.cpp:141] Setting up inception_3a/relu_5x5_reduce
I0403 19:07:23.009475 18797 net.cpp:148] Top shape: 24 16 28 28 (301056)
I0403 19:07:23.009492 18797 net.cpp:156] Memory required for data: 537084960
I0403 19:07:23.009508 18797 layer_factory.hpp:77] Creating layer inception_3a/5x5
I0403 19:07:23.009531 18797 net.cpp:91] Creating Layer inception_3a/5x5
I0403 19:07:23.009548 18797 net.cpp:425] inception_3a/5x5 <- inception_3a/5x5_reduce
I0403 19:07:23.009572 18797 net.cpp:399] inception_3a/5x5 -> inception_3a/5x5
I0403 19:07:23.010546 18797 net.cpp:141] Setting up inception_3a/5x5
I0403 19:07:23.010573 18797 net.cpp:148] Top shape: 24 32 28 28 (602112)
I0403 19:07:23.010589 18797 net.cpp:156] Memory required for data: 539493408
I0403 19:07:23.010608 18797 layer_factory.hpp:77] Creating layer inception_3a/relu_5x5
I0403 19:07:23.010629 18797 net.cpp:91] Creating Layer inception_3a/relu_5x5
I0403 19:07:23.010646 18797 net.cpp:425] inception_3a/relu_5x5 <- inception_3a/5x5
I0403 19:07:23.010664 18797 net.cpp:386] inception_3a/relu_5x5 -> inception_3a/5x5 (in-place)
I0403 19:07:23.010830 18797 net.cpp:141] Setting up inception_3a/relu_5x5
I0403 19:07:23.010857 18797 net.cpp:148] Top shape: 24 32 28 28 (602112)
I0403 19:07:23.010874 18797 net.cpp:156] Memory required for data: 541901856
I0403 19:07:23.010890 18797 layer_factory.hpp:77] Creating layer inception_3a/pool
I0403 19:07:23.010907 18797 net.cpp:91] Creating Layer inception_3a/pool
I0403 19:07:23.010937 18797 net.cpp:425] inception_3a/pool <- pool2/3x3_s2_pool2/3x3_s2_0_split_3
I0403 19:07:23.010962 18797 net.cpp:399] inception_3a/pool -> inception_3a/pool
I0403 19:07:23.011023 18797 net.cpp:141] Setting up inception_3a/pool
I0403 19:07:23.011046 18797 net.cpp:148] Top shape: 24 192 28 28 (3612672)
I0403 19:07:23.011061 18797 net.cpp:156] Memory required for data: 556352544
I0403 19:07:23.011076 18797 layer_factory.hpp:77] Creating layer inception_3a/pool_proj
I0403 19:07:23.011098 18797 net.cpp:91] Creating Layer inception_3a/pool_proj
I0403 19:07:23.011119 18797 net.cpp:425] inception_3a/pool_proj <- inception_3a/pool
I0403 19:07:23.011139 18797 net.cpp:399] inception_3a/pool_proj -> inception_3a/pool_proj
I0403 19:07:23.012069 18797 net.cpp:141] Setting up inception_3a/pool_proj
I0403 19:07:23.012096 18797 net.cpp:148] Top shape: 24 32 28 28 (602112)
I0403 19:07:23.012114 18797 net.cpp:156] Memory required for data: 558760992
I0403 19:07:23.012137 18797 layer_factory.hpp:77] Creating layer inception_3a/relu_pool_proj
I0403 19:07:23.012157 18797 net.cpp:91] Creating Layer inception_3a/relu_pool_proj
I0403 19:07:23.012174 18797 net.cpp:425] inception_3a/relu_pool_proj <- inception_3a/pool_proj
I0403 19:07:23.012194 18797 net.cpp:386] inception_3a/relu_pool_proj -> inception_3a/pool_proj (in-place)
I0403 19:07:23.012459 18797 net.cpp:141] Setting up inception_3a/relu_pool_proj
I0403 19:07:23.012485 18797 net.cpp:148] Top shape: 24 32 28 28 (602112)
I0403 19:07:23.012501 18797 net.cpp:156] Memory required for data: 561169440
I0403 19:07:23.012516 18797 layer_factory.hpp:77] Creating layer inception_3a/output
I0403 19:07:23.012537 18797 net.cpp:91] Creating Layer inception_3a/output
I0403 19:07:23.012554 18797 net.cpp:425] inception_3a/output <- inception_3a/1x1
I0403 19:07:23.012573 18797 net.cpp:425] inception_3a/output <- inception_3a/3x3
I0403 19:07:23.012588 18797 net.cpp:425] inception_3a/output <- inception_3a/5x5
I0403 19:07:23.012605 18797 net.cpp:425] inception_3a/output <- inception_3a/pool_proj
I0403 19:07:23.012622 18797 net.cpp:399] inception_3a/output -> inception_3a/output
I0403 19:07:23.012670 18797 net.cpp:141] Setting up inception_3a/output
I0403 19:07:23.012693 18797 net.cpp:148] Top shape: 24 256 28 28 (4816896)
I0403 19:07:23.012708 18797 net.cpp:156] Memory required for data: 580437024
I0403 19:07:23.012724 18797 layer_factory.hpp:77] Creating layer inception_3a/output_inception_3a/output_0_split
I0403 19:07:23.012742 18797 net.cpp:91] Creating Layer inception_3a/output_inception_3a/output_0_split
I0403 19:07:23.012758 18797 net.cpp:425] inception_3a/output_inception_3a/output_0_split <- inception_3a/output
I0403 19:07:23.012778 18797 net.cpp:399] inception_3a/output_inception_3a/output_0_split -> inception_3a/output_inception_3a/output_0_split_0
I0403 19:07:23.012799 18797 net.cpp:399] inception_3a/output_inception_3a/output_0_split -> inception_3a/output_inception_3a/output_0_split_1
I0403 19:07:23.012825 18797 net.cpp:399] inception_3a/output_inception_3a/output_0_split -> inception_3a/output_inception_3a/output_0_split_2
I0403 19:07:23.012846 18797 net.cpp:399] inception_3a/output_inception_3a/output_0_split -> inception_3a/output_inception_3a/output_0_split_3
I0403 19:07:23.012918 18797 net.cpp:141] Setting up inception_3a/output_inception_3a/output_0_split
I0403 19:07:23.012943 18797 net.cpp:148] Top shape: 24 256 28 28 (4816896)
I0403 19:07:23.012962 18797 net.cpp:148] Top shape: 24 256 28 28 (4816896)
I0403 19:07:23.012984 18797 net.cpp:148] Top shape: 24 256 28 28 (4816896)
I0403 19:07:23.013002 18797 net.cpp:148] Top shape: 24 256 28 28 (4816896)
I0403 19:07:23.013016 18797 net.cpp:156] Memory required for data: 657507360
I0403 19:07:23.013032 18797 layer_factory.hpp:77] Creating layer inception_3b/1x1
I0403 19:07:23.013052 18797 net.cpp:91] Creating Layer inception_3b/1x1
I0403 19:07:23.013069 18797 net.cpp:425] inception_3b/1x1 <- inception_3a/output_inception_3a/output_0_split_0
I0403 19:07:23.013090 18797 net.cpp:399] inception_3b/1x1 -> inception_3b/1x1
I0403 19:07:23.014209 18797 net.cpp:141] Setting up inception_3b/1x1
I0403 19:07:23.014248 18797 net.cpp:148] Top shape: 24 128 28 28 (2408448)
I0403 19:07:23.014266 18797 net.cpp:156] Memory required for data: 667141152
I0403 19:07:23.014286 18797 layer_factory.hpp:77] Creating layer inception_3b/relu_1x1
I0403 19:07:23.014307 18797 net.cpp:91] Creating Layer inception_3b/relu_1x1
I0403 19:07:23.014325 18797 net.cpp:425] inception_3b/relu_1x1 <- inception_3b/1x1
I0403 19:07:23.014343 18797 net.cpp:386] inception_3b/relu_1x1 -> inception_3b/1x1 (in-place)
I0403 19:07:23.014521 18797 net.cpp:141] Setting up inception_3b/relu_1x1
I0403 19:07:23.014547 18797 net.cpp:148] Top shape: 24 128 28 28 (2408448)
I0403 19:07:23.014562 18797 net.cpp:156] Memory required for data: 676774944
I0403 19:07:23.014578 18797 layer_factory.hpp:77] Creating layer inception_3b/3x3_reduce
I0403 19:07:23.014603 18797 net.cpp:91] Creating Layer inception_3b/3x3_reduce
I0403 19:07:23.014621 18797 net.cpp:425] inception_3b/3x3_reduce <- inception_3a/output_inception_3a/output_0_split_1
I0403 19:07:23.014642 18797 net.cpp:399] inception_3b/3x3_reduce -> inception_3b/3x3_reduce
I0403 19:07:23.015761 18797 net.cpp:141] Setting up inception_3b/3x3_reduce
I0403 19:07:23.015789 18797 net.cpp:148] Top shape: 24 128 28 28 (2408448)
I0403 19:07:23.015806 18797 net.cpp:156] Memory required for data: 686408736
I0403 19:07:23.015826 18797 layer_factory.hpp:77] Creating layer inception_3b/relu_3x3_reduce
I0403 19:07:23.015848 18797 net.cpp:91] Creating Layer inception_3b/relu_3x3_reduce
I0403 19:07:23.015866 18797 net.cpp:425] inception_3b/relu_3x3_reduce <- inception_3b/3x3_reduce
I0403 19:07:23.015884 18797 net.cpp:386] inception_3b/relu_3x3_reduce -> inception_3b/3x3_reduce (in-place)
I0403 19:07:23.016059 18797 net.cpp:141] Setting up inception_3b/relu_3x3_reduce
I0403 19:07:23.016088 18797 net.cpp:148] Top shape: 24 128 28 28 (2408448)
I0403 19:07:23.016104 18797 net.cpp:156] Memory required for data: 696042528
I0403 19:07:23.016120 18797 layer_factory.hpp:77] Creating layer inception_3b/3x3
I0403 19:07:23.016145 18797 net.cpp:91] Creating Layer inception_3b/3x3
I0403 19:07:23.016165 18797 net.cpp:425] inception_3b/3x3 <- inception_3b/3x3_reduce
I0403 19:07:23.016186 18797 net.cpp:399] inception_3b/3x3 -> inception_3b/3x3
I0403 19:07:23.019069 18797 net.cpp:141] Setting up inception_3b/3x3
I0403 19:07:23.019098 18797 net.cpp:148] Top shape: 24 192 28 28 (3612672)
I0403 19:07:23.019115 18797 net.cpp:156] Memory required for data: 710493216
I0403 19:07:23.019135 18797 layer_factory.hpp:77] Creating layer inception_3b/relu_3x3
I0403 19:07:23.019158 18797 net.cpp:91] Creating Layer inception_3b/relu_3x3
I0403 19:07:23.019189 18797 net.cpp:425] inception_3b/relu_3x3 <- inception_3b/3x3
I0403 19:07:23.019217 18797 net.cpp:386] inception_3b/relu_3x3 -> inception_3b/3x3 (in-place)
I0403 19:07:23.019510 18797 net.cpp:141] Setting up inception_3b/relu_3x3
I0403 19:07:23.019537 18797 net.cpp:148] Top shape: 24 192 28 28 (3612672)
I0403 19:07:23.019553 18797 net.cpp:156] Memory required for data: 724943904
I0403 19:07:23.019569 18797 layer_factory.hpp:77] Creating layer inception_3b/5x5_reduce
I0403 19:07:23.019595 18797 net.cpp:91] Creating Layer inception_3b/5x5_reduce
I0403 19:07:23.019614 18797 net.cpp:425] inception_3b/5x5_reduce <- inception_3a/output_inception_3a/output_0_split_2
I0403 19:07:23.019634 18797 net.cpp:399] inception_3b/5x5_reduce -> inception_3b/5x5_reduce
I0403 19:07:23.020627 18797 net.cpp:141] Setting up inception_3b/5x5_reduce
I0403 19:07:23.020655 18797 net.cpp:148] Top shape: 24 32 28 28 (602112)
I0403 19:07:23.020673 18797 net.cpp:156] Memory required for data: 727352352
I0403 19:07:23.020692 18797 layer_factory.hpp:77] Creating layer inception_3b/relu_5x5_reduce
I0403 19:07:23.020714 18797 net.cpp:91] Creating Layer inception_3b/relu_5x5_reduce
I0403 19:07:23.020732 18797 net.cpp:425] inception_3b/relu_5x5_reduce <- inception_3b/5x5_reduce
I0403 19:07:23.020751 18797 net.cpp:386] inception_3b/relu_5x5_reduce -> inception_3b/5x5_reduce (in-place)
I0403 19:07:23.020941 18797 net.cpp:141] Setting up inception_3b/relu_5x5_reduce
I0403 19:07:23.020969 18797 net.cpp:148] Top shape: 24 32 28 28 (602112)
I0403 19:07:23.020990 18797 net.cpp:156] Memory required for data: 729760800
I0403 19:07:23.021006 18797 layer_factory.hpp:77] Creating layer inception_3b/5x5
I0403 19:07:23.021030 18797 net.cpp:91] Creating Layer inception_3b/5x5
I0403 19:07:23.021049 18797 net.cpp:425] inception_3b/5x5 <- inception_3b/5x5_reduce
I0403 19:07:23.021071 18797 net.cpp:399] inception_3b/5x5 -> inception_3b/5x5
I0403 19:07:23.023061 18797 net.cpp:141] Setting up inception_3b/5x5
I0403 19:07:23.023090 18797 net.cpp:148] Top shape: 24 96 28 28 (1806336)
I0403 19:07:23.023108 18797 net.cpp:156] Memory required for data: 736986144
I0403 19:07:23.023126 18797 layer_factory.hpp:77] Creating layer inception_3b/relu_5x5
I0403 19:07:23.023149 18797 net.cpp:91] Creating Layer inception_3b/relu_5x5
I0403 19:07:23.023166 18797 net.cpp:425] inception_3b/relu_5x5 <- inception_3b/5x5
I0403 19:07:23.023185 18797 net.cpp:386] inception_3b/relu_5x5 -> inception_3b/5x5 (in-place)
I0403 19:07:23.023378 18797 net.cpp:141] Setting up inception_3b/relu_5x5
I0403 19:07:23.023404 18797 net.cpp:148] Top shape: 24 96 28 28 (1806336)
I0403 19:07:23.023421 18797 net.cpp:156] Memory required for data: 744211488
I0403 19:07:23.023437 18797 layer_factory.hpp:77] Creating layer inception_3b/pool
I0403 19:07:23.023454 18797 net.cpp:91] Creating Layer inception_3b/pool
I0403 19:07:23.023471 18797 net.cpp:425] inception_3b/pool <- inception_3a/output_inception_3a/output_0_split_3
I0403 19:07:23.023490 18797 net.cpp:399] inception_3b/pool -> inception_3b/pool
I0403 19:07:23.023546 18797 net.cpp:141] Setting up inception_3b/pool
I0403 19:07:23.023571 18797 net.cpp:148] Top shape: 24 256 28 28 (4816896)
I0403 19:07:23.023586 18797 net.cpp:156] Memory required for data: 763479072
I0403 19:07:23.023602 18797 layer_factory.hpp:77] Creating layer inception_3b/pool_proj
I0403 19:07:23.023625 18797 net.cpp:91] Creating Layer inception_3b/pool_proj
I0403 19:07:23.023643 18797 net.cpp:425] inception_3b/pool_proj <- inception_3b/pool
I0403 19:07:23.023665 18797 net.cpp:399] inception_3b/pool_proj -> inception_3b/pool_proj
I0403 19:07:23.024718 18797 net.cpp:141] Setting up inception_3b/pool_proj
I0403 19:07:23.024746 18797 net.cpp:148] Top shape: 24 64 28 28 (1204224)
I0403 19:07:23.024763 18797 net.cpp:156] Memory required for data: 768295968
I0403 19:07:23.024782 18797 layer_factory.hpp:77] Creating layer inception_3b/relu_pool_proj
I0403 19:07:23.024802 18797 net.cpp:91] Creating Layer inception_3b/relu_pool_proj
I0403 19:07:23.024818 18797 net.cpp:425] inception_3b/relu_pool_proj <- inception_3b/pool_proj
I0403 19:07:23.024839 18797 net.cpp:386] inception_3b/relu_pool_proj -> inception_3b/pool_proj (in-place)
I0403 19:07:23.025245 18797 net.cpp:141] Setting up inception_3b/relu_pool_proj
I0403 19:07:23.025274 18797 net.cpp:148] Top shape: 24 64 28 28 (1204224)
I0403 19:07:23.025291 18797 net.cpp:156] Memory required for data: 773112864
I0403 19:07:23.025308 18797 layer_factory.hpp:77] Creating layer inception_3b/output
I0403 19:07:23.025326 18797 net.cpp:91] Creating Layer inception_3b/output
I0403 19:07:23.025343 18797 net.cpp:425] inception_3b/output <- inception_3b/1x1
I0403 19:07:23.025360 18797 net.cpp:425] inception_3b/output <- inception_3b/3x3
I0403 19:07:23.025377 18797 net.cpp:425] inception_3b/output <- inception_3b/5x5
I0403 19:07:23.025394 18797 net.cpp:425] inception_3b/output <- inception_3b/pool_proj
I0403 19:07:23.025414 18797 net.cpp:399] inception_3b/output -> inception_3b/output
I0403 19:07:23.025460 18797 net.cpp:141] Setting up inception_3b/output
I0403 19:07:23.025482 18797 net.cpp:148] Top shape: 24 480 28 28 (9031680)
I0403 19:07:23.025498 18797 net.cpp:156] Memory required for data: 809239584
I0403 19:07:23.025514 18797 layer_factory.hpp:77] Creating layer pool3/3x3_s2
I0403 19:07:23.025535 18797 net.cpp:91] Creating Layer pool3/3x3_s2
I0403 19:07:23.025553 18797 net.cpp:425] pool3/3x3_s2 <- inception_3b/output
I0403 19:07:23.025588 18797 net.cpp:399] pool3/3x3_s2 -> pool3/3x3_s2
I0403 19:07:23.025648 18797 net.cpp:141] Setting up pool3/3x3_s2
I0403 19:07:23.025673 18797 net.cpp:148] Top shape: 24 480 14 14 (2257920)
I0403 19:07:23.025688 18797 net.cpp:156] Memory required for data: 818271264
I0403 19:07:23.025704 18797 layer_factory.hpp:77] Creating layer pool3/3x3_s2_pool3/3x3_s2_0_split
I0403 19:07:23.025722 18797 net.cpp:91] Creating Layer pool3/3x3_s2_pool3/3x3_s2_0_split
I0403 19:07:23.025739 18797 net.cpp:425] pool3/3x3_s2_pool3/3x3_s2_0_split <- pool3/3x3_s2
I0403 19:07:23.025760 18797 net.cpp:399] pool3/3x3_s2_pool3/3x3_s2_0_split -> pool3/3x3_s2_pool3/3x3_s2_0_split_0
I0403 19:07:23.025781 18797 net.cpp:399] pool3/3x3_s2_pool3/3x3_s2_0_split -> pool3/3x3_s2_pool3/3x3_s2_0_split_1
I0403 19:07:23.025802 18797 net.cpp:399] pool3/3x3_s2_pool3/3x3_s2_0_split -> pool3/3x3_s2_pool3/3x3_s2_0_split_2
I0403 19:07:23.025823 18797 net.cpp:399] pool3/3x3_s2_pool3/3x3_s2_0_split -> pool3/3x3_s2_pool3/3x3_s2_0_split_3
I0403 19:07:23.025909 18797 net.cpp:141] Setting up pool3/3x3_s2_pool3/3x3_s2_0_split
I0403 19:07:23.025935 18797 net.cpp:148] Top shape: 24 480 14 14 (2257920)
I0403 19:07:23.025952 18797 net.cpp:148] Top shape: 24 480 14 14 (2257920)
I0403 19:07:23.025969 18797 net.cpp:148] Top shape: 24 480 14 14 (2257920)
I0403 19:07:23.025990 18797 net.cpp:148] Top shape: 24 480 14 14 (2257920)
I0403 19:07:23.026005 18797 net.cpp:156] Memory required for data: 854397984
I0403 19:07:23.026033 18797 layer_factory.hpp:77] Creating layer inception_4a/1x1
I0403 19:07:23.026057 18797 net.cpp:91] Creating Layer inception_4a/1x1
I0403 19:07:23.026077 18797 net.cpp:425] inception_4a/1x1 <- pool3/3x3_s2_pool3/3x3_s2_0_split_0
I0403 19:07:23.026100 18797 net.cpp:399] inception_4a/1x1 -> inception_4a/1x1
I0403 19:07:23.027724 18797 net.cpp:141] Setting up inception_4a/1x1
I0403 19:07:23.027752 18797 net.cpp:148] Top shape: 24 192 14 14 (903168)
I0403 19:07:23.027768 18797 net.cpp:156] Memory required for data: 858010656
I0403 19:07:23.027788 18797 layer_factory.hpp:77] Creating layer inception_4a/relu_1x1
I0403 19:07:23.027808 18797 net.cpp:91] Creating Layer inception_4a/relu_1x1
I0403 19:07:23.027825 18797 net.cpp:425] inception_4a/relu_1x1 <- inception_4a/1x1
I0403 19:07:23.027845 18797 net.cpp:386] inception_4a/relu_1x1 -> inception_4a/1x1 (in-place)
I0403 19:07:23.028028 18797 net.cpp:141] Setting up inception_4a/relu_1x1
I0403 19:07:23.028054 18797 net.cpp:148] Top shape: 24 192 14 14 (903168)
I0403 19:07:23.028069 18797 net.cpp:156] Memory required for data: 861623328
I0403 19:07:23.028085 18797 layer_factory.hpp:77] Creating layer inception_4a/3x3_reduce
I0403 19:07:23.028108 18797 net.cpp:91] Creating Layer inception_4a/3x3_reduce
I0403 19:07:23.028126 18797 net.cpp:425] inception_4a/3x3_reduce <- pool3/3x3_s2_pool3/3x3_s2_0_split_1
I0403 19:07:23.028148 18797 net.cpp:399] inception_4a/3x3_reduce -> inception_4a/3x3_reduce
I0403 19:07:23.029429 18797 net.cpp:141] Setting up inception_4a/3x3_reduce
I0403 19:07:23.029458 18797 net.cpp:148] Top shape: 24 96 14 14 (451584)
I0403 19:07:23.029474 18797 net.cpp:156] Memory required for data: 863429664
I0403 19:07:23.029501 18797 layer_factory.hpp:77] Creating layer inception_4a/relu_3x3_reduce
I0403 19:07:23.029522 18797 net.cpp:91] Creating Layer inception_4a/relu_3x3_reduce
I0403 19:07:23.029539 18797 net.cpp:425] inception_4a/relu_3x3_reduce <- inception_4a/3x3_reduce
I0403 19:07:23.029557 18797 net.cpp:386] inception_4a/relu_3x3_reduce -> inception_4a/3x3_reduce (in-place)
I0403 19:07:23.029738 18797 net.cpp:141] Setting up inception_4a/relu_3x3_reduce
I0403 19:07:23.029764 18797 net.cpp:148] Top shape: 24 96 14 14 (451584)
I0403 19:07:23.029780 18797 net.cpp:156] Memory required for data: 865236000
I0403 19:07:23.029796 18797 layer_factory.hpp:77] Creating layer inception_4a/3x3
I0403 19:07:23.029819 18797 net.cpp:91] Creating Layer inception_4a/3x3
I0403 19:07:23.029837 18797 net.cpp:425] inception_4a/3x3 <- inception_4a/3x3_reduce
I0403 19:07:23.029860 18797 net.cpp:399] inception_4a/3x3 -> inception_4a/3x3
I0403 19:07:23.032503 18797 net.cpp:141] Setting up inception_4a/3x3
I0403 19:07:23.032532 18797 net.cpp:148] Top shape: 24 208 14 14 (978432)
I0403 19:07:23.032548 18797 net.cpp:156] Memory required for data: 869149728
I0403 19:07:23.032567 18797 layer_factory.hpp:77] Creating layer inception_4a/relu_3x3
I0403 19:07:23.032588 18797 net.cpp:91] Creating Layer inception_4a/relu_3x3
I0403 19:07:23.032605 18797 net.cpp:425] inception_4a/relu_3x3 <- inception_4a/3x3
I0403 19:07:23.032624 18797 net.cpp:386] inception_4a/relu_3x3 -> inception_4a/3x3 (in-place)
I0403 19:07:23.032896 18797 net.cpp:141] Setting up inception_4a/relu_3x3
I0403 19:07:23.032922 18797 net.cpp:148] Top shape: 24 208 14 14 (978432)
I0403 19:07:23.032938 18797 net.cpp:156] Memory required for data: 873063456
I0403 19:07:23.032953 18797 layer_factory.hpp:77] Creating layer inception_4a/5x5_reduce
I0403 19:07:23.032981 18797 net.cpp:91] Creating Layer inception_4a/5x5_reduce
I0403 19:07:23.033001 18797 net.cpp:425] inception_4a/5x5_reduce <- pool3/3x3_s2_pool3/3x3_s2_0_split_2
I0403 19:07:23.033023 18797 net.cpp:399] inception_4a/5x5_reduce -> inception_4a/5x5_reduce
I0403 19:07:23.034014 18797 net.cpp:141] Setting up inception_4a/5x5_reduce
I0403 19:07:23.034041 18797 net.cpp:148] Top shape: 24 16 14 14 (75264)
I0403 19:07:23.034057 18797 net.cpp:156] Memory required for data: 873364512
I0403 19:07:23.034076 18797 layer_factory.hpp:77] Creating layer inception_4a/relu_5x5_reduce
I0403 19:07:23.034097 18797 net.cpp:91] Creating Layer inception_4a/relu_5x5_reduce
I0403 19:07:23.034116 18797 net.cpp:425] inception_4a/relu_5x5_reduce <- inception_4a/5x5_reduce
I0403 19:07:23.034133 18797 net.cpp:386] inception_4a/relu_5x5_reduce -> inception_4a/5x5_reduce (in-place)
I0403 19:07:23.034304 18797 net.cpp:141] Setting up inception_4a/relu_5x5_reduce
I0403 19:07:23.034332 18797 net.cpp:148] Top shape: 24 16 14 14 (75264)
I0403 19:07:23.034349 18797 net.cpp:156] Memory required for data: 873665568
I0403 19:07:23.034364 18797 layer_factory.hpp:77] Creating layer inception_4a/5x5
I0403 19:07:23.034387 18797 net.cpp:91] Creating Layer inception_4a/5x5
I0403 19:07:23.034405 18797 net.cpp:425] inception_4a/5x5 <- inception_4a/5x5_reduce
I0403 19:07:23.034425 18797 net.cpp:399] inception_4a/5x5 -> inception_4a/5x5
I0403 19:07:23.035485 18797 net.cpp:141] Setting up inception_4a/5x5
I0403 19:07:23.035514 18797 net.cpp:148] Top shape: 24 48 14 14 (225792)
I0403 19:07:23.035531 18797 net.cpp:156] Memory required for data: 874568736
I0403 19:07:23.035549 18797 layer_factory.hpp:77] Creating layer inception_4a/relu_5x5
I0403 19:07:23.035569 18797 net.cpp:91] Creating Layer inception_4a/relu_5x5
I0403 19:07:23.035585 18797 net.cpp:425] inception_4a/relu_5x5 <- inception_4a/5x5
I0403 19:07:23.035605 18797 net.cpp:386] inception_4a/relu_5x5 -> inception_4a/5x5 (in-place)
I0403 19:07:23.035778 18797 net.cpp:141] Setting up inception_4a/relu_5x5
I0403 19:07:23.035804 18797 net.cpp:148] Top shape: 24 48 14 14 (225792)
I0403 19:07:23.035818 18797 net.cpp:156] Memory required for data: 875471904
I0403 19:07:23.035833 18797 layer_factory.hpp:77] Creating layer inception_4a/pool
I0403 19:07:23.035851 18797 net.cpp:91] Creating Layer inception_4a/pool
I0403 19:07:23.035868 18797 net.cpp:425] inception_4a/pool <- pool3/3x3_s2_pool3/3x3_s2_0_split_3
I0403 19:07:23.035888 18797 net.cpp:399] inception_4a/pool -> inception_4a/pool
I0403 19:07:23.035949 18797 net.cpp:141] Setting up inception_4a/pool
I0403 19:07:23.035974 18797 net.cpp:148] Top shape: 24 480 14 14 (2257920)
I0403 19:07:23.035994 18797 net.cpp:156] Memory required for data: 884503584
I0403 19:07:23.036010 18797 layer_factory.hpp:77] Creating layer inception_4a/pool_proj
I0403 19:07:23.036036 18797 net.cpp:91] Creating Layer inception_4a/pool_proj
I0403 19:07:23.036053 18797 net.cpp:425] inception_4a/pool_proj <- inception_4a/pool
I0403 19:07:23.036073 18797 net.cpp:399] inception_4a/pool_proj -> inception_4a/pool_proj
I0403 19:07:23.037209 18797 net.cpp:141] Setting up inception_4a/pool_proj
I0403 19:07:23.037236 18797 net.cpp:148] Top shape: 24 64 14 14 (301056)
I0403 19:07:23.037268 18797 net.cpp:156] Memory required for data: 885707808
I0403 19:07:23.037288 18797 layer_factory.hpp:77] Creating layer inception_4a/relu_pool_proj
I0403 19:07:23.037307 18797 net.cpp:91] Creating Layer inception_4a/relu_pool_proj
I0403 19:07:23.037323 18797 net.cpp:425] inception_4a/relu_pool_proj <- inception_4a/pool_proj
I0403 19:07:23.037345 18797 net.cpp:386] inception_4a/relu_pool_proj -> inception_4a/pool_proj (in-place)
I0403 19:07:23.037631 18797 net.cpp:141] Setting up inception_4a/relu_pool_proj
I0403 19:07:23.037655 18797 net.cpp:148] Top shape: 24 64 14 14 (301056)
I0403 19:07:23.037672 18797 net.cpp:156] Memory required for data: 886912032
I0403 19:07:23.037688 18797 layer_factory.hpp:77] Creating layer inception_4a/output
I0403 19:07:23.037705 18797 net.cpp:91] Creating Layer inception_4a/output
I0403 19:07:23.037721 18797 net.cpp:425] inception_4a/output <- inception_4a/1x1
I0403 19:07:23.037739 18797 net.cpp:425] inception_4a/output <- inception_4a/3x3
I0403 19:07:23.037755 18797 net.cpp:425] inception_4a/output <- inception_4a/5x5
I0403 19:07:23.037773 18797 net.cpp:425] inception_4a/output <- inception_4a/pool_proj
I0403 19:07:23.037793 18797 net.cpp:399] inception_4a/output -> inception_4a/output
I0403 19:07:23.037837 18797 net.cpp:141] Setting up inception_4a/output
I0403 19:07:23.037859 18797 net.cpp:148] Top shape: 24 512 14 14 (2408448)
I0403 19:07:23.037874 18797 net.cpp:156] Memory required for data: 896545824
I0403 19:07:23.037890 18797 layer_factory.hpp:77] Creating layer inception_4a/output_inception_4a/output_0_split
I0403 19:07:23.037910 18797 net.cpp:91] Creating Layer inception_4a/output_inception_4a/output_0_split
I0403 19:07:23.037927 18797 net.cpp:425] inception_4a/output_inception_4a/output_0_split <- inception_4a/output
I0403 19:07:23.037947 18797 net.cpp:399] inception_4a/output_inception_4a/output_0_split -> inception_4a/output_inception_4a/output_0_split_0
I0403 19:07:23.037969 18797 net.cpp:399] inception_4a/output_inception_4a/output_0_split -> inception_4a/output_inception_4a/output_0_split_1
I0403 19:07:23.037995 18797 net.cpp:399] inception_4a/output_inception_4a/output_0_split -> inception_4a/output_inception_4a/output_0_split_2
I0403 19:07:23.038017 18797 net.cpp:399] inception_4a/output_inception_4a/output_0_split -> inception_4a/output_inception_4a/output_0_split_3
I0403 19:07:23.038038 18797 net.cpp:399] inception_4a/output_inception_4a/output_0_split -> inception_4a/output_inception_4a/output_0_split_4
I0403 19:07:23.038128 18797 net.cpp:141] Setting up inception_4a/output_inception_4a/output_0_split
I0403 19:07:23.038152 18797 net.cpp:148] Top shape: 24 512 14 14 (2408448)
I0403 19:07:23.038171 18797 net.cpp:148] Top shape: 24 512 14 14 (2408448)
I0403 19:07:23.038187 18797 net.cpp:148] Top shape: 24 512 14 14 (2408448)
I0403 19:07:23.038203 18797 net.cpp:148] Top shape: 24 512 14 14 (2408448)
I0403 19:07:23.038219 18797 net.cpp:148] Top shape: 24 512 14 14 (2408448)
I0403 19:07:23.038234 18797 net.cpp:156] Memory required for data: 944714784
I0403 19:07:23.038249 18797 layer_factory.hpp:77] Creating layer loss1/ave_pool
I0403 19:07:23.038269 18797 net.cpp:91] Creating Layer loss1/ave_pool
I0403 19:07:23.038286 18797 net.cpp:425] loss1/ave_pool <- inception_4a/output_inception_4a/output_0_split_0
I0403 19:07:23.038305 18797 net.cpp:399] loss1/ave_pool -> loss1/ave_pool
I0403 19:07:23.038506 18797 net.cpp:141] Setting up loss1/ave_pool
I0403 19:07:23.038532 18797 net.cpp:148] Top shape: 24 512 4 4 (196608)
I0403 19:07:23.038547 18797 net.cpp:156] Memory required for data: 945501216
I0403 19:07:23.038563 18797 layer_factory.hpp:77] Creating layer loss1/conv
I0403 19:07:23.038585 18797 net.cpp:91] Creating Layer loss1/conv
I0403 19:07:23.038604 18797 net.cpp:425] loss1/conv <- loss1/ave_pool
I0403 19:07:23.038625 18797 net.cpp:399] loss1/conv -> loss1/conv
I0403 19:07:23.039994 18797 net.cpp:141] Setting up loss1/conv
I0403 19:07:23.040022 18797 net.cpp:148] Top shape: 24 128 4 4 (49152)
I0403 19:07:23.040051 18797 net.cpp:156] Memory required for data: 945697824
I0403 19:07:23.040072 18797 layer_factory.hpp:77] Creating layer loss1/relu_conv
I0403 19:07:23.040093 18797 net.cpp:91] Creating Layer loss1/relu_conv
I0403 19:07:23.040112 18797 net.cpp:425] loss1/relu_conv <- loss1/conv
I0403 19:07:23.040129 18797 net.cpp:386] loss1/relu_conv -> loss1/conv (in-place)
I0403 19:07:23.040406 18797 net.cpp:141] Setting up loss1/relu_conv
I0403 19:07:23.040432 18797 net.cpp:148] Top shape: 24 128 4 4 (49152)
I0403 19:07:23.040447 18797 net.cpp:156] Memory required for data: 945894432
I0403 19:07:23.040463 18797 layer_factory.hpp:77] Creating layer loss1/fc
I0403 19:07:23.040489 18797 net.cpp:91] Creating Layer loss1/fc
I0403 19:07:23.040508 18797 net.cpp:425] loss1/fc <- loss1/conv
I0403 19:07:23.040527 18797 net.cpp:399] loss1/fc -> loss1/fc
I0403 19:07:23.057910 18797 net.cpp:141] Setting up loss1/fc
I0403 19:07:23.057945 18797 net.cpp:148] Top shape: 24 1024 (24576)
I0403 19:07:23.057961 18797 net.cpp:156] Memory required for data: 945992736
I0403 19:07:23.057983 18797 layer_factory.hpp:77] Creating layer loss1/relu_fc
I0403 19:07:23.058003 18797 net.cpp:91] Creating Layer loss1/relu_fc
I0403 19:07:23.058020 18797 net.cpp:425] loss1/relu_fc <- loss1/fc
I0403 19:07:23.058040 18797 net.cpp:386] loss1/relu_fc -> loss1/fc (in-place)
I0403 19:07:23.058223 18797 net.cpp:141] Setting up loss1/relu_fc
I0403 19:07:23.058248 18797 net.cpp:148] Top shape: 24 1024 (24576)
I0403 19:07:23.058262 18797 net.cpp:156] Memory required for data: 946091040
I0403 19:07:23.058279 18797 layer_factory.hpp:77] Creating layer loss1/drop_fc
I0403 19:07:23.058306 18797 net.cpp:91] Creating Layer loss1/drop_fc
I0403 19:07:23.058325 18797 net.cpp:425] loss1/drop_fc <- loss1/fc
I0403 19:07:23.058342 18797 net.cpp:386] loss1/drop_fc -> loss1/fc (in-place)
I0403 19:07:23.058393 18797 net.cpp:141] Setting up loss1/drop_fc
I0403 19:07:23.058418 18797 net.cpp:148] Top shape: 24 1024 (24576)
I0403 19:07:23.058434 18797 net.cpp:156] Memory required for data: 946189344
I0403 19:07:23.058450 18797 layer_factory.hpp:77] Creating layer loss1/classifier_plantvillage
I0403 19:07:23.058470 18797 net.cpp:91] Creating Layer loss1/classifier_plantvillage
I0403 19:07:23.058486 18797 net.cpp:425] loss1/classifier_plantvillage <- loss1/fc
I0403 19:07:23.058508 18797 net.cpp:399] loss1/classifier_plantvillage -> loss1/classifier_plantvillage
I0403 19:07:23.059391 18797 net.cpp:141] Setting up loss1/classifier_plantvillage
I0403 19:07:23.059418 18797 net.cpp:148] Top shape: 24 38 (912)
I0403 19:07:23.059434 18797 net.cpp:156] Memory required for data: 946192992
I0403 19:07:23.059453 18797 layer_factory.hpp:77] Creating layer loss1/classifier_plantvillage_loss1/classifier_plantvillage_0_split
I0403 19:07:23.059471 18797 net.cpp:91] Creating Layer loss1/classifier_plantvillage_loss1/classifier_plantvillage_0_split
I0403 19:07:23.059489 18797 net.cpp:425] loss1/classifier_plantvillage_loss1/classifier_plantvillage_0_split <- loss1/classifier_plantvillage
I0403 19:07:23.059509 18797 net.cpp:399] loss1/classifier_plantvillage_loss1/classifier_plantvillage_0_split -> loss1/classifier_plantvillage_loss1/classifier_plantvillage_0_split_0
I0403 19:07:23.059531 18797 net.cpp:399] loss1/classifier_plantvillage_loss1/classifier_plantvillage_0_split -> loss1/classifier_plantvillage_loss1/classifier_plantvillage_0_split_1
I0403 19:07:23.059553 18797 net.cpp:399] loss1/classifier_plantvillage_loss1/classifier_plantvillage_0_split -> loss1/classifier_plantvillage_loss1/classifier_plantvillage_0_split_2
I0403 19:07:23.059620 18797 net.cpp:141] Setting up loss1/classifier_plantvillage_loss1/classifier_plantvillage_0_split
I0403 19:07:23.059644 18797 net.cpp:148] Top shape: 24 38 (912)
I0403 19:07:23.059661 18797 net.cpp:148] Top shape: 24 38 (912)
I0403 19:07:23.059676 18797 net.cpp:148] Top shape: 24 38 (912)
I0403 19:07:23.059691 18797 net.cpp:156] Memory required for data: 946203936
I0403 19:07:23.059706 18797 layer_factory.hpp:77] Creating layer inception_4b/1x1
I0403 19:07:23.059730 18797 net.cpp:91] Creating Layer inception_4b/1x1
I0403 19:07:23.059763 18797 net.cpp:425] inception_4b/1x1 <- inception_4a/output_inception_4a/output_0_split_1
I0403 19:07:23.059784 18797 net.cpp:399] inception_4b/1x1 -> inception_4b/1x1
I0403 19:07:23.061442 18797 net.cpp:141] Setting up inception_4b/1x1
I0403 19:07:23.061483 18797 net.cpp:148] Top shape: 24 160 14 14 (752640)
I0403 19:07:23.061501 18797 net.cpp:156] Memory required for data: 949214496
I0403 19:07:23.061519 18797 layer_factory.hpp:77] Creating layer inception_4b/relu_1x1
I0403 19:07:23.061540 18797 net.cpp:91] Creating Layer inception_4b/relu_1x1
I0403 19:07:23.061559 18797 net.cpp:425] inception_4b/relu_1x1 <- inception_4b/1x1
I0403 19:07:23.061578 18797 net.cpp:386] inception_4b/relu_1x1 -> inception_4b/1x1 (in-place)
I0403 19:07:23.061758 18797 net.cpp:141] Setting up inception_4b/relu_1x1
I0403 19:07:23.061785 18797 net.cpp:148] Top shape: 24 160 14 14 (752640)
I0403 19:07:23.061801 18797 net.cpp:156] Memory required for data: 952225056
I0403 19:07:23.061818 18797 layer_factory.hpp:77] Creating layer inception_4b/3x3_reduce
I0403 19:07:23.061841 18797 net.cpp:91] Creating Layer inception_4b/3x3_reduce
I0403 19:07:23.061859 18797 net.cpp:425] inception_4b/3x3_reduce <- inception_4a/output_inception_4a/output_0_split_2
I0403 19:07:23.061879 18797 net.cpp:399] inception_4b/3x3_reduce -> inception_4b/3x3_reduce
I0403 19:07:23.063232 18797 net.cpp:141] Setting up inception_4b/3x3_reduce
I0403 19:07:23.063264 18797 net.cpp:148] Top shape: 24 112 14 14 (526848)
I0403 19:07:23.063282 18797 net.cpp:156] Memory required for data: 954332448
I0403 19:07:23.063302 18797 layer_factory.hpp:77] Creating layer inception_4b/relu_3x3_reduce
I0403 19:07:23.063320 18797 net.cpp:91] Creating Layer inception_4b/relu_3x3_reduce
I0403 19:07:23.063338 18797 net.cpp:425] inception_4b/relu_3x3_reduce <- inception_4b/3x3_reduce
I0403 19:07:23.063357 18797 net.cpp:386] inception_4b/relu_3x3_reduce -> inception_4b/3x3_reduce (in-place)
I0403 19:07:23.063643 18797 net.cpp:141] Setting up inception_4b/relu_3x3_reduce
I0403 19:07:23.063673 18797 net.cpp:148] Top shape: 24 112 14 14 (526848)
I0403 19:07:23.063689 18797 net.cpp:156] Memory required for data: 956439840
I0403 19:07:23.063705 18797 layer_factory.hpp:77] Creating layer inception_4b/3x3
I0403 19:07:23.063729 18797 net.cpp:91] Creating Layer inception_4b/3x3
I0403 19:07:23.063747 18797 net.cpp:425] inception_4b/3x3 <- inception_4b/3x3_reduce
I0403 19:07:23.063768 18797 net.cpp:399] inception_4b/3x3 -> inception_4b/3x3
I0403 19:07:23.066745 18797 net.cpp:141] Setting up inception_4b/3x3
I0403 19:07:23.066773 18797 net.cpp:148] Top shape: 24 224 14 14 (1053696)
I0403 19:07:23.066792 18797 net.cpp:156] Memory required for data: 960654624
I0403 19:07:23.066810 18797 layer_factory.hpp:77] Creating layer inception_4b/relu_3x3
I0403 19:07:23.066829 18797 net.cpp:91] Creating Layer inception_4b/relu_3x3
I0403 19:07:23.066846 18797 net.cpp:425] inception_4b/relu_3x3 <- inception_4b/3x3
I0403 19:07:23.066867 18797 net.cpp:386] inception_4b/relu_3x3 -> inception_4b/3x3 (in-place)
I0403 19:07:23.067054 18797 net.cpp:141] Setting up inception_4b/relu_3x3
I0403 19:07:23.067080 18797 net.cpp:148] Top shape: 24 224 14 14 (1053696)
I0403 19:07:23.067096 18797 net.cpp:156] Memory required for data: 964869408
I0403 19:07:23.067111 18797 layer_factory.hpp:77] Creating layer inception_4b/5x5_reduce
I0403 19:07:23.067136 18797 net.cpp:91] Creating Layer inception_4b/5x5_reduce
I0403 19:07:23.067154 18797 net.cpp:425] inception_4b/5x5_reduce <- inception_4a/output_inception_4a/output_0_split_3
I0403 19:07:23.067180 18797 net.cpp:399] inception_4b/5x5_reduce -> inception_4b/5x5_reduce
I0403 19:07:23.068270 18797 net.cpp:141] Setting up inception_4b/5x5_reduce
I0403 19:07:23.068298 18797 net.cpp:148] Top shape: 24 24 14 14 (112896)
I0403 19:07:23.068318 18797 net.cpp:156] Memory required for data: 965320992
I0403 19:07:23.068338 18797 layer_factory.hpp:77] Creating layer inception_4b/relu_5x5_reduce
I0403 19:07:23.068357 18797 net.cpp:91] Creating Layer inception_4b/relu_5x5_reduce
I0403 19:07:23.068389 18797 net.cpp:425] inception_4b/relu_5x5_reduce <- inception_4b/5x5_reduce
I0403 19:07:23.068409 18797 net.cpp:386] inception_4b/relu_5x5_reduce -> inception_4b/5x5_reduce (in-place)
I0403 19:07:23.068593 18797 net.cpp:141] Setting up inception_4b/relu_5x5_reduce
I0403 19:07:23.068620 18797 net.cpp:148] Top shape: 24 24 14 14 (112896)
I0403 19:07:23.068636 18797 net.cpp:156] Memory required for data: 965772576
I0403 19:07:23.068653 18797 layer_factory.hpp:77] Creating layer inception_4b/5x5
I0403 19:07:23.068676 18797 net.cpp:91] Creating Layer inception_4b/5x5
I0403 19:07:23.068696 18797 net.cpp:425] inception_4b/5x5 <- inception_4b/5x5_reduce
I0403 19:07:23.068716 18797 net.cpp:399] inception_4b/5x5 -> inception_4b/5x5
I0403 19:07:23.069954 18797 net.cpp:141] Setting up inception_4b/5x5
I0403 19:07:23.069986 18797 net.cpp:148] Top shape: 24 64 14 14 (301056)
I0403 19:07:23.070005 18797 net.cpp:156] Memory required for data: 966976800
I0403 19:07:23.070024 18797 layer_factory.hpp:77] Creating layer inception_4b/relu_5x5
I0403 19:07:23.070046 18797 net.cpp:91] Creating Layer inception_4b/relu_5x5
I0403 19:07:23.070065 18797 net.cpp:425] inception_4b/relu_5x5 <- inception_4b/5x5
I0403 19:07:23.070083 18797 net.cpp:386] inception_4b/relu_5x5 -> inception_4b/5x5 (in-place)
I0403 19:07:23.070366 18797 net.cpp:141] Setting up inception_4b/relu_5x5
I0403 19:07:23.070394 18797 net.cpp:148] Top shape: 24 64 14 14 (301056)
I0403 19:07:23.070410 18797 net.cpp:156] Memory required for data: 968181024
I0403 19:07:23.070425 18797 layer_factory.hpp:77] Creating layer inception_4b/pool
I0403 19:07:23.070447 18797 net.cpp:91] Creating Layer inception_4b/pool
I0403 19:07:23.070466 18797 net.cpp:425] inception_4b/pool <- inception_4a/output_inception_4a/output_0_split_4
I0403 19:07:23.070487 18797 net.cpp:399] inception_4b/pool -> inception_4b/pool
I0403 19:07:23.070554 18797 net.cpp:141] Setting up inception_4b/pool
I0403 19:07:23.070577 18797 net.cpp:148] Top shape: 24 512 14 14 (2408448)
I0403 19:07:23.070593 18797 net.cpp:156] Memory required for data: 977814816
I0403 19:07:23.070610 18797 layer_factory.hpp:77] Creating layer inception_4b/pool_proj
I0403 19:07:23.070634 18797 net.cpp:91] Creating Layer inception_4b/pool_proj
I0403 19:07:23.070652 18797 net.cpp:425] inception_4b/pool_proj <- inception_4b/pool
I0403 19:07:23.070674 18797 net.cpp:399] inception_4b/pool_proj -> inception_4b/pool_proj
I0403 19:07:23.071882 18797 net.cpp:141] Setting up inception_4b/pool_proj
I0403 19:07:23.071909 18797 net.cpp:148] Top shape: 24 64 14 14 (301056)
I0403 19:07:23.071925 18797 net.cpp:156] Memory required for data: 979019040
I0403 19:07:23.071944 18797 layer_factory.hpp:77] Creating layer inception_4b/relu_pool_proj
I0403 19:07:23.071966 18797 net.cpp:91] Creating Layer inception_4b/relu_pool_proj
I0403 19:07:23.071988 18797 net.cpp:425] inception_4b/relu_pool_proj <- inception_4b/pool_proj
I0403 19:07:23.072007 18797 net.cpp:386] inception_4b/relu_pool_proj -> inception_4b/pool_proj (in-place)
I0403 19:07:23.072190 18797 net.cpp:141] Setting up inception_4b/relu_pool_proj
I0403 19:07:23.072216 18797 net.cpp:148] Top shape: 24 64 14 14 (301056)
I0403 19:07:23.072232 18797 net.cpp:156] Memory required for data: 980223264
I0403 19:07:23.072247 18797 layer_factory.hpp:77] Creating layer inception_4b/output
I0403 19:07:23.072266 18797 net.cpp:91] Creating Layer inception_4b/output
I0403 19:07:23.072283 18797 net.cpp:425] inception_4b/output <- inception_4b/1x1
I0403 19:07:23.072299 18797 net.cpp:425] inception_4b/output <- inception_4b/3x3
I0403 19:07:23.072317 18797 net.cpp:425] inception_4b/output <- inception_4b/5x5
I0403 19:07:23.072335 18797 net.cpp:425] inception_4b/output <- inception_4b/pool_proj
I0403 19:07:23.072355 18797 net.cpp:399] inception_4b/output -> inception_4b/output
I0403 19:07:23.072402 18797 net.cpp:141] Setting up inception_4b/output
I0403 19:07:23.072424 18797 net.cpp:148] Top shape: 24 512 14 14 (2408448)
I0403 19:07:23.072443 18797 net.cpp:156] Memory required for data: 989857056
I0403 19:07:23.072474 18797 layer_factory.hpp:77] Creating layer inception_4b/output_inception_4b/output_0_split
I0403 19:07:23.072492 18797 net.cpp:91] Creating Layer inception_4b/output_inception_4b/output_0_split
I0403 19:07:23.072510 18797 net.cpp:425] inception_4b/output_inception_4b/output_0_split <- inception_4b/output
I0403 19:07:23.072528 18797 net.cpp:399] inception_4b/output_inception_4b/output_0_split -> inception_4b/output_inception_4b/output_0_split_0
I0403 19:07:23.072549 18797 net.cpp:399] inception_4b/output_inception_4b/output_0_split -> inception_4b/output_inception_4b/output_0_split_1
I0403 19:07:23.072571 18797 net.cpp:399] inception_4b/output_inception_4b/output_0_split -> inception_4b/output_inception_4b/output_0_split_2
I0403 19:07:23.072594 18797 net.cpp:399] inception_4b/output_inception_4b/output_0_split -> inception_4b/output_inception_4b/output_0_split_3
I0403 19:07:23.072681 18797 net.cpp:141] Setting up inception_4b/output_inception_4b/output_0_split
I0403 19:07:23.072705 18797 net.cpp:148] Top shape: 24 512 14 14 (2408448)
I0403 19:07:23.072723 18797 net.cpp:148] Top shape: 24 512 14 14 (2408448)
I0403 19:07:23.072739 18797 net.cpp:148] Top shape: 24 512 14 14 (2408448)
I0403 19:07:23.072756 18797 net.cpp:148] Top shape: 24 512 14 14 (2408448)
I0403 19:07:23.072770 18797 net.cpp:156] Memory required for data: 1028392224
I0403 19:07:23.072785 18797 layer_factory.hpp:77] Creating layer inception_4c/1x1
I0403 19:07:23.072808 18797 net.cpp:91] Creating Layer inception_4c/1x1
I0403 19:07:23.072827 18797 net.cpp:425] inception_4c/1x1 <- inception_4b/output_inception_4b/output_0_split_0
I0403 19:07:23.072850 18797 net.cpp:399] inception_4c/1x1 -> inception_4c/1x1
I0403 19:07:23.074291 18797 net.cpp:141] Setting up inception_4c/1x1
I0403 19:07:23.074321 18797 net.cpp:148] Top shape: 24 128 14 14 (602112)
I0403 19:07:23.074337 18797 net.cpp:156] Memory required for data: 1030800672
I0403 19:07:23.074357 18797 layer_factory.hpp:77] Creating layer inception_4c/relu_1x1
I0403 19:07:23.074375 18797 net.cpp:91] Creating Layer inception_4c/relu_1x1
I0403 19:07:23.074393 18797 net.cpp:425] inception_4c/relu_1x1 <- inception_4c/1x1
I0403 19:07:23.074414 18797 net.cpp:386] inception_4c/relu_1x1 -> inception_4c/1x1 (in-place)
I0403 19:07:23.074599 18797 net.cpp:141] Setting up inception_4c/relu_1x1
I0403 19:07:23.074625 18797 net.cpp:148] Top shape: 24 128 14 14 (602112)
I0403 19:07:23.074640 18797 net.cpp:156] Memory required for data: 1033209120
I0403 19:07:23.074656 18797 layer_factory.hpp:77] Creating layer inception_4c/3x3_reduce
I0403 19:07:23.074679 18797 net.cpp:91] Creating Layer inception_4c/3x3_reduce
I0403 19:07:23.074697 18797 net.cpp:425] inception_4c/3x3_reduce <- inception_4b/output_inception_4b/output_0_split_1
I0403 19:07:23.074722 18797 net.cpp:399] inception_4c/3x3_reduce -> inception_4c/3x3_reduce
I0403 19:07:23.076692 18797 net.cpp:141] Setting up inception_4c/3x3_reduce
I0403 19:07:23.076721 18797 net.cpp:148] Top shape: 24 128 14 14 (602112)
I0403 19:07:23.076737 18797 net.cpp:156] Memory required for data: 1035617568
I0403 19:07:23.076757 18797 layer_factory.hpp:77] Creating layer inception_4c/relu_3x3_reduce
I0403 19:07:23.076779 18797 net.cpp:91] Creating Layer inception_4c/relu_3x3_reduce
I0403 19:07:23.076797 18797 net.cpp:425] inception_4c/relu_3x3_reduce <- inception_4c/3x3_reduce
I0403 19:07:23.076817 18797 net.cpp:386] inception_4c/relu_3x3_reduce -> inception_4c/3x3_reduce (in-place)
I0403 19:07:23.077107 18797 net.cpp:141] Setting up inception_4c/relu_3x3_reduce
I0403 19:07:23.077134 18797 net.cpp:148] Top shape: 24 128 14 14 (602112)
I0403 19:07:23.077152 18797 net.cpp:156] Memory required for data: 1038026016
I0403 19:07:23.077167 18797 layer_factory.hpp:77] Creating layer inception_4c/3x3
I0403 19:07:23.077190 18797 net.cpp:91] Creating Layer inception_4c/3x3
I0403 19:07:23.077211 18797 net.cpp:425] inception_4c/3x3 <- inception_4c/3x3_reduce
I0403 19:07:23.077237 18797 net.cpp:399] inception_4c/3x3 -> inception_4c/3x3
I0403 19:07:23.080865 18797 net.cpp:141] Setting up inception_4c/3x3
I0403 19:07:23.080905 18797 net.cpp:148] Top shape: 24 256 14 14 (1204224)
I0403 19:07:23.080922 18797 net.cpp:156] Memory required for data: 1042842912
I0403 19:07:23.080955 18797 layer_factory.hpp:77] Creating layer inception_4c/relu_3x3
I0403 19:07:23.080981 18797 net.cpp:91] Creating Layer inception_4c/relu_3x3
I0403 19:07:23.081001 18797 net.cpp:425] inception_4c/relu_3x3 <- inception_4c/3x3
I0403 19:07:23.081019 18797 net.cpp:386] inception_4c/relu_3x3 -> inception_4c/3x3 (in-place)
I0403 19:07:23.081197 18797 net.cpp:141] Setting up inception_4c/relu_3x3
I0403 19:07:23.081224 18797 net.cpp:148] Top shape: 24 256 14 14 (1204224)
I0403 19:07:23.081240 18797 net.cpp:156] Memory required for data: 1047659808
I0403 19:07:23.081256 18797 layer_factory.hpp:77] Creating layer inception_4c/5x5_reduce
I0403 19:07:23.081277 18797 net.cpp:91] Creating Layer inception_4c/5x5_reduce
I0403 19:07:23.081295 18797 net.cpp:425] inception_4c/5x5_reduce <- inception_4b/output_inception_4b/output_0_split_2
I0403 19:07:23.081317 18797 net.cpp:399] inception_4c/5x5_reduce -> inception_4c/5x5_reduce
I0403 19:07:23.082411 18797 net.cpp:141] Setting up inception_4c/5x5_reduce
I0403 19:07:23.082437 18797 net.cpp:148] Top shape: 24 24 14 14 (112896)
I0403 19:07:23.082453 18797 net.cpp:156] Memory required for data: 1048111392
I0403 19:07:23.082473 18797 layer_factory.hpp:77] Creating layer inception_4c/relu_5x5_reduce
I0403 19:07:23.082494 18797 net.cpp:91] Creating Layer inception_4c/relu_5x5_reduce
I0403 19:07:23.082510 18797 net.cpp:425] inception_4c/relu_5x5_reduce <- inception_4c/5x5_reduce
I0403 19:07:23.082528 18797 net.cpp:386] inception_4c/relu_5x5_reduce -> inception_4c/5x5_reduce (in-place)
I0403 19:07:23.082712 18797 net.cpp:141] Setting up inception_4c/relu_5x5_reduce
I0403 19:07:23.082738 18797 net.cpp:148] Top shape: 24 24 14 14 (112896)
I0403 19:07:23.082756 18797 net.cpp:156] Memory required for data: 1048562976
I0403 19:07:23.082770 18797 layer_factory.hpp:77] Creating layer inception_4c/5x5
I0403 19:07:23.082793 18797 net.cpp:91] Creating Layer inception_4c/5x5
I0403 19:07:23.082813 18797 net.cpp:425] inception_4c/5x5 <- inception_4c/5x5_reduce
I0403 19:07:23.082831 18797 net.cpp:399] inception_4c/5x5 -> inception_4c/5x5
I0403 19:07:23.084053 18797 net.cpp:141] Setting up inception_4c/5x5
I0403 19:07:23.084079 18797 net.cpp:148] Top shape: 24 64 14 14 (301056)
I0403 19:07:23.084095 18797 net.cpp:156] Memory required for data: 1049767200
I0403 19:07:23.084115 18797 layer_factory.hpp:77] Creating layer inception_4c/relu_5x5
I0403 19:07:23.084133 18797 net.cpp:91] Creating Layer inception_4c/relu_5x5
I0403 19:07:23.084151 18797 net.cpp:425] inception_4c/relu_5x5 <- inception_4c/5x5
I0403 19:07:23.084169 18797 net.cpp:386] inception_4c/relu_5x5 -> inception_4c/5x5 (in-place)
I0403 19:07:23.084460 18797 net.cpp:141] Setting up inception_4c/relu_5x5
I0403 19:07:23.084484 18797 net.cpp:148] Top shape: 24 64 14 14 (301056)
I0403 19:07:23.084499 18797 net.cpp:156] Memory required for data: 1050971424
I0403 19:07:23.084517 18797 layer_factory.hpp:77] Creating layer inception_4c/pool
I0403 19:07:23.084534 18797 net.cpp:91] Creating Layer inception_4c/pool
I0403 19:07:23.084550 18797 net.cpp:425] inception_4c/pool <- inception_4b/output_inception_4b/output_0_split_3
I0403 19:07:23.084571 18797 net.cpp:399] inception_4c/pool -> inception_4c/pool
I0403 19:07:23.084637 18797 net.cpp:141] Setting up inception_4c/pool
I0403 19:07:23.084661 18797 net.cpp:148] Top shape: 24 512 14 14 (2408448)
I0403 19:07:23.084676 18797 net.cpp:156] Memory required for data: 1060605216
I0403 19:07:23.084692 18797 layer_factory.hpp:77] Creating layer inception_4c/pool_proj
I0403 19:07:23.084715 18797 net.cpp:91] Creating Layer inception_4c/pool_proj
I0403 19:07:23.084733 18797 net.cpp:425] inception_4c/pool_proj <- inception_4c/pool
I0403 19:07:23.084753 18797 net.cpp:399] inception_4c/pool_proj -> inception_4c/pool_proj
I0403 19:07:23.085976 18797 net.cpp:141] Setting up inception_4c/pool_proj
I0403 19:07:23.086007 18797 net.cpp:148] Top shape: 24 64 14 14 (301056)
I0403 19:07:23.086037 18797 net.cpp:156] Memory required for data: 1061809440
I0403 19:07:23.086057 18797 layer_factory.hpp:77] Creating layer inception_4c/relu_pool_proj
I0403 19:07:23.086078 18797 net.cpp:91] Creating Layer inception_4c/relu_pool_proj
I0403 19:07:23.086097 18797 net.cpp:425] inception_4c/relu_pool_proj <- inception_4c/pool_proj
I0403 19:07:23.086114 18797 net.cpp:386] inception_4c/relu_pool_proj -> inception_4c/pool_proj (in-place)
I0403 19:07:23.086297 18797 net.cpp:141] Setting up inception_4c/relu_pool_proj
I0403 19:07:23.086323 18797 net.cpp:148] Top shape: 24 64 14 14 (301056)
I0403 19:07:23.086338 18797 net.cpp:156] Memory required for data: 1063013664
I0403 19:07:23.086354 18797 layer_factory.hpp:77] Creating layer inception_4c/output
I0403 19:07:23.086370 18797 net.cpp:91] Creating Layer inception_4c/output
I0403 19:07:23.086386 18797 net.cpp:425] inception_4c/output <- inception_4c/1x1
I0403 19:07:23.086403 18797 net.cpp:425] inception_4c/output <- inception_4c/3x3
I0403 19:07:23.086421 18797 net.cpp:425] inception_4c/output <- inception_4c/5x5
I0403 19:07:23.086437 18797 net.cpp:425] inception_4c/output <- inception_4c/pool_proj
I0403 19:07:23.086454 18797 net.cpp:399] inception_4c/output -> inception_4c/output
I0403 19:07:23.086503 18797 net.cpp:141] Setting up inception_4c/output
I0403 19:07:23.086526 18797 net.cpp:148] Top shape: 24 512 14 14 (2408448)
I0403 19:07:23.086541 18797 net.cpp:156] Memory required for data: 1072647456
I0403 19:07:23.086556 18797 layer_factory.hpp:77] Creating layer inception_4c/output_inception_4c/output_0_split
I0403 19:07:23.086576 18797 net.cpp:91] Creating Layer inception_4c/output_inception_4c/output_0_split
I0403 19:07:23.086592 18797 net.cpp:425] inception_4c/output_inception_4c/output_0_split <- inception_4c/output
I0403 19:07:23.086611 18797 net.cpp:399] inception_4c/output_inception_4c/output_0_split -> inception_4c/output_inception_4c/output_0_split_0
I0403 19:07:23.086632 18797 net.cpp:399] inception_4c/output_inception_4c/output_0_split -> inception_4c/output_inception_4c/output_0_split_1
I0403 19:07:23.086652 18797 net.cpp:399] inception_4c/output_inception_4c/output_0_split -> inception_4c/output_inception_4c/output_0_split_2
I0403 19:07:23.086675 18797 net.cpp:399] inception_4c/output_inception_4c/output_0_split -> inception_4c/output_inception_4c/output_0_split_3
I0403 19:07:23.086762 18797 net.cpp:141] Setting up inception_4c/output_inception_4c/output_0_split
I0403 19:07:23.086786 18797 net.cpp:148] Top shape: 24 512 14 14 (2408448)
I0403 19:07:23.086803 18797 net.cpp:148] Top shape: 24 512 14 14 (2408448)
I0403 19:07:23.086819 18797 net.cpp:148] Top shape: 24 512 14 14 (2408448)
I0403 19:07:23.086835 18797 net.cpp:148] Top shape: 24 512 14 14 (2408448)
I0403 19:07:23.086849 18797 net.cpp:156] Memory required for data: 1111182624
I0403 19:07:23.086864 18797 layer_factory.hpp:77] Creating layer inception_4d/1x1
I0403 19:07:23.086887 18797 net.cpp:91] Creating Layer inception_4d/1x1
I0403 19:07:23.086905 18797 net.cpp:425] inception_4d/1x1 <- inception_4c/output_inception_4c/output_0_split_0
I0403 19:07:23.086926 18797 net.cpp:399] inception_4d/1x1 -> inception_4d/1x1
I0403 19:07:23.088296 18797 net.cpp:141] Setting up inception_4d/1x1
I0403 19:07:23.088325 18797 net.cpp:148] Top shape: 24 112 14 14 (526848)
I0403 19:07:23.088340 18797 net.cpp:156] Memory required for data: 1113290016
I0403 19:07:23.088361 18797 layer_factory.hpp:77] Creating layer inception_4d/relu_1x1
I0403 19:07:23.088379 18797 net.cpp:91] Creating Layer inception_4d/relu_1x1
I0403 19:07:23.088397 18797 net.cpp:425] inception_4d/relu_1x1 <- inception_4d/1x1
I0403 19:07:23.088418 18797 net.cpp:386] inception_4d/relu_1x1 -> inception_4d/1x1 (in-place)
I0403 19:07:23.088613 18797 net.cpp:141] Setting up inception_4d/relu_1x1
I0403 19:07:23.088637 18797 net.cpp:148] Top shape: 24 112 14 14 (526848)
I0403 19:07:23.088654 18797 net.cpp:156] Memory required for data: 1115397408
I0403 19:07:23.088668 18797 layer_factory.hpp:77] Creating layer inception_4d/3x3_reduce
I0403 19:07:23.088704 18797 net.cpp:91] Creating Layer inception_4d/3x3_reduce
I0403 19:07:23.088724 18797 net.cpp:425] inception_4d/3x3_reduce <- inception_4c/output_inception_4c/output_0_split_1
I0403 19:07:23.088745 18797 net.cpp:399] inception_4d/3x3_reduce -> inception_4d/3x3_reduce
I0403 19:07:23.090236 18797 net.cpp:141] Setting up inception_4d/3x3_reduce
I0403 19:07:23.090266 18797 net.cpp:148] Top shape: 24 144 14 14 (677376)
I0403 19:07:23.090283 18797 net.cpp:156] Memory required for data: 1118106912
I0403 19:07:23.090302 18797 layer_factory.hpp:77] Creating layer inception_4d/relu_3x3_reduce
I0403 19:07:23.090322 18797 net.cpp:91] Creating Layer inception_4d/relu_3x3_reduce
I0403 19:07:23.090338 18797 net.cpp:425] inception_4d/relu_3x3_reduce <- inception_4d/3x3_reduce
I0403 19:07:23.090361 18797 net.cpp:386] inception_4d/relu_3x3_reduce -> inception_4d/3x3_reduce (in-place)
I0403 19:07:23.090647 18797 net.cpp:141] Setting up inception_4d/relu_3x3_reduce
I0403 19:07:23.090674 18797 net.cpp:148] Top shape: 24 144 14 14 (677376)
I0403 19:07:23.090692 18797 net.cpp:156] Memory required for data: 1120816416
I0403 19:07:23.090706 18797 layer_factory.hpp:77] Creating layer inception_4d/3x3
I0403 19:07:23.090729 18797 net.cpp:91] Creating Layer inception_4d/3x3
I0403 19:07:23.090747 18797 net.cpp:425] inception_4d/3x3 <- inception_4d/3x3_reduce
I0403 19:07:23.090770 18797 net.cpp:399] inception_4d/3x3 -> inception_4d/3x3
I0403 19:07:23.094910 18797 net.cpp:141] Setting up inception_4d/3x3
I0403 19:07:23.094938 18797 net.cpp:148] Top shape: 24 288 14 14 (1354752)
I0403 19:07:23.094954 18797 net.cpp:156] Memory required for data: 1126235424
I0403 19:07:23.094974 18797 layer_factory.hpp:77] Creating layer inception_4d/relu_3x3
I0403 19:07:23.094998 18797 net.cpp:91] Creating Layer inception_4d/relu_3x3
I0403 19:07:23.095016 18797 net.cpp:425] inception_4d/relu_3x3 <- inception_4d/3x3
I0403 19:07:23.095034 18797 net.cpp:386] inception_4d/relu_3x3 -> inception_4d/3x3 (in-place)
I0403 19:07:23.095216 18797 net.cpp:141] Setting up inception_4d/relu_3x3
I0403 19:07:23.095240 18797 net.cpp:148] Top shape: 24 288 14 14 (1354752)
I0403 19:07:23.095255 18797 net.cpp:156] Memory required for data: 1131654432
I0403 19:07:23.095271 18797 layer_factory.hpp:77] Creating layer inception_4d/5x5_reduce
I0403 19:07:23.095295 18797 net.cpp:91] Creating Layer inception_4d/5x5_reduce
I0403 19:07:23.095314 18797 net.cpp:425] inception_4d/5x5_reduce <- inception_4c/output_inception_4c/output_0_split_2
I0403 19:07:23.095334 18797 net.cpp:399] inception_4d/5x5_reduce -> inception_4d/5x5_reduce
I0403 19:07:23.096465 18797 net.cpp:141] Setting up inception_4d/5x5_reduce
I0403 19:07:23.096493 18797 net.cpp:148] Top shape: 24 32 14 14 (150528)
I0403 19:07:23.096509 18797 net.cpp:156] Memory required for data: 1132256544
I0403 19:07:23.096529 18797 layer_factory.hpp:77] Creating layer inception_4d/relu_5x5_reduce
I0403 19:07:23.096549 18797 net.cpp:91] Creating Layer inception_4d/relu_5x5_reduce
I0403 19:07:23.096567 18797 net.cpp:425] inception_4d/relu_5x5_reduce <- inception_4d/5x5_reduce
I0403 19:07:23.096585 18797 net.cpp:386] inception_4d/relu_5x5_reduce -> inception_4d/5x5_reduce (in-place)
I0403 19:07:23.096767 18797 net.cpp:141] Setting up inception_4d/relu_5x5_reduce
I0403 19:07:23.096796 18797 net.cpp:148] Top shape: 24 32 14 14 (150528)
I0403 19:07:23.096812 18797 net.cpp:156] Memory required for data: 1132858656
I0403 19:07:23.096827 18797 layer_factory.hpp:77] Creating layer inception_4d/5x5
I0403 19:07:23.096848 18797 net.cpp:91] Creating Layer inception_4d/5x5
I0403 19:07:23.096865 18797 net.cpp:425] inception_4d/5x5 <- inception_4d/5x5_reduce
I0403 19:07:23.096886 18797 net.cpp:399] inception_4d/5x5 -> inception_4d/5x5
I0403 19:07:23.098350 18797 net.cpp:141] Setting up inception_4d/5x5
I0403 19:07:23.098378 18797 net.cpp:148] Top shape: 24 64 14 14 (301056)
I0403 19:07:23.098395 18797 net.cpp:156] Memory required for data: 1134062880
I0403 19:07:23.098415 18797 layer_factory.hpp:77] Creating layer inception_4d/relu_5x5
I0403 19:07:23.098448 18797 net.cpp:91] Creating Layer inception_4d/relu_5x5
I0403 19:07:23.098466 18797 net.cpp:425] inception_4d/relu_5x5 <- inception_4d/5x5
I0403 19:07:23.098484 18797 net.cpp:386] inception_4d/relu_5x5 -> inception_4d/5x5 (in-place)
I0403 19:07:23.098784 18797 net.cpp:141] Setting up inception_4d/relu_5x5
I0403 19:07:23.098812 18797 net.cpp:148] Top shape: 24 64 14 14 (301056)
I0403 19:07:23.098829 18797 net.cpp:156] Memory required for data: 1135267104
I0403 19:07:23.098845 18797 layer_factory.hpp:77] Creating layer inception_4d/pool
I0403 19:07:23.098862 18797 net.cpp:91] Creating Layer inception_4d/pool
I0403 19:07:23.098880 18797 net.cpp:425] inception_4d/pool <- inception_4c/output_inception_4c/output_0_split_3
I0403 19:07:23.098898 18797 net.cpp:399] inception_4d/pool -> inception_4d/pool
I0403 19:07:23.098965 18797 net.cpp:141] Setting up inception_4d/pool
I0403 19:07:23.098999 18797 net.cpp:148] Top shape: 24 512 14 14 (2408448)
I0403 19:07:23.099017 18797 net.cpp:156] Memory required for data: 1144900896
I0403 19:07:23.099033 18797 layer_factory.hpp:77] Creating layer inception_4d/pool_proj
I0403 19:07:23.099056 18797 net.cpp:91] Creating Layer inception_4d/pool_proj
I0403 19:07:23.099074 18797 net.cpp:425] inception_4d/pool_proj <- inception_4d/pool
I0403 19:07:23.099097 18797 net.cpp:399] inception_4d/pool_proj -> inception_4d/pool_proj
I0403 19:07:23.100848 18797 net.cpp:141] Setting up inception_4d/pool_proj
I0403 19:07:23.100878 18797 net.cpp:148] Top shape: 24 64 14 14 (301056)
I0403 19:07:23.100894 18797 net.cpp:156] Memory required for data: 1146105120
I0403 19:07:23.100914 18797 layer_factory.hpp:77] Creating layer inception_4d/relu_pool_proj
I0403 19:07:23.100935 18797 net.cpp:91] Creating Layer inception_4d/relu_pool_proj
I0403 19:07:23.100955 18797 net.cpp:425] inception_4d/relu_pool_proj <- inception_4d/pool_proj
I0403 19:07:23.100972 18797 net.cpp:386] inception_4d/relu_pool_proj -> inception_4d/pool_proj (in-place)
I0403 19:07:23.101169 18797 net.cpp:141] Setting up inception_4d/relu_pool_proj
I0403 19:07:23.101196 18797 net.cpp:148] Top shape: 24 64 14 14 (301056)
I0403 19:07:23.101212 18797 net.cpp:156] Memory required for data: 1147309344
I0403 19:07:23.101227 18797 layer_factory.hpp:77] Creating layer inception_4d/output
I0403 19:07:23.101248 18797 net.cpp:91] Creating Layer inception_4d/output
I0403 19:07:23.101265 18797 net.cpp:425] inception_4d/output <- inception_4d/1x1
I0403 19:07:23.101284 18797 net.cpp:425] inception_4d/output <- inception_4d/3x3
I0403 19:07:23.101301 18797 net.cpp:425] inception_4d/output <- inception_4d/5x5
I0403 19:07:23.101318 18797 net.cpp:425] inception_4d/output <- inception_4d/pool_proj
I0403 19:07:23.101336 18797 net.cpp:399] inception_4d/output -> inception_4d/output
I0403 19:07:23.101387 18797 net.cpp:141] Setting up inception_4d/output
I0403 19:07:23.101411 18797 net.cpp:148] Top shape: 24 528 14 14 (2483712)
I0403 19:07:23.101428 18797 net.cpp:156] Memory required for data: 1157244192
I0403 19:07:23.101444 18797 layer_factory.hpp:77] Creating layer inception_4d/output_inception_4d/output_0_split
I0403 19:07:23.101461 18797 net.cpp:91] Creating Layer inception_4d/output_inception_4d/output_0_split
I0403 19:07:23.101478 18797 net.cpp:425] inception_4d/output_inception_4d/output_0_split <- inception_4d/output
I0403 19:07:23.101500 18797 net.cpp:399] inception_4d/output_inception_4d/output_0_split -> inception_4d/output_inception_4d/output_0_split_0
I0403 19:07:23.101522 18797 net.cpp:399] inception_4d/output_inception_4d/output_0_split -> inception_4d/output_inception_4d/output_0_split_1
I0403 19:07:23.101544 18797 net.cpp:399] inception_4d/output_inception_4d/output_0_split -> inception_4d/output_inception_4d/output_0_split_2
I0403 19:07:23.101570 18797 net.cpp:399] inception_4d/output_inception_4d/output_0_split -> inception_4d/output_inception_4d/output_0_split_3
I0403 19:07:23.101593 18797 net.cpp:399] inception_4d/output_inception_4d/output_0_split -> inception_4d/output_inception_4d/output_0_split_4
I0403 19:07:23.101696 18797 net.cpp:141] Setting up inception_4d/output_inception_4d/output_0_split
I0403 19:07:23.101732 18797 net.cpp:148] Top shape: 24 528 14 14 (2483712)
I0403 19:07:23.101750 18797 net.cpp:148] Top shape: 24 528 14 14 (2483712)
I0403 19:07:23.101766 18797 net.cpp:148] Top shape: 24 528 14 14 (2483712)
I0403 19:07:23.101783 18797 net.cpp:148] Top shape: 24 528 14 14 (2483712)
I0403 19:07:23.101799 18797 net.cpp:148] Top shape: 24 528 14 14 (2483712)
I0403 19:07:23.101814 18797 net.cpp:156] Memory required for data: 1206918432
I0403 19:07:23.101830 18797 layer_factory.hpp:77] Creating layer loss2/ave_pool
I0403 19:07:23.101848 18797 net.cpp:91] Creating Layer loss2/ave_pool
I0403 19:07:23.101866 18797 net.cpp:425] loss2/ave_pool <- inception_4d/output_inception_4d/output_0_split_0
I0403 19:07:23.101886 18797 net.cpp:399] loss2/ave_pool -> loss2/ave_pool
I0403 19:07:23.102207 18797 net.cpp:141] Setting up loss2/ave_pool
I0403 19:07:23.102234 18797 net.cpp:148] Top shape: 24 528 4 4 (202752)
I0403 19:07:23.102251 18797 net.cpp:156] Memory required for data: 1207729440
I0403 19:07:23.102267 18797 layer_factory.hpp:77] Creating layer loss2/conv
I0403 19:07:23.102290 18797 net.cpp:91] Creating Layer loss2/conv
I0403 19:07:23.102308 18797 net.cpp:425] loss2/conv <- loss2/ave_pool
I0403 19:07:23.102330 18797 net.cpp:399] loss2/conv -> loss2/conv
I0403 19:07:23.104233 18797 net.cpp:141] Setting up loss2/conv
I0403 19:07:23.104264 18797 net.cpp:148] Top shape: 24 128 4 4 (49152)
I0403 19:07:23.104282 18797 net.cpp:156] Memory required for data: 1207926048
I0403 19:07:23.104302 18797 layer_factory.hpp:77] Creating layer loss2/relu_conv
I0403 19:07:23.104321 18797 net.cpp:91] Creating Layer loss2/relu_conv
I0403 19:07:23.104339 18797 net.cpp:425] loss2/relu_conv <- loss2/conv
I0403 19:07:23.104360 18797 net.cpp:386] loss2/relu_conv -> loss2/conv (in-place)
I0403 19:07:23.104650 18797 net.cpp:141] Setting up loss2/relu_conv
I0403 19:07:23.104678 18797 net.cpp:148] Top shape: 24 128 4 4 (49152)
I0403 19:07:23.104696 18797 net.cpp:156] Memory required for data: 1208122656
I0403 19:07:23.104712 18797 layer_factory.hpp:77] Creating layer loss2/fc
I0403 19:07:23.104732 18797 net.cpp:91] Creating Layer loss2/fc
I0403 19:07:23.104748 18797 net.cpp:425] loss2/fc <- loss2/conv
I0403 19:07:23.104771 18797 net.cpp:399] loss2/fc -> loss2/fc
I0403 19:07:23.122359 18797 net.cpp:141] Setting up loss2/fc
I0403 19:07:23.122392 18797 net.cpp:148] Top shape: 24 1024 (24576)
I0403 19:07:23.122408 18797 net.cpp:156] Memory required for data: 1208220960
I0403 19:07:23.122426 18797 layer_factory.hpp:77] Creating layer loss2/relu_fc
I0403 19:07:23.122447 18797 net.cpp:91] Creating Layer loss2/relu_fc
I0403 19:07:23.122465 18797 net.cpp:425] loss2/relu_fc <- loss2/fc
I0403 19:07:23.122483 18797 net.cpp:386] loss2/relu_fc -> loss2/fc (in-place)
I0403 19:07:23.122773 18797 net.cpp:141] Setting up loss2/relu_fc
I0403 19:07:23.122799 18797 net.cpp:148] Top shape: 24 1024 (24576)
I0403 19:07:23.122814 18797 net.cpp:156] Memory required for data: 1208319264
I0403 19:07:23.122830 18797 layer_factory.hpp:77] Creating layer loss2/drop_fc
I0403 19:07:23.122850 18797 net.cpp:91] Creating Layer loss2/drop_fc
I0403 19:07:23.122867 18797 net.cpp:425] loss2/drop_fc <- loss2/fc
I0403 19:07:23.122885 18797 net.cpp:386] loss2/drop_fc -> loss2/fc (in-place)
I0403 19:07:23.122936 18797 net.cpp:141] Setting up loss2/drop_fc
I0403 19:07:23.122959 18797 net.cpp:148] Top shape: 24 1024 (24576)
I0403 19:07:23.122974 18797 net.cpp:156] Memory required for data: 1208417568
I0403 19:07:23.122993 18797 layer_factory.hpp:77] Creating layer loss2/classifier_plantvillage
I0403 19:07:23.123013 18797 net.cpp:91] Creating Layer loss2/classifier_plantvillage
I0403 19:07:23.123028 18797 net.cpp:425] loss2/classifier_plantvillage <- loss2/fc
I0403 19:07:23.123050 18797 net.cpp:399] loss2/classifier_plantvillage -> loss2/classifier_plantvillage
I0403 19:07:23.123448 18797 net.cpp:141] Setting up loss2/classifier_plantvillage
I0403 19:07:23.123473 18797 net.cpp:148] Top shape: 24 38 (912)
I0403 19:07:23.123503 18797 net.cpp:156] Memory required for data: 1208421216
I0403 19:07:23.123523 18797 layer_factory.hpp:77] Creating layer loss2/classifier_plantvillage_loss2/classifier_plantvillage_0_split
I0403 19:07:23.123543 18797 net.cpp:91] Creating Layer loss2/classifier_plantvillage_loss2/classifier_plantvillage_0_split
I0403 19:07:23.123559 18797 net.cpp:425] loss2/classifier_plantvillage_loss2/classifier_plantvillage_0_split <- loss2/classifier_plantvillage
I0403 19:07:23.123580 18797 net.cpp:399] loss2/classifier_plantvillage_loss2/classifier_plantvillage_0_split -> loss2/classifier_plantvillage_loss2/classifier_plantvillage_0_split_0
I0403 19:07:23.123602 18797 net.cpp:399] loss2/classifier_plantvillage_loss2/classifier_plantvillage_0_split -> loss2/classifier_plantvillage_loss2/classifier_plantvillage_0_split_1
I0403 19:07:23.123623 18797 net.cpp:399] loss2/classifier_plantvillage_loss2/classifier_plantvillage_0_split -> loss2/classifier_plantvillage_loss2/classifier_plantvillage_0_split_2
I0403 19:07:23.123699 18797 net.cpp:141] Setting up loss2/classifier_plantvillage_loss2/classifier_plantvillage_0_split
I0403 19:07:23.123723 18797 net.cpp:148] Top shape: 24 38 (912)
I0403 19:07:23.123740 18797 net.cpp:148] Top shape: 24 38 (912)
I0403 19:07:23.123756 18797 net.cpp:148] Top shape: 24 38 (912)
I0403 19:07:23.123770 18797 net.cpp:156] Memory required for data: 1208432160
I0403 19:07:23.123785 18797 layer_factory.hpp:77] Creating layer inception_4e/1x1
I0403 19:07:23.123808 18797 net.cpp:91] Creating Layer inception_4e/1x1
I0403 19:07:23.123826 18797 net.cpp:425] inception_4e/1x1 <- inception_4d/output_inception_4d/output_0_split_1
I0403 19:07:23.123845 18797 net.cpp:399] inception_4e/1x1 -> inception_4e/1x1
I0403 19:07:23.125625 18797 net.cpp:141] Setting up inception_4e/1x1
I0403 19:07:23.125655 18797 net.cpp:148] Top shape: 24 256 14 14 (1204224)
I0403 19:07:23.125672 18797 net.cpp:156] Memory required for data: 1213249056
I0403 19:07:23.125691 18797 layer_factory.hpp:77] Creating layer inception_4e/relu_1x1
I0403 19:07:23.125710 18797 net.cpp:91] Creating Layer inception_4e/relu_1x1
I0403 19:07:23.125726 18797 net.cpp:425] inception_4e/relu_1x1 <- inception_4e/1x1
I0403 19:07:23.125746 18797 net.cpp:386] inception_4e/relu_1x1 -> inception_4e/1x1 (in-place)
I0403 19:07:23.126044 18797 net.cpp:141] Setting up inception_4e/relu_1x1
I0403 19:07:23.126071 18797 net.cpp:148] Top shape: 24 256 14 14 (1204224)
I0403 19:07:23.126088 18797 net.cpp:156] Memory required for data: 1218065952
I0403 19:07:23.126103 18797 layer_factory.hpp:77] Creating layer inception_4e/3x3_reduce
I0403 19:07:23.126127 18797 net.cpp:91] Creating Layer inception_4e/3x3_reduce
I0403 19:07:23.126144 18797 net.cpp:425] inception_4e/3x3_reduce <- inception_4d/output_inception_4d/output_0_split_2
I0403 19:07:23.126164 18797 net.cpp:399] inception_4e/3x3_reduce -> inception_4e/3x3_reduce
I0403 19:07:23.128276 18797 net.cpp:141] Setting up inception_4e/3x3_reduce
I0403 19:07:23.128305 18797 net.cpp:148] Top shape: 24 160 14 14 (752640)
I0403 19:07:23.128321 18797 net.cpp:156] Memory required for data: 1221076512
I0403 19:07:23.128340 18797 layer_factory.hpp:77] Creating layer inception_4e/relu_3x3_reduce
I0403 19:07:23.128361 18797 net.cpp:91] Creating Layer inception_4e/relu_3x3_reduce
I0403 19:07:23.128378 18797 net.cpp:425] inception_4e/relu_3x3_reduce <- inception_4e/3x3_reduce
I0403 19:07:23.128397 18797 net.cpp:386] inception_4e/relu_3x3_reduce -> inception_4e/3x3_reduce (in-place)
I0403 19:07:23.128584 18797 net.cpp:141] Setting up inception_4e/relu_3x3_reduce
I0403 19:07:23.128609 18797 net.cpp:148] Top shape: 24 160 14 14 (752640)
I0403 19:07:23.128624 18797 net.cpp:156] Memory required for data: 1224087072
I0403 19:07:23.128640 18797 layer_factory.hpp:77] Creating layer inception_4e/3x3
I0403 19:07:23.128662 18797 net.cpp:91] Creating Layer inception_4e/3x3
I0403 19:07:23.128680 18797 net.cpp:425] inception_4e/3x3 <- inception_4e/3x3_reduce
I0403 19:07:23.128703 18797 net.cpp:399] inception_4e/3x3 -> inception_4e/3x3
I0403 19:07:23.133582 18797 net.cpp:141] Setting up inception_4e/3x3
I0403 19:07:23.133622 18797 net.cpp:148] Top shape: 24 320 14 14 (1505280)
I0403 19:07:23.133640 18797 net.cpp:156] Memory required for data: 1230108192
I0403 19:07:23.133658 18797 layer_factory.hpp:77] Creating layer inception_4e/relu_3x3
I0403 19:07:23.133677 18797 net.cpp:91] Creating Layer inception_4e/relu_3x3
I0403 19:07:23.133695 18797 net.cpp:425] inception_4e/relu_3x3 <- inception_4e/3x3
I0403 19:07:23.133718 18797 net.cpp:386] inception_4e/relu_3x3 -> inception_4e/3x3 (in-place)
I0403 19:07:23.134021 18797 net.cpp:141] Setting up inception_4e/relu_3x3
I0403 19:07:23.134047 18797 net.cpp:148] Top shape: 24 320 14 14 (1505280)
I0403 19:07:23.134062 18797 net.cpp:156] Memory required for data: 1236129312
I0403 19:07:23.134076 18797 layer_factory.hpp:77] Creating layer inception_4e/5x5_reduce
I0403 19:07:23.134100 18797 net.cpp:91] Creating Layer inception_4e/5x5_reduce
I0403 19:07:23.134119 18797 net.cpp:425] inception_4e/5x5_reduce <- inception_4d/output_inception_4d/output_0_split_3
I0403 19:07:23.134141 18797 net.cpp:399] inception_4e/5x5_reduce -> inception_4e/5x5_reduce
I0403 19:07:23.135197 18797 net.cpp:141] Setting up inception_4e/5x5_reduce
I0403 19:07:23.135227 18797 net.cpp:148] Top shape: 24 32 14 14 (150528)
I0403 19:07:23.135243 18797 net.cpp:156] Memory required for data: 1236731424
I0403 19:07:23.135263 18797 layer_factory.hpp:77] Creating layer inception_4e/relu_5x5_reduce
I0403 19:07:23.135282 18797 net.cpp:91] Creating Layer inception_4e/relu_5x5_reduce
I0403 19:07:23.135298 18797 net.cpp:425] inception_4e/relu_5x5_reduce <- inception_4e/5x5_reduce
I0403 19:07:23.135316 18797 net.cpp:386] inception_4e/relu_5x5_reduce -> inception_4e/5x5_reduce (in-place)
I0403 19:07:23.135610 18797 net.cpp:141] Setting up inception_4e/relu_5x5_reduce
I0403 19:07:23.135637 18797 net.cpp:148] Top shape: 24 32 14 14 (150528)
I0403 19:07:23.135653 18797 net.cpp:156] Memory required for data: 1237333536
I0403 19:07:23.135669 18797 layer_factory.hpp:77] Creating layer inception_4e/5x5
I0403 19:07:23.135707 18797 net.cpp:91] Creating Layer inception_4e/5x5
I0403 19:07:23.135726 18797 net.cpp:425] inception_4e/5x5 <- inception_4e/5x5_reduce
I0403 19:07:23.135746 18797 net.cpp:399] inception_4e/5x5 -> inception_4e/5x5
I0403 19:07:23.137555 18797 net.cpp:141] Setting up inception_4e/5x5
I0403 19:07:23.137583 18797 net.cpp:148] Top shape: 24 128 14 14 (602112)
I0403 19:07:23.137598 18797 net.cpp:156] Memory required for data: 1239741984
I0403 19:07:23.137619 18797 layer_factory.hpp:77] Creating layer inception_4e/relu_5x5
I0403 19:07:23.137639 18797 net.cpp:91] Creating Layer inception_4e/relu_5x5
I0403 19:07:23.137657 18797 net.cpp:425] inception_4e/relu_5x5 <- inception_4e/5x5
I0403 19:07:23.137676 18797 net.cpp:386] inception_4e/relu_5x5 -> inception_4e/5x5 (in-place)
I0403 19:07:23.137874 18797 net.cpp:141] Setting up inception_4e/relu_5x5
I0403 19:07:23.137900 18797 net.cpp:148] Top shape: 24 128 14 14 (602112)
I0403 19:07:23.137917 18797 net.cpp:156] Memory required for data: 1242150432
I0403 19:07:23.137931 18797 layer_factory.hpp:77] Creating layer inception_4e/pool
I0403 19:07:23.137949 18797 net.cpp:91] Creating Layer inception_4e/pool
I0403 19:07:23.137966 18797 net.cpp:425] inception_4e/pool <- inception_4d/output_inception_4d/output_0_split_4
I0403 19:07:23.137991 18797 net.cpp:399] inception_4e/pool -> inception_4e/pool
I0403 19:07:23.138062 18797 net.cpp:141] Setting up inception_4e/pool
I0403 19:07:23.138085 18797 net.cpp:148] Top shape: 24 528 14 14 (2483712)
I0403 19:07:23.138100 18797 net.cpp:156] Memory required for data: 1252085280
I0403 19:07:23.138115 18797 layer_factory.hpp:77] Creating layer inception_4e/pool_proj
I0403 19:07:23.138137 18797 net.cpp:91] Creating Layer inception_4e/pool_proj
I0403 19:07:23.138155 18797 net.cpp:425] inception_4e/pool_proj <- inception_4e/pool
I0403 19:07:23.138176 18797 net.cpp:399] inception_4e/pool_proj -> inception_4e/pool_proj
I0403 19:07:23.139657 18797 net.cpp:141] Setting up inception_4e/pool_proj
I0403 19:07:23.139694 18797 net.cpp:148] Top shape: 24 128 14 14 (602112)
I0403 19:07:23.139711 18797 net.cpp:156] Memory required for data: 1254493728
I0403 19:07:23.139730 18797 layer_factory.hpp:77] Creating layer inception_4e/relu_pool_proj
I0403 19:07:23.139751 18797 net.cpp:91] Creating Layer inception_4e/relu_pool_proj
I0403 19:07:23.139770 18797 net.cpp:425] inception_4e/relu_pool_proj <- inception_4e/pool_proj
I0403 19:07:23.139788 18797 net.cpp:386] inception_4e/relu_pool_proj -> inception_4e/pool_proj (in-place)
I0403 19:07:23.140081 18797 net.cpp:141] Setting up inception_4e/relu_pool_proj
I0403 19:07:23.140107 18797 net.cpp:148] Top shape: 24 128 14 14 (602112)
I0403 19:07:23.140123 18797 net.cpp:156] Memory required for data: 1256902176
I0403 19:07:23.140139 18797 layer_factory.hpp:77] Creating layer inception_4e/output
I0403 19:07:23.140159 18797 net.cpp:91] Creating Layer inception_4e/output
I0403 19:07:23.140177 18797 net.cpp:425] inception_4e/output <- inception_4e/1x1
I0403 19:07:23.140194 18797 net.cpp:425] inception_4e/output <- inception_4e/3x3
I0403 19:07:23.140210 18797 net.cpp:425] inception_4e/output <- inception_4e/5x5
I0403 19:07:23.140228 18797 net.cpp:425] inception_4e/output <- inception_4e/pool_proj
I0403 19:07:23.140244 18797 net.cpp:399] inception_4e/output -> inception_4e/output
I0403 19:07:23.140295 18797 net.cpp:141] Setting up inception_4e/output
I0403 19:07:23.140321 18797 net.cpp:148] Top shape: 24 832 14 14 (3913728)
I0403 19:07:23.140337 18797 net.cpp:156] Memory required for data: 1272557088
I0403 19:07:23.140352 18797 layer_factory.hpp:77] Creating layer pool4/3x3_s2
I0403 19:07:23.140370 18797 net.cpp:91] Creating Layer pool4/3x3_s2
I0403 19:07:23.140386 18797 net.cpp:425] pool4/3x3_s2 <- inception_4e/output
I0403 19:07:23.140408 18797 net.cpp:399] pool4/3x3_s2 -> pool4/3x3_s2
I0403 19:07:23.140476 18797 net.cpp:141] Setting up pool4/3x3_s2
I0403 19:07:23.140502 18797 net.cpp:148] Top shape: 24 832 7 7 (978432)
I0403 19:07:23.140518 18797 net.cpp:156] Memory required for data: 1276470816
I0403 19:07:23.140533 18797 layer_factory.hpp:77] Creating layer pool4/3x3_s2_pool4/3x3_s2_0_split
I0403 19:07:23.140550 18797 net.cpp:91] Creating Layer pool4/3x3_s2_pool4/3x3_s2_0_split
I0403 19:07:23.140568 18797 net.cpp:425] pool4/3x3_s2_pool4/3x3_s2_0_split <- pool4/3x3_s2
I0403 19:07:23.140585 18797 net.cpp:399] pool4/3x3_s2_pool4/3x3_s2_0_split -> pool4/3x3_s2_pool4/3x3_s2_0_split_0
I0403 19:07:23.140606 18797 net.cpp:399] pool4/3x3_s2_pool4/3x3_s2_0_split -> pool4/3x3_s2_pool4/3x3_s2_0_split_1
I0403 19:07:23.140630 18797 net.cpp:399] pool4/3x3_s2_pool4/3x3_s2_0_split -> pool4/3x3_s2_pool4/3x3_s2_0_split_2
I0403 19:07:23.140651 18797 net.cpp:399] pool4/3x3_s2_pool4/3x3_s2_0_split -> pool4/3x3_s2_pool4/3x3_s2_0_split_3
I0403 19:07:23.140746 18797 net.cpp:141] Setting up pool4/3x3_s2_pool4/3x3_s2_0_split
I0403 19:07:23.140769 18797 net.cpp:148] Top shape: 24 832 7 7 (978432)
I0403 19:07:23.140786 18797 net.cpp:148] Top shape: 24 832 7 7 (978432)
I0403 19:07:23.140804 18797 net.cpp:148] Top shape: 24 832 7 7 (978432)
I0403 19:07:23.140820 18797 net.cpp:148] Top shape: 24 832 7 7 (978432)
I0403 19:07:23.140835 18797 net.cpp:156] Memory required for data: 1292125728
I0403 19:07:23.140849 18797 layer_factory.hpp:77] Creating layer inception_5a/1x1
I0403 19:07:23.140872 18797 net.cpp:91] Creating Layer inception_5a/1x1
I0403 19:07:23.140890 18797 net.cpp:425] inception_5a/1x1 <- pool4/3x3_s2_pool4/3x3_s2_0_split_0
I0403 19:07:23.140913 18797 net.cpp:399] inception_5a/1x1 -> inception_5a/1x1
I0403 19:07:23.143741 18797 net.cpp:141] Setting up inception_5a/1x1
I0403 19:07:23.143769 18797 net.cpp:148] Top shape: 24 256 7 7 (301056)
I0403 19:07:23.143785 18797 net.cpp:156] Memory required for data: 1293329952
I0403 19:07:23.143805 18797 layer_factory.hpp:77] Creating layer inception_5a/relu_1x1
I0403 19:07:23.143824 18797 net.cpp:91] Creating Layer inception_5a/relu_1x1
I0403 19:07:23.143843 18797 net.cpp:425] inception_5a/relu_1x1 <- inception_5a/1x1
I0403 19:07:23.143862 18797 net.cpp:386] inception_5a/relu_1x1 -> inception_5a/1x1 (in-place)
I0403 19:07:23.144182 18797 net.cpp:141] Setting up inception_5a/relu_1x1
I0403 19:07:23.144209 18797 net.cpp:148] Top shape: 24 256 7 7 (301056)
I0403 19:07:23.144225 18797 net.cpp:156] Memory required for data: 1294534176
I0403 19:07:23.144240 18797 layer_factory.hpp:77] Creating layer inception_5a/3x3_reduce
I0403 19:07:23.144265 18797 net.cpp:91] Creating Layer inception_5a/3x3_reduce
I0403 19:07:23.144284 18797 net.cpp:425] inception_5a/3x3_reduce <- pool4/3x3_s2_pool4/3x3_s2_0_split_1
I0403 19:07:23.144304 18797 net.cpp:399] inception_5a/3x3_reduce -> inception_5a/3x3_reduce
I0403 19:07:23.146709 18797 net.cpp:141] Setting up inception_5a/3x3_reduce
I0403 19:07:23.146738 18797 net.cpp:148] Top shape: 24 160 7 7 (188160)
I0403 19:07:23.146754 18797 net.cpp:156] Memory required for data: 1295286816
I0403 19:07:23.146772 18797 layer_factory.hpp:77] Creating layer inception_5a/relu_3x3_reduce
I0403 19:07:23.146793 18797 net.cpp:91] Creating Layer inception_5a/relu_3x3_reduce
I0403 19:07:23.146811 18797 net.cpp:425] inception_5a/relu_3x3_reduce <- inception_5a/3x3_reduce
I0403 19:07:23.146829 18797 net.cpp:386] inception_5a/relu_3x3_reduce -> inception_5a/3x3_reduce (in-place)
I0403 19:07:23.147018 18797 net.cpp:141] Setting up inception_5a/relu_3x3_reduce
I0403 19:07:23.147043 18797 net.cpp:148] Top shape: 24 160 7 7 (188160)
I0403 19:07:23.147059 18797 net.cpp:156] Memory required for data: 1296039456
I0403 19:07:23.147074 18797 layer_factory.hpp:77] Creating layer inception_5a/3x3
I0403 19:07:23.147097 18797 net.cpp:91] Creating Layer inception_5a/3x3
I0403 19:07:23.147116 18797 net.cpp:425] inception_5a/3x3 <- inception_5a/3x3_reduce
I0403 19:07:23.147140 18797 net.cpp:399] inception_5a/3x3 -> inception_5a/3x3
I0403 19:07:23.152071 18797 net.cpp:141] Setting up inception_5a/3x3
I0403 19:07:23.152099 18797 net.cpp:148] Top shape: 24 320 7 7 (376320)
I0403 19:07:23.152117 18797 net.cpp:156] Memory required for data: 1297544736
I0403 19:07:23.152135 18797 layer_factory.hpp:77] Creating layer inception_5a/relu_3x3
I0403 19:07:23.152156 18797 net.cpp:91] Creating Layer inception_5a/relu_3x3
I0403 19:07:23.152174 18797 net.cpp:425] inception_5a/relu_3x3 <- inception_5a/3x3
I0403 19:07:23.152192 18797 net.cpp:386] inception_5a/relu_3x3 -> inception_5a/3x3 (in-place)
I0403 19:07:23.152484 18797 net.cpp:141] Setting up inception_5a/relu_3x3
I0403 19:07:23.152510 18797 net.cpp:148] Top shape: 24 320 7 7 (376320)
I0403 19:07:23.152526 18797 net.cpp:156] Memory required for data: 1299050016
I0403 19:07:23.152542 18797 layer_factory.hpp:77] Creating layer inception_5a/5x5_reduce
I0403 19:07:23.152565 18797 net.cpp:91] Creating Layer inception_5a/5x5_reduce
I0403 19:07:23.152582 18797 net.cpp:425] inception_5a/5x5_reduce <- pool4/3x3_s2_pool4/3x3_s2_0_split_2
I0403 19:07:23.152604 18797 net.cpp:399] inception_5a/5x5_reduce -> inception_5a/5x5_reduce
I0403 19:07:23.153764 18797 net.cpp:141] Setting up inception_5a/5x5_reduce
I0403 19:07:23.153794 18797 net.cpp:148] Top shape: 24 32 7 7 (37632)
I0403 19:07:23.153810 18797 net.cpp:156] Memory required for data: 1299200544
I0403 19:07:23.153830 18797 layer_factory.hpp:77] Creating layer inception_5a/relu_5x5_reduce
I0403 19:07:23.153847 18797 net.cpp:91] Creating Layer inception_5a/relu_5x5_reduce
I0403 19:07:23.153864 18797 net.cpp:425] inception_5a/relu_5x5_reduce <- inception_5a/5x5_reduce
I0403 19:07:23.153882 18797 net.cpp:386] inception_5a/relu_5x5_reduce -> inception_5a/5x5_reduce (in-place)
I0403 19:07:23.154196 18797 net.cpp:141] Setting up inception_5a/relu_5x5_reduce
I0403 19:07:23.154223 18797 net.cpp:148] Top shape: 24 32 7 7 (37632)
I0403 19:07:23.154240 18797 net.cpp:156] Memory required for data: 1299351072
I0403 19:07:23.154256 18797 layer_factory.hpp:77] Creating layer inception_5a/5x5
I0403 19:07:23.154280 18797 net.cpp:91] Creating Layer inception_5a/5x5
I0403 19:07:23.154299 18797 net.cpp:425] inception_5a/5x5 <- inception_5a/5x5_reduce
I0403 19:07:23.154320 18797 net.cpp:399] inception_5a/5x5 -> inception_5a/5x5
I0403 19:07:23.156028 18797 net.cpp:141] Setting up inception_5a/5x5
I0403 19:07:23.156067 18797 net.cpp:148] Top shape: 24 128 7 7 (150528)
I0403 19:07:23.156085 18797 net.cpp:156] Memory required for data: 1299953184
I0403 19:07:23.156102 18797 layer_factory.hpp:77] Creating layer inception_5a/relu_5x5
I0403 19:07:23.156123 18797 net.cpp:91] Creating Layer inception_5a/relu_5x5
I0403 19:07:23.156141 18797 net.cpp:425] inception_5a/relu_5x5 <- inception_5a/5x5
I0403 19:07:23.156158 18797 net.cpp:386] inception_5a/relu_5x5 -> inception_5a/5x5 (in-place)
I0403 19:07:23.156348 18797 net.cpp:141] Setting up inception_5a/relu_5x5
I0403 19:07:23.156375 18797 net.cpp:148] Top shape: 24 128 7 7 (150528)
I0403 19:07:23.156391 18797 net.cpp:156] Memory required for data: 1300555296
I0403 19:07:23.156407 18797 layer_factory.hpp:77] Creating layer inception_5a/pool
I0403 19:07:23.156425 18797 net.cpp:91] Creating Layer inception_5a/pool
I0403 19:07:23.156441 18797 net.cpp:425] inception_5a/pool <- pool4/3x3_s2_pool4/3x3_s2_0_split_3
I0403 19:07:23.156463 18797 net.cpp:399] inception_5a/pool -> inception_5a/pool
I0403 19:07:23.156534 18797 net.cpp:141] Setting up inception_5a/pool
I0403 19:07:23.156559 18797 net.cpp:148] Top shape: 24 832 7 7 (978432)
I0403 19:07:23.156574 18797 net.cpp:156] Memory required for data: 1304469024
I0403 19:07:23.156589 18797 layer_factory.hpp:77] Creating layer inception_5a/pool_proj
I0403 19:07:23.156611 18797 net.cpp:91] Creating Layer inception_5a/pool_proj
I0403 19:07:23.156630 18797 net.cpp:425] inception_5a/pool_proj <- inception_5a/pool
I0403 19:07:23.156652 18797 net.cpp:399] inception_5a/pool_proj -> inception_5a/pool_proj
I0403 19:07:23.158895 18797 net.cpp:141] Setting up inception_5a/pool_proj
I0403 19:07:23.158924 18797 net.cpp:148] Top shape: 24 128 7 7 (150528)
I0403 19:07:23.158941 18797 net.cpp:156] Memory required for data: 1305071136
I0403 19:07:23.158959 18797 layer_factory.hpp:77] Creating layer inception_5a/relu_pool_proj
I0403 19:07:23.158989 18797 net.cpp:91] Creating Layer inception_5a/relu_pool_proj
I0403 19:07:23.159011 18797 net.cpp:425] inception_5a/relu_pool_proj <- inception_5a/pool_proj
I0403 19:07:23.159030 18797 net.cpp:386] inception_5a/relu_pool_proj -> inception_5a/pool_proj (in-place)
I0403 19:07:23.159325 18797 net.cpp:141] Setting up inception_5a/relu_pool_proj
I0403 19:07:23.159351 18797 net.cpp:148] Top shape: 24 128 7 7 (150528)
I0403 19:07:23.159368 18797 net.cpp:156] Memory required for data: 1305673248
I0403 19:07:23.159384 18797 layer_factory.hpp:77] Creating layer inception_5a/output
I0403 19:07:23.159401 18797 net.cpp:91] Creating Layer inception_5a/output
I0403 19:07:23.159418 18797 net.cpp:425] inception_5a/output <- inception_5a/1x1
I0403 19:07:23.159435 18797 net.cpp:425] inception_5a/output <- inception_5a/3x3
I0403 19:07:23.159453 18797 net.cpp:425] inception_5a/output <- inception_5a/5x5
I0403 19:07:23.159469 18797 net.cpp:425] inception_5a/output <- inception_5a/pool_proj
I0403 19:07:23.159489 18797 net.cpp:399] inception_5a/output -> inception_5a/output
I0403 19:07:23.159543 18797 net.cpp:141] Setting up inception_5a/output
I0403 19:07:23.159566 18797 net.cpp:148] Top shape: 24 832 7 7 (978432)
I0403 19:07:23.159581 18797 net.cpp:156] Memory required for data: 1309586976
I0403 19:07:23.159597 18797 layer_factory.hpp:77] Creating layer inception_5a/output_inception_5a/output_0_split
I0403 19:07:23.159615 18797 net.cpp:91] Creating Layer inception_5a/output_inception_5a/output_0_split
I0403 19:07:23.159631 18797 net.cpp:425] inception_5a/output_inception_5a/output_0_split <- inception_5a/output
I0403 19:07:23.159652 18797 net.cpp:399] inception_5a/output_inception_5a/output_0_split -> inception_5a/output_inception_5a/output_0_split_0
I0403 19:07:23.159673 18797 net.cpp:399] inception_5a/output_inception_5a/output_0_split -> inception_5a/output_inception_5a/output_0_split_1
I0403 19:07:23.159695 18797 net.cpp:399] inception_5a/output_inception_5a/output_0_split -> inception_5a/output_inception_5a/output_0_split_2
I0403 19:07:23.159718 18797 net.cpp:399] inception_5a/output_inception_5a/output_0_split -> inception_5a/output_inception_5a/output_0_split_3
I0403 19:07:23.159828 18797 net.cpp:141] Setting up inception_5a/output_inception_5a/output_0_split
I0403 19:07:23.159854 18797 net.cpp:148] Top shape: 24 832 7 7 (978432)
I0403 19:07:23.159873 18797 net.cpp:148] Top shape: 24 832 7 7 (978432)
I0403 19:07:23.159889 18797 net.cpp:148] Top shape: 24 832 7 7 (978432)
I0403 19:07:23.159905 18797 net.cpp:148] Top shape: 24 832 7 7 (978432)
I0403 19:07:23.159920 18797 net.cpp:156] Memory required for data: 1325241888
I0403 19:07:23.159935 18797 layer_factory.hpp:77] Creating layer inception_5b/1x1
I0403 19:07:23.159957 18797 net.cpp:91] Creating Layer inception_5b/1x1
I0403 19:07:23.159976 18797 net.cpp:425] inception_5b/1x1 <- inception_5a/output_inception_5a/output_0_split_0
I0403 19:07:23.160015 18797 net.cpp:399] inception_5b/1x1 -> inception_5b/1x1
I0403 19:07:23.163816 18797 net.cpp:141] Setting up inception_5b/1x1
I0403 19:07:23.163847 18797 net.cpp:148] Top shape: 24 384 7 7 (451584)
I0403 19:07:23.163864 18797 net.cpp:156] Memory required for data: 1327048224
I0403 19:07:23.163883 18797 layer_factory.hpp:77] Creating layer inception_5b/relu_1x1
I0403 19:07:23.163905 18797 net.cpp:91] Creating Layer inception_5b/relu_1x1
I0403 19:07:23.163923 18797 net.cpp:425] inception_5b/relu_1x1 <- inception_5b/1x1
I0403 19:07:23.163943 18797 net.cpp:386] inception_5b/relu_1x1 -> inception_5b/1x1 (in-place)
I0403 19:07:23.164255 18797 net.cpp:141] Setting up inception_5b/relu_1x1
I0403 19:07:23.164283 18797 net.cpp:148] Top shape: 24 384 7 7 (451584)
I0403 19:07:23.164299 18797 net.cpp:156] Memory required for data: 1328854560
I0403 19:07:23.164314 18797 layer_factory.hpp:77] Creating layer inception_5b/3x3_reduce
I0403 19:07:23.164337 18797 net.cpp:91] Creating Layer inception_5b/3x3_reduce
I0403 19:07:23.164357 18797 net.cpp:425] inception_5b/3x3_reduce <- inception_5a/output_inception_5a/output_0_split_1
I0403 19:07:23.164381 18797 net.cpp:399] inception_5b/3x3_reduce -> inception_5b/3x3_reduce
I0403 19:07:23.167068 18797 net.cpp:141] Setting up inception_5b/3x3_reduce
I0403 19:07:23.167098 18797 net.cpp:148] Top shape: 24 192 7 7 (225792)
I0403 19:07:23.167114 18797 net.cpp:156] Memory required for data: 1329757728
I0403 19:07:23.167134 18797 layer_factory.hpp:77] Creating layer inception_5b/relu_3x3_reduce
I0403 19:07:23.167156 18797 net.cpp:91] Creating Layer inception_5b/relu_3x3_reduce
I0403 19:07:23.167176 18797 net.cpp:425] inception_5b/relu_3x3_reduce <- inception_5b/3x3_reduce
I0403 19:07:23.167193 18797 net.cpp:386] inception_5b/relu_3x3_reduce -> inception_5b/3x3_reduce (in-place)
I0403 19:07:23.167388 18797 net.cpp:141] Setting up inception_5b/relu_3x3_reduce
I0403 19:07:23.167417 18797 net.cpp:148] Top shape: 24 192 7 7 (225792)
I0403 19:07:23.167433 18797 net.cpp:156] Memory required for data: 1330660896
I0403 19:07:23.167449 18797 layer_factory.hpp:77] Creating layer inception_5b/3x3
I0403 19:07:23.167470 18797 net.cpp:91] Creating Layer inception_5b/3x3
I0403 19:07:23.167489 18797 net.cpp:425] inception_5b/3x3 <- inception_5b/3x3_reduce
I0403 19:07:23.167510 18797 net.cpp:399] inception_5b/3x3 -> inception_5b/3x3
I0403 19:07:23.174279 18797 net.cpp:141] Setting up inception_5b/3x3
I0403 19:07:23.174310 18797 net.cpp:148] Top shape: 24 384 7 7 (451584)
I0403 19:07:23.174327 18797 net.cpp:156] Memory required for data: 1332467232
I0403 19:07:23.174347 18797 layer_factory.hpp:77] Creating layer inception_5b/relu_3x3
I0403 19:07:23.174370 18797 net.cpp:91] Creating Layer inception_5b/relu_3x3
I0403 19:07:23.174388 18797 net.cpp:425] inception_5b/relu_3x3 <- inception_5b/3x3
I0403 19:07:23.174407 18797 net.cpp:386] inception_5b/relu_3x3 -> inception_5b/3x3 (in-place)
I0403 19:07:23.174728 18797 net.cpp:141] Setting up inception_5b/relu_3x3
I0403 19:07:23.174756 18797 net.cpp:148] Top shape: 24 384 7 7 (451584)
I0403 19:07:23.174772 18797 net.cpp:156] Memory required for data: 1334273568
I0403 19:07:23.174787 18797 layer_factory.hpp:77] Creating layer inception_5b/5x5_reduce
I0403 19:07:23.174826 18797 net.cpp:91] Creating Layer inception_5b/5x5_reduce
I0403 19:07:23.174847 18797 net.cpp:425] inception_5b/5x5_reduce <- inception_5a/output_inception_5a/output_0_split_2
I0403 19:07:23.174871 18797 net.cpp:399] inception_5b/5x5_reduce -> inception_5b/5x5_reduce
I0403 19:07:23.176172 18797 net.cpp:141] Setting up inception_5b/5x5_reduce
I0403 19:07:23.176200 18797 net.cpp:148] Top shape: 24 48 7 7 (56448)
I0403 19:07:23.176218 18797 net.cpp:156] Memory required for data: 1334499360
I0403 19:07:23.176236 18797 layer_factory.hpp:77] Creating layer inception_5b/relu_5x5_reduce
I0403 19:07:23.176257 18797 net.cpp:91] Creating Layer inception_5b/relu_5x5_reduce
I0403 19:07:23.176276 18797 net.cpp:425] inception_5b/relu_5x5_reduce <- inception_5b/5x5_reduce
I0403 19:07:23.176295 18797 net.cpp:386] inception_5b/relu_5x5_reduce -> inception_5b/5x5_reduce (in-place)
I0403 19:07:23.176672 18797 net.cpp:141] Setting up inception_5b/relu_5x5_reduce
I0403 19:07:23.176699 18797 net.cpp:148] Top shape: 24 48 7 7 (56448)
I0403 19:07:23.176715 18797 net.cpp:156] Memory required for data: 1334725152
I0403 19:07:23.176731 18797 layer_factory.hpp:77] Creating layer inception_5b/5x5
I0403 19:07:23.176753 18797 net.cpp:91] Creating Layer inception_5b/5x5
I0403 19:07:23.176771 18797 net.cpp:425] inception_5b/5x5 <- inception_5b/5x5_reduce
I0403 19:07:23.176791 18797 net.cpp:399] inception_5b/5x5 -> inception_5b/5x5
I0403 19:07:23.178879 18797 net.cpp:141] Setting up inception_5b/5x5
I0403 19:07:23.178906 18797 net.cpp:148] Top shape: 24 128 7 7 (150528)
I0403 19:07:23.178922 18797 net.cpp:156] Memory required for data: 1335327264
I0403 19:07:23.178941 18797 layer_factory.hpp:77] Creating layer inception_5b/relu_5x5
I0403 19:07:23.178963 18797 net.cpp:91] Creating Layer inception_5b/relu_5x5
I0403 19:07:23.178989 18797 net.cpp:425] inception_5b/relu_5x5 <- inception_5b/5x5
I0403 19:07:23.179011 18797 net.cpp:386] inception_5b/relu_5x5 -> inception_5b/5x5 (in-place)
I0403 19:07:23.179205 18797 net.cpp:141] Setting up inception_5b/relu_5x5
I0403 19:07:23.179232 18797 net.cpp:148] Top shape: 24 128 7 7 (150528)
I0403 19:07:23.179247 18797 net.cpp:156] Memory required for data: 1335929376
I0403 19:07:23.179263 18797 layer_factory.hpp:77] Creating layer inception_5b/pool
I0403 19:07:23.179281 18797 net.cpp:91] Creating Layer inception_5b/pool
I0403 19:07:23.179298 18797 net.cpp:425] inception_5b/pool <- inception_5a/output_inception_5a/output_0_split_3
I0403 19:07:23.179319 18797 net.cpp:399] inception_5b/pool -> inception_5b/pool
I0403 19:07:23.179393 18797 net.cpp:141] Setting up inception_5b/pool
I0403 19:07:23.179416 18797 net.cpp:148] Top shape: 24 832 7 7 (978432)
I0403 19:07:23.179431 18797 net.cpp:156] Memory required for data: 1339843104
I0403 19:07:23.179446 18797 layer_factory.hpp:77] Creating layer inception_5b/pool_proj
I0403 19:07:23.179471 18797 net.cpp:91] Creating Layer inception_5b/pool_proj
I0403 19:07:23.179489 18797 net.cpp:425] inception_5b/pool_proj <- inception_5b/pool
I0403 19:07:23.179508 18797 net.cpp:399] inception_5b/pool_proj -> inception_5b/pool_proj
I0403 19:07:23.181773 18797 net.cpp:141] Setting up inception_5b/pool_proj
I0403 19:07:23.181802 18797 net.cpp:148] Top shape: 24 128 7 7 (150528)
I0403 19:07:23.181818 18797 net.cpp:156] Memory required for data: 1340445216
I0403 19:07:23.181838 18797 layer_factory.hpp:77] Creating layer inception_5b/relu_pool_proj
I0403 19:07:23.181859 18797 net.cpp:91] Creating Layer inception_5b/relu_pool_proj
I0403 19:07:23.181876 18797 net.cpp:425] inception_5b/relu_pool_proj <- inception_5b/pool_proj
I0403 19:07:23.181895 18797 net.cpp:386] inception_5b/relu_pool_proj -> inception_5b/pool_proj (in-place)
I0403 19:07:23.182209 18797 net.cpp:141] Setting up inception_5b/relu_pool_proj
I0403 19:07:23.182236 18797 net.cpp:148] Top shape: 24 128 7 7 (150528)
I0403 19:07:23.182252 18797 net.cpp:156] Memory required for data: 1341047328
I0403 19:07:23.182268 18797 layer_factory.hpp:77] Creating layer inception_5b/output
I0403 19:07:23.182289 18797 net.cpp:91] Creating Layer inception_5b/output
I0403 19:07:23.182320 18797 net.cpp:425] inception_5b/output <- inception_5b/1x1
I0403 19:07:23.182340 18797 net.cpp:425] inception_5b/output <- inception_5b/3x3
I0403 19:07:23.182358 18797 net.cpp:425] inception_5b/output <- inception_5b/5x5
I0403 19:07:23.182375 18797 net.cpp:425] inception_5b/output <- inception_5b/pool_proj
I0403 19:07:23.182394 18797 net.cpp:399] inception_5b/output -> inception_5b/output
I0403 19:07:23.182451 18797 net.cpp:141] Setting up inception_5b/output
I0403 19:07:23.182487 18797 net.cpp:148] Top shape: 24 1024 7 7 (1204224)
I0403 19:07:23.182502 18797 net.cpp:156] Memory required for data: 1345864224
I0403 19:07:23.182518 18797 layer_factory.hpp:77] Creating layer pool5/7x7_s1
I0403 19:07:23.182536 18797 net.cpp:91] Creating Layer pool5/7x7_s1
I0403 19:07:23.182553 18797 net.cpp:425] pool5/7x7_s1 <- inception_5b/output
I0403 19:07:23.182574 18797 net.cpp:399] pool5/7x7_s1 -> pool5/7x7_s1
I0403 19:07:23.182790 18797 net.cpp:141] Setting up pool5/7x7_s1
I0403 19:07:23.182814 18797 net.cpp:148] Top shape: 24 1024 1 1 (24576)
I0403 19:07:23.182833 18797 net.cpp:156] Memory required for data: 1345962528
I0403 19:07:23.182849 18797 layer_factory.hpp:77] Creating layer pool5/drop_7x7_s1
I0403 19:07:23.182868 18797 net.cpp:91] Creating Layer pool5/drop_7x7_s1
I0403 19:07:23.182884 18797 net.cpp:425] pool5/drop_7x7_s1 <- pool5/7x7_s1
I0403 19:07:23.182903 18797 net.cpp:386] pool5/drop_7x7_s1 -> pool5/7x7_s1 (in-place)
I0403 19:07:23.182955 18797 net.cpp:141] Setting up pool5/drop_7x7_s1
I0403 19:07:23.182981 18797 net.cpp:148] Top shape: 24 1024 1 1 (24576)
I0403 19:07:23.182997 18797 net.cpp:156] Memory required for data: 1346060832
I0403 19:07:23.183012 18797 layer_factory.hpp:77] Creating layer loss3/classifier_plantvillage
I0403 19:07:23.183035 18797 net.cpp:91] Creating Layer loss3/classifier_plantvillage
I0403 19:07:23.183053 18797 net.cpp:425] loss3/classifier_plantvillage <- pool5/7x7_s1
I0403 19:07:23.183073 18797 net.cpp:399] loss3/classifier_plantvillage -> loss3/classifier_plantvillage
I0403 19:07:23.183490 18797 net.cpp:141] Setting up loss3/classifier_plantvillage
I0403 19:07:23.183513 18797 net.cpp:148] Top shape: 24 38 (912)
I0403 19:07:23.183529 18797 net.cpp:156] Memory required for data: 1346064480
I0403 19:07:23.183548 18797 layer_factory.hpp:77] Creating layer loss3/classifier_plantvillage_loss3/classifier_plantvillage_0_split
I0403 19:07:23.183567 18797 net.cpp:91] Creating Layer loss3/classifier_plantvillage_loss3/classifier_plantvillage_0_split
I0403 19:07:23.183583 18797 net.cpp:425] loss3/classifier_plantvillage_loss3/classifier_plantvillage_0_split <- loss3/classifier_plantvillage
I0403 19:07:23.183604 18797 net.cpp:399] loss3/classifier_plantvillage_loss3/classifier_plantvillage_0_split -> loss3/classifier_plantvillage_loss3/classifier_plantvillage_0_split_0
I0403 19:07:23.183626 18797 net.cpp:399] loss3/classifier_plantvillage_loss3/classifier_plantvillage_0_split -> loss3/classifier_plantvillage_loss3/classifier_plantvillage_0_split_1
I0403 19:07:23.183647 18797 net.cpp:399] loss3/classifier_plantvillage_loss3/classifier_plantvillage_0_split -> loss3/classifier_plantvillage_loss3/classifier_plantvillage_0_split_2
I0403 19:07:23.183668 18797 net.cpp:399] loss3/classifier_plantvillage_loss3/classifier_plantvillage_0_split -> loss3/classifier_plantvillage_loss3/classifier_plantvillage_0_split_3
I0403 19:07:23.183770 18797 net.cpp:141] Setting up loss3/classifier_plantvillage_loss3/classifier_plantvillage_0_split
I0403 19:07:23.183795 18797 net.cpp:148] Top shape: 24 38 (912)
I0403 19:07:23.183814 18797 net.cpp:148] Top shape: 24 38 (912)
I0403 19:07:23.183830 18797 net.cpp:148] Top shape: 24 38 (912)
I0403 19:07:23.183845 18797 net.cpp:148] Top shape: 24 38 (912)
I0403 19:07:23.183861 18797 net.cpp:156] Memory required for data: 1346079072
I0403 19:07:23.183876 18797 layer_factory.hpp:77] Creating layer loss1/loss
I0403 19:07:23.183897 18797 net.cpp:91] Creating Layer loss1/loss
I0403 19:07:23.183915 18797 net.cpp:425] loss1/loss <- loss1/classifier_plantvillage_loss1/classifier_plantvillage_0_split_0
I0403 19:07:23.183946 18797 net.cpp:425] loss1/loss <- label_data_1_split_0
…
