…
I0403 19:12:56.961925 19115 net.cpp:313] The NetState phase (1) differed from the phase (0) specified by a rule in layer data
I0403 19:12:56.963136 19115 net.cpp:49] Initializing net from parameters: 
state {
  phase: TEST
}
layer {
  name: "data"
  type: "Data"
  top: "data"
  top: "label"
  include {
    phase: TEST
  }
  transform_param {
    mirror: false
    crop_size: 224
    mean_file: "/home/mohanty/data/final_dataset/lmdb/segmented-60-40/mean.binaryproto"
  }
  data_param {
    source: "/home/mohanty/data/final_dataset/lmdb/segmented-60-40/test_db"
    batch_size: 24
    backend: LMDB
  }
}
layer {
  name: "conv1/7x7_s2"
  type: "Convolution"
  bottom: "data"
  top: "conv1/7x7_s2"
  param {
    lr_mult: 1
    decay_mult: 1
  }
  param {
    lr_mult: 2
    decay_mult: 0
  }
  convolution_param {
    num_output: 64
    pad: 3
    kernel_size: 7
    stride: 2
    weight_filler {
      type: "xavier"
      std: 0.1
    }
    bias_filler {
      type: "constant"
      value: 0.2
    }
  }
}
layer {
  name: "conv1/relu_7x7"
  type: "ReLU"
  bottom: "conv1/7x7_s2"
  top: "conv1/7x7_s2"
}
layer {
  name: "pool1/3x3_s2"
  type: "Pooling"
  bottom: "conv1/7x7_s2"
  top: "pool1/3x3_s2"
  pooling_param {
    pool: MAX
    kernel_size: 3
    stride: 2
  }
}
layer {
  name: "pool1/norm1"
  type: "LRN"
  bottom: "pool1/3x3_s2"
  top: "pool1/norm1"
  lrn_param {
    local_size: 5
    alpha: 0.0001
    beta: 0.75
  }
}
layer {
  name: "conv2/3x3_reduce"
  type: "Convolution"
  bottom: "pool1/norm1"
  top: "conv2/3x3_reduce"
  param {
    lr_mult: 1
    decay_mult: 1
  }
  param {
    lr_mult: 2
    decay_mult: 0
  }
  convolution_param {
    num_output: 64
    kernel_size: 1
    weight_filler {
      type: "xavier"
      std: 0.1
    }
    bias_filler {
      type: "constant"
      value: 0.2
    }
  }
}
layer {
  name: "conv2/relu_3x3_reduce"
  type: "ReLU"
  bottom: "conv2/3x3_reduce"
  top: "conv2/3x3_reduce"
}
layer {
  name: "conv2/3x3"
  type: "Convolution"
  bottom: "conv2/3x3_reduce"
  top: "conv2/3x3"
  param {
    lr_mult: 1
    decay_mult: 1
  }
  param {
    lr_mult: 2
    decay_mult: 0
  }
  convolution_param {
    num_output: 192
    pad: 1
    kernel_size: 3
    weight_filler {
      type: "xavier"
      std: 0.03
    }
    bias_filler {
      type: "constant"
      value: 0.2
    }
  }
}
layer {
  name: "conv2/relu_3x3"
  type: "ReLU"
  bottom: "conv2/3x3"
  top: "conv2/3x3"
}
layer {
  name: "conv2/norm2"
  type: "LRN"
  bottom: "conv2/3x3"
  top: "conv2/norm2"
  lrn_param {
    local_size: 5
    alpha: 0.0001
    beta: 0.75
  }
}
layer {
  name: "pool2/3x3_s2"
  type: "Pooling"
  bottom: "conv2/norm2"
  top: "pool2/3x3_s2"
  pooling_param {
    pool: MAX
    kernel_size: 3
    stride: 2
  }
}
layer {
  name: "inception_3a/1x1"
  type: "Convolution"
  bottom: "pool2/3x3_s2"
  top: "inception_3a/1x1"
  param {
    lr_mult: 1
    decay_mult: 1
  }
  param {
    lr_mult: 2
    decay_mult: 0
  }
  convolution_param {
    num_output: 64
    kernel_size: 1
    weight_filler {
      type: "xavier"
      std: 0.03
    }
    bias_filler {
      type: "constant"
      value: 0.2
    }
  }
}
layer {
  name: "inception_3a/relu_1x1"
  type: "ReLU"
  bottom: "inception_3a/1x1"
  top: "inception_3a/1x1"
}
layer {
  name: "inception_3a/3x3_reduce"
  type: "Convolution"
  bottom: "pool2/3x3_s2"
  top: "inception_3a/3x3_reduce"
  param {
    lr_mult: 1
    decay_mult: 1
  }
  param {
    lr_mult: 2
    decay_mult: 0
  }
  convolution_param {
    num_output: 96
    kernel_size: 1
    weight_filler {
      type: "xavier"
      std: 0.09
    }
    bias_filler {
      type: "constant"
      value: 0.2
    }
  }
}
layer {
  name: "inception_3a/relu_3x3_reduce"
  type: "ReLU"
  bottom: "inception_3a/3x3_reduce"
  top: "inception_3a/3x3_reduce"
}
layer {
  name: "inception_3a/3x3"
  type: "Convolution"
  bottom: "inception_3a/3x3_reduce"
  top: "inception_3a/3x3"
  param {
    lr_mult: 1
    decay_mult: 1
  }
  param {
    lr_mult: 2
    decay_mult: 0
  }
  convolution_param {
    num_output: 128
    pad: 1
    kernel_size: 3
    weight_filler {
      type: "xavier"
      std: 0.03
    }
    bias_filler {
      type: "constant"
      value: 0.2
    }
  }
}
layer {
  name: "inception_3a/relu_3x3"
  type: "ReLU"
  bottom: "inception_3a/3x3"
  top: "inception_3a/3x3"
}
layer {
  name: "inception_3a/5x5_reduce"
  type: "Convolution"
  bottom: "pool2/3x3_s2"
  top: "inception_3a/5x5_reduce"
  param {
    lr_mult: 1
    decay_mult: 1
  }
  param {
    lr_mult: 2
    decay_mult: 0
  }
  convolution_param {
    num_output: 16
    kernel_size: 1
    weight_filler {
      type: "xavier"
      std: 0.2
    }
    bias_filler {
      type: "constant"
      value: 0.2
    }
  }
}
layer {
  name: "inception_3a/relu_5x5_reduce"
  type: "ReLU"
  bottom: "inception_3a/5x5_reduce"
  top: "inception_3a/5x5_reduce"
}
layer {
  name: "inception_3a/5x5"
  type: "Convolution"
  bottom: "inception_3a/5x5_reduce"
  top: "inception_3a/5x5"
  param {
    lr_mult: 1
    decay_mult: 1
  }
  param {
    lr_mult: 2
    decay_mult: 0
  }
  convolution_param {
    num_output: 32
    pad: 2
    kernel_size: 5
    weight_filler {
      type: "xavier"
      std: 0.03
    }
    bias_filler {
      type: "constant"
      value: 0.2
    }
  }
}
layer {
  name: "inception_3a/relu_5x5"
  type: "ReLU"
  bottom: "inception_3a/5x5"
  top: "inception_3a/5x5"
}
layer {
  name: "inception_3a/pool"
  type: "Pooling"
  bottom: "pool2/3x3_s2"
  top: "inception_3a/pool"
  pooling_param {
    pool: MAX
    kernel_size: 3
    stride: 1
    pad: 1
  }
}
layer {
  name: "inception_3a/pool_proj"
  type: "Convolution"
  bottom: "inception_3a/pool"
  top: "inception_3a/pool_proj"
  param {
    lr_mult: 1
    decay_mult: 1
  }
  param {
    lr_mult: 2
    decay_mult: 0
  }
  convolution_param {
    num_output: 32
    kernel_size: 1
    weight_filler {
      type: "xavier"
      std: 0.1
    }
    bias_filler {
      type: "constant"
      value: 0.2
    }
  }
}
layer {
  name: "inception_3a/relu_pool_proj"
  type: "ReLU"
  bottom: "inception_3a/pool_proj"
  top: "inception_3a/pool_proj"
}
layer {
  name: "inception_3a/output"
  type: "Concat"
  bottom: "inception_3a/1x1"
  bottom: "inception_3a/3x3"
  bottom: "inception_3a/5x5"
  bottom: "inception_3a/pool_proj"
  top: "inception_3a/output"
}
layer {
  name: "inception_3b/1x1"
  type: "Convolution"
  bottom: "inception_3a/output"
  top: "inception_3b/1x1"
  param {
    lr_mult: 1
    decay_mult: 1
  }
  param {
    lr_mult: 2
    decay_mult: 0
  }
  convolution_param {
    num_output: 128
    kernel_size: 1
    weight_filler {
      type: "xavier"
      std: 0.03
    }
    bias_filler {
      type: "constant"
      value: 0.2
    }
  }
}
layer {
  name: "inception_3b/relu_1x1"
  type: "ReLU"
  bottom: "inception_3b/1x1"
  top: "inception_3b/1x1"
}
layer {
  name: "inception_3b/3x3_reduce"
  type: "Convolution"
  bottom: "inception_3a/output"
  top: "inception_3b/3x3_reduce"
  param {
    lr_mult: 1
    decay_mult: 1
  }
  param {
    lr_mult: 2
    decay_mult: 0
  }
  convolution_param {
    num_output: 128
    kernel_size: 1
    weight_filler {
      type: "xavier"
      std: 0.09
    }
    bias_filler {
      type: "constant"
      value: 0.2
    }
  }
}
layer {
  name: "inception_3b/relu_3x3_reduce"
  type: "ReLU"
  bottom: "inception_3b/3x3_reduce"
  top: "inception_3b/3x3_reduce"
}
layer {
  name: "inception_3b/3x3"
  type: "Convolution"
  bottom: "inception_3b/3x3_reduce"
  top: "inception_3b/3x3"
  param {
    lr_mult: 1
    decay_mult: 1
  }
  param {
    lr_mult: 2
    decay_mult: 0
  }
  convolution_param {
    num_output: 192
    pad: 1
    kernel_size: 3
    weight_filler {
      type: "xavier"
      std: 0.03
    }
    bias_filler {
      type: "constant"
      value: 0.2
    }
  }
}
layer {
  name: "inception_3b/relu_3x3"
  type: "ReLU"
  bottom: "inception_3b/3x3"
  top: "inception_3b/3x3"
}
layer {
  name: "inception_3b/5x5_reduce"
  type: "Convolution"
  bottom: "inception_3a/output"
  top: "inception_3b/5x5_reduce"
  param {
    lr_mult: 1
    decay_mult: 1
  }
  param {
    lr_mult: 2
    decay_mult: 0
  }
  convolution_param {
    num_output: 32
    kernel_size: 1
    weight_filler {
      type: "xavier"
      std: 0.2
    }
    bias_filler {
      type: "constant"
      value: 0.2
    }
  }
}
layer {
  name: "inception_3b/relu_5x5_reduce"
  type: "ReLU"
  bottom: "inception_3b/5x5_reduce"
  top: "inception_3b/5x5_reduce"
}
layer {
  name: "inception_3b/5x5"
  type: "Convolution"
  bottom: "inception_3b/5x5_reduce"
  top: "inception_3b/5x5"
  param {
    lr_mult: 1
    decay_mult: 1
  }
  param {
    lr_mult: 2
    decay_mult: 0
  }
  convolution_param {
    num_output: 96
    pad: 2
    kernel_size: 5
    weight_filler {
      type: "xavier"
      std: 0.03
    }
    bias_filler {
      type: "constant"
      value: 0.2
    }
  }
}
layer {
  name: "inception_3b/relu_5x5"
  type: "ReLU"
  bottom: "inception_3b/5x5"
  top: "inception_3b/5x5"
}
layer {
  name: "inception_3b/pool"
  type: "Pooling"
  bottom: "inception_3a/output"
  top: "inception_3b/pool"
  pooling_param {
    pool: MAX
    kernel_size: 3
    stride: 1
    pad: 1
  }
}
layer {
  name: "inception_3b/pool_proj"
  type: "Convolution"
  bottom: "inception_3b/pool"
  top: "inception_3b/pool_proj"
  param {
    lr_mult: 1
    decay_mult: 1
  }
  param {
    lr_mult: 2
    decay_mult: 0
  }
  convolution_param {
    num_output: 64
    kernel_size: 1
    weight_filler {
      type: "xavier"
      std: 0.1
    }
    bias_filler {
      type: "constant"
      value: 0.2
    }
  }
}
layer {
  name: "inception_3b/relu_pool_proj"
  type: "ReLU"
  bottom: "inception_3b/pool_proj"
  top: "inception_3b/pool_proj"
}
layer {
  name: "inception_3b/output"
  type: "Concat"
  bottom: "inception_3b/1x1"
  bottom: "inception_3b/3x3"
  bottom: "inception_3b/5x5"
  bottom: "inception_3b/pool_proj"
  top: "inception_3b/output"
}
layer {
  name: "pool3/3x3_s2"
  type: "Pooling"
  bottom: "inception_3b/output"
  top: "pool3/3x3_s2"
  pooling_param {
    pool: MAX
    kernel_size: 3
    stride: 2
  }
}
layer {
  name: "inception_4a/1x1"
  type: "Convolution"
  bottom: "pool3/3x3_s2"
  top: "inception_4a/1x1"
  param {
    lr_mult: 1
    decay_mult: 1
  }
  param {
    lr_mult: 2
    decay_mult: 0
  }
  convolution_param {
    num_output: 192
    kernel_size: 1
    weight_filler {
      type: "xavier"
      std: 0.03
    }
    bias_filler {
      type: "constant"
      value: 0.2
    }
  }
}
layer {
  name: "inception_4a/relu_1x1"
  type: "ReLU"
  bottom: "inception_4a/1x1"
  top: "inception_4a/1x1"
}
layer {
  name: "inception_4a/3x3_reduce"
  type: "Convolution"
  bottom: "pool3/3x3_s2"
  top: "inception_4a/3x3_reduce"
  param {
    lr_mult: 1
    decay_mult: 1
  }
  param {
    lr_mult: 2
    decay_mult: 0
  }
  convolution_param {
    num_output: 96
    kernel_size: 1
    weight_filler {
      type: "xavier"
      std: 0.09
    }
    bias_filler {
      type: "constant"
      value: 0.2
    }
  }
}
layer {
  name: "inception_4a/relu_3x3_reduce"
  type: "ReLU"
  bottom: "inception_4a/3x3_reduce"
  top: "inception_4a/3x3_reduce"
}
layer {
  name: "inception_4a/3x3"
  type: "Convolution"
  bottom: "inception_4a/3x3_reduce"
  top: "inception_4a/3x3"
  param {
    lr_mult: 1
    decay_mult: 1
  }
  param {
    lr_mult: 2
    decay_mult: 0
  }
  convolution_param {
    num_output: 208
    pad: 1
    kernel_size: 3
    weight_filler {
      type: "xavier"
      std: 0.03
    }
    bias_filler {
      type: "constant"
      value: 0.2
    }
  }
}
layer {
  name: "inception_4a/relu_3x3"
  type: "ReLU"
  bottom: "inception_4a/3x3"
  top: "inception_4a/3x3"
}
layer {
  name: "inception_4a/5x5_reduce"
  type: "Convolution"
  bottom: "pool3/3x3_s2"
  top: "inception_4a/5x5_reduce"
  param {
    lr_mult: 1
    decay_mult: 1
  }
  param {
    lr_mult: 2
    decay_mult: 0
  }
  convolution_param {
    num_output: 16
    kernel_size: 1
    weight_filler {
      type: "xavier"
      std: 0.2
    }
    bias_filler {
      type: "constant"
      value: 0.2
    }
  }
}
layer {
  name: "inception_4a/relu_5x5_reduce"
  type: "ReLU"
  bottom: "inception_4a/5x5_reduce"
  top: "inception_4a/5x5_reduce"
}
layer {
  name: "inception_4a/5x5"
  type: "Convolution"
  bottom: "inception_4a/5x5_reduce"
  top: "inception_4a/5x5"
  param {
    lr_mult: 1
    decay_mult: 1
  }
  param {
    lr_mult: 2
    decay_mult: 0
  }
  convolution_param {
    num_output: 48
    pad: 2
    kernel_size: 5
    weight_filler {
      type: "xavier"
      std: 0.03
    }
    bias_filler {
      type: "constant"
      value: 0.2
    }
  }
}
layer {
  name: "inception_4a/relu_5x5"
  type: "ReLU"
  bottom: "inception_4a/5x5"
  top: "inception_4a/5x5"
}
layer {
  name: "inception_4a/pool"
  type: "Pooling"
  bottom: "pool3/3x3_s2"
  top: "inception_4a/pool"
  pooling_param {
    pool: MAX
    kernel_size: 3
    stride: 1
    pad: 1
  }
}
layer {
  name: "inception_4a/pool_proj"
  type: "Convolution"
  bottom: "inception_4a/pool"
  top: "inception_4a/pool_proj"
  param {
    lr_mult: 1
    decay_mult: 1
  }
  param {
    lr_mult: 2
    decay_mult: 0
  }
  convolution_param {
    num_output: 64
    kernel_size: 1
    weight_filler {
      type: "xavier"
      std: 0.1
    }
    bias_filler {
      type: "constant"
      value: 0.2
    }
  }
}
layer {
  name: "inception_4a/relu_pool_proj"
  type: "ReLU"
  bottom: "inception_4a/pool_proj"
  top: "inception_4a/pool_proj"
}
layer {
  name: "inception_4a/output"
  type: "Concat"
  bottom: "inception_4a/1x1"
  bottom: "inception_4a/3x3"
  bottom: "inception_4a/5x5"
  bottom: "inception_4a/pool_proj"
  top: "inception_4a/output"
}
layer {
  name: "loss1/ave_pool"
  type: "Pooling"
  bottom: "inception_4a/output"
  top: "loss1/ave_pool"
  pooling_param {
    pool: AVE
    kernel_size: 5
    stride: 3
  }
}
layer {
  name: "loss1/conv"
  type: "Convolution"
  bottom: "loss1/ave_pool"
  top: "loss1/conv"
  param {
    lr_mult: 1
    decay_mult: 1
  }
  param {
    lr_mult: 2
    decay_mult: 0
  }
  convolution_param {
    num_output: 128
    kernel_size: 1
    weight_filler {
      type: "xavier"
      std: 0.08
    }
    bias_filler {
      type: "constant"
      value: 0.2
    }
  }
}
layer {
  name: "loss1/relu_conv"
  type: "ReLU"
  bottom: "loss1/conv"
  top: "loss1/conv"
}
layer {
  name: "loss1/fc"
  type: "InnerProduct"
  bottom: "loss1/conv"
  top: "loss1/fc"
  param {
    lr_mult: 1
    decay_mult: 1
  }
  param {
    lr_mult: 2
    decay_mult: 0
  }
  inner_product_param {
    num_output: 1024
    weight_filler {
      type: "xavier"
      std: 0.02
    }
    bias_filler {
      type: "constant"
      value: 0.2
    }
  }
}
layer {
  name: "loss1/relu_fc"
  type: "ReLU"
  bottom: "loss1/fc"
  top: "loss1/fc"
}
layer {
  name: "loss1/drop_fc"
  type: "Dropout"
  bottom: "loss1/fc"
  top: "loss1/fc"
  dropout_param {
    dropout_ratio: 0.7
  }
}
layer {
  name: "loss1/classifier_plantvillage"
  type: "InnerProduct"
  bottom: "loss1/fc"
  top: "loss1/classifier_plantvillage"
  param {
    lr_mult: 1
    decay_mult: 1
  }
  param {
    lr_mult: 2
    decay_mult: 0
  }
  inner_product_param {
    num_output: 38
    weight_filler {
      type: "xavier"
      std: 0.0009765625
    }
    bias_filler {
      type: "constant"
      value: 0
    }
  }
}
layer {
  name: "inception_4b/1x1"
  type: "Convolution"
  bottom: "inception_4a/output"
  top: "inception_4b/1x1"
  param {
    lr_mult: 1
    decay_mult: 1
  }
  param {
    lr_mult: 2
    decay_mult: 0
  }
  convolution_param {
    num_output: 160
    kernel_size: 1
    weight_filler {
      type: "xavier"
      std: 0.03
    }
    bias_filler {
      type: "constant"
      value: 0.2
    }
  }
}
layer {
  name: "inception_4b/relu_1x1"
  type: "ReLU"
  bottom: "inception_4b/1x1"
  top: "inception_4b/1x1"
}
layer {
  name: "inception_4b/3x3_reduce"
  type: "Convolution"
  bottom: "inception_4a/output"
  top: "inception_4b/3x3_reduce"
  param {
    lr_mult: 1
    decay_mult: 1
  }
  param {
    lr_mult: 2
    decay_mult: 0
  }
  convolution_param {
    num_output: 112
    kernel_size: 1
    weight_filler {
      type: "xavier"
      std: 0.09
    }
    bias_filler {
      type: "constant"
      value: 0.2
    }
  }
}
layer {
  name: "inception_4b/relu_3x3_reduce"
  type: "ReLU"
  bottom: "inception_4b/3x3_reduce"
  top: "inception_4b/3x3_reduce"
}
layer {
  name: "inception_4b/3x3"
  type: "Convolution"
  bottom: "inception_4b/3x3_reduce"
  top: "inception_4b/3x3"
  param {
    lr_mult: 1
    decay_mult: 1
  }
  param {
    lr_mult: 2
    decay_mult: 0
  }
  convolution_param {
    num_output: 224
    pad: 1
    kernel_size: 3
    weight_filler {
      type: "xavier"
      std: 0.03
    }
    bias_filler {
      type: "constant"
      value: 0.2
    }
  }
}
layer {
  name: "inception_4b/relu_3x3"
  type: "ReLU"
  bottom: "inception_4b/3x3"
  top: "inception_4b/3x3"
}
layer {
  name: "inception_4b/5x5_reduce"
  type: "Convolution"
  bottom: "inception_4a/output"
  top: "inception_4b/5x5_reduce"
  param {
    lr_mult: 1
    decay_mult: 1
  }
  param {
    lr_mult: 2
    decay_mult: 0
  }
  convolution_param {
    num_output: 24
    kernel_size: 1
    weight_filler {
      type: "xavier"
      std: 0.2
    }
    bias_filler {
      type: "constant"
      value: 0.2
    }
  }
}
layer {
  name: "inception_4b/relu_5x5_reduce"
  type: "ReLU"
  bottom: "inception_4b/5x5_reduce"
  top: "inception_4b/5x5_reduce"
}
layer {
  name: "inception_4b/5x5"
  type: "Convolution"
  bottom: "inception_4b/5x5_reduce"
  top: "inception_4b/5x5"
  param {
    lr_mult: 1
    decay_mult: 1
  }
  param {
    lr_mult: 2
    decay_mult: 0
  }
  convolution_param {
    num_output: 64
    pad: 2
    kernel_size: 5
    weight_filler {
      type: "xavier"
      std: 0.03
    }
    bias_filler {
      type: "constant"
      value: 0.2
    }
  }
}
layer {
  name: "inception_4b/relu_5x5"
  type: "ReLU"
  bottom: "inception_4b/5x5"
  top: "inception_4b/5x5"
}
layer {
  name: "inception_4b/pool"
  type: "Pooling"
  bottom: "inception_4a/output"
  top: "inception_4b/pool"
  pooling_param {
    pool: MAX
    kernel_size: 3
    stride: 1
    pad: 1
  }
}
layer {
  name: "inception_4b/pool_proj"
  type: "Convolution"
  bottom: "inception_4b/pool"
  top: "inception_4b/pool_proj"
  param {
    lr_mult: 1
    decay_mult: 1
  }
  param {
    lr_mult: 2
    decay_mult: 0
  }
  convolution_param {
    num_output: 64
    kernel_size: 1
    weight_filler {
      type: "xavier"
      std: 0.1
    }
    bias_filler {
      type: "constant"
      value: 0.2
    }
  }
}
layer {
  name: "inception_4b/relu_pool_proj"
  type: "ReLU"
  bottom: "inception_4b/pool_proj"
  top: "inception_4b/pool_proj"
}
layer {
  name: "inception_4b/output"
  type: "Concat"
  bottom: "inception_4b/1x1"
  bottom: "inception_4b/3x3"
  bottom: "inception_4b/5x5"
  bottom: "inception_4b/pool_proj"
  top: "inception_4b/output"
}
layer {
  name: "inception_4c/1x1"
  type: "Convolution"
  bottom: "inception_4b/output"
  top: "inception_4c/1x1"
  param {
    lr_mult: 1
    decay_mult: 1
  }
  param {
    lr_mult: 2
    decay_mult: 0
  }
  convolution_param {
    num_output: 128
    kernel_size: 1
    weight_filler {
      type: "xavier"
      std: 0.03
    }
    bias_filler {
      type: "constant"
      value: 0.2
    }
  }
}
layer {
  name: "inception_4c/relu_1x1"
  type: "ReLU"
  bottom: "inception_4c/1x1"
  top: "inception_4c/1x1"
}
layer {
  name: "inception_4c/3x3_reduce"
  type: "Convolution"
  bottom: "inception_4b/output"
  top: "inception_4c/3x3_reduce"
  param {
    lr_mult: 1
    decay_mult: 1
  }
  param {
    lr_mult: 2
    decay_mult: 0
  }
  convolution_param {
    num_output: 128
    kernel_size: 1
    weight_filler {
      type: "xavier"
      std: 0.09
    }
    bias_filler {
      type: "constant"
      value: 0.2
    }
  }
}
layer {
  name: "inception_4c/relu_3x3_reduce"
  type: "ReLU"
  bottom: "inception_4c/3x3_reduce"
  top: "inception_4c/3x3_reduce"
}
layer {
  name: "inception_4c/3x3"
  type: "Convolution"
  bottom: "inception_4c/3x3_reduce"
  top: "inception_4c/3x3"
  param {
    lr_mult: 1
    decay_mult: 1
  }
  param {
    lr_mult: 2
    decay_mult: 0
  }
  convolution_param {
    num_output: 256
    pad: 1
    kernel_size: 3
    weight_filler {
      type: "xavier"
      std: 0.03
    }
    bias_filler {
      type: "constant"
      value: 0.2
    }
  }
}
layer {
  name: "inception_4c/relu_3x3"
  type: "ReLU"
  bottom: "inception_4c/3x3"
  top: "inception_4c/3x3"
}
layer {
  name: "inception_4c/5x5_reduce"
  type: "Convolution"
  bottom: "inception_4b/output"
  top: "inception_4c/5x5_reduce"
  param {
    lr_mult: 1
    decay_mult: 1
  }
  param {
    lr_mult: 2
    decay_mult: 0
  }
  convolution_param {
    num_output: 24
    kernel_size: 1
    weight_filler {
      type: "xavier"
      std: 0.2
    }
    bias_filler {
      type: "constant"
      value: 0.2
    }
  }
}
layer {
  name: "inception_4c/relu_5x5_reduce"
  type: "ReLU"
  bottom: "inception_4c/5x5_reduce"
  top: "inception_4c/5x5_reduce"
}
layer {
  name: "inception_4c/5x5"
  type: "Convolution"
  bottom: "inception_4c/5x5_reduce"
  top: "inception_4c/5x5"
  param {
    lr_mult: 1
    decay_mult: 1
  }
  param {
    lr_mult: 2
    decay_mult: 0
  }
  convolution_param {
    num_output: 64
    pad: 2
    kernel_size: 5
    weight_filler {
      type: "xavier"
      std: 0.03
    }
    bias_filler {
      type: "constant"
      value: 0.2
    }
  }
}
layer {
  name: "inception_4c/relu_5x5"
  type: "ReLU"
  bottom: "inception_4c/5x5"
  top: "inception_4c/5x5"
}
layer {
  name: "inception_4c/pool"
  type: "Pooling"
  bottom: "inception_4b/output"
  top: "inception_4c/pool"
  pooling_param {
    pool: MAX
    kernel_size: 3
    stride: 1
    pad: 1
  }
}
layer {
  name: "inception_4c/pool_proj"
  type: "Convolution"
  bottom: "inception_4c/pool"
  top: "inception_4c/pool_proj"
  param {
    lr_mult: 1
    decay_mult: 1
  }
  param {
    lr_mult: 2
    decay_mult: 0
  }
  convolution_param {
    num_output: 64
    kernel_size: 1
    weight_filler {
      type: "xavier"
      std: 0.1
    }
    bias_filler {
      type: "constant"
      value: 0.2
    }
  }
}
layer {
  name: "inception_4c/relu_pool_proj"
  type: "ReLU"
  bottom: "inception_4c/pool_proj"
  top: "inception_4c/pool_proj"
}
layer {
  name: "inception_4c/output"
  type: "Concat"
  bottom: "inception_4c/1x1"
  bottom: "inception_4c/3x3"
  bottom: "inception_4c/5x5"
  bottom: "inception_4c/pool_proj"
  top: "inception_4c/output"
}
layer {
  name: "inception_4d/1x1"
  type: "Convolution"
  bottom: "inception_4c/output"
  top: "inception_4d/1x1"
  param {
    lr_mult: 1
    decay_mult: 1
  }
  param {
    lr_mult: 2
    decay_mult: 0
  }
  convolution_param {
    num_output: 112
    kernel_size: 1
    weight_filler {
      type: "xavier"
      std: 0.03
    }
    bias_filler {
      type: "constant"
      value: 0.2
    }
  }
}
layer {
  name: "inception_4d/relu_1x1"
  type: "ReLU"
  bottom: "inception_4d/1x1"
  top: "inception_4d/1x1"
}
layer {
  name: "inception_4d/3x3_reduce"
  type: "Convolution"
  bottom: "inception_4c/output"
  top: "inception_4d/3x3_reduce"
  param {
    lr_mult: 1
    decay_mult: 1
  }
  param {
    lr_mult: 2
    decay_mult: 0
  }
  convolution_param {
    num_output: 144
    kernel_size: 1
    weight_filler {
      type: "xavier"
      std: 0.09
    }
    bias_filler {
      type: "constant"
      value: 0.2
    }
  }
}
layer {
  name: "inception_4d/relu_3x3_reduce"
  type: "ReLU"
  bottom: "inception_4d/3x3_reduce"
  top: "inception_4d/3x3_reduce"
}
layer {
  name: "inception_4d/3x3"
  type: "Convolution"
  bottom: "inception_4d/3x3_reduce"
  top: "inception_4d/3x3"
  param {
    lr_mult: 1
    decay_mult: 1
  }
  param {
    lr_mult: 2
    decay_mult: 0
  }
  convolution_param {
    num_output: 288
    pad: 1
    kernel_size: 3
    weight_filler {
      type: "xavier"
      std: 0.03
    }
    bias_filler {
      type: "constant"
      value: 0.2
    }
  }
}
layer {
  name: "inception_4d/relu_3x3"
  type: "ReLU"
  bottom: "inception_4d/3x3"
  top: "inception_4d/3x3"
}
layer {
  name: "inception_4d/5x5_reduce"
  type: "Convolution"
  bottom: "inception_4c/output"
  top: "inception_4d/5x5_reduce"
  param {
    lr_mult: 1
    decay_mult: 1
  }
  param {
    lr_mult: 2
    decay_mult: 0
  }
  convolution_param {
    num_output: 32
    kernel_size: 1
    weight_filler {
      type: "xavier"
      std: 0.2
    }
    bias_filler {
      type: "constant"
      value: 0.2
    }
  }
}
layer {
  name: "inception_4d/relu_5x5_reduce"
  type: "ReLU"
  bottom: "inception_4d/5x5_reduce"
  top: "inception_4d/5x5_reduce"
}
layer {
  name: "inception_4d/5x5"
  type: "Convolution"
  bottom: "inception_4d/5x5_reduce"
  top: "inception_4d/5x5"
  param {
    lr_mult: 1
    decay_mult: 1
  }
  param {
    lr_mult: 2
    decay_mult: 0
  }
  convolution_param {
    num_output: 64
    pad: 2
    kernel_size: 5
    weight_filler {
      type: "xavier"
      std: 0.03
    }
    bias_filler {
      type: "constant"
      value: 0.2
    }
  }
}
layer {
  name: "inception_4d/relu_5x5"
  type: "ReLU"
  bottom: "inception_4d/5x5"
  top: "inception_4d/5x5"
}
layer {
  name: "inception_4d/pool"
  type: "Pooling"
  bottom: "inception_4c/output"
  top: "inception_4d/pool"
  pooling_param {
    pool: MAX
    kernel_size: 3
    stride: 1
    pad: 1
  }
}
layer {
  name: "inception_4d/pool_proj"
  type: "Convolution"
  bottom: "inception_4d/pool"
  top: "inception_4d/pool_proj"
  param {
    lr_mult: 1
    decay_mult: 1
  }
  param {
    lr_mult: 2
    decay_mult: 0
  }
  convolution_param {
    num_output: 64
    kernel_size: 1
    weight_filler {
      type: "xavier"
      std: 0.1
    }
    bias_filler {
      type: "constant"
      value: 0.2
    }
  }
}
layer {
  name: "inception_4d/relu_pool_proj"
  type: "ReLU"
  bottom: "inception_4d/pool_proj"
  top: "inception_4d/pool_proj"
}
layer {
  name: "inception_4d/output"
  type: "Concat"
  bottom: "inception_4d/1x1"
  bottom: "inception_4d/3x3"
  bottom: "inception_4d/5x5"
  bottom: "inception_4d/pool_proj"
  top: "inception_4d/output"
}
layer {
  name: "loss2/ave_pool"
  type: "Pooling"
  bottom: "inception_4d/output"
  top: "loss2/ave_pool"
  pooling_param {
    pool: AVE
    kernel_size: 5
    stride: 3
  }
}
layer {
  name: "loss2/conv"
  type: "Convolution"
  bottom: "loss2/ave_pool"
  top: "loss2/conv"
  param {
    lr_mult: 1
    decay_mult: 1
  }
  param {
    lr_mult: 2
    decay_mult: 0
  }
  convolution_param {
    num_output: 128
    kernel_size: 1
    weight_filler {
      type: "xavier"
      std: 0.08
    }
    bias_filler {
      type: "constant"
      value: 0.2
    }
  }
}
layer {
  name: "loss2/relu_conv"
  type: "ReLU"
  bottom: "loss2/conv"
  top: "loss2/conv"
}
layer {
  name: "loss2/fc"
  type: "InnerProduct"
  bottom: "loss2/conv"
  top: "loss2/fc"
  param {
    lr_mult: 1
    decay_mult: 1
  }
  param {
    lr_mult: 2
    decay_mult: 0
  }
  inner_product_param {
    num_output: 1024
    weight_filler {
      type: "xavier"
      std: 0.02
    }
    bias_filler {
      type: "constant"
      value: 0.2
    }
  }
}
layer {
  name: "loss2/relu_fc"
  type: "ReLU"
  bottom: "loss2/fc"
  top: "loss2/fc"
}
layer {
  name: "loss2/drop_fc"
  type: "Dropout"
  bottom: "loss2/fc"
  top: "loss2/fc"
  dropout_param {
    dropout_ratio: 0.7
  }
}
layer {
  name: "loss2/classifier_plantvillage"
  type: "InnerProduct"
  bottom: "loss2/fc"
  top: "loss2/classifier_plantvillage"
  param {
    lr_mult: 1
    decay_mult: 1
  }
  param {
    lr_mult: 2
    decay_mult: 0
  }
  inner_product_param {
    num_output: 38
    weight_filler {
      type: "xavier"
      std: 0.0009765625
    }
    bias_filler {
      type: "constant"
      value: 0
    }
  }
}
layer {
  name: "inception_4e/1x1"
  type: "Convolution"
  bottom: "inception_4d/output"
  top: "inception_4e/1x1"
  param {
    lr_mult: 1
    decay_mult: 1
  }
  param {
    lr_mult: 2
    decay_mult: 0
  }
  convolution_param {
    num_output: 256
    kernel_size: 1
    weight_filler {
      type: "xavier"
      std: 0.03
    }
    bias_filler {
      type: "constant"
      value: 0.2
    }
  }
}
layer {
  name: "inception_4e/relu_1x1"
  type: "ReLU"
  bottom: "inception_4e/1x1"
  top: "inception_4e/1x1"
}
layer {
  name: "inception_4e/3x3_reduce"
  type: "Convolution"
  bottom: "inception_4d/output"
  top: "inception_4e/3x3_reduce"
  param {
    lr_mult: 1
    decay_mult: 1
  }
  param {
    lr_mult: 2
    decay_mult: 0
  }
  convolution_param {
    num_output: 160
    kernel_size: 1
    weight_filler {
      type: "xavier"
      std: 0.09
    }
    bias_filler {
      type: "constant"
      value: 0.2
    }
  }
}
layer {
  name: "inception_4e/relu_3x3_reduce"
  type: "ReLU"
  bottom: "inception_4e/3x3_reduce"
  top: "inception_4e/3x3_reduce"
}
layer {
  name: "inception_4e/3x3"
  type: "Convolution"
  bottom: "inception_4e/3x3_reduce"
  top: "inception_4e/3x3"
  param {
    lr_mult: 1
    decay_mult: 1
  }
  param {
    lr_mult: 2
    decay_mult: 0
  }
  convolution_param {
    num_output: 320
    pad: 1
    kernel_size: 3
    weight_filler {
      type: "xavier"
      std: 0.03
    }
    bias_filler {
      type: "constant"
      value: 0.2
    }
  }
}
layer {
  name: "inception_4e/relu_3x3"
  type: "ReLU"
  bottom: "inception_4e/3x3"
  top: "inception_4e/3x3"
}
layer {
  name: "inception_4e/5x5_reduce"
  type: "Convolution"
  bottom: "inception_4d/output"
  top: "inception_4e/5x5_reduce"
  param {
    lr_mult: 1
    decay_mult: 1
  }
  param {
    lr_mult: 2
    decay_mult: 0
  }
  convolution_param {
    num_output: 32
    kernel_size: 1
    weight_filler {
      type: "xavier"
      std: 0.2
    }
    bias_filler {
      type: "constant"
      value: 0.2
    }
  }
}
layer {
  name: "inception_4e/relu_5x5_reduce"
  type: "ReLU"
  bottom: "inception_4e/5x5_reduce"
  top: "inception_4e/5x5_reduce"
}
layer {
  name: "inception_4e/5x5"
  type: "Convolution"
  bottom: "inception_4e/5x5_reduce"
  top: "inception_4e/
I0403 19:12:56.964448 19115 layer_factory.hpp:77] Creating layer data
I0403 19:12:56.965064 19115 net.cpp:91] Creating Layer data
I0403 19:12:56.965097 19115 net.cpp:399] data -> data
I0403 19:12:56.965148 19115 net.cpp:399] data -> label
I0403 19:12:56.965186 19115 data_transformer.cpp:25] Loading mean file from: /home/mohanty/data/final_dataset/lmdb/segmented-60-40/mean.binaryproto
I0403 19:12:56.966361 19120 db_lmdb.cpp:38] Opened lmdb /home/mohanty/data/final_dataset/lmdb/segmented-60-40/test_db
I0403 19:12:56.978184 19115 data_layer.cpp:41] output data size: 24,3,224,224
I0403 19:12:57.005434 19115 net.cpp:141] Setting up data
I0403 19:12:57.005522 19115 net.cpp:148] Top shape: 24 3 224 224 (3612672)
I0403 19:12:57.005548 19115 net.cpp:148] Top shape: 24 (24)
I0403 19:12:57.005564 19115 net.cpp:156] Memory required for data: 14450784
I0403 19:12:57.005592 19115 layer_factory.hpp:77] Creating layer label_data_1_split
I0403 19:12:57.005621 19115 net.cpp:91] Creating Layer label_data_1_split
I0403 19:12:57.005641 19115 net.cpp:425] label_data_1_split <- label
I0403 19:12:57.005684 19115 net.cpp:399] label_data_1_split -> label_data_1_split_0
I0403 19:12:57.005712 19115 net.cpp:399] label_data_1_split -> label_data_1_split_1
I0403 19:12:57.005736 19115 net.cpp:399] label_data_1_split -> label_data_1_split_2
I0403 19:12:57.005758 19115 net.cpp:399] label_data_1_split -> label_data_1_split_3
I0403 19:12:57.005777 19115 net.cpp:399] label_data_1_split -> label_data_1_split_4
I0403 19:12:57.005798 19115 net.cpp:399] label_data_1_split -> label_data_1_split_5
I0403 19:12:57.005820 19115 net.cpp:399] label_data_1_split -> label_data_1_split_6
I0403 19:12:57.005839 19115 net.cpp:399] label_data_1_split -> label_data_1_split_7
I0403 19:12:57.005861 19115 net.cpp:399] label_data_1_split -> label_data_1_split_8
I0403 19:12:57.005882 19115 net.cpp:399] label_data_1_split -> label_data_1_split_9
I0403 19:12:57.006017 19115 net.cpp:141] Setting up label_data_1_split
I0403 19:12:57.006043 19115 net.cpp:148] Top shape: 24 (24)
I0403 19:12:57.006062 19115 net.cpp:148] Top shape: 24 (24)
I0403 19:12:57.006078 19115 net.cpp:148] Top shape: 24 (24)
I0403 19:12:57.006094 19115 net.cpp:148] Top shape: 24 (24)
I0403 19:12:57.006110 19115 net.cpp:148] Top shape: 24 (24)
I0403 19:12:57.006126 19115 net.cpp:148] Top shape: 24 (24)
I0403 19:12:57.006142 19115 net.cpp:148] Top shape: 24 (24)
I0403 19:12:57.006158 19115 net.cpp:148] Top shape: 24 (24)
I0403 19:12:57.006175 19115 net.cpp:148] Top shape: 24 (24)
I0403 19:12:57.006191 19115 net.cpp:148] Top shape: 24 (24)
I0403 19:12:57.006234 19115 net.cpp:156] Memory required for data: 14451744
I0403 19:12:57.006252 19115 layer_factory.hpp:77] Creating layer conv1/7x7_s2
I0403 19:12:57.006283 19115 net.cpp:91] Creating Layer conv1/7x7_s2
I0403 19:12:57.006314 19115 net.cpp:425] conv1/7x7_s2 <- data
I0403 19:12:57.006335 19115 net.cpp:399] conv1/7x7_s2 -> conv1/7x7_s2
I0403 19:12:57.148274 19115 net.cpp:141] Setting up conv1/7x7_s2
I0403 19:12:57.148365 19115 net.cpp:148] Top shape: 24 64 112 112 (19267584)
I0403 19:12:57.148386 19115 net.cpp:156] Memory required for data: 91522080
I0403 19:12:57.148418 19115 layer_factory.hpp:77] Creating layer conv1/relu_7x7
I0403 19:12:57.148447 19115 net.cpp:91] Creating Layer conv1/relu_7x7
I0403 19:12:57.148468 19115 net.cpp:425] conv1/relu_7x7 <- conv1/7x7_s2
I0403 19:12:57.148488 19115 net.cpp:386] conv1/relu_7x7 -> conv1/7x7_s2 (in-place)
I0403 19:12:57.148752 19115 net.cpp:141] Setting up conv1/relu_7x7
I0403 19:12:57.148782 19115 net.cpp:148] Top shape: 24 64 112 112 (19267584)
I0403 19:12:57.148799 19115 net.cpp:156] Memory required for data: 168592416
I0403 19:12:57.148816 19115 layer_factory.hpp:77] Creating layer pool1/3x3_s2
I0403 19:12:57.148844 19115 net.cpp:91] Creating Layer pool1/3x3_s2
I0403 19:12:57.148862 19115 net.cpp:425] pool1/3x3_s2 <- conv1/7x7_s2
I0403 19:12:57.148882 19115 net.cpp:399] pool1/3x3_s2 -> pool1/3x3_s2
I0403 19:12:57.148970 19115 net.cpp:141] Setting up pool1/3x3_s2
I0403 19:12:57.148996 19115 net.cpp:148] Top shape: 24 64 56 56 (4816896)
I0403 19:12:57.149024 19115 net.cpp:156] Memory required for data: 187860000
I0403 19:12:57.149040 19115 layer_factory.hpp:77] Creating layer pool1/norm1
I0403 19:12:57.149065 19115 net.cpp:91] Creating Layer pool1/norm1
I0403 19:12:57.149085 19115 net.cpp:425] pool1/norm1 <- pool1/3x3_s2
I0403 19:12:57.149102 19115 net.cpp:399] pool1/norm1 -> pool1/norm1
I0403 19:12:57.149387 19115 net.cpp:141] Setting up pool1/norm1
I0403 19:12:57.149415 19115 net.cpp:148] Top shape: 24 64 56 56 (4816896)
I0403 19:12:57.149431 19115 net.cpp:156] Memory required for data: 207127584
I0403 19:12:57.149458 19115 layer_factory.hpp:77] Creating layer conv2/3x3_reduce
I0403 19:12:57.149483 19115 net.cpp:91] Creating Layer conv2/3x3_reduce
I0403 19:12:57.149500 19115 net.cpp:425] conv2/3x3_reduce <- pool1/norm1
I0403 19:12:57.149519 19115 net.cpp:399] conv2/3x3_reduce -> conv2/3x3_reduce
I0403 19:12:57.150908 19115 net.cpp:141] Setting up conv2/3x3_reduce
I0403 19:12:57.150939 19115 net.cpp:148] Top shape: 24 64 56 56 (4816896)
I0403 19:12:57.150960 19115 net.cpp:156] Memory required for data: 226395168
I0403 19:12:57.150984 19115 layer_factory.hpp:77] Creating layer conv2/relu_3x3_reduce
I0403 19:12:57.151003 19115 net.cpp:91] Creating Layer conv2/relu_3x3_reduce
I0403 19:12:57.151021 19115 net.cpp:425] conv2/relu_3x3_reduce <- conv2/3x3_reduce
I0403 19:12:57.151037 19115 net.cpp:386] conv2/relu_3x3_reduce -> conv2/3x3_reduce (in-place)
I0403 19:12:57.151295 19115 net.cpp:141] Setting up conv2/relu_3x3_reduce
I0403 19:12:57.151322 19115 net.cpp:148] Top shape: 24 64 56 56 (4816896)
I0403 19:12:57.151338 19115 net.cpp:156] Memory required for data: 245662752
I0403 19:12:57.151355 19115 layer_factory.hpp:77] Creating layer conv2/3x3
I0403 19:12:57.151377 19115 net.cpp:91] Creating Layer conv2/3x3
I0403 19:12:57.151396 19115 net.cpp:425] conv2/3x3 <- conv2/3x3_reduce
I0403 19:12:57.151414 19115 net.cpp:399] conv2/3x3 -> conv2/3x3
I0403 19:12:57.153717 19115 net.cpp:141] Setting up conv2/3x3
I0403 19:12:57.153748 19115 net.cpp:148] Top shape: 24 192 56 56 (14450688)
I0403 19:12:57.153765 19115 net.cpp:156] Memory required for data: 303465504
I0403 19:12:57.153787 19115 layer_factory.hpp:77] Creating layer conv2/relu_3x3
I0403 19:12:57.153806 19115 net.cpp:91] Creating Layer conv2/relu_3x3
I0403 19:12:57.153823 19115 net.cpp:425] conv2/relu_3x3 <- conv2/3x3
I0403 19:12:57.153841 19115 net.cpp:386] conv2/relu_3x3 -> conv2/3x3 (in-place)
I0403 19:12:57.154011 19115 net.cpp:141] Setting up conv2/relu_3x3
I0403 19:12:57.154037 19115 net.cpp:148] Top shape: 24 192 56 56 (14450688)
I0403 19:12:57.154085 19115 net.cpp:156] Memory required for data: 361268256
I0403 19:12:57.154103 19115 layer_factory.hpp:77] Creating layer conv2/norm2
I0403 19:12:57.154122 19115 net.cpp:91] Creating Layer conv2/norm2
I0403 19:12:57.154139 19115 net.cpp:425] conv2/norm2 <- conv2/3x3
I0403 19:12:57.154158 19115 net.cpp:399] conv2/norm2 -> conv2/norm2
I0403 19:12:57.154455 19115 net.cpp:141] Setting up conv2/norm2
I0403 19:12:57.154484 19115 net.cpp:148] Top shape: 24 192 56 56 (14450688)
I0403 19:12:57.154500 19115 net.cpp:156] Memory required for data: 419071008
I0403 19:12:57.154515 19115 layer_factory.hpp:77] Creating layer pool2/3x3_s2
I0403 19:12:57.154533 19115 net.cpp:91] Creating Layer pool2/3x3_s2
I0403 19:12:57.154551 19115 net.cpp:425] pool2/3x3_s2 <- conv2/norm2
I0403 19:12:57.154568 19115 net.cpp:399] pool2/3x3_s2 -> pool2/3x3_s2
I0403 19:12:57.154620 19115 net.cpp:141] Setting up pool2/3x3_s2
I0403 19:12:57.154644 19115 net.cpp:148] Top shape: 24 192 28 28 (3612672)
I0403 19:12:57.154659 19115 net.cpp:156] Memory required for data: 433521696
I0403 19:12:57.154675 19115 layer_factory.hpp:77] Creating layer pool2/3x3_s2_pool2/3x3_s2_0_split
I0403 19:12:57.154693 19115 net.cpp:91] Creating Layer pool2/3x3_s2_pool2/3x3_s2_0_split
I0403 19:12:57.154709 19115 net.cpp:425] pool2/3x3_s2_pool2/3x3_s2_0_split <- pool2/3x3_s2
I0403 19:12:57.154727 19115 net.cpp:399] pool2/3x3_s2_pool2/3x3_s2_0_split -> pool2/3x3_s2_pool2/3x3_s2_0_split_0
I0403 19:12:57.154747 19115 net.cpp:399] pool2/3x3_s2_pool2/3x3_s2_0_split -> pool2/3x3_s2_pool2/3x3_s2_0_split_1
I0403 19:12:57.154768 19115 net.cpp:399] pool2/3x3_s2_pool2/3x3_s2_0_split -> pool2/3x3_s2_pool2/3x3_s2_0_split_2
I0403 19:12:57.154788 19115 net.cpp:399] pool2/3x3_s2_pool2/3x3_s2_0_split -> pool2/3x3_s2_pool2/3x3_s2_0_split_3
I0403 19:12:57.154855 19115 net.cpp:141] Setting up pool2/3x3_s2_pool2/3x3_s2_0_split
I0403 19:12:57.154878 19115 net.cpp:148] Top shape: 24 192 28 28 (3612672)
I0403 19:12:57.154896 19115 net.cpp:148] Top shape: 24 192 28 28 (3612672)
I0403 19:12:57.154911 19115 net.cpp:148] Top shape: 24 192 28 28 (3612672)
I0403 19:12:57.154928 19115 net.cpp:148] Top shape: 24 192 28 28 (3612672)
I0403 19:12:57.154942 19115 net.cpp:156] Memory required for data: 491324448
I0403 19:12:57.154963 19115 layer_factory.hpp:77] Creating layer inception_3a/1x1
I0403 19:12:57.154984 19115 net.cpp:91] Creating Layer inception_3a/1x1
I0403 19:12:57.155002 19115 net.cpp:425] inception_3a/1x1 <- pool2/3x3_s2_pool2/3x3_s2_0_split_0
I0403 19:12:57.155021 19115 net.cpp:399] inception_3a/1x1 -> inception_3a/1x1
I0403 19:12:57.156529 19115 net.cpp:141] Setting up inception_3a/1x1
I0403 19:12:57.156560 19115 net.cpp:148] Top shape: 24 64 28 28 (1204224)
I0403 19:12:57.156579 19115 net.cpp:156] Memory required for data: 496141344
I0403 19:12:57.156599 19115 layer_factory.hpp:77] Creating layer inception_3a/relu_1x1
I0403 19:12:57.156617 19115 net.cpp:91] Creating Layer inception_3a/relu_1x1
I0403 19:12:57.156635 19115 net.cpp:425] inception_3a/relu_1x1 <- inception_3a/1x1
I0403 19:12:57.156652 19115 net.cpp:386] inception_3a/relu_1x1 -> inception_3a/1x1 (in-place)
I0403 19:12:57.156817 19115 net.cpp:141] Setting up inception_3a/relu_1x1
I0403 19:12:57.156843 19115 net.cpp:148] Top shape: 24 64 28 28 (1204224)
I0403 19:12:57.156859 19115 net.cpp:156] Memory required for data: 500958240
I0403 19:12:57.156874 19115 layer_factory.hpp:77] Creating layer inception_3a/3x3_reduce
I0403 19:12:57.156895 19115 net.cpp:91] Creating Layer inception_3a/3x3_reduce
I0403 19:12:57.156913 19115 net.cpp:425] inception_3a/3x3_reduce <- pool2/3x3_s2_pool2/3x3_s2_0_split_1
I0403 19:12:57.156931 19115 net.cpp:399] inception_3a/3x3_reduce -> inception_3a/3x3_reduce
I0403 19:12:57.158625 19115 net.cpp:141] Setting up inception_3a/3x3_reduce
I0403 19:12:57.158656 19115 net.cpp:148] Top shape: 24 96 28 28 (1806336)
I0403 19:12:57.158674 19115 net.cpp:156] Memory required for data: 508183584
I0403 19:12:57.158695 19115 layer_factory.hpp:77] Creating layer inception_3a/relu_3x3_reduce
I0403 19:12:57.158735 19115 net.cpp:91] Creating Layer inception_3a/relu_3x3_reduce
I0403 19:12:57.158754 19115 net.cpp:425] inception_3a/relu_3x3_reduce <- inception_3a/3x3_reduce
I0403 19:12:57.158772 19115 net.cpp:386] inception_3a/relu_3x3_reduce -> inception_3a/3x3_reduce (in-place)
I0403 19:12:57.158975 19115 net.cpp:141] Setting up inception_3a/relu_3x3_reduce
I0403 19:12:57.159006 19115 net.cpp:148] Top shape: 24 96 28 28 (1806336)
I0403 19:12:57.159024 19115 net.cpp:156] Memory required for data: 515408928
I0403 19:12:57.159039 19115 layer_factory.hpp:77] Creating layer inception_3a/3x3
I0403 19:12:57.159065 19115 net.cpp:91] Creating Layer inception_3a/3x3
I0403 19:12:57.159083 19115 net.cpp:425] inception_3a/3x3 <- inception_3a/3x3_reduce
I0403 19:12:57.159102 19115 net.cpp:399] inception_3a/3x3 -> inception_3a/3x3
I0403 19:12:57.160831 19115 net.cpp:141] Setting up inception_3a/3x3
I0403 19:12:57.160861 19115 net.cpp:148] Top shape: 24 128 28 28 (2408448)
I0403 19:12:57.160877 19115 net.cpp:156] Memory required for data: 525042720
I0403 19:12:57.160897 19115 layer_factory.hpp:77] Creating layer inception_3a/relu_3x3
I0403 19:12:57.160915 19115 net.cpp:91] Creating Layer inception_3a/relu_3x3
I0403 19:12:57.160935 19115 net.cpp:425] inception_3a/relu_3x3 <- inception_3a/3x3
I0403 19:12:57.160959 19115 net.cpp:386] inception_3a/relu_3x3 -> inception_3a/3x3 (in-place)
I0403 19:12:57.161247 19115 net.cpp:141] Setting up inception_3a/relu_3x3
I0403 19:12:57.161275 19115 net.cpp:148] Top shape: 24 128 28 28 (2408448)
I0403 19:12:57.161291 19115 net.cpp:156] Memory required for data: 534676512
I0403 19:12:57.161306 19115 layer_factory.hpp:77] Creating layer inception_3a/5x5_reduce
I0403 19:12:57.161330 19115 net.cpp:91] Creating Layer inception_3a/5x5_reduce
I0403 19:12:57.161350 19115 net.cpp:425] inception_3a/5x5_reduce <- pool2/3x3_s2_pool2/3x3_s2_0_split_2
I0403 19:12:57.161371 19115 net.cpp:399] inception_3a/5x5_reduce -> inception_3a/5x5_reduce
I0403 19:12:57.162386 19115 net.cpp:141] Setting up inception_3a/5x5_reduce
I0403 19:12:57.162415 19115 net.cpp:148] Top shape: 24 16 28 28 (301056)
I0403 19:12:57.162431 19115 net.cpp:156] Memory required for data: 535880736
I0403 19:12:57.162451 19115 layer_factory.hpp:77] Creating layer inception_3a/relu_5x5_reduce
I0403 19:12:57.162472 19115 net.cpp:91] Creating Layer inception_3a/relu_5x5_reduce
I0403 19:12:57.162492 19115 net.cpp:425] inception_3a/relu_5x5_reduce <- inception_3a/5x5_reduce
I0403 19:12:57.162509 19115 net.cpp:386] inception_3a/relu_5x5_reduce -> inception_3a/5x5_reduce (in-place)
I0403 19:12:57.162819 19115 net.cpp:141] Setting up inception_3a/relu_5x5_reduce
I0403 19:12:57.162847 19115 net.cpp:148] Top shape: 24 16 28 28 (301056)
I0403 19:12:57.162863 19115 net.cpp:156] Memory required for data: 537084960
I0403 19:12:57.162878 19115 layer_factory.hpp:77] Creating layer inception_3a/5x5
I0403 19:12:57.162902 19115 net.cpp:91] Creating Layer inception_3a/5x5
I0403 19:12:57.162921 19115 net.cpp:425] inception_3a/5x5 <- inception_3a/5x5_reduce
I0403 19:12:57.162942 19115 net.cpp:399] inception_3a/5x5 -> inception_3a/5x5
I0403 19:12:57.164011 19115 net.cpp:141] Setting up inception_3a/5x5
I0403 19:12:57.164043 19115 net.cpp:148] Top shape: 24 32 28 28 (602112)
I0403 19:12:57.164060 19115 net.cpp:156] Memory required for data: 539493408
I0403 19:12:57.164079 19115 layer_factory.hpp:77] Creating layer inception_3a/relu_5x5
I0403 19:12:57.164099 19115 net.cpp:91] Creating Layer inception_3a/relu_5x5
I0403 19:12:57.164115 19115 net.cpp:425] inception_3a/relu_5x5 <- inception_3a/5x5
I0403 19:12:57.164134 19115 net.cpp:386] inception_3a/relu_5x5 -> inception_3a/5x5 (in-place)
I0403 19:12:57.164317 19115 net.cpp:141] Setting up inception_3a/relu_5x5
I0403 19:12:57.164343 19115 net.cpp:148] Top shape: 24 32 28 28 (602112)
I0403 19:12:57.164360 19115 net.cpp:156] Memory required for data: 541901856
I0403 19:12:57.164374 19115 layer_factory.hpp:77] Creating layer inception_3a/pool
I0403 19:12:57.164393 19115 net.cpp:91] Creating Layer inception_3a/pool
I0403 19:12:57.164438 19115 net.cpp:425] inception_3a/pool <- pool2/3x3_s2_pool2/3x3_s2_0_split_3
I0403 19:12:57.164477 19115 net.cpp:399] inception_3a/pool -> inception_3a/pool
I0403 19:12:57.164543 19115 net.cpp:141] Setting up inception_3a/pool
I0403 19:12:57.164568 19115 net.cpp:148] Top shape: 24 192 28 28 (3612672)
I0403 19:12:57.164583 19115 net.cpp:156] Memory required for data: 556352544
I0403 19:12:57.164599 19115 layer_factory.hpp:77] Creating layer inception_3a/pool_proj
I0403 19:12:57.164623 19115 net.cpp:91] Creating Layer inception_3a/pool_proj
I0403 19:12:57.164640 19115 net.cpp:425] inception_3a/pool_proj <- inception_3a/pool
I0403 19:12:57.164662 19115 net.cpp:399] inception_3a/pool_proj -> inception_3a/pool_proj
I0403 19:12:57.165666 19115 net.cpp:141] Setting up inception_3a/pool_proj
I0403 19:12:57.165695 19115 net.cpp:148] Top shape: 24 32 28 28 (602112)
I0403 19:12:57.165711 19115 net.cpp:156] Memory required for data: 558760992
I0403 19:12:57.165736 19115 layer_factory.hpp:77] Creating layer inception_3a/relu_pool_proj
I0403 19:12:57.165760 19115 net.cpp:91] Creating Layer inception_3a/relu_pool_proj
I0403 19:12:57.165776 19115 net.cpp:425] inception_3a/relu_pool_proj <- inception_3a/pool_proj
I0403 19:12:57.165794 19115 net.cpp:386] inception_3a/relu_pool_proj -> inception_3a/pool_proj (in-place)
I0403 19:12:57.166085 19115 net.cpp:141] Setting up inception_3a/relu_pool_proj
I0403 19:12:57.166113 19115 net.cpp:148] Top shape: 24 32 28 28 (602112)
I0403 19:12:57.166129 19115 net.cpp:156] Memory required for data: 561169440
I0403 19:12:57.166144 19115 layer_factory.hpp:77] Creating layer inception_3a/output
I0403 19:12:57.166164 19115 net.cpp:91] Creating Layer inception_3a/output
I0403 19:12:57.166180 19115 net.cpp:425] inception_3a/output <- inception_3a/1x1
I0403 19:12:57.166198 19115 net.cpp:425] inception_3a/output <- inception_3a/3x3
I0403 19:12:57.166214 19115 net.cpp:425] inception_3a/output <- inception_3a/5x5
I0403 19:12:57.166231 19115 net.cpp:425] inception_3a/output <- inception_3a/pool_proj
I0403 19:12:57.166251 19115 net.cpp:399] inception_3a/output -> inception_3a/output
I0403 19:12:57.166299 19115 net.cpp:141] Setting up inception_3a/output
I0403 19:12:57.166326 19115 net.cpp:148] Top shape: 24 256 28 28 (4816896)
I0403 19:12:57.166342 19115 net.cpp:156] Memory required for data: 580437024
I0403 19:12:57.166358 19115 layer_factory.hpp:77] Creating layer inception_3a/output_inception_3a/output_0_split
I0403 19:12:57.166376 19115 net.cpp:91] Creating Layer inception_3a/output_inception_3a/output_0_split
I0403 19:12:57.166393 19115 net.cpp:425] inception_3a/output_inception_3a/output_0_split <- inception_3a/output
I0403 19:12:57.166410 19115 net.cpp:399] inception_3a/output_inception_3a/output_0_split -> inception_3a/output_inception_3a/output_0_split_0
I0403 19:12:57.166435 19115 net.cpp:399] inception_3a/output_inception_3a/output_0_split -> inception_3a/output_inception_3a/output_0_split_1
I0403 19:12:57.166457 19115 net.cpp:399] inception_3a/output_inception_3a/output_0_split -> inception_3a/output_inception_3a/output_0_split_2
I0403 19:12:57.166479 19115 net.cpp:399] inception_3a/output_inception_3a/output_0_split -> inception_3a/output_inception_3a/output_0_split_3
I0403 19:12:57.166556 19115 net.cpp:141] Setting up inception_3a/output_inception_3a/output_0_split
I0403 19:12:57.166582 19115 net.cpp:148] Top shape: 24 256 28 28 (4816896)
I0403 19:12:57.166600 19115 net.cpp:148] Top shape: 24 256 28 28 (4816896)
I0403 19:12:57.166616 19115 net.cpp:148] Top shape: 24 256 28 28 (4816896)
I0403 19:12:57.166632 19115 net.cpp:148] Top shape: 24 256 28 28 (4816896)
I0403 19:12:57.166647 19115 net.cpp:156] Memory required for data: 657507360
I0403 19:12:57.166662 19115 layer_factory.hpp:77] Creating layer inception_3b/1x1
I0403 19:12:57.166685 19115 net.cpp:91] Creating Layer inception_3b/1x1
I0403 19:12:57.166703 19115 net.cpp:425] inception_3b/1x1 <- inception_3a/output_inception_3a/output_0_split_0
I0403 19:12:57.166725 19115 net.cpp:399] inception_3b/1x1 -> inception_3b/1x1
I0403 19:12:57.167915 19115 net.cpp:141] Setting up inception_3b/1x1
I0403 19:12:57.167965 19115 net.cpp:148] Top shape: 24 128 28 28 (2408448)
I0403 19:12:57.167984 19115 net.cpp:156] Memory required for data: 667141152
I0403 19:12:57.168004 19115 layer_factory.hpp:77] Creating layer inception_3b/relu_1x1
I0403 19:12:57.168023 19115 net.cpp:91] Creating Layer inception_3b/relu_1x1
I0403 19:12:57.168040 19115 net.cpp:425] inception_3b/relu_1x1 <- inception_3b/1x1
I0403 19:12:57.168058 19115 net.cpp:386] inception_3b/relu_1x1 -> inception_3b/1x1 (in-place)
I0403 19:12:57.168242 19115 net.cpp:141] Setting up inception_3b/relu_1x1
I0403 19:12:57.168268 19115 net.cpp:148] Top shape: 24 128 28 28 (2408448)
I0403 19:12:57.168284 19115 net.cpp:156] Memory required for data: 676774944
I0403 19:12:57.168300 19115 layer_factory.hpp:77] Creating layer inception_3b/3x3_reduce
I0403 19:12:57.168323 19115 net.cpp:91] Creating Layer inception_3b/3x3_reduce
I0403 19:12:57.168341 19115 net.cpp:425] inception_3b/3x3_reduce <- inception_3a/output_inception_3a/output_0_split_1
I0403 19:12:57.168364 19115 net.cpp:399] inception_3b/3x3_reduce -> inception_3b/3x3_reduce
I0403 19:12:57.169559 19115 net.cpp:141] Setting up inception_3b/3x3_reduce
I0403 19:12:57.169590 19115 net.cpp:148] Top shape: 24 128 28 28 (2408448)
I0403 19:12:57.169607 19115 net.cpp:156] Memory required for data: 686408736
I0403 19:12:57.169626 19115 layer_factory.hpp:77] Creating layer inception_3b/relu_3x3_reduce
I0403 19:12:57.169646 19115 net.cpp:91] Creating Layer inception_3b/relu_3x3_reduce
I0403 19:12:57.169662 19115 net.cpp:425] inception_3b/relu_3x3_reduce <- inception_3b/3x3_reduce
I0403 19:12:57.169682 19115 net.cpp:386] inception_3b/relu_3x3_reduce -> inception_3b/3x3_reduce (in-place)
I0403 19:12:57.169865 19115 net.cpp:141] Setting up inception_3b/relu_3x3_reduce
I0403 19:12:57.169891 19115 net.cpp:148] Top shape: 24 128 28 28 (2408448)
I0403 19:12:57.169906 19115 net.cpp:156] Memory required for data: 696042528
I0403 19:12:57.169921 19115 layer_factory.hpp:77] Creating layer inception_3b/3x3
I0403 19:12:57.169952 19115 net.cpp:91] Creating Layer inception_3b/3x3
I0403 19:12:57.169972 19115 net.cpp:425] inception_3b/3x3 <- inception_3b/3x3_reduce
I0403 19:12:57.169992 19115 net.cpp:399] inception_3b/3x3 -> inception_3b/3x3
I0403 19:12:57.172945 19115 net.cpp:141] Setting up inception_3b/3x3
I0403 19:12:57.172978 19115 net.cpp:148] Top shape: 24 192 28 28 (3612672)
I0403 19:12:57.172994 19115 net.cpp:156] Memory required for data: 710493216
I0403 19:12:57.173012 19115 layer_factory.hpp:77] Creating layer inception_3b/relu_3x3
I0403 19:12:57.173030 19115 net.cpp:91] Creating Layer inception_3b/relu_3x3
I0403 19:12:57.173051 19115 net.cpp:425] inception_3b/relu_3x3 <- inception_3b/3x3
I0403 19:12:57.173069 19115 net.cpp:386] inception_3b/relu_3x3 -> inception_3b/3x3 (in-place)
I0403 19:12:57.173343 19115 net.cpp:141] Setting up inception_3b/relu_3x3
I0403 19:12:57.173369 19115 net.cpp:148] Top shape: 24 192 28 28 (3612672)
I0403 19:12:57.173384 19115 net.cpp:156] Memory required for data: 724943904
I0403 19:12:57.173399 19115 layer_factory.hpp:77] Creating layer inception_3b/5x5_reduce
I0403 19:12:57.173423 19115 net.cpp:91] Creating Layer inception_3b/5x5_reduce
I0403 19:12:57.173440 19115 net.cpp:425] inception_3b/5x5_reduce <- inception_3a/output_inception_3a/output_0_split_2
I0403 19:12:57.173461 19115 net.cpp:399] inception_3b/5x5_reduce -> inception_3b/5x5_reduce
I0403 19:12:57.174435 19115 net.cpp:141] Setting up inception_3b/5x5_reduce
I0403 19:12:57.174465 19115 net.cpp:148] Top shape: 24 32 28 28 (602112)
I0403 19:12:57.174481 19115 net.cpp:156] Memory required for data: 727352352
I0403 19:12:57.174499 19115 layer_factory.hpp:77] Creating layer inception_3b/relu_5x5_reduce
I0403 19:12:57.174517 19115 net.cpp:91] Creating Layer inception_3b/relu_5x5_reduce
I0403 19:12:57.174535 19115 net.cpp:425] inception_3b/relu_5x5_reduce <- inception_3b/5x5_reduce
I0403 19:12:57.174554 19115 net.cpp:386] inception_3b/relu_5x5_reduce -> inception_3b/5x5_reduce (in-place)
I0403 19:12:57.174742 19115 net.cpp:141] Setting up inception_3b/relu_5x5_reduce
I0403 19:12:57.174767 19115 net.cpp:148] Top shape: 24 32 28 28 (602112)
I0403 19:12:57.174782 19115 net.cpp:156] Memory required for data: 729760800
I0403 19:12:57.174796 19115 layer_factory.hpp:77] Creating layer inception_3b/5x5
I0403 19:12:57.174818 19115 net.cpp:91] Creating Layer inception_3b/5x5
I0403 19:12:57.174836 19115 net.cpp:425] inception_3b/5x5 <- inception_3b/5x5_reduce
I0403 19:12:57.174856 19115 net.cpp:399] inception_3b/5x5 -> inception_3b/5x5
I0403 19:12:57.176832 19115 net.cpp:141] Setting up inception_3b/5x5
I0403 19:12:57.176863 19115 net.cpp:148] Top shape: 24 96 28 28 (1806336)
I0403 19:12:57.176880 19115 net.cpp:156] Memory required for data: 736986144
I0403 19:12:57.176898 19115 layer_factory.hpp:77] Creating layer inception_3b/relu_5x5
I0403 19:12:57.176916 19115 net.cpp:91] Creating Layer inception_3b/relu_5x5
I0403 19:12:57.176933 19115 net.cpp:425] inception_3b/relu_5x5 <- inception_3b/5x5
I0403 19:12:57.176955 19115 net.cpp:386] inception_3b/relu_5x5 -> inception_3b/5x5 (in-place)
I0403 19:12:57.177148 19115 net.cpp:141] Setting up inception_3b/relu_5x5
I0403 19:12:57.177173 19115 net.cpp:148] Top shape: 24 96 28 28 (1806336)
I0403 19:12:57.177188 19115 net.cpp:156] Memory required for data: 744211488
I0403 19:12:57.177204 19115 layer_factory.hpp:77] Creating layer inception_3b/pool
I0403 19:12:57.177222 19115 net.cpp:91] Creating Layer inception_3b/pool
I0403 19:12:57.177237 19115 net.cpp:425] inception_3b/pool <- inception_3a/output_inception_3a/output_0_split_3
I0403 19:12:57.177255 19115 net.cpp:399] inception_3b/pool -> inception_3b/pool
I0403 19:12:57.177310 19115 net.cpp:141] Setting up inception_3b/pool
I0403 19:12:57.177333 19115 net.cpp:148] Top shape: 24 256 28 28 (4816896)
I0403 19:12:57.177347 19115 net.cpp:156] Memory required for data: 763479072
I0403 19:12:57.177361 19115 layer_factory.hpp:77] Creating layer inception_3b/pool_proj
I0403 19:12:57.177384 19115 net.cpp:91] Creating Layer inception_3b/pool_proj
I0403 19:12:57.177402 19115 net.cpp:425] inception_3b/pool_proj <- inception_3b/pool
I0403 19:12:57.177420 19115 net.cpp:399] inception_3b/pool_proj -> inception_3b/pool_proj
I0403 19:12:57.178464 19115 net.cpp:141] Setting up inception_3b/pool_proj
I0403 19:12:57.178498 19115 net.cpp:148] Top shape: 24 64 28 28 (1204224)
I0403 19:12:57.178513 19115 net.cpp:156] Memory required for data: 768295968
I0403 19:12:57.178530 19115 layer_factory.hpp:77] Creating layer inception_3b/relu_pool_proj
I0403 19:12:57.178550 19115 net.cpp:91] Creating Layer inception_3b/relu_pool_proj
I0403 19:12:57.178566 19115 net.cpp:425] inception_3b/relu_pool_proj <- inception_3b/pool_proj
I0403 19:12:57.178583 19115 net.cpp:386] inception_3b/relu_pool_proj -> inception_3b/pool_proj (in-place)
I0403 19:12:57.179003 19115 net.cpp:141] Setting up inception_3b/relu_pool_proj
I0403 19:12:57.179030 19115 net.cpp:148] Top shape: 24 64 28 28 (1204224)
I0403 19:12:57.179045 19115 net.cpp:156] Memory required for data: 773112864
I0403 19:12:57.179059 19115 layer_factory.hpp:77] Creating layer inception_3b/output
I0403 19:12:57.179077 19115 net.cpp:91] Creating Layer inception_3b/output
I0403 19:12:57.179095 19115 net.cpp:425] inception_3b/output <- inception_3b/1x1
I0403 19:12:57.179112 19115 net.cpp:425] inception_3b/output <- inception_3b/3x3
I0403 19:12:57.179128 19115 net.cpp:425] inception_3b/output <- inception_3b/5x5
I0403 19:12:57.179143 19115 net.cpp:425] inception_3b/output <- inception_3b/pool_proj
I0403 19:12:57.179160 19115 net.cpp:399] inception_3b/output -> inception_3b/output
I0403 19:12:57.179203 19115 net.cpp:141] Setting up inception_3b/output
I0403 19:12:57.179227 19115 net.cpp:148] Top shape: 24 480 28 28 (9031680)
I0403 19:12:57.179244 19115 net.cpp:156] Memory required for data: 809239584
I0403 19:12:57.179260 19115 layer_factory.hpp:77] Creating layer pool3/3x3_s2
I0403 19:12:57.179276 19115 net.cpp:91] Creating Layer pool3/3x3_s2
I0403 19:12:57.179291 19115 net.cpp:425] pool3/3x3_s2 <- inception_3b/output
I0403 19:12:57.179327 19115 net.cpp:399] pool3/3x3_s2 -> pool3/3x3_s2
I0403 19:12:57.179383 19115 net.cpp:141] Setting up pool3/3x3_s2
I0403 19:12:57.179409 19115 net.cpp:148] Top shape: 24 480 14 14 (2257920)
I0403 19:12:57.179425 19115 net.cpp:156] Memory required for data: 818271264
I0403 19:12:57.179440 19115 layer_factory.hpp:77] Creating layer pool3/3x3_s2_pool3/3x3_s2_0_split
I0403 19:12:57.179456 19115 net.cpp:91] Creating Layer pool3/3x3_s2_pool3/3x3_s2_0_split
I0403 19:12:57.179471 19115 net.cpp:425] pool3/3x3_s2_pool3/3x3_s2_0_split <- pool3/3x3_s2
I0403 19:12:57.179487 19115 net.cpp:399] pool3/3x3_s2_pool3/3x3_s2_0_split -> pool3/3x3_s2_pool3/3x3_s2_0_split_0
I0403 19:12:57.179507 19115 net.cpp:399] pool3/3x3_s2_pool3/3x3_s2_0_split -> pool3/3x3_s2_pool3/3x3_s2_0_split_1
I0403 19:12:57.179528 19115 net.cpp:399] pool3/3x3_s2_pool3/3x3_s2_0_split -> pool3/3x3_s2_pool3/3x3_s2_0_split_2
I0403 19:12:57.179548 19115 net.cpp:399] pool3/3x3_s2_pool3/3x3_s2_0_split -> pool3/3x3_s2_pool3/3x3_s2_0_split_3
I0403 19:12:57.179625 19115 net.cpp:141] Setting up pool3/3x3_s2_pool3/3x3_s2_0_split
I0403 19:12:57.179647 19115 net.cpp:148] Top shape: 24 480 14 14 (2257920)
I0403 19:12:57.179663 19115 net.cpp:148] Top shape: 24 480 14 14 (2257920)
I0403 19:12:57.179678 19115 net.cpp:148] Top shape: 24 480 14 14 (2257920)
I0403 19:12:57.179693 19115 net.cpp:148] Top shape: 24 480 14 14 (2257920)
I0403 19:12:57.179708 19115 net.cpp:156] Memory required for data: 854397984
I0403 19:12:57.179723 19115 layer_factory.hpp:77] Creating layer inception_4a/1x1
I0403 19:12:57.179744 19115 net.cpp:91] Creating Layer inception_4a/1x1
I0403 19:12:57.179760 19115 net.cpp:425] inception_4a/1x1 <- pool3/3x3_s2_pool3/3x3_s2_0_split_0
I0403 19:12:57.179783 19115 net.cpp:399] inception_4a/1x1 -> inception_4a/1x1
I0403 19:12:57.181371 19115 net.cpp:141] Setting up inception_4a/1x1
I0403 19:12:57.181399 19115 net.cpp:148] Top shape: 24 192 14 14 (903168)
I0403 19:12:57.181414 19115 net.cpp:156] Memory required for data: 858010656
I0403 19:12:57.181433 19115 layer_factory.hpp:77] Creating layer inception_4a/relu_1x1
I0403 19:12:57.181455 19115 net.cpp:91] Creating Layer inception_4a/relu_1x1
I0403 19:12:57.181473 19115 net.cpp:425] inception_4a/relu_1x1 <- inception_4a/1x1
I0403 19:12:57.181489 19115 net.cpp:386] inception_4a/relu_1x1 -> inception_4a/1x1 (in-place)
I0403 19:12:57.181680 19115 net.cpp:141] Setting up inception_4a/relu_1x1
I0403 19:12:57.181710 19115 net.cpp:148] Top shape: 24 192 14 14 (903168)
I0403 19:12:57.181725 19115 net.cpp:156] Memory required for data: 861623328
I0403 19:12:57.181740 19115 layer_factory.hpp:77] Creating layer inception_4a/3x3_reduce
I0403 19:12:57.181762 19115 net.cpp:91] Creating Layer inception_4a/3x3_reduce
I0403 19:12:57.181779 19115 net.cpp:425] inception_4a/3x3_reduce <- pool3/3x3_s2_pool3/3x3_s2_0_split_1
I0403 19:12:57.181802 19115 net.cpp:399] inception_4a/3x3_reduce -> inception_4a/3x3_reduce
I0403 19:12:57.183130 19115 net.cpp:141] Setting up inception_4a/3x3_reduce
I0403 19:12:57.183158 19115 net.cpp:148] Top shape: 24 96 14 14 (451584)
I0403 19:12:57.183173 19115 net.cpp:156] Memory required for data: 863429664
I0403 19:12:57.183198 19115 layer_factory.hpp:77] Creating layer inception_4a/relu_3x3_reduce
I0403 19:12:57.183220 19115 net.cpp:91] Creating Layer inception_4a/relu_3x3_reduce
I0403 19:12:57.183238 19115 net.cpp:425] inception_4a/relu_3x3_reduce <- inception_4a/3x3_reduce
I0403 19:12:57.183256 19115 net.cpp:386] inception_4a/relu_3x3_reduce -> inception_4a/3x3_reduce (in-place)
I0403 19:12:57.183437 19115 net.cpp:141] Setting up inception_4a/relu_3x3_reduce
I0403 19:12:57.183465 19115 net.cpp:148] Top shape: 24 96 14 14 (451584)
I0403 19:12:57.183480 19115 net.cpp:156] Memory required for data: 865236000
I0403 19:12:57.183495 19115 layer_factory.hpp:77] Creating layer inception_4a/3x3
I0403 19:12:57.183517 19115 net.cpp:91] Creating Layer inception_4a/3x3
I0403 19:12:57.183536 19115 net.cpp:425] inception_4a/3x3 <- inception_4a/3x3_reduce
I0403 19:12:57.183554 19115 net.cpp:399] inception_4a/3x3 -> inception_4a/3x3
I0403 19:12:57.186332 19115 net.cpp:141] Setting up inception_4a/3x3
I0403 19:12:57.186365 19115 net.cpp:148] Top shape: 24 208 14 14 (978432)
I0403 19:12:57.186383 19115 net.cpp:156] Memory required for data: 869149728
I0403 19:12:57.186401 19115 layer_factory.hpp:77] Creating layer inception_4a/relu_3x3
I0403 19:12:57.186420 19115 net.cpp:91] Creating Layer inception_4a/relu_3x3
I0403 19:12:57.186437 19115 net.cpp:425] inception_4a/relu_3x3 <- inception_4a/3x3
I0403 19:12:57.186457 19115 net.cpp:386] inception_4a/relu_3x3 -> inception_4a/3x3 (in-place)
I0403 19:12:57.186749 19115 net.cpp:141] Setting up inception_4a/relu_3x3
I0403 19:12:57.186779 19115 net.cpp:148] Top shape: 24 208 14 14 (978432)
I0403 19:12:57.186794 19115 net.cpp:156] Memory required for data: 873063456
I0403 19:12:57.186810 19115 layer_factory.hpp:77] Creating layer inception_4a/5x5_reduce
I0403 19:12:57.186835 19115 net.cpp:91] Creating Layer inception_4a/5x5_reduce
I0403 19:12:57.186853 19115 net.cpp:425] inception_4a/5x5_reduce <- pool3/3x3_s2_pool3/3x3_s2_0_split_2
I0403 19:12:57.186872 19115 net.cpp:399] inception_4a/5x5_reduce -> inception_4a/5x5_reduce
I0403 19:12:57.187906 19115 net.cpp:141] Setting up inception_4a/5x5_reduce
I0403 19:12:57.187937 19115 net.cpp:148] Top shape: 24 16 14 14 (75264)
I0403 19:12:57.187958 19115 net.cpp:156] Memory required for data: 873364512
I0403 19:12:57.187978 19115 layer_factory.hpp:77] Creating layer inception_4a/relu_5x5_reduce
I0403 19:12:57.187996 19115 net.cpp:91] Creating Layer inception_4a/relu_5x5_reduce
I0403 19:12:57.188014 19115 net.cpp:425] inception_4a/relu_5x5_reduce <- inception_4a/5x5_reduce
I0403 19:12:57.188033 19115 net.cpp:386] inception_4a/relu_5x5_reduce -> inception_4a/5x5_reduce (in-place)
I0403 19:12:57.188215 19115 net.cpp:141] Setting up inception_4a/relu_5x5_reduce
I0403 19:12:57.188241 19115 net.cpp:148] Top shape: 24 16 14 14 (75264)
I0403 19:12:57.188256 19115 net.cpp:156] Memory required for data: 873665568
I0403 19:12:57.188283 19115 layer_factory.hpp:77] Creating layer inception_4a/5x5
I0403 19:12:57.188307 19115 net.cpp:91] Creating Layer inception_4a/5x5
I0403 19:12:57.188325 19115 net.cpp:425] inception_4a/5x5 <- inception_4a/5x5_reduce
I0403 19:12:57.188349 19115 net.cpp:399] inception_4a/5x5 -> inception_4a/5x5
I0403 19:12:57.189494 19115 net.cpp:141] Setting up inception_4a/5x5
I0403 19:12:57.189523 19115 net.cpp:148] Top shape: 24 48 14 14 (225792)
I0403 19:12:57.189538 19115 net.cpp:156] Memory required for data: 874568736
I0403 19:12:57.189558 19115 layer_factory.hpp:77] Creating layer inception_4a/relu_5x5
I0403 19:12:57.189577 19115 net.cpp:91] Creating Layer inception_4a/relu_5x5
I0403 19:12:57.189594 19115 net.cpp:425] inception_4a/relu_5x5 <- inception_4a/5x5
I0403 19:12:57.189612 19115 net.cpp:386] inception_4a/relu_5x5 -> inception_4a/5x5 (in-place)
I0403 19:12:57.189813 19115 net.cpp:141] Setting up inception_4a/relu_5x5
I0403 19:12:57.189839 19115 net.cpp:148] Top shape: 24 48 14 14 (225792)
I0403 19:12:57.189854 19115 net.cpp:156] Memory required for data: 875471904
I0403 19:12:57.189870 19115 layer_factory.hpp:77] Creating layer inception_4a/pool
I0403 19:12:57.189891 19115 net.cpp:91] Creating Layer inception_4a/pool
I0403 19:12:57.189909 19115 net.cpp:425] inception_4a/pool <- pool3/3x3_s2_pool3/3x3_s2_0_split_3
I0403 19:12:57.189927 19115 net.cpp:399] inception_4a/pool -> inception_4a/pool
I0403 19:12:57.189997 19115 net.cpp:141] Setting up inception_4a/pool
I0403 19:12:57.190022 19115 net.cpp:148] Top shape: 24 480 14 14 (2257920)
I0403 19:12:57.190038 19115 net.cpp:156] Memory required for data: 884503584
I0403 19:12:57.190053 19115 layer_factory.hpp:77] Creating layer inception_4a/pool_proj
I0403 19:12:57.190078 19115 net.cpp:91] Creating Layer inception_4a/pool_proj
I0403 19:12:57.190096 19115 net.cpp:425] inception_4a/pool_proj <- inception_4a/pool
I0403 19:12:57.190117 19115 net.cpp:399] inception_4a/pool_proj -> inception_4a/pool_proj
I0403 19:12:57.191315 19115 net.cpp:141] Setting up inception_4a/pool_proj
I0403 19:12:57.191344 19115 net.cpp:148] Top shape: 24 64 14 14 (301056)
I0403 19:12:57.191375 19115 net.cpp:156] Memory required for data: 885707808
I0403 19:12:57.191395 19115 layer_factory.hpp:77] Creating layer inception_4a/relu_pool_proj
I0403 19:12:57.191416 19115 net.cpp:91] Creating Layer inception_4a/relu_pool_proj
I0403 19:12:57.191434 19115 net.cpp:425] inception_4a/relu_pool_proj <- inception_4a/pool_proj
I0403 19:12:57.191452 19115 net.cpp:386] inception_4a/relu_pool_proj -> inception_4a/pool_proj (in-place)
I0403 19:12:57.191738 19115 net.cpp:141] Setting up inception_4a/relu_pool_proj
I0403 19:12:57.191766 19115 net.cpp:148] Top shape: 24 64 14 14 (301056)
I0403 19:12:57.191781 19115 net.cpp:156] Memory required for data: 886912032
I0403 19:12:57.191795 19115 layer_factory.hpp:77] Creating layer inception_4a/output
I0403 19:12:57.191817 19115 net.cpp:91] Creating Layer inception_4a/output
I0403 19:12:57.191833 19115 net.cpp:425] inception_4a/output <- inception_4a/1x1
I0403 19:12:57.191850 19115 net.cpp:425] inception_4a/output <- inception_4a/3x3
I0403 19:12:57.191867 19115 net.cpp:425] inception_4a/output <- inception_4a/5x5
I0403 19:12:57.191884 19115 net.cpp:425] inception_4a/output <- inception_4a/pool_proj
I0403 19:12:57.191900 19115 net.cpp:399] inception_4a/output -> inception_4a/output
I0403 19:12:57.191951 19115 net.cpp:141] Setting up inception_4a/output
I0403 19:12:57.191975 19115 net.cpp:148] Top shape: 24 512 14 14 (2408448)
I0403 19:12:57.191990 19115 net.cpp:156] Memory required for data: 896545824
I0403 19:12:57.192005 19115 layer_factory.hpp:77] Creating layer inception_4a/output_inception_4a/output_0_split
I0403 19:12:57.192023 19115 net.cpp:91] Creating Layer inception_4a/output_inception_4a/output_0_split
I0403 19:12:57.192039 19115 net.cpp:425] inception_4a/output_inception_4a/output_0_split <- inception_4a/output
I0403 19:12:57.192060 19115 net.cpp:399] inception_4a/output_inception_4a/output_0_split -> inception_4a/output_inception_4a/output_0_split_0
I0403 19:12:57.192082 19115 net.cpp:399] inception_4a/output_inception_4a/output_0_split -> inception_4a/output_inception_4a/output_0_split_1
I0403 19:12:57.192102 19115 net.cpp:399] inception_4a/output_inception_4a/output_0_split -> inception_4a/output_inception_4a/output_0_split_2
I0403 19:12:57.192122 19115 net.cpp:399] inception_4a/output_inception_4a/output_0_split -> inception_4a/output_inception_4a/output_0_split_3
I0403 19:12:57.192142 19115 net.cpp:399] inception_4a/output_inception_4a/output_0_split -> inception_4a/output_inception_4a/output_0_split_4
I0403 19:12:57.192234 19115 net.cpp:141] Setting up inception_4a/output_inception_4a/output_0_split
I0403 19:12:57.192258 19115 net.cpp:148] Top shape: 24 512 14 14 (2408448)
I0403 19:12:57.192277 19115 net.cpp:148] Top shape: 24 512 14 14 (2408448)
I0403 19:12:57.192294 19115 net.cpp:148] Top shape: 24 512 14 14 (2408448)
I0403 19:12:57.192311 19115 net.cpp:148] Top shape: 24 512 14 14 (2408448)
I0403 19:12:57.192327 19115 net.cpp:148] Top shape: 24 512 14 14 (2408448)
I0403 19:12:57.192340 19115 net.cpp:156] Memory required for data: 944714784
I0403 19:12:57.192354 19115 layer_factory.hpp:77] Creating layer loss1/ave_pool
I0403 19:12:57.192373 19115 net.cpp:91] Creating Layer loss1/ave_pool
I0403 19:12:57.192389 19115 net.cpp:425] loss1/ave_pool <- inception_4a/output_inception_4a/output_0_split_0
I0403 19:12:57.192409 19115 net.cpp:399] loss1/ave_pool -> loss1/ave_pool
I0403 19:12:57.192620 19115 net.cpp:141] Setting up loss1/ave_pool
I0403 19:12:57.192646 19115 net.cpp:148] Top shape: 24 512 4 4 (196608)
I0403 19:12:57.192661 19115 net.cpp:156] Memory required for data: 945501216
I0403 19:12:57.192677 19115 layer_factory.hpp:77] Creating layer loss1/conv
I0403 19:12:57.192698 19115 net.cpp:91] Creating Layer loss1/conv
I0403 19:12:57.192716 19115 net.cpp:425] loss1/conv <- loss1/ave_pool
I0403 19:12:57.192739 19115 net.cpp:399] loss1/conv -> loss1/conv
I0403 19:12:57.194181 19115 net.cpp:141] Setting up loss1/conv
I0403 19:12:57.194213 19115 net.cpp:148] Top shape: 24 128 4 4 (49152)
I0403 19:12:57.194243 19115 net.cpp:156] Memory required for data: 945697824
I0403 19:12:57.194262 19115 layer_factory.hpp:77] Creating layer loss1/relu_conv
I0403 19:12:57.194283 19115 net.cpp:91] Creating Layer loss1/relu_conv
I0403 19:12:57.194299 19115 net.cpp:425] loss1/relu_conv <- loss1/conv
I0403 19:12:57.194319 19115 net.cpp:386] loss1/relu_conv -> loss1/conv (in-place)
I0403 19:12:57.194605 19115 net.cpp:141] Setting up loss1/relu_conv
I0403 19:12:57.194633 19115 net.cpp:148] Top shape: 24 128 4 4 (49152)
I0403 19:12:57.194649 19115 net.cpp:156] Memory required for data: 945894432
I0403 19:12:57.194664 19115 layer_factory.hpp:77] Creating layer loss1/fc
I0403 19:12:57.194689 19115 net.cpp:91] Creating Layer loss1/fc
I0403 19:12:57.194706 19115 net.cpp:425] loss1/fc <- loss1/conv
I0403 19:12:57.194727 19115 net.cpp:399] loss1/fc -> loss1/fc
I0403 19:12:57.212829 19115 net.cpp:141] Setting up loss1/fc
I0403 19:12:57.212862 19115 net.cpp:148] Top shape: 24 1024 (24576)
I0403 19:12:57.212878 19115 net.cpp:156] Memory required for data: 945992736
I0403 19:12:57.212898 19115 layer_factory.hpp:77] Creating layer loss1/relu_fc
I0403 19:12:57.212931 19115 net.cpp:91] Creating Layer loss1/relu_fc
I0403 19:12:57.212952 19115 net.cpp:425] loss1/relu_fc <- loss1/fc
I0403 19:12:57.212971 19115 net.cpp:386] loss1/relu_fc -> loss1/fc (in-place)
I0403 19:12:57.213160 19115 net.cpp:141] Setting up loss1/relu_fc
I0403 19:12:57.213187 19115 net.cpp:148] Top shape: 24 1024 (24576)
I0403 19:12:57.213202 19115 net.cpp:156] Memory required for data: 946091040
I0403 19:12:57.213229 19115 layer_factory.hpp:77] Creating layer loss1/drop_fc
I0403 19:12:57.213255 19115 net.cpp:91] Creating Layer loss1/drop_fc
I0403 19:12:57.213273 19115 net.cpp:425] loss1/drop_fc <- loss1/fc
I0403 19:12:57.213291 19115 net.cpp:386] loss1/drop_fc -> loss1/fc (in-place)
I0403 19:12:57.213342 19115 net.cpp:141] Setting up loss1/drop_fc
I0403 19:12:57.213366 19115 net.cpp:148] Top shape: 24 1024 (24576)
I0403 19:12:57.213381 19115 net.cpp:156] Memory required for data: 946189344
I0403 19:12:57.213395 19115 layer_factory.hpp:77] Creating layer loss1/classifier_plantvillage
I0403 19:12:57.213418 19115 net.cpp:91] Creating Layer loss1/classifier_plantvillage
I0403 19:12:57.213434 19115 net.cpp:425] loss1/classifier_plantvillage <- loss1/fc
I0403 19:12:57.213452 19115 net.cpp:399] loss1/classifier_plantvillage -> loss1/classifier_plantvillage
I0403 19:12:57.214354 19115 net.cpp:141] Setting up loss1/classifier_plantvillage
I0403 19:12:57.214382 19115 net.cpp:148] Top shape: 24 38 (912)
I0403 19:12:57.214397 19115 net.cpp:156] Memory required for data: 946192992
I0403 19:12:57.214414 19115 layer_factory.hpp:77] Creating layer loss1/classifier_plantvillage_loss1/classifier_plantvillage_0_split
I0403 19:12:57.214434 19115 net.cpp:91] Creating Layer loss1/classifier_plantvillage_loss1/classifier_plantvillage_0_split
I0403 19:12:57.214452 19115 net.cpp:425] loss1/classifier_plantvillage_loss1/classifier_plantvillage_0_split <- loss1/classifier_plantvillage
I0403 19:12:57.214469 19115 net.cpp:399] loss1/classifier_plantvillage_loss1/classifier_plantvillage_0_split -> loss1/classifier_plantvillage_loss1/classifier_plantvillage_0_split_0
I0403 19:12:57.214491 19115 net.cpp:399] loss1/classifier_plantvillage_loss1/classifier_plantvillage_0_split -> loss1/classifier_plantvillage_loss1/classifier_plantvillage_0_split_1
I0403 19:12:57.214512 19115 net.cpp:399] loss1/classifier_plantvillage_loss1/classifier_plantvillage_0_split -> loss1/classifier_plantvillage_loss1/classifier_plantvillage_0_split_2
I0403 19:12:57.214578 19115 net.cpp:141] Setting up loss1/classifier_plantvillage_loss1/classifier_plantvillage_0_split
I0403 19:12:57.214601 19115 net.cpp:148] Top shape: 24 38 (912)
I0403 19:12:57.214617 19115 net.cpp:148] Top shape: 24 38 (912)
I0403 19:12:57.214632 19115 net.cpp:148] Top shape: 24 38 (912)
I0403 19:12:57.214645 19115 net.cpp:156] Memory required for data: 946203936
I0403 19:12:57.214660 19115 layer_factory.hpp:77] Creating layer inception_4b/1x1
I0403 19:12:57.214682 19115 net.cpp:91] Creating Layer inception_4b/1x1
I0403 19:12:57.214717 19115 net.cpp:425] inception_4b/1x1 <- inception_4a/output_inception_4a/output_0_split_1
I0403 19:12:57.214737 19115 net.cpp:399] inception_4b/1x1 -> inception_4b/1x1
I0403 19:12:57.216398 19115 net.cpp:141] Setting up inception_4b/1x1
I0403 19:12:57.216428 19115 net.cpp:148] Top shape: 24 160 14 14 (752640)
I0403 19:12:57.216444 19115 net.cpp:156] Memory required for data: 949214496
I0403 19:12:57.216461 19115 layer_factory.hpp:77] Creating layer inception_4b/relu_1x1
I0403 19:12:57.216480 19115 net.cpp:91] Creating Layer inception_4b/relu_1x1
I0403 19:12:57.216495 19115 net.cpp:425] inception_4b/relu_1x1 <- inception_4b/1x1
I0403 19:12:57.216514 19115 net.cpp:386] inception_4b/relu_1x1 -> inception_4b/1x1 (in-place)
I0403 19:12:57.216692 19115 net.cpp:141] Setting up inception_4b/relu_1x1
I0403 19:12:57.216717 19115 net.cpp:148] Top shape: 24 160 14 14 (752640)
I0403 19:12:57.216732 19115 net.cpp:156] Memory required for data: 952225056
I0403 19:12:57.216745 19115 layer_factory.hpp:77] Creating layer inception_4b/3x3_reduce
I0403 19:12:57.216769 19115 net.cpp:91] Creating Layer inception_4b/3x3_reduce
I0403 19:12:57.216787 19115 net.cpp:425] inception_4b/3x3_reduce <- inception_4a/output_inception_4a/output_0_split_2
I0403 19:12:57.216809 19115 net.cpp:399] inception_4b/3x3_reduce -> inception_4b/3x3_reduce
I0403 19:12:57.218184 19115 net.cpp:141] Setting up inception_4b/3x3_reduce
I0403 19:12:57.218214 19115 net.cpp:148] Top shape: 24 112 14 14 (526848)
I0403 19:12:57.218228 19115 net.cpp:156] Memory required for data: 954332448
I0403 19:12:57.218246 19115 layer_factory.hpp:77] Creating layer inception_4b/relu_3x3_reduce
I0403 19:12:57.218264 19115 net.cpp:91] Creating Layer inception_4b/relu_3x3_reduce
I0403 19:12:57.218281 19115 net.cpp:425] inception_4b/relu_3x3_reduce <- inception_4b/3x3_reduce
I0403 19:12:57.218299 19115 net.cpp:386] inception_4b/relu_3x3_reduce -> inception_4b/3x3_reduce (in-place)
I0403 19:12:57.218580 19115 net.cpp:141] Setting up inception_4b/relu_3x3_reduce
I0403 19:12:57.218606 19115 net.cpp:148] Top shape: 24 112 14 14 (526848)
I0403 19:12:57.218621 19115 net.cpp:156] Memory required for data: 956439840
I0403 19:12:57.218636 19115 layer_factory.hpp:77] Creating layer inception_4b/3x3
I0403 19:12:57.218657 19115 net.cpp:91] Creating Layer inception_4b/3x3
I0403 19:12:57.218675 19115 net.cpp:425] inception_4b/3x3 <- inception_4b/3x3_reduce
I0403 19:12:57.218696 19115 net.cpp:399] inception_4b/3x3 -> inception_4b/3x3
I0403 19:12:57.221715 19115 net.cpp:141] Setting up inception_4b/3x3
I0403 19:12:57.221745 19115 net.cpp:148] Top shape: 24 224 14 14 (1053696)
I0403 19:12:57.221760 19115 net.cpp:156] Memory required for data: 960654624
I0403 19:12:57.221778 19115 layer_factory.hpp:77] Creating layer inception_4b/relu_3x3
I0403 19:12:57.221798 19115 net.cpp:91] Creating Layer inception_4b/relu_3x3
I0403 19:12:57.221814 19115 net.cpp:425] inception_4b/relu_3x3 <- inception_4b/3x3
I0403 19:12:57.221832 19115 net.cpp:386] inception_4b/relu_3x3 -> inception_4b/3x3 (in-place)
I0403 19:12:57.222015 19115 net.cpp:141] Setting up inception_4b/relu_3x3
I0403 19:12:57.222040 19115 net.cpp:148] Top shape: 24 224 14 14 (1053696)
I0403 19:12:57.222054 19115 net.cpp:156] Memory required for data: 964869408
I0403 19:12:57.222069 19115 layer_factory.hpp:77] Creating layer inception_4b/5x5_reduce
I0403 19:12:57.222090 19115 net.cpp:91] Creating Layer inception_4b/5x5_reduce
I0403 19:12:57.222108 19115 net.cpp:425] inception_4b/5x5_reduce <- inception_4a/output_inception_4a/output_0_split_3
I0403 19:12:57.222131 19115 net.cpp:399] inception_4b/5x5_reduce -> inception_4b/5x5_reduce
I0403 19:12:57.223227 19115 net.cpp:141] Setting up inception_4b/5x5_reduce
I0403 19:12:57.223256 19115 net.cpp:148] Top shape: 24 24 14 14 (112896)
I0403 19:12:57.223273 19115 net.cpp:156] Memory required for data: 965320992
I0403 19:12:57.223291 19115 layer_factory.hpp:77] Creating layer inception_4b/relu_5x5_reduce
I0403 19:12:57.223310 19115 net.cpp:91] Creating Layer inception_4b/relu_5x5_reduce
I0403 19:12:57.223352 19115 net.cpp:425] inception_4b/relu_5x5_reduce <- inception_4b/5x5_reduce
I0403 19:12:57.223373 19115 net.cpp:386] inception_4b/relu_5x5_reduce -> inception_4b/5x5_reduce (in-place)
I0403 19:12:57.223556 19115 net.cpp:141] Setting up inception_4b/relu_5x5_reduce
I0403 19:12:57.223580 19115 net.cpp:148] Top shape: 24 24 14 14 (112896)
I0403 19:12:57.223594 19115 net.cpp:156] Memory required for data: 965772576
I0403 19:12:57.223608 19115 layer_factory.hpp:77] Creating layer inception_4b/5x5
I0403 19:12:57.223630 19115 net.cpp:91] Creating Layer inception_4b/5x5
I0403 19:12:57.223647 19115 net.cpp:425] inception_4b/5x5 <- inception_4b/5x5_reduce
I0403 19:12:57.223671 19115 net.cpp:399] inception_4b/5x5 -> inception_4b/5x5
I0403 19:12:57.224895 19115 net.cpp:141] Setting up inception_4b/5x5
I0403 19:12:57.224925 19115 net.cpp:148] Top shape: 24 64 14 14 (301056)
I0403 19:12:57.224941 19115 net.cpp:156] Memory required for data: 966976800
I0403 19:12:57.224963 19115 layer_factory.hpp:77] Creating layer inception_4b/relu_5x5
I0403 19:12:57.224982 19115 net.cpp:91] Creating Layer inception_4b/relu_5x5
I0403 19:12:57.224998 19115 net.cpp:425] inception_4b/relu_5x5 <- inception_4b/5x5
I0403 19:12:57.225018 19115 net.cpp:386] inception_4b/relu_5x5 -> inception_4b/5x5 (in-place)
I0403 19:12:57.225298 19115 net.cpp:141] Setting up inception_4b/relu_5x5
I0403 19:12:57.225327 19115 net.cpp:148] Top shape: 24 64 14 14 (301056)
I0403 19:12:57.225342 19115 net.cpp:156] Memory required for data: 968181024
I0403 19:12:57.225358 19115 layer_factory.hpp:77] Creating layer inception_4b/pool
I0403 19:12:57.225376 19115 net.cpp:91] Creating Layer inception_4b/pool
I0403 19:12:57.225392 19115 net.cpp:425] inception_4b/pool <- inception_4a/output_inception_4a/output_0_split_4
I0403 19:12:57.225412 19115 net.cpp:399] inception_4b/pool -> inception_4b/pool
I0403 19:12:57.225476 19115 net.cpp:141] Setting up inception_4b/pool
I0403 19:12:57.225502 19115 net.cpp:148] Top shape: 24 512 14 14 (2408448)
I0403 19:12:57.225517 19115 net.cpp:156] Memory required for data: 977814816
I0403 19:12:57.225530 19115 layer_factory.hpp:77] Creating layer inception_4b/pool_proj
I0403 19:12:57.225551 19115 net.cpp:91] Creating Layer inception_4b/pool_proj
I0403 19:12:57.225567 19115 net.cpp:425] inception_4b/pool_proj <- inception_4b/pool
I0403 19:12:57.225587 19115 net.cpp:399] inception_4b/pool_proj -> inception_4b/pool_proj
I0403 19:12:57.226804 19115 net.cpp:141] Setting up inception_4b/pool_proj
I0403 19:12:57.226832 19115 net.cpp:148] Top shape: 24 64 14 14 (301056)
I0403 19:12:57.226847 19115 net.cpp:156] Memory required for data: 979019040
I0403 19:12:57.226866 19115 layer_factory.hpp:77] Creating layer inception_4b/relu_pool_proj
I0403 19:12:57.226884 19115 net.cpp:91] Creating Layer inception_4b/relu_pool_proj
I0403 19:12:57.226902 19115 net.cpp:425] inception_4b/relu_pool_proj <- inception_4b/pool_proj
I0403 19:12:57.226922 19115 net.cpp:386] inception_4b/relu_pool_proj -> inception_4b/pool_proj (in-place)
I0403 19:12:57.227116 19115 net.cpp:141] Setting up inception_4b/relu_pool_proj
I0403 19:12:57.227141 19115 net.cpp:148] Top shape: 24 64 14 14 (301056)
I0403 19:12:57.227156 19115 net.cpp:156] Memory required for data: 980223264
I0403 19:12:57.227170 19115 layer_factory.hpp:77] Creating layer inception_4b/output
I0403 19:12:57.227188 19115 net.cpp:91] Creating Layer inception_4b/output
I0403 19:12:57.227205 19115 net.cpp:425] inception_4b/output <- inception_4b/1x1
I0403 19:12:57.227223 19115 net.cpp:425] inception_4b/output <- inception_4b/3x3
I0403 19:12:57.227241 19115 net.cpp:425] inception_4b/output <- inception_4b/5x5
I0403 19:12:57.227257 19115 net.cpp:425] inception_4b/output <- inception_4b/pool_proj
I0403 19:12:57.227273 19115 net.cpp:399] inception_4b/output -> inception_4b/output
I0403 19:12:57.227319 19115 net.cpp:141] Setting up inception_4b/output
I0403 19:12:57.227342 19115 net.cpp:148] Top shape: 24 512 14 14 (2408448)
I0403 19:12:57.227357 19115 net.cpp:156] Memory required for data: 989857056
I0403 19:12:57.227388 19115 layer_factory.hpp:77] Creating layer inception_4b/output_inception_4b/output_0_split
I0403 19:12:57.227406 19115 net.cpp:91] Creating Layer inception_4b/output_inception_4b/output_0_split
I0403 19:12:57.227421 19115 net.cpp:425] inception_4b/output_inception_4b/output_0_split <- inception_4b/output
I0403 19:12:57.227442 19115 net.cpp:399] inception_4b/output_inception_4b/output_0_split -> inception_4b/output_inception_4b/output_0_split_0
I0403 19:12:57.227463 19115 net.cpp:399] inception_4b/output_inception_4b/output_0_split -> inception_4b/output_inception_4b/output_0_split_1
I0403 19:12:57.227483 19115 net.cpp:399] inception_4b/output_inception_4b/output_0_split -> inception_4b/output_inception_4b/output_0_split_2
I0403 19:12:57.227501 19115 net.cpp:399] inception_4b/output_inception_4b/output_0_split -> inception_4b/output_inception_4b/output_0_split_3
I0403 19:12:57.227586 19115 net.cpp:141] Setting up inception_4b/output_inception_4b/output_0_split
I0403 19:12:57.227612 19115 net.cpp:148] Top shape: 24 512 14 14 (2408448)
I0403 19:12:57.227628 19115 net.cpp:148] Top shape: 24 512 14 14 (2408448)
I0403 19:12:57.227643 19115 net.cpp:148] Top shape: 24 512 14 14 (2408448)
I0403 19:12:57.227658 19115 net.cpp:148] Top shape: 24 512 14 14 (2408448)
I0403 19:12:57.227671 19115 net.cpp:156] Memory required for data: 1028392224
I0403 19:12:57.227685 19115 layer_factory.hpp:77] Creating layer inception_4c/1x1
I0403 19:12:57.227707 19115 net.cpp:91] Creating Layer inception_4c/1x1
I0403 19:12:57.227725 19115 net.cpp:425] inception_4c/1x1 <- inception_4b/output_inception_4b/output_0_split_0
I0403 19:12:57.227743 19115 net.cpp:399] inception_4c/1x1 -> inception_4c/1x1
I0403 19:12:57.229179 19115 net.cpp:141] Setting up inception_4c/1x1
I0403 19:12:57.229209 19115 net.cpp:148] Top shape: 24 128 14 14 (602112)
I0403 19:12:57.229224 19115 net.cpp:156] Memory required for data: 1030800672
I0403 19:12:57.229243 19115 layer_factory.hpp:77] Creating layer inception_4c/relu_1x1
I0403 19:12:57.229264 19115 net.cpp:91] Creating Layer inception_4c/relu_1x1
I0403 19:12:57.229280 19115 net.cpp:425] inception_4c/relu_1x1 <- inception_4c/1x1
I0403 19:12:57.229297 19115 net.cpp:386] inception_4c/relu_1x1 -> inception_4c/1x1 (in-place)
I0403 19:12:57.229476 19115 net.cpp:141] Setting up inception_4c/relu_1x1
I0403 19:12:57.229503 19115 net.cpp:148] Top shape: 24 128 14 14 (602112)
I0403 19:12:57.229518 19115 net.cpp:156] Memory required for data: 1033209120
I0403 19:12:57.229532 19115 layer_factory.hpp:77] Creating layer inception_4c/3x3_reduce
I0403 19:12:57.229554 19115 net.cpp:91] Creating Layer inception_4c/3x3_reduce
I0403 19:12:57.229571 19115 net.cpp:425] inception_4c/3x3_reduce <- inception_4b/output_inception_4b/output_0_split_1
I0403 19:12:57.229589 19115 net.cpp:399] inception_4c/3x3_reduce -> inception_4c/3x3_reduce
I0403 19:12:57.231534 19115 net.cpp:141] Setting up inception_4c/3x3_reduce
I0403 19:12:57.231565 19115 net.cpp:148] Top shape: 24 128 14 14 (602112)
I0403 19:12:57.231583 19115 net.cpp:156] Memory required for data: 1035617568
I0403 19:12:57.231601 19115 layer_factory.hpp:77] Creating layer inception_4c/relu_3x3_reduce
I0403 19:12:57.231621 19115 net.cpp:91] Creating Layer inception_4c/relu_3x3_reduce
I0403 19:12:57.231637 19115 net.cpp:425] inception_4c/relu_3x3_reduce <- inception_4c/3x3_reduce
I0403 19:12:57.231657 19115 net.cpp:386] inception_4c/relu_3x3_reduce -> inception_4c/3x3_reduce (in-place)
I0403 19:12:57.231945 19115 net.cpp:141] Setting up inception_4c/relu_3x3_reduce
I0403 19:12:57.231976 19115 net.cpp:148] Top shape: 24 128 14 14 (602112)
I0403 19:12:57.231992 19115 net.cpp:156] Memory required for data: 1038026016
I0403 19:12:57.232007 19115 layer_factory.hpp:77] Creating layer inception_4c/3x3
I0403 19:12:57.232029 19115 net.cpp:91] Creating Layer inception_4c/3x3
I0403 19:12:57.232048 19115 net.cpp:425] inception_4c/3x3 <- inception_4c/3x3_reduce
I0403 19:12:57.232069 19115 net.cpp:399] inception_4c/3x3 -> inception_4c/3x3
I0403 19:12:57.235764 19115 net.cpp:141] Setting up inception_4c/3x3
I0403 19:12:57.235811 19115 net.cpp:148] Top shape: 24 256 14 14 (1204224)
I0403 19:12:57.235831 19115 net.cpp:156] Memory required for data: 1042842912
I0403 19:12:57.235863 19115 layer_factory.hpp:77] Creating layer inception_4c/relu_3x3
I0403 19:12:57.235883 19115 net.cpp:91] Creating Layer inception_4c/relu_3x3
I0403 19:12:57.235901 19115 net.cpp:425] inception_4c/relu_3x3 <- inception_4c/3x3
I0403 19:12:57.235921 19115 net.cpp:386] inception_4c/relu_3x3 -> inception_4c/3x3 (in-place)
I0403 19:12:57.236111 19115 net.cpp:141] Setting up inception_4c/relu_3x3
I0403 19:12:57.236137 19115 net.cpp:148] Top shape: 24 256 14 14 (1204224)
I0403 19:12:57.236151 19115 net.cpp:156] Memory required for data: 1047659808
I0403 19:12:57.236166 19115 layer_factory.hpp:77] Creating layer inception_4c/5x5_reduce
I0403 19:12:57.236189 19115 net.cpp:91] Creating Layer inception_4c/5x5_reduce
I0403 19:12:57.236208 19115 net.cpp:425] inception_4c/5x5_reduce <- inception_4b/output_inception_4b/output_0_split_2
I0403 19:12:57.236230 19115 net.cpp:399] inception_4c/5x5_reduce -> inception_4c/5x5_reduce
I0403 19:12:57.237387 19115 net.cpp:141] Setting up inception_4c/5x5_reduce
I0403 19:12:57.237416 19115 net.cpp:148] Top shape: 24 24 14 14 (112896)
I0403 19:12:57.237432 19115 net.cpp:156] Memory required for data: 1048111392
I0403 19:12:57.237450 19115 layer_factory.hpp:77] Creating layer inception_4c/relu_5x5_reduce
I0403 19:12:57.237468 19115 net.cpp:91] Creating Layer inception_4c/relu_5x5_reduce
I0403 19:12:57.237484 19115 net.cpp:425] inception_4c/relu_5x5_reduce <- inception_4c/5x5_reduce
I0403 19:12:57.237504 19115 net.cpp:386] inception_4c/relu_5x5_reduce -> inception_4c/5x5_reduce (in-place)
I0403 19:12:57.237691 19115 net.cpp:141] Setting up inception_4c/relu_5x5_reduce
I0403 19:12:57.237716 19115 net.cpp:148] Top shape: 24 24 14 14 (112896)
I0403 19:12:57.237731 19115 net.cpp:156] Memory required for data: 1048562976
I0403 19:12:57.237746 19115 layer_factory.hpp:77] Creating layer inception_4c/5x5
I0403 19:12:57.237769 19115 net.cpp:91] Creating Layer inception_4c/5x5
I0403 19:12:57.237787 19115 net.cpp:425] inception_4c/5x5 <- inception_4c/5x5_reduce
I0403 19:12:57.237808 19115 net.cpp:399] inception_4c/5x5 -> inception_4c/5x5
I0403 19:12:57.239096 19115 net.cpp:141] Setting up inception_4c/5x5
I0403 19:12:57.239125 19115 net.cpp:148] Top shape: 24 64 14 14 (301056)
I0403 19:12:57.239141 19115 net.cpp:156] Memory required for data: 1049767200
I0403 19:12:57.239159 19115 layer_factory.hpp:77] Creating layer inception_4c/relu_5x5
I0403 19:12:57.239181 19115 net.cpp:91] Creating Layer inception_4c/relu_5x5
I0403 19:12:57.239198 19115 net.cpp:425] inception_4c/relu_5x5 <- inception_4c/5x5
I0403 19:12:57.239217 19115 net.cpp:386] inception_4c/relu_5x5 -> inception_4c/5x5 (in-place)
I0403 19:12:57.239514 19115 net.cpp:141] Setting up inception_4c/relu_5x5
I0403 19:12:57.239542 19115 net.cpp:148] Top shape: 24 64 14 14 (301056)
I0403 19:12:57.239557 19115 net.cpp:156] Memory required for data: 1050971424
I0403 19:12:57.239572 19115 layer_factory.hpp:77] Creating layer inception_4c/pool
I0403 19:12:57.239593 19115 net.cpp:91] Creating Layer inception_4c/pool
I0403 19:12:57.239610 19115 net.cpp:425] inception_4c/pool <- inception_4b/output_inception_4b/output_0_split_3
I0403 19:12:57.239629 19115 net.cpp:399] inception_4c/pool -> inception_4c/pool
I0403 19:12:57.239696 19115 net.cpp:141] Setting up inception_4c/pool
I0403 19:12:57.239720 19115 net.cpp:148] Top shape: 24 512 14 14 (2408448)
I0403 19:12:57.239735 19115 net.cpp:156] Memory required for data: 1060605216
I0403 19:12:57.239749 19115 layer_factory.hpp:77] Creating layer inception_4c/pool_proj
I0403 19:12:57.239771 19115 net.cpp:91] Creating Layer inception_4c/pool_proj
I0403 19:12:57.239789 19115 net.cpp:425] inception_4c/pool_proj <- inception_4c/pool
I0403 19:12:57.239810 19115 net.cpp:399] inception_4c/pool_proj -> inception_4c/pool_proj
I0403 19:12:57.241065 19115 net.cpp:141] Setting up inception_4c/pool_proj
I0403 19:12:57.241096 19115 net.cpp:148] Top shape: 24 64 14 14 (301056)
I0403 19:12:57.241125 19115 net.cpp:156] Memory required for data: 1061809440
I0403 19:12:57.241145 19115 layer_factory.hpp:77] Creating layer inception_4c/relu_pool_proj
I0403 19:12:57.241164 19115 net.cpp:91] Creating Layer inception_4c/relu_pool_proj
I0403 19:12:57.241181 19115 net.cpp:425] inception_4c/relu_pool_proj <- inception_4c/pool_proj
I0403 19:12:57.241201 19115 net.cpp:386] inception_4c/relu_pool_proj -> inception_4c/pool_proj (in-place)
I0403 19:12:57.241389 19115 net.cpp:141] Setting up inception_4c/relu_pool_proj
I0403 19:12:57.241413 19115 net.cpp:148] Top shape: 24 64 14 14 (301056)
I0403 19:12:57.241430 19115 net.cpp:156] Memory required for data: 1063013664
I0403 19:12:57.241443 19115 layer_factory.hpp:77] Creating layer inception_4c/output
I0403 19:12:57.241461 19115 net.cpp:91] Creating Layer inception_4c/output
I0403 19:12:57.241477 19115 net.cpp:425] inception_4c/output <- inception_4c/1x1
I0403 19:12:57.241493 19115 net.cpp:425] inception_4c/output <- inception_4c/3x3
I0403 19:12:57.241509 19115 net.cpp:425] inception_4c/output <- inception_4c/5x5
I0403 19:12:57.241525 19115 net.cpp:425] inception_4c/output <- inception_4c/pool_proj
I0403 19:12:57.241544 19115 net.cpp:399] inception_4c/output -> inception_4c/output
I0403 19:12:57.241595 19115 net.cpp:141] Setting up inception_4c/output
I0403 19:12:57.241618 19115 net.cpp:148] Top shape: 24 512 14 14 (2408448)
I0403 19:12:57.241632 19115 net.cpp:156] Memory required for data: 1072647456
I0403 19:12:57.241647 19115 layer_factory.hpp:77] Creating layer inception_4c/output_inception_4c/output_0_split
I0403 19:12:57.241664 19115 net.cpp:91] Creating Layer inception_4c/output_inception_4c/output_0_split
I0403 19:12:57.241680 19115 net.cpp:425] inception_4c/output_inception_4c/output_0_split <- inception_4c/output
I0403 19:12:57.241700 19115 net.cpp:399] inception_4c/output_inception_4c/output_0_split -> inception_4c/output_inception_4c/output_0_split_0
I0403 19:12:57.241722 19115 net.cpp:399] inception_4c/output_inception_4c/output_0_split -> inception_4c/output_inception_4c/output_0_split_1
I0403 19:12:57.241742 19115 net.cpp:399] inception_4c/output_inception_4c/output_0_split -> inception_4c/output_inception_4c/output_0_split_2
I0403 19:12:57.241762 19115 net.cpp:399] inception_4c/output_inception_4c/output_0_split -> inception_4c/output_inception_4c/output_0_split_3
I0403 19:12:57.241850 19115 net.cpp:141] Setting up inception_4c/output_inception_4c/output_0_split
I0403 19:12:57.241876 19115 net.cpp:148] Top shape: 24 512 14 14 (2408448)
I0403 19:12:57.241894 19115 net.cpp:148] Top shape: 24 512 14 14 (2408448)
I0403 19:12:57.241909 19115 net.cpp:148] Top shape: 24 512 14 14 (2408448)
I0403 19:12:57.241925 19115 net.cpp:148] Top shape: 24 512 14 14 (2408448)
I0403 19:12:57.241937 19115 net.cpp:156] Memory required for data: 1111182624
I0403 19:12:57.241957 19115 layer_factory.hpp:77] Creating layer inception_4d/1x1
I0403 19:12:57.241981 19115 net.cpp:91] Creating Layer inception_4d/1x1
I0403 19:12:57.241998 19115 net.cpp:425] inception_4d/1x1 <- inception_4c/output_inception_4c/output_0_split_0
I0403 19:12:57.242017 19115 net.cpp:399] inception_4d/1x1 -> inception_4d/1x1
I0403 19:12:57.243435 19115 net.cpp:141] Setting up inception_4d/1x1
I0403 19:12:57.243463 19115 net.cpp:148] Top shape: 24 112 14 14 (526848)
I0403 19:12:57.243480 19115 net.cpp:156] Memory required for data: 1113290016
I0403 19:12:57.243499 19115 layer_factory.hpp:77] Creating layer inception_4d/relu_1x1
I0403 19:12:57.243522 19115 net.cpp:91] Creating Layer inception_4d/relu_1x1
I0403 19:12:57.243540 19115 net.cpp:425] inception_4d/relu_1x1 <- inception_4d/1x1
I0403 19:12:57.243557 19115 net.cpp:386] inception_4d/relu_1x1 -> inception_4d/1x1 (in-place)
I0403 19:12:57.243744 19115 net.cpp:141] Setting up inception_4d/relu_1x1
I0403 19:12:57.243769 19115 net.cpp:148] Top shape: 24 112 14 14 (526848)
I0403 19:12:57.243784 19115 net.cpp:156] Memory required for data: 1115397408
I0403 19:12:57.243799 19115 layer_factory.hpp:77] Creating layer inception_4d/3x3_reduce
I0403 19:12:57.243836 19115 net.cpp:91] Creating Layer inception_4d/3x3_reduce
I0403 19:12:57.243855 19115 net.cpp:425] inception_4d/3x3_reduce <- inception_4c/output_inception_4c/output_0_split_1
I0403 19:12:57.243877 19115 net.cpp:399] inception_4d/3x3_reduce -> inception_4d/3x3_reduce
I0403 19:12:57.245429 19115 net.cpp:141] Setting up inception_4d/3x3_reduce
I0403 19:12:57.245456 19115 net.cpp:148] Top shape: 24 144 14 14 (677376)
I0403 19:12:57.245472 19115 net.cpp:156] Memory required for data: 1118106912
I0403 19:12:57.245491 19115 layer_factory.hpp:77] Creating layer inception_4d/relu_3x3_reduce
I0403 19:12:57.245512 19115 net.cpp:91] Creating Layer inception_4d/relu_3x3_reduce
I0403 19:12:57.245529 19115 net.cpp:425] inception_4d/relu_3x3_reduce <- inception_4d/3x3_reduce
I0403 19:12:57.245546 19115 net.cpp:386] inception_4d/relu_3x3_reduce -> inception_4d/3x3_reduce (in-place)
I0403 19:12:57.245841 19115 net.cpp:141] Setting up inception_4d/relu_3x3_reduce
I0403 19:12:57.245867 19115 net.cpp:148] Top shape: 24 144 14 14 (677376)
I0403 19:12:57.245882 19115 net.cpp:156] Memory required for data: 1120816416
I0403 19:12:57.245896 19115 layer_factory.hpp:77] Creating layer inception_4d/3x3
I0403 19:12:57.245919 19115 net.cpp:91] Creating Layer inception_4d/3x3
I0403 19:12:57.245937 19115 net.cpp:425] inception_4d/3x3 <- inception_4d/3x3_reduce
I0403 19:12:57.245964 19115 net.cpp:399] inception_4d/3x3 -> inception_4d/3x3
I0403 19:12:57.250351 19115 net.cpp:141] Setting up inception_4d/3x3
I0403 19:12:57.250383 19115 net.cpp:148] Top shape: 24 288 14 14 (1354752)
I0403 19:12:57.250401 19115 net.cpp:156] Memory required for data: 1126235424
I0403 19:12:57.250419 19115 layer_factory.hpp:77] Creating layer inception_4d/relu_3x3
I0403 19:12:57.250438 19115 net.cpp:91] Creating Layer inception_4d/relu_3x3
I0403 19:12:57.250454 19115 net.cpp:425] inception_4d/relu_3x3 <- inception_4d/3x3
I0403 19:12:57.250471 19115 net.cpp:386] inception_4d/relu_3x3 -> inception_4d/3x3 (in-place)
I0403 19:12:57.250661 19115 net.cpp:141] Setting up inception_4d/relu_3x3
I0403 19:12:57.250687 19115 net.cpp:148] Top shape: 24 288 14 14 (1354752)
I0403 19:12:57.250702 19115 net.cpp:156] Memory required for data: 1131654432
I0403 19:12:57.250717 19115 layer_factory.hpp:77] Creating layer inception_4d/5x5_reduce
I0403 19:12:57.250741 19115 net.cpp:91] Creating Layer inception_4d/5x5_reduce
I0403 19:12:57.250757 19115 net.cpp:425] inception_4d/5x5_reduce <- inception_4c/output_inception_4c/output_0_split_2
I0403 19:12:57.250780 19115 net.cpp:399] inception_4d/5x5_reduce -> inception_4d/5x5_reduce
I0403 19:12:57.251961 19115 net.cpp:141] Setting up inception_4d/5x5_reduce
I0403 19:12:57.251991 19115 net.cpp:148] Top shape: 24 32 14 14 (150528)
I0403 19:12:57.252007 19115 net.cpp:156] Memory required for data: 1132256544
I0403 19:12:57.252027 19115 layer_factory.hpp:77] Creating layer inception_4d/relu_5x5_reduce
I0403 19:12:57.252044 19115 net.cpp:91] Creating Layer inception_4d/relu_5x5_reduce
I0403 19:12:57.252060 19115 net.cpp:425] inception_4d/relu_5x5_reduce <- inception_4d/5x5_reduce
I0403 19:12:57.252079 19115 net.cpp:386] inception_4d/relu_5x5_reduce -> inception_4d/5x5_reduce (in-place)
I0403 19:12:57.252266 19115 net.cpp:141] Setting up inception_4d/relu_5x5_reduce
I0403 19:12:57.252291 19115 net.cpp:148] Top shape: 24 32 14 14 (150528)
I0403 19:12:57.252305 19115 net.cpp:156] Memory required for data: 1132858656
I0403 19:12:57.252320 19115 layer_factory.hpp:77] Creating layer inception_4d/5x5
I0403 19:12:57.252341 19115 net.cpp:91] Creating Layer inception_4d/5x5
I0403 19:12:57.252358 19115 net.cpp:425] inception_4d/5x5 <- inception_4d/5x5_reduce
I0403 19:12:57.252379 19115 net.cpp:399] inception_4d/5x5 -> inception_4d/5x5
I0403 19:12:57.253844 19115 net.cpp:141] Setting up inception_4d/5x5
I0403 19:12:57.253872 19115 net.cpp:148] Top shape: 24 64 14 14 (301056)
I0403 19:12:57.253887 19115 net.cpp:156] Memory required for data: 1134062880
I0403 19:12:57.253906 19115 layer_factory.hpp:77] Creating layer inception_4d/relu_5x5
I0403 19:12:57.253938 19115 net.cpp:91] Creating Layer inception_4d/relu_5x5
I0403 19:12:57.253960 19115 net.cpp:425] inception_4d/relu_5x5 <- inception_4d/5x5
I0403 19:12:57.253980 19115 net.cpp:386] inception_4d/relu_5x5 -> inception_4d/5x5 (in-place)
I0403 19:12:57.254281 19115 net.cpp:141] Setting up inception_4d/relu_5x5
I0403 19:12:57.254307 19115 net.cpp:148] Top shape: 24 64 14 14 (301056)
I0403 19:12:57.254323 19115 net.cpp:156] Memory required for data: 1135267104
I0403 19:12:57.254336 19115 layer_factory.hpp:77] Creating layer inception_4d/pool
I0403 19:12:57.254354 19115 net.cpp:91] Creating Layer inception_4d/pool
I0403 19:12:57.254370 19115 net.cpp:425] inception_4d/pool <- inception_4c/output_inception_4c/output_0_split_3
I0403 19:12:57.254402 19115 net.cpp:399] inception_4d/pool -> inception_4d/pool
I0403 19:12:57.254473 19115 net.cpp:141] Setting up inception_4d/pool
I0403 19:12:57.254498 19115 net.cpp:148] Top shape: 24 512 14 14 (2408448)
I0403 19:12:57.254511 19115 net.cpp:156] Memory required for data: 1144900896
I0403 19:12:57.254526 19115 layer_factory.hpp:77] Creating layer inception_4d/pool_proj
I0403 19:12:57.254551 19115 net.cpp:91] Creating Layer inception_4d/pool_proj
I0403 19:12:57.254570 19115 net.cpp:425] inception_4d/pool_proj <- inception_4d/pool
I0403 19:12:57.254588 19115 net.cpp:399] inception_4d/pool_proj -> inception_4d/pool_proj
I0403 19:12:57.256358 19115 net.cpp:141] Setting up inception_4d/pool_proj
I0403 19:12:57.256389 19115 net.cpp:148] Top shape: 24 64 14 14 (301056)
I0403 19:12:57.256405 19115 net.cpp:156] Memory required for data: 1146105120
I0403 19:12:57.256424 19115 layer_factory.hpp:77] Creating layer inception_4d/relu_pool_proj
I0403 19:12:57.256443 19115 net.cpp:91] Creating Layer inception_4d/relu_pool_proj
I0403 19:12:57.256459 19115 net.cpp:425] inception_4d/relu_pool_proj <- inception_4d/pool_proj
I0403 19:12:57.256476 19115 net.cpp:386] inception_4d/relu_pool_proj -> inception_4d/pool_proj (in-place)
I0403 19:12:57.256661 19115 net.cpp:141] Setting up inception_4d/relu_pool_proj
I0403 19:12:57.256686 19115 net.cpp:148] Top shape: 24 64 14 14 (301056)
I0403 19:12:57.256701 19115 net.cpp:156] Memory required for data: 1147309344
I0403 19:12:57.256716 19115 layer_factory.hpp:77] Creating layer inception_4d/output
I0403 19:12:57.256732 19115 net.cpp:91] Creating Layer inception_4d/output
I0403 19:12:57.256748 19115 net.cpp:425] inception_4d/output <- inception_4d/1x1
I0403 19:12:57.256763 19115 net.cpp:425] inception_4d/output <- inception_4d/3x3
I0403 19:12:57.256779 19115 net.cpp:425] inception_4d/output <- inception_4d/5x5
I0403 19:12:57.256794 19115 net.cpp:425] inception_4d/output <- inception_4d/pool_proj
I0403 19:12:57.256814 19115 net.cpp:399] inception_4d/output -> inception_4d/output
I0403 19:12:57.256860 19115 net.cpp:141] Setting up inception_4d/output
I0403 19:12:57.256886 19115 net.cpp:148] Top shape: 24 528 14 14 (2483712)
I0403 19:12:57.256901 19115 net.cpp:156] Memory required for data: 1157244192
I0403 19:12:57.256916 19115 layer_factory.hpp:77] Creating layer inception_4d/output_inception_4d/output_0_split
I0403 19:12:57.256933 19115 net.cpp:91] Creating Layer inception_4d/output_inception_4d/output_0_split
I0403 19:12:57.256952 19115 net.cpp:425] inception_4d/output_inception_4d/output_0_split <- inception_4d/output
I0403 19:12:57.256973 19115 net.cpp:399] inception_4d/output_inception_4d/output_0_split -> inception_4d/output_inception_4d/output_0_split_0
I0403 19:12:57.256995 19115 net.cpp:399] inception_4d/output_inception_4d/output_0_split -> inception_4d/output_inception_4d/output_0_split_1
I0403 19:12:57.257015 19115 net.cpp:399] inception_4d/output_inception_4d/output_0_split -> inception_4d/output_inception_4d/output_0_split_2
I0403 19:12:57.257035 19115 net.cpp:399] inception_4d/output_inception_4d/output_0_split -> inception_4d/output_inception_4d/output_0_split_3
I0403 19:12:57.257055 19115 net.cpp:399] inception_4d/output_inception_4d/output_0_split -> inception_4d/output_inception_4d/output_0_split_4
I0403 19:12:57.257155 19115 net.cpp:141] Setting up inception_4d/output_inception_4d/output_0_split
I0403 19:12:57.257191 19115 net.cpp:148] Top shape: 24 528 14 14 (2483712)
I0403 19:12:57.257210 19115 net.cpp:148] Top shape: 24 528 14 14 (2483712)
I0403 19:12:57.257225 19115 net.cpp:148] Top shape: 24 528 14 14 (2483712)
I0403 19:12:57.257239 19115 net.cpp:148] Top shape: 24 528 14 14 (2483712)
I0403 19:12:57.257254 19115 net.cpp:148] Top shape: 24 528 14 14 (2483712)
I0403 19:12:57.257267 19115 net.cpp:156] Memory required for data: 1206918432
I0403 19:12:57.257282 19115 layer_factory.hpp:77] Creating layer loss2/ave_pool
I0403 19:12:57.257302 19115 net.cpp:91] Creating Layer loss2/ave_pool
I0403 19:12:57.257318 19115 net.cpp:425] loss2/ave_pool <- inception_4d/output_inception_4d/output_0_split_0
I0403 19:12:57.257336 19115 net.cpp:399] loss2/ave_pool -> loss2/ave_pool
I0403 19:12:57.257648 19115 net.cpp:141] Setting up loss2/ave_pool
I0403 19:12:57.257676 19115 net.cpp:148] Top shape: 24 528 4 4 (202752)
I0403 19:12:57.257693 19115 net.cpp:156] Memory required for data: 1207729440
I0403 19:12:57.257707 19115 layer_factory.hpp:77] Creating layer loss2/conv
I0403 19:12:57.257730 19115 net.cpp:91] Creating Layer loss2/conv
I0403 19:12:57.257747 19115 net.cpp:425] loss2/conv <- loss2/ave_pool
I0403 19:12:57.257766 19115 net.cpp:399] loss2/conv -> loss2/conv
I0403 19:12:57.259661 19115 net.cpp:141] Setting up loss2/conv
I0403 19:12:57.259690 19115 net.cpp:148] Top shape: 24 128 4 4 (49152)
I0403 19:12:57.259706 19115 net.cpp:156] Memory required for data: 1207926048
I0403 19:12:57.259726 19115 layer_factory.hpp:77] Creating layer loss2/relu_conv
I0403 19:12:57.259745 19115 net.cpp:91] Creating Layer loss2/relu_conv
I0403 19:12:57.259763 19115 net.cpp:425] loss2/relu_conv <- loss2/conv
I0403 19:12:57.259780 19115 net.cpp:386] loss2/relu_conv -> loss2/conv (in-place)
I0403 19:12:57.260069 19115 net.cpp:141] Setting up loss2/relu_conv
I0403 19:12:57.260094 19115 net.cpp:148] Top shape: 24 128 4 4 (49152)
I0403 19:12:57.260110 19115 net.cpp:156] Memory required for data: 1208122656
I0403 19:12:57.260124 19115 layer_factory.hpp:77] Creating layer loss2/fc
I0403 19:12:57.260148 19115 net.cpp:91] Creating Layer loss2/fc
I0403 19:12:57.260164 19115 net.cpp:425] loss2/fc <- loss2/conv
I0403 19:12:57.260182 19115 net.cpp:399] loss2/fc -> loss2/fc
I0403 19:12:57.277918 19115 net.cpp:141] Setting up loss2/fc
I0403 19:12:57.277963 19115 net.cpp:148] Top shape: 24 1024 (24576)
I0403 19:12:57.277982 19115 net.cpp:156] Memory required for data: 1208220960
I0403 19:12:57.278002 19115 layer_factory.hpp:77] Creating layer loss2/relu_fc
I0403 19:12:57.278019 19115 net.cpp:91] Creating Layer loss2/relu_fc
I0403 19:12:57.278036 19115 net.cpp:425] loss2/relu_fc <- loss2/fc
I0403 19:12:57.278056 19115 net.cpp:386] loss2/relu_fc -> loss2/fc (in-place)
I0403 19:12:57.278388 19115 net.cpp:141] Setting up loss2/relu_fc
I0403 19:12:57.278416 19115 net.cpp:148] Top shape: 24 1024 (24576)
I0403 19:12:57.278432 19115 net.cpp:156] Memory required for data: 1208319264
I0403 19:12:57.278447 19115 layer_factory.hpp:77] Creating layer loss2/drop_fc
I0403 19:12:57.278477 19115 net.cpp:91] Creating Layer loss2/drop_fc
I0403 19:12:57.278493 19115 net.cpp:425] loss2/drop_fc <- loss2/fc
I0403 19:12:57.278512 19115 net.cpp:386] loss2/drop_fc -> loss2/fc (in-place)
I0403 19:12:57.278561 19115 net.cpp:141] Setting up loss2/drop_fc
I0403 19:12:57.278584 19115 net.cpp:148] Top shape: 24 1024 (24576)
I0403 19:12:57.278599 19115 net.cpp:156] Memory required for data: 1208417568
I0403 19:12:57.278612 19115 layer_factory.hpp:77] Creating layer loss2/classifier_plantvillage
I0403 19:12:57.278635 19115 net.cpp:91] Creating Layer loss2/classifier_plantvillage
I0403 19:12:57.278652 19115 net.cpp:425] loss2/classifier_plantvillage <- loss2/fc
I0403 19:12:57.278672 19115 net.cpp:399] loss2/classifier_plantvillage -> loss2/classifier_plantvillage
I0403 19:12:57.279078 19115 net.cpp:141] Setting up loss2/classifier_plantvillage
I0403 19:12:57.279103 19115 net.cpp:148] Top shape: 24 38 (912)
I0403 19:12:57.279132 19115 net.cpp:156] Memory required for data: 1208421216
I0403 19:12:57.279151 19115 layer_factory.hpp:77] Creating layer loss2/classifier_plantvillage_loss2/classifier_plantvillage_0_split
I0403 19:12:57.279171 19115 net.cpp:91] Creating Layer loss2/classifier_plantvillage_loss2/classifier_plantvillage_0_split
I0403 19:12:57.279189 19115 net.cpp:425] loss2/classifier_plantvillage_loss2/classifier_plantvillage_0_split <- loss2/classifier_plantvillage
I0403 19:12:57.279207 19115 net.cpp:399] loss2/classifier_plantvillage_loss2/classifier_plantvillage_0_split -> loss2/classifier_plantvillage_loss2/classifier_plantvillage_0_split_0
I0403 19:12:57.279227 19115 net.cpp:399] loss2/classifier_plantvillage_loss2/classifier_plantvillage_0_split -> loss2/classifier_plantvillage_loss2/classifier_plantvillage_0_split_1
I0403 19:12:57.279247 19115 net.cpp:399] loss2/classifier_plantvillage_loss2/classifier_plantvillage_0_split -> loss2/classifier_plantvillage_loss2/classifier_plantvillage_0_split_2
I0403 19:12:57.279325 19115 net.cpp:141] Setting up loss2/classifier_plantvillage_loss2/classifier_plantvillage_0_split
I0403 19:12:57.279348 19115 net.cpp:148] Top shape: 24 38 (912)
I0403 19:12:57.279364 19115 net.cpp:148] Top shape: 24 38 (912)
I0403 19:12:57.279379 19115 net.cpp:148] Top shape: 24 38 (912)
I0403 19:12:57.279392 19115 net.cpp:156] Memory required for data: 1208432160
I0403 19:12:57.279407 19115 layer_factory.hpp:77] Creating layer inception_4e/1x1
I0403 19:12:57.279427 19115 net.cpp:91] Creating Layer inception_4e/1x1
I0403 19:12:57.279443 19115 net.cpp:425] inception_4e/1x1 <- inception_4d/output_inception_4d/output_0_split_1
I0403 19:12:57.279464 19115 net.cpp:399] inception_4e/1x1 -> inception_4e/1x1
I0403 19:12:57.281280 19115 net.cpp:141] Setting up inception_4e/1x1
I0403 19:12:57.281308 19115 net.cpp:148] Top shape: 24 256 14 14 (1204224)
I0403 19:12:57.281323 19115 net.cpp:156] Memory required for data: 1213249056
I0403 19:12:57.281342 19115 layer_factory.hpp:77] Creating layer inception_4e/relu_1x1
I0403 19:12:57.281361 19115 net.cpp:91] Creating Layer inception_4e/relu_1x1
I0403 19:12:57.281378 19115 net.cpp:425] inception_4e/relu_1x1 <- inception_4e/1x1
I0403 19:12:57.281395 19115 net.cpp:386] inception_4e/relu_1x1 -> inception_4e/1x1 (in-place)
I0403 19:12:57.281694 19115 net.cpp:141] Setting up inception_4e/relu_1x1
I0403 19:12:57.281720 19115 net.cpp:148] Top shape: 24 256 14 14 (1204224)
I0403 19:12:57.281735 19115 net.cpp:156] Memory required for data: 1218065952
I0403 19:12:57.281749 19115 layer_factory.hpp:77] Creating layer inception_4e/3x3_reduce
I0403 19:12:57.281771 19115 net.cpp:91] Creating Layer inception_4e/3x3_reduce
I0403 19:12:57.281790 19115 net.cpp:425] inception_4e/3x3_reduce <- inception_4d/output_inception_4d/output_0_split_2
I0403 19:12:57.281810 19115 net.cpp:399] inception_4e/3x3_reduce -> inception_4e/3x3_reduce
I0403 19:12:57.283962 19115 net.cpp:141] Setting up inception_4e/3x3_reduce
I0403 19:12:57.283992 19115 net.cpp:148] Top shape: 24 160 14 14 (752640)
I0403 19:12:57.284008 19115 net.cpp:156] Memory required for data: 1221076512
I0403 19:12:57.284026 19115 layer_factory.hpp:77] Creating layer inception_4e/relu_3x3_reduce
I0403 19:12:57.284044 19115 net.cpp:91] Creating Layer inception_4e/relu_3x3_reduce
I0403 19:12:57.284065 19115 net.cpp:425] inception_4e/relu_3x3_reduce <- inception_4e/3x3_reduce
I0403 19:12:57.284081 19115 net.cpp:386] inception_4e/relu_3x3_reduce -> inception_4e/3x3_reduce (in-place)
I0403 19:12:57.284274 19115 net.cpp:141] Setting up inception_4e/relu_3x3_reduce
I0403 19:12:57.284299 19115 net.cpp:148] Top shape: 24 160 14 14 (752640)
I0403 19:12:57.284314 19115 net.cpp:156] Memory required for data: 1224087072
I0403 19:12:57.284328 19115 layer_factory.hpp:77] Creating layer inception_4e/3x3
I0403 19:12:57.284350 19115 net.cpp:91] Creating Layer inception_4e/3x3
I0403 19:12:57.284368 19115 net.cpp:425] inception_4e/3x3 <- inception_4e/3x3_reduce
I0403 19:12:57.284389 19115 net.cpp:399] inception_4e/3x3 -> inception_4e/3x3
I0403 19:12:57.289448 19115 net.cpp:141] Setting up inception_4e/3x3
I0403 19:12:57.289489 19115 net.cpp:148] Top shape: 24 320 14 14 (1505280)
I0403 19:12:57.289505 19115 net.cpp:156] Memory required for data: 1230108192
I0403 19:12:57.289523 19115 layer_factory.hpp:77] Creating layer inception_4e/relu_3x3
I0403 19:12:57.289544 19115 net.cpp:91] Creating Layer inception_4e/relu_3x3
I0403 19:12:57.289561 19115 net.cpp:425] inception_4e/relu_3x3 <- inception_4e/3x3
I0403 19:12:57.289577 19115 net.cpp:386] inception_4e/relu_3x3 -> inception_4e/3x3 (in-place)
I0403 19:12:57.289878 19115 net.cpp:141] Setting up inception_4e/relu_3x3
I0403 19:12:57.289904 19115 net.cpp:148] Top shape: 24 320 14 14 (1505280)
I0403 19:12:57.289919 19115 net.cpp:156] Memory required for data: 1236129312
I0403 19:12:57.289934 19115 layer_factory.hpp:77] Creating layer inception_4e/5x5_reduce
I0403 19:12:57.289963 19115 net.cpp:91] Creating Layer inception_4e/5x5_reduce
I0403 19:12:57.289981 19115 net.cpp:425] inception_4e/5x5_reduce <- inception_4d/output_inception_4d/output_0_split_3
I0403 19:12:57.290000 19115 net.cpp:399] inception_4e/5x5_reduce -> inception_4e/5x5_reduce
I0403 19:12:57.291097 19115 net.cpp:141] Setting up inception_4e/5x5_reduce
I0403 19:12:57.291126 19115 net.cpp:148] Top shape: 24 32 14 14 (150528)
I0403 19:12:57.291141 19115 net.cpp:156] Memory required for data: 1236731424
I0403 19:12:57.291160 19115 layer_factory.hpp:77] Creating layer inception_4e/relu_5x5_reduce
I0403 19:12:57.291178 19115 net.cpp:91] Creating Layer inception_4e/relu_5x5_reduce
I0403 19:12:57.291195 19115 net.cpp:425] inception_4e/relu_5x5_reduce <- inception_4e/5x5_reduce
I0403 19:12:57.291215 19115 net.cpp:386] inception_4e/relu_5x5_reduce -> inception_4e/5x5_reduce (in-place)
I0403 19:12:57.291524 19115 net.cpp:141] Setting up inception_4e/relu_5x5_reduce
I0403 19:12:57.291550 19115 net.cpp:148] Top shape: 24 32 14 14 (150528)
I0403 19:12:57.291566 19115 net.cpp:156] Memory required for data: 1237333536
I0403 19:12:57.291581 19115 layer_factory.hpp:77] Creating layer inception_4e/5x5
I0403 19:12:57.291620 19115 net.cpp:91] Creating Layer inception_4e/5x5
I0403 19:12:57.291640 19115 net.cpp:425] inception_4e/5x5 <- inception_4e/5x5_reduce
I0403 19:12:57.291659 19115 net.cpp:399] inception_4e/5x5 -> inception_4e/5x5
I0403 19:12:57.293583 19115 net.cpp:141] Setting up inception_4e/5x5
I0403 19:12:57.293612 19115 net.cpp:148] Top shape: 24 128 14 14 (602112)
I0403 19:12:57.293628 19115 net.cpp:156] Memory required for data: 1239741984
I0403 19:12:57.293648 19115 layer_factory.hpp:77] Creating layer inception_4e/relu_5x5
I0403 19:12:57.293665 19115 net.cpp:91] Creating Layer inception_4e/relu_5x5
I0403 19:12:57.293683 19115 net.cpp:425] inception_4e/relu_5x5 <- inception_4e/5x5
I0403 19:12:57.293702 19115 net.cpp:386] inception_4e/relu_5x5 -> inception_4e/5x5 (in-place)
I0403 19:12:57.293908 19115 net.cpp:141] Setting up inception_4e/relu_5x5
I0403 19:12:57.293934 19115 net.cpp:148] Top shape: 24 128 14 14 (602112)
I0403 19:12:57.293953 19115 net.cpp:156] Memory required for data: 1242150432
I0403 19:12:57.293969 19115 layer_factory.hpp:77] Creating layer inception_4e/pool
I0403 19:12:57.293990 19115 net.cpp:91] Creating Layer inception_4e/pool
I0403 19:12:57.294008 19115 net.cpp:425] inception_4e/pool <- inception_4d/output_inception_4d/output_0_split_4
I0403 19:12:57.294026 19115 net.cpp:399] inception_4e/pool -> inception_4e/pool
I0403 19:12:57.294098 19115 net.cpp:141] Setting up inception_4e/pool
I0403 19:12:57.294123 19115 net.cpp:148] Top shape: 24 528 14 14 (2483712)
I0403 19:12:57.294137 19115 net.cpp:156] Memory required for data: 1252085280
I0403 19:12:57.294152 19115 layer_factory.hpp:77] Creating layer inception_4e/pool_proj
I0403 19:12:57.294174 19115 net.cpp:91] Creating Layer inception_4e/pool_proj
I0403 19:12:57.294193 19115 net.cpp:425] inception_4e/pool_proj <- inception_4e/pool
I0403 19:12:57.294214 19115 net.cpp:399] inception_4e/pool_proj -> inception_4e/pool_proj
I0403 19:12:57.295778 19115 net.cpp:141] Setting up inception_4e/pool_proj
I0403 19:12:57.295820 19115 net.cpp:148] Top shape: 24 128 14 14 (602112)
I0403 19:12:57.295837 19115 net.cpp:156] Memory required for data: 1254493728
I0403 19:12:57.295856 19115 layer_factory.hpp:77] Creating layer inception_4e/relu_pool_proj
I0403 19:12:57.295874 19115 net.cpp:91] Creating Layer inception_4e/relu_pool_proj
I0403 19:12:57.295891 19115 net.cpp:425] inception_4e/relu_pool_proj <- inception_4e/pool_proj
I0403 19:12:57.295907 19115 net.cpp:386] inception_4e/relu_pool_proj -> inception_4e/pool_proj (in-place)
I0403 19:12:57.296217 19115 net.cpp:141] Setting up inception_4e/relu_pool_proj
I0403 19:12:57.296246 19115 net.cpp:148] Top shape: 24 128 14 14 (602112)
I0403 19:12:57.296262 19115 net.cpp:156] Memory required for data: 1256902176
I0403 19:12:57.296277 19115 layer_factory.hpp:77] Creating layer inception_4e/output
I0403 19:12:57.296295 19115 net.cpp:91] Creating Layer inception_4e/output
I0403 19:12:57.296313 19115 net.cpp:425] inception_4e/output <- inception_4e/1x1
I0403 19:12:57.296329 19115 net.cpp:425] inception_4e/output <- inception_4e/3x3
I0403 19:12:57.296345 19115 net.cpp:425] inception_4e/output <- inception_4e/5x5
I0403 19:12:57.296361 19115 net.cpp:425] inception_4e/output <- inception_4e/pool_proj
I0403 19:12:57.296380 19115 net.cpp:399] inception_4e/output -> inception_4e/output
I0403 19:12:57.296430 19115 net.cpp:141] Setting up inception_4e/output
I0403 19:12:57.296455 19115 net.cpp:148] Top shape: 24 832 14 14 (3913728)
I0403 19:12:57.296469 19115 net.cpp:156] Memory required for data: 1272557088
I0403 19:12:57.296483 19115 layer_factory.hpp:77] Creating layer pool4/3x3_s2
I0403 19:12:57.296504 19115 net.cpp:91] Creating Layer pool4/3x3_s2
I0403 19:12:57.296521 19115 net.cpp:425] pool4/3x3_s2 <- inception_4e/output
I0403 19:12:57.296540 19115 net.cpp:399] pool4/3x3_s2 -> pool4/3x3_s2
I0403 19:12:57.296609 19115 net.cpp:141] Setting up pool4/3x3_s2
I0403 19:12:57.296633 19115 net.cpp:148] Top shape: 24 832 7 7 (978432)
I0403 19:12:57.296648 19115 net.cpp:156] Memory required for data: 1276470816
I0403 19:12:57.296663 19115 layer_factory.hpp:77] Creating layer pool4/3x3_s2_pool4/3x3_s2_0_split
I0403 19:12:57.296680 19115 net.cpp:91] Creating Layer pool4/3x3_s2_pool4/3x3_s2_0_split
I0403 19:12:57.296696 19115 net.cpp:425] pool4/3x3_s2_pool4/3x3_s2_0_split <- pool4/3x3_s2
I0403 19:12:57.296716 19115 net.cpp:399] pool4/3x3_s2_pool4/3x3_s2_0_split -> pool4/3x3_s2_pool4/3x3_s2_0_split_0
I0403 19:12:57.296737 19115 net.cpp:399] pool4/3x3_s2_pool4/3x3_s2_0_split -> pool4/3x3_s2_pool4/3x3_s2_0_split_1
I0403 19:12:57.296758 19115 net.cpp:399] pool4/3x3_s2_pool4/3x3_s2_0_split -> pool4/3x3_s2_pool4/3x3_s2_0_split_2
I0403 19:12:57.296777 19115 net.cpp:399] pool4/3x3_s2_pool4/3x3_s2_0_split -> pool4/3x3_s2_pool4/3x3_s2_0_split_3
I0403 19:12:57.296872 19115 net.cpp:141] Setting up pool4/3x3_s2_pool4/3x3_s2_0_split
I0403 19:12:57.296898 19115 net.cpp:148] Top shape: 24 832 7 7 (978432)
I0403 19:12:57.296916 19115 net.cpp:148] Top shape: 24 832 7 7 (978432)
I0403 19:12:57.296931 19115 net.cpp:148] Top shape: 24 832 7 7 (978432)
I0403 19:12:57.296950 19115 net.cpp:148] Top shape: 24 832 7 7 (978432)
I0403 19:12:57.296964 19115 net.cpp:156] Memory required for data: 1292125728
I0403 19:12:57.296979 19115 layer_factory.hpp:77] Creating layer inception_5a/1x1
I0403 19:12:57.297003 19115 net.cpp:91] Creating Layer inception_5a/1x1
I0403 19:12:57.297020 19115 net.cpp:425] inception_5a/1x1 <- pool4/3x3_s2_pool4/3x3_s2_0_split_0
I0403 19:12:57.297039 19115 net.cpp:399] inception_5a/1x1 -> inception_5a/1x1
I0403 19:12:57.299968 19115 net.cpp:141] Setting up inception_5a/1x1
I0403 19:12:57.299998 19115 net.cpp:148] Top shape: 24 256 7 7 (301056)
I0403 19:12:57.300014 19115 net.cpp:156] Memory required for data: 1293329952
I0403 19:12:57.300031 19115 layer_factory.hpp:77] Creating layer inception_5a/relu_1x1
I0403 19:12:57.300050 19115 net.cpp:91] Creating Layer inception_5a/relu_1x1
I0403 19:12:57.300065 19115 net.cpp:425] inception_5a/relu_1x1 <- inception_5a/1x1
I0403 19:12:57.300084 19115 net.cpp:386] inception_5a/relu_1x1 -> inception_5a/1x1 (in-place)
I0403 19:12:57.300398 19115 net.cpp:141] Setting up inception_5a/relu_1x1
I0403 19:12:57.300425 19115 net.cpp:148] Top shape: 24 256 7 7 (301056)
I0403 19:12:57.300438 19115 net.cpp:156] Memory required for data: 1294534176
I0403 19:12:57.300452 19115 layer_factory.hpp:77] Creating layer inception_5a/3x3_reduce
I0403 19:12:57.300474 19115 net.cpp:91] Creating Layer inception_5a/3x3_reduce
I0403 19:12:57.300492 19115 net.cpp:425] inception_5a/3x3_reduce <- pool4/3x3_s2_pool4/3x3_s2_0_split_1
I0403 19:12:57.300513 19115 net.cpp:399] inception_5a/3x3_reduce -> inception_5a/3x3_reduce
I0403 19:12:57.302973 19115 net.cpp:141] Setting up inception_5a/3x3_reduce
I0403 19:12:57.303004 19115 net.cpp:148] Top shape: 24 160 7 7 (188160)
I0403 19:12:57.303020 19115 net.cpp:156] Memory required for data: 1295286816
I0403 19:12:57.303040 19115 layer_factory.hpp:77] Creating layer inception_5a/relu_3x3_reduce
I0403 19:12:57.303057 19115 net.cpp:91] Creating Layer inception_5a/relu_3x3_reduce
I0403 19:12:57.303072 19115 net.cpp:425] inception_5a/relu_3x3_reduce <- inception_5a/3x3_reduce
I0403 19:12:57.303088 19115 net.cpp:386] inception_5a/relu_3x3_reduce -> inception_5a/3x3_reduce (in-place)
I0403 19:12:57.303277 19115 net.cpp:141] Setting up inception_5a/relu_3x3_reduce
I0403 19:12:57.303303 19115 net.cpp:148] Top shape: 24 160 7 7 (188160)
I0403 19:12:57.303319 19115 net.cpp:156] Memory required for data: 1296039456
I0403 19:12:57.303334 19115 layer_factory.hpp:77] Creating layer inception_5a/3x3
I0403 19:12:57.303356 19115 net.cpp:91] Creating Layer inception_5a/3x3
I0403 19:12:57.303374 19115 net.cpp:425] inception_5a/3x3 <- inception_5a/3x3_reduce
I0403 19:12:57.303392 19115 net.cpp:399] inception_5a/3x3 -> inception_5a/3x3
I0403 19:12:57.308485 19115 net.cpp:141] Setting up inception_5a/3x3
I0403 19:12:57.308516 19115 net.cpp:148] Top shape: 24 320 7 7 (376320)
I0403 19:12:57.308531 19115 net.cpp:156] Memory required for data: 1297544736
I0403 19:12:57.308548 19115 layer_factory.hpp:77] Creating layer inception_5a/relu_3x3
I0403 19:12:57.308567 19115 net.cpp:91] Creating Layer inception_5a/relu_3x3
I0403 19:12:57.308583 19115 net.cpp:425] inception_5a/relu_3x3 <- inception_5a/3x3
I0403 19:12:57.308601 19115 net.cpp:386] inception_5a/relu_3x3 -> inception_5a/3x3 (in-place)
I0403 19:12:57.308912 19115 net.cpp:141] Setting up inception_5a/relu_3x3
I0403 19:12:57.308938 19115 net.cpp:148] Top shape: 24 320 7 7 (376320)
I0403 19:12:57.308962 19115 net.cpp:156] Memory required for data: 1299050016
I0403 19:12:57.308979 19115 layer_factory.hpp:77] Creating layer inception_5a/5x5_reduce
I0403 19:12:57.309000 19115 net.cpp:91] Creating Layer inception_5a/5x5_reduce
I0403 19:12:57.309018 19115 net.cpp:425] inception_5a/5x5_reduce <- pool4/3x3_s2_pool4/3x3_s2_0_split_2
I0403 19:12:57.309039 19115 net.cpp:399] inception_5a/5x5_reduce -> inception_5a/5x5_reduce
I0403 19:12:57.310195 19115 net.cpp:141] Setting up inception_5a/5x5_reduce
I0403 19:12:57.310225 19115 net.cpp:148] Top shape: 24 32 7 7 (37632)
I0403 19:12:57.310240 19115 net.cpp:156] Memory required for data: 1299200544
I0403 19:12:57.310258 19115 layer_factory.hpp:77] Creating layer inception_5a/relu_5x5_reduce
I0403 19:12:57.310278 19115 net.cpp:91] Creating Layer inception_5a/relu_5x5_reduce
I0403 19:12:57.310294 19115 net.cpp:425] inception_5a/relu_5x5_reduce <- inception_5a/5x5_reduce
I0403 19:12:57.310312 19115 net.cpp:386] inception_5a/relu_5x5_reduce -> inception_5a/5x5_reduce (in-place)
I0403 19:12:57.310607 19115 net.cpp:141] Setting up inception_5a/relu_5x5_reduce
I0403 19:12:57.310632 19115 net.cpp:148] Top shape: 24 32 7 7 (37632)
I0403 19:12:57.310647 19115 net.cpp:156] Memory required for data: 1299351072
I0403 19:12:57.310662 19115 layer_factory.hpp:77] Creating layer inception_5a/5x5
I0403 19:12:57.310683 19115 net.cpp:91] Creating Layer inception_5a/5x5
I0403 19:12:57.310699 19115 net.cpp:425] inception_5a/5x5 <- inception_5a/5x5_reduce
I0403 19:12:57.310720 19115 net.cpp:399] inception_5a/5x5 -> inception_5a/5x5
I0403 19:12:57.312407 19115 net.cpp:141] Setting up inception_5a/5x5
I0403 19:12:57.312445 19115 net.cpp:148] Top shape: 24 128 7 7 (150528)
I0403 19:12:57.312460 19115 net.cpp:156] Memory required for data: 1299953184
I0403 19:12:57.312479 19115 layer_factory.hpp:77] Creating layer inception_5a/relu_5x5
I0403 19:12:57.312495 19115 net.cpp:91] Creating Layer inception_5a/relu_5x5
I0403 19:12:57.312511 19115 net.cpp:425] inception_5a/relu_5x5 <- inception_5a/5x5
I0403 19:12:57.312530 19115 net.cpp:386] inception_5a/relu_5x5 -> inception_5a/5x5 (in-place)
I0403 19:12:57.312727 19115 net.cpp:141] Setting up inception_5a/relu_5x5
I0403 19:12:57.312752 19115 net.cpp:148] Top shape: 24 128 7 7 (150528)
I0403 19:12:57.312767 19115 net.cpp:156] Memory required for data: 1300555296
I0403 19:12:57.312782 19115 layer_factory.hpp:77] Creating layer inception_5a/pool
I0403 19:12:57.312813 19115 net.cpp:91] Creating Layer inception_5a/pool
I0403 19:12:57.312829 19115 net.cpp:425] inception_5a/pool <- pool4/3x3_s2_pool4/3x3_s2_0_split_3
I0403 19:12:57.312847 19115 net.cpp:399] inception_5a/pool -> inception_5a/pool
I0403 19:12:57.312933 19115 net.cpp:141] Setting up inception_5a/pool
I0403 19:12:57.312963 19115 net.cpp:148] Top shape: 24 832 7 7 (978432)
I0403 19:12:57.312990 19115 net.cpp:156] Memory required for data: 1304469024
I0403 19:12:57.313005 19115 layer_factory.hpp:77] Creating layer inception_5a/pool_proj
I0403 19:12:57.313029 19115 net.cpp:91] Creating Layer inception_5a/pool_proj
I0403 19:12:57.313046 19115 net.cpp:425] inception_5a/pool_proj <- inception_5a/pool
I0403 19:12:57.313067 19115 net.cpp:399] inception_5a/pool_proj -> inception_5a/pool_proj
I0403 19:12:57.315320 19115 net.cpp:141] Setting up inception_5a/pool_proj
I0403 19:12:57.315349 19115 net.cpp:148] Top shape: 24 128 7 7 (150528)
I0403 19:12:57.315366 19115 net.cpp:156] Memory required for data: 1305071136
I0403 19:12:57.315384 19115 layer_factory.hpp:77] Creating layer inception_5a/relu_pool_proj
I0403 19:12:57.315402 19115 net.cpp:91] Creating Layer inception_5a/relu_pool_proj
I0403 19:12:57.315418 19115 net.cpp:425] inception_5a/relu_pool_proj <- inception_5a/pool_proj
I0403 19:12:57.315436 19115 net.cpp:386] inception_5a/relu_pool_proj -> inception_5a/pool_proj (in-place)
I0403 19:12:57.315722 19115 net.cpp:141] Setting up inception_5a/relu_pool_proj
I0403 19:12:57.315749 19115 net.cpp:148] Top shape: 24 128 7 7 (150528)
I0403 19:12:57.315764 19115 net.cpp:156] Memory required for data: 1305673248
I0403 19:12:57.315778 19115 layer_factory.hpp:77] Creating layer inception_5a/output
I0403 19:12:57.315795 19115 net.cpp:91] Creating Layer inception_5a/output
I0403 19:12:57.315810 19115 net.cpp:425] inception_5a/output <- inception_5a/1x1
I0403 19:12:57.315826 19115 net.cpp:425] inception_5a/output <- inception_5a/3x3
I0403 19:12:57.315842 19115 net.cpp:425] inception_5a/output <- inception_5a/5x5
I0403 19:12:57.315858 19115 net.cpp:425] inception_5a/output <- inception_5a/pool_proj
I0403 19:12:57.315874 19115 net.cpp:399] inception_5a/output -> inception_5a/output
I0403 19:12:57.315925 19115 net.cpp:141] Setting up inception_5a/output
I0403 19:12:57.315951 19115 net.cpp:148] Top shape: 24 832 7 7 (978432)
I0403 19:12:57.315966 19115 net.cpp:156] Memory required for data: 1309586976
I0403 19:12:57.315980 19115 layer_factory.hpp:77] Creating layer inception_5a/output_inception_5a/output_0_split
I0403 19:12:57.315999 19115 net.cpp:91] Creating Layer inception_5a/output_inception_5a/output_0_split
I0403 19:12:57.316016 19115 net.cpp:425] inception_5a/output_inception_5a/output_0_split <- inception_5a/output
I0403 19:12:57.316033 19115 net.cpp:399] inception_5a/output_inception_5a/output_0_split -> inception_5a/output_inception_5a/output_0_split_0
I0403 19:12:57.316052 19115 net.cpp:399] inception_5a/output_inception_5a/output_0_split -> inception_5a/output_inception_5a/output_0_split_1
I0403 19:12:57.316071 19115 net.cpp:399] inception_5a/output_inception_5a/output_0_split -> inception_5a/output_inception_5a/output_0_split_2
I0403 19:12:57.316093 19115 net.cpp:399] inception_5a/output_inception_5a/output_0_split -> inception_5a/output_inception_5a/output_0_split_3
I0403 19:12:57.316201 19115 net.cpp:141] Setting up inception_5a/output_inception_5a/output_0_split
I0403 19:12:57.316223 19115 net.cpp:148] Top shape: 24 832 7 7 (978432)
I0403 19:12:57.316238 19115 net.cpp:148] Top shape: 24 832 7 7 (978432)
I0403 19:12:57.316252 19115 net.cpp:148] Top shape: 24 832 7 7 (978432)
I0403 19:12:57.316267 19115 net.cpp:148] Top shape: 24 832 7 7 (978432)
I0403 19:12:57.316279 19115 net.cpp:156] Memory required for data: 1325241888
I0403 19:12:57.316293 19115 layer_factory.hpp:77] Creating layer inception_5b/1x1
I0403 19:12:57.316315 19115 net.cpp:91] Creating Layer inception_5b/1x1
I0403 19:12:57.316332 19115 net.cpp:425] inception_5b/1x1 <- inception_5a/output_inception_5a/output_0_split_0
I0403 19:12:57.316352 19115 net.cpp:399] inception_5b/1x1 -> inception_5b/1x1
I0403 19:12:57.320026 19115 net.cpp:141] Setting up inception_5b/1x1
I0403 19:12:57.320060 19115 net.cpp:148] Top shape: 24 384 7 7 (451584)
I0403 19:12:57.320075 19115 net.cpp:156] Memory required for data: 1327048224
I0403 19:12:57.320093 19115 layer_factory.hpp:77] Creating layer inception_5b/relu_1x1
I0403 19:12:57.320109 19115 net.cpp:91] Creating Layer inception_5b/relu_1x1
I0403 19:12:57.320125 19115 net.cpp:425] inception_5b/relu_1x1 <- inception_5b/1x1
I0403 19:12:57.320142 19115 net.cpp:386] inception_5b/relu_1x1 -> inception_5b/1x1 (in-place)
I0403 19:12:57.320438 19115 net.cpp:141] Setting up inception_5b/relu_1x1
I0403 19:12:57.320466 19115 net.cpp:148] Top shape: 24 384 7 7 (451584)
I0403 19:12:57.320480 19115 net.cpp:156] Memory required for data: 1328854560
I0403 19:12:57.320495 19115 layer_factory.hpp:77] Creating layer inception_5b/3x3_reduce
I0403 19:12:57.320514 19115 net.cpp:91] Creating Layer inception_5b/3x3_reduce
I0403 19:12:57.320530 19115 net.cpp:425] inception_5b/3x3_reduce <- inception_5a/output_inception_5a/output_0_split_1
I0403 19:12:57.320551 19115 net.cpp:399] inception_5b/3x3_reduce -> inception_5b/3x3_reduce
I0403 19:12:57.323230 19115 net.cpp:141] Setting up inception_5b/3x3_reduce
I0403 19:12:57.323261 19115 net.cpp:148] Top shape: 24 192 7 7 (225792)
I0403 19:12:57.323277 19115 net.cpp:156] Memory required for data: 1329757728
I0403 19:12:57.323297 19115 layer_factory.hpp:77] Creating layer inception_5b/relu_3x3_reduce
I0403 19:12:57.323313 19115 net.cpp:91] Creating Layer inception_5b/relu_3x3_reduce
I0403 19:12:57.323329 19115 net.cpp:425] inception_5b/relu_3x3_reduce <- inception_5b/3x3_reduce
I0403 19:12:57.323349 19115 net.cpp:386] inception_5b/relu_3x3_reduce -> inception_5b/3x3_reduce (in-place)
I0403 19:12:57.323552 19115 net.cpp:141] Setting up inception_5b/relu_3x3_reduce
I0403 19:12:57.323577 19115 net.cpp:148] Top shape: 24 192 7 7 (225792)
I0403 19:12:57.323591 19115 net.cpp:156] Memory required for data: 1330660896
I0403 19:12:57.323606 19115 layer_factory.hpp:77] Creating layer inception_5b/3x3
I0403 19:12:57.323626 19115 net.cpp:91] Creating Layer inception_5b/3x3
I0403 19:12:57.323643 19115 net.cpp:425] inception_5b/3x3 <- inception_5b/3x3_reduce
I0403 19:12:57.323664 19115 net.cpp:399] inception_5b/3x3 -> inception_5b/3x3
I0403 19:12:57.330195 19115 net.cpp:141] Setting up inception_5b/3x3
I0403 19:12:57.330225 19115 net.cpp:148] Top shape: 24 384 7 7 (451584)
I0403 19:12:57.330241 19115 net.cpp:156] Memory required for data: 1332467232
I0403 19:12:57.330260 19115 layer_factory.hpp:77] Creating layer inception_5b/relu_3x3
I0403 19:12:57.330277 19115 net.cpp:91] Creating Layer inception_5b/relu_3x3
I0403 19:12:57.330293 19115 net.cpp:425] inception_5b/relu_3x3 <- inception_5b/3x3
I0403 19:12:57.330312 19115 net.cpp:386] inception_5b/relu_3x3 -> inception_5b/3x3 (in-place)
I0403 19:12:57.330602 19115 net.cpp:141] Setting up inception_5b/relu_3x3
I0403 19:12:57.330631 19115 net.cpp:148] Top shape: 24 384 7 7 (451584)
I0403 19:12:57.330646 19115 net.cpp:156] Memory required for data: 1334273568
I0403 19:12:57.330659 19115 layer_factory.hpp:77] Creating layer inception_5b/5x5_reduce
I0403 19:12:57.330696 19115 net.cpp:91] Creating Layer inception_5b/5x5_reduce
I0403 19:12:57.330715 19115 net.cpp:425] inception_5b/5x5_reduce <- inception_5a/output_inception_5a/output_0_split_2
I0403 19:12:57.330734 19115 net.cpp:399] inception_5b/5x5_reduce -> inception_5b/5x5_reduce
I0403 19:12:57.331982 19115 net.cpp:141] Setting up inception_5b/5x5_reduce
I0403 19:12:57.332011 19115 net.cpp:148] Top shape: 24 48 7 7 (56448)
I0403 19:12:57.332026 19115 net.cpp:156] Memory required for data: 1334499360
I0403 19:12:57.332044 19115 layer_factory.hpp:77] Creating layer inception_5b/relu_5x5_reduce
I0403 19:12:57.332062 19115 net.cpp:91] Creating Layer inception_5b/relu_5x5_reduce
I0403 19:12:57.332077 19115 net.cpp:425] inception_5b/relu_5x5_reduce <- inception_5b/5x5_reduce
I0403 19:12:57.332093 19115 net.cpp:386] inception_5b/relu_5x5_reduce -> inception_5b/5x5_reduce (in-place)
I0403 19:12:57.332458 19115 net.cpp:141] Setting up inception_5b/relu_5x5_reduce
I0403 19:12:57.332484 19115 net.cpp:148] Top shape: 24 48 7 7 (56448)
I0403 19:12:57.332499 19115 net.cpp:156] Memory required for data: 1334725152
I0403 19:12:57.332512 19115 layer_factory.hpp:77] Creating layer inception_5b/5x5
I0403 19:12:57.332532 19115 net.cpp:91] Creating Layer inception_5b/5x5
I0403 19:12:57.332548 19115 net.cpp:425] inception_5b/5x5 <- inception_5b/5x5_reduce
I0403 19:12:57.332566 19115 net.cpp:399] inception_5b/5x5 -> inception_5b/5x5
I0403 19:12:57.334564 19115 net.cpp:141] Setting up inception_5b/5x5
I0403 19:12:57.334594 19115 net.cpp:148] Top shape: 24 128 7 7 (150528)
I0403 19:12:57.334609 19115 net.cpp:156] Memory required for data: 1335327264
I0403 19:12:57.334626 19115 layer_factory.hpp:77] Creating layer inception_5b/relu_5x5
I0403 19:12:57.334643 19115 net.cpp:91] Creating Layer inception_5b/relu_5x5
I0403 19:12:57.334659 19115 net.cpp:425] inception_5b/relu_5x5 <- inception_5b/5x5
I0403 19:12:57.334677 19115 net.cpp:386] inception_5b/relu_5x5 -> inception_5b/5x5 (in-place)
I0403 19:12:57.334866 19115 net.cpp:141] Setting up inception_5b/relu_5x5
I0403 19:12:57.334889 19115 net.cpp:148] Top shape: 24 128 7 7 (150528)
I0403 19:12:57.334903 19115 net.cpp:156] Memory required for data: 1335929376
I0403 19:12:57.334918 19115 layer_factory.hpp:77] Creating layer inception_5b/pool
I0403 19:12:57.334936 19115 net.cpp:91] Creating Layer inception_5b/pool
I0403 19:12:57.334956 19115 net.cpp:425] inception_5b/pool <- inception_5a/output_inception_5a/output_0_split_3
I0403 19:12:57.334975 19115 net.cpp:399] inception_5b/pool -> inception_5b/pool
I0403 19:12:57.335047 19115 net.cpp:141] Setting up inception_5b/pool
I0403 19:12:57.335069 19115 net.cpp:148] Top shape: 24 832 7 7 (978432)
I0403 19:12:57.335083 19115 net.cpp:156] Memory required for data: 1339843104
I0403 19:12:57.335098 19115 layer_factory.hpp:77] Creating layer inception_5b/pool_proj
I0403 19:12:57.335119 19115 net.cpp:91] Creating Layer inception_5b/pool_proj
I0403 19:12:57.335136 19115 net.cpp:425] inception_5b/pool_proj <- inception_5b/pool
I0403 19:12:57.335156 19115 net.cpp:399] inception_5b/pool_proj -> inception_5b/pool_proj
I0403 19:12:57.337422 19115 net.cpp:141] Setting up inception_5b/pool_proj
I0403 19:12:57.337453 19115 net.cpp:148] Top shape: 24 128 7 7 (150528)
I0403 19:12:57.337469 19115 net.cpp:156] Memory required for data: 1340445216
I0403 19:12:57.337487 19115 layer_factory.hpp:77] Creating layer inception_5b/relu_pool_proj
I0403 19:12:57.337504 19115 net.cpp:91] Creating Layer inception_5b/relu_pool_proj
I0403 19:12:57.337522 19115 net.cpp:425] inception_5b/relu_pool_proj <- inception_5b/pool_proj
I0403 19:12:57.337539 19115 net.cpp:386] inception_5b/relu_pool_proj -> inception_5b/pool_proj (in-place)
I0403 19:12:57.337836 19115 net.cpp:141] Setting up inception_5b/relu_pool_proj
I0403 19:12:57.337864 19115 net.cpp:148] Top shape: 24 128 7 7 (150528)
I0403 19:12:57.337879 19115 net.cpp:156] Memory required for data: 1341047328
I0403 19:12:57.337893 19115 layer_factory.hpp:77] Creating layer inception_5b/output
I0403 19:12:57.337910 19115 net.cpp:91] Creating Layer inception_5b/output
I0403 19:12:57.337940 19115 net.cpp:425] inception_5b/output <- inception_5b/1x1
I0403 19:12:57.337962 19115 net.cpp:425] inception_5b/output <- inception_5b/3x3
I0403 19:12:57.337980 19115 net.cpp:425] inception_5b/output <- inception_5b/5x5
I0403 19:12:57.337996 19115 net.cpp:425] inception_5b/output <- inception_5b/pool_proj
I0403 19:12:57.338011 19115 net.cpp:399] inception_5b/output -> inception_5b/output
I0403 19:12:57.338063 19115 net.cpp:141] Setting up inception_5b/output
I0403 19:12:57.338086 19115 net.cpp:148] Top shape: 24 1024 7 7 (1204224)
I0403 19:12:57.338099 19115 net.cpp:156] Memory required for data: 1345864224
I0403 19:12:57.338114 19115 layer_factory.hpp:77] Creating layer pool5/7x7_s1
I0403 19:12:57.338134 19115 net.cpp:91] Creating Layer pool5/7x7_s1
I0403 19:12:57.338150 19115 net.cpp:425] pool5/7x7_s1 <- inception_5b/output
I0403 19:12:57.338166 19115 net.cpp:399] pool5/7x7_s1 -> pool5/7x7_s1
I0403 19:12:57.338382 19115 net.cpp:141] Setting up pool5/7x7_s1
I0403 19:12:57.338405 19115 net.cpp:148] Top shape: 24 1024 1 1 (24576)
I0403 19:12:57.338419 19115 net.cpp:156] Memory required for data: 1345962528
I0403 19:12:57.338433 19115 layer_factory.hpp:77] Creating layer pool5/drop_7x7_s1
I0403 19:12:57.338451 19115 net.cpp:91] Creating Layer pool5/drop_7x7_s1
I0403 19:12:57.338466 19115 net.cpp:425] pool5/drop_7x7_s1 <- pool5/7x7_s1
I0403 19:12:57.338485 19115 net.cpp:386] pool5/drop_7x7_s1 -> pool5/7x7_s1 (in-place)
I0403 19:12:57.338532 19115 net.cpp:141] Setting up pool5/drop_7x7_s1
I0403 19:12:57.338559 19115 net.cpp:148] Top shape: 24 1024 1 1 (24576)
I0403 19:12:57.338574 19115 net.cpp:156] Memory required for data: 1346060832
I0403 19:12:57.338588 19115 layer_factory.hpp:77] Creating layer loss3/classifier_plantvillage
I0403 19:12:57.338605 19115 net.cpp:91] Creating Layer loss3/classifier_plantvillage
I0403 19:12:57.338621 19115 net.cpp:425] loss3/classifier_plantvillage <- pool5/7x7_s1
I0403 19:12:57.338640 19115 net.cpp:399] loss3/classifier_plantvillage -> loss3/classifier_plantvillage
I0403 19:12:57.339092 19115 net.cpp:141] Setting up loss3/classifier_plantvillage
I0403 19:12:57.339117 19115 net.cpp:148] Top shape: 24 38 (912)
I0403 19:12:57.339131 19115 net.cpp:156] Memory required for data: 1346064480
I0403 19:12:57.339148 19115 layer_factory.hpp:77] Creating layer loss3/classifier_plantvillage_loss3/classifier_plantvillage_0_split
I0403 19:12:57.339169 19115 net.cpp:91] Creating Layer loss3/classifier_plantvillage_loss3/classifier_plantvillage_0_split
I0403 19:12:57.339186 19115 net.cpp:425] loss3/classifier_plantvillage_loss3/classifier_plantvillage_0_split <- loss3/classifier_plantvillage
I0403 19:12:57.339205 19115 net.cpp:399] loss3/classifier_plantvillage_loss3/classifier_plantvillage_0_split -> loss3/classifier_plantvillage_loss3/classifier_plantvillage_0_split_0
I0403 19:12:57.339223 19115 net.cpp:399] loss3/classifier_plantvillage_loss3/classifier_plantvillage_0_split -> loss3/classifier_plantvillage_loss3/classifier_plantvillage_0_split_1
I0403 19:12:57.339242 19115 net.cpp:399] loss3/classifier_plantvillage_loss3/classifier_plantvillage_0_split -> loss3/classifier_plantvillage_loss3/classifier_plantvillage_0_split_2
I0403 19:12:57.339265 19115 net.cpp:399] loss3/classifier_plantvillage_loss3/classifier_plantvillage_0_split -> loss3/classifier_plantvillage_loss3/classifier_plantvillage_0_split_3
I0403 19:12:57.339366 19115 net.cpp:141] Setting up loss3/classifier_plantvillage_loss3/classifier_plantvillage_0_split
I0403 19:12:57.339390 19115 net.cpp:148] Top shape: 24 38 (912)
I0403 19:12:57.339404 19115 net.cpp:148] Top shape: 24 38 (912)
I0403 19:12:57.339421 19115 net.cpp:148] Top shape: 24 38 (912)
I0403 19:12:57.339435 19115 net.cpp:148] Top shape: 24 38 (912)
I0403 19:12:57.339448 19115 net.cpp:156] Memory required for data: 1346079072
I0403 19:12:57.339462 19115 layer_factory.hpp:77] Creating layer loss1/loss
I0403 19:12:57.339484 19115 net.cpp:91] Creating Layer loss1/loss
I0403 19:12:57.339503 19115 net.cpp:425] loss1/loss <- loss1/classifier_plantvillage_loss1/classifier_plantvillage_0_split_0
I0403 19:12:57.339534 19115 net.cpp:425] loss1/loss <- label_data_1_split_0
…
