…
I0403 18:50:36.819278 17821 net.cpp:313] The NetState phase (1) differed from the phase (0) specified by a rule in layer data
I0403 18:50:36.820432 17821 net.cpp:49] Initializing net from parameters: 
state {
  phase: TEST
}
layer {
  name: "data"
  type: "Data"
  top: "data"
  top: "label"
  include {
    phase: TEST
  }
  transform_param {
    mirror: false
    crop_size: 224
    mean_file: "/home/mohanty/data/final_dataset/lmdb/segmented-60-40/mean.binaryproto"
  }
  data_param {
    source: "/home/mohanty/data/final_dataset/lmdb/segmented-60-40/test_db"
    batch_size: 24
    backend: LMDB
  }
}
layer {
  name: "conv1/7x7_s2"
  type: "Convolution"
  bottom: "data"
  top: "conv1/7x7_s2"
  param {
    lr_mult: 1
    decay_mult: 1
  }
  param {
    lr_mult: 2
    decay_mult: 0
  }
  convolution_param {
    num_output: 64
    pad: 3
    kernel_size: 7
    stride: 2
    weight_filler {
      type: "xavier"
      std: 0.1
    }
    bias_filler {
      type: "constant"
      value: 0.2
    }
  }
}
layer {
  name: "conv1/relu_7x7"
  type: "ReLU"
  bottom: "conv1/7x7_s2"
  top: "conv1/7x7_s2"
}
layer {
  name: "pool1/3x3_s2"
  type: "Pooling"
  bottom: "conv1/7x7_s2"
  top: "pool1/3x3_s2"
  pooling_param {
    pool: MAX
    kernel_size: 3
    stride: 2
  }
}
layer {
  name: "pool1/norm1"
  type: "LRN"
  bottom: "pool1/3x3_s2"
  top: "pool1/norm1"
  lrn_param {
    local_size: 5
    alpha: 0.0001
    beta: 0.75
  }
}
layer {
  name: "conv2/3x3_reduce"
  type: "Convolution"
  bottom: "pool1/norm1"
  top: "conv2/3x3_reduce"
  param {
    lr_mult: 1
    decay_mult: 1
  }
  param {
    lr_mult: 2
    decay_mult: 0
  }
  convolution_param {
    num_output: 64
    kernel_size: 1
    weight_filler {
      type: "xavier"
      std: 0.1
    }
    bias_filler {
      type: "constant"
      value: 0.2
    }
  }
}
layer {
  name: "conv2/relu_3x3_reduce"
  type: "ReLU"
  bottom: "conv2/3x3_reduce"
  top: "conv2/3x3_reduce"
}
layer {
  name: "conv2/3x3"
  type: "Convolution"
  bottom: "conv2/3x3_reduce"
  top: "conv2/3x3"
  param {
    lr_mult: 1
    decay_mult: 1
  }
  param {
    lr_mult: 2
    decay_mult: 0
  }
  convolution_param {
    num_output: 192
    pad: 1
    kernel_size: 3
    weight_filler {
      type: "xavier"
      std: 0.03
    }
    bias_filler {
      type: "constant"
      value: 0.2
    }
  }
}
layer {
  name: "conv2/relu_3x3"
  type: "ReLU"
  bottom: "conv2/3x3"
  top: "conv2/3x3"
}
layer {
  name: "conv2/norm2"
  type: "LRN"
  bottom: "conv2/3x3"
  top: "conv2/norm2"
  lrn_param {
    local_size: 5
    alpha: 0.0001
    beta: 0.75
  }
}
layer {
  name: "pool2/3x3_s2"
  type: "Pooling"
  bottom: "conv2/norm2"
  top: "pool2/3x3_s2"
  pooling_param {
    pool: MAX
    kernel_size: 3
    stride: 2
  }
}
layer {
  name: "inception_3a/1x1"
  type: "Convolution"
  bottom: "pool2/3x3_s2"
  top: "inception_3a/1x1"
  param {
    lr_mult: 1
    decay_mult: 1
  }
  param {
    lr_mult: 2
    decay_mult: 0
  }
  convolution_param {
    num_output: 64
    kernel_size: 1
    weight_filler {
      type: "xavier"
      std: 0.03
    }
    bias_filler {
      type: "constant"
      value: 0.2
    }
  }
}
layer {
  name: "inception_3a/relu_1x1"
  type: "ReLU"
  bottom: "inception_3a/1x1"
  top: "inception_3a/1x1"
}
layer {
  name: "inception_3a/3x3_reduce"
  type: "Convolution"
  bottom: "pool2/3x3_s2"
  top: "inception_3a/3x3_reduce"
  param {
    lr_mult: 1
    decay_mult: 1
  }
  param {
    lr_mult: 2
    decay_mult: 0
  }
  convolution_param {
    num_output: 96
    kernel_size: 1
    weight_filler {
      type: "xavier"
      std: 0.09
    }
    bias_filler {
      type: "constant"
      value: 0.2
    }
  }
}
layer {
  name: "inception_3a/relu_3x3_reduce"
  type: "ReLU"
  bottom: "inception_3a/3x3_reduce"
  top: "inception_3a/3x3_reduce"
}
layer {
  name: "inception_3a/3x3"
  type: "Convolution"
  bottom: "inception_3a/3x3_reduce"
  top: "inception_3a/3x3"
  param {
    lr_mult: 1
    decay_mult: 1
  }
  param {
    lr_mult: 2
    decay_mult: 0
  }
  convolution_param {
    num_output: 128
    pad: 1
    kernel_size: 3
    weight_filler {
      type: "xavier"
      std: 0.03
    }
    bias_filler {
      type: "constant"
      value: 0.2
    }
  }
}
layer {
  name: "inception_3a/relu_3x3"
  type: "ReLU"
  bottom: "inception_3a/3x3"
  top: "inception_3a/3x3"
}
layer {
  name: "inception_3a/5x5_reduce"
  type: "Convolution"
  bottom: "pool2/3x3_s2"
  top: "inception_3a/5x5_reduce"
  param {
    lr_mult: 1
    decay_mult: 1
  }
  param {
    lr_mult: 2
    decay_mult: 0
  }
  convolution_param {
    num_output: 16
    kernel_size: 1
    weight_filler {
      type: "xavier"
      std: 0.2
    }
    bias_filler {
      type: "constant"
      value: 0.2
    }
  }
}
layer {
  name: "inception_3a/relu_5x5_reduce"
  type: "ReLU"
  bottom: "inception_3a/5x5_reduce"
  top: "inception_3a/5x5_reduce"
}
layer {
  name: "inception_3a/5x5"
  type: "Convolution"
  bottom: "inception_3a/5x5_reduce"
  top: "inception_3a/5x5"
  param {
    lr_mult: 1
    decay_mult: 1
  }
  param {
    lr_mult: 2
    decay_mult: 0
  }
  convolution_param {
    num_output: 32
    pad: 2
    kernel_size: 5
    weight_filler {
      type: "xavier"
      std: 0.03
    }
    bias_filler {
      type: "constant"
      value: 0.2
    }
  }
}
layer {
  name: "inception_3a/relu_5x5"
  type: "ReLU"
  bottom: "inception_3a/5x5"
  top: "inception_3a/5x5"
}
layer {
  name: "inception_3a/pool"
  type: "Pooling"
  bottom: "pool2/3x3_s2"
  top: "inception_3a/pool"
  pooling_param {
    pool: MAX
    kernel_size: 3
    stride: 1
    pad: 1
  }
}
layer {
  name: "inception_3a/pool_proj"
  type: "Convolution"
  bottom: "inception_3a/pool"
  top: "inception_3a/pool_proj"
  param {
    lr_mult: 1
    decay_mult: 1
  }
  param {
    lr_mult: 2
    decay_mult: 0
  }
  convolution_param {
    num_output: 32
    kernel_size: 1
    weight_filler {
      type: "xavier"
      std: 0.1
    }
    bias_filler {
      type: "constant"
      value: 0.2
    }
  }
}
layer {
  name: "inception_3a/relu_pool_proj"
  type: "ReLU"
  bottom: "inception_3a/pool_proj"
  top: "inception_3a/pool_proj"
}
layer {
  name: "inception_3a/output"
  type: "Concat"
  bottom: "inception_3a/1x1"
  bottom: "inception_3a/3x3"
  bottom: "inception_3a/5x5"
  bottom: "inception_3a/pool_proj"
  top: "inception_3a/output"
}
layer {
  name: "inception_3b/1x1"
  type: "Convolution"
  bottom: "inception_3a/output"
  top: "inception_3b/1x1"
  param {
    lr_mult: 1
    decay_mult: 1
  }
  param {
    lr_mult: 2
    decay_mult: 0
  }
  convolution_param {
    num_output: 128
    kernel_size: 1
    weight_filler {
      type: "xavier"
      std: 0.03
    }
    bias_filler {
      type: "constant"
      value: 0.2
    }
  }
}
layer {
  name: "inception_3b/relu_1x1"
  type: "ReLU"
  bottom: "inception_3b/1x1"
  top: "inception_3b/1x1"
}
layer {
  name: "inception_3b/3x3_reduce"
  type: "Convolution"
  bottom: "inception_3a/output"
  top: "inception_3b/3x3_reduce"
  param {
    lr_mult: 1
    decay_mult: 1
  }
  param {
    lr_mult: 2
    decay_mult: 0
  }
  convolution_param {
    num_output: 128
    kernel_size: 1
    weight_filler {
      type: "xavier"
      std: 0.09
    }
    bias_filler {
      type: "constant"
      value: 0.2
    }
  }
}
layer {
  name: "inception_3b/relu_3x3_reduce"
  type: "ReLU"
  bottom: "inception_3b/3x3_reduce"
  top: "inception_3b/3x3_reduce"
}
layer {
  name: "inception_3b/3x3"
  type: "Convolution"
  bottom: "inception_3b/3x3_reduce"
  top: "inception_3b/3x3"
  param {
    lr_mult: 1
    decay_mult: 1
  }
  param {
    lr_mult: 2
    decay_mult: 0
  }
  convolution_param {
    num_output: 192
    pad: 1
    kernel_size: 3
    weight_filler {
      type: "xavier"
      std: 0.03
    }
    bias_filler {
      type: "constant"
      value: 0.2
    }
  }
}
layer {
  name: "inception_3b/relu_3x3"
  type: "ReLU"
  bottom: "inception_3b/3x3"
  top: "inception_3b/3x3"
}
layer {
  name: "inception_3b/5x5_reduce"
  type: "Convolution"
  bottom: "inception_3a/output"
  top: "inception_3b/5x5_reduce"
  param {
    lr_mult: 1
    decay_mult: 1
  }
  param {
    lr_mult: 2
    decay_mult: 0
  }
  convolution_param {
    num_output: 32
    kernel_size: 1
    weight_filler {
      type: "xavier"
      std: 0.2
    }
    bias_filler {
      type: "constant"
      value: 0.2
    }
  }
}
layer {
  name: "inception_3b/relu_5x5_reduce"
  type: "ReLU"
  bottom: "inception_3b/5x5_reduce"
  top: "inception_3b/5x5_reduce"
}
layer {
  name: "inception_3b/5x5"
  type: "Convolution"
  bottom: "inception_3b/5x5_reduce"
  top: "inception_3b/5x5"
  param {
    lr_mult: 1
    decay_mult: 1
  }
  param {
    lr_mult: 2
    decay_mult: 0
  }
  convolution_param {
    num_output: 96
    pad: 2
    kernel_size: 5
    weight_filler {
      type: "xavier"
      std: 0.03
    }
    bias_filler {
      type: "constant"
      value: 0.2
    }
  }
}
layer {
  name: "inception_3b/relu_5x5"
  type: "ReLU"
  bottom: "inception_3b/5x5"
  top: "inception_3b/5x5"
}
layer {
  name: "inception_3b/pool"
  type: "Pooling"
  bottom: "inception_3a/output"
  top: "inception_3b/pool"
  pooling_param {
    pool: MAX
    kernel_size: 3
    stride: 1
    pad: 1
  }
}
layer {
  name: "inception_3b/pool_proj"
  type: "Convolution"
  bottom: "inception_3b/pool"
  top: "inception_3b/pool_proj"
  param {
    lr_mult: 1
    decay_mult: 1
  }
  param {
    lr_mult: 2
    decay_mult: 0
  }
  convolution_param {
    num_output: 64
    kernel_size: 1
    weight_filler {
      type: "xavier"
      std: 0.1
    }
    bias_filler {
      type: "constant"
      value: 0.2
    }
  }
}
layer {
  name: "inception_3b/relu_pool_proj"
  type: "ReLU"
  bottom: "inception_3b/pool_proj"
  top: "inception_3b/pool_proj"
}
layer {
  name: "inception_3b/output"
  type: "Concat"
  bottom: "inception_3b/1x1"
  bottom: "inception_3b/3x3"
  bottom: "inception_3b/5x5"
  bottom: "inception_3b/pool_proj"
  top: "inception_3b/output"
}
layer {
  name: "pool3/3x3_s2"
  type: "Pooling"
  bottom: "inception_3b/output"
  top: "pool3/3x3_s2"
  pooling_param {
    pool: MAX
    kernel_size: 3
    stride: 2
  }
}
layer {
  name: "inception_4a/1x1"
  type: "Convolution"
  bottom: "pool3/3x3_s2"
  top: "inception_4a/1x1"
  param {
    lr_mult: 1
    decay_mult: 1
  }
  param {
    lr_mult: 2
    decay_mult: 0
  }
  convolution_param {
    num_output: 192
    kernel_size: 1
    weight_filler {
      type: "xavier"
      std: 0.03
    }
    bias_filler {
      type: "constant"
      value: 0.2
    }
  }
}
layer {
  name: "inception_4a/relu_1x1"
  type: "ReLU"
  bottom: "inception_4a/1x1"
  top: "inception_4a/1x1"
}
layer {
  name: "inception_4a/3x3_reduce"
  type: "Convolution"
  bottom: "pool3/3x3_s2"
  top: "inception_4a/3x3_reduce"
  param {
    lr_mult: 1
    decay_mult: 1
  }
  param {
    lr_mult: 2
    decay_mult: 0
  }
  convolution_param {
    num_output: 96
    kernel_size: 1
    weight_filler {
      type: "xavier"
      std: 0.09
    }
    bias_filler {
      type: "constant"
      value: 0.2
    }
  }
}
layer {
  name: "inception_4a/relu_3x3_reduce"
  type: "ReLU"
  bottom: "inception_4a/3x3_reduce"
  top: "inception_4a/3x3_reduce"
}
layer {
  name: "inception_4a/3x3"
  type: "Convolution"
  bottom: "inception_4a/3x3_reduce"
  top: "inception_4a/3x3"
  param {
    lr_mult: 1
    decay_mult: 1
  }
  param {
    lr_mult: 2
    decay_mult: 0
  }
  convolution_param {
    num_output: 208
    pad: 1
    kernel_size: 3
    weight_filler {
      type: "xavier"
      std: 0.03
    }
    bias_filler {
      type: "constant"
      value: 0.2
    }
  }
}
layer {
  name: "inception_4a/relu_3x3"
  type: "ReLU"
  bottom: "inception_4a/3x3"
  top: "inception_4a/3x3"
}
layer {
  name: "inception_4a/5x5_reduce"
  type: "Convolution"
  bottom: "pool3/3x3_s2"
  top: "inception_4a/5x5_reduce"
  param {
    lr_mult: 1
    decay_mult: 1
  }
  param {
    lr_mult: 2
    decay_mult: 0
  }
  convolution_param {
    num_output: 16
    kernel_size: 1
    weight_filler {
      type: "xavier"
      std: 0.2
    }
    bias_filler {
      type: "constant"
      value: 0.2
    }
  }
}
layer {
  name: "inception_4a/relu_5x5_reduce"
  type: "ReLU"
  bottom: "inception_4a/5x5_reduce"
  top: "inception_4a/5x5_reduce"
}
layer {
  name: "inception_4a/5x5"
  type: "Convolution"
  bottom: "inception_4a/5x5_reduce"
  top: "inception_4a/5x5"
  param {
    lr_mult: 1
    decay_mult: 1
  }
  param {
    lr_mult: 2
    decay_mult: 0
  }
  convolution_param {
    num_output: 48
    pad: 2
    kernel_size: 5
    weight_filler {
      type: "xavier"
      std: 0.03
    }
    bias_filler {
      type: "constant"
      value: 0.2
    }
  }
}
layer {
  name: "inception_4a/relu_5x5"
  type: "ReLU"
  bottom: "inception_4a/5x5"
  top: "inception_4a/5x5"
}
layer {
  name: "inception_4a/pool"
  type: "Pooling"
  bottom: "pool3/3x3_s2"
  top: "inception_4a/pool"
  pooling_param {
    pool: MAX
    kernel_size: 3
    stride: 1
    pad: 1
  }
}
layer {
  name: "inception_4a/pool_proj"
  type: "Convolution"
  bottom: "inception_4a/pool"
  top: "inception_4a/pool_proj"
  param {
    lr_mult: 1
    decay_mult: 1
  }
  param {
    lr_mult: 2
    decay_mult: 0
  }
  convolution_param {
    num_output: 64
    kernel_size: 1
    weight_filler {
      type: "xavier"
      std: 0.1
    }
    bias_filler {
      type: "constant"
      value: 0.2
    }
  }
}
layer {
  name: "inception_4a/relu_pool_proj"
  type: "ReLU"
  bottom: "inception_4a/pool_proj"
  top: "inception_4a/pool_proj"
}
layer {
  name: "inception_4a/output"
  type: "Concat"
  bottom: "inception_4a/1x1"
  bottom: "inception_4a/3x3"
  bottom: "inception_4a/5x5"
  bottom: "inception_4a/pool_proj"
  top: "inception_4a/output"
}
layer {
  name: "loss1/ave_pool"
  type: "Pooling"
  bottom: "inception_4a/output"
  top: "loss1/ave_pool"
  pooling_param {
    pool: AVE
    kernel_size: 5
    stride: 3
  }
}
layer {
  name: "loss1/conv"
  type: "Convolution"
  bottom: "loss1/ave_pool"
  top: "loss1/conv"
  param {
    lr_mult: 1
    decay_mult: 1
  }
  param {
    lr_mult: 2
    decay_mult: 0
  }
  convolution_param {
    num_output: 128
    kernel_size: 1
    weight_filler {
      type: "xavier"
      std: 0.08
    }
    bias_filler {
      type: "constant"
      value: 0.2
    }
  }
}
layer {
  name: "loss1/relu_conv"
  type: "ReLU"
  bottom: "loss1/conv"
  top: "loss1/conv"
}
layer {
  name: "loss1/fc"
  type: "InnerProduct"
  bottom: "loss1/conv"
  top: "loss1/fc"
  param {
    lr_mult: 1
    decay_mult: 1
  }
  param {
    lr_mult: 2
    decay_mult: 0
  }
  inner_product_param {
    num_output: 1024
    weight_filler {
      type: "xavier"
      std: 0.02
    }
    bias_filler {
      type: "constant"
      value: 0.2
    }
  }
}
layer {
  name: "loss1/relu_fc"
  type: "ReLU"
  bottom: "loss1/fc"
  top: "loss1/fc"
}
layer {
  name: "loss1/drop_fc"
  type: "Dropout"
  bottom: "loss1/fc"
  top: "loss1/fc"
  dropout_param {
    dropout_ratio: 0.7
  }
}
layer {
  name: "loss1/classifier_plantvillage"
  type: "InnerProduct"
  bottom: "loss1/fc"
  top: "loss1/classifier_plantvillage"
  param {
    lr_mult: 1
    decay_mult: 1
  }
  param {
    lr_mult: 2
    decay_mult: 0
  }
  inner_product_param {
    num_output: 38
    weight_filler {
      type: "xavier"
      std: 0.0009765625
    }
    bias_filler {
      type: "constant"
      value: 0
    }
  }
}
layer {
  name: "inception_4b/1x1"
  type: "Convolution"
  bottom: "inception_4a/output"
  top: "inception_4b/1x1"
  param {
    lr_mult: 1
    decay_mult: 1
  }
  param {
    lr_mult: 2
    decay_mult: 0
  }
  convolution_param {
    num_output: 160
    kernel_size: 1
    weight_filler {
      type: "xavier"
      std: 0.03
    }
    bias_filler {
      type: "constant"
      value: 0.2
    }
  }
}
layer {
  name: "inception_4b/relu_1x1"
  type: "ReLU"
  bottom: "inception_4b/1x1"
  top: "inception_4b/1x1"
}
layer {
  name: "inception_4b/3x3_reduce"
  type: "Convolution"
  bottom: "inception_4a/output"
  top: "inception_4b/3x3_reduce"
  param {
    lr_mult: 1
    decay_mult: 1
  }
  param {
    lr_mult: 2
    decay_mult: 0
  }
  convolution_param {
    num_output: 112
    kernel_size: 1
    weight_filler {
      type: "xavier"
      std: 0.09
    }
    bias_filler {
      type: "constant"
      value: 0.2
    }
  }
}
layer {
  name: "inception_4b/relu_3x3_reduce"
  type: "ReLU"
  bottom: "inception_4b/3x3_reduce"
  top: "inception_4b/3x3_reduce"
}
layer {
  name: "inception_4b/3x3"
  type: "Convolution"
  bottom: "inception_4b/3x3_reduce"
  top: "inception_4b/3x3"
  param {
    lr_mult: 1
    decay_mult: 1
  }
  param {
    lr_mult: 2
    decay_mult: 0
  }
  convolution_param {
    num_output: 224
    pad: 1
    kernel_size: 3
    weight_filler {
      type: "xavier"
      std: 0.03
    }
    bias_filler {
      type: "constant"
      value: 0.2
    }
  }
}
layer {
  name: "inception_4b/relu_3x3"
  type: "ReLU"
  bottom: "inception_4b/3x3"
  top: "inception_4b/3x3"
}
layer {
  name: "inception_4b/5x5_reduce"
  type: "Convolution"
  bottom: "inception_4a/output"
  top: "inception_4b/5x5_reduce"
  param {
    lr_mult: 1
    decay_mult: 1
  }
  param {
    lr_mult: 2
    decay_mult: 0
  }
  convolution_param {
    num_output: 24
    kernel_size: 1
    weight_filler {
      type: "xavier"
      std: 0.2
    }
    bias_filler {
      type: "constant"
      value: 0.2
    }
  }
}
layer {
  name: "inception_4b/relu_5x5_reduce"
  type: "ReLU"
  bottom: "inception_4b/5x5_reduce"
  top: "inception_4b/5x5_reduce"
}
layer {
  name: "inception_4b/5x5"
  type: "Convolution"
  bottom: "inception_4b/5x5_reduce"
  top: "inception_4b/5x5"
  param {
    lr_mult: 1
    decay_mult: 1
  }
  param {
    lr_mult: 2
    decay_mult: 0
  }
  convolution_param {
    num_output: 64
    pad: 2
    kernel_size: 5
    weight_filler {
      type: "xavier"
      std: 0.03
    }
    bias_filler {
      type: "constant"
      value: 0.2
    }
  }
}
layer {
  name: "inception_4b/relu_5x5"
  type: "ReLU"
  bottom: "inception_4b/5x5"
  top: "inception_4b/5x5"
}
layer {
  name: "inception_4b/pool"
  type: "Pooling"
  bottom: "inception_4a/output"
  top: "inception_4b/pool"
  pooling_param {
    pool: MAX
    kernel_size: 3
    stride: 1
    pad: 1
  }
}
layer {
  name: "inception_4b/pool_proj"
  type: "Convolution"
  bottom: "inception_4b/pool"
  top: "inception_4b/pool_proj"
  param {
    lr_mult: 1
    decay_mult: 1
  }
  param {
    lr_mult: 2
    decay_mult: 0
  }
  convolution_param {
    num_output: 64
    kernel_size: 1
    weight_filler {
      type: "xavier"
      std: 0.1
    }
    bias_filler {
      type: "constant"
      value: 0.2
    }
  }
}
layer {
  name: "inception_4b/relu_pool_proj"
  type: "ReLU"
  bottom: "inception_4b/pool_proj"
  top: "inception_4b/pool_proj"
}
layer {
  name: "inception_4b/output"
  type: "Concat"
  bottom: "inception_4b/1x1"
  bottom: "inception_4b/3x3"
  bottom: "inception_4b/5x5"
  bottom: "inception_4b/pool_proj"
  top: "inception_4b/output"
}
layer {
  name: "inception_4c/1x1"
  type: "Convolution"
  bottom: "inception_4b/output"
  top: "inception_4c/1x1"
  param {
    lr_mult: 1
    decay_mult: 1
  }
  param {
    lr_mult: 2
    decay_mult: 0
  }
  convolution_param {
    num_output: 128
    kernel_size: 1
    weight_filler {
      type: "xavier"
      std: 0.03
    }
    bias_filler {
      type: "constant"
      value: 0.2
    }
  }
}
layer {
  name: "inception_4c/relu_1x1"
  type: "ReLU"
  bottom: "inception_4c/1x1"
  top: "inception_4c/1x1"
}
layer {
  name: "inception_4c/3x3_reduce"
  type: "Convolution"
  bottom: "inception_4b/output"
  top: "inception_4c/3x3_reduce"
  param {
    lr_mult: 1
    decay_mult: 1
  }
  param {
    lr_mult: 2
    decay_mult: 0
  }
  convolution_param {
    num_output: 128
    kernel_size: 1
    weight_filler {
      type: "xavier"
      std: 0.09
    }
    bias_filler {
      type: "constant"
      value: 0.2
    }
  }
}
layer {
  name: "inception_4c/relu_3x3_reduce"
  type: "ReLU"
  bottom: "inception_4c/3x3_reduce"
  top: "inception_4c/3x3_reduce"
}
layer {
  name: "inception_4c/3x3"
  type: "Convolution"
  bottom: "inception_4c/3x3_reduce"
  top: "inception_4c/3x3"
  param {
    lr_mult: 1
    decay_mult: 1
  }
  param {
    lr_mult: 2
    decay_mult: 0
  }
  convolution_param {
    num_output: 256
    pad: 1
    kernel_size: 3
    weight_filler {
      type: "xavier"
      std: 0.03
    }
    bias_filler {
      type: "constant"
      value: 0.2
    }
  }
}
layer {
  name: "inception_4c/relu_3x3"
  type: "ReLU"
  bottom: "inception_4c/3x3"
  top: "inception_4c/3x3"
}
layer {
  name: "inception_4c/5x5_reduce"
  type: "Convolution"
  bottom: "inception_4b/output"
  top: "inception_4c/5x5_reduce"
  param {
    lr_mult: 1
    decay_mult: 1
  }
  param {
    lr_mult: 2
    decay_mult: 0
  }
  convolution_param {
    num_output: 24
    kernel_size: 1
    weight_filler {
      type: "xavier"
      std: 0.2
    }
    bias_filler {
      type: "constant"
      value: 0.2
    }
  }
}
layer {
  name: "inception_4c/relu_5x5_reduce"
  type: "ReLU"
  bottom: "inception_4c/5x5_reduce"
  top: "inception_4c/5x5_reduce"
}
layer {
  name: "inception_4c/5x5"
  type: "Convolution"
  bottom: "inception_4c/5x5_reduce"
  top: "inception_4c/5x5"
  param {
    lr_mult: 1
    decay_mult: 1
  }
  param {
    lr_mult: 2
    decay_mult: 0
  }
  convolution_param {
    num_output: 64
    pad: 2
    kernel_size: 5
    weight_filler {
      type: "xavier"
      std: 0.03
    }
    bias_filler {
      type: "constant"
      value: 0.2
    }
  }
}
layer {
  name: "inception_4c/relu_5x5"
  type: "ReLU"
  bottom: "inception_4c/5x5"
  top: "inception_4c/5x5"
}
layer {
  name: "inception_4c/pool"
  type: "Pooling"
  bottom: "inception_4b/output"
  top: "inception_4c/pool"
  pooling_param {
    pool: MAX
    kernel_size: 3
    stride: 1
    pad: 1
  }
}
layer {
  name: "inception_4c/pool_proj"
  type: "Convolution"
  bottom: "inception_4c/pool"
  top: "inception_4c/pool_proj"
  param {
    lr_mult: 1
    decay_mult: 1
  }
  param {
    lr_mult: 2
    decay_mult: 0
  }
  convolution_param {
    num_output: 64
    kernel_size: 1
    weight_filler {
      type: "xavier"
      std: 0.1
    }
    bias_filler {
      type: "constant"
      value: 0.2
    }
  }
}
layer {
  name: "inception_4c/relu_pool_proj"
  type: "ReLU"
  bottom: "inception_4c/pool_proj"
  top: "inception_4c/pool_proj"
}
layer {
  name: "inception_4c/output"
  type: "Concat"
  bottom: "inception_4c/1x1"
  bottom: "inception_4c/3x3"
  bottom: "inception_4c/5x5"
  bottom: "inception_4c/pool_proj"
  top: "inception_4c/output"
}
layer {
  name: "inception_4d/1x1"
  type: "Convolution"
  bottom: "inception_4c/output"
  top: "inception_4d/1x1"
  param {
    lr_mult: 1
    decay_mult: 1
  }
  param {
    lr_mult: 2
    decay_mult: 0
  }
  convolution_param {
    num_output: 112
    kernel_size: 1
    weight_filler {
      type: "xavier"
      std: 0.03
    }
    bias_filler {
      type: "constant"
      value: 0.2
    }
  }
}
layer {
  name: "inception_4d/relu_1x1"
  type: "ReLU"
  bottom: "inception_4d/1x1"
  top: "inception_4d/1x1"
}
layer {
  name: "inception_4d/3x3_reduce"
  type: "Convolution"
  bottom: "inception_4c/output"
  top: "inception_4d/3x3_reduce"
  param {
    lr_mult: 1
    decay_mult: 1
  }
  param {
    lr_mult: 2
    decay_mult: 0
  }
  convolution_param {
    num_output: 144
    kernel_size: 1
    weight_filler {
      type: "xavier"
      std: 0.09
    }
    bias_filler {
      type: "constant"
      value: 0.2
    }
  }
}
layer {
  name: "inception_4d/relu_3x3_reduce"
  type: "ReLU"
  bottom: "inception_4d/3x3_reduce"
  top: "inception_4d/3x3_reduce"
}
layer {
  name: "inception_4d/3x3"
  type: "Convolution"
  bottom: "inception_4d/3x3_reduce"
  top: "inception_4d/3x3"
  param {
    lr_mult: 1
    decay_mult: 1
  }
  param {
    lr_mult: 2
    decay_mult: 0
  }
  convolution_param {
    num_output: 288
    pad: 1
    kernel_size: 3
    weight_filler {
      type: "xavier"
      std: 0.03
    }
    bias_filler {
      type: "constant"
      value: 0.2
    }
  }
}
layer {
  name: "inception_4d/relu_3x3"
  type: "ReLU"
  bottom: "inception_4d/3x3"
  top: "inception_4d/3x3"
}
layer {
  name: "inception_4d/5x5_reduce"
  type: "Convolution"
  bottom: "inception_4c/output"
  top: "inception_4d/5x5_reduce"
  param {
    lr_mult: 1
    decay_mult: 1
  }
  param {
    lr_mult: 2
    decay_mult: 0
  }
  convolution_param {
    num_output: 32
    kernel_size: 1
    weight_filler {
      type: "xavier"
      std: 0.2
    }
    bias_filler {
      type: "constant"
      value: 0.2
    }
  }
}
layer {
  name: "inception_4d/relu_5x5_reduce"
  type: "ReLU"
  bottom: "inception_4d/5x5_reduce"
  top: "inception_4d/5x5_reduce"
}
layer {
  name: "inception_4d/5x5"
  type: "Convolution"
  bottom: "inception_4d/5x5_reduce"
  top: "inception_4d/5x5"
  param {
    lr_mult: 1
    decay_mult: 1
  }
  param {
    lr_mult: 2
    decay_mult: 0
  }
  convolution_param {
    num_output: 64
    pad: 2
    kernel_size: 5
    weight_filler {
      type: "xavier"
      std: 0.03
    }
    bias_filler {
      type: "constant"
      value: 0.2
    }
  }
}
layer {
  name: "inception_4d/relu_5x5"
  type: "ReLU"
  bottom: "inception_4d/5x5"
  top: "inception_4d/5x5"
}
layer {
  name: "inception_4d/pool"
  type: "Pooling"
  bottom: "inception_4c/output"
  top: "inception_4d/pool"
  pooling_param {
    pool: MAX
    kernel_size: 3
    stride: 1
    pad: 1
  }
}
layer {
  name: "inception_4d/pool_proj"
  type: "Convolution"
  bottom: "inception_4d/pool"
  top: "inception_4d/pool_proj"
  param {
    lr_mult: 1
    decay_mult: 1
  }
  param {
    lr_mult: 2
    decay_mult: 0
  }
  convolution_param {
    num_output: 64
    kernel_size: 1
    weight_filler {
      type: "xavier"
      std: 0.1
    }
    bias_filler {
      type: "constant"
      value: 0.2
    }
  }
}
layer {
  name: "inception_4d/relu_pool_proj"
  type: "ReLU"
  bottom: "inception_4d/pool_proj"
  top: "inception_4d/pool_proj"
}
layer {
  name: "inception_4d/output"
  type: "Concat"
  bottom: "inception_4d/1x1"
  bottom: "inception_4d/3x3"
  bottom: "inception_4d/5x5"
  bottom: "inception_4d/pool_proj"
  top: "inception_4d/output"
}
layer {
  name: "loss2/ave_pool"
  type: "Pooling"
  bottom: "inception_4d/output"
  top: "loss2/ave_pool"
  pooling_param {
    pool: AVE
    kernel_size: 5
    stride: 3
  }
}
layer {
  name: "loss2/conv"
  type: "Convolution"
  bottom: "loss2/ave_pool"
  top: "loss2/conv"
  param {
    lr_mult: 1
    decay_mult: 1
  }
  param {
    lr_mult: 2
    decay_mult: 0
  }
  convolution_param {
    num_output: 128
    kernel_size: 1
    weight_filler {
      type: "xavier"
      std: 0.08
    }
    bias_filler {
      type: "constant"
      value: 0.2
    }
  }
}
layer {
  name: "loss2/relu_conv"
  type: "ReLU"
  bottom: "loss2/conv"
  top: "loss2/conv"
}
layer {
  name: "loss2/fc"
  type: "InnerProduct"
  bottom: "loss2/conv"
  top: "loss2/fc"
  param {
    lr_mult: 1
    decay_mult: 1
  }
  param {
    lr_mult: 2
    decay_mult: 0
  }
  inner_product_param {
    num_output: 1024
    weight_filler {
      type: "xavier"
      std: 0.02
    }
    bias_filler {
      type: "constant"
      value: 0.2
    }
  }
}
layer {
  name: "loss2/relu_fc"
  type: "ReLU"
  bottom: "loss2/fc"
  top: "loss2/fc"
}
layer {
  name: "loss2/drop_fc"
  type: "Dropout"
  bottom: "loss2/fc"
  top: "loss2/fc"
  dropout_param {
    dropout_ratio: 0.7
  }
}
layer {
  name: "loss2/classifier_plantvillage"
  type: "InnerProduct"
  bottom: "loss2/fc"
  top: "loss2/classifier_plantvillage"
  param {
    lr_mult: 1
    decay_mult: 1
  }
  param {
    lr_mult: 2
    decay_mult: 0
  }
  inner_product_param {
    num_output: 38
    weight_filler {
      type: "xavier"
      std: 0.0009765625
    }
    bias_filler {
      type: "constant"
      value: 0
    }
  }
}
layer {
  name: "inception_4e/1x1"
  type: "Convolution"
  bottom: "inception_4d/output"
  top: "inception_4e/1x1"
  param {
    lr_mult: 1
    decay_mult: 1
  }
  param {
    lr_mult: 2
    decay_mult: 0
  }
  convolution_param {
    num_output: 256
    kernel_size: 1
    weight_filler {
      type: "xavier"
      std: 0.03
    }
    bias_filler {
      type: "constant"
      value: 0.2
    }
  }
}
layer {
  name: "inception_4e/relu_1x1"
  type: "ReLU"
  bottom: "inception_4e/1x1"
  top: "inception_4e/1x1"
}
layer {
  name: "inception_4e/3x3_reduce"
  type: "Convolution"
  bottom: "inception_4d/output"
  top: "inception_4e/3x3_reduce"
  param {
    lr_mult: 1
    decay_mult: 1
  }
  param {
    lr_mult: 2
    decay_mult: 0
  }
  convolution_param {
    num_output: 160
    kernel_size: 1
    weight_filler {
      type: "xavier"
      std: 0.09
    }
    bias_filler {
      type: "constant"
      value: 0.2
    }
  }
}
layer {
  name: "inception_4e/relu_3x3_reduce"
  type: "ReLU"
  bottom: "inception_4e/3x3_reduce"
  top: "inception_4e/3x3_reduce"
}
layer {
  name: "inception_4e/3x3"
  type: "Convolution"
  bottom: "inception_4e/3x3_reduce"
  top: "inception_4e/3x3"
  param {
    lr_mult: 1
    decay_mult: 1
  }
  param {
    lr_mult: 2
    decay_mult: 0
  }
  convolution_param {
    num_output: 320
    pad: 1
    kernel_size: 3
    weight_filler {
      type: "xavier"
      std: 0.03
    }
    bias_filler {
      type: "constant"
      value: 0.2
    }
  }
}
layer {
  name: "inception_4e/relu_3x3"
  type: "ReLU"
  bottom: "inception_4e/3x3"
  top: "inception_4e/3x3"
}
layer {
  name: "inception_4e/5x5_reduce"
  type: "Convolution"
  bottom: "inception_4d/output"
  top: "inception_4e/5x5_reduce"
  param {
    lr_mult: 1
    decay_mult: 1
  }
  param {
    lr_mult: 2
    decay_mult: 0
  }
  convolution_param {
    num_output: 32
    kernel_size: 1
    weight_filler {
      type: "xavier"
      std: 0.2
    }
    bias_filler {
      type: "constant"
      value: 0.2
    }
  }
}
layer {
  name: "inception_4e/relu_5x5_reduce"
  type: "ReLU"
  bottom: "inception_4e/5x5_reduce"
  top: "inception_4e/5x5_reduce"
}
layer {
  name: "inception_4e/5x5"
  type: "Convolution"
  bottom: "inception_4e/5x5_reduce"
  top: "inception_4e/
I0403 18:50:36.821691 17821 layer_factory.hpp:77] Creating layer data
I0403 18:50:36.822283 17821 net.cpp:91] Creating Layer data
I0403 18:50:36.822312 17821 net.cpp:399] data -> data
I0403 18:50:36.822365 17821 net.cpp:399] data -> label
I0403 18:50:36.822402 17821 data_transformer.cpp:25] Loading mean file from: /home/mohanty/data/final_dataset/lmdb/segmented-60-40/mean.binaryproto
I0403 18:50:36.823576 17823 db_lmdb.cpp:38] Opened lmdb /home/mohanty/data/final_dataset/lmdb/segmented-60-40/test_db
I0403 18:50:36.835350 17821 data_layer.cpp:41] output data size: 24,3,224,224
I0403 18:50:36.862948 17821 net.cpp:141] Setting up data
I0403 18:50:36.863039 17821 net.cpp:148] Top shape: 24 3 224 224 (3612672)
I0403 18:50:36.863060 17821 net.cpp:148] Top shape: 24 (24)
I0403 18:50:36.863075 17821 net.cpp:156] Memory required for data: 14450784
I0403 18:50:36.863102 17821 layer_factory.hpp:77] Creating layer label_data_1_split
I0403 18:50:36.863131 17821 net.cpp:91] Creating Layer label_data_1_split
I0403 18:50:36.863148 17821 net.cpp:425] label_data_1_split <- label
I0403 18:50:36.863180 17821 net.cpp:399] label_data_1_split -> label_data_1_split_0
I0403 18:50:36.863209 17821 net.cpp:399] label_data_1_split -> label_data_1_split_1
I0403 18:50:36.863229 17821 net.cpp:399] label_data_1_split -> label_data_1_split_2
I0403 18:50:36.863250 17821 net.cpp:399] label_data_1_split -> label_data_1_split_3
I0403 18:50:36.863270 17821 net.cpp:399] label_data_1_split -> label_data_1_split_4
I0403 18:50:36.863289 17821 net.cpp:399] label_data_1_split -> label_data_1_split_5
I0403 18:50:36.863309 17821 net.cpp:399] label_data_1_split -> label_data_1_split_6
I0403 18:50:36.863329 17821 net.cpp:399] label_data_1_split -> label_data_1_split_7
I0403 18:50:36.863348 17821 net.cpp:399] label_data_1_split -> label_data_1_split_8
I0403 18:50:36.863368 17821 net.cpp:399] label_data_1_split -> label_data_1_split_9
I0403 18:50:36.863483 17821 net.cpp:141] Setting up label_data_1_split
I0403 18:50:36.863507 17821 net.cpp:148] Top shape: 24 (24)
I0403 18:50:36.863523 17821 net.cpp:148] Top shape: 24 (24)
I0403 18:50:36.863539 17821 net.cpp:148] Top shape: 24 (24)
I0403 18:50:36.863554 17821 net.cpp:148] Top shape: 24 (24)
I0403 18:50:36.863570 17821 net.cpp:148] Top shape: 24 (24)
I0403 18:50:36.863585 17821 net.cpp:148] Top shape: 24 (24)
I0403 18:50:36.863601 17821 net.cpp:148] Top shape: 24 (24)
I0403 18:50:36.863616 17821 net.cpp:148] Top shape: 24 (24)
I0403 18:50:36.863632 17821 net.cpp:148] Top shape: 24 (24)
I0403 18:50:36.863648 17821 net.cpp:148] Top shape: 24 (24)
I0403 18:50:36.863692 17821 net.cpp:156] Memory required for data: 14451744
I0403 18:50:36.863708 17821 layer_factory.hpp:77] Creating layer conv1/7x7_s2
I0403 18:50:36.863739 17821 net.cpp:91] Creating Layer conv1/7x7_s2
I0403 18:50:36.863759 17821 net.cpp:425] conv1/7x7_s2 <- data
I0403 18:50:36.863778 17821 net.cpp:399] conv1/7x7_s2 -> conv1/7x7_s2
I0403 18:50:37.003880 17821 net.cpp:141] Setting up conv1/7x7_s2
I0403 18:50:37.003965 17821 net.cpp:148] Top shape: 24 64 112 112 (19267584)
I0403 18:50:37.003986 17821 net.cpp:156] Memory required for data: 91522080
I0403 18:50:37.004019 17821 layer_factory.hpp:77] Creating layer conv1/relu_7x7
I0403 18:50:37.004047 17821 net.cpp:91] Creating Layer conv1/relu_7x7
I0403 18:50:37.004066 17821 net.cpp:425] conv1/relu_7x7 <- conv1/7x7_s2
I0403 18:50:37.004084 17821 net.cpp:386] conv1/relu_7x7 -> conv1/7x7_s2 (in-place)
I0403 18:50:37.004334 17821 net.cpp:141] Setting up conv1/relu_7x7
I0403 18:50:37.004361 17821 net.cpp:148] Top shape: 24 64 112 112 (19267584)
I0403 18:50:37.004376 17821 net.cpp:156] Memory required for data: 168592416
I0403 18:50:37.004391 17821 layer_factory.hpp:77] Creating layer pool1/3x3_s2
I0403 18:50:37.004415 17821 net.cpp:91] Creating Layer pool1/3x3_s2
I0403 18:50:37.004433 17821 net.cpp:425] pool1/3x3_s2 <- conv1/7x7_s2
I0403 18:50:37.004451 17821 net.cpp:399] pool1/3x3_s2 -> pool1/3x3_s2
I0403 18:50:37.004525 17821 net.cpp:141] Setting up pool1/3x3_s2
I0403 18:50:37.004549 17821 net.cpp:148] Top shape: 24 64 56 56 (4816896)
I0403 18:50:37.004564 17821 net.cpp:156] Memory required for data: 187860000
I0403 18:50:37.004578 17821 layer_factory.hpp:77] Creating layer pool1/norm1
I0403 18:50:37.004601 17821 net.cpp:91] Creating Layer pool1/norm1
I0403 18:50:37.004618 17821 net.cpp:425] pool1/norm1 <- pool1/3x3_s2
I0403 18:50:37.004636 17821 net.cpp:399] pool1/norm1 -> pool1/norm1
I0403 18:50:37.004911 17821 net.cpp:141] Setting up pool1/norm1
I0403 18:50:37.004940 17821 net.cpp:148] Top shape: 24 64 56 56 (4816896)
I0403 18:50:37.004956 17821 net.cpp:156] Memory required for data: 207127584
I0403 18:50:37.004971 17821 layer_factory.hpp:77] Creating layer conv2/3x3_reduce
I0403 18:50:37.004999 17821 net.cpp:91] Creating Layer conv2/3x3_reduce
I0403 18:50:37.005017 17821 net.cpp:425] conv2/3x3_reduce <- pool1/norm1
I0403 18:50:37.005034 17821 net.cpp:399] conv2/3x3_reduce -> conv2/3x3_reduce
I0403 18:50:37.006377 17821 net.cpp:141] Setting up conv2/3x3_reduce
I0403 18:50:37.006407 17821 net.cpp:148] Top shape: 24 64 56 56 (4816896)
I0403 18:50:37.006423 17821 net.cpp:156] Memory required for data: 226395168
I0403 18:50:37.006445 17821 layer_factory.hpp:77] Creating layer conv2/relu_3x3_reduce
I0403 18:50:37.006465 17821 net.cpp:91] Creating Layer conv2/relu_3x3_reduce
I0403 18:50:37.006481 17821 net.cpp:425] conv2/relu_3x3_reduce <- conv2/3x3_reduce
I0403 18:50:37.006501 17821 net.cpp:386] conv2/relu_3x3_reduce -> conv2/3x3_reduce (in-place)
I0403 18:50:37.006775 17821 net.cpp:141] Setting up conv2/relu_3x3_reduce
I0403 18:50:37.006803 17821 net.cpp:148] Top shape: 24 64 56 56 (4816896)
I0403 18:50:37.006819 17821 net.cpp:156] Memory required for data: 245662752
I0403 18:50:37.006834 17821 layer_factory.hpp:77] Creating layer conv2/3x3
I0403 18:50:37.006858 17821 net.cpp:91] Creating Layer conv2/3x3
I0403 18:50:37.006876 17821 net.cpp:425] conv2/3x3 <- conv2/3x3_reduce
I0403 18:50:37.006898 17821 net.cpp:399] conv2/3x3 -> conv2/3x3
I0403 18:50:37.009223 17821 net.cpp:141] Setting up conv2/3x3
I0403 18:50:37.009254 17821 net.cpp:148] Top shape: 24 192 56 56 (14450688)
I0403 18:50:37.009271 17821 net.cpp:156] Memory required for data: 303465504
I0403 18:50:37.009292 17821 layer_factory.hpp:77] Creating layer conv2/relu_3x3
I0403 18:50:37.009315 17821 net.cpp:91] Creating Layer conv2/relu_3x3
I0403 18:50:37.009332 17821 net.cpp:425] conv2/relu_3x3 <- conv2/3x3
I0403 18:50:37.009349 17821 net.cpp:386] conv2/relu_3x3 -> conv2/3x3 (in-place)
I0403 18:50:37.009523 17821 net.cpp:141] Setting up conv2/relu_3x3
I0403 18:50:37.009552 17821 net.cpp:148] Top shape: 24 192 56 56 (14450688)
I0403 18:50:37.009598 17821 net.cpp:156] Memory required for data: 361268256
I0403 18:50:37.009613 17821 layer_factory.hpp:77] Creating layer conv2/norm2
I0403 18:50:37.009632 17821 net.cpp:91] Creating Layer conv2/norm2
I0403 18:50:37.009649 17821 net.cpp:425] conv2/norm2 <- conv2/3x3
I0403 18:50:37.009668 17821 net.cpp:399] conv2/norm2 -> conv2/norm2
I0403 18:50:37.010002 17821 net.cpp:141] Setting up conv2/norm2
I0403 18:50:37.010030 17821 net.cpp:148] Top shape: 24 192 56 56 (14450688)
I0403 18:50:37.010058 17821 net.cpp:156] Memory required for data: 419071008
I0403 18:50:37.010073 17821 layer_factory.hpp:77] Creating layer pool2/3x3_s2
I0403 18:50:37.010092 17821 net.cpp:91] Creating Layer pool2/3x3_s2
I0403 18:50:37.010107 17821 net.cpp:425] pool2/3x3_s2 <- conv2/norm2
I0403 18:50:37.010143 17821 net.cpp:399] pool2/3x3_s2 -> pool2/3x3_s2
I0403 18:50:37.010198 17821 net.cpp:141] Setting up pool2/3x3_s2
I0403 18:50:37.010222 17821 net.cpp:148] Top shape: 24 192 28 28 (3612672)
I0403 18:50:37.010237 17821 net.cpp:156] Memory required for data: 433521696
I0403 18:50:37.010253 17821 layer_factory.hpp:77] Creating layer pool2/3x3_s2_pool2/3x3_s2_0_split
I0403 18:50:37.010273 17821 net.cpp:91] Creating Layer pool2/3x3_s2_pool2/3x3_s2_0_split
I0403 18:50:37.010290 17821 net.cpp:425] pool2/3x3_s2_pool2/3x3_s2_0_split <- pool2/3x3_s2
I0403 18:50:37.010308 17821 net.cpp:399] pool2/3x3_s2_pool2/3x3_s2_0_split -> pool2/3x3_s2_pool2/3x3_s2_0_split_0
I0403 18:50:37.010330 17821 net.cpp:399] pool2/3x3_s2_pool2/3x3_s2_0_split -> pool2/3x3_s2_pool2/3x3_s2_0_split_1
I0403 18:50:37.010351 17821 net.cpp:399] pool2/3x3_s2_pool2/3x3_s2_0_split -> pool2/3x3_s2_pool2/3x3_s2_0_split_2
I0403 18:50:37.010372 17821 net.cpp:399] pool2/3x3_s2_pool2/3x3_s2_0_split -> pool2/3x3_s2_pool2/3x3_s2_0_split_3
I0403 18:50:37.010455 17821 net.cpp:141] Setting up pool2/3x3_s2_pool2/3x3_s2_0_split
I0403 18:50:37.010490 17821 net.cpp:148] Top shape: 24 192 28 28 (3612672)
I0403 18:50:37.010507 17821 net.cpp:148] Top shape: 24 192 28 28 (3612672)
I0403 18:50:37.010524 17821 net.cpp:148] Top shape: 24 192 28 28 (3612672)
I0403 18:50:37.010540 17821 net.cpp:148] Top shape: 24 192 28 28 (3612672)
I0403 18:50:37.010553 17821 net.cpp:156] Memory required for data: 491324448
I0403 18:50:37.010568 17821 layer_factory.hpp:77] Creating layer inception_3a/1x1
I0403 18:50:37.010592 17821 net.cpp:91] Creating Layer inception_3a/1x1
I0403 18:50:37.010609 17821 net.cpp:425] inception_3a/1x1 <- pool2/3x3_s2_pool2/3x3_s2_0_split_0
I0403 18:50:37.010632 17821 net.cpp:399] inception_3a/1x1 -> inception_3a/1x1
I0403 18:50:37.012193 17821 net.cpp:141] Setting up inception_3a/1x1
I0403 18:50:37.012233 17821 net.cpp:148] Top shape: 24 64 28 28 (1204224)
I0403 18:50:37.012249 17821 net.cpp:156] Memory required for data: 496141344
I0403 18:50:37.012269 17821 layer_factory.hpp:77] Creating layer inception_3a/relu_1x1
I0403 18:50:37.012290 17821 net.cpp:91] Creating Layer inception_3a/relu_1x1
I0403 18:50:37.012306 17821 net.cpp:425] inception_3a/relu_1x1 <- inception_3a/1x1
I0403 18:50:37.012323 17821 net.cpp:386] inception_3a/relu_1x1 -> inception_3a/1x1 (in-place)
I0403 18:50:37.012502 17821 net.cpp:141] Setting up inception_3a/relu_1x1
I0403 18:50:37.012527 17821 net.cpp:148] Top shape: 24 64 28 28 (1204224)
I0403 18:50:37.012543 17821 net.cpp:156] Memory required for data: 500958240
I0403 18:50:37.012558 17821 layer_factory.hpp:77] Creating layer inception_3a/3x3_reduce
I0403 18:50:37.012581 17821 net.cpp:91] Creating Layer inception_3a/3x3_reduce
I0403 18:50:37.012599 17821 net.cpp:425] inception_3a/3x3_reduce <- pool2/3x3_s2_pool2/3x3_s2_0_split_1
I0403 18:50:37.012621 17821 net.cpp:399] inception_3a/3x3_reduce -> inception_3a/3x3_reduce
I0403 18:50:37.014320 17821 net.cpp:141] Setting up inception_3a/3x3_reduce
I0403 18:50:37.014349 17821 net.cpp:148] Top shape: 24 96 28 28 (1806336)
I0403 18:50:37.014366 17821 net.cpp:156] Memory required for data: 508183584
I0403 18:50:37.014389 17821 layer_factory.hpp:77] Creating layer inception_3a/relu_3x3_reduce
I0403 18:50:37.014425 17821 net.cpp:91] Creating Layer inception_3a/relu_3x3_reduce
I0403 18:50:37.014443 17821 net.cpp:425] inception_3a/relu_3x3_reduce <- inception_3a/3x3_reduce
I0403 18:50:37.014462 17821 net.cpp:386] inception_3a/relu_3x3_reduce -> inception_3a/3x3_reduce (in-place)
I0403 18:50:37.014644 17821 net.cpp:141] Setting up inception_3a/relu_3x3_reduce
I0403 18:50:37.014670 17821 net.cpp:148] Top shape: 24 96 28 28 (1806336)
I0403 18:50:37.014686 17821 net.cpp:156] Memory required for data: 515408928
I0403 18:50:37.014701 17821 layer_factory.hpp:77] Creating layer inception_3a/3x3
I0403 18:50:37.014724 17821 net.cpp:91] Creating Layer inception_3a/3x3
I0403 18:50:37.014741 17821 net.cpp:425] inception_3a/3x3 <- inception_3a/3x3_reduce
I0403 18:50:37.014765 17821 net.cpp:399] inception_3a/3x3 -> inception_3a/3x3
I0403 18:50:37.016453 17821 net.cpp:141] Setting up inception_3a/3x3
I0403 18:50:37.016481 17821 net.cpp:148] Top shape: 24 128 28 28 (2408448)
I0403 18:50:37.016497 17821 net.cpp:156] Memory required for data: 525042720
I0403 18:50:37.016515 17821 layer_factory.hpp:77] Creating layer inception_3a/relu_3x3
I0403 18:50:37.016536 17821 net.cpp:91] Creating Layer inception_3a/relu_3x3
I0403 18:50:37.016553 17821 net.cpp:425] inception_3a/relu_3x3 <- inception_3a/3x3
I0403 18:50:37.016571 17821 net.cpp:386] inception_3a/relu_3x3 -> inception_3a/3x3 (in-place)
I0403 18:50:37.016851 17821 net.cpp:141] Setting up inception_3a/relu_3x3
I0403 18:50:37.016877 17821 net.cpp:148] Top shape: 24 128 28 28 (2408448)
I0403 18:50:37.016893 17821 net.cpp:156] Memory required for data: 534676512
I0403 18:50:37.016908 17821 layer_factory.hpp:77] Creating layer inception_3a/5x5_reduce
I0403 18:50:37.016932 17821 net.cpp:91] Creating Layer inception_3a/5x5_reduce
I0403 18:50:37.016949 17821 net.cpp:425] inception_3a/5x5_reduce <- pool2/3x3_s2_pool2/3x3_s2_0_split_2
I0403 18:50:37.016971 17821 net.cpp:399] inception_3a/5x5_reduce -> inception_3a/5x5_reduce
I0403 18:50:37.017949 17821 net.cpp:141] Setting up inception_3a/5x5_reduce
I0403 18:50:37.017982 17821 net.cpp:148] Top shape: 24 16 28 28 (301056)
I0403 18:50:37.017999 17821 net.cpp:156] Memory required for data: 535880736
I0403 18:50:37.018018 17821 layer_factory.hpp:77] Creating layer inception_3a/relu_5x5_reduce
I0403 18:50:37.018039 17821 net.cpp:91] Creating Layer inception_3a/relu_5x5_reduce
I0403 18:50:37.018056 17821 net.cpp:425] inception_3a/relu_5x5_reduce <- inception_3a/5x5_reduce
I0403 18:50:37.018074 17821 net.cpp:386] inception_3a/relu_5x5_reduce -> inception_3a/5x5_reduce (in-place)
I0403 18:50:37.018380 17821 net.cpp:141] Setting up inception_3a/relu_5x5_reduce
I0403 18:50:37.018409 17821 net.cpp:148] Top shape: 24 16 28 28 (301056)
I0403 18:50:37.018425 17821 net.cpp:156] Memory required for data: 537084960
I0403 18:50:37.018440 17821 layer_factory.hpp:77] Creating layer inception_3a/5x5
I0403 18:50:37.018463 17821 net.cpp:91] Creating Layer inception_3a/5x5
I0403 18:50:37.018481 17821 net.cpp:425] inception_3a/5x5 <- inception_3a/5x5_reduce
I0403 18:50:37.018501 17821 net.cpp:399] inception_3a/5x5 -> inception_3a/5x5
I0403 18:50:37.019527 17821 net.cpp:141] Setting up inception_3a/5x5
I0403 18:50:37.019556 17821 net.cpp:148] Top shape: 24 32 28 28 (602112)
I0403 18:50:37.019572 17821 net.cpp:156] Memory required for data: 539493408
I0403 18:50:37.019592 17821 layer_factory.hpp:77] Creating layer inception_3a/relu_5x5
I0403 18:50:37.019613 17821 net.cpp:91] Creating Layer inception_3a/relu_5x5
I0403 18:50:37.019629 17821 net.cpp:425] inception_3a/relu_5x5 <- inception_3a/5x5
I0403 18:50:37.019647 17821 net.cpp:386] inception_3a/relu_5x5 -> inception_3a/5x5 (in-place)
I0403 18:50:37.019839 17821 net.cpp:141] Setting up inception_3a/relu_5x5
I0403 18:50:37.019865 17821 net.cpp:148] Top shape: 24 32 28 28 (602112)
I0403 18:50:37.019881 17821 net.cpp:156] Memory required for data: 541901856
I0403 18:50:37.019896 17821 layer_factory.hpp:77] Creating layer inception_3a/pool
I0403 18:50:37.019917 17821 net.cpp:91] Creating Layer inception_3a/pool
I0403 18:50:37.019958 17821 net.cpp:425] inception_3a/pool <- pool2/3x3_s2_pool2/3x3_s2_0_split_3
I0403 18:50:37.019982 17821 net.cpp:399] inception_3a/pool -> inception_3a/pool
I0403 18:50:37.020056 17821 net.cpp:141] Setting up inception_3a/pool
I0403 18:50:37.020081 17821 net.cpp:148] Top shape: 24 192 28 28 (3612672)
I0403 18:50:37.020095 17821 net.cpp:156] Memory required for data: 556352544
I0403 18:50:37.020110 17821 layer_factory.hpp:77] Creating layer inception_3a/pool_proj
I0403 18:50:37.020133 17821 net.cpp:91] Creating Layer inception_3a/pool_proj
I0403 18:50:37.020150 17821 net.cpp:425] inception_3a/pool_proj <- inception_3a/pool
I0403 18:50:37.020172 17821 net.cpp:399] inception_3a/pool_proj -> inception_3a/pool_proj
I0403 18:50:37.021157 17821 net.cpp:141] Setting up inception_3a/pool_proj
I0403 18:50:37.021186 17821 net.cpp:148] Top shape: 24 32 28 28 (602112)
I0403 18:50:37.021204 17821 net.cpp:156] Memory required for data: 558760992
I0403 18:50:37.021226 17821 layer_factory.hpp:77] Creating layer inception_3a/relu_pool_proj
I0403 18:50:37.021248 17821 net.cpp:91] Creating Layer inception_3a/relu_pool_proj
I0403 18:50:37.021265 17821 net.cpp:425] inception_3a/relu_pool_proj <- inception_3a/pool_proj
I0403 18:50:37.021282 17821 net.cpp:386] inception_3a/relu_pool_proj -> inception_3a/pool_proj (in-place)
I0403 18:50:37.021559 17821 net.cpp:141] Setting up inception_3a/relu_pool_proj
I0403 18:50:37.021585 17821 net.cpp:148] Top shape: 24 32 28 28 (602112)
I0403 18:50:37.021600 17821 net.cpp:156] Memory required for data: 561169440
I0403 18:50:37.021615 17821 layer_factory.hpp:77] Creating layer inception_3a/output
I0403 18:50:37.021636 17821 net.cpp:91] Creating Layer inception_3a/output
I0403 18:50:37.021652 17821 net.cpp:425] inception_3a/output <- inception_3a/1x1
I0403 18:50:37.021669 17821 net.cpp:425] inception_3a/output <- inception_3a/3x3
I0403 18:50:37.021685 17821 net.cpp:425] inception_3a/output <- inception_3a/5x5
I0403 18:50:37.021703 17821 net.cpp:425] inception_3a/output <- inception_3a/pool_proj
I0403 18:50:37.021720 17821 net.cpp:399] inception_3a/output -> inception_3a/output
I0403 18:50:37.021765 17821 net.cpp:141] Setting up inception_3a/output
I0403 18:50:37.021791 17821 net.cpp:148] Top shape: 24 256 28 28 (4816896)
I0403 18:50:37.021807 17821 net.cpp:156] Memory required for data: 580437024
I0403 18:50:37.021822 17821 layer_factory.hpp:77] Creating layer inception_3a/output_inception_3a/output_0_split
I0403 18:50:37.021839 17821 net.cpp:91] Creating Layer inception_3a/output_inception_3a/output_0_split
I0403 18:50:37.021854 17821 net.cpp:425] inception_3a/output_inception_3a/output_0_split <- inception_3a/output
I0403 18:50:37.021874 17821 net.cpp:399] inception_3a/output_inception_3a/output_0_split -> inception_3a/output_inception_3a/output_0_split_0
I0403 18:50:37.021895 17821 net.cpp:399] inception_3a/output_inception_3a/output_0_split -> inception_3a/output_inception_3a/output_0_split_1
I0403 18:50:37.021919 17821 net.cpp:399] inception_3a/output_inception_3a/output_0_split -> inception_3a/output_inception_3a/output_0_split_2
I0403 18:50:37.021939 17821 net.cpp:399] inception_3a/output_inception_3a/output_0_split -> inception_3a/output_inception_3a/output_0_split_3
I0403 18:50:37.022017 17821 net.cpp:141] Setting up inception_3a/output_inception_3a/output_0_split
I0403 18:50:37.022042 17821 net.cpp:148] Top shape: 24 256 28 28 (4816896)
I0403 18:50:37.022058 17821 net.cpp:148] Top shape: 24 256 28 28 (4816896)
I0403 18:50:37.022074 17821 net.cpp:148] Top shape: 24 256 28 28 (4816896)
I0403 18:50:37.022089 17821 net.cpp:148] Top shape: 24 256 28 28 (4816896)
I0403 18:50:37.022104 17821 net.cpp:156] Memory required for data: 657507360
I0403 18:50:37.022119 17821 layer_factory.hpp:77] Creating layer inception_3b/1x1
I0403 18:50:37.022141 17821 net.cpp:91] Creating Layer inception_3b/1x1
I0403 18:50:37.022159 17821 net.cpp:425] inception_3b/1x1 <- inception_3a/output_inception_3a/output_0_split_0
I0403 18:50:37.022182 17821 net.cpp:399] inception_3b/1x1 -> inception_3b/1x1
I0403 18:50:37.023335 17821 net.cpp:141] Setting up inception_3b/1x1
I0403 18:50:37.023375 17821 net.cpp:148] Top shape: 24 128 28 28 (2408448)
I0403 18:50:37.023391 17821 net.cpp:156] Memory required for data: 667141152
I0403 18:50:37.023411 17821 layer_factory.hpp:77] Creating layer inception_3b/relu_1x1
I0403 18:50:37.023429 17821 net.cpp:91] Creating Layer inception_3b/relu_1x1
I0403 18:50:37.023445 17821 net.cpp:425] inception_3b/relu_1x1 <- inception_3b/1x1
I0403 18:50:37.023465 17821 net.cpp:386] inception_3b/relu_1x1 -> inception_3b/1x1 (in-place)
I0403 18:50:37.023644 17821 net.cpp:141] Setting up inception_3b/relu_1x1
I0403 18:50:37.023669 17821 net.cpp:148] Top shape: 24 128 28 28 (2408448)
I0403 18:50:37.023684 17821 net.cpp:156] Memory required for data: 676774944
I0403 18:50:37.023699 17821 layer_factory.hpp:77] Creating layer inception_3b/3x3_reduce
I0403 18:50:37.023721 17821 net.cpp:91] Creating Layer inception_3b/3x3_reduce
I0403 18:50:37.023739 17821 net.cpp:425] inception_3b/3x3_reduce <- inception_3a/output_inception_3a/output_0_split_1
I0403 18:50:37.023761 17821 net.cpp:399] inception_3b/3x3_reduce -> inception_3b/3x3_reduce
I0403 18:50:37.024915 17821 net.cpp:141] Setting up inception_3b/3x3_reduce
I0403 18:50:37.024945 17821 net.cpp:148] Top shape: 24 128 28 28 (2408448)
I0403 18:50:37.024960 17821 net.cpp:156] Memory required for data: 686408736
I0403 18:50:37.024982 17821 layer_factory.hpp:77] Creating layer inception_3b/relu_3x3_reduce
I0403 18:50:37.025002 17821 net.cpp:91] Creating Layer inception_3b/relu_3x3_reduce
I0403 18:50:37.025019 17821 net.cpp:425] inception_3b/relu_3x3_reduce <- inception_3b/3x3_reduce
I0403 18:50:37.025040 17821 net.cpp:386] inception_3b/relu_3x3_reduce -> inception_3b/3x3_reduce (in-place)
I0403 18:50:37.025216 17821 net.cpp:141] Setting up inception_3b/relu_3x3_reduce
I0403 18:50:37.025241 17821 net.cpp:148] Top shape: 24 128 28 28 (2408448)
I0403 18:50:37.025256 17821 net.cpp:156] Memory required for data: 696042528
I0403 18:50:37.025271 17821 layer_factory.hpp:77] Creating layer inception_3b/3x3
I0403 18:50:37.025298 17821 net.cpp:91] Creating Layer inception_3b/3x3
I0403 18:50:37.025317 17821 net.cpp:425] inception_3b/3x3 <- inception_3b/3x3_reduce
I0403 18:50:37.025336 17821 net.cpp:399] inception_3b/3x3 -> inception_3b/3x3
I0403 18:50:37.028245 17821 net.cpp:141] Setting up inception_3b/3x3
I0403 18:50:37.028273 17821 net.cpp:148] Top shape: 24 192 28 28 (3612672)
I0403 18:50:37.028290 17821 net.cpp:156] Memory required for data: 710493216
I0403 18:50:37.028307 17821 layer_factory.hpp:77] Creating layer inception_3b/relu_3x3
I0403 18:50:37.028328 17821 net.cpp:91] Creating Layer inception_3b/relu_3x3
I0403 18:50:37.028344 17821 net.cpp:425] inception_3b/relu_3x3 <- inception_3b/3x3
I0403 18:50:37.028362 17821 net.cpp:386] inception_3b/relu_3x3 -> inception_3b/3x3 (in-place)
I0403 18:50:37.028631 17821 net.cpp:141] Setting up inception_3b/relu_3x3
I0403 18:50:37.028657 17821 net.cpp:148] Top shape: 24 192 28 28 (3612672)
I0403 18:50:37.028672 17821 net.cpp:156] Memory required for data: 724943904
I0403 18:50:37.028687 17821 layer_factory.hpp:77] Creating layer inception_3b/5x5_reduce
I0403 18:50:37.028708 17821 net.cpp:91] Creating Layer inception_3b/5x5_reduce
I0403 18:50:37.028726 17821 net.cpp:425] inception_3b/5x5_reduce <- inception_3a/output_inception_3a/output_0_split_2
I0403 18:50:37.028748 17821 net.cpp:399] inception_3b/5x5_reduce -> inception_3b/5x5_reduce
I0403 18:50:37.029765 17821 net.cpp:141] Setting up inception_3b/5x5_reduce
I0403 18:50:37.029793 17821 net.cpp:148] Top shape: 24 32 28 28 (602112)
I0403 18:50:37.029808 17821 net.cpp:156] Memory required for data: 727352352
I0403 18:50:37.029826 17821 layer_factory.hpp:77] Creating layer inception_3b/relu_5x5_reduce
I0403 18:50:37.029846 17821 net.cpp:91] Creating Layer inception_3b/relu_5x5_reduce
I0403 18:50:37.029863 17821 net.cpp:425] inception_3b/relu_5x5_reduce <- inception_3b/5x5_reduce
I0403 18:50:37.029881 17821 net.cpp:386] inception_3b/relu_5x5_reduce -> inception_3b/5x5_reduce (in-place)
I0403 18:50:37.030097 17821 net.cpp:141] Setting up inception_3b/relu_5x5_reduce
I0403 18:50:37.030122 17821 net.cpp:148] Top shape: 24 32 28 28 (602112)
I0403 18:50:37.030136 17821 net.cpp:156] Memory required for data: 729760800
I0403 18:50:37.030151 17821 layer_factory.hpp:77] Creating layer inception_3b/5x5
I0403 18:50:37.030175 17821 net.cpp:91] Creating Layer inception_3b/5x5
I0403 18:50:37.030195 17821 net.cpp:425] inception_3b/5x5 <- inception_3b/5x5_reduce
I0403 18:50:37.030226 17821 net.cpp:399] inception_3b/5x5 -> inception_3b/5x5
I0403 18:50:37.032241 17821 net.cpp:141] Setting up inception_3b/5x5
I0403 18:50:37.032272 17821 net.cpp:148] Top shape: 24 96 28 28 (1806336)
I0403 18:50:37.032289 17821 net.cpp:156] Memory required for data: 736986144
I0403 18:50:37.032307 17821 layer_factory.hpp:77] Creating layer inception_3b/relu_5x5
I0403 18:50:37.032325 17821 net.cpp:91] Creating Layer inception_3b/relu_5x5
I0403 18:50:37.032341 17821 net.cpp:425] inception_3b/relu_5x5 <- inception_3b/5x5
I0403 18:50:37.032361 17821 net.cpp:386] inception_3b/relu_5x5 -> inception_3b/5x5 (in-place)
I0403 18:50:37.032547 17821 net.cpp:141] Setting up inception_3b/relu_5x5
I0403 18:50:37.032572 17821 net.cpp:148] Top shape: 24 96 28 28 (1806336)
I0403 18:50:37.032587 17821 net.cpp:156] Memory required for data: 744211488
I0403 18:50:37.032601 17821 layer_factory.hpp:77] Creating layer inception_3b/pool
I0403 18:50:37.032618 17821 net.cpp:91] Creating Layer inception_3b/pool
I0403 18:50:37.032634 17821 net.cpp:425] inception_3b/pool <- inception_3a/output_inception_3a/output_0_split_3
I0403 18:50:37.032652 17821 net.cpp:399] inception_3b/pool -> inception_3b/pool
I0403 18:50:37.032709 17821 net.cpp:141] Setting up inception_3b/pool
I0403 18:50:37.032732 17821 net.cpp:148] Top shape: 24 256 28 28 (4816896)
I0403 18:50:37.032747 17821 net.cpp:156] Memory required for data: 763479072
I0403 18:50:37.032762 17821 layer_factory.hpp:77] Creating layer inception_3b/pool_proj
I0403 18:50:37.032783 17821 net.cpp:91] Creating Layer inception_3b/pool_proj
I0403 18:50:37.032799 17821 net.cpp:425] inception_3b/pool_proj <- inception_3b/pool
I0403 18:50:37.032822 17821 net.cpp:399] inception_3b/pool_proj -> inception_3b/pool_proj
I0403 18:50:37.033872 17821 net.cpp:141] Setting up inception_3b/pool_proj
I0403 18:50:37.033900 17821 net.cpp:148] Top shape: 24 64 28 28 (1204224)
I0403 18:50:37.033915 17821 net.cpp:156] Memory required for data: 768295968
I0403 18:50:37.033942 17821 layer_factory.hpp:77] Creating layer inception_3b/relu_pool_proj
I0403 18:50:37.033963 17821 net.cpp:91] Creating Layer inception_3b/relu_pool_proj
I0403 18:50:37.033983 17821 net.cpp:425] inception_3b/relu_pool_proj <- inception_3b/pool_proj
I0403 18:50:37.034003 17821 net.cpp:386] inception_3b/relu_pool_proj -> inception_3b/pool_proj (in-place)
I0403 18:50:37.034392 17821 net.cpp:141] Setting up inception_3b/relu_pool_proj
I0403 18:50:37.034420 17821 net.cpp:148] Top shape: 24 64 28 28 (1204224)
I0403 18:50:37.034435 17821 net.cpp:156] Memory required for data: 773112864
I0403 18:50:37.034448 17821 layer_factory.hpp:77] Creating layer inception_3b/output
I0403 18:50:37.034468 17821 net.cpp:91] Creating Layer inception_3b/output
I0403 18:50:37.034484 17821 net.cpp:425] inception_3b/output <- inception_3b/1x1
I0403 18:50:37.034500 17821 net.cpp:425] inception_3b/output <- inception_3b/3x3
I0403 18:50:37.034518 17821 net.cpp:425] inception_3b/output <- inception_3b/5x5
I0403 18:50:37.034533 17821 net.cpp:425] inception_3b/output <- inception_3b/pool_proj
I0403 18:50:37.034549 17821 net.cpp:399] inception_3b/output -> inception_3b/output
I0403 18:50:37.034593 17821 net.cpp:141] Setting up inception_3b/output
I0403 18:50:37.034615 17821 net.cpp:148] Top shape: 24 480 28 28 (9031680)
I0403 18:50:37.034629 17821 net.cpp:156] Memory required for data: 809239584
I0403 18:50:37.034644 17821 layer_factory.hpp:77] Creating layer pool3/3x3_s2
I0403 18:50:37.034662 17821 net.cpp:91] Creating Layer pool3/3x3_s2
I0403 18:50:37.034679 17821 net.cpp:425] pool3/3x3_s2 <- inception_3b/output
I0403 18:50:37.034713 17821 net.cpp:399] pool3/3x3_s2 -> pool3/3x3_s2
I0403 18:50:37.034771 17821 net.cpp:141] Setting up pool3/3x3_s2
I0403 18:50:37.034795 17821 net.cpp:148] Top shape: 24 480 14 14 (2257920)
I0403 18:50:37.034808 17821 net.cpp:156] Memory required for data: 818271264
I0403 18:50:37.034822 17821 layer_factory.hpp:77] Creating layer pool3/3x3_s2_pool3/3x3_s2_0_split
I0403 18:50:37.034839 17821 net.cpp:91] Creating Layer pool3/3x3_s2_pool3/3x3_s2_0_split
I0403 18:50:37.034854 17821 net.cpp:425] pool3/3x3_s2_pool3/3x3_s2_0_split <- pool3/3x3_s2
I0403 18:50:37.034873 17821 net.cpp:399] pool3/3x3_s2_pool3/3x3_s2_0_split -> pool3/3x3_s2_pool3/3x3_s2_0_split_0
I0403 18:50:37.034893 17821 net.cpp:399] pool3/3x3_s2_pool3/3x3_s2_0_split -> pool3/3x3_s2_pool3/3x3_s2_0_split_1
I0403 18:50:37.034912 17821 net.cpp:399] pool3/3x3_s2_pool3/3x3_s2_0_split -> pool3/3x3_s2_pool3/3x3_s2_0_split_2
I0403 18:50:37.034931 17821 net.cpp:399] pool3/3x3_s2_pool3/3x3_s2_0_split -> pool3/3x3_s2_pool3/3x3_s2_0_split_3
I0403 18:50:37.035012 17821 net.cpp:141] Setting up pool3/3x3_s2_pool3/3x3_s2_0_split
I0403 18:50:37.035035 17821 net.cpp:148] Top shape: 24 480 14 14 (2257920)
I0403 18:50:37.035051 17821 net.cpp:148] Top shape: 24 480 14 14 (2257920)
I0403 18:50:37.035066 17821 net.cpp:148] Top shape: 24 480 14 14 (2257920)
I0403 18:50:37.035081 17821 net.cpp:148] Top shape: 24 480 14 14 (2257920)
I0403 18:50:37.035095 17821 net.cpp:156] Memory required for data: 854397984
I0403 18:50:37.035109 17821 layer_factory.hpp:77] Creating layer inception_4a/1x1
I0403 18:50:37.035132 17821 net.cpp:91] Creating Layer inception_4a/1x1
I0403 18:50:37.035150 17821 net.cpp:425] inception_4a/1x1 <- pool3/3x3_s2_pool3/3x3_s2_0_split_0
I0403 18:50:37.035168 17821 net.cpp:399] inception_4a/1x1 -> inception_4a/1x1
I0403 18:50:37.036720 17821 net.cpp:141] Setting up inception_4a/1x1
I0403 18:50:37.036748 17821 net.cpp:148] Top shape: 24 192 14 14 (903168)
I0403 18:50:37.036766 17821 net.cpp:156] Memory required for data: 858010656
I0403 18:50:37.036784 17821 layer_factory.hpp:77] Creating layer inception_4a/relu_1x1
I0403 18:50:37.036801 17821 net.cpp:91] Creating Layer inception_4a/relu_1x1
I0403 18:50:37.036818 17821 net.cpp:425] inception_4a/relu_1x1 <- inception_4a/1x1
I0403 18:50:37.036836 17821 net.cpp:386] inception_4a/relu_1x1 -> inception_4a/1x1 (in-place)
I0403 18:50:37.037016 17821 net.cpp:141] Setting up inception_4a/relu_1x1
I0403 18:50:37.037040 17821 net.cpp:148] Top shape: 24 192 14 14 (903168)
I0403 18:50:37.037055 17821 net.cpp:156] Memory required for data: 861623328
I0403 18:50:37.037070 17821 layer_factory.hpp:77] Creating layer inception_4a/3x3_reduce
I0403 18:50:37.037092 17821 net.cpp:91] Creating Layer inception_4a/3x3_reduce
I0403 18:50:37.037109 17821 net.cpp:425] inception_4a/3x3_reduce <- pool3/3x3_s2_pool3/3x3_s2_0_split_1
I0403 18:50:37.037130 17821 net.cpp:399] inception_4a/3x3_reduce -> inception_4a/3x3_reduce
I0403 18:50:37.038417 17821 net.cpp:141] Setting up inception_4a/3x3_reduce
I0403 18:50:37.038449 17821 net.cpp:148] Top shape: 24 96 14 14 (451584)
I0403 18:50:37.038465 17821 net.cpp:156] Memory required for data: 863429664
I0403 18:50:37.038488 17821 layer_factory.hpp:77] Creating layer inception_4a/relu_3x3_reduce
I0403 18:50:37.038509 17821 net.cpp:91] Creating Layer inception_4a/relu_3x3_reduce
I0403 18:50:37.038527 17821 net.cpp:425] inception_4a/relu_3x3_reduce <- inception_4a/3x3_reduce
I0403 18:50:37.038544 17821 net.cpp:386] inception_4a/relu_3x3_reduce -> inception_4a/3x3_reduce (in-place)
I0403 18:50:37.038739 17821 net.cpp:141] Setting up inception_4a/relu_3x3_reduce
I0403 18:50:37.038765 17821 net.cpp:148] Top shape: 24 96 14 14 (451584)
I0403 18:50:37.038780 17821 net.cpp:156] Memory required for data: 865236000
I0403 18:50:37.038796 17821 layer_factory.hpp:77] Creating layer inception_4a/3x3
I0403 18:50:37.038820 17821 net.cpp:91] Creating Layer inception_4a/3x3
I0403 18:50:37.038837 17821 net.cpp:425] inception_4a/3x3 <- inception_4a/3x3_reduce
I0403 18:50:37.038861 17821 net.cpp:399] inception_4a/3x3 -> inception_4a/3x3
I0403 18:50:37.041633 17821 net.cpp:141] Setting up inception_4a/3x3
I0403 18:50:37.041676 17821 net.cpp:148] Top shape: 24 208 14 14 (978432)
I0403 18:50:37.041692 17821 net.cpp:156] Memory required for data: 869149728
I0403 18:50:37.041709 17821 layer_factory.hpp:77] Creating layer inception_4a/relu_3x3
I0403 18:50:37.041728 17821 net.cpp:91] Creating Layer inception_4a/relu_3x3
I0403 18:50:37.041776 17821 net.cpp:425] inception_4a/relu_3x3 <- inception_4a/3x3
I0403 18:50:37.041795 17821 net.cpp:386] inception_4a/relu_3x3 -> inception_4a/3x3 (in-place)
I0403 18:50:37.042101 17821 net.cpp:141] Setting up inception_4a/relu_3x3
I0403 18:50:37.042129 17821 net.cpp:148] Top shape: 24 208 14 14 (978432)
I0403 18:50:37.042143 17821 net.cpp:156] Memory required for data: 873063456
I0403 18:50:37.042158 17821 layer_factory.hpp:77] Creating layer inception_4a/5x5_reduce
I0403 18:50:37.042182 17821 net.cpp:91] Creating Layer inception_4a/5x5_reduce
I0403 18:50:37.042203 17821 net.cpp:425] inception_4a/5x5_reduce <- pool3/3x3_s2_pool3/3x3_s2_0_split_2
I0403 18:50:37.042225 17821 net.cpp:399] inception_4a/5x5_reduce -> inception_4a/5x5_reduce
I0403 18:50:37.043274 17821 net.cpp:141] Setting up inception_4a/5x5_reduce
I0403 18:50:37.043303 17821 net.cpp:148] Top shape: 24 16 14 14 (75264)
I0403 18:50:37.043318 17821 net.cpp:156] Memory required for data: 873364512
I0403 18:50:37.043337 17821 layer_factory.hpp:77] Creating layer inception_4a/relu_5x5_reduce
I0403 18:50:37.043359 17821 net.cpp:91] Creating Layer inception_4a/relu_5x5_reduce
I0403 18:50:37.043376 17821 net.cpp:425] inception_4a/relu_5x5_reduce <- inception_4a/5x5_reduce
I0403 18:50:37.043395 17821 net.cpp:386] inception_4a/relu_5x5_reduce -> inception_4a/5x5_reduce (in-place)
I0403 18:50:37.043573 17821 net.cpp:141] Setting up inception_4a/relu_5x5_reduce
I0403 18:50:37.043598 17821 net.cpp:148] Top shape: 24 16 14 14 (75264)
I0403 18:50:37.043613 17821 net.cpp:156] Memory required for data: 873665568
I0403 18:50:37.043628 17821 layer_factory.hpp:77] Creating layer inception_4a/5x5
I0403 18:50:37.043653 17821 net.cpp:91] Creating Layer inception_4a/5x5
I0403 18:50:37.043670 17821 net.cpp:425] inception_4a/5x5 <- inception_4a/5x5_reduce
I0403 18:50:37.043689 17821 net.cpp:399] inception_4a/5x5 -> inception_4a/5x5
I0403 18:50:37.044785 17821 net.cpp:141] Setting up inception_4a/5x5
I0403 18:50:37.044813 17821 net.cpp:148] Top shape: 24 48 14 14 (225792)
I0403 18:50:37.044832 17821 net.cpp:156] Memory required for data: 874568736
I0403 18:50:37.044852 17821 layer_factory.hpp:77] Creating layer inception_4a/relu_5x5
I0403 18:50:37.044870 17821 net.cpp:91] Creating Layer inception_4a/relu_5x5
I0403 18:50:37.044886 17821 net.cpp:425] inception_4a/relu_5x5 <- inception_4a/5x5
I0403 18:50:37.044903 17821 net.cpp:386] inception_4a/relu_5x5 -> inception_4a/5x5 (in-place)
I0403 18:50:37.045090 17821 net.cpp:141] Setting up inception_4a/relu_5x5
I0403 18:50:37.045117 17821 net.cpp:148] Top shape: 24 48 14 14 (225792)
I0403 18:50:37.045133 17821 net.cpp:156] Memory required for data: 875471904
I0403 18:50:37.045148 17821 layer_factory.hpp:77] Creating layer inception_4a/pool
I0403 18:50:37.045166 17821 net.cpp:91] Creating Layer inception_4a/pool
I0403 18:50:37.045182 17821 net.cpp:425] inception_4a/pool <- pool3/3x3_s2_pool3/3x3_s2_0_split_3
I0403 18:50:37.045202 17821 net.cpp:399] inception_4a/pool -> inception_4a/pool
I0403 18:50:37.045265 17821 net.cpp:141] Setting up inception_4a/pool
I0403 18:50:37.045291 17821 net.cpp:148] Top shape: 24 480 14 14 (2257920)
I0403 18:50:37.045306 17821 net.cpp:156] Memory required for data: 884503584
I0403 18:50:37.045321 17821 layer_factory.hpp:77] Creating layer inception_4a/pool_proj
I0403 18:50:37.045341 17821 net.cpp:91] Creating Layer inception_4a/pool_proj
I0403 18:50:37.045357 17821 net.cpp:425] inception_4a/pool_proj <- inception_4a/pool
I0403 18:50:37.045378 17821 net.cpp:399] inception_4a/pool_proj -> inception_4a/pool_proj
I0403 18:50:37.046569 17821 net.cpp:141] Setting up inception_4a/pool_proj
I0403 18:50:37.046602 17821 net.cpp:148] Top shape: 24 64 14 14 (301056)
I0403 18:50:37.046633 17821 net.cpp:156] Memory required for data: 885707808
I0403 18:50:37.046651 17821 layer_factory.hpp:77] Creating layer inception_4a/relu_pool_proj
I0403 18:50:37.046670 17821 net.cpp:91] Creating Layer inception_4a/relu_pool_proj
I0403 18:50:37.046686 17821 net.cpp:425] inception_4a/relu_pool_proj <- inception_4a/pool_proj
I0403 18:50:37.046705 17821 net.cpp:386] inception_4a/relu_pool_proj -> inception_4a/pool_proj (in-place)
I0403 18:50:37.046999 17821 net.cpp:141] Setting up inception_4a/relu_pool_proj
I0403 18:50:37.047029 17821 net.cpp:148] Top shape: 24 64 14 14 (301056)
I0403 18:50:37.047044 17821 net.cpp:156] Memory required for data: 886912032
I0403 18:50:37.047060 17821 layer_factory.hpp:77] Creating layer inception_4a/output
I0403 18:50:37.047077 17821 net.cpp:91] Creating Layer inception_4a/output
I0403 18:50:37.047092 17821 net.cpp:425] inception_4a/output <- inception_4a/1x1
I0403 18:50:37.047109 17821 net.cpp:425] inception_4a/output <- inception_4a/3x3
I0403 18:50:37.047127 17821 net.cpp:425] inception_4a/output <- inception_4a/5x5
I0403 18:50:37.047142 17821 net.cpp:425] inception_4a/output <- inception_4a/pool_proj
I0403 18:50:37.047158 17821 net.cpp:399] inception_4a/output -> inception_4a/output
I0403 18:50:37.047205 17821 net.cpp:141] Setting up inception_4a/output
I0403 18:50:37.047230 17821 net.cpp:148] Top shape: 24 512 14 14 (2408448)
I0403 18:50:37.047245 17821 net.cpp:156] Memory required for data: 896545824
I0403 18:50:37.047260 17821 layer_factory.hpp:77] Creating layer inception_4a/output_inception_4a/output_0_split
I0403 18:50:37.047281 17821 net.cpp:91] Creating Layer inception_4a/output_inception_4a/output_0_split
I0403 18:50:37.047298 17821 net.cpp:425] inception_4a/output_inception_4a/output_0_split <- inception_4a/output
I0403 18:50:37.047317 17821 net.cpp:399] inception_4a/output_inception_4a/output_0_split -> inception_4a/output_inception_4a/output_0_split_0
I0403 18:50:37.047338 17821 net.cpp:399] inception_4a/output_inception_4a/output_0_split -> inception_4a/output_inception_4a/output_0_split_1
I0403 18:50:37.047358 17821 net.cpp:399] inception_4a/output_inception_4a/output_0_split -> inception_4a/output_inception_4a/output_0_split_2
I0403 18:50:37.047381 17821 net.cpp:399] inception_4a/output_inception_4a/output_0_split -> inception_4a/output_inception_4a/output_0_split_3
I0403 18:50:37.047404 17821 net.cpp:399] inception_4a/output_inception_4a/output_0_split -> inception_4a/output_inception_4a/output_0_split_4
I0403 18:50:37.047498 17821 net.cpp:141] Setting up inception_4a/output_inception_4a/output_0_split
I0403 18:50:37.047521 17821 net.cpp:148] Top shape: 24 512 14 14 (2408448)
I0403 18:50:37.047538 17821 net.cpp:148] Top shape: 24 512 14 14 (2408448)
I0403 18:50:37.047554 17821 net.cpp:148] Top shape: 24 512 14 14 (2408448)
I0403 18:50:37.047570 17821 net.cpp:148] Top shape: 24 512 14 14 (2408448)
I0403 18:50:37.047586 17821 net.cpp:148] Top shape: 24 512 14 14 (2408448)
I0403 18:50:37.047600 17821 net.cpp:156] Memory required for data: 944714784
I0403 18:50:37.047616 17821 layer_factory.hpp:77] Creating layer loss1/ave_pool
I0403 18:50:37.047636 17821 net.cpp:91] Creating Layer loss1/ave_pool
I0403 18:50:37.047652 17821 net.cpp:425] loss1/ave_pool <- inception_4a/output_inception_4a/output_0_split_0
I0403 18:50:37.047672 17821 net.cpp:399] loss1/ave_pool -> loss1/ave_pool
I0403 18:50:37.047880 17821 net.cpp:141] Setting up loss1/ave_pool
I0403 18:50:37.047909 17821 net.cpp:148] Top shape: 24 512 4 4 (196608)
I0403 18:50:37.047935 17821 net.cpp:156] Memory required for data: 945501216
I0403 18:50:37.047952 17821 layer_factory.hpp:77] Creating layer loss1/conv
I0403 18:50:37.047974 17821 net.cpp:91] Creating Layer loss1/conv
I0403 18:50:37.048005 17821 net.cpp:425] loss1/conv <- loss1/ave_pool
I0403 18:50:37.048027 17821 net.cpp:399] loss1/conv -> loss1/conv
I0403 18:50:37.049458 17821 net.cpp:141] Setting up loss1/conv
I0403 18:50:37.049487 17821 net.cpp:148] Top shape: 24 128 4 4 (49152)
I0403 18:50:37.049518 17821 net.cpp:156] Memory required for data: 945697824
I0403 18:50:37.049538 17821 layer_factory.hpp:77] Creating layer loss1/relu_conv
I0403 18:50:37.049559 17821 net.cpp:91] Creating Layer loss1/relu_conv
I0403 18:50:37.049577 17821 net.cpp:425] loss1/relu_conv <- loss1/conv
I0403 18:50:37.049595 17821 net.cpp:386] loss1/relu_conv -> loss1/conv (in-place)
I0403 18:50:37.049878 17821 net.cpp:141] Setting up loss1/relu_conv
I0403 18:50:37.049906 17821 net.cpp:148] Top shape: 24 128 4 4 (49152)
I0403 18:50:37.049921 17821 net.cpp:156] Memory required for data: 945894432
I0403 18:50:37.049937 17821 layer_factory.hpp:77] Creating layer loss1/fc
I0403 18:50:37.049962 17821 net.cpp:91] Creating Layer loss1/fc
I0403 18:50:37.049986 17821 net.cpp:425] loss1/fc <- loss1/conv
I0403 18:50:37.050007 17821 net.cpp:399] loss1/fc -> loss1/fc
I0403 18:50:37.067755 17821 net.cpp:141] Setting up loss1/fc
I0403 18:50:37.067790 17821 net.cpp:148] Top shape: 24 1024 (24576)
I0403 18:50:37.067805 17821 net.cpp:156] Memory required for data: 945992736
I0403 18:50:37.067823 17821 layer_factory.hpp:77] Creating layer loss1/relu_fc
I0403 18:50:37.067844 17821 net.cpp:91] Creating Layer loss1/relu_fc
I0403 18:50:37.067862 17821 net.cpp:425] loss1/relu_fc <- loss1/fc
I0403 18:50:37.067879 17821 net.cpp:386] loss1/relu_fc -> loss1/fc (in-place)
I0403 18:50:37.068069 17821 net.cpp:141] Setting up loss1/relu_fc
I0403 18:50:37.068094 17821 net.cpp:148] Top shape: 24 1024 (24576)
I0403 18:50:37.068109 17821 net.cpp:156] Memory required for data: 946091040
I0403 18:50:37.068123 17821 layer_factory.hpp:77] Creating layer loss1/drop_fc
I0403 18:50:37.068148 17821 net.cpp:91] Creating Layer loss1/drop_fc
I0403 18:50:37.068166 17821 net.cpp:425] loss1/drop_fc <- loss1/fc
I0403 18:50:37.068186 17821 net.cpp:386] loss1/drop_fc -> loss1/fc (in-place)
I0403 18:50:37.068238 17821 net.cpp:141] Setting up loss1/drop_fc
I0403 18:50:37.068261 17821 net.cpp:148] Top shape: 24 1024 (24576)
I0403 18:50:37.068275 17821 net.cpp:156] Memory required for data: 946189344
I0403 18:50:37.068290 17821 layer_factory.hpp:77] Creating layer loss1/classifier_plantvillage
I0403 18:50:37.068311 17821 net.cpp:91] Creating Layer loss1/classifier_plantvillage
I0403 18:50:37.068328 17821 net.cpp:425] loss1/classifier_plantvillage <- loss1/fc
I0403 18:50:37.068348 17821 net.cpp:399] loss1/classifier_plantvillage -> loss1/classifier_plantvillage
I0403 18:50:37.069250 17821 net.cpp:141] Setting up loss1/classifier_plantvillage
I0403 18:50:37.069279 17821 net.cpp:148] Top shape: 24 38 (912)
I0403 18:50:37.069296 17821 net.cpp:156] Memory required for data: 946192992
I0403 18:50:37.069314 17821 layer_factory.hpp:77] Creating layer loss1/classifier_plantvillage_loss1/classifier_plantvillage_0_split
I0403 18:50:37.069331 17821 net.cpp:91] Creating Layer loss1/classifier_plantvillage_loss1/classifier_plantvillage_0_split
I0403 18:50:37.069347 17821 net.cpp:425] loss1/classifier_plantvillage_loss1/classifier_plantvillage_0_split <- loss1/classifier_plantvillage
I0403 18:50:37.069366 17821 net.cpp:399] loss1/classifier_plantvillage_loss1/classifier_plantvillage_0_split -> loss1/classifier_plantvillage_loss1/classifier_plantvillage_0_split_0
I0403 18:50:37.069387 17821 net.cpp:399] loss1/classifier_plantvillage_loss1/classifier_plantvillage_0_split -> loss1/classifier_plantvillage_loss1/classifier_plantvillage_0_split_1
I0403 18:50:37.069407 17821 net.cpp:399] loss1/classifier_plantvillage_loss1/classifier_plantvillage_0_split -> loss1/classifier_plantvillage_loss1/classifier_plantvillage_0_split_2
I0403 18:50:37.069473 17821 net.cpp:141] Setting up loss1/classifier_plantvillage_loss1/classifier_plantvillage_0_split
I0403 18:50:37.069495 17821 net.cpp:148] Top shape: 24 38 (912)
I0403 18:50:37.069511 17821 net.cpp:148] Top shape: 24 38 (912)
I0403 18:50:37.069526 17821 net.cpp:148] Top shape: 24 38 (912)
I0403 18:50:37.069540 17821 net.cpp:156] Memory required for data: 946203936
I0403 18:50:37.069555 17821 layer_factory.hpp:77] Creating layer inception_4b/1x1
I0403 18:50:37.069576 17821 net.cpp:91] Creating Layer inception_4b/1x1
I0403 18:50:37.069609 17821 net.cpp:425] inception_4b/1x1 <- inception_4a/output_inception_4a/output_0_split_1
I0403 18:50:37.069629 17821 net.cpp:399] inception_4b/1x1 -> inception_4b/1x1
I0403 18:50:37.071264 17821 net.cpp:141] Setting up inception_4b/1x1
I0403 18:50:37.071293 17821 net.cpp:148] Top shape: 24 160 14 14 (752640)
I0403 18:50:37.071308 17821 net.cpp:156] Memory required for data: 949214496
I0403 18:50:37.071326 17821 layer_factory.hpp:77] Creating layer inception_4b/relu_1x1
I0403 18:50:37.071346 17821 net.cpp:91] Creating Layer inception_4b/relu_1x1
I0403 18:50:37.071363 17821 net.cpp:425] inception_4b/relu_1x1 <- inception_4b/1x1
I0403 18:50:37.071380 17821 net.cpp:386] inception_4b/relu_1x1 -> inception_4b/1x1 (in-place)
I0403 18:50:37.071562 17821 net.cpp:141] Setting up inception_4b/relu_1x1
I0403 18:50:37.071586 17821 net.cpp:148] Top shape: 24 160 14 14 (752640)
I0403 18:50:37.071601 17821 net.cpp:156] Memory required for data: 952225056
I0403 18:50:37.071616 17821 layer_factory.hpp:77] Creating layer inception_4b/3x3_reduce
I0403 18:50:37.071637 17821 net.cpp:91] Creating Layer inception_4b/3x3_reduce
I0403 18:50:37.071656 17821 net.cpp:425] inception_4b/3x3_reduce <- inception_4a/output_inception_4a/output_0_split_2
I0403 18:50:37.071674 17821 net.cpp:399] inception_4b/3x3_reduce -> inception_4b/3x3_reduce
I0403 18:50:37.073021 17821 net.cpp:141] Setting up inception_4b/3x3_reduce
I0403 18:50:37.073050 17821 net.cpp:148] Top shape: 24 112 14 14 (526848)
I0403 18:50:37.073065 17821 net.cpp:156] Memory required for data: 954332448
I0403 18:50:37.073083 17821 layer_factory.hpp:77] Creating layer inception_4b/relu_3x3_reduce
I0403 18:50:37.073103 17821 net.cpp:91] Creating Layer inception_4b/relu_3x3_reduce
I0403 18:50:37.073120 17821 net.cpp:425] inception_4b/relu_3x3_reduce <- inception_4b/3x3_reduce
I0403 18:50:37.073137 17821 net.cpp:386] inception_4b/relu_3x3_reduce -> inception_4b/3x3_reduce (in-place)
I0403 18:50:37.073416 17821 net.cpp:141] Setting up inception_4b/relu_3x3_reduce
I0403 18:50:37.073442 17821 net.cpp:148] Top shape: 24 112 14 14 (526848)
I0403 18:50:37.073457 17821 net.cpp:156] Memory required for data: 956439840
I0403 18:50:37.073472 17821 layer_factory.hpp:77] Creating layer inception_4b/3x3
I0403 18:50:37.073494 17821 net.cpp:91] Creating Layer inception_4b/3x3
I0403 18:50:37.073513 17821 net.cpp:425] inception_4b/3x3 <- inception_4b/3x3_reduce
I0403 18:50:37.073534 17821 net.cpp:399] inception_4b/3x3 -> inception_4b/3x3
I0403 18:50:37.076490 17821 net.cpp:141] Setting up inception_4b/3x3
I0403 18:50:37.076524 17821 net.cpp:148] Top shape: 24 224 14 14 (1053696)
I0403 18:50:37.076540 17821 net.cpp:156] Memory required for data: 960654624
I0403 18:50:37.076560 17821 layer_factory.hpp:77] Creating layer inception_4b/relu_3x3
I0403 18:50:37.076577 17821 net.cpp:91] Creating Layer inception_4b/relu_3x3
I0403 18:50:37.076592 17821 net.cpp:425] inception_4b/relu_3x3 <- inception_4b/3x3
I0403 18:50:37.076614 17821 net.cpp:386] inception_4b/relu_3x3 -> inception_4b/3x3 (in-place)
I0403 18:50:37.076794 17821 net.cpp:141] Setting up inception_4b/relu_3x3
I0403 18:50:37.076819 17821 net.cpp:148] Top shape: 24 224 14 14 (1053696)
I0403 18:50:37.076833 17821 net.cpp:156] Memory required for data: 964869408
I0403 18:50:37.076848 17821 layer_factory.hpp:77] Creating layer inception_4b/5x5_reduce
I0403 18:50:37.076869 17821 net.cpp:91] Creating Layer inception_4b/5x5_reduce
I0403 18:50:37.076886 17821 net.cpp:425] inception_4b/5x5_reduce <- inception_4a/output_inception_4a/output_0_split_3
I0403 18:50:37.076908 17821 net.cpp:399] inception_4b/5x5_reduce -> inception_4b/5x5_reduce
I0403 18:50:37.077999 17821 net.cpp:141] Setting up inception_4b/5x5_reduce
I0403 18:50:37.078027 17821 net.cpp:148] Top shape: 24 24 14 14 (112896)
I0403 18:50:37.078042 17821 net.cpp:156] Memory required for data: 965320992
I0403 18:50:37.078060 17821 layer_factory.hpp:77] Creating layer inception_4b/relu_5x5_reduce
I0403 18:50:37.078081 17821 net.cpp:91] Creating Layer inception_4b/relu_5x5_reduce
I0403 18:50:37.078111 17821 net.cpp:425] inception_4b/relu_5x5_reduce <- inception_4b/5x5_reduce
I0403 18:50:37.078130 17821 net.cpp:386] inception_4b/relu_5x5_reduce -> inception_4b/5x5_reduce (in-place)
I0403 18:50:37.078311 17821 net.cpp:141] Setting up inception_4b/relu_5x5_reduce
I0403 18:50:37.078338 17821 net.cpp:148] Top shape: 24 24 14 14 (112896)
I0403 18:50:37.078353 17821 net.cpp:156] Memory required for data: 965772576
I0403 18:50:37.078368 17821 layer_factory.hpp:77] Creating layer inception_4b/5x5
I0403 18:50:37.078390 17821 net.cpp:91] Creating Layer inception_4b/5x5
I0403 18:50:37.078408 17821 net.cpp:425] inception_4b/5x5 <- inception_4b/5x5_reduce
I0403 18:50:37.078426 17821 net.cpp:399] inception_4b/5x5 -> inception_4b/5x5
I0403 18:50:37.079659 17821 net.cpp:141] Setting up inception_4b/5x5
I0403 18:50:37.079687 17821 net.cpp:148] Top shape: 24 64 14 14 (301056)
I0403 18:50:37.079704 17821 net.cpp:156] Memory required for data: 966976800
I0403 18:50:37.079721 17821 layer_factory.hpp:77] Creating layer inception_4b/relu_5x5
I0403 18:50:37.079741 17821 net.cpp:91] Creating Layer inception_4b/relu_5x5
I0403 18:50:37.079758 17821 net.cpp:425] inception_4b/relu_5x5 <- inception_4b/5x5
I0403 18:50:37.079777 17821 net.cpp:386] inception_4b/relu_5x5 -> inception_4b/5x5 (in-place)
I0403 18:50:37.080066 17821 net.cpp:141] Setting up inception_4b/relu_5x5
I0403 18:50:37.080092 17821 net.cpp:148] Top shape: 24 64 14 14 (301056)
I0403 18:50:37.080106 17821 net.cpp:156] Memory required for data: 968181024
I0403 18:50:37.080121 17821 layer_factory.hpp:77] Creating layer inception_4b/pool
I0403 18:50:37.080139 17821 net.cpp:91] Creating Layer inception_4b/pool
I0403 18:50:37.080158 17821 net.cpp:425] inception_4b/pool <- inception_4a/output_inception_4a/output_0_split_4
I0403 18:50:37.080175 17821 net.cpp:399] inception_4b/pool -> inception_4b/pool
I0403 18:50:37.080240 17821 net.cpp:141] Setting up inception_4b/pool
I0403 18:50:37.080263 17821 net.cpp:148] Top shape: 24 512 14 14 (2408448)
I0403 18:50:37.080277 17821 net.cpp:156] Memory required for data: 977814816
I0403 18:50:37.080292 17821 layer_factory.hpp:77] Creating layer inception_4b/pool_proj
I0403 18:50:37.080314 17821 net.cpp:91] Creating Layer inception_4b/pool_proj
I0403 18:50:37.080332 17821 net.cpp:425] inception_4b/pool_proj <- inception_4b/pool
I0403 18:50:37.080351 17821 net.cpp:399] inception_4b/pool_proj -> inception_4b/pool_proj
I0403 18:50:37.081562 17821 net.cpp:141] Setting up inception_4b/pool_proj
I0403 18:50:37.081588 17821 net.cpp:148] Top shape: 24 64 14 14 (301056)
I0403 18:50:37.081604 17821 net.cpp:156] Memory required for data: 979019040
I0403 18:50:37.081622 17821 layer_factory.hpp:77] Creating layer inception_4b/relu_pool_proj
I0403 18:50:37.081645 17821 net.cpp:91] Creating Layer inception_4b/relu_pool_proj
I0403 18:50:37.081661 17821 net.cpp:425] inception_4b/relu_pool_proj <- inception_4b/pool_proj
I0403 18:50:37.081678 17821 net.cpp:386] inception_4b/relu_pool_proj -> inception_4b/pool_proj (in-place)
I0403 18:50:37.081858 17821 net.cpp:141] Setting up inception_4b/relu_pool_proj
I0403 18:50:37.081882 17821 net.cpp:148] Top shape: 24 64 14 14 (301056)
I0403 18:50:37.081897 17821 net.cpp:156] Memory required for data: 980223264
I0403 18:50:37.081912 17821 layer_factory.hpp:77] Creating layer inception_4b/output
I0403 18:50:37.081933 17821 net.cpp:91] Creating Layer inception_4b/output
I0403 18:50:37.081948 17821 net.cpp:425] inception_4b/output <- inception_4b/1x1
I0403 18:50:37.081964 17821 net.cpp:425] inception_4b/output <- inception_4b/3x3
I0403 18:50:37.081984 17821 net.cpp:425] inception_4b/output <- inception_4b/5x5
I0403 18:50:37.082001 17821 net.cpp:425] inception_4b/output <- inception_4b/pool_proj
I0403 18:50:37.082018 17821 net.cpp:399] inception_4b/output -> inception_4b/output
I0403 18:50:37.082078 17821 net.cpp:141] Setting up inception_4b/output
I0403 18:50:37.082103 17821 net.cpp:148] Top shape: 24 512 14 14 (2408448)
I0403 18:50:37.082116 17821 net.cpp:156] Memory required for data: 989857056
I0403 18:50:37.082145 17821 layer_factory.hpp:77] Creating layer inception_4b/output_inception_4b/output_0_split
I0403 18:50:37.082165 17821 net.cpp:91] Creating Layer inception_4b/output_inception_4b/output_0_split
I0403 18:50:37.082180 17821 net.cpp:425] inception_4b/output_inception_4b/output_0_split <- inception_4b/output
I0403 18:50:37.082201 17821 net.cpp:399] inception_4b/output_inception_4b/output_0_split -> inception_4b/output_inception_4b/output_0_split_0
I0403 18:50:37.082221 17821 net.cpp:399] inception_4b/output_inception_4b/output_0_split -> inception_4b/output_inception_4b/output_0_split_1
I0403 18:50:37.082242 17821 net.cpp:399] inception_4b/output_inception_4b/output_0_split -> inception_4b/output_inception_4b/output_0_split_2
I0403 18:50:37.082263 17821 net.cpp:399] inception_4b/output_inception_4b/output_0_split -> inception_4b/output_inception_4b/output_0_split_3
I0403 18:50:37.082353 17821 net.cpp:141] Setting up inception_4b/output_inception_4b/output_0_split
I0403 18:50:37.082388 17821 net.cpp:148] Top shape: 24 512 14 14 (2408448)
I0403 18:50:37.082404 17821 net.cpp:148] Top shape: 24 512 14 14 (2408448)
I0403 18:50:37.082419 17821 net.cpp:148] Top shape: 24 512 14 14 (2408448)
I0403 18:50:37.082435 17821 net.cpp:148] Top shape: 24 512 14 14 (2408448)
I0403 18:50:37.082448 17821 net.cpp:156] Memory required for data: 1028392224
I0403 18:50:37.082463 17821 layer_factory.hpp:77] Creating layer inception_4c/1x1
I0403 18:50:37.082484 17821 net.cpp:91] Creating Layer inception_4c/1x1
I0403 18:50:37.082502 17821 net.cpp:425] inception_4c/1x1 <- inception_4b/output_inception_4b/output_0_split_0
I0403 18:50:37.082522 17821 net.cpp:399] inception_4c/1x1 -> inception_4c/1x1
I0403 18:50:37.083952 17821 net.cpp:141] Setting up inception_4c/1x1
I0403 18:50:37.083986 17821 net.cpp:148] Top shape: 24 128 14 14 (602112)
I0403 18:50:37.084003 17821 net.cpp:156] Memory required for data: 1030800672
I0403 18:50:37.084022 17821 layer_factory.hpp:77] Creating layer inception_4c/relu_1x1
I0403 18:50:37.084040 17821 net.cpp:91] Creating Layer inception_4c/relu_1x1
I0403 18:50:37.084055 17821 net.cpp:425] inception_4c/relu_1x1 <- inception_4c/1x1
I0403 18:50:37.084074 17821 net.cpp:386] inception_4c/relu_1x1 -> inception_4c/1x1 (in-place)
I0403 18:50:37.084254 17821 net.cpp:141] Setting up inception_4c/relu_1x1
I0403 18:50:37.084277 17821 net.cpp:148] Top shape: 24 128 14 14 (602112)
I0403 18:50:37.084292 17821 net.cpp:156] Memory required for data: 1033209120
I0403 18:50:37.084307 17821 layer_factory.hpp:77] Creating layer inception_4c/3x3_reduce
I0403 18:50:37.084328 17821 net.cpp:91] Creating Layer inception_4c/3x3_reduce
I0403 18:50:37.084347 17821 net.cpp:425] inception_4c/3x3_reduce <- inception_4b/output_inception_4b/output_0_split_1
I0403 18:50:37.084367 17821 net.cpp:399] inception_4c/3x3_reduce -> inception_4c/3x3_reduce
I0403 18:50:37.086298 17821 net.cpp:141] Setting up inception_4c/3x3_reduce
I0403 18:50:37.086328 17821 net.cpp:148] Top shape: 24 128 14 14 (602112)
I0403 18:50:37.086344 17821 net.cpp:156] Memory required for data: 1035617568
I0403 18:50:37.086361 17821 layer_factory.hpp:77] Creating layer inception_4c/relu_3x3_reduce
I0403 18:50:37.086380 17821 net.cpp:91] Creating Layer inception_4c/relu_3x3_reduce
I0403 18:50:37.086395 17821 net.cpp:425] inception_4c/relu_3x3_reduce <- inception_4c/3x3_reduce
I0403 18:50:37.086415 17821 net.cpp:386] inception_4c/relu_3x3_reduce -> inception_4c/3x3_reduce (in-place)
I0403 18:50:37.086707 17821 net.cpp:141] Setting up inception_4c/relu_3x3_reduce
I0403 18:50:37.086733 17821 net.cpp:148] Top shape: 24 128 14 14 (602112)
I0403 18:50:37.086748 17821 net.cpp:156] Memory required for data: 1038026016
I0403 18:50:37.086763 17821 layer_factory.hpp:77] Creating layer inception_4c/3x3
I0403 18:50:37.086786 17821 net.cpp:91] Creating Layer inception_4c/3x3
I0403 18:50:37.086803 17821 net.cpp:425] inception_4c/3x3 <- inception_4c/3x3_reduce
I0403 18:50:37.086825 17821 net.cpp:399] inception_4c/3x3 -> inception_4c/3x3
I0403 18:50:37.090584 17821 net.cpp:141] Setting up inception_4c/3x3
I0403 18:50:37.090626 17821 net.cpp:148] Top shape: 24 256 14 14 (1204224)
I0403 18:50:37.090643 17821 net.cpp:156] Memory required for data: 1042842912
I0403 18:50:37.090677 17821 layer_factory.hpp:77] Creating layer inception_4c/relu_3x3
I0403 18:50:37.090699 17821 net.cpp:91] Creating Layer inception_4c/relu_3x3
I0403 18:50:37.090716 17821 net.cpp:425] inception_4c/relu_3x3 <- inception_4c/3x3
I0403 18:50:37.090735 17821 net.cpp:386] inception_4c/relu_3x3 -> inception_4c/3x3 (in-place)
I0403 18:50:37.090925 17821 net.cpp:141] Setting up inception_4c/relu_3x3
I0403 18:50:37.090951 17821 net.cpp:148] Top shape: 24 256 14 14 (1204224)
I0403 18:50:37.090966 17821 net.cpp:156] Memory required for data: 1047659808
I0403 18:50:37.090986 17821 layer_factory.hpp:77] Creating layer inception_4c/5x5_reduce
I0403 18:50:37.091011 17821 net.cpp:91] Creating Layer inception_4c/5x5_reduce
I0403 18:50:37.091028 17821 net.cpp:425] inception_4c/5x5_reduce <- inception_4b/output_inception_4b/output_0_split_2
I0403 18:50:37.091051 17821 net.cpp:399] inception_4c/5x5_reduce -> inception_4c/5x5_reduce
I0403 18:50:37.092217 17821 net.cpp:141] Setting up inception_4c/5x5_reduce
I0403 18:50:37.092247 17821 net.cpp:148] Top shape: 24 24 14 14 (112896)
I0403 18:50:37.092263 17821 net.cpp:156] Memory required for data: 1048111392
I0403 18:50:37.092283 17821 layer_factory.hpp:77] Creating layer inception_4c/relu_5x5_reduce
I0403 18:50:37.092304 17821 net.cpp:91] Creating Layer inception_4c/relu_5x5_reduce
I0403 18:50:37.092322 17821 net.cpp:425] inception_4c/relu_5x5_reduce <- inception_4c/5x5_reduce
I0403 18:50:37.092341 17821 net.cpp:386] inception_4c/relu_5x5_reduce -> inception_4c/5x5_reduce (in-place)
I0403 18:50:37.092545 17821 net.cpp:141] Setting up inception_4c/relu_5x5_reduce
I0403 18:50:37.092572 17821 net.cpp:148] Top shape: 24 24 14 14 (112896)
I0403 18:50:37.092587 17821 net.cpp:156] Memory required for data: 1048562976
I0403 18:50:37.092603 17821 layer_factory.hpp:77] Creating layer inception_4c/5x5
I0403 18:50:37.092623 17821 net.cpp:91] Creating Layer inception_4c/5x5
I0403 18:50:37.092640 17821 net.cpp:425] inception_4c/5x5 <- inception_4c/5x5_reduce
I0403 18:50:37.092661 17821 net.cpp:399] inception_4c/5x5 -> inception_4c/5x5
I0403 18:50:37.093945 17821 net.cpp:141] Setting up inception_4c/5x5
I0403 18:50:37.093972 17821 net.cpp:148] Top shape: 24 64 14 14 (301056)
I0403 18:50:37.093992 17821 net.cpp:156] Memory required for data: 1049767200
I0403 18:50:37.094012 17821 layer_factory.hpp:77] Creating layer inception_4c/relu_5x5
I0403 18:50:37.094033 17821 net.cpp:91] Creating Layer inception_4c/relu_5x5
I0403 18:50:37.094051 17821 net.cpp:425] inception_4c/relu_5x5 <- inception_4c/5x5
I0403 18:50:37.094069 17821 net.cpp:386] inception_4c/relu_5x5 -> inception_4c/5x5 (in-place)
I0403 18:50:37.094364 17821 net.cpp:141] Setting up inception_4c/relu_5x5
I0403 18:50:37.094391 17821 net.cpp:148] Top shape: 24 64 14 14 (301056)
I0403 18:50:37.094406 17821 net.cpp:156] Memory required for data: 1050971424
I0403 18:50:37.094421 17821 layer_factory.hpp:77] Creating layer inception_4c/pool
I0403 18:50:37.094441 17821 net.cpp:91] Creating Layer inception_4c/pool
I0403 18:50:37.094460 17821 net.cpp:425] inception_4c/pool <- inception_4b/output_inception_4b/output_0_split_3
I0403 18:50:37.094478 17821 net.cpp:399] inception_4c/pool -> inception_4c/pool
I0403 18:50:37.094549 17821 net.cpp:141] Setting up inception_4c/pool
I0403 18:50:37.094573 17821 net.cpp:148] Top shape: 24 512 14 14 (2408448)
I0403 18:50:37.094588 17821 net.cpp:156] Memory required for data: 1060605216
I0403 18:50:37.094604 17821 layer_factory.hpp:77] Creating layer inception_4c/pool_proj
I0403 18:50:37.094626 17821 net.cpp:91] Creating Layer inception_4c/pool_proj
I0403 18:50:37.094645 17821 net.cpp:425] inception_4c/pool_proj <- inception_4c/pool
I0403 18:50:37.094666 17821 net.cpp:399] inception_4c/pool_proj -> inception_4c/pool_proj
I0403 18:50:37.095916 17821 net.cpp:141] Setting up inception_4c/pool_proj
I0403 18:50:37.095945 17821 net.cpp:148] Top shape: 24 64 14 14 (301056)
I0403 18:50:37.095974 17821 net.cpp:156] Memory required for data: 1061809440
I0403 18:50:37.095999 17821 layer_factory.hpp:77] Creating layer inception_4c/relu_pool_proj
I0403 18:50:37.096022 17821 net.cpp:91] Creating Layer inception_4c/relu_pool_proj
I0403 18:50:37.096040 17821 net.cpp:425] inception_4c/relu_pool_proj <- inception_4c/pool_proj
I0403 18:50:37.096058 17821 net.cpp:386] inception_4c/relu_pool_proj -> inception_4c/pool_proj (in-place)
I0403 18:50:37.096248 17821 net.cpp:141] Setting up inception_4c/relu_pool_proj
I0403 18:50:37.096273 17821 net.cpp:148] Top shape: 24 64 14 14 (301056)
I0403 18:50:37.096288 17821 net.cpp:156] Memory required for data: 1063013664
I0403 18:50:37.096303 17821 layer_factory.hpp:77] Creating layer inception_4c/output
I0403 18:50:37.096323 17821 net.cpp:91] Creating Layer inception_4c/output
I0403 18:50:37.096339 17821 net.cpp:425] inception_4c/output <- inception_4c/1x1
I0403 18:50:37.096356 17821 net.cpp:425] inception_4c/output <- inception_4c/3x3
I0403 18:50:37.096374 17821 net.cpp:425] inception_4c/output <- inception_4c/5x5
I0403 18:50:37.096390 17821 net.cpp:425] inception_4c/output <- inception_4c/pool_proj
I0403 18:50:37.096406 17821 net.cpp:399] inception_4c/output -> inception_4c/output
I0403 18:50:37.096457 17821 net.cpp:141] Setting up inception_4c/output
I0403 18:50:37.096493 17821 net.cpp:148] Top shape: 24 512 14 14 (2408448)
I0403 18:50:37.096508 17821 net.cpp:156] Memory required for data: 1072647456
I0403 18:50:37.096524 17821 layer_factory.hpp:77] Creating layer inception_4c/output_inception_4c/output_0_split
I0403 18:50:37.096540 17821 net.cpp:91] Creating Layer inception_4c/output_inception_4c/output_0_split
I0403 18:50:37.096556 17821 net.cpp:425] inception_4c/output_inception_4c/output_0_split <- inception_4c/output
I0403 18:50:37.096576 17821 net.cpp:399] inception_4c/output_inception_4c/output_0_split -> inception_4c/output_inception_4c/output_0_split_0
I0403 18:50:37.096598 17821 net.cpp:399] inception_4c/output_inception_4c/output_0_split -> inception_4c/output_inception_4c/output_0_split_1
I0403 18:50:37.096619 17821 net.cpp:399] inception_4c/output_inception_4c/output_0_split -> inception_4c/output_inception_4c/output_0_split_2
I0403 18:50:37.096642 17821 net.cpp:399] inception_4c/output_inception_4c/output_0_split -> inception_4c/output_inception_4c/output_0_split_3
I0403 18:50:37.096734 17821 net.cpp:141] Setting up inception_4c/output_inception_4c/output_0_split
I0403 18:50:37.096757 17821 net.cpp:148] Top shape: 24 512 14 14 (2408448)
I0403 18:50:37.096786 17821 net.cpp:148] Top shape: 24 512 14 14 (2408448)
I0403 18:50:37.096801 17821 net.cpp:148] Top shape: 24 512 14 14 (2408448)
I0403 18:50:37.096817 17821 net.cpp:148] Top shape: 24 512 14 14 (2408448)
I0403 18:50:37.096832 17821 net.cpp:156] Memory required for data: 1111182624
I0403 18:50:37.096846 17821 layer_factory.hpp:77] Creating layer inception_4d/1x1
I0403 18:50:37.096868 17821 net.cpp:91] Creating Layer inception_4d/1x1
I0403 18:50:37.096885 17821 net.cpp:425] inception_4d/1x1 <- inception_4c/output_inception_4c/output_0_split_0
I0403 18:50:37.096907 17821 net.cpp:399] inception_4d/1x1 -> inception_4d/1x1
I0403 18:50:37.098322 17821 net.cpp:141] Setting up inception_4d/1x1
I0403 18:50:37.098353 17821 net.cpp:148] Top shape: 24 112 14 14 (526848)
I0403 18:50:37.098371 17821 net.cpp:156] Memory required for data: 1113290016
I0403 18:50:37.098389 17821 layer_factory.hpp:77] Creating layer inception_4d/relu_1x1
I0403 18:50:37.098408 17821 net.cpp:91] Creating Layer inception_4d/relu_1x1
I0403 18:50:37.098424 17821 net.cpp:425] inception_4d/relu_1x1 <- inception_4d/1x1
I0403 18:50:37.098444 17821 net.cpp:386] inception_4d/relu_1x1 -> inception_4d/1x1 (in-place)
I0403 18:50:37.098636 17821 net.cpp:141] Setting up inception_4d/relu_1x1
I0403 18:50:37.098661 17821 net.cpp:148] Top shape: 24 112 14 14 (526848)
I0403 18:50:37.098676 17821 net.cpp:156] Memory required for data: 1115397408
I0403 18:50:37.098691 17821 layer_factory.hpp:77] Creating layer inception_4d/3x3_reduce
I0403 18:50:37.098727 17821 net.cpp:91] Creating Layer inception_4d/3x3_reduce
I0403 18:50:37.098747 17821 net.cpp:425] inception_4d/3x3_reduce <- inception_4c/output_inception_4c/output_0_split_1
I0403 18:50:37.098769 17821 net.cpp:399] inception_4d/3x3_reduce -> inception_4d/3x3_reduce
I0403 18:50:37.100332 17821 net.cpp:141] Setting up inception_4d/3x3_reduce
I0403 18:50:37.100363 17821 net.cpp:148] Top shape: 24 144 14 14 (677376)
I0403 18:50:37.100379 17821 net.cpp:156] Memory required for data: 1118106912
I0403 18:50:37.100397 17821 layer_factory.hpp:77] Creating layer inception_4d/relu_3x3_reduce
I0403 18:50:37.100415 17821 net.cpp:91] Creating Layer inception_4d/relu_3x3_reduce
I0403 18:50:37.100432 17821 net.cpp:425] inception_4d/relu_3x3_reduce <- inception_4d/3x3_reduce
I0403 18:50:37.100450 17821 net.cpp:386] inception_4d/relu_3x3_reduce -> inception_4d/3x3_reduce (in-place)
I0403 18:50:37.100746 17821 net.cpp:141] Setting up inception_4d/relu_3x3_reduce
I0403 18:50:37.100775 17821 net.cpp:148] Top shape: 24 144 14 14 (677376)
I0403 18:50:37.100791 17821 net.cpp:156] Memory required for data: 1120816416
I0403 18:50:37.100806 17821 layer_factory.hpp:77] Creating layer inception_4d/3x3
I0403 18:50:37.100829 17821 net.cpp:91] Creating Layer inception_4d/3x3
I0403 18:50:37.100848 17821 net.cpp:425] inception_4d/3x3 <- inception_4d/3x3_reduce
I0403 18:50:37.100867 17821 net.cpp:399] inception_4d/3x3 -> inception_4d/3x3
I0403 18:50:37.105242 17821 net.cpp:141] Setting up inception_4d/3x3
I0403 18:50:37.105271 17821 net.cpp:148] Top shape: 24 288 14 14 (1354752)
I0403 18:50:37.105288 17821 net.cpp:156] Memory required for data: 1126235424
I0403 18:50:37.105306 17821 layer_factory.hpp:77] Creating layer inception_4d/relu_3x3
I0403 18:50:37.105324 17821 net.cpp:91] Creating Layer inception_4d/relu_3x3
I0403 18:50:37.105341 17821 net.cpp:425] inception_4d/relu_3x3 <- inception_4d/3x3
I0403 18:50:37.105361 17821 net.cpp:386] inception_4d/relu_3x3 -> inception_4d/3x3 (in-place)
I0403 18:50:37.105550 17821 net.cpp:141] Setting up inception_4d/relu_3x3
I0403 18:50:37.105576 17821 net.cpp:148] Top shape: 24 288 14 14 (1354752)
I0403 18:50:37.105590 17821 net.cpp:156] Memory required for data: 1131654432
I0403 18:50:37.105605 17821 layer_factory.hpp:77] Creating layer inception_4d/5x5_reduce
I0403 18:50:37.105628 17821 net.cpp:91] Creating Layer inception_4d/5x5_reduce
I0403 18:50:37.105646 17821 net.cpp:425] inception_4d/5x5_reduce <- inception_4c/output_inception_4c/output_0_split_2
I0403 18:50:37.105669 17821 net.cpp:399] inception_4d/5x5_reduce -> inception_4d/5x5_reduce
I0403 18:50:37.106851 17821 net.cpp:141] Setting up inception_4d/5x5_reduce
I0403 18:50:37.106879 17821 net.cpp:148] Top shape: 24 32 14 14 (150528)
I0403 18:50:37.106899 17821 net.cpp:156] Memory required for data: 1132256544
I0403 18:50:37.106916 17821 layer_factory.hpp:77] Creating layer inception_4d/relu_5x5_reduce
I0403 18:50:37.106935 17821 net.cpp:91] Creating Layer inception_4d/relu_5x5_reduce
I0403 18:50:37.106950 17821 net.cpp:425] inception_4d/relu_5x5_reduce <- inception_4d/5x5_reduce
I0403 18:50:37.106969 17821 net.cpp:386] inception_4d/relu_5x5_reduce -> inception_4d/5x5_reduce (in-place)
I0403 18:50:37.107161 17821 net.cpp:141] Setting up inception_4d/relu_5x5_reduce
I0403 18:50:37.107185 17821 net.cpp:148] Top shape: 24 32 14 14 (150528)
I0403 18:50:37.107203 17821 net.cpp:156] Memory required for data: 1132858656
I0403 18:50:37.107218 17821 layer_factory.hpp:77] Creating layer inception_4d/5x5
I0403 18:50:37.107239 17821 net.cpp:91] Creating Layer inception_4d/5x5
I0403 18:50:37.107256 17821 net.cpp:425] inception_4d/5x5 <- inception_4d/5x5_reduce
I0403 18:50:37.107278 17821 net.cpp:399] inception_4d/5x5 -> inception_4d/5x5
I0403 18:50:37.108799 17821 net.cpp:141] Setting up inception_4d/5x5
I0403 18:50:37.108826 17821 net.cpp:148] Top shape: 24 64 14 14 (301056)
I0403 18:50:37.108842 17821 net.cpp:156] Memory required for data: 1134062880
I0403 18:50:37.108861 17821 layer_factory.hpp:77] Creating layer inception_4d/relu_5x5
I0403 18:50:37.108896 17821 net.cpp:91] Creating Layer inception_4d/relu_5x5
I0403 18:50:37.108913 17821 net.cpp:425] inception_4d/relu_5x5 <- inception_4d/5x5
I0403 18:50:37.108932 17821 net.cpp:386] inception_4d/relu_5x5 -> inception_4d/5x5 (in-place)
I0403 18:50:37.109247 17821 net.cpp:141] Setting up inception_4d/relu_5x5
I0403 18:50:37.109273 17821 net.cpp:148] Top shape: 24 64 14 14 (301056)
I0403 18:50:37.109288 17821 net.cpp:156] Memory required for data: 1135267104
I0403 18:50:37.109303 17821 layer_factory.hpp:77] Creating layer inception_4d/pool
I0403 18:50:37.109323 17821 net.cpp:91] Creating Layer inception_4d/pool
I0403 18:50:37.109341 17821 net.cpp:425] inception_4d/pool <- inception_4c/output_inception_4c/output_0_split_3
I0403 18:50:37.109359 17821 net.cpp:399] inception_4d/pool -> inception_4d/pool
I0403 18:50:37.109427 17821 net.cpp:141] Setting up inception_4d/pool
I0403 18:50:37.109452 17821 net.cpp:148] Top shape: 24 512 14 14 (2408448)
I0403 18:50:37.109465 17821 net.cpp:156] Memory required for data: 1144900896
I0403 18:50:37.109480 17821 layer_factory.hpp:77] Creating layer inception_4d/pool_proj
I0403 18:50:37.109501 17821 net.cpp:91] Creating Layer inception_4d/pool_proj
I0403 18:50:37.109519 17821 net.cpp:425] inception_4d/pool_proj <- inception_4d/pool
I0403 18:50:37.109540 17821 net.cpp:399] inception_4d/pool_proj -> inception_4d/pool_proj
I0403 18:50:37.111310 17821 net.cpp:141] Setting up inception_4d/pool_proj
I0403 18:50:37.111340 17821 net.cpp:148] Top shape: 24 64 14 14 (301056)
I0403 18:50:37.111356 17821 net.cpp:156] Memory required for data: 1146105120
I0403 18:50:37.111373 17821 layer_factory.hpp:77] Creating layer inception_4d/relu_pool_proj
I0403 18:50:37.111392 17821 net.cpp:91] Creating Layer inception_4d/relu_pool_proj
I0403 18:50:37.111407 17821 net.cpp:425] inception_4d/relu_pool_proj <- inception_4d/pool_proj
I0403 18:50:37.111439 17821 net.cpp:386] inception_4d/relu_pool_proj -> inception_4d/pool_proj (in-place)
I0403 18:50:37.111630 17821 net.cpp:141] Setting up inception_4d/relu_pool_proj
I0403 18:50:37.111655 17821 net.cpp:148] Top shape: 24 64 14 14 (301056)
I0403 18:50:37.111670 17821 net.cpp:156] Memory required for data: 1147309344
I0403 18:50:37.111686 17821 layer_factory.hpp:77] Creating layer inception_4d/output
I0403 18:50:37.111706 17821 net.cpp:91] Creating Layer inception_4d/output
I0403 18:50:37.111734 17821 net.cpp:425] inception_4d/output <- inception_4d/1x1
I0403 18:50:37.111752 17821 net.cpp:425] inception_4d/output <- inception_4d/3x3
I0403 18:50:37.111768 17821 net.cpp:425] inception_4d/output <- inception_4d/5x5
I0403 18:50:37.111783 17821 net.cpp:425] inception_4d/output <- inception_4d/pool_proj
I0403 18:50:37.111799 17821 net.cpp:399] inception_4d/output -> inception_4d/output
I0403 18:50:37.111848 17821 net.cpp:141] Setting up inception_4d/output
I0403 18:50:37.111872 17821 net.cpp:148] Top shape: 24 528 14 14 (2483712)
I0403 18:50:37.111886 17821 net.cpp:156] Memory required for data: 1157244192
I0403 18:50:37.111901 17821 layer_factory.hpp:77] Creating layer inception_4d/output_inception_4d/output_0_split
I0403 18:50:37.111917 17821 net.cpp:91] Creating Layer inception_4d/output_inception_4d/output_0_split
I0403 18:50:37.111932 17821 net.cpp:425] inception_4d/output_inception_4d/output_0_split <- inception_4d/output
I0403 18:50:37.111953 17821 net.cpp:399] inception_4d/output_inception_4d/output_0_split -> inception_4d/output_inception_4d/output_0_split_0
I0403 18:50:37.111974 17821 net.cpp:399] inception_4d/output_inception_4d/output_0_split -> inception_4d/output_inception_4d/output_0_split_1
I0403 18:50:37.111999 17821 net.cpp:399] inception_4d/output_inception_4d/output_0_split -> inception_4d/output_inception_4d/output_0_split_2
I0403 18:50:37.112020 17821 net.cpp:399] inception_4d/output_inception_4d/output_0_split -> inception_4d/output_inception_4d/output_0_split_3
I0403 18:50:37.112040 17821 net.cpp:399] inception_4d/output_inception_4d/output_0_split -> inception_4d/output_inception_4d/output_0_split_4
I0403 18:50:37.112157 17821 net.cpp:141] Setting up inception_4d/output_inception_4d/output_0_split
I0403 18:50:37.112193 17821 net.cpp:148] Top shape: 24 528 14 14 (2483712)
I0403 18:50:37.112212 17821 net.cpp:148] Top shape: 24 528 14 14 (2483712)
I0403 18:50:37.112229 17821 net.cpp:148] Top shape: 24 528 14 14 (2483712)
I0403 18:50:37.112246 17821 net.cpp:148] Top shape: 24 528 14 14 (2483712)
I0403 18:50:37.112262 17821 net.cpp:148] Top shape: 24 528 14 14 (2483712)
I0403 18:50:37.112275 17821 net.cpp:156] Memory required for data: 1206918432
I0403 18:50:37.112290 17821 layer_factory.hpp:77] Creating layer loss2/ave_pool
I0403 18:50:37.112308 17821 net.cpp:91] Creating Layer loss2/ave_pool
I0403 18:50:37.112324 17821 net.cpp:425] loss2/ave_pool <- inception_4d/output_inception_4d/output_0_split_0
I0403 18:50:37.112345 17821 net.cpp:399] loss2/ave_pool -> loss2/ave_pool
I0403 18:50:37.112670 17821 net.cpp:141] Setting up loss2/ave_pool
I0403 18:50:37.112697 17821 net.cpp:148] Top shape: 24 528 4 4 (202752)
I0403 18:50:37.112712 17821 net.cpp:156] Memory required for data: 1207729440
I0403 18:50:37.112727 17821 layer_factory.hpp:77] Creating layer loss2/conv
I0403 18:50:37.112749 17821 net.cpp:91] Creating Layer loss2/conv
I0403 18:50:37.112767 17821 net.cpp:425] loss2/conv <- loss2/ave_pool
I0403 18:50:37.112788 17821 net.cpp:399] loss2/conv -> loss2/conv
I0403 18:50:37.114687 17821 net.cpp:141] Setting up loss2/conv
I0403 18:50:37.114717 17821 net.cpp:148] Top shape: 24 128 4 4 (49152)
I0403 18:50:37.114732 17821 net.cpp:156] Memory required for data: 1207926048
I0403 18:50:37.114750 17821 layer_factory.hpp:77] Creating layer loss2/relu_conv
I0403 18:50:37.114769 17821 net.cpp:91] Creating Layer loss2/relu_conv
I0403 18:50:37.114786 17821 net.cpp:425] loss2/relu_conv <- loss2/conv
I0403 18:50:37.114804 17821 net.cpp:386] loss2/relu_conv -> loss2/conv (in-place)
I0403 18:50:37.115092 17821 net.cpp:141] Setting up loss2/relu_conv
I0403 18:50:37.115118 17821 net.cpp:148] Top shape: 24 128 4 4 (49152)
I0403 18:50:37.115134 17821 net.cpp:156] Memory required for data: 1208122656
I0403 18:50:37.115149 17821 layer_factory.hpp:77] Creating layer loss2/fc
I0403 18:50:37.115170 17821 net.cpp:91] Creating Layer loss2/fc
I0403 18:50:37.115186 17821 net.cpp:425] loss2/fc <- loss2/conv
I0403 18:50:37.115211 17821 net.cpp:399] loss2/fc -> loss2/fc
I0403 18:50:37.132967 17821 net.cpp:141] Setting up loss2/fc
I0403 18:50:37.133003 17821 net.cpp:148] Top shape: 24 1024 (24576)
I0403 18:50:37.133019 17821 net.cpp:156] Memory required for data: 1208220960
I0403 18:50:37.133038 17821 layer_factory.hpp:77] Creating layer loss2/relu_fc
I0403 18:50:37.133056 17821 net.cpp:91] Creating Layer loss2/relu_fc
I0403 18:50:37.133071 17821 net.cpp:425] loss2/relu_fc <- loss2/fc
I0403 18:50:37.133091 17821 net.cpp:386] loss2/relu_fc -> loss2/fc (in-place)
I0403 18:50:37.133391 17821 net.cpp:141] Setting up loss2/relu_fc
I0403 18:50:37.133417 17821 net.cpp:148] Top shape: 24 1024 (24576)
I0403 18:50:37.133432 17821 net.cpp:156] Memory required for data: 1208319264
I0403 18:50:37.133447 17821 layer_factory.hpp:77] Creating layer loss2/drop_fc
I0403 18:50:37.133466 17821 net.cpp:91] Creating Layer loss2/drop_fc
I0403 18:50:37.133481 17821 net.cpp:425] loss2/drop_fc <- loss2/fc
I0403 18:50:37.133501 17821 net.cpp:386] loss2/drop_fc -> loss2/fc (in-place)
I0403 18:50:37.133549 17821 net.cpp:141] Setting up loss2/drop_fc
I0403 18:50:37.133574 17821 net.cpp:148] Top shape: 24 1024 (24576)
I0403 18:50:37.133589 17821 net.cpp:156] Memory required for data: 1208417568
I0403 18:50:37.133605 17821 layer_factory.hpp:77] Creating layer loss2/classifier_plantvillage
I0403 18:50:37.133621 17821 net.cpp:91] Creating Layer loss2/classifier_plantvillage
I0403 18:50:37.133637 17821 net.cpp:425] loss2/classifier_plantvillage <- loss2/fc
I0403 18:50:37.133659 17821 net.cpp:399] loss2/classifier_plantvillage -> loss2/classifier_plantvillage
I0403 18:50:37.134063 17821 net.cpp:141] Setting up loss2/classifier_plantvillage
I0403 18:50:37.134089 17821 net.cpp:148] Top shape: 24 38 (912)
I0403 18:50:37.134120 17821 net.cpp:156] Memory required for data: 1208421216
I0403 18:50:37.134138 17821 layer_factory.hpp:77] Creating layer loss2/classifier_plantvillage_loss2/classifier_plantvillage_0_split
I0403 18:50:37.134156 17821 net.cpp:91] Creating Layer loss2/classifier_plantvillage_loss2/classifier_plantvillage_0_split
I0403 18:50:37.134173 17821 net.cpp:425] loss2/classifier_plantvillage_loss2/classifier_plantvillage_0_split <- loss2/classifier_plantvillage
I0403 18:50:37.134191 17821 net.cpp:399] loss2/classifier_plantvillage_loss2/classifier_plantvillage_0_split -> loss2/classifier_plantvillage_loss2/classifier_plantvillage_0_split_0
I0403 18:50:37.134212 17821 net.cpp:399] loss2/classifier_plantvillage_loss2/classifier_plantvillage_0_split -> loss2/classifier_plantvillage_loss2/classifier_plantvillage_0_split_1
I0403 18:50:37.134235 17821 net.cpp:399] loss2/classifier_plantvillage_loss2/classifier_plantvillage_0_split -> loss2/classifier_plantvillage_loss2/classifier_plantvillage_0_split_2
I0403 18:50:37.134313 17821 net.cpp:141] Setting up loss2/classifier_plantvillage_loss2/classifier_plantvillage_0_split
I0403 18:50:37.134336 17821 net.cpp:148] Top shape: 24 38 (912)
I0403 18:50:37.134351 17821 net.cpp:148] Top shape: 24 38 (912)
I0403 18:50:37.134366 17821 net.cpp:148] Top shape: 24 38 (912)
I0403 18:50:37.134380 17821 net.cpp:156] Memory required for data: 1208432160
I0403 18:50:37.134395 17821 layer_factory.hpp:77] Creating layer inception_4e/1x1
I0403 18:50:37.134414 17821 net.cpp:91] Creating Layer inception_4e/1x1
I0403 18:50:37.134431 17821 net.cpp:425] inception_4e/1x1 <- inception_4d/output_inception_4d/output_0_split_1
I0403 18:50:37.134452 17821 net.cpp:399] inception_4e/1x1 -> inception_4e/1x1
I0403 18:50:37.136273 17821 net.cpp:141] Setting up inception_4e/1x1
I0403 18:50:37.136301 17821 net.cpp:148] Top shape: 24 256 14 14 (1204224)
I0403 18:50:37.136317 17821 net.cpp:156] Memory required for data: 1213249056
I0403 18:50:37.136333 17821 layer_factory.hpp:77] Creating layer inception_4e/relu_1x1
I0403 18:50:37.136353 17821 net.cpp:91] Creating Layer inception_4e/relu_1x1
I0403 18:50:37.136370 17821 net.cpp:425] inception_4e/relu_1x1 <- inception_4e/1x1
I0403 18:50:37.136387 17821 net.cpp:386] inception_4e/relu_1x1 -> inception_4e/1x1 (in-place)
I0403 18:50:37.136687 17821 net.cpp:141] Setting up inception_4e/relu_1x1
I0403 18:50:37.136713 17821 net.cpp:148] Top shape: 24 256 14 14 (1204224)
I0403 18:50:37.136726 17821 net.cpp:156] Memory required for data: 1218065952
I0403 18:50:37.136741 17821 layer_factory.hpp:77] Creating layer inception_4e/3x3_reduce
I0403 18:50:37.136765 17821 net.cpp:91] Creating Layer inception_4e/3x3_reduce
I0403 18:50:37.136781 17821 net.cpp:425] inception_4e/3x3_reduce <- inception_4d/output_inception_4d/output_0_split_2
I0403 18:50:37.136801 17821 net.cpp:399] inception_4e/3x3_reduce -> inception_4e/3x3_reduce
I0403 18:50:37.138923 17821 net.cpp:141] Setting up inception_4e/3x3_reduce
I0403 18:50:37.138952 17821 net.cpp:148] Top shape: 24 160 14 14 (752640)
I0403 18:50:37.138967 17821 net.cpp:156] Memory required for data: 1221076512
I0403 18:50:37.138996 17821 layer_factory.hpp:77] Creating layer inception_4e/relu_3x3_reduce
I0403 18:50:37.139019 17821 net.cpp:91] Creating Layer inception_4e/relu_3x3_reduce
I0403 18:50:37.139036 17821 net.cpp:425] inception_4e/relu_3x3_reduce <- inception_4e/3x3_reduce
I0403 18:50:37.139055 17821 net.cpp:386] inception_4e/relu_3x3_reduce -> inception_4e/3x3_reduce (in-place)
I0403 18:50:37.139240 17821 net.cpp:141] Setting up inception_4e/relu_3x3_reduce
I0403 18:50:37.139266 17821 net.cpp:148] Top shape: 24 160 14 14 (752640)
I0403 18:50:37.139281 17821 net.cpp:156] Memory required for data: 1224087072
I0403 18:50:37.139297 17821 layer_factory.hpp:77] Creating layer inception_4e/3x3
I0403 18:50:37.139317 17821 net.cpp:91] Creating Layer inception_4e/3x3
I0403 18:50:37.139335 17821 net.cpp:425] inception_4e/3x3 <- inception_4e/3x3_reduce
I0403 18:50:37.139354 17821 net.cpp:399] inception_4e/3x3 -> inception_4e/3x3
I0403 18:50:37.144407 17821 net.cpp:141] Setting up inception_4e/3x3
I0403 18:50:37.144448 17821 net.cpp:148] Top shape: 24 320 14 14 (1505280)
I0403 18:50:37.144466 17821 net.cpp:156] Memory required for data: 1230108192
I0403 18:50:37.144485 17821 layer_factory.hpp:77] Creating layer inception_4e/relu_3x3
I0403 18:50:37.144503 17821 net.cpp:91] Creating Layer inception_4e/relu_3x3
I0403 18:50:37.144520 17821 net.cpp:425] inception_4e/relu_3x3 <- inception_4e/3x3
I0403 18:50:37.144538 17821 net.cpp:386] inception_4e/relu_3x3 -> inception_4e/3x3 (in-place)
I0403 18:50:37.144836 17821 net.cpp:141] Setting up inception_4e/relu_3x3
I0403 18:50:37.144865 17821 net.cpp:148] Top shape: 24 320 14 14 (1505280)
I0403 18:50:37.144881 17821 net.cpp:156] Memory required for data: 1236129312
I0403 18:50:37.144896 17821 layer_factory.hpp:77] Creating layer inception_4e/5x5_reduce
I0403 18:50:37.144919 17821 net.cpp:91] Creating Layer inception_4e/5x5_reduce
I0403 18:50:37.144937 17821 net.cpp:425] inception_4e/5x5_reduce <- inception_4d/output_inception_4d/output_0_split_3
I0403 18:50:37.144958 17821 net.cpp:399] inception_4e/5x5_reduce -> inception_4e/5x5_reduce
I0403 18:50:37.146087 17821 net.cpp:141] Setting up inception_4e/5x5_reduce
I0403 18:50:37.146116 17821 net.cpp:148] Top shape: 24 32 14 14 (150528)
I0403 18:50:37.146131 17821 net.cpp:156] Memory required for data: 1236731424
I0403 18:50:37.146150 17821 layer_factory.hpp:77] Creating layer inception_4e/relu_5x5_reduce
I0403 18:50:37.146172 17821 net.cpp:91] Creating Layer inception_4e/relu_5x5_reduce
I0403 18:50:37.146188 17821 net.cpp:425] inception_4e/relu_5x5_reduce <- inception_4e/5x5_reduce
I0403 18:50:37.146206 17821 net.cpp:386] inception_4e/relu_5x5_reduce -> inception_4e/5x5_reduce (in-place)
I0403 18:50:37.146528 17821 net.cpp:141] Setting up inception_4e/relu_5x5_reduce
I0403 18:50:37.146554 17821 net.cpp:148] Top shape: 24 32 14 14 (150528)
I0403 18:50:37.146569 17821 net.cpp:156] Memory required for data: 1237333536
I0403 18:50:37.146585 17821 layer_factory.hpp:77] Creating layer inception_4e/5x5
I0403 18:50:37.146625 17821 net.cpp:91] Creating Layer inception_4e/5x5
I0403 18:50:37.146646 17821 net.cpp:425] inception_4e/5x5 <- inception_4e/5x5_reduce
I0403 18:50:37.146668 17821 net.cpp:399] inception_4e/5x5 -> inception_4e/5x5
I0403 18:50:37.148571 17821 net.cpp:141] Setting up inception_4e/5x5
I0403 18:50:37.148600 17821 net.cpp:148] Top shape: 24 128 14 14 (602112)
I0403 18:50:37.148617 17821 net.cpp:156] Memory required for data: 1239741984
I0403 18:50:37.148635 17821 layer_factory.hpp:77] Creating layer inception_4e/relu_5x5
I0403 18:50:37.148654 17821 net.cpp:91] Creating Layer inception_4e/relu_5x5
I0403 18:50:37.148670 17821 net.cpp:425] inception_4e/relu_5x5 <- inception_4e/5x5
I0403 18:50:37.148690 17821 net.cpp:386] inception_4e/relu_5x5 -> inception_4e/5x5 (in-place)
I0403 18:50:37.148892 17821 net.cpp:141] Setting up inception_4e/relu_5x5
I0403 18:50:37.148918 17821 net.cpp:148] Top shape: 24 128 14 14 (602112)
I0403 18:50:37.148933 17821 net.cpp:156] Memory required for data: 1242150432
I0403 18:50:37.148947 17821 layer_factory.hpp:77] Creating layer inception_4e/pool
I0403 18:50:37.148968 17821 net.cpp:91] Creating Layer inception_4e/pool
I0403 18:50:37.148998 17821 net.cpp:425] inception_4e/pool <- inception_4d/output_inception_4d/output_0_split_4
I0403 18:50:37.149019 17821 net.cpp:399] inception_4e/pool -> inception_4e/pool
I0403 18:50:37.149092 17821 net.cpp:141] Setting up inception_4e/pool
I0403 18:50:37.149116 17821 net.cpp:148] Top shape: 24 528 14 14 (2483712)
I0403 18:50:37.149132 17821 net.cpp:156] Memory required for data: 1252085280
I0403 18:50:37.149147 17821 layer_factory.hpp:77] Creating layer inception_4e/pool_proj
I0403 18:50:37.149168 17821 net.cpp:91] Creating Layer inception_4e/pool_proj
I0403 18:50:37.149186 17821 net.cpp:425] inception_4e/pool_proj <- inception_4e/pool
I0403 18:50:37.149210 17821 net.cpp:399] inception_4e/pool_proj -> inception_4e/pool_proj
I0403 18:50:37.150758 17821 net.cpp:141] Setting up inception_4e/pool_proj
I0403 18:50:37.150799 17821 net.cpp:148] Top shape: 24 128 14 14 (602112)
I0403 18:50:37.150815 17821 net.cpp:156] Memory required for data: 1254493728
I0403 18:50:37.150833 17821 layer_factory.hpp:77] Creating layer inception_4e/relu_pool_proj
I0403 18:50:37.150851 17821 net.cpp:91] Creating Layer inception_4e/relu_pool_proj
I0403 18:50:37.150868 17821 net.cpp:425] inception_4e/relu_pool_proj <- inception_4e/pool_proj
I0403 18:50:37.150888 17821 net.cpp:386] inception_4e/relu_pool_proj -> inception_4e/pool_proj (in-place)
I0403 18:50:37.151203 17821 net.cpp:141] Setting up inception_4e/relu_pool_proj
I0403 18:50:37.151229 17821 net.cpp:148] Top shape: 24 128 14 14 (602112)
I0403 18:50:37.151245 17821 net.cpp:156] Memory required for data: 1256902176
I0403 18:50:37.151262 17821 layer_factory.hpp:77] Creating layer inception_4e/output
I0403 18:50:37.151279 17821 net.cpp:91] Creating Layer inception_4e/output
I0403 18:50:37.151295 17821 net.cpp:425] inception_4e/output <- inception_4e/1x1
I0403 18:50:37.151311 17821 net.cpp:425] inception_4e/output <- inception_4e/3x3
I0403 18:50:37.151327 17821 net.cpp:425] inception_4e/output <- inception_4e/5x5
I0403 18:50:37.151345 17821 net.cpp:425] inception_4e/output <- inception_4e/pool_proj
I0403 18:50:37.151363 17821 net.cpp:399] inception_4e/output -> inception_4e/output
I0403 18:50:37.151415 17821 net.cpp:141] Setting up inception_4e/output
I0403 18:50:37.151443 17821 net.cpp:148] Top shape: 24 832 14 14 (3913728)
I0403 18:50:37.151458 17821 net.cpp:156] Memory required for data: 1272557088
I0403 18:50:37.151473 17821 layer_factory.hpp:77] Creating layer pool4/3x3_s2
I0403 18:50:37.151490 17821 net.cpp:91] Creating Layer pool4/3x3_s2
I0403 18:50:37.151506 17821 net.cpp:425] pool4/3x3_s2 <- inception_4e/output
I0403 18:50:37.151525 17821 net.cpp:399] pool4/3x3_s2 -> pool4/3x3_s2
I0403 18:50:37.151595 17821 net.cpp:141] Setting up pool4/3x3_s2
I0403 18:50:37.151619 17821 net.cpp:148] Top shape: 24 832 7 7 (978432)
I0403 18:50:37.151635 17821 net.cpp:156] Memory required for data: 1276470816
I0403 18:50:37.151649 17821 layer_factory.hpp:77] Creating layer pool4/3x3_s2_pool4/3x3_s2_0_split
I0403 18:50:37.151669 17821 net.cpp:91] Creating Layer pool4/3x3_s2_pool4/3x3_s2_0_split
I0403 18:50:37.151685 17821 net.cpp:425] pool4/3x3_s2_pool4/3x3_s2_0_split <- pool4/3x3_s2
I0403 18:50:37.151703 17821 net.cpp:399] pool4/3x3_s2_pool4/3x3_s2_0_split -> pool4/3x3_s2_pool4/3x3_s2_0_split_0
I0403 18:50:37.151723 17821 net.cpp:399] pool4/3x3_s2_pool4/3x3_s2_0_split -> pool4/3x3_s2_pool4/3x3_s2_0_split_1
I0403 18:50:37.151744 17821 net.cpp:399] pool4/3x3_s2_pool4/3x3_s2_0_split -> pool4/3x3_s2_pool4/3x3_s2_0_split_2
I0403 18:50:37.151767 17821 net.cpp:399] pool4/3x3_s2_pool4/3x3_s2_0_split -> pool4/3x3_s2_pool4/3x3_s2_0_split_3
I0403 18:50:37.151862 17821 net.cpp:141] Setting up pool4/3x3_s2_pool4/3x3_s2_0_split
I0403 18:50:37.151885 17821 net.cpp:148] Top shape: 24 832 7 7 (978432)
I0403 18:50:37.151902 17821 net.cpp:148] Top shape: 24 832 7 7 (978432)
I0403 18:50:37.151918 17821 net.cpp:148] Top shape: 24 832 7 7 (978432)
I0403 18:50:37.151934 17821 net.cpp:148] Top shape: 24 832 7 7 (978432)
I0403 18:50:37.151948 17821 net.cpp:156] Memory required for data: 1292125728
I0403 18:50:37.151962 17821 layer_factory.hpp:77] Creating layer inception_5a/1x1
I0403 18:50:37.151989 17821 net.cpp:91] Creating Layer inception_5a/1x1
I0403 18:50:37.152009 17821 net.cpp:425] inception_5a/1x1 <- pool4/3x3_s2_pool4/3x3_s2_0_split_0
I0403 18:50:37.152030 17821 net.cpp:399] inception_5a/1x1 -> inception_5a/1x1
I0403 18:50:37.155011 17821 net.cpp:141] Setting up inception_5a/1x1
I0403 18:50:37.155042 17821 net.cpp:148] Top shape: 24 256 7 7 (301056)
I0403 18:50:37.155058 17821 net.cpp:156] Memory required for data: 1293329952
I0403 18:50:37.155077 17821 layer_factory.hpp:77] Creating layer inception_5a/relu_1x1
I0403 18:50:37.155098 17821 net.cpp:91] Creating Layer inception_5a/relu_1x1
I0403 18:50:37.155115 17821 net.cpp:425] inception_5a/relu_1x1 <- inception_5a/1x1
I0403 18:50:37.155134 17821 net.cpp:386] inception_5a/relu_1x1 -> inception_5a/1x1 (in-place)
I0403 18:50:37.155474 17821 net.cpp:141] Setting up inception_5a/relu_1x1
I0403 18:50:37.155503 17821 net.cpp:148] Top shape: 24 256 7 7 (301056)
I0403 18:50:37.155519 17821 net.cpp:156] Memory required for data: 1294534176
I0403 18:50:37.155545 17821 layer_factory.hpp:77] Creating layer inception_5a/3x3_reduce
I0403 18:50:37.155568 17821 net.cpp:91] Creating Layer inception_5a/3x3_reduce
I0403 18:50:37.155587 17821 net.cpp:425] inception_5a/3x3_reduce <- pool4/3x3_s2_pool4/3x3_s2_0_split_1
I0403 18:50:37.155608 17821 net.cpp:399] inception_5a/3x3_reduce -> inception_5a/3x3_reduce
I0403 18:50:37.158140 17821 net.cpp:141] Setting up inception_5a/3x3_reduce
I0403 18:50:37.158171 17821 net.cpp:148] Top shape: 24 160 7 7 (188160)
I0403 18:50:37.158187 17821 net.cpp:156] Memory required for data: 1295286816
I0403 18:50:37.158208 17821 layer_factory.hpp:77] Creating layer inception_5a/relu_3x3_reduce
I0403 18:50:37.158227 17821 net.cpp:91] Creating Layer inception_5a/relu_3x3_reduce
I0403 18:50:37.158243 17821 net.cpp:425] inception_5a/relu_3x3_reduce <- inception_5a/3x3_reduce
I0403 18:50:37.158263 17821 net.cpp:386] inception_5a/relu_3x3_reduce -> inception_5a/3x3_reduce (in-place)
I0403 18:50:37.158462 17821 net.cpp:141] Setting up inception_5a/relu_3x3_reduce
I0403 18:50:37.158486 17821 net.cpp:148] Top shape: 24 160 7 7 (188160)
I0403 18:50:37.158501 17821 net.cpp:156] Memory required for data: 1296039456
I0403 18:50:37.158516 17821 layer_factory.hpp:77] Creating layer inception_5a/3x3
I0403 18:50:37.158540 17821 net.cpp:91] Creating Layer inception_5a/3x3
I0403 18:50:37.158558 17821 net.cpp:425] inception_5a/3x3 <- inception_5a/3x3_reduce
I0403 18:50:37.158579 17821 net.cpp:399] inception_5a/3x3 -> inception_5a/3x3
I0403 18:50:37.163735 17821 net.cpp:141] Setting up inception_5a/3x3
I0403 18:50:37.163765 17821 net.cpp:148] Top shape: 24 320 7 7 (376320)
I0403 18:50:37.163781 17821 net.cpp:156] Memory required for data: 1297544736
I0403 18:50:37.163800 17821 layer_factory.hpp:77] Creating layer inception_5a/relu_3x3
I0403 18:50:37.163821 17821 net.cpp:91] Creating Layer inception_5a/relu_3x3
I0403 18:50:37.163837 17821 net.cpp:425] inception_5a/relu_3x3 <- inception_5a/3x3
I0403 18:50:37.163856 17821 net.cpp:386] inception_5a/relu_3x3 -> inception_5a/3x3 (in-place)
I0403 18:50:37.164161 17821 net.cpp:141] Setting up inception_5a/relu_3x3
I0403 18:50:37.164188 17821 net.cpp:148] Top shape: 24 320 7 7 (376320)
I0403 18:50:37.164203 17821 net.cpp:156] Memory required for data: 1299050016
I0403 18:50:37.164218 17821 layer_factory.hpp:77] Creating layer inception_5a/5x5_reduce
I0403 18:50:37.164240 17821 net.cpp:91] Creating Layer inception_5a/5x5_reduce
I0403 18:50:37.164269 17821 net.cpp:425] inception_5a/5x5_reduce <- pool4/3x3_s2_pool4/3x3_s2_0_split_2
I0403 18:50:37.164289 17821 net.cpp:399] inception_5a/5x5_reduce -> inception_5a/5x5_reduce
I0403 18:50:37.165433 17821 net.cpp:141] Setting up inception_5a/5x5_reduce
I0403 18:50:37.165463 17821 net.cpp:148] Top shape: 24 32 7 7 (37632)
I0403 18:50:37.165480 17821 net.cpp:156] Memory required for data: 1299200544
I0403 18:50:37.165498 17821 layer_factory.hpp:77] Creating layer inception_5a/relu_5x5_reduce
I0403 18:50:37.165515 17821 net.cpp:91] Creating Layer inception_5a/relu_5x5_reduce
I0403 18:50:37.165531 17821 net.cpp:425] inception_5a/relu_5x5_reduce <- inception_5a/5x5_reduce
I0403 18:50:37.165547 17821 net.cpp:386] inception_5a/relu_5x5_reduce -> inception_5a/5x5_reduce (in-place)
I0403 18:50:37.165848 17821 net.cpp:141] Setting up inception_5a/relu_5x5_reduce
I0403 18:50:37.165874 17821 net.cpp:148] Top shape: 24 32 7 7 (37632)
I0403 18:50:37.165887 17821 net.cpp:156] Memory required for data: 1299351072
I0403 18:50:37.165901 17821 layer_factory.hpp:77] Creating layer inception_5a/5x5
I0403 18:50:37.165922 17821 net.cpp:91] Creating Layer inception_5a/5x5
I0403 18:50:37.165946 17821 net.cpp:425] inception_5a/5x5 <- inception_5a/5x5_reduce
I0403 18:50:37.165966 17821 net.cpp:399] inception_5a/5x5 -> inception_5a/5x5
I0403 18:50:37.167704 17821 net.cpp:141] Setting up inception_5a/5x5
I0403 18:50:37.167743 17821 net.cpp:148] Top shape: 24 128 7 7 (150528)
I0403 18:50:37.167759 17821 net.cpp:156] Memory required for data: 1299953184
I0403 18:50:37.167778 17821 layer_factory.hpp:77] Creating layer inception_5a/relu_5x5
I0403 18:50:37.167798 17821 net.cpp:91] Creating Layer inception_5a/relu_5x5
I0403 18:50:37.167815 17821 net.cpp:425] inception_5a/relu_5x5 <- inception_5a/5x5
I0403 18:50:37.167834 17821 net.cpp:386] inception_5a/relu_5x5 -> inception_5a/5x5 (in-place)
I0403 18:50:37.168030 17821 net.cpp:141] Setting up inception_5a/relu_5x5
I0403 18:50:37.168056 17821 net.cpp:148] Top shape: 24 128 7 7 (150528)
I0403 18:50:37.168072 17821 net.cpp:156] Memory required for data: 1300555296
I0403 18:50:37.168087 17821 layer_factory.hpp:77] Creating layer inception_5a/pool
I0403 18:50:37.168104 17821 net.cpp:91] Creating Layer inception_5a/pool
I0403 18:50:37.168122 17821 net.cpp:425] inception_5a/pool <- pool4/3x3_s2_pool4/3x3_s2_0_split_3
I0403 18:50:37.168139 17821 net.cpp:399] inception_5a/pool -> inception_5a/pool
I0403 18:50:37.168210 17821 net.cpp:141] Setting up inception_5a/pool
I0403 18:50:37.168233 17821 net.cpp:148] Top shape: 24 832 7 7 (978432)
I0403 18:50:37.168247 17821 net.cpp:156] Memory required for data: 1304469024
I0403 18:50:37.168262 17821 layer_factory.hpp:77] Creating layer inception_5a/pool_proj
I0403 18:50:37.168284 17821 net.cpp:91] Creating Layer inception_5a/pool_proj
I0403 18:50:37.168301 17821 net.cpp:425] inception_5a/pool_proj <- inception_5a/pool
I0403 18:50:37.168323 17821 net.cpp:399] inception_5a/pool_proj -> inception_5a/pool_proj
I0403 18:50:37.170646 17821 net.cpp:141] Setting up inception_5a/pool_proj
I0403 18:50:37.170677 17821 net.cpp:148] Top shape: 24 128 7 7 (150528)
I0403 18:50:37.170693 17821 net.cpp:156] Memory required for data: 1305071136
I0403 18:50:37.170711 17821 layer_factory.hpp:77] Creating layer inception_5a/relu_pool_proj
I0403 18:50:37.170729 17821 net.cpp:91] Creating Layer inception_5a/relu_pool_proj
I0403 18:50:37.170749 17821 net.cpp:425] inception_5a/relu_pool_proj <- inception_5a/pool_proj
I0403 18:50:37.170766 17821 net.cpp:386] inception_5a/relu_pool_proj -> inception_5a/pool_proj (in-place)
I0403 18:50:37.171066 17821 net.cpp:141] Setting up inception_5a/relu_pool_proj
I0403 18:50:37.171092 17821 net.cpp:148] Top shape: 24 128 7 7 (150528)
I0403 18:50:37.171106 17821 net.cpp:156] Memory required for data: 1305673248
I0403 18:50:37.171123 17821 layer_factory.hpp:77] Creating layer inception_5a/output
I0403 18:50:37.171139 17821 net.cpp:91] Creating Layer inception_5a/output
I0403 18:50:37.171154 17821 net.cpp:425] inception_5a/output <- inception_5a/1x1
I0403 18:50:37.171170 17821 net.cpp:425] inception_5a/output <- inception_5a/3x3
I0403 18:50:37.171185 17821 net.cpp:425] inception_5a/output <- inception_5a/5x5
I0403 18:50:37.171202 17821 net.cpp:425] inception_5a/output <- inception_5a/pool_proj
I0403 18:50:37.171222 17821 net.cpp:399] inception_5a/output -> inception_5a/output
I0403 18:50:37.171272 17821 net.cpp:141] Setting up inception_5a/output
I0403 18:50:37.171298 17821 net.cpp:148] Top shape: 24 832 7 7 (978432)
I0403 18:50:37.171314 17821 net.cpp:156] Memory required for data: 1309586976
I0403 18:50:37.171329 17821 layer_factory.hpp:77] Creating layer inception_5a/output_inception_5a/output_0_split
I0403 18:50:37.171345 17821 net.cpp:91] Creating Layer inception_5a/output_inception_5a/output_0_split
I0403 18:50:37.171361 17821 net.cpp:425] inception_5a/output_inception_5a/output_0_split <- inception_5a/output
I0403 18:50:37.171378 17821 net.cpp:399] inception_5a/output_inception_5a/output_0_split -> inception_5a/output_inception_5a/output_0_split_0
I0403 18:50:37.171403 17821 net.cpp:399] inception_5a/output_inception_5a/output_0_split -> inception_5a/output_inception_5a/output_0_split_1
I0403 18:50:37.171422 17821 net.cpp:399] inception_5a/output_inception_5a/output_0_split -> inception_5a/output_inception_5a/output_0_split_2
I0403 18:50:37.171442 17821 net.cpp:399] inception_5a/output_inception_5a/output_0_split -> inception_5a/output_inception_5a/output_0_split_3
I0403 18:50:37.171552 17821 net.cpp:141] Setting up inception_5a/output_inception_5a/output_0_split
I0403 18:50:37.171576 17821 net.cpp:148] Top shape: 24 832 7 7 (978432)
I0403 18:50:37.171592 17821 net.cpp:148] Top shape: 24 832 7 7 (978432)
I0403 18:50:37.171608 17821 net.cpp:148] Top shape: 24 832 7 7 (978432)
I0403 18:50:37.171623 17821 net.cpp:148] Top shape: 24 832 7 7 (978432)
I0403 18:50:37.171636 17821 net.cpp:156] Memory required for data: 1325241888
I0403 18:50:37.171651 17821 layer_factory.hpp:77] Creating layer inception_5b/1x1
I0403 18:50:37.171674 17821 net.cpp:91] Creating Layer inception_5b/1x1
I0403 18:50:37.171691 17821 net.cpp:425] inception_5b/1x1 <- inception_5a/output_inception_5a/output_0_split_0
I0403 18:50:37.171711 17821 net.cpp:399] inception_5b/1x1 -> inception_5b/1x1
I0403 18:50:37.175492 17821 net.cpp:141] Setting up inception_5b/1x1
I0403 18:50:37.175520 17821 net.cpp:148] Top shape: 24 384 7 7 (451584)
I0403 18:50:37.175536 17821 net.cpp:156] Memory required for data: 1327048224
I0403 18:50:37.175555 17821 layer_factory.hpp:77] Creating layer inception_5b/relu_1x1
I0403 18:50:37.175575 17821 net.cpp:91] Creating Layer inception_5b/relu_1x1
I0403 18:50:37.175590 17821 net.cpp:425] inception_5b/relu_1x1 <- inception_5b/1x1
I0403 18:50:37.175611 17821 net.cpp:386] inception_5b/relu_1x1 -> inception_5b/1x1 (in-place)
I0403 18:50:37.175918 17821 net.cpp:141] Setting up inception_5b/relu_1x1
I0403 18:50:37.175945 17821 net.cpp:148] Top shape: 24 384 7 7 (451584)
I0403 18:50:37.175959 17821 net.cpp:156] Memory required for data: 1328854560
I0403 18:50:37.175974 17821 layer_factory.hpp:77] Creating layer inception_5b/3x3_reduce
I0403 18:50:37.176000 17821 net.cpp:91] Creating Layer inception_5b/3x3_reduce
I0403 18:50:37.176019 17821 net.cpp:425] inception_5b/3x3_reduce <- inception_5a/output_inception_5a/output_0_split_1
I0403 18:50:37.176041 17821 net.cpp:399] inception_5b/3x3_reduce -> inception_5b/3x3_reduce
I0403 18:50:37.178711 17821 net.cpp:141] Setting up inception_5b/3x3_reduce
I0403 18:50:37.178741 17821 net.cpp:148] Top shape: 24 192 7 7 (225792)
I0403 18:50:37.178757 17821 net.cpp:156] Memory required for data: 1329757728
I0403 18:50:37.178776 17821 layer_factory.hpp:77] Creating layer inception_5b/relu_3x3_reduce
I0403 18:50:37.178796 17821 net.cpp:91] Creating Layer inception_5b/relu_3x3_reduce
I0403 18:50:37.178812 17821 net.cpp:425] inception_5b/relu_3x3_reduce <- inception_5b/3x3_reduce
I0403 18:50:37.178830 17821 net.cpp:386] inception_5b/relu_3x3_reduce -> inception_5b/3x3_reduce (in-place)
I0403 18:50:37.179026 17821 net.cpp:141] Setting up inception_5b/relu_3x3_reduce
I0403 18:50:37.179051 17821 net.cpp:148] Top shape: 24 192 7 7 (225792)
I0403 18:50:37.179066 17821 net.cpp:156] Memory required for data: 1330660896
I0403 18:50:37.179080 17821 layer_factory.hpp:77] Creating layer inception_5b/3x3
I0403 18:50:37.179102 17821 net.cpp:91] Creating Layer inception_5b/3x3
I0403 18:50:37.179121 17821 net.cpp:425] inception_5b/3x3 <- inception_5b/3x3_reduce
I0403 18:50:37.179141 17821 net.cpp:399] inception_5b/3x3 -> inception_5b/3x3
I0403 18:50:37.185955 17821 net.cpp:141] Setting up inception_5b/3x3
I0403 18:50:37.185987 17821 net.cpp:148] Top shape: 24 384 7 7 (451584)
I0403 18:50:37.186004 17821 net.cpp:156] Memory required for data: 1332467232
I0403 18:50:37.186022 17821 layer_factory.hpp:77] Creating layer inception_5b/relu_3x3
I0403 18:50:37.186040 17821 net.cpp:91] Creating Layer inception_5b/relu_3x3
I0403 18:50:37.186060 17821 net.cpp:425] inception_5b/relu_3x3 <- inception_5b/3x3
I0403 18:50:37.186077 17821 net.cpp:386] inception_5b/relu_3x3 -> inception_5b/3x3 (in-place)
I0403 18:50:37.186378 17821 net.cpp:141] Setting up inception_5b/relu_3x3
I0403 18:50:37.186404 17821 net.cpp:148] Top shape: 24 384 7 7 (451584)
I0403 18:50:37.186419 17821 net.cpp:156] Memory required for data: 1334273568
I0403 18:50:37.186434 17821 layer_factory.hpp:77] Creating layer inception_5b/5x5_reduce
I0403 18:50:37.186471 17821 net.cpp:91] Creating Layer inception_5b/5x5_reduce
I0403 18:50:37.186491 17821 net.cpp:425] inception_5b/5x5_reduce <- inception_5a/output_inception_5a/output_0_split_2
I0403 18:50:37.186513 17821 net.cpp:399] inception_5b/5x5_reduce -> inception_5b/5x5_reduce
I0403 18:50:37.187793 17821 net.cpp:141] Setting up inception_5b/5x5_reduce
I0403 18:50:37.187820 17821 net.cpp:148] Top shape: 24 48 7 7 (56448)
I0403 18:50:37.187835 17821 net.cpp:156] Memory required for data: 1334499360
I0403 18:50:37.187854 17821 layer_factory.hpp:77] Creating layer inception_5b/relu_5x5_reduce
I0403 18:50:37.187870 17821 net.cpp:91] Creating Layer inception_5b/relu_5x5_reduce
I0403 18:50:37.187886 17821 net.cpp:425] inception_5b/relu_5x5_reduce <- inception_5b/5x5_reduce
I0403 18:50:37.187906 17821 net.cpp:386] inception_5b/relu_5x5_reduce -> inception_5b/5x5_reduce (in-place)
I0403 18:50:37.188284 17821 net.cpp:141] Setting up inception_5b/relu_5x5_reduce
I0403 18:50:37.188310 17821 net.cpp:148] Top shape: 24 48 7 7 (56448)
I0403 18:50:37.188326 17821 net.cpp:156] Memory required for data: 1334725152
I0403 18:50:37.188340 17821 layer_factory.hpp:77] Creating layer inception_5b/5x5
I0403 18:50:37.188361 17821 net.cpp:91] Creating Layer inception_5b/5x5
I0403 18:50:37.188379 17821 net.cpp:425] inception_5b/5x5 <- inception_5b/5x5_reduce
I0403 18:50:37.188397 17821 net.cpp:399] inception_5b/5x5 -> inception_5b/5x5
I0403 18:50:37.190505 17821 net.cpp:141] Setting up inception_5b/5x5
I0403 18:50:37.190532 17821 net.cpp:148] Top shape: 24 128 7 7 (150528)
I0403 18:50:37.190547 17821 net.cpp:156] Memory required for data: 1335327264
I0403 18:50:37.190567 17821 layer_factory.hpp:77] Creating layer inception_5b/relu_5x5
I0403 18:50:37.190587 17821 net.cpp:91] Creating Layer inception_5b/relu_5x5
I0403 18:50:37.190603 17821 net.cpp:425] inception_5b/relu_5x5 <- inception_5b/5x5
I0403 18:50:37.190621 17821 net.cpp:386] inception_5b/relu_5x5 -> inception_5b/5x5 (in-place)
I0403 18:50:37.190816 17821 net.cpp:141] Setting up inception_5b/relu_5x5
I0403 18:50:37.190841 17821 net.cpp:148] Top shape: 24 128 7 7 (150528)
I0403 18:50:37.190855 17821 net.cpp:156] Memory required for data: 1335929376
I0403 18:50:37.190871 17821 layer_factory.hpp:77] Creating layer inception_5b/pool
I0403 18:50:37.190891 17821 net.cpp:91] Creating Layer inception_5b/pool
I0403 18:50:37.190907 17821 net.cpp:425] inception_5b/pool <- inception_5a/output_inception_5a/output_0_split_3
I0403 18:50:37.190925 17821 net.cpp:399] inception_5b/pool -> inception_5b/pool
I0403 18:50:37.191005 17821 net.cpp:141] Setting up inception_5b/pool
I0403 18:50:37.191030 17821 net.cpp:148] Top shape: 24 832 7 7 (978432)
I0403 18:50:37.191043 17821 net.cpp:156] Memory required for data: 1339843104
I0403 18:50:37.191058 17821 layer_factory.hpp:77] Creating layer inception_5b/pool_proj
I0403 18:50:37.191081 17821 net.cpp:91] Creating Layer inception_5b/pool_proj
I0403 18:50:37.191097 17821 net.cpp:425] inception_5b/pool_proj <- inception_5b/pool
I0403 18:50:37.191118 17821 net.cpp:399] inception_5b/pool_proj -> inception_5b/pool_proj
I0403 18:50:37.193424 17821 net.cpp:141] Setting up inception_5b/pool_proj
I0403 18:50:37.193454 17821 net.cpp:148] Top shape: 24 128 7 7 (150528)
I0403 18:50:37.193470 17821 net.cpp:156] Memory required for data: 1340445216
I0403 18:50:37.193488 17821 layer_factory.hpp:77] Creating layer inception_5b/relu_pool_proj
I0403 18:50:37.193506 17821 net.cpp:91] Creating Layer inception_5b/relu_pool_proj
I0403 18:50:37.193522 17821 net.cpp:425] inception_5b/relu_pool_proj <- inception_5b/pool_proj
I0403 18:50:37.193542 17821 net.cpp:386] inception_5b/relu_pool_proj -> inception_5b/pool_proj (in-place)
I0403 18:50:37.193841 17821 net.cpp:141] Setting up inception_5b/relu_pool_proj
I0403 18:50:37.193867 17821 net.cpp:148] Top shape: 24 128 7 7 (150528)
I0403 18:50:37.193882 17821 net.cpp:156] Memory required for data: 1341047328
I0403 18:50:37.193897 17821 layer_factory.hpp:77] Creating layer inception_5b/output
I0403 18:50:37.193914 17821 net.cpp:91] Creating Layer inception_5b/output
I0403 18:50:37.193944 17821 net.cpp:425] inception_5b/output <- inception_5b/1x1
I0403 18:50:37.193961 17821 net.cpp:425] inception_5b/output <- inception_5b/3x3
I0403 18:50:37.193981 17821 net.cpp:425] inception_5b/output <- inception_5b/5x5
I0403 18:50:37.194000 17821 net.cpp:425] inception_5b/output <- inception_5b/pool_proj
I0403 18:50:37.194018 17821 net.cpp:399] inception_5b/output -> inception_5b/output
I0403 18:50:37.194072 17821 net.cpp:141] Setting up inception_5b/output
I0403 18:50:37.194097 17821 net.cpp:148] Top shape: 24 1024 7 7 (1204224)
I0403 18:50:37.194113 17821 net.cpp:156] Memory required for data: 1345864224
I0403 18:50:37.194128 17821 layer_factory.hpp:77] Creating layer pool5/7x7_s1
I0403 18:50:37.194145 17821 net.cpp:91] Creating Layer pool5/7x7_s1
I0403 18:50:37.194160 17821 net.cpp:425] pool5/7x7_s1 <- inception_5b/output
I0403 18:50:37.194192 17821 net.cpp:399] pool5/7x7_s1 -> pool5/7x7_s1
I0403 18:50:37.194416 17821 net.cpp:141] Setting up pool5/7x7_s1
I0403 18:50:37.194442 17821 net.cpp:148] Top shape: 24 1024 1 1 (24576)
I0403 18:50:37.194458 17821 net.cpp:156] Memory required for data: 1345962528
I0403 18:50:37.194484 17821 layer_factory.hpp:77] Creating layer pool5/drop_7x7_s1
I0403 18:50:37.194504 17821 net.cpp:91] Creating Layer pool5/drop_7x7_s1
I0403 18:50:37.194519 17821 net.cpp:425] pool5/drop_7x7_s1 <- pool5/7x7_s1
I0403 18:50:37.194538 17821 net.cpp:386] pool5/drop_7x7_s1 -> pool5/7x7_s1 (in-place)
I0403 18:50:37.194591 17821 net.cpp:141] Setting up pool5/drop_7x7_s1
I0403 18:50:37.194614 17821 net.cpp:148] Top shape: 24 1024 1 1 (24576)
I0403 18:50:37.194628 17821 net.cpp:156] Memory required for data: 1346060832
I0403 18:50:37.194643 17821 layer_factory.hpp:77] Creating layer loss3/classifier_plantvillage
I0403 18:50:37.194661 17821 net.cpp:91] Creating Layer loss3/classifier_plantvillage
I0403 18:50:37.194677 17821 net.cpp:425] loss3/classifier_plantvillage <- pool5/7x7_s1
I0403 18:50:37.194699 17821 net.cpp:399] loss3/classifier_plantvillage -> loss3/classifier_plantvillage
I0403 18:50:37.195132 17821 net.cpp:141] Setting up loss3/classifier_plantvillage
I0403 18:50:37.195155 17821 net.cpp:148] Top shape: 24 38 (912)
I0403 18:50:37.195170 17821 net.cpp:156] Memory required for data: 1346064480
I0403 18:50:37.195188 17821 layer_factory.hpp:77] Creating layer loss3/classifier_plantvillage_loss3/classifier_plantvillage_0_split
I0403 18:50:37.195210 17821 net.cpp:91] Creating Layer loss3/classifier_plantvillage_loss3/classifier_plantvillage_0_split
I0403 18:50:37.195227 17821 net.cpp:425] loss3/classifier_plantvillage_loss3/classifier_plantvillage_0_split <- loss3/classifier_plantvillage
I0403 18:50:37.195246 17821 net.cpp:399] loss3/classifier_plantvillage_loss3/classifier_plantvillage_0_split -> loss3/classifier_plantvillage_loss3/classifier_plantvillage_0_split_0
I0403 18:50:37.195267 17821 net.cpp:399] loss3/classifier_plantvillage_loss3/classifier_plantvillage_0_split -> loss3/classifier_plantvillage_loss3/classifier_plantvillage_0_split_1
I0403 18:50:37.195288 17821 net.cpp:399] loss3/classifier_plantvillage_loss3/classifier_plantvillage_0_split -> loss3/classifier_plantvillage_loss3/classifier_plantvillage_0_split_2
I0403 18:50:37.195307 17821 net.cpp:399] loss3/classifier_plantvillage_loss3/classifier_plantvillage_0_split -> loss3/classifier_plantvillage_loss3/classifier_plantvillage_0_split_3
I0403 18:50:37.195410 17821 net.cpp:141] Setting up loss3/classifier_plantvillage_loss3/classifier_plantvillage_0_split
I0403 18:50:37.195432 17821 net.cpp:148] Top shape: 24 38 (912)
I0403 18:50:37.195448 17821 net.cpp:148] Top shape: 24 38 (912)
I0403 18:50:37.195464 17821 net.cpp:148] Top shape: 24 38 (912)
I0403 18:50:37.195479 17821 net.cpp:148] Top shape: 24 38 (912)
I0403 18:50:37.195492 17821 net.cpp:156] Memory required for data: 1346079072
I0403 18:50:37.195508 17821 layer_factory.hpp:77] Creating layer loss1/loss
I0403 18:50:37.195528 17821 net.cpp:91] Creating Layer loss1/loss
I0403 18:50:37.195545 17821 net.cpp:425] loss1/loss <- loss1/classifier_plantvillage_loss1/classifier_plantvillage_0_split_0
I0403 18:50:37.195576 17821 net.cpp:425] loss1/loss <- label_data_1_split_0
…
