…
I0403 19:27:00.560842 19911 net.cpp:313] The NetState phase (1) differed from the phase (0) specified by a rule in layer data
I0403 19:27:00.562038 19911 net.cpp:49] Initializing net from parameters: 
state {
  phase: TEST
}
layer {
  name: "data"
  type: "Data"
  top: "data"
  top: "label"
  include {
    phase: TEST
  }
  transform_param {
    mirror: false
    crop_size: 224
    mean_file: "/home/mohanty/data/final_dataset/lmdb/segmented-60-40/mean.binaryproto"
  }
  data_param {
    source: "/home/mohanty/data/final_dataset/lmdb/segmented-60-40/test_db"
    batch_size: 24
    backend: LMDB
  }
}
layer {
  name: "conv1/7x7_s2"
  type: "Convolution"
  bottom: "data"
  top: "conv1/7x7_s2"
  param {
    lr_mult: 1
    decay_mult: 1
  }
  param {
    lr_mult: 2
    decay_mult: 0
  }
  convolution_param {
    num_output: 64
    pad: 3
    kernel_size: 7
    stride: 2
    weight_filler {
      type: "xavier"
      std: 0.1
    }
    bias_filler {
      type: "constant"
      value: 0.2
    }
  }
}
layer {
  name: "conv1/relu_7x7"
  type: "ReLU"
  bottom: "conv1/7x7_s2"
  top: "conv1/7x7_s2"
}
layer {
  name: "pool1/3x3_s2"
  type: "Pooling"
  bottom: "conv1/7x7_s2"
  top: "pool1/3x3_s2"
  pooling_param {
    pool: MAX
    kernel_size: 3
    stride: 2
  }
}
layer {
  name: "pool1/norm1"
  type: "LRN"
  bottom: "pool1/3x3_s2"
  top: "pool1/norm1"
  lrn_param {
    local_size: 5
    alpha: 0.0001
    beta: 0.75
  }
}
layer {
  name: "conv2/3x3_reduce"
  type: "Convolution"
  bottom: "pool1/norm1"
  top: "conv2/3x3_reduce"
  param {
    lr_mult: 1
    decay_mult: 1
  }
  param {
    lr_mult: 2
    decay_mult: 0
  }
  convolution_param {
    num_output: 64
    kernel_size: 1
    weight_filler {
      type: "xavier"
      std: 0.1
    }
    bias_filler {
      type: "constant"
      value: 0.2
    }
  }
}
layer {
  name: "conv2/relu_3x3_reduce"
  type: "ReLU"
  bottom: "conv2/3x3_reduce"
  top: "conv2/3x3_reduce"
}
layer {
  name: "conv2/3x3"
  type: "Convolution"
  bottom: "conv2/3x3_reduce"
  top: "conv2/3x3"
  param {
    lr_mult: 1
    decay_mult: 1
  }
  param {
    lr_mult: 2
    decay_mult: 0
  }
  convolution_param {
    num_output: 192
    pad: 1
    kernel_size: 3
    weight_filler {
      type: "xavier"
      std: 0.03
    }
    bias_filler {
      type: "constant"
      value: 0.2
    }
  }
}
layer {
  name: "conv2/relu_3x3"
  type: "ReLU"
  bottom: "conv2/3x3"
  top: "conv2/3x3"
}
layer {
  name: "conv2/norm2"
  type: "LRN"
  bottom: "conv2/3x3"
  top: "conv2/norm2"
  lrn_param {
    local_size: 5
    alpha: 0.0001
    beta: 0.75
  }
}
layer {
  name: "pool2/3x3_s2"
  type: "Pooling"
  bottom: "conv2/norm2"
  top: "pool2/3x3_s2"
  pooling_param {
    pool: MAX
    kernel_size: 3
    stride: 2
  }
}
layer {
  name: "inception_3a/1x1"
  type: "Convolution"
  bottom: "pool2/3x3_s2"
  top: "inception_3a/1x1"
  param {
    lr_mult: 1
    decay_mult: 1
  }
  param {
    lr_mult: 2
    decay_mult: 0
  }
  convolution_param {
    num_output: 64
    kernel_size: 1
    weight_filler {
      type: "xavier"
      std: 0.03
    }
    bias_filler {
      type: "constant"
      value: 0.2
    }
  }
}
layer {
  name: "inception_3a/relu_1x1"
  type: "ReLU"
  bottom: "inception_3a/1x1"
  top: "inception_3a/1x1"
}
layer {
  name: "inception_3a/3x3_reduce"
  type: "Convolution"
  bottom: "pool2/3x3_s2"
  top: "inception_3a/3x3_reduce"
  param {
    lr_mult: 1
    decay_mult: 1
  }
  param {
    lr_mult: 2
    decay_mult: 0
  }
  convolution_param {
    num_output: 96
    kernel_size: 1
    weight_filler {
      type: "xavier"
      std: 0.09
    }
    bias_filler {
      type: "constant"
      value: 0.2
    }
  }
}
layer {
  name: "inception_3a/relu_3x3_reduce"
  type: "ReLU"
  bottom: "inception_3a/3x3_reduce"
  top: "inception_3a/3x3_reduce"
}
layer {
  name: "inception_3a/3x3"
  type: "Convolution"
  bottom: "inception_3a/3x3_reduce"
  top: "inception_3a/3x3"
  param {
    lr_mult: 1
    decay_mult: 1
  }
  param {
    lr_mult: 2
    decay_mult: 0
  }
  convolution_param {
    num_output: 128
    pad: 1
    kernel_size: 3
    weight_filler {
      type: "xavier"
      std: 0.03
    }
    bias_filler {
      type: "constant"
      value: 0.2
    }
  }
}
layer {
  name: "inception_3a/relu_3x3"
  type: "ReLU"
  bottom: "inception_3a/3x3"
  top: "inception_3a/3x3"
}
layer {
  name: "inception_3a/5x5_reduce"
  type: "Convolution"
  bottom: "pool2/3x3_s2"
  top: "inception_3a/5x5_reduce"
  param {
    lr_mult: 1
    decay_mult: 1
  }
  param {
    lr_mult: 2
    decay_mult: 0
  }
  convolution_param {
    num_output: 16
    kernel_size: 1
    weight_filler {
      type: "xavier"
      std: 0.2
    }
    bias_filler {
      type: "constant"
      value: 0.2
    }
  }
}
layer {
  name: "inception_3a/relu_5x5_reduce"
  type: "ReLU"
  bottom: "inception_3a/5x5_reduce"
  top: "inception_3a/5x5_reduce"
}
layer {
  name: "inception_3a/5x5"
  type: "Convolution"
  bottom: "inception_3a/5x5_reduce"
  top: "inception_3a/5x5"
  param {
    lr_mult: 1
    decay_mult: 1
  }
  param {
    lr_mult: 2
    decay_mult: 0
  }
  convolution_param {
    num_output: 32
    pad: 2
    kernel_size: 5
    weight_filler {
      type: "xavier"
      std: 0.03
    }
    bias_filler {
      type: "constant"
      value: 0.2
    }
  }
}
layer {
  name: "inception_3a/relu_5x5"
  type: "ReLU"
  bottom: "inception_3a/5x5"
  top: "inception_3a/5x5"
}
layer {
  name: "inception_3a/pool"
  type: "Pooling"
  bottom: "pool2/3x3_s2"
  top: "inception_3a/pool"
  pooling_param {
    pool: MAX
    kernel_size: 3
    stride: 1
    pad: 1
  }
}
layer {
  name: "inception_3a/pool_proj"
  type: "Convolution"
  bottom: "inception_3a/pool"
  top: "inception_3a/pool_proj"
  param {
    lr_mult: 1
    decay_mult: 1
  }
  param {
    lr_mult: 2
    decay_mult: 0
  }
  convolution_param {
    num_output: 32
    kernel_size: 1
    weight_filler {
      type: "xavier"
      std: 0.1
    }
    bias_filler {
      type: "constant"
      value: 0.2
    }
  }
}
layer {
  name: "inception_3a/relu_pool_proj"
  type: "ReLU"
  bottom: "inception_3a/pool_proj"
  top: "inception_3a/pool_proj"
}
layer {
  name: "inception_3a/output"
  type: "Concat"
  bottom: "inception_3a/1x1"
  bottom: "inception_3a/3x3"
  bottom: "inception_3a/5x5"
  bottom: "inception_3a/pool_proj"
  top: "inception_3a/output"
}
layer {
  name: "inception_3b/1x1"
  type: "Convolution"
  bottom: "inception_3a/output"
  top: "inception_3b/1x1"
  param {
    lr_mult: 1
    decay_mult: 1
  }
  param {
    lr_mult: 2
    decay_mult: 0
  }
  convolution_param {
    num_output: 128
    kernel_size: 1
    weight_filler {
      type: "xavier"
      std: 0.03
    }
    bias_filler {
      type: "constant"
      value: 0.2
    }
  }
}
layer {
  name: "inception_3b/relu_1x1"
  type: "ReLU"
  bottom: "inception_3b/1x1"
  top: "inception_3b/1x1"
}
layer {
  name: "inception_3b/3x3_reduce"
  type: "Convolution"
  bottom: "inception_3a/output"
  top: "inception_3b/3x3_reduce"
  param {
    lr_mult: 1
    decay_mult: 1
  }
  param {
    lr_mult: 2
    decay_mult: 0
  }
  convolution_param {
    num_output: 128
    kernel_size: 1
    weight_filler {
      type: "xavier"
      std: 0.09
    }
    bias_filler {
      type: "constant"
      value: 0.2
    }
  }
}
layer {
  name: "inception_3b/relu_3x3_reduce"
  type: "ReLU"
  bottom: "inception_3b/3x3_reduce"
  top: "inception_3b/3x3_reduce"
}
layer {
  name: "inception_3b/3x3"
  type: "Convolution"
  bottom: "inception_3b/3x3_reduce"
  top: "inception_3b/3x3"
  param {
    lr_mult: 1
    decay_mult: 1
  }
  param {
    lr_mult: 2
    decay_mult: 0
  }
  convolution_param {
    num_output: 192
    pad: 1
    kernel_size: 3
    weight_filler {
      type: "xavier"
      std: 0.03
    }
    bias_filler {
      type: "constant"
      value: 0.2
    }
  }
}
layer {
  name: "inception_3b/relu_3x3"
  type: "ReLU"
  bottom: "inception_3b/3x3"
  top: "inception_3b/3x3"
}
layer {
  name: "inception_3b/5x5_reduce"
  type: "Convolution"
  bottom: "inception_3a/output"
  top: "inception_3b/5x5_reduce"
  param {
    lr_mult: 1
    decay_mult: 1
  }
  param {
    lr_mult: 2
    decay_mult: 0
  }
  convolution_param {
    num_output: 32
    kernel_size: 1
    weight_filler {
      type: "xavier"
      std: 0.2
    }
    bias_filler {
      type: "constant"
      value: 0.2
    }
  }
}
layer {
  name: "inception_3b/relu_5x5_reduce"
  type: "ReLU"
  bottom: "inception_3b/5x5_reduce"
  top: "inception_3b/5x5_reduce"
}
layer {
  name: "inception_3b/5x5"
  type: "Convolution"
  bottom: "inception_3b/5x5_reduce"
  top: "inception_3b/5x5"
  param {
    lr_mult: 1
    decay_mult: 1
  }
  param {
    lr_mult: 2
    decay_mult: 0
  }
  convolution_param {
    num_output: 96
    pad: 2
    kernel_size: 5
    weight_filler {
      type: "xavier"
      std: 0.03
    }
    bias_filler {
      type: "constant"
      value: 0.2
    }
  }
}
layer {
  name: "inception_3b/relu_5x5"
  type: "ReLU"
  bottom: "inception_3b/5x5"
  top: "inception_3b/5x5"
}
layer {
  name: "inception_3b/pool"
  type: "Pooling"
  bottom: "inception_3a/output"
  top: "inception_3b/pool"
  pooling_param {
    pool: MAX
    kernel_size: 3
    stride: 1
    pad: 1
  }
}
layer {
  name: "inception_3b/pool_proj"
  type: "Convolution"
  bottom: "inception_3b/pool"
  top: "inception_3b/pool_proj"
  param {
    lr_mult: 1
    decay_mult: 1
  }
  param {
    lr_mult: 2
    decay_mult: 0
  }
  convolution_param {
    num_output: 64
    kernel_size: 1
    weight_filler {
      type: "xavier"
      std: 0.1
    }
    bias_filler {
      type: "constant"
      value: 0.2
    }
  }
}
layer {
  name: "inception_3b/relu_pool_proj"
  type: "ReLU"
  bottom: "inception_3b/pool_proj"
  top: "inception_3b/pool_proj"
}
layer {
  name: "inception_3b/output"
  type: "Concat"
  bottom: "inception_3b/1x1"
  bottom: "inception_3b/3x3"
  bottom: "inception_3b/5x5"
  bottom: "inception_3b/pool_proj"
  top: "inception_3b/output"
}
layer {
  name: "pool3/3x3_s2"
  type: "Pooling"
  bottom: "inception_3b/output"
  top: "pool3/3x3_s2"
  pooling_param {
    pool: MAX
    kernel_size: 3
    stride: 2
  }
}
layer {
  name: "inception_4a/1x1"
  type: "Convolution"
  bottom: "pool3/3x3_s2"
  top: "inception_4a/1x1"
  param {
    lr_mult: 1
    decay_mult: 1
  }
  param {
    lr_mult: 2
    decay_mult: 0
  }
  convolution_param {
    num_output: 192
    kernel_size: 1
    weight_filler {
      type: "xavier"
      std: 0.03
    }
    bias_filler {
      type: "constant"
      value: 0.2
    }
  }
}
layer {
  name: "inception_4a/relu_1x1"
  type: "ReLU"
  bottom: "inception_4a/1x1"
  top: "inception_4a/1x1"
}
layer {
  name: "inception_4a/3x3_reduce"
  type: "Convolution"
  bottom: "pool3/3x3_s2"
  top: "inception_4a/3x3_reduce"
  param {
    lr_mult: 1
    decay_mult: 1
  }
  param {
    lr_mult: 2
    decay_mult: 0
  }
  convolution_param {
    num_output: 96
    kernel_size: 1
    weight_filler {
      type: "xavier"
      std: 0.09
    }
    bias_filler {
      type: "constant"
      value: 0.2
    }
  }
}
layer {
  name: "inception_4a/relu_3x3_reduce"
  type: "ReLU"
  bottom: "inception_4a/3x3_reduce"
  top: "inception_4a/3x3_reduce"
}
layer {
  name: "inception_4a/3x3"
  type: "Convolution"
  bottom: "inception_4a/3x3_reduce"
  top: "inception_4a/3x3"
  param {
    lr_mult: 1
    decay_mult: 1
  }
  param {
    lr_mult: 2
    decay_mult: 0
  }
  convolution_param {
    num_output: 208
    pad: 1
    kernel_size: 3
    weight_filler {
      type: "xavier"
      std: 0.03
    }
    bias_filler {
      type: "constant"
      value: 0.2
    }
  }
}
layer {
  name: "inception_4a/relu_3x3"
  type: "ReLU"
  bottom: "inception_4a/3x3"
  top: "inception_4a/3x3"
}
layer {
  name: "inception_4a/5x5_reduce"
  type: "Convolution"
  bottom: "pool3/3x3_s2"
  top: "inception_4a/5x5_reduce"
  param {
    lr_mult: 1
    decay_mult: 1
  }
  param {
    lr_mult: 2
    decay_mult: 0
  }
  convolution_param {
    num_output: 16
    kernel_size: 1
    weight_filler {
      type: "xavier"
      std: 0.2
    }
    bias_filler {
      type: "constant"
      value: 0.2
    }
  }
}
layer {
  name: "inception_4a/relu_5x5_reduce"
  type: "ReLU"
  bottom: "inception_4a/5x5_reduce"
  top: "inception_4a/5x5_reduce"
}
layer {
  name: "inception_4a/5x5"
  type: "Convolution"
  bottom: "inception_4a/5x5_reduce"
  top: "inception_4a/5x5"
  param {
    lr_mult: 1
    decay_mult: 1
  }
  param {
    lr_mult: 2
    decay_mult: 0
  }
  convolution_param {
    num_output: 48
    pad: 2
    kernel_size: 5
    weight_filler {
      type: "xavier"
      std: 0.03
    }
    bias_filler {
      type: "constant"
      value: 0.2
    }
  }
}
layer {
  name: "inception_4a/relu_5x5"
  type: "ReLU"
  bottom: "inception_4a/5x5"
  top: "inception_4a/5x5"
}
layer {
  name: "inception_4a/pool"
  type: "Pooling"
  bottom: "pool3/3x3_s2"
  top: "inception_4a/pool"
  pooling_param {
    pool: MAX
    kernel_size: 3
    stride: 1
    pad: 1
  }
}
layer {
  name: "inception_4a/pool_proj"
  type: "Convolution"
  bottom: "inception_4a/pool"
  top: "inception_4a/pool_proj"
  param {
    lr_mult: 1
    decay_mult: 1
  }
  param {
    lr_mult: 2
    decay_mult: 0
  }
  convolution_param {
    num_output: 64
    kernel_size: 1
    weight_filler {
      type: "xavier"
      std: 0.1
    }
    bias_filler {
      type: "constant"
      value: 0.2
    }
  }
}
layer {
  name: "inception_4a/relu_pool_proj"
  type: "ReLU"
  bottom: "inception_4a/pool_proj"
  top: "inception_4a/pool_proj"
}
layer {
  name: "inception_4a/output"
  type: "Concat"
  bottom: "inception_4a/1x1"
  bottom: "inception_4a/3x3"
  bottom: "inception_4a/5x5"
  bottom: "inception_4a/pool_proj"
  top: "inception_4a/output"
}
layer {
  name: "loss1/ave_pool"
  type: "Pooling"
  bottom: "inception_4a/output"
  top: "loss1/ave_pool"
  pooling_param {
    pool: AVE
    kernel_size: 5
    stride: 3
  }
}
layer {
  name: "loss1/conv"
  type: "Convolution"
  bottom: "loss1/ave_pool"
  top: "loss1/conv"
  param {
    lr_mult: 1
    decay_mult: 1
  }
  param {
    lr_mult: 2
    decay_mult: 0
  }
  convolution_param {
    num_output: 128
    kernel_size: 1
    weight_filler {
      type: "xavier"
      std: 0.08
    }
    bias_filler {
      type: "constant"
      value: 0.2
    }
  }
}
layer {
  name: "loss1/relu_conv"
  type: "ReLU"
  bottom: "loss1/conv"
  top: "loss1/conv"
}
layer {
  name: "loss1/fc"
  type: "InnerProduct"
  bottom: "loss1/conv"
  top: "loss1/fc"
  param {
    lr_mult: 1
    decay_mult: 1
  }
  param {
    lr_mult: 2
    decay_mult: 0
  }
  inner_product_param {
    num_output: 1024
    weight_filler {
      type: "xavier"
      std: 0.02
    }
    bias_filler {
      type: "constant"
      value: 0.2
    }
  }
}
layer {
  name: "loss1/relu_fc"
  type: "ReLU"
  bottom: "loss1/fc"
  top: "loss1/fc"
}
layer {
  name: "loss1/drop_fc"
  type: "Dropout"
  bottom: "loss1/fc"
  top: "loss1/fc"
  dropout_param {
    dropout_ratio: 0.7
  }
}
layer {
  name: "loss1/classifier_plantvillage"
  type: "InnerProduct"
  bottom: "loss1/fc"
  top: "loss1/classifier_plantvillage"
  param {
    lr_mult: 1
    decay_mult: 1
  }
  param {
    lr_mult: 2
    decay_mult: 0
  }
  inner_product_param {
    num_output: 38
    weight_filler {
      type: "xavier"
      std: 0.0009765625
    }
    bias_filler {
      type: "constant"
      value: 0
    }
  }
}
layer {
  name: "inception_4b/1x1"
  type: "Convolution"
  bottom: "inception_4a/output"
  top: "inception_4b/1x1"
  param {
    lr_mult: 1
    decay_mult: 1
  }
  param {
    lr_mult: 2
    decay_mult: 0
  }
  convolution_param {
    num_output: 160
    kernel_size: 1
    weight_filler {
      type: "xavier"
      std: 0.03
    }
    bias_filler {
      type: "constant"
      value: 0.2
    }
  }
}
layer {
  name: "inception_4b/relu_1x1"
  type: "ReLU"
  bottom: "inception_4b/1x1"
  top: "inception_4b/1x1"
}
layer {
  name: "inception_4b/3x3_reduce"
  type: "Convolution"
  bottom: "inception_4a/output"
  top: "inception_4b/3x3_reduce"
  param {
    lr_mult: 1
    decay_mult: 1
  }
  param {
    lr_mult: 2
    decay_mult: 0
  }
  convolution_param {
    num_output: 112
    kernel_size: 1
    weight_filler {
      type: "xavier"
      std: 0.09
    }
    bias_filler {
      type: "constant"
      value: 0.2
    }
  }
}
layer {
  name: "inception_4b/relu_3x3_reduce"
  type: "ReLU"
  bottom: "inception_4b/3x3_reduce"
  top: "inception_4b/3x3_reduce"
}
layer {
  name: "inception_4b/3x3"
  type: "Convolution"
  bottom: "inception_4b/3x3_reduce"
  top: "inception_4b/3x3"
  param {
    lr_mult: 1
    decay_mult: 1
  }
  param {
    lr_mult: 2
    decay_mult: 0
  }
  convolution_param {
    num_output: 224
    pad: 1
    kernel_size: 3
    weight_filler {
      type: "xavier"
      std: 0.03
    }
    bias_filler {
      type: "constant"
      value: 0.2
    }
  }
}
layer {
  name: "inception_4b/relu_3x3"
  type: "ReLU"
  bottom: "inception_4b/3x3"
  top: "inception_4b/3x3"
}
layer {
  name: "inception_4b/5x5_reduce"
  type: "Convolution"
  bottom: "inception_4a/output"
  top: "inception_4b/5x5_reduce"
  param {
    lr_mult: 1
    decay_mult: 1
  }
  param {
    lr_mult: 2
    decay_mult: 0
  }
  convolution_param {
    num_output: 24
    kernel_size: 1
    weight_filler {
      type: "xavier"
      std: 0.2
    }
    bias_filler {
      type: "constant"
      value: 0.2
    }
  }
}
layer {
  name: "inception_4b/relu_5x5_reduce"
  type: "ReLU"
  bottom: "inception_4b/5x5_reduce"
  top: "inception_4b/5x5_reduce"
}
layer {
  name: "inception_4b/5x5"
  type: "Convolution"
  bottom: "inception_4b/5x5_reduce"
  top: "inception_4b/5x5"
  param {
    lr_mult: 1
    decay_mult: 1
  }
  param {
    lr_mult: 2
    decay_mult: 0
  }
  convolution_param {
    num_output: 64
    pad: 2
    kernel_size: 5
    weight_filler {
      type: "xavier"
      std: 0.03
    }
    bias_filler {
      type: "constant"
      value: 0.2
    }
  }
}
layer {
  name: "inception_4b/relu_5x5"
  type: "ReLU"
  bottom: "inception_4b/5x5"
  top: "inception_4b/5x5"
}
layer {
  name: "inception_4b/pool"
  type: "Pooling"
  bottom: "inception_4a/output"
  top: "inception_4b/pool"
  pooling_param {
    pool: MAX
    kernel_size: 3
    stride: 1
    pad: 1
  }
}
layer {
  name: "inception_4b/pool_proj"
  type: "Convolution"
  bottom: "inception_4b/pool"
  top: "inception_4b/pool_proj"
  param {
    lr_mult: 1
    decay_mult: 1
  }
  param {
    lr_mult: 2
    decay_mult: 0
  }
  convolution_param {
    num_output: 64
    kernel_size: 1
    weight_filler {
      type: "xavier"
      std: 0.1
    }
    bias_filler {
      type: "constant"
      value: 0.2
    }
  }
}
layer {
  name: "inception_4b/relu_pool_proj"
  type: "ReLU"
  bottom: "inception_4b/pool_proj"
  top: "inception_4b/pool_proj"
}
layer {
  name: "inception_4b/output"
  type: "Concat"
  bottom: "inception_4b/1x1"
  bottom: "inception_4b/3x3"
  bottom: "inception_4b/5x5"
  bottom: "inception_4b/pool_proj"
  top: "inception_4b/output"
}
layer {
  name: "inception_4c/1x1"
  type: "Convolution"
  bottom: "inception_4b/output"
  top: "inception_4c/1x1"
  param {
    lr_mult: 1
    decay_mult: 1
  }
  param {
    lr_mult: 2
    decay_mult: 0
  }
  convolution_param {
    num_output: 128
    kernel_size: 1
    weight_filler {
      type: "xavier"
      std: 0.03
    }
    bias_filler {
      type: "constant"
      value: 0.2
    }
  }
}
layer {
  name: "inception_4c/relu_1x1"
  type: "ReLU"
  bottom: "inception_4c/1x1"
  top: "inception_4c/1x1"
}
layer {
  name: "inception_4c/3x3_reduce"
  type: "Convolution"
  bottom: "inception_4b/output"
  top: "inception_4c/3x3_reduce"
  param {
    lr_mult: 1
    decay_mult: 1
  }
  param {
    lr_mult: 2
    decay_mult: 0
  }
  convolution_param {
    num_output: 128
    kernel_size: 1
    weight_filler {
      type: "xavier"
      std: 0.09
    }
    bias_filler {
      type: "constant"
      value: 0.2
    }
  }
}
layer {
  name: "inception_4c/relu_3x3_reduce"
  type: "ReLU"
  bottom: "inception_4c/3x3_reduce"
  top: "inception_4c/3x3_reduce"
}
layer {
  name: "inception_4c/3x3"
  type: "Convolution"
  bottom: "inception_4c/3x3_reduce"
  top: "inception_4c/3x3"
  param {
    lr_mult: 1
    decay_mult: 1
  }
  param {
    lr_mult: 2
    decay_mult: 0
  }
  convolution_param {
    num_output: 256
    pad: 1
    kernel_size: 3
    weight_filler {
      type: "xavier"
      std: 0.03
    }
    bias_filler {
      type: "constant"
      value: 0.2
    }
  }
}
layer {
  name: "inception_4c/relu_3x3"
  type: "ReLU"
  bottom: "inception_4c/3x3"
  top: "inception_4c/3x3"
}
layer {
  name: "inception_4c/5x5_reduce"
  type: "Convolution"
  bottom: "inception_4b/output"
  top: "inception_4c/5x5_reduce"
  param {
    lr_mult: 1
    decay_mult: 1
  }
  param {
    lr_mult: 2
    decay_mult: 0
  }
  convolution_param {
    num_output: 24
    kernel_size: 1
    weight_filler {
      type: "xavier"
      std: 0.2
    }
    bias_filler {
      type: "constant"
      value: 0.2
    }
  }
}
layer {
  name: "inception_4c/relu_5x5_reduce"
  type: "ReLU"
  bottom: "inception_4c/5x5_reduce"
  top: "inception_4c/5x5_reduce"
}
layer {
  name: "inception_4c/5x5"
  type: "Convolution"
  bottom: "inception_4c/5x5_reduce"
  top: "inception_4c/5x5"
  param {
    lr_mult: 1
    decay_mult: 1
  }
  param {
    lr_mult: 2
    decay_mult: 0
  }
  convolution_param {
    num_output: 64
    pad: 2
    kernel_size: 5
    weight_filler {
      type: "xavier"
      std: 0.03
    }
    bias_filler {
      type: "constant"
      value: 0.2
    }
  }
}
layer {
  name: "inception_4c/relu_5x5"
  type: "ReLU"
  bottom: "inception_4c/5x5"
  top: "inception_4c/5x5"
}
layer {
  name: "inception_4c/pool"
  type: "Pooling"
  bottom: "inception_4b/output"
  top: "inception_4c/pool"
  pooling_param {
    pool: MAX
    kernel_size: 3
    stride: 1
    pad: 1
  }
}
layer {
  name: "inception_4c/pool_proj"
  type: "Convolution"
  bottom: "inception_4c/pool"
  top: "inception_4c/pool_proj"
  param {
    lr_mult: 1
    decay_mult: 1
  }
  param {
    lr_mult: 2
    decay_mult: 0
  }
  convolution_param {
    num_output: 64
    kernel_size: 1
    weight_filler {
      type: "xavier"
      std: 0.1
    }
    bias_filler {
      type: "constant"
      value: 0.2
    }
  }
}
layer {
  name: "inception_4c/relu_pool_proj"
  type: "ReLU"
  bottom: "inception_4c/pool_proj"
  top: "inception_4c/pool_proj"
}
layer {
  name: "inception_4c/output"
  type: "Concat"
  bottom: "inception_4c/1x1"
  bottom: "inception_4c/3x3"
  bottom: "inception_4c/5x5"
  bottom: "inception_4c/pool_proj"
  top: "inception_4c/output"
}
layer {
  name: "inception_4d/1x1"
  type: "Convolution"
  bottom: "inception_4c/output"
  top: "inception_4d/1x1"
  param {
    lr_mult: 1
    decay_mult: 1
  }
  param {
    lr_mult: 2
    decay_mult: 0
  }
  convolution_param {
    num_output: 112
    kernel_size: 1
    weight_filler {
      type: "xavier"
      std: 0.03
    }
    bias_filler {
      type: "constant"
      value: 0.2
    }
  }
}
layer {
  name: "inception_4d/relu_1x1"
  type: "ReLU"
  bottom: "inception_4d/1x1"
  top: "inception_4d/1x1"
}
layer {
  name: "inception_4d/3x3_reduce"
  type: "Convolution"
  bottom: "inception_4c/output"
  top: "inception_4d/3x3_reduce"
  param {
    lr_mult: 1
    decay_mult: 1
  }
  param {
    lr_mult: 2
    decay_mult: 0
  }
  convolution_param {
    num_output: 144
    kernel_size: 1
    weight_filler {
      type: "xavier"
      std: 0.09
    }
    bias_filler {
      type: "constant"
      value: 0.2
    }
  }
}
layer {
  name: "inception_4d/relu_3x3_reduce"
  type: "ReLU"
  bottom: "inception_4d/3x3_reduce"
  top: "inception_4d/3x3_reduce"
}
layer {
  name: "inception_4d/3x3"
  type: "Convolution"
  bottom: "inception_4d/3x3_reduce"
  top: "inception_4d/3x3"
  param {
    lr_mult: 1
    decay_mult: 1
  }
  param {
    lr_mult: 2
    decay_mult: 0
  }
  convolution_param {
    num_output: 288
    pad: 1
    kernel_size: 3
    weight_filler {
      type: "xavier"
      std: 0.03
    }
    bias_filler {
      type: "constant"
      value: 0.2
    }
  }
}
layer {
  name: "inception_4d/relu_3x3"
  type: "ReLU"
  bottom: "inception_4d/3x3"
  top: "inception_4d/3x3"
}
layer {
  name: "inception_4d/5x5_reduce"
  type: "Convolution"
  bottom: "inception_4c/output"
  top: "inception_4d/5x5_reduce"
  param {
    lr_mult: 1
    decay_mult: 1
  }
  param {
    lr_mult: 2
    decay_mult: 0
  }
  convolution_param {
    num_output: 32
    kernel_size: 1
    weight_filler {
      type: "xavier"
      std: 0.2
    }
    bias_filler {
      type: "constant"
      value: 0.2
    }
  }
}
layer {
  name: "inception_4d/relu_5x5_reduce"
  type: "ReLU"
  bottom: "inception_4d/5x5_reduce"
  top: "inception_4d/5x5_reduce"
}
layer {
  name: "inception_4d/5x5"
  type: "Convolution"
  bottom: "inception_4d/5x5_reduce"
  top: "inception_4d/5x5"
  param {
    lr_mult: 1
    decay_mult: 1
  }
  param {
    lr_mult: 2
    decay_mult: 0
  }
  convolution_param {
    num_output: 64
    pad: 2
    kernel_size: 5
    weight_filler {
      type: "xavier"
      std: 0.03
    }
    bias_filler {
      type: "constant"
      value: 0.2
    }
  }
}
layer {
  name: "inception_4d/relu_5x5"
  type: "ReLU"
  bottom: "inception_4d/5x5"
  top: "inception_4d/5x5"
}
layer {
  name: "inception_4d/pool"
  type: "Pooling"
  bottom: "inception_4c/output"
  top: "inception_4d/pool"
  pooling_param {
    pool: MAX
    kernel_size: 3
    stride: 1
    pad: 1
  }
}
layer {
  name: "inception_4d/pool_proj"
  type: "Convolution"
  bottom: "inception_4d/pool"
  top: "inception_4d/pool_proj"
  param {
    lr_mult: 1
    decay_mult: 1
  }
  param {
    lr_mult: 2
    decay_mult: 0
  }
  convolution_param {
    num_output: 64
    kernel_size: 1
    weight_filler {
      type: "xavier"
      std: 0.1
    }
    bias_filler {
      type: "constant"
      value: 0.2
    }
  }
}
layer {
  name: "inception_4d/relu_pool_proj"
  type: "ReLU"
  bottom: "inception_4d/pool_proj"
  top: "inception_4d/pool_proj"
}
layer {
  name: "inception_4d/output"
  type: "Concat"
  bottom: "inception_4d/1x1"
  bottom: "inception_4d/3x3"
  bottom: "inception_4d/5x5"
  bottom: "inception_4d/pool_proj"
  top: "inception_4d/output"
}
layer {
  name: "loss2/ave_pool"
  type: "Pooling"
  bottom: "inception_4d/output"
  top: "loss2/ave_pool"
  pooling_param {
    pool: AVE
    kernel_size: 5
    stride: 3
  }
}
layer {
  name: "loss2/conv"
  type: "Convolution"
  bottom: "loss2/ave_pool"
  top: "loss2/conv"
  param {
    lr_mult: 1
    decay_mult: 1
  }
  param {
    lr_mult: 2
    decay_mult: 0
  }
  convolution_param {
    num_output: 128
    kernel_size: 1
    weight_filler {
      type: "xavier"
      std: 0.08
    }
    bias_filler {
      type: "constant"
      value: 0.2
    }
  }
}
layer {
  name: "loss2/relu_conv"
  type: "ReLU"
  bottom: "loss2/conv"
  top: "loss2/conv"
}
layer {
  name: "loss2/fc"
  type: "InnerProduct"
  bottom: "loss2/conv"
  top: "loss2/fc"
  param {
    lr_mult: 1
    decay_mult: 1
  }
  param {
    lr_mult: 2
    decay_mult: 0
  }
  inner_product_param {
    num_output: 1024
    weight_filler {
      type: "xavier"
      std: 0.02
    }
    bias_filler {
      type: "constant"
      value: 0.2
    }
  }
}
layer {
  name: "loss2/relu_fc"
  type: "ReLU"
  bottom: "loss2/fc"
  top: "loss2/fc"
}
layer {
  name: "loss2/drop_fc"
  type: "Dropout"
  bottom: "loss2/fc"
  top: "loss2/fc"
  dropout_param {
    dropout_ratio: 0.7
  }
}
layer {
  name: "loss2/classifier_plantvillage"
  type: "InnerProduct"
  bottom: "loss2/fc"
  top: "loss2/classifier_plantvillage"
  param {
    lr_mult: 1
    decay_mult: 1
  }
  param {
    lr_mult: 2
    decay_mult: 0
  }
  inner_product_param {
    num_output: 38
    weight_filler {
      type: "xavier"
      std: 0.0009765625
    }
    bias_filler {
      type: "constant"
      value: 0
    }
  }
}
layer {
  name: "inception_4e/1x1"
  type: "Convolution"
  bottom: "inception_4d/output"
  top: "inception_4e/1x1"
  param {
    lr_mult: 1
    decay_mult: 1
  }
  param {
    lr_mult: 2
    decay_mult: 0
  }
  convolution_param {
    num_output: 256
    kernel_size: 1
    weight_filler {
      type: "xavier"
      std: 0.03
    }
    bias_filler {
      type: "constant"
      value: 0.2
    }
  }
}
layer {
  name: "inception_4e/relu_1x1"
  type: "ReLU"
  bottom: "inception_4e/1x1"
  top: "inception_4e/1x1"
}
layer {
  name: "inception_4e/3x3_reduce"
  type: "Convolution"
  bottom: "inception_4d/output"
  top: "inception_4e/3x3_reduce"
  param {
    lr_mult: 1
    decay_mult: 1
  }
  param {
    lr_mult: 2
    decay_mult: 0
  }
  convolution_param {
    num_output: 160
    kernel_size: 1
    weight_filler {
      type: "xavier"
      std: 0.09
    }
    bias_filler {
      type: "constant"
      value: 0.2
    }
  }
}
layer {
  name: "inception_4e/relu_3x3_reduce"
  type: "ReLU"
  bottom: "inception_4e/3x3_reduce"
  top: "inception_4e/3x3_reduce"
}
layer {
  name: "inception_4e/3x3"
  type: "Convolution"
  bottom: "inception_4e/3x3_reduce"
  top: "inception_4e/3x3"
  param {
    lr_mult: 1
    decay_mult: 1
  }
  param {
    lr_mult: 2
    decay_mult: 0
  }
  convolution_param {
    num_output: 320
    pad: 1
    kernel_size: 3
    weight_filler {
      type: "xavier"
      std: 0.03
    }
    bias_filler {
      type: "constant"
      value: 0.2
    }
  }
}
layer {
  name: "inception_4e/relu_3x3"
  type: "ReLU"
  bottom: "inception_4e/3x3"
  top: "inception_4e/3x3"
}
layer {
  name: "inception_4e/5x5_reduce"
  type: "Convolution"
  bottom: "inception_4d/output"
  top: "inception_4e/5x5_reduce"
  param {
    lr_mult: 1
    decay_mult: 1
  }
  param {
    lr_mult: 2
    decay_mult: 0
  }
  convolution_param {
    num_output: 32
    kernel_size: 1
    weight_filler {
      type: "xavier"
      std: 0.2
    }
    bias_filler {
      type: "constant"
      value: 0.2
    }
  }
}
layer {
  name: "inception_4e/relu_5x5_reduce"
  type: "ReLU"
  bottom: "inception_4e/5x5_reduce"
  top: "inception_4e/5x5_reduce"
}
layer {
  name: "inception_4e/5x5"
  type: "Convolution"
  bottom: "inception_4e/5x5_reduce"
  top: "inception_4e/
I0403 19:27:00.563299 19911 layer_factory.hpp:77] Creating layer data
I0403 19:27:00.563905 19911 net.cpp:91] Creating Layer data
I0403 19:27:00.563938 19911 net.cpp:399] data -> data
I0403 19:27:00.563997 19911 net.cpp:399] data -> label
I0403 19:27:00.564036 19911 data_transformer.cpp:25] Loading mean file from: /home/mohanty/data/final_dataset/lmdb/segmented-60-40/mean.binaryproto
I0403 19:27:00.565212 19914 db_lmdb.cpp:38] Opened lmdb /home/mohanty/data/final_dataset/lmdb/segmented-60-40/test_db
I0403 19:27:00.576915 19911 data_layer.cpp:41] output data size: 24,3,224,224
I0403 19:27:00.604511 19911 net.cpp:141] Setting up data
I0403 19:27:00.604598 19911 net.cpp:148] Top shape: 24 3 224 224 (3612672)
I0403 19:27:00.604620 19911 net.cpp:148] Top shape: 24 (24)
I0403 19:27:00.604636 19911 net.cpp:156] Memory required for data: 14450784
I0403 19:27:00.604665 19911 layer_factory.hpp:77] Creating layer label_data_1_split
I0403 19:27:00.604693 19911 net.cpp:91] Creating Layer label_data_1_split
I0403 19:27:00.604712 19911 net.cpp:425] label_data_1_split <- label
I0403 19:27:00.604744 19911 net.cpp:399] label_data_1_split -> label_data_1_split_0
I0403 19:27:00.604774 19911 net.cpp:399] label_data_1_split -> label_data_1_split_1
I0403 19:27:00.604796 19911 net.cpp:399] label_data_1_split -> label_data_1_split_2
I0403 19:27:00.604817 19911 net.cpp:399] label_data_1_split -> label_data_1_split_3
I0403 19:27:00.604838 19911 net.cpp:399] label_data_1_split -> label_data_1_split_4
I0403 19:27:00.604861 19911 net.cpp:399] label_data_1_split -> label_data_1_split_5
I0403 19:27:00.604881 19911 net.cpp:399] label_data_1_split -> label_data_1_split_6
I0403 19:27:00.604902 19911 net.cpp:399] label_data_1_split -> label_data_1_split_7
I0403 19:27:00.604923 19911 net.cpp:399] label_data_1_split -> label_data_1_split_8
I0403 19:27:00.604943 19911 net.cpp:399] label_data_1_split -> label_data_1_split_9
I0403 19:27:00.605072 19911 net.cpp:141] Setting up label_data_1_split
I0403 19:27:00.605098 19911 net.cpp:148] Top shape: 24 (24)
I0403 19:27:00.605115 19911 net.cpp:148] Top shape: 24 (24)
I0403 19:27:00.605132 19911 net.cpp:148] Top shape: 24 (24)
I0403 19:27:00.605149 19911 net.cpp:148] Top shape: 24 (24)
I0403 19:27:00.605165 19911 net.cpp:148] Top shape: 24 (24)
I0403 19:27:00.605182 19911 net.cpp:148] Top shape: 24 (24)
I0403 19:27:00.605200 19911 net.cpp:148] Top shape: 24 (24)
I0403 19:27:00.605216 19911 net.cpp:148] Top shape: 24 (24)
I0403 19:27:00.605232 19911 net.cpp:148] Top shape: 24 (24)
I0403 19:27:00.605248 19911 net.cpp:148] Top shape: 24 (24)
I0403 19:27:00.605295 19911 net.cpp:156] Memory required for data: 14451744
I0403 19:27:00.605312 19911 layer_factory.hpp:77] Creating layer conv1/7x7_s2
I0403 19:27:00.605345 19911 net.cpp:91] Creating Layer conv1/7x7_s2
I0403 19:27:00.605365 19911 net.cpp:425] conv1/7x7_s2 <- data
I0403 19:27:00.605386 19911 net.cpp:399] conv1/7x7_s2 -> conv1/7x7_s2
I0403 19:27:00.746121 19911 net.cpp:141] Setting up conv1/7x7_s2
I0403 19:27:00.746208 19911 net.cpp:148] Top shape: 24 64 112 112 (19267584)
I0403 19:27:00.746227 19911 net.cpp:156] Memory required for data: 91522080
I0403 19:27:00.746256 19911 layer_factory.hpp:77] Creating layer conv1/relu_7x7
I0403 19:27:00.746282 19911 net.cpp:91] Creating Layer conv1/relu_7x7
I0403 19:27:00.746299 19911 net.cpp:425] conv1/relu_7x7 <- conv1/7x7_s2
I0403 19:27:00.746317 19911 net.cpp:386] conv1/relu_7x7 -> conv1/7x7_s2 (in-place)
I0403 19:27:00.746564 19911 net.cpp:141] Setting up conv1/relu_7x7
I0403 19:27:00.746590 19911 net.cpp:148] Top shape: 24 64 112 112 (19267584)
I0403 19:27:00.746606 19911 net.cpp:156] Memory required for data: 168592416
I0403 19:27:00.746621 19911 layer_factory.hpp:77] Creating layer pool1/3x3_s2
I0403 19:27:00.746645 19911 net.cpp:91] Creating Layer pool1/3x3_s2
I0403 19:27:00.746662 19911 net.cpp:425] pool1/3x3_s2 <- conv1/7x7_s2
I0403 19:27:00.746680 19911 net.cpp:399] pool1/3x3_s2 -> pool1/3x3_s2
I0403 19:27:00.746753 19911 net.cpp:141] Setting up pool1/3x3_s2
I0403 19:27:00.746776 19911 net.cpp:148] Top shape: 24 64 56 56 (4816896)
I0403 19:27:00.746791 19911 net.cpp:156] Memory required for data: 187860000
I0403 19:27:00.746805 19911 layer_factory.hpp:77] Creating layer pool1/norm1
I0403 19:27:00.746829 19911 net.cpp:91] Creating Layer pool1/norm1
I0403 19:27:00.746847 19911 net.cpp:425] pool1/norm1 <- pool1/3x3_s2
I0403 19:27:00.746865 19911 net.cpp:399] pool1/norm1 -> pool1/norm1
I0403 19:27:00.747145 19911 net.cpp:141] Setting up pool1/norm1
I0403 19:27:00.747171 19911 net.cpp:148] Top shape: 24 64 56 56 (4816896)
I0403 19:27:00.747187 19911 net.cpp:156] Memory required for data: 207127584
I0403 19:27:00.747202 19911 layer_factory.hpp:77] Creating layer conv2/3x3_reduce
I0403 19:27:00.747226 19911 net.cpp:91] Creating Layer conv2/3x3_reduce
I0403 19:27:00.747243 19911 net.cpp:425] conv2/3x3_reduce <- pool1/norm1
I0403 19:27:00.747262 19911 net.cpp:399] conv2/3x3_reduce -> conv2/3x3_reduce
I0403 19:27:00.748569 19911 net.cpp:141] Setting up conv2/3x3_reduce
I0403 19:27:00.748596 19911 net.cpp:148] Top shape: 24 64 56 56 (4816896)
I0403 19:27:00.748612 19911 net.cpp:156] Memory required for data: 226395168
I0403 19:27:00.748632 19911 layer_factory.hpp:77] Creating layer conv2/relu_3x3_reduce
I0403 19:27:00.748651 19911 net.cpp:91] Creating Layer conv2/relu_3x3_reduce
I0403 19:27:00.748667 19911 net.cpp:425] conv2/relu_3x3_reduce <- conv2/3x3_reduce
I0403 19:27:00.748685 19911 net.cpp:386] conv2/relu_3x3_reduce -> conv2/3x3_reduce (in-place)
I0403 19:27:00.748958 19911 net.cpp:141] Setting up conv2/relu_3x3_reduce
I0403 19:27:00.748985 19911 net.cpp:148] Top shape: 24 64 56 56 (4816896)
I0403 19:27:00.748999 19911 net.cpp:156] Memory required for data: 245662752
I0403 19:27:00.749016 19911 layer_factory.hpp:77] Creating layer conv2/3x3
I0403 19:27:00.749039 19911 net.cpp:91] Creating Layer conv2/3x3
I0403 19:27:00.749058 19911 net.cpp:425] conv2/3x3 <- conv2/3x3_reduce
I0403 19:27:00.749078 19911 net.cpp:399] conv2/3x3 -> conv2/3x3
I0403 19:27:00.751276 19911 net.cpp:141] Setting up conv2/3x3
I0403 19:27:00.751305 19911 net.cpp:148] Top shape: 24 192 56 56 (14450688)
I0403 19:27:00.751322 19911 net.cpp:156] Memory required for data: 303465504
I0403 19:27:00.751343 19911 layer_factory.hpp:77] Creating layer conv2/relu_3x3
I0403 19:27:00.751363 19911 net.cpp:91] Creating Layer conv2/relu_3x3
I0403 19:27:00.751380 19911 net.cpp:425] conv2/relu_3x3 <- conv2/3x3
I0403 19:27:00.751397 19911 net.cpp:386] conv2/relu_3x3 -> conv2/3x3 (in-place)
I0403 19:27:00.751565 19911 net.cpp:141] Setting up conv2/relu_3x3
I0403 19:27:00.751590 19911 net.cpp:148] Top shape: 24 192 56 56 (14450688)
I0403 19:27:00.751633 19911 net.cpp:156] Memory required for data: 361268256
I0403 19:27:00.751649 19911 layer_factory.hpp:77] Creating layer conv2/norm2
I0403 19:27:00.751670 19911 net.cpp:91] Creating Layer conv2/norm2
I0403 19:27:00.751688 19911 net.cpp:425] conv2/norm2 <- conv2/3x3
I0403 19:27:00.751706 19911 net.cpp:399] conv2/norm2 -> conv2/norm2
I0403 19:27:00.752004 19911 net.cpp:141] Setting up conv2/norm2
I0403 19:27:00.752032 19911 net.cpp:148] Top shape: 24 192 56 56 (14450688)
I0403 19:27:00.752048 19911 net.cpp:156] Memory required for data: 419071008
I0403 19:27:00.752063 19911 layer_factory.hpp:77] Creating layer pool2/3x3_s2
I0403 19:27:00.752081 19911 net.cpp:91] Creating Layer pool2/3x3_s2
I0403 19:27:00.752096 19911 net.cpp:425] pool2/3x3_s2 <- conv2/norm2
I0403 19:27:00.752115 19911 net.cpp:399] pool2/3x3_s2 -> pool2/3x3_s2
I0403 19:27:00.752166 19911 net.cpp:141] Setting up pool2/3x3_s2
I0403 19:27:00.752189 19911 net.cpp:148] Top shape: 24 192 28 28 (3612672)
I0403 19:27:00.752205 19911 net.cpp:156] Memory required for data: 433521696
I0403 19:27:00.752219 19911 layer_factory.hpp:77] Creating layer pool2/3x3_s2_pool2/3x3_s2_0_split
I0403 19:27:00.752239 19911 net.cpp:91] Creating Layer pool2/3x3_s2_pool2/3x3_s2_0_split
I0403 19:27:00.752255 19911 net.cpp:425] pool2/3x3_s2_pool2/3x3_s2_0_split <- pool2/3x3_s2
I0403 19:27:00.752272 19911 net.cpp:399] pool2/3x3_s2_pool2/3x3_s2_0_split -> pool2/3x3_s2_pool2/3x3_s2_0_split_0
I0403 19:27:00.752291 19911 net.cpp:399] pool2/3x3_s2_pool2/3x3_s2_0_split -> pool2/3x3_s2_pool2/3x3_s2_0_split_1
I0403 19:27:00.752311 19911 net.cpp:399] pool2/3x3_s2_pool2/3x3_s2_0_split -> pool2/3x3_s2_pool2/3x3_s2_0_split_2
I0403 19:27:00.752333 19911 net.cpp:399] pool2/3x3_s2_pool2/3x3_s2_0_split -> pool2/3x3_s2_pool2/3x3_s2_0_split_3
I0403 19:27:00.752404 19911 net.cpp:141] Setting up pool2/3x3_s2_pool2/3x3_s2_0_split
I0403 19:27:00.752426 19911 net.cpp:148] Top shape: 24 192 28 28 (3612672)
I0403 19:27:00.752442 19911 net.cpp:148] Top shape: 24 192 28 28 (3612672)
I0403 19:27:00.752459 19911 net.cpp:148] Top shape: 24 192 28 28 (3612672)
I0403 19:27:00.752473 19911 net.cpp:148] Top shape: 24 192 28 28 (3612672)
I0403 19:27:00.752487 19911 net.cpp:156] Memory required for data: 491324448
I0403 19:27:00.752501 19911 layer_factory.hpp:77] Creating layer inception_3a/1x1
I0403 19:27:00.752523 19911 net.cpp:91] Creating Layer inception_3a/1x1
I0403 19:27:00.752542 19911 net.cpp:425] inception_3a/1x1 <- pool2/3x3_s2_pool2/3x3_s2_0_split_0
I0403 19:27:00.752562 19911 net.cpp:399] inception_3a/1x1 -> inception_3a/1x1
I0403 19:27:00.754022 19911 net.cpp:141] Setting up inception_3a/1x1
I0403 19:27:00.754050 19911 net.cpp:148] Top shape: 24 64 28 28 (1204224)
I0403 19:27:00.754066 19911 net.cpp:156] Memory required for data: 496141344
I0403 19:27:00.754084 19911 layer_factory.hpp:77] Creating layer inception_3a/relu_1x1
I0403 19:27:00.754102 19911 net.cpp:91] Creating Layer inception_3a/relu_1x1
I0403 19:27:00.754117 19911 net.cpp:425] inception_3a/relu_1x1 <- inception_3a/1x1
I0403 19:27:00.754137 19911 net.cpp:386] inception_3a/relu_1x1 -> inception_3a/1x1 (in-place)
I0403 19:27:00.754305 19911 net.cpp:141] Setting up inception_3a/relu_1x1
I0403 19:27:00.754329 19911 net.cpp:148] Top shape: 24 64 28 28 (1204224)
I0403 19:27:00.754344 19911 net.cpp:156] Memory required for data: 500958240
I0403 19:27:00.754359 19911 layer_factory.hpp:77] Creating layer inception_3a/3x3_reduce
I0403 19:27:00.754380 19911 net.cpp:91] Creating Layer inception_3a/3x3_reduce
I0403 19:27:00.754397 19911 net.cpp:425] inception_3a/3x3_reduce <- pool2/3x3_s2_pool2/3x3_s2_0_split_1
I0403 19:27:00.754418 19911 net.cpp:399] inception_3a/3x3_reduce -> inception_3a/3x3_reduce
I0403 19:27:00.756036 19911 net.cpp:141] Setting up inception_3a/3x3_reduce
I0403 19:27:00.756064 19911 net.cpp:148] Top shape: 24 96 28 28 (1806336)
I0403 19:27:00.756080 19911 net.cpp:156] Memory required for data: 508183584
I0403 19:27:00.756100 19911 layer_factory.hpp:77] Creating layer inception_3a/relu_3x3_reduce
I0403 19:27:00.756135 19911 net.cpp:91] Creating Layer inception_3a/relu_3x3_reduce
I0403 19:27:00.756155 19911 net.cpp:425] inception_3a/relu_3x3_reduce <- inception_3a/3x3_reduce
I0403 19:27:00.756171 19911 net.cpp:386] inception_3a/relu_3x3_reduce -> inception_3a/3x3_reduce (in-place)
I0403 19:27:00.756342 19911 net.cpp:141] Setting up inception_3a/relu_3x3_reduce
I0403 19:27:00.756369 19911 net.cpp:148] Top shape: 24 96 28 28 (1806336)
I0403 19:27:00.756384 19911 net.cpp:156] Memory required for data: 515408928
I0403 19:27:00.756399 19911 layer_factory.hpp:77] Creating layer inception_3a/3x3
I0403 19:27:00.756422 19911 net.cpp:91] Creating Layer inception_3a/3x3
I0403 19:27:00.756439 19911 net.cpp:425] inception_3a/3x3 <- inception_3a/3x3_reduce
I0403 19:27:00.756458 19911 net.cpp:399] inception_3a/3x3 -> inception_3a/3x3
I0403 19:27:00.758036 19911 net.cpp:141] Setting up inception_3a/3x3
I0403 19:27:00.758064 19911 net.cpp:148] Top shape: 24 128 28 28 (2408448)
I0403 19:27:00.758079 19911 net.cpp:156] Memory required for data: 525042720
I0403 19:27:00.758096 19911 layer_factory.hpp:77] Creating layer inception_3a/relu_3x3
I0403 19:27:00.758116 19911 net.cpp:91] Creating Layer inception_3a/relu_3x3
I0403 19:27:00.758131 19911 net.cpp:425] inception_3a/relu_3x3 <- inception_3a/3x3
I0403 19:27:00.758152 19911 net.cpp:386] inception_3a/relu_3x3 -> inception_3a/3x3 (in-place)
I0403 19:27:00.758414 19911 net.cpp:141] Setting up inception_3a/relu_3x3
I0403 19:27:00.758437 19911 net.cpp:148] Top shape: 24 128 28 28 (2408448)
I0403 19:27:00.758452 19911 net.cpp:156] Memory required for data: 534676512
I0403 19:27:00.758467 19911 layer_factory.hpp:77] Creating layer inception_3a/5x5_reduce
I0403 19:27:00.758489 19911 net.cpp:91] Creating Layer inception_3a/5x5_reduce
I0403 19:27:00.758507 19911 net.cpp:425] inception_3a/5x5_reduce <- pool2/3x3_s2_pool2/3x3_s2_0_split_2
I0403 19:27:00.758529 19911 net.cpp:399] inception_3a/5x5_reduce -> inception_3a/5x5_reduce
I0403 19:27:00.759487 19911 net.cpp:141] Setting up inception_3a/5x5_reduce
I0403 19:27:00.759515 19911 net.cpp:148] Top shape: 24 16 28 28 (301056)
I0403 19:27:00.759529 19911 net.cpp:156] Memory required for data: 535880736
I0403 19:27:00.759548 19911 layer_factory.hpp:77] Creating layer inception_3a/relu_5x5_reduce
I0403 19:27:00.759568 19911 net.cpp:91] Creating Layer inception_3a/relu_5x5_reduce
I0403 19:27:00.759585 19911 net.cpp:425] inception_3a/relu_5x5_reduce <- inception_3a/5x5_reduce
I0403 19:27:00.759603 19911 net.cpp:386] inception_3a/relu_5x5_reduce -> inception_3a/5x5_reduce (in-place)
I0403 19:27:00.759886 19911 net.cpp:141] Setting up inception_3a/relu_5x5_reduce
I0403 19:27:00.759912 19911 net.cpp:148] Top shape: 24 16 28 28 (301056)
I0403 19:27:00.759927 19911 net.cpp:156] Memory required for data: 537084960
I0403 19:27:00.759941 19911 layer_factory.hpp:77] Creating layer inception_3a/5x5
I0403 19:27:00.759969 19911 net.cpp:91] Creating Layer inception_3a/5x5
I0403 19:27:00.759989 19911 net.cpp:425] inception_3a/5x5 <- inception_3a/5x5_reduce
I0403 19:27:00.760007 19911 net.cpp:399] inception_3a/5x5 -> inception_3a/5x5
I0403 19:27:00.760984 19911 net.cpp:141] Setting up inception_3a/5x5
I0403 19:27:00.761011 19911 net.cpp:148] Top shape: 24 32 28 28 (602112)
I0403 19:27:00.761026 19911 net.cpp:156] Memory required for data: 539493408
I0403 19:27:00.761045 19911 layer_factory.hpp:77] Creating layer inception_3a/relu_5x5
I0403 19:27:00.761064 19911 net.cpp:91] Creating Layer inception_3a/relu_5x5
I0403 19:27:00.761078 19911 net.cpp:425] inception_3a/relu_5x5 <- inception_3a/5x5
I0403 19:27:00.761098 19911 net.cpp:386] inception_3a/relu_5x5 -> inception_3a/5x5 (in-place)
I0403 19:27:00.761262 19911 net.cpp:141] Setting up inception_3a/relu_5x5
I0403 19:27:00.761286 19911 net.cpp:148] Top shape: 24 32 28 28 (602112)
I0403 19:27:00.761301 19911 net.cpp:156] Memory required for data: 541901856
I0403 19:27:00.761317 19911 layer_factory.hpp:77] Creating layer inception_3a/pool
I0403 19:27:00.761337 19911 net.cpp:91] Creating Layer inception_3a/pool
I0403 19:27:00.761364 19911 net.cpp:425] inception_3a/pool <- pool2/3x3_s2_pool2/3x3_s2_0_split_3
I0403 19:27:00.761384 19911 net.cpp:399] inception_3a/pool -> inception_3a/pool
I0403 19:27:00.761441 19911 net.cpp:141] Setting up inception_3a/pool
I0403 19:27:00.761464 19911 net.cpp:148] Top shape: 24 192 28 28 (3612672)
I0403 19:27:00.761478 19911 net.cpp:156] Memory required for data: 556352544
I0403 19:27:00.761492 19911 layer_factory.hpp:77] Creating layer inception_3a/pool_proj
I0403 19:27:00.761514 19911 net.cpp:91] Creating Layer inception_3a/pool_proj
I0403 19:27:00.761531 19911 net.cpp:425] inception_3a/pool_proj <- inception_3a/pool
I0403 19:27:00.761553 19911 net.cpp:399] inception_3a/pool_proj -> inception_3a/pool_proj
I0403 19:27:00.762477 19911 net.cpp:141] Setting up inception_3a/pool_proj
I0403 19:27:00.762507 19911 net.cpp:148] Top shape: 24 32 28 28 (602112)
I0403 19:27:00.762523 19911 net.cpp:156] Memory required for data: 558760992
I0403 19:27:00.762543 19911 layer_factory.hpp:77] Creating layer inception_3a/relu_pool_proj
I0403 19:27:00.762564 19911 net.cpp:91] Creating Layer inception_3a/relu_pool_proj
I0403 19:27:00.762581 19911 net.cpp:425] inception_3a/relu_pool_proj <- inception_3a/pool_proj
I0403 19:27:00.762598 19911 net.cpp:386] inception_3a/relu_pool_proj -> inception_3a/pool_proj (in-place)
I0403 19:27:00.762861 19911 net.cpp:141] Setting up inception_3a/relu_pool_proj
I0403 19:27:00.762887 19911 net.cpp:148] Top shape: 24 32 28 28 (602112)
I0403 19:27:00.762902 19911 net.cpp:156] Memory required for data: 561169440
I0403 19:27:00.762917 19911 layer_factory.hpp:77] Creating layer inception_3a/output
I0403 19:27:00.762933 19911 net.cpp:91] Creating Layer inception_3a/output
I0403 19:27:00.762953 19911 net.cpp:425] inception_3a/output <- inception_3a/1x1
I0403 19:27:00.762970 19911 net.cpp:425] inception_3a/output <- inception_3a/3x3
I0403 19:27:00.762986 19911 net.cpp:425] inception_3a/output <- inception_3a/5x5
I0403 19:27:00.763002 19911 net.cpp:425] inception_3a/output <- inception_3a/pool_proj
I0403 19:27:00.763021 19911 net.cpp:399] inception_3a/output -> inception_3a/output
I0403 19:27:00.763067 19911 net.cpp:141] Setting up inception_3a/output
I0403 19:27:00.763092 19911 net.cpp:148] Top shape: 24 256 28 28 (4816896)
I0403 19:27:00.763106 19911 net.cpp:156] Memory required for data: 580437024
I0403 19:27:00.763121 19911 layer_factory.hpp:77] Creating layer inception_3a/output_inception_3a/output_0_split
I0403 19:27:00.763139 19911 net.cpp:91] Creating Layer inception_3a/output_inception_3a/output_0_split
I0403 19:27:00.763154 19911 net.cpp:425] inception_3a/output_inception_3a/output_0_split <- inception_3a/output
I0403 19:27:00.763170 19911 net.cpp:399] inception_3a/output_inception_3a/output_0_split -> inception_3a/output_inception_3a/output_0_split_0
I0403 19:27:00.763191 19911 net.cpp:399] inception_3a/output_inception_3a/output_0_split -> inception_3a/output_inception_3a/output_0_split_1
I0403 19:27:00.763216 19911 net.cpp:399] inception_3a/output_inception_3a/output_0_split -> inception_3a/output_inception_3a/output_0_split_2
I0403 19:27:00.763236 19911 net.cpp:399] inception_3a/output_inception_3a/output_0_split -> inception_3a/output_inception_3a/output_0_split_3
I0403 19:27:00.763310 19911 net.cpp:141] Setting up inception_3a/output_inception_3a/output_0_split
I0403 19:27:00.763337 19911 net.cpp:148] Top shape: 24 256 28 28 (4816896)
I0403 19:27:00.763355 19911 net.cpp:148] Top shape: 24 256 28 28 (4816896)
I0403 19:27:00.763370 19911 net.cpp:148] Top shape: 24 256 28 28 (4816896)
I0403 19:27:00.763386 19911 net.cpp:148] Top shape: 24 256 28 28 (4816896)
I0403 19:27:00.763399 19911 net.cpp:156] Memory required for data: 657507360
I0403 19:27:00.763413 19911 layer_factory.hpp:77] Creating layer inception_3b/1x1
I0403 19:27:00.763435 19911 net.cpp:91] Creating Layer inception_3b/1x1
I0403 19:27:00.763453 19911 net.cpp:425] inception_3b/1x1 <- inception_3a/output_inception_3a/output_0_split_0
I0403 19:27:00.763473 19911 net.cpp:399] inception_3b/1x1 -> inception_3b/1x1
I0403 19:27:00.764564 19911 net.cpp:141] Setting up inception_3b/1x1
I0403 19:27:00.764603 19911 net.cpp:148] Top shape: 24 128 28 28 (2408448)
I0403 19:27:00.764621 19911 net.cpp:156] Memory required for data: 667141152
I0403 19:27:00.764639 19911 layer_factory.hpp:77] Creating layer inception_3b/relu_1x1
I0403 19:27:00.764657 19911 net.cpp:91] Creating Layer inception_3b/relu_1x1
I0403 19:27:00.764674 19911 net.cpp:425] inception_3b/relu_1x1 <- inception_3b/1x1
I0403 19:27:00.764694 19911 net.cpp:386] inception_3b/relu_1x1 -> inception_3b/1x1 (in-place)
I0403 19:27:00.764860 19911 net.cpp:141] Setting up inception_3b/relu_1x1
I0403 19:27:00.764886 19911 net.cpp:148] Top shape: 24 128 28 28 (2408448)
I0403 19:27:00.764900 19911 net.cpp:156] Memory required for data: 676774944
I0403 19:27:00.764914 19911 layer_factory.hpp:77] Creating layer inception_3b/3x3_reduce
I0403 19:27:00.764936 19911 net.cpp:91] Creating Layer inception_3b/3x3_reduce
I0403 19:27:00.764958 19911 net.cpp:425] inception_3b/3x3_reduce <- inception_3a/output_inception_3a/output_0_split_1
I0403 19:27:00.764981 19911 net.cpp:399] inception_3b/3x3_reduce -> inception_3b/3x3_reduce
I0403 19:27:00.766098 19911 net.cpp:141] Setting up inception_3b/3x3_reduce
I0403 19:27:00.766127 19911 net.cpp:148] Top shape: 24 128 28 28 (2408448)
I0403 19:27:00.766142 19911 net.cpp:156] Memory required for data: 686408736
I0403 19:27:00.766161 19911 layer_factory.hpp:77] Creating layer inception_3b/relu_3x3_reduce
I0403 19:27:00.766180 19911 net.cpp:91] Creating Layer inception_3b/relu_3x3_reduce
I0403 19:27:00.766196 19911 net.cpp:425] inception_3b/relu_3x3_reduce <- inception_3b/3x3_reduce
I0403 19:27:00.766216 19911 net.cpp:386] inception_3b/relu_3x3_reduce -> inception_3b/3x3_reduce (in-place)
I0403 19:27:00.766389 19911 net.cpp:141] Setting up inception_3b/relu_3x3_reduce
I0403 19:27:00.766414 19911 net.cpp:148] Top shape: 24 128 28 28 (2408448)
I0403 19:27:00.766428 19911 net.cpp:156] Memory required for data: 696042528
I0403 19:27:00.766443 19911 layer_factory.hpp:77] Creating layer inception_3b/3x3
I0403 19:27:00.766470 19911 net.cpp:91] Creating Layer inception_3b/3x3
I0403 19:27:00.766489 19911 net.cpp:425] inception_3b/3x3 <- inception_3b/3x3_reduce
I0403 19:27:00.766508 19911 net.cpp:399] inception_3b/3x3 -> inception_3b/3x3
I0403 19:27:00.769387 19911 net.cpp:141] Setting up inception_3b/3x3
I0403 19:27:00.769414 19911 net.cpp:148] Top shape: 24 192 28 28 (3612672)
I0403 19:27:00.769430 19911 net.cpp:156] Memory required for data: 710493216
I0403 19:27:00.769449 19911 layer_factory.hpp:77] Creating layer inception_3b/relu_3x3
I0403 19:27:00.769467 19911 net.cpp:91] Creating Layer inception_3b/relu_3x3
I0403 19:27:00.769484 19911 net.cpp:425] inception_3b/relu_3x3 <- inception_3b/3x3
I0403 19:27:00.769505 19911 net.cpp:386] inception_3b/relu_3x3 -> inception_3b/3x3 (in-place)
I0403 19:27:00.769778 19911 net.cpp:141] Setting up inception_3b/relu_3x3
I0403 19:27:00.769804 19911 net.cpp:148] Top shape: 24 192 28 28 (3612672)
I0403 19:27:00.769819 19911 net.cpp:156] Memory required for data: 724943904
I0403 19:27:00.769835 19911 layer_factory.hpp:77] Creating layer inception_3b/5x5_reduce
I0403 19:27:00.769857 19911 net.cpp:91] Creating Layer inception_3b/5x5_reduce
I0403 19:27:00.769876 19911 net.cpp:425] inception_3b/5x5_reduce <- inception_3a/output_inception_3a/output_0_split_2
I0403 19:27:00.769898 19911 net.cpp:399] inception_3b/5x5_reduce -> inception_3b/5x5_reduce
I0403 19:27:00.770872 19911 net.cpp:141] Setting up inception_3b/5x5_reduce
I0403 19:27:00.770900 19911 net.cpp:148] Top shape: 24 32 28 28 (602112)
I0403 19:27:00.770915 19911 net.cpp:156] Memory required for data: 727352352
I0403 19:27:00.770934 19911 layer_factory.hpp:77] Creating layer inception_3b/relu_5x5_reduce
I0403 19:27:00.770957 19911 net.cpp:91] Creating Layer inception_3b/relu_5x5_reduce
I0403 19:27:00.770977 19911 net.cpp:425] inception_3b/relu_5x5_reduce <- inception_3b/5x5_reduce
I0403 19:27:00.770997 19911 net.cpp:386] inception_3b/relu_5x5_reduce -> inception_3b/5x5_reduce (in-place)
I0403 19:27:00.771188 19911 net.cpp:141] Setting up inception_3b/relu_5x5_reduce
I0403 19:27:00.771214 19911 net.cpp:148] Top shape: 24 32 28 28 (602112)
I0403 19:27:00.771229 19911 net.cpp:156] Memory required for data: 729760800
I0403 19:27:00.771245 19911 layer_factory.hpp:77] Creating layer inception_3b/5x5
I0403 19:27:00.771266 19911 net.cpp:91] Creating Layer inception_3b/5x5
I0403 19:27:00.771284 19911 net.cpp:425] inception_3b/5x5 <- inception_3b/5x5_reduce
I0403 19:27:00.771306 19911 net.cpp:399] inception_3b/5x5 -> inception_3b/5x5
I0403 19:27:00.773246 19911 net.cpp:141] Setting up inception_3b/5x5
I0403 19:27:00.773277 19911 net.cpp:148] Top shape: 24 96 28 28 (1806336)
I0403 19:27:00.773294 19911 net.cpp:156] Memory required for data: 736986144
I0403 19:27:00.773313 19911 layer_factory.hpp:77] Creating layer inception_3b/relu_5x5
I0403 19:27:00.773331 19911 net.cpp:91] Creating Layer inception_3b/relu_5x5
I0403 19:27:00.773347 19911 net.cpp:425] inception_3b/relu_5x5 <- inception_3b/5x5
I0403 19:27:00.773367 19911 net.cpp:386] inception_3b/relu_5x5 -> inception_3b/5x5 (in-place)
I0403 19:27:00.773556 19911 net.cpp:141] Setting up inception_3b/relu_5x5
I0403 19:27:00.773581 19911 net.cpp:148] Top shape: 24 96 28 28 (1806336)
I0403 19:27:00.773597 19911 net.cpp:156] Memory required for data: 744211488
I0403 19:27:00.773612 19911 layer_factory.hpp:77] Creating layer inception_3b/pool
I0403 19:27:00.773629 19911 net.cpp:91] Creating Layer inception_3b/pool
I0403 19:27:00.773646 19911 net.cpp:425] inception_3b/pool <- inception_3a/output_inception_3a/output_0_split_3
I0403 19:27:00.773664 19911 net.cpp:399] inception_3b/pool -> inception_3b/pool
I0403 19:27:00.773722 19911 net.cpp:141] Setting up inception_3b/pool
I0403 19:27:00.773746 19911 net.cpp:148] Top shape: 24 256 28 28 (4816896)
I0403 19:27:00.773761 19911 net.cpp:156] Memory required for data: 763479072
I0403 19:27:00.773775 19911 layer_factory.hpp:77] Creating layer inception_3b/pool_proj
I0403 19:27:00.773797 19911 net.cpp:91] Creating Layer inception_3b/pool_proj
I0403 19:27:00.773815 19911 net.cpp:425] inception_3b/pool_proj <- inception_3b/pool
I0403 19:27:00.773839 19911 net.cpp:399] inception_3b/pool_proj -> inception_3b/pool_proj
I0403 19:27:00.774879 19911 net.cpp:141] Setting up inception_3b/pool_proj
I0403 19:27:00.774907 19911 net.cpp:148] Top shape: 24 64 28 28 (1204224)
I0403 19:27:00.774922 19911 net.cpp:156] Memory required for data: 768295968
I0403 19:27:00.774941 19911 layer_factory.hpp:77] Creating layer inception_3b/relu_pool_proj
I0403 19:27:00.774967 19911 net.cpp:91] Creating Layer inception_3b/relu_pool_proj
I0403 19:27:00.774986 19911 net.cpp:425] inception_3b/relu_pool_proj <- inception_3b/pool_proj
I0403 19:27:00.775003 19911 net.cpp:386] inception_3b/relu_pool_proj -> inception_3b/pool_proj (in-place)
I0403 19:27:00.775391 19911 net.cpp:141] Setting up inception_3b/relu_pool_proj
I0403 19:27:00.775418 19911 net.cpp:148] Top shape: 24 64 28 28 (1204224)
I0403 19:27:00.775434 19911 net.cpp:156] Memory required for data: 773112864
I0403 19:27:00.775449 19911 layer_factory.hpp:77] Creating layer inception_3b/output
I0403 19:27:00.775466 19911 net.cpp:91] Creating Layer inception_3b/output
I0403 19:27:00.775482 19911 net.cpp:425] inception_3b/output <- inception_3b/1x1
I0403 19:27:00.775502 19911 net.cpp:425] inception_3b/output <- inception_3b/3x3
I0403 19:27:00.775519 19911 net.cpp:425] inception_3b/output <- inception_3b/5x5
I0403 19:27:00.775535 19911 net.cpp:425] inception_3b/output <- inception_3b/pool_proj
I0403 19:27:00.775552 19911 net.cpp:399] inception_3b/output -> inception_3b/output
I0403 19:27:00.775599 19911 net.cpp:141] Setting up inception_3b/output
I0403 19:27:00.775621 19911 net.cpp:148] Top shape: 24 480 28 28 (9031680)
I0403 19:27:00.775636 19911 net.cpp:156] Memory required for data: 809239584
I0403 19:27:00.775652 19911 layer_factory.hpp:77] Creating layer pool3/3x3_s2
I0403 19:27:00.775671 19911 net.cpp:91] Creating Layer pool3/3x3_s2
I0403 19:27:00.775686 19911 net.cpp:425] pool3/3x3_s2 <- inception_3b/output
I0403 19:27:00.775720 19911 net.cpp:399] pool3/3x3_s2 -> pool3/3x3_s2
I0403 19:27:00.775780 19911 net.cpp:141] Setting up pool3/3x3_s2
I0403 19:27:00.775804 19911 net.cpp:148] Top shape: 24 480 14 14 (2257920)
I0403 19:27:00.775820 19911 net.cpp:156] Memory required for data: 818271264
I0403 19:27:00.775835 19911 layer_factory.hpp:77] Creating layer pool3/3x3_s2_pool3/3x3_s2_0_split
I0403 19:27:00.775854 19911 net.cpp:91] Creating Layer pool3/3x3_s2_pool3/3x3_s2_0_split
I0403 19:27:00.775871 19911 net.cpp:425] pool3/3x3_s2_pool3/3x3_s2_0_split <- pool3/3x3_s2
I0403 19:27:00.775888 19911 net.cpp:399] pool3/3x3_s2_pool3/3x3_s2_0_split -> pool3/3x3_s2_pool3/3x3_s2_0_split_0
I0403 19:27:00.775913 19911 net.cpp:399] pool3/3x3_s2_pool3/3x3_s2_0_split -> pool3/3x3_s2_pool3/3x3_s2_0_split_1
I0403 19:27:00.775933 19911 net.cpp:399] pool3/3x3_s2_pool3/3x3_s2_0_split -> pool3/3x3_s2_pool3/3x3_s2_0_split_2
I0403 19:27:00.775957 19911 net.cpp:399] pool3/3x3_s2_pool3/3x3_s2_0_split -> pool3/3x3_s2_pool3/3x3_s2_0_split_3
I0403 19:27:00.776034 19911 net.cpp:141] Setting up pool3/3x3_s2_pool3/3x3_s2_0_split
I0403 19:27:00.776057 19911 net.cpp:148] Top shape: 24 480 14 14 (2257920)
I0403 19:27:00.776074 19911 net.cpp:148] Top shape: 24 480 14 14 (2257920)
I0403 19:27:00.776090 19911 net.cpp:148] Top shape: 24 480 14 14 (2257920)
I0403 19:27:00.776106 19911 net.cpp:148] Top shape: 24 480 14 14 (2257920)
I0403 19:27:00.776120 19911 net.cpp:156] Memory required for data: 854397984
I0403 19:27:00.776135 19911 layer_factory.hpp:77] Creating layer inception_4a/1x1
I0403 19:27:00.776157 19911 net.cpp:91] Creating Layer inception_4a/1x1
I0403 19:27:00.776175 19911 net.cpp:425] inception_4a/1x1 <- pool3/3x3_s2_pool3/3x3_s2_0_split_0
I0403 19:27:00.776196 19911 net.cpp:399] inception_4a/1x1 -> inception_4a/1x1
I0403 19:27:00.777748 19911 net.cpp:141] Setting up inception_4a/1x1
I0403 19:27:00.777778 19911 net.cpp:148] Top shape: 24 192 14 14 (903168)
I0403 19:27:00.777796 19911 net.cpp:156] Memory required for data: 858010656
I0403 19:27:00.777814 19911 layer_factory.hpp:77] Creating layer inception_4a/relu_1x1
I0403 19:27:00.777833 19911 net.cpp:91] Creating Layer inception_4a/relu_1x1
I0403 19:27:00.777849 19911 net.cpp:425] inception_4a/relu_1x1 <- inception_4a/1x1
I0403 19:27:00.777866 19911 net.cpp:386] inception_4a/relu_1x1 -> inception_4a/1x1 (in-place)
I0403 19:27:00.778048 19911 net.cpp:141] Setting up inception_4a/relu_1x1
I0403 19:27:00.778074 19911 net.cpp:148] Top shape: 24 192 14 14 (903168)
I0403 19:27:00.778090 19911 net.cpp:156] Memory required for data: 861623328
I0403 19:27:00.778105 19911 layer_factory.hpp:77] Creating layer inception_4a/3x3_reduce
I0403 19:27:00.778127 19911 net.cpp:91] Creating Layer inception_4a/3x3_reduce
I0403 19:27:00.778146 19911 net.cpp:425] inception_4a/3x3_reduce <- pool3/3x3_s2_pool3/3x3_s2_0_split_1
I0403 19:27:00.778167 19911 net.cpp:399] inception_4a/3x3_reduce -> inception_4a/3x3_reduce
I0403 19:27:00.779434 19911 net.cpp:141] Setting up inception_4a/3x3_reduce
I0403 19:27:00.779463 19911 net.cpp:148] Top shape: 24 96 14 14 (451584)
I0403 19:27:00.779477 19911 net.cpp:156] Memory required for data: 863429664
I0403 19:27:00.779505 19911 layer_factory.hpp:77] Creating layer inception_4a/relu_3x3_reduce
I0403 19:27:00.779525 19911 net.cpp:91] Creating Layer inception_4a/relu_3x3_reduce
I0403 19:27:00.779541 19911 net.cpp:425] inception_4a/relu_3x3_reduce <- inception_4a/3x3_reduce
I0403 19:27:00.779559 19911 net.cpp:386] inception_4a/relu_3x3_reduce -> inception_4a/3x3_reduce (in-place)
I0403 19:27:00.779731 19911 net.cpp:141] Setting up inception_4a/relu_3x3_reduce
I0403 19:27:00.779758 19911 net.cpp:148] Top shape: 24 96 14 14 (451584)
I0403 19:27:00.779774 19911 net.cpp:156] Memory required for data: 865236000
I0403 19:27:00.779790 19911 layer_factory.hpp:77] Creating layer inception_4a/3x3
I0403 19:27:00.779813 19911 net.cpp:91] Creating Layer inception_4a/3x3
I0403 19:27:00.779830 19911 net.cpp:425] inception_4a/3x3 <- inception_4a/3x3_reduce
I0403 19:27:00.779850 19911 net.cpp:399] inception_4a/3x3 -> inception_4a/3x3
I0403 19:27:00.782496 19911 net.cpp:141] Setting up inception_4a/3x3
I0403 19:27:00.782524 19911 net.cpp:148] Top shape: 24 208 14 14 (978432)
I0403 19:27:00.782541 19911 net.cpp:156] Memory required for data: 869149728
I0403 19:27:00.782559 19911 layer_factory.hpp:77] Creating layer inception_4a/relu_3x3
I0403 19:27:00.782578 19911 net.cpp:91] Creating Layer inception_4a/relu_3x3
I0403 19:27:00.782595 19911 net.cpp:425] inception_4a/relu_3x3 <- inception_4a/3x3
I0403 19:27:00.782616 19911 net.cpp:386] inception_4a/relu_3x3 -> inception_4a/3x3 (in-place)
I0403 19:27:00.782892 19911 net.cpp:141] Setting up inception_4a/relu_3x3
I0403 19:27:00.782918 19911 net.cpp:148] Top shape: 24 208 14 14 (978432)
I0403 19:27:00.782933 19911 net.cpp:156] Memory required for data: 873063456
I0403 19:27:00.782953 19911 layer_factory.hpp:77] Creating layer inception_4a/5x5_reduce
I0403 19:27:00.782977 19911 net.cpp:91] Creating Layer inception_4a/5x5_reduce
I0403 19:27:00.782996 19911 net.cpp:425] inception_4a/5x5_reduce <- pool3/3x3_s2_pool3/3x3_s2_0_split_2
I0403 19:27:00.783018 19911 net.cpp:399] inception_4a/5x5_reduce -> inception_4a/5x5_reduce
I0403 19:27:00.784025 19911 net.cpp:141] Setting up inception_4a/5x5_reduce
I0403 19:27:00.784052 19911 net.cpp:148] Top shape: 24 16 14 14 (75264)
I0403 19:27:00.784067 19911 net.cpp:156] Memory required for data: 873364512
I0403 19:27:00.784086 19911 layer_factory.hpp:77] Creating layer inception_4a/relu_5x5_reduce
I0403 19:27:00.784104 19911 net.cpp:91] Creating Layer inception_4a/relu_5x5_reduce
I0403 19:27:00.784121 19911 net.cpp:425] inception_4a/relu_5x5_reduce <- inception_4a/5x5_reduce
I0403 19:27:00.784140 19911 net.cpp:386] inception_4a/relu_5x5_reduce -> inception_4a/5x5_reduce (in-place)
I0403 19:27:00.784317 19911 net.cpp:141] Setting up inception_4a/relu_5x5_reduce
I0403 19:27:00.784343 19911 net.cpp:148] Top shape: 24 16 14 14 (75264)
I0403 19:27:00.784358 19911 net.cpp:156] Memory required for data: 873665568
I0403 19:27:00.784373 19911 layer_factory.hpp:77] Creating layer inception_4a/5x5
I0403 19:27:00.784396 19911 net.cpp:91] Creating Layer inception_4a/5x5
I0403 19:27:00.784415 19911 net.cpp:425] inception_4a/5x5 <- inception_4a/5x5_reduce
I0403 19:27:00.784436 19911 net.cpp:399] inception_4a/5x5 -> inception_4a/5x5
I0403 19:27:00.785497 19911 net.cpp:141] Setting up inception_4a/5x5
I0403 19:27:00.785523 19911 net.cpp:148] Top shape: 24 48 14 14 (225792)
I0403 19:27:00.785539 19911 net.cpp:156] Memory required for data: 874568736
I0403 19:27:00.785557 19911 layer_factory.hpp:77] Creating layer inception_4a/relu_5x5
I0403 19:27:00.785578 19911 net.cpp:91] Creating Layer inception_4a/relu_5x5
I0403 19:27:00.785594 19911 net.cpp:425] inception_4a/relu_5x5 <- inception_4a/5x5
I0403 19:27:00.785611 19911 net.cpp:386] inception_4a/relu_5x5 -> inception_4a/5x5 (in-place)
I0403 19:27:00.785783 19911 net.cpp:141] Setting up inception_4a/relu_5x5
I0403 19:27:00.785809 19911 net.cpp:148] Top shape: 24 48 14 14 (225792)
I0403 19:27:00.785825 19911 net.cpp:156] Memory required for data: 875471904
I0403 19:27:00.785840 19911 layer_factory.hpp:77] Creating layer inception_4a/pool
I0403 19:27:00.785857 19911 net.cpp:91] Creating Layer inception_4a/pool
I0403 19:27:00.785873 19911 net.cpp:425] inception_4a/pool <- pool3/3x3_s2_pool3/3x3_s2_0_split_3
I0403 19:27:00.785892 19911 net.cpp:399] inception_4a/pool -> inception_4a/pool
I0403 19:27:00.785955 19911 net.cpp:141] Setting up inception_4a/pool
I0403 19:27:00.785979 19911 net.cpp:148] Top shape: 24 480 14 14 (2257920)
I0403 19:27:00.785994 19911 net.cpp:156] Memory required for data: 884503584
I0403 19:27:00.786007 19911 layer_factory.hpp:77] Creating layer inception_4a/pool_proj
I0403 19:27:00.786028 19911 net.cpp:91] Creating Layer inception_4a/pool_proj
I0403 19:27:00.786046 19911 net.cpp:425] inception_4a/pool_proj <- inception_4a/pool
I0403 19:27:00.786067 19911 net.cpp:399] inception_4a/pool_proj -> inception_4a/pool_proj
I0403 19:27:00.787183 19911 net.cpp:141] Setting up inception_4a/pool_proj
I0403 19:27:00.787210 19911 net.cpp:148] Top shape: 24 64 14 14 (301056)
I0403 19:27:00.787240 19911 net.cpp:156] Memory required for data: 885707808
I0403 19:27:00.787259 19911 layer_factory.hpp:77] Creating layer inception_4a/relu_pool_proj
I0403 19:27:00.787281 19911 net.cpp:91] Creating Layer inception_4a/relu_pool_proj
I0403 19:27:00.787298 19911 net.cpp:425] inception_4a/relu_pool_proj <- inception_4a/pool_proj
I0403 19:27:00.787317 19911 net.cpp:386] inception_4a/relu_pool_proj -> inception_4a/pool_proj (in-place)
I0403 19:27:00.787586 19911 net.cpp:141] Setting up inception_4a/relu_pool_proj
I0403 19:27:00.787611 19911 net.cpp:148] Top shape: 24 64 14 14 (301056)
I0403 19:27:00.787626 19911 net.cpp:156] Memory required for data: 886912032
I0403 19:27:00.787642 19911 layer_factory.hpp:77] Creating layer inception_4a/output
I0403 19:27:00.787660 19911 net.cpp:91] Creating Layer inception_4a/output
I0403 19:27:00.787678 19911 net.cpp:425] inception_4a/output <- inception_4a/1x1
I0403 19:27:00.787694 19911 net.cpp:425] inception_4a/output <- inception_4a/3x3
I0403 19:27:00.787710 19911 net.cpp:425] inception_4a/output <- inception_4a/5x5
I0403 19:27:00.787726 19911 net.cpp:425] inception_4a/output <- inception_4a/pool_proj
I0403 19:27:00.787742 19911 net.cpp:399] inception_4a/output -> inception_4a/output
I0403 19:27:00.787787 19911 net.cpp:141] Setting up inception_4a/output
I0403 19:27:00.787811 19911 net.cpp:148] Top shape: 24 512 14 14 (2408448)
I0403 19:27:00.787825 19911 net.cpp:156] Memory required for data: 896545824
I0403 19:27:00.787839 19911 layer_factory.hpp:77] Creating layer inception_4a/output_inception_4a/output_0_split
I0403 19:27:00.787858 19911 net.cpp:91] Creating Layer inception_4a/output_inception_4a/output_0_split
I0403 19:27:00.787873 19911 net.cpp:425] inception_4a/output_inception_4a/output_0_split <- inception_4a/output
I0403 19:27:00.787892 19911 net.cpp:399] inception_4a/output_inception_4a/output_0_split -> inception_4a/output_inception_4a/output_0_split_0
I0403 19:27:00.787914 19911 net.cpp:399] inception_4a/output_inception_4a/output_0_split -> inception_4a/output_inception_4a/output_0_split_1
I0403 19:27:00.787935 19911 net.cpp:399] inception_4a/output_inception_4a/output_0_split -> inception_4a/output_inception_4a/output_0_split_2
I0403 19:27:00.787963 19911 net.cpp:399] inception_4a/output_inception_4a/output_0_split -> inception_4a/output_inception_4a/output_0_split_3
I0403 19:27:00.787986 19911 net.cpp:399] inception_4a/output_inception_4a/output_0_split -> inception_4a/output_inception_4a/output_0_split_4
I0403 19:27:00.788075 19911 net.cpp:141] Setting up inception_4a/output_inception_4a/output_0_split
I0403 19:27:00.788099 19911 net.cpp:148] Top shape: 24 512 14 14 (2408448)
I0403 19:27:00.788115 19911 net.cpp:148] Top shape: 24 512 14 14 (2408448)
I0403 19:27:00.788131 19911 net.cpp:148] Top shape: 24 512 14 14 (2408448)
I0403 19:27:00.788146 19911 net.cpp:148] Top shape: 24 512 14 14 (2408448)
I0403 19:27:00.788162 19911 net.cpp:148] Top shape: 24 512 14 14 (2408448)
I0403 19:27:00.788175 19911 net.cpp:156] Memory required for data: 944714784
I0403 19:27:00.788189 19911 layer_factory.hpp:77] Creating layer loss1/ave_pool
I0403 19:27:00.788208 19911 net.cpp:91] Creating Layer loss1/ave_pool
I0403 19:27:00.788224 19911 net.cpp:425] loss1/ave_pool <- inception_4a/output_inception_4a/output_0_split_0
I0403 19:27:00.788244 19911 net.cpp:399] loss1/ave_pool -> loss1/ave_pool
I0403 19:27:00.788442 19911 net.cpp:141] Setting up loss1/ave_pool
I0403 19:27:00.788467 19911 net.cpp:148] Top shape: 24 512 4 4 (196608)
I0403 19:27:00.788482 19911 net.cpp:156] Memory required for data: 945501216
I0403 19:27:00.788496 19911 layer_factory.hpp:77] Creating layer loss1/conv
I0403 19:27:00.788521 19911 net.cpp:91] Creating Layer loss1/conv
I0403 19:27:00.788537 19911 net.cpp:425] loss1/conv <- loss1/ave_pool
I0403 19:27:00.788555 19911 net.cpp:399] loss1/conv -> loss1/conv
I0403 19:27:00.789906 19911 net.cpp:141] Setting up loss1/conv
I0403 19:27:00.789933 19911 net.cpp:148] Top shape: 24 128 4 4 (49152)
I0403 19:27:00.789965 19911 net.cpp:156] Memory required for data: 945697824
I0403 19:27:00.789985 19911 layer_factory.hpp:77] Creating layer loss1/relu_conv
I0403 19:27:00.790004 19911 net.cpp:91] Creating Layer loss1/relu_conv
I0403 19:27:00.790019 19911 net.cpp:425] loss1/relu_conv <- loss1/conv
I0403 19:27:00.790040 19911 net.cpp:386] loss1/relu_conv -> loss1/conv (in-place)
I0403 19:27:00.790318 19911 net.cpp:141] Setting up loss1/relu_conv
I0403 19:27:00.790343 19911 net.cpp:148] Top shape: 24 128 4 4 (49152)
I0403 19:27:00.790357 19911 net.cpp:156] Memory required for data: 945894432
I0403 19:27:00.790374 19911 layer_factory.hpp:77] Creating layer loss1/fc
I0403 19:27:00.790395 19911 net.cpp:91] Creating Layer loss1/fc
I0403 19:27:00.790413 19911 net.cpp:425] loss1/fc <- loss1/conv
I0403 19:27:00.790434 19911 net.cpp:399] loss1/fc -> loss1/fc
I0403 19:27:00.807536 19911 net.cpp:141] Setting up loss1/fc
I0403 19:27:00.807569 19911 net.cpp:148] Top shape: 24 1024 (24576)
I0403 19:27:00.807585 19911 net.cpp:156] Memory required for data: 945992736
I0403 19:27:00.807605 19911 layer_factory.hpp:77] Creating layer loss1/relu_fc
I0403 19:27:00.807622 19911 net.cpp:91] Creating Layer loss1/relu_fc
I0403 19:27:00.807638 19911 net.cpp:425] loss1/relu_fc <- loss1/fc
I0403 19:27:00.807654 19911 net.cpp:386] loss1/relu_fc -> loss1/fc (in-place)
I0403 19:27:00.807835 19911 net.cpp:141] Setting up loss1/relu_fc
I0403 19:27:00.807858 19911 net.cpp:148] Top shape: 24 1024 (24576)
I0403 19:27:00.807874 19911 net.cpp:156] Memory required for data: 946091040
I0403 19:27:00.807888 19911 layer_factory.hpp:77] Creating layer loss1/drop_fc
I0403 19:27:00.807914 19911 net.cpp:91] Creating Layer loss1/drop_fc
I0403 19:27:00.807931 19911 net.cpp:425] loss1/drop_fc <- loss1/fc
I0403 19:27:00.807955 19911 net.cpp:386] loss1/drop_fc -> loss1/fc (in-place)
I0403 19:27:00.808007 19911 net.cpp:141] Setting up loss1/drop_fc
I0403 19:27:00.808029 19911 net.cpp:148] Top shape: 24 1024 (24576)
I0403 19:27:00.808043 19911 net.cpp:156] Memory required for data: 946189344
I0403 19:27:00.808058 19911 layer_factory.hpp:77] Creating layer loss1/classifier_plantvillage
I0403 19:27:00.808080 19911 net.cpp:91] Creating Layer loss1/classifier_plantvillage
I0403 19:27:00.808097 19911 net.cpp:425] loss1/classifier_plantvillage <- loss1/fc
I0403 19:27:00.808115 19911 net.cpp:399] loss1/classifier_plantvillage -> loss1/classifier_plantvillage
I0403 19:27:00.809000 19911 net.cpp:141] Setting up loss1/classifier_plantvillage
I0403 19:27:00.809029 19911 net.cpp:148] Top shape: 24 38 (912)
I0403 19:27:00.809046 19911 net.cpp:156] Memory required for data: 946192992
I0403 19:27:00.809063 19911 layer_factory.hpp:77] Creating layer loss1/classifier_plantvillage_loss1/classifier_plantvillage_0_split
I0403 19:27:00.809082 19911 net.cpp:91] Creating Layer loss1/classifier_plantvillage_loss1/classifier_plantvillage_0_split
I0403 19:27:00.809098 19911 net.cpp:425] loss1/classifier_plantvillage_loss1/classifier_plantvillage_0_split <- loss1/classifier_plantvillage
I0403 19:27:00.809115 19911 net.cpp:399] loss1/classifier_plantvillage_loss1/classifier_plantvillage_0_split -> loss1/classifier_plantvillage_loss1/classifier_plantvillage_0_split_0
I0403 19:27:00.809137 19911 net.cpp:399] loss1/classifier_plantvillage_loss1/classifier_plantvillage_0_split -> loss1/classifier_plantvillage_loss1/classifier_plantvillage_0_split_1
I0403 19:27:00.809159 19911 net.cpp:399] loss1/classifier_plantvillage_loss1/classifier_plantvillage_0_split -> loss1/classifier_plantvillage_loss1/classifier_plantvillage_0_split_2
I0403 19:27:00.809222 19911 net.cpp:141] Setting up loss1/classifier_plantvillage_loss1/classifier_plantvillage_0_split
I0403 19:27:00.809245 19911 net.cpp:148] Top shape: 24 38 (912)
I0403 19:27:00.809260 19911 net.cpp:148] Top shape: 24 38 (912)
I0403 19:27:00.809276 19911 net.cpp:148] Top shape: 24 38 (912)
I0403 19:27:00.809290 19911 net.cpp:156] Memory required for data: 946203936
I0403 19:27:00.809305 19911 layer_factory.hpp:77] Creating layer inception_4b/1x1
I0403 19:27:00.809325 19911 net.cpp:91] Creating Layer inception_4b/1x1
I0403 19:27:00.809356 19911 net.cpp:425] inception_4b/1x1 <- inception_4a/output_inception_4a/output_0_split_1
I0403 19:27:00.809378 19911 net.cpp:399] inception_4b/1x1 -> inception_4b/1x1
I0403 19:27:00.810961 19911 net.cpp:141] Setting up inception_4b/1x1
I0403 19:27:00.810988 19911 net.cpp:148] Top shape: 24 160 14 14 (752640)
I0403 19:27:00.811003 19911 net.cpp:156] Memory required for data: 949214496
I0403 19:27:00.811022 19911 layer_factory.hpp:77] Creating layer inception_4b/relu_1x1
I0403 19:27:00.811039 19911 net.cpp:91] Creating Layer inception_4b/relu_1x1
I0403 19:27:00.811055 19911 net.cpp:425] inception_4b/relu_1x1 <- inception_4b/1x1
I0403 19:27:00.811075 19911 net.cpp:386] inception_4b/relu_1x1 -> inception_4b/1x1 (in-place)
I0403 19:27:00.811247 19911 net.cpp:141] Setting up inception_4b/relu_1x1
I0403 19:27:00.811272 19911 net.cpp:148] Top shape: 24 160 14 14 (752640)
I0403 19:27:00.811286 19911 net.cpp:156] Memory required for data: 952225056
I0403 19:27:00.811301 19911 layer_factory.hpp:77] Creating layer inception_4b/3x3_reduce
I0403 19:27:00.811322 19911 net.cpp:91] Creating Layer inception_4b/3x3_reduce
I0403 19:27:00.811341 19911 net.cpp:425] inception_4b/3x3_reduce <- inception_4a/output_inception_4a/output_0_split_2
I0403 19:27:00.811362 19911 net.cpp:399] inception_4b/3x3_reduce -> inception_4b/3x3_reduce
I0403 19:27:00.812659 19911 net.cpp:141] Setting up inception_4b/3x3_reduce
I0403 19:27:00.812686 19911 net.cpp:148] Top shape: 24 112 14 14 (526848)
I0403 19:27:00.812701 19911 net.cpp:156] Memory required for data: 954332448
I0403 19:27:00.812719 19911 layer_factory.hpp:77] Creating layer inception_4b/relu_3x3_reduce
I0403 19:27:00.812741 19911 net.cpp:91] Creating Layer inception_4b/relu_3x3_reduce
I0403 19:27:00.812758 19911 net.cpp:425] inception_4b/relu_3x3_reduce <- inception_4b/3x3_reduce
I0403 19:27:00.812777 19911 net.cpp:386] inception_4b/relu_3x3_reduce -> inception_4b/3x3_reduce (in-place)
I0403 19:27:00.813050 19911 net.cpp:141] Setting up inception_4b/relu_3x3_reduce
I0403 19:27:00.813076 19911 net.cpp:148] Top shape: 24 112 14 14 (526848)
I0403 19:27:00.813091 19911 net.cpp:156] Memory required for data: 956439840
I0403 19:27:00.813104 19911 layer_factory.hpp:77] Creating layer inception_4b/3x3
I0403 19:27:00.813127 19911 net.cpp:91] Creating Layer inception_4b/3x3
I0403 19:27:00.813144 19911 net.cpp:425] inception_4b/3x3 <- inception_4b/3x3_reduce
I0403 19:27:00.813165 19911 net.cpp:399] inception_4b/3x3 -> inception_4b/3x3
I0403 19:27:00.816149 19911 net.cpp:141] Setting up inception_4b/3x3
I0403 19:27:00.816180 19911 net.cpp:148] Top shape: 24 224 14 14 (1053696)
I0403 19:27:00.816198 19911 net.cpp:156] Memory required for data: 960654624
I0403 19:27:00.816216 19911 layer_factory.hpp:77] Creating layer inception_4b/relu_3x3
I0403 19:27:00.816236 19911 net.cpp:91] Creating Layer inception_4b/relu_3x3
I0403 19:27:00.816253 19911 net.cpp:425] inception_4b/relu_3x3 <- inception_4b/3x3
I0403 19:27:00.816270 19911 net.cpp:386] inception_4b/relu_3x3 -> inception_4b/3x3 (in-place)
I0403 19:27:00.816453 19911 net.cpp:141] Setting up inception_4b/relu_3x3
I0403 19:27:00.816478 19911 net.cpp:148] Top shape: 24 224 14 14 (1053696)
I0403 19:27:00.816493 19911 net.cpp:156] Memory required for data: 964869408
I0403 19:27:00.816509 19911 layer_factory.hpp:77] Creating layer inception_4b/5x5_reduce
I0403 19:27:00.816531 19911 net.cpp:91] Creating Layer inception_4b/5x5_reduce
I0403 19:27:00.816550 19911 net.cpp:425] inception_4b/5x5_reduce <- inception_4a/output_inception_4a/output_0_split_3
I0403 19:27:00.816572 19911 net.cpp:399] inception_4b/5x5_reduce -> inception_4b/5x5_reduce
I0403 19:27:00.817693 19911 net.cpp:141] Setting up inception_4b/5x5_reduce
I0403 19:27:00.817721 19911 net.cpp:148] Top shape: 24 24 14 14 (112896)
I0403 19:27:00.817736 19911 net.cpp:156] Memory required for data: 965320992
I0403 19:27:00.817755 19911 layer_factory.hpp:77] Creating layer inception_4b/relu_5x5_reduce
I0403 19:27:00.817776 19911 net.cpp:91] Creating Layer inception_4b/relu_5x5_reduce
I0403 19:27:00.817808 19911 net.cpp:425] inception_4b/relu_5x5_reduce <- inception_4b/5x5_reduce
I0403 19:27:00.817827 19911 net.cpp:386] inception_4b/relu_5x5_reduce -> inception_4b/5x5_reduce (in-place)
I0403 19:27:00.818013 19911 net.cpp:141] Setting up inception_4b/relu_5x5_reduce
I0403 19:27:00.818038 19911 net.cpp:148] Top shape: 24 24 14 14 (112896)
I0403 19:27:00.818053 19911 net.cpp:156] Memory required for data: 965772576
I0403 19:27:00.818068 19911 layer_factory.hpp:77] Creating layer inception_4b/5x5
I0403 19:27:00.818091 19911 net.cpp:91] Creating Layer inception_4b/5x5
I0403 19:27:00.818110 19911 net.cpp:425] inception_4b/5x5 <- inception_4b/5x5_reduce
I0403 19:27:00.818130 19911 net.cpp:399] inception_4b/5x5 -> inception_4b/5x5
I0403 19:27:00.819355 19911 net.cpp:141] Setting up inception_4b/5x5
I0403 19:27:00.819383 19911 net.cpp:148] Top shape: 24 64 14 14 (301056)
I0403 19:27:00.819399 19911 net.cpp:156] Memory required for data: 966976800
I0403 19:27:00.819418 19911 layer_factory.hpp:77] Creating layer inception_4b/relu_5x5
I0403 19:27:00.819437 19911 net.cpp:91] Creating Layer inception_4b/relu_5x5
I0403 19:27:00.819453 19911 net.cpp:425] inception_4b/relu_5x5 <- inception_4b/5x5
I0403 19:27:00.819473 19911 net.cpp:386] inception_4b/relu_5x5 -> inception_4b/5x5 (in-place)
I0403 19:27:00.819756 19911 net.cpp:141] Setting up inception_4b/relu_5x5
I0403 19:27:00.819783 19911 net.cpp:148] Top shape: 24 64 14 14 (301056)
I0403 19:27:00.819798 19911 net.cpp:156] Memory required for data: 968181024
I0403 19:27:00.819814 19911 layer_factory.hpp:77] Creating layer inception_4b/pool
I0403 19:27:00.819833 19911 net.cpp:91] Creating Layer inception_4b/pool
I0403 19:27:00.819849 19911 net.cpp:425] inception_4b/pool <- inception_4a/output_inception_4a/output_0_split_4
I0403 19:27:00.819871 19911 net.cpp:399] inception_4b/pool -> inception_4b/pool
I0403 19:27:00.819936 19911 net.cpp:141] Setting up inception_4b/pool
I0403 19:27:00.819965 19911 net.cpp:148] Top shape: 24 512 14 14 (2408448)
I0403 19:27:00.819980 19911 net.cpp:156] Memory required for data: 977814816
I0403 19:27:00.819995 19911 layer_factory.hpp:77] Creating layer inception_4b/pool_proj
I0403 19:27:00.820019 19911 net.cpp:91] Creating Layer inception_4b/pool_proj
I0403 19:27:00.820037 19911 net.cpp:425] inception_4b/pool_proj <- inception_4b/pool
I0403 19:27:00.820056 19911 net.cpp:399] inception_4b/pool_proj -> inception_4b/pool_proj
I0403 19:27:00.821255 19911 net.cpp:141] Setting up inception_4b/pool_proj
I0403 19:27:00.821282 19911 net.cpp:148] Top shape: 24 64 14 14 (301056)
I0403 19:27:00.821298 19911 net.cpp:156] Memory required for data: 979019040
I0403 19:27:00.821316 19911 layer_factory.hpp:77] Creating layer inception_4b/relu_pool_proj
I0403 19:27:00.821336 19911 net.cpp:91] Creating Layer inception_4b/relu_pool_proj
I0403 19:27:00.821352 19911 net.cpp:425] inception_4b/relu_pool_proj <- inception_4b/pool_proj
I0403 19:27:00.821372 19911 net.cpp:386] inception_4b/relu_pool_proj -> inception_4b/pool_proj (in-place)
I0403 19:27:00.821552 19911 net.cpp:141] Setting up inception_4b/relu_pool_proj
I0403 19:27:00.821578 19911 net.cpp:148] Top shape: 24 64 14 14 (301056)
I0403 19:27:00.821593 19911 net.cpp:156] Memory required for data: 980223264
I0403 19:27:00.821607 19911 layer_factory.hpp:77] Creating layer inception_4b/output
I0403 19:27:00.821627 19911 net.cpp:91] Creating Layer inception_4b/output
I0403 19:27:00.821645 19911 net.cpp:425] inception_4b/output <- inception_4b/1x1
I0403 19:27:00.821662 19911 net.cpp:425] inception_4b/output <- inception_4b/3x3
I0403 19:27:00.821678 19911 net.cpp:425] inception_4b/output <- inception_4b/5x5
I0403 19:27:00.821694 19911 net.cpp:425] inception_4b/output <- inception_4b/pool_proj
I0403 19:27:00.821712 19911 net.cpp:399] inception_4b/output -> inception_4b/output
I0403 19:27:00.821759 19911 net.cpp:141] Setting up inception_4b/output
I0403 19:27:00.821782 19911 net.cpp:148] Top shape: 24 512 14 14 (2408448)
I0403 19:27:00.821797 19911 net.cpp:156] Memory required for data: 989857056
I0403 19:27:00.821827 19911 layer_factory.hpp:77] Creating layer inception_4b/output_inception_4b/output_0_split
I0403 19:27:00.821846 19911 net.cpp:91] Creating Layer inception_4b/output_inception_4b/output_0_split
I0403 19:27:00.821861 19911 net.cpp:425] inception_4b/output_inception_4b/output_0_split <- inception_4b/output
I0403 19:27:00.821882 19911 net.cpp:399] inception_4b/output_inception_4b/output_0_split -> inception_4b/output_inception_4b/output_0_split_0
I0403 19:27:00.821903 19911 net.cpp:399] inception_4b/output_inception_4b/output_0_split -> inception_4b/output_inception_4b/output_0_split_1
I0403 19:27:00.821923 19911 net.cpp:399] inception_4b/output_inception_4b/output_0_split -> inception_4b/output_inception_4b/output_0_split_2
I0403 19:27:00.821943 19911 net.cpp:399] inception_4b/output_inception_4b/output_0_split -> inception_4b/output_inception_4b/output_0_split_3
I0403 19:27:00.822034 19911 net.cpp:141] Setting up inception_4b/output_inception_4b/output_0_split
I0403 19:27:00.822057 19911 net.cpp:148] Top shape: 24 512 14 14 (2408448)
I0403 19:27:00.822074 19911 net.cpp:148] Top shape: 24 512 14 14 (2408448)
I0403 19:27:00.822090 19911 net.cpp:148] Top shape: 24 512 14 14 (2408448)
I0403 19:27:00.822106 19911 net.cpp:148] Top shape: 24 512 14 14 (2408448)
I0403 19:27:00.822121 19911 net.cpp:156] Memory required for data: 1028392224
I0403 19:27:00.822135 19911 layer_factory.hpp:77] Creating layer inception_4c/1x1
I0403 19:27:00.822157 19911 net.cpp:91] Creating Layer inception_4c/1x1
I0403 19:27:00.822175 19911 net.cpp:425] inception_4c/1x1 <- inception_4b/output_inception_4b/output_0_split_0
I0403 19:27:00.822196 19911 net.cpp:399] inception_4c/1x1 -> inception_4c/1x1
I0403 19:27:00.823632 19911 net.cpp:141] Setting up inception_4c/1x1
I0403 19:27:00.823660 19911 net.cpp:148] Top shape: 24 128 14 14 (602112)
I0403 19:27:00.823680 19911 net.cpp:156] Memory required for data: 1030800672
I0403 19:27:00.823699 19911 layer_factory.hpp:77] Creating layer inception_4c/relu_1x1
I0403 19:27:00.823717 19911 net.cpp:91] Creating Layer inception_4c/relu_1x1
I0403 19:27:00.823734 19911 net.cpp:425] inception_4c/relu_1x1 <- inception_4c/1x1
I0403 19:27:00.823751 19911 net.cpp:386] inception_4c/relu_1x1 -> inception_4c/1x1 (in-place)
I0403 19:27:00.823931 19911 net.cpp:141] Setting up inception_4c/relu_1x1
I0403 19:27:00.823962 19911 net.cpp:148] Top shape: 24 128 14 14 (602112)
I0403 19:27:00.823979 19911 net.cpp:156] Memory required for data: 1033209120
I0403 19:27:00.823994 19911 layer_factory.hpp:77] Creating layer inception_4c/3x3_reduce
I0403 19:27:00.824018 19911 net.cpp:91] Creating Layer inception_4c/3x3_reduce
I0403 19:27:00.824035 19911 net.cpp:425] inception_4c/3x3_reduce <- inception_4b/output_inception_4b/output_0_split_1
I0403 19:27:00.824055 19911 net.cpp:399] inception_4c/3x3_reduce -> inception_4c/3x3_reduce
I0403 19:27:00.825990 19911 net.cpp:141] Setting up inception_4c/3x3_reduce
I0403 19:27:00.826020 19911 net.cpp:148] Top shape: 24 128 14 14 (602112)
I0403 19:27:00.826035 19911 net.cpp:156] Memory required for data: 1035617568
I0403 19:27:00.826053 19911 layer_factory.hpp:77] Creating layer inception_4c/relu_3x3_reduce
I0403 19:27:00.826072 19911 net.cpp:91] Creating Layer inception_4c/relu_3x3_reduce
I0403 19:27:00.826088 19911 net.cpp:425] inception_4c/relu_3x3_reduce <- inception_4c/3x3_reduce
I0403 19:27:00.826110 19911 net.cpp:386] inception_4c/relu_3x3_reduce -> inception_4c/3x3_reduce (in-place)
I0403 19:27:00.826395 19911 net.cpp:141] Setting up inception_4c/relu_3x3_reduce
I0403 19:27:00.826421 19911 net.cpp:148] Top shape: 24 128 14 14 (602112)
I0403 19:27:00.826437 19911 net.cpp:156] Memory required for data: 1038026016
I0403 19:27:00.826452 19911 layer_factory.hpp:77] Creating layer inception_4c/3x3
I0403 19:27:00.826478 19911 net.cpp:91] Creating Layer inception_4c/3x3
I0403 19:27:00.826495 19911 net.cpp:425] inception_4c/3x3 <- inception_4c/3x3_reduce
I0403 19:27:00.826517 19911 net.cpp:399] inception_4c/3x3 -> inception_4c/3x3
I0403 19:27:00.830114 19911 net.cpp:141] Setting up inception_4c/3x3
I0403 19:27:00.830157 19911 net.cpp:148] Top shape: 24 256 14 14 (1204224)
I0403 19:27:00.830173 19911 net.cpp:156] Memory required for data: 1042842912
I0403 19:27:00.830204 19911 layer_factory.hpp:77] Creating layer inception_4c/relu_3x3
I0403 19:27:00.830226 19911 net.cpp:91] Creating Layer inception_4c/relu_3x3
I0403 19:27:00.830243 19911 net.cpp:425] inception_4c/relu_3x3 <- inception_4c/3x3
I0403 19:27:00.830263 19911 net.cpp:386] inception_4c/relu_3x3 -> inception_4c/3x3 (in-place)
I0403 19:27:00.830449 19911 net.cpp:141] Setting up inception_4c/relu_3x3
I0403 19:27:00.830474 19911 net.cpp:148] Top shape: 24 256 14 14 (1204224)
I0403 19:27:00.830489 19911 net.cpp:156] Memory required for data: 1047659808
I0403 19:27:00.830504 19911 layer_factory.hpp:77] Creating layer inception_4c/5x5_reduce
I0403 19:27:00.830528 19911 net.cpp:91] Creating Layer inception_4c/5x5_reduce
I0403 19:27:00.830545 19911 net.cpp:425] inception_4c/5x5_reduce <- inception_4b/output_inception_4b/output_0_split_2
I0403 19:27:00.830569 19911 net.cpp:399] inception_4c/5x5_reduce -> inception_4c/5x5_reduce
I0403 19:27:00.831650 19911 net.cpp:141] Setting up inception_4c/5x5_reduce
I0403 19:27:00.831678 19911 net.cpp:148] Top shape: 24 24 14 14 (112896)
I0403 19:27:00.831693 19911 net.cpp:156] Memory required for data: 1048111392
I0403 19:27:00.831712 19911 layer_factory.hpp:77] Creating layer inception_4c/relu_5x5_reduce
I0403 19:27:00.831733 19911 net.cpp:91] Creating Layer inception_4c/relu_5x5_reduce
I0403 19:27:00.831751 19911 net.cpp:425] inception_4c/relu_5x5_reduce <- inception_4c/5x5_reduce
I0403 19:27:00.831773 19911 net.cpp:386] inception_4c/relu_5x5_reduce -> inception_4c/5x5_reduce (in-place)
I0403 19:27:00.831960 19911 net.cpp:141] Setting up inception_4c/relu_5x5_reduce
I0403 19:27:00.831986 19911 net.cpp:148] Top shape: 24 24 14 14 (112896)
I0403 19:27:00.832001 19911 net.cpp:156] Memory required for data: 1048562976
I0403 19:27:00.832016 19911 layer_factory.hpp:77] Creating layer inception_4c/5x5
I0403 19:27:00.832051 19911 net.cpp:91] Creating Layer inception_4c/5x5
I0403 19:27:00.832068 19911 net.cpp:425] inception_4c/5x5 <- inception_4c/5x5_reduce
I0403 19:27:00.832089 19911 net.cpp:399] inception_4c/5x5 -> inception_4c/5x5
I0403 19:27:00.833288 19911 net.cpp:141] Setting up inception_4c/5x5
I0403 19:27:00.833315 19911 net.cpp:148] Top shape: 24 64 14 14 (301056)
I0403 19:27:00.833330 19911 net.cpp:156] Memory required for data: 1049767200
I0403 19:27:00.833348 19911 layer_factory.hpp:77] Creating layer inception_4c/relu_5x5
I0403 19:27:00.833369 19911 net.cpp:91] Creating Layer inception_4c/relu_5x5
I0403 19:27:00.833385 19911 net.cpp:425] inception_4c/relu_5x5 <- inception_4c/5x5
I0403 19:27:00.833401 19911 net.cpp:386] inception_4c/relu_5x5 -> inception_4c/5x5 (in-place)
I0403 19:27:00.833680 19911 net.cpp:141] Setting up inception_4c/relu_5x5
I0403 19:27:00.833705 19911 net.cpp:148] Top shape: 24 64 14 14 (301056)
I0403 19:27:00.833720 19911 net.cpp:156] Memory required for data: 1050971424
I0403 19:27:00.833735 19911 layer_factory.hpp:77] Creating layer inception_4c/pool
I0403 19:27:00.833755 19911 net.cpp:91] Creating Layer inception_4c/pool
I0403 19:27:00.833771 19911 net.cpp:425] inception_4c/pool <- inception_4b/output_inception_4b/output_0_split_3
I0403 19:27:00.833789 19911 net.cpp:399] inception_4c/pool -> inception_4c/pool
I0403 19:27:00.833855 19911 net.cpp:141] Setting up inception_4c/pool
I0403 19:27:00.833878 19911 net.cpp:148] Top shape: 24 512 14 14 (2408448)
I0403 19:27:00.833894 19911 net.cpp:156] Memory required for data: 1060605216
I0403 19:27:00.833907 19911 layer_factory.hpp:77] Creating layer inception_4c/pool_proj
I0403 19:27:00.833928 19911 net.cpp:91] Creating Layer inception_4c/pool_proj
I0403 19:27:00.833950 19911 net.cpp:425] inception_4c/pool_proj <- inception_4c/pool
I0403 19:27:00.833972 19911 net.cpp:399] inception_4c/pool_proj -> inception_4c/pool_proj
I0403 19:27:00.835264 19911 net.cpp:141] Setting up inception_4c/pool_proj
I0403 19:27:00.835291 19911 net.cpp:148] Top shape: 24 64 14 14 (301056)
I0403 19:27:00.835320 19911 net.cpp:156] Memory required for data: 1061809440
I0403 19:27:00.835340 19911 layer_factory.hpp:77] Creating layer inception_4c/relu_pool_proj
I0403 19:27:00.835358 19911 net.cpp:91] Creating Layer inception_4c/relu_pool_proj
I0403 19:27:00.835374 19911 net.cpp:425] inception_4c/relu_pool_proj <- inception_4c/pool_proj
I0403 19:27:00.835396 19911 net.cpp:386] inception_4c/relu_pool_proj -> inception_4c/pool_proj (in-place)
I0403 19:27:00.835574 19911 net.cpp:141] Setting up inception_4c/relu_pool_proj
I0403 19:27:00.835598 19911 net.cpp:148] Top shape: 24 64 14 14 (301056)
I0403 19:27:00.835613 19911 net.cpp:156] Memory required for data: 1063013664
I0403 19:27:00.835628 19911 layer_factory.hpp:77] Creating layer inception_4c/output
I0403 19:27:00.835647 19911 net.cpp:91] Creating Layer inception_4c/output
I0403 19:27:00.835664 19911 net.cpp:425] inception_4c/output <- inception_4c/1x1
I0403 19:27:00.835680 19911 net.cpp:425] inception_4c/output <- inception_4c/3x3
I0403 19:27:00.835696 19911 net.cpp:425] inception_4c/output <- inception_4c/5x5
I0403 19:27:00.835711 19911 net.cpp:425] inception_4c/output <- inception_4c/pool_proj
I0403 19:27:00.835727 19911 net.cpp:399] inception_4c/output -> inception_4c/output
I0403 19:27:00.835774 19911 net.cpp:141] Setting up inception_4c/output
I0403 19:27:00.835798 19911 net.cpp:148] Top shape: 24 512 14 14 (2408448)
I0403 19:27:00.835813 19911 net.cpp:156] Memory required for data: 1072647456
I0403 19:27:00.835826 19911 layer_factory.hpp:77] Creating layer inception_4c/output_inception_4c/output_0_split
I0403 19:27:00.835844 19911 net.cpp:91] Creating Layer inception_4c/output_inception_4c/output_0_split
I0403 19:27:00.835858 19911 net.cpp:425] inception_4c/output_inception_4c/output_0_split <- inception_4c/output
I0403 19:27:00.835877 19911 net.cpp:399] inception_4c/output_inception_4c/output_0_split -> inception_4c/output_inception_4c/output_0_split_0
I0403 19:27:00.835898 19911 net.cpp:399] inception_4c/output_inception_4c/output_0_split -> inception_4c/output_inception_4c/output_0_split_1
I0403 19:27:00.835918 19911 net.cpp:399] inception_4c/output_inception_4c/output_0_split -> inception_4c/output_inception_4c/output_0_split_2
I0403 19:27:00.835938 19911 net.cpp:399] inception_4c/output_inception_4c/output_0_split -> inception_4c/output_inception_4c/output_0_split_3
I0403 19:27:00.836026 19911 net.cpp:141] Setting up inception_4c/output_inception_4c/output_0_split
I0403 19:27:00.836051 19911 net.cpp:148] Top shape: 24 512 14 14 (2408448)
I0403 19:27:00.836067 19911 net.cpp:148] Top shape: 24 512 14 14 (2408448)
I0403 19:27:00.836083 19911 net.cpp:148] Top shape: 24 512 14 14 (2408448)
I0403 19:27:00.836098 19911 net.cpp:148] Top shape: 24 512 14 14 (2408448)
I0403 19:27:00.836112 19911 net.cpp:156] Memory required for data: 1111182624
I0403 19:27:00.836127 19911 layer_factory.hpp:77] Creating layer inception_4d/1x1
I0403 19:27:00.836149 19911 net.cpp:91] Creating Layer inception_4d/1x1
I0403 19:27:00.836166 19911 net.cpp:425] inception_4d/1x1 <- inception_4c/output_inception_4c/output_0_split_0
I0403 19:27:00.836202 19911 net.cpp:399] inception_4d/1x1 -> inception_4d/1x1
I0403 19:27:00.837604 19911 net.cpp:141] Setting up inception_4d/1x1
I0403 19:27:00.837632 19911 net.cpp:148] Top shape: 24 112 14 14 (526848)
I0403 19:27:00.837648 19911 net.cpp:156] Memory required for data: 1113290016
I0403 19:27:00.837667 19911 layer_factory.hpp:77] Creating layer inception_4d/relu_1x1
I0403 19:27:00.837687 19911 net.cpp:91] Creating Layer inception_4d/relu_1x1
I0403 19:27:00.837713 19911 net.cpp:425] inception_4d/relu_1x1 <- inception_4d/1x1
I0403 19:27:00.837731 19911 net.cpp:386] inception_4d/relu_1x1 -> inception_4d/1x1 (in-place)
I0403 19:27:00.837935 19911 net.cpp:141] Setting up inception_4d/relu_1x1
I0403 19:27:00.837965 19911 net.cpp:148] Top shape: 24 112 14 14 (526848)
I0403 19:27:00.837982 19911 net.cpp:156] Memory required for data: 1115397408
I0403 19:27:00.837997 19911 layer_factory.hpp:77] Creating layer inception_4d/3x3_reduce
I0403 19:27:00.838035 19911 net.cpp:91] Creating Layer inception_4d/3x3_reduce
I0403 19:27:00.838066 19911 net.cpp:425] inception_4d/3x3_reduce <- inception_4c/output_inception_4c/output_0_split_1
I0403 19:27:00.838088 19911 net.cpp:399] inception_4d/3x3_reduce -> inception_4d/3x3_reduce
I0403 19:27:00.839570 19911 net.cpp:141] Setting up inception_4d/3x3_reduce
I0403 19:27:00.839598 19911 net.cpp:148] Top shape: 24 144 14 14 (677376)
I0403 19:27:00.839614 19911 net.cpp:156] Memory required for data: 1118106912
I0403 19:27:00.839632 19911 layer_factory.hpp:77] Creating layer inception_4d/relu_3x3_reduce
I0403 19:27:00.839653 19911 net.cpp:91] Creating Layer inception_4d/relu_3x3_reduce
I0403 19:27:00.839669 19911 net.cpp:425] inception_4d/relu_3x3_reduce <- inception_4d/3x3_reduce
I0403 19:27:00.839686 19911 net.cpp:386] inception_4d/relu_3x3_reduce -> inception_4d/3x3_reduce (in-place)
I0403 19:27:00.839975 19911 net.cpp:141] Setting up inception_4d/relu_3x3_reduce
I0403 19:27:00.840001 19911 net.cpp:148] Top shape: 24 144 14 14 (677376)
I0403 19:27:00.840016 19911 net.cpp:156] Memory required for data: 1120816416
I0403 19:27:00.840031 19911 layer_factory.hpp:77] Creating layer inception_4d/3x3
I0403 19:27:00.840055 19911 net.cpp:91] Creating Layer inception_4d/3x3
I0403 19:27:00.840073 19911 net.cpp:425] inception_4d/3x3 <- inception_4d/3x3_reduce
I0403 19:27:00.840092 19911 net.cpp:399] inception_4d/3x3 -> inception_4d/3x3
I0403 19:27:00.844204 19911 net.cpp:141] Setting up inception_4d/3x3
I0403 19:27:00.844235 19911 net.cpp:148] Top shape: 24 288 14 14 (1354752)
I0403 19:27:00.844251 19911 net.cpp:156] Memory required for data: 1126235424
I0403 19:27:00.844269 19911 layer_factory.hpp:77] Creating layer inception_4d/relu_3x3
I0403 19:27:00.844287 19911 net.cpp:91] Creating Layer inception_4d/relu_3x3
I0403 19:27:00.844303 19911 net.cpp:425] inception_4d/relu_3x3 <- inception_4d/3x3
I0403 19:27:00.844323 19911 net.cpp:386] inception_4d/relu_3x3 -> inception_4d/3x3 (in-place)
I0403 19:27:00.844501 19911 net.cpp:141] Setting up inception_4d/relu_3x3
I0403 19:27:00.844527 19911 net.cpp:148] Top shape: 24 288 14 14 (1354752)
I0403 19:27:00.844540 19911 net.cpp:156] Memory required for data: 1131654432
I0403 19:27:00.844555 19911 layer_factory.hpp:77] Creating layer inception_4d/5x5_reduce
I0403 19:27:00.844576 19911 net.cpp:91] Creating Layer inception_4d/5x5_reduce
I0403 19:27:00.844594 19911 net.cpp:425] inception_4d/5x5_reduce <- inception_4c/output_inception_4c/output_0_split_2
I0403 19:27:00.844615 19911 net.cpp:399] inception_4d/5x5_reduce -> inception_4d/5x5_reduce
I0403 19:27:00.845722 19911 net.cpp:141] Setting up inception_4d/5x5_reduce
I0403 19:27:00.845752 19911 net.cpp:148] Top shape: 24 32 14 14 (150528)
I0403 19:27:00.845767 19911 net.cpp:156] Memory required for data: 1132256544
I0403 19:27:00.845785 19911 layer_factory.hpp:77] Creating layer inception_4d/relu_5x5_reduce
I0403 19:27:00.845803 19911 net.cpp:91] Creating Layer inception_4d/relu_5x5_reduce
I0403 19:27:00.845820 19911 net.cpp:425] inception_4d/relu_5x5_reduce <- inception_4d/5x5_reduce
I0403 19:27:00.845840 19911 net.cpp:386] inception_4d/relu_5x5_reduce -> inception_4d/5x5_reduce (in-place)
I0403 19:27:00.846027 19911 net.cpp:141] Setting up inception_4d/relu_5x5_reduce
I0403 19:27:00.846052 19911 net.cpp:148] Top shape: 24 32 14 14 (150528)
I0403 19:27:00.846066 19911 net.cpp:156] Memory required for data: 1132858656
I0403 19:27:00.846081 19911 layer_factory.hpp:77] Creating layer inception_4d/5x5
I0403 19:27:00.846103 19911 net.cpp:91] Creating Layer inception_4d/5x5
I0403 19:27:00.846120 19911 net.cpp:425] inception_4d/5x5 <- inception_4d/5x5_reduce
I0403 19:27:00.846143 19911 net.cpp:399] inception_4d/5x5 -> inception_4d/5x5
I0403 19:27:00.847563 19911 net.cpp:141] Setting up inception_4d/5x5
I0403 19:27:00.847589 19911 net.cpp:148] Top shape: 24 64 14 14 (301056)
I0403 19:27:00.847605 19911 net.cpp:156] Memory required for data: 1134062880
I0403 19:27:00.847623 19911 layer_factory.hpp:77] Creating layer inception_4d/relu_5x5
I0403 19:27:00.847657 19911 net.cpp:91] Creating Layer inception_4d/relu_5x5
I0403 19:27:00.847676 19911 net.cpp:425] inception_4d/relu_5x5 <- inception_4d/5x5
I0403 19:27:00.847693 19911 net.cpp:386] inception_4d/relu_5x5 -> inception_4d/5x5 (in-place)
I0403 19:27:00.847990 19911 net.cpp:141] Setting up inception_4d/relu_5x5
I0403 19:27:00.848014 19911 net.cpp:148] Top shape: 24 64 14 14 (301056)
I0403 19:27:00.848029 19911 net.cpp:156] Memory required for data: 1135267104
I0403 19:27:00.848044 19911 layer_factory.hpp:77] Creating layer inception_4d/pool
I0403 19:27:00.848064 19911 net.cpp:91] Creating Layer inception_4d/pool
I0403 19:27:00.848081 19911 net.cpp:425] inception_4d/pool <- inception_4c/output_inception_4c/output_0_split_3
I0403 19:27:00.848099 19911 net.cpp:399] inception_4d/pool -> inception_4d/pool
I0403 19:27:00.848166 19911 net.cpp:141] Setting up inception_4d/pool
I0403 19:27:00.848189 19911 net.cpp:148] Top shape: 24 512 14 14 (2408448)
I0403 19:27:00.848206 19911 net.cpp:156] Memory required for data: 1144900896
I0403 19:27:00.848220 19911 layer_factory.hpp:77] Creating layer inception_4d/pool_proj
I0403 19:27:00.848242 19911 net.cpp:91] Creating Layer inception_4d/pool_proj
I0403 19:27:00.848259 19911 net.cpp:425] inception_4d/pool_proj <- inception_4d/pool
I0403 19:27:00.848279 19911 net.cpp:399] inception_4d/pool_proj -> inception_4d/pool_proj
I0403 19:27:00.849989 19911 net.cpp:141] Setting up inception_4d/pool_proj
I0403 19:27:00.850020 19911 net.cpp:148] Top shape: 24 64 14 14 (301056)
I0403 19:27:00.850038 19911 net.cpp:156] Memory required for data: 1146105120
I0403 19:27:00.850055 19911 layer_factory.hpp:77] Creating layer inception_4d/relu_pool_proj
I0403 19:27:00.850075 19911 net.cpp:91] Creating Layer inception_4d/relu_pool_proj
I0403 19:27:00.850090 19911 net.cpp:425] inception_4d/relu_pool_proj <- inception_4d/pool_proj
I0403 19:27:00.850109 19911 net.cpp:386] inception_4d/relu_pool_proj -> inception_4d/pool_proj (in-place)
I0403 19:27:00.850287 19911 net.cpp:141] Setting up inception_4d/relu_pool_proj
I0403 19:27:00.850312 19911 net.cpp:148] Top shape: 24 64 14 14 (301056)
I0403 19:27:00.850327 19911 net.cpp:156] Memory required for data: 1147309344
I0403 19:27:00.850342 19911 layer_factory.hpp:77] Creating layer inception_4d/output
I0403 19:27:00.850358 19911 net.cpp:91] Creating Layer inception_4d/output
I0403 19:27:00.850374 19911 net.cpp:425] inception_4d/output <- inception_4d/1x1
I0403 19:27:00.850390 19911 net.cpp:425] inception_4d/output <- inception_4d/3x3
I0403 19:27:00.850407 19911 net.cpp:425] inception_4d/output <- inception_4d/5x5
I0403 19:27:00.850424 19911 net.cpp:425] inception_4d/output <- inception_4d/pool_proj
I0403 19:27:00.850443 19911 net.cpp:399] inception_4d/output -> inception_4d/output
I0403 19:27:00.850491 19911 net.cpp:141] Setting up inception_4d/output
I0403 19:27:00.850515 19911 net.cpp:148] Top shape: 24 528 14 14 (2483712)
I0403 19:27:00.850530 19911 net.cpp:156] Memory required for data: 1157244192
I0403 19:27:00.850545 19911 layer_factory.hpp:77] Creating layer inception_4d/output_inception_4d/output_0_split
I0403 19:27:00.850563 19911 net.cpp:91] Creating Layer inception_4d/output_inception_4d/output_0_split
I0403 19:27:00.850579 19911 net.cpp:425] inception_4d/output_inception_4d/output_0_split <- inception_4d/output
I0403 19:27:00.850600 19911 net.cpp:399] inception_4d/output_inception_4d/output_0_split -> inception_4d/output_inception_4d/output_0_split_0
I0403 19:27:00.850621 19911 net.cpp:399] inception_4d/output_inception_4d/output_0_split -> inception_4d/output_inception_4d/output_0_split_1
I0403 19:27:00.850641 19911 net.cpp:399] inception_4d/output_inception_4d/output_0_split -> inception_4d/output_inception_4d/output_0_split_2
I0403 19:27:00.850662 19911 net.cpp:399] inception_4d/output_inception_4d/output_0_split -> inception_4d/output_inception_4d/output_0_split_3
I0403 19:27:00.850682 19911 net.cpp:399] inception_4d/output_inception_4d/output_0_split -> inception_4d/output_inception_4d/output_0_split_4
I0403 19:27:00.850783 19911 net.cpp:141] Setting up inception_4d/output_inception_4d/output_0_split
I0403 19:27:00.850821 19911 net.cpp:148] Top shape: 24 528 14 14 (2483712)
I0403 19:27:00.850838 19911 net.cpp:148] Top shape: 24 528 14 14 (2483712)
I0403 19:27:00.850854 19911 net.cpp:148] Top shape: 24 528 14 14 (2483712)
I0403 19:27:00.850869 19911 net.cpp:148] Top shape: 24 528 14 14 (2483712)
I0403 19:27:00.850885 19911 net.cpp:148] Top shape: 24 528 14 14 (2483712)
I0403 19:27:00.850899 19911 net.cpp:156] Memory required for data: 1206918432
I0403 19:27:00.850914 19911 layer_factory.hpp:77] Creating layer loss2/ave_pool
I0403 19:27:00.850930 19911 net.cpp:91] Creating Layer loss2/ave_pool
I0403 19:27:00.850950 19911 net.cpp:425] loss2/ave_pool <- inception_4d/output_inception_4d/output_0_split_0
I0403 19:27:00.850970 19911 net.cpp:399] loss2/ave_pool -> loss2/ave_pool
I0403 19:27:00.851276 19911 net.cpp:141] Setting up loss2/ave_pool
I0403 19:27:00.851305 19911 net.cpp:148] Top shape: 24 528 4 4 (202752)
I0403 19:27:00.851320 19911 net.cpp:156] Memory required for data: 1207729440
I0403 19:27:00.851336 19911 layer_factory.hpp:77] Creating layer loss2/conv
I0403 19:27:00.851357 19911 net.cpp:91] Creating Layer loss2/conv
I0403 19:27:00.851374 19911 net.cpp:425] loss2/conv <- loss2/ave_pool
I0403 19:27:00.851393 19911 net.cpp:399] loss2/conv -> loss2/conv
I0403 19:27:00.853277 19911 net.cpp:141] Setting up loss2/conv
I0403 19:27:00.853307 19911 net.cpp:148] Top shape: 24 128 4 4 (49152)
I0403 19:27:00.853322 19911 net.cpp:156] Memory required for data: 1207926048
I0403 19:27:00.853341 19911 layer_factory.hpp:77] Creating layer loss2/relu_conv
I0403 19:27:00.853363 19911 net.cpp:91] Creating Layer loss2/relu_conv
I0403 19:27:00.853380 19911 net.cpp:425] loss2/relu_conv <- loss2/conv
I0403 19:27:00.853399 19911 net.cpp:386] loss2/relu_conv -> loss2/conv (in-place)
I0403 19:27:00.853683 19911 net.cpp:141] Setting up loss2/relu_conv
I0403 19:27:00.853709 19911 net.cpp:148] Top shape: 24 128 4 4 (49152)
I0403 19:27:00.853725 19911 net.cpp:156] Memory required for data: 1208122656
I0403 19:27:00.853740 19911 layer_factory.hpp:77] Creating layer loss2/fc
I0403 19:27:00.853762 19911 net.cpp:91] Creating Layer loss2/fc
I0403 19:27:00.853780 19911 net.cpp:425] loss2/fc <- loss2/conv
I0403 19:27:00.853799 19911 net.cpp:399] loss2/fc -> loss2/fc
I0403 19:27:00.871399 19911 net.cpp:141] Setting up loss2/fc
I0403 19:27:00.871433 19911 net.cpp:148] Top shape: 24 1024 (24576)
I0403 19:27:00.871449 19911 net.cpp:156] Memory required for data: 1208220960
I0403 19:27:00.871469 19911 layer_factory.hpp:77] Creating layer loss2/relu_fc
I0403 19:27:00.871486 19911 net.cpp:91] Creating Layer loss2/relu_fc
I0403 19:27:00.871503 19911 net.cpp:425] loss2/relu_fc <- loss2/fc
I0403 19:27:00.871523 19911 net.cpp:386] loss2/relu_fc -> loss2/fc (in-place)
I0403 19:27:00.871817 19911 net.cpp:141] Setting up loss2/relu_fc
I0403 19:27:00.871843 19911 net.cpp:148] Top shape: 24 1024 (24576)
I0403 19:27:00.871857 19911 net.cpp:156] Memory required for data: 1208319264
I0403 19:27:00.871872 19911 layer_factory.hpp:77] Creating layer loss2/drop_fc
I0403 19:27:00.871891 19911 net.cpp:91] Creating Layer loss2/drop_fc
I0403 19:27:00.871906 19911 net.cpp:425] loss2/drop_fc <- loss2/fc
I0403 19:27:00.871927 19911 net.cpp:386] loss2/drop_fc -> loss2/fc (in-place)
I0403 19:27:00.871978 19911 net.cpp:141] Setting up loss2/drop_fc
I0403 19:27:00.872002 19911 net.cpp:148] Top shape: 24 1024 (24576)
I0403 19:27:00.872017 19911 net.cpp:156] Memory required for data: 1208417568
I0403 19:27:00.872032 19911 layer_factory.hpp:77] Creating layer loss2/classifier_plantvillage
I0403 19:27:00.872051 19911 net.cpp:91] Creating Layer loss2/classifier_plantvillage
I0403 19:27:00.872066 19911 net.cpp:425] loss2/classifier_plantvillage <- loss2/fc
I0403 19:27:00.872087 19911 net.cpp:399] loss2/classifier_plantvillage -> loss2/classifier_plantvillage
I0403 19:27:00.872480 19911 net.cpp:141] Setting up loss2/classifier_plantvillage
I0403 19:27:00.872504 19911 net.cpp:148] Top shape: 24 38 (912)
I0403 19:27:00.872536 19911 net.cpp:156] Memory required for data: 1208421216
I0403 19:27:00.872555 19911 layer_factory.hpp:77] Creating layer loss2/classifier_plantvillage_loss2/classifier_plantvillage_0_split
I0403 19:27:00.872575 19911 net.cpp:91] Creating Layer loss2/classifier_plantvillage_loss2/classifier_plantvillage_0_split
I0403 19:27:00.872593 19911 net.cpp:425] loss2/classifier_plantvillage_loss2/classifier_plantvillage_0_split <- loss2/classifier_plantvillage
I0403 19:27:00.872611 19911 net.cpp:399] loss2/classifier_plantvillage_loss2/classifier_plantvillage_0_split -> loss2/classifier_plantvillage_loss2/classifier_plantvillage_0_split_0
I0403 19:27:00.872630 19911 net.cpp:399] loss2/classifier_plantvillage_loss2/classifier_plantvillage_0_split -> loss2/classifier_plantvillage_loss2/classifier_plantvillage_0_split_1
I0403 19:27:00.872653 19911 net.cpp:399] loss2/classifier_plantvillage_loss2/classifier_plantvillage_0_split -> loss2/classifier_plantvillage_loss2/classifier_plantvillage_0_split_2
I0403 19:27:00.872730 19911 net.cpp:141] Setting up loss2/classifier_plantvillage_loss2/classifier_plantvillage_0_split
I0403 19:27:00.872752 19911 net.cpp:148] Top shape: 24 38 (912)
I0403 19:27:00.872768 19911 net.cpp:148] Top shape: 24 38 (912)
I0403 19:27:00.872784 19911 net.cpp:148] Top shape: 24 38 (912)
I0403 19:27:00.872798 19911 net.cpp:156] Memory required for data: 1208432160
I0403 19:27:00.872812 19911 layer_factory.hpp:77] Creating layer inception_4e/1x1
I0403 19:27:00.872833 19911 net.cpp:91] Creating Layer inception_4e/1x1
I0403 19:27:00.872851 19911 net.cpp:425] inception_4e/1x1 <- inception_4d/output_inception_4d/output_0_split_1
I0403 19:27:00.872870 19911 net.cpp:399] inception_4e/1x1 -> inception_4e/1x1
I0403 19:27:00.874629 19911 net.cpp:141] Setting up inception_4e/1x1
I0403 19:27:00.874656 19911 net.cpp:148] Top shape: 24 256 14 14 (1204224)
I0403 19:27:00.874672 19911 net.cpp:156] Memory required for data: 1213249056
I0403 19:27:00.874691 19911 layer_factory.hpp:77] Creating layer inception_4e/relu_1x1
I0403 19:27:00.874711 19911 net.cpp:91] Creating Layer inception_4e/relu_1x1
I0403 19:27:00.874727 19911 net.cpp:425] inception_4e/relu_1x1 <- inception_4e/1x1
I0403 19:27:00.874744 19911 net.cpp:386] inception_4e/relu_1x1 -> inception_4e/1x1 (in-place)
I0403 19:27:00.875035 19911 net.cpp:141] Setting up inception_4e/relu_1x1
I0403 19:27:00.875059 19911 net.cpp:148] Top shape: 24 256 14 14 (1204224)
I0403 19:27:00.875074 19911 net.cpp:156] Memory required for data: 1218065952
I0403 19:27:00.875089 19911 layer_factory.hpp:77] Creating layer inception_4e/3x3_reduce
I0403 19:27:00.875110 19911 net.cpp:91] Creating Layer inception_4e/3x3_reduce
I0403 19:27:00.875128 19911 net.cpp:425] inception_4e/3x3_reduce <- inception_4d/output_inception_4d/output_0_split_2
I0403 19:27:00.875149 19911 net.cpp:399] inception_4e/3x3_reduce -> inception_4e/3x3_reduce
I0403 19:27:00.877301 19911 net.cpp:141] Setting up inception_4e/3x3_reduce
I0403 19:27:00.877329 19911 net.cpp:148] Top shape: 24 160 14 14 (752640)
I0403 19:27:00.877346 19911 net.cpp:156] Memory required for data: 1221076512
I0403 19:27:00.877364 19911 layer_factory.hpp:77] Creating layer inception_4e/relu_3x3_reduce
I0403 19:27:00.877384 19911 net.cpp:91] Creating Layer inception_4e/relu_3x3_reduce
I0403 19:27:00.877403 19911 net.cpp:425] inception_4e/relu_3x3_reduce <- inception_4e/3x3_reduce
I0403 19:27:00.877419 19911 net.cpp:386] inception_4e/relu_3x3_reduce -> inception_4e/3x3_reduce (in-place)
I0403 19:27:00.877596 19911 net.cpp:141] Setting up inception_4e/relu_3x3_reduce
I0403 19:27:00.877621 19911 net.cpp:148] Top shape: 24 160 14 14 (752640)
I0403 19:27:00.877638 19911 net.cpp:156] Memory required for data: 1224087072
I0403 19:27:00.877653 19911 layer_factory.hpp:77] Creating layer inception_4e/3x3
I0403 19:27:00.877672 19911 net.cpp:91] Creating Layer inception_4e/3x3
I0403 19:27:00.877691 19911 net.cpp:425] inception_4e/3x3 <- inception_4e/3x3_reduce
I0403 19:27:00.877710 19911 net.cpp:399] inception_4e/3x3 -> inception_4e/3x3
I0403 19:27:00.882571 19911 net.cpp:141] Setting up inception_4e/3x3
I0403 19:27:00.882613 19911 net.cpp:148] Top shape: 24 320 14 14 (1505280)
I0403 19:27:00.882630 19911 net.cpp:156] Memory required for data: 1230108192
I0403 19:27:00.882648 19911 layer_factory.hpp:77] Creating layer inception_4e/relu_3x3
I0403 19:27:00.882668 19911 net.cpp:91] Creating Layer inception_4e/relu_3x3
I0403 19:27:00.882683 19911 net.cpp:425] inception_4e/relu_3x3 <- inception_4e/3x3
I0403 19:27:00.882700 19911 net.cpp:386] inception_4e/relu_3x3 -> inception_4e/3x3 (in-place)
I0403 19:27:00.882998 19911 net.cpp:141] Setting up inception_4e/relu_3x3
I0403 19:27:00.883026 19911 net.cpp:148] Top shape: 24 320 14 14 (1505280)
I0403 19:27:00.883044 19911 net.cpp:156] Memory required for data: 1236129312
I0403 19:27:00.883059 19911 layer_factory.hpp:77] Creating layer inception_4e/5x5_reduce
I0403 19:27:00.883081 19911 net.cpp:91] Creating Layer inception_4e/5x5_reduce
I0403 19:27:00.883100 19911 net.cpp:425] inception_4e/5x5_reduce <- inception_4d/output_inception_4d/output_0_split_3
I0403 19:27:00.883121 19911 net.cpp:399] inception_4e/5x5_reduce -> inception_4e/5x5_reduce
I0403 19:27:00.884161 19911 net.cpp:141] Setting up inception_4e/5x5_reduce
I0403 19:27:00.884188 19911 net.cpp:148] Top shape: 24 32 14 14 (150528)
I0403 19:27:00.884205 19911 net.cpp:156] Memory required for data: 1236731424
I0403 19:27:00.884223 19911 layer_factory.hpp:77] Creating layer inception_4e/relu_5x5_reduce
I0403 19:27:00.884244 19911 net.cpp:91] Creating Layer inception_4e/relu_5x5_reduce
I0403 19:27:00.884263 19911 net.cpp:425] inception_4e/relu_5x5_reduce <- inception_4e/5x5_reduce
I0403 19:27:00.884279 19911 net.cpp:386] inception_4e/relu_5x5_reduce -> inception_4e/5x5_reduce (in-place)
I0403 19:27:00.884574 19911 net.cpp:141] Setting up inception_4e/relu_5x5_reduce
I0403 19:27:00.884599 19911 net.cpp:148] Top shape: 24 32 14 14 (150528)
I0403 19:27:00.884614 19911 net.cpp:156] Memory required for data: 1237333536
I0403 19:27:00.884629 19911 layer_factory.hpp:77] Creating layer inception_4e/5x5
I0403 19:27:00.884670 19911 net.cpp:91] Creating Layer inception_4e/5x5
I0403 19:27:00.884688 19911 net.cpp:425] inception_4e/5x5 <- inception_4e/5x5_reduce
I0403 19:27:00.884708 19911 net.cpp:399] inception_4e/5x5 -> inception_4e/5x5
I0403 19:27:00.886502 19911 net.cpp:141] Setting up inception_4e/5x5
I0403 19:27:00.886529 19911 net.cpp:148] Top shape: 24 128 14 14 (602112)
I0403 19:27:00.886544 19911 net.cpp:156] Memory required for data: 1239741984
I0403 19:27:00.886564 19911 layer_factory.hpp:77] Creating layer inception_4e/relu_5x5
I0403 19:27:00.886582 19911 net.cpp:91] Creating Layer inception_4e/relu_5x5
I0403 19:27:00.886598 19911 net.cpp:425] inception_4e/relu_5x5 <- inception_4e/5x5
I0403 19:27:00.886617 19911 net.cpp:386] inception_4e/relu_5x5 -> inception_4e/5x5 (in-place)
I0403 19:27:00.886806 19911 net.cpp:141] Setting up inception_4e/relu_5x5
I0403 19:27:00.886831 19911 net.cpp:148] Top shape: 24 128 14 14 (602112)
I0403 19:27:00.886847 19911 net.cpp:156] Memory required for data: 1242150432
I0403 19:27:00.886862 19911 layer_factory.hpp:77] Creating layer inception_4e/pool
I0403 19:27:00.886881 19911 net.cpp:91] Creating Layer inception_4e/pool
I0403 19:27:00.886898 19911 net.cpp:425] inception_4e/pool <- inception_4d/output_inception_4d/output_0_split_4
I0403 19:27:00.886917 19911 net.cpp:399] inception_4e/pool -> inception_4e/pool
I0403 19:27:00.886992 19911 net.cpp:141] Setting up inception_4e/pool
I0403 19:27:00.887017 19911 net.cpp:148] Top shape: 24 528 14 14 (2483712)
I0403 19:27:00.887030 19911 net.cpp:156] Memory required for data: 1252085280
I0403 19:27:00.887045 19911 layer_factory.hpp:77] Creating layer inception_4e/pool_proj
I0403 19:27:00.887066 19911 net.cpp:91] Creating Layer inception_4e/pool_proj
I0403 19:27:00.887084 19911 net.cpp:425] inception_4e/pool_proj <- inception_4e/pool
I0403 19:27:00.887104 19911 net.cpp:399] inception_4e/pool_proj -> inception_4e/pool_proj
I0403 19:27:00.888559 19911 net.cpp:141] Setting up inception_4e/pool_proj
I0403 19:27:00.888599 19911 net.cpp:148] Top shape: 24 128 14 14 (602112)
I0403 19:27:00.888617 19911 net.cpp:156] Memory required for data: 1254493728
I0403 19:27:00.888634 19911 layer_factory.hpp:77] Creating layer inception_4e/relu_pool_proj
I0403 19:27:00.888653 19911 net.cpp:91] Creating Layer inception_4e/relu_pool_proj
I0403 19:27:00.888669 19911 net.cpp:425] inception_4e/relu_pool_proj <- inception_4e/pool_proj
I0403 19:27:00.888689 19911 net.cpp:386] inception_4e/relu_pool_proj -> inception_4e/pool_proj (in-place)
I0403 19:27:00.889000 19911 net.cpp:141] Setting up inception_4e/relu_pool_proj
I0403 19:27:00.889029 19911 net.cpp:148] Top shape: 24 128 14 14 (602112)
I0403 19:27:00.889045 19911 net.cpp:156] Memory required for data: 1256902176
I0403 19:27:00.889061 19911 layer_factory.hpp:77] Creating layer inception_4e/output
I0403 19:27:00.889080 19911 net.cpp:91] Creating Layer inception_4e/output
I0403 19:27:00.889096 19911 net.cpp:425] inception_4e/output <- inception_4e/1x1
I0403 19:27:00.889112 19911 net.cpp:425] inception_4e/output <- inception_4e/3x3
I0403 19:27:00.889128 19911 net.cpp:425] inception_4e/output <- inception_4e/5x5
I0403 19:27:00.889144 19911 net.cpp:425] inception_4e/output <- inception_4e/pool_proj
I0403 19:27:00.889164 19911 net.cpp:399] inception_4e/output -> inception_4e/output
I0403 19:27:00.889227 19911 net.cpp:141] Setting up inception_4e/output
I0403 19:27:00.889250 19911 net.cpp:148] Top shape: 24 832 14 14 (3913728)
I0403 19:27:00.889264 19911 net.cpp:156] Memory required for data: 1272557088
I0403 19:27:00.889279 19911 layer_factory.hpp:77] Creating layer pool4/3x3_s2
I0403 19:27:00.889299 19911 net.cpp:91] Creating Layer pool4/3x3_s2
I0403 19:27:00.889315 19911 net.cpp:425] pool4/3x3_s2 <- inception_4e/output
I0403 19:27:00.889334 19911 net.cpp:399] pool4/3x3_s2 -> pool4/3x3_s2
I0403 19:27:00.889401 19911 net.cpp:141] Setting up pool4/3x3_s2
I0403 19:27:00.889425 19911 net.cpp:148] Top shape: 24 832 7 7 (978432)
I0403 19:27:00.889439 19911 net.cpp:156] Memory required for data: 1276470816
I0403 19:27:00.889454 19911 layer_factory.hpp:77] Creating layer pool4/3x3_s2_pool4/3x3_s2_0_split
I0403 19:27:00.889472 19911 net.cpp:91] Creating Layer pool4/3x3_s2_pool4/3x3_s2_0_split
I0403 19:27:00.889489 19911 net.cpp:425] pool4/3x3_s2_pool4/3x3_s2_0_split <- pool4/3x3_s2
I0403 19:27:00.889508 19911 net.cpp:399] pool4/3x3_s2_pool4/3x3_s2_0_split -> pool4/3x3_s2_pool4/3x3_s2_0_split_0
I0403 19:27:00.889528 19911 net.cpp:399] pool4/3x3_s2_pool4/3x3_s2_0_split -> pool4/3x3_s2_pool4/3x3_s2_0_split_1
I0403 19:27:00.889549 19911 net.cpp:399] pool4/3x3_s2_pool4/3x3_s2_0_split -> pool4/3x3_s2_pool4/3x3_s2_0_split_2
I0403 19:27:00.889569 19911 net.cpp:399] pool4/3x3_s2_pool4/3x3_s2_0_split -> pool4/3x3_s2_pool4/3x3_s2_0_split_3
I0403 19:27:00.889658 19911 net.cpp:141] Setting up pool4/3x3_s2_pool4/3x3_s2_0_split
I0403 19:27:00.889681 19911 net.cpp:148] Top shape: 24 832 7 7 (978432)
I0403 19:27:00.889698 19911 net.cpp:148] Top shape: 24 832 7 7 (978432)
I0403 19:27:00.889714 19911 net.cpp:148] Top shape: 24 832 7 7 (978432)
I0403 19:27:00.889729 19911 net.cpp:148] Top shape: 24 832 7 7 (978432)
I0403 19:27:00.889742 19911 net.cpp:156] Memory required for data: 1292125728
I0403 19:27:00.889757 19911 layer_factory.hpp:77] Creating layer inception_5a/1x1
I0403 19:27:00.889778 19911 net.cpp:91] Creating Layer inception_5a/1x1
I0403 19:27:00.889797 19911 net.cpp:425] inception_5a/1x1 <- pool4/3x3_s2_pool4/3x3_s2_0_split_0
I0403 19:27:00.889817 19911 net.cpp:399] inception_5a/1x1 -> inception_5a/1x1
I0403 19:27:00.892621 19911 net.cpp:141] Setting up inception_5a/1x1
I0403 19:27:00.892650 19911 net.cpp:148] Top shape: 24 256 7 7 (301056)
I0403 19:27:00.892666 19911 net.cpp:156] Memory required for data: 1293329952
I0403 19:27:00.892684 19911 layer_factory.hpp:77] Creating layer inception_5a/relu_1x1
I0403 19:27:00.892701 19911 net.cpp:91] Creating Layer inception_5a/relu_1x1
I0403 19:27:00.892717 19911 net.cpp:425] inception_5a/relu_1x1 <- inception_5a/1x1
I0403 19:27:00.892737 19911 net.cpp:386] inception_5a/relu_1x1 -> inception_5a/1x1 (in-place)
I0403 19:27:00.893069 19911 net.cpp:141] Setting up inception_5a/relu_1x1
I0403 19:27:00.893095 19911 net.cpp:148] Top shape: 24 256 7 7 (301056)
I0403 19:27:00.893110 19911 net.cpp:156] Memory required for data: 1294534176
I0403 19:27:00.893126 19911 layer_factory.hpp:77] Creating layer inception_5a/3x3_reduce
I0403 19:27:00.893148 19911 net.cpp:91] Creating Layer inception_5a/3x3_reduce
I0403 19:27:00.893167 19911 net.cpp:425] inception_5a/3x3_reduce <- pool4/3x3_s2_pool4/3x3_s2_0_split_1
I0403 19:27:00.893201 19911 net.cpp:399] inception_5a/3x3_reduce -> inception_5a/3x3_reduce
I0403 19:27:00.895578 19911 net.cpp:141] Setting up inception_5a/3x3_reduce
I0403 19:27:00.895608 19911 net.cpp:148] Top shape: 24 160 7 7 (188160)
I0403 19:27:00.895625 19911 net.cpp:156] Memory required for data: 1295286816
I0403 19:27:00.895643 19911 layer_factory.hpp:77] Creating layer inception_5a/relu_3x3_reduce
I0403 19:27:00.895661 19911 net.cpp:91] Creating Layer inception_5a/relu_3x3_reduce
I0403 19:27:00.895678 19911 net.cpp:425] inception_5a/relu_3x3_reduce <- inception_5a/3x3_reduce
I0403 19:27:00.895696 19911 net.cpp:386] inception_5a/relu_3x3_reduce -> inception_5a/3x3_reduce (in-place)
I0403 19:27:00.895877 19911 net.cpp:141] Setting up inception_5a/relu_3x3_reduce
I0403 19:27:00.895901 19911 net.cpp:148] Top shape: 24 160 7 7 (188160)
I0403 19:27:00.895916 19911 net.cpp:156] Memory required for data: 1296039456
I0403 19:27:00.895931 19911 layer_factory.hpp:77] Creating layer inception_5a/3x3
I0403 19:27:00.895956 19911 net.cpp:91] Creating Layer inception_5a/3x3
I0403 19:27:00.895975 19911 net.cpp:425] inception_5a/3x3 <- inception_5a/3x3_reduce
I0403 19:27:00.895998 19911 net.cpp:399] inception_5a/3x3 -> inception_5a/3x3
I0403 19:27:00.900876 19911 net.cpp:141] Setting up inception_5a/3x3
I0403 19:27:00.900907 19911 net.cpp:148] Top shape: 24 320 7 7 (376320)
I0403 19:27:00.900923 19911 net.cpp:156] Memory required for data: 1297544736
I0403 19:27:00.900941 19911 layer_factory.hpp:77] Creating layer inception_5a/relu_3x3
I0403 19:27:00.900966 19911 net.cpp:91] Creating Layer inception_5a/relu_3x3
I0403 19:27:00.900985 19911 net.cpp:425] inception_5a/relu_3x3 <- inception_5a/3x3
I0403 19:27:00.901001 19911 net.cpp:386] inception_5a/relu_3x3 -> inception_5a/3x3 (in-place)
I0403 19:27:00.901285 19911 net.cpp:141] Setting up inception_5a/relu_3x3
I0403 19:27:00.901311 19911 net.cpp:148] Top shape: 24 320 7 7 (376320)
I0403 19:27:00.901326 19911 net.cpp:156] Memory required for data: 1299050016
I0403 19:27:00.901340 19911 layer_factory.hpp:77] Creating layer inception_5a/5x5_reduce
I0403 19:27:00.901363 19911 net.cpp:91] Creating Layer inception_5a/5x5_reduce
I0403 19:27:00.901381 19911 net.cpp:425] inception_5a/5x5_reduce <- pool4/3x3_s2_pool4/3x3_s2_0_split_2
I0403 19:27:00.901402 19911 net.cpp:399] inception_5a/5x5_reduce -> inception_5a/5x5_reduce
I0403 19:27:00.902534 19911 net.cpp:141] Setting up inception_5a/5x5_reduce
I0403 19:27:00.902561 19911 net.cpp:148] Top shape: 24 32 7 7 (37632)
I0403 19:27:00.902577 19911 net.cpp:156] Memory required for data: 1299200544
I0403 19:27:00.902596 19911 layer_factory.hpp:77] Creating layer inception_5a/relu_5x5_reduce
I0403 19:27:00.902616 19911 net.cpp:91] Creating Layer inception_5a/relu_5x5_reduce
I0403 19:27:00.902633 19911 net.cpp:425] inception_5a/relu_5x5_reduce <- inception_5a/5x5_reduce
I0403 19:27:00.902650 19911 net.cpp:386] inception_5a/relu_5x5_reduce -> inception_5a/5x5_reduce (in-place)
I0403 19:27:00.902940 19911 net.cpp:141] Setting up inception_5a/relu_5x5_reduce
I0403 19:27:00.902969 19911 net.cpp:148] Top shape: 24 32 7 7 (37632)
I0403 19:27:00.902984 19911 net.cpp:156] Memory required for data: 1299351072
I0403 19:27:00.902999 19911 layer_factory.hpp:77] Creating layer inception_5a/5x5
I0403 19:27:00.903022 19911 net.cpp:91] Creating Layer inception_5a/5x5
I0403 19:27:00.903039 19911 net.cpp:425] inception_5a/5x5 <- inception_5a/5x5_reduce
I0403 19:27:00.903060 19911 net.cpp:399] inception_5a/5x5 -> inception_5a/5x5
I0403 19:27:00.904731 19911 net.cpp:141] Setting up inception_5a/5x5
I0403 19:27:00.904768 19911 net.cpp:148] Top shape: 24 128 7 7 (150528)
I0403 19:27:00.904784 19911 net.cpp:156] Memory required for data: 1299953184
I0403 19:27:00.904803 19911 layer_factory.hpp:77] Creating layer inception_5a/relu_5x5
I0403 19:27:00.904820 19911 net.cpp:91] Creating Layer inception_5a/relu_5x5
I0403 19:27:00.904840 19911 net.cpp:425] inception_5a/relu_5x5 <- inception_5a/5x5
I0403 19:27:00.904857 19911 net.cpp:386] inception_5a/relu_5x5 -> inception_5a/5x5 (in-place)
I0403 19:27:00.905045 19911 net.cpp:141] Setting up inception_5a/relu_5x5
I0403 19:27:00.905069 19911 net.cpp:148] Top shape: 24 128 7 7 (150528)
I0403 19:27:00.905083 19911 net.cpp:156] Memory required for data: 1300555296
I0403 19:27:00.905098 19911 layer_factory.hpp:77] Creating layer inception_5a/pool
I0403 19:27:00.905117 19911 net.cpp:91] Creating Layer inception_5a/pool
I0403 19:27:00.905134 19911 net.cpp:425] inception_5a/pool <- pool4/3x3_s2_pool4/3x3_s2_0_split_3
I0403 19:27:00.905153 19911 net.cpp:399] inception_5a/pool -> inception_5a/pool
I0403 19:27:00.905225 19911 net.cpp:141] Setting up inception_5a/pool
I0403 19:27:00.905247 19911 net.cpp:148] Top shape: 24 832 7 7 (978432)
I0403 19:27:00.905261 19911 net.cpp:156] Memory required for data: 1304469024
I0403 19:27:00.905277 19911 layer_factory.hpp:77] Creating layer inception_5a/pool_proj
I0403 19:27:00.905298 19911 net.cpp:91] Creating Layer inception_5a/pool_proj
I0403 19:27:00.905315 19911 net.cpp:425] inception_5a/pool_proj <- inception_5a/pool
I0403 19:27:00.905338 19911 net.cpp:399] inception_5a/pool_proj -> inception_5a/pool_proj
I0403 19:27:00.907541 19911 net.cpp:141] Setting up inception_5a/pool_proj
I0403 19:27:00.907569 19911 net.cpp:148] Top shape: 24 128 7 7 (150528)
I0403 19:27:00.907585 19911 net.cpp:156] Memory required for data: 1305071136
I0403 19:27:00.907603 19911 layer_factory.hpp:77] Creating layer inception_5a/relu_pool_proj
I0403 19:27:00.907621 19911 net.cpp:91] Creating Layer inception_5a/relu_pool_proj
I0403 19:27:00.907639 19911 net.cpp:425] inception_5a/relu_pool_proj <- inception_5a/pool_proj
I0403 19:27:00.907657 19911 net.cpp:386] inception_5a/relu_pool_proj -> inception_5a/pool_proj (in-place)
I0403 19:27:00.907940 19911 net.cpp:141] Setting up inception_5a/relu_pool_proj
I0403 19:27:00.907969 19911 net.cpp:148] Top shape: 24 128 7 7 (150528)
I0403 19:27:00.907984 19911 net.cpp:156] Memory required for data: 1305673248
I0403 19:27:00.907999 19911 layer_factory.hpp:77] Creating layer inception_5a/output
I0403 19:27:00.908016 19911 net.cpp:91] Creating Layer inception_5a/output
I0403 19:27:00.908032 19911 net.cpp:425] inception_5a/output <- inception_5a/1x1
I0403 19:27:00.908048 19911 net.cpp:425] inception_5a/output <- inception_5a/3x3
I0403 19:27:00.908064 19911 net.cpp:425] inception_5a/output <- inception_5a/5x5
I0403 19:27:00.908080 19911 net.cpp:425] inception_5a/output <- inception_5a/pool_proj
I0403 19:27:00.908099 19911 net.cpp:399] inception_5a/output -> inception_5a/output
I0403 19:27:00.908149 19911 net.cpp:141] Setting up inception_5a/output
I0403 19:27:00.908174 19911 net.cpp:148] Top shape: 24 832 7 7 (978432)
I0403 19:27:00.908188 19911 net.cpp:156] Memory required for data: 1309586976
I0403 19:27:00.908203 19911 layer_factory.hpp:77] Creating layer inception_5a/output_inception_5a/output_0_split
I0403 19:27:00.908221 19911 net.cpp:91] Creating Layer inception_5a/output_inception_5a/output_0_split
I0403 19:27:00.908237 19911 net.cpp:425] inception_5a/output_inception_5a/output_0_split <- inception_5a/output
I0403 19:27:00.908254 19911 net.cpp:399] inception_5a/output_inception_5a/output_0_split -> inception_5a/output_inception_5a/output_0_split_0
I0403 19:27:00.908274 19911 net.cpp:399] inception_5a/output_inception_5a/output_0_split -> inception_5a/output_inception_5a/output_0_split_1
I0403 19:27:00.908294 19911 net.cpp:399] inception_5a/output_inception_5a/output_0_split -> inception_5a/output_inception_5a/output_0_split_2
I0403 19:27:00.908316 19911 net.cpp:399] inception_5a/output_inception_5a/output_0_split -> inception_5a/output_inception_5a/output_0_split_3
I0403 19:27:00.908426 19911 net.cpp:141] Setting up inception_5a/output_inception_5a/output_0_split
I0403 19:27:00.908448 19911 net.cpp:148] Top shape: 24 832 7 7 (978432)
I0403 19:27:00.908464 19911 net.cpp:148] Top shape: 24 832 7 7 (978432)
I0403 19:27:00.908479 19911 net.cpp:148] Top shape: 24 832 7 7 (978432)
I0403 19:27:00.908494 19911 net.cpp:148] Top shape: 24 832 7 7 (978432)
I0403 19:27:00.908509 19911 net.cpp:156] Memory required for data: 1325241888
I0403 19:27:00.908522 19911 layer_factory.hpp:77] Creating layer inception_5b/1x1
I0403 19:27:00.908543 19911 net.cpp:91] Creating Layer inception_5b/1x1
I0403 19:27:00.908561 19911 net.cpp:425] inception_5b/1x1 <- inception_5a/output_inception_5a/output_0_split_0
I0403 19:27:00.908582 19911 net.cpp:399] inception_5b/1x1 -> inception_5b/1x1
I0403 19:27:00.912338 19911 net.cpp:141] Setting up inception_5b/1x1
I0403 19:27:00.912371 19911 net.cpp:148] Top shape: 24 384 7 7 (451584)
I0403 19:27:00.912389 19911 net.cpp:156] Memory required for data: 1327048224
I0403 19:27:00.912407 19911 layer_factory.hpp:77] Creating layer inception_5b/relu_1x1
I0403 19:27:00.912426 19911 net.cpp:91] Creating Layer inception_5b/relu_1x1
I0403 19:27:00.912443 19911 net.cpp:425] inception_5b/relu_1x1 <- inception_5b/1x1
I0403 19:27:00.912463 19911 net.cpp:386] inception_5b/relu_1x1 -> inception_5b/1x1 (in-place)
I0403 19:27:00.912771 19911 net.cpp:141] Setting up inception_5b/relu_1x1
I0403 19:27:00.912799 19911 net.cpp:148] Top shape: 24 384 7 7 (451584)
I0403 19:27:00.912817 19911 net.cpp:156] Memory required for data: 1328854560
I0403 19:27:00.912832 19911 layer_factory.hpp:77] Creating layer inception_5b/3x3_reduce
I0403 19:27:00.912854 19911 net.cpp:91] Creating Layer inception_5b/3x3_reduce
I0403 19:27:00.912873 19911 net.cpp:425] inception_5b/3x3_reduce <- inception_5a/output_inception_5a/output_0_split_1
I0403 19:27:00.912894 19911 net.cpp:399] inception_5b/3x3_reduce -> inception_5b/3x3_reduce
I0403 19:27:00.915591 19911 net.cpp:141] Setting up inception_5b/3x3_reduce
I0403 19:27:00.915634 19911 net.cpp:148] Top shape: 24 192 7 7 (225792)
I0403 19:27:00.915652 19911 net.cpp:156] Memory required for data: 1329757728
I0403 19:27:00.915670 19911 layer_factory.hpp:77] Creating layer inception_5b/relu_3x3_reduce
I0403 19:27:00.915689 19911 net.cpp:91] Creating Layer inception_5b/relu_3x3_reduce
I0403 19:27:00.915706 19911 net.cpp:425] inception_5b/relu_3x3_reduce <- inception_5b/3x3_reduce
I0403 19:27:00.915725 19911 net.cpp:386] inception_5b/relu_3x3_reduce -> inception_5b/3x3_reduce (in-place)
I0403 19:27:00.915915 19911 net.cpp:141] Setting up inception_5b/relu_3x3_reduce
I0403 19:27:00.915940 19911 net.cpp:148] Top shape: 24 192 7 7 (225792)
I0403 19:27:00.915959 19911 net.cpp:156] Memory required for data: 1330660896
I0403 19:27:00.915977 19911 layer_factory.hpp:77] Creating layer inception_5b/3x3
I0403 19:27:00.915999 19911 net.cpp:91] Creating Layer inception_5b/3x3
I0403 19:27:00.916018 19911 net.cpp:425] inception_5b/3x3 <- inception_5b/3x3_reduce
I0403 19:27:00.916039 19911 net.cpp:399] inception_5b/3x3 -> inception_5b/3x3
I0403 19:27:00.922768 19911 net.cpp:141] Setting up inception_5b/3x3
I0403 19:27:00.922797 19911 net.cpp:148] Top shape: 24 384 7 7 (451584)
I0403 19:27:00.922813 19911 net.cpp:156] Memory required for data: 1332467232
I0403 19:27:00.922832 19911 layer_factory.hpp:77] Creating layer inception_5b/relu_3x3
I0403 19:27:00.922850 19911 net.cpp:91] Creating Layer inception_5b/relu_3x3
I0403 19:27:00.922868 19911 net.cpp:425] inception_5b/relu_3x3 <- inception_5b/3x3
I0403 19:27:00.922888 19911 net.cpp:386] inception_5b/relu_3x3 -> inception_5b/3x3 (in-place)
I0403 19:27:00.923192 19911 net.cpp:141] Setting up inception_5b/relu_3x3
I0403 19:27:00.923228 19911 net.cpp:148] Top shape: 24 384 7 7 (451584)
I0403 19:27:00.923243 19911 net.cpp:156] Memory required for data: 1334273568
I0403 19:27:00.923259 19911 layer_factory.hpp:77] Creating layer inception_5b/5x5_reduce
I0403 19:27:00.923296 19911 net.cpp:91] Creating Layer inception_5b/5x5_reduce
I0403 19:27:00.923316 19911 net.cpp:425] inception_5b/5x5_reduce <- inception_5a/output_inception_5a/output_0_split_2
I0403 19:27:00.923338 19911 net.cpp:399] inception_5b/5x5_reduce -> inception_5b/5x5_reduce
I0403 19:27:00.924613 19911 net.cpp:141] Setting up inception_5b/5x5_reduce
I0403 19:27:00.924643 19911 net.cpp:148] Top shape: 24 48 7 7 (56448)
I0403 19:27:00.924660 19911 net.cpp:156] Memory required for data: 1334499360
I0403 19:27:00.924679 19911 layer_factory.hpp:77] Creating layer inception_5b/relu_5x5_reduce
I0403 19:27:00.924698 19911 net.cpp:91] Creating Layer inception_5b/relu_5x5_reduce
I0403 19:27:00.924715 19911 net.cpp:425] inception_5b/relu_5x5_reduce <- inception_5b/5x5_reduce
I0403 19:27:00.924736 19911 net.cpp:386] inception_5b/relu_5x5_reduce -> inception_5b/5x5_reduce (in-place)
I0403 19:27:00.925109 19911 net.cpp:141] Setting up inception_5b/relu_5x5_reduce
I0403 19:27:00.925135 19911 net.cpp:148] Top shape: 24 48 7 7 (56448)
I0403 19:27:00.925153 19911 net.cpp:156] Memory required for data: 1334725152
I0403 19:27:00.925168 19911 layer_factory.hpp:77] Creating layer inception_5b/5x5
I0403 19:27:00.925187 19911 net.cpp:91] Creating Layer inception_5b/5x5
I0403 19:27:00.925207 19911 net.cpp:425] inception_5b/5x5 <- inception_5b/5x5_reduce
I0403 19:27:00.925235 19911 net.cpp:399] inception_5b/5x5 -> inception_5b/5x5
I0403 19:27:00.927306 19911 net.cpp:141] Setting up inception_5b/5x5
I0403 19:27:00.927333 19911 net.cpp:148] Top shape: 24 128 7 7 (150528)
I0403 19:27:00.927350 19911 net.cpp:156] Memory required for data: 1335327264
I0403 19:27:00.927368 19911 layer_factory.hpp:77] Creating layer inception_5b/relu_5x5
I0403 19:27:00.927386 19911 net.cpp:91] Creating Layer inception_5b/relu_5x5
I0403 19:27:00.927402 19911 net.cpp:425] inception_5b/relu_5x5 <- inception_5b/5x5
I0403 19:27:00.927423 19911 net.cpp:386] inception_5b/relu_5x5 -> inception_5b/5x5 (in-place)
I0403 19:27:00.927615 19911 net.cpp:141] Setting up inception_5b/relu_5x5
I0403 19:27:00.927639 19911 net.cpp:148] Top shape: 24 128 7 7 (150528)
I0403 19:27:00.927654 19911 net.cpp:156] Memory required for data: 1335929376
I0403 19:27:00.927670 19911 layer_factory.hpp:77] Creating layer inception_5b/pool
I0403 19:27:00.927688 19911 net.cpp:91] Creating Layer inception_5b/pool
I0403 19:27:00.927706 19911 net.cpp:425] inception_5b/pool <- inception_5a/output_inception_5a/output_0_split_3
I0403 19:27:00.927723 19911 net.cpp:399] inception_5b/pool -> inception_5b/pool
I0403 19:27:00.927796 19911 net.cpp:141] Setting up inception_5b/pool
I0403 19:27:00.927819 19911 net.cpp:148] Top shape: 24 832 7 7 (978432)
I0403 19:27:00.927834 19911 net.cpp:156] Memory required for data: 1339843104
I0403 19:27:00.927848 19911 layer_factory.hpp:77] Creating layer inception_5b/pool_proj
I0403 19:27:00.927870 19911 net.cpp:91] Creating Layer inception_5b/pool_proj
I0403 19:27:00.927887 19911 net.cpp:425] inception_5b/pool_proj <- inception_5b/pool
I0403 19:27:00.927908 19911 net.cpp:399] inception_5b/pool_proj -> inception_5b/pool_proj
I0403 19:27:00.930203 19911 net.cpp:141] Setting up inception_5b/pool_proj
I0403 19:27:00.930234 19911 net.cpp:148] Top shape: 24 128 7 7 (150528)
I0403 19:27:00.930251 19911 net.cpp:156] Memory required for data: 1340445216
I0403 19:27:00.930270 19911 layer_factory.hpp:77] Creating layer inception_5b/relu_pool_proj
I0403 19:27:00.930289 19911 net.cpp:91] Creating Layer inception_5b/relu_pool_proj
I0403 19:27:00.930305 19911 net.cpp:425] inception_5b/relu_pool_proj <- inception_5b/pool_proj
I0403 19:27:00.930325 19911 net.cpp:386] inception_5b/relu_pool_proj -> inception_5b/pool_proj (in-place)
I0403 19:27:00.930619 19911 net.cpp:141] Setting up inception_5b/relu_pool_proj
I0403 19:27:00.930644 19911 net.cpp:148] Top shape: 24 128 7 7 (150528)
I0403 19:27:00.930660 19911 net.cpp:156] Memory required for data: 1341047328
I0403 19:27:00.930675 19911 layer_factory.hpp:77] Creating layer inception_5b/output
I0403 19:27:00.930691 19911 net.cpp:91] Creating Layer inception_5b/output
I0403 19:27:00.930722 19911 net.cpp:425] inception_5b/output <- inception_5b/1x1
I0403 19:27:00.930739 19911 net.cpp:425] inception_5b/output <- inception_5b/3x3
I0403 19:27:00.930757 19911 net.cpp:425] inception_5b/output <- inception_5b/5x5
I0403 19:27:00.930773 19911 net.cpp:425] inception_5b/output <- inception_5b/pool_proj
I0403 19:27:00.930793 19911 net.cpp:399] inception_5b/output -> inception_5b/output
I0403 19:27:00.930845 19911 net.cpp:141] Setting up inception_5b/output
I0403 19:27:00.930867 19911 net.cpp:148] Top shape: 24 1024 7 7 (1204224)
I0403 19:27:00.930882 19911 net.cpp:156] Memory required for data: 1345864224
I0403 19:27:00.930897 19911 layer_factory.hpp:77] Creating layer pool5/7x7_s1
I0403 19:27:00.930917 19911 net.cpp:91] Creating Layer pool5/7x7_s1
I0403 19:27:00.930933 19911 net.cpp:425] pool5/7x7_s1 <- inception_5b/output
I0403 19:27:00.930959 19911 net.cpp:399] pool5/7x7_s1 -> pool5/7x7_s1
I0403 19:27:00.931172 19911 net.cpp:141] Setting up pool5/7x7_s1
I0403 19:27:00.931197 19911 net.cpp:148] Top shape: 24 1024 1 1 (24576)
I0403 19:27:00.931212 19911 net.cpp:156] Memory required for data: 1345962528
I0403 19:27:00.931226 19911 layer_factory.hpp:77] Creating layer pool5/drop_7x7_s1
I0403 19:27:00.931244 19911 net.cpp:91] Creating Layer pool5/drop_7x7_s1
I0403 19:27:00.931260 19911 net.cpp:425] pool5/drop_7x7_s1 <- pool5/7x7_s1
I0403 19:27:00.931280 19911 net.cpp:386] pool5/drop_7x7_s1 -> pool5/7x7_s1 (in-place)
I0403 19:27:00.931329 19911 net.cpp:141] Setting up pool5/drop_7x7_s1
I0403 19:27:00.931354 19911 net.cpp:148] Top shape: 24 1024 1 1 (24576)
I0403 19:27:00.931370 19911 net.cpp:156] Memory required for data: 1346060832
I0403 19:27:00.931385 19911 layer_factory.hpp:77] Creating layer loss3/classifier_plantvillage
I0403 19:27:00.931402 19911 net.cpp:91] Creating Layer loss3/classifier_plantvillage
I0403 19:27:00.931418 19911 net.cpp:425] loss3/classifier_plantvillage <- pool5/7x7_s1
I0403 19:27:00.931439 19911 net.cpp:399] loss3/classifier_plantvillage -> loss3/classifier_plantvillage
I0403 19:27:00.931854 19911 net.cpp:141] Setting up loss3/classifier_plantvillage
I0403 19:27:00.931880 19911 net.cpp:148] Top shape: 24 38 (912)
I0403 19:27:00.931896 19911 net.cpp:156] Memory required for data: 1346064480
I0403 19:27:00.931915 19911 layer_factory.hpp:77] Creating layer loss3/classifier_plantvillage_loss3/classifier_plantvillage_0_split
I0403 19:27:00.931932 19911 net.cpp:91] Creating Layer loss3/classifier_plantvillage_loss3/classifier_plantvillage_0_split
I0403 19:27:00.931952 19911 net.cpp:425] loss3/classifier_plantvillage_loss3/classifier_plantvillage_0_split <- loss3/classifier_plantvillage
I0403 19:27:00.931972 19911 net.cpp:399] loss3/classifier_plantvillage_loss3/classifier_plantvillage_0_split -> loss3/classifier_plantvillage_loss3/classifier_plantvillage_0_split_0
I0403 19:27:00.931991 19911 net.cpp:399] loss3/classifier_plantvillage_loss3/classifier_plantvillage_0_split -> loss3/classifier_plantvillage_loss3/classifier_plantvillage_0_split_1
I0403 19:27:00.932014 19911 net.cpp:399] loss3/classifier_plantvillage_loss3/classifier_plantvillage_0_split -> loss3/classifier_plantvillage_loss3/classifier_plantvillage_0_split_2
I0403 19:27:00.932035 19911 net.cpp:399] loss3/classifier_plantvillage_loss3/classifier_plantvillage_0_split -> loss3/classifier_plantvillage_loss3/classifier_plantvillage_0_split_3
I0403 19:27:00.932137 19911 net.cpp:141] Setting up loss3/classifier_plantvillage_loss3/classifier_plantvillage_0_split
I0403 19:27:00.932159 19911 net.cpp:148] Top shape: 24 38 (912)
I0403 19:27:00.932175 19911 net.cpp:148] Top shape: 24 38 (912)
I0403 19:27:00.932190 19911 net.cpp:148] Top shape: 24 38 (912)
I0403 19:27:00.932206 19911 net.cpp:148] Top shape: 24 38 (912)
I0403 19:27:00.932221 19911 net.cpp:156] Memory required for data: 1346079072
I0403 19:27:00.932235 19911 layer_factory.hpp:77] Creating layer loss1/loss
I0403 19:27:00.932260 19911 net.cpp:91] Creating Layer loss1/loss
I0403 19:27:00.932277 19911 net.cpp:425] loss1/loss <- loss1/classifier_plantvillage_loss1/classifier_plantvillage_0_split_0
I0403 19:27:00.932307 19911 net.cpp:425] loss1/loss <- label_data_1_split_0
…
