…
I0403 19:28:24.059062 19982 net.cpp:313] The NetState phase (1) differed from the phase (0) specified by a rule in layer data
I0403 19:28:24.060184 19982 net.cpp:49] Initializing net from parameters: 
state {
  phase: TEST
}
layer {
  name: "data"
  type: "Data"
  top: "data"
  top: "label"
  include {
    phase: TEST
  }
  transform_param {
    mirror: false
    crop_size: 224
    mean_file: "/home/mohanty/data/final_dataset/lmdb/segmented-60-40/mean.binaryproto"
  }
  data_param {
    source: "/home/mohanty/data/final_dataset/lmdb/segmented-60-40/test_db"
    batch_size: 24
    backend: LMDB
  }
}
layer {
  name: "conv1/7x7_s2"
  type: "Convolution"
  bottom: "data"
  top: "conv1/7x7_s2"
  param {
    lr_mult: 1
    decay_mult: 1
  }
  param {
    lr_mult: 2
    decay_mult: 0
  }
  convolution_param {
    num_output: 64
    pad: 3
    kernel_size: 7
    stride: 2
    weight_filler {
      type: "xavier"
      std: 0.1
    }
    bias_filler {
      type: "constant"
      value: 0.2
    }
  }
}
layer {
  name: "conv1/relu_7x7"
  type: "ReLU"
  bottom: "conv1/7x7_s2"
  top: "conv1/7x7_s2"
}
layer {
  name: "pool1/3x3_s2"
  type: "Pooling"
  bottom: "conv1/7x7_s2"
  top: "pool1/3x3_s2"
  pooling_param {
    pool: MAX
    kernel_size: 3
    stride: 2
  }
}
layer {
  name: "pool1/norm1"
  type: "LRN"
  bottom: "pool1/3x3_s2"
  top: "pool1/norm1"
  lrn_param {
    local_size: 5
    alpha: 0.0001
    beta: 0.75
  }
}
layer {
  name: "conv2/3x3_reduce"
  type: "Convolution"
  bottom: "pool1/norm1"
  top: "conv2/3x3_reduce"
  param {
    lr_mult: 1
    decay_mult: 1
  }
  param {
    lr_mult: 2
    decay_mult: 0
  }
  convolution_param {
    num_output: 64
    kernel_size: 1
    weight_filler {
      type: "xavier"
      std: 0.1
    }
    bias_filler {
      type: "constant"
      value: 0.2
    }
  }
}
layer {
  name: "conv2/relu_3x3_reduce"
  type: "ReLU"
  bottom: "conv2/3x3_reduce"
  top: "conv2/3x3_reduce"
}
layer {
  name: "conv2/3x3"
  type: "Convolution"
  bottom: "conv2/3x3_reduce"
  top: "conv2/3x3"
  param {
    lr_mult: 1
    decay_mult: 1
  }
  param {
    lr_mult: 2
    decay_mult: 0
  }
  convolution_param {
    num_output: 192
    pad: 1
    kernel_size: 3
    weight_filler {
      type: "xavier"
      std: 0.03
    }
    bias_filler {
      type: "constant"
      value: 0.2
    }
  }
}
layer {
  name: "conv2/relu_3x3"
  type: "ReLU"
  bottom: "conv2/3x3"
  top: "conv2/3x3"
}
layer {
  name: "conv2/norm2"
  type: "LRN"
  bottom: "conv2/3x3"
  top: "conv2/norm2"
  lrn_param {
    local_size: 5
    alpha: 0.0001
    beta: 0.75
  }
}
layer {
  name: "pool2/3x3_s2"
  type: "Pooling"
  bottom: "conv2/norm2"
  top: "pool2/3x3_s2"
  pooling_param {
    pool: MAX
    kernel_size: 3
    stride: 2
  }
}
layer {
  name: "inception_3a/1x1"
  type: "Convolution"
  bottom: "pool2/3x3_s2"
  top: "inception_3a/1x1"
  param {
    lr_mult: 1
    decay_mult: 1
  }
  param {
    lr_mult: 2
    decay_mult: 0
  }
  convolution_param {
    num_output: 64
    kernel_size: 1
    weight_filler {
      type: "xavier"
      std: 0.03
    }
    bias_filler {
      type: "constant"
      value: 0.2
    }
  }
}
layer {
  name: "inception_3a/relu_1x1"
  type: "ReLU"
  bottom: "inception_3a/1x1"
  top: "inception_3a/1x1"
}
layer {
  name: "inception_3a/3x3_reduce"
  type: "Convolution"
  bottom: "pool2/3x3_s2"
  top: "inception_3a/3x3_reduce"
  param {
    lr_mult: 1
    decay_mult: 1
  }
  param {
    lr_mult: 2
    decay_mult: 0
  }
  convolution_param {
    num_output: 96
    kernel_size: 1
    weight_filler {
      type: "xavier"
      std: 0.09
    }
    bias_filler {
      type: "constant"
      value: 0.2
    }
  }
}
layer {
  name: "inception_3a/relu_3x3_reduce"
  type: "ReLU"
  bottom: "inception_3a/3x3_reduce"
  top: "inception_3a/3x3_reduce"
}
layer {
  name: "inception_3a/3x3"
  type: "Convolution"
  bottom: "inception_3a/3x3_reduce"
  top: "inception_3a/3x3"
  param {
    lr_mult: 1
    decay_mult: 1
  }
  param {
    lr_mult: 2
    decay_mult: 0
  }
  convolution_param {
    num_output: 128
    pad: 1
    kernel_size: 3
    weight_filler {
      type: "xavier"
      std: 0.03
    }
    bias_filler {
      type: "constant"
      value: 0.2
    }
  }
}
layer {
  name: "inception_3a/relu_3x3"
  type: "ReLU"
  bottom: "inception_3a/3x3"
  top: "inception_3a/3x3"
}
layer {
  name: "inception_3a/5x5_reduce"
  type: "Convolution"
  bottom: "pool2/3x3_s2"
  top: "inception_3a/5x5_reduce"
  param {
    lr_mult: 1
    decay_mult: 1
  }
  param {
    lr_mult: 2
    decay_mult: 0
  }
  convolution_param {
    num_output: 16
    kernel_size: 1
    weight_filler {
      type: "xavier"
      std: 0.2
    }
    bias_filler {
      type: "constant"
      value: 0.2
    }
  }
}
layer {
  name: "inception_3a/relu_5x5_reduce"
  type: "ReLU"
  bottom: "inception_3a/5x5_reduce"
  top: "inception_3a/5x5_reduce"
}
layer {
  name: "inception_3a/5x5"
  type: "Convolution"
  bottom: "inception_3a/5x5_reduce"
  top: "inception_3a/5x5"
  param {
    lr_mult: 1
    decay_mult: 1
  }
  param {
    lr_mult: 2
    decay_mult: 0
  }
  convolution_param {
    num_output: 32
    pad: 2
    kernel_size: 5
    weight_filler {
      type: "xavier"
      std: 0.03
    }
    bias_filler {
      type: "constant"
      value: 0.2
    }
  }
}
layer {
  name: "inception_3a/relu_5x5"
  type: "ReLU"
  bottom: "inception_3a/5x5"
  top: "inception_3a/5x5"
}
layer {
  name: "inception_3a/pool"
  type: "Pooling"
  bottom: "pool2/3x3_s2"
  top: "inception_3a/pool"
  pooling_param {
    pool: MAX
    kernel_size: 3
    stride: 1
    pad: 1
  }
}
layer {
  name: "inception_3a/pool_proj"
  type: "Convolution"
  bottom: "inception_3a/pool"
  top: "inception_3a/pool_proj"
  param {
    lr_mult: 1
    decay_mult: 1
  }
  param {
    lr_mult: 2
    decay_mult: 0
  }
  convolution_param {
    num_output: 32
    kernel_size: 1
    weight_filler {
      type: "xavier"
      std: 0.1
    }
    bias_filler {
      type: "constant"
      value: 0.2
    }
  }
}
layer {
  name: "inception_3a/relu_pool_proj"
  type: "ReLU"
  bottom: "inception_3a/pool_proj"
  top: "inception_3a/pool_proj"
}
layer {
  name: "inception_3a/output"
  type: "Concat"
  bottom: "inception_3a/1x1"
  bottom: "inception_3a/3x3"
  bottom: "inception_3a/5x5"
  bottom: "inception_3a/pool_proj"
  top: "inception_3a/output"
}
layer {
  name: "inception_3b/1x1"
  type: "Convolution"
  bottom: "inception_3a/output"
  top: "inception_3b/1x1"
  param {
    lr_mult: 1
    decay_mult: 1
  }
  param {
    lr_mult: 2
    decay_mult: 0
  }
  convolution_param {
    num_output: 128
    kernel_size: 1
    weight_filler {
      type: "xavier"
      std: 0.03
    }
    bias_filler {
      type: "constant"
      value: 0.2
    }
  }
}
layer {
  name: "inception_3b/relu_1x1"
  type: "ReLU"
  bottom: "inception_3b/1x1"
  top: "inception_3b/1x1"
}
layer {
  name: "inception_3b/3x3_reduce"
  type: "Convolution"
  bottom: "inception_3a/output"
  top: "inception_3b/3x3_reduce"
  param {
    lr_mult: 1
    decay_mult: 1
  }
  param {
    lr_mult: 2
    decay_mult: 0
  }
  convolution_param {
    num_output: 128
    kernel_size: 1
    weight_filler {
      type: "xavier"
      std: 0.09
    }
    bias_filler {
      type: "constant"
      value: 0.2
    }
  }
}
layer {
  name: "inception_3b/relu_3x3_reduce"
  type: "ReLU"
  bottom: "inception_3b/3x3_reduce"
  top: "inception_3b/3x3_reduce"
}
layer {
  name: "inception_3b/3x3"
  type: "Convolution"
  bottom: "inception_3b/3x3_reduce"
  top: "inception_3b/3x3"
  param {
    lr_mult: 1
    decay_mult: 1
  }
  param {
    lr_mult: 2
    decay_mult: 0
  }
  convolution_param {
    num_output: 192
    pad: 1
    kernel_size: 3
    weight_filler {
      type: "xavier"
      std: 0.03
    }
    bias_filler {
      type: "constant"
      value: 0.2
    }
  }
}
layer {
  name: "inception_3b/relu_3x3"
  type: "ReLU"
  bottom: "inception_3b/3x3"
  top: "inception_3b/3x3"
}
layer {
  name: "inception_3b/5x5_reduce"
  type: "Convolution"
  bottom: "inception_3a/output"
  top: "inception_3b/5x5_reduce"
  param {
    lr_mult: 1
    decay_mult: 1
  }
  param {
    lr_mult: 2
    decay_mult: 0
  }
  convolution_param {
    num_output: 32
    kernel_size: 1
    weight_filler {
      type: "xavier"
      std: 0.2
    }
    bias_filler {
      type: "constant"
      value: 0.2
    }
  }
}
layer {
  name: "inception_3b/relu_5x5_reduce"
  type: "ReLU"
  bottom: "inception_3b/5x5_reduce"
  top: "inception_3b/5x5_reduce"
}
layer {
  name: "inception_3b/5x5"
  type: "Convolution"
  bottom: "inception_3b/5x5_reduce"
  top: "inception_3b/5x5"
  param {
    lr_mult: 1
    decay_mult: 1
  }
  param {
    lr_mult: 2
    decay_mult: 0
  }
  convolution_param {
    num_output: 96
    pad: 2
    kernel_size: 5
    weight_filler {
      type: "xavier"
      std: 0.03
    }
    bias_filler {
      type: "constant"
      value: 0.2
    }
  }
}
layer {
  name: "inception_3b/relu_5x5"
  type: "ReLU"
  bottom: "inception_3b/5x5"
  top: "inception_3b/5x5"
}
layer {
  name: "inception_3b/pool"
  type: "Pooling"
  bottom: "inception_3a/output"
  top: "inception_3b/pool"
  pooling_param {
    pool: MAX
    kernel_size: 3
    stride: 1
    pad: 1
  }
}
layer {
  name: "inception_3b/pool_proj"
  type: "Convolution"
  bottom: "inception_3b/pool"
  top: "inception_3b/pool_proj"
  param {
    lr_mult: 1
    decay_mult: 1
  }
  param {
    lr_mult: 2
    decay_mult: 0
  }
  convolution_param {
    num_output: 64
    kernel_size: 1
    weight_filler {
      type: "xavier"
      std: 0.1
    }
    bias_filler {
      type: "constant"
      value: 0.2
    }
  }
}
layer {
  name: "inception_3b/relu_pool_proj"
  type: "ReLU"
  bottom: "inception_3b/pool_proj"
  top: "inception_3b/pool_proj"
}
layer {
  name: "inception_3b/output"
  type: "Concat"
  bottom: "inception_3b/1x1"
  bottom: "inception_3b/3x3"
  bottom: "inception_3b/5x5"
  bottom: "inception_3b/pool_proj"
  top: "inception_3b/output"
}
layer {
  name: "pool3/3x3_s2"
  type: "Pooling"
  bottom: "inception_3b/output"
  top: "pool3/3x3_s2"
  pooling_param {
    pool: MAX
    kernel_size: 3
    stride: 2
  }
}
layer {
  name: "inception_4a/1x1"
  type: "Convolution"
  bottom: "pool3/3x3_s2"
  top: "inception_4a/1x1"
  param {
    lr_mult: 1
    decay_mult: 1
  }
  param {
    lr_mult: 2
    decay_mult: 0
  }
  convolution_param {
    num_output: 192
    kernel_size: 1
    weight_filler {
      type: "xavier"
      std: 0.03
    }
    bias_filler {
      type: "constant"
      value: 0.2
    }
  }
}
layer {
  name: "inception_4a/relu_1x1"
  type: "ReLU"
  bottom: "inception_4a/1x1"
  top: "inception_4a/1x1"
}
layer {
  name: "inception_4a/3x3_reduce"
  type: "Convolution"
  bottom: "pool3/3x3_s2"
  top: "inception_4a/3x3_reduce"
  param {
    lr_mult: 1
    decay_mult: 1
  }
  param {
    lr_mult: 2
    decay_mult: 0
  }
  convolution_param {
    num_output: 96
    kernel_size: 1
    weight_filler {
      type: "xavier"
      std: 0.09
    }
    bias_filler {
      type: "constant"
      value: 0.2
    }
  }
}
layer {
  name: "inception_4a/relu_3x3_reduce"
  type: "ReLU"
  bottom: "inception_4a/3x3_reduce"
  top: "inception_4a/3x3_reduce"
}
layer {
  name: "inception_4a/3x3"
  type: "Convolution"
  bottom: "inception_4a/3x3_reduce"
  top: "inception_4a/3x3"
  param {
    lr_mult: 1
    decay_mult: 1
  }
  param {
    lr_mult: 2
    decay_mult: 0
  }
  convolution_param {
    num_output: 208
    pad: 1
    kernel_size: 3
    weight_filler {
      type: "xavier"
      std: 0.03
    }
    bias_filler {
      type: "constant"
      value: 0.2
    }
  }
}
layer {
  name: "inception_4a/relu_3x3"
  type: "ReLU"
  bottom: "inception_4a/3x3"
  top: "inception_4a/3x3"
}
layer {
  name: "inception_4a/5x5_reduce"
  type: "Convolution"
  bottom: "pool3/3x3_s2"
  top: "inception_4a/5x5_reduce"
  param {
    lr_mult: 1
    decay_mult: 1
  }
  param {
    lr_mult: 2
    decay_mult: 0
  }
  convolution_param {
    num_output: 16
    kernel_size: 1
    weight_filler {
      type: "xavier"
      std: 0.2
    }
    bias_filler {
      type: "constant"
      value: 0.2
    }
  }
}
layer {
  name: "inception_4a/relu_5x5_reduce"
  type: "ReLU"
  bottom: "inception_4a/5x5_reduce"
  top: "inception_4a/5x5_reduce"
}
layer {
  name: "inception_4a/5x5"
  type: "Convolution"
  bottom: "inception_4a/5x5_reduce"
  top: "inception_4a/5x5"
  param {
    lr_mult: 1
    decay_mult: 1
  }
  param {
    lr_mult: 2
    decay_mult: 0
  }
  convolution_param {
    num_output: 48
    pad: 2
    kernel_size: 5
    weight_filler {
      type: "xavier"
      std: 0.03
    }
    bias_filler {
      type: "constant"
      value: 0.2
    }
  }
}
layer {
  name: "inception_4a/relu_5x5"
  type: "ReLU"
  bottom: "inception_4a/5x5"
  top: "inception_4a/5x5"
}
layer {
  name: "inception_4a/pool"
  type: "Pooling"
  bottom: "pool3/3x3_s2"
  top: "inception_4a/pool"
  pooling_param {
    pool: MAX
    kernel_size: 3
    stride: 1
    pad: 1
  }
}
layer {
  name: "inception_4a/pool_proj"
  type: "Convolution"
  bottom: "inception_4a/pool"
  top: "inception_4a/pool_proj"
  param {
    lr_mult: 1
    decay_mult: 1
  }
  param {
    lr_mult: 2
    decay_mult: 0
  }
  convolution_param {
    num_output: 64
    kernel_size: 1
    weight_filler {
      type: "xavier"
      std: 0.1
    }
    bias_filler {
      type: "constant"
      value: 0.2
    }
  }
}
layer {
  name: "inception_4a/relu_pool_proj"
  type: "ReLU"
  bottom: "inception_4a/pool_proj"
  top: "inception_4a/pool_proj"
}
layer {
  name: "inception_4a/output"
  type: "Concat"
  bottom: "inception_4a/1x1"
  bottom: "inception_4a/3x3"
  bottom: "inception_4a/5x5"
  bottom: "inception_4a/pool_proj"
  top: "inception_4a/output"
}
layer {
  name: "loss1/ave_pool"
  type: "Pooling"
  bottom: "inception_4a/output"
  top: "loss1/ave_pool"
  pooling_param {
    pool: AVE
    kernel_size: 5
    stride: 3
  }
}
layer {
  name: "loss1/conv"
  type: "Convolution"
  bottom: "loss1/ave_pool"
  top: "loss1/conv"
  param {
    lr_mult: 1
    decay_mult: 1
  }
  param {
    lr_mult: 2
    decay_mult: 0
  }
  convolution_param {
    num_output: 128
    kernel_size: 1
    weight_filler {
      type: "xavier"
      std: 0.08
    }
    bias_filler {
      type: "constant"
      value: 0.2
    }
  }
}
layer {
  name: "loss1/relu_conv"
  type: "ReLU"
  bottom: "loss1/conv"
  top: "loss1/conv"
}
layer {
  name: "loss1/fc"
  type: "InnerProduct"
  bottom: "loss1/conv"
  top: "loss1/fc"
  param {
    lr_mult: 1
    decay_mult: 1
  }
  param {
    lr_mult: 2
    decay_mult: 0
  }
  inner_product_param {
    num_output: 1024
    weight_filler {
      type: "xavier"
      std: 0.02
    }
    bias_filler {
      type: "constant"
      value: 0.2
    }
  }
}
layer {
  name: "loss1/relu_fc"
  type: "ReLU"
  bottom: "loss1/fc"
  top: "loss1/fc"
}
layer {
  name: "loss1/drop_fc"
  type: "Dropout"
  bottom: "loss1/fc"
  top: "loss1/fc"
  dropout_param {
    dropout_ratio: 0.7
  }
}
layer {
  name: "loss1/classifier_plantvillage"
  type: "InnerProduct"
  bottom: "loss1/fc"
  top: "loss1/classifier_plantvillage"
  param {
    lr_mult: 1
    decay_mult: 1
  }
  param {
    lr_mult: 2
    decay_mult: 0
  }
  inner_product_param {
    num_output: 38
    weight_filler {
      type: "xavier"
      std: 0.0009765625
    }
    bias_filler {
      type: "constant"
      value: 0
    }
  }
}
layer {
  name: "inception_4b/1x1"
  type: "Convolution"
  bottom: "inception_4a/output"
  top: "inception_4b/1x1"
  param {
    lr_mult: 1
    decay_mult: 1
  }
  param {
    lr_mult: 2
    decay_mult: 0
  }
  convolution_param {
    num_output: 160
    kernel_size: 1
    weight_filler {
      type: "xavier"
      std: 0.03
    }
    bias_filler {
      type: "constant"
      value: 0.2
    }
  }
}
layer {
  name: "inception_4b/relu_1x1"
  type: "ReLU"
  bottom: "inception_4b/1x1"
  top: "inception_4b/1x1"
}
layer {
  name: "inception_4b/3x3_reduce"
  type: "Convolution"
  bottom: "inception_4a/output"
  top: "inception_4b/3x3_reduce"
  param {
    lr_mult: 1
    decay_mult: 1
  }
  param {
    lr_mult: 2
    decay_mult: 0
  }
  convolution_param {
    num_output: 112
    kernel_size: 1
    weight_filler {
      type: "xavier"
      std: 0.09
    }
    bias_filler {
      type: "constant"
      value: 0.2
    }
  }
}
layer {
  name: "inception_4b/relu_3x3_reduce"
  type: "ReLU"
  bottom: "inception_4b/3x3_reduce"
  top: "inception_4b/3x3_reduce"
}
layer {
  name: "inception_4b/3x3"
  type: "Convolution"
  bottom: "inception_4b/3x3_reduce"
  top: "inception_4b/3x3"
  param {
    lr_mult: 1
    decay_mult: 1
  }
  param {
    lr_mult: 2
    decay_mult: 0
  }
  convolution_param {
    num_output: 224
    pad: 1
    kernel_size: 3
    weight_filler {
      type: "xavier"
      std: 0.03
    }
    bias_filler {
      type: "constant"
      value: 0.2
    }
  }
}
layer {
  name: "inception_4b/relu_3x3"
  type: "ReLU"
  bottom: "inception_4b/3x3"
  top: "inception_4b/3x3"
}
layer {
  name: "inception_4b/5x5_reduce"
  type: "Convolution"
  bottom: "inception_4a/output"
  top: "inception_4b/5x5_reduce"
  param {
    lr_mult: 1
    decay_mult: 1
  }
  param {
    lr_mult: 2
    decay_mult: 0
  }
  convolution_param {
    num_output: 24
    kernel_size: 1
    weight_filler {
      type: "xavier"
      std: 0.2
    }
    bias_filler {
      type: "constant"
      value: 0.2
    }
  }
}
layer {
  name: "inception_4b/relu_5x5_reduce"
  type: "ReLU"
  bottom: "inception_4b/5x5_reduce"
  top: "inception_4b/5x5_reduce"
}
layer {
  name: "inception_4b/5x5"
  type: "Convolution"
  bottom: "inception_4b/5x5_reduce"
  top: "inception_4b/5x5"
  param {
    lr_mult: 1
    decay_mult: 1
  }
  param {
    lr_mult: 2
    decay_mult: 0
  }
  convolution_param {
    num_output: 64
    pad: 2
    kernel_size: 5
    weight_filler {
      type: "xavier"
      std: 0.03
    }
    bias_filler {
      type: "constant"
      value: 0.2
    }
  }
}
layer {
  name: "inception_4b/relu_5x5"
  type: "ReLU"
  bottom: "inception_4b/5x5"
  top: "inception_4b/5x5"
}
layer {
  name: "inception_4b/pool"
  type: "Pooling"
  bottom: "inception_4a/output"
  top: "inception_4b/pool"
  pooling_param {
    pool: MAX
    kernel_size: 3
    stride: 1
    pad: 1
  }
}
layer {
  name: "inception_4b/pool_proj"
  type: "Convolution"
  bottom: "inception_4b/pool"
  top: "inception_4b/pool_proj"
  param {
    lr_mult: 1
    decay_mult: 1
  }
  param {
    lr_mult: 2
    decay_mult: 0
  }
  convolution_param {
    num_output: 64
    kernel_size: 1
    weight_filler {
      type: "xavier"
      std: 0.1
    }
    bias_filler {
      type: "constant"
      value: 0.2
    }
  }
}
layer {
  name: "inception_4b/relu_pool_proj"
  type: "ReLU"
  bottom: "inception_4b/pool_proj"
  top: "inception_4b/pool_proj"
}
layer {
  name: "inception_4b/output"
  type: "Concat"
  bottom: "inception_4b/1x1"
  bottom: "inception_4b/3x3"
  bottom: "inception_4b/5x5"
  bottom: "inception_4b/pool_proj"
  top: "inception_4b/output"
}
layer {
  name: "inception_4c/1x1"
  type: "Convolution"
  bottom: "inception_4b/output"
  top: "inception_4c/1x1"
  param {
    lr_mult: 1
    decay_mult: 1
  }
  param {
    lr_mult: 2
    decay_mult: 0
  }
  convolution_param {
    num_output: 128
    kernel_size: 1
    weight_filler {
      type: "xavier"
      std: 0.03
    }
    bias_filler {
      type: "constant"
      value: 0.2
    }
  }
}
layer {
  name: "inception_4c/relu_1x1"
  type: "ReLU"
  bottom: "inception_4c/1x1"
  top: "inception_4c/1x1"
}
layer {
  name: "inception_4c/3x3_reduce"
  type: "Convolution"
  bottom: "inception_4b/output"
  top: "inception_4c/3x3_reduce"
  param {
    lr_mult: 1
    decay_mult: 1
  }
  param {
    lr_mult: 2
    decay_mult: 0
  }
  convolution_param {
    num_output: 128
    kernel_size: 1
    weight_filler {
      type: "xavier"
      std: 0.09
    }
    bias_filler {
      type: "constant"
      value: 0.2
    }
  }
}
layer {
  name: "inception_4c/relu_3x3_reduce"
  type: "ReLU"
  bottom: "inception_4c/3x3_reduce"
  top: "inception_4c/3x3_reduce"
}
layer {
  name: "inception_4c/3x3"
  type: "Convolution"
  bottom: "inception_4c/3x3_reduce"
  top: "inception_4c/3x3"
  param {
    lr_mult: 1
    decay_mult: 1
  }
  param {
    lr_mult: 2
    decay_mult: 0
  }
  convolution_param {
    num_output: 256
    pad: 1
    kernel_size: 3
    weight_filler {
      type: "xavier"
      std: 0.03
    }
    bias_filler {
      type: "constant"
      value: 0.2
    }
  }
}
layer {
  name: "inception_4c/relu_3x3"
  type: "ReLU"
  bottom: "inception_4c/3x3"
  top: "inception_4c/3x3"
}
layer {
  name: "inception_4c/5x5_reduce"
  type: "Convolution"
  bottom: "inception_4b/output"
  top: "inception_4c/5x5_reduce"
  param {
    lr_mult: 1
    decay_mult: 1
  }
  param {
    lr_mult: 2
    decay_mult: 0
  }
  convolution_param {
    num_output: 24
    kernel_size: 1
    weight_filler {
      type: "xavier"
      std: 0.2
    }
    bias_filler {
      type: "constant"
      value: 0.2
    }
  }
}
layer {
  name: "inception_4c/relu_5x5_reduce"
  type: "ReLU"
  bottom: "inception_4c/5x5_reduce"
  top: "inception_4c/5x5_reduce"
}
layer {
  name: "inception_4c/5x5"
  type: "Convolution"
  bottom: "inception_4c/5x5_reduce"
  top: "inception_4c/5x5"
  param {
    lr_mult: 1
    decay_mult: 1
  }
  param {
    lr_mult: 2
    decay_mult: 0
  }
  convolution_param {
    num_output: 64
    pad: 2
    kernel_size: 5
    weight_filler {
      type: "xavier"
      std: 0.03
    }
    bias_filler {
      type: "constant"
      value: 0.2
    }
  }
}
layer {
  name: "inception_4c/relu_5x5"
  type: "ReLU"
  bottom: "inception_4c/5x5"
  top: "inception_4c/5x5"
}
layer {
  name: "inception_4c/pool"
  type: "Pooling"
  bottom: "inception_4b/output"
  top: "inception_4c/pool"
  pooling_param {
    pool: MAX
    kernel_size: 3
    stride: 1
    pad: 1
  }
}
layer {
  name: "inception_4c/pool_proj"
  type: "Convolution"
  bottom: "inception_4c/pool"
  top: "inception_4c/pool_proj"
  param {
    lr_mult: 1
    decay_mult: 1
  }
  param {
    lr_mult: 2
    decay_mult: 0
  }
  convolution_param {
    num_output: 64
    kernel_size: 1
    weight_filler {
      type: "xavier"
      std: 0.1
    }
    bias_filler {
      type: "constant"
      value: 0.2
    }
  }
}
layer {
  name: "inception_4c/relu_pool_proj"
  type: "ReLU"
  bottom: "inception_4c/pool_proj"
  top: "inception_4c/pool_proj"
}
layer {
  name: "inception_4c/output"
  type: "Concat"
  bottom: "inception_4c/1x1"
  bottom: "inception_4c/3x3"
  bottom: "inception_4c/5x5"
  bottom: "inception_4c/pool_proj"
  top: "inception_4c/output"
}
layer {
  name: "inception_4d/1x1"
  type: "Convolution"
  bottom: "inception_4c/output"
  top: "inception_4d/1x1"
  param {
    lr_mult: 1
    decay_mult: 1
  }
  param {
    lr_mult: 2
    decay_mult: 0
  }
  convolution_param {
    num_output: 112
    kernel_size: 1
    weight_filler {
      type: "xavier"
      std: 0.03
    }
    bias_filler {
      type: "constant"
      value: 0.2
    }
  }
}
layer {
  name: "inception_4d/relu_1x1"
  type: "ReLU"
  bottom: "inception_4d/1x1"
  top: "inception_4d/1x1"
}
layer {
  name: "inception_4d/3x3_reduce"
  type: "Convolution"
  bottom: "inception_4c/output"
  top: "inception_4d/3x3_reduce"
  param {
    lr_mult: 1
    decay_mult: 1
  }
  param {
    lr_mult: 2
    decay_mult: 0
  }
  convolution_param {
    num_output: 144
    kernel_size: 1
    weight_filler {
      type: "xavier"
      std: 0.09
    }
    bias_filler {
      type: "constant"
      value: 0.2
    }
  }
}
layer {
  name: "inception_4d/relu_3x3_reduce"
  type: "ReLU"
  bottom: "inception_4d/3x3_reduce"
  top: "inception_4d/3x3_reduce"
}
layer {
  name: "inception_4d/3x3"
  type: "Convolution"
  bottom: "inception_4d/3x3_reduce"
  top: "inception_4d/3x3"
  param {
    lr_mult: 1
    decay_mult: 1
  }
  param {
    lr_mult: 2
    decay_mult: 0
  }
  convolution_param {
    num_output: 288
    pad: 1
    kernel_size: 3
    weight_filler {
      type: "xavier"
      std: 0.03
    }
    bias_filler {
      type: "constant"
      value: 0.2
    }
  }
}
layer {
  name: "inception_4d/relu_3x3"
  type: "ReLU"
  bottom: "inception_4d/3x3"
  top: "inception_4d/3x3"
}
layer {
  name: "inception_4d/5x5_reduce"
  type: "Convolution"
  bottom: "inception_4c/output"
  top: "inception_4d/5x5_reduce"
  param {
    lr_mult: 1
    decay_mult: 1
  }
  param {
    lr_mult: 2
    decay_mult: 0
  }
  convolution_param {
    num_output: 32
    kernel_size: 1
    weight_filler {
      type: "xavier"
      std: 0.2
    }
    bias_filler {
      type: "constant"
      value: 0.2
    }
  }
}
layer {
  name: "inception_4d/relu_5x5_reduce"
  type: "ReLU"
  bottom: "inception_4d/5x5_reduce"
  top: "inception_4d/5x5_reduce"
}
layer {
  name: "inception_4d/5x5"
  type: "Convolution"
  bottom: "inception_4d/5x5_reduce"
  top: "inception_4d/5x5"
  param {
    lr_mult: 1
    decay_mult: 1
  }
  param {
    lr_mult: 2
    decay_mult: 0
  }
  convolution_param {
    num_output: 64
    pad: 2
    kernel_size: 5
    weight_filler {
      type: "xavier"
      std: 0.03
    }
    bias_filler {
      type: "constant"
      value: 0.2
    }
  }
}
layer {
  name: "inception_4d/relu_5x5"
  type: "ReLU"
  bottom: "inception_4d/5x5"
  top: "inception_4d/5x5"
}
layer {
  name: "inception_4d/pool"
  type: "Pooling"
  bottom: "inception_4c/output"
  top: "inception_4d/pool"
  pooling_param {
    pool: MAX
    kernel_size: 3
    stride: 1
    pad: 1
  }
}
layer {
  name: "inception_4d/pool_proj"
  type: "Convolution"
  bottom: "inception_4d/pool"
  top: "inception_4d/pool_proj"
  param {
    lr_mult: 1
    decay_mult: 1
  }
  param {
    lr_mult: 2
    decay_mult: 0
  }
  convolution_param {
    num_output: 64
    kernel_size: 1
    weight_filler {
      type: "xavier"
      std: 0.1
    }
    bias_filler {
      type: "constant"
      value: 0.2
    }
  }
}
layer {
  name: "inception_4d/relu_pool_proj"
  type: "ReLU"
  bottom: "inception_4d/pool_proj"
  top: "inception_4d/pool_proj"
}
layer {
  name: "inception_4d/output"
  type: "Concat"
  bottom: "inception_4d/1x1"
  bottom: "inception_4d/3x3"
  bottom: "inception_4d/5x5"
  bottom: "inception_4d/pool_proj"
  top: "inception_4d/output"
}
layer {
  name: "loss2/ave_pool"
  type: "Pooling"
  bottom: "inception_4d/output"
  top: "loss2/ave_pool"
  pooling_param {
    pool: AVE
    kernel_size: 5
    stride: 3
  }
}
layer {
  name: "loss2/conv"
  type: "Convolution"
  bottom: "loss2/ave_pool"
  top: "loss2/conv"
  param {
    lr_mult: 1
    decay_mult: 1
  }
  param {
    lr_mult: 2
    decay_mult: 0
  }
  convolution_param {
    num_output: 128
    kernel_size: 1
    weight_filler {
      type: "xavier"
      std: 0.08
    }
    bias_filler {
      type: "constant"
      value: 0.2
    }
  }
}
layer {
  name: "loss2/relu_conv"
  type: "ReLU"
  bottom: "loss2/conv"
  top: "loss2/conv"
}
layer {
  name: "loss2/fc"
  type: "InnerProduct"
  bottom: "loss2/conv"
  top: "loss2/fc"
  param {
    lr_mult: 1
    decay_mult: 1
  }
  param {
    lr_mult: 2
    decay_mult: 0
  }
  inner_product_param {
    num_output: 1024
    weight_filler {
      type: "xavier"
      std: 0.02
    }
    bias_filler {
      type: "constant"
      value: 0.2
    }
  }
}
layer {
  name: "loss2/relu_fc"
  type: "ReLU"
  bottom: "loss2/fc"
  top: "loss2/fc"
}
layer {
  name: "loss2/drop_fc"
  type: "Dropout"
  bottom: "loss2/fc"
  top: "loss2/fc"
  dropout_param {
    dropout_ratio: 0.7
  }
}
layer {
  name: "loss2/classifier_plantvillage"
  type: "InnerProduct"
  bottom: "loss2/fc"
  top: "loss2/classifier_plantvillage"
  param {
    lr_mult: 1
    decay_mult: 1
  }
  param {
    lr_mult: 2
    decay_mult: 0
  }
  inner_product_param {
    num_output: 38
    weight_filler {
      type: "xavier"
      std: 0.0009765625
    }
    bias_filler {
      type: "constant"
      value: 0
    }
  }
}
layer {
  name: "inception_4e/1x1"
  type: "Convolution"
  bottom: "inception_4d/output"
  top: "inception_4e/1x1"
  param {
    lr_mult: 1
    decay_mult: 1
  }
  param {
    lr_mult: 2
    decay_mult: 0
  }
  convolution_param {
    num_output: 256
    kernel_size: 1
    weight_filler {
      type: "xavier"
      std: 0.03
    }
    bias_filler {
      type: "constant"
      value: 0.2
    }
  }
}
layer {
  name: "inception_4e/relu_1x1"
  type: "ReLU"
  bottom: "inception_4e/1x1"
  top: "inception_4e/1x1"
}
layer {
  name: "inception_4e/3x3_reduce"
  type: "Convolution"
  bottom: "inception_4d/output"
  top: "inception_4e/3x3_reduce"
  param {
    lr_mult: 1
    decay_mult: 1
  }
  param {
    lr_mult: 2
    decay_mult: 0
  }
  convolution_param {
    num_output: 160
    kernel_size: 1
    weight_filler {
      type: "xavier"
      std: 0.09
    }
    bias_filler {
      type: "constant"
      value: 0.2
    }
  }
}
layer {
  name: "inception_4e/relu_3x3_reduce"
  type: "ReLU"
  bottom: "inception_4e/3x3_reduce"
  top: "inception_4e/3x3_reduce"
}
layer {
  name: "inception_4e/3x3"
  type: "Convolution"
  bottom: "inception_4e/3x3_reduce"
  top: "inception_4e/3x3"
  param {
    lr_mult: 1
    decay_mult: 1
  }
  param {
    lr_mult: 2
    decay_mult: 0
  }
  convolution_param {
    num_output: 320
    pad: 1
    kernel_size: 3
    weight_filler {
      type: "xavier"
      std: 0.03
    }
    bias_filler {
      type: "constant"
      value: 0.2
    }
  }
}
layer {
  name: "inception_4e/relu_3x3"
  type: "ReLU"
  bottom: "inception_4e/3x3"
  top: "inception_4e/3x3"
}
layer {
  name: "inception_4e/5x5_reduce"
  type: "Convolution"
  bottom: "inception_4d/output"
  top: "inception_4e/5x5_reduce"
  param {
    lr_mult: 1
    decay_mult: 1
  }
  param {
    lr_mult: 2
    decay_mult: 0
  }
  convolution_param {
    num_output: 32
    kernel_size: 1
    weight_filler {
      type: "xavier"
      std: 0.2
    }
    bias_filler {
      type: "constant"
      value: 0.2
    }
  }
}
layer {
  name: "inception_4e/relu_5x5_reduce"
  type: "ReLU"
  bottom: "inception_4e/5x5_reduce"
  top: "inception_4e/5x5_reduce"
}
layer {
  name: "inception_4e/5x5"
  type: "Convolution"
  bottom: "inception_4e/5x5_reduce"
  top: "inception_4e/
I0403 19:28:24.061359 19982 layer_factory.hpp:77] Creating layer data
I0403 19:28:24.061930 19982 net.cpp:91] Creating Layer data
I0403 19:28:24.061970 19982 net.cpp:399] data -> data
I0403 19:28:24.062021 19982 net.cpp:399] data -> label
I0403 19:28:24.062057 19982 data_transformer.cpp:25] Loading mean file from: /home/mohanty/data/final_dataset/lmdb/segmented-60-40/mean.binaryproto
I0403 19:28:24.063222 19985 db_lmdb.cpp:38] Opened lmdb /home/mohanty/data/final_dataset/lmdb/segmented-60-40/test_db
I0403 19:28:24.074515 19982 data_layer.cpp:41] output data size: 24,3,224,224
I0403 19:28:24.101135 19982 net.cpp:141] Setting up data
I0403 19:28:24.101218 19982 net.cpp:148] Top shape: 24 3 224 224 (3612672)
I0403 19:28:24.101241 19982 net.cpp:148] Top shape: 24 (24)
I0403 19:28:24.101258 19982 net.cpp:156] Memory required for data: 14450784
I0403 19:28:24.101284 19982 layer_factory.hpp:77] Creating layer label_data_1_split
I0403 19:28:24.101310 19982 net.cpp:91] Creating Layer label_data_1_split
I0403 19:28:24.101327 19982 net.cpp:425] label_data_1_split <- label
I0403 19:28:24.101357 19982 net.cpp:399] label_data_1_split -> label_data_1_split_0
I0403 19:28:24.101384 19982 net.cpp:399] label_data_1_split -> label_data_1_split_1
I0403 19:28:24.101405 19982 net.cpp:399] label_data_1_split -> label_data_1_split_2
I0403 19:28:24.101425 19982 net.cpp:399] label_data_1_split -> label_data_1_split_3
I0403 19:28:24.101445 19982 net.cpp:399] label_data_1_split -> label_data_1_split_4
I0403 19:28:24.101464 19982 net.cpp:399] label_data_1_split -> label_data_1_split_5
I0403 19:28:24.101483 19982 net.cpp:399] label_data_1_split -> label_data_1_split_6
I0403 19:28:24.101503 19982 net.cpp:399] label_data_1_split -> label_data_1_split_7
I0403 19:28:24.101522 19982 net.cpp:399] label_data_1_split -> label_data_1_split_8
I0403 19:28:24.101541 19982 net.cpp:399] label_data_1_split -> label_data_1_split_9
I0403 19:28:24.101655 19982 net.cpp:141] Setting up label_data_1_split
I0403 19:28:24.101677 19982 net.cpp:148] Top shape: 24 (24)
I0403 19:28:24.101696 19982 net.cpp:148] Top shape: 24 (24)
I0403 19:28:24.101711 19982 net.cpp:148] Top shape: 24 (24)
I0403 19:28:24.101727 19982 net.cpp:148] Top shape: 24 (24)
I0403 19:28:24.101742 19982 net.cpp:148] Top shape: 24 (24)
I0403 19:28:24.101758 19982 net.cpp:148] Top shape: 24 (24)
I0403 19:28:24.101773 19982 net.cpp:148] Top shape: 24 (24)
I0403 19:28:24.101789 19982 net.cpp:148] Top shape: 24 (24)
I0403 19:28:24.101805 19982 net.cpp:148] Top shape: 24 (24)
I0403 19:28:24.101821 19982 net.cpp:148] Top shape: 24 (24)
I0403 19:28:24.101864 19982 net.cpp:156] Memory required for data: 14451744
I0403 19:28:24.101881 19982 layer_factory.hpp:77] Creating layer conv1/7x7_s2
I0403 19:28:24.101912 19982 net.cpp:91] Creating Layer conv1/7x7_s2
I0403 19:28:24.101929 19982 net.cpp:425] conv1/7x7_s2 <- data
I0403 19:28:24.101953 19982 net.cpp:399] conv1/7x7_s2 -> conv1/7x7_s2
I0403 19:28:24.237319 19982 net.cpp:141] Setting up conv1/7x7_s2
I0403 19:28:24.237404 19982 net.cpp:148] Top shape: 24 64 112 112 (19267584)
I0403 19:28:24.237422 19982 net.cpp:156] Memory required for data: 91522080
I0403 19:28:24.237452 19982 layer_factory.hpp:77] Creating layer conv1/relu_7x7
I0403 19:28:24.237478 19982 net.cpp:91] Creating Layer conv1/relu_7x7
I0403 19:28:24.237494 19982 net.cpp:425] conv1/relu_7x7 <- conv1/7x7_s2
I0403 19:28:24.237514 19982 net.cpp:386] conv1/relu_7x7 -> conv1/7x7_s2 (in-place)
I0403 19:28:24.237759 19982 net.cpp:141] Setting up conv1/relu_7x7
I0403 19:28:24.237785 19982 net.cpp:148] Top shape: 24 64 112 112 (19267584)
I0403 19:28:24.237800 19982 net.cpp:156] Memory required for data: 168592416
I0403 19:28:24.237815 19982 layer_factory.hpp:77] Creating layer pool1/3x3_s2
I0403 19:28:24.237838 19982 net.cpp:91] Creating Layer pool1/3x3_s2
I0403 19:28:24.237856 19982 net.cpp:425] pool1/3x3_s2 <- conv1/7x7_s2
I0403 19:28:24.237874 19982 net.cpp:399] pool1/3x3_s2 -> pool1/3x3_s2
I0403 19:28:24.237949 19982 net.cpp:141] Setting up pool1/3x3_s2
I0403 19:28:24.237973 19982 net.cpp:148] Top shape: 24 64 56 56 (4816896)
I0403 19:28:24.237987 19982 net.cpp:156] Memory required for data: 187860000
I0403 19:28:24.238001 19982 layer_factory.hpp:77] Creating layer pool1/norm1
I0403 19:28:24.238025 19982 net.cpp:91] Creating Layer pool1/norm1
I0403 19:28:24.238042 19982 net.cpp:425] pool1/norm1 <- pool1/3x3_s2
I0403 19:28:24.238059 19982 net.cpp:399] pool1/norm1 -> pool1/norm1
I0403 19:28:24.238332 19982 net.cpp:141] Setting up pool1/norm1
I0403 19:28:24.238358 19982 net.cpp:148] Top shape: 24 64 56 56 (4816896)
I0403 19:28:24.238373 19982 net.cpp:156] Memory required for data: 207127584
I0403 19:28:24.238386 19982 layer_factory.hpp:77] Creating layer conv2/3x3_reduce
I0403 19:28:24.238410 19982 net.cpp:91] Creating Layer conv2/3x3_reduce
I0403 19:28:24.238426 19982 net.cpp:425] conv2/3x3_reduce <- pool1/norm1
I0403 19:28:24.238445 19982 net.cpp:399] conv2/3x3_reduce -> conv2/3x3_reduce
I0403 19:28:24.239748 19982 net.cpp:141] Setting up conv2/3x3_reduce
I0403 19:28:24.239775 19982 net.cpp:148] Top shape: 24 64 56 56 (4816896)
I0403 19:28:24.239791 19982 net.cpp:156] Memory required for data: 226395168
I0403 19:28:24.239812 19982 layer_factory.hpp:77] Creating layer conv2/relu_3x3_reduce
I0403 19:28:24.239830 19982 net.cpp:91] Creating Layer conv2/relu_3x3_reduce
I0403 19:28:24.239845 19982 net.cpp:425] conv2/relu_3x3_reduce <- conv2/3x3_reduce
I0403 19:28:24.239861 19982 net.cpp:386] conv2/relu_3x3_reduce -> conv2/3x3_reduce (in-place)
I0403 19:28:24.240105 19982 net.cpp:141] Setting up conv2/relu_3x3_reduce
I0403 19:28:24.240131 19982 net.cpp:148] Top shape: 24 64 56 56 (4816896)
I0403 19:28:24.240146 19982 net.cpp:156] Memory required for data: 245662752
I0403 19:28:24.240160 19982 layer_factory.hpp:77] Creating layer conv2/3x3
I0403 19:28:24.240181 19982 net.cpp:91] Creating Layer conv2/3x3
I0403 19:28:24.240197 19982 net.cpp:425] conv2/3x3 <- conv2/3x3_reduce
I0403 19:28:24.240216 19982 net.cpp:399] conv2/3x3 -> conv2/3x3
I0403 19:28:24.242352 19982 net.cpp:141] Setting up conv2/3x3
I0403 19:28:24.242379 19982 net.cpp:148] Top shape: 24 192 56 56 (14450688)
I0403 19:28:24.242396 19982 net.cpp:156] Memory required for data: 303465504
I0403 19:28:24.242416 19982 layer_factory.hpp:77] Creating layer conv2/relu_3x3
I0403 19:28:24.242434 19982 net.cpp:91] Creating Layer conv2/relu_3x3
I0403 19:28:24.242450 19982 net.cpp:425] conv2/relu_3x3 <- conv2/3x3
I0403 19:28:24.242466 19982 net.cpp:386] conv2/relu_3x3 -> conv2/3x3 (in-place)
I0403 19:28:24.242621 19982 net.cpp:141] Setting up conv2/relu_3x3
I0403 19:28:24.242645 19982 net.cpp:148] Top shape: 24 192 56 56 (14450688)
I0403 19:28:24.242691 19982 net.cpp:156] Memory required for data: 361268256
I0403 19:28:24.242705 19982 layer_factory.hpp:77] Creating layer conv2/norm2
I0403 19:28:24.242723 19982 net.cpp:91] Creating Layer conv2/norm2
I0403 19:28:24.242739 19982 net.cpp:425] conv2/norm2 <- conv2/3x3
I0403 19:28:24.242756 19982 net.cpp:399] conv2/norm2 -> conv2/norm2
I0403 19:28:24.243031 19982 net.cpp:141] Setting up conv2/norm2
I0403 19:28:24.243057 19982 net.cpp:148] Top shape: 24 192 56 56 (14450688)
I0403 19:28:24.243072 19982 net.cpp:156] Memory required for data: 419071008
I0403 19:28:24.243086 19982 layer_factory.hpp:77] Creating layer pool2/3x3_s2
I0403 19:28:24.243103 19982 net.cpp:91] Creating Layer pool2/3x3_s2
I0403 19:28:24.243119 19982 net.cpp:425] pool2/3x3_s2 <- conv2/norm2
I0403 19:28:24.243136 19982 net.cpp:399] pool2/3x3_s2 -> pool2/3x3_s2
I0403 19:28:24.243196 19982 net.cpp:141] Setting up pool2/3x3_s2
I0403 19:28:24.243218 19982 net.cpp:148] Top shape: 24 192 28 28 (3612672)
I0403 19:28:24.243233 19982 net.cpp:156] Memory required for data: 433521696
I0403 19:28:24.243247 19982 layer_factory.hpp:77] Creating layer pool2/3x3_s2_pool2/3x3_s2_0_split
I0403 19:28:24.243265 19982 net.cpp:91] Creating Layer pool2/3x3_s2_pool2/3x3_s2_0_split
I0403 19:28:24.243280 19982 net.cpp:425] pool2/3x3_s2_pool2/3x3_s2_0_split <- pool2/3x3_s2
I0403 19:28:24.243299 19982 net.cpp:399] pool2/3x3_s2_pool2/3x3_s2_0_split -> pool2/3x3_s2_pool2/3x3_s2_0_split_0
I0403 19:28:24.243317 19982 net.cpp:399] pool2/3x3_s2_pool2/3x3_s2_0_split -> pool2/3x3_s2_pool2/3x3_s2_0_split_1
I0403 19:28:24.243336 19982 net.cpp:399] pool2/3x3_s2_pool2/3x3_s2_0_split -> pool2/3x3_s2_pool2/3x3_s2_0_split_2
I0403 19:28:24.243355 19982 net.cpp:399] pool2/3x3_s2_pool2/3x3_s2_0_split -> pool2/3x3_s2_pool2/3x3_s2_0_split_3
I0403 19:28:24.243418 19982 net.cpp:141] Setting up pool2/3x3_s2_pool2/3x3_s2_0_split
I0403 19:28:24.243440 19982 net.cpp:148] Top shape: 24 192 28 28 (3612672)
I0403 19:28:24.243458 19982 net.cpp:148] Top shape: 24 192 28 28 (3612672)
I0403 19:28:24.243485 19982 net.cpp:148] Top shape: 24 192 28 28 (3612672)
I0403 19:28:24.243500 19982 net.cpp:148] Top shape: 24 192 28 28 (3612672)
I0403 19:28:24.243515 19982 net.cpp:156] Memory required for data: 491324448
I0403 19:28:24.243528 19982 layer_factory.hpp:77] Creating layer inception_3a/1x1
I0403 19:28:24.243547 19982 net.cpp:91] Creating Layer inception_3a/1x1
I0403 19:28:24.243563 19982 net.cpp:425] inception_3a/1x1 <- pool2/3x3_s2_pool2/3x3_s2_0_split_0
I0403 19:28:24.243580 19982 net.cpp:399] inception_3a/1x1 -> inception_3a/1x1
I0403 19:28:24.244971 19982 net.cpp:141] Setting up inception_3a/1x1
I0403 19:28:24.244998 19982 net.cpp:148] Top shape: 24 64 28 28 (1204224)
I0403 19:28:24.245014 19982 net.cpp:156] Memory required for data: 496141344
I0403 19:28:24.245033 19982 layer_factory.hpp:77] Creating layer inception_3a/relu_1x1
I0403 19:28:24.245050 19982 net.cpp:91] Creating Layer inception_3a/relu_1x1
I0403 19:28:24.245065 19982 net.cpp:425] inception_3a/relu_1x1 <- inception_3a/1x1
I0403 19:28:24.245082 19982 net.cpp:386] inception_3a/relu_1x1 -> inception_3a/1x1 (in-place)
I0403 19:28:24.245236 19982 net.cpp:141] Setting up inception_3a/relu_1x1
I0403 19:28:24.245260 19982 net.cpp:148] Top shape: 24 64 28 28 (1204224)
I0403 19:28:24.245275 19982 net.cpp:156] Memory required for data: 500958240
I0403 19:28:24.245290 19982 layer_factory.hpp:77] Creating layer inception_3a/3x3_reduce
I0403 19:28:24.245308 19982 net.cpp:91] Creating Layer inception_3a/3x3_reduce
I0403 19:28:24.245326 19982 net.cpp:425] inception_3a/3x3_reduce <- pool2/3x3_s2_pool2/3x3_s2_0_split_1
I0403 19:28:24.245343 19982 net.cpp:399] inception_3a/3x3_reduce -> inception_3a/3x3_reduce
I0403 19:28:24.246879 19982 net.cpp:141] Setting up inception_3a/3x3_reduce
I0403 19:28:24.246907 19982 net.cpp:148] Top shape: 24 96 28 28 (1806336)
I0403 19:28:24.246923 19982 net.cpp:156] Memory required for data: 508183584
I0403 19:28:24.246944 19982 layer_factory.hpp:77] Creating layer inception_3a/relu_3x3_reduce
I0403 19:28:24.246983 19982 net.cpp:91] Creating Layer inception_3a/relu_3x3_reduce
I0403 19:28:24.247000 19982 net.cpp:425] inception_3a/relu_3x3_reduce <- inception_3a/3x3_reduce
I0403 19:28:24.247017 19982 net.cpp:386] inception_3a/relu_3x3_reduce -> inception_3a/3x3_reduce (in-place)
I0403 19:28:24.247182 19982 net.cpp:141] Setting up inception_3a/relu_3x3_reduce
I0403 19:28:24.247207 19982 net.cpp:148] Top shape: 24 96 28 28 (1806336)
I0403 19:28:24.247221 19982 net.cpp:156] Memory required for data: 515408928
I0403 19:28:24.247236 19982 layer_factory.hpp:77] Creating layer inception_3a/3x3
I0403 19:28:24.247258 19982 net.cpp:91] Creating Layer inception_3a/3x3
I0403 19:28:24.247275 19982 net.cpp:425] inception_3a/3x3 <- inception_3a/3x3_reduce
I0403 19:28:24.247293 19982 net.cpp:399] inception_3a/3x3 -> inception_3a/3x3
I0403 19:28:24.248870 19982 net.cpp:141] Setting up inception_3a/3x3
I0403 19:28:24.248898 19982 net.cpp:148] Top shape: 24 128 28 28 (2408448)
I0403 19:28:24.248914 19982 net.cpp:156] Memory required for data: 525042720
I0403 19:28:24.248931 19982 layer_factory.hpp:77] Creating layer inception_3a/relu_3x3
I0403 19:28:24.248960 19982 net.cpp:91] Creating Layer inception_3a/relu_3x3
I0403 19:28:24.248977 19982 net.cpp:425] inception_3a/relu_3x3 <- inception_3a/3x3
I0403 19:28:24.248996 19982 net.cpp:386] inception_3a/relu_3x3 -> inception_3a/3x3 (in-place)
I0403 19:28:24.249261 19982 net.cpp:141] Setting up inception_3a/relu_3x3
I0403 19:28:24.249286 19982 net.cpp:148] Top shape: 24 128 28 28 (2408448)
I0403 19:28:24.249302 19982 net.cpp:156] Memory required for data: 534676512
I0403 19:28:24.249317 19982 layer_factory.hpp:77] Creating layer inception_3a/5x5_reduce
I0403 19:28:24.249339 19982 net.cpp:91] Creating Layer inception_3a/5x5_reduce
I0403 19:28:24.249356 19982 net.cpp:425] inception_3a/5x5_reduce <- pool2/3x3_s2_pool2/3x3_s2_0_split_2
I0403 19:28:24.249377 19982 net.cpp:399] inception_3a/5x5_reduce -> inception_3a/5x5_reduce
I0403 19:28:24.250314 19982 net.cpp:141] Setting up inception_3a/5x5_reduce
I0403 19:28:24.250341 19982 net.cpp:148] Top shape: 24 16 28 28 (301056)
I0403 19:28:24.250358 19982 net.cpp:156] Memory required for data: 535880736
I0403 19:28:24.250376 19982 layer_factory.hpp:77] Creating layer inception_3a/relu_5x5_reduce
I0403 19:28:24.250393 19982 net.cpp:91] Creating Layer inception_3a/relu_5x5_reduce
I0403 19:28:24.250409 19982 net.cpp:425] inception_3a/relu_5x5_reduce <- inception_3a/5x5_reduce
I0403 19:28:24.250429 19982 net.cpp:386] inception_3a/relu_5x5_reduce -> inception_3a/5x5_reduce (in-place)
I0403 19:28:24.250728 19982 net.cpp:141] Setting up inception_3a/relu_5x5_reduce
I0403 19:28:24.250753 19982 net.cpp:148] Top shape: 24 16 28 28 (301056)
I0403 19:28:24.250768 19982 net.cpp:156] Memory required for data: 537084960
I0403 19:28:24.250782 19982 layer_factory.hpp:77] Creating layer inception_3a/5x5
I0403 19:28:24.250804 19982 net.cpp:91] Creating Layer inception_3a/5x5
I0403 19:28:24.250820 19982 net.cpp:425] inception_3a/5x5 <- inception_3a/5x5_reduce
I0403 19:28:24.250840 19982 net.cpp:399] inception_3a/5x5 -> inception_3a/5x5
I0403 19:28:24.251813 19982 net.cpp:141] Setting up inception_3a/5x5
I0403 19:28:24.251842 19982 net.cpp:148] Top shape: 24 32 28 28 (602112)
I0403 19:28:24.251858 19982 net.cpp:156] Memory required for data: 539493408
I0403 19:28:24.251875 19982 layer_factory.hpp:77] Creating layer inception_3a/relu_5x5
I0403 19:28:24.251893 19982 net.cpp:91] Creating Layer inception_3a/relu_5x5
I0403 19:28:24.251909 19982 net.cpp:425] inception_3a/relu_5x5 <- inception_3a/5x5
I0403 19:28:24.251925 19982 net.cpp:386] inception_3a/relu_5x5 -> inception_3a/5x5 (in-place)
I0403 19:28:24.252099 19982 net.cpp:141] Setting up inception_3a/relu_5x5
I0403 19:28:24.252123 19982 net.cpp:148] Top shape: 24 32 28 28 (602112)
I0403 19:28:24.252138 19982 net.cpp:156] Memory required for data: 541901856
I0403 19:28:24.252152 19982 layer_factory.hpp:77] Creating layer inception_3a/pool
I0403 19:28:24.252169 19982 net.cpp:91] Creating Layer inception_3a/pool
I0403 19:28:24.252198 19982 net.cpp:425] inception_3a/pool <- pool2/3x3_s2_pool2/3x3_s2_0_split_3
I0403 19:28:24.252219 19982 net.cpp:399] inception_3a/pool -> inception_3a/pool
I0403 19:28:24.252275 19982 net.cpp:141] Setting up inception_3a/pool
I0403 19:28:24.252300 19982 net.cpp:148] Top shape: 24 192 28 28 (3612672)
I0403 19:28:24.252315 19982 net.cpp:156] Memory required for data: 556352544
I0403 19:28:24.252328 19982 layer_factory.hpp:77] Creating layer inception_3a/pool_proj
I0403 19:28:24.252349 19982 net.cpp:91] Creating Layer inception_3a/pool_proj
I0403 19:28:24.252365 19982 net.cpp:425] inception_3a/pool_proj <- inception_3a/pool
I0403 19:28:24.252383 19982 net.cpp:399] inception_3a/pool_proj -> inception_3a/pool_proj
I0403 19:28:24.253307 19982 net.cpp:141] Setting up inception_3a/pool_proj
I0403 19:28:24.253334 19982 net.cpp:148] Top shape: 24 32 28 28 (602112)
I0403 19:28:24.253350 19982 net.cpp:156] Memory required for data: 558760992
I0403 19:28:24.253372 19982 layer_factory.hpp:77] Creating layer inception_3a/relu_pool_proj
I0403 19:28:24.253392 19982 net.cpp:91] Creating Layer inception_3a/relu_pool_proj
I0403 19:28:24.253407 19982 net.cpp:425] inception_3a/relu_pool_proj <- inception_3a/pool_proj
I0403 19:28:24.253427 19982 net.cpp:386] inception_3a/relu_pool_proj -> inception_3a/pool_proj (in-place)
I0403 19:28:24.253697 19982 net.cpp:141] Setting up inception_3a/relu_pool_proj
I0403 19:28:24.253725 19982 net.cpp:148] Top shape: 24 32 28 28 (602112)
I0403 19:28:24.253739 19982 net.cpp:156] Memory required for data: 561169440
I0403 19:28:24.253753 19982 layer_factory.hpp:77] Creating layer inception_3a/output
I0403 19:28:24.253772 19982 net.cpp:91] Creating Layer inception_3a/output
I0403 19:28:24.253787 19982 net.cpp:425] inception_3a/output <- inception_3a/1x1
I0403 19:28:24.253803 19982 net.cpp:425] inception_3a/output <- inception_3a/3x3
I0403 19:28:24.253818 19982 net.cpp:425] inception_3a/output <- inception_3a/5x5
I0403 19:28:24.253834 19982 net.cpp:425] inception_3a/output <- inception_3a/pool_proj
I0403 19:28:24.253849 19982 net.cpp:399] inception_3a/output -> inception_3a/output
I0403 19:28:24.253895 19982 net.cpp:141] Setting up inception_3a/output
I0403 19:28:24.253918 19982 net.cpp:148] Top shape: 24 256 28 28 (4816896)
I0403 19:28:24.253932 19982 net.cpp:156] Memory required for data: 580437024
I0403 19:28:24.253952 19982 layer_factory.hpp:77] Creating layer inception_3a/output_inception_3a/output_0_split
I0403 19:28:24.253973 19982 net.cpp:91] Creating Layer inception_3a/output_inception_3a/output_0_split
I0403 19:28:24.253988 19982 net.cpp:425] inception_3a/output_inception_3a/output_0_split <- inception_3a/output
I0403 19:28:24.254004 19982 net.cpp:399] inception_3a/output_inception_3a/output_0_split -> inception_3a/output_inception_3a/output_0_split_0
I0403 19:28:24.254024 19982 net.cpp:399] inception_3a/output_inception_3a/output_0_split -> inception_3a/output_inception_3a/output_0_split_1
I0403 19:28:24.254046 19982 net.cpp:399] inception_3a/output_inception_3a/output_0_split -> inception_3a/output_inception_3a/output_0_split_2
I0403 19:28:24.254067 19982 net.cpp:399] inception_3a/output_inception_3a/output_0_split -> inception_3a/output_inception_3a/output_0_split_3
I0403 19:28:24.254138 19982 net.cpp:141] Setting up inception_3a/output_inception_3a/output_0_split
I0403 19:28:24.254160 19982 net.cpp:148] Top shape: 24 256 28 28 (4816896)
I0403 19:28:24.254176 19982 net.cpp:148] Top shape: 24 256 28 28 (4816896)
I0403 19:28:24.254192 19982 net.cpp:148] Top shape: 24 256 28 28 (4816896)
I0403 19:28:24.254209 19982 net.cpp:148] Top shape: 24 256 28 28 (4816896)
I0403 19:28:24.254222 19982 net.cpp:156] Memory required for data: 657507360
I0403 19:28:24.254235 19982 layer_factory.hpp:77] Creating layer inception_3b/1x1
I0403 19:28:24.254258 19982 net.cpp:91] Creating Layer inception_3b/1x1
I0403 19:28:24.254276 19982 net.cpp:425] inception_3b/1x1 <- inception_3a/output_inception_3a/output_0_split_0
I0403 19:28:24.254293 19982 net.cpp:399] inception_3b/1x1 -> inception_3b/1x1
I0403 19:28:24.255424 19982 net.cpp:141] Setting up inception_3b/1x1
I0403 19:28:24.255463 19982 net.cpp:148] Top shape: 24 128 28 28 (2408448)
I0403 19:28:24.255481 19982 net.cpp:156] Memory required for data: 667141152
I0403 19:28:24.255498 19982 layer_factory.hpp:77] Creating layer inception_3b/relu_1x1
I0403 19:28:24.255518 19982 net.cpp:91] Creating Layer inception_3b/relu_1x1
I0403 19:28:24.255535 19982 net.cpp:425] inception_3b/relu_1x1 <- inception_3b/1x1
I0403 19:28:24.255553 19982 net.cpp:386] inception_3b/relu_1x1 -> inception_3b/1x1 (in-place)
I0403 19:28:24.255727 19982 net.cpp:141] Setting up inception_3b/relu_1x1
I0403 19:28:24.255751 19982 net.cpp:148] Top shape: 24 128 28 28 (2408448)
I0403 19:28:24.255765 19982 net.cpp:156] Memory required for data: 676774944
I0403 19:28:24.255780 19982 layer_factory.hpp:77] Creating layer inception_3b/3x3_reduce
I0403 19:28:24.255802 19982 net.cpp:91] Creating Layer inception_3b/3x3_reduce
I0403 19:28:24.255820 19982 net.cpp:425] inception_3b/3x3_reduce <- inception_3a/output_inception_3a/output_0_split_1
I0403 19:28:24.255841 19982 net.cpp:399] inception_3b/3x3_reduce -> inception_3b/3x3_reduce
I0403 19:28:24.256989 19982 net.cpp:141] Setting up inception_3b/3x3_reduce
I0403 19:28:24.257017 19982 net.cpp:148] Top shape: 24 128 28 28 (2408448)
I0403 19:28:24.257036 19982 net.cpp:156] Memory required for data: 686408736
I0403 19:28:24.257055 19982 layer_factory.hpp:77] Creating layer inception_3b/relu_3x3_reduce
I0403 19:28:24.257073 19982 net.cpp:91] Creating Layer inception_3b/relu_3x3_reduce
I0403 19:28:24.257089 19982 net.cpp:425] inception_3b/relu_3x3_reduce <- inception_3b/3x3_reduce
I0403 19:28:24.257107 19982 net.cpp:386] inception_3b/relu_3x3_reduce -> inception_3b/3x3_reduce (in-place)
I0403 19:28:24.257283 19982 net.cpp:141] Setting up inception_3b/relu_3x3_reduce
I0403 19:28:24.257310 19982 net.cpp:148] Top shape: 24 128 28 28 (2408448)
I0403 19:28:24.257325 19982 net.cpp:156] Memory required for data: 696042528
I0403 19:28:24.257340 19982 layer_factory.hpp:77] Creating layer inception_3b/3x3
I0403 19:28:24.257366 19982 net.cpp:91] Creating Layer inception_3b/3x3
I0403 19:28:24.257385 19982 net.cpp:425] inception_3b/3x3 <- inception_3b/3x3_reduce
I0403 19:28:24.257405 19982 net.cpp:399] inception_3b/3x3 -> inception_3b/3x3
I0403 19:28:24.260277 19982 net.cpp:141] Setting up inception_3b/3x3
I0403 19:28:24.260308 19982 net.cpp:148] Top shape: 24 192 28 28 (3612672)
I0403 19:28:24.260324 19982 net.cpp:156] Memory required for data: 710493216
I0403 19:28:24.260342 19982 layer_factory.hpp:77] Creating layer inception_3b/relu_3x3
I0403 19:28:24.260361 19982 net.cpp:91] Creating Layer inception_3b/relu_3x3
I0403 19:28:24.260377 19982 net.cpp:425] inception_3b/relu_3x3 <- inception_3b/3x3
I0403 19:28:24.260396 19982 net.cpp:386] inception_3b/relu_3x3 -> inception_3b/3x3 (in-place)
I0403 19:28:24.260668 19982 net.cpp:141] Setting up inception_3b/relu_3x3
I0403 19:28:24.260696 19982 net.cpp:148] Top shape: 24 192 28 28 (3612672)
I0403 19:28:24.260712 19982 net.cpp:156] Memory required for data: 724943904
I0403 19:28:24.260727 19982 layer_factory.hpp:77] Creating layer inception_3b/5x5_reduce
I0403 19:28:24.260749 19982 net.cpp:91] Creating Layer inception_3b/5x5_reduce
I0403 19:28:24.260766 19982 net.cpp:425] inception_3b/5x5_reduce <- inception_3a/output_inception_3a/output_0_split_2
I0403 19:28:24.260788 19982 net.cpp:399] inception_3b/5x5_reduce -> inception_3b/5x5_reduce
I0403 19:28:24.261768 19982 net.cpp:141] Setting up inception_3b/5x5_reduce
I0403 19:28:24.261798 19982 net.cpp:148] Top shape: 24 32 28 28 (602112)
I0403 19:28:24.261816 19982 net.cpp:156] Memory required for data: 727352352
I0403 19:28:24.261833 19982 layer_factory.hpp:77] Creating layer inception_3b/relu_5x5_reduce
I0403 19:28:24.261852 19982 net.cpp:91] Creating Layer inception_3b/relu_5x5_reduce
I0403 19:28:24.261868 19982 net.cpp:425] inception_3b/relu_5x5_reduce <- inception_3b/5x5_reduce
I0403 19:28:24.261886 19982 net.cpp:386] inception_3b/relu_5x5_reduce -> inception_3b/5x5_reduce (in-place)
I0403 19:28:24.262079 19982 net.cpp:141] Setting up inception_3b/relu_5x5_reduce
I0403 19:28:24.262104 19982 net.cpp:148] Top shape: 24 32 28 28 (602112)
I0403 19:28:24.262120 19982 net.cpp:156] Memory required for data: 729760800
I0403 19:28:24.262135 19982 layer_factory.hpp:77] Creating layer inception_3b/5x5
I0403 19:28:24.262157 19982 net.cpp:91] Creating Layer inception_3b/5x5
I0403 19:28:24.262176 19982 net.cpp:425] inception_3b/5x5 <- inception_3b/5x5_reduce
I0403 19:28:24.262197 19982 net.cpp:399] inception_3b/5x5 -> inception_3b/5x5
I0403 19:28:24.264142 19982 net.cpp:141] Setting up inception_3b/5x5
I0403 19:28:24.264170 19982 net.cpp:148] Top shape: 24 96 28 28 (1806336)
I0403 19:28:24.264188 19982 net.cpp:156] Memory required for data: 736986144
I0403 19:28:24.264206 19982 layer_factory.hpp:77] Creating layer inception_3b/relu_5x5
I0403 19:28:24.264228 19982 net.cpp:91] Creating Layer inception_3b/relu_5x5
I0403 19:28:24.264245 19982 net.cpp:425] inception_3b/relu_5x5 <- inception_3b/5x5
I0403 19:28:24.264261 19982 net.cpp:386] inception_3b/relu_5x5 -> inception_3b/5x5 (in-place)
I0403 19:28:24.264453 19982 net.cpp:141] Setting up inception_3b/relu_5x5
I0403 19:28:24.264479 19982 net.cpp:148] Top shape: 24 96 28 28 (1806336)
I0403 19:28:24.264494 19982 net.cpp:156] Memory required for data: 744211488
I0403 19:28:24.264509 19982 layer_factory.hpp:77] Creating layer inception_3b/pool
I0403 19:28:24.264526 19982 net.cpp:91] Creating Layer inception_3b/pool
I0403 19:28:24.264542 19982 net.cpp:425] inception_3b/pool <- inception_3a/output_inception_3a/output_0_split_3
I0403 19:28:24.264560 19982 net.cpp:399] inception_3b/pool -> inception_3b/pool
I0403 19:28:24.264616 19982 net.cpp:141] Setting up inception_3b/pool
I0403 19:28:24.264638 19982 net.cpp:148] Top shape: 24 256 28 28 (4816896)
I0403 19:28:24.264653 19982 net.cpp:156] Memory required for data: 763479072
I0403 19:28:24.264668 19982 layer_factory.hpp:77] Creating layer inception_3b/pool_proj
I0403 19:28:24.264691 19982 net.cpp:91] Creating Layer inception_3b/pool_proj
I0403 19:28:24.264708 19982 net.cpp:425] inception_3b/pool_proj <- inception_3b/pool
I0403 19:28:24.264729 19982 net.cpp:399] inception_3b/pool_proj -> inception_3b/pool_proj
I0403 19:28:24.265774 19982 net.cpp:141] Setting up inception_3b/pool_proj
I0403 19:28:24.265801 19982 net.cpp:148] Top shape: 24 64 28 28 (1204224)
I0403 19:28:24.265817 19982 net.cpp:156] Memory required for data: 768295968
I0403 19:28:24.265836 19982 layer_factory.hpp:77] Creating layer inception_3b/relu_pool_proj
I0403 19:28:24.265856 19982 net.cpp:91] Creating Layer inception_3b/relu_pool_proj
I0403 19:28:24.265873 19982 net.cpp:425] inception_3b/relu_pool_proj <- inception_3b/pool_proj
I0403 19:28:24.265890 19982 net.cpp:386] inception_3b/relu_pool_proj -> inception_3b/pool_proj (in-place)
I0403 19:28:24.266285 19982 net.cpp:141] Setting up inception_3b/relu_pool_proj
I0403 19:28:24.266311 19982 net.cpp:148] Top shape: 24 64 28 28 (1204224)
I0403 19:28:24.266327 19982 net.cpp:156] Memory required for data: 773112864
I0403 19:28:24.266342 19982 layer_factory.hpp:77] Creating layer inception_3b/output
I0403 19:28:24.266360 19982 net.cpp:91] Creating Layer inception_3b/output
I0403 19:28:24.266376 19982 net.cpp:425] inception_3b/output <- inception_3b/1x1
I0403 19:28:24.266391 19982 net.cpp:425] inception_3b/output <- inception_3b/3x3
I0403 19:28:24.266407 19982 net.cpp:425] inception_3b/output <- inception_3b/5x5
I0403 19:28:24.266424 19982 net.cpp:425] inception_3b/output <- inception_3b/pool_proj
I0403 19:28:24.266444 19982 net.cpp:399] inception_3b/output -> inception_3b/output
I0403 19:28:24.266489 19982 net.cpp:141] Setting up inception_3b/output
I0403 19:28:24.266513 19982 net.cpp:148] Top shape: 24 480 28 28 (9031680)
I0403 19:28:24.266530 19982 net.cpp:156] Memory required for data: 809239584
I0403 19:28:24.266543 19982 layer_factory.hpp:77] Creating layer pool3/3x3_s2
I0403 19:28:24.266561 19982 net.cpp:91] Creating Layer pool3/3x3_s2
I0403 19:28:24.266577 19982 net.cpp:425] pool3/3x3_s2 <- inception_3b/output
I0403 19:28:24.266609 19982 net.cpp:399] pool3/3x3_s2 -> pool3/3x3_s2
I0403 19:28:24.266669 19982 net.cpp:141] Setting up pool3/3x3_s2
I0403 19:28:24.266693 19982 net.cpp:148] Top shape: 24 480 14 14 (2257920)
I0403 19:28:24.266708 19982 net.cpp:156] Memory required for data: 818271264
I0403 19:28:24.266723 19982 layer_factory.hpp:77] Creating layer pool3/3x3_s2_pool3/3x3_s2_0_split
I0403 19:28:24.266742 19982 net.cpp:91] Creating Layer pool3/3x3_s2_pool3/3x3_s2_0_split
I0403 19:28:24.266758 19982 net.cpp:425] pool3/3x3_s2_pool3/3x3_s2_0_split <- pool3/3x3_s2
I0403 19:28:24.266777 19982 net.cpp:399] pool3/3x3_s2_pool3/3x3_s2_0_split -> pool3/3x3_s2_pool3/3x3_s2_0_split_0
I0403 19:28:24.266795 19982 net.cpp:399] pool3/3x3_s2_pool3/3x3_s2_0_split -> pool3/3x3_s2_pool3/3x3_s2_0_split_1
I0403 19:28:24.266815 19982 net.cpp:399] pool3/3x3_s2_pool3/3x3_s2_0_split -> pool3/3x3_s2_pool3/3x3_s2_0_split_2
I0403 19:28:24.266837 19982 net.cpp:399] pool3/3x3_s2_pool3/3x3_s2_0_split -> pool3/3x3_s2_pool3/3x3_s2_0_split_3
I0403 19:28:24.266922 19982 net.cpp:141] Setting up pool3/3x3_s2_pool3/3x3_s2_0_split
I0403 19:28:24.266945 19982 net.cpp:148] Top shape: 24 480 14 14 (2257920)
I0403 19:28:24.266968 19982 net.cpp:148] Top shape: 24 480 14 14 (2257920)
I0403 19:28:24.266983 19982 net.cpp:148] Top shape: 24 480 14 14 (2257920)
I0403 19:28:24.266999 19982 net.cpp:148] Top shape: 24 480 14 14 (2257920)
I0403 19:28:24.267014 19982 net.cpp:156] Memory required for data: 854397984
I0403 19:28:24.267029 19982 layer_factory.hpp:77] Creating layer inception_4a/1x1
I0403 19:28:24.267050 19982 net.cpp:91] Creating Layer inception_4a/1x1
I0403 19:28:24.267067 19982 net.cpp:425] inception_4a/1x1 <- pool3/3x3_s2_pool3/3x3_s2_0_split_0
I0403 19:28:24.267088 19982 net.cpp:399] inception_4a/1x1 -> inception_4a/1x1
I0403 19:28:24.268646 19982 net.cpp:141] Setting up inception_4a/1x1
I0403 19:28:24.268673 19982 net.cpp:148] Top shape: 24 192 14 14 (903168)
I0403 19:28:24.268689 19982 net.cpp:156] Memory required for data: 858010656
I0403 19:28:24.268707 19982 layer_factory.hpp:77] Creating layer inception_4a/relu_1x1
I0403 19:28:24.268728 19982 net.cpp:91] Creating Layer inception_4a/relu_1x1
I0403 19:28:24.268744 19982 net.cpp:425] inception_4a/relu_1x1 <- inception_4a/1x1
I0403 19:28:24.268761 19982 net.cpp:386] inception_4a/relu_1x1 -> inception_4a/1x1 (in-place)
I0403 19:28:24.268937 19982 net.cpp:141] Setting up inception_4a/relu_1x1
I0403 19:28:24.268972 19982 net.cpp:148] Top shape: 24 192 14 14 (903168)
I0403 19:28:24.268990 19982 net.cpp:156] Memory required for data: 861623328
I0403 19:28:24.269004 19982 layer_factory.hpp:77] Creating layer inception_4a/3x3_reduce
I0403 19:28:24.269029 19982 net.cpp:91] Creating Layer inception_4a/3x3_reduce
I0403 19:28:24.269047 19982 net.cpp:425] inception_4a/3x3_reduce <- pool3/3x3_s2_pool3/3x3_s2_0_split_1
I0403 19:28:24.269065 19982 net.cpp:399] inception_4a/3x3_reduce -> inception_4a/3x3_reduce
I0403 19:28:24.270328 19982 net.cpp:141] Setting up inception_4a/3x3_reduce
I0403 19:28:24.270355 19982 net.cpp:148] Top shape: 24 96 14 14 (451584)
I0403 19:28:24.270371 19982 net.cpp:156] Memory required for data: 863429664
I0403 19:28:24.270395 19982 layer_factory.hpp:77] Creating layer inception_4a/relu_3x3_reduce
I0403 19:28:24.270417 19982 net.cpp:91] Creating Layer inception_4a/relu_3x3_reduce
I0403 19:28:24.270434 19982 net.cpp:425] inception_4a/relu_3x3_reduce <- inception_4a/3x3_reduce
I0403 19:28:24.270452 19982 net.cpp:386] inception_4a/relu_3x3_reduce -> inception_4a/3x3_reduce (in-place)
I0403 19:28:24.270627 19982 net.cpp:141] Setting up inception_4a/relu_3x3_reduce
I0403 19:28:24.270653 19982 net.cpp:148] Top shape: 24 96 14 14 (451584)
I0403 19:28:24.270666 19982 net.cpp:156] Memory required for data: 865236000
I0403 19:28:24.270681 19982 layer_factory.hpp:77] Creating layer inception_4a/3x3
I0403 19:28:24.270704 19982 net.cpp:91] Creating Layer inception_4a/3x3
I0403 19:28:24.270723 19982 net.cpp:425] inception_4a/3x3 <- inception_4a/3x3_reduce
I0403 19:28:24.270742 19982 net.cpp:399] inception_4a/3x3 -> inception_4a/3x3
I0403 19:28:24.273437 19982 net.cpp:141] Setting up inception_4a/3x3
I0403 19:28:24.273465 19982 net.cpp:148] Top shape: 24 208 14 14 (978432)
I0403 19:28:24.273483 19982 net.cpp:156] Memory required for data: 869149728
I0403 19:28:24.273499 19982 layer_factory.hpp:77] Creating layer inception_4a/relu_3x3
I0403 19:28:24.273517 19982 net.cpp:91] Creating Layer inception_4a/relu_3x3
I0403 19:28:24.273532 19982 net.cpp:425] inception_4a/relu_3x3 <- inception_4a/3x3
I0403 19:28:24.273550 19982 net.cpp:386] inception_4a/relu_3x3 -> inception_4a/3x3 (in-place)
I0403 19:28:24.273818 19982 net.cpp:141] Setting up inception_4a/relu_3x3
I0403 19:28:24.273844 19982 net.cpp:148] Top shape: 24 208 14 14 (978432)
I0403 19:28:24.273860 19982 net.cpp:156] Memory required for data: 873063456
I0403 19:28:24.273875 19982 layer_factory.hpp:77] Creating layer inception_4a/5x5_reduce
I0403 19:28:24.273895 19982 net.cpp:91] Creating Layer inception_4a/5x5_reduce
I0403 19:28:24.273910 19982 net.cpp:425] inception_4a/5x5_reduce <- pool3/3x3_s2_pool3/3x3_s2_0_split_2
I0403 19:28:24.273931 19982 net.cpp:399] inception_4a/5x5_reduce -> inception_4a/5x5_reduce
I0403 19:28:24.274909 19982 net.cpp:141] Setting up inception_4a/5x5_reduce
I0403 19:28:24.274938 19982 net.cpp:148] Top shape: 24 16 14 14 (75264)
I0403 19:28:24.274958 19982 net.cpp:156] Memory required for data: 873364512
I0403 19:28:24.274977 19982 layer_factory.hpp:77] Creating layer inception_4a/relu_5x5_reduce
I0403 19:28:24.274996 19982 net.cpp:91] Creating Layer inception_4a/relu_5x5_reduce
I0403 19:28:24.275010 19982 net.cpp:425] inception_4a/relu_5x5_reduce <- inception_4a/5x5_reduce
I0403 19:28:24.275027 19982 net.cpp:386] inception_4a/relu_5x5_reduce -> inception_4a/5x5_reduce (in-place)
I0403 19:28:24.275203 19982 net.cpp:141] Setting up inception_4a/relu_5x5_reduce
I0403 19:28:24.275228 19982 net.cpp:148] Top shape: 24 16 14 14 (75264)
I0403 19:28:24.275243 19982 net.cpp:156] Memory required for data: 873665568
I0403 19:28:24.275256 19982 layer_factory.hpp:77] Creating layer inception_4a/5x5
I0403 19:28:24.275279 19982 net.cpp:91] Creating Layer inception_4a/5x5
I0403 19:28:24.275295 19982 net.cpp:425] inception_4a/5x5 <- inception_4a/5x5_reduce
I0403 19:28:24.275315 19982 net.cpp:399] inception_4a/5x5 -> inception_4a/5x5
I0403 19:28:24.276360 19982 net.cpp:141] Setting up inception_4a/5x5
I0403 19:28:24.276386 19982 net.cpp:148] Top shape: 24 48 14 14 (225792)
I0403 19:28:24.276402 19982 net.cpp:156] Memory required for data: 874568736
I0403 19:28:24.276419 19982 layer_factory.hpp:77] Creating layer inception_4a/relu_5x5
I0403 19:28:24.276437 19982 net.cpp:91] Creating Layer inception_4a/relu_5x5
I0403 19:28:24.276453 19982 net.cpp:425] inception_4a/relu_5x5 <- inception_4a/5x5
I0403 19:28:24.276473 19982 net.cpp:386] inception_4a/relu_5x5 -> inception_4a/5x5 (in-place)
I0403 19:28:24.276646 19982 net.cpp:141] Setting up inception_4a/relu_5x5
I0403 19:28:24.276670 19982 net.cpp:148] Top shape: 24 48 14 14 (225792)
I0403 19:28:24.276685 19982 net.cpp:156] Memory required for data: 875471904
I0403 19:28:24.276700 19982 layer_factory.hpp:77] Creating layer inception_4a/pool
I0403 19:28:24.276718 19982 net.cpp:91] Creating Layer inception_4a/pool
I0403 19:28:24.276736 19982 net.cpp:425] inception_4a/pool <- pool3/3x3_s2_pool3/3x3_s2_0_split_3
I0403 19:28:24.276752 19982 net.cpp:399] inception_4a/pool -> inception_4a/pool
I0403 19:28:24.276811 19982 net.cpp:141] Setting up inception_4a/pool
I0403 19:28:24.276834 19982 net.cpp:148] Top shape: 24 480 14 14 (2257920)
I0403 19:28:24.276849 19982 net.cpp:156] Memory required for data: 884503584
I0403 19:28:24.276864 19982 layer_factory.hpp:77] Creating layer inception_4a/pool_proj
I0403 19:28:24.276885 19982 net.cpp:91] Creating Layer inception_4a/pool_proj
I0403 19:28:24.276901 19982 net.cpp:425] inception_4a/pool_proj <- inception_4a/pool
I0403 19:28:24.276921 19982 net.cpp:399] inception_4a/pool_proj -> inception_4a/pool_proj
I0403 19:28:24.278043 19982 net.cpp:141] Setting up inception_4a/pool_proj
I0403 19:28:24.278070 19982 net.cpp:148] Top shape: 24 64 14 14 (301056)
I0403 19:28:24.278100 19982 net.cpp:156] Memory required for data: 885707808
I0403 19:28:24.278118 19982 layer_factory.hpp:77] Creating layer inception_4a/relu_pool_proj
I0403 19:28:24.278141 19982 net.cpp:91] Creating Layer inception_4a/relu_pool_proj
I0403 19:28:24.278157 19982 net.cpp:425] inception_4a/relu_pool_proj <- inception_4a/pool_proj
I0403 19:28:24.278174 19982 net.cpp:386] inception_4a/relu_pool_proj -> inception_4a/pool_proj (in-place)
I0403 19:28:24.278445 19982 net.cpp:141] Setting up inception_4a/relu_pool_proj
I0403 19:28:24.278471 19982 net.cpp:148] Top shape: 24 64 14 14 (301056)
I0403 19:28:24.278486 19982 net.cpp:156] Memory required for data: 886912032
I0403 19:28:24.278501 19982 layer_factory.hpp:77] Creating layer inception_4a/output
I0403 19:28:24.278517 19982 net.cpp:91] Creating Layer inception_4a/output
I0403 19:28:24.278532 19982 net.cpp:425] inception_4a/output <- inception_4a/1x1
I0403 19:28:24.278548 19982 net.cpp:425] inception_4a/output <- inception_4a/3x3
I0403 19:28:24.278563 19982 net.cpp:425] inception_4a/output <- inception_4a/5x5
I0403 19:28:24.278578 19982 net.cpp:425] inception_4a/output <- inception_4a/pool_proj
I0403 19:28:24.278599 19982 net.cpp:399] inception_4a/output -> inception_4a/output
I0403 19:28:24.278645 19982 net.cpp:141] Setting up inception_4a/output
I0403 19:28:24.278667 19982 net.cpp:148] Top shape: 24 512 14 14 (2408448)
I0403 19:28:24.278681 19982 net.cpp:156] Memory required for data: 896545824
I0403 19:28:24.278695 19982 layer_factory.hpp:77] Creating layer inception_4a/output_inception_4a/output_0_split
I0403 19:28:24.278712 19982 net.cpp:91] Creating Layer inception_4a/output_inception_4a/output_0_split
I0403 19:28:24.278728 19982 net.cpp:425] inception_4a/output_inception_4a/output_0_split <- inception_4a/output
I0403 19:28:24.278746 19982 net.cpp:399] inception_4a/output_inception_4a/output_0_split -> inception_4a/output_inception_4a/output_0_split_0
I0403 19:28:24.278767 19982 net.cpp:399] inception_4a/output_inception_4a/output_0_split -> inception_4a/output_inception_4a/output_0_split_1
I0403 19:28:24.278786 19982 net.cpp:399] inception_4a/output_inception_4a/output_0_split -> inception_4a/output_inception_4a/output_0_split_2
I0403 19:28:24.278806 19982 net.cpp:399] inception_4a/output_inception_4a/output_0_split -> inception_4a/output_inception_4a/output_0_split_3
I0403 19:28:24.278825 19982 net.cpp:399] inception_4a/output_inception_4a/output_0_split -> inception_4a/output_inception_4a/output_0_split_4
I0403 19:28:24.278913 19982 net.cpp:141] Setting up inception_4a/output_inception_4a/output_0_split
I0403 19:28:24.278937 19982 net.cpp:148] Top shape: 24 512 14 14 (2408448)
I0403 19:28:24.278964 19982 net.cpp:148] Top shape: 24 512 14 14 (2408448)
I0403 19:28:24.278982 19982 net.cpp:148] Top shape: 24 512 14 14 (2408448)
I0403 19:28:24.278996 19982 net.cpp:148] Top shape: 24 512 14 14 (2408448)
I0403 19:28:24.279011 19982 net.cpp:148] Top shape: 24 512 14 14 (2408448)
I0403 19:28:24.279026 19982 net.cpp:156] Memory required for data: 944714784
I0403 19:28:24.279039 19982 layer_factory.hpp:77] Creating layer loss1/ave_pool
I0403 19:28:24.279055 19982 net.cpp:91] Creating Layer loss1/ave_pool
I0403 19:28:24.279070 19982 net.cpp:425] loss1/ave_pool <- inception_4a/output_inception_4a/output_0_split_0
I0403 19:28:24.279089 19982 net.cpp:399] loss1/ave_pool -> loss1/ave_pool
I0403 19:28:24.279285 19982 net.cpp:141] Setting up loss1/ave_pool
I0403 19:28:24.279310 19982 net.cpp:148] Top shape: 24 512 4 4 (196608)
I0403 19:28:24.279325 19982 net.cpp:156] Memory required for data: 945501216
I0403 19:28:24.279340 19982 layer_factory.hpp:77] Creating layer loss1/conv
I0403 19:28:24.279361 19982 net.cpp:91] Creating Layer loss1/conv
I0403 19:28:24.279377 19982 net.cpp:425] loss1/conv <- loss1/ave_pool
I0403 19:28:24.279398 19982 net.cpp:399] loss1/conv -> loss1/conv
I0403 19:28:24.280740 19982 net.cpp:141] Setting up loss1/conv
I0403 19:28:24.280771 19982 net.cpp:148] Top shape: 24 128 4 4 (49152)
I0403 19:28:24.280798 19982 net.cpp:156] Memory required for data: 945697824
I0403 19:28:24.280818 19982 layer_factory.hpp:77] Creating layer loss1/relu_conv
I0403 19:28:24.280835 19982 net.cpp:91] Creating Layer loss1/relu_conv
I0403 19:28:24.280851 19982 net.cpp:425] loss1/relu_conv <- loss1/conv
I0403 19:28:24.280867 19982 net.cpp:386] loss1/relu_conv -> loss1/conv (in-place)
I0403 19:28:24.281142 19982 net.cpp:141] Setting up loss1/relu_conv
I0403 19:28:24.281170 19982 net.cpp:148] Top shape: 24 128 4 4 (49152)
I0403 19:28:24.281186 19982 net.cpp:156] Memory required for data: 945894432
I0403 19:28:24.281201 19982 layer_factory.hpp:77] Creating layer loss1/fc
I0403 19:28:24.281224 19982 net.cpp:91] Creating Layer loss1/fc
I0403 19:28:24.281242 19982 net.cpp:425] loss1/fc <- loss1/conv
I0403 19:28:24.281265 19982 net.cpp:399] loss1/fc -> loss1/fc
I0403 19:28:24.298365 19982 net.cpp:141] Setting up loss1/fc
I0403 19:28:24.298396 19982 net.cpp:148] Top shape: 24 1024 (24576)
I0403 19:28:24.298413 19982 net.cpp:156] Memory required for data: 945992736
I0403 19:28:24.298430 19982 layer_factory.hpp:77] Creating layer loss1/relu_fc
I0403 19:28:24.298449 19982 net.cpp:91] Creating Layer loss1/relu_fc
I0403 19:28:24.298465 19982 net.cpp:425] loss1/relu_fc <- loss1/fc
I0403 19:28:24.298482 19982 net.cpp:386] loss1/relu_fc -> loss1/fc (in-place)
I0403 19:28:24.298660 19982 net.cpp:141] Setting up loss1/relu_fc
I0403 19:28:24.298683 19982 net.cpp:148] Top shape: 24 1024 (24576)
I0403 19:28:24.298698 19982 net.cpp:156] Memory required for data: 946091040
I0403 19:28:24.298712 19982 layer_factory.hpp:77] Creating layer loss1/drop_fc
I0403 19:28:24.298741 19982 net.cpp:91] Creating Layer loss1/drop_fc
I0403 19:28:24.298758 19982 net.cpp:425] loss1/drop_fc <- loss1/fc
I0403 19:28:24.298774 19982 net.cpp:386] loss1/drop_fc -> loss1/fc (in-place)
I0403 19:28:24.298825 19982 net.cpp:141] Setting up loss1/drop_fc
I0403 19:28:24.298848 19982 net.cpp:148] Top shape: 24 1024 (24576)
I0403 19:28:24.298862 19982 net.cpp:156] Memory required for data: 946189344
I0403 19:28:24.298877 19982 layer_factory.hpp:77] Creating layer loss1/classifier_plantvillage
I0403 19:28:24.298894 19982 net.cpp:91] Creating Layer loss1/classifier_plantvillage
I0403 19:28:24.298913 19982 net.cpp:425] loss1/classifier_plantvillage <- loss1/fc
I0403 19:28:24.298931 19982 net.cpp:399] loss1/classifier_plantvillage -> loss1/classifier_plantvillage
I0403 19:28:24.299808 19982 net.cpp:141] Setting up loss1/classifier_plantvillage
I0403 19:28:24.299839 19982 net.cpp:148] Top shape: 24 38 (912)
I0403 19:28:24.299854 19982 net.cpp:156] Memory required for data: 946192992
I0403 19:28:24.299872 19982 layer_factory.hpp:77] Creating layer loss1/classifier_plantvillage_loss1/classifier_plantvillage_0_split
I0403 19:28:24.299890 19982 net.cpp:91] Creating Layer loss1/classifier_plantvillage_loss1/classifier_plantvillage_0_split
I0403 19:28:24.299906 19982 net.cpp:425] loss1/classifier_plantvillage_loss1/classifier_plantvillage_0_split <- loss1/classifier_plantvillage
I0403 19:28:24.299923 19982 net.cpp:399] loss1/classifier_plantvillage_loss1/classifier_plantvillage_0_split -> loss1/classifier_plantvillage_loss1/classifier_plantvillage_0_split_0
I0403 19:28:24.299942 19982 net.cpp:399] loss1/classifier_plantvillage_loss1/classifier_plantvillage_0_split -> loss1/classifier_plantvillage_loss1/classifier_plantvillage_0_split_1
I0403 19:28:24.299968 19982 net.cpp:399] loss1/classifier_plantvillage_loss1/classifier_plantvillage_0_split -> loss1/classifier_plantvillage_loss1/classifier_plantvillage_0_split_2
I0403 19:28:24.300036 19982 net.cpp:141] Setting up loss1/classifier_plantvillage_loss1/classifier_plantvillage_0_split
I0403 19:28:24.300060 19982 net.cpp:148] Top shape: 24 38 (912)
I0403 19:28:24.300076 19982 net.cpp:148] Top shape: 24 38 (912)
I0403 19:28:24.300091 19982 net.cpp:148] Top shape: 24 38 (912)
I0403 19:28:24.300103 19982 net.cpp:156] Memory required for data: 946203936
I0403 19:28:24.300117 19982 layer_factory.hpp:77] Creating layer inception_4b/1x1
I0403 19:28:24.300137 19982 net.cpp:91] Creating Layer inception_4b/1x1
I0403 19:28:24.300168 19982 net.cpp:425] inception_4b/1x1 <- inception_4a/output_inception_4a/output_0_split_1
I0403 19:28:24.300191 19982 net.cpp:399] inception_4b/1x1 -> inception_4b/1x1
I0403 19:28:24.301822 19982 net.cpp:141] Setting up inception_4b/1x1
I0403 19:28:24.301852 19982 net.cpp:148] Top shape: 24 160 14 14 (752640)
I0403 19:28:24.301869 19982 net.cpp:156] Memory required for data: 949214496
I0403 19:28:24.301887 19982 layer_factory.hpp:77] Creating layer inception_4b/relu_1x1
I0403 19:28:24.301906 19982 net.cpp:91] Creating Layer inception_4b/relu_1x1
I0403 19:28:24.301923 19982 net.cpp:425] inception_4b/relu_1x1 <- inception_4b/1x1
I0403 19:28:24.301939 19982 net.cpp:386] inception_4b/relu_1x1 -> inception_4b/1x1 (in-place)
I0403 19:28:24.302126 19982 net.cpp:141] Setting up inception_4b/relu_1x1
I0403 19:28:24.302152 19982 net.cpp:148] Top shape: 24 160 14 14 (752640)
I0403 19:28:24.302166 19982 net.cpp:156] Memory required for data: 952225056
I0403 19:28:24.302181 19982 layer_factory.hpp:77] Creating layer inception_4b/3x3_reduce
I0403 19:28:24.302203 19982 net.cpp:91] Creating Layer inception_4b/3x3_reduce
I0403 19:28:24.302222 19982 net.cpp:425] inception_4b/3x3_reduce <- inception_4a/output_inception_4a/output_0_split_2
I0403 19:28:24.302244 19982 net.cpp:399] inception_4b/3x3_reduce -> inception_4b/3x3_reduce
I0403 19:28:24.303585 19982 net.cpp:141] Setting up inception_4b/3x3_reduce
I0403 19:28:24.303616 19982 net.cpp:148] Top shape: 24 112 14 14 (526848)
I0403 19:28:24.303632 19982 net.cpp:156] Memory required for data: 954332448
I0403 19:28:24.303649 19982 layer_factory.hpp:77] Creating layer inception_4b/relu_3x3_reduce
I0403 19:28:24.303668 19982 net.cpp:91] Creating Layer inception_4b/relu_3x3_reduce
I0403 19:28:24.303684 19982 net.cpp:425] inception_4b/relu_3x3_reduce <- inception_4b/3x3_reduce
I0403 19:28:24.303704 19982 net.cpp:386] inception_4b/relu_3x3_reduce -> inception_4b/3x3_reduce (in-place)
I0403 19:28:24.303989 19982 net.cpp:141] Setting up inception_4b/relu_3x3_reduce
I0403 19:28:24.304018 19982 net.cpp:148] Top shape: 24 112 14 14 (526848)
I0403 19:28:24.304034 19982 net.cpp:156] Memory required for data: 956439840
I0403 19:28:24.304049 19982 layer_factory.hpp:77] Creating layer inception_4b/3x3
I0403 19:28:24.304071 19982 net.cpp:91] Creating Layer inception_4b/3x3
I0403 19:28:24.304090 19982 net.cpp:425] inception_4b/3x3 <- inception_4b/3x3_reduce
I0403 19:28:24.304110 19982 net.cpp:399] inception_4b/3x3 -> inception_4b/3x3
I0403 19:28:24.307150 19982 net.cpp:141] Setting up inception_4b/3x3
I0403 19:28:24.307179 19982 net.cpp:148] Top shape: 24 224 14 14 (1053696)
I0403 19:28:24.307196 19982 net.cpp:156] Memory required for data: 960654624
I0403 19:28:24.307216 19982 layer_factory.hpp:77] Creating layer inception_4b/relu_3x3
I0403 19:28:24.307237 19982 net.cpp:91] Creating Layer inception_4b/relu_3x3
I0403 19:28:24.307255 19982 net.cpp:425] inception_4b/relu_3x3 <- inception_4b/3x3
I0403 19:28:24.307271 19982 net.cpp:386] inception_4b/relu_3x3 -> inception_4b/3x3 (in-place)
I0403 19:28:24.307451 19982 net.cpp:141] Setting up inception_4b/relu_3x3
I0403 19:28:24.307478 19982 net.cpp:148] Top shape: 24 224 14 14 (1053696)
I0403 19:28:24.307495 19982 net.cpp:156] Memory required for data: 964869408
I0403 19:28:24.307510 19982 layer_factory.hpp:77] Creating layer inception_4b/5x5_reduce
I0403 19:28:24.307533 19982 net.cpp:91] Creating Layer inception_4b/5x5_reduce
I0403 19:28:24.307550 19982 net.cpp:425] inception_4b/5x5_reduce <- inception_4a/output_inception_4a/output_0_split_3
I0403 19:28:24.307569 19982 net.cpp:399] inception_4b/5x5_reduce -> inception_4b/5x5_reduce
I0403 19:28:24.308670 19982 net.cpp:141] Setting up inception_4b/5x5_reduce
I0403 19:28:24.308701 19982 net.cpp:148] Top shape: 24 24 14 14 (112896)
I0403 19:28:24.308717 19982 net.cpp:156] Memory required for data: 965320992
I0403 19:28:24.308735 19982 layer_factory.hpp:77] Creating layer inception_4b/relu_5x5_reduce
I0403 19:28:24.308754 19982 net.cpp:91] Creating Layer inception_4b/relu_5x5_reduce
I0403 19:28:24.308784 19982 net.cpp:425] inception_4b/relu_5x5_reduce <- inception_4b/5x5_reduce
I0403 19:28:24.308805 19982 net.cpp:386] inception_4b/relu_5x5_reduce -> inception_4b/5x5_reduce (in-place)
I0403 19:28:24.309002 19982 net.cpp:141] Setting up inception_4b/relu_5x5_reduce
I0403 19:28:24.309028 19982 net.cpp:148] Top shape: 24 24 14 14 (112896)
I0403 19:28:24.309043 19982 net.cpp:156] Memory required for data: 965772576
I0403 19:28:24.309057 19982 layer_factory.hpp:77] Creating layer inception_4b/5x5
I0403 19:28:24.309079 19982 net.cpp:91] Creating Layer inception_4b/5x5
I0403 19:28:24.309098 19982 net.cpp:425] inception_4b/5x5 <- inception_4b/5x5_reduce
I0403 19:28:24.309118 19982 net.cpp:399] inception_4b/5x5 -> inception_4b/5x5
I0403 19:28:24.310331 19982 net.cpp:141] Setting up inception_4b/5x5
I0403 19:28:24.310361 19982 net.cpp:148] Top shape: 24 64 14 14 (301056)
I0403 19:28:24.310379 19982 net.cpp:156] Memory required for data: 966976800
I0403 19:28:24.310396 19982 layer_factory.hpp:77] Creating layer inception_4b/relu_5x5
I0403 19:28:24.310415 19982 net.cpp:91] Creating Layer inception_4b/relu_5x5
I0403 19:28:24.310431 19982 net.cpp:425] inception_4b/relu_5x5 <- inception_4b/5x5
I0403 19:28:24.310447 19982 net.cpp:386] inception_4b/relu_5x5 -> inception_4b/5x5 (in-place)
I0403 19:28:24.310730 19982 net.cpp:141] Setting up inception_4b/relu_5x5
I0403 19:28:24.310758 19982 net.cpp:148] Top shape: 24 64 14 14 (301056)
I0403 19:28:24.310775 19982 net.cpp:156] Memory required for data: 968181024
I0403 19:28:24.310791 19982 layer_factory.hpp:77] Creating layer inception_4b/pool
I0403 19:28:24.310808 19982 net.cpp:91] Creating Layer inception_4b/pool
I0403 19:28:24.310824 19982 net.cpp:425] inception_4b/pool <- inception_4a/output_inception_4a/output_0_split_4
I0403 19:28:24.310842 19982 net.cpp:399] inception_4b/pool -> inception_4b/pool
I0403 19:28:24.310905 19982 net.cpp:141] Setting up inception_4b/pool
I0403 19:28:24.310928 19982 net.cpp:148] Top shape: 24 512 14 14 (2408448)
I0403 19:28:24.310943 19982 net.cpp:156] Memory required for data: 977814816
I0403 19:28:24.310963 19982 layer_factory.hpp:77] Creating layer inception_4b/pool_proj
I0403 19:28:24.310986 19982 net.cpp:91] Creating Layer inception_4b/pool_proj
I0403 19:28:24.311003 19982 net.cpp:425] inception_4b/pool_proj <- inception_4b/pool
I0403 19:28:24.311024 19982 net.cpp:399] inception_4b/pool_proj -> inception_4b/pool_proj
I0403 19:28:24.312207 19982 net.cpp:141] Setting up inception_4b/pool_proj
I0403 19:28:24.312237 19982 net.cpp:148] Top shape: 24 64 14 14 (301056)
I0403 19:28:24.312254 19982 net.cpp:156] Memory required for data: 979019040
I0403 19:28:24.312273 19982 layer_factory.hpp:77] Creating layer inception_4b/relu_pool_proj
I0403 19:28:24.312291 19982 net.cpp:91] Creating Layer inception_4b/relu_pool_proj
I0403 19:28:24.312307 19982 net.cpp:425] inception_4b/relu_pool_proj <- inception_4b/pool_proj
I0403 19:28:24.312327 19982 net.cpp:386] inception_4b/relu_pool_proj -> inception_4b/pool_proj (in-place)
I0403 19:28:24.312511 19982 net.cpp:141] Setting up inception_4b/relu_pool_proj
I0403 19:28:24.312536 19982 net.cpp:148] Top shape: 24 64 14 14 (301056)
I0403 19:28:24.312551 19982 net.cpp:156] Memory required for data: 980223264
I0403 19:28:24.312566 19982 layer_factory.hpp:77] Creating layer inception_4b/output
I0403 19:28:24.312584 19982 net.cpp:91] Creating Layer inception_4b/output
I0403 19:28:24.312599 19982 net.cpp:425] inception_4b/output <- inception_4b/1x1
I0403 19:28:24.312615 19982 net.cpp:425] inception_4b/output <- inception_4b/3x3
I0403 19:28:24.312631 19982 net.cpp:425] inception_4b/output <- inception_4b/5x5
I0403 19:28:24.312647 19982 net.cpp:425] inception_4b/output <- inception_4b/pool_proj
I0403 19:28:24.312666 19982 net.cpp:399] inception_4b/output -> inception_4b/output
I0403 19:28:24.312712 19982 net.cpp:141] Setting up inception_4b/output
I0403 19:28:24.312738 19982 net.cpp:148] Top shape: 24 512 14 14 (2408448)
I0403 19:28:24.312754 19982 net.cpp:156] Memory required for data: 989857056
I0403 19:28:24.312783 19982 layer_factory.hpp:77] Creating layer inception_4b/output_inception_4b/output_0_split
I0403 19:28:24.312800 19982 net.cpp:91] Creating Layer inception_4b/output_inception_4b/output_0_split
I0403 19:28:24.312816 19982 net.cpp:425] inception_4b/output_inception_4b/output_0_split <- inception_4b/output
I0403 19:28:24.312836 19982 net.cpp:399] inception_4b/output_inception_4b/output_0_split -> inception_4b/output_inception_4b/output_0_split_0
I0403 19:28:24.312857 19982 net.cpp:399] inception_4b/output_inception_4b/output_0_split -> inception_4b/output_inception_4b/output_0_split_1
I0403 19:28:24.312877 19982 net.cpp:399] inception_4b/output_inception_4b/output_0_split -> inception_4b/output_inception_4b/output_0_split_2
I0403 19:28:24.312897 19982 net.cpp:399] inception_4b/output_inception_4b/output_0_split -> inception_4b/output_inception_4b/output_0_split_3
I0403 19:28:24.312981 19982 net.cpp:141] Setting up inception_4b/output_inception_4b/output_0_split
I0403 19:28:24.313005 19982 net.cpp:148] Top shape: 24 512 14 14 (2408448)
I0403 19:28:24.313025 19982 net.cpp:148] Top shape: 24 512 14 14 (2408448)
I0403 19:28:24.313042 19982 net.cpp:148] Top shape: 24 512 14 14 (2408448)
I0403 19:28:24.313058 19982 net.cpp:148] Top shape: 24 512 14 14 (2408448)
I0403 19:28:24.313072 19982 net.cpp:156] Memory required for data: 1028392224
I0403 19:28:24.313087 19982 layer_factory.hpp:77] Creating layer inception_4c/1x1
I0403 19:28:24.313107 19982 net.cpp:91] Creating Layer inception_4c/1x1
I0403 19:28:24.313122 19982 net.cpp:425] inception_4c/1x1 <- inception_4b/output_inception_4b/output_0_split_0
I0403 19:28:24.313144 19982 net.cpp:399] inception_4c/1x1 -> inception_4c/1x1
I0403 19:28:24.314569 19982 net.cpp:141] Setting up inception_4c/1x1
I0403 19:28:24.314597 19982 net.cpp:148] Top shape: 24 128 14 14 (602112)
I0403 19:28:24.314613 19982 net.cpp:156] Memory required for data: 1030800672
I0403 19:28:24.314632 19982 layer_factory.hpp:77] Creating layer inception_4c/relu_1x1
I0403 19:28:24.314653 19982 net.cpp:91] Creating Layer inception_4c/relu_1x1
I0403 19:28:24.314671 19982 net.cpp:425] inception_4c/relu_1x1 <- inception_4c/1x1
I0403 19:28:24.314687 19982 net.cpp:386] inception_4c/relu_1x1 -> inception_4c/1x1 (in-place)
I0403 19:28:24.314867 19982 net.cpp:141] Setting up inception_4c/relu_1x1
I0403 19:28:24.314891 19982 net.cpp:148] Top shape: 24 128 14 14 (602112)
I0403 19:28:24.314908 19982 net.cpp:156] Memory required for data: 1033209120
I0403 19:28:24.314921 19982 layer_factory.hpp:77] Creating layer inception_4c/3x3_reduce
I0403 19:28:24.314949 19982 net.cpp:91] Creating Layer inception_4c/3x3_reduce
I0403 19:28:24.314968 19982 net.cpp:425] inception_4c/3x3_reduce <- inception_4b/output_inception_4b/output_0_split_1
I0403 19:28:24.314987 19982 net.cpp:399] inception_4c/3x3_reduce -> inception_4c/3x3_reduce
I0403 19:28:24.316936 19982 net.cpp:141] Setting up inception_4c/3x3_reduce
I0403 19:28:24.316969 19982 net.cpp:148] Top shape: 24 128 14 14 (602112)
I0403 19:28:24.316987 19982 net.cpp:156] Memory required for data: 1035617568
I0403 19:28:24.317004 19982 layer_factory.hpp:77] Creating layer inception_4c/relu_3x3_reduce
I0403 19:28:24.317026 19982 net.cpp:91] Creating Layer inception_4c/relu_3x3_reduce
I0403 19:28:24.317044 19982 net.cpp:425] inception_4c/relu_3x3_reduce <- inception_4c/3x3_reduce
I0403 19:28:24.317060 19982 net.cpp:386] inception_4c/relu_3x3_reduce -> inception_4c/3x3_reduce (in-place)
I0403 19:28:24.317348 19982 net.cpp:141] Setting up inception_4c/relu_3x3_reduce
I0403 19:28:24.317374 19982 net.cpp:148] Top shape: 24 128 14 14 (602112)
I0403 19:28:24.317390 19982 net.cpp:156] Memory required for data: 1038026016
I0403 19:28:24.317405 19982 layer_factory.hpp:77] Creating layer inception_4c/3x3
I0403 19:28:24.317430 19982 net.cpp:91] Creating Layer inception_4c/3x3
I0403 19:28:24.317447 19982 net.cpp:425] inception_4c/3x3 <- inception_4c/3x3_reduce
I0403 19:28:24.317467 19982 net.cpp:399] inception_4c/3x3 -> inception_4c/3x3
I0403 19:28:24.321054 19982 net.cpp:141] Setting up inception_4c/3x3
I0403 19:28:24.321096 19982 net.cpp:148] Top shape: 24 256 14 14 (1204224)
I0403 19:28:24.321115 19982 net.cpp:156] Memory required for data: 1042842912
I0403 19:28:24.321144 19982 layer_factory.hpp:77] Creating layer inception_4c/relu_3x3
I0403 19:28:24.321164 19982 net.cpp:91] Creating Layer inception_4c/relu_3x3
I0403 19:28:24.321179 19982 net.cpp:425] inception_4c/relu_3x3 <- inception_4c/3x3
I0403 19:28:24.321197 19982 net.cpp:386] inception_4c/relu_3x3 -> inception_4c/3x3 (in-place)
I0403 19:28:24.321373 19982 net.cpp:141] Setting up inception_4c/relu_3x3
I0403 19:28:24.321400 19982 net.cpp:148] Top shape: 24 256 14 14 (1204224)
I0403 19:28:24.321416 19982 net.cpp:156] Memory required for data: 1047659808
I0403 19:28:24.321430 19982 layer_factory.hpp:77] Creating layer inception_4c/5x5_reduce
I0403 19:28:24.321454 19982 net.cpp:91] Creating Layer inception_4c/5x5_reduce
I0403 19:28:24.321470 19982 net.cpp:425] inception_4c/5x5_reduce <- inception_4b/output_inception_4b/output_0_split_2
I0403 19:28:24.321488 19982 net.cpp:399] inception_4c/5x5_reduce -> inception_4c/5x5_reduce
I0403 19:28:24.322536 19982 net.cpp:141] Setting up inception_4c/5x5_reduce
I0403 19:28:24.322566 19982 net.cpp:148] Top shape: 24 24 14 14 (112896)
I0403 19:28:24.322582 19982 net.cpp:156] Memory required for data: 1048111392
I0403 19:28:24.322598 19982 layer_factory.hpp:77] Creating layer inception_4c/relu_5x5_reduce
I0403 19:28:24.322616 19982 net.cpp:91] Creating Layer inception_4c/relu_5x5_reduce
I0403 19:28:24.322631 19982 net.cpp:425] inception_4c/relu_5x5_reduce <- inception_4c/5x5_reduce
I0403 19:28:24.322650 19982 net.cpp:386] inception_4c/relu_5x5_reduce -> inception_4c/5x5_reduce (in-place)
I0403 19:28:24.322827 19982 net.cpp:141] Setting up inception_4c/relu_5x5_reduce
I0403 19:28:24.322851 19982 net.cpp:148] Top shape: 24 24 14 14 (112896)
I0403 19:28:24.322866 19982 net.cpp:156] Memory required for data: 1048562976
I0403 19:28:24.322880 19982 layer_factory.hpp:77] Creating layer inception_4c/5x5
I0403 19:28:24.322901 19982 net.cpp:91] Creating Layer inception_4c/5x5
I0403 19:28:24.322919 19982 net.cpp:425] inception_4c/5x5 <- inception_4c/5x5_reduce
I0403 19:28:24.322939 19982 net.cpp:399] inception_4c/5x5 -> inception_4c/5x5
I0403 19:28:24.324144 19982 net.cpp:141] Setting up inception_4c/5x5
I0403 19:28:24.324172 19982 net.cpp:148] Top shape: 24 64 14 14 (301056)
I0403 19:28:24.324187 19982 net.cpp:156] Memory required for data: 1049767200
I0403 19:28:24.324206 19982 layer_factory.hpp:77] Creating layer inception_4c/relu_5x5
I0403 19:28:24.324226 19982 net.cpp:91] Creating Layer inception_4c/relu_5x5
I0403 19:28:24.324242 19982 net.cpp:425] inception_4c/relu_5x5 <- inception_4c/5x5
I0403 19:28:24.324259 19982 net.cpp:386] inception_4c/relu_5x5 -> inception_4c/5x5 (in-place)
I0403 19:28:24.324537 19982 net.cpp:141] Setting up inception_4c/relu_5x5
I0403 19:28:24.324563 19982 net.cpp:148] Top shape: 24 64 14 14 (301056)
I0403 19:28:24.324579 19982 net.cpp:156] Memory required for data: 1050971424
I0403 19:28:24.324594 19982 layer_factory.hpp:77] Creating layer inception_4c/pool
I0403 19:28:24.324611 19982 net.cpp:91] Creating Layer inception_4c/pool
I0403 19:28:24.324626 19982 net.cpp:425] inception_4c/pool <- inception_4b/output_inception_4b/output_0_split_3
I0403 19:28:24.324647 19982 net.cpp:399] inception_4c/pool -> inception_4c/pool
I0403 19:28:24.324712 19982 net.cpp:141] Setting up inception_4c/pool
I0403 19:28:24.324735 19982 net.cpp:148] Top shape: 24 512 14 14 (2408448)
I0403 19:28:24.324749 19982 net.cpp:156] Memory required for data: 1060605216
I0403 19:28:24.324764 19982 layer_factory.hpp:77] Creating layer inception_4c/pool_proj
I0403 19:28:24.324784 19982 net.cpp:91] Creating Layer inception_4c/pool_proj
I0403 19:28:24.324800 19982 net.cpp:425] inception_4c/pool_proj <- inception_4c/pool
I0403 19:28:24.324820 19982 net.cpp:399] inception_4c/pool_proj -> inception_4c/pool_proj
I0403 19:28:24.325999 19982 net.cpp:141] Setting up inception_4c/pool_proj
I0403 19:28:24.326030 19982 net.cpp:148] Top shape: 24 64 14 14 (301056)
I0403 19:28:24.326057 19982 net.cpp:156] Memory required for data: 1061809440
I0403 19:28:24.326076 19982 layer_factory.hpp:77] Creating layer inception_4c/relu_pool_proj
I0403 19:28:24.326093 19982 net.cpp:91] Creating Layer inception_4c/relu_pool_proj
I0403 19:28:24.326109 19982 net.cpp:425] inception_4c/relu_pool_proj <- inception_4c/pool_proj
I0403 19:28:24.326127 19982 net.cpp:386] inception_4c/relu_pool_proj -> inception_4c/pool_proj (in-place)
I0403 19:28:24.326305 19982 net.cpp:141] Setting up inception_4c/relu_pool_proj
I0403 19:28:24.326329 19982 net.cpp:148] Top shape: 24 64 14 14 (301056)
I0403 19:28:24.326344 19982 net.cpp:156] Memory required for data: 1063013664
I0403 19:28:24.326359 19982 layer_factory.hpp:77] Creating layer inception_4c/output
I0403 19:28:24.326375 19982 net.cpp:91] Creating Layer inception_4c/output
I0403 19:28:24.326390 19982 net.cpp:425] inception_4c/output <- inception_4c/1x1
I0403 19:28:24.326406 19982 net.cpp:425] inception_4c/output <- inception_4c/3x3
I0403 19:28:24.326421 19982 net.cpp:425] inception_4c/output <- inception_4c/5x5
I0403 19:28:24.326437 19982 net.cpp:425] inception_4c/output <- inception_4c/pool_proj
I0403 19:28:24.326455 19982 net.cpp:399] inception_4c/output -> inception_4c/output
I0403 19:28:24.326500 19982 net.cpp:141] Setting up inception_4c/output
I0403 19:28:24.326525 19982 net.cpp:148] Top shape: 24 512 14 14 (2408448)
I0403 19:28:24.326541 19982 net.cpp:156] Memory required for data: 1072647456
I0403 19:28:24.326555 19982 layer_factory.hpp:77] Creating layer inception_4c/output_inception_4c/output_0_split
I0403 19:28:24.326572 19982 net.cpp:91] Creating Layer inception_4c/output_inception_4c/output_0_split
I0403 19:28:24.326587 19982 net.cpp:425] inception_4c/output_inception_4c/output_0_split <- inception_4c/output
I0403 19:28:24.326606 19982 net.cpp:399] inception_4c/output_inception_4c/output_0_split -> inception_4c/output_inception_4c/output_0_split_0
I0403 19:28:24.326627 19982 net.cpp:399] inception_4c/output_inception_4c/output_0_split -> inception_4c/output_inception_4c/output_0_split_1
I0403 19:28:24.326647 19982 net.cpp:399] inception_4c/output_inception_4c/output_0_split -> inception_4c/output_inception_4c/output_0_split_2
I0403 19:28:24.326665 19982 net.cpp:399] inception_4c/output_inception_4c/output_0_split -> inception_4c/output_inception_4c/output_0_split_3
I0403 19:28:24.326747 19982 net.cpp:141] Setting up inception_4c/output_inception_4c/output_0_split
I0403 19:28:24.326771 19982 net.cpp:148] Top shape: 24 512 14 14 (2408448)
I0403 19:28:24.326787 19982 net.cpp:148] Top shape: 24 512 14 14 (2408448)
I0403 19:28:24.326802 19982 net.cpp:148] Top shape: 24 512 14 14 (2408448)
I0403 19:28:24.326817 19982 net.cpp:148] Top shape: 24 512 14 14 (2408448)
I0403 19:28:24.326830 19982 net.cpp:156] Memory required for data: 1111182624
I0403 19:28:24.326844 19982 layer_factory.hpp:77] Creating layer inception_4d/1x1
I0403 19:28:24.326866 19982 net.cpp:91] Creating Layer inception_4d/1x1
I0403 19:28:24.326884 19982 net.cpp:425] inception_4d/1x1 <- inception_4c/output_inception_4c/output_0_split_0
I0403 19:28:24.326903 19982 net.cpp:399] inception_4d/1x1 -> inception_4d/1x1
I0403 19:28:24.328254 19982 net.cpp:141] Setting up inception_4d/1x1
I0403 19:28:24.328282 19982 net.cpp:148] Top shape: 24 112 14 14 (526848)
I0403 19:28:24.328299 19982 net.cpp:156] Memory required for data: 1113290016
I0403 19:28:24.328317 19982 layer_factory.hpp:77] Creating layer inception_4d/relu_1x1
I0403 19:28:24.328337 19982 net.cpp:91] Creating Layer inception_4d/relu_1x1
I0403 19:28:24.328354 19982 net.cpp:425] inception_4d/relu_1x1 <- inception_4d/1x1
I0403 19:28:24.328372 19982 net.cpp:386] inception_4d/relu_1x1 -> inception_4d/1x1 (in-place)
I0403 19:28:24.328564 19982 net.cpp:141] Setting up inception_4d/relu_1x1
I0403 19:28:24.328591 19982 net.cpp:148] Top shape: 24 112 14 14 (526848)
I0403 19:28:24.328606 19982 net.cpp:156] Memory required for data: 1115397408
I0403 19:28:24.328621 19982 layer_factory.hpp:77] Creating layer inception_4d/3x3_reduce
I0403 19:28:24.328656 19982 net.cpp:91] Creating Layer inception_4d/3x3_reduce
I0403 19:28:24.328675 19982 net.cpp:425] inception_4d/3x3_reduce <- inception_4c/output_inception_4c/output_0_split_1
I0403 19:28:24.328693 19982 net.cpp:399] inception_4d/3x3_reduce -> inception_4d/3x3_reduce
I0403 19:28:24.330163 19982 net.cpp:141] Setting up inception_4d/3x3_reduce
I0403 19:28:24.330191 19982 net.cpp:148] Top shape: 24 144 14 14 (677376)
I0403 19:28:24.330209 19982 net.cpp:156] Memory required for data: 1118106912
I0403 19:28:24.330227 19982 layer_factory.hpp:77] Creating layer inception_4d/relu_3x3_reduce
I0403 19:28:24.330248 19982 net.cpp:91] Creating Layer inception_4d/relu_3x3_reduce
I0403 19:28:24.330266 19982 net.cpp:425] inception_4d/relu_3x3_reduce <- inception_4d/3x3_reduce
I0403 19:28:24.330284 19982 net.cpp:386] inception_4d/relu_3x3_reduce -> inception_4d/3x3_reduce (in-place)
I0403 19:28:24.330567 19982 net.cpp:141] Setting up inception_4d/relu_3x3_reduce
I0403 19:28:24.330593 19982 net.cpp:148] Top shape: 24 144 14 14 (677376)
I0403 19:28:24.330608 19982 net.cpp:156] Memory required for data: 1120816416
I0403 19:28:24.330622 19982 layer_factory.hpp:77] Creating layer inception_4d/3x3
I0403 19:28:24.330644 19982 net.cpp:91] Creating Layer inception_4d/3x3
I0403 19:28:24.330662 19982 net.cpp:425] inception_4d/3x3 <- inception_4d/3x3_reduce
I0403 19:28:24.330682 19982 net.cpp:399] inception_4d/3x3 -> inception_4d/3x3
I0403 19:28:24.334797 19982 net.cpp:141] Setting up inception_4d/3x3
I0403 19:28:24.334825 19982 net.cpp:148] Top shape: 24 288 14 14 (1354752)
I0403 19:28:24.334841 19982 net.cpp:156] Memory required for data: 1126235424
I0403 19:28:24.334858 19982 layer_factory.hpp:77] Creating layer inception_4d/relu_3x3
I0403 19:28:24.334877 19982 net.cpp:91] Creating Layer inception_4d/relu_3x3
I0403 19:28:24.334894 19982 net.cpp:425] inception_4d/relu_3x3 <- inception_4d/3x3
I0403 19:28:24.334911 19982 net.cpp:386] inception_4d/relu_3x3 -> inception_4d/3x3 (in-place)
I0403 19:28:24.335093 19982 net.cpp:141] Setting up inception_4d/relu_3x3
I0403 19:28:24.335119 19982 net.cpp:148] Top shape: 24 288 14 14 (1354752)
I0403 19:28:24.335134 19982 net.cpp:156] Memory required for data: 1131654432
I0403 19:28:24.335150 19982 layer_factory.hpp:77] Creating layer inception_4d/5x5_reduce
I0403 19:28:24.335170 19982 net.cpp:91] Creating Layer inception_4d/5x5_reduce
I0403 19:28:24.335187 19982 net.cpp:425] inception_4d/5x5_reduce <- inception_4c/output_inception_4c/output_0_split_2
I0403 19:28:24.335211 19982 net.cpp:399] inception_4d/5x5_reduce -> inception_4d/5x5_reduce
I0403 19:28:24.336316 19982 net.cpp:141] Setting up inception_4d/5x5_reduce
I0403 19:28:24.336344 19982 net.cpp:148] Top shape: 24 32 14 14 (150528)
I0403 19:28:24.336359 19982 net.cpp:156] Memory required for data: 1132256544
I0403 19:28:24.336376 19982 layer_factory.hpp:77] Creating layer inception_4d/relu_5x5_reduce
I0403 19:28:24.336396 19982 net.cpp:91] Creating Layer inception_4d/relu_5x5_reduce
I0403 19:28:24.336412 19982 net.cpp:425] inception_4d/relu_5x5_reduce <- inception_4d/5x5_reduce
I0403 19:28:24.336431 19982 net.cpp:386] inception_4d/relu_5x5_reduce -> inception_4d/5x5_reduce (in-place)
I0403 19:28:24.336613 19982 net.cpp:141] Setting up inception_4d/relu_5x5_reduce
I0403 19:28:24.336639 19982 net.cpp:148] Top shape: 24 32 14 14 (150528)
I0403 19:28:24.336655 19982 net.cpp:156] Memory required for data: 1132858656
I0403 19:28:24.336669 19982 layer_factory.hpp:77] Creating layer inception_4d/5x5
I0403 19:28:24.336691 19982 net.cpp:91] Creating Layer inception_4d/5x5
I0403 19:28:24.336709 19982 net.cpp:425] inception_4d/5x5 <- inception_4d/5x5_reduce
I0403 19:28:24.336726 19982 net.cpp:399] inception_4d/5x5 -> inception_4d/5x5
I0403 19:28:24.338186 19982 net.cpp:141] Setting up inception_4d/5x5
I0403 19:28:24.338217 19982 net.cpp:148] Top shape: 24 64 14 14 (301056)
I0403 19:28:24.338234 19982 net.cpp:156] Memory required for data: 1134062880
I0403 19:28:24.338253 19982 layer_factory.hpp:77] Creating layer inception_4d/relu_5x5
I0403 19:28:24.338284 19982 net.cpp:91] Creating Layer inception_4d/relu_5x5
I0403 19:28:24.338301 19982 net.cpp:425] inception_4d/relu_5x5 <- inception_4d/5x5
I0403 19:28:24.338320 19982 net.cpp:386] inception_4d/relu_5x5 -> inception_4d/5x5 (in-place)
I0403 19:28:24.338613 19982 net.cpp:141] Setting up inception_4d/relu_5x5
I0403 19:28:24.338640 19982 net.cpp:148] Top shape: 24 64 14 14 (301056)
I0403 19:28:24.338656 19982 net.cpp:156] Memory required for data: 1135267104
I0403 19:28:24.338671 19982 layer_factory.hpp:77] Creating layer inception_4d/pool
I0403 19:28:24.338690 19982 net.cpp:91] Creating Layer inception_4d/pool
I0403 19:28:24.338706 19982 net.cpp:425] inception_4d/pool <- inception_4c/output_inception_4c/output_0_split_3
I0403 19:28:24.338726 19982 net.cpp:399] inception_4d/pool -> inception_4d/pool
I0403 19:28:24.338788 19982 net.cpp:141] Setting up inception_4d/pool
I0403 19:28:24.338814 19982 net.cpp:148] Top shape: 24 512 14 14 (2408448)
I0403 19:28:24.338829 19982 net.cpp:156] Memory required for data: 1144900896
I0403 19:28:24.338843 19982 layer_factory.hpp:77] Creating layer inception_4d/pool_proj
I0403 19:28:24.338865 19982 net.cpp:91] Creating Layer inception_4d/pool_proj
I0403 19:28:24.338882 19982 net.cpp:425] inception_4d/pool_proj <- inception_4d/pool
I0403 19:28:24.338901 19982 net.cpp:399] inception_4d/pool_proj -> inception_4d/pool_proj
I0403 19:28:24.340652 19982 net.cpp:141] Setting up inception_4d/pool_proj
I0403 19:28:24.340682 19982 net.cpp:148] Top shape: 24 64 14 14 (301056)
I0403 19:28:24.340698 19982 net.cpp:156] Memory required for data: 1146105120
I0403 19:28:24.340716 19982 layer_factory.hpp:77] Creating layer inception_4d/relu_pool_proj
I0403 19:28:24.340736 19982 net.cpp:91] Creating Layer inception_4d/relu_pool_proj
I0403 19:28:24.340754 19982 net.cpp:425] inception_4d/relu_pool_proj <- inception_4d/pool_proj
I0403 19:28:24.340771 19982 net.cpp:386] inception_4d/relu_pool_proj -> inception_4d/pool_proj (in-place)
I0403 19:28:24.340958 19982 net.cpp:141] Setting up inception_4d/relu_pool_proj
I0403 19:28:24.340986 19982 net.cpp:148] Top shape: 24 64 14 14 (301056)
I0403 19:28:24.341001 19982 net.cpp:156] Memory required for data: 1147309344
I0403 19:28:24.341015 19982 layer_factory.hpp:77] Creating layer inception_4d/output
I0403 19:28:24.341032 19982 net.cpp:91] Creating Layer inception_4d/output
I0403 19:28:24.341048 19982 net.cpp:425] inception_4d/output <- inception_4d/1x1
I0403 19:28:24.341064 19982 net.cpp:425] inception_4d/output <- inception_4d/3x3
I0403 19:28:24.341081 19982 net.cpp:425] inception_4d/output <- inception_4d/5x5
I0403 19:28:24.341097 19982 net.cpp:425] inception_4d/output <- inception_4d/pool_proj
I0403 19:28:24.341114 19982 net.cpp:399] inception_4d/output -> inception_4d/output
I0403 19:28:24.341162 19982 net.cpp:141] Setting up inception_4d/output
I0403 19:28:24.341187 19982 net.cpp:148] Top shape: 24 528 14 14 (2483712)
I0403 19:28:24.341202 19982 net.cpp:156] Memory required for data: 1157244192
I0403 19:28:24.341217 19982 layer_factory.hpp:77] Creating layer inception_4d/output_inception_4d/output_0_split
I0403 19:28:24.341238 19982 net.cpp:91] Creating Layer inception_4d/output_inception_4d/output_0_split
I0403 19:28:24.341253 19982 net.cpp:425] inception_4d/output_inception_4d/output_0_split <- inception_4d/output
I0403 19:28:24.341270 19982 net.cpp:399] inception_4d/output_inception_4d/output_0_split -> inception_4d/output_inception_4d/output_0_split_0
I0403 19:28:24.341290 19982 net.cpp:399] inception_4d/output_inception_4d/output_0_split -> inception_4d/output_inception_4d/output_0_split_1
I0403 19:28:24.341313 19982 net.cpp:399] inception_4d/output_inception_4d/output_0_split -> inception_4d/output_inception_4d/output_0_split_2
I0403 19:28:24.341336 19982 net.cpp:399] inception_4d/output_inception_4d/output_0_split -> inception_4d/output_inception_4d/output_0_split_3
I0403 19:28:24.341356 19982 net.cpp:399] inception_4d/output_inception_4d/output_0_split -> inception_4d/output_inception_4d/output_0_split_4
I0403 19:28:24.341460 19982 net.cpp:141] Setting up inception_4d/output_inception_4d/output_0_split
I0403 19:28:24.341496 19982 net.cpp:148] Top shape: 24 528 14 14 (2483712)
I0403 19:28:24.341514 19982 net.cpp:148] Top shape: 24 528 14 14 (2483712)
I0403 19:28:24.341531 19982 net.cpp:148] Top shape: 24 528 14 14 (2483712)
I0403 19:28:24.341545 19982 net.cpp:148] Top shape: 24 528 14 14 (2483712)
I0403 19:28:24.341562 19982 net.cpp:148] Top shape: 24 528 14 14 (2483712)
I0403 19:28:24.341575 19982 net.cpp:156] Memory required for data: 1206918432
I0403 19:28:24.341590 19982 layer_factory.hpp:77] Creating layer loss2/ave_pool
I0403 19:28:24.341609 19982 net.cpp:91] Creating Layer loss2/ave_pool
I0403 19:28:24.341626 19982 net.cpp:425] loss2/ave_pool <- inception_4d/output_inception_4d/output_0_split_0
I0403 19:28:24.341645 19982 net.cpp:399] loss2/ave_pool -> loss2/ave_pool
I0403 19:28:24.341958 19982 net.cpp:141] Setting up loss2/ave_pool
I0403 19:28:24.341984 19982 net.cpp:148] Top shape: 24 528 4 4 (202752)
I0403 19:28:24.342000 19982 net.cpp:156] Memory required for data: 1207729440
I0403 19:28:24.342015 19982 layer_factory.hpp:77] Creating layer loss2/conv
I0403 19:28:24.342039 19982 net.cpp:91] Creating Layer loss2/conv
I0403 19:28:24.342057 19982 net.cpp:425] loss2/conv <- loss2/ave_pool
I0403 19:28:24.342077 19982 net.cpp:399] loss2/conv -> loss2/conv
I0403 19:28:24.344017 19982 net.cpp:141] Setting up loss2/conv
I0403 19:28:24.344046 19982 net.cpp:148] Top shape: 24 128 4 4 (49152)
I0403 19:28:24.344063 19982 net.cpp:156] Memory required for data: 1207926048
I0403 19:28:24.344080 19982 layer_factory.hpp:77] Creating layer loss2/relu_conv
I0403 19:28:24.344099 19982 net.cpp:91] Creating Layer loss2/relu_conv
I0403 19:28:24.344115 19982 net.cpp:425] loss2/relu_conv <- loss2/conv
I0403 19:28:24.344135 19982 net.cpp:386] loss2/relu_conv -> loss2/conv (in-place)
I0403 19:28:24.344421 19982 net.cpp:141] Setting up loss2/relu_conv
I0403 19:28:24.344449 19982 net.cpp:148] Top shape: 24 128 4 4 (49152)
I0403 19:28:24.344463 19982 net.cpp:156] Memory required for data: 1208122656
I0403 19:28:24.344480 19982 layer_factory.hpp:77] Creating layer loss2/fc
I0403 19:28:24.344497 19982 net.cpp:91] Creating Layer loss2/fc
I0403 19:28:24.344514 19982 net.cpp:425] loss2/fc <- loss2/conv
I0403 19:28:24.344535 19982 net.cpp:399] loss2/fc -> loss2/fc
I0403 19:28:24.362119 19982 net.cpp:141] Setting up loss2/fc
I0403 19:28:24.362157 19982 net.cpp:148] Top shape: 24 1024 (24576)
I0403 19:28:24.362174 19982 net.cpp:156] Memory required for data: 1208220960
I0403 19:28:24.362191 19982 layer_factory.hpp:77] Creating layer loss2/relu_fc
I0403 19:28:24.362211 19982 net.cpp:91] Creating Layer loss2/relu_fc
I0403 19:28:24.362227 19982 net.cpp:425] loss2/relu_fc <- loss2/fc
I0403 19:28:24.362243 19982 net.cpp:386] loss2/relu_fc -> loss2/fc (in-place)
I0403 19:28:24.362541 19982 net.cpp:141] Setting up loss2/relu_fc
I0403 19:28:24.362570 19982 net.cpp:148] Top shape: 24 1024 (24576)
I0403 19:28:24.362584 19982 net.cpp:156] Memory required for data: 1208319264
I0403 19:28:24.362599 19982 layer_factory.hpp:77] Creating layer loss2/drop_fc
I0403 19:28:24.362617 19982 net.cpp:91] Creating Layer loss2/drop_fc
I0403 19:28:24.362632 19982 net.cpp:425] loss2/drop_fc <- loss2/fc
I0403 19:28:24.362649 19982 net.cpp:386] loss2/drop_fc -> loss2/fc (in-place)
I0403 19:28:24.362699 19982 net.cpp:141] Setting up loss2/drop_fc
I0403 19:28:24.362721 19982 net.cpp:148] Top shape: 24 1024 (24576)
I0403 19:28:24.362735 19982 net.cpp:156] Memory required for data: 1208417568
I0403 19:28:24.362751 19982 layer_factory.hpp:77] Creating layer loss2/classifier_plantvillage
I0403 19:28:24.362769 19982 net.cpp:91] Creating Layer loss2/classifier_plantvillage
I0403 19:28:24.362785 19982 net.cpp:425] loss2/classifier_plantvillage <- loss2/fc
I0403 19:28:24.362802 19982 net.cpp:399] loss2/classifier_plantvillage -> loss2/classifier_plantvillage
I0403 19:28:24.363204 19982 net.cpp:141] Setting up loss2/classifier_plantvillage
I0403 19:28:24.363229 19982 net.cpp:148] Top shape: 24 38 (912)
I0403 19:28:24.363260 19982 net.cpp:156] Memory required for data: 1208421216
I0403 19:28:24.363279 19982 layer_factory.hpp:77] Creating layer loss2/classifier_plantvillage_loss2/classifier_plantvillage_0_split
I0403 19:28:24.363297 19982 net.cpp:91] Creating Layer loss2/classifier_plantvillage_loss2/classifier_plantvillage_0_split
I0403 19:28:24.363312 19982 net.cpp:425] loss2/classifier_plantvillage_loss2/classifier_plantvillage_0_split <- loss2/classifier_plantvillage
I0403 19:28:24.363332 19982 net.cpp:399] loss2/classifier_plantvillage_loss2/classifier_plantvillage_0_split -> loss2/classifier_plantvillage_loss2/classifier_plantvillage_0_split_0
I0403 19:28:24.363353 19982 net.cpp:399] loss2/classifier_plantvillage_loss2/classifier_plantvillage_0_split -> loss2/classifier_plantvillage_loss2/classifier_plantvillage_0_split_1
I0403 19:28:24.363373 19982 net.cpp:399] loss2/classifier_plantvillage_loss2/classifier_plantvillage_0_split -> loss2/classifier_plantvillage_loss2/classifier_plantvillage_0_split_2
I0403 19:28:24.363448 19982 net.cpp:141] Setting up loss2/classifier_plantvillage_loss2/classifier_plantvillage_0_split
I0403 19:28:24.363471 19982 net.cpp:148] Top shape: 24 38 (912)
I0403 19:28:24.363487 19982 net.cpp:148] Top shape: 24 38 (912)
I0403 19:28:24.363502 19982 net.cpp:148] Top shape: 24 38 (912)
I0403 19:28:24.363515 19982 net.cpp:156] Memory required for data: 1208432160
I0403 19:28:24.363530 19982 layer_factory.hpp:77] Creating layer inception_4e/1x1
I0403 19:28:24.363553 19982 net.cpp:91] Creating Layer inception_4e/1x1
I0403 19:28:24.363569 19982 net.cpp:425] inception_4e/1x1 <- inception_4d/output_inception_4d/output_0_split_1
I0403 19:28:24.363587 19982 net.cpp:399] inception_4e/1x1 -> inception_4e/1x1
I0403 19:28:24.365356 19982 net.cpp:141] Setting up inception_4e/1x1
I0403 19:28:24.365383 19982 net.cpp:148] Top shape: 24 256 14 14 (1204224)
I0403 19:28:24.365398 19982 net.cpp:156] Memory required for data: 1213249056
I0403 19:28:24.365417 19982 layer_factory.hpp:77] Creating layer inception_4e/relu_1x1
I0403 19:28:24.365434 19982 net.cpp:91] Creating Layer inception_4e/relu_1x1
I0403 19:28:24.365453 19982 net.cpp:425] inception_4e/relu_1x1 <- inception_4e/1x1
I0403 19:28:24.365470 19982 net.cpp:386] inception_4e/relu_1x1 -> inception_4e/1x1 (in-place)
I0403 19:28:24.365758 19982 net.cpp:141] Setting up inception_4e/relu_1x1
I0403 19:28:24.365784 19982 net.cpp:148] Top shape: 24 256 14 14 (1204224)
I0403 19:28:24.365799 19982 net.cpp:156] Memory required for data: 1218065952
I0403 19:28:24.365813 19982 layer_factory.hpp:77] Creating layer inception_4e/3x3_reduce
I0403 19:28:24.365835 19982 net.cpp:91] Creating Layer inception_4e/3x3_reduce
I0403 19:28:24.365851 19982 net.cpp:425] inception_4e/3x3_reduce <- inception_4d/output_inception_4d/output_0_split_2
I0403 19:28:24.365872 19982 net.cpp:399] inception_4e/3x3_reduce -> inception_4e/3x3_reduce
I0403 19:28:24.367939 19982 net.cpp:141] Setting up inception_4e/3x3_reduce
I0403 19:28:24.367970 19982 net.cpp:148] Top shape: 24 160 14 14 (752640)
I0403 19:28:24.367987 19982 net.cpp:156] Memory required for data: 1221076512
I0403 19:28:24.368005 19982 layer_factory.hpp:77] Creating layer inception_4e/relu_3x3_reduce
I0403 19:28:24.368023 19982 net.cpp:91] Creating Layer inception_4e/relu_3x3_reduce
I0403 19:28:24.368039 19982 net.cpp:425] inception_4e/relu_3x3_reduce <- inception_4e/3x3_reduce
I0403 19:28:24.368058 19982 net.cpp:386] inception_4e/relu_3x3_reduce -> inception_4e/3x3_reduce (in-place)
I0403 19:28:24.368239 19982 net.cpp:141] Setting up inception_4e/relu_3x3_reduce
I0403 19:28:24.368264 19982 net.cpp:148] Top shape: 24 160 14 14 (752640)
I0403 19:28:24.368279 19982 net.cpp:156] Memory required for data: 1224087072
I0403 19:28:24.368294 19982 layer_factory.hpp:77] Creating layer inception_4e/3x3
I0403 19:28:24.368315 19982 net.cpp:91] Creating Layer inception_4e/3x3
I0403 19:28:24.368332 19982 net.cpp:425] inception_4e/3x3 <- inception_4e/3x3_reduce
I0403 19:28:24.368352 19982 net.cpp:399] inception_4e/3x3 -> inception_4e/3x3
I0403 19:28:24.373242 19982 net.cpp:141] Setting up inception_4e/3x3
I0403 19:28:24.373283 19982 net.cpp:148] Top shape: 24 320 14 14 (1505280)
I0403 19:28:24.373301 19982 net.cpp:156] Memory required for data: 1230108192
I0403 19:28:24.373318 19982 layer_factory.hpp:77] Creating layer inception_4e/relu_3x3
I0403 19:28:24.373339 19982 net.cpp:91] Creating Layer inception_4e/relu_3x3
I0403 19:28:24.373356 19982 net.cpp:425] inception_4e/relu_3x3 <- inception_4e/3x3
I0403 19:28:24.373374 19982 net.cpp:386] inception_4e/relu_3x3 -> inception_4e/3x3 (in-place)
I0403 19:28:24.373680 19982 net.cpp:141] Setting up inception_4e/relu_3x3
I0403 19:28:24.373708 19982 net.cpp:148] Top shape: 24 320 14 14 (1505280)
I0403 19:28:24.373723 19982 net.cpp:156] Memory required for data: 1236129312
I0403 19:28:24.373738 19982 layer_factory.hpp:77] Creating layer inception_4e/5x5_reduce
I0403 19:28:24.373759 19982 net.cpp:91] Creating Layer inception_4e/5x5_reduce
I0403 19:28:24.373775 19982 net.cpp:425] inception_4e/5x5_reduce <- inception_4d/output_inception_4d/output_0_split_3
I0403 19:28:24.373796 19982 net.cpp:399] inception_4e/5x5_reduce -> inception_4e/5x5_reduce
I0403 19:28:24.374835 19982 net.cpp:141] Setting up inception_4e/5x5_reduce
I0403 19:28:24.374864 19982 net.cpp:148] Top shape: 24 32 14 14 (150528)
I0403 19:28:24.374881 19982 net.cpp:156] Memory required for data: 1236731424
I0403 19:28:24.374899 19982 layer_factory.hpp:77] Creating layer inception_4e/relu_5x5_reduce
I0403 19:28:24.374917 19982 net.cpp:91] Creating Layer inception_4e/relu_5x5_reduce
I0403 19:28:24.374933 19982 net.cpp:425] inception_4e/relu_5x5_reduce <- inception_4e/5x5_reduce
I0403 19:28:24.374958 19982 net.cpp:386] inception_4e/relu_5x5_reduce -> inception_4e/5x5_reduce (in-place)
I0403 19:28:24.375253 19982 net.cpp:141] Setting up inception_4e/relu_5x5_reduce
I0403 19:28:24.375280 19982 net.cpp:148] Top shape: 24 32 14 14 (150528)
I0403 19:28:24.375296 19982 net.cpp:156] Memory required for data: 1237333536
I0403 19:28:24.375311 19982 layer_factory.hpp:77] Creating layer inception_4e/5x5
I0403 19:28:24.375349 19982 net.cpp:91] Creating Layer inception_4e/5x5
I0403 19:28:24.375367 19982 net.cpp:425] inception_4e/5x5 <- inception_4e/5x5_reduce
I0403 19:28:24.375386 19982 net.cpp:399] inception_4e/5x5 -> inception_4e/5x5
I0403 19:28:24.377178 19982 net.cpp:141] Setting up inception_4e/5x5
I0403 19:28:24.377207 19982 net.cpp:148] Top shape: 24 128 14 14 (602112)
I0403 19:28:24.377223 19982 net.cpp:156] Memory required for data: 1239741984
I0403 19:28:24.377243 19982 layer_factory.hpp:77] Creating layer inception_4e/relu_5x5
I0403 19:28:24.377261 19982 net.cpp:91] Creating Layer inception_4e/relu_5x5
I0403 19:28:24.377277 19982 net.cpp:425] inception_4e/relu_5x5 <- inception_4e/5x5
I0403 19:28:24.377293 19982 net.cpp:386] inception_4e/relu_5x5 -> inception_4e/5x5 (in-place)
I0403 19:28:24.377486 19982 net.cpp:141] Setting up inception_4e/relu_5x5
I0403 19:28:24.377511 19982 net.cpp:148] Top shape: 24 128 14 14 (602112)
I0403 19:28:24.377524 19982 net.cpp:156] Memory required for data: 1242150432
I0403 19:28:24.377539 19982 layer_factory.hpp:77] Creating layer inception_4e/pool
I0403 19:28:24.377557 19982 net.cpp:91] Creating Layer inception_4e/pool
I0403 19:28:24.377573 19982 net.cpp:425] inception_4e/pool <- inception_4d/output_inception_4d/output_0_split_4
I0403 19:28:24.377591 19982 net.cpp:399] inception_4e/pool -> inception_4e/pool
I0403 19:28:24.377660 19982 net.cpp:141] Setting up inception_4e/pool
I0403 19:28:24.377683 19982 net.cpp:148] Top shape: 24 528 14 14 (2483712)
I0403 19:28:24.377698 19982 net.cpp:156] Memory required for data: 1252085280
I0403 19:28:24.377712 19982 layer_factory.hpp:77] Creating layer inception_4e/pool_proj
I0403 19:28:24.377735 19982 net.cpp:91] Creating Layer inception_4e/pool_proj
I0403 19:28:24.377753 19982 net.cpp:425] inception_4e/pool_proj <- inception_4e/pool
I0403 19:28:24.377771 19982 net.cpp:399] inception_4e/pool_proj -> inception_4e/pool_proj
I0403 19:28:24.379243 19982 net.cpp:141] Setting up inception_4e/pool_proj
I0403 19:28:24.379281 19982 net.cpp:148] Top shape: 24 128 14 14 (602112)
I0403 19:28:24.379297 19982 net.cpp:156] Memory required for data: 1254493728
I0403 19:28:24.379315 19982 layer_factory.hpp:77] Creating layer inception_4e/relu_pool_proj
I0403 19:28:24.379335 19982 net.cpp:91] Creating Layer inception_4e/relu_pool_proj
I0403 19:28:24.379353 19982 net.cpp:425] inception_4e/relu_pool_proj <- inception_4e/pool_proj
I0403 19:28:24.379369 19982 net.cpp:386] inception_4e/relu_pool_proj -> inception_4e/pool_proj (in-place)
I0403 19:28:24.379652 19982 net.cpp:141] Setting up inception_4e/relu_pool_proj
I0403 19:28:24.379678 19982 net.cpp:148] Top shape: 24 128 14 14 (602112)
I0403 19:28:24.379693 19982 net.cpp:156] Memory required for data: 1256902176
I0403 19:28:24.379708 19982 layer_factory.hpp:77] Creating layer inception_4e/output
I0403 19:28:24.379727 19982 net.cpp:91] Creating Layer inception_4e/output
I0403 19:28:24.379744 19982 net.cpp:425] inception_4e/output <- inception_4e/1x1
I0403 19:28:24.379760 19982 net.cpp:425] inception_4e/output <- inception_4e/3x3
I0403 19:28:24.379776 19982 net.cpp:425] inception_4e/output <- inception_4e/5x5
I0403 19:28:24.379792 19982 net.cpp:425] inception_4e/output <- inception_4e/pool_proj
I0403 19:28:24.379809 19982 net.cpp:399] inception_4e/output -> inception_4e/output
I0403 19:28:24.379858 19982 net.cpp:141] Setting up inception_4e/output
I0403 19:28:24.379883 19982 net.cpp:148] Top shape: 24 832 14 14 (3913728)
I0403 19:28:24.379896 19982 net.cpp:156] Memory required for data: 1272557088
I0403 19:28:24.379910 19982 layer_factory.hpp:77] Creating layer pool4/3x3_s2
I0403 19:28:24.379927 19982 net.cpp:91] Creating Layer pool4/3x3_s2
I0403 19:28:24.379943 19982 net.cpp:425] pool4/3x3_s2 <- inception_4e/output
I0403 19:28:24.379968 19982 net.cpp:399] pool4/3x3_s2 -> pool4/3x3_s2
I0403 19:28:24.380034 19982 net.cpp:141] Setting up pool4/3x3_s2
I0403 19:28:24.380058 19982 net.cpp:148] Top shape: 24 832 7 7 (978432)
I0403 19:28:24.380072 19982 net.cpp:156] Memory required for data: 1276470816
I0403 19:28:24.380087 19982 layer_factory.hpp:77] Creating layer pool4/3x3_s2_pool4/3x3_s2_0_split
I0403 19:28:24.380106 19982 net.cpp:91] Creating Layer pool4/3x3_s2_pool4/3x3_s2_0_split
I0403 19:28:24.380122 19982 net.cpp:425] pool4/3x3_s2_pool4/3x3_s2_0_split <- pool4/3x3_s2
I0403 19:28:24.380141 19982 net.cpp:399] pool4/3x3_s2_pool4/3x3_s2_0_split -> pool4/3x3_s2_pool4/3x3_s2_0_split_0
I0403 19:28:24.380162 19982 net.cpp:399] pool4/3x3_s2_pool4/3x3_s2_0_split -> pool4/3x3_s2_pool4/3x3_s2_0_split_1
I0403 19:28:24.380182 19982 net.cpp:399] pool4/3x3_s2_pool4/3x3_s2_0_split -> pool4/3x3_s2_pool4/3x3_s2_0_split_2
I0403 19:28:24.380201 19982 net.cpp:399] pool4/3x3_s2_pool4/3x3_s2_0_split -> pool4/3x3_s2_pool4/3x3_s2_0_split_3
I0403 19:28:24.380286 19982 net.cpp:141] Setting up pool4/3x3_s2_pool4/3x3_s2_0_split
I0403 19:28:24.380311 19982 net.cpp:148] Top shape: 24 832 7 7 (978432)
I0403 19:28:24.380328 19982 net.cpp:148] Top shape: 24 832 7 7 (978432)
I0403 19:28:24.380343 19982 net.cpp:148] Top shape: 24 832 7 7 (978432)
I0403 19:28:24.380358 19982 net.cpp:148] Top shape: 24 832 7 7 (978432)
I0403 19:28:24.380373 19982 net.cpp:156] Memory required for data: 1292125728
I0403 19:28:24.380386 19982 layer_factory.hpp:77] Creating layer inception_5a/1x1
I0403 19:28:24.380408 19982 net.cpp:91] Creating Layer inception_5a/1x1
I0403 19:28:24.380424 19982 net.cpp:425] inception_5a/1x1 <- pool4/3x3_s2_pool4/3x3_s2_0_split_0
I0403 19:28:24.380444 19982 net.cpp:399] inception_5a/1x1 -> inception_5a/1x1
I0403 19:28:24.383246 19982 net.cpp:141] Setting up inception_5a/1x1
I0403 19:28:24.383278 19982 net.cpp:148] Top shape: 24 256 7 7 (301056)
I0403 19:28:24.383294 19982 net.cpp:156] Memory required for data: 1293329952
I0403 19:28:24.383312 19982 layer_factory.hpp:77] Creating layer inception_5a/relu_1x1
I0403 19:28:24.383329 19982 net.cpp:91] Creating Layer inception_5a/relu_1x1
I0403 19:28:24.383345 19982 net.cpp:425] inception_5a/relu_1x1 <- inception_5a/1x1
I0403 19:28:24.383364 19982 net.cpp:386] inception_5a/relu_1x1 -> inception_5a/1x1 (in-place)
I0403 19:28:24.383667 19982 net.cpp:141] Setting up inception_5a/relu_1x1
I0403 19:28:24.383695 19982 net.cpp:148] Top shape: 24 256 7 7 (301056)
I0403 19:28:24.383710 19982 net.cpp:156] Memory required for data: 1294534176
I0403 19:28:24.383725 19982 layer_factory.hpp:77] Creating layer inception_5a/3x3_reduce
I0403 19:28:24.383746 19982 net.cpp:91] Creating Layer inception_5a/3x3_reduce
I0403 19:28:24.383764 19982 net.cpp:425] inception_5a/3x3_reduce <- pool4/3x3_s2_pool4/3x3_s2_0_split_1
I0403 19:28:24.383782 19982 net.cpp:399] inception_5a/3x3_reduce -> inception_5a/3x3_reduce
I0403 19:28:24.386165 19982 net.cpp:141] Setting up inception_5a/3x3_reduce
I0403 19:28:24.386193 19982 net.cpp:148] Top shape: 24 160 7 7 (188160)
I0403 19:28:24.386210 19982 net.cpp:156] Memory required for data: 1295286816
I0403 19:28:24.386227 19982 layer_factory.hpp:77] Creating layer inception_5a/relu_3x3_reduce
I0403 19:28:24.386247 19982 net.cpp:91] Creating Layer inception_5a/relu_3x3_reduce
I0403 19:28:24.386265 19982 net.cpp:425] inception_5a/relu_3x3_reduce <- inception_5a/3x3_reduce
I0403 19:28:24.386281 19982 net.cpp:386] inception_5a/relu_3x3_reduce -> inception_5a/3x3_reduce (in-place)
I0403 19:28:24.386462 19982 net.cpp:141] Setting up inception_5a/relu_3x3_reduce
I0403 19:28:24.386492 19982 net.cpp:148] Top shape: 24 160 7 7 (188160)
I0403 19:28:24.386507 19982 net.cpp:156] Memory required for data: 1296039456
I0403 19:28:24.386521 19982 layer_factory.hpp:77] Creating layer inception_5a/3x3
I0403 19:28:24.386543 19982 net.cpp:91] Creating Layer inception_5a/3x3
I0403 19:28:24.386560 19982 net.cpp:425] inception_5a/3x3 <- inception_5a/3x3_reduce
I0403 19:28:24.386579 19982 net.cpp:399] inception_5a/3x3 -> inception_5a/3x3
I0403 19:28:24.391477 19982 net.cpp:141] Setting up inception_5a/3x3
I0403 19:28:24.391508 19982 net.cpp:148] Top shape: 24 320 7 7 (376320)
I0403 19:28:24.391525 19982 net.cpp:156] Memory required for data: 1297544736
I0403 19:28:24.391543 19982 layer_factory.hpp:77] Creating layer inception_5a/relu_3x3
I0403 19:28:24.391561 19982 net.cpp:91] Creating Layer inception_5a/relu_3x3
I0403 19:28:24.391577 19982 net.cpp:425] inception_5a/relu_3x3 <- inception_5a/3x3
I0403 19:28:24.391595 19982 net.cpp:386] inception_5a/relu_3x3 -> inception_5a/3x3 (in-place)
I0403 19:28:24.391881 19982 net.cpp:141] Setting up inception_5a/relu_3x3
I0403 19:28:24.391911 19982 net.cpp:148] Top shape: 24 320 7 7 (376320)
I0403 19:28:24.391927 19982 net.cpp:156] Memory required for data: 1299050016
I0403 19:28:24.391940 19982 layer_factory.hpp:77] Creating layer inception_5a/5x5_reduce
I0403 19:28:24.391968 19982 net.cpp:91] Creating Layer inception_5a/5x5_reduce
I0403 19:28:24.391986 19982 net.cpp:425] inception_5a/5x5_reduce <- pool4/3x3_s2_pool4/3x3_s2_0_split_2
I0403 19:28:24.392005 19982 net.cpp:399] inception_5a/5x5_reduce -> inception_5a/5x5_reduce
I0403 19:28:24.393142 19982 net.cpp:141] Setting up inception_5a/5x5_reduce
I0403 19:28:24.393183 19982 net.cpp:148] Top shape: 24 32 7 7 (37632)
I0403 19:28:24.393203 19982 net.cpp:156] Memory required for data: 1299200544
I0403 19:28:24.393221 19982 layer_factory.hpp:77] Creating layer inception_5a/relu_5x5_reduce
I0403 19:28:24.393239 19982 net.cpp:91] Creating Layer inception_5a/relu_5x5_reduce
I0403 19:28:24.393255 19982 net.cpp:425] inception_5a/relu_5x5_reduce <- inception_5a/5x5_reduce
I0403 19:28:24.393275 19982 net.cpp:386] inception_5a/relu_5x5_reduce -> inception_5a/5x5_reduce (in-place)
I0403 19:28:24.393585 19982 net.cpp:141] Setting up inception_5a/relu_5x5_reduce
I0403 19:28:24.393610 19982 net.cpp:148] Top shape: 24 32 7 7 (37632)
I0403 19:28:24.393625 19982 net.cpp:156] Memory required for data: 1299351072
I0403 19:28:24.393640 19982 layer_factory.hpp:77] Creating layer inception_5a/5x5
I0403 19:28:24.393661 19982 net.cpp:91] Creating Layer inception_5a/5x5
I0403 19:28:24.393677 19982 net.cpp:425] inception_5a/5x5 <- inception_5a/5x5_reduce
I0403 19:28:24.393698 19982 net.cpp:399] inception_5a/5x5 -> inception_5a/5x5
I0403 19:28:24.395372 19982 net.cpp:141] Setting up inception_5a/5x5
I0403 19:28:24.395412 19982 net.cpp:148] Top shape: 24 128 7 7 (150528)
I0403 19:28:24.395429 19982 net.cpp:156] Memory required for data: 1299953184
I0403 19:28:24.395447 19982 layer_factory.hpp:77] Creating layer inception_5a/relu_5x5
I0403 19:28:24.395464 19982 net.cpp:91] Creating Layer inception_5a/relu_5x5
I0403 19:28:24.395480 19982 net.cpp:425] inception_5a/relu_5x5 <- inception_5a/5x5
I0403 19:28:24.395499 19982 net.cpp:386] inception_5a/relu_5x5 -> inception_5a/5x5 (in-place)
I0403 19:28:24.395685 19982 net.cpp:141] Setting up inception_5a/relu_5x5
I0403 19:28:24.395709 19982 net.cpp:148] Top shape: 24 128 7 7 (150528)
I0403 19:28:24.395725 19982 net.cpp:156] Memory required for data: 1300555296
I0403 19:28:24.395740 19982 layer_factory.hpp:77] Creating layer inception_5a/pool
I0403 19:28:24.395756 19982 net.cpp:91] Creating Layer inception_5a/pool
I0403 19:28:24.395771 19982 net.cpp:425] inception_5a/pool <- pool4/3x3_s2_pool4/3x3_s2_0_split_3
I0403 19:28:24.395790 19982 net.cpp:399] inception_5a/pool -> inception_5a/pool
I0403 19:28:24.395862 19982 net.cpp:141] Setting up inception_5a/pool
I0403 19:28:24.395885 19982 net.cpp:148] Top shape: 24 832 7 7 (978432)
I0403 19:28:24.395900 19982 net.cpp:156] Memory required for data: 1304469024
I0403 19:28:24.395913 19982 layer_factory.hpp:77] Creating layer inception_5a/pool_proj
I0403 19:28:24.395936 19982 net.cpp:91] Creating Layer inception_5a/pool_proj
I0403 19:28:24.395958 19982 net.cpp:425] inception_5a/pool_proj <- inception_5a/pool
I0403 19:28:24.395977 19982 net.cpp:399] inception_5a/pool_proj -> inception_5a/pool_proj
I0403 19:28:24.398247 19982 net.cpp:141] Setting up inception_5a/pool_proj
I0403 19:28:24.398280 19982 net.cpp:148] Top shape: 24 128 7 7 (150528)
I0403 19:28:24.398298 19982 net.cpp:156] Memory required for data: 1305071136
I0403 19:28:24.398315 19982 layer_factory.hpp:77] Creating layer inception_5a/relu_pool_proj
I0403 19:28:24.398334 19982 net.cpp:91] Creating Layer inception_5a/relu_pool_proj
I0403 19:28:24.398350 19982 net.cpp:425] inception_5a/relu_pool_proj <- inception_5a/pool_proj
I0403 19:28:24.398367 19982 net.cpp:386] inception_5a/relu_pool_proj -> inception_5a/pool_proj (in-place)
I0403 19:28:24.398663 19982 net.cpp:141] Setting up inception_5a/relu_pool_proj
I0403 19:28:24.398691 19982 net.cpp:148] Top shape: 24 128 7 7 (150528)
I0403 19:28:24.398707 19982 net.cpp:156] Memory required for data: 1305673248
I0403 19:28:24.398722 19982 layer_factory.hpp:77] Creating layer inception_5a/output
I0403 19:28:24.398739 19982 net.cpp:91] Creating Layer inception_5a/output
I0403 19:28:24.398756 19982 net.cpp:425] inception_5a/output <- inception_5a/1x1
I0403 19:28:24.398772 19982 net.cpp:425] inception_5a/output <- inception_5a/3x3
I0403 19:28:24.398788 19982 net.cpp:425] inception_5a/output <- inception_5a/5x5
I0403 19:28:24.398803 19982 net.cpp:425] inception_5a/output <- inception_5a/pool_proj
I0403 19:28:24.398820 19982 net.cpp:399] inception_5a/output -> inception_5a/output
I0403 19:28:24.398872 19982 net.cpp:141] Setting up inception_5a/output
I0403 19:28:24.398896 19982 net.cpp:148] Top shape: 24 832 7 7 (978432)
I0403 19:28:24.398911 19982 net.cpp:156] Memory required for data: 1309586976
I0403 19:28:24.398927 19982 layer_factory.hpp:77] Creating layer inception_5a/output_inception_5a/output_0_split
I0403 19:28:24.398943 19982 net.cpp:91] Creating Layer inception_5a/output_inception_5a/output_0_split
I0403 19:28:24.398972 19982 net.cpp:425] inception_5a/output_inception_5a/output_0_split <- inception_5a/output
I0403 19:28:24.398993 19982 net.cpp:399] inception_5a/output_inception_5a/output_0_split -> inception_5a/output_inception_5a/output_0_split_0
I0403 19:28:24.399014 19982 net.cpp:399] inception_5a/output_inception_5a/output_0_split -> inception_5a/output_inception_5a/output_0_split_1
I0403 19:28:24.399034 19982 net.cpp:399] inception_5a/output_inception_5a/output_0_split -> inception_5a/output_inception_5a/output_0_split_2
I0403 19:28:24.399055 19982 net.cpp:399] inception_5a/output_inception_5a/output_0_split -> inception_5a/output_inception_5a/output_0_split_3
I0403 19:28:24.399166 19982 net.cpp:141] Setting up inception_5a/output_inception_5a/output_0_split
I0403 19:28:24.399190 19982 net.cpp:148] Top shape: 24 832 7 7 (978432)
I0403 19:28:24.399209 19982 net.cpp:148] Top shape: 24 832 7 7 (978432)
I0403 19:28:24.399225 19982 net.cpp:148] Top shape: 24 832 7 7 (978432)
I0403 19:28:24.399240 19982 net.cpp:148] Top shape: 24 832 7 7 (978432)
I0403 19:28:24.399255 19982 net.cpp:156] Memory required for data: 1325241888
I0403 19:28:24.399268 19982 layer_factory.hpp:77] Creating layer inception_5b/1x1
I0403 19:28:24.399291 19982 net.cpp:91] Creating Layer inception_5b/1x1
I0403 19:28:24.399309 19982 net.cpp:425] inception_5b/1x1 <- inception_5a/output_inception_5a/output_0_split_0
I0403 19:28:24.399330 19982 net.cpp:399] inception_5b/1x1 -> inception_5b/1x1
I0403 19:28:24.403095 19982 net.cpp:141] Setting up inception_5b/1x1
I0403 19:28:24.403126 19982 net.cpp:148] Top shape: 24 384 7 7 (451584)
I0403 19:28:24.403141 19982 net.cpp:156] Memory required for data: 1327048224
I0403 19:28:24.403161 19982 layer_factory.hpp:77] Creating layer inception_5b/relu_1x1
I0403 19:28:24.403192 19982 net.cpp:91] Creating Layer inception_5b/relu_1x1
I0403 19:28:24.403210 19982 net.cpp:425] inception_5b/relu_1x1 <- inception_5b/1x1
I0403 19:28:24.403228 19982 net.cpp:386] inception_5b/relu_1x1 -> inception_5b/1x1 (in-place)
I0403 19:28:24.403551 19982 net.cpp:141] Setting up inception_5b/relu_1x1
I0403 19:28:24.403578 19982 net.cpp:148] Top shape: 24 384 7 7 (451584)
I0403 19:28:24.403594 19982 net.cpp:156] Memory required for data: 1328854560
I0403 19:28:24.403609 19982 layer_factory.hpp:77] Creating layer inception_5b/3x3_reduce
I0403 19:28:24.403631 19982 net.cpp:91] Creating Layer inception_5b/3x3_reduce
I0403 19:28:24.403650 19982 net.cpp:425] inception_5b/3x3_reduce <- inception_5a/output_inception_5a/output_0_split_1
I0403 19:28:24.403672 19982 net.cpp:399] inception_5b/3x3_reduce -> inception_5b/3x3_reduce
I0403 19:28:24.406368 19982 net.cpp:141] Setting up inception_5b/3x3_reduce
I0403 19:28:24.406399 19982 net.cpp:148] Top shape: 24 192 7 7 (225792)
I0403 19:28:24.406417 19982 net.cpp:156] Memory required for data: 1329757728
I0403 19:28:24.406436 19982 layer_factory.hpp:77] Creating layer inception_5b/relu_3x3_reduce
I0403 19:28:24.406458 19982 net.cpp:91] Creating Layer inception_5b/relu_3x3_reduce
I0403 19:28:24.406487 19982 net.cpp:425] inception_5b/relu_3x3_reduce <- inception_5b/3x3_reduce
I0403 19:28:24.406504 19982 net.cpp:386] inception_5b/relu_3x3_reduce -> inception_5b/3x3_reduce (in-place)
I0403 19:28:24.406697 19982 net.cpp:141] Setting up inception_5b/relu_3x3_reduce
I0403 19:28:24.406724 19982 net.cpp:148] Top shape: 24 192 7 7 (225792)
I0403 19:28:24.406740 19982 net.cpp:156] Memory required for data: 1330660896
I0403 19:28:24.406755 19982 layer_factory.hpp:77] Creating layer inception_5b/3x3
I0403 19:28:24.406779 19982 net.cpp:91] Creating Layer inception_5b/3x3
I0403 19:28:24.406796 19982 net.cpp:425] inception_5b/3x3 <- inception_5b/3x3_reduce
I0403 19:28:24.406816 19982 net.cpp:399] inception_5b/3x3 -> inception_5b/3x3
I0403 19:28:24.413532 19982 net.cpp:141] Setting up inception_5b/3x3
I0403 19:28:24.413563 19982 net.cpp:148] Top shape: 24 384 7 7 (451584)
I0403 19:28:24.413580 19982 net.cpp:156] Memory required for data: 1332467232
I0403 19:28:24.413599 19982 layer_factory.hpp:77] Creating layer inception_5b/relu_3x3
I0403 19:28:24.413619 19982 net.cpp:91] Creating Layer inception_5b/relu_3x3
I0403 19:28:24.413635 19982 net.cpp:425] inception_5b/relu_3x3 <- inception_5b/3x3
I0403 19:28:24.413651 19982 net.cpp:386] inception_5b/relu_3x3 -> inception_5b/3x3 (in-place)
I0403 19:28:24.413969 19982 net.cpp:141] Setting up inception_5b/relu_3x3
I0403 19:28:24.413997 19982 net.cpp:148] Top shape: 24 384 7 7 (451584)
I0403 19:28:24.414014 19982 net.cpp:156] Memory required for data: 1334273568
I0403 19:28:24.414031 19982 layer_factory.hpp:77] Creating layer inception_5b/5x5_reduce
I0403 19:28:24.414067 19982 net.cpp:91] Creating Layer inception_5b/5x5_reduce
I0403 19:28:24.414085 19982 net.cpp:425] inception_5b/5x5_reduce <- inception_5a/output_inception_5a/output_0_split_2
I0403 19:28:24.414108 19982 net.cpp:399] inception_5b/5x5_reduce -> inception_5b/5x5_reduce
I0403 19:28:24.415452 19982 net.cpp:141] Setting up inception_5b/5x5_reduce
I0403 19:28:24.415478 19982 net.cpp:148] Top shape: 24 48 7 7 (56448)
I0403 19:28:24.415494 19982 net.cpp:156] Memory required for data: 1334499360
I0403 19:28:24.415513 19982 layer_factory.hpp:77] Creating layer inception_5b/relu_5x5_reduce
I0403 19:28:24.415532 19982 net.cpp:91] Creating Layer inception_5b/relu_5x5_reduce
I0403 19:28:24.415549 19982 net.cpp:425] inception_5b/relu_5x5_reduce <- inception_5b/5x5_reduce
I0403 19:28:24.415566 19982 net.cpp:386] inception_5b/relu_5x5_reduce -> inception_5b/5x5_reduce (in-place)
I0403 19:28:24.415931 19982 net.cpp:141] Setting up inception_5b/relu_5x5_reduce
I0403 19:28:24.415961 19982 net.cpp:148] Top shape: 24 48 7 7 (56448)
I0403 19:28:24.415977 19982 net.cpp:156] Memory required for data: 1334725152
I0403 19:28:24.415992 19982 layer_factory.hpp:77] Creating layer inception_5b/5x5
I0403 19:28:24.416012 19982 net.cpp:91] Creating Layer inception_5b/5x5
I0403 19:28:24.416028 19982 net.cpp:425] inception_5b/5x5 <- inception_5b/5x5_reduce
I0403 19:28:24.416046 19982 net.cpp:399] inception_5b/5x5 -> inception_5b/5x5
I0403 19:28:24.418036 19982 net.cpp:141] Setting up inception_5b/5x5
I0403 19:28:24.418066 19982 net.cpp:148] Top shape: 24 128 7 7 (150528)
I0403 19:28:24.418081 19982 net.cpp:156] Memory required for data: 1335327264
I0403 19:28:24.418099 19982 layer_factory.hpp:77] Creating layer inception_5b/relu_5x5
I0403 19:28:24.418118 19982 net.cpp:91] Creating Layer inception_5b/relu_5x5
I0403 19:28:24.418133 19982 net.cpp:425] inception_5b/relu_5x5 <- inception_5b/5x5
I0403 19:28:24.418153 19982 net.cpp:386] inception_5b/relu_5x5 -> inception_5b/5x5 (in-place)
I0403 19:28:24.418342 19982 net.cpp:141] Setting up inception_5b/relu_5x5
I0403 19:28:24.418366 19982 net.cpp:148] Top shape: 24 128 7 7 (150528)
I0403 19:28:24.418381 19982 net.cpp:156] Memory required for data: 1335929376
I0403 19:28:24.418395 19982 layer_factory.hpp:77] Creating layer inception_5b/pool
I0403 19:28:24.418413 19982 net.cpp:91] Creating Layer inception_5b/pool
I0403 19:28:24.418429 19982 net.cpp:425] inception_5b/pool <- inception_5a/output_inception_5a/output_0_split_3
I0403 19:28:24.418448 19982 net.cpp:399] inception_5b/pool -> inception_5b/pool
I0403 19:28:24.418522 19982 net.cpp:141] Setting up inception_5b/pool
I0403 19:28:24.418546 19982 net.cpp:148] Top shape: 24 832 7 7 (978432)
I0403 19:28:24.418560 19982 net.cpp:156] Memory required for data: 1339843104
I0403 19:28:24.418576 19982 layer_factory.hpp:77] Creating layer inception_5b/pool_proj
I0403 19:28:24.418596 19982 net.cpp:91] Creating Layer inception_5b/pool_proj
I0403 19:28:24.418614 19982 net.cpp:425] inception_5b/pool_proj <- inception_5b/pool
I0403 19:28:24.418634 19982 net.cpp:399] inception_5b/pool_proj -> inception_5b/pool_proj
I0403 19:28:24.420895 19982 net.cpp:141] Setting up inception_5b/pool_proj
I0403 19:28:24.420924 19982 net.cpp:148] Top shape: 24 128 7 7 (150528)
I0403 19:28:24.420940 19982 net.cpp:156] Memory required for data: 1340445216
I0403 19:28:24.420964 19982 layer_factory.hpp:77] Creating layer inception_5b/relu_pool_proj
I0403 19:28:24.420984 19982 net.cpp:91] Creating Layer inception_5b/relu_pool_proj
I0403 19:28:24.421002 19982 net.cpp:425] inception_5b/relu_pool_proj <- inception_5b/pool_proj
I0403 19:28:24.421020 19982 net.cpp:386] inception_5b/relu_pool_proj -> inception_5b/pool_proj (in-place)
I0403 19:28:24.421331 19982 net.cpp:141] Setting up inception_5b/relu_pool_proj
I0403 19:28:24.421357 19982 net.cpp:148] Top shape: 24 128 7 7 (150528)
I0403 19:28:24.421372 19982 net.cpp:156] Memory required for data: 1341047328
I0403 19:28:24.421387 19982 layer_factory.hpp:77] Creating layer inception_5b/output
I0403 19:28:24.421406 19982 net.cpp:91] Creating Layer inception_5b/output
I0403 19:28:24.421435 19982 net.cpp:425] inception_5b/output <- inception_5b/1x1
I0403 19:28:24.421453 19982 net.cpp:425] inception_5b/output <- inception_5b/3x3
I0403 19:28:24.421470 19982 net.cpp:425] inception_5b/output <- inception_5b/5x5
I0403 19:28:24.421486 19982 net.cpp:425] inception_5b/output <- inception_5b/pool_proj
I0403 19:28:24.421504 19982 net.cpp:399] inception_5b/output -> inception_5b/output
I0403 19:28:24.421555 19982 net.cpp:141] Setting up inception_5b/output
I0403 19:28:24.421578 19982 net.cpp:148] Top shape: 24 1024 7 7 (1204224)
I0403 19:28:24.421593 19982 net.cpp:156] Memory required for data: 1345864224
I0403 19:28:24.421607 19982 layer_factory.hpp:77] Creating layer pool5/7x7_s1
I0403 19:28:24.421627 19982 net.cpp:91] Creating Layer pool5/7x7_s1
I0403 19:28:24.421643 19982 net.cpp:425] pool5/7x7_s1 <- inception_5b/output
I0403 19:28:24.421661 19982 net.cpp:399] pool5/7x7_s1 -> pool5/7x7_s1
I0403 19:28:24.421872 19982 net.cpp:141] Setting up pool5/7x7_s1
I0403 19:28:24.421900 19982 net.cpp:148] Top shape: 24 1024 1 1 (24576)
I0403 19:28:24.421916 19982 net.cpp:156] Memory required for data: 1345962528
I0403 19:28:24.421931 19982 layer_factory.hpp:77] Creating layer pool5/drop_7x7_s1
I0403 19:28:24.421952 19982 net.cpp:91] Creating Layer pool5/drop_7x7_s1
I0403 19:28:24.421969 19982 net.cpp:425] pool5/drop_7x7_s1 <- pool5/7x7_s1
I0403 19:28:24.421988 19982 net.cpp:386] pool5/drop_7x7_s1 -> pool5/7x7_s1 (in-place)
I0403 19:28:24.422037 19982 net.cpp:141] Setting up pool5/drop_7x7_s1
I0403 19:28:24.422060 19982 net.cpp:148] Top shape: 24 1024 1 1 (24576)
I0403 19:28:24.422075 19982 net.cpp:156] Memory required for data: 1346060832
I0403 19:28:24.422088 19982 layer_factory.hpp:77] Creating layer loss3/classifier_plantvillage
I0403 19:28:24.422111 19982 net.cpp:91] Creating Layer loss3/classifier_plantvillage
I0403 19:28:24.422127 19982 net.cpp:425] loss3/classifier_plantvillage <- pool5/7x7_s1
I0403 19:28:24.422147 19982 net.cpp:399] loss3/classifier_plantvillage -> loss3/classifier_plantvillage
I0403 19:28:24.422561 19982 net.cpp:141] Setting up loss3/classifier_plantvillage
I0403 19:28:24.422585 19982 net.cpp:148] Top shape: 24 38 (912)
I0403 19:28:24.422600 19982 net.cpp:156] Memory required for data: 1346064480
I0403 19:28:24.422617 19982 layer_factory.hpp:77] Creating layer loss3/classifier_plantvillage_loss3/classifier_plantvillage_0_split
I0403 19:28:24.422636 19982 net.cpp:91] Creating Layer loss3/classifier_plantvillage_loss3/classifier_plantvillage_0_split
I0403 19:28:24.422654 19982 net.cpp:425] loss3/classifier_plantvillage_loss3/classifier_plantvillage_0_split <- loss3/classifier_plantvillage
I0403 19:28:24.422672 19982 net.cpp:399] loss3/classifier_plantvillage_loss3/classifier_plantvillage_0_split -> loss3/classifier_plantvillage_loss3/classifier_plantvillage_0_split_0
I0403 19:28:24.422693 19982 net.cpp:399] loss3/classifier_plantvillage_loss3/classifier_plantvillage_0_split -> loss3/classifier_plantvillage_loss3/classifier_plantvillage_0_split_1
I0403 19:28:24.422711 19982 net.cpp:399] loss3/classifier_plantvillage_loss3/classifier_plantvillage_0_split -> loss3/classifier_plantvillage_loss3/classifier_plantvillage_0_split_2
I0403 19:28:24.422730 19982 net.cpp:399] loss3/classifier_plantvillage_loss3/classifier_plantvillage_0_split -> loss3/classifier_plantvillage_loss3/classifier_plantvillage_0_split_3
I0403 19:28:24.422829 19982 net.cpp:141] Setting up loss3/classifier_plantvillage_loss3/classifier_plantvillage_0_split
I0403 19:28:24.422852 19982 net.cpp:148] Top shape: 24 38 (912)
I0403 19:28:24.422868 19982 net.cpp:148] Top shape: 24 38 (912)
I0403 19:28:24.422883 19982 net.cpp:148] Top shape: 24 38 (912)
I0403 19:28:24.422897 19982 net.cpp:148] Top shape: 24 38 (912)
I0403 19:28:24.422910 19982 net.cpp:156] Memory required for data: 1346079072
I0403 19:28:24.422924 19982 layer_factory.hpp:77] Creating layer loss1/loss
I0403 19:28:24.422948 19982 net.cpp:91] Creating Layer loss1/loss
I0403 19:28:24.422967 19982 net.cpp:425] loss1/loss <- loss1/classifier_plantvillage_loss1/classifier_plantvillage_0_split_0
I0403 19:28:24.422997 19982 net.cpp:425] loss1/loss <- label_data_1_split_0
…
