…
I0403 19:04:34.900028 18638 net.cpp:313] The NetState phase (1) differed from the phase (0) specified by a rule in layer data
I0403 19:04:34.901216 18638 net.cpp:49] Initializing net from parameters: 
state {
  phase: TEST
}
layer {
  name: "data"
  type: "Data"
  top: "data"
  top: "label"
  include {
    phase: TEST
  }
  transform_param {
    mirror: false
    crop_size: 224
    mean_file: "/home/mohanty/data/final_dataset/lmdb/segmented-60-40/mean.binaryproto"
  }
  data_param {
    source: "/home/mohanty/data/final_dataset/lmdb/segmented-60-40/test_db"
    batch_size: 24
    backend: LMDB
  }
}
layer {
  name: "conv1/7x7_s2"
  type: "Convolution"
  bottom: "data"
  top: "conv1/7x7_s2"
  param {
    lr_mult: 1
    decay_mult: 1
  }
  param {
    lr_mult: 2
    decay_mult: 0
  }
  convolution_param {
    num_output: 64
    pad: 3
    kernel_size: 7
    stride: 2
    weight_filler {
      type: "xavier"
      std: 0.1
    }
    bias_filler {
      type: "constant"
      value: 0.2
    }
  }
}
layer {
  name: "conv1/relu_7x7"
  type: "ReLU"
  bottom: "conv1/7x7_s2"
  top: "conv1/7x7_s2"
}
layer {
  name: "pool1/3x3_s2"
  type: "Pooling"
  bottom: "conv1/7x7_s2"
  top: "pool1/3x3_s2"
  pooling_param {
    pool: MAX
    kernel_size: 3
    stride: 2
  }
}
layer {
  name: "pool1/norm1"
  type: "LRN"
  bottom: "pool1/3x3_s2"
  top: "pool1/norm1"
  lrn_param {
    local_size: 5
    alpha: 0.0001
    beta: 0.75
  }
}
layer {
  name: "conv2/3x3_reduce"
  type: "Convolution"
  bottom: "pool1/norm1"
  top: "conv2/3x3_reduce"
  param {
    lr_mult: 1
    decay_mult: 1
  }
  param {
    lr_mult: 2
    decay_mult: 0
  }
  convolution_param {
    num_output: 64
    kernel_size: 1
    weight_filler {
      type: "xavier"
      std: 0.1
    }
    bias_filler {
      type: "constant"
      value: 0.2
    }
  }
}
layer {
  name: "conv2/relu_3x3_reduce"
  type: "ReLU"
  bottom: "conv2/3x3_reduce"
  top: "conv2/3x3_reduce"
}
layer {
  name: "conv2/3x3"
  type: "Convolution"
  bottom: "conv2/3x3_reduce"
  top: "conv2/3x3"
  param {
    lr_mult: 1
    decay_mult: 1
  }
  param {
    lr_mult: 2
    decay_mult: 0
  }
  convolution_param {
    num_output: 192
    pad: 1
    kernel_size: 3
    weight_filler {
      type: "xavier"
      std: 0.03
    }
    bias_filler {
      type: "constant"
      value: 0.2
    }
  }
}
layer {
  name: "conv2/relu_3x3"
  type: "ReLU"
  bottom: "conv2/3x3"
  top: "conv2/3x3"
}
layer {
  name: "conv2/norm2"
  type: "LRN"
  bottom: "conv2/3x3"
  top: "conv2/norm2"
  lrn_param {
    local_size: 5
    alpha: 0.0001
    beta: 0.75
  }
}
layer {
  name: "pool2/3x3_s2"
  type: "Pooling"
  bottom: "conv2/norm2"
  top: "pool2/3x3_s2"
  pooling_param {
    pool: MAX
    kernel_size: 3
    stride: 2
  }
}
layer {
  name: "inception_3a/1x1"
  type: "Convolution"
  bottom: "pool2/3x3_s2"
  top: "inception_3a/1x1"
  param {
    lr_mult: 1
    decay_mult: 1
  }
  param {
    lr_mult: 2
    decay_mult: 0
  }
  convolution_param {
    num_output: 64
    kernel_size: 1
    weight_filler {
      type: "xavier"
      std: 0.03
    }
    bias_filler {
      type: "constant"
      value: 0.2
    }
  }
}
layer {
  name: "inception_3a/relu_1x1"
  type: "ReLU"
  bottom: "inception_3a/1x1"
  top: "inception_3a/1x1"
}
layer {
  name: "inception_3a/3x3_reduce"
  type: "Convolution"
  bottom: "pool2/3x3_s2"
  top: "inception_3a/3x3_reduce"
  param {
    lr_mult: 1
    decay_mult: 1
  }
  param {
    lr_mult: 2
    decay_mult: 0
  }
  convolution_param {
    num_output: 96
    kernel_size: 1
    weight_filler {
      type: "xavier"
      std: 0.09
    }
    bias_filler {
      type: "constant"
      value: 0.2
    }
  }
}
layer {
  name: "inception_3a/relu_3x3_reduce"
  type: "ReLU"
  bottom: "inception_3a/3x3_reduce"
  top: "inception_3a/3x3_reduce"
}
layer {
  name: "inception_3a/3x3"
  type: "Convolution"
  bottom: "inception_3a/3x3_reduce"
  top: "inception_3a/3x3"
  param {
    lr_mult: 1
    decay_mult: 1
  }
  param {
    lr_mult: 2
    decay_mult: 0
  }
  convolution_param {
    num_output: 128
    pad: 1
    kernel_size: 3
    weight_filler {
      type: "xavier"
      std: 0.03
    }
    bias_filler {
      type: "constant"
      value: 0.2
    }
  }
}
layer {
  name: "inception_3a/relu_3x3"
  type: "ReLU"
  bottom: "inception_3a/3x3"
  top: "inception_3a/3x3"
}
layer {
  name: "inception_3a/5x5_reduce"
  type: "Convolution"
  bottom: "pool2/3x3_s2"
  top: "inception_3a/5x5_reduce"
  param {
    lr_mult: 1
    decay_mult: 1
  }
  param {
    lr_mult: 2
    decay_mult: 0
  }
  convolution_param {
    num_output: 16
    kernel_size: 1
    weight_filler {
      type: "xavier"
      std: 0.2
    }
    bias_filler {
      type: "constant"
      value: 0.2
    }
  }
}
layer {
  name: "inception_3a/relu_5x5_reduce"
  type: "ReLU"
  bottom: "inception_3a/5x5_reduce"
  top: "inception_3a/5x5_reduce"
}
layer {
  name: "inception_3a/5x5"
  type: "Convolution"
  bottom: "inception_3a/5x5_reduce"
  top: "inception_3a/5x5"
  param {
    lr_mult: 1
    decay_mult: 1
  }
  param {
    lr_mult: 2
    decay_mult: 0
  }
  convolution_param {
    num_output: 32
    pad: 2
    kernel_size: 5
    weight_filler {
      type: "xavier"
      std: 0.03
    }
    bias_filler {
      type: "constant"
      value: 0.2
    }
  }
}
layer {
  name: "inception_3a/relu_5x5"
  type: "ReLU"
  bottom: "inception_3a/5x5"
  top: "inception_3a/5x5"
}
layer {
  name: "inception_3a/pool"
  type: "Pooling"
  bottom: "pool2/3x3_s2"
  top: "inception_3a/pool"
  pooling_param {
    pool: MAX
    kernel_size: 3
    stride: 1
    pad: 1
  }
}
layer {
  name: "inception_3a/pool_proj"
  type: "Convolution"
  bottom: "inception_3a/pool"
  top: "inception_3a/pool_proj"
  param {
    lr_mult: 1
    decay_mult: 1
  }
  param {
    lr_mult: 2
    decay_mult: 0
  }
  convolution_param {
    num_output: 32
    kernel_size: 1
    weight_filler {
      type: "xavier"
      std: 0.1
    }
    bias_filler {
      type: "constant"
      value: 0.2
    }
  }
}
layer {
  name: "inception_3a/relu_pool_proj"
  type: "ReLU"
  bottom: "inception_3a/pool_proj"
  top: "inception_3a/pool_proj"
}
layer {
  name: "inception_3a/output"
  type: "Concat"
  bottom: "inception_3a/1x1"
  bottom: "inception_3a/3x3"
  bottom: "inception_3a/5x5"
  bottom: "inception_3a/pool_proj"
  top: "inception_3a/output"
}
layer {
  name: "inception_3b/1x1"
  type: "Convolution"
  bottom: "inception_3a/output"
  top: "inception_3b/1x1"
  param {
    lr_mult: 1
    decay_mult: 1
  }
  param {
    lr_mult: 2
    decay_mult: 0
  }
  convolution_param {
    num_output: 128
    kernel_size: 1
    weight_filler {
      type: "xavier"
      std: 0.03
    }
    bias_filler {
      type: "constant"
      value: 0.2
    }
  }
}
layer {
  name: "inception_3b/relu_1x1"
  type: "ReLU"
  bottom: "inception_3b/1x1"
  top: "inception_3b/1x1"
}
layer {
  name: "inception_3b/3x3_reduce"
  type: "Convolution"
  bottom: "inception_3a/output"
  top: "inception_3b/3x3_reduce"
  param {
    lr_mult: 1
    decay_mult: 1
  }
  param {
    lr_mult: 2
    decay_mult: 0
  }
  convolution_param {
    num_output: 128
    kernel_size: 1
    weight_filler {
      type: "xavier"
      std: 0.09
    }
    bias_filler {
      type: "constant"
      value: 0.2
    }
  }
}
layer {
  name: "inception_3b/relu_3x3_reduce"
  type: "ReLU"
  bottom: "inception_3b/3x3_reduce"
  top: "inception_3b/3x3_reduce"
}
layer {
  name: "inception_3b/3x3"
  type: "Convolution"
  bottom: "inception_3b/3x3_reduce"
  top: "inception_3b/3x3"
  param {
    lr_mult: 1
    decay_mult: 1
  }
  param {
    lr_mult: 2
    decay_mult: 0
  }
  convolution_param {
    num_output: 192
    pad: 1
    kernel_size: 3
    weight_filler {
      type: "xavier"
      std: 0.03
    }
    bias_filler {
      type: "constant"
      value: 0.2
    }
  }
}
layer {
  name: "inception_3b/relu_3x3"
  type: "ReLU"
  bottom: "inception_3b/3x3"
  top: "inception_3b/3x3"
}
layer {
  name: "inception_3b/5x5_reduce"
  type: "Convolution"
  bottom: "inception_3a/output"
  top: "inception_3b/5x5_reduce"
  param {
    lr_mult: 1
    decay_mult: 1
  }
  param {
    lr_mult: 2
    decay_mult: 0
  }
  convolution_param {
    num_output: 32
    kernel_size: 1
    weight_filler {
      type: "xavier"
      std: 0.2
    }
    bias_filler {
      type: "constant"
      value: 0.2
    }
  }
}
layer {
  name: "inception_3b/relu_5x5_reduce"
  type: "ReLU"
  bottom: "inception_3b/5x5_reduce"
  top: "inception_3b/5x5_reduce"
}
layer {
  name: "inception_3b/5x5"
  type: "Convolution"
  bottom: "inception_3b/5x5_reduce"
  top: "inception_3b/5x5"
  param {
    lr_mult: 1
    decay_mult: 1
  }
  param {
    lr_mult: 2
    decay_mult: 0
  }
  convolution_param {
    num_output: 96
    pad: 2
    kernel_size: 5
    weight_filler {
      type: "xavier"
      std: 0.03
    }
    bias_filler {
      type: "constant"
      value: 0.2
    }
  }
}
layer {
  name: "inception_3b/relu_5x5"
  type: "ReLU"
  bottom: "inception_3b/5x5"
  top: "inception_3b/5x5"
}
layer {
  name: "inception_3b/pool"
  type: "Pooling"
  bottom: "inception_3a/output"
  top: "inception_3b/pool"
  pooling_param {
    pool: MAX
    kernel_size: 3
    stride: 1
    pad: 1
  }
}
layer {
  name: "inception_3b/pool_proj"
  type: "Convolution"
  bottom: "inception_3b/pool"
  top: "inception_3b/pool_proj"
  param {
    lr_mult: 1
    decay_mult: 1
  }
  param {
    lr_mult: 2
    decay_mult: 0
  }
  convolution_param {
    num_output: 64
    kernel_size: 1
    weight_filler {
      type: "xavier"
      std: 0.1
    }
    bias_filler {
      type: "constant"
      value: 0.2
    }
  }
}
layer {
  name: "inception_3b/relu_pool_proj"
  type: "ReLU"
  bottom: "inception_3b/pool_proj"
  top: "inception_3b/pool_proj"
}
layer {
  name: "inception_3b/output"
  type: "Concat"
  bottom: "inception_3b/1x1"
  bottom: "inception_3b/3x3"
  bottom: "inception_3b/5x5"
  bottom: "inception_3b/pool_proj"
  top: "inception_3b/output"
}
layer {
  name: "pool3/3x3_s2"
  type: "Pooling"
  bottom: "inception_3b/output"
  top: "pool3/3x3_s2"
  pooling_param {
    pool: MAX
    kernel_size: 3
    stride: 2
  }
}
layer {
  name: "inception_4a/1x1"
  type: "Convolution"
  bottom: "pool3/3x3_s2"
  top: "inception_4a/1x1"
  param {
    lr_mult: 1
    decay_mult: 1
  }
  param {
    lr_mult: 2
    decay_mult: 0
  }
  convolution_param {
    num_output: 192
    kernel_size: 1
    weight_filler {
      type: "xavier"
      std: 0.03
    }
    bias_filler {
      type: "constant"
      value: 0.2
    }
  }
}
layer {
  name: "inception_4a/relu_1x1"
  type: "ReLU"
  bottom: "inception_4a/1x1"
  top: "inception_4a/1x1"
}
layer {
  name: "inception_4a/3x3_reduce"
  type: "Convolution"
  bottom: "pool3/3x3_s2"
  top: "inception_4a/3x3_reduce"
  param {
    lr_mult: 1
    decay_mult: 1
  }
  param {
    lr_mult: 2
    decay_mult: 0
  }
  convolution_param {
    num_output: 96
    kernel_size: 1
    weight_filler {
      type: "xavier"
      std: 0.09
    }
    bias_filler {
      type: "constant"
      value: 0.2
    }
  }
}
layer {
  name: "inception_4a/relu_3x3_reduce"
  type: "ReLU"
  bottom: "inception_4a/3x3_reduce"
  top: "inception_4a/3x3_reduce"
}
layer {
  name: "inception_4a/3x3"
  type: "Convolution"
  bottom: "inception_4a/3x3_reduce"
  top: "inception_4a/3x3"
  param {
    lr_mult: 1
    decay_mult: 1
  }
  param {
    lr_mult: 2
    decay_mult: 0
  }
  convolution_param {
    num_output: 208
    pad: 1
    kernel_size: 3
    weight_filler {
      type: "xavier"
      std: 0.03
    }
    bias_filler {
      type: "constant"
      value: 0.2
    }
  }
}
layer {
  name: "inception_4a/relu_3x3"
  type: "ReLU"
  bottom: "inception_4a/3x3"
  top: "inception_4a/3x3"
}
layer {
  name: "inception_4a/5x5_reduce"
  type: "Convolution"
  bottom: "pool3/3x3_s2"
  top: "inception_4a/5x5_reduce"
  param {
    lr_mult: 1
    decay_mult: 1
  }
  param {
    lr_mult: 2
    decay_mult: 0
  }
  convolution_param {
    num_output: 16
    kernel_size: 1
    weight_filler {
      type: "xavier"
      std: 0.2
    }
    bias_filler {
      type: "constant"
      value: 0.2
    }
  }
}
layer {
  name: "inception_4a/relu_5x5_reduce"
  type: "ReLU"
  bottom: "inception_4a/5x5_reduce"
  top: "inception_4a/5x5_reduce"
}
layer {
  name: "inception_4a/5x5"
  type: "Convolution"
  bottom: "inception_4a/5x5_reduce"
  top: "inception_4a/5x5"
  param {
    lr_mult: 1
    decay_mult: 1
  }
  param {
    lr_mult: 2
    decay_mult: 0
  }
  convolution_param {
    num_output: 48
    pad: 2
    kernel_size: 5
    weight_filler {
      type: "xavier"
      std: 0.03
    }
    bias_filler {
      type: "constant"
      value: 0.2
    }
  }
}
layer {
  name: "inception_4a/relu_5x5"
  type: "ReLU"
  bottom: "inception_4a/5x5"
  top: "inception_4a/5x5"
}
layer {
  name: "inception_4a/pool"
  type: "Pooling"
  bottom: "pool3/3x3_s2"
  top: "inception_4a/pool"
  pooling_param {
    pool: MAX
    kernel_size: 3
    stride: 1
    pad: 1
  }
}
layer {
  name: "inception_4a/pool_proj"
  type: "Convolution"
  bottom: "inception_4a/pool"
  top: "inception_4a/pool_proj"
  param {
    lr_mult: 1
    decay_mult: 1
  }
  param {
    lr_mult: 2
    decay_mult: 0
  }
  convolution_param {
    num_output: 64
    kernel_size: 1
    weight_filler {
      type: "xavier"
      std: 0.1
    }
    bias_filler {
      type: "constant"
      value: 0.2
    }
  }
}
layer {
  name: "inception_4a/relu_pool_proj"
  type: "ReLU"
  bottom: "inception_4a/pool_proj"
  top: "inception_4a/pool_proj"
}
layer {
  name: "inception_4a/output"
  type: "Concat"
  bottom: "inception_4a/1x1"
  bottom: "inception_4a/3x3"
  bottom: "inception_4a/5x5"
  bottom: "inception_4a/pool_proj"
  top: "inception_4a/output"
}
layer {
  name: "loss1/ave_pool"
  type: "Pooling"
  bottom: "inception_4a/output"
  top: "loss1/ave_pool"
  pooling_param {
    pool: AVE
    kernel_size: 5
    stride: 3
  }
}
layer {
  name: "loss1/conv"
  type: "Convolution"
  bottom: "loss1/ave_pool"
  top: "loss1/conv"
  param {
    lr_mult: 1
    decay_mult: 1
  }
  param {
    lr_mult: 2
    decay_mult: 0
  }
  convolution_param {
    num_output: 128
    kernel_size: 1
    weight_filler {
      type: "xavier"
      std: 0.08
    }
    bias_filler {
      type: "constant"
      value: 0.2
    }
  }
}
layer {
  name: "loss1/relu_conv"
  type: "ReLU"
  bottom: "loss1/conv"
  top: "loss1/conv"
}
layer {
  name: "loss1/fc"
  type: "InnerProduct"
  bottom: "loss1/conv"
  top: "loss1/fc"
  param {
    lr_mult: 1
    decay_mult: 1
  }
  param {
    lr_mult: 2
    decay_mult: 0
  }
  inner_product_param {
    num_output: 1024
    weight_filler {
      type: "xavier"
      std: 0.02
    }
    bias_filler {
      type: "constant"
      value: 0.2
    }
  }
}
layer {
  name: "loss1/relu_fc"
  type: "ReLU"
  bottom: "loss1/fc"
  top: "loss1/fc"
}
layer {
  name: "loss1/drop_fc"
  type: "Dropout"
  bottom: "loss1/fc"
  top: "loss1/fc"
  dropout_param {
    dropout_ratio: 0.7
  }
}
layer {
  name: "loss1/classifier_plantvillage"
  type: "InnerProduct"
  bottom: "loss1/fc"
  top: "loss1/classifier_plantvillage"
  param {
    lr_mult: 1
    decay_mult: 1
  }
  param {
    lr_mult: 2
    decay_mult: 0
  }
  inner_product_param {
    num_output: 38
    weight_filler {
      type: "xavier"
      std: 0.0009765625
    }
    bias_filler {
      type: "constant"
      value: 0
    }
  }
}
layer {
  name: "inception_4b/1x1"
  type: "Convolution"
  bottom: "inception_4a/output"
  top: "inception_4b/1x1"
  param {
    lr_mult: 1
    decay_mult: 1
  }
  param {
    lr_mult: 2
    decay_mult: 0
  }
  convolution_param {
    num_output: 160
    kernel_size: 1
    weight_filler {
      type: "xavier"
      std: 0.03
    }
    bias_filler {
      type: "constant"
      value: 0.2
    }
  }
}
layer {
  name: "inception_4b/relu_1x1"
  type: "ReLU"
  bottom: "inception_4b/1x1"
  top: "inception_4b/1x1"
}
layer {
  name: "inception_4b/3x3_reduce"
  type: "Convolution"
  bottom: "inception_4a/output"
  top: "inception_4b/3x3_reduce"
  param {
    lr_mult: 1
    decay_mult: 1
  }
  param {
    lr_mult: 2
    decay_mult: 0
  }
  convolution_param {
    num_output: 112
    kernel_size: 1
    weight_filler {
      type: "xavier"
      std: 0.09
    }
    bias_filler {
      type: "constant"
      value: 0.2
    }
  }
}
layer {
  name: "inception_4b/relu_3x3_reduce"
  type: "ReLU"
  bottom: "inception_4b/3x3_reduce"
  top: "inception_4b/3x3_reduce"
}
layer {
  name: "inception_4b/3x3"
  type: "Convolution"
  bottom: "inception_4b/3x3_reduce"
  top: "inception_4b/3x3"
  param {
    lr_mult: 1
    decay_mult: 1
  }
  param {
    lr_mult: 2
    decay_mult: 0
  }
  convolution_param {
    num_output: 224
    pad: 1
    kernel_size: 3
    weight_filler {
      type: "xavier"
      std: 0.03
    }
    bias_filler {
      type: "constant"
      value: 0.2
    }
  }
}
layer {
  name: "inception_4b/relu_3x3"
  type: "ReLU"
  bottom: "inception_4b/3x3"
  top: "inception_4b/3x3"
}
layer {
  name: "inception_4b/5x5_reduce"
  type: "Convolution"
  bottom: "inception_4a/output"
  top: "inception_4b/5x5_reduce"
  param {
    lr_mult: 1
    decay_mult: 1
  }
  param {
    lr_mult: 2
    decay_mult: 0
  }
  convolution_param {
    num_output: 24
    kernel_size: 1
    weight_filler {
      type: "xavier"
      std: 0.2
    }
    bias_filler {
      type: "constant"
      value: 0.2
    }
  }
}
layer {
  name: "inception_4b/relu_5x5_reduce"
  type: "ReLU"
  bottom: "inception_4b/5x5_reduce"
  top: "inception_4b/5x5_reduce"
}
layer {
  name: "inception_4b/5x5"
  type: "Convolution"
  bottom: "inception_4b/5x5_reduce"
  top: "inception_4b/5x5"
  param {
    lr_mult: 1
    decay_mult: 1
  }
  param {
    lr_mult: 2
    decay_mult: 0
  }
  convolution_param {
    num_output: 64
    pad: 2
    kernel_size: 5
    weight_filler {
      type: "xavier"
      std: 0.03
    }
    bias_filler {
      type: "constant"
      value: 0.2
    }
  }
}
layer {
  name: "inception_4b/relu_5x5"
  type: "ReLU"
  bottom: "inception_4b/5x5"
  top: "inception_4b/5x5"
}
layer {
  name: "inception_4b/pool"
  type: "Pooling"
  bottom: "inception_4a/output"
  top: "inception_4b/pool"
  pooling_param {
    pool: MAX
    kernel_size: 3
    stride: 1
    pad: 1
  }
}
layer {
  name: "inception_4b/pool_proj"
  type: "Convolution"
  bottom: "inception_4b/pool"
  top: "inception_4b/pool_proj"
  param {
    lr_mult: 1
    decay_mult: 1
  }
  param {
    lr_mult: 2
    decay_mult: 0
  }
  convolution_param {
    num_output: 64
    kernel_size: 1
    weight_filler {
      type: "xavier"
      std: 0.1
    }
    bias_filler {
      type: "constant"
      value: 0.2
    }
  }
}
layer {
  name: "inception_4b/relu_pool_proj"
  type: "ReLU"
  bottom: "inception_4b/pool_proj"
  top: "inception_4b/pool_proj"
}
layer {
  name: "inception_4b/output"
  type: "Concat"
  bottom: "inception_4b/1x1"
  bottom: "inception_4b/3x3"
  bottom: "inception_4b/5x5"
  bottom: "inception_4b/pool_proj"
  top: "inception_4b/output"
}
layer {
  name: "inception_4c/1x1"
  type: "Convolution"
  bottom: "inception_4b/output"
  top: "inception_4c/1x1"
  param {
    lr_mult: 1
    decay_mult: 1
  }
  param {
    lr_mult: 2
    decay_mult: 0
  }
  convolution_param {
    num_output: 128
    kernel_size: 1
    weight_filler {
      type: "xavier"
      std: 0.03
    }
    bias_filler {
      type: "constant"
      value: 0.2
    }
  }
}
layer {
  name: "inception_4c/relu_1x1"
  type: "ReLU"
  bottom: "inception_4c/1x1"
  top: "inception_4c/1x1"
}
layer {
  name: "inception_4c/3x3_reduce"
  type: "Convolution"
  bottom: "inception_4b/output"
  top: "inception_4c/3x3_reduce"
  param {
    lr_mult: 1
    decay_mult: 1
  }
  param {
    lr_mult: 2
    decay_mult: 0
  }
  convolution_param {
    num_output: 128
    kernel_size: 1
    weight_filler {
      type: "xavier"
      std: 0.09
    }
    bias_filler {
      type: "constant"
      value: 0.2
    }
  }
}
layer {
  name: "inception_4c/relu_3x3_reduce"
  type: "ReLU"
  bottom: "inception_4c/3x3_reduce"
  top: "inception_4c/3x3_reduce"
}
layer {
  name: "inception_4c/3x3"
  type: "Convolution"
  bottom: "inception_4c/3x3_reduce"
  top: "inception_4c/3x3"
  param {
    lr_mult: 1
    decay_mult: 1
  }
  param {
    lr_mult: 2
    decay_mult: 0
  }
  convolution_param {
    num_output: 256
    pad: 1
    kernel_size: 3
    weight_filler {
      type: "xavier"
      std: 0.03
    }
    bias_filler {
      type: "constant"
      value: 0.2
    }
  }
}
layer {
  name: "inception_4c/relu_3x3"
  type: "ReLU"
  bottom: "inception_4c/3x3"
  top: "inception_4c/3x3"
}
layer {
  name: "inception_4c/5x5_reduce"
  type: "Convolution"
  bottom: "inception_4b/output"
  top: "inception_4c/5x5_reduce"
  param {
    lr_mult: 1
    decay_mult: 1
  }
  param {
    lr_mult: 2
    decay_mult: 0
  }
  convolution_param {
    num_output: 24
    kernel_size: 1
    weight_filler {
      type: "xavier"
      std: 0.2
    }
    bias_filler {
      type: "constant"
      value: 0.2
    }
  }
}
layer {
  name: "inception_4c/relu_5x5_reduce"
  type: "ReLU"
  bottom: "inception_4c/5x5_reduce"
  top: "inception_4c/5x5_reduce"
}
layer {
  name: "inception_4c/5x5"
  type: "Convolution"
  bottom: "inception_4c/5x5_reduce"
  top: "inception_4c/5x5"
  param {
    lr_mult: 1
    decay_mult: 1
  }
  param {
    lr_mult: 2
    decay_mult: 0
  }
  convolution_param {
    num_output: 64
    pad: 2
    kernel_size: 5
    weight_filler {
      type: "xavier"
      std: 0.03
    }
    bias_filler {
      type: "constant"
      value: 0.2
    }
  }
}
layer {
  name: "inception_4c/relu_5x5"
  type: "ReLU"
  bottom: "inception_4c/5x5"
  top: "inception_4c/5x5"
}
layer {
  name: "inception_4c/pool"
  type: "Pooling"
  bottom: "inception_4b/output"
  top: "inception_4c/pool"
  pooling_param {
    pool: MAX
    kernel_size: 3
    stride: 1
    pad: 1
  }
}
layer {
  name: "inception_4c/pool_proj"
  type: "Convolution"
  bottom: "inception_4c/pool"
  top: "inception_4c/pool_proj"
  param {
    lr_mult: 1
    decay_mult: 1
  }
  param {
    lr_mult: 2
    decay_mult: 0
  }
  convolution_param {
    num_output: 64
    kernel_size: 1
    weight_filler {
      type: "xavier"
      std: 0.1
    }
    bias_filler {
      type: "constant"
      value: 0.2
    }
  }
}
layer {
  name: "inception_4c/relu_pool_proj"
  type: "ReLU"
  bottom: "inception_4c/pool_proj"
  top: "inception_4c/pool_proj"
}
layer {
  name: "inception_4c/output"
  type: "Concat"
  bottom: "inception_4c/1x1"
  bottom: "inception_4c/3x3"
  bottom: "inception_4c/5x5"
  bottom: "inception_4c/pool_proj"
  top: "inception_4c/output"
}
layer {
  name: "inception_4d/1x1"
  type: "Convolution"
  bottom: "inception_4c/output"
  top: "inception_4d/1x1"
  param {
    lr_mult: 1
    decay_mult: 1
  }
  param {
    lr_mult: 2
    decay_mult: 0
  }
  convolution_param {
    num_output: 112
    kernel_size: 1
    weight_filler {
      type: "xavier"
      std: 0.03
    }
    bias_filler {
      type: "constant"
      value: 0.2
    }
  }
}
layer {
  name: "inception_4d/relu_1x1"
  type: "ReLU"
  bottom: "inception_4d/1x1"
  top: "inception_4d/1x1"
}
layer {
  name: "inception_4d/3x3_reduce"
  type: "Convolution"
  bottom: "inception_4c/output"
  top: "inception_4d/3x3_reduce"
  param {
    lr_mult: 1
    decay_mult: 1
  }
  param {
    lr_mult: 2
    decay_mult: 0
  }
  convolution_param {
    num_output: 144
    kernel_size: 1
    weight_filler {
      type: "xavier"
      std: 0.09
    }
    bias_filler {
      type: "constant"
      value: 0.2
    }
  }
}
layer {
  name: "inception_4d/relu_3x3_reduce"
  type: "ReLU"
  bottom: "inception_4d/3x3_reduce"
  top: "inception_4d/3x3_reduce"
}
layer {
  name: "inception_4d/3x3"
  type: "Convolution"
  bottom: "inception_4d/3x3_reduce"
  top: "inception_4d/3x3"
  param {
    lr_mult: 1
    decay_mult: 1
  }
  param {
    lr_mult: 2
    decay_mult: 0
  }
  convolution_param {
    num_output: 288
    pad: 1
    kernel_size: 3
    weight_filler {
      type: "xavier"
      std: 0.03
    }
    bias_filler {
      type: "constant"
      value: 0.2
    }
  }
}
layer {
  name: "inception_4d/relu_3x3"
  type: "ReLU"
  bottom: "inception_4d/3x3"
  top: "inception_4d/3x3"
}
layer {
  name: "inception_4d/5x5_reduce"
  type: "Convolution"
  bottom: "inception_4c/output"
  top: "inception_4d/5x5_reduce"
  param {
    lr_mult: 1
    decay_mult: 1
  }
  param {
    lr_mult: 2
    decay_mult: 0
  }
  convolution_param {
    num_output: 32
    kernel_size: 1
    weight_filler {
      type: "xavier"
      std: 0.2
    }
    bias_filler {
      type: "constant"
      value: 0.2
    }
  }
}
layer {
  name: "inception_4d/relu_5x5_reduce"
  type: "ReLU"
  bottom: "inception_4d/5x5_reduce"
  top: "inception_4d/5x5_reduce"
}
layer {
  name: "inception_4d/5x5"
  type: "Convolution"
  bottom: "inception_4d/5x5_reduce"
  top: "inception_4d/5x5"
  param {
    lr_mult: 1
    decay_mult: 1
  }
  param {
    lr_mult: 2
    decay_mult: 0
  }
  convolution_param {
    num_output: 64
    pad: 2
    kernel_size: 5
    weight_filler {
      type: "xavier"
      std: 0.03
    }
    bias_filler {
      type: "constant"
      value: 0.2
    }
  }
}
layer {
  name: "inception_4d/relu_5x5"
  type: "ReLU"
  bottom: "inception_4d/5x5"
  top: "inception_4d/5x5"
}
layer {
  name: "inception_4d/pool"
  type: "Pooling"
  bottom: "inception_4c/output"
  top: "inception_4d/pool"
  pooling_param {
    pool: MAX
    kernel_size: 3
    stride: 1
    pad: 1
  }
}
layer {
  name: "inception_4d/pool_proj"
  type: "Convolution"
  bottom: "inception_4d/pool"
  top: "inception_4d/pool_proj"
  param {
    lr_mult: 1
    decay_mult: 1
  }
  param {
    lr_mult: 2
    decay_mult: 0
  }
  convolution_param {
    num_output: 64
    kernel_size: 1
    weight_filler {
      type: "xavier"
      std: 0.1
    }
    bias_filler {
      type: "constant"
      value: 0.2
    }
  }
}
layer {
  name: "inception_4d/relu_pool_proj"
  type: "ReLU"
  bottom: "inception_4d/pool_proj"
  top: "inception_4d/pool_proj"
}
layer {
  name: "inception_4d/output"
  type: "Concat"
  bottom: "inception_4d/1x1"
  bottom: "inception_4d/3x3"
  bottom: "inception_4d/5x5"
  bottom: "inception_4d/pool_proj"
  top: "inception_4d/output"
}
layer {
  name: "loss2/ave_pool"
  type: "Pooling"
  bottom: "inception_4d/output"
  top: "loss2/ave_pool"
  pooling_param {
    pool: AVE
    kernel_size: 5
    stride: 3
  }
}
layer {
  name: "loss2/conv"
  type: "Convolution"
  bottom: "loss2/ave_pool"
  top: "loss2/conv"
  param {
    lr_mult: 1
    decay_mult: 1
  }
  param {
    lr_mult: 2
    decay_mult: 0
  }
  convolution_param {
    num_output: 128
    kernel_size: 1
    weight_filler {
      type: "xavier"
      std: 0.08
    }
    bias_filler {
      type: "constant"
      value: 0.2
    }
  }
}
layer {
  name: "loss2/relu_conv"
  type: "ReLU"
  bottom: "loss2/conv"
  top: "loss2/conv"
}
layer {
  name: "loss2/fc"
  type: "InnerProduct"
  bottom: "loss2/conv"
  top: "loss2/fc"
  param {
    lr_mult: 1
    decay_mult: 1
  }
  param {
    lr_mult: 2
    decay_mult: 0
  }
  inner_product_param {
    num_output: 1024
    weight_filler {
      type: "xavier"
      std: 0.02
    }
    bias_filler {
      type: "constant"
      value: 0.2
    }
  }
}
layer {
  name: "loss2/relu_fc"
  type: "ReLU"
  bottom: "loss2/fc"
  top: "loss2/fc"
}
layer {
  name: "loss2/drop_fc"
  type: "Dropout"
  bottom: "loss2/fc"
  top: "loss2/fc"
  dropout_param {
    dropout_ratio: 0.7
  }
}
layer {
  name: "loss2/classifier_plantvillage"
  type: "InnerProduct"
  bottom: "loss2/fc"
  top: "loss2/classifier_plantvillage"
  param {
    lr_mult: 1
    decay_mult: 1
  }
  param {
    lr_mult: 2
    decay_mult: 0
  }
  inner_product_param {
    num_output: 38
    weight_filler {
      type: "xavier"
      std: 0.0009765625
    }
    bias_filler {
      type: "constant"
      value: 0
    }
  }
}
layer {
  name: "inception_4e/1x1"
  type: "Convolution"
  bottom: "inception_4d/output"
  top: "inception_4e/1x1"
  param {
    lr_mult: 1
    decay_mult: 1
  }
  param {
    lr_mult: 2
    decay_mult: 0
  }
  convolution_param {
    num_output: 256
    kernel_size: 1
    weight_filler {
      type: "xavier"
      std: 0.03
    }
    bias_filler {
      type: "constant"
      value: 0.2
    }
  }
}
layer {
  name: "inception_4e/relu_1x1"
  type: "ReLU"
  bottom: "inception_4e/1x1"
  top: "inception_4e/1x1"
}
layer {
  name: "inception_4e/3x3_reduce"
  type: "Convolution"
  bottom: "inception_4d/output"
  top: "inception_4e/3x3_reduce"
  param {
    lr_mult: 1
    decay_mult: 1
  }
  param {
    lr_mult: 2
    decay_mult: 0
  }
  convolution_param {
    num_output: 160
    kernel_size: 1
    weight_filler {
      type: "xavier"
      std: 0.09
    }
    bias_filler {
      type: "constant"
      value: 0.2
    }
  }
}
layer {
  name: "inception_4e/relu_3x3_reduce"
  type: "ReLU"
  bottom: "inception_4e/3x3_reduce"
  top: "inception_4e/3x3_reduce"
}
layer {
  name: "inception_4e/3x3"
  type: "Convolution"
  bottom: "inception_4e/3x3_reduce"
  top: "inception_4e/3x3"
  param {
    lr_mult: 1
    decay_mult: 1
  }
  param {
    lr_mult: 2
    decay_mult: 0
  }
  convolution_param {
    num_output: 320
    pad: 1
    kernel_size: 3
    weight_filler {
      type: "xavier"
      std: 0.03
    }
    bias_filler {
      type: "constant"
      value: 0.2
    }
  }
}
layer {
  name: "inception_4e/relu_3x3"
  type: "ReLU"
  bottom: "inception_4e/3x3"
  top: "inception_4e/3x3"
}
layer {
  name: "inception_4e/5x5_reduce"
  type: "Convolution"
  bottom: "inception_4d/output"
  top: "inception_4e/5x5_reduce"
  param {
    lr_mult: 1
    decay_mult: 1
  }
  param {
    lr_mult: 2
    decay_mult: 0
  }
  convolution_param {
    num_output: 32
    kernel_size: 1
    weight_filler {
      type: "xavier"
      std: 0.2
    }
    bias_filler {
      type: "constant"
      value: 0.2
    }
  }
}
layer {
  name: "inception_4e/relu_5x5_reduce"
  type: "ReLU"
  bottom: "inception_4e/5x5_reduce"
  top: "inception_4e/5x5_reduce"
}
layer {
  name: "inception_4e/5x5"
  type: "Convolution"
  bottom: "inception_4e/5x5_reduce"
  top: "inception_4e/
I0403 19:04:34.902431 18638 layer_factory.hpp:77] Creating layer data
I0403 19:04:34.903033 18638 net.cpp:91] Creating Layer data
I0403 19:04:34.903064 18638 net.cpp:399] data -> data
I0403 19:04:34.903115 18638 net.cpp:399] data -> label
I0403 19:04:34.903151 18638 data_transformer.cpp:25] Loading mean file from: /home/mohanty/data/final_dataset/lmdb/segmented-60-40/mean.binaryproto
I0403 19:04:34.904261 18640 db_lmdb.cpp:38] Opened lmdb /home/mohanty/data/final_dataset/lmdb/segmented-60-40/test_db
I0403 19:04:34.915972 18638 data_layer.cpp:41] output data size: 24,3,224,224
I0403 19:04:34.942770 18638 net.cpp:141] Setting up data
I0403 19:04:34.942852 18638 net.cpp:148] Top shape: 24 3 224 224 (3612672)
I0403 19:04:34.942874 18638 net.cpp:148] Top shape: 24 (24)
I0403 19:04:34.942889 18638 net.cpp:156] Memory required for data: 14450784
I0403 19:04:34.942916 18638 layer_factory.hpp:77] Creating layer label_data_1_split
I0403 19:04:34.942944 18638 net.cpp:91] Creating Layer label_data_1_split
I0403 19:04:34.942962 18638 net.cpp:425] label_data_1_split <- label
I0403 19:04:34.942998 18638 net.cpp:399] label_data_1_split -> label_data_1_split_0
I0403 19:04:34.943027 18638 net.cpp:399] label_data_1_split -> label_data_1_split_1
I0403 19:04:34.943049 18638 net.cpp:399] label_data_1_split -> label_data_1_split_2
I0403 19:04:34.943070 18638 net.cpp:399] label_data_1_split -> label_data_1_split_3
I0403 19:04:34.943090 18638 net.cpp:399] label_data_1_split -> label_data_1_split_4
I0403 19:04:34.943110 18638 net.cpp:399] label_data_1_split -> label_data_1_split_5
I0403 19:04:34.943130 18638 net.cpp:399] label_data_1_split -> label_data_1_split_6
I0403 19:04:34.943151 18638 net.cpp:399] label_data_1_split -> label_data_1_split_7
I0403 19:04:34.943171 18638 net.cpp:399] label_data_1_split -> label_data_1_split_8
I0403 19:04:34.943192 18638 net.cpp:399] label_data_1_split -> label_data_1_split_9
I0403 19:04:34.943310 18638 net.cpp:141] Setting up label_data_1_split
I0403 19:04:34.943333 18638 net.cpp:148] Top shape: 24 (24)
I0403 19:04:34.943351 18638 net.cpp:148] Top shape: 24 (24)
I0403 19:04:34.943367 18638 net.cpp:148] Top shape: 24 (24)
I0403 19:04:34.943382 18638 net.cpp:148] Top shape: 24 (24)
I0403 19:04:34.943398 18638 net.cpp:148] Top shape: 24 (24)
I0403 19:04:34.943414 18638 net.cpp:148] Top shape: 24 (24)
I0403 19:04:34.943430 18638 net.cpp:148] Top shape: 24 (24)
I0403 19:04:34.943445 18638 net.cpp:148] Top shape: 24 (24)
I0403 19:04:34.943460 18638 net.cpp:148] Top shape: 24 (24)
I0403 19:04:34.943477 18638 net.cpp:148] Top shape: 24 (24)
I0403 19:04:34.943521 18638 net.cpp:156] Memory required for data: 14451744
I0403 19:04:34.943536 18638 layer_factory.hpp:77] Creating layer conv1/7x7_s2
I0403 19:04:34.943569 18638 net.cpp:91] Creating Layer conv1/7x7_s2
I0403 19:04:34.943588 18638 net.cpp:425] conv1/7x7_s2 <- data
I0403 19:04:34.943608 18638 net.cpp:399] conv1/7x7_s2 -> conv1/7x7_s2
I0403 19:04:35.080528 18638 net.cpp:141] Setting up conv1/7x7_s2
I0403 19:04:35.080617 18638 net.cpp:148] Top shape: 24 64 112 112 (19267584)
I0403 19:04:35.080636 18638 net.cpp:156] Memory required for data: 91522080
I0403 19:04:35.080667 18638 layer_factory.hpp:77] Creating layer conv1/relu_7x7
I0403 19:04:35.080694 18638 net.cpp:91] Creating Layer conv1/relu_7x7
I0403 19:04:35.080713 18638 net.cpp:425] conv1/relu_7x7 <- conv1/7x7_s2
I0403 19:04:35.080732 18638 net.cpp:386] conv1/relu_7x7 -> conv1/7x7_s2 (in-place)
I0403 19:04:35.080998 18638 net.cpp:141] Setting up conv1/relu_7x7
I0403 19:04:35.081027 18638 net.cpp:148] Top shape: 24 64 112 112 (19267584)
I0403 19:04:35.081043 18638 net.cpp:156] Memory required for data: 168592416
I0403 19:04:35.081058 18638 layer_factory.hpp:77] Creating layer pool1/3x3_s2
I0403 19:04:35.081084 18638 net.cpp:91] Creating Layer pool1/3x3_s2
I0403 19:04:35.081101 18638 net.cpp:425] pool1/3x3_s2 <- conv1/7x7_s2
I0403 19:04:35.081120 18638 net.cpp:399] pool1/3x3_s2 -> pool1/3x3_s2
I0403 19:04:35.081195 18638 net.cpp:141] Setting up pool1/3x3_s2
I0403 19:04:35.081221 18638 net.cpp:148] Top shape: 24 64 56 56 (4816896)
I0403 19:04:35.081236 18638 net.cpp:156] Memory required for data: 187860000
I0403 19:04:35.081253 18638 layer_factory.hpp:77] Creating layer pool1/norm1
I0403 19:04:35.081276 18638 net.cpp:91] Creating Layer pool1/norm1
I0403 19:04:35.081295 18638 net.cpp:425] pool1/norm1 <- pool1/3x3_s2
I0403 19:04:35.081312 18638 net.cpp:399] pool1/norm1 -> pool1/norm1
I0403 19:04:35.081609 18638 net.cpp:141] Setting up pool1/norm1
I0403 19:04:35.081634 18638 net.cpp:148] Top shape: 24 64 56 56 (4816896)
I0403 19:04:35.081650 18638 net.cpp:156] Memory required for data: 207127584
I0403 19:04:35.081665 18638 layer_factory.hpp:77] Creating layer conv2/3x3_reduce
I0403 19:04:35.081689 18638 net.cpp:91] Creating Layer conv2/3x3_reduce
I0403 19:04:35.081707 18638 net.cpp:425] conv2/3x3_reduce <- pool1/norm1
I0403 19:04:35.081724 18638 net.cpp:399] conv2/3x3_reduce -> conv2/3x3_reduce
I0403 19:04:35.083016 18638 net.cpp:141] Setting up conv2/3x3_reduce
I0403 19:04:35.083045 18638 net.cpp:148] Top shape: 24 64 56 56 (4816896)
I0403 19:04:35.083061 18638 net.cpp:156] Memory required for data: 226395168
I0403 19:04:35.083082 18638 layer_factory.hpp:77] Creating layer conv2/relu_3x3_reduce
I0403 19:04:35.083101 18638 net.cpp:91] Creating Layer conv2/relu_3x3_reduce
I0403 19:04:35.083117 18638 net.cpp:425] conv2/relu_3x3_reduce <- conv2/3x3_reduce
I0403 19:04:35.083135 18638 net.cpp:386] conv2/relu_3x3_reduce -> conv2/3x3_reduce (in-place)
I0403 19:04:35.083382 18638 net.cpp:141] Setting up conv2/relu_3x3_reduce
I0403 19:04:35.083410 18638 net.cpp:148] Top shape: 24 64 56 56 (4816896)
I0403 19:04:35.083425 18638 net.cpp:156] Memory required for data: 245662752
I0403 19:04:35.083439 18638 layer_factory.hpp:77] Creating layer conv2/3x3
I0403 19:04:35.083461 18638 net.cpp:91] Creating Layer conv2/3x3
I0403 19:04:35.083478 18638 net.cpp:425] conv2/3x3 <- conv2/3x3_reduce
I0403 19:04:35.083497 18638 net.cpp:399] conv2/3x3 -> conv2/3x3
I0403 19:04:35.085731 18638 net.cpp:141] Setting up conv2/3x3
I0403 19:04:35.085763 18638 net.cpp:148] Top shape: 24 192 56 56 (14450688)
I0403 19:04:35.085780 18638 net.cpp:156] Memory required for data: 303465504
I0403 19:04:35.085801 18638 layer_factory.hpp:77] Creating layer conv2/relu_3x3
I0403 19:04:35.085820 18638 net.cpp:91] Creating Layer conv2/relu_3x3
I0403 19:04:35.085837 18638 net.cpp:425] conv2/relu_3x3 <- conv2/3x3
I0403 19:04:35.085857 18638 net.cpp:386] conv2/relu_3x3 -> conv2/3x3 (in-place)
I0403 19:04:35.086040 18638 net.cpp:141] Setting up conv2/relu_3x3
I0403 19:04:35.086064 18638 net.cpp:148] Top shape: 24 192 56 56 (14450688)
I0403 19:04:35.086108 18638 net.cpp:156] Memory required for data: 361268256
I0403 19:04:35.086124 18638 layer_factory.hpp:77] Creating layer conv2/norm2
I0403 19:04:35.086145 18638 net.cpp:91] Creating Layer conv2/norm2
I0403 19:04:35.086163 18638 net.cpp:425] conv2/norm2 <- conv2/3x3
I0403 19:04:35.086182 18638 net.cpp:399] conv2/norm2 -> conv2/norm2
I0403 19:04:35.086490 18638 net.cpp:141] Setting up conv2/norm2
I0403 19:04:35.086519 18638 net.cpp:148] Top shape: 24 192 56 56 (14450688)
I0403 19:04:35.086535 18638 net.cpp:156] Memory required for data: 419071008
I0403 19:04:35.086550 18638 layer_factory.hpp:77] Creating layer pool2/3x3_s2
I0403 19:04:35.086567 18638 net.cpp:91] Creating Layer pool2/3x3_s2
I0403 19:04:35.086583 18638 net.cpp:425] pool2/3x3_s2 <- conv2/norm2
I0403 19:04:35.086603 18638 net.cpp:399] pool2/3x3_s2 -> pool2/3x3_s2
I0403 19:04:35.086657 18638 net.cpp:141] Setting up pool2/3x3_s2
I0403 19:04:35.086679 18638 net.cpp:148] Top shape: 24 192 28 28 (3612672)
I0403 19:04:35.086694 18638 net.cpp:156] Memory required for data: 433521696
I0403 19:04:35.086709 18638 layer_factory.hpp:77] Creating layer pool2/3x3_s2_pool2/3x3_s2_0_split
I0403 19:04:35.086729 18638 net.cpp:91] Creating Layer pool2/3x3_s2_pool2/3x3_s2_0_split
I0403 19:04:35.086745 18638 net.cpp:425] pool2/3x3_s2_pool2/3x3_s2_0_split <- pool2/3x3_s2
I0403 19:04:35.086762 18638 net.cpp:399] pool2/3x3_s2_pool2/3x3_s2_0_split -> pool2/3x3_s2_pool2/3x3_s2_0_split_0
I0403 19:04:35.086781 18638 net.cpp:399] pool2/3x3_s2_pool2/3x3_s2_0_split -> pool2/3x3_s2_pool2/3x3_s2_0_split_1
I0403 19:04:35.086802 18638 net.cpp:399] pool2/3x3_s2_pool2/3x3_s2_0_split -> pool2/3x3_s2_pool2/3x3_s2_0_split_2
I0403 19:04:35.086822 18638 net.cpp:399] pool2/3x3_s2_pool2/3x3_s2_0_split -> pool2/3x3_s2_pool2/3x3_s2_0_split_3
I0403 19:04:35.086892 18638 net.cpp:141] Setting up pool2/3x3_s2_pool2/3x3_s2_0_split
I0403 19:04:35.086915 18638 net.cpp:148] Top shape: 24 192 28 28 (3612672)
I0403 19:04:35.086930 18638 net.cpp:148] Top shape: 24 192 28 28 (3612672)
I0403 19:04:35.086946 18638 net.cpp:148] Top shape: 24 192 28 28 (3612672)
I0403 19:04:35.086961 18638 net.cpp:148] Top shape: 24 192 28 28 (3612672)
I0403 19:04:35.086974 18638 net.cpp:156] Memory required for data: 491324448
I0403 19:04:35.086992 18638 layer_factory.hpp:77] Creating layer inception_3a/1x1
I0403 19:04:35.087015 18638 net.cpp:91] Creating Layer inception_3a/1x1
I0403 19:04:35.087033 18638 net.cpp:425] inception_3a/1x1 <- pool2/3x3_s2_pool2/3x3_s2_0_split_0
I0403 19:04:35.087054 18638 net.cpp:399] inception_3a/1x1 -> inception_3a/1x1
I0403 19:04:35.088574 18638 net.cpp:141] Setting up inception_3a/1x1
I0403 19:04:35.088603 18638 net.cpp:148] Top shape: 24 64 28 28 (1204224)
I0403 19:04:35.088619 18638 net.cpp:156] Memory required for data: 496141344
I0403 19:04:35.088637 18638 layer_factory.hpp:77] Creating layer inception_3a/relu_1x1
I0403 19:04:35.088655 18638 net.cpp:91] Creating Layer inception_3a/relu_1x1
I0403 19:04:35.088671 18638 net.cpp:425] inception_3a/relu_1x1 <- inception_3a/1x1
I0403 19:04:35.088690 18638 net.cpp:386] inception_3a/relu_1x1 -> inception_3a/1x1 (in-place)
I0403 19:04:35.088867 18638 net.cpp:141] Setting up inception_3a/relu_1x1
I0403 19:04:35.088892 18638 net.cpp:148] Top shape: 24 64 28 28 (1204224)
I0403 19:04:35.088907 18638 net.cpp:156] Memory required for data: 500958240
I0403 19:04:35.088922 18638 layer_factory.hpp:77] Creating layer inception_3a/3x3_reduce
I0403 19:04:35.088943 18638 net.cpp:91] Creating Layer inception_3a/3x3_reduce
I0403 19:04:35.088961 18638 net.cpp:425] inception_3a/3x3_reduce <- pool2/3x3_s2_pool2/3x3_s2_0_split_1
I0403 19:04:35.088992 18638 net.cpp:399] inception_3a/3x3_reduce -> inception_3a/3x3_reduce
I0403 19:04:35.090701 18638 net.cpp:141] Setting up inception_3a/3x3_reduce
I0403 19:04:35.090733 18638 net.cpp:148] Top shape: 24 96 28 28 (1806336)
I0403 19:04:35.090749 18638 net.cpp:156] Memory required for data: 508183584
I0403 19:04:35.090770 18638 layer_factory.hpp:77] Creating layer inception_3a/relu_3x3_reduce
I0403 19:04:35.090807 18638 net.cpp:91] Creating Layer inception_3a/relu_3x3_reduce
I0403 19:04:35.090826 18638 net.cpp:425] inception_3a/relu_3x3_reduce <- inception_3a/3x3_reduce
I0403 19:04:35.090843 18638 net.cpp:386] inception_3a/relu_3x3_reduce -> inception_3a/3x3_reduce (in-place)
I0403 19:04:35.091029 18638 net.cpp:141] Setting up inception_3a/relu_3x3_reduce
I0403 19:04:35.091056 18638 net.cpp:148] Top shape: 24 96 28 28 (1806336)
I0403 19:04:35.091071 18638 net.cpp:156] Memory required for data: 515408928
I0403 19:04:35.091086 18638 layer_factory.hpp:77] Creating layer inception_3a/3x3
I0403 19:04:35.091109 18638 net.cpp:91] Creating Layer inception_3a/3x3
I0403 19:04:35.091126 18638 net.cpp:425] inception_3a/3x3 <- inception_3a/3x3_reduce
I0403 19:04:35.091145 18638 net.cpp:399] inception_3a/3x3 -> inception_3a/3x3
I0403 19:04:35.092785 18638 net.cpp:141] Setting up inception_3a/3x3
I0403 19:04:35.092813 18638 net.cpp:148] Top shape: 24 128 28 28 (2408448)
I0403 19:04:35.092829 18638 net.cpp:156] Memory required for data: 525042720
I0403 19:04:35.092847 18638 layer_factory.hpp:77] Creating layer inception_3a/relu_3x3
I0403 19:04:35.092866 18638 net.cpp:91] Creating Layer inception_3a/relu_3x3
I0403 19:04:35.092882 18638 net.cpp:425] inception_3a/relu_3x3 <- inception_3a/3x3
I0403 19:04:35.092902 18638 net.cpp:386] inception_3a/relu_3x3 -> inception_3a/3x3 (in-place)
I0403 19:04:35.093179 18638 net.cpp:141] Setting up inception_3a/relu_3x3
I0403 19:04:35.093206 18638 net.cpp:148] Top shape: 24 128 28 28 (2408448)
I0403 19:04:35.093221 18638 net.cpp:156] Memory required for data: 534676512
I0403 19:04:35.093236 18638 layer_factory.hpp:77] Creating layer inception_3a/5x5_reduce
I0403 19:04:35.093260 18638 net.cpp:91] Creating Layer inception_3a/5x5_reduce
I0403 19:04:35.093276 18638 net.cpp:425] inception_3a/5x5_reduce <- pool2/3x3_s2_pool2/3x3_s2_0_split_2
I0403 19:04:35.093297 18638 net.cpp:399] inception_3a/5x5_reduce -> inception_3a/5x5_reduce
I0403 19:04:35.094250 18638 net.cpp:141] Setting up inception_3a/5x5_reduce
I0403 19:04:35.094279 18638 net.cpp:148] Top shape: 24 16 28 28 (301056)
I0403 19:04:35.094295 18638 net.cpp:156] Memory required for data: 535880736
I0403 19:04:35.094312 18638 layer_factory.hpp:77] Creating layer inception_3a/relu_5x5_reduce
I0403 19:04:35.094333 18638 net.cpp:91] Creating Layer inception_3a/relu_5x5_reduce
I0403 19:04:35.094352 18638 net.cpp:425] inception_3a/relu_5x5_reduce <- inception_3a/5x5_reduce
I0403 19:04:35.094368 18638 net.cpp:386] inception_3a/relu_5x5_reduce -> inception_3a/5x5_reduce (in-place)
I0403 19:04:35.094668 18638 net.cpp:141] Setting up inception_3a/relu_5x5_reduce
I0403 19:04:35.094694 18638 net.cpp:148] Top shape: 24 16 28 28 (301056)
I0403 19:04:35.094709 18638 net.cpp:156] Memory required for data: 537084960
I0403 19:04:35.094723 18638 layer_factory.hpp:77] Creating layer inception_3a/5x5
I0403 19:04:35.094746 18638 net.cpp:91] Creating Layer inception_3a/5x5
I0403 19:04:35.094763 18638 net.cpp:425] inception_3a/5x5 <- inception_3a/5x5_reduce
I0403 19:04:35.094784 18638 net.cpp:399] inception_3a/5x5 -> inception_3a/5x5
I0403 19:04:35.095788 18638 net.cpp:141] Setting up inception_3a/5x5
I0403 19:04:35.095815 18638 net.cpp:148] Top shape: 24 32 28 28 (602112)
I0403 19:04:35.095830 18638 net.cpp:156] Memory required for data: 539493408
I0403 19:04:35.095849 18638 layer_factory.hpp:77] Creating layer inception_3a/relu_5x5
I0403 19:04:35.095868 18638 net.cpp:91] Creating Layer inception_3a/relu_5x5
I0403 19:04:35.095883 18638 net.cpp:425] inception_3a/relu_5x5 <- inception_3a/5x5
I0403 19:04:35.095902 18638 net.cpp:386] inception_3a/relu_5x5 -> inception_3a/5x5 (in-place)
I0403 19:04:35.096078 18638 net.cpp:141] Setting up inception_3a/relu_5x5
I0403 19:04:35.096103 18638 net.cpp:148] Top shape: 24 32 28 28 (602112)
I0403 19:04:35.096117 18638 net.cpp:156] Memory required for data: 541901856
I0403 19:04:35.096133 18638 layer_factory.hpp:77] Creating layer inception_3a/pool
I0403 19:04:35.096153 18638 net.cpp:91] Creating Layer inception_3a/pool
I0403 19:04:35.096184 18638 net.cpp:425] inception_3a/pool <- pool2/3x3_s2_pool2/3x3_s2_0_split_3
I0403 19:04:35.096202 18638 net.cpp:399] inception_3a/pool -> inception_3a/pool
I0403 19:04:35.096261 18638 net.cpp:141] Setting up inception_3a/pool
I0403 19:04:35.096284 18638 net.cpp:148] Top shape: 24 192 28 28 (3612672)
I0403 19:04:35.096298 18638 net.cpp:156] Memory required for data: 556352544
I0403 19:04:35.096313 18638 layer_factory.hpp:77] Creating layer inception_3a/pool_proj
I0403 19:04:35.096335 18638 net.cpp:91] Creating Layer inception_3a/pool_proj
I0403 19:04:35.096352 18638 net.cpp:425] inception_3a/pool_proj <- inception_3a/pool
I0403 19:04:35.096374 18638 net.cpp:399] inception_3a/pool_proj -> inception_3a/pool_proj
I0403 19:04:35.097328 18638 net.cpp:141] Setting up inception_3a/pool_proj
I0403 19:04:35.097358 18638 net.cpp:148] Top shape: 24 32 28 28 (602112)
I0403 19:04:35.097375 18638 net.cpp:156] Memory required for data: 558760992
I0403 19:04:35.097398 18638 layer_factory.hpp:77] Creating layer inception_3a/relu_pool_proj
I0403 19:04:35.097419 18638 net.cpp:91] Creating Layer inception_3a/relu_pool_proj
I0403 19:04:35.097434 18638 net.cpp:425] inception_3a/relu_pool_proj <- inception_3a/pool_proj
I0403 19:04:35.097451 18638 net.cpp:386] inception_3a/relu_pool_proj -> inception_3a/pool_proj (in-place)
I0403 19:04:35.097733 18638 net.cpp:141] Setting up inception_3a/relu_pool_proj
I0403 19:04:35.097759 18638 net.cpp:148] Top shape: 24 32 28 28 (602112)
I0403 19:04:35.097774 18638 net.cpp:156] Memory required for data: 561169440
I0403 19:04:35.097789 18638 layer_factory.hpp:77] Creating layer inception_3a/output
I0403 19:04:35.097805 18638 net.cpp:91] Creating Layer inception_3a/output
I0403 19:04:35.097821 18638 net.cpp:425] inception_3a/output <- inception_3a/1x1
I0403 19:04:35.097837 18638 net.cpp:425] inception_3a/output <- inception_3a/3x3
I0403 19:04:35.097853 18638 net.cpp:425] inception_3a/output <- inception_3a/5x5
I0403 19:04:35.097869 18638 net.cpp:425] inception_3a/output <- inception_3a/pool_proj
I0403 19:04:35.097888 18638 net.cpp:399] inception_3a/output -> inception_3a/output
I0403 19:04:35.097934 18638 net.cpp:141] Setting up inception_3a/output
I0403 19:04:35.097959 18638 net.cpp:148] Top shape: 24 256 28 28 (4816896)
I0403 19:04:35.097975 18638 net.cpp:156] Memory required for data: 580437024
I0403 19:04:35.097995 18638 layer_factory.hpp:77] Creating layer inception_3a/output_inception_3a/output_0_split
I0403 19:04:35.098013 18638 net.cpp:91] Creating Layer inception_3a/output_inception_3a/output_0_split
I0403 19:04:35.098028 18638 net.cpp:425] inception_3a/output_inception_3a/output_0_split <- inception_3a/output
I0403 19:04:35.098044 18638 net.cpp:399] inception_3a/output_inception_3a/output_0_split -> inception_3a/output_inception_3a/output_0_split_0
I0403 19:04:35.098067 18638 net.cpp:399] inception_3a/output_inception_3a/output_0_split -> inception_3a/output_inception_3a/output_0_split_1
I0403 19:04:35.098091 18638 net.cpp:399] inception_3a/output_inception_3a/output_0_split -> inception_3a/output_inception_3a/output_0_split_2
I0403 19:04:35.098112 18638 net.cpp:399] inception_3a/output_inception_3a/output_0_split -> inception_3a/output_inception_3a/output_0_split_3
I0403 19:04:35.098189 18638 net.cpp:141] Setting up inception_3a/output_inception_3a/output_0_split
I0403 19:04:35.098215 18638 net.cpp:148] Top shape: 24 256 28 28 (4816896)
I0403 19:04:35.098233 18638 net.cpp:148] Top shape: 24 256 28 28 (4816896)
I0403 19:04:35.098248 18638 net.cpp:148] Top shape: 24 256 28 28 (4816896)
I0403 19:04:35.098263 18638 net.cpp:148] Top shape: 24 256 28 28 (4816896)
I0403 19:04:35.098278 18638 net.cpp:156] Memory required for data: 657507360
I0403 19:04:35.098292 18638 layer_factory.hpp:77] Creating layer inception_3b/1x1
I0403 19:04:35.098315 18638 net.cpp:91] Creating Layer inception_3b/1x1
I0403 19:04:35.098332 18638 net.cpp:425] inception_3b/1x1 <- inception_3a/output_inception_3a/output_0_split_0
I0403 19:04:35.098351 18638 net.cpp:399] inception_3b/1x1 -> inception_3b/1x1
I0403 19:04:35.099475 18638 net.cpp:141] Setting up inception_3b/1x1
I0403 19:04:35.099517 18638 net.cpp:148] Top shape: 24 128 28 28 (2408448)
I0403 19:04:35.099534 18638 net.cpp:156] Memory required for data: 667141152
I0403 19:04:35.099552 18638 layer_factory.hpp:77] Creating layer inception_3b/relu_1x1
I0403 19:04:35.099570 18638 net.cpp:91] Creating Layer inception_3b/relu_1x1
I0403 19:04:35.099586 18638 net.cpp:425] inception_3b/relu_1x1 <- inception_3b/1x1
I0403 19:04:35.099606 18638 net.cpp:386] inception_3b/relu_1x1 -> inception_3b/1x1 (in-place)
I0403 19:04:35.099778 18638 net.cpp:141] Setting up inception_3b/relu_1x1
I0403 19:04:35.099804 18638 net.cpp:148] Top shape: 24 128 28 28 (2408448)
I0403 19:04:35.099818 18638 net.cpp:156] Memory required for data: 676774944
I0403 19:04:35.099833 18638 layer_factory.hpp:77] Creating layer inception_3b/3x3_reduce
I0403 19:04:35.099856 18638 net.cpp:91] Creating Layer inception_3b/3x3_reduce
I0403 19:04:35.099874 18638 net.cpp:425] inception_3b/3x3_reduce <- inception_3a/output_inception_3a/output_0_split_1
I0403 19:04:35.099895 18638 net.cpp:399] inception_3b/3x3_reduce -> inception_3b/3x3_reduce
I0403 19:04:35.101017 18638 net.cpp:141] Setting up inception_3b/3x3_reduce
I0403 19:04:35.101048 18638 net.cpp:148] Top shape: 24 128 28 28 (2408448)
I0403 19:04:35.101065 18638 net.cpp:156] Memory required for data: 686408736
I0403 19:04:35.101083 18638 layer_factory.hpp:77] Creating layer inception_3b/relu_3x3_reduce
I0403 19:04:35.101101 18638 net.cpp:91] Creating Layer inception_3b/relu_3x3_reduce
I0403 19:04:35.101119 18638 net.cpp:425] inception_3b/relu_3x3_reduce <- inception_3b/3x3_reduce
I0403 19:04:35.101135 18638 net.cpp:386] inception_3b/relu_3x3_reduce -> inception_3b/3x3_reduce (in-place)
I0403 19:04:35.101310 18638 net.cpp:141] Setting up inception_3b/relu_3x3_reduce
I0403 19:04:35.101336 18638 net.cpp:148] Top shape: 24 128 28 28 (2408448)
I0403 19:04:35.101351 18638 net.cpp:156] Memory required for data: 696042528
I0403 19:04:35.101364 18638 layer_factory.hpp:77] Creating layer inception_3b/3x3
I0403 19:04:35.101389 18638 net.cpp:91] Creating Layer inception_3b/3x3
I0403 19:04:35.101408 18638 net.cpp:425] inception_3b/3x3 <- inception_3b/3x3_reduce
I0403 19:04:35.101428 18638 net.cpp:399] inception_3b/3x3 -> inception_3b/3x3
I0403 19:04:35.104312 18638 net.cpp:141] Setting up inception_3b/3x3
I0403 19:04:35.104341 18638 net.cpp:148] Top shape: 24 192 28 28 (3612672)
I0403 19:04:35.104357 18638 net.cpp:156] Memory required for data: 710493216
I0403 19:04:35.104375 18638 layer_factory.hpp:77] Creating layer inception_3b/relu_3x3
I0403 19:04:35.104393 18638 net.cpp:91] Creating Layer inception_3b/relu_3x3
I0403 19:04:35.104410 18638 net.cpp:425] inception_3b/relu_3x3 <- inception_3b/3x3
I0403 19:04:35.104430 18638 net.cpp:386] inception_3b/relu_3x3 -> inception_3b/3x3 (in-place)
I0403 19:04:35.104706 18638 net.cpp:141] Setting up inception_3b/relu_3x3
I0403 19:04:35.104732 18638 net.cpp:148] Top shape: 24 192 28 28 (3612672)
I0403 19:04:35.104746 18638 net.cpp:156] Memory required for data: 724943904
I0403 19:04:35.104763 18638 layer_factory.hpp:77] Creating layer inception_3b/5x5_reduce
I0403 19:04:35.104784 18638 net.cpp:91] Creating Layer inception_3b/5x5_reduce
I0403 19:04:35.104802 18638 net.cpp:425] inception_3b/5x5_reduce <- inception_3a/output_inception_3a/output_0_split_2
I0403 19:04:35.104825 18638 net.cpp:399] inception_3b/5x5_reduce -> inception_3b/5x5_reduce
I0403 19:04:35.105814 18638 net.cpp:141] Setting up inception_3b/5x5_reduce
I0403 19:04:35.105842 18638 net.cpp:148] Top shape: 24 32 28 28 (602112)
I0403 19:04:35.105857 18638 net.cpp:156] Memory required for data: 727352352
I0403 19:04:35.105875 18638 layer_factory.hpp:77] Creating layer inception_3b/relu_5x5_reduce
I0403 19:04:35.105893 18638 net.cpp:91] Creating Layer inception_3b/relu_5x5_reduce
I0403 19:04:35.105909 18638 net.cpp:425] inception_3b/relu_5x5_reduce <- inception_3b/5x5_reduce
I0403 19:04:35.105928 18638 net.cpp:386] inception_3b/relu_5x5_reduce -> inception_3b/5x5_reduce (in-place)
I0403 19:04:35.106120 18638 net.cpp:141] Setting up inception_3b/relu_5x5_reduce
I0403 19:04:35.106145 18638 net.cpp:148] Top shape: 24 32 28 28 (602112)
I0403 19:04:35.106159 18638 net.cpp:156] Memory required for data: 729760800
I0403 19:04:35.106184 18638 layer_factory.hpp:77] Creating layer inception_3b/5x5
I0403 19:04:35.106209 18638 net.cpp:91] Creating Layer inception_3b/5x5
I0403 19:04:35.106225 18638 net.cpp:425] inception_3b/5x5 <- inception_3b/5x5_reduce
I0403 19:04:35.106246 18638 net.cpp:399] inception_3b/5x5 -> inception_3b/5x5
I0403 19:04:35.108199 18638 net.cpp:141] Setting up inception_3b/5x5
I0403 19:04:35.108230 18638 net.cpp:148] Top shape: 24 96 28 28 (1806336)
I0403 19:04:35.108247 18638 net.cpp:156] Memory required for data: 736986144
I0403 19:04:35.108265 18638 layer_factory.hpp:77] Creating layer inception_3b/relu_5x5
I0403 19:04:35.108283 18638 net.cpp:91] Creating Layer inception_3b/relu_5x5
I0403 19:04:35.108299 18638 net.cpp:425] inception_3b/relu_5x5 <- inception_3b/5x5
I0403 19:04:35.108316 18638 net.cpp:386] inception_3b/relu_5x5 -> inception_3b/5x5 (in-place)
I0403 19:04:35.108506 18638 net.cpp:141] Setting up inception_3b/relu_5x5
I0403 19:04:35.108531 18638 net.cpp:148] Top shape: 24 96 28 28 (1806336)
I0403 19:04:35.108547 18638 net.cpp:156] Memory required for data: 744211488
I0403 19:04:35.108562 18638 layer_factory.hpp:77] Creating layer inception_3b/pool
I0403 19:04:35.108579 18638 net.cpp:91] Creating Layer inception_3b/pool
I0403 19:04:35.108597 18638 net.cpp:425] inception_3b/pool <- inception_3a/output_inception_3a/output_0_split_3
I0403 19:04:35.108614 18638 net.cpp:399] inception_3b/pool -> inception_3b/pool
I0403 19:04:35.108669 18638 net.cpp:141] Setting up inception_3b/pool
I0403 19:04:35.108695 18638 net.cpp:148] Top shape: 24 256 28 28 (4816896)
I0403 19:04:35.108711 18638 net.cpp:156] Memory required for data: 763479072
I0403 19:04:35.108724 18638 layer_factory.hpp:77] Creating layer inception_3b/pool_proj
I0403 19:04:35.108747 18638 net.cpp:91] Creating Layer inception_3b/pool_proj
I0403 19:04:35.108763 18638 net.cpp:425] inception_3b/pool_proj <- inception_3b/pool
I0403 19:04:35.108782 18638 net.cpp:399] inception_3b/pool_proj -> inception_3b/pool_proj
I0403 19:04:35.109833 18638 net.cpp:141] Setting up inception_3b/pool_proj
I0403 19:04:35.109860 18638 net.cpp:148] Top shape: 24 64 28 28 (1204224)
I0403 19:04:35.109876 18638 net.cpp:156] Memory required for data: 768295968
I0403 19:04:35.109894 18638 layer_factory.hpp:77] Creating layer inception_3b/relu_pool_proj
I0403 19:04:35.109915 18638 net.cpp:91] Creating Layer inception_3b/relu_pool_proj
I0403 19:04:35.109931 18638 net.cpp:425] inception_3b/relu_pool_proj <- inception_3b/pool_proj
I0403 19:04:35.109949 18638 net.cpp:386] inception_3b/relu_pool_proj -> inception_3b/pool_proj (in-place)
I0403 19:04:35.110347 18638 net.cpp:141] Setting up inception_3b/relu_pool_proj
I0403 19:04:35.110374 18638 net.cpp:148] Top shape: 24 64 28 28 (1204224)
I0403 19:04:35.110389 18638 net.cpp:156] Memory required for data: 773112864
I0403 19:04:35.110404 18638 layer_factory.hpp:77] Creating layer inception_3b/output
I0403 19:04:35.110433 18638 net.cpp:91] Creating Layer inception_3b/output
I0403 19:04:35.110448 18638 net.cpp:425] inception_3b/output <- inception_3b/1x1
I0403 19:04:35.110466 18638 net.cpp:425] inception_3b/output <- inception_3b/3x3
I0403 19:04:35.110481 18638 net.cpp:425] inception_3b/output <- inception_3b/5x5
I0403 19:04:35.110505 18638 net.cpp:425] inception_3b/output <- inception_3b/pool_proj
I0403 19:04:35.110523 18638 net.cpp:399] inception_3b/output -> inception_3b/output
I0403 19:04:35.110569 18638 net.cpp:141] Setting up inception_3b/output
I0403 19:04:35.110591 18638 net.cpp:148] Top shape: 24 480 28 28 (9031680)
I0403 19:04:35.110605 18638 net.cpp:156] Memory required for data: 809239584
I0403 19:04:35.110620 18638 layer_factory.hpp:77] Creating layer pool3/3x3_s2
I0403 19:04:35.110637 18638 net.cpp:91] Creating Layer pool3/3x3_s2
I0403 19:04:35.110652 18638 net.cpp:425] pool3/3x3_s2 <- inception_3b/output
I0403 19:04:35.110687 18638 net.cpp:399] pool3/3x3_s2 -> pool3/3x3_s2
I0403 19:04:35.110743 18638 net.cpp:141] Setting up pool3/3x3_s2
I0403 19:04:35.110765 18638 net.cpp:148] Top shape: 24 480 14 14 (2257920)
I0403 19:04:35.110780 18638 net.cpp:156] Memory required for data: 818271264
I0403 19:04:35.110795 18638 layer_factory.hpp:77] Creating layer pool3/3x3_s2_pool3/3x3_s2_0_split
I0403 19:04:35.110815 18638 net.cpp:91] Creating Layer pool3/3x3_s2_pool3/3x3_s2_0_split
I0403 19:04:35.110829 18638 net.cpp:425] pool3/3x3_s2_pool3/3x3_s2_0_split <- pool3/3x3_s2
I0403 19:04:35.110846 18638 net.cpp:399] pool3/3x3_s2_pool3/3x3_s2_0_split -> pool3/3x3_s2_pool3/3x3_s2_0_split_0
I0403 19:04:35.110868 18638 net.cpp:399] pool3/3x3_s2_pool3/3x3_s2_0_split -> pool3/3x3_s2_pool3/3x3_s2_0_split_1
I0403 19:04:35.110888 18638 net.cpp:399] pool3/3x3_s2_pool3/3x3_s2_0_split -> pool3/3x3_s2_pool3/3x3_s2_0_split_2
I0403 19:04:35.110908 18638 net.cpp:399] pool3/3x3_s2_pool3/3x3_s2_0_split -> pool3/3x3_s2_pool3/3x3_s2_0_split_3
I0403 19:04:35.110986 18638 net.cpp:141] Setting up pool3/3x3_s2_pool3/3x3_s2_0_split
I0403 19:04:35.111009 18638 net.cpp:148] Top shape: 24 480 14 14 (2257920)
I0403 19:04:35.111024 18638 net.cpp:148] Top shape: 24 480 14 14 (2257920)
I0403 19:04:35.111039 18638 net.cpp:148] Top shape: 24 480 14 14 (2257920)
I0403 19:04:35.111054 18638 net.cpp:148] Top shape: 24 480 14 14 (2257920)
I0403 19:04:35.111068 18638 net.cpp:156] Memory required for data: 854397984
I0403 19:04:35.111083 18638 layer_factory.hpp:77] Creating layer inception_4a/1x1
I0403 19:04:35.111104 18638 net.cpp:91] Creating Layer inception_4a/1x1
I0403 19:04:35.111121 18638 net.cpp:425] inception_4a/1x1 <- pool3/3x3_s2_pool3/3x3_s2_0_split_0
I0403 19:04:35.111141 18638 net.cpp:399] inception_4a/1x1 -> inception_4a/1x1
I0403 19:04:35.112654 18638 net.cpp:141] Setting up inception_4a/1x1
I0403 19:04:35.112682 18638 net.cpp:148] Top shape: 24 192 14 14 (903168)
I0403 19:04:35.112697 18638 net.cpp:156] Memory required for data: 858010656
I0403 19:04:35.112715 18638 layer_factory.hpp:77] Creating layer inception_4a/relu_1x1
I0403 19:04:35.112736 18638 net.cpp:91] Creating Layer inception_4a/relu_1x1
I0403 19:04:35.112752 18638 net.cpp:425] inception_4a/relu_1x1 <- inception_4a/1x1
I0403 19:04:35.112768 18638 net.cpp:386] inception_4a/relu_1x1 -> inception_4a/1x1 (in-place)
I0403 19:04:35.112938 18638 net.cpp:141] Setting up inception_4a/relu_1x1
I0403 19:04:35.112964 18638 net.cpp:148] Top shape: 24 192 14 14 (903168)
I0403 19:04:35.112983 18638 net.cpp:156] Memory required for data: 861623328
I0403 19:04:35.112999 18638 layer_factory.hpp:77] Creating layer inception_4a/3x3_reduce
I0403 19:04:35.113020 18638 net.cpp:91] Creating Layer inception_4a/3x3_reduce
I0403 19:04:35.113039 18638 net.cpp:425] inception_4a/3x3_reduce <- pool3/3x3_s2_pool3/3x3_s2_0_split_1
I0403 19:04:35.113056 18638 net.cpp:399] inception_4a/3x3_reduce -> inception_4a/3x3_reduce
I0403 19:04:35.114269 18638 net.cpp:141] Setting up inception_4a/3x3_reduce
I0403 19:04:35.114295 18638 net.cpp:148] Top shape: 24 96 14 14 (451584)
I0403 19:04:35.114310 18638 net.cpp:156] Memory required for data: 863429664
I0403 19:04:35.114333 18638 layer_factory.hpp:77] Creating layer inception_4a/relu_3x3_reduce
I0403 19:04:35.114356 18638 net.cpp:91] Creating Layer inception_4a/relu_3x3_reduce
I0403 19:04:35.114372 18638 net.cpp:425] inception_4a/relu_3x3_reduce <- inception_4a/3x3_reduce
I0403 19:04:35.114389 18638 net.cpp:386] inception_4a/relu_3x3_reduce -> inception_4a/3x3_reduce (in-place)
I0403 19:04:35.114555 18638 net.cpp:141] Setting up inception_4a/relu_3x3_reduce
I0403 19:04:35.114581 18638 net.cpp:148] Top shape: 24 96 14 14 (451584)
I0403 19:04:35.114598 18638 net.cpp:156] Memory required for data: 865236000
I0403 19:04:35.114611 18638 layer_factory.hpp:77] Creating layer inception_4a/3x3
I0403 19:04:35.114632 18638 net.cpp:91] Creating Layer inception_4a/3x3
I0403 19:04:35.114650 18638 net.cpp:425] inception_4a/3x3 <- inception_4a/3x3_reduce
I0403 19:04:35.114668 18638 net.cpp:399] inception_4a/3x3 -> inception_4a/3x3
I0403 19:04:35.117245 18638 net.cpp:141] Setting up inception_4a/3x3
I0403 19:04:35.117276 18638 net.cpp:148] Top shape: 24 208 14 14 (978432)
I0403 19:04:35.117292 18638 net.cpp:156] Memory required for data: 869149728
I0403 19:04:35.117311 18638 layer_factory.hpp:77] Creating layer inception_4a/relu_3x3
I0403 19:04:35.117329 18638 net.cpp:91] Creating Layer inception_4a/relu_3x3
I0403 19:04:35.117346 18638 net.cpp:425] inception_4a/relu_3x3 <- inception_4a/3x3
I0403 19:04:35.117364 18638 net.cpp:386] inception_4a/relu_3x3 -> inception_4a/3x3 (in-place)
I0403 19:04:35.117636 18638 net.cpp:141] Setting up inception_4a/relu_3x3
I0403 19:04:35.117663 18638 net.cpp:148] Top shape: 24 208 14 14 (978432)
I0403 19:04:35.117679 18638 net.cpp:156] Memory required for data: 873063456
I0403 19:04:35.117693 18638 layer_factory.hpp:77] Creating layer inception_4a/5x5_reduce
I0403 19:04:35.117717 18638 net.cpp:91] Creating Layer inception_4a/5x5_reduce
I0403 19:04:35.117733 18638 net.cpp:425] inception_4a/5x5_reduce <- pool3/3x3_s2_pool3/3x3_s2_0_split_2
I0403 19:04:35.117753 18638 net.cpp:399] inception_4a/5x5_reduce -> inception_4a/5x5_reduce
I0403 19:04:35.118746 18638 net.cpp:141] Setting up inception_4a/5x5_reduce
I0403 19:04:35.118773 18638 net.cpp:148] Top shape: 24 16 14 14 (75264)
I0403 19:04:35.118788 18638 net.cpp:156] Memory required for data: 873364512
I0403 19:04:35.118806 18638 layer_factory.hpp:77] Creating layer inception_4a/relu_5x5_reduce
I0403 19:04:35.118824 18638 net.cpp:91] Creating Layer inception_4a/relu_5x5_reduce
I0403 19:04:35.118839 18638 net.cpp:425] inception_4a/relu_5x5_reduce <- inception_4a/5x5_reduce
I0403 19:04:35.118859 18638 net.cpp:386] inception_4a/relu_5x5_reduce -> inception_4a/5x5_reduce (in-place)
I0403 19:04:35.119040 18638 net.cpp:141] Setting up inception_4a/relu_5x5_reduce
I0403 19:04:35.119065 18638 net.cpp:148] Top shape: 24 16 14 14 (75264)
I0403 19:04:35.119081 18638 net.cpp:156] Memory required for data: 873665568
I0403 19:04:35.119094 18638 layer_factory.hpp:77] Creating layer inception_4a/5x5
I0403 19:04:35.119117 18638 net.cpp:91] Creating Layer inception_4a/5x5
I0403 19:04:35.119133 18638 net.cpp:425] inception_4a/5x5 <- inception_4a/5x5_reduce
I0403 19:04:35.119153 18638 net.cpp:399] inception_4a/5x5 -> inception_4a/5x5
I0403 19:04:35.120211 18638 net.cpp:141] Setting up inception_4a/5x5
I0403 19:04:35.120239 18638 net.cpp:148] Top shape: 24 48 14 14 (225792)
I0403 19:04:35.120254 18638 net.cpp:156] Memory required for data: 874568736
I0403 19:04:35.120271 18638 layer_factory.hpp:77] Creating layer inception_4a/relu_5x5
I0403 19:04:35.120291 18638 net.cpp:91] Creating Layer inception_4a/relu_5x5
I0403 19:04:35.120307 18638 net.cpp:425] inception_4a/relu_5x5 <- inception_4a/5x5
I0403 19:04:35.120324 18638 net.cpp:386] inception_4a/relu_5x5 -> inception_4a/5x5 (in-place)
I0403 19:04:35.120504 18638 net.cpp:141] Setting up inception_4a/relu_5x5
I0403 19:04:35.120530 18638 net.cpp:148] Top shape: 24 48 14 14 (225792)
I0403 19:04:35.120546 18638 net.cpp:156] Memory required for data: 875471904
I0403 19:04:35.120560 18638 layer_factory.hpp:77] Creating layer inception_4a/pool
I0403 19:04:35.120578 18638 net.cpp:91] Creating Layer inception_4a/pool
I0403 19:04:35.120594 18638 net.cpp:425] inception_4a/pool <- pool3/3x3_s2_pool3/3x3_s2_0_split_3
I0403 19:04:35.120611 18638 net.cpp:399] inception_4a/pool -> inception_4a/pool
I0403 19:04:35.120671 18638 net.cpp:141] Setting up inception_4a/pool
I0403 19:04:35.120693 18638 net.cpp:148] Top shape: 24 480 14 14 (2257920)
I0403 19:04:35.120707 18638 net.cpp:156] Memory required for data: 884503584
I0403 19:04:35.120721 18638 layer_factory.hpp:77] Creating layer inception_4a/pool_proj
I0403 19:04:35.120743 18638 net.cpp:91] Creating Layer inception_4a/pool_proj
I0403 19:04:35.120759 18638 net.cpp:425] inception_4a/pool_proj <- inception_4a/pool
I0403 19:04:35.120780 18638 net.cpp:399] inception_4a/pool_proj -> inception_4a/pool_proj
I0403 19:04:35.121901 18638 net.cpp:141] Setting up inception_4a/pool_proj
I0403 19:04:35.121928 18638 net.cpp:148] Top shape: 24 64 14 14 (301056)
I0403 19:04:35.121958 18638 net.cpp:156] Memory required for data: 885707808
I0403 19:04:35.121976 18638 layer_factory.hpp:77] Creating layer inception_4a/relu_pool_proj
I0403 19:04:35.122002 18638 net.cpp:91] Creating Layer inception_4a/relu_pool_proj
I0403 19:04:35.122020 18638 net.cpp:425] inception_4a/relu_pool_proj <- inception_4a/pool_proj
I0403 19:04:35.122037 18638 net.cpp:386] inception_4a/relu_pool_proj -> inception_4a/pool_proj (in-place)
I0403 19:04:35.122313 18638 net.cpp:141] Setting up inception_4a/relu_pool_proj
I0403 19:04:35.122337 18638 net.cpp:148] Top shape: 24 64 14 14 (301056)
I0403 19:04:35.122352 18638 net.cpp:156] Memory required for data: 886912032
I0403 19:04:35.122367 18638 layer_factory.hpp:77] Creating layer inception_4a/output
I0403 19:04:35.122386 18638 net.cpp:91] Creating Layer inception_4a/output
I0403 19:04:35.122403 18638 net.cpp:425] inception_4a/output <- inception_4a/1x1
I0403 19:04:35.122421 18638 net.cpp:425] inception_4a/output <- inception_4a/3x3
I0403 19:04:35.122437 18638 net.cpp:425] inception_4a/output <- inception_4a/5x5
I0403 19:04:35.122452 18638 net.cpp:425] inception_4a/output <- inception_4a/pool_proj
I0403 19:04:35.122468 18638 net.cpp:399] inception_4a/output -> inception_4a/output
I0403 19:04:35.122512 18638 net.cpp:141] Setting up inception_4a/output
I0403 19:04:35.122534 18638 net.cpp:148] Top shape: 24 512 14 14 (2408448)
I0403 19:04:35.122550 18638 net.cpp:156] Memory required for data: 896545824
I0403 19:04:35.122565 18638 layer_factory.hpp:77] Creating layer inception_4a/output_inception_4a/output_0_split
I0403 19:04:35.122582 18638 net.cpp:91] Creating Layer inception_4a/output_inception_4a/output_0_split
I0403 19:04:35.122597 18638 net.cpp:425] inception_4a/output_inception_4a/output_0_split <- inception_4a/output
I0403 19:04:35.122617 18638 net.cpp:399] inception_4a/output_inception_4a/output_0_split -> inception_4a/output_inception_4a/output_0_split_0
I0403 19:04:35.122638 18638 net.cpp:399] inception_4a/output_inception_4a/output_0_split -> inception_4a/output_inception_4a/output_0_split_1
I0403 19:04:35.122658 18638 net.cpp:399] inception_4a/output_inception_4a/output_0_split -> inception_4a/output_inception_4a/output_0_split_2
I0403 19:04:35.122679 18638 net.cpp:399] inception_4a/output_inception_4a/output_0_split -> inception_4a/output_inception_4a/output_0_split_3
I0403 19:04:35.122701 18638 net.cpp:399] inception_4a/output_inception_4a/output_0_split -> inception_4a/output_inception_4a/output_0_split_4
I0403 19:04:35.122791 18638 net.cpp:141] Setting up inception_4a/output_inception_4a/output_0_split
I0403 19:04:35.122812 18638 net.cpp:148] Top shape: 24 512 14 14 (2408448)
I0403 19:04:35.122828 18638 net.cpp:148] Top shape: 24 512 14 14 (2408448)
I0403 19:04:35.122843 18638 net.cpp:148] Top shape: 24 512 14 14 (2408448)
I0403 19:04:35.122859 18638 net.cpp:148] Top shape: 24 512 14 14 (2408448)
I0403 19:04:35.122874 18638 net.cpp:148] Top shape: 24 512 14 14 (2408448)
I0403 19:04:35.122886 18638 net.cpp:156] Memory required for data: 944714784
I0403 19:04:35.122900 18638 layer_factory.hpp:77] Creating layer loss1/ave_pool
I0403 19:04:35.122917 18638 net.cpp:91] Creating Layer loss1/ave_pool
I0403 19:04:35.122933 18638 net.cpp:425] loss1/ave_pool <- inception_4a/output_inception_4a/output_0_split_0
I0403 19:04:35.122953 18638 net.cpp:399] loss1/ave_pool -> loss1/ave_pool
I0403 19:04:35.123150 18638 net.cpp:141] Setting up loss1/ave_pool
I0403 19:04:35.123177 18638 net.cpp:148] Top shape: 24 512 4 4 (196608)
I0403 19:04:35.123190 18638 net.cpp:156] Memory required for data: 945501216
I0403 19:04:35.123206 18638 layer_factory.hpp:77] Creating layer loss1/conv
I0403 19:04:35.123227 18638 net.cpp:91] Creating Layer loss1/conv
I0403 19:04:35.123246 18638 net.cpp:425] loss1/conv <- loss1/ave_pool
I0403 19:04:35.123265 18638 net.cpp:399] loss1/conv -> loss1/conv
I0403 19:04:35.124644 18638 net.cpp:141] Setting up loss1/conv
I0403 19:04:35.124675 18638 net.cpp:148] Top shape: 24 128 4 4 (49152)
I0403 19:04:35.124703 18638 net.cpp:156] Memory required for data: 945697824
I0403 19:04:35.124722 18638 layer_factory.hpp:77] Creating layer loss1/relu_conv
I0403 19:04:35.124742 18638 net.cpp:91] Creating Layer loss1/relu_conv
I0403 19:04:35.124758 18638 net.cpp:425] loss1/relu_conv <- loss1/conv
I0403 19:04:35.124778 18638 net.cpp:386] loss1/relu_conv -> loss1/conv (in-place)
I0403 19:04:35.125059 18638 net.cpp:141] Setting up loss1/relu_conv
I0403 19:04:35.125087 18638 net.cpp:148] Top shape: 24 128 4 4 (49152)
I0403 19:04:35.125102 18638 net.cpp:156] Memory required for data: 945894432
I0403 19:04:35.125118 18638 layer_factory.hpp:77] Creating layer loss1/fc
I0403 19:04:35.125141 18638 net.cpp:91] Creating Layer loss1/fc
I0403 19:04:35.125159 18638 net.cpp:425] loss1/fc <- loss1/conv
I0403 19:04:35.125182 18638 net.cpp:399] loss1/fc -> loss1/fc
I0403 19:04:35.142865 18638 net.cpp:141] Setting up loss1/fc
I0403 19:04:35.142900 18638 net.cpp:148] Top shape: 24 1024 (24576)
I0403 19:04:35.142916 18638 net.cpp:156] Memory required for data: 945992736
I0403 19:04:35.142935 18638 layer_factory.hpp:77] Creating layer loss1/relu_fc
I0403 19:04:35.142953 18638 net.cpp:91] Creating Layer loss1/relu_fc
I0403 19:04:35.142971 18638 net.cpp:425] loss1/relu_fc <- loss1/fc
I0403 19:04:35.142992 18638 net.cpp:386] loss1/relu_fc -> loss1/fc (in-place)
I0403 19:04:35.143173 18638 net.cpp:141] Setting up loss1/relu_fc
I0403 19:04:35.143200 18638 net.cpp:148] Top shape: 24 1024 (24576)
I0403 19:04:35.143216 18638 net.cpp:156] Memory required for data: 946091040
I0403 19:04:35.143231 18638 layer_factory.hpp:77] Creating layer loss1/drop_fc
I0403 19:04:35.143257 18638 net.cpp:91] Creating Layer loss1/drop_fc
I0403 19:04:35.143275 18638 net.cpp:425] loss1/drop_fc <- loss1/fc
I0403 19:04:35.143291 18638 net.cpp:386] loss1/drop_fc -> loss1/fc (in-place)
I0403 19:04:35.143343 18638 net.cpp:141] Setting up loss1/drop_fc
I0403 19:04:35.143365 18638 net.cpp:148] Top shape: 24 1024 (24576)
I0403 19:04:35.143379 18638 net.cpp:156] Memory required for data: 946189344
I0403 19:04:35.143394 18638 layer_factory.hpp:77] Creating layer loss1/classifier_plantvillage
I0403 19:04:35.143415 18638 net.cpp:91] Creating Layer loss1/classifier_plantvillage
I0403 19:04:35.143432 18638 net.cpp:425] loss1/classifier_plantvillage <- loss1/fc
I0403 19:04:35.143450 18638 net.cpp:399] loss1/classifier_plantvillage -> loss1/classifier_plantvillage
I0403 19:04:35.144322 18638 net.cpp:141] Setting up loss1/classifier_plantvillage
I0403 19:04:35.144351 18638 net.cpp:148] Top shape: 24 38 (912)
I0403 19:04:35.144367 18638 net.cpp:156] Memory required for data: 946192992
I0403 19:04:35.144386 18638 layer_factory.hpp:77] Creating layer loss1/classifier_plantvillage_loss1/classifier_plantvillage_0_split
I0403 19:04:35.144404 18638 net.cpp:91] Creating Layer loss1/classifier_plantvillage_loss1/classifier_plantvillage_0_split
I0403 19:04:35.144420 18638 net.cpp:425] loss1/classifier_plantvillage_loss1/classifier_plantvillage_0_split <- loss1/classifier_plantvillage
I0403 19:04:35.144438 18638 net.cpp:399] loss1/classifier_plantvillage_loss1/classifier_plantvillage_0_split -> loss1/classifier_plantvillage_loss1/classifier_plantvillage_0_split_0
I0403 19:04:35.144457 18638 net.cpp:399] loss1/classifier_plantvillage_loss1/classifier_plantvillage_0_split -> loss1/classifier_plantvillage_loss1/classifier_plantvillage_0_split_1
I0403 19:04:35.144484 18638 net.cpp:399] loss1/classifier_plantvillage_loss1/classifier_plantvillage_0_split -> loss1/classifier_plantvillage_loss1/classifier_plantvillage_0_split_2
I0403 19:04:35.144548 18638 net.cpp:141] Setting up loss1/classifier_plantvillage_loss1/classifier_plantvillage_0_split
I0403 19:04:35.144570 18638 net.cpp:148] Top shape: 24 38 (912)
I0403 19:04:35.144587 18638 net.cpp:148] Top shape: 24 38 (912)
I0403 19:04:35.144601 18638 net.cpp:148] Top shape: 24 38 (912)
I0403 19:04:35.144614 18638 net.cpp:156] Memory required for data: 946203936
I0403 19:04:35.144629 18638 layer_factory.hpp:77] Creating layer inception_4b/1x1
I0403 19:04:35.144649 18638 net.cpp:91] Creating Layer inception_4b/1x1
I0403 19:04:35.144682 18638 net.cpp:425] inception_4b/1x1 <- inception_4a/output_inception_4a/output_0_split_1
I0403 19:04:35.144706 18638 net.cpp:399] inception_4b/1x1 -> inception_4b/1x1
I0403 19:04:35.146299 18638 net.cpp:141] Setting up inception_4b/1x1
I0403 19:04:35.146327 18638 net.cpp:148] Top shape: 24 160 14 14 (752640)
I0403 19:04:35.146342 18638 net.cpp:156] Memory required for data: 949214496
I0403 19:04:35.146360 18638 layer_factory.hpp:77] Creating layer inception_4b/relu_1x1
I0403 19:04:35.146378 18638 net.cpp:91] Creating Layer inception_4b/relu_1x1
I0403 19:04:35.146394 18638 net.cpp:425] inception_4b/relu_1x1 <- inception_4b/1x1
I0403 19:04:35.146412 18638 net.cpp:386] inception_4b/relu_1x1 -> inception_4b/1x1 (in-place)
I0403 19:04:35.146584 18638 net.cpp:141] Setting up inception_4b/relu_1x1
I0403 19:04:35.146608 18638 net.cpp:148] Top shape: 24 160 14 14 (752640)
I0403 19:04:35.146623 18638 net.cpp:156] Memory required for data: 952225056
I0403 19:04:35.146637 18638 layer_factory.hpp:77] Creating layer inception_4b/3x3_reduce
I0403 19:04:35.146658 18638 net.cpp:91] Creating Layer inception_4b/3x3_reduce
I0403 19:04:35.146677 18638 net.cpp:425] inception_4b/3x3_reduce <- inception_4a/output_inception_4a/output_0_split_2
I0403 19:04:35.146697 18638 net.cpp:399] inception_4b/3x3_reduce -> inception_4b/3x3_reduce
I0403 19:04:35.148020 18638 net.cpp:141] Setting up inception_4b/3x3_reduce
I0403 19:04:35.148047 18638 net.cpp:148] Top shape: 24 112 14 14 (526848)
I0403 19:04:35.148062 18638 net.cpp:156] Memory required for data: 954332448
I0403 19:04:35.148080 18638 layer_factory.hpp:77] Creating layer inception_4b/relu_3x3_reduce
I0403 19:04:35.148099 18638 net.cpp:91] Creating Layer inception_4b/relu_3x3_reduce
I0403 19:04:35.148116 18638 net.cpp:425] inception_4b/relu_3x3_reduce <- inception_4b/3x3_reduce
I0403 19:04:35.148133 18638 net.cpp:386] inception_4b/relu_3x3_reduce -> inception_4b/3x3_reduce (in-place)
I0403 19:04:35.148412 18638 net.cpp:141] Setting up inception_4b/relu_3x3_reduce
I0403 19:04:35.148438 18638 net.cpp:148] Top shape: 24 112 14 14 (526848)
I0403 19:04:35.148453 18638 net.cpp:156] Memory required for data: 956439840
I0403 19:04:35.148468 18638 layer_factory.hpp:77] Creating layer inception_4b/3x3
I0403 19:04:35.148489 18638 net.cpp:91] Creating Layer inception_4b/3x3
I0403 19:04:35.148506 18638 net.cpp:425] inception_4b/3x3 <- inception_4b/3x3_reduce
I0403 19:04:35.148530 18638 net.cpp:399] inception_4b/3x3 -> inception_4b/3x3
I0403 19:04:35.151419 18638 net.cpp:141] Setting up inception_4b/3x3
I0403 19:04:35.151449 18638 net.cpp:148] Top shape: 24 224 14 14 (1053696)
I0403 19:04:35.151465 18638 net.cpp:156] Memory required for data: 960654624
I0403 19:04:35.151484 18638 layer_factory.hpp:77] Creating layer inception_4b/relu_3x3
I0403 19:04:35.151501 18638 net.cpp:91] Creating Layer inception_4b/relu_3x3
I0403 19:04:35.151518 18638 net.cpp:425] inception_4b/relu_3x3 <- inception_4b/3x3
I0403 19:04:35.151535 18638 net.cpp:386] inception_4b/relu_3x3 -> inception_4b/3x3 (in-place)
I0403 19:04:35.151713 18638 net.cpp:141] Setting up inception_4b/relu_3x3
I0403 19:04:35.151739 18638 net.cpp:148] Top shape: 24 224 14 14 (1053696)
I0403 19:04:35.151754 18638 net.cpp:156] Memory required for data: 964869408
I0403 19:04:35.151769 18638 layer_factory.hpp:77] Creating layer inception_4b/5x5_reduce
I0403 19:04:35.151790 18638 net.cpp:91] Creating Layer inception_4b/5x5_reduce
I0403 19:04:35.151808 18638 net.cpp:425] inception_4b/5x5_reduce <- inception_4a/output_inception_4a/output_0_split_3
I0403 19:04:35.151826 18638 net.cpp:399] inception_4b/5x5_reduce -> inception_4b/5x5_reduce
I0403 19:04:35.152884 18638 net.cpp:141] Setting up inception_4b/5x5_reduce
I0403 19:04:35.152911 18638 net.cpp:148] Top shape: 24 24 14 14 (112896)
I0403 19:04:35.152926 18638 net.cpp:156] Memory required for data: 965320992
I0403 19:04:35.152943 18638 layer_factory.hpp:77] Creating layer inception_4b/relu_5x5_reduce
I0403 19:04:35.152961 18638 net.cpp:91] Creating Layer inception_4b/relu_5x5_reduce
I0403 19:04:35.152997 18638 net.cpp:425] inception_4b/relu_5x5_reduce <- inception_4b/5x5_reduce
I0403 19:04:35.153017 18638 net.cpp:386] inception_4b/relu_5x5_reduce -> inception_4b/5x5_reduce (in-place)
I0403 19:04:35.153192 18638 net.cpp:141] Setting up inception_4b/relu_5x5_reduce
I0403 19:04:35.153215 18638 net.cpp:148] Top shape: 24 24 14 14 (112896)
I0403 19:04:35.153230 18638 net.cpp:156] Memory required for data: 965772576
I0403 19:04:35.153244 18638 layer_factory.hpp:77] Creating layer inception_4b/5x5
I0403 19:04:35.153265 18638 net.cpp:91] Creating Layer inception_4b/5x5
I0403 19:04:35.153283 18638 net.cpp:425] inception_4b/5x5 <- inception_4b/5x5_reduce
I0403 19:04:35.153303 18638 net.cpp:399] inception_4b/5x5 -> inception_4b/5x5
I0403 19:04:35.154484 18638 net.cpp:141] Setting up inception_4b/5x5
I0403 19:04:35.154511 18638 net.cpp:148] Top shape: 24 64 14 14 (301056)
I0403 19:04:35.154526 18638 net.cpp:156] Memory required for data: 966976800
I0403 19:04:35.154546 18638 layer_factory.hpp:77] Creating layer inception_4b/relu_5x5
I0403 19:04:35.154562 18638 net.cpp:91] Creating Layer inception_4b/relu_5x5
I0403 19:04:35.154578 18638 net.cpp:425] inception_4b/relu_5x5 <- inception_4b/5x5
I0403 19:04:35.154597 18638 net.cpp:386] inception_4b/relu_5x5 -> inception_4b/5x5 (in-place)
I0403 19:04:35.154873 18638 net.cpp:141] Setting up inception_4b/relu_5x5
I0403 19:04:35.154898 18638 net.cpp:148] Top shape: 24 64 14 14 (301056)
I0403 19:04:35.154913 18638 net.cpp:156] Memory required for data: 968181024
I0403 19:04:35.154927 18638 layer_factory.hpp:77] Creating layer inception_4b/pool
I0403 19:04:35.154945 18638 net.cpp:91] Creating Layer inception_4b/pool
I0403 19:04:35.154963 18638 net.cpp:425] inception_4b/pool <- inception_4a/output_inception_4a/output_0_split_4
I0403 19:04:35.154986 18638 net.cpp:399] inception_4b/pool -> inception_4b/pool
I0403 19:04:35.155050 18638 net.cpp:141] Setting up inception_4b/pool
I0403 19:04:35.155072 18638 net.cpp:148] Top shape: 24 512 14 14 (2408448)
I0403 19:04:35.155087 18638 net.cpp:156] Memory required for data: 977814816
I0403 19:04:35.155102 18638 layer_factory.hpp:77] Creating layer inception_4b/pool_proj
I0403 19:04:35.155124 18638 net.cpp:91] Creating Layer inception_4b/pool_proj
I0403 19:04:35.155141 18638 net.cpp:425] inception_4b/pool_proj <- inception_4b/pool
I0403 19:04:35.155159 18638 net.cpp:399] inception_4b/pool_proj -> inception_4b/pool_proj
I0403 19:04:35.156318 18638 net.cpp:141] Setting up inception_4b/pool_proj
I0403 19:04:35.156345 18638 net.cpp:148] Top shape: 24 64 14 14 (301056)
I0403 19:04:35.156360 18638 net.cpp:156] Memory required for data: 979019040
I0403 19:04:35.156378 18638 layer_factory.hpp:77] Creating layer inception_4b/relu_pool_proj
I0403 19:04:35.156395 18638 net.cpp:91] Creating Layer inception_4b/relu_pool_proj
I0403 19:04:35.156411 18638 net.cpp:425] inception_4b/relu_pool_proj <- inception_4b/pool_proj
I0403 19:04:35.156431 18638 net.cpp:386] inception_4b/relu_pool_proj -> inception_4b/pool_proj (in-place)
I0403 19:04:35.156607 18638 net.cpp:141] Setting up inception_4b/relu_pool_proj
I0403 19:04:35.156631 18638 net.cpp:148] Top shape: 24 64 14 14 (301056)
I0403 19:04:35.156646 18638 net.cpp:156] Memory required for data: 980223264
I0403 19:04:35.156659 18638 layer_factory.hpp:77] Creating layer inception_4b/output
I0403 19:04:35.156678 18638 net.cpp:91] Creating Layer inception_4b/output
I0403 19:04:35.156694 18638 net.cpp:425] inception_4b/output <- inception_4b/1x1
I0403 19:04:35.156710 18638 net.cpp:425] inception_4b/output <- inception_4b/3x3
I0403 19:04:35.156726 18638 net.cpp:425] inception_4b/output <- inception_4b/5x5
I0403 19:04:35.156741 18638 net.cpp:425] inception_4b/output <- inception_4b/pool_proj
I0403 19:04:35.156757 18638 net.cpp:399] inception_4b/output -> inception_4b/output
I0403 19:04:35.156802 18638 net.cpp:141] Setting up inception_4b/output
I0403 19:04:35.156824 18638 net.cpp:148] Top shape: 24 512 14 14 (2408448)
I0403 19:04:35.156838 18638 net.cpp:156] Memory required for data: 989857056
I0403 19:04:35.156865 18638 layer_factory.hpp:77] Creating layer inception_4b/output_inception_4b/output_0_split
I0403 19:04:35.156883 18638 net.cpp:91] Creating Layer inception_4b/output_inception_4b/output_0_split
I0403 19:04:35.156899 18638 net.cpp:425] inception_4b/output_inception_4b/output_0_split <- inception_4b/output
I0403 19:04:35.156919 18638 net.cpp:399] inception_4b/output_inception_4b/output_0_split -> inception_4b/output_inception_4b/output_0_split_0
I0403 19:04:35.156939 18638 net.cpp:399] inception_4b/output_inception_4b/output_0_split -> inception_4b/output_inception_4b/output_0_split_1
I0403 19:04:35.156960 18638 net.cpp:399] inception_4b/output_inception_4b/output_0_split -> inception_4b/output_inception_4b/output_0_split_2
I0403 19:04:35.156982 18638 net.cpp:399] inception_4b/output_inception_4b/output_0_split -> inception_4b/output_inception_4b/output_0_split_3
I0403 19:04:35.157064 18638 net.cpp:141] Setting up inception_4b/output_inception_4b/output_0_split
I0403 19:04:35.157089 18638 net.cpp:148] Top shape: 24 512 14 14 (2408448)
I0403 19:04:35.157106 18638 net.cpp:148] Top shape: 24 512 14 14 (2408448)
I0403 19:04:35.157121 18638 net.cpp:148] Top shape: 24 512 14 14 (2408448)
I0403 19:04:35.157136 18638 net.cpp:148] Top shape: 24 512 14 14 (2408448)
I0403 19:04:35.157150 18638 net.cpp:156] Memory required for data: 1028392224
I0403 19:04:35.157165 18638 layer_factory.hpp:77] Creating layer inception_4c/1x1
I0403 19:04:35.157186 18638 net.cpp:91] Creating Layer inception_4c/1x1
I0403 19:04:35.157203 18638 net.cpp:425] inception_4c/1x1 <- inception_4b/output_inception_4b/output_0_split_0
I0403 19:04:35.157222 18638 net.cpp:399] inception_4c/1x1 -> inception_4c/1x1
I0403 19:04:35.158601 18638 net.cpp:141] Setting up inception_4c/1x1
I0403 19:04:35.158627 18638 net.cpp:148] Top shape: 24 128 14 14 (602112)
I0403 19:04:35.158643 18638 net.cpp:156] Memory required for data: 1030800672
I0403 19:04:35.158659 18638 layer_factory.hpp:77] Creating layer inception_4c/relu_1x1
I0403 19:04:35.158679 18638 net.cpp:91] Creating Layer inception_4c/relu_1x1
I0403 19:04:35.158695 18638 net.cpp:425] inception_4c/relu_1x1 <- inception_4c/1x1
I0403 19:04:35.158712 18638 net.cpp:386] inception_4c/relu_1x1 -> inception_4c/1x1 (in-place)
I0403 19:04:35.158887 18638 net.cpp:141] Setting up inception_4c/relu_1x1
I0403 19:04:35.158913 18638 net.cpp:148] Top shape: 24 128 14 14 (602112)
I0403 19:04:35.158929 18638 net.cpp:156] Memory required for data: 1033209120
I0403 19:04:35.158943 18638 layer_factory.hpp:77] Creating layer inception_4c/3x3_reduce
I0403 19:04:35.158964 18638 net.cpp:91] Creating Layer inception_4c/3x3_reduce
I0403 19:04:35.158992 18638 net.cpp:425] inception_4c/3x3_reduce <- inception_4b/output_inception_4b/output_0_split_1
I0403 19:04:35.159013 18638 net.cpp:399] inception_4c/3x3_reduce -> inception_4c/3x3_reduce
I0403 19:04:35.160918 18638 net.cpp:141] Setting up inception_4c/3x3_reduce
I0403 19:04:35.160948 18638 net.cpp:148] Top shape: 24 128 14 14 (602112)
I0403 19:04:35.160965 18638 net.cpp:156] Memory required for data: 1035617568
I0403 19:04:35.160987 18638 layer_factory.hpp:77] Creating layer inception_4c/relu_3x3_reduce
I0403 19:04:35.161006 18638 net.cpp:91] Creating Layer inception_4c/relu_3x3_reduce
I0403 19:04:35.161022 18638 net.cpp:425] inception_4c/relu_3x3_reduce <- inception_4c/3x3_reduce
I0403 19:04:35.161041 18638 net.cpp:386] inception_4c/relu_3x3_reduce -> inception_4c/3x3_reduce (in-place)
I0403 19:04:35.161319 18638 net.cpp:141] Setting up inception_4c/relu_3x3_reduce
I0403 19:04:35.161346 18638 net.cpp:148] Top shape: 24 128 14 14 (602112)
I0403 19:04:35.161362 18638 net.cpp:156] Memory required for data: 1038026016
I0403 19:04:35.161376 18638 layer_factory.hpp:77] Creating layer inception_4c/3x3
I0403 19:04:35.161401 18638 net.cpp:91] Creating Layer inception_4c/3x3
I0403 19:04:35.161417 18638 net.cpp:425] inception_4c/3x3 <- inception_4c/3x3_reduce
I0403 19:04:35.161437 18638 net.cpp:399] inception_4c/3x3 -> inception_4c/3x3
I0403 19:04:35.164939 18638 net.cpp:141] Setting up inception_4c/3x3
I0403 19:04:35.164983 18638 net.cpp:148] Top shape: 24 256 14 14 (1204224)
I0403 19:04:35.164999 18638 net.cpp:156] Memory required for data: 1042842912
I0403 19:04:35.165030 18638 layer_factory.hpp:77] Creating layer inception_4c/relu_3x3
I0403 19:04:35.165050 18638 net.cpp:91] Creating Layer inception_4c/relu_3x3
I0403 19:04:35.165067 18638 net.cpp:425] inception_4c/relu_3x3 <- inception_4c/3x3
I0403 19:04:35.165086 18638 net.cpp:386] inception_4c/relu_3x3 -> inception_4c/3x3 (in-place)
I0403 19:04:35.165262 18638 net.cpp:141] Setting up inception_4c/relu_3x3
I0403 19:04:35.165287 18638 net.cpp:148] Top shape: 24 256 14 14 (1204224)
I0403 19:04:35.165300 18638 net.cpp:156] Memory required for data: 1047659808
I0403 19:04:35.165315 18638 layer_factory.hpp:77] Creating layer inception_4c/5x5_reduce
I0403 19:04:35.165338 18638 net.cpp:91] Creating Layer inception_4c/5x5_reduce
I0403 19:04:35.165355 18638 net.cpp:425] inception_4c/5x5_reduce <- inception_4b/output_inception_4b/output_0_split_2
I0403 19:04:35.165377 18638 net.cpp:399] inception_4c/5x5_reduce -> inception_4c/5x5_reduce
I0403 19:04:35.166434 18638 net.cpp:141] Setting up inception_4c/5x5_reduce
I0403 19:04:35.166460 18638 net.cpp:148] Top shape: 24 24 14 14 (112896)
I0403 19:04:35.166476 18638 net.cpp:156] Memory required for data: 1048111392
I0403 19:04:35.166493 18638 layer_factory.hpp:77] Creating layer inception_4c/relu_5x5_reduce
I0403 19:04:35.166512 18638 net.cpp:91] Creating Layer inception_4c/relu_5x5_reduce
I0403 19:04:35.166527 18638 net.cpp:425] inception_4c/relu_5x5_reduce <- inception_4c/5x5_reduce
I0403 19:04:35.166546 18638 net.cpp:386] inception_4c/relu_5x5_reduce -> inception_4c/5x5_reduce (in-place)
I0403 19:04:35.166724 18638 net.cpp:141] Setting up inception_4c/relu_5x5_reduce
I0403 19:04:35.166749 18638 net.cpp:148] Top shape: 24 24 14 14 (112896)
I0403 19:04:35.166762 18638 net.cpp:156] Memory required for data: 1048562976
I0403 19:04:35.166777 18638 layer_factory.hpp:77] Creating layer inception_4c/5x5
I0403 19:04:35.166800 18638 net.cpp:91] Creating Layer inception_4c/5x5
I0403 19:04:35.166816 18638 net.cpp:425] inception_4c/5x5 <- inception_4c/5x5_reduce
I0403 19:04:35.166836 18638 net.cpp:399] inception_4c/5x5 -> inception_4c/5x5
I0403 19:04:35.168052 18638 net.cpp:141] Setting up inception_4c/5x5
I0403 19:04:35.168079 18638 net.cpp:148] Top shape: 24 64 14 14 (301056)
I0403 19:04:35.168094 18638 net.cpp:156] Memory required for data: 1049767200
I0403 19:04:35.168112 18638 layer_factory.hpp:77] Creating layer inception_4c/relu_5x5
I0403 19:04:35.168133 18638 net.cpp:91] Creating Layer inception_4c/relu_5x5
I0403 19:04:35.168149 18638 net.cpp:425] inception_4c/relu_5x5 <- inception_4c/5x5
I0403 19:04:35.168166 18638 net.cpp:386] inception_4c/relu_5x5 -> inception_4c/5x5 (in-place)
I0403 19:04:35.168452 18638 net.cpp:141] Setting up inception_4c/relu_5x5
I0403 19:04:35.168488 18638 net.cpp:148] Top shape: 24 64 14 14 (301056)
I0403 19:04:35.168503 18638 net.cpp:156] Memory required for data: 1050971424
I0403 19:04:35.168516 18638 layer_factory.hpp:77] Creating layer inception_4c/pool
I0403 19:04:35.168536 18638 net.cpp:91] Creating Layer inception_4c/pool
I0403 19:04:35.168552 18638 net.cpp:425] inception_4c/pool <- inception_4b/output_inception_4b/output_0_split_3
I0403 19:04:35.168571 18638 net.cpp:399] inception_4c/pool -> inception_4c/pool
I0403 19:04:35.168635 18638 net.cpp:141] Setting up inception_4c/pool
I0403 19:04:35.168658 18638 net.cpp:148] Top shape: 24 512 14 14 (2408448)
I0403 19:04:35.168673 18638 net.cpp:156] Memory required for data: 1060605216
I0403 19:04:35.168686 18638 layer_factory.hpp:77] Creating layer inception_4c/pool_proj
I0403 19:04:35.168709 18638 net.cpp:91] Creating Layer inception_4c/pool_proj
I0403 19:04:35.168726 18638 net.cpp:425] inception_4c/pool_proj <- inception_4c/pool
I0403 19:04:35.168746 18638 net.cpp:399] inception_4c/pool_proj -> inception_4c/pool_proj
I0403 19:04:35.169940 18638 net.cpp:141] Setting up inception_4c/pool_proj
I0403 19:04:35.169967 18638 net.cpp:148] Top shape: 24 64 14 14 (301056)
I0403 19:04:35.170001 18638 net.cpp:156] Memory required for data: 1061809440
I0403 19:04:35.170019 18638 layer_factory.hpp:77] Creating layer inception_4c/relu_pool_proj
I0403 19:04:35.170038 18638 net.cpp:91] Creating Layer inception_4c/relu_pool_proj
I0403 19:04:35.170054 18638 net.cpp:425] inception_4c/relu_pool_proj <- inception_4c/pool_proj
I0403 19:04:35.170074 18638 net.cpp:386] inception_4c/relu_pool_proj -> inception_4c/pool_proj (in-place)
I0403 19:04:35.170250 18638 net.cpp:141] Setting up inception_4c/relu_pool_proj
I0403 19:04:35.170275 18638 net.cpp:148] Top shape: 24 64 14 14 (301056)
I0403 19:04:35.170289 18638 net.cpp:156] Memory required for data: 1063013664
I0403 19:04:35.170303 18638 layer_factory.hpp:77] Creating layer inception_4c/output
I0403 19:04:35.170323 18638 net.cpp:91] Creating Layer inception_4c/output
I0403 19:04:35.170339 18638 net.cpp:425] inception_4c/output <- inception_4c/1x1
I0403 19:04:35.170356 18638 net.cpp:425] inception_4c/output <- inception_4c/3x3
I0403 19:04:35.170370 18638 net.cpp:425] inception_4c/output <- inception_4c/5x5
I0403 19:04:35.170387 18638 net.cpp:425] inception_4c/output <- inception_4c/pool_proj
I0403 19:04:35.170403 18638 net.cpp:399] inception_4c/output -> inception_4c/output
I0403 19:04:35.170449 18638 net.cpp:141] Setting up inception_4c/output
I0403 19:04:35.170471 18638 net.cpp:148] Top shape: 24 512 14 14 (2408448)
I0403 19:04:35.170485 18638 net.cpp:156] Memory required for data: 1072647456
I0403 19:04:35.170500 18638 layer_factory.hpp:77] Creating layer inception_4c/output_inception_4c/output_0_split
I0403 19:04:35.170516 18638 net.cpp:91] Creating Layer inception_4c/output_inception_4c/output_0_split
I0403 19:04:35.170531 18638 net.cpp:425] inception_4c/output_inception_4c/output_0_split <- inception_4c/output
I0403 19:04:35.170550 18638 net.cpp:399] inception_4c/output_inception_4c/output_0_split -> inception_4c/output_inception_4c/output_0_split_0
I0403 19:04:35.170572 18638 net.cpp:399] inception_4c/output_inception_4c/output_0_split -> inception_4c/output_inception_4c/output_0_split_1
I0403 19:04:35.170593 18638 net.cpp:399] inception_4c/output_inception_4c/output_0_split -> inception_4c/output_inception_4c/output_0_split_2
I0403 19:04:35.170611 18638 net.cpp:399] inception_4c/output_inception_4c/output_0_split -> inception_4c/output_inception_4c/output_0_split_3
I0403 19:04:35.170692 18638 net.cpp:141] Setting up inception_4c/output_inception_4c/output_0_split
I0403 19:04:35.170720 18638 net.cpp:148] Top shape: 24 512 14 14 (2408448)
I0403 19:04:35.170737 18638 net.cpp:148] Top shape: 24 512 14 14 (2408448)
I0403 19:04:35.170752 18638 net.cpp:148] Top shape: 24 512 14 14 (2408448)
I0403 19:04:35.170766 18638 net.cpp:148] Top shape: 24 512 14 14 (2408448)
I0403 19:04:35.170779 18638 net.cpp:156] Memory required for data: 1111182624
I0403 19:04:35.170794 18638 layer_factory.hpp:77] Creating layer inception_4d/1x1
I0403 19:04:35.170815 18638 net.cpp:91] Creating Layer inception_4d/1x1
I0403 19:04:35.170832 18638 net.cpp:425] inception_4d/1x1 <- inception_4c/output_inception_4c/output_0_split_0
I0403 19:04:35.170851 18638 net.cpp:399] inception_4d/1x1 -> inception_4d/1x1
I0403 19:04:35.172219 18638 net.cpp:141] Setting up inception_4d/1x1
I0403 19:04:35.172250 18638 net.cpp:148] Top shape: 24 112 14 14 (526848)
I0403 19:04:35.172266 18638 net.cpp:156] Memory required for data: 1113290016
I0403 19:04:35.172286 18638 layer_factory.hpp:77] Creating layer inception_4d/relu_1x1
I0403 19:04:35.172303 18638 net.cpp:91] Creating Layer inception_4d/relu_1x1
I0403 19:04:35.172329 18638 net.cpp:425] inception_4d/relu_1x1 <- inception_4d/1x1
I0403 19:04:35.172346 18638 net.cpp:386] inception_4d/relu_1x1 -> inception_4d/1x1 (in-place)
I0403 19:04:35.172531 18638 net.cpp:141] Setting up inception_4d/relu_1x1
I0403 19:04:35.172557 18638 net.cpp:148] Top shape: 24 112 14 14 (526848)
I0403 19:04:35.172571 18638 net.cpp:156] Memory required for data: 1115397408
I0403 19:04:35.172586 18638 layer_factory.hpp:77] Creating layer inception_4d/3x3_reduce
I0403 19:04:35.172622 18638 net.cpp:91] Creating Layer inception_4d/3x3_reduce
I0403 19:04:35.172641 18638 net.cpp:425] inception_4d/3x3_reduce <- inception_4c/output_inception_4c/output_0_split_1
I0403 19:04:35.172663 18638 net.cpp:399] inception_4d/3x3_reduce -> inception_4d/3x3_reduce
I0403 19:04:35.174175 18638 net.cpp:141] Setting up inception_4d/3x3_reduce
I0403 19:04:35.174203 18638 net.cpp:148] Top shape: 24 144 14 14 (677376)
I0403 19:04:35.174218 18638 net.cpp:156] Memory required for data: 1118106912
I0403 19:04:35.174237 18638 layer_factory.hpp:77] Creating layer inception_4d/relu_3x3_reduce
I0403 19:04:35.174258 18638 net.cpp:91] Creating Layer inception_4d/relu_3x3_reduce
I0403 19:04:35.174275 18638 net.cpp:425] inception_4d/relu_3x3_reduce <- inception_4d/3x3_reduce
I0403 19:04:35.174294 18638 net.cpp:386] inception_4d/relu_3x3_reduce -> inception_4d/3x3_reduce (in-place)
I0403 19:04:35.174583 18638 net.cpp:141] Setting up inception_4d/relu_3x3_reduce
I0403 19:04:35.174610 18638 net.cpp:148] Top shape: 24 144 14 14 (677376)
I0403 19:04:35.174624 18638 net.cpp:156] Memory required for data: 1120816416
I0403 19:04:35.174639 18638 layer_factory.hpp:77] Creating layer inception_4d/3x3
I0403 19:04:35.174662 18638 net.cpp:91] Creating Layer inception_4d/3x3
I0403 19:04:35.174680 18638 net.cpp:425] inception_4d/3x3 <- inception_4d/3x3_reduce
I0403 19:04:35.174701 18638 net.cpp:399] inception_4d/3x3 -> inception_4d/3x3
I0403 19:04:35.178961 18638 net.cpp:141] Setting up inception_4d/3x3
I0403 19:04:35.179003 18638 net.cpp:148] Top shape: 24 288 14 14 (1354752)
I0403 19:04:35.179021 18638 net.cpp:156] Memory required for data: 1126235424
I0403 19:04:35.179039 18638 layer_factory.hpp:77] Creating layer inception_4d/relu_3x3
I0403 19:04:35.179059 18638 net.cpp:91] Creating Layer inception_4d/relu_3x3
I0403 19:04:35.179075 18638 net.cpp:425] inception_4d/relu_3x3 <- inception_4d/3x3
I0403 19:04:35.179095 18638 net.cpp:386] inception_4d/relu_3x3 -> inception_4d/3x3 (in-place)
I0403 19:04:35.179281 18638 net.cpp:141] Setting up inception_4d/relu_3x3
I0403 19:04:35.179306 18638 net.cpp:148] Top shape: 24 288 14 14 (1354752)
I0403 19:04:35.179322 18638 net.cpp:156] Memory required for data: 1131654432
I0403 19:04:35.179337 18638 layer_factory.hpp:77] Creating layer inception_4d/5x5_reduce
I0403 19:04:35.179358 18638 net.cpp:91] Creating Layer inception_4d/5x5_reduce
I0403 19:04:35.179375 18638 net.cpp:425] inception_4d/5x5_reduce <- inception_4c/output_inception_4c/output_0_split_2
I0403 19:04:35.179397 18638 net.cpp:399] inception_4d/5x5_reduce -> inception_4d/5x5_reduce
I0403 19:04:35.180548 18638 net.cpp:141] Setting up inception_4d/5x5_reduce
I0403 19:04:35.180578 18638 net.cpp:148] Top shape: 24 32 14 14 (150528)
I0403 19:04:35.180595 18638 net.cpp:156] Memory required for data: 1132256544
I0403 19:04:35.180613 18638 layer_factory.hpp:77] Creating layer inception_4d/relu_5x5_reduce
I0403 19:04:35.180632 18638 net.cpp:91] Creating Layer inception_4d/relu_5x5_reduce
I0403 19:04:35.180649 18638 net.cpp:425] inception_4d/relu_5x5_reduce <- inception_4d/5x5_reduce
I0403 19:04:35.180665 18638 net.cpp:386] inception_4d/relu_5x5_reduce -> inception_4d/5x5_reduce (in-place)
I0403 19:04:35.180852 18638 net.cpp:141] Setting up inception_4d/relu_5x5_reduce
I0403 19:04:35.180877 18638 net.cpp:148] Top shape: 24 32 14 14 (150528)
I0403 19:04:35.180892 18638 net.cpp:156] Memory required for data: 1132858656
I0403 19:04:35.180907 18638 layer_factory.hpp:77] Creating layer inception_4d/5x5
I0403 19:04:35.180930 18638 net.cpp:91] Creating Layer inception_4d/5x5
I0403 19:04:35.180948 18638 net.cpp:425] inception_4d/5x5 <- inception_4d/5x5_reduce
I0403 19:04:35.180968 18638 net.cpp:399] inception_4d/5x5 -> inception_4d/5x5
I0403 19:04:35.182446 18638 net.cpp:141] Setting up inception_4d/5x5
I0403 19:04:35.182473 18638 net.cpp:148] Top shape: 24 64 14 14 (301056)
I0403 19:04:35.182489 18638 net.cpp:156] Memory required for data: 1134062880
I0403 19:04:35.182508 18638 layer_factory.hpp:77] Creating layer inception_4d/relu_5x5
I0403 19:04:35.182543 18638 net.cpp:91] Creating Layer inception_4d/relu_5x5
I0403 19:04:35.182561 18638 net.cpp:425] inception_4d/relu_5x5 <- inception_4d/5x5
I0403 19:04:35.182579 18638 net.cpp:386] inception_4d/relu_5x5 -> inception_4d/5x5 (in-place)
I0403 19:04:35.182881 18638 net.cpp:141] Setting up inception_4d/relu_5x5
I0403 19:04:35.182909 18638 net.cpp:148] Top shape: 24 64 14 14 (301056)
I0403 19:04:35.182924 18638 net.cpp:156] Memory required for data: 1135267104
I0403 19:04:35.182939 18638 layer_factory.hpp:77] Creating layer inception_4d/pool
I0403 19:04:35.182958 18638 net.cpp:91] Creating Layer inception_4d/pool
I0403 19:04:35.182976 18638 net.cpp:425] inception_4d/pool <- inception_4c/output_inception_4c/output_0_split_3
I0403 19:04:35.183001 18638 net.cpp:399] inception_4d/pool -> inception_4d/pool
I0403 19:04:35.183068 18638 net.cpp:141] Setting up inception_4d/pool
I0403 19:04:35.183092 18638 net.cpp:148] Top shape: 24 512 14 14 (2408448)
I0403 19:04:35.183107 18638 net.cpp:156] Memory required for data: 1144900896
I0403 19:04:35.183122 18638 layer_factory.hpp:77] Creating layer inception_4d/pool_proj
I0403 19:04:35.183145 18638 net.cpp:91] Creating Layer inception_4d/pool_proj
I0403 19:04:35.183162 18638 net.cpp:425] inception_4d/pool_proj <- inception_4d/pool
I0403 19:04:35.183183 18638 net.cpp:399] inception_4d/pool_proj -> inception_4d/pool_proj
I0403 19:04:35.184937 18638 net.cpp:141] Setting up inception_4d/pool_proj
I0403 19:04:35.184968 18638 net.cpp:148] Top shape: 24 64 14 14 (301056)
I0403 19:04:35.184989 18638 net.cpp:156] Memory required for data: 1146105120
I0403 19:04:35.185009 18638 layer_factory.hpp:77] Creating layer inception_4d/relu_pool_proj
I0403 19:04:35.185027 18638 net.cpp:91] Creating Layer inception_4d/relu_pool_proj
I0403 19:04:35.185045 18638 net.cpp:425] inception_4d/relu_pool_proj <- inception_4d/pool_proj
I0403 19:04:35.185065 18638 net.cpp:386] inception_4d/relu_pool_proj -> inception_4d/pool_proj (in-place)
I0403 19:04:35.185251 18638 net.cpp:141] Setting up inception_4d/relu_pool_proj
I0403 19:04:35.185276 18638 net.cpp:148] Top shape: 24 64 14 14 (301056)
I0403 19:04:35.185291 18638 net.cpp:156] Memory required for data: 1147309344
I0403 19:04:35.185305 18638 layer_factory.hpp:77] Creating layer inception_4d/output
I0403 19:04:35.185323 18638 net.cpp:91] Creating Layer inception_4d/output
I0403 19:04:35.185338 18638 net.cpp:425] inception_4d/output <- inception_4d/1x1
I0403 19:04:35.185354 18638 net.cpp:425] inception_4d/output <- inception_4d/3x3
I0403 19:04:35.185370 18638 net.cpp:425] inception_4d/output <- inception_4d/5x5
I0403 19:04:35.185386 18638 net.cpp:425] inception_4d/output <- inception_4d/pool_proj
I0403 19:04:35.185405 18638 net.cpp:399] inception_4d/output -> inception_4d/output
I0403 19:04:35.185453 18638 net.cpp:141] Setting up inception_4d/output
I0403 19:04:35.185478 18638 net.cpp:148] Top shape: 24 528 14 14 (2483712)
I0403 19:04:35.185494 18638 net.cpp:156] Memory required for data: 1157244192
I0403 19:04:35.185508 18638 layer_factory.hpp:77] Creating layer inception_4d/output_inception_4d/output_0_split
I0403 19:04:35.185526 18638 net.cpp:91] Creating Layer inception_4d/output_inception_4d/output_0_split
I0403 19:04:35.185542 18638 net.cpp:425] inception_4d/output_inception_4d/output_0_split <- inception_4d/output
I0403 19:04:35.185562 18638 net.cpp:399] inception_4d/output_inception_4d/output_0_split -> inception_4d/output_inception_4d/output_0_split_0
I0403 19:04:35.185585 18638 net.cpp:399] inception_4d/output_inception_4d/output_0_split -> inception_4d/output_inception_4d/output_0_split_1
I0403 19:04:35.185605 18638 net.cpp:399] inception_4d/output_inception_4d/output_0_split -> inception_4d/output_inception_4d/output_0_split_2
I0403 19:04:35.185626 18638 net.cpp:399] inception_4d/output_inception_4d/output_0_split -> inception_4d/output_inception_4d/output_0_split_3
I0403 19:04:35.185644 18638 net.cpp:399] inception_4d/output_inception_4d/output_0_split -> inception_4d/output_inception_4d/output_0_split_4
I0403 19:04:35.185748 18638 net.cpp:141] Setting up inception_4d/output_inception_4d/output_0_split
I0403 19:04:35.185786 18638 net.cpp:148] Top shape: 24 528 14 14 (2483712)
I0403 19:04:35.185804 18638 net.cpp:148] Top shape: 24 528 14 14 (2483712)
I0403 19:04:35.185819 18638 net.cpp:148] Top shape: 24 528 14 14 (2483712)
I0403 19:04:35.185834 18638 net.cpp:148] Top shape: 24 528 14 14 (2483712)
I0403 19:04:35.185849 18638 net.cpp:148] Top shape: 24 528 14 14 (2483712)
I0403 19:04:35.185863 18638 net.cpp:156] Memory required for data: 1206918432
I0403 19:04:35.185878 18638 layer_factory.hpp:77] Creating layer loss2/ave_pool
I0403 19:04:35.185894 18638 net.cpp:91] Creating Layer loss2/ave_pool
I0403 19:04:35.185910 18638 net.cpp:425] loss2/ave_pool <- inception_4d/output_inception_4d/output_0_split_0
I0403 19:04:35.185928 18638 net.cpp:399] loss2/ave_pool -> loss2/ave_pool
I0403 19:04:35.186245 18638 net.cpp:141] Setting up loss2/ave_pool
I0403 19:04:35.186275 18638 net.cpp:148] Top shape: 24 528 4 4 (202752)
I0403 19:04:35.186290 18638 net.cpp:156] Memory required for data: 1207729440
I0403 19:04:35.186305 18638 layer_factory.hpp:77] Creating layer loss2/conv
I0403 19:04:35.186327 18638 net.cpp:91] Creating Layer loss2/conv
I0403 19:04:35.186345 18638 net.cpp:425] loss2/conv <- loss2/ave_pool
I0403 19:04:35.186365 18638 net.cpp:399] loss2/conv -> loss2/conv
I0403 19:04:35.188258 18638 net.cpp:141] Setting up loss2/conv
I0403 19:04:35.188287 18638 net.cpp:148] Top shape: 24 128 4 4 (49152)
I0403 19:04:35.188302 18638 net.cpp:156] Memory required for data: 1207926048
I0403 19:04:35.188321 18638 layer_factory.hpp:77] Creating layer loss2/relu_conv
I0403 19:04:35.188341 18638 net.cpp:91] Creating Layer loss2/relu_conv
I0403 19:04:35.188359 18638 net.cpp:425] loss2/relu_conv <- loss2/conv
I0403 19:04:35.188376 18638 net.cpp:386] loss2/relu_conv -> loss2/conv (in-place)
I0403 19:04:35.188663 18638 net.cpp:141] Setting up loss2/relu_conv
I0403 19:04:35.188690 18638 net.cpp:148] Top shape: 24 128 4 4 (49152)
I0403 19:04:35.188705 18638 net.cpp:156] Memory required for data: 1208122656
I0403 19:04:35.188721 18638 layer_factory.hpp:77] Creating layer loss2/fc
I0403 19:04:35.188742 18638 net.cpp:91] Creating Layer loss2/fc
I0403 19:04:35.188760 18638 net.cpp:425] loss2/fc <- loss2/conv
I0403 19:04:35.188777 18638 net.cpp:399] loss2/fc -> loss2/fc
I0403 19:04:35.205930 18638 net.cpp:141] Setting up loss2/fc
I0403 19:04:35.205963 18638 net.cpp:148] Top shape: 24 1024 (24576)
I0403 19:04:35.205981 18638 net.cpp:156] Memory required for data: 1208220960
I0403 19:04:35.206001 18638 layer_factory.hpp:77] Creating layer loss2/relu_fc
I0403 19:04:35.206018 18638 net.cpp:91] Creating Layer loss2/relu_fc
I0403 19:04:35.206034 18638 net.cpp:425] loss2/relu_fc <- loss2/fc
I0403 19:04:35.206054 18638 net.cpp:386] loss2/relu_fc -> loss2/fc (in-place)
I0403 19:04:35.206344 18638 net.cpp:141] Setting up loss2/relu_fc
I0403 19:04:35.206369 18638 net.cpp:148] Top shape: 24 1024 (24576)
I0403 19:04:35.206383 18638 net.cpp:156] Memory required for data: 1208319264
I0403 19:04:35.206398 18638 layer_factory.hpp:77] Creating layer loss2/drop_fc
I0403 19:04:35.206415 18638 net.cpp:91] Creating Layer loss2/drop_fc
I0403 19:04:35.206431 18638 net.cpp:425] loss2/drop_fc <- loss2/fc
I0403 19:04:35.206451 18638 net.cpp:386] loss2/drop_fc -> loss2/fc (in-place)
I0403 19:04:35.206499 18638 net.cpp:141] Setting up loss2/drop_fc
I0403 19:04:35.206521 18638 net.cpp:148] Top shape: 24 1024 (24576)
I0403 19:04:35.206538 18638 net.cpp:156] Memory required for data: 1208417568
I0403 19:04:35.206553 18638 layer_factory.hpp:77] Creating layer loss2/classifier_plantvillage
I0403 19:04:35.206570 18638 net.cpp:91] Creating Layer loss2/classifier_plantvillage
I0403 19:04:35.206586 18638 net.cpp:425] loss2/classifier_plantvillage <- loss2/fc
I0403 19:04:35.206609 18638 net.cpp:399] loss2/classifier_plantvillage -> loss2/classifier_plantvillage
I0403 19:04:35.207012 18638 net.cpp:141] Setting up loss2/classifier_plantvillage
I0403 19:04:35.207036 18638 net.cpp:148] Top shape: 24 38 (912)
I0403 19:04:35.207067 18638 net.cpp:156] Memory required for data: 1208421216
I0403 19:04:35.207084 18638 layer_factory.hpp:77] Creating layer loss2/classifier_plantvillage_loss2/classifier_plantvillage_0_split
I0403 19:04:35.207105 18638 net.cpp:91] Creating Layer loss2/classifier_plantvillage_loss2/classifier_plantvillage_0_split
I0403 19:04:35.207123 18638 net.cpp:425] loss2/classifier_plantvillage_loss2/classifier_plantvillage_0_split <- loss2/classifier_plantvillage
I0403 19:04:35.207140 18638 net.cpp:399] loss2/classifier_plantvillage_loss2/classifier_plantvillage_0_split -> loss2/classifier_plantvillage_loss2/classifier_plantvillage_0_split_0
I0403 19:04:35.207160 18638 net.cpp:399] loss2/classifier_plantvillage_loss2/classifier_plantvillage_0_split -> loss2/classifier_plantvillage_loss2/classifier_plantvillage_0_split_1
I0403 19:04:35.207187 18638 net.cpp:399] loss2/classifier_plantvillage_loss2/classifier_plantvillage_0_split -> loss2/classifier_plantvillage_loss2/classifier_plantvillage_0_split_2
I0403 19:04:35.207267 18638 net.cpp:141] Setting up loss2/classifier_plantvillage_loss2/classifier_plantvillage_0_split
I0403 19:04:35.207289 18638 net.cpp:148] Top shape: 24 38 (912)
I0403 19:04:35.207305 18638 net.cpp:148] Top shape: 24 38 (912)
I0403 19:04:35.207320 18638 net.cpp:148] Top shape: 24 38 (912)
I0403 19:04:35.207334 18638 net.cpp:156] Memory required for data: 1208432160
I0403 19:04:35.207347 18638 layer_factory.hpp:77] Creating layer inception_4e/1x1
I0403 19:04:35.207370 18638 net.cpp:91] Creating Layer inception_4e/1x1
I0403 19:04:35.207387 18638 net.cpp:425] inception_4e/1x1 <- inception_4d/output_inception_4d/output_0_split_1
I0403 19:04:35.207406 18638 net.cpp:399] inception_4e/1x1 -> inception_4e/1x1
I0403 19:04:35.209192 18638 net.cpp:141] Setting up inception_4e/1x1
I0403 19:04:35.209219 18638 net.cpp:148] Top shape: 24 256 14 14 (1204224)
I0403 19:04:35.209234 18638 net.cpp:156] Memory required for data: 1213249056
I0403 19:04:35.209252 18638 layer_factory.hpp:77] Creating layer inception_4e/relu_1x1
I0403 19:04:35.209272 18638 net.cpp:91] Creating Layer inception_4e/relu_1x1
I0403 19:04:35.209288 18638 net.cpp:425] inception_4e/relu_1x1 <- inception_4e/1x1
I0403 19:04:35.209306 18638 net.cpp:386] inception_4e/relu_1x1 -> inception_4e/1x1 (in-place)
I0403 19:04:35.209602 18638 net.cpp:141] Setting up inception_4e/relu_1x1
I0403 19:04:35.209628 18638 net.cpp:148] Top shape: 24 256 14 14 (1204224)
I0403 19:04:35.209643 18638 net.cpp:156] Memory required for data: 1218065952
I0403 19:04:35.209658 18638 layer_factory.hpp:77] Creating layer inception_4e/3x3_reduce
I0403 19:04:35.209681 18638 net.cpp:91] Creating Layer inception_4e/3x3_reduce
I0403 19:04:35.209698 18638 net.cpp:425] inception_4e/3x3_reduce <- inception_4d/output_inception_4d/output_0_split_2
I0403 19:04:35.209719 18638 net.cpp:399] inception_4e/3x3_reduce -> inception_4e/3x3_reduce
I0403 19:04:35.211799 18638 net.cpp:141] Setting up inception_4e/3x3_reduce
I0403 19:04:35.211827 18638 net.cpp:148] Top shape: 24 160 14 14 (752640)
I0403 19:04:35.211843 18638 net.cpp:156] Memory required for data: 1221076512
I0403 19:04:35.211860 18638 layer_factory.hpp:77] Creating layer inception_4e/relu_3x3_reduce
I0403 19:04:35.211879 18638 net.cpp:91] Creating Layer inception_4e/relu_3x3_reduce
I0403 19:04:35.211894 18638 net.cpp:425] inception_4e/relu_3x3_reduce <- inception_4e/3x3_reduce
I0403 19:04:35.211915 18638 net.cpp:386] inception_4e/relu_3x3_reduce -> inception_4e/3x3_reduce (in-place)
I0403 19:04:35.212100 18638 net.cpp:141] Setting up inception_4e/relu_3x3_reduce
I0403 19:04:35.212124 18638 net.cpp:148] Top shape: 24 160 14 14 (752640)
I0403 19:04:35.212138 18638 net.cpp:156] Memory required for data: 1224087072
I0403 19:04:35.212153 18638 layer_factory.hpp:77] Creating layer inception_4e/3x3
I0403 19:04:35.212174 18638 net.cpp:91] Creating Layer inception_4e/3x3
I0403 19:04:35.212191 18638 net.cpp:425] inception_4e/3x3 <- inception_4e/3x3_reduce
I0403 19:04:35.212213 18638 net.cpp:399] inception_4e/3x3 -> inception_4e/3x3
I0403 19:04:35.217080 18638 net.cpp:141] Setting up inception_4e/3x3
I0403 19:04:35.217119 18638 net.cpp:148] Top shape: 24 320 14 14 (1505280)
I0403 19:04:35.217135 18638 net.cpp:156] Memory required for data: 1230108192
I0403 19:04:35.217154 18638 layer_factory.hpp:77] Creating layer inception_4e/relu_3x3
I0403 19:04:35.217173 18638 net.cpp:91] Creating Layer inception_4e/relu_3x3
I0403 19:04:35.217190 18638 net.cpp:425] inception_4e/relu_3x3 <- inception_4e/3x3
I0403 19:04:35.217209 18638 net.cpp:386] inception_4e/relu_3x3 -> inception_4e/3x3 (in-place)
I0403 19:04:35.217502 18638 net.cpp:141] Setting up inception_4e/relu_3x3
I0403 19:04:35.217530 18638 net.cpp:148] Top shape: 24 320 14 14 (1505280)
I0403 19:04:35.217545 18638 net.cpp:156] Memory required for data: 1236129312
I0403 19:04:35.217561 18638 layer_factory.hpp:77] Creating layer inception_4e/5x5_reduce
I0403 19:04:35.217582 18638 net.cpp:91] Creating Layer inception_4e/5x5_reduce
I0403 19:04:35.217600 18638 net.cpp:425] inception_4e/5x5_reduce <- inception_4d/output_inception_4d/output_0_split_3
I0403 19:04:35.217619 18638 net.cpp:399] inception_4e/5x5_reduce -> inception_4e/5x5_reduce
I0403 19:04:35.218665 18638 net.cpp:141] Setting up inception_4e/5x5_reduce
I0403 19:04:35.218693 18638 net.cpp:148] Top shape: 24 32 14 14 (150528)
I0403 19:04:35.218708 18638 net.cpp:156] Memory required for data: 1236731424
I0403 19:04:35.218725 18638 layer_factory.hpp:77] Creating layer inception_4e/relu_5x5_reduce
I0403 19:04:35.218744 18638 net.cpp:91] Creating Layer inception_4e/relu_5x5_reduce
I0403 19:04:35.218760 18638 net.cpp:425] inception_4e/relu_5x5_reduce <- inception_4e/5x5_reduce
I0403 19:04:35.218777 18638 net.cpp:386] inception_4e/relu_5x5_reduce -> inception_4e/5x5_reduce (in-place)
I0403 19:04:35.219079 18638 net.cpp:141] Setting up inception_4e/relu_5x5_reduce
I0403 19:04:35.219105 18638 net.cpp:148] Top shape: 24 32 14 14 (150528)
I0403 19:04:35.219120 18638 net.cpp:156] Memory required for data: 1237333536
I0403 19:04:35.219135 18638 layer_factory.hpp:77] Creating layer inception_4e/5x5
I0403 19:04:35.219172 18638 net.cpp:91] Creating Layer inception_4e/5x5
I0403 19:04:35.219190 18638 net.cpp:425] inception_4e/5x5 <- inception_4e/5x5_reduce
I0403 19:04:35.219211 18638 net.cpp:399] inception_4e/5x5 -> inception_4e/5x5
I0403 19:04:35.221108 18638 net.cpp:141] Setting up inception_4e/5x5
I0403 19:04:35.221138 18638 net.cpp:148] Top shape: 24 128 14 14 (602112)
I0403 19:04:35.221154 18638 net.cpp:156] Memory required for data: 1239741984
I0403 19:04:35.221173 18638 layer_factory.hpp:77] Creating layer inception_4e/relu_5x5
I0403 19:04:35.221190 18638 net.cpp:91] Creating Layer inception_4e/relu_5x5
I0403 19:04:35.221209 18638 net.cpp:425] inception_4e/relu_5x5 <- inception_4e/5x5
I0403 19:04:35.221228 18638 net.cpp:386] inception_4e/relu_5x5 -> inception_4e/5x5 (in-place)
I0403 19:04:35.221418 18638 net.cpp:141] Setting up inception_4e/relu_5x5
I0403 19:04:35.221443 18638 net.cpp:148] Top shape: 24 128 14 14 (602112)
I0403 19:04:35.221457 18638 net.cpp:156] Memory required for data: 1242150432
I0403 19:04:35.221472 18638 layer_factory.hpp:77] Creating layer inception_4e/pool
I0403 19:04:35.221489 18638 net.cpp:91] Creating Layer inception_4e/pool
I0403 19:04:35.221505 18638 net.cpp:425] inception_4e/pool <- inception_4d/output_inception_4d/output_0_split_4
I0403 19:04:35.221526 18638 net.cpp:399] inception_4e/pool -> inception_4e/pool
I0403 19:04:35.221596 18638 net.cpp:141] Setting up inception_4e/pool
I0403 19:04:35.221619 18638 net.cpp:148] Top shape: 24 528 14 14 (2483712)
I0403 19:04:35.221633 18638 net.cpp:156] Memory required for data: 1252085280
I0403 19:04:35.221647 18638 layer_factory.hpp:77] Creating layer inception_4e/pool_proj
I0403 19:04:35.221668 18638 net.cpp:91] Creating Layer inception_4e/pool_proj
I0403 19:04:35.221685 18638 net.cpp:425] inception_4e/pool_proj <- inception_4e/pool
I0403 19:04:35.221707 18638 net.cpp:399] inception_4e/pool_proj -> inception_4e/pool_proj
I0403 19:04:35.223173 18638 net.cpp:141] Setting up inception_4e/pool_proj
I0403 19:04:35.223214 18638 net.cpp:148] Top shape: 24 128 14 14 (602112)
I0403 19:04:35.223230 18638 net.cpp:156] Memory required for data: 1254493728
I0403 19:04:35.223249 18638 layer_factory.hpp:77] Creating layer inception_4e/relu_pool_proj
I0403 19:04:35.223268 18638 net.cpp:91] Creating Layer inception_4e/relu_pool_proj
I0403 19:04:35.223284 18638 net.cpp:425] inception_4e/relu_pool_proj <- inception_4e/pool_proj
I0403 19:04:35.223302 18638 net.cpp:386] inception_4e/relu_pool_proj -> inception_4e/pool_proj (in-place)
I0403 19:04:35.223592 18638 net.cpp:141] Setting up inception_4e/relu_pool_proj
I0403 19:04:35.223618 18638 net.cpp:148] Top shape: 24 128 14 14 (602112)
I0403 19:04:35.223634 18638 net.cpp:156] Memory required for data: 1256902176
I0403 19:04:35.223649 18638 layer_factory.hpp:77] Creating layer inception_4e/output
I0403 19:04:35.223666 18638 net.cpp:91] Creating Layer inception_4e/output
I0403 19:04:35.223681 18638 net.cpp:425] inception_4e/output <- inception_4e/1x1
I0403 19:04:35.223697 18638 net.cpp:425] inception_4e/output <- inception_4e/3x3
I0403 19:04:35.223712 18638 net.cpp:425] inception_4e/output <- inception_4e/5x5
I0403 19:04:35.223728 18638 net.cpp:425] inception_4e/output <- inception_4e/pool_proj
I0403 19:04:35.223747 18638 net.cpp:399] inception_4e/output -> inception_4e/output
I0403 19:04:35.223793 18638 net.cpp:141] Setting up inception_4e/output
I0403 19:04:35.223816 18638 net.cpp:148] Top shape: 24 832 14 14 (3913728)
I0403 19:04:35.223830 18638 net.cpp:156] Memory required for data: 1272557088
I0403 19:04:35.223845 18638 layer_factory.hpp:77] Creating layer pool4/3x3_s2
I0403 19:04:35.223865 18638 net.cpp:91] Creating Layer pool4/3x3_s2
I0403 19:04:35.223881 18638 net.cpp:425] pool4/3x3_s2 <- inception_4e/output
I0403 19:04:35.223899 18638 net.cpp:399] pool4/3x3_s2 -> pool4/3x3_s2
I0403 19:04:35.223966 18638 net.cpp:141] Setting up pool4/3x3_s2
I0403 19:04:35.223992 18638 net.cpp:148] Top shape: 24 832 7 7 (978432)
I0403 19:04:35.224007 18638 net.cpp:156] Memory required for data: 1276470816
I0403 19:04:35.224021 18638 layer_factory.hpp:77] Creating layer pool4/3x3_s2_pool4/3x3_s2_0_split
I0403 19:04:35.224037 18638 net.cpp:91] Creating Layer pool4/3x3_s2_pool4/3x3_s2_0_split
I0403 19:04:35.224053 18638 net.cpp:425] pool4/3x3_s2_pool4/3x3_s2_0_split <- pool4/3x3_s2
I0403 19:04:35.224073 18638 net.cpp:399] pool4/3x3_s2_pool4/3x3_s2_0_split -> pool4/3x3_s2_pool4/3x3_s2_0_split_0
I0403 19:04:35.224093 18638 net.cpp:399] pool4/3x3_s2_pool4/3x3_s2_0_split -> pool4/3x3_s2_pool4/3x3_s2_0_split_1
I0403 19:04:35.224113 18638 net.cpp:399] pool4/3x3_s2_pool4/3x3_s2_0_split -> pool4/3x3_s2_pool4/3x3_s2_0_split_2
I0403 19:04:35.224133 18638 net.cpp:399] pool4/3x3_s2_pool4/3x3_s2_0_split -> pool4/3x3_s2_pool4/3x3_s2_0_split_3
I0403 19:04:35.224220 18638 net.cpp:141] Setting up pool4/3x3_s2_pool4/3x3_s2_0_split
I0403 19:04:35.224243 18638 net.cpp:148] Top shape: 24 832 7 7 (978432)
I0403 19:04:35.224259 18638 net.cpp:148] Top shape: 24 832 7 7 (978432)
I0403 19:04:35.224273 18638 net.cpp:148] Top shape: 24 832 7 7 (978432)
I0403 19:04:35.224288 18638 net.cpp:148] Top shape: 24 832 7 7 (978432)
I0403 19:04:35.224301 18638 net.cpp:156] Memory required for data: 1292125728
I0403 19:04:35.224315 18638 layer_factory.hpp:77] Creating layer inception_5a/1x1
I0403 19:04:35.224336 18638 net.cpp:91] Creating Layer inception_5a/1x1
I0403 19:04:35.224354 18638 net.cpp:425] inception_5a/1x1 <- pool4/3x3_s2_pool4/3x3_s2_0_split_0
I0403 19:04:35.224375 18638 net.cpp:399] inception_5a/1x1 -> inception_5a/1x1
I0403 19:04:35.227150 18638 net.cpp:141] Setting up inception_5a/1x1
I0403 19:04:35.227179 18638 net.cpp:148] Top shape: 24 256 7 7 (301056)
I0403 19:04:35.227195 18638 net.cpp:156] Memory required for data: 1293329952
I0403 19:04:35.227212 18638 layer_factory.hpp:77] Creating layer inception_5a/relu_1x1
I0403 19:04:35.227231 18638 net.cpp:91] Creating Layer inception_5a/relu_1x1
I0403 19:04:35.227248 18638 net.cpp:425] inception_5a/relu_1x1 <- inception_5a/1x1
I0403 19:04:35.227268 18638 net.cpp:386] inception_5a/relu_1x1 -> inception_5a/1x1 (in-place)
I0403 19:04:35.227576 18638 net.cpp:141] Setting up inception_5a/relu_1x1
I0403 19:04:35.227602 18638 net.cpp:148] Top shape: 24 256 7 7 (301056)
I0403 19:04:35.227615 18638 net.cpp:156] Memory required for data: 1294534176
I0403 19:04:35.227629 18638 layer_factory.hpp:77] Creating layer inception_5a/3x3_reduce
I0403 19:04:35.227651 18638 net.cpp:91] Creating Layer inception_5a/3x3_reduce
I0403 19:04:35.227669 18638 net.cpp:425] inception_5a/3x3_reduce <- pool4/3x3_s2_pool4/3x3_s2_0_split_1
I0403 19:04:35.227689 18638 net.cpp:399] inception_5a/3x3_reduce -> inception_5a/3x3_reduce
I0403 19:04:35.230142 18638 net.cpp:141] Setting up inception_5a/3x3_reduce
I0403 19:04:35.230171 18638 net.cpp:148] Top shape: 24 160 7 7 (188160)
I0403 19:04:35.230186 18638 net.cpp:156] Memory required for data: 1295286816
I0403 19:04:35.230206 18638 layer_factory.hpp:77] Creating layer inception_5a/relu_3x3_reduce
I0403 19:04:35.230226 18638 net.cpp:91] Creating Layer inception_5a/relu_3x3_reduce
I0403 19:04:35.230243 18638 net.cpp:425] inception_5a/relu_3x3_reduce <- inception_5a/3x3_reduce
I0403 19:04:35.230262 18638 net.cpp:386] inception_5a/relu_3x3_reduce -> inception_5a/3x3_reduce (in-place)
I0403 19:04:35.230455 18638 net.cpp:141] Setting up inception_5a/relu_3x3_reduce
I0403 19:04:35.230480 18638 net.cpp:148] Top shape: 24 160 7 7 (188160)
I0403 19:04:35.230495 18638 net.cpp:156] Memory required for data: 1296039456
I0403 19:04:35.230510 18638 layer_factory.hpp:77] Creating layer inception_5a/3x3
I0403 19:04:35.230535 18638 net.cpp:91] Creating Layer inception_5a/3x3
I0403 19:04:35.230553 18638 net.cpp:425] inception_5a/3x3 <- inception_5a/3x3_reduce
I0403 19:04:35.230574 18638 net.cpp:399] inception_5a/3x3 -> inception_5a/3x3
I0403 19:04:35.235606 18638 net.cpp:141] Setting up inception_5a/3x3
I0403 19:04:35.235636 18638 net.cpp:148] Top shape: 24 320 7 7 (376320)
I0403 19:04:35.235652 18638 net.cpp:156] Memory required for data: 1297544736
I0403 19:04:35.235671 18638 layer_factory.hpp:77] Creating layer inception_5a/relu_3x3
I0403 19:04:35.235688 18638 net.cpp:91] Creating Layer inception_5a/relu_3x3
I0403 19:04:35.235704 18638 net.cpp:425] inception_5a/relu_3x3 <- inception_5a/3x3
I0403 19:04:35.235724 18638 net.cpp:386] inception_5a/relu_3x3 -> inception_5a/3x3 (in-place)
I0403 19:04:35.236045 18638 net.cpp:141] Setting up inception_5a/relu_3x3
I0403 19:04:35.236073 18638 net.cpp:148] Top shape: 24 320 7 7 (376320)
I0403 19:04:35.236088 18638 net.cpp:156] Memory required for data: 1299050016
I0403 19:04:35.236102 18638 layer_factory.hpp:77] Creating layer inception_5a/5x5_reduce
I0403 19:04:35.236126 18638 net.cpp:91] Creating Layer inception_5a/5x5_reduce
I0403 19:04:35.236145 18638 net.cpp:425] inception_5a/5x5_reduce <- pool4/3x3_s2_pool4/3x3_s2_0_split_2
I0403 19:04:35.236166 18638 net.cpp:399] inception_5a/5x5_reduce -> inception_5a/5x5_reduce
I0403 19:04:35.237350 18638 net.cpp:141] Setting up inception_5a/5x5_reduce
I0403 19:04:35.237380 18638 net.cpp:148] Top shape: 24 32 7 7 (37632)
I0403 19:04:35.237396 18638 net.cpp:156] Memory required for data: 1299200544
I0403 19:04:35.237413 18638 layer_factory.hpp:77] Creating layer inception_5a/relu_5x5_reduce
I0403 19:04:35.237434 18638 net.cpp:91] Creating Layer inception_5a/relu_5x5_reduce
I0403 19:04:35.237452 18638 net.cpp:425] inception_5a/relu_5x5_reduce <- inception_5a/5x5_reduce
I0403 19:04:35.237470 18638 net.cpp:386] inception_5a/relu_5x5_reduce -> inception_5a/5x5_reduce (in-place)
I0403 19:04:35.237777 18638 net.cpp:141] Setting up inception_5a/relu_5x5_reduce
I0403 19:04:35.237804 18638 net.cpp:148] Top shape: 24 32 7 7 (37632)
I0403 19:04:35.237819 18638 net.cpp:156] Memory required for data: 1299351072
I0403 19:04:35.237834 18638 layer_factory.hpp:77] Creating layer inception_5a/5x5
I0403 19:04:35.237857 18638 net.cpp:91] Creating Layer inception_5a/5x5
I0403 19:04:35.237875 18638 net.cpp:425] inception_5a/5x5 <- inception_5a/5x5_reduce
I0403 19:04:35.237897 18638 net.cpp:399] inception_5a/5x5 -> inception_5a/5x5
I0403 19:04:35.239647 18638 net.cpp:141] Setting up inception_5a/5x5
I0403 19:04:35.239689 18638 net.cpp:148] Top shape: 24 128 7 7 (150528)
I0403 19:04:35.239706 18638 net.cpp:156] Memory required for data: 1299953184
I0403 19:04:35.239724 18638 layer_factory.hpp:77] Creating layer inception_5a/relu_5x5
I0403 19:04:35.239742 18638 net.cpp:91] Creating Layer inception_5a/relu_5x5
I0403 19:04:35.239760 18638 net.cpp:425] inception_5a/relu_5x5 <- inception_5a/5x5
I0403 19:04:35.239780 18638 net.cpp:386] inception_5a/relu_5x5 -> inception_5a/5x5 (in-place)
I0403 19:04:35.239972 18638 net.cpp:141] Setting up inception_5a/relu_5x5
I0403 19:04:35.240001 18638 net.cpp:148] Top shape: 24 128 7 7 (150528)
I0403 19:04:35.240016 18638 net.cpp:156] Memory required for data: 1300555296
I0403 19:04:35.240031 18638 layer_factory.hpp:77] Creating layer inception_5a/pool
I0403 19:04:35.240053 18638 net.cpp:91] Creating Layer inception_5a/pool
I0403 19:04:35.240072 18638 net.cpp:425] inception_5a/pool <- pool4/3x3_s2_pool4/3x3_s2_0_split_3
I0403 19:04:35.240089 18638 net.cpp:399] inception_5a/pool -> inception_5a/pool
I0403 19:04:35.240164 18638 net.cpp:141] Setting up inception_5a/pool
I0403 19:04:35.240197 18638 net.cpp:148] Top shape: 24 832 7 7 (978432)
I0403 19:04:35.240212 18638 net.cpp:156] Memory required for data: 1304469024
I0403 19:04:35.240226 18638 layer_factory.hpp:77] Creating layer inception_5a/pool_proj
I0403 19:04:35.240249 18638 net.cpp:91] Creating Layer inception_5a/pool_proj
I0403 19:04:35.240267 18638 net.cpp:425] inception_5a/pool_proj <- inception_5a/pool
I0403 19:04:35.240288 18638 net.cpp:399] inception_5a/pool_proj -> inception_5a/pool_proj
I0403 19:04:35.242594 18638 net.cpp:141] Setting up inception_5a/pool_proj
I0403 19:04:35.242626 18638 net.cpp:148] Top shape: 24 128 7 7 (150528)
I0403 19:04:35.242643 18638 net.cpp:156] Memory required for data: 1305071136
I0403 19:04:35.242662 18638 layer_factory.hpp:77] Creating layer inception_5a/relu_pool_proj
I0403 19:04:35.242681 18638 net.cpp:91] Creating Layer inception_5a/relu_pool_proj
I0403 19:04:35.242697 18638 net.cpp:425] inception_5a/relu_pool_proj <- inception_5a/pool_proj
I0403 19:04:35.242717 18638 net.cpp:386] inception_5a/relu_pool_proj -> inception_5a/pool_proj (in-place)
I0403 19:04:35.243021 18638 net.cpp:141] Setting up inception_5a/relu_pool_proj
I0403 19:04:35.243049 18638 net.cpp:148] Top shape: 24 128 7 7 (150528)
I0403 19:04:35.243065 18638 net.cpp:156] Memory required for data: 1305673248
I0403 19:04:35.243080 18638 layer_factory.hpp:77] Creating layer inception_5a/output
I0403 19:04:35.243098 18638 net.cpp:91] Creating Layer inception_5a/output
I0403 19:04:35.243114 18638 net.cpp:425] inception_5a/output <- inception_5a/1x1
I0403 19:04:35.243131 18638 net.cpp:425] inception_5a/output <- inception_5a/3x3
I0403 19:04:35.243147 18638 net.cpp:425] inception_5a/output <- inception_5a/5x5
I0403 19:04:35.243165 18638 net.cpp:425] inception_5a/output <- inception_5a/pool_proj
I0403 19:04:35.243180 18638 net.cpp:399] inception_5a/output -> inception_5a/output
I0403 19:04:35.243232 18638 net.cpp:141] Setting up inception_5a/output
I0403 19:04:35.243255 18638 net.cpp:148] Top shape: 24 832 7 7 (978432)
I0403 19:04:35.243270 18638 net.cpp:156] Memory required for data: 1309586976
I0403 19:04:35.243284 18638 layer_factory.hpp:77] Creating layer inception_5a/output_inception_5a/output_0_split
I0403 19:04:35.243304 18638 net.cpp:91] Creating Layer inception_5a/output_inception_5a/output_0_split
I0403 19:04:35.243321 18638 net.cpp:425] inception_5a/output_inception_5a/output_0_split <- inception_5a/output
I0403 19:04:35.243338 18638 net.cpp:399] inception_5a/output_inception_5a/output_0_split -> inception_5a/output_inception_5a/output_0_split_0
I0403 19:04:35.243360 18638 net.cpp:399] inception_5a/output_inception_5a/output_0_split -> inception_5a/output_inception_5a/output_0_split_1
I0403 19:04:35.243381 18638 net.cpp:399] inception_5a/output_inception_5a/output_0_split -> inception_5a/output_inception_5a/output_0_split_2
I0403 19:04:35.243404 18638 net.cpp:399] inception_5a/output_inception_5a/output_0_split -> inception_5a/output_inception_5a/output_0_split_3
I0403 19:04:35.243516 18638 net.cpp:141] Setting up inception_5a/output_inception_5a/output_0_split
I0403 19:04:35.243541 18638 net.cpp:148] Top shape: 24 832 7 7 (978432)
I0403 19:04:35.243557 18638 net.cpp:148] Top shape: 24 832 7 7 (978432)
I0403 19:04:35.243572 18638 net.cpp:148] Top shape: 24 832 7 7 (978432)
I0403 19:04:35.243588 18638 net.cpp:148] Top shape: 24 832 7 7 (978432)
I0403 19:04:35.243602 18638 net.cpp:156] Memory required for data: 1325241888
I0403 19:04:35.243618 18638 layer_factory.hpp:77] Creating layer inception_5b/1x1
I0403 19:04:35.243639 18638 net.cpp:91] Creating Layer inception_5b/1x1
I0403 19:04:35.243657 18638 net.cpp:425] inception_5b/1x1 <- inception_5a/output_inception_5a/output_0_split_0
I0403 19:04:35.243681 18638 net.cpp:399] inception_5b/1x1 -> inception_5b/1x1
I0403 19:04:35.247447 18638 net.cpp:141] Setting up inception_5b/1x1
I0403 19:04:35.247475 18638 net.cpp:148] Top shape: 24 384 7 7 (451584)
I0403 19:04:35.247491 18638 net.cpp:156] Memory required for data: 1327048224
I0403 19:04:35.247511 18638 layer_factory.hpp:77] Creating layer inception_5b/relu_1x1
I0403 19:04:35.247530 18638 net.cpp:91] Creating Layer inception_5b/relu_1x1
I0403 19:04:35.247547 18638 net.cpp:425] inception_5b/relu_1x1 <- inception_5b/1x1
I0403 19:04:35.247565 18638 net.cpp:386] inception_5b/relu_1x1 -> inception_5b/1x1 (in-place)
I0403 19:04:35.247862 18638 net.cpp:141] Setting up inception_5b/relu_1x1
I0403 19:04:35.247889 18638 net.cpp:148] Top shape: 24 384 7 7 (451584)
I0403 19:04:35.247903 18638 net.cpp:156] Memory required for data: 1328854560
I0403 19:04:35.247918 18638 layer_factory.hpp:77] Creating layer inception_5b/3x3_reduce
I0403 19:04:35.247941 18638 net.cpp:91] Creating Layer inception_5b/3x3_reduce
I0403 19:04:35.247958 18638 net.cpp:425] inception_5b/3x3_reduce <- inception_5a/output_inception_5a/output_0_split_1
I0403 19:04:35.247982 18638 net.cpp:399] inception_5b/3x3_reduce -> inception_5b/3x3_reduce
I0403 19:04:35.250576 18638 net.cpp:141] Setting up inception_5b/3x3_reduce
I0403 19:04:35.250607 18638 net.cpp:148] Top shape: 24 192 7 7 (225792)
I0403 19:04:35.250623 18638 net.cpp:156] Memory required for data: 1329757728
I0403 19:04:35.250641 18638 layer_factory.hpp:77] Creating layer inception_5b/relu_3x3_reduce
I0403 19:04:35.250659 18638 net.cpp:91] Creating Layer inception_5b/relu_3x3_reduce
I0403 19:04:35.250676 18638 net.cpp:425] inception_5b/relu_3x3_reduce <- inception_5b/3x3_reduce
I0403 19:04:35.250694 18638 net.cpp:386] inception_5b/relu_3x3_reduce -> inception_5b/3x3_reduce (in-place)
I0403 19:04:35.250885 18638 net.cpp:141] Setting up inception_5b/relu_3x3_reduce
I0403 19:04:35.250908 18638 net.cpp:148] Top shape: 24 192 7 7 (225792)
I0403 19:04:35.250923 18638 net.cpp:156] Memory required for data: 1330660896
I0403 19:04:35.250937 18638 layer_factory.hpp:77] Creating layer inception_5b/3x3
I0403 19:04:35.250959 18638 net.cpp:91] Creating Layer inception_5b/3x3
I0403 19:04:35.250982 18638 net.cpp:425] inception_5b/3x3 <- inception_5b/3x3_reduce
I0403 19:04:35.251004 18638 net.cpp:399] inception_5b/3x3 -> inception_5b/3x3
I0403 19:04:35.257539 18638 net.cpp:141] Setting up inception_5b/3x3
I0403 19:04:35.257568 18638 net.cpp:148] Top shape: 24 384 7 7 (451584)
I0403 19:04:35.257585 18638 net.cpp:156] Memory required for data: 1332467232
I0403 19:04:35.257602 18638 layer_factory.hpp:77] Creating layer inception_5b/relu_3x3
I0403 19:04:35.257621 18638 net.cpp:91] Creating Layer inception_5b/relu_3x3
I0403 19:04:35.257637 18638 net.cpp:425] inception_5b/relu_3x3 <- inception_5b/3x3
I0403 19:04:35.257657 18638 net.cpp:386] inception_5b/relu_3x3 -> inception_5b/3x3 (in-place)
I0403 19:04:35.257946 18638 net.cpp:141] Setting up inception_5b/relu_3x3
I0403 19:04:35.257974 18638 net.cpp:148] Top shape: 24 384 7 7 (451584)
I0403 19:04:35.257994 18638 net.cpp:156] Memory required for data: 1334273568
I0403 19:04:35.258009 18638 layer_factory.hpp:77] Creating layer inception_5b/5x5_reduce
I0403 19:04:35.258046 18638 net.cpp:91] Creating Layer inception_5b/5x5_reduce
I0403 19:04:35.258064 18638 net.cpp:425] inception_5b/5x5_reduce <- inception_5a/output_inception_5a/output_0_split_2
I0403 19:04:35.258086 18638 net.cpp:399] inception_5b/5x5_reduce -> inception_5b/5x5_reduce
I0403 19:04:35.259333 18638 net.cpp:141] Setting up inception_5b/5x5_reduce
I0403 19:04:35.259363 18638 net.cpp:148] Top shape: 24 48 7 7 (56448)
I0403 19:04:35.259379 18638 net.cpp:156] Memory required for data: 1334499360
I0403 19:04:35.259397 18638 layer_factory.hpp:77] Creating layer inception_5b/relu_5x5_reduce
I0403 19:04:35.259416 18638 net.cpp:91] Creating Layer inception_5b/relu_5x5_reduce
I0403 19:04:35.259433 18638 net.cpp:425] inception_5b/relu_5x5_reduce <- inception_5b/5x5_reduce
I0403 19:04:35.259454 18638 net.cpp:386] inception_5b/relu_5x5_reduce -> inception_5b/5x5_reduce (in-place)
I0403 19:04:35.259816 18638 net.cpp:141] Setting up inception_5b/relu_5x5_reduce
I0403 19:04:35.259842 18638 net.cpp:148] Top shape: 24 48 7 7 (56448)
I0403 19:04:35.259857 18638 net.cpp:156] Memory required for data: 1334725152
I0403 19:04:35.259872 18638 layer_factory.hpp:77] Creating layer inception_5b/5x5
I0403 19:04:35.259891 18638 net.cpp:91] Creating Layer inception_5b/5x5
I0403 19:04:35.259907 18638 net.cpp:425] inception_5b/5x5 <- inception_5b/5x5_reduce
I0403 19:04:35.259927 18638 net.cpp:399] inception_5b/5x5 -> inception_5b/5x5
I0403 19:04:35.261957 18638 net.cpp:141] Setting up inception_5b/5x5
I0403 19:04:35.261988 18638 net.cpp:148] Top shape: 24 128 7 7 (150528)
I0403 19:04:35.262006 18638 net.cpp:156] Memory required for data: 1335327264
I0403 19:04:35.262023 18638 layer_factory.hpp:77] Creating layer inception_5b/relu_5x5
I0403 19:04:35.262040 18638 net.cpp:91] Creating Layer inception_5b/relu_5x5
I0403 19:04:35.262056 18638 net.cpp:425] inception_5b/relu_5x5 <- inception_5b/5x5
I0403 19:04:35.262075 18638 net.cpp:386] inception_5b/relu_5x5 -> inception_5b/5x5 (in-place)
I0403 19:04:35.262269 18638 net.cpp:141] Setting up inception_5b/relu_5x5
I0403 19:04:35.262295 18638 net.cpp:148] Top shape: 24 128 7 7 (150528)
I0403 19:04:35.262310 18638 net.cpp:156] Memory required for data: 1335929376
I0403 19:04:35.262325 18638 layer_factory.hpp:77] Creating layer inception_5b/pool
I0403 19:04:35.262344 18638 net.cpp:91] Creating Layer inception_5b/pool
I0403 19:04:35.262361 18638 net.cpp:425] inception_5b/pool <- inception_5a/output_inception_5a/output_0_split_3
I0403 19:04:35.262378 18638 net.cpp:399] inception_5b/pool -> inception_5b/pool
I0403 19:04:35.262454 18638 net.cpp:141] Setting up inception_5b/pool
I0403 19:04:35.262485 18638 net.cpp:148] Top shape: 24 832 7 7 (978432)
I0403 19:04:35.262501 18638 net.cpp:156] Memory required for data: 1339843104
I0403 19:04:35.262514 18638 layer_factory.hpp:77] Creating layer inception_5b/pool_proj
I0403 19:04:35.262537 18638 net.cpp:91] Creating Layer inception_5b/pool_proj
I0403 19:04:35.262553 18638 net.cpp:425] inception_5b/pool_proj <- inception_5b/pool
I0403 19:04:35.262573 18638 net.cpp:399] inception_5b/pool_proj -> inception_5b/pool_proj
I0403 19:04:35.264814 18638 net.cpp:141] Setting up inception_5b/pool_proj
I0403 19:04:35.264845 18638 net.cpp:148] Top shape: 24 128 7 7 (150528)
I0403 19:04:35.264863 18638 net.cpp:156] Memory required for data: 1340445216
I0403 19:04:35.264879 18638 layer_factory.hpp:77] Creating layer inception_5b/relu_pool_proj
I0403 19:04:35.264897 18638 net.cpp:91] Creating Layer inception_5b/relu_pool_proj
I0403 19:04:35.264914 18638 net.cpp:425] inception_5b/relu_pool_proj <- inception_5b/pool_proj
I0403 19:04:35.264933 18638 net.cpp:386] inception_5b/relu_pool_proj -> inception_5b/pool_proj (in-place)
I0403 19:04:35.265228 18638 net.cpp:141] Setting up inception_5b/relu_pool_proj
I0403 19:04:35.265255 18638 net.cpp:148] Top shape: 24 128 7 7 (150528)
I0403 19:04:35.265271 18638 net.cpp:156] Memory required for data: 1341047328
I0403 19:04:35.265285 18638 layer_factory.hpp:77] Creating layer inception_5b/output
I0403 19:04:35.265303 18638 net.cpp:91] Creating Layer inception_5b/output
I0403 19:04:35.265332 18638 net.cpp:425] inception_5b/output <- inception_5b/1x1
I0403 19:04:35.265350 18638 net.cpp:425] inception_5b/output <- inception_5b/3x3
I0403 19:04:35.265367 18638 net.cpp:425] inception_5b/output <- inception_5b/5x5
I0403 19:04:35.265383 18638 net.cpp:425] inception_5b/output <- inception_5b/pool_proj
I0403 19:04:35.265403 18638 net.cpp:399] inception_5b/output -> inception_5b/output
I0403 19:04:35.265453 18638 net.cpp:141] Setting up inception_5b/output
I0403 19:04:35.265476 18638 net.cpp:148] Top shape: 24 1024 7 7 (1204224)
I0403 19:04:35.265491 18638 net.cpp:156] Memory required for data: 1345864224
I0403 19:04:35.265504 18638 layer_factory.hpp:77] Creating layer pool5/7x7_s1
I0403 19:04:35.265524 18638 net.cpp:91] Creating Layer pool5/7x7_s1
I0403 19:04:35.265542 18638 net.cpp:425] pool5/7x7_s1 <- inception_5b/output
I0403 19:04:35.265560 18638 net.cpp:399] pool5/7x7_s1 -> pool5/7x7_s1
I0403 19:04:35.265774 18638 net.cpp:141] Setting up pool5/7x7_s1
I0403 19:04:35.265799 18638 net.cpp:148] Top shape: 24 1024 1 1 (24576)
I0403 19:04:35.265813 18638 net.cpp:156] Memory required for data: 1345962528
I0403 19:04:35.265827 18638 layer_factory.hpp:77] Creating layer pool5/drop_7x7_s1
I0403 19:04:35.265846 18638 net.cpp:91] Creating Layer pool5/drop_7x7_s1
I0403 19:04:35.265861 18638 net.cpp:425] pool5/drop_7x7_s1 <- pool5/7x7_s1
I0403 19:04:35.265880 18638 net.cpp:386] pool5/drop_7x7_s1 -> pool5/7x7_s1 (in-place)
I0403 19:04:35.265930 18638 net.cpp:141] Setting up pool5/drop_7x7_s1
I0403 19:04:35.265952 18638 net.cpp:148] Top shape: 24 1024 1 1 (24576)
I0403 19:04:35.265966 18638 net.cpp:156] Memory required for data: 1346060832
I0403 19:04:35.265985 18638 layer_factory.hpp:77] Creating layer loss3/classifier_plantvillage
I0403 19:04:35.266007 18638 net.cpp:91] Creating Layer loss3/classifier_plantvillage
I0403 19:04:35.266024 18638 net.cpp:425] loss3/classifier_plantvillage <- pool5/7x7_s1
I0403 19:04:35.266046 18638 net.cpp:399] loss3/classifier_plantvillage -> loss3/classifier_plantvillage
I0403 19:04:35.266459 18638 net.cpp:141] Setting up loss3/classifier_plantvillage
I0403 19:04:35.266485 18638 net.cpp:148] Top shape: 24 38 (912)
I0403 19:04:35.266499 18638 net.cpp:156] Memory required for data: 1346064480
I0403 19:04:35.266517 18638 layer_factory.hpp:77] Creating layer loss3/classifier_plantvillage_loss3/classifier_plantvillage_0_split
I0403 19:04:35.266535 18638 net.cpp:91] Creating Layer loss3/classifier_plantvillage_loss3/classifier_plantvillage_0_split
I0403 19:04:35.266551 18638 net.cpp:425] loss3/classifier_plantvillage_loss3/classifier_plantvillage_0_split <- loss3/classifier_plantvillage
I0403 19:04:35.266567 18638 net.cpp:399] loss3/classifier_plantvillage_loss3/classifier_plantvillage_0_split -> loss3/classifier_plantvillage_loss3/classifier_plantvillage_0_split_0
I0403 19:04:35.266587 18638 net.cpp:399] loss3/classifier_plantvillage_loss3/classifier_plantvillage_0_split -> loss3/classifier_plantvillage_loss3/classifier_plantvillage_0_split_1
I0403 19:04:35.266607 18638 net.cpp:399] loss3/classifier_plantvillage_loss3/classifier_plantvillage_0_split -> loss3/classifier_plantvillage_loss3/classifier_plantvillage_0_split_2
I0403 19:04:35.266629 18638 net.cpp:399] loss3/classifier_plantvillage_loss3/classifier_plantvillage_0_split -> loss3/classifier_plantvillage_loss3/classifier_plantvillage_0_split_3
I0403 19:04:35.266727 18638 net.cpp:141] Setting up loss3/classifier_plantvillage_loss3/classifier_plantvillage_0_split
I0403 19:04:35.266749 18638 net.cpp:148] Top shape: 24 38 (912)
I0403 19:04:35.266765 18638 net.cpp:148] Top shape: 24 38 (912)
I0403 19:04:35.266782 18638 net.cpp:148] Top shape: 24 38 (912)
I0403 19:04:35.266795 18638 net.cpp:148] Top shape: 24 38 (912)
I0403 19:04:35.266808 18638 net.cpp:156] Memory required for data: 1346079072
I0403 19:04:35.266822 18638 layer_factory.hpp:77] Creating layer loss1/loss
I0403 19:04:35.266844 18638 net.cpp:91] Creating Layer loss1/loss
I0403 19:04:35.266860 18638 net.cpp:425] loss1/loss <- loss1/classifier_plantvillage_loss1/classifier_plantvillage_0_split_0
I0403 19:04:35.266891 18638 net.cpp:425] loss1/loss <- label_data_1_split_0
…
