…
I0403 18:53:23.806392 17989 net.cpp:313] The NetState phase (1) differed from the phase (0) specified by a rule in layer data
I0403 18:53:23.807554 17989 net.cpp:49] Initializing net from parameters: 
state {
  phase: TEST
}
layer {
  name: "data"
  type: "Data"
  top: "data"
  top: "label"
  include {
    phase: TEST
  }
  transform_param {
    mirror: false
    crop_size: 224
    mean_file: "/home/mohanty/data/final_dataset/lmdb/segmented-60-40/mean.binaryproto"
  }
  data_param {
    source: "/home/mohanty/data/final_dataset/lmdb/segmented-60-40/test_db"
    batch_size: 24
    backend: LMDB
  }
}
layer {
  name: "conv1/7x7_s2"
  type: "Convolution"
  bottom: "data"
  top: "conv1/7x7_s2"
  param {
    lr_mult: 1
    decay_mult: 1
  }
  param {
    lr_mult: 2
    decay_mult: 0
  }
  convolution_param {
    num_output: 64
    pad: 3
    kernel_size: 7
    stride: 2
    weight_filler {
      type: "xavier"
      std: 0.1
    }
    bias_filler {
      type: "constant"
      value: 0.2
    }
  }
}
layer {
  name: "conv1/relu_7x7"
  type: "ReLU"
  bottom: "conv1/7x7_s2"
  top: "conv1/7x7_s2"
}
layer {
  name: "pool1/3x3_s2"
  type: "Pooling"
  bottom: "conv1/7x7_s2"
  top: "pool1/3x3_s2"
  pooling_param {
    pool: MAX
    kernel_size: 3
    stride: 2
  }
}
layer {
  name: "pool1/norm1"
  type: "LRN"
  bottom: "pool1/3x3_s2"
  top: "pool1/norm1"
  lrn_param {
    local_size: 5
    alpha: 0.0001
    beta: 0.75
  }
}
layer {
  name: "conv2/3x3_reduce"
  type: "Convolution"
  bottom: "pool1/norm1"
  top: "conv2/3x3_reduce"
  param {
    lr_mult: 1
    decay_mult: 1
  }
  param {
    lr_mult: 2
    decay_mult: 0
  }
  convolution_param {
    num_output: 64
    kernel_size: 1
    weight_filler {
      type: "xavier"
      std: 0.1
    }
    bias_filler {
      type: "constant"
      value: 0.2
    }
  }
}
layer {
  name: "conv2/relu_3x3_reduce"
  type: "ReLU"
  bottom: "conv2/3x3_reduce"
  top: "conv2/3x3_reduce"
}
layer {
  name: "conv2/3x3"
  type: "Convolution"
  bottom: "conv2/3x3_reduce"
  top: "conv2/3x3"
  param {
    lr_mult: 1
    decay_mult: 1
  }
  param {
    lr_mult: 2
    decay_mult: 0
  }
  convolution_param {
    num_output: 192
    pad: 1
    kernel_size: 3
    weight_filler {
      type: "xavier"
      std: 0.03
    }
    bias_filler {
      type: "constant"
      value: 0.2
    }
  }
}
layer {
  name: "conv2/relu_3x3"
  type: "ReLU"
  bottom: "conv2/3x3"
  top: "conv2/3x3"
}
layer {
  name: "conv2/norm2"
  type: "LRN"
  bottom: "conv2/3x3"
  top: "conv2/norm2"
  lrn_param {
    local_size: 5
    alpha: 0.0001
    beta: 0.75
  }
}
layer {
  name: "pool2/3x3_s2"
  type: "Pooling"
  bottom: "conv2/norm2"
  top: "pool2/3x3_s2"
  pooling_param {
    pool: MAX
    kernel_size: 3
    stride: 2
  }
}
layer {
  name: "inception_3a/1x1"
  type: "Convolution"
  bottom: "pool2/3x3_s2"
  top: "inception_3a/1x1"
  param {
    lr_mult: 1
    decay_mult: 1
  }
  param {
    lr_mult: 2
    decay_mult: 0
  }
  convolution_param {
    num_output: 64
    kernel_size: 1
    weight_filler {
      type: "xavier"
      std: 0.03
    }
    bias_filler {
      type: "constant"
      value: 0.2
    }
  }
}
layer {
  name: "inception_3a/relu_1x1"
  type: "ReLU"
  bottom: "inception_3a/1x1"
  top: "inception_3a/1x1"
}
layer {
  name: "inception_3a/3x3_reduce"
  type: "Convolution"
  bottom: "pool2/3x3_s2"
  top: "inception_3a/3x3_reduce"
  param {
    lr_mult: 1
    decay_mult: 1
  }
  param {
    lr_mult: 2
    decay_mult: 0
  }
  convolution_param {
    num_output: 96
    kernel_size: 1
    weight_filler {
      type: "xavier"
      std: 0.09
    }
    bias_filler {
      type: "constant"
      value: 0.2
    }
  }
}
layer {
  name: "inception_3a/relu_3x3_reduce"
  type: "ReLU"
  bottom: "inception_3a/3x3_reduce"
  top: "inception_3a/3x3_reduce"
}
layer {
  name: "inception_3a/3x3"
  type: "Convolution"
  bottom: "inception_3a/3x3_reduce"
  top: "inception_3a/3x3"
  param {
    lr_mult: 1
    decay_mult: 1
  }
  param {
    lr_mult: 2
    decay_mult: 0
  }
  convolution_param {
    num_output: 128
    pad: 1
    kernel_size: 3
    weight_filler {
      type: "xavier"
      std: 0.03
    }
    bias_filler {
      type: "constant"
      value: 0.2
    }
  }
}
layer {
  name: "inception_3a/relu_3x3"
  type: "ReLU"
  bottom: "inception_3a/3x3"
  top: "inception_3a/3x3"
}
layer {
  name: "inception_3a/5x5_reduce"
  type: "Convolution"
  bottom: "pool2/3x3_s2"
  top: "inception_3a/5x5_reduce"
  param {
    lr_mult: 1
    decay_mult: 1
  }
  param {
    lr_mult: 2
    decay_mult: 0
  }
  convolution_param {
    num_output: 16
    kernel_size: 1
    weight_filler {
      type: "xavier"
      std: 0.2
    }
    bias_filler {
      type: "constant"
      value: 0.2
    }
  }
}
layer {
  name: "inception_3a/relu_5x5_reduce"
  type: "ReLU"
  bottom: "inception_3a/5x5_reduce"
  top: "inception_3a/5x5_reduce"
}
layer {
  name: "inception_3a/5x5"
  type: "Convolution"
  bottom: "inception_3a/5x5_reduce"
  top: "inception_3a/5x5"
  param {
    lr_mult: 1
    decay_mult: 1
  }
  param {
    lr_mult: 2
    decay_mult: 0
  }
  convolution_param {
    num_output: 32
    pad: 2
    kernel_size: 5
    weight_filler {
      type: "xavier"
      std: 0.03
    }
    bias_filler {
      type: "constant"
      value: 0.2
    }
  }
}
layer {
  name: "inception_3a/relu_5x5"
  type: "ReLU"
  bottom: "inception_3a/5x5"
  top: "inception_3a/5x5"
}
layer {
  name: "inception_3a/pool"
  type: "Pooling"
  bottom: "pool2/3x3_s2"
  top: "inception_3a/pool"
  pooling_param {
    pool: MAX
    kernel_size: 3
    stride: 1
    pad: 1
  }
}
layer {
  name: "inception_3a/pool_proj"
  type: "Convolution"
  bottom: "inception_3a/pool"
  top: "inception_3a/pool_proj"
  param {
    lr_mult: 1
    decay_mult: 1
  }
  param {
    lr_mult: 2
    decay_mult: 0
  }
  convolution_param {
    num_output: 32
    kernel_size: 1
    weight_filler {
      type: "xavier"
      std: 0.1
    }
    bias_filler {
      type: "constant"
      value: 0.2
    }
  }
}
layer {
  name: "inception_3a/relu_pool_proj"
  type: "ReLU"
  bottom: "inception_3a/pool_proj"
  top: "inception_3a/pool_proj"
}
layer {
  name: "inception_3a/output"
  type: "Concat"
  bottom: "inception_3a/1x1"
  bottom: "inception_3a/3x3"
  bottom: "inception_3a/5x5"
  bottom: "inception_3a/pool_proj"
  top: "inception_3a/output"
}
layer {
  name: "inception_3b/1x1"
  type: "Convolution"
  bottom: "inception_3a/output"
  top: "inception_3b/1x1"
  param {
    lr_mult: 1
    decay_mult: 1
  }
  param {
    lr_mult: 2
    decay_mult: 0
  }
  convolution_param {
    num_output: 128
    kernel_size: 1
    weight_filler {
      type: "xavier"
      std: 0.03
    }
    bias_filler {
      type: "constant"
      value: 0.2
    }
  }
}
layer {
  name: "inception_3b/relu_1x1"
  type: "ReLU"
  bottom: "inception_3b/1x1"
  top: "inception_3b/1x1"
}
layer {
  name: "inception_3b/3x3_reduce"
  type: "Convolution"
  bottom: "inception_3a/output"
  top: "inception_3b/3x3_reduce"
  param {
    lr_mult: 1
    decay_mult: 1
  }
  param {
    lr_mult: 2
    decay_mult: 0
  }
  convolution_param {
    num_output: 128
    kernel_size: 1
    weight_filler {
      type: "xavier"
      std: 0.09
    }
    bias_filler {
      type: "constant"
      value: 0.2
    }
  }
}
layer {
  name: "inception_3b/relu_3x3_reduce"
  type: "ReLU"
  bottom: "inception_3b/3x3_reduce"
  top: "inception_3b/3x3_reduce"
}
layer {
  name: "inception_3b/3x3"
  type: "Convolution"
  bottom: "inception_3b/3x3_reduce"
  top: "inception_3b/3x3"
  param {
    lr_mult: 1
    decay_mult: 1
  }
  param {
    lr_mult: 2
    decay_mult: 0
  }
  convolution_param {
    num_output: 192
    pad: 1
    kernel_size: 3
    weight_filler {
      type: "xavier"
      std: 0.03
    }
    bias_filler {
      type: "constant"
      value: 0.2
    }
  }
}
layer {
  name: "inception_3b/relu_3x3"
  type: "ReLU"
  bottom: "inception_3b/3x3"
  top: "inception_3b/3x3"
}
layer {
  name: "inception_3b/5x5_reduce"
  type: "Convolution"
  bottom: "inception_3a/output"
  top: "inception_3b/5x5_reduce"
  param {
    lr_mult: 1
    decay_mult: 1
  }
  param {
    lr_mult: 2
    decay_mult: 0
  }
  convolution_param {
    num_output: 32
    kernel_size: 1
    weight_filler {
      type: "xavier"
      std: 0.2
    }
    bias_filler {
      type: "constant"
      value: 0.2
    }
  }
}
layer {
  name: "inception_3b/relu_5x5_reduce"
  type: "ReLU"
  bottom: "inception_3b/5x5_reduce"
  top: "inception_3b/5x5_reduce"
}
layer {
  name: "inception_3b/5x5"
  type: "Convolution"
  bottom: "inception_3b/5x5_reduce"
  top: "inception_3b/5x5"
  param {
    lr_mult: 1
    decay_mult: 1
  }
  param {
    lr_mult: 2
    decay_mult: 0
  }
  convolution_param {
    num_output: 96
    pad: 2
    kernel_size: 5
    weight_filler {
      type: "xavier"
      std: 0.03
    }
    bias_filler {
      type: "constant"
      value: 0.2
    }
  }
}
layer {
  name: "inception_3b/relu_5x5"
  type: "ReLU"
  bottom: "inception_3b/5x5"
  top: "inception_3b/5x5"
}
layer {
  name: "inception_3b/pool"
  type: "Pooling"
  bottom: "inception_3a/output"
  top: "inception_3b/pool"
  pooling_param {
    pool: MAX
    kernel_size: 3
    stride: 1
    pad: 1
  }
}
layer {
  name: "inception_3b/pool_proj"
  type: "Convolution"
  bottom: "inception_3b/pool"
  top: "inception_3b/pool_proj"
  param {
    lr_mult: 1
    decay_mult: 1
  }
  param {
    lr_mult: 2
    decay_mult: 0
  }
  convolution_param {
    num_output: 64
    kernel_size: 1
    weight_filler {
      type: "xavier"
      std: 0.1
    }
    bias_filler {
      type: "constant"
      value: 0.2
    }
  }
}
layer {
  name: "inception_3b/relu_pool_proj"
  type: "ReLU"
  bottom: "inception_3b/pool_proj"
  top: "inception_3b/pool_proj"
}
layer {
  name: "inception_3b/output"
  type: "Concat"
  bottom: "inception_3b/1x1"
  bottom: "inception_3b/3x3"
  bottom: "inception_3b/5x5"
  bottom: "inception_3b/pool_proj"
  top: "inception_3b/output"
}
layer {
  name: "pool3/3x3_s2"
  type: "Pooling"
  bottom: "inception_3b/output"
  top: "pool3/3x3_s2"
  pooling_param {
    pool: MAX
    kernel_size: 3
    stride: 2
  }
}
layer {
  name: "inception_4a/1x1"
  type: "Convolution"
  bottom: "pool3/3x3_s2"
  top: "inception_4a/1x1"
  param {
    lr_mult: 1
    decay_mult: 1
  }
  param {
    lr_mult: 2
    decay_mult: 0
  }
  convolution_param {
    num_output: 192
    kernel_size: 1
    weight_filler {
      type: "xavier"
      std: 0.03
    }
    bias_filler {
      type: "constant"
      value: 0.2
    }
  }
}
layer {
  name: "inception_4a/relu_1x1"
  type: "ReLU"
  bottom: "inception_4a/1x1"
  top: "inception_4a/1x1"
}
layer {
  name: "inception_4a/3x3_reduce"
  type: "Convolution"
  bottom: "pool3/3x3_s2"
  top: "inception_4a/3x3_reduce"
  param {
    lr_mult: 1
    decay_mult: 1
  }
  param {
    lr_mult: 2
    decay_mult: 0
  }
  convolution_param {
    num_output: 96
    kernel_size: 1
    weight_filler {
      type: "xavier"
      std: 0.09
    }
    bias_filler {
      type: "constant"
      value: 0.2
    }
  }
}
layer {
  name: "inception_4a/relu_3x3_reduce"
  type: "ReLU"
  bottom: "inception_4a/3x3_reduce"
  top: "inception_4a/3x3_reduce"
}
layer {
  name: "inception_4a/3x3"
  type: "Convolution"
  bottom: "inception_4a/3x3_reduce"
  top: "inception_4a/3x3"
  param {
    lr_mult: 1
    decay_mult: 1
  }
  param {
    lr_mult: 2
    decay_mult: 0
  }
  convolution_param {
    num_output: 208
    pad: 1
    kernel_size: 3
    weight_filler {
      type: "xavier"
      std: 0.03
    }
    bias_filler {
      type: "constant"
      value: 0.2
    }
  }
}
layer {
  name: "inception_4a/relu_3x3"
  type: "ReLU"
  bottom: "inception_4a/3x3"
  top: "inception_4a/3x3"
}
layer {
  name: "inception_4a/5x5_reduce"
  type: "Convolution"
  bottom: "pool3/3x3_s2"
  top: "inception_4a/5x5_reduce"
  param {
    lr_mult: 1
    decay_mult: 1
  }
  param {
    lr_mult: 2
    decay_mult: 0
  }
  convolution_param {
    num_output: 16
    kernel_size: 1
    weight_filler {
      type: "xavier"
      std: 0.2
    }
    bias_filler {
      type: "constant"
      value: 0.2
    }
  }
}
layer {
  name: "inception_4a/relu_5x5_reduce"
  type: "ReLU"
  bottom: "inception_4a/5x5_reduce"
  top: "inception_4a/5x5_reduce"
}
layer {
  name: "inception_4a/5x5"
  type: "Convolution"
  bottom: "inception_4a/5x5_reduce"
  top: "inception_4a/5x5"
  param {
    lr_mult: 1
    decay_mult: 1
  }
  param {
    lr_mult: 2
    decay_mult: 0
  }
  convolution_param {
    num_output: 48
    pad: 2
    kernel_size: 5
    weight_filler {
      type: "xavier"
      std: 0.03
    }
    bias_filler {
      type: "constant"
      value: 0.2
    }
  }
}
layer {
  name: "inception_4a/relu_5x5"
  type: "ReLU"
  bottom: "inception_4a/5x5"
  top: "inception_4a/5x5"
}
layer {
  name: "inception_4a/pool"
  type: "Pooling"
  bottom: "pool3/3x3_s2"
  top: "inception_4a/pool"
  pooling_param {
    pool: MAX
    kernel_size: 3
    stride: 1
    pad: 1
  }
}
layer {
  name: "inception_4a/pool_proj"
  type: "Convolution"
  bottom: "inception_4a/pool"
  top: "inception_4a/pool_proj"
  param {
    lr_mult: 1
    decay_mult: 1
  }
  param {
    lr_mult: 2
    decay_mult: 0
  }
  convolution_param {
    num_output: 64
    kernel_size: 1
    weight_filler {
      type: "xavier"
      std: 0.1
    }
    bias_filler {
      type: "constant"
      value: 0.2
    }
  }
}
layer {
  name: "inception_4a/relu_pool_proj"
  type: "ReLU"
  bottom: "inception_4a/pool_proj"
  top: "inception_4a/pool_proj"
}
layer {
  name: "inception_4a/output"
  type: "Concat"
  bottom: "inception_4a/1x1"
  bottom: "inception_4a/3x3"
  bottom: "inception_4a/5x5"
  bottom: "inception_4a/pool_proj"
  top: "inception_4a/output"
}
layer {
  name: "loss1/ave_pool"
  type: "Pooling"
  bottom: "inception_4a/output"
  top: "loss1/ave_pool"
  pooling_param {
    pool: AVE
    kernel_size: 5
    stride: 3
  }
}
layer {
  name: "loss1/conv"
  type: "Convolution"
  bottom: "loss1/ave_pool"
  top: "loss1/conv"
  param {
    lr_mult: 1
    decay_mult: 1
  }
  param {
    lr_mult: 2
    decay_mult: 0
  }
  convolution_param {
    num_output: 128
    kernel_size: 1
    weight_filler {
      type: "xavier"
      std: 0.08
    }
    bias_filler {
      type: "constant"
      value: 0.2
    }
  }
}
layer {
  name: "loss1/relu_conv"
  type: "ReLU"
  bottom: "loss1/conv"
  top: "loss1/conv"
}
layer {
  name: "loss1/fc"
  type: "InnerProduct"
  bottom: "loss1/conv"
  top: "loss1/fc"
  param {
    lr_mult: 1
    decay_mult: 1
  }
  param {
    lr_mult: 2
    decay_mult: 0
  }
  inner_product_param {
    num_output: 1024
    weight_filler {
      type: "xavier"
      std: 0.02
    }
    bias_filler {
      type: "constant"
      value: 0.2
    }
  }
}
layer {
  name: "loss1/relu_fc"
  type: "ReLU"
  bottom: "loss1/fc"
  top: "loss1/fc"
}
layer {
  name: "loss1/drop_fc"
  type: "Dropout"
  bottom: "loss1/fc"
  top: "loss1/fc"
  dropout_param {
    dropout_ratio: 0.7
  }
}
layer {
  name: "loss1/classifier_plantvillage"
  type: "InnerProduct"
  bottom: "loss1/fc"
  top: "loss1/classifier_plantvillage"
  param {
    lr_mult: 1
    decay_mult: 1
  }
  param {
    lr_mult: 2
    decay_mult: 0
  }
  inner_product_param {
    num_output: 38
    weight_filler {
      type: "xavier"
      std: 0.0009765625
    }
    bias_filler {
      type: "constant"
      value: 0
    }
  }
}
layer {
  name: "inception_4b/1x1"
  type: "Convolution"
  bottom: "inception_4a/output"
  top: "inception_4b/1x1"
  param {
    lr_mult: 1
    decay_mult: 1
  }
  param {
    lr_mult: 2
    decay_mult: 0
  }
  convolution_param {
    num_output: 160
    kernel_size: 1
    weight_filler {
      type: "xavier"
      std: 0.03
    }
    bias_filler {
      type: "constant"
      value: 0.2
    }
  }
}
layer {
  name: "inception_4b/relu_1x1"
  type: "ReLU"
  bottom: "inception_4b/1x1"
  top: "inception_4b/1x1"
}
layer {
  name: "inception_4b/3x3_reduce"
  type: "Convolution"
  bottom: "inception_4a/output"
  top: "inception_4b/3x3_reduce"
  param {
    lr_mult: 1
    decay_mult: 1
  }
  param {
    lr_mult: 2
    decay_mult: 0
  }
  convolution_param {
    num_output: 112
    kernel_size: 1
    weight_filler {
      type: "xavier"
      std: 0.09
    }
    bias_filler {
      type: "constant"
      value: 0.2
    }
  }
}
layer {
  name: "inception_4b/relu_3x3_reduce"
  type: "ReLU"
  bottom: "inception_4b/3x3_reduce"
  top: "inception_4b/3x3_reduce"
}
layer {
  name: "inception_4b/3x3"
  type: "Convolution"
  bottom: "inception_4b/3x3_reduce"
  top: "inception_4b/3x3"
  param {
    lr_mult: 1
    decay_mult: 1
  }
  param {
    lr_mult: 2
    decay_mult: 0
  }
  convolution_param {
    num_output: 224
    pad: 1
    kernel_size: 3
    weight_filler {
      type: "xavier"
      std: 0.03
    }
    bias_filler {
      type: "constant"
      value: 0.2
    }
  }
}
layer {
  name: "inception_4b/relu_3x3"
  type: "ReLU"
  bottom: "inception_4b/3x3"
  top: "inception_4b/3x3"
}
layer {
  name: "inception_4b/5x5_reduce"
  type: "Convolution"
  bottom: "inception_4a/output"
  top: "inception_4b/5x5_reduce"
  param {
    lr_mult: 1
    decay_mult: 1
  }
  param {
    lr_mult: 2
    decay_mult: 0
  }
  convolution_param {
    num_output: 24
    kernel_size: 1
    weight_filler {
      type: "xavier"
      std: 0.2
    }
    bias_filler {
      type: "constant"
      value: 0.2
    }
  }
}
layer {
  name: "inception_4b/relu_5x5_reduce"
  type: "ReLU"
  bottom: "inception_4b/5x5_reduce"
  top: "inception_4b/5x5_reduce"
}
layer {
  name: "inception_4b/5x5"
  type: "Convolution"
  bottom: "inception_4b/5x5_reduce"
  top: "inception_4b/5x5"
  param {
    lr_mult: 1
    decay_mult: 1
  }
  param {
    lr_mult: 2
    decay_mult: 0
  }
  convolution_param {
    num_output: 64
    pad: 2
    kernel_size: 5
    weight_filler {
      type: "xavier"
      std: 0.03
    }
    bias_filler {
      type: "constant"
      value: 0.2
    }
  }
}
layer {
  name: "inception_4b/relu_5x5"
  type: "ReLU"
  bottom: "inception_4b/5x5"
  top: "inception_4b/5x5"
}
layer {
  name: "inception_4b/pool"
  type: "Pooling"
  bottom: "inception_4a/output"
  top: "inception_4b/pool"
  pooling_param {
    pool: MAX
    kernel_size: 3
    stride: 1
    pad: 1
  }
}
layer {
  name: "inception_4b/pool_proj"
  type: "Convolution"
  bottom: "inception_4b/pool"
  top: "inception_4b/pool_proj"
  param {
    lr_mult: 1
    decay_mult: 1
  }
  param {
    lr_mult: 2
    decay_mult: 0
  }
  convolution_param {
    num_output: 64
    kernel_size: 1
    weight_filler {
      type: "xavier"
      std: 0.1
    }
    bias_filler {
      type: "constant"
      value: 0.2
    }
  }
}
layer {
  name: "inception_4b/relu_pool_proj"
  type: "ReLU"
  bottom: "inception_4b/pool_proj"
  top: "inception_4b/pool_proj"
}
layer {
  name: "inception_4b/output"
  type: "Concat"
  bottom: "inception_4b/1x1"
  bottom: "inception_4b/3x3"
  bottom: "inception_4b/5x5"
  bottom: "inception_4b/pool_proj"
  top: "inception_4b/output"
}
layer {
  name: "inception_4c/1x1"
  type: "Convolution"
  bottom: "inception_4b/output"
  top: "inception_4c/1x1"
  param {
    lr_mult: 1
    decay_mult: 1
  }
  param {
    lr_mult: 2
    decay_mult: 0
  }
  convolution_param {
    num_output: 128
    kernel_size: 1
    weight_filler {
      type: "xavier"
      std: 0.03
    }
    bias_filler {
      type: "constant"
      value: 0.2
    }
  }
}
layer {
  name: "inception_4c/relu_1x1"
  type: "ReLU"
  bottom: "inception_4c/1x1"
  top: "inception_4c/1x1"
}
layer {
  name: "inception_4c/3x3_reduce"
  type: "Convolution"
  bottom: "inception_4b/output"
  top: "inception_4c/3x3_reduce"
  param {
    lr_mult: 1
    decay_mult: 1
  }
  param {
    lr_mult: 2
    decay_mult: 0
  }
  convolution_param {
    num_output: 128
    kernel_size: 1
    weight_filler {
      type: "xavier"
      std: 0.09
    }
    bias_filler {
      type: "constant"
      value: 0.2
    }
  }
}
layer {
  name: "inception_4c/relu_3x3_reduce"
  type: "ReLU"
  bottom: "inception_4c/3x3_reduce"
  top: "inception_4c/3x3_reduce"
}
layer {
  name: "inception_4c/3x3"
  type: "Convolution"
  bottom: "inception_4c/3x3_reduce"
  top: "inception_4c/3x3"
  param {
    lr_mult: 1
    decay_mult: 1
  }
  param {
    lr_mult: 2
    decay_mult: 0
  }
  convolution_param {
    num_output: 256
    pad: 1
    kernel_size: 3
    weight_filler {
      type: "xavier"
      std: 0.03
    }
    bias_filler {
      type: "constant"
      value: 0.2
    }
  }
}
layer {
  name: "inception_4c/relu_3x3"
  type: "ReLU"
  bottom: "inception_4c/3x3"
  top: "inception_4c/3x3"
}
layer {
  name: "inception_4c/5x5_reduce"
  type: "Convolution"
  bottom: "inception_4b/output"
  top: "inception_4c/5x5_reduce"
  param {
    lr_mult: 1
    decay_mult: 1
  }
  param {
    lr_mult: 2
    decay_mult: 0
  }
  convolution_param {
    num_output: 24
    kernel_size: 1
    weight_filler {
      type: "xavier"
      std: 0.2
    }
    bias_filler {
      type: "constant"
      value: 0.2
    }
  }
}
layer {
  name: "inception_4c/relu_5x5_reduce"
  type: "ReLU"
  bottom: "inception_4c/5x5_reduce"
  top: "inception_4c/5x5_reduce"
}
layer {
  name: "inception_4c/5x5"
  type: "Convolution"
  bottom: "inception_4c/5x5_reduce"
  top: "inception_4c/5x5"
  param {
    lr_mult: 1
    decay_mult: 1
  }
  param {
    lr_mult: 2
    decay_mult: 0
  }
  convolution_param {
    num_output: 64
    pad: 2
    kernel_size: 5
    weight_filler {
      type: "xavier"
      std: 0.03
    }
    bias_filler {
      type: "constant"
      value: 0.2
    }
  }
}
layer {
  name: "inception_4c/relu_5x5"
  type: "ReLU"
  bottom: "inception_4c/5x5"
  top: "inception_4c/5x5"
}
layer {
  name: "inception_4c/pool"
  type: "Pooling"
  bottom: "inception_4b/output"
  top: "inception_4c/pool"
  pooling_param {
    pool: MAX
    kernel_size: 3
    stride: 1
    pad: 1
  }
}
layer {
  name: "inception_4c/pool_proj"
  type: "Convolution"
  bottom: "inception_4c/pool"
  top: "inception_4c/pool_proj"
  param {
    lr_mult: 1
    decay_mult: 1
  }
  param {
    lr_mult: 2
    decay_mult: 0
  }
  convolution_param {
    num_output: 64
    kernel_size: 1
    weight_filler {
      type: "xavier"
      std: 0.1
    }
    bias_filler {
      type: "constant"
      value: 0.2
    }
  }
}
layer {
  name: "inception_4c/relu_pool_proj"
  type: "ReLU"
  bottom: "inception_4c/pool_proj"
  top: "inception_4c/pool_proj"
}
layer {
  name: "inception_4c/output"
  type: "Concat"
  bottom: "inception_4c/1x1"
  bottom: "inception_4c/3x3"
  bottom: "inception_4c/5x5"
  bottom: "inception_4c/pool_proj"
  top: "inception_4c/output"
}
layer {
  name: "inception_4d/1x1"
  type: "Convolution"
  bottom: "inception_4c/output"
  top: "inception_4d/1x1"
  param {
    lr_mult: 1
    decay_mult: 1
  }
  param {
    lr_mult: 2
    decay_mult: 0
  }
  convolution_param {
    num_output: 112
    kernel_size: 1
    weight_filler {
      type: "xavier"
      std: 0.03
    }
    bias_filler {
      type: "constant"
      value: 0.2
    }
  }
}
layer {
  name: "inception_4d/relu_1x1"
  type: "ReLU"
  bottom: "inception_4d/1x1"
  top: "inception_4d/1x1"
}
layer {
  name: "inception_4d/3x3_reduce"
  type: "Convolution"
  bottom: "inception_4c/output"
  top: "inception_4d/3x3_reduce"
  param {
    lr_mult: 1
    decay_mult: 1
  }
  param {
    lr_mult: 2
    decay_mult: 0
  }
  convolution_param {
    num_output: 144
    kernel_size: 1
    weight_filler {
      type: "xavier"
      std: 0.09
    }
    bias_filler {
      type: "constant"
      value: 0.2
    }
  }
}
layer {
  name: "inception_4d/relu_3x3_reduce"
  type: "ReLU"
  bottom: "inception_4d/3x3_reduce"
  top: "inception_4d/3x3_reduce"
}
layer {
  name: "inception_4d/3x3"
  type: "Convolution"
  bottom: "inception_4d/3x3_reduce"
  top: "inception_4d/3x3"
  param {
    lr_mult: 1
    decay_mult: 1
  }
  param {
    lr_mult: 2
    decay_mult: 0
  }
  convolution_param {
    num_output: 288
    pad: 1
    kernel_size: 3
    weight_filler {
      type: "xavier"
      std: 0.03
    }
    bias_filler {
      type: "constant"
      value: 0.2
    }
  }
}
layer {
  name: "inception_4d/relu_3x3"
  type: "ReLU"
  bottom: "inception_4d/3x3"
  top: "inception_4d/3x3"
}
layer {
  name: "inception_4d/5x5_reduce"
  type: "Convolution"
  bottom: "inception_4c/output"
  top: "inception_4d/5x5_reduce"
  param {
    lr_mult: 1
    decay_mult: 1
  }
  param {
    lr_mult: 2
    decay_mult: 0
  }
  convolution_param {
    num_output: 32
    kernel_size: 1
    weight_filler {
      type: "xavier"
      std: 0.2
    }
    bias_filler {
      type: "constant"
      value: 0.2
    }
  }
}
layer {
  name: "inception_4d/relu_5x5_reduce"
  type: "ReLU"
  bottom: "inception_4d/5x5_reduce"
  top: "inception_4d/5x5_reduce"
}
layer {
  name: "inception_4d/5x5"
  type: "Convolution"
  bottom: "inception_4d/5x5_reduce"
  top: "inception_4d/5x5"
  param {
    lr_mult: 1
    decay_mult: 1
  }
  param {
    lr_mult: 2
    decay_mult: 0
  }
  convolution_param {
    num_output: 64
    pad: 2
    kernel_size: 5
    weight_filler {
      type: "xavier"
      std: 0.03
    }
    bias_filler {
      type: "constant"
      value: 0.2
    }
  }
}
layer {
  name: "inception_4d/relu_5x5"
  type: "ReLU"
  bottom: "inception_4d/5x5"
  top: "inception_4d/5x5"
}
layer {
  name: "inception_4d/pool"
  type: "Pooling"
  bottom: "inception_4c/output"
  top: "inception_4d/pool"
  pooling_param {
    pool: MAX
    kernel_size: 3
    stride: 1
    pad: 1
  }
}
layer {
  name: "inception_4d/pool_proj"
  type: "Convolution"
  bottom: "inception_4d/pool"
  top: "inception_4d/pool_proj"
  param {
    lr_mult: 1
    decay_mult: 1
  }
  param {
    lr_mult: 2
    decay_mult: 0
  }
  convolution_param {
    num_output: 64
    kernel_size: 1
    weight_filler {
      type: "xavier"
      std: 0.1
    }
    bias_filler {
      type: "constant"
      value: 0.2
    }
  }
}
layer {
  name: "inception_4d/relu_pool_proj"
  type: "ReLU"
  bottom: "inception_4d/pool_proj"
  top: "inception_4d/pool_proj"
}
layer {
  name: "inception_4d/output"
  type: "Concat"
  bottom: "inception_4d/1x1"
  bottom: "inception_4d/3x3"
  bottom: "inception_4d/5x5"
  bottom: "inception_4d/pool_proj"
  top: "inception_4d/output"
}
layer {
  name: "loss2/ave_pool"
  type: "Pooling"
  bottom: "inception_4d/output"
  top: "loss2/ave_pool"
  pooling_param {
    pool: AVE
    kernel_size: 5
    stride: 3
  }
}
layer {
  name: "loss2/conv"
  type: "Convolution"
  bottom: "loss2/ave_pool"
  top: "loss2/conv"
  param {
    lr_mult: 1
    decay_mult: 1
  }
  param {
    lr_mult: 2
    decay_mult: 0
  }
  convolution_param {
    num_output: 128
    kernel_size: 1
    weight_filler {
      type: "xavier"
      std: 0.08
    }
    bias_filler {
      type: "constant"
      value: 0.2
    }
  }
}
layer {
  name: "loss2/relu_conv"
  type: "ReLU"
  bottom: "loss2/conv"
  top: "loss2/conv"
}
layer {
  name: "loss2/fc"
  type: "InnerProduct"
  bottom: "loss2/conv"
  top: "loss2/fc"
  param {
    lr_mult: 1
    decay_mult: 1
  }
  param {
    lr_mult: 2
    decay_mult: 0
  }
  inner_product_param {
    num_output: 1024
    weight_filler {
      type: "xavier"
      std: 0.02
    }
    bias_filler {
      type: "constant"
      value: 0.2
    }
  }
}
layer {
  name: "loss2/relu_fc"
  type: "ReLU"
  bottom: "loss2/fc"
  top: "loss2/fc"
}
layer {
  name: "loss2/drop_fc"
  type: "Dropout"
  bottom: "loss2/fc"
  top: "loss2/fc"
  dropout_param {
    dropout_ratio: 0.7
  }
}
layer {
  name: "loss2/classifier_plantvillage"
  type: "InnerProduct"
  bottom: "loss2/fc"
  top: "loss2/classifier_plantvillage"
  param {
    lr_mult: 1
    decay_mult: 1
  }
  param {
    lr_mult: 2
    decay_mult: 0
  }
  inner_product_param {
    num_output: 38
    weight_filler {
      type: "xavier"
      std: 0.0009765625
    }
    bias_filler {
      type: "constant"
      value: 0
    }
  }
}
layer {
  name: "inception_4e/1x1"
  type: "Convolution"
  bottom: "inception_4d/output"
  top: "inception_4e/1x1"
  param {
    lr_mult: 1
    decay_mult: 1
  }
  param {
    lr_mult: 2
    decay_mult: 0
  }
  convolution_param {
    num_output: 256
    kernel_size: 1
    weight_filler {
      type: "xavier"
      std: 0.03
    }
    bias_filler {
      type: "constant"
      value: 0.2
    }
  }
}
layer {
  name: "inception_4e/relu_1x1"
  type: "ReLU"
  bottom: "inception_4e/1x1"
  top: "inception_4e/1x1"
}
layer {
  name: "inception_4e/3x3_reduce"
  type: "Convolution"
  bottom: "inception_4d/output"
  top: "inception_4e/3x3_reduce"
  param {
    lr_mult: 1
    decay_mult: 1
  }
  param {
    lr_mult: 2
    decay_mult: 0
  }
  convolution_param {
    num_output: 160
    kernel_size: 1
    weight_filler {
      type: "xavier"
      std: 0.09
    }
    bias_filler {
      type: "constant"
      value: 0.2
    }
  }
}
layer {
  name: "inception_4e/relu_3x3_reduce"
  type: "ReLU"
  bottom: "inception_4e/3x3_reduce"
  top: "inception_4e/3x3_reduce"
}
layer {
  name: "inception_4e/3x3"
  type: "Convolution"
  bottom: "inception_4e/3x3_reduce"
  top: "inception_4e/3x3"
  param {
    lr_mult: 1
    decay_mult: 1
  }
  param {
    lr_mult: 2
    decay_mult: 0
  }
  convolution_param {
    num_output: 320
    pad: 1
    kernel_size: 3
    weight_filler {
      type: "xavier"
      std: 0.03
    }
    bias_filler {
      type: "constant"
      value: 0.2
    }
  }
}
layer {
  name: "inception_4e/relu_3x3"
  type: "ReLU"
  bottom: "inception_4e/3x3"
  top: "inception_4e/3x3"
}
layer {
  name: "inception_4e/5x5_reduce"
  type: "Convolution"
  bottom: "inception_4d/output"
  top: "inception_4e/5x5_reduce"
  param {
    lr_mult: 1
    decay_mult: 1
  }
  param {
    lr_mult: 2
    decay_mult: 0
  }
  convolution_param {
    num_output: 32
    kernel_size: 1
    weight_filler {
      type: "xavier"
      std: 0.2
    }
    bias_filler {
      type: "constant"
      value: 0.2
    }
  }
}
layer {
  name: "inception_4e/relu_5x5_reduce"
  type: "ReLU"
  bottom: "inception_4e/5x5_reduce"
  top: "inception_4e/5x5_reduce"
}
layer {
  name: "inception_4e/5x5"
  type: "Convolution"
  bottom: "inception_4e/5x5_reduce"
  top: "inception_4e/
I0403 18:53:23.808825 17989 layer_factory.hpp:77] Creating layer data
I0403 18:53:23.809442 17989 net.cpp:91] Creating Layer data
I0403 18:53:23.809476 17989 net.cpp:399] data -> data
I0403 18:53:23.809530 17989 net.cpp:399] data -> label
I0403 18:53:23.809571 17989 data_transformer.cpp:25] Loading mean file from: /home/mohanty/data/final_dataset/lmdb/segmented-60-40/mean.binaryproto
I0403 18:53:23.810781 17993 db_lmdb.cpp:38] Opened lmdb /home/mohanty/data/final_dataset/lmdb/segmented-60-40/test_db
I0403 18:53:23.822640 17989 data_layer.cpp:41] output data size: 24,3,224,224
I0403 18:53:23.850136 17989 net.cpp:141] Setting up data
I0403 18:53:23.850222 17989 net.cpp:148] Top shape: 24 3 224 224 (3612672)
I0403 18:53:23.850246 17989 net.cpp:148] Top shape: 24 (24)
I0403 18:53:23.850262 17989 net.cpp:156] Memory required for data: 14450784
I0403 18:53:23.850291 17989 layer_factory.hpp:77] Creating layer label_data_1_split
I0403 18:53:23.850318 17989 net.cpp:91] Creating Layer label_data_1_split
I0403 18:53:23.850338 17989 net.cpp:425] label_data_1_split <- label
I0403 18:53:23.850370 17989 net.cpp:399] label_data_1_split -> label_data_1_split_0
I0403 18:53:23.850399 17989 net.cpp:399] label_data_1_split -> label_data_1_split_1
I0403 18:53:23.850422 17989 net.cpp:399] label_data_1_split -> label_data_1_split_2
I0403 18:53:23.850445 17989 net.cpp:399] label_data_1_split -> label_data_1_split_3
I0403 18:53:23.850464 17989 net.cpp:399] label_data_1_split -> label_data_1_split_4
I0403 18:53:23.850486 17989 net.cpp:399] label_data_1_split -> label_data_1_split_5
I0403 18:53:23.850507 17989 net.cpp:399] label_data_1_split -> label_data_1_split_6
I0403 18:53:23.850528 17989 net.cpp:399] label_data_1_split -> label_data_1_split_7
I0403 18:53:23.850550 17989 net.cpp:399] label_data_1_split -> label_data_1_split_8
I0403 18:53:23.850571 17989 net.cpp:399] label_data_1_split -> label_data_1_split_9
I0403 18:53:23.850692 17989 net.cpp:141] Setting up label_data_1_split
I0403 18:53:23.850718 17989 net.cpp:148] Top shape: 24 (24)
I0403 18:53:23.850735 17989 net.cpp:148] Top shape: 24 (24)
I0403 18:53:23.850752 17989 net.cpp:148] Top shape: 24 (24)
I0403 18:53:23.850769 17989 net.cpp:148] Top shape: 24 (24)
I0403 18:53:23.850786 17989 net.cpp:148] Top shape: 24 (24)
I0403 18:53:23.850802 17989 net.cpp:148] Top shape: 24 (24)
I0403 18:53:23.850821 17989 net.cpp:148] Top shape: 24 (24)
I0403 18:53:23.850837 17989 net.cpp:148] Top shape: 24 (24)
I0403 18:53:23.850853 17989 net.cpp:148] Top shape: 24 (24)
I0403 18:53:23.850872 17989 net.cpp:148] Top shape: 24 (24)
I0403 18:53:23.850916 17989 net.cpp:156] Memory required for data: 14451744
I0403 18:53:23.850934 17989 layer_factory.hpp:77] Creating layer conv1/7x7_s2
I0403 18:53:23.850968 17989 net.cpp:91] Creating Layer conv1/7x7_s2
I0403 18:53:23.850993 17989 net.cpp:425] conv1/7x7_s2 <- data
I0403 18:53:23.851016 17989 net.cpp:399] conv1/7x7_s2 -> conv1/7x7_s2
I0403 18:53:23.992127 17989 net.cpp:141] Setting up conv1/7x7_s2
I0403 18:53:23.992213 17989 net.cpp:148] Top shape: 24 64 112 112 (19267584)
I0403 18:53:23.992231 17989 net.cpp:156] Memory required for data: 91522080
I0403 18:53:23.992261 17989 layer_factory.hpp:77] Creating layer conv1/relu_7x7
I0403 18:53:23.992290 17989 net.cpp:91] Creating Layer conv1/relu_7x7
I0403 18:53:23.992308 17989 net.cpp:425] conv1/relu_7x7 <- conv1/7x7_s2
I0403 18:53:23.992329 17989 net.cpp:386] conv1/relu_7x7 -> conv1/7x7_s2 (in-place)
I0403 18:53:23.992595 17989 net.cpp:141] Setting up conv1/relu_7x7
I0403 18:53:23.992621 17989 net.cpp:148] Top shape: 24 64 112 112 (19267584)
I0403 18:53:23.992637 17989 net.cpp:156] Memory required for data: 168592416
I0403 18:53:23.992653 17989 layer_factory.hpp:77] Creating layer pool1/3x3_s2
I0403 18:53:23.992681 17989 net.cpp:91] Creating Layer pool1/3x3_s2
I0403 18:53:23.992699 17989 net.cpp:425] pool1/3x3_s2 <- conv1/7x7_s2
I0403 18:53:23.992718 17989 net.cpp:399] pool1/3x3_s2 -> pool1/3x3_s2
I0403 18:53:23.992799 17989 net.cpp:141] Setting up pool1/3x3_s2
I0403 18:53:23.992823 17989 net.cpp:148] Top shape: 24 64 56 56 (4816896)
I0403 18:53:23.992838 17989 net.cpp:156] Memory required for data: 187860000
I0403 18:53:23.992853 17989 layer_factory.hpp:77] Creating layer pool1/norm1
I0403 18:53:23.992880 17989 net.cpp:91] Creating Layer pool1/norm1
I0403 18:53:23.992898 17989 net.cpp:425] pool1/norm1 <- pool1/3x3_s2
I0403 18:53:23.992918 17989 net.cpp:399] pool1/norm1 -> pool1/norm1
I0403 18:53:23.993212 17989 net.cpp:141] Setting up pool1/norm1
I0403 18:53:23.993238 17989 net.cpp:148] Top shape: 24 64 56 56 (4816896)
I0403 18:53:23.993255 17989 net.cpp:156] Memory required for data: 207127584
I0403 18:53:23.993270 17989 layer_factory.hpp:77] Creating layer conv2/3x3_reduce
I0403 18:53:23.993297 17989 net.cpp:91] Creating Layer conv2/3x3_reduce
I0403 18:53:23.993315 17989 net.cpp:425] conv2/3x3_reduce <- pool1/norm1
I0403 18:53:23.993337 17989 net.cpp:399] conv2/3x3_reduce -> conv2/3x3_reduce
I0403 18:53:23.994536 17989 net.cpp:141] Setting up conv2/3x3_reduce
I0403 18:53:23.994566 17989 net.cpp:148] Top shape: 24 64 56 56 (4816896)
I0403 18:53:23.994582 17989 net.cpp:156] Memory required for data: 226395168
I0403 18:53:23.994604 17989 layer_factory.hpp:77] Creating layer conv2/relu_3x3_reduce
I0403 18:53:23.994623 17989 net.cpp:91] Creating Layer conv2/relu_3x3_reduce
I0403 18:53:23.994640 17989 net.cpp:425] conv2/relu_3x3_reduce <- conv2/3x3_reduce
I0403 18:53:23.994659 17989 net.cpp:386] conv2/relu_3x3_reduce -> conv2/3x3_reduce (in-place)
I0403 18:53:23.994917 17989 net.cpp:141] Setting up conv2/relu_3x3_reduce
I0403 18:53:23.994943 17989 net.cpp:148] Top shape: 24 64 56 56 (4816896)
I0403 18:53:23.994958 17989 net.cpp:156] Memory required for data: 245662752
I0403 18:53:23.994974 17989 layer_factory.hpp:77] Creating layer conv2/3x3
I0403 18:53:23.995002 17989 net.cpp:91] Creating Layer conv2/3x3
I0403 18:53:23.995021 17989 net.cpp:425] conv2/3x3 <- conv2/3x3_reduce
I0403 18:53:23.995043 17989 net.cpp:399] conv2/3x3 -> conv2/3x3
I0403 18:53:23.997277 17989 net.cpp:141] Setting up conv2/3x3
I0403 18:53:23.997308 17989 net.cpp:148] Top shape: 24 192 56 56 (14450688)
I0403 18:53:23.997324 17989 net.cpp:156] Memory required for data: 303465504
I0403 18:53:23.997345 17989 layer_factory.hpp:77] Creating layer conv2/relu_3x3
I0403 18:53:23.997365 17989 net.cpp:91] Creating Layer conv2/relu_3x3
I0403 18:53:23.997381 17989 net.cpp:425] conv2/relu_3x3 <- conv2/3x3
I0403 18:53:23.997402 17989 net.cpp:386] conv2/relu_3x3 -> conv2/3x3 (in-place)
I0403 18:53:23.997575 17989 net.cpp:141] Setting up conv2/relu_3x3
I0403 18:53:23.997601 17989 net.cpp:148] Top shape: 24 192 56 56 (14450688)
I0403 18:53:23.997645 17989 net.cpp:156] Memory required for data: 361268256
I0403 18:53:23.997661 17989 layer_factory.hpp:77] Creating layer conv2/norm2
I0403 18:53:23.997683 17989 net.cpp:91] Creating Layer conv2/norm2
I0403 18:53:23.997699 17989 net.cpp:425] conv2/norm2 <- conv2/3x3
I0403 18:53:23.997717 17989 net.cpp:399] conv2/norm2 -> conv2/norm2
I0403 18:53:23.998019 17989 net.cpp:141] Setting up conv2/norm2
I0403 18:53:23.998049 17989 net.cpp:148] Top shape: 24 192 56 56 (14450688)
I0403 18:53:23.998065 17989 net.cpp:156] Memory required for data: 419071008
I0403 18:53:23.998080 17989 layer_factory.hpp:77] Creating layer pool2/3x3_s2
I0403 18:53:23.998100 17989 net.cpp:91] Creating Layer pool2/3x3_s2
I0403 18:53:23.998116 17989 net.cpp:425] pool2/3x3_s2 <- conv2/norm2
I0403 18:53:23.998133 17989 net.cpp:399] pool2/3x3_s2 -> pool2/3x3_s2
I0403 18:53:23.998188 17989 net.cpp:141] Setting up pool2/3x3_s2
I0403 18:53:23.998213 17989 net.cpp:148] Top shape: 24 192 28 28 (3612672)
I0403 18:53:23.998226 17989 net.cpp:156] Memory required for data: 433521696
I0403 18:53:23.998241 17989 layer_factory.hpp:77] Creating layer pool2/3x3_s2_pool2/3x3_s2_0_split
I0403 18:53:23.998260 17989 net.cpp:91] Creating Layer pool2/3x3_s2_pool2/3x3_s2_0_split
I0403 18:53:23.998275 17989 net.cpp:425] pool2/3x3_s2_pool2/3x3_s2_0_split <- pool2/3x3_s2
I0403 18:53:23.998296 17989 net.cpp:399] pool2/3x3_s2_pool2/3x3_s2_0_split -> pool2/3x3_s2_pool2/3x3_s2_0_split_0
I0403 18:53:23.998317 17989 net.cpp:399] pool2/3x3_s2_pool2/3x3_s2_0_split -> pool2/3x3_s2_pool2/3x3_s2_0_split_1
I0403 18:53:23.998337 17989 net.cpp:399] pool2/3x3_s2_pool2/3x3_s2_0_split -> pool2/3x3_s2_pool2/3x3_s2_0_split_2
I0403 18:53:23.998359 17989 net.cpp:399] pool2/3x3_s2_pool2/3x3_s2_0_split -> pool2/3x3_s2_pool2/3x3_s2_0_split_3
I0403 18:53:23.998433 17989 net.cpp:141] Setting up pool2/3x3_s2_pool2/3x3_s2_0_split
I0403 18:53:23.998456 17989 net.cpp:148] Top shape: 24 192 28 28 (3612672)
I0403 18:53:23.998473 17989 net.cpp:148] Top shape: 24 192 28 28 (3612672)
I0403 18:53:23.998489 17989 net.cpp:148] Top shape: 24 192 28 28 (3612672)
I0403 18:53:23.998507 17989 net.cpp:148] Top shape: 24 192 28 28 (3612672)
I0403 18:53:23.998522 17989 net.cpp:156] Memory required for data: 491324448
I0403 18:53:23.998538 17989 layer_factory.hpp:77] Creating layer inception_3a/1x1
I0403 18:53:23.998561 17989 net.cpp:91] Creating Layer inception_3a/1x1
I0403 18:53:23.998579 17989 net.cpp:425] inception_3a/1x1 <- pool2/3x3_s2_pool2/3x3_s2_0_split_0
I0403 18:53:23.998601 17989 net.cpp:399] inception_3a/1x1 -> inception_3a/1x1
I0403 18:53:24.000164 17989 net.cpp:141] Setting up inception_3a/1x1
I0403 18:53:24.000196 17989 net.cpp:148] Top shape: 24 64 28 28 (1204224)
I0403 18:53:24.000214 17989 net.cpp:156] Memory required for data: 496141344
I0403 18:53:24.000236 17989 layer_factory.hpp:77] Creating layer inception_3a/relu_1x1
I0403 18:53:24.000255 17989 net.cpp:91] Creating Layer inception_3a/relu_1x1
I0403 18:53:24.000272 17989 net.cpp:425] inception_3a/relu_1x1 <- inception_3a/1x1
I0403 18:53:24.000294 17989 net.cpp:386] inception_3a/relu_1x1 -> inception_3a/1x1 (in-place)
I0403 18:53:24.000470 17989 net.cpp:141] Setting up inception_3a/relu_1x1
I0403 18:53:24.000495 17989 net.cpp:148] Top shape: 24 64 28 28 (1204224)
I0403 18:53:24.000511 17989 net.cpp:156] Memory required for data: 500958240
I0403 18:53:24.000526 17989 layer_factory.hpp:77] Creating layer inception_3a/3x3_reduce
I0403 18:53:24.000550 17989 net.cpp:91] Creating Layer inception_3a/3x3_reduce
I0403 18:53:24.000569 17989 net.cpp:425] inception_3a/3x3_reduce <- pool2/3x3_s2_pool2/3x3_s2_0_split_1
I0403 18:53:24.000592 17989 net.cpp:399] inception_3a/3x3_reduce -> inception_3a/3x3_reduce
I0403 18:53:24.002303 17989 net.cpp:141] Setting up inception_3a/3x3_reduce
I0403 18:53:24.002334 17989 net.cpp:148] Top shape: 24 96 28 28 (1806336)
I0403 18:53:24.002351 17989 net.cpp:156] Memory required for data: 508183584
I0403 18:53:24.002373 17989 layer_factory.hpp:77] Creating layer inception_3a/relu_3x3_reduce
I0403 18:53:24.002413 17989 net.cpp:91] Creating Layer inception_3a/relu_3x3_reduce
I0403 18:53:24.002431 17989 net.cpp:425] inception_3a/relu_3x3_reduce <- inception_3a/3x3_reduce
I0403 18:53:24.002450 17989 net.cpp:386] inception_3a/relu_3x3_reduce -> inception_3a/3x3_reduce (in-place)
I0403 18:53:24.002635 17989 net.cpp:141] Setting up inception_3a/relu_3x3_reduce
I0403 18:53:24.002663 17989 net.cpp:148] Top shape: 24 96 28 28 (1806336)
I0403 18:53:24.002681 17989 net.cpp:156] Memory required for data: 515408928
I0403 18:53:24.002696 17989 layer_factory.hpp:77] Creating layer inception_3a/3x3
I0403 18:53:24.002720 17989 net.cpp:91] Creating Layer inception_3a/3x3
I0403 18:53:24.002739 17989 net.cpp:425] inception_3a/3x3 <- inception_3a/3x3_reduce
I0403 18:53:24.002759 17989 net.cpp:399] inception_3a/3x3 -> inception_3a/3x3
I0403 18:53:24.004437 17989 net.cpp:141] Setting up inception_3a/3x3
I0403 18:53:24.004467 17989 net.cpp:148] Top shape: 24 128 28 28 (2408448)
I0403 18:53:24.004483 17989 net.cpp:156] Memory required for data: 525042720
I0403 18:53:24.004503 17989 layer_factory.hpp:77] Creating layer inception_3a/relu_3x3
I0403 18:53:24.004523 17989 net.cpp:91] Creating Layer inception_3a/relu_3x3
I0403 18:53:24.004545 17989 net.cpp:425] inception_3a/relu_3x3 <- inception_3a/3x3
I0403 18:53:24.004565 17989 net.cpp:386] inception_3a/relu_3x3 -> inception_3a/3x3 (in-place)
I0403 18:53:24.004843 17989 net.cpp:141] Setting up inception_3a/relu_3x3
I0403 18:53:24.004870 17989 net.cpp:148] Top shape: 24 128 28 28 (2408448)
I0403 18:53:24.004885 17989 net.cpp:156] Memory required for data: 534676512
I0403 18:53:24.004902 17989 layer_factory.hpp:77] Creating layer inception_3a/5x5_reduce
I0403 18:53:24.004927 17989 net.cpp:91] Creating Layer inception_3a/5x5_reduce
I0403 18:53:24.004946 17989 net.cpp:425] inception_3a/5x5_reduce <- pool2/3x3_s2_pool2/3x3_s2_0_split_2
I0403 18:53:24.004968 17989 net.cpp:399] inception_3a/5x5_reduce -> inception_3a/5x5_reduce
I0403 18:53:24.005951 17989 net.cpp:141] Setting up inception_3a/5x5_reduce
I0403 18:53:24.005983 17989 net.cpp:148] Top shape: 24 16 28 28 (301056)
I0403 18:53:24.006001 17989 net.cpp:156] Memory required for data: 535880736
I0403 18:53:24.006021 17989 layer_factory.hpp:77] Creating layer inception_3a/relu_5x5_reduce
I0403 18:53:24.006043 17989 net.cpp:91] Creating Layer inception_3a/relu_5x5_reduce
I0403 18:53:24.006062 17989 net.cpp:425] inception_3a/relu_5x5_reduce <- inception_3a/5x5_reduce
I0403 18:53:24.006080 17989 net.cpp:386] inception_3a/relu_5x5_reduce -> inception_3a/5x5_reduce (in-place)
I0403 18:53:24.006386 17989 net.cpp:141] Setting up inception_3a/relu_5x5_reduce
I0403 18:53:24.006412 17989 net.cpp:148] Top shape: 24 16 28 28 (301056)
I0403 18:53:24.006428 17989 net.cpp:156] Memory required for data: 537084960
I0403 18:53:24.006445 17989 layer_factory.hpp:77] Creating layer inception_3a/5x5
I0403 18:53:24.006469 17989 net.cpp:91] Creating Layer inception_3a/5x5
I0403 18:53:24.006487 17989 net.cpp:425] inception_3a/5x5 <- inception_3a/5x5_reduce
I0403 18:53:24.006510 17989 net.cpp:399] inception_3a/5x5 -> inception_3a/5x5
I0403 18:53:24.007534 17989 net.cpp:141] Setting up inception_3a/5x5
I0403 18:53:24.007565 17989 net.cpp:148] Top shape: 24 32 28 28 (602112)
I0403 18:53:24.007581 17989 net.cpp:156] Memory required for data: 539493408
I0403 18:53:24.007602 17989 layer_factory.hpp:77] Creating layer inception_3a/relu_5x5
I0403 18:53:24.007622 17989 net.cpp:91] Creating Layer inception_3a/relu_5x5
I0403 18:53:24.007638 17989 net.cpp:425] inception_3a/relu_5x5 <- inception_3a/5x5
I0403 18:53:24.007659 17989 net.cpp:386] inception_3a/relu_5x5 -> inception_3a/5x5 (in-place)
I0403 18:53:24.007838 17989 net.cpp:141] Setting up inception_3a/relu_5x5
I0403 18:53:24.007863 17989 net.cpp:148] Top shape: 24 32 28 28 (602112)
I0403 18:53:24.007879 17989 net.cpp:156] Memory required for data: 541901856
I0403 18:53:24.007894 17989 layer_factory.hpp:77] Creating layer inception_3a/pool
I0403 18:53:24.007912 17989 net.cpp:91] Creating Layer inception_3a/pool
I0403 18:53:24.007951 17989 net.cpp:425] inception_3a/pool <- pool2/3x3_s2_pool2/3x3_s2_0_split_3
I0403 18:53:24.007974 17989 net.cpp:399] inception_3a/pool -> inception_3a/pool
I0403 18:53:24.008050 17989 net.cpp:141] Setting up inception_3a/pool
I0403 18:53:24.008075 17989 net.cpp:148] Top shape: 24 192 28 28 (3612672)
I0403 18:53:24.008091 17989 net.cpp:156] Memory required for data: 556352544
I0403 18:53:24.008107 17989 layer_factory.hpp:77] Creating layer inception_3a/pool_proj
I0403 18:53:24.008131 17989 net.cpp:91] Creating Layer inception_3a/pool_proj
I0403 18:53:24.008148 17989 net.cpp:425] inception_3a/pool_proj <- inception_3a/pool
I0403 18:53:24.008172 17989 net.cpp:399] inception_3a/pool_proj -> inception_3a/pool_proj
I0403 18:53:24.009155 17989 net.cpp:141] Setting up inception_3a/pool_proj
I0403 18:53:24.009182 17989 net.cpp:148] Top shape: 24 32 28 28 (602112)
I0403 18:53:24.009199 17989 net.cpp:156] Memory required for data: 558760992
I0403 18:53:24.009224 17989 layer_factory.hpp:77] Creating layer inception_3a/relu_pool_proj
I0403 18:53:24.009248 17989 net.cpp:91] Creating Layer inception_3a/relu_pool_proj
I0403 18:53:24.009266 17989 net.cpp:425] inception_3a/relu_pool_proj <- inception_3a/pool_proj
I0403 18:53:24.009286 17989 net.cpp:386] inception_3a/relu_pool_proj -> inception_3a/pool_proj (in-place)
I0403 18:53:24.009562 17989 net.cpp:141] Setting up inception_3a/relu_pool_proj
I0403 18:53:24.009590 17989 net.cpp:148] Top shape: 24 32 28 28 (602112)
I0403 18:53:24.009605 17989 net.cpp:156] Memory required for data: 561169440
I0403 18:53:24.009621 17989 layer_factory.hpp:77] Creating layer inception_3a/output
I0403 18:53:24.009641 17989 net.cpp:91] Creating Layer inception_3a/output
I0403 18:53:24.009659 17989 net.cpp:425] inception_3a/output <- inception_3a/1x1
I0403 18:53:24.009676 17989 net.cpp:425] inception_3a/output <- inception_3a/3x3
I0403 18:53:24.009693 17989 net.cpp:425] inception_3a/output <- inception_3a/5x5
I0403 18:53:24.009711 17989 net.cpp:425] inception_3a/output <- inception_3a/pool_proj
I0403 18:53:24.009732 17989 net.cpp:399] inception_3a/output -> inception_3a/output
I0403 18:53:24.009779 17989 net.cpp:141] Setting up inception_3a/output
I0403 18:53:24.009806 17989 net.cpp:148] Top shape: 24 256 28 28 (4816896)
I0403 18:53:24.009824 17989 net.cpp:156] Memory required for data: 580437024
I0403 18:53:24.009840 17989 layer_factory.hpp:77] Creating layer inception_3a/output_inception_3a/output_0_split
I0403 18:53:24.009857 17989 net.cpp:91] Creating Layer inception_3a/output_inception_3a/output_0_split
I0403 18:53:24.009874 17989 net.cpp:425] inception_3a/output_inception_3a/output_0_split <- inception_3a/output
I0403 18:53:24.009893 17989 net.cpp:399] inception_3a/output_inception_3a/output_0_split -> inception_3a/output_inception_3a/output_0_split_0
I0403 18:53:24.009917 17989 net.cpp:399] inception_3a/output_inception_3a/output_0_split -> inception_3a/output_inception_3a/output_0_split_1
I0403 18:53:24.009941 17989 net.cpp:399] inception_3a/output_inception_3a/output_0_split -> inception_3a/output_inception_3a/output_0_split_2
I0403 18:53:24.009963 17989 net.cpp:399] inception_3a/output_inception_3a/output_0_split -> inception_3a/output_inception_3a/output_0_split_3
I0403 18:53:24.010041 17989 net.cpp:141] Setting up inception_3a/output_inception_3a/output_0_split
I0403 18:53:24.010067 17989 net.cpp:148] Top shape: 24 256 28 28 (4816896)
I0403 18:53:24.010087 17989 net.cpp:148] Top shape: 24 256 28 28 (4816896)
I0403 18:53:24.010103 17989 net.cpp:148] Top shape: 24 256 28 28 (4816896)
I0403 18:53:24.010120 17989 net.cpp:148] Top shape: 24 256 28 28 (4816896)
I0403 18:53:24.010135 17989 net.cpp:156] Memory required for data: 657507360
I0403 18:53:24.010151 17989 layer_factory.hpp:77] Creating layer inception_3b/1x1
I0403 18:53:24.010175 17989 net.cpp:91] Creating Layer inception_3b/1x1
I0403 18:53:24.010193 17989 net.cpp:425] inception_3b/1x1 <- inception_3a/output_inception_3a/output_0_split_0
I0403 18:53:24.010216 17989 net.cpp:399] inception_3b/1x1 -> inception_3b/1x1
I0403 18:53:24.011395 17989 net.cpp:141] Setting up inception_3b/1x1
I0403 18:53:24.011437 17989 net.cpp:148] Top shape: 24 128 28 28 (2408448)
I0403 18:53:24.011456 17989 net.cpp:156] Memory required for data: 667141152
I0403 18:53:24.011476 17989 layer_factory.hpp:77] Creating layer inception_3b/relu_1x1
I0403 18:53:24.011494 17989 net.cpp:91] Creating Layer inception_3b/relu_1x1
I0403 18:53:24.011512 17989 net.cpp:425] inception_3b/relu_1x1 <- inception_3b/1x1
I0403 18:53:24.011530 17989 net.cpp:386] inception_3b/relu_1x1 -> inception_3b/1x1 (in-place)
I0403 18:53:24.011711 17989 net.cpp:141] Setting up inception_3b/relu_1x1
I0403 18:53:24.011737 17989 net.cpp:148] Top shape: 24 128 28 28 (2408448)
I0403 18:53:24.011754 17989 net.cpp:156] Memory required for data: 676774944
I0403 18:53:24.011770 17989 layer_factory.hpp:77] Creating layer inception_3b/3x3_reduce
I0403 18:53:24.011792 17989 net.cpp:91] Creating Layer inception_3b/3x3_reduce
I0403 18:53:24.011811 17989 net.cpp:425] inception_3b/3x3_reduce <- inception_3a/output_inception_3a/output_0_split_1
I0403 18:53:24.011834 17989 net.cpp:399] inception_3b/3x3_reduce -> inception_3b/3x3_reduce
I0403 18:53:24.012995 17989 net.cpp:141] Setting up inception_3b/3x3_reduce
I0403 18:53:24.013025 17989 net.cpp:148] Top shape: 24 128 28 28 (2408448)
I0403 18:53:24.013042 17989 net.cpp:156] Memory required for data: 686408736
I0403 18:53:24.013062 17989 layer_factory.hpp:77] Creating layer inception_3b/relu_3x3_reduce
I0403 18:53:24.013082 17989 net.cpp:91] Creating Layer inception_3b/relu_3x3_reduce
I0403 18:53:24.013099 17989 net.cpp:425] inception_3b/relu_3x3_reduce <- inception_3b/3x3_reduce
I0403 18:53:24.013120 17989 net.cpp:386] inception_3b/relu_3x3_reduce -> inception_3b/3x3_reduce (in-place)
I0403 18:53:24.013301 17989 net.cpp:141] Setting up inception_3b/relu_3x3_reduce
I0403 18:53:24.013326 17989 net.cpp:148] Top shape: 24 128 28 28 (2408448)
I0403 18:53:24.013342 17989 net.cpp:156] Memory required for data: 696042528
I0403 18:53:24.013358 17989 layer_factory.hpp:77] Creating layer inception_3b/3x3
I0403 18:53:24.013386 17989 net.cpp:91] Creating Layer inception_3b/3x3
I0403 18:53:24.013406 17989 net.cpp:425] inception_3b/3x3 <- inception_3b/3x3_reduce
I0403 18:53:24.013427 17989 net.cpp:399] inception_3b/3x3 -> inception_3b/3x3
I0403 18:53:24.016378 17989 net.cpp:141] Setting up inception_3b/3x3
I0403 18:53:24.016408 17989 net.cpp:148] Top shape: 24 192 28 28 (3612672)
I0403 18:53:24.016424 17989 net.cpp:156] Memory required for data: 710493216
I0403 18:53:24.016444 17989 layer_factory.hpp:77] Creating layer inception_3b/relu_3x3
I0403 18:53:24.016464 17989 net.cpp:91] Creating Layer inception_3b/relu_3x3
I0403 18:53:24.016481 17989 net.cpp:425] inception_3b/relu_3x3 <- inception_3b/3x3
I0403 18:53:24.016505 17989 net.cpp:386] inception_3b/relu_3x3 -> inception_3b/3x3 (in-place)
I0403 18:53:24.016785 17989 net.cpp:141] Setting up inception_3b/relu_3x3
I0403 18:53:24.016813 17989 net.cpp:148] Top shape: 24 192 28 28 (3612672)
I0403 18:53:24.016829 17989 net.cpp:156] Memory required for data: 724943904
I0403 18:53:24.016845 17989 layer_factory.hpp:77] Creating layer inception_3b/5x5_reduce
I0403 18:53:24.016871 17989 net.cpp:91] Creating Layer inception_3b/5x5_reduce
I0403 18:53:24.016891 17989 net.cpp:425] inception_3b/5x5_reduce <- inception_3a/output_inception_3a/output_0_split_2
I0403 18:53:24.016927 17989 net.cpp:399] inception_3b/5x5_reduce -> inception_3b/5x5_reduce
I0403 18:53:24.017948 17989 net.cpp:141] Setting up inception_3b/5x5_reduce
I0403 18:53:24.017987 17989 net.cpp:148] Top shape: 24 32 28 28 (602112)
I0403 18:53:24.018007 17989 net.cpp:156] Memory required for data: 727352352
I0403 18:53:24.018026 17989 layer_factory.hpp:77] Creating layer inception_3b/relu_5x5_reduce
I0403 18:53:24.018045 17989 net.cpp:91] Creating Layer inception_3b/relu_5x5_reduce
I0403 18:53:24.018062 17989 net.cpp:425] inception_3b/relu_5x5_reduce <- inception_3b/5x5_reduce
I0403 18:53:24.018082 17989 net.cpp:386] inception_3b/relu_5x5_reduce -> inception_3b/5x5_reduce (in-place)
I0403 18:53:24.018268 17989 net.cpp:141] Setting up inception_3b/relu_5x5_reduce
I0403 18:53:24.018293 17989 net.cpp:148] Top shape: 24 32 28 28 (602112)
I0403 18:53:24.018308 17989 net.cpp:156] Memory required for data: 729760800
I0403 18:53:24.018323 17989 layer_factory.hpp:77] Creating layer inception_3b/5x5
I0403 18:53:24.018347 17989 net.cpp:91] Creating Layer inception_3b/5x5
I0403 18:53:24.018365 17989 net.cpp:425] inception_3b/5x5 <- inception_3b/5x5_reduce
I0403 18:53:24.018388 17989 net.cpp:399] inception_3b/5x5 -> inception_3b/5x5
I0403 18:53:24.020339 17989 net.cpp:141] Setting up inception_3b/5x5
I0403 18:53:24.020370 17989 net.cpp:148] Top shape: 24 96 28 28 (1806336)
I0403 18:53:24.020387 17989 net.cpp:156] Memory required for data: 736986144
I0403 18:53:24.020406 17989 layer_factory.hpp:77] Creating layer inception_3b/relu_5x5
I0403 18:53:24.020424 17989 net.cpp:91] Creating Layer inception_3b/relu_5x5
I0403 18:53:24.020442 17989 net.cpp:425] inception_3b/relu_5x5 <- inception_3b/5x5
I0403 18:53:24.020462 17989 net.cpp:386] inception_3b/relu_5x5 -> inception_3b/5x5 (in-place)
I0403 18:53:24.020651 17989 net.cpp:141] Setting up inception_3b/relu_5x5
I0403 18:53:24.020676 17989 net.cpp:148] Top shape: 24 96 28 28 (1806336)
I0403 18:53:24.020691 17989 net.cpp:156] Memory required for data: 744211488
I0403 18:53:24.020706 17989 layer_factory.hpp:77] Creating layer inception_3b/pool
I0403 18:53:24.020725 17989 net.cpp:91] Creating Layer inception_3b/pool
I0403 18:53:24.020742 17989 net.cpp:425] inception_3b/pool <- inception_3a/output_inception_3a/output_0_split_3
I0403 18:53:24.020761 17989 net.cpp:399] inception_3b/pool -> inception_3b/pool
I0403 18:53:24.020817 17989 net.cpp:141] Setting up inception_3b/pool
I0403 18:53:24.020840 17989 net.cpp:148] Top shape: 24 256 28 28 (4816896)
I0403 18:53:24.020855 17989 net.cpp:156] Memory required for data: 763479072
I0403 18:53:24.020870 17989 layer_factory.hpp:77] Creating layer inception_3b/pool_proj
I0403 18:53:24.020895 17989 net.cpp:91] Creating Layer inception_3b/pool_proj
I0403 18:53:24.020913 17989 net.cpp:425] inception_3b/pool_proj <- inception_3b/pool
I0403 18:53:24.020932 17989 net.cpp:399] inception_3b/pool_proj -> inception_3b/pool_proj
I0403 18:53:24.021986 17989 net.cpp:141] Setting up inception_3b/pool_proj
I0403 18:53:24.022013 17989 net.cpp:148] Top shape: 24 64 28 28 (1204224)
I0403 18:53:24.022028 17989 net.cpp:156] Memory required for data: 768295968
I0403 18:53:24.022047 17989 layer_factory.hpp:77] Creating layer inception_3b/relu_pool_proj
I0403 18:53:24.022068 17989 net.cpp:91] Creating Layer inception_3b/relu_pool_proj
I0403 18:53:24.022086 17989 net.cpp:425] inception_3b/relu_pool_proj <- inception_3b/pool_proj
I0403 18:53:24.022104 17989 net.cpp:386] inception_3b/relu_pool_proj -> inception_3b/pool_proj (in-place)
I0403 18:53:24.022497 17989 net.cpp:141] Setting up inception_3b/relu_pool_proj
I0403 18:53:24.022523 17989 net.cpp:148] Top shape: 24 64 28 28 (1204224)
I0403 18:53:24.022538 17989 net.cpp:156] Memory required for data: 773112864
I0403 18:53:24.022554 17989 layer_factory.hpp:77] Creating layer inception_3b/output
I0403 18:53:24.022572 17989 net.cpp:91] Creating Layer inception_3b/output
I0403 18:53:24.022591 17989 net.cpp:425] inception_3b/output <- inception_3b/1x1
I0403 18:53:24.022609 17989 net.cpp:425] inception_3b/output <- inception_3b/3x3
I0403 18:53:24.022625 17989 net.cpp:425] inception_3b/output <- inception_3b/5x5
I0403 18:53:24.022641 17989 net.cpp:425] inception_3b/output <- inception_3b/pool_proj
I0403 18:53:24.022660 17989 net.cpp:399] inception_3b/output -> inception_3b/output
I0403 18:53:24.022702 17989 net.cpp:141] Setting up inception_3b/output
I0403 18:53:24.022727 17989 net.cpp:148] Top shape: 24 480 28 28 (9031680)
I0403 18:53:24.022743 17989 net.cpp:156] Memory required for data: 809239584
I0403 18:53:24.022759 17989 layer_factory.hpp:77] Creating layer pool3/3x3_s2
I0403 18:53:24.022778 17989 net.cpp:91] Creating Layer pool3/3x3_s2
I0403 18:53:24.022794 17989 net.cpp:425] pool3/3x3_s2 <- inception_3b/output
I0403 18:53:24.022830 17989 net.cpp:399] pool3/3x3_s2 -> pool3/3x3_s2
I0403 18:53:24.022889 17989 net.cpp:141] Setting up pool3/3x3_s2
I0403 18:53:24.022915 17989 net.cpp:148] Top shape: 24 480 14 14 (2257920)
I0403 18:53:24.022932 17989 net.cpp:156] Memory required for data: 818271264
I0403 18:53:24.022946 17989 layer_factory.hpp:77] Creating layer pool3/3x3_s2_pool3/3x3_s2_0_split
I0403 18:53:24.022964 17989 net.cpp:91] Creating Layer pool3/3x3_s2_pool3/3x3_s2_0_split
I0403 18:53:24.022982 17989 net.cpp:425] pool3/3x3_s2_pool3/3x3_s2_0_split <- pool3/3x3_s2
I0403 18:53:24.023002 17989 net.cpp:399] pool3/3x3_s2_pool3/3x3_s2_0_split -> pool3/3x3_s2_pool3/3x3_s2_0_split_0
I0403 18:53:24.023022 17989 net.cpp:399] pool3/3x3_s2_pool3/3x3_s2_0_split -> pool3/3x3_s2_pool3/3x3_s2_0_split_1
I0403 18:53:24.023044 17989 net.cpp:399] pool3/3x3_s2_pool3/3x3_s2_0_split -> pool3/3x3_s2_pool3/3x3_s2_0_split_2
I0403 18:53:24.023066 17989 net.cpp:399] pool3/3x3_s2_pool3/3x3_s2_0_split -> pool3/3x3_s2_pool3/3x3_s2_0_split_3
I0403 18:53:24.023143 17989 net.cpp:141] Setting up pool3/3x3_s2_pool3/3x3_s2_0_split
I0403 18:53:24.023165 17989 net.cpp:148] Top shape: 24 480 14 14 (2257920)
I0403 18:53:24.023182 17989 net.cpp:148] Top shape: 24 480 14 14 (2257920)
I0403 18:53:24.023198 17989 net.cpp:148] Top shape: 24 480 14 14 (2257920)
I0403 18:53:24.023214 17989 net.cpp:148] Top shape: 24 480 14 14 (2257920)
I0403 18:53:24.023228 17989 net.cpp:156] Memory required for data: 854397984
I0403 18:53:24.023243 17989 layer_factory.hpp:77] Creating layer inception_4a/1x1
I0403 18:53:24.023267 17989 net.cpp:91] Creating Layer inception_4a/1x1
I0403 18:53:24.023284 17989 net.cpp:425] inception_4a/1x1 <- pool3/3x3_s2_pool3/3x3_s2_0_split_0
I0403 18:53:24.023308 17989 net.cpp:399] inception_4a/1x1 -> inception_4a/1x1
I0403 18:53:24.024855 17989 net.cpp:141] Setting up inception_4a/1x1
I0403 18:53:24.024883 17989 net.cpp:148] Top shape: 24 192 14 14 (903168)
I0403 18:53:24.024899 17989 net.cpp:156] Memory required for data: 858010656
I0403 18:53:24.024917 17989 layer_factory.hpp:77] Creating layer inception_4a/relu_1x1
I0403 18:53:24.024938 17989 net.cpp:91] Creating Layer inception_4a/relu_1x1
I0403 18:53:24.024955 17989 net.cpp:425] inception_4a/relu_1x1 <- inception_4a/1x1
I0403 18:53:24.024974 17989 net.cpp:386] inception_4a/relu_1x1 -> inception_4a/1x1 (in-place)
I0403 18:53:24.025151 17989 net.cpp:141] Setting up inception_4a/relu_1x1
I0403 18:53:24.025179 17989 net.cpp:148] Top shape: 24 192 14 14 (903168)
I0403 18:53:24.025197 17989 net.cpp:156] Memory required for data: 861623328
I0403 18:53:24.025212 17989 layer_factory.hpp:77] Creating layer inception_4a/3x3_reduce
I0403 18:53:24.025234 17989 net.cpp:91] Creating Layer inception_4a/3x3_reduce
I0403 18:53:24.025252 17989 net.cpp:425] inception_4a/3x3_reduce <- pool3/3x3_s2_pool3/3x3_s2_0_split_1
I0403 18:53:24.025272 17989 net.cpp:399] inception_4a/3x3_reduce -> inception_4a/3x3_reduce
I0403 18:53:24.026528 17989 net.cpp:141] Setting up inception_4a/3x3_reduce
I0403 18:53:24.026556 17989 net.cpp:148] Top shape: 24 96 14 14 (451584)
I0403 18:53:24.026571 17989 net.cpp:156] Memory required for data: 863429664
I0403 18:53:24.026597 17989 layer_factory.hpp:77] Creating layer inception_4a/relu_3x3_reduce
I0403 18:53:24.026619 17989 net.cpp:91] Creating Layer inception_4a/relu_3x3_reduce
I0403 18:53:24.026638 17989 net.cpp:425] inception_4a/relu_3x3_reduce <- inception_4a/3x3_reduce
I0403 18:53:24.026655 17989 net.cpp:386] inception_4a/relu_3x3_reduce -> inception_4a/3x3_reduce (in-place)
I0403 18:53:24.026830 17989 net.cpp:141] Setting up inception_4a/relu_3x3_reduce
I0403 18:53:24.026857 17989 net.cpp:148] Top shape: 24 96 14 14 (451584)
I0403 18:53:24.026873 17989 net.cpp:156] Memory required for data: 865236000
I0403 18:53:24.026888 17989 layer_factory.hpp:77] Creating layer inception_4a/3x3
I0403 18:53:24.026911 17989 net.cpp:91] Creating Layer inception_4a/3x3
I0403 18:53:24.026937 17989 net.cpp:425] inception_4a/3x3 <- inception_4a/3x3_reduce
I0403 18:53:24.026958 17989 net.cpp:399] inception_4a/3x3 -> inception_4a/3x3
I0403 18:53:24.029625 17989 net.cpp:141] Setting up inception_4a/3x3
I0403 18:53:24.029656 17989 net.cpp:148] Top shape: 24 208 14 14 (978432)
I0403 18:53:24.029672 17989 net.cpp:156] Memory required for data: 869149728
I0403 18:53:24.029691 17989 layer_factory.hpp:77] Creating layer inception_4a/relu_3x3
I0403 18:53:24.029711 17989 net.cpp:91] Creating Layer inception_4a/relu_3x3
I0403 18:53:24.029727 17989 net.cpp:425] inception_4a/relu_3x3 <- inception_4a/3x3
I0403 18:53:24.029747 17989 net.cpp:386] inception_4a/relu_3x3 -> inception_4a/3x3 (in-place)
I0403 18:53:24.030025 17989 net.cpp:141] Setting up inception_4a/relu_3x3
I0403 18:53:24.030055 17989 net.cpp:148] Top shape: 24 208 14 14 (978432)
I0403 18:53:24.030071 17989 net.cpp:156] Memory required for data: 873063456
I0403 18:53:24.030087 17989 layer_factory.hpp:77] Creating layer inception_4a/5x5_reduce
I0403 18:53:24.030113 17989 net.cpp:91] Creating Layer inception_4a/5x5_reduce
I0403 18:53:24.030133 17989 net.cpp:425] inception_4a/5x5_reduce <- pool3/3x3_s2_pool3/3x3_s2_0_split_2
I0403 18:53:24.030153 17989 net.cpp:399] inception_4a/5x5_reduce -> inception_4a/5x5_reduce
I0403 18:53:24.031150 17989 net.cpp:141] Setting up inception_4a/5x5_reduce
I0403 18:53:24.031180 17989 net.cpp:148] Top shape: 24 16 14 14 (75264)
I0403 18:53:24.031198 17989 net.cpp:156] Memory required for data: 873364512
I0403 18:53:24.031216 17989 layer_factory.hpp:77] Creating layer inception_4a/relu_5x5_reduce
I0403 18:53:24.031235 17989 net.cpp:91] Creating Layer inception_4a/relu_5x5_reduce
I0403 18:53:24.031252 17989 net.cpp:425] inception_4a/relu_5x5_reduce <- inception_4a/5x5_reduce
I0403 18:53:24.031272 17989 net.cpp:386] inception_4a/relu_5x5_reduce -> inception_4a/5x5_reduce (in-place)
I0403 18:53:24.031447 17989 net.cpp:141] Setting up inception_4a/relu_5x5_reduce
I0403 18:53:24.031473 17989 net.cpp:148] Top shape: 24 16 14 14 (75264)
I0403 18:53:24.031488 17989 net.cpp:156] Memory required for data: 873665568
I0403 18:53:24.031503 17989 layer_factory.hpp:77] Creating layer inception_4a/5x5
I0403 18:53:24.031527 17989 net.cpp:91] Creating Layer inception_4a/5x5
I0403 18:53:24.031544 17989 net.cpp:425] inception_4a/5x5 <- inception_4a/5x5_reduce
I0403 18:53:24.031566 17989 net.cpp:399] inception_4a/5x5 -> inception_4a/5x5
I0403 18:53:24.032642 17989 net.cpp:141] Setting up inception_4a/5x5
I0403 18:53:24.032670 17989 net.cpp:148] Top shape: 24 48 14 14 (225792)
I0403 18:53:24.032685 17989 net.cpp:156] Memory required for data: 874568736
I0403 18:53:24.032704 17989 layer_factory.hpp:77] Creating layer inception_4a/relu_5x5
I0403 18:53:24.032726 17989 net.cpp:91] Creating Layer inception_4a/relu_5x5
I0403 18:53:24.032742 17989 net.cpp:425] inception_4a/relu_5x5 <- inception_4a/5x5
I0403 18:53:24.032762 17989 net.cpp:386] inception_4a/relu_5x5 -> inception_4a/5x5 (in-place)
I0403 18:53:24.032938 17989 net.cpp:141] Setting up inception_4a/relu_5x5
I0403 18:53:24.032963 17989 net.cpp:148] Top shape: 24 48 14 14 (225792)
I0403 18:53:24.032981 17989 net.cpp:156] Memory required for data: 875471904
I0403 18:53:24.032997 17989 layer_factory.hpp:77] Creating layer inception_4a/pool
I0403 18:53:24.033018 17989 net.cpp:91] Creating Layer inception_4a/pool
I0403 18:53:24.033035 17989 net.cpp:425] inception_4a/pool <- pool3/3x3_s2_pool3/3x3_s2_0_split_3
I0403 18:53:24.033054 17989 net.cpp:399] inception_4a/pool -> inception_4a/pool
I0403 18:53:24.033118 17989 net.cpp:141] Setting up inception_4a/pool
I0403 18:53:24.033140 17989 net.cpp:148] Top shape: 24 480 14 14 (2257920)
I0403 18:53:24.033156 17989 net.cpp:156] Memory required for data: 884503584
I0403 18:53:24.033171 17989 layer_factory.hpp:77] Creating layer inception_4a/pool_proj
I0403 18:53:24.033193 17989 net.cpp:91] Creating Layer inception_4a/pool_proj
I0403 18:53:24.033212 17989 net.cpp:425] inception_4a/pool_proj <- inception_4a/pool
I0403 18:53:24.033236 17989 net.cpp:399] inception_4a/pool_proj -> inception_4a/pool_proj
I0403 18:53:24.034430 17989 net.cpp:141] Setting up inception_4a/pool_proj
I0403 18:53:24.034457 17989 net.cpp:148] Top shape: 24 64 14 14 (301056)
I0403 18:53:24.034488 17989 net.cpp:156] Memory required for data: 885707808
I0403 18:53:24.034509 17989 layer_factory.hpp:77] Creating layer inception_4a/relu_pool_proj
I0403 18:53:24.034533 17989 net.cpp:91] Creating Layer inception_4a/relu_pool_proj
I0403 18:53:24.034553 17989 net.cpp:425] inception_4a/relu_pool_proj <- inception_4a/pool_proj
I0403 18:53:24.034571 17989 net.cpp:386] inception_4a/relu_pool_proj -> inception_4a/pool_proj (in-place)
I0403 18:53:24.034862 17989 net.cpp:141] Setting up inception_4a/relu_pool_proj
I0403 18:53:24.034889 17989 net.cpp:148] Top shape: 24 64 14 14 (301056)
I0403 18:53:24.034906 17989 net.cpp:156] Memory required for data: 886912032
I0403 18:53:24.034922 17989 layer_factory.hpp:77] Creating layer inception_4a/output
I0403 18:53:24.034942 17989 net.cpp:91] Creating Layer inception_4a/output
I0403 18:53:24.034961 17989 net.cpp:425] inception_4a/output <- inception_4a/1x1
I0403 18:53:24.034983 17989 net.cpp:425] inception_4a/output <- inception_4a/3x3
I0403 18:53:24.035001 17989 net.cpp:425] inception_4a/output <- inception_4a/5x5
I0403 18:53:24.035019 17989 net.cpp:425] inception_4a/output <- inception_4a/pool_proj
I0403 18:53:24.035037 17989 net.cpp:399] inception_4a/output -> inception_4a/output
I0403 18:53:24.035086 17989 net.cpp:141] Setting up inception_4a/output
I0403 18:53:24.035110 17989 net.cpp:148] Top shape: 24 512 14 14 (2408448)
I0403 18:53:24.035125 17989 net.cpp:156] Memory required for data: 896545824
I0403 18:53:24.035141 17989 layer_factory.hpp:77] Creating layer inception_4a/output_inception_4a/output_0_split
I0403 18:53:24.035159 17989 net.cpp:91] Creating Layer inception_4a/output_inception_4a/output_0_split
I0403 18:53:24.035176 17989 net.cpp:425] inception_4a/output_inception_4a/output_0_split <- inception_4a/output
I0403 18:53:24.035197 17989 net.cpp:399] inception_4a/output_inception_4a/output_0_split -> inception_4a/output_inception_4a/output_0_split_0
I0403 18:53:24.035221 17989 net.cpp:399] inception_4a/output_inception_4a/output_0_split -> inception_4a/output_inception_4a/output_0_split_1
I0403 18:53:24.035243 17989 net.cpp:399] inception_4a/output_inception_4a/output_0_split -> inception_4a/output_inception_4a/output_0_split_2
I0403 18:53:24.035264 17989 net.cpp:399] inception_4a/output_inception_4a/output_0_split -> inception_4a/output_inception_4a/output_0_split_3
I0403 18:53:24.035285 17989 net.cpp:399] inception_4a/output_inception_4a/output_0_split -> inception_4a/output_inception_4a/output_0_split_4
I0403 18:53:24.035382 17989 net.cpp:141] Setting up inception_4a/output_inception_4a/output_0_split
I0403 18:53:24.035405 17989 net.cpp:148] Top shape: 24 512 14 14 (2408448)
I0403 18:53:24.035425 17989 net.cpp:148] Top shape: 24 512 14 14 (2408448)
I0403 18:53:24.035444 17989 net.cpp:148] Top shape: 24 512 14 14 (2408448)
I0403 18:53:24.035460 17989 net.cpp:148] Top shape: 24 512 14 14 (2408448)
I0403 18:53:24.035476 17989 net.cpp:148] Top shape: 24 512 14 14 (2408448)
I0403 18:53:24.035491 17989 net.cpp:156] Memory required for data: 944714784
I0403 18:53:24.035507 17989 layer_factory.hpp:77] Creating layer loss1/ave_pool
I0403 18:53:24.035526 17989 net.cpp:91] Creating Layer loss1/ave_pool
I0403 18:53:24.035543 17989 net.cpp:425] loss1/ave_pool <- inception_4a/output_inception_4a/output_0_split_0
I0403 18:53:24.035564 17989 net.cpp:399] loss1/ave_pool -> loss1/ave_pool
I0403 18:53:24.035776 17989 net.cpp:141] Setting up loss1/ave_pool
I0403 18:53:24.035802 17989 net.cpp:148] Top shape: 24 512 4 4 (196608)
I0403 18:53:24.035818 17989 net.cpp:156] Memory required for data: 945501216
I0403 18:53:24.035835 17989 layer_factory.hpp:77] Creating layer loss1/conv
I0403 18:53:24.035857 17989 net.cpp:91] Creating Layer loss1/conv
I0403 18:53:24.035876 17989 net.cpp:425] loss1/conv <- loss1/ave_pool
I0403 18:53:24.035897 17989 net.cpp:399] loss1/conv -> loss1/conv
I0403 18:53:24.037364 17989 net.cpp:141] Setting up loss1/conv
I0403 18:53:24.037397 17989 net.cpp:148] Top shape: 24 128 4 4 (49152)
I0403 18:53:24.037427 17989 net.cpp:156] Memory required for data: 945697824
I0403 18:53:24.037447 17989 layer_factory.hpp:77] Creating layer loss1/relu_conv
I0403 18:53:24.037467 17989 net.cpp:91] Creating Layer loss1/relu_conv
I0403 18:53:24.037484 17989 net.cpp:425] loss1/relu_conv <- loss1/conv
I0403 18:53:24.037505 17989 net.cpp:386] loss1/relu_conv -> loss1/conv (in-place)
I0403 18:53:24.037791 17989 net.cpp:141] Setting up loss1/relu_conv
I0403 18:53:24.037819 17989 net.cpp:148] Top shape: 24 128 4 4 (49152)
I0403 18:53:24.037837 17989 net.cpp:156] Memory required for data: 945894432
I0403 18:53:24.037853 17989 layer_factory.hpp:77] Creating layer loss1/fc
I0403 18:53:24.037878 17989 net.cpp:91] Creating Layer loss1/fc
I0403 18:53:24.037896 17989 net.cpp:425] loss1/fc <- loss1/conv
I0403 18:53:24.037919 17989 net.cpp:399] loss1/fc -> loss1/fc
I0403 18:53:24.055968 17989 net.cpp:141] Setting up loss1/fc
I0403 18:53:24.056005 17989 net.cpp:148] Top shape: 24 1024 (24576)
I0403 18:53:24.056021 17989 net.cpp:156] Memory required for data: 945992736
I0403 18:53:24.056041 17989 layer_factory.hpp:77] Creating layer loss1/relu_fc
I0403 18:53:24.056062 17989 net.cpp:91] Creating Layer loss1/relu_fc
I0403 18:53:24.056080 17989 net.cpp:425] loss1/relu_fc <- loss1/fc
I0403 18:53:24.056098 17989 net.cpp:386] loss1/relu_fc -> loss1/fc (in-place)
I0403 18:53:24.056282 17989 net.cpp:141] Setting up loss1/relu_fc
I0403 18:53:24.056308 17989 net.cpp:148] Top shape: 24 1024 (24576)
I0403 18:53:24.056324 17989 net.cpp:156] Memory required for data: 946091040
I0403 18:53:24.056339 17989 layer_factory.hpp:77] Creating layer loss1/drop_fc
I0403 18:53:24.056365 17989 net.cpp:91] Creating Layer loss1/drop_fc
I0403 18:53:24.056385 17989 net.cpp:425] loss1/drop_fc <- loss1/fc
I0403 18:53:24.056404 17989 net.cpp:386] loss1/drop_fc -> loss1/fc (in-place)
I0403 18:53:24.056457 17989 net.cpp:141] Setting up loss1/drop_fc
I0403 18:53:24.056479 17989 net.cpp:148] Top shape: 24 1024 (24576)
I0403 18:53:24.056494 17989 net.cpp:156] Memory required for data: 946189344
I0403 18:53:24.056509 17989 layer_factory.hpp:77] Creating layer loss1/classifier_plantvillage
I0403 18:53:24.056532 17989 net.cpp:91] Creating Layer loss1/classifier_plantvillage
I0403 18:53:24.056550 17989 net.cpp:425] loss1/classifier_plantvillage <- loss1/fc
I0403 18:53:24.056568 17989 net.cpp:399] loss1/classifier_plantvillage -> loss1/classifier_plantvillage
I0403 18:53:24.057466 17989 net.cpp:141] Setting up loss1/classifier_plantvillage
I0403 18:53:24.057495 17989 net.cpp:148] Top shape: 24 38 (912)
I0403 18:53:24.057512 17989 net.cpp:156] Memory required for data: 946192992
I0403 18:53:24.057530 17989 layer_factory.hpp:77] Creating layer loss1/classifier_plantvillage_loss1/classifier_plantvillage_0_split
I0403 18:53:24.057551 17989 net.cpp:91] Creating Layer loss1/classifier_plantvillage_loss1/classifier_plantvillage_0_split
I0403 18:53:24.057569 17989 net.cpp:425] loss1/classifier_plantvillage_loss1/classifier_plantvillage_0_split <- loss1/classifier_plantvillage
I0403 18:53:24.057587 17989 net.cpp:399] loss1/classifier_plantvillage_loss1/classifier_plantvillage_0_split -> loss1/classifier_plantvillage_loss1/classifier_plantvillage_0_split_0
I0403 18:53:24.057610 17989 net.cpp:399] loss1/classifier_plantvillage_loss1/classifier_plantvillage_0_split -> loss1/classifier_plantvillage_loss1/classifier_plantvillage_0_split_1
I0403 18:53:24.057632 17989 net.cpp:399] loss1/classifier_plantvillage_loss1/classifier_plantvillage_0_split -> loss1/classifier_plantvillage_loss1/classifier_plantvillage_0_split_2
I0403 18:53:24.057699 17989 net.cpp:141] Setting up loss1/classifier_plantvillage_loss1/classifier_plantvillage_0_split
I0403 18:53:24.057723 17989 net.cpp:148] Top shape: 24 38 (912)
I0403 18:53:24.057739 17989 net.cpp:148] Top shape: 24 38 (912)
I0403 18:53:24.057755 17989 net.cpp:148] Top shape: 24 38 (912)
I0403 18:53:24.057770 17989 net.cpp:156] Memory required for data: 946203936
I0403 18:53:24.057785 17989 layer_factory.hpp:77] Creating layer inception_4b/1x1
I0403 18:53:24.057807 17989 net.cpp:91] Creating Layer inception_4b/1x1
I0403 18:53:24.057840 17989 net.cpp:425] inception_4b/1x1 <- inception_4a/output_inception_4a/output_0_split_1
I0403 18:53:24.057862 17989 net.cpp:399] inception_4b/1x1 -> inception_4b/1x1
I0403 18:53:24.059520 17989 net.cpp:141] Setting up inception_4b/1x1
I0403 18:53:24.059551 17989 net.cpp:148] Top shape: 24 160 14 14 (752640)
I0403 18:53:24.059568 17989 net.cpp:156] Memory required for data: 949214496
I0403 18:53:24.059587 17989 layer_factory.hpp:77] Creating layer inception_4b/relu_1x1
I0403 18:53:24.059605 17989 net.cpp:91] Creating Layer inception_4b/relu_1x1
I0403 18:53:24.059622 17989 net.cpp:425] inception_4b/relu_1x1 <- inception_4b/1x1
I0403 18:53:24.059643 17989 net.cpp:386] inception_4b/relu_1x1 -> inception_4b/1x1 (in-place)
I0403 18:53:24.059837 17989 net.cpp:141] Setting up inception_4b/relu_1x1
I0403 18:53:24.059864 17989 net.cpp:148] Top shape: 24 160 14 14 (752640)
I0403 18:53:24.059880 17989 net.cpp:156] Memory required for data: 952225056
I0403 18:53:24.059895 17989 layer_factory.hpp:77] Creating layer inception_4b/3x3_reduce
I0403 18:53:24.059921 17989 net.cpp:91] Creating Layer inception_4b/3x3_reduce
I0403 18:53:24.059947 17989 net.cpp:425] inception_4b/3x3_reduce <- inception_4a/output_inception_4a/output_0_split_2
I0403 18:53:24.059985 17989 net.cpp:399] inception_4b/3x3_reduce -> inception_4b/3x3_reduce
I0403 18:53:24.061326 17989 net.cpp:141] Setting up inception_4b/3x3_reduce
I0403 18:53:24.061353 17989 net.cpp:148] Top shape: 24 112 14 14 (526848)
I0403 18:53:24.061369 17989 net.cpp:156] Memory required for data: 954332448
I0403 18:53:24.061388 17989 layer_factory.hpp:77] Creating layer inception_4b/relu_3x3_reduce
I0403 18:53:24.061406 17989 net.cpp:91] Creating Layer inception_4b/relu_3x3_reduce
I0403 18:53:24.061424 17989 net.cpp:425] inception_4b/relu_3x3_reduce <- inception_4b/3x3_reduce
I0403 18:53:24.061444 17989 net.cpp:386] inception_4b/relu_3x3_reduce -> inception_4b/3x3_reduce (in-place)
I0403 18:53:24.061728 17989 net.cpp:141] Setting up inception_4b/relu_3x3_reduce
I0403 18:53:24.061754 17989 net.cpp:148] Top shape: 24 112 14 14 (526848)
I0403 18:53:24.061769 17989 net.cpp:156] Memory required for data: 956439840
I0403 18:53:24.061784 17989 layer_factory.hpp:77] Creating layer inception_4b/3x3
I0403 18:53:24.061807 17989 net.cpp:91] Creating Layer inception_4b/3x3
I0403 18:53:24.061826 17989 net.cpp:425] inception_4b/3x3 <- inception_4b/3x3_reduce
I0403 18:53:24.061848 17989 net.cpp:399] inception_4b/3x3 -> inception_4b/3x3
I0403 18:53:24.064816 17989 net.cpp:141] Setting up inception_4b/3x3
I0403 18:53:24.064848 17989 net.cpp:148] Top shape: 24 224 14 14 (1053696)
I0403 18:53:24.064864 17989 net.cpp:156] Memory required for data: 960654624
I0403 18:53:24.064883 17989 layer_factory.hpp:77] Creating layer inception_4b/relu_3x3
I0403 18:53:24.064904 17989 net.cpp:91] Creating Layer inception_4b/relu_3x3
I0403 18:53:24.064923 17989 net.cpp:425] inception_4b/relu_3x3 <- inception_4b/3x3
I0403 18:53:24.064940 17989 net.cpp:386] inception_4b/relu_3x3 -> inception_4b/3x3 (in-place)
I0403 18:53:24.065125 17989 net.cpp:141] Setting up inception_4b/relu_3x3
I0403 18:53:24.065151 17989 net.cpp:148] Top shape: 24 224 14 14 (1053696)
I0403 18:53:24.065166 17989 net.cpp:156] Memory required for data: 964869408
I0403 18:53:24.065181 17989 layer_factory.hpp:77] Creating layer inception_4b/5x5_reduce
I0403 18:53:24.065204 17989 net.cpp:91] Creating Layer inception_4b/5x5_reduce
I0403 18:53:24.065223 17989 net.cpp:425] inception_4b/5x5_reduce <- inception_4a/output_inception_4a/output_0_split_3
I0403 18:53:24.065248 17989 net.cpp:399] inception_4b/5x5_reduce -> inception_4b/5x5_reduce
I0403 18:53:24.066330 17989 net.cpp:141] Setting up inception_4b/5x5_reduce
I0403 18:53:24.066359 17989 net.cpp:148] Top shape: 24 24 14 14 (112896)
I0403 18:53:24.066375 17989 net.cpp:156] Memory required for data: 965320992
I0403 18:53:24.066393 17989 layer_factory.hpp:77] Creating layer inception_4b/relu_5x5_reduce
I0403 18:53:24.066412 17989 net.cpp:91] Creating Layer inception_4b/relu_5x5_reduce
I0403 18:53:24.066443 17989 net.cpp:425] inception_4b/relu_5x5_reduce <- inception_4b/5x5_reduce
I0403 18:53:24.066465 17989 net.cpp:386] inception_4b/relu_5x5_reduce -> inception_4b/5x5_reduce (in-place)
I0403 18:53:24.066648 17989 net.cpp:141] Setting up inception_4b/relu_5x5_reduce
I0403 18:53:24.066673 17989 net.cpp:148] Top shape: 24 24 14 14 (112896)
I0403 18:53:24.066689 17989 net.cpp:156] Memory required for data: 965772576
I0403 18:53:24.066704 17989 layer_factory.hpp:77] Creating layer inception_4b/5x5
I0403 18:53:24.066727 17989 net.cpp:91] Creating Layer inception_4b/5x5
I0403 18:53:24.066745 17989 net.cpp:425] inception_4b/5x5 <- inception_4b/5x5_reduce
I0403 18:53:24.066767 17989 net.cpp:399] inception_4b/5x5 -> inception_4b/5x5
I0403 18:53:24.067998 17989 net.cpp:141] Setting up inception_4b/5x5
I0403 18:53:24.068029 17989 net.cpp:148] Top shape: 24 64 14 14 (301056)
I0403 18:53:24.068047 17989 net.cpp:156] Memory required for data: 966976800
I0403 18:53:24.068065 17989 layer_factory.hpp:77] Creating layer inception_4b/relu_5x5
I0403 18:53:24.068084 17989 net.cpp:91] Creating Layer inception_4b/relu_5x5
I0403 18:53:24.068100 17989 net.cpp:425] inception_4b/relu_5x5 <- inception_4b/5x5
I0403 18:53:24.068120 17989 net.cpp:386] inception_4b/relu_5x5 -> inception_4b/5x5 (in-place)
I0403 18:53:24.068400 17989 net.cpp:141] Setting up inception_4b/relu_5x5
I0403 18:53:24.068428 17989 net.cpp:148] Top shape: 24 64 14 14 (301056)
I0403 18:53:24.068445 17989 net.cpp:156] Memory required for data: 968181024
I0403 18:53:24.068460 17989 layer_factory.hpp:77] Creating layer inception_4b/pool
I0403 18:53:24.068480 17989 net.cpp:91] Creating Layer inception_4b/pool
I0403 18:53:24.068496 17989 net.cpp:425] inception_4b/pool <- inception_4a/output_inception_4a/output_0_split_4
I0403 18:53:24.068518 17989 net.cpp:399] inception_4b/pool -> inception_4b/pool
I0403 18:53:24.068583 17989 net.cpp:141] Setting up inception_4b/pool
I0403 18:53:24.068608 17989 net.cpp:148] Top shape: 24 512 14 14 (2408448)
I0403 18:53:24.068624 17989 net.cpp:156] Memory required for data: 977814816
I0403 18:53:24.068639 17989 layer_factory.hpp:77] Creating layer inception_4b/pool_proj
I0403 18:53:24.068660 17989 net.cpp:91] Creating Layer inception_4b/pool_proj
I0403 18:53:24.068677 17989 net.cpp:425] inception_4b/pool_proj <- inception_4b/pool
I0403 18:53:24.068701 17989 net.cpp:399] inception_4b/pool_proj -> inception_4b/pool_proj
I0403 18:53:24.069901 17989 net.cpp:141] Setting up inception_4b/pool_proj
I0403 18:53:24.069929 17989 net.cpp:148] Top shape: 24 64 14 14 (301056)
I0403 18:53:24.069946 17989 net.cpp:156] Memory required for data: 979019040
I0403 18:53:24.069964 17989 layer_factory.hpp:77] Creating layer inception_4b/relu_pool_proj
I0403 18:53:24.069986 17989 net.cpp:91] Creating Layer inception_4b/relu_pool_proj
I0403 18:53:24.070004 17989 net.cpp:425] inception_4b/relu_pool_proj <- inception_4b/pool_proj
I0403 18:53:24.070025 17989 net.cpp:386] inception_4b/relu_pool_proj -> inception_4b/pool_proj (in-place)
I0403 18:53:24.070204 17989 net.cpp:141] Setting up inception_4b/relu_pool_proj
I0403 18:53:24.070230 17989 net.cpp:148] Top shape: 24 64 14 14 (301056)
I0403 18:53:24.070245 17989 net.cpp:156] Memory required for data: 980223264
I0403 18:53:24.070260 17989 layer_factory.hpp:77] Creating layer inception_4b/output
I0403 18:53:24.070277 17989 net.cpp:91] Creating Layer inception_4b/output
I0403 18:53:24.070294 17989 net.cpp:425] inception_4b/output <- inception_4b/1x1
I0403 18:53:24.070313 17989 net.cpp:425] inception_4b/output <- inception_4b/3x3
I0403 18:53:24.070330 17989 net.cpp:425] inception_4b/output <- inception_4b/5x5
I0403 18:53:24.070348 17989 net.cpp:425] inception_4b/output <- inception_4b/pool_proj
I0403 18:53:24.070364 17989 net.cpp:399] inception_4b/output -> inception_4b/output
I0403 18:53:24.070412 17989 net.cpp:141] Setting up inception_4b/output
I0403 18:53:24.070436 17989 net.cpp:148] Top shape: 24 512 14 14 (2408448)
I0403 18:53:24.070451 17989 net.cpp:156] Memory required for data: 989857056
I0403 18:53:24.070479 17989 layer_factory.hpp:77] Creating layer inception_4b/output_inception_4b/output_0_split
I0403 18:53:24.070498 17989 net.cpp:91] Creating Layer inception_4b/output_inception_4b/output_0_split
I0403 18:53:24.070515 17989 net.cpp:425] inception_4b/output_inception_4b/output_0_split <- inception_4b/output
I0403 18:53:24.070535 17989 net.cpp:399] inception_4b/output_inception_4b/output_0_split -> inception_4b/output_inception_4b/output_0_split_0
I0403 18:53:24.070557 17989 net.cpp:399] inception_4b/output_inception_4b/output_0_split -> inception_4b/output_inception_4b/output_0_split_1
I0403 18:53:24.070579 17989 net.cpp:399] inception_4b/output_inception_4b/output_0_split -> inception_4b/output_inception_4b/output_0_split_2
I0403 18:53:24.070600 17989 net.cpp:399] inception_4b/output_inception_4b/output_0_split -> inception_4b/output_inception_4b/output_0_split_3
I0403 18:53:24.070684 17989 net.cpp:141] Setting up inception_4b/output_inception_4b/output_0_split
I0403 18:53:24.070709 17989 net.cpp:148] Top shape: 24 512 14 14 (2408448)
I0403 18:53:24.070729 17989 net.cpp:148] Top shape: 24 512 14 14 (2408448)
I0403 18:53:24.070744 17989 net.cpp:148] Top shape: 24 512 14 14 (2408448)
I0403 18:53:24.070760 17989 net.cpp:148] Top shape: 24 512 14 14 (2408448)
I0403 18:53:24.070775 17989 net.cpp:156] Memory required for data: 1028392224
I0403 18:53:24.070790 17989 layer_factory.hpp:77] Creating layer inception_4c/1x1
I0403 18:53:24.070812 17989 net.cpp:91] Creating Layer inception_4c/1x1
I0403 18:53:24.070830 17989 net.cpp:425] inception_4c/1x1 <- inception_4b/output_inception_4b/output_0_split_0
I0403 18:53:24.070849 17989 net.cpp:399] inception_4c/1x1 -> inception_4c/1x1
I0403 18:53:24.072273 17989 net.cpp:141] Setting up inception_4c/1x1
I0403 18:53:24.072300 17989 net.cpp:148] Top shape: 24 128 14 14 (602112)
I0403 18:53:24.072316 17989 net.cpp:156] Memory required for data: 1030800672
I0403 18:53:24.072336 17989 layer_factory.hpp:77] Creating layer inception_4c/relu_1x1
I0403 18:53:24.072358 17989 net.cpp:91] Creating Layer inception_4c/relu_1x1
I0403 18:53:24.072376 17989 net.cpp:425] inception_4c/relu_1x1 <- inception_4c/1x1
I0403 18:53:24.072394 17989 net.cpp:386] inception_4c/relu_1x1 -> inception_4c/1x1 (in-place)
I0403 18:53:24.072576 17989 net.cpp:141] Setting up inception_4c/relu_1x1
I0403 18:53:24.072603 17989 net.cpp:148] Top shape: 24 128 14 14 (602112)
I0403 18:53:24.072620 17989 net.cpp:156] Memory required for data: 1033209120
I0403 18:53:24.072635 17989 layer_factory.hpp:77] Creating layer inception_4c/3x3_reduce
I0403 18:53:24.072659 17989 net.cpp:91] Creating Layer inception_4c/3x3_reduce
I0403 18:53:24.072676 17989 net.cpp:425] inception_4c/3x3_reduce <- inception_4b/output_inception_4b/output_0_split_1
I0403 18:53:24.072696 17989 net.cpp:399] inception_4c/3x3_reduce -> inception_4c/3x3_reduce
I0403 18:53:24.074642 17989 net.cpp:141] Setting up inception_4c/3x3_reduce
I0403 18:53:24.074674 17989 net.cpp:148] Top shape: 24 128 14 14 (602112)
I0403 18:53:24.074692 17989 net.cpp:156] Memory required for data: 1035617568
I0403 18:53:24.074710 17989 layer_factory.hpp:77] Creating layer inception_4c/relu_3x3_reduce
I0403 18:53:24.074729 17989 net.cpp:91] Creating Layer inception_4c/relu_3x3_reduce
I0403 18:53:24.074746 17989 net.cpp:425] inception_4c/relu_3x3_reduce <- inception_4c/3x3_reduce
I0403 18:53:24.074766 17989 net.cpp:386] inception_4c/relu_3x3_reduce -> inception_4c/3x3_reduce (in-place)
I0403 18:53:24.075055 17989 net.cpp:141] Setting up inception_4c/relu_3x3_reduce
I0403 18:53:24.075083 17989 net.cpp:148] Top shape: 24 128 14 14 (602112)
I0403 18:53:24.075099 17989 net.cpp:156] Memory required for data: 1038026016
I0403 18:53:24.075115 17989 layer_factory.hpp:77] Creating layer inception_4c/3x3
I0403 18:53:24.075139 17989 net.cpp:91] Creating Layer inception_4c/3x3
I0403 18:53:24.075157 17989 net.cpp:425] inception_4c/3x3 <- inception_4c/3x3_reduce
I0403 18:53:24.075181 17989 net.cpp:399] inception_4c/3x3 -> inception_4c/3x3
I0403 18:53:24.078807 17989 net.cpp:141] Setting up inception_4c/3x3
I0403 18:53:24.078850 17989 net.cpp:148] Top shape: 24 256 14 14 (1204224)
I0403 18:53:24.078868 17989 net.cpp:156] Memory required for data: 1042842912
I0403 18:53:24.078902 17989 layer_factory.hpp:77] Creating layer inception_4c/relu_3x3
I0403 18:53:24.078922 17989 net.cpp:91] Creating Layer inception_4c/relu_3x3
I0403 18:53:24.078939 17989 net.cpp:425] inception_4c/relu_3x3 <- inception_4c/3x3
I0403 18:53:24.078959 17989 net.cpp:386] inception_4c/relu_3x3 -> inception_4c/3x3 (in-place)
I0403 18:53:24.079151 17989 net.cpp:141] Setting up inception_4c/relu_3x3
I0403 18:53:24.079177 17989 net.cpp:148] Top shape: 24 256 14 14 (1204224)
I0403 18:53:24.079192 17989 net.cpp:156] Memory required for data: 1047659808
I0403 18:53:24.079210 17989 layer_factory.hpp:77] Creating layer inception_4c/5x5_reduce
I0403 18:53:24.079232 17989 net.cpp:91] Creating Layer inception_4c/5x5_reduce
I0403 18:53:24.079252 17989 net.cpp:425] inception_4c/5x5_reduce <- inception_4b/output_inception_4b/output_0_split_2
I0403 18:53:24.079274 17989 net.cpp:399] inception_4c/5x5_reduce -> inception_4c/5x5_reduce
I0403 18:53:24.080401 17989 net.cpp:141] Setting up inception_4c/5x5_reduce
I0403 18:53:24.080430 17989 net.cpp:148] Top shape: 24 24 14 14 (112896)
I0403 18:53:24.080446 17989 net.cpp:156] Memory required for data: 1048111392
I0403 18:53:24.080463 17989 layer_factory.hpp:77] Creating layer inception_4c/relu_5x5_reduce
I0403 18:53:24.080482 17989 net.cpp:91] Creating Layer inception_4c/relu_5x5_reduce
I0403 18:53:24.080499 17989 net.cpp:425] inception_4c/relu_5x5_reduce <- inception_4c/5x5_reduce
I0403 18:53:24.080519 17989 net.cpp:386] inception_4c/relu_5x5_reduce -> inception_4c/5x5_reduce (in-place)
I0403 18:53:24.080705 17989 net.cpp:141] Setting up inception_4c/relu_5x5_reduce
I0403 18:53:24.080730 17989 net.cpp:148] Top shape: 24 24 14 14 (112896)
I0403 18:53:24.080745 17989 net.cpp:156] Memory required for data: 1048562976
I0403 18:53:24.080761 17989 layer_factory.hpp:77] Creating layer inception_4c/5x5
I0403 18:53:24.080785 17989 net.cpp:91] Creating Layer inception_4c/5x5
I0403 18:53:24.080802 17989 net.cpp:425] inception_4c/5x5 <- inception_4c/5x5_reduce
I0403 18:53:24.080824 17989 net.cpp:399] inception_4c/5x5 -> inception_4c/5x5
I0403 18:53:24.082082 17989 net.cpp:141] Setting up inception_4c/5x5
I0403 18:53:24.082110 17989 net.cpp:148] Top shape: 24 64 14 14 (301056)
I0403 18:53:24.082125 17989 net.cpp:156] Memory required for data: 1049767200
I0403 18:53:24.082144 17989 layer_factory.hpp:77] Creating layer inception_4c/relu_5x5
I0403 18:53:24.082165 17989 net.cpp:91] Creating Layer inception_4c/relu_5x5
I0403 18:53:24.082183 17989 net.cpp:425] inception_4c/relu_5x5 <- inception_4c/5x5
I0403 18:53:24.082201 17989 net.cpp:386] inception_4c/relu_5x5 -> inception_4c/5x5 (in-place)
I0403 18:53:24.082491 17989 net.cpp:141] Setting up inception_4c/relu_5x5
I0403 18:53:24.082517 17989 net.cpp:148] Top shape: 24 64 14 14 (301056)
I0403 18:53:24.082533 17989 net.cpp:156] Memory required for data: 1050971424
I0403 18:53:24.082548 17989 layer_factory.hpp:77] Creating layer inception_4c/pool
I0403 18:53:24.082569 17989 net.cpp:91] Creating Layer inception_4c/pool
I0403 18:53:24.082587 17989 net.cpp:425] inception_4c/pool <- inception_4b/output_inception_4b/output_0_split_3
I0403 18:53:24.082607 17989 net.cpp:399] inception_4c/pool -> inception_4c/pool
I0403 18:53:24.082674 17989 net.cpp:141] Setting up inception_4c/pool
I0403 18:53:24.082697 17989 net.cpp:148] Top shape: 24 512 14 14 (2408448)
I0403 18:53:24.082712 17989 net.cpp:156] Memory required for data: 1060605216
I0403 18:53:24.082728 17989 layer_factory.hpp:77] Creating layer inception_4c/pool_proj
I0403 18:53:24.082751 17989 net.cpp:91] Creating Layer inception_4c/pool_proj
I0403 18:53:24.082768 17989 net.cpp:425] inception_4c/pool_proj <- inception_4c/pool
I0403 18:53:24.082790 17989 net.cpp:399] inception_4c/pool_proj -> inception_4c/pool_proj
I0403 18:53:24.084024 17989 net.cpp:141] Setting up inception_4c/pool_proj
I0403 18:53:24.084064 17989 net.cpp:148] Top shape: 24 64 14 14 (301056)
I0403 18:53:24.084095 17989 net.cpp:156] Memory required for data: 1061809440
I0403 18:53:24.084116 17989 layer_factory.hpp:77] Creating layer inception_4c/relu_pool_proj
I0403 18:53:24.084136 17989 net.cpp:91] Creating Layer inception_4c/relu_pool_proj
I0403 18:53:24.084153 17989 net.cpp:425] inception_4c/relu_pool_proj <- inception_4c/pool_proj
I0403 18:53:24.084173 17989 net.cpp:386] inception_4c/relu_pool_proj -> inception_4c/pool_proj (in-place)
I0403 18:53:24.084363 17989 net.cpp:141] Setting up inception_4c/relu_pool_proj
I0403 18:53:24.084389 17989 net.cpp:148] Top shape: 24 64 14 14 (301056)
I0403 18:53:24.084404 17989 net.cpp:156] Memory required for data: 1063013664
I0403 18:53:24.084420 17989 layer_factory.hpp:77] Creating layer inception_4c/output
I0403 18:53:24.084439 17989 net.cpp:91] Creating Layer inception_4c/output
I0403 18:53:24.084455 17989 net.cpp:425] inception_4c/output <- inception_4c/1x1
I0403 18:53:24.084472 17989 net.cpp:425] inception_4c/output <- inception_4c/3x3
I0403 18:53:24.084489 17989 net.cpp:425] inception_4c/output <- inception_4c/5x5
I0403 18:53:24.084506 17989 net.cpp:425] inception_4c/output <- inception_4c/pool_proj
I0403 18:53:24.084527 17989 net.cpp:399] inception_4c/output -> inception_4c/output
I0403 18:53:24.084578 17989 net.cpp:141] Setting up inception_4c/output
I0403 18:53:24.084602 17989 net.cpp:148] Top shape: 24 512 14 14 (2408448)
I0403 18:53:24.084617 17989 net.cpp:156] Memory required for data: 1072647456
I0403 18:53:24.084632 17989 layer_factory.hpp:77] Creating layer inception_4c/output_inception_4c/output_0_split
I0403 18:53:24.084651 17989 net.cpp:91] Creating Layer inception_4c/output_inception_4c/output_0_split
I0403 18:53:24.084668 17989 net.cpp:425] inception_4c/output_inception_4c/output_0_split <- inception_4c/output
I0403 18:53:24.084689 17989 net.cpp:399] inception_4c/output_inception_4c/output_0_split -> inception_4c/output_inception_4c/output_0_split_0
I0403 18:53:24.084712 17989 net.cpp:399] inception_4c/output_inception_4c/output_0_split -> inception_4c/output_inception_4c/output_0_split_1
I0403 18:53:24.084733 17989 net.cpp:399] inception_4c/output_inception_4c/output_0_split -> inception_4c/output_inception_4c/output_0_split_2
I0403 18:53:24.084755 17989 net.cpp:399] inception_4c/output_inception_4c/output_0_split -> inception_4c/output_inception_4c/output_0_split_3
I0403 18:53:24.084846 17989 net.cpp:141] Setting up inception_4c/output_inception_4c/output_0_split
I0403 18:53:24.084872 17989 net.cpp:148] Top shape: 24 512 14 14 (2408448)
I0403 18:53:24.084892 17989 net.cpp:148] Top shape: 24 512 14 14 (2408448)
I0403 18:53:24.084908 17989 net.cpp:148] Top shape: 24 512 14 14 (2408448)
I0403 18:53:24.084924 17989 net.cpp:148] Top shape: 24 512 14 14 (2408448)
I0403 18:53:24.084939 17989 net.cpp:156] Memory required for data: 1111182624
I0403 18:53:24.084955 17989 layer_factory.hpp:77] Creating layer inception_4d/1x1
I0403 18:53:24.084981 17989 net.cpp:91] Creating Layer inception_4d/1x1
I0403 18:53:24.085001 17989 net.cpp:425] inception_4d/1x1 <- inception_4c/output_inception_4c/output_0_split_0
I0403 18:53:24.085021 17989 net.cpp:399] inception_4d/1x1 -> inception_4d/1x1
I0403 18:53:24.086438 17989 net.cpp:141] Setting up inception_4d/1x1
I0403 18:53:24.086467 17989 net.cpp:148] Top shape: 24 112 14 14 (526848)
I0403 18:53:24.086483 17989 net.cpp:156] Memory required for data: 1113290016
I0403 18:53:24.086503 17989 layer_factory.hpp:77] Creating layer inception_4d/relu_1x1
I0403 18:53:24.086524 17989 net.cpp:91] Creating Layer inception_4d/relu_1x1
I0403 18:53:24.086544 17989 net.cpp:425] inception_4d/relu_1x1 <- inception_4d/1x1
I0403 18:53:24.086562 17989 net.cpp:386] inception_4d/relu_1x1 -> inception_4d/1x1 (in-place)
I0403 18:53:24.086752 17989 net.cpp:141] Setting up inception_4d/relu_1x1
I0403 18:53:24.086777 17989 net.cpp:148] Top shape: 24 112 14 14 (526848)
I0403 18:53:24.086792 17989 net.cpp:156] Memory required for data: 1115397408
I0403 18:53:24.086809 17989 layer_factory.hpp:77] Creating layer inception_4d/3x3_reduce
I0403 18:53:24.086846 17989 net.cpp:91] Creating Layer inception_4d/3x3_reduce
I0403 18:53:24.086866 17989 net.cpp:425] inception_4d/3x3_reduce <- inception_4c/output_inception_4c/output_0_split_1
I0403 18:53:24.086889 17989 net.cpp:399] inception_4d/3x3_reduce -> inception_4d/3x3_reduce
I0403 18:53:24.088450 17989 net.cpp:141] Setting up inception_4d/3x3_reduce
I0403 18:53:24.088479 17989 net.cpp:148] Top shape: 24 144 14 14 (677376)
I0403 18:53:24.088495 17989 net.cpp:156] Memory required for data: 1118106912
I0403 18:53:24.088515 17989 layer_factory.hpp:77] Creating layer inception_4d/relu_3x3_reduce
I0403 18:53:24.088536 17989 net.cpp:91] Creating Layer inception_4d/relu_3x3_reduce
I0403 18:53:24.088554 17989 net.cpp:425] inception_4d/relu_3x3_reduce <- inception_4d/3x3_reduce
I0403 18:53:24.088572 17989 net.cpp:386] inception_4d/relu_3x3_reduce -> inception_4d/3x3_reduce (in-place)
I0403 18:53:24.088873 17989 net.cpp:141] Setting up inception_4d/relu_3x3_reduce
I0403 18:53:24.088901 17989 net.cpp:148] Top shape: 24 144 14 14 (677376)
I0403 18:53:24.088917 17989 net.cpp:156] Memory required for data: 1120816416
I0403 18:53:24.088932 17989 layer_factory.hpp:77] Creating layer inception_4d/3x3
I0403 18:53:24.088956 17989 net.cpp:91] Creating Layer inception_4d/3x3
I0403 18:53:24.088974 17989 net.cpp:425] inception_4d/3x3 <- inception_4d/3x3_reduce
I0403 18:53:24.089002 17989 net.cpp:399] inception_4d/3x3 -> inception_4d/3x3
I0403 18:53:24.093379 17989 net.cpp:141] Setting up inception_4d/3x3
I0403 18:53:24.093411 17989 net.cpp:148] Top shape: 24 288 14 14 (1354752)
I0403 18:53:24.093428 17989 net.cpp:156] Memory required for data: 1126235424
I0403 18:53:24.093448 17989 layer_factory.hpp:77] Creating layer inception_4d/relu_3x3
I0403 18:53:24.093468 17989 net.cpp:91] Creating Layer inception_4d/relu_3x3
I0403 18:53:24.093485 17989 net.cpp:425] inception_4d/relu_3x3 <- inception_4d/3x3
I0403 18:53:24.093504 17989 net.cpp:386] inception_4d/relu_3x3 -> inception_4d/3x3 (in-place)
I0403 18:53:24.093695 17989 net.cpp:141] Setting up inception_4d/relu_3x3
I0403 18:53:24.093721 17989 net.cpp:148] Top shape: 24 288 14 14 (1354752)
I0403 18:53:24.093736 17989 net.cpp:156] Memory required for data: 1131654432
I0403 18:53:24.093752 17989 layer_factory.hpp:77] Creating layer inception_4d/5x5_reduce
I0403 18:53:24.093775 17989 net.cpp:91] Creating Layer inception_4d/5x5_reduce
I0403 18:53:24.093794 17989 net.cpp:425] inception_4d/5x5_reduce <- inception_4c/output_inception_4c/output_0_split_2
I0403 18:53:24.093817 17989 net.cpp:399] inception_4d/5x5_reduce -> inception_4d/5x5_reduce
I0403 18:53:24.095005 17989 net.cpp:141] Setting up inception_4d/5x5_reduce
I0403 18:53:24.095036 17989 net.cpp:148] Top shape: 24 32 14 14 (150528)
I0403 18:53:24.095053 17989 net.cpp:156] Memory required for data: 1132256544
I0403 18:53:24.095072 17989 layer_factory.hpp:77] Creating layer inception_4d/relu_5x5_reduce
I0403 18:53:24.095091 17989 net.cpp:91] Creating Layer inception_4d/relu_5x5_reduce
I0403 18:53:24.095110 17989 net.cpp:425] inception_4d/relu_5x5_reduce <- inception_4d/5x5_reduce
I0403 18:53:24.095131 17989 net.cpp:386] inception_4d/relu_5x5_reduce -> inception_4d/5x5_reduce (in-place)
I0403 18:53:24.095324 17989 net.cpp:141] Setting up inception_4d/relu_5x5_reduce
I0403 18:53:24.095350 17989 net.cpp:148] Top shape: 24 32 14 14 (150528)
I0403 18:53:24.095366 17989 net.cpp:156] Memory required for data: 1132858656
I0403 18:53:24.095381 17989 layer_factory.hpp:77] Creating layer inception_4d/5x5
I0403 18:53:24.095405 17989 net.cpp:91] Creating Layer inception_4d/5x5
I0403 18:53:24.095423 17989 net.cpp:425] inception_4d/5x5 <- inception_4d/5x5_reduce
I0403 18:53:24.095446 17989 net.cpp:399] inception_4d/5x5 -> inception_4d/5x5
I0403 18:53:24.096971 17989 net.cpp:141] Setting up inception_4d/5x5
I0403 18:53:24.097004 17989 net.cpp:148] Top shape: 24 64 14 14 (301056)
I0403 18:53:24.097021 17989 net.cpp:156] Memory required for data: 1134062880
I0403 18:53:24.097041 17989 layer_factory.hpp:77] Creating layer inception_4d/relu_5x5
I0403 18:53:24.097075 17989 net.cpp:91] Creating Layer inception_4d/relu_5x5
I0403 18:53:24.097095 17989 net.cpp:425] inception_4d/relu_5x5 <- inception_4d/5x5
I0403 18:53:24.097115 17989 net.cpp:386] inception_4d/relu_5x5 -> inception_4d/5x5 (in-place)
I0403 18:53:24.097427 17989 net.cpp:141] Setting up inception_4d/relu_5x5
I0403 18:53:24.097455 17989 net.cpp:148] Top shape: 24 64 14 14 (301056)
I0403 18:53:24.097470 17989 net.cpp:156] Memory required for data: 1135267104
I0403 18:53:24.097486 17989 layer_factory.hpp:77] Creating layer inception_4d/pool
I0403 18:53:24.097506 17989 net.cpp:91] Creating Layer inception_4d/pool
I0403 18:53:24.097523 17989 net.cpp:425] inception_4d/pool <- inception_4c/output_inception_4c/output_0_split_3
I0403 18:53:24.097545 17989 net.cpp:399] inception_4d/pool -> inception_4d/pool
I0403 18:53:24.097615 17989 net.cpp:141] Setting up inception_4d/pool
I0403 18:53:24.097640 17989 net.cpp:148] Top shape: 24 512 14 14 (2408448)
I0403 18:53:24.097656 17989 net.cpp:156] Memory required for data: 1144900896
I0403 18:53:24.097671 17989 layer_factory.hpp:77] Creating layer inception_4d/pool_proj
I0403 18:53:24.097697 17989 net.cpp:91] Creating Layer inception_4d/pool_proj
I0403 18:53:24.097717 17989 net.cpp:425] inception_4d/pool_proj <- inception_4d/pool
I0403 18:53:24.097736 17989 net.cpp:399] inception_4d/pool_proj -> inception_4d/pool_proj
I0403 18:53:24.099566 17989 net.cpp:141] Setting up inception_4d/pool_proj
I0403 18:53:24.099599 17989 net.cpp:148] Top shape: 24 64 14 14 (301056)
I0403 18:53:24.099617 17989 net.cpp:156] Memory required for data: 1146105120
I0403 18:53:24.099637 17989 layer_factory.hpp:77] Creating layer inception_4d/relu_pool_proj
I0403 18:53:24.099656 17989 net.cpp:91] Creating Layer inception_4d/relu_pool_proj
I0403 18:53:24.099674 17989 net.cpp:425] inception_4d/relu_pool_proj <- inception_4d/pool_proj
I0403 18:53:24.099694 17989 net.cpp:386] inception_4d/relu_pool_proj -> inception_4d/pool_proj (in-place)
I0403 18:53:24.099887 17989 net.cpp:141] Setting up inception_4d/relu_pool_proj
I0403 18:53:24.099912 17989 net.cpp:148] Top shape: 24 64 14 14 (301056)
I0403 18:53:24.099928 17989 net.cpp:156] Memory required for data: 1147309344
I0403 18:53:24.099946 17989 layer_factory.hpp:77] Creating layer inception_4d/output
I0403 18:53:24.099963 17989 net.cpp:91] Creating Layer inception_4d/output
I0403 18:53:24.099984 17989 net.cpp:425] inception_4d/output <- inception_4d/1x1
I0403 18:53:24.100003 17989 net.cpp:425] inception_4d/output <- inception_4d/3x3
I0403 18:53:24.100021 17989 net.cpp:425] inception_4d/output <- inception_4d/5x5
I0403 18:53:24.100039 17989 net.cpp:425] inception_4d/output <- inception_4d/pool_proj
I0403 18:53:24.100059 17989 net.cpp:399] inception_4d/output -> inception_4d/output
I0403 18:53:24.100109 17989 net.cpp:141] Setting up inception_4d/output
I0403 18:53:24.100136 17989 net.cpp:148] Top shape: 24 528 14 14 (2483712)
I0403 18:53:24.100152 17989 net.cpp:156] Memory required for data: 1157244192
I0403 18:53:24.100168 17989 layer_factory.hpp:77] Creating layer inception_4d/output_inception_4d/output_0_split
I0403 18:53:24.100188 17989 net.cpp:91] Creating Layer inception_4d/output_inception_4d/output_0_split
I0403 18:53:24.100206 17989 net.cpp:425] inception_4d/output_inception_4d/output_0_split <- inception_4d/output
I0403 18:53:24.100229 17989 net.cpp:399] inception_4d/output_inception_4d/output_0_split -> inception_4d/output_inception_4d/output_0_split_0
I0403 18:53:24.100251 17989 net.cpp:399] inception_4d/output_inception_4d/output_0_split -> inception_4d/output_inception_4d/output_0_split_1
I0403 18:53:24.100273 17989 net.cpp:399] inception_4d/output_inception_4d/output_0_split -> inception_4d/output_inception_4d/output_0_split_2
I0403 18:53:24.100296 17989 net.cpp:399] inception_4d/output_inception_4d/output_0_split -> inception_4d/output_inception_4d/output_0_split_3
I0403 18:53:24.100317 17989 net.cpp:399] inception_4d/output_inception_4d/output_0_split -> inception_4d/output_inception_4d/output_0_split_4
I0403 18:53:24.100421 17989 net.cpp:141] Setting up inception_4d/output_inception_4d/output_0_split
I0403 18:53:24.100458 17989 net.cpp:148] Top shape: 24 528 14 14 (2483712)
I0403 18:53:24.100476 17989 net.cpp:148] Top shape: 24 528 14 14 (2483712)
I0403 18:53:24.100493 17989 net.cpp:148] Top shape: 24 528 14 14 (2483712)
I0403 18:53:24.100509 17989 net.cpp:148] Top shape: 24 528 14 14 (2483712)
I0403 18:53:24.100527 17989 net.cpp:148] Top shape: 24 528 14 14 (2483712)
I0403 18:53:24.100540 17989 net.cpp:156] Memory required for data: 1206918432
I0403 18:53:24.100556 17989 layer_factory.hpp:77] Creating layer loss2/ave_pool
I0403 18:53:24.100579 17989 net.cpp:91] Creating Layer loss2/ave_pool
I0403 18:53:24.100595 17989 net.cpp:425] loss2/ave_pool <- inception_4d/output_inception_4d/output_0_split_0
I0403 18:53:24.100615 17989 net.cpp:399] loss2/ave_pool -> loss2/ave_pool
I0403 18:53:24.100932 17989 net.cpp:141] Setting up loss2/ave_pool
I0403 18:53:24.100961 17989 net.cpp:148] Top shape: 24 528 4 4 (202752)
I0403 18:53:24.100982 17989 net.cpp:156] Memory required for data: 1207729440
I0403 18:53:24.101001 17989 layer_factory.hpp:77] Creating layer loss2/conv
I0403 18:53:24.101024 17989 net.cpp:91] Creating Layer loss2/conv
I0403 18:53:24.101043 17989 net.cpp:425] loss2/conv <- loss2/ave_pool
I0403 18:53:24.101063 17989 net.cpp:399] loss2/conv -> loss2/conv
I0403 18:53:24.103004 17989 net.cpp:141] Setting up loss2/conv
I0403 18:53:24.103034 17989 net.cpp:148] Top shape: 24 128 4 4 (49152)
I0403 18:53:24.103049 17989 net.cpp:156] Memory required for data: 1207926048
I0403 18:53:24.103068 17989 layer_factory.hpp:77] Creating layer loss2/relu_conv
I0403 18:53:24.103090 17989 net.cpp:91] Creating Layer loss2/relu_conv
I0403 18:53:24.103107 17989 net.cpp:425] loss2/relu_conv <- loss2/conv
I0403 18:53:24.103126 17989 net.cpp:386] loss2/relu_conv -> loss2/conv (in-place)
I0403 18:53:24.103411 17989 net.cpp:141] Setting up loss2/relu_conv
I0403 18:53:24.103437 17989 net.cpp:148] Top shape: 24 128 4 4 (49152)
I0403 18:53:24.103452 17989 net.cpp:156] Memory required for data: 1208122656
I0403 18:53:24.103468 17989 layer_factory.hpp:77] Creating layer loss2/fc
I0403 18:53:24.103490 17989 net.cpp:91] Creating Layer loss2/fc
I0403 18:53:24.103509 17989 net.cpp:425] loss2/fc <- loss2/conv
I0403 18:53:24.103528 17989 net.cpp:399] loss2/fc -> loss2/fc
I0403 18:53:24.121152 17989 net.cpp:141] Setting up loss2/fc
I0403 18:53:24.121186 17989 net.cpp:148] Top shape: 24 1024 (24576)
I0403 18:53:24.121204 17989 net.cpp:156] Memory required for data: 1208220960
I0403 18:53:24.121223 17989 layer_factory.hpp:77] Creating layer loss2/relu_fc
I0403 18:53:24.121242 17989 net.cpp:91] Creating Layer loss2/relu_fc
I0403 18:53:24.121258 17989 net.cpp:425] loss2/relu_fc <- loss2/fc
I0403 18:53:24.121279 17989 net.cpp:386] loss2/relu_fc -> loss2/fc (in-place)
I0403 18:53:24.121574 17989 net.cpp:141] Setting up loss2/relu_fc
I0403 18:53:24.121603 17989 net.cpp:148] Top shape: 24 1024 (24576)
I0403 18:53:24.121618 17989 net.cpp:156] Memory required for data: 1208319264
I0403 18:53:24.121634 17989 layer_factory.hpp:77] Creating layer loss2/drop_fc
I0403 18:53:24.121652 17989 net.cpp:91] Creating Layer loss2/drop_fc
I0403 18:53:24.121670 17989 net.cpp:425] loss2/drop_fc <- loss2/fc
I0403 18:53:24.121690 17989 net.cpp:386] loss2/drop_fc -> loss2/fc (in-place)
I0403 18:53:24.121739 17989 net.cpp:141] Setting up loss2/drop_fc
I0403 18:53:24.121762 17989 net.cpp:148] Top shape: 24 1024 (24576)
I0403 18:53:24.121778 17989 net.cpp:156] Memory required for data: 1208417568
I0403 18:53:24.121793 17989 layer_factory.hpp:77] Creating layer loss2/classifier_plantvillage
I0403 18:53:24.121814 17989 net.cpp:91] Creating Layer loss2/classifier_plantvillage
I0403 18:53:24.121832 17989 net.cpp:425] loss2/classifier_plantvillage <- loss2/fc
I0403 18:53:24.121855 17989 net.cpp:399] loss2/classifier_plantvillage -> loss2/classifier_plantvillage
I0403 18:53:24.122272 17989 net.cpp:141] Setting up loss2/classifier_plantvillage
I0403 18:53:24.122297 17989 net.cpp:148] Top shape: 24 38 (912)
I0403 18:53:24.122328 17989 net.cpp:156] Memory required for data: 1208421216
I0403 18:53:24.122349 17989 layer_factory.hpp:77] Creating layer loss2/classifier_plantvillage_loss2/classifier_plantvillage_0_split
I0403 18:53:24.122370 17989 net.cpp:91] Creating Layer loss2/classifier_plantvillage_loss2/classifier_plantvillage_0_split
I0403 18:53:24.122386 17989 net.cpp:425] loss2/classifier_plantvillage_loss2/classifier_plantvillage_0_split <- loss2/classifier_plantvillage
I0403 18:53:24.122405 17989 net.cpp:399] loss2/classifier_plantvillage_loss2/classifier_plantvillage_0_split -> loss2/classifier_plantvillage_loss2/classifier_plantvillage_0_split_0
I0403 18:53:24.122426 17989 net.cpp:399] loss2/classifier_plantvillage_loss2/classifier_plantvillage_0_split -> loss2/classifier_plantvillage_loss2/classifier_plantvillage_0_split_1
I0403 18:53:24.122447 17989 net.cpp:399] loss2/classifier_plantvillage_loss2/classifier_plantvillage_0_split -> loss2/classifier_plantvillage_loss2/classifier_plantvillage_0_split_2
I0403 18:53:24.122527 17989 net.cpp:141] Setting up loss2/classifier_plantvillage_loss2/classifier_plantvillage_0_split
I0403 18:53:24.122550 17989 net.cpp:148] Top shape: 24 38 (912)
I0403 18:53:24.122567 17989 net.cpp:148] Top shape: 24 38 (912)
I0403 18:53:24.122583 17989 net.cpp:148] Top shape: 24 38 (912)
I0403 18:53:24.122597 17989 net.cpp:156] Memory required for data: 1208432160
I0403 18:53:24.122612 17989 layer_factory.hpp:77] Creating layer inception_4e/1x1
I0403 18:53:24.122632 17989 net.cpp:91] Creating Layer inception_4e/1x1
I0403 18:53:24.122650 17989 net.cpp:425] inception_4e/1x1 <- inception_4d/output_inception_4d/output_0_split_1
I0403 18:53:24.122673 17989 net.cpp:399] inception_4e/1x1 -> inception_4e/1x1
I0403 18:53:24.124490 17989 net.cpp:141] Setting up inception_4e/1x1
I0403 18:53:24.124518 17989 net.cpp:148] Top shape: 24 256 14 14 (1204224)
I0403 18:53:24.124534 17989 net.cpp:156] Memory required for data: 1213249056
I0403 18:53:24.124553 17989 layer_factory.hpp:77] Creating layer inception_4e/relu_1x1
I0403 18:53:24.124574 17989 net.cpp:91] Creating Layer inception_4e/relu_1x1
I0403 18:53:24.124593 17989 net.cpp:425] inception_4e/relu_1x1 <- inception_4e/1x1
I0403 18:53:24.124611 17989 net.cpp:386] inception_4e/relu_1x1 -> inception_4e/1x1 (in-place)
I0403 18:53:24.124909 17989 net.cpp:141] Setting up inception_4e/relu_1x1
I0403 18:53:24.124935 17989 net.cpp:148] Top shape: 24 256 14 14 (1204224)
I0403 18:53:24.124951 17989 net.cpp:156] Memory required for data: 1218065952
I0403 18:53:24.124968 17989 layer_factory.hpp:77] Creating layer inception_4e/3x3_reduce
I0403 18:53:24.124994 17989 net.cpp:91] Creating Layer inception_4e/3x3_reduce
I0403 18:53:24.125013 17989 net.cpp:425] inception_4e/3x3_reduce <- inception_4d/output_inception_4d/output_0_split_2
I0403 18:53:24.125036 17989 net.cpp:399] inception_4e/3x3_reduce -> inception_4e/3x3_reduce
I0403 18:53:24.127156 17989 net.cpp:141] Setting up inception_4e/3x3_reduce
I0403 18:53:24.127185 17989 net.cpp:148] Top shape: 24 160 14 14 (752640)
I0403 18:53:24.127202 17989 net.cpp:156] Memory required for data: 1221076512
I0403 18:53:24.127223 17989 layer_factory.hpp:77] Creating layer inception_4e/relu_3x3_reduce
I0403 18:53:24.127240 17989 net.cpp:91] Creating Layer inception_4e/relu_3x3_reduce
I0403 18:53:24.127260 17989 net.cpp:425] inception_4e/relu_3x3_reduce <- inception_4e/3x3_reduce
I0403 18:53:24.127279 17989 net.cpp:386] inception_4e/relu_3x3_reduce -> inception_4e/3x3_reduce (in-place)
I0403 18:53:24.127466 17989 net.cpp:141] Setting up inception_4e/relu_3x3_reduce
I0403 18:53:24.127491 17989 net.cpp:148] Top shape: 24 160 14 14 (752640)
I0403 18:53:24.127506 17989 net.cpp:156] Memory required for data: 1224087072
I0403 18:53:24.127522 17989 layer_factory.hpp:77] Creating layer inception_4e/3x3
I0403 18:53:24.127544 17989 net.cpp:91] Creating Layer inception_4e/3x3
I0403 18:53:24.127562 17989 net.cpp:425] inception_4e/3x3 <- inception_4e/3x3_reduce
I0403 18:53:24.127584 17989 net.cpp:399] inception_4e/3x3 -> inception_4e/3x3
I0403 18:53:24.132596 17989 net.cpp:141] Setting up inception_4e/3x3
I0403 18:53:24.132637 17989 net.cpp:148] Top shape: 24 320 14 14 (1505280)
I0403 18:53:24.132653 17989 net.cpp:156] Memory required for data: 1230108192
I0403 18:53:24.132673 17989 layer_factory.hpp:77] Creating layer inception_4e/relu_3x3
I0403 18:53:24.132694 17989 net.cpp:91] Creating Layer inception_4e/relu_3x3
I0403 18:53:24.132711 17989 net.cpp:425] inception_4e/relu_3x3 <- inception_4e/3x3
I0403 18:53:24.132730 17989 net.cpp:386] inception_4e/relu_3x3 -> inception_4e/3x3 (in-place)
I0403 18:53:24.133038 17989 net.cpp:141] Setting up inception_4e/relu_3x3
I0403 18:53:24.133065 17989 net.cpp:148] Top shape: 24 320 14 14 (1505280)
I0403 18:53:24.133081 17989 net.cpp:156] Memory required for data: 1236129312
I0403 18:53:24.133097 17989 layer_factory.hpp:77] Creating layer inception_4e/5x5_reduce
I0403 18:53:24.133122 17989 net.cpp:91] Creating Layer inception_4e/5x5_reduce
I0403 18:53:24.133141 17989 net.cpp:425] inception_4e/5x5_reduce <- inception_4d/output_inception_4d/output_0_split_3
I0403 18:53:24.133162 17989 net.cpp:399] inception_4e/5x5_reduce -> inception_4e/5x5_reduce
I0403 18:53:24.134227 17989 net.cpp:141] Setting up inception_4e/5x5_reduce
I0403 18:53:24.134255 17989 net.cpp:148] Top shape: 24 32 14 14 (150528)
I0403 18:53:24.134271 17989 net.cpp:156] Memory required for data: 1236731424
I0403 18:53:24.134290 17989 layer_factory.hpp:77] Creating layer inception_4e/relu_5x5_reduce
I0403 18:53:24.134310 17989 net.cpp:91] Creating Layer inception_4e/relu_5x5_reduce
I0403 18:53:24.134326 17989 net.cpp:425] inception_4e/relu_5x5_reduce <- inception_4e/5x5_reduce
I0403 18:53:24.134346 17989 net.cpp:386] inception_4e/relu_5x5_reduce -> inception_4e/5x5_reduce (in-place)
I0403 18:53:24.134644 17989 net.cpp:141] Setting up inception_4e/relu_5x5_reduce
I0403 18:53:24.134670 17989 net.cpp:148] Top shape: 24 32 14 14 (150528)
I0403 18:53:24.134685 17989 net.cpp:156] Memory required for data: 1237333536
I0403 18:53:24.134701 17989 layer_factory.hpp:77] Creating layer inception_4e/5x5
I0403 18:53:24.134738 17989 net.cpp:91] Creating Layer inception_4e/5x5
I0403 18:53:24.134758 17989 net.cpp:425] inception_4e/5x5 <- inception_4e/5x5_reduce
I0403 18:53:24.134778 17989 net.cpp:399] inception_4e/5x5 -> inception_4e/5x5
I0403 18:53:24.136632 17989 net.cpp:141] Setting up inception_4e/5x5
I0403 18:53:24.136662 17989 net.cpp:148] Top shape: 24 128 14 14 (602112)
I0403 18:53:24.136677 17989 net.cpp:156] Memory required for data: 1239741984
I0403 18:53:24.136696 17989 layer_factory.hpp:77] Creating layer inception_4e/relu_5x5
I0403 18:53:24.136715 17989 net.cpp:91] Creating Layer inception_4e/relu_5x5
I0403 18:53:24.136732 17989 net.cpp:425] inception_4e/relu_5x5 <- inception_4e/5x5
I0403 18:53:24.136751 17989 net.cpp:386] inception_4e/relu_5x5 -> inception_4e/5x5 (in-place)
I0403 18:53:24.136953 17989 net.cpp:141] Setting up inception_4e/relu_5x5
I0403 18:53:24.136981 17989 net.cpp:148] Top shape: 24 128 14 14 (602112)
I0403 18:53:24.136998 17989 net.cpp:156] Memory required for data: 1242150432
I0403 18:53:24.137014 17989 layer_factory.hpp:77] Creating layer inception_4e/pool
I0403 18:53:24.137035 17989 net.cpp:91] Creating Layer inception_4e/pool
I0403 18:53:24.137053 17989 net.cpp:425] inception_4e/pool <- inception_4d/output_inception_4d/output_0_split_4
I0403 18:53:24.137073 17989 net.cpp:399] inception_4e/pool -> inception_4e/pool
I0403 18:53:24.137142 17989 net.cpp:141] Setting up inception_4e/pool
I0403 18:53:24.137166 17989 net.cpp:148] Top shape: 24 528 14 14 (2483712)
I0403 18:53:24.137181 17989 net.cpp:156] Memory required for data: 1252085280
I0403 18:53:24.137197 17989 layer_factory.hpp:77] Creating layer inception_4e/pool_proj
I0403 18:53:24.137228 17989 net.cpp:91] Creating Layer inception_4e/pool_proj
I0403 18:53:24.137246 17989 net.cpp:425] inception_4e/pool_proj <- inception_4e/pool
I0403 18:53:24.137267 17989 net.cpp:399] inception_4e/pool_proj -> inception_4e/pool_proj
I0403 18:53:24.138759 17989 net.cpp:141] Setting up inception_4e/pool_proj
I0403 18:53:24.138800 17989 net.cpp:148] Top shape: 24 128 14 14 (602112)
I0403 18:53:24.138818 17989 net.cpp:156] Memory required for data: 1254493728
I0403 18:53:24.138838 17989 layer_factory.hpp:77] Creating layer inception_4e/relu_pool_proj
I0403 18:53:24.138856 17989 net.cpp:91] Creating Layer inception_4e/relu_pool_proj
I0403 18:53:24.138873 17989 net.cpp:425] inception_4e/relu_pool_proj <- inception_4e/pool_proj
I0403 18:53:24.138891 17989 net.cpp:386] inception_4e/relu_pool_proj -> inception_4e/pool_proj (in-place)
I0403 18:53:24.139199 17989 net.cpp:141] Setting up inception_4e/relu_pool_proj
I0403 18:53:24.139238 17989 net.cpp:148] Top shape: 24 128 14 14 (602112)
I0403 18:53:24.139255 17989 net.cpp:156] Memory required for data: 1256902176
I0403 18:53:24.139271 17989 layer_factory.hpp:77] Creating layer inception_4e/output
I0403 18:53:24.139288 17989 net.cpp:91] Creating Layer inception_4e/output
I0403 18:53:24.139304 17989 net.cpp:425] inception_4e/output <- inception_4e/1x1
I0403 18:53:24.139322 17989 net.cpp:425] inception_4e/output <- inception_4e/3x3
I0403 18:53:24.139339 17989 net.cpp:425] inception_4e/output <- inception_4e/5x5
I0403 18:53:24.139358 17989 net.cpp:425] inception_4e/output <- inception_4e/pool_proj
I0403 18:53:24.139376 17989 net.cpp:399] inception_4e/output -> inception_4e/output
I0403 18:53:24.139427 17989 net.cpp:141] Setting up inception_4e/output
I0403 18:53:24.139451 17989 net.cpp:148] Top shape: 24 832 14 14 (3913728)
I0403 18:53:24.139467 17989 net.cpp:156] Memory required for data: 1272557088
I0403 18:53:24.139482 17989 layer_factory.hpp:77] Creating layer pool4/3x3_s2
I0403 18:53:24.139503 17989 net.cpp:91] Creating Layer pool4/3x3_s2
I0403 18:53:24.139519 17989 net.cpp:425] pool4/3x3_s2 <- inception_4e/output
I0403 18:53:24.139539 17989 net.cpp:399] pool4/3x3_s2 -> pool4/3x3_s2
I0403 18:53:24.139608 17989 net.cpp:141] Setting up pool4/3x3_s2
I0403 18:53:24.139632 17989 net.cpp:148] Top shape: 24 832 7 7 (978432)
I0403 18:53:24.139647 17989 net.cpp:156] Memory required for data: 1276470816
I0403 18:53:24.139662 17989 layer_factory.hpp:77] Creating layer pool4/3x3_s2_pool4/3x3_s2_0_split
I0403 18:53:24.139680 17989 net.cpp:91] Creating Layer pool4/3x3_s2_pool4/3x3_s2_0_split
I0403 18:53:24.139698 17989 net.cpp:425] pool4/3x3_s2_pool4/3x3_s2_0_split <- pool4/3x3_s2
I0403 18:53:24.139717 17989 net.cpp:399] pool4/3x3_s2_pool4/3x3_s2_0_split -> pool4/3x3_s2_pool4/3x3_s2_0_split_0
I0403 18:53:24.139739 17989 net.cpp:399] pool4/3x3_s2_pool4/3x3_s2_0_split -> pool4/3x3_s2_pool4/3x3_s2_0_split_1
I0403 18:53:24.139760 17989 net.cpp:399] pool4/3x3_s2_pool4/3x3_s2_0_split -> pool4/3x3_s2_pool4/3x3_s2_0_split_2
I0403 18:53:24.139780 17989 net.cpp:399] pool4/3x3_s2_pool4/3x3_s2_0_split -> pool4/3x3_s2_pool4/3x3_s2_0_split_3
I0403 18:53:24.139873 17989 net.cpp:141] Setting up pool4/3x3_s2_pool4/3x3_s2_0_split
I0403 18:53:24.139900 17989 net.cpp:148] Top shape: 24 832 7 7 (978432)
I0403 18:53:24.139919 17989 net.cpp:148] Top shape: 24 832 7 7 (978432)
I0403 18:53:24.139935 17989 net.cpp:148] Top shape: 24 832 7 7 (978432)
I0403 18:53:24.139951 17989 net.cpp:148] Top shape: 24 832 7 7 (978432)
I0403 18:53:24.139966 17989 net.cpp:156] Memory required for data: 1292125728
I0403 18:53:24.139983 17989 layer_factory.hpp:77] Creating layer inception_5a/1x1
I0403 18:53:24.140008 17989 net.cpp:91] Creating Layer inception_5a/1x1
I0403 18:53:24.140027 17989 net.cpp:425] inception_5a/1x1 <- pool4/3x3_s2_pool4/3x3_s2_0_split_0
I0403 18:53:24.140046 17989 net.cpp:399] inception_5a/1x1 -> inception_5a/1x1
I0403 18:53:24.142988 17989 net.cpp:141] Setting up inception_5a/1x1
I0403 18:53:24.143018 17989 net.cpp:148] Top shape: 24 256 7 7 (301056)
I0403 18:53:24.143035 17989 net.cpp:156] Memory required for data: 1293329952
I0403 18:53:24.143055 17989 layer_factory.hpp:77] Creating layer inception_5a/relu_1x1
I0403 18:53:24.143074 17989 net.cpp:91] Creating Layer inception_5a/relu_1x1
I0403 18:53:24.143091 17989 net.cpp:425] inception_5a/relu_1x1 <- inception_5a/1x1
I0403 18:53:24.143112 17989 net.cpp:386] inception_5a/relu_1x1 -> inception_5a/1x1 (in-place)
I0403 18:53:24.143435 17989 net.cpp:141] Setting up inception_5a/relu_1x1
I0403 18:53:24.143461 17989 net.cpp:148] Top shape: 24 256 7 7 (301056)
I0403 18:53:24.143478 17989 net.cpp:156] Memory required for data: 1294534176
I0403 18:53:24.143494 17989 layer_factory.hpp:77] Creating layer inception_5a/3x3_reduce
I0403 18:53:24.143517 17989 net.cpp:91] Creating Layer inception_5a/3x3_reduce
I0403 18:53:24.143537 17989 net.cpp:425] inception_5a/3x3_reduce <- pool4/3x3_s2_pool4/3x3_s2_0_split_1
I0403 18:53:24.143559 17989 net.cpp:399] inception_5a/3x3_reduce -> inception_5a/3x3_reduce
I0403 18:53:24.146092 17989 net.cpp:141] Setting up inception_5a/3x3_reduce
I0403 18:53:24.146126 17989 net.cpp:148] Top shape: 24 160 7 7 (188160)
I0403 18:53:24.146143 17989 net.cpp:156] Memory required for data: 1295286816
I0403 18:53:24.146163 17989 layer_factory.hpp:77] Creating layer inception_5a/relu_3x3_reduce
I0403 18:53:24.146183 17989 net.cpp:91] Creating Layer inception_5a/relu_3x3_reduce
I0403 18:53:24.146200 17989 net.cpp:425] inception_5a/relu_3x3_reduce <- inception_5a/3x3_reduce
I0403 18:53:24.146226 17989 net.cpp:386] inception_5a/relu_3x3_reduce -> inception_5a/3x3_reduce (in-place)
I0403 18:53:24.146421 17989 net.cpp:141] Setting up inception_5a/relu_3x3_reduce
I0403 18:53:24.146450 17989 net.cpp:148] Top shape: 24 160 7 7 (188160)
I0403 18:53:24.146466 17989 net.cpp:156] Memory required for data: 1296039456
I0403 18:53:24.146482 17989 layer_factory.hpp:77] Creating layer inception_5a/3x3
I0403 18:53:24.146505 17989 net.cpp:91] Creating Layer inception_5a/3x3
I0403 18:53:24.146524 17989 net.cpp:425] inception_5a/3x3 <- inception_5a/3x3_reduce
I0403 18:53:24.146544 17989 net.cpp:399] inception_5a/3x3 -> inception_5a/3x3
I0403 18:53:24.151757 17989 net.cpp:141] Setting up inception_5a/3x3
I0403 18:53:24.151787 17989 net.cpp:148] Top shape: 24 320 7 7 (376320)
I0403 18:53:24.151804 17989 net.cpp:156] Memory required for data: 1297544736
I0403 18:53:24.151824 17989 layer_factory.hpp:77] Creating layer inception_5a/relu_3x3
I0403 18:53:24.151844 17989 net.cpp:91] Creating Layer inception_5a/relu_3x3
I0403 18:53:24.151861 17989 net.cpp:425] inception_5a/relu_3x3 <- inception_5a/3x3
I0403 18:53:24.151882 17989 net.cpp:386] inception_5a/relu_3x3 -> inception_5a/3x3 (in-place)
I0403 18:53:24.152201 17989 net.cpp:141] Setting up inception_5a/relu_3x3
I0403 18:53:24.152237 17989 net.cpp:148] Top shape: 24 320 7 7 (376320)
I0403 18:53:24.152253 17989 net.cpp:156] Memory required for data: 1299050016
I0403 18:53:24.152269 17989 layer_factory.hpp:77] Creating layer inception_5a/5x5_reduce
I0403 18:53:24.152294 17989 net.cpp:91] Creating Layer inception_5a/5x5_reduce
I0403 18:53:24.152314 17989 net.cpp:425] inception_5a/5x5_reduce <- pool4/3x3_s2_pool4/3x3_s2_0_split_2
I0403 18:53:24.152338 17989 net.cpp:399] inception_5a/5x5_reduce -> inception_5a/5x5_reduce
I0403 18:53:24.153550 17989 net.cpp:141] Setting up inception_5a/5x5_reduce
I0403 18:53:24.153581 17989 net.cpp:148] Top shape: 24 32 7 7 (37632)
I0403 18:53:24.153597 17989 net.cpp:156] Memory required for data: 1299200544
I0403 18:53:24.153617 17989 layer_factory.hpp:77] Creating layer inception_5a/relu_5x5_reduce
I0403 18:53:24.153638 17989 net.cpp:91] Creating Layer inception_5a/relu_5x5_reduce
I0403 18:53:24.153657 17989 net.cpp:425] inception_5a/relu_5x5_reduce <- inception_5a/5x5_reduce
I0403 18:53:24.153676 17989 net.cpp:386] inception_5a/relu_5x5_reduce -> inception_5a/5x5_reduce (in-place)
I0403 18:53:24.153985 17989 net.cpp:141] Setting up inception_5a/relu_5x5_reduce
I0403 18:53:24.154012 17989 net.cpp:148] Top shape: 24 32 7 7 (37632)
I0403 18:53:24.154028 17989 net.cpp:156] Memory required for data: 1299351072
I0403 18:53:24.154044 17989 layer_factory.hpp:77] Creating layer inception_5a/5x5
I0403 18:53:24.154068 17989 net.cpp:91] Creating Layer inception_5a/5x5
I0403 18:53:24.154088 17989 net.cpp:425] inception_5a/5x5 <- inception_5a/5x5_reduce
I0403 18:53:24.154109 17989 net.cpp:399] inception_5a/5x5 -> inception_5a/5x5
I0403 18:53:24.155903 17989 net.cpp:141] Setting up inception_5a/5x5
I0403 18:53:24.155946 17989 net.cpp:148] Top shape: 24 128 7 7 (150528)
I0403 18:53:24.155962 17989 net.cpp:156] Memory required for data: 1299953184
I0403 18:53:24.155987 17989 layer_factory.hpp:77] Creating layer inception_5a/relu_5x5
I0403 18:53:24.156007 17989 net.cpp:91] Creating Layer inception_5a/relu_5x5
I0403 18:53:24.156023 17989 net.cpp:425] inception_5a/relu_5x5 <- inception_5a/5x5
I0403 18:53:24.156044 17989 net.cpp:386] inception_5a/relu_5x5 -> inception_5a/5x5 (in-place)
I0403 18:53:24.156242 17989 net.cpp:141] Setting up inception_5a/relu_5x5
I0403 18:53:24.156268 17989 net.cpp:148] Top shape: 24 128 7 7 (150528)
I0403 18:53:24.156283 17989 net.cpp:156] Memory required for data: 1300555296
I0403 18:53:24.156301 17989 layer_factory.hpp:77] Creating layer inception_5a/pool
I0403 18:53:24.156322 17989 net.cpp:91] Creating Layer inception_5a/pool
I0403 18:53:24.156339 17989 net.cpp:425] inception_5a/pool <- pool4/3x3_s2_pool4/3x3_s2_0_split_3
I0403 18:53:24.156358 17989 net.cpp:399] inception_5a/pool -> inception_5a/pool
I0403 18:53:24.156432 17989 net.cpp:141] Setting up inception_5a/pool
I0403 18:53:24.156457 17989 net.cpp:148] Top shape: 24 832 7 7 (978432)
I0403 18:53:24.156472 17989 net.cpp:156] Memory required for data: 1304469024
I0403 18:53:24.156488 17989 layer_factory.hpp:77] Creating layer inception_5a/pool_proj
I0403 18:53:24.156512 17989 net.cpp:91] Creating Layer inception_5a/pool_proj
I0403 18:53:24.156530 17989 net.cpp:425] inception_5a/pool_proj <- inception_5a/pool
I0403 18:53:24.156553 17989 net.cpp:399] inception_5a/pool_proj -> inception_5a/pool_proj
I0403 18:53:24.158918 17989 net.cpp:141] Setting up inception_5a/pool_proj
I0403 18:53:24.158951 17989 net.cpp:148] Top shape: 24 128 7 7 (150528)
I0403 18:53:24.158968 17989 net.cpp:156] Memory required for data: 1305071136
I0403 18:53:24.159003 17989 layer_factory.hpp:77] Creating layer inception_5a/relu_pool_proj
I0403 18:53:24.159025 17989 net.cpp:91] Creating Layer inception_5a/relu_pool_proj
I0403 18:53:24.159044 17989 net.cpp:425] inception_5a/relu_pool_proj <- inception_5a/pool_proj
I0403 18:53:24.159065 17989 net.cpp:386] inception_5a/relu_pool_proj -> inception_5a/pool_proj (in-place)
I0403 18:53:24.159400 17989 net.cpp:141] Setting up inception_5a/relu_pool_proj
I0403 18:53:24.159428 17989 net.cpp:148] Top shape: 24 128 7 7 (150528)
I0403 18:53:24.159446 17989 net.cpp:156] Memory required for data: 1305673248
I0403 18:53:24.159461 17989 layer_factory.hpp:77] Creating layer inception_5a/output
I0403 18:53:24.159479 17989 net.cpp:91] Creating Layer inception_5a/output
I0403 18:53:24.159497 17989 net.cpp:425] inception_5a/output <- inception_5a/1x1
I0403 18:53:24.159513 17989 net.cpp:425] inception_5a/output <- inception_5a/3x3
I0403 18:53:24.159531 17989 net.cpp:425] inception_5a/output <- inception_5a/5x5
I0403 18:53:24.159548 17989 net.cpp:425] inception_5a/output <- inception_5a/pool_proj
I0403 18:53:24.159565 17989 net.cpp:399] inception_5a/output -> inception_5a/output
I0403 18:53:24.159620 17989 net.cpp:141] Setting up inception_5a/output
I0403 18:53:24.159643 17989 net.cpp:148] Top shape: 24 832 7 7 (978432)
I0403 18:53:24.159658 17989 net.cpp:156] Memory required for data: 1309586976
I0403 18:53:24.159674 17989 layer_factory.hpp:77] Creating layer inception_5a/output_inception_5a/output_0_split
I0403 18:53:24.159695 17989 net.cpp:91] Creating Layer inception_5a/output_inception_5a/output_0_split
I0403 18:53:24.159713 17989 net.cpp:425] inception_5a/output_inception_5a/output_0_split <- inception_5a/output
I0403 18:53:24.159731 17989 net.cpp:399] inception_5a/output_inception_5a/output_0_split -> inception_5a/output_inception_5a/output_0_split_0
I0403 18:53:24.159751 17989 net.cpp:399] inception_5a/output_inception_5a/output_0_split -> inception_5a/output_inception_5a/output_0_split_1
I0403 18:53:24.159771 17989 net.cpp:399] inception_5a/output_inception_5a/output_0_split -> inception_5a/output_inception_5a/output_0_split_2
I0403 18:53:24.159809 17989 net.cpp:399] inception_5a/output_inception_5a/output_0_split -> inception_5a/output_inception_5a/output_0_split_3
I0403 18:53:24.159924 17989 net.cpp:141] Setting up inception_5a/output_inception_5a/output_0_split
I0403 18:53:24.159950 17989 net.cpp:148] Top shape: 24 832 7 7 (978432)
I0403 18:53:24.159967 17989 net.cpp:148] Top shape: 24 832 7 7 (978432)
I0403 18:53:24.159988 17989 net.cpp:148] Top shape: 24 832 7 7 (978432)
I0403 18:53:24.160006 17989 net.cpp:148] Top shape: 24 832 7 7 (978432)
I0403 18:53:24.160020 17989 net.cpp:156] Memory required for data: 1325241888
I0403 18:53:24.160037 17989 layer_factory.hpp:77] Creating layer inception_5b/1x1
I0403 18:53:24.160060 17989 net.cpp:91] Creating Layer inception_5b/1x1
I0403 18:53:24.160079 17989 net.cpp:425] inception_5b/1x1 <- inception_5a/output_inception_5a/output_0_split_0
I0403 18:53:24.160114 17989 net.cpp:399] inception_5b/1x1 -> inception_5b/1x1
I0403 18:53:24.163938 17989 net.cpp:141] Setting up inception_5b/1x1
I0403 18:53:24.163970 17989 net.cpp:148] Top shape: 24 384 7 7 (451584)
I0403 18:53:24.163992 17989 net.cpp:156] Memory required for data: 1327048224
I0403 18:53:24.164012 17989 layer_factory.hpp:77] Creating layer inception_5b/relu_1x1
I0403 18:53:24.164031 17989 net.cpp:91] Creating Layer inception_5b/relu_1x1
I0403 18:53:24.164048 17989 net.cpp:425] inception_5b/relu_1x1 <- inception_5b/1x1
I0403 18:53:24.164067 17989 net.cpp:386] inception_5b/relu_1x1 -> inception_5b/1x1 (in-place)
I0403 18:53:24.164371 17989 net.cpp:141] Setting up inception_5b/relu_1x1
I0403 18:53:24.164399 17989 net.cpp:148] Top shape: 24 384 7 7 (451584)
I0403 18:53:24.164415 17989 net.cpp:156] Memory required for data: 1328854560
I0403 18:53:24.164432 17989 layer_factory.hpp:77] Creating layer inception_5b/3x3_reduce
I0403 18:53:24.164451 17989 net.cpp:91] Creating Layer inception_5b/3x3_reduce
I0403 18:53:24.164470 17989 net.cpp:425] inception_5b/3x3_reduce <- inception_5a/output_inception_5a/output_0_split_1
I0403 18:53:24.164492 17989 net.cpp:399] inception_5b/3x3_reduce -> inception_5b/3x3_reduce
I0403 18:53:24.167193 17989 net.cpp:141] Setting up inception_5b/3x3_reduce
I0403 18:53:24.167224 17989 net.cpp:148] Top shape: 24 192 7 7 (225792)
I0403 18:53:24.167240 17989 net.cpp:156] Memory required for data: 1329757728
I0403 18:53:24.167260 17989 layer_factory.hpp:77] Creating layer inception_5b/relu_3x3_reduce
I0403 18:53:24.167279 17989 net.cpp:91] Creating Layer inception_5b/relu_3x3_reduce
I0403 18:53:24.167296 17989 net.cpp:425] inception_5b/relu_3x3_reduce <- inception_5b/3x3_reduce
I0403 18:53:24.167316 17989 net.cpp:386] inception_5b/relu_3x3_reduce -> inception_5b/3x3_reduce (in-place)
I0403 18:53:24.167510 17989 net.cpp:141] Setting up inception_5b/relu_3x3_reduce
I0403 18:53:24.167534 17989 net.cpp:148] Top shape: 24 192 7 7 (225792)
I0403 18:53:24.167551 17989 net.cpp:156] Memory required for data: 1330660896
I0403 18:53:24.167565 17989 layer_factory.hpp:77] Creating layer inception_5b/3x3
I0403 18:53:24.167588 17989 net.cpp:91] Creating Layer inception_5b/3x3
I0403 18:53:24.167608 17989 net.cpp:425] inception_5b/3x3 <- inception_5b/3x3_reduce
I0403 18:53:24.167630 17989 net.cpp:399] inception_5b/3x3 -> inception_5b/3x3
I0403 18:53:24.174361 17989 net.cpp:141] Setting up inception_5b/3x3
I0403 18:53:24.174392 17989 net.cpp:148] Top shape: 24 384 7 7 (451584)
I0403 18:53:24.174409 17989 net.cpp:156] Memory required for data: 1332467232
I0403 18:53:24.174429 17989 layer_factory.hpp:77] Creating layer inception_5b/relu_3x3
I0403 18:53:24.174448 17989 net.cpp:91] Creating Layer inception_5b/relu_3x3
I0403 18:53:24.174466 17989 net.cpp:425] inception_5b/relu_3x3 <- inception_5b/3x3
I0403 18:53:24.174486 17989 net.cpp:386] inception_5b/relu_3x3 -> inception_5b/3x3 (in-place)
I0403 18:53:24.174784 17989 net.cpp:141] Setting up inception_5b/relu_3x3
I0403 18:53:24.174813 17989 net.cpp:148] Top shape: 24 384 7 7 (451584)
I0403 18:53:24.174829 17989 net.cpp:156] Memory required for data: 1334273568
I0403 18:53:24.174845 17989 layer_factory.hpp:77] Creating layer inception_5b/5x5_reduce
I0403 18:53:24.174885 17989 net.cpp:91] Creating Layer inception_5b/5x5_reduce
I0403 18:53:24.174904 17989 net.cpp:425] inception_5b/5x5_reduce <- inception_5a/output_inception_5a/output_0_split_2
I0403 18:53:24.174926 17989 net.cpp:399] inception_5b/5x5_reduce -> inception_5b/5x5_reduce
I0403 18:53:24.176225 17989 net.cpp:141] Setting up inception_5b/5x5_reduce
I0403 18:53:24.176255 17989 net.cpp:148] Top shape: 24 48 7 7 (56448)
I0403 18:53:24.176272 17989 net.cpp:156] Memory required for data: 1334499360
I0403 18:53:24.176291 17989 layer_factory.hpp:77] Creating layer inception_5b/relu_5x5_reduce
I0403 18:53:24.176311 17989 net.cpp:91] Creating Layer inception_5b/relu_5x5_reduce
I0403 18:53:24.176327 17989 net.cpp:425] inception_5b/relu_5x5_reduce <- inception_5b/5x5_reduce
I0403 18:53:24.176345 17989 net.cpp:386] inception_5b/relu_5x5_reduce -> inception_5b/5x5_reduce (in-place)
I0403 18:53:24.176722 17989 net.cpp:141] Setting up inception_5b/relu_5x5_reduce
I0403 18:53:24.176748 17989 net.cpp:148] Top shape: 24 48 7 7 (56448)
I0403 18:53:24.176764 17989 net.cpp:156] Memory required for data: 1334725152
I0403 18:53:24.176779 17989 layer_factory.hpp:77] Creating layer inception_5b/5x5
I0403 18:53:24.176800 17989 net.cpp:91] Creating Layer inception_5b/5x5
I0403 18:53:24.176818 17989 net.cpp:425] inception_5b/5x5 <- inception_5b/5x5_reduce
I0403 18:53:24.176837 17989 net.cpp:399] inception_5b/5x5 -> inception_5b/5x5
I0403 18:53:24.178908 17989 net.cpp:141] Setting up inception_5b/5x5
I0403 18:53:24.178946 17989 net.cpp:148] Top shape: 24 128 7 7 (150528)
I0403 18:53:24.178962 17989 net.cpp:156] Memory required for data: 1335327264
I0403 18:53:24.178990 17989 layer_factory.hpp:77] Creating layer inception_5b/relu_5x5
I0403 18:53:24.179013 17989 net.cpp:91] Creating Layer inception_5b/relu_5x5
I0403 18:53:24.179030 17989 net.cpp:425] inception_5b/relu_5x5 <- inception_5b/5x5
I0403 18:53:24.179050 17989 net.cpp:386] inception_5b/relu_5x5 -> inception_5b/5x5 (in-place)
I0403 18:53:24.179247 17989 net.cpp:141] Setting up inception_5b/relu_5x5
I0403 18:53:24.179272 17989 net.cpp:148] Top shape: 24 128 7 7 (150528)
I0403 18:53:24.179287 17989 net.cpp:156] Memory required for data: 1335929376
I0403 18:53:24.179302 17989 layer_factory.hpp:77] Creating layer inception_5b/pool
I0403 18:53:24.179323 17989 net.cpp:91] Creating Layer inception_5b/pool
I0403 18:53:24.179342 17989 net.cpp:425] inception_5b/pool <- inception_5a/output_inception_5a/output_0_split_3
I0403 18:53:24.179361 17989 net.cpp:399] inception_5b/pool -> inception_5b/pool
I0403 18:53:24.179437 17989 net.cpp:141] Setting up inception_5b/pool
I0403 18:53:24.179461 17989 net.cpp:148] Top shape: 24 832 7 7 (978432)
I0403 18:53:24.179476 17989 net.cpp:156] Memory required for data: 1339843104
I0403 18:53:24.179491 17989 layer_factory.hpp:77] Creating layer inception_5b/pool_proj
I0403 18:53:24.179514 17989 net.cpp:91] Creating Layer inception_5b/pool_proj
I0403 18:53:24.179533 17989 net.cpp:425] inception_5b/pool_proj <- inception_5b/pool
I0403 18:53:24.179555 17989 net.cpp:399] inception_5b/pool_proj -> inception_5b/pool_proj
I0403 18:53:24.181859 17989 net.cpp:141] Setting up inception_5b/pool_proj
I0403 18:53:24.181890 17989 net.cpp:148] Top shape: 24 128 7 7 (150528)
I0403 18:53:24.181907 17989 net.cpp:156] Memory required for data: 1340445216
I0403 18:53:24.181927 17989 layer_factory.hpp:77] Creating layer inception_5b/relu_pool_proj
I0403 18:53:24.181946 17989 net.cpp:91] Creating Layer inception_5b/relu_pool_proj
I0403 18:53:24.181963 17989 net.cpp:425] inception_5b/relu_pool_proj <- inception_5b/pool_proj
I0403 18:53:24.181988 17989 net.cpp:386] inception_5b/relu_pool_proj -> inception_5b/pool_proj (in-place)
I0403 18:53:24.182289 17989 net.cpp:141] Setting up inception_5b/relu_pool_proj
I0403 18:53:24.182318 17989 net.cpp:148] Top shape: 24 128 7 7 (150528)
I0403 18:53:24.182335 17989 net.cpp:156] Memory required for data: 1341047328
I0403 18:53:24.182350 17989 layer_factory.hpp:77] Creating layer inception_5b/output
I0403 18:53:24.182369 17989 net.cpp:91] Creating Layer inception_5b/output
I0403 18:53:24.182399 17989 net.cpp:425] inception_5b/output <- inception_5b/1x1
I0403 18:53:24.182418 17989 net.cpp:425] inception_5b/output <- inception_5b/3x3
I0403 18:53:24.182435 17989 net.cpp:425] inception_5b/output <- inception_5b/5x5
I0403 18:53:24.182452 17989 net.cpp:425] inception_5b/output <- inception_5b/pool_proj
I0403 18:53:24.182469 17989 net.cpp:399] inception_5b/output -> inception_5b/output
I0403 18:53:24.182524 17989 net.cpp:141] Setting up inception_5b/output
I0403 18:53:24.182548 17989 net.cpp:148] Top shape: 24 1024 7 7 (1204224)
I0403 18:53:24.182564 17989 net.cpp:156] Memory required for data: 1345864224
I0403 18:53:24.182580 17989 layer_factory.hpp:77] Creating layer pool5/7x7_s1
I0403 18:53:24.182600 17989 net.cpp:91] Creating Layer pool5/7x7_s1
I0403 18:53:24.182617 17989 net.cpp:425] pool5/7x7_s1 <- inception_5b/output
I0403 18:53:24.182636 17989 net.cpp:399] pool5/7x7_s1 -> pool5/7x7_s1
I0403 18:53:24.182853 17989 net.cpp:141] Setting up pool5/7x7_s1
I0403 18:53:24.182878 17989 net.cpp:148] Top shape: 24 1024 1 1 (24576)
I0403 18:53:24.182894 17989 net.cpp:156] Memory required for data: 1345962528
I0403 18:53:24.182909 17989 layer_factory.hpp:77] Creating layer pool5/drop_7x7_s1
I0403 18:53:24.182929 17989 net.cpp:91] Creating Layer pool5/drop_7x7_s1
I0403 18:53:24.182945 17989 net.cpp:425] pool5/drop_7x7_s1 <- pool5/7x7_s1
I0403 18:53:24.182966 17989 net.cpp:386] pool5/drop_7x7_s1 -> pool5/7x7_s1 (in-place)
I0403 18:53:24.183022 17989 net.cpp:141] Setting up pool5/drop_7x7_s1
I0403 18:53:24.183048 17989 net.cpp:148] Top shape: 24 1024 1 1 (24576)
I0403 18:53:24.183064 17989 net.cpp:156] Memory required for data: 1346060832
I0403 18:53:24.183079 17989 layer_factory.hpp:77] Creating layer loss3/classifier_plantvillage
I0403 18:53:24.183099 17989 net.cpp:91] Creating Layer loss3/classifier_plantvillage
I0403 18:53:24.183116 17989 net.cpp:425] loss3/classifier_plantvillage <- pool5/7x7_s1
I0403 18:53:24.183138 17989 net.cpp:399] loss3/classifier_plantvillage -> loss3/classifier_plantvillage
I0403 18:53:24.183565 17989 net.cpp:141] Setting up loss3/classifier_plantvillage
I0403 18:53:24.183590 17989 net.cpp:148] Top shape: 24 38 (912)
I0403 18:53:24.183605 17989 net.cpp:156] Memory required for data: 1346064480
I0403 18:53:24.183624 17989 layer_factory.hpp:77] Creating layer loss3/classifier_plantvillage_loss3/classifier_plantvillage_0_split
I0403 18:53:24.183645 17989 net.cpp:91] Creating Layer loss3/classifier_plantvillage_loss3/classifier_plantvillage_0_split
I0403 18:53:24.183663 17989 net.cpp:425] loss3/classifier_plantvillage_loss3/classifier_plantvillage_0_split <- loss3/classifier_plantvillage
I0403 18:53:24.183681 17989 net.cpp:399] loss3/classifier_plantvillage_loss3/classifier_plantvillage_0_split -> loss3/classifier_plantvillage_loss3/classifier_plantvillage_0_split_0
I0403 18:53:24.183702 17989 net.cpp:399] loss3/classifier_plantvillage_loss3/classifier_plantvillage_0_split -> loss3/classifier_plantvillage_loss3/classifier_plantvillage_0_split_1
I0403 18:53:24.183722 17989 net.cpp:399] loss3/classifier_plantvillage_loss3/classifier_plantvillage_0_split -> loss3/classifier_plantvillage_loss3/classifier_plantvillage_0_split_2
I0403 18:53:24.183748 17989 net.cpp:399] loss3/classifier_plantvillage_loss3/classifier_plantvillage_0_split -> loss3/classifier_plantvillage_loss3/classifier_plantvillage_0_split_3
I0403 18:53:24.183850 17989 net.cpp:141] Setting up loss3/classifier_plantvillage_loss3/classifier_plantvillage_0_split
I0403 18:53:24.183873 17989 net.cpp:148] Top shape: 24 38 (912)
I0403 18:53:24.183890 17989 net.cpp:148] Top shape: 24 38 (912)
I0403 18:53:24.183907 17989 net.cpp:148] Top shape: 24 38 (912)
I0403 18:53:24.183923 17989 net.cpp:148] Top shape: 24 38 (912)
I0403 18:53:24.183936 17989 net.cpp:156] Memory required for data: 1346079072
I0403 18:53:24.183954 17989 layer_factory.hpp:77] Creating layer loss1/loss
I0403 18:53:24.183975 17989 net.cpp:91] Creating Layer loss1/loss
I0403 18:53:24.183998 17989 net.cpp:425] loss1/loss <- loss1/classifier_plantvillage_loss1/classifier_plantvillage_0_split_0
I0403 18:53:24.184029 17989 net.cpp:425] loss1/loss <- label_data_1_split_0
…
