…
I0403 18:49:13.383023 17746 net.cpp:313] The NetState phase (1) differed from the phase (0) specified by a rule in layer data
I0403 18:49:13.384179 17746 net.cpp:49] Initializing net from parameters: 
state {
  phase: TEST
}
layer {
  name: "data"
  type: "Data"
  top: "data"
  top: "label"
  include {
    phase: TEST
  }
  transform_param {
    mirror: false
    crop_size: 224
    mean_file: "/home/mohanty/data/final_dataset/lmdb/segmented-60-40/mean.binaryproto"
  }
  data_param {
    source: "/home/mohanty/data/final_dataset/lmdb/segmented-60-40/test_db"
    batch_size: 24
    backend: LMDB
  }
}
layer {
  name: "conv1/7x7_s2"
  type: "Convolution"
  bottom: "data"
  top: "conv1/7x7_s2"
  param {
    lr_mult: 1
    decay_mult: 1
  }
  param {
    lr_mult: 2
    decay_mult: 0
  }
  convolution_param {
    num_output: 64
    pad: 3
    kernel_size: 7
    stride: 2
    weight_filler {
      type: "xavier"
      std: 0.1
    }
    bias_filler {
      type: "constant"
      value: 0.2
    }
  }
}
layer {
  name: "conv1/relu_7x7"
  type: "ReLU"
  bottom: "conv1/7x7_s2"
  top: "conv1/7x7_s2"
}
layer {
  name: "pool1/3x3_s2"
  type: "Pooling"
  bottom: "conv1/7x7_s2"
  top: "pool1/3x3_s2"
  pooling_param {
    pool: MAX
    kernel_size: 3
    stride: 2
  }
}
layer {
  name: "pool1/norm1"
  type: "LRN"
  bottom: "pool1/3x3_s2"
  top: "pool1/norm1"
  lrn_param {
    local_size: 5
    alpha: 0.0001
    beta: 0.75
  }
}
layer {
  name: "conv2/3x3_reduce"
  type: "Convolution"
  bottom: "pool1/norm1"
  top: "conv2/3x3_reduce"
  param {
    lr_mult: 1
    decay_mult: 1
  }
  param {
    lr_mult: 2
    decay_mult: 0
  }
  convolution_param {
    num_output: 64
    kernel_size: 1
    weight_filler {
      type: "xavier"
      std: 0.1
    }
    bias_filler {
      type: "constant"
      value: 0.2
    }
  }
}
layer {
  name: "conv2/relu_3x3_reduce"
  type: "ReLU"
  bottom: "conv2/3x3_reduce"
  top: "conv2/3x3_reduce"
}
layer {
  name: "conv2/3x3"
  type: "Convolution"
  bottom: "conv2/3x3_reduce"
  top: "conv2/3x3"
  param {
    lr_mult: 1
    decay_mult: 1
  }
  param {
    lr_mult: 2
    decay_mult: 0
  }
  convolution_param {
    num_output: 192
    pad: 1
    kernel_size: 3
    weight_filler {
      type: "xavier"
      std: 0.03
    }
    bias_filler {
      type: "constant"
      value: 0.2
    }
  }
}
layer {
  name: "conv2/relu_3x3"
  type: "ReLU"
  bottom: "conv2/3x3"
  top: "conv2/3x3"
}
layer {
  name: "conv2/norm2"
  type: "LRN"
  bottom: "conv2/3x3"
  top: "conv2/norm2"
  lrn_param {
    local_size: 5
    alpha: 0.0001
    beta: 0.75
  }
}
layer {
  name: "pool2/3x3_s2"
  type: "Pooling"
  bottom: "conv2/norm2"
  top: "pool2/3x3_s2"
  pooling_param {
    pool: MAX
    kernel_size: 3
    stride: 2
  }
}
layer {
  name: "inception_3a/1x1"
  type: "Convolution"
  bottom: "pool2/3x3_s2"
  top: "inception_3a/1x1"
  param {
    lr_mult: 1
    decay_mult: 1
  }
  param {
    lr_mult: 2
    decay_mult: 0
  }
  convolution_param {
    num_output: 64
    kernel_size: 1
    weight_filler {
      type: "xavier"
      std: 0.03
    }
    bias_filler {
      type: "constant"
      value: 0.2
    }
  }
}
layer {
  name: "inception_3a/relu_1x1"
  type: "ReLU"
  bottom: "inception_3a/1x1"
  top: "inception_3a/1x1"
}
layer {
  name: "inception_3a/3x3_reduce"
  type: "Convolution"
  bottom: "pool2/3x3_s2"
  top: "inception_3a/3x3_reduce"
  param {
    lr_mult: 1
    decay_mult: 1
  }
  param {
    lr_mult: 2
    decay_mult: 0
  }
  convolution_param {
    num_output: 96
    kernel_size: 1
    weight_filler {
      type: "xavier"
      std: 0.09
    }
    bias_filler {
      type: "constant"
      value: 0.2
    }
  }
}
layer {
  name: "inception_3a/relu_3x3_reduce"
  type: "ReLU"
  bottom: "inception_3a/3x3_reduce"
  top: "inception_3a/3x3_reduce"
}
layer {
  name: "inception_3a/3x3"
  type: "Convolution"
  bottom: "inception_3a/3x3_reduce"
  top: "inception_3a/3x3"
  param {
    lr_mult: 1
    decay_mult: 1
  }
  param {
    lr_mult: 2
    decay_mult: 0
  }
  convolution_param {
    num_output: 128
    pad: 1
    kernel_size: 3
    weight_filler {
      type: "xavier"
      std: 0.03
    }
    bias_filler {
      type: "constant"
      value: 0.2
    }
  }
}
layer {
  name: "inception_3a/relu_3x3"
  type: "ReLU"
  bottom: "inception_3a/3x3"
  top: "inception_3a/3x3"
}
layer {
  name: "inception_3a/5x5_reduce"
  type: "Convolution"
  bottom: "pool2/3x3_s2"
  top: "inception_3a/5x5_reduce"
  param {
    lr_mult: 1
    decay_mult: 1
  }
  param {
    lr_mult: 2
    decay_mult: 0
  }
  convolution_param {
    num_output: 16
    kernel_size: 1
    weight_filler {
      type: "xavier"
      std: 0.2
    }
    bias_filler {
      type: "constant"
      value: 0.2
    }
  }
}
layer {
  name: "inception_3a/relu_5x5_reduce"
  type: "ReLU"
  bottom: "inception_3a/5x5_reduce"
  top: "inception_3a/5x5_reduce"
}
layer {
  name: "inception_3a/5x5"
  type: "Convolution"
  bottom: "inception_3a/5x5_reduce"
  top: "inception_3a/5x5"
  param {
    lr_mult: 1
    decay_mult: 1
  }
  param {
    lr_mult: 2
    decay_mult: 0
  }
  convolution_param {
    num_output: 32
    pad: 2
    kernel_size: 5
    weight_filler {
      type: "xavier"
      std: 0.03
    }
    bias_filler {
      type: "constant"
      value: 0.2
    }
  }
}
layer {
  name: "inception_3a/relu_5x5"
  type: "ReLU"
  bottom: "inception_3a/5x5"
  top: "inception_3a/5x5"
}
layer {
  name: "inception_3a/pool"
  type: "Pooling"
  bottom: "pool2/3x3_s2"
  top: "inception_3a/pool"
  pooling_param {
    pool: MAX
    kernel_size: 3
    stride: 1
    pad: 1
  }
}
layer {
  name: "inception_3a/pool_proj"
  type: "Convolution"
  bottom: "inception_3a/pool"
  top: "inception_3a/pool_proj"
  param {
    lr_mult: 1
    decay_mult: 1
  }
  param {
    lr_mult: 2
    decay_mult: 0
  }
  convolution_param {
    num_output: 32
    kernel_size: 1
    weight_filler {
      type: "xavier"
      std: 0.1
    }
    bias_filler {
      type: "constant"
      value: 0.2
    }
  }
}
layer {
  name: "inception_3a/relu_pool_proj"
  type: "ReLU"
  bottom: "inception_3a/pool_proj"
  top: "inception_3a/pool_proj"
}
layer {
  name: "inception_3a/output"
  type: "Concat"
  bottom: "inception_3a/1x1"
  bottom: "inception_3a/3x3"
  bottom: "inception_3a/5x5"
  bottom: "inception_3a/pool_proj"
  top: "inception_3a/output"
}
layer {
  name: "inception_3b/1x1"
  type: "Convolution"
  bottom: "inception_3a/output"
  top: "inception_3b/1x1"
  param {
    lr_mult: 1
    decay_mult: 1
  }
  param {
    lr_mult: 2
    decay_mult: 0
  }
  convolution_param {
    num_output: 128
    kernel_size: 1
    weight_filler {
      type: "xavier"
      std: 0.03
    }
    bias_filler {
      type: "constant"
      value: 0.2
    }
  }
}
layer {
  name: "inception_3b/relu_1x1"
  type: "ReLU"
  bottom: "inception_3b/1x1"
  top: "inception_3b/1x1"
}
layer {
  name: "inception_3b/3x3_reduce"
  type: "Convolution"
  bottom: "inception_3a/output"
  top: "inception_3b/3x3_reduce"
  param {
    lr_mult: 1
    decay_mult: 1
  }
  param {
    lr_mult: 2
    decay_mult: 0
  }
  convolution_param {
    num_output: 128
    kernel_size: 1
    weight_filler {
      type: "xavier"
      std: 0.09
    }
    bias_filler {
      type: "constant"
      value: 0.2
    }
  }
}
layer {
  name: "inception_3b/relu_3x3_reduce"
  type: "ReLU"
  bottom: "inception_3b/3x3_reduce"
  top: "inception_3b/3x3_reduce"
}
layer {
  name: "inception_3b/3x3"
  type: "Convolution"
  bottom: "inception_3b/3x3_reduce"
  top: "inception_3b/3x3"
  param {
    lr_mult: 1
    decay_mult: 1
  }
  param {
    lr_mult: 2
    decay_mult: 0
  }
  convolution_param {
    num_output: 192
    pad: 1
    kernel_size: 3
    weight_filler {
      type: "xavier"
      std: 0.03
    }
    bias_filler {
      type: "constant"
      value: 0.2
    }
  }
}
layer {
  name: "inception_3b/relu_3x3"
  type: "ReLU"
  bottom: "inception_3b/3x3"
  top: "inception_3b/3x3"
}
layer {
  name: "inception_3b/5x5_reduce"
  type: "Convolution"
  bottom: "inception_3a/output"
  top: "inception_3b/5x5_reduce"
  param {
    lr_mult: 1
    decay_mult: 1
  }
  param {
    lr_mult: 2
    decay_mult: 0
  }
  convolution_param {
    num_output: 32
    kernel_size: 1
    weight_filler {
      type: "xavier"
      std: 0.2
    }
    bias_filler {
      type: "constant"
      value: 0.2
    }
  }
}
layer {
  name: "inception_3b/relu_5x5_reduce"
  type: "ReLU"
  bottom: "inception_3b/5x5_reduce"
  top: "inception_3b/5x5_reduce"
}
layer {
  name: "inception_3b/5x5"
  type: "Convolution"
  bottom: "inception_3b/5x5_reduce"
  top: "inception_3b/5x5"
  param {
    lr_mult: 1
    decay_mult: 1
  }
  param {
    lr_mult: 2
    decay_mult: 0
  }
  convolution_param {
    num_output: 96
    pad: 2
    kernel_size: 5
    weight_filler {
      type: "xavier"
      std: 0.03
    }
    bias_filler {
      type: "constant"
      value: 0.2
    }
  }
}
layer {
  name: "inception_3b/relu_5x5"
  type: "ReLU"
  bottom: "inception_3b/5x5"
  top: "inception_3b/5x5"
}
layer {
  name: "inception_3b/pool"
  type: "Pooling"
  bottom: "inception_3a/output"
  top: "inception_3b/pool"
  pooling_param {
    pool: MAX
    kernel_size: 3
    stride: 1
    pad: 1
  }
}
layer {
  name: "inception_3b/pool_proj"
  type: "Convolution"
  bottom: "inception_3b/pool"
  top: "inception_3b/pool_proj"
  param {
    lr_mult: 1
    decay_mult: 1
  }
  param {
    lr_mult: 2
    decay_mult: 0
  }
  convolution_param {
    num_output: 64
    kernel_size: 1
    weight_filler {
      type: "xavier"
      std: 0.1
    }
    bias_filler {
      type: "constant"
      value: 0.2
    }
  }
}
layer {
  name: "inception_3b/relu_pool_proj"
  type: "ReLU"
  bottom: "inception_3b/pool_proj"
  top: "inception_3b/pool_proj"
}
layer {
  name: "inception_3b/output"
  type: "Concat"
  bottom: "inception_3b/1x1"
  bottom: "inception_3b/3x3"
  bottom: "inception_3b/5x5"
  bottom: "inception_3b/pool_proj"
  top: "inception_3b/output"
}
layer {
  name: "pool3/3x3_s2"
  type: "Pooling"
  bottom: "inception_3b/output"
  top: "pool3/3x3_s2"
  pooling_param {
    pool: MAX
    kernel_size: 3
    stride: 2
  }
}
layer {
  name: "inception_4a/1x1"
  type: "Convolution"
  bottom: "pool3/3x3_s2"
  top: "inception_4a/1x1"
  param {
    lr_mult: 1
    decay_mult: 1
  }
  param {
    lr_mult: 2
    decay_mult: 0
  }
  convolution_param {
    num_output: 192
    kernel_size: 1
    weight_filler {
      type: "xavier"
      std: 0.03
    }
    bias_filler {
      type: "constant"
      value: 0.2
    }
  }
}
layer {
  name: "inception_4a/relu_1x1"
  type: "ReLU"
  bottom: "inception_4a/1x1"
  top: "inception_4a/1x1"
}
layer {
  name: "inception_4a/3x3_reduce"
  type: "Convolution"
  bottom: "pool3/3x3_s2"
  top: "inception_4a/3x3_reduce"
  param {
    lr_mult: 1
    decay_mult: 1
  }
  param {
    lr_mult: 2
    decay_mult: 0
  }
  convolution_param {
    num_output: 96
    kernel_size: 1
    weight_filler {
      type: "xavier"
      std: 0.09
    }
    bias_filler {
      type: "constant"
      value: 0.2
    }
  }
}
layer {
  name: "inception_4a/relu_3x3_reduce"
  type: "ReLU"
  bottom: "inception_4a/3x3_reduce"
  top: "inception_4a/3x3_reduce"
}
layer {
  name: "inception_4a/3x3"
  type: "Convolution"
  bottom: "inception_4a/3x3_reduce"
  top: "inception_4a/3x3"
  param {
    lr_mult: 1
    decay_mult: 1
  }
  param {
    lr_mult: 2
    decay_mult: 0
  }
  convolution_param {
    num_output: 208
    pad: 1
    kernel_size: 3
    weight_filler {
      type: "xavier"
      std: 0.03
    }
    bias_filler {
      type: "constant"
      value: 0.2
    }
  }
}
layer {
  name: "inception_4a/relu_3x3"
  type: "ReLU"
  bottom: "inception_4a/3x3"
  top: "inception_4a/3x3"
}
layer {
  name: "inception_4a/5x5_reduce"
  type: "Convolution"
  bottom: "pool3/3x3_s2"
  top: "inception_4a/5x5_reduce"
  param {
    lr_mult: 1
    decay_mult: 1
  }
  param {
    lr_mult: 2
    decay_mult: 0
  }
  convolution_param {
    num_output: 16
    kernel_size: 1
    weight_filler {
      type: "xavier"
      std: 0.2
    }
    bias_filler {
      type: "constant"
      value: 0.2
    }
  }
}
layer {
  name: "inception_4a/relu_5x5_reduce"
  type: "ReLU"
  bottom: "inception_4a/5x5_reduce"
  top: "inception_4a/5x5_reduce"
}
layer {
  name: "inception_4a/5x5"
  type: "Convolution"
  bottom: "inception_4a/5x5_reduce"
  top: "inception_4a/5x5"
  param {
    lr_mult: 1
    decay_mult: 1
  }
  param {
    lr_mult: 2
    decay_mult: 0
  }
  convolution_param {
    num_output: 48
    pad: 2
    kernel_size: 5
    weight_filler {
      type: "xavier"
      std: 0.03
    }
    bias_filler {
      type: "constant"
      value: 0.2
    }
  }
}
layer {
  name: "inception_4a/relu_5x5"
  type: "ReLU"
  bottom: "inception_4a/5x5"
  top: "inception_4a/5x5"
}
layer {
  name: "inception_4a/pool"
  type: "Pooling"
  bottom: "pool3/3x3_s2"
  top: "inception_4a/pool"
  pooling_param {
    pool: MAX
    kernel_size: 3
    stride: 1
    pad: 1
  }
}
layer {
  name: "inception_4a/pool_proj"
  type: "Convolution"
  bottom: "inception_4a/pool"
  top: "inception_4a/pool_proj"
  param {
    lr_mult: 1
    decay_mult: 1
  }
  param {
    lr_mult: 2
    decay_mult: 0
  }
  convolution_param {
    num_output: 64
    kernel_size: 1
    weight_filler {
      type: "xavier"
      std: 0.1
    }
    bias_filler {
      type: "constant"
      value: 0.2
    }
  }
}
layer {
  name: "inception_4a/relu_pool_proj"
  type: "ReLU"
  bottom: "inception_4a/pool_proj"
  top: "inception_4a/pool_proj"
}
layer {
  name: "inception_4a/output"
  type: "Concat"
  bottom: "inception_4a/1x1"
  bottom: "inception_4a/3x3"
  bottom: "inception_4a/5x5"
  bottom: "inception_4a/pool_proj"
  top: "inception_4a/output"
}
layer {
  name: "loss1/ave_pool"
  type: "Pooling"
  bottom: "inception_4a/output"
  top: "loss1/ave_pool"
  pooling_param {
    pool: AVE
    kernel_size: 5
    stride: 3
  }
}
layer {
  name: "loss1/conv"
  type: "Convolution"
  bottom: "loss1/ave_pool"
  top: "loss1/conv"
  param {
    lr_mult: 1
    decay_mult: 1
  }
  param {
    lr_mult: 2
    decay_mult: 0
  }
  convolution_param {
    num_output: 128
    kernel_size: 1
    weight_filler {
      type: "xavier"
      std: 0.08
    }
    bias_filler {
      type: "constant"
      value: 0.2
    }
  }
}
layer {
  name: "loss1/relu_conv"
  type: "ReLU"
  bottom: "loss1/conv"
  top: "loss1/conv"
}
layer {
  name: "loss1/fc"
  type: "InnerProduct"
  bottom: "loss1/conv"
  top: "loss1/fc"
  param {
    lr_mult: 1
    decay_mult: 1
  }
  param {
    lr_mult: 2
    decay_mult: 0
  }
  inner_product_param {
    num_output: 1024
    weight_filler {
      type: "xavier"
      std: 0.02
    }
    bias_filler {
      type: "constant"
      value: 0.2
    }
  }
}
layer {
  name: "loss1/relu_fc"
  type: "ReLU"
  bottom: "loss1/fc"
  top: "loss1/fc"
}
layer {
  name: "loss1/drop_fc"
  type: "Dropout"
  bottom: "loss1/fc"
  top: "loss1/fc"
  dropout_param {
    dropout_ratio: 0.7
  }
}
layer {
  name: "loss1/classifier_plantvillage"
  type: "InnerProduct"
  bottom: "loss1/fc"
  top: "loss1/classifier_plantvillage"
  param {
    lr_mult: 1
    decay_mult: 1
  }
  param {
    lr_mult: 2
    decay_mult: 0
  }
  inner_product_param {
    num_output: 38
    weight_filler {
      type: "xavier"
      std: 0.0009765625
    }
    bias_filler {
      type: "constant"
      value: 0
    }
  }
}
layer {
  name: "inception_4b/1x1"
  type: "Convolution"
  bottom: "inception_4a/output"
  top: "inception_4b/1x1"
  param {
    lr_mult: 1
    decay_mult: 1
  }
  param {
    lr_mult: 2
    decay_mult: 0
  }
  convolution_param {
    num_output: 160
    kernel_size: 1
    weight_filler {
      type: "xavier"
      std: 0.03
    }
    bias_filler {
      type: "constant"
      value: 0.2
    }
  }
}
layer {
  name: "inception_4b/relu_1x1"
  type: "ReLU"
  bottom: "inception_4b/1x1"
  top: "inception_4b/1x1"
}
layer {
  name: "inception_4b/3x3_reduce"
  type: "Convolution"
  bottom: "inception_4a/output"
  top: "inception_4b/3x3_reduce"
  param {
    lr_mult: 1
    decay_mult: 1
  }
  param {
    lr_mult: 2
    decay_mult: 0
  }
  convolution_param {
    num_output: 112
    kernel_size: 1
    weight_filler {
      type: "xavier"
      std: 0.09
    }
    bias_filler {
      type: "constant"
      value: 0.2
    }
  }
}
layer {
  name: "inception_4b/relu_3x3_reduce"
  type: "ReLU"
  bottom: "inception_4b/3x3_reduce"
  top: "inception_4b/3x3_reduce"
}
layer {
  name: "inception_4b/3x3"
  type: "Convolution"
  bottom: "inception_4b/3x3_reduce"
  top: "inception_4b/3x3"
  param {
    lr_mult: 1
    decay_mult: 1
  }
  param {
    lr_mult: 2
    decay_mult: 0
  }
  convolution_param {
    num_output: 224
    pad: 1
    kernel_size: 3
    weight_filler {
      type: "xavier"
      std: 0.03
    }
    bias_filler {
      type: "constant"
      value: 0.2
    }
  }
}
layer {
  name: "inception_4b/relu_3x3"
  type: "ReLU"
  bottom: "inception_4b/3x3"
  top: "inception_4b/3x3"
}
layer {
  name: "inception_4b/5x5_reduce"
  type: "Convolution"
  bottom: "inception_4a/output"
  top: "inception_4b/5x5_reduce"
  param {
    lr_mult: 1
    decay_mult: 1
  }
  param {
    lr_mult: 2
    decay_mult: 0
  }
  convolution_param {
    num_output: 24
    kernel_size: 1
    weight_filler {
      type: "xavier"
      std: 0.2
    }
    bias_filler {
      type: "constant"
      value: 0.2
    }
  }
}
layer {
  name: "inception_4b/relu_5x5_reduce"
  type: "ReLU"
  bottom: "inception_4b/5x5_reduce"
  top: "inception_4b/5x5_reduce"
}
layer {
  name: "inception_4b/5x5"
  type: "Convolution"
  bottom: "inception_4b/5x5_reduce"
  top: "inception_4b/5x5"
  param {
    lr_mult: 1
    decay_mult: 1
  }
  param {
    lr_mult: 2
    decay_mult: 0
  }
  convolution_param {
    num_output: 64
    pad: 2
    kernel_size: 5
    weight_filler {
      type: "xavier"
      std: 0.03
    }
    bias_filler {
      type: "constant"
      value: 0.2
    }
  }
}
layer {
  name: "inception_4b/relu_5x5"
  type: "ReLU"
  bottom: "inception_4b/5x5"
  top: "inception_4b/5x5"
}
layer {
  name: "inception_4b/pool"
  type: "Pooling"
  bottom: "inception_4a/output"
  top: "inception_4b/pool"
  pooling_param {
    pool: MAX
    kernel_size: 3
    stride: 1
    pad: 1
  }
}
layer {
  name: "inception_4b/pool_proj"
  type: "Convolution"
  bottom: "inception_4b/pool"
  top: "inception_4b/pool_proj"
  param {
    lr_mult: 1
    decay_mult: 1
  }
  param {
    lr_mult: 2
    decay_mult: 0
  }
  convolution_param {
    num_output: 64
    kernel_size: 1
    weight_filler {
      type: "xavier"
      std: 0.1
    }
    bias_filler {
      type: "constant"
      value: 0.2
    }
  }
}
layer {
  name: "inception_4b/relu_pool_proj"
  type: "ReLU"
  bottom: "inception_4b/pool_proj"
  top: "inception_4b/pool_proj"
}
layer {
  name: "inception_4b/output"
  type: "Concat"
  bottom: "inception_4b/1x1"
  bottom: "inception_4b/3x3"
  bottom: "inception_4b/5x5"
  bottom: "inception_4b/pool_proj"
  top: "inception_4b/output"
}
layer {
  name: "inception_4c/1x1"
  type: "Convolution"
  bottom: "inception_4b/output"
  top: "inception_4c/1x1"
  param {
    lr_mult: 1
    decay_mult: 1
  }
  param {
    lr_mult: 2
    decay_mult: 0
  }
  convolution_param {
    num_output: 128
    kernel_size: 1
    weight_filler {
      type: "xavier"
      std: 0.03
    }
    bias_filler {
      type: "constant"
      value: 0.2
    }
  }
}
layer {
  name: "inception_4c/relu_1x1"
  type: "ReLU"
  bottom: "inception_4c/1x1"
  top: "inception_4c/1x1"
}
layer {
  name: "inception_4c/3x3_reduce"
  type: "Convolution"
  bottom: "inception_4b/output"
  top: "inception_4c/3x3_reduce"
  param {
    lr_mult: 1
    decay_mult: 1
  }
  param {
    lr_mult: 2
    decay_mult: 0
  }
  convolution_param {
    num_output: 128
    kernel_size: 1
    weight_filler {
      type: "xavier"
      std: 0.09
    }
    bias_filler {
      type: "constant"
      value: 0.2
    }
  }
}
layer {
  name: "inception_4c/relu_3x3_reduce"
  type: "ReLU"
  bottom: "inception_4c/3x3_reduce"
  top: "inception_4c/3x3_reduce"
}
layer {
  name: "inception_4c/3x3"
  type: "Convolution"
  bottom: "inception_4c/3x3_reduce"
  top: "inception_4c/3x3"
  param {
    lr_mult: 1
    decay_mult: 1
  }
  param {
    lr_mult: 2
    decay_mult: 0
  }
  convolution_param {
    num_output: 256
    pad: 1
    kernel_size: 3
    weight_filler {
      type: "xavier"
      std: 0.03
    }
    bias_filler {
      type: "constant"
      value: 0.2
    }
  }
}
layer {
  name: "inception_4c/relu_3x3"
  type: "ReLU"
  bottom: "inception_4c/3x3"
  top: "inception_4c/3x3"
}
layer {
  name: "inception_4c/5x5_reduce"
  type: "Convolution"
  bottom: "inception_4b/output"
  top: "inception_4c/5x5_reduce"
  param {
    lr_mult: 1
    decay_mult: 1
  }
  param {
    lr_mult: 2
    decay_mult: 0
  }
  convolution_param {
    num_output: 24
    kernel_size: 1
    weight_filler {
      type: "xavier"
      std: 0.2
    }
    bias_filler {
      type: "constant"
      value: 0.2
    }
  }
}
layer {
  name: "inception_4c/relu_5x5_reduce"
  type: "ReLU"
  bottom: "inception_4c/5x5_reduce"
  top: "inception_4c/5x5_reduce"
}
layer {
  name: "inception_4c/5x5"
  type: "Convolution"
  bottom: "inception_4c/5x5_reduce"
  top: "inception_4c/5x5"
  param {
    lr_mult: 1
    decay_mult: 1
  }
  param {
    lr_mult: 2
    decay_mult: 0
  }
  convolution_param {
    num_output: 64
    pad: 2
    kernel_size: 5
    weight_filler {
      type: "xavier"
      std: 0.03
    }
    bias_filler {
      type: "constant"
      value: 0.2
    }
  }
}
layer {
  name: "inception_4c/relu_5x5"
  type: "ReLU"
  bottom: "inception_4c/5x5"
  top: "inception_4c/5x5"
}
layer {
  name: "inception_4c/pool"
  type: "Pooling"
  bottom: "inception_4b/output"
  top: "inception_4c/pool"
  pooling_param {
    pool: MAX
    kernel_size: 3
    stride: 1
    pad: 1
  }
}
layer {
  name: "inception_4c/pool_proj"
  type: "Convolution"
  bottom: "inception_4c/pool"
  top: "inception_4c/pool_proj"
  param {
    lr_mult: 1
    decay_mult: 1
  }
  param {
    lr_mult: 2
    decay_mult: 0
  }
  convolution_param {
    num_output: 64
    kernel_size: 1
    weight_filler {
      type: "xavier"
      std: 0.1
    }
    bias_filler {
      type: "constant"
      value: 0.2
    }
  }
}
layer {
  name: "inception_4c/relu_pool_proj"
  type: "ReLU"
  bottom: "inception_4c/pool_proj"
  top: "inception_4c/pool_proj"
}
layer {
  name: "inception_4c/output"
  type: "Concat"
  bottom: "inception_4c/1x1"
  bottom: "inception_4c/3x3"
  bottom: "inception_4c/5x5"
  bottom: "inception_4c/pool_proj"
  top: "inception_4c/output"
}
layer {
  name: "inception_4d/1x1"
  type: "Convolution"
  bottom: "inception_4c/output"
  top: "inception_4d/1x1"
  param {
    lr_mult: 1
    decay_mult: 1
  }
  param {
    lr_mult: 2
    decay_mult: 0
  }
  convolution_param {
    num_output: 112
    kernel_size: 1
    weight_filler {
      type: "xavier"
      std: 0.03
    }
    bias_filler {
      type: "constant"
      value: 0.2
    }
  }
}
layer {
  name: "inception_4d/relu_1x1"
  type: "ReLU"
  bottom: "inception_4d/1x1"
  top: "inception_4d/1x1"
}
layer {
  name: "inception_4d/3x3_reduce"
  type: "Convolution"
  bottom: "inception_4c/output"
  top: "inception_4d/3x3_reduce"
  param {
    lr_mult: 1
    decay_mult: 1
  }
  param {
    lr_mult: 2
    decay_mult: 0
  }
  convolution_param {
    num_output: 144
    kernel_size: 1
    weight_filler {
      type: "xavier"
      std: 0.09
    }
    bias_filler {
      type: "constant"
      value: 0.2
    }
  }
}
layer {
  name: "inception_4d/relu_3x3_reduce"
  type: "ReLU"
  bottom: "inception_4d/3x3_reduce"
  top: "inception_4d/3x3_reduce"
}
layer {
  name: "inception_4d/3x3"
  type: "Convolution"
  bottom: "inception_4d/3x3_reduce"
  top: "inception_4d/3x3"
  param {
    lr_mult: 1
    decay_mult: 1
  }
  param {
    lr_mult: 2
    decay_mult: 0
  }
  convolution_param {
    num_output: 288
    pad: 1
    kernel_size: 3
    weight_filler {
      type: "xavier"
      std: 0.03
    }
    bias_filler {
      type: "constant"
      value: 0.2
    }
  }
}
layer {
  name: "inception_4d/relu_3x3"
  type: "ReLU"
  bottom: "inception_4d/3x3"
  top: "inception_4d/3x3"
}
layer {
  name: "inception_4d/5x5_reduce"
  type: "Convolution"
  bottom: "inception_4c/output"
  top: "inception_4d/5x5_reduce"
  param {
    lr_mult: 1
    decay_mult: 1
  }
  param {
    lr_mult: 2
    decay_mult: 0
  }
  convolution_param {
    num_output: 32
    kernel_size: 1
    weight_filler {
      type: "xavier"
      std: 0.2
    }
    bias_filler {
      type: "constant"
      value: 0.2
    }
  }
}
layer {
  name: "inception_4d/relu_5x5_reduce"
  type: "ReLU"
  bottom: "inception_4d/5x5_reduce"
  top: "inception_4d/5x5_reduce"
}
layer {
  name: "inception_4d/5x5"
  type: "Convolution"
  bottom: "inception_4d/5x5_reduce"
  top: "inception_4d/5x5"
  param {
    lr_mult: 1
    decay_mult: 1
  }
  param {
    lr_mult: 2
    decay_mult: 0
  }
  convolution_param {
    num_output: 64
    pad: 2
    kernel_size: 5
    weight_filler {
      type: "xavier"
      std: 0.03
    }
    bias_filler {
      type: "constant"
      value: 0.2
    }
  }
}
layer {
  name: "inception_4d/relu_5x5"
  type: "ReLU"
  bottom: "inception_4d/5x5"
  top: "inception_4d/5x5"
}
layer {
  name: "inception_4d/pool"
  type: "Pooling"
  bottom: "inception_4c/output"
  top: "inception_4d/pool"
  pooling_param {
    pool: MAX
    kernel_size: 3
    stride: 1
    pad: 1
  }
}
layer {
  name: "inception_4d/pool_proj"
  type: "Convolution"
  bottom: "inception_4d/pool"
  top: "inception_4d/pool_proj"
  param {
    lr_mult: 1
    decay_mult: 1
  }
  param {
    lr_mult: 2
    decay_mult: 0
  }
  convolution_param {
    num_output: 64
    kernel_size: 1
    weight_filler {
      type: "xavier"
      std: 0.1
    }
    bias_filler {
      type: "constant"
      value: 0.2
    }
  }
}
layer {
  name: "inception_4d/relu_pool_proj"
  type: "ReLU"
  bottom: "inception_4d/pool_proj"
  top: "inception_4d/pool_proj"
}
layer {
  name: "inception_4d/output"
  type: "Concat"
  bottom: "inception_4d/1x1"
  bottom: "inception_4d/3x3"
  bottom: "inception_4d/5x5"
  bottom: "inception_4d/pool_proj"
  top: "inception_4d/output"
}
layer {
  name: "loss2/ave_pool"
  type: "Pooling"
  bottom: "inception_4d/output"
  top: "loss2/ave_pool"
  pooling_param {
    pool: AVE
    kernel_size: 5
    stride: 3
  }
}
layer {
  name: "loss2/conv"
  type: "Convolution"
  bottom: "loss2/ave_pool"
  top: "loss2/conv"
  param {
    lr_mult: 1
    decay_mult: 1
  }
  param {
    lr_mult: 2
    decay_mult: 0
  }
  convolution_param {
    num_output: 128
    kernel_size: 1
    weight_filler {
      type: "xavier"
      std: 0.08
    }
    bias_filler {
      type: "constant"
      value: 0.2
    }
  }
}
layer {
  name: "loss2/relu_conv"
  type: "ReLU"
  bottom: "loss2/conv"
  top: "loss2/conv"
}
layer {
  name: "loss2/fc"
  type: "InnerProduct"
  bottom: "loss2/conv"
  top: "loss2/fc"
  param {
    lr_mult: 1
    decay_mult: 1
  }
  param {
    lr_mult: 2
    decay_mult: 0
  }
  inner_product_param {
    num_output: 1024
    weight_filler {
      type: "xavier"
      std: 0.02
    }
    bias_filler {
      type: "constant"
      value: 0.2
    }
  }
}
layer {
  name: "loss2/relu_fc"
  type: "ReLU"
  bottom: "loss2/fc"
  top: "loss2/fc"
}
layer {
  name: "loss2/drop_fc"
  type: "Dropout"
  bottom: "loss2/fc"
  top: "loss2/fc"
  dropout_param {
    dropout_ratio: 0.7
  }
}
layer {
  name: "loss2/classifier_plantvillage"
  type: "InnerProduct"
  bottom: "loss2/fc"
  top: "loss2/classifier_plantvillage"
  param {
    lr_mult: 1
    decay_mult: 1
  }
  param {
    lr_mult: 2
    decay_mult: 0
  }
  inner_product_param {
    num_output: 38
    weight_filler {
      type: "xavier"
      std: 0.0009765625
    }
    bias_filler {
      type: "constant"
      value: 0
    }
  }
}
layer {
  name: "inception_4e/1x1"
  type: "Convolution"
  bottom: "inception_4d/output"
  top: "inception_4e/1x1"
  param {
    lr_mult: 1
    decay_mult: 1
  }
  param {
    lr_mult: 2
    decay_mult: 0
  }
  convolution_param {
    num_output: 256
    kernel_size: 1
    weight_filler {
      type: "xavier"
      std: 0.03
    }
    bias_filler {
      type: "constant"
      value: 0.2
    }
  }
}
layer {
  name: "inception_4e/relu_1x1"
  type: "ReLU"
  bottom: "inception_4e/1x1"
  top: "inception_4e/1x1"
}
layer {
  name: "inception_4e/3x3_reduce"
  type: "Convolution"
  bottom: "inception_4d/output"
  top: "inception_4e/3x3_reduce"
  param {
    lr_mult: 1
    decay_mult: 1
  }
  param {
    lr_mult: 2
    decay_mult: 0
  }
  convolution_param {
    num_output: 160
    kernel_size: 1
    weight_filler {
      type: "xavier"
      std: 0.09
    }
    bias_filler {
      type: "constant"
      value: 0.2
    }
  }
}
layer {
  name: "inception_4e/relu_3x3_reduce"
  type: "ReLU"
  bottom: "inception_4e/3x3_reduce"
  top: "inception_4e/3x3_reduce"
}
layer {
  name: "inception_4e/3x3"
  type: "Convolution"
  bottom: "inception_4e/3x3_reduce"
  top: "inception_4e/3x3"
  param {
    lr_mult: 1
    decay_mult: 1
  }
  param {
    lr_mult: 2
    decay_mult: 0
  }
  convolution_param {
    num_output: 320
    pad: 1
    kernel_size: 3
    weight_filler {
      type: "xavier"
      std: 0.03
    }
    bias_filler {
      type: "constant"
      value: 0.2
    }
  }
}
layer {
  name: "inception_4e/relu_3x3"
  type: "ReLU"
  bottom: "inception_4e/3x3"
  top: "inception_4e/3x3"
}
layer {
  name: "inception_4e/5x5_reduce"
  type: "Convolution"
  bottom: "inception_4d/output"
  top: "inception_4e/5x5_reduce"
  param {
    lr_mult: 1
    decay_mult: 1
  }
  param {
    lr_mult: 2
    decay_mult: 0
  }
  convolution_param {
    num_output: 32
    kernel_size: 1
    weight_filler {
      type: "xavier"
      std: 0.2
    }
    bias_filler {
      type: "constant"
      value: 0.2
    }
  }
}
layer {
  name: "inception_4e/relu_5x5_reduce"
  type: "ReLU"
  bottom: "inception_4e/5x5_reduce"
  top: "inception_4e/5x5_reduce"
}
layer {
  name: "inception_4e/5x5"
  type: "Convolution"
  bottom: "inception_4e/5x5_reduce"
  top: "inception_4e/
I0403 18:49:13.385390 17746 layer_factory.hpp:77] Creating layer data
I0403 18:49:13.385979 17746 net.cpp:91] Creating Layer data
I0403 18:49:13.386009 17746 net.cpp:399] data -> data
I0403 18:49:13.386061 17746 net.cpp:399] data -> label
I0403 18:49:13.386101 17746 data_transformer.cpp:25] Loading mean file from: /home/mohanty/data/final_dataset/lmdb/segmented-60-40/mean.binaryproto
I0403 18:49:13.387277 17748 db_lmdb.cpp:38] Opened lmdb /home/mohanty/data/final_dataset/lmdb/segmented-60-40/test_db
I0403 18:49:13.398634 17746 data_layer.cpp:41] output data size: 24,3,224,224
I0403 18:49:13.424615 17746 net.cpp:141] Setting up data
I0403 18:49:13.424690 17746 net.cpp:148] Top shape: 24 3 224 224 (3612672)
I0403 18:49:13.424712 17746 net.cpp:148] Top shape: 24 (24)
I0403 18:49:13.424727 17746 net.cpp:156] Memory required for data: 14450784
I0403 18:49:13.424753 17746 layer_factory.hpp:77] Creating layer label_data_1_split
I0403 18:49:13.424779 17746 net.cpp:91] Creating Layer label_data_1_split
I0403 18:49:13.424798 17746 net.cpp:425] label_data_1_split <- label
I0403 18:49:13.424829 17746 net.cpp:399] label_data_1_split -> label_data_1_split_0
I0403 18:49:13.424854 17746 net.cpp:399] label_data_1_split -> label_data_1_split_1
I0403 18:49:13.424875 17746 net.cpp:399] label_data_1_split -> label_data_1_split_2
I0403 18:49:13.424896 17746 net.cpp:399] label_data_1_split -> label_data_1_split_3
I0403 18:49:13.424914 17746 net.cpp:399] label_data_1_split -> label_data_1_split_4
I0403 18:49:13.424934 17746 net.cpp:399] label_data_1_split -> label_data_1_split_5
I0403 18:49:13.424957 17746 net.cpp:399] label_data_1_split -> label_data_1_split_6
I0403 18:49:13.424978 17746 net.cpp:399] label_data_1_split -> label_data_1_split_7
I0403 18:49:13.424998 17746 net.cpp:399] label_data_1_split -> label_data_1_split_8
I0403 18:49:13.425017 17746 net.cpp:399] label_data_1_split -> label_data_1_split_9
I0403 18:49:13.425129 17746 net.cpp:141] Setting up label_data_1_split
I0403 18:49:13.425153 17746 net.cpp:148] Top shape: 24 (24)
I0403 18:49:13.425169 17746 net.cpp:148] Top shape: 24 (24)
I0403 18:49:13.425184 17746 net.cpp:148] Top shape: 24 (24)
I0403 18:49:13.425199 17746 net.cpp:148] Top shape: 24 (24)
I0403 18:49:13.425214 17746 net.cpp:148] Top shape: 24 (24)
I0403 18:49:13.425228 17746 net.cpp:148] Top shape: 24 (24)
I0403 18:49:13.425243 17746 net.cpp:148] Top shape: 24 (24)
I0403 18:49:13.425258 17746 net.cpp:148] Top shape: 24 (24)
I0403 18:49:13.425272 17746 net.cpp:148] Top shape: 24 (24)
I0403 18:49:13.425288 17746 net.cpp:148] Top shape: 24 (24)
I0403 18:49:13.425331 17746 net.cpp:156] Memory required for data: 14451744
I0403 18:49:13.425348 17746 layer_factory.hpp:77] Creating layer conv1/7x7_s2
I0403 18:49:13.425379 17746 net.cpp:91] Creating Layer conv1/7x7_s2
I0403 18:49:13.425396 17746 net.cpp:425] conv1/7x7_s2 <- data
I0403 18:49:13.425415 17746 net.cpp:399] conv1/7x7_s2 -> conv1/7x7_s2
I0403 18:49:13.559437 17746 net.cpp:141] Setting up conv1/7x7_s2
I0403 18:49:13.559521 17746 net.cpp:148] Top shape: 24 64 112 112 (19267584)
I0403 18:49:13.559540 17746 net.cpp:156] Memory required for data: 91522080
I0403 18:49:13.559569 17746 layer_factory.hpp:77] Creating layer conv1/relu_7x7
I0403 18:49:13.559595 17746 net.cpp:91] Creating Layer conv1/relu_7x7
I0403 18:49:13.559613 17746 net.cpp:425] conv1/relu_7x7 <- conv1/7x7_s2
I0403 18:49:13.559631 17746 net.cpp:386] conv1/relu_7x7 -> conv1/7x7_s2 (in-place)
I0403 18:49:13.559881 17746 net.cpp:141] Setting up conv1/relu_7x7
I0403 18:49:13.559907 17746 net.cpp:148] Top shape: 24 64 112 112 (19267584)
I0403 18:49:13.559923 17746 net.cpp:156] Memory required for data: 168592416
I0403 18:49:13.559937 17746 layer_factory.hpp:77] Creating layer pool1/3x3_s2
I0403 18:49:13.559976 17746 net.cpp:91] Creating Layer pool1/3x3_s2
I0403 18:49:13.559994 17746 net.cpp:425] pool1/3x3_s2 <- conv1/7x7_s2
I0403 18:49:13.560014 17746 net.cpp:399] pool1/3x3_s2 -> pool1/3x3_s2
I0403 18:49:13.560086 17746 net.cpp:141] Setting up pool1/3x3_s2
I0403 18:49:13.560109 17746 net.cpp:148] Top shape: 24 64 56 56 (4816896)
I0403 18:49:13.560123 17746 net.cpp:156] Memory required for data: 187860000
I0403 18:49:13.560137 17746 layer_factory.hpp:77] Creating layer pool1/norm1
I0403 18:49:13.560160 17746 net.cpp:91] Creating Layer pool1/norm1
I0403 18:49:13.560178 17746 net.cpp:425] pool1/norm1 <- pool1/3x3_s2
I0403 18:49:13.560194 17746 net.cpp:399] pool1/norm1 -> pool1/norm1
I0403 18:49:13.560472 17746 net.cpp:141] Setting up pool1/norm1
I0403 18:49:13.560498 17746 net.cpp:148] Top shape: 24 64 56 56 (4816896)
I0403 18:49:13.560513 17746 net.cpp:156] Memory required for data: 207127584
I0403 18:49:13.560528 17746 layer_factory.hpp:77] Creating layer conv2/3x3_reduce
I0403 18:49:13.560552 17746 net.cpp:91] Creating Layer conv2/3x3_reduce
I0403 18:49:13.560569 17746 net.cpp:425] conv2/3x3_reduce <- pool1/norm1
I0403 18:49:13.560586 17746 net.cpp:399] conv2/3x3_reduce -> conv2/3x3_reduce
I0403 18:49:13.561935 17746 net.cpp:141] Setting up conv2/3x3_reduce
I0403 18:49:13.561967 17746 net.cpp:148] Top shape: 24 64 56 56 (4816896)
I0403 18:49:13.561983 17746 net.cpp:156] Memory required for data: 226395168
I0403 18:49:13.562007 17746 layer_factory.hpp:77] Creating layer conv2/relu_3x3_reduce
I0403 18:49:13.562027 17746 net.cpp:91] Creating Layer conv2/relu_3x3_reduce
I0403 18:49:13.562042 17746 net.cpp:425] conv2/relu_3x3_reduce <- conv2/3x3_reduce
I0403 18:49:13.562060 17746 net.cpp:386] conv2/relu_3x3_reduce -> conv2/3x3_reduce (in-place)
I0403 18:49:13.562331 17746 net.cpp:141] Setting up conv2/relu_3x3_reduce
I0403 18:49:13.562358 17746 net.cpp:148] Top shape: 24 64 56 56 (4816896)
I0403 18:49:13.562372 17746 net.cpp:156] Memory required for data: 245662752
I0403 18:49:13.562387 17746 layer_factory.hpp:77] Creating layer conv2/3x3
I0403 18:49:13.562412 17746 net.cpp:91] Creating Layer conv2/3x3
I0403 18:49:13.562428 17746 net.cpp:425] conv2/3x3 <- conv2/3x3_reduce
I0403 18:49:13.562449 17746 net.cpp:399] conv2/3x3 -> conv2/3x3
I0403 18:49:13.564716 17746 net.cpp:141] Setting up conv2/3x3
I0403 18:49:13.564745 17746 net.cpp:148] Top shape: 24 192 56 56 (14450688)
I0403 18:49:13.564760 17746 net.cpp:156] Memory required for data: 303465504
I0403 18:49:13.564785 17746 layer_factory.hpp:77] Creating layer conv2/relu_3x3
I0403 18:49:13.564803 17746 net.cpp:91] Creating Layer conv2/relu_3x3
I0403 18:49:13.564818 17746 net.cpp:425] conv2/relu_3x3 <- conv2/3x3
I0403 18:49:13.564836 17746 net.cpp:386] conv2/relu_3x3 -> conv2/3x3 (in-place)
I0403 18:49:13.565016 17746 net.cpp:141] Setting up conv2/relu_3x3
I0403 18:49:13.565043 17746 net.cpp:148] Top shape: 24 192 56 56 (14450688)
I0403 18:49:13.565088 17746 net.cpp:156] Memory required for data: 361268256
I0403 18:49:13.565104 17746 layer_factory.hpp:77] Creating layer conv2/norm2
I0403 18:49:13.565126 17746 net.cpp:91] Creating Layer conv2/norm2
I0403 18:49:13.565143 17746 net.cpp:425] conv2/norm2 <- conv2/3x3
I0403 18:49:13.565161 17746 net.cpp:399] conv2/norm2 -> conv2/norm2
I0403 18:49:13.565462 17746 net.cpp:141] Setting up conv2/norm2
I0403 18:49:13.565488 17746 net.cpp:148] Top shape: 24 192 56 56 (14450688)
I0403 18:49:13.565503 17746 net.cpp:156] Memory required for data: 419071008
I0403 18:49:13.565518 17746 layer_factory.hpp:77] Creating layer pool2/3x3_s2
I0403 18:49:13.565537 17746 net.cpp:91] Creating Layer pool2/3x3_s2
I0403 18:49:13.565553 17746 net.cpp:425] pool2/3x3_s2 <- conv2/norm2
I0403 18:49:13.565572 17746 net.cpp:399] pool2/3x3_s2 -> pool2/3x3_s2
I0403 18:49:13.565624 17746 net.cpp:141] Setting up pool2/3x3_s2
I0403 18:49:13.565646 17746 net.cpp:148] Top shape: 24 192 28 28 (3612672)
I0403 18:49:13.565661 17746 net.cpp:156] Memory required for data: 433521696
I0403 18:49:13.565675 17746 layer_factory.hpp:77] Creating layer pool2/3x3_s2_pool2/3x3_s2_0_split
I0403 18:49:13.565693 17746 net.cpp:91] Creating Layer pool2/3x3_s2_pool2/3x3_s2_0_split
I0403 18:49:13.565707 17746 net.cpp:425] pool2/3x3_s2_pool2/3x3_s2_0_split <- pool2/3x3_s2
I0403 18:49:13.565727 17746 net.cpp:399] pool2/3x3_s2_pool2/3x3_s2_0_split -> pool2/3x3_s2_pool2/3x3_s2_0_split_0
I0403 18:49:13.565748 17746 net.cpp:399] pool2/3x3_s2_pool2/3x3_s2_0_split -> pool2/3x3_s2_pool2/3x3_s2_0_split_1
I0403 18:49:13.565768 17746 net.cpp:399] pool2/3x3_s2_pool2/3x3_s2_0_split -> pool2/3x3_s2_pool2/3x3_s2_0_split_2
I0403 18:49:13.565788 17746 net.cpp:399] pool2/3x3_s2_pool2/3x3_s2_0_split -> pool2/3x3_s2_pool2/3x3_s2_0_split_3
I0403 18:49:13.565857 17746 net.cpp:141] Setting up pool2/3x3_s2_pool2/3x3_s2_0_split
I0403 18:49:13.565879 17746 net.cpp:148] Top shape: 24 192 28 28 (3612672)
I0403 18:49:13.565896 17746 net.cpp:148] Top shape: 24 192 28 28 (3612672)
I0403 18:49:13.565912 17746 net.cpp:148] Top shape: 24 192 28 28 (3612672)
I0403 18:49:13.565927 17746 net.cpp:148] Top shape: 24 192 28 28 (3612672)
I0403 18:49:13.565939 17746 net.cpp:156] Memory required for data: 491324448
I0403 18:49:13.565958 17746 layer_factory.hpp:77] Creating layer inception_3a/1x1
I0403 18:49:13.565984 17746 net.cpp:91] Creating Layer inception_3a/1x1
I0403 18:49:13.566000 17746 net.cpp:425] inception_3a/1x1 <- pool2/3x3_s2_pool2/3x3_s2_0_split_0
I0403 18:49:13.566020 17746 net.cpp:399] inception_3a/1x1 -> inception_3a/1x1
I0403 18:49:13.567526 17746 net.cpp:141] Setting up inception_3a/1x1
I0403 18:49:13.567555 17746 net.cpp:148] Top shape: 24 64 28 28 (1204224)
I0403 18:49:13.567571 17746 net.cpp:156] Memory required for data: 496141344
I0403 18:49:13.567589 17746 layer_factory.hpp:77] Creating layer inception_3a/relu_1x1
I0403 18:49:13.567610 17746 net.cpp:91] Creating Layer inception_3a/relu_1x1
I0403 18:49:13.567626 17746 net.cpp:425] inception_3a/relu_1x1 <- inception_3a/1x1
I0403 18:49:13.567643 17746 net.cpp:386] inception_3a/relu_1x1 -> inception_3a/1x1 (in-place)
I0403 18:49:13.567817 17746 net.cpp:141] Setting up inception_3a/relu_1x1
I0403 18:49:13.567845 17746 net.cpp:148] Top shape: 24 64 28 28 (1204224)
I0403 18:49:13.567860 17746 net.cpp:156] Memory required for data: 500958240
I0403 18:49:13.567875 17746 layer_factory.hpp:77] Creating layer inception_3a/3x3_reduce
I0403 18:49:13.567896 17746 net.cpp:91] Creating Layer inception_3a/3x3_reduce
I0403 18:49:13.567914 17746 net.cpp:425] inception_3a/3x3_reduce <- pool2/3x3_s2_pool2/3x3_s2_0_split_1
I0403 18:49:13.567932 17746 net.cpp:399] inception_3a/3x3_reduce -> inception_3a/3x3_reduce
I0403 18:49:13.569612 17746 net.cpp:141] Setting up inception_3a/3x3_reduce
I0403 18:49:13.569640 17746 net.cpp:148] Top shape: 24 96 28 28 (1806336)
I0403 18:49:13.569655 17746 net.cpp:156] Memory required for data: 508183584
I0403 18:49:13.569679 17746 layer_factory.hpp:77] Creating layer inception_3a/relu_3x3_reduce
I0403 18:49:13.569715 17746 net.cpp:91] Creating Layer inception_3a/relu_3x3_reduce
I0403 18:49:13.569732 17746 net.cpp:425] inception_3a/relu_3x3_reduce <- inception_3a/3x3_reduce
I0403 18:49:13.569749 17746 net.cpp:386] inception_3a/relu_3x3_reduce -> inception_3a/3x3_reduce (in-place)
I0403 18:49:13.569933 17746 net.cpp:141] Setting up inception_3a/relu_3x3_reduce
I0403 18:49:13.569963 17746 net.cpp:148] Top shape: 24 96 28 28 (1806336)
I0403 18:49:13.569979 17746 net.cpp:156] Memory required for data: 515408928
I0403 18:49:13.569993 17746 layer_factory.hpp:77] Creating layer inception_3a/3x3
I0403 18:49:13.570018 17746 net.cpp:91] Creating Layer inception_3a/3x3
I0403 18:49:13.570034 17746 net.cpp:425] inception_3a/3x3 <- inception_3a/3x3_reduce
I0403 18:49:13.570055 17746 net.cpp:399] inception_3a/3x3 -> inception_3a/3x3
I0403 18:49:13.571691 17746 net.cpp:141] Setting up inception_3a/3x3
I0403 18:49:13.571719 17746 net.cpp:148] Top shape: 24 128 28 28 (2408448)
I0403 18:49:13.571734 17746 net.cpp:156] Memory required for data: 525042720
I0403 18:49:13.571753 17746 layer_factory.hpp:77] Creating layer inception_3a/relu_3x3
I0403 18:49:13.571774 17746 net.cpp:91] Creating Layer inception_3a/relu_3x3
I0403 18:49:13.571790 17746 net.cpp:425] inception_3a/relu_3x3 <- inception_3a/3x3
I0403 18:49:13.571807 17746 net.cpp:386] inception_3a/relu_3x3 -> inception_3a/3x3 (in-place)
I0403 18:49:13.572084 17746 net.cpp:141] Setting up inception_3a/relu_3x3
I0403 18:49:13.572111 17746 net.cpp:148] Top shape: 24 128 28 28 (2408448)
I0403 18:49:13.572125 17746 net.cpp:156] Memory required for data: 534676512
I0403 18:49:13.572140 17746 layer_factory.hpp:77] Creating layer inception_3a/5x5_reduce
I0403 18:49:13.572165 17746 net.cpp:91] Creating Layer inception_3a/5x5_reduce
I0403 18:49:13.572182 17746 net.cpp:425] inception_3a/5x5_reduce <- pool2/3x3_s2_pool2/3x3_s2_0_split_2
I0403 18:49:13.572201 17746 net.cpp:399] inception_3a/5x5_reduce -> inception_3a/5x5_reduce
I0403 18:49:13.573153 17746 net.cpp:141] Setting up inception_3a/5x5_reduce
I0403 18:49:13.573181 17746 net.cpp:148] Top shape: 24 16 28 28 (301056)
I0403 18:49:13.573199 17746 net.cpp:156] Memory required for data: 535880736
I0403 18:49:13.573223 17746 layer_factory.hpp:77] Creating layer inception_3a/relu_5x5_reduce
I0403 18:49:13.573241 17746 net.cpp:91] Creating Layer inception_3a/relu_5x5_reduce
I0403 18:49:13.573257 17746 net.cpp:425] inception_3a/relu_5x5_reduce <- inception_3a/5x5_reduce
I0403 18:49:13.573277 17746 net.cpp:386] inception_3a/relu_5x5_reduce -> inception_3a/5x5_reduce (in-place)
I0403 18:49:13.573580 17746 net.cpp:141] Setting up inception_3a/relu_5x5_reduce
I0403 18:49:13.573608 17746 net.cpp:148] Top shape: 24 16 28 28 (301056)
I0403 18:49:13.573624 17746 net.cpp:156] Memory required for data: 537084960
I0403 18:49:13.573639 17746 layer_factory.hpp:77] Creating layer inception_3a/5x5
I0403 18:49:13.573662 17746 net.cpp:91] Creating Layer inception_3a/5x5
I0403 18:49:13.573678 17746 net.cpp:425] inception_3a/5x5 <- inception_3a/5x5_reduce
I0403 18:49:13.573698 17746 net.cpp:399] inception_3a/5x5 -> inception_3a/5x5
I0403 18:49:13.574705 17746 net.cpp:141] Setting up inception_3a/5x5
I0403 18:49:13.574733 17746 net.cpp:148] Top shape: 24 32 28 28 (602112)
I0403 18:49:13.574748 17746 net.cpp:156] Memory required for data: 539493408
I0403 18:49:13.574766 17746 layer_factory.hpp:77] Creating layer inception_3a/relu_5x5
I0403 18:49:13.574786 17746 net.cpp:91] Creating Layer inception_3a/relu_5x5
I0403 18:49:13.574803 17746 net.cpp:425] inception_3a/relu_5x5 <- inception_3a/5x5
I0403 18:49:13.574821 17746 net.cpp:386] inception_3a/relu_5x5 -> inception_3a/5x5 (in-place)
I0403 18:49:13.574995 17746 net.cpp:141] Setting up inception_3a/relu_5x5
I0403 18:49:13.575023 17746 net.cpp:148] Top shape: 24 32 28 28 (602112)
I0403 18:49:13.575038 17746 net.cpp:156] Memory required for data: 541901856
I0403 18:49:13.575053 17746 layer_factory.hpp:77] Creating layer inception_3a/pool
I0403 18:49:13.575070 17746 net.cpp:91] Creating Layer inception_3a/pool
I0403 18:49:13.575103 17746 net.cpp:425] inception_3a/pool <- pool2/3x3_s2_pool2/3x3_s2_0_split_3
I0403 18:49:13.575124 17746 net.cpp:399] inception_3a/pool -> inception_3a/pool
I0403 18:49:13.575181 17746 net.cpp:141] Setting up inception_3a/pool
I0403 18:49:13.575206 17746 net.cpp:148] Top shape: 24 192 28 28 (3612672)
I0403 18:49:13.575220 17746 net.cpp:156] Memory required for data: 556352544
I0403 18:49:13.575234 17746 layer_factory.hpp:77] Creating layer inception_3a/pool_proj
I0403 18:49:13.575256 17746 net.cpp:91] Creating Layer inception_3a/pool_proj
I0403 18:49:13.575276 17746 net.cpp:425] inception_3a/pool_proj <- inception_3a/pool
I0403 18:49:13.575295 17746 net.cpp:399] inception_3a/pool_proj -> inception_3a/pool_proj
I0403 18:49:13.576256 17746 net.cpp:141] Setting up inception_3a/pool_proj
I0403 18:49:13.576284 17746 net.cpp:148] Top shape: 24 32 28 28 (602112)
I0403 18:49:13.576299 17746 net.cpp:156] Memory required for data: 558760992
I0403 18:49:13.576323 17746 layer_factory.hpp:77] Creating layer inception_3a/relu_pool_proj
I0403 18:49:13.576342 17746 net.cpp:91] Creating Layer inception_3a/relu_pool_proj
I0403 18:49:13.576359 17746 net.cpp:425] inception_3a/relu_pool_proj <- inception_3a/pool_proj
I0403 18:49:13.576378 17746 net.cpp:386] inception_3a/relu_pool_proj -> inception_3a/pool_proj (in-place)
I0403 18:49:13.576648 17746 net.cpp:141] Setting up inception_3a/relu_pool_proj
I0403 18:49:13.576674 17746 net.cpp:148] Top shape: 24 32 28 28 (602112)
I0403 18:49:13.576689 17746 net.cpp:156] Memory required for data: 561169440
I0403 18:49:13.576704 17746 layer_factory.hpp:77] Creating layer inception_3a/output
I0403 18:49:13.576725 17746 net.cpp:91] Creating Layer inception_3a/output
I0403 18:49:13.576740 17746 net.cpp:425] inception_3a/output <- inception_3a/1x1
I0403 18:49:13.576756 17746 net.cpp:425] inception_3a/output <- inception_3a/3x3
I0403 18:49:13.576772 17746 net.cpp:425] inception_3a/output <- inception_3a/5x5
I0403 18:49:13.576788 17746 net.cpp:425] inception_3a/output <- inception_3a/pool_proj
I0403 18:49:13.576805 17746 net.cpp:399] inception_3a/output -> inception_3a/output
I0403 18:49:13.576853 17746 net.cpp:141] Setting up inception_3a/output
I0403 18:49:13.576875 17746 net.cpp:148] Top shape: 24 256 28 28 (4816896)
I0403 18:49:13.576889 17746 net.cpp:156] Memory required for data: 580437024
I0403 18:49:13.576903 17746 layer_factory.hpp:77] Creating layer inception_3a/output_inception_3a/output_0_split
I0403 18:49:13.576920 17746 net.cpp:91] Creating Layer inception_3a/output_inception_3a/output_0_split
I0403 18:49:13.576936 17746 net.cpp:425] inception_3a/output_inception_3a/output_0_split <- inception_3a/output
I0403 18:49:13.576958 17746 net.cpp:399] inception_3a/output_inception_3a/output_0_split -> inception_3a/output_inception_3a/output_0_split_0
I0403 18:49:13.576980 17746 net.cpp:399] inception_3a/output_inception_3a/output_0_split -> inception_3a/output_inception_3a/output_0_split_1
I0403 18:49:13.577006 17746 net.cpp:399] inception_3a/output_inception_3a/output_0_split -> inception_3a/output_inception_3a/output_0_split_2
I0403 18:49:13.577028 17746 net.cpp:399] inception_3a/output_inception_3a/output_0_split -> inception_3a/output_inception_3a/output_0_split_3
I0403 18:49:13.577101 17746 net.cpp:141] Setting up inception_3a/output_inception_3a/output_0_split
I0403 18:49:13.577123 17746 net.cpp:148] Top shape: 24 256 28 28 (4816896)
I0403 18:49:13.577142 17746 net.cpp:148] Top shape: 24 256 28 28 (4816896)
I0403 18:49:13.577158 17746 net.cpp:148] Top shape: 24 256 28 28 (4816896)
I0403 18:49:13.577173 17746 net.cpp:148] Top shape: 24 256 28 28 (4816896)
I0403 18:49:13.577186 17746 net.cpp:156] Memory required for data: 657507360
I0403 18:49:13.577201 17746 layer_factory.hpp:77] Creating layer inception_3b/1x1
I0403 18:49:13.577221 17746 net.cpp:91] Creating Layer inception_3b/1x1
I0403 18:49:13.577236 17746 net.cpp:425] inception_3b/1x1 <- inception_3a/output_inception_3a/output_0_split_0
I0403 18:49:13.577257 17746 net.cpp:399] inception_3b/1x1 -> inception_3b/1x1
I0403 18:49:13.578377 17746 net.cpp:141] Setting up inception_3b/1x1
I0403 18:49:13.578415 17746 net.cpp:148] Top shape: 24 128 28 28 (2408448)
I0403 18:49:13.578431 17746 net.cpp:156] Memory required for data: 667141152
I0403 18:49:13.578449 17746 layer_factory.hpp:77] Creating layer inception_3b/relu_1x1
I0403 18:49:13.578470 17746 net.cpp:91] Creating Layer inception_3b/relu_1x1
I0403 18:49:13.578486 17746 net.cpp:425] inception_3b/relu_1x1 <- inception_3b/1x1
I0403 18:49:13.578503 17746 net.cpp:386] inception_3b/relu_1x1 -> inception_3b/1x1 (in-place)
I0403 18:49:13.578680 17746 net.cpp:141] Setting up inception_3b/relu_1x1
I0403 18:49:13.578704 17746 net.cpp:148] Top shape: 24 128 28 28 (2408448)
I0403 18:49:13.578718 17746 net.cpp:156] Memory required for data: 676774944
I0403 18:49:13.578732 17746 layer_factory.hpp:77] Creating layer inception_3b/3x3_reduce
I0403 18:49:13.578758 17746 net.cpp:91] Creating Layer inception_3b/3x3_reduce
I0403 18:49:13.578774 17746 net.cpp:425] inception_3b/3x3_reduce <- inception_3a/output_inception_3a/output_0_split_1
I0403 18:49:13.578794 17746 net.cpp:399] inception_3b/3x3_reduce -> inception_3b/3x3_reduce
I0403 18:49:13.579912 17746 net.cpp:141] Setting up inception_3b/3x3_reduce
I0403 18:49:13.579939 17746 net.cpp:148] Top shape: 24 128 28 28 (2408448)
I0403 18:49:13.579959 17746 net.cpp:156] Memory required for data: 686408736
I0403 18:49:13.579978 17746 layer_factory.hpp:77] Creating layer inception_3b/relu_3x3_reduce
I0403 18:49:13.579998 17746 net.cpp:91] Creating Layer inception_3b/relu_3x3_reduce
I0403 18:49:13.580015 17746 net.cpp:425] inception_3b/relu_3x3_reduce <- inception_3b/3x3_reduce
I0403 18:49:13.580032 17746 net.cpp:386] inception_3b/relu_3x3_reduce -> inception_3b/3x3_reduce (in-place)
I0403 18:49:13.580201 17746 net.cpp:141] Setting up inception_3b/relu_3x3_reduce
I0403 18:49:13.580229 17746 net.cpp:148] Top shape: 24 128 28 28 (2408448)
I0403 18:49:13.580245 17746 net.cpp:156] Memory required for data: 696042528
I0403 18:49:13.580260 17746 layer_factory.hpp:77] Creating layer inception_3b/3x3
I0403 18:49:13.580283 17746 net.cpp:91] Creating Layer inception_3b/3x3
I0403 18:49:13.580302 17746 net.cpp:425] inception_3b/3x3 <- inception_3b/3x3_reduce
I0403 18:49:13.580322 17746 net.cpp:399] inception_3b/3x3 -> inception_3b/3x3
I0403 18:49:13.583143 17746 net.cpp:141] Setting up inception_3b/3x3
I0403 18:49:13.583171 17746 net.cpp:148] Top shape: 24 192 28 28 (3612672)
I0403 18:49:13.583186 17746 net.cpp:156] Memory required for data: 710493216
I0403 18:49:13.583205 17746 layer_factory.hpp:77] Creating layer inception_3b/relu_3x3
I0403 18:49:13.583225 17746 net.cpp:91] Creating Layer inception_3b/relu_3x3
I0403 18:49:13.583240 17746 net.cpp:425] inception_3b/relu_3x3 <- inception_3b/3x3
I0403 18:49:13.583256 17746 net.cpp:386] inception_3b/relu_3x3 -> inception_3b/3x3 (in-place)
I0403 18:49:13.583523 17746 net.cpp:141] Setting up inception_3b/relu_3x3
I0403 18:49:13.583547 17746 net.cpp:148] Top shape: 24 192 28 28 (3612672)
I0403 18:49:13.583561 17746 net.cpp:156] Memory required for data: 724943904
I0403 18:49:13.583575 17746 layer_factory.hpp:77] Creating layer inception_3b/5x5_reduce
I0403 18:49:13.583600 17746 net.cpp:91] Creating Layer inception_3b/5x5_reduce
I0403 18:49:13.583617 17746 net.cpp:425] inception_3b/5x5_reduce <- inception_3a/output_inception_3a/output_0_split_2
I0403 18:49:13.583636 17746 net.cpp:399] inception_3b/5x5_reduce -> inception_3b/5x5_reduce
I0403 18:49:13.584578 17746 net.cpp:141] Setting up inception_3b/5x5_reduce
I0403 18:49:13.584605 17746 net.cpp:148] Top shape: 24 32 28 28 (602112)
I0403 18:49:13.584619 17746 net.cpp:156] Memory required for data: 727352352
I0403 18:49:13.584636 17746 layer_factory.hpp:77] Creating layer inception_3b/relu_5x5_reduce
I0403 18:49:13.584656 17746 net.cpp:91] Creating Layer inception_3b/relu_5x5_reduce
I0403 18:49:13.584672 17746 net.cpp:425] inception_3b/relu_5x5_reduce <- inception_3b/5x5_reduce
I0403 18:49:13.584689 17746 net.cpp:386] inception_3b/relu_5x5_reduce -> inception_3b/5x5_reduce (in-place)
I0403 18:49:13.584874 17746 net.cpp:141] Setting up inception_3b/relu_5x5_reduce
I0403 18:49:13.584900 17746 net.cpp:148] Top shape: 24 32 28 28 (602112)
I0403 18:49:13.584914 17746 net.cpp:156] Memory required for data: 729760800
I0403 18:49:13.584928 17746 layer_factory.hpp:77] Creating layer inception_3b/5x5
I0403 18:49:13.584954 17746 net.cpp:91] Creating Layer inception_3b/5x5
I0403 18:49:13.584971 17746 net.cpp:425] inception_3b/5x5 <- inception_3b/5x5_reduce
I0403 18:49:13.584992 17746 net.cpp:399] inception_3b/5x5 -> inception_3b/5x5
I0403 18:49:13.586875 17746 net.cpp:141] Setting up inception_3b/5x5
I0403 18:49:13.586904 17746 net.cpp:148] Top shape: 24 96 28 28 (1806336)
I0403 18:49:13.586918 17746 net.cpp:156] Memory required for data: 736986144
I0403 18:49:13.586935 17746 layer_factory.hpp:77] Creating layer inception_3b/relu_5x5
I0403 18:49:13.586959 17746 net.cpp:91] Creating Layer inception_3b/relu_5x5
I0403 18:49:13.586977 17746 net.cpp:425] inception_3b/relu_5x5 <- inception_3b/5x5
I0403 18:49:13.586994 17746 net.cpp:386] inception_3b/relu_5x5 -> inception_3b/5x5 (in-place)
I0403 18:49:13.587179 17746 net.cpp:141] Setting up inception_3b/relu_5x5
I0403 18:49:13.587204 17746 net.cpp:148] Top shape: 24 96 28 28 (1806336)
I0403 18:49:13.587219 17746 net.cpp:156] Memory required for data: 744211488
I0403 18:49:13.587234 17746 layer_factory.hpp:77] Creating layer inception_3b/pool
I0403 18:49:13.587251 17746 net.cpp:91] Creating Layer inception_3b/pool
I0403 18:49:13.587265 17746 net.cpp:425] inception_3b/pool <- inception_3a/output_inception_3a/output_0_split_3
I0403 18:49:13.587282 17746 net.cpp:399] inception_3b/pool -> inception_3b/pool
I0403 18:49:13.587335 17746 net.cpp:141] Setting up inception_3b/pool
I0403 18:49:13.587357 17746 net.cpp:148] Top shape: 24 256 28 28 (4816896)
I0403 18:49:13.587371 17746 net.cpp:156] Memory required for data: 763479072
I0403 18:49:13.587385 17746 layer_factory.hpp:77] Creating layer inception_3b/pool_proj
I0403 18:49:13.587407 17746 net.cpp:91] Creating Layer inception_3b/pool_proj
I0403 18:49:13.587424 17746 net.cpp:425] inception_3b/pool_proj <- inception_3b/pool
I0403 18:49:13.587445 17746 net.cpp:399] inception_3b/pool_proj -> inception_3b/pool_proj
I0403 18:49:13.588457 17746 net.cpp:141] Setting up inception_3b/pool_proj
I0403 18:49:13.588484 17746 net.cpp:148] Top shape: 24 64 28 28 (1204224)
I0403 18:49:13.588498 17746 net.cpp:156] Memory required for data: 768295968
I0403 18:49:13.588516 17746 layer_factory.hpp:77] Creating layer inception_3b/relu_pool_proj
I0403 18:49:13.588533 17746 net.cpp:91] Creating Layer inception_3b/relu_pool_proj
I0403 18:49:13.588548 17746 net.cpp:425] inception_3b/relu_pool_proj <- inception_3b/pool_proj
I0403 18:49:13.588567 17746 net.cpp:386] inception_3b/relu_pool_proj -> inception_3b/pool_proj (in-place)
I0403 18:49:13.588973 17746 net.cpp:141] Setting up inception_3b/relu_pool_proj
I0403 18:49:13.589000 17746 net.cpp:148] Top shape: 24 64 28 28 (1204224)
I0403 18:49:13.589016 17746 net.cpp:156] Memory required for data: 773112864
I0403 18:49:13.589030 17746 layer_factory.hpp:77] Creating layer inception_3b/output
I0403 18:49:13.589047 17746 net.cpp:91] Creating Layer inception_3b/output
I0403 18:49:13.589062 17746 net.cpp:425] inception_3b/output <- inception_3b/1x1
I0403 18:49:13.589078 17746 net.cpp:425] inception_3b/output <- inception_3b/3x3
I0403 18:49:13.589094 17746 net.cpp:425] inception_3b/output <- inception_3b/5x5
I0403 18:49:13.589109 17746 net.cpp:425] inception_3b/output <- inception_3b/pool_proj
I0403 18:49:13.589128 17746 net.cpp:399] inception_3b/output -> inception_3b/output
I0403 18:49:13.589170 17746 net.cpp:141] Setting up inception_3b/output
I0403 18:49:13.589191 17746 net.cpp:148] Top shape: 24 480 28 28 (9031680)
I0403 18:49:13.589206 17746 net.cpp:156] Memory required for data: 809239584
I0403 18:49:13.589221 17746 layer_factory.hpp:77] Creating layer pool3/3x3_s2
I0403 18:49:13.589239 17746 net.cpp:91] Creating Layer pool3/3x3_s2
I0403 18:49:13.589256 17746 net.cpp:425] pool3/3x3_s2 <- inception_3b/output
I0403 18:49:13.589287 17746 net.cpp:399] pool3/3x3_s2 -> pool3/3x3_s2
I0403 18:49:13.589344 17746 net.cpp:141] Setting up pool3/3x3_s2
I0403 18:49:13.589367 17746 net.cpp:148] Top shape: 24 480 14 14 (2257920)
I0403 18:49:13.589380 17746 net.cpp:156] Memory required for data: 818271264
I0403 18:49:13.589395 17746 layer_factory.hpp:77] Creating layer pool3/3x3_s2_pool3/3x3_s2_0_split
I0403 18:49:13.589411 17746 net.cpp:91] Creating Layer pool3/3x3_s2_pool3/3x3_s2_0_split
I0403 18:49:13.589424 17746 net.cpp:425] pool3/3x3_s2_pool3/3x3_s2_0_split <- pool3/3x3_s2
I0403 18:49:13.589443 17746 net.cpp:399] pool3/3x3_s2_pool3/3x3_s2_0_split -> pool3/3x3_s2_pool3/3x3_s2_0_split_0
I0403 18:49:13.589462 17746 net.cpp:399] pool3/3x3_s2_pool3/3x3_s2_0_split -> pool3/3x3_s2_pool3/3x3_s2_0_split_1
I0403 18:49:13.589481 17746 net.cpp:399] pool3/3x3_s2_pool3/3x3_s2_0_split -> pool3/3x3_s2_pool3/3x3_s2_0_split_2
I0403 18:49:13.589499 17746 net.cpp:399] pool3/3x3_s2_pool3/3x3_s2_0_split -> pool3/3x3_s2_pool3/3x3_s2_0_split_3
I0403 18:49:13.589571 17746 net.cpp:141] Setting up pool3/3x3_s2_pool3/3x3_s2_0_split
I0403 18:49:13.589594 17746 net.cpp:148] Top shape: 24 480 14 14 (2257920)
I0403 18:49:13.589609 17746 net.cpp:148] Top shape: 24 480 14 14 (2257920)
I0403 18:49:13.589624 17746 net.cpp:148] Top shape: 24 480 14 14 (2257920)
I0403 18:49:13.589638 17746 net.cpp:148] Top shape: 24 480 14 14 (2257920)
I0403 18:49:13.589651 17746 net.cpp:156] Memory required for data: 854397984
I0403 18:49:13.589665 17746 layer_factory.hpp:77] Creating layer inception_4a/1x1
I0403 18:49:13.589686 17746 net.cpp:91] Creating Layer inception_4a/1x1
I0403 18:49:13.589704 17746 net.cpp:425] inception_4a/1x1 <- pool3/3x3_s2_pool3/3x3_s2_0_split_0
I0403 18:49:13.589725 17746 net.cpp:399] inception_4a/1x1 -> inception_4a/1x1
I0403 18:49:13.591274 17746 net.cpp:141] Setting up inception_4a/1x1
I0403 18:49:13.591306 17746 net.cpp:148] Top shape: 24 192 14 14 (903168)
I0403 18:49:13.591321 17746 net.cpp:156] Memory required for data: 858010656
I0403 18:49:13.591339 17746 layer_factory.hpp:77] Creating layer inception_4a/relu_1x1
I0403 18:49:13.591357 17746 net.cpp:91] Creating Layer inception_4a/relu_1x1
I0403 18:49:13.591372 17746 net.cpp:425] inception_4a/relu_1x1 <- inception_4a/1x1
I0403 18:49:13.591392 17746 net.cpp:386] inception_4a/relu_1x1 -> inception_4a/1x1 (in-place)
I0403 18:49:13.591569 17746 net.cpp:141] Setting up inception_4a/relu_1x1
I0403 18:49:13.591594 17746 net.cpp:148] Top shape: 24 192 14 14 (903168)
I0403 18:49:13.591609 17746 net.cpp:156] Memory required for data: 861623328
I0403 18:49:13.591624 17746 layer_factory.hpp:77] Creating layer inception_4a/3x3_reduce
I0403 18:49:13.591645 17746 net.cpp:91] Creating Layer inception_4a/3x3_reduce
I0403 18:49:13.591662 17746 net.cpp:425] inception_4a/3x3_reduce <- pool3/3x3_s2_pool3/3x3_s2_0_split_1
I0403 18:49:13.591683 17746 net.cpp:399] inception_4a/3x3_reduce -> inception_4a/3x3_reduce
I0403 18:49:13.592980 17746 net.cpp:141] Setting up inception_4a/3x3_reduce
I0403 18:49:13.593008 17746 net.cpp:148] Top shape: 24 96 14 14 (451584)
I0403 18:49:13.593024 17746 net.cpp:156] Memory required for data: 863429664
I0403 18:49:13.593050 17746 layer_factory.hpp:77] Creating layer inception_4a/relu_3x3_reduce
I0403 18:49:13.593068 17746 net.cpp:91] Creating Layer inception_4a/relu_3x3_reduce
I0403 18:49:13.593085 17746 net.cpp:425] inception_4a/relu_3x3_reduce <- inception_4a/3x3_reduce
I0403 18:49:13.593102 17746 net.cpp:386] inception_4a/relu_3x3_reduce -> inception_4a/3x3_reduce (in-place)
I0403 18:49:13.593276 17746 net.cpp:141] Setting up inception_4a/relu_3x3_reduce
I0403 18:49:13.593300 17746 net.cpp:148] Top shape: 24 96 14 14 (451584)
I0403 18:49:13.593315 17746 net.cpp:156] Memory required for data: 865236000
I0403 18:49:13.593329 17746 layer_factory.hpp:77] Creating layer inception_4a/3x3
I0403 18:49:13.593351 17746 net.cpp:91] Creating Layer inception_4a/3x3
I0403 18:49:13.593369 17746 net.cpp:425] inception_4a/3x3 <- inception_4a/3x3_reduce
I0403 18:49:13.593389 17746 net.cpp:399] inception_4a/3x3 -> inception_4a/3x3
I0403 18:49:13.596040 17746 net.cpp:141] Setting up inception_4a/3x3
I0403 18:49:13.596068 17746 net.cpp:148] Top shape: 24 208 14 14 (978432)
I0403 18:49:13.596084 17746 net.cpp:156] Memory required for data: 869149728
I0403 18:49:13.596102 17746 layer_factory.hpp:77] Creating layer inception_4a/relu_3x3
I0403 18:49:13.596123 17746 net.cpp:91] Creating Layer inception_4a/relu_3x3
I0403 18:49:13.596140 17746 net.cpp:425] inception_4a/relu_3x3 <- inception_4a/3x3
I0403 18:49:13.596158 17746 net.cpp:386] inception_4a/relu_3x3 -> inception_4a/3x3 (in-place)
I0403 18:49:13.596433 17746 net.cpp:141] Setting up inception_4a/relu_3x3
I0403 18:49:13.596459 17746 net.cpp:148] Top shape: 24 208 14 14 (978432)
I0403 18:49:13.596474 17746 net.cpp:156] Memory required for data: 873063456
I0403 18:49:13.596488 17746 layer_factory.hpp:77] Creating layer inception_4a/5x5_reduce
I0403 18:49:13.596510 17746 net.cpp:91] Creating Layer inception_4a/5x5_reduce
I0403 18:49:13.596529 17746 net.cpp:425] inception_4a/5x5_reduce <- pool3/3x3_s2_pool3/3x3_s2_0_split_2
I0403 18:49:13.596549 17746 net.cpp:399] inception_4a/5x5_reduce -> inception_4a/5x5_reduce
I0403 18:49:13.597558 17746 net.cpp:141] Setting up inception_4a/5x5_reduce
I0403 18:49:13.597584 17746 net.cpp:148] Top shape: 24 16 14 14 (75264)
I0403 18:49:13.597599 17746 net.cpp:156] Memory required for data: 873364512
I0403 18:49:13.597617 17746 layer_factory.hpp:77] Creating layer inception_4a/relu_5x5_reduce
I0403 18:49:13.597637 17746 net.cpp:91] Creating Layer inception_4a/relu_5x5_reduce
I0403 18:49:13.597654 17746 net.cpp:425] inception_4a/relu_5x5_reduce <- inception_4a/5x5_reduce
I0403 18:49:13.597671 17746 net.cpp:386] inception_4a/relu_5x5_reduce -> inception_4a/5x5_reduce (in-place)
I0403 18:49:13.597847 17746 net.cpp:141] Setting up inception_4a/relu_5x5_reduce
I0403 18:49:13.597875 17746 net.cpp:148] Top shape: 24 16 14 14 (75264)
I0403 18:49:13.597892 17746 net.cpp:156] Memory required for data: 873665568
I0403 18:49:13.597906 17746 layer_factory.hpp:77] Creating layer inception_4a/5x5
I0403 18:49:13.597929 17746 net.cpp:91] Creating Layer inception_4a/5x5
I0403 18:49:13.597949 17746 net.cpp:425] inception_4a/5x5 <- inception_4a/5x5_reduce
I0403 18:49:13.597970 17746 net.cpp:399] inception_4a/5x5 -> inception_4a/5x5
I0403 18:49:13.599048 17746 net.cpp:141] Setting up inception_4a/5x5
I0403 18:49:13.599079 17746 net.cpp:148] Top shape: 24 48 14 14 (225792)
I0403 18:49:13.599097 17746 net.cpp:156] Memory required for data: 874568736
I0403 18:49:13.599115 17746 layer_factory.hpp:77] Creating layer inception_4a/relu_5x5
I0403 18:49:13.599133 17746 net.cpp:91] Creating Layer inception_4a/relu_5x5
I0403 18:49:13.599149 17746 net.cpp:425] inception_4a/relu_5x5 <- inception_4a/5x5
I0403 18:49:13.599169 17746 net.cpp:386] inception_4a/relu_5x5 -> inception_4a/5x5 (in-place)
I0403 18:49:13.599346 17746 net.cpp:141] Setting up inception_4a/relu_5x5
I0403 18:49:13.599371 17746 net.cpp:148] Top shape: 24 48 14 14 (225792)
I0403 18:49:13.599385 17746 net.cpp:156] Memory required for data: 875471904
I0403 18:49:13.599400 17746 layer_factory.hpp:77] Creating layer inception_4a/pool
I0403 18:49:13.599417 17746 net.cpp:91] Creating Layer inception_4a/pool
I0403 18:49:13.599433 17746 net.cpp:425] inception_4a/pool <- pool3/3x3_s2_pool3/3x3_s2_0_split_3
I0403 18:49:13.599453 17746 net.cpp:399] inception_4a/pool -> inception_4a/pool
I0403 18:49:13.599514 17746 net.cpp:141] Setting up inception_4a/pool
I0403 18:49:13.599537 17746 net.cpp:148] Top shape: 24 480 14 14 (2257920)
I0403 18:49:13.599551 17746 net.cpp:156] Memory required for data: 884503584
I0403 18:49:13.599566 17746 layer_factory.hpp:77] Creating layer inception_4a/pool_proj
I0403 18:49:13.599589 17746 net.cpp:91] Creating Layer inception_4a/pool_proj
I0403 18:49:13.599606 17746 net.cpp:425] inception_4a/pool_proj <- inception_4a/pool
I0403 18:49:13.599624 17746 net.cpp:399] inception_4a/pool_proj -> inception_4a/pool_proj
I0403 18:49:13.600777 17746 net.cpp:141] Setting up inception_4a/pool_proj
I0403 18:49:13.600807 17746 net.cpp:148] Top shape: 24 64 14 14 (301056)
I0403 18:49:13.600837 17746 net.cpp:156] Memory required for data: 885707808
I0403 18:49:13.600857 17746 layer_factory.hpp:77] Creating layer inception_4a/relu_pool_proj
I0403 18:49:13.600875 17746 net.cpp:91] Creating Layer inception_4a/relu_pool_proj
I0403 18:49:13.600891 17746 net.cpp:425] inception_4a/relu_pool_proj <- inception_4a/pool_proj
I0403 18:49:13.600913 17746 net.cpp:386] inception_4a/relu_pool_proj -> inception_4a/pool_proj (in-place)
I0403 18:49:13.601197 17746 net.cpp:141] Setting up inception_4a/relu_pool_proj
I0403 18:49:13.601225 17746 net.cpp:148] Top shape: 24 64 14 14 (301056)
I0403 18:49:13.601241 17746 net.cpp:156] Memory required for data: 886912032
I0403 18:49:13.601256 17746 layer_factory.hpp:77] Creating layer inception_4a/output
I0403 18:49:13.601274 17746 net.cpp:91] Creating Layer inception_4a/output
I0403 18:49:13.601289 17746 net.cpp:425] inception_4a/output <- inception_4a/1x1
I0403 18:49:13.601306 17746 net.cpp:425] inception_4a/output <- inception_4a/3x3
I0403 18:49:13.601322 17746 net.cpp:425] inception_4a/output <- inception_4a/5x5
I0403 18:49:13.601338 17746 net.cpp:425] inception_4a/output <- inception_4a/pool_proj
I0403 18:49:13.601357 17746 net.cpp:399] inception_4a/output -> inception_4a/output
I0403 18:49:13.601402 17746 net.cpp:141] Setting up inception_4a/output
I0403 18:49:13.601424 17746 net.cpp:148] Top shape: 24 512 14 14 (2408448)
I0403 18:49:13.601438 17746 net.cpp:156] Memory required for data: 896545824
I0403 18:49:13.601454 17746 layer_factory.hpp:77] Creating layer inception_4a/output_inception_4a/output_0_split
I0403 18:49:13.601474 17746 net.cpp:91] Creating Layer inception_4a/output_inception_4a/output_0_split
I0403 18:49:13.601490 17746 net.cpp:425] inception_4a/output_inception_4a/output_0_split <- inception_4a/output
I0403 18:49:13.601506 17746 net.cpp:399] inception_4a/output_inception_4a/output_0_split -> inception_4a/output_inception_4a/output_0_split_0
I0403 18:49:13.601529 17746 net.cpp:399] inception_4a/output_inception_4a/output_0_split -> inception_4a/output_inception_4a/output_0_split_1
I0403 18:49:13.601549 17746 net.cpp:399] inception_4a/output_inception_4a/output_0_split -> inception_4a/output_inception_4a/output_0_split_2
I0403 18:49:13.601569 17746 net.cpp:399] inception_4a/output_inception_4a/output_0_split -> inception_4a/output_inception_4a/output_0_split_3
I0403 18:49:13.601588 17746 net.cpp:399] inception_4a/output_inception_4a/output_0_split -> inception_4a/output_inception_4a/output_0_split_4
I0403 18:49:13.601681 17746 net.cpp:141] Setting up inception_4a/output_inception_4a/output_0_split
I0403 18:49:13.601704 17746 net.cpp:148] Top shape: 24 512 14 14 (2408448)
I0403 18:49:13.601721 17746 net.cpp:148] Top shape: 24 512 14 14 (2408448)
I0403 18:49:13.601737 17746 net.cpp:148] Top shape: 24 512 14 14 (2408448)
I0403 18:49:13.601750 17746 net.cpp:148] Top shape: 24 512 14 14 (2408448)
I0403 18:49:13.601766 17746 net.cpp:148] Top shape: 24 512 14 14 (2408448)
I0403 18:49:13.601780 17746 net.cpp:156] Memory required for data: 944714784
I0403 18:49:13.601794 17746 layer_factory.hpp:77] Creating layer loss1/ave_pool
I0403 18:49:13.601814 17746 net.cpp:91] Creating Layer loss1/ave_pool
I0403 18:49:13.601830 17746 net.cpp:425] loss1/ave_pool <- inception_4a/output_inception_4a/output_0_split_0
I0403 18:49:13.601848 17746 net.cpp:399] loss1/ave_pool -> loss1/ave_pool
I0403 18:49:13.602057 17746 net.cpp:141] Setting up loss1/ave_pool
I0403 18:49:13.602083 17746 net.cpp:148] Top shape: 24 512 4 4 (196608)
I0403 18:49:13.602098 17746 net.cpp:156] Memory required for data: 945501216
I0403 18:49:13.602113 17746 layer_factory.hpp:77] Creating layer loss1/conv
I0403 18:49:13.602134 17746 net.cpp:91] Creating Layer loss1/conv
I0403 18:49:13.602151 17746 net.cpp:425] loss1/conv <- loss1/ave_pool
I0403 18:49:13.602172 17746 net.cpp:399] loss1/conv -> loss1/conv
I0403 18:49:13.603566 17746 net.cpp:141] Setting up loss1/conv
I0403 18:49:13.603593 17746 net.cpp:148] Top shape: 24 128 4 4 (49152)
I0403 18:49:13.603623 17746 net.cpp:156] Memory required for data: 945697824
I0403 18:49:13.603642 17746 layer_factory.hpp:77] Creating layer loss1/relu_conv
I0403 18:49:13.603662 17746 net.cpp:91] Creating Layer loss1/relu_conv
I0403 18:49:13.603679 17746 net.cpp:425] loss1/relu_conv <- loss1/conv
I0403 18:49:13.603696 17746 net.cpp:386] loss1/relu_conv -> loss1/conv (in-place)
I0403 18:49:13.603986 17746 net.cpp:141] Setting up loss1/relu_conv
I0403 18:49:13.604012 17746 net.cpp:148] Top shape: 24 128 4 4 (49152)
I0403 18:49:13.604027 17746 net.cpp:156] Memory required for data: 945894432
I0403 18:49:13.604043 17746 layer_factory.hpp:77] Creating layer loss1/fc
I0403 18:49:13.604068 17746 net.cpp:91] Creating Layer loss1/fc
I0403 18:49:13.604085 17746 net.cpp:425] loss1/fc <- loss1/conv
I0403 18:49:13.604104 17746 net.cpp:399] loss1/fc -> loss1/fc
I0403 18:49:13.621382 17746 net.cpp:141] Setting up loss1/fc
I0403 18:49:13.621417 17746 net.cpp:148] Top shape: 24 1024 (24576)
I0403 18:49:13.621433 17746 net.cpp:156] Memory required for data: 945992736
I0403 18:49:13.621449 17746 layer_factory.hpp:77] Creating layer loss1/relu_fc
I0403 18:49:13.621467 17746 net.cpp:91] Creating Layer loss1/relu_fc
I0403 18:49:13.621484 17746 net.cpp:425] loss1/relu_fc <- loss1/fc
I0403 18:49:13.621505 17746 net.cpp:386] loss1/relu_fc -> loss1/fc (in-place)
I0403 18:49:13.621685 17746 net.cpp:141] Setting up loss1/relu_fc
I0403 18:49:13.621708 17746 net.cpp:148] Top shape: 24 1024 (24576)
I0403 18:49:13.621722 17746 net.cpp:156] Memory required for data: 946091040
I0403 18:49:13.621737 17746 layer_factory.hpp:77] Creating layer loss1/drop_fc
I0403 18:49:13.621762 17746 net.cpp:91] Creating Layer loss1/drop_fc
I0403 18:49:13.621779 17746 net.cpp:425] loss1/drop_fc <- loss1/fc
I0403 18:49:13.621796 17746 net.cpp:386] loss1/drop_fc -> loss1/fc (in-place)
I0403 18:49:13.621845 17746 net.cpp:141] Setting up loss1/drop_fc
I0403 18:49:13.621870 17746 net.cpp:148] Top shape: 24 1024 (24576)
I0403 18:49:13.621884 17746 net.cpp:156] Memory required for data: 946189344
I0403 18:49:13.621898 17746 layer_factory.hpp:77] Creating layer loss1/classifier_plantvillage
I0403 18:49:13.621915 17746 net.cpp:91] Creating Layer loss1/classifier_plantvillage
I0403 18:49:13.621932 17746 net.cpp:425] loss1/classifier_plantvillage <- loss1/fc
I0403 18:49:13.621955 17746 net.cpp:399] loss1/classifier_plantvillage -> loss1/classifier_plantvillage
I0403 18:49:13.622822 17746 net.cpp:141] Setting up loss1/classifier_plantvillage
I0403 18:49:13.622848 17746 net.cpp:148] Top shape: 24 38 (912)
I0403 18:49:13.622864 17746 net.cpp:156] Memory required for data: 946192992
I0403 18:49:13.622880 17746 layer_factory.hpp:77] Creating layer loss1/classifier_plantvillage_loss1/classifier_plantvillage_0_split
I0403 18:49:13.622898 17746 net.cpp:91] Creating Layer loss1/classifier_plantvillage_loss1/classifier_plantvillage_0_split
I0403 18:49:13.622913 17746 net.cpp:425] loss1/classifier_plantvillage_loss1/classifier_plantvillage_0_split <- loss1/classifier_plantvillage
I0403 18:49:13.622932 17746 net.cpp:399] loss1/classifier_plantvillage_loss1/classifier_plantvillage_0_split -> loss1/classifier_plantvillage_loss1/classifier_plantvillage_0_split_0
I0403 18:49:13.622958 17746 net.cpp:399] loss1/classifier_plantvillage_loss1/classifier_plantvillage_0_split -> loss1/classifier_plantvillage_loss1/classifier_plantvillage_0_split_1
I0403 18:49:13.622979 17746 net.cpp:399] loss1/classifier_plantvillage_loss1/classifier_plantvillage_0_split -> loss1/classifier_plantvillage_loss1/classifier_plantvillage_0_split_2
I0403 18:49:13.623044 17746 net.cpp:141] Setting up loss1/classifier_plantvillage_loss1/classifier_plantvillage_0_split
I0403 18:49:13.623067 17746 net.cpp:148] Top shape: 24 38 (912)
I0403 18:49:13.623082 17746 net.cpp:148] Top shape: 24 38 (912)
I0403 18:49:13.623097 17746 net.cpp:148] Top shape: 24 38 (912)
I0403 18:49:13.623111 17746 net.cpp:156] Memory required for data: 946203936
I0403 18:49:13.623124 17746 layer_factory.hpp:77] Creating layer inception_4b/1x1
I0403 18:49:13.623147 17746 net.cpp:91] Creating Layer inception_4b/1x1
I0403 18:49:13.623178 17746 net.cpp:425] inception_4b/1x1 <- inception_4a/output_inception_4a/output_0_split_1
I0403 18:49:13.623198 17746 net.cpp:399] inception_4b/1x1 -> inception_4b/1x1
I0403 18:49:13.624780 17746 net.cpp:141] Setting up inception_4b/1x1
I0403 18:49:13.624807 17746 net.cpp:148] Top shape: 24 160 14 14 (752640)
I0403 18:49:13.624822 17746 net.cpp:156] Memory required for data: 949214496
I0403 18:49:13.624840 17746 layer_factory.hpp:77] Creating layer inception_4b/relu_1x1
I0403 18:49:13.624860 17746 net.cpp:91] Creating Layer inception_4b/relu_1x1
I0403 18:49:13.624876 17746 net.cpp:425] inception_4b/relu_1x1 <- inception_4b/1x1
I0403 18:49:13.624892 17746 net.cpp:386] inception_4b/relu_1x1 -> inception_4b/1x1 (in-place)
I0403 18:49:13.625072 17746 net.cpp:141] Setting up inception_4b/relu_1x1
I0403 18:49:13.625098 17746 net.cpp:148] Top shape: 24 160 14 14 (752640)
I0403 18:49:13.625113 17746 net.cpp:156] Memory required for data: 952225056
I0403 18:49:13.625128 17746 layer_factory.hpp:77] Creating layer inception_4b/3x3_reduce
I0403 18:49:13.625149 17746 net.cpp:91] Creating Layer inception_4b/3x3_reduce
I0403 18:49:13.625165 17746 net.cpp:425] inception_4b/3x3_reduce <- inception_4a/output_inception_4a/output_0_split_2
I0403 18:49:13.625183 17746 net.cpp:399] inception_4b/3x3_reduce -> inception_4b/3x3_reduce
I0403 18:49:13.626487 17746 net.cpp:141] Setting up inception_4b/3x3_reduce
I0403 18:49:13.626516 17746 net.cpp:148] Top shape: 24 112 14 14 (526848)
I0403 18:49:13.626533 17746 net.cpp:156] Memory required for data: 954332448
I0403 18:49:13.626549 17746 layer_factory.hpp:77] Creating layer inception_4b/relu_3x3_reduce
I0403 18:49:13.626567 17746 net.cpp:91] Creating Layer inception_4b/relu_3x3_reduce
I0403 18:49:13.626582 17746 net.cpp:425] inception_4b/relu_3x3_reduce <- inception_4b/3x3_reduce
I0403 18:49:13.626598 17746 net.cpp:386] inception_4b/relu_3x3_reduce -> inception_4b/3x3_reduce (in-place)
I0403 18:49:13.626873 17746 net.cpp:141] Setting up inception_4b/relu_3x3_reduce
I0403 18:49:13.626900 17746 net.cpp:148] Top shape: 24 112 14 14 (526848)
I0403 18:49:13.626915 17746 net.cpp:156] Memory required for data: 956439840
I0403 18:49:13.626940 17746 layer_factory.hpp:77] Creating layer inception_4b/3x3
I0403 18:49:13.626966 17746 net.cpp:91] Creating Layer inception_4b/3x3
I0403 18:49:13.626984 17746 net.cpp:425] inception_4b/3x3 <- inception_4b/3x3_reduce
I0403 18:49:13.627003 17746 net.cpp:399] inception_4b/3x3 -> inception_4b/3x3
I0403 18:49:13.629895 17746 net.cpp:141] Setting up inception_4b/3x3
I0403 18:49:13.629923 17746 net.cpp:148] Top shape: 24 224 14 14 (1053696)
I0403 18:49:13.629945 17746 net.cpp:156] Memory required for data: 960654624
I0403 18:49:13.629967 17746 layer_factory.hpp:77] Creating layer inception_4b/relu_3x3
I0403 18:49:13.629986 17746 net.cpp:91] Creating Layer inception_4b/relu_3x3
I0403 18:49:13.630002 17746 net.cpp:425] inception_4b/relu_3x3 <- inception_4b/3x3
I0403 18:49:13.630019 17746 net.cpp:386] inception_4b/relu_3x3 -> inception_4b/3x3 (in-place)
I0403 18:49:13.630197 17746 net.cpp:141] Setting up inception_4b/relu_3x3
I0403 18:49:13.630230 17746 net.cpp:148] Top shape: 24 224 14 14 (1053696)
I0403 18:49:13.630245 17746 net.cpp:156] Memory required for data: 964869408
I0403 18:49:13.630259 17746 layer_factory.hpp:77] Creating layer inception_4b/5x5_reduce
I0403 18:49:13.630281 17746 net.cpp:91] Creating Layer inception_4b/5x5_reduce
I0403 18:49:13.630298 17746 net.cpp:425] inception_4b/5x5_reduce <- inception_4a/output_inception_4a/output_0_split_3
I0403 18:49:13.630321 17746 net.cpp:399] inception_4b/5x5_reduce -> inception_4b/5x5_reduce
I0403 18:49:13.631369 17746 net.cpp:141] Setting up inception_4b/5x5_reduce
I0403 18:49:13.631395 17746 net.cpp:148] Top shape: 24 24 14 14 (112896)
I0403 18:49:13.631413 17746 net.cpp:156] Memory required for data: 965320992
I0403 18:49:13.631431 17746 layer_factory.hpp:77] Creating layer inception_4b/relu_5x5_reduce
I0403 18:49:13.631448 17746 net.cpp:91] Creating Layer inception_4b/relu_5x5_reduce
I0403 18:49:13.631479 17746 net.cpp:425] inception_4b/relu_5x5_reduce <- inception_4b/5x5_reduce
I0403 18:49:13.631496 17746 net.cpp:386] inception_4b/relu_5x5_reduce -> inception_4b/5x5_reduce (in-place)
I0403 18:49:13.631676 17746 net.cpp:141] Setting up inception_4b/relu_5x5_reduce
I0403 18:49:13.631703 17746 net.cpp:148] Top shape: 24 24 14 14 (112896)
I0403 18:49:13.631717 17746 net.cpp:156] Memory required for data: 965772576
I0403 18:49:13.631731 17746 layer_factory.hpp:77] Creating layer inception_4b/5x5
I0403 18:49:13.631752 17746 net.cpp:91] Creating Layer inception_4b/5x5
I0403 18:49:13.631768 17746 net.cpp:425] inception_4b/5x5 <- inception_4b/5x5_reduce
I0403 18:49:13.631786 17746 net.cpp:399] inception_4b/5x5 -> inception_4b/5x5
I0403 18:49:13.632979 17746 net.cpp:141] Setting up inception_4b/5x5
I0403 18:49:13.633007 17746 net.cpp:148] Top shape: 24 64 14 14 (301056)
I0403 18:49:13.633021 17746 net.cpp:156] Memory required for data: 966976800
I0403 18:49:13.633039 17746 layer_factory.hpp:77] Creating layer inception_4b/relu_5x5
I0403 18:49:13.633060 17746 net.cpp:91] Creating Layer inception_4b/relu_5x5
I0403 18:49:13.633077 17746 net.cpp:425] inception_4b/relu_5x5 <- inception_4b/5x5
I0403 18:49:13.633095 17746 net.cpp:386] inception_4b/relu_5x5 -> inception_4b/5x5 (in-place)
I0403 18:49:13.633374 17746 net.cpp:141] Setting up inception_4b/relu_5x5
I0403 18:49:13.633399 17746 net.cpp:148] Top shape: 24 64 14 14 (301056)
I0403 18:49:13.633414 17746 net.cpp:156] Memory required for data: 968181024
I0403 18:49:13.633427 17746 layer_factory.hpp:77] Creating layer inception_4b/pool
I0403 18:49:13.633448 17746 net.cpp:91] Creating Layer inception_4b/pool
I0403 18:49:13.633466 17746 net.cpp:425] inception_4b/pool <- inception_4a/output_inception_4a/output_0_split_4
I0403 18:49:13.633484 17746 net.cpp:399] inception_4b/pool -> inception_4b/pool
I0403 18:49:13.633546 17746 net.cpp:141] Setting up inception_4b/pool
I0403 18:49:13.633569 17746 net.cpp:148] Top shape: 24 512 14 14 (2408448)
I0403 18:49:13.633582 17746 net.cpp:156] Memory required for data: 977814816
I0403 18:49:13.633596 17746 layer_factory.hpp:77] Creating layer inception_4b/pool_proj
I0403 18:49:13.633617 17746 net.cpp:91] Creating Layer inception_4b/pool_proj
I0403 18:49:13.633635 17746 net.cpp:425] inception_4b/pool_proj <- inception_4b/pool
I0403 18:49:13.633653 17746 net.cpp:399] inception_4b/pool_proj -> inception_4b/pool_proj
I0403 18:49:13.634810 17746 net.cpp:141] Setting up inception_4b/pool_proj
I0403 18:49:13.634836 17746 net.cpp:148] Top shape: 24 64 14 14 (301056)
I0403 18:49:13.634851 17746 net.cpp:156] Memory required for data: 979019040
I0403 18:49:13.634870 17746 layer_factory.hpp:77] Creating layer inception_4b/relu_pool_proj
I0403 18:49:13.634888 17746 net.cpp:91] Creating Layer inception_4b/relu_pool_proj
I0403 18:49:13.634904 17746 net.cpp:425] inception_4b/relu_pool_proj <- inception_4b/pool_proj
I0403 18:49:13.634922 17746 net.cpp:386] inception_4b/relu_pool_proj -> inception_4b/pool_proj (in-place)
I0403 18:49:13.635102 17746 net.cpp:141] Setting up inception_4b/relu_pool_proj
I0403 18:49:13.635125 17746 net.cpp:148] Top shape: 24 64 14 14 (301056)
I0403 18:49:13.635139 17746 net.cpp:156] Memory required for data: 980223264
I0403 18:49:13.635154 17746 layer_factory.hpp:77] Creating layer inception_4b/output
I0403 18:49:13.635170 17746 net.cpp:91] Creating Layer inception_4b/output
I0403 18:49:13.635185 17746 net.cpp:425] inception_4b/output <- inception_4b/1x1
I0403 18:49:13.635201 17746 net.cpp:425] inception_4b/output <- inception_4b/3x3
I0403 18:49:13.635216 17746 net.cpp:425] inception_4b/output <- inception_4b/5x5
I0403 18:49:13.635232 17746 net.cpp:425] inception_4b/output <- inception_4b/pool_proj
I0403 18:49:13.635251 17746 net.cpp:399] inception_4b/output -> inception_4b/output
I0403 18:49:13.635294 17746 net.cpp:141] Setting up inception_4b/output
I0403 18:49:13.635316 17746 net.cpp:148] Top shape: 24 512 14 14 (2408448)
I0403 18:49:13.635334 17746 net.cpp:156] Memory required for data: 989857056
I0403 18:49:13.635360 17746 layer_factory.hpp:77] Creating layer inception_4b/output_inception_4b/output_0_split
I0403 18:49:13.635378 17746 net.cpp:91] Creating Layer inception_4b/output_inception_4b/output_0_split
I0403 18:49:13.635395 17746 net.cpp:425] inception_4b/output_inception_4b/output_0_split <- inception_4b/output
I0403 18:49:13.635411 17746 net.cpp:399] inception_4b/output_inception_4b/output_0_split -> inception_4b/output_inception_4b/output_0_split_0
I0403 18:49:13.635431 17746 net.cpp:399] inception_4b/output_inception_4b/output_0_split -> inception_4b/output_inception_4b/output_0_split_1
I0403 18:49:13.635449 17746 net.cpp:399] inception_4b/output_inception_4b/output_0_split -> inception_4b/output_inception_4b/output_0_split_2
I0403 18:49:13.635470 17746 net.cpp:399] inception_4b/output_inception_4b/output_0_split -> inception_4b/output_inception_4b/output_0_split_3
I0403 18:49:13.635555 17746 net.cpp:141] Setting up inception_4b/output_inception_4b/output_0_split
I0403 18:49:13.635577 17746 net.cpp:148] Top shape: 24 512 14 14 (2408448)
I0403 18:49:13.635592 17746 net.cpp:148] Top shape: 24 512 14 14 (2408448)
I0403 18:49:13.635607 17746 net.cpp:148] Top shape: 24 512 14 14 (2408448)
I0403 18:49:13.635622 17746 net.cpp:148] Top shape: 24 512 14 14 (2408448)
I0403 18:49:13.635634 17746 net.cpp:156] Memory required for data: 1028392224
I0403 18:49:13.635648 17746 layer_factory.hpp:77] Creating layer inception_4c/1x1
I0403 18:49:13.635669 17746 net.cpp:91] Creating Layer inception_4c/1x1
I0403 18:49:13.635686 17746 net.cpp:425] inception_4c/1x1 <- inception_4b/output_inception_4b/output_0_split_0
I0403 18:49:13.635706 17746 net.cpp:399] inception_4c/1x1 -> inception_4c/1x1
I0403 18:49:13.637102 17746 net.cpp:141] Setting up inception_4c/1x1
I0403 18:49:13.637130 17746 net.cpp:148] Top shape: 24 128 14 14 (602112)
I0403 18:49:13.637145 17746 net.cpp:156] Memory required for data: 1030800672
I0403 18:49:13.637162 17746 layer_factory.hpp:77] Creating layer inception_4c/relu_1x1
I0403 18:49:13.637179 17746 net.cpp:91] Creating Layer inception_4c/relu_1x1
I0403 18:49:13.637194 17746 net.cpp:425] inception_4c/relu_1x1 <- inception_4c/1x1
I0403 18:49:13.637213 17746 net.cpp:386] inception_4c/relu_1x1 -> inception_4c/1x1 (in-place)
I0403 18:49:13.637388 17746 net.cpp:141] Setting up inception_4c/relu_1x1
I0403 18:49:13.637413 17746 net.cpp:148] Top shape: 24 128 14 14 (602112)
I0403 18:49:13.637426 17746 net.cpp:156] Memory required for data: 1033209120
I0403 18:49:13.637440 17746 layer_factory.hpp:77] Creating layer inception_4c/3x3_reduce
I0403 18:49:13.637462 17746 net.cpp:91] Creating Layer inception_4c/3x3_reduce
I0403 18:49:13.637480 17746 net.cpp:425] inception_4c/3x3_reduce <- inception_4b/output_inception_4b/output_0_split_1
I0403 18:49:13.637502 17746 net.cpp:399] inception_4c/3x3_reduce -> inception_4c/3x3_reduce
I0403 18:49:13.639430 17746 net.cpp:141] Setting up inception_4c/3x3_reduce
I0403 18:49:13.639457 17746 net.cpp:148] Top shape: 24 128 14 14 (602112)
I0403 18:49:13.639472 17746 net.cpp:156] Memory required for data: 1035617568
I0403 18:49:13.639492 17746 layer_factory.hpp:77] Creating layer inception_4c/relu_3x3_reduce
I0403 18:49:13.639511 17746 net.cpp:91] Creating Layer inception_4c/relu_3x3_reduce
I0403 18:49:13.639528 17746 net.cpp:425] inception_4c/relu_3x3_reduce <- inception_4c/3x3_reduce
I0403 18:49:13.639545 17746 net.cpp:386] inception_4c/relu_3x3_reduce -> inception_4c/3x3_reduce (in-place)
I0403 18:49:13.639830 17746 net.cpp:141] Setting up inception_4c/relu_3x3_reduce
I0403 18:49:13.639856 17746 net.cpp:148] Top shape: 24 128 14 14 (602112)
I0403 18:49:13.639870 17746 net.cpp:156] Memory required for data: 1038026016
I0403 18:49:13.639885 17746 layer_factory.hpp:77] Creating layer inception_4c/3x3
I0403 18:49:13.639907 17746 net.cpp:91] Creating Layer inception_4c/3x3
I0403 18:49:13.639925 17746 net.cpp:425] inception_4c/3x3 <- inception_4c/3x3_reduce
I0403 18:49:13.639950 17746 net.cpp:399] inception_4c/3x3 -> inception_4c/3x3
I0403 18:49:13.643548 17746 net.cpp:141] Setting up inception_4c/3x3
I0403 18:49:13.643589 17746 net.cpp:148] Top shape: 24 256 14 14 (1204224)
I0403 18:49:13.643605 17746 net.cpp:156] Memory required for data: 1042842912
I0403 18:49:13.643637 17746 layer_factory.hpp:77] Creating layer inception_4c/relu_3x3
I0403 18:49:13.643659 17746 net.cpp:91] Creating Layer inception_4c/relu_3x3
I0403 18:49:13.643677 17746 net.cpp:425] inception_4c/relu_3x3 <- inception_4c/3x3
I0403 18:49:13.643694 17746 net.cpp:386] inception_4c/relu_3x3 -> inception_4c/3x3 (in-place)
I0403 18:49:13.643879 17746 net.cpp:141] Setting up inception_4c/relu_3x3
I0403 18:49:13.643906 17746 net.cpp:148] Top shape: 24 256 14 14 (1204224)
I0403 18:49:13.643923 17746 net.cpp:156] Memory required for data: 1047659808
I0403 18:49:13.643936 17746 layer_factory.hpp:77] Creating layer inception_4c/5x5_reduce
I0403 18:49:13.643960 17746 net.cpp:91] Creating Layer inception_4c/5x5_reduce
I0403 18:49:13.643978 17746 net.cpp:425] inception_4c/5x5_reduce <- inception_4b/output_inception_4b/output_0_split_2
I0403 18:49:13.644001 17746 net.cpp:399] inception_4c/5x5_reduce -> inception_4c/5x5_reduce
I0403 18:49:13.645087 17746 net.cpp:141] Setting up inception_4c/5x5_reduce
I0403 18:49:13.645115 17746 net.cpp:148] Top shape: 24 24 14 14 (112896)
I0403 18:49:13.645130 17746 net.cpp:156] Memory required for data: 1048111392
I0403 18:49:13.645149 17746 layer_factory.hpp:77] Creating layer inception_4c/relu_5x5_reduce
I0403 18:49:13.645169 17746 net.cpp:91] Creating Layer inception_4c/relu_5x5_reduce
I0403 18:49:13.645185 17746 net.cpp:425] inception_4c/relu_5x5_reduce <- inception_4c/5x5_reduce
I0403 18:49:13.645202 17746 net.cpp:386] inception_4c/relu_5x5_reduce -> inception_4c/5x5_reduce (in-place)
I0403 18:49:13.645396 17746 net.cpp:141] Setting up inception_4c/relu_5x5_reduce
I0403 18:49:13.645423 17746 net.cpp:148] Top shape: 24 24 14 14 (112896)
I0403 18:49:13.645438 17746 net.cpp:156] Memory required for data: 1048562976
I0403 18:49:13.645452 17746 layer_factory.hpp:77] Creating layer inception_4c/5x5
I0403 18:49:13.645474 17746 net.cpp:91] Creating Layer inception_4c/5x5
I0403 18:49:13.645493 17746 net.cpp:425] inception_4c/5x5 <- inception_4c/5x5_reduce
I0403 18:49:13.645510 17746 net.cpp:399] inception_4c/5x5 -> inception_4c/5x5
I0403 18:49:13.646751 17746 net.cpp:141] Setting up inception_4c/5x5
I0403 18:49:13.646780 17746 net.cpp:148] Top shape: 24 64 14 14 (301056)
I0403 18:49:13.646795 17746 net.cpp:156] Memory required for data: 1049767200
I0403 18:49:13.646813 17746 layer_factory.hpp:77] Creating layer inception_4c/relu_5x5
I0403 18:49:13.646831 17746 net.cpp:91] Creating Layer inception_4c/relu_5x5
I0403 18:49:13.646847 17746 net.cpp:425] inception_4c/relu_5x5 <- inception_4c/5x5
I0403 18:49:13.646865 17746 net.cpp:386] inception_4c/relu_5x5 -> inception_4c/5x5 (in-place)
I0403 18:49:13.647164 17746 net.cpp:141] Setting up inception_4c/relu_5x5
I0403 18:49:13.647191 17746 net.cpp:148] Top shape: 24 64 14 14 (301056)
I0403 18:49:13.647207 17746 net.cpp:156] Memory required for data: 1050971424
I0403 18:49:13.647222 17746 layer_factory.hpp:77] Creating layer inception_4c/pool
I0403 18:49:13.647239 17746 net.cpp:91] Creating Layer inception_4c/pool
I0403 18:49:13.647255 17746 net.cpp:425] inception_4c/pool <- inception_4b/output_inception_4b/output_0_split_3
I0403 18:49:13.647275 17746 net.cpp:399] inception_4c/pool -> inception_4c/pool
I0403 18:49:13.647341 17746 net.cpp:141] Setting up inception_4c/pool
I0403 18:49:13.647366 17746 net.cpp:148] Top shape: 24 512 14 14 (2408448)
I0403 18:49:13.647378 17746 net.cpp:156] Memory required for data: 1060605216
I0403 18:49:13.647393 17746 layer_factory.hpp:77] Creating layer inception_4c/pool_proj
I0403 18:49:13.647418 17746 net.cpp:91] Creating Layer inception_4c/pool_proj
I0403 18:49:13.647434 17746 net.cpp:425] inception_4c/pool_proj <- inception_4c/pool
I0403 18:49:13.647454 17746 net.cpp:399] inception_4c/pool_proj -> inception_4c/pool_proj
I0403 18:49:13.648699 17746 net.cpp:141] Setting up inception_4c/pool_proj
I0403 18:49:13.648727 17746 net.cpp:148] Top shape: 24 64 14 14 (301056)
I0403 18:49:13.648756 17746 net.cpp:156] Memory required for data: 1061809440
I0403 18:49:13.648777 17746 layer_factory.hpp:77] Creating layer inception_4c/relu_pool_proj
I0403 18:49:13.648797 17746 net.cpp:91] Creating Layer inception_4c/relu_pool_proj
I0403 18:49:13.648813 17746 net.cpp:425] inception_4c/relu_pool_proj <- inception_4c/pool_proj
I0403 18:49:13.648830 17746 net.cpp:386] inception_4c/relu_pool_proj -> inception_4c/pool_proj (in-place)
I0403 18:49:13.649019 17746 net.cpp:141] Setting up inception_4c/relu_pool_proj
I0403 18:49:13.649045 17746 net.cpp:148] Top shape: 24 64 14 14 (301056)
I0403 18:49:13.649060 17746 net.cpp:156] Memory required for data: 1063013664
I0403 18:49:13.649075 17746 layer_factory.hpp:77] Creating layer inception_4c/output
I0403 18:49:13.649091 17746 net.cpp:91] Creating Layer inception_4c/output
I0403 18:49:13.649107 17746 net.cpp:425] inception_4c/output <- inception_4c/1x1
I0403 18:49:13.649123 17746 net.cpp:425] inception_4c/output <- inception_4c/3x3
I0403 18:49:13.649139 17746 net.cpp:425] inception_4c/output <- inception_4c/5x5
I0403 18:49:13.649155 17746 net.cpp:425] inception_4c/output <- inception_4c/pool_proj
I0403 18:49:13.649173 17746 net.cpp:399] inception_4c/output -> inception_4c/output
I0403 18:49:13.649219 17746 net.cpp:141] Setting up inception_4c/output
I0403 18:49:13.649242 17746 net.cpp:148] Top shape: 24 512 14 14 (2408448)
I0403 18:49:13.649256 17746 net.cpp:156] Memory required for data: 1072647456
I0403 18:49:13.649271 17746 layer_factory.hpp:77] Creating layer inception_4c/output_inception_4c/output_0_split
I0403 18:49:13.649289 17746 net.cpp:91] Creating Layer inception_4c/output_inception_4c/output_0_split
I0403 18:49:13.649305 17746 net.cpp:425] inception_4c/output_inception_4c/output_0_split <- inception_4c/output
I0403 18:49:13.649322 17746 net.cpp:399] inception_4c/output_inception_4c/output_0_split -> inception_4c/output_inception_4c/output_0_split_0
I0403 18:49:13.649343 17746 net.cpp:399] inception_4c/output_inception_4c/output_0_split -> inception_4c/output_inception_4c/output_0_split_1
I0403 18:49:13.649363 17746 net.cpp:399] inception_4c/output_inception_4c/output_0_split -> inception_4c/output_inception_4c/output_0_split_2
I0403 18:49:13.649384 17746 net.cpp:399] inception_4c/output_inception_4c/output_0_split -> inception_4c/output_inception_4c/output_0_split_3
I0403 18:49:13.649472 17746 net.cpp:141] Setting up inception_4c/output_inception_4c/output_0_split
I0403 18:49:13.649494 17746 net.cpp:148] Top shape: 24 512 14 14 (2408448)
I0403 18:49:13.649510 17746 net.cpp:148] Top shape: 24 512 14 14 (2408448)
I0403 18:49:13.649525 17746 net.cpp:148] Top shape: 24 512 14 14 (2408448)
I0403 18:49:13.649540 17746 net.cpp:148] Top shape: 24 512 14 14 (2408448)
I0403 18:49:13.649554 17746 net.cpp:156] Memory required for data: 1111182624
I0403 18:49:13.649567 17746 layer_factory.hpp:77] Creating layer inception_4d/1x1
I0403 18:49:13.649590 17746 net.cpp:91] Creating Layer inception_4d/1x1
I0403 18:49:13.649606 17746 net.cpp:425] inception_4d/1x1 <- inception_4c/output_inception_4c/output_0_split_0
I0403 18:49:13.649627 17746 net.cpp:399] inception_4d/1x1 -> inception_4d/1x1
I0403 18:49:13.651026 17746 net.cpp:141] Setting up inception_4d/1x1
I0403 18:49:13.651053 17746 net.cpp:148] Top shape: 24 112 14 14 (526848)
I0403 18:49:13.651069 17746 net.cpp:156] Memory required for data: 1113290016
I0403 18:49:13.651087 17746 layer_factory.hpp:77] Creating layer inception_4d/relu_1x1
I0403 18:49:13.651105 17746 net.cpp:91] Creating Layer inception_4d/relu_1x1
I0403 18:49:13.651121 17746 net.cpp:425] inception_4d/relu_1x1 <- inception_4d/1x1
I0403 18:49:13.651140 17746 net.cpp:386] inception_4d/relu_1x1 -> inception_4d/1x1 (in-place)
I0403 18:49:13.651329 17746 net.cpp:141] Setting up inception_4d/relu_1x1
I0403 18:49:13.651353 17746 net.cpp:148] Top shape: 24 112 14 14 (526848)
I0403 18:49:13.651368 17746 net.cpp:156] Memory required for data: 1115397408
I0403 18:49:13.651382 17746 layer_factory.hpp:77] Creating layer inception_4d/3x3_reduce
I0403 18:49:13.651418 17746 net.cpp:91] Creating Layer inception_4d/3x3_reduce
I0403 18:49:13.651438 17746 net.cpp:425] inception_4d/3x3_reduce <- inception_4c/output_inception_4c/output_0_split_1
I0403 18:49:13.651459 17746 net.cpp:399] inception_4d/3x3_reduce -> inception_4d/3x3_reduce
I0403 18:49:13.652972 17746 net.cpp:141] Setting up inception_4d/3x3_reduce
I0403 18:49:13.653002 17746 net.cpp:148] Top shape: 24 144 14 14 (677376)
I0403 18:49:13.653019 17746 net.cpp:156] Memory required for data: 1118106912
I0403 18:49:13.653038 17746 layer_factory.hpp:77] Creating layer inception_4d/relu_3x3_reduce
I0403 18:49:13.653056 17746 net.cpp:91] Creating Layer inception_4d/relu_3x3_reduce
I0403 18:49:13.653074 17746 net.cpp:425] inception_4d/relu_3x3_reduce <- inception_4d/3x3_reduce
I0403 18:49:13.653093 17746 net.cpp:386] inception_4d/relu_3x3_reduce -> inception_4d/3x3_reduce (in-place)
I0403 18:49:13.653383 17746 net.cpp:141] Setting up inception_4d/relu_3x3_reduce
I0403 18:49:13.653410 17746 net.cpp:148] Top shape: 24 144 14 14 (677376)
I0403 18:49:13.653426 17746 net.cpp:156] Memory required for data: 1120816416
I0403 18:49:13.653440 17746 layer_factory.hpp:77] Creating layer inception_4d/3x3
I0403 18:49:13.653463 17746 net.cpp:91] Creating Layer inception_4d/3x3
I0403 18:49:13.653481 17746 net.cpp:425] inception_4d/3x3 <- inception_4d/3x3_reduce
I0403 18:49:13.653502 17746 net.cpp:399] inception_4d/3x3 -> inception_4d/3x3
I0403 18:49:13.657765 17746 net.cpp:141] Setting up inception_4d/3x3
I0403 18:49:13.657794 17746 net.cpp:148] Top shape: 24 288 14 14 (1354752)
I0403 18:49:13.657809 17746 net.cpp:156] Memory required for data: 1126235424
I0403 18:49:13.657827 17746 layer_factory.hpp:77] Creating layer inception_4d/relu_3x3
I0403 18:49:13.657846 17746 net.cpp:91] Creating Layer inception_4d/relu_3x3
I0403 18:49:13.657863 17746 net.cpp:425] inception_4d/relu_3x3 <- inception_4d/3x3
I0403 18:49:13.657881 17746 net.cpp:386] inception_4d/relu_3x3 -> inception_4d/3x3 (in-place)
I0403 18:49:13.658063 17746 net.cpp:141] Setting up inception_4d/relu_3x3
I0403 18:49:13.658088 17746 net.cpp:148] Top shape: 24 288 14 14 (1354752)
I0403 18:49:13.658102 17746 net.cpp:156] Memory required for data: 1131654432
I0403 18:49:13.658118 17746 layer_factory.hpp:77] Creating layer inception_4d/5x5_reduce
I0403 18:49:13.658139 17746 net.cpp:91] Creating Layer inception_4d/5x5_reduce
I0403 18:49:13.658156 17746 net.cpp:425] inception_4d/5x5_reduce <- inception_4c/output_inception_4c/output_0_split_2
I0403 18:49:13.658175 17746 net.cpp:399] inception_4d/5x5_reduce -> inception_4d/5x5_reduce
I0403 18:49:13.659296 17746 net.cpp:141] Setting up inception_4d/5x5_reduce
I0403 18:49:13.659323 17746 net.cpp:148] Top shape: 24 32 14 14 (150528)
I0403 18:49:13.659337 17746 net.cpp:156] Memory required for data: 1132256544
I0403 18:49:13.659356 17746 layer_factory.hpp:77] Creating layer inception_4d/relu_5x5_reduce
I0403 18:49:13.659376 17746 net.cpp:91] Creating Layer inception_4d/relu_5x5_reduce
I0403 18:49:13.659394 17746 net.cpp:425] inception_4d/relu_5x5_reduce <- inception_4d/5x5_reduce
I0403 18:49:13.659411 17746 net.cpp:386] inception_4d/relu_5x5_reduce -> inception_4d/5x5_reduce (in-place)
I0403 18:49:13.659592 17746 net.cpp:141] Setting up inception_4d/relu_5x5_reduce
I0403 18:49:13.659620 17746 net.cpp:148] Top shape: 24 32 14 14 (150528)
I0403 18:49:13.659636 17746 net.cpp:156] Memory required for data: 1132858656
I0403 18:49:13.659649 17746 layer_factory.hpp:77] Creating layer inception_4d/5x5
I0403 18:49:13.659668 17746 net.cpp:91] Creating Layer inception_4d/5x5
I0403 18:49:13.659684 17746 net.cpp:425] inception_4d/5x5 <- inception_4d/5x5_reduce
I0403 18:49:13.659705 17746 net.cpp:399] inception_4d/5x5 -> inception_4d/5x5
I0403 18:49:13.661149 17746 net.cpp:141] Setting up inception_4d/5x5
I0403 18:49:13.661178 17746 net.cpp:148] Top shape: 24 64 14 14 (301056)
I0403 18:49:13.661193 17746 net.cpp:156] Memory required for data: 1134062880
I0403 18:49:13.661212 17746 layer_factory.hpp:77] Creating layer inception_4d/relu_5x5
I0403 18:49:13.661244 17746 net.cpp:91] Creating Layer inception_4d/relu_5x5
I0403 18:49:13.661262 17746 net.cpp:425] inception_4d/relu_5x5 <- inception_4d/5x5
I0403 18:49:13.661278 17746 net.cpp:386] inception_4d/relu_5x5 -> inception_4d/5x5 (in-place)
I0403 18:49:13.661568 17746 net.cpp:141] Setting up inception_4d/relu_5x5
I0403 18:49:13.661597 17746 net.cpp:148] Top shape: 24 64 14 14 (301056)
I0403 18:49:13.661612 17746 net.cpp:156] Memory required for data: 1135267104
I0403 18:49:13.661626 17746 layer_factory.hpp:77] Creating layer inception_4d/pool
I0403 18:49:13.661643 17746 net.cpp:91] Creating Layer inception_4d/pool
I0403 18:49:13.661659 17746 net.cpp:425] inception_4d/pool <- inception_4c/output_inception_4c/output_0_split_3
I0403 18:49:13.661676 17746 net.cpp:399] inception_4d/pool -> inception_4d/pool
I0403 18:49:13.661741 17746 net.cpp:141] Setting up inception_4d/pool
I0403 18:49:13.661764 17746 net.cpp:148] Top shape: 24 512 14 14 (2408448)
I0403 18:49:13.661778 17746 net.cpp:156] Memory required for data: 1144900896
I0403 18:49:13.661792 17746 layer_factory.hpp:77] Creating layer inception_4d/pool_proj
I0403 18:49:13.661813 17746 net.cpp:91] Creating Layer inception_4d/pool_proj
I0403 18:49:13.661829 17746 net.cpp:425] inception_4d/pool_proj <- inception_4d/pool
I0403 18:49:13.661849 17746 net.cpp:399] inception_4d/pool_proj -> inception_4d/pool_proj
I0403 18:49:13.663594 17746 net.cpp:141] Setting up inception_4d/pool_proj
I0403 18:49:13.663622 17746 net.cpp:148] Top shape: 24 64 14 14 (301056)
I0403 18:49:13.663637 17746 net.cpp:156] Memory required for data: 1146105120
I0403 18:49:13.663655 17746 layer_factory.hpp:77] Creating layer inception_4d/relu_pool_proj
I0403 18:49:13.663674 17746 net.cpp:91] Creating Layer inception_4d/relu_pool_proj
I0403 18:49:13.663691 17746 net.cpp:425] inception_4d/relu_pool_proj <- inception_4d/pool_proj
I0403 18:49:13.663708 17746 net.cpp:386] inception_4d/relu_pool_proj -> inception_4d/pool_proj (in-place)
I0403 18:49:13.663890 17746 net.cpp:141] Setting up inception_4d/relu_pool_proj
I0403 18:49:13.663914 17746 net.cpp:148] Top shape: 24 64 14 14 (301056)
I0403 18:49:13.663928 17746 net.cpp:156] Memory required for data: 1147309344
I0403 18:49:13.663943 17746 layer_factory.hpp:77] Creating layer inception_4d/output
I0403 18:49:13.663966 17746 net.cpp:91] Creating Layer inception_4d/output
I0403 18:49:13.663983 17746 net.cpp:425] inception_4d/output <- inception_4d/1x1
I0403 18:49:13.664000 17746 net.cpp:425] inception_4d/output <- inception_4d/3x3
I0403 18:49:13.664014 17746 net.cpp:425] inception_4d/output <- inception_4d/5x5
I0403 18:49:13.664031 17746 net.cpp:425] inception_4d/output <- inception_4d/pool_proj
I0403 18:49:13.664047 17746 net.cpp:399] inception_4d/output -> inception_4d/output
I0403 18:49:13.664093 17746 net.cpp:141] Setting up inception_4d/output
I0403 18:49:13.664115 17746 net.cpp:148] Top shape: 24 528 14 14 (2483712)
I0403 18:49:13.664129 17746 net.cpp:156] Memory required for data: 1157244192
I0403 18:49:13.664144 17746 layer_factory.hpp:77] Creating layer inception_4d/output_inception_4d/output_0_split
I0403 18:49:13.664160 17746 net.cpp:91] Creating Layer inception_4d/output_inception_4d/output_0_split
I0403 18:49:13.664175 17746 net.cpp:425] inception_4d/output_inception_4d/output_0_split <- inception_4d/output
I0403 18:49:13.664193 17746 net.cpp:399] inception_4d/output_inception_4d/output_0_split -> inception_4d/output_inception_4d/output_0_split_0
I0403 18:49:13.664216 17746 net.cpp:399] inception_4d/output_inception_4d/output_0_split -> inception_4d/output_inception_4d/output_0_split_1
I0403 18:49:13.664234 17746 net.cpp:399] inception_4d/output_inception_4d/output_0_split -> inception_4d/output_inception_4d/output_0_split_2
I0403 18:49:13.664258 17746 net.cpp:399] inception_4d/output_inception_4d/output_0_split -> inception_4d/output_inception_4d/output_0_split_3
I0403 18:49:13.664278 17746 net.cpp:399] inception_4d/output_inception_4d/output_0_split -> inception_4d/output_inception_4d/output_0_split_4
I0403 18:49:13.664376 17746 net.cpp:141] Setting up inception_4d/output_inception_4d/output_0_split
I0403 18:49:13.664410 17746 net.cpp:148] Top shape: 24 528 14 14 (2483712)
I0403 18:49:13.664427 17746 net.cpp:148] Top shape: 24 528 14 14 (2483712)
I0403 18:49:13.664440 17746 net.cpp:148] Top shape: 24 528 14 14 (2483712)
I0403 18:49:13.664455 17746 net.cpp:148] Top shape: 24 528 14 14 (2483712)
I0403 18:49:13.664470 17746 net.cpp:148] Top shape: 24 528 14 14 (2483712)
I0403 18:49:13.664484 17746 net.cpp:156] Memory required for data: 1206918432
I0403 18:49:13.664497 17746 layer_factory.hpp:77] Creating layer loss2/ave_pool
I0403 18:49:13.664513 17746 net.cpp:91] Creating Layer loss2/ave_pool
I0403 18:49:13.664530 17746 net.cpp:425] loss2/ave_pool <- inception_4d/output_inception_4d/output_0_split_0
I0403 18:49:13.664549 17746 net.cpp:399] loss2/ave_pool -> loss2/ave_pool
I0403 18:49:13.664860 17746 net.cpp:141] Setting up loss2/ave_pool
I0403 18:49:13.664885 17746 net.cpp:148] Top shape: 24 528 4 4 (202752)
I0403 18:49:13.664899 17746 net.cpp:156] Memory required for data: 1207729440
I0403 18:49:13.664913 17746 layer_factory.hpp:77] Creating layer loss2/conv
I0403 18:49:13.664935 17746 net.cpp:91] Creating Layer loss2/conv
I0403 18:49:13.664963 17746 net.cpp:425] loss2/conv <- loss2/ave_pool
I0403 18:49:13.664986 17746 net.cpp:399] loss2/conv -> loss2/conv
I0403 18:49:13.666894 17746 net.cpp:141] Setting up loss2/conv
I0403 18:49:13.666924 17746 net.cpp:148] Top shape: 24 128 4 4 (49152)
I0403 18:49:13.666941 17746 net.cpp:156] Memory required for data: 1207926048
I0403 18:49:13.666965 17746 layer_factory.hpp:77] Creating layer loss2/relu_conv
I0403 18:49:13.666982 17746 net.cpp:91] Creating Layer loss2/relu_conv
I0403 18:49:13.666998 17746 net.cpp:425] loss2/relu_conv <- loss2/conv
I0403 18:49:13.667017 17746 net.cpp:386] loss2/relu_conv -> loss2/conv (in-place)
I0403 18:49:13.667294 17746 net.cpp:141] Setting up loss2/relu_conv
I0403 18:49:13.667322 17746 net.cpp:148] Top shape: 24 128 4 4 (49152)
I0403 18:49:13.667337 17746 net.cpp:156] Memory required for data: 1208122656
I0403 18:49:13.667352 17746 layer_factory.hpp:77] Creating layer loss2/fc
I0403 18:49:13.667371 17746 net.cpp:91] Creating Layer loss2/fc
I0403 18:49:13.667387 17746 net.cpp:425] loss2/fc <- loss2/conv
I0403 18:49:13.667408 17746 net.cpp:399] loss2/fc -> loss2/fc
I0403 18:49:13.684692 17746 net.cpp:141] Setting up loss2/fc
I0403 18:49:13.684725 17746 net.cpp:148] Top shape: 24 1024 (24576)
I0403 18:49:13.684739 17746 net.cpp:156] Memory required for data: 1208220960
I0403 18:49:13.684756 17746 layer_factory.hpp:77] Creating layer loss2/relu_fc
I0403 18:49:13.684777 17746 net.cpp:91] Creating Layer loss2/relu_fc
I0403 18:49:13.684792 17746 net.cpp:425] loss2/relu_fc <- loss2/fc
I0403 18:49:13.684809 17746 net.cpp:386] loss2/relu_fc -> loss2/fc (in-place)
I0403 18:49:13.685101 17746 net.cpp:141] Setting up loss2/relu_fc
I0403 18:49:13.685127 17746 net.cpp:148] Top shape: 24 1024 (24576)
I0403 18:49:13.685142 17746 net.cpp:156] Memory required for data: 1208319264
I0403 18:49:13.685156 17746 layer_factory.hpp:77] Creating layer loss2/drop_fc
I0403 18:49:13.685175 17746 net.cpp:91] Creating Layer loss2/drop_fc
I0403 18:49:13.685192 17746 net.cpp:425] loss2/drop_fc <- loss2/fc
I0403 18:49:13.685210 17746 net.cpp:386] loss2/drop_fc -> loss2/fc (in-place)
I0403 18:49:13.685259 17746 net.cpp:141] Setting up loss2/drop_fc
I0403 18:49:13.685281 17746 net.cpp:148] Top shape: 24 1024 (24576)
I0403 18:49:13.685295 17746 net.cpp:156] Memory required for data: 1208417568
I0403 18:49:13.685309 17746 layer_factory.hpp:77] Creating layer loss2/classifier_plantvillage
I0403 18:49:13.685328 17746 net.cpp:91] Creating Layer loss2/classifier_plantvillage
I0403 18:49:13.685343 17746 net.cpp:425] loss2/classifier_plantvillage <- loss2/fc
I0403 18:49:13.685364 17746 net.cpp:399] loss2/classifier_plantvillage -> loss2/classifier_plantvillage
I0403 18:49:13.685751 17746 net.cpp:141] Setting up loss2/classifier_plantvillage
I0403 18:49:13.685775 17746 net.cpp:148] Top shape: 24 38 (912)
I0403 18:49:13.685804 17746 net.cpp:156] Memory required for data: 1208421216
I0403 18:49:13.685823 17746 layer_factory.hpp:77] Creating layer loss2/classifier_plantvillage_loss2/classifier_plantvillage_0_split
I0403 18:49:13.685840 17746 net.cpp:91] Creating Layer loss2/classifier_plantvillage_loss2/classifier_plantvillage_0_split
I0403 18:49:13.685855 17746 net.cpp:425] loss2/classifier_plantvillage_loss2/classifier_plantvillage_0_split <- loss2/classifier_plantvillage
I0403 18:49:13.685875 17746 net.cpp:399] loss2/classifier_plantvillage_loss2/classifier_plantvillage_0_split -> loss2/classifier_plantvillage_loss2/classifier_plantvillage_0_split_0
I0403 18:49:13.685896 17746 net.cpp:399] loss2/classifier_plantvillage_loss2/classifier_plantvillage_0_split -> loss2/classifier_plantvillage_loss2/classifier_plantvillage_0_split_1
I0403 18:49:13.685915 17746 net.cpp:399] loss2/classifier_plantvillage_loss2/classifier_plantvillage_0_split -> loss2/classifier_plantvillage_loss2/classifier_plantvillage_0_split_2
I0403 18:49:13.685993 17746 net.cpp:141] Setting up loss2/classifier_plantvillage_loss2/classifier_plantvillage_0_split
I0403 18:49:13.686017 17746 net.cpp:148] Top shape: 24 38 (912)
I0403 18:49:13.686031 17746 net.cpp:148] Top shape: 24 38 (912)
I0403 18:49:13.686046 17746 net.cpp:148] Top shape: 24 38 (912)
I0403 18:49:13.686059 17746 net.cpp:156] Memory required for data: 1208432160
I0403 18:49:13.686074 17746 layer_factory.hpp:77] Creating layer inception_4e/1x1
I0403 18:49:13.686094 17746 net.cpp:91] Creating Layer inception_4e/1x1
I0403 18:49:13.686112 17746 net.cpp:425] inception_4e/1x1 <- inception_4d/output_inception_4d/output_0_split_1
I0403 18:49:13.686131 17746 net.cpp:399] inception_4e/1x1 -> inception_4e/1x1
I0403 18:49:13.687896 17746 net.cpp:141] Setting up inception_4e/1x1
I0403 18:49:13.687925 17746 net.cpp:148] Top shape: 24 256 14 14 (1204224)
I0403 18:49:13.687942 17746 net.cpp:156] Memory required for data: 1213249056
I0403 18:49:13.687963 17746 layer_factory.hpp:77] Creating layer inception_4e/relu_1x1
I0403 18:49:13.687981 17746 net.cpp:91] Creating Layer inception_4e/relu_1x1
I0403 18:49:13.687996 17746 net.cpp:425] inception_4e/relu_1x1 <- inception_4e/1x1
I0403 18:49:13.688015 17746 net.cpp:386] inception_4e/relu_1x1 -> inception_4e/1x1 (in-place)
I0403 18:49:13.688303 17746 net.cpp:141] Setting up inception_4e/relu_1x1
I0403 18:49:13.688330 17746 net.cpp:148] Top shape: 24 256 14 14 (1204224)
I0403 18:49:13.688345 17746 net.cpp:156] Memory required for data: 1218065952
I0403 18:49:13.688359 17746 layer_factory.hpp:77] Creating layer inception_4e/3x3_reduce
I0403 18:49:13.688381 17746 net.cpp:91] Creating Layer inception_4e/3x3_reduce
I0403 18:49:13.688400 17746 net.cpp:425] inception_4e/3x3_reduce <- inception_4d/output_inception_4d/output_0_split_2
I0403 18:49:13.688418 17746 net.cpp:399] inception_4e/3x3_reduce -> inception_4e/3x3_reduce
I0403 18:49:13.690493 17746 net.cpp:141] Setting up inception_4e/3x3_reduce
I0403 18:49:13.690521 17746 net.cpp:148] Top shape: 24 160 14 14 (752640)
I0403 18:49:13.690536 17746 net.cpp:156] Memory required for data: 1221076512
I0403 18:49:13.690553 17746 layer_factory.hpp:77] Creating layer inception_4e/relu_3x3_reduce
I0403 18:49:13.690573 17746 net.cpp:91] Creating Layer inception_4e/relu_3x3_reduce
I0403 18:49:13.690590 17746 net.cpp:425] inception_4e/relu_3x3_reduce <- inception_4e/3x3_reduce
I0403 18:49:13.690608 17746 net.cpp:386] inception_4e/relu_3x3_reduce -> inception_4e/3x3_reduce (in-place)
I0403 18:49:13.690790 17746 net.cpp:141] Setting up inception_4e/relu_3x3_reduce
I0403 18:49:13.690815 17746 net.cpp:148] Top shape: 24 160 14 14 (752640)
I0403 18:49:13.690829 17746 net.cpp:156] Memory required for data: 1224087072
I0403 18:49:13.690842 17746 layer_factory.hpp:77] Creating layer inception_4e/3x3
I0403 18:49:13.690863 17746 net.cpp:91] Creating Layer inception_4e/3x3
I0403 18:49:13.690881 17746 net.cpp:425] inception_4e/3x3 <- inception_4e/3x3_reduce
I0403 18:49:13.690903 17746 net.cpp:399] inception_4e/3x3 -> inception_4e/3x3
I0403 18:49:13.695912 17746 net.cpp:141] Setting up inception_4e/3x3
I0403 18:49:13.695958 17746 net.cpp:148] Top shape: 24 320 14 14 (1505280)
I0403 18:49:13.695976 17746 net.cpp:156] Memory required for data: 1230108192
I0403 18:49:13.695994 17746 layer_factory.hpp:77] Creating layer inception_4e/relu_3x3
I0403 18:49:13.696012 17746 net.cpp:91] Creating Layer inception_4e/relu_3x3
I0403 18:49:13.696029 17746 net.cpp:425] inception_4e/relu_3x3 <- inception_4e/3x3
I0403 18:49:13.696048 17746 net.cpp:386] inception_4e/relu_3x3 -> inception_4e/3x3 (in-place)
I0403 18:49:13.696357 17746 net.cpp:141] Setting up inception_4e/relu_3x3
I0403 18:49:13.696383 17746 net.cpp:148] Top shape: 24 320 14 14 (1505280)
I0403 18:49:13.696398 17746 net.cpp:156] Memory required for data: 1236129312
I0403 18:49:13.696413 17746 layer_factory.hpp:77] Creating layer inception_4e/5x5_reduce
I0403 18:49:13.696437 17746 net.cpp:91] Creating Layer inception_4e/5x5_reduce
I0403 18:49:13.696455 17746 net.cpp:425] inception_4e/5x5_reduce <- inception_4d/output_inception_4d/output_0_split_3
I0403 18:49:13.696476 17746 net.cpp:399] inception_4e/5x5_reduce -> inception_4e/5x5_reduce
I0403 18:49:13.697551 17746 net.cpp:141] Setting up inception_4e/5x5_reduce
I0403 18:49:13.697582 17746 net.cpp:148] Top shape: 24 32 14 14 (150528)
I0403 18:49:13.697597 17746 net.cpp:156] Memory required for data: 1236731424
I0403 18:49:13.697616 17746 layer_factory.hpp:77] Creating layer inception_4e/relu_5x5_reduce
I0403 18:49:13.697634 17746 net.cpp:91] Creating Layer inception_4e/relu_5x5_reduce
I0403 18:49:13.697650 17746 net.cpp:425] inception_4e/relu_5x5_reduce <- inception_4e/5x5_reduce
I0403 18:49:13.697667 17746 net.cpp:386] inception_4e/relu_5x5_reduce -> inception_4e/5x5_reduce (in-place)
I0403 18:49:13.697984 17746 net.cpp:141] Setting up inception_4e/relu_5x5_reduce
I0403 18:49:13.698012 17746 net.cpp:148] Top shape: 24 32 14 14 (150528)
I0403 18:49:13.698029 17746 net.cpp:156] Memory required for data: 1237333536
I0403 18:49:13.698043 17746 layer_factory.hpp:77] Creating layer inception_4e/5x5
I0403 18:49:13.698082 17746 net.cpp:91] Creating Layer inception_4e/5x5
I0403 18:49:13.698101 17746 net.cpp:425] inception_4e/5x5 <- inception_4e/5x5_reduce
I0403 18:49:13.698120 17746 net.cpp:399] inception_4e/5x5 -> inception_4e/5x5
I0403 18:49:13.699982 17746 net.cpp:141] Setting up inception_4e/5x5
I0403 18:49:13.700011 17746 net.cpp:148] Top shape: 24 128 14 14 (602112)
I0403 18:49:13.700026 17746 net.cpp:156] Memory required for data: 1239741984
I0403 18:49:13.700045 17746 layer_factory.hpp:77] Creating layer inception_4e/relu_5x5
I0403 18:49:13.700067 17746 net.cpp:91] Creating Layer inception_4e/relu_5x5
I0403 18:49:13.700083 17746 net.cpp:425] inception_4e/relu_5x5 <- inception_4e/5x5
I0403 18:49:13.700100 17746 net.cpp:386] inception_4e/relu_5x5 -> inception_4e/5x5 (in-place)
I0403 18:49:13.700299 17746 net.cpp:141] Setting up inception_4e/relu_5x5
I0403 18:49:13.700325 17746 net.cpp:148] Top shape: 24 128 14 14 (602112)
I0403 18:49:13.700341 17746 net.cpp:156] Memory required for data: 1242150432
I0403 18:49:13.700356 17746 layer_factory.hpp:77] Creating layer inception_4e/pool
I0403 18:49:13.700374 17746 net.cpp:91] Creating Layer inception_4e/pool
I0403 18:49:13.700389 17746 net.cpp:425] inception_4e/pool <- inception_4d/output_inception_4d/output_0_split_4
I0403 18:49:13.700409 17746 net.cpp:399] inception_4e/pool -> inception_4e/pool
I0403 18:49:13.700479 17746 net.cpp:141] Setting up inception_4e/pool
I0403 18:49:13.700503 17746 net.cpp:148] Top shape: 24 528 14 14 (2483712)
I0403 18:49:13.700518 17746 net.cpp:156] Memory required for data: 1252085280
I0403 18:49:13.700532 17746 layer_factory.hpp:77] Creating layer inception_4e/pool_proj
I0403 18:49:13.700554 17746 net.cpp:91] Creating Layer inception_4e/pool_proj
I0403 18:49:13.700572 17746 net.cpp:425] inception_4e/pool_proj <- inception_4e/pool
I0403 18:49:13.700592 17746 net.cpp:399] inception_4e/pool_proj -> inception_4e/pool_proj
I0403 18:49:13.702122 17746 net.cpp:141] Setting up inception_4e/pool_proj
I0403 18:49:13.702162 17746 net.cpp:148] Top shape: 24 128 14 14 (602112)
I0403 18:49:13.702179 17746 net.cpp:156] Memory required for data: 1254493728
I0403 18:49:13.702198 17746 layer_factory.hpp:77] Creating layer inception_4e/relu_pool_proj
I0403 18:49:13.702219 17746 net.cpp:91] Creating Layer inception_4e/relu_pool_proj
I0403 18:49:13.702237 17746 net.cpp:425] inception_4e/relu_pool_proj <- inception_4e/pool_proj
I0403 18:49:13.702267 17746 net.cpp:386] inception_4e/relu_pool_proj -> inception_4e/pool_proj (in-place)
I0403 18:49:13.702563 17746 net.cpp:141] Setting up inception_4e/relu_pool_proj
I0403 18:49:13.702589 17746 net.cpp:148] Top shape: 24 128 14 14 (602112)
I0403 18:49:13.702603 17746 net.cpp:156] Memory required for data: 1256902176
I0403 18:49:13.702618 17746 layer_factory.hpp:77] Creating layer inception_4e/output
I0403 18:49:13.702637 17746 net.cpp:91] Creating Layer inception_4e/output
I0403 18:49:13.702654 17746 net.cpp:425] inception_4e/output <- inception_4e/1x1
I0403 18:49:13.702672 17746 net.cpp:425] inception_4e/output <- inception_4e/3x3
I0403 18:49:13.702687 17746 net.cpp:425] inception_4e/output <- inception_4e/5x5
I0403 18:49:13.702702 17746 net.cpp:425] inception_4e/output <- inception_4e/pool_proj
I0403 18:49:13.702719 17746 net.cpp:399] inception_4e/output -> inception_4e/output
I0403 18:49:13.702767 17746 net.cpp:141] Setting up inception_4e/output
I0403 18:49:13.702792 17746 net.cpp:148] Top shape: 24 832 14 14 (3913728)
I0403 18:49:13.702808 17746 net.cpp:156] Memory required for data: 1272557088
I0403 18:49:13.702823 17746 layer_factory.hpp:77] Creating layer pool4/3x3_s2
I0403 18:49:13.702841 17746 net.cpp:91] Creating Layer pool4/3x3_s2
I0403 18:49:13.702857 17746 net.cpp:425] pool4/3x3_s2 <- inception_4e/output
I0403 18:49:13.702877 17746 net.cpp:399] pool4/3x3_s2 -> pool4/3x3_s2
I0403 18:49:13.702944 17746 net.cpp:141] Setting up pool4/3x3_s2
I0403 18:49:13.702973 17746 net.cpp:148] Top shape: 24 832 7 7 (978432)
I0403 18:49:13.702989 17746 net.cpp:156] Memory required for data: 1276470816
I0403 18:49:13.703004 17746 layer_factory.hpp:77] Creating layer pool4/3x3_s2_pool4/3x3_s2_0_split
I0403 18:49:13.703022 17746 net.cpp:91] Creating Layer pool4/3x3_s2_pool4/3x3_s2_0_split
I0403 18:49:13.703037 17746 net.cpp:425] pool4/3x3_s2_pool4/3x3_s2_0_split <- pool4/3x3_s2
I0403 18:49:13.703055 17746 net.cpp:399] pool4/3x3_s2_pool4/3x3_s2_0_split -> pool4/3x3_s2_pool4/3x3_s2_0_split_0
I0403 18:49:13.703075 17746 net.cpp:399] pool4/3x3_s2_pool4/3x3_s2_0_split -> pool4/3x3_s2_pool4/3x3_s2_0_split_1
I0403 18:49:13.703097 17746 net.cpp:399] pool4/3x3_s2_pool4/3x3_s2_0_split -> pool4/3x3_s2_pool4/3x3_s2_0_split_2
I0403 18:49:13.703119 17746 net.cpp:399] pool4/3x3_s2_pool4/3x3_s2_0_split -> pool4/3x3_s2_pool4/3x3_s2_0_split_3
I0403 18:49:13.703209 17746 net.cpp:141] Setting up pool4/3x3_s2_pool4/3x3_s2_0_split
I0403 18:49:13.703233 17746 net.cpp:148] Top shape: 24 832 7 7 (978432)
I0403 18:49:13.703248 17746 net.cpp:148] Top shape: 24 832 7 7 (978432)
I0403 18:49:13.703263 17746 net.cpp:148] Top shape: 24 832 7 7 (978432)
I0403 18:49:13.703279 17746 net.cpp:148] Top shape: 24 832 7 7 (978432)
I0403 18:49:13.703294 17746 net.cpp:156] Memory required for data: 1292125728
I0403 18:49:13.703307 17746 layer_factory.hpp:77] Creating layer inception_5a/1x1
I0403 18:49:13.703328 17746 net.cpp:91] Creating Layer inception_5a/1x1
I0403 18:49:13.703346 17746 net.cpp:425] inception_5a/1x1 <- pool4/3x3_s2_pool4/3x3_s2_0_split_0
I0403 18:49:13.703367 17746 net.cpp:399] inception_5a/1x1 -> inception_5a/1x1
I0403 18:49:13.706271 17746 net.cpp:141] Setting up inception_5a/1x1
I0403 18:49:13.706301 17746 net.cpp:148] Top shape: 24 256 7 7 (301056)
I0403 18:49:13.706316 17746 net.cpp:156] Memory required for data: 1293329952
I0403 18:49:13.706334 17746 layer_factory.hpp:77] Creating layer inception_5a/relu_1x1
I0403 18:49:13.706356 17746 net.cpp:91] Creating Layer inception_5a/relu_1x1
I0403 18:49:13.706372 17746 net.cpp:425] inception_5a/relu_1x1 <- inception_5a/1x1
I0403 18:49:13.706388 17746 net.cpp:386] inception_5a/relu_1x1 -> inception_5a/1x1 (in-place)
I0403 18:49:13.706707 17746 net.cpp:141] Setting up inception_5a/relu_1x1
I0403 18:49:13.706733 17746 net.cpp:148] Top shape: 24 256 7 7 (301056)
I0403 18:49:13.706748 17746 net.cpp:156] Memory required for data: 1294534176
I0403 18:49:13.706763 17746 layer_factory.hpp:77] Creating layer inception_5a/3x3_reduce
I0403 18:49:13.706787 17746 net.cpp:91] Creating Layer inception_5a/3x3_reduce
I0403 18:49:13.706805 17746 net.cpp:425] inception_5a/3x3_reduce <- pool4/3x3_s2_pool4/3x3_s2_0_split_1
I0403 18:49:13.706825 17746 net.cpp:399] inception_5a/3x3_reduce -> inception_5a/3x3_reduce
I0403 18:49:13.709331 17746 net.cpp:141] Setting up inception_5a/3x3_reduce
I0403 18:49:13.709360 17746 net.cpp:148] Top shape: 24 160 7 7 (188160)
I0403 18:49:13.709377 17746 net.cpp:156] Memory required for data: 1295286816
I0403 18:49:13.709395 17746 layer_factory.hpp:77] Creating layer inception_5a/relu_3x3_reduce
I0403 18:49:13.709415 17746 net.cpp:91] Creating Layer inception_5a/relu_3x3_reduce
I0403 18:49:13.709432 17746 net.cpp:425] inception_5a/relu_3x3_reduce <- inception_5a/3x3_reduce
I0403 18:49:13.709450 17746 net.cpp:386] inception_5a/relu_3x3_reduce -> inception_5a/3x3_reduce (in-place)
I0403 18:49:13.709645 17746 net.cpp:141] Setting up inception_5a/relu_3x3_reduce
I0403 18:49:13.709671 17746 net.cpp:148] Top shape: 24 160 7 7 (188160)
I0403 18:49:13.709683 17746 net.cpp:156] Memory required for data: 1296039456
I0403 18:49:13.709698 17746 layer_factory.hpp:77] Creating layer inception_5a/3x3
I0403 18:49:13.709727 17746 net.cpp:91] Creating Layer inception_5a/3x3
I0403 18:49:13.709743 17746 net.cpp:425] inception_5a/3x3 <- inception_5a/3x3_reduce
I0403 18:49:13.709765 17746 net.cpp:399] inception_5a/3x3 -> inception_5a/3x3
I0403 18:49:13.714656 17746 net.cpp:141] Setting up inception_5a/3x3
I0403 18:49:13.714685 17746 net.cpp:148] Top shape: 24 320 7 7 (376320)
I0403 18:49:13.714700 17746 net.cpp:156] Memory required for data: 1297544736
I0403 18:49:13.714718 17746 layer_factory.hpp:77] Creating layer inception_5a/relu_3x3
I0403 18:49:13.714738 17746 net.cpp:91] Creating Layer inception_5a/relu_3x3
I0403 18:49:13.714756 17746 net.cpp:425] inception_5a/relu_3x3 <- inception_5a/3x3
I0403 18:49:13.714772 17746 net.cpp:386] inception_5a/relu_3x3 -> inception_5a/3x3 (in-place)
I0403 18:49:13.715065 17746 net.cpp:141] Setting up inception_5a/relu_3x3
I0403 18:49:13.715091 17746 net.cpp:148] Top shape: 24 320 7 7 (376320)
I0403 18:49:13.715106 17746 net.cpp:156] Memory required for data: 1299050016
I0403 18:49:13.715119 17746 layer_factory.hpp:77] Creating layer inception_5a/5x5_reduce
I0403 18:49:13.715142 17746 net.cpp:91] Creating Layer inception_5a/5x5_reduce
I0403 18:49:13.715158 17746 net.cpp:425] inception_5a/5x5_reduce <- pool4/3x3_s2_pool4/3x3_s2_0_split_2
I0403 18:49:13.715179 17746 net.cpp:399] inception_5a/5x5_reduce -> inception_5a/5x5_reduce
I0403 18:49:13.716327 17746 net.cpp:141] Setting up inception_5a/5x5_reduce
I0403 18:49:13.716356 17746 net.cpp:148] Top shape: 24 32 7 7 (37632)
I0403 18:49:13.716372 17746 net.cpp:156] Memory required for data: 1299200544
I0403 18:49:13.716392 17746 layer_factory.hpp:77] Creating layer inception_5a/relu_5x5_reduce
I0403 18:49:13.716408 17746 net.cpp:91] Creating Layer inception_5a/relu_5x5_reduce
I0403 18:49:13.716424 17746 net.cpp:425] inception_5a/relu_5x5_reduce <- inception_5a/5x5_reduce
I0403 18:49:13.716441 17746 net.cpp:386] inception_5a/relu_5x5_reduce -> inception_5a/5x5_reduce (in-place)
I0403 18:49:13.716740 17746 net.cpp:141] Setting up inception_5a/relu_5x5_reduce
I0403 18:49:13.716768 17746 net.cpp:148] Top shape: 24 32 7 7 (37632)
I0403 18:49:13.716783 17746 net.cpp:156] Memory required for data: 1299351072
I0403 18:49:13.716797 17746 layer_factory.hpp:77] Creating layer inception_5a/5x5
I0403 18:49:13.716819 17746 net.cpp:91] Creating Layer inception_5a/5x5
I0403 18:49:13.716835 17746 net.cpp:425] inception_5a/5x5 <- inception_5a/5x5_reduce
I0403 18:49:13.716855 17746 net.cpp:399] inception_5a/5x5 -> inception_5a/5x5
I0403 18:49:13.718535 17746 net.cpp:141] Setting up inception_5a/5x5
I0403 18:49:13.718574 17746 net.cpp:148] Top shape: 24 128 7 7 (150528)
I0403 18:49:13.718590 17746 net.cpp:156] Memory required for data: 1299953184
I0403 18:49:13.718607 17746 layer_factory.hpp:77] Creating layer inception_5a/relu_5x5
I0403 18:49:13.718627 17746 net.cpp:91] Creating Layer inception_5a/relu_5x5
I0403 18:49:13.718644 17746 net.cpp:425] inception_5a/relu_5x5 <- inception_5a/5x5
I0403 18:49:13.718660 17746 net.cpp:386] inception_5a/relu_5x5 -> inception_5a/5x5 (in-place)
I0403 18:49:13.718847 17746 net.cpp:141] Setting up inception_5a/relu_5x5
I0403 18:49:13.718874 17746 net.cpp:148] Top shape: 24 128 7 7 (150528)
I0403 18:49:13.718889 17746 net.cpp:156] Memory required for data: 1300555296
I0403 18:49:13.718904 17746 layer_factory.hpp:77] Creating layer inception_5a/pool
I0403 18:49:13.718920 17746 net.cpp:91] Creating Layer inception_5a/pool
I0403 18:49:13.718935 17746 net.cpp:425] inception_5a/pool <- pool4/3x3_s2_pool4/3x3_s2_0_split_3
I0403 18:49:13.718966 17746 net.cpp:399] inception_5a/pool -> inception_5a/pool
I0403 18:49:13.719038 17746 net.cpp:141] Setting up inception_5a/pool
I0403 18:49:13.719060 17746 net.cpp:148] Top shape: 24 832 7 7 (978432)
I0403 18:49:13.719074 17746 net.cpp:156] Memory required for data: 1304469024
I0403 18:49:13.719089 17746 layer_factory.hpp:77] Creating layer inception_5a/pool_proj
I0403 18:49:13.719110 17746 net.cpp:91] Creating Layer inception_5a/pool_proj
I0403 18:49:13.719127 17746 net.cpp:425] inception_5a/pool_proj <- inception_5a/pool
I0403 18:49:13.719147 17746 net.cpp:399] inception_5a/pool_proj -> inception_5a/pool_proj
I0403 18:49:13.721375 17746 net.cpp:141] Setting up inception_5a/pool_proj
I0403 18:49:13.721403 17746 net.cpp:148] Top shape: 24 128 7 7 (150528)
I0403 18:49:13.721420 17746 net.cpp:156] Memory required for data: 1305071136
I0403 18:49:13.721437 17746 layer_factory.hpp:77] Creating layer inception_5a/relu_pool_proj
I0403 18:49:13.721457 17746 net.cpp:91] Creating Layer inception_5a/relu_pool_proj
I0403 18:49:13.721474 17746 net.cpp:425] inception_5a/relu_pool_proj <- inception_5a/pool_proj
I0403 18:49:13.721492 17746 net.cpp:386] inception_5a/relu_pool_proj -> inception_5a/pool_proj (in-place)
I0403 18:49:13.721781 17746 net.cpp:141] Setting up inception_5a/relu_pool_proj
I0403 18:49:13.721807 17746 net.cpp:148] Top shape: 24 128 7 7 (150528)
I0403 18:49:13.721820 17746 net.cpp:156] Memory required for data: 1305673248
I0403 18:49:13.721834 17746 layer_factory.hpp:77] Creating layer inception_5a/output
I0403 18:49:13.721851 17746 net.cpp:91] Creating Layer inception_5a/output
I0403 18:49:13.721866 17746 net.cpp:425] inception_5a/output <- inception_5a/1x1
I0403 18:49:13.721884 17746 net.cpp:425] inception_5a/output <- inception_5a/3x3
I0403 18:49:13.721899 17746 net.cpp:425] inception_5a/output <- inception_5a/5x5
I0403 18:49:13.721915 17746 net.cpp:425] inception_5a/output <- inception_5a/pool_proj
I0403 18:49:13.721933 17746 net.cpp:399] inception_5a/output -> inception_5a/output
I0403 18:49:13.721989 17746 net.cpp:141] Setting up inception_5a/output
I0403 18:49:13.722012 17746 net.cpp:148] Top shape: 24 832 7 7 (978432)
I0403 18:49:13.722026 17746 net.cpp:156] Memory required for data: 1309586976
I0403 18:49:13.722040 17746 layer_factory.hpp:77] Creating layer inception_5a/output_inception_5a/output_0_split
I0403 18:49:13.722057 17746 net.cpp:91] Creating Layer inception_5a/output_inception_5a/output_0_split
I0403 18:49:13.722072 17746 net.cpp:425] inception_5a/output_inception_5a/output_0_split <- inception_5a/output
I0403 18:49:13.722091 17746 net.cpp:399] inception_5a/output_inception_5a/output_0_split -> inception_5a/output_inception_5a/output_0_split_0
I0403 18:49:13.722112 17746 net.cpp:399] inception_5a/output_inception_5a/output_0_split -> inception_5a/output_inception_5a/output_0_split_1
I0403 18:49:13.722132 17746 net.cpp:399] inception_5a/output_inception_5a/output_0_split -> inception_5a/output_inception_5a/output_0_split_2
I0403 18:49:13.722151 17746 net.cpp:399] inception_5a/output_inception_5a/output_0_split -> inception_5a/output_inception_5a/output_0_split_3
I0403 18:49:13.722260 17746 net.cpp:141] Setting up inception_5a/output_inception_5a/output_0_split
I0403 18:49:13.722285 17746 net.cpp:148] Top shape: 24 832 7 7 (978432)
I0403 18:49:13.722302 17746 net.cpp:148] Top shape: 24 832 7 7 (978432)
I0403 18:49:13.722317 17746 net.cpp:148] Top shape: 24 832 7 7 (978432)
I0403 18:49:13.722333 17746 net.cpp:148] Top shape: 24 832 7 7 (978432)
I0403 18:49:13.722347 17746 net.cpp:156] Memory required for data: 1325241888
I0403 18:49:13.722360 17746 layer_factory.hpp:77] Creating layer inception_5b/1x1
I0403 18:49:13.722381 17746 net.cpp:91] Creating Layer inception_5b/1x1
I0403 18:49:13.722398 17746 net.cpp:425] inception_5b/1x1 <- inception_5a/output_inception_5a/output_0_split_0
I0403 18:49:13.722417 17746 net.cpp:399] inception_5b/1x1 -> inception_5b/1x1
I0403 18:49:13.726099 17746 net.cpp:141] Setting up inception_5b/1x1
I0403 18:49:13.726130 17746 net.cpp:148] Top shape: 24 384 7 7 (451584)
I0403 18:49:13.726145 17746 net.cpp:156] Memory required for data: 1327048224
I0403 18:49:13.726162 17746 layer_factory.hpp:77] Creating layer inception_5b/relu_1x1
I0403 18:49:13.726182 17746 net.cpp:91] Creating Layer inception_5b/relu_1x1
I0403 18:49:13.726198 17746 net.cpp:425] inception_5b/relu_1x1 <- inception_5b/1x1
I0403 18:49:13.726217 17746 net.cpp:386] inception_5b/relu_1x1 -> inception_5b/1x1 (in-place)
I0403 18:49:13.726518 17746 net.cpp:141] Setting up inception_5b/relu_1x1
I0403 18:49:13.726543 17746 net.cpp:148] Top shape: 24 384 7 7 (451584)
I0403 18:49:13.726558 17746 net.cpp:156] Memory required for data: 1328854560
I0403 18:49:13.726573 17746 layer_factory.hpp:77] Creating layer inception_5b/3x3_reduce
I0403 18:49:13.726594 17746 net.cpp:91] Creating Layer inception_5b/3x3_reduce
I0403 18:49:13.726613 17746 net.cpp:425] inception_5b/3x3_reduce <- inception_5a/output_inception_5a/output_0_split_1
I0403 18:49:13.726634 17746 net.cpp:399] inception_5b/3x3_reduce -> inception_5b/3x3_reduce
I0403 18:49:13.729269 17746 net.cpp:141] Setting up inception_5b/3x3_reduce
I0403 18:49:13.729297 17746 net.cpp:148] Top shape: 24 192 7 7 (225792)
I0403 18:49:13.729312 17746 net.cpp:156] Memory required for data: 1329757728
I0403 18:49:13.729329 17746 layer_factory.hpp:77] Creating layer inception_5b/relu_3x3_reduce
I0403 18:49:13.729349 17746 net.cpp:91] Creating Layer inception_5b/relu_3x3_reduce
I0403 18:49:13.729367 17746 net.cpp:425] inception_5b/relu_3x3_reduce <- inception_5b/3x3_reduce
I0403 18:49:13.729383 17746 net.cpp:386] inception_5b/relu_3x3_reduce -> inception_5b/3x3_reduce (in-place)
I0403 18:49:13.729569 17746 net.cpp:141] Setting up inception_5b/relu_3x3_reduce
I0403 18:49:13.729595 17746 net.cpp:148] Top shape: 24 192 7 7 (225792)
I0403 18:49:13.729610 17746 net.cpp:156] Memory required for data: 1330660896
I0403 18:49:13.729625 17746 layer_factory.hpp:77] Creating layer inception_5b/3x3
I0403 18:49:13.729645 17746 net.cpp:91] Creating Layer inception_5b/3x3
I0403 18:49:13.729660 17746 net.cpp:425] inception_5b/3x3 <- inception_5b/3x3_reduce
I0403 18:49:13.729681 17746 net.cpp:399] inception_5b/3x3 -> inception_5b/3x3
I0403 18:49:13.736205 17746 net.cpp:141] Setting up inception_5b/3x3
I0403 18:49:13.736232 17746 net.cpp:148] Top shape: 24 384 7 7 (451584)
I0403 18:49:13.736248 17746 net.cpp:156] Memory required for data: 1332467232
I0403 18:49:13.736265 17746 layer_factory.hpp:77] Creating layer inception_5b/relu_3x3
I0403 18:49:13.736285 17746 net.cpp:91] Creating Layer inception_5b/relu_3x3
I0403 18:49:13.736302 17746 net.cpp:425] inception_5b/relu_3x3 <- inception_5b/3x3
I0403 18:49:13.736320 17746 net.cpp:386] inception_5b/relu_3x3 -> inception_5b/3x3 (in-place)
I0403 18:49:13.736613 17746 net.cpp:141] Setting up inception_5b/relu_3x3
I0403 18:49:13.736639 17746 net.cpp:148] Top shape: 24 384 7 7 (451584)
I0403 18:49:13.736654 17746 net.cpp:156] Memory required for data: 1334273568
I0403 18:49:13.736668 17746 layer_factory.hpp:77] Creating layer inception_5b/5x5_reduce
I0403 18:49:13.736706 17746 net.cpp:91] Creating Layer inception_5b/5x5_reduce
I0403 18:49:13.736724 17746 net.cpp:425] inception_5b/5x5_reduce <- inception_5a/output_inception_5a/output_0_split_2
I0403 18:49:13.736747 17746 net.cpp:399] inception_5b/5x5_reduce -> inception_5b/5x5_reduce
I0403 18:49:13.737992 17746 net.cpp:141] Setting up inception_5b/5x5_reduce
I0403 18:49:13.738018 17746 net.cpp:148] Top shape: 24 48 7 7 (56448)
I0403 18:49:13.738034 17746 net.cpp:156] Memory required for data: 1334499360
I0403 18:49:13.738050 17746 layer_factory.hpp:77] Creating layer inception_5b/relu_5x5_reduce
I0403 18:49:13.738070 17746 net.cpp:91] Creating Layer inception_5b/relu_5x5_reduce
I0403 18:49:13.738087 17746 net.cpp:425] inception_5b/relu_5x5_reduce <- inception_5b/5x5_reduce
I0403 18:49:13.738106 17746 net.cpp:386] inception_5b/relu_5x5_reduce -> inception_5b/5x5_reduce (in-place)
I0403 18:49:13.738476 17746 net.cpp:141] Setting up inception_5b/relu_5x5_reduce
I0403 18:49:13.738502 17746 net.cpp:148] Top shape: 24 48 7 7 (56448)
I0403 18:49:13.738517 17746 net.cpp:156] Memory required for data: 1334725152
I0403 18:49:13.738531 17746 layer_factory.hpp:77] Creating layer inception_5b/5x5
I0403 18:49:13.738551 17746 net.cpp:91] Creating Layer inception_5b/5x5
I0403 18:49:13.738567 17746 net.cpp:425] inception_5b/5x5 <- inception_5b/5x5_reduce
I0403 18:49:13.738585 17746 net.cpp:399] inception_5b/5x5 -> inception_5b/5x5
I0403 18:49:13.740603 17746 net.cpp:141] Setting up inception_5b/5x5
I0403 18:49:13.740630 17746 net.cpp:148] Top shape: 24 128 7 7 (150528)
I0403 18:49:13.740645 17746 net.cpp:156] Memory required for data: 1335327264
I0403 18:49:13.740664 17746 layer_factory.hpp:77] Creating layer inception_5b/relu_5x5
I0403 18:49:13.740684 17746 net.cpp:91] Creating Layer inception_5b/relu_5x5
I0403 18:49:13.740700 17746 net.cpp:425] inception_5b/relu_5x5 <- inception_5b/5x5
I0403 18:49:13.740717 17746 net.cpp:386] inception_5b/relu_5x5 -> inception_5b/5x5 (in-place)
I0403 18:49:13.740908 17746 net.cpp:141] Setting up inception_5b/relu_5x5
I0403 18:49:13.740933 17746 net.cpp:148] Top shape: 24 128 7 7 (150528)
I0403 18:49:13.740952 17746 net.cpp:156] Memory required for data: 1335929376
I0403 18:49:13.740967 17746 layer_factory.hpp:77] Creating layer inception_5b/pool
I0403 18:49:13.740984 17746 net.cpp:91] Creating Layer inception_5b/pool
I0403 18:49:13.741000 17746 net.cpp:425] inception_5b/pool <- inception_5a/output_inception_5a/output_0_split_3
I0403 18:49:13.741020 17746 net.cpp:399] inception_5b/pool -> inception_5b/pool
I0403 18:49:13.741091 17746 net.cpp:141] Setting up inception_5b/pool
I0403 18:49:13.741113 17746 net.cpp:148] Top shape: 24 832 7 7 (978432)
I0403 18:49:13.741127 17746 net.cpp:156] Memory required for data: 1339843104
I0403 18:49:13.741140 17746 layer_factory.hpp:77] Creating layer inception_5b/pool_proj
I0403 18:49:13.741163 17746 net.cpp:91] Creating Layer inception_5b/pool_proj
I0403 18:49:13.741179 17746 net.cpp:425] inception_5b/pool_proj <- inception_5b/pool
I0403 18:49:13.741196 17746 net.cpp:399] inception_5b/pool_proj -> inception_5b/pool_proj
I0403 18:49:13.743461 17746 net.cpp:141] Setting up inception_5b/pool_proj
I0403 18:49:13.743490 17746 net.cpp:148] Top shape: 24 128 7 7 (150528)
I0403 18:49:13.743505 17746 net.cpp:156] Memory required for data: 1340445216
I0403 18:49:13.743523 17746 layer_factory.hpp:77] Creating layer inception_5b/relu_pool_proj
I0403 18:49:13.743543 17746 net.cpp:91] Creating Layer inception_5b/relu_pool_proj
I0403 18:49:13.743561 17746 net.cpp:425] inception_5b/relu_pool_proj <- inception_5b/pool_proj
I0403 18:49:13.743577 17746 net.cpp:386] inception_5b/relu_pool_proj -> inception_5b/pool_proj (in-place)
I0403 18:49:13.743875 17746 net.cpp:141] Setting up inception_5b/relu_pool_proj
I0403 18:49:13.743899 17746 net.cpp:148] Top shape: 24 128 7 7 (150528)
I0403 18:49:13.743914 17746 net.cpp:156] Memory required for data: 1341047328
I0403 18:49:13.743928 17746 layer_factory.hpp:77] Creating layer inception_5b/output
I0403 18:49:13.743952 17746 net.cpp:91] Creating Layer inception_5b/output
I0403 18:49:13.743981 17746 net.cpp:425] inception_5b/output <- inception_5b/1x1
I0403 18:49:13.743999 17746 net.cpp:425] inception_5b/output <- inception_5b/3x3
I0403 18:49:13.744015 17746 net.cpp:425] inception_5b/output <- inception_5b/5x5
I0403 18:49:13.744031 17746 net.cpp:425] inception_5b/output <- inception_5b/pool_proj
I0403 18:49:13.744048 17746 net.cpp:399] inception_5b/output -> inception_5b/output
I0403 18:49:13.744099 17746 net.cpp:141] Setting up inception_5b/output
I0403 18:49:13.744122 17746 net.cpp:148] Top shape: 24 1024 7 7 (1204224)
I0403 18:49:13.744137 17746 net.cpp:156] Memory required for data: 1345864224
I0403 18:49:13.744151 17746 layer_factory.hpp:77] Creating layer pool5/7x7_s1
I0403 18:49:13.744168 17746 net.cpp:91] Creating Layer pool5/7x7_s1
I0403 18:49:13.744184 17746 net.cpp:425] pool5/7x7_s1 <- inception_5b/output
I0403 18:49:13.744204 17746 net.cpp:399] pool5/7x7_s1 -> pool5/7x7_s1
I0403 18:49:13.744415 17746 net.cpp:141] Setting up pool5/7x7_s1
I0403 18:49:13.744439 17746 net.cpp:148] Top shape: 24 1024 1 1 (24576)
I0403 18:49:13.744457 17746 net.cpp:156] Memory required for data: 1345962528
I0403 18:49:13.744470 17746 layer_factory.hpp:77] Creating layer pool5/drop_7x7_s1
I0403 18:49:13.744488 17746 net.cpp:91] Creating Layer pool5/drop_7x7_s1
I0403 18:49:13.744503 17746 net.cpp:425] pool5/drop_7x7_s1 <- pool5/7x7_s1
I0403 18:49:13.744520 17746 net.cpp:386] pool5/drop_7x7_s1 -> pool5/7x7_s1 (in-place)
I0403 18:49:13.744570 17746 net.cpp:141] Setting up pool5/drop_7x7_s1
I0403 18:49:13.744592 17746 net.cpp:148] Top shape: 24 1024 1 1 (24576)
I0403 18:49:13.744606 17746 net.cpp:156] Memory required for data: 1346060832
I0403 18:49:13.744621 17746 layer_factory.hpp:77] Creating layer loss3/classifier_plantvillage
I0403 18:49:13.744642 17746 net.cpp:91] Creating Layer loss3/classifier_plantvillage
I0403 18:49:13.744657 17746 net.cpp:425] loss3/classifier_plantvillage <- pool5/7x7_s1
I0403 18:49:13.744675 17746 net.cpp:399] loss3/classifier_plantvillage -> loss3/classifier_plantvillage
I0403 18:49:13.745118 17746 net.cpp:141] Setting up loss3/classifier_plantvillage
I0403 18:49:13.745143 17746 net.cpp:148] Top shape: 24 38 (912)
I0403 18:49:13.745157 17746 net.cpp:156] Memory required for data: 1346064480
I0403 18:49:13.745175 17746 layer_factory.hpp:77] Creating layer loss3/classifier_plantvillage_loss3/classifier_plantvillage_0_split
I0403 18:49:13.745193 17746 net.cpp:91] Creating Layer loss3/classifier_plantvillage_loss3/classifier_plantvillage_0_split
I0403 18:49:13.745209 17746 net.cpp:425] loss3/classifier_plantvillage_loss3/classifier_plantvillage_0_split <- loss3/classifier_plantvillage
I0403 18:49:13.745230 17746 net.cpp:399] loss3/classifier_plantvillage_loss3/classifier_plantvillage_0_split -> loss3/classifier_plantvillage_loss3/classifier_plantvillage_0_split_0
I0403 18:49:13.745251 17746 net.cpp:399] loss3/classifier_plantvillage_loss3/classifier_plantvillage_0_split -> loss3/classifier_plantvillage_loss3/classifier_plantvillage_0_split_1
I0403 18:49:13.745272 17746 net.cpp:399] loss3/classifier_plantvillage_loss3/classifier_plantvillage_0_split -> loss3/classifier_plantvillage_loss3/classifier_plantvillage_0_split_2
I0403 18:49:13.745301 17746 net.cpp:399] loss3/classifier_plantvillage_loss3/classifier_plantvillage_0_split -> loss3/classifier_plantvillage_loss3/classifier_plantvillage_0_split_3
I0403 18:49:13.745404 17746 net.cpp:141] Setting up loss3/classifier_plantvillage_loss3/classifier_plantvillage_0_split
I0403 18:49:13.745429 17746 net.cpp:148] Top shape: 24 38 (912)
I0403 18:49:13.745445 17746 net.cpp:148] Top shape: 24 38 (912)
I0403 18:49:13.745460 17746 net.cpp:148] Top shape: 24 38 (912)
I0403 18:49:13.745476 17746 net.cpp:148] Top shape: 24 38 (912)
I0403 18:49:13.745489 17746 net.cpp:156] Memory required for data: 1346079072
I0403 18:49:13.745503 17746 layer_factory.hpp:77] Creating layer loss1/loss
I0403 18:49:13.745525 17746 net.cpp:91] Creating Layer loss1/loss
I0403 18:49:13.745543 17746 net.cpp:425] loss1/loss <- loss1/classifier_plantvillage_loss1/classifier_plantvillage_0_split_0
I0403 18:49:13.745573 17746 net.cpp:425] loss1/loss <- label_data_1_split_0
…
