…
I0403 19:24:12.256511 19747 net.cpp:313] The NetState phase (1) differed from the phase (0) specified by a rule in layer data
I0403 19:24:12.257694 19747 net.cpp:49] Initializing net from parameters: 
state {
  phase: TEST
}
layer {
  name: "data"
  type: "Data"
  top: "data"
  top: "label"
  include {
    phase: TEST
  }
  transform_param {
    mirror: false
    crop_size: 224
    mean_file: "/home/mohanty/data/final_dataset/lmdb/segmented-60-40/mean.binaryproto"
  }
  data_param {
    source: "/home/mohanty/data/final_dataset/lmdb/segmented-60-40/test_db"
    batch_size: 24
    backend: LMDB
  }
}
layer {
  name: "conv1/7x7_s2"
  type: "Convolution"
  bottom: "data"
  top: "conv1/7x7_s2"
  param {
    lr_mult: 1
    decay_mult: 1
  }
  param {
    lr_mult: 2
    decay_mult: 0
  }
  convolution_param {
    num_output: 64
    pad: 3
    kernel_size: 7
    stride: 2
    weight_filler {
      type: "xavier"
      std: 0.1
    }
    bias_filler {
      type: "constant"
      value: 0.2
    }
  }
}
layer {
  name: "conv1/relu_7x7"
  type: "ReLU"
  bottom: "conv1/7x7_s2"
  top: "conv1/7x7_s2"
}
layer {
  name: "pool1/3x3_s2"
  type: "Pooling"
  bottom: "conv1/7x7_s2"
  top: "pool1/3x3_s2"
  pooling_param {
    pool: MAX
    kernel_size: 3
    stride: 2
  }
}
layer {
  name: "pool1/norm1"
  type: "LRN"
  bottom: "pool1/3x3_s2"
  top: "pool1/norm1"
  lrn_param {
    local_size: 5
    alpha: 0.0001
    beta: 0.75
  }
}
layer {
  name: "conv2/3x3_reduce"
  type: "Convolution"
  bottom: "pool1/norm1"
  top: "conv2/3x3_reduce"
  param {
    lr_mult: 1
    decay_mult: 1
  }
  param {
    lr_mult: 2
    decay_mult: 0
  }
  convolution_param {
    num_output: 64
    kernel_size: 1
    weight_filler {
      type: "xavier"
      std: 0.1
    }
    bias_filler {
      type: "constant"
      value: 0.2
    }
  }
}
layer {
  name: "conv2/relu_3x3_reduce"
  type: "ReLU"
  bottom: "conv2/3x3_reduce"
  top: "conv2/3x3_reduce"
}
layer {
  name: "conv2/3x3"
  type: "Convolution"
  bottom: "conv2/3x3_reduce"
  top: "conv2/3x3"
  param {
    lr_mult: 1
    decay_mult: 1
  }
  param {
    lr_mult: 2
    decay_mult: 0
  }
  convolution_param {
    num_output: 192
    pad: 1
    kernel_size: 3
    weight_filler {
      type: "xavier"
      std: 0.03
    }
    bias_filler {
      type: "constant"
      value: 0.2
    }
  }
}
layer {
  name: "conv2/relu_3x3"
  type: "ReLU"
  bottom: "conv2/3x3"
  top: "conv2/3x3"
}
layer {
  name: "conv2/norm2"
  type: "LRN"
  bottom: "conv2/3x3"
  top: "conv2/norm2"
  lrn_param {
    local_size: 5
    alpha: 0.0001
    beta: 0.75
  }
}
layer {
  name: "pool2/3x3_s2"
  type: "Pooling"
  bottom: "conv2/norm2"
  top: "pool2/3x3_s2"
  pooling_param {
    pool: MAX
    kernel_size: 3
    stride: 2
  }
}
layer {
  name: "inception_3a/1x1"
  type: "Convolution"
  bottom: "pool2/3x3_s2"
  top: "inception_3a/1x1"
  param {
    lr_mult: 1
    decay_mult: 1
  }
  param {
    lr_mult: 2
    decay_mult: 0
  }
  convolution_param {
    num_output: 64
    kernel_size: 1
    weight_filler {
      type: "xavier"
      std: 0.03
    }
    bias_filler {
      type: "constant"
      value: 0.2
    }
  }
}
layer {
  name: "inception_3a/relu_1x1"
  type: "ReLU"
  bottom: "inception_3a/1x1"
  top: "inception_3a/1x1"
}
layer {
  name: "inception_3a/3x3_reduce"
  type: "Convolution"
  bottom: "pool2/3x3_s2"
  top: "inception_3a/3x3_reduce"
  param {
    lr_mult: 1
    decay_mult: 1
  }
  param {
    lr_mult: 2
    decay_mult: 0
  }
  convolution_param {
    num_output: 96
    kernel_size: 1
    weight_filler {
      type: "xavier"
      std: 0.09
    }
    bias_filler {
      type: "constant"
      value: 0.2
    }
  }
}
layer {
  name: "inception_3a/relu_3x3_reduce"
  type: "ReLU"
  bottom: "inception_3a/3x3_reduce"
  top: "inception_3a/3x3_reduce"
}
layer {
  name: "inception_3a/3x3"
  type: "Convolution"
  bottom: "inception_3a/3x3_reduce"
  top: "inception_3a/3x3"
  param {
    lr_mult: 1
    decay_mult: 1
  }
  param {
    lr_mult: 2
    decay_mult: 0
  }
  convolution_param {
    num_output: 128
    pad: 1
    kernel_size: 3
    weight_filler {
      type: "xavier"
      std: 0.03
    }
    bias_filler {
      type: "constant"
      value: 0.2
    }
  }
}
layer {
  name: "inception_3a/relu_3x3"
  type: "ReLU"
  bottom: "inception_3a/3x3"
  top: "inception_3a/3x3"
}
layer {
  name: "inception_3a/5x5_reduce"
  type: "Convolution"
  bottom: "pool2/3x3_s2"
  top: "inception_3a/5x5_reduce"
  param {
    lr_mult: 1
    decay_mult: 1
  }
  param {
    lr_mult: 2
    decay_mult: 0
  }
  convolution_param {
    num_output: 16
    kernel_size: 1
    weight_filler {
      type: "xavier"
      std: 0.2
    }
    bias_filler {
      type: "constant"
      value: 0.2
    }
  }
}
layer {
  name: "inception_3a/relu_5x5_reduce"
  type: "ReLU"
  bottom: "inception_3a/5x5_reduce"
  top: "inception_3a/5x5_reduce"
}
layer {
  name: "inception_3a/5x5"
  type: "Convolution"
  bottom: "inception_3a/5x5_reduce"
  top: "inception_3a/5x5"
  param {
    lr_mult: 1
    decay_mult: 1
  }
  param {
    lr_mult: 2
    decay_mult: 0
  }
  convolution_param {
    num_output: 32
    pad: 2
    kernel_size: 5
    weight_filler {
      type: "xavier"
      std: 0.03
    }
    bias_filler {
      type: "constant"
      value: 0.2
    }
  }
}
layer {
  name: "inception_3a/relu_5x5"
  type: "ReLU"
  bottom: "inception_3a/5x5"
  top: "inception_3a/5x5"
}
layer {
  name: "inception_3a/pool"
  type: "Pooling"
  bottom: "pool2/3x3_s2"
  top: "inception_3a/pool"
  pooling_param {
    pool: MAX
    kernel_size: 3
    stride: 1
    pad: 1
  }
}
layer {
  name: "inception_3a/pool_proj"
  type: "Convolution"
  bottom: "inception_3a/pool"
  top: "inception_3a/pool_proj"
  param {
    lr_mult: 1
    decay_mult: 1
  }
  param {
    lr_mult: 2
    decay_mult: 0
  }
  convolution_param {
    num_output: 32
    kernel_size: 1
    weight_filler {
      type: "xavier"
      std: 0.1
    }
    bias_filler {
      type: "constant"
      value: 0.2
    }
  }
}
layer {
  name: "inception_3a/relu_pool_proj"
  type: "ReLU"
  bottom: "inception_3a/pool_proj"
  top: "inception_3a/pool_proj"
}
layer {
  name: "inception_3a/output"
  type: "Concat"
  bottom: "inception_3a/1x1"
  bottom: "inception_3a/3x3"
  bottom: "inception_3a/5x5"
  bottom: "inception_3a/pool_proj"
  top: "inception_3a/output"
}
layer {
  name: "inception_3b/1x1"
  type: "Convolution"
  bottom: "inception_3a/output"
  top: "inception_3b/1x1"
  param {
    lr_mult: 1
    decay_mult: 1
  }
  param {
    lr_mult: 2
    decay_mult: 0
  }
  convolution_param {
    num_output: 128
    kernel_size: 1
    weight_filler {
      type: "xavier"
      std: 0.03
    }
    bias_filler {
      type: "constant"
      value: 0.2
    }
  }
}
layer {
  name: "inception_3b/relu_1x1"
  type: "ReLU"
  bottom: "inception_3b/1x1"
  top: "inception_3b/1x1"
}
layer {
  name: "inception_3b/3x3_reduce"
  type: "Convolution"
  bottom: "inception_3a/output"
  top: "inception_3b/3x3_reduce"
  param {
    lr_mult: 1
    decay_mult: 1
  }
  param {
    lr_mult: 2
    decay_mult: 0
  }
  convolution_param {
    num_output: 128
    kernel_size: 1
    weight_filler {
      type: "xavier"
      std: 0.09
    }
    bias_filler {
      type: "constant"
      value: 0.2
    }
  }
}
layer {
  name: "inception_3b/relu_3x3_reduce"
  type: "ReLU"
  bottom: "inception_3b/3x3_reduce"
  top: "inception_3b/3x3_reduce"
}
layer {
  name: "inception_3b/3x3"
  type: "Convolution"
  bottom: "inception_3b/3x3_reduce"
  top: "inception_3b/3x3"
  param {
    lr_mult: 1
    decay_mult: 1
  }
  param {
    lr_mult: 2
    decay_mult: 0
  }
  convolution_param {
    num_output: 192
    pad: 1
    kernel_size: 3
    weight_filler {
      type: "xavier"
      std: 0.03
    }
    bias_filler {
      type: "constant"
      value: 0.2
    }
  }
}
layer {
  name: "inception_3b/relu_3x3"
  type: "ReLU"
  bottom: "inception_3b/3x3"
  top: "inception_3b/3x3"
}
layer {
  name: "inception_3b/5x5_reduce"
  type: "Convolution"
  bottom: "inception_3a/output"
  top: "inception_3b/5x5_reduce"
  param {
    lr_mult: 1
    decay_mult: 1
  }
  param {
    lr_mult: 2
    decay_mult: 0
  }
  convolution_param {
    num_output: 32
    kernel_size: 1
    weight_filler {
      type: "xavier"
      std: 0.2
    }
    bias_filler {
      type: "constant"
      value: 0.2
    }
  }
}
layer {
  name: "inception_3b/relu_5x5_reduce"
  type: "ReLU"
  bottom: "inception_3b/5x5_reduce"
  top: "inception_3b/5x5_reduce"
}
layer {
  name: "inception_3b/5x5"
  type: "Convolution"
  bottom: "inception_3b/5x5_reduce"
  top: "inception_3b/5x5"
  param {
    lr_mult: 1
    decay_mult: 1
  }
  param {
    lr_mult: 2
    decay_mult: 0
  }
  convolution_param {
    num_output: 96
    pad: 2
    kernel_size: 5
    weight_filler {
      type: "xavier"
      std: 0.03
    }
    bias_filler {
      type: "constant"
      value: 0.2
    }
  }
}
layer {
  name: "inception_3b/relu_5x5"
  type: "ReLU"
  bottom: "inception_3b/5x5"
  top: "inception_3b/5x5"
}
layer {
  name: "inception_3b/pool"
  type: "Pooling"
  bottom: "inception_3a/output"
  top: "inception_3b/pool"
  pooling_param {
    pool: MAX
    kernel_size: 3
    stride: 1
    pad: 1
  }
}
layer {
  name: "inception_3b/pool_proj"
  type: "Convolution"
  bottom: "inception_3b/pool"
  top: "inception_3b/pool_proj"
  param {
    lr_mult: 1
    decay_mult: 1
  }
  param {
    lr_mult: 2
    decay_mult: 0
  }
  convolution_param {
    num_output: 64
    kernel_size: 1
    weight_filler {
      type: "xavier"
      std: 0.1
    }
    bias_filler {
      type: "constant"
      value: 0.2
    }
  }
}
layer {
  name: "inception_3b/relu_pool_proj"
  type: "ReLU"
  bottom: "inception_3b/pool_proj"
  top: "inception_3b/pool_proj"
}
layer {
  name: "inception_3b/output"
  type: "Concat"
  bottom: "inception_3b/1x1"
  bottom: "inception_3b/3x3"
  bottom: "inception_3b/5x5"
  bottom: "inception_3b/pool_proj"
  top: "inception_3b/output"
}
layer {
  name: "pool3/3x3_s2"
  type: "Pooling"
  bottom: "inception_3b/output"
  top: "pool3/3x3_s2"
  pooling_param {
    pool: MAX
    kernel_size: 3
    stride: 2
  }
}
layer {
  name: "inception_4a/1x1"
  type: "Convolution"
  bottom: "pool3/3x3_s2"
  top: "inception_4a/1x1"
  param {
    lr_mult: 1
    decay_mult: 1
  }
  param {
    lr_mult: 2
    decay_mult: 0
  }
  convolution_param {
    num_output: 192
    kernel_size: 1
    weight_filler {
      type: "xavier"
      std: 0.03
    }
    bias_filler {
      type: "constant"
      value: 0.2
    }
  }
}
layer {
  name: "inception_4a/relu_1x1"
  type: "ReLU"
  bottom: "inception_4a/1x1"
  top: "inception_4a/1x1"
}
layer {
  name: "inception_4a/3x3_reduce"
  type: "Convolution"
  bottom: "pool3/3x3_s2"
  top: "inception_4a/3x3_reduce"
  param {
    lr_mult: 1
    decay_mult: 1
  }
  param {
    lr_mult: 2
    decay_mult: 0
  }
  convolution_param {
    num_output: 96
    kernel_size: 1
    weight_filler {
      type: "xavier"
      std: 0.09
    }
    bias_filler {
      type: "constant"
      value: 0.2
    }
  }
}
layer {
  name: "inception_4a/relu_3x3_reduce"
  type: "ReLU"
  bottom: "inception_4a/3x3_reduce"
  top: "inception_4a/3x3_reduce"
}
layer {
  name: "inception_4a/3x3"
  type: "Convolution"
  bottom: "inception_4a/3x3_reduce"
  top: "inception_4a/3x3"
  param {
    lr_mult: 1
    decay_mult: 1
  }
  param {
    lr_mult: 2
    decay_mult: 0
  }
  convolution_param {
    num_output: 208
    pad: 1
    kernel_size: 3
    weight_filler {
      type: "xavier"
      std: 0.03
    }
    bias_filler {
      type: "constant"
      value: 0.2
    }
  }
}
layer {
  name: "inception_4a/relu_3x3"
  type: "ReLU"
  bottom: "inception_4a/3x3"
  top: "inception_4a/3x3"
}
layer {
  name: "inception_4a/5x5_reduce"
  type: "Convolution"
  bottom: "pool3/3x3_s2"
  top: "inception_4a/5x5_reduce"
  param {
    lr_mult: 1
    decay_mult: 1
  }
  param {
    lr_mult: 2
    decay_mult: 0
  }
  convolution_param {
    num_output: 16
    kernel_size: 1
    weight_filler {
      type: "xavier"
      std: 0.2
    }
    bias_filler {
      type: "constant"
      value: 0.2
    }
  }
}
layer {
  name: "inception_4a/relu_5x5_reduce"
  type: "ReLU"
  bottom: "inception_4a/5x5_reduce"
  top: "inception_4a/5x5_reduce"
}
layer {
  name: "inception_4a/5x5"
  type: "Convolution"
  bottom: "inception_4a/5x5_reduce"
  top: "inception_4a/5x5"
  param {
    lr_mult: 1
    decay_mult: 1
  }
  param {
    lr_mult: 2
    decay_mult: 0
  }
  convolution_param {
    num_output: 48
    pad: 2
    kernel_size: 5
    weight_filler {
      type: "xavier"
      std: 0.03
    }
    bias_filler {
      type: "constant"
      value: 0.2
    }
  }
}
layer {
  name: "inception_4a/relu_5x5"
  type: "ReLU"
  bottom: "inception_4a/5x5"
  top: "inception_4a/5x5"
}
layer {
  name: "inception_4a/pool"
  type: "Pooling"
  bottom: "pool3/3x3_s2"
  top: "inception_4a/pool"
  pooling_param {
    pool: MAX
    kernel_size: 3
    stride: 1
    pad: 1
  }
}
layer {
  name: "inception_4a/pool_proj"
  type: "Convolution"
  bottom: "inception_4a/pool"
  top: "inception_4a/pool_proj"
  param {
    lr_mult: 1
    decay_mult: 1
  }
  param {
    lr_mult: 2
    decay_mult: 0
  }
  convolution_param {
    num_output: 64
    kernel_size: 1
    weight_filler {
      type: "xavier"
      std: 0.1
    }
    bias_filler {
      type: "constant"
      value: 0.2
    }
  }
}
layer {
  name: "inception_4a/relu_pool_proj"
  type: "ReLU"
  bottom: "inception_4a/pool_proj"
  top: "inception_4a/pool_proj"
}
layer {
  name: "inception_4a/output"
  type: "Concat"
  bottom: "inception_4a/1x1"
  bottom: "inception_4a/3x3"
  bottom: "inception_4a/5x5"
  bottom: "inception_4a/pool_proj"
  top: "inception_4a/output"
}
layer {
  name: "loss1/ave_pool"
  type: "Pooling"
  bottom: "inception_4a/output"
  top: "loss1/ave_pool"
  pooling_param {
    pool: AVE
    kernel_size: 5
    stride: 3
  }
}
layer {
  name: "loss1/conv"
  type: "Convolution"
  bottom: "loss1/ave_pool"
  top: "loss1/conv"
  param {
    lr_mult: 1
    decay_mult: 1
  }
  param {
    lr_mult: 2
    decay_mult: 0
  }
  convolution_param {
    num_output: 128
    kernel_size: 1
    weight_filler {
      type: "xavier"
      std: 0.08
    }
    bias_filler {
      type: "constant"
      value: 0.2
    }
  }
}
layer {
  name: "loss1/relu_conv"
  type: "ReLU"
  bottom: "loss1/conv"
  top: "loss1/conv"
}
layer {
  name: "loss1/fc"
  type: "InnerProduct"
  bottom: "loss1/conv"
  top: "loss1/fc"
  param {
    lr_mult: 1
    decay_mult: 1
  }
  param {
    lr_mult: 2
    decay_mult: 0
  }
  inner_product_param {
    num_output: 1024
    weight_filler {
      type: "xavier"
      std: 0.02
    }
    bias_filler {
      type: "constant"
      value: 0.2
    }
  }
}
layer {
  name: "loss1/relu_fc"
  type: "ReLU"
  bottom: "loss1/fc"
  top: "loss1/fc"
}
layer {
  name: "loss1/drop_fc"
  type: "Dropout"
  bottom: "loss1/fc"
  top: "loss1/fc"
  dropout_param {
    dropout_ratio: 0.7
  }
}
layer {
  name: "loss1/classifier_plantvillage"
  type: "InnerProduct"
  bottom: "loss1/fc"
  top: "loss1/classifier_plantvillage"
  param {
    lr_mult: 1
    decay_mult: 1
  }
  param {
    lr_mult: 2
    decay_mult: 0
  }
  inner_product_param {
    num_output: 38
    weight_filler {
      type: "xavier"
      std: 0.0009765625
    }
    bias_filler {
      type: "constant"
      value: 0
    }
  }
}
layer {
  name: "inception_4b/1x1"
  type: "Convolution"
  bottom: "inception_4a/output"
  top: "inception_4b/1x1"
  param {
    lr_mult: 1
    decay_mult: 1
  }
  param {
    lr_mult: 2
    decay_mult: 0
  }
  convolution_param {
    num_output: 160
    kernel_size: 1
    weight_filler {
      type: "xavier"
      std: 0.03
    }
    bias_filler {
      type: "constant"
      value: 0.2
    }
  }
}
layer {
  name: "inception_4b/relu_1x1"
  type: "ReLU"
  bottom: "inception_4b/1x1"
  top: "inception_4b/1x1"
}
layer {
  name: "inception_4b/3x3_reduce"
  type: "Convolution"
  bottom: "inception_4a/output"
  top: "inception_4b/3x3_reduce"
  param {
    lr_mult: 1
    decay_mult: 1
  }
  param {
    lr_mult: 2
    decay_mult: 0
  }
  convolution_param {
    num_output: 112
    kernel_size: 1
    weight_filler {
      type: "xavier"
      std: 0.09
    }
    bias_filler {
      type: "constant"
      value: 0.2
    }
  }
}
layer {
  name: "inception_4b/relu_3x3_reduce"
  type: "ReLU"
  bottom: "inception_4b/3x3_reduce"
  top: "inception_4b/3x3_reduce"
}
layer {
  name: "inception_4b/3x3"
  type: "Convolution"
  bottom: "inception_4b/3x3_reduce"
  top: "inception_4b/3x3"
  param {
    lr_mult: 1
    decay_mult: 1
  }
  param {
    lr_mult: 2
    decay_mult: 0
  }
  convolution_param {
    num_output: 224
    pad: 1
    kernel_size: 3
    weight_filler {
      type: "xavier"
      std: 0.03
    }
    bias_filler {
      type: "constant"
      value: 0.2
    }
  }
}
layer {
  name: "inception_4b/relu_3x3"
  type: "ReLU"
  bottom: "inception_4b/3x3"
  top: "inception_4b/3x3"
}
layer {
  name: "inception_4b/5x5_reduce"
  type: "Convolution"
  bottom: "inception_4a/output"
  top: "inception_4b/5x5_reduce"
  param {
    lr_mult: 1
    decay_mult: 1
  }
  param {
    lr_mult: 2
    decay_mult: 0
  }
  convolution_param {
    num_output: 24
    kernel_size: 1
    weight_filler {
      type: "xavier"
      std: 0.2
    }
    bias_filler {
      type: "constant"
      value: 0.2
    }
  }
}
layer {
  name: "inception_4b/relu_5x5_reduce"
  type: "ReLU"
  bottom: "inception_4b/5x5_reduce"
  top: "inception_4b/5x5_reduce"
}
layer {
  name: "inception_4b/5x5"
  type: "Convolution"
  bottom: "inception_4b/5x5_reduce"
  top: "inception_4b/5x5"
  param {
    lr_mult: 1
    decay_mult: 1
  }
  param {
    lr_mult: 2
    decay_mult: 0
  }
  convolution_param {
    num_output: 64
    pad: 2
    kernel_size: 5
    weight_filler {
      type: "xavier"
      std: 0.03
    }
    bias_filler {
      type: "constant"
      value: 0.2
    }
  }
}
layer {
  name: "inception_4b/relu_5x5"
  type: "ReLU"
  bottom: "inception_4b/5x5"
  top: "inception_4b/5x5"
}
layer {
  name: "inception_4b/pool"
  type: "Pooling"
  bottom: "inception_4a/output"
  top: "inception_4b/pool"
  pooling_param {
    pool: MAX
    kernel_size: 3
    stride: 1
    pad: 1
  }
}
layer {
  name: "inception_4b/pool_proj"
  type: "Convolution"
  bottom: "inception_4b/pool"
  top: "inception_4b/pool_proj"
  param {
    lr_mult: 1
    decay_mult: 1
  }
  param {
    lr_mult: 2
    decay_mult: 0
  }
  convolution_param {
    num_output: 64
    kernel_size: 1
    weight_filler {
      type: "xavier"
      std: 0.1
    }
    bias_filler {
      type: "constant"
      value: 0.2
    }
  }
}
layer {
  name: "inception_4b/relu_pool_proj"
  type: "ReLU"
  bottom: "inception_4b/pool_proj"
  top: "inception_4b/pool_proj"
}
layer {
  name: "inception_4b/output"
  type: "Concat"
  bottom: "inception_4b/1x1"
  bottom: "inception_4b/3x3"
  bottom: "inception_4b/5x5"
  bottom: "inception_4b/pool_proj"
  top: "inception_4b/output"
}
layer {
  name: "inception_4c/1x1"
  type: "Convolution"
  bottom: "inception_4b/output"
  top: "inception_4c/1x1"
  param {
    lr_mult: 1
    decay_mult: 1
  }
  param {
    lr_mult: 2
    decay_mult: 0
  }
  convolution_param {
    num_output: 128
    kernel_size: 1
    weight_filler {
      type: "xavier"
      std: 0.03
    }
    bias_filler {
      type: "constant"
      value: 0.2
    }
  }
}
layer {
  name: "inception_4c/relu_1x1"
  type: "ReLU"
  bottom: "inception_4c/1x1"
  top: "inception_4c/1x1"
}
layer {
  name: "inception_4c/3x3_reduce"
  type: "Convolution"
  bottom: "inception_4b/output"
  top: "inception_4c/3x3_reduce"
  param {
    lr_mult: 1
    decay_mult: 1
  }
  param {
    lr_mult: 2
    decay_mult: 0
  }
  convolution_param {
    num_output: 128
    kernel_size: 1
    weight_filler {
      type: "xavier"
      std: 0.09
    }
    bias_filler {
      type: "constant"
      value: 0.2
    }
  }
}
layer {
  name: "inception_4c/relu_3x3_reduce"
  type: "ReLU"
  bottom: "inception_4c/3x3_reduce"
  top: "inception_4c/3x3_reduce"
}
layer {
  name: "inception_4c/3x3"
  type: "Convolution"
  bottom: "inception_4c/3x3_reduce"
  top: "inception_4c/3x3"
  param {
    lr_mult: 1
    decay_mult: 1
  }
  param {
    lr_mult: 2
    decay_mult: 0
  }
  convolution_param {
    num_output: 256
    pad: 1
    kernel_size: 3
    weight_filler {
      type: "xavier"
      std: 0.03
    }
    bias_filler {
      type: "constant"
      value: 0.2
    }
  }
}
layer {
  name: "inception_4c/relu_3x3"
  type: "ReLU"
  bottom: "inception_4c/3x3"
  top: "inception_4c/3x3"
}
layer {
  name: "inception_4c/5x5_reduce"
  type: "Convolution"
  bottom: "inception_4b/output"
  top: "inception_4c/5x5_reduce"
  param {
    lr_mult: 1
    decay_mult: 1
  }
  param {
    lr_mult: 2
    decay_mult: 0
  }
  convolution_param {
    num_output: 24
    kernel_size: 1
    weight_filler {
      type: "xavier"
      std: 0.2
    }
    bias_filler {
      type: "constant"
      value: 0.2
    }
  }
}
layer {
  name: "inception_4c/relu_5x5_reduce"
  type: "ReLU"
  bottom: "inception_4c/5x5_reduce"
  top: "inception_4c/5x5_reduce"
}
layer {
  name: "inception_4c/5x5"
  type: "Convolution"
  bottom: "inception_4c/5x5_reduce"
  top: "inception_4c/5x5"
  param {
    lr_mult: 1
    decay_mult: 1
  }
  param {
    lr_mult: 2
    decay_mult: 0
  }
  convolution_param {
    num_output: 64
    pad: 2
    kernel_size: 5
    weight_filler {
      type: "xavier"
      std: 0.03
    }
    bias_filler {
      type: "constant"
      value: 0.2
    }
  }
}
layer {
  name: "inception_4c/relu_5x5"
  type: "ReLU"
  bottom: "inception_4c/5x5"
  top: "inception_4c/5x5"
}
layer {
  name: "inception_4c/pool"
  type: "Pooling"
  bottom: "inception_4b/output"
  top: "inception_4c/pool"
  pooling_param {
    pool: MAX
    kernel_size: 3
    stride: 1
    pad: 1
  }
}
layer {
  name: "inception_4c/pool_proj"
  type: "Convolution"
  bottom: "inception_4c/pool"
  top: "inception_4c/pool_proj"
  param {
    lr_mult: 1
    decay_mult: 1
  }
  param {
    lr_mult: 2
    decay_mult: 0
  }
  convolution_param {
    num_output: 64
    kernel_size: 1
    weight_filler {
      type: "xavier"
      std: 0.1
    }
    bias_filler {
      type: "constant"
      value: 0.2
    }
  }
}
layer {
  name: "inception_4c/relu_pool_proj"
  type: "ReLU"
  bottom: "inception_4c/pool_proj"
  top: "inception_4c/pool_proj"
}
layer {
  name: "inception_4c/output"
  type: "Concat"
  bottom: "inception_4c/1x1"
  bottom: "inception_4c/3x3"
  bottom: "inception_4c/5x5"
  bottom: "inception_4c/pool_proj"
  top: "inception_4c/output"
}
layer {
  name: "inception_4d/1x1"
  type: "Convolution"
  bottom: "inception_4c/output"
  top: "inception_4d/1x1"
  param {
    lr_mult: 1
    decay_mult: 1
  }
  param {
    lr_mult: 2
    decay_mult: 0
  }
  convolution_param {
    num_output: 112
    kernel_size: 1
    weight_filler {
      type: "xavier"
      std: 0.03
    }
    bias_filler {
      type: "constant"
      value: 0.2
    }
  }
}
layer {
  name: "inception_4d/relu_1x1"
  type: "ReLU"
  bottom: "inception_4d/1x1"
  top: "inception_4d/1x1"
}
layer {
  name: "inception_4d/3x3_reduce"
  type: "Convolution"
  bottom: "inception_4c/output"
  top: "inception_4d/3x3_reduce"
  param {
    lr_mult: 1
    decay_mult: 1
  }
  param {
    lr_mult: 2
    decay_mult: 0
  }
  convolution_param {
    num_output: 144
    kernel_size: 1
    weight_filler {
      type: "xavier"
      std: 0.09
    }
    bias_filler {
      type: "constant"
      value: 0.2
    }
  }
}
layer {
  name: "inception_4d/relu_3x3_reduce"
  type: "ReLU"
  bottom: "inception_4d/3x3_reduce"
  top: "inception_4d/3x3_reduce"
}
layer {
  name: "inception_4d/3x3"
  type: "Convolution"
  bottom: "inception_4d/3x3_reduce"
  top: "inception_4d/3x3"
  param {
    lr_mult: 1
    decay_mult: 1
  }
  param {
    lr_mult: 2
    decay_mult: 0
  }
  convolution_param {
    num_output: 288
    pad: 1
    kernel_size: 3
    weight_filler {
      type: "xavier"
      std: 0.03
    }
    bias_filler {
      type: "constant"
      value: 0.2
    }
  }
}
layer {
  name: "inception_4d/relu_3x3"
  type: "ReLU"
  bottom: "inception_4d/3x3"
  top: "inception_4d/3x3"
}
layer {
  name: "inception_4d/5x5_reduce"
  type: "Convolution"
  bottom: "inception_4c/output"
  top: "inception_4d/5x5_reduce"
  param {
    lr_mult: 1
    decay_mult: 1
  }
  param {
    lr_mult: 2
    decay_mult: 0
  }
  convolution_param {
    num_output: 32
    kernel_size: 1
    weight_filler {
      type: "xavier"
      std: 0.2
    }
    bias_filler {
      type: "constant"
      value: 0.2
    }
  }
}
layer {
  name: "inception_4d/relu_5x5_reduce"
  type: "ReLU"
  bottom: "inception_4d/5x5_reduce"
  top: "inception_4d/5x5_reduce"
}
layer {
  name: "inception_4d/5x5"
  type: "Convolution"
  bottom: "inception_4d/5x5_reduce"
  top: "inception_4d/5x5"
  param {
    lr_mult: 1
    decay_mult: 1
  }
  param {
    lr_mult: 2
    decay_mult: 0
  }
  convolution_param {
    num_output: 64
    pad: 2
    kernel_size: 5
    weight_filler {
      type: "xavier"
      std: 0.03
    }
    bias_filler {
      type: "constant"
      value: 0.2
    }
  }
}
layer {
  name: "inception_4d/relu_5x5"
  type: "ReLU"
  bottom: "inception_4d/5x5"
  top: "inception_4d/5x5"
}
layer {
  name: "inception_4d/pool"
  type: "Pooling"
  bottom: "inception_4c/output"
  top: "inception_4d/pool"
  pooling_param {
    pool: MAX
    kernel_size: 3
    stride: 1
    pad: 1
  }
}
layer {
  name: "inception_4d/pool_proj"
  type: "Convolution"
  bottom: "inception_4d/pool"
  top: "inception_4d/pool_proj"
  param {
    lr_mult: 1
    decay_mult: 1
  }
  param {
    lr_mult: 2
    decay_mult: 0
  }
  convolution_param {
    num_output: 64
    kernel_size: 1
    weight_filler {
      type: "xavier"
      std: 0.1
    }
    bias_filler {
      type: "constant"
      value: 0.2
    }
  }
}
layer {
  name: "inception_4d/relu_pool_proj"
  type: "ReLU"
  bottom: "inception_4d/pool_proj"
  top: "inception_4d/pool_proj"
}
layer {
  name: "inception_4d/output"
  type: "Concat"
  bottom: "inception_4d/1x1"
  bottom: "inception_4d/3x3"
  bottom: "inception_4d/5x5"
  bottom: "inception_4d/pool_proj"
  top: "inception_4d/output"
}
layer {
  name: "loss2/ave_pool"
  type: "Pooling"
  bottom: "inception_4d/output"
  top: "loss2/ave_pool"
  pooling_param {
    pool: AVE
    kernel_size: 5
    stride: 3
  }
}
layer {
  name: "loss2/conv"
  type: "Convolution"
  bottom: "loss2/ave_pool"
  top: "loss2/conv"
  param {
    lr_mult: 1
    decay_mult: 1
  }
  param {
    lr_mult: 2
    decay_mult: 0
  }
  convolution_param {
    num_output: 128
    kernel_size: 1
    weight_filler {
      type: "xavier"
      std: 0.08
    }
    bias_filler {
      type: "constant"
      value: 0.2
    }
  }
}
layer {
  name: "loss2/relu_conv"
  type: "ReLU"
  bottom: "loss2/conv"
  top: "loss2/conv"
}
layer {
  name: "loss2/fc"
  type: "InnerProduct"
  bottom: "loss2/conv"
  top: "loss2/fc"
  param {
    lr_mult: 1
    decay_mult: 1
  }
  param {
    lr_mult: 2
    decay_mult: 0
  }
  inner_product_param {
    num_output: 1024
    weight_filler {
      type: "xavier"
      std: 0.02
    }
    bias_filler {
      type: "constant"
      value: 0.2
    }
  }
}
layer {
  name: "loss2/relu_fc"
  type: "ReLU"
  bottom: "loss2/fc"
  top: "loss2/fc"
}
layer {
  name: "loss2/drop_fc"
  type: "Dropout"
  bottom: "loss2/fc"
  top: "loss2/fc"
  dropout_param {
    dropout_ratio: 0.7
  }
}
layer {
  name: "loss2/classifier_plantvillage"
  type: "InnerProduct"
  bottom: "loss2/fc"
  top: "loss2/classifier_plantvillage"
  param {
    lr_mult: 1
    decay_mult: 1
  }
  param {
    lr_mult: 2
    decay_mult: 0
  }
  inner_product_param {
    num_output: 38
    weight_filler {
      type: "xavier"
      std: 0.0009765625
    }
    bias_filler {
      type: "constant"
      value: 0
    }
  }
}
layer {
  name: "inception_4e/1x1"
  type: "Convolution"
  bottom: "inception_4d/output"
  top: "inception_4e/1x1"
  param {
    lr_mult: 1
    decay_mult: 1
  }
  param {
    lr_mult: 2
    decay_mult: 0
  }
  convolution_param {
    num_output: 256
    kernel_size: 1
    weight_filler {
      type: "xavier"
      std: 0.03
    }
    bias_filler {
      type: "constant"
      value: 0.2
    }
  }
}
layer {
  name: "inception_4e/relu_1x1"
  type: "ReLU"
  bottom: "inception_4e/1x1"
  top: "inception_4e/1x1"
}
layer {
  name: "inception_4e/3x3_reduce"
  type: "Convolution"
  bottom: "inception_4d/output"
  top: "inception_4e/3x3_reduce"
  param {
    lr_mult: 1
    decay_mult: 1
  }
  param {
    lr_mult: 2
    decay_mult: 0
  }
  convolution_param {
    num_output: 160
    kernel_size: 1
    weight_filler {
      type: "xavier"
      std: 0.09
    }
    bias_filler {
      type: "constant"
      value: 0.2
    }
  }
}
layer {
  name: "inception_4e/relu_3x3_reduce"
  type: "ReLU"
  bottom: "inception_4e/3x3_reduce"
  top: "inception_4e/3x3_reduce"
}
layer {
  name: "inception_4e/3x3"
  type: "Convolution"
  bottom: "inception_4e/3x3_reduce"
  top: "inception_4e/3x3"
  param {
    lr_mult: 1
    decay_mult: 1
  }
  param {
    lr_mult: 2
    decay_mult: 0
  }
  convolution_param {
    num_output: 320
    pad: 1
    kernel_size: 3
    weight_filler {
      type: "xavier"
      std: 0.03
    }
    bias_filler {
      type: "constant"
      value: 0.2
    }
  }
}
layer {
  name: "inception_4e/relu_3x3"
  type: "ReLU"
  bottom: "inception_4e/3x3"
  top: "inception_4e/3x3"
}
layer {
  name: "inception_4e/5x5_reduce"
  type: "Convolution"
  bottom: "inception_4d/output"
  top: "inception_4e/5x5_reduce"
  param {
    lr_mult: 1
    decay_mult: 1
  }
  param {
    lr_mult: 2
    decay_mult: 0
  }
  convolution_param {
    num_output: 32
    kernel_size: 1
    weight_filler {
      type: "xavier"
      std: 0.2
    }
    bias_filler {
      type: "constant"
      value: 0.2
    }
  }
}
layer {
  name: "inception_4e/relu_5x5_reduce"
  type: "ReLU"
  bottom: "inception_4e/5x5_reduce"
  top: "inception_4e/5x5_reduce"
}
layer {
  name: "inception_4e/5x5"
  type: "Convolution"
  bottom: "inception_4e/5x5_reduce"
  top: "inception_4e/
I0403 19:24:12.258893 19747 layer_factory.hpp:77] Creating layer data
I0403 19:24:12.259526 19747 net.cpp:91] Creating Layer data
I0403 19:24:12.259557 19747 net.cpp:399] data -> data
I0403 19:24:12.259611 19747 net.cpp:399] data -> label
I0403 19:24:12.259649 19747 data_transformer.cpp:25] Loading mean file from: /home/mohanty/data/final_dataset/lmdb/segmented-60-40/mean.binaryproto
I0403 19:24:12.260785 19752 db_lmdb.cpp:38] Opened lmdb /home/mohanty/data/final_dataset/lmdb/segmented-60-40/test_db
I0403 19:24:12.272677 19747 data_layer.cpp:41] output data size: 24,3,224,224
I0403 19:24:12.300186 19747 net.cpp:141] Setting up data
I0403 19:24:12.300273 19747 net.cpp:148] Top shape: 24 3 224 224 (3612672)
I0403 19:24:12.300298 19747 net.cpp:148] Top shape: 24 (24)
I0403 19:24:12.300314 19747 net.cpp:156] Memory required for data: 14450784
I0403 19:24:12.300341 19747 layer_factory.hpp:77] Creating layer label_data_1_split
I0403 19:24:12.300370 19747 net.cpp:91] Creating Layer label_data_1_split
I0403 19:24:12.300390 19747 net.cpp:425] label_data_1_split <- label
I0403 19:24:12.300420 19747 net.cpp:399] label_data_1_split -> label_data_1_split_0
I0403 19:24:12.300451 19747 net.cpp:399] label_data_1_split -> label_data_1_split_1
I0403 19:24:12.300472 19747 net.cpp:399] label_data_1_split -> label_data_1_split_2
I0403 19:24:12.300496 19747 net.cpp:399] label_data_1_split -> label_data_1_split_3
I0403 19:24:12.300516 19747 net.cpp:399] label_data_1_split -> label_data_1_split_4
I0403 19:24:12.300537 19747 net.cpp:399] label_data_1_split -> label_data_1_split_5
I0403 19:24:12.300557 19747 net.cpp:399] label_data_1_split -> label_data_1_split_6
I0403 19:24:12.300580 19747 net.cpp:399] label_data_1_split -> label_data_1_split_7
I0403 19:24:12.300601 19747 net.cpp:399] label_data_1_split -> label_data_1_split_8
I0403 19:24:12.300621 19747 net.cpp:399] label_data_1_split -> label_data_1_split_9
I0403 19:24:12.300741 19747 net.cpp:141] Setting up label_data_1_split
I0403 19:24:12.300765 19747 net.cpp:148] Top shape: 24 (24)
I0403 19:24:12.300783 19747 net.cpp:148] Top shape: 24 (24)
I0403 19:24:12.300799 19747 net.cpp:148] Top shape: 24 (24)
I0403 19:24:12.300817 19747 net.cpp:148] Top shape: 24 (24)
I0403 19:24:12.300832 19747 net.cpp:148] Top shape: 24 (24)
I0403 19:24:12.300848 19747 net.cpp:148] Top shape: 24 (24)
I0403 19:24:12.300863 19747 net.cpp:148] Top shape: 24 (24)
I0403 19:24:12.300879 19747 net.cpp:148] Top shape: 24 (24)
I0403 19:24:12.300895 19747 net.cpp:148] Top shape: 24 (24)
I0403 19:24:12.300914 19747 net.cpp:148] Top shape: 24 (24)
I0403 19:24:12.300962 19747 net.cpp:156] Memory required for data: 14451744
I0403 19:24:12.300979 19747 layer_factory.hpp:77] Creating layer conv1/7x7_s2
I0403 19:24:12.301012 19747 net.cpp:91] Creating Layer conv1/7x7_s2
I0403 19:24:12.301030 19747 net.cpp:425] conv1/7x7_s2 <- data
I0403 19:24:12.301050 19747 net.cpp:399] conv1/7x7_s2 -> conv1/7x7_s2
I0403 19:24:12.442993 19747 net.cpp:141] Setting up conv1/7x7_s2
I0403 19:24:12.443073 19747 net.cpp:148] Top shape: 24 64 112 112 (19267584)
I0403 19:24:12.443091 19747 net.cpp:156] Memory required for data: 91522080
I0403 19:24:12.443123 19747 layer_factory.hpp:77] Creating layer conv1/relu_7x7
I0403 19:24:12.443152 19747 net.cpp:91] Creating Layer conv1/relu_7x7
I0403 19:24:12.443171 19747 net.cpp:425] conv1/relu_7x7 <- conv1/7x7_s2
I0403 19:24:12.443191 19747 net.cpp:386] conv1/relu_7x7 -> conv1/7x7_s2 (in-place)
I0403 19:24:12.443455 19747 net.cpp:141] Setting up conv1/relu_7x7
I0403 19:24:12.443482 19747 net.cpp:148] Top shape: 24 64 112 112 (19267584)
I0403 19:24:12.443498 19747 net.cpp:156] Memory required for data: 168592416
I0403 19:24:12.443513 19747 layer_factory.hpp:77] Creating layer pool1/3x3_s2
I0403 19:24:12.443538 19747 net.cpp:91] Creating Layer pool1/3x3_s2
I0403 19:24:12.443557 19747 net.cpp:425] pool1/3x3_s2 <- conv1/7x7_s2
I0403 19:24:12.443575 19747 net.cpp:399] pool1/3x3_s2 -> pool1/3x3_s2
I0403 19:24:12.443656 19747 net.cpp:141] Setting up pool1/3x3_s2
I0403 19:24:12.443682 19747 net.cpp:148] Top shape: 24 64 56 56 (4816896)
I0403 19:24:12.443696 19747 net.cpp:156] Memory required for data: 187860000
I0403 19:24:12.443711 19747 layer_factory.hpp:77] Creating layer pool1/norm1
I0403 19:24:12.443737 19747 net.cpp:91] Creating Layer pool1/norm1
I0403 19:24:12.443753 19747 net.cpp:425] pool1/norm1 <- pool1/3x3_s2
I0403 19:24:12.443771 19747 net.cpp:399] pool1/norm1 -> pool1/norm1
I0403 19:24:12.444075 19747 net.cpp:141] Setting up pool1/norm1
I0403 19:24:12.444103 19747 net.cpp:148] Top shape: 24 64 56 56 (4816896)
I0403 19:24:12.444118 19747 net.cpp:156] Memory required for data: 207127584
I0403 19:24:12.444133 19747 layer_factory.hpp:77] Creating layer conv2/3x3_reduce
I0403 19:24:12.444160 19747 net.cpp:91] Creating Layer conv2/3x3_reduce
I0403 19:24:12.444178 19747 net.cpp:425] conv2/3x3_reduce <- pool1/norm1
I0403 19:24:12.444200 19747 net.cpp:399] conv2/3x3_reduce -> conv2/3x3_reduce
I0403 19:24:12.445575 19747 net.cpp:141] Setting up conv2/3x3_reduce
I0403 19:24:12.445603 19747 net.cpp:148] Top shape: 24 64 56 56 (4816896)
I0403 19:24:12.445621 19747 net.cpp:156] Memory required for data: 226395168
I0403 19:24:12.445641 19747 layer_factory.hpp:77] Creating layer conv2/relu_3x3_reduce
I0403 19:24:12.445662 19747 net.cpp:91] Creating Layer conv2/relu_3x3_reduce
I0403 19:24:12.445679 19747 net.cpp:425] conv2/relu_3x3_reduce <- conv2/3x3_reduce
I0403 19:24:12.445696 19747 net.cpp:386] conv2/relu_3x3_reduce -> conv2/3x3_reduce (in-place)
I0403 19:24:12.445966 19747 net.cpp:141] Setting up conv2/relu_3x3_reduce
I0403 19:24:12.445992 19747 net.cpp:148] Top shape: 24 64 56 56 (4816896)
I0403 19:24:12.446007 19747 net.cpp:156] Memory required for data: 245662752
I0403 19:24:12.446022 19747 layer_factory.hpp:77] Creating layer conv2/3x3
I0403 19:24:12.446048 19747 net.cpp:91] Creating Layer conv2/3x3
I0403 19:24:12.446066 19747 net.cpp:425] conv2/3x3 <- conv2/3x3_reduce
I0403 19:24:12.446085 19747 net.cpp:399] conv2/3x3 -> conv2/3x3
I0403 19:24:12.448343 19747 net.cpp:141] Setting up conv2/3x3
I0403 19:24:12.448372 19747 net.cpp:148] Top shape: 24 192 56 56 (14450688)
I0403 19:24:12.448388 19747 net.cpp:156] Memory required for data: 303465504
I0403 19:24:12.448410 19747 layer_factory.hpp:77] Creating layer conv2/relu_3x3
I0403 19:24:12.448431 19747 net.cpp:91] Creating Layer conv2/relu_3x3
I0403 19:24:12.448446 19747 net.cpp:425] conv2/relu_3x3 <- conv2/3x3
I0403 19:24:12.448463 19747 net.cpp:386] conv2/relu_3x3 -> conv2/3x3 (in-place)
I0403 19:24:12.448634 19747 net.cpp:141] Setting up conv2/relu_3x3
I0403 19:24:12.448659 19747 net.cpp:148] Top shape: 24 192 56 56 (14450688)
I0403 19:24:12.448704 19747 net.cpp:156] Memory required for data: 361268256
I0403 19:24:12.448719 19747 layer_factory.hpp:77] Creating layer conv2/norm2
I0403 19:24:12.448740 19747 net.cpp:91] Creating Layer conv2/norm2
I0403 19:24:12.448756 19747 net.cpp:425] conv2/norm2 <- conv2/3x3
I0403 19:24:12.448773 19747 net.cpp:399] conv2/norm2 -> conv2/norm2
I0403 19:24:12.449081 19747 net.cpp:141] Setting up conv2/norm2
I0403 19:24:12.449108 19747 net.cpp:148] Top shape: 24 192 56 56 (14450688)
I0403 19:24:12.449125 19747 net.cpp:156] Memory required for data: 419071008
I0403 19:24:12.449139 19747 layer_factory.hpp:77] Creating layer pool2/3x3_s2
I0403 19:24:12.449162 19747 net.cpp:91] Creating Layer pool2/3x3_s2
I0403 19:24:12.449178 19747 net.cpp:425] pool2/3x3_s2 <- conv2/norm2
I0403 19:24:12.449196 19747 net.cpp:399] pool2/3x3_s2 -> pool2/3x3_s2
I0403 19:24:12.449250 19747 net.cpp:141] Setting up pool2/3x3_s2
I0403 19:24:12.449273 19747 net.cpp:148] Top shape: 24 192 28 28 (3612672)
I0403 19:24:12.449287 19747 net.cpp:156] Memory required for data: 433521696
I0403 19:24:12.449301 19747 layer_factory.hpp:77] Creating layer pool2/3x3_s2_pool2/3x3_s2_0_split
I0403 19:24:12.449319 19747 net.cpp:91] Creating Layer pool2/3x3_s2_pool2/3x3_s2_0_split
I0403 19:24:12.449333 19747 net.cpp:425] pool2/3x3_s2_pool2/3x3_s2_0_split <- pool2/3x3_s2
I0403 19:24:12.449353 19747 net.cpp:399] pool2/3x3_s2_pool2/3x3_s2_0_split -> pool2/3x3_s2_pool2/3x3_s2_0_split_0
I0403 19:24:12.449373 19747 net.cpp:399] pool2/3x3_s2_pool2/3x3_s2_0_split -> pool2/3x3_s2_pool2/3x3_s2_0_split_1
I0403 19:24:12.449393 19747 net.cpp:399] pool2/3x3_s2_pool2/3x3_s2_0_split -> pool2/3x3_s2_pool2/3x3_s2_0_split_2
I0403 19:24:12.449412 19747 net.cpp:399] pool2/3x3_s2_pool2/3x3_s2_0_split -> pool2/3x3_s2_pool2/3x3_s2_0_split_3
I0403 19:24:12.449481 19747 net.cpp:141] Setting up pool2/3x3_s2_pool2/3x3_s2_0_split
I0403 19:24:12.449506 19747 net.cpp:148] Top shape: 24 192 28 28 (3612672)
I0403 19:24:12.449522 19747 net.cpp:148] Top shape: 24 192 28 28 (3612672)
I0403 19:24:12.449537 19747 net.cpp:148] Top shape: 24 192 28 28 (3612672)
I0403 19:24:12.449553 19747 net.cpp:148] Top shape: 24 192 28 28 (3612672)
I0403 19:24:12.449565 19747 net.cpp:156] Memory required for data: 491324448
I0403 19:24:12.449579 19747 layer_factory.hpp:77] Creating layer inception_3a/1x1
I0403 19:24:12.449601 19747 net.cpp:91] Creating Layer inception_3a/1x1
I0403 19:24:12.449618 19747 net.cpp:425] inception_3a/1x1 <- pool2/3x3_s2_pool2/3x3_s2_0_split_0
I0403 19:24:12.449637 19747 net.cpp:399] inception_3a/1x1 -> inception_3a/1x1
I0403 19:24:12.451150 19747 net.cpp:141] Setting up inception_3a/1x1
I0403 19:24:12.451180 19747 net.cpp:148] Top shape: 24 64 28 28 (1204224)
I0403 19:24:12.451196 19747 net.cpp:156] Memory required for data: 496141344
I0403 19:24:12.451215 19747 layer_factory.hpp:77] Creating layer inception_3a/relu_1x1
I0403 19:24:12.451236 19747 net.cpp:91] Creating Layer inception_3a/relu_1x1
I0403 19:24:12.451252 19747 net.cpp:425] inception_3a/relu_1x1 <- inception_3a/1x1
I0403 19:24:12.451269 19747 net.cpp:386] inception_3a/relu_1x1 -> inception_3a/1x1 (in-place)
I0403 19:24:12.451442 19747 net.cpp:141] Setting up inception_3a/relu_1x1
I0403 19:24:12.451469 19747 net.cpp:148] Top shape: 24 64 28 28 (1204224)
I0403 19:24:12.451484 19747 net.cpp:156] Memory required for data: 500958240
I0403 19:24:12.451499 19747 layer_factory.hpp:77] Creating layer inception_3a/3x3_reduce
I0403 19:24:12.451521 19747 net.cpp:91] Creating Layer inception_3a/3x3_reduce
I0403 19:24:12.451539 19747 net.cpp:425] inception_3a/3x3_reduce <- pool2/3x3_s2_pool2/3x3_s2_0_split_1
I0403 19:24:12.451558 19747 net.cpp:399] inception_3a/3x3_reduce -> inception_3a/3x3_reduce
I0403 19:24:12.453243 19747 net.cpp:141] Setting up inception_3a/3x3_reduce
I0403 19:24:12.453271 19747 net.cpp:148] Top shape: 24 96 28 28 (1806336)
I0403 19:24:12.453287 19747 net.cpp:156] Memory required for data: 508183584
I0403 19:24:12.453310 19747 layer_factory.hpp:77] Creating layer inception_3a/relu_3x3_reduce
I0403 19:24:12.453346 19747 net.cpp:91] Creating Layer inception_3a/relu_3x3_reduce
I0403 19:24:12.453364 19747 net.cpp:425] inception_3a/relu_3x3_reduce <- inception_3a/3x3_reduce
I0403 19:24:12.453384 19747 net.cpp:386] inception_3a/relu_3x3_reduce -> inception_3a/3x3_reduce (in-place)
I0403 19:24:12.453564 19747 net.cpp:141] Setting up inception_3a/relu_3x3_reduce
I0403 19:24:12.453589 19747 net.cpp:148] Top shape: 24 96 28 28 (1806336)
I0403 19:24:12.453604 19747 net.cpp:156] Memory required for data: 515408928
I0403 19:24:12.453619 19747 layer_factory.hpp:77] Creating layer inception_3a/3x3
I0403 19:24:12.453642 19747 net.cpp:91] Creating Layer inception_3a/3x3
I0403 19:24:12.453660 19747 net.cpp:425] inception_3a/3x3 <- inception_3a/3x3_reduce
I0403 19:24:12.453681 19747 net.cpp:399] inception_3a/3x3 -> inception_3a/3x3
I0403 19:24:12.455307 19747 net.cpp:141] Setting up inception_3a/3x3
I0403 19:24:12.455338 19747 net.cpp:148] Top shape: 24 128 28 28 (2408448)
I0403 19:24:12.455353 19747 net.cpp:156] Memory required for data: 525042720
I0403 19:24:12.455373 19747 layer_factory.hpp:77] Creating layer inception_3a/relu_3x3
I0403 19:24:12.455389 19747 net.cpp:91] Creating Layer inception_3a/relu_3x3
I0403 19:24:12.455405 19747 net.cpp:425] inception_3a/relu_3x3 <- inception_3a/3x3
I0403 19:24:12.455422 19747 net.cpp:386] inception_3a/relu_3x3 -> inception_3a/3x3 (in-place)
I0403 19:24:12.455690 19747 net.cpp:141] Setting up inception_3a/relu_3x3
I0403 19:24:12.455718 19747 net.cpp:148] Top shape: 24 128 28 28 (2408448)
I0403 19:24:12.455734 19747 net.cpp:156] Memory required for data: 534676512
I0403 19:24:12.455749 19747 layer_factory.hpp:77] Creating layer inception_3a/5x5_reduce
I0403 19:24:12.455772 19747 net.cpp:91] Creating Layer inception_3a/5x5_reduce
I0403 19:24:12.455790 19747 net.cpp:425] inception_3a/5x5_reduce <- pool2/3x3_s2_pool2/3x3_s2_0_split_2
I0403 19:24:12.455808 19747 net.cpp:399] inception_3a/5x5_reduce -> inception_3a/5x5_reduce
I0403 19:24:12.456766 19747 net.cpp:141] Setting up inception_3a/5x5_reduce
I0403 19:24:12.456795 19747 net.cpp:148] Top shape: 24 16 28 28 (301056)
I0403 19:24:12.456812 19747 net.cpp:156] Memory required for data: 535880736
I0403 19:24:12.456830 19747 layer_factory.hpp:77] Creating layer inception_3a/relu_5x5_reduce
I0403 19:24:12.456848 19747 net.cpp:91] Creating Layer inception_3a/relu_5x5_reduce
I0403 19:24:12.456863 19747 net.cpp:425] inception_3a/relu_5x5_reduce <- inception_3a/5x5_reduce
I0403 19:24:12.456882 19747 net.cpp:386] inception_3a/relu_5x5_reduce -> inception_3a/5x5_reduce (in-place)
I0403 19:24:12.457180 19747 net.cpp:141] Setting up inception_3a/relu_5x5_reduce
I0403 19:24:12.457206 19747 net.cpp:148] Top shape: 24 16 28 28 (301056)
I0403 19:24:12.457221 19747 net.cpp:156] Memory required for data: 537084960
I0403 19:24:12.457237 19747 layer_factory.hpp:77] Creating layer inception_3a/5x5
I0403 19:24:12.457258 19747 net.cpp:91] Creating Layer inception_3a/5x5
I0403 19:24:12.457276 19747 net.cpp:425] inception_3a/5x5 <- inception_3a/5x5_reduce
I0403 19:24:12.457298 19747 net.cpp:399] inception_3a/5x5 -> inception_3a/5x5
I0403 19:24:12.458297 19747 net.cpp:141] Setting up inception_3a/5x5
I0403 19:24:12.458326 19747 net.cpp:148] Top shape: 24 32 28 28 (602112)
I0403 19:24:12.458343 19747 net.cpp:156] Memory required for data: 539493408
I0403 19:24:12.458360 19747 layer_factory.hpp:77] Creating layer inception_3a/relu_5x5
I0403 19:24:12.458379 19747 net.cpp:91] Creating Layer inception_3a/relu_5x5
I0403 19:24:12.458395 19747 net.cpp:425] inception_3a/relu_5x5 <- inception_3a/5x5
I0403 19:24:12.458410 19747 net.cpp:386] inception_3a/relu_5x5 -> inception_3a/5x5 (in-place)
I0403 19:24:12.458581 19747 net.cpp:141] Setting up inception_3a/relu_5x5
I0403 19:24:12.458607 19747 net.cpp:148] Top shape: 24 32 28 28 (602112)
I0403 19:24:12.458622 19747 net.cpp:156] Memory required for data: 541901856
I0403 19:24:12.458636 19747 layer_factory.hpp:77] Creating layer inception_3a/pool
I0403 19:24:12.458654 19747 net.cpp:91] Creating Layer inception_3a/pool
I0403 19:24:12.458683 19747 net.cpp:425] inception_3a/pool <- pool2/3x3_s2_pool2/3x3_s2_0_split_3
I0403 19:24:12.458705 19747 net.cpp:399] inception_3a/pool -> inception_3a/pool
I0403 19:24:12.458762 19747 net.cpp:141] Setting up inception_3a/pool
I0403 19:24:12.458787 19747 net.cpp:148] Top shape: 24 192 28 28 (3612672)
I0403 19:24:12.458802 19747 net.cpp:156] Memory required for data: 556352544
I0403 19:24:12.458817 19747 layer_factory.hpp:77] Creating layer inception_3a/pool_proj
I0403 19:24:12.458839 19747 net.cpp:91] Creating Layer inception_3a/pool_proj
I0403 19:24:12.458858 19747 net.cpp:425] inception_3a/pool_proj <- inception_3a/pool
I0403 19:24:12.458875 19747 net.cpp:399] inception_3a/pool_proj -> inception_3a/pool_proj
I0403 19:24:12.459856 19747 net.cpp:141] Setting up inception_3a/pool_proj
I0403 19:24:12.459883 19747 net.cpp:148] Top shape: 24 32 28 28 (602112)
I0403 19:24:12.459899 19747 net.cpp:156] Memory required for data: 558760992
I0403 19:24:12.459923 19747 layer_factory.hpp:77] Creating layer inception_3a/relu_pool_proj
I0403 19:24:12.459942 19747 net.cpp:91] Creating Layer inception_3a/relu_pool_proj
I0403 19:24:12.459964 19747 net.cpp:425] inception_3a/relu_pool_proj <- inception_3a/pool_proj
I0403 19:24:12.459985 19747 net.cpp:386] inception_3a/relu_pool_proj -> inception_3a/pool_proj (in-place)
I0403 19:24:12.460253 19747 net.cpp:141] Setting up inception_3a/relu_pool_proj
I0403 19:24:12.460283 19747 net.cpp:148] Top shape: 24 32 28 28 (602112)
I0403 19:24:12.460299 19747 net.cpp:156] Memory required for data: 561169440
I0403 19:24:12.460312 19747 layer_factory.hpp:77] Creating layer inception_3a/output
I0403 19:24:12.460330 19747 net.cpp:91] Creating Layer inception_3a/output
I0403 19:24:12.460346 19747 net.cpp:425] inception_3a/output <- inception_3a/1x1
I0403 19:24:12.460362 19747 net.cpp:425] inception_3a/output <- inception_3a/3x3
I0403 19:24:12.460378 19747 net.cpp:425] inception_3a/output <- inception_3a/5x5
I0403 19:24:12.460394 19747 net.cpp:425] inception_3a/output <- inception_3a/pool_proj
I0403 19:24:12.460412 19747 net.cpp:399] inception_3a/output -> inception_3a/output
I0403 19:24:12.460459 19747 net.cpp:141] Setting up inception_3a/output
I0403 19:24:12.460482 19747 net.cpp:148] Top shape: 24 256 28 28 (4816896)
I0403 19:24:12.460497 19747 net.cpp:156] Memory required for data: 580437024
I0403 19:24:12.460512 19747 layer_factory.hpp:77] Creating layer inception_3a/output_inception_3a/output_0_split
I0403 19:24:12.460531 19747 net.cpp:91] Creating Layer inception_3a/output_inception_3a/output_0_split
I0403 19:24:12.460547 19747 net.cpp:425] inception_3a/output_inception_3a/output_0_split <- inception_3a/output
I0403 19:24:12.460564 19747 net.cpp:399] inception_3a/output_inception_3a/output_0_split -> inception_3a/output_inception_3a/output_0_split_0
I0403 19:24:12.460584 19747 net.cpp:399] inception_3a/output_inception_3a/output_0_split -> inception_3a/output_inception_3a/output_0_split_1
I0403 19:24:12.460609 19747 net.cpp:399] inception_3a/output_inception_3a/output_0_split -> inception_3a/output_inception_3a/output_0_split_2
I0403 19:24:12.460631 19747 net.cpp:399] inception_3a/output_inception_3a/output_0_split -> inception_3a/output_inception_3a/output_0_split_3
I0403 19:24:12.460708 19747 net.cpp:141] Setting up inception_3a/output_inception_3a/output_0_split
I0403 19:24:12.460731 19747 net.cpp:148] Top shape: 24 256 28 28 (4816896)
I0403 19:24:12.460747 19747 net.cpp:148] Top shape: 24 256 28 28 (4816896)
I0403 19:24:12.460762 19747 net.cpp:148] Top shape: 24 256 28 28 (4816896)
I0403 19:24:12.460777 19747 net.cpp:148] Top shape: 24 256 28 28 (4816896)
I0403 19:24:12.460790 19747 net.cpp:156] Memory required for data: 657507360
I0403 19:24:12.460805 19747 layer_factory.hpp:77] Creating layer inception_3b/1x1
I0403 19:24:12.460829 19747 net.cpp:91] Creating Layer inception_3b/1x1
I0403 19:24:12.460846 19747 net.cpp:425] inception_3b/1x1 <- inception_3a/output_inception_3a/output_0_split_0
I0403 19:24:12.460865 19747 net.cpp:399] inception_3b/1x1 -> inception_3b/1x1
I0403 19:24:12.461985 19747 net.cpp:141] Setting up inception_3b/1x1
I0403 19:24:12.462024 19747 net.cpp:148] Top shape: 24 128 28 28 (2408448)
I0403 19:24:12.462040 19747 net.cpp:156] Memory required for data: 667141152
I0403 19:24:12.462059 19747 layer_factory.hpp:77] Creating layer inception_3b/relu_1x1
I0403 19:24:12.462079 19747 net.cpp:91] Creating Layer inception_3b/relu_1x1
I0403 19:24:12.462095 19747 net.cpp:425] inception_3b/relu_1x1 <- inception_3b/1x1
I0403 19:24:12.462112 19747 net.cpp:386] inception_3b/relu_1x1 -> inception_3b/1x1 (in-place)
I0403 19:24:12.462283 19747 net.cpp:141] Setting up inception_3b/relu_1x1
I0403 19:24:12.462311 19747 net.cpp:148] Top shape: 24 128 28 28 (2408448)
I0403 19:24:12.462327 19747 net.cpp:156] Memory required for data: 676774944
I0403 19:24:12.462340 19747 layer_factory.hpp:77] Creating layer inception_3b/3x3_reduce
I0403 19:24:12.462363 19747 net.cpp:91] Creating Layer inception_3b/3x3_reduce
I0403 19:24:12.462379 19747 net.cpp:425] inception_3b/3x3_reduce <- inception_3a/output_inception_3a/output_0_split_1
I0403 19:24:12.462399 19747 net.cpp:399] inception_3b/3x3_reduce -> inception_3b/3x3_reduce
I0403 19:24:12.463517 19747 net.cpp:141] Setting up inception_3b/3x3_reduce
I0403 19:24:12.463546 19747 net.cpp:148] Top shape: 24 128 28 28 (2408448)
I0403 19:24:12.463560 19747 net.cpp:156] Memory required for data: 686408736
I0403 19:24:12.463578 19747 layer_factory.hpp:77] Creating layer inception_3b/relu_3x3_reduce
I0403 19:24:12.463598 19747 net.cpp:91] Creating Layer inception_3b/relu_3x3_reduce
I0403 19:24:12.463614 19747 net.cpp:425] inception_3b/relu_3x3_reduce <- inception_3b/3x3_reduce
I0403 19:24:12.463632 19747 net.cpp:386] inception_3b/relu_3x3_reduce -> inception_3b/3x3_reduce (in-place)
I0403 19:24:12.463804 19747 net.cpp:141] Setting up inception_3b/relu_3x3_reduce
I0403 19:24:12.463830 19747 net.cpp:148] Top shape: 24 128 28 28 (2408448)
I0403 19:24:12.463845 19747 net.cpp:156] Memory required for data: 696042528
I0403 19:24:12.463860 19747 layer_factory.hpp:77] Creating layer inception_3b/3x3
I0403 19:24:12.463886 19747 net.cpp:91] Creating Layer inception_3b/3x3
I0403 19:24:12.463903 19747 net.cpp:425] inception_3b/3x3 <- inception_3b/3x3_reduce
I0403 19:24:12.463924 19747 net.cpp:399] inception_3b/3x3 -> inception_3b/3x3
I0403 19:24:12.466825 19747 net.cpp:141] Setting up inception_3b/3x3
I0403 19:24:12.466855 19747 net.cpp:148] Top shape: 24 192 28 28 (3612672)
I0403 19:24:12.466871 19747 net.cpp:156] Memory required for data: 710493216
I0403 19:24:12.466889 19747 layer_factory.hpp:77] Creating layer inception_3b/relu_3x3
I0403 19:24:12.466908 19747 net.cpp:91] Creating Layer inception_3b/relu_3x3
I0403 19:24:12.466924 19747 net.cpp:425] inception_3b/relu_3x3 <- inception_3b/3x3
I0403 19:24:12.466941 19747 net.cpp:386] inception_3b/relu_3x3 -> inception_3b/3x3 (in-place)
I0403 19:24:12.467222 19747 net.cpp:141] Setting up inception_3b/relu_3x3
I0403 19:24:12.467250 19747 net.cpp:148] Top shape: 24 192 28 28 (3612672)
I0403 19:24:12.467267 19747 net.cpp:156] Memory required for data: 724943904
I0403 19:24:12.467281 19747 layer_factory.hpp:77] Creating layer inception_3b/5x5_reduce
I0403 19:24:12.467303 19747 net.cpp:91] Creating Layer inception_3b/5x5_reduce
I0403 19:24:12.467321 19747 net.cpp:425] inception_3b/5x5_reduce <- inception_3a/output_inception_3a/output_0_split_2
I0403 19:24:12.467340 19747 net.cpp:399] inception_3b/5x5_reduce -> inception_3b/5x5_reduce
I0403 19:24:12.468320 19747 net.cpp:141] Setting up inception_3b/5x5_reduce
I0403 19:24:12.468353 19747 net.cpp:148] Top shape: 24 32 28 28 (602112)
I0403 19:24:12.468369 19747 net.cpp:156] Memory required for data: 727352352
I0403 19:24:12.468386 19747 layer_factory.hpp:77] Creating layer inception_3b/relu_5x5_reduce
I0403 19:24:12.468405 19747 net.cpp:91] Creating Layer inception_3b/relu_5x5_reduce
I0403 19:24:12.468420 19747 net.cpp:425] inception_3b/relu_5x5_reduce <- inception_3b/5x5_reduce
I0403 19:24:12.468437 19747 net.cpp:386] inception_3b/relu_5x5_reduce -> inception_3b/5x5_reduce (in-place)
I0403 19:24:12.468626 19747 net.cpp:141] Setting up inception_3b/relu_5x5_reduce
I0403 19:24:12.468652 19747 net.cpp:148] Top shape: 24 32 28 28 (602112)
I0403 19:24:12.468667 19747 net.cpp:156] Memory required for data: 729760800
I0403 19:24:12.468683 19747 layer_factory.hpp:77] Creating layer inception_3b/5x5
I0403 19:24:12.468703 19747 net.cpp:91] Creating Layer inception_3b/5x5
I0403 19:24:12.468721 19747 net.cpp:425] inception_3b/5x5 <- inception_3b/5x5_reduce
I0403 19:24:12.468742 19747 net.cpp:399] inception_3b/5x5 -> inception_3b/5x5
I0403 19:24:12.470723 19747 net.cpp:141] Setting up inception_3b/5x5
I0403 19:24:12.470752 19747 net.cpp:148] Top shape: 24 96 28 28 (1806336)
I0403 19:24:12.470769 19747 net.cpp:156] Memory required for data: 736986144
I0403 19:24:12.470788 19747 layer_factory.hpp:77] Creating layer inception_3b/relu_5x5
I0403 19:24:12.470808 19747 net.cpp:91] Creating Layer inception_3b/relu_5x5
I0403 19:24:12.470825 19747 net.cpp:425] inception_3b/relu_5x5 <- inception_3b/5x5
I0403 19:24:12.470844 19747 net.cpp:386] inception_3b/relu_5x5 -> inception_3b/5x5 (in-place)
I0403 19:24:12.471045 19747 net.cpp:141] Setting up inception_3b/relu_5x5
I0403 19:24:12.471071 19747 net.cpp:148] Top shape: 24 96 28 28 (1806336)
I0403 19:24:12.471086 19747 net.cpp:156] Memory required for data: 744211488
I0403 19:24:12.471101 19747 layer_factory.hpp:77] Creating layer inception_3b/pool
I0403 19:24:12.471118 19747 net.cpp:91] Creating Layer inception_3b/pool
I0403 19:24:12.471134 19747 net.cpp:425] inception_3b/pool <- inception_3a/output_inception_3a/output_0_split_3
I0403 19:24:12.471153 19747 net.cpp:399] inception_3b/pool -> inception_3b/pool
I0403 19:24:12.471210 19747 net.cpp:141] Setting up inception_3b/pool
I0403 19:24:12.471235 19747 net.cpp:148] Top shape: 24 256 28 28 (4816896)
I0403 19:24:12.471251 19747 net.cpp:156] Memory required for data: 763479072
I0403 19:24:12.471266 19747 layer_factory.hpp:77] Creating layer inception_3b/pool_proj
I0403 19:24:12.471288 19747 net.cpp:91] Creating Layer inception_3b/pool_proj
I0403 19:24:12.471307 19747 net.cpp:425] inception_3b/pool_proj <- inception_3b/pool
I0403 19:24:12.471328 19747 net.cpp:399] inception_3b/pool_proj -> inception_3b/pool_proj
I0403 19:24:12.472390 19747 net.cpp:141] Setting up inception_3b/pool_proj
I0403 19:24:12.472419 19747 net.cpp:148] Top shape: 24 64 28 28 (1204224)
I0403 19:24:12.472434 19747 net.cpp:156] Memory required for data: 768295968
I0403 19:24:12.472452 19747 layer_factory.hpp:77] Creating layer inception_3b/relu_pool_proj
I0403 19:24:12.472471 19747 net.cpp:91] Creating Layer inception_3b/relu_pool_proj
I0403 19:24:12.472491 19747 net.cpp:425] inception_3b/relu_pool_proj <- inception_3b/pool_proj
I0403 19:24:12.472508 19747 net.cpp:386] inception_3b/relu_pool_proj -> inception_3b/pool_proj (in-place)
I0403 19:24:12.472905 19747 net.cpp:141] Setting up inception_3b/relu_pool_proj
I0403 19:24:12.472932 19747 net.cpp:148] Top shape: 24 64 28 28 (1204224)
I0403 19:24:12.472952 19747 net.cpp:156] Memory required for data: 773112864
I0403 19:24:12.472968 19747 layer_factory.hpp:77] Creating layer inception_3b/output
I0403 19:24:12.472986 19747 net.cpp:91] Creating Layer inception_3b/output
I0403 19:24:12.473003 19747 net.cpp:425] inception_3b/output <- inception_3b/1x1
I0403 19:24:12.473021 19747 net.cpp:425] inception_3b/output <- inception_3b/3x3
I0403 19:24:12.473037 19747 net.cpp:425] inception_3b/output <- inception_3b/5x5
I0403 19:24:12.473053 19747 net.cpp:425] inception_3b/output <- inception_3b/pool_proj
I0403 19:24:12.473073 19747 net.cpp:399] inception_3b/output -> inception_3b/output
I0403 19:24:12.473117 19747 net.cpp:141] Setting up inception_3b/output
I0403 19:24:12.473143 19747 net.cpp:148] Top shape: 24 480 28 28 (9031680)
I0403 19:24:12.473160 19747 net.cpp:156] Memory required for data: 809239584
I0403 19:24:12.473175 19747 layer_factory.hpp:77] Creating layer pool3/3x3_s2
I0403 19:24:12.473192 19747 net.cpp:91] Creating Layer pool3/3x3_s2
I0403 19:24:12.473208 19747 net.cpp:425] pool3/3x3_s2 <- inception_3b/output
I0403 19:24:12.473242 19747 net.cpp:399] pool3/3x3_s2 -> pool3/3x3_s2
I0403 19:24:12.473302 19747 net.cpp:141] Setting up pool3/3x3_s2
I0403 19:24:12.473326 19747 net.cpp:148] Top shape: 24 480 14 14 (2257920)
I0403 19:24:12.473341 19747 net.cpp:156] Memory required for data: 818271264
I0403 19:24:12.473356 19747 layer_factory.hpp:77] Creating layer pool3/3x3_s2_pool3/3x3_s2_0_split
I0403 19:24:12.473374 19747 net.cpp:91] Creating Layer pool3/3x3_s2_pool3/3x3_s2_0_split
I0403 19:24:12.473390 19747 net.cpp:425] pool3/3x3_s2_pool3/3x3_s2_0_split <- pool3/3x3_s2
I0403 19:24:12.473409 19747 net.cpp:399] pool3/3x3_s2_pool3/3x3_s2_0_split -> pool3/3x3_s2_pool3/3x3_s2_0_split_0
I0403 19:24:12.473431 19747 net.cpp:399] pool3/3x3_s2_pool3/3x3_s2_0_split -> pool3/3x3_s2_pool3/3x3_s2_0_split_1
I0403 19:24:12.473453 19747 net.cpp:399] pool3/3x3_s2_pool3/3x3_s2_0_split -> pool3/3x3_s2_pool3/3x3_s2_0_split_2
I0403 19:24:12.473471 19747 net.cpp:399] pool3/3x3_s2_pool3/3x3_s2_0_split -> pool3/3x3_s2_pool3/3x3_s2_0_split_3
I0403 19:24:12.473549 19747 net.cpp:141] Setting up pool3/3x3_s2_pool3/3x3_s2_0_split
I0403 19:24:12.473573 19747 net.cpp:148] Top shape: 24 480 14 14 (2257920)
I0403 19:24:12.473589 19747 net.cpp:148] Top shape: 24 480 14 14 (2257920)
I0403 19:24:12.473605 19747 net.cpp:148] Top shape: 24 480 14 14 (2257920)
I0403 19:24:12.473621 19747 net.cpp:148] Top shape: 24 480 14 14 (2257920)
I0403 19:24:12.473635 19747 net.cpp:156] Memory required for data: 854397984
I0403 19:24:12.473650 19747 layer_factory.hpp:77] Creating layer inception_4a/1x1
I0403 19:24:12.473672 19747 net.cpp:91] Creating Layer inception_4a/1x1
I0403 19:24:12.473690 19747 net.cpp:425] inception_4a/1x1 <- pool3/3x3_s2_pool3/3x3_s2_0_split_0
I0403 19:24:12.473713 19747 net.cpp:399] inception_4a/1x1 -> inception_4a/1x1
I0403 19:24:12.475306 19747 net.cpp:141] Setting up inception_4a/1x1
I0403 19:24:12.475334 19747 net.cpp:148] Top shape: 24 192 14 14 (903168)
I0403 19:24:12.475350 19747 net.cpp:156] Memory required for data: 858010656
I0403 19:24:12.475368 19747 layer_factory.hpp:77] Creating layer inception_4a/relu_1x1
I0403 19:24:12.475389 19747 net.cpp:91] Creating Layer inception_4a/relu_1x1
I0403 19:24:12.475406 19747 net.cpp:425] inception_4a/relu_1x1 <- inception_4a/1x1
I0403 19:24:12.475425 19747 net.cpp:386] inception_4a/relu_1x1 -> inception_4a/1x1 (in-place)
I0403 19:24:12.475605 19747 net.cpp:141] Setting up inception_4a/relu_1x1
I0403 19:24:12.475630 19747 net.cpp:148] Top shape: 24 192 14 14 (903168)
I0403 19:24:12.475646 19747 net.cpp:156] Memory required for data: 861623328
I0403 19:24:12.475659 19747 layer_factory.hpp:77] Creating layer inception_4a/3x3_reduce
I0403 19:24:12.475683 19747 net.cpp:91] Creating Layer inception_4a/3x3_reduce
I0403 19:24:12.475703 19747 net.cpp:425] inception_4a/3x3_reduce <- pool3/3x3_s2_pool3/3x3_s2_0_split_1
I0403 19:24:12.475723 19747 net.cpp:399] inception_4a/3x3_reduce -> inception_4a/3x3_reduce
I0403 19:24:12.477011 19747 net.cpp:141] Setting up inception_4a/3x3_reduce
I0403 19:24:12.477040 19747 net.cpp:148] Top shape: 24 96 14 14 (451584)
I0403 19:24:12.477056 19747 net.cpp:156] Memory required for data: 863429664
I0403 19:24:12.477082 19747 layer_factory.hpp:77] Creating layer inception_4a/relu_3x3_reduce
I0403 19:24:12.477102 19747 net.cpp:91] Creating Layer inception_4a/relu_3x3_reduce
I0403 19:24:12.477118 19747 net.cpp:425] inception_4a/relu_3x3_reduce <- inception_4a/3x3_reduce
I0403 19:24:12.477139 19747 net.cpp:386] inception_4a/relu_3x3_reduce -> inception_4a/3x3_reduce (in-place)
I0403 19:24:12.477319 19747 net.cpp:141] Setting up inception_4a/relu_3x3_reduce
I0403 19:24:12.477344 19747 net.cpp:148] Top shape: 24 96 14 14 (451584)
I0403 19:24:12.477360 19747 net.cpp:156] Memory required for data: 865236000
I0403 19:24:12.477375 19747 layer_factory.hpp:77] Creating layer inception_4a/3x3
I0403 19:24:12.477398 19747 net.cpp:91] Creating Layer inception_4a/3x3
I0403 19:24:12.477417 19747 net.cpp:425] inception_4a/3x3 <- inception_4a/3x3_reduce
I0403 19:24:12.477439 19747 net.cpp:399] inception_4a/3x3 -> inception_4a/3x3
I0403 19:24:12.480165 19747 net.cpp:141] Setting up inception_4a/3x3
I0403 19:24:12.480195 19747 net.cpp:148] Top shape: 24 208 14 14 (978432)
I0403 19:24:12.480211 19747 net.cpp:156] Memory required for data: 869149728
I0403 19:24:12.480231 19747 layer_factory.hpp:77] Creating layer inception_4a/relu_3x3
I0403 19:24:12.480250 19747 net.cpp:91] Creating Layer inception_4a/relu_3x3
I0403 19:24:12.480269 19747 net.cpp:425] inception_4a/relu_3x3 <- inception_4a/3x3
I0403 19:24:12.480288 19747 net.cpp:386] inception_4a/relu_3x3 -> inception_4a/3x3 (in-place)
I0403 19:24:12.480571 19747 net.cpp:141] Setting up inception_4a/relu_3x3
I0403 19:24:12.480597 19747 net.cpp:148] Top shape: 24 208 14 14 (978432)
I0403 19:24:12.480612 19747 net.cpp:156] Memory required for data: 873063456
I0403 19:24:12.480628 19747 layer_factory.hpp:77] Creating layer inception_4a/5x5_reduce
I0403 19:24:12.480651 19747 net.cpp:91] Creating Layer inception_4a/5x5_reduce
I0403 19:24:12.480669 19747 net.cpp:425] inception_4a/5x5_reduce <- pool3/3x3_s2_pool3/3x3_s2_0_split_2
I0403 19:24:12.480690 19747 net.cpp:399] inception_4a/5x5_reduce -> inception_4a/5x5_reduce
I0403 19:24:12.481729 19747 net.cpp:141] Setting up inception_4a/5x5_reduce
I0403 19:24:12.481761 19747 net.cpp:148] Top shape: 24 16 14 14 (75264)
I0403 19:24:12.481778 19747 net.cpp:156] Memory required for data: 873364512
I0403 19:24:12.481797 19747 layer_factory.hpp:77] Creating layer inception_4a/relu_5x5_reduce
I0403 19:24:12.481817 19747 net.cpp:91] Creating Layer inception_4a/relu_5x5_reduce
I0403 19:24:12.481832 19747 net.cpp:425] inception_4a/relu_5x5_reduce <- inception_4a/5x5_reduce
I0403 19:24:12.481849 19747 net.cpp:386] inception_4a/relu_5x5_reduce -> inception_4a/5x5_reduce (in-place)
I0403 19:24:12.482034 19747 net.cpp:141] Setting up inception_4a/relu_5x5_reduce
I0403 19:24:12.482062 19747 net.cpp:148] Top shape: 24 16 14 14 (75264)
I0403 19:24:12.482079 19747 net.cpp:156] Memory required for data: 873665568
I0403 19:24:12.482094 19747 layer_factory.hpp:77] Creating layer inception_4a/5x5
I0403 19:24:12.482115 19747 net.cpp:91] Creating Layer inception_4a/5x5
I0403 19:24:12.482133 19747 net.cpp:425] inception_4a/5x5 <- inception_4a/5x5_reduce
I0403 19:24:12.482154 19747 net.cpp:399] inception_4a/5x5 -> inception_4a/5x5
I0403 19:24:12.483252 19747 net.cpp:141] Setting up inception_4a/5x5
I0403 19:24:12.483279 19747 net.cpp:148] Top shape: 24 48 14 14 (225792)
I0403 19:24:12.483295 19747 net.cpp:156] Memory required for data: 874568736
I0403 19:24:12.483314 19747 layer_factory.hpp:77] Creating layer inception_4a/relu_5x5
I0403 19:24:12.483332 19747 net.cpp:91] Creating Layer inception_4a/relu_5x5
I0403 19:24:12.483348 19747 net.cpp:425] inception_4a/relu_5x5 <- inception_4a/5x5
I0403 19:24:12.483371 19747 net.cpp:386] inception_4a/relu_5x5 -> inception_4a/5x5 (in-place)
I0403 19:24:12.483551 19747 net.cpp:141] Setting up inception_4a/relu_5x5
I0403 19:24:12.483577 19747 net.cpp:148] Top shape: 24 48 14 14 (225792)
I0403 19:24:12.483592 19747 net.cpp:156] Memory required for data: 875471904
I0403 19:24:12.483606 19747 layer_factory.hpp:77] Creating layer inception_4a/pool
I0403 19:24:12.483628 19747 net.cpp:91] Creating Layer inception_4a/pool
I0403 19:24:12.483644 19747 net.cpp:425] inception_4a/pool <- pool3/3x3_s2_pool3/3x3_s2_0_split_3
I0403 19:24:12.483662 19747 net.cpp:399] inception_4a/pool -> inception_4a/pool
I0403 19:24:12.483724 19747 net.cpp:141] Setting up inception_4a/pool
I0403 19:24:12.483749 19747 net.cpp:148] Top shape: 24 480 14 14 (2257920)
I0403 19:24:12.483763 19747 net.cpp:156] Memory required for data: 884503584
I0403 19:24:12.483778 19747 layer_factory.hpp:77] Creating layer inception_4a/pool_proj
I0403 19:24:12.483801 19747 net.cpp:91] Creating Layer inception_4a/pool_proj
I0403 19:24:12.483819 19747 net.cpp:425] inception_4a/pool_proj <- inception_4a/pool
I0403 19:24:12.483840 19747 net.cpp:399] inception_4a/pool_proj -> inception_4a/pool_proj
I0403 19:24:12.485028 19747 net.cpp:141] Setting up inception_4a/pool_proj
I0403 19:24:12.485057 19747 net.cpp:148] Top shape: 24 64 14 14 (301056)
I0403 19:24:12.485088 19747 net.cpp:156] Memory required for data: 885707808
I0403 19:24:12.485108 19747 layer_factory.hpp:77] Creating layer inception_4a/relu_pool_proj
I0403 19:24:12.485127 19747 net.cpp:91] Creating Layer inception_4a/relu_pool_proj
I0403 19:24:12.485144 19747 net.cpp:425] inception_4a/relu_pool_proj <- inception_4a/pool_proj
I0403 19:24:12.485167 19747 net.cpp:386] inception_4a/relu_pool_proj -> inception_4a/pool_proj (in-place)
I0403 19:24:12.485452 19747 net.cpp:141] Setting up inception_4a/relu_pool_proj
I0403 19:24:12.485481 19747 net.cpp:148] Top shape: 24 64 14 14 (301056)
I0403 19:24:12.485496 19747 net.cpp:156] Memory required for data: 886912032
I0403 19:24:12.485510 19747 layer_factory.hpp:77] Creating layer inception_4a/output
I0403 19:24:12.485528 19747 net.cpp:91] Creating Layer inception_4a/output
I0403 19:24:12.485544 19747 net.cpp:425] inception_4a/output <- inception_4a/1x1
I0403 19:24:12.485561 19747 net.cpp:425] inception_4a/output <- inception_4a/3x3
I0403 19:24:12.485577 19747 net.cpp:425] inception_4a/output <- inception_4a/5x5
I0403 19:24:12.485594 19747 net.cpp:425] inception_4a/output <- inception_4a/pool_proj
I0403 19:24:12.485613 19747 net.cpp:399] inception_4a/output -> inception_4a/output
I0403 19:24:12.485659 19747 net.cpp:141] Setting up inception_4a/output
I0403 19:24:12.485685 19747 net.cpp:148] Top shape: 24 512 14 14 (2408448)
I0403 19:24:12.485702 19747 net.cpp:156] Memory required for data: 896545824
I0403 19:24:12.485718 19747 layer_factory.hpp:77] Creating layer inception_4a/output_inception_4a/output_0_split
I0403 19:24:12.485736 19747 net.cpp:91] Creating Layer inception_4a/output_inception_4a/output_0_split
I0403 19:24:12.485752 19747 net.cpp:425] inception_4a/output_inception_4a/output_0_split <- inception_4a/output
I0403 19:24:12.485772 19747 net.cpp:399] inception_4a/output_inception_4a/output_0_split -> inception_4a/output_inception_4a/output_0_split_0
I0403 19:24:12.485795 19747 net.cpp:399] inception_4a/output_inception_4a/output_0_split -> inception_4a/output_inception_4a/output_0_split_1
I0403 19:24:12.485816 19747 net.cpp:399] inception_4a/output_inception_4a/output_0_split -> inception_4a/output_inception_4a/output_0_split_2
I0403 19:24:12.485836 19747 net.cpp:399] inception_4a/output_inception_4a/output_0_split -> inception_4a/output_inception_4a/output_0_split_3
I0403 19:24:12.485857 19747 net.cpp:399] inception_4a/output_inception_4a/output_0_split -> inception_4a/output_inception_4a/output_0_split_4
I0403 19:24:12.485952 19747 net.cpp:141] Setting up inception_4a/output_inception_4a/output_0_split
I0403 19:24:12.485980 19747 net.cpp:148] Top shape: 24 512 14 14 (2408448)
I0403 19:24:12.485999 19747 net.cpp:148] Top shape: 24 512 14 14 (2408448)
I0403 19:24:12.486016 19747 net.cpp:148] Top shape: 24 512 14 14 (2408448)
I0403 19:24:12.486030 19747 net.cpp:148] Top shape: 24 512 14 14 (2408448)
I0403 19:24:12.486047 19747 net.cpp:148] Top shape: 24 512 14 14 (2408448)
I0403 19:24:12.486060 19747 net.cpp:156] Memory required for data: 944714784
I0403 19:24:12.486075 19747 layer_factory.hpp:77] Creating layer loss1/ave_pool
I0403 19:24:12.486093 19747 net.cpp:91] Creating Layer loss1/ave_pool
I0403 19:24:12.486109 19747 net.cpp:425] loss1/ave_pool <- inception_4a/output_inception_4a/output_0_split_0
I0403 19:24:12.486126 19747 net.cpp:399] loss1/ave_pool -> loss1/ave_pool
I0403 19:24:12.486336 19747 net.cpp:141] Setting up loss1/ave_pool
I0403 19:24:12.486362 19747 net.cpp:148] Top shape: 24 512 4 4 (196608)
I0403 19:24:12.486378 19747 net.cpp:156] Memory required for data: 945501216
I0403 19:24:12.486393 19747 layer_factory.hpp:77] Creating layer loss1/conv
I0403 19:24:12.486416 19747 net.cpp:91] Creating Layer loss1/conv
I0403 19:24:12.486434 19747 net.cpp:425] loss1/conv <- loss1/ave_pool
I0403 19:24:12.486456 19747 net.cpp:399] loss1/conv -> loss1/conv
I0403 19:24:12.487879 19747 net.cpp:141] Setting up loss1/conv
I0403 19:24:12.487908 19747 net.cpp:148] Top shape: 24 128 4 4 (49152)
I0403 19:24:12.487938 19747 net.cpp:156] Memory required for data: 945697824
I0403 19:24:12.487963 19747 layer_factory.hpp:77] Creating layer loss1/relu_conv
I0403 19:24:12.487987 19747 net.cpp:91] Creating Layer loss1/relu_conv
I0403 19:24:12.488003 19747 net.cpp:425] loss1/relu_conv <- loss1/conv
I0403 19:24:12.488020 19747 net.cpp:386] loss1/relu_conv -> loss1/conv (in-place)
I0403 19:24:12.488308 19747 net.cpp:141] Setting up loss1/relu_conv
I0403 19:24:12.488335 19747 net.cpp:148] Top shape: 24 128 4 4 (49152)
I0403 19:24:12.488350 19747 net.cpp:156] Memory required for data: 945894432
I0403 19:24:12.488366 19747 layer_factory.hpp:77] Creating layer loss1/fc
I0403 19:24:12.488394 19747 net.cpp:91] Creating Layer loss1/fc
I0403 19:24:12.488412 19747 net.cpp:425] loss1/fc <- loss1/conv
I0403 19:24:12.488433 19747 net.cpp:399] loss1/fc -> loss1/fc
I0403 19:24:12.506086 19747 net.cpp:141] Setting up loss1/fc
I0403 19:24:12.506120 19747 net.cpp:148] Top shape: 24 1024 (24576)
I0403 19:24:12.506136 19747 net.cpp:156] Memory required for data: 945992736
I0403 19:24:12.506155 19747 layer_factory.hpp:77] Creating layer loss1/relu_fc
I0403 19:24:12.506173 19747 net.cpp:91] Creating Layer loss1/relu_fc
I0403 19:24:12.506189 19747 net.cpp:425] loss1/relu_fc <- loss1/fc
I0403 19:24:12.506211 19747 net.cpp:386] loss1/relu_fc -> loss1/fc (in-place)
I0403 19:24:12.506400 19747 net.cpp:141] Setting up loss1/relu_fc
I0403 19:24:12.506424 19747 net.cpp:148] Top shape: 24 1024 (24576)
I0403 19:24:12.506439 19747 net.cpp:156] Memory required for data: 946091040
I0403 19:24:12.506454 19747 layer_factory.hpp:77] Creating layer loss1/drop_fc
I0403 19:24:12.506481 19747 net.cpp:91] Creating Layer loss1/drop_fc
I0403 19:24:12.506499 19747 net.cpp:425] loss1/drop_fc <- loss1/fc
I0403 19:24:12.506516 19747 net.cpp:386] loss1/drop_fc -> loss1/fc (in-place)
I0403 19:24:12.506567 19747 net.cpp:141] Setting up loss1/drop_fc
I0403 19:24:12.506592 19747 net.cpp:148] Top shape: 24 1024 (24576)
I0403 19:24:12.506608 19747 net.cpp:156] Memory required for data: 946189344
I0403 19:24:12.506623 19747 layer_factory.hpp:77] Creating layer loss1/classifier_plantvillage
I0403 19:24:12.506641 19747 net.cpp:91] Creating Layer loss1/classifier_plantvillage
I0403 19:24:12.506657 19747 net.cpp:425] loss1/classifier_plantvillage <- loss1/fc
I0403 19:24:12.506678 19747 net.cpp:399] loss1/classifier_plantvillage -> loss1/classifier_plantvillage
I0403 19:24:12.507577 19747 net.cpp:141] Setting up loss1/classifier_plantvillage
I0403 19:24:12.507604 19747 net.cpp:148] Top shape: 24 38 (912)
I0403 19:24:12.507621 19747 net.cpp:156] Memory required for data: 946192992
I0403 19:24:12.507637 19747 layer_factory.hpp:77] Creating layer loss1/classifier_plantvillage_loss1/classifier_plantvillage_0_split
I0403 19:24:12.507658 19747 net.cpp:91] Creating Layer loss1/classifier_plantvillage_loss1/classifier_plantvillage_0_split
I0403 19:24:12.507675 19747 net.cpp:425] loss1/classifier_plantvillage_loss1/classifier_plantvillage_0_split <- loss1/classifier_plantvillage
I0403 19:24:12.507693 19747 net.cpp:399] loss1/classifier_plantvillage_loss1/classifier_plantvillage_0_split -> loss1/classifier_plantvillage_loss1/classifier_plantvillage_0_split_0
I0403 19:24:12.507712 19747 net.cpp:399] loss1/classifier_plantvillage_loss1/classifier_plantvillage_0_split -> loss1/classifier_plantvillage_loss1/classifier_plantvillage_0_split_1
I0403 19:24:12.507732 19747 net.cpp:399] loss1/classifier_plantvillage_loss1/classifier_plantvillage_0_split -> loss1/classifier_plantvillage_loss1/classifier_plantvillage_0_split_2
I0403 19:24:12.507799 19747 net.cpp:141] Setting up loss1/classifier_plantvillage_loss1/classifier_plantvillage_0_split
I0403 19:24:12.507823 19747 net.cpp:148] Top shape: 24 38 (912)
I0403 19:24:12.507839 19747 net.cpp:148] Top shape: 24 38 (912)
I0403 19:24:12.507854 19747 net.cpp:148] Top shape: 24 38 (912)
I0403 19:24:12.507869 19747 net.cpp:156] Memory required for data: 946203936
I0403 19:24:12.507884 19747 layer_factory.hpp:77] Creating layer inception_4b/1x1
I0403 19:24:12.507902 19747 net.cpp:91] Creating Layer inception_4b/1x1
I0403 19:24:12.507936 19747 net.cpp:425] inception_4b/1x1 <- inception_4a/output_inception_4a/output_0_split_1
I0403 19:24:12.507963 19747 net.cpp:399] inception_4b/1x1 -> inception_4b/1x1
I0403 19:24:12.509598 19747 net.cpp:141] Setting up inception_4b/1x1
I0403 19:24:12.509626 19747 net.cpp:148] Top shape: 24 160 14 14 (752640)
I0403 19:24:12.509645 19747 net.cpp:156] Memory required for data: 949214496
I0403 19:24:12.509663 19747 layer_factory.hpp:77] Creating layer inception_4b/relu_1x1
I0403 19:24:12.509681 19747 net.cpp:91] Creating Layer inception_4b/relu_1x1
I0403 19:24:12.509696 19747 net.cpp:425] inception_4b/relu_1x1 <- inception_4b/1x1
I0403 19:24:12.509713 19747 net.cpp:386] inception_4b/relu_1x1 -> inception_4b/1x1 (in-place)
I0403 19:24:12.509894 19747 net.cpp:141] Setting up inception_4b/relu_1x1
I0403 19:24:12.509922 19747 net.cpp:148] Top shape: 24 160 14 14 (752640)
I0403 19:24:12.509937 19747 net.cpp:156] Memory required for data: 952225056
I0403 19:24:12.509955 19747 layer_factory.hpp:77] Creating layer inception_4b/3x3_reduce
I0403 19:24:12.509979 19747 net.cpp:91] Creating Layer inception_4b/3x3_reduce
I0403 19:24:12.509995 19747 net.cpp:425] inception_4b/3x3_reduce <- inception_4a/output_inception_4a/output_0_split_2
I0403 19:24:12.510015 19747 net.cpp:399] inception_4b/3x3_reduce -> inception_4b/3x3_reduce
I0403 19:24:12.511358 19747 net.cpp:141] Setting up inception_4b/3x3_reduce
I0403 19:24:12.511389 19747 net.cpp:148] Top shape: 24 112 14 14 (526848)
I0403 19:24:12.511405 19747 net.cpp:156] Memory required for data: 954332448
I0403 19:24:12.511423 19747 layer_factory.hpp:77] Creating layer inception_4b/relu_3x3_reduce
I0403 19:24:12.511441 19747 net.cpp:91] Creating Layer inception_4b/relu_3x3_reduce
I0403 19:24:12.511457 19747 net.cpp:425] inception_4b/relu_3x3_reduce <- inception_4b/3x3_reduce
I0403 19:24:12.511476 19747 net.cpp:386] inception_4b/relu_3x3_reduce -> inception_4b/3x3_reduce (in-place)
I0403 19:24:12.511756 19747 net.cpp:141] Setting up inception_4b/relu_3x3_reduce
I0403 19:24:12.511785 19747 net.cpp:148] Top shape: 24 112 14 14 (526848)
I0403 19:24:12.511801 19747 net.cpp:156] Memory required for data: 956439840
I0403 19:24:12.511816 19747 layer_factory.hpp:77] Creating layer inception_4b/3x3
I0403 19:24:12.511837 19747 net.cpp:91] Creating Layer inception_4b/3x3
I0403 19:24:12.511855 19747 net.cpp:425] inception_4b/3x3 <- inception_4b/3x3_reduce
I0403 19:24:12.511874 19747 net.cpp:399] inception_4b/3x3 -> inception_4b/3x3
I0403 19:24:12.514878 19747 net.cpp:141] Setting up inception_4b/3x3
I0403 19:24:12.514907 19747 net.cpp:148] Top shape: 24 224 14 14 (1053696)
I0403 19:24:12.514924 19747 net.cpp:156] Memory required for data: 960654624
I0403 19:24:12.514940 19747 layer_factory.hpp:77] Creating layer inception_4b/relu_3x3
I0403 19:24:12.514966 19747 net.cpp:91] Creating Layer inception_4b/relu_3x3
I0403 19:24:12.514984 19747 net.cpp:425] inception_4b/relu_3x3 <- inception_4b/3x3
I0403 19:24:12.515002 19747 net.cpp:386] inception_4b/relu_3x3 -> inception_4b/3x3 (in-place)
I0403 19:24:12.515179 19747 net.cpp:141] Setting up inception_4b/relu_3x3
I0403 19:24:12.515207 19747 net.cpp:148] Top shape: 24 224 14 14 (1053696)
I0403 19:24:12.515221 19747 net.cpp:156] Memory required for data: 964869408
I0403 19:24:12.515236 19747 layer_factory.hpp:77] Creating layer inception_4b/5x5_reduce
I0403 19:24:12.515260 19747 net.cpp:91] Creating Layer inception_4b/5x5_reduce
I0403 19:24:12.515278 19747 net.cpp:425] inception_4b/5x5_reduce <- inception_4a/output_inception_4a/output_0_split_3
I0403 19:24:12.515297 19747 net.cpp:399] inception_4b/5x5_reduce -> inception_4b/5x5_reduce
I0403 19:24:12.516371 19747 net.cpp:141] Setting up inception_4b/5x5_reduce
I0403 19:24:12.516401 19747 net.cpp:148] Top shape: 24 24 14 14 (112896)
I0403 19:24:12.516417 19747 net.cpp:156] Memory required for data: 965320992
I0403 19:24:12.516435 19747 layer_factory.hpp:77] Creating layer inception_4b/relu_5x5_reduce
I0403 19:24:12.516453 19747 net.cpp:91] Creating Layer inception_4b/relu_5x5_reduce
I0403 19:24:12.516484 19747 net.cpp:425] inception_4b/relu_5x5_reduce <- inception_4b/5x5_reduce
I0403 19:24:12.516505 19747 net.cpp:386] inception_4b/relu_5x5_reduce -> inception_4b/5x5_reduce (in-place)
I0403 19:24:12.516686 19747 net.cpp:141] Setting up inception_4b/relu_5x5_reduce
I0403 19:24:12.516713 19747 net.cpp:148] Top shape: 24 24 14 14 (112896)
I0403 19:24:12.516728 19747 net.cpp:156] Memory required for data: 965772576
I0403 19:24:12.516743 19747 layer_factory.hpp:77] Creating layer inception_4b/5x5
I0403 19:24:12.516765 19747 net.cpp:91] Creating Layer inception_4b/5x5
I0403 19:24:12.516783 19747 net.cpp:425] inception_4b/5x5 <- inception_4b/5x5_reduce
I0403 19:24:12.516804 19747 net.cpp:399] inception_4b/5x5 -> inception_4b/5x5
I0403 19:24:12.518049 19747 net.cpp:141] Setting up inception_4b/5x5
I0403 19:24:12.518079 19747 net.cpp:148] Top shape: 24 64 14 14 (301056)
I0403 19:24:12.518098 19747 net.cpp:156] Memory required for data: 966976800
I0403 19:24:12.518116 19747 layer_factory.hpp:77] Creating layer inception_4b/relu_5x5
I0403 19:24:12.518136 19747 net.cpp:91] Creating Layer inception_4b/relu_5x5
I0403 19:24:12.518151 19747 net.cpp:425] inception_4b/relu_5x5 <- inception_4b/5x5
I0403 19:24:12.518169 19747 net.cpp:386] inception_4b/relu_5x5 -> inception_4b/5x5 (in-place)
I0403 19:24:12.518473 19747 net.cpp:141] Setting up inception_4b/relu_5x5
I0403 19:24:12.518501 19747 net.cpp:148] Top shape: 24 64 14 14 (301056)
I0403 19:24:12.518519 19747 net.cpp:156] Memory required for data: 968181024
I0403 19:24:12.518535 19747 layer_factory.hpp:77] Creating layer inception_4b/pool
I0403 19:24:12.518553 19747 net.cpp:91] Creating Layer inception_4b/pool
I0403 19:24:12.518569 19747 net.cpp:425] inception_4b/pool <- inception_4a/output_inception_4a/output_0_split_4
I0403 19:24:12.518587 19747 net.cpp:399] inception_4b/pool -> inception_4b/pool
I0403 19:24:12.518654 19747 net.cpp:141] Setting up inception_4b/pool
I0403 19:24:12.518679 19747 net.cpp:148] Top shape: 24 512 14 14 (2408448)
I0403 19:24:12.518693 19747 net.cpp:156] Memory required for data: 977814816
I0403 19:24:12.518708 19747 layer_factory.hpp:77] Creating layer inception_4b/pool_proj
I0403 19:24:12.518731 19747 net.cpp:91] Creating Layer inception_4b/pool_proj
I0403 19:24:12.518749 19747 net.cpp:425] inception_4b/pool_proj <- inception_4b/pool
I0403 19:24:12.518770 19747 net.cpp:399] inception_4b/pool_proj -> inception_4b/pool_proj
I0403 19:24:12.520011 19747 net.cpp:141] Setting up inception_4b/pool_proj
I0403 19:24:12.520043 19747 net.cpp:148] Top shape: 24 64 14 14 (301056)
I0403 19:24:12.520061 19747 net.cpp:156] Memory required for data: 979019040
I0403 19:24:12.520079 19747 layer_factory.hpp:77] Creating layer inception_4b/relu_pool_proj
I0403 19:24:12.520098 19747 net.cpp:91] Creating Layer inception_4b/relu_pool_proj
I0403 19:24:12.520114 19747 net.cpp:425] inception_4b/relu_pool_proj <- inception_4b/pool_proj
I0403 19:24:12.520131 19747 net.cpp:386] inception_4b/relu_pool_proj -> inception_4b/pool_proj (in-place)
I0403 19:24:12.520319 19747 net.cpp:141] Setting up inception_4b/relu_pool_proj
I0403 19:24:12.520345 19747 net.cpp:148] Top shape: 24 64 14 14 (301056)
I0403 19:24:12.520359 19747 net.cpp:156] Memory required for data: 980223264
I0403 19:24:12.520375 19747 layer_factory.hpp:77] Creating layer inception_4b/output
I0403 19:24:12.520392 19747 net.cpp:91] Creating Layer inception_4b/output
I0403 19:24:12.520408 19747 net.cpp:425] inception_4b/output <- inception_4b/1x1
I0403 19:24:12.520426 19747 net.cpp:425] inception_4b/output <- inception_4b/3x3
I0403 19:24:12.520442 19747 net.cpp:425] inception_4b/output <- inception_4b/5x5
I0403 19:24:12.520458 19747 net.cpp:425] inception_4b/output <- inception_4b/pool_proj
I0403 19:24:12.520478 19747 net.cpp:399] inception_4b/output -> inception_4b/output
I0403 19:24:12.520525 19747 net.cpp:141] Setting up inception_4b/output
I0403 19:24:12.520552 19747 net.cpp:148] Top shape: 24 512 14 14 (2408448)
I0403 19:24:12.520568 19747 net.cpp:156] Memory required for data: 989857056
I0403 19:24:12.520598 19747 layer_factory.hpp:77] Creating layer inception_4b/output_inception_4b/output_0_split
I0403 19:24:12.520617 19747 net.cpp:91] Creating Layer inception_4b/output_inception_4b/output_0_split
I0403 19:24:12.520632 19747 net.cpp:425] inception_4b/output_inception_4b/output_0_split <- inception_4b/output
I0403 19:24:12.520650 19747 net.cpp:399] inception_4b/output_inception_4b/output_0_split -> inception_4b/output_inception_4b/output_0_split_0
I0403 19:24:12.520674 19747 net.cpp:399] inception_4b/output_inception_4b/output_0_split -> inception_4b/output_inception_4b/output_0_split_1
I0403 19:24:12.520695 19747 net.cpp:399] inception_4b/output_inception_4b/output_0_split -> inception_4b/output_inception_4b/output_0_split_2
I0403 19:24:12.520715 19747 net.cpp:399] inception_4b/output_inception_4b/output_0_split -> inception_4b/output_inception_4b/output_0_split_3
I0403 19:24:12.520799 19747 net.cpp:141] Setting up inception_4b/output_inception_4b/output_0_split
I0403 19:24:12.520823 19747 net.cpp:148] Top shape: 24 512 14 14 (2408448)
I0403 19:24:12.520839 19747 net.cpp:148] Top shape: 24 512 14 14 (2408448)
I0403 19:24:12.520855 19747 net.cpp:148] Top shape: 24 512 14 14 (2408448)
I0403 19:24:12.520871 19747 net.cpp:148] Top shape: 24 512 14 14 (2408448)
I0403 19:24:12.520885 19747 net.cpp:156] Memory required for data: 1028392224
I0403 19:24:12.520900 19747 layer_factory.hpp:77] Creating layer inception_4c/1x1
I0403 19:24:12.520925 19747 net.cpp:91] Creating Layer inception_4c/1x1
I0403 19:24:12.520944 19747 net.cpp:425] inception_4c/1x1 <- inception_4b/output_inception_4b/output_0_split_0
I0403 19:24:12.520972 19747 net.cpp:399] inception_4c/1x1 -> inception_4c/1x1
I0403 19:24:12.522439 19747 net.cpp:141] Setting up inception_4c/1x1
I0403 19:24:12.522469 19747 net.cpp:148] Top shape: 24 128 14 14 (602112)
I0403 19:24:12.522485 19747 net.cpp:156] Memory required for data: 1030800672
I0403 19:24:12.522503 19747 layer_factory.hpp:77] Creating layer inception_4c/relu_1x1
I0403 19:24:12.522523 19747 net.cpp:91] Creating Layer inception_4c/relu_1x1
I0403 19:24:12.522541 19747 net.cpp:425] inception_4c/relu_1x1 <- inception_4c/1x1
I0403 19:24:12.522559 19747 net.cpp:386] inception_4c/relu_1x1 -> inception_4c/1x1 (in-place)
I0403 19:24:12.522747 19747 net.cpp:141] Setting up inception_4c/relu_1x1
I0403 19:24:12.522773 19747 net.cpp:148] Top shape: 24 128 14 14 (602112)
I0403 19:24:12.522788 19747 net.cpp:156] Memory required for data: 1033209120
I0403 19:24:12.522801 19747 layer_factory.hpp:77] Creating layer inception_4c/3x3_reduce
I0403 19:24:12.522824 19747 net.cpp:91] Creating Layer inception_4c/3x3_reduce
I0403 19:24:12.522842 19747 net.cpp:425] inception_4c/3x3_reduce <- inception_4b/output_inception_4b/output_0_split_1
I0403 19:24:12.522864 19747 net.cpp:399] inception_4c/3x3_reduce -> inception_4c/3x3_reduce
I0403 19:24:12.524849 19747 net.cpp:141] Setting up inception_4c/3x3_reduce
I0403 19:24:12.524879 19747 net.cpp:148] Top shape: 24 128 14 14 (602112)
I0403 19:24:12.524895 19747 net.cpp:156] Memory required for data: 1035617568
I0403 19:24:12.524914 19747 layer_factory.hpp:77] Creating layer inception_4c/relu_3x3_reduce
I0403 19:24:12.524935 19747 net.cpp:91] Creating Layer inception_4c/relu_3x3_reduce
I0403 19:24:12.524957 19747 net.cpp:425] inception_4c/relu_3x3_reduce <- inception_4c/3x3_reduce
I0403 19:24:12.524976 19747 net.cpp:386] inception_4c/relu_3x3_reduce -> inception_4c/3x3_reduce (in-place)
I0403 19:24:12.525269 19747 net.cpp:141] Setting up inception_4c/relu_3x3_reduce
I0403 19:24:12.525296 19747 net.cpp:148] Top shape: 24 128 14 14 (602112)
I0403 19:24:12.525311 19747 net.cpp:156] Memory required for data: 1038026016
I0403 19:24:12.525326 19747 layer_factory.hpp:77] Creating layer inception_4c/3x3
I0403 19:24:12.525352 19747 net.cpp:91] Creating Layer inception_4c/3x3
I0403 19:24:12.525372 19747 net.cpp:425] inception_4c/3x3 <- inception_4c/3x3_reduce
I0403 19:24:12.525390 19747 net.cpp:399] inception_4c/3x3 -> inception_4c/3x3
I0403 19:24:12.529139 19747 net.cpp:141] Setting up inception_4c/3x3
I0403 19:24:12.529183 19747 net.cpp:148] Top shape: 24 256 14 14 (1204224)
I0403 19:24:12.529202 19747 net.cpp:156] Memory required for data: 1042842912
I0403 19:24:12.529233 19747 layer_factory.hpp:77] Creating layer inception_4c/relu_3x3
I0403 19:24:12.529255 19747 net.cpp:91] Creating Layer inception_4c/relu_3x3
I0403 19:24:12.529273 19747 net.cpp:425] inception_4c/relu_3x3 <- inception_4c/3x3
I0403 19:24:12.529289 19747 net.cpp:386] inception_4c/relu_3x3 -> inception_4c/3x3 (in-place)
I0403 19:24:12.529481 19747 net.cpp:141] Setting up inception_4c/relu_3x3
I0403 19:24:12.529510 19747 net.cpp:148] Top shape: 24 256 14 14 (1204224)
I0403 19:24:12.529525 19747 net.cpp:156] Memory required for data: 1047659808
I0403 19:24:12.529541 19747 layer_factory.hpp:77] Creating layer inception_4c/5x5_reduce
I0403 19:24:12.529564 19747 net.cpp:91] Creating Layer inception_4c/5x5_reduce
I0403 19:24:12.529582 19747 net.cpp:425] inception_4c/5x5_reduce <- inception_4b/output_inception_4b/output_0_split_2
I0403 19:24:12.529603 19747 net.cpp:399] inception_4c/5x5_reduce -> inception_4c/5x5_reduce
I0403 19:24:12.530715 19747 net.cpp:141] Setting up inception_4c/5x5_reduce
I0403 19:24:12.530745 19747 net.cpp:148] Top shape: 24 24 14 14 (112896)
I0403 19:24:12.530761 19747 net.cpp:156] Memory required for data: 1048111392
I0403 19:24:12.530778 19747 layer_factory.hpp:77] Creating layer inception_4c/relu_5x5_reduce
I0403 19:24:12.530799 19747 net.cpp:91] Creating Layer inception_4c/relu_5x5_reduce
I0403 19:24:12.530817 19747 net.cpp:425] inception_4c/relu_5x5_reduce <- inception_4c/5x5_reduce
I0403 19:24:12.530834 19747 net.cpp:386] inception_4c/relu_5x5_reduce -> inception_4c/5x5_reduce (in-place)
I0403 19:24:12.531034 19747 net.cpp:141] Setting up inception_4c/relu_5x5_reduce
I0403 19:24:12.531059 19747 net.cpp:148] Top shape: 24 24 14 14 (112896)
I0403 19:24:12.531075 19747 net.cpp:156] Memory required for data: 1048562976
I0403 19:24:12.531090 19747 layer_factory.hpp:77] Creating layer inception_4c/5x5
I0403 19:24:12.531111 19747 net.cpp:91] Creating Layer inception_4c/5x5
I0403 19:24:12.531129 19747 net.cpp:425] inception_4c/5x5 <- inception_4c/5x5_reduce
I0403 19:24:12.531150 19747 net.cpp:399] inception_4c/5x5 -> inception_4c/5x5
I0403 19:24:12.532424 19747 net.cpp:141] Setting up inception_4c/5x5
I0403 19:24:12.532452 19747 net.cpp:148] Top shape: 24 64 14 14 (301056)
I0403 19:24:12.532469 19747 net.cpp:156] Memory required for data: 1049767200
I0403 19:24:12.532487 19747 layer_factory.hpp:77] Creating layer inception_4c/relu_5x5
I0403 19:24:12.532506 19747 net.cpp:91] Creating Layer inception_4c/relu_5x5
I0403 19:24:12.532523 19747 net.cpp:425] inception_4c/relu_5x5 <- inception_4c/5x5
I0403 19:24:12.532543 19747 net.cpp:386] inception_4c/relu_5x5 -> inception_4c/5x5 (in-place)
I0403 19:24:12.532840 19747 net.cpp:141] Setting up inception_4c/relu_5x5
I0403 19:24:12.532867 19747 net.cpp:148] Top shape: 24 64 14 14 (301056)
I0403 19:24:12.532882 19747 net.cpp:156] Memory required for data: 1050971424
I0403 19:24:12.532897 19747 layer_factory.hpp:77] Creating layer inception_4c/pool
I0403 19:24:12.532915 19747 net.cpp:91] Creating Layer inception_4c/pool
I0403 19:24:12.532932 19747 net.cpp:425] inception_4c/pool <- inception_4b/output_inception_4b/output_0_split_3
I0403 19:24:12.532958 19747 net.cpp:399] inception_4c/pool -> inception_4c/pool
I0403 19:24:12.533026 19747 net.cpp:141] Setting up inception_4c/pool
I0403 19:24:12.533053 19747 net.cpp:148] Top shape: 24 512 14 14 (2408448)
I0403 19:24:12.533069 19747 net.cpp:156] Memory required for data: 1060605216
I0403 19:24:12.533084 19747 layer_factory.hpp:77] Creating layer inception_4c/pool_proj
I0403 19:24:12.533107 19747 net.cpp:91] Creating Layer inception_4c/pool_proj
I0403 19:24:12.533125 19747 net.cpp:425] inception_4c/pool_proj <- inception_4c/pool
I0403 19:24:12.533144 19747 net.cpp:399] inception_4c/pool_proj -> inception_4c/pool_proj
I0403 19:24:12.534394 19747 net.cpp:141] Setting up inception_4c/pool_proj
I0403 19:24:12.534426 19747 net.cpp:148] Top shape: 24 64 14 14 (301056)
I0403 19:24:12.534457 19747 net.cpp:156] Memory required for data: 1061809440
I0403 19:24:12.534477 19747 layer_factory.hpp:77] Creating layer inception_4c/relu_pool_proj
I0403 19:24:12.534495 19747 net.cpp:91] Creating Layer inception_4c/relu_pool_proj
I0403 19:24:12.534512 19747 net.cpp:425] inception_4c/relu_pool_proj <- inception_4c/pool_proj
I0403 19:24:12.534530 19747 net.cpp:386] inception_4c/relu_pool_proj -> inception_4c/pool_proj (in-place)
I0403 19:24:12.534719 19747 net.cpp:141] Setting up inception_4c/relu_pool_proj
I0403 19:24:12.534746 19747 net.cpp:148] Top shape: 24 64 14 14 (301056)
I0403 19:24:12.534762 19747 net.cpp:156] Memory required for data: 1063013664
I0403 19:24:12.534777 19747 layer_factory.hpp:77] Creating layer inception_4c/output
I0403 19:24:12.534796 19747 net.cpp:91] Creating Layer inception_4c/output
I0403 19:24:12.534812 19747 net.cpp:425] inception_4c/output <- inception_4c/1x1
I0403 19:24:12.534828 19747 net.cpp:425] inception_4c/output <- inception_4c/3x3
I0403 19:24:12.534844 19747 net.cpp:425] inception_4c/output <- inception_4c/5x5
I0403 19:24:12.534862 19747 net.cpp:425] inception_4c/output <- inception_4c/pool_proj
I0403 19:24:12.534880 19747 net.cpp:399] inception_4c/output -> inception_4c/output
I0403 19:24:12.534929 19747 net.cpp:141] Setting up inception_4c/output
I0403 19:24:12.534957 19747 net.cpp:148] Top shape: 24 512 14 14 (2408448)
I0403 19:24:12.534973 19747 net.cpp:156] Memory required for data: 1072647456
I0403 19:24:12.534988 19747 layer_factory.hpp:77] Creating layer inception_4c/output_inception_4c/output_0_split
I0403 19:24:12.535008 19747 net.cpp:91] Creating Layer inception_4c/output_inception_4c/output_0_split
I0403 19:24:12.535025 19747 net.cpp:425] inception_4c/output_inception_4c/output_0_split <- inception_4c/output
I0403 19:24:12.535043 19747 net.cpp:399] inception_4c/output_inception_4c/output_0_split -> inception_4c/output_inception_4c/output_0_split_0
I0403 19:24:12.535066 19747 net.cpp:399] inception_4c/output_inception_4c/output_0_split -> inception_4c/output_inception_4c/output_0_split_1
I0403 19:24:12.535087 19747 net.cpp:399] inception_4c/output_inception_4c/output_0_split -> inception_4c/output_inception_4c/output_0_split_2
I0403 19:24:12.535109 19747 net.cpp:399] inception_4c/output_inception_4c/output_0_split -> inception_4c/output_inception_4c/output_0_split_3
I0403 19:24:12.535197 19747 net.cpp:141] Setting up inception_4c/output_inception_4c/output_0_split
I0403 19:24:12.535220 19747 net.cpp:148] Top shape: 24 512 14 14 (2408448)
I0403 19:24:12.535238 19747 net.cpp:148] Top shape: 24 512 14 14 (2408448)
I0403 19:24:12.535254 19747 net.cpp:148] Top shape: 24 512 14 14 (2408448)
I0403 19:24:12.535270 19747 net.cpp:148] Top shape: 24 512 14 14 (2408448)
I0403 19:24:12.535284 19747 net.cpp:156] Memory required for data: 1111182624
I0403 19:24:12.535300 19747 layer_factory.hpp:77] Creating layer inception_4d/1x1
I0403 19:24:12.535322 19747 net.cpp:91] Creating Layer inception_4d/1x1
I0403 19:24:12.535341 19747 net.cpp:425] inception_4d/1x1 <- inception_4c/output_inception_4c/output_0_split_0
I0403 19:24:12.535362 19747 net.cpp:399] inception_4d/1x1 -> inception_4d/1x1
I0403 19:24:12.536787 19747 net.cpp:141] Setting up inception_4d/1x1
I0403 19:24:12.536813 19747 net.cpp:148] Top shape: 24 112 14 14 (526848)
I0403 19:24:12.536829 19747 net.cpp:156] Memory required for data: 1113290016
I0403 19:24:12.536849 19747 layer_factory.hpp:77] Creating layer inception_4d/relu_1x1
I0403 19:24:12.536869 19747 net.cpp:91] Creating Layer inception_4d/relu_1x1
I0403 19:24:12.536886 19747 net.cpp:425] inception_4d/relu_1x1 <- inception_4d/1x1
I0403 19:24:12.536903 19747 net.cpp:386] inception_4d/relu_1x1 -> inception_4d/1x1 (in-place)
I0403 19:24:12.537094 19747 net.cpp:141] Setting up inception_4d/relu_1x1
I0403 19:24:12.537119 19747 net.cpp:148] Top shape: 24 112 14 14 (526848)
I0403 19:24:12.537133 19747 net.cpp:156] Memory required for data: 1115397408
I0403 19:24:12.537148 19747 layer_factory.hpp:77] Creating layer inception_4d/3x3_reduce
I0403 19:24:12.537185 19747 net.cpp:91] Creating Layer inception_4d/3x3_reduce
I0403 19:24:12.537205 19747 net.cpp:425] inception_4d/3x3_reduce <- inception_4c/output_inception_4c/output_0_split_1
I0403 19:24:12.537225 19747 net.cpp:399] inception_4d/3x3_reduce -> inception_4d/3x3_reduce
I0403 19:24:12.538725 19747 net.cpp:141] Setting up inception_4d/3x3_reduce
I0403 19:24:12.538753 19747 net.cpp:148] Top shape: 24 144 14 14 (677376)
I0403 19:24:12.538769 19747 net.cpp:156] Memory required for data: 1118106912
I0403 19:24:12.538789 19747 layer_factory.hpp:77] Creating layer inception_4d/relu_3x3_reduce
I0403 19:24:12.538806 19747 net.cpp:91] Creating Layer inception_4d/relu_3x3_reduce
I0403 19:24:12.538821 19747 net.cpp:425] inception_4d/relu_3x3_reduce <- inception_4d/3x3_reduce
I0403 19:24:12.538841 19747 net.cpp:386] inception_4d/relu_3x3_reduce -> inception_4d/3x3_reduce (in-place)
I0403 19:24:12.539144 19747 net.cpp:141] Setting up inception_4d/relu_3x3_reduce
I0403 19:24:12.539170 19747 net.cpp:148] Top shape: 24 144 14 14 (677376)
I0403 19:24:12.539186 19747 net.cpp:156] Memory required for data: 1120816416
I0403 19:24:12.539202 19747 layer_factory.hpp:77] Creating layer inception_4d/3x3
I0403 19:24:12.539225 19747 net.cpp:91] Creating Layer inception_4d/3x3
I0403 19:24:12.539243 19747 net.cpp:425] inception_4d/3x3 <- inception_4d/3x3_reduce
I0403 19:24:12.539263 19747 net.cpp:399] inception_4d/3x3 -> inception_4d/3x3
I0403 19:24:12.543496 19747 net.cpp:141] Setting up inception_4d/3x3
I0403 19:24:12.543524 19747 net.cpp:148] Top shape: 24 288 14 14 (1354752)
I0403 19:24:12.543540 19747 net.cpp:156] Memory required for data: 1126235424
I0403 19:24:12.543558 19747 layer_factory.hpp:77] Creating layer inception_4d/relu_3x3
I0403 19:24:12.543579 19747 net.cpp:91] Creating Layer inception_4d/relu_3x3
I0403 19:24:12.543596 19747 net.cpp:425] inception_4d/relu_3x3 <- inception_4d/3x3
I0403 19:24:12.543613 19747 net.cpp:386] inception_4d/relu_3x3 -> inception_4d/3x3 (in-place)
I0403 19:24:12.543797 19747 net.cpp:141] Setting up inception_4d/relu_3x3
I0403 19:24:12.543824 19747 net.cpp:148] Top shape: 24 288 14 14 (1354752)
I0403 19:24:12.543840 19747 net.cpp:156] Memory required for data: 1131654432
I0403 19:24:12.543856 19747 layer_factory.hpp:77] Creating layer inception_4d/5x5_reduce
I0403 19:24:12.543877 19747 net.cpp:91] Creating Layer inception_4d/5x5_reduce
I0403 19:24:12.543895 19747 net.cpp:425] inception_4d/5x5_reduce <- inception_4c/output_inception_4c/output_0_split_2
I0403 19:24:12.543915 19747 net.cpp:399] inception_4d/5x5_reduce -> inception_4d/5x5_reduce
I0403 19:24:12.545068 19747 net.cpp:141] Setting up inception_4d/5x5_reduce
I0403 19:24:12.545097 19747 net.cpp:148] Top shape: 24 32 14 14 (150528)
I0403 19:24:12.545114 19747 net.cpp:156] Memory required for data: 1132256544
I0403 19:24:12.545131 19747 layer_factory.hpp:77] Creating layer inception_4d/relu_5x5_reduce
I0403 19:24:12.545151 19747 net.cpp:91] Creating Layer inception_4d/relu_5x5_reduce
I0403 19:24:12.545169 19747 net.cpp:425] inception_4d/relu_5x5_reduce <- inception_4d/5x5_reduce
I0403 19:24:12.545186 19747 net.cpp:386] inception_4d/relu_5x5_reduce -> inception_4d/5x5_reduce (in-place)
I0403 19:24:12.545374 19747 net.cpp:141] Setting up inception_4d/relu_5x5_reduce
I0403 19:24:12.545402 19747 net.cpp:148] Top shape: 24 32 14 14 (150528)
I0403 19:24:12.545416 19747 net.cpp:156] Memory required for data: 1132858656
I0403 19:24:12.545431 19747 layer_factory.hpp:77] Creating layer inception_4d/5x5
I0403 19:24:12.545454 19747 net.cpp:91] Creating Layer inception_4d/5x5
I0403 19:24:12.545472 19747 net.cpp:425] inception_4d/5x5 <- inception_4d/5x5_reduce
I0403 19:24:12.545490 19747 net.cpp:399] inception_4d/5x5 -> inception_4d/5x5
I0403 19:24:12.546957 19747 net.cpp:141] Setting up inception_4d/5x5
I0403 19:24:12.546986 19747 net.cpp:148] Top shape: 24 64 14 14 (301056)
I0403 19:24:12.547003 19747 net.cpp:156] Memory required for data: 1134062880
I0403 19:24:12.547022 19747 layer_factory.hpp:77] Creating layer inception_4d/relu_5x5
I0403 19:24:12.547055 19747 net.cpp:91] Creating Layer inception_4d/relu_5x5
I0403 19:24:12.547071 19747 net.cpp:425] inception_4d/relu_5x5 <- inception_4d/5x5
I0403 19:24:12.547091 19747 net.cpp:386] inception_4d/relu_5x5 -> inception_4d/5x5 (in-place)
I0403 19:24:12.547389 19747 net.cpp:141] Setting up inception_4d/relu_5x5
I0403 19:24:12.547417 19747 net.cpp:148] Top shape: 24 64 14 14 (301056)
I0403 19:24:12.547433 19747 net.cpp:156] Memory required for data: 1135267104
I0403 19:24:12.547448 19747 layer_factory.hpp:77] Creating layer inception_4d/pool
I0403 19:24:12.547466 19747 net.cpp:91] Creating Layer inception_4d/pool
I0403 19:24:12.547482 19747 net.cpp:425] inception_4d/pool <- inception_4c/output_inception_4c/output_0_split_3
I0403 19:24:12.547502 19747 net.cpp:399] inception_4d/pool -> inception_4d/pool
I0403 19:24:12.547569 19747 net.cpp:141] Setting up inception_4d/pool
I0403 19:24:12.547592 19747 net.cpp:148] Top shape: 24 512 14 14 (2408448)
I0403 19:24:12.547607 19747 net.cpp:156] Memory required for data: 1144900896
I0403 19:24:12.547621 19747 layer_factory.hpp:77] Creating layer inception_4d/pool_proj
I0403 19:24:12.547643 19747 net.cpp:91] Creating Layer inception_4d/pool_proj
I0403 19:24:12.547660 19747 net.cpp:425] inception_4d/pool_proj <- inception_4d/pool
I0403 19:24:12.547680 19747 net.cpp:399] inception_4d/pool_proj -> inception_4d/pool_proj
I0403 19:24:12.549443 19747 net.cpp:141] Setting up inception_4d/pool_proj
I0403 19:24:12.549471 19747 net.cpp:148] Top shape: 24 64 14 14 (301056)
I0403 19:24:12.549487 19747 net.cpp:156] Memory required for data: 1146105120
I0403 19:24:12.549505 19747 layer_factory.hpp:77] Creating layer inception_4d/relu_pool_proj
I0403 19:24:12.549525 19747 net.cpp:91] Creating Layer inception_4d/relu_pool_proj
I0403 19:24:12.549543 19747 net.cpp:425] inception_4d/relu_pool_proj <- inception_4d/pool_proj
I0403 19:24:12.549561 19747 net.cpp:386] inception_4d/relu_pool_proj -> inception_4d/pool_proj (in-place)
I0403 19:24:12.549741 19747 net.cpp:141] Setting up inception_4d/relu_pool_proj
I0403 19:24:12.549769 19747 net.cpp:148] Top shape: 24 64 14 14 (301056)
I0403 19:24:12.549784 19747 net.cpp:156] Memory required for data: 1147309344
I0403 19:24:12.549799 19747 layer_factory.hpp:77] Creating layer inception_4d/output
I0403 19:24:12.549816 19747 net.cpp:91] Creating Layer inception_4d/output
I0403 19:24:12.549832 19747 net.cpp:425] inception_4d/output <- inception_4d/1x1
I0403 19:24:12.549849 19747 net.cpp:425] inception_4d/output <- inception_4d/3x3
I0403 19:24:12.549865 19747 net.cpp:425] inception_4d/output <- inception_4d/5x5
I0403 19:24:12.549880 19747 net.cpp:425] inception_4d/output <- inception_4d/pool_proj
I0403 19:24:12.549896 19747 net.cpp:399] inception_4d/output -> inception_4d/output
I0403 19:24:12.549949 19747 net.cpp:141] Setting up inception_4d/output
I0403 19:24:12.549973 19747 net.cpp:148] Top shape: 24 528 14 14 (2483712)
I0403 19:24:12.549988 19747 net.cpp:156] Memory required for data: 1157244192
I0403 19:24:12.550003 19747 layer_factory.hpp:77] Creating layer inception_4d/output_inception_4d/output_0_split
I0403 19:24:12.550022 19747 net.cpp:91] Creating Layer inception_4d/output_inception_4d/output_0_split
I0403 19:24:12.550040 19747 net.cpp:425] inception_4d/output_inception_4d/output_0_split <- inception_4d/output
I0403 19:24:12.550057 19747 net.cpp:399] inception_4d/output_inception_4d/output_0_split -> inception_4d/output_inception_4d/output_0_split_0
I0403 19:24:12.550077 19747 net.cpp:399] inception_4d/output_inception_4d/output_0_split -> inception_4d/output_inception_4d/output_0_split_1
I0403 19:24:12.550097 19747 net.cpp:399] inception_4d/output_inception_4d/output_0_split -> inception_4d/output_inception_4d/output_0_split_2
I0403 19:24:12.550120 19747 net.cpp:399] inception_4d/output_inception_4d/output_0_split -> inception_4d/output_inception_4d/output_0_split_3
I0403 19:24:12.550142 19747 net.cpp:399] inception_4d/output_inception_4d/output_0_split -> inception_4d/output_inception_4d/output_0_split_4
I0403 19:24:12.550245 19747 net.cpp:141] Setting up inception_4d/output_inception_4d/output_0_split
I0403 19:24:12.550279 19747 net.cpp:148] Top shape: 24 528 14 14 (2483712)
I0403 19:24:12.550295 19747 net.cpp:148] Top shape: 24 528 14 14 (2483712)
I0403 19:24:12.550312 19747 net.cpp:148] Top shape: 24 528 14 14 (2483712)
I0403 19:24:12.550325 19747 net.cpp:148] Top shape: 24 528 14 14 (2483712)
I0403 19:24:12.550340 19747 net.cpp:148] Top shape: 24 528 14 14 (2483712)
I0403 19:24:12.550354 19747 net.cpp:156] Memory required for data: 1206918432
I0403 19:24:12.550369 19747 layer_factory.hpp:77] Creating layer loss2/ave_pool
I0403 19:24:12.550389 19747 net.cpp:91] Creating Layer loss2/ave_pool
I0403 19:24:12.550405 19747 net.cpp:425] loss2/ave_pool <- inception_4d/output_inception_4d/output_0_split_0
I0403 19:24:12.550423 19747 net.cpp:399] loss2/ave_pool -> loss2/ave_pool
I0403 19:24:12.550740 19747 net.cpp:141] Setting up loss2/ave_pool
I0403 19:24:12.550766 19747 net.cpp:148] Top shape: 24 528 4 4 (202752)
I0403 19:24:12.550781 19747 net.cpp:156] Memory required for data: 1207729440
I0403 19:24:12.550796 19747 layer_factory.hpp:77] Creating layer loss2/conv
I0403 19:24:12.550818 19747 net.cpp:91] Creating Layer loss2/conv
I0403 19:24:12.550837 19747 net.cpp:425] loss2/conv <- loss2/ave_pool
I0403 19:24:12.550858 19747 net.cpp:399] loss2/conv -> loss2/conv
I0403 19:24:12.552736 19747 net.cpp:141] Setting up loss2/conv
I0403 19:24:12.552765 19747 net.cpp:148] Top shape: 24 128 4 4 (49152)
I0403 19:24:12.552781 19747 net.cpp:156] Memory required for data: 1207926048
I0403 19:24:12.552801 19747 layer_factory.hpp:77] Creating layer loss2/relu_conv
I0403 19:24:12.552819 19747 net.cpp:91] Creating Layer loss2/relu_conv
I0403 19:24:12.552835 19747 net.cpp:425] loss2/relu_conv <- loss2/conv
I0403 19:24:12.552855 19747 net.cpp:386] loss2/relu_conv -> loss2/conv (in-place)
I0403 19:24:12.553143 19747 net.cpp:141] Setting up loss2/relu_conv
I0403 19:24:12.553170 19747 net.cpp:148] Top shape: 24 128 4 4 (49152)
I0403 19:24:12.553184 19747 net.cpp:156] Memory required for data: 1208122656
I0403 19:24:12.553201 19747 layer_factory.hpp:77] Creating layer loss2/fc
I0403 19:24:12.553220 19747 net.cpp:91] Creating Layer loss2/fc
I0403 19:24:12.553236 19747 net.cpp:425] loss2/fc <- loss2/conv
I0403 19:24:12.553256 19747 net.cpp:399] loss2/fc -> loss2/fc
I0403 19:24:12.571370 19747 net.cpp:141] Setting up loss2/fc
I0403 19:24:12.571411 19747 net.cpp:148] Top shape: 24 1024 (24576)
I0403 19:24:12.571429 19747 net.cpp:156] Memory required for data: 1208220960
I0403 19:24:12.571447 19747 layer_factory.hpp:77] Creating layer loss2/relu_fc
I0403 19:24:12.571466 19747 net.cpp:91] Creating Layer loss2/relu_fc
I0403 19:24:12.571483 19747 net.cpp:425] loss2/relu_fc <- loss2/fc
I0403 19:24:12.571501 19747 net.cpp:386] loss2/relu_fc -> loss2/fc (in-place)
I0403 19:24:12.571810 19747 net.cpp:141] Setting up loss2/relu_fc
I0403 19:24:12.571837 19747 net.cpp:148] Top shape: 24 1024 (24576)
I0403 19:24:12.571856 19747 net.cpp:156] Memory required for data: 1208319264
I0403 19:24:12.571872 19747 layer_factory.hpp:77] Creating layer loss2/drop_fc
I0403 19:24:12.571890 19747 net.cpp:91] Creating Layer loss2/drop_fc
I0403 19:24:12.571907 19747 net.cpp:425] loss2/drop_fc <- loss2/fc
I0403 19:24:12.571925 19747 net.cpp:386] loss2/drop_fc -> loss2/fc (in-place)
I0403 19:24:12.571993 19747 net.cpp:141] Setting up loss2/drop_fc
I0403 19:24:12.572017 19747 net.cpp:148] Top shape: 24 1024 (24576)
I0403 19:24:12.572032 19747 net.cpp:156] Memory required for data: 1208417568
I0403 19:24:12.572046 19747 layer_factory.hpp:77] Creating layer loss2/classifier_plantvillage
I0403 19:24:12.572067 19747 net.cpp:91] Creating Layer loss2/classifier_plantvillage
I0403 19:24:12.572085 19747 net.cpp:425] loss2/classifier_plantvillage <- loss2/fc
I0403 19:24:12.572103 19747 net.cpp:399] loss2/classifier_plantvillage -> loss2/classifier_plantvillage
I0403 19:24:12.572502 19747 net.cpp:141] Setting up loss2/classifier_plantvillage
I0403 19:24:12.572527 19747 net.cpp:148] Top shape: 24 38 (912)
I0403 19:24:12.572559 19747 net.cpp:156] Memory required for data: 1208421216
I0403 19:24:12.572578 19747 layer_factory.hpp:77] Creating layer loss2/classifier_plantvillage_loss2/classifier_plantvillage_0_split
I0403 19:24:12.572597 19747 net.cpp:91] Creating Layer loss2/classifier_plantvillage_loss2/classifier_plantvillage_0_split
I0403 19:24:12.572613 19747 net.cpp:425] loss2/classifier_plantvillage_loss2/classifier_plantvillage_0_split <- loss2/classifier_plantvillage
I0403 19:24:12.572633 19747 net.cpp:399] loss2/classifier_plantvillage_loss2/classifier_plantvillage_0_split -> loss2/classifier_plantvillage_loss2/classifier_plantvillage_0_split_0
I0403 19:24:12.572655 19747 net.cpp:399] loss2/classifier_plantvillage_loss2/classifier_plantvillage_0_split -> loss2/classifier_plantvillage_loss2/classifier_plantvillage_0_split_1
I0403 19:24:12.572676 19747 net.cpp:399] loss2/classifier_plantvillage_loss2/classifier_plantvillage_0_split -> loss2/classifier_plantvillage_loss2/classifier_plantvillage_0_split_2
I0403 19:24:12.572752 19747 net.cpp:141] Setting up loss2/classifier_plantvillage_loss2/classifier_plantvillage_0_split
I0403 19:24:12.572777 19747 net.cpp:148] Top shape: 24 38 (912)
I0403 19:24:12.572795 19747 net.cpp:148] Top shape: 24 38 (912)
I0403 19:24:12.572810 19747 net.cpp:148] Top shape: 24 38 (912)
I0403 19:24:12.572824 19747 net.cpp:156] Memory required for data: 1208432160
I0403 19:24:12.572839 19747 layer_factory.hpp:77] Creating layer inception_4e/1x1
I0403 19:24:12.572861 19747 net.cpp:91] Creating Layer inception_4e/1x1
I0403 19:24:12.572878 19747 net.cpp:425] inception_4e/1x1 <- inception_4d/output_inception_4d/output_0_split_1
I0403 19:24:12.572897 19747 net.cpp:399] inception_4e/1x1 -> inception_4e/1x1
I0403 19:24:12.574722 19747 net.cpp:141] Setting up inception_4e/1x1
I0403 19:24:12.574753 19747 net.cpp:148] Top shape: 24 256 14 14 (1204224)
I0403 19:24:12.574769 19747 net.cpp:156] Memory required for data: 1213249056
I0403 19:24:12.574786 19747 layer_factory.hpp:77] Creating layer inception_4e/relu_1x1
I0403 19:24:12.574805 19747 net.cpp:91] Creating Layer inception_4e/relu_1x1
I0403 19:24:12.574820 19747 net.cpp:425] inception_4e/relu_1x1 <- inception_4e/1x1
I0403 19:24:12.574841 19747 net.cpp:386] inception_4e/relu_1x1 -> inception_4e/1x1 (in-place)
I0403 19:24:12.575141 19747 net.cpp:141] Setting up inception_4e/relu_1x1
I0403 19:24:12.575170 19747 net.cpp:148] Top shape: 24 256 14 14 (1204224)
I0403 19:24:12.575186 19747 net.cpp:156] Memory required for data: 1218065952
I0403 19:24:12.575201 19747 layer_factory.hpp:77] Creating layer inception_4e/3x3_reduce
I0403 19:24:12.575224 19747 net.cpp:91] Creating Layer inception_4e/3x3_reduce
I0403 19:24:12.575242 19747 net.cpp:425] inception_4e/3x3_reduce <- inception_4d/output_inception_4d/output_0_split_2
I0403 19:24:12.575263 19747 net.cpp:399] inception_4e/3x3_reduce -> inception_4e/3x3_reduce
I0403 19:24:12.577390 19747 net.cpp:141] Setting up inception_4e/3x3_reduce
I0403 19:24:12.577421 19747 net.cpp:148] Top shape: 24 160 14 14 (752640)
I0403 19:24:12.577438 19747 net.cpp:156] Memory required for data: 1221076512
I0403 19:24:12.577457 19747 layer_factory.hpp:77] Creating layer inception_4e/relu_3x3_reduce
I0403 19:24:12.577476 19747 net.cpp:91] Creating Layer inception_4e/relu_3x3_reduce
I0403 19:24:12.577491 19747 net.cpp:425] inception_4e/relu_3x3_reduce <- inception_4e/3x3_reduce
I0403 19:24:12.577508 19747 net.cpp:386] inception_4e/relu_3x3_reduce -> inception_4e/3x3_reduce (in-place)
I0403 19:24:12.577697 19747 net.cpp:141] Setting up inception_4e/relu_3x3_reduce
I0403 19:24:12.577721 19747 net.cpp:148] Top shape: 24 160 14 14 (752640)
I0403 19:24:12.577735 19747 net.cpp:156] Memory required for data: 1224087072
I0403 19:24:12.577750 19747 layer_factory.hpp:77] Creating layer inception_4e/3x3
I0403 19:24:12.577772 19747 net.cpp:91] Creating Layer inception_4e/3x3
I0403 19:24:12.577790 19747 net.cpp:425] inception_4e/3x3 <- inception_4e/3x3_reduce
I0403 19:24:12.577811 19747 net.cpp:399] inception_4e/3x3 -> inception_4e/3x3
I0403 19:24:12.582808 19747 net.cpp:141] Setting up inception_4e/3x3
I0403 19:24:12.582849 19747 net.cpp:148] Top shape: 24 320 14 14 (1505280)
I0403 19:24:12.582865 19747 net.cpp:156] Memory required for data: 1230108192
I0403 19:24:12.582883 19747 layer_factory.hpp:77] Creating layer inception_4e/relu_3x3
I0403 19:24:12.582903 19747 net.cpp:91] Creating Layer inception_4e/relu_3x3
I0403 19:24:12.582921 19747 net.cpp:425] inception_4e/relu_3x3 <- inception_4e/3x3
I0403 19:24:12.582937 19747 net.cpp:386] inception_4e/relu_3x3 -> inception_4e/3x3 (in-place)
I0403 19:24:12.583240 19747 net.cpp:141] Setting up inception_4e/relu_3x3
I0403 19:24:12.583267 19747 net.cpp:148] Top shape: 24 320 14 14 (1505280)
I0403 19:24:12.583282 19747 net.cpp:156] Memory required for data: 1236129312
I0403 19:24:12.583298 19747 layer_factory.hpp:77] Creating layer inception_4e/5x5_reduce
I0403 19:24:12.583320 19747 net.cpp:91] Creating Layer inception_4e/5x5_reduce
I0403 19:24:12.583338 19747 net.cpp:425] inception_4e/5x5_reduce <- inception_4d/output_inception_4d/output_0_split_3
I0403 19:24:12.583359 19747 net.cpp:399] inception_4e/5x5_reduce -> inception_4e/5x5_reduce
I0403 19:24:12.584429 19747 net.cpp:141] Setting up inception_4e/5x5_reduce
I0403 19:24:12.584460 19747 net.cpp:148] Top shape: 24 32 14 14 (150528)
I0403 19:24:12.584475 19747 net.cpp:156] Memory required for data: 1236731424
I0403 19:24:12.584494 19747 layer_factory.hpp:77] Creating layer inception_4e/relu_5x5_reduce
I0403 19:24:12.584512 19747 net.cpp:91] Creating Layer inception_4e/relu_5x5_reduce
I0403 19:24:12.584528 19747 net.cpp:425] inception_4e/relu_5x5_reduce <- inception_4e/5x5_reduce
I0403 19:24:12.584547 19747 net.cpp:386] inception_4e/relu_5x5_reduce -> inception_4e/5x5_reduce (in-place)
I0403 19:24:12.584844 19747 net.cpp:141] Setting up inception_4e/relu_5x5_reduce
I0403 19:24:12.584872 19747 net.cpp:148] Top shape: 24 32 14 14 (150528)
I0403 19:24:12.584888 19747 net.cpp:156] Memory required for data: 1237333536
I0403 19:24:12.584903 19747 layer_factory.hpp:77] Creating layer inception_4e/5x5
I0403 19:24:12.584941 19747 net.cpp:91] Creating Layer inception_4e/5x5
I0403 19:24:12.584964 19747 net.cpp:425] inception_4e/5x5 <- inception_4e/5x5_reduce
I0403 19:24:12.584985 19747 net.cpp:399] inception_4e/5x5 -> inception_4e/5x5
I0403 19:24:12.586833 19747 net.cpp:141] Setting up inception_4e/5x5
I0403 19:24:12.586861 19747 net.cpp:148] Top shape: 24 128 14 14 (602112)
I0403 19:24:12.586877 19747 net.cpp:156] Memory required for data: 1239741984
I0403 19:24:12.586895 19747 layer_factory.hpp:77] Creating layer inception_4e/relu_5x5
I0403 19:24:12.586915 19747 net.cpp:91] Creating Layer inception_4e/relu_5x5
I0403 19:24:12.586933 19747 net.cpp:425] inception_4e/relu_5x5 <- inception_4e/5x5
I0403 19:24:12.586956 19747 net.cpp:386] inception_4e/relu_5x5 -> inception_4e/5x5 (in-place)
I0403 19:24:12.587152 19747 net.cpp:141] Setting up inception_4e/relu_5x5
I0403 19:24:12.587177 19747 net.cpp:148] Top shape: 24 128 14 14 (602112)
I0403 19:24:12.587191 19747 net.cpp:156] Memory required for data: 1242150432
I0403 19:24:12.587206 19747 layer_factory.hpp:77] Creating layer inception_4e/pool
I0403 19:24:12.587225 19747 net.cpp:91] Creating Layer inception_4e/pool
I0403 19:24:12.587241 19747 net.cpp:425] inception_4e/pool <- inception_4d/output_inception_4d/output_0_split_4
I0403 19:24:12.587261 19747 net.cpp:399] inception_4e/pool -> inception_4e/pool
I0403 19:24:12.587332 19747 net.cpp:141] Setting up inception_4e/pool
I0403 19:24:12.587355 19747 net.cpp:148] Top shape: 24 528 14 14 (2483712)
I0403 19:24:12.587369 19747 net.cpp:156] Memory required for data: 1252085280
I0403 19:24:12.587384 19747 layer_factory.hpp:77] Creating layer inception_4e/pool_proj
I0403 19:24:12.587407 19747 net.cpp:91] Creating Layer inception_4e/pool_proj
I0403 19:24:12.587425 19747 net.cpp:425] inception_4e/pool_proj <- inception_4e/pool
I0403 19:24:12.587443 19747 net.cpp:399] inception_4e/pool_proj -> inception_4e/pool_proj
I0403 19:24:12.588961 19747 net.cpp:141] Setting up inception_4e/pool_proj
I0403 19:24:12.589000 19747 net.cpp:148] Top shape: 24 128 14 14 (602112)
I0403 19:24:12.589016 19747 net.cpp:156] Memory required for data: 1254493728
I0403 19:24:12.589035 19747 layer_factory.hpp:77] Creating layer inception_4e/relu_pool_proj
I0403 19:24:12.589056 19747 net.cpp:91] Creating Layer inception_4e/relu_pool_proj
I0403 19:24:12.589072 19747 net.cpp:425] inception_4e/relu_pool_proj <- inception_4e/pool_proj
I0403 19:24:12.589090 19747 net.cpp:386] inception_4e/relu_pool_proj -> inception_4e/pool_proj (in-place)
I0403 19:24:12.589386 19747 net.cpp:141] Setting up inception_4e/relu_pool_proj
I0403 19:24:12.589412 19747 net.cpp:148] Top shape: 24 128 14 14 (602112)
I0403 19:24:12.589427 19747 net.cpp:156] Memory required for data: 1256902176
I0403 19:24:12.589442 19747 layer_factory.hpp:77] Creating layer inception_4e/output
I0403 19:24:12.589462 19747 net.cpp:91] Creating Layer inception_4e/output
I0403 19:24:12.589478 19747 net.cpp:425] inception_4e/output <- inception_4e/1x1
I0403 19:24:12.589495 19747 net.cpp:425] inception_4e/output <- inception_4e/3x3
I0403 19:24:12.589511 19747 net.cpp:425] inception_4e/output <- inception_4e/5x5
I0403 19:24:12.589527 19747 net.cpp:425] inception_4e/output <- inception_4e/pool_proj
I0403 19:24:12.589545 19747 net.cpp:399] inception_4e/output -> inception_4e/output
I0403 19:24:12.589596 19747 net.cpp:141] Setting up inception_4e/output
I0403 19:24:12.589618 19747 net.cpp:148] Top shape: 24 832 14 14 (3913728)
I0403 19:24:12.589633 19747 net.cpp:156] Memory required for data: 1272557088
I0403 19:24:12.589648 19747 layer_factory.hpp:77] Creating layer pool4/3x3_s2
I0403 19:24:12.589664 19747 net.cpp:91] Creating Layer pool4/3x3_s2
I0403 19:24:12.589680 19747 net.cpp:425] pool4/3x3_s2 <- inception_4e/output
I0403 19:24:12.589699 19747 net.cpp:399] pool4/3x3_s2 -> pool4/3x3_s2
I0403 19:24:12.589766 19747 net.cpp:141] Setting up pool4/3x3_s2
I0403 19:24:12.589790 19747 net.cpp:148] Top shape: 24 832 7 7 (978432)
I0403 19:24:12.589805 19747 net.cpp:156] Memory required for data: 1276470816
I0403 19:24:12.589820 19747 layer_factory.hpp:77] Creating layer pool4/3x3_s2_pool4/3x3_s2_0_split
I0403 19:24:12.589840 19747 net.cpp:91] Creating Layer pool4/3x3_s2_pool4/3x3_s2_0_split
I0403 19:24:12.589857 19747 net.cpp:425] pool4/3x3_s2_pool4/3x3_s2_0_split <- pool4/3x3_s2
I0403 19:24:12.589876 19747 net.cpp:399] pool4/3x3_s2_pool4/3x3_s2_0_split -> pool4/3x3_s2_pool4/3x3_s2_0_split_0
I0403 19:24:12.589896 19747 net.cpp:399] pool4/3x3_s2_pool4/3x3_s2_0_split -> pool4/3x3_s2_pool4/3x3_s2_0_split_1
I0403 19:24:12.589917 19747 net.cpp:399] pool4/3x3_s2_pool4/3x3_s2_0_split -> pool4/3x3_s2_pool4/3x3_s2_0_split_2
I0403 19:24:12.589936 19747 net.cpp:399] pool4/3x3_s2_pool4/3x3_s2_0_split -> pool4/3x3_s2_pool4/3x3_s2_0_split_3
I0403 19:24:12.590031 19747 net.cpp:141] Setting up pool4/3x3_s2_pool4/3x3_s2_0_split
I0403 19:24:12.590054 19747 net.cpp:148] Top shape: 24 832 7 7 (978432)
I0403 19:24:12.590070 19747 net.cpp:148] Top shape: 24 832 7 7 (978432)
I0403 19:24:12.590085 19747 net.cpp:148] Top shape: 24 832 7 7 (978432)
I0403 19:24:12.590101 19747 net.cpp:148] Top shape: 24 832 7 7 (978432)
I0403 19:24:12.590114 19747 net.cpp:156] Memory required for data: 1292125728
I0403 19:24:12.590128 19747 layer_factory.hpp:77] Creating layer inception_5a/1x1
I0403 19:24:12.590150 19747 net.cpp:91] Creating Layer inception_5a/1x1
I0403 19:24:12.590167 19747 net.cpp:425] inception_5a/1x1 <- pool4/3x3_s2_pool4/3x3_s2_0_split_0
I0403 19:24:12.590188 19747 net.cpp:399] inception_5a/1x1 -> inception_5a/1x1
I0403 19:24:12.593050 19747 net.cpp:141] Setting up inception_5a/1x1
I0403 19:24:12.593081 19747 net.cpp:148] Top shape: 24 256 7 7 (301056)
I0403 19:24:12.593098 19747 net.cpp:156] Memory required for data: 1293329952
I0403 19:24:12.593116 19747 layer_factory.hpp:77] Creating layer inception_5a/relu_1x1
I0403 19:24:12.593134 19747 net.cpp:91] Creating Layer inception_5a/relu_1x1
I0403 19:24:12.593150 19747 net.cpp:425] inception_5a/relu_1x1 <- inception_5a/1x1
I0403 19:24:12.593168 19747 net.cpp:386] inception_5a/relu_1x1 -> inception_5a/1x1 (in-place)
I0403 19:24:12.593482 19747 net.cpp:141] Setting up inception_5a/relu_1x1
I0403 19:24:12.593513 19747 net.cpp:148] Top shape: 24 256 7 7 (301056)
I0403 19:24:12.593529 19747 net.cpp:156] Memory required for data: 1294534176
I0403 19:24:12.593544 19747 layer_factory.hpp:77] Creating layer inception_5a/3x3_reduce
I0403 19:24:12.593567 19747 net.cpp:91] Creating Layer inception_5a/3x3_reduce
I0403 19:24:12.593585 19747 net.cpp:425] inception_5a/3x3_reduce <- pool4/3x3_s2_pool4/3x3_s2_0_split_1
I0403 19:24:12.593605 19747 net.cpp:399] inception_5a/3x3_reduce -> inception_5a/3x3_reduce
I0403 19:24:12.596057 19747 net.cpp:141] Setting up inception_5a/3x3_reduce
I0403 19:24:12.596087 19747 net.cpp:148] Top shape: 24 160 7 7 (188160)
I0403 19:24:12.596103 19747 net.cpp:156] Memory required for data: 1295286816
I0403 19:24:12.596122 19747 layer_factory.hpp:77] Creating layer inception_5a/relu_3x3_reduce
I0403 19:24:12.596141 19747 net.cpp:91] Creating Layer inception_5a/relu_3x3_reduce
I0403 19:24:12.596159 19747 net.cpp:425] inception_5a/relu_3x3_reduce <- inception_5a/3x3_reduce
I0403 19:24:12.596177 19747 net.cpp:386] inception_5a/relu_3x3_reduce -> inception_5a/3x3_reduce (in-place)
I0403 19:24:12.596362 19747 net.cpp:141] Setting up inception_5a/relu_3x3_reduce
I0403 19:24:12.596390 19747 net.cpp:148] Top shape: 24 160 7 7 (188160)
I0403 19:24:12.596405 19747 net.cpp:156] Memory required for data: 1296039456
I0403 19:24:12.596421 19747 layer_factory.hpp:77] Creating layer inception_5a/3x3
I0403 19:24:12.596439 19747 net.cpp:91] Creating Layer inception_5a/3x3
I0403 19:24:12.596457 19747 net.cpp:425] inception_5a/3x3 <- inception_5a/3x3_reduce
I0403 19:24:12.596477 19747 net.cpp:399] inception_5a/3x3 -> inception_5a/3x3
I0403 19:24:12.601517 19747 net.cpp:141] Setting up inception_5a/3x3
I0403 19:24:12.601547 19747 net.cpp:148] Top shape: 24 320 7 7 (376320)
I0403 19:24:12.601563 19747 net.cpp:156] Memory required for data: 1297544736
I0403 19:24:12.601582 19747 layer_factory.hpp:77] Creating layer inception_5a/relu_3x3
I0403 19:24:12.601601 19747 net.cpp:91] Creating Layer inception_5a/relu_3x3
I0403 19:24:12.601619 19747 net.cpp:425] inception_5a/relu_3x3 <- inception_5a/3x3
I0403 19:24:12.601635 19747 net.cpp:386] inception_5a/relu_3x3 -> inception_5a/3x3 (in-place)
I0403 19:24:12.601936 19747 net.cpp:141] Setting up inception_5a/relu_3x3
I0403 19:24:12.601968 19747 net.cpp:148] Top shape: 24 320 7 7 (376320)
I0403 19:24:12.601984 19747 net.cpp:156] Memory required for data: 1299050016
I0403 19:24:12.601999 19747 layer_factory.hpp:77] Creating layer inception_5a/5x5_reduce
I0403 19:24:12.602023 19747 net.cpp:91] Creating Layer inception_5a/5x5_reduce
I0403 19:24:12.602041 19747 net.cpp:425] inception_5a/5x5_reduce <- pool4/3x3_s2_pool4/3x3_s2_0_split_2
I0403 19:24:12.602061 19747 net.cpp:399] inception_5a/5x5_reduce -> inception_5a/5x5_reduce
I0403 19:24:12.603240 19747 net.cpp:141] Setting up inception_5a/5x5_reduce
I0403 19:24:12.603269 19747 net.cpp:148] Top shape: 24 32 7 7 (37632)
I0403 19:24:12.603286 19747 net.cpp:156] Memory required for data: 1299200544
I0403 19:24:12.603304 19747 layer_factory.hpp:77] Creating layer inception_5a/relu_5x5_reduce
I0403 19:24:12.603322 19747 net.cpp:91] Creating Layer inception_5a/relu_5x5_reduce
I0403 19:24:12.603338 19747 net.cpp:425] inception_5a/relu_5x5_reduce <- inception_5a/5x5_reduce
I0403 19:24:12.603358 19747 net.cpp:386] inception_5a/relu_5x5_reduce -> inception_5a/5x5_reduce (in-place)
I0403 19:24:12.603660 19747 net.cpp:141] Setting up inception_5a/relu_5x5_reduce
I0403 19:24:12.603688 19747 net.cpp:148] Top shape: 24 32 7 7 (37632)
I0403 19:24:12.603703 19747 net.cpp:156] Memory required for data: 1299351072
I0403 19:24:12.603718 19747 layer_factory.hpp:77] Creating layer inception_5a/5x5
I0403 19:24:12.603739 19747 net.cpp:91] Creating Layer inception_5a/5x5
I0403 19:24:12.603757 19747 net.cpp:425] inception_5a/5x5 <- inception_5a/5x5_reduce
I0403 19:24:12.603778 19747 net.cpp:399] inception_5a/5x5 -> inception_5a/5x5
I0403 19:24:12.605506 19747 net.cpp:141] Setting up inception_5a/5x5
I0403 19:24:12.605545 19747 net.cpp:148] Top shape: 24 128 7 7 (150528)
I0403 19:24:12.605561 19747 net.cpp:156] Memory required for data: 1299953184
I0403 19:24:12.605579 19747 layer_factory.hpp:77] Creating layer inception_5a/relu_5x5
I0403 19:24:12.605599 19747 net.cpp:91] Creating Layer inception_5a/relu_5x5
I0403 19:24:12.605617 19747 net.cpp:425] inception_5a/relu_5x5 <- inception_5a/5x5
I0403 19:24:12.605633 19747 net.cpp:386] inception_5a/relu_5x5 -> inception_5a/5x5 (in-place)
I0403 19:24:12.605824 19747 net.cpp:141] Setting up inception_5a/relu_5x5
I0403 19:24:12.605849 19747 net.cpp:148] Top shape: 24 128 7 7 (150528)
I0403 19:24:12.605864 19747 net.cpp:156] Memory required for data: 1300555296
I0403 19:24:12.605878 19747 layer_factory.hpp:77] Creating layer inception_5a/pool
I0403 19:24:12.605895 19747 net.cpp:91] Creating Layer inception_5a/pool
I0403 19:24:12.605911 19747 net.cpp:425] inception_5a/pool <- pool4/3x3_s2_pool4/3x3_s2_0_split_3
I0403 19:24:12.605932 19747 net.cpp:399] inception_5a/pool -> inception_5a/pool
I0403 19:24:12.606006 19747 net.cpp:141] Setting up inception_5a/pool
I0403 19:24:12.606031 19747 net.cpp:148] Top shape: 24 832 7 7 (978432)
I0403 19:24:12.606045 19747 net.cpp:156] Memory required for data: 1304469024
I0403 19:24:12.606060 19747 layer_factory.hpp:77] Creating layer inception_5a/pool_proj
I0403 19:24:12.606083 19747 net.cpp:91] Creating Layer inception_5a/pool_proj
I0403 19:24:12.606101 19747 net.cpp:425] inception_5a/pool_proj <- inception_5a/pool
I0403 19:24:12.606120 19747 net.cpp:399] inception_5a/pool_proj -> inception_5a/pool_proj
I0403 19:24:12.608404 19747 net.cpp:141] Setting up inception_5a/pool_proj
I0403 19:24:12.608434 19747 net.cpp:148] Top shape: 24 128 7 7 (150528)
I0403 19:24:12.608450 19747 net.cpp:156] Memory required for data: 1305071136
I0403 19:24:12.608469 19747 layer_factory.hpp:77] Creating layer inception_5a/relu_pool_proj
I0403 19:24:12.608489 19747 net.cpp:91] Creating Layer inception_5a/relu_pool_proj
I0403 19:24:12.608505 19747 net.cpp:425] inception_5a/relu_pool_proj <- inception_5a/pool_proj
I0403 19:24:12.608522 19747 net.cpp:386] inception_5a/relu_pool_proj -> inception_5a/pool_proj (in-place)
I0403 19:24:12.608816 19747 net.cpp:141] Setting up inception_5a/relu_pool_proj
I0403 19:24:12.608842 19747 net.cpp:148] Top shape: 24 128 7 7 (150528)
I0403 19:24:12.608858 19747 net.cpp:156] Memory required for data: 1305673248
I0403 19:24:12.608872 19747 layer_factory.hpp:77] Creating layer inception_5a/output
I0403 19:24:12.608892 19747 net.cpp:91] Creating Layer inception_5a/output
I0403 19:24:12.608909 19747 net.cpp:425] inception_5a/output <- inception_5a/1x1
I0403 19:24:12.608925 19747 net.cpp:425] inception_5a/output <- inception_5a/3x3
I0403 19:24:12.608942 19747 net.cpp:425] inception_5a/output <- inception_5a/5x5
I0403 19:24:12.608970 19747 net.cpp:425] inception_5a/output <- inception_5a/pool_proj
I0403 19:24:12.608989 19747 net.cpp:399] inception_5a/output -> inception_5a/output
I0403 19:24:12.609041 19747 net.cpp:141] Setting up inception_5a/output
I0403 19:24:12.609066 19747 net.cpp:148] Top shape: 24 832 7 7 (978432)
I0403 19:24:12.609079 19747 net.cpp:156] Memory required for data: 1309586976
I0403 19:24:12.609094 19747 layer_factory.hpp:77] Creating layer inception_5a/output_inception_5a/output_0_split
I0403 19:24:12.609112 19747 net.cpp:91] Creating Layer inception_5a/output_inception_5a/output_0_split
I0403 19:24:12.609127 19747 net.cpp:425] inception_5a/output_inception_5a/output_0_split <- inception_5a/output
I0403 19:24:12.609146 19747 net.cpp:399] inception_5a/output_inception_5a/output_0_split -> inception_5a/output_inception_5a/output_0_split_0
I0403 19:24:12.609169 19747 net.cpp:399] inception_5a/output_inception_5a/output_0_split -> inception_5a/output_inception_5a/output_0_split_1
I0403 19:24:12.609189 19747 net.cpp:399] inception_5a/output_inception_5a/output_0_split -> inception_5a/output_inception_5a/output_0_split_2
I0403 19:24:12.609210 19747 net.cpp:399] inception_5a/output_inception_5a/output_0_split -> inception_5a/output_inception_5a/output_0_split_3
I0403 19:24:12.609321 19747 net.cpp:141] Setting up inception_5a/output_inception_5a/output_0_split
I0403 19:24:12.609347 19747 net.cpp:148] Top shape: 24 832 7 7 (978432)
I0403 19:24:12.609364 19747 net.cpp:148] Top shape: 24 832 7 7 (978432)
I0403 19:24:12.609379 19747 net.cpp:148] Top shape: 24 832 7 7 (978432)
I0403 19:24:12.609395 19747 net.cpp:148] Top shape: 24 832 7 7 (978432)
I0403 19:24:12.609408 19747 net.cpp:156] Memory required for data: 1325241888
I0403 19:24:12.609423 19747 layer_factory.hpp:77] Creating layer inception_5b/1x1
I0403 19:24:12.609446 19747 net.cpp:91] Creating Layer inception_5b/1x1
I0403 19:24:12.609462 19747 net.cpp:425] inception_5b/1x1 <- inception_5a/output_inception_5a/output_0_split_0
I0403 19:24:12.609483 19747 net.cpp:399] inception_5b/1x1 -> inception_5b/1x1
I0403 19:24:12.613299 19747 net.cpp:141] Setting up inception_5b/1x1
I0403 19:24:12.613330 19747 net.cpp:148] Top shape: 24 384 7 7 (451584)
I0403 19:24:12.613346 19747 net.cpp:156] Memory required for data: 1327048224
I0403 19:24:12.613365 19747 layer_factory.hpp:77] Creating layer inception_5b/relu_1x1
I0403 19:24:12.613385 19747 net.cpp:91] Creating Layer inception_5b/relu_1x1
I0403 19:24:12.613402 19747 net.cpp:425] inception_5b/relu_1x1 <- inception_5b/1x1
I0403 19:24:12.613420 19747 net.cpp:386] inception_5b/relu_1x1 -> inception_5b/1x1 (in-place)
I0403 19:24:12.613728 19747 net.cpp:141] Setting up inception_5b/relu_1x1
I0403 19:24:12.613754 19747 net.cpp:148] Top shape: 24 384 7 7 (451584)
I0403 19:24:12.613768 19747 net.cpp:156] Memory required for data: 1328854560
I0403 19:24:12.613782 19747 layer_factory.hpp:77] Creating layer inception_5b/3x3_reduce
I0403 19:24:12.613817 19747 net.cpp:91] Creating Layer inception_5b/3x3_reduce
I0403 19:24:12.613837 19747 net.cpp:425] inception_5b/3x3_reduce <- inception_5a/output_inception_5a/output_0_split_1
I0403 19:24:12.613859 19747 net.cpp:399] inception_5b/3x3_reduce -> inception_5b/3x3_reduce
I0403 19:24:12.616552 19747 net.cpp:141] Setting up inception_5b/3x3_reduce
I0403 19:24:12.616582 19747 net.cpp:148] Top shape: 24 192 7 7 (225792)
I0403 19:24:12.616598 19747 net.cpp:156] Memory required for data: 1329757728
I0403 19:24:12.616617 19747 layer_factory.hpp:77] Creating layer inception_5b/relu_3x3_reduce
I0403 19:24:12.616638 19747 net.cpp:91] Creating Layer inception_5b/relu_3x3_reduce
I0403 19:24:12.616655 19747 net.cpp:425] inception_5b/relu_3x3_reduce <- inception_5b/3x3_reduce
I0403 19:24:12.616674 19747 net.cpp:386] inception_5b/relu_3x3_reduce -> inception_5b/3x3_reduce (in-place)
I0403 19:24:12.616868 19747 net.cpp:141] Setting up inception_5b/relu_3x3_reduce
I0403 19:24:12.616894 19747 net.cpp:148] Top shape: 24 192 7 7 (225792)
I0403 19:24:12.616909 19747 net.cpp:156] Memory required for data: 1330660896
I0403 19:24:12.616925 19747 layer_factory.hpp:77] Creating layer inception_5b/3x3
I0403 19:24:12.616950 19747 net.cpp:91] Creating Layer inception_5b/3x3
I0403 19:24:12.616969 19747 net.cpp:425] inception_5b/3x3 <- inception_5b/3x3_reduce
I0403 19:24:12.616988 19747 net.cpp:399] inception_5b/3x3 -> inception_5b/3x3
I0403 19:24:12.623904 19747 net.cpp:141] Setting up inception_5b/3x3
I0403 19:24:12.623934 19747 net.cpp:148] Top shape: 24 384 7 7 (451584)
I0403 19:24:12.623955 19747 net.cpp:156] Memory required for data: 1332467232
I0403 19:24:12.623975 19747 layer_factory.hpp:77] Creating layer inception_5b/relu_3x3
I0403 19:24:12.623996 19747 net.cpp:91] Creating Layer inception_5b/relu_3x3
I0403 19:24:12.624016 19747 net.cpp:425] inception_5b/relu_3x3 <- inception_5b/3x3
I0403 19:24:12.624032 19747 net.cpp:386] inception_5b/relu_3x3 -> inception_5b/3x3 (in-place)
I0403 19:24:12.624341 19747 net.cpp:141] Setting up inception_5b/relu_3x3
I0403 19:24:12.624369 19747 net.cpp:148] Top shape: 24 384 7 7 (451584)
I0403 19:24:12.624384 19747 net.cpp:156] Memory required for data: 1334273568
I0403 19:24:12.624399 19747 layer_factory.hpp:77] Creating layer inception_5b/5x5_reduce
I0403 19:24:12.624439 19747 net.cpp:91] Creating Layer inception_5b/5x5_reduce
I0403 19:24:12.624459 19747 net.cpp:425] inception_5b/5x5_reduce <- inception_5a/output_inception_5a/output_0_split_2
I0403 19:24:12.624480 19747 net.cpp:399] inception_5b/5x5_reduce -> inception_5b/5x5_reduce
I0403 19:24:12.625802 19747 net.cpp:141] Setting up inception_5b/5x5_reduce
I0403 19:24:12.625829 19747 net.cpp:148] Top shape: 24 48 7 7 (56448)
I0403 19:24:12.625845 19747 net.cpp:156] Memory required for data: 1334499360
I0403 19:24:12.625864 19747 layer_factory.hpp:77] Creating layer inception_5b/relu_5x5_reduce
I0403 19:24:12.625885 19747 net.cpp:91] Creating Layer inception_5b/relu_5x5_reduce
I0403 19:24:12.625902 19747 net.cpp:425] inception_5b/relu_5x5_reduce <- inception_5b/5x5_reduce
I0403 19:24:12.625919 19747 net.cpp:386] inception_5b/relu_5x5_reduce -> inception_5b/5x5_reduce (in-place)
I0403 19:24:12.626307 19747 net.cpp:141] Setting up inception_5b/relu_5x5_reduce
I0403 19:24:12.626335 19747 net.cpp:148] Top shape: 24 48 7 7 (56448)
I0403 19:24:12.626351 19747 net.cpp:156] Memory required for data: 1334725152
I0403 19:24:12.626366 19747 layer_factory.hpp:77] Creating layer inception_5b/5x5
I0403 19:24:12.626386 19747 net.cpp:91] Creating Layer inception_5b/5x5
I0403 19:24:12.626405 19747 net.cpp:425] inception_5b/5x5 <- inception_5b/5x5_reduce
I0403 19:24:12.626423 19747 net.cpp:399] inception_5b/5x5 -> inception_5b/5x5
I0403 19:24:12.628583 19747 net.cpp:141] Setting up inception_5b/5x5
I0403 19:24:12.628615 19747 net.cpp:148] Top shape: 24 128 7 7 (150528)
I0403 19:24:12.628633 19747 net.cpp:156] Memory required for data: 1335327264
I0403 19:24:12.628651 19747 layer_factory.hpp:77] Creating layer inception_5b/relu_5x5
I0403 19:24:12.628670 19747 net.cpp:91] Creating Layer inception_5b/relu_5x5
I0403 19:24:12.628687 19747 net.cpp:425] inception_5b/relu_5x5 <- inception_5b/5x5
I0403 19:24:12.628705 19747 net.cpp:386] inception_5b/relu_5x5 -> inception_5b/5x5 (in-place)
I0403 19:24:12.628907 19747 net.cpp:141] Setting up inception_5b/relu_5x5
I0403 19:24:12.628932 19747 net.cpp:148] Top shape: 24 128 7 7 (150528)
I0403 19:24:12.628958 19747 net.cpp:156] Memory required for data: 1335929376
I0403 19:24:12.628978 19747 layer_factory.hpp:77] Creating layer inception_5b/pool
I0403 19:24:12.628995 19747 net.cpp:91] Creating Layer inception_5b/pool
I0403 19:24:12.629012 19747 net.cpp:425] inception_5b/pool <- inception_5a/output_inception_5a/output_0_split_3
I0403 19:24:12.629034 19747 net.cpp:399] inception_5b/pool -> inception_5b/pool
I0403 19:24:12.629108 19747 net.cpp:141] Setting up inception_5b/pool
I0403 19:24:12.629137 19747 net.cpp:148] Top shape: 24 832 7 7 (978432)
I0403 19:24:12.629153 19747 net.cpp:156] Memory required for data: 1339843104
I0403 19:24:12.629168 19747 layer_factory.hpp:77] Creating layer inception_5b/pool_proj
I0403 19:24:12.629190 19747 net.cpp:91] Creating Layer inception_5b/pool_proj
I0403 19:24:12.629210 19747 net.cpp:425] inception_5b/pool_proj <- inception_5b/pool
I0403 19:24:12.629230 19747 net.cpp:399] inception_5b/pool_proj -> inception_5b/pool_proj
I0403 19:24:12.631613 19747 net.cpp:141] Setting up inception_5b/pool_proj
I0403 19:24:12.631644 19747 net.cpp:148] Top shape: 24 128 7 7 (150528)
I0403 19:24:12.631659 19747 net.cpp:156] Memory required for data: 1340445216
I0403 19:24:12.631678 19747 layer_factory.hpp:77] Creating layer inception_5b/relu_pool_proj
I0403 19:24:12.631700 19747 net.cpp:91] Creating Layer inception_5b/relu_pool_proj
I0403 19:24:12.631717 19747 net.cpp:425] inception_5b/relu_pool_proj <- inception_5b/pool_proj
I0403 19:24:12.631736 19747 net.cpp:386] inception_5b/relu_pool_proj -> inception_5b/pool_proj (in-place)
I0403 19:24:12.632050 19747 net.cpp:141] Setting up inception_5b/relu_pool_proj
I0403 19:24:12.632076 19747 net.cpp:148] Top shape: 24 128 7 7 (150528)
I0403 19:24:12.632092 19747 net.cpp:156] Memory required for data: 1341047328
I0403 19:24:12.632108 19747 layer_factory.hpp:77] Creating layer inception_5b/output
I0403 19:24:12.632128 19747 net.cpp:91] Creating Layer inception_5b/output
I0403 19:24:12.632159 19747 net.cpp:425] inception_5b/output <- inception_5b/1x1
I0403 19:24:12.632179 19747 net.cpp:425] inception_5b/output <- inception_5b/3x3
I0403 19:24:12.632195 19747 net.cpp:425] inception_5b/output <- inception_5b/5x5
I0403 19:24:12.632213 19747 net.cpp:425] inception_5b/output <- inception_5b/pool_proj
I0403 19:24:12.632230 19747 net.cpp:399] inception_5b/output -> inception_5b/output
I0403 19:24:12.632287 19747 net.cpp:141] Setting up inception_5b/output
I0403 19:24:12.632311 19747 net.cpp:148] Top shape: 24 1024 7 7 (1204224)
I0403 19:24:12.632326 19747 net.cpp:156] Memory required for data: 1345864224
I0403 19:24:12.632341 19747 layer_factory.hpp:77] Creating layer pool5/7x7_s1
I0403 19:24:12.632359 19747 net.cpp:91] Creating Layer pool5/7x7_s1
I0403 19:24:12.632375 19747 net.cpp:425] pool5/7x7_s1 <- inception_5b/output
I0403 19:24:12.632395 19747 net.cpp:399] pool5/7x7_s1 -> pool5/7x7_s1
I0403 19:24:12.632617 19747 net.cpp:141] Setting up pool5/7x7_s1
I0403 19:24:12.632647 19747 net.cpp:148] Top shape: 24 1024 1 1 (24576)
I0403 19:24:12.632663 19747 net.cpp:156] Memory required for data: 1345962528
I0403 19:24:12.632678 19747 layer_factory.hpp:77] Creating layer pool5/drop_7x7_s1
I0403 19:24:12.632695 19747 net.cpp:91] Creating Layer pool5/drop_7x7_s1
I0403 19:24:12.632711 19747 net.cpp:425] pool5/drop_7x7_s1 <- pool5/7x7_s1
I0403 19:24:12.632730 19747 net.cpp:386] pool5/drop_7x7_s1 -> pool5/7x7_s1 (in-place)
I0403 19:24:12.632782 19747 net.cpp:141] Setting up pool5/drop_7x7_s1
I0403 19:24:12.632807 19747 net.cpp:148] Top shape: 24 1024 1 1 (24576)
I0403 19:24:12.632822 19747 net.cpp:156] Memory required for data: 1346060832
I0403 19:24:12.632838 19747 layer_factory.hpp:77] Creating layer loss3/classifier_plantvillage
I0403 19:24:12.632859 19747 net.cpp:91] Creating Layer loss3/classifier_plantvillage
I0403 19:24:12.632876 19747 net.cpp:425] loss3/classifier_plantvillage <- pool5/7x7_s1
I0403 19:24:12.632895 19747 net.cpp:399] loss3/classifier_plantvillage -> loss3/classifier_plantvillage
I0403 19:24:12.633345 19747 net.cpp:141] Setting up loss3/classifier_plantvillage
I0403 19:24:12.633370 19747 net.cpp:148] Top shape: 24 38 (912)
I0403 19:24:12.633386 19747 net.cpp:156] Memory required for data: 1346064480
I0403 19:24:12.633404 19747 layer_factory.hpp:77] Creating layer loss3/classifier_plantvillage_loss3/classifier_plantvillage_0_split
I0403 19:24:12.633422 19747 net.cpp:91] Creating Layer loss3/classifier_plantvillage_loss3/classifier_plantvillage_0_split
I0403 19:24:12.633438 19747 net.cpp:425] loss3/classifier_plantvillage_loss3/classifier_plantvillage_0_split <- loss3/classifier_plantvillage
I0403 19:24:12.633460 19747 net.cpp:399] loss3/classifier_plantvillage_loss3/classifier_plantvillage_0_split -> loss3/classifier_plantvillage_loss3/classifier_plantvillage_0_split_0
I0403 19:24:12.633482 19747 net.cpp:399] loss3/classifier_plantvillage_loss3/classifier_plantvillage_0_split -> loss3/classifier_plantvillage_loss3/classifier_plantvillage_0_split_1
I0403 19:24:12.633503 19747 net.cpp:399] loss3/classifier_plantvillage_loss3/classifier_plantvillage_0_split -> loss3/classifier_plantvillage_loss3/classifier_plantvillage_0_split_2
I0403 19:24:12.633524 19747 net.cpp:399] loss3/classifier_plantvillage_loss3/classifier_plantvillage_0_split -> loss3/classifier_plantvillage_loss3/classifier_plantvillage_0_split_3
I0403 19:24:12.633628 19747 net.cpp:141] Setting up loss3/classifier_plantvillage_loss3/classifier_plantvillage_0_split
I0403 19:24:12.633651 19747 net.cpp:148] Top shape: 24 38 (912)
I0403 19:24:12.633668 19747 net.cpp:148] Top shape: 24 38 (912)
I0403 19:24:12.633684 19747 net.cpp:148] Top shape: 24 38 (912)
I0403 19:24:12.633699 19747 net.cpp:148] Top shape: 24 38 (912)
I0403 19:24:12.633713 19747 net.cpp:156] Memory required for data: 1346079072
I0403 19:24:12.633728 19747 layer_factory.hpp:77] Creating layer loss1/loss
I0403 19:24:12.633750 19747 net.cpp:91] Creating Layer loss1/loss
I0403 19:24:12.633767 19747 net.cpp:425] loss1/loss <- loss1/classifier_plantvillage_loss1/classifier_plantvillage_0_split_0
I0403 19:24:12.633798 19747 net.cpp:425] loss1/loss <- label_data_1_split_0
…
