…
I0403 19:17:08.595573 19352 net.cpp:313] The NetState phase (1) differed from the phase (0) specified by a rule in layer data
I0403 19:17:08.596791 19352 net.cpp:49] Initializing net from parameters: 
state {
  phase: TEST
}
layer {
  name: "data"
  type: "Data"
  top: "data"
  top: "label"
  include {
    phase: TEST
  }
  transform_param {
    mirror: false
    crop_size: 224
    mean_file: "/home/mohanty/data/final_dataset/lmdb/segmented-60-40/mean.binaryproto"
  }
  data_param {
    source: "/home/mohanty/data/final_dataset/lmdb/segmented-60-40/test_db"
    batch_size: 24
    backend: LMDB
  }
}
layer {
  name: "conv1/7x7_s2"
  type: "Convolution"
  bottom: "data"
  top: "conv1/7x7_s2"
  param {
    lr_mult: 1
    decay_mult: 1
  }
  param {
    lr_mult: 2
    decay_mult: 0
  }
  convolution_param {
    num_output: 64
    pad: 3
    kernel_size: 7
    stride: 2
    weight_filler {
      type: "xavier"
      std: 0.1
    }
    bias_filler {
      type: "constant"
      value: 0.2
    }
  }
}
layer {
  name: "conv1/relu_7x7"
  type: "ReLU"
  bottom: "conv1/7x7_s2"
  top: "conv1/7x7_s2"
}
layer {
  name: "pool1/3x3_s2"
  type: "Pooling"
  bottom: "conv1/7x7_s2"
  top: "pool1/3x3_s2"
  pooling_param {
    pool: MAX
    kernel_size: 3
    stride: 2
  }
}
layer {
  name: "pool1/norm1"
  type: "LRN"
  bottom: "pool1/3x3_s2"
  top: "pool1/norm1"
  lrn_param {
    local_size: 5
    alpha: 0.0001
    beta: 0.75
  }
}
layer {
  name: "conv2/3x3_reduce"
  type: "Convolution"
  bottom: "pool1/norm1"
  top: "conv2/3x3_reduce"
  param {
    lr_mult: 1
    decay_mult: 1
  }
  param {
    lr_mult: 2
    decay_mult: 0
  }
  convolution_param {
    num_output: 64
    kernel_size: 1
    weight_filler {
      type: "xavier"
      std: 0.1
    }
    bias_filler {
      type: "constant"
      value: 0.2
    }
  }
}
layer {
  name: "conv2/relu_3x3_reduce"
  type: "ReLU"
  bottom: "conv2/3x3_reduce"
  top: "conv2/3x3_reduce"
}
layer {
  name: "conv2/3x3"
  type: "Convolution"
  bottom: "conv2/3x3_reduce"
  top: "conv2/3x3"
  param {
    lr_mult: 1
    decay_mult: 1
  }
  param {
    lr_mult: 2
    decay_mult: 0
  }
  convolution_param {
    num_output: 192
    pad: 1
    kernel_size: 3
    weight_filler {
      type: "xavier"
      std: 0.03
    }
    bias_filler {
      type: "constant"
      value: 0.2
    }
  }
}
layer {
  name: "conv2/relu_3x3"
  type: "ReLU"
  bottom: "conv2/3x3"
  top: "conv2/3x3"
}
layer {
  name: "conv2/norm2"
  type: "LRN"
  bottom: "conv2/3x3"
  top: "conv2/norm2"
  lrn_param {
    local_size: 5
    alpha: 0.0001
    beta: 0.75
  }
}
layer {
  name: "pool2/3x3_s2"
  type: "Pooling"
  bottom: "conv2/norm2"
  top: "pool2/3x3_s2"
  pooling_param {
    pool: MAX
    kernel_size: 3
    stride: 2
  }
}
layer {
  name: "inception_3a/1x1"
  type: "Convolution"
  bottom: "pool2/3x3_s2"
  top: "inception_3a/1x1"
  param {
    lr_mult: 1
    decay_mult: 1
  }
  param {
    lr_mult: 2
    decay_mult: 0
  }
  convolution_param {
    num_output: 64
    kernel_size: 1
    weight_filler {
      type: "xavier"
      std: 0.03
    }
    bias_filler {
      type: "constant"
      value: 0.2
    }
  }
}
layer {
  name: "inception_3a/relu_1x1"
  type: "ReLU"
  bottom: "inception_3a/1x1"
  top: "inception_3a/1x1"
}
layer {
  name: "inception_3a/3x3_reduce"
  type: "Convolution"
  bottom: "pool2/3x3_s2"
  top: "inception_3a/3x3_reduce"
  param {
    lr_mult: 1
    decay_mult: 1
  }
  param {
    lr_mult: 2
    decay_mult: 0
  }
  convolution_param {
    num_output: 96
    kernel_size: 1
    weight_filler {
      type: "xavier"
      std: 0.09
    }
    bias_filler {
      type: "constant"
      value: 0.2
    }
  }
}
layer {
  name: "inception_3a/relu_3x3_reduce"
  type: "ReLU"
  bottom: "inception_3a/3x3_reduce"
  top: "inception_3a/3x3_reduce"
}
layer {
  name: "inception_3a/3x3"
  type: "Convolution"
  bottom: "inception_3a/3x3_reduce"
  top: "inception_3a/3x3"
  param {
    lr_mult: 1
    decay_mult: 1
  }
  param {
    lr_mult: 2
    decay_mult: 0
  }
  convolution_param {
    num_output: 128
    pad: 1
    kernel_size: 3
    weight_filler {
      type: "xavier"
      std: 0.03
    }
    bias_filler {
      type: "constant"
      value: 0.2
    }
  }
}
layer {
  name: "inception_3a/relu_3x3"
  type: "ReLU"
  bottom: "inception_3a/3x3"
  top: "inception_3a/3x3"
}
layer {
  name: "inception_3a/5x5_reduce"
  type: "Convolution"
  bottom: "pool2/3x3_s2"
  top: "inception_3a/5x5_reduce"
  param {
    lr_mult: 1
    decay_mult: 1
  }
  param {
    lr_mult: 2
    decay_mult: 0
  }
  convolution_param {
    num_output: 16
    kernel_size: 1
    weight_filler {
      type: "xavier"
      std: 0.2
    }
    bias_filler {
      type: "constant"
      value: 0.2
    }
  }
}
layer {
  name: "inception_3a/relu_5x5_reduce"
  type: "ReLU"
  bottom: "inception_3a/5x5_reduce"
  top: "inception_3a/5x5_reduce"
}
layer {
  name: "inception_3a/5x5"
  type: "Convolution"
  bottom: "inception_3a/5x5_reduce"
  top: "inception_3a/5x5"
  param {
    lr_mult: 1
    decay_mult: 1
  }
  param {
    lr_mult: 2
    decay_mult: 0
  }
  convolution_param {
    num_output: 32
    pad: 2
    kernel_size: 5
    weight_filler {
      type: "xavier"
      std: 0.03
    }
    bias_filler {
      type: "constant"
      value: 0.2
    }
  }
}
layer {
  name: "inception_3a/relu_5x5"
  type: "ReLU"
  bottom: "inception_3a/5x5"
  top: "inception_3a/5x5"
}
layer {
  name: "inception_3a/pool"
  type: "Pooling"
  bottom: "pool2/3x3_s2"
  top: "inception_3a/pool"
  pooling_param {
    pool: MAX
    kernel_size: 3
    stride: 1
    pad: 1
  }
}
layer {
  name: "inception_3a/pool_proj"
  type: "Convolution"
  bottom: "inception_3a/pool"
  top: "inception_3a/pool_proj"
  param {
    lr_mult: 1
    decay_mult: 1
  }
  param {
    lr_mult: 2
    decay_mult: 0
  }
  convolution_param {
    num_output: 32
    kernel_size: 1
    weight_filler {
      type: "xavier"
      std: 0.1
    }
    bias_filler {
      type: "constant"
      value: 0.2
    }
  }
}
layer {
  name: "inception_3a/relu_pool_proj"
  type: "ReLU"
  bottom: "inception_3a/pool_proj"
  top: "inception_3a/pool_proj"
}
layer {
  name: "inception_3a/output"
  type: "Concat"
  bottom: "inception_3a/1x1"
  bottom: "inception_3a/3x3"
  bottom: "inception_3a/5x5"
  bottom: "inception_3a/pool_proj"
  top: "inception_3a/output"
}
layer {
  name: "inception_3b/1x1"
  type: "Convolution"
  bottom: "inception_3a/output"
  top: "inception_3b/1x1"
  param {
    lr_mult: 1
    decay_mult: 1
  }
  param {
    lr_mult: 2
    decay_mult: 0
  }
  convolution_param {
    num_output: 128
    kernel_size: 1
    weight_filler {
      type: "xavier"
      std: 0.03
    }
    bias_filler {
      type: "constant"
      value: 0.2
    }
  }
}
layer {
  name: "inception_3b/relu_1x1"
  type: "ReLU"
  bottom: "inception_3b/1x1"
  top: "inception_3b/1x1"
}
layer {
  name: "inception_3b/3x3_reduce"
  type: "Convolution"
  bottom: "inception_3a/output"
  top: "inception_3b/3x3_reduce"
  param {
    lr_mult: 1
    decay_mult: 1
  }
  param {
    lr_mult: 2
    decay_mult: 0
  }
  convolution_param {
    num_output: 128
    kernel_size: 1
    weight_filler {
      type: "xavier"
      std: 0.09
    }
    bias_filler {
      type: "constant"
      value: 0.2
    }
  }
}
layer {
  name: "inception_3b/relu_3x3_reduce"
  type: "ReLU"
  bottom: "inception_3b/3x3_reduce"
  top: "inception_3b/3x3_reduce"
}
layer {
  name: "inception_3b/3x3"
  type: "Convolution"
  bottom: "inception_3b/3x3_reduce"
  top: "inception_3b/3x3"
  param {
    lr_mult: 1
    decay_mult: 1
  }
  param {
    lr_mult: 2
    decay_mult: 0
  }
  convolution_param {
    num_output: 192
    pad: 1
    kernel_size: 3
    weight_filler {
      type: "xavier"
      std: 0.03
    }
    bias_filler {
      type: "constant"
      value: 0.2
    }
  }
}
layer {
  name: "inception_3b/relu_3x3"
  type: "ReLU"
  bottom: "inception_3b/3x3"
  top: "inception_3b/3x3"
}
layer {
  name: "inception_3b/5x5_reduce"
  type: "Convolution"
  bottom: "inception_3a/output"
  top: "inception_3b/5x5_reduce"
  param {
    lr_mult: 1
    decay_mult: 1
  }
  param {
    lr_mult: 2
    decay_mult: 0
  }
  convolution_param {
    num_output: 32
    kernel_size: 1
    weight_filler {
      type: "xavier"
      std: 0.2
    }
    bias_filler {
      type: "constant"
      value: 0.2
    }
  }
}
layer {
  name: "inception_3b/relu_5x5_reduce"
  type: "ReLU"
  bottom: "inception_3b/5x5_reduce"
  top: "inception_3b/5x5_reduce"
}
layer {
  name: "inception_3b/5x5"
  type: "Convolution"
  bottom: "inception_3b/5x5_reduce"
  top: "inception_3b/5x5"
  param {
    lr_mult: 1
    decay_mult: 1
  }
  param {
    lr_mult: 2
    decay_mult: 0
  }
  convolution_param {
    num_output: 96
    pad: 2
    kernel_size: 5
    weight_filler {
      type: "xavier"
      std: 0.03
    }
    bias_filler {
      type: "constant"
      value: 0.2
    }
  }
}
layer {
  name: "inception_3b/relu_5x5"
  type: "ReLU"
  bottom: "inception_3b/5x5"
  top: "inception_3b/5x5"
}
layer {
  name: "inception_3b/pool"
  type: "Pooling"
  bottom: "inception_3a/output"
  top: "inception_3b/pool"
  pooling_param {
    pool: MAX
    kernel_size: 3
    stride: 1
    pad: 1
  }
}
layer {
  name: "inception_3b/pool_proj"
  type: "Convolution"
  bottom: "inception_3b/pool"
  top: "inception_3b/pool_proj"
  param {
    lr_mult: 1
    decay_mult: 1
  }
  param {
    lr_mult: 2
    decay_mult: 0
  }
  convolution_param {
    num_output: 64
    kernel_size: 1
    weight_filler {
      type: "xavier"
      std: 0.1
    }
    bias_filler {
      type: "constant"
      value: 0.2
    }
  }
}
layer {
  name: "inception_3b/relu_pool_proj"
  type: "ReLU"
  bottom: "inception_3b/pool_proj"
  top: "inception_3b/pool_proj"
}
layer {
  name: "inception_3b/output"
  type: "Concat"
  bottom: "inception_3b/1x1"
  bottom: "inception_3b/3x3"
  bottom: "inception_3b/5x5"
  bottom: "inception_3b/pool_proj"
  top: "inception_3b/output"
}
layer {
  name: "pool3/3x3_s2"
  type: "Pooling"
  bottom: "inception_3b/output"
  top: "pool3/3x3_s2"
  pooling_param {
    pool: MAX
    kernel_size: 3
    stride: 2
  }
}
layer {
  name: "inception_4a/1x1"
  type: "Convolution"
  bottom: "pool3/3x3_s2"
  top: "inception_4a/1x1"
  param {
    lr_mult: 1
    decay_mult: 1
  }
  param {
    lr_mult: 2
    decay_mult: 0
  }
  convolution_param {
    num_output: 192
    kernel_size: 1
    weight_filler {
      type: "xavier"
      std: 0.03
    }
    bias_filler {
      type: "constant"
      value: 0.2
    }
  }
}
layer {
  name: "inception_4a/relu_1x1"
  type: "ReLU"
  bottom: "inception_4a/1x1"
  top: "inception_4a/1x1"
}
layer {
  name: "inception_4a/3x3_reduce"
  type: "Convolution"
  bottom: "pool3/3x3_s2"
  top: "inception_4a/3x3_reduce"
  param {
    lr_mult: 1
    decay_mult: 1
  }
  param {
    lr_mult: 2
    decay_mult: 0
  }
  convolution_param {
    num_output: 96
    kernel_size: 1
    weight_filler {
      type: "xavier"
      std: 0.09
    }
    bias_filler {
      type: "constant"
      value: 0.2
    }
  }
}
layer {
  name: "inception_4a/relu_3x3_reduce"
  type: "ReLU"
  bottom: "inception_4a/3x3_reduce"
  top: "inception_4a/3x3_reduce"
}
layer {
  name: "inception_4a/3x3"
  type: "Convolution"
  bottom: "inception_4a/3x3_reduce"
  top: "inception_4a/3x3"
  param {
    lr_mult: 1
    decay_mult: 1
  }
  param {
    lr_mult: 2
    decay_mult: 0
  }
  convolution_param {
    num_output: 208
    pad: 1
    kernel_size: 3
    weight_filler {
      type: "xavier"
      std: 0.03
    }
    bias_filler {
      type: "constant"
      value: 0.2
    }
  }
}
layer {
  name: "inception_4a/relu_3x3"
  type: "ReLU"
  bottom: "inception_4a/3x3"
  top: "inception_4a/3x3"
}
layer {
  name: "inception_4a/5x5_reduce"
  type: "Convolution"
  bottom: "pool3/3x3_s2"
  top: "inception_4a/5x5_reduce"
  param {
    lr_mult: 1
    decay_mult: 1
  }
  param {
    lr_mult: 2
    decay_mult: 0
  }
  convolution_param {
    num_output: 16
    kernel_size: 1
    weight_filler {
      type: "xavier"
      std: 0.2
    }
    bias_filler {
      type: "constant"
      value: 0.2
    }
  }
}
layer {
  name: "inception_4a/relu_5x5_reduce"
  type: "ReLU"
  bottom: "inception_4a/5x5_reduce"
  top: "inception_4a/5x5_reduce"
}
layer {
  name: "inception_4a/5x5"
  type: "Convolution"
  bottom: "inception_4a/5x5_reduce"
  top: "inception_4a/5x5"
  param {
    lr_mult: 1
    decay_mult: 1
  }
  param {
    lr_mult: 2
    decay_mult: 0
  }
  convolution_param {
    num_output: 48
    pad: 2
    kernel_size: 5
    weight_filler {
      type: "xavier"
      std: 0.03
    }
    bias_filler {
      type: "constant"
      value: 0.2
    }
  }
}
layer {
  name: "inception_4a/relu_5x5"
  type: "ReLU"
  bottom: "inception_4a/5x5"
  top: "inception_4a/5x5"
}
layer {
  name: "inception_4a/pool"
  type: "Pooling"
  bottom: "pool3/3x3_s2"
  top: "inception_4a/pool"
  pooling_param {
    pool: MAX
    kernel_size: 3
    stride: 1
    pad: 1
  }
}
layer {
  name: "inception_4a/pool_proj"
  type: "Convolution"
  bottom: "inception_4a/pool"
  top: "inception_4a/pool_proj"
  param {
    lr_mult: 1
    decay_mult: 1
  }
  param {
    lr_mult: 2
    decay_mult: 0
  }
  convolution_param {
    num_output: 64
    kernel_size: 1
    weight_filler {
      type: "xavier"
      std: 0.1
    }
    bias_filler {
      type: "constant"
      value: 0.2
    }
  }
}
layer {
  name: "inception_4a/relu_pool_proj"
  type: "ReLU"
  bottom: "inception_4a/pool_proj"
  top: "inception_4a/pool_proj"
}
layer {
  name: "inception_4a/output"
  type: "Concat"
  bottom: "inception_4a/1x1"
  bottom: "inception_4a/3x3"
  bottom: "inception_4a/5x5"
  bottom: "inception_4a/pool_proj"
  top: "inception_4a/output"
}
layer {
  name: "loss1/ave_pool"
  type: "Pooling"
  bottom: "inception_4a/output"
  top: "loss1/ave_pool"
  pooling_param {
    pool: AVE
    kernel_size: 5
    stride: 3
  }
}
layer {
  name: "loss1/conv"
  type: "Convolution"
  bottom: "loss1/ave_pool"
  top: "loss1/conv"
  param {
    lr_mult: 1
    decay_mult: 1
  }
  param {
    lr_mult: 2
    decay_mult: 0
  }
  convolution_param {
    num_output: 128
    kernel_size: 1
    weight_filler {
      type: "xavier"
      std: 0.08
    }
    bias_filler {
      type: "constant"
      value: 0.2
    }
  }
}
layer {
  name: "loss1/relu_conv"
  type: "ReLU"
  bottom: "loss1/conv"
  top: "loss1/conv"
}
layer {
  name: "loss1/fc"
  type: "InnerProduct"
  bottom: "loss1/conv"
  top: "loss1/fc"
  param {
    lr_mult: 1
    decay_mult: 1
  }
  param {
    lr_mult: 2
    decay_mult: 0
  }
  inner_product_param {
    num_output: 1024
    weight_filler {
      type: "xavier"
      std: 0.02
    }
    bias_filler {
      type: "constant"
      value: 0.2
    }
  }
}
layer {
  name: "loss1/relu_fc"
  type: "ReLU"
  bottom: "loss1/fc"
  top: "loss1/fc"
}
layer {
  name: "loss1/drop_fc"
  type: "Dropout"
  bottom: "loss1/fc"
  top: "loss1/fc"
  dropout_param {
    dropout_ratio: 0.7
  }
}
layer {
  name: "loss1/classifier_plantvillage"
  type: "InnerProduct"
  bottom: "loss1/fc"
  top: "loss1/classifier_plantvillage"
  param {
    lr_mult: 1
    decay_mult: 1
  }
  param {
    lr_mult: 2
    decay_mult: 0
  }
  inner_product_param {
    num_output: 38
    weight_filler {
      type: "xavier"
      std: 0.0009765625
    }
    bias_filler {
      type: "constant"
      value: 0
    }
  }
}
layer {
  name: "inception_4b/1x1"
  type: "Convolution"
  bottom: "inception_4a/output"
  top: "inception_4b/1x1"
  param {
    lr_mult: 1
    decay_mult: 1
  }
  param {
    lr_mult: 2
    decay_mult: 0
  }
  convolution_param {
    num_output: 160
    kernel_size: 1
    weight_filler {
      type: "xavier"
      std: 0.03
    }
    bias_filler {
      type: "constant"
      value: 0.2
    }
  }
}
layer {
  name: "inception_4b/relu_1x1"
  type: "ReLU"
  bottom: "inception_4b/1x1"
  top: "inception_4b/1x1"
}
layer {
  name: "inception_4b/3x3_reduce"
  type: "Convolution"
  bottom: "inception_4a/output"
  top: "inception_4b/3x3_reduce"
  param {
    lr_mult: 1
    decay_mult: 1
  }
  param {
    lr_mult: 2
    decay_mult: 0
  }
  convolution_param {
    num_output: 112
    kernel_size: 1
    weight_filler {
      type: "xavier"
      std: 0.09
    }
    bias_filler {
      type: "constant"
      value: 0.2
    }
  }
}
layer {
  name: "inception_4b/relu_3x3_reduce"
  type: "ReLU"
  bottom: "inception_4b/3x3_reduce"
  top: "inception_4b/3x3_reduce"
}
layer {
  name: "inception_4b/3x3"
  type: "Convolution"
  bottom: "inception_4b/3x3_reduce"
  top: "inception_4b/3x3"
  param {
    lr_mult: 1
    decay_mult: 1
  }
  param {
    lr_mult: 2
    decay_mult: 0
  }
  convolution_param {
    num_output: 224
    pad: 1
    kernel_size: 3
    weight_filler {
      type: "xavier"
      std: 0.03
    }
    bias_filler {
      type: "constant"
      value: 0.2
    }
  }
}
layer {
  name: "inception_4b/relu_3x3"
  type: "ReLU"
  bottom: "inception_4b/3x3"
  top: "inception_4b/3x3"
}
layer {
  name: "inception_4b/5x5_reduce"
  type: "Convolution"
  bottom: "inception_4a/output"
  top: "inception_4b/5x5_reduce"
  param {
    lr_mult: 1
    decay_mult: 1
  }
  param {
    lr_mult: 2
    decay_mult: 0
  }
  convolution_param {
    num_output: 24
    kernel_size: 1
    weight_filler {
      type: "xavier"
      std: 0.2
    }
    bias_filler {
      type: "constant"
      value: 0.2
    }
  }
}
layer {
  name: "inception_4b/relu_5x5_reduce"
  type: "ReLU"
  bottom: "inception_4b/5x5_reduce"
  top: "inception_4b/5x5_reduce"
}
layer {
  name: "inception_4b/5x5"
  type: "Convolution"
  bottom: "inception_4b/5x5_reduce"
  top: "inception_4b/5x5"
  param {
    lr_mult: 1
    decay_mult: 1
  }
  param {
    lr_mult: 2
    decay_mult: 0
  }
  convolution_param {
    num_output: 64
    pad: 2
    kernel_size: 5
    weight_filler {
      type: "xavier"
      std: 0.03
    }
    bias_filler {
      type: "constant"
      value: 0.2
    }
  }
}
layer {
  name: "inception_4b/relu_5x5"
  type: "ReLU"
  bottom: "inception_4b/5x5"
  top: "inception_4b/5x5"
}
layer {
  name: "inception_4b/pool"
  type: "Pooling"
  bottom: "inception_4a/output"
  top: "inception_4b/pool"
  pooling_param {
    pool: MAX
    kernel_size: 3
    stride: 1
    pad: 1
  }
}
layer {
  name: "inception_4b/pool_proj"
  type: "Convolution"
  bottom: "inception_4b/pool"
  top: "inception_4b/pool_proj"
  param {
    lr_mult: 1
    decay_mult: 1
  }
  param {
    lr_mult: 2
    decay_mult: 0
  }
  convolution_param {
    num_output: 64
    kernel_size: 1
    weight_filler {
      type: "xavier"
      std: 0.1
    }
    bias_filler {
      type: "constant"
      value: 0.2
    }
  }
}
layer {
  name: "inception_4b/relu_pool_proj"
  type: "ReLU"
  bottom: "inception_4b/pool_proj"
  top: "inception_4b/pool_proj"
}
layer {
  name: "inception_4b/output"
  type: "Concat"
  bottom: "inception_4b/1x1"
  bottom: "inception_4b/3x3"
  bottom: "inception_4b/5x5"
  bottom: "inception_4b/pool_proj"
  top: "inception_4b/output"
}
layer {
  name: "inception_4c/1x1"
  type: "Convolution"
  bottom: "inception_4b/output"
  top: "inception_4c/1x1"
  param {
    lr_mult: 1
    decay_mult: 1
  }
  param {
    lr_mult: 2
    decay_mult: 0
  }
  convolution_param {
    num_output: 128
    kernel_size: 1
    weight_filler {
      type: "xavier"
      std: 0.03
    }
    bias_filler {
      type: "constant"
      value: 0.2
    }
  }
}
layer {
  name: "inception_4c/relu_1x1"
  type: "ReLU"
  bottom: "inception_4c/1x1"
  top: "inception_4c/1x1"
}
layer {
  name: "inception_4c/3x3_reduce"
  type: "Convolution"
  bottom: "inception_4b/output"
  top: "inception_4c/3x3_reduce"
  param {
    lr_mult: 1
    decay_mult: 1
  }
  param {
    lr_mult: 2
    decay_mult: 0
  }
  convolution_param {
    num_output: 128
    kernel_size: 1
    weight_filler {
      type: "xavier"
      std: 0.09
    }
    bias_filler {
      type: "constant"
      value: 0.2
    }
  }
}
layer {
  name: "inception_4c/relu_3x3_reduce"
  type: "ReLU"
  bottom: "inception_4c/3x3_reduce"
  top: "inception_4c/3x3_reduce"
}
layer {
  name: "inception_4c/3x3"
  type: "Convolution"
  bottom: "inception_4c/3x3_reduce"
  top: "inception_4c/3x3"
  param {
    lr_mult: 1
    decay_mult: 1
  }
  param {
    lr_mult: 2
    decay_mult: 0
  }
  convolution_param {
    num_output: 256
    pad: 1
    kernel_size: 3
    weight_filler {
      type: "xavier"
      std: 0.03
    }
    bias_filler {
      type: "constant"
      value: 0.2
    }
  }
}
layer {
  name: "inception_4c/relu_3x3"
  type: "ReLU"
  bottom: "inception_4c/3x3"
  top: "inception_4c/3x3"
}
layer {
  name: "inception_4c/5x5_reduce"
  type: "Convolution"
  bottom: "inception_4b/output"
  top: "inception_4c/5x5_reduce"
  param {
    lr_mult: 1
    decay_mult: 1
  }
  param {
    lr_mult: 2
    decay_mult: 0
  }
  convolution_param {
    num_output: 24
    kernel_size: 1
    weight_filler {
      type: "xavier"
      std: 0.2
    }
    bias_filler {
      type: "constant"
      value: 0.2
    }
  }
}
layer {
  name: "inception_4c/relu_5x5_reduce"
  type: "ReLU"
  bottom: "inception_4c/5x5_reduce"
  top: "inception_4c/5x5_reduce"
}
layer {
  name: "inception_4c/5x5"
  type: "Convolution"
  bottom: "inception_4c/5x5_reduce"
  top: "inception_4c/5x5"
  param {
    lr_mult: 1
    decay_mult: 1
  }
  param {
    lr_mult: 2
    decay_mult: 0
  }
  convolution_param {
    num_output: 64
    pad: 2
    kernel_size: 5
    weight_filler {
      type: "xavier"
      std: 0.03
    }
    bias_filler {
      type: "constant"
      value: 0.2
    }
  }
}
layer {
  name: "inception_4c/relu_5x5"
  type: "ReLU"
  bottom: "inception_4c/5x5"
  top: "inception_4c/5x5"
}
layer {
  name: "inception_4c/pool"
  type: "Pooling"
  bottom: "inception_4b/output"
  top: "inception_4c/pool"
  pooling_param {
    pool: MAX
    kernel_size: 3
    stride: 1
    pad: 1
  }
}
layer {
  name: "inception_4c/pool_proj"
  type: "Convolution"
  bottom: "inception_4c/pool"
  top: "inception_4c/pool_proj"
  param {
    lr_mult: 1
    decay_mult: 1
  }
  param {
    lr_mult: 2
    decay_mult: 0
  }
  convolution_param {
    num_output: 64
    kernel_size: 1
    weight_filler {
      type: "xavier"
      std: 0.1
    }
    bias_filler {
      type: "constant"
      value: 0.2
    }
  }
}
layer {
  name: "inception_4c/relu_pool_proj"
  type: "ReLU"
  bottom: "inception_4c/pool_proj"
  top: "inception_4c/pool_proj"
}
layer {
  name: "inception_4c/output"
  type: "Concat"
  bottom: "inception_4c/1x1"
  bottom: "inception_4c/3x3"
  bottom: "inception_4c/5x5"
  bottom: "inception_4c/pool_proj"
  top: "inception_4c/output"
}
layer {
  name: "inception_4d/1x1"
  type: "Convolution"
  bottom: "inception_4c/output"
  top: "inception_4d/1x1"
  param {
    lr_mult: 1
    decay_mult: 1
  }
  param {
    lr_mult: 2
    decay_mult: 0
  }
  convolution_param {
    num_output: 112
    kernel_size: 1
    weight_filler {
      type: "xavier"
      std: 0.03
    }
    bias_filler {
      type: "constant"
      value: 0.2
    }
  }
}
layer {
  name: "inception_4d/relu_1x1"
  type: "ReLU"
  bottom: "inception_4d/1x1"
  top: "inception_4d/1x1"
}
layer {
  name: "inception_4d/3x3_reduce"
  type: "Convolution"
  bottom: "inception_4c/output"
  top: "inception_4d/3x3_reduce"
  param {
    lr_mult: 1
    decay_mult: 1
  }
  param {
    lr_mult: 2
    decay_mult: 0
  }
  convolution_param {
    num_output: 144
    kernel_size: 1
    weight_filler {
      type: "xavier"
      std: 0.09
    }
    bias_filler {
      type: "constant"
      value: 0.2
    }
  }
}
layer {
  name: "inception_4d/relu_3x3_reduce"
  type: "ReLU"
  bottom: "inception_4d/3x3_reduce"
  top: "inception_4d/3x3_reduce"
}
layer {
  name: "inception_4d/3x3"
  type: "Convolution"
  bottom: "inception_4d/3x3_reduce"
  top: "inception_4d/3x3"
  param {
    lr_mult: 1
    decay_mult: 1
  }
  param {
    lr_mult: 2
    decay_mult: 0
  }
  convolution_param {
    num_output: 288
    pad: 1
    kernel_size: 3
    weight_filler {
      type: "xavier"
      std: 0.03
    }
    bias_filler {
      type: "constant"
      value: 0.2
    }
  }
}
layer {
  name: "inception_4d/relu_3x3"
  type: "ReLU"
  bottom: "inception_4d/3x3"
  top: "inception_4d/3x3"
}
layer {
  name: "inception_4d/5x5_reduce"
  type: "Convolution"
  bottom: "inception_4c/output"
  top: "inception_4d/5x5_reduce"
  param {
    lr_mult: 1
    decay_mult: 1
  }
  param {
    lr_mult: 2
    decay_mult: 0
  }
  convolution_param {
    num_output: 32
    kernel_size: 1
    weight_filler {
      type: "xavier"
      std: 0.2
    }
    bias_filler {
      type: "constant"
      value: 0.2
    }
  }
}
layer {
  name: "inception_4d/relu_5x5_reduce"
  type: "ReLU"
  bottom: "inception_4d/5x5_reduce"
  top: "inception_4d/5x5_reduce"
}
layer {
  name: "inception_4d/5x5"
  type: "Convolution"
  bottom: "inception_4d/5x5_reduce"
  top: "inception_4d/5x5"
  param {
    lr_mult: 1
    decay_mult: 1
  }
  param {
    lr_mult: 2
    decay_mult: 0
  }
  convolution_param {
    num_output: 64
    pad: 2
    kernel_size: 5
    weight_filler {
      type: "xavier"
      std: 0.03
    }
    bias_filler {
      type: "constant"
      value: 0.2
    }
  }
}
layer {
  name: "inception_4d/relu_5x5"
  type: "ReLU"
  bottom: "inception_4d/5x5"
  top: "inception_4d/5x5"
}
layer {
  name: "inception_4d/pool"
  type: "Pooling"
  bottom: "inception_4c/output"
  top: "inception_4d/pool"
  pooling_param {
    pool: MAX
    kernel_size: 3
    stride: 1
    pad: 1
  }
}
layer {
  name: "inception_4d/pool_proj"
  type: "Convolution"
  bottom: "inception_4d/pool"
  top: "inception_4d/pool_proj"
  param {
    lr_mult: 1
    decay_mult: 1
  }
  param {
    lr_mult: 2
    decay_mult: 0
  }
  convolution_param {
    num_output: 64
    kernel_size: 1
    weight_filler {
      type: "xavier"
      std: 0.1
    }
    bias_filler {
      type: "constant"
      value: 0.2
    }
  }
}
layer {
  name: "inception_4d/relu_pool_proj"
  type: "ReLU"
  bottom: "inception_4d/pool_proj"
  top: "inception_4d/pool_proj"
}
layer {
  name: "inception_4d/output"
  type: "Concat"
  bottom: "inception_4d/1x1"
  bottom: "inception_4d/3x3"
  bottom: "inception_4d/5x5"
  bottom: "inception_4d/pool_proj"
  top: "inception_4d/output"
}
layer {
  name: "loss2/ave_pool"
  type: "Pooling"
  bottom: "inception_4d/output"
  top: "loss2/ave_pool"
  pooling_param {
    pool: AVE
    kernel_size: 5
    stride: 3
  }
}
layer {
  name: "loss2/conv"
  type: "Convolution"
  bottom: "loss2/ave_pool"
  top: "loss2/conv"
  param {
    lr_mult: 1
    decay_mult: 1
  }
  param {
    lr_mult: 2
    decay_mult: 0
  }
  convolution_param {
    num_output: 128
    kernel_size: 1
    weight_filler {
      type: "xavier"
      std: 0.08
    }
    bias_filler {
      type: "constant"
      value: 0.2
    }
  }
}
layer {
  name: "loss2/relu_conv"
  type: "ReLU"
  bottom: "loss2/conv"
  top: "loss2/conv"
}
layer {
  name: "loss2/fc"
  type: "InnerProduct"
  bottom: "loss2/conv"
  top: "loss2/fc"
  param {
    lr_mult: 1
    decay_mult: 1
  }
  param {
    lr_mult: 2
    decay_mult: 0
  }
  inner_product_param {
    num_output: 1024
    weight_filler {
      type: "xavier"
      std: 0.02
    }
    bias_filler {
      type: "constant"
      value: 0.2
    }
  }
}
layer {
  name: "loss2/relu_fc"
  type: "ReLU"
  bottom: "loss2/fc"
  top: "loss2/fc"
}
layer {
  name: "loss2/drop_fc"
  type: "Dropout"
  bottom: "loss2/fc"
  top: "loss2/fc"
  dropout_param {
    dropout_ratio: 0.7
  }
}
layer {
  name: "loss2/classifier_plantvillage"
  type: "InnerProduct"
  bottom: "loss2/fc"
  top: "loss2/classifier_plantvillage"
  param {
    lr_mult: 1
    decay_mult: 1
  }
  param {
    lr_mult: 2
    decay_mult: 0
  }
  inner_product_param {
    num_output: 38
    weight_filler {
      type: "xavier"
      std: 0.0009765625
    }
    bias_filler {
      type: "constant"
      value: 0
    }
  }
}
layer {
  name: "inception_4e/1x1"
  type: "Convolution"
  bottom: "inception_4d/output"
  top: "inception_4e/1x1"
  param {
    lr_mult: 1
    decay_mult: 1
  }
  param {
    lr_mult: 2
    decay_mult: 0
  }
  convolution_param {
    num_output: 256
    kernel_size: 1
    weight_filler {
      type: "xavier"
      std: 0.03
    }
    bias_filler {
      type: "constant"
      value: 0.2
    }
  }
}
layer {
  name: "inception_4e/relu_1x1"
  type: "ReLU"
  bottom: "inception_4e/1x1"
  top: "inception_4e/1x1"
}
layer {
  name: "inception_4e/3x3_reduce"
  type: "Convolution"
  bottom: "inception_4d/output"
  top: "inception_4e/3x3_reduce"
  param {
    lr_mult: 1
    decay_mult: 1
  }
  param {
    lr_mult: 2
    decay_mult: 0
  }
  convolution_param {
    num_output: 160
    kernel_size: 1
    weight_filler {
      type: "xavier"
      std: 0.09
    }
    bias_filler {
      type: "constant"
      value: 0.2
    }
  }
}
layer {
  name: "inception_4e/relu_3x3_reduce"
  type: "ReLU"
  bottom: "inception_4e/3x3_reduce"
  top: "inception_4e/3x3_reduce"
}
layer {
  name: "inception_4e/3x3"
  type: "Convolution"
  bottom: "inception_4e/3x3_reduce"
  top: "inception_4e/3x3"
  param {
    lr_mult: 1
    decay_mult: 1
  }
  param {
    lr_mult: 2
    decay_mult: 0
  }
  convolution_param {
    num_output: 320
    pad: 1
    kernel_size: 3
    weight_filler {
      type: "xavier"
      std: 0.03
    }
    bias_filler {
      type: "constant"
      value: 0.2
    }
  }
}
layer {
  name: "inception_4e/relu_3x3"
  type: "ReLU"
  bottom: "inception_4e/3x3"
  top: "inception_4e/3x3"
}
layer {
  name: "inception_4e/5x5_reduce"
  type: "Convolution"
  bottom: "inception_4d/output"
  top: "inception_4e/5x5_reduce"
  param {
    lr_mult: 1
    decay_mult: 1
  }
  param {
    lr_mult: 2
    decay_mult: 0
  }
  convolution_param {
    num_output: 32
    kernel_size: 1
    weight_filler {
      type: "xavier"
      std: 0.2
    }
    bias_filler {
      type: "constant"
      value: 0.2
    }
  }
}
layer {
  name: "inception_4e/relu_5x5_reduce"
  type: "ReLU"
  bottom: "inception_4e/5x5_reduce"
  top: "inception_4e/5x5_reduce"
}
layer {
  name: "inception_4e/5x5"
  type: "Convolution"
  bottom: "inception_4e/5x5_reduce"
  top: "inception_4e/
I0403 19:17:08.598006 19352 layer_factory.hpp:77] Creating layer data
I0403 19:17:08.598630 19352 net.cpp:91] Creating Layer data
I0403 19:17:08.598661 19352 net.cpp:399] data -> data
I0403 19:17:08.598714 19352 net.cpp:399] data -> label
I0403 19:17:08.598752 19352 data_transformer.cpp:25] Loading mean file from: /home/mohanty/data/final_dataset/lmdb/segmented-60-40/mean.binaryproto
I0403 19:17:08.599974 19354 db_lmdb.cpp:38] Opened lmdb /home/mohanty/data/final_dataset/lmdb/segmented-60-40/test_db
I0403 19:17:08.611768 19352 data_layer.cpp:41] output data size: 24,3,224,224
I0403 19:17:08.638876 19352 net.cpp:141] Setting up data
I0403 19:17:08.638969 19352 net.cpp:148] Top shape: 24 3 224 224 (3612672)
I0403 19:17:08.638995 19352 net.cpp:148] Top shape: 24 (24)
I0403 19:17:08.639013 19352 net.cpp:156] Memory required for data: 14450784
I0403 19:17:08.639040 19352 layer_factory.hpp:77] Creating layer label_data_1_split
I0403 19:17:08.639068 19352 net.cpp:91] Creating Layer label_data_1_split
I0403 19:17:08.639089 19352 net.cpp:425] label_data_1_split <- label
I0403 19:17:08.639120 19352 net.cpp:399] label_data_1_split -> label_data_1_split_0
I0403 19:17:08.639148 19352 net.cpp:399] label_data_1_split -> label_data_1_split_1
I0403 19:17:08.639171 19352 net.cpp:399] label_data_1_split -> label_data_1_split_2
I0403 19:17:08.639194 19352 net.cpp:399] label_data_1_split -> label_data_1_split_3
I0403 19:17:08.639215 19352 net.cpp:399] label_data_1_split -> label_data_1_split_4
I0403 19:17:08.639237 19352 net.cpp:399] label_data_1_split -> label_data_1_split_5
I0403 19:17:08.639258 19352 net.cpp:399] label_data_1_split -> label_data_1_split_6
I0403 19:17:08.639279 19352 net.cpp:399] label_data_1_split -> label_data_1_split_7
I0403 19:17:08.639299 19352 net.cpp:399] label_data_1_split -> label_data_1_split_8
I0403 19:17:08.639320 19352 net.cpp:399] label_data_1_split -> label_data_1_split_9
I0403 19:17:08.639436 19352 net.cpp:141] Setting up label_data_1_split
I0403 19:17:08.639461 19352 net.cpp:148] Top shape: 24 (24)
I0403 19:17:08.639477 19352 net.cpp:148] Top shape: 24 (24)
I0403 19:17:08.639494 19352 net.cpp:148] Top shape: 24 (24)
I0403 19:17:08.639510 19352 net.cpp:148] Top shape: 24 (24)
I0403 19:17:08.639526 19352 net.cpp:148] Top shape: 24 (24)
I0403 19:17:08.639542 19352 net.cpp:148] Top shape: 24 (24)
I0403 19:17:08.639559 19352 net.cpp:148] Top shape: 24 (24)
I0403 19:17:08.639575 19352 net.cpp:148] Top shape: 24 (24)
I0403 19:17:08.639590 19352 net.cpp:148] Top shape: 24 (24)
I0403 19:17:08.639605 19352 net.cpp:148] Top shape: 24 (24)
I0403 19:17:08.639648 19352 net.cpp:156] Memory required for data: 14451744
I0403 19:17:08.639664 19352 layer_factory.hpp:77] Creating layer conv1/7x7_s2
I0403 19:17:08.639695 19352 net.cpp:91] Creating Layer conv1/7x7_s2
I0403 19:17:08.639714 19352 net.cpp:425] conv1/7x7_s2 <- data
I0403 19:17:08.639734 19352 net.cpp:399] conv1/7x7_s2 -> conv1/7x7_s2
I0403 19:17:08.775938 19352 net.cpp:141] Setting up conv1/7x7_s2
I0403 19:17:08.776027 19352 net.cpp:148] Top shape: 24 64 112 112 (19267584)
I0403 19:17:08.776044 19352 net.cpp:156] Memory required for data: 91522080
I0403 19:17:08.776075 19352 layer_factory.hpp:77] Creating layer conv1/relu_7x7
I0403 19:17:08.776103 19352 net.cpp:91] Creating Layer conv1/relu_7x7
I0403 19:17:08.776121 19352 net.cpp:425] conv1/relu_7x7 <- conv1/7x7_s2
I0403 19:17:08.776140 19352 net.cpp:386] conv1/relu_7x7 -> conv1/7x7_s2 (in-place)
I0403 19:17:08.776389 19352 net.cpp:141] Setting up conv1/relu_7x7
I0403 19:17:08.776415 19352 net.cpp:148] Top shape: 24 64 112 112 (19267584)
I0403 19:17:08.776430 19352 net.cpp:156] Memory required for data: 168592416
I0403 19:17:08.776445 19352 layer_factory.hpp:77] Creating layer pool1/3x3_s2
I0403 19:17:08.776470 19352 net.cpp:91] Creating Layer pool1/3x3_s2
I0403 19:17:08.776489 19352 net.cpp:425] pool1/3x3_s2 <- conv1/7x7_s2
I0403 19:17:08.776509 19352 net.cpp:399] pool1/3x3_s2 -> pool1/3x3_s2
I0403 19:17:08.776581 19352 net.cpp:141] Setting up pool1/3x3_s2
I0403 19:17:08.776603 19352 net.cpp:148] Top shape: 24 64 56 56 (4816896)
I0403 19:17:08.776618 19352 net.cpp:156] Memory required for data: 187860000
I0403 19:17:08.776633 19352 layer_factory.hpp:77] Creating layer pool1/norm1
I0403 19:17:08.776657 19352 net.cpp:91] Creating Layer pool1/norm1
I0403 19:17:08.776674 19352 net.cpp:425] pool1/norm1 <- pool1/3x3_s2
I0403 19:17:08.776692 19352 net.cpp:399] pool1/norm1 -> pool1/norm1
I0403 19:17:08.776983 19352 net.cpp:141] Setting up pool1/norm1
I0403 19:17:08.777011 19352 net.cpp:148] Top shape: 24 64 56 56 (4816896)
I0403 19:17:08.777027 19352 net.cpp:156] Memory required for data: 207127584
I0403 19:17:08.777043 19352 layer_factory.hpp:77] Creating layer conv2/3x3_reduce
I0403 19:17:08.777070 19352 net.cpp:91] Creating Layer conv2/3x3_reduce
I0403 19:17:08.777086 19352 net.cpp:425] conv2/3x3_reduce <- pool1/norm1
I0403 19:17:08.777106 19352 net.cpp:399] conv2/3x3_reduce -> conv2/3x3_reduce
I0403 19:17:08.778399 19352 net.cpp:141] Setting up conv2/3x3_reduce
I0403 19:17:08.778429 19352 net.cpp:148] Top shape: 24 64 56 56 (4816896)
I0403 19:17:08.778445 19352 net.cpp:156] Memory required for data: 226395168
I0403 19:17:08.778466 19352 layer_factory.hpp:77] Creating layer conv2/relu_3x3_reduce
I0403 19:17:08.778487 19352 net.cpp:91] Creating Layer conv2/relu_3x3_reduce
I0403 19:17:08.778504 19352 net.cpp:425] conv2/relu_3x3_reduce <- conv2/3x3_reduce
I0403 19:17:08.778523 19352 net.cpp:386] conv2/relu_3x3_reduce -> conv2/3x3_reduce (in-place)
I0403 19:17:08.778770 19352 net.cpp:141] Setting up conv2/relu_3x3_reduce
I0403 19:17:08.778796 19352 net.cpp:148] Top shape: 24 64 56 56 (4816896)
I0403 19:17:08.778812 19352 net.cpp:156] Memory required for data: 245662752
I0403 19:17:08.778828 19352 layer_factory.hpp:77] Creating layer conv2/3x3
I0403 19:17:08.778851 19352 net.cpp:91] Creating Layer conv2/3x3
I0403 19:17:08.778868 19352 net.cpp:425] conv2/3x3 <- conv2/3x3_reduce
I0403 19:17:08.778887 19352 net.cpp:399] conv2/3x3 -> conv2/3x3
I0403 19:17:08.781095 19352 net.cpp:141] Setting up conv2/3x3
I0403 19:17:08.781124 19352 net.cpp:148] Top shape: 24 192 56 56 (14450688)
I0403 19:17:08.781141 19352 net.cpp:156] Memory required for data: 303465504
I0403 19:17:08.781162 19352 layer_factory.hpp:77] Creating layer conv2/relu_3x3
I0403 19:17:08.781183 19352 net.cpp:91] Creating Layer conv2/relu_3x3
I0403 19:17:08.781198 19352 net.cpp:425] conv2/relu_3x3 <- conv2/3x3
I0403 19:17:08.781216 19352 net.cpp:386] conv2/relu_3x3 -> conv2/3x3 (in-place)
I0403 19:17:08.781373 19352 net.cpp:141] Setting up conv2/relu_3x3
I0403 19:17:08.781399 19352 net.cpp:148] Top shape: 24 192 56 56 (14450688)
I0403 19:17:08.781443 19352 net.cpp:156] Memory required for data: 361268256
I0403 19:17:08.781461 19352 layer_factory.hpp:77] Creating layer conv2/norm2
I0403 19:17:08.781479 19352 net.cpp:91] Creating Layer conv2/norm2
I0403 19:17:08.781497 19352 net.cpp:425] conv2/norm2 <- conv2/3x3
I0403 19:17:08.781515 19352 net.cpp:399] conv2/norm2 -> conv2/norm2
I0403 19:17:08.781795 19352 net.cpp:141] Setting up conv2/norm2
I0403 19:17:08.781821 19352 net.cpp:148] Top shape: 24 192 56 56 (14450688)
I0403 19:17:08.781837 19352 net.cpp:156] Memory required for data: 419071008
I0403 19:17:08.781852 19352 layer_factory.hpp:77] Creating layer pool2/3x3_s2
I0403 19:17:08.781872 19352 net.cpp:91] Creating Layer pool2/3x3_s2
I0403 19:17:08.781888 19352 net.cpp:425] pool2/3x3_s2 <- conv2/norm2
I0403 19:17:08.781906 19352 net.cpp:399] pool2/3x3_s2 -> pool2/3x3_s2
I0403 19:17:08.781960 19352 net.cpp:141] Setting up pool2/3x3_s2
I0403 19:17:08.781982 19352 net.cpp:148] Top shape: 24 192 28 28 (3612672)
I0403 19:17:08.781998 19352 net.cpp:156] Memory required for data: 433521696
I0403 19:17:08.782013 19352 layer_factory.hpp:77] Creating layer pool2/3x3_s2_pool2/3x3_s2_0_split
I0403 19:17:08.782032 19352 net.cpp:91] Creating Layer pool2/3x3_s2_pool2/3x3_s2_0_split
I0403 19:17:08.782047 19352 net.cpp:425] pool2/3x3_s2_pool2/3x3_s2_0_split <- pool2/3x3_s2
I0403 19:17:08.782064 19352 net.cpp:399] pool2/3x3_s2_pool2/3x3_s2_0_split -> pool2/3x3_s2_pool2/3x3_s2_0_split_0
I0403 19:17:08.782083 19352 net.cpp:399] pool2/3x3_s2_pool2/3x3_s2_0_split -> pool2/3x3_s2_pool2/3x3_s2_0_split_1
I0403 19:17:08.782104 19352 net.cpp:399] pool2/3x3_s2_pool2/3x3_s2_0_split -> pool2/3x3_s2_pool2/3x3_s2_0_split_2
I0403 19:17:08.782124 19352 net.cpp:399] pool2/3x3_s2_pool2/3x3_s2_0_split -> pool2/3x3_s2_pool2/3x3_s2_0_split_3
I0403 19:17:08.782188 19352 net.cpp:141] Setting up pool2/3x3_s2_pool2/3x3_s2_0_split
I0403 19:17:08.782212 19352 net.cpp:148] Top shape: 24 192 28 28 (3612672)
I0403 19:17:08.782229 19352 net.cpp:148] Top shape: 24 192 28 28 (3612672)
I0403 19:17:08.782246 19352 net.cpp:148] Top shape: 24 192 28 28 (3612672)
I0403 19:17:08.782263 19352 net.cpp:148] Top shape: 24 192 28 28 (3612672)
I0403 19:17:08.782277 19352 net.cpp:156] Memory required for data: 491324448
I0403 19:17:08.782292 19352 layer_factory.hpp:77] Creating layer inception_3a/1x1
I0403 19:17:08.782313 19352 net.cpp:91] Creating Layer inception_3a/1x1
I0403 19:17:08.782330 19352 net.cpp:425] inception_3a/1x1 <- pool2/3x3_s2_pool2/3x3_s2_0_split_0
I0403 19:17:08.782349 19352 net.cpp:399] inception_3a/1x1 -> inception_3a/1x1
I0403 19:17:08.783812 19352 net.cpp:141] Setting up inception_3a/1x1
I0403 19:17:08.783841 19352 net.cpp:148] Top shape: 24 64 28 28 (1204224)
I0403 19:17:08.783857 19352 net.cpp:156] Memory required for data: 496141344
I0403 19:17:08.783876 19352 layer_factory.hpp:77] Creating layer inception_3a/relu_1x1
I0403 19:17:08.783898 19352 net.cpp:91] Creating Layer inception_3a/relu_1x1
I0403 19:17:08.783916 19352 net.cpp:425] inception_3a/relu_1x1 <- inception_3a/1x1
I0403 19:17:08.783934 19352 net.cpp:386] inception_3a/relu_1x1 -> inception_3a/1x1 (in-place)
I0403 19:17:08.784116 19352 net.cpp:141] Setting up inception_3a/relu_1x1
I0403 19:17:08.784140 19352 net.cpp:148] Top shape: 24 64 28 28 (1204224)
I0403 19:17:08.784157 19352 net.cpp:156] Memory required for data: 500958240
I0403 19:17:08.784171 19352 layer_factory.hpp:77] Creating layer inception_3a/3x3_reduce
I0403 19:17:08.784194 19352 net.cpp:91] Creating Layer inception_3a/3x3_reduce
I0403 19:17:08.784212 19352 net.cpp:425] inception_3a/3x3_reduce <- pool2/3x3_s2_pool2/3x3_s2_0_split_1
I0403 19:17:08.784234 19352 net.cpp:399] inception_3a/3x3_reduce -> inception_3a/3x3_reduce
I0403 19:17:08.785912 19352 net.cpp:141] Setting up inception_3a/3x3_reduce
I0403 19:17:08.785943 19352 net.cpp:148] Top shape: 24 96 28 28 (1806336)
I0403 19:17:08.785964 19352 net.cpp:156] Memory required for data: 508183584
I0403 19:17:08.785987 19352 layer_factory.hpp:77] Creating layer inception_3a/relu_3x3_reduce
I0403 19:17:08.786023 19352 net.cpp:91] Creating Layer inception_3a/relu_3x3_reduce
I0403 19:17:08.786041 19352 net.cpp:425] inception_3a/relu_3x3_reduce <- inception_3a/3x3_reduce
I0403 19:17:08.786062 19352 net.cpp:386] inception_3a/relu_3x3_reduce -> inception_3a/3x3_reduce (in-place)
I0403 19:17:08.786237 19352 net.cpp:141] Setting up inception_3a/relu_3x3_reduce
I0403 19:17:08.786262 19352 net.cpp:148] Top shape: 24 96 28 28 (1806336)
I0403 19:17:08.786278 19352 net.cpp:156] Memory required for data: 515408928
I0403 19:17:08.786293 19352 layer_factory.hpp:77] Creating layer inception_3a/3x3
I0403 19:17:08.786316 19352 net.cpp:91] Creating Layer inception_3a/3x3
I0403 19:17:08.786334 19352 net.cpp:425] inception_3a/3x3 <- inception_3a/3x3_reduce
I0403 19:17:08.786355 19352 net.cpp:399] inception_3a/3x3 -> inception_3a/3x3
I0403 19:17:08.787997 19352 net.cpp:141] Setting up inception_3a/3x3
I0403 19:17:08.788027 19352 net.cpp:148] Top shape: 24 128 28 28 (2408448)
I0403 19:17:08.788043 19352 net.cpp:156] Memory required for data: 525042720
I0403 19:17:08.788063 19352 layer_factory.hpp:77] Creating layer inception_3a/relu_3x3
I0403 19:17:08.788081 19352 net.cpp:91] Creating Layer inception_3a/relu_3x3
I0403 19:17:08.788097 19352 net.cpp:425] inception_3a/relu_3x3 <- inception_3a/3x3
I0403 19:17:08.788117 19352 net.cpp:386] inception_3a/relu_3x3 -> inception_3a/3x3 (in-place)
I0403 19:17:08.788393 19352 net.cpp:141] Setting up inception_3a/relu_3x3
I0403 19:17:08.788421 19352 net.cpp:148] Top shape: 24 128 28 28 (2408448)
I0403 19:17:08.788439 19352 net.cpp:156] Memory required for data: 534676512
I0403 19:17:08.788453 19352 layer_factory.hpp:77] Creating layer inception_3a/5x5_reduce
I0403 19:17:08.788475 19352 net.cpp:91] Creating Layer inception_3a/5x5_reduce
I0403 19:17:08.788493 19352 net.cpp:425] inception_3a/5x5_reduce <- pool2/3x3_s2_pool2/3x3_s2_0_split_2
I0403 19:17:08.788513 19352 net.cpp:399] inception_3a/5x5_reduce -> inception_3a/5x5_reduce
I0403 19:17:08.789475 19352 net.cpp:141] Setting up inception_3a/5x5_reduce
I0403 19:17:08.789504 19352 net.cpp:148] Top shape: 24 16 28 28 (301056)
I0403 19:17:08.789520 19352 net.cpp:156] Memory required for data: 535880736
I0403 19:17:08.789538 19352 layer_factory.hpp:77] Creating layer inception_3a/relu_5x5_reduce
I0403 19:17:08.789556 19352 net.cpp:91] Creating Layer inception_3a/relu_5x5_reduce
I0403 19:17:08.789573 19352 net.cpp:425] inception_3a/relu_5x5_reduce <- inception_3a/5x5_reduce
I0403 19:17:08.789595 19352 net.cpp:386] inception_3a/relu_5x5_reduce -> inception_3a/5x5_reduce (in-place)
I0403 19:17:08.789891 19352 net.cpp:141] Setting up inception_3a/relu_5x5_reduce
I0403 19:17:08.789916 19352 net.cpp:148] Top shape: 24 16 28 28 (301056)
I0403 19:17:08.789932 19352 net.cpp:156] Memory required for data: 537084960
I0403 19:17:08.789950 19352 layer_factory.hpp:77] Creating layer inception_3a/5x5
I0403 19:17:08.789975 19352 net.cpp:91] Creating Layer inception_3a/5x5
I0403 19:17:08.789994 19352 net.cpp:425] inception_3a/5x5 <- inception_3a/5x5_reduce
I0403 19:17:08.790016 19352 net.cpp:399] inception_3a/5x5 -> inception_3a/5x5
I0403 19:17:08.791023 19352 net.cpp:141] Setting up inception_3a/5x5
I0403 19:17:08.791051 19352 net.cpp:148] Top shape: 24 32 28 28 (602112)
I0403 19:17:08.791069 19352 net.cpp:156] Memory required for data: 539493408
I0403 19:17:08.791087 19352 layer_factory.hpp:77] Creating layer inception_3a/relu_5x5
I0403 19:17:08.791107 19352 net.cpp:91] Creating Layer inception_3a/relu_5x5
I0403 19:17:08.791124 19352 net.cpp:425] inception_3a/relu_5x5 <- inception_3a/5x5
I0403 19:17:08.791144 19352 net.cpp:386] inception_3a/relu_5x5 -> inception_3a/5x5 (in-place)
I0403 19:17:08.791316 19352 net.cpp:141] Setting up inception_3a/relu_5x5
I0403 19:17:08.791340 19352 net.cpp:148] Top shape: 24 32 28 28 (602112)
I0403 19:17:08.791357 19352 net.cpp:156] Memory required for data: 541901856
I0403 19:17:08.791371 19352 layer_factory.hpp:77] Creating layer inception_3a/pool
I0403 19:17:08.791389 19352 net.cpp:91] Creating Layer inception_3a/pool
I0403 19:17:08.791419 19352 net.cpp:425] inception_3a/pool <- pool2/3x3_s2_pool2/3x3_s2_0_split_3
I0403 19:17:08.791442 19352 net.cpp:399] inception_3a/pool -> inception_3a/pool
I0403 19:17:08.791501 19352 net.cpp:141] Setting up inception_3a/pool
I0403 19:17:08.791525 19352 net.cpp:148] Top shape: 24 192 28 28 (3612672)
I0403 19:17:08.791540 19352 net.cpp:156] Memory required for data: 556352544
I0403 19:17:08.791554 19352 layer_factory.hpp:77] Creating layer inception_3a/pool_proj
I0403 19:17:08.791580 19352 net.cpp:91] Creating Layer inception_3a/pool_proj
I0403 19:17:08.791599 19352 net.cpp:425] inception_3a/pool_proj <- inception_3a/pool
I0403 19:17:08.791618 19352 net.cpp:399] inception_3a/pool_proj -> inception_3a/pool_proj
I0403 19:17:08.792564 19352 net.cpp:141] Setting up inception_3a/pool_proj
I0403 19:17:08.792593 19352 net.cpp:148] Top shape: 24 32 28 28 (602112)
I0403 19:17:08.792608 19352 net.cpp:156] Memory required for data: 558760992
I0403 19:17:08.792634 19352 layer_factory.hpp:77] Creating layer inception_3a/relu_pool_proj
I0403 19:17:08.792654 19352 net.cpp:91] Creating Layer inception_3a/relu_pool_proj
I0403 19:17:08.792675 19352 net.cpp:425] inception_3a/relu_pool_proj <- inception_3a/pool_proj
I0403 19:17:08.792691 19352 net.cpp:386] inception_3a/relu_pool_proj -> inception_3a/pool_proj (in-place)
I0403 19:17:08.792963 19352 net.cpp:141] Setting up inception_3a/relu_pool_proj
I0403 19:17:08.792991 19352 net.cpp:148] Top shape: 24 32 28 28 (602112)
I0403 19:17:08.793007 19352 net.cpp:156] Memory required for data: 561169440
I0403 19:17:08.793023 19352 layer_factory.hpp:77] Creating layer inception_3a/output
I0403 19:17:08.793042 19352 net.cpp:91] Creating Layer inception_3a/output
I0403 19:17:08.793058 19352 net.cpp:425] inception_3a/output <- inception_3a/1x1
I0403 19:17:08.793074 19352 net.cpp:425] inception_3a/output <- inception_3a/3x3
I0403 19:17:08.793092 19352 net.cpp:425] inception_3a/output <- inception_3a/5x5
I0403 19:17:08.793107 19352 net.cpp:425] inception_3a/output <- inception_3a/pool_proj
I0403 19:17:08.793128 19352 net.cpp:399] inception_3a/output -> inception_3a/output
I0403 19:17:08.793174 19352 net.cpp:141] Setting up inception_3a/output
I0403 19:17:08.793197 19352 net.cpp:148] Top shape: 24 256 28 28 (4816896)
I0403 19:17:08.793212 19352 net.cpp:156] Memory required for data: 580437024
I0403 19:17:08.793227 19352 layer_factory.hpp:77] Creating layer inception_3a/output_inception_3a/output_0_split
I0403 19:17:08.793248 19352 net.cpp:91] Creating Layer inception_3a/output_inception_3a/output_0_split
I0403 19:17:08.793265 19352 net.cpp:425] inception_3a/output_inception_3a/output_0_split <- inception_3a/output
I0403 19:17:08.793284 19352 net.cpp:399] inception_3a/output_inception_3a/output_0_split -> inception_3a/output_inception_3a/output_0_split_0
I0403 19:17:08.793304 19352 net.cpp:399] inception_3a/output_inception_3a/output_0_split -> inception_3a/output_inception_3a/output_0_split_1
I0403 19:17:08.793331 19352 net.cpp:399] inception_3a/output_inception_3a/output_0_split -> inception_3a/output_inception_3a/output_0_split_2
I0403 19:17:08.793354 19352 net.cpp:399] inception_3a/output_inception_3a/output_0_split -> inception_3a/output_inception_3a/output_0_split_3
I0403 19:17:08.793428 19352 net.cpp:141] Setting up inception_3a/output_inception_3a/output_0_split
I0403 19:17:08.793454 19352 net.cpp:148] Top shape: 24 256 28 28 (4816896)
I0403 19:17:08.793473 19352 net.cpp:148] Top shape: 24 256 28 28 (4816896)
I0403 19:17:08.793488 19352 net.cpp:148] Top shape: 24 256 28 28 (4816896)
I0403 19:17:08.793504 19352 net.cpp:148] Top shape: 24 256 28 28 (4816896)
I0403 19:17:08.793519 19352 net.cpp:156] Memory required for data: 657507360
I0403 19:17:08.793534 19352 layer_factory.hpp:77] Creating layer inception_3b/1x1
I0403 19:17:08.793556 19352 net.cpp:91] Creating Layer inception_3b/1x1
I0403 19:17:08.793575 19352 net.cpp:425] inception_3b/1x1 <- inception_3a/output_inception_3a/output_0_split_0
I0403 19:17:08.793594 19352 net.cpp:399] inception_3b/1x1 -> inception_3b/1x1
I0403 19:17:08.794718 19352 net.cpp:141] Setting up inception_3b/1x1
I0403 19:17:08.794759 19352 net.cpp:148] Top shape: 24 128 28 28 (2408448)
I0403 19:17:08.794776 19352 net.cpp:156] Memory required for data: 667141152
I0403 19:17:08.794795 19352 layer_factory.hpp:77] Creating layer inception_3b/relu_1x1
I0403 19:17:08.794814 19352 net.cpp:91] Creating Layer inception_3b/relu_1x1
I0403 19:17:08.794832 19352 net.cpp:425] inception_3b/relu_1x1 <- inception_3b/1x1
I0403 19:17:08.794850 19352 net.cpp:386] inception_3b/relu_1x1 -> inception_3b/1x1 (in-place)
I0403 19:17:08.795028 19352 net.cpp:141] Setting up inception_3b/relu_1x1
I0403 19:17:08.795055 19352 net.cpp:148] Top shape: 24 128 28 28 (2408448)
I0403 19:17:08.795070 19352 net.cpp:156] Memory required for data: 676774944
I0403 19:17:08.795086 19352 layer_factory.hpp:77] Creating layer inception_3b/3x3_reduce
I0403 19:17:08.795109 19352 net.cpp:91] Creating Layer inception_3b/3x3_reduce
I0403 19:17:08.795126 19352 net.cpp:425] inception_3b/3x3_reduce <- inception_3a/output_inception_3a/output_0_split_1
I0403 19:17:08.795145 19352 net.cpp:399] inception_3b/3x3_reduce -> inception_3b/3x3_reduce
I0403 19:17:08.796267 19352 net.cpp:141] Setting up inception_3b/3x3_reduce
I0403 19:17:08.796294 19352 net.cpp:148] Top shape: 24 128 28 28 (2408448)
I0403 19:17:08.796310 19352 net.cpp:156] Memory required for data: 686408736
I0403 19:17:08.796329 19352 layer_factory.hpp:77] Creating layer inception_3b/relu_3x3_reduce
I0403 19:17:08.796351 19352 net.cpp:91] Creating Layer inception_3b/relu_3x3_reduce
I0403 19:17:08.796368 19352 net.cpp:425] inception_3b/relu_3x3_reduce <- inception_3b/3x3_reduce
I0403 19:17:08.796386 19352 net.cpp:386] inception_3b/relu_3x3_reduce -> inception_3b/3x3_reduce (in-place)
I0403 19:17:08.796558 19352 net.cpp:141] Setting up inception_3b/relu_3x3_reduce
I0403 19:17:08.796583 19352 net.cpp:148] Top shape: 24 128 28 28 (2408448)
I0403 19:17:08.796599 19352 net.cpp:156] Memory required for data: 696042528
I0403 19:17:08.796614 19352 layer_factory.hpp:77] Creating layer inception_3b/3x3
I0403 19:17:08.796639 19352 net.cpp:91] Creating Layer inception_3b/3x3
I0403 19:17:08.796658 19352 net.cpp:425] inception_3b/3x3 <- inception_3b/3x3_reduce
I0403 19:17:08.796679 19352 net.cpp:399] inception_3b/3x3 -> inception_3b/3x3
I0403 19:17:08.799526 19352 net.cpp:141] Setting up inception_3b/3x3
I0403 19:17:08.799556 19352 net.cpp:148] Top shape: 24 192 28 28 (3612672)
I0403 19:17:08.799573 19352 net.cpp:156] Memory required for data: 710493216
I0403 19:17:08.799592 19352 layer_factory.hpp:77] Creating layer inception_3b/relu_3x3
I0403 19:17:08.799610 19352 net.cpp:91] Creating Layer inception_3b/relu_3x3
I0403 19:17:08.799626 19352 net.cpp:425] inception_3b/relu_3x3 <- inception_3b/3x3
I0403 19:17:08.799646 19352 net.cpp:386] inception_3b/relu_3x3 -> inception_3b/3x3 (in-place)
I0403 19:17:08.799911 19352 net.cpp:141] Setting up inception_3b/relu_3x3
I0403 19:17:08.799939 19352 net.cpp:148] Top shape: 24 192 28 28 (3612672)
I0403 19:17:08.799959 19352 net.cpp:156] Memory required for data: 724943904
I0403 19:17:08.799975 19352 layer_factory.hpp:77] Creating layer inception_3b/5x5_reduce
I0403 19:17:08.799998 19352 net.cpp:91] Creating Layer inception_3b/5x5_reduce
I0403 19:17:08.800016 19352 net.cpp:425] inception_3b/5x5_reduce <- inception_3a/output_inception_3a/output_0_split_2
I0403 19:17:08.800035 19352 net.cpp:399] inception_3b/5x5_reduce -> inception_3b/5x5_reduce
I0403 19:17:08.800994 19352 net.cpp:141] Setting up inception_3b/5x5_reduce
I0403 19:17:08.801023 19352 net.cpp:148] Top shape: 24 32 28 28 (602112)
I0403 19:17:08.801038 19352 net.cpp:156] Memory required for data: 727352352
I0403 19:17:08.801056 19352 layer_factory.hpp:77] Creating layer inception_3b/relu_5x5_reduce
I0403 19:17:08.801074 19352 net.cpp:91] Creating Layer inception_3b/relu_5x5_reduce
I0403 19:17:08.801091 19352 net.cpp:425] inception_3b/relu_5x5_reduce <- inception_3b/5x5_reduce
I0403 19:17:08.801110 19352 net.cpp:386] inception_3b/relu_5x5_reduce -> inception_3b/5x5_reduce (in-place)
I0403 19:17:08.801296 19352 net.cpp:141] Setting up inception_3b/relu_5x5_reduce
I0403 19:17:08.801321 19352 net.cpp:148] Top shape: 24 32 28 28 (602112)
I0403 19:17:08.801337 19352 net.cpp:156] Memory required for data: 729760800
I0403 19:17:08.801352 19352 layer_factory.hpp:77] Creating layer inception_3b/5x5
I0403 19:17:08.801374 19352 net.cpp:91] Creating Layer inception_3b/5x5
I0403 19:17:08.801391 19352 net.cpp:425] inception_3b/5x5 <- inception_3b/5x5_reduce
I0403 19:17:08.801412 19352 net.cpp:399] inception_3b/5x5 -> inception_3b/5x5
I0403 19:17:08.803315 19352 net.cpp:141] Setting up inception_3b/5x5
I0403 19:17:08.803344 19352 net.cpp:148] Top shape: 24 96 28 28 (1806336)
I0403 19:17:08.803359 19352 net.cpp:156] Memory required for data: 736986144
I0403 19:17:08.803377 19352 layer_factory.hpp:77] Creating layer inception_3b/relu_5x5
I0403 19:17:08.803397 19352 net.cpp:91] Creating Layer inception_3b/relu_5x5
I0403 19:17:08.803416 19352 net.cpp:425] inception_3b/relu_5x5 <- inception_3b/5x5
I0403 19:17:08.803433 19352 net.cpp:386] inception_3b/relu_5x5 -> inception_3b/5x5 (in-place)
I0403 19:17:08.803617 19352 net.cpp:141] Setting up inception_3b/relu_5x5
I0403 19:17:08.803642 19352 net.cpp:148] Top shape: 24 96 28 28 (1806336)
I0403 19:17:08.803656 19352 net.cpp:156] Memory required for data: 744211488
I0403 19:17:08.803671 19352 layer_factory.hpp:77] Creating layer inception_3b/pool
I0403 19:17:08.803689 19352 net.cpp:91] Creating Layer inception_3b/pool
I0403 19:17:08.803705 19352 net.cpp:425] inception_3b/pool <- inception_3a/output_inception_3a/output_0_split_3
I0403 19:17:08.803724 19352 net.cpp:399] inception_3b/pool -> inception_3b/pool
I0403 19:17:08.803777 19352 net.cpp:141] Setting up inception_3b/pool
I0403 19:17:08.803799 19352 net.cpp:148] Top shape: 24 256 28 28 (4816896)
I0403 19:17:08.803814 19352 net.cpp:156] Memory required for data: 763479072
I0403 19:17:08.803829 19352 layer_factory.hpp:77] Creating layer inception_3b/pool_proj
I0403 19:17:08.803853 19352 net.cpp:91] Creating Layer inception_3b/pool_proj
I0403 19:17:08.803870 19352 net.cpp:425] inception_3b/pool_proj <- inception_3b/pool
I0403 19:17:08.803889 19352 net.cpp:399] inception_3b/pool_proj -> inception_3b/pool_proj
I0403 19:17:08.804954 19352 net.cpp:141] Setting up inception_3b/pool_proj
I0403 19:17:08.804980 19352 net.cpp:148] Top shape: 24 64 28 28 (1204224)
I0403 19:17:08.804996 19352 net.cpp:156] Memory required for data: 768295968
I0403 19:17:08.805014 19352 layer_factory.hpp:77] Creating layer inception_3b/relu_pool_proj
I0403 19:17:08.805034 19352 net.cpp:91] Creating Layer inception_3b/relu_pool_proj
I0403 19:17:08.805052 19352 net.cpp:425] inception_3b/relu_pool_proj <- inception_3b/pool_proj
I0403 19:17:08.805070 19352 net.cpp:386] inception_3b/relu_pool_proj -> inception_3b/pool_proj (in-place)
I0403 19:17:08.805450 19352 net.cpp:141] Setting up inception_3b/relu_pool_proj
I0403 19:17:08.805475 19352 net.cpp:148] Top shape: 24 64 28 28 (1204224)
I0403 19:17:08.805491 19352 net.cpp:156] Memory required for data: 773112864
I0403 19:17:08.805506 19352 layer_factory.hpp:77] Creating layer inception_3b/output
I0403 19:17:08.805523 19352 net.cpp:91] Creating Layer inception_3b/output
I0403 19:17:08.805538 19352 net.cpp:425] inception_3b/output <- inception_3b/1x1
I0403 19:17:08.805555 19352 net.cpp:425] inception_3b/output <- inception_3b/3x3
I0403 19:17:08.805572 19352 net.cpp:425] inception_3b/output <- inception_3b/5x5
I0403 19:17:08.805588 19352 net.cpp:425] inception_3b/output <- inception_3b/pool_proj
I0403 19:17:08.805608 19352 net.cpp:399] inception_3b/output -> inception_3b/output
I0403 19:17:08.805650 19352 net.cpp:141] Setting up inception_3b/output
I0403 19:17:08.805675 19352 net.cpp:148] Top shape: 24 480 28 28 (9031680)
I0403 19:17:08.805691 19352 net.cpp:156] Memory required for data: 809239584
I0403 19:17:08.805704 19352 layer_factory.hpp:77] Creating layer pool3/3x3_s2
I0403 19:17:08.805722 19352 net.cpp:91] Creating Layer pool3/3x3_s2
I0403 19:17:08.805738 19352 net.cpp:425] pool3/3x3_s2 <- inception_3b/output
I0403 19:17:08.805773 19352 net.cpp:399] pool3/3x3_s2 -> pool3/3x3_s2
I0403 19:17:08.805830 19352 net.cpp:141] Setting up pool3/3x3_s2
I0403 19:17:08.805852 19352 net.cpp:148] Top shape: 24 480 14 14 (2257920)
I0403 19:17:08.805866 19352 net.cpp:156] Memory required for data: 818271264
I0403 19:17:08.805881 19352 layer_factory.hpp:77] Creating layer pool3/3x3_s2_pool3/3x3_s2_0_split
I0403 19:17:08.805901 19352 net.cpp:91] Creating Layer pool3/3x3_s2_pool3/3x3_s2_0_split
I0403 19:17:08.805917 19352 net.cpp:425] pool3/3x3_s2_pool3/3x3_s2_0_split <- pool3/3x3_s2
I0403 19:17:08.805933 19352 net.cpp:399] pool3/3x3_s2_pool3/3x3_s2_0_split -> pool3/3x3_s2_pool3/3x3_s2_0_split_0
I0403 19:17:08.805956 19352 net.cpp:399] pool3/3x3_s2_pool3/3x3_s2_0_split -> pool3/3x3_s2_pool3/3x3_s2_0_split_1
I0403 19:17:08.805976 19352 net.cpp:399] pool3/3x3_s2_pool3/3x3_s2_0_split -> pool3/3x3_s2_pool3/3x3_s2_0_split_2
I0403 19:17:08.805995 19352 net.cpp:399] pool3/3x3_s2_pool3/3x3_s2_0_split -> pool3/3x3_s2_pool3/3x3_s2_0_split_3
I0403 19:17:08.806071 19352 net.cpp:141] Setting up pool3/3x3_s2_pool3/3x3_s2_0_split
I0403 19:17:08.806093 19352 net.cpp:148] Top shape: 24 480 14 14 (2257920)
I0403 19:17:08.806110 19352 net.cpp:148] Top shape: 24 480 14 14 (2257920)
I0403 19:17:08.806125 19352 net.cpp:148] Top shape: 24 480 14 14 (2257920)
I0403 19:17:08.806140 19352 net.cpp:148] Top shape: 24 480 14 14 (2257920)
I0403 19:17:08.806154 19352 net.cpp:156] Memory required for data: 854397984
I0403 19:17:08.806169 19352 layer_factory.hpp:77] Creating layer inception_4a/1x1
I0403 19:17:08.806190 19352 net.cpp:91] Creating Layer inception_4a/1x1
I0403 19:17:08.806210 19352 net.cpp:425] inception_4a/1x1 <- pool3/3x3_s2_pool3/3x3_s2_0_split_0
I0403 19:17:08.806231 19352 net.cpp:399] inception_4a/1x1 -> inception_4a/1x1
I0403 19:17:08.807732 19352 net.cpp:141] Setting up inception_4a/1x1
I0403 19:17:08.807760 19352 net.cpp:148] Top shape: 24 192 14 14 (903168)
I0403 19:17:08.807775 19352 net.cpp:156] Memory required for data: 858010656
I0403 19:17:08.807795 19352 layer_factory.hpp:77] Creating layer inception_4a/relu_1x1
I0403 19:17:08.807814 19352 net.cpp:91] Creating Layer inception_4a/relu_1x1
I0403 19:17:08.807832 19352 net.cpp:425] inception_4a/relu_1x1 <- inception_4a/1x1
I0403 19:17:08.807849 19352 net.cpp:386] inception_4a/relu_1x1 -> inception_4a/1x1 (in-place)
I0403 19:17:08.808022 19352 net.cpp:141] Setting up inception_4a/relu_1x1
I0403 19:17:08.808050 19352 net.cpp:148] Top shape: 24 192 14 14 (903168)
I0403 19:17:08.808066 19352 net.cpp:156] Memory required for data: 861623328
I0403 19:17:08.808081 19352 layer_factory.hpp:77] Creating layer inception_4a/3x3_reduce
I0403 19:17:08.808104 19352 net.cpp:91] Creating Layer inception_4a/3x3_reduce
I0403 19:17:08.808121 19352 net.cpp:425] inception_4a/3x3_reduce <- pool3/3x3_s2_pool3/3x3_s2_0_split_1
I0403 19:17:08.808140 19352 net.cpp:399] inception_4a/3x3_reduce -> inception_4a/3x3_reduce
I0403 19:17:08.809356 19352 net.cpp:141] Setting up inception_4a/3x3_reduce
I0403 19:17:08.809383 19352 net.cpp:148] Top shape: 24 96 14 14 (451584)
I0403 19:17:08.809399 19352 net.cpp:156] Memory required for data: 863429664
I0403 19:17:08.809424 19352 layer_factory.hpp:77] Creating layer inception_4a/relu_3x3_reduce
I0403 19:17:08.809444 19352 net.cpp:91] Creating Layer inception_4a/relu_3x3_reduce
I0403 19:17:08.809460 19352 net.cpp:425] inception_4a/relu_3x3_reduce <- inception_4a/3x3_reduce
I0403 19:17:08.809480 19352 net.cpp:386] inception_4a/relu_3x3_reduce -> inception_4a/3x3_reduce (in-place)
I0403 19:17:08.809645 19352 net.cpp:141] Setting up inception_4a/relu_3x3_reduce
I0403 19:17:08.809669 19352 net.cpp:148] Top shape: 24 96 14 14 (451584)
I0403 19:17:08.809684 19352 net.cpp:156] Memory required for data: 865236000
I0403 19:17:08.809700 19352 layer_factory.hpp:77] Creating layer inception_4a/3x3
I0403 19:17:08.809721 19352 net.cpp:91] Creating Layer inception_4a/3x3
I0403 19:17:08.809738 19352 net.cpp:425] inception_4a/3x3 <- inception_4a/3x3_reduce
I0403 19:17:08.809759 19352 net.cpp:399] inception_4a/3x3 -> inception_4a/3x3
I0403 19:17:08.812371 19352 net.cpp:141] Setting up inception_4a/3x3
I0403 19:17:08.812400 19352 net.cpp:148] Top shape: 24 208 14 14 (978432)
I0403 19:17:08.812415 19352 net.cpp:156] Memory required for data: 869149728
I0403 19:17:08.812434 19352 layer_factory.hpp:77] Creating layer inception_4a/relu_3x3
I0403 19:17:08.812455 19352 net.cpp:91] Creating Layer inception_4a/relu_3x3
I0403 19:17:08.812474 19352 net.cpp:425] inception_4a/relu_3x3 <- inception_4a/3x3
I0403 19:17:08.812491 19352 net.cpp:386] inception_4a/relu_3x3 -> inception_4a/3x3 (in-place)
I0403 19:17:08.812767 19352 net.cpp:141] Setting up inception_4a/relu_3x3
I0403 19:17:08.812793 19352 net.cpp:148] Top shape: 24 208 14 14 (978432)
I0403 19:17:08.812808 19352 net.cpp:156] Memory required for data: 873063456
I0403 19:17:08.812824 19352 layer_factory.hpp:77] Creating layer inception_4a/5x5_reduce
I0403 19:17:08.812849 19352 net.cpp:91] Creating Layer inception_4a/5x5_reduce
I0403 19:17:08.812866 19352 net.cpp:425] inception_4a/5x5_reduce <- pool3/3x3_s2_pool3/3x3_s2_0_split_2
I0403 19:17:08.812886 19352 net.cpp:399] inception_4a/5x5_reduce -> inception_4a/5x5_reduce
I0403 19:17:08.813882 19352 net.cpp:141] Setting up inception_4a/5x5_reduce
I0403 19:17:08.813912 19352 net.cpp:148] Top shape: 24 16 14 14 (75264)
I0403 19:17:08.813928 19352 net.cpp:156] Memory required for data: 873364512
I0403 19:17:08.813951 19352 layer_factory.hpp:77] Creating layer inception_4a/relu_5x5_reduce
I0403 19:17:08.813971 19352 net.cpp:91] Creating Layer inception_4a/relu_5x5_reduce
I0403 19:17:08.813988 19352 net.cpp:425] inception_4a/relu_5x5_reduce <- inception_4a/5x5_reduce
I0403 19:17:08.814008 19352 net.cpp:386] inception_4a/relu_5x5_reduce -> inception_4a/5x5_reduce (in-place)
I0403 19:17:08.814184 19352 net.cpp:141] Setting up inception_4a/relu_5x5_reduce
I0403 19:17:08.814211 19352 net.cpp:148] Top shape: 24 16 14 14 (75264)
I0403 19:17:08.814227 19352 net.cpp:156] Memory required for data: 873665568
I0403 19:17:08.814242 19352 layer_factory.hpp:77] Creating layer inception_4a/5x5
I0403 19:17:08.814265 19352 net.cpp:91] Creating Layer inception_4a/5x5
I0403 19:17:08.814283 19352 net.cpp:425] inception_4a/5x5 <- inception_4a/5x5_reduce
I0403 19:17:08.814306 19352 net.cpp:399] inception_4a/5x5 -> inception_4a/5x5
I0403 19:17:08.815377 19352 net.cpp:141] Setting up inception_4a/5x5
I0403 19:17:08.815405 19352 net.cpp:148] Top shape: 24 48 14 14 (225792)
I0403 19:17:08.815421 19352 net.cpp:156] Memory required for data: 874568736
I0403 19:17:08.815439 19352 layer_factory.hpp:77] Creating layer inception_4a/relu_5x5
I0403 19:17:08.815460 19352 net.cpp:91] Creating Layer inception_4a/relu_5x5
I0403 19:17:08.815479 19352 net.cpp:425] inception_4a/relu_5x5 <- inception_4a/5x5
I0403 19:17:08.815496 19352 net.cpp:386] inception_4a/relu_5x5 -> inception_4a/5x5 (in-place)
I0403 19:17:08.815667 19352 net.cpp:141] Setting up inception_4a/relu_5x5
I0403 19:17:08.815693 19352 net.cpp:148] Top shape: 24 48 14 14 (225792)
I0403 19:17:08.815708 19352 net.cpp:156] Memory required for data: 875471904
I0403 19:17:08.815723 19352 layer_factory.hpp:77] Creating layer inception_4a/pool
I0403 19:17:08.815743 19352 net.cpp:91] Creating Layer inception_4a/pool
I0403 19:17:08.815762 19352 net.cpp:425] inception_4a/pool <- pool3/3x3_s2_pool3/3x3_s2_0_split_3
I0403 19:17:08.815779 19352 net.cpp:399] inception_4a/pool -> inception_4a/pool
I0403 19:17:08.815841 19352 net.cpp:141] Setting up inception_4a/pool
I0403 19:17:08.815865 19352 net.cpp:148] Top shape: 24 480 14 14 (2257920)
I0403 19:17:08.815881 19352 net.cpp:156] Memory required for data: 884503584
I0403 19:17:08.815896 19352 layer_factory.hpp:77] Creating layer inception_4a/pool_proj
I0403 19:17:08.815917 19352 net.cpp:91] Creating Layer inception_4a/pool_proj
I0403 19:17:08.815935 19352 net.cpp:425] inception_4a/pool_proj <- inception_4a/pool
I0403 19:17:08.815961 19352 net.cpp:399] inception_4a/pool_proj -> inception_4a/pool_proj
I0403 19:17:08.817121 19352 net.cpp:141] Setting up inception_4a/pool_proj
I0403 19:17:08.817148 19352 net.cpp:148] Top shape: 24 64 14 14 (301056)
I0403 19:17:08.817178 19352 net.cpp:156] Memory required for data: 885707808
I0403 19:17:08.817199 19352 layer_factory.hpp:77] Creating layer inception_4a/relu_pool_proj
I0403 19:17:08.817222 19352 net.cpp:91] Creating Layer inception_4a/relu_pool_proj
I0403 19:17:08.817239 19352 net.cpp:425] inception_4a/relu_pool_proj <- inception_4a/pool_proj
I0403 19:17:08.817257 19352 net.cpp:386] inception_4a/relu_pool_proj -> inception_4a/pool_proj (in-place)
I0403 19:17:08.817538 19352 net.cpp:141] Setting up inception_4a/relu_pool_proj
I0403 19:17:08.817564 19352 net.cpp:148] Top shape: 24 64 14 14 (301056)
I0403 19:17:08.817579 19352 net.cpp:156] Memory required for data: 886912032
I0403 19:17:08.817595 19352 layer_factory.hpp:77] Creating layer inception_4a/output
I0403 19:17:08.817615 19352 net.cpp:91] Creating Layer inception_4a/output
I0403 19:17:08.817632 19352 net.cpp:425] inception_4a/output <- inception_4a/1x1
I0403 19:17:08.817649 19352 net.cpp:425] inception_4a/output <- inception_4a/3x3
I0403 19:17:08.817665 19352 net.cpp:425] inception_4a/output <- inception_4a/5x5
I0403 19:17:08.817682 19352 net.cpp:425] inception_4a/output <- inception_4a/pool_proj
I0403 19:17:08.817699 19352 net.cpp:399] inception_4a/output -> inception_4a/output
I0403 19:17:08.817742 19352 net.cpp:141] Setting up inception_4a/output
I0403 19:17:08.817767 19352 net.cpp:148] Top shape: 24 512 14 14 (2408448)
I0403 19:17:08.817785 19352 net.cpp:156] Memory required for data: 896545824
I0403 19:17:08.817800 19352 layer_factory.hpp:77] Creating layer inception_4a/output_inception_4a/output_0_split
I0403 19:17:08.817817 19352 net.cpp:91] Creating Layer inception_4a/output_inception_4a/output_0_split
I0403 19:17:08.817833 19352 net.cpp:425] inception_4a/output_inception_4a/output_0_split <- inception_4a/output
I0403 19:17:08.817853 19352 net.cpp:399] inception_4a/output_inception_4a/output_0_split -> inception_4a/output_inception_4a/output_0_split_0
I0403 19:17:08.817874 19352 net.cpp:399] inception_4a/output_inception_4a/output_0_split -> inception_4a/output_inception_4a/output_0_split_1
I0403 19:17:08.817895 19352 net.cpp:399] inception_4a/output_inception_4a/output_0_split -> inception_4a/output_inception_4a/output_0_split_2
I0403 19:17:08.817915 19352 net.cpp:399] inception_4a/output_inception_4a/output_0_split -> inception_4a/output_inception_4a/output_0_split_3
I0403 19:17:08.817935 19352 net.cpp:399] inception_4a/output_inception_4a/output_0_split -> inception_4a/output_inception_4a/output_0_split_4
I0403 19:17:08.818033 19352 net.cpp:141] Setting up inception_4a/output_inception_4a/output_0_split
I0403 19:17:08.818056 19352 net.cpp:148] Top shape: 24 512 14 14 (2408448)
I0403 19:17:08.818078 19352 net.cpp:148] Top shape: 24 512 14 14 (2408448)
I0403 19:17:08.818095 19352 net.cpp:148] Top shape: 24 512 14 14 (2408448)
I0403 19:17:08.818112 19352 net.cpp:148] Top shape: 24 512 14 14 (2408448)
I0403 19:17:08.818128 19352 net.cpp:148] Top shape: 24 512 14 14 (2408448)
I0403 19:17:08.818142 19352 net.cpp:156] Memory required for data: 944714784
I0403 19:17:08.818157 19352 layer_factory.hpp:77] Creating layer loss1/ave_pool
I0403 19:17:08.818176 19352 net.cpp:91] Creating Layer loss1/ave_pool
I0403 19:17:08.818192 19352 net.cpp:425] loss1/ave_pool <- inception_4a/output_inception_4a/output_0_split_0
I0403 19:17:08.818213 19352 net.cpp:399] loss1/ave_pool -> loss1/ave_pool
I0403 19:17:08.818415 19352 net.cpp:141] Setting up loss1/ave_pool
I0403 19:17:08.818440 19352 net.cpp:148] Top shape: 24 512 4 4 (196608)
I0403 19:17:08.818456 19352 net.cpp:156] Memory required for data: 945501216
I0403 19:17:08.818471 19352 layer_factory.hpp:77] Creating layer loss1/conv
I0403 19:17:08.818495 19352 net.cpp:91] Creating Layer loss1/conv
I0403 19:17:08.818511 19352 net.cpp:425] loss1/conv <- loss1/ave_pool
I0403 19:17:08.818532 19352 net.cpp:399] loss1/conv -> loss1/conv
I0403 19:17:08.819932 19352 net.cpp:141] Setting up loss1/conv
I0403 19:17:08.819964 19352 net.cpp:148] Top shape: 24 128 4 4 (49152)
I0403 19:17:08.819994 19352 net.cpp:156] Memory required for data: 945697824
I0403 19:17:08.820014 19352 layer_factory.hpp:77] Creating layer loss1/relu_conv
I0403 19:17:08.820036 19352 net.cpp:91] Creating Layer loss1/relu_conv
I0403 19:17:08.820053 19352 net.cpp:425] loss1/relu_conv <- loss1/conv
I0403 19:17:08.820071 19352 net.cpp:386] loss1/relu_conv -> loss1/conv (in-place)
I0403 19:17:08.820351 19352 net.cpp:141] Setting up loss1/relu_conv
I0403 19:17:08.820379 19352 net.cpp:148] Top shape: 24 128 4 4 (49152)
I0403 19:17:08.820394 19352 net.cpp:156] Memory required for data: 945894432
I0403 19:17:08.820408 19352 layer_factory.hpp:77] Creating layer loss1/fc
I0403 19:17:08.820436 19352 net.cpp:91] Creating Layer loss1/fc
I0403 19:17:08.820453 19352 net.cpp:425] loss1/fc <- loss1/conv
I0403 19:17:08.820474 19352 net.cpp:399] loss1/fc -> loss1/fc
I0403 19:17:08.838052 19352 net.cpp:141] Setting up loss1/fc
I0403 19:17:08.838088 19352 net.cpp:148] Top shape: 24 1024 (24576)
I0403 19:17:08.838104 19352 net.cpp:156] Memory required for data: 945992736
I0403 19:17:08.838124 19352 layer_factory.hpp:77] Creating layer loss1/relu_fc
I0403 19:17:08.838146 19352 net.cpp:91] Creating Layer loss1/relu_fc
I0403 19:17:08.838165 19352 net.cpp:425] loss1/relu_fc <- loss1/fc
I0403 19:17:08.838182 19352 net.cpp:386] loss1/relu_fc -> loss1/fc (in-place)
I0403 19:17:08.838366 19352 net.cpp:141] Setting up loss1/relu_fc
I0403 19:17:08.838392 19352 net.cpp:148] Top shape: 24 1024 (24576)
I0403 19:17:08.838408 19352 net.cpp:156] Memory required for data: 946091040
I0403 19:17:08.838423 19352 layer_factory.hpp:77] Creating layer loss1/drop_fc
I0403 19:17:08.838450 19352 net.cpp:91] Creating Layer loss1/drop_fc
I0403 19:17:08.838469 19352 net.cpp:425] loss1/drop_fc <- loss1/fc
I0403 19:17:08.838486 19352 net.cpp:386] loss1/drop_fc -> loss1/fc (in-place)
I0403 19:17:08.838541 19352 net.cpp:141] Setting up loss1/drop_fc
I0403 19:17:08.838563 19352 net.cpp:148] Top shape: 24 1024 (24576)
I0403 19:17:08.838578 19352 net.cpp:156] Memory required for data: 946189344
I0403 19:17:08.838594 19352 layer_factory.hpp:77] Creating layer loss1/classifier_plantvillage
I0403 19:17:08.838613 19352 net.cpp:91] Creating Layer loss1/classifier_plantvillage
I0403 19:17:08.838629 19352 net.cpp:425] loss1/classifier_plantvillage <- loss1/fc
I0403 19:17:08.838650 19352 net.cpp:399] loss1/classifier_plantvillage -> loss1/classifier_plantvillage
I0403 19:17:08.839553 19352 net.cpp:141] Setting up loss1/classifier_plantvillage
I0403 19:17:08.839582 19352 net.cpp:148] Top shape: 24 38 (912)
I0403 19:17:08.839598 19352 net.cpp:156] Memory required for data: 946192992
I0403 19:17:08.839617 19352 layer_factory.hpp:77] Creating layer loss1/classifier_plantvillage_loss1/classifier_plantvillage_0_split
I0403 19:17:08.839638 19352 net.cpp:91] Creating Layer loss1/classifier_plantvillage_loss1/classifier_plantvillage_0_split
I0403 19:17:08.839656 19352 net.cpp:425] loss1/classifier_plantvillage_loss1/classifier_plantvillage_0_split <- loss1/classifier_plantvillage
I0403 19:17:08.839674 19352 net.cpp:399] loss1/classifier_plantvillage_loss1/classifier_plantvillage_0_split -> loss1/classifier_plantvillage_loss1/classifier_plantvillage_0_split_0
I0403 19:17:08.839694 19352 net.cpp:399] loss1/classifier_plantvillage_loss1/classifier_plantvillage_0_split -> loss1/classifier_plantvillage_loss1/classifier_plantvillage_0_split_1
I0403 19:17:08.839715 19352 net.cpp:399] loss1/classifier_plantvillage_loss1/classifier_plantvillage_0_split -> loss1/classifier_plantvillage_loss1/classifier_plantvillage_0_split_2
I0403 19:17:08.839786 19352 net.cpp:141] Setting up loss1/classifier_plantvillage_loss1/classifier_plantvillage_0_split
I0403 19:17:08.839808 19352 net.cpp:148] Top shape: 24 38 (912)
I0403 19:17:08.839825 19352 net.cpp:148] Top shape: 24 38 (912)
I0403 19:17:08.839841 19352 net.cpp:148] Top shape: 24 38 (912)
I0403 19:17:08.839855 19352 net.cpp:156] Memory required for data: 946203936
I0403 19:17:08.839870 19352 layer_factory.hpp:77] Creating layer inception_4b/1x1
I0403 19:17:08.839892 19352 net.cpp:91] Creating Layer inception_4b/1x1
I0403 19:17:08.839926 19352 net.cpp:425] inception_4b/1x1 <- inception_4a/output_inception_4a/output_0_split_1
I0403 19:17:08.839951 19352 net.cpp:399] inception_4b/1x1 -> inception_4b/1x1
I0403 19:17:08.841609 19352 net.cpp:141] Setting up inception_4b/1x1
I0403 19:17:08.841640 19352 net.cpp:148] Top shape: 24 160 14 14 (752640)
I0403 19:17:08.841657 19352 net.cpp:156] Memory required for data: 949214496
I0403 19:17:08.841677 19352 layer_factory.hpp:77] Creating layer inception_4b/relu_1x1
I0403 19:17:08.841697 19352 net.cpp:91] Creating Layer inception_4b/relu_1x1
I0403 19:17:08.841716 19352 net.cpp:425] inception_4b/relu_1x1 <- inception_4b/1x1
I0403 19:17:08.841749 19352 net.cpp:386] inception_4b/relu_1x1 -> inception_4b/1x1 (in-place)
I0403 19:17:08.841927 19352 net.cpp:141] Setting up inception_4b/relu_1x1
I0403 19:17:08.841955 19352 net.cpp:148] Top shape: 24 160 14 14 (752640)
I0403 19:17:08.841971 19352 net.cpp:156] Memory required for data: 952225056
I0403 19:17:08.841986 19352 layer_factory.hpp:77] Creating layer inception_4b/3x3_reduce
I0403 19:17:08.842010 19352 net.cpp:91] Creating Layer inception_4b/3x3_reduce
I0403 19:17:08.842028 19352 net.cpp:425] inception_4b/3x3_reduce <- inception_4a/output_inception_4a/output_0_split_2
I0403 19:17:08.842051 19352 net.cpp:399] inception_4b/3x3_reduce -> inception_4b/3x3_reduce
I0403 19:17:08.843382 19352 net.cpp:141] Setting up inception_4b/3x3_reduce
I0403 19:17:08.843410 19352 net.cpp:148] Top shape: 24 112 14 14 (526848)
I0403 19:17:08.843426 19352 net.cpp:156] Memory required for data: 954332448
I0403 19:17:08.843446 19352 layer_factory.hpp:77] Creating layer inception_4b/relu_3x3_reduce
I0403 19:17:08.843463 19352 net.cpp:91] Creating Layer inception_4b/relu_3x3_reduce
I0403 19:17:08.843480 19352 net.cpp:425] inception_4b/relu_3x3_reduce <- inception_4b/3x3_reduce
I0403 19:17:08.843500 19352 net.cpp:386] inception_4b/relu_3x3_reduce -> inception_4b/3x3_reduce (in-place)
I0403 19:17:08.843780 19352 net.cpp:141] Setting up inception_4b/relu_3x3_reduce
I0403 19:17:08.843806 19352 net.cpp:148] Top shape: 24 112 14 14 (526848)
I0403 19:17:08.843822 19352 net.cpp:156] Memory required for data: 956439840
I0403 19:17:08.843837 19352 layer_factory.hpp:77] Creating layer inception_4b/3x3
I0403 19:17:08.843860 19352 net.cpp:91] Creating Layer inception_4b/3x3
I0403 19:17:08.843878 19352 net.cpp:425] inception_4b/3x3 <- inception_4b/3x3_reduce
I0403 19:17:08.843900 19352 net.cpp:399] inception_4b/3x3 -> inception_4b/3x3
I0403 19:17:08.846827 19352 net.cpp:141] Setting up inception_4b/3x3
I0403 19:17:08.846855 19352 net.cpp:148] Top shape: 24 224 14 14 (1053696)
I0403 19:17:08.846871 19352 net.cpp:156] Memory required for data: 960654624
I0403 19:17:08.846889 19352 layer_factory.hpp:77] Creating layer inception_4b/relu_3x3
I0403 19:17:08.846910 19352 net.cpp:91] Creating Layer inception_4b/relu_3x3
I0403 19:17:08.846927 19352 net.cpp:425] inception_4b/relu_3x3 <- inception_4b/3x3
I0403 19:17:08.846948 19352 net.cpp:386] inception_4b/relu_3x3 -> inception_4b/3x3 (in-place)
I0403 19:17:08.847123 19352 net.cpp:141] Setting up inception_4b/relu_3x3
I0403 19:17:08.847151 19352 net.cpp:148] Top shape: 24 224 14 14 (1053696)
I0403 19:17:08.847167 19352 net.cpp:156] Memory required for data: 964869408
I0403 19:17:08.847182 19352 layer_factory.hpp:77] Creating layer inception_4b/5x5_reduce
I0403 19:17:08.847204 19352 net.cpp:91] Creating Layer inception_4b/5x5_reduce
I0403 19:17:08.847223 19352 net.cpp:425] inception_4b/5x5_reduce <- inception_4a/output_inception_4a/output_0_split_3
I0403 19:17:08.847241 19352 net.cpp:399] inception_4b/5x5_reduce -> inception_4b/5x5_reduce
I0403 19:17:08.848292 19352 net.cpp:141] Setting up inception_4b/5x5_reduce
I0403 19:17:08.848320 19352 net.cpp:148] Top shape: 24 24 14 14 (112896)
I0403 19:17:08.848336 19352 net.cpp:156] Memory required for data: 965320992
I0403 19:17:08.848354 19352 layer_factory.hpp:77] Creating layer inception_4b/relu_5x5_reduce
I0403 19:17:08.848372 19352 net.cpp:91] Creating Layer inception_4b/relu_5x5_reduce
I0403 19:17:08.848403 19352 net.cpp:425] inception_4b/relu_5x5_reduce <- inception_4b/5x5_reduce
I0403 19:17:08.848424 19352 net.cpp:386] inception_4b/relu_5x5_reduce -> inception_4b/5x5_reduce (in-place)
I0403 19:17:08.848600 19352 net.cpp:141] Setting up inception_4b/relu_5x5_reduce
I0403 19:17:08.848625 19352 net.cpp:148] Top shape: 24 24 14 14 (112896)
I0403 19:17:08.848640 19352 net.cpp:156] Memory required for data: 965772576
I0403 19:17:08.848655 19352 layer_factory.hpp:77] Creating layer inception_4b/5x5
I0403 19:17:08.848677 19352 net.cpp:91] Creating Layer inception_4b/5x5
I0403 19:17:08.848695 19352 net.cpp:425] inception_4b/5x5 <- inception_4b/5x5_reduce
I0403 19:17:08.848716 19352 net.cpp:399] inception_4b/5x5 -> inception_4b/5x5
I0403 19:17:08.849913 19352 net.cpp:141] Setting up inception_4b/5x5
I0403 19:17:08.849944 19352 net.cpp:148] Top shape: 24 64 14 14 (301056)
I0403 19:17:08.849967 19352 net.cpp:156] Memory required for data: 966976800
I0403 19:17:08.849984 19352 layer_factory.hpp:77] Creating layer inception_4b/relu_5x5
I0403 19:17:08.850003 19352 net.cpp:91] Creating Layer inception_4b/relu_5x5
I0403 19:17:08.850020 19352 net.cpp:425] inception_4b/relu_5x5 <- inception_4b/5x5
I0403 19:17:08.850040 19352 net.cpp:386] inception_4b/relu_5x5 -> inception_4b/5x5 (in-place)
I0403 19:17:08.850314 19352 net.cpp:141] Setting up inception_4b/relu_5x5
I0403 19:17:08.850343 19352 net.cpp:148] Top shape: 24 64 14 14 (301056)
I0403 19:17:08.850360 19352 net.cpp:156] Memory required for data: 968181024
I0403 19:17:08.850374 19352 layer_factory.hpp:77] Creating layer inception_4b/pool
I0403 19:17:08.850394 19352 net.cpp:91] Creating Layer inception_4b/pool
I0403 19:17:08.850410 19352 net.cpp:425] inception_4b/pool <- inception_4a/output_inception_4a/output_0_split_4
I0403 19:17:08.850430 19352 net.cpp:399] inception_4b/pool -> inception_4b/pool
I0403 19:17:08.850492 19352 net.cpp:141] Setting up inception_4b/pool
I0403 19:17:08.850517 19352 net.cpp:148] Top shape: 24 512 14 14 (2408448)
I0403 19:17:08.850531 19352 net.cpp:156] Memory required for data: 977814816
I0403 19:17:08.850545 19352 layer_factory.hpp:77] Creating layer inception_4b/pool_proj
I0403 19:17:08.850567 19352 net.cpp:91] Creating Layer inception_4b/pool_proj
I0403 19:17:08.850584 19352 net.cpp:425] inception_4b/pool_proj <- inception_4b/pool
I0403 19:17:08.850605 19352 net.cpp:399] inception_4b/pool_proj -> inception_4b/pool_proj
I0403 19:17:08.851794 19352 net.cpp:141] Setting up inception_4b/pool_proj
I0403 19:17:08.851824 19352 net.cpp:148] Top shape: 24 64 14 14 (301056)
I0403 19:17:08.851838 19352 net.cpp:156] Memory required for data: 979019040
I0403 19:17:08.851856 19352 layer_factory.hpp:77] Creating layer inception_4b/relu_pool_proj
I0403 19:17:08.851874 19352 net.cpp:91] Creating Layer inception_4b/relu_pool_proj
I0403 19:17:08.851891 19352 net.cpp:425] inception_4b/relu_pool_proj <- inception_4b/pool_proj
I0403 19:17:08.851910 19352 net.cpp:386] inception_4b/relu_pool_proj -> inception_4b/pool_proj (in-place)
I0403 19:17:08.852084 19352 net.cpp:141] Setting up inception_4b/relu_pool_proj
I0403 19:17:08.852109 19352 net.cpp:148] Top shape: 24 64 14 14 (301056)
I0403 19:17:08.852123 19352 net.cpp:156] Memory required for data: 980223264
I0403 19:17:08.852138 19352 layer_factory.hpp:77] Creating layer inception_4b/output
I0403 19:17:08.852156 19352 net.cpp:91] Creating Layer inception_4b/output
I0403 19:17:08.852171 19352 net.cpp:425] inception_4b/output <- inception_4b/1x1
I0403 19:17:08.852187 19352 net.cpp:425] inception_4b/output <- inception_4b/3x3
I0403 19:17:08.852205 19352 net.cpp:425] inception_4b/output <- inception_4b/5x5
I0403 19:17:08.852221 19352 net.cpp:425] inception_4b/output <- inception_4b/pool_proj
I0403 19:17:08.852241 19352 net.cpp:399] inception_4b/output -> inception_4b/output
I0403 19:17:08.852284 19352 net.cpp:141] Setting up inception_4b/output
I0403 19:17:08.852309 19352 net.cpp:148] Top shape: 24 512 14 14 (2408448)
I0403 19:17:08.852324 19352 net.cpp:156] Memory required for data: 989857056
I0403 19:17:08.852352 19352 layer_factory.hpp:77] Creating layer inception_4b/output_inception_4b/output_0_split
I0403 19:17:08.852370 19352 net.cpp:91] Creating Layer inception_4b/output_inception_4b/output_0_split
I0403 19:17:08.852386 19352 net.cpp:425] inception_4b/output_inception_4b/output_0_split <- inception_4b/output
I0403 19:17:08.852404 19352 net.cpp:399] inception_4b/output_inception_4b/output_0_split -> inception_4b/output_inception_4b/output_0_split_0
I0403 19:17:08.852427 19352 net.cpp:399] inception_4b/output_inception_4b/output_0_split -> inception_4b/output_inception_4b/output_0_split_1
I0403 19:17:08.852447 19352 net.cpp:399] inception_4b/output_inception_4b/output_0_split -> inception_4b/output_inception_4b/output_0_split_2
I0403 19:17:08.852468 19352 net.cpp:399] inception_4b/output_inception_4b/output_0_split -> inception_4b/output_inception_4b/output_0_split_3
I0403 19:17:08.852552 19352 net.cpp:141] Setting up inception_4b/output_inception_4b/output_0_split
I0403 19:17:08.852576 19352 net.cpp:148] Top shape: 24 512 14 14 (2408448)
I0403 19:17:08.852592 19352 net.cpp:148] Top shape: 24 512 14 14 (2408448)
I0403 19:17:08.852607 19352 net.cpp:148] Top shape: 24 512 14 14 (2408448)
I0403 19:17:08.852622 19352 net.cpp:148] Top shape: 24 512 14 14 (2408448)
I0403 19:17:08.852637 19352 net.cpp:156] Memory required for data: 1028392224
I0403 19:17:08.852650 19352 layer_factory.hpp:77] Creating layer inception_4c/1x1
I0403 19:17:08.852674 19352 net.cpp:91] Creating Layer inception_4c/1x1
I0403 19:17:08.852691 19352 net.cpp:425] inception_4c/1x1 <- inception_4b/output_inception_4b/output_0_split_0
I0403 19:17:08.852710 19352 net.cpp:399] inception_4c/1x1 -> inception_4c/1x1
I0403 19:17:08.854097 19352 net.cpp:141] Setting up inception_4c/1x1
I0403 19:17:08.854125 19352 net.cpp:148] Top shape: 24 128 14 14 (602112)
I0403 19:17:08.854140 19352 net.cpp:156] Memory required for data: 1030800672
I0403 19:17:08.854158 19352 layer_factory.hpp:77] Creating layer inception_4c/relu_1x1
I0403 19:17:08.854179 19352 net.cpp:91] Creating Layer inception_4c/relu_1x1
I0403 19:17:08.854197 19352 net.cpp:425] inception_4c/relu_1x1 <- inception_4c/1x1
I0403 19:17:08.854214 19352 net.cpp:386] inception_4c/relu_1x1 -> inception_4c/1x1 (in-place)
I0403 19:17:08.854385 19352 net.cpp:141] Setting up inception_4c/relu_1x1
I0403 19:17:08.854411 19352 net.cpp:148] Top shape: 24 128 14 14 (602112)
I0403 19:17:08.854428 19352 net.cpp:156] Memory required for data: 1033209120
I0403 19:17:08.854441 19352 layer_factory.hpp:77] Creating layer inception_4c/3x3_reduce
I0403 19:17:08.854461 19352 net.cpp:91] Creating Layer inception_4c/3x3_reduce
I0403 19:17:08.854478 19352 net.cpp:425] inception_4c/3x3_reduce <- inception_4b/output_inception_4b/output_0_split_1
I0403 19:17:08.854501 19352 net.cpp:399] inception_4c/3x3_reduce -> inception_4c/3x3_reduce
I0403 19:17:08.856380 19352 net.cpp:141] Setting up inception_4c/3x3_reduce
I0403 19:17:08.856410 19352 net.cpp:148] Top shape: 24 128 14 14 (602112)
I0403 19:17:08.856427 19352 net.cpp:156] Memory required for data: 1035617568
I0403 19:17:08.856446 19352 layer_factory.hpp:77] Creating layer inception_4c/relu_3x3_reduce
I0403 19:17:08.856464 19352 net.cpp:91] Creating Layer inception_4c/relu_3x3_reduce
I0403 19:17:08.856480 19352 net.cpp:425] inception_4c/relu_3x3_reduce <- inception_4c/3x3_reduce
I0403 19:17:08.856498 19352 net.cpp:386] inception_4c/relu_3x3_reduce -> inception_4c/3x3_reduce (in-place)
I0403 19:17:08.856775 19352 net.cpp:141] Setting up inception_4c/relu_3x3_reduce
I0403 19:17:08.856801 19352 net.cpp:148] Top shape: 24 128 14 14 (602112)
I0403 19:17:08.856817 19352 net.cpp:156] Memory required for data: 1038026016
I0403 19:17:08.856832 19352 layer_factory.hpp:77] Creating layer inception_4c/3x3
I0403 19:17:08.856856 19352 net.cpp:91] Creating Layer inception_4c/3x3
I0403 19:17:08.856873 19352 net.cpp:425] inception_4c/3x3 <- inception_4c/3x3_reduce
I0403 19:17:08.856892 19352 net.cpp:399] inception_4c/3x3 -> inception_4c/3x3
I0403 19:17:08.860416 19352 net.cpp:141] Setting up inception_4c/3x3
I0403 19:17:08.860458 19352 net.cpp:148] Top shape: 24 256 14 14 (1204224)
I0403 19:17:08.860476 19352 net.cpp:156] Memory required for data: 1042842912
I0403 19:17:08.860507 19352 layer_factory.hpp:77] Creating layer inception_4c/relu_3x3
I0403 19:17:08.860528 19352 net.cpp:91] Creating Layer inception_4c/relu_3x3
I0403 19:17:08.860545 19352 net.cpp:425] inception_4c/relu_3x3 <- inception_4c/3x3
I0403 19:17:08.860565 19352 net.cpp:386] inception_4c/relu_3x3 -> inception_4c/3x3 (in-place)
I0403 19:17:08.860741 19352 net.cpp:141] Setting up inception_4c/relu_3x3
I0403 19:17:08.860765 19352 net.cpp:148] Top shape: 24 256 14 14 (1204224)
I0403 19:17:08.860780 19352 net.cpp:156] Memory required for data: 1047659808
I0403 19:17:08.860795 19352 layer_factory.hpp:77] Creating layer inception_4c/5x5_reduce
I0403 19:17:08.860817 19352 net.cpp:91] Creating Layer inception_4c/5x5_reduce
I0403 19:17:08.860836 19352 net.cpp:425] inception_4c/5x5_reduce <- inception_4b/output_inception_4b/output_0_split_2
I0403 19:17:08.860857 19352 net.cpp:399] inception_4c/5x5_reduce -> inception_4c/5x5_reduce
I0403 19:17:08.862032 19352 net.cpp:141] Setting up inception_4c/5x5_reduce
I0403 19:17:08.862062 19352 net.cpp:148] Top shape: 24 24 14 14 (112896)
I0403 19:17:08.862079 19352 net.cpp:156] Memory required for data: 1048111392
I0403 19:17:08.862099 19352 layer_factory.hpp:77] Creating layer inception_4c/relu_5x5_reduce
I0403 19:17:08.862118 19352 net.cpp:91] Creating Layer inception_4c/relu_5x5_reduce
I0403 19:17:08.862134 19352 net.cpp:425] inception_4c/relu_5x5_reduce <- inception_4c/5x5_reduce
I0403 19:17:08.862154 19352 net.cpp:386] inception_4c/relu_5x5_reduce -> inception_4c/5x5_reduce (in-place)
I0403 19:17:08.862339 19352 net.cpp:141] Setting up inception_4c/relu_5x5_reduce
I0403 19:17:08.862365 19352 net.cpp:148] Top shape: 24 24 14 14 (112896)
I0403 19:17:08.862380 19352 net.cpp:156] Memory required for data: 1048562976
I0403 19:17:08.862395 19352 layer_factory.hpp:77] Creating layer inception_4c/5x5
I0403 19:17:08.862417 19352 net.cpp:91] Creating Layer inception_4c/5x5
I0403 19:17:08.862437 19352 net.cpp:425] inception_4c/5x5 <- inception_4c/5x5_reduce
I0403 19:17:08.862457 19352 net.cpp:399] inception_4c/5x5 -> inception_4c/5x5
I0403 19:17:08.863708 19352 net.cpp:141] Setting up inception_4c/5x5
I0403 19:17:08.863736 19352 net.cpp:148] Top shape: 24 64 14 14 (301056)
I0403 19:17:08.863751 19352 net.cpp:156] Memory required for data: 1049767200
I0403 19:17:08.863770 19352 layer_factory.hpp:77] Creating layer inception_4c/relu_5x5
I0403 19:17:08.863790 19352 net.cpp:91] Creating Layer inception_4c/relu_5x5
I0403 19:17:08.863806 19352 net.cpp:425] inception_4c/relu_5x5 <- inception_4c/5x5
I0403 19:17:08.863826 19352 net.cpp:386] inception_4c/relu_5x5 -> inception_4c/5x5 (in-place)
I0403 19:17:08.864127 19352 net.cpp:141] Setting up inception_4c/relu_5x5
I0403 19:17:08.864153 19352 net.cpp:148] Top shape: 24 64 14 14 (301056)
I0403 19:17:08.864168 19352 net.cpp:156] Memory required for data: 1050971424
I0403 19:17:08.864184 19352 layer_factory.hpp:77] Creating layer inception_4c/pool
I0403 19:17:08.864203 19352 net.cpp:91] Creating Layer inception_4c/pool
I0403 19:17:08.864222 19352 net.cpp:425] inception_4c/pool <- inception_4b/output_inception_4b/output_0_split_3
I0403 19:17:08.864243 19352 net.cpp:399] inception_4c/pool -> inception_4c/pool
I0403 19:17:08.864310 19352 net.cpp:141] Setting up inception_4c/pool
I0403 19:17:08.864333 19352 net.cpp:148] Top shape: 24 512 14 14 (2408448)
I0403 19:17:08.864349 19352 net.cpp:156] Memory required for data: 1060605216
I0403 19:17:08.864364 19352 layer_factory.hpp:77] Creating layer inception_4c/pool_proj
I0403 19:17:08.864389 19352 net.cpp:91] Creating Layer inception_4c/pool_proj
I0403 19:17:08.864406 19352 net.cpp:425] inception_4c/pool_proj <- inception_4c/pool
I0403 19:17:08.864426 19352 net.cpp:399] inception_4c/pool_proj -> inception_4c/pool_proj
I0403 19:17:08.865656 19352 net.cpp:141] Setting up inception_4c/pool_proj
I0403 19:17:08.865686 19352 net.cpp:148] Top shape: 24 64 14 14 (301056)
I0403 19:17:08.865715 19352 net.cpp:156] Memory required for data: 1061809440
I0403 19:17:08.865736 19352 layer_factory.hpp:77] Creating layer inception_4c/relu_pool_proj
I0403 19:17:08.865754 19352 net.cpp:91] Creating Layer inception_4c/relu_pool_proj
I0403 19:17:08.865772 19352 net.cpp:425] inception_4c/relu_pool_proj <- inception_4c/pool_proj
I0403 19:17:08.865792 19352 net.cpp:386] inception_4c/relu_pool_proj -> inception_4c/pool_proj (in-place)
I0403 19:17:08.865978 19352 net.cpp:141] Setting up inception_4c/relu_pool_proj
I0403 19:17:08.866004 19352 net.cpp:148] Top shape: 24 64 14 14 (301056)
I0403 19:17:08.866020 19352 net.cpp:156] Memory required for data: 1063013664
I0403 19:17:08.866035 19352 layer_factory.hpp:77] Creating layer inception_4c/output
I0403 19:17:08.866052 19352 net.cpp:91] Creating Layer inception_4c/output
I0403 19:17:08.866070 19352 net.cpp:425] inception_4c/output <- inception_4c/1x1
I0403 19:17:08.866086 19352 net.cpp:425] inception_4c/output <- inception_4c/3x3
I0403 19:17:08.866103 19352 net.cpp:425] inception_4c/output <- inception_4c/5x5
I0403 19:17:08.866120 19352 net.cpp:425] inception_4c/output <- inception_4c/pool_proj
I0403 19:17:08.866140 19352 net.cpp:399] inception_4c/output -> inception_4c/output
I0403 19:17:08.866189 19352 net.cpp:141] Setting up inception_4c/output
I0403 19:17:08.866215 19352 net.cpp:148] Top shape: 24 512 14 14 (2408448)
I0403 19:17:08.866230 19352 net.cpp:156] Memory required for data: 1072647456
I0403 19:17:08.866245 19352 layer_factory.hpp:77] Creating layer inception_4c/output_inception_4c/output_0_split
I0403 19:17:08.866262 19352 net.cpp:91] Creating Layer inception_4c/output_inception_4c/output_0_split
I0403 19:17:08.866279 19352 net.cpp:425] inception_4c/output_inception_4c/output_0_split <- inception_4c/output
I0403 19:17:08.866297 19352 net.cpp:399] inception_4c/output_inception_4c/output_0_split -> inception_4c/output_inception_4c/output_0_split_0
I0403 19:17:08.866319 19352 net.cpp:399] inception_4c/output_inception_4c/output_0_split -> inception_4c/output_inception_4c/output_0_split_1
I0403 19:17:08.866341 19352 net.cpp:399] inception_4c/output_inception_4c/output_0_split -> inception_4c/output_inception_4c/output_0_split_2
I0403 19:17:08.866360 19352 net.cpp:399] inception_4c/output_inception_4c/output_0_split -> inception_4c/output_inception_4c/output_0_split_3
I0403 19:17:08.866451 19352 net.cpp:141] Setting up inception_4c/output_inception_4c/output_0_split
I0403 19:17:08.866473 19352 net.cpp:148] Top shape: 24 512 14 14 (2408448)
I0403 19:17:08.866490 19352 net.cpp:148] Top shape: 24 512 14 14 (2408448)
I0403 19:17:08.866506 19352 net.cpp:148] Top shape: 24 512 14 14 (2408448)
I0403 19:17:08.866523 19352 net.cpp:148] Top shape: 24 512 14 14 (2408448)
I0403 19:17:08.866536 19352 net.cpp:156] Memory required for data: 1111182624
I0403 19:17:08.866551 19352 layer_factory.hpp:77] Creating layer inception_4d/1x1
I0403 19:17:08.866575 19352 net.cpp:91] Creating Layer inception_4d/1x1
I0403 19:17:08.866592 19352 net.cpp:425] inception_4d/1x1 <- inception_4c/output_inception_4c/output_0_split_0
I0403 19:17:08.866611 19352 net.cpp:399] inception_4d/1x1 -> inception_4d/1x1
I0403 19:17:08.867998 19352 net.cpp:141] Setting up inception_4d/1x1
I0403 19:17:08.868026 19352 net.cpp:148] Top shape: 24 112 14 14 (526848)
I0403 19:17:08.868042 19352 net.cpp:156] Memory required for data: 1113290016
I0403 19:17:08.868062 19352 layer_factory.hpp:77] Creating layer inception_4d/relu_1x1
I0403 19:17:08.868083 19352 net.cpp:91] Creating Layer inception_4d/relu_1x1
I0403 19:17:08.868101 19352 net.cpp:425] inception_4d/relu_1x1 <- inception_4d/1x1
I0403 19:17:08.868119 19352 net.cpp:386] inception_4d/relu_1x1 -> inception_4d/1x1 (in-place)
I0403 19:17:08.868305 19352 net.cpp:141] Setting up inception_4d/relu_1x1
I0403 19:17:08.868332 19352 net.cpp:148] Top shape: 24 112 14 14 (526848)
I0403 19:17:08.868350 19352 net.cpp:156] Memory required for data: 1115397408
I0403 19:17:08.868365 19352 layer_factory.hpp:77] Creating layer inception_4d/3x3_reduce
I0403 19:17:08.868401 19352 net.cpp:91] Creating Layer inception_4d/3x3_reduce
I0403 19:17:08.868420 19352 net.cpp:425] inception_4d/3x3_reduce <- inception_4c/output_inception_4c/output_0_split_1
I0403 19:17:08.868439 19352 net.cpp:399] inception_4d/3x3_reduce -> inception_4d/3x3_reduce
I0403 19:17:08.869967 19352 net.cpp:141] Setting up inception_4d/3x3_reduce
I0403 19:17:08.869995 19352 net.cpp:148] Top shape: 24 144 14 14 (677376)
I0403 19:17:08.870010 19352 net.cpp:156] Memory required for data: 1118106912
I0403 19:17:08.870029 19352 layer_factory.hpp:77] Creating layer inception_4d/relu_3x3_reduce
I0403 19:17:08.870049 19352 net.cpp:91] Creating Layer inception_4d/relu_3x3_reduce
I0403 19:17:08.870067 19352 net.cpp:425] inception_4d/relu_3x3_reduce <- inception_4d/3x3_reduce
I0403 19:17:08.870085 19352 net.cpp:386] inception_4d/relu_3x3_reduce -> inception_4d/3x3_reduce (in-place)
I0403 19:17:08.870376 19352 net.cpp:141] Setting up inception_4d/relu_3x3_reduce
I0403 19:17:08.870403 19352 net.cpp:148] Top shape: 24 144 14 14 (677376)
I0403 19:17:08.870417 19352 net.cpp:156] Memory required for data: 1120816416
I0403 19:17:08.870432 19352 layer_factory.hpp:77] Creating layer inception_4d/3x3
I0403 19:17:08.870455 19352 net.cpp:91] Creating Layer inception_4d/3x3
I0403 19:17:08.870473 19352 net.cpp:425] inception_4d/3x3 <- inception_4d/3x3_reduce
I0403 19:17:08.870496 19352 net.cpp:399] inception_4d/3x3 -> inception_4d/3x3
I0403 19:17:08.874740 19352 net.cpp:141] Setting up inception_4d/3x3
I0403 19:17:08.874769 19352 net.cpp:148] Top shape: 24 288 14 14 (1354752)
I0403 19:17:08.874788 19352 net.cpp:156] Memory required for data: 1126235424
I0403 19:17:08.874807 19352 layer_factory.hpp:77] Creating layer inception_4d/relu_3x3
I0403 19:17:08.874826 19352 net.cpp:91] Creating Layer inception_4d/relu_3x3
I0403 19:17:08.874843 19352 net.cpp:425] inception_4d/relu_3x3 <- inception_4d/3x3
I0403 19:17:08.874862 19352 net.cpp:386] inception_4d/relu_3x3 -> inception_4d/3x3 (in-place)
I0403 19:17:08.875052 19352 net.cpp:141] Setting up inception_4d/relu_3x3
I0403 19:17:08.875079 19352 net.cpp:148] Top shape: 24 288 14 14 (1354752)
I0403 19:17:08.875095 19352 net.cpp:156] Memory required for data: 1131654432
I0403 19:17:08.875110 19352 layer_factory.hpp:77] Creating layer inception_4d/5x5_reduce
I0403 19:17:08.875133 19352 net.cpp:91] Creating Layer inception_4d/5x5_reduce
I0403 19:17:08.875152 19352 net.cpp:425] inception_4d/5x5_reduce <- inception_4c/output_inception_4c/output_0_split_2
I0403 19:17:08.875171 19352 net.cpp:399] inception_4d/5x5_reduce -> inception_4d/5x5_reduce
I0403 19:17:08.876328 19352 net.cpp:141] Setting up inception_4d/5x5_reduce
I0403 19:17:08.876356 19352 net.cpp:148] Top shape: 24 32 14 14 (150528)
I0403 19:17:08.876373 19352 net.cpp:156] Memory required for data: 1132256544
I0403 19:17:08.876391 19352 layer_factory.hpp:77] Creating layer inception_4d/relu_5x5_reduce
I0403 19:17:08.876412 19352 net.cpp:91] Creating Layer inception_4d/relu_5x5_reduce
I0403 19:17:08.876430 19352 net.cpp:425] inception_4d/relu_5x5_reduce <- inception_4d/5x5_reduce
I0403 19:17:08.876448 19352 net.cpp:386] inception_4d/relu_5x5_reduce -> inception_4d/5x5_reduce (in-place)
I0403 19:17:08.876636 19352 net.cpp:141] Setting up inception_4d/relu_5x5_reduce
I0403 19:17:08.876660 19352 net.cpp:148] Top shape: 24 32 14 14 (150528)
I0403 19:17:08.876677 19352 net.cpp:156] Memory required for data: 1132858656
I0403 19:17:08.876691 19352 layer_factory.hpp:77] Creating layer inception_4d/5x5
I0403 19:17:08.876714 19352 net.cpp:91] Creating Layer inception_4d/5x5
I0403 19:17:08.876732 19352 net.cpp:425] inception_4d/5x5 <- inception_4d/5x5_reduce
I0403 19:17:08.876754 19352 net.cpp:399] inception_4d/5x5 -> inception_4d/5x5
I0403 19:17:08.878243 19352 net.cpp:141] Setting up inception_4d/5x5
I0403 19:17:08.878270 19352 net.cpp:148] Top shape: 24 64 14 14 (301056)
I0403 19:17:08.878286 19352 net.cpp:156] Memory required for data: 1134062880
I0403 19:17:08.878306 19352 layer_factory.hpp:77] Creating layer inception_4d/relu_5x5
I0403 19:17:08.878339 19352 net.cpp:91] Creating Layer inception_4d/relu_5x5
I0403 19:17:08.878356 19352 net.cpp:425] inception_4d/relu_5x5 <- inception_4d/5x5
I0403 19:17:08.878377 19352 net.cpp:386] inception_4d/relu_5x5 -> inception_4d/5x5 (in-place)
I0403 19:17:08.878691 19352 net.cpp:141] Setting up inception_4d/relu_5x5
I0403 19:17:08.878718 19352 net.cpp:148] Top shape: 24 64 14 14 (301056)
I0403 19:17:08.878733 19352 net.cpp:156] Memory required for data: 1135267104
I0403 19:17:08.878749 19352 layer_factory.hpp:77] Creating layer inception_4d/pool
I0403 19:17:08.878767 19352 net.cpp:91] Creating Layer inception_4d/pool
I0403 19:17:08.878784 19352 net.cpp:425] inception_4d/pool <- inception_4c/output_inception_4c/output_0_split_3
I0403 19:17:08.878805 19352 net.cpp:399] inception_4d/pool -> inception_4d/pool
I0403 19:17:08.878885 19352 net.cpp:141] Setting up inception_4d/pool
I0403 19:17:08.878908 19352 net.cpp:148] Top shape: 24 512 14 14 (2408448)
I0403 19:17:08.878923 19352 net.cpp:156] Memory required for data: 1144900896
I0403 19:17:08.878939 19352 layer_factory.hpp:77] Creating layer inception_4d/pool_proj
I0403 19:17:08.878973 19352 net.cpp:91] Creating Layer inception_4d/pool_proj
I0403 19:17:08.878993 19352 net.cpp:425] inception_4d/pool_proj <- inception_4d/pool
I0403 19:17:08.879011 19352 net.cpp:399] inception_4d/pool_proj -> inception_4d/pool_proj
I0403 19:17:08.880744 19352 net.cpp:141] Setting up inception_4d/pool_proj
I0403 19:17:08.880774 19352 net.cpp:148] Top shape: 24 64 14 14 (301056)
I0403 19:17:08.880792 19352 net.cpp:156] Memory required for data: 1146105120
I0403 19:17:08.880810 19352 layer_factory.hpp:77] Creating layer inception_4d/relu_pool_proj
I0403 19:17:08.880830 19352 net.cpp:91] Creating Layer inception_4d/relu_pool_proj
I0403 19:17:08.880846 19352 net.cpp:425] inception_4d/relu_pool_proj <- inception_4d/pool_proj
I0403 19:17:08.880863 19352 net.cpp:386] inception_4d/relu_pool_proj -> inception_4d/pool_proj (in-place)
I0403 19:17:08.881049 19352 net.cpp:141] Setting up inception_4d/relu_pool_proj
I0403 19:17:08.881077 19352 net.cpp:148] Top shape: 24 64 14 14 (301056)
I0403 19:17:08.881093 19352 net.cpp:156] Memory required for data: 1147309344
I0403 19:17:08.881108 19352 layer_factory.hpp:77] Creating layer inception_4d/output
I0403 19:17:08.881124 19352 net.cpp:91] Creating Layer inception_4d/output
I0403 19:17:08.881140 19352 net.cpp:425] inception_4d/output <- inception_4d/1x1
I0403 19:17:08.881157 19352 net.cpp:425] inception_4d/output <- inception_4d/3x3
I0403 19:17:08.881175 19352 net.cpp:425] inception_4d/output <- inception_4d/5x5
I0403 19:17:08.881191 19352 net.cpp:425] inception_4d/output <- inception_4d/pool_proj
I0403 19:17:08.881211 19352 net.cpp:399] inception_4d/output -> inception_4d/output
I0403 19:17:08.881258 19352 net.cpp:141] Setting up inception_4d/output
I0403 19:17:08.881280 19352 net.cpp:148] Top shape: 24 528 14 14 (2483712)
I0403 19:17:08.881296 19352 net.cpp:156] Memory required for data: 1157244192
I0403 19:17:08.881311 19352 layer_factory.hpp:77] Creating layer inception_4d/output_inception_4d/output_0_split
I0403 19:17:08.881331 19352 net.cpp:91] Creating Layer inception_4d/output_inception_4d/output_0_split
I0403 19:17:08.881347 19352 net.cpp:425] inception_4d/output_inception_4d/output_0_split <- inception_4d/output
I0403 19:17:08.881366 19352 net.cpp:399] inception_4d/output_inception_4d/output_0_split -> inception_4d/output_inception_4d/output_0_split_0
I0403 19:17:08.881389 19352 net.cpp:399] inception_4d/output_inception_4d/output_0_split -> inception_4d/output_inception_4d/output_0_split_1
I0403 19:17:08.881410 19352 net.cpp:399] inception_4d/output_inception_4d/output_0_split -> inception_4d/output_inception_4d/output_0_split_2
I0403 19:17:08.881431 19352 net.cpp:399] inception_4d/output_inception_4d/output_0_split -> inception_4d/output_inception_4d/output_0_split_3
I0403 19:17:08.881451 19352 net.cpp:399] inception_4d/output_inception_4d/output_0_split -> inception_4d/output_inception_4d/output_0_split_4
I0403 19:17:08.881551 19352 net.cpp:141] Setting up inception_4d/output_inception_4d/output_0_split
I0403 19:17:08.881587 19352 net.cpp:148] Top shape: 24 528 14 14 (2483712)
I0403 19:17:08.881604 19352 net.cpp:148] Top shape: 24 528 14 14 (2483712)
I0403 19:17:08.881619 19352 net.cpp:148] Top shape: 24 528 14 14 (2483712)
I0403 19:17:08.881635 19352 net.cpp:148] Top shape: 24 528 14 14 (2483712)
I0403 19:17:08.881650 19352 net.cpp:148] Top shape: 24 528 14 14 (2483712)
I0403 19:17:08.881664 19352 net.cpp:156] Memory required for data: 1206918432
I0403 19:17:08.881678 19352 layer_factory.hpp:77] Creating layer loss2/ave_pool
I0403 19:17:08.881698 19352 net.cpp:91] Creating Layer loss2/ave_pool
I0403 19:17:08.881714 19352 net.cpp:425] loss2/ave_pool <- inception_4d/output_inception_4d/output_0_split_0
I0403 19:17:08.881733 19352 net.cpp:399] loss2/ave_pool -> loss2/ave_pool
I0403 19:17:08.882043 19352 net.cpp:141] Setting up loss2/ave_pool
I0403 19:17:08.882071 19352 net.cpp:148] Top shape: 24 528 4 4 (202752)
I0403 19:17:08.882088 19352 net.cpp:156] Memory required for data: 1207729440
I0403 19:17:08.882103 19352 layer_factory.hpp:77] Creating layer loss2/conv
I0403 19:17:08.882123 19352 net.cpp:91] Creating Layer loss2/conv
I0403 19:17:08.882140 19352 net.cpp:425] loss2/conv <- loss2/ave_pool
I0403 19:17:08.882161 19352 net.cpp:399] loss2/conv -> loss2/conv
I0403 19:17:08.884006 19352 net.cpp:141] Setting up loss2/conv
I0403 19:17:08.884033 19352 net.cpp:148] Top shape: 24 128 4 4 (49152)
I0403 19:17:08.884049 19352 net.cpp:156] Memory required for data: 1207926048
I0403 19:17:08.884068 19352 layer_factory.hpp:77] Creating layer loss2/relu_conv
I0403 19:17:08.884088 19352 net.cpp:91] Creating Layer loss2/relu_conv
I0403 19:17:08.884104 19352 net.cpp:425] loss2/relu_conv <- loss2/conv
I0403 19:17:08.884124 19352 net.cpp:386] loss2/relu_conv -> loss2/conv (in-place)
I0403 19:17:08.884403 19352 net.cpp:141] Setting up loss2/relu_conv
I0403 19:17:08.884429 19352 net.cpp:148] Top shape: 24 128 4 4 (49152)
I0403 19:17:08.884444 19352 net.cpp:156] Memory required for data: 1208122656
I0403 19:17:08.884459 19352 layer_factory.hpp:77] Creating layer loss2/fc
I0403 19:17:08.884479 19352 net.cpp:91] Creating Layer loss2/fc
I0403 19:17:08.884495 19352 net.cpp:425] loss2/fc <- loss2/conv
I0403 19:17:08.884516 19352 net.cpp:399] loss2/fc -> loss2/fc
I0403 19:17:08.901590 19352 net.cpp:141] Setting up loss2/fc
I0403 19:17:08.901623 19352 net.cpp:148] Top shape: 24 1024 (24576)
I0403 19:17:08.901639 19352 net.cpp:156] Memory required for data: 1208220960
I0403 19:17:08.901657 19352 layer_factory.hpp:77] Creating layer loss2/relu_fc
I0403 19:17:08.901679 19352 net.cpp:91] Creating Layer loss2/relu_fc
I0403 19:17:08.901696 19352 net.cpp:425] loss2/relu_fc <- loss2/fc
I0403 19:17:08.901713 19352 net.cpp:386] loss2/relu_fc -> loss2/fc (in-place)
I0403 19:17:08.902009 19352 net.cpp:141] Setting up loss2/relu_fc
I0403 19:17:08.902036 19352 net.cpp:148] Top shape: 24 1024 (24576)
I0403 19:17:08.902051 19352 net.cpp:156] Memory required for data: 1208319264
I0403 19:17:08.902067 19352 layer_factory.hpp:77] Creating layer loss2/drop_fc
I0403 19:17:08.902084 19352 net.cpp:91] Creating Layer loss2/drop_fc
I0403 19:17:08.902101 19352 net.cpp:425] loss2/drop_fc <- loss2/fc
I0403 19:17:08.902118 19352 net.cpp:386] loss2/drop_fc -> loss2/fc (in-place)
I0403 19:17:08.902169 19352 net.cpp:141] Setting up loss2/drop_fc
I0403 19:17:08.902192 19352 net.cpp:148] Top shape: 24 1024 (24576)
I0403 19:17:08.902209 19352 net.cpp:156] Memory required for data: 1208417568
I0403 19:17:08.902223 19352 layer_factory.hpp:77] Creating layer loss2/classifier_plantvillage
I0403 19:17:08.902245 19352 net.cpp:91] Creating Layer loss2/classifier_plantvillage
I0403 19:17:08.902261 19352 net.cpp:425] loss2/classifier_plantvillage <- loss2/fc
I0403 19:17:08.902281 19352 net.cpp:399] loss2/classifier_plantvillage -> loss2/classifier_plantvillage
I0403 19:17:08.902670 19352 net.cpp:141] Setting up loss2/classifier_plantvillage
I0403 19:17:08.902695 19352 net.cpp:148] Top shape: 24 38 (912)
I0403 19:17:08.902725 19352 net.cpp:156] Memory required for data: 1208421216
I0403 19:17:08.902745 19352 layer_factory.hpp:77] Creating layer loss2/classifier_plantvillage_loss2/classifier_plantvillage_0_split
I0403 19:17:08.902763 19352 net.cpp:91] Creating Layer loss2/classifier_plantvillage_loss2/classifier_plantvillage_0_split
I0403 19:17:08.902781 19352 net.cpp:425] loss2/classifier_plantvillage_loss2/classifier_plantvillage_0_split <- loss2/classifier_plantvillage
I0403 19:17:08.902801 19352 net.cpp:399] loss2/classifier_plantvillage_loss2/classifier_plantvillage_0_split -> loss2/classifier_plantvillage_loss2/classifier_plantvillage_0_split_0
I0403 19:17:08.902822 19352 net.cpp:399] loss2/classifier_plantvillage_loss2/classifier_plantvillage_0_split -> loss2/classifier_plantvillage_loss2/classifier_plantvillage_0_split_1
I0403 19:17:08.902843 19352 net.cpp:399] loss2/classifier_plantvillage_loss2/classifier_plantvillage_0_split -> loss2/classifier_plantvillage_loss2/classifier_plantvillage_0_split_2
I0403 19:17:08.902918 19352 net.cpp:141] Setting up loss2/classifier_plantvillage_loss2/classifier_plantvillage_0_split
I0403 19:17:08.902943 19352 net.cpp:148] Top shape: 24 38 (912)
I0403 19:17:08.902964 19352 net.cpp:148] Top shape: 24 38 (912)
I0403 19:17:08.902981 19352 net.cpp:148] Top shape: 24 38 (912)
I0403 19:17:08.902994 19352 net.cpp:156] Memory required for data: 1208432160
I0403 19:17:08.903008 19352 layer_factory.hpp:77] Creating layer inception_4e/1x1
I0403 19:17:08.903029 19352 net.cpp:91] Creating Layer inception_4e/1x1
I0403 19:17:08.903045 19352 net.cpp:425] inception_4e/1x1 <- inception_4d/output_inception_4d/output_0_split_1
I0403 19:17:08.903064 19352 net.cpp:399] inception_4e/1x1 -> inception_4e/1x1
I0403 19:17:08.904832 19352 net.cpp:141] Setting up inception_4e/1x1
I0403 19:17:08.904860 19352 net.cpp:148] Top shape: 24 256 14 14 (1204224)
I0403 19:17:08.904875 19352 net.cpp:156] Memory required for data: 1213249056
I0403 19:17:08.904893 19352 layer_factory.hpp:77] Creating layer inception_4e/relu_1x1
I0403 19:17:08.904911 19352 net.cpp:91] Creating Layer inception_4e/relu_1x1
I0403 19:17:08.904928 19352 net.cpp:425] inception_4e/relu_1x1 <- inception_4e/1x1
I0403 19:17:08.904952 19352 net.cpp:386] inception_4e/relu_1x1 -> inception_4e/1x1 (in-place)
I0403 19:17:08.905242 19352 net.cpp:141] Setting up inception_4e/relu_1x1
I0403 19:17:08.905268 19352 net.cpp:148] Top shape: 24 256 14 14 (1204224)
I0403 19:17:08.905283 19352 net.cpp:156] Memory required for data: 1218065952
I0403 19:17:08.905298 19352 layer_factory.hpp:77] Creating layer inception_4e/3x3_reduce
I0403 19:17:08.905320 19352 net.cpp:91] Creating Layer inception_4e/3x3_reduce
I0403 19:17:08.905338 19352 net.cpp:425] inception_4e/3x3_reduce <- inception_4d/output_inception_4d/output_0_split_2
I0403 19:17:08.905359 19352 net.cpp:399] inception_4e/3x3_reduce -> inception_4e/3x3_reduce
I0403 19:17:08.907430 19352 net.cpp:141] Setting up inception_4e/3x3_reduce
I0403 19:17:08.907461 19352 net.cpp:148] Top shape: 24 160 14 14 (752640)
I0403 19:17:08.907477 19352 net.cpp:156] Memory required for data: 1221076512
I0403 19:17:08.907496 19352 layer_factory.hpp:77] Creating layer inception_4e/relu_3x3_reduce
I0403 19:17:08.907515 19352 net.cpp:91] Creating Layer inception_4e/relu_3x3_reduce
I0403 19:17:08.907531 19352 net.cpp:425] inception_4e/relu_3x3_reduce <- inception_4e/3x3_reduce
I0403 19:17:08.907552 19352 net.cpp:386] inception_4e/relu_3x3_reduce -> inception_4e/3x3_reduce (in-place)
I0403 19:17:08.907732 19352 net.cpp:141] Setting up inception_4e/relu_3x3_reduce
I0403 19:17:08.907757 19352 net.cpp:148] Top shape: 24 160 14 14 (752640)
I0403 19:17:08.907771 19352 net.cpp:156] Memory required for data: 1224087072
I0403 19:17:08.907788 19352 layer_factory.hpp:77] Creating layer inception_4e/3x3
I0403 19:17:08.907809 19352 net.cpp:91] Creating Layer inception_4e/3x3
I0403 19:17:08.907827 19352 net.cpp:425] inception_4e/3x3 <- inception_4e/3x3_reduce
I0403 19:17:08.907848 19352 net.cpp:399] inception_4e/3x3 -> inception_4e/3x3
I0403 19:17:08.912719 19352 net.cpp:141] Setting up inception_4e/3x3
I0403 19:17:08.912760 19352 net.cpp:148] Top shape: 24 320 14 14 (1505280)
I0403 19:17:08.912776 19352 net.cpp:156] Memory required for data: 1230108192
I0403 19:17:08.912796 19352 layer_factory.hpp:77] Creating layer inception_4e/relu_3x3
I0403 19:17:08.912817 19352 net.cpp:91] Creating Layer inception_4e/relu_3x3
I0403 19:17:08.912833 19352 net.cpp:425] inception_4e/relu_3x3 <- inception_4e/3x3
I0403 19:17:08.912853 19352 net.cpp:386] inception_4e/relu_3x3 -> inception_4e/3x3 (in-place)
I0403 19:17:08.913152 19352 net.cpp:141] Setting up inception_4e/relu_3x3
I0403 19:17:08.913178 19352 net.cpp:148] Top shape: 24 320 14 14 (1505280)
I0403 19:17:08.913194 19352 net.cpp:156] Memory required for data: 1236129312
I0403 19:17:08.913210 19352 layer_factory.hpp:77] Creating layer inception_4e/5x5_reduce
I0403 19:17:08.913233 19352 net.cpp:91] Creating Layer inception_4e/5x5_reduce
I0403 19:17:08.913254 19352 net.cpp:425] inception_4e/5x5_reduce <- inception_4d/output_inception_4d/output_0_split_3
I0403 19:17:08.913275 19352 net.cpp:399] inception_4e/5x5_reduce -> inception_4e/5x5_reduce
I0403 19:17:08.914315 19352 net.cpp:141] Setting up inception_4e/5x5_reduce
I0403 19:17:08.914341 19352 net.cpp:148] Top shape: 24 32 14 14 (150528)
I0403 19:17:08.914357 19352 net.cpp:156] Memory required for data: 1236731424
I0403 19:17:08.914376 19352 layer_factory.hpp:77] Creating layer inception_4e/relu_5x5_reduce
I0403 19:17:08.914396 19352 net.cpp:91] Creating Layer inception_4e/relu_5x5_reduce
I0403 19:17:08.914412 19352 net.cpp:425] inception_4e/relu_5x5_reduce <- inception_4e/5x5_reduce
I0403 19:17:08.914433 19352 net.cpp:386] inception_4e/relu_5x5_reduce -> inception_4e/5x5_reduce (in-place)
I0403 19:17:08.914726 19352 net.cpp:141] Setting up inception_4e/relu_5x5_reduce
I0403 19:17:08.914751 19352 net.cpp:148] Top shape: 24 32 14 14 (150528)
I0403 19:17:08.914765 19352 net.cpp:156] Memory required for data: 1237333536
I0403 19:17:08.914780 19352 layer_factory.hpp:77] Creating layer inception_4e/5x5
I0403 19:17:08.914818 19352 net.cpp:91] Creating Layer inception_4e/5x5
I0403 19:17:08.914836 19352 net.cpp:425] inception_4e/5x5 <- inception_4e/5x5_reduce
I0403 19:17:08.914856 19352 net.cpp:399] inception_4e/5x5 -> inception_4e/5x5
I0403 19:17:08.916694 19352 net.cpp:141] Setting up inception_4e/5x5
I0403 19:17:08.916724 19352 net.cpp:148] Top shape: 24 128 14 14 (602112)
I0403 19:17:08.916741 19352 net.cpp:156] Memory required for data: 1239741984
I0403 19:17:08.916761 19352 layer_factory.hpp:77] Creating layer inception_4e/relu_5x5
I0403 19:17:08.916780 19352 net.cpp:91] Creating Layer inception_4e/relu_5x5
I0403 19:17:08.916797 19352 net.cpp:425] inception_4e/relu_5x5 <- inception_4e/5x5
I0403 19:17:08.916815 19352 net.cpp:386] inception_4e/relu_5x5 -> inception_4e/5x5 (in-place)
I0403 19:17:08.917018 19352 net.cpp:141] Setting up inception_4e/relu_5x5
I0403 19:17:08.917044 19352 net.cpp:148] Top shape: 24 128 14 14 (602112)
I0403 19:17:08.917059 19352 net.cpp:156] Memory required for data: 1242150432
I0403 19:17:08.917074 19352 layer_factory.hpp:77] Creating layer inception_4e/pool
I0403 19:17:08.917093 19352 net.cpp:91] Creating Layer inception_4e/pool
I0403 19:17:08.917109 19352 net.cpp:425] inception_4e/pool <- inception_4d/output_inception_4d/output_0_split_4
I0403 19:17:08.917130 19352 net.cpp:399] inception_4e/pool -> inception_4e/pool
I0403 19:17:08.917201 19352 net.cpp:141] Setting up inception_4e/pool
I0403 19:17:08.917227 19352 net.cpp:148] Top shape: 24 528 14 14 (2483712)
I0403 19:17:08.917243 19352 net.cpp:156] Memory required for data: 1252085280
I0403 19:17:08.917259 19352 layer_factory.hpp:77] Creating layer inception_4e/pool_proj
I0403 19:17:08.917281 19352 net.cpp:91] Creating Layer inception_4e/pool_proj
I0403 19:17:08.917299 19352 net.cpp:425] inception_4e/pool_proj <- inception_4e/pool
I0403 19:17:08.917318 19352 net.cpp:399] inception_4e/pool_proj -> inception_4e/pool_proj
I0403 19:17:08.918820 19352 net.cpp:141] Setting up inception_4e/pool_proj
I0403 19:17:08.918862 19352 net.cpp:148] Top shape: 24 128 14 14 (602112)
I0403 19:17:08.918880 19352 net.cpp:156] Memory required for data: 1254493728
I0403 19:17:08.918898 19352 layer_factory.hpp:77] Creating layer inception_4e/relu_pool_proj
I0403 19:17:08.918917 19352 net.cpp:91] Creating Layer inception_4e/relu_pool_proj
I0403 19:17:08.918934 19352 net.cpp:425] inception_4e/relu_pool_proj <- inception_4e/pool_proj
I0403 19:17:08.918962 19352 net.cpp:386] inception_4e/relu_pool_proj -> inception_4e/pool_proj (in-place)
I0403 19:17:08.919260 19352 net.cpp:141] Setting up inception_4e/relu_pool_proj
I0403 19:17:08.919288 19352 net.cpp:148] Top shape: 24 128 14 14 (602112)
I0403 19:17:08.919306 19352 net.cpp:156] Memory required for data: 1256902176
I0403 19:17:08.919320 19352 layer_factory.hpp:77] Creating layer inception_4e/output
I0403 19:17:08.919338 19352 net.cpp:91] Creating Layer inception_4e/output
I0403 19:17:08.919355 19352 net.cpp:425] inception_4e/output <- inception_4e/1x1
I0403 19:17:08.919373 19352 net.cpp:425] inception_4e/output <- inception_4e/3x3
I0403 19:17:08.919389 19352 net.cpp:425] inception_4e/output <- inception_4e/5x5
I0403 19:17:08.919405 19352 net.cpp:425] inception_4e/output <- inception_4e/pool_proj
I0403 19:17:08.919423 19352 net.cpp:399] inception_4e/output -> inception_4e/output
I0403 19:17:08.919476 19352 net.cpp:141] Setting up inception_4e/output
I0403 19:17:08.919499 19352 net.cpp:148] Top shape: 24 832 14 14 (3913728)
I0403 19:17:08.919514 19352 net.cpp:156] Memory required for data: 1272557088
I0403 19:17:08.919530 19352 layer_factory.hpp:77] Creating layer pool4/3x3_s2
I0403 19:17:08.919549 19352 net.cpp:91] Creating Layer pool4/3x3_s2
I0403 19:17:08.919566 19352 net.cpp:425] pool4/3x3_s2 <- inception_4e/output
I0403 19:17:08.919585 19352 net.cpp:399] pool4/3x3_s2 -> pool4/3x3_s2
I0403 19:17:08.919656 19352 net.cpp:141] Setting up pool4/3x3_s2
I0403 19:17:08.919679 19352 net.cpp:148] Top shape: 24 832 7 7 (978432)
I0403 19:17:08.919695 19352 net.cpp:156] Memory required for data: 1276470816
I0403 19:17:08.919709 19352 layer_factory.hpp:77] Creating layer pool4/3x3_s2_pool4/3x3_s2_0_split
I0403 19:17:08.919728 19352 net.cpp:91] Creating Layer pool4/3x3_s2_pool4/3x3_s2_0_split
I0403 19:17:08.919744 19352 net.cpp:425] pool4/3x3_s2_pool4/3x3_s2_0_split <- pool4/3x3_s2
I0403 19:17:08.919764 19352 net.cpp:399] pool4/3x3_s2_pool4/3x3_s2_0_split -> pool4/3x3_s2_pool4/3x3_s2_0_split_0
I0403 19:17:08.919785 19352 net.cpp:399] pool4/3x3_s2_pool4/3x3_s2_0_split -> pool4/3x3_s2_pool4/3x3_s2_0_split_1
I0403 19:17:08.919806 19352 net.cpp:399] pool4/3x3_s2_pool4/3x3_s2_0_split -> pool4/3x3_s2_pool4/3x3_s2_0_split_2
I0403 19:17:08.919826 19352 net.cpp:399] pool4/3x3_s2_pool4/3x3_s2_0_split -> pool4/3x3_s2_pool4/3x3_s2_0_split_3
I0403 19:17:08.919920 19352 net.cpp:141] Setting up pool4/3x3_s2_pool4/3x3_s2_0_split
I0403 19:17:08.919945 19352 net.cpp:148] Top shape: 24 832 7 7 (978432)
I0403 19:17:08.919967 19352 net.cpp:148] Top shape: 24 832 7 7 (978432)
I0403 19:17:08.919984 19352 net.cpp:148] Top shape: 24 832 7 7 (978432)
I0403 19:17:08.920001 19352 net.cpp:148] Top shape: 24 832 7 7 (978432)
I0403 19:17:08.920016 19352 net.cpp:156] Memory required for data: 1292125728
I0403 19:17:08.920029 19352 layer_factory.hpp:77] Creating layer inception_5a/1x1
I0403 19:17:08.920053 19352 net.cpp:91] Creating Layer inception_5a/1x1
I0403 19:17:08.920070 19352 net.cpp:425] inception_5a/1x1 <- pool4/3x3_s2_pool4/3x3_s2_0_split_0
I0403 19:17:08.920089 19352 net.cpp:399] inception_5a/1x1 -> inception_5a/1x1
I0403 19:17:08.922977 19352 net.cpp:141] Setting up inception_5a/1x1
I0403 19:17:08.923009 19352 net.cpp:148] Top shape: 24 256 7 7 (301056)
I0403 19:17:08.923027 19352 net.cpp:156] Memory required for data: 1293329952
I0403 19:17:08.923045 19352 layer_factory.hpp:77] Creating layer inception_5a/relu_1x1
I0403 19:17:08.923064 19352 net.cpp:91] Creating Layer inception_5a/relu_1x1
I0403 19:17:08.923080 19352 net.cpp:425] inception_5a/relu_1x1 <- inception_5a/1x1
I0403 19:17:08.923100 19352 net.cpp:386] inception_5a/relu_1x1 -> inception_5a/1x1 (in-place)
I0403 19:17:08.923414 19352 net.cpp:141] Setting up inception_5a/relu_1x1
I0403 19:17:08.923442 19352 net.cpp:148] Top shape: 24 256 7 7 (301056)
I0403 19:17:08.923460 19352 net.cpp:156] Memory required for data: 1294534176
I0403 19:17:08.923475 19352 layer_factory.hpp:77] Creating layer inception_5a/3x3_reduce
I0403 19:17:08.923498 19352 net.cpp:91] Creating Layer inception_5a/3x3_reduce
I0403 19:17:08.923517 19352 net.cpp:425] inception_5a/3x3_reduce <- pool4/3x3_s2_pool4/3x3_s2_0_split_1
I0403 19:17:08.923537 19352 net.cpp:399] inception_5a/3x3_reduce -> inception_5a/3x3_reduce
I0403 19:17:08.926010 19352 net.cpp:141] Setting up inception_5a/3x3_reduce
I0403 19:17:08.926040 19352 net.cpp:148] Top shape: 24 160 7 7 (188160)
I0403 19:17:08.926056 19352 net.cpp:156] Memory required for data: 1295286816
I0403 19:17:08.926075 19352 layer_factory.hpp:77] Creating layer inception_5a/relu_3x3_reduce
I0403 19:17:08.926096 19352 net.cpp:91] Creating Layer inception_5a/relu_3x3_reduce
I0403 19:17:08.926115 19352 net.cpp:425] inception_5a/relu_3x3_reduce <- inception_5a/3x3_reduce
I0403 19:17:08.926132 19352 net.cpp:386] inception_5a/relu_3x3_reduce -> inception_5a/3x3_reduce (in-place)
I0403 19:17:08.926321 19352 net.cpp:141] Setting up inception_5a/relu_3x3_reduce
I0403 19:17:08.926348 19352 net.cpp:148] Top shape: 24 160 7 7 (188160)
I0403 19:17:08.926364 19352 net.cpp:156] Memory required for data: 1296039456
I0403 19:17:08.926379 19352 layer_factory.hpp:77] Creating layer inception_5a/3x3
I0403 19:17:08.926403 19352 net.cpp:91] Creating Layer inception_5a/3x3
I0403 19:17:08.926421 19352 net.cpp:425] inception_5a/3x3 <- inception_5a/3x3_reduce
I0403 19:17:08.926440 19352 net.cpp:399] inception_5a/3x3 -> inception_5a/3x3
I0403 19:17:08.931470 19352 net.cpp:141] Setting up inception_5a/3x3
I0403 19:17:08.931504 19352 net.cpp:148] Top shape: 24 320 7 7 (376320)
I0403 19:17:08.931520 19352 net.cpp:156] Memory required for data: 1297544736
I0403 19:17:08.931540 19352 layer_factory.hpp:77] Creating layer inception_5a/relu_3x3
I0403 19:17:08.931560 19352 net.cpp:91] Creating Layer inception_5a/relu_3x3
I0403 19:17:08.931576 19352 net.cpp:425] inception_5a/relu_3x3 <- inception_5a/3x3
I0403 19:17:08.931596 19352 net.cpp:386] inception_5a/relu_3x3 -> inception_5a/3x3 (in-place)
I0403 19:17:08.931890 19352 net.cpp:141] Setting up inception_5a/relu_3x3
I0403 19:17:08.931917 19352 net.cpp:148] Top shape: 24 320 7 7 (376320)
I0403 19:17:08.931933 19352 net.cpp:156] Memory required for data: 1299050016
I0403 19:17:08.931953 19352 layer_factory.hpp:77] Creating layer inception_5a/5x5_reduce
I0403 19:17:08.931977 19352 net.cpp:91] Creating Layer inception_5a/5x5_reduce
I0403 19:17:08.931995 19352 net.cpp:425] inception_5a/5x5_reduce <- pool4/3x3_s2_pool4/3x3_s2_0_split_2
I0403 19:17:08.932015 19352 net.cpp:399] inception_5a/5x5_reduce -> inception_5a/5x5_reduce
I0403 19:17:08.933197 19352 net.cpp:141] Setting up inception_5a/5x5_reduce
I0403 19:17:08.933228 19352 net.cpp:148] Top shape: 24 32 7 7 (37632)
I0403 19:17:08.933244 19352 net.cpp:156] Memory required for data: 1299200544
I0403 19:17:08.933264 19352 layer_factory.hpp:77] Creating layer inception_5a/relu_5x5_reduce
I0403 19:17:08.933282 19352 net.cpp:91] Creating Layer inception_5a/relu_5x5_reduce
I0403 19:17:08.933300 19352 net.cpp:425] inception_5a/relu_5x5_reduce <- inception_5a/5x5_reduce
I0403 19:17:08.933332 19352 net.cpp:386] inception_5a/relu_5x5_reduce -> inception_5a/5x5_reduce (in-place)
I0403 19:17:08.933629 19352 net.cpp:141] Setting up inception_5a/relu_5x5_reduce
I0403 19:17:08.933653 19352 net.cpp:148] Top shape: 24 32 7 7 (37632)
I0403 19:17:08.933670 19352 net.cpp:156] Memory required for data: 1299351072
I0403 19:17:08.933684 19352 layer_factory.hpp:77] Creating layer inception_5a/5x5
I0403 19:17:08.933706 19352 net.cpp:91] Creating Layer inception_5a/5x5
I0403 19:17:08.933724 19352 net.cpp:425] inception_5a/5x5 <- inception_5a/5x5_reduce
I0403 19:17:08.933747 19352 net.cpp:399] inception_5a/5x5 -> inception_5a/5x5
I0403 19:17:08.935423 19352 net.cpp:141] Setting up inception_5a/5x5
I0403 19:17:08.935463 19352 net.cpp:148] Top shape: 24 128 7 7 (150528)
I0403 19:17:08.935480 19352 net.cpp:156] Memory required for data: 1299953184
I0403 19:17:08.935498 19352 layer_factory.hpp:77] Creating layer inception_5a/relu_5x5
I0403 19:17:08.935518 19352 net.cpp:91] Creating Layer inception_5a/relu_5x5
I0403 19:17:08.935534 19352 net.cpp:425] inception_5a/relu_5x5 <- inception_5a/5x5
I0403 19:17:08.935552 19352 net.cpp:386] inception_5a/relu_5x5 -> inception_5a/5x5 (in-place)
I0403 19:17:08.935739 19352 net.cpp:141] Setting up inception_5a/relu_5x5
I0403 19:17:08.935763 19352 net.cpp:148] Top shape: 24 128 7 7 (150528)
I0403 19:17:08.935778 19352 net.cpp:156] Memory required for data: 1300555296
I0403 19:17:08.935793 19352 layer_factory.hpp:77] Creating layer inception_5a/pool
I0403 19:17:08.935811 19352 net.cpp:91] Creating Layer inception_5a/pool
I0403 19:17:08.935827 19352 net.cpp:425] inception_5a/pool <- pool4/3x3_s2_pool4/3x3_s2_0_split_3
I0403 19:17:08.935847 19352 net.cpp:399] inception_5a/pool -> inception_5a/pool
I0403 19:17:08.935916 19352 net.cpp:141] Setting up inception_5a/pool
I0403 19:17:08.935941 19352 net.cpp:148] Top shape: 24 832 7 7 (978432)
I0403 19:17:08.935961 19352 net.cpp:156] Memory required for data: 1304469024
I0403 19:17:08.935976 19352 layer_factory.hpp:77] Creating layer inception_5a/pool_proj
I0403 19:17:08.935997 19352 net.cpp:91] Creating Layer inception_5a/pool_proj
I0403 19:17:08.936015 19352 net.cpp:425] inception_5a/pool_proj <- inception_5a/pool
I0403 19:17:08.936034 19352 net.cpp:399] inception_5a/pool_proj -> inception_5a/pool_proj
I0403 19:17:08.938271 19352 net.cpp:141] Setting up inception_5a/pool_proj
I0403 19:17:08.938298 19352 net.cpp:148] Top shape: 24 128 7 7 (150528)
I0403 19:17:08.938314 19352 net.cpp:156] Memory required for data: 1305071136
I0403 19:17:08.938333 19352 layer_factory.hpp:77] Creating layer inception_5a/relu_pool_proj
I0403 19:17:08.938354 19352 net.cpp:91] Creating Layer inception_5a/relu_pool_proj
I0403 19:17:08.938371 19352 net.cpp:425] inception_5a/relu_pool_proj <- inception_5a/pool_proj
I0403 19:17:08.938388 19352 net.cpp:386] inception_5a/relu_pool_proj -> inception_5a/pool_proj (in-place)
I0403 19:17:08.938675 19352 net.cpp:141] Setting up inception_5a/relu_pool_proj
I0403 19:17:08.938700 19352 net.cpp:148] Top shape: 24 128 7 7 (150528)
I0403 19:17:08.938716 19352 net.cpp:156] Memory required for data: 1305673248
I0403 19:17:08.938731 19352 layer_factory.hpp:77] Creating layer inception_5a/output
I0403 19:17:08.938751 19352 net.cpp:91] Creating Layer inception_5a/output
I0403 19:17:08.938767 19352 net.cpp:425] inception_5a/output <- inception_5a/1x1
I0403 19:17:08.938786 19352 net.cpp:425] inception_5a/output <- inception_5a/3x3
I0403 19:17:08.938802 19352 net.cpp:425] inception_5a/output <- inception_5a/5x5
I0403 19:17:08.938817 19352 net.cpp:425] inception_5a/output <- inception_5a/pool_proj
I0403 19:17:08.938835 19352 net.cpp:399] inception_5a/output -> inception_5a/output
I0403 19:17:08.938886 19352 net.cpp:141] Setting up inception_5a/output
I0403 19:17:08.938910 19352 net.cpp:148] Top shape: 24 832 7 7 (978432)
I0403 19:17:08.938925 19352 net.cpp:156] Memory required for data: 1309586976
I0403 19:17:08.938940 19352 layer_factory.hpp:77] Creating layer inception_5a/output_inception_5a/output_0_split
I0403 19:17:08.938967 19352 net.cpp:91] Creating Layer inception_5a/output_inception_5a/output_0_split
I0403 19:17:08.938985 19352 net.cpp:425] inception_5a/output_inception_5a/output_0_split <- inception_5a/output
I0403 19:17:08.939007 19352 net.cpp:399] inception_5a/output_inception_5a/output_0_split -> inception_5a/output_inception_5a/output_0_split_0
I0403 19:17:08.939028 19352 net.cpp:399] inception_5a/output_inception_5a/output_0_split -> inception_5a/output_inception_5a/output_0_split_1
I0403 19:17:08.939049 19352 net.cpp:399] inception_5a/output_inception_5a/output_0_split -> inception_5a/output_inception_5a/output_0_split_2
I0403 19:17:08.939069 19352 net.cpp:399] inception_5a/output_inception_5a/output_0_split -> inception_5a/output_inception_5a/output_0_split_3
I0403 19:17:08.939180 19352 net.cpp:141] Setting up inception_5a/output_inception_5a/output_0_split
I0403 19:17:08.939205 19352 net.cpp:148] Top shape: 24 832 7 7 (978432)
I0403 19:17:08.939221 19352 net.cpp:148] Top shape: 24 832 7 7 (978432)
I0403 19:17:08.939237 19352 net.cpp:148] Top shape: 24 832 7 7 (978432)
I0403 19:17:08.939254 19352 net.cpp:148] Top shape: 24 832 7 7 (978432)
I0403 19:17:08.939267 19352 net.cpp:156] Memory required for data: 1325241888
I0403 19:17:08.939282 19352 layer_factory.hpp:77] Creating layer inception_5b/1x1
I0403 19:17:08.939304 19352 net.cpp:91] Creating Layer inception_5b/1x1
I0403 19:17:08.939321 19352 net.cpp:425] inception_5b/1x1 <- inception_5a/output_inception_5a/output_0_split_0
I0403 19:17:08.939343 19352 net.cpp:399] inception_5b/1x1 -> inception_5b/1x1
I0403 19:17:08.943019 19352 net.cpp:141] Setting up inception_5b/1x1
I0403 19:17:08.943048 19352 net.cpp:148] Top shape: 24 384 7 7 (451584)
I0403 19:17:08.943065 19352 net.cpp:156] Memory required for data: 1327048224
I0403 19:17:08.943084 19352 layer_factory.hpp:77] Creating layer inception_5b/relu_1x1
I0403 19:17:08.943104 19352 net.cpp:91] Creating Layer inception_5b/relu_1x1
I0403 19:17:08.943122 19352 net.cpp:425] inception_5b/relu_1x1 <- inception_5b/1x1
I0403 19:17:08.943140 19352 net.cpp:386] inception_5b/relu_1x1 -> inception_5b/1x1 (in-place)
I0403 19:17:08.943439 19352 net.cpp:141] Setting up inception_5b/relu_1x1
I0403 19:17:08.943464 19352 net.cpp:148] Top shape: 24 384 7 7 (451584)
I0403 19:17:08.943480 19352 net.cpp:156] Memory required for data: 1328854560
I0403 19:17:08.943495 19352 layer_factory.hpp:77] Creating layer inception_5b/3x3_reduce
I0403 19:17:08.943516 19352 net.cpp:91] Creating Layer inception_5b/3x3_reduce
I0403 19:17:08.943536 19352 net.cpp:425] inception_5b/3x3_reduce <- inception_5a/output_inception_5a/output_0_split_1
I0403 19:17:08.943557 19352 net.cpp:399] inception_5b/3x3_reduce -> inception_5b/3x3_reduce
I0403 19:17:08.946251 19352 net.cpp:141] Setting up inception_5b/3x3_reduce
I0403 19:17:08.946280 19352 net.cpp:148] Top shape: 24 192 7 7 (225792)
I0403 19:17:08.946296 19352 net.cpp:156] Memory required for data: 1329757728
I0403 19:17:08.946315 19352 layer_factory.hpp:77] Creating layer inception_5b/relu_3x3_reduce
I0403 19:17:08.946336 19352 net.cpp:91] Creating Layer inception_5b/relu_3x3_reduce
I0403 19:17:08.946353 19352 net.cpp:425] inception_5b/relu_3x3_reduce <- inception_5b/3x3_reduce
I0403 19:17:08.946370 19352 net.cpp:386] inception_5b/relu_3x3_reduce -> inception_5b/3x3_reduce (in-place)
I0403 19:17:08.946554 19352 net.cpp:141] Setting up inception_5b/relu_3x3_reduce
I0403 19:17:08.946579 19352 net.cpp:148] Top shape: 24 192 7 7 (225792)
I0403 19:17:08.946594 19352 net.cpp:156] Memory required for data: 1330660896
I0403 19:17:08.946609 19352 layer_factory.hpp:77] Creating layer inception_5b/3x3
I0403 19:17:08.946630 19352 net.cpp:91] Creating Layer inception_5b/3x3
I0403 19:17:08.946648 19352 net.cpp:425] inception_5b/3x3 <- inception_5b/3x3_reduce
I0403 19:17:08.946671 19352 net.cpp:399] inception_5b/3x3 -> inception_5b/3x3
I0403 19:17:08.953253 19352 net.cpp:141] Setting up inception_5b/3x3
I0403 19:17:08.953282 19352 net.cpp:148] Top shape: 24 384 7 7 (451584)
I0403 19:17:08.953299 19352 net.cpp:156] Memory required for data: 1332467232
I0403 19:17:08.953318 19352 layer_factory.hpp:77] Creating layer inception_5b/relu_3x3
I0403 19:17:08.953339 19352 net.cpp:91] Creating Layer inception_5b/relu_3x3
I0403 19:17:08.953357 19352 net.cpp:425] inception_5b/relu_3x3 <- inception_5b/3x3
I0403 19:17:08.953375 19352 net.cpp:386] inception_5b/relu_3x3 -> inception_5b/3x3 (in-place)
I0403 19:17:08.953688 19352 net.cpp:141] Setting up inception_5b/relu_3x3
I0403 19:17:08.953714 19352 net.cpp:148] Top shape: 24 384 7 7 (451584)
I0403 19:17:08.953729 19352 net.cpp:156] Memory required for data: 1334273568
I0403 19:17:08.953744 19352 layer_factory.hpp:77] Creating layer inception_5b/5x5_reduce
I0403 19:17:08.953783 19352 net.cpp:91] Creating Layer inception_5b/5x5_reduce
I0403 19:17:08.953802 19352 net.cpp:425] inception_5b/5x5_reduce <- inception_5a/output_inception_5a/output_0_split_2
I0403 19:17:08.953822 19352 net.cpp:399] inception_5b/5x5_reduce -> inception_5b/5x5_reduce
I0403 19:17:08.955077 19352 net.cpp:141] Setting up inception_5b/5x5_reduce
I0403 19:17:08.955106 19352 net.cpp:148] Top shape: 24 48 7 7 (56448)
I0403 19:17:08.955122 19352 net.cpp:156] Memory required for data: 1334499360
I0403 19:17:08.955140 19352 layer_factory.hpp:77] Creating layer inception_5b/relu_5x5_reduce
I0403 19:17:08.955158 19352 net.cpp:91] Creating Layer inception_5b/relu_5x5_reduce
I0403 19:17:08.955175 19352 net.cpp:425] inception_5b/relu_5x5_reduce <- inception_5b/5x5_reduce
I0403 19:17:08.955193 19352 net.cpp:386] inception_5b/relu_5x5_reduce -> inception_5b/5x5_reduce (in-place)
I0403 19:17:08.955562 19352 net.cpp:141] Setting up inception_5b/relu_5x5_reduce
I0403 19:17:08.955588 19352 net.cpp:148] Top shape: 24 48 7 7 (56448)
I0403 19:17:08.955603 19352 net.cpp:156] Memory required for data: 1334725152
I0403 19:17:08.955618 19352 layer_factory.hpp:77] Creating layer inception_5b/5x5
I0403 19:17:08.955639 19352 net.cpp:91] Creating Layer inception_5b/5x5
I0403 19:17:08.955657 19352 net.cpp:425] inception_5b/5x5 <- inception_5b/5x5_reduce
I0403 19:17:08.955675 19352 net.cpp:399] inception_5b/5x5 -> inception_5b/5x5
I0403 19:17:08.957680 19352 net.cpp:141] Setting up inception_5b/5x5
I0403 19:17:08.957710 19352 net.cpp:148] Top shape: 24 128 7 7 (150528)
I0403 19:17:08.957726 19352 net.cpp:156] Memory required for data: 1335327264
I0403 19:17:08.957744 19352 layer_factory.hpp:77] Creating layer inception_5b/relu_5x5
I0403 19:17:08.957763 19352 net.cpp:91] Creating Layer inception_5b/relu_5x5
I0403 19:17:08.957782 19352 net.cpp:425] inception_5b/relu_5x5 <- inception_5b/5x5
I0403 19:17:08.957801 19352 net.cpp:386] inception_5b/relu_5x5 -> inception_5b/5x5 (in-place)
I0403 19:17:08.957995 19352 net.cpp:141] Setting up inception_5b/relu_5x5
I0403 19:17:08.958020 19352 net.cpp:148] Top shape: 24 128 7 7 (150528)
I0403 19:17:08.958035 19352 net.cpp:156] Memory required for data: 1335929376
I0403 19:17:08.958050 19352 layer_factory.hpp:77] Creating layer inception_5b/pool
I0403 19:17:08.958070 19352 net.cpp:91] Creating Layer inception_5b/pool
I0403 19:17:08.958086 19352 net.cpp:425] inception_5b/pool <- inception_5a/output_inception_5a/output_0_split_3
I0403 19:17:08.958106 19352 net.cpp:399] inception_5b/pool -> inception_5b/pool
I0403 19:17:08.958179 19352 net.cpp:141] Setting up inception_5b/pool
I0403 19:17:08.958204 19352 net.cpp:148] Top shape: 24 832 7 7 (978432)
I0403 19:17:08.958220 19352 net.cpp:156] Memory required for data: 1339843104
I0403 19:17:08.958235 19352 layer_factory.hpp:77] Creating layer inception_5b/pool_proj
I0403 19:17:08.958258 19352 net.cpp:91] Creating Layer inception_5b/pool_proj
I0403 19:17:08.958276 19352 net.cpp:425] inception_5b/pool_proj <- inception_5b/pool
I0403 19:17:08.958295 19352 net.cpp:399] inception_5b/pool_proj -> inception_5b/pool_proj
I0403 19:17:08.960552 19352 net.cpp:141] Setting up inception_5b/pool_proj
I0403 19:17:08.960583 19352 net.cpp:148] Top shape: 24 128 7 7 (150528)
I0403 19:17:08.960600 19352 net.cpp:156] Memory required for data: 1340445216
I0403 19:17:08.960619 19352 layer_factory.hpp:77] Creating layer inception_5b/relu_pool_proj
I0403 19:17:08.960638 19352 net.cpp:91] Creating Layer inception_5b/relu_pool_proj
I0403 19:17:08.960654 19352 net.cpp:425] inception_5b/relu_pool_proj <- inception_5b/pool_proj
I0403 19:17:08.960671 19352 net.cpp:386] inception_5b/relu_pool_proj -> inception_5b/pool_proj (in-place)
I0403 19:17:08.960968 19352 net.cpp:141] Setting up inception_5b/relu_pool_proj
I0403 19:17:08.960995 19352 net.cpp:148] Top shape: 24 128 7 7 (150528)
I0403 19:17:08.961011 19352 net.cpp:156] Memory required for data: 1341047328
I0403 19:17:08.961026 19352 layer_factory.hpp:77] Creating layer inception_5b/output
I0403 19:17:08.961045 19352 net.cpp:91] Creating Layer inception_5b/output
I0403 19:17:08.961074 19352 net.cpp:425] inception_5b/output <- inception_5b/1x1
I0403 19:17:08.961092 19352 net.cpp:425] inception_5b/output <- inception_5b/3x3
I0403 19:17:08.961109 19352 net.cpp:425] inception_5b/output <- inception_5b/5x5
I0403 19:17:08.961127 19352 net.cpp:425] inception_5b/output <- inception_5b/pool_proj
I0403 19:17:08.961144 19352 net.cpp:399] inception_5b/output -> inception_5b/output
I0403 19:17:08.961210 19352 net.cpp:141] Setting up inception_5b/output
I0403 19:17:08.961246 19352 net.cpp:148] Top shape: 24 1024 7 7 (1204224)
I0403 19:17:08.961261 19352 net.cpp:156] Memory required for data: 1345864224
I0403 19:17:08.961277 19352 layer_factory.hpp:77] Creating layer pool5/7x7_s1
I0403 19:17:08.961298 19352 net.cpp:91] Creating Layer pool5/7x7_s1
I0403 19:17:08.961316 19352 net.cpp:425] pool5/7x7_s1 <- inception_5b/output
I0403 19:17:08.961336 19352 net.cpp:399] pool5/7x7_s1 -> pool5/7x7_s1
I0403 19:17:08.961580 19352 net.cpp:141] Setting up pool5/7x7_s1
I0403 19:17:08.961606 19352 net.cpp:148] Top shape: 24 1024 1 1 (24576)
I0403 19:17:08.961622 19352 net.cpp:156] Memory required for data: 1345962528
I0403 19:17:08.961637 19352 layer_factory.hpp:77] Creating layer pool5/drop_7x7_s1
I0403 19:17:08.961655 19352 net.cpp:91] Creating Layer pool5/drop_7x7_s1
I0403 19:17:08.961671 19352 net.cpp:425] pool5/drop_7x7_s1 <- pool5/7x7_s1
I0403 19:17:08.961690 19352 net.cpp:386] pool5/drop_7x7_s1 -> pool5/7x7_s1 (in-place)
I0403 19:17:08.961741 19352 net.cpp:141] Setting up pool5/drop_7x7_s1
I0403 19:17:08.961765 19352 net.cpp:148] Top shape: 24 1024 1 1 (24576)
I0403 19:17:08.961778 19352 net.cpp:156] Memory required for data: 1346060832
I0403 19:17:08.961793 19352 layer_factory.hpp:77] Creating layer loss3/classifier_plantvillage
I0403 19:17:08.961814 19352 net.cpp:91] Creating Layer loss3/classifier_plantvillage
I0403 19:17:08.961832 19352 net.cpp:425] loss3/classifier_plantvillage <- pool5/7x7_s1
I0403 19:17:08.961850 19352 net.cpp:399] loss3/classifier_plantvillage -> loss3/classifier_plantvillage
I0403 19:17:08.962272 19352 net.cpp:141] Setting up loss3/classifier_plantvillage
I0403 19:17:08.962298 19352 net.cpp:148] Top shape: 24 38 (912)
I0403 19:17:08.962313 19352 net.cpp:156] Memory required for data: 1346064480
I0403 19:17:08.962330 19352 layer_factory.hpp:77] Creating layer loss3/classifier_plantvillage_loss3/classifier_plantvillage_0_split
I0403 19:17:08.962349 19352 net.cpp:91] Creating Layer loss3/classifier_plantvillage_loss3/classifier_plantvillage_0_split
I0403 19:17:08.962365 19352 net.cpp:425] loss3/classifier_plantvillage_loss3/classifier_plantvillage_0_split <- loss3/classifier_plantvillage
I0403 19:17:08.962385 19352 net.cpp:399] loss3/classifier_plantvillage_loss3/classifier_plantvillage_0_split -> loss3/classifier_plantvillage_loss3/classifier_plantvillage_0_split_0
I0403 19:17:08.962407 19352 net.cpp:399] loss3/classifier_plantvillage_loss3/classifier_plantvillage_0_split -> loss3/classifier_plantvillage_loss3/classifier_plantvillage_0_split_1
I0403 19:17:08.962426 19352 net.cpp:399] loss3/classifier_plantvillage_loss3/classifier_plantvillage_0_split -> loss3/classifier_plantvillage_loss3/classifier_plantvillage_0_split_2
I0403 19:17:08.962447 19352 net.cpp:399] loss3/classifier_plantvillage_loss3/classifier_plantvillage_0_split -> loss3/classifier_plantvillage_loss3/classifier_plantvillage_0_split_3
I0403 19:17:08.962549 19352 net.cpp:141] Setting up loss3/classifier_plantvillage_loss3/classifier_plantvillage_0_split
I0403 19:17:08.962573 19352 net.cpp:148] Top shape: 24 38 (912)
I0403 19:17:08.962589 19352 net.cpp:148] Top shape: 24 38 (912)
I0403 19:17:08.962604 19352 net.cpp:148] Top shape: 24 38 (912)
I0403 19:17:08.962620 19352 net.cpp:148] Top shape: 24 38 (912)
I0403 19:17:08.962632 19352 net.cpp:156] Memory required for data: 1346079072
I0403 19:17:08.962647 19352 layer_factory.hpp:77] Creating layer loss1/loss
I0403 19:17:08.962667 19352 net.cpp:91] Creating Layer loss1/loss
I0403 19:17:08.962684 19352 net.cpp:425] loss1/loss <- loss1/classifier_plantvillage_loss1/classifier_plantvillage_0_split_0
I0403 19:17:08.962715 19352 net.cpp:425] loss1/loss <- label_data_1_split_0
…
