…
I0403 19:25:35.791625 19821 net.cpp:313] The NetState phase (1) differed from the phase (0) specified by a rule in layer data
I0403 19:25:35.792942 19821 net.cpp:49] Initializing net from parameters: 
state {
  phase: TEST
}
layer {
  name: "data"
  type: "Data"
  top: "data"
  top: "label"
  include {
    phase: TEST
  }
  transform_param {
    mirror: false
    crop_size: 224
    mean_file: "/home/mohanty/data/final_dataset/lmdb/segmented-60-40/mean.binaryproto"
  }
  data_param {
    source: "/home/mohanty/data/final_dataset/lmdb/segmented-60-40/test_db"
    batch_size: 24
    backend: LMDB
  }
}
layer {
  name: "conv1/7x7_s2"
  type: "Convolution"
  bottom: "data"
  top: "conv1/7x7_s2"
  param {
    lr_mult: 1
    decay_mult: 1
  }
  param {
    lr_mult: 2
    decay_mult: 0
  }
  convolution_param {
    num_output: 64
    pad: 3
    kernel_size: 7
    stride: 2
    weight_filler {
      type: "xavier"
      std: 0.1
    }
    bias_filler {
      type: "constant"
      value: 0.2
    }
  }
}
layer {
  name: "conv1/relu_7x7"
  type: "ReLU"
  bottom: "conv1/7x7_s2"
  top: "conv1/7x7_s2"
}
layer {
  name: "pool1/3x3_s2"
  type: "Pooling"
  bottom: "conv1/7x7_s2"
  top: "pool1/3x3_s2"
  pooling_param {
    pool: MAX
    kernel_size: 3
    stride: 2
  }
}
layer {
  name: "pool1/norm1"
  type: "LRN"
  bottom: "pool1/3x3_s2"
  top: "pool1/norm1"
  lrn_param {
    local_size: 5
    alpha: 0.0001
    beta: 0.75
  }
}
layer {
  name: "conv2/3x3_reduce"
  type: "Convolution"
  bottom: "pool1/norm1"
  top: "conv2/3x3_reduce"
  param {
    lr_mult: 1
    decay_mult: 1
  }
  param {
    lr_mult: 2
    decay_mult: 0
  }
  convolution_param {
    num_output: 64
    kernel_size: 1
    weight_filler {
      type: "xavier"
      std: 0.1
    }
    bias_filler {
      type: "constant"
      value: 0.2
    }
  }
}
layer {
  name: "conv2/relu_3x3_reduce"
  type: "ReLU"
  bottom: "conv2/3x3_reduce"
  top: "conv2/3x3_reduce"
}
layer {
  name: "conv2/3x3"
  type: "Convolution"
  bottom: "conv2/3x3_reduce"
  top: "conv2/3x3"
  param {
    lr_mult: 1
    decay_mult: 1
  }
  param {
    lr_mult: 2
    decay_mult: 0
  }
  convolution_param {
    num_output: 192
    pad: 1
    kernel_size: 3
    weight_filler {
      type: "xavier"
      std: 0.03
    }
    bias_filler {
      type: "constant"
      value: 0.2
    }
  }
}
layer {
  name: "conv2/relu_3x3"
  type: "ReLU"
  bottom: "conv2/3x3"
  top: "conv2/3x3"
}
layer {
  name: "conv2/norm2"
  type: "LRN"
  bottom: "conv2/3x3"
  top: "conv2/norm2"
  lrn_param {
    local_size: 5
    alpha: 0.0001
    beta: 0.75
  }
}
layer {
  name: "pool2/3x3_s2"
  type: "Pooling"
  bottom: "conv2/norm2"
  top: "pool2/3x3_s2"
  pooling_param {
    pool: MAX
    kernel_size: 3
    stride: 2
  }
}
layer {
  name: "inception_3a/1x1"
  type: "Convolution"
  bottom: "pool2/3x3_s2"
  top: "inception_3a/1x1"
  param {
    lr_mult: 1
    decay_mult: 1
  }
  param {
    lr_mult: 2
    decay_mult: 0
  }
  convolution_param {
    num_output: 64
    kernel_size: 1
    weight_filler {
      type: "xavier"
      std: 0.03
    }
    bias_filler {
      type: "constant"
      value: 0.2
    }
  }
}
layer {
  name: "inception_3a/relu_1x1"
  type: "ReLU"
  bottom: "inception_3a/1x1"
  top: "inception_3a/1x1"
}
layer {
  name: "inception_3a/3x3_reduce"
  type: "Convolution"
  bottom: "pool2/3x3_s2"
  top: "inception_3a/3x3_reduce"
  param {
    lr_mult: 1
    decay_mult: 1
  }
  param {
    lr_mult: 2
    decay_mult: 0
  }
  convolution_param {
    num_output: 96
    kernel_size: 1
    weight_filler {
      type: "xavier"
      std: 0.09
    }
    bias_filler {
      type: "constant"
      value: 0.2
    }
  }
}
layer {
  name: "inception_3a/relu_3x3_reduce"
  type: "ReLU"
  bottom: "inception_3a/3x3_reduce"
  top: "inception_3a/3x3_reduce"
}
layer {
  name: "inception_3a/3x3"
  type: "Convolution"
  bottom: "inception_3a/3x3_reduce"
  top: "inception_3a/3x3"
  param {
    lr_mult: 1
    decay_mult: 1
  }
  param {
    lr_mult: 2
    decay_mult: 0
  }
  convolution_param {
    num_output: 128
    pad: 1
    kernel_size: 3
    weight_filler {
      type: "xavier"
      std: 0.03
    }
    bias_filler {
      type: "constant"
      value: 0.2
    }
  }
}
layer {
  name: "inception_3a/relu_3x3"
  type: "ReLU"
  bottom: "inception_3a/3x3"
  top: "inception_3a/3x3"
}
layer {
  name: "inception_3a/5x5_reduce"
  type: "Convolution"
  bottom: "pool2/3x3_s2"
  top: "inception_3a/5x5_reduce"
  param {
    lr_mult: 1
    decay_mult: 1
  }
  param {
    lr_mult: 2
    decay_mult: 0
  }
  convolution_param {
    num_output: 16
    kernel_size: 1
    weight_filler {
      type: "xavier"
      std: 0.2
    }
    bias_filler {
      type: "constant"
      value: 0.2
    }
  }
}
layer {
  name: "inception_3a/relu_5x5_reduce"
  type: "ReLU"
  bottom: "inception_3a/5x5_reduce"
  top: "inception_3a/5x5_reduce"
}
layer {
  name: "inception_3a/5x5"
  type: "Convolution"
  bottom: "inception_3a/5x5_reduce"
  top: "inception_3a/5x5"
  param {
    lr_mult: 1
    decay_mult: 1
  }
  param {
    lr_mult: 2
    decay_mult: 0
  }
  convolution_param {
    num_output: 32
    pad: 2
    kernel_size: 5
    weight_filler {
      type: "xavier"
      std: 0.03
    }
    bias_filler {
      type: "constant"
      value: 0.2
    }
  }
}
layer {
  name: "inception_3a/relu_5x5"
  type: "ReLU"
  bottom: "inception_3a/5x5"
  top: "inception_3a/5x5"
}
layer {
  name: "inception_3a/pool"
  type: "Pooling"
  bottom: "pool2/3x3_s2"
  top: "inception_3a/pool"
  pooling_param {
    pool: MAX
    kernel_size: 3
    stride: 1
    pad: 1
  }
}
layer {
  name: "inception_3a/pool_proj"
  type: "Convolution"
  bottom: "inception_3a/pool"
  top: "inception_3a/pool_proj"
  param {
    lr_mult: 1
    decay_mult: 1
  }
  param {
    lr_mult: 2
    decay_mult: 0
  }
  convolution_param {
    num_output: 32
    kernel_size: 1
    weight_filler {
      type: "xavier"
      std: 0.1
    }
    bias_filler {
      type: "constant"
      value: 0.2
    }
  }
}
layer {
  name: "inception_3a/relu_pool_proj"
  type: "ReLU"
  bottom: "inception_3a/pool_proj"
  top: "inception_3a/pool_proj"
}
layer {
  name: "inception_3a/output"
  type: "Concat"
  bottom: "inception_3a/1x1"
  bottom: "inception_3a/3x3"
  bottom: "inception_3a/5x5"
  bottom: "inception_3a/pool_proj"
  top: "inception_3a/output"
}
layer {
  name: "inception_3b/1x1"
  type: "Convolution"
  bottom: "inception_3a/output"
  top: "inception_3b/1x1"
  param {
    lr_mult: 1
    decay_mult: 1
  }
  param {
    lr_mult: 2
    decay_mult: 0
  }
  convolution_param {
    num_output: 128
    kernel_size: 1
    weight_filler {
      type: "xavier"
      std: 0.03
    }
    bias_filler {
      type: "constant"
      value: 0.2
    }
  }
}
layer {
  name: "inception_3b/relu_1x1"
  type: "ReLU"
  bottom: "inception_3b/1x1"
  top: "inception_3b/1x1"
}
layer {
  name: "inception_3b/3x3_reduce"
  type: "Convolution"
  bottom: "inception_3a/output"
  top: "inception_3b/3x3_reduce"
  param {
    lr_mult: 1
    decay_mult: 1
  }
  param {
    lr_mult: 2
    decay_mult: 0
  }
  convolution_param {
    num_output: 128
    kernel_size: 1
    weight_filler {
      type: "xavier"
      std: 0.09
    }
    bias_filler {
      type: "constant"
      value: 0.2
    }
  }
}
layer {
  name: "inception_3b/relu_3x3_reduce"
  type: "ReLU"
  bottom: "inception_3b/3x3_reduce"
  top: "inception_3b/3x3_reduce"
}
layer {
  name: "inception_3b/3x3"
  type: "Convolution"
  bottom: "inception_3b/3x3_reduce"
  top: "inception_3b/3x3"
  param {
    lr_mult: 1
    decay_mult: 1
  }
  param {
    lr_mult: 2
    decay_mult: 0
  }
  convolution_param {
    num_output: 192
    pad: 1
    kernel_size: 3
    weight_filler {
      type: "xavier"
      std: 0.03
    }
    bias_filler {
      type: "constant"
      value: 0.2
    }
  }
}
layer {
  name: "inception_3b/relu_3x3"
  type: "ReLU"
  bottom: "inception_3b/3x3"
  top: "inception_3b/3x3"
}
layer {
  name: "inception_3b/5x5_reduce"
  type: "Convolution"
  bottom: "inception_3a/output"
  top: "inception_3b/5x5_reduce"
  param {
    lr_mult: 1
    decay_mult: 1
  }
  param {
    lr_mult: 2
    decay_mult: 0
  }
  convolution_param {
    num_output: 32
    kernel_size: 1
    weight_filler {
      type: "xavier"
      std: 0.2
    }
    bias_filler {
      type: "constant"
      value: 0.2
    }
  }
}
layer {
  name: "inception_3b/relu_5x5_reduce"
  type: "ReLU"
  bottom: "inception_3b/5x5_reduce"
  top: "inception_3b/5x5_reduce"
}
layer {
  name: "inception_3b/5x5"
  type: "Convolution"
  bottom: "inception_3b/5x5_reduce"
  top: "inception_3b/5x5"
  param {
    lr_mult: 1
    decay_mult: 1
  }
  param {
    lr_mult: 2
    decay_mult: 0
  }
  convolution_param {
    num_output: 96
    pad: 2
    kernel_size: 5
    weight_filler {
      type: "xavier"
      std: 0.03
    }
    bias_filler {
      type: "constant"
      value: 0.2
    }
  }
}
layer {
  name: "inception_3b/relu_5x5"
  type: "ReLU"
  bottom: "inception_3b/5x5"
  top: "inception_3b/5x5"
}
layer {
  name: "inception_3b/pool"
  type: "Pooling"
  bottom: "inception_3a/output"
  top: "inception_3b/pool"
  pooling_param {
    pool: MAX
    kernel_size: 3
    stride: 1
    pad: 1
  }
}
layer {
  name: "inception_3b/pool_proj"
  type: "Convolution"
  bottom: "inception_3b/pool"
  top: "inception_3b/pool_proj"
  param {
    lr_mult: 1
    decay_mult: 1
  }
  param {
    lr_mult: 2
    decay_mult: 0
  }
  convolution_param {
    num_output: 64
    kernel_size: 1
    weight_filler {
      type: "xavier"
      std: 0.1
    }
    bias_filler {
      type: "constant"
      value: 0.2
    }
  }
}
layer {
  name: "inception_3b/relu_pool_proj"
  type: "ReLU"
  bottom: "inception_3b/pool_proj"
  top: "inception_3b/pool_proj"
}
layer {
  name: "inception_3b/output"
  type: "Concat"
  bottom: "inception_3b/1x1"
  bottom: "inception_3b/3x3"
  bottom: "inception_3b/5x5"
  bottom: "inception_3b/pool_proj"
  top: "inception_3b/output"
}
layer {
  name: "pool3/3x3_s2"
  type: "Pooling"
  bottom: "inception_3b/output"
  top: "pool3/3x3_s2"
  pooling_param {
    pool: MAX
    kernel_size: 3
    stride: 2
  }
}
layer {
  name: "inception_4a/1x1"
  type: "Convolution"
  bottom: "pool3/3x3_s2"
  top: "inception_4a/1x1"
  param {
    lr_mult: 1
    decay_mult: 1
  }
  param {
    lr_mult: 2
    decay_mult: 0
  }
  convolution_param {
    num_output: 192
    kernel_size: 1
    weight_filler {
      type: "xavier"
      std: 0.03
    }
    bias_filler {
      type: "constant"
      value: 0.2
    }
  }
}
layer {
  name: "inception_4a/relu_1x1"
  type: "ReLU"
  bottom: "inception_4a/1x1"
  top: "inception_4a/1x1"
}
layer {
  name: "inception_4a/3x3_reduce"
  type: "Convolution"
  bottom: "pool3/3x3_s2"
  top: "inception_4a/3x3_reduce"
  param {
    lr_mult: 1
    decay_mult: 1
  }
  param {
    lr_mult: 2
    decay_mult: 0
  }
  convolution_param {
    num_output: 96
    kernel_size: 1
    weight_filler {
      type: "xavier"
      std: 0.09
    }
    bias_filler {
      type: "constant"
      value: 0.2
    }
  }
}
layer {
  name: "inception_4a/relu_3x3_reduce"
  type: "ReLU"
  bottom: "inception_4a/3x3_reduce"
  top: "inception_4a/3x3_reduce"
}
layer {
  name: "inception_4a/3x3"
  type: "Convolution"
  bottom: "inception_4a/3x3_reduce"
  top: "inception_4a/3x3"
  param {
    lr_mult: 1
    decay_mult: 1
  }
  param {
    lr_mult: 2
    decay_mult: 0
  }
  convolution_param {
    num_output: 208
    pad: 1
    kernel_size: 3
    weight_filler {
      type: "xavier"
      std: 0.03
    }
    bias_filler {
      type: "constant"
      value: 0.2
    }
  }
}
layer {
  name: "inception_4a/relu_3x3"
  type: "ReLU"
  bottom: "inception_4a/3x3"
  top: "inception_4a/3x3"
}
layer {
  name: "inception_4a/5x5_reduce"
  type: "Convolution"
  bottom: "pool3/3x3_s2"
  top: "inception_4a/5x5_reduce"
  param {
    lr_mult: 1
    decay_mult: 1
  }
  param {
    lr_mult: 2
    decay_mult: 0
  }
  convolution_param {
    num_output: 16
    kernel_size: 1
    weight_filler {
      type: "xavier"
      std: 0.2
    }
    bias_filler {
      type: "constant"
      value: 0.2
    }
  }
}
layer {
  name: "inception_4a/relu_5x5_reduce"
  type: "ReLU"
  bottom: "inception_4a/5x5_reduce"
  top: "inception_4a/5x5_reduce"
}
layer {
  name: "inception_4a/5x5"
  type: "Convolution"
  bottom: "inception_4a/5x5_reduce"
  top: "inception_4a/5x5"
  param {
    lr_mult: 1
    decay_mult: 1
  }
  param {
    lr_mult: 2
    decay_mult: 0
  }
  convolution_param {
    num_output: 48
    pad: 2
    kernel_size: 5
    weight_filler {
      type: "xavier"
      std: 0.03
    }
    bias_filler {
      type: "constant"
      value: 0.2
    }
  }
}
layer {
  name: "inception_4a/relu_5x5"
  type: "ReLU"
  bottom: "inception_4a/5x5"
  top: "inception_4a/5x5"
}
layer {
  name: "inception_4a/pool"
  type: "Pooling"
  bottom: "pool3/3x3_s2"
  top: "inception_4a/pool"
  pooling_param {
    pool: MAX
    kernel_size: 3
    stride: 1
    pad: 1
  }
}
layer {
  name: "inception_4a/pool_proj"
  type: "Convolution"
  bottom: "inception_4a/pool"
  top: "inception_4a/pool_proj"
  param {
    lr_mult: 1
    decay_mult: 1
  }
  param {
    lr_mult: 2
    decay_mult: 0
  }
  convolution_param {
    num_output: 64
    kernel_size: 1
    weight_filler {
      type: "xavier"
      std: 0.1
    }
    bias_filler {
      type: "constant"
      value: 0.2
    }
  }
}
layer {
  name: "inception_4a/relu_pool_proj"
  type: "ReLU"
  bottom: "inception_4a/pool_proj"
  top: "inception_4a/pool_proj"
}
layer {
  name: "inception_4a/output"
  type: "Concat"
  bottom: "inception_4a/1x1"
  bottom: "inception_4a/3x3"
  bottom: "inception_4a/5x5"
  bottom: "inception_4a/pool_proj"
  top: "inception_4a/output"
}
layer {
  name: "loss1/ave_pool"
  type: "Pooling"
  bottom: "inception_4a/output"
  top: "loss1/ave_pool"
  pooling_param {
    pool: AVE
    kernel_size: 5
    stride: 3
  }
}
layer {
  name: "loss1/conv"
  type: "Convolution"
  bottom: "loss1/ave_pool"
  top: "loss1/conv"
  param {
    lr_mult: 1
    decay_mult: 1
  }
  param {
    lr_mult: 2
    decay_mult: 0
  }
  convolution_param {
    num_output: 128
    kernel_size: 1
    weight_filler {
      type: "xavier"
      std: 0.08
    }
    bias_filler {
      type: "constant"
      value: 0.2
    }
  }
}
layer {
  name: "loss1/relu_conv"
  type: "ReLU"
  bottom: "loss1/conv"
  top: "loss1/conv"
}
layer {
  name: "loss1/fc"
  type: "InnerProduct"
  bottom: "loss1/conv"
  top: "loss1/fc"
  param {
    lr_mult: 1
    decay_mult: 1
  }
  param {
    lr_mult: 2
    decay_mult: 0
  }
  inner_product_param {
    num_output: 1024
    weight_filler {
      type: "xavier"
      std: 0.02
    }
    bias_filler {
      type: "constant"
      value: 0.2
    }
  }
}
layer {
  name: "loss1/relu_fc"
  type: "ReLU"
  bottom: "loss1/fc"
  top: "loss1/fc"
}
layer {
  name: "loss1/drop_fc"
  type: "Dropout"
  bottom: "loss1/fc"
  top: "loss1/fc"
  dropout_param {
    dropout_ratio: 0.7
  }
}
layer {
  name: "loss1/classifier_plantvillage"
  type: "InnerProduct"
  bottom: "loss1/fc"
  top: "loss1/classifier_plantvillage"
  param {
    lr_mult: 1
    decay_mult: 1
  }
  param {
    lr_mult: 2
    decay_mult: 0
  }
  inner_product_param {
    num_output: 38
    weight_filler {
      type: "xavier"
      std: 0.0009765625
    }
    bias_filler {
      type: "constant"
      value: 0
    }
  }
}
layer {
  name: "inception_4b/1x1"
  type: "Convolution"
  bottom: "inception_4a/output"
  top: "inception_4b/1x1"
  param {
    lr_mult: 1
    decay_mult: 1
  }
  param {
    lr_mult: 2
    decay_mult: 0
  }
  convolution_param {
    num_output: 160
    kernel_size: 1
    weight_filler {
      type: "xavier"
      std: 0.03
    }
    bias_filler {
      type: "constant"
      value: 0.2
    }
  }
}
layer {
  name: "inception_4b/relu_1x1"
  type: "ReLU"
  bottom: "inception_4b/1x1"
  top: "inception_4b/1x1"
}
layer {
  name: "inception_4b/3x3_reduce"
  type: "Convolution"
  bottom: "inception_4a/output"
  top: "inception_4b/3x3_reduce"
  param {
    lr_mult: 1
    decay_mult: 1
  }
  param {
    lr_mult: 2
    decay_mult: 0
  }
  convolution_param {
    num_output: 112
    kernel_size: 1
    weight_filler {
      type: "xavier"
      std: 0.09
    }
    bias_filler {
      type: "constant"
      value: 0.2
    }
  }
}
layer {
  name: "inception_4b/relu_3x3_reduce"
  type: "ReLU"
  bottom: "inception_4b/3x3_reduce"
  top: "inception_4b/3x3_reduce"
}
layer {
  name: "inception_4b/3x3"
  type: "Convolution"
  bottom: "inception_4b/3x3_reduce"
  top: "inception_4b/3x3"
  param {
    lr_mult: 1
    decay_mult: 1
  }
  param {
    lr_mult: 2
    decay_mult: 0
  }
  convolution_param {
    num_output: 224
    pad: 1
    kernel_size: 3
    weight_filler {
      type: "xavier"
      std: 0.03
    }
    bias_filler {
      type: "constant"
      value: 0.2
    }
  }
}
layer {
  name: "inception_4b/relu_3x3"
  type: "ReLU"
  bottom: "inception_4b/3x3"
  top: "inception_4b/3x3"
}
layer {
  name: "inception_4b/5x5_reduce"
  type: "Convolution"
  bottom: "inception_4a/output"
  top: "inception_4b/5x5_reduce"
  param {
    lr_mult: 1
    decay_mult: 1
  }
  param {
    lr_mult: 2
    decay_mult: 0
  }
  convolution_param {
    num_output: 24
    kernel_size: 1
    weight_filler {
      type: "xavier"
      std: 0.2
    }
    bias_filler {
      type: "constant"
      value: 0.2
    }
  }
}
layer {
  name: "inception_4b/relu_5x5_reduce"
  type: "ReLU"
  bottom: "inception_4b/5x5_reduce"
  top: "inception_4b/5x5_reduce"
}
layer {
  name: "inception_4b/5x5"
  type: "Convolution"
  bottom: "inception_4b/5x5_reduce"
  top: "inception_4b/5x5"
  param {
    lr_mult: 1
    decay_mult: 1
  }
  param {
    lr_mult: 2
    decay_mult: 0
  }
  convolution_param {
    num_output: 64
    pad: 2
    kernel_size: 5
    weight_filler {
      type: "xavier"
      std: 0.03
    }
    bias_filler {
      type: "constant"
      value: 0.2
    }
  }
}
layer {
  name: "inception_4b/relu_5x5"
  type: "ReLU"
  bottom: "inception_4b/5x5"
  top: "inception_4b/5x5"
}
layer {
  name: "inception_4b/pool"
  type: "Pooling"
  bottom: "inception_4a/output"
  top: "inception_4b/pool"
  pooling_param {
    pool: MAX
    kernel_size: 3
    stride: 1
    pad: 1
  }
}
layer {
  name: "inception_4b/pool_proj"
  type: "Convolution"
  bottom: "inception_4b/pool"
  top: "inception_4b/pool_proj"
  param {
    lr_mult: 1
    decay_mult: 1
  }
  param {
    lr_mult: 2
    decay_mult: 0
  }
  convolution_param {
    num_output: 64
    kernel_size: 1
    weight_filler {
      type: "xavier"
      std: 0.1
    }
    bias_filler {
      type: "constant"
      value: 0.2
    }
  }
}
layer {
  name: "inception_4b/relu_pool_proj"
  type: "ReLU"
  bottom: "inception_4b/pool_proj"
  top: "inception_4b/pool_proj"
}
layer {
  name: "inception_4b/output"
  type: "Concat"
  bottom: "inception_4b/1x1"
  bottom: "inception_4b/3x3"
  bottom: "inception_4b/5x5"
  bottom: "inception_4b/pool_proj"
  top: "inception_4b/output"
}
layer {
  name: "inception_4c/1x1"
  type: "Convolution"
  bottom: "inception_4b/output"
  top: "inception_4c/1x1"
  param {
    lr_mult: 1
    decay_mult: 1
  }
  param {
    lr_mult: 2
    decay_mult: 0
  }
  convolution_param {
    num_output: 128
    kernel_size: 1
    weight_filler {
      type: "xavier"
      std: 0.03
    }
    bias_filler {
      type: "constant"
      value: 0.2
    }
  }
}
layer {
  name: "inception_4c/relu_1x1"
  type: "ReLU"
  bottom: "inception_4c/1x1"
  top: "inception_4c/1x1"
}
layer {
  name: "inception_4c/3x3_reduce"
  type: "Convolution"
  bottom: "inception_4b/output"
  top: "inception_4c/3x3_reduce"
  param {
    lr_mult: 1
    decay_mult: 1
  }
  param {
    lr_mult: 2
    decay_mult: 0
  }
  convolution_param {
    num_output: 128
    kernel_size: 1
    weight_filler {
      type: "xavier"
      std: 0.09
    }
    bias_filler {
      type: "constant"
      value: 0.2
    }
  }
}
layer {
  name: "inception_4c/relu_3x3_reduce"
  type: "ReLU"
  bottom: "inception_4c/3x3_reduce"
  top: "inception_4c/3x3_reduce"
}
layer {
  name: "inception_4c/3x3"
  type: "Convolution"
  bottom: "inception_4c/3x3_reduce"
  top: "inception_4c/3x3"
  param {
    lr_mult: 1
    decay_mult: 1
  }
  param {
    lr_mult: 2
    decay_mult: 0
  }
  convolution_param {
    num_output: 256
    pad: 1
    kernel_size: 3
    weight_filler {
      type: "xavier"
      std: 0.03
    }
    bias_filler {
      type: "constant"
      value: 0.2
    }
  }
}
layer {
  name: "inception_4c/relu_3x3"
  type: "ReLU"
  bottom: "inception_4c/3x3"
  top: "inception_4c/3x3"
}
layer {
  name: "inception_4c/5x5_reduce"
  type: "Convolution"
  bottom: "inception_4b/output"
  top: "inception_4c/5x5_reduce"
  param {
    lr_mult: 1
    decay_mult: 1
  }
  param {
    lr_mult: 2
    decay_mult: 0
  }
  convolution_param {
    num_output: 24
    kernel_size: 1
    weight_filler {
      type: "xavier"
      std: 0.2
    }
    bias_filler {
      type: "constant"
      value: 0.2
    }
  }
}
layer {
  name: "inception_4c/relu_5x5_reduce"
  type: "ReLU"
  bottom: "inception_4c/5x5_reduce"
  top: "inception_4c/5x5_reduce"
}
layer {
  name: "inception_4c/5x5"
  type: "Convolution"
  bottom: "inception_4c/5x5_reduce"
  top: "inception_4c/5x5"
  param {
    lr_mult: 1
    decay_mult: 1
  }
  param {
    lr_mult: 2
    decay_mult: 0
  }
  convolution_param {
    num_output: 64
    pad: 2
    kernel_size: 5
    weight_filler {
      type: "xavier"
      std: 0.03
    }
    bias_filler {
      type: "constant"
      value: 0.2
    }
  }
}
layer {
  name: "inception_4c/relu_5x5"
  type: "ReLU"
  bottom: "inception_4c/5x5"
  top: "inception_4c/5x5"
}
layer {
  name: "inception_4c/pool"
  type: "Pooling"
  bottom: "inception_4b/output"
  top: "inception_4c/pool"
  pooling_param {
    pool: MAX
    kernel_size: 3
    stride: 1
    pad: 1
  }
}
layer {
  name: "inception_4c/pool_proj"
  type: "Convolution"
  bottom: "inception_4c/pool"
  top: "inception_4c/pool_proj"
  param {
    lr_mult: 1
    decay_mult: 1
  }
  param {
    lr_mult: 2
    decay_mult: 0
  }
  convolution_param {
    num_output: 64
    kernel_size: 1
    weight_filler {
      type: "xavier"
      std: 0.1
    }
    bias_filler {
      type: "constant"
      value: 0.2
    }
  }
}
layer {
  name: "inception_4c/relu_pool_proj"
  type: "ReLU"
  bottom: "inception_4c/pool_proj"
  top: "inception_4c/pool_proj"
}
layer {
  name: "inception_4c/output"
  type: "Concat"
  bottom: "inception_4c/1x1"
  bottom: "inception_4c/3x3"
  bottom: "inception_4c/5x5"
  bottom: "inception_4c/pool_proj"
  top: "inception_4c/output"
}
layer {
  name: "inception_4d/1x1"
  type: "Convolution"
  bottom: "inception_4c/output"
  top: "inception_4d/1x1"
  param {
    lr_mult: 1
    decay_mult: 1
  }
  param {
    lr_mult: 2
    decay_mult: 0
  }
  convolution_param {
    num_output: 112
    kernel_size: 1
    weight_filler {
      type: "xavier"
      std: 0.03
    }
    bias_filler {
      type: "constant"
      value: 0.2
    }
  }
}
layer {
  name: "inception_4d/relu_1x1"
  type: "ReLU"
  bottom: "inception_4d/1x1"
  top: "inception_4d/1x1"
}
layer {
  name: "inception_4d/3x3_reduce"
  type: "Convolution"
  bottom: "inception_4c/output"
  top: "inception_4d/3x3_reduce"
  param {
    lr_mult: 1
    decay_mult: 1
  }
  param {
    lr_mult: 2
    decay_mult: 0
  }
  convolution_param {
    num_output: 144
    kernel_size: 1
    weight_filler {
      type: "xavier"
      std: 0.09
    }
    bias_filler {
      type: "constant"
      value: 0.2
    }
  }
}
layer {
  name: "inception_4d/relu_3x3_reduce"
  type: "ReLU"
  bottom: "inception_4d/3x3_reduce"
  top: "inception_4d/3x3_reduce"
}
layer {
  name: "inception_4d/3x3"
  type: "Convolution"
  bottom: "inception_4d/3x3_reduce"
  top: "inception_4d/3x3"
  param {
    lr_mult: 1
    decay_mult: 1
  }
  param {
    lr_mult: 2
    decay_mult: 0
  }
  convolution_param {
    num_output: 288
    pad: 1
    kernel_size: 3
    weight_filler {
      type: "xavier"
      std: 0.03
    }
    bias_filler {
      type: "constant"
      value: 0.2
    }
  }
}
layer {
  name: "inception_4d/relu_3x3"
  type: "ReLU"
  bottom: "inception_4d/3x3"
  top: "inception_4d/3x3"
}
layer {
  name: "inception_4d/5x5_reduce"
  type: "Convolution"
  bottom: "inception_4c/output"
  top: "inception_4d/5x5_reduce"
  param {
    lr_mult: 1
    decay_mult: 1
  }
  param {
    lr_mult: 2
    decay_mult: 0
  }
  convolution_param {
    num_output: 32
    kernel_size: 1
    weight_filler {
      type: "xavier"
      std: 0.2
    }
    bias_filler {
      type: "constant"
      value: 0.2
    }
  }
}
layer {
  name: "inception_4d/relu_5x5_reduce"
  type: "ReLU"
  bottom: "inception_4d/5x5_reduce"
  top: "inception_4d/5x5_reduce"
}
layer {
  name: "inception_4d/5x5"
  type: "Convolution"
  bottom: "inception_4d/5x5_reduce"
  top: "inception_4d/5x5"
  param {
    lr_mult: 1
    decay_mult: 1
  }
  param {
    lr_mult: 2
    decay_mult: 0
  }
  convolution_param {
    num_output: 64
    pad: 2
    kernel_size: 5
    weight_filler {
      type: "xavier"
      std: 0.03
    }
    bias_filler {
      type: "constant"
      value: 0.2
    }
  }
}
layer {
  name: "inception_4d/relu_5x5"
  type: "ReLU"
  bottom: "inception_4d/5x5"
  top: "inception_4d/5x5"
}
layer {
  name: "inception_4d/pool"
  type: "Pooling"
  bottom: "inception_4c/output"
  top: "inception_4d/pool"
  pooling_param {
    pool: MAX
    kernel_size: 3
    stride: 1
    pad: 1
  }
}
layer {
  name: "inception_4d/pool_proj"
  type: "Convolution"
  bottom: "inception_4d/pool"
  top: "inception_4d/pool_proj"
  param {
    lr_mult: 1
    decay_mult: 1
  }
  param {
    lr_mult: 2
    decay_mult: 0
  }
  convolution_param {
    num_output: 64
    kernel_size: 1
    weight_filler {
      type: "xavier"
      std: 0.1
    }
    bias_filler {
      type: "constant"
      value: 0.2
    }
  }
}
layer {
  name: "inception_4d/relu_pool_proj"
  type: "ReLU"
  bottom: "inception_4d/pool_proj"
  top: "inception_4d/pool_proj"
}
layer {
  name: "inception_4d/output"
  type: "Concat"
  bottom: "inception_4d/1x1"
  bottom: "inception_4d/3x3"
  bottom: "inception_4d/5x5"
  bottom: "inception_4d/pool_proj"
  top: "inception_4d/output"
}
layer {
  name: "loss2/ave_pool"
  type: "Pooling"
  bottom: "inception_4d/output"
  top: "loss2/ave_pool"
  pooling_param {
    pool: AVE
    kernel_size: 5
    stride: 3
  }
}
layer {
  name: "loss2/conv"
  type: "Convolution"
  bottom: "loss2/ave_pool"
  top: "loss2/conv"
  param {
    lr_mult: 1
    decay_mult: 1
  }
  param {
    lr_mult: 2
    decay_mult: 0
  }
  convolution_param {
    num_output: 128
    kernel_size: 1
    weight_filler {
      type: "xavier"
      std: 0.08
    }
    bias_filler {
      type: "constant"
      value: 0.2
    }
  }
}
layer {
  name: "loss2/relu_conv"
  type: "ReLU"
  bottom: "loss2/conv"
  top: "loss2/conv"
}
layer {
  name: "loss2/fc"
  type: "InnerProduct"
  bottom: "loss2/conv"
  top: "loss2/fc"
  param {
    lr_mult: 1
    decay_mult: 1
  }
  param {
    lr_mult: 2
    decay_mult: 0
  }
  inner_product_param {
    num_output: 1024
    weight_filler {
      type: "xavier"
      std: 0.02
    }
    bias_filler {
      type: "constant"
      value: 0.2
    }
  }
}
layer {
  name: "loss2/relu_fc"
  type: "ReLU"
  bottom: "loss2/fc"
  top: "loss2/fc"
}
layer {
  name: "loss2/drop_fc"
  type: "Dropout"
  bottom: "loss2/fc"
  top: "loss2/fc"
  dropout_param {
    dropout_ratio: 0.7
  }
}
layer {
  name: "loss2/classifier_plantvillage"
  type: "InnerProduct"
  bottom: "loss2/fc"
  top: "loss2/classifier_plantvillage"
  param {
    lr_mult: 1
    decay_mult: 1
  }
  param {
    lr_mult: 2
    decay_mult: 0
  }
  inner_product_param {
    num_output: 38
    weight_filler {
      type: "xavier"
      std: 0.0009765625
    }
    bias_filler {
      type: "constant"
      value: 0
    }
  }
}
layer {
  name: "inception_4e/1x1"
  type: "Convolution"
  bottom: "inception_4d/output"
  top: "inception_4e/1x1"
  param {
    lr_mult: 1
    decay_mult: 1
  }
  param {
    lr_mult: 2
    decay_mult: 0
  }
  convolution_param {
    num_output: 256
    kernel_size: 1
    weight_filler {
      type: "xavier"
      std: 0.03
    }
    bias_filler {
      type: "constant"
      value: 0.2
    }
  }
}
layer {
  name: "inception_4e/relu_1x1"
  type: "ReLU"
  bottom: "inception_4e/1x1"
  top: "inception_4e/1x1"
}
layer {
  name: "inception_4e/3x3_reduce"
  type: "Convolution"
  bottom: "inception_4d/output"
  top: "inception_4e/3x3_reduce"
  param {
    lr_mult: 1
    decay_mult: 1
  }
  param {
    lr_mult: 2
    decay_mult: 0
  }
  convolution_param {
    num_output: 160
    kernel_size: 1
    weight_filler {
      type: "xavier"
      std: 0.09
    }
    bias_filler {
      type: "constant"
      value: 0.2
    }
  }
}
layer {
  name: "inception_4e/relu_3x3_reduce"
  type: "ReLU"
  bottom: "inception_4e/3x3_reduce"
  top: "inception_4e/3x3_reduce"
}
layer {
  name: "inception_4e/3x3"
  type: "Convolution"
  bottom: "inception_4e/3x3_reduce"
  top: "inception_4e/3x3"
  param {
    lr_mult: 1
    decay_mult: 1
  }
  param {
    lr_mult: 2
    decay_mult: 0
  }
  convolution_param {
    num_output: 320
    pad: 1
    kernel_size: 3
    weight_filler {
      type: "xavier"
      std: 0.03
    }
    bias_filler {
      type: "constant"
      value: 0.2
    }
  }
}
layer {
  name: "inception_4e/relu_3x3"
  type: "ReLU"
  bottom: "inception_4e/3x3"
  top: "inception_4e/3x3"
}
layer {
  name: "inception_4e/5x5_reduce"
  type: "Convolution"
  bottom: "inception_4d/output"
  top: "inception_4e/5x5_reduce"
  param {
    lr_mult: 1
    decay_mult: 1
  }
  param {
    lr_mult: 2
    decay_mult: 0
  }
  convolution_param {
    num_output: 32
    kernel_size: 1
    weight_filler {
      type: "xavier"
      std: 0.2
    }
    bias_filler {
      type: "constant"
      value: 0.2
    }
  }
}
layer {
  name: "inception_4e/relu_5x5_reduce"
  type: "ReLU"
  bottom: "inception_4e/5x5_reduce"
  top: "inception_4e/5x5_reduce"
}
layer {
  name: "inception_4e/5x5"
  type: "Convolution"
  bottom: "inception_4e/5x5_reduce"
  top: "inception_4e/
I0403 19:25:35.794340 19821 layer_factory.hpp:77] Creating layer data
I0403 19:25:35.795001 19821 net.cpp:91] Creating Layer data
I0403 19:25:35.795043 19821 net.cpp:399] data -> data
I0403 19:25:35.795099 19821 net.cpp:399] data -> label
I0403 19:25:35.795140 19821 data_transformer.cpp:25] Loading mean file from: /home/mohanty/data/final_dataset/lmdb/segmented-60-40/mean.binaryproto
I0403 19:25:35.796296 19824 db_lmdb.cpp:38] Opened lmdb /home/mohanty/data/final_dataset/lmdb/segmented-60-40/test_db
I0403 19:25:35.808318 19821 data_layer.cpp:41] output data size: 24,3,224,224
I0403 19:25:35.836866 19821 net.cpp:141] Setting up data
I0403 19:25:35.836959 19821 net.cpp:148] Top shape: 24 3 224 224 (3612672)
I0403 19:25:35.836982 19821 net.cpp:148] Top shape: 24 (24)
I0403 19:25:35.836998 19821 net.cpp:156] Memory required for data: 14450784
I0403 19:25:35.837026 19821 layer_factory.hpp:77] Creating layer label_data_1_split
I0403 19:25:35.837055 19821 net.cpp:91] Creating Layer label_data_1_split
I0403 19:25:35.837074 19821 net.cpp:425] label_data_1_split <- label
I0403 19:25:35.837105 19821 net.cpp:399] label_data_1_split -> label_data_1_split_0
I0403 19:25:35.837133 19821 net.cpp:399] label_data_1_split -> label_data_1_split_1
I0403 19:25:35.837155 19821 net.cpp:399] label_data_1_split -> label_data_1_split_2
I0403 19:25:35.837177 19821 net.cpp:399] label_data_1_split -> label_data_1_split_3
I0403 19:25:35.837198 19821 net.cpp:399] label_data_1_split -> label_data_1_split_4
I0403 19:25:35.837226 19821 net.cpp:399] label_data_1_split -> label_data_1_split_5
I0403 19:25:35.837246 19821 net.cpp:399] label_data_1_split -> label_data_1_split_6
I0403 19:25:35.837267 19821 net.cpp:399] label_data_1_split -> label_data_1_split_7
I0403 19:25:35.837287 19821 net.cpp:399] label_data_1_split -> label_data_1_split_8
I0403 19:25:35.837308 19821 net.cpp:399] label_data_1_split -> label_data_1_split_9
I0403 19:25:35.837430 19821 net.cpp:141] Setting up label_data_1_split
I0403 19:25:35.837453 19821 net.cpp:148] Top shape: 24 (24)
I0403 19:25:35.837471 19821 net.cpp:148] Top shape: 24 (24)
I0403 19:25:35.837487 19821 net.cpp:148] Top shape: 24 (24)
I0403 19:25:35.837512 19821 net.cpp:148] Top shape: 24 (24)
I0403 19:25:35.837529 19821 net.cpp:148] Top shape: 24 (24)
I0403 19:25:35.837545 19821 net.cpp:148] Top shape: 24 (24)
I0403 19:25:35.837561 19821 net.cpp:148] Top shape: 24 (24)
I0403 19:25:35.837577 19821 net.cpp:148] Top shape: 24 (24)
I0403 19:25:35.837594 19821 net.cpp:148] Top shape: 24 (24)
I0403 19:25:35.837610 19821 net.cpp:148] Top shape: 24 (24)
I0403 19:25:35.837667 19821 net.cpp:156] Memory required for data: 14451744
I0403 19:25:35.837684 19821 layer_factory.hpp:77] Creating layer conv1/7x7_s2
I0403 19:25:35.837718 19821 net.cpp:91] Creating Layer conv1/7x7_s2
I0403 19:25:35.837738 19821 net.cpp:425] conv1/7x7_s2 <- data
I0403 19:25:35.837757 19821 net.cpp:399] conv1/7x7_s2 -> conv1/7x7_s2
I0403 19:25:35.977591 19821 net.cpp:141] Setting up conv1/7x7_s2
I0403 19:25:35.977677 19821 net.cpp:148] Top shape: 24 64 112 112 (19267584)
I0403 19:25:35.977695 19821 net.cpp:156] Memory required for data: 91522080
I0403 19:25:35.977726 19821 layer_factory.hpp:77] Creating layer conv1/relu_7x7
I0403 19:25:35.977752 19821 net.cpp:91] Creating Layer conv1/relu_7x7
I0403 19:25:35.977771 19821 net.cpp:425] conv1/relu_7x7 <- conv1/7x7_s2
I0403 19:25:35.977789 19821 net.cpp:386] conv1/relu_7x7 -> conv1/7x7_s2 (in-place)
I0403 19:25:35.978050 19821 net.cpp:141] Setting up conv1/relu_7x7
I0403 19:25:35.978076 19821 net.cpp:148] Top shape: 24 64 112 112 (19267584)
I0403 19:25:35.978092 19821 net.cpp:156] Memory required for data: 168592416
I0403 19:25:35.978107 19821 layer_factory.hpp:77] Creating layer pool1/3x3_s2
I0403 19:25:35.978134 19821 net.cpp:91] Creating Layer pool1/3x3_s2
I0403 19:25:35.978153 19821 net.cpp:425] pool1/3x3_s2 <- conv1/7x7_s2
I0403 19:25:35.978171 19821 net.cpp:399] pool1/3x3_s2 -> pool1/3x3_s2
I0403 19:25:35.978250 19821 net.cpp:141] Setting up pool1/3x3_s2
I0403 19:25:35.978273 19821 net.cpp:148] Top shape: 24 64 56 56 (4816896)
I0403 19:25:35.978288 19821 net.cpp:156] Memory required for data: 187860000
I0403 19:25:35.978302 19821 layer_factory.hpp:77] Creating layer pool1/norm1
I0403 19:25:35.978328 19821 net.cpp:91] Creating Layer pool1/norm1
I0403 19:25:35.978346 19821 net.cpp:425] pool1/norm1 <- pool1/3x3_s2
I0403 19:25:35.978363 19821 net.cpp:399] pool1/norm1 -> pool1/norm1
I0403 19:25:35.978657 19821 net.cpp:141] Setting up pool1/norm1
I0403 19:25:35.978684 19821 net.cpp:148] Top shape: 24 64 56 56 (4816896)
I0403 19:25:35.978699 19821 net.cpp:156] Memory required for data: 207127584
I0403 19:25:35.978714 19821 layer_factory.hpp:77] Creating layer conv2/3x3_reduce
I0403 19:25:35.978741 19821 net.cpp:91] Creating Layer conv2/3x3_reduce
I0403 19:25:35.978759 19821 net.cpp:425] conv2/3x3_reduce <- pool1/norm1
I0403 19:25:35.978780 19821 net.cpp:399] conv2/3x3_reduce -> conv2/3x3_reduce
I0403 19:25:35.980156 19821 net.cpp:141] Setting up conv2/3x3_reduce
I0403 19:25:35.980186 19821 net.cpp:148] Top shape: 24 64 56 56 (4816896)
I0403 19:25:35.980202 19821 net.cpp:156] Memory required for data: 226395168
I0403 19:25:35.980223 19821 layer_factory.hpp:77] Creating layer conv2/relu_3x3_reduce
I0403 19:25:35.980242 19821 net.cpp:91] Creating Layer conv2/relu_3x3_reduce
I0403 19:25:35.980257 19821 net.cpp:425] conv2/relu_3x3_reduce <- conv2/3x3_reduce
I0403 19:25:35.980276 19821 net.cpp:386] conv2/relu_3x3_reduce -> conv2/3x3_reduce (in-place)
I0403 19:25:35.980541 19821 net.cpp:141] Setting up conv2/relu_3x3_reduce
I0403 19:25:35.980567 19821 net.cpp:148] Top shape: 24 64 56 56 (4816896)
I0403 19:25:35.980582 19821 net.cpp:156] Memory required for data: 245662752
I0403 19:25:35.980597 19821 layer_factory.hpp:77] Creating layer conv2/3x3
I0403 19:25:35.980620 19821 net.cpp:91] Creating Layer conv2/3x3
I0403 19:25:35.980638 19821 net.cpp:425] conv2/3x3 <- conv2/3x3_reduce
I0403 19:25:35.980660 19821 net.cpp:399] conv2/3x3 -> conv2/3x3
I0403 19:25:35.982931 19821 net.cpp:141] Setting up conv2/3x3
I0403 19:25:35.982965 19821 net.cpp:148] Top shape: 24 192 56 56 (14450688)
I0403 19:25:35.982982 19821 net.cpp:156] Memory required for data: 303465504
I0403 19:25:35.983003 19821 layer_factory.hpp:77] Creating layer conv2/relu_3x3
I0403 19:25:35.983022 19821 net.cpp:91] Creating Layer conv2/relu_3x3
I0403 19:25:35.983038 19821 net.cpp:425] conv2/relu_3x3 <- conv2/3x3
I0403 19:25:35.983057 19821 net.cpp:386] conv2/relu_3x3 -> conv2/3x3 (in-place)
I0403 19:25:35.983229 19821 net.cpp:141] Setting up conv2/relu_3x3
I0403 19:25:35.983254 19821 net.cpp:148] Top shape: 24 192 56 56 (14450688)
I0403 19:25:35.983300 19821 net.cpp:156] Memory required for data: 361268256
I0403 19:25:35.983316 19821 layer_factory.hpp:77] Creating layer conv2/norm2
I0403 19:25:35.983336 19821 net.cpp:91] Creating Layer conv2/norm2
I0403 19:25:35.983353 19821 net.cpp:425] conv2/norm2 <- conv2/3x3
I0403 19:25:35.983371 19821 net.cpp:399] conv2/norm2 -> conv2/norm2
I0403 19:25:35.983674 19821 net.cpp:141] Setting up conv2/norm2
I0403 19:25:35.983702 19821 net.cpp:148] Top shape: 24 192 56 56 (14450688)
I0403 19:25:35.983718 19821 net.cpp:156] Memory required for data: 419071008
I0403 19:25:35.983733 19821 layer_factory.hpp:77] Creating layer pool2/3x3_s2
I0403 19:25:35.983752 19821 net.cpp:91] Creating Layer pool2/3x3_s2
I0403 19:25:35.983767 19821 net.cpp:425] pool2/3x3_s2 <- conv2/norm2
I0403 19:25:35.983784 19821 net.cpp:399] pool2/3x3_s2 -> pool2/3x3_s2
I0403 19:25:35.983835 19821 net.cpp:141] Setting up pool2/3x3_s2
I0403 19:25:35.983857 19821 net.cpp:148] Top shape: 24 192 28 28 (3612672)
I0403 19:25:35.983872 19821 net.cpp:156] Memory required for data: 433521696
I0403 19:25:35.983886 19821 layer_factory.hpp:77] Creating layer pool2/3x3_s2_pool2/3x3_s2_0_split
I0403 19:25:35.983906 19821 net.cpp:91] Creating Layer pool2/3x3_s2_pool2/3x3_s2_0_split
I0403 19:25:35.983923 19821 net.cpp:425] pool2/3x3_s2_pool2/3x3_s2_0_split <- pool2/3x3_s2
I0403 19:25:35.983940 19821 net.cpp:399] pool2/3x3_s2_pool2/3x3_s2_0_split -> pool2/3x3_s2_pool2/3x3_s2_0_split_0
I0403 19:25:35.983964 19821 net.cpp:399] pool2/3x3_s2_pool2/3x3_s2_0_split -> pool2/3x3_s2_pool2/3x3_s2_0_split_1
I0403 19:25:35.983985 19821 net.cpp:399] pool2/3x3_s2_pool2/3x3_s2_0_split -> pool2/3x3_s2_pool2/3x3_s2_0_split_2
I0403 19:25:35.984007 19821 net.cpp:399] pool2/3x3_s2_pool2/3x3_s2_0_split -> pool2/3x3_s2_pool2/3x3_s2_0_split_3
I0403 19:25:35.984077 19821 net.cpp:141] Setting up pool2/3x3_s2_pool2/3x3_s2_0_split
I0403 19:25:35.984099 19821 net.cpp:148] Top shape: 24 192 28 28 (3612672)
I0403 19:25:35.984117 19821 net.cpp:148] Top shape: 24 192 28 28 (3612672)
I0403 19:25:35.984133 19821 net.cpp:148] Top shape: 24 192 28 28 (3612672)
I0403 19:25:35.984148 19821 net.cpp:148] Top shape: 24 192 28 28 (3612672)
I0403 19:25:35.984161 19821 net.cpp:156] Memory required for data: 491324448
I0403 19:25:35.984176 19821 layer_factory.hpp:77] Creating layer inception_3a/1x1
I0403 19:25:35.984201 19821 net.cpp:91] Creating Layer inception_3a/1x1
I0403 19:25:35.984220 19821 net.cpp:425] inception_3a/1x1 <- pool2/3x3_s2_pool2/3x3_s2_0_split_0
I0403 19:25:35.984239 19821 net.cpp:399] inception_3a/1x1 -> inception_3a/1x1
I0403 19:25:35.985724 19821 net.cpp:141] Setting up inception_3a/1x1
I0403 19:25:35.985755 19821 net.cpp:148] Top shape: 24 64 28 28 (1204224)
I0403 19:25:35.985772 19821 net.cpp:156] Memory required for data: 496141344
I0403 19:25:35.985791 19821 layer_factory.hpp:77] Creating layer inception_3a/relu_1x1
I0403 19:25:35.985810 19821 net.cpp:91] Creating Layer inception_3a/relu_1x1
I0403 19:25:35.985826 19821 net.cpp:425] inception_3a/relu_1x1 <- inception_3a/1x1
I0403 19:25:35.985844 19821 net.cpp:386] inception_3a/relu_1x1 -> inception_3a/1x1 (in-place)
I0403 19:25:35.986019 19821 net.cpp:141] Setting up inception_3a/relu_1x1
I0403 19:25:35.986043 19821 net.cpp:148] Top shape: 24 64 28 28 (1204224)
I0403 19:25:35.986058 19821 net.cpp:156] Memory required for data: 500958240
I0403 19:25:35.986073 19821 layer_factory.hpp:77] Creating layer inception_3a/3x3_reduce
I0403 19:25:35.986094 19821 net.cpp:91] Creating Layer inception_3a/3x3_reduce
I0403 19:25:35.986112 19821 net.cpp:425] inception_3a/3x3_reduce <- pool2/3x3_s2_pool2/3x3_s2_0_split_1
I0403 19:25:35.986132 19821 net.cpp:399] inception_3a/3x3_reduce -> inception_3a/3x3_reduce
I0403 19:25:35.987787 19821 net.cpp:141] Setting up inception_3a/3x3_reduce
I0403 19:25:35.987815 19821 net.cpp:148] Top shape: 24 96 28 28 (1806336)
I0403 19:25:35.987831 19821 net.cpp:156] Memory required for data: 508183584
I0403 19:25:35.987853 19821 layer_factory.hpp:77] Creating layer inception_3a/relu_3x3_reduce
I0403 19:25:35.987887 19821 net.cpp:91] Creating Layer inception_3a/relu_3x3_reduce
I0403 19:25:35.987905 19821 net.cpp:425] inception_3a/relu_3x3_reduce <- inception_3a/3x3_reduce
I0403 19:25:35.987923 19821 net.cpp:386] inception_3a/relu_3x3_reduce -> inception_3a/3x3_reduce (in-place)
I0403 19:25:35.988106 19821 net.cpp:141] Setting up inception_3a/relu_3x3_reduce
I0403 19:25:35.988132 19821 net.cpp:148] Top shape: 24 96 28 28 (1806336)
I0403 19:25:35.988148 19821 net.cpp:156] Memory required for data: 515408928
I0403 19:25:35.988162 19821 layer_factory.hpp:77] Creating layer inception_3a/3x3
I0403 19:25:35.988184 19821 net.cpp:91] Creating Layer inception_3a/3x3
I0403 19:25:35.988204 19821 net.cpp:425] inception_3a/3x3 <- inception_3a/3x3_reduce
I0403 19:25:35.988222 19821 net.cpp:399] inception_3a/3x3 -> inception_3a/3x3
I0403 19:25:35.989850 19821 net.cpp:141] Setting up inception_3a/3x3
I0403 19:25:35.989877 19821 net.cpp:148] Top shape: 24 128 28 28 (2408448)
I0403 19:25:35.989893 19821 net.cpp:156] Memory required for data: 525042720
I0403 19:25:35.989912 19821 layer_factory.hpp:77] Creating layer inception_3a/relu_3x3
I0403 19:25:35.989933 19821 net.cpp:91] Creating Layer inception_3a/relu_3x3
I0403 19:25:35.989953 19821 net.cpp:425] inception_3a/relu_3x3 <- inception_3a/3x3
I0403 19:25:35.989972 19821 net.cpp:386] inception_3a/relu_3x3 -> inception_3a/3x3 (in-place)
I0403 19:25:35.990242 19821 net.cpp:141] Setting up inception_3a/relu_3x3
I0403 19:25:35.990267 19821 net.cpp:148] Top shape: 24 128 28 28 (2408448)
I0403 19:25:35.990281 19821 net.cpp:156] Memory required for data: 534676512
I0403 19:25:35.990296 19821 layer_factory.hpp:77] Creating layer inception_3a/5x5_reduce
I0403 19:25:35.990319 19821 net.cpp:91] Creating Layer inception_3a/5x5_reduce
I0403 19:25:35.990336 19821 net.cpp:425] inception_3a/5x5_reduce <- pool2/3x3_s2_pool2/3x3_s2_0_split_2
I0403 19:25:35.990358 19821 net.cpp:399] inception_3a/5x5_reduce -> inception_3a/5x5_reduce
I0403 19:25:35.991297 19821 net.cpp:141] Setting up inception_3a/5x5_reduce
I0403 19:25:35.991324 19821 net.cpp:148] Top shape: 24 16 28 28 (301056)
I0403 19:25:35.991339 19821 net.cpp:156] Memory required for data: 535880736
I0403 19:25:35.991358 19821 layer_factory.hpp:77] Creating layer inception_3a/relu_5x5_reduce
I0403 19:25:35.991377 19821 net.cpp:91] Creating Layer inception_3a/relu_5x5_reduce
I0403 19:25:35.991394 19821 net.cpp:425] inception_3a/relu_5x5_reduce <- inception_3a/5x5_reduce
I0403 19:25:35.991412 19821 net.cpp:386] inception_3a/relu_5x5_reduce -> inception_3a/5x5_reduce (in-place)
I0403 19:25:35.991700 19821 net.cpp:141] Setting up inception_3a/relu_5x5_reduce
I0403 19:25:35.991725 19821 net.cpp:148] Top shape: 24 16 28 28 (301056)
I0403 19:25:35.991740 19821 net.cpp:156] Memory required for data: 537084960
I0403 19:25:35.991755 19821 layer_factory.hpp:77] Creating layer inception_3a/5x5
I0403 19:25:35.991777 19821 net.cpp:91] Creating Layer inception_3a/5x5
I0403 19:25:35.991796 19821 net.cpp:425] inception_3a/5x5 <- inception_3a/5x5_reduce
I0403 19:25:35.991816 19821 net.cpp:399] inception_3a/5x5 -> inception_3a/5x5
I0403 19:25:35.992847 19821 net.cpp:141] Setting up inception_3a/5x5
I0403 19:25:35.992876 19821 net.cpp:148] Top shape: 24 32 28 28 (602112)
I0403 19:25:35.992892 19821 net.cpp:156] Memory required for data: 539493408
I0403 19:25:35.992910 19821 layer_factory.hpp:77] Creating layer inception_3a/relu_5x5
I0403 19:25:35.992929 19821 net.cpp:91] Creating Layer inception_3a/relu_5x5
I0403 19:25:35.992949 19821 net.cpp:425] inception_3a/relu_5x5 <- inception_3a/5x5
I0403 19:25:35.992971 19821 net.cpp:386] inception_3a/relu_5x5 -> inception_3a/5x5 (in-place)
I0403 19:25:35.993146 19821 net.cpp:141] Setting up inception_3a/relu_5x5
I0403 19:25:35.993171 19821 net.cpp:148] Top shape: 24 32 28 28 (602112)
I0403 19:25:35.993186 19821 net.cpp:156] Memory required for data: 541901856
I0403 19:25:35.993203 19821 layer_factory.hpp:77] Creating layer inception_3a/pool
I0403 19:25:35.993223 19821 net.cpp:91] Creating Layer inception_3a/pool
I0403 19:25:35.993253 19821 net.cpp:425] inception_3a/pool <- pool2/3x3_s2_pool2/3x3_s2_0_split_3
I0403 19:25:35.993273 19821 net.cpp:399] inception_3a/pool -> inception_3a/pool
I0403 19:25:35.993332 19821 net.cpp:141] Setting up inception_3a/pool
I0403 19:25:35.993356 19821 net.cpp:148] Top shape: 24 192 28 28 (3612672)
I0403 19:25:35.993371 19821 net.cpp:156] Memory required for data: 556352544
I0403 19:25:35.993386 19821 layer_factory.hpp:77] Creating layer inception_3a/pool_proj
I0403 19:25:35.993409 19821 net.cpp:91] Creating Layer inception_3a/pool_proj
I0403 19:25:35.993427 19821 net.cpp:425] inception_3a/pool_proj <- inception_3a/pool
I0403 19:25:35.993451 19821 net.cpp:399] inception_3a/pool_proj -> inception_3a/pool_proj
I0403 19:25:35.994434 19821 net.cpp:141] Setting up inception_3a/pool_proj
I0403 19:25:35.994462 19821 net.cpp:148] Top shape: 24 32 28 28 (602112)
I0403 19:25:35.994478 19821 net.cpp:156] Memory required for data: 558760992
I0403 19:25:35.994503 19821 layer_factory.hpp:77] Creating layer inception_3a/relu_pool_proj
I0403 19:25:35.994526 19821 net.cpp:91] Creating Layer inception_3a/relu_pool_proj
I0403 19:25:35.994544 19821 net.cpp:425] inception_3a/relu_pool_proj <- inception_3a/pool_proj
I0403 19:25:35.994561 19821 net.cpp:386] inception_3a/relu_pool_proj -> inception_3a/pool_proj (in-place)
I0403 19:25:35.994835 19821 net.cpp:141] Setting up inception_3a/relu_pool_proj
I0403 19:25:35.994863 19821 net.cpp:148] Top shape: 24 32 28 28 (602112)
I0403 19:25:35.994879 19821 net.cpp:156] Memory required for data: 561169440
I0403 19:25:35.994894 19821 layer_factory.hpp:77] Creating layer inception_3a/output
I0403 19:25:35.994911 19821 net.cpp:91] Creating Layer inception_3a/output
I0403 19:25:35.994927 19821 net.cpp:425] inception_3a/output <- inception_3a/1x1
I0403 19:25:35.994945 19821 net.cpp:425] inception_3a/output <- inception_3a/3x3
I0403 19:25:35.994966 19821 net.cpp:425] inception_3a/output <- inception_3a/5x5
I0403 19:25:35.994983 19821 net.cpp:425] inception_3a/output <- inception_3a/pool_proj
I0403 19:25:35.995003 19821 net.cpp:399] inception_3a/output -> inception_3a/output
I0403 19:25:35.995050 19821 net.cpp:141] Setting up inception_3a/output
I0403 19:25:35.995077 19821 net.cpp:148] Top shape: 24 256 28 28 (4816896)
I0403 19:25:35.995092 19821 net.cpp:156] Memory required for data: 580437024
I0403 19:25:35.995108 19821 layer_factory.hpp:77] Creating layer inception_3a/output_inception_3a/output_0_split
I0403 19:25:35.995126 19821 net.cpp:91] Creating Layer inception_3a/output_inception_3a/output_0_split
I0403 19:25:35.995142 19821 net.cpp:425] inception_3a/output_inception_3a/output_0_split <- inception_3a/output
I0403 19:25:35.995162 19821 net.cpp:399] inception_3a/output_inception_3a/output_0_split -> inception_3a/output_inception_3a/output_0_split_0
I0403 19:25:35.995182 19821 net.cpp:399] inception_3a/output_inception_3a/output_0_split -> inception_3a/output_inception_3a/output_0_split_1
I0403 19:25:35.995205 19821 net.cpp:399] inception_3a/output_inception_3a/output_0_split -> inception_3a/output_inception_3a/output_0_split_2
I0403 19:25:35.995226 19821 net.cpp:399] inception_3a/output_inception_3a/output_0_split -> inception_3a/output_inception_3a/output_0_split_3
I0403 19:25:35.995301 19821 net.cpp:141] Setting up inception_3a/output_inception_3a/output_0_split
I0403 19:25:35.995324 19821 net.cpp:148] Top shape: 24 256 28 28 (4816896)
I0403 19:25:35.995342 19821 net.cpp:148] Top shape: 24 256 28 28 (4816896)
I0403 19:25:35.995357 19821 net.cpp:148] Top shape: 24 256 28 28 (4816896)
I0403 19:25:35.995373 19821 net.cpp:148] Top shape: 24 256 28 28 (4816896)
I0403 19:25:35.995388 19821 net.cpp:156] Memory required for data: 657507360
I0403 19:25:35.995401 19821 layer_factory.hpp:77] Creating layer inception_3b/1x1
I0403 19:25:35.995424 19821 net.cpp:91] Creating Layer inception_3b/1x1
I0403 19:25:35.995442 19821 net.cpp:425] inception_3b/1x1 <- inception_3a/output_inception_3a/output_0_split_0
I0403 19:25:35.995463 19821 net.cpp:399] inception_3b/1x1 -> inception_3b/1x1
I0403 19:25:35.996621 19821 net.cpp:141] Setting up inception_3b/1x1
I0403 19:25:35.996664 19821 net.cpp:148] Top shape: 24 128 28 28 (2408448)
I0403 19:25:35.996680 19821 net.cpp:156] Memory required for data: 667141152
I0403 19:25:35.996700 19821 layer_factory.hpp:77] Creating layer inception_3b/relu_1x1
I0403 19:25:35.996719 19821 net.cpp:91] Creating Layer inception_3b/relu_1x1
I0403 19:25:35.996736 19821 net.cpp:425] inception_3b/relu_1x1 <- inception_3b/1x1
I0403 19:25:35.996755 19821 net.cpp:386] inception_3b/relu_1x1 -> inception_3b/1x1 (in-place)
I0403 19:25:35.996933 19821 net.cpp:141] Setting up inception_3b/relu_1x1
I0403 19:25:35.996963 19821 net.cpp:148] Top shape: 24 128 28 28 (2408448)
I0403 19:25:35.996979 19821 net.cpp:156] Memory required for data: 676774944
I0403 19:25:35.996994 19821 layer_factory.hpp:77] Creating layer inception_3b/3x3_reduce
I0403 19:25:35.997020 19821 net.cpp:91] Creating Layer inception_3b/3x3_reduce
I0403 19:25:35.997037 19821 net.cpp:425] inception_3b/3x3_reduce <- inception_3a/output_inception_3a/output_0_split_1
I0403 19:25:35.997059 19821 net.cpp:399] inception_3b/3x3_reduce -> inception_3b/3x3_reduce
I0403 19:25:35.998213 19821 net.cpp:141] Setting up inception_3b/3x3_reduce
I0403 19:25:35.998242 19821 net.cpp:148] Top shape: 24 128 28 28 (2408448)
I0403 19:25:35.998260 19821 net.cpp:156] Memory required for data: 686408736
I0403 19:25:35.998278 19821 layer_factory.hpp:77] Creating layer inception_3b/relu_3x3_reduce
I0403 19:25:35.998298 19821 net.cpp:91] Creating Layer inception_3b/relu_3x3_reduce
I0403 19:25:35.998314 19821 net.cpp:425] inception_3b/relu_3x3_reduce <- inception_3b/3x3_reduce
I0403 19:25:35.998333 19821 net.cpp:386] inception_3b/relu_3x3_reduce -> inception_3b/3x3_reduce (in-place)
I0403 19:25:35.998509 19821 net.cpp:141] Setting up inception_3b/relu_3x3_reduce
I0403 19:25:35.998534 19821 net.cpp:148] Top shape: 24 128 28 28 (2408448)
I0403 19:25:35.998549 19821 net.cpp:156] Memory required for data: 696042528
I0403 19:25:35.998564 19821 layer_factory.hpp:77] Creating layer inception_3b/3x3
I0403 19:25:35.998590 19821 net.cpp:91] Creating Layer inception_3b/3x3
I0403 19:25:35.998608 19821 net.cpp:425] inception_3b/3x3 <- inception_3b/3x3_reduce
I0403 19:25:35.998628 19821 net.cpp:399] inception_3b/3x3 -> inception_3b/3x3
I0403 19:25:36.001665 19821 net.cpp:141] Setting up inception_3b/3x3
I0403 19:25:36.001695 19821 net.cpp:148] Top shape: 24 192 28 28 (3612672)
I0403 19:25:36.001713 19821 net.cpp:156] Memory required for data: 710493216
I0403 19:25:36.001731 19821 layer_factory.hpp:77] Creating layer inception_3b/relu_3x3
I0403 19:25:36.001754 19821 net.cpp:91] Creating Layer inception_3b/relu_3x3
I0403 19:25:36.001771 19821 net.cpp:425] inception_3b/relu_3x3 <- inception_3b/3x3
I0403 19:25:36.001791 19821 net.cpp:386] inception_3b/relu_3x3 -> inception_3b/3x3 (in-place)
I0403 19:25:36.002085 19821 net.cpp:141] Setting up inception_3b/relu_3x3
I0403 19:25:36.002113 19821 net.cpp:148] Top shape: 24 192 28 28 (3612672)
I0403 19:25:36.002128 19821 net.cpp:156] Memory required for data: 724943904
I0403 19:25:36.002145 19821 layer_factory.hpp:77] Creating layer inception_3b/5x5_reduce
I0403 19:25:36.002169 19821 net.cpp:91] Creating Layer inception_3b/5x5_reduce
I0403 19:25:36.002187 19821 net.cpp:425] inception_3b/5x5_reduce <- inception_3a/output_inception_3a/output_0_split_2
I0403 19:25:36.002213 19821 net.cpp:399] inception_3b/5x5_reduce -> inception_3b/5x5_reduce
I0403 19:25:36.003242 19821 net.cpp:141] Setting up inception_3b/5x5_reduce
I0403 19:25:36.003283 19821 net.cpp:148] Top shape: 24 32 28 28 (602112)
I0403 19:25:36.003299 19821 net.cpp:156] Memory required for data: 727352352
I0403 19:25:36.003319 19821 layer_factory.hpp:77] Creating layer inception_3b/relu_5x5_reduce
I0403 19:25:36.003337 19821 net.cpp:91] Creating Layer inception_3b/relu_5x5_reduce
I0403 19:25:36.003357 19821 net.cpp:425] inception_3b/relu_5x5_reduce <- inception_3b/5x5_reduce
I0403 19:25:36.003376 19821 net.cpp:386] inception_3b/relu_5x5_reduce -> inception_3b/5x5_reduce (in-place)
I0403 19:25:36.003567 19821 net.cpp:141] Setting up inception_3b/relu_5x5_reduce
I0403 19:25:36.003592 19821 net.cpp:148] Top shape: 24 32 28 28 (602112)
I0403 19:25:36.003607 19821 net.cpp:156] Memory required for data: 729760800
I0403 19:25:36.003623 19821 layer_factory.hpp:77] Creating layer inception_3b/5x5
I0403 19:25:36.003645 19821 net.cpp:91] Creating Layer inception_3b/5x5
I0403 19:25:36.003664 19821 net.cpp:425] inception_3b/5x5 <- inception_3b/5x5_reduce
I0403 19:25:36.003685 19821 net.cpp:399] inception_3b/5x5 -> inception_3b/5x5
I0403 19:25:36.005736 19821 net.cpp:141] Setting up inception_3b/5x5
I0403 19:25:36.005769 19821 net.cpp:148] Top shape: 24 96 28 28 (1806336)
I0403 19:25:36.005785 19821 net.cpp:156] Memory required for data: 736986144
I0403 19:25:36.005805 19821 layer_factory.hpp:77] Creating layer inception_3b/relu_5x5
I0403 19:25:36.005823 19821 net.cpp:91] Creating Layer inception_3b/relu_5x5
I0403 19:25:36.005841 19821 net.cpp:425] inception_3b/relu_5x5 <- inception_3b/5x5
I0403 19:25:36.005859 19821 net.cpp:386] inception_3b/relu_5x5 -> inception_3b/5x5 (in-place)
I0403 19:25:36.006075 19821 net.cpp:141] Setting up inception_3b/relu_5x5
I0403 19:25:36.006103 19821 net.cpp:148] Top shape: 24 96 28 28 (1806336)
I0403 19:25:36.006117 19821 net.cpp:156] Memory required for data: 744211488
I0403 19:25:36.006134 19821 layer_factory.hpp:77] Creating layer inception_3b/pool
I0403 19:25:36.006151 19821 net.cpp:91] Creating Layer inception_3b/pool
I0403 19:25:36.006168 19821 net.cpp:425] inception_3b/pool <- inception_3a/output_inception_3a/output_0_split_3
I0403 19:25:36.006187 19821 net.cpp:399] inception_3b/pool -> inception_3b/pool
I0403 19:25:36.006245 19821 net.cpp:141] Setting up inception_3b/pool
I0403 19:25:36.006281 19821 net.cpp:148] Top shape: 24 256 28 28 (4816896)
I0403 19:25:36.006296 19821 net.cpp:156] Memory required for data: 763479072
I0403 19:25:36.006310 19821 layer_factory.hpp:77] Creating layer inception_3b/pool_proj
I0403 19:25:36.006335 19821 net.cpp:91] Creating Layer inception_3b/pool_proj
I0403 19:25:36.006353 19821 net.cpp:425] inception_3b/pool_proj <- inception_3b/pool
I0403 19:25:36.006372 19821 net.cpp:399] inception_3b/pool_proj -> inception_3b/pool_proj
I0403 19:25:36.007467 19821 net.cpp:141] Setting up inception_3b/pool_proj
I0403 19:25:36.007494 19821 net.cpp:148] Top shape: 24 64 28 28 (1204224)
I0403 19:25:36.007510 19821 net.cpp:156] Memory required for data: 768295968
I0403 19:25:36.007529 19821 layer_factory.hpp:77] Creating layer inception_3b/relu_pool_proj
I0403 19:25:36.007550 19821 net.cpp:91] Creating Layer inception_3b/relu_pool_proj
I0403 19:25:36.007567 19821 net.cpp:425] inception_3b/relu_pool_proj <- inception_3b/pool_proj
I0403 19:25:36.007586 19821 net.cpp:386] inception_3b/relu_pool_proj -> inception_3b/pool_proj (in-place)
I0403 19:25:36.008000 19821 net.cpp:141] Setting up inception_3b/relu_pool_proj
I0403 19:25:36.008028 19821 net.cpp:148] Top shape: 24 64 28 28 (1204224)
I0403 19:25:36.008044 19821 net.cpp:156] Memory required for data: 773112864
I0403 19:25:36.008059 19821 layer_factory.hpp:77] Creating layer inception_3b/output
I0403 19:25:36.008082 19821 net.cpp:91] Creating Layer inception_3b/output
I0403 19:25:36.008100 19821 net.cpp:425] inception_3b/output <- inception_3b/1x1
I0403 19:25:36.008118 19821 net.cpp:425] inception_3b/output <- inception_3b/3x3
I0403 19:25:36.008136 19821 net.cpp:425] inception_3b/output <- inception_3b/5x5
I0403 19:25:36.008152 19821 net.cpp:425] inception_3b/output <- inception_3b/pool_proj
I0403 19:25:36.008169 19821 net.cpp:399] inception_3b/output -> inception_3b/output
I0403 19:25:36.008214 19821 net.cpp:141] Setting up inception_3b/output
I0403 19:25:36.008240 19821 net.cpp:148] Top shape: 24 480 28 28 (9031680)
I0403 19:25:36.008268 19821 net.cpp:156] Memory required for data: 809239584
I0403 19:25:36.008285 19821 layer_factory.hpp:77] Creating layer pool3/3x3_s2
I0403 19:25:36.008302 19821 net.cpp:91] Creating Layer pool3/3x3_s2
I0403 19:25:36.008319 19821 net.cpp:425] pool3/3x3_s2 <- inception_3b/output
I0403 19:25:36.008355 19821 net.cpp:399] pool3/3x3_s2 -> pool3/3x3_s2
I0403 19:25:36.008414 19821 net.cpp:141] Setting up pool3/3x3_s2
I0403 19:25:36.008440 19821 net.cpp:148] Top shape: 24 480 14 14 (2257920)
I0403 19:25:36.008455 19821 net.cpp:156] Memory required for data: 818271264
I0403 19:25:36.008471 19821 layer_factory.hpp:77] Creating layer pool3/3x3_s2_pool3/3x3_s2_0_split
I0403 19:25:36.008487 19821 net.cpp:91] Creating Layer pool3/3x3_s2_pool3/3x3_s2_0_split
I0403 19:25:36.008503 19821 net.cpp:425] pool3/3x3_s2_pool3/3x3_s2_0_split <- pool3/3x3_s2
I0403 19:25:36.008520 19821 net.cpp:399] pool3/3x3_s2_pool3/3x3_s2_0_split -> pool3/3x3_s2_pool3/3x3_s2_0_split_0
I0403 19:25:36.008540 19821 net.cpp:399] pool3/3x3_s2_pool3/3x3_s2_0_split -> pool3/3x3_s2_pool3/3x3_s2_0_split_1
I0403 19:25:36.008563 19821 net.cpp:399] pool3/3x3_s2_pool3/3x3_s2_0_split -> pool3/3x3_s2_pool3/3x3_s2_0_split_2
I0403 19:25:36.008584 19821 net.cpp:399] pool3/3x3_s2_pool3/3x3_s2_0_split -> pool3/3x3_s2_pool3/3x3_s2_0_split_3
I0403 19:25:36.008662 19821 net.cpp:141] Setting up pool3/3x3_s2_pool3/3x3_s2_0_split
I0403 19:25:36.008685 19821 net.cpp:148] Top shape: 24 480 14 14 (2257920)
I0403 19:25:36.008702 19821 net.cpp:148] Top shape: 24 480 14 14 (2257920)
I0403 19:25:36.008718 19821 net.cpp:148] Top shape: 24 480 14 14 (2257920)
I0403 19:25:36.008733 19821 net.cpp:148] Top shape: 24 480 14 14 (2257920)
I0403 19:25:36.008747 19821 net.cpp:156] Memory required for data: 854397984
I0403 19:25:36.008762 19821 layer_factory.hpp:77] Creating layer inception_4a/1x1
I0403 19:25:36.008785 19821 net.cpp:91] Creating Layer inception_4a/1x1
I0403 19:25:36.008802 19821 net.cpp:425] inception_4a/1x1 <- pool3/3x3_s2_pool3/3x3_s2_0_split_0
I0403 19:25:36.008824 19821 net.cpp:399] inception_4a/1x1 -> inception_4a/1x1
I0403 19:25:36.010463 19821 net.cpp:141] Setting up inception_4a/1x1
I0403 19:25:36.010493 19821 net.cpp:148] Top shape: 24 192 14 14 (903168)
I0403 19:25:36.010509 19821 net.cpp:156] Memory required for data: 858010656
I0403 19:25:36.010527 19821 layer_factory.hpp:77] Creating layer inception_4a/relu_1x1
I0403 19:25:36.010548 19821 net.cpp:91] Creating Layer inception_4a/relu_1x1
I0403 19:25:36.010566 19821 net.cpp:425] inception_4a/relu_1x1 <- inception_4a/1x1
I0403 19:25:36.010584 19821 net.cpp:386] inception_4a/relu_1x1 -> inception_4a/1x1 (in-place)
I0403 19:25:36.010773 19821 net.cpp:141] Setting up inception_4a/relu_1x1
I0403 19:25:36.010798 19821 net.cpp:148] Top shape: 24 192 14 14 (903168)
I0403 19:25:36.010814 19821 net.cpp:156] Memory required for data: 861623328
I0403 19:25:36.010829 19821 layer_factory.hpp:77] Creating layer inception_4a/3x3_reduce
I0403 19:25:36.010853 19821 net.cpp:91] Creating Layer inception_4a/3x3_reduce
I0403 19:25:36.010869 19821 net.cpp:425] inception_4a/3x3_reduce <- pool3/3x3_s2_pool3/3x3_s2_0_split_1
I0403 19:25:36.010903 19821 net.cpp:399] inception_4a/3x3_reduce -> inception_4a/3x3_reduce
I0403 19:25:36.012161 19821 net.cpp:141] Setting up inception_4a/3x3_reduce
I0403 19:25:36.012188 19821 net.cpp:148] Top shape: 24 96 14 14 (451584)
I0403 19:25:36.012205 19821 net.cpp:156] Memory required for data: 863429664
I0403 19:25:36.012230 19821 layer_factory.hpp:77] Creating layer inception_4a/relu_3x3_reduce
I0403 19:25:36.012253 19821 net.cpp:91] Creating Layer inception_4a/relu_3x3_reduce
I0403 19:25:36.012269 19821 net.cpp:425] inception_4a/relu_3x3_reduce <- inception_4a/3x3_reduce
I0403 19:25:36.012286 19821 net.cpp:386] inception_4a/relu_3x3_reduce -> inception_4a/3x3_reduce (in-place)
I0403 19:25:36.012459 19821 net.cpp:141] Setting up inception_4a/relu_3x3_reduce
I0403 19:25:36.012486 19821 net.cpp:148] Top shape: 24 96 14 14 (451584)
I0403 19:25:36.012501 19821 net.cpp:156] Memory required for data: 865236000
I0403 19:25:36.012516 19821 layer_factory.hpp:77] Creating layer inception_4a/3x3
I0403 19:25:36.012538 19821 net.cpp:91] Creating Layer inception_4a/3x3
I0403 19:25:36.012557 19821 net.cpp:425] inception_4a/3x3 <- inception_4a/3x3_reduce
I0403 19:25:36.012575 19821 net.cpp:399] inception_4a/3x3 -> inception_4a/3x3
I0403 19:25:36.015223 19821 net.cpp:141] Setting up inception_4a/3x3
I0403 19:25:36.015254 19821 net.cpp:148] Top shape: 24 208 14 14 (978432)
I0403 19:25:36.015269 19821 net.cpp:156] Memory required for data: 869149728
I0403 19:25:36.015287 19821 layer_factory.hpp:77] Creating layer inception_4a/relu_3x3
I0403 19:25:36.015305 19821 net.cpp:91] Creating Layer inception_4a/relu_3x3
I0403 19:25:36.015322 19821 net.cpp:425] inception_4a/relu_3x3 <- inception_4a/3x3
I0403 19:25:36.015342 19821 net.cpp:386] inception_4a/relu_3x3 -> inception_4a/3x3 (in-place)
I0403 19:25:36.015614 19821 net.cpp:141] Setting up inception_4a/relu_3x3
I0403 19:25:36.015642 19821 net.cpp:148] Top shape: 24 208 14 14 (978432)
I0403 19:25:36.015657 19821 net.cpp:156] Memory required for data: 873063456
I0403 19:25:36.015673 19821 layer_factory.hpp:77] Creating layer inception_4a/5x5_reduce
I0403 19:25:36.015697 19821 net.cpp:91] Creating Layer inception_4a/5x5_reduce
I0403 19:25:36.015714 19821 net.cpp:425] inception_4a/5x5_reduce <- pool3/3x3_s2_pool3/3x3_s2_0_split_2
I0403 19:25:36.015734 19821 net.cpp:399] inception_4a/5x5_reduce -> inception_4a/5x5_reduce
I0403 19:25:36.016733 19821 net.cpp:141] Setting up inception_4a/5x5_reduce
I0403 19:25:36.016760 19821 net.cpp:148] Top shape: 24 16 14 14 (75264)
I0403 19:25:36.016775 19821 net.cpp:156] Memory required for data: 873364512
I0403 19:25:36.016793 19821 layer_factory.hpp:77] Creating layer inception_4a/relu_5x5_reduce
I0403 19:25:36.016813 19821 net.cpp:91] Creating Layer inception_4a/relu_5x5_reduce
I0403 19:25:36.016827 19821 net.cpp:425] inception_4a/relu_5x5_reduce <- inception_4a/5x5_reduce
I0403 19:25:36.016847 19821 net.cpp:386] inception_4a/relu_5x5_reduce -> inception_4a/5x5_reduce (in-place)
I0403 19:25:36.017045 19821 net.cpp:141] Setting up inception_4a/relu_5x5_reduce
I0403 19:25:36.017071 19821 net.cpp:148] Top shape: 24 16 14 14 (75264)
I0403 19:25:36.017086 19821 net.cpp:156] Memory required for data: 873665568
I0403 19:25:36.017101 19821 layer_factory.hpp:77] Creating layer inception_4a/5x5
I0403 19:25:36.017122 19821 net.cpp:91] Creating Layer inception_4a/5x5
I0403 19:25:36.017140 19821 net.cpp:425] inception_4a/5x5 <- inception_4a/5x5_reduce
I0403 19:25:36.017163 19821 net.cpp:399] inception_4a/5x5 -> inception_4a/5x5
I0403 19:25:36.018290 19821 net.cpp:141] Setting up inception_4a/5x5
I0403 19:25:36.018316 19821 net.cpp:148] Top shape: 24 48 14 14 (225792)
I0403 19:25:36.018332 19821 net.cpp:156] Memory required for data: 874568736
I0403 19:25:36.018350 19821 layer_factory.hpp:77] Creating layer inception_4a/relu_5x5
I0403 19:25:36.018371 19821 net.cpp:91] Creating Layer inception_4a/relu_5x5
I0403 19:25:36.018388 19821 net.cpp:425] inception_4a/relu_5x5 <- inception_4a/5x5
I0403 19:25:36.018404 19821 net.cpp:386] inception_4a/relu_5x5 -> inception_4a/5x5 (in-place)
I0403 19:25:36.018582 19821 net.cpp:141] Setting up inception_4a/relu_5x5
I0403 19:25:36.018609 19821 net.cpp:148] Top shape: 24 48 14 14 (225792)
I0403 19:25:36.018625 19821 net.cpp:156] Memory required for data: 875471904
I0403 19:25:36.018640 19821 layer_factory.hpp:77] Creating layer inception_4a/pool
I0403 19:25:36.018657 19821 net.cpp:91] Creating Layer inception_4a/pool
I0403 19:25:36.018672 19821 net.cpp:425] inception_4a/pool <- pool3/3x3_s2_pool3/3x3_s2_0_split_3
I0403 19:25:36.018692 19821 net.cpp:399] inception_4a/pool -> inception_4a/pool
I0403 19:25:36.018753 19821 net.cpp:141] Setting up inception_4a/pool
I0403 19:25:36.018775 19821 net.cpp:148] Top shape: 24 480 14 14 (2257920)
I0403 19:25:36.018790 19821 net.cpp:156] Memory required for data: 884503584
I0403 19:25:36.018805 19821 layer_factory.hpp:77] Creating layer inception_4a/pool_proj
I0403 19:25:36.018827 19821 net.cpp:91] Creating Layer inception_4a/pool_proj
I0403 19:25:36.018844 19821 net.cpp:425] inception_4a/pool_proj <- inception_4a/pool
I0403 19:25:36.018864 19821 net.cpp:399] inception_4a/pool_proj -> inception_4a/pool_proj
I0403 19:25:36.020031 19821 net.cpp:141] Setting up inception_4a/pool_proj
I0403 19:25:36.020059 19821 net.cpp:148] Top shape: 24 64 14 14 (301056)
I0403 19:25:36.020088 19821 net.cpp:156] Memory required for data: 885707808
I0403 19:25:36.020108 19821 layer_factory.hpp:77] Creating layer inception_4a/relu_pool_proj
I0403 19:25:36.020133 19821 net.cpp:91] Creating Layer inception_4a/relu_pool_proj
I0403 19:25:36.020149 19821 net.cpp:425] inception_4a/relu_pool_proj <- inception_4a/pool_proj
I0403 19:25:36.020167 19821 net.cpp:386] inception_4a/relu_pool_proj -> inception_4a/pool_proj (in-place)
I0403 19:25:36.020444 19821 net.cpp:141] Setting up inception_4a/relu_pool_proj
I0403 19:25:36.020470 19821 net.cpp:148] Top shape: 24 64 14 14 (301056)
I0403 19:25:36.020485 19821 net.cpp:156] Memory required for data: 886912032
I0403 19:25:36.020500 19821 layer_factory.hpp:77] Creating layer inception_4a/output
I0403 19:25:36.020519 19821 net.cpp:91] Creating Layer inception_4a/output
I0403 19:25:36.020535 19821 net.cpp:425] inception_4a/output <- inception_4a/1x1
I0403 19:25:36.020552 19821 net.cpp:425] inception_4a/output <- inception_4a/3x3
I0403 19:25:36.020568 19821 net.cpp:425] inception_4a/output <- inception_4a/5x5
I0403 19:25:36.020584 19821 net.cpp:425] inception_4a/output <- inception_4a/pool_proj
I0403 19:25:36.020601 19821 net.cpp:399] inception_4a/output -> inception_4a/output
I0403 19:25:36.020645 19821 net.cpp:141] Setting up inception_4a/output
I0403 19:25:36.020668 19821 net.cpp:148] Top shape: 24 512 14 14 (2408448)
I0403 19:25:36.020683 19821 net.cpp:156] Memory required for data: 896545824
I0403 19:25:36.020697 19821 layer_factory.hpp:77] Creating layer inception_4a/output_inception_4a/output_0_split
I0403 19:25:36.020714 19821 net.cpp:91] Creating Layer inception_4a/output_inception_4a/output_0_split
I0403 19:25:36.020730 19821 net.cpp:425] inception_4a/output_inception_4a/output_0_split <- inception_4a/output
I0403 19:25:36.020750 19821 net.cpp:399] inception_4a/output_inception_4a/output_0_split -> inception_4a/output_inception_4a/output_0_split_0
I0403 19:25:36.020771 19821 net.cpp:399] inception_4a/output_inception_4a/output_0_split -> inception_4a/output_inception_4a/output_0_split_1
I0403 19:25:36.020792 19821 net.cpp:399] inception_4a/output_inception_4a/output_0_split -> inception_4a/output_inception_4a/output_0_split_2
I0403 19:25:36.020812 19821 net.cpp:399] inception_4a/output_inception_4a/output_0_split -> inception_4a/output_inception_4a/output_0_split_3
I0403 19:25:36.020831 19821 net.cpp:399] inception_4a/output_inception_4a/output_0_split -> inception_4a/output_inception_4a/output_0_split_4
I0403 19:25:36.020922 19821 net.cpp:141] Setting up inception_4a/output_inception_4a/output_0_split
I0403 19:25:36.020944 19821 net.cpp:148] Top shape: 24 512 14 14 (2408448)
I0403 19:25:36.020966 19821 net.cpp:148] Top shape: 24 512 14 14 (2408448)
I0403 19:25:36.020982 19821 net.cpp:148] Top shape: 24 512 14 14 (2408448)
I0403 19:25:36.020998 19821 net.cpp:148] Top shape: 24 512 14 14 (2408448)
I0403 19:25:36.021014 19821 net.cpp:148] Top shape: 24 512 14 14 (2408448)
I0403 19:25:36.021028 19821 net.cpp:156] Memory required for data: 944714784
I0403 19:25:36.021042 19821 layer_factory.hpp:77] Creating layer loss1/ave_pool
I0403 19:25:36.021060 19821 net.cpp:91] Creating Layer loss1/ave_pool
I0403 19:25:36.021076 19821 net.cpp:425] loss1/ave_pool <- inception_4a/output_inception_4a/output_0_split_0
I0403 19:25:36.021096 19821 net.cpp:399] loss1/ave_pool -> loss1/ave_pool
I0403 19:25:36.021301 19821 net.cpp:141] Setting up loss1/ave_pool
I0403 19:25:36.021325 19821 net.cpp:148] Top shape: 24 512 4 4 (196608)
I0403 19:25:36.021343 19821 net.cpp:156] Memory required for data: 945501216
I0403 19:25:36.021358 19821 layer_factory.hpp:77] Creating layer loss1/conv
I0403 19:25:36.021378 19821 net.cpp:91] Creating Layer loss1/conv
I0403 19:25:36.021394 19821 net.cpp:425] loss1/conv <- loss1/ave_pool
I0403 19:25:36.021415 19821 net.cpp:399] loss1/conv -> loss1/conv
I0403 19:25:36.022847 19821 net.cpp:141] Setting up loss1/conv
I0403 19:25:36.022877 19821 net.cpp:148] Top shape: 24 128 4 4 (49152)
I0403 19:25:36.022907 19821 net.cpp:156] Memory required for data: 945697824
I0403 19:25:36.022927 19821 layer_factory.hpp:77] Creating layer loss1/relu_conv
I0403 19:25:36.022949 19821 net.cpp:91] Creating Layer loss1/relu_conv
I0403 19:25:36.022969 19821 net.cpp:425] loss1/relu_conv <- loss1/conv
I0403 19:25:36.022989 19821 net.cpp:386] loss1/relu_conv -> loss1/conv (in-place)
I0403 19:25:36.023277 19821 net.cpp:141] Setting up loss1/relu_conv
I0403 19:25:36.023306 19821 net.cpp:148] Top shape: 24 128 4 4 (49152)
I0403 19:25:36.023322 19821 net.cpp:156] Memory required for data: 945894432
I0403 19:25:36.023337 19821 layer_factory.hpp:77] Creating layer loss1/fc
I0403 19:25:36.023361 19821 net.cpp:91] Creating Layer loss1/fc
I0403 19:25:36.023380 19821 net.cpp:425] loss1/fc <- loss1/conv
I0403 19:25:36.023401 19821 net.cpp:399] loss1/fc -> loss1/fc
I0403 19:25:36.041519 19821 net.cpp:141] Setting up loss1/fc
I0403 19:25:36.041551 19821 net.cpp:148] Top shape: 24 1024 (24576)
I0403 19:25:36.041568 19821 net.cpp:156] Memory required for data: 945992736
I0403 19:25:36.041586 19821 layer_factory.hpp:77] Creating layer loss1/relu_fc
I0403 19:25:36.041607 19821 net.cpp:91] Creating Layer loss1/relu_fc
I0403 19:25:36.041625 19821 net.cpp:425] loss1/relu_fc <- loss1/fc
I0403 19:25:36.041641 19821 net.cpp:386] loss1/relu_fc -> loss1/fc (in-place)
I0403 19:25:36.041828 19821 net.cpp:141] Setting up loss1/relu_fc
I0403 19:25:36.041852 19821 net.cpp:148] Top shape: 24 1024 (24576)
I0403 19:25:36.041867 19821 net.cpp:156] Memory required for data: 946091040
I0403 19:25:36.041882 19821 layer_factory.hpp:77] Creating layer loss1/drop_fc
I0403 19:25:36.041908 19821 net.cpp:91] Creating Layer loss1/drop_fc
I0403 19:25:36.041924 19821 net.cpp:425] loss1/drop_fc <- loss1/fc
I0403 19:25:36.041944 19821 net.cpp:386] loss1/drop_fc -> loss1/fc (in-place)
I0403 19:25:36.041999 19821 net.cpp:141] Setting up loss1/drop_fc
I0403 19:25:36.042021 19821 net.cpp:148] Top shape: 24 1024 (24576)
I0403 19:25:36.042037 19821 net.cpp:156] Memory required for data: 946189344
I0403 19:25:36.042052 19821 layer_factory.hpp:77] Creating layer loss1/classifier_plantvillage
I0403 19:25:36.042073 19821 net.cpp:91] Creating Layer loss1/classifier_plantvillage
I0403 19:25:36.042090 19821 net.cpp:425] loss1/classifier_plantvillage <- loss1/fc
I0403 19:25:36.042109 19821 net.cpp:399] loss1/classifier_plantvillage -> loss1/classifier_plantvillage
I0403 19:25:36.043014 19821 net.cpp:141] Setting up loss1/classifier_plantvillage
I0403 19:25:36.043040 19821 net.cpp:148] Top shape: 24 38 (912)
I0403 19:25:36.043056 19821 net.cpp:156] Memory required for data: 946192992
I0403 19:25:36.043074 19821 layer_factory.hpp:77] Creating layer loss1/classifier_plantvillage_loss1/classifier_plantvillage_0_split
I0403 19:25:36.043094 19821 net.cpp:91] Creating Layer loss1/classifier_plantvillage_loss1/classifier_plantvillage_0_split
I0403 19:25:36.043112 19821 net.cpp:425] loss1/classifier_plantvillage_loss1/classifier_plantvillage_0_split <- loss1/classifier_plantvillage
I0403 19:25:36.043129 19821 net.cpp:399] loss1/classifier_plantvillage_loss1/classifier_plantvillage_0_split -> loss1/classifier_plantvillage_loss1/classifier_plantvillage_0_split_0
I0403 19:25:36.043153 19821 net.cpp:399] loss1/classifier_plantvillage_loss1/classifier_plantvillage_0_split -> loss1/classifier_plantvillage_loss1/classifier_plantvillage_0_split_1
I0403 19:25:36.043174 19821 net.cpp:399] loss1/classifier_plantvillage_loss1/classifier_plantvillage_0_split -> loss1/classifier_plantvillage_loss1/classifier_plantvillage_0_split_2
I0403 19:25:36.043241 19821 net.cpp:141] Setting up loss1/classifier_plantvillage_loss1/classifier_plantvillage_0_split
I0403 19:25:36.043262 19821 net.cpp:148] Top shape: 24 38 (912)
I0403 19:25:36.043278 19821 net.cpp:148] Top shape: 24 38 (912)
I0403 19:25:36.043294 19821 net.cpp:148] Top shape: 24 38 (912)
I0403 19:25:36.043308 19821 net.cpp:156] Memory required for data: 946203936
I0403 19:25:36.043323 19821 layer_factory.hpp:77] Creating layer inception_4b/1x1
I0403 19:25:36.043345 19821 net.cpp:91] Creating Layer inception_4b/1x1
I0403 19:25:36.043380 19821 net.cpp:425] inception_4b/1x1 <- inception_4a/output_inception_4a/output_0_split_1
I0403 19:25:36.043401 19821 net.cpp:399] inception_4b/1x1 -> inception_4b/1x1
I0403 19:25:36.045060 19821 net.cpp:141] Setting up inception_4b/1x1
I0403 19:25:36.045090 19821 net.cpp:148] Top shape: 24 160 14 14 (752640)
I0403 19:25:36.045106 19821 net.cpp:156] Memory required for data: 949214496
I0403 19:25:36.045125 19821 layer_factory.hpp:77] Creating layer inception_4b/relu_1x1
I0403 19:25:36.045142 19821 net.cpp:91] Creating Layer inception_4b/relu_1x1
I0403 19:25:36.045158 19821 net.cpp:425] inception_4b/relu_1x1 <- inception_4b/1x1
I0403 19:25:36.045177 19821 net.cpp:386] inception_4b/relu_1x1 -> inception_4b/1x1 (in-place)
I0403 19:25:36.045356 19821 net.cpp:141] Setting up inception_4b/relu_1x1
I0403 19:25:36.045380 19821 net.cpp:148] Top shape: 24 160 14 14 (752640)
I0403 19:25:36.045395 19821 net.cpp:156] Memory required for data: 952225056
I0403 19:25:36.045410 19821 layer_factory.hpp:77] Creating layer inception_4b/3x3_reduce
I0403 19:25:36.045434 19821 net.cpp:91] Creating Layer inception_4b/3x3_reduce
I0403 19:25:36.045452 19821 net.cpp:425] inception_4b/3x3_reduce <- inception_4a/output_inception_4a/output_0_split_2
I0403 19:25:36.045474 19821 net.cpp:399] inception_4b/3x3_reduce -> inception_4b/3x3_reduce
I0403 19:25:36.046823 19821 net.cpp:141] Setting up inception_4b/3x3_reduce
I0403 19:25:36.046849 19821 net.cpp:148] Top shape: 24 112 14 14 (526848)
I0403 19:25:36.046865 19821 net.cpp:156] Memory required for data: 954332448
I0403 19:25:36.046883 19821 layer_factory.hpp:77] Creating layer inception_4b/relu_3x3_reduce
I0403 19:25:36.046903 19821 net.cpp:91] Creating Layer inception_4b/relu_3x3_reduce
I0403 19:25:36.046921 19821 net.cpp:425] inception_4b/relu_3x3_reduce <- inception_4b/3x3_reduce
I0403 19:25:36.046938 19821 net.cpp:386] inception_4b/relu_3x3_reduce -> inception_4b/3x3_reduce (in-place)
I0403 19:25:36.047224 19821 net.cpp:141] Setting up inception_4b/relu_3x3_reduce
I0403 19:25:36.047250 19821 net.cpp:148] Top shape: 24 112 14 14 (526848)
I0403 19:25:36.047265 19821 net.cpp:156] Memory required for data: 956439840
I0403 19:25:36.047279 19821 layer_factory.hpp:77] Creating layer inception_4b/3x3
I0403 19:25:36.047302 19821 net.cpp:91] Creating Layer inception_4b/3x3
I0403 19:25:36.047319 19821 net.cpp:425] inception_4b/3x3 <- inception_4b/3x3_reduce
I0403 19:25:36.047340 19821 net.cpp:399] inception_4b/3x3 -> inception_4b/3x3
I0403 19:25:36.050314 19821 net.cpp:141] Setting up inception_4b/3x3
I0403 19:25:36.050344 19821 net.cpp:148] Top shape: 24 224 14 14 (1053696)
I0403 19:25:36.050360 19821 net.cpp:156] Memory required for data: 960654624
I0403 19:25:36.050379 19821 layer_factory.hpp:77] Creating layer inception_4b/relu_3x3
I0403 19:25:36.050400 19821 net.cpp:91] Creating Layer inception_4b/relu_3x3
I0403 19:25:36.050416 19821 net.cpp:425] inception_4b/relu_3x3 <- inception_4b/3x3
I0403 19:25:36.050433 19821 net.cpp:386] inception_4b/relu_3x3 -> inception_4b/3x3 (in-place)
I0403 19:25:36.050614 19821 net.cpp:141] Setting up inception_4b/relu_3x3
I0403 19:25:36.050638 19821 net.cpp:148] Top shape: 24 224 14 14 (1053696)
I0403 19:25:36.050653 19821 net.cpp:156] Memory required for data: 964869408
I0403 19:25:36.050668 19821 layer_factory.hpp:77] Creating layer inception_4b/5x5_reduce
I0403 19:25:36.050691 19821 net.cpp:91] Creating Layer inception_4b/5x5_reduce
I0403 19:25:36.050709 19821 net.cpp:425] inception_4b/5x5_reduce <- inception_4a/output_inception_4a/output_0_split_3
I0403 19:25:36.050731 19821 net.cpp:399] inception_4b/5x5_reduce -> inception_4b/5x5_reduce
I0403 19:25:36.051851 19821 net.cpp:141] Setting up inception_4b/5x5_reduce
I0403 19:25:36.051879 19821 net.cpp:148] Top shape: 24 24 14 14 (112896)
I0403 19:25:36.051895 19821 net.cpp:156] Memory required for data: 965320992
I0403 19:25:36.051913 19821 layer_factory.hpp:77] Creating layer inception_4b/relu_5x5_reduce
I0403 19:25:36.051931 19821 net.cpp:91] Creating Layer inception_4b/relu_5x5_reduce
I0403 19:25:36.051966 19821 net.cpp:425] inception_4b/relu_5x5_reduce <- inception_4b/5x5_reduce
I0403 19:25:36.051987 19821 net.cpp:386] inception_4b/relu_5x5_reduce -> inception_4b/5x5_reduce (in-place)
I0403 19:25:36.052168 19821 net.cpp:141] Setting up inception_4b/relu_5x5_reduce
I0403 19:25:36.052192 19821 net.cpp:148] Top shape: 24 24 14 14 (112896)
I0403 19:25:36.052208 19821 net.cpp:156] Memory required for data: 965772576
I0403 19:25:36.052223 19821 layer_factory.hpp:77] Creating layer inception_4b/5x5
I0403 19:25:36.052247 19821 net.cpp:91] Creating Layer inception_4b/5x5
I0403 19:25:36.052263 19821 net.cpp:425] inception_4b/5x5 <- inception_4b/5x5_reduce
I0403 19:25:36.052284 19821 net.cpp:399] inception_4b/5x5 -> inception_4b/5x5
I0403 19:25:36.053503 19821 net.cpp:141] Setting up inception_4b/5x5
I0403 19:25:36.053531 19821 net.cpp:148] Top shape: 24 64 14 14 (301056)
I0403 19:25:36.053547 19821 net.cpp:156] Memory required for data: 966976800
I0403 19:25:36.053566 19821 layer_factory.hpp:77] Creating layer inception_4b/relu_5x5
I0403 19:25:36.053585 19821 net.cpp:91] Creating Layer inception_4b/relu_5x5
I0403 19:25:36.053601 19821 net.cpp:425] inception_4b/relu_5x5 <- inception_4b/5x5
I0403 19:25:36.053619 19821 net.cpp:386] inception_4b/relu_5x5 -> inception_4b/5x5 (in-place)
I0403 19:25:36.053900 19821 net.cpp:141] Setting up inception_4b/relu_5x5
I0403 19:25:36.053941 19821 net.cpp:148] Top shape: 24 64 14 14 (301056)
I0403 19:25:36.053962 19821 net.cpp:156] Memory required for data: 968181024
I0403 19:25:36.053978 19821 layer_factory.hpp:77] Creating layer inception_4b/pool
I0403 19:25:36.053997 19821 net.cpp:91] Creating Layer inception_4b/pool
I0403 19:25:36.054014 19821 net.cpp:425] inception_4b/pool <- inception_4a/output_inception_4a/output_0_split_4
I0403 19:25:36.054034 19821 net.cpp:399] inception_4b/pool -> inception_4b/pool
I0403 19:25:36.054100 19821 net.cpp:141] Setting up inception_4b/pool
I0403 19:25:36.054126 19821 net.cpp:148] Top shape: 24 512 14 14 (2408448)
I0403 19:25:36.054141 19821 net.cpp:156] Memory required for data: 977814816
I0403 19:25:36.054157 19821 layer_factory.hpp:77] Creating layer inception_4b/pool_proj
I0403 19:25:36.054179 19821 net.cpp:91] Creating Layer inception_4b/pool_proj
I0403 19:25:36.054198 19821 net.cpp:425] inception_4b/pool_proj <- inception_4b/pool
I0403 19:25:36.054216 19821 net.cpp:399] inception_4b/pool_proj -> inception_4b/pool_proj
I0403 19:25:36.055421 19821 net.cpp:141] Setting up inception_4b/pool_proj
I0403 19:25:36.055449 19821 net.cpp:148] Top shape: 24 64 14 14 (301056)
I0403 19:25:36.055464 19821 net.cpp:156] Memory required for data: 979019040
I0403 19:25:36.055482 19821 layer_factory.hpp:77] Creating layer inception_4b/relu_pool_proj
I0403 19:25:36.055500 19821 net.cpp:91] Creating Layer inception_4b/relu_pool_proj
I0403 19:25:36.055519 19821 net.cpp:425] inception_4b/relu_pool_proj <- inception_4b/pool_proj
I0403 19:25:36.055536 19821 net.cpp:386] inception_4b/relu_pool_proj -> inception_4b/pool_proj (in-place)
I0403 19:25:36.055712 19821 net.cpp:141] Setting up inception_4b/relu_pool_proj
I0403 19:25:36.055737 19821 net.cpp:148] Top shape: 24 64 14 14 (301056)
I0403 19:25:36.055752 19821 net.cpp:156] Memory required for data: 980223264
I0403 19:25:36.055766 19821 layer_factory.hpp:77] Creating layer inception_4b/output
I0403 19:25:36.055786 19821 net.cpp:91] Creating Layer inception_4b/output
I0403 19:25:36.055802 19821 net.cpp:425] inception_4b/output <- inception_4b/1x1
I0403 19:25:36.055819 19821 net.cpp:425] inception_4b/output <- inception_4b/3x3
I0403 19:25:36.055835 19821 net.cpp:425] inception_4b/output <- inception_4b/5x5
I0403 19:25:36.055850 19821 net.cpp:425] inception_4b/output <- inception_4b/pool_proj
I0403 19:25:36.055867 19821 net.cpp:399] inception_4b/output -> inception_4b/output
I0403 19:25:36.055914 19821 net.cpp:141] Setting up inception_4b/output
I0403 19:25:36.055938 19821 net.cpp:148] Top shape: 24 512 14 14 (2408448)
I0403 19:25:36.055955 19821 net.cpp:156] Memory required for data: 989857056
I0403 19:25:36.055984 19821 layer_factory.hpp:77] Creating layer inception_4b/output_inception_4b/output_0_split
I0403 19:25:36.056004 19821 net.cpp:91] Creating Layer inception_4b/output_inception_4b/output_0_split
I0403 19:25:36.056020 19821 net.cpp:425] inception_4b/output_inception_4b/output_0_split <- inception_4b/output
I0403 19:25:36.056038 19821 net.cpp:399] inception_4b/output_inception_4b/output_0_split -> inception_4b/output_inception_4b/output_0_split_0
I0403 19:25:36.056059 19821 net.cpp:399] inception_4b/output_inception_4b/output_0_split -> inception_4b/output_inception_4b/output_0_split_1
I0403 19:25:36.056080 19821 net.cpp:399] inception_4b/output_inception_4b/output_0_split -> inception_4b/output_inception_4b/output_0_split_2
I0403 19:25:36.056100 19821 net.cpp:399] inception_4b/output_inception_4b/output_0_split -> inception_4b/output_inception_4b/output_0_split_3
I0403 19:25:36.056185 19821 net.cpp:141] Setting up inception_4b/output_inception_4b/output_0_split
I0403 19:25:36.056211 19821 net.cpp:148] Top shape: 24 512 14 14 (2408448)
I0403 19:25:36.056228 19821 net.cpp:148] Top shape: 24 512 14 14 (2408448)
I0403 19:25:36.056244 19821 net.cpp:148] Top shape: 24 512 14 14 (2408448)
I0403 19:25:36.056260 19821 net.cpp:148] Top shape: 24 512 14 14 (2408448)
I0403 19:25:36.056274 19821 net.cpp:156] Memory required for data: 1028392224
I0403 19:25:36.056288 19821 layer_factory.hpp:77] Creating layer inception_4c/1x1
I0403 19:25:36.056310 19821 net.cpp:91] Creating Layer inception_4c/1x1
I0403 19:25:36.056327 19821 net.cpp:425] inception_4c/1x1 <- inception_4b/output_inception_4b/output_0_split_0
I0403 19:25:36.056346 19821 net.cpp:399] inception_4c/1x1 -> inception_4c/1x1
I0403 19:25:36.057777 19821 net.cpp:141] Setting up inception_4c/1x1
I0403 19:25:36.057806 19821 net.cpp:148] Top shape: 24 128 14 14 (602112)
I0403 19:25:36.057821 19821 net.cpp:156] Memory required for data: 1030800672
I0403 19:25:36.057840 19821 layer_factory.hpp:77] Creating layer inception_4c/relu_1x1
I0403 19:25:36.057862 19821 net.cpp:91] Creating Layer inception_4c/relu_1x1
I0403 19:25:36.057878 19821 net.cpp:425] inception_4c/relu_1x1 <- inception_4c/1x1
I0403 19:25:36.057895 19821 net.cpp:386] inception_4c/relu_1x1 -> inception_4c/1x1 (in-place)
I0403 19:25:36.058082 19821 net.cpp:141] Setting up inception_4c/relu_1x1
I0403 19:25:36.058109 19821 net.cpp:148] Top shape: 24 128 14 14 (602112)
I0403 19:25:36.058125 19821 net.cpp:156] Memory required for data: 1033209120
I0403 19:25:36.058140 19821 layer_factory.hpp:77] Creating layer inception_4c/3x3_reduce
I0403 19:25:36.058161 19821 net.cpp:91] Creating Layer inception_4c/3x3_reduce
I0403 19:25:36.058178 19821 net.cpp:425] inception_4c/3x3_reduce <- inception_4b/output_inception_4b/output_0_split_1
I0403 19:25:36.058197 19821 net.cpp:399] inception_4c/3x3_reduce -> inception_4c/3x3_reduce
I0403 19:25:36.060155 19821 net.cpp:141] Setting up inception_4c/3x3_reduce
I0403 19:25:36.060185 19821 net.cpp:148] Top shape: 24 128 14 14 (602112)
I0403 19:25:36.060202 19821 net.cpp:156] Memory required for data: 1035617568
I0403 19:25:36.060220 19821 layer_factory.hpp:77] Creating layer inception_4c/relu_3x3_reduce
I0403 19:25:36.060240 19821 net.cpp:91] Creating Layer inception_4c/relu_3x3_reduce
I0403 19:25:36.060256 19821 net.cpp:425] inception_4c/relu_3x3_reduce <- inception_4c/3x3_reduce
I0403 19:25:36.060276 19821 net.cpp:386] inception_4c/relu_3x3_reduce -> inception_4c/3x3_reduce (in-place)
I0403 19:25:36.060565 19821 net.cpp:141] Setting up inception_4c/relu_3x3_reduce
I0403 19:25:36.060591 19821 net.cpp:148] Top shape: 24 128 14 14 (602112)
I0403 19:25:36.060606 19821 net.cpp:156] Memory required for data: 1038026016
I0403 19:25:36.060621 19821 layer_factory.hpp:77] Creating layer inception_4c/3x3
I0403 19:25:36.060645 19821 net.cpp:91] Creating Layer inception_4c/3x3
I0403 19:25:36.060663 19821 net.cpp:425] inception_4c/3x3 <- inception_4c/3x3_reduce
I0403 19:25:36.060685 19821 net.cpp:399] inception_4c/3x3 -> inception_4c/3x3
I0403 19:25:36.064311 19821 net.cpp:141] Setting up inception_4c/3x3
I0403 19:25:36.064352 19821 net.cpp:148] Top shape: 24 256 14 14 (1204224)
I0403 19:25:36.064368 19821 net.cpp:156] Memory required for data: 1042842912
I0403 19:25:36.064399 19821 layer_factory.hpp:77] Creating layer inception_4c/relu_3x3
I0403 19:25:36.064420 19821 net.cpp:91] Creating Layer inception_4c/relu_3x3
I0403 19:25:36.064436 19821 net.cpp:425] inception_4c/relu_3x3 <- inception_4c/3x3
I0403 19:25:36.064456 19821 net.cpp:386] inception_4c/relu_3x3 -> inception_4c/3x3 (in-place)
I0403 19:25:36.064636 19821 net.cpp:141] Setting up inception_4c/relu_3x3
I0403 19:25:36.064661 19821 net.cpp:148] Top shape: 24 256 14 14 (1204224)
I0403 19:25:36.064676 19821 net.cpp:156] Memory required for data: 1047659808
I0403 19:25:36.064690 19821 layer_factory.hpp:77] Creating layer inception_4c/5x5_reduce
I0403 19:25:36.064713 19821 net.cpp:91] Creating Layer inception_4c/5x5_reduce
I0403 19:25:36.064730 19821 net.cpp:425] inception_4c/5x5_reduce <- inception_4b/output_inception_4b/output_0_split_2
I0403 19:25:36.064751 19821 net.cpp:399] inception_4c/5x5_reduce -> inception_4c/5x5_reduce
I0403 19:25:36.065834 19821 net.cpp:141] Setting up inception_4c/5x5_reduce
I0403 19:25:36.065862 19821 net.cpp:148] Top shape: 24 24 14 14 (112896)
I0403 19:25:36.065877 19821 net.cpp:156] Memory required for data: 1048111392
I0403 19:25:36.065896 19821 layer_factory.hpp:77] Creating layer inception_4c/relu_5x5_reduce
I0403 19:25:36.065914 19821 net.cpp:91] Creating Layer inception_4c/relu_5x5_reduce
I0403 19:25:36.065930 19821 net.cpp:425] inception_4c/relu_5x5_reduce <- inception_4c/5x5_reduce
I0403 19:25:36.065953 19821 net.cpp:386] inception_4c/relu_5x5_reduce -> inception_4c/5x5_reduce (in-place)
I0403 19:25:36.066140 19821 net.cpp:141] Setting up inception_4c/relu_5x5_reduce
I0403 19:25:36.066164 19821 net.cpp:148] Top shape: 24 24 14 14 (112896)
I0403 19:25:36.066179 19821 net.cpp:156] Memory required for data: 1048562976
I0403 19:25:36.066195 19821 layer_factory.hpp:77] Creating layer inception_4c/5x5
I0403 19:25:36.066217 19821 net.cpp:91] Creating Layer inception_4c/5x5
I0403 19:25:36.066233 19821 net.cpp:425] inception_4c/5x5 <- inception_4c/5x5_reduce
I0403 19:25:36.066254 19821 net.cpp:399] inception_4c/5x5 -> inception_4c/5x5
I0403 19:25:36.067490 19821 net.cpp:141] Setting up inception_4c/5x5
I0403 19:25:36.067517 19821 net.cpp:148] Top shape: 24 64 14 14 (301056)
I0403 19:25:36.067533 19821 net.cpp:156] Memory required for data: 1049767200
I0403 19:25:36.067551 19821 layer_factory.hpp:77] Creating layer inception_4c/relu_5x5
I0403 19:25:36.067571 19821 net.cpp:91] Creating Layer inception_4c/relu_5x5
I0403 19:25:36.067589 19821 net.cpp:425] inception_4c/relu_5x5 <- inception_4c/5x5
I0403 19:25:36.067605 19821 net.cpp:386] inception_4c/relu_5x5 -> inception_4c/5x5 (in-place)
I0403 19:25:36.067891 19821 net.cpp:141] Setting up inception_4c/relu_5x5
I0403 19:25:36.067917 19821 net.cpp:148] Top shape: 24 64 14 14 (301056)
I0403 19:25:36.067932 19821 net.cpp:156] Memory required for data: 1050971424
I0403 19:25:36.067950 19821 layer_factory.hpp:77] Creating layer inception_4c/pool
I0403 19:25:36.067972 19821 net.cpp:91] Creating Layer inception_4c/pool
I0403 19:25:36.068001 19821 net.cpp:425] inception_4c/pool <- inception_4b/output_inception_4b/output_0_split_3
I0403 19:25:36.068022 19821 net.cpp:399] inception_4c/pool -> inception_4c/pool
I0403 19:25:36.068091 19821 net.cpp:141] Setting up inception_4c/pool
I0403 19:25:36.068115 19821 net.cpp:148] Top shape: 24 512 14 14 (2408448)
I0403 19:25:36.068130 19821 net.cpp:156] Memory required for data: 1060605216
I0403 19:25:36.068145 19821 layer_factory.hpp:77] Creating layer inception_4c/pool_proj
I0403 19:25:36.068166 19821 net.cpp:91] Creating Layer inception_4c/pool_proj
I0403 19:25:36.068184 19821 net.cpp:425] inception_4c/pool_proj <- inception_4c/pool
I0403 19:25:36.068205 19821 net.cpp:399] inception_4c/pool_proj -> inception_4c/pool_proj
I0403 19:25:36.069447 19821 net.cpp:141] Setting up inception_4c/pool_proj
I0403 19:25:36.069474 19821 net.cpp:148] Top shape: 24 64 14 14 (301056)
I0403 19:25:36.069504 19821 net.cpp:156] Memory required for data: 1061809440
I0403 19:25:36.069524 19821 layer_factory.hpp:77] Creating layer inception_4c/relu_pool_proj
I0403 19:25:36.069542 19821 net.cpp:91] Creating Layer inception_4c/relu_pool_proj
I0403 19:25:36.069558 19821 net.cpp:425] inception_4c/relu_pool_proj <- inception_4c/pool_proj
I0403 19:25:36.069578 19821 net.cpp:386] inception_4c/relu_pool_proj -> inception_4c/pool_proj (in-place)
I0403 19:25:36.069761 19821 net.cpp:141] Setting up inception_4c/relu_pool_proj
I0403 19:25:36.069785 19821 net.cpp:148] Top shape: 24 64 14 14 (301056)
I0403 19:25:36.069800 19821 net.cpp:156] Memory required for data: 1063013664
I0403 19:25:36.069814 19821 layer_factory.hpp:77] Creating layer inception_4c/output
I0403 19:25:36.069833 19821 net.cpp:91] Creating Layer inception_4c/output
I0403 19:25:36.069849 19821 net.cpp:425] inception_4c/output <- inception_4c/1x1
I0403 19:25:36.069867 19821 net.cpp:425] inception_4c/output <- inception_4c/3x3
I0403 19:25:36.069883 19821 net.cpp:425] inception_4c/output <- inception_4c/5x5
I0403 19:25:36.069900 19821 net.cpp:425] inception_4c/output <- inception_4c/pool_proj
I0403 19:25:36.069916 19821 net.cpp:399] inception_4c/output -> inception_4c/output
I0403 19:25:36.069968 19821 net.cpp:141] Setting up inception_4c/output
I0403 19:25:36.069991 19821 net.cpp:148] Top shape: 24 512 14 14 (2408448)
I0403 19:25:36.070006 19821 net.cpp:156] Memory required for data: 1072647456
I0403 19:25:36.070020 19821 layer_factory.hpp:77] Creating layer inception_4c/output_inception_4c/output_0_split
I0403 19:25:36.070037 19821 net.cpp:91] Creating Layer inception_4c/output_inception_4c/output_0_split
I0403 19:25:36.070053 19821 net.cpp:425] inception_4c/output_inception_4c/output_0_split <- inception_4c/output
I0403 19:25:36.070072 19821 net.cpp:399] inception_4c/output_inception_4c/output_0_split -> inception_4c/output_inception_4c/output_0_split_0
I0403 19:25:36.070093 19821 net.cpp:399] inception_4c/output_inception_4c/output_0_split -> inception_4c/output_inception_4c/output_0_split_1
I0403 19:25:36.070113 19821 net.cpp:399] inception_4c/output_inception_4c/output_0_split -> inception_4c/output_inception_4c/output_0_split_2
I0403 19:25:36.070134 19821 net.cpp:399] inception_4c/output_inception_4c/output_0_split -> inception_4c/output_inception_4c/output_0_split_3
I0403 19:25:36.070222 19821 net.cpp:141] Setting up inception_4c/output_inception_4c/output_0_split
I0403 19:25:36.070247 19821 net.cpp:148] Top shape: 24 512 14 14 (2408448)
I0403 19:25:36.070263 19821 net.cpp:148] Top shape: 24 512 14 14 (2408448)
I0403 19:25:36.070279 19821 net.cpp:148] Top shape: 24 512 14 14 (2408448)
I0403 19:25:36.070296 19821 net.cpp:148] Top shape: 24 512 14 14 (2408448)
I0403 19:25:36.070308 19821 net.cpp:156] Memory required for data: 1111182624
I0403 19:25:36.070322 19821 layer_factory.hpp:77] Creating layer inception_4d/1x1
I0403 19:25:36.070344 19821 net.cpp:91] Creating Layer inception_4d/1x1
I0403 19:25:36.070361 19821 net.cpp:425] inception_4d/1x1 <- inception_4c/output_inception_4c/output_0_split_0
I0403 19:25:36.070380 19821 net.cpp:399] inception_4d/1x1 -> inception_4d/1x1
I0403 19:25:36.071753 19821 net.cpp:141] Setting up inception_4d/1x1
I0403 19:25:36.071780 19821 net.cpp:148] Top shape: 24 112 14 14 (526848)
I0403 19:25:36.071796 19821 net.cpp:156] Memory required for data: 1113290016
I0403 19:25:36.071816 19821 layer_factory.hpp:77] Creating layer inception_4d/relu_1x1
I0403 19:25:36.071835 19821 net.cpp:91] Creating Layer inception_4d/relu_1x1
I0403 19:25:36.071851 19821 net.cpp:425] inception_4d/relu_1x1 <- inception_4d/1x1
I0403 19:25:36.071869 19821 net.cpp:386] inception_4d/relu_1x1 -> inception_4d/1x1 (in-place)
I0403 19:25:36.072063 19821 net.cpp:141] Setting up inception_4d/relu_1x1
I0403 19:25:36.072088 19821 net.cpp:148] Top shape: 24 112 14 14 (526848)
I0403 19:25:36.072103 19821 net.cpp:156] Memory required for data: 1115397408
I0403 19:25:36.072118 19821 layer_factory.hpp:77] Creating layer inception_4d/3x3_reduce
I0403 19:25:36.072154 19821 net.cpp:91] Creating Layer inception_4d/3x3_reduce
I0403 19:25:36.072173 19821 net.cpp:425] inception_4d/3x3_reduce <- inception_4c/output_inception_4c/output_0_split_1
I0403 19:25:36.072196 19821 net.cpp:399] inception_4d/3x3_reduce -> inception_4d/3x3_reduce
I0403 19:25:36.073762 19821 net.cpp:141] Setting up inception_4d/3x3_reduce
I0403 19:25:36.073791 19821 net.cpp:148] Top shape: 24 144 14 14 (677376)
I0403 19:25:36.073806 19821 net.cpp:156] Memory required for data: 1118106912
I0403 19:25:36.073824 19821 layer_factory.hpp:77] Creating layer inception_4d/relu_3x3_reduce
I0403 19:25:36.073846 19821 net.cpp:91] Creating Layer inception_4d/relu_3x3_reduce
I0403 19:25:36.073864 19821 net.cpp:425] inception_4d/relu_3x3_reduce <- inception_4d/3x3_reduce
I0403 19:25:36.073882 19821 net.cpp:386] inception_4d/relu_3x3_reduce -> inception_4d/3x3_reduce (in-place)
I0403 19:25:36.074188 19821 net.cpp:141] Setting up inception_4d/relu_3x3_reduce
I0403 19:25:36.074216 19821 net.cpp:148] Top shape: 24 144 14 14 (677376)
I0403 19:25:36.074231 19821 net.cpp:156] Memory required for data: 1120816416
I0403 19:25:36.074246 19821 layer_factory.hpp:77] Creating layer inception_4d/3x3
I0403 19:25:36.074270 19821 net.cpp:91] Creating Layer inception_4d/3x3
I0403 19:25:36.074288 19821 net.cpp:425] inception_4d/3x3 <- inception_4d/3x3_reduce
I0403 19:25:36.074311 19821 net.cpp:399] inception_4d/3x3 -> inception_4d/3x3
I0403 19:25:36.078680 19821 net.cpp:141] Setting up inception_4d/3x3
I0403 19:25:36.078713 19821 net.cpp:148] Top shape: 24 288 14 14 (1354752)
I0403 19:25:36.078729 19821 net.cpp:156] Memory required for data: 1126235424
I0403 19:25:36.078748 19821 layer_factory.hpp:77] Creating layer inception_4d/relu_3x3
I0403 19:25:36.078768 19821 net.cpp:91] Creating Layer inception_4d/relu_3x3
I0403 19:25:36.078785 19821 net.cpp:425] inception_4d/relu_3x3 <- inception_4d/3x3
I0403 19:25:36.078804 19821 net.cpp:386] inception_4d/relu_3x3 -> inception_4d/3x3 (in-place)
I0403 19:25:36.079010 19821 net.cpp:141] Setting up inception_4d/relu_3x3
I0403 19:25:36.079035 19821 net.cpp:148] Top shape: 24 288 14 14 (1354752)
I0403 19:25:36.079051 19821 net.cpp:156] Memory required for data: 1131654432
I0403 19:25:36.079066 19821 layer_factory.hpp:77] Creating layer inception_4d/5x5_reduce
I0403 19:25:36.079088 19821 net.cpp:91] Creating Layer inception_4d/5x5_reduce
I0403 19:25:36.079107 19821 net.cpp:425] inception_4d/5x5_reduce <- inception_4c/output_inception_4c/output_0_split_2
I0403 19:25:36.079130 19821 net.cpp:399] inception_4d/5x5_reduce -> inception_4d/5x5_reduce
I0403 19:25:36.080304 19821 net.cpp:141] Setting up inception_4d/5x5_reduce
I0403 19:25:36.080334 19821 net.cpp:148] Top shape: 24 32 14 14 (150528)
I0403 19:25:36.080351 19821 net.cpp:156] Memory required for data: 1132256544
I0403 19:25:36.080371 19821 layer_factory.hpp:77] Creating layer inception_4d/relu_5x5_reduce
I0403 19:25:36.080389 19821 net.cpp:91] Creating Layer inception_4d/relu_5x5_reduce
I0403 19:25:36.080406 19821 net.cpp:425] inception_4d/relu_5x5_reduce <- inception_4d/5x5_reduce
I0403 19:25:36.080426 19821 net.cpp:386] inception_4d/relu_5x5_reduce -> inception_4d/5x5_reduce (in-place)
I0403 19:25:36.080617 19821 net.cpp:141] Setting up inception_4d/relu_5x5_reduce
I0403 19:25:36.080642 19821 net.cpp:148] Top shape: 24 32 14 14 (150528)
I0403 19:25:36.080658 19821 net.cpp:156] Memory required for data: 1132858656
I0403 19:25:36.080673 19821 layer_factory.hpp:77] Creating layer inception_4d/5x5
I0403 19:25:36.080695 19821 net.cpp:91] Creating Layer inception_4d/5x5
I0403 19:25:36.080713 19821 net.cpp:425] inception_4d/5x5 <- inception_4d/5x5_reduce
I0403 19:25:36.080735 19821 net.cpp:399] inception_4d/5x5 -> inception_4d/5x5
I0403 19:25:36.082250 19821 net.cpp:141] Setting up inception_4d/5x5
I0403 19:25:36.082278 19821 net.cpp:148] Top shape: 24 64 14 14 (301056)
I0403 19:25:36.082294 19821 net.cpp:156] Memory required for data: 1134062880
I0403 19:25:36.082314 19821 layer_factory.hpp:77] Creating layer inception_4d/relu_5x5
I0403 19:25:36.082351 19821 net.cpp:91] Creating Layer inception_4d/relu_5x5
I0403 19:25:36.082370 19821 net.cpp:425] inception_4d/relu_5x5 <- inception_4d/5x5
I0403 19:25:36.082388 19821 net.cpp:386] inception_4d/relu_5x5 -> inception_4d/5x5 (in-place)
I0403 19:25:36.082697 19821 net.cpp:141] Setting up inception_4d/relu_5x5
I0403 19:25:36.082723 19821 net.cpp:148] Top shape: 24 64 14 14 (301056)
I0403 19:25:36.082738 19821 net.cpp:156] Memory required for data: 1135267104
I0403 19:25:36.082753 19821 layer_factory.hpp:77] Creating layer inception_4d/pool
I0403 19:25:36.082772 19821 net.cpp:91] Creating Layer inception_4d/pool
I0403 19:25:36.082788 19821 net.cpp:425] inception_4d/pool <- inception_4c/output_inception_4c/output_0_split_3
I0403 19:25:36.082810 19821 net.cpp:399] inception_4d/pool -> inception_4d/pool
I0403 19:25:36.082880 19821 net.cpp:141] Setting up inception_4d/pool
I0403 19:25:36.082906 19821 net.cpp:148] Top shape: 24 512 14 14 (2408448)
I0403 19:25:36.082919 19821 net.cpp:156] Memory required for data: 1144900896
I0403 19:25:36.082936 19821 layer_factory.hpp:77] Creating layer inception_4d/pool_proj
I0403 19:25:36.082964 19821 net.cpp:91] Creating Layer inception_4d/pool_proj
I0403 19:25:36.082983 19821 net.cpp:425] inception_4d/pool_proj <- inception_4d/pool
I0403 19:25:36.083003 19821 net.cpp:399] inception_4d/pool_proj -> inception_4d/pool_proj
I0403 19:25:36.084806 19821 net.cpp:141] Setting up inception_4d/pool_proj
I0403 19:25:36.084839 19821 net.cpp:148] Top shape: 24 64 14 14 (301056)
I0403 19:25:36.084856 19821 net.cpp:156] Memory required for data: 1146105120
I0403 19:25:36.084875 19821 layer_factory.hpp:77] Creating layer inception_4d/relu_pool_proj
I0403 19:25:36.084894 19821 net.cpp:91] Creating Layer inception_4d/relu_pool_proj
I0403 19:25:36.084911 19821 net.cpp:425] inception_4d/relu_pool_proj <- inception_4d/pool_proj
I0403 19:25:36.084928 19821 net.cpp:386] inception_4d/relu_pool_proj -> inception_4d/pool_proj (in-place)
I0403 19:25:36.085125 19821 net.cpp:141] Setting up inception_4d/relu_pool_proj
I0403 19:25:36.085151 19821 net.cpp:148] Top shape: 24 64 14 14 (301056)
I0403 19:25:36.085166 19821 net.cpp:156] Memory required for data: 1147309344
I0403 19:25:36.085181 19821 layer_factory.hpp:77] Creating layer inception_4d/output
I0403 19:25:36.085199 19821 net.cpp:91] Creating Layer inception_4d/output
I0403 19:25:36.085216 19821 net.cpp:425] inception_4d/output <- inception_4d/1x1
I0403 19:25:36.085232 19821 net.cpp:425] inception_4d/output <- inception_4d/3x3
I0403 19:25:36.085248 19821 net.cpp:425] inception_4d/output <- inception_4d/5x5
I0403 19:25:36.085264 19821 net.cpp:425] inception_4d/output <- inception_4d/pool_proj
I0403 19:25:36.085284 19821 net.cpp:399] inception_4d/output -> inception_4d/output
I0403 19:25:36.085335 19821 net.cpp:141] Setting up inception_4d/output
I0403 19:25:36.085360 19821 net.cpp:148] Top shape: 24 528 14 14 (2483712)
I0403 19:25:36.085376 19821 net.cpp:156] Memory required for data: 1157244192
I0403 19:25:36.085391 19821 layer_factory.hpp:77] Creating layer inception_4d/output_inception_4d/output_0_split
I0403 19:25:36.085409 19821 net.cpp:91] Creating Layer inception_4d/output_inception_4d/output_0_split
I0403 19:25:36.085425 19821 net.cpp:425] inception_4d/output_inception_4d/output_0_split <- inception_4d/output
I0403 19:25:36.085446 19821 net.cpp:399] inception_4d/output_inception_4d/output_0_split -> inception_4d/output_inception_4d/output_0_split_0
I0403 19:25:36.085469 19821 net.cpp:399] inception_4d/output_inception_4d/output_0_split -> inception_4d/output_inception_4d/output_0_split_1
I0403 19:25:36.085490 19821 net.cpp:399] inception_4d/output_inception_4d/output_0_split -> inception_4d/output_inception_4d/output_0_split_2
I0403 19:25:36.085511 19821 net.cpp:399] inception_4d/output_inception_4d/output_0_split -> inception_4d/output_inception_4d/output_0_split_3
I0403 19:25:36.085532 19821 net.cpp:399] inception_4d/output_inception_4d/output_0_split -> inception_4d/output_inception_4d/output_0_split_4
I0403 19:25:36.085638 19821 net.cpp:141] Setting up inception_4d/output_inception_4d/output_0_split
I0403 19:25:36.085674 19821 net.cpp:148] Top shape: 24 528 14 14 (2483712)
I0403 19:25:36.085691 19821 net.cpp:148] Top shape: 24 528 14 14 (2483712)
I0403 19:25:36.085707 19821 net.cpp:148] Top shape: 24 528 14 14 (2483712)
I0403 19:25:36.085722 19821 net.cpp:148] Top shape: 24 528 14 14 (2483712)
I0403 19:25:36.085738 19821 net.cpp:148] Top shape: 24 528 14 14 (2483712)
I0403 19:25:36.085752 19821 net.cpp:156] Memory required for data: 1206918432
I0403 19:25:36.085767 19821 layer_factory.hpp:77] Creating layer loss2/ave_pool
I0403 19:25:36.085788 19821 net.cpp:91] Creating Layer loss2/ave_pool
I0403 19:25:36.085806 19821 net.cpp:425] loss2/ave_pool <- inception_4d/output_inception_4d/output_0_split_0
I0403 19:25:36.085824 19821 net.cpp:399] loss2/ave_pool -> loss2/ave_pool
I0403 19:25:36.086148 19821 net.cpp:141] Setting up loss2/ave_pool
I0403 19:25:36.086177 19821 net.cpp:148] Top shape: 24 528 4 4 (202752)
I0403 19:25:36.086194 19821 net.cpp:156] Memory required for data: 1207729440
I0403 19:25:36.086211 19821 layer_factory.hpp:77] Creating layer loss2/conv
I0403 19:25:36.086235 19821 net.cpp:91] Creating Layer loss2/conv
I0403 19:25:36.086252 19821 net.cpp:425] loss2/conv <- loss2/ave_pool
I0403 19:25:36.086272 19821 net.cpp:399] loss2/conv -> loss2/conv
I0403 19:25:36.088227 19821 net.cpp:141] Setting up loss2/conv
I0403 19:25:36.088256 19821 net.cpp:148] Top shape: 24 128 4 4 (49152)
I0403 19:25:36.088274 19821 net.cpp:156] Memory required for data: 1207926048
I0403 19:25:36.088292 19821 layer_factory.hpp:77] Creating layer loss2/relu_conv
I0403 19:25:36.088315 19821 net.cpp:91] Creating Layer loss2/relu_conv
I0403 19:25:36.088333 19821 net.cpp:425] loss2/relu_conv <- loss2/conv
I0403 19:25:36.088351 19821 net.cpp:386] loss2/relu_conv -> loss2/conv (in-place)
I0403 19:25:36.088642 19821 net.cpp:141] Setting up loss2/relu_conv
I0403 19:25:36.088670 19821 net.cpp:148] Top shape: 24 128 4 4 (49152)
I0403 19:25:36.088685 19821 net.cpp:156] Memory required for data: 1208122656
I0403 19:25:36.088701 19821 layer_factory.hpp:77] Creating layer loss2/fc
I0403 19:25:36.088723 19821 net.cpp:91] Creating Layer loss2/fc
I0403 19:25:36.088742 19821 net.cpp:425] loss2/fc <- loss2/conv
I0403 19:25:36.088760 19821 net.cpp:399] loss2/fc -> loss2/fc
I0403 19:25:36.106457 19821 net.cpp:141] Setting up loss2/fc
I0403 19:25:36.106495 19821 net.cpp:148] Top shape: 24 1024 (24576)
I0403 19:25:36.106510 19821 net.cpp:156] Memory required for data: 1208220960
I0403 19:25:36.106528 19821 layer_factory.hpp:77] Creating layer loss2/relu_fc
I0403 19:25:36.106547 19821 net.cpp:91] Creating Layer loss2/relu_fc
I0403 19:25:36.106564 19821 net.cpp:425] loss2/relu_fc <- loss2/fc
I0403 19:25:36.106585 19821 net.cpp:386] loss2/relu_fc -> loss2/fc (in-place)
I0403 19:25:36.106885 19821 net.cpp:141] Setting up loss2/relu_fc
I0403 19:25:36.106914 19821 net.cpp:148] Top shape: 24 1024 (24576)
I0403 19:25:36.106930 19821 net.cpp:156] Memory required for data: 1208319264
I0403 19:25:36.106945 19821 layer_factory.hpp:77] Creating layer loss2/drop_fc
I0403 19:25:36.106967 19821 net.cpp:91] Creating Layer loss2/drop_fc
I0403 19:25:36.106983 19821 net.cpp:425] loss2/drop_fc <- loss2/fc
I0403 19:25:36.107004 19821 net.cpp:386] loss2/drop_fc -> loss2/fc (in-place)
I0403 19:25:36.107054 19821 net.cpp:141] Setting up loss2/drop_fc
I0403 19:25:36.107076 19821 net.cpp:148] Top shape: 24 1024 (24576)
I0403 19:25:36.107090 19821 net.cpp:156] Memory required for data: 1208417568
I0403 19:25:36.107105 19821 layer_factory.hpp:77] Creating layer loss2/classifier_plantvillage
I0403 19:25:36.107125 19821 net.cpp:91] Creating Layer loss2/classifier_plantvillage
I0403 19:25:36.107141 19821 net.cpp:425] loss2/classifier_plantvillage <- loss2/fc
I0403 19:25:36.107162 19821 net.cpp:399] loss2/classifier_plantvillage -> loss2/classifier_plantvillage
I0403 19:25:36.107565 19821 net.cpp:141] Setting up loss2/classifier_plantvillage
I0403 19:25:36.107589 19821 net.cpp:148] Top shape: 24 38 (912)
I0403 19:25:36.107620 19821 net.cpp:156] Memory required for data: 1208421216
I0403 19:25:36.107640 19821 layer_factory.hpp:77] Creating layer loss2/classifier_plantvillage_loss2/classifier_plantvillage_0_split
I0403 19:25:36.107662 19821 net.cpp:91] Creating Layer loss2/classifier_plantvillage_loss2/classifier_plantvillage_0_split
I0403 19:25:36.107679 19821 net.cpp:425] loss2/classifier_plantvillage_loss2/classifier_plantvillage_0_split <- loss2/classifier_plantvillage
I0403 19:25:36.107698 19821 net.cpp:399] loss2/classifier_plantvillage_loss2/classifier_plantvillage_0_split -> loss2/classifier_plantvillage_loss2/classifier_plantvillage_0_split_0
I0403 19:25:36.107717 19821 net.cpp:399] loss2/classifier_plantvillage_loss2/classifier_plantvillage_0_split -> loss2/classifier_plantvillage_loss2/classifier_plantvillage_0_split_1
I0403 19:25:36.107738 19821 net.cpp:399] loss2/classifier_plantvillage_loss2/classifier_plantvillage_0_split -> loss2/classifier_plantvillage_loss2/classifier_plantvillage_0_split_2
I0403 19:25:36.107817 19821 net.cpp:141] Setting up loss2/classifier_plantvillage_loss2/classifier_plantvillage_0_split
I0403 19:25:36.107841 19821 net.cpp:148] Top shape: 24 38 (912)
I0403 19:25:36.107856 19821 net.cpp:148] Top shape: 24 38 (912)
I0403 19:25:36.107872 19821 net.cpp:148] Top shape: 24 38 (912)
I0403 19:25:36.107885 19821 net.cpp:156] Memory required for data: 1208432160
I0403 19:25:36.107899 19821 layer_factory.hpp:77] Creating layer inception_4e/1x1
I0403 19:25:36.107919 19821 net.cpp:91] Creating Layer inception_4e/1x1
I0403 19:25:36.107936 19821 net.cpp:425] inception_4e/1x1 <- inception_4d/output_inception_4d/output_0_split_1
I0403 19:25:36.107962 19821 net.cpp:399] inception_4e/1x1 -> inception_4e/1x1
I0403 19:25:36.109789 19821 net.cpp:141] Setting up inception_4e/1x1
I0403 19:25:36.109817 19821 net.cpp:148] Top shape: 24 256 14 14 (1204224)
I0403 19:25:36.109833 19821 net.cpp:156] Memory required for data: 1213249056
I0403 19:25:36.109851 19821 layer_factory.hpp:77] Creating layer inception_4e/relu_1x1
I0403 19:25:36.109871 19821 net.cpp:91] Creating Layer inception_4e/relu_1x1
I0403 19:25:36.109889 19821 net.cpp:425] inception_4e/relu_1x1 <- inception_4e/1x1
I0403 19:25:36.109905 19821 net.cpp:386] inception_4e/relu_1x1 -> inception_4e/1x1 (in-place)
I0403 19:25:36.110204 19821 net.cpp:141] Setting up inception_4e/relu_1x1
I0403 19:25:36.110229 19821 net.cpp:148] Top shape: 24 256 14 14 (1204224)
I0403 19:25:36.110244 19821 net.cpp:156] Memory required for data: 1218065952
I0403 19:25:36.110260 19821 layer_factory.hpp:77] Creating layer inception_4e/3x3_reduce
I0403 19:25:36.110281 19821 net.cpp:91] Creating Layer inception_4e/3x3_reduce
I0403 19:25:36.110299 19821 net.cpp:425] inception_4e/3x3_reduce <- inception_4d/output_inception_4d/output_0_split_2
I0403 19:25:36.110321 19821 net.cpp:399] inception_4e/3x3_reduce -> inception_4e/3x3_reduce
I0403 19:25:36.112437 19821 net.cpp:141] Setting up inception_4e/3x3_reduce
I0403 19:25:36.112468 19821 net.cpp:148] Top shape: 24 160 14 14 (752640)
I0403 19:25:36.112483 19821 net.cpp:156] Memory required for data: 1221076512
I0403 19:25:36.112503 19821 layer_factory.hpp:77] Creating layer inception_4e/relu_3x3_reduce
I0403 19:25:36.112522 19821 net.cpp:91] Creating Layer inception_4e/relu_3x3_reduce
I0403 19:25:36.112540 19821 net.cpp:425] inception_4e/relu_3x3_reduce <- inception_4e/3x3_reduce
I0403 19:25:36.112558 19821 net.cpp:386] inception_4e/relu_3x3_reduce -> inception_4e/3x3_reduce (in-place)
I0403 19:25:36.112742 19821 net.cpp:141] Setting up inception_4e/relu_3x3_reduce
I0403 19:25:36.112767 19821 net.cpp:148] Top shape: 24 160 14 14 (752640)
I0403 19:25:36.112782 19821 net.cpp:156] Memory required for data: 1224087072
I0403 19:25:36.112797 19821 layer_factory.hpp:77] Creating layer inception_4e/3x3
I0403 19:25:36.112818 19821 net.cpp:91] Creating Layer inception_4e/3x3
I0403 19:25:36.112835 19821 net.cpp:425] inception_4e/3x3 <- inception_4e/3x3_reduce
I0403 19:25:36.112856 19821 net.cpp:399] inception_4e/3x3 -> inception_4e/3x3
I0403 19:25:36.117868 19821 net.cpp:141] Setting up inception_4e/3x3
I0403 19:25:36.117910 19821 net.cpp:148] Top shape: 24 320 14 14 (1505280)
I0403 19:25:36.117926 19821 net.cpp:156] Memory required for data: 1230108192
I0403 19:25:36.117949 19821 layer_factory.hpp:77] Creating layer inception_4e/relu_3x3
I0403 19:25:36.117971 19821 net.cpp:91] Creating Layer inception_4e/relu_3x3
I0403 19:25:36.117990 19821 net.cpp:425] inception_4e/relu_3x3 <- inception_4e/3x3
I0403 19:25:36.118006 19821 net.cpp:386] inception_4e/relu_3x3 -> inception_4e/3x3 (in-place)
I0403 19:25:36.118311 19821 net.cpp:141] Setting up inception_4e/relu_3x3
I0403 19:25:36.118340 19821 net.cpp:148] Top shape: 24 320 14 14 (1505280)
I0403 19:25:36.118356 19821 net.cpp:156] Memory required for data: 1236129312
I0403 19:25:36.118371 19821 layer_factory.hpp:77] Creating layer inception_4e/5x5_reduce
I0403 19:25:36.118396 19821 net.cpp:91] Creating Layer inception_4e/5x5_reduce
I0403 19:25:36.118412 19821 net.cpp:425] inception_4e/5x5_reduce <- inception_4d/output_inception_4d/output_0_split_3
I0403 19:25:36.118432 19821 net.cpp:399] inception_4e/5x5_reduce -> inception_4e/5x5_reduce
I0403 19:25:36.119515 19821 net.cpp:141] Setting up inception_4e/5x5_reduce
I0403 19:25:36.119542 19821 net.cpp:148] Top shape: 24 32 14 14 (150528)
I0403 19:25:36.119557 19821 net.cpp:156] Memory required for data: 1236731424
I0403 19:25:36.119576 19821 layer_factory.hpp:77] Creating layer inception_4e/relu_5x5_reduce
I0403 19:25:36.119596 19821 net.cpp:91] Creating Layer inception_4e/relu_5x5_reduce
I0403 19:25:36.119611 19821 net.cpp:425] inception_4e/relu_5x5_reduce <- inception_4e/5x5_reduce
I0403 19:25:36.119631 19821 net.cpp:386] inception_4e/relu_5x5_reduce -> inception_4e/5x5_reduce (in-place)
I0403 19:25:36.119931 19821 net.cpp:141] Setting up inception_4e/relu_5x5_reduce
I0403 19:25:36.119961 19821 net.cpp:148] Top shape: 24 32 14 14 (150528)
I0403 19:25:36.119977 19821 net.cpp:156] Memory required for data: 1237333536
I0403 19:25:36.119993 19821 layer_factory.hpp:77] Creating layer inception_4e/5x5
I0403 19:25:36.120030 19821 net.cpp:91] Creating Layer inception_4e/5x5
I0403 19:25:36.120049 19821 net.cpp:425] inception_4e/5x5 <- inception_4e/5x5_reduce
I0403 19:25:36.120069 19821 net.cpp:399] inception_4e/5x5 -> inception_4e/5x5
I0403 19:25:36.121922 19821 net.cpp:141] Setting up inception_4e/5x5
I0403 19:25:36.121953 19821 net.cpp:148] Top shape: 24 128 14 14 (602112)
I0403 19:25:36.121969 19821 net.cpp:156] Memory required for data: 1239741984
I0403 19:25:36.121989 19821 layer_factory.hpp:77] Creating layer inception_4e/relu_5x5
I0403 19:25:36.122007 19821 net.cpp:91] Creating Layer inception_4e/relu_5x5
I0403 19:25:36.122023 19821 net.cpp:425] inception_4e/relu_5x5 <- inception_4e/5x5
I0403 19:25:36.122043 19821 net.cpp:386] inception_4e/relu_5x5 -> inception_4e/5x5 (in-place)
I0403 19:25:36.122246 19821 net.cpp:141] Setting up inception_4e/relu_5x5
I0403 19:25:36.122272 19821 net.cpp:148] Top shape: 24 128 14 14 (602112)
I0403 19:25:36.122287 19821 net.cpp:156] Memory required for data: 1242150432
I0403 19:25:36.122301 19821 layer_factory.hpp:77] Creating layer inception_4e/pool
I0403 19:25:36.122323 19821 net.cpp:91] Creating Layer inception_4e/pool
I0403 19:25:36.122339 19821 net.cpp:425] inception_4e/pool <- inception_4d/output_inception_4d/output_0_split_4
I0403 19:25:36.122357 19821 net.cpp:399] inception_4e/pool -> inception_4e/pool
I0403 19:25:36.122428 19821 net.cpp:141] Setting up inception_4e/pool
I0403 19:25:36.122452 19821 net.cpp:148] Top shape: 24 528 14 14 (2483712)
I0403 19:25:36.122465 19821 net.cpp:156] Memory required for data: 1252085280
I0403 19:25:36.122480 19821 layer_factory.hpp:77] Creating layer inception_4e/pool_proj
I0403 19:25:36.122503 19821 net.cpp:91] Creating Layer inception_4e/pool_proj
I0403 19:25:36.122520 19821 net.cpp:425] inception_4e/pool_proj <- inception_4e/pool
I0403 19:25:36.122541 19821 net.cpp:399] inception_4e/pool_proj -> inception_4e/pool_proj
I0403 19:25:36.124053 19821 net.cpp:141] Setting up inception_4e/pool_proj
I0403 19:25:36.124094 19821 net.cpp:148] Top shape: 24 128 14 14 (602112)
I0403 19:25:36.124110 19821 net.cpp:156] Memory required for data: 1254493728
I0403 19:25:36.124130 19821 layer_factory.hpp:77] Creating layer inception_4e/relu_pool_proj
I0403 19:25:36.124148 19821 net.cpp:91] Creating Layer inception_4e/relu_pool_proj
I0403 19:25:36.124166 19821 net.cpp:425] inception_4e/relu_pool_proj <- inception_4e/pool_proj
I0403 19:25:36.124184 19821 net.cpp:386] inception_4e/relu_pool_proj -> inception_4e/pool_proj (in-place)
I0403 19:25:36.124475 19821 net.cpp:141] Setting up inception_4e/relu_pool_proj
I0403 19:25:36.124503 19821 net.cpp:148] Top shape: 24 128 14 14 (602112)
I0403 19:25:36.124518 19821 net.cpp:156] Memory required for data: 1256902176
I0403 19:25:36.124533 19821 layer_factory.hpp:77] Creating layer inception_4e/output
I0403 19:25:36.124552 19821 net.cpp:91] Creating Layer inception_4e/output
I0403 19:25:36.124567 19821 net.cpp:425] inception_4e/output <- inception_4e/1x1
I0403 19:25:36.124583 19821 net.cpp:425] inception_4e/output <- inception_4e/3x3
I0403 19:25:36.124599 19821 net.cpp:425] inception_4e/output <- inception_4e/5x5
I0403 19:25:36.124615 19821 net.cpp:425] inception_4e/output <- inception_4e/pool_proj
I0403 19:25:36.124631 19821 net.cpp:399] inception_4e/output -> inception_4e/output
I0403 19:25:36.124682 19821 net.cpp:141] Setting up inception_4e/output
I0403 19:25:36.124706 19821 net.cpp:148] Top shape: 24 832 14 14 (3913728)
I0403 19:25:36.124721 19821 net.cpp:156] Memory required for data: 1272557088
I0403 19:25:36.124735 19821 layer_factory.hpp:77] Creating layer pool4/3x3_s2
I0403 19:25:36.124754 19821 net.cpp:91] Creating Layer pool4/3x3_s2
I0403 19:25:36.124770 19821 net.cpp:425] pool4/3x3_s2 <- inception_4e/output
I0403 19:25:36.124789 19821 net.cpp:399] pool4/3x3_s2 -> pool4/3x3_s2
I0403 19:25:36.124857 19821 net.cpp:141] Setting up pool4/3x3_s2
I0403 19:25:36.124881 19821 net.cpp:148] Top shape: 24 832 7 7 (978432)
I0403 19:25:36.124896 19821 net.cpp:156] Memory required for data: 1276470816
I0403 19:25:36.124909 19821 layer_factory.hpp:77] Creating layer pool4/3x3_s2_pool4/3x3_s2_0_split
I0403 19:25:36.124927 19821 net.cpp:91] Creating Layer pool4/3x3_s2_pool4/3x3_s2_0_split
I0403 19:25:36.124943 19821 net.cpp:425] pool4/3x3_s2_pool4/3x3_s2_0_split <- pool4/3x3_s2
I0403 19:25:36.124968 19821 net.cpp:399] pool4/3x3_s2_pool4/3x3_s2_0_split -> pool4/3x3_s2_pool4/3x3_s2_0_split_0
I0403 19:25:36.124989 19821 net.cpp:399] pool4/3x3_s2_pool4/3x3_s2_0_split -> pool4/3x3_s2_pool4/3x3_s2_0_split_1
I0403 19:25:36.125010 19821 net.cpp:399] pool4/3x3_s2_pool4/3x3_s2_0_split -> pool4/3x3_s2_pool4/3x3_s2_0_split_2
I0403 19:25:36.125028 19821 net.cpp:399] pool4/3x3_s2_pool4/3x3_s2_0_split -> pool4/3x3_s2_pool4/3x3_s2_0_split_3
I0403 19:25:36.125120 19821 net.cpp:141] Setting up pool4/3x3_s2_pool4/3x3_s2_0_split
I0403 19:25:36.125144 19821 net.cpp:148] Top shape: 24 832 7 7 (978432)
I0403 19:25:36.125161 19821 net.cpp:148] Top shape: 24 832 7 7 (978432)
I0403 19:25:36.125176 19821 net.cpp:148] Top shape: 24 832 7 7 (978432)
I0403 19:25:36.125191 19821 net.cpp:148] Top shape: 24 832 7 7 (978432)
I0403 19:25:36.125206 19821 net.cpp:156] Memory required for data: 1292125728
I0403 19:25:36.125221 19821 layer_factory.hpp:77] Creating layer inception_5a/1x1
I0403 19:25:36.125242 19821 net.cpp:91] Creating Layer inception_5a/1x1
I0403 19:25:36.125260 19821 net.cpp:425] inception_5a/1x1 <- pool4/3x3_s2_pool4/3x3_s2_0_split_0
I0403 19:25:36.125279 19821 net.cpp:399] inception_5a/1x1 -> inception_5a/1x1
I0403 19:25:36.128137 19821 net.cpp:141] Setting up inception_5a/1x1
I0403 19:25:36.128167 19821 net.cpp:148] Top shape: 24 256 7 7 (301056)
I0403 19:25:36.128182 19821 net.cpp:156] Memory required for data: 1293329952
I0403 19:25:36.128201 19821 layer_factory.hpp:77] Creating layer inception_5a/relu_1x1
I0403 19:25:36.128219 19821 net.cpp:91] Creating Layer inception_5a/relu_1x1
I0403 19:25:36.128238 19821 net.cpp:425] inception_5a/relu_1x1 <- inception_5a/1x1
I0403 19:25:36.128255 19821 net.cpp:386] inception_5a/relu_1x1 -> inception_5a/1x1 (in-place)
I0403 19:25:36.128569 19821 net.cpp:141] Setting up inception_5a/relu_1x1
I0403 19:25:36.128595 19821 net.cpp:148] Top shape: 24 256 7 7 (301056)
I0403 19:25:36.128610 19821 net.cpp:156] Memory required for data: 1294534176
I0403 19:25:36.128625 19821 layer_factory.hpp:77] Creating layer inception_5a/3x3_reduce
I0403 19:25:36.128648 19821 net.cpp:91] Creating Layer inception_5a/3x3_reduce
I0403 19:25:36.128665 19821 net.cpp:425] inception_5a/3x3_reduce <- pool4/3x3_s2_pool4/3x3_s2_0_split_1
I0403 19:25:36.128686 19821 net.cpp:399] inception_5a/3x3_reduce -> inception_5a/3x3_reduce
I0403 19:25:36.131156 19821 net.cpp:141] Setting up inception_5a/3x3_reduce
I0403 19:25:36.131187 19821 net.cpp:148] Top shape: 24 160 7 7 (188160)
I0403 19:25:36.131206 19821 net.cpp:156] Memory required for data: 1295286816
I0403 19:25:36.131225 19821 layer_factory.hpp:77] Creating layer inception_5a/relu_3x3_reduce
I0403 19:25:36.131244 19821 net.cpp:91] Creating Layer inception_5a/relu_3x3_reduce
I0403 19:25:36.131261 19821 net.cpp:425] inception_5a/relu_3x3_reduce <- inception_5a/3x3_reduce
I0403 19:25:36.131278 19821 net.cpp:386] inception_5a/relu_3x3_reduce -> inception_5a/3x3_reduce (in-place)
I0403 19:25:36.131469 19821 net.cpp:141] Setting up inception_5a/relu_3x3_reduce
I0403 19:25:36.131495 19821 net.cpp:148] Top shape: 24 160 7 7 (188160)
I0403 19:25:36.131511 19821 net.cpp:156] Memory required for data: 1296039456
I0403 19:25:36.131526 19821 layer_factory.hpp:77] Creating layer inception_5a/3x3
I0403 19:25:36.131548 19821 net.cpp:91] Creating Layer inception_5a/3x3
I0403 19:25:36.131566 19821 net.cpp:425] inception_5a/3x3 <- inception_5a/3x3_reduce
I0403 19:25:36.131587 19821 net.cpp:399] inception_5a/3x3 -> inception_5a/3x3
I0403 19:25:36.136767 19821 net.cpp:141] Setting up inception_5a/3x3
I0403 19:25:36.136798 19821 net.cpp:148] Top shape: 24 320 7 7 (376320)
I0403 19:25:36.136814 19821 net.cpp:156] Memory required for data: 1297544736
I0403 19:25:36.136833 19821 layer_factory.hpp:77] Creating layer inception_5a/relu_3x3
I0403 19:25:36.136852 19821 net.cpp:91] Creating Layer inception_5a/relu_3x3
I0403 19:25:36.136869 19821 net.cpp:425] inception_5a/relu_3x3 <- inception_5a/3x3
I0403 19:25:36.136889 19821 net.cpp:386] inception_5a/relu_3x3 -> inception_5a/3x3 (in-place)
I0403 19:25:36.137202 19821 net.cpp:141] Setting up inception_5a/relu_3x3
I0403 19:25:36.137229 19821 net.cpp:148] Top shape: 24 320 7 7 (376320)
I0403 19:25:36.137244 19821 net.cpp:156] Memory required for data: 1299050016
I0403 19:25:36.137260 19821 layer_factory.hpp:77] Creating layer inception_5a/5x5_reduce
I0403 19:25:36.137284 19821 net.cpp:91] Creating Layer inception_5a/5x5_reduce
I0403 19:25:36.137302 19821 net.cpp:425] inception_5a/5x5_reduce <- pool4/3x3_s2_pool4/3x3_s2_0_split_2
I0403 19:25:36.137326 19821 net.cpp:399] inception_5a/5x5_reduce -> inception_5a/5x5_reduce
I0403 19:25:36.138545 19821 net.cpp:141] Setting up inception_5a/5x5_reduce
I0403 19:25:36.138574 19821 net.cpp:148] Top shape: 24 32 7 7 (37632)
I0403 19:25:36.138591 19821 net.cpp:156] Memory required for data: 1299200544
I0403 19:25:36.138610 19821 layer_factory.hpp:77] Creating layer inception_5a/relu_5x5_reduce
I0403 19:25:36.138631 19821 net.cpp:91] Creating Layer inception_5a/relu_5x5_reduce
I0403 19:25:36.138648 19821 net.cpp:425] inception_5a/relu_5x5_reduce <- inception_5a/5x5_reduce
I0403 19:25:36.138666 19821 net.cpp:386] inception_5a/relu_5x5_reduce -> inception_5a/5x5_reduce (in-place)
I0403 19:25:36.138985 19821 net.cpp:141] Setting up inception_5a/relu_5x5_reduce
I0403 19:25:36.139013 19821 net.cpp:148] Top shape: 24 32 7 7 (37632)
I0403 19:25:36.139027 19821 net.cpp:156] Memory required for data: 1299351072
I0403 19:25:36.139044 19821 layer_factory.hpp:77] Creating layer inception_5a/5x5
I0403 19:25:36.139066 19821 net.cpp:91] Creating Layer inception_5a/5x5
I0403 19:25:36.139084 19821 net.cpp:425] inception_5a/5x5 <- inception_5a/5x5_reduce
I0403 19:25:36.139106 19821 net.cpp:399] inception_5a/5x5 -> inception_5a/5x5
I0403 19:25:36.140887 19821 net.cpp:141] Setting up inception_5a/5x5
I0403 19:25:36.140928 19821 net.cpp:148] Top shape: 24 128 7 7 (150528)
I0403 19:25:36.140944 19821 net.cpp:156] Memory required for data: 1299953184
I0403 19:25:36.140969 19821 layer_factory.hpp:77] Creating layer inception_5a/relu_5x5
I0403 19:25:36.140988 19821 net.cpp:91] Creating Layer inception_5a/relu_5x5
I0403 19:25:36.141005 19821 net.cpp:425] inception_5a/relu_5x5 <- inception_5a/5x5
I0403 19:25:36.141026 19821 net.cpp:386] inception_5a/relu_5x5 -> inception_5a/5x5 (in-place)
I0403 19:25:36.141227 19821 net.cpp:141] Setting up inception_5a/relu_5x5
I0403 19:25:36.141252 19821 net.cpp:148] Top shape: 24 128 7 7 (150528)
I0403 19:25:36.141266 19821 net.cpp:156] Memory required for data: 1300555296
I0403 19:25:36.141283 19821 layer_factory.hpp:77] Creating layer inception_5a/pool
I0403 19:25:36.141304 19821 net.cpp:91] Creating Layer inception_5a/pool
I0403 19:25:36.141320 19821 net.cpp:425] inception_5a/pool <- pool4/3x3_s2_pool4/3x3_s2_0_split_3
I0403 19:25:36.141340 19821 net.cpp:399] inception_5a/pool -> inception_5a/pool
I0403 19:25:36.141412 19821 net.cpp:141] Setting up inception_5a/pool
I0403 19:25:36.141436 19821 net.cpp:148] Top shape: 24 832 7 7 (978432)
I0403 19:25:36.141450 19821 net.cpp:156] Memory required for data: 1304469024
I0403 19:25:36.141466 19821 layer_factory.hpp:77] Creating layer inception_5a/pool_proj
I0403 19:25:36.141489 19821 net.cpp:91] Creating Layer inception_5a/pool_proj
I0403 19:25:36.141506 19821 net.cpp:425] inception_5a/pool_proj <- inception_5a/pool
I0403 19:25:36.141528 19821 net.cpp:399] inception_5a/pool_proj -> inception_5a/pool_proj
I0403 19:25:36.143908 19821 net.cpp:141] Setting up inception_5a/pool_proj
I0403 19:25:36.143944 19821 net.cpp:148] Top shape: 24 128 7 7 (150528)
I0403 19:25:36.143965 19821 net.cpp:156] Memory required for data: 1305071136
I0403 19:25:36.143985 19821 layer_factory.hpp:77] Creating layer inception_5a/relu_pool_proj
I0403 19:25:36.144006 19821 net.cpp:91] Creating Layer inception_5a/relu_pool_proj
I0403 19:25:36.144023 19821 net.cpp:425] inception_5a/relu_pool_proj <- inception_5a/pool_proj
I0403 19:25:36.144045 19821 net.cpp:386] inception_5a/relu_pool_proj -> inception_5a/pool_proj (in-place)
I0403 19:25:36.144361 19821 net.cpp:141] Setting up inception_5a/relu_pool_proj
I0403 19:25:36.144389 19821 net.cpp:148] Top shape: 24 128 7 7 (150528)
I0403 19:25:36.144407 19821 net.cpp:156] Memory required for data: 1305673248
I0403 19:25:36.144423 19821 layer_factory.hpp:77] Creating layer inception_5a/output
I0403 19:25:36.144443 19821 net.cpp:91] Creating Layer inception_5a/output
I0403 19:25:36.144470 19821 net.cpp:425] inception_5a/output <- inception_5a/1x1
I0403 19:25:36.144487 19821 net.cpp:425] inception_5a/output <- inception_5a/3x3
I0403 19:25:36.144505 19821 net.cpp:425] inception_5a/output <- inception_5a/5x5
I0403 19:25:36.144520 19821 net.cpp:425] inception_5a/output <- inception_5a/pool_proj
I0403 19:25:36.144542 19821 net.cpp:399] inception_5a/output -> inception_5a/output
I0403 19:25:36.144593 19821 net.cpp:141] Setting up inception_5a/output
I0403 19:25:36.144618 19821 net.cpp:148] Top shape: 24 832 7 7 (978432)
I0403 19:25:36.144632 19821 net.cpp:156] Memory required for data: 1309586976
I0403 19:25:36.144647 19821 layer_factory.hpp:77] Creating layer inception_5a/output_inception_5a/output_0_split
I0403 19:25:36.144668 19821 net.cpp:91] Creating Layer inception_5a/output_inception_5a/output_0_split
I0403 19:25:36.144686 19821 net.cpp:425] inception_5a/output_inception_5a/output_0_split <- inception_5a/output
I0403 19:25:36.144704 19821 net.cpp:399] inception_5a/output_inception_5a/output_0_split -> inception_5a/output_inception_5a/output_0_split_0
I0403 19:25:36.144724 19821 net.cpp:399] inception_5a/output_inception_5a/output_0_split -> inception_5a/output_inception_5a/output_0_split_1
I0403 19:25:36.144745 19821 net.cpp:399] inception_5a/output_inception_5a/output_0_split -> inception_5a/output_inception_5a/output_0_split_2
I0403 19:25:36.144770 19821 net.cpp:399] inception_5a/output_inception_5a/output_0_split -> inception_5a/output_inception_5a/output_0_split_3
I0403 19:25:36.144883 19821 net.cpp:141] Setting up inception_5a/output_inception_5a/output_0_split
I0403 19:25:36.144907 19821 net.cpp:148] Top shape: 24 832 7 7 (978432)
I0403 19:25:36.144923 19821 net.cpp:148] Top shape: 24 832 7 7 (978432)
I0403 19:25:36.144940 19821 net.cpp:148] Top shape: 24 832 7 7 (978432)
I0403 19:25:36.144960 19821 net.cpp:148] Top shape: 24 832 7 7 (978432)
I0403 19:25:36.144974 19821 net.cpp:156] Memory required for data: 1325241888
I0403 19:25:36.144990 19821 layer_factory.hpp:77] Creating layer inception_5b/1x1
I0403 19:25:36.145014 19821 net.cpp:91] Creating Layer inception_5b/1x1
I0403 19:25:36.145031 19821 net.cpp:425] inception_5b/1x1 <- inception_5a/output_inception_5a/output_0_split_0
I0403 19:25:36.145053 19821 net.cpp:399] inception_5b/1x1 -> inception_5b/1x1
I0403 19:25:36.148941 19821 net.cpp:141] Setting up inception_5b/1x1
I0403 19:25:36.148984 19821 net.cpp:148] Top shape: 24 384 7 7 (451584)
I0403 19:25:36.149001 19821 net.cpp:156] Memory required for data: 1327048224
I0403 19:25:36.149020 19821 layer_factory.hpp:77] Creating layer inception_5b/relu_1x1
I0403 19:25:36.149040 19821 net.cpp:91] Creating Layer inception_5b/relu_1x1
I0403 19:25:36.149056 19821 net.cpp:425] inception_5b/relu_1x1 <- inception_5b/1x1
I0403 19:25:36.149075 19821 net.cpp:386] inception_5b/relu_1x1 -> inception_5b/1x1 (in-place)
I0403 19:25:36.149394 19821 net.cpp:141] Setting up inception_5b/relu_1x1
I0403 19:25:36.149423 19821 net.cpp:148] Top shape: 24 384 7 7 (451584)
I0403 19:25:36.149440 19821 net.cpp:156] Memory required for data: 1328854560
I0403 19:25:36.149456 19821 layer_factory.hpp:77] Creating layer inception_5b/3x3_reduce
I0403 19:25:36.149478 19821 net.cpp:91] Creating Layer inception_5b/3x3_reduce
I0403 19:25:36.149497 19821 net.cpp:425] inception_5b/3x3_reduce <- inception_5a/output_inception_5a/output_0_split_1
I0403 19:25:36.149516 19821 net.cpp:399] inception_5b/3x3_reduce -> inception_5b/3x3_reduce
I0403 19:25:36.152304 19821 net.cpp:141] Setting up inception_5b/3x3_reduce
I0403 19:25:36.152335 19821 net.cpp:148] Top shape: 24 192 7 7 (225792)
I0403 19:25:36.152353 19821 net.cpp:156] Memory required for data: 1329757728
I0403 19:25:36.152371 19821 layer_factory.hpp:77] Creating layer inception_5b/relu_3x3_reduce
I0403 19:25:36.152390 19821 net.cpp:91] Creating Layer inception_5b/relu_3x3_reduce
I0403 19:25:36.152406 19821 net.cpp:425] inception_5b/relu_3x3_reduce <- inception_5b/3x3_reduce
I0403 19:25:36.152426 19821 net.cpp:386] inception_5b/relu_3x3_reduce -> inception_5b/3x3_reduce (in-place)
I0403 19:25:36.152619 19821 net.cpp:141] Setting up inception_5b/relu_3x3_reduce
I0403 19:25:36.152644 19821 net.cpp:148] Top shape: 24 192 7 7 (225792)
I0403 19:25:36.152658 19821 net.cpp:156] Memory required for data: 1330660896
I0403 19:25:36.152673 19821 layer_factory.hpp:77] Creating layer inception_5b/3x3
I0403 19:25:36.152695 19821 net.cpp:91] Creating Layer inception_5b/3x3
I0403 19:25:36.152714 19821 net.cpp:425] inception_5b/3x3 <- inception_5b/3x3_reduce
I0403 19:25:36.152735 19821 net.cpp:399] inception_5b/3x3 -> inception_5b/3x3
I0403 19:25:36.159467 19821 net.cpp:141] Setting up inception_5b/3x3
I0403 19:25:36.159499 19821 net.cpp:148] Top shape: 24 384 7 7 (451584)
I0403 19:25:36.159515 19821 net.cpp:156] Memory required for data: 1332467232
I0403 19:25:36.159534 19821 layer_factory.hpp:77] Creating layer inception_5b/relu_3x3
I0403 19:25:36.159554 19821 net.cpp:91] Creating Layer inception_5b/relu_3x3
I0403 19:25:36.159569 19821 net.cpp:425] inception_5b/relu_3x3 <- inception_5b/3x3
I0403 19:25:36.159590 19821 net.cpp:386] inception_5b/relu_3x3 -> inception_5b/3x3 (in-place)
I0403 19:25:36.159886 19821 net.cpp:141] Setting up inception_5b/relu_3x3
I0403 19:25:36.159915 19821 net.cpp:148] Top shape: 24 384 7 7 (451584)
I0403 19:25:36.159930 19821 net.cpp:156] Memory required for data: 1334273568
I0403 19:25:36.159948 19821 layer_factory.hpp:77] Creating layer inception_5b/5x5_reduce
I0403 19:25:36.159988 19821 net.cpp:91] Creating Layer inception_5b/5x5_reduce
I0403 19:25:36.160007 19821 net.cpp:425] inception_5b/5x5_reduce <- inception_5a/output_inception_5a/output_0_split_2
I0403 19:25:36.160027 19821 net.cpp:399] inception_5b/5x5_reduce -> inception_5b/5x5_reduce
I0403 19:25:36.161303 19821 net.cpp:141] Setting up inception_5b/5x5_reduce
I0403 19:25:36.161334 19821 net.cpp:148] Top shape: 24 48 7 7 (56448)
I0403 19:25:36.161350 19821 net.cpp:156] Memory required for data: 1334499360
I0403 19:25:36.161368 19821 layer_factory.hpp:77] Creating layer inception_5b/relu_5x5_reduce
I0403 19:25:36.161386 19821 net.cpp:91] Creating Layer inception_5b/relu_5x5_reduce
I0403 19:25:36.161403 19821 net.cpp:425] inception_5b/relu_5x5_reduce <- inception_5b/5x5_reduce
I0403 19:25:36.161422 19821 net.cpp:386] inception_5b/relu_5x5_reduce -> inception_5b/5x5_reduce (in-place)
I0403 19:25:36.161798 19821 net.cpp:141] Setting up inception_5b/relu_5x5_reduce
I0403 19:25:36.161823 19821 net.cpp:148] Top shape: 24 48 7 7 (56448)
I0403 19:25:36.161839 19821 net.cpp:156] Memory required for data: 1334725152
I0403 19:25:36.161854 19821 layer_factory.hpp:77] Creating layer inception_5b/5x5
I0403 19:25:36.161873 19821 net.cpp:91] Creating Layer inception_5b/5x5
I0403 19:25:36.161891 19821 net.cpp:425] inception_5b/5x5 <- inception_5b/5x5_reduce
I0403 19:25:36.161909 19821 net.cpp:399] inception_5b/5x5 -> inception_5b/5x5
I0403 19:25:36.163992 19821 net.cpp:141] Setting up inception_5b/5x5
I0403 19:25:36.164021 19821 net.cpp:148] Top shape: 24 128 7 7 (150528)
I0403 19:25:36.164036 19821 net.cpp:156] Memory required for data: 1335327264
I0403 19:25:36.164055 19821 layer_factory.hpp:77] Creating layer inception_5b/relu_5x5
I0403 19:25:36.164073 19821 net.cpp:91] Creating Layer inception_5b/relu_5x5
I0403 19:25:36.164121 19821 net.cpp:425] inception_5b/relu_5x5 <- inception_5b/5x5
I0403 19:25:36.164140 19821 net.cpp:386] inception_5b/relu_5x5 -> inception_5b/5x5 (in-place)
I0403 19:25:36.164342 19821 net.cpp:141] Setting up inception_5b/relu_5x5
I0403 19:25:36.164379 19821 net.cpp:148] Top shape: 24 128 7 7 (150528)
I0403 19:25:36.164394 19821 net.cpp:156] Memory required for data: 1335929376
I0403 19:25:36.164409 19821 layer_factory.hpp:77] Creating layer inception_5b/pool
I0403 19:25:36.164429 19821 net.cpp:91] Creating Layer inception_5b/pool
I0403 19:25:36.164446 19821 net.cpp:425] inception_5b/pool <- inception_5a/output_inception_5a/output_0_split_3
I0403 19:25:36.164465 19821 net.cpp:399] inception_5b/pool -> inception_5b/pool
I0403 19:25:36.164540 19821 net.cpp:141] Setting up inception_5b/pool
I0403 19:25:36.164563 19821 net.cpp:148] Top shape: 24 832 7 7 (978432)
I0403 19:25:36.164577 19821 net.cpp:156] Memory required for data: 1339843104
I0403 19:25:36.164592 19821 layer_factory.hpp:77] Creating layer inception_5b/pool_proj
I0403 19:25:36.164614 19821 net.cpp:91] Creating Layer inception_5b/pool_proj
I0403 19:25:36.164633 19821 net.cpp:425] inception_5b/pool_proj <- inception_5b/pool
I0403 19:25:36.164654 19821 net.cpp:399] inception_5b/pool_proj -> inception_5b/pool_proj
I0403 19:25:36.166981 19821 net.cpp:141] Setting up inception_5b/pool_proj
I0403 19:25:36.167011 19821 net.cpp:148] Top shape: 24 128 7 7 (150528)
I0403 19:25:36.167026 19821 net.cpp:156] Memory required for data: 1340445216
I0403 19:25:36.167044 19821 layer_factory.hpp:77] Creating layer inception_5b/relu_pool_proj
I0403 19:25:36.167062 19821 net.cpp:91] Creating Layer inception_5b/relu_pool_proj
I0403 19:25:36.167078 19821 net.cpp:425] inception_5b/relu_pool_proj <- inception_5b/pool_proj
I0403 19:25:36.167098 19821 net.cpp:386] inception_5b/relu_pool_proj -> inception_5b/pool_proj (in-place)
I0403 19:25:36.167398 19821 net.cpp:141] Setting up inception_5b/relu_pool_proj
I0403 19:25:36.167424 19821 net.cpp:148] Top shape: 24 128 7 7 (150528)
I0403 19:25:36.167439 19821 net.cpp:156] Memory required for data: 1341047328
I0403 19:25:36.167454 19821 layer_factory.hpp:77] Creating layer inception_5b/output
I0403 19:25:36.167472 19821 net.cpp:91] Creating Layer inception_5b/output
I0403 19:25:36.167503 19821 net.cpp:425] inception_5b/output <- inception_5b/1x1
I0403 19:25:36.167521 19821 net.cpp:425] inception_5b/output <- inception_5b/3x3
I0403 19:25:36.167538 19821 net.cpp:425] inception_5b/output <- inception_5b/5x5
I0403 19:25:36.167556 19821 net.cpp:425] inception_5b/output <- inception_5b/pool_proj
I0403 19:25:36.167577 19821 net.cpp:399] inception_5b/output -> inception_5b/output
I0403 19:25:36.167629 19821 net.cpp:141] Setting up inception_5b/output
I0403 19:25:36.167652 19821 net.cpp:148] Top shape: 24 1024 7 7 (1204224)
I0403 19:25:36.167670 19821 net.cpp:156] Memory required for data: 1345864224
I0403 19:25:36.167685 19821 layer_factory.hpp:77] Creating layer pool5/7x7_s1
I0403 19:25:36.167702 19821 net.cpp:91] Creating Layer pool5/7x7_s1
I0403 19:25:36.167718 19821 net.cpp:425] pool5/7x7_s1 <- inception_5b/output
I0403 19:25:36.167737 19821 net.cpp:399] pool5/7x7_s1 -> pool5/7x7_s1
I0403 19:25:36.167959 19821 net.cpp:141] Setting up pool5/7x7_s1
I0403 19:25:36.167984 19821 net.cpp:148] Top shape: 24 1024 1 1 (24576)
I0403 19:25:36.168000 19821 net.cpp:156] Memory required for data: 1345962528
I0403 19:25:36.168015 19821 layer_factory.hpp:77] Creating layer pool5/drop_7x7_s1
I0403 19:25:36.168033 19821 net.cpp:91] Creating Layer pool5/drop_7x7_s1
I0403 19:25:36.168050 19821 net.cpp:425] pool5/drop_7x7_s1 <- pool5/7x7_s1
I0403 19:25:36.168068 19821 net.cpp:386] pool5/drop_7x7_s1 -> pool5/7x7_s1 (in-place)
I0403 19:25:36.168118 19821 net.cpp:141] Setting up pool5/drop_7x7_s1
I0403 19:25:36.168143 19821 net.cpp:148] Top shape: 24 1024 1 1 (24576)
I0403 19:25:36.168157 19821 net.cpp:156] Memory required for data: 1346060832
I0403 19:25:36.168172 19821 layer_factory.hpp:77] Creating layer loss3/classifier_plantvillage
I0403 19:25:36.168192 19821 net.cpp:91] Creating Layer loss3/classifier_plantvillage
I0403 19:25:36.168210 19821 net.cpp:425] loss3/classifier_plantvillage <- pool5/7x7_s1
I0403 19:25:36.168231 19821 net.cpp:399] loss3/classifier_plantvillage -> loss3/classifier_plantvillage
I0403 19:25:36.168660 19821 net.cpp:141] Setting up loss3/classifier_plantvillage
I0403 19:25:36.168684 19821 net.cpp:148] Top shape: 24 38 (912)
I0403 19:25:36.168699 19821 net.cpp:156] Memory required for data: 1346064480
I0403 19:25:36.168716 19821 layer_factory.hpp:77] Creating layer loss3/classifier_plantvillage_loss3/classifier_plantvillage_0_split
I0403 19:25:36.168738 19821 net.cpp:91] Creating Layer loss3/classifier_plantvillage_loss3/classifier_plantvillage_0_split
I0403 19:25:36.168756 19821 net.cpp:425] loss3/classifier_plantvillage_loss3/classifier_plantvillage_0_split <- loss3/classifier_plantvillage
I0403 19:25:36.168772 19821 net.cpp:399] loss3/classifier_plantvillage_loss3/classifier_plantvillage_0_split -> loss3/classifier_plantvillage_loss3/classifier_plantvillage_0_split_0
I0403 19:25:36.168792 19821 net.cpp:399] loss3/classifier_plantvillage_loss3/classifier_plantvillage_0_split -> loss3/classifier_plantvillage_loss3/classifier_plantvillage_0_split_1
I0403 19:25:36.168815 19821 net.cpp:399] loss3/classifier_plantvillage_loss3/classifier_plantvillage_0_split -> loss3/classifier_plantvillage_loss3/classifier_plantvillage_0_split_2
I0403 19:25:36.168836 19821 net.cpp:399] loss3/classifier_plantvillage_loss3/classifier_plantvillage_0_split -> loss3/classifier_plantvillage_loss3/classifier_plantvillage_0_split_3
I0403 19:25:36.168937 19821 net.cpp:141] Setting up loss3/classifier_plantvillage_loss3/classifier_plantvillage_0_split
I0403 19:25:36.168970 19821 net.cpp:148] Top shape: 24 38 (912)
I0403 19:25:36.168988 19821 net.cpp:148] Top shape: 24 38 (912)
I0403 19:25:36.169003 19821 net.cpp:148] Top shape: 24 38 (912)
I0403 19:25:36.169018 19821 net.cpp:148] Top shape: 24 38 (912)
I0403 19:25:36.169031 19821 net.cpp:156] Memory required for data: 1346079072
I0403 19:25:36.169046 19821 layer_factory.hpp:77] Creating layer loss1/loss
I0403 19:25:36.169067 19821 net.cpp:91] Creating Layer loss1/loss
I0403 19:25:36.169085 19821 net.cpp:425] loss1/loss <- loss1/classifier_plantvillage_loss1/classifier_plantvillage_0_split_0
I0403 19:25:36.169116 19821 net.cpp:425] loss1/loss <- label_data_1_split_0
…
