…
I0403 19:03:11.797333 18563 net.cpp:313] The NetState phase (1) differed from the phase (0) specified by a rule in layer data
I0403 19:03:11.798718 18563 net.cpp:49] Initializing net from parameters: 
state {
  phase: TEST
}
layer {
  name: "data"
  type: "Data"
  top: "data"
  top: "label"
  include {
    phase: TEST
  }
  transform_param {
    mirror: false
    crop_size: 224
    mean_file: "/home/mohanty/data/final_dataset/lmdb/segmented-60-40/mean.binaryproto"
  }
  data_param {
    source: "/home/mohanty/data/final_dataset/lmdb/segmented-60-40/test_db"
    batch_size: 24
    backend: LMDB
  }
}
layer {
  name: "conv1/7x7_s2"
  type: "Convolution"
  bottom: "data"
  top: "conv1/7x7_s2"
  param {
    lr_mult: 1
    decay_mult: 1
  }
  param {
    lr_mult: 2
    decay_mult: 0
  }
  convolution_param {
    num_output: 64
    pad: 3
    kernel_size: 7
    stride: 2
    weight_filler {
      type: "xavier"
      std: 0.1
    }
    bias_filler {
      type: "constant"
      value: 0.2
    }
  }
}
layer {
  name: "conv1/relu_7x7"
  type: "ReLU"
  bottom: "conv1/7x7_s2"
  top: "conv1/7x7_s2"
}
layer {
  name: "pool1/3x3_s2"
  type: "Pooling"
  bottom: "conv1/7x7_s2"
  top: "pool1/3x3_s2"
  pooling_param {
    pool: MAX
    kernel_size: 3
    stride: 2
  }
}
layer {
  name: "pool1/norm1"
  type: "LRN"
  bottom: "pool1/3x3_s2"
  top: "pool1/norm1"
  lrn_param {
    local_size: 5
    alpha: 0.0001
    beta: 0.75
  }
}
layer {
  name: "conv2/3x3_reduce"
  type: "Convolution"
  bottom: "pool1/norm1"
  top: "conv2/3x3_reduce"
  param {
    lr_mult: 1
    decay_mult: 1
  }
  param {
    lr_mult: 2
    decay_mult: 0
  }
  convolution_param {
    num_output: 64
    kernel_size: 1
    weight_filler {
      type: "xavier"
      std: 0.1
    }
    bias_filler {
      type: "constant"
      value: 0.2
    }
  }
}
layer {
  name: "conv2/relu_3x3_reduce"
  type: "ReLU"
  bottom: "conv2/3x3_reduce"
  top: "conv2/3x3_reduce"
}
layer {
  name: "conv2/3x3"
  type: "Convolution"
  bottom: "conv2/3x3_reduce"
  top: "conv2/3x3"
  param {
    lr_mult: 1
    decay_mult: 1
  }
  param {
    lr_mult: 2
    decay_mult: 0
  }
  convolution_param {
    num_output: 192
    pad: 1
    kernel_size: 3
    weight_filler {
      type: "xavier"
      std: 0.03
    }
    bias_filler {
      type: "constant"
      value: 0.2
    }
  }
}
layer {
  name: "conv2/relu_3x3"
  type: "ReLU"
  bottom: "conv2/3x3"
  top: "conv2/3x3"
}
layer {
  name: "conv2/norm2"
  type: "LRN"
  bottom: "conv2/3x3"
  top: "conv2/norm2"
  lrn_param {
    local_size: 5
    alpha: 0.0001
    beta: 0.75
  }
}
layer {
  name: "pool2/3x3_s2"
  type: "Pooling"
  bottom: "conv2/norm2"
  top: "pool2/3x3_s2"
  pooling_param {
    pool: MAX
    kernel_size: 3
    stride: 2
  }
}
layer {
  name: "inception_3a/1x1"
  type: "Convolution"
  bottom: "pool2/3x3_s2"
  top: "inception_3a/1x1"
  param {
    lr_mult: 1
    decay_mult: 1
  }
  param {
    lr_mult: 2
    decay_mult: 0
  }
  convolution_param {
    num_output: 64
    kernel_size: 1
    weight_filler {
      type: "xavier"
      std: 0.03
    }
    bias_filler {
      type: "constant"
      value: 0.2
    }
  }
}
layer {
  name: "inception_3a/relu_1x1"
  type: "ReLU"
  bottom: "inception_3a/1x1"
  top: "inception_3a/1x1"
}
layer {
  name: "inception_3a/3x3_reduce"
  type: "Convolution"
  bottom: "pool2/3x3_s2"
  top: "inception_3a/3x3_reduce"
  param {
    lr_mult: 1
    decay_mult: 1
  }
  param {
    lr_mult: 2
    decay_mult: 0
  }
  convolution_param {
    num_output: 96
    kernel_size: 1
    weight_filler {
      type: "xavier"
      std: 0.09
    }
    bias_filler {
      type: "constant"
      value: 0.2
    }
  }
}
layer {
  name: "inception_3a/relu_3x3_reduce"
  type: "ReLU"
  bottom: "inception_3a/3x3_reduce"
  top: "inception_3a/3x3_reduce"
}
layer {
  name: "inception_3a/3x3"
  type: "Convolution"
  bottom: "inception_3a/3x3_reduce"
  top: "inception_3a/3x3"
  param {
    lr_mult: 1
    decay_mult: 1
  }
  param {
    lr_mult: 2
    decay_mult: 0
  }
  convolution_param {
    num_output: 128
    pad: 1
    kernel_size: 3
    weight_filler {
      type: "xavier"
      std: 0.03
    }
    bias_filler {
      type: "constant"
      value: 0.2
    }
  }
}
layer {
  name: "inception_3a/relu_3x3"
  type: "ReLU"
  bottom: "inception_3a/3x3"
  top: "inception_3a/3x3"
}
layer {
  name: "inception_3a/5x5_reduce"
  type: "Convolution"
  bottom: "pool2/3x3_s2"
  top: "inception_3a/5x5_reduce"
  param {
    lr_mult: 1
    decay_mult: 1
  }
  param {
    lr_mult: 2
    decay_mult: 0
  }
  convolution_param {
    num_output: 16
    kernel_size: 1
    weight_filler {
      type: "xavier"
      std: 0.2
    }
    bias_filler {
      type: "constant"
      value: 0.2
    }
  }
}
layer {
  name: "inception_3a/relu_5x5_reduce"
  type: "ReLU"
  bottom: "inception_3a/5x5_reduce"
  top: "inception_3a/5x5_reduce"
}
layer {
  name: "inception_3a/5x5"
  type: "Convolution"
  bottom: "inception_3a/5x5_reduce"
  top: "inception_3a/5x5"
  param {
    lr_mult: 1
    decay_mult: 1
  }
  param {
    lr_mult: 2
    decay_mult: 0
  }
  convolution_param {
    num_output: 32
    pad: 2
    kernel_size: 5
    weight_filler {
      type: "xavier"
      std: 0.03
    }
    bias_filler {
      type: "constant"
      value: 0.2
    }
  }
}
layer {
  name: "inception_3a/relu_5x5"
  type: "ReLU"
  bottom: "inception_3a/5x5"
  top: "inception_3a/5x5"
}
layer {
  name: "inception_3a/pool"
  type: "Pooling"
  bottom: "pool2/3x3_s2"
  top: "inception_3a/pool"
  pooling_param {
    pool: MAX
    kernel_size: 3
    stride: 1
    pad: 1
  }
}
layer {
  name: "inception_3a/pool_proj"
  type: "Convolution"
  bottom: "inception_3a/pool"
  top: "inception_3a/pool_proj"
  param {
    lr_mult: 1
    decay_mult: 1
  }
  param {
    lr_mult: 2
    decay_mult: 0
  }
  convolution_param {
    num_output: 32
    kernel_size: 1
    weight_filler {
      type: "xavier"
      std: 0.1
    }
    bias_filler {
      type: "constant"
      value: 0.2
    }
  }
}
layer {
  name: "inception_3a/relu_pool_proj"
  type: "ReLU"
  bottom: "inception_3a/pool_proj"
  top: "inception_3a/pool_proj"
}
layer {
  name: "inception_3a/output"
  type: "Concat"
  bottom: "inception_3a/1x1"
  bottom: "inception_3a/3x3"
  bottom: "inception_3a/5x5"
  bottom: "inception_3a/pool_proj"
  top: "inception_3a/output"
}
layer {
  name: "inception_3b/1x1"
  type: "Convolution"
  bottom: "inception_3a/output"
  top: "inception_3b/1x1"
  param {
    lr_mult: 1
    decay_mult: 1
  }
  param {
    lr_mult: 2
    decay_mult: 0
  }
  convolution_param {
    num_output: 128
    kernel_size: 1
    weight_filler {
      type: "xavier"
      std: 0.03
    }
    bias_filler {
      type: "constant"
      value: 0.2
    }
  }
}
layer {
  name: "inception_3b/relu_1x1"
  type: "ReLU"
  bottom: "inception_3b/1x1"
  top: "inception_3b/1x1"
}
layer {
  name: "inception_3b/3x3_reduce"
  type: "Convolution"
  bottom: "inception_3a/output"
  top: "inception_3b/3x3_reduce"
  param {
    lr_mult: 1
    decay_mult: 1
  }
  param {
    lr_mult: 2
    decay_mult: 0
  }
  convolution_param {
    num_output: 128
    kernel_size: 1
    weight_filler {
      type: "xavier"
      std: 0.09
    }
    bias_filler {
      type: "constant"
      value: 0.2
    }
  }
}
layer {
  name: "inception_3b/relu_3x3_reduce"
  type: "ReLU"
  bottom: "inception_3b/3x3_reduce"
  top: "inception_3b/3x3_reduce"
}
layer {
  name: "inception_3b/3x3"
  type: "Convolution"
  bottom: "inception_3b/3x3_reduce"
  top: "inception_3b/3x3"
  param {
    lr_mult: 1
    decay_mult: 1
  }
  param {
    lr_mult: 2
    decay_mult: 0
  }
  convolution_param {
    num_output: 192
    pad: 1
    kernel_size: 3
    weight_filler {
      type: "xavier"
      std: 0.03
    }
    bias_filler {
      type: "constant"
      value: 0.2
    }
  }
}
layer {
  name: "inception_3b/relu_3x3"
  type: "ReLU"
  bottom: "inception_3b/3x3"
  top: "inception_3b/3x3"
}
layer {
  name: "inception_3b/5x5_reduce"
  type: "Convolution"
  bottom: "inception_3a/output"
  top: "inception_3b/5x5_reduce"
  param {
    lr_mult: 1
    decay_mult: 1
  }
  param {
    lr_mult: 2
    decay_mult: 0
  }
  convolution_param {
    num_output: 32
    kernel_size: 1
    weight_filler {
      type: "xavier"
      std: 0.2
    }
    bias_filler {
      type: "constant"
      value: 0.2
    }
  }
}
layer {
  name: "inception_3b/relu_5x5_reduce"
  type: "ReLU"
  bottom: "inception_3b/5x5_reduce"
  top: "inception_3b/5x5_reduce"
}
layer {
  name: "inception_3b/5x5"
  type: "Convolution"
  bottom: "inception_3b/5x5_reduce"
  top: "inception_3b/5x5"
  param {
    lr_mult: 1
    decay_mult: 1
  }
  param {
    lr_mult: 2
    decay_mult: 0
  }
  convolution_param {
    num_output: 96
    pad: 2
    kernel_size: 5
    weight_filler {
      type: "xavier"
      std: 0.03
    }
    bias_filler {
      type: "constant"
      value: 0.2
    }
  }
}
layer {
  name: "inception_3b/relu_5x5"
  type: "ReLU"
  bottom: "inception_3b/5x5"
  top: "inception_3b/5x5"
}
layer {
  name: "inception_3b/pool"
  type: "Pooling"
  bottom: "inception_3a/output"
  top: "inception_3b/pool"
  pooling_param {
    pool: MAX
    kernel_size: 3
    stride: 1
    pad: 1
  }
}
layer {
  name: "inception_3b/pool_proj"
  type: "Convolution"
  bottom: "inception_3b/pool"
  top: "inception_3b/pool_proj"
  param {
    lr_mult: 1
    decay_mult: 1
  }
  param {
    lr_mult: 2
    decay_mult: 0
  }
  convolution_param {
    num_output: 64
    kernel_size: 1
    weight_filler {
      type: "xavier"
      std: 0.1
    }
    bias_filler {
      type: "constant"
      value: 0.2
    }
  }
}
layer {
  name: "inception_3b/relu_pool_proj"
  type: "ReLU"
  bottom: "inception_3b/pool_proj"
  top: "inception_3b/pool_proj"
}
layer {
  name: "inception_3b/output"
  type: "Concat"
  bottom: "inception_3b/1x1"
  bottom: "inception_3b/3x3"
  bottom: "inception_3b/5x5"
  bottom: "inception_3b/pool_proj"
  top: "inception_3b/output"
}
layer {
  name: "pool3/3x3_s2"
  type: "Pooling"
  bottom: "inception_3b/output"
  top: "pool3/3x3_s2"
  pooling_param {
    pool: MAX
    kernel_size: 3
    stride: 2
  }
}
layer {
  name: "inception_4a/1x1"
  type: "Convolution"
  bottom: "pool3/3x3_s2"
  top: "inception_4a/1x1"
  param {
    lr_mult: 1
    decay_mult: 1
  }
  param {
    lr_mult: 2
    decay_mult: 0
  }
  convolution_param {
    num_output: 192
    kernel_size: 1
    weight_filler {
      type: "xavier"
      std: 0.03
    }
    bias_filler {
      type: "constant"
      value: 0.2
    }
  }
}
layer {
  name: "inception_4a/relu_1x1"
  type: "ReLU"
  bottom: "inception_4a/1x1"
  top: "inception_4a/1x1"
}
layer {
  name: "inception_4a/3x3_reduce"
  type: "Convolution"
  bottom: "pool3/3x3_s2"
  top: "inception_4a/3x3_reduce"
  param {
    lr_mult: 1
    decay_mult: 1
  }
  param {
    lr_mult: 2
    decay_mult: 0
  }
  convolution_param {
    num_output: 96
    kernel_size: 1
    weight_filler {
      type: "xavier"
      std: 0.09
    }
    bias_filler {
      type: "constant"
      value: 0.2
    }
  }
}
layer {
  name: "inception_4a/relu_3x3_reduce"
  type: "ReLU"
  bottom: "inception_4a/3x3_reduce"
  top: "inception_4a/3x3_reduce"
}
layer {
  name: "inception_4a/3x3"
  type: "Convolution"
  bottom: "inception_4a/3x3_reduce"
  top: "inception_4a/3x3"
  param {
    lr_mult: 1
    decay_mult: 1
  }
  param {
    lr_mult: 2
    decay_mult: 0
  }
  convolution_param {
    num_output: 208
    pad: 1
    kernel_size: 3
    weight_filler {
      type: "xavier"
      std: 0.03
    }
    bias_filler {
      type: "constant"
      value: 0.2
    }
  }
}
layer {
  name: "inception_4a/relu_3x3"
  type: "ReLU"
  bottom: "inception_4a/3x3"
  top: "inception_4a/3x3"
}
layer {
  name: "inception_4a/5x5_reduce"
  type: "Convolution"
  bottom: "pool3/3x3_s2"
  top: "inception_4a/5x5_reduce"
  param {
    lr_mult: 1
    decay_mult: 1
  }
  param {
    lr_mult: 2
    decay_mult: 0
  }
  convolution_param {
    num_output: 16
    kernel_size: 1
    weight_filler {
      type: "xavier"
      std: 0.2
    }
    bias_filler {
      type: "constant"
      value: 0.2
    }
  }
}
layer {
  name: "inception_4a/relu_5x5_reduce"
  type: "ReLU"
  bottom: "inception_4a/5x5_reduce"
  top: "inception_4a/5x5_reduce"
}
layer {
  name: "inception_4a/5x5"
  type: "Convolution"
  bottom: "inception_4a/5x5_reduce"
  top: "inception_4a/5x5"
  param {
    lr_mult: 1
    decay_mult: 1
  }
  param {
    lr_mult: 2
    decay_mult: 0
  }
  convolution_param {
    num_output: 48
    pad: 2
    kernel_size: 5
    weight_filler {
      type: "xavier"
      std: 0.03
    }
    bias_filler {
      type: "constant"
      value: 0.2
    }
  }
}
layer {
  name: "inception_4a/relu_5x5"
  type: "ReLU"
  bottom: "inception_4a/5x5"
  top: "inception_4a/5x5"
}
layer {
  name: "inception_4a/pool"
  type: "Pooling"
  bottom: "pool3/3x3_s2"
  top: "inception_4a/pool"
  pooling_param {
    pool: MAX
    kernel_size: 3
    stride: 1
    pad: 1
  }
}
layer {
  name: "inception_4a/pool_proj"
  type: "Convolution"
  bottom: "inception_4a/pool"
  top: "inception_4a/pool_proj"
  param {
    lr_mult: 1
    decay_mult: 1
  }
  param {
    lr_mult: 2
    decay_mult: 0
  }
  convolution_param {
    num_output: 64
    kernel_size: 1
    weight_filler {
      type: "xavier"
      std: 0.1
    }
    bias_filler {
      type: "constant"
      value: 0.2
    }
  }
}
layer {
  name: "inception_4a/relu_pool_proj"
  type: "ReLU"
  bottom: "inception_4a/pool_proj"
  top: "inception_4a/pool_proj"
}
layer {
  name: "inception_4a/output"
  type: "Concat"
  bottom: "inception_4a/1x1"
  bottom: "inception_4a/3x3"
  bottom: "inception_4a/5x5"
  bottom: "inception_4a/pool_proj"
  top: "inception_4a/output"
}
layer {
  name: "loss1/ave_pool"
  type: "Pooling"
  bottom: "inception_4a/output"
  top: "loss1/ave_pool"
  pooling_param {
    pool: AVE
    kernel_size: 5
    stride: 3
  }
}
layer {
  name: "loss1/conv"
  type: "Convolution"
  bottom: "loss1/ave_pool"
  top: "loss1/conv"
  param {
    lr_mult: 1
    decay_mult: 1
  }
  param {
    lr_mult: 2
    decay_mult: 0
  }
  convolution_param {
    num_output: 128
    kernel_size: 1
    weight_filler {
      type: "xavier"
      std: 0.08
    }
    bias_filler {
      type: "constant"
      value: 0.2
    }
  }
}
layer {
  name: "loss1/relu_conv"
  type: "ReLU"
  bottom: "loss1/conv"
  top: "loss1/conv"
}
layer {
  name: "loss1/fc"
  type: "InnerProduct"
  bottom: "loss1/conv"
  top: "loss1/fc"
  param {
    lr_mult: 1
    decay_mult: 1
  }
  param {
    lr_mult: 2
    decay_mult: 0
  }
  inner_product_param {
    num_output: 1024
    weight_filler {
      type: "xavier"
      std: 0.02
    }
    bias_filler {
      type: "constant"
      value: 0.2
    }
  }
}
layer {
  name: "loss1/relu_fc"
  type: "ReLU"
  bottom: "loss1/fc"
  top: "loss1/fc"
}
layer {
  name: "loss1/drop_fc"
  type: "Dropout"
  bottom: "loss1/fc"
  top: "loss1/fc"
  dropout_param {
    dropout_ratio: 0.7
  }
}
layer {
  name: "loss1/classifier_plantvillage"
  type: "InnerProduct"
  bottom: "loss1/fc"
  top: "loss1/classifier_plantvillage"
  param {
    lr_mult: 1
    decay_mult: 1
  }
  param {
    lr_mult: 2
    decay_mult: 0
  }
  inner_product_param {
    num_output: 38
    weight_filler {
      type: "xavier"
      std: 0.0009765625
    }
    bias_filler {
      type: "constant"
      value: 0
    }
  }
}
layer {
  name: "inception_4b/1x1"
  type: "Convolution"
  bottom: "inception_4a/output"
  top: "inception_4b/1x1"
  param {
    lr_mult: 1
    decay_mult: 1
  }
  param {
    lr_mult: 2
    decay_mult: 0
  }
  convolution_param {
    num_output: 160
    kernel_size: 1
    weight_filler {
      type: "xavier"
      std: 0.03
    }
    bias_filler {
      type: "constant"
      value: 0.2
    }
  }
}
layer {
  name: "inception_4b/relu_1x1"
  type: "ReLU"
  bottom: "inception_4b/1x1"
  top: "inception_4b/1x1"
}
layer {
  name: "inception_4b/3x3_reduce"
  type: "Convolution"
  bottom: "inception_4a/output"
  top: "inception_4b/3x3_reduce"
  param {
    lr_mult: 1
    decay_mult: 1
  }
  param {
    lr_mult: 2
    decay_mult: 0
  }
  convolution_param {
    num_output: 112
    kernel_size: 1
    weight_filler {
      type: "xavier"
      std: 0.09
    }
    bias_filler {
      type: "constant"
      value: 0.2
    }
  }
}
layer {
  name: "inception_4b/relu_3x3_reduce"
  type: "ReLU"
  bottom: "inception_4b/3x3_reduce"
  top: "inception_4b/3x3_reduce"
}
layer {
  name: "inception_4b/3x3"
  type: "Convolution"
  bottom: "inception_4b/3x3_reduce"
  top: "inception_4b/3x3"
  param {
    lr_mult: 1
    decay_mult: 1
  }
  param {
    lr_mult: 2
    decay_mult: 0
  }
  convolution_param {
    num_output: 224
    pad: 1
    kernel_size: 3
    weight_filler {
      type: "xavier"
      std: 0.03
    }
    bias_filler {
      type: "constant"
      value: 0.2
    }
  }
}
layer {
  name: "inception_4b/relu_3x3"
  type: "ReLU"
  bottom: "inception_4b/3x3"
  top: "inception_4b/3x3"
}
layer {
  name: "inception_4b/5x5_reduce"
  type: "Convolution"
  bottom: "inception_4a/output"
  top: "inception_4b/5x5_reduce"
  param {
    lr_mult: 1
    decay_mult: 1
  }
  param {
    lr_mult: 2
    decay_mult: 0
  }
  convolution_param {
    num_output: 24
    kernel_size: 1
    weight_filler {
      type: "xavier"
      std: 0.2
    }
    bias_filler {
      type: "constant"
      value: 0.2
    }
  }
}
layer {
  name: "inception_4b/relu_5x5_reduce"
  type: "ReLU"
  bottom: "inception_4b/5x5_reduce"
  top: "inception_4b/5x5_reduce"
}
layer {
  name: "inception_4b/5x5"
  type: "Convolution"
  bottom: "inception_4b/5x5_reduce"
  top: "inception_4b/5x5"
  param {
    lr_mult: 1
    decay_mult: 1
  }
  param {
    lr_mult: 2
    decay_mult: 0
  }
  convolution_param {
    num_output: 64
    pad: 2
    kernel_size: 5
    weight_filler {
      type: "xavier"
      std: 0.03
    }
    bias_filler {
      type: "constant"
      value: 0.2
    }
  }
}
layer {
  name: "inception_4b/relu_5x5"
  type: "ReLU"
  bottom: "inception_4b/5x5"
  top: "inception_4b/5x5"
}
layer {
  name: "inception_4b/pool"
  type: "Pooling"
  bottom: "inception_4a/output"
  top: "inception_4b/pool"
  pooling_param {
    pool: MAX
    kernel_size: 3
    stride: 1
    pad: 1
  }
}
layer {
  name: "inception_4b/pool_proj"
  type: "Convolution"
  bottom: "inception_4b/pool"
  top: "inception_4b/pool_proj"
  param {
    lr_mult: 1
    decay_mult: 1
  }
  param {
    lr_mult: 2
    decay_mult: 0
  }
  convolution_param {
    num_output: 64
    kernel_size: 1
    weight_filler {
      type: "xavier"
      std: 0.1
    }
    bias_filler {
      type: "constant"
      value: 0.2
    }
  }
}
layer {
  name: "inception_4b/relu_pool_proj"
  type: "ReLU"
  bottom: "inception_4b/pool_proj"
  top: "inception_4b/pool_proj"
}
layer {
  name: "inception_4b/output"
  type: "Concat"
  bottom: "inception_4b/1x1"
  bottom: "inception_4b/3x3"
  bottom: "inception_4b/5x5"
  bottom: "inception_4b/pool_proj"
  top: "inception_4b/output"
}
layer {
  name: "inception_4c/1x1"
  type: "Convolution"
  bottom: "inception_4b/output"
  top: "inception_4c/1x1"
  param {
    lr_mult: 1
    decay_mult: 1
  }
  param {
    lr_mult: 2
    decay_mult: 0
  }
  convolution_param {
    num_output: 128
    kernel_size: 1
    weight_filler {
      type: "xavier"
      std: 0.03
    }
    bias_filler {
      type: "constant"
      value: 0.2
    }
  }
}
layer {
  name: "inception_4c/relu_1x1"
  type: "ReLU"
  bottom: "inception_4c/1x1"
  top: "inception_4c/1x1"
}
layer {
  name: "inception_4c/3x3_reduce"
  type: "Convolution"
  bottom: "inception_4b/output"
  top: "inception_4c/3x3_reduce"
  param {
    lr_mult: 1
    decay_mult: 1
  }
  param {
    lr_mult: 2
    decay_mult: 0
  }
  convolution_param {
    num_output: 128
    kernel_size: 1
    weight_filler {
      type: "xavier"
      std: 0.09
    }
    bias_filler {
      type: "constant"
      value: 0.2
    }
  }
}
layer {
  name: "inception_4c/relu_3x3_reduce"
  type: "ReLU"
  bottom: "inception_4c/3x3_reduce"
  top: "inception_4c/3x3_reduce"
}
layer {
  name: "inception_4c/3x3"
  type: "Convolution"
  bottom: "inception_4c/3x3_reduce"
  top: "inception_4c/3x3"
  param {
    lr_mult: 1
    decay_mult: 1
  }
  param {
    lr_mult: 2
    decay_mult: 0
  }
  convolution_param {
    num_output: 256
    pad: 1
    kernel_size: 3
    weight_filler {
      type: "xavier"
      std: 0.03
    }
    bias_filler {
      type: "constant"
      value: 0.2
    }
  }
}
layer {
  name: "inception_4c/relu_3x3"
  type: "ReLU"
  bottom: "inception_4c/3x3"
  top: "inception_4c/3x3"
}
layer {
  name: "inception_4c/5x5_reduce"
  type: "Convolution"
  bottom: "inception_4b/output"
  top: "inception_4c/5x5_reduce"
  param {
    lr_mult: 1
    decay_mult: 1
  }
  param {
    lr_mult: 2
    decay_mult: 0
  }
  convolution_param {
    num_output: 24
    kernel_size: 1
    weight_filler {
      type: "xavier"
      std: 0.2
    }
    bias_filler {
      type: "constant"
      value: 0.2
    }
  }
}
layer {
  name: "inception_4c/relu_5x5_reduce"
  type: "ReLU"
  bottom: "inception_4c/5x5_reduce"
  top: "inception_4c/5x5_reduce"
}
layer {
  name: "inception_4c/5x5"
  type: "Convolution"
  bottom: "inception_4c/5x5_reduce"
  top: "inception_4c/5x5"
  param {
    lr_mult: 1
    decay_mult: 1
  }
  param {
    lr_mult: 2
    decay_mult: 0
  }
  convolution_param {
    num_output: 64
    pad: 2
    kernel_size: 5
    weight_filler {
      type: "xavier"
      std: 0.03
    }
    bias_filler {
      type: "constant"
      value: 0.2
    }
  }
}
layer {
  name: "inception_4c/relu_5x5"
  type: "ReLU"
  bottom: "inception_4c/5x5"
  top: "inception_4c/5x5"
}
layer {
  name: "inception_4c/pool"
  type: "Pooling"
  bottom: "inception_4b/output"
  top: "inception_4c/pool"
  pooling_param {
    pool: MAX
    kernel_size: 3
    stride: 1
    pad: 1
  }
}
layer {
  name: "inception_4c/pool_proj"
  type: "Convolution"
  bottom: "inception_4c/pool"
  top: "inception_4c/pool_proj"
  param {
    lr_mult: 1
    decay_mult: 1
  }
  param {
    lr_mult: 2
    decay_mult: 0
  }
  convolution_param {
    num_output: 64
    kernel_size: 1
    weight_filler {
      type: "xavier"
      std: 0.1
    }
    bias_filler {
      type: "constant"
      value: 0.2
    }
  }
}
layer {
  name: "inception_4c/relu_pool_proj"
  type: "ReLU"
  bottom: "inception_4c/pool_proj"
  top: "inception_4c/pool_proj"
}
layer {
  name: "inception_4c/output"
  type: "Concat"
  bottom: "inception_4c/1x1"
  bottom: "inception_4c/3x3"
  bottom: "inception_4c/5x5"
  bottom: "inception_4c/pool_proj"
  top: "inception_4c/output"
}
layer {
  name: "inception_4d/1x1"
  type: "Convolution"
  bottom: "inception_4c/output"
  top: "inception_4d/1x1"
  param {
    lr_mult: 1
    decay_mult: 1
  }
  param {
    lr_mult: 2
    decay_mult: 0
  }
  convolution_param {
    num_output: 112
    kernel_size: 1
    weight_filler {
      type: "xavier"
      std: 0.03
    }
    bias_filler {
      type: "constant"
      value: 0.2
    }
  }
}
layer {
  name: "inception_4d/relu_1x1"
  type: "ReLU"
  bottom: "inception_4d/1x1"
  top: "inception_4d/1x1"
}
layer {
  name: "inception_4d/3x3_reduce"
  type: "Convolution"
  bottom: "inception_4c/output"
  top: "inception_4d/3x3_reduce"
  param {
    lr_mult: 1
    decay_mult: 1
  }
  param {
    lr_mult: 2
    decay_mult: 0
  }
  convolution_param {
    num_output: 144
    kernel_size: 1
    weight_filler {
      type: "xavier"
      std: 0.09
    }
    bias_filler {
      type: "constant"
      value: 0.2
    }
  }
}
layer {
  name: "inception_4d/relu_3x3_reduce"
  type: "ReLU"
  bottom: "inception_4d/3x3_reduce"
  top: "inception_4d/3x3_reduce"
}
layer {
  name: "inception_4d/3x3"
  type: "Convolution"
  bottom: "inception_4d/3x3_reduce"
  top: "inception_4d/3x3"
  param {
    lr_mult: 1
    decay_mult: 1
  }
  param {
    lr_mult: 2
    decay_mult: 0
  }
  convolution_param {
    num_output: 288
    pad: 1
    kernel_size: 3
    weight_filler {
      type: "xavier"
      std: 0.03
    }
    bias_filler {
      type: "constant"
      value: 0.2
    }
  }
}
layer {
  name: "inception_4d/relu_3x3"
  type: "ReLU"
  bottom: "inception_4d/3x3"
  top: "inception_4d/3x3"
}
layer {
  name: "inception_4d/5x5_reduce"
  type: "Convolution"
  bottom: "inception_4c/output"
  top: "inception_4d/5x5_reduce"
  param {
    lr_mult: 1
    decay_mult: 1
  }
  param {
    lr_mult: 2
    decay_mult: 0
  }
  convolution_param {
    num_output: 32
    kernel_size: 1
    weight_filler {
      type: "xavier"
      std: 0.2
    }
    bias_filler {
      type: "constant"
      value: 0.2
    }
  }
}
layer {
  name: "inception_4d/relu_5x5_reduce"
  type: "ReLU"
  bottom: "inception_4d/5x5_reduce"
  top: "inception_4d/5x5_reduce"
}
layer {
  name: "inception_4d/5x5"
  type: "Convolution"
  bottom: "inception_4d/5x5_reduce"
  top: "inception_4d/5x5"
  param {
    lr_mult: 1
    decay_mult: 1
  }
  param {
    lr_mult: 2
    decay_mult: 0
  }
  convolution_param {
    num_output: 64
    pad: 2
    kernel_size: 5
    weight_filler {
      type: "xavier"
      std: 0.03
    }
    bias_filler {
      type: "constant"
      value: 0.2
    }
  }
}
layer {
  name: "inception_4d/relu_5x5"
  type: "ReLU"
  bottom: "inception_4d/5x5"
  top: "inception_4d/5x5"
}
layer {
  name: "inception_4d/pool"
  type: "Pooling"
  bottom: "inception_4c/output"
  top: "inception_4d/pool"
  pooling_param {
    pool: MAX
    kernel_size: 3
    stride: 1
    pad: 1
  }
}
layer {
  name: "inception_4d/pool_proj"
  type: "Convolution"
  bottom: "inception_4d/pool"
  top: "inception_4d/pool_proj"
  param {
    lr_mult: 1
    decay_mult: 1
  }
  param {
    lr_mult: 2
    decay_mult: 0
  }
  convolution_param {
    num_output: 64
    kernel_size: 1
    weight_filler {
      type: "xavier"
      std: 0.1
    }
    bias_filler {
      type: "constant"
      value: 0.2
    }
  }
}
layer {
  name: "inception_4d/relu_pool_proj"
  type: "ReLU"
  bottom: "inception_4d/pool_proj"
  top: "inception_4d/pool_proj"
}
layer {
  name: "inception_4d/output"
  type: "Concat"
  bottom: "inception_4d/1x1"
  bottom: "inception_4d/3x3"
  bottom: "inception_4d/5x5"
  bottom: "inception_4d/pool_proj"
  top: "inception_4d/output"
}
layer {
  name: "loss2/ave_pool"
  type: "Pooling"
  bottom: "inception_4d/output"
  top: "loss2/ave_pool"
  pooling_param {
    pool: AVE
    kernel_size: 5
    stride: 3
  }
}
layer {
  name: "loss2/conv"
  type: "Convolution"
  bottom: "loss2/ave_pool"
  top: "loss2/conv"
  param {
    lr_mult: 1
    decay_mult: 1
  }
  param {
    lr_mult: 2
    decay_mult: 0
  }
  convolution_param {
    num_output: 128
    kernel_size: 1
    weight_filler {
      type: "xavier"
      std: 0.08
    }
    bias_filler {
      type: "constant"
      value: 0.2
    }
  }
}
layer {
  name: "loss2/relu_conv"
  type: "ReLU"
  bottom: "loss2/conv"
  top: "loss2/conv"
}
layer {
  name: "loss2/fc"
  type: "InnerProduct"
  bottom: "loss2/conv"
  top: "loss2/fc"
  param {
    lr_mult: 1
    decay_mult: 1
  }
  param {
    lr_mult: 2
    decay_mult: 0
  }
  inner_product_param {
    num_output: 1024
    weight_filler {
      type: "xavier"
      std: 0.02
    }
    bias_filler {
      type: "constant"
      value: 0.2
    }
  }
}
layer {
  name: "loss2/relu_fc"
  type: "ReLU"
  bottom: "loss2/fc"
  top: "loss2/fc"
}
layer {
  name: "loss2/drop_fc"
  type: "Dropout"
  bottom: "loss2/fc"
  top: "loss2/fc"
  dropout_param {
    dropout_ratio: 0.7
  }
}
layer {
  name: "loss2/classifier_plantvillage"
  type: "InnerProduct"
  bottom: "loss2/fc"
  top: "loss2/classifier_plantvillage"
  param {
    lr_mult: 1
    decay_mult: 1
  }
  param {
    lr_mult: 2
    decay_mult: 0
  }
  inner_product_param {
    num_output: 38
    weight_filler {
      type: "xavier"
      std: 0.0009765625
    }
    bias_filler {
      type: "constant"
      value: 0
    }
  }
}
layer {
  name: "inception_4e/1x1"
  type: "Convolution"
  bottom: "inception_4d/output"
  top: "inception_4e/1x1"
  param {
    lr_mult: 1
    decay_mult: 1
  }
  param {
    lr_mult: 2
    decay_mult: 0
  }
  convolution_param {
    num_output: 256
    kernel_size: 1
    weight_filler {
      type: "xavier"
      std: 0.03
    }
    bias_filler {
      type: "constant"
      value: 0.2
    }
  }
}
layer {
  name: "inception_4e/relu_1x1"
  type: "ReLU"
  bottom: "inception_4e/1x1"
  top: "inception_4e/1x1"
}
layer {
  name: "inception_4e/3x3_reduce"
  type: "Convolution"
  bottom: "inception_4d/output"
  top: "inception_4e/3x3_reduce"
  param {
    lr_mult: 1
    decay_mult: 1
  }
  param {
    lr_mult: 2
    decay_mult: 0
  }
  convolution_param {
    num_output: 160
    kernel_size: 1
    weight_filler {
      type: "xavier"
      std: 0.09
    }
    bias_filler {
      type: "constant"
      value: 0.2
    }
  }
}
layer {
  name: "inception_4e/relu_3x3_reduce"
  type: "ReLU"
  bottom: "inception_4e/3x3_reduce"
  top: "inception_4e/3x3_reduce"
}
layer {
  name: "inception_4e/3x3"
  type: "Convolution"
  bottom: "inception_4e/3x3_reduce"
  top: "inception_4e/3x3"
  param {
    lr_mult: 1
    decay_mult: 1
  }
  param {
    lr_mult: 2
    decay_mult: 0
  }
  convolution_param {
    num_output: 320
    pad: 1
    kernel_size: 3
    weight_filler {
      type: "xavier"
      std: 0.03
    }
    bias_filler {
      type: "constant"
      value: 0.2
    }
  }
}
layer {
  name: "inception_4e/relu_3x3"
  type: "ReLU"
  bottom: "inception_4e/3x3"
  top: "inception_4e/3x3"
}
layer {
  name: "inception_4e/5x5_reduce"
  type: "Convolution"
  bottom: "inception_4d/output"
  top: "inception_4e/5x5_reduce"
  param {
    lr_mult: 1
    decay_mult: 1
  }
  param {
    lr_mult: 2
    decay_mult: 0
  }
  convolution_param {
    num_output: 32
    kernel_size: 1
    weight_filler {
      type: "xavier"
      std: 0.2
    }
    bias_filler {
      type: "constant"
      value: 0.2
    }
  }
}
layer {
  name: "inception_4e/relu_5x5_reduce"
  type: "ReLU"
  bottom: "inception_4e/5x5_reduce"
  top: "inception_4e/5x5_reduce"
}
layer {
  name: "inception_4e/5x5"
  type: "Convolution"
  bottom: "inception_4e/5x5_reduce"
  top: "inception_4e/
I0403 19:03:11.800927 18563 layer_factory.hpp:77] Creating layer data
I0403 19:03:11.801564 18563 net.cpp:91] Creating Layer data
I0403 19:03:11.801596 18563 net.cpp:399] data -> data
I0403 19:03:11.801650 18563 net.cpp:399] data -> label
I0403 19:03:11.801687 18563 data_transformer.cpp:25] Loading mean file from: /home/mohanty/data/final_dataset/lmdb/segmented-60-40/mean.binaryproto
I0403 19:03:11.802837 18565 db_lmdb.cpp:38] Opened lmdb /home/mohanty/data/final_dataset/lmdb/segmented-60-40/test_db
I0403 19:03:11.814648 18563 data_layer.cpp:41] output data size: 24,3,224,224
I0403 19:03:11.841768 18563 net.cpp:141] Setting up data
I0403 19:03:11.841856 18563 net.cpp:148] Top shape: 24 3 224 224 (3612672)
I0403 19:03:11.841877 18563 net.cpp:148] Top shape: 24 (24)
I0403 19:03:11.841893 18563 net.cpp:156] Memory required for data: 14450784
I0403 19:03:11.841920 18563 layer_factory.hpp:77] Creating layer label_data_1_split
I0403 19:03:11.841948 18563 net.cpp:91] Creating Layer label_data_1_split
I0403 19:03:11.841966 18563 net.cpp:425] label_data_1_split <- label
I0403 19:03:11.842000 18563 net.cpp:399] label_data_1_split -> label_data_1_split_0
I0403 19:03:11.842028 18563 net.cpp:399] label_data_1_split -> label_data_1_split_1
I0403 19:03:11.842051 18563 net.cpp:399] label_data_1_split -> label_data_1_split_2
I0403 19:03:11.842072 18563 net.cpp:399] label_data_1_split -> label_data_1_split_3
I0403 19:03:11.842092 18563 net.cpp:399] label_data_1_split -> label_data_1_split_4
I0403 19:03:11.842111 18563 net.cpp:399] label_data_1_split -> label_data_1_split_5
I0403 19:03:11.842131 18563 net.cpp:399] label_data_1_split -> label_data_1_split_6
I0403 19:03:11.842151 18563 net.cpp:399] label_data_1_split -> label_data_1_split_7
I0403 19:03:11.842171 18563 net.cpp:399] label_data_1_split -> label_data_1_split_8
I0403 19:03:11.842191 18563 net.cpp:399] label_data_1_split -> label_data_1_split_9
I0403 19:03:11.842306 18563 net.cpp:141] Setting up label_data_1_split
I0403 19:03:11.842330 18563 net.cpp:148] Top shape: 24 (24)
I0403 19:03:11.842347 18563 net.cpp:148] Top shape: 24 (24)
I0403 19:03:11.842363 18563 net.cpp:148] Top shape: 24 (24)
I0403 19:03:11.842380 18563 net.cpp:148] Top shape: 24 (24)
I0403 19:03:11.842394 18563 net.cpp:148] Top shape: 24 (24)
I0403 19:03:11.842411 18563 net.cpp:148] Top shape: 24 (24)
I0403 19:03:11.842425 18563 net.cpp:148] Top shape: 24 (24)
I0403 19:03:11.842442 18563 net.cpp:148] Top shape: 24 (24)
I0403 19:03:11.842456 18563 net.cpp:148] Top shape: 24 (24)
I0403 19:03:11.842473 18563 net.cpp:148] Top shape: 24 (24)
I0403 19:03:11.842516 18563 net.cpp:156] Memory required for data: 14451744
I0403 19:03:11.842532 18563 layer_factory.hpp:77] Creating layer conv1/7x7_s2
I0403 19:03:11.842563 18563 net.cpp:91] Creating Layer conv1/7x7_s2
I0403 19:03:11.842582 18563 net.cpp:425] conv1/7x7_s2 <- data
I0403 19:03:11.842602 18563 net.cpp:399] conv1/7x7_s2 -> conv1/7x7_s2
I0403 19:03:11.981257 18563 net.cpp:141] Setting up conv1/7x7_s2
I0403 19:03:11.981344 18563 net.cpp:148] Top shape: 24 64 112 112 (19267584)
I0403 19:03:11.981362 18563 net.cpp:156] Memory required for data: 91522080
I0403 19:03:11.981392 18563 layer_factory.hpp:77] Creating layer conv1/relu_7x7
I0403 19:03:11.981418 18563 net.cpp:91] Creating Layer conv1/relu_7x7
I0403 19:03:11.981436 18563 net.cpp:425] conv1/relu_7x7 <- conv1/7x7_s2
I0403 19:03:11.981456 18563 net.cpp:386] conv1/relu_7x7 -> conv1/7x7_s2 (in-place)
I0403 19:03:11.981706 18563 net.cpp:141] Setting up conv1/relu_7x7
I0403 19:03:11.981732 18563 net.cpp:148] Top shape: 24 64 112 112 (19267584)
I0403 19:03:11.981747 18563 net.cpp:156] Memory required for data: 168592416
I0403 19:03:11.981762 18563 layer_factory.hpp:77] Creating layer pool1/3x3_s2
I0403 19:03:11.981786 18563 net.cpp:91] Creating Layer pool1/3x3_s2
I0403 19:03:11.981804 18563 net.cpp:425] pool1/3x3_s2 <- conv1/7x7_s2
I0403 19:03:11.981822 18563 net.cpp:399] pool1/3x3_s2 -> pool1/3x3_s2
I0403 19:03:11.981896 18563 net.cpp:141] Setting up pool1/3x3_s2
I0403 19:03:11.981920 18563 net.cpp:148] Top shape: 24 64 56 56 (4816896)
I0403 19:03:11.981935 18563 net.cpp:156] Memory required for data: 187860000
I0403 19:03:11.981950 18563 layer_factory.hpp:77] Creating layer pool1/norm1
I0403 19:03:11.981974 18563 net.cpp:91] Creating Layer pool1/norm1
I0403 19:03:11.981997 18563 net.cpp:425] pool1/norm1 <- pool1/3x3_s2
I0403 19:03:11.982014 18563 net.cpp:399] pool1/norm1 -> pool1/norm1
I0403 19:03:11.982296 18563 net.cpp:141] Setting up pool1/norm1
I0403 19:03:11.982326 18563 net.cpp:148] Top shape: 24 64 56 56 (4816896)
I0403 19:03:11.982342 18563 net.cpp:156] Memory required for data: 207127584
I0403 19:03:11.982357 18563 layer_factory.hpp:77] Creating layer conv2/3x3_reduce
I0403 19:03:11.982383 18563 net.cpp:91] Creating Layer conv2/3x3_reduce
I0403 19:03:11.982401 18563 net.cpp:425] conv2/3x3_reduce <- pool1/norm1
I0403 19:03:11.982420 18563 net.cpp:399] conv2/3x3_reduce -> conv2/3x3_reduce
I0403 19:03:11.983784 18563 net.cpp:141] Setting up conv2/3x3_reduce
I0403 19:03:11.983814 18563 net.cpp:148] Top shape: 24 64 56 56 (4816896)
I0403 19:03:11.983829 18563 net.cpp:156] Memory required for data: 226395168
I0403 19:03:11.983850 18563 layer_factory.hpp:77] Creating layer conv2/relu_3x3_reduce
I0403 19:03:11.983871 18563 net.cpp:91] Creating Layer conv2/relu_3x3_reduce
I0403 19:03:11.983887 18563 net.cpp:425] conv2/relu_3x3_reduce <- conv2/3x3_reduce
I0403 19:03:11.983904 18563 net.cpp:386] conv2/relu_3x3_reduce -> conv2/3x3_reduce (in-place)
I0403 19:03:11.984171 18563 net.cpp:141] Setting up conv2/relu_3x3_reduce
I0403 19:03:11.984197 18563 net.cpp:148] Top shape: 24 64 56 56 (4816896)
I0403 19:03:11.984212 18563 net.cpp:156] Memory required for data: 245662752
I0403 19:03:11.984227 18563 layer_factory.hpp:77] Creating layer conv2/3x3
I0403 19:03:11.984251 18563 net.cpp:91] Creating Layer conv2/3x3
I0403 19:03:11.984269 18563 net.cpp:425] conv2/3x3 <- conv2/3x3_reduce
I0403 19:03:11.984290 18563 net.cpp:399] conv2/3x3 -> conv2/3x3
I0403 19:03:11.986558 18563 net.cpp:141] Setting up conv2/3x3
I0403 19:03:11.986588 18563 net.cpp:148] Top shape: 24 192 56 56 (14450688)
I0403 19:03:11.986604 18563 net.cpp:156] Memory required for data: 303465504
I0403 19:03:11.986626 18563 layer_factory.hpp:77] Creating layer conv2/relu_3x3
I0403 19:03:11.986647 18563 net.cpp:91] Creating Layer conv2/relu_3x3
I0403 19:03:11.986665 18563 net.cpp:425] conv2/relu_3x3 <- conv2/3x3
I0403 19:03:11.986682 18563 net.cpp:386] conv2/relu_3x3 -> conv2/3x3 (in-place)
I0403 19:03:11.986855 18563 net.cpp:141] Setting up conv2/relu_3x3
I0403 19:03:11.986881 18563 net.cpp:148] Top shape: 24 192 56 56 (14450688)
I0403 19:03:11.986927 18563 net.cpp:156] Memory required for data: 361268256
I0403 19:03:11.986943 18563 layer_factory.hpp:77] Creating layer conv2/norm2
I0403 19:03:11.986960 18563 net.cpp:91] Creating Layer conv2/norm2
I0403 19:03:11.986980 18563 net.cpp:425] conv2/norm2 <- conv2/3x3
I0403 19:03:11.987001 18563 net.cpp:399] conv2/norm2 -> conv2/norm2
I0403 19:03:11.987308 18563 net.cpp:141] Setting up conv2/norm2
I0403 19:03:11.987334 18563 net.cpp:148] Top shape: 24 192 56 56 (14450688)
I0403 19:03:11.987349 18563 net.cpp:156] Memory required for data: 419071008
I0403 19:03:11.987365 18563 layer_factory.hpp:77] Creating layer pool2/3x3_s2
I0403 19:03:11.987382 18563 net.cpp:91] Creating Layer pool2/3x3_s2
I0403 19:03:11.987397 18563 net.cpp:425] pool2/3x3_s2 <- conv2/norm2
I0403 19:03:11.987417 18563 net.cpp:399] pool2/3x3_s2 -> pool2/3x3_s2
I0403 19:03:11.987468 18563 net.cpp:141] Setting up pool2/3x3_s2
I0403 19:03:11.987491 18563 net.cpp:148] Top shape: 24 192 28 28 (3612672)
I0403 19:03:11.987506 18563 net.cpp:156] Memory required for data: 433521696
I0403 19:03:11.987520 18563 layer_factory.hpp:77] Creating layer pool2/3x3_s2_pool2/3x3_s2_0_split
I0403 19:03:11.987540 18563 net.cpp:91] Creating Layer pool2/3x3_s2_pool2/3x3_s2_0_split
I0403 19:03:11.987556 18563 net.cpp:425] pool2/3x3_s2_pool2/3x3_s2_0_split <- pool2/3x3_s2
I0403 19:03:11.987576 18563 net.cpp:399] pool2/3x3_s2_pool2/3x3_s2_0_split -> pool2/3x3_s2_pool2/3x3_s2_0_split_0
I0403 19:03:11.987596 18563 net.cpp:399] pool2/3x3_s2_pool2/3x3_s2_0_split -> pool2/3x3_s2_pool2/3x3_s2_0_split_1
I0403 19:03:11.987614 18563 net.cpp:399] pool2/3x3_s2_pool2/3x3_s2_0_split -> pool2/3x3_s2_pool2/3x3_s2_0_split_2
I0403 19:03:11.987634 18563 net.cpp:399] pool2/3x3_s2_pool2/3x3_s2_0_split -> pool2/3x3_s2_pool2/3x3_s2_0_split_3
I0403 19:03:11.987704 18563 net.cpp:141] Setting up pool2/3x3_s2_pool2/3x3_s2_0_split
I0403 19:03:11.987725 18563 net.cpp:148] Top shape: 24 192 28 28 (3612672)
I0403 19:03:11.987745 18563 net.cpp:148] Top shape: 24 192 28 28 (3612672)
I0403 19:03:11.987759 18563 net.cpp:148] Top shape: 24 192 28 28 (3612672)
I0403 19:03:11.987774 18563 net.cpp:148] Top shape: 24 192 28 28 (3612672)
I0403 19:03:11.987788 18563 net.cpp:156] Memory required for data: 491324448
I0403 19:03:11.987803 18563 layer_factory.hpp:77] Creating layer inception_3a/1x1
I0403 19:03:11.987823 18563 net.cpp:91] Creating Layer inception_3a/1x1
I0403 19:03:11.987839 18563 net.cpp:425] inception_3a/1x1 <- pool2/3x3_s2_pool2/3x3_s2_0_split_0
I0403 19:03:11.987859 18563 net.cpp:399] inception_3a/1x1 -> inception_3a/1x1
I0403 19:03:11.989398 18563 net.cpp:141] Setting up inception_3a/1x1
I0403 19:03:11.989429 18563 net.cpp:148] Top shape: 24 64 28 28 (1204224)
I0403 19:03:11.989446 18563 net.cpp:156] Memory required for data: 496141344
I0403 19:03:11.989477 18563 layer_factory.hpp:77] Creating layer inception_3a/relu_1x1
I0403 19:03:11.989498 18563 net.cpp:91] Creating Layer inception_3a/relu_1x1
I0403 19:03:11.989514 18563 net.cpp:425] inception_3a/relu_1x1 <- inception_3a/1x1
I0403 19:03:11.989532 18563 net.cpp:386] inception_3a/relu_1x1 -> inception_3a/1x1 (in-place)
I0403 19:03:11.989703 18563 net.cpp:141] Setting up inception_3a/relu_1x1
I0403 19:03:11.989729 18563 net.cpp:148] Top shape: 24 64 28 28 (1204224)
I0403 19:03:11.989743 18563 net.cpp:156] Memory required for data: 500958240
I0403 19:03:11.989758 18563 layer_factory.hpp:77] Creating layer inception_3a/3x3_reduce
I0403 19:03:11.989790 18563 net.cpp:91] Creating Layer inception_3a/3x3_reduce
I0403 19:03:11.989807 18563 net.cpp:425] inception_3a/3x3_reduce <- pool2/3x3_s2_pool2/3x3_s2_0_split_1
I0403 19:03:11.989826 18563 net.cpp:399] inception_3a/3x3_reduce -> inception_3a/3x3_reduce
I0403 19:03:11.991497 18563 net.cpp:141] Setting up inception_3a/3x3_reduce
I0403 19:03:11.991526 18563 net.cpp:148] Top shape: 24 96 28 28 (1806336)
I0403 19:03:11.991541 18563 net.cpp:156] Memory required for data: 508183584
I0403 19:03:11.991564 18563 layer_factory.hpp:77] Creating layer inception_3a/relu_3x3_reduce
I0403 19:03:11.991600 18563 net.cpp:91] Creating Layer inception_3a/relu_3x3_reduce
I0403 19:03:11.991618 18563 net.cpp:425] inception_3a/relu_3x3_reduce <- inception_3a/3x3_reduce
I0403 19:03:11.991636 18563 net.cpp:386] inception_3a/relu_3x3_reduce -> inception_3a/3x3_reduce (in-place)
I0403 19:03:11.991818 18563 net.cpp:141] Setting up inception_3a/relu_3x3_reduce
I0403 19:03:11.991843 18563 net.cpp:148] Top shape: 24 96 28 28 (1806336)
I0403 19:03:11.991858 18563 net.cpp:156] Memory required for data: 515408928
I0403 19:03:11.991871 18563 layer_factory.hpp:77] Creating layer inception_3a/3x3
I0403 19:03:11.991894 18563 net.cpp:91] Creating Layer inception_3a/3x3
I0403 19:03:11.991910 18563 net.cpp:425] inception_3a/3x3 <- inception_3a/3x3_reduce
I0403 19:03:11.991932 18563 net.cpp:399] inception_3a/3x3 -> inception_3a/3x3
I0403 19:03:11.993556 18563 net.cpp:141] Setting up inception_3a/3x3
I0403 19:03:11.993584 18563 net.cpp:148] Top shape: 24 128 28 28 (2408448)
I0403 19:03:11.993599 18563 net.cpp:156] Memory required for data: 525042720
I0403 19:03:11.993618 18563 layer_factory.hpp:77] Creating layer inception_3a/relu_3x3
I0403 19:03:11.993638 18563 net.cpp:91] Creating Layer inception_3a/relu_3x3
I0403 19:03:11.993654 18563 net.cpp:425] inception_3a/relu_3x3 <- inception_3a/3x3
I0403 19:03:11.993671 18563 net.cpp:386] inception_3a/relu_3x3 -> inception_3a/3x3 (in-place)
I0403 19:03:11.993940 18563 net.cpp:141] Setting up inception_3a/relu_3x3
I0403 19:03:11.993966 18563 net.cpp:148] Top shape: 24 128 28 28 (2408448)
I0403 19:03:11.993985 18563 net.cpp:156] Memory required for data: 534676512
I0403 19:03:11.994001 18563 layer_factory.hpp:77] Creating layer inception_3a/5x5_reduce
I0403 19:03:11.994024 18563 net.cpp:91] Creating Layer inception_3a/5x5_reduce
I0403 19:03:11.994040 18563 net.cpp:425] inception_3a/5x5_reduce <- pool2/3x3_s2_pool2/3x3_s2_0_split_2
I0403 19:03:11.994061 18563 net.cpp:399] inception_3a/5x5_reduce -> inception_3a/5x5_reduce
I0403 19:03:11.994995 18563 net.cpp:141] Setting up inception_3a/5x5_reduce
I0403 19:03:11.995025 18563 net.cpp:148] Top shape: 24 16 28 28 (301056)
I0403 19:03:11.995043 18563 net.cpp:156] Memory required for data: 535880736
I0403 19:03:11.995060 18563 layer_factory.hpp:77] Creating layer inception_3a/relu_5x5_reduce
I0403 19:03:11.995079 18563 net.cpp:91] Creating Layer inception_3a/relu_5x5_reduce
I0403 19:03:11.995095 18563 net.cpp:425] inception_3a/relu_5x5_reduce <- inception_3a/5x5_reduce
I0403 19:03:11.995112 18563 net.cpp:386] inception_3a/relu_5x5_reduce -> inception_3a/5x5_reduce (in-place)
I0403 19:03:11.995404 18563 net.cpp:141] Setting up inception_3a/relu_5x5_reduce
I0403 19:03:11.995432 18563 net.cpp:148] Top shape: 24 16 28 28 (301056)
I0403 19:03:11.995450 18563 net.cpp:156] Memory required for data: 537084960
I0403 19:03:11.995465 18563 layer_factory.hpp:77] Creating layer inception_3a/5x5
I0403 19:03:11.995486 18563 net.cpp:91] Creating Layer inception_3a/5x5
I0403 19:03:11.995503 18563 net.cpp:425] inception_3a/5x5 <- inception_3a/5x5_reduce
I0403 19:03:11.995522 18563 net.cpp:399] inception_3a/5x5 -> inception_3a/5x5
I0403 19:03:11.996511 18563 net.cpp:141] Setting up inception_3a/5x5
I0403 19:03:11.996538 18563 net.cpp:148] Top shape: 24 32 28 28 (602112)
I0403 19:03:11.996553 18563 net.cpp:156] Memory required for data: 539493408
I0403 19:03:11.996572 18563 layer_factory.hpp:77] Creating layer inception_3a/relu_5x5
I0403 19:03:11.996592 18563 net.cpp:91] Creating Layer inception_3a/relu_5x5
I0403 19:03:11.996609 18563 net.cpp:425] inception_3a/relu_5x5 <- inception_3a/5x5
I0403 19:03:11.996626 18563 net.cpp:386] inception_3a/relu_5x5 -> inception_3a/5x5 (in-place)
I0403 19:03:11.996798 18563 net.cpp:141] Setting up inception_3a/relu_5x5
I0403 19:03:11.996825 18563 net.cpp:148] Top shape: 24 32 28 28 (602112)
I0403 19:03:11.996840 18563 net.cpp:156] Memory required for data: 541901856
I0403 19:03:11.996855 18563 layer_factory.hpp:77] Creating layer inception_3a/pool
I0403 19:03:11.996873 18563 net.cpp:91] Creating Layer inception_3a/pool
I0403 19:03:11.996902 18563 net.cpp:425] inception_3a/pool <- pool2/3x3_s2_pool2/3x3_s2_0_split_3
I0403 19:03:11.996924 18563 net.cpp:399] inception_3a/pool -> inception_3a/pool
I0403 19:03:11.996983 18563 net.cpp:141] Setting up inception_3a/pool
I0403 19:03:11.997006 18563 net.cpp:148] Top shape: 24 192 28 28 (3612672)
I0403 19:03:11.997021 18563 net.cpp:156] Memory required for data: 556352544
I0403 19:03:11.997035 18563 layer_factory.hpp:77] Creating layer inception_3a/pool_proj
I0403 19:03:11.997057 18563 net.cpp:91] Creating Layer inception_3a/pool_proj
I0403 19:03:11.997074 18563 net.cpp:425] inception_3a/pool_proj <- inception_3a/pool
I0403 19:03:11.997097 18563 net.cpp:399] inception_3a/pool_proj -> inception_3a/pool_proj
I0403 19:03:11.998044 18563 net.cpp:141] Setting up inception_3a/pool_proj
I0403 19:03:11.998071 18563 net.cpp:148] Top shape: 24 32 28 28 (602112)
I0403 19:03:11.998087 18563 net.cpp:156] Memory required for data: 558760992
I0403 19:03:11.998111 18563 layer_factory.hpp:77] Creating layer inception_3a/relu_pool_proj
I0403 19:03:11.998131 18563 net.cpp:91] Creating Layer inception_3a/relu_pool_proj
I0403 19:03:11.998147 18563 net.cpp:425] inception_3a/relu_pool_proj <- inception_3a/pool_proj
I0403 19:03:11.998164 18563 net.cpp:386] inception_3a/relu_pool_proj -> inception_3a/pool_proj (in-place)
I0403 19:03:11.998428 18563 net.cpp:141] Setting up inception_3a/relu_pool_proj
I0403 19:03:11.998455 18563 net.cpp:148] Top shape: 24 32 28 28 (602112)
I0403 19:03:11.998471 18563 net.cpp:156] Memory required for data: 561169440
I0403 19:03:11.998486 18563 layer_factory.hpp:77] Creating layer inception_3a/output
I0403 19:03:11.998505 18563 net.cpp:91] Creating Layer inception_3a/output
I0403 19:03:11.998522 18563 net.cpp:425] inception_3a/output <- inception_3a/1x1
I0403 19:03:11.998538 18563 net.cpp:425] inception_3a/output <- inception_3a/3x3
I0403 19:03:11.998553 18563 net.cpp:425] inception_3a/output <- inception_3a/5x5
I0403 19:03:11.998569 18563 net.cpp:425] inception_3a/output <- inception_3a/pool_proj
I0403 19:03:11.998586 18563 net.cpp:399] inception_3a/output -> inception_3a/output
I0403 19:03:11.998633 18563 net.cpp:141] Setting up inception_3a/output
I0403 19:03:11.998656 18563 net.cpp:148] Top shape: 24 256 28 28 (4816896)
I0403 19:03:11.998670 18563 net.cpp:156] Memory required for data: 580437024
I0403 19:03:11.998685 18563 layer_factory.hpp:77] Creating layer inception_3a/output_inception_3a/output_0_split
I0403 19:03:11.998703 18563 net.cpp:91] Creating Layer inception_3a/output_inception_3a/output_0_split
I0403 19:03:11.998718 18563 net.cpp:425] inception_3a/output_inception_3a/output_0_split <- inception_3a/output
I0403 19:03:11.998739 18563 net.cpp:399] inception_3a/output_inception_3a/output_0_split -> inception_3a/output_inception_3a/output_0_split_0
I0403 19:03:11.998759 18563 net.cpp:399] inception_3a/output_inception_3a/output_0_split -> inception_3a/output_inception_3a/output_0_split_1
I0403 19:03:11.998780 18563 net.cpp:399] inception_3a/output_inception_3a/output_0_split -> inception_3a/output_inception_3a/output_0_split_2
I0403 19:03:11.998803 18563 net.cpp:399] inception_3a/output_inception_3a/output_0_split -> inception_3a/output_inception_3a/output_0_split_3
I0403 19:03:11.998877 18563 net.cpp:141] Setting up inception_3a/output_inception_3a/output_0_split
I0403 19:03:11.998899 18563 net.cpp:148] Top shape: 24 256 28 28 (4816896)
I0403 19:03:11.998924 18563 net.cpp:148] Top shape: 24 256 28 28 (4816896)
I0403 19:03:11.998939 18563 net.cpp:148] Top shape: 24 256 28 28 (4816896)
I0403 19:03:11.998955 18563 net.cpp:148] Top shape: 24 256 28 28 (4816896)
I0403 19:03:11.998968 18563 net.cpp:156] Memory required for data: 657507360
I0403 19:03:11.998996 18563 layer_factory.hpp:77] Creating layer inception_3b/1x1
I0403 19:03:11.999022 18563 net.cpp:91] Creating Layer inception_3b/1x1
I0403 19:03:11.999040 18563 net.cpp:425] inception_3b/1x1 <- inception_3a/output_inception_3a/output_0_split_0
I0403 19:03:11.999060 18563 net.cpp:399] inception_3b/1x1 -> inception_3b/1x1
I0403 19:03:12.000170 18563 net.cpp:141] Setting up inception_3b/1x1
I0403 19:03:12.000211 18563 net.cpp:148] Top shape: 24 128 28 28 (2408448)
I0403 19:03:12.000227 18563 net.cpp:156] Memory required for data: 667141152
I0403 19:03:12.000247 18563 layer_factory.hpp:77] Creating layer inception_3b/relu_1x1
I0403 19:03:12.000264 18563 net.cpp:91] Creating Layer inception_3b/relu_1x1
I0403 19:03:12.000280 18563 net.cpp:425] inception_3b/relu_1x1 <- inception_3b/1x1
I0403 19:03:12.000299 18563 net.cpp:386] inception_3b/relu_1x1 -> inception_3b/1x1 (in-place)
I0403 19:03:12.000473 18563 net.cpp:141] Setting up inception_3b/relu_1x1
I0403 19:03:12.000497 18563 net.cpp:148] Top shape: 24 128 28 28 (2408448)
I0403 19:03:12.000512 18563 net.cpp:156] Memory required for data: 676774944
I0403 19:03:12.000527 18563 layer_factory.hpp:77] Creating layer inception_3b/3x3_reduce
I0403 19:03:12.000550 18563 net.cpp:91] Creating Layer inception_3b/3x3_reduce
I0403 19:03:12.000566 18563 net.cpp:425] inception_3b/3x3_reduce <- inception_3a/output_inception_3a/output_0_split_1
I0403 19:03:12.000587 18563 net.cpp:399] inception_3b/3x3_reduce -> inception_3b/3x3_reduce
I0403 19:03:12.001739 18563 net.cpp:141] Setting up inception_3b/3x3_reduce
I0403 19:03:12.001767 18563 net.cpp:148] Top shape: 24 128 28 28 (2408448)
I0403 19:03:12.001782 18563 net.cpp:156] Memory required for data: 686408736
I0403 19:03:12.001801 18563 layer_factory.hpp:77] Creating layer inception_3b/relu_3x3_reduce
I0403 19:03:12.001821 18563 net.cpp:91] Creating Layer inception_3b/relu_3x3_reduce
I0403 19:03:12.001837 18563 net.cpp:425] inception_3b/relu_3x3_reduce <- inception_3b/3x3_reduce
I0403 19:03:12.001855 18563 net.cpp:386] inception_3b/relu_3x3_reduce -> inception_3b/3x3_reduce (in-place)
I0403 19:03:12.002027 18563 net.cpp:141] Setting up inception_3b/relu_3x3_reduce
I0403 19:03:12.002053 18563 net.cpp:148] Top shape: 24 128 28 28 (2408448)
I0403 19:03:12.002066 18563 net.cpp:156] Memory required for data: 696042528
I0403 19:03:12.002081 18563 layer_factory.hpp:77] Creating layer inception_3b/3x3
I0403 19:03:12.002107 18563 net.cpp:91] Creating Layer inception_3b/3x3
I0403 19:03:12.002125 18563 net.cpp:425] inception_3b/3x3 <- inception_3b/3x3_reduce
I0403 19:03:12.002143 18563 net.cpp:399] inception_3b/3x3 -> inception_3b/3x3
I0403 19:03:12.005012 18563 net.cpp:141] Setting up inception_3b/3x3
I0403 19:03:12.005040 18563 net.cpp:148] Top shape: 24 192 28 28 (3612672)
I0403 19:03:12.005055 18563 net.cpp:156] Memory required for data: 710493216
I0403 19:03:12.005074 18563 layer_factory.hpp:77] Creating layer inception_3b/relu_3x3
I0403 19:03:12.005095 18563 net.cpp:91] Creating Layer inception_3b/relu_3x3
I0403 19:03:12.005111 18563 net.cpp:425] inception_3b/relu_3x3 <- inception_3b/3x3
I0403 19:03:12.005128 18563 net.cpp:386] inception_3b/relu_3x3 -> inception_3b/3x3 (in-place)
I0403 19:03:12.005398 18563 net.cpp:141] Setting up inception_3b/relu_3x3
I0403 19:03:12.005424 18563 net.cpp:148] Top shape: 24 192 28 28 (3612672)
I0403 19:03:12.005439 18563 net.cpp:156] Memory required for data: 724943904
I0403 19:03:12.005453 18563 layer_factory.hpp:77] Creating layer inception_3b/5x5_reduce
I0403 19:03:12.005475 18563 net.cpp:91] Creating Layer inception_3b/5x5_reduce
I0403 19:03:12.005493 18563 net.cpp:425] inception_3b/5x5_reduce <- inception_3a/output_inception_3a/output_0_split_2
I0403 19:03:12.005516 18563 net.cpp:399] inception_3b/5x5_reduce -> inception_3b/5x5_reduce
I0403 19:03:12.006489 18563 net.cpp:141] Setting up inception_3b/5x5_reduce
I0403 19:03:12.006517 18563 net.cpp:148] Top shape: 24 32 28 28 (602112)
I0403 19:03:12.006533 18563 net.cpp:156] Memory required for data: 727352352
I0403 19:03:12.006551 18563 layer_factory.hpp:77] Creating layer inception_3b/relu_5x5_reduce
I0403 19:03:12.006572 18563 net.cpp:91] Creating Layer inception_3b/relu_5x5_reduce
I0403 19:03:12.006589 18563 net.cpp:425] inception_3b/relu_5x5_reduce <- inception_3b/5x5_reduce
I0403 19:03:12.006608 18563 net.cpp:386] inception_3b/relu_5x5_reduce -> inception_3b/5x5_reduce (in-place)
I0403 19:03:12.006798 18563 net.cpp:141] Setting up inception_3b/relu_5x5_reduce
I0403 19:03:12.006824 18563 net.cpp:148] Top shape: 24 32 28 28 (602112)
I0403 19:03:12.006839 18563 net.cpp:156] Memory required for data: 729760800
I0403 19:03:12.006855 18563 layer_factory.hpp:77] Creating layer inception_3b/5x5
I0403 19:03:12.006876 18563 net.cpp:91] Creating Layer inception_3b/5x5
I0403 19:03:12.006893 18563 net.cpp:425] inception_3b/5x5 <- inception_3b/5x5_reduce
I0403 19:03:12.006924 18563 net.cpp:399] inception_3b/5x5 -> inception_3b/5x5
I0403 19:03:12.008883 18563 net.cpp:141] Setting up inception_3b/5x5
I0403 19:03:12.008911 18563 net.cpp:148] Top shape: 24 96 28 28 (1806336)
I0403 19:03:12.008927 18563 net.cpp:156] Memory required for data: 736986144
I0403 19:03:12.008945 18563 layer_factory.hpp:77] Creating layer inception_3b/relu_5x5
I0403 19:03:12.008966 18563 net.cpp:91] Creating Layer inception_3b/relu_5x5
I0403 19:03:12.008993 18563 net.cpp:425] inception_3b/relu_5x5 <- inception_3b/5x5
I0403 19:03:12.009013 18563 net.cpp:386] inception_3b/relu_5x5 -> inception_3b/5x5 (in-place)
I0403 19:03:12.009199 18563 net.cpp:141] Setting up inception_3b/relu_5x5
I0403 19:03:12.009223 18563 net.cpp:148] Top shape: 24 96 28 28 (1806336)
I0403 19:03:12.009238 18563 net.cpp:156] Memory required for data: 744211488
I0403 19:03:12.009253 18563 layer_factory.hpp:77] Creating layer inception_3b/pool
I0403 19:03:12.009271 18563 net.cpp:91] Creating Layer inception_3b/pool
I0403 19:03:12.009286 18563 net.cpp:425] inception_3b/pool <- inception_3a/output_inception_3a/output_0_split_3
I0403 19:03:12.009305 18563 net.cpp:399] inception_3b/pool -> inception_3b/pool
I0403 19:03:12.009361 18563 net.cpp:141] Setting up inception_3b/pool
I0403 19:03:12.009384 18563 net.cpp:148] Top shape: 24 256 28 28 (4816896)
I0403 19:03:12.009399 18563 net.cpp:156] Memory required for data: 763479072
I0403 19:03:12.009414 18563 layer_factory.hpp:77] Creating layer inception_3b/pool_proj
I0403 19:03:12.009436 18563 net.cpp:91] Creating Layer inception_3b/pool_proj
I0403 19:03:12.009454 18563 net.cpp:425] inception_3b/pool_proj <- inception_3b/pool
I0403 19:03:12.009475 18563 net.cpp:399] inception_3b/pool_proj -> inception_3b/pool_proj
I0403 19:03:12.010509 18563 net.cpp:141] Setting up inception_3b/pool_proj
I0403 19:03:12.010540 18563 net.cpp:148] Top shape: 24 64 28 28 (1204224)
I0403 19:03:12.010555 18563 net.cpp:156] Memory required for data: 768295968
I0403 19:03:12.010574 18563 layer_factory.hpp:77] Creating layer inception_3b/relu_pool_proj
I0403 19:03:12.010592 18563 net.cpp:91] Creating Layer inception_3b/relu_pool_proj
I0403 19:03:12.010607 18563 net.cpp:425] inception_3b/relu_pool_proj <- inception_3b/pool_proj
I0403 19:03:12.010627 18563 net.cpp:386] inception_3b/relu_pool_proj -> inception_3b/pool_proj (in-place)
I0403 19:03:12.011023 18563 net.cpp:141] Setting up inception_3b/relu_pool_proj
I0403 19:03:12.011050 18563 net.cpp:148] Top shape: 24 64 28 28 (1204224)
I0403 19:03:12.011066 18563 net.cpp:156] Memory required for data: 773112864
I0403 19:03:12.011081 18563 layer_factory.hpp:77] Creating layer inception_3b/output
I0403 19:03:12.011098 18563 net.cpp:91] Creating Layer inception_3b/output
I0403 19:03:12.011113 18563 net.cpp:425] inception_3b/output <- inception_3b/1x1
I0403 19:03:12.011129 18563 net.cpp:425] inception_3b/output <- inception_3b/3x3
I0403 19:03:12.011145 18563 net.cpp:425] inception_3b/output <- inception_3b/5x5
I0403 19:03:12.011162 18563 net.cpp:425] inception_3b/output <- inception_3b/pool_proj
I0403 19:03:12.011193 18563 net.cpp:399] inception_3b/output -> inception_3b/output
I0403 19:03:12.011240 18563 net.cpp:141] Setting up inception_3b/output
I0403 19:03:12.011262 18563 net.cpp:148] Top shape: 24 480 28 28 (9031680)
I0403 19:03:12.011276 18563 net.cpp:156] Memory required for data: 809239584
I0403 19:03:12.011291 18563 layer_factory.hpp:77] Creating layer pool3/3x3_s2
I0403 19:03:12.011312 18563 net.cpp:91] Creating Layer pool3/3x3_s2
I0403 19:03:12.011328 18563 net.cpp:425] pool3/3x3_s2 <- inception_3b/output
I0403 19:03:12.011361 18563 net.cpp:399] pool3/3x3_s2 -> pool3/3x3_s2
I0403 19:03:12.011422 18563 net.cpp:141] Setting up pool3/3x3_s2
I0403 19:03:12.011445 18563 net.cpp:148] Top shape: 24 480 14 14 (2257920)
I0403 19:03:12.011472 18563 net.cpp:156] Memory required for data: 818271264
I0403 19:03:12.011488 18563 layer_factory.hpp:77] Creating layer pool3/3x3_s2_pool3/3x3_s2_0_split
I0403 19:03:12.011504 18563 net.cpp:91] Creating Layer pool3/3x3_s2_pool3/3x3_s2_0_split
I0403 19:03:12.011519 18563 net.cpp:425] pool3/3x3_s2_pool3/3x3_s2_0_split <- pool3/3x3_s2
I0403 19:03:12.011538 18563 net.cpp:399] pool3/3x3_s2_pool3/3x3_s2_0_split -> pool3/3x3_s2_pool3/3x3_s2_0_split_0
I0403 19:03:12.011559 18563 net.cpp:399] pool3/3x3_s2_pool3/3x3_s2_0_split -> pool3/3x3_s2_pool3/3x3_s2_0_split_1
I0403 19:03:12.011579 18563 net.cpp:399] pool3/3x3_s2_pool3/3x3_s2_0_split -> pool3/3x3_s2_pool3/3x3_s2_0_split_2
I0403 19:03:12.011598 18563 net.cpp:399] pool3/3x3_s2_pool3/3x3_s2_0_split -> pool3/3x3_s2_pool3/3x3_s2_0_split_3
I0403 19:03:12.011674 18563 net.cpp:141] Setting up pool3/3x3_s2_pool3/3x3_s2_0_split
I0403 19:03:12.011698 18563 net.cpp:148] Top shape: 24 480 14 14 (2257920)
I0403 19:03:12.011715 18563 net.cpp:148] Top shape: 24 480 14 14 (2257920)
I0403 19:03:12.011731 18563 net.cpp:148] Top shape: 24 480 14 14 (2257920)
I0403 19:03:12.011746 18563 net.cpp:148] Top shape: 24 480 14 14 (2257920)
I0403 19:03:12.011760 18563 net.cpp:156] Memory required for data: 854397984
I0403 19:03:12.011775 18563 layer_factory.hpp:77] Creating layer inception_4a/1x1
I0403 19:03:12.011797 18563 net.cpp:91] Creating Layer inception_4a/1x1
I0403 19:03:12.011814 18563 net.cpp:425] inception_4a/1x1 <- pool3/3x3_s2_pool3/3x3_s2_0_split_0
I0403 19:03:12.011832 18563 net.cpp:399] inception_4a/1x1 -> inception_4a/1x1
I0403 19:03:12.013391 18563 net.cpp:141] Setting up inception_4a/1x1
I0403 19:03:12.013422 18563 net.cpp:148] Top shape: 24 192 14 14 (903168)
I0403 19:03:12.013437 18563 net.cpp:156] Memory required for data: 858010656
I0403 19:03:12.013456 18563 layer_factory.hpp:77] Creating layer inception_4a/relu_1x1
I0403 19:03:12.013474 18563 net.cpp:91] Creating Layer inception_4a/relu_1x1
I0403 19:03:12.013489 18563 net.cpp:425] inception_4a/relu_1x1 <- inception_4a/1x1
I0403 19:03:12.013509 18563 net.cpp:386] inception_4a/relu_1x1 -> inception_4a/1x1 (in-place)
I0403 19:03:12.013685 18563 net.cpp:141] Setting up inception_4a/relu_1x1
I0403 19:03:12.013710 18563 net.cpp:148] Top shape: 24 192 14 14 (903168)
I0403 19:03:12.013725 18563 net.cpp:156] Memory required for data: 861623328
I0403 19:03:12.013739 18563 layer_factory.hpp:77] Creating layer inception_4a/3x3_reduce
I0403 19:03:12.013761 18563 net.cpp:91] Creating Layer inception_4a/3x3_reduce
I0403 19:03:12.013778 18563 net.cpp:425] inception_4a/3x3_reduce <- pool3/3x3_s2_pool3/3x3_s2_0_split_1
I0403 19:03:12.013799 18563 net.cpp:399] inception_4a/3x3_reduce -> inception_4a/3x3_reduce
I0403 19:03:12.015061 18563 net.cpp:141] Setting up inception_4a/3x3_reduce
I0403 19:03:12.015090 18563 net.cpp:148] Top shape: 24 96 14 14 (451584)
I0403 19:03:12.015105 18563 net.cpp:156] Memory required for data: 863429664
I0403 19:03:12.015128 18563 layer_factory.hpp:77] Creating layer inception_4a/relu_3x3_reduce
I0403 19:03:12.015149 18563 net.cpp:91] Creating Layer inception_4a/relu_3x3_reduce
I0403 19:03:12.015166 18563 net.cpp:425] inception_4a/relu_3x3_reduce <- inception_4a/3x3_reduce
I0403 19:03:12.015183 18563 net.cpp:386] inception_4a/relu_3x3_reduce -> inception_4a/3x3_reduce (in-place)
I0403 19:03:12.015360 18563 net.cpp:141] Setting up inception_4a/relu_3x3_reduce
I0403 19:03:12.015385 18563 net.cpp:148] Top shape: 24 96 14 14 (451584)
I0403 19:03:12.015399 18563 net.cpp:156] Memory required for data: 865236000
I0403 19:03:12.015413 18563 layer_factory.hpp:77] Creating layer inception_4a/3x3
I0403 19:03:12.015435 18563 net.cpp:91] Creating Layer inception_4a/3x3
I0403 19:03:12.015452 18563 net.cpp:425] inception_4a/3x3 <- inception_4a/3x3_reduce
I0403 19:03:12.015475 18563 net.cpp:399] inception_4a/3x3 -> inception_4a/3x3
I0403 19:03:12.018126 18563 net.cpp:141] Setting up inception_4a/3x3
I0403 19:03:12.018154 18563 net.cpp:148] Top shape: 24 208 14 14 (978432)
I0403 19:03:12.018170 18563 net.cpp:156] Memory required for data: 869149728
I0403 19:03:12.018188 18563 layer_factory.hpp:77] Creating layer inception_4a/relu_3x3
I0403 19:03:12.018213 18563 net.cpp:91] Creating Layer inception_4a/relu_3x3
I0403 19:03:12.018229 18563 net.cpp:425] inception_4a/relu_3x3 <- inception_4a/3x3
I0403 19:03:12.018247 18563 net.cpp:386] inception_4a/relu_3x3 -> inception_4a/3x3 (in-place)
I0403 19:03:12.018522 18563 net.cpp:141] Setting up inception_4a/relu_3x3
I0403 19:03:12.018548 18563 net.cpp:148] Top shape: 24 208 14 14 (978432)
I0403 19:03:12.018563 18563 net.cpp:156] Memory required for data: 873063456
I0403 19:03:12.018579 18563 layer_factory.hpp:77] Creating layer inception_4a/5x5_reduce
I0403 19:03:12.018601 18563 net.cpp:91] Creating Layer inception_4a/5x5_reduce
I0403 19:03:12.018618 18563 net.cpp:425] inception_4a/5x5_reduce <- pool3/3x3_s2_pool3/3x3_s2_0_split_2
I0403 19:03:12.018640 18563 net.cpp:399] inception_4a/5x5_reduce -> inception_4a/5x5_reduce
I0403 19:03:12.019649 18563 net.cpp:141] Setting up inception_4a/5x5_reduce
I0403 19:03:12.019675 18563 net.cpp:148] Top shape: 24 16 14 14 (75264)
I0403 19:03:12.019691 18563 net.cpp:156] Memory required for data: 873364512
I0403 19:03:12.019709 18563 layer_factory.hpp:77] Creating layer inception_4a/relu_5x5_reduce
I0403 19:03:12.019731 18563 net.cpp:91] Creating Layer inception_4a/relu_5x5_reduce
I0403 19:03:12.019747 18563 net.cpp:425] inception_4a/relu_5x5_reduce <- inception_4a/5x5_reduce
I0403 19:03:12.019764 18563 net.cpp:386] inception_4a/relu_5x5_reduce -> inception_4a/5x5_reduce (in-place)
I0403 19:03:12.019937 18563 net.cpp:141] Setting up inception_4a/relu_5x5_reduce
I0403 19:03:12.019963 18563 net.cpp:148] Top shape: 24 16 14 14 (75264)
I0403 19:03:12.019980 18563 net.cpp:156] Memory required for data: 873665568
I0403 19:03:12.019996 18563 layer_factory.hpp:77] Creating layer inception_4a/5x5
I0403 19:03:12.020020 18563 net.cpp:91] Creating Layer inception_4a/5x5
I0403 19:03:12.020037 18563 net.cpp:425] inception_4a/5x5 <- inception_4a/5x5_reduce
I0403 19:03:12.020056 18563 net.cpp:399] inception_4a/5x5 -> inception_4a/5x5
I0403 19:03:12.021111 18563 net.cpp:141] Setting up inception_4a/5x5
I0403 19:03:12.021141 18563 net.cpp:148] Top shape: 24 48 14 14 (225792)
I0403 19:03:12.021157 18563 net.cpp:156] Memory required for data: 874568736
I0403 19:03:12.021175 18563 layer_factory.hpp:77] Creating layer inception_4a/relu_5x5
I0403 19:03:12.021193 18563 net.cpp:91] Creating Layer inception_4a/relu_5x5
I0403 19:03:12.021209 18563 net.cpp:425] inception_4a/relu_5x5 <- inception_4a/5x5
I0403 19:03:12.021226 18563 net.cpp:386] inception_4a/relu_5x5 -> inception_4a/5x5 (in-place)
I0403 19:03:12.021401 18563 net.cpp:141] Setting up inception_4a/relu_5x5
I0403 19:03:12.021426 18563 net.cpp:148] Top shape: 24 48 14 14 (225792)
I0403 19:03:12.021441 18563 net.cpp:156] Memory required for data: 875471904
I0403 19:03:12.021456 18563 layer_factory.hpp:77] Creating layer inception_4a/pool
I0403 19:03:12.021473 18563 net.cpp:91] Creating Layer inception_4a/pool
I0403 19:03:12.021489 18563 net.cpp:425] inception_4a/pool <- pool3/3x3_s2_pool3/3x3_s2_0_split_3
I0403 19:03:12.021509 18563 net.cpp:399] inception_4a/pool -> inception_4a/pool
I0403 19:03:12.021569 18563 net.cpp:141] Setting up inception_4a/pool
I0403 19:03:12.021595 18563 net.cpp:148] Top shape: 24 480 14 14 (2257920)
I0403 19:03:12.021608 18563 net.cpp:156] Memory required for data: 884503584
I0403 19:03:12.021623 18563 layer_factory.hpp:77] Creating layer inception_4a/pool_proj
I0403 19:03:12.021644 18563 net.cpp:91] Creating Layer inception_4a/pool_proj
I0403 19:03:12.021661 18563 net.cpp:425] inception_4a/pool_proj <- inception_4a/pool
I0403 19:03:12.021680 18563 net.cpp:399] inception_4a/pool_proj -> inception_4a/pool_proj
I0403 19:03:12.022817 18563 net.cpp:141] Setting up inception_4a/pool_proj
I0403 19:03:12.022847 18563 net.cpp:148] Top shape: 24 64 14 14 (301056)
I0403 19:03:12.022877 18563 net.cpp:156] Memory required for data: 885707808
I0403 19:03:12.022897 18563 layer_factory.hpp:77] Creating layer inception_4a/relu_pool_proj
I0403 19:03:12.022914 18563 net.cpp:91] Creating Layer inception_4a/relu_pool_proj
I0403 19:03:12.022930 18563 net.cpp:425] inception_4a/relu_pool_proj <- inception_4a/pool_proj
I0403 19:03:12.022950 18563 net.cpp:386] inception_4a/relu_pool_proj -> inception_4a/pool_proj (in-place)
I0403 19:03:12.023232 18563 net.cpp:141] Setting up inception_4a/relu_pool_proj
I0403 19:03:12.023260 18563 net.cpp:148] Top shape: 24 64 14 14 (301056)
I0403 19:03:12.023277 18563 net.cpp:156] Memory required for data: 886912032
I0403 19:03:12.023291 18563 layer_factory.hpp:77] Creating layer inception_4a/output
I0403 19:03:12.023308 18563 net.cpp:91] Creating Layer inception_4a/output
I0403 19:03:12.023324 18563 net.cpp:425] inception_4a/output <- inception_4a/1x1
I0403 19:03:12.023340 18563 net.cpp:425] inception_4a/output <- inception_4a/3x3
I0403 19:03:12.023356 18563 net.cpp:425] inception_4a/output <- inception_4a/5x5
I0403 19:03:12.023373 18563 net.cpp:425] inception_4a/output <- inception_4a/pool_proj
I0403 19:03:12.023389 18563 net.cpp:399] inception_4a/output -> inception_4a/output
I0403 19:03:12.023434 18563 net.cpp:141] Setting up inception_4a/output
I0403 19:03:12.023458 18563 net.cpp:148] Top shape: 24 512 14 14 (2408448)
I0403 19:03:12.023473 18563 net.cpp:156] Memory required for data: 896545824
I0403 19:03:12.023486 18563 layer_factory.hpp:77] Creating layer inception_4a/output_inception_4a/output_0_split
I0403 19:03:12.023506 18563 net.cpp:91] Creating Layer inception_4a/output_inception_4a/output_0_split
I0403 19:03:12.023522 18563 net.cpp:425] inception_4a/output_inception_4a/output_0_split <- inception_4a/output
I0403 19:03:12.023540 18563 net.cpp:399] inception_4a/output_inception_4a/output_0_split -> inception_4a/output_inception_4a/output_0_split_0
I0403 19:03:12.023560 18563 net.cpp:399] inception_4a/output_inception_4a/output_0_split -> inception_4a/output_inception_4a/output_0_split_1
I0403 19:03:12.023581 18563 net.cpp:399] inception_4a/output_inception_4a/output_0_split -> inception_4a/output_inception_4a/output_0_split_2
I0403 19:03:12.023603 18563 net.cpp:399] inception_4a/output_inception_4a/output_0_split -> inception_4a/output_inception_4a/output_0_split_3
I0403 19:03:12.023623 18563 net.cpp:399] inception_4a/output_inception_4a/output_0_split -> inception_4a/output_inception_4a/output_0_split_4
I0403 19:03:12.023715 18563 net.cpp:141] Setting up inception_4a/output_inception_4a/output_0_split
I0403 19:03:12.023737 18563 net.cpp:148] Top shape: 24 512 14 14 (2408448)
I0403 19:03:12.023753 18563 net.cpp:148] Top shape: 24 512 14 14 (2408448)
I0403 19:03:12.023769 18563 net.cpp:148] Top shape: 24 512 14 14 (2408448)
I0403 19:03:12.023785 18563 net.cpp:148] Top shape: 24 512 14 14 (2408448)
I0403 19:03:12.023800 18563 net.cpp:148] Top shape: 24 512 14 14 (2408448)
I0403 19:03:12.023814 18563 net.cpp:156] Memory required for data: 944714784
I0403 19:03:12.023828 18563 layer_factory.hpp:77] Creating layer loss1/ave_pool
I0403 19:03:12.023849 18563 net.cpp:91] Creating Layer loss1/ave_pool
I0403 19:03:12.023864 18563 net.cpp:425] loss1/ave_pool <- inception_4a/output_inception_4a/output_0_split_0
I0403 19:03:12.023882 18563 net.cpp:399] loss1/ave_pool -> loss1/ave_pool
I0403 19:03:12.024090 18563 net.cpp:141] Setting up loss1/ave_pool
I0403 19:03:12.024114 18563 net.cpp:148] Top shape: 24 512 4 4 (196608)
I0403 19:03:12.024129 18563 net.cpp:156] Memory required for data: 945501216
I0403 19:03:12.024143 18563 layer_factory.hpp:77] Creating layer loss1/conv
I0403 19:03:12.024166 18563 net.cpp:91] Creating Layer loss1/conv
I0403 19:03:12.024183 18563 net.cpp:425] loss1/conv <- loss1/ave_pool
I0403 19:03:12.024204 18563 net.cpp:399] loss1/conv -> loss1/conv
I0403 19:03:12.025583 18563 net.cpp:141] Setting up loss1/conv
I0403 19:03:12.025611 18563 net.cpp:148] Top shape: 24 128 4 4 (49152)
I0403 19:03:12.025640 18563 net.cpp:156] Memory required for data: 945697824
I0403 19:03:12.025660 18563 layer_factory.hpp:77] Creating layer loss1/relu_conv
I0403 19:03:12.025681 18563 net.cpp:91] Creating Layer loss1/relu_conv
I0403 19:03:12.025697 18563 net.cpp:425] loss1/relu_conv <- loss1/conv
I0403 19:03:12.025715 18563 net.cpp:386] loss1/relu_conv -> loss1/conv (in-place)
I0403 19:03:12.025995 18563 net.cpp:141] Setting up loss1/relu_conv
I0403 19:03:12.026021 18563 net.cpp:148] Top shape: 24 128 4 4 (49152)
I0403 19:03:12.026036 18563 net.cpp:156] Memory required for data: 945894432
I0403 19:03:12.026051 18563 layer_factory.hpp:77] Creating layer loss1/fc
I0403 19:03:12.026077 18563 net.cpp:91] Creating Layer loss1/fc
I0403 19:03:12.026095 18563 net.cpp:425] loss1/fc <- loss1/conv
I0403 19:03:12.026113 18563 net.cpp:399] loss1/fc -> loss1/fc
I0403 19:03:12.044301 18563 net.cpp:141] Setting up loss1/fc
I0403 19:03:12.044340 18563 net.cpp:148] Top shape: 24 1024 (24576)
I0403 19:03:12.044358 18563 net.cpp:156] Memory required for data: 945992736
I0403 19:03:12.044376 18563 layer_factory.hpp:77] Creating layer loss1/relu_fc
I0403 19:03:12.044396 18563 net.cpp:91] Creating Layer loss1/relu_fc
I0403 19:03:12.044414 18563 net.cpp:425] loss1/relu_fc <- loss1/fc
I0403 19:03:12.044435 18563 net.cpp:386] loss1/relu_fc -> loss1/fc (in-place)
I0403 19:03:12.044643 18563 net.cpp:141] Setting up loss1/relu_fc
I0403 19:03:12.044668 18563 net.cpp:148] Top shape: 24 1024 (24576)
I0403 19:03:12.044683 18563 net.cpp:156] Memory required for data: 946091040
I0403 19:03:12.044698 18563 layer_factory.hpp:77] Creating layer loss1/drop_fc
I0403 19:03:12.044728 18563 net.cpp:91] Creating Layer loss1/drop_fc
I0403 19:03:12.044746 18563 net.cpp:425] loss1/drop_fc <- loss1/fc
I0403 19:03:12.044764 18563 net.cpp:386] loss1/drop_fc -> loss1/fc (in-place)
I0403 19:03:12.044816 18563 net.cpp:141] Setting up loss1/drop_fc
I0403 19:03:12.044838 18563 net.cpp:148] Top shape: 24 1024 (24576)
I0403 19:03:12.044853 18563 net.cpp:156] Memory required for data: 946189344
I0403 19:03:12.044869 18563 layer_factory.hpp:77] Creating layer loss1/classifier_plantvillage
I0403 19:03:12.044891 18563 net.cpp:91] Creating Layer loss1/classifier_plantvillage
I0403 19:03:12.044909 18563 net.cpp:425] loss1/classifier_plantvillage <- loss1/fc
I0403 19:03:12.044929 18563 net.cpp:399] loss1/classifier_plantvillage -> loss1/classifier_plantvillage
I0403 19:03:12.045851 18563 net.cpp:141] Setting up loss1/classifier_plantvillage
I0403 19:03:12.045881 18563 net.cpp:148] Top shape: 24 38 (912)
I0403 19:03:12.045897 18563 net.cpp:156] Memory required for data: 946192992
I0403 19:03:12.045917 18563 layer_factory.hpp:77] Creating layer loss1/classifier_plantvillage_loss1/classifier_plantvillage_0_split
I0403 19:03:12.045934 18563 net.cpp:91] Creating Layer loss1/classifier_plantvillage_loss1/classifier_plantvillage_0_split
I0403 19:03:12.045951 18563 net.cpp:425] loss1/classifier_plantvillage_loss1/classifier_plantvillage_0_split <- loss1/classifier_plantvillage
I0403 19:03:12.045971 18563 net.cpp:399] loss1/classifier_plantvillage_loss1/classifier_plantvillage_0_split -> loss1/classifier_plantvillage_loss1/classifier_plantvillage_0_split_0
I0403 19:03:12.045997 18563 net.cpp:399] loss1/classifier_plantvillage_loss1/classifier_plantvillage_0_split -> loss1/classifier_plantvillage_loss1/classifier_plantvillage_0_split_1
I0403 19:03:12.046018 18563 net.cpp:399] loss1/classifier_plantvillage_loss1/classifier_plantvillage_0_split -> loss1/classifier_plantvillage_loss1/classifier_plantvillage_0_split_2
I0403 19:03:12.046085 18563 net.cpp:141] Setting up loss1/classifier_plantvillage_loss1/classifier_plantvillage_0_split
I0403 19:03:12.046111 18563 net.cpp:148] Top shape: 24 38 (912)
I0403 19:03:12.046128 18563 net.cpp:148] Top shape: 24 38 (912)
I0403 19:03:12.046144 18563 net.cpp:148] Top shape: 24 38 (912)
I0403 19:03:12.046159 18563 net.cpp:156] Memory required for data: 946203936
I0403 19:03:12.046174 18563 layer_factory.hpp:77] Creating layer inception_4b/1x1
I0403 19:03:12.046195 18563 net.cpp:91] Creating Layer inception_4b/1x1
I0403 19:03:12.046232 18563 net.cpp:425] inception_4b/1x1 <- inception_4a/output_inception_4a/output_0_split_1
I0403 19:03:12.046252 18563 net.cpp:399] inception_4b/1x1 -> inception_4b/1x1
I0403 19:03:12.047924 18563 net.cpp:141] Setting up inception_4b/1x1
I0403 19:03:12.047953 18563 net.cpp:148] Top shape: 24 160 14 14 (752640)
I0403 19:03:12.047969 18563 net.cpp:156] Memory required for data: 949214496
I0403 19:03:12.047993 18563 layer_factory.hpp:77] Creating layer inception_4b/relu_1x1
I0403 19:03:12.048015 18563 net.cpp:91] Creating Layer inception_4b/relu_1x1
I0403 19:03:12.048032 18563 net.cpp:425] inception_4b/relu_1x1 <- inception_4b/1x1
I0403 19:03:12.048050 18563 net.cpp:386] inception_4b/relu_1x1 -> inception_4b/1x1 (in-place)
I0403 19:03:12.048233 18563 net.cpp:141] Setting up inception_4b/relu_1x1
I0403 19:03:12.048259 18563 net.cpp:148] Top shape: 24 160 14 14 (752640)
I0403 19:03:12.048274 18563 net.cpp:156] Memory required for data: 952225056
I0403 19:03:12.048290 18563 layer_factory.hpp:77] Creating layer inception_4b/3x3_reduce
I0403 19:03:12.048315 18563 net.cpp:91] Creating Layer inception_4b/3x3_reduce
I0403 19:03:12.048332 18563 net.cpp:425] inception_4b/3x3_reduce <- inception_4a/output_inception_4a/output_0_split_2
I0403 19:03:12.048352 18563 net.cpp:399] inception_4b/3x3_reduce -> inception_4b/3x3_reduce
I0403 19:03:12.049737 18563 net.cpp:141] Setting up inception_4b/3x3_reduce
I0403 19:03:12.049765 18563 net.cpp:148] Top shape: 24 112 14 14 (526848)
I0403 19:03:12.049782 18563 net.cpp:156] Memory required for data: 954332448
I0403 19:03:12.049801 18563 layer_factory.hpp:77] Creating layer inception_4b/relu_3x3_reduce
I0403 19:03:12.049823 18563 net.cpp:91] Creating Layer inception_4b/relu_3x3_reduce
I0403 19:03:12.049839 18563 net.cpp:425] inception_4b/relu_3x3_reduce <- inception_4b/3x3_reduce
I0403 19:03:12.049859 18563 net.cpp:386] inception_4b/relu_3x3_reduce -> inception_4b/3x3_reduce (in-place)
I0403 19:03:12.050146 18563 net.cpp:141] Setting up inception_4b/relu_3x3_reduce
I0403 19:03:12.050173 18563 net.cpp:148] Top shape: 24 112 14 14 (526848)
I0403 19:03:12.050189 18563 net.cpp:156] Memory required for data: 956439840
I0403 19:03:12.050204 18563 layer_factory.hpp:77] Creating layer inception_4b/3x3
I0403 19:03:12.050228 18563 net.cpp:91] Creating Layer inception_4b/3x3
I0403 19:03:12.050246 18563 net.cpp:425] inception_4b/3x3 <- inception_4b/3x3_reduce
I0403 19:03:12.050266 18563 net.cpp:399] inception_4b/3x3 -> inception_4b/3x3
I0403 19:03:12.053300 18563 net.cpp:141] Setting up inception_4b/3x3
I0403 19:03:12.053333 18563 net.cpp:148] Top shape: 24 224 14 14 (1053696)
I0403 19:03:12.053349 18563 net.cpp:156] Memory required for data: 960654624
I0403 19:03:12.053369 18563 layer_factory.hpp:77] Creating layer inception_4b/relu_3x3
I0403 19:03:12.053387 18563 net.cpp:91] Creating Layer inception_4b/relu_3x3
I0403 19:03:12.053405 18563 net.cpp:425] inception_4b/relu_3x3 <- inception_4b/3x3
I0403 19:03:12.053426 18563 net.cpp:386] inception_4b/relu_3x3 -> inception_4b/3x3 (in-place)
I0403 19:03:12.053611 18563 net.cpp:141] Setting up inception_4b/relu_3x3
I0403 19:03:12.053635 18563 net.cpp:148] Top shape: 24 224 14 14 (1053696)
I0403 19:03:12.053650 18563 net.cpp:156] Memory required for data: 964869408
I0403 19:03:12.053664 18563 layer_factory.hpp:77] Creating layer inception_4b/5x5_reduce
I0403 19:03:12.053688 18563 net.cpp:91] Creating Layer inception_4b/5x5_reduce
I0403 19:03:12.053705 18563 net.cpp:425] inception_4b/5x5_reduce <- inception_4a/output_inception_4a/output_0_split_3
I0403 19:03:12.053728 18563 net.cpp:399] inception_4b/5x5_reduce -> inception_4b/5x5_reduce
I0403 19:03:12.054862 18563 net.cpp:141] Setting up inception_4b/5x5_reduce
I0403 19:03:12.054890 18563 net.cpp:148] Top shape: 24 24 14 14 (112896)
I0403 19:03:12.054908 18563 net.cpp:156] Memory required for data: 965320992
I0403 19:03:12.054926 18563 layer_factory.hpp:77] Creating layer inception_4b/relu_5x5_reduce
I0403 19:03:12.054947 18563 net.cpp:91] Creating Layer inception_4b/relu_5x5_reduce
I0403 19:03:12.054982 18563 net.cpp:425] inception_4b/relu_5x5_reduce <- inception_4b/5x5_reduce
I0403 19:03:12.055003 18563 net.cpp:386] inception_4b/relu_5x5_reduce -> inception_4b/5x5_reduce (in-place)
I0403 19:03:12.055187 18563 net.cpp:141] Setting up inception_4b/relu_5x5_reduce
I0403 19:03:12.055217 18563 net.cpp:148] Top shape: 24 24 14 14 (112896)
I0403 19:03:12.055233 18563 net.cpp:156] Memory required for data: 965772576
I0403 19:03:12.055248 18563 layer_factory.hpp:77] Creating layer inception_4b/5x5
I0403 19:03:12.055271 18563 net.cpp:91] Creating Layer inception_4b/5x5
I0403 19:03:12.055289 18563 net.cpp:425] inception_4b/5x5 <- inception_4b/5x5_reduce
I0403 19:03:12.055308 18563 net.cpp:399] inception_4b/5x5 -> inception_4b/5x5
I0403 19:03:12.056550 18563 net.cpp:141] Setting up inception_4b/5x5
I0403 19:03:12.056577 18563 net.cpp:148] Top shape: 24 64 14 14 (301056)
I0403 19:03:12.056593 18563 net.cpp:156] Memory required for data: 966976800
I0403 19:03:12.056612 18563 layer_factory.hpp:77] Creating layer inception_4b/relu_5x5
I0403 19:03:12.056632 18563 net.cpp:91] Creating Layer inception_4b/relu_5x5
I0403 19:03:12.056650 18563 net.cpp:425] inception_4b/relu_5x5 <- inception_4b/5x5
I0403 19:03:12.056668 18563 net.cpp:386] inception_4b/relu_5x5 -> inception_4b/5x5 (in-place)
I0403 19:03:12.056957 18563 net.cpp:141] Setting up inception_4b/relu_5x5
I0403 19:03:12.056988 18563 net.cpp:148] Top shape: 24 64 14 14 (301056)
I0403 19:03:12.057005 18563 net.cpp:156] Memory required for data: 968181024
I0403 19:03:12.057020 18563 layer_factory.hpp:77] Creating layer inception_4b/pool
I0403 19:03:12.057041 18563 net.cpp:91] Creating Layer inception_4b/pool
I0403 19:03:12.057059 18563 net.cpp:425] inception_4b/pool <- inception_4a/output_inception_4a/output_0_split_4
I0403 19:03:12.057077 18563 net.cpp:399] inception_4b/pool -> inception_4b/pool
I0403 19:03:12.057143 18563 net.cpp:141] Setting up inception_4b/pool
I0403 19:03:12.057168 18563 net.cpp:148] Top shape: 24 512 14 14 (2408448)
I0403 19:03:12.057183 18563 net.cpp:156] Memory required for data: 977814816
I0403 19:03:12.057199 18563 layer_factory.hpp:77] Creating layer inception_4b/pool_proj
I0403 19:03:12.057220 18563 net.cpp:91] Creating Layer inception_4b/pool_proj
I0403 19:03:12.057237 18563 net.cpp:425] inception_4b/pool_proj <- inception_4b/pool
I0403 19:03:12.057260 18563 net.cpp:399] inception_4b/pool_proj -> inception_4b/pool_proj
I0403 19:03:12.058476 18563 net.cpp:141] Setting up inception_4b/pool_proj
I0403 19:03:12.058504 18563 net.cpp:148] Top shape: 24 64 14 14 (301056)
I0403 19:03:12.058521 18563 net.cpp:156] Memory required for data: 979019040
I0403 19:03:12.058539 18563 layer_factory.hpp:77] Creating layer inception_4b/relu_pool_proj
I0403 19:03:12.058562 18563 net.cpp:91] Creating Layer inception_4b/relu_pool_proj
I0403 19:03:12.058580 18563 net.cpp:425] inception_4b/relu_pool_proj <- inception_4b/pool_proj
I0403 19:03:12.058598 18563 net.cpp:386] inception_4b/relu_pool_proj -> inception_4b/pool_proj (in-place)
I0403 19:03:12.058781 18563 net.cpp:141] Setting up inception_4b/relu_pool_proj
I0403 19:03:12.058809 18563 net.cpp:148] Top shape: 24 64 14 14 (301056)
I0403 19:03:12.058825 18563 net.cpp:156] Memory required for data: 980223264
I0403 19:03:12.058840 18563 layer_factory.hpp:77] Creating layer inception_4b/output
I0403 19:03:12.058856 18563 net.cpp:91] Creating Layer inception_4b/output
I0403 19:03:12.058873 18563 net.cpp:425] inception_4b/output <- inception_4b/1x1
I0403 19:03:12.058889 18563 net.cpp:425] inception_4b/output <- inception_4b/3x3
I0403 19:03:12.058907 18563 net.cpp:425] inception_4b/output <- inception_4b/5x5
I0403 19:03:12.058923 18563 net.cpp:425] inception_4b/output <- inception_4b/pool_proj
I0403 19:03:12.058943 18563 net.cpp:399] inception_4b/output -> inception_4b/output
I0403 19:03:12.059000 18563 net.cpp:141] Setting up inception_4b/output
I0403 19:03:12.059025 18563 net.cpp:148] Top shape: 24 512 14 14 (2408448)
I0403 19:03:12.059039 18563 net.cpp:156] Memory required for data: 989857056
I0403 19:03:12.059068 18563 layer_factory.hpp:77] Creating layer inception_4b/output_inception_4b/output_0_split
I0403 19:03:12.059090 18563 net.cpp:91] Creating Layer inception_4b/output_inception_4b/output_0_split
I0403 19:03:12.059108 18563 net.cpp:425] inception_4b/output_inception_4b/output_0_split <- inception_4b/output
I0403 19:03:12.059128 18563 net.cpp:399] inception_4b/output_inception_4b/output_0_split -> inception_4b/output_inception_4b/output_0_split_0
I0403 19:03:12.059147 18563 net.cpp:399] inception_4b/output_inception_4b/output_0_split -> inception_4b/output_inception_4b/output_0_split_1
I0403 19:03:12.059168 18563 net.cpp:399] inception_4b/output_inception_4b/output_0_split -> inception_4b/output_inception_4b/output_0_split_2
I0403 19:03:12.059192 18563 net.cpp:399] inception_4b/output_inception_4b/output_0_split -> inception_4b/output_inception_4b/output_0_split_3
I0403 19:03:12.059280 18563 net.cpp:141] Setting up inception_4b/output_inception_4b/output_0_split
I0403 19:03:12.059303 18563 net.cpp:148] Top shape: 24 512 14 14 (2408448)
I0403 19:03:12.059320 18563 net.cpp:148] Top shape: 24 512 14 14 (2408448)
I0403 19:03:12.059335 18563 net.cpp:148] Top shape: 24 512 14 14 (2408448)
I0403 19:03:12.059351 18563 net.cpp:148] Top shape: 24 512 14 14 (2408448)
I0403 19:03:12.059365 18563 net.cpp:156] Memory required for data: 1028392224
I0403 19:03:12.059379 18563 layer_factory.hpp:77] Creating layer inception_4c/1x1
I0403 19:03:12.059402 18563 net.cpp:91] Creating Layer inception_4c/1x1
I0403 19:03:12.059419 18563 net.cpp:425] inception_4c/1x1 <- inception_4b/output_inception_4b/output_0_split_0
I0403 19:03:12.059440 18563 net.cpp:399] inception_4c/1x1 -> inception_4c/1x1
I0403 19:03:12.060914 18563 net.cpp:141] Setting up inception_4c/1x1
I0403 19:03:12.060945 18563 net.cpp:148] Top shape: 24 128 14 14 (602112)
I0403 19:03:12.060963 18563 net.cpp:156] Memory required for data: 1030800672
I0403 19:03:12.060987 18563 layer_factory.hpp:77] Creating layer inception_4c/relu_1x1
I0403 19:03:12.061007 18563 net.cpp:91] Creating Layer inception_4c/relu_1x1
I0403 19:03:12.061023 18563 net.cpp:425] inception_4c/relu_1x1 <- inception_4c/1x1
I0403 19:03:12.061043 18563 net.cpp:386] inception_4c/relu_1x1 -> inception_4c/1x1 (in-place)
I0403 19:03:12.061224 18563 net.cpp:141] Setting up inception_4c/relu_1x1
I0403 19:03:12.061250 18563 net.cpp:148] Top shape: 24 128 14 14 (602112)
I0403 19:03:12.061265 18563 net.cpp:156] Memory required for data: 1033209120
I0403 19:03:12.061281 18563 layer_factory.hpp:77] Creating layer inception_4c/3x3_reduce
I0403 19:03:12.061303 18563 net.cpp:91] Creating Layer inception_4c/3x3_reduce
I0403 19:03:12.061321 18563 net.cpp:425] inception_4c/3x3_reduce <- inception_4b/output_inception_4b/output_0_split_1
I0403 19:03:12.061343 18563 net.cpp:399] inception_4c/3x3_reduce -> inception_4c/3x3_reduce
I0403 19:03:12.063366 18563 net.cpp:141] Setting up inception_4c/3x3_reduce
I0403 19:03:12.063396 18563 net.cpp:148] Top shape: 24 128 14 14 (602112)
I0403 19:03:12.063412 18563 net.cpp:156] Memory required for data: 1035617568
I0403 19:03:12.063432 18563 layer_factory.hpp:77] Creating layer inception_4c/relu_3x3_reduce
I0403 19:03:12.063453 18563 net.cpp:91] Creating Layer inception_4c/relu_3x3_reduce
I0403 19:03:12.063472 18563 net.cpp:425] inception_4c/relu_3x3_reduce <- inception_4c/3x3_reduce
I0403 19:03:12.063490 18563 net.cpp:386] inception_4c/relu_3x3_reduce -> inception_4c/3x3_reduce (in-place)
I0403 19:03:12.063801 18563 net.cpp:141] Setting up inception_4c/relu_3x3_reduce
I0403 19:03:12.063828 18563 net.cpp:148] Top shape: 24 128 14 14 (602112)
I0403 19:03:12.063844 18563 net.cpp:156] Memory required for data: 1038026016
I0403 19:03:12.063860 18563 layer_factory.hpp:77] Creating layer inception_4c/3x3
I0403 19:03:12.063884 18563 net.cpp:91] Creating Layer inception_4c/3x3
I0403 19:03:12.063904 18563 net.cpp:425] inception_4c/3x3 <- inception_4c/3x3_reduce
I0403 19:03:12.063927 18563 net.cpp:399] inception_4c/3x3 -> inception_4c/3x3
I0403 19:03:12.067663 18563 net.cpp:141] Setting up inception_4c/3x3
I0403 19:03:12.067705 18563 net.cpp:148] Top shape: 24 256 14 14 (1204224)
I0403 19:03:12.067723 18563 net.cpp:156] Memory required for data: 1042842912
I0403 19:03:12.067755 18563 layer_factory.hpp:77] Creating layer inception_4c/relu_3x3
I0403 19:03:12.067778 18563 net.cpp:91] Creating Layer inception_4c/relu_3x3
I0403 19:03:12.067796 18563 net.cpp:425] inception_4c/relu_3x3 <- inception_4c/3x3
I0403 19:03:12.067814 18563 net.cpp:386] inception_4c/relu_3x3 -> inception_4c/3x3 (in-place)
I0403 19:03:12.068006 18563 net.cpp:141] Setting up inception_4c/relu_3x3
I0403 19:03:12.068032 18563 net.cpp:148] Top shape: 24 256 14 14 (1204224)
I0403 19:03:12.068048 18563 net.cpp:156] Memory required for data: 1047659808
I0403 19:03:12.068063 18563 layer_factory.hpp:77] Creating layer inception_4c/5x5_reduce
I0403 19:03:12.068085 18563 net.cpp:91] Creating Layer inception_4c/5x5_reduce
I0403 19:03:12.068106 18563 net.cpp:425] inception_4c/5x5_reduce <- inception_4b/output_inception_4b/output_0_split_2
I0403 19:03:12.068126 18563 net.cpp:399] inception_4c/5x5_reduce -> inception_4c/5x5_reduce
I0403 19:03:12.069236 18563 net.cpp:141] Setting up inception_4c/5x5_reduce
I0403 19:03:12.069264 18563 net.cpp:148] Top shape: 24 24 14 14 (112896)
I0403 19:03:12.069280 18563 net.cpp:156] Memory required for data: 1048111392
I0403 19:03:12.069299 18563 layer_factory.hpp:77] Creating layer inception_4c/relu_5x5_reduce
I0403 19:03:12.069320 18563 net.cpp:91] Creating Layer inception_4c/relu_5x5_reduce
I0403 19:03:12.069339 18563 net.cpp:425] inception_4c/relu_5x5_reduce <- inception_4c/5x5_reduce
I0403 19:03:12.069356 18563 net.cpp:386] inception_4c/relu_5x5_reduce -> inception_4c/5x5_reduce (in-place)
I0403 19:03:12.069541 18563 net.cpp:141] Setting up inception_4c/relu_5x5_reduce
I0403 19:03:12.069569 18563 net.cpp:148] Top shape: 24 24 14 14 (112896)
I0403 19:03:12.069586 18563 net.cpp:156] Memory required for data: 1048562976
I0403 19:03:12.069602 18563 layer_factory.hpp:77] Creating layer inception_4c/5x5
I0403 19:03:12.069624 18563 net.cpp:91] Creating Layer inception_4c/5x5
I0403 19:03:12.069641 18563 net.cpp:425] inception_4c/5x5 <- inception_4c/5x5_reduce
I0403 19:03:12.069661 18563 net.cpp:399] inception_4c/5x5 -> inception_4c/5x5
I0403 19:03:12.070935 18563 net.cpp:141] Setting up inception_4c/5x5
I0403 19:03:12.070966 18563 net.cpp:148] Top shape: 24 64 14 14 (301056)
I0403 19:03:12.070986 18563 net.cpp:156] Memory required for data: 1049767200
I0403 19:03:12.071007 18563 layer_factory.hpp:77] Creating layer inception_4c/relu_5x5
I0403 19:03:12.071025 18563 net.cpp:91] Creating Layer inception_4c/relu_5x5
I0403 19:03:12.071043 18563 net.cpp:425] inception_4c/relu_5x5 <- inception_4c/5x5
I0403 19:03:12.071061 18563 net.cpp:386] inception_4c/relu_5x5 -> inception_4c/5x5 (in-place)
I0403 19:03:12.071354 18563 net.cpp:141] Setting up inception_4c/relu_5x5
I0403 19:03:12.071383 18563 net.cpp:148] Top shape: 24 64 14 14 (301056)
I0403 19:03:12.071399 18563 net.cpp:156] Memory required for data: 1050971424
I0403 19:03:12.071415 18563 layer_factory.hpp:77] Creating layer inception_4c/pool
I0403 19:03:12.071434 18563 net.cpp:91] Creating Layer inception_4c/pool
I0403 19:03:12.071449 18563 net.cpp:425] inception_4c/pool <- inception_4b/output_inception_4b/output_0_split_3
I0403 19:03:12.071473 18563 net.cpp:399] inception_4c/pool -> inception_4c/pool
I0403 19:03:12.071540 18563 net.cpp:141] Setting up inception_4c/pool
I0403 19:03:12.071564 18563 net.cpp:148] Top shape: 24 512 14 14 (2408448)
I0403 19:03:12.071579 18563 net.cpp:156] Memory required for data: 1060605216
I0403 19:03:12.071594 18563 layer_factory.hpp:77] Creating layer inception_4c/pool_proj
I0403 19:03:12.071617 18563 net.cpp:91] Creating Layer inception_4c/pool_proj
I0403 19:03:12.071635 18563 net.cpp:425] inception_4c/pool_proj <- inception_4c/pool
I0403 19:03:12.071656 18563 net.cpp:399] inception_4c/pool_proj -> inception_4c/pool_proj
I0403 19:03:12.072907 18563 net.cpp:141] Setting up inception_4c/pool_proj
I0403 19:03:12.072937 18563 net.cpp:148] Top shape: 24 64 14 14 (301056)
I0403 19:03:12.072967 18563 net.cpp:156] Memory required for data: 1061809440
I0403 19:03:12.072990 18563 layer_factory.hpp:77] Creating layer inception_4c/relu_pool_proj
I0403 19:03:12.073014 18563 net.cpp:91] Creating Layer inception_4c/relu_pool_proj
I0403 19:03:12.073032 18563 net.cpp:425] inception_4c/relu_pool_proj <- inception_4c/pool_proj
I0403 19:03:12.073050 18563 net.cpp:386] inception_4c/relu_pool_proj -> inception_4c/pool_proj (in-place)
I0403 19:03:12.073240 18563 net.cpp:141] Setting up inception_4c/relu_pool_proj
I0403 19:03:12.073267 18563 net.cpp:148] Top shape: 24 64 14 14 (301056)
I0403 19:03:12.073284 18563 net.cpp:156] Memory required for data: 1063013664
I0403 19:03:12.073299 18563 layer_factory.hpp:77] Creating layer inception_4c/output
I0403 19:03:12.073318 18563 net.cpp:91] Creating Layer inception_4c/output
I0403 19:03:12.073333 18563 net.cpp:425] inception_4c/output <- inception_4c/1x1
I0403 19:03:12.073350 18563 net.cpp:425] inception_4c/output <- inception_4c/3x3
I0403 19:03:12.073367 18563 net.cpp:425] inception_4c/output <- inception_4c/5x5
I0403 19:03:12.073384 18563 net.cpp:425] inception_4c/output <- inception_4c/pool_proj
I0403 19:03:12.073400 18563 net.cpp:399] inception_4c/output -> inception_4c/output
I0403 19:03:12.073451 18563 net.cpp:141] Setting up inception_4c/output
I0403 19:03:12.073474 18563 net.cpp:148] Top shape: 24 512 14 14 (2408448)
I0403 19:03:12.073489 18563 net.cpp:156] Memory required for data: 1072647456
I0403 19:03:12.073504 18563 layer_factory.hpp:77] Creating layer inception_4c/output_inception_4c/output_0_split
I0403 19:03:12.073523 18563 net.cpp:91] Creating Layer inception_4c/output_inception_4c/output_0_split
I0403 19:03:12.073537 18563 net.cpp:425] inception_4c/output_inception_4c/output_0_split <- inception_4c/output
I0403 19:03:12.073557 18563 net.cpp:399] inception_4c/output_inception_4c/output_0_split -> inception_4c/output_inception_4c/output_0_split_0
I0403 19:03:12.073578 18563 net.cpp:399] inception_4c/output_inception_4c/output_0_split -> inception_4c/output_inception_4c/output_0_split_1
I0403 19:03:12.073598 18563 net.cpp:399] inception_4c/output_inception_4c/output_0_split -> inception_4c/output_inception_4c/output_0_split_2
I0403 19:03:12.073621 18563 net.cpp:399] inception_4c/output_inception_4c/output_0_split -> inception_4c/output_inception_4c/output_0_split_3
I0403 19:03:12.073710 18563 net.cpp:141] Setting up inception_4c/output_inception_4c/output_0_split
I0403 19:03:12.073734 18563 net.cpp:148] Top shape: 24 512 14 14 (2408448)
I0403 19:03:12.073751 18563 net.cpp:148] Top shape: 24 512 14 14 (2408448)
I0403 19:03:12.073766 18563 net.cpp:148] Top shape: 24 512 14 14 (2408448)
I0403 19:03:12.073783 18563 net.cpp:148] Top shape: 24 512 14 14 (2408448)
I0403 19:03:12.073797 18563 net.cpp:156] Memory required for data: 1111182624
I0403 19:03:12.073812 18563 layer_factory.hpp:77] Creating layer inception_4d/1x1
I0403 19:03:12.073835 18563 net.cpp:91] Creating Layer inception_4d/1x1
I0403 19:03:12.073853 18563 net.cpp:425] inception_4d/1x1 <- inception_4c/output_inception_4c/output_0_split_0
I0403 19:03:12.073874 18563 net.cpp:399] inception_4d/1x1 -> inception_4d/1x1
I0403 19:03:12.075305 18563 net.cpp:141] Setting up inception_4d/1x1
I0403 19:03:12.075333 18563 net.cpp:148] Top shape: 24 112 14 14 (526848)
I0403 19:03:12.075350 18563 net.cpp:156] Memory required for data: 1113290016
I0403 19:03:12.075367 18563 layer_factory.hpp:77] Creating layer inception_4d/relu_1x1
I0403 19:03:12.075386 18563 net.cpp:91] Creating Layer inception_4d/relu_1x1
I0403 19:03:12.075405 18563 net.cpp:425] inception_4d/relu_1x1 <- inception_4d/1x1
I0403 19:03:12.075423 18563 net.cpp:386] inception_4d/relu_1x1 -> inception_4d/1x1 (in-place)
I0403 19:03:12.075608 18563 net.cpp:141] Setting up inception_4d/relu_1x1
I0403 19:03:12.075633 18563 net.cpp:148] Top shape: 24 112 14 14 (526848)
I0403 19:03:12.075647 18563 net.cpp:156] Memory required for data: 1115397408
I0403 19:03:12.075661 18563 layer_factory.hpp:77] Creating layer inception_4d/3x3_reduce
I0403 19:03:12.075697 18563 net.cpp:91] Creating Layer inception_4d/3x3_reduce
I0403 19:03:12.075716 18563 net.cpp:425] inception_4d/3x3_reduce <- inception_4c/output_inception_4c/output_0_split_1
I0403 19:03:12.075738 18563 net.cpp:399] inception_4d/3x3_reduce -> inception_4d/3x3_reduce
I0403 19:03:12.077275 18563 net.cpp:141] Setting up inception_4d/3x3_reduce
I0403 19:03:12.077306 18563 net.cpp:148] Top shape: 24 144 14 14 (677376)
I0403 19:03:12.077323 18563 net.cpp:156] Memory required for data: 1118106912
I0403 19:03:12.077342 18563 layer_factory.hpp:77] Creating layer inception_4d/relu_3x3_reduce
I0403 19:03:12.077361 18563 net.cpp:91] Creating Layer inception_4d/relu_3x3_reduce
I0403 19:03:12.077378 18563 net.cpp:425] inception_4d/relu_3x3_reduce <- inception_4d/3x3_reduce
I0403 19:03:12.077399 18563 net.cpp:386] inception_4d/relu_3x3_reduce -> inception_4d/3x3_reduce (in-place)
I0403 19:03:12.077702 18563 net.cpp:141] Setting up inception_4d/relu_3x3_reduce
I0403 19:03:12.077730 18563 net.cpp:148] Top shape: 24 144 14 14 (677376)
I0403 19:03:12.077745 18563 net.cpp:156] Memory required for data: 1120816416
I0403 19:03:12.077759 18563 layer_factory.hpp:77] Creating layer inception_4d/3x3
I0403 19:03:12.077792 18563 net.cpp:91] Creating Layer inception_4d/3x3
I0403 19:03:12.077811 18563 net.cpp:425] inception_4d/3x3 <- inception_4d/3x3_reduce
I0403 19:03:12.077832 18563 net.cpp:399] inception_4d/3x3 -> inception_4d/3x3
I0403 19:03:12.082099 18563 net.cpp:141] Setting up inception_4d/3x3
I0403 19:03:12.082129 18563 net.cpp:148] Top shape: 24 288 14 14 (1354752)
I0403 19:03:12.082144 18563 net.cpp:156] Memory required for data: 1126235424
I0403 19:03:12.082164 18563 layer_factory.hpp:77] Creating layer inception_4d/relu_3x3
I0403 19:03:12.082181 18563 net.cpp:91] Creating Layer inception_4d/relu_3x3
I0403 19:03:12.082197 18563 net.cpp:425] inception_4d/relu_3x3 <- inception_4d/3x3
I0403 19:03:12.082217 18563 net.cpp:386] inception_4d/relu_3x3 -> inception_4d/3x3 (in-place)
I0403 19:03:12.082399 18563 net.cpp:141] Setting up inception_4d/relu_3x3
I0403 19:03:12.082424 18563 net.cpp:148] Top shape: 24 288 14 14 (1354752)
I0403 19:03:12.082439 18563 net.cpp:156] Memory required for data: 1131654432
I0403 19:03:12.082453 18563 layer_factory.hpp:77] Creating layer inception_4d/5x5_reduce
I0403 19:03:12.082475 18563 net.cpp:91] Creating Layer inception_4d/5x5_reduce
I0403 19:03:12.082492 18563 net.cpp:425] inception_4d/5x5_reduce <- inception_4c/output_inception_4c/output_0_split_2
I0403 19:03:12.082514 18563 net.cpp:399] inception_4d/5x5_reduce -> inception_4d/5x5_reduce
I0403 19:03:12.083686 18563 net.cpp:141] Setting up inception_4d/5x5_reduce
I0403 19:03:12.083714 18563 net.cpp:148] Top shape: 24 32 14 14 (150528)
I0403 19:03:12.083729 18563 net.cpp:156] Memory required for data: 1132256544
I0403 19:03:12.083747 18563 layer_factory.hpp:77] Creating layer inception_4d/relu_5x5_reduce
I0403 19:03:12.083767 18563 net.cpp:91] Creating Layer inception_4d/relu_5x5_reduce
I0403 19:03:12.083784 18563 net.cpp:425] inception_4d/relu_5x5_reduce <- inception_4d/5x5_reduce
I0403 19:03:12.083801 18563 net.cpp:386] inception_4d/relu_5x5_reduce -> inception_4d/5x5_reduce (in-place)
I0403 19:03:12.083993 18563 net.cpp:141] Setting up inception_4d/relu_5x5_reduce
I0403 19:03:12.084017 18563 net.cpp:148] Top shape: 24 32 14 14 (150528)
I0403 19:03:12.084033 18563 net.cpp:156] Memory required for data: 1132858656
I0403 19:03:12.084048 18563 layer_factory.hpp:77] Creating layer inception_4d/5x5
I0403 19:03:12.084069 18563 net.cpp:91] Creating Layer inception_4d/5x5
I0403 19:03:12.084086 18563 net.cpp:425] inception_4d/5x5 <- inception_4d/5x5_reduce
I0403 19:03:12.084108 18563 net.cpp:399] inception_4d/5x5 -> inception_4d/5x5
I0403 19:03:12.085568 18563 net.cpp:141] Setting up inception_4d/5x5
I0403 19:03:12.085597 18563 net.cpp:148] Top shape: 24 64 14 14 (301056)
I0403 19:03:12.085611 18563 net.cpp:156] Memory required for data: 1134062880
I0403 19:03:12.085630 18563 layer_factory.hpp:77] Creating layer inception_4d/relu_5x5
I0403 19:03:12.085664 18563 net.cpp:91] Creating Layer inception_4d/relu_5x5
I0403 19:03:12.085682 18563 net.cpp:425] inception_4d/relu_5x5 <- inception_4d/5x5
I0403 19:03:12.085700 18563 net.cpp:386] inception_4d/relu_5x5 -> inception_4d/5x5 (in-place)
I0403 19:03:12.086004 18563 net.cpp:141] Setting up inception_4d/relu_5x5
I0403 19:03:12.086030 18563 net.cpp:148] Top shape: 24 64 14 14 (301056)
I0403 19:03:12.086045 18563 net.cpp:156] Memory required for data: 1135267104
I0403 19:03:12.086060 18563 layer_factory.hpp:77] Creating layer inception_4d/pool
I0403 19:03:12.086079 18563 net.cpp:91] Creating Layer inception_4d/pool
I0403 19:03:12.086097 18563 net.cpp:425] inception_4d/pool <- inception_4c/output_inception_4c/output_0_split_3
I0403 19:03:12.086114 18563 net.cpp:399] inception_4d/pool -> inception_4d/pool
I0403 19:03:12.086182 18563 net.cpp:141] Setting up inception_4d/pool
I0403 19:03:12.086207 18563 net.cpp:148] Top shape: 24 512 14 14 (2408448)
I0403 19:03:12.086222 18563 net.cpp:156] Memory required for data: 1144900896
I0403 19:03:12.086236 18563 layer_factory.hpp:77] Creating layer inception_4d/pool_proj
I0403 19:03:12.086258 18563 net.cpp:91] Creating Layer inception_4d/pool_proj
I0403 19:03:12.086275 18563 net.cpp:425] inception_4d/pool_proj <- inception_4d/pool
I0403 19:03:12.086297 18563 net.cpp:399] inception_4d/pool_proj -> inception_4d/pool_proj
I0403 19:03:12.088043 18563 net.cpp:141] Setting up inception_4d/pool_proj
I0403 19:03:12.088073 18563 net.cpp:148] Top shape: 24 64 14 14 (301056)
I0403 19:03:12.088088 18563 net.cpp:156] Memory required for data: 1146105120
I0403 19:03:12.088106 18563 layer_factory.hpp:77] Creating layer inception_4d/relu_pool_proj
I0403 19:03:12.088124 18563 net.cpp:91] Creating Layer inception_4d/relu_pool_proj
I0403 19:03:12.088140 18563 net.cpp:425] inception_4d/relu_pool_proj <- inception_4d/pool_proj
I0403 19:03:12.088161 18563 net.cpp:386] inception_4d/relu_pool_proj -> inception_4d/pool_proj (in-place)
I0403 19:03:12.088346 18563 net.cpp:141] Setting up inception_4d/relu_pool_proj
I0403 19:03:12.088371 18563 net.cpp:148] Top shape: 24 64 14 14 (301056)
I0403 19:03:12.088384 18563 net.cpp:156] Memory required for data: 1147309344
I0403 19:03:12.088399 18563 layer_factory.hpp:77] Creating layer inception_4d/output
I0403 19:03:12.088419 18563 net.cpp:91] Creating Layer inception_4d/output
I0403 19:03:12.088436 18563 net.cpp:425] inception_4d/output <- inception_4d/1x1
I0403 19:03:12.088452 18563 net.cpp:425] inception_4d/output <- inception_4d/3x3
I0403 19:03:12.088469 18563 net.cpp:425] inception_4d/output <- inception_4d/5x5
I0403 19:03:12.088484 18563 net.cpp:425] inception_4d/output <- inception_4d/pool_proj
I0403 19:03:12.088500 18563 net.cpp:399] inception_4d/output -> inception_4d/output
I0403 19:03:12.088549 18563 net.cpp:141] Setting up inception_4d/output
I0403 19:03:12.088572 18563 net.cpp:148] Top shape: 24 528 14 14 (2483712)
I0403 19:03:12.088587 18563 net.cpp:156] Memory required for data: 1157244192
I0403 19:03:12.088601 18563 layer_factory.hpp:77] Creating layer inception_4d/output_inception_4d/output_0_split
I0403 19:03:12.088619 18563 net.cpp:91] Creating Layer inception_4d/output_inception_4d/output_0_split
I0403 19:03:12.088634 18563 net.cpp:425] inception_4d/output_inception_4d/output_0_split <- inception_4d/output
I0403 19:03:12.088654 18563 net.cpp:399] inception_4d/output_inception_4d/output_0_split -> inception_4d/output_inception_4d/output_0_split_0
I0403 19:03:12.088675 18563 net.cpp:399] inception_4d/output_inception_4d/output_0_split -> inception_4d/output_inception_4d/output_0_split_1
I0403 19:03:12.088696 18563 net.cpp:399] inception_4d/output_inception_4d/output_0_split -> inception_4d/output_inception_4d/output_0_split_2
I0403 19:03:12.088717 18563 net.cpp:399] inception_4d/output_inception_4d/output_0_split -> inception_4d/output_inception_4d/output_0_split_3
I0403 19:03:12.088737 18563 net.cpp:399] inception_4d/output_inception_4d/output_0_split -> inception_4d/output_inception_4d/output_0_split_4
I0403 19:03:12.088840 18563 net.cpp:141] Setting up inception_4d/output_inception_4d/output_0_split
I0403 19:03:12.088874 18563 net.cpp:148] Top shape: 24 528 14 14 (2483712)
I0403 19:03:12.088891 18563 net.cpp:148] Top shape: 24 528 14 14 (2483712)
I0403 19:03:12.088907 18563 net.cpp:148] Top shape: 24 528 14 14 (2483712)
I0403 19:03:12.088922 18563 net.cpp:148] Top shape: 24 528 14 14 (2483712)
I0403 19:03:12.088937 18563 net.cpp:148] Top shape: 24 528 14 14 (2483712)
I0403 19:03:12.088950 18563 net.cpp:156] Memory required for data: 1206918432
I0403 19:03:12.088965 18563 layer_factory.hpp:77] Creating layer loss2/ave_pool
I0403 19:03:12.088994 18563 net.cpp:91] Creating Layer loss2/ave_pool
I0403 19:03:12.089011 18563 net.cpp:425] loss2/ave_pool <- inception_4d/output_inception_4d/output_0_split_0
I0403 19:03:12.089032 18563 net.cpp:399] loss2/ave_pool -> loss2/ave_pool
I0403 19:03:12.089344 18563 net.cpp:141] Setting up loss2/ave_pool
I0403 19:03:12.089370 18563 net.cpp:148] Top shape: 24 528 4 4 (202752)
I0403 19:03:12.089385 18563 net.cpp:156] Memory required for data: 1207729440
I0403 19:03:12.089401 18563 layer_factory.hpp:77] Creating layer loss2/conv
I0403 19:03:12.089422 18563 net.cpp:91] Creating Layer loss2/conv
I0403 19:03:12.089440 18563 net.cpp:425] loss2/conv <- loss2/ave_pool
I0403 19:03:12.089462 18563 net.cpp:399] loss2/conv -> loss2/conv
I0403 19:03:12.091344 18563 net.cpp:141] Setting up loss2/conv
I0403 19:03:12.091375 18563 net.cpp:148] Top shape: 24 128 4 4 (49152)
I0403 19:03:12.091392 18563 net.cpp:156] Memory required for data: 1207926048
I0403 19:03:12.091410 18563 layer_factory.hpp:77] Creating layer loss2/relu_conv
I0403 19:03:12.091428 18563 net.cpp:91] Creating Layer loss2/relu_conv
I0403 19:03:12.091444 18563 net.cpp:425] loss2/relu_conv <- loss2/conv
I0403 19:03:12.091461 18563 net.cpp:386] loss2/relu_conv -> loss2/conv (in-place)
I0403 19:03:12.091750 18563 net.cpp:141] Setting up loss2/relu_conv
I0403 19:03:12.091779 18563 net.cpp:148] Top shape: 24 128 4 4 (49152)
I0403 19:03:12.091794 18563 net.cpp:156] Memory required for data: 1208122656
I0403 19:03:12.091809 18563 layer_factory.hpp:77] Creating layer loss2/fc
I0403 19:03:12.091828 18563 net.cpp:91] Creating Layer loss2/fc
I0403 19:03:12.091845 18563 net.cpp:425] loss2/fc <- loss2/conv
I0403 19:03:12.091866 18563 net.cpp:399] loss2/fc -> loss2/fc
I0403 19:03:12.109462 18563 net.cpp:141] Setting up loss2/fc
I0403 19:03:12.109493 18563 net.cpp:148] Top shape: 24 1024 (24576)
I0403 19:03:12.109510 18563 net.cpp:156] Memory required for data: 1208220960
I0403 19:03:12.109529 18563 layer_factory.hpp:77] Creating layer loss2/relu_fc
I0403 19:03:12.109549 18563 net.cpp:91] Creating Layer loss2/relu_fc
I0403 19:03:12.109566 18563 net.cpp:425] loss2/relu_fc <- loss2/fc
I0403 19:03:12.109583 18563 net.cpp:386] loss2/relu_fc -> loss2/fc (in-place)
I0403 19:03:12.109884 18563 net.cpp:141] Setting up loss2/relu_fc
I0403 19:03:12.109910 18563 net.cpp:148] Top shape: 24 1024 (24576)
I0403 19:03:12.109925 18563 net.cpp:156] Memory required for data: 1208319264
I0403 19:03:12.109940 18563 layer_factory.hpp:77] Creating layer loss2/drop_fc
I0403 19:03:12.109959 18563 net.cpp:91] Creating Layer loss2/drop_fc
I0403 19:03:12.109977 18563 net.cpp:425] loss2/drop_fc <- loss2/fc
I0403 19:03:12.109998 18563 net.cpp:386] loss2/drop_fc -> loss2/fc (in-place)
I0403 19:03:12.110046 18563 net.cpp:141] Setting up loss2/drop_fc
I0403 19:03:12.110071 18563 net.cpp:148] Top shape: 24 1024 (24576)
I0403 19:03:12.110086 18563 net.cpp:156] Memory required for data: 1208417568
I0403 19:03:12.110101 18563 layer_factory.hpp:77] Creating layer loss2/classifier_plantvillage
I0403 19:03:12.110119 18563 net.cpp:91] Creating Layer loss2/classifier_plantvillage
I0403 19:03:12.110136 18563 net.cpp:425] loss2/classifier_plantvillage <- loss2/fc
I0403 19:03:12.110155 18563 net.cpp:399] loss2/classifier_plantvillage -> loss2/classifier_plantvillage
I0403 19:03:12.110589 18563 net.cpp:141] Setting up loss2/classifier_plantvillage
I0403 19:03:12.110613 18563 net.cpp:148] Top shape: 24 38 (912)
I0403 19:03:12.110643 18563 net.cpp:156] Memory required for data: 1208421216
I0403 19:03:12.110662 18563 layer_factory.hpp:77] Creating layer loss2/classifier_plantvillage_loss2/classifier_plantvillage_0_split
I0403 19:03:12.110680 18563 net.cpp:91] Creating Layer loss2/classifier_plantvillage_loss2/classifier_plantvillage_0_split
I0403 19:03:12.110697 18563 net.cpp:425] loss2/classifier_plantvillage_loss2/classifier_plantvillage_0_split <- loss2/classifier_plantvillage
I0403 19:03:12.110714 18563 net.cpp:399] loss2/classifier_plantvillage_loss2/classifier_plantvillage_0_split -> loss2/classifier_plantvillage_loss2/classifier_plantvillage_0_split_0
I0403 19:03:12.110736 18563 net.cpp:399] loss2/classifier_plantvillage_loss2/classifier_plantvillage_0_split -> loss2/classifier_plantvillage_loss2/classifier_plantvillage_0_split_1
I0403 19:03:12.110759 18563 net.cpp:399] loss2/classifier_plantvillage_loss2/classifier_plantvillage_0_split -> loss2/classifier_plantvillage_loss2/classifier_plantvillage_0_split_2
I0403 19:03:12.110836 18563 net.cpp:141] Setting up loss2/classifier_plantvillage_loss2/classifier_plantvillage_0_split
I0403 19:03:12.110859 18563 net.cpp:148] Top shape: 24 38 (912)
I0403 19:03:12.110875 18563 net.cpp:148] Top shape: 24 38 (912)
I0403 19:03:12.110890 18563 net.cpp:148] Top shape: 24 38 (912)
I0403 19:03:12.110904 18563 net.cpp:156] Memory required for data: 1208432160
I0403 19:03:12.110918 18563 layer_factory.hpp:77] Creating layer inception_4e/1x1
I0403 19:03:12.110940 18563 net.cpp:91] Creating Layer inception_4e/1x1
I0403 19:03:12.110957 18563 net.cpp:425] inception_4e/1x1 <- inception_4d/output_inception_4d/output_0_split_1
I0403 19:03:12.110982 18563 net.cpp:399] inception_4e/1x1 -> inception_4e/1x1
I0403 19:03:12.112797 18563 net.cpp:141] Setting up inception_4e/1x1
I0403 19:03:12.112828 18563 net.cpp:148] Top shape: 24 256 14 14 (1204224)
I0403 19:03:12.112844 18563 net.cpp:156] Memory required for data: 1213249056
I0403 19:03:12.112862 18563 layer_factory.hpp:77] Creating layer inception_4e/relu_1x1
I0403 19:03:12.112880 18563 net.cpp:91] Creating Layer inception_4e/relu_1x1
I0403 19:03:12.112896 18563 net.cpp:425] inception_4e/relu_1x1 <- inception_4e/1x1
I0403 19:03:12.112915 18563 net.cpp:386] inception_4e/relu_1x1 -> inception_4e/1x1 (in-place)
I0403 19:03:12.113212 18563 net.cpp:141] Setting up inception_4e/relu_1x1
I0403 19:03:12.113240 18563 net.cpp:148] Top shape: 24 256 14 14 (1204224)
I0403 19:03:12.113257 18563 net.cpp:156] Memory required for data: 1218065952
I0403 19:03:12.113272 18563 layer_factory.hpp:77] Creating layer inception_4e/3x3_reduce
I0403 19:03:12.113296 18563 net.cpp:91] Creating Layer inception_4e/3x3_reduce
I0403 19:03:12.113312 18563 net.cpp:425] inception_4e/3x3_reduce <- inception_4d/output_inception_4d/output_0_split_2
I0403 19:03:12.113332 18563 net.cpp:399] inception_4e/3x3_reduce -> inception_4e/3x3_reduce
I0403 19:03:12.115439 18563 net.cpp:141] Setting up inception_4e/3x3_reduce
I0403 19:03:12.115468 18563 net.cpp:148] Top shape: 24 160 14 14 (752640)
I0403 19:03:12.115484 18563 net.cpp:156] Memory required for data: 1221076512
I0403 19:03:12.115504 18563 layer_factory.hpp:77] Creating layer inception_4e/relu_3x3_reduce
I0403 19:03:12.115525 18563 net.cpp:91] Creating Layer inception_4e/relu_3x3_reduce
I0403 19:03:12.115541 18563 net.cpp:425] inception_4e/relu_3x3_reduce <- inception_4e/3x3_reduce
I0403 19:03:12.115558 18563 net.cpp:386] inception_4e/relu_3x3_reduce -> inception_4e/3x3_reduce (in-place)
I0403 19:03:12.115746 18563 net.cpp:141] Setting up inception_4e/relu_3x3_reduce
I0403 19:03:12.115773 18563 net.cpp:148] Top shape: 24 160 14 14 (752640)
I0403 19:03:12.115788 18563 net.cpp:156] Memory required for data: 1224087072
I0403 19:03:12.115803 18563 layer_factory.hpp:77] Creating layer inception_4e/3x3
I0403 19:03:12.115825 18563 net.cpp:91] Creating Layer inception_4e/3x3
I0403 19:03:12.115844 18563 net.cpp:425] inception_4e/3x3 <- inception_4e/3x3_reduce
I0403 19:03:12.115862 18563 net.cpp:399] inception_4e/3x3 -> inception_4e/3x3
I0403 19:03:12.120900 18563 net.cpp:141] Setting up inception_4e/3x3
I0403 19:03:12.120944 18563 net.cpp:148] Top shape: 24 320 14 14 (1505280)
I0403 19:03:12.120962 18563 net.cpp:156] Memory required for data: 1230108192
I0403 19:03:12.120986 18563 layer_factory.hpp:77] Creating layer inception_4e/relu_3x3
I0403 19:03:12.121007 18563 net.cpp:91] Creating Layer inception_4e/relu_3x3
I0403 19:03:12.121026 18563 net.cpp:425] inception_4e/relu_3x3 <- inception_4e/3x3
I0403 19:03:12.121045 18563 net.cpp:386] inception_4e/relu_3x3 -> inception_4e/3x3 (in-place)
I0403 19:03:12.121348 18563 net.cpp:141] Setting up inception_4e/relu_3x3
I0403 19:03:12.121374 18563 net.cpp:148] Top shape: 24 320 14 14 (1505280)
I0403 19:03:12.121390 18563 net.cpp:156] Memory required for data: 1236129312
I0403 19:03:12.121405 18563 layer_factory.hpp:77] Creating layer inception_4e/5x5_reduce
I0403 19:03:12.121429 18563 net.cpp:91] Creating Layer inception_4e/5x5_reduce
I0403 19:03:12.121448 18563 net.cpp:425] inception_4e/5x5_reduce <- inception_4d/output_inception_4d/output_0_split_3
I0403 19:03:12.121469 18563 net.cpp:399] inception_4e/5x5_reduce -> inception_4e/5x5_reduce
I0403 19:03:12.122537 18563 net.cpp:141] Setting up inception_4e/5x5_reduce
I0403 19:03:12.122565 18563 net.cpp:148] Top shape: 24 32 14 14 (150528)
I0403 19:03:12.122581 18563 net.cpp:156] Memory required for data: 1236731424
I0403 19:03:12.122599 18563 layer_factory.hpp:77] Creating layer inception_4e/relu_5x5_reduce
I0403 19:03:12.122619 18563 net.cpp:91] Creating Layer inception_4e/relu_5x5_reduce
I0403 19:03:12.122637 18563 net.cpp:425] inception_4e/relu_5x5_reduce <- inception_4e/5x5_reduce
I0403 19:03:12.122653 18563 net.cpp:386] inception_4e/relu_5x5_reduce -> inception_4e/5x5_reduce (in-place)
I0403 19:03:12.122956 18563 net.cpp:141] Setting up inception_4e/relu_5x5_reduce
I0403 19:03:12.122985 18563 net.cpp:148] Top shape: 24 32 14 14 (150528)
I0403 19:03:12.123002 18563 net.cpp:156] Memory required for data: 1237333536
I0403 19:03:12.123016 18563 layer_factory.hpp:77] Creating layer inception_4e/5x5
I0403 19:03:12.123057 18563 net.cpp:91] Creating Layer inception_4e/5x5
I0403 19:03:12.123076 18563 net.cpp:425] inception_4e/5x5 <- inception_4e/5x5_reduce
I0403 19:03:12.123096 18563 net.cpp:399] inception_4e/5x5 -> inception_4e/5x5
I0403 19:03:12.124953 18563 net.cpp:141] Setting up inception_4e/5x5
I0403 19:03:12.124985 18563 net.cpp:148] Top shape: 24 128 14 14 (602112)
I0403 19:03:12.125004 18563 net.cpp:156] Memory required for data: 1239741984
I0403 19:03:12.125022 18563 layer_factory.hpp:77] Creating layer inception_4e/relu_5x5
I0403 19:03:12.125043 18563 net.cpp:91] Creating Layer inception_4e/relu_5x5
I0403 19:03:12.125061 18563 net.cpp:425] inception_4e/relu_5x5 <- inception_4e/5x5
I0403 19:03:12.125077 18563 net.cpp:386] inception_4e/relu_5x5 -> inception_4e/5x5 (in-place)
I0403 19:03:12.125273 18563 net.cpp:141] Setting up inception_4e/relu_5x5
I0403 19:03:12.125301 18563 net.cpp:148] Top shape: 24 128 14 14 (602112)
I0403 19:03:12.125316 18563 net.cpp:156] Memory required for data: 1242150432
I0403 19:03:12.125331 18563 layer_factory.hpp:77] Creating layer inception_4e/pool
I0403 19:03:12.125349 18563 net.cpp:91] Creating Layer inception_4e/pool
I0403 19:03:12.125365 18563 net.cpp:425] inception_4e/pool <- inception_4d/output_inception_4d/output_0_split_4
I0403 19:03:12.125383 18563 net.cpp:399] inception_4e/pool -> inception_4e/pool
I0403 19:03:12.125453 18563 net.cpp:141] Setting up inception_4e/pool
I0403 19:03:12.125476 18563 net.cpp:148] Top shape: 24 528 14 14 (2483712)
I0403 19:03:12.125491 18563 net.cpp:156] Memory required for data: 1252085280
I0403 19:03:12.125505 18563 layer_factory.hpp:77] Creating layer inception_4e/pool_proj
I0403 19:03:12.125527 18563 net.cpp:91] Creating Layer inception_4e/pool_proj
I0403 19:03:12.125545 18563 net.cpp:425] inception_4e/pool_proj <- inception_4e/pool
I0403 19:03:12.125566 18563 net.cpp:399] inception_4e/pool_proj -> inception_4e/pool_proj
I0403 19:03:12.127075 18563 net.cpp:141] Setting up inception_4e/pool_proj
I0403 19:03:12.127115 18563 net.cpp:148] Top shape: 24 128 14 14 (602112)
I0403 19:03:12.127130 18563 net.cpp:156] Memory required for data: 1254493728
I0403 19:03:12.127149 18563 layer_factory.hpp:77] Creating layer inception_4e/relu_pool_proj
I0403 19:03:12.127169 18563 net.cpp:91] Creating Layer inception_4e/relu_pool_proj
I0403 19:03:12.127187 18563 net.cpp:425] inception_4e/relu_pool_proj <- inception_4e/pool_proj
I0403 19:03:12.127207 18563 net.cpp:386] inception_4e/relu_pool_proj -> inception_4e/pool_proj (in-place)
I0403 19:03:12.127501 18563 net.cpp:141] Setting up inception_4e/relu_pool_proj
I0403 19:03:12.127527 18563 net.cpp:148] Top shape: 24 128 14 14 (602112)
I0403 19:03:12.127542 18563 net.cpp:156] Memory required for data: 1256902176
I0403 19:03:12.127557 18563 layer_factory.hpp:77] Creating layer inception_4e/output
I0403 19:03:12.127574 18563 net.cpp:91] Creating Layer inception_4e/output
I0403 19:03:12.127591 18563 net.cpp:425] inception_4e/output <- inception_4e/1x1
I0403 19:03:12.127607 18563 net.cpp:425] inception_4e/output <- inception_4e/3x3
I0403 19:03:12.127624 18563 net.cpp:425] inception_4e/output <- inception_4e/5x5
I0403 19:03:12.127638 18563 net.cpp:425] inception_4e/output <- inception_4e/pool_proj
I0403 19:03:12.127657 18563 net.cpp:399] inception_4e/output -> inception_4e/output
I0403 19:03:12.127707 18563 net.cpp:141] Setting up inception_4e/output
I0403 19:03:12.127732 18563 net.cpp:148] Top shape: 24 832 14 14 (3913728)
I0403 19:03:12.127748 18563 net.cpp:156] Memory required for data: 1272557088
I0403 19:03:12.127763 18563 layer_factory.hpp:77] Creating layer pool4/3x3_s2
I0403 19:03:12.127779 18563 net.cpp:91] Creating Layer pool4/3x3_s2
I0403 19:03:12.127795 18563 net.cpp:425] pool4/3x3_s2 <- inception_4e/output
I0403 19:03:12.127815 18563 net.cpp:399] pool4/3x3_s2 -> pool4/3x3_s2
I0403 19:03:12.127883 18563 net.cpp:141] Setting up pool4/3x3_s2
I0403 19:03:12.127907 18563 net.cpp:148] Top shape: 24 832 7 7 (978432)
I0403 19:03:12.127923 18563 net.cpp:156] Memory required for data: 1276470816
I0403 19:03:12.127936 18563 layer_factory.hpp:77] Creating layer pool4/3x3_s2_pool4/3x3_s2_0_split
I0403 19:03:12.127955 18563 net.cpp:91] Creating Layer pool4/3x3_s2_pool4/3x3_s2_0_split
I0403 19:03:12.127972 18563 net.cpp:425] pool4/3x3_s2_pool4/3x3_s2_0_split <- pool4/3x3_s2
I0403 19:03:12.127995 18563 net.cpp:399] pool4/3x3_s2_pool4/3x3_s2_0_split -> pool4/3x3_s2_pool4/3x3_s2_0_split_0
I0403 19:03:12.128016 18563 net.cpp:399] pool4/3x3_s2_pool4/3x3_s2_0_split -> pool4/3x3_s2_pool4/3x3_s2_0_split_1
I0403 19:03:12.128041 18563 net.cpp:399] pool4/3x3_s2_pool4/3x3_s2_0_split -> pool4/3x3_s2_pool4/3x3_s2_0_split_2
I0403 19:03:12.128062 18563 net.cpp:399] pool4/3x3_s2_pool4/3x3_s2_0_split -> pool4/3x3_s2_pool4/3x3_s2_0_split_3
I0403 19:03:12.128150 18563 net.cpp:141] Setting up pool4/3x3_s2_pool4/3x3_s2_0_split
I0403 19:03:12.128175 18563 net.cpp:148] Top shape: 24 832 7 7 (978432)
I0403 19:03:12.128190 18563 net.cpp:148] Top shape: 24 832 7 7 (978432)
I0403 19:03:12.128207 18563 net.cpp:148] Top shape: 24 832 7 7 (978432)
I0403 19:03:12.128223 18563 net.cpp:148] Top shape: 24 832 7 7 (978432)
I0403 19:03:12.128237 18563 net.cpp:156] Memory required for data: 1292125728
I0403 19:03:12.128252 18563 layer_factory.hpp:77] Creating layer inception_5a/1x1
I0403 19:03:12.128274 18563 net.cpp:91] Creating Layer inception_5a/1x1
I0403 19:03:12.128291 18563 net.cpp:425] inception_5a/1x1 <- pool4/3x3_s2_pool4/3x3_s2_0_split_0
I0403 19:03:12.128312 18563 net.cpp:399] inception_5a/1x1 -> inception_5a/1x1
I0403 19:03:12.131181 18563 net.cpp:141] Setting up inception_5a/1x1
I0403 19:03:12.131211 18563 net.cpp:148] Top shape: 24 256 7 7 (301056)
I0403 19:03:12.131227 18563 net.cpp:156] Memory required for data: 1293329952
I0403 19:03:12.131247 18563 layer_factory.hpp:77] Creating layer inception_5a/relu_1x1
I0403 19:03:12.131266 18563 net.cpp:91] Creating Layer inception_5a/relu_1x1
I0403 19:03:12.131283 18563 net.cpp:425] inception_5a/relu_1x1 <- inception_5a/1x1
I0403 19:03:12.131301 18563 net.cpp:386] inception_5a/relu_1x1 -> inception_5a/1x1 (in-place)
I0403 19:03:12.131613 18563 net.cpp:141] Setting up inception_5a/relu_1x1
I0403 19:03:12.131639 18563 net.cpp:148] Top shape: 24 256 7 7 (301056)
I0403 19:03:12.131654 18563 net.cpp:156] Memory required for data: 1294534176
I0403 19:03:12.131669 18563 layer_factory.hpp:77] Creating layer inception_5a/3x3_reduce
I0403 19:03:12.131691 18563 net.cpp:91] Creating Layer inception_5a/3x3_reduce
I0403 19:03:12.131710 18563 net.cpp:425] inception_5a/3x3_reduce <- pool4/3x3_s2_pool4/3x3_s2_0_split_1
I0403 19:03:12.131731 18563 net.cpp:399] inception_5a/3x3_reduce -> inception_5a/3x3_reduce
I0403 19:03:12.134227 18563 net.cpp:141] Setting up inception_5a/3x3_reduce
I0403 19:03:12.134255 18563 net.cpp:148] Top shape: 24 160 7 7 (188160)
I0403 19:03:12.134270 18563 net.cpp:156] Memory required for data: 1295286816
I0403 19:03:12.134289 18563 layer_factory.hpp:77] Creating layer inception_5a/relu_3x3_reduce
I0403 19:03:12.134306 18563 net.cpp:91] Creating Layer inception_5a/relu_3x3_reduce
I0403 19:03:12.134322 18563 net.cpp:425] inception_5a/relu_3x3_reduce <- inception_5a/3x3_reduce
I0403 19:03:12.134342 18563 net.cpp:386] inception_5a/relu_3x3_reduce -> inception_5a/3x3_reduce (in-place)
I0403 19:03:12.134531 18563 net.cpp:141] Setting up inception_5a/relu_3x3_reduce
I0403 19:03:12.134554 18563 net.cpp:148] Top shape: 24 160 7 7 (188160)
I0403 19:03:12.134569 18563 net.cpp:156] Memory required for data: 1296039456
I0403 19:03:12.134584 18563 layer_factory.hpp:77] Creating layer inception_5a/3x3
I0403 19:03:12.134606 18563 net.cpp:91] Creating Layer inception_5a/3x3
I0403 19:03:12.134623 18563 net.cpp:425] inception_5a/3x3 <- inception_5a/3x3_reduce
I0403 19:03:12.134644 18563 net.cpp:399] inception_5a/3x3 -> inception_5a/3x3
I0403 19:03:12.139715 18563 net.cpp:141] Setting up inception_5a/3x3
I0403 19:03:12.139745 18563 net.cpp:148] Top shape: 24 320 7 7 (376320)
I0403 19:03:12.139761 18563 net.cpp:156] Memory required for data: 1297544736
I0403 19:03:12.139780 18563 layer_factory.hpp:77] Creating layer inception_5a/relu_3x3
I0403 19:03:12.139801 18563 net.cpp:91] Creating Layer inception_5a/relu_3x3
I0403 19:03:12.139817 18563 net.cpp:425] inception_5a/relu_3x3 <- inception_5a/3x3
I0403 19:03:12.139835 18563 net.cpp:386] inception_5a/relu_3x3 -> inception_5a/3x3 (in-place)
I0403 19:03:12.140135 18563 net.cpp:141] Setting up inception_5a/relu_3x3
I0403 19:03:12.140159 18563 net.cpp:148] Top shape: 24 320 7 7 (376320)
I0403 19:03:12.140175 18563 net.cpp:156] Memory required for data: 1299050016
I0403 19:03:12.140190 18563 layer_factory.hpp:77] Creating layer inception_5a/5x5_reduce
I0403 19:03:12.140214 18563 net.cpp:91] Creating Layer inception_5a/5x5_reduce
I0403 19:03:12.140231 18563 net.cpp:425] inception_5a/5x5_reduce <- pool4/3x3_s2_pool4/3x3_s2_0_split_2
I0403 19:03:12.140254 18563 net.cpp:399] inception_5a/5x5_reduce -> inception_5a/5x5_reduce
I0403 19:03:12.141422 18563 net.cpp:141] Setting up inception_5a/5x5_reduce
I0403 19:03:12.141453 18563 net.cpp:148] Top shape: 24 32 7 7 (37632)
I0403 19:03:12.141469 18563 net.cpp:156] Memory required for data: 1299200544
I0403 19:03:12.141489 18563 layer_factory.hpp:77] Creating layer inception_5a/relu_5x5_reduce
I0403 19:03:12.141506 18563 net.cpp:91] Creating Layer inception_5a/relu_5x5_reduce
I0403 19:03:12.141523 18563 net.cpp:425] inception_5a/relu_5x5_reduce <- inception_5a/5x5_reduce
I0403 19:03:12.141541 18563 net.cpp:386] inception_5a/relu_5x5_reduce -> inception_5a/5x5_reduce (in-place)
I0403 19:03:12.141844 18563 net.cpp:141] Setting up inception_5a/relu_5x5_reduce
I0403 19:03:12.141871 18563 net.cpp:148] Top shape: 24 32 7 7 (37632)
I0403 19:03:12.141887 18563 net.cpp:156] Memory required for data: 1299351072
I0403 19:03:12.141902 18563 layer_factory.hpp:77] Creating layer inception_5a/5x5
I0403 19:03:12.141924 18563 net.cpp:91] Creating Layer inception_5a/5x5
I0403 19:03:12.141943 18563 net.cpp:425] inception_5a/5x5 <- inception_5a/5x5_reduce
I0403 19:03:12.141963 18563 net.cpp:399] inception_5a/5x5 -> inception_5a/5x5
I0403 19:03:12.143718 18563 net.cpp:141] Setting up inception_5a/5x5
I0403 19:03:12.143757 18563 net.cpp:148] Top shape: 24 128 7 7 (150528)
I0403 19:03:12.143774 18563 net.cpp:156] Memory required for data: 1299953184
I0403 19:03:12.143792 18563 layer_factory.hpp:77] Creating layer inception_5a/relu_5x5
I0403 19:03:12.143812 18563 net.cpp:91] Creating Layer inception_5a/relu_5x5
I0403 19:03:12.143831 18563 net.cpp:425] inception_5a/relu_5x5 <- inception_5a/5x5
I0403 19:03:12.143848 18563 net.cpp:386] inception_5a/relu_5x5 -> inception_5a/5x5 (in-place)
I0403 19:03:12.144042 18563 net.cpp:141] Setting up inception_5a/relu_5x5
I0403 19:03:12.144068 18563 net.cpp:148] Top shape: 24 128 7 7 (150528)
I0403 19:03:12.144083 18563 net.cpp:156] Memory required for data: 1300555296
I0403 19:03:12.144098 18563 layer_factory.hpp:77] Creating layer inception_5a/pool
I0403 19:03:12.144115 18563 net.cpp:91] Creating Layer inception_5a/pool
I0403 19:03:12.144132 18563 net.cpp:425] inception_5a/pool <- pool4/3x3_s2_pool4/3x3_s2_0_split_3
I0403 19:03:12.144150 18563 net.cpp:399] inception_5a/pool -> inception_5a/pool
I0403 19:03:12.144222 18563 net.cpp:141] Setting up inception_5a/pool
I0403 19:03:12.144245 18563 net.cpp:148] Top shape: 24 832 7 7 (978432)
I0403 19:03:12.144259 18563 net.cpp:156] Memory required for data: 1304469024
I0403 19:03:12.144274 18563 layer_factory.hpp:77] Creating layer inception_5a/pool_proj
I0403 19:03:12.144295 18563 net.cpp:91] Creating Layer inception_5a/pool_proj
I0403 19:03:12.144312 18563 net.cpp:425] inception_5a/pool_proj <- inception_5a/pool
I0403 19:03:12.144333 18563 net.cpp:399] inception_5a/pool_proj -> inception_5a/pool_proj
I0403 19:03:12.146617 18563 net.cpp:141] Setting up inception_5a/pool_proj
I0403 19:03:12.146647 18563 net.cpp:148] Top shape: 24 128 7 7 (150528)
I0403 19:03:12.146662 18563 net.cpp:156] Memory required for data: 1305071136
I0403 19:03:12.146680 18563 layer_factory.hpp:77] Creating layer inception_5a/relu_pool_proj
I0403 19:03:12.146700 18563 net.cpp:91] Creating Layer inception_5a/relu_pool_proj
I0403 19:03:12.146718 18563 net.cpp:425] inception_5a/relu_pool_proj <- inception_5a/pool_proj
I0403 19:03:12.146735 18563 net.cpp:386] inception_5a/relu_pool_proj -> inception_5a/pool_proj (in-place)
I0403 19:03:12.147034 18563 net.cpp:141] Setting up inception_5a/relu_pool_proj
I0403 19:03:12.147061 18563 net.cpp:148] Top shape: 24 128 7 7 (150528)
I0403 19:03:12.147076 18563 net.cpp:156] Memory required for data: 1305673248
I0403 19:03:12.147092 18563 layer_factory.hpp:77] Creating layer inception_5a/output
I0403 19:03:12.147109 18563 net.cpp:91] Creating Layer inception_5a/output
I0403 19:03:12.147125 18563 net.cpp:425] inception_5a/output <- inception_5a/1x1
I0403 19:03:12.147141 18563 net.cpp:425] inception_5a/output <- inception_5a/3x3
I0403 19:03:12.147161 18563 net.cpp:425] inception_5a/output <- inception_5a/5x5
I0403 19:03:12.147177 18563 net.cpp:425] inception_5a/output <- inception_5a/pool_proj
I0403 19:03:12.147194 18563 net.cpp:399] inception_5a/output -> inception_5a/output
I0403 19:03:12.147243 18563 net.cpp:141] Setting up inception_5a/output
I0403 19:03:12.147269 18563 net.cpp:148] Top shape: 24 832 7 7 (978432)
I0403 19:03:12.147284 18563 net.cpp:156] Memory required for data: 1309586976
I0403 19:03:12.147300 18563 layer_factory.hpp:77] Creating layer inception_5a/output_inception_5a/output_0_split
I0403 19:03:12.147316 18563 net.cpp:91] Creating Layer inception_5a/output_inception_5a/output_0_split
I0403 19:03:12.147332 18563 net.cpp:425] inception_5a/output_inception_5a/output_0_split <- inception_5a/output
I0403 19:03:12.147353 18563 net.cpp:399] inception_5a/output_inception_5a/output_0_split -> inception_5a/output_inception_5a/output_0_split_0
I0403 19:03:12.147373 18563 net.cpp:399] inception_5a/output_inception_5a/output_0_split -> inception_5a/output_inception_5a/output_0_split_1
I0403 19:03:12.147393 18563 net.cpp:399] inception_5a/output_inception_5a/output_0_split -> inception_5a/output_inception_5a/output_0_split_2
I0403 19:03:12.147413 18563 net.cpp:399] inception_5a/output_inception_5a/output_0_split -> inception_5a/output_inception_5a/output_0_split_3
I0403 19:03:12.147522 18563 net.cpp:141] Setting up inception_5a/output_inception_5a/output_0_split
I0403 19:03:12.147548 18563 net.cpp:148] Top shape: 24 832 7 7 (978432)
I0403 19:03:12.147565 18563 net.cpp:148] Top shape: 24 832 7 7 (978432)
I0403 19:03:12.147580 18563 net.cpp:148] Top shape: 24 832 7 7 (978432)
I0403 19:03:12.147595 18563 net.cpp:148] Top shape: 24 832 7 7 (978432)
I0403 19:03:12.147609 18563 net.cpp:156] Memory required for data: 1325241888
I0403 19:03:12.147624 18563 layer_factory.hpp:77] Creating layer inception_5b/1x1
I0403 19:03:12.147644 18563 net.cpp:91] Creating Layer inception_5b/1x1
I0403 19:03:12.147660 18563 net.cpp:425] inception_5b/1x1 <- inception_5a/output_inception_5a/output_0_split_0
I0403 19:03:12.147681 18563 net.cpp:399] inception_5b/1x1 -> inception_5b/1x1
I0403 19:03:12.151465 18563 net.cpp:141] Setting up inception_5b/1x1
I0403 19:03:12.151494 18563 net.cpp:148] Top shape: 24 384 7 7 (451584)
I0403 19:03:12.151510 18563 net.cpp:156] Memory required for data: 1327048224
I0403 19:03:12.151528 18563 layer_factory.hpp:77] Creating layer inception_5b/relu_1x1
I0403 19:03:12.151546 18563 net.cpp:91] Creating Layer inception_5b/relu_1x1
I0403 19:03:12.151563 18563 net.cpp:425] inception_5b/relu_1x1 <- inception_5b/1x1
I0403 19:03:12.151582 18563 net.cpp:386] inception_5b/relu_1x1 -> inception_5b/1x1 (in-place)
I0403 19:03:12.151892 18563 net.cpp:141] Setting up inception_5b/relu_1x1
I0403 19:03:12.151918 18563 net.cpp:148] Top shape: 24 384 7 7 (451584)
I0403 19:03:12.151933 18563 net.cpp:156] Memory required for data: 1328854560
I0403 19:03:12.151948 18563 layer_factory.hpp:77] Creating layer inception_5b/3x3_reduce
I0403 19:03:12.151970 18563 net.cpp:91] Creating Layer inception_5b/3x3_reduce
I0403 19:03:12.151993 18563 net.cpp:425] inception_5b/3x3_reduce <- inception_5a/output_inception_5a/output_0_split_1
I0403 19:03:12.152016 18563 net.cpp:399] inception_5b/3x3_reduce -> inception_5b/3x3_reduce
I0403 19:03:12.154691 18563 net.cpp:141] Setting up inception_5b/3x3_reduce
I0403 19:03:12.154721 18563 net.cpp:148] Top shape: 24 192 7 7 (225792)
I0403 19:03:12.154737 18563 net.cpp:156] Memory required for data: 1329757728
I0403 19:03:12.154757 18563 layer_factory.hpp:77] Creating layer inception_5b/relu_3x3_reduce
I0403 19:03:12.154777 18563 net.cpp:91] Creating Layer inception_5b/relu_3x3_reduce
I0403 19:03:12.154793 18563 net.cpp:425] inception_5b/relu_3x3_reduce <- inception_5b/3x3_reduce
I0403 19:03:12.154811 18563 net.cpp:386] inception_5b/relu_3x3_reduce -> inception_5b/3x3_reduce (in-place)
I0403 19:03:12.155005 18563 net.cpp:141] Setting up inception_5b/relu_3x3_reduce
I0403 19:03:12.155030 18563 net.cpp:148] Top shape: 24 192 7 7 (225792)
I0403 19:03:12.155045 18563 net.cpp:156] Memory required for data: 1330660896
I0403 19:03:12.155061 18563 layer_factory.hpp:77] Creating layer inception_5b/3x3
I0403 19:03:12.155082 18563 net.cpp:91] Creating Layer inception_5b/3x3
I0403 19:03:12.155102 18563 net.cpp:425] inception_5b/3x3 <- inception_5b/3x3_reduce
I0403 19:03:12.155120 18563 net.cpp:399] inception_5b/3x3 -> inception_5b/3x3
I0403 19:03:12.161833 18563 net.cpp:141] Setting up inception_5b/3x3
I0403 19:03:12.161862 18563 net.cpp:148] Top shape: 24 384 7 7 (451584)
I0403 19:03:12.161877 18563 net.cpp:156] Memory required for data: 1332467232
I0403 19:03:12.161897 18563 layer_factory.hpp:77] Creating layer inception_5b/relu_3x3
I0403 19:03:12.161917 18563 net.cpp:91] Creating Layer inception_5b/relu_3x3
I0403 19:03:12.161934 18563 net.cpp:425] inception_5b/relu_3x3 <- inception_5b/3x3
I0403 19:03:12.161952 18563 net.cpp:386] inception_5b/relu_3x3 -> inception_5b/3x3 (in-place)
I0403 19:03:12.162255 18563 net.cpp:141] Setting up inception_5b/relu_3x3
I0403 19:03:12.162281 18563 net.cpp:148] Top shape: 24 384 7 7 (451584)
I0403 19:03:12.162295 18563 net.cpp:156] Memory required for data: 1334273568
I0403 19:03:12.162310 18563 layer_factory.hpp:77] Creating layer inception_5b/5x5_reduce
I0403 19:03:12.162348 18563 net.cpp:91] Creating Layer inception_5b/5x5_reduce
I0403 19:03:12.162366 18563 net.cpp:425] inception_5b/5x5_reduce <- inception_5a/output_inception_5a/output_0_split_2
I0403 19:03:12.162389 18563 net.cpp:399] inception_5b/5x5_reduce -> inception_5b/5x5_reduce
I0403 19:03:12.163666 18563 net.cpp:141] Setting up inception_5b/5x5_reduce
I0403 19:03:12.163694 18563 net.cpp:148] Top shape: 24 48 7 7 (56448)
I0403 19:03:12.163710 18563 net.cpp:156] Memory required for data: 1334499360
I0403 19:03:12.163728 18563 layer_factory.hpp:77] Creating layer inception_5b/relu_5x5_reduce
I0403 19:03:12.163748 18563 net.cpp:91] Creating Layer inception_5b/relu_5x5_reduce
I0403 19:03:12.163765 18563 net.cpp:425] inception_5b/relu_5x5_reduce <- inception_5b/5x5_reduce
I0403 19:03:12.163784 18563 net.cpp:386] inception_5b/relu_5x5_reduce -> inception_5b/5x5_reduce (in-place)
I0403 19:03:12.164193 18563 net.cpp:141] Setting up inception_5b/relu_5x5_reduce
I0403 19:03:12.164219 18563 net.cpp:148] Top shape: 24 48 7 7 (56448)
I0403 19:03:12.164234 18563 net.cpp:156] Memory required for data: 1334725152
I0403 19:03:12.164249 18563 layer_factory.hpp:77] Creating layer inception_5b/5x5
I0403 19:03:12.164270 18563 net.cpp:91] Creating Layer inception_5b/5x5
I0403 19:03:12.164288 18563 net.cpp:425] inception_5b/5x5 <- inception_5b/5x5_reduce
I0403 19:03:12.164306 18563 net.cpp:399] inception_5b/5x5 -> inception_5b/5x5
I0403 19:03:12.166389 18563 net.cpp:141] Setting up inception_5b/5x5
I0403 19:03:12.166419 18563 net.cpp:148] Top shape: 24 128 7 7 (150528)
I0403 19:03:12.166435 18563 net.cpp:156] Memory required for data: 1335327264
I0403 19:03:12.166453 18563 layer_factory.hpp:77] Creating layer inception_5b/relu_5x5
I0403 19:03:12.166486 18563 net.cpp:91] Creating Layer inception_5b/relu_5x5
I0403 19:03:12.166503 18563 net.cpp:425] inception_5b/relu_5x5 <- inception_5b/5x5
I0403 19:03:12.166520 18563 net.cpp:386] inception_5b/relu_5x5 -> inception_5b/5x5 (in-place)
I0403 19:03:12.166715 18563 net.cpp:141] Setting up inception_5b/relu_5x5
I0403 19:03:12.166743 18563 net.cpp:148] Top shape: 24 128 7 7 (150528)
I0403 19:03:12.166757 18563 net.cpp:156] Memory required for data: 1335929376
I0403 19:03:12.166772 18563 layer_factory.hpp:77] Creating layer inception_5b/pool
I0403 19:03:12.166790 18563 net.cpp:91] Creating Layer inception_5b/pool
I0403 19:03:12.166806 18563 net.cpp:425] inception_5b/pool <- inception_5a/output_inception_5a/output_0_split_3
I0403 19:03:12.166827 18563 net.cpp:399] inception_5b/pool -> inception_5b/pool
I0403 19:03:12.166900 18563 net.cpp:141] Setting up inception_5b/pool
I0403 19:03:12.166923 18563 net.cpp:148] Top shape: 24 832 7 7 (978432)
I0403 19:03:12.166939 18563 net.cpp:156] Memory required for data: 1339843104
I0403 19:03:12.166954 18563 layer_factory.hpp:77] Creating layer inception_5b/pool_proj
I0403 19:03:12.166976 18563 net.cpp:91] Creating Layer inception_5b/pool_proj
I0403 19:03:12.166998 18563 net.cpp:425] inception_5b/pool_proj <- inception_5b/pool
I0403 19:03:12.167019 18563 net.cpp:399] inception_5b/pool_proj -> inception_5b/pool_proj
I0403 19:03:12.169355 18563 net.cpp:141] Setting up inception_5b/pool_proj
I0403 19:03:12.169384 18563 net.cpp:148] Top shape: 24 128 7 7 (150528)
I0403 19:03:12.169401 18563 net.cpp:156] Memory required for data: 1340445216
I0403 19:03:12.169420 18563 layer_factory.hpp:77] Creating layer inception_5b/relu_pool_proj
I0403 19:03:12.169441 18563 net.cpp:91] Creating Layer inception_5b/relu_pool_proj
I0403 19:03:12.169457 18563 net.cpp:425] inception_5b/relu_pool_proj <- inception_5b/pool_proj
I0403 19:03:12.169476 18563 net.cpp:386] inception_5b/relu_pool_proj -> inception_5b/pool_proj (in-place)
I0403 19:03:12.169777 18563 net.cpp:141] Setting up inception_5b/relu_pool_proj
I0403 19:03:12.169805 18563 net.cpp:148] Top shape: 24 128 7 7 (150528)
I0403 19:03:12.169819 18563 net.cpp:156] Memory required for data: 1341047328
I0403 19:03:12.169834 18563 layer_factory.hpp:77] Creating layer inception_5b/output
I0403 19:03:12.169852 18563 net.cpp:91] Creating Layer inception_5b/output
I0403 19:03:12.169883 18563 net.cpp:425] inception_5b/output <- inception_5b/1x1
I0403 19:03:12.169900 18563 net.cpp:425] inception_5b/output <- inception_5b/3x3
I0403 19:03:12.169917 18563 net.cpp:425] inception_5b/output <- inception_5b/5x5
I0403 19:03:12.169934 18563 net.cpp:425] inception_5b/output <- inception_5b/pool_proj
I0403 19:03:12.169953 18563 net.cpp:399] inception_5b/output -> inception_5b/output
I0403 19:03:12.170011 18563 net.cpp:141] Setting up inception_5b/output
I0403 19:03:12.170035 18563 net.cpp:148] Top shape: 24 1024 7 7 (1204224)
I0403 19:03:12.170050 18563 net.cpp:156] Memory required for data: 1345864224
I0403 19:03:12.170064 18563 layer_factory.hpp:77] Creating layer pool5/7x7_s1
I0403 19:03:12.170083 18563 net.cpp:91] Creating Layer pool5/7x7_s1
I0403 19:03:12.170099 18563 net.cpp:425] pool5/7x7_s1 <- inception_5b/output
I0403 19:03:12.170120 18563 net.cpp:399] pool5/7x7_s1 -> pool5/7x7_s1
I0403 19:03:12.170337 18563 net.cpp:141] Setting up pool5/7x7_s1
I0403 19:03:12.170362 18563 net.cpp:148] Top shape: 24 1024 1 1 (24576)
I0403 19:03:12.170377 18563 net.cpp:156] Memory required for data: 1345962528
I0403 19:03:12.170392 18563 layer_factory.hpp:77] Creating layer pool5/drop_7x7_s1
I0403 19:03:12.170411 18563 net.cpp:91] Creating Layer pool5/drop_7x7_s1
I0403 19:03:12.170428 18563 net.cpp:425] pool5/drop_7x7_s1 <- pool5/7x7_s1
I0403 19:03:12.170446 18563 net.cpp:386] pool5/drop_7x7_s1 -> pool5/7x7_s1 (in-place)
I0403 19:03:12.170497 18563 net.cpp:141] Setting up pool5/drop_7x7_s1
I0403 19:03:12.170521 18563 net.cpp:148] Top shape: 24 1024 1 1 (24576)
I0403 19:03:12.170536 18563 net.cpp:156] Memory required for data: 1346060832
I0403 19:03:12.170550 18563 layer_factory.hpp:77] Creating layer loss3/classifier_plantvillage
I0403 19:03:12.170569 18563 net.cpp:91] Creating Layer loss3/classifier_plantvillage
I0403 19:03:12.170585 18563 net.cpp:425] loss3/classifier_plantvillage <- pool5/7x7_s1
I0403 19:03:12.170605 18563 net.cpp:399] loss3/classifier_plantvillage -> loss3/classifier_plantvillage
I0403 19:03:12.171042 18563 net.cpp:141] Setting up loss3/classifier_plantvillage
I0403 19:03:12.171067 18563 net.cpp:148] Top shape: 24 38 (912)
I0403 19:03:12.171082 18563 net.cpp:156] Memory required for data: 1346064480
I0403 19:03:12.171102 18563 layer_factory.hpp:77] Creating layer loss3/classifier_plantvillage_loss3/classifier_plantvillage_0_split
I0403 19:03:12.171119 18563 net.cpp:91] Creating Layer loss3/classifier_plantvillage_loss3/classifier_plantvillage_0_split
I0403 19:03:12.171135 18563 net.cpp:425] loss3/classifier_plantvillage_loss3/classifier_plantvillage_0_split <- loss3/classifier_plantvillage
I0403 19:03:12.171156 18563 net.cpp:399] loss3/classifier_plantvillage_loss3/classifier_plantvillage_0_split -> loss3/classifier_plantvillage_loss3/classifier_plantvillage_0_split_0
I0403 19:03:12.171176 18563 net.cpp:399] loss3/classifier_plantvillage_loss3/classifier_plantvillage_0_split -> loss3/classifier_plantvillage_loss3/classifier_plantvillage_0_split_1
I0403 19:03:12.171197 18563 net.cpp:399] loss3/classifier_plantvillage_loss3/classifier_plantvillage_0_split -> loss3/classifier_plantvillage_loss3/classifier_plantvillage_0_split_2
I0403 19:03:12.171217 18563 net.cpp:399] loss3/classifier_plantvillage_loss3/classifier_plantvillage_0_split -> loss3/classifier_plantvillage_loss3/classifier_plantvillage_0_split_3
I0403 19:03:12.171322 18563 net.cpp:141] Setting up loss3/classifier_plantvillage_loss3/classifier_plantvillage_0_split
I0403 19:03:12.171346 18563 net.cpp:148] Top shape: 24 38 (912)
I0403 19:03:12.171362 18563 net.cpp:148] Top shape: 24 38 (912)
I0403 19:03:12.171378 18563 net.cpp:148] Top shape: 24 38 (912)
I0403 19:03:12.171393 18563 net.cpp:148] Top shape: 24 38 (912)
I0403 19:03:12.171408 18563 net.cpp:156] Memory required for data: 1346079072
I0403 19:03:12.171422 18563 layer_factory.hpp:77] Creating layer loss1/loss
I0403 19:03:12.171444 18563 net.cpp:91] Creating Layer loss1/loss
I0403 19:03:12.171461 18563 net.cpp:425] loss1/loss <- loss1/classifier_plantvillage_loss1/classifier_plantvillage_0_split_0
I0403 19:03:12.171492 18563 net.cpp:425] loss1/loss <- label_data_1_split_0
…
