…
I0403 18:46:25.001881 17647 net.cpp:313] The NetState phase (1) differed from the phase (0) specified by a rule in layer data
I0403 18:46:25.003054 17647 net.cpp:49] Initializing net from parameters: 
state {
  phase: TEST
}
layer {
  name: "data"
  type: "Data"
  top: "data"
  top: "label"
  include {
    phase: TEST
  }
  transform_param {
    mirror: false
    crop_size: 224
    mean_file: "/home/mohanty/data/final_dataset/lmdb/segmented-60-40/mean.binaryproto"
  }
  data_param {
    source: "/home/mohanty/data/final_dataset/lmdb/segmented-60-40/test_db"
    batch_size: 24
    backend: LMDB
  }
}
layer {
  name: "conv1/7x7_s2"
  type: "Convolution"
  bottom: "data"
  top: "conv1/7x7_s2"
  param {
    lr_mult: 1
    decay_mult: 1
  }
  param {
    lr_mult: 2
    decay_mult: 0
  }
  convolution_param {
    num_output: 64
    pad: 3
    kernel_size: 7
    stride: 2
    weight_filler {
      type: "xavier"
      std: 0.1
    }
    bias_filler {
      type: "constant"
      value: 0.2
    }
  }
}
layer {
  name: "conv1/relu_7x7"
  type: "ReLU"
  bottom: "conv1/7x7_s2"
  top: "conv1/7x7_s2"
}
layer {
  name: "pool1/3x3_s2"
  type: "Pooling"
  bottom: "conv1/7x7_s2"
  top: "pool1/3x3_s2"
  pooling_param {
    pool: MAX
    kernel_size: 3
    stride: 2
  }
}
layer {
  name: "pool1/norm1"
  type: "LRN"
  bottom: "pool1/3x3_s2"
  top: "pool1/norm1"
  lrn_param {
    local_size: 5
    alpha: 0.0001
    beta: 0.75
  }
}
layer {
  name: "conv2/3x3_reduce"
  type: "Convolution"
  bottom: "pool1/norm1"
  top: "conv2/3x3_reduce"
  param {
    lr_mult: 1
    decay_mult: 1
  }
  param {
    lr_mult: 2
    decay_mult: 0
  }
  convolution_param {
    num_output: 64
    kernel_size: 1
    weight_filler {
      type: "xavier"
      std: 0.1
    }
    bias_filler {
      type: "constant"
      value: 0.2
    }
  }
}
layer {
  name: "conv2/relu_3x3_reduce"
  type: "ReLU"
  bottom: "conv2/3x3_reduce"
  top: "conv2/3x3_reduce"
}
layer {
  name: "conv2/3x3"
  type: "Convolution"
  bottom: "conv2/3x3_reduce"
  top: "conv2/3x3"
  param {
    lr_mult: 1
    decay_mult: 1
  }
  param {
    lr_mult: 2
    decay_mult: 0
  }
  convolution_param {
    num_output: 192
    pad: 1
    kernel_size: 3
    weight_filler {
      type: "xavier"
      std: 0.03
    }
    bias_filler {
      type: "constant"
      value: 0.2
    }
  }
}
layer {
  name: "conv2/relu_3x3"
  type: "ReLU"
  bottom: "conv2/3x3"
  top: "conv2/3x3"
}
layer {
  name: "conv2/norm2"
  type: "LRN"
  bottom: "conv2/3x3"
  top: "conv2/norm2"
  lrn_param {
    local_size: 5
    alpha: 0.0001
    beta: 0.75
  }
}
layer {
  name: "pool2/3x3_s2"
  type: "Pooling"
  bottom: "conv2/norm2"
  top: "pool2/3x3_s2"
  pooling_param {
    pool: MAX
    kernel_size: 3
    stride: 2
  }
}
layer {
  name: "inception_3a/1x1"
  type: "Convolution"
  bottom: "pool2/3x3_s2"
  top: "inception_3a/1x1"
  param {
    lr_mult: 1
    decay_mult: 1
  }
  param {
    lr_mult: 2
    decay_mult: 0
  }
  convolution_param {
    num_output: 64
    kernel_size: 1
    weight_filler {
      type: "xavier"
      std: 0.03
    }
    bias_filler {
      type: "constant"
      value: 0.2
    }
  }
}
layer {
  name: "inception_3a/relu_1x1"
  type: "ReLU"
  bottom: "inception_3a/1x1"
  top: "inception_3a/1x1"
}
layer {
  name: "inception_3a/3x3_reduce"
  type: "Convolution"
  bottom: "pool2/3x3_s2"
  top: "inception_3a/3x3_reduce"
  param {
    lr_mult: 1
    decay_mult: 1
  }
  param {
    lr_mult: 2
    decay_mult: 0
  }
  convolution_param {
    num_output: 96
    kernel_size: 1
    weight_filler {
      type: "xavier"
      std: 0.09
    }
    bias_filler {
      type: "constant"
      value: 0.2
    }
  }
}
layer {
  name: "inception_3a/relu_3x3_reduce"
  type: "ReLU"
  bottom: "inception_3a/3x3_reduce"
  top: "inception_3a/3x3_reduce"
}
layer {
  name: "inception_3a/3x3"
  type: "Convolution"
  bottom: "inception_3a/3x3_reduce"
  top: "inception_3a/3x3"
  param {
    lr_mult: 1
    decay_mult: 1
  }
  param {
    lr_mult: 2
    decay_mult: 0
  }
  convolution_param {
    num_output: 128
    pad: 1
    kernel_size: 3
    weight_filler {
      type: "xavier"
      std: 0.03
    }
    bias_filler {
      type: "constant"
      value: 0.2
    }
  }
}
layer {
  name: "inception_3a/relu_3x3"
  type: "ReLU"
  bottom: "inception_3a/3x3"
  top: "inception_3a/3x3"
}
layer {
  name: "inception_3a/5x5_reduce"
  type: "Convolution"
  bottom: "pool2/3x3_s2"
  top: "inception_3a/5x5_reduce"
  param {
    lr_mult: 1
    decay_mult: 1
  }
  param {
    lr_mult: 2
    decay_mult: 0
  }
  convolution_param {
    num_output: 16
    kernel_size: 1
    weight_filler {
      type: "xavier"
      std: 0.2
    }
    bias_filler {
      type: "constant"
      value: 0.2
    }
  }
}
layer {
  name: "inception_3a/relu_5x5_reduce"
  type: "ReLU"
  bottom: "inception_3a/5x5_reduce"
  top: "inception_3a/5x5_reduce"
}
layer {
  name: "inception_3a/5x5"
  type: "Convolution"
  bottom: "inception_3a/5x5_reduce"
  top: "inception_3a/5x5"
  param {
    lr_mult: 1
    decay_mult: 1
  }
  param {
    lr_mult: 2
    decay_mult: 0
  }
  convolution_param {
    num_output: 32
    pad: 2
    kernel_size: 5
    weight_filler {
      type: "xavier"
      std: 0.03
    }
    bias_filler {
      type: "constant"
      value: 0.2
    }
  }
}
layer {
  name: "inception_3a/relu_5x5"
  type: "ReLU"
  bottom: "inception_3a/5x5"
  top: "inception_3a/5x5"
}
layer {
  name: "inception_3a/pool"
  type: "Pooling"
  bottom: "pool2/3x3_s2"
  top: "inception_3a/pool"
  pooling_param {
    pool: MAX
    kernel_size: 3
    stride: 1
    pad: 1
  }
}
layer {
  name: "inception_3a/pool_proj"
  type: "Convolution"
  bottom: "inception_3a/pool"
  top: "inception_3a/pool_proj"
  param {
    lr_mult: 1
    decay_mult: 1
  }
  param {
    lr_mult: 2
    decay_mult: 0
  }
  convolution_param {
    num_output: 32
    kernel_size: 1
    weight_filler {
      type: "xavier"
      std: 0.1
    }
    bias_filler {
      type: "constant"
      value: 0.2
    }
  }
}
layer {
  name: "inception_3a/relu_pool_proj"
  type: "ReLU"
  bottom: "inception_3a/pool_proj"
  top: "inception_3a/pool_proj"
}
layer {
  name: "inception_3a/output"
  type: "Concat"
  bottom: "inception_3a/1x1"
  bottom: "inception_3a/3x3"
  bottom: "inception_3a/5x5"
  bottom: "inception_3a/pool_proj"
  top: "inception_3a/output"
}
layer {
  name: "inception_3b/1x1"
  type: "Convolution"
  bottom: "inception_3a/output"
  top: "inception_3b/1x1"
  param {
    lr_mult: 1
    decay_mult: 1
  }
  param {
    lr_mult: 2
    decay_mult: 0
  }
  convolution_param {
    num_output: 128
    kernel_size: 1
    weight_filler {
      type: "xavier"
      std: 0.03
    }
    bias_filler {
      type: "constant"
      value: 0.2
    }
  }
}
layer {
  name: "inception_3b/relu_1x1"
  type: "ReLU"
  bottom: "inception_3b/1x1"
  top: "inception_3b/1x1"
}
layer {
  name: "inception_3b/3x3_reduce"
  type: "Convolution"
  bottom: "inception_3a/output"
  top: "inception_3b/3x3_reduce"
  param {
    lr_mult: 1
    decay_mult: 1
  }
  param {
    lr_mult: 2
    decay_mult: 0
  }
  convolution_param {
    num_output: 128
    kernel_size: 1
    weight_filler {
      type: "xavier"
      std: 0.09
    }
    bias_filler {
      type: "constant"
      value: 0.2
    }
  }
}
layer {
  name: "inception_3b/relu_3x3_reduce"
  type: "ReLU"
  bottom: "inception_3b/3x3_reduce"
  top: "inception_3b/3x3_reduce"
}
layer {
  name: "inception_3b/3x3"
  type: "Convolution"
  bottom: "inception_3b/3x3_reduce"
  top: "inception_3b/3x3"
  param {
    lr_mult: 1
    decay_mult: 1
  }
  param {
    lr_mult: 2
    decay_mult: 0
  }
  convolution_param {
    num_output: 192
    pad: 1
    kernel_size: 3
    weight_filler {
      type: "xavier"
      std: 0.03
    }
    bias_filler {
      type: "constant"
      value: 0.2
    }
  }
}
layer {
  name: "inception_3b/relu_3x3"
  type: "ReLU"
  bottom: "inception_3b/3x3"
  top: "inception_3b/3x3"
}
layer {
  name: "inception_3b/5x5_reduce"
  type: "Convolution"
  bottom: "inception_3a/output"
  top: "inception_3b/5x5_reduce"
  param {
    lr_mult: 1
    decay_mult: 1
  }
  param {
    lr_mult: 2
    decay_mult: 0
  }
  convolution_param {
    num_output: 32
    kernel_size: 1
    weight_filler {
      type: "xavier"
      std: 0.2
    }
    bias_filler {
      type: "constant"
      value: 0.2
    }
  }
}
layer {
  name: "inception_3b/relu_5x5_reduce"
  type: "ReLU"
  bottom: "inception_3b/5x5_reduce"
  top: "inception_3b/5x5_reduce"
}
layer {
  name: "inception_3b/5x5"
  type: "Convolution"
  bottom: "inception_3b/5x5_reduce"
  top: "inception_3b/5x5"
  param {
    lr_mult: 1
    decay_mult: 1
  }
  param {
    lr_mult: 2
    decay_mult: 0
  }
  convolution_param {
    num_output: 96
    pad: 2
    kernel_size: 5
    weight_filler {
      type: "xavier"
      std: 0.03
    }
    bias_filler {
      type: "constant"
      value: 0.2
    }
  }
}
layer {
  name: "inception_3b/relu_5x5"
  type: "ReLU"
  bottom: "inception_3b/5x5"
  top: "inception_3b/5x5"
}
layer {
  name: "inception_3b/pool"
  type: "Pooling"
  bottom: "inception_3a/output"
  top: "inception_3b/pool"
  pooling_param {
    pool: MAX
    kernel_size: 3
    stride: 1
    pad: 1
  }
}
layer {
  name: "inception_3b/pool_proj"
  type: "Convolution"
  bottom: "inception_3b/pool"
  top: "inception_3b/pool_proj"
  param {
    lr_mult: 1
    decay_mult: 1
  }
  param {
    lr_mult: 2
    decay_mult: 0
  }
  convolution_param {
    num_output: 64
    kernel_size: 1
    weight_filler {
      type: "xavier"
      std: 0.1
    }
    bias_filler {
      type: "constant"
      value: 0.2
    }
  }
}
layer {
  name: "inception_3b/relu_pool_proj"
  type: "ReLU"
  bottom: "inception_3b/pool_proj"
  top: "inception_3b/pool_proj"
}
layer {
  name: "inception_3b/output"
  type: "Concat"
  bottom: "inception_3b/1x1"
  bottom: "inception_3b/3x3"
  bottom: "inception_3b/5x5"
  bottom: "inception_3b/pool_proj"
  top: "inception_3b/output"
}
layer {
  name: "pool3/3x3_s2"
  type: "Pooling"
  bottom: "inception_3b/output"
  top: "pool3/3x3_s2"
  pooling_param {
    pool: MAX
    kernel_size: 3
    stride: 2
  }
}
layer {
  name: "inception_4a/1x1"
  type: "Convolution"
  bottom: "pool3/3x3_s2"
  top: "inception_4a/1x1"
  param {
    lr_mult: 1
    decay_mult: 1
  }
  param {
    lr_mult: 2
    decay_mult: 0
  }
  convolution_param {
    num_output: 192
    kernel_size: 1
    weight_filler {
      type: "xavier"
      std: 0.03
    }
    bias_filler {
      type: "constant"
      value: 0.2
    }
  }
}
layer {
  name: "inception_4a/relu_1x1"
  type: "ReLU"
  bottom: "inception_4a/1x1"
  top: "inception_4a/1x1"
}
layer {
  name: "inception_4a/3x3_reduce"
  type: "Convolution"
  bottom: "pool3/3x3_s2"
  top: "inception_4a/3x3_reduce"
  param {
    lr_mult: 1
    decay_mult: 1
  }
  param {
    lr_mult: 2
    decay_mult: 0
  }
  convolution_param {
    num_output: 96
    kernel_size: 1
    weight_filler {
      type: "xavier"
      std: 0.09
    }
    bias_filler {
      type: "constant"
      value: 0.2
    }
  }
}
layer {
  name: "inception_4a/relu_3x3_reduce"
  type: "ReLU"
  bottom: "inception_4a/3x3_reduce"
  top: "inception_4a/3x3_reduce"
}
layer {
  name: "inception_4a/3x3"
  type: "Convolution"
  bottom: "inception_4a/3x3_reduce"
  top: "inception_4a/3x3"
  param {
    lr_mult: 1
    decay_mult: 1
  }
  param {
    lr_mult: 2
    decay_mult: 0
  }
  convolution_param {
    num_output: 208
    pad: 1
    kernel_size: 3
    weight_filler {
      type: "xavier"
      std: 0.03
    }
    bias_filler {
      type: "constant"
      value: 0.2
    }
  }
}
layer {
  name: "inception_4a/relu_3x3"
  type: "ReLU"
  bottom: "inception_4a/3x3"
  top: "inception_4a/3x3"
}
layer {
  name: "inception_4a/5x5_reduce"
  type: "Convolution"
  bottom: "pool3/3x3_s2"
  top: "inception_4a/5x5_reduce"
  param {
    lr_mult: 1
    decay_mult: 1
  }
  param {
    lr_mult: 2
    decay_mult: 0
  }
  convolution_param {
    num_output: 16
    kernel_size: 1
    weight_filler {
      type: "xavier"
      std: 0.2
    }
    bias_filler {
      type: "constant"
      value: 0.2
    }
  }
}
layer {
  name: "inception_4a/relu_5x5_reduce"
  type: "ReLU"
  bottom: "inception_4a/5x5_reduce"
  top: "inception_4a/5x5_reduce"
}
layer {
  name: "inception_4a/5x5"
  type: "Convolution"
  bottom: "inception_4a/5x5_reduce"
  top: "inception_4a/5x5"
  param {
    lr_mult: 1
    decay_mult: 1
  }
  param {
    lr_mult: 2
    decay_mult: 0
  }
  convolution_param {
    num_output: 48
    pad: 2
    kernel_size: 5
    weight_filler {
      type: "xavier"
      std: 0.03
    }
    bias_filler {
      type: "constant"
      value: 0.2
    }
  }
}
layer {
  name: "inception_4a/relu_5x5"
  type: "ReLU"
  bottom: "inception_4a/5x5"
  top: "inception_4a/5x5"
}
layer {
  name: "inception_4a/pool"
  type: "Pooling"
  bottom: "pool3/3x3_s2"
  top: "inception_4a/pool"
  pooling_param {
    pool: MAX
    kernel_size: 3
    stride: 1
    pad: 1
  }
}
layer {
  name: "inception_4a/pool_proj"
  type: "Convolution"
  bottom: "inception_4a/pool"
  top: "inception_4a/pool_proj"
  param {
    lr_mult: 1
    decay_mult: 1
  }
  param {
    lr_mult: 2
    decay_mult: 0
  }
  convolution_param {
    num_output: 64
    kernel_size: 1
    weight_filler {
      type: "xavier"
      std: 0.1
    }
    bias_filler {
      type: "constant"
      value: 0.2
    }
  }
}
layer {
  name: "inception_4a/relu_pool_proj"
  type: "ReLU"
  bottom: "inception_4a/pool_proj"
  top: "inception_4a/pool_proj"
}
layer {
  name: "inception_4a/output"
  type: "Concat"
  bottom: "inception_4a/1x1"
  bottom: "inception_4a/3x3"
  bottom: "inception_4a/5x5"
  bottom: "inception_4a/pool_proj"
  top: "inception_4a/output"
}
layer {
  name: "loss1/ave_pool"
  type: "Pooling"
  bottom: "inception_4a/output"
  top: "loss1/ave_pool"
  pooling_param {
    pool: AVE
    kernel_size: 5
    stride: 3
  }
}
layer {
  name: "loss1/conv"
  type: "Convolution"
  bottom: "loss1/ave_pool"
  top: "loss1/conv"
  param {
    lr_mult: 1
    decay_mult: 1
  }
  param {
    lr_mult: 2
    decay_mult: 0
  }
  convolution_param {
    num_output: 128
    kernel_size: 1
    weight_filler {
      type: "xavier"
      std: 0.08
    }
    bias_filler {
      type: "constant"
      value: 0.2
    }
  }
}
layer {
  name: "loss1/relu_conv"
  type: "ReLU"
  bottom: "loss1/conv"
  top: "loss1/conv"
}
layer {
  name: "loss1/fc"
  type: "InnerProduct"
  bottom: "loss1/conv"
  top: "loss1/fc"
  param {
    lr_mult: 1
    decay_mult: 1
  }
  param {
    lr_mult: 2
    decay_mult: 0
  }
  inner_product_param {
    num_output: 1024
    weight_filler {
      type: "xavier"
      std: 0.02
    }
    bias_filler {
      type: "constant"
      value: 0.2
    }
  }
}
layer {
  name: "loss1/relu_fc"
  type: "ReLU"
  bottom: "loss1/fc"
  top: "loss1/fc"
}
layer {
  name: "loss1/drop_fc"
  type: "Dropout"
  bottom: "loss1/fc"
  top: "loss1/fc"
  dropout_param {
    dropout_ratio: 0.7
  }
}
layer {
  name: "loss1/classifier_plantvillage"
  type: "InnerProduct"
  bottom: "loss1/fc"
  top: "loss1/classifier_plantvillage"
  param {
    lr_mult: 1
    decay_mult: 1
  }
  param {
    lr_mult: 2
    decay_mult: 0
  }
  inner_product_param {
    num_output: 38
    weight_filler {
      type: "xavier"
      std: 0.0009765625
    }
    bias_filler {
      type: "constant"
      value: 0
    }
  }
}
layer {
  name: "inception_4b/1x1"
  type: "Convolution"
  bottom: "inception_4a/output"
  top: "inception_4b/1x1"
  param {
    lr_mult: 1
    decay_mult: 1
  }
  param {
    lr_mult: 2
    decay_mult: 0
  }
  convolution_param {
    num_output: 160
    kernel_size: 1
    weight_filler {
      type: "xavier"
      std: 0.03
    }
    bias_filler {
      type: "constant"
      value: 0.2
    }
  }
}
layer {
  name: "inception_4b/relu_1x1"
  type: "ReLU"
  bottom: "inception_4b/1x1"
  top: "inception_4b/1x1"
}
layer {
  name: "inception_4b/3x3_reduce"
  type: "Convolution"
  bottom: "inception_4a/output"
  top: "inception_4b/3x3_reduce"
  param {
    lr_mult: 1
    decay_mult: 1
  }
  param {
    lr_mult: 2
    decay_mult: 0
  }
  convolution_param {
    num_output: 112
    kernel_size: 1
    weight_filler {
      type: "xavier"
      std: 0.09
    }
    bias_filler {
      type: "constant"
      value: 0.2
    }
  }
}
layer {
  name: "inception_4b/relu_3x3_reduce"
  type: "ReLU"
  bottom: "inception_4b/3x3_reduce"
  top: "inception_4b/3x3_reduce"
}
layer {
  name: "inception_4b/3x3"
  type: "Convolution"
  bottom: "inception_4b/3x3_reduce"
  top: "inception_4b/3x3"
  param {
    lr_mult: 1
    decay_mult: 1
  }
  param {
    lr_mult: 2
    decay_mult: 0
  }
  convolution_param {
    num_output: 224
    pad: 1
    kernel_size: 3
    weight_filler {
      type: "xavier"
      std: 0.03
    }
    bias_filler {
      type: "constant"
      value: 0.2
    }
  }
}
layer {
  name: "inception_4b/relu_3x3"
  type: "ReLU"
  bottom: "inception_4b/3x3"
  top: "inception_4b/3x3"
}
layer {
  name: "inception_4b/5x5_reduce"
  type: "Convolution"
  bottom: "inception_4a/output"
  top: "inception_4b/5x5_reduce"
  param {
    lr_mult: 1
    decay_mult: 1
  }
  param {
    lr_mult: 2
    decay_mult: 0
  }
  convolution_param {
    num_output: 24
    kernel_size: 1
    weight_filler {
      type: "xavier"
      std: 0.2
    }
    bias_filler {
      type: "constant"
      value: 0.2
    }
  }
}
layer {
  name: "inception_4b/relu_5x5_reduce"
  type: "ReLU"
  bottom: "inception_4b/5x5_reduce"
  top: "inception_4b/5x5_reduce"
}
layer {
  name: "inception_4b/5x5"
  type: "Convolution"
  bottom: "inception_4b/5x5_reduce"
  top: "inception_4b/5x5"
  param {
    lr_mult: 1
    decay_mult: 1
  }
  param {
    lr_mult: 2
    decay_mult: 0
  }
  convolution_param {
    num_output: 64
    pad: 2
    kernel_size: 5
    weight_filler {
      type: "xavier"
      std: 0.03
    }
    bias_filler {
      type: "constant"
      value: 0.2
    }
  }
}
layer {
  name: "inception_4b/relu_5x5"
  type: "ReLU"
  bottom: "inception_4b/5x5"
  top: "inception_4b/5x5"
}
layer {
  name: "inception_4b/pool"
  type: "Pooling"
  bottom: "inception_4a/output"
  top: "inception_4b/pool"
  pooling_param {
    pool: MAX
    kernel_size: 3
    stride: 1
    pad: 1
  }
}
layer {
  name: "inception_4b/pool_proj"
  type: "Convolution"
  bottom: "inception_4b/pool"
  top: "inception_4b/pool_proj"
  param {
    lr_mult: 1
    decay_mult: 1
  }
  param {
    lr_mult: 2
    decay_mult: 0
  }
  convolution_param {
    num_output: 64
    kernel_size: 1
    weight_filler {
      type: "xavier"
      std: 0.1
    }
    bias_filler {
      type: "constant"
      value: 0.2
    }
  }
}
layer {
  name: "inception_4b/relu_pool_proj"
  type: "ReLU"
  bottom: "inception_4b/pool_proj"
  top: "inception_4b/pool_proj"
}
layer {
  name: "inception_4b/output"
  type: "Concat"
  bottom: "inception_4b/1x1"
  bottom: "inception_4b/3x3"
  bottom: "inception_4b/5x5"
  bottom: "inception_4b/pool_proj"
  top: "inception_4b/output"
}
layer {
  name: "inception_4c/1x1"
  type: "Convolution"
  bottom: "inception_4b/output"
  top: "inception_4c/1x1"
  param {
    lr_mult: 1
    decay_mult: 1
  }
  param {
    lr_mult: 2
    decay_mult: 0
  }
  convolution_param {
    num_output: 128
    kernel_size: 1
    weight_filler {
      type: "xavier"
      std: 0.03
    }
    bias_filler {
      type: "constant"
      value: 0.2
    }
  }
}
layer {
  name: "inception_4c/relu_1x1"
  type: "ReLU"
  bottom: "inception_4c/1x1"
  top: "inception_4c/1x1"
}
layer {
  name: "inception_4c/3x3_reduce"
  type: "Convolution"
  bottom: "inception_4b/output"
  top: "inception_4c/3x3_reduce"
  param {
    lr_mult: 1
    decay_mult: 1
  }
  param {
    lr_mult: 2
    decay_mult: 0
  }
  convolution_param {
    num_output: 128
    kernel_size: 1
    weight_filler {
      type: "xavier"
      std: 0.09
    }
    bias_filler {
      type: "constant"
      value: 0.2
    }
  }
}
layer {
  name: "inception_4c/relu_3x3_reduce"
  type: "ReLU"
  bottom: "inception_4c/3x3_reduce"
  top: "inception_4c/3x3_reduce"
}
layer {
  name: "inception_4c/3x3"
  type: "Convolution"
  bottom: "inception_4c/3x3_reduce"
  top: "inception_4c/3x3"
  param {
    lr_mult: 1
    decay_mult: 1
  }
  param {
    lr_mult: 2
    decay_mult: 0
  }
  convolution_param {
    num_output: 256
    pad: 1
    kernel_size: 3
    weight_filler {
      type: "xavier"
      std: 0.03
    }
    bias_filler {
      type: "constant"
      value: 0.2
    }
  }
}
layer {
  name: "inception_4c/relu_3x3"
  type: "ReLU"
  bottom: "inception_4c/3x3"
  top: "inception_4c/3x3"
}
layer {
  name: "inception_4c/5x5_reduce"
  type: "Convolution"
  bottom: "inception_4b/output"
  top: "inception_4c/5x5_reduce"
  param {
    lr_mult: 1
    decay_mult: 1
  }
  param {
    lr_mult: 2
    decay_mult: 0
  }
  convolution_param {
    num_output: 24
    kernel_size: 1
    weight_filler {
      type: "xavier"
      std: 0.2
    }
    bias_filler {
      type: "constant"
      value: 0.2
    }
  }
}
layer {
  name: "inception_4c/relu_5x5_reduce"
  type: "ReLU"
  bottom: "inception_4c/5x5_reduce"
  top: "inception_4c/5x5_reduce"
}
layer {
  name: "inception_4c/5x5"
  type: "Convolution"
  bottom: "inception_4c/5x5_reduce"
  top: "inception_4c/5x5"
  param {
    lr_mult: 1
    decay_mult: 1
  }
  param {
    lr_mult: 2
    decay_mult: 0
  }
  convolution_param {
    num_output: 64
    pad: 2
    kernel_size: 5
    weight_filler {
      type: "xavier"
      std: 0.03
    }
    bias_filler {
      type: "constant"
      value: 0.2
    }
  }
}
layer {
  name: "inception_4c/relu_5x5"
  type: "ReLU"
  bottom: "inception_4c/5x5"
  top: "inception_4c/5x5"
}
layer {
  name: "inception_4c/pool"
  type: "Pooling"
  bottom: "inception_4b/output"
  top: "inception_4c/pool"
  pooling_param {
    pool: MAX
    kernel_size: 3
    stride: 1
    pad: 1
  }
}
layer {
  name: "inception_4c/pool_proj"
  type: "Convolution"
  bottom: "inception_4c/pool"
  top: "inception_4c/pool_proj"
  param {
    lr_mult: 1
    decay_mult: 1
  }
  param {
    lr_mult: 2
    decay_mult: 0
  }
  convolution_param {
    num_output: 64
    kernel_size: 1
    weight_filler {
      type: "xavier"
      std: 0.1
    }
    bias_filler {
      type: "constant"
      value: 0.2
    }
  }
}
layer {
  name: "inception_4c/relu_pool_proj"
  type: "ReLU"
  bottom: "inception_4c/pool_proj"
  top: "inception_4c/pool_proj"
}
layer {
  name: "inception_4c/output"
  type: "Concat"
  bottom: "inception_4c/1x1"
  bottom: "inception_4c/3x3"
  bottom: "inception_4c/5x5"
  bottom: "inception_4c/pool_proj"
  top: "inception_4c/output"
}
layer {
  name: "inception_4d/1x1"
  type: "Convolution"
  bottom: "inception_4c/output"
  top: "inception_4d/1x1"
  param {
    lr_mult: 1
    decay_mult: 1
  }
  param {
    lr_mult: 2
    decay_mult: 0
  }
  convolution_param {
    num_output: 112
    kernel_size: 1
    weight_filler {
      type: "xavier"
      std: 0.03
    }
    bias_filler {
      type: "constant"
      value: 0.2
    }
  }
}
layer {
  name: "inception_4d/relu_1x1"
  type: "ReLU"
  bottom: "inception_4d/1x1"
  top: "inception_4d/1x1"
}
layer {
  name: "inception_4d/3x3_reduce"
  type: "Convolution"
  bottom: "inception_4c/output"
  top: "inception_4d/3x3_reduce"
  param {
    lr_mult: 1
    decay_mult: 1
  }
  param {
    lr_mult: 2
    decay_mult: 0
  }
  convolution_param {
    num_output: 144
    kernel_size: 1
    weight_filler {
      type: "xavier"
      std: 0.09
    }
    bias_filler {
      type: "constant"
      value: 0.2
    }
  }
}
layer {
  name: "inception_4d/relu_3x3_reduce"
  type: "ReLU"
  bottom: "inception_4d/3x3_reduce"
  top: "inception_4d/3x3_reduce"
}
layer {
  name: "inception_4d/3x3"
  type: "Convolution"
  bottom: "inception_4d/3x3_reduce"
  top: "inception_4d/3x3"
  param {
    lr_mult: 1
    decay_mult: 1
  }
  param {
    lr_mult: 2
    decay_mult: 0
  }
  convolution_param {
    num_output: 288
    pad: 1
    kernel_size: 3
    weight_filler {
      type: "xavier"
      std: 0.03
    }
    bias_filler {
      type: "constant"
      value: 0.2
    }
  }
}
layer {
  name: "inception_4d/relu_3x3"
  type: "ReLU"
  bottom: "inception_4d/3x3"
  top: "inception_4d/3x3"
}
layer {
  name: "inception_4d/5x5_reduce"
  type: "Convolution"
  bottom: "inception_4c/output"
  top: "inception_4d/5x5_reduce"
  param {
    lr_mult: 1
    decay_mult: 1
  }
  param {
    lr_mult: 2
    decay_mult: 0
  }
  convolution_param {
    num_output: 32
    kernel_size: 1
    weight_filler {
      type: "xavier"
      std: 0.2
    }
    bias_filler {
      type: "constant"
      value: 0.2
    }
  }
}
layer {
  name: "inception_4d/relu_5x5_reduce"
  type: "ReLU"
  bottom: "inception_4d/5x5_reduce"
  top: "inception_4d/5x5_reduce"
}
layer {
  name: "inception_4d/5x5"
  type: "Convolution"
  bottom: "inception_4d/5x5_reduce"
  top: "inception_4d/5x5"
  param {
    lr_mult: 1
    decay_mult: 1
  }
  param {
    lr_mult: 2
    decay_mult: 0
  }
  convolution_param {
    num_output: 64
    pad: 2
    kernel_size: 5
    weight_filler {
      type: "xavier"
      std: 0.03
    }
    bias_filler {
      type: "constant"
      value: 0.2
    }
  }
}
layer {
  name: "inception_4d/relu_5x5"
  type: "ReLU"
  bottom: "inception_4d/5x5"
  top: "inception_4d/5x5"
}
layer {
  name: "inception_4d/pool"
  type: "Pooling"
  bottom: "inception_4c/output"
  top: "inception_4d/pool"
  pooling_param {
    pool: MAX
    kernel_size: 3
    stride: 1
    pad: 1
  }
}
layer {
  name: "inception_4d/pool_proj"
  type: "Convolution"
  bottom: "inception_4d/pool"
  top: "inception_4d/pool_proj"
  param {
    lr_mult: 1
    decay_mult: 1
  }
  param {
    lr_mult: 2
    decay_mult: 0
  }
  convolution_param {
    num_output: 64
    kernel_size: 1
    weight_filler {
      type: "xavier"
      std: 0.1
    }
    bias_filler {
      type: "constant"
      value: 0.2
    }
  }
}
layer {
  name: "inception_4d/relu_pool_proj"
  type: "ReLU"
  bottom: "inception_4d/pool_proj"
  top: "inception_4d/pool_proj"
}
layer {
  name: "inception_4d/output"
  type: "Concat"
  bottom: "inception_4d/1x1"
  bottom: "inception_4d/3x3"
  bottom: "inception_4d/5x5"
  bottom: "inception_4d/pool_proj"
  top: "inception_4d/output"
}
layer {
  name: "loss2/ave_pool"
  type: "Pooling"
  bottom: "inception_4d/output"
  top: "loss2/ave_pool"
  pooling_param {
    pool: AVE
    kernel_size: 5
    stride: 3
  }
}
layer {
  name: "loss2/conv"
  type: "Convolution"
  bottom: "loss2/ave_pool"
  top: "loss2/conv"
  param {
    lr_mult: 1
    decay_mult: 1
  }
  param {
    lr_mult: 2
    decay_mult: 0
  }
  convolution_param {
    num_output: 128
    kernel_size: 1
    weight_filler {
      type: "xavier"
      std: 0.08
    }
    bias_filler {
      type: "constant"
      value: 0.2
    }
  }
}
layer {
  name: "loss2/relu_conv"
  type: "ReLU"
  bottom: "loss2/conv"
  top: "loss2/conv"
}
layer {
  name: "loss2/fc"
  type: "InnerProduct"
  bottom: "loss2/conv"
  top: "loss2/fc"
  param {
    lr_mult: 1
    decay_mult: 1
  }
  param {
    lr_mult: 2
    decay_mult: 0
  }
  inner_product_param {
    num_output: 1024
    weight_filler {
      type: "xavier"
      std: 0.02
    }
    bias_filler {
      type: "constant"
      value: 0.2
    }
  }
}
layer {
  name: "loss2/relu_fc"
  type: "ReLU"
  bottom: "loss2/fc"
  top: "loss2/fc"
}
layer {
  name: "loss2/drop_fc"
  type: "Dropout"
  bottom: "loss2/fc"
  top: "loss2/fc"
  dropout_param {
    dropout_ratio: 0.7
  }
}
layer {
  name: "loss2/classifier_plantvillage"
  type: "InnerProduct"
  bottom: "loss2/fc"
  top: "loss2/classifier_plantvillage"
  param {
    lr_mult: 1
    decay_mult: 1
  }
  param {
    lr_mult: 2
    decay_mult: 0
  }
  inner_product_param {
    num_output: 38
    weight_filler {
      type: "xavier"
      std: 0.0009765625
    }
    bias_filler {
      type: "constant"
      value: 0
    }
  }
}
layer {
  name: "inception_4e/1x1"
  type: "Convolution"
  bottom: "inception_4d/output"
  top: "inception_4e/1x1"
  param {
    lr_mult: 1
    decay_mult: 1
  }
  param {
    lr_mult: 2
    decay_mult: 0
  }
  convolution_param {
    num_output: 256
    kernel_size: 1
    weight_filler {
      type: "xavier"
      std: 0.03
    }
    bias_filler {
      type: "constant"
      value: 0.2
    }
  }
}
layer {
  name: "inception_4e/relu_1x1"
  type: "ReLU"
  bottom: "inception_4e/1x1"
  top: "inception_4e/1x1"
}
layer {
  name: "inception_4e/3x3_reduce"
  type: "Convolution"
  bottom: "inception_4d/output"
  top: "inception_4e/3x3_reduce"
  param {
    lr_mult: 1
    decay_mult: 1
  }
  param {
    lr_mult: 2
    decay_mult: 0
  }
  convolution_param {
    num_output: 160
    kernel_size: 1
    weight_filler {
      type: "xavier"
      std: 0.09
    }
    bias_filler {
      type: "constant"
      value: 0.2
    }
  }
}
layer {
  name: "inception_4e/relu_3x3_reduce"
  type: "ReLU"
  bottom: "inception_4e/3x3_reduce"
  top: "inception_4e/3x3_reduce"
}
layer {
  name: "inception_4e/3x3"
  type: "Convolution"
  bottom: "inception_4e/3x3_reduce"
  top: "inception_4e/3x3"
  param {
    lr_mult: 1
    decay_mult: 1
  }
  param {
    lr_mult: 2
    decay_mult: 0
  }
  convolution_param {
    num_output: 320
    pad: 1
    kernel_size: 3
    weight_filler {
      type: "xavier"
      std: 0.03
    }
    bias_filler {
      type: "constant"
      value: 0.2
    }
  }
}
layer {
  name: "inception_4e/relu_3x3"
  type: "ReLU"
  bottom: "inception_4e/3x3"
  top: "inception_4e/3x3"
}
layer {
  name: "inception_4e/5x5_reduce"
  type: "Convolution"
  bottom: "inception_4d/output"
  top: "inception_4e/5x5_reduce"
  param {
    lr_mult: 1
    decay_mult: 1
  }
  param {
    lr_mult: 2
    decay_mult: 0
  }
  convolution_param {
    num_output: 32
    kernel_size: 1
    weight_filler {
      type: "xavier"
      std: 0.2
    }
    bias_filler {
      type: "constant"
      value: 0.2
    }
  }
}
layer {
  name: "inception_4e/relu_5x5_reduce"
  type: "ReLU"
  bottom: "inception_4e/5x5_reduce"
  top: "inception_4e/5x5_reduce"
}
layer {
  name: "inception_4e/5x5"
  type: "Convolution"
  bottom: "inception_4e/5x5_reduce"
  top: "inception_4e/
I0403 18:46:25.005647 17647 layer_factory.hpp:77] Creating layer data
I0403 18:46:25.006278 17647 net.cpp:91] Creating Layer data
I0403 18:46:25.006307 17647 net.cpp:399] data -> data
I0403 18:46:25.006361 17647 net.cpp:399] data -> label
I0403 18:46:25.006395 17647 data_transformer.cpp:25] Loading mean file from: /home/mohanty/data/final_dataset/lmdb/segmented-60-40/mean.binaryproto
I0403 18:46:25.062403 17653 db_lmdb.cpp:38] Opened lmdb /home/mohanty/data/final_dataset/lmdb/segmented-60-40/test_db
I0403 18:46:25.068426 17647 data_layer.cpp:41] output data size: 24,3,224,224
I0403 18:46:25.096297 17647 net.cpp:141] Setting up data
I0403 18:46:25.096385 17647 net.cpp:148] Top shape: 24 3 224 224 (3612672)
I0403 18:46:25.096408 17647 net.cpp:148] Top shape: 24 (24)
I0403 18:46:25.096423 17647 net.cpp:156] Memory required for data: 14450784
I0403 18:46:25.096451 17647 layer_factory.hpp:77] Creating layer label_data_1_split
I0403 18:46:25.096478 17647 net.cpp:91] Creating Layer label_data_1_split
I0403 18:46:25.096498 17647 net.cpp:425] label_data_1_split <- label
I0403 18:46:25.096529 17647 net.cpp:399] label_data_1_split -> label_data_1_split_0
I0403 18:46:25.096559 17647 net.cpp:399] label_data_1_split -> label_data_1_split_1
I0403 18:46:25.096580 17647 net.cpp:399] label_data_1_split -> label_data_1_split_2
I0403 18:46:25.096602 17647 net.cpp:399] label_data_1_split -> label_data_1_split_3
I0403 18:46:25.096623 17647 net.cpp:399] label_data_1_split -> label_data_1_split_4
I0403 18:46:25.096644 17647 net.cpp:399] label_data_1_split -> label_data_1_split_5
I0403 18:46:25.096665 17647 net.cpp:399] label_data_1_split -> label_data_1_split_6
I0403 18:46:25.096688 17647 net.cpp:399] label_data_1_split -> label_data_1_split_7
I0403 18:46:25.096709 17647 net.cpp:399] label_data_1_split -> label_data_1_split_8
I0403 18:46:25.096729 17647 net.cpp:399] label_data_1_split -> label_data_1_split_9
I0403 18:46:25.096849 17647 net.cpp:141] Setting up label_data_1_split
I0403 18:46:25.096873 17647 net.cpp:148] Top shape: 24 (24)
I0403 18:46:25.096890 17647 net.cpp:148] Top shape: 24 (24)
I0403 18:46:25.096906 17647 net.cpp:148] Top shape: 24 (24)
I0403 18:46:25.096922 17647 net.cpp:148] Top shape: 24 (24)
I0403 18:46:25.096938 17647 net.cpp:148] Top shape: 24 (24)
I0403 18:46:25.096961 17647 net.cpp:148] Top shape: 24 (24)
I0403 18:46:25.096977 17647 net.cpp:148] Top shape: 24 (24)
I0403 18:46:25.096993 17647 net.cpp:148] Top shape: 24 (24)
I0403 18:46:25.097009 17647 net.cpp:148] Top shape: 24 (24)
I0403 18:46:25.097025 17647 net.cpp:148] Top shape: 24 (24)
I0403 18:46:25.097070 17647 net.cpp:156] Memory required for data: 14451744
I0403 18:46:25.097087 17647 layer_factory.hpp:77] Creating layer conv1/7x7_s2
I0403 18:46:25.097121 17647 net.cpp:91] Creating Layer conv1/7x7_s2
I0403 18:46:25.097141 17647 net.cpp:425] conv1/7x7_s2 <- data
I0403 18:46:25.097160 17647 net.cpp:399] conv1/7x7_s2 -> conv1/7x7_s2
I0403 18:46:25.241605 17647 net.cpp:141] Setting up conv1/7x7_s2
I0403 18:46:25.241674 17647 net.cpp:148] Top shape: 24 64 112 112 (19267584)
I0403 18:46:25.241693 17647 net.cpp:156] Memory required for data: 91522080
I0403 18:46:25.241725 17647 layer_factory.hpp:77] Creating layer conv1/relu_7x7
I0403 18:46:25.241753 17647 net.cpp:91] Creating Layer conv1/relu_7x7
I0403 18:46:25.241773 17647 net.cpp:425] conv1/relu_7x7 <- conv1/7x7_s2
I0403 18:46:25.241792 17647 net.cpp:386] conv1/relu_7x7 -> conv1/7x7_s2 (in-place)
I0403 18:46:25.242065 17647 net.cpp:141] Setting up conv1/relu_7x7
I0403 18:46:25.242094 17647 net.cpp:148] Top shape: 24 64 112 112 (19267584)
I0403 18:46:25.242110 17647 net.cpp:156] Memory required for data: 168592416
I0403 18:46:25.242126 17647 layer_factory.hpp:77] Creating layer pool1/3x3_s2
I0403 18:46:25.242200 17647 net.cpp:91] Creating Layer pool1/3x3_s2
I0403 18:46:25.242223 17647 net.cpp:425] pool1/3x3_s2 <- conv1/7x7_s2
I0403 18:46:25.242243 17647 net.cpp:399] pool1/3x3_s2 -> pool1/3x3_s2
I0403 18:46:25.242321 17647 net.cpp:141] Setting up pool1/3x3_s2
I0403 18:46:25.242346 17647 net.cpp:148] Top shape: 24 64 56 56 (4816896)
I0403 18:46:25.242362 17647 net.cpp:156] Memory required for data: 187860000
I0403 18:46:25.242377 17647 layer_factory.hpp:77] Creating layer pool1/norm1
I0403 18:46:25.242401 17647 net.cpp:91] Creating Layer pool1/norm1
I0403 18:46:25.242420 17647 net.cpp:425] pool1/norm1 <- pool1/3x3_s2
I0403 18:46:25.242439 17647 net.cpp:399] pool1/norm1 -> pool1/norm1
I0403 18:46:25.242743 17647 net.cpp:141] Setting up pool1/norm1
I0403 18:46:25.242770 17647 net.cpp:148] Top shape: 24 64 56 56 (4816896)
I0403 18:46:25.242787 17647 net.cpp:156] Memory required for data: 207127584
I0403 18:46:25.242802 17647 layer_factory.hpp:77] Creating layer conv2/3x3_reduce
I0403 18:46:25.242828 17647 net.cpp:91] Creating Layer conv2/3x3_reduce
I0403 18:46:25.242847 17647 net.cpp:425] conv2/3x3_reduce <- pool1/norm1
I0403 18:46:25.242866 17647 net.cpp:399] conv2/3x3_reduce -> conv2/3x3_reduce
I0403 18:46:25.244307 17647 net.cpp:141] Setting up conv2/3x3_reduce
I0403 18:46:25.244338 17647 net.cpp:148] Top shape: 24 64 56 56 (4816896)
I0403 18:46:25.244354 17647 net.cpp:156] Memory required for data: 226395168
I0403 18:46:25.244376 17647 layer_factory.hpp:77] Creating layer conv2/relu_3x3_reduce
I0403 18:46:25.244396 17647 net.cpp:91] Creating Layer conv2/relu_3x3_reduce
I0403 18:46:25.244412 17647 net.cpp:425] conv2/relu_3x3_reduce <- conv2/3x3_reduce
I0403 18:46:25.244431 17647 net.cpp:386] conv2/relu_3x3_reduce -> conv2/3x3_reduce (in-place)
I0403 18:46:25.244696 17647 net.cpp:141] Setting up conv2/relu_3x3_reduce
I0403 18:46:25.244724 17647 net.cpp:148] Top shape: 24 64 56 56 (4816896)
I0403 18:46:25.244740 17647 net.cpp:156] Memory required for data: 245662752
I0403 18:46:25.244756 17647 layer_factory.hpp:77] Creating layer conv2/3x3
I0403 18:46:25.244778 17647 net.cpp:91] Creating Layer conv2/3x3
I0403 18:46:25.244796 17647 net.cpp:425] conv2/3x3 <- conv2/3x3_reduce
I0403 18:46:25.244817 17647 net.cpp:399] conv2/3x3 -> conv2/3x3
I0403 18:46:25.247282 17647 net.cpp:141] Setting up conv2/3x3
I0403 18:46:25.247311 17647 net.cpp:148] Top shape: 24 192 56 56 (14450688)
I0403 18:46:25.247328 17647 net.cpp:156] Memory required for data: 303465504
I0403 18:46:25.247350 17647 layer_factory.hpp:77] Creating layer conv2/relu_3x3
I0403 18:46:25.247370 17647 net.cpp:91] Creating Layer conv2/relu_3x3
I0403 18:46:25.247385 17647 net.cpp:425] conv2/relu_3x3 <- conv2/3x3
I0403 18:46:25.247403 17647 net.cpp:386] conv2/relu_3x3 -> conv2/3x3 (in-place)
I0403 18:46:25.247567 17647 net.cpp:141] Setting up conv2/relu_3x3
I0403 18:46:25.247592 17647 net.cpp:148] Top shape: 24 192 56 56 (14450688)
I0403 18:46:25.247632 17647 net.cpp:156] Memory required for data: 361268256
I0403 18:46:25.247648 17647 layer_factory.hpp:77] Creating layer conv2/norm2
I0403 18:46:25.247668 17647 net.cpp:91] Creating Layer conv2/norm2
I0403 18:46:25.247684 17647 net.cpp:425] conv2/norm2 <- conv2/3x3
I0403 18:46:25.247702 17647 net.cpp:399] conv2/norm2 -> conv2/norm2
I0403 18:46:25.247997 17647 net.cpp:141] Setting up conv2/norm2
I0403 18:46:25.248024 17647 net.cpp:148] Top shape: 24 192 56 56 (14450688)
I0403 18:46:25.248039 17647 net.cpp:156] Memory required for data: 419071008
I0403 18:46:25.248054 17647 layer_factory.hpp:77] Creating layer pool2/3x3_s2
I0403 18:46:25.248073 17647 net.cpp:91] Creating Layer pool2/3x3_s2
I0403 18:46:25.248088 17647 net.cpp:425] pool2/3x3_s2 <- conv2/norm2
I0403 18:46:25.248106 17647 net.cpp:399] pool2/3x3_s2 -> pool2/3x3_s2
I0403 18:46:25.248157 17647 net.cpp:141] Setting up pool2/3x3_s2
I0403 18:46:25.248179 17647 net.cpp:148] Top shape: 24 192 28 28 (3612672)
I0403 18:46:25.248194 17647 net.cpp:156] Memory required for data: 433521696
I0403 18:46:25.248209 17647 layer_factory.hpp:77] Creating layer pool2/3x3_s2_pool2/3x3_s2_0_split
I0403 18:46:25.248227 17647 net.cpp:91] Creating Layer pool2/3x3_s2_pool2/3x3_s2_0_split
I0403 18:46:25.248244 17647 net.cpp:425] pool2/3x3_s2_pool2/3x3_s2_0_split <- pool2/3x3_s2
I0403 18:46:25.248260 17647 net.cpp:399] pool2/3x3_s2_pool2/3x3_s2_0_split -> pool2/3x3_s2_pool2/3x3_s2_0_split_0
I0403 18:46:25.248281 17647 net.cpp:399] pool2/3x3_s2_pool2/3x3_s2_0_split -> pool2/3x3_s2_pool2/3x3_s2_0_split_1
I0403 18:46:25.248301 17647 net.cpp:399] pool2/3x3_s2_pool2/3x3_s2_0_split -> pool2/3x3_s2_pool2/3x3_s2_0_split_2
I0403 18:46:25.248320 17647 net.cpp:399] pool2/3x3_s2_pool2/3x3_s2_0_split -> pool2/3x3_s2_pool2/3x3_s2_0_split_3
I0403 18:46:25.248385 17647 net.cpp:141] Setting up pool2/3x3_s2_pool2/3x3_s2_0_split
I0403 18:46:25.248407 17647 net.cpp:148] Top shape: 24 192 28 28 (3612672)
I0403 18:46:25.248425 17647 net.cpp:148] Top shape: 24 192 28 28 (3612672)
I0403 18:46:25.248440 17647 net.cpp:148] Top shape: 24 192 28 28 (3612672)
I0403 18:46:25.248456 17647 net.cpp:148] Top shape: 24 192 28 28 (3612672)
I0403 18:46:25.248471 17647 net.cpp:156] Memory required for data: 491324448
I0403 18:46:25.248486 17647 layer_factory.hpp:77] Creating layer inception_3a/1x1
I0403 18:46:25.248505 17647 net.cpp:91] Creating Layer inception_3a/1x1
I0403 18:46:25.248522 17647 net.cpp:425] inception_3a/1x1 <- pool2/3x3_s2_pool2/3x3_s2_0_split_0
I0403 18:46:25.248595 17647 net.cpp:399] inception_3a/1x1 -> inception_3a/1x1
I0403 18:46:25.250198 17647 net.cpp:141] Setting up inception_3a/1x1
I0403 18:46:25.250228 17647 net.cpp:148] Top shape: 24 64 28 28 (1204224)
I0403 18:46:25.250244 17647 net.cpp:156] Memory required for data: 496141344
I0403 18:46:25.250263 17647 layer_factory.hpp:77] Creating layer inception_3a/relu_1x1
I0403 18:46:25.250284 17647 net.cpp:91] Creating Layer inception_3a/relu_1x1
I0403 18:46:25.250300 17647 net.cpp:425] inception_3a/relu_1x1 <- inception_3a/1x1
I0403 18:46:25.250319 17647 net.cpp:386] inception_3a/relu_1x1 -> inception_3a/1x1 (in-place)
I0403 18:46:25.250494 17647 net.cpp:141] Setting up inception_3a/relu_1x1
I0403 18:46:25.250520 17647 net.cpp:148] Top shape: 24 64 28 28 (1204224)
I0403 18:46:25.250535 17647 net.cpp:156] Memory required for data: 500958240
I0403 18:46:25.250550 17647 layer_factory.hpp:77] Creating layer inception_3a/3x3_reduce
I0403 18:46:25.250573 17647 net.cpp:91] Creating Layer inception_3a/3x3_reduce
I0403 18:46:25.250592 17647 net.cpp:425] inception_3a/3x3_reduce <- pool2/3x3_s2_pool2/3x3_s2_0_split_1
I0403 18:46:25.250612 17647 net.cpp:399] inception_3a/3x3_reduce -> inception_3a/3x3_reduce
I0403 18:46:25.252408 17647 net.cpp:141] Setting up inception_3a/3x3_reduce
I0403 18:46:25.252436 17647 net.cpp:148] Top shape: 24 96 28 28 (1806336)
I0403 18:46:25.252452 17647 net.cpp:156] Memory required for data: 508183584
I0403 18:46:25.252475 17647 layer_factory.hpp:77] Creating layer inception_3a/relu_3x3_reduce
I0403 18:46:25.252512 17647 net.cpp:91] Creating Layer inception_3a/relu_3x3_reduce
I0403 18:46:25.252531 17647 net.cpp:425] inception_3a/relu_3x3_reduce <- inception_3a/3x3_reduce
I0403 18:46:25.252549 17647 net.cpp:386] inception_3a/relu_3x3_reduce -> inception_3a/3x3_reduce (in-place)
I0403 18:46:25.252735 17647 net.cpp:141] Setting up inception_3a/relu_3x3_reduce
I0403 18:46:25.252761 17647 net.cpp:148] Top shape: 24 96 28 28 (1806336)
I0403 18:46:25.252776 17647 net.cpp:156] Memory required for data: 515408928
I0403 18:46:25.252791 17647 layer_factory.hpp:77] Creating layer inception_3a/3x3
I0403 18:46:25.252815 17647 net.cpp:91] Creating Layer inception_3a/3x3
I0403 18:46:25.252833 17647 net.cpp:425] inception_3a/3x3 <- inception_3a/3x3_reduce
I0403 18:46:25.252856 17647 net.cpp:399] inception_3a/3x3 -> inception_3a/3x3
I0403 18:46:25.254709 17647 net.cpp:141] Setting up inception_3a/3x3
I0403 18:46:25.254739 17647 net.cpp:148] Top shape: 24 128 28 28 (2408448)
I0403 18:46:25.254755 17647 net.cpp:156] Memory required for data: 525042720
I0403 18:46:25.254775 17647 layer_factory.hpp:77] Creating layer inception_3a/relu_3x3
I0403 18:46:25.254796 17647 net.cpp:91] Creating Layer inception_3a/relu_3x3
I0403 18:46:25.254812 17647 net.cpp:425] inception_3a/relu_3x3 <- inception_3a/3x3
I0403 18:46:25.254829 17647 net.cpp:386] inception_3a/relu_3x3 -> inception_3a/3x3 (in-place)
I0403 18:46:25.255126 17647 net.cpp:141] Setting up inception_3a/relu_3x3
I0403 18:46:25.255156 17647 net.cpp:148] Top shape: 24 128 28 28 (2408448)
I0403 18:46:25.255172 17647 net.cpp:156] Memory required for data: 534676512
I0403 18:46:25.255189 17647 layer_factory.hpp:77] Creating layer inception_3a/5x5_reduce
I0403 18:46:25.255214 17647 net.cpp:91] Creating Layer inception_3a/5x5_reduce
I0403 18:46:25.255234 17647 net.cpp:425] inception_3a/5x5_reduce <- pool2/3x3_s2_pool2/3x3_s2_0_split_2
I0403 18:46:25.255255 17647 net.cpp:399] inception_3a/5x5_reduce -> inception_3a/5x5_reduce
I0403 18:46:25.256264 17647 net.cpp:141] Setting up inception_3a/5x5_reduce
I0403 18:46:25.256292 17647 net.cpp:148] Top shape: 24 16 28 28 (301056)
I0403 18:46:25.256307 17647 net.cpp:156] Memory required for data: 535880736
I0403 18:46:25.256325 17647 layer_factory.hpp:77] Creating layer inception_3a/relu_5x5_reduce
I0403 18:46:25.256345 17647 net.cpp:91] Creating Layer inception_3a/relu_5x5_reduce
I0403 18:46:25.256362 17647 net.cpp:425] inception_3a/relu_5x5_reduce <- inception_3a/5x5_reduce
I0403 18:46:25.256379 17647 net.cpp:386] inception_3a/relu_5x5_reduce -> inception_3a/5x5_reduce (in-place)
I0403 18:46:25.256670 17647 net.cpp:141] Setting up inception_3a/relu_5x5_reduce
I0403 18:46:25.256698 17647 net.cpp:148] Top shape: 24 16 28 28 (301056)
I0403 18:46:25.256714 17647 net.cpp:156] Memory required for data: 537084960
I0403 18:46:25.256728 17647 layer_factory.hpp:77] Creating layer inception_3a/5x5
I0403 18:46:25.256750 17647 net.cpp:91] Creating Layer inception_3a/5x5
I0403 18:46:25.256768 17647 net.cpp:425] inception_3a/5x5 <- inception_3a/5x5_reduce
I0403 18:46:25.256788 17647 net.cpp:399] inception_3a/5x5 -> inception_3a/5x5
I0403 18:46:25.257792 17647 net.cpp:141] Setting up inception_3a/5x5
I0403 18:46:25.257820 17647 net.cpp:148] Top shape: 24 32 28 28 (602112)
I0403 18:46:25.257835 17647 net.cpp:156] Memory required for data: 539493408
I0403 18:46:25.257853 17647 layer_factory.hpp:77] Creating layer inception_3a/relu_5x5
I0403 18:46:25.257874 17647 net.cpp:91] Creating Layer inception_3a/relu_5x5
I0403 18:46:25.257890 17647 net.cpp:425] inception_3a/relu_5x5 <- inception_3a/5x5
I0403 18:46:25.257907 17647 net.cpp:386] inception_3a/relu_5x5 -> inception_3a/5x5 (in-place)
I0403 18:46:25.258085 17647 net.cpp:141] Setting up inception_3a/relu_5x5
I0403 18:46:25.258111 17647 net.cpp:148] Top shape: 24 32 28 28 (602112)
I0403 18:46:25.258124 17647 net.cpp:156] Memory required for data: 541901856
I0403 18:46:25.258138 17647 layer_factory.hpp:77] Creating layer inception_3a/pool
I0403 18:46:25.258158 17647 net.cpp:91] Creating Layer inception_3a/pool
I0403 18:46:25.258188 17647 net.cpp:425] inception_3a/pool <- pool2/3x3_s2_pool2/3x3_s2_0_split_3
I0403 18:46:25.258209 17647 net.cpp:399] inception_3a/pool -> inception_3a/pool
I0403 18:46:25.258267 17647 net.cpp:141] Setting up inception_3a/pool
I0403 18:46:25.258291 17647 net.cpp:148] Top shape: 24 192 28 28 (3612672)
I0403 18:46:25.258304 17647 net.cpp:156] Memory required for data: 556352544
I0403 18:46:25.258318 17647 layer_factory.hpp:77] Creating layer inception_3a/pool_proj
I0403 18:46:25.258342 17647 net.cpp:91] Creating Layer inception_3a/pool_proj
I0403 18:46:25.258358 17647 net.cpp:425] inception_3a/pool_proj <- inception_3a/pool
I0403 18:46:25.258379 17647 net.cpp:399] inception_3a/pool_proj -> inception_3a/pool_proj
I0403 18:46:25.259363 17647 net.cpp:141] Setting up inception_3a/pool_proj
I0403 18:46:25.259392 17647 net.cpp:148] Top shape: 24 32 28 28 (602112)
I0403 18:46:25.259408 17647 net.cpp:156] Memory required for data: 558760992
I0403 18:46:25.259430 17647 layer_factory.hpp:77] Creating layer inception_3a/relu_pool_proj
I0403 18:46:25.259474 17647 net.cpp:91] Creating Layer inception_3a/relu_pool_proj
I0403 18:46:25.259490 17647 net.cpp:425] inception_3a/relu_pool_proj <- inception_3a/pool_proj
I0403 18:46:25.259507 17647 net.cpp:386] inception_3a/relu_pool_proj -> inception_3a/pool_proj (in-place)
I0403 18:46:25.259793 17647 net.cpp:141] Setting up inception_3a/relu_pool_proj
I0403 18:46:25.259819 17647 net.cpp:148] Top shape: 24 32 28 28 (602112)
I0403 18:46:25.259834 17647 net.cpp:156] Memory required for data: 561169440
I0403 18:46:25.259848 17647 layer_factory.hpp:77] Creating layer inception_3a/output
I0403 18:46:25.259868 17647 net.cpp:91] Creating Layer inception_3a/output
I0403 18:46:25.259884 17647 net.cpp:425] inception_3a/output <- inception_3a/1x1
I0403 18:46:25.259902 17647 net.cpp:425] inception_3a/output <- inception_3a/3x3
I0403 18:46:25.259917 17647 net.cpp:425] inception_3a/output <- inception_3a/5x5
I0403 18:46:25.259932 17647 net.cpp:425] inception_3a/output <- inception_3a/pool_proj
I0403 18:46:25.259953 17647 net.cpp:399] inception_3a/output -> inception_3a/output
I0403 18:46:25.260002 17647 net.cpp:141] Setting up inception_3a/output
I0403 18:46:25.260025 17647 net.cpp:148] Top shape: 24 256 28 28 (4816896)
I0403 18:46:25.260040 17647 net.cpp:156] Memory required for data: 580437024
I0403 18:46:25.260054 17647 layer_factory.hpp:77] Creating layer inception_3a/output_inception_3a/output_0_split
I0403 18:46:25.260071 17647 net.cpp:91] Creating Layer inception_3a/output_inception_3a/output_0_split
I0403 18:46:25.260087 17647 net.cpp:425] inception_3a/output_inception_3a/output_0_split <- inception_3a/output
I0403 18:46:25.260105 17647 net.cpp:399] inception_3a/output_inception_3a/output_0_split -> inception_3a/output_inception_3a/output_0_split_0
I0403 18:46:25.260126 17647 net.cpp:399] inception_3a/output_inception_3a/output_0_split -> inception_3a/output_inception_3a/output_0_split_1
I0403 18:46:25.260149 17647 net.cpp:399] inception_3a/output_inception_3a/output_0_split -> inception_3a/output_inception_3a/output_0_split_2
I0403 18:46:25.260169 17647 net.cpp:399] inception_3a/output_inception_3a/output_0_split -> inception_3a/output_inception_3a/output_0_split_3
I0403 18:46:25.260242 17647 net.cpp:141] Setting up inception_3a/output_inception_3a/output_0_split
I0403 18:46:25.260265 17647 net.cpp:148] Top shape: 24 256 28 28 (4816896)
I0403 18:46:25.260282 17647 net.cpp:148] Top shape: 24 256 28 28 (4816896)
I0403 18:46:25.260298 17647 net.cpp:148] Top shape: 24 256 28 28 (4816896)
I0403 18:46:25.260313 17647 net.cpp:148] Top shape: 24 256 28 28 (4816896)
I0403 18:46:25.260325 17647 net.cpp:156] Memory required for data: 657507360
I0403 18:46:25.260340 17647 layer_factory.hpp:77] Creating layer inception_3b/1x1
I0403 18:46:25.260362 17647 net.cpp:91] Creating Layer inception_3b/1x1
I0403 18:46:25.260380 17647 net.cpp:425] inception_3b/1x1 <- inception_3a/output_inception_3a/output_0_split_0
I0403 18:46:25.260401 17647 net.cpp:399] inception_3b/1x1 -> inception_3b/1x1
I0403 18:46:25.261518 17647 net.cpp:141] Setting up inception_3b/1x1
I0403 18:46:25.261557 17647 net.cpp:148] Top shape: 24 128 28 28 (2408448)
I0403 18:46:25.261574 17647 net.cpp:156] Memory required for data: 667141152
I0403 18:46:25.261592 17647 layer_factory.hpp:77] Creating layer inception_3b/relu_1x1
I0403 18:46:25.261610 17647 net.cpp:91] Creating Layer inception_3b/relu_1x1
I0403 18:46:25.261626 17647 net.cpp:425] inception_3b/relu_1x1 <- inception_3b/1x1
I0403 18:46:25.261646 17647 net.cpp:386] inception_3b/relu_1x1 -> inception_3b/1x1 (in-place)
I0403 18:46:25.261819 17647 net.cpp:141] Setting up inception_3b/relu_1x1
I0403 18:46:25.261843 17647 net.cpp:148] Top shape: 24 128 28 28 (2408448)
I0403 18:46:25.261858 17647 net.cpp:156] Memory required for data: 676774944
I0403 18:46:25.261873 17647 layer_factory.hpp:77] Creating layer inception_3b/3x3_reduce
I0403 18:46:25.261895 17647 net.cpp:91] Creating Layer inception_3b/3x3_reduce
I0403 18:46:25.261912 17647 net.cpp:425] inception_3b/3x3_reduce <- inception_3a/output_inception_3a/output_0_split_1
I0403 18:46:25.261934 17647 net.cpp:399] inception_3b/3x3_reduce -> inception_3b/3x3_reduce
I0403 18:46:25.263056 17647 net.cpp:141] Setting up inception_3b/3x3_reduce
I0403 18:46:25.263083 17647 net.cpp:148] Top shape: 24 128 28 28 (2408448)
I0403 18:46:25.263098 17647 net.cpp:156] Memory required for data: 686408736
I0403 18:46:25.263116 17647 layer_factory.hpp:77] Creating layer inception_3b/relu_3x3_reduce
I0403 18:46:25.263134 17647 net.cpp:91] Creating Layer inception_3b/relu_3x3_reduce
I0403 18:46:25.263149 17647 net.cpp:425] inception_3b/relu_3x3_reduce <- inception_3b/3x3_reduce
I0403 18:46:25.263170 17647 net.cpp:386] inception_3b/relu_3x3_reduce -> inception_3b/3x3_reduce (in-place)
I0403 18:46:25.263339 17647 net.cpp:141] Setting up inception_3b/relu_3x3_reduce
I0403 18:46:25.263363 17647 net.cpp:148] Top shape: 24 128 28 28 (2408448)
I0403 18:46:25.263378 17647 net.cpp:156] Memory required for data: 696042528
I0403 18:46:25.263393 17647 layer_factory.hpp:77] Creating layer inception_3b/3x3
I0403 18:46:25.263418 17647 net.cpp:91] Creating Layer inception_3b/3x3
I0403 18:46:25.263437 17647 net.cpp:425] inception_3b/3x3 <- inception_3b/3x3_reduce
I0403 18:46:25.263455 17647 net.cpp:399] inception_3b/3x3 -> inception_3b/3x3
I0403 18:46:25.266412 17647 net.cpp:141] Setting up inception_3b/3x3
I0403 18:46:25.266441 17647 net.cpp:148] Top shape: 24 192 28 28 (3612672)
I0403 18:46:25.266458 17647 net.cpp:156] Memory required for data: 710493216
I0403 18:46:25.266476 17647 layer_factory.hpp:77] Creating layer inception_3b/relu_3x3
I0403 18:46:25.266497 17647 net.cpp:91] Creating Layer inception_3b/relu_3x3
I0403 18:46:25.266515 17647 net.cpp:425] inception_3b/relu_3x3 <- inception_3b/3x3
I0403 18:46:25.266532 17647 net.cpp:386] inception_3b/relu_3x3 -> inception_3b/3x3 (in-place)
I0403 18:46:25.266811 17647 net.cpp:141] Setting up inception_3b/relu_3x3
I0403 18:46:25.266839 17647 net.cpp:148] Top shape: 24 192 28 28 (3612672)
I0403 18:46:25.266855 17647 net.cpp:156] Memory required for data: 724943904
I0403 18:46:25.266870 17647 layer_factory.hpp:77] Creating layer inception_3b/5x5_reduce
I0403 18:46:25.266893 17647 net.cpp:91] Creating Layer inception_3b/5x5_reduce
I0403 18:46:25.266911 17647 net.cpp:425] inception_3b/5x5_reduce <- inception_3a/output_inception_3a/output_0_split_2
I0403 18:46:25.266933 17647 net.cpp:399] inception_3b/5x5_reduce -> inception_3b/5x5_reduce
I0403 18:46:25.267952 17647 net.cpp:141] Setting up inception_3b/5x5_reduce
I0403 18:46:25.267982 17647 net.cpp:148] Top shape: 24 32 28 28 (602112)
I0403 18:46:25.267997 17647 net.cpp:156] Memory required for data: 727352352
I0403 18:46:25.268015 17647 layer_factory.hpp:77] Creating layer inception_3b/relu_5x5_reduce
I0403 18:46:25.268036 17647 net.cpp:91] Creating Layer inception_3b/relu_5x5_reduce
I0403 18:46:25.268054 17647 net.cpp:425] inception_3b/relu_5x5_reduce <- inception_3b/5x5_reduce
I0403 18:46:25.268072 17647 net.cpp:386] inception_3b/relu_5x5_reduce -> inception_3b/5x5_reduce (in-place)
I0403 18:46:25.268266 17647 net.cpp:141] Setting up inception_3b/relu_5x5_reduce
I0403 18:46:25.268291 17647 net.cpp:148] Top shape: 24 32 28 28 (602112)
I0403 18:46:25.268307 17647 net.cpp:156] Memory required for data: 729760800
I0403 18:46:25.268322 17647 layer_factory.hpp:77] Creating layer inception_3b/5x5
I0403 18:46:25.268347 17647 net.cpp:91] Creating Layer inception_3b/5x5
I0403 18:46:25.268365 17647 net.cpp:425] inception_3b/5x5 <- inception_3b/5x5_reduce
I0403 18:46:25.268384 17647 net.cpp:399] inception_3b/5x5 -> inception_3b/5x5
I0403 18:46:25.270402 17647 net.cpp:141] Setting up inception_3b/5x5
I0403 18:46:25.270433 17647 net.cpp:148] Top shape: 24 96 28 28 (1806336)
I0403 18:46:25.270449 17647 net.cpp:156] Memory required for data: 736986144
I0403 18:46:25.270467 17647 layer_factory.hpp:77] Creating layer inception_3b/relu_5x5
I0403 18:46:25.270486 17647 net.cpp:91] Creating Layer inception_3b/relu_5x5
I0403 18:46:25.270503 17647 net.cpp:425] inception_3b/relu_5x5 <- inception_3b/5x5
I0403 18:46:25.270524 17647 net.cpp:386] inception_3b/relu_5x5 -> inception_3b/5x5 (in-place)
I0403 18:46:25.270719 17647 net.cpp:141] Setting up inception_3b/relu_5x5
I0403 18:46:25.270745 17647 net.cpp:148] Top shape: 24 96 28 28 (1806336)
I0403 18:46:25.270759 17647 net.cpp:156] Memory required for data: 744211488
I0403 18:46:25.270774 17647 layer_factory.hpp:77] Creating layer inception_3b/pool
I0403 18:46:25.270793 17647 net.cpp:91] Creating Layer inception_3b/pool
I0403 18:46:25.270809 17647 net.cpp:425] inception_3b/pool <- inception_3a/output_inception_3a/output_0_split_3
I0403 18:46:25.270828 17647 net.cpp:399] inception_3b/pool -> inception_3b/pool
I0403 18:46:25.270889 17647 net.cpp:141] Setting up inception_3b/pool
I0403 18:46:25.270912 17647 net.cpp:148] Top shape: 24 256 28 28 (4816896)
I0403 18:46:25.270926 17647 net.cpp:156] Memory required for data: 763479072
I0403 18:46:25.270941 17647 layer_factory.hpp:77] Creating layer inception_3b/pool_proj
I0403 18:46:25.270969 17647 net.cpp:91] Creating Layer inception_3b/pool_proj
I0403 18:46:25.270987 17647 net.cpp:425] inception_3b/pool_proj <- inception_3b/pool
I0403 18:46:25.271009 17647 net.cpp:399] inception_3b/pool_proj -> inception_3b/pool_proj
I0403 18:46:25.272089 17647 net.cpp:141] Setting up inception_3b/pool_proj
I0403 18:46:25.272117 17647 net.cpp:148] Top shape: 24 64 28 28 (1204224)
I0403 18:46:25.272133 17647 net.cpp:156] Memory required for data: 768295968
I0403 18:46:25.272153 17647 layer_factory.hpp:77] Creating layer inception_3b/relu_pool_proj
I0403 18:46:25.272173 17647 net.cpp:91] Creating Layer inception_3b/relu_pool_proj
I0403 18:46:25.272189 17647 net.cpp:425] inception_3b/relu_pool_proj <- inception_3b/pool_proj
I0403 18:46:25.272208 17647 net.cpp:386] inception_3b/relu_pool_proj -> inception_3b/pool_proj (in-place)
I0403 18:46:25.272609 17647 net.cpp:141] Setting up inception_3b/relu_pool_proj
I0403 18:46:25.272637 17647 net.cpp:148] Top shape: 24 64 28 28 (1204224)
I0403 18:46:25.272655 17647 net.cpp:156] Memory required for data: 773112864
I0403 18:46:25.272671 17647 layer_factory.hpp:77] Creating layer inception_3b/output
I0403 18:46:25.272689 17647 net.cpp:91] Creating Layer inception_3b/output
I0403 18:46:25.272706 17647 net.cpp:425] inception_3b/output <- inception_3b/1x1
I0403 18:46:25.272722 17647 net.cpp:425] inception_3b/output <- inception_3b/3x3
I0403 18:46:25.272739 17647 net.cpp:425] inception_3b/output <- inception_3b/5x5
I0403 18:46:25.272755 17647 net.cpp:425] inception_3b/output <- inception_3b/pool_proj
I0403 18:46:25.272773 17647 net.cpp:399] inception_3b/output -> inception_3b/output
I0403 18:46:25.272819 17647 net.cpp:141] Setting up inception_3b/output
I0403 18:46:25.272842 17647 net.cpp:148] Top shape: 24 480 28 28 (9031680)
I0403 18:46:25.272857 17647 net.cpp:156] Memory required for data: 809239584
I0403 18:46:25.272871 17647 layer_factory.hpp:77] Creating layer pool3/3x3_s2
I0403 18:46:25.272892 17647 net.cpp:91] Creating Layer pool3/3x3_s2
I0403 18:46:25.272910 17647 net.cpp:425] pool3/3x3_s2 <- inception_3b/output
I0403 18:46:25.272943 17647 net.cpp:399] pool3/3x3_s2 -> pool3/3x3_s2
I0403 18:46:25.273010 17647 net.cpp:141] Setting up pool3/3x3_s2
I0403 18:46:25.273033 17647 net.cpp:148] Top shape: 24 480 14 14 (2257920)
I0403 18:46:25.273048 17647 net.cpp:156] Memory required for data: 818271264
I0403 18:46:25.273063 17647 layer_factory.hpp:77] Creating layer pool3/3x3_s2_pool3/3x3_s2_0_split
I0403 18:46:25.273082 17647 net.cpp:91] Creating Layer pool3/3x3_s2_pool3/3x3_s2_0_split
I0403 18:46:25.273097 17647 net.cpp:425] pool3/3x3_s2_pool3/3x3_s2_0_split <- pool3/3x3_s2
I0403 18:46:25.273116 17647 net.cpp:399] pool3/3x3_s2_pool3/3x3_s2_0_split -> pool3/3x3_s2_pool3/3x3_s2_0_split_0
I0403 18:46:25.273138 17647 net.cpp:399] pool3/3x3_s2_pool3/3x3_s2_0_split -> pool3/3x3_s2_pool3/3x3_s2_0_split_1
I0403 18:46:25.273159 17647 net.cpp:399] pool3/3x3_s2_pool3/3x3_s2_0_split -> pool3/3x3_s2_pool3/3x3_s2_0_split_2
I0403 18:46:25.273178 17647 net.cpp:399] pool3/3x3_s2_pool3/3x3_s2_0_split -> pool3/3x3_s2_pool3/3x3_s2_0_split_3
I0403 18:46:25.273259 17647 net.cpp:141] Setting up pool3/3x3_s2_pool3/3x3_s2_0_split
I0403 18:46:25.273283 17647 net.cpp:148] Top shape: 24 480 14 14 (2257920)
I0403 18:46:25.273298 17647 net.cpp:148] Top shape: 24 480 14 14 (2257920)
I0403 18:46:25.273314 17647 net.cpp:148] Top shape: 24 480 14 14 (2257920)
I0403 18:46:25.273329 17647 net.cpp:148] Top shape: 24 480 14 14 (2257920)
I0403 18:46:25.273344 17647 net.cpp:156] Memory required for data: 854397984
I0403 18:46:25.273358 17647 layer_factory.hpp:77] Creating layer inception_4a/1x1
I0403 18:46:25.273382 17647 net.cpp:91] Creating Layer inception_4a/1x1
I0403 18:46:25.273401 17647 net.cpp:425] inception_4a/1x1 <- pool3/3x3_s2_pool3/3x3_s2_0_split_0
I0403 18:46:25.273419 17647 net.cpp:399] inception_4a/1x1 -> inception_4a/1x1
I0403 18:46:25.275022 17647 net.cpp:141] Setting up inception_4a/1x1
I0403 18:46:25.275051 17647 net.cpp:148] Top shape: 24 192 14 14 (903168)
I0403 18:46:25.275068 17647 net.cpp:156] Memory required for data: 858010656
I0403 18:46:25.275087 17647 layer_factory.hpp:77] Creating layer inception_4a/relu_1x1
I0403 18:46:25.275105 17647 net.cpp:91] Creating Layer inception_4a/relu_1x1
I0403 18:46:25.275121 17647 net.cpp:425] inception_4a/relu_1x1 <- inception_4a/1x1
I0403 18:46:25.275141 17647 net.cpp:386] inception_4a/relu_1x1 -> inception_4a/1x1 (in-place)
I0403 18:46:25.275318 17647 net.cpp:141] Setting up inception_4a/relu_1x1
I0403 18:46:25.275343 17647 net.cpp:148] Top shape: 24 192 14 14 (903168)
I0403 18:46:25.275358 17647 net.cpp:156] Memory required for data: 861623328
I0403 18:46:25.275373 17647 layer_factory.hpp:77] Creating layer inception_4a/3x3_reduce
I0403 18:46:25.275396 17647 net.cpp:91] Creating Layer inception_4a/3x3_reduce
I0403 18:46:25.275413 17647 net.cpp:425] inception_4a/3x3_reduce <- pool3/3x3_s2_pool3/3x3_s2_0_split_1
I0403 18:46:25.275435 17647 net.cpp:399] inception_4a/3x3_reduce -> inception_4a/3x3_reduce
I0403 18:46:25.276723 17647 net.cpp:141] Setting up inception_4a/3x3_reduce
I0403 18:46:25.276757 17647 net.cpp:148] Top shape: 24 96 14 14 (451584)
I0403 18:46:25.276773 17647 net.cpp:156] Memory required for data: 863429664
I0403 18:46:25.276796 17647 layer_factory.hpp:77] Creating layer inception_4a/relu_3x3_reduce
I0403 18:46:25.276818 17647 net.cpp:91] Creating Layer inception_4a/relu_3x3_reduce
I0403 18:46:25.276835 17647 net.cpp:425] inception_4a/relu_3x3_reduce <- inception_4a/3x3_reduce
I0403 18:46:25.276854 17647 net.cpp:386] inception_4a/relu_3x3_reduce -> inception_4a/3x3_reduce (in-place)
I0403 18:46:25.277037 17647 net.cpp:141] Setting up inception_4a/relu_3x3_reduce
I0403 18:46:25.277062 17647 net.cpp:148] Top shape: 24 96 14 14 (451584)
I0403 18:46:25.277078 17647 net.cpp:156] Memory required for data: 865236000
I0403 18:46:25.277093 17647 layer_factory.hpp:77] Creating layer inception_4a/3x3
I0403 18:46:25.277115 17647 net.cpp:91] Creating Layer inception_4a/3x3
I0403 18:46:25.277133 17647 net.cpp:425] inception_4a/3x3 <- inception_4a/3x3_reduce
I0403 18:46:25.277155 17647 net.cpp:399] inception_4a/3x3 -> inception_4a/3x3
I0403 18:46:25.279871 17647 net.cpp:141] Setting up inception_4a/3x3
I0403 18:46:25.279902 17647 net.cpp:148] Top shape: 24 208 14 14 (978432)
I0403 18:46:25.279918 17647 net.cpp:156] Memory required for data: 869149728
I0403 18:46:25.279937 17647 layer_factory.hpp:77] Creating layer inception_4a/relu_3x3
I0403 18:46:25.279961 17647 net.cpp:91] Creating Layer inception_4a/relu_3x3
I0403 18:46:25.279983 17647 net.cpp:425] inception_4a/relu_3x3 <- inception_4a/3x3
I0403 18:46:25.280000 17647 net.cpp:386] inception_4a/relu_3x3 -> inception_4a/3x3 (in-place)
I0403 18:46:25.280284 17647 net.cpp:141] Setting up inception_4a/relu_3x3
I0403 18:46:25.280311 17647 net.cpp:148] Top shape: 24 208 14 14 (978432)
I0403 18:46:25.280328 17647 net.cpp:156] Memory required for data: 873063456
I0403 18:46:25.280342 17647 layer_factory.hpp:77] Creating layer inception_4a/5x5_reduce
I0403 18:46:25.280366 17647 net.cpp:91] Creating Layer inception_4a/5x5_reduce
I0403 18:46:25.280385 17647 net.cpp:425] inception_4a/5x5_reduce <- pool3/3x3_s2_pool3/3x3_s2_0_split_2
I0403 18:46:25.280406 17647 net.cpp:399] inception_4a/5x5_reduce -> inception_4a/5x5_reduce
I0403 18:46:25.281440 17647 net.cpp:141] Setting up inception_4a/5x5_reduce
I0403 18:46:25.281467 17647 net.cpp:148] Top shape: 24 16 14 14 (75264)
I0403 18:46:25.281483 17647 net.cpp:156] Memory required for data: 873364512
I0403 18:46:25.281502 17647 layer_factory.hpp:77] Creating layer inception_4a/relu_5x5_reduce
I0403 18:46:25.281524 17647 net.cpp:91] Creating Layer inception_4a/relu_5x5_reduce
I0403 18:46:25.281541 17647 net.cpp:425] inception_4a/relu_5x5_reduce <- inception_4a/5x5_reduce
I0403 18:46:25.281559 17647 net.cpp:386] inception_4a/relu_5x5_reduce -> inception_4a/5x5_reduce (in-place)
I0403 18:46:25.281740 17647 net.cpp:141] Setting up inception_4a/relu_5x5_reduce
I0403 18:46:25.281765 17647 net.cpp:148] Top shape: 24 16 14 14 (75264)
I0403 18:46:25.281780 17647 net.cpp:156] Memory required for data: 873665568
I0403 18:46:25.281795 17647 layer_factory.hpp:77] Creating layer inception_4a/5x5
I0403 18:46:25.281819 17647 net.cpp:91] Creating Layer inception_4a/5x5
I0403 18:46:25.281837 17647 net.cpp:425] inception_4a/5x5 <- inception_4a/5x5_reduce
I0403 18:46:25.281857 17647 net.cpp:399] inception_4a/5x5 -> inception_4a/5x5
I0403 18:46:25.282968 17647 net.cpp:141] Setting up inception_4a/5x5
I0403 18:46:25.282997 17647 net.cpp:148] Top shape: 24 48 14 14 (225792)
I0403 18:46:25.283015 17647 net.cpp:156] Memory required for data: 874568736
I0403 18:46:25.283032 17647 layer_factory.hpp:77] Creating layer inception_4a/relu_5x5
I0403 18:46:25.283051 17647 net.cpp:91] Creating Layer inception_4a/relu_5x5
I0403 18:46:25.283067 17647 net.cpp:425] inception_4a/relu_5x5 <- inception_4a/5x5
I0403 18:46:25.283085 17647 net.cpp:386] inception_4a/relu_5x5 -> inception_4a/5x5 (in-place)
I0403 18:46:25.283267 17647 net.cpp:141] Setting up inception_4a/relu_5x5
I0403 18:46:25.283296 17647 net.cpp:148] Top shape: 24 48 14 14 (225792)
I0403 18:46:25.283313 17647 net.cpp:156] Memory required for data: 875471904
I0403 18:46:25.283329 17647 layer_factory.hpp:77] Creating layer inception_4a/pool
I0403 18:46:25.283346 17647 net.cpp:91] Creating Layer inception_4a/pool
I0403 18:46:25.283363 17647 net.cpp:425] inception_4a/pool <- pool3/3x3_s2_pool3/3x3_s2_0_split_3
I0403 18:46:25.283386 17647 net.cpp:399] inception_4a/pool -> inception_4a/pool
I0403 18:46:25.283449 17647 net.cpp:141] Setting up inception_4a/pool
I0403 18:46:25.283476 17647 net.cpp:148] Top shape: 24 480 14 14 (2257920)
I0403 18:46:25.283491 17647 net.cpp:156] Memory required for data: 884503584
I0403 18:46:25.283507 17647 layer_factory.hpp:77] Creating layer inception_4a/pool_proj
I0403 18:46:25.283527 17647 net.cpp:91] Creating Layer inception_4a/pool_proj
I0403 18:46:25.283545 17647 net.cpp:425] inception_4a/pool_proj <- inception_4a/pool
I0403 18:46:25.283565 17647 net.cpp:399] inception_4a/pool_proj -> inception_4a/pool_proj
I0403 18:46:25.284780 17647 net.cpp:141] Setting up inception_4a/pool_proj
I0403 18:46:25.284812 17647 net.cpp:148] Top shape: 24 64 14 14 (301056)
I0403 18:46:25.284844 17647 net.cpp:156] Memory required for data: 885707808
I0403 18:46:25.284865 17647 layer_factory.hpp:77] Creating layer inception_4a/relu_pool_proj
I0403 18:46:25.284885 17647 net.cpp:91] Creating Layer inception_4a/relu_pool_proj
I0403 18:46:25.284903 17647 net.cpp:425] inception_4a/relu_pool_proj <- inception_4a/pool_proj
I0403 18:46:25.284920 17647 net.cpp:386] inception_4a/relu_pool_proj -> inception_4a/pool_proj (in-place)
I0403 18:46:25.285233 17647 net.cpp:141] Setting up inception_4a/relu_pool_proj
I0403 18:46:25.285261 17647 net.cpp:148] Top shape: 24 64 14 14 (301056)
I0403 18:46:25.285277 17647 net.cpp:156] Memory required for data: 886912032
I0403 18:46:25.285293 17647 layer_factory.hpp:77] Creating layer inception_4a/output
I0403 18:46:25.285322 17647 net.cpp:91] Creating Layer inception_4a/output
I0403 18:46:25.285337 17647 net.cpp:425] inception_4a/output <- inception_4a/1x1
I0403 18:46:25.285353 17647 net.cpp:425] inception_4a/output <- inception_4a/3x3
I0403 18:46:25.285369 17647 net.cpp:425] inception_4a/output <- inception_4a/5x5
I0403 18:46:25.285387 17647 net.cpp:425] inception_4a/output <- inception_4a/pool_proj
I0403 18:46:25.285403 17647 net.cpp:399] inception_4a/output -> inception_4a/output
I0403 18:46:25.285449 17647 net.cpp:141] Setting up inception_4a/output
I0403 18:46:25.285471 17647 net.cpp:148] Top shape: 24 512 14 14 (2408448)
I0403 18:46:25.285485 17647 net.cpp:156] Memory required for data: 896545824
I0403 18:46:25.285500 17647 layer_factory.hpp:77] Creating layer inception_4a/output_inception_4a/output_0_split
I0403 18:46:25.285518 17647 net.cpp:91] Creating Layer inception_4a/output_inception_4a/output_0_split
I0403 18:46:25.285536 17647 net.cpp:425] inception_4a/output_inception_4a/output_0_split <- inception_4a/output
I0403 18:46:25.285553 17647 net.cpp:399] inception_4a/output_inception_4a/output_0_split -> inception_4a/output_inception_4a/output_0_split_0
I0403 18:46:25.285573 17647 net.cpp:399] inception_4a/output_inception_4a/output_0_split -> inception_4a/output_inception_4a/output_0_split_1
I0403 18:46:25.285594 17647 net.cpp:399] inception_4a/output_inception_4a/output_0_split -> inception_4a/output_inception_4a/output_0_split_2
I0403 18:46:25.285616 17647 net.cpp:399] inception_4a/output_inception_4a/output_0_split -> inception_4a/output_inception_4a/output_0_split_3
I0403 18:46:25.285637 17647 net.cpp:399] inception_4a/output_inception_4a/output_0_split -> inception_4a/output_inception_4a/output_0_split_4
I0403 18:46:25.285729 17647 net.cpp:141] Setting up inception_4a/output_inception_4a/output_0_split
I0403 18:46:25.285753 17647 net.cpp:148] Top shape: 24 512 14 14 (2408448)
I0403 18:46:25.285769 17647 net.cpp:148] Top shape: 24 512 14 14 (2408448)
I0403 18:46:25.285784 17647 net.cpp:148] Top shape: 24 512 14 14 (2408448)
I0403 18:46:25.285800 17647 net.cpp:148] Top shape: 24 512 14 14 (2408448)
I0403 18:46:25.285815 17647 net.cpp:148] Top shape: 24 512 14 14 (2408448)
I0403 18:46:25.285830 17647 net.cpp:156] Memory required for data: 944714784
I0403 18:46:25.285845 17647 layer_factory.hpp:77] Creating layer loss1/ave_pool
I0403 18:46:25.285863 17647 net.cpp:91] Creating Layer loss1/ave_pool
I0403 18:46:25.285881 17647 net.cpp:425] loss1/ave_pool <- inception_4a/output_inception_4a/output_0_split_0
I0403 18:46:25.285897 17647 net.cpp:399] loss1/ave_pool -> loss1/ave_pool
I0403 18:46:25.286104 17647 net.cpp:141] Setting up loss1/ave_pool
I0403 18:46:25.286133 17647 net.cpp:148] Top shape: 24 512 4 4 (196608)
I0403 18:46:25.286147 17647 net.cpp:156] Memory required for data: 945501216
I0403 18:46:25.286162 17647 layer_factory.hpp:77] Creating layer loss1/conv
I0403 18:46:25.286185 17647 net.cpp:91] Creating Layer loss1/conv
I0403 18:46:25.286202 17647 net.cpp:425] loss1/conv <- loss1/ave_pool
I0403 18:46:25.286221 17647 net.cpp:399] loss1/conv -> loss1/conv
I0403 18:46:25.287614 17647 net.cpp:141] Setting up loss1/conv
I0403 18:46:25.287642 17647 net.cpp:148] Top shape: 24 128 4 4 (49152)
I0403 18:46:25.287670 17647 net.cpp:156] Memory required for data: 945697824
I0403 18:46:25.287690 17647 layer_factory.hpp:77] Creating layer loss1/relu_conv
I0403 18:46:25.287710 17647 net.cpp:91] Creating Layer loss1/relu_conv
I0403 18:46:25.287727 17647 net.cpp:425] loss1/relu_conv <- loss1/conv
I0403 18:46:25.287744 17647 net.cpp:386] loss1/relu_conv -> loss1/conv (in-place)
I0403 18:46:25.288028 17647 net.cpp:141] Setting up loss1/relu_conv
I0403 18:46:25.288054 17647 net.cpp:148] Top shape: 24 128 4 4 (49152)
I0403 18:46:25.288069 17647 net.cpp:156] Memory required for data: 945894432
I0403 18:46:25.288084 17647 layer_factory.hpp:77] Creating layer loss1/fc
I0403 18:46:25.288110 17647 net.cpp:91] Creating Layer loss1/fc
I0403 18:46:25.288128 17647 net.cpp:425] loss1/fc <- loss1/conv
I0403 18:46:25.288146 17647 net.cpp:399] loss1/fc -> loss1/fc
I0403 18:46:25.305780 17647 net.cpp:141] Setting up loss1/fc
I0403 18:46:25.305812 17647 net.cpp:148] Top shape: 24 1024 (24576)
I0403 18:46:25.305827 17647 net.cpp:156] Memory required for data: 945992736
I0403 18:46:25.305845 17647 layer_factory.hpp:77] Creating layer loss1/relu_fc
I0403 18:46:25.305863 17647 net.cpp:91] Creating Layer loss1/relu_fc
I0403 18:46:25.305879 17647 net.cpp:425] loss1/relu_fc <- loss1/fc
I0403 18:46:25.305898 17647 net.cpp:386] loss1/relu_fc -> loss1/fc (in-place)
I0403 18:46:25.306085 17647 net.cpp:141] Setting up loss1/relu_fc
I0403 18:46:25.306110 17647 net.cpp:148] Top shape: 24 1024 (24576)
I0403 18:46:25.306124 17647 net.cpp:156] Memory required for data: 946091040
I0403 18:46:25.306139 17647 layer_factory.hpp:77] Creating layer loss1/drop_fc
I0403 18:46:25.306164 17647 net.cpp:91] Creating Layer loss1/drop_fc
I0403 18:46:25.306182 17647 net.cpp:425] loss1/drop_fc <- loss1/fc
I0403 18:46:25.306201 17647 net.cpp:386] loss1/drop_fc -> loss1/fc (in-place)
I0403 18:46:25.306252 17647 net.cpp:141] Setting up loss1/drop_fc
I0403 18:46:25.306274 17647 net.cpp:148] Top shape: 24 1024 (24576)
I0403 18:46:25.306289 17647 net.cpp:156] Memory required for data: 946189344
I0403 18:46:25.306303 17647 layer_factory.hpp:77] Creating layer loss1/classifier_plantvillage
I0403 18:46:25.306325 17647 net.cpp:91] Creating Layer loss1/classifier_plantvillage
I0403 18:46:25.306344 17647 net.cpp:425] loss1/classifier_plantvillage <- loss1/fc
I0403 18:46:25.306365 17647 net.cpp:399] loss1/classifier_plantvillage -> loss1/classifier_plantvillage
I0403 18:46:25.307260 17647 net.cpp:141] Setting up loss1/classifier_plantvillage
I0403 18:46:25.307289 17647 net.cpp:148] Top shape: 24 38 (912)
I0403 18:46:25.307306 17647 net.cpp:156] Memory required for data: 946192992
I0403 18:46:25.307323 17647 layer_factory.hpp:77] Creating layer loss1/classifier_plantvillage_loss1/classifier_plantvillage_0_split
I0403 18:46:25.307342 17647 net.cpp:91] Creating Layer loss1/classifier_plantvillage_loss1/classifier_plantvillage_0_split
I0403 18:46:25.307358 17647 net.cpp:425] loss1/classifier_plantvillage_loss1/classifier_plantvillage_0_split <- loss1/classifier_plantvillage
I0403 18:46:25.307376 17647 net.cpp:399] loss1/classifier_plantvillage_loss1/classifier_plantvillage_0_split -> loss1/classifier_plantvillage_loss1/classifier_plantvillage_0_split_0
I0403 18:46:25.307399 17647 net.cpp:399] loss1/classifier_plantvillage_loss1/classifier_plantvillage_0_split -> loss1/classifier_plantvillage_loss1/classifier_plantvillage_0_split_1
I0403 18:46:25.307417 17647 net.cpp:399] loss1/classifier_plantvillage_loss1/classifier_plantvillage_0_split -> loss1/classifier_plantvillage_loss1/classifier_plantvillage_0_split_2
I0403 18:46:25.307483 17647 net.cpp:141] Setting up loss1/classifier_plantvillage_loss1/classifier_plantvillage_0_split
I0403 18:46:25.307507 17647 net.cpp:148] Top shape: 24 38 (912)
I0403 18:46:25.307521 17647 net.cpp:148] Top shape: 24 38 (912)
I0403 18:46:25.307538 17647 net.cpp:148] Top shape: 24 38 (912)
I0403 18:46:25.307550 17647 net.cpp:156] Memory required for data: 946203936
I0403 18:46:25.307564 17647 layer_factory.hpp:77] Creating layer inception_4b/1x1
I0403 18:46:25.307586 17647 net.cpp:91] Creating Layer inception_4b/1x1
I0403 18:46:25.307618 17647 net.cpp:425] inception_4b/1x1 <- inception_4a/output_inception_4a/output_0_split_1
I0403 18:46:25.307638 17647 net.cpp:399] inception_4b/1x1 -> inception_4b/1x1
I0403 18:46:25.309288 17647 net.cpp:141] Setting up inception_4b/1x1
I0403 18:46:25.309317 17647 net.cpp:148] Top shape: 24 160 14 14 (752640)
I0403 18:46:25.309334 17647 net.cpp:156] Memory required for data: 949214496
I0403 18:46:25.309351 17647 layer_factory.hpp:77] Creating layer inception_4b/relu_1x1
I0403 18:46:25.309371 17647 net.cpp:91] Creating Layer inception_4b/relu_1x1
I0403 18:46:25.309388 17647 net.cpp:425] inception_4b/relu_1x1 <- inception_4b/1x1
I0403 18:46:25.309406 17647 net.cpp:386] inception_4b/relu_1x1 -> inception_4b/1x1 (in-place)
I0403 18:46:25.309583 17647 net.cpp:141] Setting up inception_4b/relu_1x1
I0403 18:46:25.309607 17647 net.cpp:148] Top shape: 24 160 14 14 (752640)
I0403 18:46:25.309623 17647 net.cpp:156] Memory required for data: 952225056
I0403 18:46:25.309636 17647 layer_factory.hpp:77] Creating layer inception_4b/3x3_reduce
I0403 18:46:25.309659 17647 net.cpp:91] Creating Layer inception_4b/3x3_reduce
I0403 18:46:25.309677 17647 net.cpp:425] inception_4b/3x3_reduce <- inception_4a/output_inception_4a/output_0_split_2
I0403 18:46:25.309695 17647 net.cpp:399] inception_4b/3x3_reduce -> inception_4b/3x3_reduce
I0403 18:46:25.311053 17647 net.cpp:141] Setting up inception_4b/3x3_reduce
I0403 18:46:25.311080 17647 net.cpp:148] Top shape: 24 112 14 14 (526848)
I0403 18:46:25.311096 17647 net.cpp:156] Memory required for data: 954332448
I0403 18:46:25.311115 17647 layer_factory.hpp:77] Creating layer inception_4b/relu_3x3_reduce
I0403 18:46:25.311134 17647 net.cpp:91] Creating Layer inception_4b/relu_3x3_reduce
I0403 18:46:25.311151 17647 net.cpp:425] inception_4b/relu_3x3_reduce <- inception_4b/3x3_reduce
I0403 18:46:25.311167 17647 net.cpp:386] inception_4b/relu_3x3_reduce -> inception_4b/3x3_reduce (in-place)
I0403 18:46:25.311453 17647 net.cpp:141] Setting up inception_4b/relu_3x3_reduce
I0403 18:46:25.311478 17647 net.cpp:148] Top shape: 24 112 14 14 (526848)
I0403 18:46:25.311494 17647 net.cpp:156] Memory required for data: 956439840
I0403 18:46:25.311509 17647 layer_factory.hpp:77] Creating layer inception_4b/3x3
I0403 18:46:25.311530 17647 net.cpp:91] Creating Layer inception_4b/3x3
I0403 18:46:25.311547 17647 net.cpp:425] inception_4b/3x3 <- inception_4b/3x3_reduce
I0403 18:46:25.311568 17647 net.cpp:399] inception_4b/3x3 -> inception_4b/3x3
I0403 18:46:25.314532 17647 net.cpp:141] Setting up inception_4b/3x3
I0403 18:46:25.314565 17647 net.cpp:148] Top shape: 24 224 14 14 (1053696)
I0403 18:46:25.314581 17647 net.cpp:156] Memory required for data: 960654624
I0403 18:46:25.314600 17647 layer_factory.hpp:77] Creating layer inception_4b/relu_3x3
I0403 18:46:25.314618 17647 net.cpp:91] Creating Layer inception_4b/relu_3x3
I0403 18:46:25.314635 17647 net.cpp:425] inception_4b/relu_3x3 <- inception_4b/3x3
I0403 18:46:25.314653 17647 net.cpp:386] inception_4b/relu_3x3 -> inception_4b/3x3 (in-place)
I0403 18:46:25.314836 17647 net.cpp:141] Setting up inception_4b/relu_3x3
I0403 18:46:25.314862 17647 net.cpp:148] Top shape: 24 224 14 14 (1053696)
I0403 18:46:25.314875 17647 net.cpp:156] Memory required for data: 964869408
I0403 18:46:25.314889 17647 layer_factory.hpp:77] Creating layer inception_4b/5x5_reduce
I0403 18:46:25.314913 17647 net.cpp:91] Creating Layer inception_4b/5x5_reduce
I0403 18:46:25.314930 17647 net.cpp:425] inception_4b/5x5_reduce <- inception_4a/output_inception_4a/output_0_split_3
I0403 18:46:25.314956 17647 net.cpp:399] inception_4b/5x5_reduce -> inception_4b/5x5_reduce
I0403 18:46:25.316078 17647 net.cpp:141] Setting up inception_4b/5x5_reduce
I0403 18:46:25.316108 17647 net.cpp:148] Top shape: 24 24 14 14 (112896)
I0403 18:46:25.316124 17647 net.cpp:156] Memory required for data: 965320992
I0403 18:46:25.316143 17647 layer_factory.hpp:77] Creating layer inception_4b/relu_5x5_reduce
I0403 18:46:25.316165 17647 net.cpp:91] Creating Layer inception_4b/relu_5x5_reduce
I0403 18:46:25.316197 17647 net.cpp:425] inception_4b/relu_5x5_reduce <- inception_4b/5x5_reduce
I0403 18:46:25.316226 17647 net.cpp:386] inception_4b/relu_5x5_reduce -> inception_4b/5x5_reduce (in-place)
I0403 18:46:25.316426 17647 net.cpp:141] Setting up inception_4b/relu_5x5_reduce
I0403 18:46:25.316454 17647 net.cpp:148] Top shape: 24 24 14 14 (112896)
I0403 18:46:25.316470 17647 net.cpp:156] Memory required for data: 965772576
I0403 18:46:25.316485 17647 layer_factory.hpp:77] Creating layer inception_4b/5x5
I0403 18:46:25.316509 17647 net.cpp:91] Creating Layer inception_4b/5x5
I0403 18:46:25.316526 17647 net.cpp:425] inception_4b/5x5 <- inception_4b/5x5_reduce
I0403 18:46:25.316546 17647 net.cpp:399] inception_4b/5x5 -> inception_4b/5x5
I0403 18:46:25.317806 17647 net.cpp:141] Setting up inception_4b/5x5
I0403 18:46:25.317834 17647 net.cpp:148] Top shape: 24 64 14 14 (301056)
I0403 18:46:25.317850 17647 net.cpp:156] Memory required for data: 966976800
I0403 18:46:25.317869 17647 layer_factory.hpp:77] Creating layer inception_4b/relu_5x5
I0403 18:46:25.317890 17647 net.cpp:91] Creating Layer inception_4b/relu_5x5
I0403 18:46:25.317908 17647 net.cpp:425] inception_4b/relu_5x5 <- inception_4b/5x5
I0403 18:46:25.317925 17647 net.cpp:386] inception_4b/relu_5x5 -> inception_4b/5x5 (in-place)
I0403 18:46:25.318220 17647 net.cpp:141] Setting up inception_4b/relu_5x5
I0403 18:46:25.318248 17647 net.cpp:148] Top shape: 24 64 14 14 (301056)
I0403 18:46:25.318262 17647 net.cpp:156] Memory required for data: 968181024
I0403 18:46:25.318279 17647 layer_factory.hpp:77] Creating layer inception_4b/pool
I0403 18:46:25.318297 17647 net.cpp:91] Creating Layer inception_4b/pool
I0403 18:46:25.318320 17647 net.cpp:425] inception_4b/pool <- inception_4a/output_inception_4a/output_0_split_4
I0403 18:46:25.318338 17647 net.cpp:399] inception_4b/pool -> inception_4b/pool
I0403 18:46:25.318404 17647 net.cpp:141] Setting up inception_4b/pool
I0403 18:46:25.318428 17647 net.cpp:148] Top shape: 24 512 14 14 (2408448)
I0403 18:46:25.318444 17647 net.cpp:156] Memory required for data: 977814816
I0403 18:46:25.318459 17647 layer_factory.hpp:77] Creating layer inception_4b/pool_proj
I0403 18:46:25.318480 17647 net.cpp:91] Creating Layer inception_4b/pool_proj
I0403 18:46:25.318498 17647 net.cpp:425] inception_4b/pool_proj <- inception_4b/pool
I0403 18:46:25.318521 17647 net.cpp:399] inception_4b/pool_proj -> inception_4b/pool_proj
I0403 18:46:25.319771 17647 net.cpp:141] Setting up inception_4b/pool_proj
I0403 18:46:25.319799 17647 net.cpp:148] Top shape: 24 64 14 14 (301056)
I0403 18:46:25.319815 17647 net.cpp:156] Memory required for data: 979019040
I0403 18:46:25.319833 17647 layer_factory.hpp:77] Creating layer inception_4b/relu_pool_proj
I0403 18:46:25.319855 17647 net.cpp:91] Creating Layer inception_4b/relu_pool_proj
I0403 18:46:25.319872 17647 net.cpp:425] inception_4b/relu_pool_proj <- inception_4b/pool_proj
I0403 18:46:25.319890 17647 net.cpp:386] inception_4b/relu_pool_proj -> inception_4b/pool_proj (in-place)
I0403 18:46:25.320080 17647 net.cpp:141] Setting up inception_4b/relu_pool_proj
I0403 18:46:25.320106 17647 net.cpp:148] Top shape: 24 64 14 14 (301056)
I0403 18:46:25.320121 17647 net.cpp:156] Memory required for data: 980223264
I0403 18:46:25.320135 17647 layer_factory.hpp:77] Creating layer inception_4b/output
I0403 18:46:25.320155 17647 net.cpp:91] Creating Layer inception_4b/output
I0403 18:46:25.320171 17647 net.cpp:425] inception_4b/output <- inception_4b/1x1
I0403 18:46:25.320188 17647 net.cpp:425] inception_4b/output <- inception_4b/3x3
I0403 18:46:25.320206 17647 net.cpp:425] inception_4b/output <- inception_4b/5x5
I0403 18:46:25.320222 17647 net.cpp:425] inception_4b/output <- inception_4b/pool_proj
I0403 18:46:25.320240 17647 net.cpp:399] inception_4b/output -> inception_4b/output
I0403 18:46:25.320288 17647 net.cpp:141] Setting up inception_4b/output
I0403 18:46:25.320312 17647 net.cpp:148] Top shape: 24 512 14 14 (2408448)
I0403 18:46:25.320327 17647 net.cpp:156] Memory required for data: 989857056
I0403 18:46:25.320355 17647 layer_factory.hpp:77] Creating layer inception_4b/output_inception_4b/output_0_split
I0403 18:46:25.320374 17647 net.cpp:91] Creating Layer inception_4b/output_inception_4b/output_0_split
I0403 18:46:25.320389 17647 net.cpp:425] inception_4b/output_inception_4b/output_0_split <- inception_4b/output
I0403 18:46:25.320410 17647 net.cpp:399] inception_4b/output_inception_4b/output_0_split -> inception_4b/output_inception_4b/output_0_split_0
I0403 18:46:25.320431 17647 net.cpp:399] inception_4b/output_inception_4b/output_0_split -> inception_4b/output_inception_4b/output_0_split_1
I0403 18:46:25.320452 17647 net.cpp:399] inception_4b/output_inception_4b/output_0_split -> inception_4b/output_inception_4b/output_0_split_2
I0403 18:46:25.320473 17647 net.cpp:399] inception_4b/output_inception_4b/output_0_split -> inception_4b/output_inception_4b/output_0_split_3
I0403 18:46:25.320562 17647 net.cpp:141] Setting up inception_4b/output_inception_4b/output_0_split
I0403 18:46:25.320586 17647 net.cpp:148] Top shape: 24 512 14 14 (2408448)
I0403 18:46:25.320602 17647 net.cpp:148] Top shape: 24 512 14 14 (2408448)
I0403 18:46:25.320618 17647 net.cpp:148] Top shape: 24 512 14 14 (2408448)
I0403 18:46:25.320633 17647 net.cpp:148] Top shape: 24 512 14 14 (2408448)
I0403 18:46:25.320647 17647 net.cpp:156] Memory required for data: 1028392224
I0403 18:46:25.320662 17647 layer_factory.hpp:77] Creating layer inception_4c/1x1
I0403 18:46:25.320684 17647 net.cpp:91] Creating Layer inception_4c/1x1
I0403 18:46:25.320703 17647 net.cpp:425] inception_4c/1x1 <- inception_4b/output_inception_4b/output_0_split_0
I0403 18:46:25.320722 17647 net.cpp:399] inception_4c/1x1 -> inception_4c/1x1
I0403 18:46:25.322197 17647 net.cpp:141] Setting up inception_4c/1x1
I0403 18:46:25.322228 17647 net.cpp:148] Top shape: 24 128 14 14 (602112)
I0403 18:46:25.322245 17647 net.cpp:156] Memory required for data: 1030800672
I0403 18:46:25.322264 17647 layer_factory.hpp:77] Creating layer inception_4c/relu_1x1
I0403 18:46:25.322283 17647 net.cpp:91] Creating Layer inception_4c/relu_1x1
I0403 18:46:25.322299 17647 net.cpp:425] inception_4c/relu_1x1 <- inception_4c/1x1
I0403 18:46:25.322319 17647 net.cpp:386] inception_4c/relu_1x1 -> inception_4c/1x1 (in-place)
I0403 18:46:25.322504 17647 net.cpp:141] Setting up inception_4c/relu_1x1
I0403 18:46:25.322530 17647 net.cpp:148] Top shape: 24 128 14 14 (602112)
I0403 18:46:25.322545 17647 net.cpp:156] Memory required for data: 1033209120
I0403 18:46:25.322559 17647 layer_factory.hpp:77] Creating layer inception_4c/3x3_reduce
I0403 18:46:25.322582 17647 net.cpp:91] Creating Layer inception_4c/3x3_reduce
I0403 18:46:25.322600 17647 net.cpp:425] inception_4c/3x3_reduce <- inception_4b/output_inception_4b/output_0_split_1
I0403 18:46:25.322623 17647 net.cpp:399] inception_4c/3x3_reduce -> inception_4c/3x3_reduce
I0403 18:46:25.324606 17647 net.cpp:141] Setting up inception_4c/3x3_reduce
I0403 18:46:25.324636 17647 net.cpp:148] Top shape: 24 128 14 14 (602112)
I0403 18:46:25.324652 17647 net.cpp:156] Memory required for data: 1035617568
I0403 18:46:25.324671 17647 layer_factory.hpp:77] Creating layer inception_4c/relu_3x3_reduce
I0403 18:46:25.324690 17647 net.cpp:91] Creating Layer inception_4c/relu_3x3_reduce
I0403 18:46:25.324707 17647 net.cpp:425] inception_4c/relu_3x3_reduce <- inception_4c/3x3_reduce
I0403 18:46:25.324726 17647 net.cpp:386] inception_4c/relu_3x3_reduce -> inception_4c/3x3_reduce (in-place)
I0403 18:46:25.325027 17647 net.cpp:141] Setting up inception_4c/relu_3x3_reduce
I0403 18:46:25.325054 17647 net.cpp:148] Top shape: 24 128 14 14 (602112)
I0403 18:46:25.325070 17647 net.cpp:156] Memory required for data: 1038026016
I0403 18:46:25.325085 17647 layer_factory.hpp:77] Creating layer inception_4c/3x3
I0403 18:46:25.325109 17647 net.cpp:91] Creating Layer inception_4c/3x3
I0403 18:46:25.325129 17647 net.cpp:425] inception_4c/3x3 <- inception_4c/3x3_reduce
I0403 18:46:25.325150 17647 net.cpp:399] inception_4c/3x3 -> inception_4c/3x3
I0403 18:46:25.328860 17647 net.cpp:141] Setting up inception_4c/3x3
I0403 18:46:25.328902 17647 net.cpp:148] Top shape: 24 256 14 14 (1204224)
I0403 18:46:25.328918 17647 net.cpp:156] Memory required for data: 1042842912
I0403 18:46:25.328963 17647 layer_factory.hpp:77] Creating layer inception_4c/relu_3x3
I0403 18:46:25.328987 17647 net.cpp:91] Creating Layer inception_4c/relu_3x3
I0403 18:46:25.329005 17647 net.cpp:425] inception_4c/relu_3x3 <- inception_4c/3x3
I0403 18:46:25.329023 17647 net.cpp:386] inception_4c/relu_3x3 -> inception_4c/3x3 (in-place)
I0403 18:46:25.329212 17647 net.cpp:141] Setting up inception_4c/relu_3x3
I0403 18:46:25.329238 17647 net.cpp:148] Top shape: 24 256 14 14 (1204224)
I0403 18:46:25.329253 17647 net.cpp:156] Memory required for data: 1047659808
I0403 18:46:25.329268 17647 layer_factory.hpp:77] Creating layer inception_4c/5x5_reduce
I0403 18:46:25.329291 17647 net.cpp:91] Creating Layer inception_4c/5x5_reduce
I0403 18:46:25.329310 17647 net.cpp:425] inception_4c/5x5_reduce <- inception_4b/output_inception_4b/output_0_split_2
I0403 18:46:25.329332 17647 net.cpp:399] inception_4c/5x5_reduce -> inception_4c/5x5_reduce
I0403 18:46:25.330471 17647 net.cpp:141] Setting up inception_4c/5x5_reduce
I0403 18:46:25.330499 17647 net.cpp:148] Top shape: 24 24 14 14 (112896)
I0403 18:46:25.330515 17647 net.cpp:156] Memory required for data: 1048111392
I0403 18:46:25.330533 17647 layer_factory.hpp:77] Creating layer inception_4c/relu_5x5_reduce
I0403 18:46:25.330554 17647 net.cpp:91] Creating Layer inception_4c/relu_5x5_reduce
I0403 18:46:25.330572 17647 net.cpp:425] inception_4c/relu_5x5_reduce <- inception_4c/5x5_reduce
I0403 18:46:25.330590 17647 net.cpp:386] inception_4c/relu_5x5_reduce -> inception_4c/5x5_reduce (in-place)
I0403 18:46:25.330780 17647 net.cpp:141] Setting up inception_4c/relu_5x5_reduce
I0403 18:46:25.330806 17647 net.cpp:148] Top shape: 24 24 14 14 (112896)
I0403 18:46:25.330822 17647 net.cpp:156] Memory required for data: 1048562976
I0403 18:46:25.330837 17647 layer_factory.hpp:77] Creating layer inception_4c/5x5
I0403 18:46:25.330858 17647 net.cpp:91] Creating Layer inception_4c/5x5
I0403 18:46:25.330876 17647 net.cpp:425] inception_4c/5x5 <- inception_4c/5x5_reduce
I0403 18:46:25.330899 17647 net.cpp:399] inception_4c/5x5 -> inception_4c/5x5
I0403 18:46:25.332198 17647 net.cpp:141] Setting up inception_4c/5x5
I0403 18:46:25.332226 17647 net.cpp:148] Top shape: 24 64 14 14 (301056)
I0403 18:46:25.332242 17647 net.cpp:156] Memory required for data: 1049767200
I0403 18:46:25.332260 17647 layer_factory.hpp:77] Creating layer inception_4c/relu_5x5
I0403 18:46:25.332281 17647 net.cpp:91] Creating Layer inception_4c/relu_5x5
I0403 18:46:25.332299 17647 net.cpp:425] inception_4c/relu_5x5 <- inception_4c/5x5
I0403 18:46:25.332317 17647 net.cpp:386] inception_4c/relu_5x5 -> inception_4c/5x5 (in-place)
I0403 18:46:25.332615 17647 net.cpp:141] Setting up inception_4c/relu_5x5
I0403 18:46:25.332643 17647 net.cpp:148] Top shape: 24 64 14 14 (301056)
I0403 18:46:25.332658 17647 net.cpp:156] Memory required for data: 1050971424
I0403 18:46:25.332672 17647 layer_factory.hpp:77] Creating layer inception_4c/pool
I0403 18:46:25.332693 17647 net.cpp:91] Creating Layer inception_4c/pool
I0403 18:46:25.332711 17647 net.cpp:425] inception_4c/pool <- inception_4b/output_inception_4b/output_0_split_3
I0403 18:46:25.332731 17647 net.cpp:399] inception_4c/pool -> inception_4c/pool
I0403 18:46:25.332799 17647 net.cpp:141] Setting up inception_4c/pool
I0403 18:46:25.332824 17647 net.cpp:148] Top shape: 24 512 14 14 (2408448)
I0403 18:46:25.332839 17647 net.cpp:156] Memory required for data: 1060605216
I0403 18:46:25.332854 17647 layer_factory.hpp:77] Creating layer inception_4c/pool_proj
I0403 18:46:25.332876 17647 net.cpp:91] Creating Layer inception_4c/pool_proj
I0403 18:46:25.332895 17647 net.cpp:425] inception_4c/pool_proj <- inception_4c/pool
I0403 18:46:25.332916 17647 net.cpp:399] inception_4c/pool_proj -> inception_4c/pool_proj
I0403 18:46:25.334197 17647 net.cpp:141] Setting up inception_4c/pool_proj
I0403 18:46:25.334226 17647 net.cpp:148] Top shape: 24 64 14 14 (301056)
I0403 18:46:25.334256 17647 net.cpp:156] Memory required for data: 1061809440
I0403 18:46:25.334277 17647 layer_factory.hpp:77] Creating layer inception_4c/relu_pool_proj
I0403 18:46:25.334302 17647 net.cpp:91] Creating Layer inception_4c/relu_pool_proj
I0403 18:46:25.334321 17647 net.cpp:425] inception_4c/relu_pool_proj <- inception_4c/pool_proj
I0403 18:46:25.334338 17647 net.cpp:386] inception_4c/relu_pool_proj -> inception_4c/pool_proj (in-place)
I0403 18:46:25.334542 17647 net.cpp:141] Setting up inception_4c/relu_pool_proj
I0403 18:46:25.334568 17647 net.cpp:148] Top shape: 24 64 14 14 (301056)
I0403 18:46:25.334583 17647 net.cpp:156] Memory required for data: 1063013664
I0403 18:46:25.334597 17647 layer_factory.hpp:77] Creating layer inception_4c/output
I0403 18:46:25.334619 17647 net.cpp:91] Creating Layer inception_4c/output
I0403 18:46:25.334635 17647 net.cpp:425] inception_4c/output <- inception_4c/1x1
I0403 18:46:25.334651 17647 net.cpp:425] inception_4c/output <- inception_4c/3x3
I0403 18:46:25.334668 17647 net.cpp:425] inception_4c/output <- inception_4c/5x5
I0403 18:46:25.334686 17647 net.cpp:425] inception_4c/output <- inception_4c/pool_proj
I0403 18:46:25.334702 17647 net.cpp:399] inception_4c/output -> inception_4c/output
I0403 18:46:25.334761 17647 net.cpp:141] Setting up inception_4c/output
I0403 18:46:25.334784 17647 net.cpp:148] Top shape: 24 512 14 14 (2408448)
I0403 18:46:25.334799 17647 net.cpp:156] Memory required for data: 1072647456
I0403 18:46:25.334813 17647 layer_factory.hpp:77] Creating layer inception_4c/output_inception_4c/output_0_split
I0403 18:46:25.334830 17647 net.cpp:91] Creating Layer inception_4c/output_inception_4c/output_0_split
I0403 18:46:25.334846 17647 net.cpp:425] inception_4c/output_inception_4c/output_0_split <- inception_4c/output
I0403 18:46:25.334866 17647 net.cpp:399] inception_4c/output_inception_4c/output_0_split -> inception_4c/output_inception_4c/output_0_split_0
I0403 18:46:25.334887 17647 net.cpp:399] inception_4c/output_inception_4c/output_0_split -> inception_4c/output_inception_4c/output_0_split_1
I0403 18:46:25.334908 17647 net.cpp:399] inception_4c/output_inception_4c/output_0_split -> inception_4c/output_inception_4c/output_0_split_2
I0403 18:46:25.334928 17647 net.cpp:399] inception_4c/output_inception_4c/output_0_split -> inception_4c/output_inception_4c/output_0_split_3
I0403 18:46:25.335019 17647 net.cpp:141] Setting up inception_4c/output_inception_4c/output_0_split
I0403 18:46:25.335042 17647 net.cpp:148] Top shape: 24 512 14 14 (2408448)
I0403 18:46:25.335057 17647 net.cpp:148] Top shape: 24 512 14 14 (2408448)
I0403 18:46:25.335073 17647 net.cpp:148] Top shape: 24 512 14 14 (2408448)
I0403 18:46:25.335088 17647 net.cpp:148] Top shape: 24 512 14 14 (2408448)
I0403 18:46:25.335103 17647 net.cpp:156] Memory required for data: 1111182624
I0403 18:46:25.335116 17647 layer_factory.hpp:77] Creating layer inception_4d/1x1
I0403 18:46:25.335139 17647 net.cpp:91] Creating Layer inception_4d/1x1
I0403 18:46:25.335155 17647 net.cpp:425] inception_4d/1x1 <- inception_4c/output_inception_4c/output_0_split_0
I0403 18:46:25.335176 17647 net.cpp:399] inception_4d/1x1 -> inception_4d/1x1
I0403 18:46:25.336549 17647 net.cpp:141] Setting up inception_4d/1x1
I0403 18:46:25.336578 17647 net.cpp:148] Top shape: 24 112 14 14 (526848)
I0403 18:46:25.336596 17647 net.cpp:156] Memory required for data: 1113290016
I0403 18:46:25.336613 17647 layer_factory.hpp:77] Creating layer inception_4d/relu_1x1
I0403 18:46:25.336630 17647 net.cpp:91] Creating Layer inception_4d/relu_1x1
I0403 18:46:25.336647 17647 net.cpp:425] inception_4d/relu_1x1 <- inception_4d/1x1
I0403 18:46:25.336665 17647 net.cpp:386] inception_4d/relu_1x1 -> inception_4d/1x1 (in-place)
I0403 18:46:25.336849 17647 net.cpp:141] Setting up inception_4d/relu_1x1
I0403 18:46:25.336874 17647 net.cpp:148] Top shape: 24 112 14 14 (526848)
I0403 18:46:25.336887 17647 net.cpp:156] Memory required for data: 1115397408
I0403 18:46:25.336902 17647 layer_factory.hpp:77] Creating layer inception_4d/3x3_reduce
I0403 18:46:25.336938 17647 net.cpp:91] Creating Layer inception_4d/3x3_reduce
I0403 18:46:25.336961 17647 net.cpp:425] inception_4d/3x3_reduce <- inception_4c/output_inception_4c/output_0_split_1
I0403 18:46:25.336983 17647 net.cpp:399] inception_4d/3x3_reduce -> inception_4d/3x3_reduce
I0403 18:46:25.338487 17647 net.cpp:141] Setting up inception_4d/3x3_reduce
I0403 18:46:25.338516 17647 net.cpp:148] Top shape: 24 144 14 14 (677376)
I0403 18:46:25.338532 17647 net.cpp:156] Memory required for data: 1118106912
I0403 18:46:25.338551 17647 layer_factory.hpp:77] Creating layer inception_4d/relu_3x3_reduce
I0403 18:46:25.338568 17647 net.cpp:91] Creating Layer inception_4d/relu_3x3_reduce
I0403 18:46:25.338584 17647 net.cpp:425] inception_4d/relu_3x3_reduce <- inception_4d/3x3_reduce
I0403 18:46:25.338601 17647 net.cpp:386] inception_4d/relu_3x3_reduce -> inception_4d/3x3_reduce (in-place)
I0403 18:46:25.338891 17647 net.cpp:141] Setting up inception_4d/relu_3x3_reduce
I0403 18:46:25.338919 17647 net.cpp:148] Top shape: 24 144 14 14 (677376)
I0403 18:46:25.338935 17647 net.cpp:156] Memory required for data: 1120816416
I0403 18:46:25.338961 17647 layer_factory.hpp:77] Creating layer inception_4d/3x3
I0403 18:46:25.338986 17647 net.cpp:91] Creating Layer inception_4d/3x3
I0403 18:46:25.339004 17647 net.cpp:425] inception_4d/3x3 <- inception_4d/3x3_reduce
I0403 18:46:25.339023 17647 net.cpp:399] inception_4d/3x3 -> inception_4d/3x3
I0403 18:46:25.343263 17647 net.cpp:141] Setting up inception_4d/3x3
I0403 18:46:25.343292 17647 net.cpp:148] Top shape: 24 288 14 14 (1354752)
I0403 18:46:25.343308 17647 net.cpp:156] Memory required for data: 1126235424
I0403 18:46:25.343327 17647 layer_factory.hpp:77] Creating layer inception_4d/relu_3x3
I0403 18:46:25.343344 17647 net.cpp:91] Creating Layer inception_4d/relu_3x3
I0403 18:46:25.343361 17647 net.cpp:425] inception_4d/relu_3x3 <- inception_4d/3x3
I0403 18:46:25.343381 17647 net.cpp:386] inception_4d/relu_3x3 -> inception_4d/3x3 (in-place)
I0403 18:46:25.343565 17647 net.cpp:141] Setting up inception_4d/relu_3x3
I0403 18:46:25.343590 17647 net.cpp:148] Top shape: 24 288 14 14 (1354752)
I0403 18:46:25.343605 17647 net.cpp:156] Memory required for data: 1131654432
I0403 18:46:25.343619 17647 layer_factory.hpp:77] Creating layer inception_4d/5x5_reduce
I0403 18:46:25.343641 17647 net.cpp:91] Creating Layer inception_4d/5x5_reduce
I0403 18:46:25.343659 17647 net.cpp:425] inception_4d/5x5_reduce <- inception_4c/output_inception_4c/output_0_split_2
I0403 18:46:25.343680 17647 net.cpp:399] inception_4d/5x5_reduce -> inception_4d/5x5_reduce
I0403 18:46:25.344841 17647 net.cpp:141] Setting up inception_4d/5x5_reduce
I0403 18:46:25.344868 17647 net.cpp:148] Top shape: 24 32 14 14 (150528)
I0403 18:46:25.344883 17647 net.cpp:156] Memory required for data: 1132256544
I0403 18:46:25.344902 17647 layer_factory.hpp:77] Creating layer inception_4d/relu_5x5_reduce
I0403 18:46:25.344920 17647 net.cpp:91] Creating Layer inception_4d/relu_5x5_reduce
I0403 18:46:25.344936 17647 net.cpp:425] inception_4d/relu_5x5_reduce <- inception_4d/5x5_reduce
I0403 18:46:25.344960 17647 net.cpp:386] inception_4d/relu_5x5_reduce -> inception_4d/5x5_reduce (in-place)
I0403 18:46:25.345150 17647 net.cpp:141] Setting up inception_4d/relu_5x5_reduce
I0403 18:46:25.345175 17647 net.cpp:148] Top shape: 24 32 14 14 (150528)
I0403 18:46:25.345188 17647 net.cpp:156] Memory required for data: 1132858656
I0403 18:46:25.345206 17647 layer_factory.hpp:77] Creating layer inception_4d/5x5
I0403 18:46:25.345227 17647 net.cpp:91] Creating Layer inception_4d/5x5
I0403 18:46:25.345244 17647 net.cpp:425] inception_4d/5x5 <- inception_4d/5x5_reduce
I0403 18:46:25.345265 17647 net.cpp:399] inception_4d/5x5 -> inception_4d/5x5
I0403 18:46:25.346756 17647 net.cpp:141] Setting up inception_4d/5x5
I0403 18:46:25.346784 17647 net.cpp:148] Top shape: 24 64 14 14 (301056)
I0403 18:46:25.346798 17647 net.cpp:156] Memory required for data: 1134062880
I0403 18:46:25.346817 17647 layer_factory.hpp:77] Creating layer inception_4d/relu_5x5
I0403 18:46:25.346851 17647 net.cpp:91] Creating Layer inception_4d/relu_5x5
I0403 18:46:25.346869 17647 net.cpp:425] inception_4d/relu_5x5 <- inception_4d/5x5
I0403 18:46:25.346887 17647 net.cpp:386] inception_4d/relu_5x5 -> inception_4d/5x5 (in-place)
I0403 18:46:25.347196 17647 net.cpp:141] Setting up inception_4d/relu_5x5
I0403 18:46:25.347223 17647 net.cpp:148] Top shape: 24 64 14 14 (301056)
I0403 18:46:25.347237 17647 net.cpp:156] Memory required for data: 1135267104
I0403 18:46:25.347252 17647 layer_factory.hpp:77] Creating layer inception_4d/pool
I0403 18:46:25.347272 17647 net.cpp:91] Creating Layer inception_4d/pool
I0403 18:46:25.347290 17647 net.cpp:425] inception_4d/pool <- inception_4c/output_inception_4c/output_0_split_3
I0403 18:46:25.347307 17647 net.cpp:399] inception_4d/pool -> inception_4d/pool
I0403 18:46:25.347376 17647 net.cpp:141] Setting up inception_4d/pool
I0403 18:46:25.347400 17647 net.cpp:148] Top shape: 24 512 14 14 (2408448)
I0403 18:46:25.347414 17647 net.cpp:156] Memory required for data: 1144900896
I0403 18:46:25.347429 17647 layer_factory.hpp:77] Creating layer inception_4d/pool_proj
I0403 18:46:25.347451 17647 net.cpp:91] Creating Layer inception_4d/pool_proj
I0403 18:46:25.347470 17647 net.cpp:425] inception_4d/pool_proj <- inception_4d/pool
I0403 18:46:25.347491 17647 net.cpp:399] inception_4d/pool_proj -> inception_4d/pool_proj
I0403 18:46:25.349305 17647 net.cpp:141] Setting up inception_4d/pool_proj
I0403 18:46:25.349335 17647 net.cpp:148] Top shape: 24 64 14 14 (301056)
I0403 18:46:25.349351 17647 net.cpp:156] Memory required for data: 1146105120
I0403 18:46:25.349370 17647 layer_factory.hpp:77] Creating layer inception_4d/relu_pool_proj
I0403 18:46:25.349387 17647 net.cpp:91] Creating Layer inception_4d/relu_pool_proj
I0403 18:46:25.349403 17647 net.cpp:425] inception_4d/relu_pool_proj <- inception_4d/pool_proj
I0403 18:46:25.349426 17647 net.cpp:386] inception_4d/relu_pool_proj -> inception_4d/pool_proj (in-place)
I0403 18:46:25.349614 17647 net.cpp:141] Setting up inception_4d/relu_pool_proj
I0403 18:46:25.349638 17647 net.cpp:148] Top shape: 24 64 14 14 (301056)
I0403 18:46:25.349653 17647 net.cpp:156] Memory required for data: 1147309344
I0403 18:46:25.349668 17647 layer_factory.hpp:77] Creating layer inception_4d/output
I0403 18:46:25.349688 17647 net.cpp:91] Creating Layer inception_4d/output
I0403 18:46:25.349704 17647 net.cpp:425] inception_4d/output <- inception_4d/1x1
I0403 18:46:25.349721 17647 net.cpp:425] inception_4d/output <- inception_4d/3x3
I0403 18:46:25.349737 17647 net.cpp:425] inception_4d/output <- inception_4d/5x5
I0403 18:46:25.349755 17647 net.cpp:425] inception_4d/output <- inception_4d/pool_proj
I0403 18:46:25.349771 17647 net.cpp:399] inception_4d/output -> inception_4d/output
I0403 18:46:25.349819 17647 net.cpp:141] Setting up inception_4d/output
I0403 18:46:25.349843 17647 net.cpp:148] Top shape: 24 528 14 14 (2483712)
I0403 18:46:25.349858 17647 net.cpp:156] Memory required for data: 1157244192
I0403 18:46:25.349872 17647 layer_factory.hpp:77] Creating layer inception_4d/output_inception_4d/output_0_split
I0403 18:46:25.349889 17647 net.cpp:91] Creating Layer inception_4d/output_inception_4d/output_0_split
I0403 18:46:25.349905 17647 net.cpp:425] inception_4d/output_inception_4d/output_0_split <- inception_4d/output
I0403 18:46:25.349925 17647 net.cpp:399] inception_4d/output_inception_4d/output_0_split -> inception_4d/output_inception_4d/output_0_split_0
I0403 18:46:25.349949 17647 net.cpp:399] inception_4d/output_inception_4d/output_0_split -> inception_4d/output_inception_4d/output_0_split_1
I0403 18:46:25.349972 17647 net.cpp:399] inception_4d/output_inception_4d/output_0_split -> inception_4d/output_inception_4d/output_0_split_2
I0403 18:46:25.349993 17647 net.cpp:399] inception_4d/output_inception_4d/output_0_split -> inception_4d/output_inception_4d/output_0_split_3
I0403 18:46:25.350013 17647 net.cpp:399] inception_4d/output_inception_4d/output_0_split -> inception_4d/output_inception_4d/output_0_split_4
I0403 18:46:25.350117 17647 net.cpp:141] Setting up inception_4d/output_inception_4d/output_0_split
I0403 18:46:25.350152 17647 net.cpp:148] Top shape: 24 528 14 14 (2483712)
I0403 18:46:25.350170 17647 net.cpp:148] Top shape: 24 528 14 14 (2483712)
I0403 18:46:25.350188 17647 net.cpp:148] Top shape: 24 528 14 14 (2483712)
I0403 18:46:25.350204 17647 net.cpp:148] Top shape: 24 528 14 14 (2483712)
I0403 18:46:25.350219 17647 net.cpp:148] Top shape: 24 528 14 14 (2483712)
I0403 18:46:25.350232 17647 net.cpp:156] Memory required for data: 1206918432
I0403 18:46:25.350246 17647 layer_factory.hpp:77] Creating layer loss2/ave_pool
I0403 18:46:25.350265 17647 net.cpp:91] Creating Layer loss2/ave_pool
I0403 18:46:25.350281 17647 net.cpp:425] loss2/ave_pool <- inception_4d/output_inception_4d/output_0_split_0
I0403 18:46:25.350301 17647 net.cpp:399] loss2/ave_pool -> loss2/ave_pool
I0403 18:46:25.350616 17647 net.cpp:141] Setting up loss2/ave_pool
I0403 18:46:25.350643 17647 net.cpp:148] Top shape: 24 528 4 4 (202752)
I0403 18:46:25.350658 17647 net.cpp:156] Memory required for data: 1207729440
I0403 18:46:25.350673 17647 layer_factory.hpp:77] Creating layer loss2/conv
I0403 18:46:25.350694 17647 net.cpp:91] Creating Layer loss2/conv
I0403 18:46:25.350713 17647 net.cpp:425] loss2/conv <- loss2/ave_pool
I0403 18:46:25.350734 17647 net.cpp:399] loss2/conv -> loss2/conv
I0403 18:46:25.352771 17647 net.cpp:141] Setting up loss2/conv
I0403 18:46:25.352802 17647 net.cpp:148] Top shape: 24 128 4 4 (49152)
I0403 18:46:25.352818 17647 net.cpp:156] Memory required for data: 1207926048
I0403 18:46:25.352836 17647 layer_factory.hpp:77] Creating layer loss2/relu_conv
I0403 18:46:25.352857 17647 net.cpp:91] Creating Layer loss2/relu_conv
I0403 18:46:25.352875 17647 net.cpp:425] loss2/relu_conv <- loss2/conv
I0403 18:46:25.352893 17647 net.cpp:386] loss2/relu_conv -> loss2/conv (in-place)
I0403 18:46:25.353190 17647 net.cpp:141] Setting up loss2/relu_conv
I0403 18:46:25.353219 17647 net.cpp:148] Top shape: 24 128 4 4 (49152)
I0403 18:46:25.353235 17647 net.cpp:156] Memory required for data: 1208122656
I0403 18:46:25.353250 17647 layer_factory.hpp:77] Creating layer loss2/fc
I0403 18:46:25.353271 17647 net.cpp:91] Creating Layer loss2/fc
I0403 18:46:25.353289 17647 net.cpp:425] loss2/fc <- loss2/conv
I0403 18:46:25.353308 17647 net.cpp:399] loss2/fc -> loss2/fc
I0403 18:46:25.371544 17647 net.cpp:141] Setting up loss2/fc
I0403 18:46:25.371579 17647 net.cpp:148] Top shape: 24 1024 (24576)
I0403 18:46:25.371595 17647 net.cpp:156] Memory required for data: 1208220960
I0403 18:46:25.371614 17647 layer_factory.hpp:77] Creating layer loss2/relu_fc
I0403 18:46:25.371644 17647 net.cpp:91] Creating Layer loss2/relu_fc
I0403 18:46:25.371660 17647 net.cpp:425] loss2/relu_fc <- loss2/fc
I0403 18:46:25.371680 17647 net.cpp:386] loss2/relu_fc -> loss2/fc (in-place)
I0403 18:46:25.371987 17647 net.cpp:141] Setting up loss2/relu_fc
I0403 18:46:25.372014 17647 net.cpp:148] Top shape: 24 1024 (24576)
I0403 18:46:25.372028 17647 net.cpp:156] Memory required for data: 1208319264
I0403 18:46:25.372043 17647 layer_factory.hpp:77] Creating layer loss2/drop_fc
I0403 18:46:25.372061 17647 net.cpp:91] Creating Layer loss2/drop_fc
I0403 18:46:25.372077 17647 net.cpp:425] loss2/drop_fc <- loss2/fc
I0403 18:46:25.372097 17647 net.cpp:386] loss2/drop_fc -> loss2/fc (in-place)
I0403 18:46:25.372145 17647 net.cpp:141] Setting up loss2/drop_fc
I0403 18:46:25.372174 17647 net.cpp:148] Top shape: 24 1024 (24576)
I0403 18:46:25.372189 17647 net.cpp:156] Memory required for data: 1208417568
I0403 18:46:25.372205 17647 layer_factory.hpp:77] Creating layer loss2/classifier_plantvillage
I0403 18:46:25.372223 17647 net.cpp:91] Creating Layer loss2/classifier_plantvillage
I0403 18:46:25.372239 17647 net.cpp:425] loss2/classifier_plantvillage <- loss2/fc
I0403 18:46:25.372261 17647 net.cpp:399] loss2/classifier_plantvillage -> loss2/classifier_plantvillage
I0403 18:46:25.372663 17647 net.cpp:141] Setting up loss2/classifier_plantvillage
I0403 18:46:25.372689 17647 net.cpp:148] Top shape: 24 38 (912)
I0403 18:46:25.372720 17647 net.cpp:156] Memory required for data: 1208421216
I0403 18:46:25.372738 17647 layer_factory.hpp:77] Creating layer loss2/classifier_plantvillage_loss2/classifier_plantvillage_0_split
I0403 18:46:25.372756 17647 net.cpp:91] Creating Layer loss2/classifier_plantvillage_loss2/classifier_plantvillage_0_split
I0403 18:46:25.372771 17647 net.cpp:425] loss2/classifier_plantvillage_loss2/classifier_plantvillage_0_split <- loss2/classifier_plantvillage
I0403 18:46:25.372789 17647 net.cpp:399] loss2/classifier_plantvillage_loss2/classifier_plantvillage_0_split -> loss2/classifier_plantvillage_loss2/classifier_plantvillage_0_split_0
I0403 18:46:25.372809 17647 net.cpp:399] loss2/classifier_plantvillage_loss2/classifier_plantvillage_0_split -> loss2/classifier_plantvillage_loss2/classifier_plantvillage_0_split_1
I0403 18:46:25.372833 17647 net.cpp:399] loss2/classifier_plantvillage_loss2/classifier_plantvillage_0_split -> loss2/classifier_plantvillage_loss2/classifier_plantvillage_0_split_2
I0403 18:46:25.372912 17647 net.cpp:141] Setting up loss2/classifier_plantvillage_loss2/classifier_plantvillage_0_split
I0403 18:46:25.372936 17647 net.cpp:148] Top shape: 24 38 (912)
I0403 18:46:25.372956 17647 net.cpp:148] Top shape: 24 38 (912)
I0403 18:46:25.372972 17647 net.cpp:148] Top shape: 24 38 (912)
I0403 18:46:25.372985 17647 net.cpp:156] Memory required for data: 1208432160
I0403 18:46:25.373000 17647 layer_factory.hpp:77] Creating layer inception_4e/1x1
I0403 18:46:25.373020 17647 net.cpp:91] Creating Layer inception_4e/1x1
I0403 18:46:25.373037 17647 net.cpp:425] inception_4e/1x1 <- inception_4d/output_inception_4d/output_0_split_1
I0403 18:46:25.373059 17647 net.cpp:399] inception_4e/1x1 -> inception_4e/1x1
I0403 18:46:25.374884 17647 net.cpp:141] Setting up inception_4e/1x1
I0403 18:46:25.374912 17647 net.cpp:148] Top shape: 24 256 14 14 (1204224)
I0403 18:46:25.374927 17647 net.cpp:156] Memory required for data: 1213249056
I0403 18:46:25.374949 17647 layer_factory.hpp:77] Creating layer inception_4e/relu_1x1
I0403 18:46:25.374970 17647 net.cpp:91] Creating Layer inception_4e/relu_1x1
I0403 18:46:25.374989 17647 net.cpp:425] inception_4e/relu_1x1 <- inception_4e/1x1
I0403 18:46:25.375005 17647 net.cpp:386] inception_4e/relu_1x1 -> inception_4e/1x1 (in-place)
I0403 18:46:25.375303 17647 net.cpp:141] Setting up inception_4e/relu_1x1
I0403 18:46:25.375329 17647 net.cpp:148] Top shape: 24 256 14 14 (1204224)
I0403 18:46:25.375344 17647 net.cpp:156] Memory required for data: 1218065952
I0403 18:46:25.375358 17647 layer_factory.hpp:77] Creating layer inception_4e/3x3_reduce
I0403 18:46:25.375382 17647 net.cpp:91] Creating Layer inception_4e/3x3_reduce
I0403 18:46:25.375401 17647 net.cpp:425] inception_4e/3x3_reduce <- inception_4d/output_inception_4d/output_0_split_2
I0403 18:46:25.375419 17647 net.cpp:399] inception_4e/3x3_reduce -> inception_4e/3x3_reduce
I0403 18:46:25.377552 17647 net.cpp:141] Setting up inception_4e/3x3_reduce
I0403 18:46:25.377580 17647 net.cpp:148] Top shape: 24 160 14 14 (752640)
I0403 18:46:25.377596 17647 net.cpp:156] Memory required for data: 1221076512
I0403 18:46:25.377614 17647 layer_factory.hpp:77] Creating layer inception_4e/relu_3x3_reduce
I0403 18:46:25.377635 17647 net.cpp:91] Creating Layer inception_4e/relu_3x3_reduce
I0403 18:46:25.377651 17647 net.cpp:425] inception_4e/relu_3x3_reduce <- inception_4e/3x3_reduce
I0403 18:46:25.377668 17647 net.cpp:386] inception_4e/relu_3x3_reduce -> inception_4e/3x3_reduce (in-place)
I0403 18:46:25.377853 17647 net.cpp:141] Setting up inception_4e/relu_3x3_reduce
I0403 18:46:25.377881 17647 net.cpp:148] Top shape: 24 160 14 14 (752640)
I0403 18:46:25.377897 17647 net.cpp:156] Memory required for data: 1224087072
I0403 18:46:25.377910 17647 layer_factory.hpp:77] Creating layer inception_4e/3x3
I0403 18:46:25.377933 17647 net.cpp:91] Creating Layer inception_4e/3x3
I0403 18:46:25.377954 17647 net.cpp:425] inception_4e/3x3 <- inception_4e/3x3_reduce
I0403 18:46:25.377974 17647 net.cpp:399] inception_4e/3x3 -> inception_4e/3x3
I0403 18:46:25.382971 17647 net.cpp:141] Setting up inception_4e/3x3
I0403 18:46:25.383014 17647 net.cpp:148] Top shape: 24 320 14 14 (1505280)
I0403 18:46:25.383031 17647 net.cpp:156] Memory required for data: 1230108192
I0403 18:46:25.383049 17647 layer_factory.hpp:77] Creating layer inception_4e/relu_3x3
I0403 18:46:25.383069 17647 net.cpp:91] Creating Layer inception_4e/relu_3x3
I0403 18:46:25.383085 17647 net.cpp:425] inception_4e/relu_3x3 <- inception_4e/3x3
I0403 18:46:25.383105 17647 net.cpp:386] inception_4e/relu_3x3 -> inception_4e/3x3 (in-place)
I0403 18:46:25.383404 17647 net.cpp:141] Setting up inception_4e/relu_3x3
I0403 18:46:25.383432 17647 net.cpp:148] Top shape: 24 320 14 14 (1505280)
I0403 18:46:25.383448 17647 net.cpp:156] Memory required for data: 1236129312
I0403 18:46:25.383462 17647 layer_factory.hpp:77] Creating layer inception_4e/5x5_reduce
I0403 18:46:25.383486 17647 net.cpp:91] Creating Layer inception_4e/5x5_reduce
I0403 18:46:25.383503 17647 net.cpp:425] inception_4e/5x5_reduce <- inception_4d/output_inception_4d/output_0_split_3
I0403 18:46:25.383524 17647 net.cpp:399] inception_4e/5x5_reduce -> inception_4e/5x5_reduce
I0403 18:46:25.384589 17647 net.cpp:141] Setting up inception_4e/5x5_reduce
I0403 18:46:25.384618 17647 net.cpp:148] Top shape: 24 32 14 14 (150528)
I0403 18:46:25.384632 17647 net.cpp:156] Memory required for data: 1236731424
I0403 18:46:25.384650 17647 layer_factory.hpp:77] Creating layer inception_4e/relu_5x5_reduce
I0403 18:46:25.384670 17647 net.cpp:91] Creating Layer inception_4e/relu_5x5_reduce
I0403 18:46:25.384687 17647 net.cpp:425] inception_4e/relu_5x5_reduce <- inception_4e/5x5_reduce
I0403 18:46:25.384704 17647 net.cpp:386] inception_4e/relu_5x5_reduce -> inception_4e/5x5_reduce (in-place)
I0403 18:46:25.385007 17647 net.cpp:141] Setting up inception_4e/relu_5x5_reduce
I0403 18:46:25.385035 17647 net.cpp:148] Top shape: 24 32 14 14 (150528)
I0403 18:46:25.385049 17647 net.cpp:156] Memory required for data: 1237333536
I0403 18:46:25.385064 17647 layer_factory.hpp:77] Creating layer inception_4e/5x5
I0403 18:46:25.385100 17647 net.cpp:91] Creating Layer inception_4e/5x5
I0403 18:46:25.385119 17647 net.cpp:425] inception_4e/5x5 <- inception_4e/5x5_reduce
I0403 18:46:25.385140 17647 net.cpp:399] inception_4e/5x5 -> inception_4e/5x5
I0403 18:46:25.386993 17647 net.cpp:141] Setting up inception_4e/5x5
I0403 18:46:25.387022 17647 net.cpp:148] Top shape: 24 128 14 14 (602112)
I0403 18:46:25.387037 17647 net.cpp:156] Memory required for data: 1239741984
I0403 18:46:25.387055 17647 layer_factory.hpp:77] Creating layer inception_4e/relu_5x5
I0403 18:46:25.387073 17647 net.cpp:91] Creating Layer inception_4e/relu_5x5
I0403 18:46:25.387089 17647 net.cpp:425] inception_4e/relu_5x5 <- inception_4e/5x5
I0403 18:46:25.387109 17647 net.cpp:386] inception_4e/relu_5x5 -> inception_4e/5x5 (in-place)
I0403 18:46:25.387305 17647 net.cpp:141] Setting up inception_4e/relu_5x5
I0403 18:46:25.387331 17647 net.cpp:148] Top shape: 24 128 14 14 (602112)
I0403 18:46:25.387346 17647 net.cpp:156] Memory required for data: 1242150432
I0403 18:46:25.387361 17647 layer_factory.hpp:77] Creating layer inception_4e/pool
I0403 18:46:25.387379 17647 net.cpp:91] Creating Layer inception_4e/pool
I0403 18:46:25.387397 17647 net.cpp:425] inception_4e/pool <- inception_4d/output_inception_4d/output_0_split_4
I0403 18:46:25.387414 17647 net.cpp:399] inception_4e/pool -> inception_4e/pool
I0403 18:46:25.387485 17647 net.cpp:141] Setting up inception_4e/pool
I0403 18:46:25.387508 17647 net.cpp:148] Top shape: 24 528 14 14 (2483712)
I0403 18:46:25.387522 17647 net.cpp:156] Memory required for data: 1252085280
I0403 18:46:25.387537 17647 layer_factory.hpp:77] Creating layer inception_4e/pool_proj
I0403 18:46:25.387558 17647 net.cpp:91] Creating Layer inception_4e/pool_proj
I0403 18:46:25.387575 17647 net.cpp:425] inception_4e/pool_proj <- inception_4e/pool
I0403 18:46:25.387596 17647 net.cpp:399] inception_4e/pool_proj -> inception_4e/pool_proj
I0403 18:46:25.389113 17647 net.cpp:141] Setting up inception_4e/pool_proj
I0403 18:46:25.389153 17647 net.cpp:148] Top shape: 24 128 14 14 (602112)
I0403 18:46:25.389168 17647 net.cpp:156] Memory required for data: 1254493728
I0403 18:46:25.389186 17647 layer_factory.hpp:77] Creating layer inception_4e/relu_pool_proj
I0403 18:46:25.389204 17647 net.cpp:91] Creating Layer inception_4e/relu_pool_proj
I0403 18:46:25.389228 17647 net.cpp:425] inception_4e/relu_pool_proj <- inception_4e/pool_proj
I0403 18:46:25.389247 17647 net.cpp:386] inception_4e/relu_pool_proj -> inception_4e/pool_proj (in-place)
I0403 18:46:25.389546 17647 net.cpp:141] Setting up inception_4e/relu_pool_proj
I0403 18:46:25.389572 17647 net.cpp:148] Top shape: 24 128 14 14 (602112)
I0403 18:46:25.389587 17647 net.cpp:156] Memory required for data: 1256902176
I0403 18:46:25.389601 17647 layer_factory.hpp:77] Creating layer inception_4e/output
I0403 18:46:25.389619 17647 net.cpp:91] Creating Layer inception_4e/output
I0403 18:46:25.389636 17647 net.cpp:425] inception_4e/output <- inception_4e/1x1
I0403 18:46:25.389652 17647 net.cpp:425] inception_4e/output <- inception_4e/3x3
I0403 18:46:25.389667 17647 net.cpp:425] inception_4e/output <- inception_4e/5x5
I0403 18:46:25.389683 17647 net.cpp:425] inception_4e/output <- inception_4e/pool_proj
I0403 18:46:25.389703 17647 net.cpp:399] inception_4e/output -> inception_4e/output
I0403 18:46:25.389752 17647 net.cpp:141] Setting up inception_4e/output
I0403 18:46:25.389778 17647 net.cpp:148] Top shape: 24 832 14 14 (3913728)
I0403 18:46:25.389792 17647 net.cpp:156] Memory required for data: 1272557088
I0403 18:46:25.389808 17647 layer_factory.hpp:77] Creating layer pool4/3x3_s2
I0403 18:46:25.389825 17647 net.cpp:91] Creating Layer pool4/3x3_s2
I0403 18:46:25.389842 17647 net.cpp:425] pool4/3x3_s2 <- inception_4e/output
I0403 18:46:25.389860 17647 net.cpp:399] pool4/3x3_s2 -> pool4/3x3_s2
I0403 18:46:25.389928 17647 net.cpp:141] Setting up pool4/3x3_s2
I0403 18:46:25.389956 17647 net.cpp:148] Top shape: 24 832 7 7 (978432)
I0403 18:46:25.389972 17647 net.cpp:156] Memory required for data: 1276470816
I0403 18:46:25.389987 17647 layer_factory.hpp:77] Creating layer pool4/3x3_s2_pool4/3x3_s2_0_split
I0403 18:46:25.390007 17647 net.cpp:91] Creating Layer pool4/3x3_s2_pool4/3x3_s2_0_split
I0403 18:46:25.390023 17647 net.cpp:425] pool4/3x3_s2_pool4/3x3_s2_0_split <- pool4/3x3_s2
I0403 18:46:25.390040 17647 net.cpp:399] pool4/3x3_s2_pool4/3x3_s2_0_split -> pool4/3x3_s2_pool4/3x3_s2_0_split_0
I0403 18:46:25.390060 17647 net.cpp:399] pool4/3x3_s2_pool4/3x3_s2_0_split -> pool4/3x3_s2_pool4/3x3_s2_0_split_1
I0403 18:46:25.390081 17647 net.cpp:399] pool4/3x3_s2_pool4/3x3_s2_0_split -> pool4/3x3_s2_pool4/3x3_s2_0_split_2
I0403 18:46:25.390105 17647 net.cpp:399] pool4/3x3_s2_pool4/3x3_s2_0_split -> pool4/3x3_s2_pool4/3x3_s2_0_split_3
I0403 18:46:25.390199 17647 net.cpp:141] Setting up pool4/3x3_s2_pool4/3x3_s2_0_split
I0403 18:46:25.390223 17647 net.cpp:148] Top shape: 24 832 7 7 (978432)
I0403 18:46:25.390239 17647 net.cpp:148] Top shape: 24 832 7 7 (978432)
I0403 18:46:25.390254 17647 net.cpp:148] Top shape: 24 832 7 7 (978432)
I0403 18:46:25.390269 17647 net.cpp:148] Top shape: 24 832 7 7 (978432)
I0403 18:46:25.390283 17647 net.cpp:156] Memory required for data: 1292125728
I0403 18:46:25.390297 17647 layer_factory.hpp:77] Creating layer inception_5a/1x1
I0403 18:46:25.390321 17647 net.cpp:91] Creating Layer inception_5a/1x1
I0403 18:46:25.390338 17647 net.cpp:425] inception_5a/1x1 <- pool4/3x3_s2_pool4/3x3_s2_0_split_0
I0403 18:46:25.390359 17647 net.cpp:399] inception_5a/1x1 -> inception_5a/1x1
I0403 18:46:25.393219 17647 net.cpp:141] Setting up inception_5a/1x1
I0403 18:46:25.393249 17647 net.cpp:148] Top shape: 24 256 7 7 (301056)
I0403 18:46:25.393265 17647 net.cpp:156] Memory required for data: 1293329952
I0403 18:46:25.393283 17647 layer_factory.hpp:77] Creating layer inception_5a/relu_1x1
I0403 18:46:25.393303 17647 net.cpp:91] Creating Layer inception_5a/relu_1x1
I0403 18:46:25.393321 17647 net.cpp:425] inception_5a/relu_1x1 <- inception_5a/1x1
I0403 18:46:25.393338 17647 net.cpp:386] inception_5a/relu_1x1 -> inception_5a/1x1 (in-place)
I0403 18:46:25.393649 17647 net.cpp:141] Setting up inception_5a/relu_1x1
I0403 18:46:25.393676 17647 net.cpp:148] Top shape: 24 256 7 7 (301056)
I0403 18:46:25.393692 17647 net.cpp:156] Memory required for data: 1294534176
I0403 18:46:25.393707 17647 layer_factory.hpp:77] Creating layer inception_5a/3x3_reduce
I0403 18:46:25.393728 17647 net.cpp:91] Creating Layer inception_5a/3x3_reduce
I0403 18:46:25.393746 17647 net.cpp:425] inception_5a/3x3_reduce <- pool4/3x3_s2_pool4/3x3_s2_0_split_1
I0403 18:46:25.393769 17647 net.cpp:399] inception_5a/3x3_reduce -> inception_5a/3x3_reduce
I0403 18:46:25.396240 17647 net.cpp:141] Setting up inception_5a/3x3_reduce
I0403 18:46:25.396270 17647 net.cpp:148] Top shape: 24 160 7 7 (188160)
I0403 18:46:25.396286 17647 net.cpp:156] Memory required for data: 1295286816
I0403 18:46:25.396304 17647 layer_factory.hpp:77] Creating layer inception_5a/relu_3x3_reduce
I0403 18:46:25.396322 17647 net.cpp:91] Creating Layer inception_5a/relu_3x3_reduce
I0403 18:46:25.396338 17647 net.cpp:425] inception_5a/relu_3x3_reduce <- inception_5a/3x3_reduce
I0403 18:46:25.396358 17647 net.cpp:386] inception_5a/relu_3x3_reduce -> inception_5a/3x3_reduce (in-place)
I0403 18:46:25.396544 17647 net.cpp:141] Setting up inception_5a/relu_3x3_reduce
I0403 18:46:25.396569 17647 net.cpp:148] Top shape: 24 160 7 7 (188160)
I0403 18:46:25.396584 17647 net.cpp:156] Memory required for data: 1296039456
I0403 18:46:25.396598 17647 layer_factory.hpp:77] Creating layer inception_5a/3x3
I0403 18:46:25.396620 17647 net.cpp:91] Creating Layer inception_5a/3x3
I0403 18:46:25.396639 17647 net.cpp:425] inception_5a/3x3 <- inception_5a/3x3_reduce
I0403 18:46:25.396661 17647 net.cpp:399] inception_5a/3x3 -> inception_5a/3x3
I0403 18:46:25.401698 17647 net.cpp:141] Setting up inception_5a/3x3
I0403 18:46:25.401728 17647 net.cpp:148] Top shape: 24 320 7 7 (376320)
I0403 18:46:25.401744 17647 net.cpp:156] Memory required for data: 1297544736
I0403 18:46:25.401762 17647 layer_factory.hpp:77] Creating layer inception_5a/relu_3x3
I0403 18:46:25.401782 17647 net.cpp:91] Creating Layer inception_5a/relu_3x3
I0403 18:46:25.401799 17647 net.cpp:425] inception_5a/relu_3x3 <- inception_5a/3x3
I0403 18:46:25.401816 17647 net.cpp:386] inception_5a/relu_3x3 -> inception_5a/3x3 (in-place)
I0403 18:46:25.402114 17647 net.cpp:141] Setting up inception_5a/relu_3x3
I0403 18:46:25.402140 17647 net.cpp:148] Top shape: 24 320 7 7 (376320)
I0403 18:46:25.402155 17647 net.cpp:156] Memory required for data: 1299050016
I0403 18:46:25.402170 17647 layer_factory.hpp:77] Creating layer inception_5a/5x5_reduce
I0403 18:46:25.402194 17647 net.cpp:91] Creating Layer inception_5a/5x5_reduce
I0403 18:46:25.402212 17647 net.cpp:425] inception_5a/5x5_reduce <- pool4/3x3_s2_pool4/3x3_s2_0_split_2
I0403 18:46:25.402235 17647 net.cpp:399] inception_5a/5x5_reduce -> inception_5a/5x5_reduce
I0403 18:46:25.403414 17647 net.cpp:141] Setting up inception_5a/5x5_reduce
I0403 18:46:25.403445 17647 net.cpp:148] Top shape: 24 32 7 7 (37632)
I0403 18:46:25.403461 17647 net.cpp:156] Memory required for data: 1299200544
I0403 18:46:25.403481 17647 layer_factory.hpp:77] Creating layer inception_5a/relu_5x5_reduce
I0403 18:46:25.403498 17647 net.cpp:91] Creating Layer inception_5a/relu_5x5_reduce
I0403 18:46:25.403514 17647 net.cpp:425] inception_5a/relu_5x5_reduce <- inception_5a/5x5_reduce
I0403 18:46:25.403532 17647 net.cpp:386] inception_5a/relu_5x5_reduce -> inception_5a/5x5_reduce (in-place)
I0403 18:46:25.403836 17647 net.cpp:141] Setting up inception_5a/relu_5x5_reduce
I0403 18:46:25.403862 17647 net.cpp:148] Top shape: 24 32 7 7 (37632)
I0403 18:46:25.403877 17647 net.cpp:156] Memory required for data: 1299351072
I0403 18:46:25.403892 17647 layer_factory.hpp:77] Creating layer inception_5a/5x5
I0403 18:46:25.403914 17647 net.cpp:91] Creating Layer inception_5a/5x5
I0403 18:46:25.403940 17647 net.cpp:425] inception_5a/5x5 <- inception_5a/5x5_reduce
I0403 18:46:25.403969 17647 net.cpp:399] inception_5a/5x5 -> inception_5a/5x5
I0403 18:46:25.405706 17647 net.cpp:141] Setting up inception_5a/5x5
I0403 18:46:25.405745 17647 net.cpp:148] Top shape: 24 128 7 7 (150528)
I0403 18:46:25.405761 17647 net.cpp:156] Memory required for data: 1299953184
I0403 18:46:25.405779 17647 layer_factory.hpp:77] Creating layer inception_5a/relu_5x5
I0403 18:46:25.405800 17647 net.cpp:91] Creating Layer inception_5a/relu_5x5
I0403 18:46:25.405817 17647 net.cpp:425] inception_5a/relu_5x5 <- inception_5a/5x5
I0403 18:46:25.405834 17647 net.cpp:386] inception_5a/relu_5x5 -> inception_5a/5x5 (in-place)
I0403 18:46:25.406040 17647 net.cpp:141] Setting up inception_5a/relu_5x5
I0403 18:46:25.406065 17647 net.cpp:148] Top shape: 24 128 7 7 (150528)
I0403 18:46:25.406083 17647 net.cpp:156] Memory required for data: 1300555296
I0403 18:46:25.406098 17647 layer_factory.hpp:77] Creating layer inception_5a/pool
I0403 18:46:25.406116 17647 net.cpp:91] Creating Layer inception_5a/pool
I0403 18:46:25.406132 17647 net.cpp:425] inception_5a/pool <- pool4/3x3_s2_pool4/3x3_s2_0_split_3
I0403 18:46:25.406152 17647 net.cpp:399] inception_5a/pool -> inception_5a/pool
I0403 18:46:25.406229 17647 net.cpp:141] Setting up inception_5a/pool
I0403 18:46:25.406254 17647 net.cpp:148] Top shape: 24 832 7 7 (978432)
I0403 18:46:25.406267 17647 net.cpp:156] Memory required for data: 1304469024
I0403 18:46:25.406282 17647 layer_factory.hpp:77] Creating layer inception_5a/pool_proj
I0403 18:46:25.406304 17647 net.cpp:91] Creating Layer inception_5a/pool_proj
I0403 18:46:25.406322 17647 net.cpp:425] inception_5a/pool_proj <- inception_5a/pool
I0403 18:46:25.406344 17647 net.cpp:399] inception_5a/pool_proj -> inception_5a/pool_proj
I0403 18:46:25.408669 17647 net.cpp:141] Setting up inception_5a/pool_proj
I0403 18:46:25.408699 17647 net.cpp:148] Top shape: 24 128 7 7 (150528)
I0403 18:46:25.408715 17647 net.cpp:156] Memory required for data: 1305071136
I0403 18:46:25.408733 17647 layer_factory.hpp:77] Creating layer inception_5a/relu_pool_proj
I0403 18:46:25.408752 17647 net.cpp:91] Creating Layer inception_5a/relu_pool_proj
I0403 18:46:25.408772 17647 net.cpp:425] inception_5a/relu_pool_proj <- inception_5a/pool_proj
I0403 18:46:25.408789 17647 net.cpp:386] inception_5a/relu_pool_proj -> inception_5a/pool_proj (in-place)
I0403 18:46:25.409090 17647 net.cpp:141] Setting up inception_5a/relu_pool_proj
I0403 18:46:25.409116 17647 net.cpp:148] Top shape: 24 128 7 7 (150528)
I0403 18:46:25.409131 17647 net.cpp:156] Memory required for data: 1305673248
I0403 18:46:25.409145 17647 layer_factory.hpp:77] Creating layer inception_5a/output
I0403 18:46:25.409163 17647 net.cpp:91] Creating Layer inception_5a/output
I0403 18:46:25.409179 17647 net.cpp:425] inception_5a/output <- inception_5a/1x1
I0403 18:46:25.409195 17647 net.cpp:425] inception_5a/output <- inception_5a/3x3
I0403 18:46:25.409212 17647 net.cpp:425] inception_5a/output <- inception_5a/5x5
I0403 18:46:25.409229 17647 net.cpp:425] inception_5a/output <- inception_5a/pool_proj
I0403 18:46:25.409247 17647 net.cpp:399] inception_5a/output -> inception_5a/output
I0403 18:46:25.409297 17647 net.cpp:141] Setting up inception_5a/output
I0403 18:46:25.409323 17647 net.cpp:148] Top shape: 24 832 7 7 (978432)
I0403 18:46:25.409339 17647 net.cpp:156] Memory required for data: 1309586976
I0403 18:46:25.409353 17647 layer_factory.hpp:77] Creating layer inception_5a/output_inception_5a/output_0_split
I0403 18:46:25.409369 17647 net.cpp:91] Creating Layer inception_5a/output_inception_5a/output_0_split
I0403 18:46:25.409385 17647 net.cpp:425] inception_5a/output_inception_5a/output_0_split <- inception_5a/output
I0403 18:46:25.409404 17647 net.cpp:399] inception_5a/output_inception_5a/output_0_split -> inception_5a/output_inception_5a/output_0_split_0
I0403 18:46:25.409428 17647 net.cpp:399] inception_5a/output_inception_5a/output_0_split -> inception_5a/output_inception_5a/output_0_split_1
I0403 18:46:25.409449 17647 net.cpp:399] inception_5a/output_inception_5a/output_0_split -> inception_5a/output_inception_5a/output_0_split_2
I0403 18:46:25.409469 17647 net.cpp:399] inception_5a/output_inception_5a/output_0_split -> inception_5a/output_inception_5a/output_0_split_3
I0403 18:46:25.409582 17647 net.cpp:141] Setting up inception_5a/output_inception_5a/output_0_split
I0403 18:46:25.409605 17647 net.cpp:148] Top shape: 24 832 7 7 (978432)
I0403 18:46:25.409621 17647 net.cpp:148] Top shape: 24 832 7 7 (978432)
I0403 18:46:25.409637 17647 net.cpp:148] Top shape: 24 832 7 7 (978432)
I0403 18:46:25.409652 17647 net.cpp:148] Top shape: 24 832 7 7 (978432)
I0403 18:46:25.409665 17647 net.cpp:156] Memory required for data: 1325241888
I0403 18:46:25.409680 17647 layer_factory.hpp:77] Creating layer inception_5b/1x1
I0403 18:46:25.409703 17647 net.cpp:91] Creating Layer inception_5b/1x1
I0403 18:46:25.409721 17647 net.cpp:425] inception_5b/1x1 <- inception_5a/output_inception_5a/output_0_split_0
I0403 18:46:25.409744 17647 net.cpp:399] inception_5b/1x1 -> inception_5b/1x1
I0403 18:46:25.413653 17647 net.cpp:141] Setting up inception_5b/1x1
I0403 18:46:25.413684 17647 net.cpp:148] Top shape: 24 384 7 7 (451584)
I0403 18:46:25.413702 17647 net.cpp:156] Memory required for data: 1327048224
I0403 18:46:25.413720 17647 layer_factory.hpp:77] Creating layer inception_5b/relu_1x1
I0403 18:46:25.413738 17647 net.cpp:91] Creating Layer inception_5b/relu_1x1
I0403 18:46:25.413755 17647 net.cpp:425] inception_5b/relu_1x1 <- inception_5b/1x1
I0403 18:46:25.413776 17647 net.cpp:386] inception_5b/relu_1x1 -> inception_5b/1x1 (in-place)
I0403 18:46:25.414095 17647 net.cpp:141] Setting up inception_5b/relu_1x1
I0403 18:46:25.414122 17647 net.cpp:148] Top shape: 24 384 7 7 (451584)
I0403 18:46:25.414137 17647 net.cpp:156] Memory required for data: 1328854560
I0403 18:46:25.414154 17647 layer_factory.hpp:77] Creating layer inception_5b/3x3_reduce
I0403 18:46:25.414176 17647 net.cpp:91] Creating Layer inception_5b/3x3_reduce
I0403 18:46:25.414196 17647 net.cpp:425] inception_5b/3x3_reduce <- inception_5a/output_inception_5a/output_0_split_1
I0403 18:46:25.414228 17647 net.cpp:399] inception_5b/3x3_reduce -> inception_5b/3x3_reduce
I0403 18:46:25.416973 17647 net.cpp:141] Setting up inception_5b/3x3_reduce
I0403 18:46:25.417003 17647 net.cpp:148] Top shape: 24 192 7 7 (225792)
I0403 18:46:25.417021 17647 net.cpp:156] Memory required for data: 1329757728
I0403 18:46:25.417039 17647 layer_factory.hpp:77] Creating layer inception_5b/relu_3x3_reduce
I0403 18:46:25.417058 17647 net.cpp:91] Creating Layer inception_5b/relu_3x3_reduce
I0403 18:46:25.417074 17647 net.cpp:425] inception_5b/relu_3x3_reduce <- inception_5b/3x3_reduce
I0403 18:46:25.417094 17647 net.cpp:386] inception_5b/relu_3x3_reduce -> inception_5b/3x3_reduce (in-place)
I0403 18:46:25.417290 17647 net.cpp:141] Setting up inception_5b/relu_3x3_reduce
I0403 18:46:25.417316 17647 net.cpp:148] Top shape: 24 192 7 7 (225792)
I0403 18:46:25.417330 17647 net.cpp:156] Memory required for data: 1330660896
I0403 18:46:25.417346 17647 layer_factory.hpp:77] Creating layer inception_5b/3x3
I0403 18:46:25.417368 17647 net.cpp:91] Creating Layer inception_5b/3x3
I0403 18:46:25.417387 17647 net.cpp:425] inception_5b/3x3 <- inception_5b/3x3_reduce
I0403 18:46:25.417410 17647 net.cpp:399] inception_5b/3x3 -> inception_5b/3x3
I0403 18:46:25.424330 17647 net.cpp:141] Setting up inception_5b/3x3
I0403 18:46:25.424360 17647 net.cpp:148] Top shape: 24 384 7 7 (451584)
I0403 18:46:25.424376 17647 net.cpp:156] Memory required for data: 1332467232
I0403 18:46:25.424396 17647 layer_factory.hpp:77] Creating layer inception_5b/relu_3x3
I0403 18:46:25.424414 17647 net.cpp:91] Creating Layer inception_5b/relu_3x3
I0403 18:46:25.424434 17647 net.cpp:425] inception_5b/relu_3x3 <- inception_5b/3x3
I0403 18:46:25.424453 17647 net.cpp:386] inception_5b/relu_3x3 -> inception_5b/3x3 (in-place)
I0403 18:46:25.424757 17647 net.cpp:141] Setting up inception_5b/relu_3x3
I0403 18:46:25.424784 17647 net.cpp:148] Top shape: 24 384 7 7 (451584)
I0403 18:46:25.424799 17647 net.cpp:156] Memory required for data: 1334273568
I0403 18:46:25.424815 17647 layer_factory.hpp:77] Creating layer inception_5b/5x5_reduce
I0403 18:46:25.424856 17647 net.cpp:91] Creating Layer inception_5b/5x5_reduce
I0403 18:46:25.424876 17647 net.cpp:425] inception_5b/5x5_reduce <- inception_5a/output_inception_5a/output_0_split_2
I0403 18:46:25.424899 17647 net.cpp:399] inception_5b/5x5_reduce -> inception_5b/5x5_reduce
I0403 18:46:25.426226 17647 net.cpp:141] Setting up inception_5b/5x5_reduce
I0403 18:46:25.426255 17647 net.cpp:148] Top shape: 24 48 7 7 (56448)
I0403 18:46:25.426270 17647 net.cpp:156] Memory required for data: 1334499360
I0403 18:46:25.426290 17647 layer_factory.hpp:77] Creating layer inception_5b/relu_5x5_reduce
I0403 18:46:25.426307 17647 net.cpp:91] Creating Layer inception_5b/relu_5x5_reduce
I0403 18:46:25.426324 17647 net.cpp:425] inception_5b/relu_5x5_reduce <- inception_5b/5x5_reduce
I0403 18:46:25.426343 17647 net.cpp:386] inception_5b/relu_5x5_reduce -> inception_5b/5x5_reduce (in-place)
I0403 18:46:25.426728 17647 net.cpp:141] Setting up inception_5b/relu_5x5_reduce
I0403 18:46:25.426755 17647 net.cpp:148] Top shape: 24 48 7 7 (56448)
I0403 18:46:25.426771 17647 net.cpp:156] Memory required for data: 1334725152
I0403 18:46:25.426786 17647 layer_factory.hpp:77] Creating layer inception_5b/5x5
I0403 18:46:25.426807 17647 net.cpp:91] Creating Layer inception_5b/5x5
I0403 18:46:25.426826 17647 net.cpp:425] inception_5b/5x5 <- inception_5b/5x5_reduce
I0403 18:46:25.426846 17647 net.cpp:399] inception_5b/5x5 -> inception_5b/5x5
I0403 18:46:25.429018 17647 net.cpp:141] Setting up inception_5b/5x5
I0403 18:46:25.429046 17647 net.cpp:148] Top shape: 24 128 7 7 (150528)
I0403 18:46:25.429062 17647 net.cpp:156] Memory required for data: 1335327264
I0403 18:46:25.429080 17647 layer_factory.hpp:77] Creating layer inception_5b/relu_5x5
I0403 18:46:25.429101 17647 net.cpp:91] Creating Layer inception_5b/relu_5x5
I0403 18:46:25.429119 17647 net.cpp:425] inception_5b/relu_5x5 <- inception_5b/5x5
I0403 18:46:25.429137 17647 net.cpp:386] inception_5b/relu_5x5 -> inception_5b/5x5 (in-place)
I0403 18:46:25.429347 17647 net.cpp:141] Setting up inception_5b/relu_5x5
I0403 18:46:25.429373 17647 net.cpp:148] Top shape: 24 128 7 7 (150528)
I0403 18:46:25.429386 17647 net.cpp:156] Memory required for data: 1335929376
I0403 18:46:25.429401 17647 layer_factory.hpp:77] Creating layer inception_5b/pool
I0403 18:46:25.429421 17647 net.cpp:91] Creating Layer inception_5b/pool
I0403 18:46:25.429440 17647 net.cpp:425] inception_5b/pool <- inception_5a/output_inception_5a/output_0_split_3
I0403 18:46:25.429457 17647 net.cpp:399] inception_5b/pool -> inception_5b/pool
I0403 18:46:25.429530 17647 net.cpp:141] Setting up inception_5b/pool
I0403 18:46:25.429554 17647 net.cpp:148] Top shape: 24 832 7 7 (978432)
I0403 18:46:25.429569 17647 net.cpp:156] Memory required for data: 1339843104
I0403 18:46:25.429584 17647 layer_factory.hpp:77] Creating layer inception_5b/pool_proj
I0403 18:46:25.429605 17647 net.cpp:91] Creating Layer inception_5b/pool_proj
I0403 18:46:25.429622 17647 net.cpp:425] inception_5b/pool_proj <- inception_5b/pool
I0403 18:46:25.429643 17647 net.cpp:399] inception_5b/pool_proj -> inception_5b/pool_proj
I0403 18:46:25.431944 17647 net.cpp:141] Setting up inception_5b/pool_proj
I0403 18:46:25.431977 17647 net.cpp:148] Top shape: 24 128 7 7 (150528)
I0403 18:46:25.431993 17647 net.cpp:156] Memory required for data: 1340445216
I0403 18:46:25.432011 17647 layer_factory.hpp:77] Creating layer inception_5b/relu_pool_proj
I0403 18:46:25.432029 17647 net.cpp:91] Creating Layer inception_5b/relu_pool_proj
I0403 18:46:25.432045 17647 net.cpp:425] inception_5b/relu_pool_proj <- inception_5b/pool_proj
I0403 18:46:25.432065 17647 net.cpp:386] inception_5b/relu_pool_proj -> inception_5b/pool_proj (in-place)
I0403 18:46:25.432369 17647 net.cpp:141] Setting up inception_5b/relu_pool_proj
I0403 18:46:25.432395 17647 net.cpp:148] Top shape: 24 128 7 7 (150528)
I0403 18:46:25.432410 17647 net.cpp:156] Memory required for data: 1341047328
I0403 18:46:25.432425 17647 layer_factory.hpp:77] Creating layer inception_5b/output
I0403 18:46:25.432443 17647 net.cpp:91] Creating Layer inception_5b/output
I0403 18:46:25.432473 17647 net.cpp:425] inception_5b/output <- inception_5b/1x1
I0403 18:46:25.432490 17647 net.cpp:425] inception_5b/output <- inception_5b/3x3
I0403 18:46:25.432507 17647 net.cpp:425] inception_5b/output <- inception_5b/5x5
I0403 18:46:25.432523 17647 net.cpp:425] inception_5b/output <- inception_5b/pool_proj
I0403 18:46:25.432543 17647 net.cpp:399] inception_5b/output -> inception_5b/output
I0403 18:46:25.432595 17647 net.cpp:141] Setting up inception_5b/output
I0403 18:46:25.432621 17647 net.cpp:148] Top shape: 24 1024 7 7 (1204224)
I0403 18:46:25.432637 17647 net.cpp:156] Memory required for data: 1345864224
I0403 18:46:25.432652 17647 layer_factory.hpp:77] Creating layer pool5/7x7_s1
I0403 18:46:25.432670 17647 net.cpp:91] Creating Layer pool5/7x7_s1
I0403 18:46:25.432687 17647 net.cpp:425] pool5/7x7_s1 <- inception_5b/output
I0403 18:46:25.432706 17647 net.cpp:399] pool5/7x7_s1 -> pool5/7x7_s1
I0403 18:46:25.432922 17647 net.cpp:141] Setting up pool5/7x7_s1
I0403 18:46:25.432952 17647 net.cpp:148] Top shape: 24 1024 1 1 (24576)
I0403 18:46:25.432968 17647 net.cpp:156] Memory required for data: 1345962528
I0403 18:46:25.432983 17647 layer_factory.hpp:77] Creating layer pool5/drop_7x7_s1
I0403 18:46:25.433001 17647 net.cpp:91] Creating Layer pool5/drop_7x7_s1
I0403 18:46:25.433017 17647 net.cpp:425] pool5/drop_7x7_s1 <- pool5/7x7_s1
I0403 18:46:25.433037 17647 net.cpp:386] pool5/drop_7x7_s1 -> pool5/7x7_s1 (in-place)
I0403 18:46:25.433090 17647 net.cpp:141] Setting up pool5/drop_7x7_s1
I0403 18:46:25.433114 17647 net.cpp:148] Top shape: 24 1024 1 1 (24576)
I0403 18:46:25.433127 17647 net.cpp:156] Memory required for data: 1346060832
I0403 18:46:25.433141 17647 layer_factory.hpp:77] Creating layer loss3/classifier_plantvillage
I0403 18:46:25.433161 17647 net.cpp:91] Creating Layer loss3/classifier_plantvillage
I0403 18:46:25.433176 17647 net.cpp:425] loss3/classifier_plantvillage <- pool5/7x7_s1
I0403 18:46:25.433197 17647 net.cpp:399] loss3/classifier_plantvillage -> loss3/classifier_plantvillage
I0403 18:46:25.433626 17647 net.cpp:141] Setting up loss3/classifier_plantvillage
I0403 18:46:25.433650 17647 net.cpp:148] Top shape: 24 38 (912)
I0403 18:46:25.433665 17647 net.cpp:156] Memory required for data: 1346064480
I0403 18:46:25.433682 17647 layer_factory.hpp:77] Creating layer loss3/classifier_plantvillage_loss3/classifier_plantvillage_0_split
I0403 18:46:25.433703 17647 net.cpp:91] Creating Layer loss3/classifier_plantvillage_loss3/classifier_plantvillage_0_split
I0403 18:46:25.433720 17647 net.cpp:425] loss3/classifier_plantvillage_loss3/classifier_plantvillage_0_split <- loss3/classifier_plantvillage
I0403 18:46:25.433739 17647 net.cpp:399] loss3/classifier_plantvillage_loss3/classifier_plantvillage_0_split -> loss3/classifier_plantvillage_loss3/classifier_plantvillage_0_split_0
I0403 18:46:25.433760 17647 net.cpp:399] loss3/classifier_plantvillage_loss3/classifier_plantvillage_0_split -> loss3/classifier_plantvillage_loss3/classifier_plantvillage_0_split_1
I0403 18:46:25.433781 17647 net.cpp:399] loss3/classifier_plantvillage_loss3/classifier_plantvillage_0_split -> loss3/classifier_plantvillage_loss3/classifier_plantvillage_0_split_2
I0403 18:46:25.433801 17647 net.cpp:399] loss3/classifier_plantvillage_loss3/classifier_plantvillage_0_split -> loss3/classifier_plantvillage_loss3/classifier_plantvillage_0_split_3
I0403 18:46:25.433902 17647 net.cpp:141] Setting up loss3/classifier_plantvillage_loss3/classifier_plantvillage_0_split
I0403 18:46:25.433925 17647 net.cpp:148] Top shape: 24 38 (912)
I0403 18:46:25.433941 17647 net.cpp:148] Top shape: 24 38 (912)
I0403 18:46:25.433961 17647 net.cpp:148] Top shape: 24 38 (912)
I0403 18:46:25.433976 17647 net.cpp:148] Top shape: 24 38 (912)
I0403 18:46:25.433990 17647 net.cpp:156] Memory required for data: 1346079072
I0403 18:46:25.434005 17647 layer_factory.hpp:77] Creating layer loss1/loss
I0403 18:46:25.434026 17647 net.cpp:91] Creating Layer loss1/loss
I0403 18:46:25.434043 17647 net.cpp:425] loss1/loss <- loss1/classifier_plantvillage_loss1/classifier_plantvillage_0_split_0
I0403 18:46:25.434073 17647 net.cpp:425] loss1/loss <- label_data_1_split_0
…
