…
I0403 19:21:25.558281 19597 net.cpp:313] The NetState phase (1) differed from the phase (0) specified by a rule in layer data
I0403 19:21:25.559443 19597 net.cpp:49] Initializing net from parameters: 
state {
  phase: TEST
}
layer {
  name: "data"
  type: "Data"
  top: "data"
  top: "label"
  include {
    phase: TEST
  }
  transform_param {
    mirror: false
    crop_size: 224
    mean_file: "/home/mohanty/data/final_dataset/lmdb/segmented-60-40/mean.binaryproto"
  }
  data_param {
    source: "/home/mohanty/data/final_dataset/lmdb/segmented-60-40/test_db"
    batch_size: 24
    backend: LMDB
  }
}
layer {
  name: "conv1/7x7_s2"
  type: "Convolution"
  bottom: "data"
  top: "conv1/7x7_s2"
  param {
    lr_mult: 1
    decay_mult: 1
  }
  param {
    lr_mult: 2
    decay_mult: 0
  }
  convolution_param {
    num_output: 64
    pad: 3
    kernel_size: 7
    stride: 2
    weight_filler {
      type: "xavier"
      std: 0.1
    }
    bias_filler {
      type: "constant"
      value: 0.2
    }
  }
}
layer {
  name: "conv1/relu_7x7"
  type: "ReLU"
  bottom: "conv1/7x7_s2"
  top: "conv1/7x7_s2"
}
layer {
  name: "pool1/3x3_s2"
  type: "Pooling"
  bottom: "conv1/7x7_s2"
  top: "pool1/3x3_s2"
  pooling_param {
    pool: MAX
    kernel_size: 3
    stride: 2
  }
}
layer {
  name: "pool1/norm1"
  type: "LRN"
  bottom: "pool1/3x3_s2"
  top: "pool1/norm1"
  lrn_param {
    local_size: 5
    alpha: 0.0001
    beta: 0.75
  }
}
layer {
  name: "conv2/3x3_reduce"
  type: "Convolution"
  bottom: "pool1/norm1"
  top: "conv2/3x3_reduce"
  param {
    lr_mult: 1
    decay_mult: 1
  }
  param {
    lr_mult: 2
    decay_mult: 0
  }
  convolution_param {
    num_output: 64
    kernel_size: 1
    weight_filler {
      type: "xavier"
      std: 0.1
    }
    bias_filler {
      type: "constant"
      value: 0.2
    }
  }
}
layer {
  name: "conv2/relu_3x3_reduce"
  type: "ReLU"
  bottom: "conv2/3x3_reduce"
  top: "conv2/3x3_reduce"
}
layer {
  name: "conv2/3x3"
  type: "Convolution"
  bottom: "conv2/3x3_reduce"
  top: "conv2/3x3"
  param {
    lr_mult: 1
    decay_mult: 1
  }
  param {
    lr_mult: 2
    decay_mult: 0
  }
  convolution_param {
    num_output: 192
    pad: 1
    kernel_size: 3
    weight_filler {
      type: "xavier"
      std: 0.03
    }
    bias_filler {
      type: "constant"
      value: 0.2
    }
  }
}
layer {
  name: "conv2/relu_3x3"
  type: "ReLU"
  bottom: "conv2/3x3"
  top: "conv2/3x3"
}
layer {
  name: "conv2/norm2"
  type: "LRN"
  bottom: "conv2/3x3"
  top: "conv2/norm2"
  lrn_param {
    local_size: 5
    alpha: 0.0001
    beta: 0.75
  }
}
layer {
  name: "pool2/3x3_s2"
  type: "Pooling"
  bottom: "conv2/norm2"
  top: "pool2/3x3_s2"
  pooling_param {
    pool: MAX
    kernel_size: 3
    stride: 2
  }
}
layer {
  name: "inception_3a/1x1"
  type: "Convolution"
  bottom: "pool2/3x3_s2"
  top: "inception_3a/1x1"
  param {
    lr_mult: 1
    decay_mult: 1
  }
  param {
    lr_mult: 2
    decay_mult: 0
  }
  convolution_param {
    num_output: 64
    kernel_size: 1
    weight_filler {
      type: "xavier"
      std: 0.03
    }
    bias_filler {
      type: "constant"
      value: 0.2
    }
  }
}
layer {
  name: "inception_3a/relu_1x1"
  type: "ReLU"
  bottom: "inception_3a/1x1"
  top: "inception_3a/1x1"
}
layer {
  name: "inception_3a/3x3_reduce"
  type: "Convolution"
  bottom: "pool2/3x3_s2"
  top: "inception_3a/3x3_reduce"
  param {
    lr_mult: 1
    decay_mult: 1
  }
  param {
    lr_mult: 2
    decay_mult: 0
  }
  convolution_param {
    num_output: 96
    kernel_size: 1
    weight_filler {
      type: "xavier"
      std: 0.09
    }
    bias_filler {
      type: "constant"
      value: 0.2
    }
  }
}
layer {
  name: "inception_3a/relu_3x3_reduce"
  type: "ReLU"
  bottom: "inception_3a/3x3_reduce"
  top: "inception_3a/3x3_reduce"
}
layer {
  name: "inception_3a/3x3"
  type: "Convolution"
  bottom: "inception_3a/3x3_reduce"
  top: "inception_3a/3x3"
  param {
    lr_mult: 1
    decay_mult: 1
  }
  param {
    lr_mult: 2
    decay_mult: 0
  }
  convolution_param {
    num_output: 128
    pad: 1
    kernel_size: 3
    weight_filler {
      type: "xavier"
      std: 0.03
    }
    bias_filler {
      type: "constant"
      value: 0.2
    }
  }
}
layer {
  name: "inception_3a/relu_3x3"
  type: "ReLU"
  bottom: "inception_3a/3x3"
  top: "inception_3a/3x3"
}
layer {
  name: "inception_3a/5x5_reduce"
  type: "Convolution"
  bottom: "pool2/3x3_s2"
  top: "inception_3a/5x5_reduce"
  param {
    lr_mult: 1
    decay_mult: 1
  }
  param {
    lr_mult: 2
    decay_mult: 0
  }
  convolution_param {
    num_output: 16
    kernel_size: 1
    weight_filler {
      type: "xavier"
      std: 0.2
    }
    bias_filler {
      type: "constant"
      value: 0.2
    }
  }
}
layer {
  name: "inception_3a/relu_5x5_reduce"
  type: "ReLU"
  bottom: "inception_3a/5x5_reduce"
  top: "inception_3a/5x5_reduce"
}
layer {
  name: "inception_3a/5x5"
  type: "Convolution"
  bottom: "inception_3a/5x5_reduce"
  top: "inception_3a/5x5"
  param {
    lr_mult: 1
    decay_mult: 1
  }
  param {
    lr_mult: 2
    decay_mult: 0
  }
  convolution_param {
    num_output: 32
    pad: 2
    kernel_size: 5
    weight_filler {
      type: "xavier"
      std: 0.03
    }
    bias_filler {
      type: "constant"
      value: 0.2
    }
  }
}
layer {
  name: "inception_3a/relu_5x5"
  type: "ReLU"
  bottom: "inception_3a/5x5"
  top: "inception_3a/5x5"
}
layer {
  name: "inception_3a/pool"
  type: "Pooling"
  bottom: "pool2/3x3_s2"
  top: "inception_3a/pool"
  pooling_param {
    pool: MAX
    kernel_size: 3
    stride: 1
    pad: 1
  }
}
layer {
  name: "inception_3a/pool_proj"
  type: "Convolution"
  bottom: "inception_3a/pool"
  top: "inception_3a/pool_proj"
  param {
    lr_mult: 1
    decay_mult: 1
  }
  param {
    lr_mult: 2
    decay_mult: 0
  }
  convolution_param {
    num_output: 32
    kernel_size: 1
    weight_filler {
      type: "xavier"
      std: 0.1
    }
    bias_filler {
      type: "constant"
      value: 0.2
    }
  }
}
layer {
  name: "inception_3a/relu_pool_proj"
  type: "ReLU"
  bottom: "inception_3a/pool_proj"
  top: "inception_3a/pool_proj"
}
layer {
  name: "inception_3a/output"
  type: "Concat"
  bottom: "inception_3a/1x1"
  bottom: "inception_3a/3x3"
  bottom: "inception_3a/5x5"
  bottom: "inception_3a/pool_proj"
  top: "inception_3a/output"
}
layer {
  name: "inception_3b/1x1"
  type: "Convolution"
  bottom: "inception_3a/output"
  top: "inception_3b/1x1"
  param {
    lr_mult: 1
    decay_mult: 1
  }
  param {
    lr_mult: 2
    decay_mult: 0
  }
  convolution_param {
    num_output: 128
    kernel_size: 1
    weight_filler {
      type: "xavier"
      std: 0.03
    }
    bias_filler {
      type: "constant"
      value: 0.2
    }
  }
}
layer {
  name: "inception_3b/relu_1x1"
  type: "ReLU"
  bottom: "inception_3b/1x1"
  top: "inception_3b/1x1"
}
layer {
  name: "inception_3b/3x3_reduce"
  type: "Convolution"
  bottom: "inception_3a/output"
  top: "inception_3b/3x3_reduce"
  param {
    lr_mult: 1
    decay_mult: 1
  }
  param {
    lr_mult: 2
    decay_mult: 0
  }
  convolution_param {
    num_output: 128
    kernel_size: 1
    weight_filler {
      type: "xavier"
      std: 0.09
    }
    bias_filler {
      type: "constant"
      value: 0.2
    }
  }
}
layer {
  name: "inception_3b/relu_3x3_reduce"
  type: "ReLU"
  bottom: "inception_3b/3x3_reduce"
  top: "inception_3b/3x3_reduce"
}
layer {
  name: "inception_3b/3x3"
  type: "Convolution"
  bottom: "inception_3b/3x3_reduce"
  top: "inception_3b/3x3"
  param {
    lr_mult: 1
    decay_mult: 1
  }
  param {
    lr_mult: 2
    decay_mult: 0
  }
  convolution_param {
    num_output: 192
    pad: 1
    kernel_size: 3
    weight_filler {
      type: "xavier"
      std: 0.03
    }
    bias_filler {
      type: "constant"
      value: 0.2
    }
  }
}
layer {
  name: "inception_3b/relu_3x3"
  type: "ReLU"
  bottom: "inception_3b/3x3"
  top: "inception_3b/3x3"
}
layer {
  name: "inception_3b/5x5_reduce"
  type: "Convolution"
  bottom: "inception_3a/output"
  top: "inception_3b/5x5_reduce"
  param {
    lr_mult: 1
    decay_mult: 1
  }
  param {
    lr_mult: 2
    decay_mult: 0
  }
  convolution_param {
    num_output: 32
    kernel_size: 1
    weight_filler {
      type: "xavier"
      std: 0.2
    }
    bias_filler {
      type: "constant"
      value: 0.2
    }
  }
}
layer {
  name: "inception_3b/relu_5x5_reduce"
  type: "ReLU"
  bottom: "inception_3b/5x5_reduce"
  top: "inception_3b/5x5_reduce"
}
layer {
  name: "inception_3b/5x5"
  type: "Convolution"
  bottom: "inception_3b/5x5_reduce"
  top: "inception_3b/5x5"
  param {
    lr_mult: 1
    decay_mult: 1
  }
  param {
    lr_mult: 2
    decay_mult: 0
  }
  convolution_param {
    num_output: 96
    pad: 2
    kernel_size: 5
    weight_filler {
      type: "xavier"
      std: 0.03
    }
    bias_filler {
      type: "constant"
      value: 0.2
    }
  }
}
layer {
  name: "inception_3b/relu_5x5"
  type: "ReLU"
  bottom: "inception_3b/5x5"
  top: "inception_3b/5x5"
}
layer {
  name: "inception_3b/pool"
  type: "Pooling"
  bottom: "inception_3a/output"
  top: "inception_3b/pool"
  pooling_param {
    pool: MAX
    kernel_size: 3
    stride: 1
    pad: 1
  }
}
layer {
  name: "inception_3b/pool_proj"
  type: "Convolution"
  bottom: "inception_3b/pool"
  top: "inception_3b/pool_proj"
  param {
    lr_mult: 1
    decay_mult: 1
  }
  param {
    lr_mult: 2
    decay_mult: 0
  }
  convolution_param {
    num_output: 64
    kernel_size: 1
    weight_filler {
      type: "xavier"
      std: 0.1
    }
    bias_filler {
      type: "constant"
      value: 0.2
    }
  }
}
layer {
  name: "inception_3b/relu_pool_proj"
  type: "ReLU"
  bottom: "inception_3b/pool_proj"
  top: "inception_3b/pool_proj"
}
layer {
  name: "inception_3b/output"
  type: "Concat"
  bottom: "inception_3b/1x1"
  bottom: "inception_3b/3x3"
  bottom: "inception_3b/5x5"
  bottom: "inception_3b/pool_proj"
  top: "inception_3b/output"
}
layer {
  name: "pool3/3x3_s2"
  type: "Pooling"
  bottom: "inception_3b/output"
  top: "pool3/3x3_s2"
  pooling_param {
    pool: MAX
    kernel_size: 3
    stride: 2
  }
}
layer {
  name: "inception_4a/1x1"
  type: "Convolution"
  bottom: "pool3/3x3_s2"
  top: "inception_4a/1x1"
  param {
    lr_mult: 1
    decay_mult: 1
  }
  param {
    lr_mult: 2
    decay_mult: 0
  }
  convolution_param {
    num_output: 192
    kernel_size: 1
    weight_filler {
      type: "xavier"
      std: 0.03
    }
    bias_filler {
      type: "constant"
      value: 0.2
    }
  }
}
layer {
  name: "inception_4a/relu_1x1"
  type: "ReLU"
  bottom: "inception_4a/1x1"
  top: "inception_4a/1x1"
}
layer {
  name: "inception_4a/3x3_reduce"
  type: "Convolution"
  bottom: "pool3/3x3_s2"
  top: "inception_4a/3x3_reduce"
  param {
    lr_mult: 1
    decay_mult: 1
  }
  param {
    lr_mult: 2
    decay_mult: 0
  }
  convolution_param {
    num_output: 96
    kernel_size: 1
    weight_filler {
      type: "xavier"
      std: 0.09
    }
    bias_filler {
      type: "constant"
      value: 0.2
    }
  }
}
layer {
  name: "inception_4a/relu_3x3_reduce"
  type: "ReLU"
  bottom: "inception_4a/3x3_reduce"
  top: "inception_4a/3x3_reduce"
}
layer {
  name: "inception_4a/3x3"
  type: "Convolution"
  bottom: "inception_4a/3x3_reduce"
  top: "inception_4a/3x3"
  param {
    lr_mult: 1
    decay_mult: 1
  }
  param {
    lr_mult: 2
    decay_mult: 0
  }
  convolution_param {
    num_output: 208
    pad: 1
    kernel_size: 3
    weight_filler {
      type: "xavier"
      std: 0.03
    }
    bias_filler {
      type: "constant"
      value: 0.2
    }
  }
}
layer {
  name: "inception_4a/relu_3x3"
  type: "ReLU"
  bottom: "inception_4a/3x3"
  top: "inception_4a/3x3"
}
layer {
  name: "inception_4a/5x5_reduce"
  type: "Convolution"
  bottom: "pool3/3x3_s2"
  top: "inception_4a/5x5_reduce"
  param {
    lr_mult: 1
    decay_mult: 1
  }
  param {
    lr_mult: 2
    decay_mult: 0
  }
  convolution_param {
    num_output: 16
    kernel_size: 1
    weight_filler {
      type: "xavier"
      std: 0.2
    }
    bias_filler {
      type: "constant"
      value: 0.2
    }
  }
}
layer {
  name: "inception_4a/relu_5x5_reduce"
  type: "ReLU"
  bottom: "inception_4a/5x5_reduce"
  top: "inception_4a/5x5_reduce"
}
layer {
  name: "inception_4a/5x5"
  type: "Convolution"
  bottom: "inception_4a/5x5_reduce"
  top: "inception_4a/5x5"
  param {
    lr_mult: 1
    decay_mult: 1
  }
  param {
    lr_mult: 2
    decay_mult: 0
  }
  convolution_param {
    num_output: 48
    pad: 2
    kernel_size: 5
    weight_filler {
      type: "xavier"
      std: 0.03
    }
    bias_filler {
      type: "constant"
      value: 0.2
    }
  }
}
layer {
  name: "inception_4a/relu_5x5"
  type: "ReLU"
  bottom: "inception_4a/5x5"
  top: "inception_4a/5x5"
}
layer {
  name: "inception_4a/pool"
  type: "Pooling"
  bottom: "pool3/3x3_s2"
  top: "inception_4a/pool"
  pooling_param {
    pool: MAX
    kernel_size: 3
    stride: 1
    pad: 1
  }
}
layer {
  name: "inception_4a/pool_proj"
  type: "Convolution"
  bottom: "inception_4a/pool"
  top: "inception_4a/pool_proj"
  param {
    lr_mult: 1
    decay_mult: 1
  }
  param {
    lr_mult: 2
    decay_mult: 0
  }
  convolution_param {
    num_output: 64
    kernel_size: 1
    weight_filler {
      type: "xavier"
      std: 0.1
    }
    bias_filler {
      type: "constant"
      value: 0.2
    }
  }
}
layer {
  name: "inception_4a/relu_pool_proj"
  type: "ReLU"
  bottom: "inception_4a/pool_proj"
  top: "inception_4a/pool_proj"
}
layer {
  name: "inception_4a/output"
  type: "Concat"
  bottom: "inception_4a/1x1"
  bottom: "inception_4a/3x3"
  bottom: "inception_4a/5x5"
  bottom: "inception_4a/pool_proj"
  top: "inception_4a/output"
}
layer {
  name: "loss1/ave_pool"
  type: "Pooling"
  bottom: "inception_4a/output"
  top: "loss1/ave_pool"
  pooling_param {
    pool: AVE
    kernel_size: 5
    stride: 3
  }
}
layer {
  name: "loss1/conv"
  type: "Convolution"
  bottom: "loss1/ave_pool"
  top: "loss1/conv"
  param {
    lr_mult: 1
    decay_mult: 1
  }
  param {
    lr_mult: 2
    decay_mult: 0
  }
  convolution_param {
    num_output: 128
    kernel_size: 1
    weight_filler {
      type: "xavier"
      std: 0.08
    }
    bias_filler {
      type: "constant"
      value: 0.2
    }
  }
}
layer {
  name: "loss1/relu_conv"
  type: "ReLU"
  bottom: "loss1/conv"
  top: "loss1/conv"
}
layer {
  name: "loss1/fc"
  type: "InnerProduct"
  bottom: "loss1/conv"
  top: "loss1/fc"
  param {
    lr_mult: 1
    decay_mult: 1
  }
  param {
    lr_mult: 2
    decay_mult: 0
  }
  inner_product_param {
    num_output: 1024
    weight_filler {
      type: "xavier"
      std: 0.02
    }
    bias_filler {
      type: "constant"
      value: 0.2
    }
  }
}
layer {
  name: "loss1/relu_fc"
  type: "ReLU"
  bottom: "loss1/fc"
  top: "loss1/fc"
}
layer {
  name: "loss1/drop_fc"
  type: "Dropout"
  bottom: "loss1/fc"
  top: "loss1/fc"
  dropout_param {
    dropout_ratio: 0.7
  }
}
layer {
  name: "loss1/classifier_plantvillage"
  type: "InnerProduct"
  bottom: "loss1/fc"
  top: "loss1/classifier_plantvillage"
  param {
    lr_mult: 1
    decay_mult: 1
  }
  param {
    lr_mult: 2
    decay_mult: 0
  }
  inner_product_param {
    num_output: 38
    weight_filler {
      type: "xavier"
      std: 0.0009765625
    }
    bias_filler {
      type: "constant"
      value: 0
    }
  }
}
layer {
  name: "inception_4b/1x1"
  type: "Convolution"
  bottom: "inception_4a/output"
  top: "inception_4b/1x1"
  param {
    lr_mult: 1
    decay_mult: 1
  }
  param {
    lr_mult: 2
    decay_mult: 0
  }
  convolution_param {
    num_output: 160
    kernel_size: 1
    weight_filler {
      type: "xavier"
      std: 0.03
    }
    bias_filler {
      type: "constant"
      value: 0.2
    }
  }
}
layer {
  name: "inception_4b/relu_1x1"
  type: "ReLU"
  bottom: "inception_4b/1x1"
  top: "inception_4b/1x1"
}
layer {
  name: "inception_4b/3x3_reduce"
  type: "Convolution"
  bottom: "inception_4a/output"
  top: "inception_4b/3x3_reduce"
  param {
    lr_mult: 1
    decay_mult: 1
  }
  param {
    lr_mult: 2
    decay_mult: 0
  }
  convolution_param {
    num_output: 112
    kernel_size: 1
    weight_filler {
      type: "xavier"
      std: 0.09
    }
    bias_filler {
      type: "constant"
      value: 0.2
    }
  }
}
layer {
  name: "inception_4b/relu_3x3_reduce"
  type: "ReLU"
  bottom: "inception_4b/3x3_reduce"
  top: "inception_4b/3x3_reduce"
}
layer {
  name: "inception_4b/3x3"
  type: "Convolution"
  bottom: "inception_4b/3x3_reduce"
  top: "inception_4b/3x3"
  param {
    lr_mult: 1
    decay_mult: 1
  }
  param {
    lr_mult: 2
    decay_mult: 0
  }
  convolution_param {
    num_output: 224
    pad: 1
    kernel_size: 3
    weight_filler {
      type: "xavier"
      std: 0.03
    }
    bias_filler {
      type: "constant"
      value: 0.2
    }
  }
}
layer {
  name: "inception_4b/relu_3x3"
  type: "ReLU"
  bottom: "inception_4b/3x3"
  top: "inception_4b/3x3"
}
layer {
  name: "inception_4b/5x5_reduce"
  type: "Convolution"
  bottom: "inception_4a/output"
  top: "inception_4b/5x5_reduce"
  param {
    lr_mult: 1
    decay_mult: 1
  }
  param {
    lr_mult: 2
    decay_mult: 0
  }
  convolution_param {
    num_output: 24
    kernel_size: 1
    weight_filler {
      type: "xavier"
      std: 0.2
    }
    bias_filler {
      type: "constant"
      value: 0.2
    }
  }
}
layer {
  name: "inception_4b/relu_5x5_reduce"
  type: "ReLU"
  bottom: "inception_4b/5x5_reduce"
  top: "inception_4b/5x5_reduce"
}
layer {
  name: "inception_4b/5x5"
  type: "Convolution"
  bottom: "inception_4b/5x5_reduce"
  top: "inception_4b/5x5"
  param {
    lr_mult: 1
    decay_mult: 1
  }
  param {
    lr_mult: 2
    decay_mult: 0
  }
  convolution_param {
    num_output: 64
    pad: 2
    kernel_size: 5
    weight_filler {
      type: "xavier"
      std: 0.03
    }
    bias_filler {
      type: "constant"
      value: 0.2
    }
  }
}
layer {
  name: "inception_4b/relu_5x5"
  type: "ReLU"
  bottom: "inception_4b/5x5"
  top: "inception_4b/5x5"
}
layer {
  name: "inception_4b/pool"
  type: "Pooling"
  bottom: "inception_4a/output"
  top: "inception_4b/pool"
  pooling_param {
    pool: MAX
    kernel_size: 3
    stride: 1
    pad: 1
  }
}
layer {
  name: "inception_4b/pool_proj"
  type: "Convolution"
  bottom: "inception_4b/pool"
  top: "inception_4b/pool_proj"
  param {
    lr_mult: 1
    decay_mult: 1
  }
  param {
    lr_mult: 2
    decay_mult: 0
  }
  convolution_param {
    num_output: 64
    kernel_size: 1
    weight_filler {
      type: "xavier"
      std: 0.1
    }
    bias_filler {
      type: "constant"
      value: 0.2
    }
  }
}
layer {
  name: "inception_4b/relu_pool_proj"
  type: "ReLU"
  bottom: "inception_4b/pool_proj"
  top: "inception_4b/pool_proj"
}
layer {
  name: "inception_4b/output"
  type: "Concat"
  bottom: "inception_4b/1x1"
  bottom: "inception_4b/3x3"
  bottom: "inception_4b/5x5"
  bottom: "inception_4b/pool_proj"
  top: "inception_4b/output"
}
layer {
  name: "inception_4c/1x1"
  type: "Convolution"
  bottom: "inception_4b/output"
  top: "inception_4c/1x1"
  param {
    lr_mult: 1
    decay_mult: 1
  }
  param {
    lr_mult: 2
    decay_mult: 0
  }
  convolution_param {
    num_output: 128
    kernel_size: 1
    weight_filler {
      type: "xavier"
      std: 0.03
    }
    bias_filler {
      type: "constant"
      value: 0.2
    }
  }
}
layer {
  name: "inception_4c/relu_1x1"
  type: "ReLU"
  bottom: "inception_4c/1x1"
  top: "inception_4c/1x1"
}
layer {
  name: "inception_4c/3x3_reduce"
  type: "Convolution"
  bottom: "inception_4b/output"
  top: "inception_4c/3x3_reduce"
  param {
    lr_mult: 1
    decay_mult: 1
  }
  param {
    lr_mult: 2
    decay_mult: 0
  }
  convolution_param {
    num_output: 128
    kernel_size: 1
    weight_filler {
      type: "xavier"
      std: 0.09
    }
    bias_filler {
      type: "constant"
      value: 0.2
    }
  }
}
layer {
  name: "inception_4c/relu_3x3_reduce"
  type: "ReLU"
  bottom: "inception_4c/3x3_reduce"
  top: "inception_4c/3x3_reduce"
}
layer {
  name: "inception_4c/3x3"
  type: "Convolution"
  bottom: "inception_4c/3x3_reduce"
  top: "inception_4c/3x3"
  param {
    lr_mult: 1
    decay_mult: 1
  }
  param {
    lr_mult: 2
    decay_mult: 0
  }
  convolution_param {
    num_output: 256
    pad: 1
    kernel_size: 3
    weight_filler {
      type: "xavier"
      std: 0.03
    }
    bias_filler {
      type: "constant"
      value: 0.2
    }
  }
}
layer {
  name: "inception_4c/relu_3x3"
  type: "ReLU"
  bottom: "inception_4c/3x3"
  top: "inception_4c/3x3"
}
layer {
  name: "inception_4c/5x5_reduce"
  type: "Convolution"
  bottom: "inception_4b/output"
  top: "inception_4c/5x5_reduce"
  param {
    lr_mult: 1
    decay_mult: 1
  }
  param {
    lr_mult: 2
    decay_mult: 0
  }
  convolution_param {
    num_output: 24
    kernel_size: 1
    weight_filler {
      type: "xavier"
      std: 0.2
    }
    bias_filler {
      type: "constant"
      value: 0.2
    }
  }
}
layer {
  name: "inception_4c/relu_5x5_reduce"
  type: "ReLU"
  bottom: "inception_4c/5x5_reduce"
  top: "inception_4c/5x5_reduce"
}
layer {
  name: "inception_4c/5x5"
  type: "Convolution"
  bottom: "inception_4c/5x5_reduce"
  top: "inception_4c/5x5"
  param {
    lr_mult: 1
    decay_mult: 1
  }
  param {
    lr_mult: 2
    decay_mult: 0
  }
  convolution_param {
    num_output: 64
    pad: 2
    kernel_size: 5
    weight_filler {
      type: "xavier"
      std: 0.03
    }
    bias_filler {
      type: "constant"
      value: 0.2
    }
  }
}
layer {
  name: "inception_4c/relu_5x5"
  type: "ReLU"
  bottom: "inception_4c/5x5"
  top: "inception_4c/5x5"
}
layer {
  name: "inception_4c/pool"
  type: "Pooling"
  bottom: "inception_4b/output"
  top: "inception_4c/pool"
  pooling_param {
    pool: MAX
    kernel_size: 3
    stride: 1
    pad: 1
  }
}
layer {
  name: "inception_4c/pool_proj"
  type: "Convolution"
  bottom: "inception_4c/pool"
  top: "inception_4c/pool_proj"
  param {
    lr_mult: 1
    decay_mult: 1
  }
  param {
    lr_mult: 2
    decay_mult: 0
  }
  convolution_param {
    num_output: 64
    kernel_size: 1
    weight_filler {
      type: "xavier"
      std: 0.1
    }
    bias_filler {
      type: "constant"
      value: 0.2
    }
  }
}
layer {
  name: "inception_4c/relu_pool_proj"
  type: "ReLU"
  bottom: "inception_4c/pool_proj"
  top: "inception_4c/pool_proj"
}
layer {
  name: "inception_4c/output"
  type: "Concat"
  bottom: "inception_4c/1x1"
  bottom: "inception_4c/3x3"
  bottom: "inception_4c/5x5"
  bottom: "inception_4c/pool_proj"
  top: "inception_4c/output"
}
layer {
  name: "inception_4d/1x1"
  type: "Convolution"
  bottom: "inception_4c/output"
  top: "inception_4d/1x1"
  param {
    lr_mult: 1
    decay_mult: 1
  }
  param {
    lr_mult: 2
    decay_mult: 0
  }
  convolution_param {
    num_output: 112
    kernel_size: 1
    weight_filler {
      type: "xavier"
      std: 0.03
    }
    bias_filler {
      type: "constant"
      value: 0.2
    }
  }
}
layer {
  name: "inception_4d/relu_1x1"
  type: "ReLU"
  bottom: "inception_4d/1x1"
  top: "inception_4d/1x1"
}
layer {
  name: "inception_4d/3x3_reduce"
  type: "Convolution"
  bottom: "inception_4c/output"
  top: "inception_4d/3x3_reduce"
  param {
    lr_mult: 1
    decay_mult: 1
  }
  param {
    lr_mult: 2
    decay_mult: 0
  }
  convolution_param {
    num_output: 144
    kernel_size: 1
    weight_filler {
      type: "xavier"
      std: 0.09
    }
    bias_filler {
      type: "constant"
      value: 0.2
    }
  }
}
layer {
  name: "inception_4d/relu_3x3_reduce"
  type: "ReLU"
  bottom: "inception_4d/3x3_reduce"
  top: "inception_4d/3x3_reduce"
}
layer {
  name: "inception_4d/3x3"
  type: "Convolution"
  bottom: "inception_4d/3x3_reduce"
  top: "inception_4d/3x3"
  param {
    lr_mult: 1
    decay_mult: 1
  }
  param {
    lr_mult: 2
    decay_mult: 0
  }
  convolution_param {
    num_output: 288
    pad: 1
    kernel_size: 3
    weight_filler {
      type: "xavier"
      std: 0.03
    }
    bias_filler {
      type: "constant"
      value: 0.2
    }
  }
}
layer {
  name: "inception_4d/relu_3x3"
  type: "ReLU"
  bottom: "inception_4d/3x3"
  top: "inception_4d/3x3"
}
layer {
  name: "inception_4d/5x5_reduce"
  type: "Convolution"
  bottom: "inception_4c/output"
  top: "inception_4d/5x5_reduce"
  param {
    lr_mult: 1
    decay_mult: 1
  }
  param {
    lr_mult: 2
    decay_mult: 0
  }
  convolution_param {
    num_output: 32
    kernel_size: 1
    weight_filler {
      type: "xavier"
      std: 0.2
    }
    bias_filler {
      type: "constant"
      value: 0.2
    }
  }
}
layer {
  name: "inception_4d/relu_5x5_reduce"
  type: "ReLU"
  bottom: "inception_4d/5x5_reduce"
  top: "inception_4d/5x5_reduce"
}
layer {
  name: "inception_4d/5x5"
  type: "Convolution"
  bottom: "inception_4d/5x5_reduce"
  top: "inception_4d/5x5"
  param {
    lr_mult: 1
    decay_mult: 1
  }
  param {
    lr_mult: 2
    decay_mult: 0
  }
  convolution_param {
    num_output: 64
    pad: 2
    kernel_size: 5
    weight_filler {
      type: "xavier"
      std: 0.03
    }
    bias_filler {
      type: "constant"
      value: 0.2
    }
  }
}
layer {
  name: "inception_4d/relu_5x5"
  type: "ReLU"
  bottom: "inception_4d/5x5"
  top: "inception_4d/5x5"
}
layer {
  name: "inception_4d/pool"
  type: "Pooling"
  bottom: "inception_4c/output"
  top: "inception_4d/pool"
  pooling_param {
    pool: MAX
    kernel_size: 3
    stride: 1
    pad: 1
  }
}
layer {
  name: "inception_4d/pool_proj"
  type: "Convolution"
  bottom: "inception_4d/pool"
  top: "inception_4d/pool_proj"
  param {
    lr_mult: 1
    decay_mult: 1
  }
  param {
    lr_mult: 2
    decay_mult: 0
  }
  convolution_param {
    num_output: 64
    kernel_size: 1
    weight_filler {
      type: "xavier"
      std: 0.1
    }
    bias_filler {
      type: "constant"
      value: 0.2
    }
  }
}
layer {
  name: "inception_4d/relu_pool_proj"
  type: "ReLU"
  bottom: "inception_4d/pool_proj"
  top: "inception_4d/pool_proj"
}
layer {
  name: "inception_4d/output"
  type: "Concat"
  bottom: "inception_4d/1x1"
  bottom: "inception_4d/3x3"
  bottom: "inception_4d/5x5"
  bottom: "inception_4d/pool_proj"
  top: "inception_4d/output"
}
layer {
  name: "loss2/ave_pool"
  type: "Pooling"
  bottom: "inception_4d/output"
  top: "loss2/ave_pool"
  pooling_param {
    pool: AVE
    kernel_size: 5
    stride: 3
  }
}
layer {
  name: "loss2/conv"
  type: "Convolution"
  bottom: "loss2/ave_pool"
  top: "loss2/conv"
  param {
    lr_mult: 1
    decay_mult: 1
  }
  param {
    lr_mult: 2
    decay_mult: 0
  }
  convolution_param {
    num_output: 128
    kernel_size: 1
    weight_filler {
      type: "xavier"
      std: 0.08
    }
    bias_filler {
      type: "constant"
      value: 0.2
    }
  }
}
layer {
  name: "loss2/relu_conv"
  type: "ReLU"
  bottom: "loss2/conv"
  top: "loss2/conv"
}
layer {
  name: "loss2/fc"
  type: "InnerProduct"
  bottom: "loss2/conv"
  top: "loss2/fc"
  param {
    lr_mult: 1
    decay_mult: 1
  }
  param {
    lr_mult: 2
    decay_mult: 0
  }
  inner_product_param {
    num_output: 1024
    weight_filler {
      type: "xavier"
      std: 0.02
    }
    bias_filler {
      type: "constant"
      value: 0.2
    }
  }
}
layer {
  name: "loss2/relu_fc"
  type: "ReLU"
  bottom: "loss2/fc"
  top: "loss2/fc"
}
layer {
  name: "loss2/drop_fc"
  type: "Dropout"
  bottom: "loss2/fc"
  top: "loss2/fc"
  dropout_param {
    dropout_ratio: 0.7
  }
}
layer {
  name: "loss2/classifier_plantvillage"
  type: "InnerProduct"
  bottom: "loss2/fc"
  top: "loss2/classifier_plantvillage"
  param {
    lr_mult: 1
    decay_mult: 1
  }
  param {
    lr_mult: 2
    decay_mult: 0
  }
  inner_product_param {
    num_output: 38
    weight_filler {
      type: "xavier"
      std: 0.0009765625
    }
    bias_filler {
      type: "constant"
      value: 0
    }
  }
}
layer {
  name: "inception_4e/1x1"
  type: "Convolution"
  bottom: "inception_4d/output"
  top: "inception_4e/1x1"
  param {
    lr_mult: 1
    decay_mult: 1
  }
  param {
    lr_mult: 2
    decay_mult: 0
  }
  convolution_param {
    num_output: 256
    kernel_size: 1
    weight_filler {
      type: "xavier"
      std: 0.03
    }
    bias_filler {
      type: "constant"
      value: 0.2
    }
  }
}
layer {
  name: "inception_4e/relu_1x1"
  type: "ReLU"
  bottom: "inception_4e/1x1"
  top: "inception_4e/1x1"
}
layer {
  name: "inception_4e/3x3_reduce"
  type: "Convolution"
  bottom: "inception_4d/output"
  top: "inception_4e/3x3_reduce"
  param {
    lr_mult: 1
    decay_mult: 1
  }
  param {
    lr_mult: 2
    decay_mult: 0
  }
  convolution_param {
    num_output: 160
    kernel_size: 1
    weight_filler {
      type: "xavier"
      std: 0.09
    }
    bias_filler {
      type: "constant"
      value: 0.2
    }
  }
}
layer {
  name: "inception_4e/relu_3x3_reduce"
  type: "ReLU"
  bottom: "inception_4e/3x3_reduce"
  top: "inception_4e/3x3_reduce"
}
layer {
  name: "inception_4e/3x3"
  type: "Convolution"
  bottom: "inception_4e/3x3_reduce"
  top: "inception_4e/3x3"
  param {
    lr_mult: 1
    decay_mult: 1
  }
  param {
    lr_mult: 2
    decay_mult: 0
  }
  convolution_param {
    num_output: 320
    pad: 1
    kernel_size: 3
    weight_filler {
      type: "xavier"
      std: 0.03
    }
    bias_filler {
      type: "constant"
      value: 0.2
    }
  }
}
layer {
  name: "inception_4e/relu_3x3"
  type: "ReLU"
  bottom: "inception_4e/3x3"
  top: "inception_4e/3x3"
}
layer {
  name: "inception_4e/5x5_reduce"
  type: "Convolution"
  bottom: "inception_4d/output"
  top: "inception_4e/5x5_reduce"
  param {
    lr_mult: 1
    decay_mult: 1
  }
  param {
    lr_mult: 2
    decay_mult: 0
  }
  convolution_param {
    num_output: 32
    kernel_size: 1
    weight_filler {
      type: "xavier"
      std: 0.2
    }
    bias_filler {
      type: "constant"
      value: 0.2
    }
  }
}
layer {
  name: "inception_4e/relu_5x5_reduce"
  type: "ReLU"
  bottom: "inception_4e/5x5_reduce"
  top: "inception_4e/5x5_reduce"
}
layer {
  name: "inception_4e/5x5"
  type: "Convolution"
  bottom: "inception_4e/5x5_reduce"
  top: "inception_4e/
I0403 19:21:25.560614 19597 layer_factory.hpp:77] Creating layer data
I0403 19:21:25.561197 19597 net.cpp:91] Creating Layer data
I0403 19:21:25.561225 19597 net.cpp:399] data -> data
I0403 19:21:25.561275 19597 net.cpp:399] data -> label
I0403 19:21:25.561310 19597 data_transformer.cpp:25] Loading mean file from: /home/mohanty/data/final_dataset/lmdb/segmented-60-40/mean.binaryproto
I0403 19:21:25.562512 19601 db_lmdb.cpp:38] Opened lmdb /home/mohanty/data/final_dataset/lmdb/segmented-60-40/test_db
I0403 19:21:25.574059 19597 data_layer.cpp:41] output data size: 24,3,224,224
I0403 19:21:25.600965 19597 net.cpp:141] Setting up data
I0403 19:21:25.601066 19597 net.cpp:148] Top shape: 24 3 224 224 (3612672)
I0403 19:21:25.601090 19597 net.cpp:148] Top shape: 24 (24)
I0403 19:21:25.601105 19597 net.cpp:156] Memory required for data: 14450784
I0403 19:21:25.601135 19597 layer_factory.hpp:77] Creating layer label_data_1_split
I0403 19:21:25.601162 19597 net.cpp:91] Creating Layer label_data_1_split
I0403 19:21:25.601182 19597 net.cpp:425] label_data_1_split <- label
I0403 19:21:25.601213 19597 net.cpp:399] label_data_1_split -> label_data_1_split_0
I0403 19:21:25.601243 19597 net.cpp:399] label_data_1_split -> label_data_1_split_1
I0403 19:21:25.601264 19597 net.cpp:399] label_data_1_split -> label_data_1_split_2
I0403 19:21:25.601286 19597 net.cpp:399] label_data_1_split -> label_data_1_split_3
I0403 19:21:25.601308 19597 net.cpp:399] label_data_1_split -> label_data_1_split_4
I0403 19:21:25.601328 19597 net.cpp:399] label_data_1_split -> label_data_1_split_5
I0403 19:21:25.601348 19597 net.cpp:399] label_data_1_split -> label_data_1_split_6
I0403 19:21:25.601371 19597 net.cpp:399] label_data_1_split -> label_data_1_split_7
I0403 19:21:25.601392 19597 net.cpp:399] label_data_1_split -> label_data_1_split_8
I0403 19:21:25.601413 19597 net.cpp:399] label_data_1_split -> label_data_1_split_9
I0403 19:21:25.601529 19597 net.cpp:141] Setting up label_data_1_split
I0403 19:21:25.601553 19597 net.cpp:148] Top shape: 24 (24)
I0403 19:21:25.601569 19597 net.cpp:148] Top shape: 24 (24)
I0403 19:21:25.601585 19597 net.cpp:148] Top shape: 24 (24)
I0403 19:21:25.601600 19597 net.cpp:148] Top shape: 24 (24)
I0403 19:21:25.601616 19597 net.cpp:148] Top shape: 24 (24)
I0403 19:21:25.601631 19597 net.cpp:148] Top shape: 24 (24)
I0403 19:21:25.601647 19597 net.cpp:148] Top shape: 24 (24)
I0403 19:21:25.601662 19597 net.cpp:148] Top shape: 24 (24)
I0403 19:21:25.601677 19597 net.cpp:148] Top shape: 24 (24)
I0403 19:21:25.601693 19597 net.cpp:148] Top shape: 24 (24)
I0403 19:21:25.601727 19597 net.cpp:156] Memory required for data: 14451744
I0403 19:21:25.601742 19597 layer_factory.hpp:77] Creating layer conv1/7x7_s2
I0403 19:21:25.601773 19597 net.cpp:91] Creating Layer conv1/7x7_s2
I0403 19:21:25.601791 19597 net.cpp:425] conv1/7x7_s2 <- data
I0403 19:21:25.601811 19597 net.cpp:399] conv1/7x7_s2 -> conv1/7x7_s2
I0403 19:21:25.740547 19597 net.cpp:141] Setting up conv1/7x7_s2
I0403 19:21:25.740635 19597 net.cpp:148] Top shape: 24 64 112 112 (19267584)
I0403 19:21:25.740654 19597 net.cpp:156] Memory required for data: 91522080
I0403 19:21:25.740685 19597 layer_factory.hpp:77] Creating layer conv1/relu_7x7
I0403 19:21:25.740713 19597 net.cpp:91] Creating Layer conv1/relu_7x7
I0403 19:21:25.740732 19597 net.cpp:425] conv1/relu_7x7 <- conv1/7x7_s2
I0403 19:21:25.740751 19597 net.cpp:386] conv1/relu_7x7 -> conv1/7x7_s2 (in-place)
I0403 19:21:25.741009 19597 net.cpp:141] Setting up conv1/relu_7x7
I0403 19:21:25.741036 19597 net.cpp:148] Top shape: 24 64 112 112 (19267584)
I0403 19:21:25.741052 19597 net.cpp:156] Memory required for data: 168592416
I0403 19:21:25.741067 19597 layer_factory.hpp:77] Creating layer pool1/3x3_s2
I0403 19:21:25.741092 19597 net.cpp:91] Creating Layer pool1/3x3_s2
I0403 19:21:25.741111 19597 net.cpp:425] pool1/3x3_s2 <- conv1/7x7_s2
I0403 19:21:25.741128 19597 net.cpp:399] pool1/3x3_s2 -> pool1/3x3_s2
I0403 19:21:25.741201 19597 net.cpp:141] Setting up pool1/3x3_s2
I0403 19:21:25.741225 19597 net.cpp:148] Top shape: 24 64 56 56 (4816896)
I0403 19:21:25.741240 19597 net.cpp:156] Memory required for data: 187860000
I0403 19:21:25.741255 19597 layer_factory.hpp:77] Creating layer pool1/norm1
I0403 19:21:25.741279 19597 net.cpp:91] Creating Layer pool1/norm1
I0403 19:21:25.741297 19597 net.cpp:425] pool1/norm1 <- pool1/3x3_s2
I0403 19:21:25.741314 19597 net.cpp:399] pool1/norm1 -> pool1/norm1
I0403 19:21:25.741595 19597 net.cpp:141] Setting up pool1/norm1
I0403 19:21:25.741622 19597 net.cpp:148] Top shape: 24 64 56 56 (4816896)
I0403 19:21:25.741638 19597 net.cpp:156] Memory required for data: 207127584
I0403 19:21:25.741654 19597 layer_factory.hpp:77] Creating layer conv2/3x3_reduce
I0403 19:21:25.741679 19597 net.cpp:91] Creating Layer conv2/3x3_reduce
I0403 19:21:25.741696 19597 net.cpp:425] conv2/3x3_reduce <- pool1/norm1
I0403 19:21:25.741715 19597 net.cpp:399] conv2/3x3_reduce -> conv2/3x3_reduce
I0403 19:21:25.743093 19597 net.cpp:141] Setting up conv2/3x3_reduce
I0403 19:21:25.743125 19597 net.cpp:148] Top shape: 24 64 56 56 (4816896)
I0403 19:21:25.743142 19597 net.cpp:156] Memory required for data: 226395168
I0403 19:21:25.743163 19597 layer_factory.hpp:77] Creating layer conv2/relu_3x3_reduce
I0403 19:21:25.743183 19597 net.cpp:91] Creating Layer conv2/relu_3x3_reduce
I0403 19:21:25.743201 19597 net.cpp:425] conv2/relu_3x3_reduce <- conv2/3x3_reduce
I0403 19:21:25.743221 19597 net.cpp:386] conv2/relu_3x3_reduce -> conv2/3x3_reduce (in-place)
I0403 19:21:25.743489 19597 net.cpp:141] Setting up conv2/relu_3x3_reduce
I0403 19:21:25.743518 19597 net.cpp:148] Top shape: 24 64 56 56 (4816896)
I0403 19:21:25.743535 19597 net.cpp:156] Memory required for data: 245662752
I0403 19:21:25.743551 19597 layer_factory.hpp:77] Creating layer conv2/3x3
I0403 19:21:25.743574 19597 net.cpp:91] Creating Layer conv2/3x3
I0403 19:21:25.743592 19597 net.cpp:425] conv2/3x3 <- conv2/3x3_reduce
I0403 19:21:25.743613 19597 net.cpp:399] conv2/3x3 -> conv2/3x3
I0403 19:21:25.745880 19597 net.cpp:141] Setting up conv2/3x3
I0403 19:21:25.745913 19597 net.cpp:148] Top shape: 24 192 56 56 (14450688)
I0403 19:21:25.745930 19597 net.cpp:156] Memory required for data: 303465504
I0403 19:21:25.745955 19597 layer_factory.hpp:77] Creating layer conv2/relu_3x3
I0403 19:21:25.745975 19597 net.cpp:91] Creating Layer conv2/relu_3x3
I0403 19:21:25.745992 19597 net.cpp:425] conv2/relu_3x3 <- conv2/3x3
I0403 19:21:25.746012 19597 net.cpp:386] conv2/relu_3x3 -> conv2/3x3 (in-place)
I0403 19:21:25.746183 19597 net.cpp:141] Setting up conv2/relu_3x3
I0403 19:21:25.746209 19597 net.cpp:148] Top shape: 24 192 56 56 (14450688)
I0403 19:21:25.746254 19597 net.cpp:156] Memory required for data: 361268256
I0403 19:21:25.746270 19597 layer_factory.hpp:77] Creating layer conv2/norm2
I0403 19:21:25.746292 19597 net.cpp:91] Creating Layer conv2/norm2
I0403 19:21:25.746309 19597 net.cpp:425] conv2/norm2 <- conv2/3x3
I0403 19:21:25.746327 19597 net.cpp:399] conv2/norm2 -> conv2/norm2
I0403 19:21:25.746624 19597 net.cpp:141] Setting up conv2/norm2
I0403 19:21:25.746654 19597 net.cpp:148] Top shape: 24 192 56 56 (14450688)
I0403 19:21:25.746670 19597 net.cpp:156] Memory required for data: 419071008
I0403 19:21:25.746685 19597 layer_factory.hpp:77] Creating layer pool2/3x3_s2
I0403 19:21:25.746703 19597 net.cpp:91] Creating Layer pool2/3x3_s2
I0403 19:21:25.746719 19597 net.cpp:425] pool2/3x3_s2 <- conv2/norm2
I0403 19:21:25.746737 19597 net.cpp:399] pool2/3x3_s2 -> pool2/3x3_s2
I0403 19:21:25.746793 19597 net.cpp:141] Setting up pool2/3x3_s2
I0403 19:21:25.746815 19597 net.cpp:148] Top shape: 24 192 28 28 (3612672)
I0403 19:21:25.746830 19597 net.cpp:156] Memory required for data: 433521696
I0403 19:21:25.746846 19597 layer_factory.hpp:77] Creating layer pool2/3x3_s2_pool2/3x3_s2_0_split
I0403 19:21:25.746863 19597 net.cpp:91] Creating Layer pool2/3x3_s2_pool2/3x3_s2_0_split
I0403 19:21:25.746879 19597 net.cpp:425] pool2/3x3_s2_pool2/3x3_s2_0_split <- pool2/3x3_s2
I0403 19:21:25.746901 19597 net.cpp:399] pool2/3x3_s2_pool2/3x3_s2_0_split -> pool2/3x3_s2_pool2/3x3_s2_0_split_0
I0403 19:21:25.746922 19597 net.cpp:399] pool2/3x3_s2_pool2/3x3_s2_0_split -> pool2/3x3_s2_pool2/3x3_s2_0_split_1
I0403 19:21:25.746942 19597 net.cpp:399] pool2/3x3_s2_pool2/3x3_s2_0_split -> pool2/3x3_s2_pool2/3x3_s2_0_split_2
I0403 19:21:25.746968 19597 net.cpp:399] pool2/3x3_s2_pool2/3x3_s2_0_split -> pool2/3x3_s2_pool2/3x3_s2_0_split_3
I0403 19:21:25.747042 19597 net.cpp:141] Setting up pool2/3x3_s2_pool2/3x3_s2_0_split
I0403 19:21:25.747066 19597 net.cpp:148] Top shape: 24 192 28 28 (3612672)
I0403 19:21:25.747082 19597 net.cpp:148] Top shape: 24 192 28 28 (3612672)
I0403 19:21:25.747098 19597 net.cpp:148] Top shape: 24 192 28 28 (3612672)
I0403 19:21:25.747114 19597 net.cpp:148] Top shape: 24 192 28 28 (3612672)
I0403 19:21:25.747129 19597 net.cpp:156] Memory required for data: 491324448
I0403 19:21:25.747144 19597 layer_factory.hpp:77] Creating layer inception_3a/1x1
I0403 19:21:25.747167 19597 net.cpp:91] Creating Layer inception_3a/1x1
I0403 19:21:25.747184 19597 net.cpp:425] inception_3a/1x1 <- pool2/3x3_s2_pool2/3x3_s2_0_split_0
I0403 19:21:25.747205 19597 net.cpp:399] inception_3a/1x1 -> inception_3a/1x1
I0403 19:21:25.748740 19597 net.cpp:141] Setting up inception_3a/1x1
I0403 19:21:25.748772 19597 net.cpp:148] Top shape: 24 64 28 28 (1204224)
I0403 19:21:25.748790 19597 net.cpp:156] Memory required for data: 496141344
I0403 19:21:25.748811 19597 layer_factory.hpp:77] Creating layer inception_3a/relu_1x1
I0403 19:21:25.748829 19597 net.cpp:91] Creating Layer inception_3a/relu_1x1
I0403 19:21:25.748845 19597 net.cpp:425] inception_3a/relu_1x1 <- inception_3a/1x1
I0403 19:21:25.748867 19597 net.cpp:386] inception_3a/relu_1x1 -> inception_3a/1x1 (in-place)
I0403 19:21:25.749055 19597 net.cpp:141] Setting up inception_3a/relu_1x1
I0403 19:21:25.749081 19597 net.cpp:148] Top shape: 24 64 28 28 (1204224)
I0403 19:21:25.749097 19597 net.cpp:156] Memory required for data: 500958240
I0403 19:21:25.749114 19597 layer_factory.hpp:77] Creating layer inception_3a/3x3_reduce
I0403 19:21:25.749137 19597 net.cpp:91] Creating Layer inception_3a/3x3_reduce
I0403 19:21:25.749155 19597 net.cpp:425] inception_3a/3x3_reduce <- pool2/3x3_s2_pool2/3x3_s2_0_split_1
I0403 19:21:25.749177 19597 net.cpp:399] inception_3a/3x3_reduce -> inception_3a/3x3_reduce
I0403 19:21:25.750885 19597 net.cpp:141] Setting up inception_3a/3x3_reduce
I0403 19:21:25.750917 19597 net.cpp:148] Top shape: 24 96 28 28 (1806336)
I0403 19:21:25.750934 19597 net.cpp:156] Memory required for data: 508183584
I0403 19:21:25.750962 19597 layer_factory.hpp:77] Creating layer inception_3a/relu_3x3_reduce
I0403 19:21:25.750998 19597 net.cpp:91] Creating Layer inception_3a/relu_3x3_reduce
I0403 19:21:25.751016 19597 net.cpp:425] inception_3a/relu_3x3_reduce <- inception_3a/3x3_reduce
I0403 19:21:25.751037 19597 net.cpp:386] inception_3a/relu_3x3_reduce -> inception_3a/3x3_reduce (in-place)
I0403 19:21:25.751224 19597 net.cpp:141] Setting up inception_3a/relu_3x3_reduce
I0403 19:21:25.751251 19597 net.cpp:148] Top shape: 24 96 28 28 (1806336)
I0403 19:21:25.751268 19597 net.cpp:156] Memory required for data: 515408928
I0403 19:21:25.751283 19597 layer_factory.hpp:77] Creating layer inception_3a/3x3
I0403 19:21:25.751307 19597 net.cpp:91] Creating Layer inception_3a/3x3
I0403 19:21:25.751324 19597 net.cpp:425] inception_3a/3x3 <- inception_3a/3x3_reduce
I0403 19:21:25.751344 19597 net.cpp:399] inception_3a/3x3 -> inception_3a/3x3
I0403 19:21:25.753059 19597 net.cpp:141] Setting up inception_3a/3x3
I0403 19:21:25.753088 19597 net.cpp:148] Top shape: 24 128 28 28 (2408448)
I0403 19:21:25.753104 19597 net.cpp:156] Memory required for data: 525042720
I0403 19:21:25.753123 19597 layer_factory.hpp:77] Creating layer inception_3a/relu_3x3
I0403 19:21:25.753141 19597 net.cpp:91] Creating Layer inception_3a/relu_3x3
I0403 19:21:25.753159 19597 net.cpp:425] inception_3a/relu_3x3 <- inception_3a/3x3
I0403 19:21:25.753180 19597 net.cpp:386] inception_3a/relu_3x3 -> inception_3a/3x3 (in-place)
I0403 19:21:25.753473 19597 net.cpp:141] Setting up inception_3a/relu_3x3
I0403 19:21:25.753500 19597 net.cpp:148] Top shape: 24 128 28 28 (2408448)
I0403 19:21:25.753516 19597 net.cpp:156] Memory required for data: 534676512
I0403 19:21:25.753531 19597 layer_factory.hpp:77] Creating layer inception_3a/5x5_reduce
I0403 19:21:25.753556 19597 net.cpp:91] Creating Layer inception_3a/5x5_reduce
I0403 19:21:25.753576 19597 net.cpp:425] inception_3a/5x5_reduce <- pool2/3x3_s2_pool2/3x3_s2_0_split_2
I0403 19:21:25.753597 19597 net.cpp:399] inception_3a/5x5_reduce -> inception_3a/5x5_reduce
I0403 19:21:25.754624 19597 net.cpp:141] Setting up inception_3a/5x5_reduce
I0403 19:21:25.754653 19597 net.cpp:148] Top shape: 24 16 28 28 (301056)
I0403 19:21:25.754670 19597 net.cpp:156] Memory required for data: 535880736
I0403 19:21:25.754689 19597 layer_factory.hpp:77] Creating layer inception_3a/relu_5x5_reduce
I0403 19:21:25.754710 19597 net.cpp:91] Creating Layer inception_3a/relu_5x5_reduce
I0403 19:21:25.754729 19597 net.cpp:425] inception_3a/relu_5x5_reduce <- inception_3a/5x5_reduce
I0403 19:21:25.754746 19597 net.cpp:386] inception_3a/relu_5x5_reduce -> inception_3a/5x5_reduce (in-place)
I0403 19:21:25.755053 19597 net.cpp:141] Setting up inception_3a/relu_5x5_reduce
I0403 19:21:25.755080 19597 net.cpp:148] Top shape: 24 16 28 28 (301056)
I0403 19:21:25.755096 19597 net.cpp:156] Memory required for data: 537084960
I0403 19:21:25.755111 19597 layer_factory.hpp:77] Creating layer inception_3a/5x5
I0403 19:21:25.755136 19597 net.cpp:91] Creating Layer inception_3a/5x5
I0403 19:21:25.755153 19597 net.cpp:425] inception_3a/5x5 <- inception_3a/5x5_reduce
I0403 19:21:25.755175 19597 net.cpp:399] inception_3a/5x5 -> inception_3a/5x5
I0403 19:21:25.756212 19597 net.cpp:141] Setting up inception_3a/5x5
I0403 19:21:25.756243 19597 net.cpp:148] Top shape: 24 32 28 28 (602112)
I0403 19:21:25.756260 19597 net.cpp:156] Memory required for data: 539493408
I0403 19:21:25.756280 19597 layer_factory.hpp:77] Creating layer inception_3a/relu_5x5
I0403 19:21:25.756300 19597 net.cpp:91] Creating Layer inception_3a/relu_5x5
I0403 19:21:25.756317 19597 net.cpp:425] inception_3a/relu_5x5 <- inception_3a/5x5
I0403 19:21:25.756338 19597 net.cpp:386] inception_3a/relu_5x5 -> inception_3a/5x5 (in-place)
I0403 19:21:25.756515 19597 net.cpp:141] Setting up inception_3a/relu_5x5
I0403 19:21:25.756541 19597 net.cpp:148] Top shape: 24 32 28 28 (602112)
I0403 19:21:25.756556 19597 net.cpp:156] Memory required for data: 541901856
I0403 19:21:25.756572 19597 layer_factory.hpp:77] Creating layer inception_3a/pool
I0403 19:21:25.756590 19597 net.cpp:91] Creating Layer inception_3a/pool
I0403 19:21:25.756623 19597 net.cpp:425] inception_3a/pool <- pool2/3x3_s2_pool2/3x3_s2_0_split_3
I0403 19:21:25.756645 19597 net.cpp:399] inception_3a/pool -> inception_3a/pool
I0403 19:21:25.756705 19597 net.cpp:141] Setting up inception_3a/pool
I0403 19:21:25.756729 19597 net.cpp:148] Top shape: 24 192 28 28 (3612672)
I0403 19:21:25.756744 19597 net.cpp:156] Memory required for data: 556352544
I0403 19:21:25.756760 19597 layer_factory.hpp:77] Creating layer inception_3a/pool_proj
I0403 19:21:25.756784 19597 net.cpp:91] Creating Layer inception_3a/pool_proj
I0403 19:21:25.756803 19597 net.cpp:425] inception_3a/pool_proj <- inception_3a/pool
I0403 19:21:25.756822 19597 net.cpp:399] inception_3a/pool_proj -> inception_3a/pool_proj
I0403 19:21:25.757812 19597 net.cpp:141] Setting up inception_3a/pool_proj
I0403 19:21:25.757839 19597 net.cpp:148] Top shape: 24 32 28 28 (602112)
I0403 19:21:25.757856 19597 net.cpp:156] Memory required for data: 558760992
I0403 19:21:25.757880 19597 layer_factory.hpp:77] Creating layer inception_3a/relu_pool_proj
I0403 19:21:25.757904 19597 net.cpp:91] Creating Layer inception_3a/relu_pool_proj
I0403 19:21:25.757920 19597 net.cpp:425] inception_3a/relu_pool_proj <- inception_3a/pool_proj
I0403 19:21:25.757938 19597 net.cpp:386] inception_3a/relu_pool_proj -> inception_3a/pool_proj (in-place)
I0403 19:21:25.758224 19597 net.cpp:141] Setting up inception_3a/relu_pool_proj
I0403 19:21:25.758251 19597 net.cpp:148] Top shape: 24 32 28 28 (602112)
I0403 19:21:25.758267 19597 net.cpp:156] Memory required for data: 561169440
I0403 19:21:25.758283 19597 layer_factory.hpp:77] Creating layer inception_3a/output
I0403 19:21:25.758301 19597 net.cpp:91] Creating Layer inception_3a/output
I0403 19:21:25.758317 19597 net.cpp:425] inception_3a/output <- inception_3a/1x1
I0403 19:21:25.758335 19597 net.cpp:425] inception_3a/output <- inception_3a/3x3
I0403 19:21:25.758352 19597 net.cpp:425] inception_3a/output <- inception_3a/5x5
I0403 19:21:25.758368 19597 net.cpp:425] inception_3a/output <- inception_3a/pool_proj
I0403 19:21:25.758388 19597 net.cpp:399] inception_3a/output -> inception_3a/output
I0403 19:21:25.758435 19597 net.cpp:141] Setting up inception_3a/output
I0403 19:21:25.758458 19597 net.cpp:148] Top shape: 24 256 28 28 (4816896)
I0403 19:21:25.758473 19597 net.cpp:156] Memory required for data: 580437024
I0403 19:21:25.758488 19597 layer_factory.hpp:77] Creating layer inception_3a/output_inception_3a/output_0_split
I0403 19:21:25.758509 19597 net.cpp:91] Creating Layer inception_3a/output_inception_3a/output_0_split
I0403 19:21:25.758527 19597 net.cpp:425] inception_3a/output_inception_3a/output_0_split <- inception_3a/output
I0403 19:21:25.758544 19597 net.cpp:399] inception_3a/output_inception_3a/output_0_split -> inception_3a/output_inception_3a/output_0_split_0
I0403 19:21:25.758568 19597 net.cpp:399] inception_3a/output_inception_3a/output_0_split -> inception_3a/output_inception_3a/output_0_split_1
I0403 19:21:25.758591 19597 net.cpp:399] inception_3a/output_inception_3a/output_0_split -> inception_3a/output_inception_3a/output_0_split_2
I0403 19:21:25.758612 19597 net.cpp:399] inception_3a/output_inception_3a/output_0_split -> inception_3a/output_inception_3a/output_0_split_3
I0403 19:21:25.758688 19597 net.cpp:141] Setting up inception_3a/output_inception_3a/output_0_split
I0403 19:21:25.758714 19597 net.cpp:148] Top shape: 24 256 28 28 (4816896)
I0403 19:21:25.758733 19597 net.cpp:148] Top shape: 24 256 28 28 (4816896)
I0403 19:21:25.758749 19597 net.cpp:148] Top shape: 24 256 28 28 (4816896)
I0403 19:21:25.758765 19597 net.cpp:148] Top shape: 24 256 28 28 (4816896)
I0403 19:21:25.758780 19597 net.cpp:156] Memory required for data: 657507360
I0403 19:21:25.758795 19597 layer_factory.hpp:77] Creating layer inception_3b/1x1
I0403 19:21:25.758818 19597 net.cpp:91] Creating Layer inception_3b/1x1
I0403 19:21:25.758836 19597 net.cpp:425] inception_3b/1x1 <- inception_3a/output_inception_3a/output_0_split_0
I0403 19:21:25.758858 19597 net.cpp:399] inception_3b/1x1 -> inception_3b/1x1
I0403 19:21:25.760028 19597 net.cpp:141] Setting up inception_3b/1x1
I0403 19:21:25.760073 19597 net.cpp:148] Top shape: 24 128 28 28 (2408448)
I0403 19:21:25.760092 19597 net.cpp:156] Memory required for data: 667141152
I0403 19:21:25.760112 19597 layer_factory.hpp:77] Creating layer inception_3b/relu_1x1
I0403 19:21:25.760130 19597 net.cpp:91] Creating Layer inception_3b/relu_1x1
I0403 19:21:25.760149 19597 net.cpp:425] inception_3b/relu_1x1 <- inception_3b/1x1
I0403 19:21:25.760166 19597 net.cpp:386] inception_3b/relu_1x1 -> inception_3b/1x1 (in-place)
I0403 19:21:25.760354 19597 net.cpp:141] Setting up inception_3b/relu_1x1
I0403 19:21:25.760380 19597 net.cpp:148] Top shape: 24 128 28 28 (2408448)
I0403 19:21:25.760396 19597 net.cpp:156] Memory required for data: 676774944
I0403 19:21:25.760411 19597 layer_factory.hpp:77] Creating layer inception_3b/3x3_reduce
I0403 19:21:25.760434 19597 net.cpp:91] Creating Layer inception_3b/3x3_reduce
I0403 19:21:25.760452 19597 net.cpp:425] inception_3b/3x3_reduce <- inception_3a/output_inception_3a/output_0_split_1
I0403 19:21:25.760474 19597 net.cpp:399] inception_3b/3x3_reduce -> inception_3b/3x3_reduce
I0403 19:21:25.761633 19597 net.cpp:141] Setting up inception_3b/3x3_reduce
I0403 19:21:25.761662 19597 net.cpp:148] Top shape: 24 128 28 28 (2408448)
I0403 19:21:25.761678 19597 net.cpp:156] Memory required for data: 686408736
I0403 19:21:25.761699 19597 layer_factory.hpp:77] Creating layer inception_3b/relu_3x3_reduce
I0403 19:21:25.761718 19597 net.cpp:91] Creating Layer inception_3b/relu_3x3_reduce
I0403 19:21:25.761736 19597 net.cpp:425] inception_3b/relu_3x3_reduce <- inception_3b/3x3_reduce
I0403 19:21:25.761754 19597 net.cpp:386] inception_3b/relu_3x3_reduce -> inception_3b/3x3_reduce (in-place)
I0403 19:21:25.761934 19597 net.cpp:141] Setting up inception_3b/relu_3x3_reduce
I0403 19:21:25.761965 19597 net.cpp:148] Top shape: 24 128 28 28 (2408448)
I0403 19:21:25.761981 19597 net.cpp:156] Memory required for data: 696042528
I0403 19:21:25.761996 19597 layer_factory.hpp:77] Creating layer inception_3b/3x3
I0403 19:21:25.762023 19597 net.cpp:91] Creating Layer inception_3b/3x3
I0403 19:21:25.762042 19597 net.cpp:425] inception_3b/3x3 <- inception_3b/3x3_reduce
I0403 19:21:25.762061 19597 net.cpp:399] inception_3b/3x3 -> inception_3b/3x3
I0403 19:21:25.765019 19597 net.cpp:141] Setting up inception_3b/3x3
I0403 19:21:25.765050 19597 net.cpp:148] Top shape: 24 192 28 28 (3612672)
I0403 19:21:25.765067 19597 net.cpp:156] Memory required for data: 710493216
I0403 19:21:25.765086 19597 layer_factory.hpp:77] Creating layer inception_3b/relu_3x3
I0403 19:21:25.765105 19597 net.cpp:91] Creating Layer inception_3b/relu_3x3
I0403 19:21:25.765122 19597 net.cpp:425] inception_3b/relu_3x3 <- inception_3b/3x3
I0403 19:21:25.765142 19597 net.cpp:386] inception_3b/relu_3x3 -> inception_3b/3x3 (in-place)
I0403 19:21:25.765425 19597 net.cpp:141] Setting up inception_3b/relu_3x3
I0403 19:21:25.765452 19597 net.cpp:148] Top shape: 24 192 28 28 (3612672)
I0403 19:21:25.765467 19597 net.cpp:156] Memory required for data: 724943904
I0403 19:21:25.765483 19597 layer_factory.hpp:77] Creating layer inception_3b/5x5_reduce
I0403 19:21:25.765507 19597 net.cpp:91] Creating Layer inception_3b/5x5_reduce
I0403 19:21:25.765527 19597 net.cpp:425] inception_3b/5x5_reduce <- inception_3a/output_inception_3a/output_0_split_2
I0403 19:21:25.765548 19597 net.cpp:399] inception_3b/5x5_reduce -> inception_3b/5x5_reduce
I0403 19:21:25.766564 19597 net.cpp:141] Setting up inception_3b/5x5_reduce
I0403 19:21:25.766594 19597 net.cpp:148] Top shape: 24 32 28 28 (602112)
I0403 19:21:25.766612 19597 net.cpp:156] Memory required for data: 727352352
I0403 19:21:25.766630 19597 layer_factory.hpp:77] Creating layer inception_3b/relu_5x5_reduce
I0403 19:21:25.766647 19597 net.cpp:91] Creating Layer inception_3b/relu_5x5_reduce
I0403 19:21:25.766674 19597 net.cpp:425] inception_3b/relu_5x5_reduce <- inception_3b/5x5_reduce
I0403 19:21:25.766695 19597 net.cpp:386] inception_3b/relu_5x5_reduce -> inception_3b/5x5_reduce (in-place)
I0403 19:21:25.766881 19597 net.cpp:141] Setting up inception_3b/relu_5x5_reduce
I0403 19:21:25.766906 19597 net.cpp:148] Top shape: 24 32 28 28 (602112)
I0403 19:21:25.766921 19597 net.cpp:156] Memory required for data: 729760800
I0403 19:21:25.766935 19597 layer_factory.hpp:77] Creating layer inception_3b/5x5
I0403 19:21:25.766963 19597 net.cpp:91] Creating Layer inception_3b/5x5
I0403 19:21:25.766981 19597 net.cpp:425] inception_3b/5x5 <- inception_3b/5x5_reduce
I0403 19:21:25.767004 19597 net.cpp:399] inception_3b/5x5 -> inception_3b/5x5
I0403 19:21:25.769003 19597 net.cpp:141] Setting up inception_3b/5x5
I0403 19:21:25.769032 19597 net.cpp:148] Top shape: 24 96 28 28 (1806336)
I0403 19:21:25.769047 19597 net.cpp:156] Memory required for data: 736986144
I0403 19:21:25.769067 19597 layer_factory.hpp:77] Creating layer inception_3b/relu_5x5
I0403 19:21:25.769088 19597 net.cpp:91] Creating Layer inception_3b/relu_5x5
I0403 19:21:25.769105 19597 net.cpp:425] inception_3b/relu_5x5 <- inception_3b/5x5
I0403 19:21:25.769122 19597 net.cpp:386] inception_3b/relu_5x5 -> inception_3b/5x5 (in-place)
I0403 19:21:25.769316 19597 net.cpp:141] Setting up inception_3b/relu_5x5
I0403 19:21:25.769341 19597 net.cpp:148] Top shape: 24 96 28 28 (1806336)
I0403 19:21:25.769356 19597 net.cpp:156] Memory required for data: 744211488
I0403 19:21:25.769371 19597 layer_factory.hpp:77] Creating layer inception_3b/pool
I0403 19:21:25.769388 19597 net.cpp:91] Creating Layer inception_3b/pool
I0403 19:21:25.769405 19597 net.cpp:425] inception_3b/pool <- inception_3a/output_inception_3a/output_0_split_3
I0403 19:21:25.769423 19597 net.cpp:399] inception_3b/pool -> inception_3b/pool
I0403 19:21:25.769479 19597 net.cpp:141] Setting up inception_3b/pool
I0403 19:21:25.769502 19597 net.cpp:148] Top shape: 24 256 28 28 (4816896)
I0403 19:21:25.769516 19597 net.cpp:156] Memory required for data: 763479072
I0403 19:21:25.769531 19597 layer_factory.hpp:77] Creating layer inception_3b/pool_proj
I0403 19:21:25.769556 19597 net.cpp:91] Creating Layer inception_3b/pool_proj
I0403 19:21:25.769572 19597 net.cpp:425] inception_3b/pool_proj <- inception_3b/pool
I0403 19:21:25.769592 19597 net.cpp:399] inception_3b/pool_proj -> inception_3b/pool_proj
I0403 19:21:25.770640 19597 net.cpp:141] Setting up inception_3b/pool_proj
I0403 19:21:25.770668 19597 net.cpp:148] Top shape: 24 64 28 28 (1204224)
I0403 19:21:25.770684 19597 net.cpp:156] Memory required for data: 768295968
I0403 19:21:25.770702 19597 layer_factory.hpp:77] Creating layer inception_3b/relu_pool_proj
I0403 19:21:25.770723 19597 net.cpp:91] Creating Layer inception_3b/relu_pool_proj
I0403 19:21:25.770740 19597 net.cpp:425] inception_3b/relu_pool_proj <- inception_3b/pool_proj
I0403 19:21:25.770758 19597 net.cpp:386] inception_3b/relu_pool_proj -> inception_3b/pool_proj (in-place)
I0403 19:21:25.771164 19597 net.cpp:141] Setting up inception_3b/relu_pool_proj
I0403 19:21:25.771190 19597 net.cpp:148] Top shape: 24 64 28 28 (1204224)
I0403 19:21:25.771208 19597 net.cpp:156] Memory required for data: 773112864
I0403 19:21:25.771222 19597 layer_factory.hpp:77] Creating layer inception_3b/output
I0403 19:21:25.771240 19597 net.cpp:91] Creating Layer inception_3b/output
I0403 19:21:25.771255 19597 net.cpp:425] inception_3b/output <- inception_3b/1x1
I0403 19:21:25.771272 19597 net.cpp:425] inception_3b/output <- inception_3b/3x3
I0403 19:21:25.771292 19597 net.cpp:425] inception_3b/output <- inception_3b/5x5
I0403 19:21:25.771309 19597 net.cpp:425] inception_3b/output <- inception_3b/pool_proj
I0403 19:21:25.771327 19597 net.cpp:399] inception_3b/output -> inception_3b/output
I0403 19:21:25.771369 19597 net.cpp:141] Setting up inception_3b/output
I0403 19:21:25.771394 19597 net.cpp:148] Top shape: 24 480 28 28 (9031680)
I0403 19:21:25.771409 19597 net.cpp:156] Memory required for data: 809239584
I0403 19:21:25.771425 19597 layer_factory.hpp:77] Creating layer pool3/3x3_s2
I0403 19:21:25.771443 19597 net.cpp:91] Creating Layer pool3/3x3_s2
I0403 19:21:25.771459 19597 net.cpp:425] pool3/3x3_s2 <- inception_3b/output
I0403 19:21:25.771494 19597 net.cpp:399] pool3/3x3_s2 -> pool3/3x3_s2
I0403 19:21:25.771553 19597 net.cpp:141] Setting up pool3/3x3_s2
I0403 19:21:25.771576 19597 net.cpp:148] Top shape: 24 480 14 14 (2257920)
I0403 19:21:25.771591 19597 net.cpp:156] Memory required for data: 818271264
I0403 19:21:25.771605 19597 layer_factory.hpp:77] Creating layer pool3/3x3_s2_pool3/3x3_s2_0_split
I0403 19:21:25.771625 19597 net.cpp:91] Creating Layer pool3/3x3_s2_pool3/3x3_s2_0_split
I0403 19:21:25.771641 19597 net.cpp:425] pool3/3x3_s2_pool3/3x3_s2_0_split <- pool3/3x3_s2
I0403 19:21:25.771658 19597 net.cpp:399] pool3/3x3_s2_pool3/3x3_s2_0_split -> pool3/3x3_s2_pool3/3x3_s2_0_split_0
I0403 19:21:25.771678 19597 net.cpp:399] pool3/3x3_s2_pool3/3x3_s2_0_split -> pool3/3x3_s2_pool3/3x3_s2_0_split_1
I0403 19:21:25.771698 19597 net.cpp:399] pool3/3x3_s2_pool3/3x3_s2_0_split -> pool3/3x3_s2_pool3/3x3_s2_0_split_2
I0403 19:21:25.771720 19597 net.cpp:399] pool3/3x3_s2_pool3/3x3_s2_0_split -> pool3/3x3_s2_pool3/3x3_s2_0_split_3
I0403 19:21:25.771798 19597 net.cpp:141] Setting up pool3/3x3_s2_pool3/3x3_s2_0_split
I0403 19:21:25.771821 19597 net.cpp:148] Top shape: 24 480 14 14 (2257920)
I0403 19:21:25.771838 19597 net.cpp:148] Top shape: 24 480 14 14 (2257920)
I0403 19:21:25.771854 19597 net.cpp:148] Top shape: 24 480 14 14 (2257920)
I0403 19:21:25.771869 19597 net.cpp:148] Top shape: 24 480 14 14 (2257920)
I0403 19:21:25.771883 19597 net.cpp:156] Memory required for data: 854397984
I0403 19:21:25.771898 19597 layer_factory.hpp:77] Creating layer inception_4a/1x1
I0403 19:21:25.771921 19597 net.cpp:91] Creating Layer inception_4a/1x1
I0403 19:21:25.771939 19597 net.cpp:425] inception_4a/1x1 <- pool3/3x3_s2_pool3/3x3_s2_0_split_0
I0403 19:21:25.771965 19597 net.cpp:399] inception_4a/1x1 -> inception_4a/1x1
I0403 19:21:25.773525 19597 net.cpp:141] Setting up inception_4a/1x1
I0403 19:21:25.773553 19597 net.cpp:148] Top shape: 24 192 14 14 (903168)
I0403 19:21:25.773569 19597 net.cpp:156] Memory required for data: 858010656
I0403 19:21:25.773587 19597 layer_factory.hpp:77] Creating layer inception_4a/relu_1x1
I0403 19:21:25.773608 19597 net.cpp:91] Creating Layer inception_4a/relu_1x1
I0403 19:21:25.773625 19597 net.cpp:425] inception_4a/relu_1x1 <- inception_4a/1x1
I0403 19:21:25.773643 19597 net.cpp:386] inception_4a/relu_1x1 -> inception_4a/1x1 (in-place)
I0403 19:21:25.773818 19597 net.cpp:141] Setting up inception_4a/relu_1x1
I0403 19:21:25.773845 19597 net.cpp:148] Top shape: 24 192 14 14 (903168)
I0403 19:21:25.773862 19597 net.cpp:156] Memory required for data: 861623328
I0403 19:21:25.773877 19597 layer_factory.hpp:77] Creating layer inception_4a/3x3_reduce
I0403 19:21:25.773900 19597 net.cpp:91] Creating Layer inception_4a/3x3_reduce
I0403 19:21:25.773917 19597 net.cpp:425] inception_4a/3x3_reduce <- pool3/3x3_s2_pool3/3x3_s2_0_split_1
I0403 19:21:25.773937 19597 net.cpp:399] inception_4a/3x3_reduce -> inception_4a/3x3_reduce
I0403 19:21:25.775205 19597 net.cpp:141] Setting up inception_4a/3x3_reduce
I0403 19:21:25.775233 19597 net.cpp:148] Top shape: 24 96 14 14 (451584)
I0403 19:21:25.775249 19597 net.cpp:156] Memory required for data: 863429664
I0403 19:21:25.775274 19597 layer_factory.hpp:77] Creating layer inception_4a/relu_3x3_reduce
I0403 19:21:25.775293 19597 net.cpp:91] Creating Layer inception_4a/relu_3x3_reduce
I0403 19:21:25.775310 19597 net.cpp:425] inception_4a/relu_3x3_reduce <- inception_4a/3x3_reduce
I0403 19:21:25.775332 19597 net.cpp:386] inception_4a/relu_3x3_reduce -> inception_4a/3x3_reduce (in-place)
I0403 19:21:25.775508 19597 net.cpp:141] Setting up inception_4a/relu_3x3_reduce
I0403 19:21:25.775534 19597 net.cpp:148] Top shape: 24 96 14 14 (451584)
I0403 19:21:25.775552 19597 net.cpp:156] Memory required for data: 865236000
I0403 19:21:25.775566 19597 layer_factory.hpp:77] Creating layer inception_4a/3x3
I0403 19:21:25.775588 19597 net.cpp:91] Creating Layer inception_4a/3x3
I0403 19:21:25.775606 19597 net.cpp:425] inception_4a/3x3 <- inception_4a/3x3_reduce
I0403 19:21:25.775626 19597 net.cpp:399] inception_4a/3x3 -> inception_4a/3x3
I0403 19:21:25.778280 19597 net.cpp:141] Setting up inception_4a/3x3
I0403 19:21:25.778311 19597 net.cpp:148] Top shape: 24 208 14 14 (978432)
I0403 19:21:25.778328 19597 net.cpp:156] Memory required for data: 869149728
I0403 19:21:25.778347 19597 layer_factory.hpp:77] Creating layer inception_4a/relu_3x3
I0403 19:21:25.778367 19597 net.cpp:91] Creating Layer inception_4a/relu_3x3
I0403 19:21:25.778383 19597 net.cpp:425] inception_4a/relu_3x3 <- inception_4a/3x3
I0403 19:21:25.778403 19597 net.cpp:386] inception_4a/relu_3x3 -> inception_4a/3x3 (in-place)
I0403 19:21:25.778679 19597 net.cpp:141] Setting up inception_4a/relu_3x3
I0403 19:21:25.778707 19597 net.cpp:148] Top shape: 24 208 14 14 (978432)
I0403 19:21:25.778724 19597 net.cpp:156] Memory required for data: 873063456
I0403 19:21:25.778739 19597 layer_factory.hpp:77] Creating layer inception_4a/5x5_reduce
I0403 19:21:25.778762 19597 net.cpp:91] Creating Layer inception_4a/5x5_reduce
I0403 19:21:25.778780 19597 net.cpp:425] inception_4a/5x5_reduce <- pool3/3x3_s2_pool3/3x3_s2_0_split_2
I0403 19:21:25.778800 19597 net.cpp:399] inception_4a/5x5_reduce -> inception_4a/5x5_reduce
I0403 19:21:25.779825 19597 net.cpp:141] Setting up inception_4a/5x5_reduce
I0403 19:21:25.779855 19597 net.cpp:148] Top shape: 24 16 14 14 (75264)
I0403 19:21:25.779872 19597 net.cpp:156] Memory required for data: 873364512
I0403 19:21:25.779891 19597 layer_factory.hpp:77] Creating layer inception_4a/relu_5x5_reduce
I0403 19:21:25.779909 19597 net.cpp:91] Creating Layer inception_4a/relu_5x5_reduce
I0403 19:21:25.779927 19597 net.cpp:425] inception_4a/relu_5x5_reduce <- inception_4a/5x5_reduce
I0403 19:21:25.779949 19597 net.cpp:386] inception_4a/relu_5x5_reduce -> inception_4a/5x5_reduce (in-place)
I0403 19:21:25.780127 19597 net.cpp:141] Setting up inception_4a/relu_5x5_reduce
I0403 19:21:25.780151 19597 net.cpp:148] Top shape: 24 16 14 14 (75264)
I0403 19:21:25.780166 19597 net.cpp:156] Memory required for data: 873665568
I0403 19:21:25.780182 19597 layer_factory.hpp:77] Creating layer inception_4a/5x5
I0403 19:21:25.780205 19597 net.cpp:91] Creating Layer inception_4a/5x5
I0403 19:21:25.780222 19597 net.cpp:425] inception_4a/5x5 <- inception_4a/5x5_reduce
I0403 19:21:25.780244 19597 net.cpp:399] inception_4a/5x5 -> inception_4a/5x5
I0403 19:21:25.781319 19597 net.cpp:141] Setting up inception_4a/5x5
I0403 19:21:25.781347 19597 net.cpp:148] Top shape: 24 48 14 14 (225792)
I0403 19:21:25.781363 19597 net.cpp:156] Memory required for data: 874568736
I0403 19:21:25.781380 19597 layer_factory.hpp:77] Creating layer inception_4a/relu_5x5
I0403 19:21:25.781400 19597 net.cpp:91] Creating Layer inception_4a/relu_5x5
I0403 19:21:25.781417 19597 net.cpp:425] inception_4a/relu_5x5 <- inception_4a/5x5
I0403 19:21:25.781436 19597 net.cpp:386] inception_4a/relu_5x5 -> inception_4a/5x5 (in-place)
I0403 19:21:25.781615 19597 net.cpp:141] Setting up inception_4a/relu_5x5
I0403 19:21:25.781640 19597 net.cpp:148] Top shape: 24 48 14 14 (225792)
I0403 19:21:25.781656 19597 net.cpp:156] Memory required for data: 875471904
I0403 19:21:25.781671 19597 layer_factory.hpp:77] Creating layer inception_4a/pool
I0403 19:21:25.781690 19597 net.cpp:91] Creating Layer inception_4a/pool
I0403 19:21:25.781708 19597 net.cpp:425] inception_4a/pool <- pool3/3x3_s2_pool3/3x3_s2_0_split_3
I0403 19:21:25.781726 19597 net.cpp:399] inception_4a/pool -> inception_4a/pool
I0403 19:21:25.781790 19597 net.cpp:141] Setting up inception_4a/pool
I0403 19:21:25.781813 19597 net.cpp:148] Top shape: 24 480 14 14 (2257920)
I0403 19:21:25.781828 19597 net.cpp:156] Memory required for data: 884503584
I0403 19:21:25.781844 19597 layer_factory.hpp:77] Creating layer inception_4a/pool_proj
I0403 19:21:25.781867 19597 net.cpp:91] Creating Layer inception_4a/pool_proj
I0403 19:21:25.781884 19597 net.cpp:425] inception_4a/pool_proj <- inception_4a/pool
I0403 19:21:25.781905 19597 net.cpp:399] inception_4a/pool_proj -> inception_4a/pool_proj
I0403 19:21:25.783087 19597 net.cpp:141] Setting up inception_4a/pool_proj
I0403 19:21:25.783115 19597 net.cpp:148] Top shape: 24 64 14 14 (301056)
I0403 19:21:25.783148 19597 net.cpp:156] Memory required for data: 885707808
I0403 19:21:25.783167 19597 layer_factory.hpp:77] Creating layer inception_4a/relu_pool_proj
I0403 19:21:25.783190 19597 net.cpp:91] Creating Layer inception_4a/relu_pool_proj
I0403 19:21:25.783208 19597 net.cpp:425] inception_4a/relu_pool_proj <- inception_4a/pool_proj
I0403 19:21:25.783227 19597 net.cpp:386] inception_4a/relu_pool_proj -> inception_4a/pool_proj (in-place)
I0403 19:21:25.783521 19597 net.cpp:141] Setting up inception_4a/relu_pool_proj
I0403 19:21:25.783548 19597 net.cpp:148] Top shape: 24 64 14 14 (301056)
I0403 19:21:25.783565 19597 net.cpp:156] Memory required for data: 886912032
I0403 19:21:25.783579 19597 layer_factory.hpp:77] Creating layer inception_4a/output
I0403 19:21:25.783601 19597 net.cpp:91] Creating Layer inception_4a/output
I0403 19:21:25.783617 19597 net.cpp:425] inception_4a/output <- inception_4a/1x1
I0403 19:21:25.783634 19597 net.cpp:425] inception_4a/output <- inception_4a/3x3
I0403 19:21:25.783653 19597 net.cpp:425] inception_4a/output <- inception_4a/5x5
I0403 19:21:25.783668 19597 net.cpp:425] inception_4a/output <- inception_4a/pool_proj
I0403 19:21:25.783686 19597 net.cpp:399] inception_4a/output -> inception_4a/output
I0403 19:21:25.783732 19597 net.cpp:141] Setting up inception_4a/output
I0403 19:21:25.783756 19597 net.cpp:148] Top shape: 24 512 14 14 (2408448)
I0403 19:21:25.783771 19597 net.cpp:156] Memory required for data: 896545824
I0403 19:21:25.783787 19597 layer_factory.hpp:77] Creating layer inception_4a/output_inception_4a/output_0_split
I0403 19:21:25.783805 19597 net.cpp:91] Creating Layer inception_4a/output_inception_4a/output_0_split
I0403 19:21:25.783821 19597 net.cpp:425] inception_4a/output_inception_4a/output_0_split <- inception_4a/output
I0403 19:21:25.783841 19597 net.cpp:399] inception_4a/output_inception_4a/output_0_split -> inception_4a/output_inception_4a/output_0_split_0
I0403 19:21:25.783864 19597 net.cpp:399] inception_4a/output_inception_4a/output_0_split -> inception_4a/output_inception_4a/output_0_split_1
I0403 19:21:25.783885 19597 net.cpp:399] inception_4a/output_inception_4a/output_0_split -> inception_4a/output_inception_4a/output_0_split_2
I0403 19:21:25.783907 19597 net.cpp:399] inception_4a/output_inception_4a/output_0_split -> inception_4a/output_inception_4a/output_0_split_3
I0403 19:21:25.783928 19597 net.cpp:399] inception_4a/output_inception_4a/output_0_split -> inception_4a/output_inception_4a/output_0_split_4
I0403 19:21:25.784030 19597 net.cpp:141] Setting up inception_4a/output_inception_4a/output_0_split
I0403 19:21:25.784055 19597 net.cpp:148] Top shape: 24 512 14 14 (2408448)
I0403 19:21:25.784075 19597 net.cpp:148] Top shape: 24 512 14 14 (2408448)
I0403 19:21:25.784092 19597 net.cpp:148] Top shape: 24 512 14 14 (2408448)
I0403 19:21:25.784109 19597 net.cpp:148] Top shape: 24 512 14 14 (2408448)
I0403 19:21:25.784126 19597 net.cpp:148] Top shape: 24 512 14 14 (2408448)
I0403 19:21:25.784140 19597 net.cpp:156] Memory required for data: 944714784
I0403 19:21:25.784155 19597 layer_factory.hpp:77] Creating layer loss1/ave_pool
I0403 19:21:25.784174 19597 net.cpp:91] Creating Layer loss1/ave_pool
I0403 19:21:25.784190 19597 net.cpp:425] loss1/ave_pool <- inception_4a/output_inception_4a/output_0_split_0
I0403 19:21:25.784214 19597 net.cpp:399] loss1/ave_pool -> loss1/ave_pool
I0403 19:21:25.784422 19597 net.cpp:141] Setting up loss1/ave_pool
I0403 19:21:25.784448 19597 net.cpp:148] Top shape: 24 512 4 4 (196608)
I0403 19:21:25.784466 19597 net.cpp:156] Memory required for data: 945501216
I0403 19:21:25.784481 19597 layer_factory.hpp:77] Creating layer loss1/conv
I0403 19:21:25.784503 19597 net.cpp:91] Creating Layer loss1/conv
I0403 19:21:25.784521 19597 net.cpp:425] loss1/conv <- loss1/ave_pool
I0403 19:21:25.784543 19597 net.cpp:399] loss1/conv -> loss1/conv
I0403 19:21:25.786000 19597 net.cpp:141] Setting up loss1/conv
I0403 19:21:25.786031 19597 net.cpp:148] Top shape: 24 128 4 4 (49152)
I0403 19:21:25.786061 19597 net.cpp:156] Memory required for data: 945697824
I0403 19:21:25.786082 19597 layer_factory.hpp:77] Creating layer loss1/relu_conv
I0403 19:21:25.786100 19597 net.cpp:91] Creating Layer loss1/relu_conv
I0403 19:21:25.786118 19597 net.cpp:425] loss1/relu_conv <- loss1/conv
I0403 19:21:25.786139 19597 net.cpp:386] loss1/relu_conv -> loss1/conv (in-place)
I0403 19:21:25.786427 19597 net.cpp:141] Setting up loss1/relu_conv
I0403 19:21:25.786456 19597 net.cpp:148] Top shape: 24 128 4 4 (49152)
I0403 19:21:25.786473 19597 net.cpp:156] Memory required for data: 945894432
I0403 19:21:25.786489 19597 layer_factory.hpp:77] Creating layer loss1/fc
I0403 19:21:25.786514 19597 net.cpp:91] Creating Layer loss1/fc
I0403 19:21:25.786531 19597 net.cpp:425] loss1/fc <- loss1/conv
I0403 19:21:25.786553 19597 net.cpp:399] loss1/fc -> loss1/fc
I0403 19:21:25.804623 19597 net.cpp:141] Setting up loss1/fc
I0403 19:21:25.804656 19597 net.cpp:148] Top shape: 24 1024 (24576)
I0403 19:21:25.804672 19597 net.cpp:156] Memory required for data: 945992736
I0403 19:21:25.804692 19597 layer_factory.hpp:77] Creating layer loss1/relu_fc
I0403 19:21:25.804713 19597 net.cpp:91] Creating Layer loss1/relu_fc
I0403 19:21:25.804729 19597 net.cpp:425] loss1/relu_fc <- loss1/fc
I0403 19:21:25.804746 19597 net.cpp:386] loss1/relu_fc -> loss1/fc (in-place)
I0403 19:21:25.804929 19597 net.cpp:141] Setting up loss1/relu_fc
I0403 19:21:25.804960 19597 net.cpp:148] Top shape: 24 1024 (24576)
I0403 19:21:25.804976 19597 net.cpp:156] Memory required for data: 946091040
I0403 19:21:25.804991 19597 layer_factory.hpp:77] Creating layer loss1/drop_fc
I0403 19:21:25.805018 19597 net.cpp:91] Creating Layer loss1/drop_fc
I0403 19:21:25.805037 19597 net.cpp:425] loss1/drop_fc <- loss1/fc
I0403 19:21:25.805053 19597 net.cpp:386] loss1/drop_fc -> loss1/fc (in-place)
I0403 19:21:25.805107 19597 net.cpp:141] Setting up loss1/drop_fc
I0403 19:21:25.805130 19597 net.cpp:148] Top shape: 24 1024 (24576)
I0403 19:21:25.805145 19597 net.cpp:156] Memory required for data: 946189344
I0403 19:21:25.805160 19597 layer_factory.hpp:77] Creating layer loss1/classifier_plantvillage
I0403 19:21:25.805178 19597 net.cpp:91] Creating Layer loss1/classifier_plantvillage
I0403 19:21:25.805194 19597 net.cpp:425] loss1/classifier_plantvillage <- loss1/fc
I0403 19:21:25.805217 19597 net.cpp:399] loss1/classifier_plantvillage -> loss1/classifier_plantvillage
I0403 19:21:25.806113 19597 net.cpp:141] Setting up loss1/classifier_plantvillage
I0403 19:21:25.806141 19597 net.cpp:148] Top shape: 24 38 (912)
I0403 19:21:25.806157 19597 net.cpp:156] Memory required for data: 946192992
I0403 19:21:25.806176 19597 layer_factory.hpp:77] Creating layer loss1/classifier_plantvillage_loss1/classifier_plantvillage_0_split
I0403 19:21:25.806196 19597 net.cpp:91] Creating Layer loss1/classifier_plantvillage_loss1/classifier_plantvillage_0_split
I0403 19:21:25.806213 19597 net.cpp:425] loss1/classifier_plantvillage_loss1/classifier_plantvillage_0_split <- loss1/classifier_plantvillage
I0403 19:21:25.806231 19597 net.cpp:399] loss1/classifier_plantvillage_loss1/classifier_plantvillage_0_split -> loss1/classifier_plantvillage_loss1/classifier_plantvillage_0_split_0
I0403 19:21:25.806252 19597 net.cpp:399] loss1/classifier_plantvillage_loss1/classifier_plantvillage_0_split -> loss1/classifier_plantvillage_loss1/classifier_plantvillage_0_split_1
I0403 19:21:25.806275 19597 net.cpp:399] loss1/classifier_plantvillage_loss1/classifier_plantvillage_0_split -> loss1/classifier_plantvillage_loss1/classifier_plantvillage_0_split_2
I0403 19:21:25.806341 19597 net.cpp:141] Setting up loss1/classifier_plantvillage_loss1/classifier_plantvillage_0_split
I0403 19:21:25.806365 19597 net.cpp:148] Top shape: 24 38 (912)
I0403 19:21:25.806381 19597 net.cpp:148] Top shape: 24 38 (912)
I0403 19:21:25.806397 19597 net.cpp:148] Top shape: 24 38 (912)
I0403 19:21:25.806411 19597 net.cpp:156] Memory required for data: 946203936
I0403 19:21:25.806427 19597 layer_factory.hpp:77] Creating layer inception_4b/1x1
I0403 19:21:25.806448 19597 net.cpp:91] Creating Layer inception_4b/1x1
I0403 19:21:25.806483 19597 net.cpp:425] inception_4b/1x1 <- inception_4a/output_inception_4a/output_0_split_1
I0403 19:21:25.806504 19597 net.cpp:399] inception_4b/1x1 -> inception_4b/1x1
I0403 19:21:25.808145 19597 net.cpp:141] Setting up inception_4b/1x1
I0403 19:21:25.808176 19597 net.cpp:148] Top shape: 24 160 14 14 (752640)
I0403 19:21:25.808192 19597 net.cpp:156] Memory required for data: 949214496
I0403 19:21:25.808212 19597 layer_factory.hpp:77] Creating layer inception_4b/relu_1x1
I0403 19:21:25.808231 19597 net.cpp:91] Creating Layer inception_4b/relu_1x1
I0403 19:21:25.808248 19597 net.cpp:425] inception_4b/relu_1x1 <- inception_4b/1x1
I0403 19:21:25.808267 19597 net.cpp:386] inception_4b/relu_1x1 -> inception_4b/1x1 (in-place)
I0403 19:21:25.808444 19597 net.cpp:141] Setting up inception_4b/relu_1x1
I0403 19:21:25.808470 19597 net.cpp:148] Top shape: 24 160 14 14 (752640)
I0403 19:21:25.808485 19597 net.cpp:156] Memory required for data: 952225056
I0403 19:21:25.808501 19597 layer_factory.hpp:77] Creating layer inception_4b/3x3_reduce
I0403 19:21:25.808524 19597 net.cpp:91] Creating Layer inception_4b/3x3_reduce
I0403 19:21:25.808542 19597 net.cpp:425] inception_4b/3x3_reduce <- inception_4a/output_inception_4a/output_0_split_2
I0403 19:21:25.808564 19597 net.cpp:399] inception_4b/3x3_reduce -> inception_4b/3x3_reduce
I0403 19:21:25.809914 19597 net.cpp:141] Setting up inception_4b/3x3_reduce
I0403 19:21:25.809942 19597 net.cpp:148] Top shape: 24 112 14 14 (526848)
I0403 19:21:25.809962 19597 net.cpp:156] Memory required for data: 954332448
I0403 19:21:25.809981 19597 layer_factory.hpp:77] Creating layer inception_4b/relu_3x3_reduce
I0403 19:21:25.809999 19597 net.cpp:91] Creating Layer inception_4b/relu_3x3_reduce
I0403 19:21:25.810015 19597 net.cpp:425] inception_4b/relu_3x3_reduce <- inception_4b/3x3_reduce
I0403 19:21:25.810037 19597 net.cpp:386] inception_4b/relu_3x3_reduce -> inception_4b/3x3_reduce (in-place)
I0403 19:21:25.810319 19597 net.cpp:141] Setting up inception_4b/relu_3x3_reduce
I0403 19:21:25.810345 19597 net.cpp:148] Top shape: 24 112 14 14 (526848)
I0403 19:21:25.810361 19597 net.cpp:156] Memory required for data: 956439840
I0403 19:21:25.810376 19597 layer_factory.hpp:77] Creating layer inception_4b/3x3
I0403 19:21:25.810398 19597 net.cpp:91] Creating Layer inception_4b/3x3
I0403 19:21:25.810416 19597 net.cpp:425] inception_4b/3x3 <- inception_4b/3x3_reduce
I0403 19:21:25.810438 19597 net.cpp:399] inception_4b/3x3 -> inception_4b/3x3
I0403 19:21:25.813402 19597 net.cpp:141] Setting up inception_4b/3x3
I0403 19:21:25.813431 19597 net.cpp:148] Top shape: 24 224 14 14 (1053696)
I0403 19:21:25.813447 19597 net.cpp:156] Memory required for data: 960654624
I0403 19:21:25.813467 19597 layer_factory.hpp:77] Creating layer inception_4b/relu_3x3
I0403 19:21:25.813487 19597 net.cpp:91] Creating Layer inception_4b/relu_3x3
I0403 19:21:25.813504 19597 net.cpp:425] inception_4b/relu_3x3 <- inception_4b/3x3
I0403 19:21:25.813522 19597 net.cpp:386] inception_4b/relu_3x3 -> inception_4b/3x3 (in-place)
I0403 19:21:25.813701 19597 net.cpp:141] Setting up inception_4b/relu_3x3
I0403 19:21:25.813730 19597 net.cpp:148] Top shape: 24 224 14 14 (1053696)
I0403 19:21:25.813746 19597 net.cpp:156] Memory required for data: 964869408
I0403 19:21:25.813761 19597 layer_factory.hpp:77] Creating layer inception_4b/5x5_reduce
I0403 19:21:25.813784 19597 net.cpp:91] Creating Layer inception_4b/5x5_reduce
I0403 19:21:25.813802 19597 net.cpp:425] inception_4b/5x5_reduce <- inception_4a/output_inception_4a/output_0_split_3
I0403 19:21:25.813827 19597 net.cpp:399] inception_4b/5x5_reduce -> inception_4b/5x5_reduce
I0403 19:21:25.814910 19597 net.cpp:141] Setting up inception_4b/5x5_reduce
I0403 19:21:25.814939 19597 net.cpp:148] Top shape: 24 24 14 14 (112896)
I0403 19:21:25.814959 19597 net.cpp:156] Memory required for data: 965320992
I0403 19:21:25.814978 19597 layer_factory.hpp:77] Creating layer inception_4b/relu_5x5_reduce
I0403 19:21:25.814998 19597 net.cpp:91] Creating Layer inception_4b/relu_5x5_reduce
I0403 19:21:25.815029 19597 net.cpp:425] inception_4b/relu_5x5_reduce <- inception_4b/5x5_reduce
I0403 19:21:25.815052 19597 net.cpp:386] inception_4b/relu_5x5_reduce -> inception_4b/5x5_reduce (in-place)
I0403 19:21:25.815235 19597 net.cpp:141] Setting up inception_4b/relu_5x5_reduce
I0403 19:21:25.815260 19597 net.cpp:148] Top shape: 24 24 14 14 (112896)
I0403 19:21:25.815275 19597 net.cpp:156] Memory required for data: 965772576
I0403 19:21:25.815290 19597 layer_factory.hpp:77] Creating layer inception_4b/5x5
I0403 19:21:25.815313 19597 net.cpp:91] Creating Layer inception_4b/5x5
I0403 19:21:25.815331 19597 net.cpp:425] inception_4b/5x5 <- inception_4b/5x5_reduce
I0403 19:21:25.815352 19597 net.cpp:399] inception_4b/5x5 -> inception_4b/5x5
I0403 19:21:25.816584 19597 net.cpp:141] Setting up inception_4b/5x5
I0403 19:21:25.816613 19597 net.cpp:148] Top shape: 24 64 14 14 (301056)
I0403 19:21:25.816630 19597 net.cpp:156] Memory required for data: 966976800
I0403 19:21:25.816648 19597 layer_factory.hpp:77] Creating layer inception_4b/relu_5x5
I0403 19:21:25.816668 19597 net.cpp:91] Creating Layer inception_4b/relu_5x5
I0403 19:21:25.816684 19597 net.cpp:425] inception_4b/relu_5x5 <- inception_4b/5x5
I0403 19:21:25.816702 19597 net.cpp:386] inception_4b/relu_5x5 -> inception_4b/5x5 (in-place)
I0403 19:21:25.816995 19597 net.cpp:141] Setting up inception_4b/relu_5x5
I0403 19:21:25.817023 19597 net.cpp:148] Top shape: 24 64 14 14 (301056)
I0403 19:21:25.817039 19597 net.cpp:156] Memory required for data: 968181024
I0403 19:21:25.817055 19597 layer_factory.hpp:77] Creating layer inception_4b/pool
I0403 19:21:25.817073 19597 net.cpp:91] Creating Layer inception_4b/pool
I0403 19:21:25.817090 19597 net.cpp:425] inception_4b/pool <- inception_4a/output_inception_4a/output_0_split_4
I0403 19:21:25.817109 19597 net.cpp:399] inception_4b/pool -> inception_4b/pool
I0403 19:21:25.817175 19597 net.cpp:141] Setting up inception_4b/pool
I0403 19:21:25.817199 19597 net.cpp:148] Top shape: 24 512 14 14 (2408448)
I0403 19:21:25.817214 19597 net.cpp:156] Memory required for data: 977814816
I0403 19:21:25.817229 19597 layer_factory.hpp:77] Creating layer inception_4b/pool_proj
I0403 19:21:25.817251 19597 net.cpp:91] Creating Layer inception_4b/pool_proj
I0403 19:21:25.817268 19597 net.cpp:425] inception_4b/pool_proj <- inception_4b/pool
I0403 19:21:25.817289 19597 net.cpp:399] inception_4b/pool_proj -> inception_4b/pool_proj
I0403 19:21:25.818492 19597 net.cpp:141] Setting up inception_4b/pool_proj
I0403 19:21:25.818523 19597 net.cpp:148] Top shape: 24 64 14 14 (301056)
I0403 19:21:25.818541 19597 net.cpp:156] Memory required for data: 979019040
I0403 19:21:25.818559 19597 layer_factory.hpp:77] Creating layer inception_4b/relu_pool_proj
I0403 19:21:25.818578 19597 net.cpp:91] Creating Layer inception_4b/relu_pool_proj
I0403 19:21:25.818594 19597 net.cpp:425] inception_4b/relu_pool_proj <- inception_4b/pool_proj
I0403 19:21:25.818615 19597 net.cpp:386] inception_4b/relu_pool_proj -> inception_4b/pool_proj (in-place)
I0403 19:21:25.818796 19597 net.cpp:141] Setting up inception_4b/relu_pool_proj
I0403 19:21:25.818820 19597 net.cpp:148] Top shape: 24 64 14 14 (301056)
I0403 19:21:25.818836 19597 net.cpp:156] Memory required for data: 980223264
I0403 19:21:25.818851 19597 layer_factory.hpp:77] Creating layer inception_4b/output
I0403 19:21:25.818869 19597 net.cpp:91] Creating Layer inception_4b/output
I0403 19:21:25.818884 19597 net.cpp:425] inception_4b/output <- inception_4b/1x1
I0403 19:21:25.818902 19597 net.cpp:425] inception_4b/output <- inception_4b/3x3
I0403 19:21:25.818917 19597 net.cpp:425] inception_4b/output <- inception_4b/5x5
I0403 19:21:25.818934 19597 net.cpp:425] inception_4b/output <- inception_4b/pool_proj
I0403 19:21:25.818964 19597 net.cpp:399] inception_4b/output -> inception_4b/output
I0403 19:21:25.819015 19597 net.cpp:141] Setting up inception_4b/output
I0403 19:21:25.819037 19597 net.cpp:148] Top shape: 24 512 14 14 (2408448)
I0403 19:21:25.819052 19597 net.cpp:156] Memory required for data: 989857056
I0403 19:21:25.819082 19597 layer_factory.hpp:77] Creating layer inception_4b/output_inception_4b/output_0_split
I0403 19:21:25.819100 19597 net.cpp:91] Creating Layer inception_4b/output_inception_4b/output_0_split
I0403 19:21:25.819115 19597 net.cpp:425] inception_4b/output_inception_4b/output_0_split <- inception_4b/output
I0403 19:21:25.819135 19597 net.cpp:399] inception_4b/output_inception_4b/output_0_split -> inception_4b/output_inception_4b/output_0_split_0
I0403 19:21:25.819157 19597 net.cpp:399] inception_4b/output_inception_4b/output_0_split -> inception_4b/output_inception_4b/output_0_split_1
I0403 19:21:25.819177 19597 net.cpp:399] inception_4b/output_inception_4b/output_0_split -> inception_4b/output_inception_4b/output_0_split_2
I0403 19:21:25.819197 19597 net.cpp:399] inception_4b/output_inception_4b/output_0_split -> inception_4b/output_inception_4b/output_0_split_3
I0403 19:21:25.819284 19597 net.cpp:141] Setting up inception_4b/output_inception_4b/output_0_split
I0403 19:21:25.819308 19597 net.cpp:148] Top shape: 24 512 14 14 (2408448)
I0403 19:21:25.819326 19597 net.cpp:148] Top shape: 24 512 14 14 (2408448)
I0403 19:21:25.819342 19597 net.cpp:148] Top shape: 24 512 14 14 (2408448)
I0403 19:21:25.819358 19597 net.cpp:148] Top shape: 24 512 14 14 (2408448)
I0403 19:21:25.819371 19597 net.cpp:156] Memory required for data: 1028392224
I0403 19:21:25.819386 19597 layer_factory.hpp:77] Creating layer inception_4c/1x1
I0403 19:21:25.819408 19597 net.cpp:91] Creating Layer inception_4c/1x1
I0403 19:21:25.819425 19597 net.cpp:425] inception_4c/1x1 <- inception_4b/output_inception_4b/output_0_split_0
I0403 19:21:25.819444 19597 net.cpp:399] inception_4c/1x1 -> inception_4c/1x1
I0403 19:21:25.820874 19597 net.cpp:141] Setting up inception_4c/1x1
I0403 19:21:25.820901 19597 net.cpp:148] Top shape: 24 128 14 14 (602112)
I0403 19:21:25.820919 19597 net.cpp:156] Memory required for data: 1030800672
I0403 19:21:25.820937 19597 layer_factory.hpp:77] Creating layer inception_4c/relu_1x1
I0403 19:21:25.820966 19597 net.cpp:91] Creating Layer inception_4c/relu_1x1
I0403 19:21:25.820983 19597 net.cpp:425] inception_4c/relu_1x1 <- inception_4c/1x1
I0403 19:21:25.821002 19597 net.cpp:386] inception_4c/relu_1x1 -> inception_4c/1x1 (in-place)
I0403 19:21:25.821184 19597 net.cpp:141] Setting up inception_4c/relu_1x1
I0403 19:21:25.821213 19597 net.cpp:148] Top shape: 24 128 14 14 (602112)
I0403 19:21:25.821228 19597 net.cpp:156] Memory required for data: 1033209120
I0403 19:21:25.821244 19597 layer_factory.hpp:77] Creating layer inception_4c/3x3_reduce
I0403 19:21:25.821266 19597 net.cpp:91] Creating Layer inception_4c/3x3_reduce
I0403 19:21:25.821283 19597 net.cpp:425] inception_4c/3x3_reduce <- inception_4b/output_inception_4b/output_0_split_1
I0403 19:21:25.821303 19597 net.cpp:399] inception_4c/3x3_reduce -> inception_4c/3x3_reduce
I0403 19:21:25.823238 19597 net.cpp:141] Setting up inception_4c/3x3_reduce
I0403 19:21:25.823269 19597 net.cpp:148] Top shape: 24 128 14 14 (602112)
I0403 19:21:25.823285 19597 net.cpp:156] Memory required for data: 1035617568
I0403 19:21:25.823304 19597 layer_factory.hpp:77] Creating layer inception_4c/relu_3x3_reduce
I0403 19:21:25.823323 19597 net.cpp:91] Creating Layer inception_4c/relu_3x3_reduce
I0403 19:21:25.823339 19597 net.cpp:425] inception_4c/relu_3x3_reduce <- inception_4c/3x3_reduce
I0403 19:21:25.823356 19597 net.cpp:386] inception_4c/relu_3x3_reduce -> inception_4c/3x3_reduce (in-place)
I0403 19:21:25.823642 19597 net.cpp:141] Setting up inception_4c/relu_3x3_reduce
I0403 19:21:25.823673 19597 net.cpp:148] Top shape: 24 128 14 14 (602112)
I0403 19:21:25.823689 19597 net.cpp:156] Memory required for data: 1038026016
I0403 19:21:25.823704 19597 layer_factory.hpp:77] Creating layer inception_4c/3x3
I0403 19:21:25.823727 19597 net.cpp:91] Creating Layer inception_4c/3x3
I0403 19:21:25.823746 19597 net.cpp:425] inception_4c/3x3 <- inception_4c/3x3_reduce
I0403 19:21:25.823765 19597 net.cpp:399] inception_4c/3x3 -> inception_4c/3x3
I0403 19:21:25.827395 19597 net.cpp:141] Setting up inception_4c/3x3
I0403 19:21:25.827437 19597 net.cpp:148] Top shape: 24 256 14 14 (1204224)
I0403 19:21:25.827455 19597 net.cpp:156] Memory required for data: 1042842912
I0403 19:21:25.827487 19597 layer_factory.hpp:77] Creating layer inception_4c/relu_3x3
I0403 19:21:25.827508 19597 net.cpp:91] Creating Layer inception_4c/relu_3x3
I0403 19:21:25.827524 19597 net.cpp:425] inception_4c/relu_3x3 <- inception_4c/3x3
I0403 19:21:25.827544 19597 net.cpp:386] inception_4c/relu_3x3 -> inception_4c/3x3 (in-place)
I0403 19:21:25.827728 19597 net.cpp:141] Setting up inception_4c/relu_3x3
I0403 19:21:25.827754 19597 net.cpp:148] Top shape: 24 256 14 14 (1204224)
I0403 19:21:25.827769 19597 net.cpp:156] Memory required for data: 1047659808
I0403 19:21:25.827785 19597 layer_factory.hpp:77] Creating layer inception_4c/5x5_reduce
I0403 19:21:25.827807 19597 net.cpp:91] Creating Layer inception_4c/5x5_reduce
I0403 19:21:25.827826 19597 net.cpp:425] inception_4c/5x5_reduce <- inception_4b/output_inception_4b/output_0_split_2
I0403 19:21:25.827847 19597 net.cpp:399] inception_4c/5x5_reduce -> inception_4c/5x5_reduce
I0403 19:21:25.828940 19597 net.cpp:141] Setting up inception_4c/5x5_reduce
I0403 19:21:25.828979 19597 net.cpp:148] Top shape: 24 24 14 14 (112896)
I0403 19:21:25.828994 19597 net.cpp:156] Memory required for data: 1048111392
I0403 19:21:25.829013 19597 layer_factory.hpp:77] Creating layer inception_4c/relu_5x5_reduce
I0403 19:21:25.829031 19597 net.cpp:91] Creating Layer inception_4c/relu_5x5_reduce
I0403 19:21:25.829048 19597 net.cpp:425] inception_4c/relu_5x5_reduce <- inception_4c/5x5_reduce
I0403 19:21:25.829071 19597 net.cpp:386] inception_4c/relu_5x5_reduce -> inception_4c/5x5_reduce (in-place)
I0403 19:21:25.829254 19597 net.cpp:141] Setting up inception_4c/relu_5x5_reduce
I0403 19:21:25.829279 19597 net.cpp:148] Top shape: 24 24 14 14 (112896)
I0403 19:21:25.829294 19597 net.cpp:156] Memory required for data: 1048562976
I0403 19:21:25.829309 19597 layer_factory.hpp:77] Creating layer inception_4c/5x5
I0403 19:21:25.829332 19597 net.cpp:91] Creating Layer inception_4c/5x5
I0403 19:21:25.829349 19597 net.cpp:425] inception_4c/5x5 <- inception_4c/5x5_reduce
I0403 19:21:25.829370 19597 net.cpp:399] inception_4c/5x5 -> inception_4c/5x5
I0403 19:21:25.830621 19597 net.cpp:141] Setting up inception_4c/5x5
I0403 19:21:25.830648 19597 net.cpp:148] Top shape: 24 64 14 14 (301056)
I0403 19:21:25.830664 19597 net.cpp:156] Memory required for data: 1049767200
I0403 19:21:25.830683 19597 layer_factory.hpp:77] Creating layer inception_4c/relu_5x5
I0403 19:21:25.830703 19597 net.cpp:91] Creating Layer inception_4c/relu_5x5
I0403 19:21:25.830720 19597 net.cpp:425] inception_4c/relu_5x5 <- inception_4c/5x5
I0403 19:21:25.830739 19597 net.cpp:386] inception_4c/relu_5x5 -> inception_4c/5x5 (in-place)
I0403 19:21:25.831032 19597 net.cpp:141] Setting up inception_4c/relu_5x5
I0403 19:21:25.831058 19597 net.cpp:148] Top shape: 24 64 14 14 (301056)
I0403 19:21:25.831073 19597 net.cpp:156] Memory required for data: 1050971424
I0403 19:21:25.831089 19597 layer_factory.hpp:77] Creating layer inception_4c/pool
I0403 19:21:25.831106 19597 net.cpp:91] Creating Layer inception_4c/pool
I0403 19:21:25.831123 19597 net.cpp:425] inception_4c/pool <- inception_4b/output_inception_4b/output_0_split_3
I0403 19:21:25.831143 19597 net.cpp:399] inception_4c/pool -> inception_4c/pool
I0403 19:21:25.831212 19597 net.cpp:141] Setting up inception_4c/pool
I0403 19:21:25.831235 19597 net.cpp:148] Top shape: 24 512 14 14 (2408448)
I0403 19:21:25.831251 19597 net.cpp:156] Memory required for data: 1060605216
I0403 19:21:25.831266 19597 layer_factory.hpp:77] Creating layer inception_4c/pool_proj
I0403 19:21:25.831289 19597 net.cpp:91] Creating Layer inception_4c/pool_proj
I0403 19:21:25.831306 19597 net.cpp:425] inception_4c/pool_proj <- inception_4c/pool
I0403 19:21:25.831327 19597 net.cpp:399] inception_4c/pool_proj -> inception_4c/pool_proj
I0403 19:21:25.832551 19597 net.cpp:141] Setting up inception_4c/pool_proj
I0403 19:21:25.832581 19597 net.cpp:148] Top shape: 24 64 14 14 (301056)
I0403 19:21:25.832612 19597 net.cpp:156] Memory required for data: 1061809440
I0403 19:21:25.832630 19597 layer_factory.hpp:77] Creating layer inception_4c/relu_pool_proj
I0403 19:21:25.832649 19597 net.cpp:91] Creating Layer inception_4c/relu_pool_proj
I0403 19:21:25.832665 19597 net.cpp:425] inception_4c/relu_pool_proj <- inception_4c/pool_proj
I0403 19:21:25.832689 19597 net.cpp:386] inception_4c/relu_pool_proj -> inception_4c/pool_proj (in-place)
I0403 19:21:25.832870 19597 net.cpp:141] Setting up inception_4c/relu_pool_proj
I0403 19:21:25.832895 19597 net.cpp:148] Top shape: 24 64 14 14 (301056)
I0403 19:21:25.832909 19597 net.cpp:156] Memory required for data: 1063013664
I0403 19:21:25.832924 19597 layer_factory.hpp:77] Creating layer inception_4c/output
I0403 19:21:25.832942 19597 net.cpp:91] Creating Layer inception_4c/output
I0403 19:21:25.832978 19597 net.cpp:425] inception_4c/output <- inception_4c/1x1
I0403 19:21:25.832996 19597 net.cpp:425] inception_4c/output <- inception_4c/3x3
I0403 19:21:25.833020 19597 net.cpp:425] inception_4c/output <- inception_4c/5x5
I0403 19:21:25.833036 19597 net.cpp:425] inception_4c/output <- inception_4c/pool_proj
I0403 19:21:25.833056 19597 net.cpp:399] inception_4c/output -> inception_4c/output
I0403 19:21:25.833107 19597 net.cpp:141] Setting up inception_4c/output
I0403 19:21:25.833132 19597 net.cpp:148] Top shape: 24 512 14 14 (2408448)
I0403 19:21:25.833147 19597 net.cpp:156] Memory required for data: 1072647456
I0403 19:21:25.833163 19597 layer_factory.hpp:77] Creating layer inception_4c/output_inception_4c/output_0_split
I0403 19:21:25.833179 19597 net.cpp:91] Creating Layer inception_4c/output_inception_4c/output_0_split
I0403 19:21:25.833196 19597 net.cpp:425] inception_4c/output_inception_4c/output_0_split <- inception_4c/output
I0403 19:21:25.833216 19597 net.cpp:399] inception_4c/output_inception_4c/output_0_split -> inception_4c/output_inception_4c/output_0_split_0
I0403 19:21:25.833238 19597 net.cpp:399] inception_4c/output_inception_4c/output_0_split -> inception_4c/output_inception_4c/output_0_split_1
I0403 19:21:25.833259 19597 net.cpp:399] inception_4c/output_inception_4c/output_0_split -> inception_4c/output_inception_4c/output_0_split_2
I0403 19:21:25.833281 19597 net.cpp:399] inception_4c/output_inception_4c/output_0_split -> inception_4c/output_inception_4c/output_0_split_3
I0403 19:21:25.833374 19597 net.cpp:141] Setting up inception_4c/output_inception_4c/output_0_split
I0403 19:21:25.833398 19597 net.cpp:148] Top shape: 24 512 14 14 (2408448)
I0403 19:21:25.833415 19597 net.cpp:148] Top shape: 24 512 14 14 (2408448)
I0403 19:21:25.833431 19597 net.cpp:148] Top shape: 24 512 14 14 (2408448)
I0403 19:21:25.833447 19597 net.cpp:148] Top shape: 24 512 14 14 (2408448)
I0403 19:21:25.833461 19597 net.cpp:156] Memory required for data: 1111182624
I0403 19:21:25.833477 19597 layer_factory.hpp:77] Creating layer inception_4d/1x1
I0403 19:21:25.833501 19597 net.cpp:91] Creating Layer inception_4d/1x1
I0403 19:21:25.833519 19597 net.cpp:425] inception_4d/1x1 <- inception_4c/output_inception_4c/output_0_split_0
I0403 19:21:25.833539 19597 net.cpp:399] inception_4d/1x1 -> inception_4d/1x1
I0403 19:21:25.834967 19597 net.cpp:141] Setting up inception_4d/1x1
I0403 19:21:25.834996 19597 net.cpp:148] Top shape: 24 112 14 14 (526848)
I0403 19:21:25.835012 19597 net.cpp:156] Memory required for data: 1113290016
I0403 19:21:25.835031 19597 layer_factory.hpp:77] Creating layer inception_4d/relu_1x1
I0403 19:21:25.835052 19597 net.cpp:91] Creating Layer inception_4d/relu_1x1
I0403 19:21:25.835069 19597 net.cpp:425] inception_4d/relu_1x1 <- inception_4d/1x1
I0403 19:21:25.835088 19597 net.cpp:386] inception_4d/relu_1x1 -> inception_4d/1x1 (in-place)
I0403 19:21:25.835279 19597 net.cpp:141] Setting up inception_4d/relu_1x1
I0403 19:21:25.835305 19597 net.cpp:148] Top shape: 24 112 14 14 (526848)
I0403 19:21:25.835320 19597 net.cpp:156] Memory required for data: 1115397408
I0403 19:21:25.835336 19597 layer_factory.hpp:77] Creating layer inception_4d/3x3_reduce
I0403 19:21:25.835373 19597 net.cpp:91] Creating Layer inception_4d/3x3_reduce
I0403 19:21:25.835392 19597 net.cpp:425] inception_4d/3x3_reduce <- inception_4c/output_inception_4c/output_0_split_1
I0403 19:21:25.835415 19597 net.cpp:399] inception_4d/3x3_reduce -> inception_4d/3x3_reduce
I0403 19:21:25.836977 19597 net.cpp:141] Setting up inception_4d/3x3_reduce
I0403 19:21:25.837007 19597 net.cpp:148] Top shape: 24 144 14 14 (677376)
I0403 19:21:25.837023 19597 net.cpp:156] Memory required for data: 1118106912
I0403 19:21:25.837043 19597 layer_factory.hpp:77] Creating layer inception_4d/relu_3x3_reduce
I0403 19:21:25.837066 19597 net.cpp:91] Creating Layer inception_4d/relu_3x3_reduce
I0403 19:21:25.837085 19597 net.cpp:425] inception_4d/relu_3x3_reduce <- inception_4d/3x3_reduce
I0403 19:21:25.837103 19597 net.cpp:386] inception_4d/relu_3x3_reduce -> inception_4d/3x3_reduce (in-place)
I0403 19:21:25.837401 19597 net.cpp:141] Setting up inception_4d/relu_3x3_reduce
I0403 19:21:25.837429 19597 net.cpp:148] Top shape: 24 144 14 14 (677376)
I0403 19:21:25.837445 19597 net.cpp:156] Memory required for data: 1120816416
I0403 19:21:25.837460 19597 layer_factory.hpp:77] Creating layer inception_4d/3x3
I0403 19:21:25.837483 19597 net.cpp:91] Creating Layer inception_4d/3x3
I0403 19:21:25.837502 19597 net.cpp:425] inception_4d/3x3 <- inception_4d/3x3_reduce
I0403 19:21:25.837524 19597 net.cpp:399] inception_4d/3x3 -> inception_4d/3x3
I0403 19:21:25.841909 19597 net.cpp:141] Setting up inception_4d/3x3
I0403 19:21:25.841943 19597 net.cpp:148] Top shape: 24 288 14 14 (1354752)
I0403 19:21:25.841964 19597 net.cpp:156] Memory required for data: 1126235424
I0403 19:21:25.841984 19597 layer_factory.hpp:77] Creating layer inception_4d/relu_3x3
I0403 19:21:25.842003 19597 net.cpp:91] Creating Layer inception_4d/relu_3x3
I0403 19:21:25.842021 19597 net.cpp:425] inception_4d/relu_3x3 <- inception_4d/3x3
I0403 19:21:25.842039 19597 net.cpp:386] inception_4d/relu_3x3 -> inception_4d/3x3 (in-place)
I0403 19:21:25.842232 19597 net.cpp:141] Setting up inception_4d/relu_3x3
I0403 19:21:25.842258 19597 net.cpp:148] Top shape: 24 288 14 14 (1354752)
I0403 19:21:25.842274 19597 net.cpp:156] Memory required for data: 1131654432
I0403 19:21:25.842290 19597 layer_factory.hpp:77] Creating layer inception_4d/5x5_reduce
I0403 19:21:25.842314 19597 net.cpp:91] Creating Layer inception_4d/5x5_reduce
I0403 19:21:25.842332 19597 net.cpp:425] inception_4d/5x5_reduce <- inception_4c/output_inception_4c/output_0_split_2
I0403 19:21:25.842355 19597 net.cpp:399] inception_4d/5x5_reduce -> inception_4d/5x5_reduce
I0403 19:21:25.843535 19597 net.cpp:141] Setting up inception_4d/5x5_reduce
I0403 19:21:25.843564 19597 net.cpp:148] Top shape: 24 32 14 14 (150528)
I0403 19:21:25.843581 19597 net.cpp:156] Memory required for data: 1132256544
I0403 19:21:25.843600 19597 layer_factory.hpp:77] Creating layer inception_4d/relu_5x5_reduce
I0403 19:21:25.843621 19597 net.cpp:91] Creating Layer inception_4d/relu_5x5_reduce
I0403 19:21:25.843639 19597 net.cpp:425] inception_4d/relu_5x5_reduce <- inception_4d/5x5_reduce
I0403 19:21:25.843657 19597 net.cpp:386] inception_4d/relu_5x5_reduce -> inception_4d/5x5_reduce (in-place)
I0403 19:21:25.843852 19597 net.cpp:141] Setting up inception_4d/relu_5x5_reduce
I0403 19:21:25.843878 19597 net.cpp:148] Top shape: 24 32 14 14 (150528)
I0403 19:21:25.843894 19597 net.cpp:156] Memory required for data: 1132858656
I0403 19:21:25.843915 19597 layer_factory.hpp:77] Creating layer inception_4d/5x5
I0403 19:21:25.843942 19597 net.cpp:91] Creating Layer inception_4d/5x5
I0403 19:21:25.843966 19597 net.cpp:425] inception_4d/5x5 <- inception_4d/5x5_reduce
I0403 19:21:25.843988 19597 net.cpp:399] inception_4d/5x5 -> inception_4d/5x5
I0403 19:21:25.845520 19597 net.cpp:141] Setting up inception_4d/5x5
I0403 19:21:25.845549 19597 net.cpp:148] Top shape: 24 64 14 14 (301056)
I0403 19:21:25.845566 19597 net.cpp:156] Memory required for data: 1134062880
I0403 19:21:25.845587 19597 layer_factory.hpp:77] Creating layer inception_4d/relu_5x5
I0403 19:21:25.845619 19597 net.cpp:91] Creating Layer inception_4d/relu_5x5
I0403 19:21:25.845638 19597 net.cpp:425] inception_4d/relu_5x5 <- inception_4d/5x5
I0403 19:21:25.845659 19597 net.cpp:386] inception_4d/relu_5x5 -> inception_4d/5x5 (in-place)
I0403 19:21:25.845978 19597 net.cpp:141] Setting up inception_4d/relu_5x5
I0403 19:21:25.846005 19597 net.cpp:148] Top shape: 24 64 14 14 (301056)
I0403 19:21:25.846021 19597 net.cpp:156] Memory required for data: 1135267104
I0403 19:21:25.846037 19597 layer_factory.hpp:77] Creating layer inception_4d/pool
I0403 19:21:25.846055 19597 net.cpp:91] Creating Layer inception_4d/pool
I0403 19:21:25.846072 19597 net.cpp:425] inception_4d/pool <- inception_4c/output_inception_4c/output_0_split_3
I0403 19:21:25.846094 19597 net.cpp:399] inception_4d/pool -> inception_4d/pool
I0403 19:21:25.846164 19597 net.cpp:141] Setting up inception_4d/pool
I0403 19:21:25.846189 19597 net.cpp:148] Top shape: 24 512 14 14 (2408448)
I0403 19:21:25.846206 19597 net.cpp:156] Memory required for data: 1144900896
I0403 19:21:25.846221 19597 layer_factory.hpp:77] Creating layer inception_4d/pool_proj
I0403 19:21:25.846246 19597 net.cpp:91] Creating Layer inception_4d/pool_proj
I0403 19:21:25.846266 19597 net.cpp:425] inception_4d/pool_proj <- inception_4d/pool
I0403 19:21:25.846285 19597 net.cpp:399] inception_4d/pool_proj -> inception_4d/pool_proj
I0403 19:21:25.848109 19597 net.cpp:141] Setting up inception_4d/pool_proj
I0403 19:21:25.848143 19597 net.cpp:148] Top shape: 24 64 14 14 (301056)
I0403 19:21:25.848161 19597 net.cpp:156] Memory required for data: 1146105120
I0403 19:21:25.848181 19597 layer_factory.hpp:77] Creating layer inception_4d/relu_pool_proj
I0403 19:21:25.848199 19597 net.cpp:91] Creating Layer inception_4d/relu_pool_proj
I0403 19:21:25.848217 19597 net.cpp:425] inception_4d/relu_pool_proj <- inception_4d/pool_proj
I0403 19:21:25.848235 19597 net.cpp:386] inception_4d/relu_pool_proj -> inception_4d/pool_proj (in-place)
I0403 19:21:25.848433 19597 net.cpp:141] Setting up inception_4d/relu_pool_proj
I0403 19:21:25.848458 19597 net.cpp:148] Top shape: 24 64 14 14 (301056)
I0403 19:21:25.848474 19597 net.cpp:156] Memory required for data: 1147309344
I0403 19:21:25.848489 19597 layer_factory.hpp:77] Creating layer inception_4d/output
I0403 19:21:25.848507 19597 net.cpp:91] Creating Layer inception_4d/output
I0403 19:21:25.848523 19597 net.cpp:425] inception_4d/output <- inception_4d/1x1
I0403 19:21:25.848541 19597 net.cpp:425] inception_4d/output <- inception_4d/3x3
I0403 19:21:25.848558 19597 net.cpp:425] inception_4d/output <- inception_4d/5x5
I0403 19:21:25.848574 19597 net.cpp:425] inception_4d/output <- inception_4d/pool_proj
I0403 19:21:25.848594 19597 net.cpp:399] inception_4d/output -> inception_4d/output
I0403 19:21:25.848642 19597 net.cpp:141] Setting up inception_4d/output
I0403 19:21:25.848666 19597 net.cpp:148] Top shape: 24 528 14 14 (2483712)
I0403 19:21:25.848681 19597 net.cpp:156] Memory required for data: 1157244192
I0403 19:21:25.848696 19597 layer_factory.hpp:77] Creating layer inception_4d/output_inception_4d/output_0_split
I0403 19:21:25.848718 19597 net.cpp:91] Creating Layer inception_4d/output_inception_4d/output_0_split
I0403 19:21:25.848736 19597 net.cpp:425] inception_4d/output_inception_4d/output_0_split <- inception_4d/output
I0403 19:21:25.848757 19597 net.cpp:399] inception_4d/output_inception_4d/output_0_split -> inception_4d/output_inception_4d/output_0_split_0
I0403 19:21:25.848779 19597 net.cpp:399] inception_4d/output_inception_4d/output_0_split -> inception_4d/output_inception_4d/output_0_split_1
I0403 19:21:25.848801 19597 net.cpp:399] inception_4d/output_inception_4d/output_0_split -> inception_4d/output_inception_4d/output_0_split_2
I0403 19:21:25.848824 19597 net.cpp:399] inception_4d/output_inception_4d/output_0_split -> inception_4d/output_inception_4d/output_0_split_3
I0403 19:21:25.848845 19597 net.cpp:399] inception_4d/output_inception_4d/output_0_split -> inception_4d/output_inception_4d/output_0_split_4
I0403 19:21:25.848964 19597 net.cpp:141] Setting up inception_4d/output_inception_4d/output_0_split
I0403 19:21:25.849001 19597 net.cpp:148] Top shape: 24 528 14 14 (2483712)
I0403 19:21:25.849020 19597 net.cpp:148] Top shape: 24 528 14 14 (2483712)
I0403 19:21:25.849036 19597 net.cpp:148] Top shape: 24 528 14 14 (2483712)
I0403 19:21:25.849052 19597 net.cpp:148] Top shape: 24 528 14 14 (2483712)
I0403 19:21:25.849068 19597 net.cpp:148] Top shape: 24 528 14 14 (2483712)
I0403 19:21:25.849083 19597 net.cpp:156] Memory required for data: 1206918432
I0403 19:21:25.849098 19597 layer_factory.hpp:77] Creating layer loss2/ave_pool
I0403 19:21:25.849119 19597 net.cpp:91] Creating Layer loss2/ave_pool
I0403 19:21:25.849138 19597 net.cpp:425] loss2/ave_pool <- inception_4d/output_inception_4d/output_0_split_0
I0403 19:21:25.849156 19597 net.cpp:399] loss2/ave_pool -> loss2/ave_pool
I0403 19:21:25.849479 19597 net.cpp:141] Setting up loss2/ave_pool
I0403 19:21:25.849509 19597 net.cpp:148] Top shape: 24 528 4 4 (202752)
I0403 19:21:25.849525 19597 net.cpp:156] Memory required for data: 1207729440
I0403 19:21:25.849541 19597 layer_factory.hpp:77] Creating layer loss2/conv
I0403 19:21:25.849565 19597 net.cpp:91] Creating Layer loss2/conv
I0403 19:21:25.849583 19597 net.cpp:425] loss2/conv <- loss2/ave_pool
I0403 19:21:25.849603 19597 net.cpp:399] loss2/conv -> loss2/conv
I0403 19:21:25.851567 19597 net.cpp:141] Setting up loss2/conv
I0403 19:21:25.851596 19597 net.cpp:148] Top shape: 24 128 4 4 (49152)
I0403 19:21:25.851613 19597 net.cpp:156] Memory required for data: 1207926048
I0403 19:21:25.851631 19597 layer_factory.hpp:77] Creating layer loss2/relu_conv
I0403 19:21:25.851652 19597 net.cpp:91] Creating Layer loss2/relu_conv
I0403 19:21:25.851670 19597 net.cpp:425] loss2/relu_conv <- loss2/conv
I0403 19:21:25.851687 19597 net.cpp:386] loss2/relu_conv -> loss2/conv (in-place)
I0403 19:21:25.851979 19597 net.cpp:141] Setting up loss2/relu_conv
I0403 19:21:25.852005 19597 net.cpp:148] Top shape: 24 128 4 4 (49152)
I0403 19:21:25.852020 19597 net.cpp:156] Memory required for data: 1208122656
I0403 19:21:25.852035 19597 layer_factory.hpp:77] Creating layer loss2/fc
I0403 19:21:25.852057 19597 net.cpp:91] Creating Layer loss2/fc
I0403 19:21:25.852075 19597 net.cpp:425] loss2/fc <- loss2/conv
I0403 19:21:25.852094 19597 net.cpp:399] loss2/fc -> loss2/fc
I0403 19:21:25.869477 19597 net.cpp:141] Setting up loss2/fc
I0403 19:21:25.869509 19597 net.cpp:148] Top shape: 24 1024 (24576)
I0403 19:21:25.869525 19597 net.cpp:156] Memory required for data: 1208220960
I0403 19:21:25.869544 19597 layer_factory.hpp:77] Creating layer loss2/relu_fc
I0403 19:21:25.869563 19597 net.cpp:91] Creating Layer loss2/relu_fc
I0403 19:21:25.869580 19597 net.cpp:425] loss2/relu_fc <- loss2/fc
I0403 19:21:25.869601 19597 net.cpp:386] loss2/relu_fc -> loss2/fc (in-place)
I0403 19:21:25.869891 19597 net.cpp:141] Setting up loss2/relu_fc
I0403 19:21:25.869918 19597 net.cpp:148] Top shape: 24 1024 (24576)
I0403 19:21:25.869935 19597 net.cpp:156] Memory required for data: 1208319264
I0403 19:21:25.869952 19597 layer_factory.hpp:77] Creating layer loss2/drop_fc
I0403 19:21:25.869971 19597 net.cpp:91] Creating Layer loss2/drop_fc
I0403 19:21:25.869987 19597 net.cpp:425] loss2/drop_fc <- loss2/fc
I0403 19:21:25.870007 19597 net.cpp:386] loss2/drop_fc -> loss2/fc (in-place)
I0403 19:21:25.870054 19597 net.cpp:141] Setting up loss2/drop_fc
I0403 19:21:25.870076 19597 net.cpp:148] Top shape: 24 1024 (24576)
I0403 19:21:25.870090 19597 net.cpp:156] Memory required for data: 1208417568
I0403 19:21:25.870105 19597 layer_factory.hpp:77] Creating layer loss2/classifier_plantvillage
I0403 19:21:25.870126 19597 net.cpp:91] Creating Layer loss2/classifier_plantvillage
I0403 19:21:25.870143 19597 net.cpp:425] loss2/classifier_plantvillage <- loss2/fc
I0403 19:21:25.870167 19597 net.cpp:399] loss2/classifier_plantvillage -> loss2/classifier_plantvillage
I0403 19:21:25.870555 19597 net.cpp:141] Setting up loss2/classifier_plantvillage
I0403 19:21:25.870579 19597 net.cpp:148] Top shape: 24 38 (912)
I0403 19:21:25.870609 19597 net.cpp:156] Memory required for data: 1208421216
I0403 19:21:25.870628 19597 layer_factory.hpp:77] Creating layer loss2/classifier_plantvillage_loss2/classifier_plantvillage_0_split
I0403 19:21:25.870648 19597 net.cpp:91] Creating Layer loss2/classifier_plantvillage_loss2/classifier_plantvillage_0_split
I0403 19:21:25.870664 19597 net.cpp:425] loss2/classifier_plantvillage_loss2/classifier_plantvillage_0_split <- loss2/classifier_plantvillage
I0403 19:21:25.870682 19597 net.cpp:399] loss2/classifier_plantvillage_loss2/classifier_plantvillage_0_split -> loss2/classifier_plantvillage_loss2/classifier_plantvillage_0_split_0
I0403 19:21:25.870702 19597 net.cpp:399] loss2/classifier_plantvillage_loss2/classifier_plantvillage_0_split -> loss2/classifier_plantvillage_loss2/classifier_plantvillage_0_split_1
I0403 19:21:25.870723 19597 net.cpp:399] loss2/classifier_plantvillage_loss2/classifier_plantvillage_0_split -> loss2/classifier_plantvillage_loss2/classifier_plantvillage_0_split_2
I0403 19:21:25.870800 19597 net.cpp:141] Setting up loss2/classifier_plantvillage_loss2/classifier_plantvillage_0_split
I0403 19:21:25.870822 19597 net.cpp:148] Top shape: 24 38 (912)
I0403 19:21:25.870838 19597 net.cpp:148] Top shape: 24 38 (912)
I0403 19:21:25.870854 19597 net.cpp:148] Top shape: 24 38 (912)
I0403 19:21:25.870867 19597 net.cpp:156] Memory required for data: 1208432160
I0403 19:21:25.870882 19597 layer_factory.hpp:77] Creating layer inception_4e/1x1
I0403 19:21:25.870901 19597 net.cpp:91] Creating Layer inception_4e/1x1
I0403 19:21:25.870918 19597 net.cpp:425] inception_4e/1x1 <- inception_4d/output_inception_4d/output_0_split_1
I0403 19:21:25.870937 19597 net.cpp:399] inception_4e/1x1 -> inception_4e/1x1
I0403 19:21:25.872716 19597 net.cpp:141] Setting up inception_4e/1x1
I0403 19:21:25.872745 19597 net.cpp:148] Top shape: 24 256 14 14 (1204224)
I0403 19:21:25.872759 19597 net.cpp:156] Memory required for data: 1213249056
I0403 19:21:25.872777 19597 layer_factory.hpp:77] Creating layer inception_4e/relu_1x1
I0403 19:21:25.872797 19597 net.cpp:91] Creating Layer inception_4e/relu_1x1
I0403 19:21:25.872814 19597 net.cpp:425] inception_4e/relu_1x1 <- inception_4e/1x1
I0403 19:21:25.872831 19597 net.cpp:386] inception_4e/relu_1x1 -> inception_4e/1x1 (in-place)
I0403 19:21:25.873129 19597 net.cpp:141] Setting up inception_4e/relu_1x1
I0403 19:21:25.873155 19597 net.cpp:148] Top shape: 24 256 14 14 (1204224)
I0403 19:21:25.873169 19597 net.cpp:156] Memory required for data: 1218065952
I0403 19:21:25.873184 19597 layer_factory.hpp:77] Creating layer inception_4e/3x3_reduce
I0403 19:21:25.873206 19597 net.cpp:91] Creating Layer inception_4e/3x3_reduce
I0403 19:21:25.873224 19597 net.cpp:425] inception_4e/3x3_reduce <- inception_4d/output_inception_4d/output_0_split_2
I0403 19:21:25.873245 19597 net.cpp:399] inception_4e/3x3_reduce -> inception_4e/3x3_reduce
I0403 19:21:25.875313 19597 net.cpp:141] Setting up inception_4e/3x3_reduce
I0403 19:21:25.875341 19597 net.cpp:148] Top shape: 24 160 14 14 (752640)
I0403 19:21:25.875357 19597 net.cpp:156] Memory required for data: 1221076512
I0403 19:21:25.875375 19597 layer_factory.hpp:77] Creating layer inception_4e/relu_3x3_reduce
I0403 19:21:25.875392 19597 net.cpp:91] Creating Layer inception_4e/relu_3x3_reduce
I0403 19:21:25.875408 19597 net.cpp:425] inception_4e/relu_3x3_reduce <- inception_4e/3x3_reduce
I0403 19:21:25.875427 19597 net.cpp:386] inception_4e/relu_3x3_reduce -> inception_4e/3x3_reduce (in-place)
I0403 19:21:25.875610 19597 net.cpp:141] Setting up inception_4e/relu_3x3_reduce
I0403 19:21:25.875634 19597 net.cpp:148] Top shape: 24 160 14 14 (752640)
I0403 19:21:25.875649 19597 net.cpp:156] Memory required for data: 1224087072
I0403 19:21:25.875663 19597 layer_factory.hpp:77] Creating layer inception_4e/3x3
I0403 19:21:25.875685 19597 net.cpp:91] Creating Layer inception_4e/3x3
I0403 19:21:25.875704 19597 net.cpp:425] inception_4e/3x3 <- inception_4e/3x3_reduce
I0403 19:21:25.875723 19597 net.cpp:399] inception_4e/3x3 -> inception_4e/3x3
I0403 19:21:25.880602 19597 net.cpp:141] Setting up inception_4e/3x3
I0403 19:21:25.880645 19597 net.cpp:148] Top shape: 24 320 14 14 (1505280)
I0403 19:21:25.880661 19597 net.cpp:156] Memory required for data: 1230108192
I0403 19:21:25.880678 19597 layer_factory.hpp:77] Creating layer inception_4e/relu_3x3
I0403 19:21:25.880699 19597 net.cpp:91] Creating Layer inception_4e/relu_3x3
I0403 19:21:25.880715 19597 net.cpp:425] inception_4e/relu_3x3 <- inception_4e/3x3
I0403 19:21:25.880733 19597 net.cpp:386] inception_4e/relu_3x3 -> inception_4e/3x3 (in-place)
I0403 19:21:25.881031 19597 net.cpp:141] Setting up inception_4e/relu_3x3
I0403 19:21:25.881055 19597 net.cpp:148] Top shape: 24 320 14 14 (1505280)
I0403 19:21:25.881070 19597 net.cpp:156] Memory required for data: 1236129312
I0403 19:21:25.881086 19597 layer_factory.hpp:77] Creating layer inception_4e/5x5_reduce
I0403 19:21:25.881110 19597 net.cpp:91] Creating Layer inception_4e/5x5_reduce
I0403 19:21:25.881129 19597 net.cpp:425] inception_4e/5x5_reduce <- inception_4d/output_inception_4d/output_0_split_3
I0403 19:21:25.881147 19597 net.cpp:399] inception_4e/5x5_reduce -> inception_4e/5x5_reduce
I0403 19:21:25.882197 19597 net.cpp:141] Setting up inception_4e/5x5_reduce
I0403 19:21:25.882225 19597 net.cpp:148] Top shape: 24 32 14 14 (150528)
I0403 19:21:25.882239 19597 net.cpp:156] Memory required for data: 1236731424
I0403 19:21:25.882257 19597 layer_factory.hpp:77] Creating layer inception_4e/relu_5x5_reduce
I0403 19:21:25.882275 19597 net.cpp:91] Creating Layer inception_4e/relu_5x5_reduce
I0403 19:21:25.882292 19597 net.cpp:425] inception_4e/relu_5x5_reduce <- inception_4e/5x5_reduce
I0403 19:21:25.882310 19597 net.cpp:386] inception_4e/relu_5x5_reduce -> inception_4e/5x5_reduce (in-place)
I0403 19:21:25.882602 19597 net.cpp:141] Setting up inception_4e/relu_5x5_reduce
I0403 19:21:25.882627 19597 net.cpp:148] Top shape: 24 32 14 14 (150528)
I0403 19:21:25.882642 19597 net.cpp:156] Memory required for data: 1237333536
I0403 19:21:25.882658 19597 layer_factory.hpp:77] Creating layer inception_4e/5x5
I0403 19:21:25.882695 19597 net.cpp:91] Creating Layer inception_4e/5x5
I0403 19:21:25.882714 19597 net.cpp:425] inception_4e/5x5 <- inception_4e/5x5_reduce
I0403 19:21:25.882735 19597 net.cpp:399] inception_4e/5x5 -> inception_4e/5x5
I0403 19:21:25.884544 19597 net.cpp:141] Setting up inception_4e/5x5
I0403 19:21:25.884574 19597 net.cpp:148] Top shape: 24 128 14 14 (602112)
I0403 19:21:25.884590 19597 net.cpp:156] Memory required for data: 1239741984
I0403 19:21:25.884609 19597 layer_factory.hpp:77] Creating layer inception_4e/relu_5x5
I0403 19:21:25.884627 19597 net.cpp:91] Creating Layer inception_4e/relu_5x5
I0403 19:21:25.884644 19597 net.cpp:425] inception_4e/relu_5x5 <- inception_4e/5x5
I0403 19:21:25.884665 19597 net.cpp:386] inception_4e/relu_5x5 -> inception_4e/5x5 (in-place)
I0403 19:21:25.884856 19597 net.cpp:141] Setting up inception_4e/relu_5x5
I0403 19:21:25.884881 19597 net.cpp:148] Top shape: 24 128 14 14 (602112)
I0403 19:21:25.884896 19597 net.cpp:156] Memory required for data: 1242150432
I0403 19:21:25.884910 19597 layer_factory.hpp:77] Creating layer inception_4e/pool
I0403 19:21:25.884927 19597 net.cpp:91] Creating Layer inception_4e/pool
I0403 19:21:25.884943 19597 net.cpp:425] inception_4e/pool <- inception_4d/output_inception_4d/output_0_split_4
I0403 19:21:25.884968 19597 net.cpp:399] inception_4e/pool -> inception_4e/pool
I0403 19:21:25.885038 19597 net.cpp:141] Setting up inception_4e/pool
I0403 19:21:25.885061 19597 net.cpp:148] Top shape: 24 528 14 14 (2483712)
I0403 19:21:25.885074 19597 net.cpp:156] Memory required for data: 1252085280
I0403 19:21:25.885089 19597 layer_factory.hpp:77] Creating layer inception_4e/pool_proj
I0403 19:21:25.885112 19597 net.cpp:91] Creating Layer inception_4e/pool_proj
I0403 19:21:25.885128 19597 net.cpp:425] inception_4e/pool_proj <- inception_4e/pool
I0403 19:21:25.885149 19597 net.cpp:399] inception_4e/pool_proj -> inception_4e/pool_proj
I0403 19:21:25.886615 19597 net.cpp:141] Setting up inception_4e/pool_proj
I0403 19:21:25.886656 19597 net.cpp:148] Top shape: 24 128 14 14 (602112)
I0403 19:21:25.886672 19597 net.cpp:156] Memory required for data: 1254493728
I0403 19:21:25.886689 19597 layer_factory.hpp:77] Creating layer inception_4e/relu_pool_proj
I0403 19:21:25.886708 19597 net.cpp:91] Creating Layer inception_4e/relu_pool_proj
I0403 19:21:25.886724 19597 net.cpp:425] inception_4e/relu_pool_proj <- inception_4e/pool_proj
I0403 19:21:25.886741 19597 net.cpp:386] inception_4e/relu_pool_proj -> inception_4e/pool_proj (in-place)
I0403 19:21:25.887032 19597 net.cpp:141] Setting up inception_4e/relu_pool_proj
I0403 19:21:25.887059 19597 net.cpp:148] Top shape: 24 128 14 14 (602112)
I0403 19:21:25.887076 19597 net.cpp:156] Memory required for data: 1256902176
I0403 19:21:25.887090 19597 layer_factory.hpp:77] Creating layer inception_4e/output
I0403 19:21:25.887109 19597 net.cpp:91] Creating Layer inception_4e/output
I0403 19:21:25.887125 19597 net.cpp:425] inception_4e/output <- inception_4e/1x1
I0403 19:21:25.887141 19597 net.cpp:425] inception_4e/output <- inception_4e/3x3
I0403 19:21:25.887157 19597 net.cpp:425] inception_4e/output <- inception_4e/5x5
I0403 19:21:25.887173 19597 net.cpp:425] inception_4e/output <- inception_4e/pool_proj
I0403 19:21:25.887190 19597 net.cpp:399] inception_4e/output -> inception_4e/output
I0403 19:21:25.887243 19597 net.cpp:141] Setting up inception_4e/output
I0403 19:21:25.887265 19597 net.cpp:148] Top shape: 24 832 14 14 (3913728)
I0403 19:21:25.887280 19597 net.cpp:156] Memory required for data: 1272557088
I0403 19:21:25.887295 19597 layer_factory.hpp:77] Creating layer pool4/3x3_s2
I0403 19:21:25.887315 19597 net.cpp:91] Creating Layer pool4/3x3_s2
I0403 19:21:25.887331 19597 net.cpp:425] pool4/3x3_s2 <- inception_4e/output
I0403 19:21:25.887349 19597 net.cpp:399] pool4/3x3_s2 -> pool4/3x3_s2
I0403 19:21:25.887416 19597 net.cpp:141] Setting up pool4/3x3_s2
I0403 19:21:25.887439 19597 net.cpp:148] Top shape: 24 832 7 7 (978432)
I0403 19:21:25.887454 19597 net.cpp:156] Memory required for data: 1276470816
I0403 19:21:25.887468 19597 layer_factory.hpp:77] Creating layer pool4/3x3_s2_pool4/3x3_s2_0_split
I0403 19:21:25.887485 19597 net.cpp:91] Creating Layer pool4/3x3_s2_pool4/3x3_s2_0_split
I0403 19:21:25.887501 19597 net.cpp:425] pool4/3x3_s2_pool4/3x3_s2_0_split <- pool4/3x3_s2
I0403 19:21:25.887519 19597 net.cpp:399] pool4/3x3_s2_pool4/3x3_s2_0_split -> pool4/3x3_s2_pool4/3x3_s2_0_split_0
I0403 19:21:25.887540 19597 net.cpp:399] pool4/3x3_s2_pool4/3x3_s2_0_split -> pool4/3x3_s2_pool4/3x3_s2_0_split_1
I0403 19:21:25.887562 19597 net.cpp:399] pool4/3x3_s2_pool4/3x3_s2_0_split -> pool4/3x3_s2_pool4/3x3_s2_0_split_2
I0403 19:21:25.887580 19597 net.cpp:399] pool4/3x3_s2_pool4/3x3_s2_0_split -> pool4/3x3_s2_pool4/3x3_s2_0_split_3
I0403 19:21:25.887675 19597 net.cpp:141] Setting up pool4/3x3_s2_pool4/3x3_s2_0_split
I0403 19:21:25.887699 19597 net.cpp:148] Top shape: 24 832 7 7 (978432)
I0403 19:21:25.887717 19597 net.cpp:148] Top shape: 24 832 7 7 (978432)
I0403 19:21:25.887732 19597 net.cpp:148] Top shape: 24 832 7 7 (978432)
I0403 19:21:25.887748 19597 net.cpp:148] Top shape: 24 832 7 7 (978432)
I0403 19:21:25.887761 19597 net.cpp:156] Memory required for data: 1292125728
I0403 19:21:25.887775 19597 layer_factory.hpp:77] Creating layer inception_5a/1x1
I0403 19:21:25.887797 19597 net.cpp:91] Creating Layer inception_5a/1x1
I0403 19:21:25.887814 19597 net.cpp:425] inception_5a/1x1 <- pool4/3x3_s2_pool4/3x3_s2_0_split_0
I0403 19:21:25.887833 19597 net.cpp:399] inception_5a/1x1 -> inception_5a/1x1
I0403 19:21:25.890727 19597 net.cpp:141] Setting up inception_5a/1x1
I0403 19:21:25.890758 19597 net.cpp:148] Top shape: 24 256 7 7 (301056)
I0403 19:21:25.890774 19597 net.cpp:156] Memory required for data: 1293329952
I0403 19:21:25.890794 19597 layer_factory.hpp:77] Creating layer inception_5a/relu_1x1
I0403 19:21:25.890812 19597 net.cpp:91] Creating Layer inception_5a/relu_1x1
I0403 19:21:25.890828 19597 net.cpp:425] inception_5a/relu_1x1 <- inception_5a/1x1
I0403 19:21:25.890848 19597 net.cpp:386] inception_5a/relu_1x1 -> inception_5a/1x1 (in-place)
I0403 19:21:25.891167 19597 net.cpp:141] Setting up inception_5a/relu_1x1
I0403 19:21:25.891196 19597 net.cpp:148] Top shape: 24 256 7 7 (301056)
I0403 19:21:25.891213 19597 net.cpp:156] Memory required for data: 1294534176
I0403 19:21:25.891228 19597 layer_factory.hpp:77] Creating layer inception_5a/3x3_reduce
I0403 19:21:25.891252 19597 net.cpp:91] Creating Layer inception_5a/3x3_reduce
I0403 19:21:25.891270 19597 net.cpp:425] inception_5a/3x3_reduce <- pool4/3x3_s2_pool4/3x3_s2_0_split_1
I0403 19:21:25.891291 19597 net.cpp:399] inception_5a/3x3_reduce -> inception_5a/3x3_reduce
I0403 19:21:25.893771 19597 net.cpp:141] Setting up inception_5a/3x3_reduce
I0403 19:21:25.893800 19597 net.cpp:148] Top shape: 24 160 7 7 (188160)
I0403 19:21:25.893817 19597 net.cpp:156] Memory required for data: 1295286816
I0403 19:21:25.893836 19597 layer_factory.hpp:77] Creating layer inception_5a/relu_3x3_reduce
I0403 19:21:25.893858 19597 net.cpp:91] Creating Layer inception_5a/relu_3x3_reduce
I0403 19:21:25.893875 19597 net.cpp:425] inception_5a/relu_3x3_reduce <- inception_5a/3x3_reduce
I0403 19:21:25.893893 19597 net.cpp:386] inception_5a/relu_3x3_reduce -> inception_5a/3x3_reduce (in-place)
I0403 19:21:25.894089 19597 net.cpp:141] Setting up inception_5a/relu_3x3_reduce
I0403 19:21:25.894117 19597 net.cpp:148] Top shape: 24 160 7 7 (188160)
I0403 19:21:25.894132 19597 net.cpp:156] Memory required for data: 1296039456
I0403 19:21:25.894150 19597 layer_factory.hpp:77] Creating layer inception_5a/3x3
I0403 19:21:25.894171 19597 net.cpp:91] Creating Layer inception_5a/3x3
I0403 19:21:25.894189 19597 net.cpp:425] inception_5a/3x3 <- inception_5a/3x3_reduce
I0403 19:21:25.894210 19597 net.cpp:399] inception_5a/3x3 -> inception_5a/3x3
I0403 19:21:25.899274 19597 net.cpp:141] Setting up inception_5a/3x3
I0403 19:21:25.899305 19597 net.cpp:148] Top shape: 24 320 7 7 (376320)
I0403 19:21:25.899322 19597 net.cpp:156] Memory required for data: 1297544736
I0403 19:21:25.899341 19597 layer_factory.hpp:77] Creating layer inception_5a/relu_3x3
I0403 19:21:25.899360 19597 net.cpp:91] Creating Layer inception_5a/relu_3x3
I0403 19:21:25.899377 19597 net.cpp:425] inception_5a/relu_3x3 <- inception_5a/3x3
I0403 19:21:25.899397 19597 net.cpp:386] inception_5a/relu_3x3 -> inception_5a/3x3 (in-place)
I0403 19:21:25.899696 19597 net.cpp:141] Setting up inception_5a/relu_3x3
I0403 19:21:25.899723 19597 net.cpp:148] Top shape: 24 320 7 7 (376320)
I0403 19:21:25.899739 19597 net.cpp:156] Memory required for data: 1299050016
I0403 19:21:25.899755 19597 layer_factory.hpp:77] Creating layer inception_5a/5x5_reduce
I0403 19:21:25.899776 19597 net.cpp:91] Creating Layer inception_5a/5x5_reduce
I0403 19:21:25.899794 19597 net.cpp:425] inception_5a/5x5_reduce <- pool4/3x3_s2_pool4/3x3_s2_0_split_2
I0403 19:21:25.899818 19597 net.cpp:399] inception_5a/5x5_reduce -> inception_5a/5x5_reduce
I0403 19:21:25.901015 19597 net.cpp:141] Setting up inception_5a/5x5_reduce
I0403 19:21:25.901044 19597 net.cpp:148] Top shape: 24 32 7 7 (37632)
I0403 19:21:25.901062 19597 net.cpp:156] Memory required for data: 1299200544
I0403 19:21:25.901082 19597 layer_factory.hpp:77] Creating layer inception_5a/relu_5x5_reduce
I0403 19:21:25.901100 19597 net.cpp:91] Creating Layer inception_5a/relu_5x5_reduce
I0403 19:21:25.901119 19597 net.cpp:425] inception_5a/relu_5x5_reduce <- inception_5a/5x5_reduce
I0403 19:21:25.901137 19597 net.cpp:386] inception_5a/relu_5x5_reduce -> inception_5a/5x5_reduce (in-place)
I0403 19:21:25.901440 19597 net.cpp:141] Setting up inception_5a/relu_5x5_reduce
I0403 19:21:25.901466 19597 net.cpp:148] Top shape: 24 32 7 7 (37632)
I0403 19:21:25.901481 19597 net.cpp:156] Memory required for data: 1299351072
I0403 19:21:25.901496 19597 layer_factory.hpp:77] Creating layer inception_5a/5x5
I0403 19:21:25.901520 19597 net.cpp:91] Creating Layer inception_5a/5x5
I0403 19:21:25.901537 19597 net.cpp:425] inception_5a/5x5 <- inception_5a/5x5_reduce
I0403 19:21:25.901559 19597 net.cpp:399] inception_5a/5x5 -> inception_5a/5x5
I0403 19:21:25.903303 19597 net.cpp:141] Setting up inception_5a/5x5
I0403 19:21:25.903344 19597 net.cpp:148] Top shape: 24 128 7 7 (150528)
I0403 19:21:25.903362 19597 net.cpp:156] Memory required for data: 1299953184
I0403 19:21:25.903380 19597 layer_factory.hpp:77] Creating layer inception_5a/relu_5x5
I0403 19:21:25.903398 19597 net.cpp:91] Creating Layer inception_5a/relu_5x5
I0403 19:21:25.903414 19597 net.cpp:425] inception_5a/relu_5x5 <- inception_5a/5x5
I0403 19:21:25.903434 19597 net.cpp:386] inception_5a/relu_5x5 -> inception_5a/5x5 (in-place)
I0403 19:21:25.903626 19597 net.cpp:141] Setting up inception_5a/relu_5x5
I0403 19:21:25.903651 19597 net.cpp:148] Top shape: 24 128 7 7 (150528)
I0403 19:21:25.903666 19597 net.cpp:156] Memory required for data: 1300555296
I0403 19:21:25.903681 19597 layer_factory.hpp:77] Creating layer inception_5a/pool
I0403 19:21:25.903702 19597 net.cpp:91] Creating Layer inception_5a/pool
I0403 19:21:25.903720 19597 net.cpp:425] inception_5a/pool <- pool4/3x3_s2_pool4/3x3_s2_0_split_3
I0403 19:21:25.903739 19597 net.cpp:399] inception_5a/pool -> inception_5a/pool
I0403 19:21:25.903811 19597 net.cpp:141] Setting up inception_5a/pool
I0403 19:21:25.903834 19597 net.cpp:148] Top shape: 24 832 7 7 (978432)
I0403 19:21:25.903849 19597 net.cpp:156] Memory required for data: 1304469024
I0403 19:21:25.903864 19597 layer_factory.hpp:77] Creating layer inception_5a/pool_proj
I0403 19:21:25.903887 19597 net.cpp:91] Creating Layer inception_5a/pool_proj
I0403 19:21:25.903905 19597 net.cpp:425] inception_5a/pool_proj <- inception_5a/pool
I0403 19:21:25.903926 19597 net.cpp:399] inception_5a/pool_proj -> inception_5a/pool_proj
I0403 19:21:25.906229 19597 net.cpp:141] Setting up inception_5a/pool_proj
I0403 19:21:25.906258 19597 net.cpp:148] Top shape: 24 128 7 7 (150528)
I0403 19:21:25.906275 19597 net.cpp:156] Memory required for data: 1305071136
I0403 19:21:25.906293 19597 layer_factory.hpp:77] Creating layer inception_5a/relu_pool_proj
I0403 19:21:25.906311 19597 net.cpp:91] Creating Layer inception_5a/relu_pool_proj
I0403 19:21:25.906327 19597 net.cpp:425] inception_5a/relu_pool_proj <- inception_5a/pool_proj
I0403 19:21:25.906347 19597 net.cpp:386] inception_5a/relu_pool_proj -> inception_5a/pool_proj (in-place)
I0403 19:21:25.906640 19597 net.cpp:141] Setting up inception_5a/relu_pool_proj
I0403 19:21:25.906667 19597 net.cpp:148] Top shape: 24 128 7 7 (150528)
I0403 19:21:25.906683 19597 net.cpp:156] Memory required for data: 1305673248
I0403 19:21:25.906699 19597 layer_factory.hpp:77] Creating layer inception_5a/output
I0403 19:21:25.906716 19597 net.cpp:91] Creating Layer inception_5a/output
I0403 19:21:25.906731 19597 net.cpp:425] inception_5a/output <- inception_5a/1x1
I0403 19:21:25.906747 19597 net.cpp:425] inception_5a/output <- inception_5a/3x3
I0403 19:21:25.906762 19597 net.cpp:425] inception_5a/output <- inception_5a/5x5
I0403 19:21:25.906779 19597 net.cpp:425] inception_5a/output <- inception_5a/pool_proj
I0403 19:21:25.906795 19597 net.cpp:399] inception_5a/output -> inception_5a/output
I0403 19:21:25.906844 19597 net.cpp:141] Setting up inception_5a/output
I0403 19:21:25.906867 19597 net.cpp:148] Top shape: 24 832 7 7 (978432)
I0403 19:21:25.906882 19597 net.cpp:156] Memory required for data: 1309586976
I0403 19:21:25.906895 19597 layer_factory.hpp:77] Creating layer inception_5a/output_inception_5a/output_0_split
I0403 19:21:25.906913 19597 net.cpp:91] Creating Layer inception_5a/output_inception_5a/output_0_split
I0403 19:21:25.906929 19597 net.cpp:425] inception_5a/output_inception_5a/output_0_split <- inception_5a/output
I0403 19:21:25.906950 19597 net.cpp:399] inception_5a/output_inception_5a/output_0_split -> inception_5a/output_inception_5a/output_0_split_0
I0403 19:21:25.906972 19597 net.cpp:399] inception_5a/output_inception_5a/output_0_split -> inception_5a/output_inception_5a/output_0_split_1
I0403 19:21:25.906993 19597 net.cpp:399] inception_5a/output_inception_5a/output_0_split -> inception_5a/output_inception_5a/output_0_split_2
I0403 19:21:25.907017 19597 net.cpp:399] inception_5a/output_inception_5a/output_0_split -> inception_5a/output_inception_5a/output_0_split_3
I0403 19:21:25.907129 19597 net.cpp:141] Setting up inception_5a/output_inception_5a/output_0_split
I0403 19:21:25.907151 19597 net.cpp:148] Top shape: 24 832 7 7 (978432)
I0403 19:21:25.907167 19597 net.cpp:148] Top shape: 24 832 7 7 (978432)
I0403 19:21:25.907182 19597 net.cpp:148] Top shape: 24 832 7 7 (978432)
I0403 19:21:25.907197 19597 net.cpp:148] Top shape: 24 832 7 7 (978432)
I0403 19:21:25.907210 19597 net.cpp:156] Memory required for data: 1325241888
I0403 19:21:25.907225 19597 layer_factory.hpp:77] Creating layer inception_5b/1x1
I0403 19:21:25.907246 19597 net.cpp:91] Creating Layer inception_5b/1x1
I0403 19:21:25.907264 19597 net.cpp:425] inception_5b/1x1 <- inception_5a/output_inception_5a/output_0_split_0
I0403 19:21:25.907284 19597 net.cpp:399] inception_5b/1x1 -> inception_5b/1x1
I0403 19:21:25.910969 19597 net.cpp:141] Setting up inception_5b/1x1
I0403 19:21:25.910997 19597 net.cpp:148] Top shape: 24 384 7 7 (451584)
I0403 19:21:25.911015 19597 net.cpp:156] Memory required for data: 1327048224
I0403 19:21:25.911034 19597 layer_factory.hpp:77] Creating layer inception_5b/relu_1x1
I0403 19:21:25.911053 19597 net.cpp:91] Creating Layer inception_5b/relu_1x1
I0403 19:21:25.911069 19597 net.cpp:425] inception_5b/relu_1x1 <- inception_5b/1x1
I0403 19:21:25.911087 19597 net.cpp:386] inception_5b/relu_1x1 -> inception_5b/1x1 (in-place)
I0403 19:21:25.911386 19597 net.cpp:141] Setting up inception_5b/relu_1x1
I0403 19:21:25.911411 19597 net.cpp:148] Top shape: 24 384 7 7 (451584)
I0403 19:21:25.911428 19597 net.cpp:156] Memory required for data: 1328854560
I0403 19:21:25.911443 19597 layer_factory.hpp:77] Creating layer inception_5b/3x3_reduce
I0403 19:21:25.911463 19597 net.cpp:91] Creating Layer inception_5b/3x3_reduce
I0403 19:21:25.911480 19597 net.cpp:425] inception_5b/3x3_reduce <- inception_5a/output_inception_5a/output_0_split_1
I0403 19:21:25.911501 19597 net.cpp:399] inception_5b/3x3_reduce -> inception_5b/3x3_reduce
I0403 19:21:25.914109 19597 net.cpp:141] Setting up inception_5b/3x3_reduce
I0403 19:21:25.914139 19597 net.cpp:148] Top shape: 24 192 7 7 (225792)
I0403 19:21:25.914155 19597 net.cpp:156] Memory required for data: 1329757728
I0403 19:21:25.914173 19597 layer_factory.hpp:77] Creating layer inception_5b/relu_3x3_reduce
I0403 19:21:25.914193 19597 net.cpp:91] Creating Layer inception_5b/relu_3x3_reduce
I0403 19:21:25.914211 19597 net.cpp:425] inception_5b/relu_3x3_reduce <- inception_5b/3x3_reduce
I0403 19:21:25.914227 19597 net.cpp:386] inception_5b/relu_3x3_reduce -> inception_5b/3x3_reduce (in-place)
I0403 19:21:25.914417 19597 net.cpp:141] Setting up inception_5b/relu_3x3_reduce
I0403 19:21:25.914440 19597 net.cpp:148] Top shape: 24 192 7 7 (225792)
I0403 19:21:25.914455 19597 net.cpp:156] Memory required for data: 1330660896
I0403 19:21:25.914469 19597 layer_factory.hpp:77] Creating layer inception_5b/3x3
I0403 19:21:25.914491 19597 net.cpp:91] Creating Layer inception_5b/3x3
I0403 19:21:25.914508 19597 net.cpp:425] inception_5b/3x3 <- inception_5b/3x3_reduce
I0403 19:21:25.914530 19597 net.cpp:399] inception_5b/3x3 -> inception_5b/3x3
I0403 19:21:25.921073 19597 net.cpp:141] Setting up inception_5b/3x3
I0403 19:21:25.921104 19597 net.cpp:148] Top shape: 24 384 7 7 (451584)
I0403 19:21:25.921120 19597 net.cpp:156] Memory required for data: 1332467232
I0403 19:21:25.921139 19597 layer_factory.hpp:77] Creating layer inception_5b/relu_3x3
I0403 19:21:25.921157 19597 net.cpp:91] Creating Layer inception_5b/relu_3x3
I0403 19:21:25.921174 19597 net.cpp:425] inception_5b/relu_3x3 <- inception_5b/3x3
I0403 19:21:25.921192 19597 net.cpp:386] inception_5b/relu_3x3 -> inception_5b/3x3 (in-place)
I0403 19:21:25.921490 19597 net.cpp:141] Setting up inception_5b/relu_3x3
I0403 19:21:25.921519 19597 net.cpp:148] Top shape: 24 384 7 7 (451584)
I0403 19:21:25.921535 19597 net.cpp:156] Memory required for data: 1334273568
I0403 19:21:25.921550 19597 layer_factory.hpp:77] Creating layer inception_5b/5x5_reduce
I0403 19:21:25.921587 19597 net.cpp:91] Creating Layer inception_5b/5x5_reduce
I0403 19:21:25.921605 19597 net.cpp:425] inception_5b/5x5_reduce <- inception_5a/output_inception_5a/output_0_split_2
I0403 19:21:25.921625 19597 net.cpp:399] inception_5b/5x5_reduce -> inception_5b/5x5_reduce
I0403 19:21:25.922881 19597 net.cpp:141] Setting up inception_5b/5x5_reduce
I0403 19:21:25.922910 19597 net.cpp:148] Top shape: 24 48 7 7 (56448)
I0403 19:21:25.922926 19597 net.cpp:156] Memory required for data: 1334499360
I0403 19:21:25.922945 19597 layer_factory.hpp:77] Creating layer inception_5b/relu_5x5_reduce
I0403 19:21:25.922966 19597 net.cpp:91] Creating Layer inception_5b/relu_5x5_reduce
I0403 19:21:25.922983 19597 net.cpp:425] inception_5b/relu_5x5_reduce <- inception_5b/5x5_reduce
I0403 19:21:25.923002 19597 net.cpp:386] inception_5b/relu_5x5_reduce -> inception_5b/5x5_reduce (in-place)
I0403 19:21:25.923369 19597 net.cpp:141] Setting up inception_5b/relu_5x5_reduce
I0403 19:21:25.923395 19597 net.cpp:148] Top shape: 24 48 7 7 (56448)
I0403 19:21:25.923410 19597 net.cpp:156] Memory required for data: 1334725152
I0403 19:21:25.923424 19597 layer_factory.hpp:77] Creating layer inception_5b/5x5
I0403 19:21:25.923444 19597 net.cpp:91] Creating Layer inception_5b/5x5
I0403 19:21:25.923462 19597 net.cpp:425] inception_5b/5x5 <- inception_5b/5x5_reduce
I0403 19:21:25.923481 19597 net.cpp:399] inception_5b/5x5 -> inception_5b/5x5
I0403 19:21:25.925500 19597 net.cpp:141] Setting up inception_5b/5x5
I0403 19:21:25.925529 19597 net.cpp:148] Top shape: 24 128 7 7 (150528)
I0403 19:21:25.925545 19597 net.cpp:156] Memory required for data: 1335327264
I0403 19:21:25.925564 19597 layer_factory.hpp:77] Creating layer inception_5b/relu_5x5
I0403 19:21:25.925582 19597 net.cpp:91] Creating Layer inception_5b/relu_5x5
I0403 19:21:25.925598 19597 net.cpp:425] inception_5b/relu_5x5 <- inception_5b/5x5
I0403 19:21:25.925617 19597 net.cpp:386] inception_5b/relu_5x5 -> inception_5b/5x5 (in-place)
I0403 19:21:25.925825 19597 net.cpp:141] Setting up inception_5b/relu_5x5
I0403 19:21:25.925850 19597 net.cpp:148] Top shape: 24 128 7 7 (150528)
I0403 19:21:25.925865 19597 net.cpp:156] Memory required for data: 1335929376
I0403 19:21:25.925881 19597 layer_factory.hpp:77] Creating layer inception_5b/pool
I0403 19:21:25.925899 19597 net.cpp:91] Creating Layer inception_5b/pool
I0403 19:21:25.925915 19597 net.cpp:425] inception_5b/pool <- inception_5a/output_inception_5a/output_0_split_3
I0403 19:21:25.925951 19597 net.cpp:399] inception_5b/pool -> inception_5b/pool
I0403 19:21:25.926026 19597 net.cpp:141] Setting up inception_5b/pool
I0403 19:21:25.926050 19597 net.cpp:148] Top shape: 24 832 7 7 (978432)
I0403 19:21:25.926064 19597 net.cpp:156] Memory required for data: 1339843104
I0403 19:21:25.926079 19597 layer_factory.hpp:77] Creating layer inception_5b/pool_proj
I0403 19:21:25.926101 19597 net.cpp:91] Creating Layer inception_5b/pool_proj
I0403 19:21:25.926118 19597 net.cpp:425] inception_5b/pool_proj <- inception_5b/pool
I0403 19:21:25.926139 19597 net.cpp:399] inception_5b/pool_proj -> inception_5b/pool_proj
I0403 19:21:25.928432 19597 net.cpp:141] Setting up inception_5b/pool_proj
I0403 19:21:25.928477 19597 net.cpp:148] Top shape: 24 128 7 7 (150528)
I0403 19:21:25.928493 19597 net.cpp:156] Memory required for data: 1340445216
I0403 19:21:25.928510 19597 layer_factory.hpp:77] Creating layer inception_5b/relu_pool_proj
I0403 19:21:25.928540 19597 net.cpp:91] Creating Layer inception_5b/relu_pool_proj
I0403 19:21:25.928557 19597 net.cpp:425] inception_5b/relu_pool_proj <- inception_5b/pool_proj
I0403 19:21:25.928575 19597 net.cpp:386] inception_5b/relu_pool_proj -> inception_5b/pool_proj (in-place)
I0403 19:21:25.928876 19597 net.cpp:141] Setting up inception_5b/relu_pool_proj
I0403 19:21:25.928905 19597 net.cpp:148] Top shape: 24 128 7 7 (150528)
I0403 19:21:25.928921 19597 net.cpp:156] Memory required for data: 1341047328
I0403 19:21:25.928937 19597 layer_factory.hpp:77] Creating layer inception_5b/output
I0403 19:21:25.928959 19597 net.cpp:91] Creating Layer inception_5b/output
I0403 19:21:25.928990 19597 net.cpp:425] inception_5b/output <- inception_5b/1x1
I0403 19:21:25.929008 19597 net.cpp:425] inception_5b/output <- inception_5b/3x3
I0403 19:21:25.929024 19597 net.cpp:425] inception_5b/output <- inception_5b/5x5
I0403 19:21:25.929041 19597 net.cpp:425] inception_5b/output <- inception_5b/pool_proj
I0403 19:21:25.929059 19597 net.cpp:399] inception_5b/output -> inception_5b/output
I0403 19:21:25.929123 19597 net.cpp:141] Setting up inception_5b/output
I0403 19:21:25.929147 19597 net.cpp:148] Top shape: 24 1024 7 7 (1204224)
I0403 19:21:25.929160 19597 net.cpp:156] Memory required for data: 1345864224
I0403 19:21:25.929175 19597 layer_factory.hpp:77] Creating layer pool5/7x7_s1
I0403 19:21:25.929194 19597 net.cpp:91] Creating Layer pool5/7x7_s1
I0403 19:21:25.929211 19597 net.cpp:425] pool5/7x7_s1 <- inception_5b/output
I0403 19:21:25.929229 19597 net.cpp:399] pool5/7x7_s1 -> pool5/7x7_s1
I0403 19:21:25.929440 19597 net.cpp:141] Setting up pool5/7x7_s1
I0403 19:21:25.929464 19597 net.cpp:148] Top shape: 24 1024 1 1 (24576)
I0403 19:21:25.929479 19597 net.cpp:156] Memory required for data: 1345962528
I0403 19:21:25.929494 19597 layer_factory.hpp:77] Creating layer pool5/drop_7x7_s1
I0403 19:21:25.929512 19597 net.cpp:91] Creating Layer pool5/drop_7x7_s1
I0403 19:21:25.929528 19597 net.cpp:425] pool5/drop_7x7_s1 <- pool5/7x7_s1
I0403 19:21:25.929548 19597 net.cpp:386] pool5/drop_7x7_s1 -> pool5/7x7_s1 (in-place)
I0403 19:21:25.929596 19597 net.cpp:141] Setting up pool5/drop_7x7_s1
I0403 19:21:25.929618 19597 net.cpp:148] Top shape: 24 1024 1 1 (24576)
I0403 19:21:25.929636 19597 net.cpp:156] Memory required for data: 1346060832
I0403 19:21:25.929651 19597 layer_factory.hpp:77] Creating layer loss3/classifier_plantvillage
I0403 19:21:25.929669 19597 net.cpp:91] Creating Layer loss3/classifier_plantvillage
I0403 19:21:25.929687 19597 net.cpp:425] loss3/classifier_plantvillage <- pool5/7x7_s1
I0403 19:21:25.929707 19597 net.cpp:399] loss3/classifier_plantvillage -> loss3/classifier_plantvillage
I0403 19:21:25.930130 19597 net.cpp:141] Setting up loss3/classifier_plantvillage
I0403 19:21:25.930155 19597 net.cpp:148] Top shape: 24 38 (912)
I0403 19:21:25.930168 19597 net.cpp:156] Memory required for data: 1346064480
I0403 19:21:25.930186 19597 layer_factory.hpp:77] Creating layer loss3/classifier_plantvillage_loss3/classifier_plantvillage_0_split
I0403 19:21:25.930208 19597 net.cpp:91] Creating Layer loss3/classifier_plantvillage_loss3/classifier_plantvillage_0_split
I0403 19:21:25.930225 19597 net.cpp:425] loss3/classifier_plantvillage_loss3/classifier_plantvillage_0_split <- loss3/classifier_plantvillage
I0403 19:21:25.930243 19597 net.cpp:399] loss3/classifier_plantvillage_loss3/classifier_plantvillage_0_split -> loss3/classifier_plantvillage_loss3/classifier_plantvillage_0_split_0
I0403 19:21:25.930261 19597 net.cpp:399] loss3/classifier_plantvillage_loss3/classifier_plantvillage_0_split -> loss3/classifier_plantvillage_loss3/classifier_plantvillage_0_split_1
I0403 19:21:25.930281 19597 net.cpp:399] loss3/classifier_plantvillage_loss3/classifier_plantvillage_0_split -> loss3/classifier_plantvillage_loss3/classifier_plantvillage_0_split_2
I0403 19:21:25.930305 19597 net.cpp:399] loss3/classifier_plantvillage_loss3/classifier_plantvillage_0_split -> loss3/classifier_plantvillage_loss3/classifier_plantvillage_0_split_3
I0403 19:21:25.930405 19597 net.cpp:141] Setting up loss3/classifier_plantvillage_loss3/classifier_plantvillage_0_split
I0403 19:21:25.930428 19597 net.cpp:148] Top shape: 24 38 (912)
I0403 19:21:25.930444 19597 net.cpp:148] Top shape: 24 38 (912)
I0403 19:21:25.930459 19597 net.cpp:148] Top shape: 24 38 (912)
I0403 19:21:25.930474 19597 net.cpp:148] Top shape: 24 38 (912)
I0403 19:21:25.930488 19597 net.cpp:156] Memory required for data: 1346079072
I0403 19:21:25.930502 19597 layer_factory.hpp:77] Creating layer loss1/loss
I0403 19:21:25.930523 19597 net.cpp:91] Creating Layer loss1/loss
I0403 19:21:25.930541 19597 net.cpp:425] loss1/loss <- loss1/classifier_plantvillage_loss1/classifier_plantvillage_0_split_0
I0403 19:21:25.930570 19597 net.cpp:425] loss1/loss <- label_data_1_split_0
…
