…
I0403 19:05:58.305284 18725 net.cpp:313] The NetState phase (1) differed from the phase (0) specified by a rule in layer data
I0403 19:05:58.306421 18725 net.cpp:49] Initializing net from parameters: 
state {
  phase: TEST
}
layer {
  name: "data"
  type: "Data"
  top: "data"
  top: "label"
  include {
    phase: TEST
  }
  transform_param {
    mirror: false
    crop_size: 224
    mean_file: "/home/mohanty/data/final_dataset/lmdb/segmented-60-40/mean.binaryproto"
  }
  data_param {
    source: "/home/mohanty/data/final_dataset/lmdb/segmented-60-40/test_db"
    batch_size: 24
    backend: LMDB
  }
}
layer {
  name: "conv1/7x7_s2"
  type: "Convolution"
  bottom: "data"
  top: "conv1/7x7_s2"
  param {
    lr_mult: 1
    decay_mult: 1
  }
  param {
    lr_mult: 2
    decay_mult: 0
  }
  convolution_param {
    num_output: 64
    pad: 3
    kernel_size: 7
    stride: 2
    weight_filler {
      type: "xavier"
      std: 0.1
    }
    bias_filler {
      type: "constant"
      value: 0.2
    }
  }
}
layer {
  name: "conv1/relu_7x7"
  type: "ReLU"
  bottom: "conv1/7x7_s2"
  top: "conv1/7x7_s2"
}
layer {
  name: "pool1/3x3_s2"
  type: "Pooling"
  bottom: "conv1/7x7_s2"
  top: "pool1/3x3_s2"
  pooling_param {
    pool: MAX
    kernel_size: 3
    stride: 2
  }
}
layer {
  name: "pool1/norm1"
  type: "LRN"
  bottom: "pool1/3x3_s2"
  top: "pool1/norm1"
  lrn_param {
    local_size: 5
    alpha: 0.0001
    beta: 0.75
  }
}
layer {
  name: "conv2/3x3_reduce"
  type: "Convolution"
  bottom: "pool1/norm1"
  top: "conv2/3x3_reduce"
  param {
    lr_mult: 1
    decay_mult: 1
  }
  param {
    lr_mult: 2
    decay_mult: 0
  }
  convolution_param {
    num_output: 64
    kernel_size: 1
    weight_filler {
      type: "xavier"
      std: 0.1
    }
    bias_filler {
      type: "constant"
      value: 0.2
    }
  }
}
layer {
  name: "conv2/relu_3x3_reduce"
  type: "ReLU"
  bottom: "conv2/3x3_reduce"
  top: "conv2/3x3_reduce"
}
layer {
  name: "conv2/3x3"
  type: "Convolution"
  bottom: "conv2/3x3_reduce"
  top: "conv2/3x3"
  param {
    lr_mult: 1
    decay_mult: 1
  }
  param {
    lr_mult: 2
    decay_mult: 0
  }
  convolution_param {
    num_output: 192
    pad: 1
    kernel_size: 3
    weight_filler {
      type: "xavier"
      std: 0.03
    }
    bias_filler {
      type: "constant"
      value: 0.2
    }
  }
}
layer {
  name: "conv2/relu_3x3"
  type: "ReLU"
  bottom: "conv2/3x3"
  top: "conv2/3x3"
}
layer {
  name: "conv2/norm2"
  type: "LRN"
  bottom: "conv2/3x3"
  top: "conv2/norm2"
  lrn_param {
    local_size: 5
    alpha: 0.0001
    beta: 0.75
  }
}
layer {
  name: "pool2/3x3_s2"
  type: "Pooling"
  bottom: "conv2/norm2"
  top: "pool2/3x3_s2"
  pooling_param {
    pool: MAX
    kernel_size: 3
    stride: 2
  }
}
layer {
  name: "inception_3a/1x1"
  type: "Convolution"
  bottom: "pool2/3x3_s2"
  top: "inception_3a/1x1"
  param {
    lr_mult: 1
    decay_mult: 1
  }
  param {
    lr_mult: 2
    decay_mult: 0
  }
  convolution_param {
    num_output: 64
    kernel_size: 1
    weight_filler {
      type: "xavier"
      std: 0.03
    }
    bias_filler {
      type: "constant"
      value: 0.2
    }
  }
}
layer {
  name: "inception_3a/relu_1x1"
  type: "ReLU"
  bottom: "inception_3a/1x1"
  top: "inception_3a/1x1"
}
layer {
  name: "inception_3a/3x3_reduce"
  type: "Convolution"
  bottom: "pool2/3x3_s2"
  top: "inception_3a/3x3_reduce"
  param {
    lr_mult: 1
    decay_mult: 1
  }
  param {
    lr_mult: 2
    decay_mult: 0
  }
  convolution_param {
    num_output: 96
    kernel_size: 1
    weight_filler {
      type: "xavier"
      std: 0.09
    }
    bias_filler {
      type: "constant"
      value: 0.2
    }
  }
}
layer {
  name: "inception_3a/relu_3x3_reduce"
  type: "ReLU"
  bottom: "inception_3a/3x3_reduce"
  top: "inception_3a/3x3_reduce"
}
layer {
  name: "inception_3a/3x3"
  type: "Convolution"
  bottom: "inception_3a/3x3_reduce"
  top: "inception_3a/3x3"
  param {
    lr_mult: 1
    decay_mult: 1
  }
  param {
    lr_mult: 2
    decay_mult: 0
  }
  convolution_param {
    num_output: 128
    pad: 1
    kernel_size: 3
    weight_filler {
      type: "xavier"
      std: 0.03
    }
    bias_filler {
      type: "constant"
      value: 0.2
    }
  }
}
layer {
  name: "inception_3a/relu_3x3"
  type: "ReLU"
  bottom: "inception_3a/3x3"
  top: "inception_3a/3x3"
}
layer {
  name: "inception_3a/5x5_reduce"
  type: "Convolution"
  bottom: "pool2/3x3_s2"
  top: "inception_3a/5x5_reduce"
  param {
    lr_mult: 1
    decay_mult: 1
  }
  param {
    lr_mult: 2
    decay_mult: 0
  }
  convolution_param {
    num_output: 16
    kernel_size: 1
    weight_filler {
      type: "xavier"
      std: 0.2
    }
    bias_filler {
      type: "constant"
      value: 0.2
    }
  }
}
layer {
  name: "inception_3a/relu_5x5_reduce"
  type: "ReLU"
  bottom: "inception_3a/5x5_reduce"
  top: "inception_3a/5x5_reduce"
}
layer {
  name: "inception_3a/5x5"
  type: "Convolution"
  bottom: "inception_3a/5x5_reduce"
  top: "inception_3a/5x5"
  param {
    lr_mult: 1
    decay_mult: 1
  }
  param {
    lr_mult: 2
    decay_mult: 0
  }
  convolution_param {
    num_output: 32
    pad: 2
    kernel_size: 5
    weight_filler {
      type: "xavier"
      std: 0.03
    }
    bias_filler {
      type: "constant"
      value: 0.2
    }
  }
}
layer {
  name: "inception_3a/relu_5x5"
  type: "ReLU"
  bottom: "inception_3a/5x5"
  top: "inception_3a/5x5"
}
layer {
  name: "inception_3a/pool"
  type: "Pooling"
  bottom: "pool2/3x3_s2"
  top: "inception_3a/pool"
  pooling_param {
    pool: MAX
    kernel_size: 3
    stride: 1
    pad: 1
  }
}
layer {
  name: "inception_3a/pool_proj"
  type: "Convolution"
  bottom: "inception_3a/pool"
  top: "inception_3a/pool_proj"
  param {
    lr_mult: 1
    decay_mult: 1
  }
  param {
    lr_mult: 2
    decay_mult: 0
  }
  convolution_param {
    num_output: 32
    kernel_size: 1
    weight_filler {
      type: "xavier"
      std: 0.1
    }
    bias_filler {
      type: "constant"
      value: 0.2
    }
  }
}
layer {
  name: "inception_3a/relu_pool_proj"
  type: "ReLU"
  bottom: "inception_3a/pool_proj"
  top: "inception_3a/pool_proj"
}
layer {
  name: "inception_3a/output"
  type: "Concat"
  bottom: "inception_3a/1x1"
  bottom: "inception_3a/3x3"
  bottom: "inception_3a/5x5"
  bottom: "inception_3a/pool_proj"
  top: "inception_3a/output"
}
layer {
  name: "inception_3b/1x1"
  type: "Convolution"
  bottom: "inception_3a/output"
  top: "inception_3b/1x1"
  param {
    lr_mult: 1
    decay_mult: 1
  }
  param {
    lr_mult: 2
    decay_mult: 0
  }
  convolution_param {
    num_output: 128
    kernel_size: 1
    weight_filler {
      type: "xavier"
      std: 0.03
    }
    bias_filler {
      type: "constant"
      value: 0.2
    }
  }
}
layer {
  name: "inception_3b/relu_1x1"
  type: "ReLU"
  bottom: "inception_3b/1x1"
  top: "inception_3b/1x1"
}
layer {
  name: "inception_3b/3x3_reduce"
  type: "Convolution"
  bottom: "inception_3a/output"
  top: "inception_3b/3x3_reduce"
  param {
    lr_mult: 1
    decay_mult: 1
  }
  param {
    lr_mult: 2
    decay_mult: 0
  }
  convolution_param {
    num_output: 128
    kernel_size: 1
    weight_filler {
      type: "xavier"
      std: 0.09
    }
    bias_filler {
      type: "constant"
      value: 0.2
    }
  }
}
layer {
  name: "inception_3b/relu_3x3_reduce"
  type: "ReLU"
  bottom: "inception_3b/3x3_reduce"
  top: "inception_3b/3x3_reduce"
}
layer {
  name: "inception_3b/3x3"
  type: "Convolution"
  bottom: "inception_3b/3x3_reduce"
  top: "inception_3b/3x3"
  param {
    lr_mult: 1
    decay_mult: 1
  }
  param {
    lr_mult: 2
    decay_mult: 0
  }
  convolution_param {
    num_output: 192
    pad: 1
    kernel_size: 3
    weight_filler {
      type: "xavier"
      std: 0.03
    }
    bias_filler {
      type: "constant"
      value: 0.2
    }
  }
}
layer {
  name: "inception_3b/relu_3x3"
  type: "ReLU"
  bottom: "inception_3b/3x3"
  top: "inception_3b/3x3"
}
layer {
  name: "inception_3b/5x5_reduce"
  type: "Convolution"
  bottom: "inception_3a/output"
  top: "inception_3b/5x5_reduce"
  param {
    lr_mult: 1
    decay_mult: 1
  }
  param {
    lr_mult: 2
    decay_mult: 0
  }
  convolution_param {
    num_output: 32
    kernel_size: 1
    weight_filler {
      type: "xavier"
      std: 0.2
    }
    bias_filler {
      type: "constant"
      value: 0.2
    }
  }
}
layer {
  name: "inception_3b/relu_5x5_reduce"
  type: "ReLU"
  bottom: "inception_3b/5x5_reduce"
  top: "inception_3b/5x5_reduce"
}
layer {
  name: "inception_3b/5x5"
  type: "Convolution"
  bottom: "inception_3b/5x5_reduce"
  top: "inception_3b/5x5"
  param {
    lr_mult: 1
    decay_mult: 1
  }
  param {
    lr_mult: 2
    decay_mult: 0
  }
  convolution_param {
    num_output: 96
    pad: 2
    kernel_size: 5
    weight_filler {
      type: "xavier"
      std: 0.03
    }
    bias_filler {
      type: "constant"
      value: 0.2
    }
  }
}
layer {
  name: "inception_3b/relu_5x5"
  type: "ReLU"
  bottom: "inception_3b/5x5"
  top: "inception_3b/5x5"
}
layer {
  name: "inception_3b/pool"
  type: "Pooling"
  bottom: "inception_3a/output"
  top: "inception_3b/pool"
  pooling_param {
    pool: MAX
    kernel_size: 3
    stride: 1
    pad: 1
  }
}
layer {
  name: "inception_3b/pool_proj"
  type: "Convolution"
  bottom: "inception_3b/pool"
  top: "inception_3b/pool_proj"
  param {
    lr_mult: 1
    decay_mult: 1
  }
  param {
    lr_mult: 2
    decay_mult: 0
  }
  convolution_param {
    num_output: 64
    kernel_size: 1
    weight_filler {
      type: "xavier"
      std: 0.1
    }
    bias_filler {
      type: "constant"
      value: 0.2
    }
  }
}
layer {
  name: "inception_3b/relu_pool_proj"
  type: "ReLU"
  bottom: "inception_3b/pool_proj"
  top: "inception_3b/pool_proj"
}
layer {
  name: "inception_3b/output"
  type: "Concat"
  bottom: "inception_3b/1x1"
  bottom: "inception_3b/3x3"
  bottom: "inception_3b/5x5"
  bottom: "inception_3b/pool_proj"
  top: "inception_3b/output"
}
layer {
  name: "pool3/3x3_s2"
  type: "Pooling"
  bottom: "inception_3b/output"
  top: "pool3/3x3_s2"
  pooling_param {
    pool: MAX
    kernel_size: 3
    stride: 2
  }
}
layer {
  name: "inception_4a/1x1"
  type: "Convolution"
  bottom: "pool3/3x3_s2"
  top: "inception_4a/1x1"
  param {
    lr_mult: 1
    decay_mult: 1
  }
  param {
    lr_mult: 2
    decay_mult: 0
  }
  convolution_param {
    num_output: 192
    kernel_size: 1
    weight_filler {
      type: "xavier"
      std: 0.03
    }
    bias_filler {
      type: "constant"
      value: 0.2
    }
  }
}
layer {
  name: "inception_4a/relu_1x1"
  type: "ReLU"
  bottom: "inception_4a/1x1"
  top: "inception_4a/1x1"
}
layer {
  name: "inception_4a/3x3_reduce"
  type: "Convolution"
  bottom: "pool3/3x3_s2"
  top: "inception_4a/3x3_reduce"
  param {
    lr_mult: 1
    decay_mult: 1
  }
  param {
    lr_mult: 2
    decay_mult: 0
  }
  convolution_param {
    num_output: 96
    kernel_size: 1
    weight_filler {
      type: "xavier"
      std: 0.09
    }
    bias_filler {
      type: "constant"
      value: 0.2
    }
  }
}
layer {
  name: "inception_4a/relu_3x3_reduce"
  type: "ReLU"
  bottom: "inception_4a/3x3_reduce"
  top: "inception_4a/3x3_reduce"
}
layer {
  name: "inception_4a/3x3"
  type: "Convolution"
  bottom: "inception_4a/3x3_reduce"
  top: "inception_4a/3x3"
  param {
    lr_mult: 1
    decay_mult: 1
  }
  param {
    lr_mult: 2
    decay_mult: 0
  }
  convolution_param {
    num_output: 208
    pad: 1
    kernel_size: 3
    weight_filler {
      type: "xavier"
      std: 0.03
    }
    bias_filler {
      type: "constant"
      value: 0.2
    }
  }
}
layer {
  name: "inception_4a/relu_3x3"
  type: "ReLU"
  bottom: "inception_4a/3x3"
  top: "inception_4a/3x3"
}
layer {
  name: "inception_4a/5x5_reduce"
  type: "Convolution"
  bottom: "pool3/3x3_s2"
  top: "inception_4a/5x5_reduce"
  param {
    lr_mult: 1
    decay_mult: 1
  }
  param {
    lr_mult: 2
    decay_mult: 0
  }
  convolution_param {
    num_output: 16
    kernel_size: 1
    weight_filler {
      type: "xavier"
      std: 0.2
    }
    bias_filler {
      type: "constant"
      value: 0.2
    }
  }
}
layer {
  name: "inception_4a/relu_5x5_reduce"
  type: "ReLU"
  bottom: "inception_4a/5x5_reduce"
  top: "inception_4a/5x5_reduce"
}
layer {
  name: "inception_4a/5x5"
  type: "Convolution"
  bottom: "inception_4a/5x5_reduce"
  top: "inception_4a/5x5"
  param {
    lr_mult: 1
    decay_mult: 1
  }
  param {
    lr_mult: 2
    decay_mult: 0
  }
  convolution_param {
    num_output: 48
    pad: 2
    kernel_size: 5
    weight_filler {
      type: "xavier"
      std: 0.03
    }
    bias_filler {
      type: "constant"
      value: 0.2
    }
  }
}
layer {
  name: "inception_4a/relu_5x5"
  type: "ReLU"
  bottom: "inception_4a/5x5"
  top: "inception_4a/5x5"
}
layer {
  name: "inception_4a/pool"
  type: "Pooling"
  bottom: "pool3/3x3_s2"
  top: "inception_4a/pool"
  pooling_param {
    pool: MAX
    kernel_size: 3
    stride: 1
    pad: 1
  }
}
layer {
  name: "inception_4a/pool_proj"
  type: "Convolution"
  bottom: "inception_4a/pool"
  top: "inception_4a/pool_proj"
  param {
    lr_mult: 1
    decay_mult: 1
  }
  param {
    lr_mult: 2
    decay_mult: 0
  }
  convolution_param {
    num_output: 64
    kernel_size: 1
    weight_filler {
      type: "xavier"
      std: 0.1
    }
    bias_filler {
      type: "constant"
      value: 0.2
    }
  }
}
layer {
  name: "inception_4a/relu_pool_proj"
  type: "ReLU"
  bottom: "inception_4a/pool_proj"
  top: "inception_4a/pool_proj"
}
layer {
  name: "inception_4a/output"
  type: "Concat"
  bottom: "inception_4a/1x1"
  bottom: "inception_4a/3x3"
  bottom: "inception_4a/5x5"
  bottom: "inception_4a/pool_proj"
  top: "inception_4a/output"
}
layer {
  name: "loss1/ave_pool"
  type: "Pooling"
  bottom: "inception_4a/output"
  top: "loss1/ave_pool"
  pooling_param {
    pool: AVE
    kernel_size: 5
    stride: 3
  }
}
layer {
  name: "loss1/conv"
  type: "Convolution"
  bottom: "loss1/ave_pool"
  top: "loss1/conv"
  param {
    lr_mult: 1
    decay_mult: 1
  }
  param {
    lr_mult: 2
    decay_mult: 0
  }
  convolution_param {
    num_output: 128
    kernel_size: 1
    weight_filler {
      type: "xavier"
      std: 0.08
    }
    bias_filler {
      type: "constant"
      value: 0.2
    }
  }
}
layer {
  name: "loss1/relu_conv"
  type: "ReLU"
  bottom: "loss1/conv"
  top: "loss1/conv"
}
layer {
  name: "loss1/fc"
  type: "InnerProduct"
  bottom: "loss1/conv"
  top: "loss1/fc"
  param {
    lr_mult: 1
    decay_mult: 1
  }
  param {
    lr_mult: 2
    decay_mult: 0
  }
  inner_product_param {
    num_output: 1024
    weight_filler {
      type: "xavier"
      std: 0.02
    }
    bias_filler {
      type: "constant"
      value: 0.2
    }
  }
}
layer {
  name: "loss1/relu_fc"
  type: "ReLU"
  bottom: "loss1/fc"
  top: "loss1/fc"
}
layer {
  name: "loss1/drop_fc"
  type: "Dropout"
  bottom: "loss1/fc"
  top: "loss1/fc"
  dropout_param {
    dropout_ratio: 0.7
  }
}
layer {
  name: "loss1/classifier_plantvillage"
  type: "InnerProduct"
  bottom: "loss1/fc"
  top: "loss1/classifier_plantvillage"
  param {
    lr_mult: 1
    decay_mult: 1
  }
  param {
    lr_mult: 2
    decay_mult: 0
  }
  inner_product_param {
    num_output: 38
    weight_filler {
      type: "xavier"
      std: 0.0009765625
    }
    bias_filler {
      type: "constant"
      value: 0
    }
  }
}
layer {
  name: "inception_4b/1x1"
  type: "Convolution"
  bottom: "inception_4a/output"
  top: "inception_4b/1x1"
  param {
    lr_mult: 1
    decay_mult: 1
  }
  param {
    lr_mult: 2
    decay_mult: 0
  }
  convolution_param {
    num_output: 160
    kernel_size: 1
    weight_filler {
      type: "xavier"
      std: 0.03
    }
    bias_filler {
      type: "constant"
      value: 0.2
    }
  }
}
layer {
  name: "inception_4b/relu_1x1"
  type: "ReLU"
  bottom: "inception_4b/1x1"
  top: "inception_4b/1x1"
}
layer {
  name: "inception_4b/3x3_reduce"
  type: "Convolution"
  bottom: "inception_4a/output"
  top: "inception_4b/3x3_reduce"
  param {
    lr_mult: 1
    decay_mult: 1
  }
  param {
    lr_mult: 2
    decay_mult: 0
  }
  convolution_param {
    num_output: 112
    kernel_size: 1
    weight_filler {
      type: "xavier"
      std: 0.09
    }
    bias_filler {
      type: "constant"
      value: 0.2
    }
  }
}
layer {
  name: "inception_4b/relu_3x3_reduce"
  type: "ReLU"
  bottom: "inception_4b/3x3_reduce"
  top: "inception_4b/3x3_reduce"
}
layer {
  name: "inception_4b/3x3"
  type: "Convolution"
  bottom: "inception_4b/3x3_reduce"
  top: "inception_4b/3x3"
  param {
    lr_mult: 1
    decay_mult: 1
  }
  param {
    lr_mult: 2
    decay_mult: 0
  }
  convolution_param {
    num_output: 224
    pad: 1
    kernel_size: 3
    weight_filler {
      type: "xavier"
      std: 0.03
    }
    bias_filler {
      type: "constant"
      value: 0.2
    }
  }
}
layer {
  name: "inception_4b/relu_3x3"
  type: "ReLU"
  bottom: "inception_4b/3x3"
  top: "inception_4b/3x3"
}
layer {
  name: "inception_4b/5x5_reduce"
  type: "Convolution"
  bottom: "inception_4a/output"
  top: "inception_4b/5x5_reduce"
  param {
    lr_mult: 1
    decay_mult: 1
  }
  param {
    lr_mult: 2
    decay_mult: 0
  }
  convolution_param {
    num_output: 24
    kernel_size: 1
    weight_filler {
      type: "xavier"
      std: 0.2
    }
    bias_filler {
      type: "constant"
      value: 0.2
    }
  }
}
layer {
  name: "inception_4b/relu_5x5_reduce"
  type: "ReLU"
  bottom: "inception_4b/5x5_reduce"
  top: "inception_4b/5x5_reduce"
}
layer {
  name: "inception_4b/5x5"
  type: "Convolution"
  bottom: "inception_4b/5x5_reduce"
  top: "inception_4b/5x5"
  param {
    lr_mult: 1
    decay_mult: 1
  }
  param {
    lr_mult: 2
    decay_mult: 0
  }
  convolution_param {
    num_output: 64
    pad: 2
    kernel_size: 5
    weight_filler {
      type: "xavier"
      std: 0.03
    }
    bias_filler {
      type: "constant"
      value: 0.2
    }
  }
}
layer {
  name: "inception_4b/relu_5x5"
  type: "ReLU"
  bottom: "inception_4b/5x5"
  top: "inception_4b/5x5"
}
layer {
  name: "inception_4b/pool"
  type: "Pooling"
  bottom: "inception_4a/output"
  top: "inception_4b/pool"
  pooling_param {
    pool: MAX
    kernel_size: 3
    stride: 1
    pad: 1
  }
}
layer {
  name: "inception_4b/pool_proj"
  type: "Convolution"
  bottom: "inception_4b/pool"
  top: "inception_4b/pool_proj"
  param {
    lr_mult: 1
    decay_mult: 1
  }
  param {
    lr_mult: 2
    decay_mult: 0
  }
  convolution_param {
    num_output: 64
    kernel_size: 1
    weight_filler {
      type: "xavier"
      std: 0.1
    }
    bias_filler {
      type: "constant"
      value: 0.2
    }
  }
}
layer {
  name: "inception_4b/relu_pool_proj"
  type: "ReLU"
  bottom: "inception_4b/pool_proj"
  top: "inception_4b/pool_proj"
}
layer {
  name: "inception_4b/output"
  type: "Concat"
  bottom: "inception_4b/1x1"
  bottom: "inception_4b/3x3"
  bottom: "inception_4b/5x5"
  bottom: "inception_4b/pool_proj"
  top: "inception_4b/output"
}
layer {
  name: "inception_4c/1x1"
  type: "Convolution"
  bottom: "inception_4b/output"
  top: "inception_4c/1x1"
  param {
    lr_mult: 1
    decay_mult: 1
  }
  param {
    lr_mult: 2
    decay_mult: 0
  }
  convolution_param {
    num_output: 128
    kernel_size: 1
    weight_filler {
      type: "xavier"
      std: 0.03
    }
    bias_filler {
      type: "constant"
      value: 0.2
    }
  }
}
layer {
  name: "inception_4c/relu_1x1"
  type: "ReLU"
  bottom: "inception_4c/1x1"
  top: "inception_4c/1x1"
}
layer {
  name: "inception_4c/3x3_reduce"
  type: "Convolution"
  bottom: "inception_4b/output"
  top: "inception_4c/3x3_reduce"
  param {
    lr_mult: 1
    decay_mult: 1
  }
  param {
    lr_mult: 2
    decay_mult: 0
  }
  convolution_param {
    num_output: 128
    kernel_size: 1
    weight_filler {
      type: "xavier"
      std: 0.09
    }
    bias_filler {
      type: "constant"
      value: 0.2
    }
  }
}
layer {
  name: "inception_4c/relu_3x3_reduce"
  type: "ReLU"
  bottom: "inception_4c/3x3_reduce"
  top: "inception_4c/3x3_reduce"
}
layer {
  name: "inception_4c/3x3"
  type: "Convolution"
  bottom: "inception_4c/3x3_reduce"
  top: "inception_4c/3x3"
  param {
    lr_mult: 1
    decay_mult: 1
  }
  param {
    lr_mult: 2
    decay_mult: 0
  }
  convolution_param {
    num_output: 256
    pad: 1
    kernel_size: 3
    weight_filler {
      type: "xavier"
      std: 0.03
    }
    bias_filler {
      type: "constant"
      value: 0.2
    }
  }
}
layer {
  name: "inception_4c/relu_3x3"
  type: "ReLU"
  bottom: "inception_4c/3x3"
  top: "inception_4c/3x3"
}
layer {
  name: "inception_4c/5x5_reduce"
  type: "Convolution"
  bottom: "inception_4b/output"
  top: "inception_4c/5x5_reduce"
  param {
    lr_mult: 1
    decay_mult: 1
  }
  param {
    lr_mult: 2
    decay_mult: 0
  }
  convolution_param {
    num_output: 24
    kernel_size: 1
    weight_filler {
      type: "xavier"
      std: 0.2
    }
    bias_filler {
      type: "constant"
      value: 0.2
    }
  }
}
layer {
  name: "inception_4c/relu_5x5_reduce"
  type: "ReLU"
  bottom: "inception_4c/5x5_reduce"
  top: "inception_4c/5x5_reduce"
}
layer {
  name: "inception_4c/5x5"
  type: "Convolution"
  bottom: "inception_4c/5x5_reduce"
  top: "inception_4c/5x5"
  param {
    lr_mult: 1
    decay_mult: 1
  }
  param {
    lr_mult: 2
    decay_mult: 0
  }
  convolution_param {
    num_output: 64
    pad: 2
    kernel_size: 5
    weight_filler {
      type: "xavier"
      std: 0.03
    }
    bias_filler {
      type: "constant"
      value: 0.2
    }
  }
}
layer {
  name: "inception_4c/relu_5x5"
  type: "ReLU"
  bottom: "inception_4c/5x5"
  top: "inception_4c/5x5"
}
layer {
  name: "inception_4c/pool"
  type: "Pooling"
  bottom: "inception_4b/output"
  top: "inception_4c/pool"
  pooling_param {
    pool: MAX
    kernel_size: 3
    stride: 1
    pad: 1
  }
}
layer {
  name: "inception_4c/pool_proj"
  type: "Convolution"
  bottom: "inception_4c/pool"
  top: "inception_4c/pool_proj"
  param {
    lr_mult: 1
    decay_mult: 1
  }
  param {
    lr_mult: 2
    decay_mult: 0
  }
  convolution_param {
    num_output: 64
    kernel_size: 1
    weight_filler {
      type: "xavier"
      std: 0.1
    }
    bias_filler {
      type: "constant"
      value: 0.2
    }
  }
}
layer {
  name: "inception_4c/relu_pool_proj"
  type: "ReLU"
  bottom: "inception_4c/pool_proj"
  top: "inception_4c/pool_proj"
}
layer {
  name: "inception_4c/output"
  type: "Concat"
  bottom: "inception_4c/1x1"
  bottom: "inception_4c/3x3"
  bottom: "inception_4c/5x5"
  bottom: "inception_4c/pool_proj"
  top: "inception_4c/output"
}
layer {
  name: "inception_4d/1x1"
  type: "Convolution"
  bottom: "inception_4c/output"
  top: "inception_4d/1x1"
  param {
    lr_mult: 1
    decay_mult: 1
  }
  param {
    lr_mult: 2
    decay_mult: 0
  }
  convolution_param {
    num_output: 112
    kernel_size: 1
    weight_filler {
      type: "xavier"
      std: 0.03
    }
    bias_filler {
      type: "constant"
      value: 0.2
    }
  }
}
layer {
  name: "inception_4d/relu_1x1"
  type: "ReLU"
  bottom: "inception_4d/1x1"
  top: "inception_4d/1x1"
}
layer {
  name: "inception_4d/3x3_reduce"
  type: "Convolution"
  bottom: "inception_4c/output"
  top: "inception_4d/3x3_reduce"
  param {
    lr_mult: 1
    decay_mult: 1
  }
  param {
    lr_mult: 2
    decay_mult: 0
  }
  convolution_param {
    num_output: 144
    kernel_size: 1
    weight_filler {
      type: "xavier"
      std: 0.09
    }
    bias_filler {
      type: "constant"
      value: 0.2
    }
  }
}
layer {
  name: "inception_4d/relu_3x3_reduce"
  type: "ReLU"
  bottom: "inception_4d/3x3_reduce"
  top: "inception_4d/3x3_reduce"
}
layer {
  name: "inception_4d/3x3"
  type: "Convolution"
  bottom: "inception_4d/3x3_reduce"
  top: "inception_4d/3x3"
  param {
    lr_mult: 1
    decay_mult: 1
  }
  param {
    lr_mult: 2
    decay_mult: 0
  }
  convolution_param {
    num_output: 288
    pad: 1
    kernel_size: 3
    weight_filler {
      type: "xavier"
      std: 0.03
    }
    bias_filler {
      type: "constant"
      value: 0.2
    }
  }
}
layer {
  name: "inception_4d/relu_3x3"
  type: "ReLU"
  bottom: "inception_4d/3x3"
  top: "inception_4d/3x3"
}
layer {
  name: "inception_4d/5x5_reduce"
  type: "Convolution"
  bottom: "inception_4c/output"
  top: "inception_4d/5x5_reduce"
  param {
    lr_mult: 1
    decay_mult: 1
  }
  param {
    lr_mult: 2
    decay_mult: 0
  }
  convolution_param {
    num_output: 32
    kernel_size: 1
    weight_filler {
      type: "xavier"
      std: 0.2
    }
    bias_filler {
      type: "constant"
      value: 0.2
    }
  }
}
layer {
  name: "inception_4d/relu_5x5_reduce"
  type: "ReLU"
  bottom: "inception_4d/5x5_reduce"
  top: "inception_4d/5x5_reduce"
}
layer {
  name: "inception_4d/5x5"
  type: "Convolution"
  bottom: "inception_4d/5x5_reduce"
  top: "inception_4d/5x5"
  param {
    lr_mult: 1
    decay_mult: 1
  }
  param {
    lr_mult: 2
    decay_mult: 0
  }
  convolution_param {
    num_output: 64
    pad: 2
    kernel_size: 5
    weight_filler {
      type: "xavier"
      std: 0.03
    }
    bias_filler {
      type: "constant"
      value: 0.2
    }
  }
}
layer {
  name: "inception_4d/relu_5x5"
  type: "ReLU"
  bottom: "inception_4d/5x5"
  top: "inception_4d/5x5"
}
layer {
  name: "inception_4d/pool"
  type: "Pooling"
  bottom: "inception_4c/output"
  top: "inception_4d/pool"
  pooling_param {
    pool: MAX
    kernel_size: 3
    stride: 1
    pad: 1
  }
}
layer {
  name: "inception_4d/pool_proj"
  type: "Convolution"
  bottom: "inception_4d/pool"
  top: "inception_4d/pool_proj"
  param {
    lr_mult: 1
    decay_mult: 1
  }
  param {
    lr_mult: 2
    decay_mult: 0
  }
  convolution_param {
    num_output: 64
    kernel_size: 1
    weight_filler {
      type: "xavier"
      std: 0.1
    }
    bias_filler {
      type: "constant"
      value: 0.2
    }
  }
}
layer {
  name: "inception_4d/relu_pool_proj"
  type: "ReLU"
  bottom: "inception_4d/pool_proj"
  top: "inception_4d/pool_proj"
}
layer {
  name: "inception_4d/output"
  type: "Concat"
  bottom: "inception_4d/1x1"
  bottom: "inception_4d/3x3"
  bottom: "inception_4d/5x5"
  bottom: "inception_4d/pool_proj"
  top: "inception_4d/output"
}
layer {
  name: "loss2/ave_pool"
  type: "Pooling"
  bottom: "inception_4d/output"
  top: "loss2/ave_pool"
  pooling_param {
    pool: AVE
    kernel_size: 5
    stride: 3
  }
}
layer {
  name: "loss2/conv"
  type: "Convolution"
  bottom: "loss2/ave_pool"
  top: "loss2/conv"
  param {
    lr_mult: 1
    decay_mult: 1
  }
  param {
    lr_mult: 2
    decay_mult: 0
  }
  convolution_param {
    num_output: 128
    kernel_size: 1
    weight_filler {
      type: "xavier"
      std: 0.08
    }
    bias_filler {
      type: "constant"
      value: 0.2
    }
  }
}
layer {
  name: "loss2/relu_conv"
  type: "ReLU"
  bottom: "loss2/conv"
  top: "loss2/conv"
}
layer {
  name: "loss2/fc"
  type: "InnerProduct"
  bottom: "loss2/conv"
  top: "loss2/fc"
  param {
    lr_mult: 1
    decay_mult: 1
  }
  param {
    lr_mult: 2
    decay_mult: 0
  }
  inner_product_param {
    num_output: 1024
    weight_filler {
      type: "xavier"
      std: 0.02
    }
    bias_filler {
      type: "constant"
      value: 0.2
    }
  }
}
layer {
  name: "loss2/relu_fc"
  type: "ReLU"
  bottom: "loss2/fc"
  top: "loss2/fc"
}
layer {
  name: "loss2/drop_fc"
  type: "Dropout"
  bottom: "loss2/fc"
  top: "loss2/fc"
  dropout_param {
    dropout_ratio: 0.7
  }
}
layer {
  name: "loss2/classifier_plantvillage"
  type: "InnerProduct"
  bottom: "loss2/fc"
  top: "loss2/classifier_plantvillage"
  param {
    lr_mult: 1
    decay_mult: 1
  }
  param {
    lr_mult: 2
    decay_mult: 0
  }
  inner_product_param {
    num_output: 38
    weight_filler {
      type: "xavier"
      std: 0.0009765625
    }
    bias_filler {
      type: "constant"
      value: 0
    }
  }
}
layer {
  name: "inception_4e/1x1"
  type: "Convolution"
  bottom: "inception_4d/output"
  top: "inception_4e/1x1"
  param {
    lr_mult: 1
    decay_mult: 1
  }
  param {
    lr_mult: 2
    decay_mult: 0
  }
  convolution_param {
    num_output: 256
    kernel_size: 1
    weight_filler {
      type: "xavier"
      std: 0.03
    }
    bias_filler {
      type: "constant"
      value: 0.2
    }
  }
}
layer {
  name: "inception_4e/relu_1x1"
  type: "ReLU"
  bottom: "inception_4e/1x1"
  top: "inception_4e/1x1"
}
layer {
  name: "inception_4e/3x3_reduce"
  type: "Convolution"
  bottom: "inception_4d/output"
  top: "inception_4e/3x3_reduce"
  param {
    lr_mult: 1
    decay_mult: 1
  }
  param {
    lr_mult: 2
    decay_mult: 0
  }
  convolution_param {
    num_output: 160
    kernel_size: 1
    weight_filler {
      type: "xavier"
      std: 0.09
    }
    bias_filler {
      type: "constant"
      value: 0.2
    }
  }
}
layer {
  name: "inception_4e/relu_3x3_reduce"
  type: "ReLU"
  bottom: "inception_4e/3x3_reduce"
  top: "inception_4e/3x3_reduce"
}
layer {
  name: "inception_4e/3x3"
  type: "Convolution"
  bottom: "inception_4e/3x3_reduce"
  top: "inception_4e/3x3"
  param {
    lr_mult: 1
    decay_mult: 1
  }
  param {
    lr_mult: 2
    decay_mult: 0
  }
  convolution_param {
    num_output: 320
    pad: 1
    kernel_size: 3
    weight_filler {
      type: "xavier"
      std: 0.03
    }
    bias_filler {
      type: "constant"
      value: 0.2
    }
  }
}
layer {
  name: "inception_4e/relu_3x3"
  type: "ReLU"
  bottom: "inception_4e/3x3"
  top: "inception_4e/3x3"
}
layer {
  name: "inception_4e/5x5_reduce"
  type: "Convolution"
  bottom: "inception_4d/output"
  top: "inception_4e/5x5_reduce"
  param {
    lr_mult: 1
    decay_mult: 1
  }
  param {
    lr_mult: 2
    decay_mult: 0
  }
  convolution_param {
    num_output: 32
    kernel_size: 1
    weight_filler {
      type: "xavier"
      std: 0.2
    }
    bias_filler {
      type: "constant"
      value: 0.2
    }
  }
}
layer {
  name: "inception_4e/relu_5x5_reduce"
  type: "ReLU"
  bottom: "inception_4e/5x5_reduce"
  top: "inception_4e/5x5_reduce"
}
layer {
  name: "inception_4e/5x5"
  type: "Convolution"
  bottom: "inception_4e/5x5_reduce"
  top: "inception_4e/
I0403 19:05:58.307701 18725 layer_factory.hpp:77] Creating layer data
I0403 19:05:58.308301 18725 net.cpp:91] Creating Layer data
I0403 19:05:58.308332 18725 net.cpp:399] data -> data
I0403 19:05:58.308382 18725 net.cpp:399] data -> label
I0403 19:05:58.308421 18725 data_transformer.cpp:25] Loading mean file from: /home/mohanty/data/final_dataset/lmdb/segmented-60-40/mean.binaryproto
I0403 19:05:58.309593 18728 db_lmdb.cpp:38] Opened lmdb /home/mohanty/data/final_dataset/lmdb/segmented-60-40/test_db
I0403 19:05:58.321605 18725 data_layer.cpp:41] output data size: 24,3,224,224
I0403 19:05:58.348270 18725 net.cpp:141] Setting up data
I0403 19:05:58.348359 18725 net.cpp:148] Top shape: 24 3 224 224 (3612672)
I0403 19:05:58.348382 18725 net.cpp:148] Top shape: 24 (24)
I0403 19:05:58.348397 18725 net.cpp:156] Memory required for data: 14450784
I0403 19:05:58.348424 18725 layer_factory.hpp:77] Creating layer label_data_1_split
I0403 19:05:58.348453 18725 net.cpp:91] Creating Layer label_data_1_split
I0403 19:05:58.348470 18725 net.cpp:425] label_data_1_split <- label
I0403 19:05:58.348500 18725 net.cpp:399] label_data_1_split -> label_data_1_split_0
I0403 19:05:58.348528 18725 net.cpp:399] label_data_1_split -> label_data_1_split_1
I0403 19:05:58.348551 18725 net.cpp:399] label_data_1_split -> label_data_1_split_2
I0403 19:05:58.348572 18725 net.cpp:399] label_data_1_split -> label_data_1_split_3
I0403 19:05:58.348592 18725 net.cpp:399] label_data_1_split -> label_data_1_split_4
I0403 19:05:58.348613 18725 net.cpp:399] label_data_1_split -> label_data_1_split_5
I0403 19:05:58.348631 18725 net.cpp:399] label_data_1_split -> label_data_1_split_6
I0403 19:05:58.348651 18725 net.cpp:399] label_data_1_split -> label_data_1_split_7
I0403 19:05:58.348672 18725 net.cpp:399] label_data_1_split -> label_data_1_split_8
I0403 19:05:58.348692 18725 net.cpp:399] label_data_1_split -> label_data_1_split_9
I0403 19:05:58.348811 18725 net.cpp:141] Setting up label_data_1_split
I0403 19:05:58.348834 18725 net.cpp:148] Top shape: 24 (24)
I0403 19:05:58.348852 18725 net.cpp:148] Top shape: 24 (24)
I0403 19:05:58.348867 18725 net.cpp:148] Top shape: 24 (24)
I0403 19:05:58.348883 18725 net.cpp:148] Top shape: 24 (24)
I0403 19:05:58.348899 18725 net.cpp:148] Top shape: 24 (24)
I0403 19:05:58.348914 18725 net.cpp:148] Top shape: 24 (24)
I0403 19:05:58.348930 18725 net.cpp:148] Top shape: 24 (24)
I0403 19:05:58.348955 18725 net.cpp:148] Top shape: 24 (24)
I0403 19:05:58.348974 18725 net.cpp:148] Top shape: 24 (24)
I0403 19:05:58.348991 18725 net.cpp:148] Top shape: 24 (24)
I0403 19:05:58.349035 18725 net.cpp:156] Memory required for data: 14451744
I0403 19:05:58.349050 18725 layer_factory.hpp:77] Creating layer conv1/7x7_s2
I0403 19:05:58.349083 18725 net.cpp:91] Creating Layer conv1/7x7_s2
I0403 19:05:58.349102 18725 net.cpp:425] conv1/7x7_s2 <- data
I0403 19:05:58.349120 18725 net.cpp:399] conv1/7x7_s2 -> conv1/7x7_s2
I0403 19:05:58.487785 18725 net.cpp:141] Setting up conv1/7x7_s2
I0403 19:05:58.487872 18725 net.cpp:148] Top shape: 24 64 112 112 (19267584)
I0403 19:05:58.487890 18725 net.cpp:156] Memory required for data: 91522080
I0403 19:05:58.487920 18725 layer_factory.hpp:77] Creating layer conv1/relu_7x7
I0403 19:05:58.487951 18725 net.cpp:91] Creating Layer conv1/relu_7x7
I0403 19:05:58.487972 18725 net.cpp:425] conv1/relu_7x7 <- conv1/7x7_s2
I0403 19:05:58.487990 18725 net.cpp:386] conv1/relu_7x7 -> conv1/7x7_s2 (in-place)
I0403 19:05:58.488250 18725 net.cpp:141] Setting up conv1/relu_7x7
I0403 19:05:58.488276 18725 net.cpp:148] Top shape: 24 64 112 112 (19267584)
I0403 19:05:58.488291 18725 net.cpp:156] Memory required for data: 168592416
I0403 19:05:58.488306 18725 layer_factory.hpp:77] Creating layer pool1/3x3_s2
I0403 19:05:58.488332 18725 net.cpp:91] Creating Layer pool1/3x3_s2
I0403 19:05:58.488348 18725 net.cpp:425] pool1/3x3_s2 <- conv1/7x7_s2
I0403 19:05:58.488366 18725 net.cpp:399] pool1/3x3_s2 -> pool1/3x3_s2
I0403 19:05:58.488438 18725 net.cpp:141] Setting up pool1/3x3_s2
I0403 19:05:58.488463 18725 net.cpp:148] Top shape: 24 64 56 56 (4816896)
I0403 19:05:58.488477 18725 net.cpp:156] Memory required for data: 187860000
I0403 19:05:58.488492 18725 layer_factory.hpp:77] Creating layer pool1/norm1
I0403 19:05:58.488517 18725 net.cpp:91] Creating Layer pool1/norm1
I0403 19:05:58.488533 18725 net.cpp:425] pool1/norm1 <- pool1/3x3_s2
I0403 19:05:58.488550 18725 net.cpp:399] pool1/norm1 -> pool1/norm1
I0403 19:05:58.488854 18725 net.cpp:141] Setting up pool1/norm1
I0403 19:05:58.488880 18725 net.cpp:148] Top shape: 24 64 56 56 (4816896)
I0403 19:05:58.488895 18725 net.cpp:156] Memory required for data: 207127584
I0403 19:05:58.488910 18725 layer_factory.hpp:77] Creating layer conv2/3x3_reduce
I0403 19:05:58.488937 18725 net.cpp:91] Creating Layer conv2/3x3_reduce
I0403 19:05:58.488966 18725 net.cpp:425] conv2/3x3_reduce <- pool1/norm1
I0403 19:05:58.488991 18725 net.cpp:399] conv2/3x3_reduce -> conv2/3x3_reduce
I0403 19:05:58.490375 18725 net.cpp:141] Setting up conv2/3x3_reduce
I0403 19:05:58.490406 18725 net.cpp:148] Top shape: 24 64 56 56 (4816896)
I0403 19:05:58.490422 18725 net.cpp:156] Memory required for data: 226395168
I0403 19:05:58.490444 18725 layer_factory.hpp:77] Creating layer conv2/relu_3x3_reduce
I0403 19:05:58.490464 18725 net.cpp:91] Creating Layer conv2/relu_3x3_reduce
I0403 19:05:58.490480 18725 net.cpp:425] conv2/relu_3x3_reduce <- conv2/3x3_reduce
I0403 19:05:58.490497 18725 net.cpp:386] conv2/relu_3x3_reduce -> conv2/3x3_reduce (in-place)
I0403 19:05:58.490766 18725 net.cpp:141] Setting up conv2/relu_3x3_reduce
I0403 19:05:58.490793 18725 net.cpp:148] Top shape: 24 64 56 56 (4816896)
I0403 19:05:58.490809 18725 net.cpp:156] Memory required for data: 245662752
I0403 19:05:58.490824 18725 layer_factory.hpp:77] Creating layer conv2/3x3
I0403 19:05:58.490849 18725 net.cpp:91] Creating Layer conv2/3x3
I0403 19:05:58.490865 18725 net.cpp:425] conv2/3x3 <- conv2/3x3_reduce
I0403 19:05:58.490885 18725 net.cpp:399] conv2/3x3 -> conv2/3x3
I0403 19:05:58.493158 18725 net.cpp:141] Setting up conv2/3x3
I0403 19:05:58.493193 18725 net.cpp:148] Top shape: 24 192 56 56 (14450688)
I0403 19:05:58.493211 18725 net.cpp:156] Memory required for data: 303465504
I0403 19:05:58.493232 18725 layer_factory.hpp:77] Creating layer conv2/relu_3x3
I0403 19:05:58.493252 18725 net.cpp:91] Creating Layer conv2/relu_3x3
I0403 19:05:58.493268 18725 net.cpp:425] conv2/relu_3x3 <- conv2/3x3
I0403 19:05:58.493288 18725 net.cpp:386] conv2/relu_3x3 -> conv2/3x3 (in-place)
I0403 19:05:58.493463 18725 net.cpp:141] Setting up conv2/relu_3x3
I0403 19:05:58.493489 18725 net.cpp:148] Top shape: 24 192 56 56 (14450688)
I0403 19:05:58.493533 18725 net.cpp:156] Memory required for data: 361268256
I0403 19:05:58.493549 18725 layer_factory.hpp:77] Creating layer conv2/norm2
I0403 19:05:58.493569 18725 net.cpp:91] Creating Layer conv2/norm2
I0403 19:05:58.493587 18725 net.cpp:425] conv2/norm2 <- conv2/3x3
I0403 19:05:58.493604 18725 net.cpp:399] conv2/norm2 -> conv2/norm2
I0403 19:05:58.493904 18725 net.cpp:141] Setting up conv2/norm2
I0403 19:05:58.493932 18725 net.cpp:148] Top shape: 24 192 56 56 (14450688)
I0403 19:05:58.493950 18725 net.cpp:156] Memory required for data: 419071008
I0403 19:05:58.493966 18725 layer_factory.hpp:77] Creating layer pool2/3x3_s2
I0403 19:05:58.493988 18725 net.cpp:91] Creating Layer pool2/3x3_s2
I0403 19:05:58.494004 18725 net.cpp:425] pool2/3x3_s2 <- conv2/norm2
I0403 19:05:58.494020 18725 net.cpp:399] pool2/3x3_s2 -> pool2/3x3_s2
I0403 19:05:58.494073 18725 net.cpp:141] Setting up pool2/3x3_s2
I0403 19:05:58.494096 18725 net.cpp:148] Top shape: 24 192 28 28 (3612672)
I0403 19:05:58.494112 18725 net.cpp:156] Memory required for data: 433521696
I0403 19:05:58.494127 18725 layer_factory.hpp:77] Creating layer pool2/3x3_s2_pool2/3x3_s2_0_split
I0403 19:05:58.494144 18725 net.cpp:91] Creating Layer pool2/3x3_s2_pool2/3x3_s2_0_split
I0403 19:05:58.494159 18725 net.cpp:425] pool2/3x3_s2_pool2/3x3_s2_0_split <- pool2/3x3_s2
I0403 19:05:58.494179 18725 net.cpp:399] pool2/3x3_s2_pool2/3x3_s2_0_split -> pool2/3x3_s2_pool2/3x3_s2_0_split_0
I0403 19:05:58.494199 18725 net.cpp:399] pool2/3x3_s2_pool2/3x3_s2_0_split -> pool2/3x3_s2_pool2/3x3_s2_0_split_1
I0403 19:05:58.494218 18725 net.cpp:399] pool2/3x3_s2_pool2/3x3_s2_0_split -> pool2/3x3_s2_pool2/3x3_s2_0_split_2
I0403 19:05:58.494237 18725 net.cpp:399] pool2/3x3_s2_pool2/3x3_s2_0_split -> pool2/3x3_s2_pool2/3x3_s2_0_split_3
I0403 19:05:58.494308 18725 net.cpp:141] Setting up pool2/3x3_s2_pool2/3x3_s2_0_split
I0403 19:05:58.494331 18725 net.cpp:148] Top shape: 24 192 28 28 (3612672)
I0403 19:05:58.494348 18725 net.cpp:148] Top shape: 24 192 28 28 (3612672)
I0403 19:05:58.494362 18725 net.cpp:148] Top shape: 24 192 28 28 (3612672)
I0403 19:05:58.494377 18725 net.cpp:148] Top shape: 24 192 28 28 (3612672)
I0403 19:05:58.494391 18725 net.cpp:156] Memory required for data: 491324448
I0403 19:05:58.494406 18725 layer_factory.hpp:77] Creating layer inception_3a/1x1
I0403 19:05:58.494428 18725 net.cpp:91] Creating Layer inception_3a/1x1
I0403 19:05:58.494446 18725 net.cpp:425] inception_3a/1x1 <- pool2/3x3_s2_pool2/3x3_s2_0_split_0
I0403 19:05:58.494465 18725 net.cpp:399] inception_3a/1x1 -> inception_3a/1x1
I0403 19:05:58.496026 18725 net.cpp:141] Setting up inception_3a/1x1
I0403 19:05:58.496058 18725 net.cpp:148] Top shape: 24 64 28 28 (1204224)
I0403 19:05:58.496076 18725 net.cpp:156] Memory required for data: 496141344
I0403 19:05:58.496095 18725 layer_factory.hpp:77] Creating layer inception_3a/relu_1x1
I0403 19:05:58.496114 18725 net.cpp:91] Creating Layer inception_3a/relu_1x1
I0403 19:05:58.496130 18725 net.cpp:425] inception_3a/relu_1x1 <- inception_3a/1x1
I0403 19:05:58.496147 18725 net.cpp:386] inception_3a/relu_1x1 -> inception_3a/1x1 (in-place)
I0403 19:05:58.496328 18725 net.cpp:141] Setting up inception_3a/relu_1x1
I0403 19:05:58.496356 18725 net.cpp:148] Top shape: 24 64 28 28 (1204224)
I0403 19:05:58.496372 18725 net.cpp:156] Memory required for data: 500958240
I0403 19:05:58.496388 18725 layer_factory.hpp:77] Creating layer inception_3a/3x3_reduce
I0403 19:05:58.496412 18725 net.cpp:91] Creating Layer inception_3a/3x3_reduce
I0403 19:05:58.496429 18725 net.cpp:425] inception_3a/3x3_reduce <- pool2/3x3_s2_pool2/3x3_s2_0_split_1
I0403 19:05:58.496450 18725 net.cpp:399] inception_3a/3x3_reduce -> inception_3a/3x3_reduce
I0403 19:05:58.498172 18725 net.cpp:141] Setting up inception_3a/3x3_reduce
I0403 19:05:58.498203 18725 net.cpp:148] Top shape: 24 96 28 28 (1806336)
I0403 19:05:58.498221 18725 net.cpp:156] Memory required for data: 508183584
I0403 19:05:58.498244 18725 layer_factory.hpp:77] Creating layer inception_3a/relu_3x3_reduce
I0403 19:05:58.498281 18725 net.cpp:91] Creating Layer inception_3a/relu_3x3_reduce
I0403 19:05:58.498299 18725 net.cpp:425] inception_3a/relu_3x3_reduce <- inception_3a/3x3_reduce
I0403 19:05:58.498320 18725 net.cpp:386] inception_3a/relu_3x3_reduce -> inception_3a/3x3_reduce (in-place)
I0403 19:05:58.498505 18725 net.cpp:141] Setting up inception_3a/relu_3x3_reduce
I0403 19:05:58.498530 18725 net.cpp:148] Top shape: 24 96 28 28 (1806336)
I0403 19:05:58.498546 18725 net.cpp:156] Memory required for data: 515408928
I0403 19:05:58.498561 18725 layer_factory.hpp:77] Creating layer inception_3a/3x3
I0403 19:05:58.498584 18725 net.cpp:91] Creating Layer inception_3a/3x3
I0403 19:05:58.498603 18725 net.cpp:425] inception_3a/3x3 <- inception_3a/3x3_reduce
I0403 19:05:58.498622 18725 net.cpp:399] inception_3a/3x3 -> inception_3a/3x3
I0403 19:05:58.500329 18725 net.cpp:141] Setting up inception_3a/3x3
I0403 19:05:58.500360 18725 net.cpp:148] Top shape: 24 128 28 28 (2408448)
I0403 19:05:58.500376 18725 net.cpp:156] Memory required for data: 525042720
I0403 19:05:58.500396 18725 layer_factory.hpp:77] Creating layer inception_3a/relu_3x3
I0403 19:05:58.500414 18725 net.cpp:91] Creating Layer inception_3a/relu_3x3
I0403 19:05:58.500430 18725 net.cpp:425] inception_3a/relu_3x3 <- inception_3a/3x3
I0403 19:05:58.500450 18725 net.cpp:386] inception_3a/relu_3x3 -> inception_3a/3x3 (in-place)
I0403 19:05:58.500732 18725 net.cpp:141] Setting up inception_3a/relu_3x3
I0403 19:05:58.500762 18725 net.cpp:148] Top shape: 24 128 28 28 (2408448)
I0403 19:05:58.500777 18725 net.cpp:156] Memory required for data: 534676512
I0403 19:05:58.500792 18725 layer_factory.hpp:77] Creating layer inception_3a/5x5_reduce
I0403 19:05:58.500815 18725 net.cpp:91] Creating Layer inception_3a/5x5_reduce
I0403 19:05:58.500833 18725 net.cpp:425] inception_3a/5x5_reduce <- pool2/3x3_s2_pool2/3x3_s2_0_split_2
I0403 19:05:58.500854 18725 net.cpp:399] inception_3a/5x5_reduce -> inception_3a/5x5_reduce
I0403 19:05:58.501844 18725 net.cpp:141] Setting up inception_3a/5x5_reduce
I0403 19:05:58.501873 18725 net.cpp:148] Top shape: 24 16 28 28 (301056)
I0403 19:05:58.501889 18725 net.cpp:156] Memory required for data: 535880736
I0403 19:05:58.501907 18725 layer_factory.hpp:77] Creating layer inception_3a/relu_5x5_reduce
I0403 19:05:58.501926 18725 net.cpp:91] Creating Layer inception_3a/relu_5x5_reduce
I0403 19:05:58.501942 18725 net.cpp:425] inception_3a/relu_5x5_reduce <- inception_3a/5x5_reduce
I0403 19:05:58.501971 18725 net.cpp:386] inception_3a/relu_5x5_reduce -> inception_3a/5x5_reduce (in-place)
I0403 19:05:58.502282 18725 net.cpp:141] Setting up inception_3a/relu_5x5_reduce
I0403 19:05:58.502308 18725 net.cpp:148] Top shape: 24 16 28 28 (301056)
I0403 19:05:58.502324 18725 net.cpp:156] Memory required for data: 537084960
I0403 19:05:58.502339 18725 layer_factory.hpp:77] Creating layer inception_3a/5x5
I0403 19:05:58.502362 18725 net.cpp:91] Creating Layer inception_3a/5x5
I0403 19:05:58.502382 18725 net.cpp:425] inception_3a/5x5 <- inception_3a/5x5_reduce
I0403 19:05:58.502403 18725 net.cpp:399] inception_3a/5x5 -> inception_3a/5x5
I0403 19:05:58.503443 18725 net.cpp:141] Setting up inception_3a/5x5
I0403 19:05:58.503474 18725 net.cpp:148] Top shape: 24 32 28 28 (602112)
I0403 19:05:58.503491 18725 net.cpp:156] Memory required for data: 539493408
I0403 19:05:58.503510 18725 layer_factory.hpp:77] Creating layer inception_3a/relu_5x5
I0403 19:05:58.503528 18725 net.cpp:91] Creating Layer inception_3a/relu_5x5
I0403 19:05:58.503545 18725 net.cpp:425] inception_3a/relu_5x5 <- inception_3a/5x5
I0403 19:05:58.503563 18725 net.cpp:386] inception_3a/relu_5x5 -> inception_3a/5x5 (in-place)
I0403 19:05:58.503743 18725 net.cpp:141] Setting up inception_3a/relu_5x5
I0403 19:05:58.503769 18725 net.cpp:148] Top shape: 24 32 28 28 (602112)
I0403 19:05:58.503784 18725 net.cpp:156] Memory required for data: 541901856
I0403 19:05:58.503799 18725 layer_factory.hpp:77] Creating layer inception_3a/pool
I0403 19:05:58.503818 18725 net.cpp:91] Creating Layer inception_3a/pool
I0403 19:05:58.503847 18725 net.cpp:425] inception_3a/pool <- pool2/3x3_s2_pool2/3x3_s2_0_split_3
I0403 19:05:58.503870 18725 net.cpp:399] inception_3a/pool -> inception_3a/pool
I0403 19:05:58.503927 18725 net.cpp:141] Setting up inception_3a/pool
I0403 19:05:58.503957 18725 net.cpp:148] Top shape: 24 192 28 28 (3612672)
I0403 19:05:58.503974 18725 net.cpp:156] Memory required for data: 556352544
I0403 19:05:58.503990 18725 layer_factory.hpp:77] Creating layer inception_3a/pool_proj
I0403 19:05:58.504014 18725 net.cpp:91] Creating Layer inception_3a/pool_proj
I0403 19:05:58.504031 18725 net.cpp:425] inception_3a/pool_proj <- inception_3a/pool
I0403 19:05:58.504050 18725 net.cpp:399] inception_3a/pool_proj -> inception_3a/pool_proj
I0403 19:05:58.505033 18725 net.cpp:141] Setting up inception_3a/pool_proj
I0403 19:05:58.505062 18725 net.cpp:148] Top shape: 24 32 28 28 (602112)
I0403 19:05:58.505079 18725 net.cpp:156] Memory required for data: 558760992
I0403 19:05:58.505102 18725 layer_factory.hpp:77] Creating layer inception_3a/relu_pool_proj
I0403 19:05:58.505123 18725 net.cpp:91] Creating Layer inception_3a/relu_pool_proj
I0403 19:05:58.505141 18725 net.cpp:425] inception_3a/relu_pool_proj <- inception_3a/pool_proj
I0403 19:05:58.505162 18725 net.cpp:386] inception_3a/relu_pool_proj -> inception_3a/pool_proj (in-place)
I0403 19:05:58.505439 18725 net.cpp:141] Setting up inception_3a/relu_pool_proj
I0403 19:05:58.505470 18725 net.cpp:148] Top shape: 24 32 28 28 (602112)
I0403 19:05:58.505486 18725 net.cpp:156] Memory required for data: 561169440
I0403 19:05:58.505501 18725 layer_factory.hpp:77] Creating layer inception_3a/output
I0403 19:05:58.505519 18725 net.cpp:91] Creating Layer inception_3a/output
I0403 19:05:58.505535 18725 net.cpp:425] inception_3a/output <- inception_3a/1x1
I0403 19:05:58.505553 18725 net.cpp:425] inception_3a/output <- inception_3a/3x3
I0403 19:05:58.505568 18725 net.cpp:425] inception_3a/output <- inception_3a/5x5
I0403 19:05:58.505585 18725 net.cpp:425] inception_3a/output <- inception_3a/pool_proj
I0403 19:05:58.505602 18725 net.cpp:399] inception_3a/output -> inception_3a/output
I0403 19:05:58.505651 18725 net.cpp:141] Setting up inception_3a/output
I0403 19:05:58.505676 18725 net.cpp:148] Top shape: 24 256 28 28 (4816896)
I0403 19:05:58.505691 18725 net.cpp:156] Memory required for data: 580437024
I0403 19:05:58.505705 18725 layer_factory.hpp:77] Creating layer inception_3a/output_inception_3a/output_0_split
I0403 19:05:58.505725 18725 net.cpp:91] Creating Layer inception_3a/output_inception_3a/output_0_split
I0403 19:05:58.505741 18725 net.cpp:425] inception_3a/output_inception_3a/output_0_split <- inception_3a/output
I0403 19:05:58.505759 18725 net.cpp:399] inception_3a/output_inception_3a/output_0_split -> inception_3a/output_inception_3a/output_0_split_0
I0403 19:05:58.505779 18725 net.cpp:399] inception_3a/output_inception_3a/output_0_split -> inception_3a/output_inception_3a/output_0_split_1
I0403 19:05:58.505803 18725 net.cpp:399] inception_3a/output_inception_3a/output_0_split -> inception_3a/output_inception_3a/output_0_split_2
I0403 19:05:58.505826 18725 net.cpp:399] inception_3a/output_inception_3a/output_0_split -> inception_3a/output_inception_3a/output_0_split_3
I0403 19:05:58.505903 18725 net.cpp:141] Setting up inception_3a/output_inception_3a/output_0_split
I0403 19:05:58.505925 18725 net.cpp:148] Top shape: 24 256 28 28 (4816896)
I0403 19:05:58.505942 18725 net.cpp:148] Top shape: 24 256 28 28 (4816896)
I0403 19:05:58.505964 18725 net.cpp:148] Top shape: 24 256 28 28 (4816896)
I0403 19:05:58.505980 18725 net.cpp:148] Top shape: 24 256 28 28 (4816896)
I0403 19:05:58.505993 18725 net.cpp:156] Memory required for data: 657507360
I0403 19:05:58.506008 18725 layer_factory.hpp:77] Creating layer inception_3b/1x1
I0403 19:05:58.506032 18725 net.cpp:91] Creating Layer inception_3b/1x1
I0403 19:05:58.506052 18725 net.cpp:425] inception_3b/1x1 <- inception_3a/output_inception_3a/output_0_split_0
I0403 19:05:58.506070 18725 net.cpp:399] inception_3b/1x1 -> inception_3b/1x1
I0403 19:05:58.507246 18725 net.cpp:141] Setting up inception_3b/1x1
I0403 19:05:58.507285 18725 net.cpp:148] Top shape: 24 128 28 28 (2408448)
I0403 19:05:58.507302 18725 net.cpp:156] Memory required for data: 667141152
I0403 19:05:58.507320 18725 layer_factory.hpp:77] Creating layer inception_3b/relu_1x1
I0403 19:05:58.507341 18725 net.cpp:91] Creating Layer inception_3b/relu_1x1
I0403 19:05:58.507359 18725 net.cpp:425] inception_3b/relu_1x1 <- inception_3b/1x1
I0403 19:05:58.507376 18725 net.cpp:386] inception_3b/relu_1x1 -> inception_3b/1x1 (in-place)
I0403 19:05:58.507558 18725 net.cpp:141] Setting up inception_3b/relu_1x1
I0403 19:05:58.507585 18725 net.cpp:148] Top shape: 24 128 28 28 (2408448)
I0403 19:05:58.507599 18725 net.cpp:156] Memory required for data: 676774944
I0403 19:05:58.507614 18725 layer_factory.hpp:77] Creating layer inception_3b/3x3_reduce
I0403 19:05:58.507637 18725 net.cpp:91] Creating Layer inception_3b/3x3_reduce
I0403 19:05:58.507655 18725 net.cpp:425] inception_3b/3x3_reduce <- inception_3a/output_inception_3a/output_0_split_1
I0403 19:05:58.507678 18725 net.cpp:399] inception_3b/3x3_reduce -> inception_3b/3x3_reduce
I0403 19:05:58.508827 18725 net.cpp:141] Setting up inception_3b/3x3_reduce
I0403 19:05:58.508857 18725 net.cpp:148] Top shape: 24 128 28 28 (2408448)
I0403 19:05:58.508872 18725 net.cpp:156] Memory required for data: 686408736
I0403 19:05:58.508890 18725 layer_factory.hpp:77] Creating layer inception_3b/relu_3x3_reduce
I0403 19:05:58.508916 18725 net.cpp:91] Creating Layer inception_3b/relu_3x3_reduce
I0403 19:05:58.508932 18725 net.cpp:425] inception_3b/relu_3x3_reduce <- inception_3b/3x3_reduce
I0403 19:05:58.508960 18725 net.cpp:386] inception_3b/relu_3x3_reduce -> inception_3b/3x3_reduce (in-place)
I0403 19:05:58.509140 18725 net.cpp:141] Setting up inception_3b/relu_3x3_reduce
I0403 19:05:58.509168 18725 net.cpp:148] Top shape: 24 128 28 28 (2408448)
I0403 19:05:58.509184 18725 net.cpp:156] Memory required for data: 696042528
I0403 19:05:58.509199 18725 layer_factory.hpp:77] Creating layer inception_3b/3x3
I0403 19:05:58.509224 18725 net.cpp:91] Creating Layer inception_3b/3x3
I0403 19:05:58.509243 18725 net.cpp:425] inception_3b/3x3 <- inception_3b/3x3_reduce
I0403 19:05:58.509264 18725 net.cpp:399] inception_3b/3x3 -> inception_3b/3x3
I0403 19:05:58.512229 18725 net.cpp:141] Setting up inception_3b/3x3
I0403 19:05:58.512260 18725 net.cpp:148] Top shape: 24 192 28 28 (3612672)
I0403 19:05:58.512277 18725 net.cpp:156] Memory required for data: 710493216
I0403 19:05:58.512295 18725 layer_factory.hpp:77] Creating layer inception_3b/relu_3x3
I0403 19:05:58.512315 18725 net.cpp:91] Creating Layer inception_3b/relu_3x3
I0403 19:05:58.512331 18725 net.cpp:425] inception_3b/relu_3x3 <- inception_3b/3x3
I0403 19:05:58.512351 18725 net.cpp:386] inception_3b/relu_3x3 -> inception_3b/3x3 (in-place)
I0403 19:05:58.512635 18725 net.cpp:141] Setting up inception_3b/relu_3x3
I0403 19:05:58.512665 18725 net.cpp:148] Top shape: 24 192 28 28 (3612672)
I0403 19:05:58.512681 18725 net.cpp:156] Memory required for data: 724943904
I0403 19:05:58.512694 18725 layer_factory.hpp:77] Creating layer inception_3b/5x5_reduce
I0403 19:05:58.512717 18725 net.cpp:91] Creating Layer inception_3b/5x5_reduce
I0403 19:05:58.512737 18725 net.cpp:425] inception_3b/5x5_reduce <- inception_3a/output_inception_3a/output_0_split_2
I0403 19:05:58.512759 18725 net.cpp:399] inception_3b/5x5_reduce -> inception_3b/5x5_reduce
I0403 19:05:58.513787 18725 net.cpp:141] Setting up inception_3b/5x5_reduce
I0403 19:05:58.513818 18725 net.cpp:148] Top shape: 24 32 28 28 (602112)
I0403 19:05:58.513833 18725 net.cpp:156] Memory required for data: 727352352
I0403 19:05:58.513851 18725 layer_factory.hpp:77] Creating layer inception_3b/relu_5x5_reduce
I0403 19:05:58.513870 18725 net.cpp:91] Creating Layer inception_3b/relu_5x5_reduce
I0403 19:05:58.513885 18725 net.cpp:425] inception_3b/relu_5x5_reduce <- inception_3b/5x5_reduce
I0403 19:05:58.513903 18725 net.cpp:386] inception_3b/relu_5x5_reduce -> inception_3b/5x5_reduce (in-place)
I0403 19:05:58.514103 18725 net.cpp:141] Setting up inception_3b/relu_5x5_reduce
I0403 19:05:58.514129 18725 net.cpp:148] Top shape: 24 32 28 28 (602112)
I0403 19:05:58.514144 18725 net.cpp:156] Memory required for data: 729760800
I0403 19:05:58.514158 18725 layer_factory.hpp:77] Creating layer inception_3b/5x5
I0403 19:05:58.514181 18725 net.cpp:91] Creating Layer inception_3b/5x5
I0403 19:05:58.514199 18725 net.cpp:425] inception_3b/5x5 <- inception_3b/5x5_reduce
I0403 19:05:58.514220 18725 net.cpp:399] inception_3b/5x5 -> inception_3b/5x5
I0403 19:05:58.516182 18725 net.cpp:141] Setting up inception_3b/5x5
I0403 19:05:58.516213 18725 net.cpp:148] Top shape: 24 96 28 28 (1806336)
I0403 19:05:58.516228 18725 net.cpp:156] Memory required for data: 736986144
I0403 19:05:58.516247 18725 layer_factory.hpp:77] Creating layer inception_3b/relu_5x5
I0403 19:05:58.516268 18725 net.cpp:91] Creating Layer inception_3b/relu_5x5
I0403 19:05:58.516284 18725 net.cpp:425] inception_3b/relu_5x5 <- inception_3b/5x5
I0403 19:05:58.516301 18725 net.cpp:386] inception_3b/relu_5x5 -> inception_3b/5x5 (in-place)
I0403 19:05:58.516492 18725 net.cpp:141] Setting up inception_3b/relu_5x5
I0403 19:05:58.516518 18725 net.cpp:148] Top shape: 24 96 28 28 (1806336)
I0403 19:05:58.516532 18725 net.cpp:156] Memory required for data: 744211488
I0403 19:05:58.516548 18725 layer_factory.hpp:77] Creating layer inception_3b/pool
I0403 19:05:58.516566 18725 net.cpp:91] Creating Layer inception_3b/pool
I0403 19:05:58.516582 18725 net.cpp:425] inception_3b/pool <- inception_3a/output_inception_3a/output_0_split_3
I0403 19:05:58.516599 18725 net.cpp:399] inception_3b/pool -> inception_3b/pool
I0403 19:05:58.516654 18725 net.cpp:141] Setting up inception_3b/pool
I0403 19:05:58.516676 18725 net.cpp:148] Top shape: 24 256 28 28 (4816896)
I0403 19:05:58.516690 18725 net.cpp:156] Memory required for data: 763479072
I0403 19:05:58.516705 18725 layer_factory.hpp:77] Creating layer inception_3b/pool_proj
I0403 19:05:58.516727 18725 net.cpp:91] Creating Layer inception_3b/pool_proj
I0403 19:05:58.516746 18725 net.cpp:425] inception_3b/pool_proj <- inception_3b/pool
I0403 19:05:58.516765 18725 net.cpp:399] inception_3b/pool_proj -> inception_3b/pool_proj
I0403 19:05:58.517825 18725 net.cpp:141] Setting up inception_3b/pool_proj
I0403 19:05:58.517853 18725 net.cpp:148] Top shape: 24 64 28 28 (1204224)
I0403 19:05:58.517869 18725 net.cpp:156] Memory required for data: 768295968
I0403 19:05:58.517887 18725 layer_factory.hpp:77] Creating layer inception_3b/relu_pool_proj
I0403 19:05:58.517907 18725 net.cpp:91] Creating Layer inception_3b/relu_pool_proj
I0403 19:05:58.517923 18725 net.cpp:425] inception_3b/relu_pool_proj <- inception_3b/pool_proj
I0403 19:05:58.517940 18725 net.cpp:386] inception_3b/relu_pool_proj -> inception_3b/pool_proj (in-place)
I0403 19:05:58.518344 18725 net.cpp:141] Setting up inception_3b/relu_pool_proj
I0403 19:05:58.518371 18725 net.cpp:148] Top shape: 24 64 28 28 (1204224)
I0403 19:05:58.518386 18725 net.cpp:156] Memory required for data: 773112864
I0403 19:05:58.518401 18725 layer_factory.hpp:77] Creating layer inception_3b/output
I0403 19:05:58.518419 18725 net.cpp:91] Creating Layer inception_3b/output
I0403 19:05:58.518435 18725 net.cpp:425] inception_3b/output <- inception_3b/1x1
I0403 19:05:58.518450 18725 net.cpp:425] inception_3b/output <- inception_3b/3x3
I0403 19:05:58.518465 18725 net.cpp:425] inception_3b/output <- inception_3b/5x5
I0403 19:05:58.518481 18725 net.cpp:425] inception_3b/output <- inception_3b/pool_proj
I0403 19:05:58.518501 18725 net.cpp:399] inception_3b/output -> inception_3b/output
I0403 19:05:58.518543 18725 net.cpp:141] Setting up inception_3b/output
I0403 19:05:58.518568 18725 net.cpp:148] Top shape: 24 480 28 28 (9031680)
I0403 19:05:58.518584 18725 net.cpp:156] Memory required for data: 809239584
I0403 19:05:58.518599 18725 layer_factory.hpp:77] Creating layer pool3/3x3_s2
I0403 19:05:58.518615 18725 net.cpp:91] Creating Layer pool3/3x3_s2
I0403 19:05:58.518631 18725 net.cpp:425] pool3/3x3_s2 <- inception_3b/output
I0403 19:05:58.518664 18725 net.cpp:399] pool3/3x3_s2 -> pool3/3x3_s2
I0403 19:05:58.518725 18725 net.cpp:141] Setting up pool3/3x3_s2
I0403 19:05:58.518748 18725 net.cpp:148] Top shape: 24 480 14 14 (2257920)
I0403 19:05:58.518764 18725 net.cpp:156] Memory required for data: 818271264
I0403 19:05:58.518779 18725 layer_factory.hpp:77] Creating layer pool3/3x3_s2_pool3/3x3_s2_0_split
I0403 19:05:58.518796 18725 net.cpp:91] Creating Layer pool3/3x3_s2_pool3/3x3_s2_0_split
I0403 19:05:58.518812 18725 net.cpp:425] pool3/3x3_s2_pool3/3x3_s2_0_split <- pool3/3x3_s2
I0403 19:05:58.518829 18725 net.cpp:399] pool3/3x3_s2_pool3/3x3_s2_0_split -> pool3/3x3_s2_pool3/3x3_s2_0_split_0
I0403 19:05:58.518847 18725 net.cpp:399] pool3/3x3_s2_pool3/3x3_s2_0_split -> pool3/3x3_s2_pool3/3x3_s2_0_split_1
I0403 19:05:58.518867 18725 net.cpp:399] pool3/3x3_s2_pool3/3x3_s2_0_split -> pool3/3x3_s2_pool3/3x3_s2_0_split_2
I0403 19:05:58.518888 18725 net.cpp:399] pool3/3x3_s2_pool3/3x3_s2_0_split -> pool3/3x3_s2_pool3/3x3_s2_0_split_3
I0403 19:05:58.518977 18725 net.cpp:141] Setting up pool3/3x3_s2_pool3/3x3_s2_0_split
I0403 19:05:58.519001 18725 net.cpp:148] Top shape: 24 480 14 14 (2257920)
I0403 19:05:58.519017 18725 net.cpp:148] Top shape: 24 480 14 14 (2257920)
I0403 19:05:58.519033 18725 net.cpp:148] Top shape: 24 480 14 14 (2257920)
I0403 19:05:58.519047 18725 net.cpp:148] Top shape: 24 480 14 14 (2257920)
I0403 19:05:58.519062 18725 net.cpp:156] Memory required for data: 854397984
I0403 19:05:58.519076 18725 layer_factory.hpp:77] Creating layer inception_4a/1x1
I0403 19:05:58.519098 18725 net.cpp:91] Creating Layer inception_4a/1x1
I0403 19:05:58.519115 18725 net.cpp:425] inception_4a/1x1 <- pool3/3x3_s2_pool3/3x3_s2_0_split_0
I0403 19:05:58.519136 18725 net.cpp:399] inception_4a/1x1 -> inception_4a/1x1
I0403 19:05:58.520687 18725 net.cpp:141] Setting up inception_4a/1x1
I0403 19:05:58.520714 18725 net.cpp:148] Top shape: 24 192 14 14 (903168)
I0403 19:05:58.520730 18725 net.cpp:156] Memory required for data: 858010656
I0403 19:05:58.520748 18725 layer_factory.hpp:77] Creating layer inception_4a/relu_1x1
I0403 19:05:58.520769 18725 net.cpp:91] Creating Layer inception_4a/relu_1x1
I0403 19:05:58.520786 18725 net.cpp:425] inception_4a/relu_1x1 <- inception_4a/1x1
I0403 19:05:58.520803 18725 net.cpp:386] inception_4a/relu_1x1 -> inception_4a/1x1 (in-place)
I0403 19:05:58.520982 18725 net.cpp:141] Setting up inception_4a/relu_1x1
I0403 19:05:58.521008 18725 net.cpp:148] Top shape: 24 192 14 14 (903168)
I0403 19:05:58.521023 18725 net.cpp:156] Memory required for data: 861623328
I0403 19:05:58.521039 18725 layer_factory.hpp:77] Creating layer inception_4a/3x3_reduce
I0403 19:05:58.521062 18725 net.cpp:91] Creating Layer inception_4a/3x3_reduce
I0403 19:05:58.521080 18725 net.cpp:425] inception_4a/3x3_reduce <- pool3/3x3_s2_pool3/3x3_s2_0_split_1
I0403 19:05:58.521098 18725 net.cpp:399] inception_4a/3x3_reduce -> inception_4a/3x3_reduce
I0403 19:05:58.522354 18725 net.cpp:141] Setting up inception_4a/3x3_reduce
I0403 19:05:58.522382 18725 net.cpp:148] Top shape: 24 96 14 14 (451584)
I0403 19:05:58.522409 18725 net.cpp:156] Memory required for data: 863429664
I0403 19:05:58.522434 18725 layer_factory.hpp:77] Creating layer inception_4a/relu_3x3_reduce
I0403 19:05:58.522454 18725 net.cpp:91] Creating Layer inception_4a/relu_3x3_reduce
I0403 19:05:58.522472 18725 net.cpp:425] inception_4a/relu_3x3_reduce <- inception_4a/3x3_reduce
I0403 19:05:58.522492 18725 net.cpp:386] inception_4a/relu_3x3_reduce -> inception_4a/3x3_reduce (in-place)
I0403 19:05:58.522672 18725 net.cpp:141] Setting up inception_4a/relu_3x3_reduce
I0403 19:05:58.522711 18725 net.cpp:148] Top shape: 24 96 14 14 (451584)
I0403 19:05:58.522725 18725 net.cpp:156] Memory required for data: 865236000
I0403 19:05:58.522740 18725 layer_factory.hpp:77] Creating layer inception_4a/3x3
I0403 19:05:58.522764 18725 net.cpp:91] Creating Layer inception_4a/3x3
I0403 19:05:58.522784 18725 net.cpp:425] inception_4a/3x3 <- inception_4a/3x3_reduce
I0403 19:05:58.522804 18725 net.cpp:399] inception_4a/3x3 -> inception_4a/3x3
I0403 19:05:58.525475 18725 net.cpp:141] Setting up inception_4a/3x3
I0403 19:05:58.525506 18725 net.cpp:148] Top shape: 24 208 14 14 (978432)
I0403 19:05:58.525523 18725 net.cpp:156] Memory required for data: 869149728
I0403 19:05:58.525542 18725 layer_factory.hpp:77] Creating layer inception_4a/relu_3x3
I0403 19:05:58.525559 18725 net.cpp:91] Creating Layer inception_4a/relu_3x3
I0403 19:05:58.525575 18725 net.cpp:425] inception_4a/relu_3x3 <- inception_4a/3x3
I0403 19:05:58.525593 18725 net.cpp:386] inception_4a/relu_3x3 -> inception_4a/3x3 (in-place)
I0403 19:05:58.525867 18725 net.cpp:141] Setting up inception_4a/relu_3x3
I0403 19:05:58.525897 18725 net.cpp:148] Top shape: 24 208 14 14 (978432)
I0403 19:05:58.525912 18725 net.cpp:156] Memory required for data: 873063456
I0403 19:05:58.525928 18725 layer_factory.hpp:77] Creating layer inception_4a/5x5_reduce
I0403 19:05:58.525950 18725 net.cpp:91] Creating Layer inception_4a/5x5_reduce
I0403 19:05:58.525969 18725 net.cpp:425] inception_4a/5x5_reduce <- pool3/3x3_s2_pool3/3x3_s2_0_split_2
I0403 19:05:58.525990 18725 net.cpp:399] inception_4a/5x5_reduce -> inception_4a/5x5_reduce
I0403 19:05:58.526994 18725 net.cpp:141] Setting up inception_4a/5x5_reduce
I0403 19:05:58.527024 18725 net.cpp:148] Top shape: 24 16 14 14 (75264)
I0403 19:05:58.527040 18725 net.cpp:156] Memory required for data: 873364512
I0403 19:05:58.527060 18725 layer_factory.hpp:77] Creating layer inception_4a/relu_5x5_reduce
I0403 19:05:58.527077 18725 net.cpp:91] Creating Layer inception_4a/relu_5x5_reduce
I0403 19:05:58.527093 18725 net.cpp:425] inception_4a/relu_5x5_reduce <- inception_4a/5x5_reduce
I0403 19:05:58.527112 18725 net.cpp:386] inception_4a/relu_5x5_reduce -> inception_4a/5x5_reduce (in-place)
I0403 19:05:58.527293 18725 net.cpp:141] Setting up inception_4a/relu_5x5_reduce
I0403 19:05:58.527319 18725 net.cpp:148] Top shape: 24 16 14 14 (75264)
I0403 19:05:58.527334 18725 net.cpp:156] Memory required for data: 873665568
I0403 19:05:58.527349 18725 layer_factory.hpp:77] Creating layer inception_4a/5x5
I0403 19:05:58.527372 18725 net.cpp:91] Creating Layer inception_4a/5x5
I0403 19:05:58.527390 18725 net.cpp:425] inception_4a/5x5 <- inception_4a/5x5_reduce
I0403 19:05:58.527410 18725 net.cpp:399] inception_4a/5x5 -> inception_4a/5x5
I0403 19:05:58.528486 18725 net.cpp:141] Setting up inception_4a/5x5
I0403 19:05:58.528512 18725 net.cpp:148] Top shape: 24 48 14 14 (225792)
I0403 19:05:58.528528 18725 net.cpp:156] Memory required for data: 874568736
I0403 19:05:58.528548 18725 layer_factory.hpp:77] Creating layer inception_4a/relu_5x5
I0403 19:05:58.528565 18725 net.cpp:91] Creating Layer inception_4a/relu_5x5
I0403 19:05:58.528583 18725 net.cpp:425] inception_4a/relu_5x5 <- inception_4a/5x5
I0403 19:05:58.528600 18725 net.cpp:386] inception_4a/relu_5x5 -> inception_4a/5x5 (in-place)
I0403 19:05:58.528779 18725 net.cpp:141] Setting up inception_4a/relu_5x5
I0403 19:05:58.528805 18725 net.cpp:148] Top shape: 24 48 14 14 (225792)
I0403 19:05:58.528818 18725 net.cpp:156] Memory required for data: 875471904
I0403 19:05:58.528833 18725 layer_factory.hpp:77] Creating layer inception_4a/pool
I0403 19:05:58.528853 18725 net.cpp:91] Creating Layer inception_4a/pool
I0403 19:05:58.528870 18725 net.cpp:425] inception_4a/pool <- pool3/3x3_s2_pool3/3x3_s2_0_split_3
I0403 19:05:58.528888 18725 net.cpp:399] inception_4a/pool -> inception_4a/pool
I0403 19:05:58.528971 18725 net.cpp:141] Setting up inception_4a/pool
I0403 19:05:58.528997 18725 net.cpp:148] Top shape: 24 480 14 14 (2257920)
I0403 19:05:58.529021 18725 net.cpp:156] Memory required for data: 884503584
I0403 19:05:58.529036 18725 layer_factory.hpp:77] Creating layer inception_4a/pool_proj
I0403 19:05:58.529059 18725 net.cpp:91] Creating Layer inception_4a/pool_proj
I0403 19:05:58.529078 18725 net.cpp:425] inception_4a/pool_proj <- inception_4a/pool
I0403 19:05:58.529099 18725 net.cpp:399] inception_4a/pool_proj -> inception_4a/pool_proj
I0403 19:05:58.530298 18725 net.cpp:141] Setting up inception_4a/pool_proj
I0403 19:05:58.530328 18725 net.cpp:148] Top shape: 24 64 14 14 (301056)
I0403 19:05:58.530359 18725 net.cpp:156] Memory required for data: 885707808
I0403 19:05:58.530380 18725 layer_factory.hpp:77] Creating layer inception_4a/relu_pool_proj
I0403 19:05:58.530401 18725 net.cpp:91] Creating Layer inception_4a/relu_pool_proj
I0403 19:05:58.530419 18725 net.cpp:425] inception_4a/relu_pool_proj <- inception_4a/pool_proj
I0403 19:05:58.530437 18725 net.cpp:386] inception_4a/relu_pool_proj -> inception_4a/pool_proj (in-place)
I0403 19:05:58.530732 18725 net.cpp:141] Setting up inception_4a/relu_pool_proj
I0403 19:05:58.530760 18725 net.cpp:148] Top shape: 24 64 14 14 (301056)
I0403 19:05:58.530776 18725 net.cpp:156] Memory required for data: 886912032
I0403 19:05:58.530791 18725 layer_factory.hpp:77] Creating layer inception_4a/output
I0403 19:05:58.530809 18725 net.cpp:91] Creating Layer inception_4a/output
I0403 19:05:58.530825 18725 net.cpp:425] inception_4a/output <- inception_4a/1x1
I0403 19:05:58.530843 18725 net.cpp:425] inception_4a/output <- inception_4a/3x3
I0403 19:05:58.530859 18725 net.cpp:425] inception_4a/output <- inception_4a/5x5
I0403 19:05:58.530875 18725 net.cpp:425] inception_4a/output <- inception_4a/pool_proj
I0403 19:05:58.530895 18725 net.cpp:399] inception_4a/output -> inception_4a/output
I0403 19:05:58.530942 18725 net.cpp:141] Setting up inception_4a/output
I0403 19:05:58.530971 18725 net.cpp:148] Top shape: 24 512 14 14 (2408448)
I0403 19:05:58.530985 18725 net.cpp:156] Memory required for data: 896545824
I0403 19:05:58.531000 18725 layer_factory.hpp:77] Creating layer inception_4a/output_inception_4a/output_0_split
I0403 19:05:58.531018 18725 net.cpp:91] Creating Layer inception_4a/output_inception_4a/output_0_split
I0403 19:05:58.531034 18725 net.cpp:425] inception_4a/output_inception_4a/output_0_split <- inception_4a/output
I0403 19:05:58.531055 18725 net.cpp:399] inception_4a/output_inception_4a/output_0_split -> inception_4a/output_inception_4a/output_0_split_0
I0403 19:05:58.531076 18725 net.cpp:399] inception_4a/output_inception_4a/output_0_split -> inception_4a/output_inception_4a/output_0_split_1
I0403 19:05:58.531097 18725 net.cpp:399] inception_4a/output_inception_4a/output_0_split -> inception_4a/output_inception_4a/output_0_split_2
I0403 19:05:58.531118 18725 net.cpp:399] inception_4a/output_inception_4a/output_0_split -> inception_4a/output_inception_4a/output_0_split_3
I0403 19:05:58.531138 18725 net.cpp:399] inception_4a/output_inception_4a/output_0_split -> inception_4a/output_inception_4a/output_0_split_4
I0403 19:05:58.531231 18725 net.cpp:141] Setting up inception_4a/output_inception_4a/output_0_split
I0403 19:05:58.531258 18725 net.cpp:148] Top shape: 24 512 14 14 (2408448)
I0403 19:05:58.531275 18725 net.cpp:148] Top shape: 24 512 14 14 (2408448)
I0403 19:05:58.531291 18725 net.cpp:148] Top shape: 24 512 14 14 (2408448)
I0403 19:05:58.531307 18725 net.cpp:148] Top shape: 24 512 14 14 (2408448)
I0403 19:05:58.531323 18725 net.cpp:148] Top shape: 24 512 14 14 (2408448)
I0403 19:05:58.531337 18725 net.cpp:156] Memory required for data: 944714784
I0403 19:05:58.531352 18725 layer_factory.hpp:77] Creating layer loss1/ave_pool
I0403 19:05:58.531370 18725 net.cpp:91] Creating Layer loss1/ave_pool
I0403 19:05:58.531388 18725 net.cpp:425] loss1/ave_pool <- inception_4a/output_inception_4a/output_0_split_0
I0403 19:05:58.531407 18725 net.cpp:399] loss1/ave_pool -> loss1/ave_pool
I0403 19:05:58.531616 18725 net.cpp:141] Setting up loss1/ave_pool
I0403 19:05:58.531643 18725 net.cpp:148] Top shape: 24 512 4 4 (196608)
I0403 19:05:58.531659 18725 net.cpp:156] Memory required for data: 945501216
I0403 19:05:58.531673 18725 layer_factory.hpp:77] Creating layer loss1/conv
I0403 19:05:58.531697 18725 net.cpp:91] Creating Layer loss1/conv
I0403 19:05:58.531714 18725 net.cpp:425] loss1/conv <- loss1/ave_pool
I0403 19:05:58.531735 18725 net.cpp:399] loss1/conv -> loss1/conv
I0403 19:05:58.533182 18725 net.cpp:141] Setting up loss1/conv
I0403 19:05:58.533215 18725 net.cpp:148] Top shape: 24 128 4 4 (49152)
I0403 19:05:58.533244 18725 net.cpp:156] Memory required for data: 945697824
I0403 19:05:58.533264 18725 layer_factory.hpp:77] Creating layer loss1/relu_conv
I0403 19:05:58.533283 18725 net.cpp:91] Creating Layer loss1/relu_conv
I0403 19:05:58.533299 18725 net.cpp:425] loss1/relu_conv <- loss1/conv
I0403 19:05:58.533318 18725 net.cpp:386] loss1/relu_conv -> loss1/conv (in-place)
I0403 19:05:58.533612 18725 net.cpp:141] Setting up loss1/relu_conv
I0403 19:05:58.533643 18725 net.cpp:148] Top shape: 24 128 4 4 (49152)
I0403 19:05:58.533658 18725 net.cpp:156] Memory required for data: 945894432
I0403 19:05:58.533674 18725 layer_factory.hpp:77] Creating layer loss1/fc
I0403 19:05:58.533697 18725 net.cpp:91] Creating Layer loss1/fc
I0403 19:05:58.533716 18725 net.cpp:425] loss1/fc <- loss1/conv
I0403 19:05:58.533738 18725 net.cpp:399] loss1/fc -> loss1/fc
I0403 19:05:58.551739 18725 net.cpp:141] Setting up loss1/fc
I0403 19:05:58.551774 18725 net.cpp:148] Top shape: 24 1024 (24576)
I0403 19:05:58.551789 18725 net.cpp:156] Memory required for data: 945992736
I0403 19:05:58.551807 18725 layer_factory.hpp:77] Creating layer loss1/relu_fc
I0403 19:05:58.551828 18725 net.cpp:91] Creating Layer loss1/relu_fc
I0403 19:05:58.551846 18725 net.cpp:425] loss1/relu_fc <- loss1/fc
I0403 19:05:58.551862 18725 net.cpp:386] loss1/relu_fc -> loss1/fc (in-place)
I0403 19:05:58.552053 18725 net.cpp:141] Setting up loss1/relu_fc
I0403 19:05:58.552078 18725 net.cpp:148] Top shape: 24 1024 (24576)
I0403 19:05:58.552093 18725 net.cpp:156] Memory required for data: 946091040
I0403 19:05:58.552109 18725 layer_factory.hpp:77] Creating layer loss1/drop_fc
I0403 19:05:58.552136 18725 net.cpp:91] Creating Layer loss1/drop_fc
I0403 19:05:58.552155 18725 net.cpp:425] loss1/drop_fc <- loss1/fc
I0403 19:05:58.552171 18725 net.cpp:386] loss1/drop_fc -> loss1/fc (in-place)
I0403 19:05:58.552224 18725 net.cpp:141] Setting up loss1/drop_fc
I0403 19:05:58.552248 18725 net.cpp:148] Top shape: 24 1024 (24576)
I0403 19:05:58.552261 18725 net.cpp:156] Memory required for data: 946189344
I0403 19:05:58.552276 18725 layer_factory.hpp:77] Creating layer loss1/classifier_plantvillage
I0403 19:05:58.552295 18725 net.cpp:91] Creating Layer loss1/classifier_plantvillage
I0403 19:05:58.552311 18725 net.cpp:425] loss1/classifier_plantvillage <- loss1/fc
I0403 19:05:58.552332 18725 net.cpp:399] loss1/classifier_plantvillage -> loss1/classifier_plantvillage
I0403 19:05:58.553234 18725 net.cpp:141] Setting up loss1/classifier_plantvillage
I0403 19:05:58.553266 18725 net.cpp:148] Top shape: 24 38 (912)
I0403 19:05:58.553280 18725 net.cpp:156] Memory required for data: 946192992
I0403 19:05:58.553298 18725 layer_factory.hpp:77] Creating layer loss1/classifier_plantvillage_loss1/classifier_plantvillage_0_split
I0403 19:05:58.553316 18725 net.cpp:91] Creating Layer loss1/classifier_plantvillage_loss1/classifier_plantvillage_0_split
I0403 19:05:58.553333 18725 net.cpp:425] loss1/classifier_plantvillage_loss1/classifier_plantvillage_0_split <- loss1/classifier_plantvillage
I0403 19:05:58.553349 18725 net.cpp:399] loss1/classifier_plantvillage_loss1/classifier_plantvillage_0_split -> loss1/classifier_plantvillage_loss1/classifier_plantvillage_0_split_0
I0403 19:05:58.553369 18725 net.cpp:399] loss1/classifier_plantvillage_loss1/classifier_plantvillage_0_split -> loss1/classifier_plantvillage_loss1/classifier_plantvillage_0_split_1
I0403 19:05:58.553388 18725 net.cpp:399] loss1/classifier_plantvillage_loss1/classifier_plantvillage_0_split -> loss1/classifier_plantvillage_loss1/classifier_plantvillage_0_split_2
I0403 19:05:58.553454 18725 net.cpp:141] Setting up loss1/classifier_plantvillage_loss1/classifier_plantvillage_0_split
I0403 19:05:58.553478 18725 net.cpp:148] Top shape: 24 38 (912)
I0403 19:05:58.553493 18725 net.cpp:148] Top shape: 24 38 (912)
I0403 19:05:58.553508 18725 net.cpp:148] Top shape: 24 38 (912)
I0403 19:05:58.553522 18725 net.cpp:156] Memory required for data: 946203936
I0403 19:05:58.553536 18725 layer_factory.hpp:77] Creating layer inception_4b/1x1
I0403 19:05:58.553556 18725 net.cpp:91] Creating Layer inception_4b/1x1
I0403 19:05:58.553589 18725 net.cpp:425] inception_4b/1x1 <- inception_4a/output_inception_4a/output_0_split_1
I0403 19:05:58.553611 18725 net.cpp:399] inception_4b/1x1 -> inception_4b/1x1
I0403 19:05:58.555254 18725 net.cpp:141] Setting up inception_4b/1x1
I0403 19:05:58.555284 18725 net.cpp:148] Top shape: 24 160 14 14 (752640)
I0403 19:05:58.555300 18725 net.cpp:156] Memory required for data: 949214496
I0403 19:05:58.555318 18725 layer_factory.hpp:77] Creating layer inception_4b/relu_1x1
I0403 19:05:58.555335 18725 net.cpp:91] Creating Layer inception_4b/relu_1x1
I0403 19:05:58.555351 18725 net.cpp:425] inception_4b/relu_1x1 <- inception_4b/1x1
I0403 19:05:58.555368 18725 net.cpp:386] inception_4b/relu_1x1 -> inception_4b/1x1 (in-place)
I0403 19:05:58.555551 18725 net.cpp:141] Setting up inception_4b/relu_1x1
I0403 19:05:58.555577 18725 net.cpp:148] Top shape: 24 160 14 14 (752640)
I0403 19:05:58.555590 18725 net.cpp:156] Memory required for data: 952225056
I0403 19:05:58.555605 18725 layer_factory.hpp:77] Creating layer inception_4b/3x3_reduce
I0403 19:05:58.555627 18725 net.cpp:91] Creating Layer inception_4b/3x3_reduce
I0403 19:05:58.555644 18725 net.cpp:425] inception_4b/3x3_reduce <- inception_4a/output_inception_4a/output_0_split_2
I0403 19:05:58.555665 18725 net.cpp:399] inception_4b/3x3_reduce -> inception_4b/3x3_reduce
I0403 19:05:58.557015 18725 net.cpp:141] Setting up inception_4b/3x3_reduce
I0403 19:05:58.557045 18725 net.cpp:148] Top shape: 24 112 14 14 (526848)
I0403 19:05:58.557062 18725 net.cpp:156] Memory required for data: 954332448
I0403 19:05:58.557080 18725 layer_factory.hpp:77] Creating layer inception_4b/relu_3x3_reduce
I0403 19:05:58.557099 18725 net.cpp:91] Creating Layer inception_4b/relu_3x3_reduce
I0403 19:05:58.557114 18725 net.cpp:425] inception_4b/relu_3x3_reduce <- inception_4b/3x3_reduce
I0403 19:05:58.557133 18725 net.cpp:386] inception_4b/relu_3x3_reduce -> inception_4b/3x3_reduce (in-place)
I0403 19:05:58.557415 18725 net.cpp:141] Setting up inception_4b/relu_3x3_reduce
I0403 19:05:58.557446 18725 net.cpp:148] Top shape: 24 112 14 14 (526848)
I0403 19:05:58.557462 18725 net.cpp:156] Memory required for data: 956439840
I0403 19:05:58.557477 18725 layer_factory.hpp:77] Creating layer inception_4b/3x3
I0403 19:05:58.557500 18725 net.cpp:91] Creating Layer inception_4b/3x3
I0403 19:05:58.557518 18725 net.cpp:425] inception_4b/3x3 <- inception_4b/3x3_reduce
I0403 19:05:58.557540 18725 net.cpp:399] inception_4b/3x3 -> inception_4b/3x3
I0403 19:05:58.560513 18725 net.cpp:141] Setting up inception_4b/3x3
I0403 19:05:58.560541 18725 net.cpp:148] Top shape: 24 224 14 14 (1053696)
I0403 19:05:58.560557 18725 net.cpp:156] Memory required for data: 960654624
I0403 19:05:58.560575 18725 layer_factory.hpp:77] Creating layer inception_4b/relu_3x3
I0403 19:05:58.560595 18725 net.cpp:91] Creating Layer inception_4b/relu_3x3
I0403 19:05:58.560612 18725 net.cpp:425] inception_4b/relu_3x3 <- inception_4b/3x3
I0403 19:05:58.560629 18725 net.cpp:386] inception_4b/relu_3x3 -> inception_4b/3x3 (in-place)
I0403 19:05:58.560812 18725 net.cpp:141] Setting up inception_4b/relu_3x3
I0403 19:05:58.560839 18725 net.cpp:148] Top shape: 24 224 14 14 (1053696)
I0403 19:05:58.560855 18725 net.cpp:156] Memory required for data: 964869408
I0403 19:05:58.560869 18725 layer_factory.hpp:77] Creating layer inception_4b/5x5_reduce
I0403 19:05:58.560891 18725 net.cpp:91] Creating Layer inception_4b/5x5_reduce
I0403 19:05:58.560909 18725 net.cpp:425] inception_4b/5x5_reduce <- inception_4a/output_inception_4a/output_0_split_3
I0403 19:05:58.560928 18725 net.cpp:399] inception_4b/5x5_reduce -> inception_4b/5x5_reduce
I0403 19:05:58.562014 18725 net.cpp:141] Setting up inception_4b/5x5_reduce
I0403 19:05:58.562044 18725 net.cpp:148] Top shape: 24 24 14 14 (112896)
I0403 19:05:58.562060 18725 net.cpp:156] Memory required for data: 965320992
I0403 19:05:58.562079 18725 layer_factory.hpp:77] Creating layer inception_4b/relu_5x5_reduce
I0403 19:05:58.562098 18725 net.cpp:91] Creating Layer inception_4b/relu_5x5_reduce
I0403 19:05:58.562129 18725 net.cpp:425] inception_4b/relu_5x5_reduce <- inception_4b/5x5_reduce
I0403 19:05:58.562150 18725 net.cpp:386] inception_4b/relu_5x5_reduce -> inception_4b/5x5_reduce (in-place)
I0403 19:05:58.562333 18725 net.cpp:141] Setting up inception_4b/relu_5x5_reduce
I0403 19:05:58.562360 18725 net.cpp:148] Top shape: 24 24 14 14 (112896)
I0403 19:05:58.562373 18725 net.cpp:156] Memory required for data: 965772576
I0403 19:05:58.562388 18725 layer_factory.hpp:77] Creating layer inception_4b/5x5
I0403 19:05:58.562410 18725 net.cpp:91] Creating Layer inception_4b/5x5
I0403 19:05:58.562428 18725 net.cpp:425] inception_4b/5x5 <- inception_4b/5x5_reduce
I0403 19:05:58.562449 18725 net.cpp:399] inception_4b/5x5 -> inception_4b/5x5
I0403 19:05:58.563673 18725 net.cpp:141] Setting up inception_4b/5x5
I0403 19:05:58.563704 18725 net.cpp:148] Top shape: 24 64 14 14 (301056)
I0403 19:05:58.563719 18725 net.cpp:156] Memory required for data: 966976800
I0403 19:05:58.563738 18725 layer_factory.hpp:77] Creating layer inception_4b/relu_5x5
I0403 19:05:58.563756 18725 net.cpp:91] Creating Layer inception_4b/relu_5x5
I0403 19:05:58.563772 18725 net.cpp:425] inception_4b/relu_5x5 <- inception_4b/5x5
I0403 19:05:58.563789 18725 net.cpp:386] inception_4b/relu_5x5 -> inception_4b/5x5 (in-place)
I0403 19:05:58.564077 18725 net.cpp:141] Setting up inception_4b/relu_5x5
I0403 19:05:58.564105 18725 net.cpp:148] Top shape: 24 64 14 14 (301056)
I0403 19:05:58.564121 18725 net.cpp:156] Memory required for data: 968181024
I0403 19:05:58.564136 18725 layer_factory.hpp:77] Creating layer inception_4b/pool
I0403 19:05:58.564155 18725 net.cpp:91] Creating Layer inception_4b/pool
I0403 19:05:58.564172 18725 net.cpp:425] inception_4b/pool <- inception_4a/output_inception_4a/output_0_split_4
I0403 19:05:58.564189 18725 net.cpp:399] inception_4b/pool -> inception_4b/pool
I0403 19:05:58.564255 18725 net.cpp:141] Setting up inception_4b/pool
I0403 19:05:58.564280 18725 net.cpp:148] Top shape: 24 512 14 14 (2408448)
I0403 19:05:58.564293 18725 net.cpp:156] Memory required for data: 977814816
I0403 19:05:58.564308 18725 layer_factory.hpp:77] Creating layer inception_4b/pool_proj
I0403 19:05:58.564330 18725 net.cpp:91] Creating Layer inception_4b/pool_proj
I0403 19:05:58.564347 18725 net.cpp:425] inception_4b/pool_proj <- inception_4b/pool
I0403 19:05:58.564368 18725 net.cpp:399] inception_4b/pool_proj -> inception_4b/pool_proj
I0403 19:05:58.565560 18725 net.cpp:141] Setting up inception_4b/pool_proj
I0403 19:05:58.565589 18725 net.cpp:148] Top shape: 24 64 14 14 (301056)
I0403 19:05:58.565605 18725 net.cpp:156] Memory required for data: 979019040
I0403 19:05:58.565624 18725 layer_factory.hpp:77] Creating layer inception_4b/relu_pool_proj
I0403 19:05:58.565641 18725 net.cpp:91] Creating Layer inception_4b/relu_pool_proj
I0403 19:05:58.565670 18725 net.cpp:425] inception_4b/relu_pool_proj <- inception_4b/pool_proj
I0403 19:05:58.565690 18725 net.cpp:386] inception_4b/relu_pool_proj -> inception_4b/pool_proj (in-place)
I0403 19:05:58.565879 18725 net.cpp:141] Setting up inception_4b/relu_pool_proj
I0403 19:05:58.565906 18725 net.cpp:148] Top shape: 24 64 14 14 (301056)
I0403 19:05:58.565922 18725 net.cpp:156] Memory required for data: 980223264
I0403 19:05:58.565937 18725 layer_factory.hpp:77] Creating layer inception_4b/output
I0403 19:05:58.565970 18725 net.cpp:91] Creating Layer inception_4b/output
I0403 19:05:58.565987 18725 net.cpp:425] inception_4b/output <- inception_4b/1x1
I0403 19:05:58.566004 18725 net.cpp:425] inception_4b/output <- inception_4b/3x3
I0403 19:05:58.566020 18725 net.cpp:425] inception_4b/output <- inception_4b/5x5
I0403 19:05:58.566036 18725 net.cpp:425] inception_4b/output <- inception_4b/pool_proj
I0403 19:05:58.566056 18725 net.cpp:399] inception_4b/output -> inception_4b/output
I0403 19:05:58.566100 18725 net.cpp:141] Setting up inception_4b/output
I0403 19:05:58.566125 18725 net.cpp:148] Top shape: 24 512 14 14 (2408448)
I0403 19:05:58.566140 18725 net.cpp:156] Memory required for data: 989857056
I0403 19:05:58.566169 18725 layer_factory.hpp:77] Creating layer inception_4b/output_inception_4b/output_0_split
I0403 19:05:58.566187 18725 net.cpp:91] Creating Layer inception_4b/output_inception_4b/output_0_split
I0403 19:05:58.566205 18725 net.cpp:425] inception_4b/output_inception_4b/output_0_split <- inception_4b/output
I0403 19:05:58.566225 18725 net.cpp:399] inception_4b/output_inception_4b/output_0_split -> inception_4b/output_inception_4b/output_0_split_0
I0403 19:05:58.566244 18725 net.cpp:399] inception_4b/output_inception_4b/output_0_split -> inception_4b/output_inception_4b/output_0_split_1
I0403 19:05:58.566264 18725 net.cpp:399] inception_4b/output_inception_4b/output_0_split -> inception_4b/output_inception_4b/output_0_split_2
I0403 19:05:58.566283 18725 net.cpp:399] inception_4b/output_inception_4b/output_0_split -> inception_4b/output_inception_4b/output_0_split_3
I0403 19:05:58.566365 18725 net.cpp:141] Setting up inception_4b/output_inception_4b/output_0_split
I0403 19:05:58.566387 18725 net.cpp:148] Top shape: 24 512 14 14 (2408448)
I0403 19:05:58.566407 18725 net.cpp:148] Top shape: 24 512 14 14 (2408448)
I0403 19:05:58.566422 18725 net.cpp:148] Top shape: 24 512 14 14 (2408448)
I0403 19:05:58.566437 18725 net.cpp:148] Top shape: 24 512 14 14 (2408448)
I0403 19:05:58.566452 18725 net.cpp:156] Memory required for data: 1028392224
I0403 19:05:58.566465 18725 layer_factory.hpp:77] Creating layer inception_4c/1x1
I0403 19:05:58.566485 18725 net.cpp:91] Creating Layer inception_4c/1x1
I0403 19:05:58.566503 18725 net.cpp:425] inception_4c/1x1 <- inception_4b/output_inception_4b/output_0_split_0
I0403 19:05:58.566522 18725 net.cpp:399] inception_4c/1x1 -> inception_4c/1x1
I0403 19:05:58.567971 18725 net.cpp:141] Setting up inception_4c/1x1
I0403 19:05:58.568001 18725 net.cpp:148] Top shape: 24 128 14 14 (602112)
I0403 19:05:58.568017 18725 net.cpp:156] Memory required for data: 1030800672
I0403 19:05:58.568035 18725 layer_factory.hpp:77] Creating layer inception_4c/relu_1x1
I0403 19:05:58.568058 18725 net.cpp:91] Creating Layer inception_4c/relu_1x1
I0403 19:05:58.568075 18725 net.cpp:425] inception_4c/relu_1x1 <- inception_4c/1x1
I0403 19:05:58.568094 18725 net.cpp:386] inception_4c/relu_1x1 -> inception_4c/1x1 (in-place)
I0403 19:05:58.568276 18725 net.cpp:141] Setting up inception_4c/relu_1x1
I0403 19:05:58.568302 18725 net.cpp:148] Top shape: 24 128 14 14 (602112)
I0403 19:05:58.568318 18725 net.cpp:156] Memory required for data: 1033209120
I0403 19:05:58.568333 18725 layer_factory.hpp:77] Creating layer inception_4c/3x3_reduce
I0403 19:05:58.568361 18725 net.cpp:91] Creating Layer inception_4c/3x3_reduce
I0403 19:05:58.568378 18725 net.cpp:425] inception_4c/3x3_reduce <- inception_4b/output_inception_4b/output_0_split_1
I0403 19:05:58.568398 18725 net.cpp:399] inception_4c/3x3_reduce -> inception_4c/3x3_reduce
I0403 19:05:58.570377 18725 net.cpp:141] Setting up inception_4c/3x3_reduce
I0403 19:05:58.570406 18725 net.cpp:148] Top shape: 24 128 14 14 (602112)
I0403 19:05:58.570421 18725 net.cpp:156] Memory required for data: 1035617568
I0403 19:05:58.570441 18725 layer_factory.hpp:77] Creating layer inception_4c/relu_3x3_reduce
I0403 19:05:58.570461 18725 net.cpp:91] Creating Layer inception_4c/relu_3x3_reduce
I0403 19:05:58.570478 18725 net.cpp:425] inception_4c/relu_3x3_reduce <- inception_4c/3x3_reduce
I0403 19:05:58.570495 18725 net.cpp:386] inception_4c/relu_3x3_reduce -> inception_4c/3x3_reduce (in-place)
I0403 19:05:58.570781 18725 net.cpp:141] Setting up inception_4c/relu_3x3_reduce
I0403 19:05:58.570807 18725 net.cpp:148] Top shape: 24 128 14 14 (602112)
I0403 19:05:58.570822 18725 net.cpp:156] Memory required for data: 1038026016
I0403 19:05:58.570837 18725 layer_factory.hpp:77] Creating layer inception_4c/3x3
I0403 19:05:58.570863 18725 net.cpp:91] Creating Layer inception_4c/3x3
I0403 19:05:58.570880 18725 net.cpp:425] inception_4c/3x3 <- inception_4c/3x3_reduce
I0403 19:05:58.570899 18725 net.cpp:399] inception_4c/3x3 -> inception_4c/3x3
I0403 19:05:58.574533 18725 net.cpp:141] Setting up inception_4c/3x3
I0403 19:05:58.574575 18725 net.cpp:148] Top shape: 24 256 14 14 (1204224)
I0403 19:05:58.574594 18725 net.cpp:156] Memory required for data: 1042842912
I0403 19:05:58.574625 18725 layer_factory.hpp:77] Creating layer inception_4c/relu_3x3
I0403 19:05:58.574646 18725 net.cpp:91] Creating Layer inception_4c/relu_3x3
I0403 19:05:58.574662 18725 net.cpp:425] inception_4c/relu_3x3 <- inception_4c/3x3
I0403 19:05:58.574679 18725 net.cpp:386] inception_4c/relu_3x3 -> inception_4c/3x3 (in-place)
I0403 19:05:58.574862 18725 net.cpp:141] Setting up inception_4c/relu_3x3
I0403 19:05:58.574889 18725 net.cpp:148] Top shape: 24 256 14 14 (1204224)
I0403 19:05:58.574905 18725 net.cpp:156] Memory required for data: 1047659808
I0403 19:05:58.574920 18725 layer_factory.hpp:77] Creating layer inception_4c/5x5_reduce
I0403 19:05:58.574944 18725 net.cpp:91] Creating Layer inception_4c/5x5_reduce
I0403 19:05:58.574965 18725 net.cpp:425] inception_4c/5x5_reduce <- inception_4b/output_inception_4b/output_0_split_2
I0403 19:05:58.574985 18725 net.cpp:399] inception_4c/5x5_reduce -> inception_4c/5x5_reduce
I0403 19:05:58.576092 18725 net.cpp:141] Setting up inception_4c/5x5_reduce
I0403 19:05:58.576122 18725 net.cpp:148] Top shape: 24 24 14 14 (112896)
I0403 19:05:58.576138 18725 net.cpp:156] Memory required for data: 1048111392
I0403 19:05:58.576158 18725 layer_factory.hpp:77] Creating layer inception_4c/relu_5x5_reduce
I0403 19:05:58.576176 18725 net.cpp:91] Creating Layer inception_4c/relu_5x5_reduce
I0403 19:05:58.576202 18725 net.cpp:425] inception_4c/relu_5x5_reduce <- inception_4c/5x5_reduce
I0403 19:05:58.576221 18725 net.cpp:386] inception_4c/relu_5x5_reduce -> inception_4c/5x5_reduce (in-place)
I0403 19:05:58.576403 18725 net.cpp:141] Setting up inception_4c/relu_5x5_reduce
I0403 19:05:58.576428 18725 net.cpp:148] Top shape: 24 24 14 14 (112896)
I0403 19:05:58.576443 18725 net.cpp:156] Memory required for data: 1048562976
I0403 19:05:58.576457 18725 layer_factory.hpp:77] Creating layer inception_4c/5x5
I0403 19:05:58.576481 18725 net.cpp:91] Creating Layer inception_4c/5x5
I0403 19:05:58.576500 18725 net.cpp:425] inception_4c/5x5 <- inception_4c/5x5_reduce
I0403 19:05:58.576521 18725 net.cpp:399] inception_4c/5x5 -> inception_4c/5x5
I0403 19:05:58.577772 18725 net.cpp:141] Setting up inception_4c/5x5
I0403 19:05:58.577800 18725 net.cpp:148] Top shape: 24 64 14 14 (301056)
I0403 19:05:58.577814 18725 net.cpp:156] Memory required for data: 1049767200
I0403 19:05:58.577833 18725 layer_factory.hpp:77] Creating layer inception_4c/relu_5x5
I0403 19:05:58.577853 18725 net.cpp:91] Creating Layer inception_4c/relu_5x5
I0403 19:05:58.577870 18725 net.cpp:425] inception_4c/relu_5x5 <- inception_4c/5x5
I0403 19:05:58.577888 18725 net.cpp:386] inception_4c/relu_5x5 -> inception_4c/5x5 (in-place)
I0403 19:05:58.578186 18725 net.cpp:141] Setting up inception_4c/relu_5x5
I0403 19:05:58.578213 18725 net.cpp:148] Top shape: 24 64 14 14 (301056)
I0403 19:05:58.578229 18725 net.cpp:156] Memory required for data: 1050971424
I0403 19:05:58.578244 18725 layer_factory.hpp:77] Creating layer inception_4c/pool
I0403 19:05:58.578263 18725 net.cpp:91] Creating Layer inception_4c/pool
I0403 19:05:58.578279 18725 net.cpp:425] inception_4c/pool <- inception_4b/output_inception_4b/output_0_split_3
I0403 19:05:58.578299 18725 net.cpp:399] inception_4c/pool -> inception_4c/pool
I0403 19:05:58.578363 18725 net.cpp:141] Setting up inception_4c/pool
I0403 19:05:58.578387 18725 net.cpp:148] Top shape: 24 512 14 14 (2408448)
I0403 19:05:58.578402 18725 net.cpp:156] Memory required for data: 1060605216
I0403 19:05:58.578416 18725 layer_factory.hpp:77] Creating layer inception_4c/pool_proj
I0403 19:05:58.578438 18725 net.cpp:91] Creating Layer inception_4c/pool_proj
I0403 19:05:58.578456 18725 net.cpp:425] inception_4c/pool_proj <- inception_4c/pool
I0403 19:05:58.578476 18725 net.cpp:399] inception_4c/pool_proj -> inception_4c/pool_proj
I0403 19:05:58.579730 18725 net.cpp:141] Setting up inception_4c/pool_proj
I0403 19:05:58.579762 18725 net.cpp:148] Top shape: 24 64 14 14 (301056)
I0403 19:05:58.579792 18725 net.cpp:156] Memory required for data: 1061809440
I0403 19:05:58.579813 18725 layer_factory.hpp:77] Creating layer inception_4c/relu_pool_proj
I0403 19:05:58.579829 18725 net.cpp:91] Creating Layer inception_4c/relu_pool_proj
I0403 19:05:58.579845 18725 net.cpp:425] inception_4c/relu_pool_proj <- inception_4c/pool_proj
I0403 19:05:58.579862 18725 net.cpp:386] inception_4c/relu_pool_proj -> inception_4c/pool_proj (in-place)
I0403 19:05:58.580070 18725 net.cpp:141] Setting up inception_4c/relu_pool_proj
I0403 19:05:58.580096 18725 net.cpp:148] Top shape: 24 64 14 14 (301056)
I0403 19:05:58.580112 18725 net.cpp:156] Memory required for data: 1063013664
I0403 19:05:58.580127 18725 layer_factory.hpp:77] Creating layer inception_4c/output
I0403 19:05:58.580144 18725 net.cpp:91] Creating Layer inception_4c/output
I0403 19:05:58.580160 18725 net.cpp:425] inception_4c/output <- inception_4c/1x1
I0403 19:05:58.580178 18725 net.cpp:425] inception_4c/output <- inception_4c/3x3
I0403 19:05:58.580194 18725 net.cpp:425] inception_4c/output <- inception_4c/5x5
I0403 19:05:58.580210 18725 net.cpp:425] inception_4c/output <- inception_4c/pool_proj
I0403 19:05:58.580232 18725 net.cpp:399] inception_4c/output -> inception_4c/output
I0403 19:05:58.580281 18725 net.cpp:141] Setting up inception_4c/output
I0403 19:05:58.580312 18725 net.cpp:148] Top shape: 24 512 14 14 (2408448)
I0403 19:05:58.580328 18725 net.cpp:156] Memory required for data: 1072647456
I0403 19:05:58.580343 18725 layer_factory.hpp:77] Creating layer inception_4c/output_inception_4c/output_0_split
I0403 19:05:58.580361 18725 net.cpp:91] Creating Layer inception_4c/output_inception_4c/output_0_split
I0403 19:05:58.580376 18725 net.cpp:425] inception_4c/output_inception_4c/output_0_split <- inception_4c/output
I0403 19:05:58.580396 18725 net.cpp:399] inception_4c/output_inception_4c/output_0_split -> inception_4c/output_inception_4c/output_0_split_0
I0403 19:05:58.580417 18725 net.cpp:399] inception_4c/output_inception_4c/output_0_split -> inception_4c/output_inception_4c/output_0_split_1
I0403 19:05:58.580438 18725 net.cpp:399] inception_4c/output_inception_4c/output_0_split -> inception_4c/output_inception_4c/output_0_split_2
I0403 19:05:58.580459 18725 net.cpp:399] inception_4c/output_inception_4c/output_0_split -> inception_4c/output_inception_4c/output_0_split_3
I0403 19:05:58.580545 18725 net.cpp:141] Setting up inception_4c/output_inception_4c/output_0_split
I0403 19:05:58.580570 18725 net.cpp:148] Top shape: 24 512 14 14 (2408448)
I0403 19:05:58.580586 18725 net.cpp:148] Top shape: 24 512 14 14 (2408448)
I0403 19:05:58.580602 18725 net.cpp:148] Top shape: 24 512 14 14 (2408448)
I0403 19:05:58.580617 18725 net.cpp:148] Top shape: 24 512 14 14 (2408448)
I0403 19:05:58.580631 18725 net.cpp:156] Memory required for data: 1111182624
I0403 19:05:58.580646 18725 layer_factory.hpp:77] Creating layer inception_4d/1x1
I0403 19:05:58.580669 18725 net.cpp:91] Creating Layer inception_4d/1x1
I0403 19:05:58.580687 18725 net.cpp:425] inception_4d/1x1 <- inception_4c/output_inception_4c/output_0_split_0
I0403 19:05:58.580708 18725 net.cpp:399] inception_4d/1x1 -> inception_4d/1x1
I0403 19:05:58.582135 18725 net.cpp:141] Setting up inception_4d/1x1
I0403 19:05:58.582165 18725 net.cpp:148] Top shape: 24 112 14 14 (526848)
I0403 19:05:58.582181 18725 net.cpp:156] Memory required for data: 1113290016
I0403 19:05:58.582200 18725 layer_factory.hpp:77] Creating layer inception_4d/relu_1x1
I0403 19:05:58.582221 18725 net.cpp:91] Creating Layer inception_4d/relu_1x1
I0403 19:05:58.582238 18725 net.cpp:425] inception_4d/relu_1x1 <- inception_4d/1x1
I0403 19:05:58.582255 18725 net.cpp:386] inception_4d/relu_1x1 -> inception_4d/1x1 (in-place)
I0403 19:05:58.582448 18725 net.cpp:141] Setting up inception_4d/relu_1x1
I0403 19:05:58.582475 18725 net.cpp:148] Top shape: 24 112 14 14 (526848)
I0403 19:05:58.582492 18725 net.cpp:156] Memory required for data: 1115397408
I0403 19:05:58.582507 18725 layer_factory.hpp:77] Creating layer inception_4d/3x3_reduce
I0403 19:05:58.582545 18725 net.cpp:91] Creating Layer inception_4d/3x3_reduce
I0403 19:05:58.582563 18725 net.cpp:425] inception_4d/3x3_reduce <- inception_4c/output_inception_4c/output_0_split_1
I0403 19:05:58.582582 18725 net.cpp:399] inception_4d/3x3_reduce -> inception_4d/3x3_reduce
I0403 19:05:58.584139 18725 net.cpp:141] Setting up inception_4d/3x3_reduce
I0403 19:05:58.584167 18725 net.cpp:148] Top shape: 24 144 14 14 (677376)
I0403 19:05:58.584183 18725 net.cpp:156] Memory required for data: 1118106912
I0403 19:05:58.584203 18725 layer_factory.hpp:77] Creating layer inception_4d/relu_3x3_reduce
I0403 19:05:58.584224 18725 net.cpp:91] Creating Layer inception_4d/relu_3x3_reduce
I0403 19:05:58.584241 18725 net.cpp:425] inception_4d/relu_3x3_reduce <- inception_4d/3x3_reduce
I0403 19:05:58.584259 18725 net.cpp:386] inception_4d/relu_3x3_reduce -> inception_4d/3x3_reduce (in-place)
I0403 19:05:58.584558 18725 net.cpp:141] Setting up inception_4d/relu_3x3_reduce
I0403 19:05:58.584585 18725 net.cpp:148] Top shape: 24 144 14 14 (677376)
I0403 19:05:58.584601 18725 net.cpp:156] Memory required for data: 1120816416
I0403 19:05:58.584616 18725 layer_factory.hpp:77] Creating layer inception_4d/3x3
I0403 19:05:58.584640 18725 net.cpp:91] Creating Layer inception_4d/3x3
I0403 19:05:58.584658 18725 net.cpp:425] inception_4d/3x3 <- inception_4d/3x3_reduce
I0403 19:05:58.584681 18725 net.cpp:399] inception_4d/3x3 -> inception_4d/3x3
I0403 19:05:58.589071 18725 net.cpp:141] Setting up inception_4d/3x3
I0403 19:05:58.589100 18725 net.cpp:148] Top shape: 24 288 14 14 (1354752)
I0403 19:05:58.589117 18725 net.cpp:156] Memory required for data: 1126235424
I0403 19:05:58.589135 18725 layer_factory.hpp:77] Creating layer inception_4d/relu_3x3
I0403 19:05:58.589156 18725 net.cpp:91] Creating Layer inception_4d/relu_3x3
I0403 19:05:58.589174 18725 net.cpp:425] inception_4d/relu_3x3 <- inception_4d/3x3
I0403 19:05:58.589192 18725 net.cpp:386] inception_4d/relu_3x3 -> inception_4d/3x3 (in-place)
I0403 19:05:58.589385 18725 net.cpp:141] Setting up inception_4d/relu_3x3
I0403 19:05:58.589413 18725 net.cpp:148] Top shape: 24 288 14 14 (1354752)
I0403 19:05:58.589428 18725 net.cpp:156] Memory required for data: 1131654432
I0403 19:05:58.589443 18725 layer_factory.hpp:77] Creating layer inception_4d/5x5_reduce
I0403 19:05:58.589468 18725 net.cpp:91] Creating Layer inception_4d/5x5_reduce
I0403 19:05:58.589486 18725 net.cpp:425] inception_4d/5x5_reduce <- inception_4c/output_inception_4c/output_0_split_2
I0403 19:05:58.589507 18725 net.cpp:399] inception_4d/5x5_reduce -> inception_4d/5x5_reduce
I0403 19:05:58.590698 18725 net.cpp:141] Setting up inception_4d/5x5_reduce
I0403 19:05:58.590726 18725 net.cpp:148] Top shape: 24 32 14 14 (150528)
I0403 19:05:58.590741 18725 net.cpp:156] Memory required for data: 1132256544
I0403 19:05:58.590760 18725 layer_factory.hpp:77] Creating layer inception_4d/relu_5x5_reduce
I0403 19:05:58.590782 18725 net.cpp:91] Creating Layer inception_4d/relu_5x5_reduce
I0403 19:05:58.590798 18725 net.cpp:425] inception_4d/relu_5x5_reduce <- inception_4d/5x5_reduce
I0403 19:05:58.590816 18725 net.cpp:386] inception_4d/relu_5x5_reduce -> inception_4d/5x5_reduce (in-place)
I0403 19:05:58.591015 18725 net.cpp:141] Setting up inception_4d/relu_5x5_reduce
I0403 19:05:58.591043 18725 net.cpp:148] Top shape: 24 32 14 14 (150528)
I0403 19:05:58.591059 18725 net.cpp:156] Memory required for data: 1132858656
I0403 19:05:58.591075 18725 layer_factory.hpp:77] Creating layer inception_4d/5x5
I0403 19:05:58.591097 18725 net.cpp:91] Creating Layer inception_4d/5x5
I0403 19:05:58.591116 18725 net.cpp:425] inception_4d/5x5 <- inception_4d/5x5_reduce
I0403 19:05:58.591135 18725 net.cpp:399] inception_4d/5x5 -> inception_4d/5x5
I0403 19:05:58.592664 18725 net.cpp:141] Setting up inception_4d/5x5
I0403 19:05:58.592695 18725 net.cpp:148] Top shape: 24 64 14 14 (301056)
I0403 19:05:58.592712 18725 net.cpp:156] Memory required for data: 1134062880
I0403 19:05:58.592731 18725 layer_factory.hpp:77] Creating layer inception_4d/relu_5x5
I0403 19:05:58.592764 18725 net.cpp:91] Creating Layer inception_4d/relu_5x5
I0403 19:05:58.592782 18725 net.cpp:425] inception_4d/relu_5x5 <- inception_4d/5x5
I0403 19:05:58.592803 18725 net.cpp:386] inception_4d/relu_5x5 -> inception_4d/5x5 (in-place)
I0403 19:05:58.593122 18725 net.cpp:141] Setting up inception_4d/relu_5x5
I0403 19:05:58.593152 18725 net.cpp:148] Top shape: 24 64 14 14 (301056)
I0403 19:05:58.593168 18725 net.cpp:156] Memory required for data: 1135267104
I0403 19:05:58.593183 18725 layer_factory.hpp:77] Creating layer inception_4d/pool
I0403 19:05:58.593201 18725 net.cpp:91] Creating Layer inception_4d/pool
I0403 19:05:58.593219 18725 net.cpp:425] inception_4d/pool <- inception_4c/output_inception_4c/output_0_split_3
I0403 19:05:58.593240 18725 net.cpp:399] inception_4d/pool -> inception_4d/pool
I0403 19:05:58.593307 18725 net.cpp:141] Setting up inception_4d/pool
I0403 19:05:58.593334 18725 net.cpp:148] Top shape: 24 512 14 14 (2408448)
I0403 19:05:58.593350 18725 net.cpp:156] Memory required for data: 1144900896
I0403 19:05:58.593365 18725 layer_factory.hpp:77] Creating layer inception_4d/pool_proj
I0403 19:05:58.593389 18725 net.cpp:91] Creating Layer inception_4d/pool_proj
I0403 19:05:58.593405 18725 net.cpp:425] inception_4d/pool_proj <- inception_4d/pool
I0403 19:05:58.593425 18725 net.cpp:399] inception_4d/pool_proj -> inception_4d/pool_proj
I0403 19:05:58.595233 18725 net.cpp:141] Setting up inception_4d/pool_proj
I0403 19:05:58.595263 18725 net.cpp:148] Top shape: 24 64 14 14 (301056)
I0403 19:05:58.595279 18725 net.cpp:156] Memory required for data: 1146105120
I0403 19:05:58.595299 18725 layer_factory.hpp:77] Creating layer inception_4d/relu_pool_proj
I0403 19:05:58.595319 18725 net.cpp:91] Creating Layer inception_4d/relu_pool_proj
I0403 19:05:58.595337 18725 net.cpp:425] inception_4d/relu_pool_proj <- inception_4d/pool_proj
I0403 19:05:58.595355 18725 net.cpp:386] inception_4d/relu_pool_proj -> inception_4d/pool_proj (in-place)
I0403 19:05:58.595547 18725 net.cpp:141] Setting up inception_4d/relu_pool_proj
I0403 19:05:58.595573 18725 net.cpp:148] Top shape: 24 64 14 14 (301056)
I0403 19:05:58.595588 18725 net.cpp:156] Memory required for data: 1147309344
I0403 19:05:58.595604 18725 layer_factory.hpp:77] Creating layer inception_4d/output
I0403 19:05:58.595623 18725 net.cpp:91] Creating Layer inception_4d/output
I0403 19:05:58.595638 18725 net.cpp:425] inception_4d/output <- inception_4d/1x1
I0403 19:05:58.595655 18725 net.cpp:425] inception_4d/output <- inception_4d/3x3
I0403 19:05:58.595671 18725 net.cpp:425] inception_4d/output <- inception_4d/5x5
I0403 19:05:58.595688 18725 net.cpp:425] inception_4d/output <- inception_4d/pool_proj
I0403 19:05:58.595705 18725 net.cpp:399] inception_4d/output -> inception_4d/output
I0403 19:05:58.595757 18725 net.cpp:141] Setting up inception_4d/output
I0403 19:05:58.595779 18725 net.cpp:148] Top shape: 24 528 14 14 (2483712)
I0403 19:05:58.595794 18725 net.cpp:156] Memory required for data: 1157244192
I0403 19:05:58.595809 18725 layer_factory.hpp:77] Creating layer inception_4d/output_inception_4d/output_0_split
I0403 19:05:58.595832 18725 net.cpp:91] Creating Layer inception_4d/output_inception_4d/output_0_split
I0403 19:05:58.595849 18725 net.cpp:425] inception_4d/output_inception_4d/output_0_split <- inception_4d/output
I0403 19:05:58.595867 18725 net.cpp:399] inception_4d/output_inception_4d/output_0_split -> inception_4d/output_inception_4d/output_0_split_0
I0403 19:05:58.595888 18725 net.cpp:399] inception_4d/output_inception_4d/output_0_split -> inception_4d/output_inception_4d/output_0_split_1
I0403 19:05:58.595911 18725 net.cpp:399] inception_4d/output_inception_4d/output_0_split -> inception_4d/output_inception_4d/output_0_split_2
I0403 19:05:58.595934 18725 net.cpp:399] inception_4d/output_inception_4d/output_0_split -> inception_4d/output_inception_4d/output_0_split_3
I0403 19:05:58.595960 18725 net.cpp:399] inception_4d/output_inception_4d/output_0_split -> inception_4d/output_inception_4d/output_0_split_4
I0403 19:05:58.596067 18725 net.cpp:141] Setting up inception_4d/output_inception_4d/output_0_split
I0403 19:05:58.596107 18725 net.cpp:148] Top shape: 24 528 14 14 (2483712)
I0403 19:05:58.596123 18725 net.cpp:148] Top shape: 24 528 14 14 (2483712)
I0403 19:05:58.596139 18725 net.cpp:148] Top shape: 24 528 14 14 (2483712)
I0403 19:05:58.596154 18725 net.cpp:148] Top shape: 24 528 14 14 (2483712)
I0403 19:05:58.596170 18725 net.cpp:148] Top shape: 24 528 14 14 (2483712)
I0403 19:05:58.596184 18725 net.cpp:156] Memory required for data: 1206918432
I0403 19:05:58.596199 18725 layer_factory.hpp:77] Creating layer loss2/ave_pool
I0403 19:05:58.596220 18725 net.cpp:91] Creating Layer loss2/ave_pool
I0403 19:05:58.596238 18725 net.cpp:425] loss2/ave_pool <- inception_4d/output_inception_4d/output_0_split_0
I0403 19:05:58.596257 18725 net.cpp:399] loss2/ave_pool -> loss2/ave_pool
I0403 19:05:58.596580 18725 net.cpp:141] Setting up loss2/ave_pool
I0403 19:05:58.596607 18725 net.cpp:148] Top shape: 24 528 4 4 (202752)
I0403 19:05:58.596623 18725 net.cpp:156] Memory required for data: 1207729440
I0403 19:05:58.596638 18725 layer_factory.hpp:77] Creating layer loss2/conv
I0403 19:05:58.596662 18725 net.cpp:91] Creating Layer loss2/conv
I0403 19:05:58.596681 18725 net.cpp:425] loss2/conv <- loss2/ave_pool
I0403 19:05:58.596700 18725 net.cpp:399] loss2/conv -> loss2/conv
I0403 19:05:58.598644 18725 net.cpp:141] Setting up loss2/conv
I0403 19:05:58.598675 18725 net.cpp:148] Top shape: 24 128 4 4 (49152)
I0403 19:05:58.598690 18725 net.cpp:156] Memory required for data: 1207926048
I0403 19:05:58.598708 18725 layer_factory.hpp:77] Creating layer loss2/relu_conv
I0403 19:05:58.598726 18725 net.cpp:91] Creating Layer loss2/relu_conv
I0403 19:05:58.598742 18725 net.cpp:425] loss2/relu_conv <- loss2/conv
I0403 19:05:58.598762 18725 net.cpp:386] loss2/relu_conv -> loss2/conv (in-place)
I0403 19:05:58.599062 18725 net.cpp:141] Setting up loss2/relu_conv
I0403 19:05:58.599089 18725 net.cpp:148] Top shape: 24 128 4 4 (49152)
I0403 19:05:58.599104 18725 net.cpp:156] Memory required for data: 1208122656
I0403 19:05:58.599119 18725 layer_factory.hpp:77] Creating layer loss2/fc
I0403 19:05:58.599138 18725 net.cpp:91] Creating Layer loss2/fc
I0403 19:05:58.599155 18725 net.cpp:425] loss2/fc <- loss2/conv
I0403 19:05:58.599175 18725 net.cpp:399] loss2/fc -> loss2/fc
I0403 19:05:58.616727 18725 net.cpp:141] Setting up loss2/fc
I0403 19:05:58.616765 18725 net.cpp:148] Top shape: 24 1024 (24576)
I0403 19:05:58.616780 18725 net.cpp:156] Memory required for data: 1208220960
I0403 19:05:58.616799 18725 layer_factory.hpp:77] Creating layer loss2/relu_fc
I0403 19:05:58.616817 18725 net.cpp:91] Creating Layer loss2/relu_fc
I0403 19:05:58.616833 18725 net.cpp:425] loss2/relu_fc <- loss2/fc
I0403 19:05:58.616850 18725 net.cpp:386] loss2/relu_fc -> loss2/fc (in-place)
I0403 19:05:58.617151 18725 net.cpp:141] Setting up loss2/relu_fc
I0403 19:05:58.617180 18725 net.cpp:148] Top shape: 24 1024 (24576)
I0403 19:05:58.617197 18725 net.cpp:156] Memory required for data: 1208319264
I0403 19:05:58.617211 18725 layer_factory.hpp:77] Creating layer loss2/drop_fc
I0403 19:05:58.617229 18725 net.cpp:91] Creating Layer loss2/drop_fc
I0403 19:05:58.617245 18725 net.cpp:425] loss2/drop_fc <- loss2/fc
I0403 19:05:58.617262 18725 net.cpp:386] loss2/drop_fc -> loss2/fc (in-place)
I0403 19:05:58.617311 18725 net.cpp:141] Setting up loss2/drop_fc
I0403 19:05:58.617336 18725 net.cpp:148] Top shape: 24 1024 (24576)
I0403 19:05:58.617350 18725 net.cpp:156] Memory required for data: 1208417568
I0403 19:05:58.617364 18725 layer_factory.hpp:77] Creating layer loss2/classifier_plantvillage
I0403 19:05:58.617384 18725 net.cpp:91] Creating Layer loss2/classifier_plantvillage
I0403 19:05:58.617403 18725 net.cpp:425] loss2/classifier_plantvillage <- loss2/fc
I0403 19:05:58.617419 18725 net.cpp:399] loss2/classifier_plantvillage -> loss2/classifier_plantvillage
I0403 19:05:58.617820 18725 net.cpp:141] Setting up loss2/classifier_plantvillage
I0403 19:05:58.617843 18725 net.cpp:148] Top shape: 24 38 (912)
I0403 19:05:58.617876 18725 net.cpp:156] Memory required for data: 1208421216
I0403 19:05:58.617895 18725 layer_factory.hpp:77] Creating layer loss2/classifier_plantvillage_loss2/classifier_plantvillage_0_split
I0403 19:05:58.617913 18725 net.cpp:91] Creating Layer loss2/classifier_plantvillage_loss2/classifier_plantvillage_0_split
I0403 19:05:58.617929 18725 net.cpp:425] loss2/classifier_plantvillage_loss2/classifier_plantvillage_0_split <- loss2/classifier_plantvillage
I0403 19:05:58.617952 18725 net.cpp:399] loss2/classifier_plantvillage_loss2/classifier_plantvillage_0_split -> loss2/classifier_plantvillage_loss2/classifier_plantvillage_0_split_0
I0403 19:05:58.617975 18725 net.cpp:399] loss2/classifier_plantvillage_loss2/classifier_plantvillage_0_split -> loss2/classifier_plantvillage_loss2/classifier_plantvillage_0_split_1
I0403 19:05:58.617995 18725 net.cpp:399] loss2/classifier_plantvillage_loss2/classifier_plantvillage_0_split -> loss2/classifier_plantvillage_loss2/classifier_plantvillage_0_split_2
I0403 19:05:58.618073 18725 net.cpp:141] Setting up loss2/classifier_plantvillage_loss2/classifier_plantvillage_0_split
I0403 19:05:58.618098 18725 net.cpp:148] Top shape: 24 38 (912)
I0403 19:05:58.618113 18725 net.cpp:148] Top shape: 24 38 (912)
I0403 19:05:58.618129 18725 net.cpp:148] Top shape: 24 38 (912)
I0403 19:05:58.618141 18725 net.cpp:156] Memory required for data: 1208432160
I0403 19:05:58.618156 18725 layer_factory.hpp:77] Creating layer inception_4e/1x1
I0403 19:05:58.618182 18725 net.cpp:91] Creating Layer inception_4e/1x1
I0403 19:05:58.618201 18725 net.cpp:425] inception_4e/1x1 <- inception_4d/output_inception_4d/output_0_split_1
I0403 19:05:58.618221 18725 net.cpp:399] inception_4e/1x1 -> inception_4e/1x1
I0403 19:05:58.620054 18725 net.cpp:141] Setting up inception_4e/1x1
I0403 19:05:58.620082 18725 net.cpp:148] Top shape: 24 256 14 14 (1204224)
I0403 19:05:58.620098 18725 net.cpp:156] Memory required for data: 1213249056
I0403 19:05:58.620116 18725 layer_factory.hpp:77] Creating layer inception_4e/relu_1x1
I0403 19:05:58.620137 18725 net.cpp:91] Creating Layer inception_4e/relu_1x1
I0403 19:05:58.620156 18725 net.cpp:425] inception_4e/relu_1x1 <- inception_4e/1x1
I0403 19:05:58.620172 18725 net.cpp:386] inception_4e/relu_1x1 -> inception_4e/1x1 (in-place)
I0403 19:05:58.620473 18725 net.cpp:141] Setting up inception_4e/relu_1x1
I0403 19:05:58.620499 18725 net.cpp:148] Top shape: 24 256 14 14 (1204224)
I0403 19:05:58.620515 18725 net.cpp:156] Memory required for data: 1218065952
I0403 19:05:58.620529 18725 layer_factory.hpp:77] Creating layer inception_4e/3x3_reduce
I0403 19:05:58.620551 18725 net.cpp:91] Creating Layer inception_4e/3x3_reduce
I0403 19:05:58.620569 18725 net.cpp:425] inception_4e/3x3_reduce <- inception_4d/output_inception_4d/output_0_split_2
I0403 19:05:58.620590 18725 net.cpp:399] inception_4e/3x3_reduce -> inception_4e/3x3_reduce
I0403 19:05:58.622717 18725 net.cpp:141] Setting up inception_4e/3x3_reduce
I0403 19:05:58.622745 18725 net.cpp:148] Top shape: 24 160 14 14 (752640)
I0403 19:05:58.622761 18725 net.cpp:156] Memory required for data: 1221076512
I0403 19:05:58.622779 18725 layer_factory.hpp:77] Creating layer inception_4e/relu_3x3_reduce
I0403 19:05:58.622797 18725 net.cpp:91] Creating Layer inception_4e/relu_3x3_reduce
I0403 19:05:58.622813 18725 net.cpp:425] inception_4e/relu_3x3_reduce <- inception_4e/3x3_reduce
I0403 19:05:58.622833 18725 net.cpp:386] inception_4e/relu_3x3_reduce -> inception_4e/3x3_reduce (in-place)
I0403 19:05:58.623026 18725 net.cpp:141] Setting up inception_4e/relu_3x3_reduce
I0403 19:05:58.623052 18725 net.cpp:148] Top shape: 24 160 14 14 (752640)
I0403 19:05:58.623067 18725 net.cpp:156] Memory required for data: 1224087072
I0403 19:05:58.623082 18725 layer_factory.hpp:77] Creating layer inception_4e/3x3
I0403 19:05:58.623107 18725 net.cpp:91] Creating Layer inception_4e/3x3
I0403 19:05:58.623126 18725 net.cpp:425] inception_4e/3x3 <- inception_4e/3x3_reduce
I0403 19:05:58.623147 18725 net.cpp:399] inception_4e/3x3 -> inception_4e/3x3
I0403 19:05:58.628150 18725 net.cpp:141] Setting up inception_4e/3x3
I0403 19:05:58.628190 18725 net.cpp:148] Top shape: 24 320 14 14 (1505280)
I0403 19:05:58.628208 18725 net.cpp:156] Memory required for data: 1230108192
I0403 19:05:58.628227 18725 layer_factory.hpp:77] Creating layer inception_4e/relu_3x3
I0403 19:05:58.628247 18725 net.cpp:91] Creating Layer inception_4e/relu_3x3
I0403 19:05:58.628265 18725 net.cpp:425] inception_4e/relu_3x3 <- inception_4e/3x3
I0403 19:05:58.628283 18725 net.cpp:386] inception_4e/relu_3x3 -> inception_4e/3x3 (in-place)
I0403 19:05:58.628588 18725 net.cpp:141] Setting up inception_4e/relu_3x3
I0403 19:05:58.628614 18725 net.cpp:148] Top shape: 24 320 14 14 (1505280)
I0403 19:05:58.628629 18725 net.cpp:156] Memory required for data: 1236129312
I0403 19:05:58.628645 18725 layer_factory.hpp:77] Creating layer inception_4e/5x5_reduce
I0403 19:05:58.628667 18725 net.cpp:91] Creating Layer inception_4e/5x5_reduce
I0403 19:05:58.628686 18725 net.cpp:425] inception_4e/5x5_reduce <- inception_4d/output_inception_4d/output_0_split_3
I0403 19:05:58.628708 18725 net.cpp:399] inception_4e/5x5_reduce -> inception_4e/5x5_reduce
I0403 19:05:58.629792 18725 net.cpp:141] Setting up inception_4e/5x5_reduce
I0403 19:05:58.629822 18725 net.cpp:148] Top shape: 24 32 14 14 (150528)
I0403 19:05:58.629839 18725 net.cpp:156] Memory required for data: 1236731424
I0403 19:05:58.629858 18725 layer_factory.hpp:77] Creating layer inception_4e/relu_5x5_reduce
I0403 19:05:58.629875 18725 net.cpp:91] Creating Layer inception_4e/relu_5x5_reduce
I0403 19:05:58.629892 18725 net.cpp:425] inception_4e/relu_5x5_reduce <- inception_4e/5x5_reduce
I0403 19:05:58.629911 18725 net.cpp:386] inception_4e/relu_5x5_reduce -> inception_4e/5x5_reduce (in-place)
I0403 19:05:58.630214 18725 net.cpp:141] Setting up inception_4e/relu_5x5_reduce
I0403 19:05:58.630242 18725 net.cpp:148] Top shape: 24 32 14 14 (150528)
I0403 19:05:58.630259 18725 net.cpp:156] Memory required for data: 1237333536
I0403 19:05:58.630275 18725 layer_factory.hpp:77] Creating layer inception_4e/5x5
I0403 19:05:58.630313 18725 net.cpp:91] Creating Layer inception_4e/5x5
I0403 19:05:58.630331 18725 net.cpp:425] inception_4e/5x5 <- inception_4e/5x5_reduce
I0403 19:05:58.630350 18725 net.cpp:399] inception_4e/5x5 -> inception_4e/5x5
I0403 19:05:58.632197 18725 net.cpp:141] Setting up inception_4e/5x5
I0403 19:05:58.632227 18725 net.cpp:148] Top shape: 24 128 14 14 (602112)
I0403 19:05:58.632244 18725 net.cpp:156] Memory required for data: 1239741984
I0403 19:05:58.632264 18725 layer_factory.hpp:77] Creating layer inception_4e/relu_5x5
I0403 19:05:58.632282 18725 net.cpp:91] Creating Layer inception_4e/relu_5x5
I0403 19:05:58.632299 18725 net.cpp:425] inception_4e/relu_5x5 <- inception_4e/5x5
I0403 19:05:58.632318 18725 net.cpp:386] inception_4e/relu_5x5 -> inception_4e/5x5 (in-place)
I0403 19:05:58.632514 18725 net.cpp:141] Setting up inception_4e/relu_5x5
I0403 19:05:58.632540 18725 net.cpp:148] Top shape: 24 128 14 14 (602112)
I0403 19:05:58.632555 18725 net.cpp:156] Memory required for data: 1242150432
I0403 19:05:58.632570 18725 layer_factory.hpp:77] Creating layer inception_4e/pool
I0403 19:05:58.632586 18725 net.cpp:91] Creating Layer inception_4e/pool
I0403 19:05:58.632603 18725 net.cpp:425] inception_4e/pool <- inception_4d/output_inception_4d/output_0_split_4
I0403 19:05:58.632624 18725 net.cpp:399] inception_4e/pool -> inception_4e/pool
I0403 19:05:58.632695 18725 net.cpp:141] Setting up inception_4e/pool
I0403 19:05:58.632719 18725 net.cpp:148] Top shape: 24 528 14 14 (2483712)
I0403 19:05:58.632733 18725 net.cpp:156] Memory required for data: 1252085280
I0403 19:05:58.632747 18725 layer_factory.hpp:77] Creating layer inception_4e/pool_proj
I0403 19:05:58.632771 18725 net.cpp:91] Creating Layer inception_4e/pool_proj
I0403 19:05:58.632789 18725 net.cpp:425] inception_4e/pool_proj <- inception_4e/pool
I0403 19:05:58.632807 18725 net.cpp:399] inception_4e/pool_proj -> inception_4e/pool_proj
I0403 19:05:58.634317 18725 net.cpp:141] Setting up inception_4e/pool_proj
I0403 19:05:58.634356 18725 net.cpp:148] Top shape: 24 128 14 14 (602112)
I0403 19:05:58.634372 18725 net.cpp:156] Memory required for data: 1254493728
I0403 19:05:58.634392 18725 layer_factory.hpp:77] Creating layer inception_4e/relu_pool_proj
I0403 19:05:58.634412 18725 net.cpp:91] Creating Layer inception_4e/relu_pool_proj
I0403 19:05:58.634428 18725 net.cpp:425] inception_4e/relu_pool_proj <- inception_4e/pool_proj
I0403 19:05:58.634446 18725 net.cpp:386] inception_4e/relu_pool_proj -> inception_4e/pool_proj (in-place)
I0403 19:05:58.634737 18725 net.cpp:141] Setting up inception_4e/relu_pool_proj
I0403 19:05:58.634763 18725 net.cpp:148] Top shape: 24 128 14 14 (602112)
I0403 19:05:58.634778 18725 net.cpp:156] Memory required for data: 1256902176
I0403 19:05:58.634793 18725 layer_factory.hpp:77] Creating layer inception_4e/output
I0403 19:05:58.634814 18725 net.cpp:91] Creating Layer inception_4e/output
I0403 19:05:58.634829 18725 net.cpp:425] inception_4e/output <- inception_4e/1x1
I0403 19:05:58.634846 18725 net.cpp:425] inception_4e/output <- inception_4e/3x3
I0403 19:05:58.634862 18725 net.cpp:425] inception_4e/output <- inception_4e/5x5
I0403 19:05:58.634878 18725 net.cpp:425] inception_4e/output <- inception_4e/pool_proj
I0403 19:05:58.634896 18725 net.cpp:399] inception_4e/output -> inception_4e/output
I0403 19:05:58.634949 18725 net.cpp:141] Setting up inception_4e/output
I0403 19:05:58.634974 18725 net.cpp:148] Top shape: 24 832 14 14 (3913728)
I0403 19:05:58.634989 18725 net.cpp:156] Memory required for data: 1272557088
I0403 19:05:58.635004 18725 layer_factory.hpp:77] Creating layer pool4/3x3_s2
I0403 19:05:58.635020 18725 net.cpp:91] Creating Layer pool4/3x3_s2
I0403 19:05:58.635035 18725 net.cpp:425] pool4/3x3_s2 <- inception_4e/output
I0403 19:05:58.635056 18725 net.cpp:399] pool4/3x3_s2 -> pool4/3x3_s2
I0403 19:05:58.635124 18725 net.cpp:141] Setting up pool4/3x3_s2
I0403 19:05:58.635149 18725 net.cpp:148] Top shape: 24 832 7 7 (978432)
I0403 19:05:58.635162 18725 net.cpp:156] Memory required for data: 1276470816
I0403 19:05:58.635176 18725 layer_factory.hpp:77] Creating layer pool4/3x3_s2_pool4/3x3_s2_0_split
I0403 19:05:58.635195 18725 net.cpp:91] Creating Layer pool4/3x3_s2_pool4/3x3_s2_0_split
I0403 19:05:58.635213 18725 net.cpp:425] pool4/3x3_s2_pool4/3x3_s2_0_split <- pool4/3x3_s2
I0403 19:05:58.635233 18725 net.cpp:399] pool4/3x3_s2_pool4/3x3_s2_0_split -> pool4/3x3_s2_pool4/3x3_s2_0_split_0
I0403 19:05:58.635253 18725 net.cpp:399] pool4/3x3_s2_pool4/3x3_s2_0_split -> pool4/3x3_s2_pool4/3x3_s2_0_split_1
I0403 19:05:58.635273 18725 net.cpp:399] pool4/3x3_s2_pool4/3x3_s2_0_split -> pool4/3x3_s2_pool4/3x3_s2_0_split_2
I0403 19:05:58.635293 18725 net.cpp:399] pool4/3x3_s2_pool4/3x3_s2_0_split -> pool4/3x3_s2_pool4/3x3_s2_0_split_3
I0403 19:05:58.635381 18725 net.cpp:141] Setting up pool4/3x3_s2_pool4/3x3_s2_0_split
I0403 19:05:58.635407 18725 net.cpp:148] Top shape: 24 832 7 7 (978432)
I0403 19:05:58.635424 18725 net.cpp:148] Top shape: 24 832 7 7 (978432)
I0403 19:05:58.635439 18725 net.cpp:148] Top shape: 24 832 7 7 (978432)
I0403 19:05:58.635455 18725 net.cpp:148] Top shape: 24 832 7 7 (978432)
I0403 19:05:58.635469 18725 net.cpp:156] Memory required for data: 1292125728
I0403 19:05:58.635483 18725 layer_factory.hpp:77] Creating layer inception_5a/1x1
I0403 19:05:58.635504 18725 net.cpp:91] Creating Layer inception_5a/1x1
I0403 19:05:58.635521 18725 net.cpp:425] inception_5a/1x1 <- pool4/3x3_s2_pool4/3x3_s2_0_split_0
I0403 19:05:58.635540 18725 net.cpp:399] inception_5a/1x1 -> inception_5a/1x1
I0403 19:05:58.638509 18725 net.cpp:141] Setting up inception_5a/1x1
I0403 19:05:58.638542 18725 net.cpp:148] Top shape: 24 256 7 7 (301056)
I0403 19:05:58.638559 18725 net.cpp:156] Memory required for data: 1293329952
I0403 19:05:58.638579 18725 layer_factory.hpp:77] Creating layer inception_5a/relu_1x1
I0403 19:05:58.638598 18725 net.cpp:91] Creating Layer inception_5a/relu_1x1
I0403 19:05:58.638614 18725 net.cpp:425] inception_5a/relu_1x1 <- inception_5a/1x1
I0403 19:05:58.638635 18725 net.cpp:386] inception_5a/relu_1x1 -> inception_5a/1x1 (in-place)
I0403 19:05:58.638970 18725 net.cpp:141] Setting up inception_5a/relu_1x1
I0403 19:05:58.639000 18725 net.cpp:148] Top shape: 24 256 7 7 (301056)
I0403 19:05:58.639016 18725 net.cpp:156] Memory required for data: 1294534176
I0403 19:05:58.639032 18725 layer_factory.hpp:77] Creating layer inception_5a/3x3_reduce
I0403 19:05:58.639055 18725 net.cpp:91] Creating Layer inception_5a/3x3_reduce
I0403 19:05:58.639075 18725 net.cpp:425] inception_5a/3x3_reduce <- pool4/3x3_s2_pool4/3x3_s2_0_split_1
I0403 19:05:58.639094 18725 net.cpp:399] inception_5a/3x3_reduce -> inception_5a/3x3_reduce
I0403 19:05:58.641621 18725 net.cpp:141] Setting up inception_5a/3x3_reduce
I0403 19:05:58.641651 18725 net.cpp:148] Top shape: 24 160 7 7 (188160)
I0403 19:05:58.641669 18725 net.cpp:156] Memory required for data: 1295286816
I0403 19:05:58.641686 18725 layer_factory.hpp:77] Creating layer inception_5a/relu_3x3_reduce
I0403 19:05:58.641708 18725 net.cpp:91] Creating Layer inception_5a/relu_3x3_reduce
I0403 19:05:58.641726 18725 net.cpp:425] inception_5a/relu_3x3_reduce <- inception_5a/3x3_reduce
I0403 19:05:58.641744 18725 net.cpp:386] inception_5a/relu_3x3_reduce -> inception_5a/3x3_reduce (in-place)
I0403 19:05:58.641939 18725 net.cpp:141] Setting up inception_5a/relu_3x3_reduce
I0403 19:05:58.641973 18725 net.cpp:148] Top shape: 24 160 7 7 (188160)
I0403 19:05:58.641988 18725 net.cpp:156] Memory required for data: 1296039456
I0403 19:05:58.642004 18725 layer_factory.hpp:77] Creating layer inception_5a/3x3
I0403 19:05:58.642029 18725 net.cpp:91] Creating Layer inception_5a/3x3
I0403 19:05:58.642046 18725 net.cpp:425] inception_5a/3x3 <- inception_5a/3x3_reduce
I0403 19:05:58.642066 18725 net.cpp:399] inception_5a/3x3 -> inception_5a/3x3
I0403 19:05:58.647243 18725 net.cpp:141] Setting up inception_5a/3x3
I0403 19:05:58.647276 18725 net.cpp:148] Top shape: 24 320 7 7 (376320)
I0403 19:05:58.647292 18725 net.cpp:156] Memory required for data: 1297544736
I0403 19:05:58.647311 18725 layer_factory.hpp:77] Creating layer inception_5a/relu_3x3
I0403 19:05:58.647330 18725 net.cpp:91] Creating Layer inception_5a/relu_3x3
I0403 19:05:58.647346 18725 net.cpp:425] inception_5a/relu_3x3 <- inception_5a/3x3
I0403 19:05:58.647367 18725 net.cpp:386] inception_5a/relu_3x3 -> inception_5a/3x3 (in-place)
I0403 19:05:58.647671 18725 net.cpp:141] Setting up inception_5a/relu_3x3
I0403 19:05:58.647701 18725 net.cpp:148] Top shape: 24 320 7 7 (376320)
I0403 19:05:58.647717 18725 net.cpp:156] Memory required for data: 1299050016
I0403 19:05:58.647733 18725 layer_factory.hpp:77] Creating layer inception_5a/5x5_reduce
I0403 19:05:58.647758 18725 net.cpp:91] Creating Layer inception_5a/5x5_reduce
I0403 19:05:58.647776 18725 net.cpp:425] inception_5a/5x5_reduce <- pool4/3x3_s2_pool4/3x3_s2_0_split_2
I0403 19:05:58.647796 18725 net.cpp:399] inception_5a/5x5_reduce -> inception_5a/5x5_reduce
I0403 19:05:58.649024 18725 net.cpp:141] Setting up inception_5a/5x5_reduce
I0403 19:05:58.649056 18725 net.cpp:148] Top shape: 24 32 7 7 (37632)
I0403 19:05:58.649075 18725 net.cpp:156] Memory required for data: 1299200544
I0403 19:05:58.649093 18725 layer_factory.hpp:77] Creating layer inception_5a/relu_5x5_reduce
I0403 19:05:58.649111 18725 net.cpp:91] Creating Layer inception_5a/relu_5x5_reduce
I0403 19:05:58.649128 18725 net.cpp:425] inception_5a/relu_5x5_reduce <- inception_5a/5x5_reduce
I0403 19:05:58.649148 18725 net.cpp:386] inception_5a/relu_5x5_reduce -> inception_5a/5x5_reduce (in-place)
I0403 19:05:58.649461 18725 net.cpp:141] Setting up inception_5a/relu_5x5_reduce
I0403 19:05:58.649488 18725 net.cpp:148] Top shape: 24 32 7 7 (37632)
I0403 19:05:58.649503 18725 net.cpp:156] Memory required for data: 1299351072
I0403 19:05:58.649518 18725 layer_factory.hpp:77] Creating layer inception_5a/5x5
I0403 19:05:58.649541 18725 net.cpp:91] Creating Layer inception_5a/5x5
I0403 19:05:58.649559 18725 net.cpp:425] inception_5a/5x5 <- inception_5a/5x5_reduce
I0403 19:05:58.649581 18725 net.cpp:399] inception_5a/5x5 -> inception_5a/5x5
I0403 19:05:58.651378 18725 net.cpp:141] Setting up inception_5a/5x5
I0403 19:05:58.651422 18725 net.cpp:148] Top shape: 24 128 7 7 (150528)
I0403 19:05:58.651438 18725 net.cpp:156] Memory required for data: 1299953184
I0403 19:05:58.651458 18725 layer_factory.hpp:77] Creating layer inception_5a/relu_5x5
I0403 19:05:58.651476 18725 net.cpp:91] Creating Layer inception_5a/relu_5x5
I0403 19:05:58.651494 18725 net.cpp:425] inception_5a/relu_5x5 <- inception_5a/5x5
I0403 19:05:58.651513 18725 net.cpp:386] inception_5a/relu_5x5 -> inception_5a/5x5 (in-place)
I0403 19:05:58.651715 18725 net.cpp:141] Setting up inception_5a/relu_5x5
I0403 19:05:58.651741 18725 net.cpp:148] Top shape: 24 128 7 7 (150528)
I0403 19:05:58.651757 18725 net.cpp:156] Memory required for data: 1300555296
I0403 19:05:58.651772 18725 layer_factory.hpp:77] Creating layer inception_5a/pool
I0403 19:05:58.651790 18725 net.cpp:91] Creating Layer inception_5a/pool
I0403 19:05:58.651808 18725 net.cpp:425] inception_5a/pool <- pool4/3x3_s2_pool4/3x3_s2_0_split_3
I0403 19:05:58.651828 18725 net.cpp:399] inception_5a/pool -> inception_5a/pool
I0403 19:05:58.651901 18725 net.cpp:141] Setting up inception_5a/pool
I0403 19:05:58.651926 18725 net.cpp:148] Top shape: 24 832 7 7 (978432)
I0403 19:05:58.651942 18725 net.cpp:156] Memory required for data: 1304469024
I0403 19:05:58.651962 18725 layer_factory.hpp:77] Creating layer inception_5a/pool_proj
I0403 19:05:58.651988 18725 net.cpp:91] Creating Layer inception_5a/pool_proj
I0403 19:05:58.652007 18725 net.cpp:425] inception_5a/pool_proj <- inception_5a/pool
I0403 19:05:58.652026 18725 net.cpp:399] inception_5a/pool_proj -> inception_5a/pool_proj
I0403 19:05:58.654397 18725 net.cpp:141] Setting up inception_5a/pool_proj
I0403 19:05:58.654430 18725 net.cpp:148] Top shape: 24 128 7 7 (150528)
I0403 19:05:58.654446 18725 net.cpp:156] Memory required for data: 1305071136
I0403 19:05:58.654465 18725 layer_factory.hpp:77] Creating layer inception_5a/relu_pool_proj
I0403 19:05:58.654484 18725 net.cpp:91] Creating Layer inception_5a/relu_pool_proj
I0403 19:05:58.654500 18725 net.cpp:425] inception_5a/relu_pool_proj <- inception_5a/pool_proj
I0403 19:05:58.654516 18725 net.cpp:386] inception_5a/relu_pool_proj -> inception_5a/pool_proj (in-place)
I0403 19:05:58.654813 18725 net.cpp:141] Setting up inception_5a/relu_pool_proj
I0403 19:05:58.654841 18725 net.cpp:148] Top shape: 24 128 7 7 (150528)
I0403 19:05:58.654856 18725 net.cpp:156] Memory required for data: 1305673248
I0403 19:05:58.654871 18725 layer_factory.hpp:77] Creating layer inception_5a/output
I0403 19:05:58.654889 18725 net.cpp:91] Creating Layer inception_5a/output
I0403 19:05:58.654904 18725 net.cpp:425] inception_5a/output <- inception_5a/1x1
I0403 19:05:58.654922 18725 net.cpp:425] inception_5a/output <- inception_5a/3x3
I0403 19:05:58.654937 18725 net.cpp:425] inception_5a/output <- inception_5a/5x5
I0403 19:05:58.654958 18725 net.cpp:425] inception_5a/output <- inception_5a/pool_proj
I0403 19:05:58.654975 18725 net.cpp:399] inception_5a/output -> inception_5a/output
I0403 19:05:58.655027 18725 net.cpp:141] Setting up inception_5a/output
I0403 19:05:58.655051 18725 net.cpp:148] Top shape: 24 832 7 7 (978432)
I0403 19:05:58.655066 18725 net.cpp:156] Memory required for data: 1309586976
I0403 19:05:58.655079 18725 layer_factory.hpp:77] Creating layer inception_5a/output_inception_5a/output_0_split
I0403 19:05:58.655097 18725 net.cpp:91] Creating Layer inception_5a/output_inception_5a/output_0_split
I0403 19:05:58.655112 18725 net.cpp:425] inception_5a/output_inception_5a/output_0_split <- inception_5a/output
I0403 19:05:58.655131 18725 net.cpp:399] inception_5a/output_inception_5a/output_0_split -> inception_5a/output_inception_5a/output_0_split_0
I0403 19:05:58.655153 18725 net.cpp:399] inception_5a/output_inception_5a/output_0_split -> inception_5a/output_inception_5a/output_0_split_1
I0403 19:05:58.655172 18725 net.cpp:399] inception_5a/output_inception_5a/output_0_split -> inception_5a/output_inception_5a/output_0_split_2
I0403 19:05:58.655192 18725 net.cpp:399] inception_5a/output_inception_5a/output_0_split -> inception_5a/output_inception_5a/output_0_split_3
I0403 19:05:58.655308 18725 net.cpp:141] Setting up inception_5a/output_inception_5a/output_0_split
I0403 19:05:58.655333 18725 net.cpp:148] Top shape: 24 832 7 7 (978432)
I0403 19:05:58.655349 18725 net.cpp:148] Top shape: 24 832 7 7 (978432)
I0403 19:05:58.655364 18725 net.cpp:148] Top shape: 24 832 7 7 (978432)
I0403 19:05:58.655380 18725 net.cpp:148] Top shape: 24 832 7 7 (978432)
I0403 19:05:58.655392 18725 net.cpp:156] Memory required for data: 1325241888
I0403 19:05:58.655406 18725 layer_factory.hpp:77] Creating layer inception_5b/1x1
I0403 19:05:58.655429 18725 net.cpp:91] Creating Layer inception_5b/1x1
I0403 19:05:58.655447 18725 net.cpp:425] inception_5b/1x1 <- inception_5a/output_inception_5a/output_0_split_0
I0403 19:05:58.655468 18725 net.cpp:399] inception_5b/1x1 -> inception_5b/1x1
I0403 19:05:58.659263 18725 net.cpp:141] Setting up inception_5b/1x1
I0403 19:05:58.659293 18725 net.cpp:148] Top shape: 24 384 7 7 (451584)
I0403 19:05:58.659309 18725 net.cpp:156] Memory required for data: 1327048224
I0403 19:05:58.659328 18725 layer_factory.hpp:77] Creating layer inception_5b/relu_1x1
I0403 19:05:58.659348 18725 net.cpp:91] Creating Layer inception_5b/relu_1x1
I0403 19:05:58.659366 18725 net.cpp:425] inception_5b/relu_1x1 <- inception_5b/1x1
I0403 19:05:58.659384 18725 net.cpp:386] inception_5b/relu_1x1 -> inception_5b/1x1 (in-place)
I0403 19:05:58.659690 18725 net.cpp:141] Setting up inception_5b/relu_1x1
I0403 19:05:58.659716 18725 net.cpp:148] Top shape: 24 384 7 7 (451584)
I0403 19:05:58.659731 18725 net.cpp:156] Memory required for data: 1328854560
I0403 19:05:58.659746 18725 layer_factory.hpp:77] Creating layer inception_5b/3x3_reduce
I0403 19:05:58.659768 18725 net.cpp:91] Creating Layer inception_5b/3x3_reduce
I0403 19:05:58.659786 18725 net.cpp:425] inception_5b/3x3_reduce <- inception_5a/output_inception_5a/output_0_split_1
I0403 19:05:58.659808 18725 net.cpp:399] inception_5b/3x3_reduce -> inception_5b/3x3_reduce
I0403 19:05:58.662485 18725 net.cpp:141] Setting up inception_5b/3x3_reduce
I0403 19:05:58.662515 18725 net.cpp:148] Top shape: 24 192 7 7 (225792)
I0403 19:05:58.662531 18725 net.cpp:156] Memory required for data: 1329757728
I0403 19:05:58.662550 18725 layer_factory.hpp:77] Creating layer inception_5b/relu_3x3_reduce
I0403 19:05:58.662572 18725 net.cpp:91] Creating Layer inception_5b/relu_3x3_reduce
I0403 19:05:58.662590 18725 net.cpp:425] inception_5b/relu_3x3_reduce <- inception_5b/3x3_reduce
I0403 19:05:58.662606 18725 net.cpp:386] inception_5b/relu_3x3_reduce -> inception_5b/3x3_reduce (in-place)
I0403 19:05:58.662802 18725 net.cpp:141] Setting up inception_5b/relu_3x3_reduce
I0403 19:05:58.662829 18725 net.cpp:148] Top shape: 24 192 7 7 (225792)
I0403 19:05:58.662845 18725 net.cpp:156] Memory required for data: 1330660896
I0403 19:05:58.662861 18725 layer_factory.hpp:77] Creating layer inception_5b/3x3
I0403 19:05:58.662883 18725 net.cpp:91] Creating Layer inception_5b/3x3
I0403 19:05:58.662901 18725 net.cpp:425] inception_5b/3x3 <- inception_5b/3x3_reduce
I0403 19:05:58.662920 18725 net.cpp:399] inception_5b/3x3 -> inception_5b/3x3
I0403 19:05:58.669647 18725 net.cpp:141] Setting up inception_5b/3x3
I0403 19:05:58.669678 18725 net.cpp:148] Top shape: 24 384 7 7 (451584)
I0403 19:05:58.669695 18725 net.cpp:156] Memory required for data: 1332467232
I0403 19:05:58.669713 18725 layer_factory.hpp:77] Creating layer inception_5b/relu_3x3
I0403 19:05:58.669731 18725 net.cpp:91] Creating Layer inception_5b/relu_3x3
I0403 19:05:58.669747 18725 net.cpp:425] inception_5b/relu_3x3 <- inception_5b/3x3
I0403 19:05:58.669764 18725 net.cpp:386] inception_5b/relu_3x3 -> inception_5b/3x3 (in-place)
I0403 19:05:58.670069 18725 net.cpp:141] Setting up inception_5b/relu_3x3
I0403 19:05:58.670099 18725 net.cpp:148] Top shape: 24 384 7 7 (451584)
I0403 19:05:58.670115 18725 net.cpp:156] Memory required for data: 1334273568
I0403 19:05:58.670130 18725 layer_factory.hpp:77] Creating layer inception_5b/5x5_reduce
I0403 19:05:58.670164 18725 net.cpp:91] Creating Layer inception_5b/5x5_reduce
I0403 19:05:58.670183 18725 net.cpp:425] inception_5b/5x5_reduce <- inception_5a/output_inception_5a/output_0_split_2
I0403 19:05:58.670204 18725 net.cpp:399] inception_5b/5x5_reduce -> inception_5b/5x5_reduce
I0403 19:05:58.671490 18725 net.cpp:141] Setting up inception_5b/5x5_reduce
I0403 19:05:58.671517 18725 net.cpp:148] Top shape: 24 48 7 7 (56448)
I0403 19:05:58.671533 18725 net.cpp:156] Memory required for data: 1334499360
I0403 19:05:58.671551 18725 layer_factory.hpp:77] Creating layer inception_5b/relu_5x5_reduce
I0403 19:05:58.671572 18725 net.cpp:91] Creating Layer inception_5b/relu_5x5_reduce
I0403 19:05:58.671589 18725 net.cpp:425] inception_5b/relu_5x5_reduce <- inception_5b/5x5_reduce
I0403 19:05:58.671607 18725 net.cpp:386] inception_5b/relu_5x5_reduce -> inception_5b/5x5_reduce (in-place)
I0403 19:05:58.672013 18725 net.cpp:141] Setting up inception_5b/relu_5x5_reduce
I0403 19:05:58.672039 18725 net.cpp:148] Top shape: 24 48 7 7 (56448)
I0403 19:05:58.672055 18725 net.cpp:156] Memory required for data: 1334725152
I0403 19:05:58.672070 18725 layer_factory.hpp:77] Creating layer inception_5b/5x5
I0403 19:05:58.672092 18725 net.cpp:91] Creating Layer inception_5b/5x5
I0403 19:05:58.672109 18725 net.cpp:425] inception_5b/5x5 <- inception_5b/5x5_reduce
I0403 19:05:58.672129 18725 net.cpp:399] inception_5b/5x5 -> inception_5b/5x5
I0403 19:05:58.674211 18725 net.cpp:141] Setting up inception_5b/5x5
I0403 19:05:58.674242 18725 net.cpp:148] Top shape: 24 128 7 7 (150528)
I0403 19:05:58.674257 18725 net.cpp:156] Memory required for data: 1335327264
I0403 19:05:58.674275 18725 layer_factory.hpp:77] Creating layer inception_5b/relu_5x5
I0403 19:05:58.674294 18725 net.cpp:91] Creating Layer inception_5b/relu_5x5
I0403 19:05:58.674310 18725 net.cpp:425] inception_5b/relu_5x5 <- inception_5b/5x5
I0403 19:05:58.674329 18725 net.cpp:386] inception_5b/relu_5x5 -> inception_5b/5x5 (in-place)
I0403 19:05:58.674531 18725 net.cpp:141] Setting up inception_5b/relu_5x5
I0403 19:05:58.674556 18725 net.cpp:148] Top shape: 24 128 7 7 (150528)
I0403 19:05:58.674571 18725 net.cpp:156] Memory required for data: 1335929376
I0403 19:05:58.674587 18725 layer_factory.hpp:77] Creating layer inception_5b/pool
I0403 19:05:58.674604 18725 net.cpp:91] Creating Layer inception_5b/pool
I0403 19:05:58.674619 18725 net.cpp:425] inception_5b/pool <- inception_5a/output_inception_5a/output_0_split_3
I0403 19:05:58.674640 18725 net.cpp:399] inception_5b/pool -> inception_5b/pool
I0403 19:05:58.674713 18725 net.cpp:141] Setting up inception_5b/pool
I0403 19:05:58.674737 18725 net.cpp:148] Top shape: 24 832 7 7 (978432)
I0403 19:05:58.674752 18725 net.cpp:156] Memory required for data: 1339843104
I0403 19:05:58.674767 18725 layer_factory.hpp:77] Creating layer inception_5b/pool_proj
I0403 19:05:58.674789 18725 net.cpp:91] Creating Layer inception_5b/pool_proj
I0403 19:05:58.674806 18725 net.cpp:425] inception_5b/pool_proj <- inception_5b/pool
I0403 19:05:58.674828 18725 net.cpp:399] inception_5b/pool_proj -> inception_5b/pool_proj
I0403 19:05:58.677153 18725 net.cpp:141] Setting up inception_5b/pool_proj
I0403 19:05:58.677182 18725 net.cpp:148] Top shape: 24 128 7 7 (150528)
I0403 19:05:58.677201 18725 net.cpp:156] Memory required for data: 1340445216
I0403 19:05:58.677219 18725 layer_factory.hpp:77] Creating layer inception_5b/relu_pool_proj
I0403 19:05:58.677239 18725 net.cpp:91] Creating Layer inception_5b/relu_pool_proj
I0403 19:05:58.677256 18725 net.cpp:425] inception_5b/relu_pool_proj <- inception_5b/pool_proj
I0403 19:05:58.677273 18725 net.cpp:386] inception_5b/relu_pool_proj -> inception_5b/pool_proj (in-place)
I0403 19:05:58.677577 18725 net.cpp:141] Setting up inception_5b/relu_pool_proj
I0403 19:05:58.677603 18725 net.cpp:148] Top shape: 24 128 7 7 (150528)
I0403 19:05:58.677618 18725 net.cpp:156] Memory required for data: 1341047328
I0403 19:05:58.677634 18725 layer_factory.hpp:77] Creating layer inception_5b/output
I0403 19:05:58.677654 18725 net.cpp:91] Creating Layer inception_5b/output
I0403 19:05:58.677683 18725 net.cpp:425] inception_5b/output <- inception_5b/1x1
I0403 19:05:58.677701 18725 net.cpp:425] inception_5b/output <- inception_5b/3x3
I0403 19:05:58.677717 18725 net.cpp:425] inception_5b/output <- inception_5b/5x5
I0403 19:05:58.677734 18725 net.cpp:425] inception_5b/output <- inception_5b/pool_proj
I0403 19:05:58.677752 18725 net.cpp:399] inception_5b/output -> inception_5b/output
I0403 19:05:58.677804 18725 net.cpp:141] Setting up inception_5b/output
I0403 19:05:58.677829 18725 net.cpp:148] Top shape: 24 1024 7 7 (1204224)
I0403 19:05:58.677842 18725 net.cpp:156] Memory required for data: 1345864224
I0403 19:05:58.677857 18725 layer_factory.hpp:77] Creating layer pool5/7x7_s1
I0403 19:05:58.677876 18725 net.cpp:91] Creating Layer pool5/7x7_s1
I0403 19:05:58.677893 18725 net.cpp:425] pool5/7x7_s1 <- inception_5b/output
I0403 19:05:58.677911 18725 net.cpp:399] pool5/7x7_s1 -> pool5/7x7_s1
I0403 19:05:58.678144 18725 net.cpp:141] Setting up pool5/7x7_s1
I0403 19:05:58.678172 18725 net.cpp:148] Top shape: 24 1024 1 1 (24576)
I0403 19:05:58.678189 18725 net.cpp:156] Memory required for data: 1345962528
I0403 19:05:58.678205 18725 layer_factory.hpp:77] Creating layer pool5/drop_7x7_s1
I0403 19:05:58.678222 18725 net.cpp:91] Creating Layer pool5/drop_7x7_s1
I0403 19:05:58.678238 18725 net.cpp:425] pool5/drop_7x7_s1 <- pool5/7x7_s1
I0403 19:05:58.678261 18725 net.cpp:386] pool5/drop_7x7_s1 -> pool5/7x7_s1 (in-place)
I0403 19:05:58.678310 18725 net.cpp:141] Setting up pool5/drop_7x7_s1
I0403 19:05:58.678333 18725 net.cpp:148] Top shape: 24 1024 1 1 (24576)
I0403 19:05:58.678349 18725 net.cpp:156] Memory required for data: 1346060832
I0403 19:05:58.678364 18725 layer_factory.hpp:77] Creating layer loss3/classifier_plantvillage
I0403 19:05:58.678385 18725 net.cpp:91] Creating Layer loss3/classifier_plantvillage
I0403 19:05:58.678400 18725 net.cpp:425] loss3/classifier_plantvillage <- pool5/7x7_s1
I0403 19:05:58.678421 18725 net.cpp:399] loss3/classifier_plantvillage -> loss3/classifier_plantvillage
I0403 19:05:58.678846 18725 net.cpp:141] Setting up loss3/classifier_plantvillage
I0403 19:05:58.678871 18725 net.cpp:148] Top shape: 24 38 (912)
I0403 19:05:58.678885 18725 net.cpp:156] Memory required for data: 1346064480
I0403 19:05:58.678903 18725 layer_factory.hpp:77] Creating layer loss3/classifier_plantvillage_loss3/classifier_plantvillage_0_split
I0403 19:05:58.678921 18725 net.cpp:91] Creating Layer loss3/classifier_plantvillage_loss3/classifier_plantvillage_0_split
I0403 19:05:58.678942 18725 net.cpp:425] loss3/classifier_plantvillage_loss3/classifier_plantvillage_0_split <- loss3/classifier_plantvillage
I0403 19:05:58.678964 18725 net.cpp:399] loss3/classifier_plantvillage_loss3/classifier_plantvillage_0_split -> loss3/classifier_plantvillage_loss3/classifier_plantvillage_0_split_0
I0403 19:05:58.678984 18725 net.cpp:399] loss3/classifier_plantvillage_loss3/classifier_plantvillage_0_split -> loss3/classifier_plantvillage_loss3/classifier_plantvillage_0_split_1
I0403 19:05:58.679004 18725 net.cpp:399] loss3/classifier_plantvillage_loss3/classifier_plantvillage_0_split -> loss3/classifier_plantvillage_loss3/classifier_plantvillage_0_split_2
I0403 19:05:58.679025 18725 net.cpp:399] loss3/classifier_plantvillage_loss3/classifier_plantvillage_0_split -> loss3/classifier_plantvillage_loss3/classifier_plantvillage_0_split_3
I0403 19:05:58.679124 18725 net.cpp:141] Setting up loss3/classifier_plantvillage_loss3/classifier_plantvillage_0_split
I0403 19:05:58.679148 18725 net.cpp:148] Top shape: 24 38 (912)
I0403 19:05:58.679164 18725 net.cpp:148] Top shape: 24 38 (912)
I0403 19:05:58.679179 18725 net.cpp:148] Top shape: 24 38 (912)
I0403 19:05:58.679195 18725 net.cpp:148] Top shape: 24 38 (912)
I0403 19:05:58.679210 18725 net.cpp:156] Memory required for data: 1346079072
I0403 19:05:58.679225 18725 layer_factory.hpp:77] Creating layer loss1/loss
I0403 19:05:58.679246 18725 net.cpp:91] Creating Layer loss1/loss
I0403 19:05:58.679265 18725 net.cpp:425] loss1/loss <- loss1/classifier_plantvillage_loss1/classifier_plantvillage_0_split_0
I0403 19:05:58.679296 18725 net.cpp:425] loss1/loss <- label_data_1_split_0
…
