…
I0403 19:18:33.757622 19424 net.cpp:313] The NetState phase (1) differed from the phase (0) specified by a rule in layer data
I0403 19:18:33.758843 19424 net.cpp:49] Initializing net from parameters: 
state {
  phase: TEST
}
layer {
  name: "data"
  type: "Data"
  top: "data"
  top: "label"
  include {
    phase: TEST
  }
  transform_param {
    mirror: false
    crop_size: 224
    mean_file: "/home/mohanty/data/final_dataset/lmdb/segmented-60-40/mean.binaryproto"
  }
  data_param {
    source: "/home/mohanty/data/final_dataset/lmdb/segmented-60-40/test_db"
    batch_size: 24
    backend: LMDB
  }
}
layer {
  name: "conv1/7x7_s2"
  type: "Convolution"
  bottom: "data"
  top: "conv1/7x7_s2"
  param {
    lr_mult: 1
    decay_mult: 1
  }
  param {
    lr_mult: 2
    decay_mult: 0
  }
  convolution_param {
    num_output: 64
    pad: 3
    kernel_size: 7
    stride: 2
    weight_filler {
      type: "xavier"
      std: 0.1
    }
    bias_filler {
      type: "constant"
      value: 0.2
    }
  }
}
layer {
  name: "conv1/relu_7x7"
  type: "ReLU"
  bottom: "conv1/7x7_s2"
  top: "conv1/7x7_s2"
}
layer {
  name: "pool1/3x3_s2"
  type: "Pooling"
  bottom: "conv1/7x7_s2"
  top: "pool1/3x3_s2"
  pooling_param {
    pool: MAX
    kernel_size: 3
    stride: 2
  }
}
layer {
  name: "pool1/norm1"
  type: "LRN"
  bottom: "pool1/3x3_s2"
  top: "pool1/norm1"
  lrn_param {
    local_size: 5
    alpha: 0.0001
    beta: 0.75
  }
}
layer {
  name: "conv2/3x3_reduce"
  type: "Convolution"
  bottom: "pool1/norm1"
  top: "conv2/3x3_reduce"
  param {
    lr_mult: 1
    decay_mult: 1
  }
  param {
    lr_mult: 2
    decay_mult: 0
  }
  convolution_param {
    num_output: 64
    kernel_size: 1
    weight_filler {
      type: "xavier"
      std: 0.1
    }
    bias_filler {
      type: "constant"
      value: 0.2
    }
  }
}
layer {
  name: "conv2/relu_3x3_reduce"
  type: "ReLU"
  bottom: "conv2/3x3_reduce"
  top: "conv2/3x3_reduce"
}
layer {
  name: "conv2/3x3"
  type: "Convolution"
  bottom: "conv2/3x3_reduce"
  top: "conv2/3x3"
  param {
    lr_mult: 1
    decay_mult: 1
  }
  param {
    lr_mult: 2
    decay_mult: 0
  }
  convolution_param {
    num_output: 192
    pad: 1
    kernel_size: 3
    weight_filler {
      type: "xavier"
      std: 0.03
    }
    bias_filler {
      type: "constant"
      value: 0.2
    }
  }
}
layer {
  name: "conv2/relu_3x3"
  type: "ReLU"
  bottom: "conv2/3x3"
  top: "conv2/3x3"
}
layer {
  name: "conv2/norm2"
  type: "LRN"
  bottom: "conv2/3x3"
  top: "conv2/norm2"
  lrn_param {
    local_size: 5
    alpha: 0.0001
    beta: 0.75
  }
}
layer {
  name: "pool2/3x3_s2"
  type: "Pooling"
  bottom: "conv2/norm2"
  top: "pool2/3x3_s2"
  pooling_param {
    pool: MAX
    kernel_size: 3
    stride: 2
  }
}
layer {
  name: "inception_3a/1x1"
  type: "Convolution"
  bottom: "pool2/3x3_s2"
  top: "inception_3a/1x1"
  param {
    lr_mult: 1
    decay_mult: 1
  }
  param {
    lr_mult: 2
    decay_mult: 0
  }
  convolution_param {
    num_output: 64
    kernel_size: 1
    weight_filler {
      type: "xavier"
      std: 0.03
    }
    bias_filler {
      type: "constant"
      value: 0.2
    }
  }
}
layer {
  name: "inception_3a/relu_1x1"
  type: "ReLU"
  bottom: "inception_3a/1x1"
  top: "inception_3a/1x1"
}
layer {
  name: "inception_3a/3x3_reduce"
  type: "Convolution"
  bottom: "pool2/3x3_s2"
  top: "inception_3a/3x3_reduce"
  param {
    lr_mult: 1
    decay_mult: 1
  }
  param {
    lr_mult: 2
    decay_mult: 0
  }
  convolution_param {
    num_output: 96
    kernel_size: 1
    weight_filler {
      type: "xavier"
      std: 0.09
    }
    bias_filler {
      type: "constant"
      value: 0.2
    }
  }
}
layer {
  name: "inception_3a/relu_3x3_reduce"
  type: "ReLU"
  bottom: "inception_3a/3x3_reduce"
  top: "inception_3a/3x3_reduce"
}
layer {
  name: "inception_3a/3x3"
  type: "Convolution"
  bottom: "inception_3a/3x3_reduce"
  top: "inception_3a/3x3"
  param {
    lr_mult: 1
    decay_mult: 1
  }
  param {
    lr_mult: 2
    decay_mult: 0
  }
  convolution_param {
    num_output: 128
    pad: 1
    kernel_size: 3
    weight_filler {
      type: "xavier"
      std: 0.03
    }
    bias_filler {
      type: "constant"
      value: 0.2
    }
  }
}
layer {
  name: "inception_3a/relu_3x3"
  type: "ReLU"
  bottom: "inception_3a/3x3"
  top: "inception_3a/3x3"
}
layer {
  name: "inception_3a/5x5_reduce"
  type: "Convolution"
  bottom: "pool2/3x3_s2"
  top: "inception_3a/5x5_reduce"
  param {
    lr_mult: 1
    decay_mult: 1
  }
  param {
    lr_mult: 2
    decay_mult: 0
  }
  convolution_param {
    num_output: 16
    kernel_size: 1
    weight_filler {
      type: "xavier"
      std: 0.2
    }
    bias_filler {
      type: "constant"
      value: 0.2
    }
  }
}
layer {
  name: "inception_3a/relu_5x5_reduce"
  type: "ReLU"
  bottom: "inception_3a/5x5_reduce"
  top: "inception_3a/5x5_reduce"
}
layer {
  name: "inception_3a/5x5"
  type: "Convolution"
  bottom: "inception_3a/5x5_reduce"
  top: "inception_3a/5x5"
  param {
    lr_mult: 1
    decay_mult: 1
  }
  param {
    lr_mult: 2
    decay_mult: 0
  }
  convolution_param {
    num_output: 32
    pad: 2
    kernel_size: 5
    weight_filler {
      type: "xavier"
      std: 0.03
    }
    bias_filler {
      type: "constant"
      value: 0.2
    }
  }
}
layer {
  name: "inception_3a/relu_5x5"
  type: "ReLU"
  bottom: "inception_3a/5x5"
  top: "inception_3a/5x5"
}
layer {
  name: "inception_3a/pool"
  type: "Pooling"
  bottom: "pool2/3x3_s2"
  top: "inception_3a/pool"
  pooling_param {
    pool: MAX
    kernel_size: 3
    stride: 1
    pad: 1
  }
}
layer {
  name: "inception_3a/pool_proj"
  type: "Convolution"
  bottom: "inception_3a/pool"
  top: "inception_3a/pool_proj"
  param {
    lr_mult: 1
    decay_mult: 1
  }
  param {
    lr_mult: 2
    decay_mult: 0
  }
  convolution_param {
    num_output: 32
    kernel_size: 1
    weight_filler {
      type: "xavier"
      std: 0.1
    }
    bias_filler {
      type: "constant"
      value: 0.2
    }
  }
}
layer {
  name: "inception_3a/relu_pool_proj"
  type: "ReLU"
  bottom: "inception_3a/pool_proj"
  top: "inception_3a/pool_proj"
}
layer {
  name: "inception_3a/output"
  type: "Concat"
  bottom: "inception_3a/1x1"
  bottom: "inception_3a/3x3"
  bottom: "inception_3a/5x5"
  bottom: "inception_3a/pool_proj"
  top: "inception_3a/output"
}
layer {
  name: "inception_3b/1x1"
  type: "Convolution"
  bottom: "inception_3a/output"
  top: "inception_3b/1x1"
  param {
    lr_mult: 1
    decay_mult: 1
  }
  param {
    lr_mult: 2
    decay_mult: 0
  }
  convolution_param {
    num_output: 128
    kernel_size: 1
    weight_filler {
      type: "xavier"
      std: 0.03
    }
    bias_filler {
      type: "constant"
      value: 0.2
    }
  }
}
layer {
  name: "inception_3b/relu_1x1"
  type: "ReLU"
  bottom: "inception_3b/1x1"
  top: "inception_3b/1x1"
}
layer {
  name: "inception_3b/3x3_reduce"
  type: "Convolution"
  bottom: "inception_3a/output"
  top: "inception_3b/3x3_reduce"
  param {
    lr_mult: 1
    decay_mult: 1
  }
  param {
    lr_mult: 2
    decay_mult: 0
  }
  convolution_param {
    num_output: 128
    kernel_size: 1
    weight_filler {
      type: "xavier"
      std: 0.09
    }
    bias_filler {
      type: "constant"
      value: 0.2
    }
  }
}
layer {
  name: "inception_3b/relu_3x3_reduce"
  type: "ReLU"
  bottom: "inception_3b/3x3_reduce"
  top: "inception_3b/3x3_reduce"
}
layer {
  name: "inception_3b/3x3"
  type: "Convolution"
  bottom: "inception_3b/3x3_reduce"
  top: "inception_3b/3x3"
  param {
    lr_mult: 1
    decay_mult: 1
  }
  param {
    lr_mult: 2
    decay_mult: 0
  }
  convolution_param {
    num_output: 192
    pad: 1
    kernel_size: 3
    weight_filler {
      type: "xavier"
      std: 0.03
    }
    bias_filler {
      type: "constant"
      value: 0.2
    }
  }
}
layer {
  name: "inception_3b/relu_3x3"
  type: "ReLU"
  bottom: "inception_3b/3x3"
  top: "inception_3b/3x3"
}
layer {
  name: "inception_3b/5x5_reduce"
  type: "Convolution"
  bottom: "inception_3a/output"
  top: "inception_3b/5x5_reduce"
  param {
    lr_mult: 1
    decay_mult: 1
  }
  param {
    lr_mult: 2
    decay_mult: 0
  }
  convolution_param {
    num_output: 32
    kernel_size: 1
    weight_filler {
      type: "xavier"
      std: 0.2
    }
    bias_filler {
      type: "constant"
      value: 0.2
    }
  }
}
layer {
  name: "inception_3b/relu_5x5_reduce"
  type: "ReLU"
  bottom: "inception_3b/5x5_reduce"
  top: "inception_3b/5x5_reduce"
}
layer {
  name: "inception_3b/5x5"
  type: "Convolution"
  bottom: "inception_3b/5x5_reduce"
  top: "inception_3b/5x5"
  param {
    lr_mult: 1
    decay_mult: 1
  }
  param {
    lr_mult: 2
    decay_mult: 0
  }
  convolution_param {
    num_output: 96
    pad: 2
    kernel_size: 5
    weight_filler {
      type: "xavier"
      std: 0.03
    }
    bias_filler {
      type: "constant"
      value: 0.2
    }
  }
}
layer {
  name: "inception_3b/relu_5x5"
  type: "ReLU"
  bottom: "inception_3b/5x5"
  top: "inception_3b/5x5"
}
layer {
  name: "inception_3b/pool"
  type: "Pooling"
  bottom: "inception_3a/output"
  top: "inception_3b/pool"
  pooling_param {
    pool: MAX
    kernel_size: 3
    stride: 1
    pad: 1
  }
}
layer {
  name: "inception_3b/pool_proj"
  type: "Convolution"
  bottom: "inception_3b/pool"
  top: "inception_3b/pool_proj"
  param {
    lr_mult: 1
    decay_mult: 1
  }
  param {
    lr_mult: 2
    decay_mult: 0
  }
  convolution_param {
    num_output: 64
    kernel_size: 1
    weight_filler {
      type: "xavier"
      std: 0.1
    }
    bias_filler {
      type: "constant"
      value: 0.2
    }
  }
}
layer {
  name: "inception_3b/relu_pool_proj"
  type: "ReLU"
  bottom: "inception_3b/pool_proj"
  top: "inception_3b/pool_proj"
}
layer {
  name: "inception_3b/output"
  type: "Concat"
  bottom: "inception_3b/1x1"
  bottom: "inception_3b/3x3"
  bottom: "inception_3b/5x5"
  bottom: "inception_3b/pool_proj"
  top: "inception_3b/output"
}
layer {
  name: "pool3/3x3_s2"
  type: "Pooling"
  bottom: "inception_3b/output"
  top: "pool3/3x3_s2"
  pooling_param {
    pool: MAX
    kernel_size: 3
    stride: 2
  }
}
layer {
  name: "inception_4a/1x1"
  type: "Convolution"
  bottom: "pool3/3x3_s2"
  top: "inception_4a/1x1"
  param {
    lr_mult: 1
    decay_mult: 1
  }
  param {
    lr_mult: 2
    decay_mult: 0
  }
  convolution_param {
    num_output: 192
    kernel_size: 1
    weight_filler {
      type: "xavier"
      std: 0.03
    }
    bias_filler {
      type: "constant"
      value: 0.2
    }
  }
}
layer {
  name: "inception_4a/relu_1x1"
  type: "ReLU"
  bottom: "inception_4a/1x1"
  top: "inception_4a/1x1"
}
layer {
  name: "inception_4a/3x3_reduce"
  type: "Convolution"
  bottom: "pool3/3x3_s2"
  top: "inception_4a/3x3_reduce"
  param {
    lr_mult: 1
    decay_mult: 1
  }
  param {
    lr_mult: 2
    decay_mult: 0
  }
  convolution_param {
    num_output: 96
    kernel_size: 1
    weight_filler {
      type: "xavier"
      std: 0.09
    }
    bias_filler {
      type: "constant"
      value: 0.2
    }
  }
}
layer {
  name: "inception_4a/relu_3x3_reduce"
  type: "ReLU"
  bottom: "inception_4a/3x3_reduce"
  top: "inception_4a/3x3_reduce"
}
layer {
  name: "inception_4a/3x3"
  type: "Convolution"
  bottom: "inception_4a/3x3_reduce"
  top: "inception_4a/3x3"
  param {
    lr_mult: 1
    decay_mult: 1
  }
  param {
    lr_mult: 2
    decay_mult: 0
  }
  convolution_param {
    num_output: 208
    pad: 1
    kernel_size: 3
    weight_filler {
      type: "xavier"
      std: 0.03
    }
    bias_filler {
      type: "constant"
      value: 0.2
    }
  }
}
layer {
  name: "inception_4a/relu_3x3"
  type: "ReLU"
  bottom: "inception_4a/3x3"
  top: "inception_4a/3x3"
}
layer {
  name: "inception_4a/5x5_reduce"
  type: "Convolution"
  bottom: "pool3/3x3_s2"
  top: "inception_4a/5x5_reduce"
  param {
    lr_mult: 1
    decay_mult: 1
  }
  param {
    lr_mult: 2
    decay_mult: 0
  }
  convolution_param {
    num_output: 16
    kernel_size: 1
    weight_filler {
      type: "xavier"
      std: 0.2
    }
    bias_filler {
      type: "constant"
      value: 0.2
    }
  }
}
layer {
  name: "inception_4a/relu_5x5_reduce"
  type: "ReLU"
  bottom: "inception_4a/5x5_reduce"
  top: "inception_4a/5x5_reduce"
}
layer {
  name: "inception_4a/5x5"
  type: "Convolution"
  bottom: "inception_4a/5x5_reduce"
  top: "inception_4a/5x5"
  param {
    lr_mult: 1
    decay_mult: 1
  }
  param {
    lr_mult: 2
    decay_mult: 0
  }
  convolution_param {
    num_output: 48
    pad: 2
    kernel_size: 5
    weight_filler {
      type: "xavier"
      std: 0.03
    }
    bias_filler {
      type: "constant"
      value: 0.2
    }
  }
}
layer {
  name: "inception_4a/relu_5x5"
  type: "ReLU"
  bottom: "inception_4a/5x5"
  top: "inception_4a/5x5"
}
layer {
  name: "inception_4a/pool"
  type: "Pooling"
  bottom: "pool3/3x3_s2"
  top: "inception_4a/pool"
  pooling_param {
    pool: MAX
    kernel_size: 3
    stride: 1
    pad: 1
  }
}
layer {
  name: "inception_4a/pool_proj"
  type: "Convolution"
  bottom: "inception_4a/pool"
  top: "inception_4a/pool_proj"
  param {
    lr_mult: 1
    decay_mult: 1
  }
  param {
    lr_mult: 2
    decay_mult: 0
  }
  convolution_param {
    num_output: 64
    kernel_size: 1
    weight_filler {
      type: "xavier"
      std: 0.1
    }
    bias_filler {
      type: "constant"
      value: 0.2
    }
  }
}
layer {
  name: "inception_4a/relu_pool_proj"
  type: "ReLU"
  bottom: "inception_4a/pool_proj"
  top: "inception_4a/pool_proj"
}
layer {
  name: "inception_4a/output"
  type: "Concat"
  bottom: "inception_4a/1x1"
  bottom: "inception_4a/3x3"
  bottom: "inception_4a/5x5"
  bottom: "inception_4a/pool_proj"
  top: "inception_4a/output"
}
layer {
  name: "loss1/ave_pool"
  type: "Pooling"
  bottom: "inception_4a/output"
  top: "loss1/ave_pool"
  pooling_param {
    pool: AVE
    kernel_size: 5
    stride: 3
  }
}
layer {
  name: "loss1/conv"
  type: "Convolution"
  bottom: "loss1/ave_pool"
  top: "loss1/conv"
  param {
    lr_mult: 1
    decay_mult: 1
  }
  param {
    lr_mult: 2
    decay_mult: 0
  }
  convolution_param {
    num_output: 128
    kernel_size: 1
    weight_filler {
      type: "xavier"
      std: 0.08
    }
    bias_filler {
      type: "constant"
      value: 0.2
    }
  }
}
layer {
  name: "loss1/relu_conv"
  type: "ReLU"
  bottom: "loss1/conv"
  top: "loss1/conv"
}
layer {
  name: "loss1/fc"
  type: "InnerProduct"
  bottom: "loss1/conv"
  top: "loss1/fc"
  param {
    lr_mult: 1
    decay_mult: 1
  }
  param {
    lr_mult: 2
    decay_mult: 0
  }
  inner_product_param {
    num_output: 1024
    weight_filler {
      type: "xavier"
      std: 0.02
    }
    bias_filler {
      type: "constant"
      value: 0.2
    }
  }
}
layer {
  name: "loss1/relu_fc"
  type: "ReLU"
  bottom: "loss1/fc"
  top: "loss1/fc"
}
layer {
  name: "loss1/drop_fc"
  type: "Dropout"
  bottom: "loss1/fc"
  top: "loss1/fc"
  dropout_param {
    dropout_ratio: 0.7
  }
}
layer {
  name: "loss1/classifier_plantvillage"
  type: "InnerProduct"
  bottom: "loss1/fc"
  top: "loss1/classifier_plantvillage"
  param {
    lr_mult: 1
    decay_mult: 1
  }
  param {
    lr_mult: 2
    decay_mult: 0
  }
  inner_product_param {
    num_output: 38
    weight_filler {
      type: "xavier"
      std: 0.0009765625
    }
    bias_filler {
      type: "constant"
      value: 0
    }
  }
}
layer {
  name: "inception_4b/1x1"
  type: "Convolution"
  bottom: "inception_4a/output"
  top: "inception_4b/1x1"
  param {
    lr_mult: 1
    decay_mult: 1
  }
  param {
    lr_mult: 2
    decay_mult: 0
  }
  convolution_param {
    num_output: 160
    kernel_size: 1
    weight_filler {
      type: "xavier"
      std: 0.03
    }
    bias_filler {
      type: "constant"
      value: 0.2
    }
  }
}
layer {
  name: "inception_4b/relu_1x1"
  type: "ReLU"
  bottom: "inception_4b/1x1"
  top: "inception_4b/1x1"
}
layer {
  name: "inception_4b/3x3_reduce"
  type: "Convolution"
  bottom: "inception_4a/output"
  top: "inception_4b/3x3_reduce"
  param {
    lr_mult: 1
    decay_mult: 1
  }
  param {
    lr_mult: 2
    decay_mult: 0
  }
  convolution_param {
    num_output: 112
    kernel_size: 1
    weight_filler {
      type: "xavier"
      std: 0.09
    }
    bias_filler {
      type: "constant"
      value: 0.2
    }
  }
}
layer {
  name: "inception_4b/relu_3x3_reduce"
  type: "ReLU"
  bottom: "inception_4b/3x3_reduce"
  top: "inception_4b/3x3_reduce"
}
layer {
  name: "inception_4b/3x3"
  type: "Convolution"
  bottom: "inception_4b/3x3_reduce"
  top: "inception_4b/3x3"
  param {
    lr_mult: 1
    decay_mult: 1
  }
  param {
    lr_mult: 2
    decay_mult: 0
  }
  convolution_param {
    num_output: 224
    pad: 1
    kernel_size: 3
    weight_filler {
      type: "xavier"
      std: 0.03
    }
    bias_filler {
      type: "constant"
      value: 0.2
    }
  }
}
layer {
  name: "inception_4b/relu_3x3"
  type: "ReLU"
  bottom: "inception_4b/3x3"
  top: "inception_4b/3x3"
}
layer {
  name: "inception_4b/5x5_reduce"
  type: "Convolution"
  bottom: "inception_4a/output"
  top: "inception_4b/5x5_reduce"
  param {
    lr_mult: 1
    decay_mult: 1
  }
  param {
    lr_mult: 2
    decay_mult: 0
  }
  convolution_param {
    num_output: 24
    kernel_size: 1
    weight_filler {
      type: "xavier"
      std: 0.2
    }
    bias_filler {
      type: "constant"
      value: 0.2
    }
  }
}
layer {
  name: "inception_4b/relu_5x5_reduce"
  type: "ReLU"
  bottom: "inception_4b/5x5_reduce"
  top: "inception_4b/5x5_reduce"
}
layer {
  name: "inception_4b/5x5"
  type: "Convolution"
  bottom: "inception_4b/5x5_reduce"
  top: "inception_4b/5x5"
  param {
    lr_mult: 1
    decay_mult: 1
  }
  param {
    lr_mult: 2
    decay_mult: 0
  }
  convolution_param {
    num_output: 64
    pad: 2
    kernel_size: 5
    weight_filler {
      type: "xavier"
      std: 0.03
    }
    bias_filler {
      type: "constant"
      value: 0.2
    }
  }
}
layer {
  name: "inception_4b/relu_5x5"
  type: "ReLU"
  bottom: "inception_4b/5x5"
  top: "inception_4b/5x5"
}
layer {
  name: "inception_4b/pool"
  type: "Pooling"
  bottom: "inception_4a/output"
  top: "inception_4b/pool"
  pooling_param {
    pool: MAX
    kernel_size: 3
    stride: 1
    pad: 1
  }
}
layer {
  name: "inception_4b/pool_proj"
  type: "Convolution"
  bottom: "inception_4b/pool"
  top: "inception_4b/pool_proj"
  param {
    lr_mult: 1
    decay_mult: 1
  }
  param {
    lr_mult: 2
    decay_mult: 0
  }
  convolution_param {
    num_output: 64
    kernel_size: 1
    weight_filler {
      type: "xavier"
      std: 0.1
    }
    bias_filler {
      type: "constant"
      value: 0.2
    }
  }
}
layer {
  name: "inception_4b/relu_pool_proj"
  type: "ReLU"
  bottom: "inception_4b/pool_proj"
  top: "inception_4b/pool_proj"
}
layer {
  name: "inception_4b/output"
  type: "Concat"
  bottom: "inception_4b/1x1"
  bottom: "inception_4b/3x3"
  bottom: "inception_4b/5x5"
  bottom: "inception_4b/pool_proj"
  top: "inception_4b/output"
}
layer {
  name: "inception_4c/1x1"
  type: "Convolution"
  bottom: "inception_4b/output"
  top: "inception_4c/1x1"
  param {
    lr_mult: 1
    decay_mult: 1
  }
  param {
    lr_mult: 2
    decay_mult: 0
  }
  convolution_param {
    num_output: 128
    kernel_size: 1
    weight_filler {
      type: "xavier"
      std: 0.03
    }
    bias_filler {
      type: "constant"
      value: 0.2
    }
  }
}
layer {
  name: "inception_4c/relu_1x1"
  type: "ReLU"
  bottom: "inception_4c/1x1"
  top: "inception_4c/1x1"
}
layer {
  name: "inception_4c/3x3_reduce"
  type: "Convolution"
  bottom: "inception_4b/output"
  top: "inception_4c/3x3_reduce"
  param {
    lr_mult: 1
    decay_mult: 1
  }
  param {
    lr_mult: 2
    decay_mult: 0
  }
  convolution_param {
    num_output: 128
    kernel_size: 1
    weight_filler {
      type: "xavier"
      std: 0.09
    }
    bias_filler {
      type: "constant"
      value: 0.2
    }
  }
}
layer {
  name: "inception_4c/relu_3x3_reduce"
  type: "ReLU"
  bottom: "inception_4c/3x3_reduce"
  top: "inception_4c/3x3_reduce"
}
layer {
  name: "inception_4c/3x3"
  type: "Convolution"
  bottom: "inception_4c/3x3_reduce"
  top: "inception_4c/3x3"
  param {
    lr_mult: 1
    decay_mult: 1
  }
  param {
    lr_mult: 2
    decay_mult: 0
  }
  convolution_param {
    num_output: 256
    pad: 1
    kernel_size: 3
    weight_filler {
      type: "xavier"
      std: 0.03
    }
    bias_filler {
      type: "constant"
      value: 0.2
    }
  }
}
layer {
  name: "inception_4c/relu_3x3"
  type: "ReLU"
  bottom: "inception_4c/3x3"
  top: "inception_4c/3x3"
}
layer {
  name: "inception_4c/5x5_reduce"
  type: "Convolution"
  bottom: "inception_4b/output"
  top: "inception_4c/5x5_reduce"
  param {
    lr_mult: 1
    decay_mult: 1
  }
  param {
    lr_mult: 2
    decay_mult: 0
  }
  convolution_param {
    num_output: 24
    kernel_size: 1
    weight_filler {
      type: "xavier"
      std: 0.2
    }
    bias_filler {
      type: "constant"
      value: 0.2
    }
  }
}
layer {
  name: "inception_4c/relu_5x5_reduce"
  type: "ReLU"
  bottom: "inception_4c/5x5_reduce"
  top: "inception_4c/5x5_reduce"
}
layer {
  name: "inception_4c/5x5"
  type: "Convolution"
  bottom: "inception_4c/5x5_reduce"
  top: "inception_4c/5x5"
  param {
    lr_mult: 1
    decay_mult: 1
  }
  param {
    lr_mult: 2
    decay_mult: 0
  }
  convolution_param {
    num_output: 64
    pad: 2
    kernel_size: 5
    weight_filler {
      type: "xavier"
      std: 0.03
    }
    bias_filler {
      type: "constant"
      value: 0.2
    }
  }
}
layer {
  name: "inception_4c/relu_5x5"
  type: "ReLU"
  bottom: "inception_4c/5x5"
  top: "inception_4c/5x5"
}
layer {
  name: "inception_4c/pool"
  type: "Pooling"
  bottom: "inception_4b/output"
  top: "inception_4c/pool"
  pooling_param {
    pool: MAX
    kernel_size: 3
    stride: 1
    pad: 1
  }
}
layer {
  name: "inception_4c/pool_proj"
  type: "Convolution"
  bottom: "inception_4c/pool"
  top: "inception_4c/pool_proj"
  param {
    lr_mult: 1
    decay_mult: 1
  }
  param {
    lr_mult: 2
    decay_mult: 0
  }
  convolution_param {
    num_output: 64
    kernel_size: 1
    weight_filler {
      type: "xavier"
      std: 0.1
    }
    bias_filler {
      type: "constant"
      value: 0.2
    }
  }
}
layer {
  name: "inception_4c/relu_pool_proj"
  type: "ReLU"
  bottom: "inception_4c/pool_proj"
  top: "inception_4c/pool_proj"
}
layer {
  name: "inception_4c/output"
  type: "Concat"
  bottom: "inception_4c/1x1"
  bottom: "inception_4c/3x3"
  bottom: "inception_4c/5x5"
  bottom: "inception_4c/pool_proj"
  top: "inception_4c/output"
}
layer {
  name: "inception_4d/1x1"
  type: "Convolution"
  bottom: "inception_4c/output"
  top: "inception_4d/1x1"
  param {
    lr_mult: 1
    decay_mult: 1
  }
  param {
    lr_mult: 2
    decay_mult: 0
  }
  convolution_param {
    num_output: 112
    kernel_size: 1
    weight_filler {
      type: "xavier"
      std: 0.03
    }
    bias_filler {
      type: "constant"
      value: 0.2
    }
  }
}
layer {
  name: "inception_4d/relu_1x1"
  type: "ReLU"
  bottom: "inception_4d/1x1"
  top: "inception_4d/1x1"
}
layer {
  name: "inception_4d/3x3_reduce"
  type: "Convolution"
  bottom: "inception_4c/output"
  top: "inception_4d/3x3_reduce"
  param {
    lr_mult: 1
    decay_mult: 1
  }
  param {
    lr_mult: 2
    decay_mult: 0
  }
  convolution_param {
    num_output: 144
    kernel_size: 1
    weight_filler {
      type: "xavier"
      std: 0.09
    }
    bias_filler {
      type: "constant"
      value: 0.2
    }
  }
}
layer {
  name: "inception_4d/relu_3x3_reduce"
  type: "ReLU"
  bottom: "inception_4d/3x3_reduce"
  top: "inception_4d/3x3_reduce"
}
layer {
  name: "inception_4d/3x3"
  type: "Convolution"
  bottom: "inception_4d/3x3_reduce"
  top: "inception_4d/3x3"
  param {
    lr_mult: 1
    decay_mult: 1
  }
  param {
    lr_mult: 2
    decay_mult: 0
  }
  convolution_param {
    num_output: 288
    pad: 1
    kernel_size: 3
    weight_filler {
      type: "xavier"
      std: 0.03
    }
    bias_filler {
      type: "constant"
      value: 0.2
    }
  }
}
layer {
  name: "inception_4d/relu_3x3"
  type: "ReLU"
  bottom: "inception_4d/3x3"
  top: "inception_4d/3x3"
}
layer {
  name: "inception_4d/5x5_reduce"
  type: "Convolution"
  bottom: "inception_4c/output"
  top: "inception_4d/5x5_reduce"
  param {
    lr_mult: 1
    decay_mult: 1
  }
  param {
    lr_mult: 2
    decay_mult: 0
  }
  convolution_param {
    num_output: 32
    kernel_size: 1
    weight_filler {
      type: "xavier"
      std: 0.2
    }
    bias_filler {
      type: "constant"
      value: 0.2
    }
  }
}
layer {
  name: "inception_4d/relu_5x5_reduce"
  type: "ReLU"
  bottom: "inception_4d/5x5_reduce"
  top: "inception_4d/5x5_reduce"
}
layer {
  name: "inception_4d/5x5"
  type: "Convolution"
  bottom: "inception_4d/5x5_reduce"
  top: "inception_4d/5x5"
  param {
    lr_mult: 1
    decay_mult: 1
  }
  param {
    lr_mult: 2
    decay_mult: 0
  }
  convolution_param {
    num_output: 64
    pad: 2
    kernel_size: 5
    weight_filler {
      type: "xavier"
      std: 0.03
    }
    bias_filler {
      type: "constant"
      value: 0.2
    }
  }
}
layer {
  name: "inception_4d/relu_5x5"
  type: "ReLU"
  bottom: "inception_4d/5x5"
  top: "inception_4d/5x5"
}
layer {
  name: "inception_4d/pool"
  type: "Pooling"
  bottom: "inception_4c/output"
  top: "inception_4d/pool"
  pooling_param {
    pool: MAX
    kernel_size: 3
    stride: 1
    pad: 1
  }
}
layer {
  name: "inception_4d/pool_proj"
  type: "Convolution"
  bottom: "inception_4d/pool"
  top: "inception_4d/pool_proj"
  param {
    lr_mult: 1
    decay_mult: 1
  }
  param {
    lr_mult: 2
    decay_mult: 0
  }
  convolution_param {
    num_output: 64
    kernel_size: 1
    weight_filler {
      type: "xavier"
      std: 0.1
    }
    bias_filler {
      type: "constant"
      value: 0.2
    }
  }
}
layer {
  name: "inception_4d/relu_pool_proj"
  type: "ReLU"
  bottom: "inception_4d/pool_proj"
  top: "inception_4d/pool_proj"
}
layer {
  name: "inception_4d/output"
  type: "Concat"
  bottom: "inception_4d/1x1"
  bottom: "inception_4d/3x3"
  bottom: "inception_4d/5x5"
  bottom: "inception_4d/pool_proj"
  top: "inception_4d/output"
}
layer {
  name: "loss2/ave_pool"
  type: "Pooling"
  bottom: "inception_4d/output"
  top: "loss2/ave_pool"
  pooling_param {
    pool: AVE
    kernel_size: 5
    stride: 3
  }
}
layer {
  name: "loss2/conv"
  type: "Convolution"
  bottom: "loss2/ave_pool"
  top: "loss2/conv"
  param {
    lr_mult: 1
    decay_mult: 1
  }
  param {
    lr_mult: 2
    decay_mult: 0
  }
  convolution_param {
    num_output: 128
    kernel_size: 1
    weight_filler {
      type: "xavier"
      std: 0.08
    }
    bias_filler {
      type: "constant"
      value: 0.2
    }
  }
}
layer {
  name: "loss2/relu_conv"
  type: "ReLU"
  bottom: "loss2/conv"
  top: "loss2/conv"
}
layer {
  name: "loss2/fc"
  type: "InnerProduct"
  bottom: "loss2/conv"
  top: "loss2/fc"
  param {
    lr_mult: 1
    decay_mult: 1
  }
  param {
    lr_mult: 2
    decay_mult: 0
  }
  inner_product_param {
    num_output: 1024
    weight_filler {
      type: "xavier"
      std: 0.02
    }
    bias_filler {
      type: "constant"
      value: 0.2
    }
  }
}
layer {
  name: "loss2/relu_fc"
  type: "ReLU"
  bottom: "loss2/fc"
  top: "loss2/fc"
}
layer {
  name: "loss2/drop_fc"
  type: "Dropout"
  bottom: "loss2/fc"
  top: "loss2/fc"
  dropout_param {
    dropout_ratio: 0.7
  }
}
layer {
  name: "loss2/classifier_plantvillage"
  type: "InnerProduct"
  bottom: "loss2/fc"
  top: "loss2/classifier_plantvillage"
  param {
    lr_mult: 1
    decay_mult: 1
  }
  param {
    lr_mult: 2
    decay_mult: 0
  }
  inner_product_param {
    num_output: 38
    weight_filler {
      type: "xavier"
      std: 0.0009765625
    }
    bias_filler {
      type: "constant"
      value: 0
    }
  }
}
layer {
  name: "inception_4e/1x1"
  type: "Convolution"
  bottom: "inception_4d/output"
  top: "inception_4e/1x1"
  param {
    lr_mult: 1
    decay_mult: 1
  }
  param {
    lr_mult: 2
    decay_mult: 0
  }
  convolution_param {
    num_output: 256
    kernel_size: 1
    weight_filler {
      type: "xavier"
      std: 0.03
    }
    bias_filler {
      type: "constant"
      value: 0.2
    }
  }
}
layer {
  name: "inception_4e/relu_1x1"
  type: "ReLU"
  bottom: "inception_4e/1x1"
  top: "inception_4e/1x1"
}
layer {
  name: "inception_4e/3x3_reduce"
  type: "Convolution"
  bottom: "inception_4d/output"
  top: "inception_4e/3x3_reduce"
  param {
    lr_mult: 1
    decay_mult: 1
  }
  param {
    lr_mult: 2
    decay_mult: 0
  }
  convolution_param {
    num_output: 160
    kernel_size: 1
    weight_filler {
      type: "xavier"
      std: 0.09
    }
    bias_filler {
      type: "constant"
      value: 0.2
    }
  }
}
layer {
  name: "inception_4e/relu_3x3_reduce"
  type: "ReLU"
  bottom: "inception_4e/3x3_reduce"
  top: "inception_4e/3x3_reduce"
}
layer {
  name: "inception_4e/3x3"
  type: "Convolution"
  bottom: "inception_4e/3x3_reduce"
  top: "inception_4e/3x3"
  param {
    lr_mult: 1
    decay_mult: 1
  }
  param {
    lr_mult: 2
    decay_mult: 0
  }
  convolution_param {
    num_output: 320
    pad: 1
    kernel_size: 3
    weight_filler {
      type: "xavier"
      std: 0.03
    }
    bias_filler {
      type: "constant"
      value: 0.2
    }
  }
}
layer {
  name: "inception_4e/relu_3x3"
  type: "ReLU"
  bottom: "inception_4e/3x3"
  top: "inception_4e/3x3"
}
layer {
  name: "inception_4e/5x5_reduce"
  type: "Convolution"
  bottom: "inception_4d/output"
  top: "inception_4e/5x5_reduce"
  param {
    lr_mult: 1
    decay_mult: 1
  }
  param {
    lr_mult: 2
    decay_mult: 0
  }
  convolution_param {
    num_output: 32
    kernel_size: 1
    weight_filler {
      type: "xavier"
      std: 0.2
    }
    bias_filler {
      type: "constant"
      value: 0.2
    }
  }
}
layer {
  name: "inception_4e/relu_5x5_reduce"
  type: "ReLU"
  bottom: "inception_4e/5x5_reduce"
  top: "inception_4e/5x5_reduce"
}
layer {
  name: "inception_4e/5x5"
  type: "Convolution"
  bottom: "inception_4e/5x5_reduce"
  top: "inception_4e/
I0403 19:18:33.760134 19424 layer_factory.hpp:77] Creating layer data
I0403 19:18:33.760730 19424 net.cpp:91] Creating Layer data
I0403 19:18:33.760761 19424 net.cpp:399] data -> data
I0403 19:18:33.760814 19424 net.cpp:399] data -> label
I0403 19:18:33.760851 19424 data_transformer.cpp:25] Loading mean file from: /home/mohanty/data/final_dataset/lmdb/segmented-60-40/mean.binaryproto
I0403 19:18:33.762085 19428 db_lmdb.cpp:38] Opened lmdb /home/mohanty/data/final_dataset/lmdb/segmented-60-40/test_db
I0403 19:18:33.773931 19424 data_layer.cpp:41] output data size: 24,3,224,224
I0403 19:18:33.800904 19424 net.cpp:141] Setting up data
I0403 19:18:33.800993 19424 net.cpp:148] Top shape: 24 3 224 224 (3612672)
I0403 19:18:33.801017 19424 net.cpp:148] Top shape: 24 (24)
I0403 19:18:33.801031 19424 net.cpp:156] Memory required for data: 14450784
I0403 19:18:33.801059 19424 layer_factory.hpp:77] Creating layer label_data_1_split
I0403 19:18:33.801084 19424 net.cpp:91] Creating Layer label_data_1_split
I0403 19:18:33.801102 19424 net.cpp:425] label_data_1_split <- label
I0403 19:18:33.801133 19424 net.cpp:399] label_data_1_split -> label_data_1_split_0
I0403 19:18:33.801162 19424 net.cpp:399] label_data_1_split -> label_data_1_split_1
I0403 19:18:33.801182 19424 net.cpp:399] label_data_1_split -> label_data_1_split_2
I0403 19:18:33.801203 19424 net.cpp:399] label_data_1_split -> label_data_1_split_3
I0403 19:18:33.801223 19424 net.cpp:399] label_data_1_split -> label_data_1_split_4
I0403 19:18:33.801242 19424 net.cpp:399] label_data_1_split -> label_data_1_split_5
I0403 19:18:33.801261 19424 net.cpp:399] label_data_1_split -> label_data_1_split_6
I0403 19:18:33.801281 19424 net.cpp:399] label_data_1_split -> label_data_1_split_7
I0403 19:18:33.801301 19424 net.cpp:399] label_data_1_split -> label_data_1_split_8
I0403 19:18:33.801321 19424 net.cpp:399] label_data_1_split -> label_data_1_split_9
I0403 19:18:33.801439 19424 net.cpp:141] Setting up label_data_1_split
I0403 19:18:33.801461 19424 net.cpp:148] Top shape: 24 (24)
I0403 19:18:33.801477 19424 net.cpp:148] Top shape: 24 (24)
I0403 19:18:33.801493 19424 net.cpp:148] Top shape: 24 (24)
I0403 19:18:33.801509 19424 net.cpp:148] Top shape: 24 (24)
I0403 19:18:33.801525 19424 net.cpp:148] Top shape: 24 (24)
I0403 19:18:33.801540 19424 net.cpp:148] Top shape: 24 (24)
I0403 19:18:33.801556 19424 net.cpp:148] Top shape: 24 (24)
I0403 19:18:33.801571 19424 net.cpp:148] Top shape: 24 (24)
I0403 19:18:33.801586 19424 net.cpp:148] Top shape: 24 (24)
I0403 19:18:33.801604 19424 net.cpp:148] Top shape: 24 (24)
I0403 19:18:33.801648 19424 net.cpp:156] Memory required for data: 14451744
I0403 19:18:33.801664 19424 layer_factory.hpp:77] Creating layer conv1/7x7_s2
I0403 19:18:33.801695 19424 net.cpp:91] Creating Layer conv1/7x7_s2
I0403 19:18:33.801714 19424 net.cpp:425] conv1/7x7_s2 <- data
I0403 19:18:33.801734 19424 net.cpp:399] conv1/7x7_s2 -> conv1/7x7_s2
I0403 19:18:33.936820 19424 net.cpp:141] Setting up conv1/7x7_s2
I0403 19:18:33.936908 19424 net.cpp:148] Top shape: 24 64 112 112 (19267584)
I0403 19:18:33.936925 19424 net.cpp:156] Memory required for data: 91522080
I0403 19:18:33.936959 19424 layer_factory.hpp:77] Creating layer conv1/relu_7x7
I0403 19:18:33.936986 19424 net.cpp:91] Creating Layer conv1/relu_7x7
I0403 19:18:33.937005 19424 net.cpp:425] conv1/relu_7x7 <- conv1/7x7_s2
I0403 19:18:33.937022 19424 net.cpp:386] conv1/relu_7x7 -> conv1/7x7_s2 (in-place)
I0403 19:18:33.937276 19424 net.cpp:141] Setting up conv1/relu_7x7
I0403 19:18:33.937302 19424 net.cpp:148] Top shape: 24 64 112 112 (19267584)
I0403 19:18:33.937317 19424 net.cpp:156] Memory required for data: 168592416
I0403 19:18:33.937331 19424 layer_factory.hpp:77] Creating layer pool1/3x3_s2
I0403 19:18:33.937355 19424 net.cpp:91] Creating Layer pool1/3x3_s2
I0403 19:18:33.937372 19424 net.cpp:425] pool1/3x3_s2 <- conv1/7x7_s2
I0403 19:18:33.937391 19424 net.cpp:399] pool1/3x3_s2 -> pool1/3x3_s2
I0403 19:18:33.937460 19424 net.cpp:141] Setting up pool1/3x3_s2
I0403 19:18:33.937484 19424 net.cpp:148] Top shape: 24 64 56 56 (4816896)
I0403 19:18:33.937499 19424 net.cpp:156] Memory required for data: 187860000
I0403 19:18:33.937512 19424 layer_factory.hpp:77] Creating layer pool1/norm1
I0403 19:18:33.937535 19424 net.cpp:91] Creating Layer pool1/norm1
I0403 19:18:33.937552 19424 net.cpp:425] pool1/norm1 <- pool1/3x3_s2
I0403 19:18:33.937569 19424 net.cpp:399] pool1/norm1 -> pool1/norm1
I0403 19:18:33.937849 19424 net.cpp:141] Setting up pool1/norm1
I0403 19:18:33.937875 19424 net.cpp:148] Top shape: 24 64 56 56 (4816896)
I0403 19:18:33.937890 19424 net.cpp:156] Memory required for data: 207127584
I0403 19:18:33.937904 19424 layer_factory.hpp:77] Creating layer conv2/3x3_reduce
I0403 19:18:33.937928 19424 net.cpp:91] Creating Layer conv2/3x3_reduce
I0403 19:18:33.937944 19424 net.cpp:425] conv2/3x3_reduce <- pool1/norm1
I0403 19:18:33.937983 19424 net.cpp:399] conv2/3x3_reduce -> conv2/3x3_reduce
I0403 19:18:33.939292 19424 net.cpp:141] Setting up conv2/3x3_reduce
I0403 19:18:33.939321 19424 net.cpp:148] Top shape: 24 64 56 56 (4816896)
I0403 19:18:33.939337 19424 net.cpp:156] Memory required for data: 226395168
I0403 19:18:33.939357 19424 layer_factory.hpp:77] Creating layer conv2/relu_3x3_reduce
I0403 19:18:33.939375 19424 net.cpp:91] Creating Layer conv2/relu_3x3_reduce
I0403 19:18:33.939390 19424 net.cpp:425] conv2/relu_3x3_reduce <- conv2/3x3_reduce
I0403 19:18:33.939407 19424 net.cpp:386] conv2/relu_3x3_reduce -> conv2/3x3_reduce (in-place)
I0403 19:18:33.939656 19424 net.cpp:141] Setting up conv2/relu_3x3_reduce
I0403 19:18:33.939682 19424 net.cpp:148] Top shape: 24 64 56 56 (4816896)
I0403 19:18:33.939697 19424 net.cpp:156] Memory required for data: 245662752
I0403 19:18:33.939713 19424 layer_factory.hpp:77] Creating layer conv2/3x3
I0403 19:18:33.939733 19424 net.cpp:91] Creating Layer conv2/3x3
I0403 19:18:33.939750 19424 net.cpp:425] conv2/3x3 <- conv2/3x3_reduce
I0403 19:18:33.939769 19424 net.cpp:399] conv2/3x3 -> conv2/3x3
I0403 19:18:33.941956 19424 net.cpp:141] Setting up conv2/3x3
I0403 19:18:33.941987 19424 net.cpp:148] Top shape: 24 192 56 56 (14450688)
I0403 19:18:33.942003 19424 net.cpp:156] Memory required for data: 303465504
I0403 19:18:33.942023 19424 layer_factory.hpp:77] Creating layer conv2/relu_3x3
I0403 19:18:33.942042 19424 net.cpp:91] Creating Layer conv2/relu_3x3
I0403 19:18:33.942057 19424 net.cpp:425] conv2/relu_3x3 <- conv2/3x3
I0403 19:18:33.942075 19424 net.cpp:386] conv2/relu_3x3 -> conv2/3x3 (in-place)
I0403 19:18:33.942239 19424 net.cpp:141] Setting up conv2/relu_3x3
I0403 19:18:33.942263 19424 net.cpp:148] Top shape: 24 192 56 56 (14450688)
I0403 19:18:33.942307 19424 net.cpp:156] Memory required for data: 361268256
I0403 19:18:33.942323 19424 layer_factory.hpp:77] Creating layer conv2/norm2
I0403 19:18:33.942343 19424 net.cpp:91] Creating Layer conv2/norm2
I0403 19:18:33.942359 19424 net.cpp:425] conv2/norm2 <- conv2/3x3
I0403 19:18:33.942376 19424 net.cpp:399] conv2/norm2 -> conv2/norm2
I0403 19:18:33.942677 19424 net.cpp:141] Setting up conv2/norm2
I0403 19:18:33.942705 19424 net.cpp:148] Top shape: 24 192 56 56 (14450688)
I0403 19:18:33.942721 19424 net.cpp:156] Memory required for data: 419071008
I0403 19:18:33.942736 19424 layer_factory.hpp:77] Creating layer pool2/3x3_s2
I0403 19:18:33.942754 19424 net.cpp:91] Creating Layer pool2/3x3_s2
I0403 19:18:33.942770 19424 net.cpp:425] pool2/3x3_s2 <- conv2/norm2
I0403 19:18:33.942786 19424 net.cpp:399] pool2/3x3_s2 -> pool2/3x3_s2
I0403 19:18:33.942838 19424 net.cpp:141] Setting up pool2/3x3_s2
I0403 19:18:33.942862 19424 net.cpp:148] Top shape: 24 192 28 28 (3612672)
I0403 19:18:33.942875 19424 net.cpp:156] Memory required for data: 433521696
I0403 19:18:33.942889 19424 layer_factory.hpp:77] Creating layer pool2/3x3_s2_pool2/3x3_s2_0_split
I0403 19:18:33.942919 19424 net.cpp:91] Creating Layer pool2/3x3_s2_pool2/3x3_s2_0_split
I0403 19:18:33.942935 19424 net.cpp:425] pool2/3x3_s2_pool2/3x3_s2_0_split <- pool2/3x3_s2
I0403 19:18:33.942960 19424 net.cpp:399] pool2/3x3_s2_pool2/3x3_s2_0_split -> pool2/3x3_s2_pool2/3x3_s2_0_split_0
I0403 19:18:33.942983 19424 net.cpp:399] pool2/3x3_s2_pool2/3x3_s2_0_split -> pool2/3x3_s2_pool2/3x3_s2_0_split_1
I0403 19:18:33.943003 19424 net.cpp:399] pool2/3x3_s2_pool2/3x3_s2_0_split -> pool2/3x3_s2_pool2/3x3_s2_0_split_2
I0403 19:18:33.943022 19424 net.cpp:399] pool2/3x3_s2_pool2/3x3_s2_0_split -> pool2/3x3_s2_pool2/3x3_s2_0_split_3
I0403 19:18:33.943096 19424 net.cpp:141] Setting up pool2/3x3_s2_pool2/3x3_s2_0_split
I0403 19:18:33.943120 19424 net.cpp:148] Top shape: 24 192 28 28 (3612672)
I0403 19:18:33.943135 19424 net.cpp:148] Top shape: 24 192 28 28 (3612672)
I0403 19:18:33.943151 19424 net.cpp:148] Top shape: 24 192 28 28 (3612672)
I0403 19:18:33.943167 19424 net.cpp:148] Top shape: 24 192 28 28 (3612672)
I0403 19:18:33.943181 19424 net.cpp:156] Memory required for data: 491324448
I0403 19:18:33.943195 19424 layer_factory.hpp:77] Creating layer inception_3a/1x1
I0403 19:18:33.943228 19424 net.cpp:91] Creating Layer inception_3a/1x1
I0403 19:18:33.943245 19424 net.cpp:425] inception_3a/1x1 <- pool2/3x3_s2_pool2/3x3_s2_0_split_0
I0403 19:18:33.943266 19424 net.cpp:399] inception_3a/1x1 -> inception_3a/1x1
I0403 19:18:33.944761 19424 net.cpp:141] Setting up inception_3a/1x1
I0403 19:18:33.944792 19424 net.cpp:148] Top shape: 24 64 28 28 (1204224)
I0403 19:18:33.944809 19424 net.cpp:156] Memory required for data: 496141344
I0403 19:18:33.944828 19424 layer_factory.hpp:77] Creating layer inception_3a/relu_1x1
I0403 19:18:33.944845 19424 net.cpp:91] Creating Layer inception_3a/relu_1x1
I0403 19:18:33.944861 19424 net.cpp:425] inception_3a/relu_1x1 <- inception_3a/1x1
I0403 19:18:33.944880 19424 net.cpp:386] inception_3a/relu_1x1 -> inception_3a/1x1 (in-place)
I0403 19:18:33.945057 19424 net.cpp:141] Setting up inception_3a/relu_1x1
I0403 19:18:33.945082 19424 net.cpp:148] Top shape: 24 64 28 28 (1204224)
I0403 19:18:33.945096 19424 net.cpp:156] Memory required for data: 500958240
I0403 19:18:33.945111 19424 layer_factory.hpp:77] Creating layer inception_3a/3x3_reduce
I0403 19:18:33.945132 19424 net.cpp:91] Creating Layer inception_3a/3x3_reduce
I0403 19:18:33.945149 19424 net.cpp:425] inception_3a/3x3_reduce <- pool2/3x3_s2_pool2/3x3_s2_0_split_1
I0403 19:18:33.945170 19424 net.cpp:399] inception_3a/3x3_reduce -> inception_3a/3x3_reduce
I0403 19:18:33.946823 19424 net.cpp:141] Setting up inception_3a/3x3_reduce
I0403 19:18:33.946856 19424 net.cpp:148] Top shape: 24 96 28 28 (1806336)
I0403 19:18:33.946872 19424 net.cpp:156] Memory required for data: 508183584
I0403 19:18:33.946894 19424 layer_factory.hpp:77] Creating layer inception_3a/relu_3x3_reduce
I0403 19:18:33.946928 19424 net.cpp:91] Creating Layer inception_3a/relu_3x3_reduce
I0403 19:18:33.946950 19424 net.cpp:425] inception_3a/relu_3x3_reduce <- inception_3a/3x3_reduce
I0403 19:18:33.946972 19424 net.cpp:386] inception_3a/relu_3x3_reduce -> inception_3a/3x3_reduce (in-place)
I0403 19:18:33.947151 19424 net.cpp:141] Setting up inception_3a/relu_3x3_reduce
I0403 19:18:33.947180 19424 net.cpp:148] Top shape: 24 96 28 28 (1806336)
I0403 19:18:33.947196 19424 net.cpp:156] Memory required for data: 515408928
I0403 19:18:33.947209 19424 layer_factory.hpp:77] Creating layer inception_3a/3x3
I0403 19:18:33.947229 19424 net.cpp:91] Creating Layer inception_3a/3x3
I0403 19:18:33.947245 19424 net.cpp:425] inception_3a/3x3 <- inception_3a/3x3_reduce
I0403 19:18:33.947268 19424 net.cpp:399] inception_3a/3x3 -> inception_3a/3x3
I0403 19:18:33.948892 19424 net.cpp:141] Setting up inception_3a/3x3
I0403 19:18:33.948922 19424 net.cpp:148] Top shape: 24 128 28 28 (2408448)
I0403 19:18:33.948938 19424 net.cpp:156] Memory required for data: 525042720
I0403 19:18:33.948968 19424 layer_factory.hpp:77] Creating layer inception_3a/relu_3x3
I0403 19:18:33.948989 19424 net.cpp:91] Creating Layer inception_3a/relu_3x3
I0403 19:18:33.949005 19424 net.cpp:425] inception_3a/relu_3x3 <- inception_3a/3x3
I0403 19:18:33.949025 19424 net.cpp:386] inception_3a/relu_3x3 -> inception_3a/3x3 (in-place)
I0403 19:18:33.949295 19424 net.cpp:141] Setting up inception_3a/relu_3x3
I0403 19:18:33.949323 19424 net.cpp:148] Top shape: 24 128 28 28 (2408448)
I0403 19:18:33.949339 19424 net.cpp:156] Memory required for data: 534676512
I0403 19:18:33.949354 19424 layer_factory.hpp:77] Creating layer inception_3a/5x5_reduce
I0403 19:18:33.949378 19424 net.cpp:91] Creating Layer inception_3a/5x5_reduce
I0403 19:18:33.949394 19424 net.cpp:425] inception_3a/5x5_reduce <- pool2/3x3_s2_pool2/3x3_s2_0_split_2
I0403 19:18:33.949415 19424 net.cpp:399] inception_3a/5x5_reduce -> inception_3a/5x5_reduce
I0403 19:18:33.950357 19424 net.cpp:141] Setting up inception_3a/5x5_reduce
I0403 19:18:33.950384 19424 net.cpp:148] Top shape: 24 16 28 28 (301056)
I0403 19:18:33.950400 19424 net.cpp:156] Memory required for data: 535880736
I0403 19:18:33.950418 19424 layer_factory.hpp:77] Creating layer inception_3a/relu_5x5_reduce
I0403 19:18:33.950440 19424 net.cpp:91] Creating Layer inception_3a/relu_5x5_reduce
I0403 19:18:33.950459 19424 net.cpp:425] inception_3a/relu_5x5_reduce <- inception_3a/5x5_reduce
I0403 19:18:33.950476 19424 net.cpp:386] inception_3a/relu_5x5_reduce -> inception_3a/5x5_reduce (in-place)
I0403 19:18:33.950770 19424 net.cpp:141] Setting up inception_3a/relu_5x5_reduce
I0403 19:18:33.950796 19424 net.cpp:148] Top shape: 24 16 28 28 (301056)
I0403 19:18:33.950811 19424 net.cpp:156] Memory required for data: 537084960
I0403 19:18:33.950825 19424 layer_factory.hpp:77] Creating layer inception_3a/5x5
I0403 19:18:33.950847 19424 net.cpp:91] Creating Layer inception_3a/5x5
I0403 19:18:33.950865 19424 net.cpp:425] inception_3a/5x5 <- inception_3a/5x5_reduce
I0403 19:18:33.950886 19424 net.cpp:399] inception_3a/5x5 -> inception_3a/5x5
I0403 19:18:33.951886 19424 net.cpp:141] Setting up inception_3a/5x5
I0403 19:18:33.951915 19424 net.cpp:148] Top shape: 24 32 28 28 (602112)
I0403 19:18:33.951932 19424 net.cpp:156] Memory required for data: 539493408
I0403 19:18:33.951954 19424 layer_factory.hpp:77] Creating layer inception_3a/relu_5x5
I0403 19:18:33.951974 19424 net.cpp:91] Creating Layer inception_3a/relu_5x5
I0403 19:18:33.951990 19424 net.cpp:425] inception_3a/relu_5x5 <- inception_3a/5x5
I0403 19:18:33.952010 19424 net.cpp:386] inception_3a/relu_5x5 -> inception_3a/5x5 (in-place)
I0403 19:18:33.952178 19424 net.cpp:141] Setting up inception_3a/relu_5x5
I0403 19:18:33.952204 19424 net.cpp:148] Top shape: 24 32 28 28 (602112)
I0403 19:18:33.952219 19424 net.cpp:156] Memory required for data: 541901856
I0403 19:18:33.952234 19424 layer_factory.hpp:77] Creating layer inception_3a/pool
I0403 19:18:33.952250 19424 net.cpp:91] Creating Layer inception_3a/pool
I0403 19:18:33.952281 19424 net.cpp:425] inception_3a/pool <- pool2/3x3_s2_pool2/3x3_s2_0_split_3
I0403 19:18:33.952302 19424 net.cpp:399] inception_3a/pool -> inception_3a/pool
I0403 19:18:33.952360 19424 net.cpp:141] Setting up inception_3a/pool
I0403 19:18:33.952383 19424 net.cpp:148] Top shape: 24 192 28 28 (3612672)
I0403 19:18:33.952396 19424 net.cpp:156] Memory required for data: 556352544
I0403 19:18:33.952411 19424 layer_factory.hpp:77] Creating layer inception_3a/pool_proj
I0403 19:18:33.952435 19424 net.cpp:91] Creating Layer inception_3a/pool_proj
I0403 19:18:33.952452 19424 net.cpp:425] inception_3a/pool_proj <- inception_3a/pool
I0403 19:18:33.952471 19424 net.cpp:399] inception_3a/pool_proj -> inception_3a/pool_proj
I0403 19:18:33.953433 19424 net.cpp:141] Setting up inception_3a/pool_proj
I0403 19:18:33.953460 19424 net.cpp:148] Top shape: 24 32 28 28 (602112)
I0403 19:18:33.953476 19424 net.cpp:156] Memory required for data: 558760992
I0403 19:18:33.953500 19424 layer_factory.hpp:77] Creating layer inception_3a/relu_pool_proj
I0403 19:18:33.953521 19424 net.cpp:91] Creating Layer inception_3a/relu_pool_proj
I0403 19:18:33.953538 19424 net.cpp:425] inception_3a/relu_pool_proj <- inception_3a/pool_proj
I0403 19:18:33.953555 19424 net.cpp:386] inception_3a/relu_pool_proj -> inception_3a/pool_proj (in-place)
I0403 19:18:33.953829 19424 net.cpp:141] Setting up inception_3a/relu_pool_proj
I0403 19:18:33.953855 19424 net.cpp:148] Top shape: 24 32 28 28 (602112)
I0403 19:18:33.953871 19424 net.cpp:156] Memory required for data: 561169440
I0403 19:18:33.953886 19424 layer_factory.hpp:77] Creating layer inception_3a/output
I0403 19:18:33.953902 19424 net.cpp:91] Creating Layer inception_3a/output
I0403 19:18:33.953918 19424 net.cpp:425] inception_3a/output <- inception_3a/1x1
I0403 19:18:33.953935 19424 net.cpp:425] inception_3a/output <- inception_3a/3x3
I0403 19:18:33.953956 19424 net.cpp:425] inception_3a/output <- inception_3a/5x5
I0403 19:18:33.953974 19424 net.cpp:425] inception_3a/output <- inception_3a/pool_proj
I0403 19:18:33.953992 19424 net.cpp:399] inception_3a/output -> inception_3a/output
I0403 19:18:33.954037 19424 net.cpp:141] Setting up inception_3a/output
I0403 19:18:33.954061 19424 net.cpp:148] Top shape: 24 256 28 28 (4816896)
I0403 19:18:33.954074 19424 net.cpp:156] Memory required for data: 580437024
I0403 19:18:33.954088 19424 layer_factory.hpp:77] Creating layer inception_3a/output_inception_3a/output_0_split
I0403 19:18:33.954107 19424 net.cpp:91] Creating Layer inception_3a/output_inception_3a/output_0_split
I0403 19:18:33.954124 19424 net.cpp:425] inception_3a/output_inception_3a/output_0_split <- inception_3a/output
I0403 19:18:33.954140 19424 net.cpp:399] inception_3a/output_inception_3a/output_0_split -> inception_3a/output_inception_3a/output_0_split_0
I0403 19:18:33.954160 19424 net.cpp:399] inception_3a/output_inception_3a/output_0_split -> inception_3a/output_inception_3a/output_0_split_1
I0403 19:18:33.954185 19424 net.cpp:399] inception_3a/output_inception_3a/output_0_split -> inception_3a/output_inception_3a/output_0_split_2
I0403 19:18:33.954207 19424 net.cpp:399] inception_3a/output_inception_3a/output_0_split -> inception_3a/output_inception_3a/output_0_split_3
I0403 19:18:33.954282 19424 net.cpp:141] Setting up inception_3a/output_inception_3a/output_0_split
I0403 19:18:33.954308 19424 net.cpp:148] Top shape: 24 256 28 28 (4816896)
I0403 19:18:33.954324 19424 net.cpp:148] Top shape: 24 256 28 28 (4816896)
I0403 19:18:33.954340 19424 net.cpp:148] Top shape: 24 256 28 28 (4816896)
I0403 19:18:33.954355 19424 net.cpp:148] Top shape: 24 256 28 28 (4816896)
I0403 19:18:33.954370 19424 net.cpp:156] Memory required for data: 657507360
I0403 19:18:33.954383 19424 layer_factory.hpp:77] Creating layer inception_3b/1x1
I0403 19:18:33.954406 19424 net.cpp:91] Creating Layer inception_3b/1x1
I0403 19:18:33.954422 19424 net.cpp:425] inception_3b/1x1 <- inception_3a/output_inception_3a/output_0_split_0
I0403 19:18:33.954442 19424 net.cpp:399] inception_3b/1x1 -> inception_3b/1x1
I0403 19:18:33.955564 19424 net.cpp:141] Setting up inception_3b/1x1
I0403 19:18:33.955605 19424 net.cpp:148] Top shape: 24 128 28 28 (2408448)
I0403 19:18:33.955622 19424 net.cpp:156] Memory required for data: 667141152
I0403 19:18:33.955641 19424 layer_factory.hpp:77] Creating layer inception_3b/relu_1x1
I0403 19:18:33.955658 19424 net.cpp:91] Creating Layer inception_3b/relu_1x1
I0403 19:18:33.955674 19424 net.cpp:425] inception_3b/relu_1x1 <- inception_3b/1x1
I0403 19:18:33.955692 19424 net.cpp:386] inception_3b/relu_1x1 -> inception_3b/1x1 (in-place)
I0403 19:18:33.955867 19424 net.cpp:141] Setting up inception_3b/relu_1x1
I0403 19:18:33.955893 19424 net.cpp:148] Top shape: 24 128 28 28 (2408448)
I0403 19:18:33.955909 19424 net.cpp:156] Memory required for data: 676774944
I0403 19:18:33.955924 19424 layer_factory.hpp:77] Creating layer inception_3b/3x3_reduce
I0403 19:18:33.955945 19424 net.cpp:91] Creating Layer inception_3b/3x3_reduce
I0403 19:18:33.955966 19424 net.cpp:425] inception_3b/3x3_reduce <- inception_3a/output_inception_3a/output_0_split_1
I0403 19:18:33.955987 19424 net.cpp:399] inception_3b/3x3_reduce -> inception_3b/3x3_reduce
I0403 19:18:33.957106 19424 net.cpp:141] Setting up inception_3b/3x3_reduce
I0403 19:18:33.957134 19424 net.cpp:148] Top shape: 24 128 28 28 (2408448)
I0403 19:18:33.957149 19424 net.cpp:156] Memory required for data: 686408736
I0403 19:18:33.957167 19424 layer_factory.hpp:77] Creating layer inception_3b/relu_3x3_reduce
I0403 19:18:33.957187 19424 net.cpp:91] Creating Layer inception_3b/relu_3x3_reduce
I0403 19:18:33.957206 19424 net.cpp:425] inception_3b/relu_3x3_reduce <- inception_3b/3x3_reduce
I0403 19:18:33.957222 19424 net.cpp:386] inception_3b/relu_3x3_reduce -> inception_3b/3x3_reduce (in-place)
I0403 19:18:33.957393 19424 net.cpp:141] Setting up inception_3b/relu_3x3_reduce
I0403 19:18:33.957417 19424 net.cpp:148] Top shape: 24 128 28 28 (2408448)
I0403 19:18:33.957432 19424 net.cpp:156] Memory required for data: 696042528
I0403 19:18:33.957445 19424 layer_factory.hpp:77] Creating layer inception_3b/3x3
I0403 19:18:33.957469 19424 net.cpp:91] Creating Layer inception_3b/3x3
I0403 19:18:33.957489 19424 net.cpp:425] inception_3b/3x3 <- inception_3b/3x3_reduce
I0403 19:18:33.957507 19424 net.cpp:399] inception_3b/3x3 -> inception_3b/3x3
I0403 19:18:33.960396 19424 net.cpp:141] Setting up inception_3b/3x3
I0403 19:18:33.960425 19424 net.cpp:148] Top shape: 24 192 28 28 (3612672)
I0403 19:18:33.960441 19424 net.cpp:156] Memory required for data: 710493216
I0403 19:18:33.960459 19424 layer_factory.hpp:77] Creating layer inception_3b/relu_3x3
I0403 19:18:33.960476 19424 net.cpp:91] Creating Layer inception_3b/relu_3x3
I0403 19:18:33.960492 19424 net.cpp:425] inception_3b/relu_3x3 <- inception_3b/3x3
I0403 19:18:33.960512 19424 net.cpp:386] inception_3b/relu_3x3 -> inception_3b/3x3 (in-place)
I0403 19:18:33.960775 19424 net.cpp:141] Setting up inception_3b/relu_3x3
I0403 19:18:33.960803 19424 net.cpp:148] Top shape: 24 192 28 28 (3612672)
I0403 19:18:33.960818 19424 net.cpp:156] Memory required for data: 724943904
I0403 19:18:33.960831 19424 layer_factory.hpp:77] Creating layer inception_3b/5x5_reduce
I0403 19:18:33.960855 19424 net.cpp:91] Creating Layer inception_3b/5x5_reduce
I0403 19:18:33.960872 19424 net.cpp:425] inception_3b/5x5_reduce <- inception_3a/output_inception_3a/output_0_split_2
I0403 19:18:33.960892 19424 net.cpp:399] inception_3b/5x5_reduce -> inception_3b/5x5_reduce
I0403 19:18:33.961844 19424 net.cpp:141] Setting up inception_3b/5x5_reduce
I0403 19:18:33.961874 19424 net.cpp:148] Top shape: 24 32 28 28 (602112)
I0403 19:18:33.961889 19424 net.cpp:156] Memory required for data: 727352352
I0403 19:18:33.961907 19424 layer_factory.hpp:77] Creating layer inception_3b/relu_5x5_reduce
I0403 19:18:33.961925 19424 net.cpp:91] Creating Layer inception_3b/relu_5x5_reduce
I0403 19:18:33.961941 19424 net.cpp:425] inception_3b/relu_5x5_reduce <- inception_3b/5x5_reduce
I0403 19:18:33.961966 19424 net.cpp:386] inception_3b/relu_5x5_reduce -> inception_3b/5x5_reduce (in-place)
I0403 19:18:33.962149 19424 net.cpp:141] Setting up inception_3b/relu_5x5_reduce
I0403 19:18:33.962172 19424 net.cpp:148] Top shape: 24 32 28 28 (602112)
I0403 19:18:33.962187 19424 net.cpp:156] Memory required for data: 729760800
I0403 19:18:33.962203 19424 layer_factory.hpp:77] Creating layer inception_3b/5x5
I0403 19:18:33.962224 19424 net.cpp:91] Creating Layer inception_3b/5x5
I0403 19:18:33.962240 19424 net.cpp:425] inception_3b/5x5 <- inception_3b/5x5_reduce
I0403 19:18:33.962260 19424 net.cpp:399] inception_3b/5x5 -> inception_3b/5x5
I0403 19:18:33.964148 19424 net.cpp:141] Setting up inception_3b/5x5
I0403 19:18:33.964176 19424 net.cpp:148] Top shape: 24 96 28 28 (1806336)
I0403 19:18:33.964191 19424 net.cpp:156] Memory required for data: 736986144
I0403 19:18:33.964211 19424 layer_factory.hpp:77] Creating layer inception_3b/relu_5x5
I0403 19:18:33.964231 19424 net.cpp:91] Creating Layer inception_3b/relu_5x5
I0403 19:18:33.964246 19424 net.cpp:425] inception_3b/relu_5x5 <- inception_3b/5x5
I0403 19:18:33.964263 19424 net.cpp:386] inception_3b/relu_5x5 -> inception_3b/5x5 (in-place)
I0403 19:18:33.964449 19424 net.cpp:141] Setting up inception_3b/relu_5x5
I0403 19:18:33.964473 19424 net.cpp:148] Top shape: 24 96 28 28 (1806336)
I0403 19:18:33.964488 19424 net.cpp:156] Memory required for data: 744211488
I0403 19:18:33.964501 19424 layer_factory.hpp:77] Creating layer inception_3b/pool
I0403 19:18:33.964519 19424 net.cpp:91] Creating Layer inception_3b/pool
I0403 19:18:33.964534 19424 net.cpp:425] inception_3b/pool <- inception_3a/output_inception_3a/output_0_split_3
I0403 19:18:33.964551 19424 net.cpp:399] inception_3b/pool -> inception_3b/pool
I0403 19:18:33.964604 19424 net.cpp:141] Setting up inception_3b/pool
I0403 19:18:33.964627 19424 net.cpp:148] Top shape: 24 256 28 28 (4816896)
I0403 19:18:33.964640 19424 net.cpp:156] Memory required for data: 763479072
I0403 19:18:33.964653 19424 layer_factory.hpp:77] Creating layer inception_3b/pool_proj
I0403 19:18:33.964675 19424 net.cpp:91] Creating Layer inception_3b/pool_proj
I0403 19:18:33.964694 19424 net.cpp:425] inception_3b/pool_proj <- inception_3b/pool
I0403 19:18:33.964711 19424 net.cpp:399] inception_3b/pool_proj -> inception_3b/pool_proj
I0403 19:18:33.965731 19424 net.cpp:141] Setting up inception_3b/pool_proj
I0403 19:18:33.965759 19424 net.cpp:148] Top shape: 24 64 28 28 (1204224)
I0403 19:18:33.965773 19424 net.cpp:156] Memory required for data: 768295968
I0403 19:18:33.965790 19424 layer_factory.hpp:77] Creating layer inception_3b/relu_pool_proj
I0403 19:18:33.965809 19424 net.cpp:91] Creating Layer inception_3b/relu_pool_proj
I0403 19:18:33.965826 19424 net.cpp:425] inception_3b/relu_pool_proj <- inception_3b/pool_proj
I0403 19:18:33.965843 19424 net.cpp:386] inception_3b/relu_pool_proj -> inception_3b/pool_proj (in-place)
I0403 19:18:33.966289 19424 net.cpp:141] Setting up inception_3b/relu_pool_proj
I0403 19:18:33.966313 19424 net.cpp:148] Top shape: 24 64 28 28 (1204224)
I0403 19:18:33.966328 19424 net.cpp:156] Memory required for data: 773112864
I0403 19:18:33.966342 19424 layer_factory.hpp:77] Creating layer inception_3b/output
I0403 19:18:33.966359 19424 net.cpp:91] Creating Layer inception_3b/output
I0403 19:18:33.966374 19424 net.cpp:425] inception_3b/output <- inception_3b/1x1
I0403 19:18:33.966392 19424 net.cpp:425] inception_3b/output <- inception_3b/3x3
I0403 19:18:33.966406 19424 net.cpp:425] inception_3b/output <- inception_3b/5x5
I0403 19:18:33.966421 19424 net.cpp:425] inception_3b/output <- inception_3b/pool_proj
I0403 19:18:33.966439 19424 net.cpp:399] inception_3b/output -> inception_3b/output
I0403 19:18:33.966481 19424 net.cpp:141] Setting up inception_3b/output
I0403 19:18:33.966506 19424 net.cpp:148] Top shape: 24 480 28 28 (9031680)
I0403 19:18:33.966521 19424 net.cpp:156] Memory required for data: 809239584
I0403 19:18:33.966534 19424 layer_factory.hpp:77] Creating layer pool3/3x3_s2
I0403 19:18:33.966552 19424 net.cpp:91] Creating Layer pool3/3x3_s2
I0403 19:18:33.966567 19424 net.cpp:425] pool3/3x3_s2 <- inception_3b/output
I0403 19:18:33.966599 19424 net.cpp:399] pool3/3x3_s2 -> pool3/3x3_s2
I0403 19:18:33.966655 19424 net.cpp:141] Setting up pool3/3x3_s2
I0403 19:18:33.966677 19424 net.cpp:148] Top shape: 24 480 14 14 (2257920)
I0403 19:18:33.966692 19424 net.cpp:156] Memory required for data: 818271264
I0403 19:18:33.966706 19424 layer_factory.hpp:77] Creating layer pool3/3x3_s2_pool3/3x3_s2_0_split
I0403 19:18:33.966724 19424 net.cpp:91] Creating Layer pool3/3x3_s2_pool3/3x3_s2_0_split
I0403 19:18:33.966739 19424 net.cpp:425] pool3/3x3_s2_pool3/3x3_s2_0_split <- pool3/3x3_s2
I0403 19:18:33.966755 19424 net.cpp:399] pool3/3x3_s2_pool3/3x3_s2_0_split -> pool3/3x3_s2_pool3/3x3_s2_0_split_0
I0403 19:18:33.966774 19424 net.cpp:399] pool3/3x3_s2_pool3/3x3_s2_0_split -> pool3/3x3_s2_pool3/3x3_s2_0_split_1
I0403 19:18:33.966794 19424 net.cpp:399] pool3/3x3_s2_pool3/3x3_s2_0_split -> pool3/3x3_s2_pool3/3x3_s2_0_split_2
I0403 19:18:33.966814 19424 net.cpp:399] pool3/3x3_s2_pool3/3x3_s2_0_split -> pool3/3x3_s2_pool3/3x3_s2_0_split_3
I0403 19:18:33.966889 19424 net.cpp:141] Setting up pool3/3x3_s2_pool3/3x3_s2_0_split
I0403 19:18:33.966912 19424 net.cpp:148] Top shape: 24 480 14 14 (2257920)
I0403 19:18:33.966928 19424 net.cpp:148] Top shape: 24 480 14 14 (2257920)
I0403 19:18:33.966943 19424 net.cpp:148] Top shape: 24 480 14 14 (2257920)
I0403 19:18:33.966964 19424 net.cpp:148] Top shape: 24 480 14 14 (2257920)
I0403 19:18:33.966977 19424 net.cpp:156] Memory required for data: 854397984
I0403 19:18:33.966991 19424 layer_factory.hpp:77] Creating layer inception_4a/1x1
I0403 19:18:33.967012 19424 net.cpp:91] Creating Layer inception_4a/1x1
I0403 19:18:33.967030 19424 net.cpp:425] inception_4a/1x1 <- pool3/3x3_s2_pool3/3x3_s2_0_split_0
I0403 19:18:33.967051 19424 net.cpp:399] inception_4a/1x1 -> inception_4a/1x1
I0403 19:18:33.968621 19424 net.cpp:141] Setting up inception_4a/1x1
I0403 19:18:33.968649 19424 net.cpp:148] Top shape: 24 192 14 14 (903168)
I0403 19:18:33.968664 19424 net.cpp:156] Memory required for data: 858010656
I0403 19:18:33.968683 19424 layer_factory.hpp:77] Creating layer inception_4a/relu_1x1
I0403 19:18:33.968703 19424 net.cpp:91] Creating Layer inception_4a/relu_1x1
I0403 19:18:33.968720 19424 net.cpp:425] inception_4a/relu_1x1 <- inception_4a/1x1
I0403 19:18:33.968737 19424 net.cpp:386] inception_4a/relu_1x1 -> inception_4a/1x1 (in-place)
I0403 19:18:33.968910 19424 net.cpp:141] Setting up inception_4a/relu_1x1
I0403 19:18:33.968937 19424 net.cpp:148] Top shape: 24 192 14 14 (903168)
I0403 19:18:33.968964 19424 net.cpp:156] Memory required for data: 861623328
I0403 19:18:33.968981 19424 layer_factory.hpp:77] Creating layer inception_4a/3x3_reduce
I0403 19:18:33.969003 19424 net.cpp:91] Creating Layer inception_4a/3x3_reduce
I0403 19:18:33.969022 19424 net.cpp:425] inception_4a/3x3_reduce <- pool3/3x3_s2_pool3/3x3_s2_0_split_1
I0403 19:18:33.969040 19424 net.cpp:399] inception_4a/3x3_reduce -> inception_4a/3x3_reduce
I0403 19:18:33.970289 19424 net.cpp:141] Setting up inception_4a/3x3_reduce
I0403 19:18:33.970316 19424 net.cpp:148] Top shape: 24 96 14 14 (451584)
I0403 19:18:33.970332 19424 net.cpp:156] Memory required for data: 863429664
I0403 19:18:33.970356 19424 layer_factory.hpp:77] Creating layer inception_4a/relu_3x3_reduce
I0403 19:18:33.970376 19424 net.cpp:91] Creating Layer inception_4a/relu_3x3_reduce
I0403 19:18:33.970391 19424 net.cpp:425] inception_4a/relu_3x3_reduce <- inception_4a/3x3_reduce
I0403 19:18:33.970412 19424 net.cpp:386] inception_4a/relu_3x3_reduce -> inception_4a/3x3_reduce (in-place)
I0403 19:18:33.970585 19424 net.cpp:141] Setting up inception_4a/relu_3x3_reduce
I0403 19:18:33.970613 19424 net.cpp:148] Top shape: 24 96 14 14 (451584)
I0403 19:18:33.970628 19424 net.cpp:156] Memory required for data: 865236000
I0403 19:18:33.970641 19424 layer_factory.hpp:77] Creating layer inception_4a/3x3
I0403 19:18:33.970661 19424 net.cpp:91] Creating Layer inception_4a/3x3
I0403 19:18:33.970679 19424 net.cpp:425] inception_4a/3x3 <- inception_4a/3x3_reduce
I0403 19:18:33.970698 19424 net.cpp:399] inception_4a/3x3 -> inception_4a/3x3
I0403 19:18:33.973336 19424 net.cpp:141] Setting up inception_4a/3x3
I0403 19:18:33.973366 19424 net.cpp:148] Top shape: 24 208 14 14 (978432)
I0403 19:18:33.973381 19424 net.cpp:156] Memory required for data: 869149728
I0403 19:18:33.973402 19424 layer_factory.hpp:77] Creating layer inception_4a/relu_3x3
I0403 19:18:33.973420 19424 net.cpp:91] Creating Layer inception_4a/relu_3x3
I0403 19:18:33.973438 19424 net.cpp:425] inception_4a/relu_3x3 <- inception_4a/3x3
I0403 19:18:33.973454 19424 net.cpp:386] inception_4a/relu_3x3 -> inception_4a/3x3 (in-place)
I0403 19:18:33.973729 19424 net.cpp:141] Setting up inception_4a/relu_3x3
I0403 19:18:33.973755 19424 net.cpp:148] Top shape: 24 208 14 14 (978432)
I0403 19:18:33.973772 19424 net.cpp:156] Memory required for data: 873063456
I0403 19:18:33.973785 19424 layer_factory.hpp:77] Creating layer inception_4a/5x5_reduce
I0403 19:18:33.973810 19424 net.cpp:91] Creating Layer inception_4a/5x5_reduce
I0403 19:18:33.973829 19424 net.cpp:425] inception_4a/5x5_reduce <- pool3/3x3_s2_pool3/3x3_s2_0_split_2
I0403 19:18:33.973848 19424 net.cpp:399] inception_4a/5x5_reduce -> inception_4a/5x5_reduce
I0403 19:18:33.974846 19424 net.cpp:141] Setting up inception_4a/5x5_reduce
I0403 19:18:33.974875 19424 net.cpp:148] Top shape: 24 16 14 14 (75264)
I0403 19:18:33.974891 19424 net.cpp:156] Memory required for data: 873364512
I0403 19:18:33.974910 19424 layer_factory.hpp:77] Creating layer inception_4a/relu_5x5_reduce
I0403 19:18:33.974928 19424 net.cpp:91] Creating Layer inception_4a/relu_5x5_reduce
I0403 19:18:33.974944 19424 net.cpp:425] inception_4a/relu_5x5_reduce <- inception_4a/5x5_reduce
I0403 19:18:33.974968 19424 net.cpp:386] inception_4a/relu_5x5_reduce -> inception_4a/5x5_reduce (in-place)
I0403 19:18:33.975144 19424 net.cpp:141] Setting up inception_4a/relu_5x5_reduce
I0403 19:18:33.975169 19424 net.cpp:148] Top shape: 24 16 14 14 (75264)
I0403 19:18:33.975183 19424 net.cpp:156] Memory required for data: 873665568
I0403 19:18:33.975198 19424 layer_factory.hpp:77] Creating layer inception_4a/5x5
I0403 19:18:33.975220 19424 net.cpp:91] Creating Layer inception_4a/5x5
I0403 19:18:33.975239 19424 net.cpp:425] inception_4a/5x5 <- inception_4a/5x5_reduce
I0403 19:18:33.975258 19424 net.cpp:399] inception_4a/5x5 -> inception_4a/5x5
I0403 19:18:33.976322 19424 net.cpp:141] Setting up inception_4a/5x5
I0403 19:18:33.976349 19424 net.cpp:148] Top shape: 24 48 14 14 (225792)
I0403 19:18:33.976364 19424 net.cpp:156] Memory required for data: 874568736
I0403 19:18:33.976382 19424 layer_factory.hpp:77] Creating layer inception_4a/relu_5x5
I0403 19:18:33.976405 19424 net.cpp:91] Creating Layer inception_4a/relu_5x5
I0403 19:18:33.976421 19424 net.cpp:425] inception_4a/relu_5x5 <- inception_4a/5x5
I0403 19:18:33.976438 19424 net.cpp:386] inception_4a/relu_5x5 -> inception_4a/5x5 (in-place)
I0403 19:18:33.976613 19424 net.cpp:141] Setting up inception_4a/relu_5x5
I0403 19:18:33.976637 19424 net.cpp:148] Top shape: 24 48 14 14 (225792)
I0403 19:18:33.976651 19424 net.cpp:156] Memory required for data: 875471904
I0403 19:18:33.976666 19424 layer_factory.hpp:77] Creating layer inception_4a/pool
I0403 19:18:33.976686 19424 net.cpp:91] Creating Layer inception_4a/pool
I0403 19:18:33.976702 19424 net.cpp:425] inception_4a/pool <- pool3/3x3_s2_pool3/3x3_s2_0_split_3
I0403 19:18:33.976719 19424 net.cpp:399] inception_4a/pool -> inception_4a/pool
I0403 19:18:33.976780 19424 net.cpp:141] Setting up inception_4a/pool
I0403 19:18:33.976804 19424 net.cpp:148] Top shape: 24 480 14 14 (2257920)
I0403 19:18:33.976817 19424 net.cpp:156] Memory required for data: 884503584
I0403 19:18:33.976831 19424 layer_factory.hpp:77] Creating layer inception_4a/pool_proj
I0403 19:18:33.976853 19424 net.cpp:91] Creating Layer inception_4a/pool_proj
I0403 19:18:33.976871 19424 net.cpp:425] inception_4a/pool_proj <- inception_4a/pool
I0403 19:18:33.976891 19424 net.cpp:399] inception_4a/pool_proj -> inception_4a/pool_proj
I0403 19:18:33.978041 19424 net.cpp:141] Setting up inception_4a/pool_proj
I0403 19:18:33.978070 19424 net.cpp:148] Top shape: 24 64 14 14 (301056)
I0403 19:18:33.978101 19424 net.cpp:156] Memory required for data: 885707808
I0403 19:18:33.978121 19424 layer_factory.hpp:77] Creating layer inception_4a/relu_pool_proj
I0403 19:18:33.978142 19424 net.cpp:91] Creating Layer inception_4a/relu_pool_proj
I0403 19:18:33.978159 19424 net.cpp:425] inception_4a/relu_pool_proj <- inception_4a/pool_proj
I0403 19:18:33.978176 19424 net.cpp:386] inception_4a/relu_pool_proj -> inception_4a/pool_proj (in-place)
I0403 19:18:33.978456 19424 net.cpp:141] Setting up inception_4a/relu_pool_proj
I0403 19:18:33.978482 19424 net.cpp:148] Top shape: 24 64 14 14 (301056)
I0403 19:18:33.978497 19424 net.cpp:156] Memory required for data: 886912032
I0403 19:18:33.978510 19424 layer_factory.hpp:77] Creating layer inception_4a/output
I0403 19:18:33.978530 19424 net.cpp:91] Creating Layer inception_4a/output
I0403 19:18:33.978548 19424 net.cpp:425] inception_4a/output <- inception_4a/1x1
I0403 19:18:33.978564 19424 net.cpp:425] inception_4a/output <- inception_4a/3x3
I0403 19:18:33.978579 19424 net.cpp:425] inception_4a/output <- inception_4a/5x5
I0403 19:18:33.978595 19424 net.cpp:425] inception_4a/output <- inception_4a/pool_proj
I0403 19:18:33.978611 19424 net.cpp:399] inception_4a/output -> inception_4a/output
I0403 19:18:33.978657 19424 net.cpp:141] Setting up inception_4a/output
I0403 19:18:33.978680 19424 net.cpp:148] Top shape: 24 512 14 14 (2408448)
I0403 19:18:33.978694 19424 net.cpp:156] Memory required for data: 896545824
I0403 19:18:33.978709 19424 layer_factory.hpp:77] Creating layer inception_4a/output_inception_4a/output_0_split
I0403 19:18:33.978726 19424 net.cpp:91] Creating Layer inception_4a/output_inception_4a/output_0_split
I0403 19:18:33.978741 19424 net.cpp:425] inception_4a/output_inception_4a/output_0_split <- inception_4a/output
I0403 19:18:33.978760 19424 net.cpp:399] inception_4a/output_inception_4a/output_0_split -> inception_4a/output_inception_4a/output_0_split_0
I0403 19:18:33.978781 19424 net.cpp:399] inception_4a/output_inception_4a/output_0_split -> inception_4a/output_inception_4a/output_0_split_1
I0403 19:18:33.978802 19424 net.cpp:399] inception_4a/output_inception_4a/output_0_split -> inception_4a/output_inception_4a/output_0_split_2
I0403 19:18:33.978822 19424 net.cpp:399] inception_4a/output_inception_4a/output_0_split -> inception_4a/output_inception_4a/output_0_split_3
I0403 19:18:33.978842 19424 net.cpp:399] inception_4a/output_inception_4a/output_0_split -> inception_4a/output_inception_4a/output_0_split_4
I0403 19:18:33.978932 19424 net.cpp:141] Setting up inception_4a/output_inception_4a/output_0_split
I0403 19:18:33.978965 19424 net.cpp:148] Top shape: 24 512 14 14 (2408448)
I0403 19:18:33.978986 19424 net.cpp:148] Top shape: 24 512 14 14 (2408448)
I0403 19:18:33.979002 19424 net.cpp:148] Top shape: 24 512 14 14 (2408448)
I0403 19:18:33.979017 19424 net.cpp:148] Top shape: 24 512 14 14 (2408448)
I0403 19:18:33.979033 19424 net.cpp:148] Top shape: 24 512 14 14 (2408448)
I0403 19:18:33.979046 19424 net.cpp:156] Memory required for data: 944714784
I0403 19:18:33.979060 19424 layer_factory.hpp:77] Creating layer loss1/ave_pool
I0403 19:18:33.979077 19424 net.cpp:91] Creating Layer loss1/ave_pool
I0403 19:18:33.979094 19424 net.cpp:425] loss1/ave_pool <- inception_4a/output_inception_4a/output_0_split_0
I0403 19:18:33.979116 19424 net.cpp:399] loss1/ave_pool -> loss1/ave_pool
I0403 19:18:33.979316 19424 net.cpp:141] Setting up loss1/ave_pool
I0403 19:18:33.979342 19424 net.cpp:148] Top shape: 24 512 4 4 (196608)
I0403 19:18:33.979357 19424 net.cpp:156] Memory required for data: 945501216
I0403 19:18:33.979372 19424 layer_factory.hpp:77] Creating layer loss1/conv
I0403 19:18:33.979393 19424 net.cpp:91] Creating Layer loss1/conv
I0403 19:18:33.979411 19424 net.cpp:425] loss1/conv <- loss1/ave_pool
I0403 19:18:33.979431 19424 net.cpp:399] loss1/conv -> loss1/conv
I0403 19:18:33.980820 19424 net.cpp:141] Setting up loss1/conv
I0403 19:18:33.980850 19424 net.cpp:148] Top shape: 24 128 4 4 (49152)
I0403 19:18:33.980880 19424 net.cpp:156] Memory required for data: 945697824
I0403 19:18:33.980900 19424 layer_factory.hpp:77] Creating layer loss1/relu_conv
I0403 19:18:33.980918 19424 net.cpp:91] Creating Layer loss1/relu_conv
I0403 19:18:33.980936 19424 net.cpp:425] loss1/relu_conv <- loss1/conv
I0403 19:18:33.980960 19424 net.cpp:386] loss1/relu_conv -> loss1/conv (in-place)
I0403 19:18:33.981240 19424 net.cpp:141] Setting up loss1/relu_conv
I0403 19:18:33.981267 19424 net.cpp:148] Top shape: 24 128 4 4 (49152)
I0403 19:18:33.981283 19424 net.cpp:156] Memory required for data: 945894432
I0403 19:18:33.981298 19424 layer_factory.hpp:77] Creating layer loss1/fc
I0403 19:18:33.981320 19424 net.cpp:91] Creating Layer loss1/fc
I0403 19:18:33.981338 19424 net.cpp:425] loss1/fc <- loss1/conv
I0403 19:18:33.981359 19424 net.cpp:399] loss1/fc -> loss1/fc
I0403 19:18:33.999001 19424 net.cpp:141] Setting up loss1/fc
I0403 19:18:33.999037 19424 net.cpp:148] Top shape: 24 1024 (24576)
I0403 19:18:33.999052 19424 net.cpp:156] Memory required for data: 945992736
I0403 19:18:33.999070 19424 layer_factory.hpp:77] Creating layer loss1/relu_fc
I0403 19:18:33.999090 19424 net.cpp:91] Creating Layer loss1/relu_fc
I0403 19:18:33.999107 19424 net.cpp:425] loss1/relu_fc <- loss1/fc
I0403 19:18:33.999125 19424 net.cpp:386] loss1/relu_fc -> loss1/fc (in-place)
I0403 19:18:33.999311 19424 net.cpp:141] Setting up loss1/relu_fc
I0403 19:18:33.999337 19424 net.cpp:148] Top shape: 24 1024 (24576)
I0403 19:18:33.999353 19424 net.cpp:156] Memory required for data: 946091040
I0403 19:18:33.999367 19424 layer_factory.hpp:77] Creating layer loss1/drop_fc
I0403 19:18:33.999393 19424 net.cpp:91] Creating Layer loss1/drop_fc
I0403 19:18:33.999410 19424 net.cpp:425] loss1/drop_fc <- loss1/fc
I0403 19:18:33.999428 19424 net.cpp:386] loss1/drop_fc -> loss1/fc (in-place)
I0403 19:18:33.999478 19424 net.cpp:141] Setting up loss1/drop_fc
I0403 19:18:33.999501 19424 net.cpp:148] Top shape: 24 1024 (24576)
I0403 19:18:33.999516 19424 net.cpp:156] Memory required for data: 946189344
I0403 19:18:33.999531 19424 layer_factory.hpp:77] Creating layer loss1/classifier_plantvillage
I0403 19:18:33.999549 19424 net.cpp:91] Creating Layer loss1/classifier_plantvillage
I0403 19:18:33.999564 19424 net.cpp:425] loss1/classifier_plantvillage <- loss1/fc
I0403 19:18:33.999586 19424 net.cpp:399] loss1/classifier_plantvillage -> loss1/classifier_plantvillage
I0403 19:18:34.000485 19424 net.cpp:141] Setting up loss1/classifier_plantvillage
I0403 19:18:34.000512 19424 net.cpp:148] Top shape: 24 38 (912)
I0403 19:18:34.000529 19424 net.cpp:156] Memory required for data: 946192992
I0403 19:18:34.000546 19424 layer_factory.hpp:77] Creating layer loss1/classifier_plantvillage_loss1/classifier_plantvillage_0_split
I0403 19:18:34.000567 19424 net.cpp:91] Creating Layer loss1/classifier_plantvillage_loss1/classifier_plantvillage_0_split
I0403 19:18:34.000584 19424 net.cpp:425] loss1/classifier_plantvillage_loss1/classifier_plantvillage_0_split <- loss1/classifier_plantvillage
I0403 19:18:34.000602 19424 net.cpp:399] loss1/classifier_plantvillage_loss1/classifier_plantvillage_0_split -> loss1/classifier_plantvillage_loss1/classifier_plantvillage_0_split_0
I0403 19:18:34.000622 19424 net.cpp:399] loss1/classifier_plantvillage_loss1/classifier_plantvillage_0_split -> loss1/classifier_plantvillage_loss1/classifier_plantvillage_0_split_1
I0403 19:18:34.000645 19424 net.cpp:399] loss1/classifier_plantvillage_loss1/classifier_plantvillage_0_split -> loss1/classifier_plantvillage_loss1/classifier_plantvillage_0_split_2
I0403 19:18:34.000710 19424 net.cpp:141] Setting up loss1/classifier_plantvillage_loss1/classifier_plantvillage_0_split
I0403 19:18:34.000733 19424 net.cpp:148] Top shape: 24 38 (912)
I0403 19:18:34.000749 19424 net.cpp:148] Top shape: 24 38 (912)
I0403 19:18:34.000764 19424 net.cpp:148] Top shape: 24 38 (912)
I0403 19:18:34.000777 19424 net.cpp:156] Memory required for data: 946203936
I0403 19:18:34.000792 19424 layer_factory.hpp:77] Creating layer inception_4b/1x1
I0403 19:18:34.000814 19424 net.cpp:91] Creating Layer inception_4b/1x1
I0403 19:18:34.000846 19424 net.cpp:425] inception_4b/1x1 <- inception_4a/output_inception_4a/output_0_split_1
I0403 19:18:34.000866 19424 net.cpp:399] inception_4b/1x1 -> inception_4b/1x1
I0403 19:18:34.002496 19424 net.cpp:141] Setting up inception_4b/1x1
I0403 19:18:34.002527 19424 net.cpp:148] Top shape: 24 160 14 14 (752640)
I0403 19:18:34.002544 19424 net.cpp:156] Memory required for data: 949214496
I0403 19:18:34.002562 19424 layer_factory.hpp:77] Creating layer inception_4b/relu_1x1
I0403 19:18:34.002580 19424 net.cpp:91] Creating Layer inception_4b/relu_1x1
I0403 19:18:34.002598 19424 net.cpp:425] inception_4b/relu_1x1 <- inception_4b/1x1
I0403 19:18:34.002616 19424 net.cpp:386] inception_4b/relu_1x1 -> inception_4b/1x1 (in-place)
I0403 19:18:34.002795 19424 net.cpp:141] Setting up inception_4b/relu_1x1
I0403 19:18:34.002820 19424 net.cpp:148] Top shape: 24 160 14 14 (752640)
I0403 19:18:34.002835 19424 net.cpp:156] Memory required for data: 952225056
I0403 19:18:34.002848 19424 layer_factory.hpp:77] Creating layer inception_4b/3x3_reduce
I0403 19:18:34.002871 19424 net.cpp:91] Creating Layer inception_4b/3x3_reduce
I0403 19:18:34.002888 19424 net.cpp:425] inception_4b/3x3_reduce <- inception_4a/output_inception_4a/output_0_split_2
I0403 19:18:34.002908 19424 net.cpp:399] inception_4b/3x3_reduce -> inception_4b/3x3_reduce
I0403 19:18:34.004252 19424 net.cpp:141] Setting up inception_4b/3x3_reduce
I0403 19:18:34.004281 19424 net.cpp:148] Top shape: 24 112 14 14 (526848)
I0403 19:18:34.004297 19424 net.cpp:156] Memory required for data: 954332448
I0403 19:18:34.004314 19424 layer_factory.hpp:77] Creating layer inception_4b/relu_3x3_reduce
I0403 19:18:34.004333 19424 net.cpp:91] Creating Layer inception_4b/relu_3x3_reduce
I0403 19:18:34.004349 19424 net.cpp:425] inception_4b/relu_3x3_reduce <- inception_4b/3x3_reduce
I0403 19:18:34.004369 19424 net.cpp:386] inception_4b/relu_3x3_reduce -> inception_4b/3x3_reduce (in-place)
I0403 19:18:34.004669 19424 net.cpp:141] Setting up inception_4b/relu_3x3_reduce
I0403 19:18:34.004696 19424 net.cpp:148] Top shape: 24 112 14 14 (526848)
I0403 19:18:34.004711 19424 net.cpp:156] Memory required for data: 956439840
I0403 19:18:34.004727 19424 layer_factory.hpp:77] Creating layer inception_4b/3x3
I0403 19:18:34.004762 19424 net.cpp:91] Creating Layer inception_4b/3x3
I0403 19:18:34.004781 19424 net.cpp:425] inception_4b/3x3 <- inception_4b/3x3_reduce
I0403 19:18:34.004802 19424 net.cpp:399] inception_4b/3x3 -> inception_4b/3x3
I0403 19:18:34.007757 19424 net.cpp:141] Setting up inception_4b/3x3
I0403 19:18:34.007786 19424 net.cpp:148] Top shape: 24 224 14 14 (1053696)
I0403 19:18:34.007802 19424 net.cpp:156] Memory required for data: 960654624
I0403 19:18:34.007820 19424 layer_factory.hpp:77] Creating layer inception_4b/relu_3x3
I0403 19:18:34.007841 19424 net.cpp:91] Creating Layer inception_4b/relu_3x3
I0403 19:18:34.007858 19424 net.cpp:425] inception_4b/relu_3x3 <- inception_4b/3x3
I0403 19:18:34.007875 19424 net.cpp:386] inception_4b/relu_3x3 -> inception_4b/3x3 (in-place)
I0403 19:18:34.008059 19424 net.cpp:141] Setting up inception_4b/relu_3x3
I0403 19:18:34.008085 19424 net.cpp:148] Top shape: 24 224 14 14 (1053696)
I0403 19:18:34.008100 19424 net.cpp:156] Memory required for data: 964869408
I0403 19:18:34.008116 19424 layer_factory.hpp:77] Creating layer inception_4b/5x5_reduce
I0403 19:18:34.008137 19424 net.cpp:91] Creating Layer inception_4b/5x5_reduce
I0403 19:18:34.008157 19424 net.cpp:425] inception_4b/5x5_reduce <- inception_4a/output_inception_4a/output_0_split_3
I0403 19:18:34.008175 19424 net.cpp:399] inception_4b/5x5_reduce -> inception_4b/5x5_reduce
I0403 19:18:34.009251 19424 net.cpp:141] Setting up inception_4b/5x5_reduce
I0403 19:18:34.009279 19424 net.cpp:148] Top shape: 24 24 14 14 (112896)
I0403 19:18:34.009295 19424 net.cpp:156] Memory required for data: 965320992
I0403 19:18:34.009313 19424 layer_factory.hpp:77] Creating layer inception_4b/relu_5x5_reduce
I0403 19:18:34.009331 19424 net.cpp:91] Creating Layer inception_4b/relu_5x5_reduce
I0403 19:18:34.009362 19424 net.cpp:425] inception_4b/relu_5x5_reduce <- inception_4b/5x5_reduce
I0403 19:18:34.009382 19424 net.cpp:386] inception_4b/relu_5x5_reduce -> inception_4b/5x5_reduce (in-place)
I0403 19:18:34.009560 19424 net.cpp:141] Setting up inception_4b/relu_5x5_reduce
I0403 19:18:34.009585 19424 net.cpp:148] Top shape: 24 24 14 14 (112896)
I0403 19:18:34.009599 19424 net.cpp:156] Memory required for data: 965772576
I0403 19:18:34.009613 19424 layer_factory.hpp:77] Creating layer inception_4b/5x5
I0403 19:18:34.009635 19424 net.cpp:91] Creating Layer inception_4b/5x5
I0403 19:18:34.009654 19424 net.cpp:425] inception_4b/5x5 <- inception_4b/5x5_reduce
I0403 19:18:34.009675 19424 net.cpp:399] inception_4b/5x5 -> inception_4b/5x5
I0403 19:18:34.010885 19424 net.cpp:141] Setting up inception_4b/5x5
I0403 19:18:34.010915 19424 net.cpp:148] Top shape: 24 64 14 14 (301056)
I0403 19:18:34.010931 19424 net.cpp:156] Memory required for data: 966976800
I0403 19:18:34.010952 19424 layer_factory.hpp:77] Creating layer inception_4b/relu_5x5
I0403 19:18:34.010972 19424 net.cpp:91] Creating Layer inception_4b/relu_5x5
I0403 19:18:34.010988 19424 net.cpp:425] inception_4b/relu_5x5 <- inception_4b/5x5
I0403 19:18:34.011010 19424 net.cpp:386] inception_4b/relu_5x5 -> inception_4b/5x5 (in-place)
I0403 19:18:34.011293 19424 net.cpp:141] Setting up inception_4b/relu_5x5
I0403 19:18:34.011322 19424 net.cpp:148] Top shape: 24 64 14 14 (301056)
I0403 19:18:34.011339 19424 net.cpp:156] Memory required for data: 968181024
I0403 19:18:34.011354 19424 layer_factory.hpp:77] Creating layer inception_4b/pool
I0403 19:18:34.011373 19424 net.cpp:91] Creating Layer inception_4b/pool
I0403 19:18:34.011389 19424 net.cpp:425] inception_4b/pool <- inception_4a/output_inception_4a/output_0_split_4
I0403 19:18:34.011410 19424 net.cpp:399] inception_4b/pool -> inception_4b/pool
I0403 19:18:34.011472 19424 net.cpp:141] Setting up inception_4b/pool
I0403 19:18:34.011495 19424 net.cpp:148] Top shape: 24 512 14 14 (2408448)
I0403 19:18:34.011509 19424 net.cpp:156] Memory required for data: 977814816
I0403 19:18:34.011524 19424 layer_factory.hpp:77] Creating layer inception_4b/pool_proj
I0403 19:18:34.011546 19424 net.cpp:91] Creating Layer inception_4b/pool_proj
I0403 19:18:34.011564 19424 net.cpp:425] inception_4b/pool_proj <- inception_4b/pool
I0403 19:18:34.011584 19424 net.cpp:399] inception_4b/pool_proj -> inception_4b/pool_proj
I0403 19:18:34.012773 19424 net.cpp:141] Setting up inception_4b/pool_proj
I0403 19:18:34.012802 19424 net.cpp:148] Top shape: 24 64 14 14 (301056)
I0403 19:18:34.012819 19424 net.cpp:156] Memory required for data: 979019040
I0403 19:18:34.012837 19424 layer_factory.hpp:77] Creating layer inception_4b/relu_pool_proj
I0403 19:18:34.012856 19424 net.cpp:91] Creating Layer inception_4b/relu_pool_proj
I0403 19:18:34.012871 19424 net.cpp:425] inception_4b/relu_pool_proj <- inception_4b/pool_proj
I0403 19:18:34.012890 19424 net.cpp:386] inception_4b/relu_pool_proj -> inception_4b/pool_proj (in-place)
I0403 19:18:34.013072 19424 net.cpp:141] Setting up inception_4b/relu_pool_proj
I0403 19:18:34.013097 19424 net.cpp:148] Top shape: 24 64 14 14 (301056)
I0403 19:18:34.013111 19424 net.cpp:156] Memory required for data: 980223264
I0403 19:18:34.013126 19424 layer_factory.hpp:77] Creating layer inception_4b/output
I0403 19:18:34.013144 19424 net.cpp:91] Creating Layer inception_4b/output
I0403 19:18:34.013159 19424 net.cpp:425] inception_4b/output <- inception_4b/1x1
I0403 19:18:34.013175 19424 net.cpp:425] inception_4b/output <- inception_4b/3x3
I0403 19:18:34.013191 19424 net.cpp:425] inception_4b/output <- inception_4b/5x5
I0403 19:18:34.013208 19424 net.cpp:425] inception_4b/output <- inception_4b/pool_proj
I0403 19:18:34.013227 19424 net.cpp:399] inception_4b/output -> inception_4b/output
I0403 19:18:34.013273 19424 net.cpp:141] Setting up inception_4b/output
I0403 19:18:34.013296 19424 net.cpp:148] Top shape: 24 512 14 14 (2408448)
I0403 19:18:34.013310 19424 net.cpp:156] Memory required for data: 989857056
I0403 19:18:34.013339 19424 layer_factory.hpp:77] Creating layer inception_4b/output_inception_4b/output_0_split
I0403 19:18:34.013357 19424 net.cpp:91] Creating Layer inception_4b/output_inception_4b/output_0_split
I0403 19:18:34.013373 19424 net.cpp:425] inception_4b/output_inception_4b/output_0_split <- inception_4b/output
I0403 19:18:34.013393 19424 net.cpp:399] inception_4b/output_inception_4b/output_0_split -> inception_4b/output_inception_4b/output_0_split_0
I0403 19:18:34.013414 19424 net.cpp:399] inception_4b/output_inception_4b/output_0_split -> inception_4b/output_inception_4b/output_0_split_1
I0403 19:18:34.013434 19424 net.cpp:399] inception_4b/output_inception_4b/output_0_split -> inception_4b/output_inception_4b/output_0_split_2
I0403 19:18:34.013454 19424 net.cpp:399] inception_4b/output_inception_4b/output_0_split -> inception_4b/output_inception_4b/output_0_split_3
I0403 19:18:34.013537 19424 net.cpp:141] Setting up inception_4b/output_inception_4b/output_0_split
I0403 19:18:34.013559 19424 net.cpp:148] Top shape: 24 512 14 14 (2408448)
I0403 19:18:34.013576 19424 net.cpp:148] Top shape: 24 512 14 14 (2408448)
I0403 19:18:34.013592 19424 net.cpp:148] Top shape: 24 512 14 14 (2408448)
I0403 19:18:34.013607 19424 net.cpp:148] Top shape: 24 512 14 14 (2408448)
I0403 19:18:34.013619 19424 net.cpp:156] Memory required for data: 1028392224
I0403 19:18:34.013634 19424 layer_factory.hpp:77] Creating layer inception_4c/1x1
I0403 19:18:34.013660 19424 net.cpp:91] Creating Layer inception_4c/1x1
I0403 19:18:34.013679 19424 net.cpp:425] inception_4c/1x1 <- inception_4b/output_inception_4b/output_0_split_0
I0403 19:18:34.013697 19424 net.cpp:399] inception_4c/1x1 -> inception_4c/1x1
I0403 19:18:34.015146 19424 net.cpp:141] Setting up inception_4c/1x1
I0403 19:18:34.015174 19424 net.cpp:148] Top shape: 24 128 14 14 (602112)
I0403 19:18:34.015190 19424 net.cpp:156] Memory required for data: 1030800672
I0403 19:18:34.015220 19424 layer_factory.hpp:77] Creating layer inception_4c/relu_1x1
I0403 19:18:34.015240 19424 net.cpp:91] Creating Layer inception_4c/relu_1x1
I0403 19:18:34.015259 19424 net.cpp:425] inception_4c/relu_1x1 <- inception_4c/1x1
I0403 19:18:34.015276 19424 net.cpp:386] inception_4c/relu_1x1 -> inception_4c/1x1 (in-place)
I0403 19:18:34.015451 19424 net.cpp:141] Setting up inception_4c/relu_1x1
I0403 19:18:34.015478 19424 net.cpp:148] Top shape: 24 128 14 14 (602112)
I0403 19:18:34.015493 19424 net.cpp:156] Memory required for data: 1033209120
I0403 19:18:34.015508 19424 layer_factory.hpp:77] Creating layer inception_4c/3x3_reduce
I0403 19:18:34.015532 19424 net.cpp:91] Creating Layer inception_4c/3x3_reduce
I0403 19:18:34.015550 19424 net.cpp:425] inception_4c/3x3_reduce <- inception_4b/output_inception_4b/output_0_split_1
I0403 19:18:34.015568 19424 net.cpp:399] inception_4c/3x3_reduce -> inception_4c/3x3_reduce
I0403 19:18:34.017527 19424 net.cpp:141] Setting up inception_4c/3x3_reduce
I0403 19:18:34.017559 19424 net.cpp:148] Top shape: 24 128 14 14 (602112)
I0403 19:18:34.017575 19424 net.cpp:156] Memory required for data: 1035617568
I0403 19:18:34.017593 19424 layer_factory.hpp:77] Creating layer inception_4c/relu_3x3_reduce
I0403 19:18:34.017612 19424 net.cpp:91] Creating Layer inception_4c/relu_3x3_reduce
I0403 19:18:34.017628 19424 net.cpp:425] inception_4c/relu_3x3_reduce <- inception_4c/3x3_reduce
I0403 19:18:34.017645 19424 net.cpp:386] inception_4c/relu_3x3_reduce -> inception_4c/3x3_reduce (in-place)
I0403 19:18:34.017928 19424 net.cpp:141] Setting up inception_4c/relu_3x3_reduce
I0403 19:18:34.017961 19424 net.cpp:148] Top shape: 24 128 14 14 (602112)
I0403 19:18:34.017978 19424 net.cpp:156] Memory required for data: 1038026016
I0403 19:18:34.017993 19424 layer_factory.hpp:77] Creating layer inception_4c/3x3
I0403 19:18:34.018016 19424 net.cpp:91] Creating Layer inception_4c/3x3
I0403 19:18:34.018033 19424 net.cpp:425] inception_4c/3x3 <- inception_4c/3x3_reduce
I0403 19:18:34.018054 19424 net.cpp:399] inception_4c/3x3 -> inception_4c/3x3
I0403 19:18:34.021648 19424 net.cpp:141] Setting up inception_4c/3x3
I0403 19:18:34.021692 19424 net.cpp:148] Top shape: 24 256 14 14 (1204224)
I0403 19:18:34.021709 19424 net.cpp:156] Memory required for data: 1042842912
I0403 19:18:34.021741 19424 layer_factory.hpp:77] Creating layer inception_4c/relu_3x3
I0403 19:18:34.021761 19424 net.cpp:91] Creating Layer inception_4c/relu_3x3
I0403 19:18:34.021778 19424 net.cpp:425] inception_4c/relu_3x3 <- inception_4c/3x3
I0403 19:18:34.021797 19424 net.cpp:386] inception_4c/relu_3x3 -> inception_4c/3x3 (in-place)
I0403 19:18:34.021986 19424 net.cpp:141] Setting up inception_4c/relu_3x3
I0403 19:18:34.022011 19424 net.cpp:148] Top shape: 24 256 14 14 (1204224)
I0403 19:18:34.022024 19424 net.cpp:156] Memory required for data: 1047659808
I0403 19:18:34.022039 19424 layer_factory.hpp:77] Creating layer inception_4c/5x5_reduce
I0403 19:18:34.022063 19424 net.cpp:91] Creating Layer inception_4c/5x5_reduce
I0403 19:18:34.022080 19424 net.cpp:425] inception_4c/5x5_reduce <- inception_4b/output_inception_4b/output_0_split_2
I0403 19:18:34.022101 19424 net.cpp:399] inception_4c/5x5_reduce -> inception_4c/5x5_reduce
I0403 19:18:34.023180 19424 net.cpp:141] Setting up inception_4c/5x5_reduce
I0403 19:18:34.023207 19424 net.cpp:148] Top shape: 24 24 14 14 (112896)
I0403 19:18:34.023223 19424 net.cpp:156] Memory required for data: 1048111392
I0403 19:18:34.023241 19424 layer_factory.hpp:77] Creating layer inception_4c/relu_5x5_reduce
I0403 19:18:34.023259 19424 net.cpp:91] Creating Layer inception_4c/relu_5x5_reduce
I0403 19:18:34.023275 19424 net.cpp:425] inception_4c/relu_5x5_reduce <- inception_4c/5x5_reduce
I0403 19:18:34.023295 19424 net.cpp:386] inception_4c/relu_5x5_reduce -> inception_4c/5x5_reduce (in-place)
I0403 19:18:34.023476 19424 net.cpp:141] Setting up inception_4c/relu_5x5_reduce
I0403 19:18:34.023501 19424 net.cpp:148] Top shape: 24 24 14 14 (112896)
I0403 19:18:34.023516 19424 net.cpp:156] Memory required for data: 1048562976
I0403 19:18:34.023530 19424 layer_factory.hpp:77] Creating layer inception_4c/5x5
I0403 19:18:34.023552 19424 net.cpp:91] Creating Layer inception_4c/5x5
I0403 19:18:34.023571 19424 net.cpp:425] inception_4c/5x5 <- inception_4c/5x5_reduce
I0403 19:18:34.023592 19424 net.cpp:399] inception_4c/5x5 -> inception_4c/5x5
I0403 19:18:34.024823 19424 net.cpp:141] Setting up inception_4c/5x5
I0403 19:18:34.024850 19424 net.cpp:148] Top shape: 24 64 14 14 (301056)
I0403 19:18:34.024866 19424 net.cpp:156] Memory required for data: 1049767200
I0403 19:18:34.024884 19424 layer_factory.hpp:77] Creating layer inception_4c/relu_5x5
I0403 19:18:34.024904 19424 net.cpp:91] Creating Layer inception_4c/relu_5x5
I0403 19:18:34.024922 19424 net.cpp:425] inception_4c/relu_5x5 <- inception_4c/5x5
I0403 19:18:34.024940 19424 net.cpp:386] inception_4c/relu_5x5 -> inception_4c/5x5 (in-place)
I0403 19:18:34.025233 19424 net.cpp:141] Setting up inception_4c/relu_5x5
I0403 19:18:34.025259 19424 net.cpp:148] Top shape: 24 64 14 14 (301056)
I0403 19:18:34.025274 19424 net.cpp:156] Memory required for data: 1050971424
I0403 19:18:34.025288 19424 layer_factory.hpp:77] Creating layer inception_4c/pool
I0403 19:18:34.025306 19424 net.cpp:91] Creating Layer inception_4c/pool
I0403 19:18:34.025322 19424 net.cpp:425] inception_4c/pool <- inception_4b/output_inception_4b/output_0_split_3
I0403 19:18:34.025342 19424 net.cpp:399] inception_4c/pool -> inception_4c/pool
I0403 19:18:34.025409 19424 net.cpp:141] Setting up inception_4c/pool
I0403 19:18:34.025432 19424 net.cpp:148] Top shape: 24 512 14 14 (2408448)
I0403 19:18:34.025447 19424 net.cpp:156] Memory required for data: 1060605216
I0403 19:18:34.025462 19424 layer_factory.hpp:77] Creating layer inception_4c/pool_proj
I0403 19:18:34.025485 19424 net.cpp:91] Creating Layer inception_4c/pool_proj
I0403 19:18:34.025502 19424 net.cpp:425] inception_4c/pool_proj <- inception_4c/pool
I0403 19:18:34.025522 19424 net.cpp:399] inception_4c/pool_proj -> inception_4c/pool_proj
I0403 19:18:34.026754 19424 net.cpp:141] Setting up inception_4c/pool_proj
I0403 19:18:34.026784 19424 net.cpp:148] Top shape: 24 64 14 14 (301056)
I0403 19:18:34.026813 19424 net.cpp:156] Memory required for data: 1061809440
I0403 19:18:34.026834 19424 layer_factory.hpp:77] Creating layer inception_4c/relu_pool_proj
I0403 19:18:34.026851 19424 net.cpp:91] Creating Layer inception_4c/relu_pool_proj
I0403 19:18:34.026868 19424 net.cpp:425] inception_4c/relu_pool_proj <- inception_4c/pool_proj
I0403 19:18:34.026888 19424 net.cpp:386] inception_4c/relu_pool_proj -> inception_4c/pool_proj (in-place)
I0403 19:18:34.027077 19424 net.cpp:141] Setting up inception_4c/relu_pool_proj
I0403 19:18:34.027102 19424 net.cpp:148] Top shape: 24 64 14 14 (301056)
I0403 19:18:34.027117 19424 net.cpp:156] Memory required for data: 1063013664
I0403 19:18:34.027132 19424 layer_factory.hpp:77] Creating layer inception_4c/output
I0403 19:18:34.027149 19424 net.cpp:91] Creating Layer inception_4c/output
I0403 19:18:34.027165 19424 net.cpp:425] inception_4c/output <- inception_4c/1x1
I0403 19:18:34.027182 19424 net.cpp:425] inception_4c/output <- inception_4c/3x3
I0403 19:18:34.027199 19424 net.cpp:425] inception_4c/output <- inception_4c/5x5
I0403 19:18:34.027215 19424 net.cpp:425] inception_4c/output <- inception_4c/pool_proj
I0403 19:18:34.027233 19424 net.cpp:399] inception_4c/output -> inception_4c/output
I0403 19:18:34.027282 19424 net.cpp:141] Setting up inception_4c/output
I0403 19:18:34.027305 19424 net.cpp:148] Top shape: 24 512 14 14 (2408448)
I0403 19:18:34.027320 19424 net.cpp:156] Memory required for data: 1072647456
I0403 19:18:34.027334 19424 layer_factory.hpp:77] Creating layer inception_4c/output_inception_4c/output_0_split
I0403 19:18:34.027351 19424 net.cpp:91] Creating Layer inception_4c/output_inception_4c/output_0_split
I0403 19:18:34.027367 19424 net.cpp:425] inception_4c/output_inception_4c/output_0_split <- inception_4c/output
I0403 19:18:34.027386 19424 net.cpp:399] inception_4c/output_inception_4c/output_0_split -> inception_4c/output_inception_4c/output_0_split_0
I0403 19:18:34.027407 19424 net.cpp:399] inception_4c/output_inception_4c/output_0_split -> inception_4c/output_inception_4c/output_0_split_1
I0403 19:18:34.027428 19424 net.cpp:399] inception_4c/output_inception_4c/output_0_split -> inception_4c/output_inception_4c/output_0_split_2
I0403 19:18:34.027447 19424 net.cpp:399] inception_4c/output_inception_4c/output_0_split -> inception_4c/output_inception_4c/output_0_split_3
I0403 19:18:34.027534 19424 net.cpp:141] Setting up inception_4c/output_inception_4c/output_0_split
I0403 19:18:34.027557 19424 net.cpp:148] Top shape: 24 512 14 14 (2408448)
I0403 19:18:34.027573 19424 net.cpp:148] Top shape: 24 512 14 14 (2408448)
I0403 19:18:34.027588 19424 net.cpp:148] Top shape: 24 512 14 14 (2408448)
I0403 19:18:34.027603 19424 net.cpp:148] Top shape: 24 512 14 14 (2408448)
I0403 19:18:34.027617 19424 net.cpp:156] Memory required for data: 1111182624
I0403 19:18:34.027632 19424 layer_factory.hpp:77] Creating layer inception_4d/1x1
I0403 19:18:34.027655 19424 net.cpp:91] Creating Layer inception_4d/1x1
I0403 19:18:34.027673 19424 net.cpp:425] inception_4d/1x1 <- inception_4c/output_inception_4c/output_0_split_0
I0403 19:18:34.027693 19424 net.cpp:399] inception_4d/1x1 -> inception_4d/1x1
I0403 19:18:34.029084 19424 net.cpp:141] Setting up inception_4d/1x1
I0403 19:18:34.029112 19424 net.cpp:148] Top shape: 24 112 14 14 (526848)
I0403 19:18:34.029127 19424 net.cpp:156] Memory required for data: 1113290016
I0403 19:18:34.029146 19424 layer_factory.hpp:77] Creating layer inception_4d/relu_1x1
I0403 19:18:34.029166 19424 net.cpp:91] Creating Layer inception_4d/relu_1x1
I0403 19:18:34.029183 19424 net.cpp:425] inception_4d/relu_1x1 <- inception_4d/1x1
I0403 19:18:34.029201 19424 net.cpp:386] inception_4d/relu_1x1 -> inception_4d/1x1 (in-place)
I0403 19:18:34.029387 19424 net.cpp:141] Setting up inception_4d/relu_1x1
I0403 19:18:34.029412 19424 net.cpp:148] Top shape: 24 112 14 14 (526848)
I0403 19:18:34.029427 19424 net.cpp:156] Memory required for data: 1115397408
I0403 19:18:34.029440 19424 layer_factory.hpp:77] Creating layer inception_4d/3x3_reduce
I0403 19:18:34.029476 19424 net.cpp:91] Creating Layer inception_4d/3x3_reduce
I0403 19:18:34.029495 19424 net.cpp:425] inception_4d/3x3_reduce <- inception_4c/output_inception_4c/output_0_split_1
I0403 19:18:34.029517 19424 net.cpp:399] inception_4d/3x3_reduce -> inception_4d/3x3_reduce
I0403 19:18:34.031029 19424 net.cpp:141] Setting up inception_4d/3x3_reduce
I0403 19:18:34.031056 19424 net.cpp:148] Top shape: 24 144 14 14 (677376)
I0403 19:18:34.031072 19424 net.cpp:156] Memory required for data: 1118106912
I0403 19:18:34.031090 19424 layer_factory.hpp:77] Creating layer inception_4d/relu_3x3_reduce
I0403 19:18:34.031111 19424 net.cpp:91] Creating Layer inception_4d/relu_3x3_reduce
I0403 19:18:34.031127 19424 net.cpp:425] inception_4d/relu_3x3_reduce <- inception_4d/3x3_reduce
I0403 19:18:34.031146 19424 net.cpp:386] inception_4d/relu_3x3_reduce -> inception_4d/3x3_reduce (in-place)
I0403 19:18:34.031430 19424 net.cpp:141] Setting up inception_4d/relu_3x3_reduce
I0403 19:18:34.031456 19424 net.cpp:148] Top shape: 24 144 14 14 (677376)
I0403 19:18:34.031471 19424 net.cpp:156] Memory required for data: 1120816416
I0403 19:18:34.031486 19424 layer_factory.hpp:77] Creating layer inception_4d/3x3
I0403 19:18:34.031509 19424 net.cpp:91] Creating Layer inception_4d/3x3
I0403 19:18:34.031528 19424 net.cpp:425] inception_4d/3x3 <- inception_4d/3x3_reduce
I0403 19:18:34.031549 19424 net.cpp:399] inception_4d/3x3 -> inception_4d/3x3
I0403 19:18:34.035897 19424 net.cpp:141] Setting up inception_4d/3x3
I0403 19:18:34.035926 19424 net.cpp:148] Top shape: 24 288 14 14 (1354752)
I0403 19:18:34.035943 19424 net.cpp:156] Memory required for data: 1126235424
I0403 19:18:34.035965 19424 layer_factory.hpp:77] Creating layer inception_4d/relu_3x3
I0403 19:18:34.035984 19424 net.cpp:91] Creating Layer inception_4d/relu_3x3
I0403 19:18:34.036000 19424 net.cpp:425] inception_4d/relu_3x3 <- inception_4d/3x3
I0403 19:18:34.036016 19424 net.cpp:386] inception_4d/relu_3x3 -> inception_4d/3x3 (in-place)
I0403 19:18:34.036195 19424 net.cpp:141] Setting up inception_4d/relu_3x3
I0403 19:18:34.036222 19424 net.cpp:148] Top shape: 24 288 14 14 (1354752)
I0403 19:18:34.036237 19424 net.cpp:156] Memory required for data: 1131654432
I0403 19:18:34.036252 19424 layer_factory.hpp:77] Creating layer inception_4d/5x5_reduce
I0403 19:18:34.036273 19424 net.cpp:91] Creating Layer inception_4d/5x5_reduce
I0403 19:18:34.036291 19424 net.cpp:425] inception_4d/5x5_reduce <- inception_4c/output_inception_4c/output_0_split_2
I0403 19:18:34.036314 19424 net.cpp:399] inception_4d/5x5_reduce -> inception_4d/5x5_reduce
I0403 19:18:34.037423 19424 net.cpp:141] Setting up inception_4d/5x5_reduce
I0403 19:18:34.037451 19424 net.cpp:148] Top shape: 24 32 14 14 (150528)
I0403 19:18:34.037466 19424 net.cpp:156] Memory required for data: 1132256544
I0403 19:18:34.037483 19424 layer_factory.hpp:77] Creating layer inception_4d/relu_5x5_reduce
I0403 19:18:34.037503 19424 net.cpp:91] Creating Layer inception_4d/relu_5x5_reduce
I0403 19:18:34.037519 19424 net.cpp:425] inception_4d/relu_5x5_reduce <- inception_4d/5x5_reduce
I0403 19:18:34.037536 19424 net.cpp:386] inception_4d/relu_5x5_reduce -> inception_4d/5x5_reduce (in-place)
I0403 19:18:34.037716 19424 net.cpp:141] Setting up inception_4d/relu_5x5_reduce
I0403 19:18:34.037740 19424 net.cpp:148] Top shape: 24 32 14 14 (150528)
I0403 19:18:34.037755 19424 net.cpp:156] Memory required for data: 1132858656
I0403 19:18:34.037768 19424 layer_factory.hpp:77] Creating layer inception_4d/5x5
I0403 19:18:34.037791 19424 net.cpp:91] Creating Layer inception_4d/5x5
I0403 19:18:34.037807 19424 net.cpp:425] inception_4d/5x5 <- inception_4d/5x5_reduce
I0403 19:18:34.037828 19424 net.cpp:399] inception_4d/5x5 -> inception_4d/5x5
I0403 19:18:34.039264 19424 net.cpp:141] Setting up inception_4d/5x5
I0403 19:18:34.039291 19424 net.cpp:148] Top shape: 24 64 14 14 (301056)
I0403 19:18:34.039306 19424 net.cpp:156] Memory required for data: 1134062880
I0403 19:18:34.039324 19424 layer_factory.hpp:77] Creating layer inception_4d/relu_5x5
I0403 19:18:34.039355 19424 net.cpp:91] Creating Layer inception_4d/relu_5x5
I0403 19:18:34.039372 19424 net.cpp:425] inception_4d/relu_5x5 <- inception_4d/5x5
I0403 19:18:34.039391 19424 net.cpp:386] inception_4d/relu_5x5 -> inception_4d/5x5 (in-place)
I0403 19:18:34.039685 19424 net.cpp:141] Setting up inception_4d/relu_5x5
I0403 19:18:34.039710 19424 net.cpp:148] Top shape: 24 64 14 14 (301056)
I0403 19:18:34.039724 19424 net.cpp:156] Memory required for data: 1135267104
I0403 19:18:34.039739 19424 layer_factory.hpp:77] Creating layer inception_4d/pool
I0403 19:18:34.039755 19424 net.cpp:91] Creating Layer inception_4d/pool
I0403 19:18:34.039772 19424 net.cpp:425] inception_4d/pool <- inception_4c/output_inception_4c/output_0_split_3
I0403 19:18:34.039791 19424 net.cpp:399] inception_4d/pool -> inception_4d/pool
I0403 19:18:34.039855 19424 net.cpp:141] Setting up inception_4d/pool
I0403 19:18:34.039878 19424 net.cpp:148] Top shape: 24 512 14 14 (2408448)
I0403 19:18:34.039892 19424 net.cpp:156] Memory required for data: 1144900896
I0403 19:18:34.039906 19424 layer_factory.hpp:77] Creating layer inception_4d/pool_proj
I0403 19:18:34.039929 19424 net.cpp:91] Creating Layer inception_4d/pool_proj
I0403 19:18:34.039949 19424 net.cpp:425] inception_4d/pool_proj <- inception_4d/pool
I0403 19:18:34.039969 19424 net.cpp:399] inception_4d/pool_proj -> inception_4d/pool_proj
I0403 19:18:34.041681 19424 net.cpp:141] Setting up inception_4d/pool_proj
I0403 19:18:34.041712 19424 net.cpp:148] Top shape: 24 64 14 14 (301056)
I0403 19:18:34.041728 19424 net.cpp:156] Memory required for data: 1146105120
I0403 19:18:34.041746 19424 layer_factory.hpp:77] Creating layer inception_4d/relu_pool_proj
I0403 19:18:34.041764 19424 net.cpp:91] Creating Layer inception_4d/relu_pool_proj
I0403 19:18:34.041780 19424 net.cpp:425] inception_4d/relu_pool_proj <- inception_4d/pool_proj
I0403 19:18:34.041797 19424 net.cpp:386] inception_4d/relu_pool_proj -> inception_4d/pool_proj (in-place)
I0403 19:18:34.041982 19424 net.cpp:141] Setting up inception_4d/relu_pool_proj
I0403 19:18:34.042008 19424 net.cpp:148] Top shape: 24 64 14 14 (301056)
I0403 19:18:34.042023 19424 net.cpp:156] Memory required for data: 1147309344
I0403 19:18:34.042037 19424 layer_factory.hpp:77] Creating layer inception_4d/output
I0403 19:18:34.042053 19424 net.cpp:91] Creating Layer inception_4d/output
I0403 19:18:34.042068 19424 net.cpp:425] inception_4d/output <- inception_4d/1x1
I0403 19:18:34.042084 19424 net.cpp:425] inception_4d/output <- inception_4d/3x3
I0403 19:18:34.042099 19424 net.cpp:425] inception_4d/output <- inception_4d/5x5
I0403 19:18:34.042114 19424 net.cpp:425] inception_4d/output <- inception_4d/pool_proj
I0403 19:18:34.042134 19424 net.cpp:399] inception_4d/output -> inception_4d/output
I0403 19:18:34.042179 19424 net.cpp:141] Setting up inception_4d/output
I0403 19:18:34.042203 19424 net.cpp:148] Top shape: 24 528 14 14 (2483712)
I0403 19:18:34.042217 19424 net.cpp:156] Memory required for data: 1157244192
I0403 19:18:34.042232 19424 layer_factory.hpp:77] Creating layer inception_4d/output_inception_4d/output_0_split
I0403 19:18:34.042250 19424 net.cpp:91] Creating Layer inception_4d/output_inception_4d/output_0_split
I0403 19:18:34.042266 19424 net.cpp:425] inception_4d/output_inception_4d/output_0_split <- inception_4d/output
I0403 19:18:34.042284 19424 net.cpp:399] inception_4d/output_inception_4d/output_0_split -> inception_4d/output_inception_4d/output_0_split_0
I0403 19:18:34.042306 19424 net.cpp:399] inception_4d/output_inception_4d/output_0_split -> inception_4d/output_inception_4d/output_0_split_1
I0403 19:18:34.042326 19424 net.cpp:399] inception_4d/output_inception_4d/output_0_split -> inception_4d/output_inception_4d/output_0_split_2
I0403 19:18:34.042346 19424 net.cpp:399] inception_4d/output_inception_4d/output_0_split -> inception_4d/output_inception_4d/output_0_split_3
I0403 19:18:34.042366 19424 net.cpp:399] inception_4d/output_inception_4d/output_0_split -> inception_4d/output_inception_4d/output_0_split_4
I0403 19:18:34.042464 19424 net.cpp:141] Setting up inception_4d/output_inception_4d/output_0_split
I0403 19:18:34.042498 19424 net.cpp:148] Top shape: 24 528 14 14 (2483712)
I0403 19:18:34.042515 19424 net.cpp:148] Top shape: 24 528 14 14 (2483712)
I0403 19:18:34.042531 19424 net.cpp:148] Top shape: 24 528 14 14 (2483712)
I0403 19:18:34.042546 19424 net.cpp:148] Top shape: 24 528 14 14 (2483712)
I0403 19:18:34.042562 19424 net.cpp:148] Top shape: 24 528 14 14 (2483712)
I0403 19:18:34.042574 19424 net.cpp:156] Memory required for data: 1206918432
I0403 19:18:34.042587 19424 layer_factory.hpp:77] Creating layer loss2/ave_pool
I0403 19:18:34.042606 19424 net.cpp:91] Creating Layer loss2/ave_pool
I0403 19:18:34.042623 19424 net.cpp:425] loss2/ave_pool <- inception_4d/output_inception_4d/output_0_split_0
I0403 19:18:34.042641 19424 net.cpp:399] loss2/ave_pool -> loss2/ave_pool
I0403 19:18:34.042950 19424 net.cpp:141] Setting up loss2/ave_pool
I0403 19:18:34.042979 19424 net.cpp:148] Top shape: 24 528 4 4 (202752)
I0403 19:18:34.042995 19424 net.cpp:156] Memory required for data: 1207729440
I0403 19:18:34.043010 19424 layer_factory.hpp:77] Creating layer loss2/conv
I0403 19:18:34.043031 19424 net.cpp:91] Creating Layer loss2/conv
I0403 19:18:34.043050 19424 net.cpp:425] loss2/conv <- loss2/ave_pool
I0403 19:18:34.043068 19424 net.cpp:399] loss2/conv -> loss2/conv
I0403 19:18:34.044912 19424 net.cpp:141] Setting up loss2/conv
I0403 19:18:34.044939 19424 net.cpp:148] Top shape: 24 128 4 4 (49152)
I0403 19:18:34.044960 19424 net.cpp:156] Memory required for data: 1207926048
I0403 19:18:34.044978 19424 layer_factory.hpp:77] Creating layer loss2/relu_conv
I0403 19:18:34.044998 19424 net.cpp:91] Creating Layer loss2/relu_conv
I0403 19:18:34.045016 19424 net.cpp:425] loss2/relu_conv <- loss2/conv
I0403 19:18:34.045033 19424 net.cpp:386] loss2/relu_conv -> loss2/conv (in-place)
I0403 19:18:34.045311 19424 net.cpp:141] Setting up loss2/relu_conv
I0403 19:18:34.045336 19424 net.cpp:148] Top shape: 24 128 4 4 (49152)
I0403 19:18:34.045351 19424 net.cpp:156] Memory required for data: 1208122656
I0403 19:18:34.045366 19424 layer_factory.hpp:77] Creating layer loss2/fc
I0403 19:18:34.045387 19424 net.cpp:91] Creating Layer loss2/fc
I0403 19:18:34.045403 19424 net.cpp:425] loss2/fc <- loss2/conv
I0403 19:18:34.045421 19424 net.cpp:399] loss2/fc -> loss2/fc
I0403 19:18:34.062486 19424 net.cpp:141] Setting up loss2/fc
I0403 19:18:34.062518 19424 net.cpp:148] Top shape: 24 1024 (24576)
I0403 19:18:34.062535 19424 net.cpp:156] Memory required for data: 1208220960
I0403 19:18:34.062551 19424 layer_factory.hpp:77] Creating layer loss2/relu_fc
I0403 19:18:34.062573 19424 net.cpp:91] Creating Layer loss2/relu_fc
I0403 19:18:34.062592 19424 net.cpp:425] loss2/relu_fc <- loss2/fc
I0403 19:18:34.062610 19424 net.cpp:386] loss2/relu_fc -> loss2/fc (in-place)
I0403 19:18:34.062894 19424 net.cpp:141] Setting up loss2/relu_fc
I0403 19:18:34.062922 19424 net.cpp:148] Top shape: 24 1024 (24576)
I0403 19:18:34.062937 19424 net.cpp:156] Memory required for data: 1208319264
I0403 19:18:34.062954 19424 layer_factory.hpp:77] Creating layer loss2/drop_fc
I0403 19:18:34.062973 19424 net.cpp:91] Creating Layer loss2/drop_fc
I0403 19:18:34.062988 19424 net.cpp:425] loss2/drop_fc <- loss2/fc
I0403 19:18:34.063007 19424 net.cpp:386] loss2/drop_fc -> loss2/fc (in-place)
I0403 19:18:34.063053 19424 net.cpp:141] Setting up loss2/drop_fc
I0403 19:18:34.063076 19424 net.cpp:148] Top shape: 24 1024 (24576)
I0403 19:18:34.063088 19424 net.cpp:156] Memory required for data: 1208417568
I0403 19:18:34.063102 19424 layer_factory.hpp:77] Creating layer loss2/classifier_plantvillage
I0403 19:18:34.063122 19424 net.cpp:91] Creating Layer loss2/classifier_plantvillage
I0403 19:18:34.063139 19424 net.cpp:425] loss2/classifier_plantvillage <- loss2/fc
I0403 19:18:34.063158 19424 net.cpp:399] loss2/classifier_plantvillage -> loss2/classifier_plantvillage
I0403 19:18:34.063546 19424 net.cpp:141] Setting up loss2/classifier_plantvillage
I0403 19:18:34.063570 19424 net.cpp:148] Top shape: 24 38 (912)
I0403 19:18:34.063599 19424 net.cpp:156] Memory required for data: 1208421216
I0403 19:18:34.063618 19424 layer_factory.hpp:77] Creating layer loss2/classifier_plantvillage_loss2/classifier_plantvillage_0_split
I0403 19:18:34.063635 19424 net.cpp:91] Creating Layer loss2/classifier_plantvillage_loss2/classifier_plantvillage_0_split
I0403 19:18:34.063654 19424 net.cpp:425] loss2/classifier_plantvillage_loss2/classifier_plantvillage_0_split <- loss2/classifier_plantvillage
I0403 19:18:34.063671 19424 net.cpp:399] loss2/classifier_plantvillage_loss2/classifier_plantvillage_0_split -> loss2/classifier_plantvillage_loss2/classifier_plantvillage_0_split_0
I0403 19:18:34.063690 19424 net.cpp:399] loss2/classifier_plantvillage_loss2/classifier_plantvillage_0_split -> loss2/classifier_plantvillage_loss2/classifier_plantvillage_0_split_1
I0403 19:18:34.063710 19424 net.cpp:399] loss2/classifier_plantvillage_loss2/classifier_plantvillage_0_split -> loss2/classifier_plantvillage_loss2/classifier_plantvillage_0_split_2
I0403 19:18:34.063786 19424 net.cpp:141] Setting up loss2/classifier_plantvillage_loss2/classifier_plantvillage_0_split
I0403 19:18:34.063808 19424 net.cpp:148] Top shape: 24 38 (912)
I0403 19:18:34.063823 19424 net.cpp:148] Top shape: 24 38 (912)
I0403 19:18:34.063839 19424 net.cpp:148] Top shape: 24 38 (912)
I0403 19:18:34.063853 19424 net.cpp:156] Memory required for data: 1208432160
I0403 19:18:34.063866 19424 layer_factory.hpp:77] Creating layer inception_4e/1x1
I0403 19:18:34.063885 19424 net.cpp:91] Creating Layer inception_4e/1x1
I0403 19:18:34.063902 19424 net.cpp:425] inception_4e/1x1 <- inception_4d/output_inception_4d/output_0_split_1
I0403 19:18:34.063922 19424 net.cpp:399] inception_4e/1x1 -> inception_4e/1x1
I0403 19:18:34.065681 19424 net.cpp:141] Setting up inception_4e/1x1
I0403 19:18:34.065708 19424 net.cpp:148] Top shape: 24 256 14 14 (1204224)
I0403 19:18:34.065724 19424 net.cpp:156] Memory required for data: 1213249056
I0403 19:18:34.065742 19424 layer_factory.hpp:77] Creating layer inception_4e/relu_1x1
I0403 19:18:34.065759 19424 net.cpp:91] Creating Layer inception_4e/relu_1x1
I0403 19:18:34.065775 19424 net.cpp:425] inception_4e/relu_1x1 <- inception_4e/1x1
I0403 19:18:34.065794 19424 net.cpp:386] inception_4e/relu_1x1 -> inception_4e/1x1 (in-place)
I0403 19:18:34.066084 19424 net.cpp:141] Setting up inception_4e/relu_1x1
I0403 19:18:34.066109 19424 net.cpp:148] Top shape: 24 256 14 14 (1204224)
I0403 19:18:34.066123 19424 net.cpp:156] Memory required for data: 1218065952
I0403 19:18:34.066138 19424 layer_factory.hpp:77] Creating layer inception_4e/3x3_reduce
I0403 19:18:34.066160 19424 net.cpp:91] Creating Layer inception_4e/3x3_reduce
I0403 19:18:34.066177 19424 net.cpp:425] inception_4e/3x3_reduce <- inception_4d/output_inception_4d/output_0_split_2
I0403 19:18:34.066198 19424 net.cpp:399] inception_4e/3x3_reduce -> inception_4e/3x3_reduce
I0403 19:18:34.068250 19424 net.cpp:141] Setting up inception_4e/3x3_reduce
I0403 19:18:34.068279 19424 net.cpp:148] Top shape: 24 160 14 14 (752640)
I0403 19:18:34.068295 19424 net.cpp:156] Memory required for data: 1221076512
I0403 19:18:34.068311 19424 layer_factory.hpp:77] Creating layer inception_4e/relu_3x3_reduce
I0403 19:18:34.068330 19424 net.cpp:91] Creating Layer inception_4e/relu_3x3_reduce
I0403 19:18:34.068346 19424 net.cpp:425] inception_4e/relu_3x3_reduce <- inception_4e/3x3_reduce
I0403 19:18:34.068366 19424 net.cpp:386] inception_4e/relu_3x3_reduce -> inception_4e/3x3_reduce (in-place)
I0403 19:18:34.068544 19424 net.cpp:141] Setting up inception_4e/relu_3x3_reduce
I0403 19:18:34.068568 19424 net.cpp:148] Top shape: 24 160 14 14 (752640)
I0403 19:18:34.068581 19424 net.cpp:156] Memory required for data: 1224087072
I0403 19:18:34.068595 19424 layer_factory.hpp:77] Creating layer inception_4e/3x3
I0403 19:18:34.068616 19424 net.cpp:91] Creating Layer inception_4e/3x3
I0403 19:18:34.068634 19424 net.cpp:425] inception_4e/3x3 <- inception_4e/3x3_reduce
I0403 19:18:34.068655 19424 net.cpp:399] inception_4e/3x3 -> inception_4e/3x3
I0403 19:18:34.073686 19424 net.cpp:141] Setting up inception_4e/3x3
I0403 19:18:34.073729 19424 net.cpp:148] Top shape: 24 320 14 14 (1505280)
I0403 19:18:34.073745 19424 net.cpp:156] Memory required for data: 1230108192
I0403 19:18:34.073763 19424 layer_factory.hpp:77] Creating layer inception_4e/relu_3x3
I0403 19:18:34.073784 19424 net.cpp:91] Creating Layer inception_4e/relu_3x3
I0403 19:18:34.073801 19424 net.cpp:425] inception_4e/relu_3x3 <- inception_4e/3x3
I0403 19:18:34.073817 19424 net.cpp:386] inception_4e/relu_3x3 -> inception_4e/3x3 (in-place)
I0403 19:18:34.074128 19424 net.cpp:141] Setting up inception_4e/relu_3x3
I0403 19:18:34.074154 19424 net.cpp:148] Top shape: 24 320 14 14 (1505280)
I0403 19:18:34.074170 19424 net.cpp:156] Memory required for data: 1236129312
I0403 19:18:34.074185 19424 layer_factory.hpp:77] Creating layer inception_4e/5x5_reduce
I0403 19:18:34.074213 19424 net.cpp:91] Creating Layer inception_4e/5x5_reduce
I0403 19:18:34.074230 19424 net.cpp:425] inception_4e/5x5_reduce <- inception_4d/output_inception_4d/output_0_split_3
I0403 19:18:34.074260 19424 net.cpp:399] inception_4e/5x5_reduce -> inception_4e/5x5_reduce
I0403 19:18:34.075338 19424 net.cpp:141] Setting up inception_4e/5x5_reduce
I0403 19:18:34.075366 19424 net.cpp:148] Top shape: 24 32 14 14 (150528)
I0403 19:18:34.075381 19424 net.cpp:156] Memory required for data: 1236731424
I0403 19:18:34.075399 19424 layer_factory.hpp:77] Creating layer inception_4e/relu_5x5_reduce
I0403 19:18:34.075417 19424 net.cpp:91] Creating Layer inception_4e/relu_5x5_reduce
I0403 19:18:34.075434 19424 net.cpp:425] inception_4e/relu_5x5_reduce <- inception_4e/5x5_reduce
I0403 19:18:34.075453 19424 net.cpp:386] inception_4e/relu_5x5_reduce -> inception_4e/5x5_reduce (in-place)
I0403 19:18:34.075755 19424 net.cpp:141] Setting up inception_4e/relu_5x5_reduce
I0403 19:18:34.075781 19424 net.cpp:148] Top shape: 24 32 14 14 (150528)
I0403 19:18:34.075796 19424 net.cpp:156] Memory required for data: 1237333536
I0403 19:18:34.075811 19424 layer_factory.hpp:77] Creating layer inception_4e/5x5
I0403 19:18:34.075850 19424 net.cpp:91] Creating Layer inception_4e/5x5
I0403 19:18:34.075868 19424 net.cpp:425] inception_4e/5x5 <- inception_4e/5x5_reduce
I0403 19:18:34.075887 19424 net.cpp:399] inception_4e/5x5 -> inception_4e/5x5
I0403 19:18:34.077774 19424 net.cpp:141] Setting up inception_4e/5x5
I0403 19:18:34.077803 19424 net.cpp:148] Top shape: 24 128 14 14 (602112)
I0403 19:18:34.077819 19424 net.cpp:156] Memory required for data: 1239741984
I0403 19:18:34.077838 19424 layer_factory.hpp:77] Creating layer inception_4e/relu_5x5
I0403 19:18:34.077857 19424 net.cpp:91] Creating Layer inception_4e/relu_5x5
I0403 19:18:34.077872 19424 net.cpp:425] inception_4e/relu_5x5 <- inception_4e/5x5
I0403 19:18:34.077889 19424 net.cpp:386] inception_4e/relu_5x5 -> inception_4e/5x5 (in-place)
I0403 19:18:34.078091 19424 net.cpp:141] Setting up inception_4e/relu_5x5
I0403 19:18:34.078116 19424 net.cpp:148] Top shape: 24 128 14 14 (602112)
I0403 19:18:34.078130 19424 net.cpp:156] Memory required for data: 1242150432
I0403 19:18:34.078145 19424 layer_factory.hpp:77] Creating layer inception_4e/pool
I0403 19:18:34.078163 19424 net.cpp:91] Creating Layer inception_4e/pool
I0403 19:18:34.078178 19424 net.cpp:425] inception_4e/pool <- inception_4d/output_inception_4d/output_0_split_4
I0403 19:18:34.078198 19424 net.cpp:399] inception_4e/pool -> inception_4e/pool
I0403 19:18:34.078268 19424 net.cpp:141] Setting up inception_4e/pool
I0403 19:18:34.078292 19424 net.cpp:148] Top shape: 24 528 14 14 (2483712)
I0403 19:18:34.078307 19424 net.cpp:156] Memory required for data: 1252085280
I0403 19:18:34.078321 19424 layer_factory.hpp:77] Creating layer inception_4e/pool_proj
I0403 19:18:34.078343 19424 net.cpp:91] Creating Layer inception_4e/pool_proj
I0403 19:18:34.078361 19424 net.cpp:425] inception_4e/pool_proj <- inception_4e/pool
I0403 19:18:34.078382 19424 net.cpp:399] inception_4e/pool_proj -> inception_4e/pool_proj
I0403 19:18:34.079896 19424 net.cpp:141] Setting up inception_4e/pool_proj
I0403 19:18:34.079938 19424 net.cpp:148] Top shape: 24 128 14 14 (602112)
I0403 19:18:34.079960 19424 net.cpp:156] Memory required for data: 1254493728
I0403 19:18:34.079980 19424 layer_factory.hpp:77] Creating layer inception_4e/relu_pool_proj
I0403 19:18:34.079998 19424 net.cpp:91] Creating Layer inception_4e/relu_pool_proj
I0403 19:18:34.080014 19424 net.cpp:425] inception_4e/relu_pool_proj <- inception_4e/pool_proj
I0403 19:18:34.080032 19424 net.cpp:386] inception_4e/relu_pool_proj -> inception_4e/pool_proj (in-place)
I0403 19:18:34.080327 19424 net.cpp:141] Setting up inception_4e/relu_pool_proj
I0403 19:18:34.080354 19424 net.cpp:148] Top shape: 24 128 14 14 (602112)
I0403 19:18:34.080370 19424 net.cpp:156] Memory required for data: 1256902176
I0403 19:18:34.080385 19424 layer_factory.hpp:77] Creating layer inception_4e/output
I0403 19:18:34.080402 19424 net.cpp:91] Creating Layer inception_4e/output
I0403 19:18:34.080418 19424 net.cpp:425] inception_4e/output <- inception_4e/1x1
I0403 19:18:34.080435 19424 net.cpp:425] inception_4e/output <- inception_4e/3x3
I0403 19:18:34.080451 19424 net.cpp:425] inception_4e/output <- inception_4e/5x5
I0403 19:18:34.080467 19424 net.cpp:425] inception_4e/output <- inception_4e/pool_proj
I0403 19:18:34.080483 19424 net.cpp:399] inception_4e/output -> inception_4e/output
I0403 19:18:34.080543 19424 net.cpp:141] Setting up inception_4e/output
I0403 19:18:34.080566 19424 net.cpp:148] Top shape: 24 832 14 14 (3913728)
I0403 19:18:34.080581 19424 net.cpp:156] Memory required for data: 1272557088
I0403 19:18:34.080595 19424 layer_factory.hpp:77] Creating layer pool4/3x3_s2
I0403 19:18:34.080615 19424 net.cpp:91] Creating Layer pool4/3x3_s2
I0403 19:18:34.080631 19424 net.cpp:425] pool4/3x3_s2 <- inception_4e/output
I0403 19:18:34.080649 19424 net.cpp:399] pool4/3x3_s2 -> pool4/3x3_s2
I0403 19:18:34.080718 19424 net.cpp:141] Setting up pool4/3x3_s2
I0403 19:18:34.080740 19424 net.cpp:148] Top shape: 24 832 7 7 (978432)
I0403 19:18:34.080755 19424 net.cpp:156] Memory required for data: 1276470816
I0403 19:18:34.080770 19424 layer_factory.hpp:77] Creating layer pool4/3x3_s2_pool4/3x3_s2_0_split
I0403 19:18:34.080787 19424 net.cpp:91] Creating Layer pool4/3x3_s2_pool4/3x3_s2_0_split
I0403 19:18:34.080802 19424 net.cpp:425] pool4/3x3_s2_pool4/3x3_s2_0_split <- pool4/3x3_s2
I0403 19:18:34.080822 19424 net.cpp:399] pool4/3x3_s2_pool4/3x3_s2_0_split -> pool4/3x3_s2_pool4/3x3_s2_0_split_0
I0403 19:18:34.080843 19424 net.cpp:399] pool4/3x3_s2_pool4/3x3_s2_0_split -> pool4/3x3_s2_pool4/3x3_s2_0_split_1
I0403 19:18:34.080864 19424 net.cpp:399] pool4/3x3_s2_pool4/3x3_s2_0_split -> pool4/3x3_s2_pool4/3x3_s2_0_split_2
I0403 19:18:34.080884 19424 net.cpp:399] pool4/3x3_s2_pool4/3x3_s2_0_split -> pool4/3x3_s2_pool4/3x3_s2_0_split_3
I0403 19:18:34.080981 19424 net.cpp:141] Setting up pool4/3x3_s2_pool4/3x3_s2_0_split
I0403 19:18:34.081007 19424 net.cpp:148] Top shape: 24 832 7 7 (978432)
I0403 19:18:34.081023 19424 net.cpp:148] Top shape: 24 832 7 7 (978432)
I0403 19:18:34.081039 19424 net.cpp:148] Top shape: 24 832 7 7 (978432)
I0403 19:18:34.081055 19424 net.cpp:148] Top shape: 24 832 7 7 (978432)
I0403 19:18:34.081069 19424 net.cpp:156] Memory required for data: 1292125728
I0403 19:18:34.081084 19424 layer_factory.hpp:77] Creating layer inception_5a/1x1
I0403 19:18:34.081106 19424 net.cpp:91] Creating Layer inception_5a/1x1
I0403 19:18:34.081125 19424 net.cpp:425] inception_5a/1x1 <- pool4/3x3_s2_pool4/3x3_s2_0_split_0
I0403 19:18:34.081143 19424 net.cpp:399] inception_5a/1x1 -> inception_5a/1x1
I0403 19:18:34.084012 19424 net.cpp:141] Setting up inception_5a/1x1
I0403 19:18:34.084043 19424 net.cpp:148] Top shape: 24 256 7 7 (301056)
I0403 19:18:34.084060 19424 net.cpp:156] Memory required for data: 1293329952
I0403 19:18:34.084079 19424 layer_factory.hpp:77] Creating layer inception_5a/relu_1x1
I0403 19:18:34.084097 19424 net.cpp:91] Creating Layer inception_5a/relu_1x1
I0403 19:18:34.084113 19424 net.cpp:425] inception_5a/relu_1x1 <- inception_5a/1x1
I0403 19:18:34.084133 19424 net.cpp:386] inception_5a/relu_1x1 -> inception_5a/1x1 (in-place)
I0403 19:18:34.084449 19424 net.cpp:141] Setting up inception_5a/relu_1x1
I0403 19:18:34.084480 19424 net.cpp:148] Top shape: 24 256 7 7 (301056)
I0403 19:18:34.084496 19424 net.cpp:156] Memory required for data: 1294534176
I0403 19:18:34.084511 19424 layer_factory.hpp:77] Creating layer inception_5a/3x3_reduce
I0403 19:18:34.084542 19424 net.cpp:91] Creating Layer inception_5a/3x3_reduce
I0403 19:18:34.084560 19424 net.cpp:425] inception_5a/3x3_reduce <- pool4/3x3_s2_pool4/3x3_s2_0_split_1
I0403 19:18:34.084580 19424 net.cpp:399] inception_5a/3x3_reduce -> inception_5a/3x3_reduce
I0403 19:18:34.087071 19424 net.cpp:141] Setting up inception_5a/3x3_reduce
I0403 19:18:34.087100 19424 net.cpp:148] Top shape: 24 160 7 7 (188160)
I0403 19:18:34.087116 19424 net.cpp:156] Memory required for data: 1295286816
I0403 19:18:34.087136 19424 layer_factory.hpp:77] Creating layer inception_5a/relu_3x3_reduce
I0403 19:18:34.087155 19424 net.cpp:91] Creating Layer inception_5a/relu_3x3_reduce
I0403 19:18:34.087172 19424 net.cpp:425] inception_5a/relu_3x3_reduce <- inception_5a/3x3_reduce
I0403 19:18:34.087190 19424 net.cpp:386] inception_5a/relu_3x3_reduce -> inception_5a/3x3_reduce (in-place)
I0403 19:18:34.087378 19424 net.cpp:141] Setting up inception_5a/relu_3x3_reduce
I0403 19:18:34.087405 19424 net.cpp:148] Top shape: 24 160 7 7 (188160)
I0403 19:18:34.087420 19424 net.cpp:156] Memory required for data: 1296039456
I0403 19:18:34.087435 19424 layer_factory.hpp:77] Creating layer inception_5a/3x3
I0403 19:18:34.087458 19424 net.cpp:91] Creating Layer inception_5a/3x3
I0403 19:18:34.087476 19424 net.cpp:425] inception_5a/3x3 <- inception_5a/3x3_reduce
I0403 19:18:34.087496 19424 net.cpp:399] inception_5a/3x3 -> inception_5a/3x3
I0403 19:18:34.092442 19424 net.cpp:141] Setting up inception_5a/3x3
I0403 19:18:34.092471 19424 net.cpp:148] Top shape: 24 320 7 7 (376320)
I0403 19:18:34.092488 19424 net.cpp:156] Memory required for data: 1297544736
I0403 19:18:34.092505 19424 layer_factory.hpp:77] Creating layer inception_5a/relu_3x3
I0403 19:18:34.092522 19424 net.cpp:91] Creating Layer inception_5a/relu_3x3
I0403 19:18:34.092540 19424 net.cpp:425] inception_5a/relu_3x3 <- inception_5a/3x3
I0403 19:18:34.092558 19424 net.cpp:386] inception_5a/relu_3x3 -> inception_5a/3x3 (in-place)
I0403 19:18:34.092844 19424 net.cpp:141] Setting up inception_5a/relu_3x3
I0403 19:18:34.092870 19424 net.cpp:148] Top shape: 24 320 7 7 (376320)
I0403 19:18:34.092885 19424 net.cpp:156] Memory required for data: 1299050016
I0403 19:18:34.092912 19424 layer_factory.hpp:77] Creating layer inception_5a/5x5_reduce
I0403 19:18:34.092937 19424 net.cpp:91] Creating Layer inception_5a/5x5_reduce
I0403 19:18:34.092960 19424 net.cpp:425] inception_5a/5x5_reduce <- pool4/3x3_s2_pool4/3x3_s2_0_split_2
I0403 19:18:34.092984 19424 net.cpp:399] inception_5a/5x5_reduce -> inception_5a/5x5_reduce
I0403 19:18:34.094130 19424 net.cpp:141] Setting up inception_5a/5x5_reduce
I0403 19:18:34.094158 19424 net.cpp:148] Top shape: 24 32 7 7 (37632)
I0403 19:18:34.094174 19424 net.cpp:156] Memory required for data: 1299200544
I0403 19:18:34.094192 19424 layer_factory.hpp:77] Creating layer inception_5a/relu_5x5_reduce
I0403 19:18:34.094211 19424 net.cpp:91] Creating Layer inception_5a/relu_5x5_reduce
I0403 19:18:34.094229 19424 net.cpp:425] inception_5a/relu_5x5_reduce <- inception_5a/5x5_reduce
I0403 19:18:34.094246 19424 net.cpp:386] inception_5a/relu_5x5_reduce -> inception_5a/5x5_reduce (in-place)
I0403 19:18:34.094538 19424 net.cpp:141] Setting up inception_5a/relu_5x5_reduce
I0403 19:18:34.094563 19424 net.cpp:148] Top shape: 24 32 7 7 (37632)
I0403 19:18:34.094578 19424 net.cpp:156] Memory required for data: 1299351072
I0403 19:18:34.094591 19424 layer_factory.hpp:77] Creating layer inception_5a/5x5
I0403 19:18:34.094614 19424 net.cpp:91] Creating Layer inception_5a/5x5
I0403 19:18:34.094630 19424 net.cpp:425] inception_5a/5x5 <- inception_5a/5x5_reduce
I0403 19:18:34.094650 19424 net.cpp:399] inception_5a/5x5 -> inception_5a/5x5
I0403 19:18:34.096321 19424 net.cpp:141] Setting up inception_5a/5x5
I0403 19:18:34.096360 19424 net.cpp:148] Top shape: 24 128 7 7 (150528)
I0403 19:18:34.096377 19424 net.cpp:156] Memory required for data: 1299953184
I0403 19:18:34.096395 19424 layer_factory.hpp:77] Creating layer inception_5a/relu_5x5
I0403 19:18:34.096413 19424 net.cpp:91] Creating Layer inception_5a/relu_5x5
I0403 19:18:34.096428 19424 net.cpp:425] inception_5a/relu_5x5 <- inception_5a/5x5
I0403 19:18:34.096447 19424 net.cpp:386] inception_5a/relu_5x5 -> inception_5a/5x5 (in-place)
I0403 19:18:34.096633 19424 net.cpp:141] Setting up inception_5a/relu_5x5
I0403 19:18:34.096657 19424 net.cpp:148] Top shape: 24 128 7 7 (150528)
I0403 19:18:34.096673 19424 net.cpp:156] Memory required for data: 1300555296
I0403 19:18:34.096685 19424 layer_factory.hpp:77] Creating layer inception_5a/pool
I0403 19:18:34.096703 19424 net.cpp:91] Creating Layer inception_5a/pool
I0403 19:18:34.096721 19424 net.cpp:425] inception_5a/pool <- pool4/3x3_s2_pool4/3x3_s2_0_split_3
I0403 19:18:34.096740 19424 net.cpp:399] inception_5a/pool -> inception_5a/pool
I0403 19:18:34.096808 19424 net.cpp:141] Setting up inception_5a/pool
I0403 19:18:34.096832 19424 net.cpp:148] Top shape: 24 832 7 7 (978432)
I0403 19:18:34.096845 19424 net.cpp:156] Memory required for data: 1304469024
I0403 19:18:34.096859 19424 layer_factory.hpp:77] Creating layer inception_5a/pool_proj
I0403 19:18:34.096881 19424 net.cpp:91] Creating Layer inception_5a/pool_proj
I0403 19:18:34.096899 19424 net.cpp:425] inception_5a/pool_proj <- inception_5a/pool
I0403 19:18:34.096931 19424 net.cpp:399] inception_5a/pool_proj -> inception_5a/pool_proj
I0403 19:18:34.099194 19424 net.cpp:141] Setting up inception_5a/pool_proj
I0403 19:18:34.099237 19424 net.cpp:148] Top shape: 24 128 7 7 (150528)
I0403 19:18:34.099253 19424 net.cpp:156] Memory required for data: 1305071136
I0403 19:18:34.099272 19424 layer_factory.hpp:77] Creating layer inception_5a/relu_pool_proj
I0403 19:18:34.099289 19424 net.cpp:91] Creating Layer inception_5a/relu_pool_proj
I0403 19:18:34.099305 19424 net.cpp:425] inception_5a/relu_pool_proj <- inception_5a/pool_proj
I0403 19:18:34.099324 19424 net.cpp:386] inception_5a/relu_pool_proj -> inception_5a/pool_proj (in-place)
I0403 19:18:34.099609 19424 net.cpp:141] Setting up inception_5a/relu_pool_proj
I0403 19:18:34.099637 19424 net.cpp:148] Top shape: 24 128 7 7 (150528)
I0403 19:18:34.099652 19424 net.cpp:156] Memory required for data: 1305673248
I0403 19:18:34.099666 19424 layer_factory.hpp:77] Creating layer inception_5a/output
I0403 19:18:34.099684 19424 net.cpp:91] Creating Layer inception_5a/output
I0403 19:18:34.099699 19424 net.cpp:425] inception_5a/output <- inception_5a/1x1
I0403 19:18:34.099714 19424 net.cpp:425] inception_5a/output <- inception_5a/3x3
I0403 19:18:34.099730 19424 net.cpp:425] inception_5a/output <- inception_5a/5x5
I0403 19:18:34.099745 19424 net.cpp:425] inception_5a/output <- inception_5a/pool_proj
I0403 19:18:34.099761 19424 net.cpp:399] inception_5a/output -> inception_5a/output
I0403 19:18:34.099810 19424 net.cpp:141] Setting up inception_5a/output
I0403 19:18:34.099833 19424 net.cpp:148] Top shape: 24 832 7 7 (978432)
I0403 19:18:34.099848 19424 net.cpp:156] Memory required for data: 1309586976
I0403 19:18:34.099861 19424 layer_factory.hpp:77] Creating layer inception_5a/output_inception_5a/output_0_split
I0403 19:18:34.099877 19424 net.cpp:91] Creating Layer inception_5a/output_inception_5a/output_0_split
I0403 19:18:34.099894 19424 net.cpp:425] inception_5a/output_inception_5a/output_0_split <- inception_5a/output
I0403 19:18:34.099912 19424 net.cpp:399] inception_5a/output_inception_5a/output_0_split -> inception_5a/output_inception_5a/output_0_split_0
I0403 19:18:34.099932 19424 net.cpp:399] inception_5a/output_inception_5a/output_0_split -> inception_5a/output_inception_5a/output_0_split_1
I0403 19:18:34.099956 19424 net.cpp:399] inception_5a/output_inception_5a/output_0_split -> inception_5a/output_inception_5a/output_0_split_2
I0403 19:18:34.099980 19424 net.cpp:399] inception_5a/output_inception_5a/output_0_split -> inception_5a/output_inception_5a/output_0_split_3
I0403 19:18:34.100088 19424 net.cpp:141] Setting up inception_5a/output_inception_5a/output_0_split
I0403 19:18:34.100111 19424 net.cpp:148] Top shape: 24 832 7 7 (978432)
I0403 19:18:34.100126 19424 net.cpp:148] Top shape: 24 832 7 7 (978432)
I0403 19:18:34.100142 19424 net.cpp:148] Top shape: 24 832 7 7 (978432)
I0403 19:18:34.100157 19424 net.cpp:148] Top shape: 24 832 7 7 (978432)
I0403 19:18:34.100169 19424 net.cpp:156] Memory required for data: 1325241888
I0403 19:18:34.100183 19424 layer_factory.hpp:77] Creating layer inception_5b/1x1
I0403 19:18:34.100204 19424 net.cpp:91] Creating Layer inception_5b/1x1
I0403 19:18:34.100222 19424 net.cpp:425] inception_5b/1x1 <- inception_5a/output_inception_5a/output_0_split_0
I0403 19:18:34.100242 19424 net.cpp:399] inception_5b/1x1 -> inception_5b/1x1
I0403 19:18:34.103901 19424 net.cpp:141] Setting up inception_5b/1x1
I0403 19:18:34.103930 19424 net.cpp:148] Top shape: 24 384 7 7 (451584)
I0403 19:18:34.103950 19424 net.cpp:156] Memory required for data: 1327048224
I0403 19:18:34.103970 19424 layer_factory.hpp:77] Creating layer inception_5b/relu_1x1
I0403 19:18:34.103991 19424 net.cpp:91] Creating Layer inception_5b/relu_1x1
I0403 19:18:34.104007 19424 net.cpp:425] inception_5b/relu_1x1 <- inception_5b/1x1
I0403 19:18:34.104024 19424 net.cpp:386] inception_5b/relu_1x1 -> inception_5b/1x1 (in-place)
I0403 19:18:34.104322 19424 net.cpp:141] Setting up inception_5b/relu_1x1
I0403 19:18:34.104348 19424 net.cpp:148] Top shape: 24 384 7 7 (451584)
I0403 19:18:34.104362 19424 net.cpp:156] Memory required for data: 1328854560
I0403 19:18:34.104377 19424 layer_factory.hpp:77] Creating layer inception_5b/3x3_reduce
I0403 19:18:34.104398 19424 net.cpp:91] Creating Layer inception_5b/3x3_reduce
I0403 19:18:34.104415 19424 net.cpp:425] inception_5b/3x3_reduce <- inception_5a/output_inception_5a/output_0_split_1
I0403 19:18:34.104436 19424 net.cpp:399] inception_5b/3x3_reduce -> inception_5b/3x3_reduce
I0403 19:18:34.107134 19424 net.cpp:141] Setting up inception_5b/3x3_reduce
I0403 19:18:34.107164 19424 net.cpp:148] Top shape: 24 192 7 7 (225792)
I0403 19:18:34.107180 19424 net.cpp:156] Memory required for data: 1329757728
I0403 19:18:34.107198 19424 layer_factory.hpp:77] Creating layer inception_5b/relu_3x3_reduce
I0403 19:18:34.107218 19424 net.cpp:91] Creating Layer inception_5b/relu_3x3_reduce
I0403 19:18:34.107235 19424 net.cpp:425] inception_5b/relu_3x3_reduce <- inception_5b/3x3_reduce
I0403 19:18:34.107254 19424 net.cpp:386] inception_5b/relu_3x3_reduce -> inception_5b/3x3_reduce (in-place)
I0403 19:18:34.107445 19424 net.cpp:141] Setting up inception_5b/relu_3x3_reduce
I0403 19:18:34.107468 19424 net.cpp:148] Top shape: 24 192 7 7 (225792)
I0403 19:18:34.107482 19424 net.cpp:156] Memory required for data: 1330660896
I0403 19:18:34.107497 19424 layer_factory.hpp:77] Creating layer inception_5b/3x3
I0403 19:18:34.107519 19424 net.cpp:91] Creating Layer inception_5b/3x3
I0403 19:18:34.107537 19424 net.cpp:425] inception_5b/3x3 <- inception_5b/3x3_reduce
I0403 19:18:34.107558 19424 net.cpp:399] inception_5b/3x3 -> inception_5b/3x3
I0403 19:18:34.114262 19424 net.cpp:141] Setting up inception_5b/3x3
I0403 19:18:34.114294 19424 net.cpp:148] Top shape: 24 384 7 7 (451584)
I0403 19:18:34.114310 19424 net.cpp:156] Memory required for data: 1332467232
I0403 19:18:34.114328 19424 layer_factory.hpp:77] Creating layer inception_5b/relu_3x3
I0403 19:18:34.114346 19424 net.cpp:91] Creating Layer inception_5b/relu_3x3
I0403 19:18:34.114362 19424 net.cpp:425] inception_5b/relu_3x3 <- inception_5b/3x3
I0403 19:18:34.114382 19424 net.cpp:386] inception_5b/relu_3x3 -> inception_5b/3x3 (in-place)
I0403 19:18:34.114681 19424 net.cpp:141] Setting up inception_5b/relu_3x3
I0403 19:18:34.114708 19424 net.cpp:148] Top shape: 24 384 7 7 (451584)
I0403 19:18:34.114723 19424 net.cpp:156] Memory required for data: 1334273568
I0403 19:18:34.114738 19424 layer_factory.hpp:77] Creating layer inception_5b/5x5_reduce
I0403 19:18:34.114778 19424 net.cpp:91] Creating Layer inception_5b/5x5_reduce
I0403 19:18:34.114797 19424 net.cpp:425] inception_5b/5x5_reduce <- inception_5a/output_inception_5a/output_0_split_2
I0403 19:18:34.114816 19424 net.cpp:399] inception_5b/5x5_reduce -> inception_5b/5x5_reduce
I0403 19:18:34.116135 19424 net.cpp:141] Setting up inception_5b/5x5_reduce
I0403 19:18:34.116165 19424 net.cpp:148] Top shape: 24 48 7 7 (56448)
I0403 19:18:34.116181 19424 net.cpp:156] Memory required for data: 1334499360
I0403 19:18:34.116199 19424 layer_factory.hpp:77] Creating layer inception_5b/relu_5x5_reduce
I0403 19:18:34.116217 19424 net.cpp:91] Creating Layer inception_5b/relu_5x5_reduce
I0403 19:18:34.116233 19424 net.cpp:425] inception_5b/relu_5x5_reduce <- inception_5b/5x5_reduce
I0403 19:18:34.116251 19424 net.cpp:386] inception_5b/relu_5x5_reduce -> inception_5b/5x5_reduce (in-place)
I0403 19:18:34.116623 19424 net.cpp:141] Setting up inception_5b/relu_5x5_reduce
I0403 19:18:34.116649 19424 net.cpp:148] Top shape: 24 48 7 7 (56448)
I0403 19:18:34.116665 19424 net.cpp:156] Memory required for data: 1334725152
I0403 19:18:34.116680 19424 layer_factory.hpp:77] Creating layer inception_5b/5x5
I0403 19:18:34.116700 19424 net.cpp:91] Creating Layer inception_5b/5x5
I0403 19:18:34.116717 19424 net.cpp:425] inception_5b/5x5 <- inception_5b/5x5_reduce
I0403 19:18:34.116736 19424 net.cpp:399] inception_5b/5x5 -> inception_5b/5x5
I0403 19:18:34.118805 19424 net.cpp:141] Setting up inception_5b/5x5
I0403 19:18:34.118835 19424 net.cpp:148] Top shape: 24 128 7 7 (150528)
I0403 19:18:34.118851 19424 net.cpp:156] Memory required for data: 1335327264
I0403 19:18:34.118870 19424 layer_factory.hpp:77] Creating layer inception_5b/relu_5x5
I0403 19:18:34.118888 19424 net.cpp:91] Creating Layer inception_5b/relu_5x5
I0403 19:18:34.118906 19424 net.cpp:425] inception_5b/relu_5x5 <- inception_5b/5x5
I0403 19:18:34.118926 19424 net.cpp:386] inception_5b/relu_5x5 -> inception_5b/5x5 (in-place)
I0403 19:18:34.119132 19424 net.cpp:141] Setting up inception_5b/relu_5x5
I0403 19:18:34.119155 19424 net.cpp:148] Top shape: 24 128 7 7 (150528)
I0403 19:18:34.119170 19424 net.cpp:156] Memory required for data: 1335929376
I0403 19:18:34.119185 19424 layer_factory.hpp:77] Creating layer inception_5b/pool
I0403 19:18:34.119204 19424 net.cpp:91] Creating Layer inception_5b/pool
I0403 19:18:34.119221 19424 net.cpp:425] inception_5b/pool <- inception_5a/output_inception_5a/output_0_split_3
I0403 19:18:34.119242 19424 net.cpp:399] inception_5b/pool -> inception_5b/pool
I0403 19:18:34.119318 19424 net.cpp:141] Setting up inception_5b/pool
I0403 19:18:34.119340 19424 net.cpp:148] Top shape: 24 832 7 7 (978432)
I0403 19:18:34.119355 19424 net.cpp:156] Memory required for data: 1339843104
I0403 19:18:34.119369 19424 layer_factory.hpp:77] Creating layer inception_5b/pool_proj
I0403 19:18:34.119392 19424 net.cpp:91] Creating Layer inception_5b/pool_proj
I0403 19:18:34.119410 19424 net.cpp:425] inception_5b/pool_proj <- inception_5b/pool
I0403 19:18:34.119431 19424 net.cpp:399] inception_5b/pool_proj -> inception_5b/pool_proj
I0403 19:18:34.121752 19424 net.cpp:141] Setting up inception_5b/pool_proj
I0403 19:18:34.121783 19424 net.cpp:148] Top shape: 24 128 7 7 (150528)
I0403 19:18:34.121799 19424 net.cpp:156] Memory required for data: 1340445216
I0403 19:18:34.121817 19424 layer_factory.hpp:77] Creating layer inception_5b/relu_pool_proj
I0403 19:18:34.121835 19424 net.cpp:91] Creating Layer inception_5b/relu_pool_proj
I0403 19:18:34.121852 19424 net.cpp:425] inception_5b/relu_pool_proj <- inception_5b/pool_proj
I0403 19:18:34.121870 19424 net.cpp:386] inception_5b/relu_pool_proj -> inception_5b/pool_proj (in-place)
I0403 19:18:34.122170 19424 net.cpp:141] Setting up inception_5b/relu_pool_proj
I0403 19:18:34.122200 19424 net.cpp:148] Top shape: 24 128 7 7 (150528)
I0403 19:18:34.122215 19424 net.cpp:156] Memory required for data: 1341047328
I0403 19:18:34.122231 19424 layer_factory.hpp:77] Creating layer inception_5b/output
I0403 19:18:34.122247 19424 net.cpp:91] Creating Layer inception_5b/output
I0403 19:18:34.122278 19424 net.cpp:425] inception_5b/output <- inception_5b/1x1
I0403 19:18:34.122298 19424 net.cpp:425] inception_5b/output <- inception_5b/3x3
I0403 19:18:34.122313 19424 net.cpp:425] inception_5b/output <- inception_5b/5x5
I0403 19:18:34.122329 19424 net.cpp:425] inception_5b/output <- inception_5b/pool_proj
I0403 19:18:34.122347 19424 net.cpp:399] inception_5b/output -> inception_5b/output
I0403 19:18:34.122401 19424 net.cpp:141] Setting up inception_5b/output
I0403 19:18:34.122424 19424 net.cpp:148] Top shape: 24 1024 7 7 (1204224)
I0403 19:18:34.122439 19424 net.cpp:156] Memory required for data: 1345864224
I0403 19:18:34.122453 19424 layer_factory.hpp:77] Creating layer pool5/7x7_s1
I0403 19:18:34.122473 19424 net.cpp:91] Creating Layer pool5/7x7_s1
I0403 19:18:34.122491 19424 net.cpp:425] pool5/7x7_s1 <- inception_5b/output
I0403 19:18:34.122510 19424 net.cpp:399] pool5/7x7_s1 -> pool5/7x7_s1
I0403 19:18:34.122728 19424 net.cpp:141] Setting up pool5/7x7_s1
I0403 19:18:34.122753 19424 net.cpp:148] Top shape: 24 1024 1 1 (24576)
I0403 19:18:34.122768 19424 net.cpp:156] Memory required for data: 1345962528
I0403 19:18:34.122782 19424 layer_factory.hpp:77] Creating layer pool5/drop_7x7_s1
I0403 19:18:34.122800 19424 net.cpp:91] Creating Layer pool5/drop_7x7_s1
I0403 19:18:34.122817 19424 net.cpp:425] pool5/drop_7x7_s1 <- pool5/7x7_s1
I0403 19:18:34.122838 19424 net.cpp:386] pool5/drop_7x7_s1 -> pool5/7x7_s1 (in-place)
I0403 19:18:34.122887 19424 net.cpp:141] Setting up pool5/drop_7x7_s1
I0403 19:18:34.122910 19424 net.cpp:148] Top shape: 24 1024 1 1 (24576)
I0403 19:18:34.122925 19424 net.cpp:156] Memory required for data: 1346060832
I0403 19:18:34.122938 19424 layer_factory.hpp:77] Creating layer loss3/classifier_plantvillage
I0403 19:18:34.122966 19424 net.cpp:91] Creating Layer loss3/classifier_plantvillage
I0403 19:18:34.122983 19424 net.cpp:425] loss3/classifier_plantvillage <- pool5/7x7_s1
I0403 19:18:34.123004 19424 net.cpp:399] loss3/classifier_plantvillage -> loss3/classifier_plantvillage
I0403 19:18:34.123435 19424 net.cpp:141] Setting up loss3/classifier_plantvillage
I0403 19:18:34.123459 19424 net.cpp:148] Top shape: 24 38 (912)
I0403 19:18:34.123473 19424 net.cpp:156] Memory required for data: 1346064480
I0403 19:18:34.123492 19424 layer_factory.hpp:77] Creating layer loss3/classifier_plantvillage_loss3/classifier_plantvillage_0_split
I0403 19:18:34.123509 19424 net.cpp:91] Creating Layer loss3/classifier_plantvillage_loss3/classifier_plantvillage_0_split
I0403 19:18:34.123525 19424 net.cpp:425] loss3/classifier_plantvillage_loss3/classifier_plantvillage_0_split <- loss3/classifier_plantvillage
I0403 19:18:34.123545 19424 net.cpp:399] loss3/classifier_plantvillage_loss3/classifier_plantvillage_0_split -> loss3/classifier_plantvillage_loss3/classifier_plantvillage_0_split_0
I0403 19:18:34.123566 19424 net.cpp:399] loss3/classifier_plantvillage_loss3/classifier_plantvillage_0_split -> loss3/classifier_plantvillage_loss3/classifier_plantvillage_0_split_1
I0403 19:18:34.123585 19424 net.cpp:399] loss3/classifier_plantvillage_loss3/classifier_plantvillage_0_split -> loss3/classifier_plantvillage_loss3/classifier_plantvillage_0_split_2
I0403 19:18:34.123608 19424 net.cpp:399] loss3/classifier_plantvillage_loss3/classifier_plantvillage_0_split -> loss3/classifier_plantvillage_loss3/classifier_plantvillage_0_split_3
I0403 19:18:34.123711 19424 net.cpp:141] Setting up loss3/classifier_plantvillage_loss3/classifier_plantvillage_0_split
I0403 19:18:34.123734 19424 net.cpp:148] Top shape: 24 38 (912)
I0403 19:18:34.123750 19424 net.cpp:148] Top shape: 24 38 (912)
I0403 19:18:34.123766 19424 net.cpp:148] Top shape: 24 38 (912)
I0403 19:18:34.123780 19424 net.cpp:148] Top shape: 24 38 (912)
I0403 19:18:34.123795 19424 net.cpp:156] Memory required for data: 1346079072
I0403 19:18:34.123808 19424 layer_factory.hpp:77] Creating layer loss1/loss
I0403 19:18:34.123829 19424 net.cpp:91] Creating Layer loss1/loss
I0403 19:18:34.123847 19424 net.cpp:425] loss1/loss <- loss1/classifier_plantvillage_loss1/classifier_plantvillage_0_split_0
I0403 19:18:34.123878 19424 net.cpp:425] loss1/loss <- label_data_1_split_0
…
