…
I0403 02:30:37.111968 16973 net.cpp:313] The NetState phase (0) differed from the phase (1) specified by a rule in layer accuracy
I0403 02:30:37.112820 16973 net.cpp:49] Initializing net from parameters: 
state {
  phase: TRAIN
}
layer {
  name: "data"
  type: "Data"
  top: "data"
  top: "label"
  include {
    phase: TRAIN
  }
  transform_param {
    mirror: true
    crop_size: 227
    mean_file: "/home/mohanty/data/final_dataset/lmdb/segmented-60-40/mean.binaryproto"
  }
  data_param {
    source: "/home/mohanty/data/final_dataset/lmdb/segmented-60-40/train_db"
    batch_size: 100
    backend: LMDB
  }
}
layer {
  name: "conv1"
  type: "Convolution"
  bottom: "data"
  top: "conv1"
  param {
    lr_mult: 1
    decay_mult: 1
  }
  param {
    lr_mult: 2
    decay_mult: 0
  }
  convolution_param {
    num_output: 96
    kernel_size: 11
    stride: 4
    weight_filler {
      type: "gaussian"
      std: 0.01
    }
    bias_filler {
      type: "constant"
      value: 0
    }
  }
}
layer {
  name: "relu1"
  type: "ReLU"
  bottom: "conv1"
  top: "conv1"
}
layer {
  name: "norm1"
  type: "LRN"
  bottom: "conv1"
  top: "norm1"
  lrn_param {
    local_size: 5
    alpha: 0.0001
    beta: 0.75
  }
}
layer {
  name: "pool1"
  type: "Pooling"
  bottom: "norm1"
  top: "pool1"
  pooling_param {
    pool: MAX
    kernel_size: 3
    stride: 2
  }
}
layer {
  name: "conv2"
  type: "Convolution"
  bottom: "pool1"
  top: "conv2"
  param {
    lr_mult: 1
    decay_mult: 1
  }
  param {
    lr_mult: 2
    decay_mult: 0
  }
  convolution_param {
    num_output: 256
    pad: 2
    kernel_size: 5
    group: 2
    weight_filler {
      type: "gaussian"
      std: 0.01
    }
    bias_filler {
      type: "constant"
      value: 0.1
    }
  }
}
layer {
  name: "relu2"
  type: "ReLU"
  bottom: "conv2"
  top: "conv2"
}
layer {
  name: "norm2"
  type: "LRN"
  bottom: "conv2"
  top: "norm2"
  lrn_param {
    local_size: 5
    alpha: 0.0001
    beta: 0.75
  }
}
layer {
  name: "pool2"
  type: "Pooling"
  bottom: "norm2"
  top: "pool2"
  pooling_param {
    pool: MAX
    kernel_size: 3
    stride: 2
  }
}
layer {
  name: "conv3"
  type: "Convolution"
  bottom: "pool2"
  top: "conv3"
  param {
    lr_mult: 1
    decay_mult: 1
  }
  param {
    lr_mult: 2
    decay_mult: 0
  }
  convolution_param {
    num_output: 384
    pad: 1
    kernel_size: 3
    weight_filler {
      type: "gaussian"
      std: 0.01
    }
    bias_filler {
      type: "constant"
      value: 0
    }
  }
}
layer {
  name: "relu3"
  type: "ReLU"
  bottom: "conv3"
  top: "conv3"
}
layer {
  name: "conv4"
  type: "Convolution"
  bottom: "conv3"
  top: "conv4"
  param {
    lr_mult: 1
    decay_mult: 1
  }
  param {
    lr_mult: 2
    decay_mult: 0
  }
  convolution_param {
    num_output: 384
    pad: 1
    kernel_size: 3
    group: 2
    weight_filler {
      type: "gaussian"
      std: 0.01
    }
    bias_filler {
      type: "constant"
      value: 0.1
    }
  }
}
layer {
  name: "relu4"
  type: "ReLU"
  bottom: "conv4"
  top: "conv4"
}
layer {
  name: "conv5"
  type: "Convolution"
  bottom: "conv4"
  top: "conv5"
  param {
    lr_mult: 1
    decay_mult: 1
  }
  param {
    lr_mult: 2
    decay_mult: 0
  }
  convolution_param {
    num_output: 256
    pad: 1
    kernel_size: 3
    group: 2
    weight_filler {
      type: "gaussian"
      std: 0.01
    }
    bias_filler {
      type: "constant"
      value: 0.1
    }
  }
}
layer {
  name: "relu5"
  type: "ReLU"
  bottom: "conv5"
  top: "conv5"
}
layer {
  name: "pool5"
  type: "Pooling"
  bottom: "conv5"
  top: "pool5"
  pooling_param {
    pool: MAX
    kernel_size: 3
    stride: 2
  }
}
layer {
  name: "fc6"
  type: "InnerProduct"
  bottom: "pool5"
  top: "fc6"
  param {
    lr_mult: 1
    decay_mult: 1
  }
  param {
    lr_mult: 2
    decay_mult: 0
  }
  inner_product_param {
    num_output: 4096
    weight_filler {
      type: "gaussian"
      std: 0.005
    }
    bias_filler {
      type: "constant"
      value: 0.1
    }
  }
}
layer {
  name: "relu6"
  type: "ReLU"
  bottom: "fc6"
  top: "fc6"
}
layer {
  name: "drop6"
  type: "Dropout"
  bottom: "fc6"
  top: "fc6"
  dropout_param {
    dropout_ratio: 0.5
  }
}
layer {
  name: "fc7"
  type: "InnerProduct"
  bottom: "fc6"
  top: "fc7"
  param {
    lr_mult: 1
    decay_mult: 1
  }
  param {
    lr_mult: 2
    decay_mult: 0
  }
  inner_product_param {
    num_output: 4096
    weight_filler {
      type: "gaussian"
      std: 0.005
    }
    bias_filler {
      type: "constant"
      value: 0.1
    }
  }
}
layer {
  name: "relu7"
  type: "ReLU"
  bottom: "fc7"
  top: "fc7"
}
layer {
  name: "drop7"
  type: "Dropout"
  bottom: "fc7"
  top: "fc7"
  dropout_param {
    dropout_ratio: 0.5
  }
}
layer {
  name: "fc8_plantvillage"
  type: "InnerProduct"
  bottom: "fc7"
  top: "fc8_plantvillage"
  param {
    lr_mult: 1
    decay_mult: 1
  }
  param {
    lr_mult: 2
    decay_mult: 0
  }
  inner_product_param {
    num_output: 38
    weight_filler {
      type: "gaussian"
      std: 0.01
    }
    bias_filler {
      type: "constant"
      value: 0
    }
  }
}
layer {
  name: "loss"
  type: "SoftmaxWithLoss"
  bottom: "fc8_plantvillage"
  bottom: "label"
  top: "loss"
}
I0403 02:30:37.114863 16973 layer_factory.hpp:77] Creating layer data
I0403 02:30:37.115787 16973 net.cpp:91] Creating Layer data
I0403 02:30:37.115855 16973 net.cpp:399] data -> data
I0403 02:30:37.116024 16973 net.cpp:399] data -> label
I0403 02:30:37.116142 16973 data_transformer.cpp:25] Loading mean file from: /home/mohanty/data/final_dataset/lmdb/segmented-60-40/mean.binaryproto
I0403 02:30:37.140338 16977 db_lmdb.cpp:38] Opened lmdb /home/mohanty/data/final_dataset/lmdb/segmented-60-40/train_db
I0403 02:30:37.168359 16973 data_layer.cpp:41] output data size: 100,3,227,227
I0403 02:30:37.312155 16973 net.cpp:141] Setting up data
I0403 02:30:37.312278 16973 net.cpp:148] Top shape: 100 3 227 227 (15458700)
I0403 02:30:37.312304 16973 net.cpp:148] Top shape: 100 (100)
I0403 02:30:37.312324 16973 net.cpp:156] Memory required for data: 61835200
I0403 02:30:37.312361 16973 layer_factory.hpp:77] Creating layer conv1
I0403 02:30:37.312417 16973 net.cpp:91] Creating Layer conv1
I0403 02:30:37.312444 16973 net.cpp:425] conv1 <- data
I0403 02:30:37.312484 16973 net.cpp:399] conv1 -> conv1
I0403 02:30:37.321696 16973 net.cpp:141] Setting up conv1
I0403 02:30:37.321739 16973 net.cpp:148] Top shape: 100 96 55 55 (29040000)
I0403 02:30:37.321760 16973 net.cpp:156] Memory required for data: 177995200
I0403 02:30:37.321863 16973 layer_factory.hpp:77] Creating layer relu1
I0403 02:30:37.321998 16973 net.cpp:91] Creating Layer relu1
I0403 02:30:37.322031 16973 net.cpp:425] relu1 <- conv1
I0403 02:30:37.322057 16973 net.cpp:386] relu1 -> conv1 (in-place)
I0403 02:30:37.322103 16973 net.cpp:141] Setting up relu1
I0403 02:30:37.322129 16973 net.cpp:148] Top shape: 100 96 55 55 (29040000)
I0403 02:30:37.322147 16973 net.cpp:156] Memory required for data: 294155200
I0403 02:30:37.322165 16973 layer_factory.hpp:77] Creating layer norm1
I0403 02:30:37.322190 16973 net.cpp:91] Creating Layer norm1
I0403 02:30:37.322255 16973 net.cpp:425] norm1 <- conv1
I0403 02:30:37.322278 16973 net.cpp:399] norm1 -> norm1
I0403 02:30:37.322381 16973 net.cpp:141] Setting up norm1
I0403 02:30:37.322410 16973 net.cpp:148] Top shape: 100 96 55 55 (29040000)
I0403 02:30:37.322428 16973 net.cpp:156] Memory required for data: 410315200
I0403 02:30:37.322446 16973 layer_factory.hpp:77] Creating layer pool1
I0403 02:30:37.322471 16973 net.cpp:91] Creating Layer pool1
I0403 02:30:37.322490 16973 net.cpp:425] pool1 <- norm1
I0403 02:30:37.322520 16973 net.cpp:399] pool1 -> pool1
I0403 02:30:37.322607 16973 net.cpp:141] Setting up pool1
I0403 02:30:37.322638 16973 net.cpp:148] Top shape: 100 96 27 27 (6998400)
I0403 02:30:37.322656 16973 net.cpp:156] Memory required for data: 438308800
I0403 02:30:37.322674 16973 layer_factory.hpp:77] Creating layer conv2
I0403 02:30:37.322702 16973 net.cpp:91] Creating Layer conv2
I0403 02:30:37.322721 16973 net.cpp:425] conv2 <- pool1
I0403 02:30:37.322746 16973 net.cpp:399] conv2 -> conv2
I0403 02:30:37.322762 16981 blocking_queue.cpp:50] Waiting for data
I0403 02:30:37.342988 16973 net.cpp:141] Setting up conv2
I0403 02:30:37.343027 16973 net.cpp:148] Top shape: 100 256 27 27 (18662400)
I0403 02:30:37.343047 16973 net.cpp:156] Memory required for data: 512958400
I0403 02:30:37.343075 16973 layer_factory.hpp:77] Creating layer relu2
I0403 02:30:37.343098 16973 net.cpp:91] Creating Layer relu2
I0403 02:30:37.343119 16973 net.cpp:425] relu2 <- conv2
I0403 02:30:37.343142 16973 net.cpp:386] relu2 -> conv2 (in-place)
I0403 02:30:37.343168 16973 net.cpp:141] Setting up relu2
I0403 02:30:37.343190 16973 net.cpp:148] Top shape: 100 256 27 27 (18662400)
I0403 02:30:37.343209 16973 net.cpp:156] Memory required for data: 587608000
I0403 02:30:37.343228 16973 layer_factory.hpp:77] Creating layer norm2
I0403 02:30:37.343251 16973 net.cpp:91] Creating Layer norm2
I0403 02:30:37.343271 16973 net.cpp:425] norm2 <- conv2
I0403 02:30:37.343293 16973 net.cpp:399] norm2 -> norm2
I0403 02:30:37.343358 16973 net.cpp:141] Setting up norm2
I0403 02:30:37.343385 16973 net.cpp:148] Top shape: 100 256 27 27 (18662400)
I0403 02:30:37.343405 16973 net.cpp:156] Memory required for data: 662257600
I0403 02:30:37.343423 16973 layer_factory.hpp:77] Creating layer pool2
I0403 02:30:37.343448 16973 net.cpp:91] Creating Layer pool2
I0403 02:30:37.343468 16973 net.cpp:425] pool2 <- norm2
I0403 02:30:37.343492 16973 net.cpp:399] pool2 -> pool2
I0403 02:30:37.343575 16973 net.cpp:141] Setting up pool2
I0403 02:30:37.343605 16973 net.cpp:148] Top shape: 100 256 13 13 (4326400)
I0403 02:30:37.343623 16973 net.cpp:156] Memory required for data: 679563200
I0403 02:30:37.343641 16973 layer_factory.hpp:77] Creating layer conv3
I0403 02:30:37.343669 16973 net.cpp:91] Creating Layer conv3
I0403 02:30:37.343690 16973 net.cpp:425] conv3 <- pool2
I0403 02:30:37.343715 16973 net.cpp:399] conv3 -> conv3
I0403 02:30:37.385625 16973 net.cpp:141] Setting up conv3
I0403 02:30:37.385666 16973 net.cpp:148] Top shape: 100 384 13 13 (6489600)
I0403 02:30:37.385686 16973 net.cpp:156] Memory required for data: 705521600
I0403 02:30:37.385713 16973 layer_factory.hpp:77] Creating layer relu3
I0403 02:30:37.385740 16973 net.cpp:91] Creating Layer relu3
I0403 02:30:37.385759 16973 net.cpp:425] relu3 <- conv3
I0403 02:30:37.385781 16973 net.cpp:386] relu3 -> conv3 (in-place)
I0403 02:30:37.385805 16973 net.cpp:141] Setting up relu3
I0403 02:30:37.385828 16973 net.cpp:148] Top shape: 100 384 13 13 (6489600)
I0403 02:30:37.385846 16973 net.cpp:156] Memory required for data: 731480000
I0403 02:30:37.385864 16973 layer_factory.hpp:77] Creating layer conv4
I0403 02:30:37.385892 16973 net.cpp:91] Creating Layer conv4
I0403 02:30:37.385912 16973 net.cpp:425] conv4 <- conv3
I0403 02:30:37.385936 16973 net.cpp:399] conv4 -> conv4
I0403 02:30:37.417551 16973 net.cpp:141] Setting up conv4
I0403 02:30:37.417593 16973 net.cpp:148] Top shape: 100 384 13 13 (6489600)
I0403 02:30:37.417613 16973 net.cpp:156] Memory required for data: 757438400
I0403 02:30:37.417657 16973 layer_factory.hpp:77] Creating layer relu4
I0403 02:30:37.417683 16973 net.cpp:91] Creating Layer relu4
I0403 02:30:37.417703 16973 net.cpp:425] relu4 <- conv4
I0403 02:30:37.417726 16973 net.cpp:386] relu4 -> conv4 (in-place)
I0403 02:30:37.417752 16973 net.cpp:141] Setting up relu4
I0403 02:30:37.417775 16973 net.cpp:148] Top shape: 100 384 13 13 (6489600)
I0403 02:30:37.417793 16973 net.cpp:156] Memory required for data: 783396800
I0403 02:30:37.417811 16973 layer_factory.hpp:77] Creating layer conv5
I0403 02:30:37.417842 16973 net.cpp:91] Creating Layer conv5
I0403 02:30:37.417865 16973 net.cpp:425] conv5 <- conv4
I0403 02:30:37.417891 16973 net.cpp:399] conv5 -> conv5
I0403 02:30:37.438982 16973 net.cpp:141] Setting up conv5
I0403 02:30:37.439020 16973 net.cpp:148] Top shape: 100 256 13 13 (4326400)
I0403 02:30:37.439040 16973 net.cpp:156] Memory required for data: 800702400
I0403 02:30:37.439067 16973 layer_factory.hpp:77] Creating layer relu5
I0403 02:30:37.439092 16973 net.cpp:91] Creating Layer relu5
I0403 02:30:37.439113 16973 net.cpp:425] relu5 <- conv5
I0403 02:30:37.439136 16973 net.cpp:386] relu5 -> conv5 (in-place)
I0403 02:30:37.439159 16973 net.cpp:141] Setting up relu5
I0403 02:30:37.439180 16973 net.cpp:148] Top shape: 100 256 13 13 (4326400)
I0403 02:30:37.439199 16973 net.cpp:156] Memory required for data: 818008000
I0403 02:30:37.439218 16973 layer_factory.hpp:77] Creating layer pool5
I0403 02:30:37.439240 16973 net.cpp:91] Creating Layer pool5
I0403 02:30:37.439260 16973 net.cpp:425] pool5 <- conv5
I0403 02:30:37.439285 16973 net.cpp:399] pool5 -> pool5
I0403 02:30:37.439344 16973 net.cpp:141] Setting up pool5
I0403 02:30:37.439373 16973 net.cpp:148] Top shape: 100 256 6 6 (921600)
I0403 02:30:37.439393 16973 net.cpp:156] Memory required for data: 821694400
I0403 02:30:37.439411 16973 layer_factory.hpp:77] Creating layer fc6
I0403 02:30:37.439467 16973 net.cpp:91] Creating Layer fc6
I0403 02:30:37.439492 16973 net.cpp:425] fc6 <- pool5
I0403 02:30:37.439527 16973 net.cpp:399] fc6 -> fc6
I0403 02:30:38.986739 16973 net.cpp:141] Setting up fc6
I0403 02:30:38.986836 16973 net.cpp:148] Top shape: 100 4096 (409600)
I0403 02:30:38.986852 16973 net.cpp:156] Memory required for data: 823332800
I0403 02:30:38.986874 16973 layer_factory.hpp:77] Creating layer relu6
I0403 02:30:38.986901 16973 net.cpp:91] Creating Layer relu6
I0403 02:30:38.986918 16973 net.cpp:425] relu6 <- fc6
I0403 02:30:38.986937 16973 net.cpp:386] relu6 -> fc6 (in-place)
I0403 02:30:38.986958 16973 net.cpp:141] Setting up relu6
I0403 02:30:38.986975 16973 net.cpp:148] Top shape: 100 4096 (409600)
I0403 02:30:38.986989 16973 net.cpp:156] Memory required for data: 824971200
I0403 02:30:38.987002 16973 layer_factory.hpp:77] Creating layer drop6
I0403 02:30:38.987057 16973 net.cpp:91] Creating Layer drop6
I0403 02:30:38.987076 16973 net.cpp:425] drop6 <- fc6
I0403 02:30:38.987092 16973 net.cpp:386] drop6 -> fc6 (in-place)
I0403 02:30:38.987149 16973 net.cpp:141] Setting up drop6
I0403 02:30:38.987174 16973 net.cpp:148] Top shape: 100 4096 (409600)
I0403 02:30:38.987187 16973 net.cpp:156] Memory required for data: 826609600
I0403 02:30:38.987202 16973 layer_factory.hpp:77] Creating layer fc7
I0403 02:30:38.987222 16973 net.cpp:91] Creating Layer fc7
I0403 02:30:38.987237 16973 net.cpp:425] fc7 <- fc6
I0403 02:30:38.987254 16973 net.cpp:399] fc7 -> fc7
I0403 02:30:39.609979 16973 net.cpp:141] Setting up fc7
I0403 02:30:39.610074 16973 net.cpp:148] Top shape: 100 4096 (409600)
I0403 02:30:39.610090 16973 net.cpp:156] Memory required for data: 828248000
I0403 02:30:39.610112 16973 layer_factory.hpp:77] Creating layer relu7
I0403 02:30:39.610136 16973 net.cpp:91] Creating Layer relu7
I0403 02:30:39.610153 16973 net.cpp:425] relu7 <- fc7
I0403 02:30:39.610172 16973 net.cpp:386] relu7 -> fc7 (in-place)
I0403 02:30:39.610194 16973 net.cpp:141] Setting up relu7
I0403 02:30:39.610211 16973 net.cpp:148] Top shape: 100 4096 (409600)
I0403 02:30:39.610225 16973 net.cpp:156] Memory required for data: 829886400
I0403 02:30:39.610240 16973 layer_factory.hpp:77] Creating layer drop7
I0403 02:30:39.610304 16973 net.cpp:91] Creating Layer drop7
I0403 02:30:39.610321 16973 net.cpp:425] drop7 <- fc7
I0403 02:30:39.610338 16973 net.cpp:386] drop7 -> fc7 (in-place)
I0403 02:30:39.610379 16973 net.cpp:141] Setting up drop7
I0403 02:30:39.610400 16973 net.cpp:148] Top shape: 100 4096 (409600)
I0403 02:30:39.610415 16973 net.cpp:156] Memory required for data: 831524800
I0403 02:30:39.610430 16973 layer_factory.hpp:77] Creating layer fc8_plantvillage
I0403 02:30:39.610450 16973 net.cpp:91] Creating Layer fc8_plantvillage
I0403 02:30:39.610466 16973 net.cpp:425] fc8_plantvillage <- fc7
I0403 02:30:39.610486 16973 net.cpp:399] fc8_plantvillage -> fc8_plantvillage
I0403 02:30:39.616838 16973 net.cpp:141] Setting up fc8_plantvillage
I0403 02:30:39.616869 16973 net.cpp:148] Top shape: 100 38 (3800)
I0403 02:30:39.616886 16973 net.cpp:156] Memory required for data: 831540000
I0403 02:30:39.616904 16973 layer_factory.hpp:77] Creating layer loss
I0403 02:30:39.616952 16973 net.cpp:91] Creating Layer loss
I0403 02:30:39.616971 16973 net.cpp:425] loss <- fc8_plantvillage
I0403 02:30:39.616987 16973 net.cpp:425] loss <- label
I0403 02:30:39.617008 16973 net.cpp:399] loss -> loss
I0403 02:30:39.617044 16973 layer_factory.hpp:77] Creating layer loss
…
I0403 02:30:39.618854 16973 net.cpp:313] The NetState phase (1) differed from the phase (0) specified by a rule in layer data
I0403 02:30:39.619511 16973 net.cpp:49] Initializing net from parameters: 
state {
  phase: TEST
}
layer {
  name: "data"
  type: "Data"
  top: "data"
  top: "label"
  include {
    phase: TEST
  }
  transform_param {
    crop_size: 227
    mean_file: "/home/mohanty/data/final_dataset/lmdb/segmented-60-40/mean.binaryproto"
  }
  data_param {
    source: "/home/mohanty/data/final_dataset/lmdb/segmented-60-40/test_db"
    batch_size: 100
    backend: LMDB
  }
}
layer {
  name: "conv1"
  type: "Convolution"
  bottom: "data"
  top: "conv1"
  param {
    lr_mult: 1
    decay_mult: 1
  }
  param {
    lr_mult: 2
    decay_mult: 0
  }
  convolution_param {
    num_output: 96
    kernel_size: 11
    stride: 4
    weight_filler {
      type: "gaussian"
      std: 0.01
    }
    bias_filler {
      type: "constant"
      value: 0
    }
  }
}
layer {
  name: "relu1"
  type: "ReLU"
  bottom: "conv1"
  top: "conv1"
}
layer {
  name: "norm1"
  type: "LRN"
  bottom: "conv1"
  top: "norm1"
  lrn_param {
    local_size: 5
    alpha: 0.0001
    beta: 0.75
  }
}
layer {
  name: "pool1"
  type: "Pooling"
  bottom: "norm1"
  top: "pool1"
  pooling_param {
    pool: MAX
    kernel_size: 3
    stride: 2
  }
}
layer {
  name: "conv2"
  type: "Convolution"
  bottom: "pool1"
  top: "conv2"
  param {
    lr_mult: 1
    decay_mult: 1
  }
  param {
    lr_mult: 2
    decay_mult: 0
  }
  convolution_param {
    num_output: 256
    pad: 2
    kernel_size: 5
    group: 2
    weight_filler {
      type: "gaussian"
      std: 0.01
    }
    bias_filler {
      type: "constant"
      value: 0.1
    }
  }
}
layer {
  name: "relu2"
  type: "ReLU"
  bottom: "conv2"
  top: "conv2"
}
layer {
  name: "norm2"
  type: "LRN"
  bottom: "conv2"
  top: "norm2"
  lrn_param {
    local_size: 5
    alpha: 0.0001
    beta: 0.75
  }
}
layer {
  name: "pool2"
  type: "Pooling"
  bottom: "norm2"
  top: "pool2"
  pooling_param {
    pool: MAX
    kernel_size: 3
    stride: 2
  }
}
layer {
  name: "conv3"
  type: "Convolution"
  bottom: "pool2"
  top: "conv3"
  param {
    lr_mult: 1
    decay_mult: 1
  }
  param {
    lr_mult: 2
    decay_mult: 0
  }
  convolution_param {
    num_output: 384
    pad: 1
    kernel_size: 3
    weight_filler {
      type: "gaussian"
      std: 0.01
    }
    bias_filler {
      type: "constant"
      value: 0
    }
  }
}
layer {
  name: "relu3"
  type: "ReLU"
  bottom: "conv3"
  top: "conv3"
}
layer {
  name: "conv4"
  type: "Convolution"
  bottom: "conv3"
  top: "conv4"
  param {
    lr_mult: 1
    decay_mult: 1
  }
  param {
    lr_mult: 2
    decay_mult: 0
  }
  convolution_param {
    num_output: 384
    pad: 1
    kernel_size: 3
    group: 2
    weight_filler {
      type: "gaussian"
      std: 0.01
    }
    bias_filler {
      type: "constant"
      value: 0.1
    }
  }
}
layer {
  name: "relu4"
  type: "ReLU"
  bottom: "conv4"
  top: "conv4"
}
layer {
  name: "conv5"
  type: "Convolution"
  bottom: "conv4"
  top: "conv5"
  param {
    lr_mult: 1
    decay_mult: 1
  }
  param {
    lr_mult: 2
    decay_mult: 0
  }
  convolution_param {
    num_output: 256
    pad: 1
    kernel_size: 3
    group: 2
    weight_filler {
      type: "gaussian"
      std: 0.01
    }
    bias_filler {
      type: "constant"
      value: 0.1
    }
  }
}
layer {
  name: "relu5"
  type: "ReLU"
  bottom: "conv5"
  top: "conv5"
}
layer {
  name: "pool5"
  type: "Pooling"
  bottom: "conv5"
  top: "pool5"
  pooling_param {
    pool: MAX
    kernel_size: 3
    stride: 2
  }
}
layer {
  name: "fc6"
  type: "InnerProduct"
  bottom: "pool5"
  top: "fc6"
  param {
    lr_mult: 1
    decay_mult: 1
  }
  param {
    lr_mult: 2
    decay_mult: 0
  }
  inner_product_param {
    num_output: 4096
    weight_filler {
      type: "gaussian"
      std: 0.005
    }
    bias_filler {
      type: "constant"
      value: 0.1
    }
  }
}
layer {
  name: "relu6"
  type: "ReLU"
  bottom: "fc6"
  top: "fc6"
}
layer {
  name: "drop6"
  type: "Dropout"
  bottom: "fc6"
  top: "fc6"
  dropout_param {
    dropout_ratio: 0.5
  }
}
layer {
  name: "fc7"
  type: "InnerProduct"
  bottom: "fc6"
  top: "fc7"
  param {
    lr_mult: 1
    decay_mult: 1
  }
  param {
    lr_mult: 2
    decay_mult: 0
  }
  inner_product_param {
    num_output: 4096
    weight_filler {
      type: "gaussian"
      std: 0.005
    }
    bias_filler {
      type: "constant"
      value: 0.1
    }
  }
}
layer {
  name: "relu7"
  type: "ReLU"
  bottom: "fc7"
  top: "fc7"
}
layer {
  name: "drop7"
  type: "Dropout"
  bottom: "fc7"
  top: "fc7"
  dropout_param {
    dropout_ratio: 0.5
  }
}
layer {
  name: "fc8_plantvillage"
  type: "InnerProduct"
  bottom: "fc7"
  top: "fc8_plantvillage"
  param {
    lr_mult: 1
    decay_mult: 1
  }
  param {
    lr_mult: 2
    decay_mult: 0
  }
  inner_product_param {
    num_output: 38
    weight_filler {
      type: "gaussian"
      std: 0.01
    }
    bias_filler {
      type: "constant"
      value: 0
    }
  }
}
layer {
  name: "loss"
  type: "SoftmaxWithLoss"
  bottom: "fc8_plantvillage"
  bottom: "label"
  top: "loss"
}
layer {
  name: "accuracy"
  type: "Accuracy"
  bottom: "fc8_plantvillage"
  bottom: "label"
  top: "accuracy"
  include {
    phase: TEST
  }
}
I0403 02:30:39.619699 16973 layer_factory.hpp:77] Creating layer data
I0403 02:30:39.620234 16973 net.cpp:91] Creating Layer data
I0403 02:30:39.620263 16973 net.cpp:399] data -> data
I0403 02:30:39.620288 16973 net.cpp:399] data -> label
I0403 02:30:39.620312 16973 data_transformer.cpp:25] Loading mean file from: /home/mohanty/data/final_dataset/lmdb/segmented-60-40/mean.binaryproto
I0403 02:30:39.632773 16983 db_lmdb.cpp:38] Opened lmdb /home/mohanty/data/final_dataset/lmdb/segmented-60-40/test_db
I0403 02:30:39.634014 16973 data_layer.cpp:41] output data size: 100,3,227,227
I0403 02:30:39.778223 16973 net.cpp:141] Setting up data
I0403 02:30:39.778314 16973 net.cpp:148] Top shape: 100 3 227 227 (15458700)
I0403 02:30:39.778334 16973 net.cpp:148] Top shape: 100 (100)
I0403 02:30:39.778350 16973 net.cpp:156] Memory required for data: 61835200
I0403 02:30:39.778369 16973 layer_factory.hpp:77] Creating layer label_data_1_split
I0403 02:30:39.778399 16973 net.cpp:91] Creating Layer label_data_1_split
I0403 02:30:39.778419 16973 net.cpp:425] label_data_1_split <- label
I0403 02:30:39.778439 16973 net.cpp:399] label_data_1_split -> label_data_1_split_0
I0403 02:30:39.778465 16973 net.cpp:399] label_data_1_split -> label_data_1_split_1
I0403 02:30:39.778528 16973 net.cpp:141] Setting up label_data_1_split
I0403 02:30:39.778551 16973 net.cpp:148] Top shape: 100 (100)
I0403 02:30:39.778568 16973 net.cpp:148] Top shape: 100 (100)
I0403 02:30:39.778584 16973 net.cpp:156] Memory required for data: 61836000
I0403 02:30:39.778599 16973 layer_factory.hpp:77] Creating layer conv1
I0403 02:30:39.778626 16973 net.cpp:91] Creating Layer conv1
I0403 02:30:39.778643 16973 net.cpp:425] conv1 <- data
I0403 02:30:39.778663 16973 net.cpp:399] conv1 -> conv1
I0403 02:30:39.786273 16973 net.cpp:141] Setting up conv1
I0403 02:30:39.786309 16973 net.cpp:148] Top shape: 100 96 55 55 (29040000)
I0403 02:30:39.786325 16973 net.cpp:156] Memory required for data: 177996000
I0403 02:30:39.786350 16973 layer_factory.hpp:77] Creating layer relu1
I0403 02:30:39.786371 16973 net.cpp:91] Creating Layer relu1
I0403 02:30:39.786387 16973 net.cpp:425] relu1 <- conv1
I0403 02:30:39.786406 16973 net.cpp:386] relu1 -> conv1 (in-place)
I0403 02:30:39.786425 16973 net.cpp:141] Setting up relu1
I0403 02:30:39.786443 16973 net.cpp:148] Top shape: 100 96 55 55 (29040000)
I0403 02:30:39.786458 16973 net.cpp:156] Memory required for data: 294156000
I0403 02:30:39.786473 16973 layer_factory.hpp:77] Creating layer norm1
I0403 02:30:39.786492 16973 net.cpp:91] Creating Layer norm1
I0403 02:30:39.786525 16973 net.cpp:425] norm1 <- conv1
I0403 02:30:39.786547 16973 net.cpp:399] norm1 -> norm1
I0403 02:30:39.786598 16973 net.cpp:141] Setting up norm1
I0403 02:30:39.786620 16973 net.cpp:148] Top shape: 100 96 55 55 (29040000)
I0403 02:30:39.786635 16973 net.cpp:156] Memory required for data: 410316000
I0403 02:30:39.786650 16973 layer_factory.hpp:77] Creating layer pool1
I0403 02:30:39.786669 16973 net.cpp:91] Creating Layer pool1
I0403 02:30:39.786684 16973 net.cpp:425] pool1 <- norm1
I0403 02:30:39.786702 16973 net.cpp:399] pool1 -> pool1
I0403 02:30:39.786751 16973 net.cpp:141] Setting up pool1
I0403 02:30:39.786772 16973 net.cpp:148] Top shape: 100 96 27 27 (6998400)
I0403 02:30:39.786787 16973 net.cpp:156] Memory required for data: 438309600
I0403 02:30:39.786830 16973 layer_factory.hpp:77] Creating layer conv2
I0403 02:30:39.786854 16973 net.cpp:91] Creating Layer conv2
I0403 02:30:39.786870 16973 net.cpp:425] conv2 <- pool1
I0403 02:30:39.786890 16973 net.cpp:399] conv2 -> conv2
I0403 02:30:39.799181 16973 net.cpp:141] Setting up conv2
I0403 02:30:39.799213 16973 net.cpp:148] Top shape: 100 256 27 27 (18662400)
I0403 02:30:39.799229 16973 net.cpp:156] Memory required for data: 512959200
I0403 02:30:39.799252 16973 layer_factory.hpp:77] Creating layer relu2
I0403 02:30:39.799273 16973 net.cpp:91] Creating Layer relu2
I0403 02:30:39.799288 16973 net.cpp:425] relu2 <- conv2
I0403 02:30:39.799307 16973 net.cpp:386] relu2 -> conv2 (in-place)
I0403 02:30:39.799327 16973 net.cpp:141] Setting up relu2
I0403 02:30:39.799345 16973 net.cpp:148] Top shape: 100 256 27 27 (18662400)
I0403 02:30:39.799360 16973 net.cpp:156] Memory required for data: 587608800
I0403 02:30:39.799374 16973 layer_factory.hpp:77] Creating layer norm2
I0403 02:30:39.799393 16973 net.cpp:91] Creating Layer norm2
I0403 02:30:39.799410 16973 net.cpp:425] norm2 <- conv2
I0403 02:30:39.799428 16973 net.cpp:399] norm2 -> norm2
I0403 02:30:39.799477 16973 net.cpp:141] Setting up norm2
I0403 02:30:39.799500 16973 net.cpp:148] Top shape: 100 256 27 27 (18662400)
I0403 02:30:39.799520 16973 net.cpp:156] Memory required for data: 662258400
I0403 02:30:39.799535 16973 layer_factory.hpp:77] Creating layer pool2
I0403 02:30:39.799554 16973 net.cpp:91] Creating Layer pool2
I0403 02:30:39.799571 16973 net.cpp:425] pool2 <- norm2
I0403 02:30:39.799587 16973 net.cpp:399] pool2 -> pool2
I0403 02:30:39.799635 16973 net.cpp:141] Setting up pool2
I0403 02:30:39.799656 16973 net.cpp:148] Top shape: 100 256 13 13 (4326400)
I0403 02:30:39.799671 16973 net.cpp:156] Memory required for data: 679564000
I0403 02:30:39.799686 16973 layer_factory.hpp:77] Creating layer conv3
I0403 02:30:39.799708 16973 net.cpp:91] Creating Layer conv3
I0403 02:30:39.799726 16973 net.cpp:425] conv3 <- pool2
I0403 02:30:39.799744 16973 net.cpp:399] conv3 -> conv3
I0403 02:30:39.836599 16973 net.cpp:141] Setting up conv3
I0403 02:30:39.836695 16973 net.cpp:148] Top shape: 100 384 13 13 (6489600)
I0403 02:30:39.836742 16973 net.cpp:156] Memory required for data: 705522400
I0403 02:30:39.836793 16973 layer_factory.hpp:77] Creating layer relu3
I0403 02:30:39.836820 16973 net.cpp:91] Creating Layer relu3
I0403 02:30:39.836860 16973 net.cpp:425] relu3 <- conv3
I0403 02:30:39.836902 16973 net.cpp:386] relu3 -> conv3 (in-place)
I0403 02:30:39.836952 16973 net.cpp:141] Setting up relu3
I0403 02:30:39.836973 16973 net.cpp:148] Top shape: 100 384 13 13 (6489600)
I0403 02:30:39.837003 16973 net.cpp:156] Memory required for data: 731480800
I0403 02:30:39.837039 16973 layer_factory.hpp:77] Creating layer conv4
I0403 02:30:39.837087 16973 net.cpp:91] Creating Layer conv4
I0403 02:30:39.837105 16973 net.cpp:425] conv4 <- conv3
I0403 02:30:39.837151 16973 net.cpp:399] conv4 -> conv4
I0403 02:30:39.864428 16973 net.cpp:141] Setting up conv4
I0403 02:30:39.898466 16973 net.cpp:148] Top shape: 100 384 13 13 (6489600)
I0403 02:30:39.899866 16973 net.cpp:156] Memory required for data: 757439200
I0403 02:30:39.899919 16973 layer_factory.hpp:77] Creating layer relu4
I0403 02:30:39.899963 16973 net.cpp:91] Creating Layer relu4
I0403 02:30:39.899998 16973 net.cpp:425] relu4 <- conv4
I0403 02:30:39.900037 16973 net.cpp:386] relu4 -> conv4 (in-place)
I0403 02:30:39.900080 16973 net.cpp:141] Setting up relu4
I0403 02:30:39.900120 16973 net.cpp:148] Top shape: 100 384 13 13 (6489600)
I0403 02:30:39.900158 16973 net.cpp:156] Memory required for data: 783397600
I0403 02:30:39.900313 16973 layer_factory.hpp:77] Creating layer conv5
I0403 02:30:39.900373 16973 net.cpp:91] Creating Layer conv5
I0403 02:30:39.900418 16973 net.cpp:425] conv5 <- conv4
I0403 02:30:39.900480 16973 net.cpp:399] conv5 -> conv5
I0403 02:30:39.919878 16973 net.cpp:141] Setting up conv5
I0403 02:30:39.937568 16973 net.cpp:148] Top shape: 100 256 13 13 (4326400)
I0403 02:30:39.937623 16973 net.cpp:156] Memory required for data: 800703200
I0403 02:30:39.937702 16973 layer_factory.hpp:77] Creating layer relu5
I0403 02:30:39.937760 16973 net.cpp:91] Creating Layer relu5
I0403 02:30:39.937780 16973 net.cpp:425] relu5 <- conv5
I0403 02:30:39.937800 16973 net.cpp:386] relu5 -> conv5 (in-place)
I0403 02:30:39.937824 16973 net.cpp:141] Setting up relu5
I0403 02:30:39.937842 16973 net.cpp:148] Top shape: 100 256 13 13 (4326400)
I0403 02:30:39.937857 16973 net.cpp:156] Memory required for data: 818008800
I0403 02:30:39.937872 16973 layer_factory.hpp:77] Creating layer pool5
I0403 02:30:39.937932 16973 net.cpp:91] Creating Layer pool5
I0403 02:30:39.937953 16973 net.cpp:425] pool5 <- conv5
I0403 02:30:39.938129 16973 net.cpp:399] pool5 -> pool5
I0403 02:30:39.938206 16973 net.cpp:141] Setting up pool5
I0403 02:30:39.938235 16973 net.cpp:148] Top shape: 100 256 6 6 (921600)
I0403 02:30:39.938283 16973 net.cpp:156] Memory required for data: 821695200
I0403 02:30:39.938300 16973 layer_factory.hpp:77] Creating layer fc6
I0403 02:30:39.938323 16973 net.cpp:91] Creating Layer fc6
I0403 02:30:39.938339 16973 net.cpp:425] fc6 <- pool5
I0403 02:30:39.938472 16973 net.cpp:399] fc6 -> fc6
I0403 02:30:41.347600 16973 net.cpp:141] Setting up fc6
I0403 02:30:41.347699 16973 net.cpp:148] Top shape: 100 4096 (409600)
I0403 02:30:41.347717 16973 net.cpp:156] Memory required for data: 823333600
I0403 02:30:41.347739 16973 layer_factory.hpp:77] Creating layer relu6
I0403 02:30:41.347766 16973 net.cpp:91] Creating Layer relu6
I0403 02:30:41.347784 16973 net.cpp:425] relu6 <- fc6
I0403 02:30:41.347805 16973 net.cpp:386] relu6 -> fc6 (in-place)
I0403 02:30:41.347826 16973 net.cpp:141] Setting up relu6
I0403 02:30:41.347843 16973 net.cpp:148] Top shape: 100 4096 (409600)
I0403 02:30:41.347856 16973 net.cpp:156] Memory required for data: 824972000
I0403 02:30:41.347870 16973 layer_factory.hpp:77] Creating layer drop6
I0403 02:30:41.347892 16973 net.cpp:91] Creating Layer drop6
I0403 02:30:41.347908 16973 net.cpp:425] drop6 <- fc6
I0403 02:30:41.347924 16973 net.cpp:386] drop6 -> fc6 (in-place)
I0403 02:30:41.347962 16973 net.cpp:141] Setting up drop6
I0403 02:30:41.347985 16973 net.cpp:148] Top shape: 100 4096 (409600)
I0403 02:30:41.348001 16973 net.cpp:156] Memory required for data: 826610400
I0403 02:30:41.348014 16973 layer_factory.hpp:77] Creating layer fc7
I0403 02:30:41.348034 16973 net.cpp:91] Creating Layer fc7
I0403 02:30:41.348050 16973 net.cpp:425] fc7 <- fc6
I0403 02:30:41.348068 16973 net.cpp:399] fc7 -> fc7
I0403 02:30:41.950090 16973 net.cpp:141] Setting up fc7
I0403 02:30:41.950187 16973 net.cpp:148] Top shape: 100 4096 (409600)
I0403 02:30:41.950202 16973 net.cpp:156] Memory required for data: 828248800
I0403 02:30:41.950227 16973 layer_factory.hpp:77] Creating layer relu7
I0403 02:30:41.950251 16973 net.cpp:91] Creating Layer relu7
I0403 02:30:41.950268 16973 net.cpp:425] relu7 <- fc7
I0403 02:30:41.950287 16973 net.cpp:386] relu7 -> fc7 (in-place)
I0403 02:30:41.950309 16973 net.cpp:141] Setting up relu7
I0403 02:30:41.950325 16973 net.cpp:148] Top shape: 100 4096 (409600)
I0403 02:30:41.950338 16973 net.cpp:156] Memory required for data: 829887200
I0403 02:30:41.950353 16973 layer_factory.hpp:77] Creating layer drop7
I0403 02:30:41.950373 16973 net.cpp:91] Creating Layer drop7
I0403 02:30:41.950389 16973 net.cpp:425] drop7 <- fc7
I0403 02:30:41.950407 16973 net.cpp:386] drop7 -> fc7 (in-place)
I0403 02:30:41.950448 16973 net.cpp:141] Setting up drop7
I0403 02:30:41.950469 16973 net.cpp:148] Top shape: 100 4096 (409600)
I0403 02:30:41.950482 16973 net.cpp:156] Memory required for data: 831525600
I0403 02:30:41.950496 16973 layer_factory.hpp:77] Creating layer fc8_plantvillage
I0403 02:30:41.950521 16973 net.cpp:91] Creating Layer fc8_plantvillage
I0403 02:30:41.950537 16973 net.cpp:425] fc8_plantvillage <- fc7
I0403 02:30:41.950558 16973 net.cpp:399] fc8_plantvillage -> fc8_plantvillage
I0403 02:30:41.956550 16973 net.cpp:141] Setting up fc8_plantvillage
I0403 02:30:41.956580 16973 net.cpp:148] Top shape: 100 38 (3800)
I0403 02:30:41.956631 16973 net.cpp:156] Memory required for data: 831540800
I0403 02:30:41.956650 16973 layer_factory.hpp:77] Creating layer fc8_plantvillage_fc8_plantvillage_0_split
I0403 02:30:41.956670 16973 net.cpp:91] Creating Layer fc8_plantvillage_fc8_plantvillage_0_split
I0403 02:30:41.956686 16973 net.cpp:425] fc8_plantvillage_fc8_plantvillage_0_split <- fc8_plantvillage
I0403 02:30:41.956702 16973 net.cpp:399] fc8_plantvillage_fc8_plantvillage_0_split -> fc8_plantvillage_fc8_plantvillage_0_split_0
I0403 02:30:41.956722 16973 net.cpp:399] fc8_plantvillage_fc8_plantvillage_0_split -> fc8_plantvillage_fc8_plantvillage_0_split_1
I0403 02:30:41.956771 16973 net.cpp:141] Setting up fc8_plantvillage_fc8_plantvillage_0_split
I0403 02:30:41.956794 16973 net.cpp:148] Top shape: 100 38 (3800)
I0403 02:30:41.956809 16973 net.cpp:148] Top shape: 100 38 (3800)
I0403 02:30:41.956822 16973 net.cpp:156] Memory required for data: 831571200
I0403 02:30:41.956836 16973 layer_factory.hpp:77] Creating layer loss
I0403 02:30:41.956853 16973 net.cpp:91] Creating Layer loss
I0403 02:30:41.956869 16973 net.cpp:425] loss <- fc8_plantvillage_fc8_plantvillage_0_split_0
I0403 02:30:41.956884 16973 net.cpp:425] loss <- label_data_1_split_0
I0403 02:30:41.956903 16973 net.cpp:399] loss -> loss
…
