…
I0403 04:57:51.560917  2541 net.cpp:313] The NetState phase (0) differed from the phase (1) specified by a rule in layer loss3/top-5
I0403 04:57:51.565938  2541 net.cpp:49] Initializing net from parameters: 
state {
  phase: TRAIN
}
layer {
  name: "data"
  type: "Data"
  top: "data"
  top: "label"
  include {
    phase: TRAIN
  }
  transform_param {
    mirror: true
    crop_size: 224
    mean_file: "/home/mohanty/data/final_dataset/lmdb/color-80-20/mean.binaryproto"
  }
  data_param {
    source: "/home/mohanty/data/final_dataset/lmdb/color-80-20/train_db"
    batch_size: 24
    backend: LMDB
  }
}
layer {
  name: "conv1/7x7_s2"
  type: "Convolution"
  bottom: "data"
  top: "conv1/7x7_s2"
  param {
    lr_mult: 1
    decay_mult: 1
  }
  param {
    lr_mult: 2
    decay_mult: 0
  }
  convolution_param {
    num_output: 64
    pad: 3
    kernel_size: 7
    stride: 2
    weight_filler {
      type: "xavier"
      std: 0.1
    }
    bias_filler {
      type: "constant"
      value: 0.2
    }
  }
}
layer {
  name: "conv1/relu_7x7"
  type: "ReLU"
  bottom: "conv1/7x7_s2"
  top: "conv1/7x7_s2"
}
layer {
  name: "pool1/3x3_s2"
  type: "Pooling"
  bottom: "conv1/7x7_s2"
  top: "pool1/3x3_s2"
  pooling_param {
    pool: MAX
    kernel_size: 3
    stride: 2
  }
}
layer {
  name: "pool1/norm1"
  type: "LRN"
  bottom: "pool1/3x3_s2"
  top: "pool1/norm1"
  lrn_param {
    local_size: 5
    alpha: 0.0001
    beta: 0.75
  }
}
layer {
  name: "conv2/3x3_reduce"
  type: "Convolution"
  bottom: "pool1/norm1"
  top: "conv2/3x3_reduce"
  param {
    lr_mult: 1
    decay_mult: 1
  }
  param {
    lr_mult: 2
    decay_mult: 0
  }
  convolution_param {
    num_output: 64
    kernel_size: 1
    weight_filler {
      type: "xavier"
      std: 0.1
    }
    bias_filler {
      type: "constant"
      value: 0.2
    }
  }
}
layer {
  name: "conv2/relu_3x3_reduce"
  type: "ReLU"
  bottom: "conv2/3x3_reduce"
  top: "conv2/3x3_reduce"
}
layer {
  name: "conv2/3x3"
  type: "Convolution"
  bottom: "conv2/3x3_reduce"
  top: "conv2/3x3"
  param {
    lr_mult: 1
    decay_mult: 1
  }
  param {
    lr_mult: 2
    decay_mult: 0
  }
  convolution_param {
    num_output: 192
    pad: 1
    kernel_size: 3
    weight_filler {
      type: "xavier"
      std: 0.03
    }
    bias_filler {
      type: "constant"
      value: 0.2
    }
  }
}
layer {
  name: "conv2/relu_3x3"
  type: "ReLU"
  bottom: "conv2/3x3"
  top: "conv2/3x3"
}
layer {
  name: "conv2/norm2"
  type: "LRN"
  bottom: "conv2/3x3"
  top: "conv2/norm2"
  lrn_param {
    local_size: 5
    alpha: 0.0001
    beta: 0.75
  }
}
layer {
  name: "pool2/3x3_s2"
  type: "Pooling"
  bottom: "conv2/norm2"
  top: "pool2/3x3_s2"
  pooling_param {
    pool: MAX
    kernel_size: 3
    stride: 2
  }
}
layer {
  name: "inception_3a/1x1"
  type: "Convolution"
  bottom: "pool2/3x3_s2"
  top: "inception_3a/1x1"
  param {
    lr_mult: 1
    decay_mult: 1
  }
  param {
    lr_mult: 2
    decay_mult: 0
  }
  convolution_param {
    num_output: 64
    kernel_size: 1
    weight_filler {
      type: "xavier"
      std: 0.03
    }
    bias_filler {
      type: "constant"
      value: 0.2
    }
  }
}
layer {
  name: "inception_3a/relu_1x1"
  type: "ReLU"
  bottom: "inception_3a/1x1"
  top: "inception_3a/1x1"
}
layer {
  name: "inception_3a/3x3_reduce"
  type: "Convolution"
  bottom: "pool2/3x3_s2"
  top: "inception_3a/3x3_reduce"
  param {
    lr_mult: 1
    decay_mult: 1
  }
  param {
    lr_mult: 2
    decay_mult: 0
  }
  convolution_param {
    num_output: 96
    kernel_size: 1
    weight_filler {
      type: "xavier"
      std: 0.09
    }
    bias_filler {
      type: "constant"
      value: 0.2
    }
  }
}
layer {
  name: "inception_3a/relu_3x3_reduce"
  type: "ReLU"
  bottom: "inception_3a/3x3_reduce"
  top: "inception_3a/3x3_reduce"
}
layer {
  name: "inception_3a/3x3"
  type: "Convolution"
  bottom: "inception_3a/3x3_reduce"
  top: "inception_3a/3x3"
  param {
    lr_mult: 1
    decay_mult: 1
  }
  param {
    lr_mult: 2
    decay_mult: 0
  }
  convolution_param {
    num_output: 128
    pad: 1
    kernel_size: 3
    weight_filler {
      type: "xavier"
      std: 0.03
    }
    bias_filler {
      type: "constant"
      value: 0.2
    }
  }
}
layer {
  name: "inception_3a/relu_3x3"
  type: "ReLU"
  bottom: "inception_3a/3x3"
  top: "inception_3a/3x3"
}
layer {
  name: "inception_3a/5x5_reduce"
  type: "Convolution"
  bottom: "pool2/3x3_s2"
  top: "inception_3a/5x5_reduce"
  param {
    lr_mult: 1
    decay_mult: 1
  }
  param {
    lr_mult: 2
    decay_mult: 0
  }
  convolution_param {
    num_output: 16
    kernel_size: 1
    weight_filler {
      type: "xavier"
      std: 0.2
    }
    bias_filler {
      type: "constant"
      value: 0.2
    }
  }
}
layer {
  name: "inception_3a/relu_5x5_reduce"
  type: "ReLU"
  bottom: "inception_3a/5x5_reduce"
  top: "inception_3a/5x5_reduce"
}
layer {
  name: "inception_3a/5x5"
  type: "Convolution"
  bottom: "inception_3a/5x5_reduce"
  top: "inception_3a/5x5"
  param {
    lr_mult: 1
    decay_mult: 1
  }
  param {
    lr_mult: 2
    decay_mult: 0
  }
  convolution_param {
    num_output: 32
    pad: 2
    kernel_size: 5
    weight_filler {
      type: "xavier"
      std: 0.03
    }
    bias_filler {
      type: "constant"
      value: 0.2
    }
  }
}
layer {
  name: "inception_3a/relu_5x5"
  type: "ReLU"
  bottom: "inception_3a/5x5"
  top: "inception_3a/5x5"
}
layer {
  name: "inception_3a/pool"
  type: "Pooling"
  bottom: "pool2/3x3_s2"
  top: "inception_3a/pool"
  pooling_param {
    pool: MAX
    kernel_size: 3
    stride: 1
    pad: 1
  }
}
layer {
  name: "inception_3a/pool_proj"
  type: "Convolution"
  bottom: "inception_3a/pool"
  top: "inception_3a/pool_proj"
  param {
    lr_mult: 1
    decay_mult: 1
  }
  param {
    lr_mult: 2
    decay_mult: 0
  }
  convolution_param {
    num_output: 32
    kernel_size: 1
    weight_filler {
      type: "xavier"
      std: 0.1
    }
    bias_filler {
      type: "constant"
      value: 0.2
    }
  }
}
layer {
  name: "inception_3a/relu_pool_proj"
  type: "ReLU"
  bottom: "inception_3a/pool_proj"
  top: "inception_3a/pool_proj"
}
layer {
  name: "inception_3a/output"
  type: "Concat"
  bottom: "inception_3a/1x1"
  bottom: "inception_3a/3x3"
  bottom: "inception_3a/5x5"
  bottom: "inception_3a/pool_proj"
  top: "inception_3a/output"
}
layer {
  name: "inception_3b/1x1"
  type: "Convolution"
  bottom: "inception_3a/output"
  top: "inception_3b/1x1"
  param {
    lr_mult: 1
    decay_mult: 1
  }
  param {
    lr_mult: 2
    decay_mult: 0
  }
  convolution_param {
    num_output: 128
    kernel_size: 1
    weight_filler {
      type: "xavier"
      std: 0.03
    }
    bias_filler {
      type: "constant"
      value: 0.2
    }
  }
}
layer {
  name: "inception_3b/relu_1x1"
  type: "ReLU"
  bottom: "inception_3b/1x1"
  top: "inception_3b/1x1"
}
layer {
  name: "inception_3b/3x3_reduce"
  type: "Convolution"
  bottom: "inception_3a/output"
  top: "inception_3b/3x3_reduce"
  param {
    lr_mult: 1
    decay_mult: 1
  }
  param {
    lr_mult: 2
    decay_mult: 0
  }
  convolution_param {
    num_output: 128
    kernel_size: 1
    weight_filler {
      type: "xavier"
      std: 0.09
    }
    bias_filler {
      type: "constant"
      value: 0.2
    }
  }
}
layer {
  name: "inception_3b/relu_3x3_reduce"
  type: "ReLU"
  bottom: "inception_3b/3x3_reduce"
  top: "inception_3b/3x3_reduce"
}
layer {
  name: "inception_3b/3x3"
  type: "Convolution"
  bottom: "inception_3b/3x3_reduce"
  top: "inception_3b/3x3"
  param {
    lr_mult: 1
    decay_mult: 1
  }
  param {
    lr_mult: 2
    decay_mult: 0
  }
  convolution_param {
    num_output: 192
    pad: 1
    kernel_size: 3
    weight_filler {
      type: "xavier"
      std: 0.03
    }
    bias_filler {
      type: "constant"
      value: 0.2
    }
  }
}
layer {
  name: "inception_3b/relu_3x3"
  type: "ReLU"
  bottom: "inception_3b/3x3"
  top: "inception_3b/3x3"
}
layer {
  name: "inception_3b/5x5_reduce"
  type: "Convolution"
  bottom: "inception_3a/output"
  top: "inception_3b/5x5_reduce"
  param {
    lr_mult: 1
    decay_mult: 1
  }
  param {
    lr_mult: 2
    decay_mult: 0
  }
  convolution_param {
    num_output: 32
    kernel_size: 1
    weight_filler {
      type: "xavier"
      std: 0.2
    }
    bias_filler {
      type: "constant"
      value: 0.2
    }
  }
}
layer {
  name: "inception_3b/relu_5x5_reduce"
  type: "ReLU"
  bottom: "inception_3b/5x5_reduce"
  top: "inception_3b/5x5_reduce"
}
layer {
  name: "inception_3b/5x5"
  type: "Convolution"
  bottom: "inception_3b/5x5_reduce"
  top: "inception_3b/5x5"
  param {
    lr_mult: 1
    decay_mult: 1
  }
  param {
    lr_mult: 2
    decay_mult: 0
  }
  convolution_param {
    num_output: 96
    pad: 2
    kernel_size: 5
    weight_filler {
      type: "xavier"
      std: 0.03
    }
    bias_filler {
      type: "constant"
      value: 0.2
    }
  }
}
layer {
  name: "inception_3b/relu_5x5"
  type: "ReLU"
  bottom: "inception_3b/5x5"
  top: "inception_3b/5x5"
}
layer {
  name: "inception_3b/pool"
  type: "Pooling"
  bottom: "inception_3a/output"
  top: "inception_3b/pool"
  pooling_param {
    pool: MAX
    kernel_size: 3
    stride: 1
    pad: 1
  }
}
layer {
  name: "inception_3b/pool_proj"
  type: "Convolution"
  bottom: "inception_3b/pool"
  top: "inception_3b/pool_proj"
  param {
    lr_mult: 1
    decay_mult: 1
  }
  param {
    lr_mult: 2
    decay_mult: 0
  }
  convolution_param {
    num_output: 64
    kernel_size: 1
    weight_filler {
      type: "xavier"
      std: 0.1
    }
    bias_filler {
      type: "constant"
      value: 0.2
    }
  }
}
layer {
  name: "inception_3b/relu_pool_proj"
  type: "ReLU"
  bottom: "inception_3b/pool_proj"
  top: "inception_3b/pool_proj"
}
layer {
  name: "inception_3b/output"
  type: "Concat"
  bottom: "inception_3b/1x1"
  bottom: "inception_3b/3x3"
  bottom: "inception_3b/5x5"
  bottom: "inception_3b/pool_proj"
  top: "inception_3b/output"
}
layer {
  name: "pool3/3x3_s2"
  type: "Pooling"
  bottom: "inception_3b/output"
  top: "pool3/3x3_s2"
  pooling_param {
    pool: MAX
    kernel_size: 3
    stride: 2
  }
}
layer {
  name: "inception_4a/1x1"
  type: "Convolution"
  bottom: "pool3/3x3_s2"
  top: "inception_4a/1x1"
  param {
    lr_mult: 1
    decay_mult: 1
  }
  param {
    lr_mult: 2
    decay_mult: 0
  }
  convolution_param {
    num_output: 192
    kernel_size: 1
    weight_filler {
      type: "xavier"
      std: 0.03
    }
    bias_filler {
      type: "constant"
      value: 0.2
    }
  }
}
layer {
  name: "inception_4a/relu_1x1"
  type: "ReLU"
  bottom: "inception_4a/1x1"
  top: "inception_4a/1x1"
}
layer {
  name: "inception_4a/3x3_reduce"
  type: "Convolution"
  bottom: "pool3/3x3_s2"
  top: "inception_4a/3x3_reduce"
  param {
    lr_mult: 1
    decay_mult: 1
  }
  param {
    lr_mult: 2
    decay_mult: 0
  }
  convolution_param {
    num_output: 96
    kernel_size: 1
    weight_filler {
      type: "xavier"
      std: 0.09
    }
    bias_filler {
      type: "constant"
      value: 0.2
    }
  }
}
layer {
  name: "inception_4a/relu_3x3_reduce"
  type: "ReLU"
  bottom: "inception_4a/3x3_reduce"
  top: "inception_4a/3x3_reduce"
}
layer {
  name: "inception_4a/3x3"
  type: "Convolution"
  bottom: "inception_4a/3x3_reduce"
  top: "inception_4a/3x3"
  param {
    lr_mult: 1
    decay_mult: 1
  }
  param {
    lr_mult: 2
    decay_mult: 0
  }
  convolution_param {
    num_output: 208
    pad: 1
    kernel_size: 3
    weight_filler {
      type: "xavier"
      std: 0.03
    }
    bias_filler {
      type: "constant"
      value: 0.2
    }
  }
}
layer {
  name: "inception_4a/relu_3x3"
  type: "ReLU"
  bottom: "inception_4a/3x3"
  top: "inception_4a/3x3"
}
layer {
  name: "inception_4a/5x5_reduce"
  type: "Convolution"
  bottom: "pool3/3x3_s2"
  top: "inception_4a/5x5_reduce"
  param {
    lr_mult: 1
    decay_mult: 1
  }
  param {
    lr_mult: 2
    decay_mult: 0
  }
  convolution_param {
    num_output: 16
    kernel_size: 1
    weight_filler {
      type: "xavier"
      std: 0.2
    }
    bias_filler {
      type: "constant"
      value: 0.2
    }
  }
}
layer {
  name: "inception_4a/relu_5x5_reduce"
  type: "ReLU"
  bottom: "inception_4a/5x5_reduce"
  top: "inception_4a/5x5_reduce"
}
layer {
  name: "inception_4a/5x5"
  type: "Convolution"
  bottom: "inception_4a/5x5_reduce"
  top: "inception_4a/5x5"
  param {
    lr_mult: 1
    decay_mult: 1
  }
  param {
    lr_mult: 2
    decay_mult: 0
  }
  convolution_param {
    num_output: 48
    pad: 2
    kernel_size: 5
    weight_filler {
      type: "xavier"
      std: 0.03
    }
    bias_filler {
      type: "constant"
      value: 0.2
    }
  }
}
layer {
  name: "inception_4a/relu_5x5"
  type: "ReLU"
  bottom: "inception_4a/5x5"
  top: "inception_4a/5x5"
}
layer {
  name: "inception_4a/pool"
  type: "Pooling"
  bottom: "pool3/3x3_s2"
  top: "inception_4a/pool"
  pooling_param {
    pool: MAX
    kernel_size: 3
    stride: 1
    pad: 1
  }
}
layer {
  name: "inception_4a/pool_proj"
  type: "Convolution"
  bottom: "inception_4a/pool"
  top: "inception_4a/pool_proj"
  param {
    lr_mult: 1
    decay_mult: 1
  }
  param {
    lr_mult: 2
    decay_mult: 0
  }
  convolution_param {
    num_output: 64
    kernel_size: 1
    weight_filler {
      type: "xavier"
      std: 0.1
    }
    bias_filler {
      type: "constant"
      value: 0.2
    }
  }
}
layer {
  name: "inception_4a/relu_pool_proj"
  type: "ReLU"
  bottom: "inception_4a/pool_proj"
  top: "inception_4a/pool_proj"
}
layer {
  name: "inception_4a/output"
  type: "Concat"
  bottom: "inception_4a/1x1"
  bottom: "inception_4a/3x3"
  bottom: "inception_4a/5x5"
  bottom: "inception_4a/pool_proj"
  top: "inception_4a/output"
}
layer {
  name: "loss1/ave_pool"
  type: "Pooling"
  bottom: "inception_4a/output"
  top: "loss1/ave_pool"
  pooling_param {
    pool: AVE
    kernel_size: 5
    stride: 3
  }
}
layer {
  name: "loss1/conv"
  type: "Convolution"
  bottom: "loss1/ave_pool"
  top: "loss1/conv"
  param {
    lr_mult: 1
    decay_mult: 1
  }
  param {
    lr_mult: 2
    decay_mult: 0
  }
  convolution_param {
    num_output: 128
    kernel_size: 1
    weight_filler {
      type: "xavier"
      std: 0.08
    }
    bias_filler {
      type: "constant"
      value: 0.2
    }
  }
}
layer {
  name: "loss1/relu_conv"
  type: "ReLU"
  bottom: "loss1/conv"
  top: "loss1/conv"
}
layer {
  name: "loss1/fc"
  type: "InnerProduct"
  bottom: "loss1/conv"
  top: "loss1/fc"
  param {
    lr_mult: 1
    decay_mult: 1
  }
  param {
    lr_mult: 2
    decay_mult: 0
  }
  inner_product_param {
    num_output: 1024
    weight_filler {
      type: "xavier"
      std: 0.02
    }
    bias_filler {
      type: "constant"
      value: 0.2
    }
  }
}
layer {
  name: "loss1/relu_fc"
  type: "ReLU"
  bottom: "loss1/fc"
  top: "loss1/fc"
}
layer {
  name: "loss1/drop_fc"
  type: "Dropout"
  bottom: "loss1/fc"
  top: "loss1/fc"
  dropout_param {
    dropout_ratio: 0.7
  }
}
layer {
  name: "loss1/classifier_plantvillage"
  type: "InnerProduct"
  bottom: "loss1/fc"
  top: "loss1/classifier_plantvillage"
  param {
    lr_mult: 1
    decay_mult: 1
  }
  param {
    lr_mult: 2
    decay_mult: 0
  }
  inner_product_param {
    num_output: 38
    weight_filler {
      type: "xavier"
      std: 0.0009765625
    }
    bias_filler {
      type: "constant"
      value: 0
    }
  }
}
layer {
  name: "inception_4b/1x1"
  type: "Convolution"
  bottom: "inception_4a/output"
  top: "inception_4b/1x1"
  param {
    lr_mult: 1
    decay_mult: 1
  }
  param {
    lr_mult: 2
    decay_mult: 0
  }
  convolution_param {
    num_output: 160
    kernel_size: 1
    weight_filler {
      type: "xavier"
      std: 0.03
    }
    bias_filler {
      type: "constant"
      value: 0.2
    }
  }
}
layer {
  name: "inception_4b/relu_1x1"
  type: "ReLU"
  bottom: "inception_4b/1x1"
  top: "inception_4b/1x1"
}
layer {
  name: "inception_4b/3x3_reduce"
  type: "Convolution"
  bottom: "inception_4a/output"
  top: "inception_4b/3x3_reduce"
  param {
    lr_mult: 1
    decay_mult: 1
  }
  param {
    lr_mult: 2
    decay_mult: 0
  }
  convolution_param {
    num_output: 112
    kernel_size: 1
    weight_filler {
      type: "xavier"
      std: 0.09
    }
    bias_filler {
      type: "constant"
      value: 0.2
    }
  }
}
layer {
  name: "inception_4b/relu_3x3_reduce"
  type: "ReLU"
  bottom: "inception_4b/3x3_reduce"
  top: "inception_4b/3x3_reduce"
}
layer {
  name: "inception_4b/3x3"
  type: "Convolution"
  bottom: "inception_4b/3x3_reduce"
  top: "inception_4b/3x3"
  param {
    lr_mult: 1
    decay_mult: 1
  }
  param {
    lr_mult: 2
    decay_mult: 0
  }
  convolution_param {
    num_output: 224
    pad: 1
    kernel_size: 3
    weight_filler {
      type: "xavier"
      std: 0.03
    }
    bias_filler {
      type: "constant"
      value: 0.2
    }
  }
}
layer {
  name: "inception_4b/relu_3x3"
  type: "ReLU"
  bottom: "inception_4b/3x3"
  top: "inception_4b/3x3"
}
layer {
  name: "inception_4b/5x5_reduce"
  type: "Convolution"
  bottom: "inception_4a/output"
  top: "inception_4b/5x5_reduce"
  param {
    lr_mult: 1
    decay_mult: 1
  }
  param {
    lr_mult: 2
    decay_mult: 0
  }
  convolution_param {
    num_output: 24
    kernel_size: 1
    weight_filler {
      type: "xavier"
      std: 0.2
    }
    bias_filler {
      type: "constant"
      value: 0.2
    }
  }
}
layer {
  name: "inception_4b/relu_5x5_reduce"
  type: "ReLU"
  bottom: "inception_4b/5x5_reduce"
  top: "inception_4b/5x5_reduce"
}
layer {
  name: "inception_4b/5x5"
  type: "Convolution"
  bottom: "inception_4b/5x5_reduce"
  top: "inception_4b/5x5"
  param {
    lr_mult: 1
    decay_mult: 1
  }
  param {
    lr_mult: 2
    decay_mult: 0
  }
  convolution_param {
    num_output: 64
    pad: 2
    kernel_size: 5
    weight_filler {
      type: "xavier"
      std: 0.03
    }
    bias_filler {
      type: "constant"
      value: 0.2
    }
  }
}
layer {
  name: "inception_4b/relu_5x5"
  type: "ReLU"
  bottom: "inception_4b/5x5"
  top: "inception_4b/5x5"
}
layer {
  name: "inception_4b/pool"
  type: "Pooling"
  bottom: "inception_4a/output"
  top: "inception_4b/pool"
  pooling_param {
    pool: MAX
    kernel_size: 3
    stride: 1
    pad: 1
  }
}
layer {
  name: "inception_4b/pool_proj"
  type: "Convolution"
  bottom: "inception_4b/pool"
  top: "inception_4b/pool_proj"
  param {
    lr_mult: 1
    decay_mult: 1
  }
  param {
    lr_mult: 2
    decay_mult: 0
  }
  convolution_param {
    num_output: 64
    kernel_size: 1
    weight_filler {
      type: "xavier"
      std: 0.1
    }
    bias_filler {
      type: "constant"
      value: 0.2
    }
  }
}
layer {
  name: "inception_4b/relu_pool_proj"
  type: "ReLU"
  bottom: "inception_4b/pool_proj"
  top: "inception_4b/pool_proj"
}
layer {
  name: "inception_4b/output"
  type: "Concat"
  bottom: "inception_4b/1x1"
  bottom: "inception_4b/3x3"
  bottom: "inception_4b/5x5"
  bottom: "inception_4b/pool_proj"
  top: "inception_4b/output"
}
layer {
  name: "inception_4c/1x1"
  type: "Convolution"
  bottom: "inception_4b/output"
  top: "inception_4c/1x1"
  param {
    lr_mult: 1
    decay_mult: 1
  }
  param {
    lr_mult: 2
    decay_mult: 0
  }
  convolution_param {
    num_output: 128
    kernel_size: 1
    weight_filler {
      type: "xavier"
      std: 0.03
    }
    bias_filler {
      type: "constant"
      value: 0.2
    }
  }
}
layer {
  name: "inception_4c/relu_1x1"
  type: "ReLU"
  bottom: "inception_4c/1x1"
  top: "inception_4c/1x1"
}
layer {
  name: "inception_4c/3x3_reduce"
  type: "Convolution"
  bottom: "inception_4b/output"
  top: "inception_4c/3x3_reduce"
  param {
    lr_mult: 1
    decay_mult: 1
  }
  param {
    lr_mult: 2
    decay_mult: 0
  }
  convolution_param {
    num_output: 128
    kernel_size: 1
    weight_filler {
      type: "xavier"
      std: 0.09
    }
    bias_filler {
      type: "constant"
      value: 0.2
    }
  }
}
layer {
  name: "inception_4c/relu_3x3_reduce"
  type: "ReLU"
  bottom: "inception_4c/3x3_reduce"
  top: "inception_4c/3x3_reduce"
}
layer {
  name: "inception_4c/3x3"
  type: "Convolution"
  bottom: "inception_4c/3x3_reduce"
  top: "inception_4c/3x3"
  param {
    lr_mult: 1
    decay_mult: 1
  }
  param {
    lr_mult: 2
    decay_mult: 0
  }
  convolution_param {
    num_output: 256
    pad: 1
    kernel_size: 3
    weight_filler {
      type: "xavier"
      std: 0.03
    }
    bias_filler {
      type: "constant"
      value: 0.2
    }
  }
}
layer {
  name: "inception_4c/relu_3x3"
  type: "ReLU"
  bottom: "inception_4c/3x3"
  top: "inception_4c/3x3"
}
layer {
  name: "inception_4c/5x5_reduce"
  type: "Convolution"
  bottom: "inception_4b/output"
  top: "inception_4c/5x5_reduce"
  param {
    lr_mult: 1
    decay_mult: 1
  }
  param {
    lr_mult: 2
    decay_mult: 0
  }
  convolution_param {
    num_output: 24
    kernel_size: 1
    weight_filler {
      type: "xavier"
      std: 0.2
    }
    bias_filler {
      type: "constant"
      value: 0.2
    }
  }
}
layer {
  name: "inception_4c/relu_5x5_reduce"
  type: "ReLU"
  bottom: "inception_4c/5x5_reduce"
  top: "inception_4c/5x5_reduce"
}
layer {
  name: "inception_4c/5x5"
  type: "Convolution"
  bottom: "inception_4c/5x5_reduce"
  top: "inception_4c/5x5"
  param {
    lr_mult: 1
    decay_mult: 1
  }
  param {
    lr_mult: 2
    decay_mult: 0
  }
  convolution_param {
    num_output: 64
    pad: 2
    kernel_size: 5
    weight_filler {
      type: "xavier"
      std: 0.03
    }
    bias_filler {
      type: "constant"
      value: 0.2
    }
  }
}
layer {
  name: "inception_4c/relu_5x5"
  type: "ReLU"
  bottom: "inception_4c/5x5"
  top: "inception_4c/5x5"
}
layer {
  name: "inception_4c/pool"
  type: "Pooling"
  bottom: "inception_4b/output"
  top: "inception_4c/pool"
  pooling_param {
    pool: MAX
    kernel_size: 3
    stride: 1
    pad: 1
  }
}
layer {
  name: "inception_4c/pool_proj"
  type: "Convolution"
  bottom: "inception_4c/pool"
  top: "inception_4c/pool_proj"
  param {
    lr_mult: 1
    decay_mult: 1
  }
  param {
    lr_mult: 2
    decay_mult: 0
  }
  convolution_param {
    num_output: 64
    kernel_size: 1
    weight_filler {
      type: "xavier"
      std: 0.1
    }
    bias_filler {
      type: "constant"
      value: 0.2
    }
  }
}
layer {
  name: "inception_4c/relu_pool_proj"
  type: "ReLU"
  bottom: "inception_4c/pool_proj"
  top: "inception_4c/pool_proj"
}
layer {
  name: "inception_4c/output"
  type: "Concat"
  bottom: "inception_4c/1x1"
  bottom: "inception_4c/3x3"
  bottom: "inception_4c/5x5"
  bottom: "inception_4c/pool_proj"
  top: "inception_4c/output"
}
layer {
  name: "inception_4d/1x1"
  type: "Convolution"
  bottom: "inception_4c/output"
  top: "inception_4d/1x1"
  param {
    lr_mult: 1
    decay_mult: 1
  }
  param {
    lr_mult: 2
    decay_mult: 0
  }
  convolution_param {
    num_output: 112
    kernel_size: 1
    weight_filler {
      type: "xavier"
      std: 0.03
    }
    bias_filler {
      type: "constant"
      value: 0.2
    }
  }
}
layer {
  name: "inception_4d/relu_1x1"
  type: "ReLU"
  bottom: "inception_4d/1x1"
  top: "inception_4d/1x1"
}
layer {
  name: "inception_4d/3x3_reduce"
  type: "Convolution"
  bottom: "inception_4c/output"
  top: "inception_4d/3x3_reduce"
  param {
    lr_mult: 1
    decay_mult: 1
  }
  param {
    lr_mult: 2
    decay_mult: 0
  }
  convolution_param {
    num_output: 144
    kernel_size: 1
    weight_filler {
      type: "xavier"
      std: 0.09
    }
    bias_filler {
      type: "constant"
      value: 0.2
    }
  }
}
layer {
  name: "inception_4d/relu_3x3_reduce"
  type: "ReLU"
  bottom: "inception_4d/3x3_reduce"
  top: "inception_4d/3x3_reduce"
}
layer {
  name: "inception_4d/3x3"
  type: "Convolution"
  bottom: "inception_4d/3x3_reduce"
  top: "inception_4d/3x3"
  param {
    lr_mult: 1
    decay_mult: 1
  }
  param {
    lr_mult: 2
    decay_mult: 0
  }
  convolution_param {
    num_output: 288
    pad: 1
    kernel_size: 3
    weight_filler {
      type: "xavier"
      std: 0.03
    }
    bias_filler {
      type: "constant"
      value: 0.2
    }
  }
}
layer {
  name: "inception_4d/relu_3x3"
  type: "ReLU"
  bottom: "inception_4d/3x3"
  top: "inception_4d/3x3"
}
layer {
  name: "inception_4d/5x5_reduce"
  type: "Convolution"
  bottom: "inception_4c/output"
  top: "inception_4d/5x5_reduce"
  param {
    lr_mult: 1
    decay_mult: 1
  }
  param {
    lr_mult: 2
    decay_mult: 0
  }
  convolution_param {
    num_output: 32
    kernel_size: 1
    weight_filler {
      type: "xavier"
      std: 0.2
    }
    bias_filler {
      type: "constant"
      value: 0.2
    }
  }
}
layer {
  name: "inception_4d/relu_5x5_reduce"
  type: "ReLU"
  bottom: "inception_4d/5x5_reduce"
  top: "inception_4d/5x5_reduce"
}
layer {
  name: "inception_4d/5x5"
  type: "Convolution"
  bottom: "inception_4d/5x5_reduce"
  top: "inception_4d/5x5"
  param {
    lr_mult: 1
    decay_mult: 1
  }
  param {
    lr_mult: 2
    decay_mult: 0
  }
  convolution_param {
    num_output: 64
    pad: 2
    kernel_size: 5
    weight_filler {
      type: "xavier"
      std: 0.03
    }
    bias_filler {
      type: "constant"
      value: 0.2
    }
  }
}
layer {
  name: "inception_4d/relu_5x5"
  type: "ReLU"
  bottom: "inception_4d/5x5"
  top: "inception_4d/5x5"
}
layer {
  name: "inception_4d/pool"
  type: "Pooling"
  bottom: "inception_4c/output"
  top: "inception_4d/pool"
  pooling_param {
    pool: MAX
    kernel_size: 3
    stride: 1
    pad: 1
  }
}
layer {
  name: "inception_4d/pool_proj"
  type: "Convolution"
  bottom: "inception_4d/pool"
  top: "inception_4d/pool_proj"
  param {
    lr_mult: 1
    decay_mult: 1
  }
  param {
    lr_mult: 2
    decay_mult: 0
  }
  convolution_param {
    num_output: 64
    kernel_size: 1
    weight_filler {
      type: "xavier"
      std: 0.1
    }
    bias_filler {
      type: "constant"
      value: 0.2
    }
  }
}
layer {
  name: "inception_4d/relu_pool_proj"
  type: "ReLU"
  bottom: "inception_4d/pool_proj"
  top: "inception_4d/pool_proj"
}
layer {
  name: "inception_4d/output"
  type: "Concat"
  bottom: "inception_4d/1x1"
  bottom: "inception_4d/3x3"
  bottom: "inception_4d/5x5"
  bottom: "inception_4d/pool_proj"
  top: "inception_4d/output"
}
layer {
  name: "loss2/ave_pool"
  type: "Pooling"
  bottom: "inception_4d/output"
  top: "loss2/ave_pool"
  pooling_param {
    pool: AVE
    kernel_size: 5
    stride: 3
  }
}
layer {
  name: "loss2/conv"
  type: "Convolution"
  bottom: "loss2/ave_pool"
  top: "loss2/conv"
  param {
    lr_mult: 1
    decay_mult: 1
  }
  param {
    lr_mult: 2
    decay_mult: 0
  }
  convolution_param {
    num_output: 128
    kernel_size: 1
    weight_filler {
      type: "xavier"
      std: 0.08
    }
    bias_filler {
      type: "constant"
      value: 0.2
    }
  }
}
layer {
  name: "loss2/relu_conv"
  type: "ReLU"
  bottom: "loss2/conv"
  top: "loss2/conv"
}
layer {
  name: "loss2/fc"
  type: "InnerProduct"
  bottom: "loss2/conv"
  top: "loss2/fc"
  param {
    lr_mult: 1
    decay_mult: 1
  }
  param {
    lr_mult: 2
    decay_mult: 0
  }
  inner_product_param {
    num_output: 1024
    weight_filler {
      type: "xavier"
      std: 0.02
    }
    bias_filler {
      type: "constant"
      value: 0.2
    }
  }
}
layer {
  name: "loss2/relu_fc"
  type: "ReLU"
  bottom: "loss2/fc"
  top: "loss2/fc"
}
layer {
  name: "loss2/drop_fc"
  type: "Dropout"
  bottom: "loss2/fc"
  top: "loss2/fc"
  dropout_param {
    dropout_ratio: 0.7
  }
}
layer {
  name: "loss2/classifier_plantvillage"
  type: "InnerProduct"
  bottom: "loss2/fc"
  top: "loss2/classifier_plantvillage"
  param {
    lr_mult: 1
    decay_mult: 1
  }
  param {
    lr_mult: 2
    decay_mult: 0
  }
  inner_product_param {
    num_output: 38
    weight_filler {
      type: "xavier"
      std: 0.0009765625
    }
    bias_filler {
      type: "constant"
      value: 0
    }
  }
}
layer {
  name: "inception_4e/1x1"
  type: "Convolution"
  bottom: "inception_4d/output"
  top: "inception_4e/1x1"
  param {
    lr_mult: 1
    decay_mult: 1
  }
  param {
    lr_mult: 2
    decay_mult: 0
  }
  convolution_param {
    num_output: 256
    kernel_size: 1
    weight_filler {
      type: "xavier"
      std: 0.03
    }
    bias_filler {
      type: "constant"
      value: 0.2
    }
  }
}
layer {
  name: "inception_4e/relu_1x1"
  type: "ReLU"
  bottom: "inception_4e/1x1"
  top: "inception_4e/1x1"
}
layer {
  name: "inception_4e/3x3_reduce"
  type: "Convolution"
  bottom: "inception_4d/output"
  top: "inception_4e/3x3_reduce"
  param {
    lr_mult: 1
    decay_mult: 1
  }
  param {
    lr_mult: 2
    decay_mult: 0
  }
  convolution_param {
    num_output: 160
    kernel_size: 1
    weight_filler {
      type: "xavier"
      std: 0.09
    }
    bias_filler {
      type: "constant"
      value: 0.2
    }
  }
}
layer {
  name: "inception_4e/relu_3x3_reduce"
  type: "ReLU"
  bottom: "inception_4e/3x3_reduce"
  top: "inception_4e/3x3_reduce"
}
layer {
  name: "inception_4e/3x3"
  type: "Convolution"
  bottom: "inception_4e/3x3_reduce"
  top: "inception_4e/3x3"
  param {
    lr_mult: 1
    decay_mult: 1
  }
  param {
    lr_mult: 2
    decay_mult: 0
  }
  convolution_param {
    num_output: 320
    pad: 1
    kernel_size: 3
    weight_filler {
      type: "xavier"
      std: 0.03
    }
    bias_filler {
      type: "constant"
      value: 0.2
    }
  }
}
layer {
  name: "inception_4e/relu_3x3"
  type: "ReLU"
  bottom: "inception_4e/3x3"
  top: "inception_4e/3x3"
}
layer {
  name: "inception_4e/5x5_reduce"
  type: "Convolution"
  bottom: "inception_4d/output"
  top: "inception_4e/5x5_reduce"
  param {
    lr_mult: 1
    decay_mult: 1
  }
  param {
    lr_mult: 2
    decay_mult: 0
  }
  convolution_param {
    num_output: 32
    kernel_size: 1
    weight_filler {
      type: "xavier"
      std: 0.2
    }
    bias_filler {
      type: "constant"
      value: 0.2
    }
  }
}
layer {
  name: "inception_4e/relu_5x5_reduce"
  type: "ReLU"
  bottom: "inception_4e/5x5_reduce"
  top: "inception_4e/5x5_reduce"
}
layer {
  name: "inception_4e/5x5"
  type: "Convolution"
  bottom: "inception_4e/5x5_reduce"
  top: "inception_4e/5x5"
 
I0403 04:57:51.567128  2541 layer_factory.hpp:77] Creating layer data
I0403 04:57:51.567751  2541 net.cpp:91] Creating Layer data
I0403 04:57:51.567788  2541 net.cpp:399] data -> data
I0403 04:57:51.567841  2541 net.cpp:399] data -> label
I0403 04:57:51.567878  2541 data_transformer.cpp:25] Loading mean file from: /home/mohanty/data/final_dataset/lmdb/color-80-20/mean.binaryproto
I0403 04:57:51.634436  2546 db_lmdb.cpp:38] Opened lmdb /home/mohanty/data/final_dataset/lmdb/color-80-20/train_db
I0403 04:57:51.666239  2541 data_layer.cpp:41] output data size: 24,3,224,224
I0403 04:57:51.698282  2541 net.cpp:141] Setting up data
I0403 04:57:51.698367  2541 net.cpp:148] Top shape: 24 3 224 224 (3612672)
I0403 04:57:51.698390  2541 net.cpp:148] Top shape: 24 (24)
I0403 04:57:51.698416  2541 net.cpp:156] Memory required for data: 14450784
I0403 04:57:51.698477  2541 layer_factory.hpp:77] Creating layer label_data_1_split
I0403 04:57:51.698509  2541 net.cpp:91] Creating Layer label_data_1_split
I0403 04:57:51.698530  2541 net.cpp:425] label_data_1_split <- label
I0403 04:57:51.698559  2541 net.cpp:399] label_data_1_split -> label_data_1_split_0
I0403 04:57:51.698588  2541 net.cpp:399] label_data_1_split -> label_data_1_split_1
I0403 04:57:51.698611  2541 net.cpp:399] label_data_1_split -> label_data_1_split_2
I0403 04:57:51.698678  2541 net.cpp:141] Setting up label_data_1_split
I0403 04:57:51.698701  2541 net.cpp:148] Top shape: 24 (24)
I0403 04:57:51.698719  2541 net.cpp:148] Top shape: 24 (24)
I0403 04:57:51.698735  2541 net.cpp:148] Top shape: 24 (24)
I0403 04:57:51.698751  2541 net.cpp:156] Memory required for data: 14451072
I0403 04:57:51.698767  2541 layer_factory.hpp:77] Creating layer conv1/7x7_s2
I0403 04:57:51.698802  2541 net.cpp:91] Creating Layer conv1/7x7_s2
I0403 04:57:51.698822  2541 net.cpp:425] conv1/7x7_s2 <- data
I0403 04:57:51.698842  2541 net.cpp:399] conv1/7x7_s2 -> conv1/7x7_s2
I0403 04:57:51.699780  2541 net.cpp:141] Setting up conv1/7x7_s2
I0403 04:57:51.699810  2541 net.cpp:148] Top shape: 24 64 112 112 (19267584)
I0403 04:57:51.699828  2541 net.cpp:156] Memory required for data: 91521408
I0403 04:57:51.699865  2541 layer_factory.hpp:77] Creating layer conv1/relu_7x7
I0403 04:57:51.699892  2541 net.cpp:91] Creating Layer conv1/relu_7x7
I0403 04:57:51.699910  2541 net.cpp:425] conv1/relu_7x7 <- conv1/7x7_s2
I0403 04:57:51.699930  2541 net.cpp:386] conv1/relu_7x7 -> conv1/7x7_s2 (in-place)
I0403 04:57:51.699954  2541 net.cpp:141] Setting up conv1/relu_7x7
I0403 04:57:51.699973  2541 net.cpp:148] Top shape: 24 64 112 112 (19267584)
I0403 04:57:51.699990  2541 net.cpp:156] Memory required for data: 168591744
I0403 04:57:51.700004  2541 layer_factory.hpp:77] Creating layer pool1/3x3_s2
I0403 04:57:51.700024  2541 net.cpp:91] Creating Layer pool1/3x3_s2
I0403 04:57:51.700042  2541 net.cpp:425] pool1/3x3_s2 <- conv1/7x7_s2
I0403 04:57:51.700059  2541 net.cpp:399] pool1/3x3_s2 -> pool1/3x3_s2
I0403 04:57:51.700150  2541 net.cpp:141] Setting up pool1/3x3_s2
I0403 04:57:51.700176  2541 net.cpp:148] Top shape: 24 64 56 56 (4816896)
I0403 04:57:51.700193  2541 net.cpp:156] Memory required for data: 187859328
I0403 04:57:51.700211  2541 layer_factory.hpp:77] Creating layer pool1/norm1
I0403 04:57:51.700232  2541 net.cpp:91] Creating Layer pool1/norm1
I0403 04:57:51.700253  2541 net.cpp:425] pool1/norm1 <- pool1/3x3_s2
I0403 04:57:51.700271  2541 net.cpp:399] pool1/norm1 -> pool1/norm1
I0403 04:57:51.700325  2541 net.cpp:141] Setting up pool1/norm1
I0403 04:57:51.700350  2541 net.cpp:148] Top shape: 24 64 56 56 (4816896)
I0403 04:57:51.700366  2541 net.cpp:156] Memory required for data: 207126912
I0403 04:57:51.700382  2541 layer_factory.hpp:77] Creating layer conv2/3x3_reduce
I0403 04:57:51.700413  2541 net.cpp:91] Creating Layer conv2/3x3_reduce
I0403 04:57:51.700433  2541 net.cpp:425] conv2/3x3_reduce <- pool1/norm1
I0403 04:57:51.700453  2541 net.cpp:399] conv2/3x3_reduce -> conv2/3x3_reduce
I0403 04:57:51.702693  2541 net.cpp:141] Setting up conv2/3x3_reduce
I0403 04:57:51.702733  2541 net.cpp:148] Top shape: 24 64 56 56 (4816896)
I0403 04:57:51.702752  2541 net.cpp:156] Memory required for data: 226394496
I0403 04:57:51.702776  2541 layer_factory.hpp:77] Creating layer conv2/relu_3x3_reduce
I0403 04:57:51.702798  2541 net.cpp:91] Creating Layer conv2/relu_3x3_reduce
I0403 04:57:51.702817  2541 net.cpp:425] conv2/relu_3x3_reduce <- conv2/3x3_reduce
I0403 04:57:51.702838  2541 net.cpp:386] conv2/relu_3x3_reduce -> conv2/3x3_reduce (in-place)
I0403 04:57:51.702859  2541 net.cpp:141] Setting up conv2/relu_3x3_reduce
I0403 04:57:51.702878  2541 net.cpp:148] Top shape: 24 64 56 56 (4816896)
I0403 04:57:51.702893  2541 net.cpp:156] Memory required for data: 245662080
I0403 04:57:51.702909  2541 layer_factory.hpp:77] Creating layer conv2/3x3
I0403 04:57:51.702935  2541 net.cpp:91] Creating Layer conv2/3x3
I0403 04:57:51.702952  2541 net.cpp:425] conv2/3x3 <- conv2/3x3_reduce
I0403 04:57:51.702992  2541 net.cpp:399] conv2/3x3 -> conv2/3x3
I0403 04:57:51.704438  2541 net.cpp:141] Setting up conv2/3x3
I0403 04:57:51.704469  2541 net.cpp:148] Top shape: 24 192 56 56 (14450688)
I0403 04:57:51.704474  2548 blocking_queue.cpp:50] Waiting for data
I0403 04:57:51.704490  2541 net.cpp:156] Memory required for data: 303464832
I0403 04:57:51.704548  2541 layer_factory.hpp:77] Creating layer conv2/relu_3x3
I0403 04:57:51.704571  2541 net.cpp:91] Creating Layer conv2/relu_3x3
I0403 04:57:51.704589  2541 net.cpp:425] conv2/relu_3x3 <- conv2/3x3
I0403 04:57:51.704608  2541 net.cpp:386] conv2/relu_3x3 -> conv2/3x3 (in-place)
I0403 04:57:51.704630  2541 net.cpp:141] Setting up conv2/relu_3x3
I0403 04:57:51.704649  2541 net.cpp:148] Top shape: 24 192 56 56 (14450688)
I0403 04:57:51.704664  2541 net.cpp:156] Memory required for data: 361267584
I0403 04:57:51.704680  2541 layer_factory.hpp:77] Creating layer conv2/norm2
I0403 04:57:51.704700  2541 net.cpp:91] Creating Layer conv2/norm2
I0403 04:57:51.704716  2541 net.cpp:425] conv2/norm2 <- conv2/3x3
I0403 04:57:51.704736  2541 net.cpp:399] conv2/norm2 -> conv2/norm2
I0403 04:57:51.704785  2541 net.cpp:141] Setting up conv2/norm2
I0403 04:57:51.704810  2541 net.cpp:148] Top shape: 24 192 56 56 (14450688)
I0403 04:57:51.704826  2541 net.cpp:156] Memory required for data: 419070336
I0403 04:57:51.704843  2541 layer_factory.hpp:77] Creating layer pool2/3x3_s2
I0403 04:57:51.704862  2541 net.cpp:91] Creating Layer pool2/3x3_s2
I0403 04:57:51.704879  2541 net.cpp:425] pool2/3x3_s2 <- conv2/norm2
I0403 04:57:51.704898  2541 net.cpp:399] pool2/3x3_s2 -> pool2/3x3_s2
I0403 04:57:51.704946  2541 net.cpp:141] Setting up pool2/3x3_s2
I0403 04:57:51.704972  2541 net.cpp:148] Top shape: 24 192 28 28 (3612672)
I0403 04:57:51.704987  2541 net.cpp:156] Memory required for data: 433521024
I0403 04:57:51.705001  2541 layer_factory.hpp:77] Creating layer pool2/3x3_s2_pool2/3x3_s2_0_split
I0403 04:57:51.705021  2541 net.cpp:91] Creating Layer pool2/3x3_s2_pool2/3x3_s2_0_split
I0403 04:57:51.705039  2541 net.cpp:425] pool2/3x3_s2_pool2/3x3_s2_0_split <- pool2/3x3_s2
I0403 04:57:51.705057  2541 net.cpp:399] pool2/3x3_s2_pool2/3x3_s2_0_split -> pool2/3x3_s2_pool2/3x3_s2_0_split_0
I0403 04:57:51.705080  2541 net.cpp:399] pool2/3x3_s2_pool2/3x3_s2_0_split -> pool2/3x3_s2_pool2/3x3_s2_0_split_1
I0403 04:57:51.705112  2541 net.cpp:399] pool2/3x3_s2_pool2/3x3_s2_0_split -> pool2/3x3_s2_pool2/3x3_s2_0_split_2
I0403 04:57:51.705137  2541 net.cpp:399] pool2/3x3_s2_pool2/3x3_s2_0_split -> pool2/3x3_s2_pool2/3x3_s2_0_split_3
I0403 04:57:51.705199  2541 net.cpp:141] Setting up pool2/3x3_s2_pool2/3x3_s2_0_split
I0403 04:57:51.705224  2541 net.cpp:148] Top shape: 24 192 28 28 (3612672)
I0403 04:57:51.705241  2541 net.cpp:148] Top shape: 24 192 28 28 (3612672)
I0403 04:57:51.705258  2541 net.cpp:148] Top shape: 24 192 28 28 (3612672)
I0403 04:57:51.705276  2541 net.cpp:148] Top shape: 24 192 28 28 (3612672)
I0403 04:57:51.705291  2541 net.cpp:156] Memory required for data: 491323776
I0403 04:57:51.705307  2541 layer_factory.hpp:77] Creating layer inception_3a/1x1
I0403 04:57:51.705329  2541 net.cpp:91] Creating Layer inception_3a/1x1
I0403 04:57:51.705348  2541 net.cpp:425] inception_3a/1x1 <- pool2/3x3_s2_pool2/3x3_s2_0_split_0
I0403 04:57:51.705369  2541 net.cpp:399] inception_3a/1x1 -> inception_3a/1x1
I0403 04:57:51.706213  2541 net.cpp:141] Setting up inception_3a/1x1
I0403 04:57:51.706244  2541 net.cpp:148] Top shape: 24 64 28 28 (1204224)
I0403 04:57:51.706261  2541 net.cpp:156] Memory required for data: 496140672
I0403 04:57:51.706280  2541 layer_factory.hpp:77] Creating layer inception_3a/relu_1x1
I0403 04:57:51.706301  2541 net.cpp:91] Creating Layer inception_3a/relu_1x1
I0403 04:57:51.706318  2541 net.cpp:425] inception_3a/relu_1x1 <- inception_3a/1x1
I0403 04:57:51.706341  2541 net.cpp:386] inception_3a/relu_1x1 -> inception_3a/1x1 (in-place)
I0403 04:57:51.706363  2541 net.cpp:141] Setting up inception_3a/relu_1x1
I0403 04:57:51.706383  2541 net.cpp:148] Top shape: 24 64 28 28 (1204224)
I0403 04:57:51.706415  2541 net.cpp:156] Memory required for data: 500957568
I0403 04:57:51.706432  2541 layer_factory.hpp:77] Creating layer inception_3a/3x3_reduce
I0403 04:57:51.706457  2541 net.cpp:91] Creating Layer inception_3a/3x3_reduce
I0403 04:57:51.706477  2541 net.cpp:425] inception_3a/3x3_reduce <- pool2/3x3_s2_pool2/3x3_s2_0_split_1
I0403 04:57:51.706499  2541 net.cpp:399] inception_3a/3x3_reduce -> inception_3a/3x3_reduce
I0403 04:57:51.707372  2541 net.cpp:141] Setting up inception_3a/3x3_reduce
I0403 04:57:51.707403  2541 net.cpp:148] Top shape: 24 96 28 28 (1806336)
I0403 04:57:51.707419  2541 net.cpp:156] Memory required for data: 508182912
I0403 04:57:51.707442  2541 layer_factory.hpp:77] Creating layer inception_3a/relu_3x3_reduce
I0403 04:57:51.707468  2541 net.cpp:91] Creating Layer inception_3a/relu_3x3_reduce
I0403 04:57:51.707487  2541 net.cpp:425] inception_3a/relu_3x3_reduce <- inception_3a/3x3_reduce
I0403 04:57:51.707506  2541 net.cpp:386] inception_3a/relu_3x3_reduce -> inception_3a/3x3_reduce (in-place)
I0403 04:57:51.707530  2541 net.cpp:141] Setting up inception_3a/relu_3x3_reduce
I0403 04:57:51.707548  2541 net.cpp:148] Top shape: 24 96 28 28 (1806336)
I0403 04:57:51.707564  2541 net.cpp:156] Memory required for data: 515408256
I0403 04:57:51.707579  2541 layer_factory.hpp:77] Creating layer inception_3a/3x3
I0403 04:57:51.707604  2541 net.cpp:91] Creating Layer inception_3a/3x3
I0403 04:57:51.707623  2541 net.cpp:425] inception_3a/3x3 <- inception_3a/3x3_reduce
I0403 04:57:51.707648  2541 net.cpp:399] inception_3a/3x3 -> inception_3a/3x3
I0403 04:57:51.708498  2541 net.cpp:141] Setting up inception_3a/3x3
I0403 04:57:51.708524  2541 net.cpp:148] Top shape: 24 128 28 28 (2408448)
I0403 04:57:51.708541  2541 net.cpp:156] Memory required for data: 525042048
I0403 04:57:51.708561  2541 layer_factory.hpp:77] Creating layer inception_3a/relu_3x3
I0403 04:57:51.708581  2541 net.cpp:91] Creating Layer inception_3a/relu_3x3
I0403 04:57:51.708600  2541 net.cpp:425] inception_3a/relu_3x3 <- inception_3a/3x3
I0403 04:57:51.708621  2541 net.cpp:386] inception_3a/relu_3x3 -> inception_3a/3x3 (in-place)
I0403 04:57:51.708641  2541 net.cpp:141] Setting up inception_3a/relu_3x3
I0403 04:57:51.708660  2541 net.cpp:148] Top shape: 24 128 28 28 (2408448)
I0403 04:57:51.708676  2541 net.cpp:156] Memory required for data: 534675840
I0403 04:57:51.708693  2541 layer_factory.hpp:77] Creating layer inception_3a/5x5_reduce
I0403 04:57:51.708719  2541 net.cpp:91] Creating Layer inception_3a/5x5_reduce
I0403 04:57:51.708737  2541 net.cpp:425] inception_3a/5x5_reduce <- pool2/3x3_s2_pool2/3x3_s2_0_split_2
I0403 04:57:51.708757  2541 net.cpp:399] inception_3a/5x5_reduce -> inception_3a/5x5_reduce
I0403 04:57:51.708999  2541 net.cpp:141] Setting up inception_3a/5x5_reduce
I0403 04:57:51.709027  2541 net.cpp:148] Top shape: 24 16 28 28 (301056)
I0403 04:57:51.709043  2541 net.cpp:156] Memory required for data: 535880064
I0403 04:57:51.709063  2541 layer_factory.hpp:77] Creating layer inception_3a/relu_5x5_reduce
I0403 04:57:51.709084  2541 net.cpp:91] Creating Layer inception_3a/relu_5x5_reduce
I0403 04:57:51.709113  2541 net.cpp:425] inception_3a/relu_5x5_reduce <- inception_3a/5x5_reduce
I0403 04:57:51.709134  2541 net.cpp:386] inception_3a/relu_5x5_reduce -> inception_3a/5x5_reduce (in-place)
I0403 04:57:51.709156  2541 net.cpp:141] Setting up inception_3a/relu_5x5_reduce
I0403 04:57:51.709175  2541 net.cpp:148] Top shape: 24 16 28 28 (301056)
I0403 04:57:51.709192  2541 net.cpp:156] Memory required for data: 537084288
I0403 04:57:51.709208  2541 layer_factory.hpp:77] Creating layer inception_3a/5x5
I0403 04:57:51.709233  2541 net.cpp:91] Creating Layer inception_3a/5x5
I0403 04:57:51.709254  2541 net.cpp:425] inception_3a/5x5 <- inception_3a/5x5_reduce
I0403 04:57:51.709276  2541 net.cpp:399] inception_3a/5x5 -> inception_3a/5x5
I0403 04:57:51.709558  2541 net.cpp:141] Setting up inception_3a/5x5
I0403 04:57:51.709585  2541 net.cpp:148] Top shape: 24 32 28 28 (602112)
I0403 04:57:51.709617  2541 net.cpp:156] Memory required for data: 539492736
I0403 04:57:51.709638  2541 layer_factory.hpp:77] Creating layer inception_3a/relu_5x5
I0403 04:57:51.709658  2541 net.cpp:91] Creating Layer inception_3a/relu_5x5
I0403 04:57:51.709676  2541 net.cpp:425] inception_3a/relu_5x5 <- inception_3a/5x5
I0403 04:57:51.709694  2541 net.cpp:386] inception_3a/relu_5x5 -> inception_3a/5x5 (in-place)
I0403 04:57:51.709717  2541 net.cpp:141] Setting up inception_3a/relu_5x5
I0403 04:57:51.709736  2541 net.cpp:148] Top shape: 24 32 28 28 (602112)
I0403 04:57:51.709753  2541 net.cpp:156] Memory required for data: 541901184
I0403 04:57:51.709767  2541 layer_factory.hpp:77] Creating layer inception_3a/pool
I0403 04:57:51.709789  2541 net.cpp:91] Creating Layer inception_3a/pool
I0403 04:57:51.709808  2541 net.cpp:425] inception_3a/pool <- pool2/3x3_s2_pool2/3x3_s2_0_split_3
I0403 04:57:51.709828  2541 net.cpp:399] inception_3a/pool -> inception_3a/pool
I0403 04:57:51.709880  2541 net.cpp:141] Setting up inception_3a/pool
I0403 04:57:51.709905  2541 net.cpp:148] Top shape: 24 192 28 28 (3612672)
I0403 04:57:51.709920  2541 net.cpp:156] Memory required for data: 556351872
I0403 04:57:51.709936  2541 layer_factory.hpp:77] Creating layer inception_3a/pool_proj
I0403 04:57:51.709961  2541 net.cpp:91] Creating Layer inception_3a/pool_proj
I0403 04:57:51.709982  2541 net.cpp:425] inception_3a/pool_proj <- inception_3a/pool
I0403 04:57:51.710003  2541 net.cpp:399] inception_3a/pool_proj -> inception_3a/pool_proj
I0403 04:57:51.710253  2541 net.cpp:141] Setting up inception_3a/pool_proj
I0403 04:57:51.710281  2541 net.cpp:148] Top shape: 24 32 28 28 (602112)
I0403 04:57:51.710297  2541 net.cpp:156] Memory required for data: 558760320
I0403 04:57:51.710324  2541 layer_factory.hpp:77] Creating layer inception_3a/relu_pool_proj
I0403 04:57:51.710345  2541 net.cpp:91] Creating Layer inception_3a/relu_pool_proj
I0403 04:57:51.710363  2541 net.cpp:425] inception_3a/relu_pool_proj <- inception_3a/pool_proj
I0403 04:57:51.710382  2541 net.cpp:386] inception_3a/relu_pool_proj -> inception_3a/pool_proj (in-place)
I0403 04:57:51.710412  2541 net.cpp:141] Setting up inception_3a/relu_pool_proj
I0403 04:57:51.710432  2541 net.cpp:148] Top shape: 24 32 28 28 (602112)
I0403 04:57:51.710448  2541 net.cpp:156] Memory required for data: 561168768
I0403 04:57:51.710464  2541 layer_factory.hpp:77] Creating layer inception_3a/output
I0403 04:57:51.710482  2541 net.cpp:91] Creating Layer inception_3a/output
I0403 04:57:51.710500  2541 net.cpp:425] inception_3a/output <- inception_3a/1x1
I0403 04:57:51.710517  2541 net.cpp:425] inception_3a/output <- inception_3a/3x3
I0403 04:57:51.710533  2541 net.cpp:425] inception_3a/output <- inception_3a/5x5
I0403 04:57:51.710551  2541 net.cpp:425] inception_3a/output <- inception_3a/pool_proj
I0403 04:57:51.710572  2541 net.cpp:399] inception_3a/output -> inception_3a/output
I0403 04:57:51.710619  2541 net.cpp:141] Setting up inception_3a/output
I0403 04:57:51.710644  2541 net.cpp:148] Top shape: 24 256 28 28 (4816896)
I0403 04:57:51.710660  2541 net.cpp:156] Memory required for data: 580436352
I0403 04:57:51.710676  2541 layer_factory.hpp:77] Creating layer inception_3a/output_inception_3a/output_0_split
I0403 04:57:51.710695  2541 net.cpp:91] Creating Layer inception_3a/output_inception_3a/output_0_split
I0403 04:57:51.710713  2541 net.cpp:425] inception_3a/output_inception_3a/output_0_split <- inception_3a/output
I0403 04:57:51.710732  2541 net.cpp:399] inception_3a/output_inception_3a/output_0_split -> inception_3a/output_inception_3a/output_0_split_0
I0403 04:57:51.710758  2541 net.cpp:399] inception_3a/output_inception_3a/output_0_split -> inception_3a/output_inception_3a/output_0_split_1
I0403 04:57:51.710783  2541 net.cpp:399] inception_3a/output_inception_3a/output_0_split -> inception_3a/output_inception_3a/output_0_split_2
I0403 04:57:51.710805  2541 net.cpp:399] inception_3a/output_inception_3a/output_0_split -> inception_3a/output_inception_3a/output_0_split_3
I0403 04:57:51.710875  2541 net.cpp:141] Setting up inception_3a/output_inception_3a/output_0_split
I0403 04:57:51.710911  2541 net.cpp:148] Top shape: 24 256 28 28 (4816896)
I0403 04:57:51.710928  2541 net.cpp:148] Top shape: 24 256 28 28 (4816896)
I0403 04:57:51.710945  2541 net.cpp:148] Top shape: 24 256 28 28 (4816896)
I0403 04:57:51.710963  2541 net.cpp:148] Top shape: 24 256 28 28 (4816896)
I0403 04:57:51.710978  2541 net.cpp:156] Memory required for data: 657506688
I0403 04:57:51.710994  2541 layer_factory.hpp:77] Creating layer inception_3b/1x1
I0403 04:57:51.711019  2541 net.cpp:91] Creating Layer inception_3b/1x1
I0403 04:57:51.711041  2541 net.cpp:425] inception_3b/1x1 <- inception_3a/output_inception_3a/output_0_split_0
I0403 04:57:51.711062  2541 net.cpp:399] inception_3b/1x1 -> inception_3b/1x1
I0403 04:57:51.711463  2541 net.cpp:141] Setting up inception_3b/1x1
I0403 04:57:51.711490  2541 net.cpp:148] Top shape: 24 128 28 28 (2408448)
I0403 04:57:51.711506  2541 net.cpp:156] Memory required for data: 667140480
I0403 04:57:51.711525  2541 layer_factory.hpp:77] Creating layer inception_3b/relu_1x1
I0403 04:57:51.711547  2541 net.cpp:91] Creating Layer inception_3b/relu_1x1
I0403 04:57:51.711566  2541 net.cpp:425] inception_3b/relu_1x1 <- inception_3b/1x1
I0403 04:57:51.711585  2541 net.cpp:386] inception_3b/relu_1x1 -> inception_3b/1x1 (in-place)
I0403 04:57:51.711606  2541 net.cpp:141] Setting up inception_3b/relu_1x1
I0403 04:57:51.711624  2541 net.cpp:148] Top shape: 24 128 28 28 (2408448)
I0403 04:57:51.711639  2541 net.cpp:156] Memory required for data: 676774272
I0403 04:57:51.711654  2541 layer_factory.hpp:77] Creating layer inception_3b/3x3_reduce
I0403 04:57:51.711678  2541 net.cpp:91] Creating Layer inception_3b/3x3_reduce
I0403 04:57:51.711700  2541 net.cpp:425] inception_3b/3x3_reduce <- inception_3a/output_inception_3a/output_0_split_1
I0403 04:57:51.711724  2541 net.cpp:399] inception_3b/3x3_reduce -> inception_3b/3x3_reduce
I0403 04:57:51.712129  2541 net.cpp:141] Setting up inception_3b/3x3_reduce
I0403 04:57:51.712157  2541 net.cpp:148] Top shape: 24 128 28 28 (2408448)
I0403 04:57:51.712172  2541 net.cpp:156] Memory required for data: 686408064
I0403 04:57:51.712193  2541 layer_factory.hpp:77] Creating layer inception_3b/relu_3x3_reduce
I0403 04:57:51.712213  2541 net.cpp:91] Creating Layer inception_3b/relu_3x3_reduce
I0403 04:57:51.712231  2541 net.cpp:425] inception_3b/relu_3x3_reduce <- inception_3b/3x3_reduce
I0403 04:57:51.712250  2541 net.cpp:386] inception_3b/relu_3x3_reduce -> inception_3b/3x3_reduce (in-place)
I0403 04:57:51.712270  2541 net.cpp:141] Setting up inception_3b/relu_3x3_reduce
I0403 04:57:51.712290  2541 net.cpp:148] Top shape: 24 128 28 28 (2408448)
I0403 04:57:51.712304  2541 net.cpp:156] Memory required for data: 696041856
I0403 04:57:51.712321  2541 layer_factory.hpp:77] Creating layer inception_3b/3x3
I0403 04:57:51.712350  2541 net.cpp:91] Creating Layer inception_3b/3x3
I0403 04:57:51.712373  2541 net.cpp:425] inception_3b/3x3 <- inception_3b/3x3_reduce
I0403 04:57:51.712399  2541 net.cpp:399] inception_3b/3x3 -> inception_3b/3x3
I0403 04:57:51.714504  2541 net.cpp:141] Setting up inception_3b/3x3
I0403 04:57:51.714540  2541 net.cpp:148] Top shape: 24 192 28 28 (3612672)
I0403 04:57:51.714560  2541 net.cpp:156] Memory required for data: 710492544
I0403 04:57:51.714579  2541 layer_factory.hpp:77] Creating layer inception_3b/relu_3x3
I0403 04:57:51.714607  2541 net.cpp:91] Creating Layer inception_3b/relu_3x3
I0403 04:57:51.714627  2541 net.cpp:425] inception_3b/relu_3x3 <- inception_3b/3x3
I0403 04:57:51.714648  2541 net.cpp:386] inception_3b/relu_3x3 -> inception_3b/3x3 (in-place)
I0403 04:57:51.714682  2541 net.cpp:141] Setting up inception_3b/relu_3x3
I0403 04:57:51.714705  2541 net.cpp:148] Top shape: 24 192 28 28 (3612672)
I0403 04:57:51.714720  2541 net.cpp:156] Memory required for data: 724943232
I0403 04:57:51.714736  2541 layer_factory.hpp:77] Creating layer inception_3b/5x5_reduce
I0403 04:57:51.714761  2541 net.cpp:91] Creating Layer inception_3b/5x5_reduce
I0403 04:57:51.714781  2541 net.cpp:425] inception_3b/5x5_reduce <- inception_3a/output_inception_3a/output_0_split_2
I0403 04:57:51.714825  2541 net.cpp:399] inception_3b/5x5_reduce -> inception_3b/5x5_reduce
I0403 04:57:51.715101  2541 net.cpp:141] Setting up inception_3b/5x5_reduce
I0403 04:57:51.715136  2541 net.cpp:148] Top shape: 24 32 28 28 (602112)
I0403 04:57:51.715153  2541 net.cpp:156] Memory required for data: 727351680
I0403 04:57:51.715178  2541 layer_factory.hpp:77] Creating layer inception_3b/relu_5x5_reduce
I0403 04:57:51.715209  2541 net.cpp:91] Creating Layer inception_3b/relu_5x5_reduce
I0403 04:57:51.715229  2541 net.cpp:425] inception_3b/relu_5x5_reduce <- inception_3b/5x5_reduce
I0403 04:57:51.715247  2541 net.cpp:386] inception_3b/relu_5x5_reduce -> inception_3b/5x5_reduce (in-place)
I0403 04:57:51.715268  2541 net.cpp:141] Setting up inception_3b/relu_5x5_reduce
I0403 04:57:51.715287  2541 net.cpp:148] Top shape: 24 32 28 28 (602112)
I0403 04:57:51.715304  2541 net.cpp:156] Memory required for data: 729760128
I0403 04:57:51.715322  2541 layer_factory.hpp:77] Creating layer inception_3b/5x5
I0403 04:57:51.715349  2541 net.cpp:91] Creating Layer inception_3b/5x5
I0403 04:57:51.715374  2541 net.cpp:425] inception_3b/5x5 <- inception_3b/5x5_reduce
I0403 04:57:51.715410  2541 net.cpp:399] inception_3b/5x5 -> inception_3b/5x5
I0403 04:57:51.716675  2541 net.cpp:141] Setting up inception_3b/5x5
I0403 04:57:51.716709  2541 net.cpp:148] Top shape: 24 96 28 28 (1806336)
I0403 04:57:51.716729  2541 net.cpp:156] Memory required for data: 736985472
I0403 04:57:51.716753  2541 layer_factory.hpp:77] Creating layer inception_3b/relu_5x5
I0403 04:57:51.716773  2541 net.cpp:91] Creating Layer inception_3b/relu_5x5
I0403 04:57:51.716792  2541 net.cpp:425] inception_3b/relu_5x5 <- inception_3b/5x5
I0403 04:57:51.716815  2541 net.cpp:386] inception_3b/relu_5x5 -> inception_3b/5x5 (in-place)
I0403 04:57:51.716840  2541 net.cpp:141] Setting up inception_3b/relu_5x5
I0403 04:57:51.716861  2541 net.cpp:148] Top shape: 24 96 28 28 (1806336)
I0403 04:57:51.716876  2541 net.cpp:156] Memory required for data: 744210816
I0403 04:57:51.716892  2541 layer_factory.hpp:77] Creating layer inception_3b/pool
I0403 04:57:51.716912  2541 net.cpp:91] Creating Layer inception_3b/pool
I0403 04:57:51.716929  2541 net.cpp:425] inception_3b/pool <- inception_3a/output_inception_3a/output_0_split_3
I0403 04:57:51.716951  2541 net.cpp:399] inception_3b/pool -> inception_3b/pool
I0403 04:57:51.717006  2541 net.cpp:141] Setting up inception_3b/pool
I0403 04:57:51.717032  2541 net.cpp:148] Top shape: 24 256 28 28 (4816896)
I0403 04:57:51.717051  2541 net.cpp:156] Memory required for data: 763478400
I0403 04:57:51.717067  2541 layer_factory.hpp:77] Creating layer inception_3b/pool_proj
I0403 04:57:51.717092  2541 net.cpp:91] Creating Layer inception_3b/pool_proj
I0403 04:57:51.717119  2541 net.cpp:425] inception_3b/pool_proj <- inception_3b/pool
I0403 04:57:51.717149  2541 net.cpp:399] inception_3b/pool_proj -> inception_3b/pool_proj
I0403 04:57:51.717468  2541 net.cpp:141] Setting up inception_3b/pool_proj
I0403 04:57:51.717496  2541 net.cpp:148] Top shape: 24 64 28 28 (1204224)
I0403 04:57:51.717516  2541 net.cpp:156] Memory required for data: 768295296
I0403 04:57:51.717535  2541 layer_factory.hpp:77] Creating layer inception_3b/relu_pool_proj
I0403 04:57:51.717557  2541 net.cpp:91] Creating Layer inception_3b/relu_pool_proj
I0403 04:57:51.717577  2541 net.cpp:425] inception_3b/relu_pool_proj <- inception_3b/pool_proj
I0403 04:57:51.717598  2541 net.cpp:386] inception_3b/relu_pool_proj -> inception_3b/pool_proj (in-place)
I0403 04:57:51.717619  2541 net.cpp:141] Setting up inception_3b/relu_pool_proj
I0403 04:57:51.717641  2541 net.cpp:148] Top shape: 24 64 28 28 (1204224)
I0403 04:57:51.717660  2541 net.cpp:156] Memory required for data: 773112192
I0403 04:57:51.717679  2541 layer_factory.hpp:77] Creating layer inception_3b/output
I0403 04:57:51.717706  2541 net.cpp:91] Creating Layer inception_3b/output
I0403 04:57:51.717731  2541 net.cpp:425] inception_3b/output <- inception_3b/1x1
I0403 04:57:51.717766  2541 net.cpp:425] inception_3b/output <- inception_3b/3x3
I0403 04:57:51.717785  2541 net.cpp:425] inception_3b/output <- inception_3b/5x5
I0403 04:57:51.717803  2541 net.cpp:425] inception_3b/output <- inception_3b/pool_proj
I0403 04:57:51.717823  2541 net.cpp:399] inception_3b/output -> inception_3b/output
I0403 04:57:51.717861  2541 net.cpp:141] Setting up inception_3b/output
I0403 04:57:51.717890  2541 net.cpp:148] Top shape: 24 480 28 28 (9031680)
I0403 04:57:51.717908  2541 net.cpp:156] Memory required for data: 809238912
I0403 04:57:51.717934  2541 layer_factory.hpp:77] Creating layer pool3/3x3_s2
I0403 04:57:51.717954  2541 net.cpp:91] Creating Layer pool3/3x3_s2
I0403 04:57:51.717977  2541 net.cpp:425] pool3/3x3_s2 <- inception_3b/output
I0403 04:57:51.718000  2541 net.cpp:399] pool3/3x3_s2 -> pool3/3x3_s2
I0403 04:57:51.718050  2541 net.cpp:141] Setting up pool3/3x3_s2
I0403 04:57:51.718075  2541 net.cpp:148] Top shape: 24 480 14 14 (2257920)
I0403 04:57:51.718091  2541 net.cpp:156] Memory required for data: 818270592
I0403 04:57:51.718114  2541 layer_factory.hpp:77] Creating layer pool3/3x3_s2_pool3/3x3_s2_0_split
I0403 04:57:51.718138  2541 net.cpp:91] Creating Layer pool3/3x3_s2_pool3/3x3_s2_0_split
I0403 04:57:51.718160  2541 net.cpp:425] pool3/3x3_s2_pool3/3x3_s2_0_split <- pool3/3x3_s2
I0403 04:57:51.718183  2541 net.cpp:399] pool3/3x3_s2_pool3/3x3_s2_0_split -> pool3/3x3_s2_pool3/3x3_s2_0_split_0
I0403 04:57:51.718207  2541 net.cpp:399] pool3/3x3_s2_pool3/3x3_s2_0_split -> pool3/3x3_s2_pool3/3x3_s2_0_split_1
I0403 04:57:51.718231  2541 net.cpp:399] pool3/3x3_s2_pool3/3x3_s2_0_split -> pool3/3x3_s2_pool3/3x3_s2_0_split_2
I0403 04:57:51.718253  2541 net.cpp:399] pool3/3x3_s2_pool3/3x3_s2_0_split -> pool3/3x3_s2_pool3/3x3_s2_0_split_3
I0403 04:57:51.718322  2541 net.cpp:141] Setting up pool3/3x3_s2_pool3/3x3_s2_0_split
I0403 04:57:51.718348  2541 net.cpp:148] Top shape: 24 480 14 14 (2257920)
I0403 04:57:51.718365  2541 net.cpp:148] Top shape: 24 480 14 14 (2257920)
I0403 04:57:51.718384  2541 net.cpp:148] Top shape: 24 480 14 14 (2257920)
I0403 04:57:51.718403  2541 net.cpp:148] Top shape: 24 480 14 14 (2257920)
I0403 04:57:51.718418  2541 net.cpp:156] Memory required for data: 854397312
I0403 04:57:51.718433  2541 layer_factory.hpp:77] Creating layer inception_4a/1x1
I0403 04:57:51.718459  2541 net.cpp:91] Creating Layer inception_4a/1x1
I0403 04:57:51.718480  2541 net.cpp:425] inception_4a/1x1 <- pool3/3x3_s2_pool3/3x3_s2_0_split_0
I0403 04:57:51.718505  2541 net.cpp:399] inception_4a/1x1 -> inception_4a/1x1
I0403 04:57:51.719264  2541 net.cpp:141] Setting up inception_4a/1x1
I0403 04:57:51.719298  2541 net.cpp:148] Top shape: 24 192 14 14 (903168)
I0403 04:57:51.719319  2541 net.cpp:156] Memory required for data: 858009984
I0403 04:57:51.719338  2541 layer_factory.hpp:77] Creating layer inception_4a/relu_1x1
I0403 04:57:51.719360  2541 net.cpp:91] Creating Layer inception_4a/relu_1x1
I0403 04:57:51.719380  2541 net.cpp:425] inception_4a/relu_1x1 <- inception_4a/1x1
I0403 04:57:51.719403  2541 net.cpp:386] inception_4a/relu_1x1 -> inception_4a/1x1 (in-place)
I0403 04:57:51.719426  2541 net.cpp:141] Setting up inception_4a/relu_1x1
I0403 04:57:51.719449  2541 net.cpp:148] Top shape: 24 192 14 14 (903168)
I0403 04:57:51.719466  2541 net.cpp:156] Memory required for data: 861622656
I0403 04:57:51.719481  2541 layer_factory.hpp:77] Creating layer inception_4a/3x3_reduce
I0403 04:57:51.719506  2541 net.cpp:91] Creating Layer inception_4a/3x3_reduce
I0403 04:57:51.719527  2541 net.cpp:425] inception_4a/3x3_reduce <- pool3/3x3_s2_pool3/3x3_s2_0_split_1
I0403 04:57:51.719594  2541 net.cpp:399] inception_4a/3x3_reduce -> inception_4a/3x3_reduce
I0403 04:57:51.720123  2541 net.cpp:141] Setting up inception_4a/3x3_reduce
I0403 04:57:51.720150  2541 net.cpp:148] Top shape: 24 96 14 14 (451584)
I0403 04:57:51.720170  2541 net.cpp:156] Memory required for data: 863428992
I0403 04:57:51.720199  2541 layer_factory.hpp:77] Creating layer inception_4a/relu_3x3_reduce
I0403 04:57:51.720222  2541 net.cpp:91] Creating Layer inception_4a/relu_3x3_reduce
I0403 04:57:51.720257  2541 net.cpp:425] inception_4a/relu_3x3_reduce <- inception_4a/3x3_reduce
I0403 04:57:51.720278  2541 net.cpp:386] inception_4a/relu_3x3_reduce -> inception_4a/3x3_reduce (in-place)
I0403 04:57:51.720301  2541 net.cpp:141] Setting up inception_4a/relu_3x3_reduce
I0403 04:57:51.720321  2541 net.cpp:148] Top shape: 24 96 14 14 (451584)
I0403 04:57:51.720336  2541 net.cpp:156] Memory required for data: 865235328
I0403 04:57:51.720355  2541 layer_factory.hpp:77] Creating layer inception_4a/3x3
I0403 04:57:51.720384  2541 net.cpp:91] Creating Layer inception_4a/3x3
I0403 04:57:51.720412  2541 net.cpp:425] inception_4a/3x3 <- inception_4a/3x3_reduce
I0403 04:57:51.720437  2541 net.cpp:399] inception_4a/3x3 -> inception_4a/3x3
I0403 04:57:51.722306  2541 net.cpp:141] Setting up inception_4a/3x3
I0403 04:57:51.722340  2541 net.cpp:148] Top shape: 24 208 14 14 (978432)
I0403 04:57:51.722360  2541 net.cpp:156] Memory required for data: 869149056
I0403 04:57:51.722380  2541 layer_factory.hpp:77] Creating layer inception_4a/relu_3x3
I0403 04:57:51.722412  2541 net.cpp:91] Creating Layer inception_4a/relu_3x3
I0403 04:57:51.722431  2541 net.cpp:425] inception_4a/relu_3x3 <- inception_4a/3x3
I0403 04:57:51.722451  2541 net.cpp:386] inception_4a/relu_3x3 -> inception_4a/3x3 (in-place)
I0403 04:57:51.722472  2541 net.cpp:141] Setting up inception_4a/relu_3x3
I0403 04:57:51.722491  2541 net.cpp:148] Top shape: 24 208 14 14 (978432)
I0403 04:57:51.722507  2541 net.cpp:156] Memory required for data: 873062784
I0403 04:57:51.722523  2541 layer_factory.hpp:77] Creating layer inception_4a/5x5_reduce
I0403 04:57:51.722548  2541 net.cpp:91] Creating Layer inception_4a/5x5_reduce
I0403 04:57:51.722568  2541 net.cpp:425] inception_4a/5x5_reduce <- pool3/3x3_s2_pool3/3x3_s2_0_split_2
I0403 04:57:51.722589  2541 net.cpp:399] inception_4a/5x5_reduce -> inception_4a/5x5_reduce
I0403 04:57:51.722851  2541 net.cpp:141] Setting up inception_4a/5x5_reduce
I0403 04:57:51.722880  2541 net.cpp:148] Top shape: 24 16 14 14 (75264)
I0403 04:57:51.722898  2541 net.cpp:156] Memory required for data: 873363840
I0403 04:57:51.722918  2541 layer_factory.hpp:77] Creating layer inception_4a/relu_5x5_reduce
I0403 04:57:51.722939  2541 net.cpp:91] Creating Layer inception_4a/relu_5x5_reduce
I0403 04:57:51.722956  2541 net.cpp:425] inception_4a/relu_5x5_reduce <- inception_4a/5x5_reduce
I0403 04:57:51.722975  2541 net.cpp:386] inception_4a/relu_5x5_reduce -> inception_4a/5x5_reduce (in-place)
I0403 04:57:51.722995  2541 net.cpp:141] Setting up inception_4a/relu_5x5_reduce
I0403 04:57:51.723016  2541 net.cpp:148] Top shape: 24 16 14 14 (75264)
I0403 04:57:51.723031  2541 net.cpp:156] Memory required for data: 873664896
I0403 04:57:51.723047  2541 layer_factory.hpp:77] Creating layer inception_4a/5x5
I0403 04:57:51.723073  2541 net.cpp:91] Creating Layer inception_4a/5x5
I0403 04:57:51.723103  2541 net.cpp:425] inception_4a/5x5 <- inception_4a/5x5_reduce
I0403 04:57:51.723129  2541 net.cpp:399] inception_4a/5x5 -> inception_4a/5x5
I0403 04:57:51.723462  2541 net.cpp:141] Setting up inception_4a/5x5
I0403 04:57:51.723489  2541 net.cpp:148] Top shape: 24 48 14 14 (225792)
I0403 04:57:51.723505  2541 net.cpp:156] Memory required for data: 874568064
I0403 04:57:51.723525  2541 layer_factory.hpp:77] Creating layer inception_4a/relu_5x5
I0403 04:57:51.723544  2541 net.cpp:91] Creating Layer inception_4a/relu_5x5
I0403 04:57:51.723562  2541 net.cpp:425] inception_4a/relu_5x5 <- inception_4a/5x5
I0403 04:57:51.723583  2541 net.cpp:386] inception_4a/relu_5x5 -> inception_4a/5x5 (in-place)
I0403 04:57:51.723606  2541 net.cpp:141] Setting up inception_4a/relu_5x5
I0403 04:57:51.723625  2541 net.cpp:148] Top shape: 24 48 14 14 (225792)
I0403 04:57:51.723640  2541 net.cpp:156] Memory required for data: 875471232
I0403 04:57:51.723655  2541 layer_factory.hpp:77] Creating layer inception_4a/pool
I0403 04:57:51.723675  2541 net.cpp:91] Creating Layer inception_4a/pool
I0403 04:57:51.723696  2541 net.cpp:425] inception_4a/pool <- pool3/3x3_s2_pool3/3x3_s2_0_split_3
I0403 04:57:51.723737  2541 net.cpp:399] inception_4a/pool -> inception_4a/pool
I0403 04:57:51.723790  2541 net.cpp:141] Setting up inception_4a/pool
I0403 04:57:51.723819  2541 net.cpp:148] Top shape: 24 480 14 14 (2257920)
I0403 04:57:51.723835  2541 net.cpp:156] Memory required for data: 884502912
I0403 04:57:51.723851  2541 layer_factory.hpp:77] Creating layer inception_4a/pool_proj
I0403 04:57:51.723873  2541 net.cpp:91] Creating Layer inception_4a/pool_proj
I0403 04:57:51.723892  2541 net.cpp:425] inception_4a/pool_proj <- inception_4a/pool
I0403 04:57:51.723917  2541 net.cpp:399] inception_4a/pool_proj -> inception_4a/pool_proj
I0403 04:57:51.724314  2541 net.cpp:141] Setting up inception_4a/pool_proj
I0403 04:57:51.724341  2541 net.cpp:148] Top shape: 24 64 14 14 (301056)
I0403 04:57:51.724359  2541 net.cpp:156] Memory required for data: 885707136
I0403 04:57:51.724378  2541 layer_factory.hpp:77] Creating layer inception_4a/relu_pool_proj
I0403 04:57:51.724398  2541 net.cpp:91] Creating Layer inception_4a/relu_pool_proj
I0403 04:57:51.724416  2541 net.cpp:425] inception_4a/relu_pool_proj <- inception_4a/pool_proj
I0403 04:57:51.724436  2541 net.cpp:386] inception_4a/relu_pool_proj -> inception_4a/pool_proj (in-place)
I0403 04:57:51.724459  2541 net.cpp:141] Setting up inception_4a/relu_pool_proj
I0403 04:57:51.724479  2541 net.cpp:148] Top shape: 24 64 14 14 (301056)
I0403 04:57:51.724495  2541 net.cpp:156] Memory required for data: 886911360
I0403 04:57:51.724510  2541 layer_factory.hpp:77] Creating layer inception_4a/output
I0403 04:57:51.724529  2541 net.cpp:91] Creating Layer inception_4a/output
I0403 04:57:51.724546  2541 net.cpp:425] inception_4a/output <- inception_4a/1x1
I0403 04:57:51.724563  2541 net.cpp:425] inception_4a/output <- inception_4a/3x3
I0403 04:57:51.724581  2541 net.cpp:425] inception_4a/output <- inception_4a/5x5
I0403 04:57:51.724598  2541 net.cpp:425] inception_4a/output <- inception_4a/pool_proj
I0403 04:57:51.724617  2541 net.cpp:399] inception_4a/output -> inception_4a/output
I0403 04:57:51.724658  2541 net.cpp:141] Setting up inception_4a/output
I0403 04:57:51.724684  2541 net.cpp:148] Top shape: 24 512 14 14 (2408448)
I0403 04:57:51.724699  2541 net.cpp:156] Memory required for data: 896545152
I0403 04:57:51.724715  2541 layer_factory.hpp:77] Creating layer inception_4a/output_inception_4a/output_0_split
I0403 04:57:51.724735  2541 net.cpp:91] Creating Layer inception_4a/output_inception_4a/output_0_split
I0403 04:57:51.724751  2541 net.cpp:425] inception_4a/output_inception_4a/output_0_split <- inception_4a/output
I0403 04:57:51.724774  2541 net.cpp:399] inception_4a/output_inception_4a/output_0_split -> inception_4a/output_inception_4a/output_0_split_0
I0403 04:57:51.724797  2541 net.cpp:399] inception_4a/output_inception_4a/output_0_split -> inception_4a/output_inception_4a/output_0_split_1
I0403 04:57:51.724817  2541 net.cpp:399] inception_4a/output_inception_4a/output_0_split -> inception_4a/output_inception_4a/output_0_split_2
I0403 04:57:51.724840  2541 net.cpp:399] inception_4a/output_inception_4a/output_0_split -> inception_4a/output_inception_4a/output_0_split_3
I0403 04:57:51.724863  2541 net.cpp:399] inception_4a/output_inception_4a/output_0_split -> inception_4a/output_inception_4a/output_0_split_4
I0403 04:57:51.724942  2541 net.cpp:141] Setting up inception_4a/output_inception_4a/output_0_split
I0403 04:57:51.724967  2541 net.cpp:148] Top shape: 24 512 14 14 (2408448)
I0403 04:57:51.724985  2541 net.cpp:148] Top shape: 24 512 14 14 (2408448)
I0403 04:57:51.725003  2541 net.cpp:148] Top shape: 24 512 14 14 (2408448)
I0403 04:57:51.725018  2541 net.cpp:148] Top shape: 24 512 14 14 (2408448)
I0403 04:57:51.725035  2541 net.cpp:148] Top shape: 24 512 14 14 (2408448)
I0403 04:57:51.725050  2541 net.cpp:156] Memory required for data: 944714112
I0403 04:57:51.725067  2541 layer_factory.hpp:77] Creating layer loss1/ave_pool
I0403 04:57:51.725086  2541 net.cpp:91] Creating Layer loss1/ave_pool
I0403 04:57:51.725108  2541 net.cpp:425] loss1/ave_pool <- inception_4a/output_inception_4a/output_0_split_0
I0403 04:57:51.725145  2541 net.cpp:399] loss1/ave_pool -> loss1/ave_pool
I0403 04:57:51.725188  2541 net.cpp:141] Setting up loss1/ave_pool
I0403 04:57:51.725214  2541 net.cpp:148] Top shape: 24 512 4 4 (196608)
I0403 04:57:51.725232  2541 net.cpp:156] Memory required for data: 945500544
I0403 04:57:51.725250  2541 layer_factory.hpp:77] Creating layer loss1/conv
I0403 04:57:51.725271  2541 net.cpp:91] Creating Layer loss1/conv
I0403 04:57:51.725289  2541 net.cpp:425] loss1/conv <- loss1/ave_pool
I0403 04:57:51.725312  2541 net.cpp:399] loss1/conv -> loss1/conv
I0403 04:57:51.725904  2541 net.cpp:141] Setting up loss1/conv
I0403 04:57:51.725931  2541 net.cpp:148] Top shape: 24 128 4 4 (49152)
I0403 04:57:51.725949  2541 net.cpp:156] Memory required for data: 945697152
I0403 04:57:51.725967  2541 layer_factory.hpp:77] Creating layer loss1/relu_conv
I0403 04:57:51.725986  2541 net.cpp:91] Creating Layer loss1/relu_conv
I0403 04:57:51.726003  2541 net.cpp:425] loss1/relu_conv <- loss1/conv
I0403 04:57:51.726022  2541 net.cpp:386] loss1/relu_conv -> loss1/conv (in-place)
I0403 04:57:51.726042  2541 net.cpp:141] Setting up loss1/relu_conv
I0403 04:57:51.726061  2541 net.cpp:148] Top shape: 24 128 4 4 (49152)
I0403 04:57:51.726078  2541 net.cpp:156] Memory required for data: 945893760
I0403 04:57:51.726092  2541 layer_factory.hpp:77] Creating layer loss1/fc
I0403 04:57:51.726130  2541 net.cpp:91] Creating Layer loss1/fc
I0403 04:57:51.726150  2541 net.cpp:425] loss1/fc <- loss1/conv
I0403 04:57:51.726171  2541 net.cpp:399] loss1/fc -> loss1/fc
I0403 04:57:51.742913  2541 net.cpp:141] Setting up loss1/fc
I0403 04:57:51.742959  2541 net.cpp:148] Top shape: 24 1024 (24576)
I0403 04:57:51.742979  2541 net.cpp:156] Memory required for data: 945992064
I0403 04:57:51.743000  2541 layer_factory.hpp:77] Creating layer loss1/relu_fc
I0403 04:57:51.743023  2541 net.cpp:91] Creating Layer loss1/relu_fc
I0403 04:57:51.743041  2541 net.cpp:425] loss1/relu_fc <- loss1/fc
I0403 04:57:51.743060  2541 net.cpp:386] loss1/relu_fc -> loss1/fc (in-place)
I0403 04:57:51.743088  2541 net.cpp:141] Setting up loss1/relu_fc
I0403 04:57:51.743120  2541 net.cpp:148] Top shape: 24 1024 (24576)
I0403 04:57:51.743137  2541 net.cpp:156] Memory required for data: 946090368
I0403 04:57:51.743154  2541 layer_factory.hpp:77] Creating layer loss1/drop_fc
I0403 04:57:51.743187  2541 net.cpp:91] Creating Layer loss1/drop_fc
I0403 04:57:51.743207  2541 net.cpp:425] loss1/drop_fc <- loss1/fc
I0403 04:57:51.743227  2541 net.cpp:386] loss1/drop_fc -> loss1/fc (in-place)
I0403 04:57:51.743278  2541 net.cpp:141] Setting up loss1/drop_fc
I0403 04:57:51.743305  2541 net.cpp:148] Top shape: 24 1024 (24576)
I0403 04:57:51.743325  2541 net.cpp:156] Memory required for data: 946188672
I0403 04:57:51.743342  2541 layer_factory.hpp:77] Creating layer loss1/classifier_plantvillage
I0403 04:57:51.743365  2541 net.cpp:91] Creating Layer loss1/classifier_plantvillage
I0403 04:57:51.743382  2541 net.cpp:425] loss1/classifier_plantvillage <- loss1/fc
I0403 04:57:51.743404  2541 net.cpp:399] loss1/classifier_plantvillage -> loss1/classifier_plantvillage
I0403 04:57:51.744293  2541 net.cpp:141] Setting up loss1/classifier_plantvillage
I0403 04:57:51.744324  2541 net.cpp:148] Top shape: 24 38 (912)
I0403 04:57:51.744343  2541 net.cpp:156] Memory required for data: 946192320
I0403 04:57:51.744362  2541 layer_factory.hpp:77] Creating layer inception_4b/1x1
I0403 04:57:51.744388  2541 net.cpp:91] Creating Layer inception_4b/1x1
I0403 04:57:51.744410  2541 net.cpp:425] inception_4b/1x1 <- inception_4a/output_inception_4a/output_0_split_1
I0403 04:57:51.744433  2541 net.cpp:399] inception_4b/1x1 -> inception_4b/1x1
I0403 04:57:51.745142  2541 net.cpp:141] Setting up inception_4b/1x1
I0403 04:57:51.745170  2541 net.cpp:148] Top shape: 24 160 14 14 (752640)
I0403 04:57:51.745187  2541 net.cpp:156] Memory required for data: 949202880
I0403 04:57:51.745206  2541 layer_factory.hpp:77] Creating layer inception_4b/relu_1x1
I0403 04:57:51.745244  2541 net.cpp:91] Creating Layer inception_4b/relu_1x1
I0403 04:57:51.745263  2541 net.cpp:425] inception_4b/relu_1x1 <- inception_4b/1x1
I0403 04:57:51.745283  2541 net.cpp:386] inception_4b/relu_1x1 -> inception_4b/1x1 (in-place)
I0403 04:57:51.745304  2541 net.cpp:141] Setting up inception_4b/relu_1x1
I0403 04:57:51.745324  2541 net.cpp:148] Top shape: 24 160 14 14 (752640)
I0403 04:57:51.745340  2541 net.cpp:156] Memory required for data: 952213440
I0403 04:57:51.745355  2541 layer_factory.hpp:77] Creating layer inception_4b/3x3_reduce
I0403 04:57:51.745380  2541 net.cpp:91] Creating Layer inception_4b/3x3_reduce
I0403 04:57:51.745399  2541 net.cpp:425] inception_4b/3x3_reduce <- inception_4a/output_inception_4a/output_0_split_2
I0403 04:57:51.745422  2541 net.cpp:399] inception_4b/3x3_reduce -> inception_4b/3x3_reduce
I0403 04:57:51.745973  2541 net.cpp:141] Setting up inception_4b/3x3_reduce
I0403 04:57:51.746001  2541 net.cpp:148] Top shape: 24 112 14 14 (526848)
I0403 04:57:51.746017  2541 net.cpp:156] Memory required for data: 954320832
I0403 04:57:51.746037  2541 layer_factory.hpp:77] Creating layer inception_4b/relu_3x3_reduce
I0403 04:57:51.746055  2541 net.cpp:91] Creating Layer inception_4b/relu_3x3_reduce
I0403 04:57:51.746074  2541 net.cpp:425] inception_4b/relu_3x3_reduce <- inception_4b/3x3_reduce
I0403 04:57:51.746093  2541 net.cpp:386] inception_4b/relu_3x3_reduce -> inception_4b/3x3_reduce (in-place)
I0403 04:57:51.746129  2541 net.cpp:141] Setting up inception_4b/relu_3x3_reduce
I0403 04:57:51.746150  2541 net.cpp:148] Top shape: 24 112 14 14 (526848)
I0403 04:57:51.746165  2541 net.cpp:156] Memory required for data: 956428224
I0403 04:57:51.746181  2541 layer_factory.hpp:77] Creating layer inception_4b/3x3
I0403 04:57:51.746206  2541 net.cpp:91] Creating Layer inception_4b/3x3
I0403 04:57:51.746225  2541 net.cpp:425] inception_4b/3x3 <- inception_4b/3x3_reduce
I0403 04:57:51.746248  2541 net.cpp:399] inception_4b/3x3 -> inception_4b/3x3
I0403 04:57:51.748334  2541 net.cpp:141] Setting up inception_4b/3x3
I0403 04:57:51.748363  2541 net.cpp:148] Top shape: 24 224 14 14 (1053696)
I0403 04:57:51.748381  2541 net.cpp:156] Memory required for data: 960643008
I0403 04:57:51.748401  2541 layer_factory.hpp:77] Creating layer inception_4b/relu_3x3
I0403 04:57:51.748422  2541 net.cpp:91] Creating Layer inception_4b/relu_3x3
I0403 04:57:51.748440  2541 net.cpp:425] inception_4b/relu_3x3 <- inception_4b/3x3
I0403 04:57:51.748458  2541 net.cpp:386] inception_4b/relu_3x3 -> inception_4b/3x3 (in-place)
I0403 04:57:51.748481  2541 net.cpp:141] Setting up inception_4b/relu_3x3
I0403 04:57:51.748500  2541 net.cpp:148] Top shape: 24 224 14 14 (1053696)
I0403 04:57:51.748517  2541 net.cpp:156] Memory required for data: 964857792
I0403 04:57:51.748531  2541 layer_factory.hpp:77] Creating layer inception_4b/5x5_reduce
I0403 04:57:51.748555  2541 net.cpp:91] Creating Layer inception_4b/5x5_reduce
I0403 04:57:51.748575  2541 net.cpp:425] inception_4b/5x5_reduce <- inception_4a/output_inception_4a/output_0_split_3
I0403 04:57:51.748599  2541 net.cpp:399] inception_4b/5x5_reduce -> inception_4b/5x5_reduce
I0403 04:57:51.748898  2541 net.cpp:141] Setting up inception_4b/5x5_reduce
I0403 04:57:51.748924  2541 net.cpp:148] Top shape: 24 24 14 14 (112896)
I0403 04:57:51.748940  2541 net.cpp:156] Memory required for data: 965309376
I0403 04:57:51.748960  2541 layer_factory.hpp:77] Creating layer inception_4b/relu_5x5_reduce
I0403 04:57:51.748981  2541 net.cpp:91] Creating Layer inception_4b/relu_5x5_reduce
I0403 04:57:51.749001  2541 net.cpp:425] inception_4b/relu_5x5_reduce <- inception_4b/5x5_reduce
I0403 04:57:51.749020  2541 net.cpp:386] inception_4b/relu_5x5_reduce -> inception_4b/5x5_reduce (in-place)
I0403 04:57:51.749040  2541 net.cpp:141] Setting up inception_4b/relu_5x5_reduce
I0403 04:57:51.749059  2541 net.cpp:148] Top shape: 24 24 14 14 (112896)
I0403 04:57:51.749074  2541 net.cpp:156] Memory required for data: 965760960
I0403 04:57:51.749089  2541 layer_factory.hpp:77] Creating layer inception_4b/5x5
I0403 04:57:51.749135  2541 net.cpp:91] Creating Layer inception_4b/5x5
I0403 04:57:51.749155  2541 net.cpp:425] inception_4b/5x5 <- inception_4b/5x5_reduce
I0403 04:57:51.749181  2541 net.cpp:399] inception_4b/5x5 -> inception_4b/5x5
I0403 04:57:51.749629  2541 net.cpp:141] Setting up inception_4b/5x5
I0403 04:57:51.749656  2541 net.cpp:148] Top shape: 24 64 14 14 (301056)
I0403 04:57:51.749672  2541 net.cpp:156] Memory required for data: 966965184
I0403 04:57:51.749691  2541 layer_factory.hpp:77] Creating layer inception_4b/relu_5x5
I0403 04:57:51.749711  2541 net.cpp:91] Creating Layer inception_4b/relu_5x5
I0403 04:57:51.749730  2541 net.cpp:425] inception_4b/relu_5x5 <- inception_4b/5x5
I0403 04:57:51.749750  2541 net.cpp:386] inception_4b/relu_5x5 -> inception_4b/5x5 (in-place)
I0403 04:57:51.749770  2541 net.cpp:141] Setting up inception_4b/relu_5x5
I0403 04:57:51.749788  2541 net.cpp:148] Top shape: 24 64 14 14 (301056)
I0403 04:57:51.749804  2541 net.cpp:156] Memory required for data: 968169408
I0403 04:57:51.749820  2541 layer_factory.hpp:77] Creating layer inception_4b/pool
I0403 04:57:51.749841  2541 net.cpp:91] Creating Layer inception_4b/pool
I0403 04:57:51.749860  2541 net.cpp:425] inception_4b/pool <- inception_4a/output_inception_4a/output_0_split_4
I0403 04:57:51.749879  2541 net.cpp:399] inception_4b/pool -> inception_4b/pool
I0403 04:57:51.749935  2541 net.cpp:141] Setting up inception_4b/pool
I0403 04:57:51.749961  2541 net.cpp:148] Top shape: 24 512 14 14 (2408448)
I0403 04:57:51.749977  2541 net.cpp:156] Memory required for data: 977803200
I0403 04:57:51.749994  2541 layer_factory.hpp:77] Creating layer inception_4b/pool_proj
I0403 04:57:51.750017  2541 net.cpp:91] Creating Layer inception_4b/pool_proj
I0403 04:57:51.750037  2541 net.cpp:425] inception_4b/pool_proj <- inception_4b/pool
I0403 04:57:51.750058  2541 net.cpp:399] inception_4b/pool_proj -> inception_4b/pool_proj
I0403 04:57:51.750479  2541 net.cpp:141] Setting up inception_4b/pool_proj
I0403 04:57:51.750507  2541 net.cpp:148] Top shape: 24 64 14 14 (301056)
I0403 04:57:51.750524  2541 net.cpp:156] Memory required for data: 979007424
I0403 04:57:51.750545  2541 layer_factory.hpp:77] Creating layer inception_4b/relu_pool_proj
I0403 04:57:51.750565  2541 net.cpp:91] Creating Layer inception_4b/relu_pool_proj
I0403 04:57:51.750581  2541 net.cpp:425] inception_4b/relu_pool_proj <- inception_4b/pool_proj
I0403 04:57:51.750603  2541 net.cpp:386] inception_4b/relu_pool_proj -> inception_4b/pool_proj (in-place)
I0403 04:57:51.750625  2541 net.cpp:141] Setting up inception_4b/relu_pool_proj
I0403 04:57:51.750645  2541 net.cpp:148] Top shape: 24 64 14 14 (301056)
I0403 04:57:51.750661  2541 net.cpp:156] Memory required for data: 980211648
I0403 04:57:51.750677  2541 layer_factory.hpp:77] Creating layer inception_4b/output
I0403 04:57:51.750696  2541 net.cpp:91] Creating Layer inception_4b/output
I0403 04:57:51.750715  2541 net.cpp:425] inception_4b/output <- inception_4b/1x1
I0403 04:57:51.750731  2541 net.cpp:425] inception_4b/output <- inception_4b/3x3
I0403 04:57:51.750749  2541 net.cpp:425] inception_4b/output <- inception_4b/5x5
I0403 04:57:51.750767  2541 net.cpp:425] inception_4b/output <- inception_4b/pool_proj
I0403 04:57:51.750785  2541 net.cpp:399] inception_4b/output -> inception_4b/output
I0403 04:57:51.750826  2541 net.cpp:141] Setting up inception_4b/output
I0403 04:57:51.750851  2541 net.cpp:148] Top shape: 24 512 14 14 (2408448)
I0403 04:57:51.750867  2541 net.cpp:156] Memory required for data: 989845440
I0403 04:57:51.750883  2541 layer_factory.hpp:77] Creating layer inception_4b/output_inception_4b/output_0_split
I0403 04:57:51.750903  2541 net.cpp:91] Creating Layer inception_4b/output_inception_4b/output_0_split
I0403 04:57:51.750921  2541 net.cpp:425] inception_4b/output_inception_4b/output_0_split <- inception_4b/output
I0403 04:57:51.750942  2541 net.cpp:399] inception_4b/output_inception_4b/output_0_split -> inception_4b/output_inception_4b/output_0_split_0
I0403 04:57:51.750967  2541 net.cpp:399] inception_4b/output_inception_4b/output_0_split -> inception_4b/output_inception_4b/output_0_split_1
I0403 04:57:51.751003  2541 net.cpp:399] inception_4b/output_inception_4b/output_0_split -> inception_4b/output_inception_4b/output_0_split_2
I0403 04:57:51.751027  2541 net.cpp:399] inception_4b/output_inception_4b/output_0_split -> inception_4b/output_inception_4b/output_0_split_3
I0403 04:57:51.751116  2541 net.cpp:141] Setting up inception_4b/output_inception_4b/output_0_split
I0403 04:57:51.751142  2541 net.cpp:148] Top shape: 24 512 14 14 (2408448)
I0403 04:57:51.751159  2541 net.cpp:148] Top shape: 24 512 14 14 (2408448)
I0403 04:57:51.751175  2541 net.cpp:148] Top shape: 24 512 14 14 (2408448)
I0403 04:57:51.751193  2541 net.cpp:148] Top shape: 24 512 14 14 (2408448)
I0403 04:57:51.751207  2541 net.cpp:156] Memory required for data: 1028380608
I0403 04:57:51.751224  2541 layer_factory.hpp:77] Creating layer inception_4c/1x1
I0403 04:57:51.751247  2541 net.cpp:91] Creating Layer inception_4c/1x1
I0403 04:57:51.751267  2541 net.cpp:425] inception_4c/1x1 <- inception_4b/output_inception_4b/output_0_split_0
I0403 04:57:51.751287  2541 net.cpp:399] inception_4c/1x1 -> inception_4c/1x1
I0403 04:57:51.751881  2541 net.cpp:141] Setting up inception_4c/1x1
I0403 04:57:51.751909  2541 net.cpp:148] Top shape: 24 128 14 14 (602112)
I0403 04:57:51.751925  2541 net.cpp:156] Memory required for data: 1030789056
I0403 04:57:51.751945  2541 layer_factory.hpp:77] Creating layer inception_4c/relu_1x1
I0403 04:57:51.751965  2541 net.cpp:91] Creating Layer inception_4c/relu_1x1
I0403 04:57:51.751982  2541 net.cpp:425] inception_4c/relu_1x1 <- inception_4c/1x1
I0403 04:57:51.752004  2541 net.cpp:386] inception_4c/relu_1x1 -> inception_4c/1x1 (in-place)
I0403 04:57:51.752027  2541 net.cpp:141] Setting up inception_4c/relu_1x1
I0403 04:57:51.752046  2541 net.cpp:148] Top shape: 24 128 14 14 (602112)
I0403 04:57:51.752063  2541 net.cpp:156] Memory required for data: 1033197504
I0403 04:57:51.752079  2541 layer_factory.hpp:77] Creating layer inception_4c/3x3_reduce
I0403 04:57:51.752106  2541 net.cpp:91] Creating Layer inception_4c/3x3_reduce
I0403 04:57:51.752127  2541 net.cpp:425] inception_4c/3x3_reduce <- inception_4b/output_inception_4b/output_0_split_1
I0403 04:57:51.752147  2541 net.cpp:399] inception_4c/3x3_reduce -> inception_4c/3x3_reduce
I0403 04:57:51.753885  2541 net.cpp:141] Setting up inception_4c/3x3_reduce
I0403 04:57:51.753916  2541 net.cpp:148] Top shape: 24 128 14 14 (602112)
I0403 04:57:51.753934  2541 net.cpp:156] Memory required for data: 1035605952
I0403 04:57:51.753954  2541 layer_factory.hpp:77] Creating layer inception_4c/relu_3x3_reduce
I0403 04:57:51.753975  2541 net.cpp:91] Creating Layer inception_4c/relu_3x3_reduce
I0403 04:57:51.753993  2541 net.cpp:425] inception_4c/relu_3x3_reduce <- inception_4c/3x3_reduce
I0403 04:57:51.754012  2541 net.cpp:386] inception_4c/relu_3x3_reduce -> inception_4c/3x3_reduce (in-place)
I0403 04:57:51.754034  2541 net.cpp:141] Setting up inception_4c/relu_3x3_reduce
I0403 04:57:51.754053  2541 net.cpp:148] Top shape: 24 128 14 14 (602112)
I0403 04:57:51.754070  2541 net.cpp:156] Memory required for data: 1038014400
I0403 04:57:51.754084  2541 layer_factory.hpp:77] Creating layer inception_4c/3x3
I0403 04:57:51.754117  2541 net.cpp:91] Creating Layer inception_4c/3x3
I0403 04:57:51.754137  2541 net.cpp:425] inception_4c/3x3 <- inception_4c/3x3_reduce
I0403 04:57:51.754159  2541 net.cpp:399] inception_4c/3x3 -> inception_4c/3x3
I0403 04:57:51.756703  2541 net.cpp:141] Setting up inception_4c/3x3
I0403 04:57:51.756733  2541 net.cpp:148] Top shape: 24 256 14 14 (1204224)
I0403 04:57:51.756750  2541 net.cpp:156] Memory required for data: 1042831296
I0403 04:57:51.756783  2541 layer_factory.hpp:77] Creating layer inception_4c/relu_3x3
I0403 04:57:51.756808  2541 net.cpp:91] Creating Layer inception_4c/relu_3x3
I0403 04:57:51.756829  2541 net.cpp:425] inception_4c/relu_3x3 <- inception_4c/3x3
I0403 04:57:51.756847  2541 net.cpp:386] inception_4c/relu_3x3 -> inception_4c/3x3 (in-place)
I0403 04:57:51.756889  2541 net.cpp:141] Setting up inception_4c/relu_3x3
I0403 04:57:51.756909  2541 net.cpp:148] Top shape: 24 256 14 14 (1204224)
I0403 04:57:51.756925  2541 net.cpp:156] Memory required for data: 1047648192
I0403 04:57:51.756942  2541 layer_factory.hpp:77] Creating layer inception_4c/5x5_reduce
I0403 04:57:51.756966  2541 net.cpp:91] Creating Layer inception_4c/5x5_reduce
I0403 04:57:51.756986  2541 net.cpp:425] inception_4c/5x5_reduce <- inception_4b/output_inception_4b/output_0_split_2
I0403 04:57:51.757007  2541 net.cpp:399] inception_4c/5x5_reduce -> inception_4c/5x5_reduce
I0403 04:57:51.757313  2541 net.cpp:141] Setting up inception_4c/5x5_reduce
I0403 04:57:51.757340  2541 net.cpp:148] Top shape: 24 24 14 14 (112896)
I0403 04:57:51.757357  2541 net.cpp:156] Memory required for data: 1048099776
I0403 04:57:51.757376  2541 layer_factory.hpp:77] Creating layer inception_4c/relu_5x5_reduce
I0403 04:57:51.757397  2541 net.cpp:91] Creating Layer inception_4c/relu_5x5_reduce
I0403 04:57:51.757416  2541 net.cpp:425] inception_4c/relu_5x5_reduce <- inception_4c/5x5_reduce
I0403 04:57:51.757438  2541 net.cpp:386] inception_4c/relu_5x5_reduce -> inception_4c/5x5_reduce (in-place)
I0403 04:57:51.757460  2541 net.cpp:141] Setting up inception_4c/relu_5x5_reduce
I0403 04:57:51.757480  2541 net.cpp:148] Top shape: 24 24 14 14 (112896)
I0403 04:57:51.757495  2541 net.cpp:156] Memory required for data: 1048551360
I0403 04:57:51.757510  2541 layer_factory.hpp:77] Creating layer inception_4c/5x5
I0403 04:57:51.757534  2541 net.cpp:91] Creating Layer inception_4c/5x5
I0403 04:57:51.757553  2541 net.cpp:425] inception_4c/5x5 <- inception_4c/5x5_reduce
I0403 04:57:51.757575  2541 net.cpp:399] inception_4c/5x5 -> inception_4c/5x5
I0403 04:57:51.758024  2541 net.cpp:141] Setting up inception_4c/5x5
I0403 04:57:51.758052  2541 net.cpp:148] Top shape: 24 64 14 14 (301056)
I0403 04:57:51.758069  2541 net.cpp:156] Memory required for data: 1049755584
I0403 04:57:51.758088  2541 layer_factory.hpp:77] Creating layer inception_4c/relu_5x5
I0403 04:57:51.758113  2541 net.cpp:91] Creating Layer inception_4c/relu_5x5
I0403 04:57:51.758132  2541 net.cpp:425] inception_4c/relu_5x5 <- inception_4c/5x5
I0403 04:57:51.758154  2541 net.cpp:386] inception_4c/relu_5x5 -> inception_4c/5x5 (in-place)
I0403 04:57:51.758177  2541 net.cpp:141] Setting up inception_4c/relu_5x5
I0403 04:57:51.758196  2541 net.cpp:148] Top shape: 24 64 14 14 (301056)
I0403 04:57:51.758213  2541 net.cpp:156] Memory required for data: 1050959808
I0403 04:57:51.758227  2541 layer_factory.hpp:77] Creating layer inception_4c/pool
I0403 04:57:51.758246  2541 net.cpp:91] Creating Layer inception_4c/pool
I0403 04:57:51.758265  2541 net.cpp:425] inception_4c/pool <- inception_4b/output_inception_4b/output_0_split_3
I0403 04:57:51.758285  2541 net.cpp:399] inception_4c/pool -> inception_4c/pool
I0403 04:57:51.758342  2541 net.cpp:141] Setting up inception_4c/pool
I0403 04:57:51.758368  2541 net.cpp:148] Top shape: 24 512 14 14 (2408448)
I0403 04:57:51.758384  2541 net.cpp:156] Memory required for data: 1060593600
I0403 04:57:51.758399  2541 layer_factory.hpp:77] Creating layer inception_4c/pool_proj
I0403 04:57:51.758425  2541 net.cpp:91] Creating Layer inception_4c/pool_proj
I0403 04:57:51.758445  2541 net.cpp:425] inception_4c/pool_proj <- inception_4c/pool
I0403 04:57:51.758467  2541 net.cpp:399] inception_4c/pool_proj -> inception_4c/pool_proj
I0403 04:57:51.758883  2541 net.cpp:141] Setting up inception_4c/pool_proj
I0403 04:57:51.758911  2541 net.cpp:148] Top shape: 24 64 14 14 (301056)
I0403 04:57:51.758927  2541 net.cpp:156] Memory required for data: 1061797824
I0403 04:57:51.758946  2541 layer_factory.hpp:77] Creating layer inception_4c/relu_pool_proj
I0403 04:57:51.758966  2541 net.cpp:91] Creating Layer inception_4c/relu_pool_proj
I0403 04:57:51.758985  2541 net.cpp:425] inception_4c/relu_pool_proj <- inception_4c/pool_proj
I0403 04:57:51.759004  2541 net.cpp:386] inception_4c/relu_pool_proj -> inception_4c/pool_proj (in-place)
I0403 04:57:51.759027  2541 net.cpp:141] Setting up inception_4c/relu_pool_proj
I0403 04:57:51.759060  2541 net.cpp:148] Top shape: 24 64 14 14 (301056)
I0403 04:57:51.759076  2541 net.cpp:156] Memory required for data: 1063002048
I0403 04:57:51.759091  2541 layer_factory.hpp:77] Creating layer inception_4c/output
I0403 04:57:51.759119  2541 net.cpp:91] Creating Layer inception_4c/output
I0403 04:57:51.759138  2541 net.cpp:425] inception_4c/output <- inception_4c/1x1
I0403 04:57:51.759156  2541 net.cpp:425] inception_4c/output <- inception_4c/3x3
I0403 04:57:51.759174  2541 net.cpp:425] inception_4c/output <- inception_4c/5x5
I0403 04:57:51.759191  2541 net.cpp:425] inception_4c/output <- inception_4c/pool_proj
I0403 04:57:51.759210  2541 net.cpp:399] inception_4c/output -> inception_4c/output
I0403 04:57:51.759253  2541 net.cpp:141] Setting up inception_4c/output
I0403 04:57:51.759279  2541 net.cpp:148] Top shape: 24 512 14 14 (2408448)
I0403 04:57:51.759294  2541 net.cpp:156] Memory required for data: 1072635840
I0403 04:57:51.759310  2541 layer_factory.hpp:77] Creating layer inception_4c/output_inception_4c/output_0_split
I0403 04:57:51.759330  2541 net.cpp:91] Creating Layer inception_4c/output_inception_4c/output_0_split
I0403 04:57:51.759346  2541 net.cpp:425] inception_4c/output_inception_4c/output_0_split <- inception_4c/output
I0403 04:57:51.759367  2541 net.cpp:399] inception_4c/output_inception_4c/output_0_split -> inception_4c/output_inception_4c/output_0_split_0
I0403 04:57:51.759392  2541 net.cpp:399] inception_4c/output_inception_4c/output_0_split -> inception_4c/output_inception_4c/output_0_split_1
I0403 04:57:51.759414  2541 net.cpp:399] inception_4c/output_inception_4c/output_0_split -> inception_4c/output_inception_4c/output_0_split_2
I0403 04:57:51.759438  2541 net.cpp:399] inception_4c/output_inception_4c/output_0_split -> inception_4c/output_inception_4c/output_0_split_3
I0403 04:57:51.759513  2541 net.cpp:141] Setting up inception_4c/output_inception_4c/output_0_split
I0403 04:57:51.759541  2541 net.cpp:148] Top shape: 24 512 14 14 (2408448)
I0403 04:57:51.759558  2541 net.cpp:148] Top shape: 24 512 14 14 (2408448)
I0403 04:57:51.759577  2541 net.cpp:148] Top shape: 24 512 14 14 (2408448)
I0403 04:57:51.759593  2541 net.cpp:148] Top shape: 24 512 14 14 (2408448)
I0403 04:57:51.759608  2541 net.cpp:156] Memory required for data: 1111171008
I0403 04:57:51.759624  2541 layer_factory.hpp:77] Creating layer inception_4d/1x1
I0403 04:57:51.759649  2541 net.cpp:91] Creating Layer inception_4d/1x1
I0403 04:57:51.759670  2541 net.cpp:425] inception_4d/1x1 <- inception_4c/output_inception_4c/output_0_split_0
I0403 04:57:51.759690  2541 net.cpp:399] inception_4d/1x1 -> inception_4d/1x1
I0403 04:57:51.760243  2541 net.cpp:141] Setting up inception_4d/1x1
I0403 04:57:51.760270  2541 net.cpp:148] Top shape: 24 112 14 14 (526848)
I0403 04:57:51.760287  2541 net.cpp:156] Memory required for data: 1113278400
I0403 04:57:51.760306  2541 layer_factory.hpp:77] Creating layer inception_4d/relu_1x1
I0403 04:57:51.760326  2541 net.cpp:91] Creating Layer inception_4d/relu_1x1
I0403 04:57:51.760344  2541 net.cpp:425] inception_4d/relu_1x1 <- inception_4d/1x1
I0403 04:57:51.760366  2541 net.cpp:386] inception_4d/relu_1x1 -> inception_4d/1x1 (in-place)
I0403 04:57:51.760388  2541 net.cpp:141] Setting up inception_4d/relu_1x1
I0403 04:57:51.760409  2541 net.cpp:148] Top shape: 24 112 14 14 (526848)
I0403 04:57:51.760424  2541 net.cpp:156] Memory required for data: 1115385792
I0403 04:57:51.760440  2541 layer_factory.hpp:77] Creating layer inception_4d/3x3_reduce
I0403 04:57:51.760462  2541 net.cpp:91] Creating Layer inception_4d/3x3_reduce
I0403 04:57:51.760480  2541 net.cpp:425] inception_4d/3x3_reduce <- inception_4c/output_inception_4c/output_0_split_1
I0403 04:57:51.760504  2541 net.cpp:399] inception_4d/3x3_reduce -> inception_4d/3x3_reduce
I0403 04:57:51.761188  2541 net.cpp:141] Setting up inception_4d/3x3_reduce
I0403 04:57:51.761216  2541 net.cpp:148] Top shape: 24 144 14 14 (677376)
I0403 04:57:51.761232  2541 net.cpp:156] Memory required for data: 1118095296
I0403 04:57:51.761266  2541 layer_factory.hpp:77] Creating layer inception_4d/relu_3x3_reduce
I0403 04:57:51.761288  2541 net.cpp:91] Creating Layer inception_4d/relu_3x3_reduce
I0403 04:57:51.761307  2541 net.cpp:425] inception_4d/relu_3x3_reduce <- inception_4d/3x3_reduce
I0403 04:57:51.761327  2541 net.cpp:386] inception_4d/relu_3x3_reduce -> inception_4d/3x3_reduce (in-place)
I0403 04:57:51.761349  2541 net.cpp:141] Setting up inception_4d/relu_3x3_reduce
I0403 04:57:51.761369  2541 net.cpp:148] Top shape: 24 144 14 14 (677376)
I0403 04:57:51.761385  2541 net.cpp:156] Memory required for data: 1120804800
I0403 04:57:51.761400  2541 layer_factory.hpp:77] Creating layer inception_4d/3x3
I0403 04:57:51.761425  2541 net.cpp:91] Creating Layer inception_4d/3x3
I0403 04:57:51.761445  2541 net.cpp:425] inception_4d/3x3 <- inception_4d/3x3_reduce
I0403 04:57:51.761466  2541 net.cpp:399] inception_4d/3x3 -> inception_4d/3x3
I0403 04:57:51.764827  2541 net.cpp:141] Setting up inception_4d/3x3
I0403 04:57:51.764860  2541 net.cpp:148] Top shape: 24 288 14 14 (1354752)
I0403 04:57:51.764879  2541 net.cpp:156] Memory required for data: 1126223808
I0403 04:57:51.764899  2541 layer_factory.hpp:77] Creating layer inception_4d/relu_3x3
I0403 04:57:51.764920  2541 net.cpp:91] Creating Layer inception_4d/relu_3x3
I0403 04:57:51.764940  2541 net.cpp:425] inception_4d/relu_3x3 <- inception_4d/3x3
I0403 04:57:51.764958  2541 net.cpp:386] inception_4d/relu_3x3 -> inception_4d/3x3 (in-place)
I0403 04:57:51.764978  2541 net.cpp:141] Setting up inception_4d/relu_3x3
I0403 04:57:51.764998  2541 net.cpp:148] Top shape: 24 288 14 14 (1354752)
I0403 04:57:51.765014  2541 net.cpp:156] Memory required for data: 1131642816
I0403 04:57:51.765029  2541 layer_factory.hpp:77] Creating layer inception_4d/5x5_reduce
I0403 04:57:51.765054  2541 net.cpp:91] Creating Layer inception_4d/5x5_reduce
I0403 04:57:51.765074  2541 net.cpp:425] inception_4d/5x5_reduce <- inception_4c/output_inception_4c/output_0_split_2
I0403 04:57:51.765099  2541 net.cpp:399] inception_4d/5x5_reduce -> inception_4d/5x5_reduce
I0403 04:57:51.765430  2541 net.cpp:141] Setting up inception_4d/5x5_reduce
I0403 04:57:51.765457  2541 net.cpp:148] Top shape: 24 32 14 14 (150528)
I0403 04:57:51.765475  2541 net.cpp:156] Memory required for data: 1132244928
I0403 04:57:51.765494  2541 layer_factory.hpp:77] Creating layer inception_4d/relu_5x5_reduce
I0403 04:57:51.765517  2541 net.cpp:91] Creating Layer inception_4d/relu_5x5_reduce
I0403 04:57:51.765537  2541 net.cpp:425] inception_4d/relu_5x5_reduce <- inception_4d/5x5_reduce
I0403 04:57:51.765555  2541 net.cpp:386] inception_4d/relu_5x5_reduce -> inception_4d/5x5_reduce (in-place)
I0403 04:57:51.765576  2541 net.cpp:141] Setting up inception_4d/relu_5x5_reduce
I0403 04:57:51.765596  2541 net.cpp:148] Top shape: 24 32 14 14 (150528)
I0403 04:57:51.765612  2541 net.cpp:156] Memory required for data: 1132847040
I0403 04:57:51.765629  2541 layer_factory.hpp:77] Creating layer inception_4d/5x5
I0403 04:57:51.765652  2541 net.cpp:91] Creating Layer inception_4d/5x5
I0403 04:57:51.765671  2541 net.cpp:425] inception_4d/5x5 <- inception_4d/5x5_reduce
I0403 04:57:51.765692  2541 net.cpp:399] inception_4d/5x5 -> inception_4d/5x5
I0403 04:57:51.766223  2541 net.cpp:141] Setting up inception_4d/5x5
I0403 04:57:51.766253  2541 net.cpp:148] Top shape: 24 64 14 14 (301056)
I0403 04:57:51.766271  2541 net.cpp:156] Memory required for data: 1134051264
I0403 04:57:51.766290  2541 layer_factory.hpp:77] Creating layer inception_4d/relu_5x5
I0403 04:57:51.766310  2541 net.cpp:91] Creating Layer inception_4d/relu_5x5
I0403 04:57:51.766329  2541 net.cpp:425] inception_4d/relu_5x5 <- inception_4d/5x5
I0403 04:57:51.766347  2541 net.cpp:386] inception_4d/relu_5x5 -> inception_4d/5x5 (in-place)
I0403 04:57:51.766368  2541 net.cpp:141] Setting up inception_4d/relu_5x5
I0403 04:57:51.766388  2541 net.cpp:148] Top shape: 24 64 14 14 (301056)
I0403 04:57:51.766414  2541 net.cpp:156] Memory required for data: 1135255488
I0403 04:57:51.766432  2541 layer_factory.hpp:77] Creating layer inception_4d/pool
I0403 04:57:51.766466  2541 net.cpp:91] Creating Layer inception_4d/pool
I0403 04:57:51.766486  2541 net.cpp:425] inception_4d/pool <- inception_4c/output_inception_4c/output_0_split_3
I0403 04:57:51.766508  2541 net.cpp:399] inception_4d/pool -> inception_4d/pool
I0403 04:57:51.766566  2541 net.cpp:141] Setting up inception_4d/pool
I0403 04:57:51.766590  2541 net.cpp:148] Top shape: 24 512 14 14 (2408448)
I0403 04:57:51.766607  2541 net.cpp:156] Memory required for data: 1144889280
I0403 04:57:51.766623  2541 layer_factory.hpp:77] Creating layer inception_4d/pool_proj
I0403 04:57:51.766649  2541 net.cpp:91] Creating Layer inception_4d/pool_proj
I0403 04:57:51.766669  2541 net.cpp:425] inception_4d/pool_proj <- inception_4d/pool
I0403 04:57:51.766688  2541 net.cpp:399] inception_4d/pool_proj -> inception_4d/pool_proj
I0403 04:57:51.767662  2541 net.cpp:141] Setting up inception_4d/pool_proj
I0403 04:57:51.767693  2541 net.cpp:148] Top shape: 24 64 14 14 (301056)
I0403 04:57:51.767710  2541 net.cpp:156] Memory required for data: 1146093504
I0403 04:57:51.767730  2541 layer_factory.hpp:77] Creating layer inception_4d/relu_pool_proj
I0403 04:57:51.767750  2541 net.cpp:91] Creating Layer inception_4d/relu_pool_proj
I0403 04:57:51.767770  2541 net.cpp:425] inception_4d/relu_pool_proj <- inception_4d/pool_proj
I0403 04:57:51.767789  2541 net.cpp:386] inception_4d/relu_pool_proj -> inception_4d/pool_proj (in-place)
I0403 04:57:51.767813  2541 net.cpp:141] Setting up inception_4d/relu_pool_proj
I0403 04:57:51.767834  2541 net.cpp:148] Top shape: 24 64 14 14 (301056)
I0403 04:57:51.767850  2541 net.cpp:156] Memory required for data: 1147297728
I0403 04:57:51.767865  2541 layer_factory.hpp:77] Creating layer inception_4d/output
I0403 04:57:51.767884  2541 net.cpp:91] Creating Layer inception_4d/output
I0403 04:57:51.767902  2541 net.cpp:425] inception_4d/output <- inception_4d/1x1
I0403 04:57:51.767921  2541 net.cpp:425] inception_4d/output <- inception_4d/3x3
I0403 04:57:51.767938  2541 net.cpp:425] inception_4d/output <- inception_4d/5x5
I0403 04:57:51.767954  2541 net.cpp:425] inception_4d/output <- inception_4d/pool_proj
I0403 04:57:51.767973  2541 net.cpp:399] inception_4d/output -> inception_4d/output
I0403 04:57:51.768018  2541 net.cpp:141] Setting up inception_4d/output
I0403 04:57:51.768043  2541 net.cpp:148] Top shape: 24 528 14 14 (2483712)
I0403 04:57:51.768059  2541 net.cpp:156] Memory required for data: 1157232576
I0403 04:57:51.768074  2541 layer_factory.hpp:77] Creating layer inception_4d/output_inception_4d/output_0_split
I0403 04:57:51.768097  2541 net.cpp:91] Creating Layer inception_4d/output_inception_4d/output_0_split
I0403 04:57:51.768117  2541 net.cpp:425] inception_4d/output_inception_4d/output_0_split <- inception_4d/output
I0403 04:57:51.768139  2541 net.cpp:399] inception_4d/output_inception_4d/output_0_split -> inception_4d/output_inception_4d/output_0_split_0
I0403 04:57:51.768164  2541 net.cpp:399] inception_4d/output_inception_4d/output_0_split -> inception_4d/output_inception_4d/output_0_split_1
I0403 04:57:51.768188  2541 net.cpp:399] inception_4d/output_inception_4d/output_0_split -> inception_4d/output_inception_4d/output_0_split_2
I0403 04:57:51.768213  2541 net.cpp:399] inception_4d/output_inception_4d/output_0_split -> inception_4d/output_inception_4d/output_0_split_3
I0403 04:57:51.768234  2541 net.cpp:399] inception_4d/output_inception_4d/output_0_split -> inception_4d/output_inception_4d/output_0_split_4
I0403 04:57:51.768317  2541 net.cpp:141] Setting up inception_4d/output_inception_4d/output_0_split
I0403 04:57:51.768342  2541 net.cpp:148] Top shape: 24 528 14 14 (2483712)
I0403 04:57:51.768359  2541 net.cpp:148] Top shape: 24 528 14 14 (2483712)
I0403 04:57:51.768378  2541 net.cpp:148] Top shape: 24 528 14 14 (2483712)
I0403 04:57:51.768393  2541 net.cpp:148] Top shape: 24 528 14 14 (2483712)
I0403 04:57:51.768409  2541 net.cpp:148] Top shape: 24 528 14 14 (2483712)
I0403 04:57:51.768424  2541 net.cpp:156] Memory required for data: 1206906816
I0403 04:57:51.768457  2541 layer_factory.hpp:77] Creating layer loss2/ave_pool
I0403 04:57:51.768479  2541 net.cpp:91] Creating Layer loss2/ave_pool
I0403 04:57:51.768498  2541 net.cpp:425] loss2/ave_pool <- inception_4d/output_inception_4d/output_0_split_0
I0403 04:57:51.768520  2541 net.cpp:399] loss2/ave_pool -> loss2/ave_pool
I0403 04:57:51.768563  2541 net.cpp:141] Setting up loss2/ave_pool
I0403 04:57:51.768589  2541 net.cpp:148] Top shape: 24 528 4 4 (202752)
I0403 04:57:51.768606  2541 net.cpp:156] Memory required for data: 1207717824
I0403 04:57:51.768622  2541 layer_factory.hpp:77] Creating layer loss2/conv
I0403 04:57:51.768646  2541 net.cpp:91] Creating Layer loss2/conv
I0403 04:57:51.768663  2541 net.cpp:425] loss2/conv <- loss2/ave_pool
I0403 04:57:51.768687  2541 net.cpp:399] loss2/conv -> loss2/conv
I0403 04:57:51.769850  2541 net.cpp:141] Setting up loss2/conv
I0403 04:57:51.769881  2541 net.cpp:148] Top shape: 24 128 4 4 (49152)
I0403 04:57:51.769897  2541 net.cpp:156] Memory required for data: 1207914432
I0403 04:57:51.769917  2541 layer_factory.hpp:77] Creating layer loss2/relu_conv
I0403 04:57:51.769944  2541 net.cpp:91] Creating Layer loss2/relu_conv
I0403 04:57:51.769964  2541 net.cpp:425] loss2/relu_conv <- loss2/conv
I0403 04:57:51.769984  2541 net.cpp:386] loss2/relu_conv -> loss2/conv (in-place)
I0403 04:57:51.770005  2541 net.cpp:141] Setting up loss2/relu_conv
I0403 04:57:51.770025  2541 net.cpp:148] Top shape: 24 128 4 4 (49152)
I0403 04:57:51.770040  2541 net.cpp:156] Memory required for data: 1208111040
I0403 04:57:51.770056  2541 layer_factory.hpp:77] Creating layer loss2/fc
I0403 04:57:51.770081  2541 net.cpp:91] Creating Layer loss2/fc
I0403 04:57:51.770103  2541 net.cpp:425] loss2/fc <- loss2/conv
I0403 04:57:51.770125  2541 net.cpp:399] loss2/fc -> loss2/fc
I0403 04:57:51.786798  2541 net.cpp:141] Setting up loss2/fc
I0403 04:57:51.786839  2541 net.cpp:148] Top shape: 24 1024 (24576)
I0403 04:57:51.786856  2541 net.cpp:156] Memory required for data: 1208209344
I0403 04:57:51.786878  2541 layer_factory.hpp:77] Creating layer loss2/relu_fc
I0403 04:57:51.786900  2541 net.cpp:91] Creating Layer loss2/relu_fc
I0403 04:57:51.786918  2541 net.cpp:425] loss2/relu_fc <- loss2/fc
I0403 04:57:51.786942  2541 net.cpp:386] loss2/relu_fc -> loss2/fc (in-place)
I0403 04:57:51.786964  2541 net.cpp:141] Setting up loss2/relu_fc
I0403 04:57:51.786984  2541 net.cpp:148] Top shape: 24 1024 (24576)
I0403 04:57:51.787001  2541 net.cpp:156] Memory required for data: 1208307648
I0403 04:57:51.787017  2541 layer_factory.hpp:77] Creating layer loss2/drop_fc
I0403 04:57:51.787037  2541 net.cpp:91] Creating Layer loss2/drop_fc
I0403 04:57:51.787055  2541 net.cpp:425] loss2/drop_fc <- loss2/fc
I0403 04:57:51.787075  2541 net.cpp:386] loss2/drop_fc -> loss2/fc (in-place)
I0403 04:57:51.787125  2541 net.cpp:141] Setting up loss2/drop_fc
I0403 04:57:51.787153  2541 net.cpp:148] Top shape: 24 1024 (24576)
I0403 04:57:51.787168  2541 net.cpp:156] Memory required for data: 1208405952
I0403 04:57:51.787184  2541 layer_factory.hpp:77] Creating layer loss2/classifier_plantvillage
I0403 04:57:51.787204  2541 net.cpp:91] Creating Layer loss2/classifier_plantvillage
I0403 04:57:51.787225  2541 net.cpp:425] loss2/classifier_plantvillage <- loss2/fc
I0403 04:57:51.787245  2541 net.cpp:399] loss2/classifier_plantvillage -> loss2/classifier_plantvillage
I0403 04:57:51.787592  2541 net.cpp:141] Setting up loss2/classifier_plantvillage
I0403 04:57:51.787619  2541 net.cpp:148] Top shape: 24 38 (912)
I0403 04:57:51.787636  2541 net.cpp:156] Memory required for data: 1208409600
I0403 04:57:51.787654  2541 layer_factory.hpp:77] Creating layer inception_4e/1x1
I0403 04:57:51.787683  2541 net.cpp:91] Creating Layer inception_4e/1x1
I0403 04:57:51.787703  2541 net.cpp:425] inception_4e/1x1 <- inception_4d/output_inception_4d/output_0_split_1
I0403 04:57:51.787724  2541 net.cpp:399] inception_4e/1x1 -> inception_4e/1x1
I0403 04:57:51.788741  2541 net.cpp:141] Setting up inception_4e/1x1
I0403 04:57:51.788769  2541 net.cpp:148] Top shape: 24 256 14 14 (1204224)
I0403 04:57:51.788802  2541 net.cpp:156] Memory required for data: 1213226496
I0403 04:57:51.788823  2541 layer_factory.hpp:77] Creating layer inception_4e/relu_1x1
I0403 04:57:51.788843  2541 net.cpp:91] Creating Layer inception_4e/relu_1x1
I0403 04:57:51.788862  2541 net.cpp:425] inception_4e/relu_1x1 <- inception_4e/1x1
I0403 04:57:51.788882  2541 net.cpp:386] inception_4e/relu_1x1 -> inception_4e/1x1 (in-place)
I0403 04:57:51.788902  2541 net.cpp:141] Setting up inception_4e/relu_1x1
I0403 04:57:51.788921  2541 net.cpp:148] Top shape: 24 256 14 14 (1204224)
I0403 04:57:51.788936  2541 net.cpp:156] Memory required for data: 1218043392
I0403 04:57:51.788951  2541 layer_factory.hpp:77] Creating layer inception_4e/3x3_reduce
I0403 04:57:51.788977  2541 net.cpp:91] Creating Layer inception_4e/3x3_reduce
I0403 04:57:51.788996  2541 net.cpp:425] inception_4e/3x3_reduce <- inception_4d/output_inception_4d/output_0_split_2
I0403 04:57:51.789021  2541 net.cpp:399] inception_4e/3x3_reduce -> inception_4e/3x3_reduce
I0403 04:57:51.790299  2541 net.cpp:141] Setting up inception_4e/3x3_reduce
I0403 04:57:51.790331  2541 net.cpp:148] Top shape: 24 160 14 14 (752640)
I0403 04:57:51.790349  2541 net.cpp:156] Memory required for data: 1221053952
I0403 04:57:51.790367  2541 layer_factory.hpp:77] Creating layer inception_4e/relu_3x3_reduce
I0403 04:57:51.790387  2541 net.cpp:91] Creating Layer inception_4e/relu_3x3_reduce
I0403 04:57:51.790407  2541 net.cpp:425] inception_4e/relu_3x3_reduce <- inception_4e/3x3_reduce
I0403 04:57:51.790426  2541 net.cpp:386] inception_4e/relu_3x3_reduce -> inception_4e/3x3_reduce (in-place)
I0403 04:57:51.790447  2541 net.cpp:141] Setting up inception_4e/relu_3x3_reduce
I0403 04:57:51.790467  2541 net.cpp:148] Top shape: 24 160 14 14 (752640)
I0403 04:57:51.790482  2541 net.cpp:156] Memory required for data: 1224064512
I0403 04:57:51.790499  2541 layer_factory.hpp:77] Creating layer inception_4e/3x3
I0403 04:57:51.790524  2541 net.cpp:91] Creating Layer inception_4e/3x3
I0403 04:57:51.790544  2541 net.cpp:425] inception_4e/3x3 <- inception_4e/3x3_reduce
I0403 04:57:51.790567  2541 net.cpp:399] inception_4e/3x3 -> inception_4e/3x3
I0403 04:57:51.794565  2541 net.cpp:141] Setting up inception_4e/3x3
I0403 04:57:51.794596  2541 net.cpp:148] Top shape: 24 320 14 14 (1505280)
I0403 04:57:51.794615  2541 net.cpp:156] Memory required for data: 1230085632
I0403 04:57:51.794634  2541 layer_factory.hpp:77] Creating layer inception_4e/relu_3x3
I0403 04:57:51.794656  2541 net.cpp:91] Creating Layer inception_4e/relu_3x3
I0403 04:57:51.794674  2541 net.cpp:425] inception_4e/relu_3x3 <- inception_4e/3x3
I0403 04:57:51.794697  2541 net.cpp:386] inception_4e/relu_3x3 -> inception_4e/3x3 (in-place)
I0403 04:57:51.794719  2541 net.cpp:141] Setting up inception_4e/relu_3x3
I0403 04:57:51.794739  2541 net.cpp:148] Top shape: 24 320 14 14 (1505280)
I0403 04:57:51.794756  2541 net.cpp:156] Memory required for data: 1236106752
I0403 04:57:51.794772  2541 layer_factory.hpp:77] Creating layer inception_4e/5x5_reduce
I0403 04:57:51.794797  2541 net.cpp:91] Creating Layer inception_4e/5x5_reduce
I0403 04:57:51.794817  2541 net.cpp:425] inception_4e/5x5_reduce <- inception_4d/output_inception_4d/output_0_split_3
I0403 04:57:51.794838  2541 net.cpp:399] inception_4e/5x5_reduce -> inception_4e/5x5_reduce
I0403 04:57:51.795178  2541 net.cpp:141] Setting up inception_4e/5x5_reduce
I0403 04:57:51.795207  2541 net.cpp:148] Top shape: 24 32 14 14 (150528)
I0403 04:57:51.795224  2541 net.cpp:156] Memory required for data: 1236708864
I0403 04:57:51.795243  2541 layer_factory.hpp:77] Creating layer inception_4e/relu_5x5_reduce
I0403 04:57:51.795264  2541 net.cpp:91] Creating Layer inception_4e/relu_5x5_reduce
I0403 04:57:51.795281  2541 net.cpp:425] inception_4e/relu_5x5_reduce <- inception_4e/5x5_reduce
I0403 04:57:51.795305  2541 net.cpp:386] inception_4e/relu_5x5_reduce -> inception_4e/5x5_reduce (in-place)
I0403 04:57:51.795327  2541 net.cpp:141] Setting up inception_4e/relu_5x5_reduce
I0403 04:57:51.795347  2541 net.cpp:148] Top shape: 24 32 14 14 (150528)
I0403 04:57:51.795389  2541 net.cpp:156] Memory required for data: 1237310976
I0403 04:57:51.795406  2541 layer_factory.hpp:77] Creating layer inception_4e/5x5
I0403 04:57:51.795433  2541 net.cpp:91] Creating Layer inception_4e/5x5
I0403 04:57:51.795451  2541 net.cpp:425] inception_4e/5x5 <- inception_4e/5x5_reduce
I0403 04:57:51.795472  2541 net.cpp:399] inception_4e/5x5 -> inception_4e/5x5
I0403 04:57:51.796306  2541 net.cpp:141] Setting up inception_4e/5x5
I0403 04:57:51.796334  2541 net.cpp:148] Top shape: 24 128 14 14 (602112)
I0403 04:57:51.796350  2541 net.cpp:156] Memory required for data: 1239719424
I0403 04:57:51.796370  2541 layer_factory.hpp:77] Creating layer inception_4e/relu_5x5
I0403 04:57:51.796389  2541 net.cpp:91] Creating Layer inception_4e/relu_5x5
I0403 04:57:51.796409  2541 net.cpp:425] inception_4e/relu_5x5 <- inception_4e/5x5
I0403 04:57:51.796430  2541 net.cpp:386] inception_4e/relu_5x5 -> inception_4e/5x5 (in-place)
I0403 04:57:51.796452  2541 net.cpp:141] Setting up inception_4e/relu_5x5
I0403 04:57:51.796471  2541 net.cpp:148] Top shape: 24 128 14 14 (602112)
I0403 04:57:51.796486  2541 net.cpp:156] Memory required for data: 1242127872
I0403 04:57:51.796502  2541 layer_factory.hpp:77] Creating layer inception_4e/pool
I0403 04:57:51.796540  2541 net.cpp:91] Creating Layer inception_4e/pool
I0403 04:57:51.796561  2541 net.cpp:425] inception_4e/pool <- inception_4d/output_inception_4d/output_0_split_4
I0403 04:57:51.796581  2541 net.cpp:399] inception_4e/pool -> inception_4e/pool
I0403 04:57:51.796635  2541 net.cpp:141] Setting up inception_4e/pool
I0403 04:57:51.796663  2541 net.cpp:148] Top shape: 24 528 14 14 (2483712)
I0403 04:57:51.796679  2541 net.cpp:156] Memory required for data: 1252062720
I0403 04:57:51.796696  2541 layer_factory.hpp:77] Creating layer inception_4e/pool_proj
I0403 04:57:51.796718  2541 net.cpp:91] Creating Layer inception_4e/pool_proj
I0403 04:57:51.796736  2541 net.cpp:425] inception_4e/pool_proj <- inception_4e/pool
I0403 04:57:51.796759  2541 net.cpp:399] inception_4e/pool_proj -> inception_4e/pool_proj
I0403 04:57:51.797384  2541 net.cpp:141] Setting up inception_4e/pool_proj
I0403 04:57:51.797410  2541 net.cpp:148] Top shape: 24 128 14 14 (602112)
I0403 04:57:51.797426  2541 net.cpp:156] Memory required for data: 1254471168
I0403 04:57:51.797446  2541 layer_factory.hpp:77] Creating layer inception_4e/relu_pool_proj
I0403 04:57:51.797466  2541 net.cpp:91] Creating Layer inception_4e/relu_pool_proj
I0403 04:57:51.797483  2541 net.cpp:425] inception_4e/relu_pool_proj <- inception_4e/pool_proj
I0403 04:57:51.797502  2541 net.cpp:386] inception_4e/relu_pool_proj -> inception_4e/pool_proj (in-place)
I0403 04:57:51.797523  2541 net.cpp:141] Setting up inception_4e/relu_pool_proj
I0403 04:57:51.797541  2541 net.cpp:148] Top shape: 24 128 14 14 (602112)
I0403 04:57:51.797557  2541 net.cpp:156] Memory required for data: 1256879616
I0403 04:57:51.797574  2541 layer_factory.hpp:77] Creating layer inception_4e/output
I0403 04:57:51.797595  2541 net.cpp:91] Creating Layer inception_4e/output
I0403 04:57:51.797615  2541 net.cpp:425] inception_4e/output <- inception_4e/1x1
I0403 04:57:51.797632  2541 net.cpp:425] inception_4e/output <- inception_4e/3x3
I0403 04:57:51.797649  2541 net.cpp:425] inception_4e/output <- inception_4e/5x5
I0403 04:57:51.797667  2541 net.cpp:425] inception_4e/output <- inception_4e/pool_proj
I0403 04:57:51.797686  2541 net.cpp:399] inception_4e/output -> inception_4e/output
I0403 04:57:51.797729  2541 net.cpp:141] Setting up inception_4e/output
I0403 04:57:51.797754  2541 net.cpp:148] Top shape: 24 832 14 14 (3913728)
I0403 04:57:51.797770  2541 net.cpp:156] Memory required for data: 1272534528
I0403 04:57:51.797785  2541 layer_factory.hpp:77] Creating layer pool4/3x3_s2
I0403 04:57:51.797806  2541 net.cpp:91] Creating Layer pool4/3x3_s2
I0403 04:57:51.797823  2541 net.cpp:425] pool4/3x3_s2 <- inception_4e/output
I0403 04:57:51.797847  2541 net.cpp:399] pool4/3x3_s2 -> pool4/3x3_s2
I0403 04:57:51.797901  2541 net.cpp:141] Setting up pool4/3x3_s2
I0403 04:57:51.797938  2541 net.cpp:148] Top shape: 24 832 7 7 (978432)
I0403 04:57:51.797956  2541 net.cpp:156] Memory required for data: 1276448256
I0403 04:57:51.797972  2541 layer_factory.hpp:77] Creating layer pool4/3x3_s2_pool4/3x3_s2_0_split
I0403 04:57:51.797994  2541 net.cpp:91] Creating Layer pool4/3x3_s2_pool4/3x3_s2_0_split
I0403 04:57:51.798012  2541 net.cpp:425] pool4/3x3_s2_pool4/3x3_s2_0_split <- pool4/3x3_s2
I0403 04:57:51.798033  2541 net.cpp:399] pool4/3x3_s2_pool4/3x3_s2_0_split -> pool4/3x3_s2_pool4/3x3_s2_0_split_0
I0403 04:57:51.798055  2541 net.cpp:399] pool4/3x3_s2_pool4/3x3_s2_0_split -> pool4/3x3_s2_pool4/3x3_s2_0_split_1
I0403 04:57:51.798079  2541 net.cpp:399] pool4/3x3_s2_pool4/3x3_s2_0_split -> pool4/3x3_s2_pool4/3x3_s2_0_split_2
I0403 04:57:51.798111  2541 net.cpp:399] pool4/3x3_s2_pool4/3x3_s2_0_split -> pool4/3x3_s2_pool4/3x3_s2_0_split_3
I0403 04:57:51.798187  2541 net.cpp:141] Setting up pool4/3x3_s2_pool4/3x3_s2_0_split
I0403 04:57:51.798212  2541 net.cpp:148] Top shape: 24 832 7 7 (978432)
I0403 04:57:51.798228  2541 net.cpp:148] Top shape: 24 832 7 7 (978432)
I0403 04:57:51.798245  2541 net.cpp:148] Top shape: 24 832 7 7 (978432)
I0403 04:57:51.798261  2541 net.cpp:148] Top shape: 24 832 7 7 (978432)
I0403 04:57:51.798276  2541 net.cpp:156] Memory required for data: 1292103168
I0403 04:57:51.798293  2541 layer_factory.hpp:77] Creating layer inception_5a/1x1
I0403 04:57:51.798317  2541 net.cpp:91] Creating Layer inception_5a/1x1
I0403 04:57:51.798336  2541 net.cpp:425] inception_5a/1x1 <- pool4/3x3_s2_pool4/3x3_s2_0_split_0
I0403 04:57:51.798363  2541 net.cpp:399] inception_5a/1x1 -> inception_5a/1x1
I0403 04:57:51.800397  2541 net.cpp:141] Setting up inception_5a/1x1
I0403 04:57:51.800428  2541 net.cpp:148] Top shape: 24 256 7 7 (301056)
I0403 04:57:51.800446  2541 net.cpp:156] Memory required for data: 1293307392
I0403 04:57:51.800465  2541 layer_factory.hpp:77] Creating layer inception_5a/relu_1x1
I0403 04:57:51.800484  2541 net.cpp:91] Creating Layer inception_5a/relu_1x1
I0403 04:57:51.800503  2541 net.cpp:425] inception_5a/relu_1x1 <- inception_5a/1x1
I0403 04:57:51.800524  2541 net.cpp:386] inception_5a/relu_1x1 -> inception_5a/1x1 (in-place)
I0403 04:57:51.800549  2541 net.cpp:141] Setting up inception_5a/relu_1x1
I0403 04:57:51.800567  2541 net.cpp:148] Top shape: 24 256 7 7 (301056)
I0403 04:57:51.800583  2541 net.cpp:156] Memory required for data: 1294511616
I0403 04:57:51.800600  2541 layer_factory.hpp:77] Creating layer inception_5a/3x3_reduce
I0403 04:57:51.800624  2541 net.cpp:91] Creating Layer inception_5a/3x3_reduce
I0403 04:57:51.800645  2541 net.cpp:425] inception_5a/3x3_reduce <- pool4/3x3_s2_pool4/3x3_s2_0_split_1
I0403 04:57:51.800668  2541 net.cpp:399] inception_5a/3x3_reduce -> inception_5a/3x3_reduce
I0403 04:57:51.802243  2541 net.cpp:141] Setting up inception_5a/3x3_reduce
I0403 04:57:51.802276  2541 net.cpp:148] Top shape: 24 160 7 7 (188160)
I0403 04:57:51.802294  2541 net.cpp:156] Memory required for data: 1295264256
I0403 04:57:51.802314  2541 layer_factory.hpp:77] Creating layer inception_5a/relu_3x3_reduce
I0403 04:57:51.802333  2541 net.cpp:91] Creating Layer inception_5a/relu_3x3_reduce
I0403 04:57:51.802351  2541 net.cpp:425] inception_5a/relu_3x3_reduce <- inception_5a/3x3_reduce
I0403 04:57:51.802373  2541 net.cpp:386] inception_5a/relu_3x3_reduce -> inception_5a/3x3_reduce (in-place)
I0403 04:57:51.802397  2541 net.cpp:141] Setting up inception_5a/relu_3x3_reduce
I0403 04:57:51.802417  2541 net.cpp:148] Top shape: 24 160 7 7 (188160)
I0403 04:57:51.802433  2541 net.cpp:156] Memory required for data: 1296016896
I0403 04:57:51.802448  2541 layer_factory.hpp:77] Creating layer inception_5a/3x3
I0403 04:57:51.802472  2541 net.cpp:91] Creating Layer inception_5a/3x3
I0403 04:57:51.802492  2541 net.cpp:425] inception_5a/3x3 <- inception_5a/3x3_reduce
I0403 04:57:51.802513  2541 net.cpp:399] inception_5a/3x3 -> inception_5a/3x3
I0403 04:57:51.806520  2541 net.cpp:141] Setting up inception_5a/3x3
I0403 04:57:51.806552  2541 net.cpp:148] Top shape: 24 320 7 7 (376320)
I0403 04:57:51.806586  2541 net.cpp:156] Memory required for data: 1297522176
I0403 04:57:51.806607  2541 layer_factory.hpp:77] Creating layer inception_5a/relu_3x3
I0403 04:57:51.806629  2541 net.cpp:91] Creating Layer inception_5a/relu_3x3
I0403 04:57:51.806648  2541 net.cpp:425] inception_5a/relu_3x3 <- inception_5a/3x3
I0403 04:57:51.806670  2541 net.cpp:386] inception_5a/relu_3x3 -> inception_5a/3x3 (in-place)
I0403 04:57:51.806692  2541 net.cpp:141] Setting up inception_5a/relu_3x3
I0403 04:57:51.806713  2541 net.cpp:148] Top shape: 24 320 7 7 (376320)
I0403 04:57:51.806727  2541 net.cpp:156] Memory required for data: 1299027456
I0403 04:57:51.806743  2541 layer_factory.hpp:77] Creating layer inception_5a/5x5_reduce
I0403 04:57:51.806768  2541 net.cpp:91] Creating Layer inception_5a/5x5_reduce
I0403 04:57:51.806789  2541 net.cpp:425] inception_5a/5x5_reduce <- pool4/3x3_s2_pool4/3x3_s2_0_split_2
I0403 04:57:51.806812  2541 net.cpp:399] inception_5a/5x5_reduce -> inception_5a/5x5_reduce
I0403 04:57:51.807224  2541 net.cpp:141] Setting up inception_5a/5x5_reduce
I0403 04:57:51.807250  2541 net.cpp:148] Top shape: 24 32 7 7 (37632)
I0403 04:57:51.807267  2541 net.cpp:156] Memory required for data: 1299177984
I0403 04:57:51.807287  2541 layer_factory.hpp:77] Creating layer inception_5a/relu_5x5_reduce
I0403 04:57:51.807308  2541 net.cpp:91] Creating Layer inception_5a/relu_5x5_reduce
I0403 04:57:51.807328  2541 net.cpp:425] inception_5a/relu_5x5_reduce <- inception_5a/5x5_reduce
I0403 04:57:51.807350  2541 net.cpp:386] inception_5a/relu_5x5_reduce -> inception_5a/5x5_reduce (in-place)
I0403 04:57:51.807374  2541 net.cpp:141] Setting up inception_5a/relu_5x5_reduce
I0403 04:57:51.807392  2541 net.cpp:148] Top shape: 24 32 7 7 (37632)
I0403 04:57:51.807409  2541 net.cpp:156] Memory required for data: 1299328512
I0403 04:57:51.807425  2541 layer_factory.hpp:77] Creating layer inception_5a/5x5
I0403 04:57:51.807446  2541 net.cpp:91] Creating Layer inception_5a/5x5
I0403 04:57:51.807464  2541 net.cpp:425] inception_5a/5x5 <- inception_5a/5x5_reduce
I0403 04:57:51.807487  2541 net.cpp:399] inception_5a/5x5 -> inception_5a/5x5
I0403 04:57:51.808326  2541 net.cpp:141] Setting up inception_5a/5x5
I0403 04:57:51.808353  2541 net.cpp:148] Top shape: 24 128 7 7 (150528)
I0403 04:57:51.808369  2541 net.cpp:156] Memory required for data: 1299930624
I0403 04:57:51.808389  2541 layer_factory.hpp:77] Creating layer inception_5a/relu_5x5
I0403 04:57:51.808409  2541 net.cpp:91] Creating Layer inception_5a/relu_5x5
I0403 04:57:51.808426  2541 net.cpp:425] inception_5a/relu_5x5 <- inception_5a/5x5
I0403 04:57:51.808444  2541 net.cpp:386] inception_5a/relu_5x5 -> inception_5a/5x5 (in-place)
I0403 04:57:51.808465  2541 net.cpp:141] Setting up inception_5a/relu_5x5
I0403 04:57:51.808485  2541 net.cpp:148] Top shape: 24 128 7 7 (150528)
I0403 04:57:51.808501  2541 net.cpp:156] Memory required for data: 1300532736
I0403 04:57:51.808516  2541 layer_factory.hpp:77] Creating layer inception_5a/pool
I0403 04:57:51.808538  2541 net.cpp:91] Creating Layer inception_5a/pool
I0403 04:57:51.808558  2541 net.cpp:425] inception_5a/pool <- pool4/3x3_s2_pool4/3x3_s2_0_split_3
I0403 04:57:51.808578  2541 net.cpp:399] inception_5a/pool -> inception_5a/pool
I0403 04:57:51.808636  2541 net.cpp:141] Setting up inception_5a/pool
I0403 04:57:51.808662  2541 net.cpp:148] Top shape: 24 832 7 7 (978432)
I0403 04:57:51.808678  2541 net.cpp:156] Memory required for data: 1304446464
I0403 04:57:51.808696  2541 layer_factory.hpp:77] Creating layer inception_5a/pool_proj
I0403 04:57:51.808719  2541 net.cpp:91] Creating Layer inception_5a/pool_proj
I0403 04:57:51.808739  2541 net.cpp:425] inception_5a/pool_proj <- inception_5a/pool
I0403 04:57:51.808759  2541 net.cpp:399] inception_5a/pool_proj -> inception_5a/pool_proj
I0403 04:57:51.810173  2541 net.cpp:141] Setting up inception_5a/pool_proj
I0403 04:57:51.810204  2541 net.cpp:148] Top shape: 24 128 7 7 (150528)
I0403 04:57:51.810220  2541 net.cpp:156] Memory required for data: 1305048576
I0403 04:57:51.810256  2541 layer_factory.hpp:77] Creating layer inception_5a/relu_pool_proj
I0403 04:57:51.810278  2541 net.cpp:91] Creating Layer inception_5a/relu_pool_proj
I0403 04:57:51.810297  2541 net.cpp:425] inception_5a/relu_pool_proj <- inception_5a/pool_proj
I0403 04:57:51.810319  2541 net.cpp:386] inception_5a/relu_pool_proj -> inception_5a/pool_proj (in-place)
I0403 04:57:51.810343  2541 net.cpp:141] Setting up inception_5a/relu_pool_proj
I0403 04:57:51.810364  2541 net.cpp:148] Top shape: 24 128 7 7 (150528)
I0403 04:57:51.810379  2541 net.cpp:156] Memory required for data: 1305650688
I0403 04:57:51.810395  2541 layer_factory.hpp:77] Creating layer inception_5a/output
I0403 04:57:51.810413  2541 net.cpp:91] Creating Layer inception_5a/output
I0403 04:57:51.810431  2541 net.cpp:425] inception_5a/output <- inception_5a/1x1
I0403 04:57:51.810448  2541 net.cpp:425] inception_5a/output <- inception_5a/3x3
I0403 04:57:51.810467  2541 net.cpp:425] inception_5a/output <- inception_5a/5x5
I0403 04:57:51.810484  2541 net.cpp:425] inception_5a/output <- inception_5a/pool_proj
I0403 04:57:51.810504  2541 net.cpp:399] inception_5a/output -> inception_5a/output
I0403 04:57:51.810549  2541 net.cpp:141] Setting up inception_5a/output
I0403 04:57:51.810573  2541 net.cpp:148] Top shape: 24 832 7 7 (978432)
I0403 04:57:51.810590  2541 net.cpp:156] Memory required for data: 1309564416
I0403 04:57:51.810606  2541 layer_factory.hpp:77] Creating layer inception_5a/output_inception_5a/output_0_split
I0403 04:57:51.810626  2541 net.cpp:91] Creating Layer inception_5a/output_inception_5a/output_0_split
I0403 04:57:51.810643  2541 net.cpp:425] inception_5a/output_inception_5a/output_0_split <- inception_5a/output
I0403 04:57:51.810664  2541 net.cpp:399] inception_5a/output_inception_5a/output_0_split -> inception_5a/output_inception_5a/output_0_split_0
I0403 04:57:51.810688  2541 net.cpp:399] inception_5a/output_inception_5a/output_0_split -> inception_5a/output_inception_5a/output_0_split_1
I0403 04:57:51.810710  2541 net.cpp:399] inception_5a/output_inception_5a/output_0_split -> inception_5a/output_inception_5a/output_0_split_2
I0403 04:57:51.810734  2541 net.cpp:399] inception_5a/output_inception_5a/output_0_split -> inception_5a/output_inception_5a/output_0_split_3
I0403 04:57:51.810811  2541 net.cpp:141] Setting up inception_5a/output_inception_5a/output_0_split
I0403 04:57:51.810837  2541 net.cpp:148] Top shape: 24 832 7 7 (978432)
I0403 04:57:51.810856  2541 net.cpp:148] Top shape: 24 832 7 7 (978432)
I0403 04:57:51.810873  2541 net.cpp:148] Top shape: 24 832 7 7 (978432)
I0403 04:57:51.810889  2541 net.cpp:148] Top shape: 24 832 7 7 (978432)
I0403 04:57:51.810905  2541 net.cpp:156] Memory required for data: 1325219328
I0403 04:57:51.810920  2541 layer_factory.hpp:77] Creating layer inception_5b/1x1
I0403 04:57:51.810945  2541 net.cpp:91] Creating Layer inception_5b/1x1
I0403 04:57:51.810966  2541 net.cpp:425] inception_5b/1x1 <- inception_5a/output_inception_5a/output_0_split_0
I0403 04:57:51.810986  2541 net.cpp:399] inception_5b/1x1 -> inception_5b/1x1
I0403 04:57:51.813735  2541 net.cpp:141] Setting up inception_5b/1x1
I0403 04:57:51.813767  2541 net.cpp:148] Top shape: 24 384 7 7 (451584)
I0403 04:57:51.813786  2541 net.cpp:156] Memory required for data: 1327025664
I0403 04:57:51.813805  2541 layer_factory.hpp:77] Creating layer inception_5b/relu_1x1
I0403 04:57:51.813825  2541 net.cpp:91] Creating Layer inception_5b/relu_1x1
I0403 04:57:51.813843  2541 net.cpp:425] inception_5b/relu_1x1 <- inception_5b/1x1
I0403 04:57:51.813865  2541 net.cpp:386] inception_5b/relu_1x1 -> inception_5b/1x1 (in-place)
I0403 04:57:51.813890  2541 net.cpp:141] Setting up inception_5b/relu_1x1
I0403 04:57:51.813910  2541 net.cpp:148] Top shape: 24 384 7 7 (451584)
I0403 04:57:51.813927  2541 net.cpp:156] Memory required for data: 1328832000
I0403 04:57:51.813942  2541 layer_factory.hpp:77] Creating layer inception_5b/3x3_reduce
I0403 04:57:51.813967  2541 net.cpp:91] Creating Layer inception_5b/3x3_reduce
I0403 04:57:51.813987  2541 net.cpp:425] inception_5b/3x3_reduce <- inception_5a/output_inception_5a/output_0_split_1
I0403 04:57:51.814024  2541 net.cpp:399] inception_5b/3x3_reduce -> inception_5b/3x3_reduce
I0403 04:57:51.815778  2541 net.cpp:141] Setting up inception_5b/3x3_reduce
I0403 04:57:51.815809  2541 net.cpp:148] Top shape: 24 192 7 7 (225792)
I0403 04:57:51.815825  2541 net.cpp:156] Memory required for data: 1329735168
I0403 04:57:51.815845  2541 layer_factory.hpp:77] Creating layer inception_5b/relu_3x3_reduce
I0403 04:57:51.815865  2541 net.cpp:91] Creating Layer inception_5b/relu_3x3_reduce
I0403 04:57:51.815884  2541 net.cpp:425] inception_5b/relu_3x3_reduce <- inception_5b/3x3_reduce
I0403 04:57:51.815907  2541 net.cpp:386] inception_5b/relu_3x3_reduce -> inception_5b/3x3_reduce (in-place)
I0403 04:57:51.815930  2541 net.cpp:141] Setting up inception_5b/relu_3x3_reduce
I0403 04:57:51.815949  2541 net.cpp:148] Top shape: 24 192 7 7 (225792)
I0403 04:57:51.815965  2541 net.cpp:156] Memory required for data: 1330638336
I0403 04:57:51.815981  2541 layer_factory.hpp:77] Creating layer inception_5b/3x3
I0403 04:57:51.816007  2541 net.cpp:91] Creating Layer inception_5b/3x3
I0403 04:57:51.816026  2541 net.cpp:425] inception_5b/3x3 <- inception_5b/3x3_reduce
I0403 04:57:51.816048  2541 net.cpp:399] inception_5b/3x3 -> inception_5b/3x3
I0403 04:57:51.821640  2541 net.cpp:141] Setting up inception_5b/3x3
I0403 04:57:51.821671  2541 net.cpp:148] Top shape: 24 384 7 7 (451584)
I0403 04:57:51.821687  2541 net.cpp:156] Memory required for data: 1332444672
I0403 04:57:51.821707  2541 layer_factory.hpp:77] Creating layer inception_5b/relu_3x3
I0403 04:57:51.821729  2541 net.cpp:91] Creating Layer inception_5b/relu_3x3
I0403 04:57:51.821748  2541 net.cpp:425] inception_5b/relu_3x3 <- inception_5b/3x3
I0403 04:57:51.821768  2541 net.cpp:386] inception_5b/relu_3x3 -> inception_5b/3x3 (in-place)
I0403 04:57:51.821790  2541 net.cpp:141] Setting up inception_5b/relu_3x3
I0403 04:57:51.821810  2541 net.cpp:148] Top shape: 24 384 7 7 (451584)
I0403 04:57:51.821825  2541 net.cpp:156] Memory required for data: 1334251008
I0403 04:57:51.821841  2541 layer_factory.hpp:77] Creating layer inception_5b/5x5_reduce
I0403 04:57:51.821868  2541 net.cpp:91] Creating Layer inception_5b/5x5_reduce
I0403 04:57:51.821887  2541 net.cpp:425] inception_5b/5x5_reduce <- inception_5a/output_inception_5a/output_0_split_2
I0403 04:57:51.821910  2541 net.cpp:399] inception_5b/5x5_reduce -> inception_5b/5x5_reduce
I0403 04:57:51.822414  2541 net.cpp:141] Setting up inception_5b/5x5_reduce
I0403 04:57:51.822443  2541 net.cpp:148] Top shape: 24 48 7 7 (56448)
I0403 04:57:51.822459  2541 net.cpp:156] Memory required for data: 1334476800
I0403 04:57:51.822480  2541 layer_factory.hpp:77] Creating layer inception_5b/relu_5x5_reduce
I0403 04:57:51.822502  2541 net.cpp:91] Creating Layer inception_5b/relu_5x5_reduce
I0403 04:57:51.822521  2541 net.cpp:425] inception_5b/relu_5x5_reduce <- inception_5b/5x5_reduce
I0403 04:57:51.822541  2541 net.cpp:386] inception_5b/relu_5x5_reduce -> inception_5b/5x5_reduce (in-place)
I0403 04:57:51.822562  2541 net.cpp:141] Setting up inception_5b/relu_5x5_reduce
I0403 04:57:51.822582  2541 net.cpp:148] Top shape: 24 48 7 7 (56448)
I0403 04:57:51.822598  2541 net.cpp:156] Memory required for data: 1334702592
I0403 04:57:51.822613  2541 layer_factory.hpp:77] Creating layer inception_5b/5x5
I0403 04:57:51.822638  2541 net.cpp:91] Creating Layer inception_5b/5x5
I0403 04:57:51.822659  2541 net.cpp:425] inception_5b/5x5 <- inception_5b/5x5_reduce
I0403 04:57:51.822685  2541 net.cpp:399] inception_5b/5x5 -> inception_5b/5x5
I0403 04:57:51.823830  2541 net.cpp:141] Setting up inception_5b/5x5
I0403 04:57:51.823863  2541 net.cpp:148] Top shape: 24 128 7 7 (150528)
I0403 04:57:51.823881  2541 net.cpp:156] Memory required for data: 1335304704
I0403 04:57:51.823900  2541 layer_factory.hpp:77] Creating layer inception_5b/relu_5x5
I0403 04:57:51.823921  2541 net.cpp:91] Creating Layer inception_5b/relu_5x5
I0403 04:57:51.823940  2541 net.cpp:425] inception_5b/relu_5x5 <- inception_5b/5x5
I0403 04:57:51.823974  2541 net.cpp:386] inception_5b/relu_5x5 -> inception_5b/5x5 (in-place)
I0403 04:57:51.823998  2541 net.cpp:141] Setting up inception_5b/relu_5x5
I0403 04:57:51.824019  2541 net.cpp:148] Top shape: 24 128 7 7 (150528)
I0403 04:57:51.824034  2541 net.cpp:156] Memory required for data: 1335906816
I0403 04:57:51.824049  2541 layer_factory.hpp:77] Creating layer inception_5b/pool
I0403 04:57:51.824069  2541 net.cpp:91] Creating Layer inception_5b/pool
I0403 04:57:51.824086  2541 net.cpp:425] inception_5b/pool <- inception_5a/output_inception_5a/output_0_split_3
I0403 04:57:51.824113  2541 net.cpp:399] inception_5b/pool -> inception_5b/pool
I0403 04:57:51.824174  2541 net.cpp:141] Setting up inception_5b/pool
I0403 04:57:51.824199  2541 net.cpp:148] Top shape: 24 832 7 7 (978432)
I0403 04:57:51.824215  2541 net.cpp:156] Memory required for data: 1339820544
I0403 04:57:51.824232  2541 layer_factory.hpp:77] Creating layer inception_5b/pool_proj
I0403 04:57:51.824257  2541 net.cpp:91] Creating Layer inception_5b/pool_proj
I0403 04:57:51.824277  2541 net.cpp:425] inception_5b/pool_proj <- inception_5b/pool
I0403 04:57:51.824302  2541 net.cpp:399] inception_5b/pool_proj -> inception_5b/pool_proj
I0403 04:57:51.825716  2541 net.cpp:141] Setting up inception_5b/pool_proj
I0403 04:57:51.825750  2541 net.cpp:148] Top shape: 24 128 7 7 (150528)
I0403 04:57:51.825768  2541 net.cpp:156] Memory required for data: 1340422656
I0403 04:57:51.825788  2541 layer_factory.hpp:77] Creating layer inception_5b/relu_pool_proj
I0403 04:57:51.825809  2541 net.cpp:91] Creating Layer inception_5b/relu_pool_proj
I0403 04:57:51.825827  2541 net.cpp:425] inception_5b/relu_pool_proj <- inception_5b/pool_proj
I0403 04:57:51.825847  2541 net.cpp:386] inception_5b/relu_pool_proj -> inception_5b/pool_proj (in-place)
I0403 04:57:51.825868  2541 net.cpp:141] Setting up inception_5b/relu_pool_proj
I0403 04:57:51.825887  2541 net.cpp:148] Top shape: 24 128 7 7 (150528)
I0403 04:57:51.825903  2541 net.cpp:156] Memory required for data: 1341024768
I0403 04:57:51.825918  2541 layer_factory.hpp:77] Creating layer inception_5b/output
I0403 04:57:51.825937  2541 net.cpp:91] Creating Layer inception_5b/output
I0403 04:57:51.825955  2541 net.cpp:425] inception_5b/output <- inception_5b/1x1
I0403 04:57:51.825973  2541 net.cpp:425] inception_5b/output <- inception_5b/3x3
I0403 04:57:51.825990  2541 net.cpp:425] inception_5b/output <- inception_5b/5x5
I0403 04:57:51.826009  2541 net.cpp:425] inception_5b/output <- inception_5b/pool_proj
I0403 04:57:51.826030  2541 net.cpp:399] inception_5b/output -> inception_5b/output
I0403 04:57:51.826073  2541 net.cpp:141] Setting up inception_5b/output
I0403 04:57:51.826107  2541 net.cpp:148] Top shape: 24 1024 7 7 (1204224)
I0403 04:57:51.826127  2541 net.cpp:156] Memory required for data: 1345841664
I0403 04:57:51.826143  2541 layer_factory.hpp:77] Creating layer pool5/7x7_s1
I0403 04:57:51.826161  2541 net.cpp:91] Creating Layer pool5/7x7_s1
I0403 04:57:51.826180  2541 net.cpp:425] pool5/7x7_s1 <- inception_5b/output
I0403 04:57:51.826200  2541 net.cpp:399] pool5/7x7_s1 -> pool5/7x7_s1
I0403 04:57:51.826244  2541 net.cpp:141] Setting up pool5/7x7_s1
I0403 04:57:51.826269  2541 net.cpp:148] Top shape: 24 1024 1 1 (24576)
I0403 04:57:51.826285  2541 net.cpp:156] Memory required for data: 1345939968
I0403 04:57:51.826302  2541 layer_factory.hpp:77] Creating layer pool5/drop_7x7_s1
I0403 04:57:51.826325  2541 net.cpp:91] Creating Layer pool5/drop_7x7_s1
I0403 04:57:51.826344  2541 net.cpp:425] pool5/drop_7x7_s1 <- pool5/7x7_s1
I0403 04:57:51.826364  2541 net.cpp:386] pool5/drop_7x7_s1 -> pool5/7x7_s1 (in-place)
I0403 04:57:51.826406  2541 net.cpp:141] Setting up pool5/drop_7x7_s1
I0403 04:57:51.826429  2541 net.cpp:148] Top shape: 24 1024 1 1 (24576)
I0403 04:57:51.826445  2541 net.cpp:156] Memory required for data: 1346038272
I0403 04:57:51.826462  2541 layer_factory.hpp:77] Creating layer loss3/classifier_plantvillage
I0403 04:57:51.826483  2541 net.cpp:91] Creating Layer loss3/classifier_plantvillage
I0403 04:57:51.826516  2541 net.cpp:425] loss3/classifier_plantvillage <- pool5/7x7_s1
I0403 04:57:51.826542  2541 net.cpp:399] loss3/classifier_plantvillage -> loss3/classifier_plantvillage
I0403 04:57:51.826907  2541 net.cpp:141] Setting up loss3/classifier_plantvillage
I0403 04:57:51.826935  2541 net.cpp:148] Top shape: 24 38 (912)
I0403 04:57:51.826951  2541 net.cpp:156] Memory required for data: 1346041920
I0403 04:57:51.826970  2541 layer_factory.hpp:77] Creating layer loss1/loss
I0403 04:57:51.826997  2541 net.cpp:91] Creating Layer loss1/loss
I0403 04:57:51.827018  2541 net.cpp:425] loss1/loss <- loss1/classifier_plantvillage
I0403 04:57:51.827036  2541 net.cpp:425] loss1/loss <- label_data_1_split_0
I0403 04:57:51.827055  2541 net.cpp:399] loss1/loss -> loss1/loss
…
I0403 04:57:51.837636  2541 net.cpp:313] The NetState phase (1) differed from the phase (0) specified by a rule in layer data
I0403 04:57:51.841680  2541 net.cpp:49] Initializing net from parameters: 
state {
  phase: TEST
}
layer {
  name: "data"
  type: "Data"
  top: "data"
  top: "label"
  include {
    phase: TEST
  }
  transform_param {
    mirror: false
    crop_size: 224
    mean_file: "/home/mohanty/data/final_dataset/lmdb/color-80-20/mean.binaryproto"
  }
  data_param {
    source: "/home/mohanty/data/final_dataset/lmdb/color-80-20/test_db"
    batch_size: 24
    backend: LMDB
  }
}
layer {
  name: "conv1/7x7_s2"
  type: "Convolution"
  bottom: "data"
  top: "conv1/7x7_s2"
  param {
    lr_mult: 1
    decay_mult: 1
  }
  param {
    lr_mult: 2
    decay_mult: 0
  }
  convolution_param {
    num_output: 64
    pad: 3
    kernel_size: 7
    stride: 2
    weight_filler {
      type: "xavier"
      std: 0.1
    }
    bias_filler {
      type: "constant"
      value: 0.2
    }
  }
}
layer {
  name: "conv1/relu_7x7"
  type: "ReLU"
  bottom: "conv1/7x7_s2"
  top: "conv1/7x7_s2"
}
layer {
  name: "pool1/3x3_s2"
  type: "Pooling"
  bottom: "conv1/7x7_s2"
  top: "pool1/3x3_s2"
  pooling_param {
    pool: MAX
    kernel_size: 3
    stride: 2
  }
}
layer {
  name: "pool1/norm1"
  type: "LRN"
  bottom: "pool1/3x3_s2"
  top: "pool1/norm1"
  lrn_param {
    local_size: 5
    alpha: 0.0001
    beta: 0.75
  }
}
layer {
  name: "conv2/3x3_reduce"
  type: "Convolution"
  bottom: "pool1/norm1"
  top: "conv2/3x3_reduce"
  param {
    lr_mult: 1
    decay_mult: 1
  }
  param {
    lr_mult: 2
    decay_mult: 0
  }
  convolution_param {
    num_output: 64
    kernel_size: 1
    weight_filler {
      type: "xavier"
      std: 0.1
    }
    bias_filler {
      type: "constant"
      value: 0.2
    }
  }
}
layer {
  name: "conv2/relu_3x3_reduce"
  type: "ReLU"
  bottom: "conv2/3x3_reduce"
  top: "conv2/3x3_reduce"
}
layer {
  name: "conv2/3x3"
  type: "Convolution"
  bottom: "conv2/3x3_reduce"
  top: "conv2/3x3"
  param {
    lr_mult: 1
    decay_mult: 1
  }
  param {
    lr_mult: 2
    decay_mult: 0
  }
  convolution_param {
    num_output: 192
    pad: 1
    kernel_size: 3
    weight_filler {
      type: "xavier"
      std: 0.03
    }
    bias_filler {
      type: "constant"
      value: 0.2
    }
  }
}
layer {
  name: "conv2/relu_3x3"
  type: "ReLU"
  bottom: "conv2/3x3"
  top: "conv2/3x3"
}
layer {
  name: "conv2/norm2"
  type: "LRN"
  bottom: "conv2/3x3"
  top: "conv2/norm2"
  lrn_param {
    local_size: 5
    alpha: 0.0001
    beta: 0.75
  }
}
layer {
  name: "pool2/3x3_s2"
  type: "Pooling"
  bottom: "conv2/norm2"
  top: "pool2/3x3_s2"
  pooling_param {
    pool: MAX
    kernel_size: 3
    stride: 2
  }
}
layer {
  name: "inception_3a/1x1"
  type: "Convolution"
  bottom: "pool2/3x3_s2"
  top: "inception_3a/1x1"
  param {
    lr_mult: 1
    decay_mult: 1
  }
  param {
    lr_mult: 2
    decay_mult: 0
  }
  convolution_param {
    num_output: 64
    kernel_size: 1
    weight_filler {
      type: "xavier"
      std: 0.03
    }
    bias_filler {
      type: "constant"
      value: 0.2
    }
  }
}
layer {
  name: "inception_3a/relu_1x1"
  type: "ReLU"
  bottom: "inception_3a/1x1"
  top: "inception_3a/1x1"
}
layer {
  name: "inception_3a/3x3_reduce"
  type: "Convolution"
  bottom: "pool2/3x3_s2"
  top: "inception_3a/3x3_reduce"
  param {
    lr_mult: 1
    decay_mult: 1
  }
  param {
    lr_mult: 2
    decay_mult: 0
  }
  convolution_param {
    num_output: 96
    kernel_size: 1
    weight_filler {
      type: "xavier"
      std: 0.09
    }
    bias_filler {
      type: "constant"
      value: 0.2
    }
  }
}
layer {
  name: "inception_3a/relu_3x3_reduce"
  type: "ReLU"
  bottom: "inception_3a/3x3_reduce"
  top: "inception_3a/3x3_reduce"
}
layer {
  name: "inception_3a/3x3"
  type: "Convolution"
  bottom: "inception_3a/3x3_reduce"
  top: "inception_3a/3x3"
  param {
    lr_mult: 1
    decay_mult: 1
  }
  param {
    lr_mult: 2
    decay_mult: 0
  }
  convolution_param {
    num_output: 128
    pad: 1
    kernel_size: 3
    weight_filler {
      type: "xavier"
      std: 0.03
    }
    bias_filler {
      type: "constant"
      value: 0.2
    }
  }
}
layer {
  name: "inception_3a/relu_3x3"
  type: "ReLU"
  bottom: "inception_3a/3x3"
  top: "inception_3a/3x3"
}
layer {
  name: "inception_3a/5x5_reduce"
  type: "Convolution"
  bottom: "pool2/3x3_s2"
  top: "inception_3a/5x5_reduce"
  param {
    lr_mult: 1
    decay_mult: 1
  }
  param {
    lr_mult: 2
    decay_mult: 0
  }
  convolution_param {
    num_output: 16
    kernel_size: 1
    weight_filler {
      type: "xavier"
      std: 0.2
    }
    bias_filler {
      type: "constant"
      value: 0.2
    }
  }
}
layer {
  name: "inception_3a/relu_5x5_reduce"
  type: "ReLU"
  bottom: "inception_3a/5x5_reduce"
  top: "inception_3a/5x5_reduce"
}
layer {
  name: "inception_3a/5x5"
  type: "Convolution"
  bottom: "inception_3a/5x5_reduce"
  top: "inception_3a/5x5"
  param {
    lr_mult: 1
    decay_mult: 1
  }
  param {
    lr_mult: 2
    decay_mult: 0
  }
  convolution_param {
    num_output: 32
    pad: 2
    kernel_size: 5
    weight_filler {
      type: "xavier"
      std: 0.03
    }
    bias_filler {
      type: "constant"
      value: 0.2
    }
  }
}
layer {
  name: "inception_3a/relu_5x5"
  type: "ReLU"
  bottom: "inception_3a/5x5"
  top: "inception_3a/5x5"
}
layer {
  name: "inception_3a/pool"
  type: "Pooling"
  bottom: "pool2/3x3_s2"
  top: "inception_3a/pool"
  pooling_param {
    pool: MAX
    kernel_size: 3
    stride: 1
    pad: 1
  }
}
layer {
  name: "inception_3a/pool_proj"
  type: "Convolution"
  bottom: "inception_3a/pool"
  top: "inception_3a/pool_proj"
  param {
    lr_mult: 1
    decay_mult: 1
  }
  param {
    lr_mult: 2
    decay_mult: 0
  }
  convolution_param {
    num_output: 32
    kernel_size: 1
    weight_filler {
      type: "xavier"
      std: 0.1
    }
    bias_filler {
      type: "constant"
      value: 0.2
    }
  }
}
layer {
  name: "inception_3a/relu_pool_proj"
  type: "ReLU"
  bottom: "inception_3a/pool_proj"
  top: "inception_3a/pool_proj"
}
layer {
  name: "inception_3a/output"
  type: "Concat"
  bottom: "inception_3a/1x1"
  bottom: "inception_3a/3x3"
  bottom: "inception_3a/5x5"
  bottom: "inception_3a/pool_proj"
  top: "inception_3a/output"
}
layer {
  name: "inception_3b/1x1"
  type: "Convolution"
  bottom: "inception_3a/output"
  top: "inception_3b/1x1"
  param {
    lr_mult: 1
    decay_mult: 1
  }
  param {
    lr_mult: 2
    decay_mult: 0
  }
  convolution_param {
    num_output: 128
    kernel_size: 1
    weight_filler {
      type: "xavier"
      std: 0.03
    }
    bias_filler {
      type: "constant"
      value: 0.2
    }
  }
}
layer {
  name: "inception_3b/relu_1x1"
  type: "ReLU"
  bottom: "inception_3b/1x1"
  top: "inception_3b/1x1"
}
layer {
  name: "inception_3b/3x3_reduce"
  type: "Convolution"
  bottom: "inception_3a/output"
  top: "inception_3b/3x3_reduce"
  param {
    lr_mult: 1
    decay_mult: 1
  }
  param {
    lr_mult: 2
    decay_mult: 0
  }
  convolution_param {
    num_output: 128
    kernel_size: 1
    weight_filler {
      type: "xavier"
      std: 0.09
    }
    bias_filler {
      type: "constant"
      value: 0.2
    }
  }
}
layer {
  name: "inception_3b/relu_3x3_reduce"
  type: "ReLU"
  bottom: "inception_3b/3x3_reduce"
  top: "inception_3b/3x3_reduce"
}
layer {
  name: "inception_3b/3x3"
  type: "Convolution"
  bottom: "inception_3b/3x3_reduce"
  top: "inception_3b/3x3"
  param {
    lr_mult: 1
    decay_mult: 1
  }
  param {
    lr_mult: 2
    decay_mult: 0
  }
  convolution_param {
    num_output: 192
    pad: 1
    kernel_size: 3
    weight_filler {
      type: "xavier"
      std: 0.03
    }
    bias_filler {
      type: "constant"
      value: 0.2
    }
  }
}
layer {
  name: "inception_3b/relu_3x3"
  type: "ReLU"
  bottom: "inception_3b/3x3"
  top: "inception_3b/3x3"
}
layer {
  name: "inception_3b/5x5_reduce"
  type: "Convolution"
  bottom: "inception_3a/output"
  top: "inception_3b/5x5_reduce"
  param {
    lr_mult: 1
    decay_mult: 1
  }
  param {
    lr_mult: 2
    decay_mult: 0
  }
  convolution_param {
    num_output: 32
    kernel_size: 1
    weight_filler {
      type: "xavier"
      std: 0.2
    }
    bias_filler {
      type: "constant"
      value: 0.2
    }
  }
}
layer {
  name: "inception_3b/relu_5x5_reduce"
  type: "ReLU"
  bottom: "inception_3b/5x5_reduce"
  top: "inception_3b/5x5_reduce"
}
layer {
  name: "inception_3b/5x5"
  type: "Convolution"
  bottom: "inception_3b/5x5_reduce"
  top: "inception_3b/5x5"
  param {
    lr_mult: 1
    decay_mult: 1
  }
  param {
    lr_mult: 2
    decay_mult: 0
  }
  convolution_param {
    num_output: 96
    pad: 2
    kernel_size: 5
    weight_filler {
      type: "xavier"
      std: 0.03
    }
    bias_filler {
      type: "constant"
      value: 0.2
    }
  }
}
layer {
  name: "inception_3b/relu_5x5"
  type: "ReLU"
  bottom: "inception_3b/5x5"
  top: "inception_3b/5x5"
}
layer {
  name: "inception_3b/pool"
  type: "Pooling"
  bottom: "inception_3a/output"
  top: "inception_3b/pool"
  pooling_param {
    pool: MAX
    kernel_size: 3
    stride: 1
    pad: 1
  }
}
layer {
  name: "inception_3b/pool_proj"
  type: "Convolution"
  bottom: "inception_3b/pool"
  top: "inception_3b/pool_proj"
  param {
    lr_mult: 1
    decay_mult: 1
  }
  param {
    lr_mult: 2
    decay_mult: 0
  }
  convolution_param {
    num_output: 64
    kernel_size: 1
    weight_filler {
      type: "xavier"
      std: 0.1
    }
    bias_filler {
      type: "constant"
      value: 0.2
    }
  }
}
layer {
  name: "inception_3b/relu_pool_proj"
  type: "ReLU"
  bottom: "inception_3b/pool_proj"
  top: "inception_3b/pool_proj"
}
layer {
  name: "inception_3b/output"
  type: "Concat"
  bottom: "inception_3b/1x1"
  bottom: "inception_3b/3x3"
  bottom: "inception_3b/5x5"
  bottom: "inception_3b/pool_proj"
  top: "inception_3b/output"
}
layer {
  name: "pool3/3x3_s2"
  type: "Pooling"
  bottom: "inception_3b/output"
  top: "pool3/3x3_s2"
  pooling_param {
    pool: MAX
    kernel_size: 3
    stride: 2
  }
}
layer {
  name: "inception_4a/1x1"
  type: "Convolution"
  bottom: "pool3/3x3_s2"
  top: "inception_4a/1x1"
  param {
    lr_mult: 1
    decay_mult: 1
  }
  param {
    lr_mult: 2
    decay_mult: 0
  }
  convolution_param {
    num_output: 192
    kernel_size: 1
    weight_filler {
      type: "xavier"
      std: 0.03
    }
    bias_filler {
      type: "constant"
      value: 0.2
    }
  }
}
layer {
  name: "inception_4a/relu_1x1"
  type: "ReLU"
  bottom: "inception_4a/1x1"
  top: "inception_4a/1x1"
}
layer {
  name: "inception_4a/3x3_reduce"
  type: "Convolution"
  bottom: "pool3/3x3_s2"
  top: "inception_4a/3x3_reduce"
  param {
    lr_mult: 1
    decay_mult: 1
  }
  param {
    lr_mult: 2
    decay_mult: 0
  }
  convolution_param {
    num_output: 96
    kernel_size: 1
    weight_filler {
      type: "xavier"
      std: 0.09
    }
    bias_filler {
      type: "constant"
      value: 0.2
    }
  }
}
layer {
  name: "inception_4a/relu_3x3_reduce"
  type: "ReLU"
  bottom: "inception_4a/3x3_reduce"
  top: "inception_4a/3x3_reduce"
}
layer {
  name: "inception_4a/3x3"
  type: "Convolution"
  bottom: "inception_4a/3x3_reduce"
  top: "inception_4a/3x3"
  param {
    lr_mult: 1
    decay_mult: 1
  }
  param {
    lr_mult: 2
    decay_mult: 0
  }
  convolution_param {
    num_output: 208
    pad: 1
    kernel_size: 3
    weight_filler {
      type: "xavier"
      std: 0.03
    }
    bias_filler {
      type: "constant"
      value: 0.2
    }
  }
}
layer {
  name: "inception_4a/relu_3x3"
  type: "ReLU"
  bottom: "inception_4a/3x3"
  top: "inception_4a/3x3"
}
layer {
  name: "inception_4a/5x5_reduce"
  type: "Convolution"
  bottom: "pool3/3x3_s2"
  top: "inception_4a/5x5_reduce"
  param {
    lr_mult: 1
    decay_mult: 1
  }
  param {
    lr_mult: 2
    decay_mult: 0
  }
  convolution_param {
    num_output: 16
    kernel_size: 1
    weight_filler {
      type: "xavier"
      std: 0.2
    }
    bias_filler {
      type: "constant"
      value: 0.2
    }
  }
}
layer {
  name: "inception_4a/relu_5x5_reduce"
  type: "ReLU"
  bottom: "inception_4a/5x5_reduce"
  top: "inception_4a/5x5_reduce"
}
layer {
  name: "inception_4a/5x5"
  type: "Convolution"
  bottom: "inception_4a/5x5_reduce"
  top: "inception_4a/5x5"
  param {
    lr_mult: 1
    decay_mult: 1
  }
  param {
    lr_mult: 2
    decay_mult: 0
  }
  convolution_param {
    num_output: 48
    pad: 2
    kernel_size: 5
    weight_filler {
      type: "xavier"
      std: 0.03
    }
    bias_filler {
      type: "constant"
      value: 0.2
    }
  }
}
layer {
  name: "inception_4a/relu_5x5"
  type: "ReLU"
  bottom: "inception_4a/5x5"
  top: "inception_4a/5x5"
}
layer {
  name: "inception_4a/pool"
  type: "Pooling"
  bottom: "pool3/3x3_s2"
  top: "inception_4a/pool"
  pooling_param {
    pool: MAX
    kernel_size: 3
    stride: 1
    pad: 1
  }
}
layer {
  name: "inception_4a/pool_proj"
  type: "Convolution"
  bottom: "inception_4a/pool"
  top: "inception_4a/pool_proj"
  param {
    lr_mult: 1
    decay_mult: 1
  }
  param {
    lr_mult: 2
    decay_mult: 0
  }
  convolution_param {
    num_output: 64
    kernel_size: 1
    weight_filler {
      type: "xavier"
      std: 0.1
    }
    bias_filler {
      type: "constant"
      value: 0.2
    }
  }
}
layer {
  name: "inception_4a/relu_pool_proj"
  type: "ReLU"
  bottom: "inception_4a/pool_proj"
  top: "inception_4a/pool_proj"
}
layer {
  name: "inception_4a/output"
  type: "Concat"
  bottom: "inception_4a/1x1"
  bottom: "inception_4a/3x3"
  bottom: "inception_4a/5x5"
  bottom: "inception_4a/pool_proj"
  top: "inception_4a/output"
}
layer {
  name: "loss1/ave_pool"
  type: "Pooling"
  bottom: "inception_4a/output"
  top: "loss1/ave_pool"
  pooling_param {
    pool: AVE
    kernel_size: 5
    stride: 3
  }
}
layer {
  name: "loss1/conv"
  type: "Convolution"
  bottom: "loss1/ave_pool"
  top: "loss1/conv"
  param {
    lr_mult: 1
    decay_mult: 1
  }
  param {
    lr_mult: 2
    decay_mult: 0
  }
  convolution_param {
    num_output: 128
    kernel_size: 1
    weight_filler {
      type: "xavier"
      std: 0.08
    }
    bias_filler {
      type: "constant"
      value: 0.2
    }
  }
}
layer {
  name: "loss1/relu_conv"
  type: "ReLU"
  bottom: "loss1/conv"
  top: "loss1/conv"
}
layer {
  name: "loss1/fc"
  type: "InnerProduct"
  bottom: "loss1/conv"
  top: "loss1/fc"
  param {
    lr_mult: 1
    decay_mult: 1
  }
  param {
    lr_mult: 2
    decay_mult: 0
  }
  inner_product_param {
    num_output: 1024
    weight_filler {
      type: "xavier"
      std: 0.02
    }
    bias_filler {
      type: "constant"
      value: 0.2
    }
  }
}
layer {
  name: "loss1/relu_fc"
  type: "ReLU"
  bottom: "loss1/fc"
  top: "loss1/fc"
}
layer {
  name: "loss1/drop_fc"
  type: "Dropout"
  bottom: "loss1/fc"
  top: "loss1/fc"
  dropout_param {
    dropout_ratio: 0.7
  }
}
layer {
  name: "loss1/classifier_plantvillage"
  type: "InnerProduct"
  bottom: "loss1/fc"
  top: "loss1/classifier_plantvillage"
  param {
    lr_mult: 1
    decay_mult: 1
  }
  param {
    lr_mult: 2
    decay_mult: 0
  }
  inner_product_param {
    num_output: 38
    weight_filler {
      type: "xavier"
      std: 0.0009765625
    }
    bias_filler {
      type: "constant"
      value: 0
    }
  }
}
layer {
  name: "inception_4b/1x1"
  type: "Convolution"
  bottom: "inception_4a/output"
  top: "inception_4b/1x1"
  param {
    lr_mult: 1
    decay_mult: 1
  }
  param {
    lr_mult: 2
    decay_mult: 0
  }
  convolution_param {
    num_output: 160
    kernel_size: 1
    weight_filler {
      type: "xavier"
      std: 0.03
    }
    bias_filler {
      type: "constant"
      value: 0.2
    }
  }
}
layer {
  name: "inception_4b/relu_1x1"
…
I0403 04:57:52.072264  2541 layer_factory.hpp:77] Creating layer inception_4c/pool
I0403 04:57:52.072288  2541 net.cpp:91] Creating Layer inception_4c/pool
I0403 04:57:52.072306  2541 net.cpp:425] inception_4c/pool <- inception_4b/output_inception_4b/output_0_split_3
I0403 04:57:52.072326  2541 net.cpp:399] inception_4c/pool -> inception_4c/pool
I0403 04:57:52.072391  2541 net.cpp:141] Setting up inception_4c/pool
I0403 04:57:52.072417  2541 net.cpp:148] Top shape: 24 512 14 14 (2408448)
I0403 04:57:52.072432  2541 net.cpp:156] Memory required for data: 1060605120
I0403 04:57:52.072448  2541 layer_factory.hpp:77] Creating layer inception_4c/pool_proj
I0403 04:57:52.072474  2541 net.cpp:91] Creating Layer inception_4c/pool_proj
I0403 04:57:52.072494  2541 net.cpp:425] inception_4c/pool_proj <- inception_4c/pool
I0403 04:57:52.072520  2541 net.cpp:399] inception_4c/pool_proj -> inception_4c/pool_proj
I0403 04:57:52.072971  2541 net.cpp:141] Setting up inception_4c/pool_proj
I0403 04:57:52.072999  2541 net.cpp:148] Top shape: 24 64 14 14 (301056)
I0403 04:57:52.073015  2541 net.cpp:156] Memory required for data: 1061809344
I0403 04:57:52.073035  2541 layer_factory.hpp:77] Creating layer inception_4c/relu_pool_proj
I0403 04:57:52.073060  2541 net.cpp:91] Creating Layer inception_4c/relu_pool_proj
I0403 04:57:52.073079  2541 net.cpp:425] inception_4c/relu_pool_proj <- inception_4c/pool_proj
I0403 04:57:52.073110  2541 net.cpp:386] inception_4c/relu_pool_proj -> inception_4c/pool_proj (in-place)
I0403 04:57:52.073137  2541 net.cpp:141] Setting up inception_4c/relu_pool_proj
I0403 04:57:52.073155  2541 net.cpp:148] Top shape: 24 64 14 14 (301056)
I0403 04:57:52.073173  2541 net.cpp:156] Memory required for data: 1063013568
I0403 04:57:52.073189  2541 layer_factory.hpp:77] Creating layer inception_4c/output
I0403 04:57:52.073210  2541 net.cpp:91] Creating Layer inception_4c/output
I0403 04:57:52.073228  2541 net.cpp:425] inception_4c/output <- inception_4c/1x1
I0403 04:57:52.073246  2541 net.cpp:425] inception_4c/output <- inception_4c/3x3
I0403 04:57:52.073264  2541 net.cpp:425] inception_4c/output <- inception_4c/5x5
I0403 04:57:52.073282  2541 net.cpp:425] inception_4c/output <- inception_4c/pool_proj
I0403 04:57:52.073302  2541 net.cpp:399] inception_4c/output -> inception_4c/output
I0403 04:57:52.073344  2541 net.cpp:141] Setting up inception_4c/output
I0403 04:57:52.073374  2541 net.cpp:148] Top shape: 24 512 14 14 (2408448)
I0403 04:57:52.073391  2541 net.cpp:156] Memory required for data: 1072647360
I0403 04:57:52.073407  2541 layer_factory.hpp:77] Creating layer inception_4c/output_inception_4c/output_0_split
I0403 04:57:52.073426  2541 net.cpp:91] Creating Layer inception_4c/output_inception_4c/output_0_split
I0403 04:57:52.073446  2541 net.cpp:425] inception_4c/output_inception_4c/output_0_split <- inception_4c/output
I0403 04:57:52.073468  2541 net.cpp:399] inception_4c/output_inception_4c/output_0_split -> inception_4c/output_inception_4c/output_0_split_0
I0403 04:57:52.073492  2541 net.cpp:399] inception_4c/output_inception_4c/output_0_split -> inception_4c/output_inception_4c/output_0_split_1
I0403 04:57:52.073513  2541 net.cpp:399] inception_4c/output_inception_4c/output_0_split -> inception_4c/output_inception_4c/output_0_split_2
I0403 04:57:52.073535  2541 net.cpp:399] inception_4c/output_inception_4c/output_0_split -> inception_4c/output_inception_4c/output_0_split_3
I0403 04:57:52.073632  2541 net.cpp:141] Setting up inception_4c/output_inception_4c/output_0_split
I0403 04:57:52.073657  2541 net.cpp:148] Top shape: 24 512 14 14 (2408448)
I0403 04:57:52.073679  2541 net.cpp:148] Top shape: 24 512 14 14 (2408448)
I0403 04:57:52.073698  2541 net.cpp:148] Top shape: 24 512 14 14 (2408448)
I0403 04:57:52.073714  2541 net.cpp:148] Top shape: 24 512 14 14 (2408448)
I0403 04:57:52.073729  2541 net.cpp:156] Memory required for data: 1111182528
I0403 04:57:52.073746  2541 layer_factory.hpp:77] Creating layer inception_4d/1x1
I0403 04:57:52.073770  2541 net.cpp:91] Creating Layer inception_4d/1x1
I0403 04:57:52.073788  2541 net.cpp:425] inception_4d/1x1 <- inception_4c/output_inception_4c/output_0_split_0
I0403 04:57:52.073812  2541 net.cpp:399] inception_4d/1x1 -> inception_4d/1x1
I0403 04:57:52.074421  2541 net.cpp:141] Setting up inception_4d/1x1
I0403 04:57:52.074450  2541 net.cpp:148] Top shape: 24 112 14 14 (526848)
I0403 04:57:52.074465  2541 net.cpp:156] Memory required for data: 1113289920
I0403 04:57:52.074484  2541 layer_factory.hpp:77] Creating layer inception_4d/relu_1x1
I0403 04:57:52.074504  2541 net.cpp:91] Creating Layer inception_4d/relu_1x1
I0403 04:57:52.074522  2541 net.cpp:425] inception_4d/relu_1x1 <- inception_4d/1x1
I0403 04:57:52.074542  2541 net.cpp:386] inception_4d/relu_1x1 -> inception_4d/1x1 (in-place)
I0403 04:57:52.074563  2541 net.cpp:141] Setting up inception_4d/relu_1x1
I0403 04:57:52.074580  2541 net.cpp:148] Top shape: 24 112 14 14 (526848)
I0403 04:57:52.074597  2541 net.cpp:156] Memory required for data: 1115397312
I0403 04:57:52.074612  2541 layer_factory.hpp:77] Creating layer inception_4d/3x3_reduce
I0403 04:57:52.074637  2541 net.cpp:91] Creating Layer inception_4d/3x3_reduce
I0403 04:57:52.074656  2541 net.cpp:425] inception_4d/3x3_reduce <- inception_4c/output_inception_4c/output_0_split_1
I0403 04:57:52.074679  2541 net.cpp:399] inception_4d/3x3_reduce -> inception_4d/3x3_reduce
I0403 04:57:52.075392  2541 net.cpp:141] Setting up inception_4d/3x3_reduce
I0403 04:57:52.075419  2541 net.cpp:148] Top shape: 24 144 14 14 (677376)
I0403 04:57:52.075436  2541 net.cpp:156] Memory required for data: 1118106816
I0403 04:57:52.075455  2541 layer_factory.hpp:77] Creating layer inception_4d/relu_3x3_reduce
I0403 04:57:52.075475  2541 net.cpp:91] Creating Layer inception_4d/relu_3x3_reduce
I0403 04:57:52.075495  2541 net.cpp:425] inception_4d/relu_3x3_reduce <- inception_4d/3x3_reduce
I0403 04:57:52.075513  2541 net.cpp:386] inception_4d/relu_3x3_reduce -> inception_4d/3x3_reduce (in-place)
I0403 04:57:52.075538  2541 net.cpp:141] Setting up inception_4d/relu_3x3_reduce
I0403 04:57:52.075558  2541 net.cpp:148] Top shape: 24 144 14 14 (677376)
I0403 04:57:52.075574  2541 net.cpp:156] Memory required for data: 1120816320
I0403 04:57:52.075590  2541 layer_factory.hpp:77] Creating layer inception_4d/3x3
I0403 04:57:52.075613  2541 net.cpp:91] Creating Layer inception_4d/3x3
I0403 04:57:52.075630  2541 net.cpp:425] inception_4d/3x3 <- inception_4d/3x3_reduce
I0403 04:57:52.075654  2541 net.cpp:399] inception_4d/3x3 -> inception_4d/3x3
I0403 04:57:52.078994  2541 net.cpp:141] Setting up inception_4d/3x3
I0403 04:57:52.079025  2541 net.cpp:148] Top shape: 24 288 14 14 (1354752)
I0403 04:57:52.079041  2541 net.cpp:156] Memory required for data: 1126235328
I0403 04:57:52.079061  2541 layer_factory.hpp:77] Creating layer inception_4d/relu_3x3
I0403 04:57:52.079085  2541 net.cpp:91] Creating Layer inception_4d/relu_3x3
I0403 04:57:52.079109  2541 net.cpp:425] inception_4d/relu_3x3 <- inception_4d/3x3
I0403 04:57:52.079130  2541 net.cpp:386] inception_4d/relu_3x3 -> inception_4d/3x3 (in-place)
I0403 04:57:52.079154  2541 net.cpp:141] Setting up inception_4d/relu_3x3
I0403 04:57:52.079174  2541 net.cpp:148] Top shape: 24 288 14 14 (1354752)
I0403 04:57:52.079217  2541 net.cpp:156] Memory required for data: 1131654336
I0403 04:57:52.079236  2541 layer_factory.hpp:77] Creating layer inception_4d/5x5_reduce
I0403 04:57:52.079282  2541 net.cpp:91] Creating Layer inception_4d/5x5_reduce
I0403 04:57:52.079303  2541 net.cpp:425] inception_4d/5x5_reduce <- inception_4c/output_inception_4c/output_0_split_2
I0403 04:57:52.079326  2541 net.cpp:399] inception_4d/5x5_reduce -> inception_4d/5x5_reduce
I0403 04:57:52.079819  2541 net.cpp:141] Setting up inception_4d/5x5_reduce
I0403 04:57:52.079849  2541 net.cpp:148] Top shape: 24 32 14 14 (150528)
I0403 04:57:52.079866  2541 net.cpp:156] Memory required for data: 1132256448
I0403 04:57:52.079886  2541 layer_factory.hpp:77] Creating layer inception_4d/relu_5x5_reduce
I0403 04:57:52.079906  2541 net.cpp:91] Creating Layer inception_4d/relu_5x5_reduce
I0403 04:57:52.079926  2541 net.cpp:425] inception_4d/relu_5x5_reduce <- inception_4d/5x5_reduce
I0403 04:57:52.079946  2541 net.cpp:386] inception_4d/relu_5x5_reduce -> inception_4d/5x5_reduce (in-place)
I0403 04:57:52.079967  2541 net.cpp:141] Setting up inception_4d/relu_5x5_reduce
I0403 04:57:52.079984  2541 net.cpp:148] Top shape: 24 32 14 14 (150528)
I0403 04:57:52.080000  2541 net.cpp:156] Memory required for data: 1132858560
I0403 04:57:52.080016  2541 layer_factory.hpp:77] Creating layer inception_4d/5x5
I0403 04:57:52.080042  2541 net.cpp:91] Creating Layer inception_4d/5x5
I0403 04:57:52.080062  2541 net.cpp:425] inception_4d/5x5 <- inception_4d/5x5_reduce
I0403 04:57:52.080086  2541 net.cpp:399] inception_4d/5x5 -> inception_4d/5x5
I0403 04:57:52.080672  2541 net.cpp:141] Setting up inception_4d/5x5
I0403 04:57:52.080701  2541 net.cpp:148] Top shape: 24 64 14 14 (301056)
I0403 04:57:52.080719  2541 net.cpp:156] Memory required for data: 1134062784
I0403 04:57:52.080739  2541 layer_factory.hpp:77] Creating layer inception_4d/relu_5x5
I0403 04:57:52.080761  2541 net.cpp:91] Creating Layer inception_4d/relu_5x5
I0403 04:57:52.080782  2541 net.cpp:425] inception_4d/relu_5x5 <- inception_4d/5x5
I0403 04:57:52.080801  2541 net.cpp:386] inception_4d/relu_5x5 -> inception_4d/5x5 (in-place)
I0403 04:57:52.080822  2541 net.cpp:141] Setting up inception_4d/relu_5x5
I0403 04:57:52.080842  2541 net.cpp:148] Top shape: 24 64 14 14 (301056)
I0403 04:57:52.080857  2541 net.cpp:156] Memory required for data: 1135267008
I0403 04:57:52.080873  2541 layer_factory.hpp:77] Creating layer inception_4d/pool
I0403 04:57:52.080895  2541 net.cpp:91] Creating Layer inception_4d/pool
I0403 04:57:52.080914  2541 net.cpp:425] inception_4d/pool <- inception_4c/output_inception_4c/output_0_split_3
I0403 04:57:52.080935  2541 net.cpp:399] inception_4d/pool -> inception_4d/pool
I0403 04:57:52.080996  2541 net.cpp:141] Setting up inception_4d/pool
I0403 04:57:52.081022  2541 net.cpp:148] Top shape: 24 512 14 14 (2408448)
I0403 04:57:52.081039  2541 net.cpp:156] Memory required for data: 1144900800
I0403 04:57:52.081055  2541 layer_factory.hpp:77] Creating layer inception_4d/pool_proj
I0403 04:57:52.081081  2541 net.cpp:91] Creating Layer inception_4d/pool_proj
I0403 04:57:52.081106  2541 net.cpp:425] inception_4d/pool_proj <- inception_4d/pool
I0403 04:57:52.081130  2541 net.cpp:399] inception_4d/pool_proj -> inception_4d/pool_proj
I0403 04:57:52.081578  2541 net.cpp:141] Setting up inception_4d/pool_proj
I0403 04:57:52.081606  2541 net.cpp:148] Top shape: 24 64 14 14 (301056)
I0403 04:57:52.081624  2541 net.cpp:156] Memory required for data: 1146105024
I0403 04:57:52.081645  2541 layer_factory.hpp:77] Creating layer inception_4d/relu_pool_proj
I0403 04:57:52.081665  2541 net.cpp:91] Creating Layer inception_4d/relu_pool_proj
I0403 04:57:52.081682  2541 net.cpp:425] inception_4d/relu_pool_proj <- inception_4d/pool_proj
I0403 04:57:52.081704  2541 net.cpp:386] inception_4d/relu_pool_proj -> inception_4d/pool_proj (in-place)
I0403 04:57:52.081727  2541 net.cpp:141] Setting up inception_4d/relu_pool_proj
I0403 04:57:52.081748  2541 net.cpp:148] Top shape: 24 64 14 14 (301056)
I0403 04:57:52.081763  2541 net.cpp:156] Memory required for data: 1147309248
I0403 04:57:52.081780  2541 layer_factory.hpp:77] Creating layer inception_4d/output
I0403 04:57:52.081804  2541 net.cpp:91] Creating Layer inception_4d/output
I0403 04:57:52.081840  2541 net.cpp:425] inception_4d/output <- inception_4d/1x1
I0403 04:57:52.081858  2541 net.cpp:425] inception_4d/output <- inception_4d/3x3
I0403 04:57:52.081877  2541 net.cpp:425] inception_4d/output <- inception_4d/5x5
I0403 04:57:52.081895  2541 net.cpp:425] inception_4d/output <- inception_4d/pool_proj
I0403 04:57:52.081914  2541 net.cpp:399] inception_4d/output -> inception_4d/output
I0403 04:57:52.081962  2541 net.cpp:141] Setting up inception_4d/output
I0403 04:57:52.081989  2541 net.cpp:148] Top shape: 24 528 14 14 (2483712)
I0403 04:57:52.082005  2541 net.cpp:156] Memory required for data: 1157244096
I0403 04:57:52.082020  2541 layer_factory.hpp:77] Creating layer inception_4d/output_inception_4d/output_0_split
I0403 04:57:52.082041  2541 net.cpp:91] Creating Layer inception_4d/output_inception_4d/output_0_split
I0403 04:57:52.082058  2541 net.cpp:425] inception_4d/output_inception_4d/output_0_split <- inception_4d/output
I0403 04:57:52.082080  2541 net.cpp:399] inception_4d/output_inception_4d/output_0_split -> inception_4d/output_inception_4d/output_0_split_0
I0403 04:57:52.082108  2541 net.cpp:399] inception_4d/output_inception_4d/output_0_split -> inception_4d/output_inception_4d/output_0_split_1
I0403 04:57:52.082132  2541 net.cpp:399] inception_4d/output_inception_4d/output_0_split -> inception_4d/output_inception_4d/output_0_split_2
I0403 04:57:52.082159  2541 net.cpp:399] inception_4d/output_inception_4d/output_0_split -> inception_4d/output_inception_4d/output_0_split_3
I0403 04:57:52.082183  2541 net.cpp:399] inception_4d/output_inception_4d/output_0_split -> inception_4d/output_inception_4d/output_0_split_4
I0403 04:57:52.082278  2541 net.cpp:141] Setting up inception_4d/output_inception_4d/output_0_split
I0403 04:57:52.082304  2541 net.cpp:148] Top shape: 24 528 14 14 (2483712)
I0403 04:57:52.082322  2541 net.cpp:148] Top shape: 24 528 14 14 (2483712)
I0403 04:57:52.082339  2541 net.cpp:148] Top shape: 24 528 14 14 (2483712)
I0403 04:57:52.082356  2541 net.cpp:148] Top shape: 24 528 14 14 (2483712)
I0403 04:57:52.082373  2541 net.cpp:148] Top shape: 24 528 14 14 (2483712)
I0403 04:57:52.082388  2541 net.cpp:156] Memory required for data: 1206918336
I0403 04:57:52.082404  2541 layer_factory.hpp:77] Creating layer loss2/ave_pool
I0403 04:57:52.082423  2541 net.cpp:91] Creating Layer loss2/ave_pool
I0403 04:57:52.082442  2541 net.cpp:425] loss2/ave_pool <- inception_4d/output_inception_4d/output_0_split_0
I0403 04:57:52.082464  2541 net.cpp:399] loss2/ave_pool -> loss2/ave_pool
I0403 04:57:52.082511  2541 net.cpp:141] Setting up loss2/ave_pool
I0403 04:57:52.082537  2541 net.cpp:148] Top shape: 24 528 4 4 (202752)
I0403 04:57:52.082553  2541 net.cpp:156] Memory required for data: 1207729344
I0403 04:57:52.082568  2541 layer_factory.hpp:77] Creating layer loss2/conv
I0403 04:57:52.082595  2541 net.cpp:91] Creating Layer loss2/conv
I0403 04:57:52.082615  2541 net.cpp:425] loss2/conv <- loss2/ave_pool
I0403 04:57:52.082638  2541 net.cpp:399] loss2/conv -> loss2/conv
I0403 04:57:52.084903  2541 net.cpp:141] Setting up loss2/conv
I0403 04:57:52.084944  2541 net.cpp:148] Top shape: 24 128 4 4 (49152)
I0403 04:57:52.084962  2541 net.cpp:156] Memory required for data: 1207925952
I0403 04:57:52.084983  2541 layer_factory.hpp:77] Creating layer loss2/relu_conv
I0403 04:57:52.085005  2541 net.cpp:91] Creating Layer loss2/relu_conv
I0403 04:57:52.085024  2541 net.cpp:425] loss2/relu_conv <- loss2/conv
I0403 04:57:52.085046  2541 net.cpp:386] loss2/relu_conv -> loss2/conv (in-place)
I0403 04:57:52.085072  2541 net.cpp:141] Setting up loss2/relu_conv
I0403 04:57:52.085091  2541 net.cpp:148] Top shape: 24 128 4 4 (49152)
I0403 04:57:52.085114  2541 net.cpp:156] Memory required for data: 1208122560
I0403 04:57:52.085131  2541 layer_factory.hpp:77] Creating layer loss2/fc
I0403 04:57:52.085153  2541 net.cpp:91] Creating Layer loss2/fc
I0403 04:57:52.085172  2541 net.cpp:425] loss2/fc <- loss2/conv
I0403 04:57:52.085193  2541 net.cpp:399] loss2/fc -> loss2/fc
I0403 04:57:52.101905  2541 net.cpp:141] Setting up loss2/fc
I0403 04:57:52.101958  2541 net.cpp:148] Top shape: 24 1024 (24576)
I0403 04:57:52.101979  2541 net.cpp:156] Memory required for data: 1208220864
I0403 04:57:52.102002  2541 layer_factory.hpp:77] Creating layer loss2/relu_fc
I0403 04:57:52.102025  2541 net.cpp:91] Creating Layer loss2/relu_fc
I0403 04:57:52.102044  2541 net.cpp:425] loss2/relu_fc <- loss2/fc
I0403 04:57:52.102066  2541 net.cpp:386] loss2/relu_fc -> loss2/fc (in-place)
I0403 04:57:52.102092  2541 net.cpp:141] Setting up loss2/relu_fc
I0403 04:57:52.102118  2541 net.cpp:148] Top shape: 24 1024 (24576)
I0403 04:57:52.102133  2541 net.cpp:156] Memory required for data: 1208319168
I0403 04:57:52.102149  2541 layer_factory.hpp:77] Creating layer loss2/drop_fc
I0403 04:57:52.102169  2541 net.cpp:91] Creating Layer loss2/drop_fc
I0403 04:57:52.102185  2541 net.cpp:425] loss2/drop_fc <- loss2/fc
I0403 04:57:52.102205  2541 net.cpp:386] loss2/drop_fc -> loss2/fc (in-place)
I0403 04:57:52.102252  2541 net.cpp:141] Setting up loss2/drop_fc
I0403 04:57:52.102277  2541 net.cpp:148] Top shape: 24 1024 (24576)
I0403 04:57:52.102293  2541 net.cpp:156] Memory required for data: 1208417472
I0403 04:57:52.102309  2541 layer_factory.hpp:77] Creating layer loss2/classifier_plantvillage
I0403 04:57:52.102330  2541 net.cpp:91] Creating Layer loss2/classifier_plantvillage
I0403 04:57:52.102350  2541 net.cpp:425] loss2/classifier_plantvillage <- loss2/fc
I0403 04:57:52.102372  2541 net.cpp:399] loss2/classifier_plantvillage -> loss2/classifier_plantvillage
I0403 04:57:52.102746  2541 net.cpp:141] Setting up loss2/classifier_plantvillage
I0403 04:57:52.102772  2541 net.cpp:148] Top shape: 24 38 (912)
I0403 04:57:52.102788  2541 net.cpp:156] Memory required for data: 1208421120
I0403 04:57:52.102807  2541 layer_factory.hpp:77] Creating layer loss2/classifier_plantvillage_loss2/classifier_plantvillage_0_split
I0403 04:57:52.102828  2541 net.cpp:91] Creating Layer loss2/classifier_plantvillage_loss2/classifier_plantvillage_0_split
I0403 04:57:52.102848  2541 net.cpp:425] loss2/classifier_plantvillage_loss2/classifier_plantvillage_0_split <- loss2/classifier_plantvillage
I0403 04:57:52.102866  2541 net.cpp:399] loss2/classifier_plantvillage_loss2/classifier_plantvillage_0_split -> loss2/classifier_plantvillage_loss2/classifier_plantvillage_0_split_0
I0403 04:57:52.102890  2541 net.cpp:399] loss2/classifier_plantvillage_loss2/classifier_plantvillage_0_split -> loss2/classifier_plantvillage_loss2/classifier_plantvillage_0_split_1
I0403 04:57:52.102915  2541 net.cpp:399] loss2/classifier_plantvillage_loss2/classifier_plantvillage_0_split -> loss2/classifier_plantvillage_loss2/classifier_plantvillage_0_split_2
I0403 04:57:52.102988  2541 net.cpp:141] Setting up loss2/classifier_plantvillage_loss2/classifier_plantvillage_0_split
I0403 04:57:52.103013  2541 net.cpp:148] Top shape: 24 38 (912)
I0403 04:57:52.103030  2541 net.cpp:148] Top shape: 24 38 (912)
I0403 04:57:52.103049  2541 net.cpp:148] Top shape: 24 38 (912)
I0403 04:57:52.103063  2541 net.cpp:156] Memory required for data: 1208432064
I0403 04:57:52.103078  2541 layer_factory.hpp:77] Creating layer inception_4e/1x1
I0403 04:57:52.103111  2541 net.cpp:91] Creating Layer inception_4e/1x1
I0403 04:57:52.103134  2541 net.cpp:425] inception_4e/1x1 <- inception_4d/output_inception_4d/output_0_split_1
I0403 04:57:52.103158  2541 net.cpp:399] inception_4e/1x1 -> inception_4e/1x1
I0403 04:57:52.104212  2541 net.cpp:141] Setting up inception_4e/1x1
I0403 04:57:52.104239  2541 net.cpp:148] Top shape: 24 256 14 14 (1204224)
I0403 04:57:52.104256  2541 net.cpp:156] Memory required for data: 1213248960
I0403 04:57:52.104275  2541 layer_factory.hpp:77] Creating layer inception_4e/relu_1x1
I0403 04:57:52.104295  2541 net.cpp:91] Creating Layer inception_4e/relu_1x1
I0403 04:57:52.104312  2541 net.cpp:425] inception_4e/relu_1x1 <- inception_4e/1x1
I0403 04:57:52.104333  2541 net.cpp:386] inception_4e/relu_1x1 -> inception_4e/1x1 (in-place)
I0403 04:57:52.104357  2541 net.cpp:141] Setting up inception_4e/relu_1x1
I0403 04:57:52.104395  2541 net.cpp:148] Top shape: 24 256 14 14 (1204224)
I0403 04:57:52.104413  2541 net.cpp:156] Memory required for data: 1218065856
I0403 04:57:52.104429  2541 layer_factory.hpp:77] Creating layer inception_4e/3x3_reduce
I0403 04:57:52.104452  2541 net.cpp:91] Creating Layer inception_4e/3x3_reduce
I0403 04:57:52.104472  2541 net.cpp:425] inception_4e/3x3_reduce <- inception_4d/output_inception_4d/output_0_split_2
I0403 04:57:52.104496  2541 net.cpp:399] inception_4e/3x3_reduce -> inception_4e/3x3_reduce
I0403 04:57:52.105808  2541 net.cpp:141] Setting up inception_4e/3x3_reduce
I0403 04:57:52.105844  2541 net.cpp:148] Top shape: 24 160 14 14 (752640)
I0403 04:57:52.105867  2541 net.cpp:156] Memory required for data: 1221076416
I0403 04:57:52.105893  2541 layer_factory.hpp:77] Creating layer inception_4e/relu_3x3_reduce
I0403 04:57:52.105914  2541 net.cpp:91] Creating Layer inception_4e/relu_3x3_reduce
I0403 04:57:52.105937  2541 net.cpp:425] inception_4e/relu_3x3_reduce <- inception_4e/3x3_reduce
I0403 04:57:52.105970  2541 net.cpp:386] inception_4e/relu_3x3_reduce -> inception_4e/3x3_reduce (in-place)
I0403 04:57:52.105994  2541 net.cpp:141] Setting up inception_4e/relu_3x3_reduce
I0403 04:57:52.106014  2541 net.cpp:148] Top shape: 24 160 14 14 (752640)
I0403 04:57:52.106029  2541 net.cpp:156] Memory required for data: 1224086976
I0403 04:57:52.106045  2541 layer_factory.hpp:77] Creating layer inception_4e/3x3
I0403 04:57:52.106068  2541 net.cpp:91] Creating Layer inception_4e/3x3
I0403 04:57:52.106087  2541 net.cpp:425] inception_4e/3x3 <- inception_4e/3x3_reduce
I0403 04:57:52.106115  2541 net.cpp:399] inception_4e/3x3 -> inception_4e/3x3
I0403 04:57:52.110095  2541 net.cpp:141] Setting up inception_4e/3x3
I0403 04:57:52.110127  2541 net.cpp:148] Top shape: 24 320 14 14 (1505280)
I0403 04:57:52.110146  2541 net.cpp:156] Memory required for data: 1230108096
I0403 04:57:52.110164  2541 layer_factory.hpp:77] Creating layer inception_4e/relu_3x3
I0403 04:57:52.110183  2541 net.cpp:91] Creating Layer inception_4e/relu_3x3
I0403 04:57:52.110201  2541 net.cpp:425] inception_4e/relu_3x3 <- inception_4e/3x3
I0403 04:57:52.110220  2541 net.cpp:386] inception_4e/relu_3x3 -> inception_4e/3x3 (in-place)
I0403 04:57:52.110242  2541 net.cpp:141] Setting up inception_4e/relu_3x3
I0403 04:57:52.110261  2541 net.cpp:148] Top shape: 24 320 14 14 (1505280)
I0403 04:57:52.110276  2541 net.cpp:156] Memory required for data: 1236129216
I0403 04:57:52.110291  2541 layer_factory.hpp:77] Creating layer inception_4e/5x5_reduce
I0403 04:57:52.110316  2541 net.cpp:91] Creating Layer inception_4e/5x5_reduce
I0403 04:57:52.110335  2541 net.cpp:425] inception_4e/5x5_reduce <- inception_4d/output_inception_4d/output_0_split_3
I0403 04:57:52.110360  2541 net.cpp:399] inception_4e/5x5_reduce -> inception_4e/5x5_reduce
I0403 04:57:52.111235  2541 net.cpp:141] Setting up inception_4e/5x5_reduce
I0403 04:57:52.111274  2541 net.cpp:148] Top shape: 24 32 14 14 (150528)
I0403 04:57:52.111295  2541 net.cpp:156] Memory required for data: 1236731328
I0403 04:57:52.111318  2541 layer_factory.hpp:77] Creating layer inception_4e/relu_5x5_reduce
I0403 04:57:52.111342  2541 net.cpp:91] Creating Layer inception_4e/relu_5x5_reduce
I0403 04:57:52.111366  2541 net.cpp:425] inception_4e/relu_5x5_reduce <- inception_4e/5x5_reduce
I0403 04:57:52.111385  2541 net.cpp:386] inception_4e/relu_5x5_reduce -> inception_4e/5x5_reduce (in-place)
I0403 04:57:52.111408  2541 net.cpp:141] Setting up inception_4e/relu_5x5_reduce
I0403 04:57:52.111428  2541 net.cpp:148] Top shape: 24 32 14 14 (150528)
I0403 04:57:52.111444  2541 net.cpp:156] Memory required for data: 1237333440
I0403 04:57:52.111459  2541 layer_factory.hpp:77] Creating layer inception_4e/5x5
I0403 04:57:52.111501  2541 net.cpp:91] Creating Layer inception_4e/5x5
I0403 04:57:52.111523  2541 net.cpp:425] inception_4e/5x5 <- inception_4e/5x5_reduce
I0403 04:57:52.111543  2541 net.cpp:399] inception_4e/5x5 -> inception_4e/5x5
I0403 04:57:52.112370  2541 net.cpp:141] Setting up inception_4e/5x5
I0403 04:57:52.112411  2541 net.cpp:148] Top shape: 24 128 14 14 (602112)
I0403 04:57:52.112429  2541 net.cpp:156] Memory required for data: 1239741888
I0403 04:57:52.112449  2541 layer_factory.hpp:77] Creating layer inception_4e/relu_5x5
I0403 04:57:52.112471  2541 net.cpp:91] Creating Layer inception_4e/relu_5x5
I0403 04:57:52.112491  2541 net.cpp:425] inception_4e/relu_5x5 <- inception_4e/5x5
I0403 04:57:52.112511  2541 net.cpp:386] inception_4e/relu_5x5 -> inception_4e/5x5 (in-place)
I0403 04:57:52.112534  2541 net.cpp:141] Setting up inception_4e/relu_5x5
I0403 04:57:52.112553  2541 net.cpp:148] Top shape: 24 128 14 14 (602112)
I0403 04:57:52.112568  2541 net.cpp:156] Memory required for data: 1242150336
I0403 04:57:52.112583  2541 layer_factory.hpp:77] Creating layer inception_4e/pool
I0403 04:57:52.112606  2541 net.cpp:91] Creating Layer inception_4e/pool
I0403 04:57:52.112624  2541 net.cpp:425] inception_4e/pool <- inception_4d/output_inception_4d/output_0_split_4
I0403 04:57:52.112644  2541 net.cpp:399] inception_4e/pool -> inception_4e/pool
I0403 04:57:52.112704  2541 net.cpp:141] Setting up inception_4e/pool
I0403 04:57:52.112730  2541 net.cpp:148] Top shape: 24 528 14 14 (2483712)
I0403 04:57:52.112746  2541 net.cpp:156] Memory required for data: 1252085184
I0403 04:57:52.112762  2541 layer_factory.hpp:77] Creating layer inception_4e/pool_proj
I0403 04:57:52.112787  2541 net.cpp:91] Creating Layer inception_4e/pool_proj
I0403 04:57:52.112807  2541 net.cpp:425] inception_4e/pool_proj <- inception_4e/pool
I0403 04:57:52.112829  2541 net.cpp:399] inception_4e/pool_proj -> inception_4e/pool_proj
I0403 04:57:52.113461  2541 net.cpp:141] Setting up inception_4e/pool_proj
I0403 04:57:52.113489  2541 net.cpp:148] Top shape: 24 128 14 14 (602112)
I0403 04:57:52.113509  2541 net.cpp:156] Memory required for data: 1254493632
I0403 04:57:52.113530  2541 layer_factory.hpp:77] Creating layer inception_4e/relu_pool_proj
I0403 04:57:52.113550  2541 net.cpp:91] Creating Layer inception_4e/relu_pool_proj
I0403 04:57:52.113569  2541 net.cpp:425] inception_4e/relu_pool_proj <- inception_4e/pool_proj
I0403 04:57:52.113589  2541 net.cpp:386] inception_4e/relu_pool_proj -> inception_4e/pool_proj (in-place)
I0403 04:57:52.113610  2541 net.cpp:141] Setting up inception_4e/relu_pool_proj
I0403 04:57:52.113637  2541 net.cpp:148] Top shape: 24 128 14 14 (602112)
I0403 04:57:52.113659  2541 net.cpp:156] Memory required for data: 1256902080
I0403 04:57:52.113682  2541 layer_factory.hpp:77] Creating layer inception_4e/output
I0403 04:57:52.113709  2541 net.cpp:91] Creating Layer inception_4e/output
I0403 04:57:52.113736  2541 net.cpp:425] inception_4e/output <- inception_4e/1x1
I0403 04:57:52.113767  2541 net.cpp:425] inception_4e/output <- inception_4e/3x3
I0403 04:57:52.113793  2541 net.cpp:425] inception_4e/output <- inception_4e/5x5
I0403 04:57:52.113822  2541 net.cpp:425] inception_4e/output <- inception_4e/pool_proj
I0403 04:57:52.113849  2541 net.cpp:399] inception_4e/output -> inception_4e/output
I0403 04:57:52.113900  2541 net.cpp:141] Setting up inception_4e/output
I0403 04:57:52.113927  2541 net.cpp:148] Top shape: 24 832 14 14 (3913728)
I0403 04:57:52.113945  2541 net.cpp:156] Memory required for data: 1272556992
I0403 04:57:52.113962  2541 layer_factory.hpp:77] Creating layer pool4/3x3_s2
I0403 04:57:52.113984  2541 net.cpp:91] Creating Layer pool4/3x3_s2
I0403 04:57:52.114003  2541 net.cpp:425] pool4/3x3_s2 <- inception_4e/output
I0403 04:57:52.114027  2541 net.cpp:399] pool4/3x3_s2 -> pool4/3x3_s2
I0403 04:57:52.114086  2541 net.cpp:141] Setting up pool4/3x3_s2
I0403 04:57:52.114115  2541 net.cpp:148] Top shape: 24 832 7 7 (978432)
I0403 04:57:52.114133  2541 net.cpp:156] Memory required for data: 1276470720
I0403 04:57:52.114150  2541 layer_factory.hpp:77] Creating layer pool4/3x3_s2_pool4/3x3_s2_0_split
I0403 04:57:52.114173  2541 net.cpp:91] Creating Layer pool4/3x3_s2_pool4/3x3_s2_0_split
I0403 04:57:52.114193  2541 net.cpp:425] pool4/3x3_s2_pool4/3x3_s2_0_split <- pool4/3x3_s2
I0403 04:57:52.114228  2541 net.cpp:399] pool4/3x3_s2_pool4/3x3_s2_0_split -> pool4/3x3_s2_pool4/3x3_s2_0_split_0
I0403 04:57:52.114258  2541 net.cpp:399] pool4/3x3_s2_pool4/3x3_s2_0_split -> pool4/3x3_s2_pool4/3x3_s2_0_split_1
I0403 04:57:52.114282  2541 net.cpp:399] pool4/3x3_s2_pool4/3x3_s2_0_split -> pool4/3x3_s2_pool4/3x3_s2_0_split_2
I0403 04:57:52.114306  2541 net.cpp:399] pool4/3x3_s2_pool4/3x3_s2_0_split -> pool4/3x3_s2_pool4/3x3_s2_0_split_3
I0403 04:57:52.114377  2541 net.cpp:141] Setting up pool4/3x3_s2_pool4/3x3_s2_0_split
I0403 04:57:52.114403  2541 net.cpp:148] Top shape: 24 832 7 7 (978432)
I0403 04:57:52.114421  2541 net.cpp:148] Top shape: 24 832 7 7 (978432)
I0403 04:57:52.114439  2541 net.cpp:148] Top shape: 24 832 7 7 (978432)
I0403 04:57:52.114454  2541 net.cpp:148] Top shape: 24 832 7 7 (978432)
I0403 04:57:52.114470  2541 net.cpp:156] Memory required for data: 1292125632
I0403 04:57:52.114485  2541 layer_factory.hpp:77] Creating layer inception_5a/1x1
I0403 04:57:52.114511  2541 net.cpp:91] Creating Layer inception_5a/1x1
I0403 04:57:52.114528  2541 net.cpp:425] inception_5a/1x1 <- pool4/3x3_s2_pool4/3x3_s2_0_split_0
I0403 04:57:52.114552  2541 net.cpp:399] inception_5a/1x1 -> inception_5a/1x1
I0403 04:57:52.116585  2541 net.cpp:141] Setting up inception_5a/1x1
I0403 04:57:52.116616  2541 net.cpp:148] Top shape: 24 256 7 7 (301056)
I0403 04:57:52.116636  2541 net.cpp:156] Memory required for data: 1293329856
I0403 04:57:52.116655  2541 layer_factory.hpp:77] Creating layer inception_5a/relu_1x1
I0403 04:57:52.116679  2541 net.cpp:91] Creating Layer inception_5a/relu_1x1
I0403 04:57:52.116698  2541 net.cpp:425] inception_5a/relu_1x1 <- inception_5a/1x1
I0403 04:57:52.116719  2541 net.cpp:386] inception_5a/relu_1x1 -> inception_5a/1x1 (in-place)
I0403 04:57:52.116741  2541 net.cpp:141] Setting up inception_5a/relu_1x1
I0403 04:57:52.116761  2541 net.cpp:148] Top shape: 24 256 7 7 (301056)
I0403 04:57:52.116778  2541 net.cpp:156] Memory required for data: 1294534080
I0403 04:57:52.116794  2541 layer_factory.hpp:77] Creating layer inception_5a/3x3_reduce
I0403 04:57:52.116890  2541 net.cpp:91] Creating Layer inception_5a/3x3_reduce
I0403 04:57:52.116915  2541 net.cpp:425] inception_5a/3x3_reduce <- pool4/3x3_s2_pool4/3x3_s2_0_split_1
I0403 04:57:52.116937  2541 net.cpp:399] inception_5a/3x3_reduce -> inception_5a/3x3_reduce
I0403 04:57:52.118553  2541 net.cpp:141] Setting up inception_5a/3x3_reduce
I0403 04:57:52.118584  2541 net.cpp:148] Top shape: 24 160 7 7 (188160)
I0403 04:57:52.118600  2541 net.cpp:156] Memory required for data: 1295286720
I0403 04:57:52.118620  2541 layer_factory.hpp:77] Creating layer inception_5a/relu_3x3_reduce
I0403 04:57:52.118643  2541 net.cpp:91] Creating Layer inception_5a/relu_3x3_reduce
I0403 04:57:52.118662  2541 net.cpp:425] inception_5a/relu_3x3_reduce <- inception_5a/3x3_reduce
I0403 04:57:52.118690  2541 net.cpp:386] inception_5a/relu_3x3_reduce -> inception_5a/3x3_reduce (in-place)
I0403 04:57:52.118711  2541 net.cpp:141] Setting up inception_5a/relu_3x3_reduce
I0403 04:57:52.118731  2541 net.cpp:148] Top shape: 24 160 7 7 (188160)
I0403 04:57:52.118746  2541 net.cpp:156] Memory required for data: 1296039360
I0403 04:57:52.118760  2541 layer_factory.hpp:77] Creating layer inception_5a/3x3
I0403 04:57:52.118785  2541 net.cpp:91] Creating Layer inception_5a/3x3
I0403 04:57:52.118805  2541 net.cpp:425] inception_5a/3x3 <- inception_5a/3x3_reduce
I0403 04:57:52.118825  2541 net.cpp:399] inception_5a/3x3 -> inception_5a/3x3
I0403 04:57:52.122725  2541 net.cpp:141] Setting up inception_5a/3x3
I0403 04:57:52.122755  2541 net.cpp:148] Top shape: 24 320 7 7 (376320)
I0403 04:57:52.122772  2541 net.cpp:156] Memory required for data: 1297544640
I0403 04:57:52.122792  2541 layer_factory.hpp:77] Creating layer inception_5a/relu_3x3
I0403 04:57:52.122813  2541 net.cpp:91] Creating Layer inception_5a/relu_3x3
I0403 04:57:52.122830  2541 net.cpp:425] inception_5a/relu_3x3 <- inception_5a/3x3
I0403 04:57:52.122851  2541 net.cpp:386] inception_5a/relu_3x3 -> inception_5a/3x3 (in-place)
I0403 04:57:52.122889  2541 net.cpp:141] Setting up inception_5a/relu_3x3
I0403 04:57:52.122910  2541 net.cpp:148] Top shape: 24 320 7 7 (376320)
I0403 04:57:52.122925  2541 net.cpp:156] Memory required for data: 1299049920
I0403 04:57:52.122942  2541 layer_factory.hpp:77] Creating layer inception_5a/5x5_reduce
I0403 04:57:52.122967  2541 net.cpp:91] Creating Layer inception_5a/5x5_reduce
I0403 04:57:52.122987  2541 net.cpp:425] inception_5a/5x5_reduce <- pool4/3x3_s2_pool4/3x3_s2_0_split_2
I0403 04:57:52.123008  2541 net.cpp:399] inception_5a/5x5_reduce -> inception_5a/5x5_reduce
I0403 04:57:52.123409  2541 net.cpp:141] Setting up inception_5a/5x5_reduce
I0403 04:57:52.123436  2541 net.cpp:148] Top shape: 24 32 7 7 (37632)
I0403 04:57:52.123452  2541 net.cpp:156] Memory required for data: 1299200448
I0403 04:57:52.123472  2541 layer_factory.hpp:77] Creating layer inception_5a/relu_5x5_reduce
I0403 04:57:52.123492  2541 net.cpp:91] Creating Layer inception_5a/relu_5x5_reduce
I0403 04:57:52.123514  2541 net.cpp:425] inception_5a/relu_5x5_reduce <- inception_5a/5x5_reduce
I0403 04:57:52.123533  2541 net.cpp:386] inception_5a/relu_5x5_reduce -> inception_5a/5x5_reduce (in-place)
I0403 04:57:52.123553  2541 net.cpp:141] Setting up inception_5a/relu_5x5_reduce
I0403 04:57:52.123574  2541 net.cpp:148] Top shape: 24 32 7 7 (37632)
I0403 04:57:52.123599  2541 net.cpp:156] Memory required for data: 1299350976
I0403 04:57:52.123621  2541 layer_factory.hpp:77] Creating layer inception_5a/5x5
I0403 04:57:52.123651  2541 net.cpp:91] Creating Layer inception_5a/5x5
I0403 04:57:52.123672  2541 net.cpp:425] inception_5a/5x5 <- inception_5a/5x5_reduce
I0403 04:57:52.123697  2541 net.cpp:399] inception_5a/5x5 -> inception_5a/5x5
I0403 04:57:52.124508  2541 net.cpp:141] Setting up inception_5a/5x5
I0403 04:57:52.124538  2541 net.cpp:148] Top shape: 24 128 7 7 (150528)
I0403 04:57:52.124557  2541 net.cpp:156] Memory required for data: 1299953088
I0403 04:57:52.124575  2541 layer_factory.hpp:77] Creating layer inception_5a/relu_5x5
I0403 04:57:52.124594  2541 net.cpp:91] Creating Layer inception_5a/relu_5x5
I0403 04:57:52.124611  2541 net.cpp:425] inception_5a/relu_5x5 <- inception_5a/5x5
I0403 04:57:52.124630  2541 net.cpp:386] inception_5a/relu_5x5 -> inception_5a/5x5 (in-place)
I0403 04:57:52.124651  2541 net.cpp:141] Setting up inception_5a/relu_5x5
I0403 04:57:52.124670  2541 net.cpp:148] Top shape: 24 128 7 7 (150528)
I0403 04:57:52.124686  2541 net.cpp:156] Memory required for data: 1300555200
I0403 04:57:52.124701  2541 layer_factory.hpp:77] Creating layer inception_5a/pool
I0403 04:57:52.124722  2541 net.cpp:91] Creating Layer inception_5a/pool
I0403 04:57:52.124742  2541 net.cpp:425] inception_5a/pool <- pool4/3x3_s2_pool4/3x3_s2_0_split_3
I0403 04:57:52.124760  2541 net.cpp:399] inception_5a/pool -> inception_5a/pool
I0403 04:57:52.124817  2541 net.cpp:141] Setting up inception_5a/pool
I0403 04:57:52.124842  2541 net.cpp:148] Top shape: 24 832 7 7 (978432)
I0403 04:57:52.124858  2541 net.cpp:156] Memory required for data: 1304468928
I0403 04:57:52.124872  2541 layer_factory.hpp:77] Creating layer inception_5a/pool_proj
I0403 04:57:52.124897  2541 net.cpp:91] Creating Layer inception_5a/pool_proj
I0403 04:57:52.124917  2541 net.cpp:425] inception_5a/pool_proj <- inception_5a/pool
I0403 04:57:52.124938  2541 net.cpp:399] inception_5a/pool_proj -> inception_5a/pool_proj
I0403 04:57:52.126308  2541 net.cpp:141] Setting up inception_5a/pool_proj
I0403 04:57:52.126338  2541 net.cpp:148] Top shape: 24 128 7 7 (150528)
I0403 04:57:52.126356  2541 net.cpp:156] Memory required for data: 1305071040
I0403 04:57:52.126376  2541 layer_factory.hpp:77] Creating layer inception_5a/relu_pool_proj
I0403 04:57:52.126395  2541 net.cpp:91] Creating Layer inception_5a/relu_pool_proj
I0403 04:57:52.126413  2541 net.cpp:425] inception_5a/relu_pool_proj <- inception_5a/pool_proj
I0403 04:57:52.126435  2541 net.cpp:386] inception_5a/relu_pool_proj -> inception_5a/pool_proj (in-place)
I0403 04:57:52.126459  2541 net.cpp:141] Setting up inception_5a/relu_pool_proj
I0403 04:57:52.126494  2541 net.cpp:148] Top shape: 24 128 7 7 (150528)
I0403 04:57:52.126512  2541 net.cpp:156] Memory required for data: 1305673152
I0403 04:57:52.126528  2541 layer_factory.hpp:77] Creating layer inception_5a/output
I0403 04:57:52.126545  2541 net.cpp:91] Creating Layer inception_5a/output
I0403 04:57:52.126562  2541 net.cpp:425] inception_5a/output <- inception_5a/1x1
I0403 04:57:52.126581  2541 net.cpp:425] inception_5a/output <- inception_5a/3x3
I0403 04:57:52.126598  2541 net.cpp:425] inception_5a/output <- inception_5a/5x5
I0403 04:57:52.126616  2541 net.cpp:425] inception_5a/output <- inception_5a/pool_proj
I0403 04:57:52.126636  2541 net.cpp:399] inception_5a/output -> inception_5a/output
I0403 04:57:52.126678  2541 net.cpp:141] Setting up inception_5a/output
I0403 04:57:52.126703  2541 net.cpp:148] Top shape: 24 832 7 7 (978432)
I0403 04:57:52.126719  2541 net.cpp:156] Memory required for data: 1309586880
I0403 04:57:52.126735  2541 layer_factory.hpp:77] Creating layer inception_5a/output_inception_5a/output_0_split
I0403 04:57:52.126754  2541 net.cpp:91] Creating Layer inception_5a/output_inception_5a/output_0_split
I0403 04:57:52.126771  2541 net.cpp:425] inception_5a/output_inception_5a/output_0_split <- inception_5a/output
I0403 04:57:52.126792  2541 net.cpp:399] inception_5a/output_inception_5a/output_0_split -> inception_5a/output_inception_5a/output_0_split_0
I0403 04:57:52.126816  2541 net.cpp:399] inception_5a/output_inception_5a/output_0_split -> inception_5a/output_inception_5a/output_0_split_1
I0403 04:57:52.126840  2541 net.cpp:399] inception_5a/output_inception_5a/output_0_split -> inception_5a/output_inception_5a/output_0_split_2
I0403 04:57:52.126864  2541 net.cpp:399] inception_5a/output_inception_5a/output_0_split -> inception_5a/output_inception_5a/output_0_split_3
I0403 04:57:52.126936  2541 net.cpp:141] Setting up inception_5a/output_inception_5a/output_0_split
I0403 04:57:52.126963  2541 net.cpp:148] Top shape: 24 832 7 7 (978432)
I0403 04:57:52.126982  2541 net.cpp:148] Top shape: 24 832 7 7 (978432)
I0403 04:57:52.126999  2541 net.cpp:148] Top shape: 24 832 7 7 (978432)
I0403 04:57:52.127017  2541 net.cpp:148] Top shape: 24 832 7 7 (978432)
I0403 04:57:52.127032  2541 net.cpp:156] Memory required for data: 1325241792
I0403 04:57:52.127048  2541 layer_factory.hpp:77] Creating layer inception_5b/1x1
I0403 04:57:52.127071  2541 net.cpp:91] Creating Layer inception_5b/1x1
I0403 04:57:52.127091  2541 net.cpp:425] inception_5b/1x1 <- inception_5a/output_inception_5a/output_0_split_0
I0403 04:57:52.127118  2541 net.cpp:399] inception_5b/1x1 -> inception_5b/1x1
I0403 04:57:52.129791  2541 net.cpp:141] Setting up inception_5b/1x1
I0403 04:57:52.129822  2541 net.cpp:148] Top shape: 24 384 7 7 (451584)
I0403 04:57:52.129838  2541 net.cpp:156] Memory required for data: 1327048128
I0403 04:57:52.129859  2541 layer_factory.hpp:77] Creating layer inception_5b/relu_1x1
I0403 04:57:52.129879  2541 net.cpp:91] Creating Layer inception_5b/relu_1x1
I0403 04:57:52.129897  2541 net.cpp:425] inception_5b/relu_1x1 <- inception_5b/1x1
I0403 04:57:52.129919  2541 net.cpp:386] inception_5b/relu_1x1 -> inception_5b/1x1 (in-place)
I0403 04:57:52.129941  2541 net.cpp:141] Setting up inception_5b/relu_1x1
I0403 04:57:52.129961  2541 net.cpp:148] Top shape: 24 384 7 7 (451584)
I0403 04:57:52.129978  2541 net.cpp:156] Memory required for data: 1328854464
I0403 04:57:52.129993  2541 layer_factory.hpp:77] Creating layer inception_5b/3x3_reduce
I0403 04:57:52.130017  2541 net.cpp:91] Creating Layer inception_5b/3x3_reduce
I0403 04:57:52.130038  2541 net.cpp:425] inception_5b/3x3_reduce <- inception_5a/output_inception_5a/output_0_split_1
I0403 04:57:52.130059  2541 net.cpp:399] inception_5b/3x3_reduce -> inception_5b/3x3_reduce
I0403 04:57:52.131731  2541 net.cpp:141] Setting up inception_5b/3x3_reduce
I0403 04:57:52.131762  2541 net.cpp:148] Top shape: 24 192 7 7 (225792)
I0403 04:57:52.131779  2541 net.cpp:156] Memory required for data: 1329757632
I0403 04:57:52.131799  2541 layer_factory.hpp:77] Creating layer inception_5b/relu_3x3_reduce
I0403 04:57:52.131834  2541 net.cpp:91] Creating Layer inception_5b/relu_3x3_reduce
I0403 04:57:52.131853  2541 net.cpp:425] inception_5b/relu_3x3_reduce <- inception_5b/3x3_reduce
I0403 04:57:52.131875  2541 net.cpp:386] inception_5b/relu_3x3_reduce -> inception_5b/3x3_reduce (in-place)
I0403 04:57:52.131898  2541 net.cpp:141] Setting up inception_5b/relu_3x3_reduce
I0403 04:57:52.131917  2541 net.cpp:148] Top shape: 24 192 7 7 (225792)
I0403 04:57:52.131933  2541 net.cpp:156] Memory required for data: 1330660800
I0403 04:57:52.131949  2541 layer_factory.hpp:77] Creating layer inception_5b/3x3
I0403 04:57:52.131973  2541 net.cpp:91] Creating Layer inception_5b/3x3
I0403 04:57:52.131994  2541 net.cpp:425] inception_5b/3x3 <- inception_5b/3x3_reduce
I0403 04:57:52.132014  2541 net.cpp:399] inception_5b/3x3 -> inception_5b/3x3
I0403 04:57:52.137732  2541 net.cpp:141] Setting up inception_5b/3x3
I0403 04:57:52.137768  2541 net.cpp:148] Top shape: 24 384 7 7 (451584)
I0403 04:57:52.137786  2541 net.cpp:156] Memory required for data: 1332467136
I0403 04:57:52.137806  2541 layer_factory.hpp:77] Creating layer inception_5b/relu_3x3
I0403 04:57:52.137826  2541 net.cpp:91] Creating Layer inception_5b/relu_3x3
I0403 04:57:52.137845  2541 net.cpp:425] inception_5b/relu_3x3 <- inception_5b/3x3
I0403 04:57:52.137863  2541 net.cpp:386] inception_5b/relu_3x3 -> inception_5b/3x3 (in-place)
I0403 04:57:52.137886  2541 net.cpp:141] Setting up inception_5b/relu_3x3
I0403 04:57:52.137905  2541 net.cpp:148] Top shape: 24 384 7 7 (451584)
I0403 04:57:52.137920  2541 net.cpp:156] Memory required for data: 1334273472
I0403 04:57:52.137935  2541 layer_factory.hpp:77] Creating layer inception_5b/5x5_reduce
I0403 04:57:52.137959  2541 net.cpp:91] Creating Layer inception_5b/5x5_reduce
I0403 04:57:52.137979  2541 net.cpp:425] inception_5b/5x5_reduce <- inception_5a/output_inception_5a/output_0_split_2
I0403 04:57:52.138001  2541 net.cpp:399] inception_5b/5x5_reduce -> inception_5b/5x5_reduce
I0403 04:57:52.138988  2541 net.cpp:141] Setting up inception_5b/5x5_reduce
I0403 04:57:52.139019  2541 net.cpp:148] Top shape: 24 48 7 7 (56448)
I0403 04:57:52.139035  2541 net.cpp:156] Memory required for data: 1334499264
I0403 04:57:52.139055  2541 layer_factory.hpp:77] Creating layer inception_5b/relu_5x5_reduce
I0403 04:57:52.139075  2541 net.cpp:91] Creating Layer inception_5b/relu_5x5_reduce
I0403 04:57:52.139099  2541 net.cpp:425] inception_5b/relu_5x5_reduce <- inception_5b/5x5_reduce
I0403 04:57:52.139137  2541 net.cpp:386] inception_5b/relu_5x5_reduce -> inception_5b/5x5_reduce (in-place)
I0403 04:57:52.139158  2541 net.cpp:141] Setting up inception_5b/relu_5x5_reduce
I0403 04:57:52.139189  2541 net.cpp:148] Top shape: 24 48 7 7 (56448)
I0403 04:57:52.139206  2541 net.cpp:156] Memory required for data: 1334725056
I0403 04:57:52.139222  2541 layer_factory.hpp:77] Creating layer inception_5b/5x5
I0403 04:57:52.139248  2541 net.cpp:91] Creating Layer inception_5b/5x5
I0403 04:57:52.139269  2541 net.cpp:425] inception_5b/5x5 <- inception_5b/5x5_reduce
I0403 04:57:52.139292  2541 net.cpp:399] inception_5b/5x5 -> inception_5b/5x5
I0403 04:57:52.140513  2541 net.cpp:141] Setting up inception_5b/5x5
I0403 04:57:52.140542  2541 net.cpp:148] Top shape: 24 128 7 7 (150528)
I0403 04:57:52.140564  2541 net.cpp:156] Memory required for data: 1335327168
I0403 04:57:52.140588  2541 layer_factory.hpp:77] Creating layer inception_5b/relu_5x5
I0403 04:57:52.140614  2541 net.cpp:91] Creating Layer inception_5b/relu_5x5
I0403 04:57:52.140638  2541 net.cpp:425] inception_5b/relu_5x5 <- inception_5b/5x5
I0403 04:57:52.140663  2541 net.cpp:386] inception_5b/relu_5x5 -> inception_5b/5x5 (in-place)
I0403 04:57:52.140702  2541 net.cpp:141] Setting up inception_5b/relu_5x5
I0403 04:57:52.140722  2541 net.cpp:148] Top shape: 24 128 7 7 (150528)
I0403 04:57:52.140743  2541 net.cpp:156] Memory required for data: 1335929280
I0403 04:57:52.140763  2541 layer_factory.hpp:77] Creating layer inception_5b/pool
I0403 04:57:52.140784  2541 net.cpp:91] Creating Layer inception_5b/pool
I0403 04:57:52.140825  2541 net.cpp:425] inception_5b/pool <- inception_5a/output_inception_5a/output_0_split_3
I0403 04:57:52.140853  2541 net.cpp:399] inception_5b/pool -> inception_5b/pool
I0403 04:57:52.140923  2541 net.cpp:141] Setting up inception_5b/pool
I0403 04:57:52.140954  2541 net.cpp:148] Top shape: 24 832 7 7 (978432)
I0403 04:57:52.140972  2541 net.cpp:156] Memory required for data: 1339843008
I0403 04:57:52.140995  2541 layer_factory.hpp:77] Creating layer inception_5b/pool_proj
I0403 04:57:52.141021  2541 net.cpp:91] Creating Layer inception_5b/pool_proj
I0403 04:57:52.141041  2541 net.cpp:425] inception_5b/pool_proj <- inception_5b/pool
I0403 04:57:52.141070  2541 net.cpp:399] inception_5b/pool_proj -> inception_5b/pool_proj
I0403 04:57:52.142545  2541 net.cpp:141] Setting up inception_5b/pool_proj
I0403 04:57:52.142577  2541 net.cpp:148] Top shape: 24 128 7 7 (150528)
I0403 04:57:52.142596  2541 net.cpp:156] Memory required for data: 1340445120
I0403 04:57:52.142614  2541 layer_factory.hpp:77] Creating layer inception_5b/relu_pool_proj
I0403 04:57:52.142638  2541 net.cpp:91] Creating Layer inception_5b/relu_pool_proj
I0403 04:57:52.142659  2541 net.cpp:425] inception_5b/relu_pool_proj <- inception_5b/pool_proj
I0403 04:57:52.142679  2541 net.cpp:386] inception_5b/relu_pool_proj -> inception_5b/pool_proj (in-place)
I0403 04:57:52.142700  2541 net.cpp:141] Setting up inception_5b/relu_pool_proj
I0403 04:57:52.142721  2541 net.cpp:148] Top shape: 24 128 7 7 (150528)
I0403 04:57:52.142737  2541 net.cpp:156] Memory required for data: 1341047232
I0403 04:57:52.142751  2541 layer_factory.hpp:77] Creating layer inception_5b/output
I0403 04:57:52.142773  2541 net.cpp:91] Creating Layer inception_5b/output
I0403 04:57:52.142792  2541 net.cpp:425] inception_5b/output <- inception_5b/1x1
I0403 04:57:52.142812  2541 net.cpp:425] inception_5b/output <- inception_5b/3x3
I0403 04:57:52.142832  2541 net.cpp:425] inception_5b/output <- inception_5b/5x5
I0403 04:57:52.142849  2541 net.cpp:425] inception_5b/output <- inception_5b/pool_proj
I0403 04:57:52.142868  2541 net.cpp:399] inception_5b/output -> inception_5b/output
I0403 04:57:52.142911  2541 net.cpp:141] Setting up inception_5b/output
I0403 04:57:52.142940  2541 net.cpp:148] Top shape: 24 1024 7 7 (1204224)
I0403 04:57:52.142958  2541 net.cpp:156] Memory required for data: 1345864128
I0403 04:57:52.142974  2541 layer_factory.hpp:77] Creating layer pool5/7x7_s1
I0403 04:57:52.142994  2541 net.cpp:91] Creating Layer pool5/7x7_s1
I0403 04:57:52.143012  2541 net.cpp:425] pool5/7x7_s1 <- inception_5b/output
I0403 04:57:52.143034  2541 net.cpp:399] pool5/7x7_s1 -> pool5/7x7_s1
I0403 04:57:52.143076  2541 net.cpp:141] Setting up pool5/7x7_s1
I0403 04:57:52.143112  2541 net.cpp:148] Top shape: 24 1024 1 1 (24576)
I0403 04:57:52.143132  2541 net.cpp:156] Memory required for data: 1345962432
I0403 04:57:52.143149  2541 layer_factory.hpp:77] Creating layer pool5/drop_7x7_s1
I0403 04:57:52.143173  2541 net.cpp:91] Creating Layer pool5/drop_7x7_s1
I0403 04:57:52.143193  2541 net.cpp:425] pool5/drop_7x7_s1 <- pool5/7x7_s1
I0403 04:57:52.143213  2541 net.cpp:386] pool5/drop_7x7_s1 -> pool5/7x7_s1 (in-place)
I0403 04:57:52.143255  2541 net.cpp:141] Setting up pool5/drop_7x7_s1
I0403 04:57:52.143281  2541 net.cpp:148] Top shape: 24 1024 1 1 (24576)
I0403 04:57:52.143297  2541 net.cpp:156] Memory required for data: 1346060736
I0403 04:57:52.143313  2541 layer_factory.hpp:77] Creating layer loss3/classifier_plantvillage
I0403 04:57:52.143335  2541 net.cpp:91] Creating Layer loss3/classifier_plantvillage
I0403 04:57:52.143353  2541 net.cpp:425] loss3/classifier_plantvillage <- pool5/7x7_s1
I0403 04:57:52.143376  2541 net.cpp:399] loss3/classifier_plantvillage -> loss3/classifier_plantvillage
I0403 04:57:52.143741  2541 net.cpp:141] Setting up loss3/classifier_plantvillage
I0403 04:57:52.143769  2541 net.cpp:148] Top shape: 24 38 (912)
I0403 04:57:52.143785  2541 net.cpp:156] Memory required for data: 1346064384
I0403 04:57:52.143805  2541 layer_factory.hpp:77] Creating layer loss3/classifier_plantvillage_loss3/classifier_plantvillage_0_split
I0403 04:57:52.143843  2541 net.cpp:91] Creating Layer loss3/classifier_plantvillage_loss3/classifier_plantvillage_0_split
I0403 04:57:52.143863  2541 net.cpp:425] loss3/classifier_plantvillage_loss3/classifier_plantvillage_0_split <- loss3/classifier_plantvillage
I0403 04:57:52.143884  2541 net.cpp:399] loss3/classifier_plantvillage_loss3/classifier_plantvillage_0_split -> loss3/classifier_plantvillage_loss3/classifier_plantvillage_0_split_0
I0403 04:57:52.143908  2541 net.cpp:399] loss3/classifier_plantvillage_loss3/classifier_plantvillage_0_split -> loss3/classifier_plantvillage_loss3/classifier_plantvillage_0_split_1
I0403 04:57:52.143931  2541 net.cpp:399] loss3/classifier_plantvillage_loss3/classifier_plantvillage_0_split -> loss3/classifier_plantvillage_loss3/classifier_plantvillage_0_split_2
I0403 04:57:52.144009  2541 net.cpp:141] Setting up loss3/classifier_plantvillage_loss3/classifier_plantvillage_0_split
I0403 04:57:52.144035  2541 net.cpp:148] Top shape: 24 38 (912)
I0403 04:57:52.144053  2541 net.cpp:148] Top shape: 24 38 (912)
I0403 04:57:52.144070  2541 net.cpp:148] Top shape: 24 38 (912)
I0403 04:57:52.144085  2541 net.cpp:156] Memory required for data: 1346075328
I0403 04:57:52.144106  2541 layer_factory.hpp:77] Creating layer loss1/loss
I0403 04:57:52.144134  2541 net.cpp:91] Creating Layer loss1/loss
I0403 04:57:52.144155  2541 net.cpp:425] loss1/loss <- loss1/classifier_plantvillage_loss1/classifier_plantvillage_0_split_0
I0403 04:57:52.144176  2541 net.cpp:425] loss1/loss <- label_data_1_split_0
…
