…
I0403 19:44:45.593343  9614 net.cpp:313] The NetState phase (1) differed from the phase (0) specified by a rule in layer data
I0403 19:44:45.594569  9614 net.cpp:49] Initializing net from parameters: 
state {
  phase: TEST
}
layer {
  name: "data"
  type: "Data"
  top: "data"
  top: "label"
  include {
    phase: TEST
  }
  transform_param {
    mirror: false
    crop_size: 224
    mean_file: "/home/mohanty/data/final_dataset/lmdb/grayscale-50-50/mean.binaryproto"
  }
  data_param {
    source: "/home/mohanty/data/final_dataset/lmdb/grayscale-50-50/test_db"
    batch_size: 24
    backend: LMDB
  }
}
layer {
  name: "conv1/7x7_s2"
  type: "Convolution"
  bottom: "data"
  top: "conv1/7x7_s2"
  param {
    lr_mult: 1
    decay_mult: 1
  }
  param {
    lr_mult: 2
    decay_mult: 0
  }
  convolution_param {
    num_output: 64
    pad: 3
    kernel_size: 7
    stride: 2
    weight_filler {
      type: "xavier"
      std: 0.1
    }
    bias_filler {
      type: "constant"
      value: 0.2
    }
  }
}
layer {
  name: "conv1/relu_7x7"
  type: "ReLU"
  bottom: "conv1/7x7_s2"
  top: "conv1/7x7_s2"
}
layer {
  name: "pool1/3x3_s2"
  type: "Pooling"
  bottom: "conv1/7x7_s2"
  top: "pool1/3x3_s2"
  pooling_param {
    pool: MAX
    kernel_size: 3
    stride: 2
  }
}
layer {
  name: "pool1/norm1"
  type: "LRN"
  bottom: "pool1/3x3_s2"
  top: "pool1/norm1"
  lrn_param {
    local_size: 5
    alpha: 0.0001
    beta: 0.75
  }
}
layer {
  name: "conv2/3x3_reduce"
  type: "Convolution"
  bottom: "pool1/norm1"
  top: "conv2/3x3_reduce"
  param {
    lr_mult: 1
    decay_mult: 1
  }
  param {
    lr_mult: 2
    decay_mult: 0
  }
  convolution_param {
    num_output: 64
    kernel_size: 1
    weight_filler {
      type: "xavier"
      std: 0.1
    }
    bias_filler {
      type: "constant"
      value: 0.2
    }
  }
}
layer {
  name: "conv2/relu_3x3_reduce"
  type: "ReLU"
  bottom: "conv2/3x3_reduce"
  top: "conv2/3x3_reduce"
}
layer {
  name: "conv2/3x3"
  type: "Convolution"
  bottom: "conv2/3x3_reduce"
  top: "conv2/3x3"
  param {
    lr_mult: 1
    decay_mult: 1
  }
  param {
    lr_mult: 2
    decay_mult: 0
  }
  convolution_param {
    num_output: 192
    pad: 1
    kernel_size: 3
    weight_filler {
      type: "xavier"
      std: 0.03
    }
    bias_filler {
      type: "constant"
      value: 0.2
    }
  }
}
layer {
  name: "conv2/relu_3x3"
  type: "ReLU"
  bottom: "conv2/3x3"
  top: "conv2/3x3"
}
layer {
  name: "conv2/norm2"
  type: "LRN"
  bottom: "conv2/3x3"
  top: "conv2/norm2"
  lrn_param {
    local_size: 5
    alpha: 0.0001
    beta: 0.75
  }
}
layer {
  name: "pool2/3x3_s2"
  type: "Pooling"
  bottom: "conv2/norm2"
  top: "pool2/3x3_s2"
  pooling_param {
    pool: MAX
    kernel_size: 3
    stride: 2
  }
}
layer {
  name: "inception_3a/1x1"
  type: "Convolution"
  bottom: "pool2/3x3_s2"
  top: "inception_3a/1x1"
  param {
    lr_mult: 1
    decay_mult: 1
  }
  param {
    lr_mult: 2
    decay_mult: 0
  }
  convolution_param {
    num_output: 64
    kernel_size: 1
    weight_filler {
      type: "xavier"
      std: 0.03
    }
    bias_filler {
      type: "constant"
      value: 0.2
    }
  }
}
layer {
  name: "inception_3a/relu_1x1"
  type: "ReLU"
  bottom: "inception_3a/1x1"
  top: "inception_3a/1x1"
}
layer {
  name: "inception_3a/3x3_reduce"
  type: "Convolution"
  bottom: "pool2/3x3_s2"
  top: "inception_3a/3x3_reduce"
  param {
    lr_mult: 1
    decay_mult: 1
  }
  param {
    lr_mult: 2
    decay_mult: 0
  }
  convolution_param {
    num_output: 96
    kernel_size: 1
    weight_filler {
      type: "xavier"
      std: 0.09
    }
    bias_filler {
      type: "constant"
      value: 0.2
    }
  }
}
layer {
  name: "inception_3a/relu_3x3_reduce"
  type: "ReLU"
  bottom: "inception_3a/3x3_reduce"
  top: "inception_3a/3x3_reduce"
}
layer {
  name: "inception_3a/3x3"
  type: "Convolution"
  bottom: "inception_3a/3x3_reduce"
  top: "inception_3a/3x3"
  param {
    lr_mult: 1
    decay_mult: 1
  }
  param {
    lr_mult: 2
    decay_mult: 0
  }
  convolution_param {
    num_output: 128
    pad: 1
    kernel_size: 3
    weight_filler {
      type: "xavier"
      std: 0.03
    }
    bias_filler {
      type: "constant"
      value: 0.2
    }
  }
}
layer {
  name: "inception_3a/relu_3x3"
  type: "ReLU"
  bottom: "inception_3a/3x3"
  top: "inception_3a/3x3"
}
layer {
  name: "inception_3a/5x5_reduce"
  type: "Convolution"
  bottom: "pool2/3x3_s2"
  top: "inception_3a/5x5_reduce"
  param {
    lr_mult: 1
    decay_mult: 1
  }
  param {
    lr_mult: 2
    decay_mult: 0
  }
  convolution_param {
    num_output: 16
    kernel_size: 1
    weight_filler {
      type: "xavier"
      std: 0.2
    }
    bias_filler {
      type: "constant"
      value: 0.2
    }
  }
}
layer {
  name: "inception_3a/relu_5x5_reduce"
  type: "ReLU"
  bottom: "inception_3a/5x5_reduce"
  top: "inception_3a/5x5_reduce"
}
layer {
  name: "inception_3a/5x5"
  type: "Convolution"
  bottom: "inception_3a/5x5_reduce"
  top: "inception_3a/5x5"
  param {
    lr_mult: 1
    decay_mult: 1
  }
  param {
    lr_mult: 2
    decay_mult: 0
  }
  convolution_param {
    num_output: 32
    pad: 2
    kernel_size: 5
    weight_filler {
      type: "xavier"
      std: 0.03
    }
    bias_filler {
      type: "constant"
      value: 0.2
    }
  }
}
layer {
  name: "inception_3a/relu_5x5"
  type: "ReLU"
  bottom: "inception_3a/5x5"
  top: "inception_3a/5x5"
}
layer {
  name: "inception_3a/pool"
  type: "Pooling"
  bottom: "pool2/3x3_s2"
  top: "inception_3a/pool"
  pooling_param {
    pool: MAX
    kernel_size: 3
    stride: 1
    pad: 1
  }
}
layer {
  name: "inception_3a/pool_proj"
  type: "Convolution"
  bottom: "inception_3a/pool"
  top: "inception_3a/pool_proj"
  param {
    lr_mult: 1
    decay_mult: 1
  }
  param {
    lr_mult: 2
    decay_mult: 0
  }
  convolution_param {
    num_output: 32
    kernel_size: 1
    weight_filler {
      type: "xavier"
      std: 0.1
    }
    bias_filler {
      type: "constant"
      value: 0.2
    }
  }
}
layer {
  name: "inception_3a/relu_pool_proj"
  type: "ReLU"
  bottom: "inception_3a/pool_proj"
  top: "inception_3a/pool_proj"
}
layer {
  name: "inception_3a/output"
  type: "Concat"
  bottom: "inception_3a/1x1"
  bottom: "inception_3a/3x3"
  bottom: "inception_3a/5x5"
  bottom: "inception_3a/pool_proj"
  top: "inception_3a/output"
}
layer {
  name: "inception_3b/1x1"
  type: "Convolution"
  bottom: "inception_3a/output"
  top: "inception_3b/1x1"
  param {
    lr_mult: 1
    decay_mult: 1
  }
  param {
    lr_mult: 2
    decay_mult: 0
  }
  convolution_param {
    num_output: 128
    kernel_size: 1
    weight_filler {
      type: "xavier"
      std: 0.03
    }
    bias_filler {
      type: "constant"
      value: 0.2
    }
  }
}
layer {
  name: "inception_3b/relu_1x1"
  type: "ReLU"
  bottom: "inception_3b/1x1"
  top: "inception_3b/1x1"
}
layer {
  name: "inception_3b/3x3_reduce"
  type: "Convolution"
  bottom: "inception_3a/output"
  top: "inception_3b/3x3_reduce"
  param {
    lr_mult: 1
    decay_mult: 1
  }
  param {
    lr_mult: 2
    decay_mult: 0
  }
  convolution_param {
    num_output: 128
    kernel_size: 1
    weight_filler {
      type: "xavier"
      std: 0.09
    }
    bias_filler {
      type: "constant"
      value: 0.2
    }
  }
}
layer {
  name: "inception_3b/relu_3x3_reduce"
  type: "ReLU"
  bottom: "inception_3b/3x3_reduce"
  top: "inception_3b/3x3_reduce"
}
layer {
  name: "inception_3b/3x3"
  type: "Convolution"
  bottom: "inception_3b/3x3_reduce"
  top: "inception_3b/3x3"
  param {
    lr_mult: 1
    decay_mult: 1
  }
  param {
    lr_mult: 2
    decay_mult: 0
  }
  convolution_param {
    num_output: 192
    pad: 1
    kernel_size: 3
    weight_filler {
      type: "xavier"
      std: 0.03
    }
    bias_filler {
      type: "constant"
      value: 0.2
    }
  }
}
layer {
  name: "inception_3b/relu_3x3"
  type: "ReLU"
  bottom: "inception_3b/3x3"
  top: "inception_3b/3x3"
}
layer {
  name: "inception_3b/5x5_reduce"
  type: "Convolution"
  bottom: "inception_3a/output"
  top: "inception_3b/5x5_reduce"
  param {
    lr_mult: 1
    decay_mult: 1
  }
  param {
    lr_mult: 2
    decay_mult: 0
  }
  convolution_param {
    num_output: 32
    kernel_size: 1
    weight_filler {
      type: "xavier"
      std: 0.2
    }
    bias_filler {
      type: "constant"
      value: 0.2
    }
  }
}
layer {
  name: "inception_3b/relu_5x5_reduce"
  type: "ReLU"
  bottom: "inception_3b/5x5_reduce"
  top: "inception_3b/5x5_reduce"
}
layer {
  name: "inception_3b/5x5"
  type: "Convolution"
  bottom: "inception_3b/5x5_reduce"
  top: "inception_3b/5x5"
  param {
    lr_mult: 1
    decay_mult: 1
  }
  param {
    lr_mult: 2
    decay_mult: 0
  }
  convolution_param {
    num_output: 96
    pad: 2
    kernel_size: 5
    weight_filler {
      type: "xavier"
      std: 0.03
    }
    bias_filler {
      type: "constant"
      value: 0.2
    }
  }
}
layer {
  name: "inception_3b/relu_5x5"
  type: "ReLU"
  bottom: "inception_3b/5x5"
  top: "inception_3b/5x5"
}
layer {
  name: "inception_3b/pool"
  type: "Pooling"
  bottom: "inception_3a/output"
  top: "inception_3b/pool"
  pooling_param {
    pool: MAX
    kernel_size: 3
    stride: 1
    pad: 1
  }
}
layer {
  name: "inception_3b/pool_proj"
  type: "Convolution"
  bottom: "inception_3b/pool"
  top: "inception_3b/pool_proj"
  param {
    lr_mult: 1
    decay_mult: 1
  }
  param {
    lr_mult: 2
    decay_mult: 0
  }
  convolution_param {
    num_output: 64
    kernel_size: 1
    weight_filler {
      type: "xavier"
      std: 0.1
    }
    bias_filler {
      type: "constant"
      value: 0.2
    }
  }
}
layer {
  name: "inception_3b/relu_pool_proj"
  type: "ReLU"
  bottom: "inception_3b/pool_proj"
  top: "inception_3b/pool_proj"
}
layer {
  name: "inception_3b/output"
  type: "Concat"
  bottom: "inception_3b/1x1"
  bottom: "inception_3b/3x3"
  bottom: "inception_3b/5x5"
  bottom: "inception_3b/pool_proj"
  top: "inception_3b/output"
}
layer {
  name: "pool3/3x3_s2"
  type: "Pooling"
  bottom: "inception_3b/output"
  top: "pool3/3x3_s2"
  pooling_param {
    pool: MAX
    kernel_size: 3
    stride: 2
  }
}
layer {
  name: "inception_4a/1x1"
  type: "Convolution"
  bottom: "pool3/3x3_s2"
  top: "inception_4a/1x1"
  param {
    lr_mult: 1
    decay_mult: 1
  }
  param {
    lr_mult: 2
    decay_mult: 0
  }
  convolution_param {
    num_output: 192
    kernel_size: 1
    weight_filler {
      type: "xavier"
      std: 0.03
    }
    bias_filler {
      type: "constant"
      value: 0.2
    }
  }
}
layer {
  name: "inception_4a/relu_1x1"
  type: "ReLU"
  bottom: "inception_4a/1x1"
  top: "inception_4a/1x1"
}
layer {
  name: "inception_4a/3x3_reduce"
  type: "Convolution"
  bottom: "pool3/3x3_s2"
  top: "inception_4a/3x3_reduce"
  param {
    lr_mult: 1
    decay_mult: 1
  }
  param {
    lr_mult: 2
    decay_mult: 0
  }
  convolution_param {
    num_output: 96
    kernel_size: 1
    weight_filler {
      type: "xavier"
      std: 0.09
    }
    bias_filler {
      type: "constant"
      value: 0.2
    }
  }
}
layer {
  name: "inception_4a/relu_3x3_reduce"
  type: "ReLU"
  bottom: "inception_4a/3x3_reduce"
  top: "inception_4a/3x3_reduce"
}
layer {
  name: "inception_4a/3x3"
  type: "Convolution"
  bottom: "inception_4a/3x3_reduce"
  top: "inception_4a/3x3"
  param {
    lr_mult: 1
    decay_mult: 1
  }
  param {
    lr_mult: 2
    decay_mult: 0
  }
  convolution_param {
    num_output: 208
    pad: 1
    kernel_size: 3
    weight_filler {
      type: "xavier"
      std: 0.03
    }
    bias_filler {
      type: "constant"
      value: 0.2
    }
  }
}
layer {
  name: "inception_4a/relu_3x3"
  type: "ReLU"
  bottom: "inception_4a/3x3"
  top: "inception_4a/3x3"
}
layer {
  name: "inception_4a/5x5_reduce"
  type: "Convolution"
  bottom: "pool3/3x3_s2"
  top: "inception_4a/5x5_reduce"
  param {
    lr_mult: 1
    decay_mult: 1
  }
  param {
    lr_mult: 2
    decay_mult: 0
  }
  convolution_param {
    num_output: 16
    kernel_size: 1
    weight_filler {
      type: "xavier"
      std: 0.2
    }
    bias_filler {
      type: "constant"
      value: 0.2
    }
  }
}
layer {
  name: "inception_4a/relu_5x5_reduce"
  type: "ReLU"
  bottom: "inception_4a/5x5_reduce"
  top: "inception_4a/5x5_reduce"
}
layer {
  name: "inception_4a/5x5"
  type: "Convolution"
  bottom: "inception_4a/5x5_reduce"
  top: "inception_4a/5x5"
  param {
    lr_mult: 1
    decay_mult: 1
  }
  param {
    lr_mult: 2
    decay_mult: 0
  }
  convolution_param {
    num_output: 48
    pad: 2
    kernel_size: 5
    weight_filler {
      type: "xavier"
      std: 0.03
    }
    bias_filler {
      type: "constant"
      value: 0.2
    }
  }
}
layer {
  name: "inception_4a/relu_5x5"
  type: "ReLU"
  bottom: "inception_4a/5x5"
  top: "inception_4a/5x5"
}
layer {
  name: "inception_4a/pool"
  type: "Pooling"
  bottom: "pool3/3x3_s2"
  top: "inception_4a/pool"
  pooling_param {
    pool: MAX
    kernel_size: 3
    stride: 1
    pad: 1
  }
}
layer {
  name: "inception_4a/pool_proj"
  type: "Convolution"
  bottom: "inception_4a/pool"
  top: "inception_4a/pool_proj"
  param {
    lr_mult: 1
    decay_mult: 1
  }
  param {
    lr_mult: 2
    decay_mult: 0
  }
  convolution_param {
    num_output: 64
    kernel_size: 1
    weight_filler {
      type: "xavier"
      std: 0.1
    }
    bias_filler {
      type: "constant"
      value: 0.2
    }
  }
}
layer {
  name: "inception_4a/relu_pool_proj"
  type: "ReLU"
  bottom: "inception_4a/pool_proj"
  top: "inception_4a/pool_proj"
}
layer {
  name: "inception_4a/output"
  type: "Concat"
  bottom: "inception_4a/1x1"
  bottom: "inception_4a/3x3"
  bottom: "inception_4a/5x5"
  bottom: "inception_4a/pool_proj"
  top: "inception_4a/output"
}
layer {
  name: "loss1/ave_pool"
  type: "Pooling"
  bottom: "inception_4a/output"
  top: "loss1/ave_pool"
  pooling_param {
    pool: AVE
    kernel_size: 5
    stride: 3
  }
}
layer {
  name: "loss1/conv"
  type: "Convolution"
  bottom: "loss1/ave_pool"
  top: "loss1/conv"
  param {
    lr_mult: 1
    decay_mult: 1
  }
  param {
    lr_mult: 2
    decay_mult: 0
  }
  convolution_param {
    num_output: 128
    kernel_size: 1
    weight_filler {
      type: "xavier"
      std: 0.08
    }
    bias_filler {
      type: "constant"
      value: 0.2
    }
  }
}
layer {
  name: "loss1/relu_conv"
  type: "ReLU"
  bottom: "loss1/conv"
  top: "loss1/conv"
}
layer {
  name: "loss1/fc"
  type: "InnerProduct"
  bottom: "loss1/conv"
  top: "loss1/fc"
  param {
    lr_mult: 1
    decay_mult: 1
  }
  param {
    lr_mult: 2
    decay_mult: 0
  }
  inner_product_param {
    num_output: 1024
    weight_filler {
      type: "xavier"
      std: 0.02
    }
    bias_filler {
      type: "constant"
      value: 0.2
    }
  }
}
layer {
  name: "loss1/relu_fc"
  type: "ReLU"
  bottom: "loss1/fc"
  top: "loss1/fc"
}
layer {
  name: "loss1/drop_fc"
  type: "Dropout"
  bottom: "loss1/fc"
  top: "loss1/fc"
  dropout_param {
    dropout_ratio: 0.7
  }
}
layer {
  name: "loss1/classifier_plantvillage"
  type: "InnerProduct"
  bottom: "loss1/fc"
  top: "loss1/classifier_plantvillage"
  param {
    lr_mult: 1
    decay_mult: 1
  }
  param {
    lr_mult: 2
    decay_mult: 0
  }
  inner_product_param {
    num_output: 38
    weight_filler {
      type: "xavier"
      std: 0.0009765625
    }
    bias_filler {
      type: "constant"
      value: 0
    }
  }
}
layer {
  name: "inception_4b/1x1"
  type: "Convolution"
  bottom: "inception_4a/output"
  top: "inception_4b/1x1"
  param {
    lr_mult: 1
    decay_mult: 1
  }
  param {
    lr_mult: 2
    decay_mult: 0
  }
  convolution_param {
    num_output: 160
    kernel_size: 1
    weight_filler {
      type: "xavier"
      std: 0.03
    }
    bias_filler {
      type: "constant"
      value: 0.2
    }
  }
}
layer {
  name: "inception_4b/relu_1x1"
  type: "ReLU"
  bottom: "inception_4b/1x1"
  top: "inception_4b/1x1"
}
layer {
  name: "inception_4b/3x3_reduce"
  type: "Convolution"
  bottom: "inception_4a/output"
  top: "inception_4b/3x3_reduce"
  param {
    lr_mult: 1
    decay_mult: 1
  }
  param {
    lr_mult: 2
    decay_mult: 0
  }
  convolution_param {
    num_output: 112
    kernel_size: 1
    weight_filler {
      type: "xavier"
      std: 0.09
    }
    bias_filler {
      type: "constant"
      value: 0.2
    }
  }
}
layer {
  name: "inception_4b/relu_3x3_reduce"
  type: "ReLU"
  bottom: "inception_4b/3x3_reduce"
  top: "inception_4b/3x3_reduce"
}
layer {
  name: "inception_4b/3x3"
  type: "Convolution"
  bottom: "inception_4b/3x3_reduce"
  top: "inception_4b/3x3"
  param {
    lr_mult: 1
    decay_mult: 1
  }
  param {
    lr_mult: 2
    decay_mult: 0
  }
  convolution_param {
    num_output: 224
    pad: 1
    kernel_size: 3
    weight_filler {
      type: "xavier"
      std: 0.03
    }
    bias_filler {
      type: "constant"
      value: 0.2
    }
  }
}
layer {
  name: "inception_4b/relu_3x3"
  type: "ReLU"
  bottom: "inception_4b/3x3"
  top: "inception_4b/3x3"
}
layer {
  name: "inception_4b/5x5_reduce"
  type: "Convolution"
  bottom: "inception_4a/output"
  top: "inception_4b/5x5_reduce"
  param {
    lr_mult: 1
    decay_mult: 1
  }
  param {
    lr_mult: 2
    decay_mult: 0
  }
  convolution_param {
    num_output: 24
    kernel_size: 1
    weight_filler {
      type: "xavier"
      std: 0.2
    }
    bias_filler {
      type: "constant"
      value: 0.2
    }
  }
}
layer {
  name: "inception_4b/relu_5x5_reduce"
  type: "ReLU"
  bottom: "inception_4b/5x5_reduce"
  top: "inception_4b/5x5_reduce"
}
layer {
  name: "inception_4b/5x5"
  type: "Convolution"
  bottom: "inception_4b/5x5_reduce"
  top: "inception_4b/5x5"
  param {
    lr_mult: 1
    decay_mult: 1
  }
  param {
    lr_mult: 2
    decay_mult: 0
  }
  convolution_param {
    num_output: 64
    pad: 2
    kernel_size: 5
    weight_filler {
      type: "xavier"
      std: 0.03
    }
    bias_filler {
      type: "constant"
      value: 0.2
    }
  }
}
layer {
  name: "inception_4b/relu_5x5"
  type: "ReLU"
  bottom: "inception_4b/5x5"
  top: "inception_4b/5x5"
}
layer {
  name: "inception_4b/pool"
  type: "Pooling"
  bottom: "inception_4a/output"
  top: "inception_4b/pool"
  pooling_param {
    pool: MAX
    kernel_size: 3
    stride: 1
    pad: 1
  }
}
layer {
  name: "inception_4b/pool_proj"
  type: "Convolution"
  bottom: "inception_4b/pool"
  top: "inception_4b/pool_proj"
  param {
    lr_mult: 1
    decay_mult: 1
  }
  param {
    lr_mult: 2
    decay_mult: 0
  }
  convolution_param {
    num_output: 64
    kernel_size: 1
    weight_filler {
      type: "xavier"
      std: 0.1
    }
    bias_filler {
      type: "constant"
      value: 0.2
    }
  }
}
layer {
  name: "inception_4b/relu_pool_proj"
  type: "ReLU"
  bottom: "inception_4b/pool_proj"
  top: "inception_4b/pool_proj"
}
layer {
  name: "inception_4b/output"
  type: "Concat"
  bottom: "inception_4b/1x1"
  bottom: "inception_4b/3x3"
  bottom: "inception_4b/5x5"
  bottom: "inception_4b/pool_proj"
  top: "inception_4b/output"
}
layer {
  name: "inception_4c/1x1"
  type: "Convolution"
  bottom: "inception_4b/output"
  top: "inception_4c/1x1"
  param {
    lr_mult: 1
    decay_mult: 1
  }
  param {
    lr_mult: 2
    decay_mult: 0
  }
  convolution_param {
    num_output: 128
    kernel_size: 1
    weight_filler {
      type: "xavier"
      std: 0.03
    }
    bias_filler {
      type: "constant"
      value: 0.2
    }
  }
}
layer {
  name: "inception_4c/relu_1x1"
  type: "ReLU"
  bottom: "inception_4c/1x1"
  top: "inception_4c/1x1"
}
layer {
  name: "inception_4c/3x3_reduce"
  type: "Convolution"
  bottom: "inception_4b/output"
  top: "inception_4c/3x3_reduce"
  param {
    lr_mult: 1
    decay_mult: 1
  }
  param {
    lr_mult: 2
    decay_mult: 0
  }
  convolution_param {
    num_output: 128
    kernel_size: 1
    weight_filler {
      type: "xavier"
      std: 0.09
    }
    bias_filler {
      type: "constant"
      value: 0.2
    }
  }
}
layer {
  name: "inception_4c/relu_3x3_reduce"
  type: "ReLU"
  bottom: "inception_4c/3x3_reduce"
  top: "inception_4c/3x3_reduce"
}
layer {
  name: "inception_4c/3x3"
  type: "Convolution"
  bottom: "inception_4c/3x3_reduce"
  top: "inception_4c/3x3"
  param {
    lr_mult: 1
    decay_mult: 1
  }
  param {
    lr_mult: 2
    decay_mult: 0
  }
  convolution_param {
    num_output: 256
    pad: 1
    kernel_size: 3
    weight_filler {
      type: "xavier"
      std: 0.03
    }
    bias_filler {
      type: "constant"
      value: 0.2
    }
  }
}
layer {
  name: "inception_4c/relu_3x3"
  type: "ReLU"
  bottom: "inception_4c/3x3"
  top: "inception_4c/3x3"
}
layer {
  name: "inception_4c/5x5_reduce"
  type: "Convolution"
  bottom: "inception_4b/output"
  top: "inception_4c/5x5_reduce"
  param {
    lr_mult: 1
    decay_mult: 1
  }
  param {
    lr_mult: 2
    decay_mult: 0
  }
  convolution_param {
    num_output: 24
    kernel_size: 1
    weight_filler {
      type: "xavier"
      std: 0.2
    }
    bias_filler {
      type: "constant"
      value: 0.2
    }
  }
}
layer {
  name: "inception_4c/relu_5x5_reduce"
  type: "ReLU"
  bottom: "inception_4c/5x5_reduce"
  top: "inception_4c/5x5_reduce"
}
layer {
  name: "inception_4c/5x5"
  type: "Convolution"
  bottom: "inception_4c/5x5_reduce"
  top: "inception_4c/5x5"
  param {
    lr_mult: 1
    decay_mult: 1
  }
  param {
    lr_mult: 2
    decay_mult: 0
  }
  convolution_param {
    num_output: 64
    pad: 2
    kernel_size: 5
    weight_filler {
      type: "xavier"
      std: 0.03
    }
    bias_filler {
      type: "constant"
      value: 0.2
    }
  }
}
layer {
  name: "inception_4c/relu_5x5"
  type: "ReLU"
  bottom: "inception_4c/5x5"
  top: "inception_4c/5x5"
}
layer {
  name: "inception_4c/pool"
  type: "Pooling"
  bottom: "inception_4b/output"
  top: "inception_4c/pool"
  pooling_param {
    pool: MAX
    kernel_size: 3
    stride: 1
    pad: 1
  }
}
layer {
  name: "inception_4c/pool_proj"
  type: "Convolution"
  bottom: "inception_4c/pool"
  top: "inception_4c/pool_proj"
  param {
    lr_mult: 1
    decay_mult: 1
  }
  param {
    lr_mult: 2
    decay_mult: 0
  }
  convolution_param {
    num_output: 64
    kernel_size: 1
    weight_filler {
      type: "xavier"
      std: 0.1
    }
    bias_filler {
      type: "constant"
      value: 0.2
    }
  }
}
layer {
  name: "inception_4c/relu_pool_proj"
  type: "ReLU"
  bottom: "inception_4c/pool_proj"
  top: "inception_4c/pool_proj"
}
layer {
  name: "inception_4c/output"
  type: "Concat"
  bottom: "inception_4c/1x1"
  bottom: "inception_4c/3x3"
  bottom: "inception_4c/5x5"
  bottom: "inception_4c/pool_proj"
  top: "inception_4c/output"
}
layer {
  name: "inception_4d/1x1"
  type: "Convolution"
  bottom: "inception_4c/output"
  top: "inception_4d/1x1"
  param {
    lr_mult: 1
    decay_mult: 1
  }
  param {
    lr_mult: 2
    decay_mult: 0
  }
  convolution_param {
    num_output: 112
    kernel_size: 1
    weight_filler {
      type: "xavier"
      std: 0.03
    }
    bias_filler {
      type: "constant"
      value: 0.2
    }
  }
}
layer {
  name: "inception_4d/relu_1x1"
  type: "ReLU"
  bottom: "inception_4d/1x1"
  top: "inception_4d/1x1"
}
layer {
  name: "inception_4d/3x3_reduce"
  type: "Convolution"
  bottom: "inception_4c/output"
  top: "inception_4d/3x3_reduce"
  param {
    lr_mult: 1
    decay_mult: 1
  }
  param {
    lr_mult: 2
    decay_mult: 0
  }
  convolution_param {
    num_output: 144
    kernel_size: 1
    weight_filler {
      type: "xavier"
      std: 0.09
    }
    bias_filler {
      type: "constant"
      value: 0.2
    }
  }
}
layer {
  name: "inception_4d/relu_3x3_reduce"
  type: "ReLU"
  bottom: "inception_4d/3x3_reduce"
  top: "inception_4d/3x3_reduce"
}
layer {
  name: "inception_4d/3x3"
  type: "Convolution"
  bottom: "inception_4d/3x3_reduce"
  top: "inception_4d/3x3"
  param {
    lr_mult: 1
    decay_mult: 1
  }
  param {
    lr_mult: 2
    decay_mult: 0
  }
  convolution_param {
    num_output: 288
    pad: 1
    kernel_size: 3
    weight_filler {
      type: "xavier"
      std: 0.03
    }
    bias_filler {
      type: "constant"
      value: 0.2
    }
  }
}
layer {
  name: "inception_4d/relu_3x3"
  type: "ReLU"
  bottom: "inception_4d/3x3"
  top: "inception_4d/3x3"
}
layer {
  name: "inception_4d/5x5_reduce"
  type: "Convolution"
  bottom: "inception_4c/output"
  top: "inception_4d/5x5_reduce"
  param {
    lr_mult: 1
    decay_mult: 1
  }
  param {
    lr_mult: 2
    decay_mult: 0
  }
  convolution_param {
    num_output: 32
    kernel_size: 1
    weight_filler {
      type: "xavier"
      std: 0.2
    }
    bias_filler {
      type: "constant"
      value: 0.2
    }
  }
}
layer {
  name: "inception_4d/relu_5x5_reduce"
  type: "ReLU"
  bottom: "inception_4d/5x5_reduce"
  top: "inception_4d/5x5_reduce"
}
layer {
  name: "inception_4d/5x5"
  type: "Convolution"
  bottom: "inception_4d/5x5_reduce"
  top: "inception_4d/5x5"
  param {
    lr_mult: 1
    decay_mult: 1
  }
  param {
    lr_mult: 2
    decay_mult: 0
  }
  convolution_param {
    num_output: 64
    pad: 2
    kernel_size: 5
    weight_filler {
      type: "xavier"
      std: 0.03
    }
    bias_filler {
      type: "constant"
      value: 0.2
    }
  }
}
layer {
  name: "inception_4d/relu_5x5"
  type: "ReLU"
  bottom: "inception_4d/5x5"
  top: "inception_4d/5x5"
}
layer {
  name: "inception_4d/pool"
  type: "Pooling"
  bottom: "inception_4c/output"
  top: "inception_4d/pool"
  pooling_param {
    pool: MAX
    kernel_size: 3
    stride: 1
    pad: 1
  }
}
layer {
  name: "inception_4d/pool_proj"
  type: "Convolution"
  bottom: "inception_4d/pool"
  top: "inception_4d/pool_proj"
  param {
    lr_mult: 1
    decay_mult: 1
  }
  param {
    lr_mult: 2
    decay_mult: 0
  }
  convolution_param {
    num_output: 64
    kernel_size: 1
    weight_filler {
      type: "xavier"
      std: 0.1
    }
    bias_filler {
      type: "constant"
      value: 0.2
    }
  }
}
layer {
  name: "inception_4d/relu_pool_proj"
  type: "ReLU"
  bottom: "inception_4d/pool_proj"
  top: "inception_4d/pool_proj"
}
layer {
  name: "inception_4d/output"
  type: "Concat"
  bottom: "inception_4d/1x1"
  bottom: "inception_4d/3x3"
  bottom: "inception_4d/5x5"
  bottom: "inception_4d/pool_proj"
  top: "inception_4d/output"
}
layer {
  name: "loss2/ave_pool"
  type: "Pooling"
  bottom: "inception_4d/output"
  top: "loss2/ave_pool"
  pooling_param {
    pool: AVE
    kernel_size: 5
    stride: 3
  }
}
layer {
  name: "loss2/conv"
  type: "Convolution"
  bottom: "loss2/ave_pool"
  top: "loss2/conv"
  param {
    lr_mult: 1
    decay_mult: 1
  }
  param {
    lr_mult: 2
    decay_mult: 0
  }
  convolution_param {
    num_output: 128
    kernel_size: 1
    weight_filler {
      type: "xavier"
      std: 0.08
    }
    bias_filler {
      type: "constant"
      value: 0.2
    }
  }
}
layer {
  name: "loss2/relu_conv"
  type: "ReLU"
  bottom: "loss2/conv"
  top: "loss2/conv"
}
layer {
  name: "loss2/fc"
  type: "InnerProduct"
  bottom: "loss2/conv"
  top: "loss2/fc"
  param {
    lr_mult: 1
    decay_mult: 1
  }
  param {
    lr_mult: 2
    decay_mult: 0
  }
  inner_product_param {
    num_output: 1024
    weight_filler {
      type: "xavier"
      std: 0.02
    }
    bias_filler {
      type: "constant"
      value: 0.2
    }
  }
}
layer {
  name: "loss2/relu_fc"
  type: "ReLU"
  bottom: "loss2/fc"
  top: "loss2/fc"
}
layer {
  name: "loss2/drop_fc"
  type: "Dropout"
  bottom: "loss2/fc"
  top: "loss2/fc"
  dropout_param {
    dropout_ratio: 0.7
  }
}
layer {
  name: "loss2/classifier_plantvillage"
  type: "InnerProduct"
  bottom: "loss2/fc"
  top: "loss2/classifier_plantvillage"
  param {
    lr_mult: 1
    decay_mult: 1
  }
  param {
    lr_mult: 2
    decay_mult: 0
  }
  inner_product_param {
    num_output: 38
    weight_filler {
      type: "xavier"
      std: 0.0009765625
    }
    bias_filler {
      type: "constant"
      value: 0
    }
  }
}
layer {
  name: "inception_4e/1x1"
  type: "Convolution"
  bottom: "inception_4d/output"
  top: "inception_4e/1x1"
  param {
    lr_mult: 1
    decay_mult: 1
  }
  param {
    lr_mult: 2
    decay_mult: 0
  }
  convolution_param {
    num_output: 256
    kernel_size: 1
    weight_filler {
      type: "xavier"
      std: 0.03
    }
    bias_filler {
      type: "constant"
      value: 0.2
    }
  }
}
layer {
  name: "inception_4e/relu_1x1"
  type: "ReLU"
  bottom: "inception_4e/1x1"
  top: "inception_4e/1x1"
}
layer {
  name: "inception_4e/3x3_reduce"
  type: "Convolution"
  bottom: "inception_4d/output"
  top: "inception_4e/3x3_reduce"
  param {
    lr_mult: 1
    decay_mult: 1
  }
  param {
    lr_mult: 2
    decay_mult: 0
  }
  convolution_param {
    num_output: 160
    kernel_size: 1
    weight_filler {
      type: "xavier"
      std: 0.09
    }
    bias_filler {
      type: "constant"
      value: 0.2
    }
  }
}
layer {
  name: "inception_4e/relu_3x3_reduce"
  type: "ReLU"
  bottom: "inception_4e/3x3_reduce"
  top: "inception_4e/3x3_reduce"
}
layer {
  name: "inception_4e/3x3"
  type: "Convolution"
  bottom: "inception_4e/3x3_reduce"
  top: "inception_4e/3x3"
  param {
    lr_mult: 1
    decay_mult: 1
  }
  param {
    lr_mult: 2
    decay_mult: 0
  }
  convolution_param {
    num_output: 320
    pad: 1
    kernel_size: 3
    weight_filler {
      type: "xavier"
      std: 0.03
    }
    bias_filler {
      type: "constant"
      value: 0.2
    }
  }
}
layer {
  name: "inception_4e/relu_3x3"
  type: "ReLU"
  bottom: "inception_4e/3x3"
  top: "inception_4e/3x3"
}
layer {
  name: "inception_4e/5x5_reduce"
  type: "Convolution"
  bottom: "inception_4d/output"
  top: "inception_4e/5x5_reduce"
  param {
    lr_mult: 1
    decay_mult: 1
  }
  param {
    lr_mult: 2
    decay_mult: 0
  }
  convolution_param {
    num_output: 32
    kernel_size: 1
    weight_filler {
      type: "xavier"
      std: 0.2
    }
    bias_filler {
      type: "constant"
      value: 0.2
    }
  }
}
layer {
  name: "inception_4e/relu_5x5_reduce"
  type: "ReLU"
  bottom: "inception_4e/5x5_reduce"
  top: "inception_4e/5x5_reduce"
}
layer {
  name: "inception_4e/5x5"
  type: "Convolution"
  bottom: "inception_4e/5x5_reduce"
  top: "inception_4e/
I0403 19:44:45.596240  9614 layer_factory.hpp:77] Creating layer data
I0403 19:44:45.596866  9614 net.cpp:91] Creating Layer data
I0403 19:44:45.596899  9614 net.cpp:399] data -> data
I0403 19:44:45.596951  9614 net.cpp:399] data -> label
I0403 19:44:45.596987  9614 data_transformer.cpp:25] Loading mean file from: /home/mohanty/data/final_dataset/lmdb/grayscale-50-50/mean.binaryproto
I0403 19:44:45.599141  9620 db_lmdb.cpp:38] Opened lmdb /home/mohanty/data/final_dataset/lmdb/grayscale-50-50/test_db
I0403 19:44:45.610988  9614 data_layer.cpp:41] output data size: 24,3,224,224
I0403 19:44:45.764029  9614 net.cpp:141] Setting up data
I0403 19:44:45.764104  9614 net.cpp:148] Top shape: 24 3 224 224 (3612672)
I0403 19:44:45.764137  9614 net.cpp:148] Top shape: 24 (24)
I0403 19:44:45.764165  9614 net.cpp:156] Memory required for data: 14450784
I0403 19:44:45.764204  9614 layer_factory.hpp:77] Creating layer label_data_1_split
I0403 19:44:45.764261  9614 net.cpp:91] Creating Layer label_data_1_split
I0403 19:44:45.764281  9614 net.cpp:425] label_data_1_split <- label
I0403 19:44:45.764312  9614 net.cpp:399] label_data_1_split -> label_data_1_split_0
I0403 19:44:45.764338  9614 net.cpp:399] label_data_1_split -> label_data_1_split_1
I0403 19:44:45.764359  9614 net.cpp:399] label_data_1_split -> label_data_1_split_2
I0403 19:44:45.764381  9614 net.cpp:399] label_data_1_split -> label_data_1_split_3
I0403 19:44:45.764401  9614 net.cpp:399] label_data_1_split -> label_data_1_split_4
I0403 19:44:45.764421  9614 net.cpp:399] label_data_1_split -> label_data_1_split_5
I0403 19:44:45.764441  9614 net.cpp:399] label_data_1_split -> label_data_1_split_6
I0403 19:44:45.764462  9614 net.cpp:399] label_data_1_split -> label_data_1_split_7
I0403 19:44:45.764482  9614 net.cpp:399] label_data_1_split -> label_data_1_split_8
I0403 19:44:45.764503  9614 net.cpp:399] label_data_1_split -> label_data_1_split_9
I0403 19:44:45.764617  9614 net.cpp:141] Setting up label_data_1_split
I0403 19:44:45.764642  9614 net.cpp:148] Top shape: 24 (24)
I0403 19:44:45.764659  9614 net.cpp:148] Top shape: 24 (24)
I0403 19:44:45.764677  9614 net.cpp:148] Top shape: 24 (24)
I0403 19:44:45.764693  9614 net.cpp:148] Top shape: 24 (24)
I0403 19:44:45.764709  9614 net.cpp:148] Top shape: 24 (24)
I0403 19:44:45.764729  9614 net.cpp:148] Top shape: 24 (24)
I0403 19:44:45.764744  9614 net.cpp:148] Top shape: 24 (24)
I0403 19:44:45.764767  9614 net.cpp:148] Top shape: 24 (24)
I0403 19:44:45.764789  9614 net.cpp:148] Top shape: 24 (24)
I0403 19:44:45.764812  9614 net.cpp:148] Top shape: 24 (24)
I0403 19:44:45.764848  9614 net.cpp:156] Memory required for data: 14451744
I0403 19:44:45.764866  9614 layer_factory.hpp:77] Creating layer conv1/7x7_s2
I0403 19:44:45.764897  9614 net.cpp:91] Creating Layer conv1/7x7_s2
I0403 19:44:45.764915  9614 net.cpp:425] conv1/7x7_s2 <- data
I0403 19:44:45.764935  9614 net.cpp:399] conv1/7x7_s2 -> conv1/7x7_s2
I0403 19:44:48.015522  9614 net.cpp:141] Setting up conv1/7x7_s2
I0403 19:44:48.015625  9614 net.cpp:148] Top shape: 24 64 112 112 (19267584)
I0403 19:44:48.015646  9614 net.cpp:156] Memory required for data: 91522080
I0403 19:44:48.015684  9614 layer_factory.hpp:77] Creating layer conv1/relu_7x7
I0403 19:44:48.015718  9614 net.cpp:91] Creating Layer conv1/relu_7x7
I0403 19:44:48.015741  9614 net.cpp:425] conv1/relu_7x7 <- conv1/7x7_s2
I0403 19:44:48.015765  9614 net.cpp:386] conv1/relu_7x7 -> conv1/7x7_s2 (in-place)
I0403 19:44:48.016136  9614 net.cpp:141] Setting up conv1/relu_7x7
I0403 19:44:48.016170  9614 net.cpp:148] Top shape: 24 64 112 112 (19267584)
I0403 19:44:48.016190  9614 net.cpp:156] Memory required for data: 168592416
I0403 19:44:48.016218  9614 layer_factory.hpp:77] Creating layer pool1/3x3_s2
I0403 19:44:48.016250  9614 net.cpp:91] Creating Layer pool1/3x3_s2
I0403 19:44:48.016273  9614 net.cpp:425] pool1/3x3_s2 <- conv1/7x7_s2
I0403 19:44:48.016295  9614 net.cpp:399] pool1/3x3_s2 -> pool1/3x3_s2
I0403 19:44:48.016386  9614 net.cpp:141] Setting up pool1/3x3_s2
I0403 19:44:48.016414  9614 net.cpp:148] Top shape: 24 64 56 56 (4816896)
I0403 19:44:48.016433  9614 net.cpp:156] Memory required for data: 187860000
I0403 19:44:48.016450  9614 layer_factory.hpp:77] Creating layer pool1/norm1
I0403 19:44:48.016480  9614 net.cpp:91] Creating Layer pool1/norm1
I0403 19:44:48.016511  9614 net.cpp:425] pool1/norm1 <- pool1/3x3_s2
I0403 19:44:48.016533  9614 net.cpp:399] pool1/norm1 -> pool1/norm1
I0403 19:44:48.020902  9614 net.cpp:141] Setting up pool1/norm1
I0403 19:44:48.021013  9614 net.cpp:148] Top shape: 24 64 56 56 (4816896)
I0403 19:44:48.021036  9614 net.cpp:156] Memory required for data: 207127584
I0403 19:44:48.021059  9614 layer_factory.hpp:77] Creating layer conv2/3x3_reduce
I0403 19:44:48.021095  9614 net.cpp:91] Creating Layer conv2/3x3_reduce
I0403 19:44:48.021117  9614 net.cpp:425] conv2/3x3_reduce <- pool1/norm1
I0403 19:44:48.021144  9614 net.cpp:399] conv2/3x3_reduce -> conv2/3x3_reduce
I0403 19:44:48.028044  9614 net.cpp:141] Setting up conv2/3x3_reduce
I0403 19:44:48.028151  9614 net.cpp:148] Top shape: 24 64 56 56 (4816896)
I0403 19:44:48.028172  9614 net.cpp:156] Memory required for data: 226395168
I0403 19:44:48.028206  9614 layer_factory.hpp:77] Creating layer conv2/relu_3x3_reduce
I0403 19:44:48.028241  9614 net.cpp:91] Creating Layer conv2/relu_3x3_reduce
I0403 19:44:48.028273  9614 net.cpp:425] conv2/relu_3x3_reduce <- conv2/3x3_reduce
I0403 19:44:48.028300  9614 net.cpp:386] conv2/relu_3x3_reduce -> conv2/3x3_reduce (in-place)
I0403 19:44:48.028916  9614 net.cpp:141] Setting up conv2/relu_3x3_reduce
I0403 19:44:48.028962  9614 net.cpp:148] Top shape: 24 64 56 56 (4816896)
I0403 19:44:48.028982  9614 net.cpp:156] Memory required for data: 245662752
I0403 19:44:48.029007  9614 layer_factory.hpp:77] Creating layer conv2/3x3
I0403 19:44:48.029042  9614 net.cpp:91] Creating Layer conv2/3x3
I0403 19:44:48.029072  9614 net.cpp:425] conv2/3x3 <- conv2/3x3_reduce
I0403 19:44:48.029098  9614 net.cpp:399] conv2/3x3 -> conv2/3x3
I0403 19:44:48.042105  9614 net.cpp:141] Setting up conv2/3x3
I0403 19:44:48.042230  9614 net.cpp:148] Top shape: 24 192 56 56 (14450688)
I0403 19:44:48.042265  9614 net.cpp:156] Memory required for data: 303465504
I0403 19:44:48.042300  9614 layer_factory.hpp:77] Creating layer conv2/relu_3x3
I0403 19:44:48.042330  9614 net.cpp:91] Creating Layer conv2/relu_3x3
I0403 19:44:48.042351  9614 net.cpp:425] conv2/relu_3x3 <- conv2/3x3
I0403 19:44:48.042377  9614 net.cpp:386] conv2/relu_3x3 -> conv2/3x3 (in-place)
I0403 19:44:48.042596  9614 net.cpp:141] Setting up conv2/relu_3x3
I0403 19:44:48.042634  9614 net.cpp:148] Top shape: 24 192 56 56 (14450688)
I0403 19:44:48.042690  9614 net.cpp:156] Memory required for data: 361268256
I0403 19:44:48.042711  9614 layer_factory.hpp:77] Creating layer conv2/norm2
I0403 19:44:48.042748  9614 net.cpp:91] Creating Layer conv2/norm2
I0403 19:44:48.042769  9614 net.cpp:425] conv2/norm2 <- conv2/3x3
I0403 19:44:48.042794  9614 net.cpp:399] conv2/norm2 -> conv2/norm2
I0403 19:44:48.043351  9614 net.cpp:141] Setting up conv2/norm2
I0403 19:44:48.043387  9614 net.cpp:148] Top shape: 24 192 56 56 (14450688)
I0403 19:44:48.043408  9614 net.cpp:156] Memory required for data: 419071008
I0403 19:44:48.043426  9614 layer_factory.hpp:77] Creating layer pool2/3x3_s2
I0403 19:44:48.043449  9614 net.cpp:91] Creating Layer pool2/3x3_s2
I0403 19:44:48.043467  9614 net.cpp:425] pool2/3x3_s2 <- conv2/norm2
I0403 19:44:48.043493  9614 net.cpp:399] pool2/3x3_s2 -> pool2/3x3_s2
I0403 19:44:48.043560  9614 net.cpp:141] Setting up pool2/3x3_s2
I0403 19:44:48.043587  9614 net.cpp:148] Top shape: 24 192 28 28 (3612672)
I0403 19:44:48.043606  9614 net.cpp:156] Memory required for data: 433521696
I0403 19:44:48.043623  9614 layer_factory.hpp:77] Creating layer pool2/3x3_s2_pool2/3x3_s2_0_split
I0403 19:44:48.043648  9614 net.cpp:91] Creating Layer pool2/3x3_s2_pool2/3x3_s2_0_split
I0403 19:44:48.043666  9614 net.cpp:425] pool2/3x3_s2_pool2/3x3_s2_0_split <- pool2/3x3_s2
I0403 19:44:48.043687  9614 net.cpp:399] pool2/3x3_s2_pool2/3x3_s2_0_split -> pool2/3x3_s2_pool2/3x3_s2_0_split_0
I0403 19:44:48.043711  9614 net.cpp:399] pool2/3x3_s2_pool2/3x3_s2_0_split -> pool2/3x3_s2_pool2/3x3_s2_0_split_1
I0403 19:44:48.043735  9614 net.cpp:399] pool2/3x3_s2_pool2/3x3_s2_0_split -> pool2/3x3_s2_pool2/3x3_s2_0_split_2
I0403 19:44:48.043762  9614 net.cpp:399] pool2/3x3_s2_pool2/3x3_s2_0_split -> pool2/3x3_s2_pool2/3x3_s2_0_split_3
I0403 19:44:48.043853  9614 net.cpp:141] Setting up pool2/3x3_s2_pool2/3x3_s2_0_split
I0403 19:44:48.043880  9614 net.cpp:148] Top shape: 24 192 28 28 (3612672)
I0403 19:44:48.043900  9614 net.cpp:148] Top shape: 24 192 28 28 (3612672)
I0403 19:44:48.043920  9614 net.cpp:148] Top shape: 24 192 28 28 (3612672)
I0403 19:44:48.043941  9614 net.cpp:148] Top shape: 24 192 28 28 (3612672)
I0403 19:44:48.043956  9614 net.cpp:156] Memory required for data: 491324448
I0403 19:44:48.043974  9614 layer_factory.hpp:77] Creating layer inception_3a/1x1
I0403 19:44:48.044008  9614 net.cpp:91] Creating Layer inception_3a/1x1
I0403 19:44:48.044029  9614 net.cpp:425] inception_3a/1x1 <- pool2/3x3_s2_pool2/3x3_s2_0_split_0
I0403 19:44:48.044055  9614 net.cpp:399] inception_3a/1x1 -> inception_3a/1x1
I0403 19:44:48.049662  9614 net.cpp:141] Setting up inception_3a/1x1
I0403 19:44:48.049787  9614 net.cpp:148] Top shape: 24 64 28 28 (1204224)
I0403 19:44:48.049806  9614 net.cpp:156] Memory required for data: 496141344
I0403 19:44:48.049844  9614 layer_factory.hpp:77] Creating layer inception_3a/relu_1x1
I0403 19:44:48.049870  9614 net.cpp:91] Creating Layer inception_3a/relu_1x1
I0403 19:44:48.049901  9614 net.cpp:425] inception_3a/relu_1x1 <- inception_3a/1x1
I0403 19:44:48.049927  9614 net.cpp:386] inception_3a/relu_1x1 -> inception_3a/1x1 (in-place)
I0403 19:44:48.050143  9614 net.cpp:141] Setting up inception_3a/relu_1x1
I0403 19:44:48.050174  9614 net.cpp:148] Top shape: 24 64 28 28 (1204224)
I0403 19:44:48.050192  9614 net.cpp:156] Memory required for data: 500958240
I0403 19:44:48.050217  9614 layer_factory.hpp:77] Creating layer inception_3a/3x3_reduce
I0403 19:44:48.050251  9614 net.cpp:91] Creating Layer inception_3a/3x3_reduce
I0403 19:44:48.050274  9614 net.cpp:425] inception_3a/3x3_reduce <- pool2/3x3_s2_pool2/3x3_s2_0_split_1
I0403 19:44:48.050304  9614 net.cpp:399] inception_3a/3x3_reduce -> inception_3a/3x3_reduce
I0403 19:44:48.057097  9614 net.cpp:141] Setting up inception_3a/3x3_reduce
I0403 19:44:48.057219  9614 net.cpp:148] Top shape: 24 96 28 28 (1806336)
I0403 19:44:48.057248  9614 net.cpp:156] Memory required for data: 508183584
I0403 19:44:48.057281  9614 layer_factory.hpp:77] Creating layer inception_3a/relu_3x3_reduce
I0403 19:44:48.057353  9614 net.cpp:91] Creating Layer inception_3a/relu_3x3_reduce
I0403 19:44:48.057377  9614 net.cpp:425] inception_3a/relu_3x3_reduce <- inception_3a/3x3_reduce
I0403 19:44:48.057402  9614 net.cpp:386] inception_3a/relu_3x3_reduce -> inception_3a/3x3_reduce (in-place)
I0403 19:44:48.057627  9614 net.cpp:141] Setting up inception_3a/relu_3x3_reduce
I0403 19:44:48.057660  9614 net.cpp:148] Top shape: 24 96 28 28 (1806336)
I0403 19:44:48.057679  9614 net.cpp:156] Memory required for data: 515408928
I0403 19:44:48.057698  9614 layer_factory.hpp:77] Creating layer inception_3a/3x3
I0403 19:44:48.057730  9614 net.cpp:91] Creating Layer inception_3a/3x3
I0403 19:44:48.057751  9614 net.cpp:425] inception_3a/3x3 <- inception_3a/3x3_reduce
I0403 19:44:48.057775  9614 net.cpp:399] inception_3a/3x3 -> inception_3a/3x3
I0403 19:44:48.062883  9614 net.cpp:141] Setting up inception_3a/3x3
I0403 19:44:48.062985  9614 net.cpp:148] Top shape: 24 128 28 28 (2408448)
I0403 19:44:48.063006  9614 net.cpp:156] Memory required for data: 525042720
I0403 19:44:48.063035  9614 layer_factory.hpp:77] Creating layer inception_3a/relu_3x3
I0403 19:44:48.063065  9614 net.cpp:91] Creating Layer inception_3a/relu_3x3
I0403 19:44:48.063088  9614 net.cpp:425] inception_3a/relu_3x3 <- inception_3a/3x3
I0403 19:44:48.063117  9614 net.cpp:386] inception_3a/relu_3x3 -> inception_3a/3x3 (in-place)
I0403 19:44:48.068621  9614 net.cpp:141] Setting up inception_3a/relu_3x3
I0403 19:44:48.068722  9614 net.cpp:148] Top shape: 24 128 28 28 (2408448)
I0403 19:44:48.068742  9614 net.cpp:156] Memory required for data: 534676512
I0403 19:44:48.068765  9614 layer_factory.hpp:77] Creating layer inception_3a/5x5_reduce
I0403 19:44:48.068804  9614 net.cpp:91] Creating Layer inception_3a/5x5_reduce
I0403 19:44:48.068830  9614 net.cpp:425] inception_3a/5x5_reduce <- pool2/3x3_s2_pool2/3x3_s2_0_split_2
I0403 19:44:48.068863  9614 net.cpp:399] inception_3a/5x5_reduce -> inception_3a/5x5_reduce
I0403 19:44:48.070505  9614 net.cpp:141] Setting up inception_3a/5x5_reduce
I0403 19:44:48.070544  9614 net.cpp:148] Top shape: 24 16 28 28 (301056)
I0403 19:44:48.070574  9614 net.cpp:156] Memory required for data: 535880736
I0403 19:44:48.070600  9614 layer_factory.hpp:77] Creating layer inception_3a/relu_5x5_reduce
I0403 19:44:48.070636  9614 net.cpp:91] Creating Layer inception_3a/relu_5x5_reduce
I0403 19:44:48.070658  9614 net.cpp:425] inception_3a/relu_5x5_reduce <- inception_3a/5x5_reduce
I0403 19:44:48.070682  9614 net.cpp:386] inception_3a/relu_5x5_reduce -> inception_3a/5x5_reduce (in-place)
I0403 19:44:48.077057  9614 net.cpp:141] Setting up inception_3a/relu_5x5_reduce
I0403 19:44:48.077199  9614 net.cpp:148] Top shape: 24 16 28 28 (301056)
I0403 19:44:48.077255  9614 net.cpp:156] Memory required for data: 537084960
I0403 19:44:48.077280  9614 layer_factory.hpp:77] Creating layer inception_3a/5x5
I0403 19:44:48.077317  9614 net.cpp:91] Creating Layer inception_3a/5x5
I0403 19:44:48.077344  9614 net.cpp:425] inception_3a/5x5 <- inception_3a/5x5_reduce
I0403 19:44:48.077391  9614 net.cpp:399] inception_3a/5x5 -> inception_3a/5x5
I0403 19:44:48.085041  9614 net.cpp:141] Setting up inception_3a/5x5
I0403 19:44:48.085141  9614 net.cpp:148] Top shape: 24 32 28 28 (602112)
I0403 19:44:48.085161  9614 net.cpp:156] Memory required for data: 539493408
I0403 19:44:48.085187  9614 layer_factory.hpp:77] Creating layer inception_3a/relu_5x5
I0403 19:44:48.085235  9614 net.cpp:91] Creating Layer inception_3a/relu_5x5
I0403 19:44:48.085261  9614 net.cpp:425] inception_3a/relu_5x5 <- inception_3a/5x5
I0403 19:44:48.085288  9614 net.cpp:386] inception_3a/relu_5x5 -> inception_3a/5x5 (in-place)
I0403 19:44:48.085690  9614 net.cpp:141] Setting up inception_3a/relu_5x5
I0403 19:44:48.085744  9614 net.cpp:148] Top shape: 24 32 28 28 (602112)
I0403 19:44:48.085777  9614 net.cpp:156] Memory required for data: 541901856
I0403 19:44:48.085810  9614 layer_factory.hpp:77] Creating layer inception_3a/pool
I0403 19:44:48.085855  9614 net.cpp:91] Creating Layer inception_3a/pool
I0403 19:44:48.085980  9614 net.cpp:425] inception_3a/pool <- pool2/3x3_s2_pool2/3x3_s2_0_split_3
I0403 19:44:48.086048  9614 net.cpp:399] inception_3a/pool -> inception_3a/pool
I0403 19:44:48.086235  9614 net.cpp:141] Setting up inception_3a/pool
I0403 19:44:48.086297  9614 net.cpp:148] Top shape: 24 192 28 28 (3612672)
I0403 19:44:48.086335  9614 net.cpp:156] Memory required for data: 556352544
I0403 19:44:48.086369  9614 layer_factory.hpp:77] Creating layer inception_3a/pool_proj
I0403 19:44:48.086423  9614 net.cpp:91] Creating Layer inception_3a/pool_proj
I0403 19:44:48.086477  9614 net.cpp:425] inception_3a/pool_proj <- inception_3a/pool
I0403 19:44:48.086529  9614 net.cpp:399] inception_3a/pool_proj -> inception_3a/pool_proj
I0403 19:44:48.094708  9614 net.cpp:141] Setting up inception_3a/pool_proj
I0403 19:44:48.094880  9614 net.cpp:148] Top shape: 24 32 28 28 (602112)
I0403 19:44:48.094923  9614 net.cpp:156] Memory required for data: 558760992
I0403 19:44:48.094993  9614 layer_factory.hpp:77] Creating layer inception_3a/relu_pool_proj
I0403 19:44:48.095053  9614 net.cpp:91] Creating Layer inception_3a/relu_pool_proj
I0403 19:44:48.095099  9614 net.cpp:425] inception_3a/relu_pool_proj <- inception_3a/pool_proj
I0403 19:44:48.095149  9614 net.cpp:386] inception_3a/relu_pool_proj -> inception_3a/pool_proj (in-place)
I0403 19:44:48.101117  9614 net.cpp:141] Setting up inception_3a/relu_pool_proj
I0403 19:44:48.101284  9614 net.cpp:148] Top shape: 24 32 28 28 (602112)
I0403 19:44:48.101333  9614 net.cpp:156] Memory required for data: 561169440
I0403 19:44:48.101377  9614 layer_factory.hpp:77] Creating layer inception_3a/output
I0403 19:44:48.101429  9614 net.cpp:91] Creating Layer inception_3a/output
I0403 19:44:48.101474  9614 net.cpp:425] inception_3a/output <- inception_3a/1x1
I0403 19:44:48.101522  9614 net.cpp:425] inception_3a/output <- inception_3a/3x3
I0403 19:44:48.101564  9614 net.cpp:425] inception_3a/output <- inception_3a/5x5
I0403 19:44:48.101615  9614 net.cpp:425] inception_3a/output <- inception_3a/pool_proj
I0403 19:44:48.101666  9614 net.cpp:399] inception_3a/output -> inception_3a/output
I0403 19:44:48.101814  9614 net.cpp:141] Setting up inception_3a/output
I0403 19:44:48.101883  9614 net.cpp:148] Top shape: 24 256 28 28 (4816896)
I0403 19:44:48.101922  9614 net.cpp:156] Memory required for data: 580437024
I0403 19:44:48.101961  9614 layer_factory.hpp:77] Creating layer inception_3a/output_inception_3a/output_0_split
I0403 19:44:48.102005  9614 net.cpp:91] Creating Layer inception_3a/output_inception_3a/output_0_split
I0403 19:44:48.102046  9614 net.cpp:425] inception_3a/output_inception_3a/output_0_split <- inception_3a/output
I0403 19:44:48.102093  9614 net.cpp:399] inception_3a/output_inception_3a/output_0_split -> inception_3a/output_inception_3a/output_0_split_0
I0403 19:44:48.102159  9614 net.cpp:399] inception_3a/output_inception_3a/output_0_split -> inception_3a/output_inception_3a/output_0_split_1
I0403 19:44:48.102263  9614 net.cpp:399] inception_3a/output_inception_3a/output_0_split -> inception_3a/output_inception_3a/output_0_split_2
I0403 19:44:48.102324  9614 net.cpp:399] inception_3a/output_inception_3a/output_0_split -> inception_3a/output_inception_3a/output_0_split_3
I0403 19:44:48.102530  9614 net.cpp:141] Setting up inception_3a/output_inception_3a/output_0_split
I0403 19:44:48.102593  9614 net.cpp:148] Top shape: 24 256 28 28 (4816896)
I0403 19:44:48.102639  9614 net.cpp:148] Top shape: 24 256 28 28 (4816896)
I0403 19:44:48.102680  9614 net.cpp:148] Top shape: 24 256 28 28 (4816896)
I0403 19:44:48.102721  9614 net.cpp:148] Top shape: 24 256 28 28 (4816896)
I0403 19:44:48.102756  9614 net.cpp:156] Memory required for data: 657507360
I0403 19:44:48.102795  9614 layer_factory.hpp:77] Creating layer inception_3b/1x1
I0403 19:44:48.102859  9614 net.cpp:91] Creating Layer inception_3b/1x1
I0403 19:44:48.102903  9614 net.cpp:425] inception_3b/1x1 <- inception_3a/output_inception_3a/output_0_split_0
I0403 19:44:48.102963  9614 net.cpp:399] inception_3b/1x1 -> inception_3b/1x1
I0403 19:44:48.109262  9614 net.cpp:141] Setting up inception_3b/1x1
I0403 19:44:48.109484  9614 net.cpp:148] Top shape: 24 128 28 28 (2408448)
I0403 19:44:48.109505  9614 net.cpp:156] Memory required for data: 667141152
I0403 19:44:48.109532  9614 layer_factory.hpp:77] Creating layer inception_3b/relu_1x1
I0403 19:44:48.109560  9614 net.cpp:91] Creating Layer inception_3b/relu_1x1
I0403 19:44:48.109581  9614 net.cpp:425] inception_3b/relu_1x1 <- inception_3b/1x1
I0403 19:44:48.109609  9614 net.cpp:386] inception_3b/relu_1x1 -> inception_3b/1x1 (in-place)
I0403 19:44:48.110059  9614 net.cpp:141] Setting up inception_3b/relu_1x1
I0403 19:44:48.110123  9614 net.cpp:148] Top shape: 24 128 28 28 (2408448)
I0403 19:44:48.110162  9614 net.cpp:156] Memory required for data: 676774944
I0403 19:44:48.110199  9614 layer_factory.hpp:77] Creating layer inception_3b/3x3_reduce
I0403 19:44:48.111883  9614 net.cpp:91] Creating Layer inception_3b/3x3_reduce
I0403 19:44:48.111981  9614 net.cpp:425] inception_3b/3x3_reduce <- inception_3a/output_inception_3a/output_0_split_1
I0403 19:44:48.112013  9614 net.cpp:399] inception_3b/3x3_reduce -> inception_3b/3x3_reduce
I0403 19:44:48.115561  9614 net.cpp:141] Setting up inception_3b/3x3_reduce
I0403 19:44:48.115648  9614 net.cpp:148] Top shape: 24 128 28 28 (2408448)
I0403 19:44:48.115691  9614 net.cpp:156] Memory required for data: 686408736
I0403 19:44:48.115741  9614 layer_factory.hpp:77] Creating layer inception_3b/relu_3x3_reduce
I0403 19:44:48.115788  9614 net.cpp:91] Creating Layer inception_3b/relu_3x3_reduce
I0403 19:44:48.115829  9614 net.cpp:425] inception_3b/relu_3x3_reduce <- inception_3b/3x3_reduce
I0403 19:44:48.115882  9614 net.cpp:386] inception_3b/relu_3x3_reduce -> inception_3b/3x3_reduce (in-place)
I0403 19:44:48.116349  9614 net.cpp:141] Setting up inception_3b/relu_3x3_reduce
I0403 19:44:48.116415  9614 net.cpp:148] Top shape: 24 128 28 28 (2408448)
I0403 19:44:48.116453  9614 net.cpp:156] Memory required for data: 696042528
I0403 19:44:48.116492  9614 layer_factory.hpp:77] Creating layer inception_3b/3x3
I0403 19:44:48.116564  9614 net.cpp:91] Creating Layer inception_3b/3x3
I0403 19:44:48.116611  9614 net.cpp:425] inception_3b/3x3 <- inception_3b/3x3_reduce
I0403 19:44:48.116662  9614 net.cpp:399] inception_3b/3x3 -> inception_3b/3x3
I0403 19:44:48.123184  9614 net.cpp:141] Setting up inception_3b/3x3
I0403 19:44:48.123225  9614 net.cpp:148] Top shape: 24 192 28 28 (3612672)
I0403 19:44:48.123246  9614 net.cpp:156] Memory required for data: 710493216
I0403 19:44:48.123270  9614 layer_factory.hpp:77] Creating layer inception_3b/relu_3x3
I0403 19:44:48.123292  9614 net.cpp:91] Creating Layer inception_3b/relu_3x3
I0403 19:44:48.123312  9614 net.cpp:425] inception_3b/relu_3x3 <- inception_3b/3x3
I0403 19:44:48.123337  9614 net.cpp:386] inception_3b/relu_3x3 -> inception_3b/3x3 (in-place)
I0403 19:44:48.123667  9614 net.cpp:141] Setting up inception_3b/relu_3x3
I0403 19:44:48.123700  9614 net.cpp:148] Top shape: 24 192 28 28 (3612672)
I0403 19:44:48.123718  9614 net.cpp:156] Memory required for data: 724943904
I0403 19:44:48.123738  9614 layer_factory.hpp:77] Creating layer inception_3b/5x5_reduce
I0403 19:44:48.123764  9614 net.cpp:91] Creating Layer inception_3b/5x5_reduce
I0403 19:44:48.123786  9614 net.cpp:425] inception_3b/5x5_reduce <- inception_3a/output_inception_3a/output_0_split_2
I0403 19:44:48.123814  9614 net.cpp:399] inception_3b/5x5_reduce -> inception_3b/5x5_reduce
I0403 19:44:48.125093  9614 net.cpp:141] Setting up inception_3b/5x5_reduce
I0403 19:44:48.125128  9614 net.cpp:148] Top shape: 24 32 28 28 (602112)
I0403 19:44:48.125146  9614 net.cpp:156] Memory required for data: 727352352
I0403 19:44:48.125169  9614 layer_factory.hpp:77] Creating layer inception_3b/relu_5x5_reduce
I0403 19:44:48.125190  9614 net.cpp:91] Creating Layer inception_3b/relu_5x5_reduce
I0403 19:44:48.125216  9614 net.cpp:425] inception_3b/relu_5x5_reduce <- inception_3b/5x5_reduce
I0403 19:44:48.125242  9614 net.cpp:386] inception_3b/relu_5x5_reduce -> inception_3b/5x5_reduce (in-place)
I0403 19:44:48.125501  9614 net.cpp:141] Setting up inception_3b/relu_5x5_reduce
I0403 19:44:48.125532  9614 net.cpp:148] Top shape: 24 32 28 28 (602112)
I0403 19:44:48.125550  9614 net.cpp:156] Memory required for data: 729760800
I0403 19:44:48.125568  9614 layer_factory.hpp:77] Creating layer inception_3b/5x5
I0403 19:44:48.125599  9614 net.cpp:91] Creating Layer inception_3b/5x5
I0403 19:44:48.125622  9614 net.cpp:425] inception_3b/5x5 <- inception_3b/5x5_reduce
I0403 19:44:48.125653  9614 net.cpp:399] inception_3b/5x5 -> inception_3b/5x5
I0403 19:44:48.128075  9614 net.cpp:141] Setting up inception_3b/5x5
I0403 19:44:48.128115  9614 net.cpp:148] Top shape: 24 96 28 28 (1806336)
I0403 19:44:48.128139  9614 net.cpp:156] Memory required for data: 736986144
I0403 19:44:48.128167  9614 layer_factory.hpp:77] Creating layer inception_3b/relu_5x5
I0403 19:44:48.128190  9614 net.cpp:91] Creating Layer inception_3b/relu_5x5
I0403 19:44:48.128216  9614 net.cpp:425] inception_3b/relu_5x5 <- inception_3b/5x5
I0403 19:44:48.128238  9614 net.cpp:386] inception_3b/relu_5x5 -> inception_3b/5x5 (in-place)
I0403 19:44:48.128473  9614 net.cpp:141] Setting up inception_3b/relu_5x5
I0403 19:44:48.128504  9614 net.cpp:148] Top shape: 24 96 28 28 (1806336)
I0403 19:44:48.128522  9614 net.cpp:156] Memory required for data: 744211488
I0403 19:44:48.128540  9614 layer_factory.hpp:77] Creating layer inception_3b/pool
I0403 19:44:48.128562  9614 net.cpp:91] Creating Layer inception_3b/pool
I0403 19:44:48.128582  9614 net.cpp:425] inception_3b/pool <- inception_3a/output_inception_3a/output_0_split_3
I0403 19:44:48.128603  9614 net.cpp:399] inception_3b/pool -> inception_3b/pool
I0403 19:44:48.128676  9614 net.cpp:141] Setting up inception_3b/pool
I0403 19:44:48.128707  9614 net.cpp:148] Top shape: 24 256 28 28 (4816896)
I0403 19:44:48.128726  9614 net.cpp:156] Memory required for data: 763479072
I0403 19:44:48.128744  9614 layer_factory.hpp:77] Creating layer inception_3b/pool_proj
I0403 19:44:48.128770  9614 net.cpp:91] Creating Layer inception_3b/pool_proj
I0403 19:44:48.128792  9614 net.cpp:425] inception_3b/pool_proj <- inception_3b/pool
I0403 19:44:48.128814  9614 net.cpp:399] inception_3b/pool_proj -> inception_3b/pool_proj
I0403 19:44:48.130156  9614 net.cpp:141] Setting up inception_3b/pool_proj
I0403 19:44:48.130190  9614 net.cpp:148] Top shape: 24 64 28 28 (1204224)
I0403 19:44:48.130214  9614 net.cpp:156] Memory required for data: 768295968
I0403 19:44:48.130239  9614 layer_factory.hpp:77] Creating layer inception_3b/relu_pool_proj
I0403 19:44:48.130265  9614 net.cpp:91] Creating Layer inception_3b/relu_pool_proj
I0403 19:44:48.130287  9614 net.cpp:425] inception_3b/relu_pool_proj <- inception_3b/pool_proj
I0403 19:44:48.130309  9614 net.cpp:386] inception_3b/relu_pool_proj -> inception_3b/pool_proj (in-place)
I0403 19:44:48.130779  9614 net.cpp:141] Setting up inception_3b/relu_pool_proj
I0403 19:44:48.130812  9614 net.cpp:148] Top shape: 24 64 28 28 (1204224)
I0403 19:44:48.130831  9614 net.cpp:156] Memory required for data: 773112864
I0403 19:44:48.130849  9614 layer_factory.hpp:77] Creating layer inception_3b/output
I0403 19:44:48.130872  9614 net.cpp:91] Creating Layer inception_3b/output
I0403 19:44:48.130890  9614 net.cpp:425] inception_3b/output <- inception_3b/1x1
I0403 19:44:48.130910  9614 net.cpp:425] inception_3b/output <- inception_3b/3x3
I0403 19:44:48.130929  9614 net.cpp:425] inception_3b/output <- inception_3b/5x5
I0403 19:44:48.130952  9614 net.cpp:425] inception_3b/output <- inception_3b/pool_proj
I0403 19:44:48.130981  9614 net.cpp:399] inception_3b/output -> inception_3b/output
I0403 19:44:48.131041  9614 net.cpp:141] Setting up inception_3b/output
I0403 19:44:48.131068  9614 net.cpp:148] Top shape: 24 480 28 28 (9031680)
I0403 19:44:48.131086  9614 net.cpp:156] Memory required for data: 809239584
I0403 19:44:48.131105  9614 layer_factory.hpp:77] Creating layer pool3/3x3_s2
I0403 19:44:48.131126  9614 net.cpp:91] Creating Layer pool3/3x3_s2
I0403 19:44:48.131146  9614 net.cpp:425] pool3/3x3_s2 <- inception_3b/output
I0403 19:44:48.131189  9614 net.cpp:399] pool3/3x3_s2 -> pool3/3x3_s2
I0403 19:44:48.131271  9614 net.cpp:141] Setting up pool3/3x3_s2
I0403 19:44:48.131301  9614 net.cpp:148] Top shape: 24 480 14 14 (2257920)
I0403 19:44:48.131319  9614 net.cpp:156] Memory required for data: 818271264
I0403 19:44:48.131336  9614 layer_factory.hpp:77] Creating layer pool3/3x3_s2_pool3/3x3_s2_0_split
I0403 19:44:48.131361  9614 net.cpp:91] Creating Layer pool3/3x3_s2_pool3/3x3_s2_0_split
I0403 19:44:48.131386  9614 net.cpp:425] pool3/3x3_s2_pool3/3x3_s2_0_split <- pool3/3x3_s2
I0403 19:44:48.131407  9614 net.cpp:399] pool3/3x3_s2_pool3/3x3_s2_0_split -> pool3/3x3_s2_pool3/3x3_s2_0_split_0
I0403 19:44:48.131433  9614 net.cpp:399] pool3/3x3_s2_pool3/3x3_s2_0_split -> pool3/3x3_s2_pool3/3x3_s2_0_split_1
I0403 19:44:48.131460  9614 net.cpp:399] pool3/3x3_s2_pool3/3x3_s2_0_split -> pool3/3x3_s2_pool3/3x3_s2_0_split_2
I0403 19:44:48.131484  9614 net.cpp:399] pool3/3x3_s2_pool3/3x3_s2_0_split -> pool3/3x3_s2_pool3/3x3_s2_0_split_3
I0403 19:44:48.131582  9614 net.cpp:141] Setting up pool3/3x3_s2_pool3/3x3_s2_0_split
I0403 19:44:48.131609  9614 net.cpp:148] Top shape: 24 480 14 14 (2257920)
I0403 19:44:48.131629  9614 net.cpp:148] Top shape: 24 480 14 14 (2257920)
I0403 19:44:48.131649  9614 net.cpp:148] Top shape: 24 480 14 14 (2257920)
I0403 19:44:48.131669  9614 net.cpp:148] Top shape: 24 480 14 14 (2257920)
I0403 19:44:48.131685  9614 net.cpp:156] Memory required for data: 854397984
I0403 19:44:48.131703  9614 layer_factory.hpp:77] Creating layer inception_4a/1x1
I0403 19:44:48.131731  9614 net.cpp:91] Creating Layer inception_4a/1x1
I0403 19:44:48.131753  9614 net.cpp:425] inception_4a/1x1 <- pool3/3x3_s2_pool3/3x3_s2_0_split_0
I0403 19:44:48.131783  9614 net.cpp:399] inception_4a/1x1 -> inception_4a/1x1
I0403 19:44:48.133764  9614 net.cpp:141] Setting up inception_4a/1x1
I0403 19:44:48.133800  9614 net.cpp:148] Top shape: 24 192 14 14 (903168)
I0403 19:44:48.133823  9614 net.cpp:156] Memory required for data: 858010656
I0403 19:44:48.133846  9614 layer_factory.hpp:77] Creating layer inception_4a/relu_1x1
I0403 19:44:48.133869  9614 net.cpp:91] Creating Layer inception_4a/relu_1x1
I0403 19:44:48.133888  9614 net.cpp:425] inception_4a/relu_1x1 <- inception_4a/1x1
I0403 19:44:48.133909  9614 net.cpp:386] inception_4a/relu_1x1 -> inception_4a/1x1 (in-place)
I0403 19:44:48.134120  9614 net.cpp:141] Setting up inception_4a/relu_1x1
I0403 19:44:48.134153  9614 net.cpp:148] Top shape: 24 192 14 14 (903168)
I0403 19:44:48.134176  9614 net.cpp:156] Memory required for data: 861623328
I0403 19:44:48.134197  9614 layer_factory.hpp:77] Creating layer inception_4a/3x3_reduce
I0403 19:44:48.134233  9614 net.cpp:91] Creating Layer inception_4a/3x3_reduce
I0403 19:44:48.134258  9614 net.cpp:425] inception_4a/3x3_reduce <- pool3/3x3_s2_pool3/3x3_s2_0_split_1
I0403 19:44:48.134280  9614 net.cpp:399] inception_4a/3x3_reduce -> inception_4a/3x3_reduce
I0403 19:44:48.135830  9614 net.cpp:141] Setting up inception_4a/3x3_reduce
I0403 19:44:48.135864  9614 net.cpp:148] Top shape: 24 96 14 14 (451584)
I0403 19:44:48.135884  9614 net.cpp:156] Memory required for data: 863429664
I0403 19:44:48.135916  9614 layer_factory.hpp:77] Creating layer inception_4a/relu_3x3_reduce
I0403 19:44:48.135943  9614 net.cpp:91] Creating Layer inception_4a/relu_3x3_reduce
I0403 19:44:48.135963  9614 net.cpp:425] inception_4a/relu_3x3_reduce <- inception_4a/3x3_reduce
I0403 19:44:48.135985  9614 net.cpp:386] inception_4a/relu_3x3_reduce -> inception_4a/3x3_reduce (in-place)
I0403 19:44:48.136199  9614 net.cpp:141] Setting up inception_4a/relu_3x3_reduce
I0403 19:44:48.136243  9614 net.cpp:148] Top shape: 24 96 14 14 (451584)
I0403 19:44:48.136265  9614 net.cpp:156] Memory required for data: 865236000
I0403 19:44:48.136284  9614 layer_factory.hpp:77] Creating layer inception_4a/3x3
I0403 19:44:48.136312  9614 net.cpp:91] Creating Layer inception_4a/3x3
I0403 19:44:48.136333  9614 net.cpp:425] inception_4a/3x3 <- inception_4a/3x3_reduce
I0403 19:44:48.136358  9614 net.cpp:399] inception_4a/3x3 -> inception_4a/3x3
I0403 19:44:48.139598  9614 net.cpp:141] Setting up inception_4a/3x3
I0403 19:44:48.139637  9614 net.cpp:148] Top shape: 24 208 14 14 (978432)
I0403 19:44:48.139657  9614 net.cpp:156] Memory required for data: 869149728
I0403 19:44:48.139681  9614 layer_factory.hpp:77] Creating layer inception_4a/relu_3x3
I0403 19:44:48.139703  9614 net.cpp:91] Creating Layer inception_4a/relu_3x3
I0403 19:44:48.139724  9614 net.cpp:425] inception_4a/relu_3x3 <- inception_4a/3x3
I0403 19:44:48.139747  9614 net.cpp:386] inception_4a/relu_3x3 -> inception_4a/3x3 (in-place)
I0403 19:44:48.140084  9614 net.cpp:141] Setting up inception_4a/relu_3x3
I0403 19:44:48.140118  9614 net.cpp:148] Top shape: 24 208 14 14 (978432)
I0403 19:44:48.140137  9614 net.cpp:156] Memory required for data: 873063456
I0403 19:44:48.140156  9614 layer_factory.hpp:77] Creating layer inception_4a/5x5_reduce
I0403 19:44:48.140190  9614 net.cpp:91] Creating Layer inception_4a/5x5_reduce
I0403 19:44:48.140218  9614 net.cpp:425] inception_4a/5x5_reduce <- pool3/3x3_s2_pool3/3x3_s2_0_split_2
I0403 19:44:48.140247  9614 net.cpp:399] inception_4a/5x5_reduce -> inception_4a/5x5_reduce
I0403 19:44:48.141546  9614 net.cpp:141] Setting up inception_4a/5x5_reduce
I0403 19:44:48.141582  9614 net.cpp:148] Top shape: 24 16 14 14 (75264)
I0403 19:44:48.141602  9614 net.cpp:156] Memory required for data: 873364512
I0403 19:44:48.141625  9614 layer_factory.hpp:77] Creating layer inception_4a/relu_5x5_reduce
I0403 19:44:48.141646  9614 net.cpp:91] Creating Layer inception_4a/relu_5x5_reduce
I0403 19:44:48.141667  9614 net.cpp:425] inception_4a/relu_5x5_reduce <- inception_4a/5x5_reduce
I0403 19:44:48.141705  9614 net.cpp:386] inception_4a/relu_5x5_reduce -> inception_4a/5x5_reduce (in-place)
I0403 19:44:48.141923  9614 net.cpp:141] Setting up inception_4a/relu_5x5_reduce
I0403 19:44:48.141955  9614 net.cpp:148] Top shape: 24 16 14 14 (75264)
I0403 19:44:48.141973  9614 net.cpp:156] Memory required for data: 873665568
I0403 19:44:48.141991  9614 layer_factory.hpp:77] Creating layer inception_4a/5x5
I0403 19:44:48.142026  9614 net.cpp:91] Creating Layer inception_4a/5x5
I0403 19:44:48.142050  9614 net.cpp:425] inception_4a/5x5 <- inception_4a/5x5_reduce
I0403 19:44:48.142076  9614 net.cpp:399] inception_4a/5x5 -> inception_4a/5x5
I0403 19:44:48.143402  9614 net.cpp:141] Setting up inception_4a/5x5
I0403 19:44:48.143437  9614 net.cpp:148] Top shape: 24 48 14 14 (225792)
I0403 19:44:48.143457  9614 net.cpp:156] Memory required for data: 874568736
I0403 19:44:48.143479  9614 layer_factory.hpp:77] Creating layer inception_4a/relu_5x5
I0403 19:44:48.143504  9614 net.cpp:91] Creating Layer inception_4a/relu_5x5
I0403 19:44:48.143530  9614 net.cpp:425] inception_4a/relu_5x5 <- inception_4a/5x5
I0403 19:44:48.143553  9614 net.cpp:386] inception_4a/relu_5x5 -> inception_4a/5x5 (in-place)
I0403 19:44:48.143771  9614 net.cpp:141] Setting up inception_4a/relu_5x5
I0403 19:44:48.143805  9614 net.cpp:148] Top shape: 24 48 14 14 (225792)
I0403 19:44:48.143823  9614 net.cpp:156] Memory required for data: 875471904
I0403 19:44:48.143841  9614 layer_factory.hpp:77] Creating layer inception_4a/pool
I0403 19:44:48.143863  9614 net.cpp:91] Creating Layer inception_4a/pool
I0403 19:44:48.143882  9614 net.cpp:425] inception_4a/pool <- pool3/3x3_s2_pool3/3x3_s2_0_split_3
I0403 19:44:48.143904  9614 net.cpp:399] inception_4a/pool -> inception_4a/pool
I0403 19:44:48.143981  9614 net.cpp:141] Setting up inception_4a/pool
I0403 19:44:48.144013  9614 net.cpp:148] Top shape: 24 480 14 14 (2257920)
I0403 19:44:48.144031  9614 net.cpp:156] Memory required for data: 884503584
I0403 19:44:48.144048  9614 layer_factory.hpp:77] Creating layer inception_4a/pool_proj
I0403 19:44:48.144075  9614 net.cpp:91] Creating Layer inception_4a/pool_proj
I0403 19:44:48.144096  9614 net.cpp:425] inception_4a/pool_proj <- inception_4a/pool
I0403 19:44:48.144122  9614 net.cpp:399] inception_4a/pool_proj -> inception_4a/pool_proj
I0403 19:44:48.145536  9614 net.cpp:141] Setting up inception_4a/pool_proj
I0403 19:44:48.145571  9614 net.cpp:148] Top shape: 24 64 14 14 (301056)
I0403 19:44:48.145608  9614 net.cpp:156] Memory required for data: 885707808
I0403 19:44:48.145632  9614 layer_factory.hpp:77] Creating layer inception_4a/relu_pool_proj
I0403 19:44:48.145658  9614 net.cpp:91] Creating Layer inception_4a/relu_pool_proj
I0403 19:44:48.145679  9614 net.cpp:425] inception_4a/relu_pool_proj <- inception_4a/pool_proj
I0403 19:44:48.145701  9614 net.cpp:386] inception_4a/relu_pool_proj -> inception_4a/pool_proj (in-place)
I0403 19:44:48.146107  9614 net.cpp:141] Setting up inception_4a/relu_pool_proj
I0403 19:44:48.146141  9614 net.cpp:148] Top shape: 24 64 14 14 (301056)
I0403 19:44:48.146159  9614 net.cpp:156] Memory required for data: 886912032
I0403 19:44:48.146178  9614 layer_factory.hpp:77] Creating layer inception_4a/output
I0403 19:44:48.146206  9614 net.cpp:91] Creating Layer inception_4a/output
I0403 19:44:48.146236  9614 net.cpp:425] inception_4a/output <- inception_4a/1x1
I0403 19:44:48.146262  9614 net.cpp:425] inception_4a/output <- inception_4a/3x3
I0403 19:44:48.146282  9614 net.cpp:425] inception_4a/output <- inception_4a/5x5
I0403 19:44:48.146302  9614 net.cpp:425] inception_4a/output <- inception_4a/pool_proj
I0403 19:44:48.146323  9614 net.cpp:399] inception_4a/output -> inception_4a/output
I0403 19:44:48.146379  9614 net.cpp:141] Setting up inception_4a/output
I0403 19:44:48.146409  9614 net.cpp:148] Top shape: 24 512 14 14 (2408448)
I0403 19:44:48.146426  9614 net.cpp:156] Memory required for data: 896545824
I0403 19:44:48.146445  9614 layer_factory.hpp:77] Creating layer inception_4a/output_inception_4a/output_0_split
I0403 19:44:48.146466  9614 net.cpp:91] Creating Layer inception_4a/output_inception_4a/output_0_split
I0403 19:44:48.146486  9614 net.cpp:425] inception_4a/output_inception_4a/output_0_split <- inception_4a/output
I0403 19:44:48.146510  9614 net.cpp:399] inception_4a/output_inception_4a/output_0_split -> inception_4a/output_inception_4a/output_0_split_0
I0403 19:44:48.146538  9614 net.cpp:399] inception_4a/output_inception_4a/output_0_split -> inception_4a/output_inception_4a/output_0_split_1
I0403 19:44:48.146564  9614 net.cpp:399] inception_4a/output_inception_4a/output_0_split -> inception_4a/output_inception_4a/output_0_split_2
I0403 19:44:48.146587  9614 net.cpp:399] inception_4a/output_inception_4a/output_0_split -> inception_4a/output_inception_4a/output_0_split_3
I0403 19:44:48.146618  9614 net.cpp:399] inception_4a/output_inception_4a/output_0_split -> inception_4a/output_inception_4a/output_0_split_4
I0403 19:44:48.146734  9614 net.cpp:141] Setting up inception_4a/output_inception_4a/output_0_split
I0403 19:44:48.146764  9614 net.cpp:148] Top shape: 24 512 14 14 (2408448)
I0403 19:44:48.146785  9614 net.cpp:148] Top shape: 24 512 14 14 (2408448)
I0403 19:44:48.146805  9614 net.cpp:148] Top shape: 24 512 14 14 (2408448)
I0403 19:44:48.146824  9614 net.cpp:148] Top shape: 24 512 14 14 (2408448)
I0403 19:44:48.146843  9614 net.cpp:148] Top shape: 24 512 14 14 (2408448)
I0403 19:44:48.146860  9614 net.cpp:156] Memory required for data: 944714784
I0403 19:44:48.146878  9614 layer_factory.hpp:77] Creating layer loss1/ave_pool
I0403 19:44:48.146900  9614 net.cpp:91] Creating Layer loss1/ave_pool
I0403 19:44:48.146919  9614 net.cpp:425] loss1/ave_pool <- inception_4a/output_inception_4a/output_0_split_0
I0403 19:44:48.146944  9614 net.cpp:399] loss1/ave_pool -> loss1/ave_pool
I0403 19:44:48.147198  9614 net.cpp:141] Setting up loss1/ave_pool
I0403 19:44:48.147234  9614 net.cpp:148] Top shape: 24 512 4 4 (196608)
I0403 19:44:48.147253  9614 net.cpp:156] Memory required for data: 945501216
I0403 19:44:48.147271  9614 layer_factory.hpp:77] Creating layer loss1/conv
I0403 19:44:48.147301  9614 net.cpp:91] Creating Layer loss1/conv
I0403 19:44:48.147323  9614 net.cpp:425] loss1/conv <- loss1/ave_pool
I0403 19:44:48.147346  9614 net.cpp:399] loss1/conv -> loss1/conv
I0403 19:44:48.149062  9614 net.cpp:141] Setting up loss1/conv
I0403 19:44:48.149097  9614 net.cpp:148] Top shape: 24 128 4 4 (49152)
I0403 19:44:48.149133  9614 net.cpp:156] Memory required for data: 945697824
I0403 19:44:48.149158  9614 layer_factory.hpp:77] Creating layer loss1/relu_conv
I0403 19:44:48.149180  9614 net.cpp:91] Creating Layer loss1/relu_conv
I0403 19:44:48.149201  9614 net.cpp:425] loss1/relu_conv <- loss1/conv
I0403 19:44:48.149240  9614 net.cpp:386] loss1/relu_conv -> loss1/conv (in-place)
I0403 19:44:48.149682  9614 net.cpp:141] Setting up loss1/relu_conv
I0403 19:44:48.149715  9614 net.cpp:148] Top shape: 24 128 4 4 (49152)
I0403 19:44:48.149734  9614 net.cpp:156] Memory required for data: 945894432
I0403 19:44:48.149755  9614 layer_factory.hpp:77] Creating layer loss1/fc
I0403 19:44:48.149785  9614 net.cpp:91] Creating Layer loss1/fc
I0403 19:44:48.149806  9614 net.cpp:425] loss1/fc <- loss1/conv
I0403 19:44:48.149832  9614 net.cpp:399] loss1/fc -> loss1/fc
I0403 19:44:48.171744  9614 net.cpp:141] Setting up loss1/fc
I0403 19:44:48.171792  9614 net.cpp:148] Top shape: 24 1024 (24576)
I0403 19:44:48.171816  9614 net.cpp:156] Memory required for data: 945992736
I0403 19:44:48.171841  9614 layer_factory.hpp:77] Creating layer loss1/relu_fc
I0403 19:44:48.171866  9614 net.cpp:91] Creating Layer loss1/relu_fc
I0403 19:44:48.171886  9614 net.cpp:425] loss1/relu_fc <- loss1/fc
I0403 19:44:48.171908  9614 net.cpp:386] loss1/relu_fc -> loss1/fc (in-place)
I0403 19:44:48.172149  9614 net.cpp:141] Setting up loss1/relu_fc
I0403 19:44:48.172183  9614 net.cpp:148] Top shape: 24 1024 (24576)
I0403 19:44:48.172202  9614 net.cpp:156] Memory required for data: 946091040
I0403 19:44:48.172235  9614 layer_factory.hpp:77] Creating layer loss1/drop_fc
I0403 19:44:48.172269  9614 net.cpp:91] Creating Layer loss1/drop_fc
I0403 19:44:48.172291  9614 net.cpp:425] loss1/drop_fc <- loss1/fc
I0403 19:44:48.172313  9614 net.cpp:386] loss1/drop_fc -> loss1/fc (in-place)
I0403 19:44:48.172379  9614 net.cpp:141] Setting up loss1/drop_fc
I0403 19:44:48.172407  9614 net.cpp:148] Top shape: 24 1024 (24576)
I0403 19:44:48.172425  9614 net.cpp:156] Memory required for data: 946189344
I0403 19:44:48.172443  9614 layer_factory.hpp:77] Creating layer loss1/classifier_plantvillage
I0403 19:44:48.172472  9614 net.cpp:91] Creating Layer loss1/classifier_plantvillage
I0403 19:44:48.172492  9614 net.cpp:425] loss1/classifier_plantvillage <- loss1/fc
I0403 19:44:48.172514  9614 net.cpp:399] loss1/classifier_plantvillage -> loss1/classifier_plantvillage
I0403 19:44:48.173614  9614 net.cpp:141] Setting up loss1/classifier_plantvillage
I0403 19:44:48.173652  9614 net.cpp:148] Top shape: 24 38 (912)
I0403 19:44:48.173672  9614 net.cpp:156] Memory required for data: 946192992
I0403 19:44:48.173694  9614 layer_factory.hpp:77] Creating layer loss1/classifier_plantvillage_loss1/classifier_plantvillage_0_split
I0403 19:44:48.173717  9614 net.cpp:91] Creating Layer loss1/classifier_plantvillage_loss1/classifier_plantvillage_0_split
I0403 19:44:48.173735  9614 net.cpp:425] loss1/classifier_plantvillage_loss1/classifier_plantvillage_0_split <- loss1/classifier_plantvillage
I0403 19:44:48.173756  9614 net.cpp:399] loss1/classifier_plantvillage_loss1/classifier_plantvillage_0_split -> loss1/classifier_plantvillage_loss1/classifier_plantvillage_0_split_0
I0403 19:44:48.173780  9614 net.cpp:399] loss1/classifier_plantvillage_loss1/classifier_plantvillage_0_split -> loss1/classifier_plantvillage_loss1/classifier_plantvillage_0_split_1
I0403 19:44:48.173807  9614 net.cpp:399] loss1/classifier_plantvillage_loss1/classifier_plantvillage_0_split -> loss1/classifier_plantvillage_loss1/classifier_plantvillage_0_split_2
I0403 19:44:48.173889  9614 net.cpp:141] Setting up loss1/classifier_plantvillage_loss1/classifier_plantvillage_0_split
I0403 19:44:48.173918  9614 net.cpp:148] Top shape: 24 38 (912)
I0403 19:44:48.173938  9614 net.cpp:148] Top shape: 24 38 (912)
I0403 19:44:48.173956  9614 net.cpp:148] Top shape: 24 38 (912)
I0403 19:44:48.173972  9614 net.cpp:156] Memory required for data: 946203936
I0403 19:44:48.173990  9614 layer_factory.hpp:77] Creating layer inception_4b/1x1
I0403 19:44:48.174015  9614 net.cpp:91] Creating Layer inception_4b/1x1
I0403 19:44:48.174054  9614 net.cpp:425] inception_4b/1x1 <- inception_4a/output_inception_4a/output_0_split_1
I0403 19:44:48.174082  9614 net.cpp:399] inception_4b/1x1 -> inception_4b/1x1
I0403 19:44:48.176095  9614 net.cpp:141] Setting up inception_4b/1x1
I0403 19:44:48.176131  9614 net.cpp:148] Top shape: 24 160 14 14 (752640)
I0403 19:44:48.176151  9614 net.cpp:156] Memory required for data: 949214496
I0403 19:44:48.176172  9614 layer_factory.hpp:77] Creating layer inception_4b/relu_1x1
I0403 19:44:48.176194  9614 net.cpp:91] Creating Layer inception_4b/relu_1x1
I0403 19:44:48.176224  9614 net.cpp:425] inception_4b/relu_1x1 <- inception_4b/1x1
I0403 19:44:48.176250  9614 net.cpp:386] inception_4b/relu_1x1 -> inception_4b/1x1 (in-place)
I0403 19:44:48.176470  9614 net.cpp:141] Setting up inception_4b/relu_1x1
I0403 19:44:48.176501  9614 net.cpp:148] Top shape: 24 160 14 14 (752640)
I0403 19:44:48.176519  9614 net.cpp:156] Memory required for data: 952225056
I0403 19:44:48.176538  9614 layer_factory.hpp:77] Creating layer inception_4b/3x3_reduce
I0403 19:44:48.176568  9614 net.cpp:91] Creating Layer inception_4b/3x3_reduce
I0403 19:44:48.176590  9614 net.cpp:425] inception_4b/3x3_reduce <- inception_4a/output_inception_4a/output_0_split_2
I0403 19:44:48.176619  9614 net.cpp:399] inception_4b/3x3_reduce -> inception_4b/3x3_reduce
I0403 19:44:48.178295  9614 net.cpp:141] Setting up inception_4b/3x3_reduce
I0403 19:44:48.178330  9614 net.cpp:148] Top shape: 24 112 14 14 (526848)
I0403 19:44:48.178349  9614 net.cpp:156] Memory required for data: 954332448
I0403 19:44:48.178372  9614 layer_factory.hpp:77] Creating layer inception_4b/relu_3x3_reduce
I0403 19:44:48.178397  9614 net.cpp:91] Creating Layer inception_4b/relu_3x3_reduce
I0403 19:44:48.178417  9614 net.cpp:425] inception_4b/relu_3x3_reduce <- inception_4b/3x3_reduce
I0403 19:44:48.178438  9614 net.cpp:386] inception_4b/relu_3x3_reduce -> inception_4b/3x3_reduce (in-place)
I0403 19:44:48.178835  9614 net.cpp:141] Setting up inception_4b/relu_3x3_reduce
I0403 19:44:48.178869  9614 net.cpp:148] Top shape: 24 112 14 14 (526848)
I0403 19:44:48.178886  9614 net.cpp:156] Memory required for data: 956439840
I0403 19:44:48.178906  9614 layer_factory.hpp:77] Creating layer inception_4b/3x3
I0403 19:44:48.178939  9614 net.cpp:91] Creating Layer inception_4b/3x3
I0403 19:44:48.178963  9614 net.cpp:425] inception_4b/3x3 <- inception_4b/3x3_reduce
I0403 19:44:48.178990  9614 net.cpp:399] inception_4b/3x3 -> inception_4b/3x3
I0403 19:44:48.182608  9614 net.cpp:141] Setting up inception_4b/3x3
I0403 19:44:48.182648  9614 net.cpp:148] Top shape: 24 224 14 14 (1053696)
I0403 19:44:48.182669  9614 net.cpp:156] Memory required for data: 960654624
I0403 19:44:48.182693  9614 layer_factory.hpp:77] Creating layer inception_4b/relu_3x3
I0403 19:44:48.182714  9614 net.cpp:91] Creating Layer inception_4b/relu_3x3
I0403 19:44:48.182734  9614 net.cpp:425] inception_4b/relu_3x3 <- inception_4b/3x3
I0403 19:44:48.182754  9614 net.cpp:386] inception_4b/relu_3x3 -> inception_4b/3x3 (in-place)
I0403 19:44:48.182976  9614 net.cpp:141] Setting up inception_4b/relu_3x3
I0403 19:44:48.183009  9614 net.cpp:148] Top shape: 24 224 14 14 (1053696)
I0403 19:44:48.183029  9614 net.cpp:156] Memory required for data: 964869408
I0403 19:44:48.183048  9614 layer_factory.hpp:77] Creating layer inception_4b/5x5_reduce
I0403 19:44:48.183076  9614 net.cpp:91] Creating Layer inception_4b/5x5_reduce
I0403 19:44:48.183097  9614 net.cpp:425] inception_4b/5x5_reduce <- inception_4a/output_inception_4a/output_0_split_3
I0403 19:44:48.183122  9614 net.cpp:399] inception_4b/5x5_reduce -> inception_4b/5x5_reduce
I0403 19:44:48.184437  9614 net.cpp:141] Setting up inception_4b/5x5_reduce
I0403 19:44:48.184473  9614 net.cpp:148] Top shape: 24 24 14 14 (112896)
I0403 19:44:48.184490  9614 net.cpp:156] Memory required for data: 965320992
I0403 19:44:48.184514  9614 layer_factory.hpp:77] Creating layer inception_4b/relu_5x5_reduce
I0403 19:44:48.184540  9614 net.cpp:91] Creating Layer inception_4b/relu_5x5_reduce
I0403 19:44:48.184579  9614 net.cpp:425] inception_4b/relu_5x5_reduce <- inception_4b/5x5_reduce
I0403 19:44:48.184602  9614 net.cpp:386] inception_4b/relu_5x5_reduce -> inception_4b/5x5_reduce (in-place)
I0403 19:44:48.184824  9614 net.cpp:141] Setting up inception_4b/relu_5x5_reduce
I0403 19:44:48.184855  9614 net.cpp:148] Top shape: 24 24 14 14 (112896)
I0403 19:44:48.184873  9614 net.cpp:156] Memory required for data: 965772576
I0403 19:44:48.184892  9614 layer_factory.hpp:77] Creating layer inception_4b/5x5
I0403 19:44:48.184921  9614 net.cpp:91] Creating Layer inception_4b/5x5
I0403 19:44:48.184942  9614 net.cpp:425] inception_4b/5x5 <- inception_4b/5x5_reduce
I0403 19:44:48.184967  9614 net.cpp:399] inception_4b/5x5 -> inception_4b/5x5
I0403 19:44:48.186466  9614 net.cpp:141] Setting up inception_4b/5x5
I0403 19:44:48.186501  9614 net.cpp:148] Top shape: 24 64 14 14 (301056)
I0403 19:44:48.186520  9614 net.cpp:156] Memory required for data: 966976800
I0403 19:44:48.186542  9614 layer_factory.hpp:77] Creating layer inception_4b/relu_5x5
I0403 19:44:48.186563  9614 net.cpp:91] Creating Layer inception_4b/relu_5x5
I0403 19:44:48.186583  9614 net.cpp:425] inception_4b/relu_5x5 <- inception_4b/5x5
I0403 19:44:48.186606  9614 net.cpp:386] inception_4b/relu_5x5 -> inception_4b/5x5 (in-place)
I0403 19:44:48.186950  9614 net.cpp:141] Setting up inception_4b/relu_5x5
I0403 19:44:48.186982  9614 net.cpp:148] Top shape: 24 64 14 14 (301056)
I0403 19:44:48.187000  9614 net.cpp:156] Memory required for data: 968181024
I0403 19:44:48.187019  9614 layer_factory.hpp:77] Creating layer inception_4b/pool
I0403 19:44:48.187041  9614 net.cpp:91] Creating Layer inception_4b/pool
I0403 19:44:48.187062  9614 net.cpp:425] inception_4b/pool <- inception_4a/output_inception_4a/output_0_split_4
I0403 19:44:48.187086  9614 net.cpp:399] inception_4b/pool -> inception_4b/pool
I0403 19:44:48.187165  9614 net.cpp:141] Setting up inception_4b/pool
I0403 19:44:48.187196  9614 net.cpp:148] Top shape: 24 512 14 14 (2408448)
I0403 19:44:48.187219  9614 net.cpp:156] Memory required for data: 977814816
I0403 19:44:48.187238  9614 layer_factory.hpp:77] Creating layer inception_4b/pool_proj
I0403 19:44:48.187268  9614 net.cpp:91] Creating Layer inception_4b/pool_proj
I0403 19:44:48.187289  9614 net.cpp:425] inception_4b/pool_proj <- inception_4b/pool
I0403 19:44:48.187311  9614 net.cpp:399] inception_4b/pool_proj -> inception_4b/pool_proj
I0403 19:44:48.188773  9614 net.cpp:141] Setting up inception_4b/pool_proj
I0403 19:44:48.188808  9614 net.cpp:148] Top shape: 24 64 14 14 (301056)
I0403 19:44:48.188827  9614 net.cpp:156] Memory required for data: 979019040
I0403 19:44:48.188849  9614 layer_factory.hpp:77] Creating layer inception_4b/relu_pool_proj
I0403 19:44:48.188871  9614 net.cpp:91] Creating Layer inception_4b/relu_pool_proj
I0403 19:44:48.188890  9614 net.cpp:425] inception_4b/relu_pool_proj <- inception_4b/pool_proj
I0403 19:44:48.188913  9614 net.cpp:386] inception_4b/relu_pool_proj -> inception_4b/pool_proj (in-place)
I0403 19:44:48.189131  9614 net.cpp:141] Setting up inception_4b/relu_pool_proj
I0403 19:44:48.189162  9614 net.cpp:148] Top shape: 24 64 14 14 (301056)
I0403 19:44:48.189179  9614 net.cpp:156] Memory required for data: 980223264
I0403 19:44:48.189198  9614 layer_factory.hpp:77] Creating layer inception_4b/output
I0403 19:44:48.189226  9614 net.cpp:91] Creating Layer inception_4b/output
I0403 19:44:48.189249  9614 net.cpp:425] inception_4b/output <- inception_4b/1x1
I0403 19:44:48.189270  9614 net.cpp:425] inception_4b/output <- inception_4b/3x3
I0403 19:44:48.189296  9614 net.cpp:425] inception_4b/output <- inception_4b/5x5
I0403 19:44:48.189317  9614 net.cpp:425] inception_4b/output <- inception_4b/pool_proj
I0403 19:44:48.189337  9614 net.cpp:399] inception_4b/output -> inception_4b/output
I0403 19:44:48.189395  9614 net.cpp:141] Setting up inception_4b/output
I0403 19:44:48.189424  9614 net.cpp:148] Top shape: 24 512 14 14 (2408448)
I0403 19:44:48.189442  9614 net.cpp:156] Memory required for data: 989857056
I0403 19:44:48.189478  9614 layer_factory.hpp:77] Creating layer inception_4b/output_inception_4b/output_0_split
I0403 19:44:48.189501  9614 net.cpp:91] Creating Layer inception_4b/output_inception_4b/output_0_split
I0403 19:44:48.189520  9614 net.cpp:425] inception_4b/output_inception_4b/output_0_split <- inception_4b/output
I0403 19:44:48.189545  9614 net.cpp:399] inception_4b/output_inception_4b/output_0_split -> inception_4b/output_inception_4b/output_0_split_0
I0403 19:44:48.189570  9614 net.cpp:399] inception_4b/output_inception_4b/output_0_split -> inception_4b/output_inception_4b/output_0_split_1
I0403 19:44:48.189594  9614 net.cpp:399] inception_4b/output_inception_4b/output_0_split -> inception_4b/output_inception_4b/output_0_split_2
I0403 19:44:48.189618  9614 net.cpp:399] inception_4b/output_inception_4b/output_0_split -> inception_4b/output_inception_4b/output_0_split_3
I0403 19:44:48.189719  9614 net.cpp:141] Setting up inception_4b/output_inception_4b/output_0_split
I0403 19:44:48.189752  9614 net.cpp:148] Top shape: 24 512 14 14 (2408448)
I0403 19:44:48.189774  9614 net.cpp:148] Top shape: 24 512 14 14 (2408448)
I0403 19:44:48.189793  9614 net.cpp:148] Top shape: 24 512 14 14 (2408448)
I0403 19:44:48.189812  9614 net.cpp:148] Top shape: 24 512 14 14 (2408448)
I0403 19:44:48.189829  9614 net.cpp:156] Memory required for data: 1028392224
I0403 19:44:48.189847  9614 layer_factory.hpp:77] Creating layer inception_4c/1x1
I0403 19:44:48.189877  9614 net.cpp:91] Creating Layer inception_4c/1x1
I0403 19:44:48.189898  9614 net.cpp:425] inception_4c/1x1 <- inception_4b/output_inception_4b/output_0_split_0
I0403 19:44:48.189920  9614 net.cpp:399] inception_4c/1x1 -> inception_4c/1x1
I0403 19:44:48.191690  9614 net.cpp:141] Setting up inception_4c/1x1
I0403 19:44:48.191725  9614 net.cpp:148] Top shape: 24 128 14 14 (602112)
I0403 19:44:48.191745  9614 net.cpp:156] Memory required for data: 1030800672
I0403 19:44:48.191766  9614 layer_factory.hpp:77] Creating layer inception_4c/relu_1x1
I0403 19:44:48.191792  9614 net.cpp:91] Creating Layer inception_4c/relu_1x1
I0403 19:44:48.191812  9614 net.cpp:425] inception_4c/relu_1x1 <- inception_4c/1x1
I0403 19:44:48.191833  9614 net.cpp:386] inception_4c/relu_1x1 -> inception_4c/1x1 (in-place)
I0403 19:44:48.192054  9614 net.cpp:141] Setting up inception_4c/relu_1x1
I0403 19:44:48.192086  9614 net.cpp:148] Top shape: 24 128 14 14 (602112)
I0403 19:44:48.192106  9614 net.cpp:156] Memory required for data: 1033209120
I0403 19:44:48.192123  9614 layer_factory.hpp:77] Creating layer inception_4c/3x3_reduce
I0403 19:44:48.192150  9614 net.cpp:91] Creating Layer inception_4c/3x3_reduce
I0403 19:44:48.192172  9614 net.cpp:425] inception_4c/3x3_reduce <- inception_4b/output_inception_4b/output_0_split_1
I0403 19:44:48.192196  9614 net.cpp:399] inception_4c/3x3_reduce -> inception_4c/3x3_reduce
I0403 19:44:48.194560  9614 net.cpp:141] Setting up inception_4c/3x3_reduce
I0403 19:44:48.194598  9614 net.cpp:148] Top shape: 24 128 14 14 (602112)
I0403 19:44:48.194617  9614 net.cpp:156] Memory required for data: 1035617568
I0403 19:44:48.194643  9614 layer_factory.hpp:77] Creating layer inception_4c/relu_3x3_reduce
I0403 19:44:48.194666  9614 net.cpp:91] Creating Layer inception_4c/relu_3x3_reduce
I0403 19:44:48.194685  9614 net.cpp:425] inception_4c/relu_3x3_reduce <- inception_4c/3x3_reduce
I0403 19:44:48.194710  9614 net.cpp:386] inception_4c/relu_3x3_reduce -> inception_4c/3x3_reduce (in-place)
I0403 19:44:48.195055  9614 net.cpp:141] Setting up inception_4c/relu_3x3_reduce
I0403 19:44:48.195091  9614 net.cpp:148] Top shape: 24 128 14 14 (602112)
I0403 19:44:48.195109  9614 net.cpp:156] Memory required for data: 1038026016
I0403 19:44:48.195127  9614 layer_factory.hpp:77] Creating layer inception_4c/3x3
I0403 19:44:48.195158  9614 net.cpp:91] Creating Layer inception_4c/3x3
I0403 19:44:48.195179  9614 net.cpp:425] inception_4c/3x3 <- inception_4c/3x3_reduce
I0403 19:44:48.195201  9614 net.cpp:399] inception_4c/3x3 -> inception_4c/3x3
I0403 19:44:48.199590  9614 net.cpp:141] Setting up inception_4c/3x3
I0403 19:44:48.199645  9614 net.cpp:148] Top shape: 24 256 14 14 (1204224)
I0403 19:44:48.199664  9614 net.cpp:156] Memory required for data: 1042842912
I0403 19:44:48.199704  9614 layer_factory.hpp:77] Creating layer inception_4c/relu_3x3
I0403 19:44:48.199729  9614 net.cpp:91] Creating Layer inception_4c/relu_3x3
I0403 19:44:48.199749  9614 net.cpp:425] inception_4c/relu_3x3 <- inception_4c/3x3
I0403 19:44:48.199774  9614 net.cpp:386] inception_4c/relu_3x3 -> inception_4c/3x3 (in-place)
I0403 19:44:48.200004  9614 net.cpp:141] Setting up inception_4c/relu_3x3
I0403 19:44:48.200034  9614 net.cpp:148] Top shape: 24 256 14 14 (1204224)
I0403 19:44:48.200052  9614 net.cpp:156] Memory required for data: 1047659808
I0403 19:44:48.200072  9614 layer_factory.hpp:77] Creating layer inception_4c/5x5_reduce
I0403 19:44:48.200100  9614 net.cpp:91] Creating Layer inception_4c/5x5_reduce
I0403 19:44:48.200127  9614 net.cpp:425] inception_4c/5x5_reduce <- inception_4b/output_inception_4b/output_0_split_2
I0403 19:44:48.200155  9614 net.cpp:399] inception_4c/5x5_reduce -> inception_4c/5x5_reduce
I0403 19:44:48.201504  9614 net.cpp:141] Setting up inception_4c/5x5_reduce
I0403 19:44:48.201545  9614 net.cpp:148] Top shape: 24 24 14 14 (112896)
I0403 19:44:48.201563  9614 net.cpp:156] Memory required for data: 1048111392
I0403 19:44:48.201586  9614 layer_factory.hpp:77] Creating layer inception_4c/relu_5x5_reduce
I0403 19:44:48.201608  9614 net.cpp:91] Creating Layer inception_4c/relu_5x5_reduce
I0403 19:44:48.201630  9614 net.cpp:425] inception_4c/relu_5x5_reduce <- inception_4c/5x5_reduce
I0403 19:44:48.201653  9614 net.cpp:386] inception_4c/relu_5x5_reduce -> inception_4c/5x5_reduce (in-place)
I0403 19:44:48.201882  9614 net.cpp:141] Setting up inception_4c/relu_5x5_reduce
I0403 19:44:48.201913  9614 net.cpp:148] Top shape: 24 24 14 14 (112896)
I0403 19:44:48.201931  9614 net.cpp:156] Memory required for data: 1048562976
I0403 19:44:48.201948  9614 layer_factory.hpp:77] Creating layer inception_4c/5x5
I0403 19:44:48.201977  9614 net.cpp:91] Creating Layer inception_4c/5x5
I0403 19:44:48.201999  9614 net.cpp:425] inception_4c/5x5 <- inception_4c/5x5_reduce
I0403 19:44:48.202025  9614 net.cpp:399] inception_4c/5x5 -> inception_4c/5x5
I0403 19:44:48.203562  9614 net.cpp:141] Setting up inception_4c/5x5
I0403 19:44:48.203596  9614 net.cpp:148] Top shape: 24 64 14 14 (301056)
I0403 19:44:48.203615  9614 net.cpp:156] Memory required for data: 1049767200
I0403 19:44:48.203637  9614 layer_factory.hpp:77] Creating layer inception_4c/relu_5x5
I0403 19:44:48.203661  9614 net.cpp:91] Creating Layer inception_4c/relu_5x5
I0403 19:44:48.203681  9614 net.cpp:425] inception_4c/relu_5x5 <- inception_4c/5x5
I0403 19:44:48.203702  9614 net.cpp:386] inception_4c/relu_5x5 -> inception_4c/5x5 (in-place)
I0403 19:44:48.204048  9614 net.cpp:141] Setting up inception_4c/relu_5x5
I0403 19:44:48.204080  9614 net.cpp:148] Top shape: 24 64 14 14 (301056)
I0403 19:44:48.204098  9614 net.cpp:156] Memory required for data: 1050971424
I0403 19:44:48.204116  9614 layer_factory.hpp:77] Creating layer inception_4c/pool
I0403 19:44:48.204141  9614 net.cpp:91] Creating Layer inception_4c/pool
I0403 19:44:48.204161  9614 net.cpp:425] inception_4c/pool <- inception_4b/output_inception_4b/output_0_split_3
I0403 19:44:48.204185  9614 net.cpp:399] inception_4c/pool -> inception_4c/pool
I0403 19:44:48.204270  9614 net.cpp:141] Setting up inception_4c/pool
I0403 19:44:48.204299  9614 net.cpp:148] Top shape: 24 512 14 14 (2408448)
I0403 19:44:48.204318  9614 net.cpp:156] Memory required for data: 1060605216
I0403 19:44:48.204335  9614 layer_factory.hpp:77] Creating layer inception_4c/pool_proj
I0403 19:44:48.204365  9614 net.cpp:91] Creating Layer inception_4c/pool_proj
I0403 19:44:48.204385  9614 net.cpp:425] inception_4c/pool_proj <- inception_4c/pool
I0403 19:44:48.204411  9614 net.cpp:399] inception_4c/pool_proj -> inception_4c/pool_proj
I0403 19:44:48.205911  9614 net.cpp:141] Setting up inception_4c/pool_proj
I0403 19:44:48.205945  9614 net.cpp:148] Top shape: 24 64 14 14 (301056)
I0403 19:44:48.205981  9614 net.cpp:156] Memory required for data: 1061809440
I0403 19:44:48.206004  9614 layer_factory.hpp:77] Creating layer inception_4c/relu_pool_proj
I0403 19:44:48.206027  9614 net.cpp:91] Creating Layer inception_4c/relu_pool_proj
I0403 19:44:48.206046  9614 net.cpp:425] inception_4c/relu_pool_proj <- inception_4c/pool_proj
I0403 19:44:48.206070  9614 net.cpp:386] inception_4c/relu_pool_proj -> inception_4c/pool_proj (in-place)
I0403 19:44:48.206301  9614 net.cpp:141] Setting up inception_4c/relu_pool_proj
I0403 19:44:48.206332  9614 net.cpp:148] Top shape: 24 64 14 14 (301056)
I0403 19:44:48.206358  9614 net.cpp:156] Memory required for data: 1063013664
I0403 19:44:48.206380  9614 layer_factory.hpp:77] Creating layer inception_4c/output
I0403 19:44:48.206403  9614 net.cpp:91] Creating Layer inception_4c/output
I0403 19:44:48.206423  9614 net.cpp:425] inception_4c/output <- inception_4c/1x1
I0403 19:44:48.206444  9614 net.cpp:425] inception_4c/output <- inception_4c/3x3
I0403 19:44:48.206464  9614 net.cpp:425] inception_4c/output <- inception_4c/5x5
I0403 19:44:48.206486  9614 net.cpp:425] inception_4c/output <- inception_4c/pool_proj
I0403 19:44:48.206509  9614 net.cpp:399] inception_4c/output -> inception_4c/output
I0403 19:44:48.206568  9614 net.cpp:141] Setting up inception_4c/output
I0403 19:44:48.206596  9614 net.cpp:148] Top shape: 24 512 14 14 (2408448)
I0403 19:44:48.206614  9614 net.cpp:156] Memory required for data: 1072647456
I0403 19:44:48.206632  9614 layer_factory.hpp:77] Creating layer inception_4c/output_inception_4c/output_0_split
I0403 19:44:48.206653  9614 net.cpp:91] Creating Layer inception_4c/output_inception_4c/output_0_split
I0403 19:44:48.206672  9614 net.cpp:425] inception_4c/output_inception_4c/output_0_split <- inception_4c/output
I0403 19:44:48.206697  9614 net.cpp:399] inception_4c/output_inception_4c/output_0_split -> inception_4c/output_inception_4c/output_0_split_0
I0403 19:44:48.206723  9614 net.cpp:399] inception_4c/output_inception_4c/output_0_split -> inception_4c/output_inception_4c/output_0_split_1
I0403 19:44:48.206748  9614 net.cpp:399] inception_4c/output_inception_4c/output_0_split -> inception_4c/output_inception_4c/output_0_split_2
I0403 19:44:48.206778  9614 net.cpp:399] inception_4c/output_inception_4c/output_0_split -> inception_4c/output_inception_4c/output_0_split_3
I0403 19:44:48.206883  9614 net.cpp:141] Setting up inception_4c/output_inception_4c/output_0_split
I0403 19:44:48.206914  9614 net.cpp:148] Top shape: 24 512 14 14 (2408448)
I0403 19:44:48.206938  9614 net.cpp:148] Top shape: 24 512 14 14 (2408448)
I0403 19:44:48.206956  9614 net.cpp:148] Top shape: 24 512 14 14 (2408448)
I0403 19:44:48.206976  9614 net.cpp:148] Top shape: 24 512 14 14 (2408448)
I0403 19:44:48.206993  9614 net.cpp:156] Memory required for data: 1111182624
I0403 19:44:48.207010  9614 layer_factory.hpp:77] Creating layer inception_4d/1x1
I0403 19:44:48.207037  9614 net.cpp:91] Creating Layer inception_4d/1x1
I0403 19:44:48.207059  9614 net.cpp:425] inception_4d/1x1 <- inception_4c/output_inception_4c/output_0_split_0
I0403 19:44:48.207082  9614 net.cpp:399] inception_4d/1x1 -> inception_4d/1x1
I0403 19:44:48.208788  9614 net.cpp:141] Setting up inception_4d/1x1
I0403 19:44:48.208825  9614 net.cpp:148] Top shape: 24 112 14 14 (526848)
I0403 19:44:48.208845  9614 net.cpp:156] Memory required for data: 1113290016
I0403 19:44:48.208868  9614 layer_factory.hpp:77] Creating layer inception_4d/relu_1x1
I0403 19:44:48.208890  9614 net.cpp:91] Creating Layer inception_4d/relu_1x1
I0403 19:44:48.208910  9614 net.cpp:425] inception_4d/relu_1x1 <- inception_4d/1x1
I0403 19:44:48.208930  9614 net.cpp:386] inception_4d/relu_1x1 -> inception_4d/1x1 (in-place)
I0403 19:44:48.209157  9614 net.cpp:141] Setting up inception_4d/relu_1x1
I0403 19:44:48.209188  9614 net.cpp:148] Top shape: 24 112 14 14 (526848)
I0403 19:44:48.209206  9614 net.cpp:156] Memory required for data: 1115397408
I0403 19:44:48.209230  9614 layer_factory.hpp:77] Creating layer inception_4d/3x3_reduce
I0403 19:44:48.209278  9614 net.cpp:91] Creating Layer inception_4d/3x3_reduce
I0403 19:44:48.209302  9614 net.cpp:425] inception_4d/3x3_reduce <- inception_4c/output_inception_4c/output_0_split_1
I0403 19:44:48.209329  9614 net.cpp:399] inception_4d/3x3_reduce -> inception_4d/3x3_reduce
I0403 19:44:48.211232  9614 net.cpp:141] Setting up inception_4d/3x3_reduce
I0403 19:44:48.211267  9614 net.cpp:148] Top shape: 24 144 14 14 (677376)
I0403 19:44:48.211287  9614 net.cpp:156] Memory required for data: 1118106912
I0403 19:44:48.211310  9614 layer_factory.hpp:77] Creating layer inception_4d/relu_3x3_reduce
I0403 19:44:48.211334  9614 net.cpp:91] Creating Layer inception_4d/relu_3x3_reduce
I0403 19:44:48.211354  9614 net.cpp:425] inception_4d/relu_3x3_reduce <- inception_4d/3x3_reduce
I0403 19:44:48.211376  9614 net.cpp:386] inception_4d/relu_3x3_reduce -> inception_4d/3x3_reduce (in-place)
I0403 19:44:48.211724  9614 net.cpp:141] Setting up inception_4d/relu_3x3_reduce
I0403 19:44:48.211760  9614 net.cpp:148] Top shape: 24 144 14 14 (677376)
I0403 19:44:48.211783  9614 net.cpp:156] Memory required for data: 1120816416
I0403 19:44:48.211807  9614 layer_factory.hpp:77] Creating layer inception_4d/3x3
I0403 19:44:48.211843  9614 net.cpp:91] Creating Layer inception_4d/3x3
I0403 19:44:48.211868  9614 net.cpp:425] inception_4d/3x3 <- inception_4d/3x3_reduce
I0403 19:44:48.211896  9614 net.cpp:399] inception_4d/3x3 -> inception_4d/3x3
I0403 19:44:48.217129  9614 net.cpp:141] Setting up inception_4d/3x3
I0403 19:44:48.217172  9614 net.cpp:148] Top shape: 24 288 14 14 (1354752)
I0403 19:44:48.217195  9614 net.cpp:156] Memory required for data: 1126235424
I0403 19:44:48.217223  9614 layer_factory.hpp:77] Creating layer inception_4d/relu_3x3
I0403 19:44:48.217247  9614 net.cpp:91] Creating Layer inception_4d/relu_3x3
I0403 19:44:48.217267  9614 net.cpp:425] inception_4d/relu_3x3 <- inception_4d/3x3
I0403 19:44:48.217293  9614 net.cpp:386] inception_4d/relu_3x3 -> inception_4d/3x3 (in-place)
I0403 19:44:48.217520  9614 net.cpp:141] Setting up inception_4d/relu_3x3
I0403 19:44:48.217551  9614 net.cpp:148] Top shape: 24 288 14 14 (1354752)
I0403 19:44:48.217568  9614 net.cpp:156] Memory required for data: 1131654432
I0403 19:44:48.217589  9614 layer_factory.hpp:77] Creating layer inception_4d/5x5_reduce
I0403 19:44:48.217617  9614 net.cpp:91] Creating Layer inception_4d/5x5_reduce
I0403 19:44:48.217639  9614 net.cpp:425] inception_4d/5x5_reduce <- inception_4c/output_inception_4c/output_0_split_2
I0403 19:44:48.217665  9614 net.cpp:399] inception_4d/5x5_reduce -> inception_4d/5x5_reduce
I0403 19:44:48.219064  9614 net.cpp:141] Setting up inception_4d/5x5_reduce
I0403 19:44:48.219104  9614 net.cpp:148] Top shape: 24 32 14 14 (150528)
I0403 19:44:48.219128  9614 net.cpp:156] Memory required for data: 1132256544
I0403 19:44:48.219151  9614 layer_factory.hpp:77] Creating layer inception_4d/relu_5x5_reduce
I0403 19:44:48.219197  9614 net.cpp:91] Creating Layer inception_4d/relu_5x5_reduce
I0403 19:44:48.219223  9614 net.cpp:425] inception_4d/relu_5x5_reduce <- inception_4d/5x5_reduce
I0403 19:44:48.219254  9614 net.cpp:386] inception_4d/relu_5x5_reduce -> inception_4d/5x5_reduce (in-place)
I0403 19:44:48.219499  9614 net.cpp:141] Setting up inception_4d/relu_5x5_reduce
I0403 19:44:48.219530  9614 net.cpp:148] Top shape: 24 32 14 14 (150528)
I0403 19:44:48.219548  9614 net.cpp:156] Memory required for data: 1132858656
I0403 19:44:48.219568  9614 layer_factory.hpp:77] Creating layer inception_4d/5x5
I0403 19:44:48.219597  9614 net.cpp:91] Creating Layer inception_4d/5x5
I0403 19:44:48.219619  9614 net.cpp:425] inception_4d/5x5 <- inception_4d/5x5_reduce
I0403 19:44:48.219653  9614 net.cpp:399] inception_4d/5x5 -> inception_4d/5x5
I0403 19:44:48.221500  9614 net.cpp:141] Setting up inception_4d/5x5
I0403 19:44:48.221535  9614 net.cpp:148] Top shape: 24 64 14 14 (301056)
I0403 19:44:48.221554  9614 net.cpp:156] Memory required for data: 1134062880
I0403 19:44:48.221578  9614 layer_factory.hpp:77] Creating layer inception_4d/relu_5x5
I0403 19:44:48.221623  9614 net.cpp:91] Creating Layer inception_4d/relu_5x5
I0403 19:44:48.221647  9614 net.cpp:425] inception_4d/relu_5x5 <- inception_4d/5x5
I0403 19:44:48.221668  9614 net.cpp:386] inception_4d/relu_5x5 -> inception_4d/5x5 (in-place)
I0403 19:44:48.222031  9614 net.cpp:141] Setting up inception_4d/relu_5x5
I0403 19:44:48.222064  9614 net.cpp:148] Top shape: 24 64 14 14 (301056)
I0403 19:44:48.222081  9614 net.cpp:156] Memory required for data: 1135267104
I0403 19:44:48.222100  9614 layer_factory.hpp:77] Creating layer inception_4d/pool
I0403 19:44:48.222124  9614 net.cpp:91] Creating Layer inception_4d/pool
I0403 19:44:48.222146  9614 net.cpp:425] inception_4d/pool <- inception_4c/output_inception_4c/output_0_split_3
I0403 19:44:48.222168  9614 net.cpp:399] inception_4d/pool -> inception_4d/pool
I0403 19:44:48.222257  9614 net.cpp:141] Setting up inception_4d/pool
I0403 19:44:48.222286  9614 net.cpp:148] Top shape: 24 512 14 14 (2408448)
I0403 19:44:48.222306  9614 net.cpp:156] Memory required for data: 1144900896
I0403 19:44:48.222326  9614 layer_factory.hpp:77] Creating layer inception_4d/pool_proj
I0403 19:44:48.222352  9614 net.cpp:91] Creating Layer inception_4d/pool_proj
I0403 19:44:48.222373  9614 net.cpp:425] inception_4d/pool_proj <- inception_4d/pool
I0403 19:44:48.222398  9614 net.cpp:399] inception_4d/pool_proj -> inception_4d/pool_proj
I0403 19:44:48.224586  9614 net.cpp:141] Setting up inception_4d/pool_proj
I0403 19:44:48.224627  9614 net.cpp:148] Top shape: 24 64 14 14 (301056)
I0403 19:44:48.224648  9614 net.cpp:156] Memory required for data: 1146105120
I0403 19:44:48.224671  9614 layer_factory.hpp:77] Creating layer inception_4d/relu_pool_proj
I0403 19:44:48.224694  9614 net.cpp:91] Creating Layer inception_4d/relu_pool_proj
I0403 19:44:48.224712  9614 net.cpp:425] inception_4d/relu_pool_proj <- inception_4d/pool_proj
I0403 19:44:48.224736  9614 net.cpp:386] inception_4d/relu_pool_proj -> inception_4d/pool_proj (in-place)
I0403 19:44:48.224961  9614 net.cpp:141] Setting up inception_4d/relu_pool_proj
I0403 19:44:48.224992  9614 net.cpp:148] Top shape: 24 64 14 14 (301056)
I0403 19:44:48.225010  9614 net.cpp:156] Memory required for data: 1147309344
I0403 19:44:48.225028  9614 layer_factory.hpp:77] Creating layer inception_4d/output
I0403 19:44:48.225049  9614 net.cpp:91] Creating Layer inception_4d/output
I0403 19:44:48.225067  9614 net.cpp:425] inception_4d/output <- inception_4d/1x1
I0403 19:44:48.225088  9614 net.cpp:425] inception_4d/output <- inception_4d/3x3
I0403 19:44:48.225109  9614 net.cpp:425] inception_4d/output <- inception_4d/5x5
I0403 19:44:48.225129  9614 net.cpp:425] inception_4d/output <- inception_4d/pool_proj
I0403 19:44:48.225154  9614 net.cpp:399] inception_4d/output -> inception_4d/output
I0403 19:44:48.225219  9614 net.cpp:141] Setting up inception_4d/output
I0403 19:44:48.225250  9614 net.cpp:148] Top shape: 24 528 14 14 (2483712)
I0403 19:44:48.225270  9614 net.cpp:156] Memory required for data: 1157244192
I0403 19:44:48.225288  9614 layer_factory.hpp:77] Creating layer inception_4d/output_inception_4d/output_0_split
I0403 19:44:48.225311  9614 net.cpp:91] Creating Layer inception_4d/output_inception_4d/output_0_split
I0403 19:44:48.225330  9614 net.cpp:425] inception_4d/output_inception_4d/output_0_split <- inception_4d/output
I0403 19:44:48.225355  9614 net.cpp:399] inception_4d/output_inception_4d/output_0_split -> inception_4d/output_inception_4d/output_0_split_0
I0403 19:44:48.225383  9614 net.cpp:399] inception_4d/output_inception_4d/output_0_split -> inception_4d/output_inception_4d/output_0_split_1
I0403 19:44:48.225407  9614 net.cpp:399] inception_4d/output_inception_4d/output_0_split -> inception_4d/output_inception_4d/output_0_split_2
I0403 19:44:48.225432  9614 net.cpp:399] inception_4d/output_inception_4d/output_0_split -> inception_4d/output_inception_4d/output_0_split_3
I0403 19:44:48.225457  9614 net.cpp:399] inception_4d/output_inception_4d/output_0_split -> inception_4d/output_inception_4d/output_0_split_4
I0403 19:44:48.225584  9614 net.cpp:141] Setting up inception_4d/output_inception_4d/output_0_split
I0403 19:44:48.225631  9614 net.cpp:148] Top shape: 24 528 14 14 (2483712)
I0403 19:44:48.225652  9614 net.cpp:148] Top shape: 24 528 14 14 (2483712)
I0403 19:44:48.225672  9614 net.cpp:148] Top shape: 24 528 14 14 (2483712)
I0403 19:44:48.225692  9614 net.cpp:148] Top shape: 24 528 14 14 (2483712)
I0403 19:44:48.225710  9614 net.cpp:148] Top shape: 24 528 14 14 (2483712)
I0403 19:44:48.225728  9614 net.cpp:156] Memory required for data: 1206918432
I0403 19:44:48.225745  9614 layer_factory.hpp:77] Creating layer loss2/ave_pool
I0403 19:44:48.225767  9614 net.cpp:91] Creating Layer loss2/ave_pool
I0403 19:44:48.225787  9614 net.cpp:425] loss2/ave_pool <- inception_4d/output_inception_4d/output_0_split_0
I0403 19:44:48.225811  9614 net.cpp:399] loss2/ave_pool -> loss2/ave_pool
I0403 19:44:48.226187  9614 net.cpp:141] Setting up loss2/ave_pool
I0403 19:44:48.226227  9614 net.cpp:148] Top shape: 24 528 4 4 (202752)
I0403 19:44:48.226249  9614 net.cpp:156] Memory required for data: 1207729440
I0403 19:44:48.226268  9614 layer_factory.hpp:77] Creating layer loss2/conv
I0403 19:44:48.226295  9614 net.cpp:91] Creating Layer loss2/conv
I0403 19:44:48.226317  9614 net.cpp:425] loss2/conv <- loss2/ave_pool
I0403 19:44:48.226341  9614 net.cpp:399] loss2/conv -> loss2/conv
I0403 19:44:48.228675  9614 net.cpp:141] Setting up loss2/conv
I0403 19:44:48.228711  9614 net.cpp:148] Top shape: 24 128 4 4 (49152)
I0403 19:44:48.228731  9614 net.cpp:156] Memory required for data: 1207926048
I0403 19:44:48.228754  9614 layer_factory.hpp:77] Creating layer loss2/relu_conv
I0403 19:44:48.228777  9614 net.cpp:91] Creating Layer loss2/relu_conv
I0403 19:44:48.228799  9614 net.cpp:425] loss2/relu_conv <- loss2/conv
I0403 19:44:48.228821  9614 net.cpp:386] loss2/relu_conv -> loss2/conv (in-place)
I0403 19:44:48.229164  9614 net.cpp:141] Setting up loss2/relu_conv
I0403 19:44:48.229197  9614 net.cpp:148] Top shape: 24 128 4 4 (49152)
I0403 19:44:48.229221  9614 net.cpp:156] Memory required for data: 1208122656
I0403 19:44:48.229241  9614 layer_factory.hpp:77] Creating layer loss2/fc
I0403 19:44:48.229269  9614 net.cpp:91] Creating Layer loss2/fc
I0403 19:44:48.229290  9614 net.cpp:425] loss2/fc <- loss2/conv
I0403 19:44:48.229312  9614 net.cpp:399] loss2/fc -> loss2/fc
I0403 19:44:48.251405  9614 net.cpp:141] Setting up loss2/fc
I0403 19:44:48.251466  9614 net.cpp:148] Top shape: 24 1024 (24576)
I0403 19:44:48.251494  9614 net.cpp:156] Memory required for data: 1208220960
I0403 19:44:48.251524  9614 layer_factory.hpp:77] Creating layer loss2/relu_fc
I0403 19:44:48.251574  9614 net.cpp:91] Creating Layer loss2/relu_fc
I0403 19:44:48.251595  9614 net.cpp:425] loss2/relu_fc <- loss2/fc
I0403 19:44:48.251623  9614 net.cpp:386] loss2/relu_fc -> loss2/fc (in-place)
I0403 19:44:48.252003  9614 net.cpp:141] Setting up loss2/relu_fc
I0403 19:44:48.252044  9614 net.cpp:148] Top shape: 24 1024 (24576)
I0403 19:44:48.252068  9614 net.cpp:156] Memory required for data: 1208319264
I0403 19:44:48.252095  9614 layer_factory.hpp:77] Creating layer loss2/drop_fc
I0403 19:44:48.252118  9614 net.cpp:91] Creating Layer loss2/drop_fc
I0403 19:44:48.252146  9614 net.cpp:425] loss2/drop_fc <- loss2/fc
I0403 19:44:48.252171  9614 net.cpp:386] loss2/drop_fc -> loss2/fc (in-place)
I0403 19:44:48.252250  9614 net.cpp:141] Setting up loss2/drop_fc
I0403 19:44:48.252280  9614 net.cpp:148] Top shape: 24 1024 (24576)
I0403 19:44:48.252312  9614 net.cpp:156] Memory required for data: 1208417568
I0403 19:44:48.252331  9614 layer_factory.hpp:77] Creating layer loss2/classifier_plantvillage
I0403 19:44:48.252360  9614 net.cpp:91] Creating Layer loss2/classifier_plantvillage
I0403 19:44:48.252385  9614 net.cpp:425] loss2/classifier_plantvillage <- loss2/fc
I0403 19:44:48.252413  9614 net.cpp:399] loss2/classifier_plantvillage -> loss2/classifier_plantvillage
I0403 19:44:48.252918  9614 net.cpp:141] Setting up loss2/classifier_plantvillage
I0403 19:44:48.252951  9614 net.cpp:148] Top shape: 24 38 (912)
I0403 19:44:48.252992  9614 net.cpp:156] Memory required for data: 1208421216
I0403 19:44:48.253017  9614 layer_factory.hpp:77] Creating layer loss2/classifier_plantvillage_loss2/classifier_plantvillage_0_split
I0403 19:44:48.253046  9614 net.cpp:91] Creating Layer loss2/classifier_plantvillage_loss2/classifier_plantvillage_0_split
I0403 19:44:48.253068  9614 net.cpp:425] loss2/classifier_plantvillage_loss2/classifier_plantvillage_0_split <- loss2/classifier_plantvillage
I0403 19:44:48.253098  9614 net.cpp:399] loss2/classifier_plantvillage_loss2/classifier_plantvillage_0_split -> loss2/classifier_plantvillage_loss2/classifier_plantvillage_0_split_0
I0403 19:44:48.253126  9614 net.cpp:399] loss2/classifier_plantvillage_loss2/classifier_plantvillage_0_split -> loss2/classifier_plantvillage_loss2/classifier_plantvillage_0_split_1
I0403 19:44:48.253152  9614 net.cpp:399] loss2/classifier_plantvillage_loss2/classifier_plantvillage_0_split -> loss2/classifier_plantvillage_loss2/classifier_plantvillage_0_split_2
I0403 19:44:48.253264  9614 net.cpp:141] Setting up loss2/classifier_plantvillage_loss2/classifier_plantvillage_0_split
I0403 19:44:48.253296  9614 net.cpp:148] Top shape: 24 38 (912)
I0403 19:44:48.253316  9614 net.cpp:148] Top shape: 24 38 (912)
I0403 19:44:48.253347  9614 net.cpp:148] Top shape: 24 38 (912)
I0403 19:44:48.253365  9614 net.cpp:156] Memory required for data: 1208432160
I0403 19:44:48.253382  9614 layer_factory.hpp:77] Creating layer inception_4e/1x1
I0403 19:44:48.253410  9614 net.cpp:91] Creating Layer inception_4e/1x1
I0403 19:44:48.253432  9614 net.cpp:425] inception_4e/1x1 <- inception_4d/output_inception_4d/output_0_split_1
I0403 19:44:48.253456  9614 net.cpp:399] inception_4e/1x1 -> inception_4e/1x1
I0403 19:44:48.255725  9614 net.cpp:141] Setting up inception_4e/1x1
I0403 19:44:48.255761  9614 net.cpp:148] Top shape: 24 256 14 14 (1204224)
I0403 19:44:48.255780  9614 net.cpp:156] Memory required for data: 1213249056
I0403 19:44:48.255803  9614 layer_factory.hpp:77] Creating layer inception_4e/relu_1x1
I0403 19:44:48.255828  9614 net.cpp:91] Creating Layer inception_4e/relu_1x1
I0403 19:44:48.255849  9614 net.cpp:425] inception_4e/relu_1x1 <- inception_4e/1x1
I0403 19:44:48.255872  9614 net.cpp:386] inception_4e/relu_1x1 -> inception_4e/1x1 (in-place)
I0403 19:44:48.256235  9614 net.cpp:141] Setting up inception_4e/relu_1x1
I0403 19:44:48.256268  9614 net.cpp:148] Top shape: 24 256 14 14 (1204224)
I0403 19:44:48.256286  9614 net.cpp:156] Memory required for data: 1218065952
I0403 19:44:48.256304  9614 layer_factory.hpp:77] Creating layer inception_4e/3x3_reduce
I0403 19:44:48.256333  9614 net.cpp:91] Creating Layer inception_4e/3x3_reduce
I0403 19:44:48.256356  9614 net.cpp:425] inception_4e/3x3_reduce <- inception_4d/output_inception_4d/output_0_split_2
I0403 19:44:48.256381  9614 net.cpp:399] inception_4e/3x3_reduce -> inception_4e/3x3_reduce
I0403 19:44:48.258965  9614 net.cpp:141] Setting up inception_4e/3x3_reduce
I0403 19:44:48.259002  9614 net.cpp:148] Top shape: 24 160 14 14 (752640)
I0403 19:44:48.259021  9614 net.cpp:156] Memory required for data: 1221076512
I0403 19:44:48.259044  9614 layer_factory.hpp:77] Creating layer inception_4e/relu_3x3_reduce
I0403 19:44:48.259068  9614 net.cpp:91] Creating Layer inception_4e/relu_3x3_reduce
I0403 19:44:48.259088  9614 net.cpp:425] inception_4e/relu_3x3_reduce <- inception_4e/3x3_reduce
I0403 19:44:48.259112  9614 net.cpp:386] inception_4e/relu_3x3_reduce -> inception_4e/3x3_reduce (in-place)
I0403 19:44:48.259349  9614 net.cpp:141] Setting up inception_4e/relu_3x3_reduce
I0403 19:44:48.259379  9614 net.cpp:148] Top shape: 24 160 14 14 (752640)
I0403 19:44:48.259397  9614 net.cpp:156] Memory required for data: 1224087072
I0403 19:44:48.259416  9614 layer_factory.hpp:77] Creating layer inception_4e/3x3
I0403 19:44:48.259443  9614 net.cpp:91] Creating Layer inception_4e/3x3
I0403 19:44:48.259464  9614 net.cpp:425] inception_4e/3x3 <- inception_4e/3x3_reduce
I0403 19:44:48.259490  9614 net.cpp:399] inception_4e/3x3 -> inception_4e/3x3
I0403 19:44:48.265688  9614 net.cpp:141] Setting up inception_4e/3x3
I0403 19:44:48.265740  9614 net.cpp:148] Top shape: 24 320 14 14 (1505280)
I0403 19:44:48.265760  9614 net.cpp:156] Memory required for data: 1230108192
I0403 19:44:48.265784  9614 layer_factory.hpp:77] Creating layer inception_4e/relu_3x3
I0403 19:44:48.265810  9614 net.cpp:91] Creating Layer inception_4e/relu_3x3
I0403 19:44:48.265830  9614 net.cpp:425] inception_4e/relu_3x3 <- inception_4e/3x3
I0403 19:44:48.265852  9614 net.cpp:386] inception_4e/relu_3x3 -> inception_4e/3x3 (in-place)
I0403 19:44:48.266216  9614 net.cpp:141] Setting up inception_4e/relu_3x3
I0403 19:44:48.266252  9614 net.cpp:148] Top shape: 24 320 14 14 (1505280)
I0403 19:44:48.266273  9614 net.cpp:156] Memory required for data: 1236129312
I0403 19:44:48.266290  9614 layer_factory.hpp:77] Creating layer inception_4e/5x5_reduce
I0403 19:44:48.266319  9614 net.cpp:91] Creating Layer inception_4e/5x5_reduce
I0403 19:44:48.266341  9614 net.cpp:425] inception_4e/5x5_reduce <- inception_4d/output_inception_4d/output_0_split_3
I0403 19:44:48.266366  9614 net.cpp:399] inception_4e/5x5_reduce -> inception_4e/5x5_reduce
I0403 19:44:48.267686  9614 net.cpp:141] Setting up inception_4e/5x5_reduce
I0403 19:44:48.267720  9614 net.cpp:148] Top shape: 24 32 14 14 (150528)
I0403 19:44:48.267740  9614 net.cpp:156] Memory required for data: 1236731424
I0403 19:44:48.267763  9614 layer_factory.hpp:77] Creating layer inception_4e/relu_5x5_reduce
I0403 19:44:48.267787  9614 net.cpp:91] Creating Layer inception_4e/relu_5x5_reduce
I0403 19:44:48.267808  9614 net.cpp:425] inception_4e/relu_5x5_reduce <- inception_4e/5x5_reduce
I0403 19:44:48.267829  9614 net.cpp:386] inception_4e/relu_5x5_reduce -> inception_4e/5x5_reduce (in-place)
I0403 19:44:48.268193  9614 net.cpp:141] Setting up inception_4e/relu_5x5_reduce
I0403 19:44:48.268230  9614 net.cpp:148] Top shape: 24 32 14 14 (150528)
I0403 19:44:48.268250  9614 net.cpp:156] Memory required for data: 1237333536
I0403 19:44:48.268268  9614 layer_factory.hpp:77] Creating layer inception_4e/5x5
I0403 19:44:48.268321  9614 net.cpp:91] Creating Layer inception_4e/5x5
I0403 19:44:48.268343  9614 net.cpp:425] inception_4e/5x5 <- inception_4e/5x5_reduce
I0403 19:44:48.268368  9614 net.cpp:399] inception_4e/5x5 -> inception_4e/5x5
I0403 19:44:48.270632  9614 net.cpp:141] Setting up inception_4e/5x5
I0403 19:44:48.270668  9614 net.cpp:148] Top shape: 24 128 14 14 (602112)
I0403 19:44:48.270689  9614 net.cpp:156] Memory required for data: 1239741984
I0403 19:44:48.270711  9614 layer_factory.hpp:77] Creating layer inception_4e/relu_5x5
I0403 19:44:48.270733  9614 net.cpp:91] Creating Layer inception_4e/relu_5x5
I0403 19:44:48.270752  9614 net.cpp:425] inception_4e/relu_5x5 <- inception_4e/5x5
I0403 19:44:48.270776  9614 net.cpp:386] inception_4e/relu_5x5 -> inception_4e/5x5 (in-place)
I0403 19:44:48.271015  9614 net.cpp:141] Setting up inception_4e/relu_5x5
I0403 19:44:48.271046  9614 net.cpp:148] Top shape: 24 128 14 14 (602112)
I0403 19:44:48.271064  9614 net.cpp:156] Memory required for data: 1242150432
I0403 19:44:48.271083  9614 layer_factory.hpp:77] Creating layer inception_4e/pool
I0403 19:44:48.271105  9614 net.cpp:91] Creating Layer inception_4e/pool
I0403 19:44:48.271126  9614 net.cpp:425] inception_4e/pool <- inception_4d/output_inception_4d/output_0_split_4
I0403 19:44:48.271150  9614 net.cpp:399] inception_4e/pool -> inception_4e/pool
I0403 19:44:48.271248  9614 net.cpp:141] Setting up inception_4e/pool
I0403 19:44:48.271278  9614 net.cpp:148] Top shape: 24 528 14 14 (2483712)
I0403 19:44:48.271297  9614 net.cpp:156] Memory required for data: 1252085280
I0403 19:44:48.271316  9614 layer_factory.hpp:77] Creating layer inception_4e/pool_proj
I0403 19:44:48.271342  9614 net.cpp:91] Creating Layer inception_4e/pool_proj
I0403 19:44:48.271364  9614 net.cpp:425] inception_4e/pool_proj <- inception_4e/pool
I0403 19:44:48.271390  9614 net.cpp:399] inception_4e/pool_proj -> inception_4e/pool_proj
I0403 19:44:48.273244  9614 net.cpp:141] Setting up inception_4e/pool_proj
I0403 19:44:48.273296  9614 net.cpp:148] Top shape: 24 128 14 14 (602112)
I0403 19:44:48.273316  9614 net.cpp:156] Memory required for data: 1254493728
I0403 19:44:48.273339  9614 layer_factory.hpp:77] Creating layer inception_4e/relu_pool_proj
I0403 19:44:48.273365  9614 net.cpp:91] Creating Layer inception_4e/relu_pool_proj
I0403 19:44:48.273386  9614 net.cpp:425] inception_4e/relu_pool_proj <- inception_4e/pool_proj
I0403 19:44:48.273411  9614 net.cpp:386] inception_4e/relu_pool_proj -> inception_4e/pool_proj (in-place)
I0403 19:44:48.273758  9614 net.cpp:141] Setting up inception_4e/relu_pool_proj
I0403 19:44:48.273793  9614 net.cpp:148] Top shape: 24 128 14 14 (602112)
I0403 19:44:48.273813  9614 net.cpp:156] Memory required for data: 1256902176
I0403 19:44:48.273831  9614 layer_factory.hpp:77] Creating layer inception_4e/output
I0403 19:44:48.273854  9614 net.cpp:91] Creating Layer inception_4e/output
I0403 19:44:48.273872  9614 net.cpp:425] inception_4e/output <- inception_4e/1x1
I0403 19:44:48.273892  9614 net.cpp:425] inception_4e/output <- inception_4e/3x3
I0403 19:44:48.273913  9614 net.cpp:425] inception_4e/output <- inception_4e/5x5
I0403 19:44:48.273932  9614 net.cpp:425] inception_4e/output <- inception_4e/pool_proj
I0403 19:44:48.273959  9614 net.cpp:399] inception_4e/output -> inception_4e/output
I0403 19:44:48.274020  9614 net.cpp:141] Setting up inception_4e/output
I0403 19:44:48.274050  9614 net.cpp:148] Top shape: 24 832 14 14 (3913728)
I0403 19:44:48.274067  9614 net.cpp:156] Memory required for data: 1272557088
I0403 19:44:48.274085  9614 layer_factory.hpp:77] Creating layer pool4/3x3_s2
I0403 19:44:48.274109  9614 net.cpp:91] Creating Layer pool4/3x3_s2
I0403 19:44:48.274129  9614 net.cpp:425] pool4/3x3_s2 <- inception_4e/output
I0403 19:44:48.274153  9614 net.cpp:399] pool4/3x3_s2 -> pool4/3x3_s2
I0403 19:44:48.274247  9614 net.cpp:141] Setting up pool4/3x3_s2
I0403 19:44:48.274277  9614 net.cpp:148] Top shape: 24 832 7 7 (978432)
I0403 19:44:48.274296  9614 net.cpp:156] Memory required for data: 1276470816
I0403 19:44:48.274314  9614 layer_factory.hpp:77] Creating layer pool4/3x3_s2_pool4/3x3_s2_0_split
I0403 19:44:48.274335  9614 net.cpp:91] Creating Layer pool4/3x3_s2_pool4/3x3_s2_0_split
I0403 19:44:48.274354  9614 net.cpp:425] pool4/3x3_s2_pool4/3x3_s2_0_split <- pool4/3x3_s2
I0403 19:44:48.274379  9614 net.cpp:399] pool4/3x3_s2_pool4/3x3_s2_0_split -> pool4/3x3_s2_pool4/3x3_s2_0_split_0
I0403 19:44:48.274405  9614 net.cpp:399] pool4/3x3_s2_pool4/3x3_s2_0_split -> pool4/3x3_s2_pool4/3x3_s2_0_split_1
I0403 19:44:48.274428  9614 net.cpp:399] pool4/3x3_s2_pool4/3x3_s2_0_split -> pool4/3x3_s2_pool4/3x3_s2_0_split_2
I0403 19:44:48.274452  9614 net.cpp:399] pool4/3x3_s2_pool4/3x3_s2_0_split -> pool4/3x3_s2_pool4/3x3_s2_0_split_3
I0403 19:44:48.274565  9614 net.cpp:141] Setting up pool4/3x3_s2_pool4/3x3_s2_0_split
I0403 19:44:48.274595  9614 net.cpp:148] Top shape: 24 832 7 7 (978432)
I0403 19:44:48.274615  9614 net.cpp:148] Top shape: 24 832 7 7 (978432)
I0403 19:44:48.274633  9614 net.cpp:148] Top shape: 24 832 7 7 (978432)
I0403 19:44:48.274652  9614 net.cpp:148] Top shape: 24 832 7 7 (978432)
I0403 19:44:48.274668  9614 net.cpp:156] Memory required for data: 1292125728
I0403 19:44:48.274687  9614 layer_factory.hpp:77] Creating layer inception_5a/1x1
I0403 19:44:48.274713  9614 net.cpp:91] Creating Layer inception_5a/1x1
I0403 19:44:48.274735  9614 net.cpp:425] inception_5a/1x1 <- pool4/3x3_s2_pool4/3x3_s2_0_split_0
I0403 19:44:48.274761  9614 net.cpp:399] inception_5a/1x1 -> inception_5a/1x1
I0403 19:44:48.278256  9614 net.cpp:141] Setting up inception_5a/1x1
I0403 19:44:48.278302  9614 net.cpp:148] Top shape: 24 256 7 7 (301056)
I0403 19:44:48.278321  9614 net.cpp:156] Memory required for data: 1293329952
I0403 19:44:48.278344  9614 layer_factory.hpp:77] Creating layer inception_5a/relu_1x1
I0403 19:44:48.278367  9614 net.cpp:91] Creating Layer inception_5a/relu_1x1
I0403 19:44:48.278386  9614 net.cpp:425] inception_5a/relu_1x1 <- inception_5a/1x1
I0403 19:44:48.278410  9614 net.cpp:386] inception_5a/relu_1x1 -> inception_5a/1x1 (in-place)
I0403 19:44:48.278795  9614 net.cpp:141] Setting up inception_5a/relu_1x1
I0403 19:44:48.278827  9614 net.cpp:148] Top shape: 24 256 7 7 (301056)
I0403 19:44:48.278846  9614 net.cpp:156] Memory required for data: 1294534176
I0403 19:44:48.278863  9614 layer_factory.hpp:77] Creating layer inception_5a/3x3_reduce
I0403 19:44:48.278892  9614 net.cpp:91] Creating Layer inception_5a/3x3_reduce
I0403 19:44:48.278913  9614 net.cpp:425] inception_5a/3x3_reduce <- pool4/3x3_s2_pool4/3x3_s2_0_split_1
I0403 19:44:48.278940  9614 net.cpp:399] inception_5a/3x3_reduce -> inception_5a/3x3_reduce
I0403 19:44:48.282233  9614 net.cpp:141] Setting up inception_5a/3x3_reduce
I0403 19:44:48.282270  9614 net.cpp:148] Top shape: 24 160 7 7 (188160)
I0403 19:44:48.282294  9614 net.cpp:156] Memory required for data: 1295286816
I0403 19:44:48.282317  9614 layer_factory.hpp:77] Creating layer inception_5a/relu_3x3_reduce
I0403 19:44:48.282342  9614 net.cpp:91] Creating Layer inception_5a/relu_3x3_reduce
I0403 19:44:48.282362  9614 net.cpp:425] inception_5a/relu_3x3_reduce <- inception_5a/3x3_reduce
I0403 19:44:48.282383  9614 net.cpp:386] inception_5a/relu_3x3_reduce -> inception_5a/3x3_reduce (in-place)
I0403 19:44:48.282621  9614 net.cpp:141] Setting up inception_5a/relu_3x3_reduce
I0403 19:44:48.282652  9614 net.cpp:148] Top shape: 24 160 7 7 (188160)
I0403 19:44:48.282670  9614 net.cpp:156] Memory required for data: 1296039456
I0403 19:44:48.282690  9614 layer_factory.hpp:77] Creating layer inception_5a/3x3
I0403 19:44:48.282717  9614 net.cpp:91] Creating Layer inception_5a/3x3
I0403 19:44:48.282739  9614 net.cpp:425] inception_5a/3x3 <- inception_5a/3x3_reduce
I0403 19:44:48.282765  9614 net.cpp:399] inception_5a/3x3 -> inception_5a/3x3
I0403 19:44:48.289043  9614 net.cpp:141] Setting up inception_5a/3x3
I0403 19:44:48.289083  9614 net.cpp:148] Top shape: 24 320 7 7 (376320)
I0403 19:44:48.289103  9614 net.cpp:156] Memory required for data: 1297544736
I0403 19:44:48.289126  9614 layer_factory.hpp:77] Creating layer inception_5a/relu_3x3
I0403 19:44:48.289149  9614 net.cpp:91] Creating Layer inception_5a/relu_3x3
I0403 19:44:48.289168  9614 net.cpp:425] inception_5a/relu_3x3 <- inception_5a/3x3
I0403 19:44:48.289192  9614 net.cpp:386] inception_5a/relu_3x3 -> inception_5a/3x3 (in-place)
I0403 19:44:48.289638  9614 net.cpp:141] Setting up inception_5a/relu_3x3
I0403 19:44:48.289671  9614 net.cpp:148] Top shape: 24 320 7 7 (376320)
I0403 19:44:48.289691  9614 net.cpp:156] Memory required for data: 1299050016
I0403 19:44:48.289711  9614 layer_factory.hpp:77] Creating layer inception_5a/5x5_reduce
I0403 19:44:48.289741  9614 net.cpp:91] Creating Layer inception_5a/5x5_reduce
I0403 19:44:48.289762  9614 net.cpp:425] inception_5a/5x5_reduce <- pool4/3x3_s2_pool4/3x3_s2_0_split_2
I0403 19:44:48.289789  9614 net.cpp:399] inception_5a/5x5_reduce -> inception_5a/5x5_reduce
I0403 19:44:48.291266  9614 net.cpp:141] Setting up inception_5a/5x5_reduce
I0403 19:44:48.291302  9614 net.cpp:148] Top shape: 24 32 7 7 (37632)
I0403 19:44:48.291321  9614 net.cpp:156] Memory required for data: 1299200544
I0403 19:44:48.291344  9614 layer_factory.hpp:77] Creating layer inception_5a/relu_5x5_reduce
I0403 19:44:48.291369  9614 net.cpp:91] Creating Layer inception_5a/relu_5x5_reduce
I0403 19:44:48.291389  9614 net.cpp:425] inception_5a/relu_5x5_reduce <- inception_5a/5x5_reduce
I0403 19:44:48.291411  9614 net.cpp:386] inception_5a/relu_5x5_reduce -> inception_5a/5x5_reduce (in-place)
I0403 19:44:48.291782  9614 net.cpp:141] Setting up inception_5a/relu_5x5_reduce
I0403 19:44:48.291815  9614 net.cpp:148] Top shape: 24 32 7 7 (37632)
I0403 19:44:48.291833  9614 net.cpp:156] Memory required for data: 1299351072
I0403 19:44:48.291851  9614 layer_factory.hpp:77] Creating layer inception_5a/5x5
I0403 19:44:48.291878  9614 net.cpp:91] Creating Layer inception_5a/5x5
I0403 19:44:48.291901  9614 net.cpp:425] inception_5a/5x5 <- inception_5a/5x5_reduce
I0403 19:44:48.291926  9614 net.cpp:399] inception_5a/5x5 -> inception_5a/5x5
I0403 19:44:48.294072  9614 net.cpp:141] Setting up inception_5a/5x5
I0403 19:44:48.294122  9614 net.cpp:148] Top shape: 24 128 7 7 (150528)
I0403 19:44:48.294142  9614 net.cpp:156] Memory required for data: 1299953184
I0403 19:44:48.294165  9614 layer_factory.hpp:77] Creating layer inception_5a/relu_5x5
I0403 19:44:48.294188  9614 net.cpp:91] Creating Layer inception_5a/relu_5x5
I0403 19:44:48.294212  9614 net.cpp:425] inception_5a/relu_5x5 <- inception_5a/5x5
I0403 19:44:48.294239  9614 net.cpp:386] inception_5a/relu_5x5 -> inception_5a/5x5 (in-place)
I0403 19:44:48.294473  9614 net.cpp:141] Setting up inception_5a/relu_5x5
I0403 19:44:48.294507  9614 net.cpp:148] Top shape: 24 128 7 7 (150528)
I0403 19:44:48.294528  9614 net.cpp:156] Memory required for data: 1300555296
I0403 19:44:48.294548  9614 layer_factory.hpp:77] Creating layer inception_5a/pool
I0403 19:44:48.294574  9614 net.cpp:91] Creating Layer inception_5a/pool
I0403 19:44:48.294595  9614 net.cpp:425] inception_5a/pool <- pool4/3x3_s2_pool4/3x3_s2_0_split_3
I0403 19:44:48.294620  9614 net.cpp:399] inception_5a/pool -> inception_5a/pool
I0403 19:44:48.294709  9614 net.cpp:141] Setting up inception_5a/pool
I0403 19:44:48.294739  9614 net.cpp:148] Top shape: 24 832 7 7 (978432)
I0403 19:44:48.294756  9614 net.cpp:156] Memory required for data: 1304469024
I0403 19:44:48.294775  9614 layer_factory.hpp:77] Creating layer inception_5a/pool_proj
I0403 19:44:48.294801  9614 net.cpp:91] Creating Layer inception_5a/pool_proj
I0403 19:44:48.294823  9614 net.cpp:425] inception_5a/pool_proj <- inception_5a/pool
I0403 19:44:48.294849  9614 net.cpp:399] inception_5a/pool_proj -> inception_5a/pool_proj
I0403 19:44:48.297642  9614 net.cpp:141] Setting up inception_5a/pool_proj
I0403 19:44:48.297685  9614 net.cpp:148] Top shape: 24 128 7 7 (150528)
I0403 19:44:48.297705  9614 net.cpp:156] Memory required for data: 1305071136
I0403 19:44:48.297727  9614 layer_factory.hpp:77] Creating layer inception_5a/relu_pool_proj
I0403 19:44:48.297749  9614 net.cpp:91] Creating Layer inception_5a/relu_pool_proj
I0403 19:44:48.297768  9614 net.cpp:425] inception_5a/relu_pool_proj <- inception_5a/pool_proj
I0403 19:44:48.297797  9614 net.cpp:386] inception_5a/relu_pool_proj -> inception_5a/pool_proj (in-place)
I0403 19:44:48.298158  9614 net.cpp:141] Setting up inception_5a/relu_pool_proj
I0403 19:44:48.298193  9614 net.cpp:148] Top shape: 24 128 7 7 (150528)
I0403 19:44:48.298216  9614 net.cpp:156] Memory required for data: 1305673248
I0403 19:44:48.298236  9614 layer_factory.hpp:77] Creating layer inception_5a/output
I0403 19:44:48.298259  9614 net.cpp:91] Creating Layer inception_5a/output
I0403 19:44:48.298279  9614 net.cpp:425] inception_5a/output <- inception_5a/1x1
I0403 19:44:48.298300  9614 net.cpp:425] inception_5a/output <- inception_5a/3x3
I0403 19:44:48.298321  9614 net.cpp:425] inception_5a/output <- inception_5a/5x5
I0403 19:44:48.298341  9614 net.cpp:425] inception_5a/output <- inception_5a/pool_proj
I0403 19:44:48.298362  9614 net.cpp:399] inception_5a/output -> inception_5a/output
I0403 19:44:48.298427  9614 net.cpp:141] Setting up inception_5a/output
I0403 19:44:48.298457  9614 net.cpp:148] Top shape: 24 832 7 7 (978432)
I0403 19:44:48.298475  9614 net.cpp:156] Memory required for data: 1309586976
I0403 19:44:48.298493  9614 layer_factory.hpp:77] Creating layer inception_5a/output_inception_5a/output_0_split
I0403 19:44:48.298517  9614 net.cpp:91] Creating Layer inception_5a/output_inception_5a/output_0_split
I0403 19:44:48.298537  9614 net.cpp:425] inception_5a/output_inception_5a/output_0_split <- inception_5a/output
I0403 19:44:48.298566  9614 net.cpp:399] inception_5a/output_inception_5a/output_0_split -> inception_5a/output_inception_5a/output_0_split_0
I0403 19:44:48.298591  9614 net.cpp:399] inception_5a/output_inception_5a/output_0_split -> inception_5a/output_inception_5a/output_0_split_1
I0403 19:44:48.298619  9614 net.cpp:399] inception_5a/output_inception_5a/output_0_split -> inception_5a/output_inception_5a/output_0_split_2
I0403 19:44:48.298646  9614 net.cpp:399] inception_5a/output_inception_5a/output_0_split -> inception_5a/output_inception_5a/output_0_split_3
I0403 19:44:48.298787  9614 net.cpp:141] Setting up inception_5a/output_inception_5a/output_0_split
I0403 19:44:48.298816  9614 net.cpp:148] Top shape: 24 832 7 7 (978432)
I0403 19:44:48.298836  9614 net.cpp:148] Top shape: 24 832 7 7 (978432)
I0403 19:44:48.298856  9614 net.cpp:148] Top shape: 24 832 7 7 (978432)
I0403 19:44:48.298876  9614 net.cpp:148] Top shape: 24 832 7 7 (978432)
I0403 19:44:48.298893  9614 net.cpp:156] Memory required for data: 1325241888
I0403 19:44:48.298912  9614 layer_factory.hpp:77] Creating layer inception_5b/1x1
I0403 19:44:48.298938  9614 net.cpp:91] Creating Layer inception_5b/1x1
I0403 19:44:48.298960  9614 net.cpp:425] inception_5b/1x1 <- inception_5a/output_inception_5a/output_0_split_0
I0403 19:44:48.298986  9614 net.cpp:399] inception_5b/1x1 -> inception_5b/1x1
I0403 19:44:48.303614  9614 net.cpp:141] Setting up inception_5b/1x1
I0403 19:44:48.303653  9614 net.cpp:148] Top shape: 24 384 7 7 (451584)
I0403 19:44:48.303675  9614 net.cpp:156] Memory required for data: 1327048224
I0403 19:44:48.303701  9614 layer_factory.hpp:77] Creating layer inception_5b/relu_1x1
I0403 19:44:48.303725  9614 net.cpp:91] Creating Layer inception_5b/relu_1x1
I0403 19:44:48.303745  9614 net.cpp:425] inception_5b/relu_1x1 <- inception_5b/1x1
I0403 19:44:48.303768  9614 net.cpp:386] inception_5b/relu_1x1 -> inception_5b/1x1 (in-place)
I0403 19:44:48.304138  9614 net.cpp:141] Setting up inception_5b/relu_1x1
I0403 19:44:48.304172  9614 net.cpp:148] Top shape: 24 384 7 7 (451584)
I0403 19:44:48.304190  9614 net.cpp:156] Memory required for data: 1328854560
I0403 19:44:48.304214  9614 layer_factory.hpp:77] Creating layer inception_5b/3x3_reduce
I0403 19:44:48.304250  9614 net.cpp:91] Creating Layer inception_5b/3x3_reduce
I0403 19:44:48.304277  9614 net.cpp:425] inception_5b/3x3_reduce <- inception_5a/output_inception_5a/output_0_split_1
I0403 19:44:48.304302  9614 net.cpp:399] inception_5b/3x3_reduce -> inception_5b/3x3_reduce
I0403 19:44:48.307554  9614 net.cpp:141] Setting up inception_5b/3x3_reduce
I0403 19:44:48.307595  9614 net.cpp:148] Top shape: 24 192 7 7 (225792)
I0403 19:44:48.307615  9614 net.cpp:156] Memory required for data: 1329757728
I0403 19:44:48.307637  9614 layer_factory.hpp:77] Creating layer inception_5b/relu_3x3_reduce
I0403 19:44:48.307659  9614 net.cpp:91] Creating Layer inception_5b/relu_3x3_reduce
I0403 19:44:48.307682  9614 net.cpp:425] inception_5b/relu_3x3_reduce <- inception_5b/3x3_reduce
I0403 19:44:48.307704  9614 net.cpp:386] inception_5b/relu_3x3_reduce -> inception_5b/3x3_reduce (in-place)
I0403 19:44:48.307940  9614 net.cpp:141] Setting up inception_5b/relu_3x3_reduce
I0403 19:44:48.307971  9614 net.cpp:148] Top shape: 24 192 7 7 (225792)
I0403 19:44:48.307988  9614 net.cpp:156] Memory required for data: 1330660896
I0403 19:44:48.308007  9614 layer_factory.hpp:77] Creating layer inception_5b/3x3
I0403 19:44:48.308035  9614 net.cpp:91] Creating Layer inception_5b/3x3
I0403 19:44:48.308056  9614 net.cpp:425] inception_5b/3x3 <- inception_5b/3x3_reduce
I0403 19:44:48.308084  9614 net.cpp:399] inception_5b/3x3 -> inception_5b/3x3
I0403 19:44:48.316378  9614 net.cpp:141] Setting up inception_5b/3x3
I0403 19:44:48.316419  9614 net.cpp:148] Top shape: 24 384 7 7 (451584)
I0403 19:44:48.316440  9614 net.cpp:156] Memory required for data: 1332467232
I0403 19:44:48.316463  9614 layer_factory.hpp:77] Creating layer inception_5b/relu_3x3
I0403 19:44:48.316485  9614 net.cpp:91] Creating Layer inception_5b/relu_3x3
I0403 19:44:48.316505  9614 net.cpp:425] inception_5b/relu_3x3 <- inception_5b/3x3
I0403 19:44:48.316529  9614 net.cpp:386] inception_5b/relu_3x3 -> inception_5b/3x3 (in-place)
I0403 19:44:48.316891  9614 net.cpp:141] Setting up inception_5b/relu_3x3
I0403 19:44:48.316926  9614 net.cpp:148] Top shape: 24 384 7 7 (451584)
I0403 19:44:48.316944  9614 net.cpp:156] Memory required for data: 1334273568
I0403 19:44:48.316962  9614 layer_factory.hpp:77] Creating layer inception_5b/5x5_reduce
I0403 19:44:48.317013  9614 net.cpp:91] Creating Layer inception_5b/5x5_reduce
I0403 19:44:48.317035  9614 net.cpp:425] inception_5b/5x5_reduce <- inception_5a/output_inception_5a/output_0_split_2
I0403 19:44:48.317062  9614 net.cpp:399] inception_5b/5x5_reduce -> inception_5b/5x5_reduce
I0403 19:44:48.318648  9614 net.cpp:141] Setting up inception_5b/5x5_reduce
I0403 19:44:48.318686  9614 net.cpp:148] Top shape: 24 48 7 7 (56448)
I0403 19:44:48.318706  9614 net.cpp:156] Memory required for data: 1334499360
I0403 19:44:48.318728  9614 layer_factory.hpp:77] Creating layer inception_5b/relu_5x5_reduce
I0403 19:44:48.318750  9614 net.cpp:91] Creating Layer inception_5b/relu_5x5_reduce
I0403 19:44:48.318773  9614 net.cpp:425] inception_5b/relu_5x5_reduce <- inception_5b/5x5_reduce
I0403 19:44:48.318797  9614 net.cpp:386] inception_5b/relu_5x5_reduce -> inception_5b/5x5_reduce (in-place)
I0403 19:44:48.319255  9614 net.cpp:141] Setting up inception_5b/relu_5x5_reduce
I0403 19:44:48.319288  9614 net.cpp:148] Top shape: 24 48 7 7 (56448)
I0403 19:44:48.319306  9614 net.cpp:156] Memory required for data: 1334725152
I0403 19:44:48.319324  9614 layer_factory.hpp:77] Creating layer inception_5b/5x5
I0403 19:44:48.319350  9614 net.cpp:91] Creating Layer inception_5b/5x5
I0403 19:44:48.319370  9614 net.cpp:425] inception_5b/5x5 <- inception_5b/5x5_reduce
I0403 19:44:48.319393  9614 net.cpp:399] inception_5b/5x5 -> inception_5b/5x5
I0403 19:44:48.321949  9614 net.cpp:141] Setting up inception_5b/5x5
I0403 19:44:48.321985  9614 net.cpp:148] Top shape: 24 128 7 7 (150528)
I0403 19:44:48.322003  9614 net.cpp:156] Memory required for data: 1335327264
I0403 19:44:48.322026  9614 layer_factory.hpp:77] Creating layer inception_5b/relu_5x5
I0403 19:44:48.322048  9614 net.cpp:91] Creating Layer inception_5b/relu_5x5
I0403 19:44:48.322068  9614 net.cpp:425] inception_5b/relu_5x5 <- inception_5b/5x5
I0403 19:44:48.322093  9614 net.cpp:386] inception_5b/relu_5x5 -> inception_5b/5x5 (in-place)
I0403 19:44:48.322336  9614 net.cpp:141] Setting up inception_5b/relu_5x5
I0403 19:44:48.322368  9614 net.cpp:148] Top shape: 24 128 7 7 (150528)
I0403 19:44:48.322386  9614 net.cpp:156] Memory required for data: 1335929376
I0403 19:44:48.322404  9614 layer_factory.hpp:77] Creating layer inception_5b/pool
I0403 19:44:48.322430  9614 net.cpp:91] Creating Layer inception_5b/pool
I0403 19:44:48.322453  9614 net.cpp:425] inception_5b/pool <- inception_5a/output_inception_5a/output_0_split_3
I0403 19:44:48.322475  9614 net.cpp:399] inception_5b/pool -> inception_5b/pool
I0403 19:44:48.322568  9614 net.cpp:141] Setting up inception_5b/pool
I0403 19:44:48.322598  9614 net.cpp:148] Top shape: 24 832 7 7 (978432)
I0403 19:44:48.322616  9614 net.cpp:156] Memory required for data: 1339843104
I0403 19:44:48.322634  9614 layer_factory.hpp:77] Creating layer inception_5b/pool_proj
I0403 19:44:48.322661  9614 net.cpp:91] Creating Layer inception_5b/pool_proj
I0403 19:44:48.322685  9614 net.cpp:425] inception_5b/pool_proj <- inception_5b/pool
I0403 19:44:48.322710  9614 net.cpp:399] inception_5b/pool_proj -> inception_5b/pool_proj
I0403 19:44:48.325553  9614 net.cpp:141] Setting up inception_5b/pool_proj
I0403 19:44:48.325597  9614 net.cpp:148] Top shape: 24 128 7 7 (150528)
I0403 19:44:48.325618  9614 net.cpp:156] Memory required for data: 1340445216
I0403 19:44:48.325640  9614 layer_factory.hpp:77] Creating layer inception_5b/relu_pool_proj
I0403 19:44:48.325664  9614 net.cpp:91] Creating Layer inception_5b/relu_pool_proj
I0403 19:44:48.325685  9614 net.cpp:425] inception_5b/relu_pool_proj <- inception_5b/pool_proj
I0403 19:44:48.325708  9614 net.cpp:386] inception_5b/relu_pool_proj -> inception_5b/pool_proj (in-place)
I0403 19:44:48.326069  9614 net.cpp:141] Setting up inception_5b/relu_pool_proj
I0403 19:44:48.326105  9614 net.cpp:148] Top shape: 24 128 7 7 (150528)
I0403 19:44:48.326125  9614 net.cpp:156] Memory required for data: 1341047328
I0403 19:44:48.326143  9614 layer_factory.hpp:77] Creating layer inception_5b/output
I0403 19:44:48.326166  9614 net.cpp:91] Creating Layer inception_5b/output
I0403 19:44:48.326203  9614 net.cpp:425] inception_5b/output <- inception_5b/1x1
I0403 19:44:48.326232  9614 net.cpp:425] inception_5b/output <- inception_5b/3x3
I0403 19:44:48.326252  9614 net.cpp:425] inception_5b/output <- inception_5b/5x5
I0403 19:44:48.326272  9614 net.cpp:425] inception_5b/output <- inception_5b/pool_proj
I0403 19:44:48.326297  9614 net.cpp:399] inception_5b/output -> inception_5b/output
I0403 19:44:48.326361  9614 net.cpp:141] Setting up inception_5b/output
I0403 19:44:48.326390  9614 net.cpp:148] Top shape: 24 1024 7 7 (1204224)
I0403 19:44:48.326409  9614 net.cpp:156] Memory required for data: 1345864224
I0403 19:44:48.326427  9614 layer_factory.hpp:77] Creating layer pool5/7x7_s1
I0403 19:44:48.326453  9614 net.cpp:91] Creating Layer pool5/7x7_s1
I0403 19:44:48.326475  9614 net.cpp:425] pool5/7x7_s1 <- inception_5b/output
I0403 19:44:48.326498  9614 net.cpp:399] pool5/7x7_s1 -> pool5/7x7_s1
I0403 19:44:48.326766  9614 net.cpp:141] Setting up pool5/7x7_s1
I0403 19:44:48.326798  9614 net.cpp:148] Top shape: 24 1024 1 1 (24576)
I0403 19:44:48.326817  9614 net.cpp:156] Memory required for data: 1345962528
I0403 19:44:48.326835  9614 layer_factory.hpp:77] Creating layer pool5/drop_7x7_s1
I0403 19:44:48.326858  9614 net.cpp:91] Creating Layer pool5/drop_7x7_s1
I0403 19:44:48.326877  9614 net.cpp:425] pool5/drop_7x7_s1 <- pool5/7x7_s1
I0403 19:44:48.326902  9614 net.cpp:386] pool5/drop_7x7_s1 -> pool5/7x7_s1 (in-place)
I0403 19:44:48.326964  9614 net.cpp:141] Setting up pool5/drop_7x7_s1
I0403 19:44:48.326994  9614 net.cpp:148] Top shape: 24 1024 1 1 (24576)
I0403 19:44:48.327014  9614 net.cpp:156] Memory required for data: 1346060832
I0403 19:44:48.327034  9614 layer_factory.hpp:77] Creating layer loss3/classifier_plantvillage
I0403 19:44:48.327061  9614 net.cpp:91] Creating Layer loss3/classifier_plantvillage
I0403 19:44:48.327085  9614 net.cpp:425] loss3/classifier_plantvillage <- pool5/7x7_s1
I0403 19:44:48.327112  9614 net.cpp:399] loss3/classifier_plantvillage -> loss3/classifier_plantvillage
I0403 19:44:48.327649  9614 net.cpp:141] Setting up loss3/classifier_plantvillage
I0403 19:44:48.327683  9614 net.cpp:148] Top shape: 24 38 (912)
I0403 19:44:48.327703  9614 net.cpp:156] Memory required for data: 1346064480
I0403 19:44:48.327726  9614 layer_factory.hpp:77] Creating layer loss3/classifier_plantvillage_loss3/classifier_plantvillage_0_split
I0403 19:44:48.327749  9614 net.cpp:91] Creating Layer loss3/classifier_plantvillage_loss3/classifier_plantvillage_0_split
I0403 19:44:48.327769  9614 net.cpp:425] loss3/classifier_plantvillage_loss3/classifier_plantvillage_0_split <- loss3/classifier_plantvillage
I0403 19:44:48.327791  9614 net.cpp:399] loss3/classifier_plantvillage_loss3/classifier_plantvillage_0_split -> loss3/classifier_plantvillage_loss3/classifier_plantvillage_0_split_0
I0403 19:44:48.327816  9614 net.cpp:399] loss3/classifier_plantvillage_loss3/classifier_plantvillage_0_split -> loss3/classifier_plantvillage_loss3/classifier_plantvillage_0_split_1
I0403 19:44:48.327841  9614 net.cpp:399] loss3/classifier_plantvillage_loss3/classifier_plantvillage_0_split -> loss3/classifier_plantvillage_loss3/classifier_plantvillage_0_split_2
I0403 19:44:48.327868  9614 net.cpp:399] loss3/classifier_plantvillage_loss3/classifier_plantvillage_0_split -> loss3/classifier_plantvillage_loss3/classifier_plantvillage_0_split_3
I0403 19:44:48.327996  9614 net.cpp:141] Setting up loss3/classifier_plantvillage_loss3/classifier_plantvillage_0_split
I0403 19:44:48.328023  9614 net.cpp:148] Top shape: 24 38 (912)
I0403 19:44:48.328043  9614 net.cpp:148] Top shape: 24 38 (912)
I0403 19:44:48.328063  9614 net.cpp:148] Top shape: 24 38 (912)
I0403 19:44:48.328083  9614 net.cpp:148] Top shape: 24 38 (912)
I0403 19:44:48.328099  9614 net.cpp:156] Memory required for data: 1346079072
I0403 19:44:48.328116  9614 layer_factory.hpp:77] Creating layer loss1/loss
I0403 19:44:48.328142  9614 net.cpp:91] Creating Layer loss1/loss
I0403 19:44:48.328164  9614 net.cpp:425] loss1/loss <- loss1/classifier_plantvillage_loss1/classifier_plantvillage_0_split_0
I0403 19:44:48.328212  9614 net.cpp:425] loss1/loss <- label_data_1_split_0
…
