…
I0403 19:37:38.348562  9468 net.cpp:313] The NetState phase (1) differed from the phase (0) specified by a rule in layer data
I0403 19:37:38.349967  9468 net.cpp:49] Initializing net from parameters: 
state {
  phase: TEST
}
layer {
  name: "data"
  type: "Data"
  top: "data"
  top: "label"
  include {
    phase: TEST
  }
  transform_param {
    mirror: false
    crop_size: 224
    mean_file: "/home/mohanty/data/final_dataset/lmdb/grayscale-50-50/mean.binaryproto"
  }
  data_param {
    source: "/home/mohanty/data/final_dataset/lmdb/grayscale-50-50/test_db"
    batch_size: 24
    backend: LMDB
  }
}
layer {
  name: "conv1/7x7_s2"
  type: "Convolution"
  bottom: "data"
  top: "conv1/7x7_s2"
  param {
    lr_mult: 1
    decay_mult: 1
  }
  param {
    lr_mult: 2
    decay_mult: 0
  }
  convolution_param {
    num_output: 64
    pad: 3
    kernel_size: 7
    stride: 2
    weight_filler {
      type: "xavier"
      std: 0.1
    }
    bias_filler {
      type: "constant"
      value: 0.2
    }
  }
}
layer {
  name: "conv1/relu_7x7"
  type: "ReLU"
  bottom: "conv1/7x7_s2"
  top: "conv1/7x7_s2"
}
layer {
  name: "pool1/3x3_s2"
  type: "Pooling"
  bottom: "conv1/7x7_s2"
  top: "pool1/3x3_s2"
  pooling_param {
    pool: MAX
    kernel_size: 3
    stride: 2
  }
}
layer {
  name: "pool1/norm1"
  type: "LRN"
  bottom: "pool1/3x3_s2"
  top: "pool1/norm1"
  lrn_param {
    local_size: 5
    alpha: 0.0001
    beta: 0.75
  }
}
layer {
  name: "conv2/3x3_reduce"
  type: "Convolution"
  bottom: "pool1/norm1"
  top: "conv2/3x3_reduce"
  param {
    lr_mult: 1
    decay_mult: 1
  }
  param {
    lr_mult: 2
    decay_mult: 0
  }
  convolution_param {
    num_output: 64
    kernel_size: 1
    weight_filler {
      type: "xavier"
      std: 0.1
    }
    bias_filler {
      type: "constant"
      value: 0.2
    }
  }
}
layer {
  name: "conv2/relu_3x3_reduce"
  type: "ReLU"
  bottom: "conv2/3x3_reduce"
  top: "conv2/3x3_reduce"
}
layer {
  name: "conv2/3x3"
  type: "Convolution"
  bottom: "conv2/3x3_reduce"
  top: "conv2/3x3"
  param {
    lr_mult: 1
    decay_mult: 1
  }
  param {
    lr_mult: 2
    decay_mult: 0
  }
  convolution_param {
    num_output: 192
    pad: 1
    kernel_size: 3
    weight_filler {
      type: "xavier"
      std: 0.03
    }
    bias_filler {
      type: "constant"
      value: 0.2
    }
  }
}
layer {
  name: "conv2/relu_3x3"
  type: "ReLU"
  bottom: "conv2/3x3"
  top: "conv2/3x3"
}
layer {
  name: "conv2/norm2"
  type: "LRN"
  bottom: "conv2/3x3"
  top: "conv2/norm2"
  lrn_param {
    local_size: 5
    alpha: 0.0001
    beta: 0.75
  }
}
layer {
  name: "pool2/3x3_s2"
  type: "Pooling"
  bottom: "conv2/norm2"
  top: "pool2/3x3_s2"
  pooling_param {
    pool: MAX
    kernel_size: 3
    stride: 2
  }
}
layer {
  name: "inception_3a/1x1"
  type: "Convolution"
  bottom: "pool2/3x3_s2"
  top: "inception_3a/1x1"
  param {
    lr_mult: 1
    decay_mult: 1
  }
  param {
    lr_mult: 2
    decay_mult: 0
  }
  convolution_param {
    num_output: 64
    kernel_size: 1
    weight_filler {
      type: "xavier"
      std: 0.03
    }
    bias_filler {
      type: "constant"
      value: 0.2
    }
  }
}
layer {
  name: "inception_3a/relu_1x1"
  type: "ReLU"
  bottom: "inception_3a/1x1"
  top: "inception_3a/1x1"
}
layer {
  name: "inception_3a/3x3_reduce"
  type: "Convolution"
  bottom: "pool2/3x3_s2"
  top: "inception_3a/3x3_reduce"
  param {
    lr_mult: 1
    decay_mult: 1
  }
  param {
    lr_mult: 2
    decay_mult: 0
  }
  convolution_param {
    num_output: 96
    kernel_size: 1
    weight_filler {
      type: "xavier"
      std: 0.09
    }
    bias_filler {
      type: "constant"
      value: 0.2
    }
  }
}
layer {
  name: "inception_3a/relu_3x3_reduce"
  type: "ReLU"
  bottom: "inception_3a/3x3_reduce"
  top: "inception_3a/3x3_reduce"
}
layer {
  name: "inception_3a/3x3"
  type: "Convolution"
  bottom: "inception_3a/3x3_reduce"
  top: "inception_3a/3x3"
  param {
    lr_mult: 1
    decay_mult: 1
  }
  param {
    lr_mult: 2
    decay_mult: 0
  }
  convolution_param {
    num_output: 128
    pad: 1
    kernel_size: 3
    weight_filler {
      type: "xavier"
      std: 0.03
    }
    bias_filler {
      type: "constant"
      value: 0.2
    }
  }
}
layer {
  name: "inception_3a/relu_3x3"
  type: "ReLU"
  bottom: "inception_3a/3x3"
  top: "inception_3a/3x3"
}
layer {
  name: "inception_3a/5x5_reduce"
  type: "Convolution"
  bottom: "pool2/3x3_s2"
  top: "inception_3a/5x5_reduce"
  param {
    lr_mult: 1
    decay_mult: 1
  }
  param {
    lr_mult: 2
    decay_mult: 0
  }
  convolution_param {
    num_output: 16
    kernel_size: 1
    weight_filler {
      type: "xavier"
      std: 0.2
    }
    bias_filler {
      type: "constant"
      value: 0.2
    }
  }
}
layer {
  name: "inception_3a/relu_5x5_reduce"
  type: "ReLU"
  bottom: "inception_3a/5x5_reduce"
  top: "inception_3a/5x5_reduce"
}
layer {
  name: "inception_3a/5x5"
  type: "Convolution"
  bottom: "inception_3a/5x5_reduce"
  top: "inception_3a/5x5"
  param {
    lr_mult: 1
    decay_mult: 1
  }
  param {
    lr_mult: 2
    decay_mult: 0
  }
  convolution_param {
    num_output: 32
    pad: 2
    kernel_size: 5
    weight_filler {
      type: "xavier"
      std: 0.03
    }
    bias_filler {
      type: "constant"
      value: 0.2
    }
  }
}
layer {
  name: "inception_3a/relu_5x5"
  type: "ReLU"
  bottom: "inception_3a/5x5"
  top: "inception_3a/5x5"
}
layer {
  name: "inception_3a/pool"
  type: "Pooling"
  bottom: "pool2/3x3_s2"
  top: "inception_3a/pool"
  pooling_param {
    pool: MAX
    kernel_size: 3
    stride: 1
    pad: 1
  }
}
layer {
  name: "inception_3a/pool_proj"
  type: "Convolution"
  bottom: "inception_3a/pool"
  top: "inception_3a/pool_proj"
  param {
    lr_mult: 1
    decay_mult: 1
  }
  param {
    lr_mult: 2
    decay_mult: 0
  }
  convolution_param {
    num_output: 32
    kernel_size: 1
    weight_filler {
      type: "xavier"
      std: 0.1
    }
    bias_filler {
      type: "constant"
      value: 0.2
    }
  }
}
layer {
  name: "inception_3a/relu_pool_proj"
  type: "ReLU"
  bottom: "inception_3a/pool_proj"
  top: "inception_3a/pool_proj"
}
layer {
  name: "inception_3a/output"
  type: "Concat"
  bottom: "inception_3a/1x1"
  bottom: "inception_3a/3x3"
  bottom: "inception_3a/5x5"
  bottom: "inception_3a/pool_proj"
  top: "inception_3a/output"
}
layer {
  name: "inception_3b/1x1"
  type: "Convolution"
  bottom: "inception_3a/output"
  top: "inception_3b/1x1"
  param {
    lr_mult: 1
    decay_mult: 1
  }
  param {
    lr_mult: 2
    decay_mult: 0
  }
  convolution_param {
    num_output: 128
    kernel_size: 1
    weight_filler {
      type: "xavier"
      std: 0.03
    }
    bias_filler {
      type: "constant"
      value: 0.2
    }
  }
}
layer {
  name: "inception_3b/relu_1x1"
  type: "ReLU"
  bottom: "inception_3b/1x1"
  top: "inception_3b/1x1"
}
layer {
  name: "inception_3b/3x3_reduce"
  type: "Convolution"
  bottom: "inception_3a/output"
  top: "inception_3b/3x3_reduce"
  param {
    lr_mult: 1
    decay_mult: 1
  }
  param {
    lr_mult: 2
    decay_mult: 0
  }
  convolution_param {
    num_output: 128
    kernel_size: 1
    weight_filler {
      type: "xavier"
      std: 0.09
    }
    bias_filler {
      type: "constant"
      value: 0.2
    }
  }
}
layer {
  name: "inception_3b/relu_3x3_reduce"
  type: "ReLU"
  bottom: "inception_3b/3x3_reduce"
  top: "inception_3b/3x3_reduce"
}
layer {
  name: "inception_3b/3x3"
  type: "Convolution"
  bottom: "inception_3b/3x3_reduce"
  top: "inception_3b/3x3"
  param {
    lr_mult: 1
    decay_mult: 1
  }
  param {
    lr_mult: 2
    decay_mult: 0
  }
  convolution_param {
    num_output: 192
    pad: 1
    kernel_size: 3
    weight_filler {
      type: "xavier"
      std: 0.03
    }
    bias_filler {
      type: "constant"
      value: 0.2
    }
  }
}
layer {
  name: "inception_3b/relu_3x3"
  type: "ReLU"
  bottom: "inception_3b/3x3"
  top: "inception_3b/3x3"
}
layer {
  name: "inception_3b/5x5_reduce"
  type: "Convolution"
  bottom: "inception_3a/output"
  top: "inception_3b/5x5_reduce"
  param {
    lr_mult: 1
    decay_mult: 1
  }
  param {
    lr_mult: 2
    decay_mult: 0
  }
  convolution_param {
    num_output: 32
    kernel_size: 1
    weight_filler {
      type: "xavier"
      std: 0.2
    }
    bias_filler {
      type: "constant"
      value: 0.2
    }
  }
}
layer {
  name: "inception_3b/relu_5x5_reduce"
  type: "ReLU"
  bottom: "inception_3b/5x5_reduce"
  top: "inception_3b/5x5_reduce"
}
layer {
  name: "inception_3b/5x5"
  type: "Convolution"
  bottom: "inception_3b/5x5_reduce"
  top: "inception_3b/5x5"
  param {
    lr_mult: 1
    decay_mult: 1
  }
  param {
    lr_mult: 2
    decay_mult: 0
  }
  convolution_param {
    num_output: 96
    pad: 2
    kernel_size: 5
    weight_filler {
      type: "xavier"
      std: 0.03
    }
    bias_filler {
      type: "constant"
      value: 0.2
    }
  }
}
layer {
  name: "inception_3b/relu_5x5"
  type: "ReLU"
  bottom: "inception_3b/5x5"
  top: "inception_3b/5x5"
}
layer {
  name: "inception_3b/pool"
  type: "Pooling"
  bottom: "inception_3a/output"
  top: "inception_3b/pool"
  pooling_param {
    pool: MAX
    kernel_size: 3
    stride: 1
    pad: 1
  }
}
layer {
  name: "inception_3b/pool_proj"
  type: "Convolution"
  bottom: "inception_3b/pool"
  top: "inception_3b/pool_proj"
  param {
    lr_mult: 1
    decay_mult: 1
  }
  param {
    lr_mult: 2
    decay_mult: 0
  }
  convolution_param {
    num_output: 64
    kernel_size: 1
    weight_filler {
      type: "xavier"
      std: 0.1
    }
    bias_filler {
      type: "constant"
      value: 0.2
    }
  }
}
layer {
  name: "inception_3b/relu_pool_proj"
  type: "ReLU"
  bottom: "inception_3b/pool_proj"
  top: "inception_3b/pool_proj"
}
layer {
  name: "inception_3b/output"
  type: "Concat"
  bottom: "inception_3b/1x1"
  bottom: "inception_3b/3x3"
  bottom: "inception_3b/5x5"
  bottom: "inception_3b/pool_proj"
  top: "inception_3b/output"
}
layer {
  name: "pool3/3x3_s2"
  type: "Pooling"
  bottom: "inception_3b/output"
  top: "pool3/3x3_s2"
  pooling_param {
    pool: MAX
    kernel_size: 3
    stride: 2
  }
}
layer {
  name: "inception_4a/1x1"
  type: "Convolution"
  bottom: "pool3/3x3_s2"
  top: "inception_4a/1x1"
  param {
    lr_mult: 1
    decay_mult: 1
  }
  param {
    lr_mult: 2
    decay_mult: 0
  }
  convolution_param {
    num_output: 192
    kernel_size: 1
    weight_filler {
      type: "xavier"
      std: 0.03
    }
    bias_filler {
      type: "constant"
      value: 0.2
    }
  }
}
layer {
  name: "inception_4a/relu_1x1"
  type: "ReLU"
  bottom: "inception_4a/1x1"
  top: "inception_4a/1x1"
}
layer {
  name: "inception_4a/3x3_reduce"
  type: "Convolution"
  bottom: "pool3/3x3_s2"
  top: "inception_4a/3x3_reduce"
  param {
    lr_mult: 1
    decay_mult: 1
  }
  param {
    lr_mult: 2
    decay_mult: 0
  }
  convolution_param {
    num_output: 96
    kernel_size: 1
    weight_filler {
      type: "xavier"
      std: 0.09
    }
    bias_filler {
      type: "constant"
      value: 0.2
    }
  }
}
layer {
  name: "inception_4a/relu_3x3_reduce"
  type: "ReLU"
  bottom: "inception_4a/3x3_reduce"
  top: "inception_4a/3x3_reduce"
}
layer {
  name: "inception_4a/3x3"
  type: "Convolution"
  bottom: "inception_4a/3x3_reduce"
  top: "inception_4a/3x3"
  param {
    lr_mult: 1
    decay_mult: 1
  }
  param {
    lr_mult: 2
    decay_mult: 0
  }
  convolution_param {
    num_output: 208
    pad: 1
    kernel_size: 3
    weight_filler {
      type: "xavier"
      std: 0.03
    }
    bias_filler {
      type: "constant"
      value: 0.2
    }
  }
}
layer {
  name: "inception_4a/relu_3x3"
  type: "ReLU"
  bottom: "inception_4a/3x3"
  top: "inception_4a/3x3"
}
layer {
  name: "inception_4a/5x5_reduce"
  type: "Convolution"
  bottom: "pool3/3x3_s2"
  top: "inception_4a/5x5_reduce"
  param {
    lr_mult: 1
    decay_mult: 1
  }
  param {
    lr_mult: 2
    decay_mult: 0
  }
  convolution_param {
    num_output: 16
    kernel_size: 1
    weight_filler {
      type: "xavier"
      std: 0.2
    }
    bias_filler {
      type: "constant"
      value: 0.2
    }
  }
}
layer {
  name: "inception_4a/relu_5x5_reduce"
  type: "ReLU"
  bottom: "inception_4a/5x5_reduce"
  top: "inception_4a/5x5_reduce"
}
layer {
  name: "inception_4a/5x5"
  type: "Convolution"
  bottom: "inception_4a/5x5_reduce"
  top: "inception_4a/5x5"
  param {
    lr_mult: 1
    decay_mult: 1
  }
  param {
    lr_mult: 2
    decay_mult: 0
  }
  convolution_param {
    num_output: 48
    pad: 2
    kernel_size: 5
    weight_filler {
      type: "xavier"
      std: 0.03
    }
    bias_filler {
      type: "constant"
      value: 0.2
    }
  }
}
layer {
  name: "inception_4a/relu_5x5"
  type: "ReLU"
  bottom: "inception_4a/5x5"
  top: "inception_4a/5x5"
}
layer {
  name: "inception_4a/pool"
  type: "Pooling"
  bottom: "pool3/3x3_s2"
  top: "inception_4a/pool"
  pooling_param {
    pool: MAX
    kernel_size: 3
    stride: 1
    pad: 1
  }
}
layer {
  name: "inception_4a/pool_proj"
  type: "Convolution"
  bottom: "inception_4a/pool"
  top: "inception_4a/pool_proj"
  param {
    lr_mult: 1
    decay_mult: 1
  }
  param {
    lr_mult: 2
    decay_mult: 0
  }
  convolution_param {
    num_output: 64
    kernel_size: 1
    weight_filler {
      type: "xavier"
      std: 0.1
    }
    bias_filler {
      type: "constant"
      value: 0.2
    }
  }
}
layer {
  name: "inception_4a/relu_pool_proj"
  type: "ReLU"
  bottom: "inception_4a/pool_proj"
  top: "inception_4a/pool_proj"
}
layer {
  name: "inception_4a/output"
  type: "Concat"
  bottom: "inception_4a/1x1"
  bottom: "inception_4a/3x3"
  bottom: "inception_4a/5x5"
  bottom: "inception_4a/pool_proj"
  top: "inception_4a/output"
}
layer {
  name: "loss1/ave_pool"
  type: "Pooling"
  bottom: "inception_4a/output"
  top: "loss1/ave_pool"
  pooling_param {
    pool: AVE
    kernel_size: 5
    stride: 3
  }
}
layer {
  name: "loss1/conv"
  type: "Convolution"
  bottom: "loss1/ave_pool"
  top: "loss1/conv"
  param {
    lr_mult: 1
    decay_mult: 1
  }
  param {
    lr_mult: 2
    decay_mult: 0
  }
  convolution_param {
    num_output: 128
    kernel_size: 1
    weight_filler {
      type: "xavier"
      std: 0.08
    }
    bias_filler {
      type: "constant"
      value: 0.2
    }
  }
}
layer {
  name: "loss1/relu_conv"
  type: "ReLU"
  bottom: "loss1/conv"
  top: "loss1/conv"
}
layer {
  name: "loss1/fc"
  type: "InnerProduct"
  bottom: "loss1/conv"
  top: "loss1/fc"
  param {
    lr_mult: 1
    decay_mult: 1
  }
  param {
    lr_mult: 2
    decay_mult: 0
  }
  inner_product_param {
    num_output: 1024
    weight_filler {
      type: "xavier"
      std: 0.02
    }
    bias_filler {
      type: "constant"
      value: 0.2
    }
  }
}
layer {
  name: "loss1/relu_fc"
  type: "ReLU"
  bottom: "loss1/fc"
  top: "loss1/fc"
}
layer {
  name: "loss1/drop_fc"
  type: "Dropout"
  bottom: "loss1/fc"
  top: "loss1/fc"
  dropout_param {
    dropout_ratio: 0.7
  }
}
layer {
  name: "loss1/classifier_plantvillage"
  type: "InnerProduct"
  bottom: "loss1/fc"
  top: "loss1/classifier_plantvillage"
  param {
    lr_mult: 1
    decay_mult: 1
  }
  param {
    lr_mult: 2
    decay_mult: 0
  }
  inner_product_param {
    num_output: 38
    weight_filler {
      type: "xavier"
      std: 0.0009765625
    }
    bias_filler {
      type: "constant"
      value: 0
    }
  }
}
layer {
  name: "inception_4b/1x1"
  type: "Convolution"
  bottom: "inception_4a/output"
  top: "inception_4b/1x1"
  param {
    lr_mult: 1
    decay_mult: 1
  }
  param {
    lr_mult: 2
    decay_mult: 0
  }
  convolution_param {
    num_output: 160
    kernel_size: 1
    weight_filler {
      type: "xavier"
      std: 0.03
    }
    bias_filler {
      type: "constant"
      value: 0.2
    }
  }
}
layer {
  name: "inception_4b/relu_1x1"
  type: "ReLU"
  bottom: "inception_4b/1x1"
  top: "inception_4b/1x1"
}
layer {
  name: "inception_4b/3x3_reduce"
  type: "Convolution"
  bottom: "inception_4a/output"
  top: "inception_4b/3x3_reduce"
  param {
    lr_mult: 1
    decay_mult: 1
  }
  param {
    lr_mult: 2
    decay_mult: 0
  }
  convolution_param {
    num_output: 112
    kernel_size: 1
    weight_filler {
      type: "xavier"
      std: 0.09
    }
    bias_filler {
      type: "constant"
      value: 0.2
    }
  }
}
layer {
  name: "inception_4b/relu_3x3_reduce"
  type: "ReLU"
  bottom: "inception_4b/3x3_reduce"
  top: "inception_4b/3x3_reduce"
}
layer {
  name: "inception_4b/3x3"
  type: "Convolution"
  bottom: "inception_4b/3x3_reduce"
  top: "inception_4b/3x3"
  param {
    lr_mult: 1
    decay_mult: 1
  }
  param {
    lr_mult: 2
    decay_mult: 0
  }
  convolution_param {
    num_output: 224
    pad: 1
    kernel_size: 3
    weight_filler {
      type: "xavier"
      std: 0.03
    }
    bias_filler {
      type: "constant"
      value: 0.2
    }
  }
}
layer {
  name: "inception_4b/relu_3x3"
  type: "ReLU"
  bottom: "inception_4b/3x3"
  top: "inception_4b/3x3"
}
layer {
  name: "inception_4b/5x5_reduce"
  type: "Convolution"
  bottom: "inception_4a/output"
  top: "inception_4b/5x5_reduce"
  param {
    lr_mult: 1
    decay_mult: 1
  }
  param {
    lr_mult: 2
    decay_mult: 0
  }
  convolution_param {
    num_output: 24
    kernel_size: 1
    weight_filler {
      type: "xavier"
      std: 0.2
    }
    bias_filler {
      type: "constant"
      value: 0.2
    }
  }
}
layer {
  name: "inception_4b/relu_5x5_reduce"
  type: "ReLU"
  bottom: "inception_4b/5x5_reduce"
  top: "inception_4b/5x5_reduce"
}
layer {
  name: "inception_4b/5x5"
  type: "Convolution"
  bottom: "inception_4b/5x5_reduce"
  top: "inception_4b/5x5"
  param {
    lr_mult: 1
    decay_mult: 1
  }
  param {
    lr_mult: 2
    decay_mult: 0
  }
  convolution_param {
    num_output: 64
    pad: 2
    kernel_size: 5
    weight_filler {
      type: "xavier"
      std: 0.03
    }
    bias_filler {
      type: "constant"
      value: 0.2
    }
  }
}
layer {
  name: "inception_4b/relu_5x5"
  type: "ReLU"
  bottom: "inception_4b/5x5"
  top: "inception_4b/5x5"
}
layer {
  name: "inception_4b/pool"
  type: "Pooling"
  bottom: "inception_4a/output"
  top: "inception_4b/pool"
  pooling_param {
    pool: MAX
    kernel_size: 3
    stride: 1
    pad: 1
  }
}
layer {
  name: "inception_4b/pool_proj"
  type: "Convolution"
  bottom: "inception_4b/pool"
  top: "inception_4b/pool_proj"
  param {
    lr_mult: 1
    decay_mult: 1
  }
  param {
    lr_mult: 2
    decay_mult: 0
  }
  convolution_param {
    num_output: 64
    kernel_size: 1
    weight_filler {
      type: "xavier"
      std: 0.1
    }
    bias_filler {
      type: "constant"
      value: 0.2
    }
  }
}
layer {
  name: "inception_4b/relu_pool_proj"
  type: "ReLU"
  bottom: "inception_4b/pool_proj"
  top: "inception_4b/pool_proj"
}
layer {
  name: "inception_4b/output"
  type: "Concat"
  bottom: "inception_4b/1x1"
  bottom: "inception_4b/3x3"
  bottom: "inception_4b/5x5"
  bottom: "inception_4b/pool_proj"
  top: "inception_4b/output"
}
layer {
  name: "inception_4c/1x1"
  type: "Convolution"
  bottom: "inception_4b/output"
  top: "inception_4c/1x1"
  param {
    lr_mult: 1
    decay_mult: 1
  }
  param {
    lr_mult: 2
    decay_mult: 0
  }
  convolution_param {
    num_output: 128
    kernel_size: 1
    weight_filler {
      type: "xavier"
      std: 0.03
    }
    bias_filler {
      type: "constant"
      value: 0.2
    }
  }
}
layer {
  name: "inception_4c/relu_1x1"
  type: "ReLU"
  bottom: "inception_4c/1x1"
  top: "inception_4c/1x1"
}
layer {
  name: "inception_4c/3x3_reduce"
  type: "Convolution"
  bottom: "inception_4b/output"
  top: "inception_4c/3x3_reduce"
  param {
    lr_mult: 1
    decay_mult: 1
  }
  param {
    lr_mult: 2
    decay_mult: 0
  }
  convolution_param {
    num_output: 128
    kernel_size: 1
    weight_filler {
      type: "xavier"
      std: 0.09
    }
    bias_filler {
      type: "constant"
      value: 0.2
    }
  }
}
layer {
  name: "inception_4c/relu_3x3_reduce"
  type: "ReLU"
  bottom: "inception_4c/3x3_reduce"
  top: "inception_4c/3x3_reduce"
}
layer {
  name: "inception_4c/3x3"
  type: "Convolution"
  bottom: "inception_4c/3x3_reduce"
  top: "inception_4c/3x3"
  param {
    lr_mult: 1
    decay_mult: 1
  }
  param {
    lr_mult: 2
    decay_mult: 0
  }
  convolution_param {
    num_output: 256
    pad: 1
    kernel_size: 3
    weight_filler {
      type: "xavier"
      std: 0.03
    }
    bias_filler {
      type: "constant"
      value: 0.2
    }
  }
}
layer {
  name: "inception_4c/relu_3x3"
  type: "ReLU"
  bottom: "inception_4c/3x3"
  top: "inception_4c/3x3"
}
layer {
  name: "inception_4c/5x5_reduce"
  type: "Convolution"
  bottom: "inception_4b/output"
  top: "inception_4c/5x5_reduce"
  param {
    lr_mult: 1
    decay_mult: 1
  }
  param {
    lr_mult: 2
    decay_mult: 0
  }
  convolution_param {
    num_output: 24
    kernel_size: 1
    weight_filler {
      type: "xavier"
      std: 0.2
    }
    bias_filler {
      type: "constant"
      value: 0.2
    }
  }
}
layer {
  name: "inception_4c/relu_5x5_reduce"
  type: "ReLU"
  bottom: "inception_4c/5x5_reduce"
  top: "inception_4c/5x5_reduce"
}
layer {
  name: "inception_4c/5x5"
  type: "Convolution"
  bottom: "inception_4c/5x5_reduce"
  top: "inception_4c/5x5"
  param {
    lr_mult: 1
    decay_mult: 1
  }
  param {
    lr_mult: 2
    decay_mult: 0
  }
  convolution_param {
    num_output: 64
    pad: 2
    kernel_size: 5
    weight_filler {
      type: "xavier"
      std: 0.03
    }
    bias_filler {
      type: "constant"
      value: 0.2
    }
  }
}
layer {
  name: "inception_4c/relu_5x5"
  type: "ReLU"
  bottom: "inception_4c/5x5"
  top: "inception_4c/5x5"
}
layer {
  name: "inception_4c/pool"
  type: "Pooling"
  bottom: "inception_4b/output"
  top: "inception_4c/pool"
  pooling_param {
    pool: MAX
    kernel_size: 3
    stride: 1
    pad: 1
  }
}
layer {
  name: "inception_4c/pool_proj"
  type: "Convolution"
  bottom: "inception_4c/pool"
  top: "inception_4c/pool_proj"
  param {
    lr_mult: 1
    decay_mult: 1
  }
  param {
    lr_mult: 2
    decay_mult: 0
  }
  convolution_param {
    num_output: 64
    kernel_size: 1
    weight_filler {
      type: "xavier"
      std: 0.1
    }
    bias_filler {
      type: "constant"
      value: 0.2
    }
  }
}
layer {
  name: "inception_4c/relu_pool_proj"
  type: "ReLU"
  bottom: "inception_4c/pool_proj"
  top: "inception_4c/pool_proj"
}
layer {
  name: "inception_4c/output"
  type: "Concat"
  bottom: "inception_4c/1x1"
  bottom: "inception_4c/3x3"
  bottom: "inception_4c/5x5"
  bottom: "inception_4c/pool_proj"
  top: "inception_4c/output"
}
layer {
  name: "inception_4d/1x1"
  type: "Convolution"
  bottom: "inception_4c/output"
  top: "inception_4d/1x1"
  param {
    lr_mult: 1
    decay_mult: 1
  }
  param {
    lr_mult: 2
    decay_mult: 0
  }
  convolution_param {
    num_output: 112
    kernel_size: 1
    weight_filler {
      type: "xavier"
      std: 0.03
    }
    bias_filler {
      type: "constant"
      value: 0.2
    }
  }
}
layer {
  name: "inception_4d/relu_1x1"
  type: "ReLU"
  bottom: "inception_4d/1x1"
  top: "inception_4d/1x1"
}
layer {
  name: "inception_4d/3x3_reduce"
  type: "Convolution"
  bottom: "inception_4c/output"
  top: "inception_4d/3x3_reduce"
  param {
    lr_mult: 1
    decay_mult: 1
  }
  param {
    lr_mult: 2
    decay_mult: 0
  }
  convolution_param {
    num_output: 144
    kernel_size: 1
    weight_filler {
      type: "xavier"
      std: 0.09
    }
    bias_filler {
      type: "constant"
      value: 0.2
    }
  }
}
layer {
  name: "inception_4d/relu_3x3_reduce"
  type: "ReLU"
  bottom: "inception_4d/3x3_reduce"
  top: "inception_4d/3x3_reduce"
}
layer {
  name: "inception_4d/3x3"
  type: "Convolution"
  bottom: "inception_4d/3x3_reduce"
  top: "inception_4d/3x3"
  param {
    lr_mult: 1
    decay_mult: 1
  }
  param {
    lr_mult: 2
    decay_mult: 0
  }
  convolution_param {
    num_output: 288
    pad: 1
    kernel_size: 3
    weight_filler {
      type: "xavier"
      std: 0.03
    }
    bias_filler {
      type: "constant"
      value: 0.2
    }
  }
}
layer {
  name: "inception_4d/relu_3x3"
  type: "ReLU"
  bottom: "inception_4d/3x3"
  top: "inception_4d/3x3"
}
layer {
  name: "inception_4d/5x5_reduce"
  type: "Convolution"
  bottom: "inception_4c/output"
  top: "inception_4d/5x5_reduce"
  param {
    lr_mult: 1
    decay_mult: 1
  }
  param {
    lr_mult: 2
    decay_mult: 0
  }
  convolution_param {
    num_output: 32
    kernel_size: 1
    weight_filler {
      type: "xavier"
      std: 0.2
    }
    bias_filler {
      type: "constant"
      value: 0.2
    }
  }
}
layer {
  name: "inception_4d/relu_5x5_reduce"
  type: "ReLU"
  bottom: "inception_4d/5x5_reduce"
  top: "inception_4d/5x5_reduce"
}
layer {
  name: "inception_4d/5x5"
  type: "Convolution"
  bottom: "inception_4d/5x5_reduce"
  top: "inception_4d/5x5"
  param {
    lr_mult: 1
    decay_mult: 1
  }
  param {
    lr_mult: 2
    decay_mult: 0
  }
  convolution_param {
    num_output: 64
    pad: 2
    kernel_size: 5
    weight_filler {
      type: "xavier"
      std: 0.03
    }
    bias_filler {
      type: "constant"
      value: 0.2
    }
  }
}
layer {
  name: "inception_4d/relu_5x5"
  type: "ReLU"
  bottom: "inception_4d/5x5"
  top: "inception_4d/5x5"
}
layer {
  name: "inception_4d/pool"
  type: "Pooling"
  bottom: "inception_4c/output"
  top: "inception_4d/pool"
  pooling_param {
    pool: MAX
    kernel_size: 3
    stride: 1
    pad: 1
  }
}
layer {
  name: "inception_4d/pool_proj"
  type: "Convolution"
  bottom: "inception_4d/pool"
  top: "inception_4d/pool_proj"
  param {
    lr_mult: 1
    decay_mult: 1
  }
  param {
    lr_mult: 2
    decay_mult: 0
  }
  convolution_param {
    num_output: 64
    kernel_size: 1
    weight_filler {
      type: "xavier"
      std: 0.1
    }
    bias_filler {
      type: "constant"
      value: 0.2
    }
  }
}
layer {
  name: "inception_4d/relu_pool_proj"
  type: "ReLU"
  bottom: "inception_4d/pool_proj"
  top: "inception_4d/pool_proj"
}
layer {
  name: "inception_4d/output"
  type: "Concat"
  bottom: "inception_4d/1x1"
  bottom: "inception_4d/3x3"
  bottom: "inception_4d/5x5"
  bottom: "inception_4d/pool_proj"
  top: "inception_4d/output"
}
layer {
  name: "loss2/ave_pool"
  type: "Pooling"
  bottom: "inception_4d/output"
  top: "loss2/ave_pool"
  pooling_param {
    pool: AVE
    kernel_size: 5
    stride: 3
  }
}
layer {
  name: "loss2/conv"
  type: "Convolution"
  bottom: "loss2/ave_pool"
  top: "loss2/conv"
  param {
    lr_mult: 1
    decay_mult: 1
  }
  param {
    lr_mult: 2
    decay_mult: 0
  }
  convolution_param {
    num_output: 128
    kernel_size: 1
    weight_filler {
      type: "xavier"
      std: 0.08
    }
    bias_filler {
      type: "constant"
      value: 0.2
    }
  }
}
layer {
  name: "loss2/relu_conv"
  type: "ReLU"
  bottom: "loss2/conv"
  top: "loss2/conv"
}
layer {
  name: "loss2/fc"
  type: "InnerProduct"
  bottom: "loss2/conv"
  top: "loss2/fc"
  param {
    lr_mult: 1
    decay_mult: 1
  }
  param {
    lr_mult: 2
    decay_mult: 0
  }
  inner_product_param {
    num_output: 1024
    weight_filler {
      type: "xavier"
      std: 0.02
    }
    bias_filler {
      type: "constant"
      value: 0.2
    }
  }
}
layer {
  name: "loss2/relu_fc"
  type: "ReLU"
  bottom: "loss2/fc"
  top: "loss2/fc"
}
layer {
  name: "loss2/drop_fc"
  type: "Dropout"
  bottom: "loss2/fc"
  top: "loss2/fc"
  dropout_param {
    dropout_ratio: 0.7
  }
}
layer {
  name: "loss2/classifier_plantvillage"
  type: "InnerProduct"
  bottom: "loss2/fc"
  top: "loss2/classifier_plantvillage"
  param {
    lr_mult: 1
    decay_mult: 1
  }
  param {
    lr_mult: 2
    decay_mult: 0
  }
  inner_product_param {
    num_output: 38
    weight_filler {
      type: "xavier"
      std: 0.0009765625
    }
    bias_filler {
      type: "constant"
      value: 0
    }
  }
}
layer {
  name: "inception_4e/1x1"
  type: "Convolution"
  bottom: "inception_4d/output"
  top: "inception_4e/1x1"
  param {
    lr_mult: 1
    decay_mult: 1
  }
  param {
    lr_mult: 2
    decay_mult: 0
  }
  convolution_param {
    num_output: 256
    kernel_size: 1
    weight_filler {
      type: "xavier"
      std: 0.03
    }
    bias_filler {
      type: "constant"
      value: 0.2
    }
  }
}
layer {
  name: "inception_4e/relu_1x1"
  type: "ReLU"
  bottom: "inception_4e/1x1"
  top: "inception_4e/1x1"
}
layer {
  name: "inception_4e/3x3_reduce"
  type: "Convolution"
  bottom: "inception_4d/output"
  top: "inception_4e/3x3_reduce"
  param {
    lr_mult: 1
    decay_mult: 1
  }
  param {
    lr_mult: 2
    decay_mult: 0
  }
  convolution_param {
    num_output: 160
    kernel_size: 1
    weight_filler {
      type: "xavier"
      std: 0.09
    }
    bias_filler {
      type: "constant"
      value: 0.2
    }
  }
}
layer {
  name: "inception_4e/relu_3x3_reduce"
  type: "ReLU"
  bottom: "inception_4e/3x3_reduce"
  top: "inception_4e/3x3_reduce"
}
layer {
  name: "inception_4e/3x3"
  type: "Convolution"
  bottom: "inception_4e/3x3_reduce"
  top: "inception_4e/3x3"
  param {
    lr_mult: 1
    decay_mult: 1
  }
  param {
    lr_mult: 2
    decay_mult: 0
  }
  convolution_param {
    num_output: 320
    pad: 1
    kernel_size: 3
    weight_filler {
      type: "xavier"
      std: 0.03
    }
    bias_filler {
      type: "constant"
      value: 0.2
    }
  }
}
layer {
  name: "inception_4e/relu_3x3"
  type: "ReLU"
  bottom: "inception_4e/3x3"
  top: "inception_4e/3x3"
}
layer {
  name: "inception_4e/5x5_reduce"
  type: "Convolution"
  bottom: "inception_4d/output"
  top: "inception_4e/5x5_reduce"
  param {
    lr_mult: 1
    decay_mult: 1
  }
  param {
    lr_mult: 2
    decay_mult: 0
  }
  convolution_param {
    num_output: 32
    kernel_size: 1
    weight_filler {
      type: "xavier"
      std: 0.2
    }
    bias_filler {
      type: "constant"
      value: 0.2
    }
  }
}
layer {
  name: "inception_4e/relu_5x5_reduce"
  type: "ReLU"
  bottom: "inception_4e/5x5_reduce"
  top: "inception_4e/5x5_reduce"
}
layer {
  name: "inception_4e/5x5"
  type: "Convolution"
  bottom: "inception_4e/5x5_reduce"
  top: "inception_4e/
I0403 19:37:38.351758  9468 layer_factory.hpp:77] Creating layer data
I0403 19:37:38.352484  9468 net.cpp:91] Creating Layer data
I0403 19:37:38.352522  9468 net.cpp:399] data -> data
I0403 19:37:38.352579  9468 net.cpp:399] data -> label
I0403 19:37:38.352622  9468 data_transformer.cpp:25] Loading mean file from: /home/mohanty/data/final_dataset/lmdb/grayscale-50-50/mean.binaryproto
I0403 19:37:38.367418  9473 db_lmdb.cpp:38] Opened lmdb /home/mohanty/data/final_dataset/lmdb/grayscale-50-50/test_db
I0403 19:37:38.371335  9468 data_layer.cpp:41] output data size: 24,3,224,224
I0403 19:37:38.402380  9468 net.cpp:141] Setting up data
I0403 19:37:38.402448  9468 net.cpp:148] Top shape: 24 3 224 224 (3612672)
I0403 19:37:38.402477  9468 net.cpp:148] Top shape: 24 (24)
I0403 19:37:38.402495  9468 net.cpp:156] Memory required for data: 14450784
I0403 19:37:38.402526  9468 layer_factory.hpp:77] Creating layer label_data_1_split
I0403 19:37:38.402557  9468 net.cpp:91] Creating Layer label_data_1_split
I0403 19:37:38.402580  9468 net.cpp:425] label_data_1_split <- label
I0403 19:37:38.402617  9468 net.cpp:399] label_data_1_split -> label_data_1_split_0
I0403 19:37:38.402647  9468 net.cpp:399] label_data_1_split -> label_data_1_split_1
I0403 19:37:38.402673  9468 net.cpp:399] label_data_1_split -> label_data_1_split_2
I0403 19:37:38.402700  9468 net.cpp:399] label_data_1_split -> label_data_1_split_3
I0403 19:37:38.402725  9468 net.cpp:399] label_data_1_split -> label_data_1_split_4
I0403 19:37:38.402751  9468 net.cpp:399] label_data_1_split -> label_data_1_split_5
I0403 19:37:38.402775  9468 net.cpp:399] label_data_1_split -> label_data_1_split_6
I0403 19:37:38.402799  9468 net.cpp:399] label_data_1_split -> label_data_1_split_7
I0403 19:37:38.402824  9468 net.cpp:399] label_data_1_split -> label_data_1_split_8
I0403 19:37:38.402849  9468 net.cpp:399] label_data_1_split -> label_data_1_split_9
I0403 19:37:38.402990  9468 net.cpp:141] Setting up label_data_1_split
I0403 19:37:38.403019  9468 net.cpp:148] Top shape: 24 (24)
I0403 19:37:38.403040  9468 net.cpp:148] Top shape: 24 (24)
I0403 19:37:38.403059  9468 net.cpp:148] Top shape: 24 (24)
I0403 19:37:38.403079  9468 net.cpp:148] Top shape: 24 (24)
I0403 19:37:38.403098  9468 net.cpp:148] Top shape: 24 (24)
I0403 19:37:38.403118  9468 net.cpp:148] Top shape: 24 (24)
I0403 19:37:38.403137  9468 net.cpp:148] Top shape: 24 (24)
I0403 19:37:38.403156  9468 net.cpp:148] Top shape: 24 (24)
I0403 19:37:38.403175  9468 net.cpp:148] Top shape: 24 (24)
I0403 19:37:38.403210  9468 net.cpp:148] Top shape: 24 (24)
I0403 19:37:38.403252  9468 net.cpp:156] Memory required for data: 14451744
I0403 19:37:38.403272  9468 layer_factory.hpp:77] Creating layer conv1/7x7_s2
I0403 19:37:38.403311  9468 net.cpp:91] Creating Layer conv1/7x7_s2
I0403 19:37:38.403332  9468 net.cpp:425] conv1/7x7_s2 <- data
I0403 19:37:38.403357  9468 net.cpp:399] conv1/7x7_s2 -> conv1/7x7_s2
I0403 19:37:38.568187  9468 net.cpp:141] Setting up conv1/7x7_s2
I0403 19:37:38.568272  9468 net.cpp:148] Top shape: 24 64 112 112 (19267584)
I0403 19:37:38.568294  9468 net.cpp:156] Memory required for data: 91522080
I0403 19:37:38.568331  9468 layer_factory.hpp:77] Creating layer conv1/relu_7x7
I0403 19:37:38.568364  9468 net.cpp:91] Creating Layer conv1/relu_7x7
I0403 19:37:38.568387  9468 net.cpp:425] conv1/relu_7x7 <- conv1/7x7_s2
I0403 19:37:38.568411  9468 net.cpp:386] conv1/relu_7x7 -> conv1/7x7_s2 (in-place)
I0403 19:37:38.568718  9468 net.cpp:141] Setting up conv1/relu_7x7
I0403 19:37:38.568752  9468 net.cpp:148] Top shape: 24 64 112 112 (19267584)
I0403 19:37:38.568770  9468 net.cpp:156] Memory required for data: 168592416
I0403 19:37:38.568789  9468 layer_factory.hpp:77] Creating layer pool1/3x3_s2
I0403 19:37:38.568822  9468 net.cpp:91] Creating Layer pool1/3x3_s2
I0403 19:37:38.568846  9468 net.cpp:425] pool1/3x3_s2 <- conv1/7x7_s2
I0403 19:37:38.568869  9468 net.cpp:399] pool1/3x3_s2 -> pool1/3x3_s2
I0403 19:37:38.568960  9468 net.cpp:141] Setting up pool1/3x3_s2
I0403 19:37:38.568989  9468 net.cpp:148] Top shape: 24 64 56 56 (4816896)
I0403 19:37:38.569008  9468 net.cpp:156] Memory required for data: 187860000
I0403 19:37:38.569026  9468 layer_factory.hpp:77] Creating layer pool1/norm1
I0403 19:37:38.569057  9468 net.cpp:91] Creating Layer pool1/norm1
I0403 19:37:38.569079  9468 net.cpp:425] pool1/norm1 <- pool1/3x3_s2
I0403 19:37:38.569102  9468 net.cpp:399] pool1/norm1 -> pool1/norm1
I0403 19:37:38.569447  9468 net.cpp:141] Setting up pool1/norm1
I0403 19:37:38.569480  9468 net.cpp:148] Top shape: 24 64 56 56 (4816896)
I0403 19:37:38.569499  9468 net.cpp:156] Memory required for data: 207127584
I0403 19:37:38.569519  9468 layer_factory.hpp:77] Creating layer conv2/3x3_reduce
I0403 19:37:38.569550  9468 net.cpp:91] Creating Layer conv2/3x3_reduce
I0403 19:37:38.569571  9468 net.cpp:425] conv2/3x3_reduce <- pool1/norm1
I0403 19:37:38.569593  9468 net.cpp:399] conv2/3x3_reduce -> conv2/3x3_reduce
I0403 19:37:38.571141  9468 net.cpp:141] Setting up conv2/3x3_reduce
I0403 19:37:38.571182  9468 net.cpp:148] Top shape: 24 64 56 56 (4816896)
I0403 19:37:38.571207  9468 net.cpp:156] Memory required for data: 226395168
I0403 19:37:38.571233  9468 layer_factory.hpp:77] Creating layer conv2/relu_3x3_reduce
I0403 19:37:38.571256  9468 net.cpp:91] Creating Layer conv2/relu_3x3_reduce
I0403 19:37:38.571276  9468 net.cpp:425] conv2/relu_3x3_reduce <- conv2/3x3_reduce
I0403 19:37:38.571297  9468 net.cpp:386] conv2/relu_3x3_reduce -> conv2/3x3_reduce (in-place)
I0403 19:37:38.571599  9468 net.cpp:141] Setting up conv2/relu_3x3_reduce
I0403 19:37:38.571632  9468 net.cpp:148] Top shape: 24 64 56 56 (4816896)
I0403 19:37:38.571651  9468 net.cpp:156] Memory required for data: 245662752
I0403 19:37:38.571671  9468 layer_factory.hpp:77] Creating layer conv2/3x3
I0403 19:37:38.571697  9468 net.cpp:91] Creating Layer conv2/3x3
I0403 19:37:38.571718  9468 net.cpp:425] conv2/3x3 <- conv2/3x3_reduce
I0403 19:37:38.571745  9468 net.cpp:399] conv2/3x3 -> conv2/3x3
I0403 19:37:38.574493  9468 net.cpp:141] Setting up conv2/3x3
I0403 19:37:38.574533  9468 net.cpp:148] Top shape: 24 192 56 56 (14450688)
I0403 19:37:38.574554  9468 net.cpp:156] Memory required for data: 303465504
I0403 19:37:38.574581  9468 layer_factory.hpp:77] Creating layer conv2/relu_3x3
I0403 19:37:38.574604  9468 net.cpp:91] Creating Layer conv2/relu_3x3
I0403 19:37:38.574623  9468 net.cpp:425] conv2/relu_3x3 <- conv2/3x3
I0403 19:37:38.574648  9468 net.cpp:386] conv2/relu_3x3 -> conv2/3x3 (in-place)
I0403 19:37:38.574875  9468 net.cpp:141] Setting up conv2/relu_3x3
I0403 19:37:38.574906  9468 net.cpp:148] Top shape: 24 192 56 56 (14450688)
I0403 19:37:38.574959  9468 net.cpp:156] Memory required for data: 361268256
I0403 19:37:38.574980  9468 layer_factory.hpp:77] Creating layer conv2/norm2
I0403 19:37:38.575008  9468 net.cpp:91] Creating Layer conv2/norm2
I0403 19:37:38.575029  9468 net.cpp:425] conv2/norm2 <- conv2/3x3
I0403 19:37:38.575055  9468 net.cpp:399] conv2/norm2 -> conv2/norm2
I0403 19:37:38.575424  9468 net.cpp:141] Setting up conv2/norm2
I0403 19:37:38.575460  9468 net.cpp:148] Top shape: 24 192 56 56 (14450688)
I0403 19:37:38.575484  9468 net.cpp:156] Memory required for data: 419071008
I0403 19:37:38.575505  9468 layer_factory.hpp:77] Creating layer pool2/3x3_s2
I0403 19:37:38.575526  9468 net.cpp:91] Creating Layer pool2/3x3_s2
I0403 19:37:38.575546  9468 net.cpp:425] pool2/3x3_s2 <- conv2/norm2
I0403 19:37:38.575572  9468 net.cpp:399] pool2/3x3_s2 -> pool2/3x3_s2
I0403 19:37:38.575636  9468 net.cpp:141] Setting up pool2/3x3_s2
I0403 19:37:38.575665  9468 net.cpp:148] Top shape: 24 192 28 28 (3612672)
I0403 19:37:38.575685  9468 net.cpp:156] Memory required for data: 433521696
I0403 19:37:38.575703  9468 layer_factory.hpp:77] Creating layer pool2/3x3_s2_pool2/3x3_s2_0_split
I0403 19:37:38.575728  9468 net.cpp:91] Creating Layer pool2/3x3_s2_pool2/3x3_s2_0_split
I0403 19:37:38.575749  9468 net.cpp:425] pool2/3x3_s2_pool2/3x3_s2_0_split <- pool2/3x3_s2
I0403 19:37:38.575772  9468 net.cpp:399] pool2/3x3_s2_pool2/3x3_s2_0_split -> pool2/3x3_s2_pool2/3x3_s2_0_split_0
I0403 19:37:38.575796  9468 net.cpp:399] pool2/3x3_s2_pool2/3x3_s2_0_split -> pool2/3x3_s2_pool2/3x3_s2_0_split_1
I0403 19:37:38.575821  9468 net.cpp:399] pool2/3x3_s2_pool2/3x3_s2_0_split -> pool2/3x3_s2_pool2/3x3_s2_0_split_2
I0403 19:37:38.575846  9468 net.cpp:399] pool2/3x3_s2_pool2/3x3_s2_0_split -> pool2/3x3_s2_pool2/3x3_s2_0_split_3
I0403 19:37:38.575938  9468 net.cpp:141] Setting up pool2/3x3_s2_pool2/3x3_s2_0_split
I0403 19:37:38.575968  9468 net.cpp:148] Top shape: 24 192 28 28 (3612672)
I0403 19:37:38.575989  9468 net.cpp:148] Top shape: 24 192 28 28 (3612672)
I0403 19:37:38.576009  9468 net.cpp:148] Top shape: 24 192 28 28 (3612672)
I0403 19:37:38.576028  9468 net.cpp:148] Top shape: 24 192 28 28 (3612672)
I0403 19:37:38.576045  9468 net.cpp:156] Memory required for data: 491324448
I0403 19:37:38.576063  9468 layer_factory.hpp:77] Creating layer inception_3a/1x1
I0403 19:37:38.576092  9468 net.cpp:91] Creating Layer inception_3a/1x1
I0403 19:37:38.576114  9468 net.cpp:425] inception_3a/1x1 <- pool2/3x3_s2_pool2/3x3_s2_0_split_0
I0403 19:37:38.576140  9468 net.cpp:399] inception_3a/1x1 -> inception_3a/1x1
I0403 19:37:38.577982  9468 net.cpp:141] Setting up inception_3a/1x1
I0403 19:37:38.578022  9468 net.cpp:148] Top shape: 24 64 28 28 (1204224)
I0403 19:37:38.578042  9468 net.cpp:156] Memory required for data: 496141344
I0403 19:37:38.578066  9468 layer_factory.hpp:77] Creating layer inception_3a/relu_1x1
I0403 19:37:38.578089  9468 net.cpp:91] Creating Layer inception_3a/relu_1x1
I0403 19:37:38.578109  9468 net.cpp:425] inception_3a/relu_1x1 <- inception_3a/1x1
I0403 19:37:38.578133  9468 net.cpp:386] inception_3a/relu_1x1 -> inception_3a/1x1 (in-place)
I0403 19:37:38.578349  9468 net.cpp:141] Setting up inception_3a/relu_1x1
I0403 19:37:38.578380  9468 net.cpp:148] Top shape: 24 64 28 28 (1204224)
I0403 19:37:38.578399  9468 net.cpp:156] Memory required for data: 500958240
I0403 19:37:38.578418  9468 layer_factory.hpp:77] Creating layer inception_3a/3x3_reduce
I0403 19:37:38.578445  9468 net.cpp:91] Creating Layer inception_3a/3x3_reduce
I0403 19:37:38.578466  9468 net.cpp:425] inception_3a/3x3_reduce <- pool2/3x3_s2_pool2/3x3_s2_0_split_1
I0403 19:37:38.578492  9468 net.cpp:399] inception_3a/3x3_reduce -> inception_3a/3x3_reduce
I0403 19:37:38.580503  9468 net.cpp:141] Setting up inception_3a/3x3_reduce
I0403 19:37:38.580541  9468 net.cpp:148] Top shape: 24 96 28 28 (1806336)
I0403 19:37:38.580562  9468 net.cpp:156] Memory required for data: 508183584
I0403 19:37:38.580595  9468 layer_factory.hpp:77] Creating layer inception_3a/relu_3x3_reduce
I0403 19:37:38.580639  9468 net.cpp:91] Creating Layer inception_3a/relu_3x3_reduce
I0403 19:37:38.580662  9468 net.cpp:425] inception_3a/relu_3x3_reduce <- inception_3a/3x3_reduce
I0403 19:37:38.580684  9468 net.cpp:386] inception_3a/relu_3x3_reduce -> inception_3a/3x3_reduce (in-place)
I0403 19:37:38.580902  9468 net.cpp:141] Setting up inception_3a/relu_3x3_reduce
I0403 19:37:38.580935  9468 net.cpp:148] Top shape: 24 96 28 28 (1806336)
I0403 19:37:38.580955  9468 net.cpp:156] Memory required for data: 515408928
I0403 19:37:38.580974  9468 layer_factory.hpp:77] Creating layer inception_3a/3x3
I0403 19:37:38.581001  9468 net.cpp:91] Creating Layer inception_3a/3x3
I0403 19:37:38.581022  9468 net.cpp:425] inception_3a/3x3 <- inception_3a/3x3_reduce
I0403 19:37:38.581048  9468 net.cpp:399] inception_3a/3x3 -> inception_3a/3x3
I0403 19:37:38.583052  9468 net.cpp:141] Setting up inception_3a/3x3
I0403 19:37:38.583088  9468 net.cpp:148] Top shape: 24 128 28 28 (2408448)
I0403 19:37:38.583111  9468 net.cpp:156] Memory required for data: 525042720
I0403 19:37:38.583137  9468 layer_factory.hpp:77] Creating layer inception_3a/relu_3x3
I0403 19:37:38.583158  9468 net.cpp:91] Creating Layer inception_3a/relu_3x3
I0403 19:37:38.583189  9468 net.cpp:425] inception_3a/relu_3x3 <- inception_3a/3x3
I0403 19:37:38.583219  9468 net.cpp:386] inception_3a/relu_3x3 -> inception_3a/3x3 (in-place)
I0403 19:37:38.583547  9468 net.cpp:141] Setting up inception_3a/relu_3x3
I0403 19:37:38.583580  9468 net.cpp:148] Top shape: 24 128 28 28 (2408448)
I0403 19:37:38.583598  9468 net.cpp:156] Memory required for data: 534676512
I0403 19:37:38.583617  9468 layer_factory.hpp:77] Creating layer inception_3a/5x5_reduce
I0403 19:37:38.583647  9468 net.cpp:91] Creating Layer inception_3a/5x5_reduce
I0403 19:37:38.583670  9468 net.cpp:425] inception_3a/5x5_reduce <- pool2/3x3_s2_pool2/3x3_s2_0_split_2
I0403 19:37:38.583698  9468 net.cpp:399] inception_3a/5x5_reduce -> inception_3a/5x5_reduce
I0403 19:37:38.584848  9468 net.cpp:141] Setting up inception_3a/5x5_reduce
I0403 19:37:38.584882  9468 net.cpp:148] Top shape: 24 16 28 28 (301056)
I0403 19:37:38.584902  9468 net.cpp:156] Memory required for data: 535880736
I0403 19:37:38.584928  9468 layer_factory.hpp:77] Creating layer inception_3a/relu_5x5_reduce
I0403 19:37:38.584954  9468 net.cpp:91] Creating Layer inception_3a/relu_5x5_reduce
I0403 19:37:38.584977  9468 net.cpp:425] inception_3a/relu_5x5_reduce <- inception_3a/5x5_reduce
I0403 19:37:38.585000  9468 net.cpp:386] inception_3a/relu_5x5_reduce -> inception_3a/5x5_reduce (in-place)
I0403 19:37:38.585348  9468 net.cpp:141] Setting up inception_3a/relu_5x5_reduce
I0403 19:37:38.585381  9468 net.cpp:148] Top shape: 24 16 28 28 (301056)
I0403 19:37:38.585400  9468 net.cpp:156] Memory required for data: 537084960
I0403 19:37:38.585420  9468 layer_factory.hpp:77] Creating layer inception_3a/5x5
I0403 19:37:38.585449  9468 net.cpp:91] Creating Layer inception_3a/5x5
I0403 19:37:38.585470  9468 net.cpp:425] inception_3a/5x5 <- inception_3a/5x5_reduce
I0403 19:37:38.585497  9468 net.cpp:399] inception_3a/5x5 -> inception_3a/5x5
I0403 19:37:38.586711  9468 net.cpp:141] Setting up inception_3a/5x5
I0403 19:37:38.586745  9468 net.cpp:148] Top shape: 24 32 28 28 (602112)
I0403 19:37:38.586765  9468 net.cpp:156] Memory required for data: 539493408
I0403 19:37:38.586787  9468 layer_factory.hpp:77] Creating layer inception_3a/relu_5x5
I0403 19:37:38.586810  9468 net.cpp:91] Creating Layer inception_3a/relu_5x5
I0403 19:37:38.586830  9468 net.cpp:425] inception_3a/relu_5x5 <- inception_3a/5x5
I0403 19:37:38.586854  9468 net.cpp:386] inception_3a/relu_5x5 -> inception_3a/5x5 (in-place)
I0403 19:37:38.587064  9468 net.cpp:141] Setting up inception_3a/relu_5x5
I0403 19:37:38.587096  9468 net.cpp:148] Top shape: 24 32 28 28 (602112)
I0403 19:37:38.587117  9468 net.cpp:156] Memory required for data: 541901856
I0403 19:37:38.587136  9468 layer_factory.hpp:77] Creating layer inception_3a/pool
I0403 19:37:38.587167  9468 net.cpp:91] Creating Layer inception_3a/pool
I0403 19:37:38.587209  9468 net.cpp:425] inception_3a/pool <- pool2/3x3_s2_pool2/3x3_s2_0_split_3
I0403 19:37:38.587234  9468 net.cpp:399] inception_3a/pool -> inception_3a/pool
I0403 19:37:38.587314  9468 net.cpp:141] Setting up inception_3a/pool
I0403 19:37:38.587343  9468 net.cpp:148] Top shape: 24 192 28 28 (3612672)
I0403 19:37:38.587363  9468 net.cpp:156] Memory required for data: 556352544
I0403 19:37:38.587381  9468 layer_factory.hpp:77] Creating layer inception_3a/pool_proj
I0403 19:37:38.587409  9468 net.cpp:91] Creating Layer inception_3a/pool_proj
I0403 19:37:38.587431  9468 net.cpp:425] inception_3a/pool_proj <- inception_3a/pool
I0403 19:37:38.587458  9468 net.cpp:399] inception_3a/pool_proj -> inception_3a/pool_proj
I0403 19:37:38.588613  9468 net.cpp:141] Setting up inception_3a/pool_proj
I0403 19:37:38.588649  9468 net.cpp:148] Top shape: 24 32 28 28 (602112)
I0403 19:37:38.588668  9468 net.cpp:156] Memory required for data: 558760992
I0403 19:37:38.588696  9468 layer_factory.hpp:77] Creating layer inception_3a/relu_pool_proj
I0403 19:37:38.588722  9468 net.cpp:91] Creating Layer inception_3a/relu_pool_proj
I0403 19:37:38.588743  9468 net.cpp:425] inception_3a/relu_pool_proj <- inception_3a/pool_proj
I0403 19:37:38.588764  9468 net.cpp:386] inception_3a/relu_pool_proj -> inception_3a/pool_proj (in-place)
I0403 19:37:38.589102  9468 net.cpp:141] Setting up inception_3a/relu_pool_proj
I0403 19:37:38.589135  9468 net.cpp:148] Top shape: 24 32 28 28 (602112)
I0403 19:37:38.589156  9468 net.cpp:156] Memory required for data: 561169440
I0403 19:37:38.589181  9468 layer_factory.hpp:77] Creating layer inception_3a/output
I0403 19:37:38.589206  9468 net.cpp:91] Creating Layer inception_3a/output
I0403 19:37:38.589226  9468 net.cpp:425] inception_3a/output <- inception_3a/1x1
I0403 19:37:38.589247  9468 net.cpp:425] inception_3a/output <- inception_3a/3x3
I0403 19:37:38.589268  9468 net.cpp:425] inception_3a/output <- inception_3a/5x5
I0403 19:37:38.589288  9468 net.cpp:425] inception_3a/output <- inception_3a/pool_proj
I0403 19:37:38.589313  9468 net.cpp:399] inception_3a/output -> inception_3a/output
I0403 19:37:38.589371  9468 net.cpp:141] Setting up inception_3a/output
I0403 19:37:38.589403  9468 net.cpp:148] Top shape: 24 256 28 28 (4816896)
I0403 19:37:38.589423  9468 net.cpp:156] Memory required for data: 580437024
I0403 19:37:38.589443  9468 layer_factory.hpp:77] Creating layer inception_3a/output_inception_3a/output_0_split
I0403 19:37:38.589464  9468 net.cpp:91] Creating Layer inception_3a/output_inception_3a/output_0_split
I0403 19:37:38.589483  9468 net.cpp:425] inception_3a/output_inception_3a/output_0_split <- inception_3a/output
I0403 19:37:38.589505  9468 net.cpp:399] inception_3a/output_inception_3a/output_0_split -> inception_3a/output_inception_3a/output_0_split_0
I0403 19:37:38.589530  9468 net.cpp:399] inception_3a/output_inception_3a/output_0_split -> inception_3a/output_inception_3a/output_0_split_1
I0403 19:37:38.589560  9468 net.cpp:399] inception_3a/output_inception_3a/output_0_split -> inception_3a/output_inception_3a/output_0_split_2
I0403 19:37:38.589588  9468 net.cpp:399] inception_3a/output_inception_3a/output_0_split -> inception_3a/output_inception_3a/output_0_split_3
I0403 19:37:38.589682  9468 net.cpp:141] Setting up inception_3a/output_inception_3a/output_0_split
I0403 19:37:38.589714  9468 net.cpp:148] Top shape: 24 256 28 28 (4816896)
I0403 19:37:38.589736  9468 net.cpp:148] Top shape: 24 256 28 28 (4816896)
I0403 19:37:38.589756  9468 net.cpp:148] Top shape: 24 256 28 28 (4816896)
I0403 19:37:38.589776  9468 net.cpp:148] Top shape: 24 256 28 28 (4816896)
I0403 19:37:38.589794  9468 net.cpp:156] Memory required for data: 657507360
I0403 19:37:38.589814  9468 layer_factory.hpp:77] Creating layer inception_3b/1x1
I0403 19:37:38.589845  9468 net.cpp:91] Creating Layer inception_3b/1x1
I0403 19:37:38.589867  9468 net.cpp:425] inception_3b/1x1 <- inception_3a/output_inception_3a/output_0_split_0
I0403 19:37:38.589890  9468 net.cpp:399] inception_3b/1x1 -> inception_3b/1x1
I0403 19:37:38.591289  9468 net.cpp:141] Setting up inception_3b/1x1
I0403 19:37:38.591342  9468 net.cpp:148] Top shape: 24 128 28 28 (2408448)
I0403 19:37:38.591363  9468 net.cpp:156] Memory required for data: 667141152
I0403 19:37:38.591387  9468 layer_factory.hpp:77] Creating layer inception_3b/relu_1x1
I0403 19:37:38.591409  9468 net.cpp:91] Creating Layer inception_3b/relu_1x1
I0403 19:37:38.591429  9468 net.cpp:425] inception_3b/relu_1x1 <- inception_3b/1x1
I0403 19:37:38.591454  9468 net.cpp:386] inception_3b/relu_1x1 -> inception_3b/1x1 (in-place)
I0403 19:37:38.591675  9468 net.cpp:141] Setting up inception_3b/relu_1x1
I0403 19:37:38.591704  9468 net.cpp:148] Top shape: 24 128 28 28 (2408448)
I0403 19:37:38.591722  9468 net.cpp:156] Memory required for data: 676774944
I0403 19:37:38.591742  9468 layer_factory.hpp:77] Creating layer inception_3b/3x3_reduce
I0403 19:37:38.591769  9468 net.cpp:91] Creating Layer inception_3b/3x3_reduce
I0403 19:37:38.591790  9468 net.cpp:425] inception_3b/3x3_reduce <- inception_3a/output_inception_3a/output_0_split_1
I0403 19:37:38.591817  9468 net.cpp:399] inception_3b/3x3_reduce -> inception_3b/3x3_reduce
I0403 19:37:38.593206  9468 net.cpp:141] Setting up inception_3b/3x3_reduce
I0403 19:37:38.593245  9468 net.cpp:148] Top shape: 24 128 28 28 (2408448)
I0403 19:37:38.593266  9468 net.cpp:156] Memory required for data: 686408736
I0403 19:37:38.593289  9468 layer_factory.hpp:77] Creating layer inception_3b/relu_3x3_reduce
I0403 19:37:38.593312  9468 net.cpp:91] Creating Layer inception_3b/relu_3x3_reduce
I0403 19:37:38.593332  9468 net.cpp:425] inception_3b/relu_3x3_reduce <- inception_3b/3x3_reduce
I0403 19:37:38.593353  9468 net.cpp:386] inception_3b/relu_3x3_reduce -> inception_3b/3x3_reduce (in-place)
I0403 19:37:38.593565  9468 net.cpp:141] Setting up inception_3b/relu_3x3_reduce
I0403 19:37:38.593596  9468 net.cpp:148] Top shape: 24 128 28 28 (2408448)
I0403 19:37:38.593616  9468 net.cpp:156] Memory required for data: 696042528
I0403 19:37:38.593636  9468 layer_factory.hpp:77] Creating layer inception_3b/3x3
I0403 19:37:38.593667  9468 net.cpp:91] Creating Layer inception_3b/3x3
I0403 19:37:38.593688  9468 net.cpp:425] inception_3b/3x3 <- inception_3b/3x3_reduce
I0403 19:37:38.593715  9468 net.cpp:399] inception_3b/3x3 -> inception_3b/3x3
I0403 19:37:38.597211  9468 net.cpp:141] Setting up inception_3b/3x3
I0403 19:37:38.597246  9468 net.cpp:148] Top shape: 24 192 28 28 (3612672)
I0403 19:37:38.597267  9468 net.cpp:156] Memory required for data: 710493216
I0403 19:37:38.597290  9468 layer_factory.hpp:77] Creating layer inception_3b/relu_3x3
I0403 19:37:38.597313  9468 net.cpp:91] Creating Layer inception_3b/relu_3x3
I0403 19:37:38.597332  9468 net.cpp:425] inception_3b/relu_3x3 <- inception_3b/3x3
I0403 19:37:38.597359  9468 net.cpp:386] inception_3b/relu_3x3 -> inception_3b/3x3 (in-place)
I0403 19:37:38.597690  9468 net.cpp:141] Setting up inception_3b/relu_3x3
I0403 19:37:38.597723  9468 net.cpp:148] Top shape: 24 192 28 28 (3612672)
I0403 19:37:38.597743  9468 net.cpp:156] Memory required for data: 724943904
I0403 19:37:38.597764  9468 layer_factory.hpp:77] Creating layer inception_3b/5x5_reduce
I0403 19:37:38.597790  9468 net.cpp:91] Creating Layer inception_3b/5x5_reduce
I0403 19:37:38.597813  9468 net.cpp:425] inception_3b/5x5_reduce <- inception_3a/output_inception_3a/output_0_split_2
I0403 19:37:38.597842  9468 net.cpp:399] inception_3b/5x5_reduce -> inception_3b/5x5_reduce
I0403 19:37:38.599040  9468 net.cpp:141] Setting up inception_3b/5x5_reduce
I0403 19:37:38.599074  9468 net.cpp:148] Top shape: 24 32 28 28 (602112)
I0403 19:37:38.599095  9468 net.cpp:156] Memory required for data: 727352352
I0403 19:37:38.599117  9468 layer_factory.hpp:77] Creating layer inception_3b/relu_5x5_reduce
I0403 19:37:38.599140  9468 net.cpp:91] Creating Layer inception_3b/relu_5x5_reduce
I0403 19:37:38.599160  9468 net.cpp:425] inception_3b/relu_5x5_reduce <- inception_3b/5x5_reduce
I0403 19:37:38.599192  9468 net.cpp:386] inception_3b/relu_5x5_reduce -> inception_3b/5x5_reduce (in-place)
I0403 19:37:38.599422  9468 net.cpp:141] Setting up inception_3b/relu_5x5_reduce
I0403 19:37:38.599453  9468 net.cpp:148] Top shape: 24 32 28 28 (602112)
I0403 19:37:38.599472  9468 net.cpp:156] Memory required for data: 729760800
I0403 19:37:38.599490  9468 layer_factory.hpp:77] Creating layer inception_3b/5x5
I0403 19:37:38.599519  9468 net.cpp:91] Creating Layer inception_3b/5x5
I0403 19:37:38.599541  9468 net.cpp:425] inception_3b/5x5 <- inception_3b/5x5_reduce
I0403 19:37:38.599567  9468 net.cpp:399] inception_3b/5x5 -> inception_3b/5x5
I0403 19:37:38.601927  9468 net.cpp:141] Setting up inception_3b/5x5
I0403 19:37:38.601965  9468 net.cpp:148] Top shape: 24 96 28 28 (1806336)
I0403 19:37:38.601986  9468 net.cpp:156] Memory required for data: 736986144
I0403 19:37:38.602010  9468 layer_factory.hpp:77] Creating layer inception_3b/relu_5x5
I0403 19:37:38.602033  9468 net.cpp:91] Creating Layer inception_3b/relu_5x5
I0403 19:37:38.602053  9468 net.cpp:425] inception_3b/relu_5x5 <- inception_3b/5x5
I0403 19:37:38.602077  9468 net.cpp:386] inception_3b/relu_5x5 -> inception_3b/5x5 (in-place)
I0403 19:37:38.602325  9468 net.cpp:141] Setting up inception_3b/relu_5x5
I0403 19:37:38.602357  9468 net.cpp:148] Top shape: 24 96 28 28 (1806336)
I0403 19:37:38.602376  9468 net.cpp:156] Memory required for data: 744211488
I0403 19:37:38.602396  9468 layer_factory.hpp:77] Creating layer inception_3b/pool
I0403 19:37:38.602417  9468 net.cpp:91] Creating Layer inception_3b/pool
I0403 19:37:38.602437  9468 net.cpp:425] inception_3b/pool <- inception_3a/output_inception_3a/output_0_split_3
I0403 19:37:38.602460  9468 net.cpp:399] inception_3b/pool -> inception_3b/pool
I0403 19:37:38.602530  9468 net.cpp:141] Setting up inception_3b/pool
I0403 19:37:38.602562  9468 net.cpp:148] Top shape: 24 256 28 28 (4816896)
I0403 19:37:38.602582  9468 net.cpp:156] Memory required for data: 763479072
I0403 19:37:38.602602  9468 layer_factory.hpp:77] Creating layer inception_3b/pool_proj
I0403 19:37:38.602628  9468 net.cpp:91] Creating Layer inception_3b/pool_proj
I0403 19:37:38.602650  9468 net.cpp:425] inception_3b/pool_proj <- inception_3b/pool
I0403 19:37:38.602674  9468 net.cpp:399] inception_3b/pool_proj -> inception_3b/pool_proj
I0403 19:37:38.603945  9468 net.cpp:141] Setting up inception_3b/pool_proj
I0403 19:37:38.603979  9468 net.cpp:148] Top shape: 24 64 28 28 (1204224)
I0403 19:37:38.603999  9468 net.cpp:156] Memory required for data: 768295968
I0403 19:37:38.604022  9468 layer_factory.hpp:77] Creating layer inception_3b/relu_pool_proj
I0403 19:37:38.604048  9468 net.cpp:91] Creating Layer inception_3b/relu_pool_proj
I0403 19:37:38.604071  9468 net.cpp:425] inception_3b/relu_pool_proj <- inception_3b/pool_proj
I0403 19:37:38.604094  9468 net.cpp:386] inception_3b/relu_pool_proj -> inception_3b/pool_proj (in-place)
I0403 19:37:38.604563  9468 net.cpp:141] Setting up inception_3b/relu_pool_proj
I0403 19:37:38.604596  9468 net.cpp:148] Top shape: 24 64 28 28 (1204224)
I0403 19:37:38.604616  9468 net.cpp:156] Memory required for data: 773112864
I0403 19:37:38.604635  9468 layer_factory.hpp:77] Creating layer inception_3b/output
I0403 19:37:38.604657  9468 net.cpp:91] Creating Layer inception_3b/output
I0403 19:37:38.604677  9468 net.cpp:425] inception_3b/output <- inception_3b/1x1
I0403 19:37:38.604698  9468 net.cpp:425] inception_3b/output <- inception_3b/3x3
I0403 19:37:38.604718  9468 net.cpp:425] inception_3b/output <- inception_3b/5x5
I0403 19:37:38.604738  9468 net.cpp:425] inception_3b/output <- inception_3b/pool_proj
I0403 19:37:38.604763  9468 net.cpp:399] inception_3b/output -> inception_3b/output
I0403 19:37:38.604821  9468 net.cpp:141] Setting up inception_3b/output
I0403 19:37:38.604851  9468 net.cpp:148] Top shape: 24 480 28 28 (9031680)
I0403 19:37:38.604868  9468 net.cpp:156] Memory required for data: 809239584
I0403 19:37:38.604887  9468 layer_factory.hpp:77] Creating layer pool3/3x3_s2
I0403 19:37:38.604910  9468 net.cpp:91] Creating Layer pool3/3x3_s2
I0403 19:37:38.604930  9468 net.cpp:425] pool3/3x3_s2 <- inception_3b/output
I0403 19:37:38.604974  9468 net.cpp:399] pool3/3x3_s2 -> pool3/3x3_s2
I0403 19:37:38.605048  9468 net.cpp:141] Setting up pool3/3x3_s2
I0403 19:37:38.605077  9468 net.cpp:148] Top shape: 24 480 14 14 (2257920)
I0403 19:37:38.605096  9468 net.cpp:156] Memory required for data: 818271264
I0403 19:37:38.605114  9468 layer_factory.hpp:77] Creating layer pool3/3x3_s2_pool3/3x3_s2_0_split
I0403 19:37:38.605139  9468 net.cpp:91] Creating Layer pool3/3x3_s2_pool3/3x3_s2_0_split
I0403 19:37:38.605159  9468 net.cpp:425] pool3/3x3_s2_pool3/3x3_s2_0_split <- pool3/3x3_s2
I0403 19:37:38.605188  9468 net.cpp:399] pool3/3x3_s2_pool3/3x3_s2_0_split -> pool3/3x3_s2_pool3/3x3_s2_0_split_0
I0403 19:37:38.605218  9468 net.cpp:399] pool3/3x3_s2_pool3/3x3_s2_0_split -> pool3/3x3_s2_pool3/3x3_s2_0_split_1
I0403 19:37:38.605247  9468 net.cpp:399] pool3/3x3_s2_pool3/3x3_s2_0_split -> pool3/3x3_s2_pool3/3x3_s2_0_split_2
I0403 19:37:38.605271  9468 net.cpp:399] pool3/3x3_s2_pool3/3x3_s2_0_split -> pool3/3x3_s2_pool3/3x3_s2_0_split_3
I0403 19:37:38.605365  9468 net.cpp:141] Setting up pool3/3x3_s2_pool3/3x3_s2_0_split
I0403 19:37:38.605393  9468 net.cpp:148] Top shape: 24 480 14 14 (2257920)
I0403 19:37:38.605413  9468 net.cpp:148] Top shape: 24 480 14 14 (2257920)
I0403 19:37:38.605434  9468 net.cpp:148] Top shape: 24 480 14 14 (2257920)
I0403 19:37:38.605454  9468 net.cpp:148] Top shape: 24 480 14 14 (2257920)
I0403 19:37:38.605473  9468 net.cpp:156] Memory required for data: 854397984
I0403 19:37:38.605491  9468 layer_factory.hpp:77] Creating layer inception_4a/1x1
I0403 19:37:38.605520  9468 net.cpp:91] Creating Layer inception_4a/1x1
I0403 19:37:38.605541  9468 net.cpp:425] inception_4a/1x1 <- pool3/3x3_s2_pool3/3x3_s2_0_split_0
I0403 19:37:38.605567  9468 net.cpp:399] inception_4a/1x1 -> inception_4a/1x1
I0403 19:37:38.607489  9468 net.cpp:141] Setting up inception_4a/1x1
I0403 19:37:38.607523  9468 net.cpp:148] Top shape: 24 192 14 14 (903168)
I0403 19:37:38.607543  9468 net.cpp:156] Memory required for data: 858010656
I0403 19:37:38.607568  9468 layer_factory.hpp:77] Creating layer inception_4a/relu_1x1
I0403 19:37:38.607594  9468 net.cpp:91] Creating Layer inception_4a/relu_1x1
I0403 19:37:38.607615  9468 net.cpp:425] inception_4a/relu_1x1 <- inception_4a/1x1
I0403 19:37:38.607637  9468 net.cpp:386] inception_4a/relu_1x1 -> inception_4a/1x1 (in-place)
I0403 19:37:38.607852  9468 net.cpp:141] Setting up inception_4a/relu_1x1
I0403 19:37:38.607887  9468 net.cpp:148] Top shape: 24 192 14 14 (903168)
I0403 19:37:38.607906  9468 net.cpp:156] Memory required for data: 861623328
I0403 19:37:38.607925  9468 layer_factory.hpp:77] Creating layer inception_4a/3x3_reduce
I0403 19:37:38.607952  9468 net.cpp:91] Creating Layer inception_4a/3x3_reduce
I0403 19:37:38.607975  9468 net.cpp:425] inception_4a/3x3_reduce <- pool3/3x3_s2_pool3/3x3_s2_0_split_1
I0403 19:37:38.608000  9468 net.cpp:399] inception_4a/3x3_reduce -> inception_4a/3x3_reduce
I0403 19:37:38.609560  9468 net.cpp:141] Setting up inception_4a/3x3_reduce
I0403 19:37:38.609594  9468 net.cpp:148] Top shape: 24 96 14 14 (451584)
I0403 19:37:38.609614  9468 net.cpp:156] Memory required for data: 863429664
I0403 19:37:38.609645  9468 layer_factory.hpp:77] Creating layer inception_4a/relu_3x3_reduce
I0403 19:37:38.609674  9468 net.cpp:91] Creating Layer inception_4a/relu_3x3_reduce
I0403 19:37:38.609696  9468 net.cpp:425] inception_4a/relu_3x3_reduce <- inception_4a/3x3_reduce
I0403 19:37:38.609719  9468 net.cpp:386] inception_4a/relu_3x3_reduce -> inception_4a/3x3_reduce (in-place)
I0403 19:37:38.609937  9468 net.cpp:141] Setting up inception_4a/relu_3x3_reduce
I0403 19:37:38.609972  9468 net.cpp:148] Top shape: 24 96 14 14 (451584)
I0403 19:37:38.609992  9468 net.cpp:156] Memory required for data: 865236000
I0403 19:37:38.610010  9468 layer_factory.hpp:77] Creating layer inception_4a/3x3
I0403 19:37:38.610038  9468 net.cpp:91] Creating Layer inception_4a/3x3
I0403 19:37:38.610059  9468 net.cpp:425] inception_4a/3x3 <- inception_4a/3x3_reduce
I0403 19:37:38.610083  9468 net.cpp:399] inception_4a/3x3 -> inception_4a/3x3
I0403 19:37:38.613324  9468 net.cpp:141] Setting up inception_4a/3x3
I0403 19:37:38.613363  9468 net.cpp:148] Top shape: 24 208 14 14 (978432)
I0403 19:37:38.613384  9468 net.cpp:156] Memory required for data: 869149728
I0403 19:37:38.613407  9468 layer_factory.hpp:77] Creating layer inception_4a/relu_3x3
I0403 19:37:38.613430  9468 net.cpp:91] Creating Layer inception_4a/relu_3x3
I0403 19:37:38.613451  9468 net.cpp:425] inception_4a/relu_3x3 <- inception_4a/3x3
I0403 19:37:38.613472  9468 net.cpp:386] inception_4a/relu_3x3 -> inception_4a/3x3 (in-place)
I0403 19:37:38.613807  9468 net.cpp:141] Setting up inception_4a/relu_3x3
I0403 19:37:38.613854  9468 net.cpp:148] Top shape: 24 208 14 14 (978432)
I0403 19:37:38.613875  9468 net.cpp:156] Memory required for data: 873063456
I0403 19:37:38.613894  9468 layer_factory.hpp:77] Creating layer inception_4a/5x5_reduce
I0403 19:37:38.613925  9468 net.cpp:91] Creating Layer inception_4a/5x5_reduce
I0403 19:37:38.613947  9468 net.cpp:425] inception_4a/5x5_reduce <- pool3/3x3_s2_pool3/3x3_s2_0_split_2
I0403 19:37:38.613972  9468 net.cpp:399] inception_4a/5x5_reduce -> inception_4a/5x5_reduce
I0403 19:37:38.615239  9468 net.cpp:141] Setting up inception_4a/5x5_reduce
I0403 19:37:38.615273  9468 net.cpp:148] Top shape: 24 16 14 14 (75264)
I0403 19:37:38.615293  9468 net.cpp:156] Memory required for data: 873364512
I0403 19:37:38.615316  9468 layer_factory.hpp:77] Creating layer inception_4a/relu_5x5_reduce
I0403 19:37:38.615339  9468 net.cpp:91] Creating Layer inception_4a/relu_5x5_reduce
I0403 19:37:38.615360  9468 net.cpp:425] inception_4a/relu_5x5_reduce <- inception_4a/5x5_reduce
I0403 19:37:38.615384  9468 net.cpp:386] inception_4a/relu_5x5_reduce -> inception_4a/5x5_reduce (in-place)
I0403 19:37:38.615605  9468 net.cpp:141] Setting up inception_4a/relu_5x5_reduce
I0403 19:37:38.615638  9468 net.cpp:148] Top shape: 24 16 14 14 (75264)
I0403 19:37:38.615656  9468 net.cpp:156] Memory required for data: 873665568
I0403 19:37:38.615676  9468 layer_factory.hpp:77] Creating layer inception_4a/5x5
I0403 19:37:38.615705  9468 net.cpp:91] Creating Layer inception_4a/5x5
I0403 19:37:38.615727  9468 net.cpp:425] inception_4a/5x5 <- inception_4a/5x5_reduce
I0403 19:37:38.615754  9468 net.cpp:399] inception_4a/5x5 -> inception_4a/5x5
I0403 19:37:38.617082  9468 net.cpp:141] Setting up inception_4a/5x5
I0403 19:37:38.617116  9468 net.cpp:148] Top shape: 24 48 14 14 (225792)
I0403 19:37:38.617136  9468 net.cpp:156] Memory required for data: 874568736
I0403 19:37:38.617158  9468 layer_factory.hpp:77] Creating layer inception_4a/relu_5x5
I0403 19:37:38.617192  9468 net.cpp:91] Creating Layer inception_4a/relu_5x5
I0403 19:37:38.617215  9468 net.cpp:425] inception_4a/relu_5x5 <- inception_4a/5x5
I0403 19:37:38.617238  9468 net.cpp:386] inception_4a/relu_5x5 -> inception_4a/5x5 (in-place)
I0403 19:37:38.617455  9468 net.cpp:141] Setting up inception_4a/relu_5x5
I0403 19:37:38.617488  9468 net.cpp:148] Top shape: 24 48 14 14 (225792)
I0403 19:37:38.617508  9468 net.cpp:156] Memory required for data: 875471904
I0403 19:37:38.617527  9468 layer_factory.hpp:77] Creating layer inception_4a/pool
I0403 19:37:38.617552  9468 net.cpp:91] Creating Layer inception_4a/pool
I0403 19:37:38.617573  9468 net.cpp:425] inception_4a/pool <- pool3/3x3_s2_pool3/3x3_s2_0_split_3
I0403 19:37:38.617594  9468 net.cpp:399] inception_4a/pool -> inception_4a/pool
I0403 19:37:38.617671  9468 net.cpp:141] Setting up inception_4a/pool
I0403 19:37:38.617700  9468 net.cpp:148] Top shape: 24 480 14 14 (2257920)
I0403 19:37:38.617718  9468 net.cpp:156] Memory required for data: 884503584
I0403 19:37:38.617738  9468 layer_factory.hpp:77] Creating layer inception_4a/pool_proj
I0403 19:37:38.617765  9468 net.cpp:91] Creating Layer inception_4a/pool_proj
I0403 19:37:38.617789  9468 net.cpp:425] inception_4a/pool_proj <- inception_4a/pool
I0403 19:37:38.617817  9468 net.cpp:399] inception_4a/pool_proj -> inception_4a/pool_proj
I0403 19:37:38.619253  9468 net.cpp:141] Setting up inception_4a/pool_proj
I0403 19:37:38.619288  9468 net.cpp:148] Top shape: 24 64 14 14 (301056)
I0403 19:37:38.619325  9468 net.cpp:156] Memory required for data: 885707808
I0403 19:37:38.619349  9468 layer_factory.hpp:77] Creating layer inception_4a/relu_pool_proj
I0403 19:37:38.619375  9468 net.cpp:91] Creating Layer inception_4a/relu_pool_proj
I0403 19:37:38.619397  9468 net.cpp:425] inception_4a/relu_pool_proj <- inception_4a/pool_proj
I0403 19:37:38.619420  9468 net.cpp:386] inception_4a/relu_pool_proj -> inception_4a/pool_proj (in-place)
I0403 19:37:38.619760  9468 net.cpp:141] Setting up inception_4a/relu_pool_proj
I0403 19:37:38.619792  9468 net.cpp:148] Top shape: 24 64 14 14 (301056)
I0403 19:37:38.619812  9468 net.cpp:156] Memory required for data: 886912032
I0403 19:37:38.619830  9468 layer_factory.hpp:77] Creating layer inception_4a/output
I0403 19:37:38.619855  9468 net.cpp:91] Creating Layer inception_4a/output
I0403 19:37:38.619876  9468 net.cpp:425] inception_4a/output <- inception_4a/1x1
I0403 19:37:38.619897  9468 net.cpp:425] inception_4a/output <- inception_4a/3x3
I0403 19:37:38.619918  9468 net.cpp:425] inception_4a/output <- inception_4a/5x5
I0403 19:37:38.619938  9468 net.cpp:425] inception_4a/output <- inception_4a/pool_proj
I0403 19:37:38.619959  9468 net.cpp:399] inception_4a/output -> inception_4a/output
I0403 19:37:38.620017  9468 net.cpp:141] Setting up inception_4a/output
I0403 19:37:38.620045  9468 net.cpp:148] Top shape: 24 512 14 14 (2408448)
I0403 19:37:38.620064  9468 net.cpp:156] Memory required for data: 896545824
I0403 19:37:38.620085  9468 layer_factory.hpp:77] Creating layer inception_4a/output_inception_4a/output_0_split
I0403 19:37:38.620106  9468 net.cpp:91] Creating Layer inception_4a/output_inception_4a/output_0_split
I0403 19:37:38.620126  9468 net.cpp:425] inception_4a/output_inception_4a/output_0_split <- inception_4a/output
I0403 19:37:38.620151  9468 net.cpp:399] inception_4a/output_inception_4a/output_0_split -> inception_4a/output_inception_4a/output_0_split_0
I0403 19:37:38.620184  9468 net.cpp:399] inception_4a/output_inception_4a/output_0_split -> inception_4a/output_inception_4a/output_0_split_1
I0403 19:37:38.620213  9468 net.cpp:399] inception_4a/output_inception_4a/output_0_split -> inception_4a/output_inception_4a/output_0_split_2
I0403 19:37:38.620239  9468 net.cpp:399] inception_4a/output_inception_4a/output_0_split -> inception_4a/output_inception_4a/output_0_split_3
I0403 19:37:38.620266  9468 net.cpp:399] inception_4a/output_inception_4a/output_0_split -> inception_4a/output_inception_4a/output_0_split_4
I0403 19:37:38.620383  9468 net.cpp:141] Setting up inception_4a/output_inception_4a/output_0_split
I0403 19:37:38.620414  9468 net.cpp:148] Top shape: 24 512 14 14 (2408448)
I0403 19:37:38.620435  9468 net.cpp:148] Top shape: 24 512 14 14 (2408448)
I0403 19:37:38.620455  9468 net.cpp:148] Top shape: 24 512 14 14 (2408448)
I0403 19:37:38.620476  9468 net.cpp:148] Top shape: 24 512 14 14 (2408448)
I0403 19:37:38.620496  9468 net.cpp:148] Top shape: 24 512 14 14 (2408448)
I0403 19:37:38.620514  9468 net.cpp:156] Memory required for data: 944714784
I0403 19:37:38.620532  9468 layer_factory.hpp:77] Creating layer loss1/ave_pool
I0403 19:37:38.620555  9468 net.cpp:91] Creating Layer loss1/ave_pool
I0403 19:37:38.620576  9468 net.cpp:425] loss1/ave_pool <- inception_4a/output_inception_4a/output_0_split_0
I0403 19:37:38.620601  9468 net.cpp:399] loss1/ave_pool -> loss1/ave_pool
I0403 19:37:38.620857  9468 net.cpp:141] Setting up loss1/ave_pool
I0403 19:37:38.620889  9468 net.cpp:148] Top shape: 24 512 4 4 (196608)
I0403 19:37:38.620908  9468 net.cpp:156] Memory required for data: 945501216
I0403 19:37:38.620928  9468 layer_factory.hpp:77] Creating layer loss1/conv
I0403 19:37:38.620954  9468 net.cpp:91] Creating Layer loss1/conv
I0403 19:37:38.620977  9468 net.cpp:425] loss1/conv <- loss1/ave_pool
I0403 19:37:38.621004  9468 net.cpp:399] loss1/conv -> loss1/conv
I0403 19:37:38.622750  9468 net.cpp:141] Setting up loss1/conv
I0403 19:37:38.622792  9468 net.cpp:148] Top shape: 24 128 4 4 (49152)
I0403 19:37:38.622828  9468 net.cpp:156] Memory required for data: 945697824
I0403 19:37:38.622853  9468 layer_factory.hpp:77] Creating layer loss1/relu_conv
I0403 19:37:38.622876  9468 net.cpp:91] Creating Layer loss1/relu_conv
I0403 19:37:38.622896  9468 net.cpp:425] loss1/relu_conv <- loss1/conv
I0403 19:37:38.622922  9468 net.cpp:386] loss1/relu_conv -> loss1/conv (in-place)
I0403 19:37:38.623271  9468 net.cpp:141] Setting up loss1/relu_conv
I0403 19:37:38.623306  9468 net.cpp:148] Top shape: 24 128 4 4 (49152)
I0403 19:37:38.623327  9468 net.cpp:156] Memory required for data: 945894432
I0403 19:37:38.623347  9468 layer_factory.hpp:77] Creating layer loss1/fc
I0403 19:37:38.623375  9468 net.cpp:91] Creating Layer loss1/fc
I0403 19:37:38.623397  9468 net.cpp:425] loss1/fc <- loss1/conv
I0403 19:37:38.623425  9468 net.cpp:399] loss1/fc -> loss1/fc
I0403 19:37:38.645208  9468 net.cpp:141] Setting up loss1/fc
I0403 19:37:38.645254  9468 net.cpp:148] Top shape: 24 1024 (24576)
I0403 19:37:38.645274  9468 net.cpp:156] Memory required for data: 945992736
I0403 19:37:38.645298  9468 layer_factory.hpp:77] Creating layer loss1/relu_fc
I0403 19:37:38.645323  9468 net.cpp:91] Creating Layer loss1/relu_fc
I0403 19:37:38.645342  9468 net.cpp:425] loss1/relu_fc <- loss1/fc
I0403 19:37:38.645365  9468 net.cpp:386] loss1/relu_fc -> loss1/fc (in-place)
I0403 19:37:38.645596  9468 net.cpp:141] Setting up loss1/relu_fc
I0403 19:37:38.645629  9468 net.cpp:148] Top shape: 24 1024 (24576)
I0403 19:37:38.645649  9468 net.cpp:156] Memory required for data: 946091040
I0403 19:37:38.645668  9468 layer_factory.hpp:77] Creating layer loss1/drop_fc
I0403 19:37:38.645699  9468 net.cpp:91] Creating Layer loss1/drop_fc
I0403 19:37:38.645722  9468 net.cpp:425] loss1/drop_fc <- loss1/fc
I0403 19:37:38.645745  9468 net.cpp:386] loss1/drop_fc -> loss1/fc (in-place)
I0403 19:37:38.645812  9468 net.cpp:141] Setting up loss1/drop_fc
I0403 19:37:38.645839  9468 net.cpp:148] Top shape: 24 1024 (24576)
I0403 19:37:38.645859  9468 net.cpp:156] Memory required for data: 946189344
I0403 19:37:38.645876  9468 layer_factory.hpp:77] Creating layer loss1/classifier_plantvillage
I0403 19:37:38.645905  9468 net.cpp:91] Creating Layer loss1/classifier_plantvillage
I0403 19:37:38.645926  9468 net.cpp:425] loss1/classifier_plantvillage <- loss1/fc
I0403 19:37:38.645949  9468 net.cpp:399] loss1/classifier_plantvillage -> loss1/classifier_plantvillage
I0403 19:37:38.647027  9468 net.cpp:141] Setting up loss1/classifier_plantvillage
I0403 19:37:38.647064  9468 net.cpp:148] Top shape: 24 38 (912)
I0403 19:37:38.647086  9468 net.cpp:156] Memory required for data: 946192992
I0403 19:37:38.647110  9468 layer_factory.hpp:77] Creating layer loss1/classifier_plantvillage_loss1/classifier_plantvillage_0_split
I0403 19:37:38.647132  9468 net.cpp:91] Creating Layer loss1/classifier_plantvillage_loss1/classifier_plantvillage_0_split
I0403 19:37:38.647152  9468 net.cpp:425] loss1/classifier_plantvillage_loss1/classifier_plantvillage_0_split <- loss1/classifier_plantvillage
I0403 19:37:38.647174  9468 net.cpp:399] loss1/classifier_plantvillage_loss1/classifier_plantvillage_0_split -> loss1/classifier_plantvillage_loss1/classifier_plantvillage_0_split_0
I0403 19:37:38.647210  9468 net.cpp:399] loss1/classifier_plantvillage_loss1/classifier_plantvillage_0_split -> loss1/classifier_plantvillage_loss1/classifier_plantvillage_0_split_1
I0403 19:37:38.647239  9468 net.cpp:399] loss1/classifier_plantvillage_loss1/classifier_plantvillage_0_split -> loss1/classifier_plantvillage_loss1/classifier_plantvillage_0_split_2
I0403 19:37:38.647322  9468 net.cpp:141] Setting up loss1/classifier_plantvillage_loss1/classifier_plantvillage_0_split
I0403 19:37:38.647351  9468 net.cpp:148] Top shape: 24 38 (912)
I0403 19:37:38.647372  9468 net.cpp:148] Top shape: 24 38 (912)
I0403 19:37:38.647392  9468 net.cpp:148] Top shape: 24 38 (912)
I0403 19:37:38.647408  9468 net.cpp:156] Memory required for data: 946203936
I0403 19:37:38.647426  9468 layer_factory.hpp:77] Creating layer inception_4b/1x1
I0403 19:37:38.647450  9468 net.cpp:91] Creating Layer inception_4b/1x1
I0403 19:37:38.647490  9468 net.cpp:425] inception_4b/1x1 <- inception_4a/output_inception_4a/output_0_split_1
I0403 19:37:38.647517  9468 net.cpp:399] inception_4b/1x1 -> inception_4b/1x1
I0403 19:37:38.649526  9468 net.cpp:141] Setting up inception_4b/1x1
I0403 19:37:38.649561  9468 net.cpp:148] Top shape: 24 160 14 14 (752640)
I0403 19:37:38.649580  9468 net.cpp:156] Memory required for data: 949214496
I0403 19:37:38.649605  9468 layer_factory.hpp:77] Creating layer inception_4b/relu_1x1
I0403 19:37:38.649626  9468 net.cpp:91] Creating Layer inception_4b/relu_1x1
I0403 19:37:38.649646  9468 net.cpp:425] inception_4b/relu_1x1 <- inception_4b/1x1
I0403 19:37:38.649670  9468 net.cpp:386] inception_4b/relu_1x1 -> inception_4b/1x1 (in-place)
I0403 19:37:38.649893  9468 net.cpp:141] Setting up inception_4b/relu_1x1
I0403 19:37:38.649924  9468 net.cpp:148] Top shape: 24 160 14 14 (752640)
I0403 19:37:38.649942  9468 net.cpp:156] Memory required for data: 952225056
I0403 19:37:38.649961  9468 layer_factory.hpp:77] Creating layer inception_4b/3x3_reduce
I0403 19:37:38.649991  9468 net.cpp:91] Creating Layer inception_4b/3x3_reduce
I0403 19:37:38.650013  9468 net.cpp:425] inception_4b/3x3_reduce <- inception_4a/output_inception_4a/output_0_split_2
I0403 19:37:38.650043  9468 net.cpp:399] inception_4b/3x3_reduce -> inception_4b/3x3_reduce
I0403 19:37:38.651708  9468 net.cpp:141] Setting up inception_4b/3x3_reduce
I0403 19:37:38.651743  9468 net.cpp:148] Top shape: 24 112 14 14 (526848)
I0403 19:37:38.651762  9468 net.cpp:156] Memory required for data: 954332448
I0403 19:37:38.651785  9468 layer_factory.hpp:77] Creating layer inception_4b/relu_3x3_reduce
I0403 19:37:38.651811  9468 net.cpp:91] Creating Layer inception_4b/relu_3x3_reduce
I0403 19:37:38.651834  9468 net.cpp:425] inception_4b/relu_3x3_reduce <- inception_4b/3x3_reduce
I0403 19:37:38.651855  9468 net.cpp:386] inception_4b/relu_3x3_reduce -> inception_4b/3x3_reduce (in-place)
I0403 19:37:38.652221  9468 net.cpp:141] Setting up inception_4b/relu_3x3_reduce
I0403 19:37:38.652254  9468 net.cpp:148] Top shape: 24 112 14 14 (526848)
I0403 19:37:38.652274  9468 net.cpp:156] Memory required for data: 956439840
I0403 19:37:38.652293  9468 layer_factory.hpp:77] Creating layer inception_4b/3x3
I0403 19:37:38.652321  9468 net.cpp:91] Creating Layer inception_4b/3x3
I0403 19:37:38.652343  9468 net.cpp:425] inception_4b/3x3 <- inception_4b/3x3_reduce
I0403 19:37:38.652370  9468 net.cpp:399] inception_4b/3x3 -> inception_4b/3x3
I0403 19:37:38.656005  9468 net.cpp:141] Setting up inception_4b/3x3
I0403 19:37:38.656040  9468 net.cpp:148] Top shape: 24 224 14 14 (1053696)
I0403 19:37:38.656064  9468 net.cpp:156] Memory required for data: 960654624
I0403 19:37:38.656087  9468 layer_factory.hpp:77] Creating layer inception_4b/relu_3x3
I0403 19:37:38.656110  9468 net.cpp:91] Creating Layer inception_4b/relu_3x3
I0403 19:37:38.656129  9468 net.cpp:425] inception_4b/relu_3x3 <- inception_4b/3x3
I0403 19:37:38.656152  9468 net.cpp:386] inception_4b/relu_3x3 -> inception_4b/3x3 (in-place)
I0403 19:37:38.656385  9468 net.cpp:141] Setting up inception_4b/relu_3x3
I0403 19:37:38.656419  9468 net.cpp:148] Top shape: 24 224 14 14 (1053696)
I0403 19:37:38.656438  9468 net.cpp:156] Memory required for data: 964869408
I0403 19:37:38.656457  9468 layer_factory.hpp:77] Creating layer inception_4b/5x5_reduce
I0403 19:37:38.656488  9468 net.cpp:91] Creating Layer inception_4b/5x5_reduce
I0403 19:37:38.656512  9468 net.cpp:425] inception_4b/5x5_reduce <- inception_4a/output_inception_4a/output_0_split_3
I0403 19:37:38.656536  9468 net.cpp:399] inception_4b/5x5_reduce -> inception_4b/5x5_reduce
I0403 19:37:38.657882  9468 net.cpp:141] Setting up inception_4b/5x5_reduce
I0403 19:37:38.657917  9468 net.cpp:148] Top shape: 24 24 14 14 (112896)
I0403 19:37:38.657938  9468 net.cpp:156] Memory required for data: 965320992
I0403 19:37:38.657963  9468 layer_factory.hpp:77] Creating layer inception_4b/relu_5x5_reduce
I0403 19:37:38.657985  9468 net.cpp:91] Creating Layer inception_4b/relu_5x5_reduce
I0403 19:37:38.658022  9468 net.cpp:425] inception_4b/relu_5x5_reduce <- inception_4b/5x5_reduce
I0403 19:37:38.658048  9468 net.cpp:386] inception_4b/relu_5x5_reduce -> inception_4b/5x5_reduce (in-place)
I0403 19:37:38.658288  9468 net.cpp:141] Setting up inception_4b/relu_5x5_reduce
I0403 19:37:38.658319  9468 net.cpp:148] Top shape: 24 24 14 14 (112896)
I0403 19:37:38.658337  9468 net.cpp:156] Memory required for data: 965772576
I0403 19:37:38.658356  9468 layer_factory.hpp:77] Creating layer inception_4b/5x5
I0403 19:37:38.658385  9468 net.cpp:91] Creating Layer inception_4b/5x5
I0403 19:37:38.658407  9468 net.cpp:425] inception_4b/5x5 <- inception_4b/5x5_reduce
I0403 19:37:38.658434  9468 net.cpp:399] inception_4b/5x5 -> inception_4b/5x5
I0403 19:37:38.659930  9468 net.cpp:141] Setting up inception_4b/5x5
I0403 19:37:38.659966  9468 net.cpp:148] Top shape: 24 64 14 14 (301056)
I0403 19:37:38.659986  9468 net.cpp:156] Memory required for data: 966976800
I0403 19:37:38.660009  9468 layer_factory.hpp:77] Creating layer inception_4b/relu_5x5
I0403 19:37:38.660032  9468 net.cpp:91] Creating Layer inception_4b/relu_5x5
I0403 19:37:38.660051  9468 net.cpp:425] inception_4b/relu_5x5 <- inception_4b/5x5
I0403 19:37:38.660075  9468 net.cpp:386] inception_4b/relu_5x5 -> inception_4b/5x5 (in-place)
I0403 19:37:38.660428  9468 net.cpp:141] Setting up inception_4b/relu_5x5
I0403 19:37:38.660460  9468 net.cpp:148] Top shape: 24 64 14 14 (301056)
I0403 19:37:38.660480  9468 net.cpp:156] Memory required for data: 968181024
I0403 19:37:38.660500  9468 layer_factory.hpp:77] Creating layer inception_4b/pool
I0403 19:37:38.660521  9468 net.cpp:91] Creating Layer inception_4b/pool
I0403 19:37:38.660542  9468 net.cpp:425] inception_4b/pool <- inception_4a/output_inception_4a/output_0_split_4
I0403 19:37:38.660567  9468 net.cpp:399] inception_4b/pool -> inception_4b/pool
I0403 19:37:38.660647  9468 net.cpp:141] Setting up inception_4b/pool
I0403 19:37:38.660676  9468 net.cpp:148] Top shape: 24 512 14 14 (2408448)
I0403 19:37:38.660696  9468 net.cpp:156] Memory required for data: 977814816
I0403 19:37:38.660714  9468 layer_factory.hpp:77] Creating layer inception_4b/pool_proj
I0403 19:37:38.660748  9468 net.cpp:91] Creating Layer inception_4b/pool_proj
I0403 19:37:38.660769  9468 net.cpp:425] inception_4b/pool_proj <- inception_4b/pool
I0403 19:37:38.660792  9468 net.cpp:399] inception_4b/pool_proj -> inception_4b/pool_proj
I0403 19:37:38.662282  9468 net.cpp:141] Setting up inception_4b/pool_proj
I0403 19:37:38.662317  9468 net.cpp:148] Top shape: 24 64 14 14 (301056)
I0403 19:37:38.662336  9468 net.cpp:156] Memory required for data: 979019040
I0403 19:37:38.662359  9468 layer_factory.hpp:77] Creating layer inception_4b/relu_pool_proj
I0403 19:37:38.662381  9468 net.cpp:91] Creating Layer inception_4b/relu_pool_proj
I0403 19:37:38.662401  9468 net.cpp:425] inception_4b/relu_pool_proj <- inception_4b/pool_proj
I0403 19:37:38.662428  9468 net.cpp:386] inception_4b/relu_pool_proj -> inception_4b/pool_proj (in-place)
I0403 19:37:38.662652  9468 net.cpp:141] Setting up inception_4b/relu_pool_proj
I0403 19:37:38.662681  9468 net.cpp:148] Top shape: 24 64 14 14 (301056)
I0403 19:37:38.662700  9468 net.cpp:156] Memory required for data: 980223264
I0403 19:37:38.662719  9468 layer_factory.hpp:77] Creating layer inception_4b/output
I0403 19:37:38.662744  9468 net.cpp:91] Creating Layer inception_4b/output
I0403 19:37:38.662763  9468 net.cpp:425] inception_4b/output <- inception_4b/1x1
I0403 19:37:38.662784  9468 net.cpp:425] inception_4b/output <- inception_4b/3x3
I0403 19:37:38.662806  9468 net.cpp:425] inception_4b/output <- inception_4b/5x5
I0403 19:37:38.662827  9468 net.cpp:425] inception_4b/output <- inception_4b/pool_proj
I0403 19:37:38.662848  9468 net.cpp:399] inception_4b/output -> inception_4b/output
I0403 19:37:38.662907  9468 net.cpp:141] Setting up inception_4b/output
I0403 19:37:38.662936  9468 net.cpp:148] Top shape: 24 512 14 14 (2408448)
I0403 19:37:38.662955  9468 net.cpp:156] Memory required for data: 989857056
I0403 19:37:38.662992  9468 layer_factory.hpp:77] Creating layer inception_4b/output_inception_4b/output_0_split
I0403 19:37:38.663013  9468 net.cpp:91] Creating Layer inception_4b/output_inception_4b/output_0_split
I0403 19:37:38.663033  9468 net.cpp:425] inception_4b/output_inception_4b/output_0_split <- inception_4b/output
I0403 19:37:38.663059  9468 net.cpp:399] inception_4b/output_inception_4b/output_0_split -> inception_4b/output_inception_4b/output_0_split_0
I0403 19:37:38.663086  9468 net.cpp:399] inception_4b/output_inception_4b/output_0_split -> inception_4b/output_inception_4b/output_0_split_1
I0403 19:37:38.663112  9468 net.cpp:399] inception_4b/output_inception_4b/output_0_split -> inception_4b/output_inception_4b/output_0_split_2
I0403 19:37:38.663137  9468 net.cpp:399] inception_4b/output_inception_4b/output_0_split -> inception_4b/output_inception_4b/output_0_split_3
I0403 19:37:38.663249  9468 net.cpp:141] Setting up inception_4b/output_inception_4b/output_0_split
I0403 19:37:38.663282  9468 net.cpp:148] Top shape: 24 512 14 14 (2408448)
I0403 19:37:38.663306  9468 net.cpp:148] Top shape: 24 512 14 14 (2408448)
I0403 19:37:38.663326  9468 net.cpp:148] Top shape: 24 512 14 14 (2408448)
I0403 19:37:38.663347  9468 net.cpp:148] Top shape: 24 512 14 14 (2408448)
I0403 19:37:38.663364  9468 net.cpp:156] Memory required for data: 1028392224
I0403 19:37:38.663383  9468 layer_factory.hpp:77] Creating layer inception_4c/1x1
I0403 19:37:38.663411  9468 net.cpp:91] Creating Layer inception_4c/1x1
I0403 19:37:38.663432  9468 net.cpp:425] inception_4c/1x1 <- inception_4b/output_inception_4b/output_0_split_0
I0403 19:37:38.663456  9468 net.cpp:399] inception_4c/1x1 -> inception_4c/1x1
I0403 19:37:38.665222  9468 net.cpp:141] Setting up inception_4c/1x1
I0403 19:37:38.665257  9468 net.cpp:148] Top shape: 24 128 14 14 (602112)
I0403 19:37:38.665277  9468 net.cpp:156] Memory required for data: 1030800672
I0403 19:37:38.665300  9468 layer_factory.hpp:77] Creating layer inception_4c/relu_1x1
I0403 19:37:38.665326  9468 net.cpp:91] Creating Layer inception_4c/relu_1x1
I0403 19:37:38.665348  9468 net.cpp:425] inception_4c/relu_1x1 <- inception_4c/1x1
I0403 19:37:38.665370  9468 net.cpp:386] inception_4c/relu_1x1 -> inception_4c/1x1 (in-place)
I0403 19:37:38.665601  9468 net.cpp:141] Setting up inception_4c/relu_1x1
I0403 19:37:38.665633  9468 net.cpp:148] Top shape: 24 128 14 14 (602112)
I0403 19:37:38.665652  9468 net.cpp:156] Memory required for data: 1033209120
I0403 19:37:38.665671  9468 layer_factory.hpp:77] Creating layer inception_4c/3x3_reduce
I0403 19:37:38.665699  9468 net.cpp:91] Creating Layer inception_4c/3x3_reduce
I0403 19:37:38.665720  9468 net.cpp:425] inception_4c/3x3_reduce <- inception_4b/output_inception_4b/output_0_split_1
I0403 19:37:38.665745  9468 net.cpp:399] inception_4c/3x3_reduce -> inception_4c/3x3_reduce
I0403 19:37:38.668092  9468 net.cpp:141] Setting up inception_4c/3x3_reduce
I0403 19:37:38.668131  9468 net.cpp:148] Top shape: 24 128 14 14 (602112)
I0403 19:37:38.668153  9468 net.cpp:156] Memory required for data: 1035617568
I0403 19:37:38.668175  9468 layer_factory.hpp:77] Creating layer inception_4c/relu_3x3_reduce
I0403 19:37:38.668207  9468 net.cpp:91] Creating Layer inception_4c/relu_3x3_reduce
I0403 19:37:38.668228  9468 net.cpp:425] inception_4c/relu_3x3_reduce <- inception_4c/3x3_reduce
I0403 19:37:38.668254  9468 net.cpp:386] inception_4c/relu_3x3_reduce -> inception_4c/3x3_reduce (in-place)
I0403 19:37:38.668603  9468 net.cpp:141] Setting up inception_4c/relu_3x3_reduce
I0403 19:37:38.668638  9468 net.cpp:148] Top shape: 24 128 14 14 (602112)
I0403 19:37:38.668658  9468 net.cpp:156] Memory required for data: 1038026016
I0403 19:37:38.668678  9468 layer_factory.hpp:77] Creating layer inception_4c/3x3
I0403 19:37:38.668709  9468 net.cpp:91] Creating Layer inception_4c/3x3
I0403 19:37:38.668731  9468 net.cpp:425] inception_4c/3x3 <- inception_4c/3x3_reduce
I0403 19:37:38.668756  9468 net.cpp:399] inception_4c/3x3 -> inception_4c/3x3
I0403 19:37:38.673158  9468 net.cpp:141] Setting up inception_4c/3x3
I0403 19:37:38.673216  9468 net.cpp:148] Top shape: 24 256 14 14 (1204224)
I0403 19:37:38.673238  9468 net.cpp:156] Memory required for data: 1042842912
I0403 19:37:38.673276  9468 layer_factory.hpp:77] Creating layer inception_4c/relu_3x3
I0403 19:37:38.673302  9468 net.cpp:91] Creating Layer inception_4c/relu_3x3
I0403 19:37:38.673322  9468 net.cpp:425] inception_4c/relu_3x3 <- inception_4c/3x3
I0403 19:37:38.673347  9468 net.cpp:386] inception_4c/relu_3x3 -> inception_4c/3x3 (in-place)
I0403 19:37:38.673575  9468 net.cpp:141] Setting up inception_4c/relu_3x3
I0403 19:37:38.673606  9468 net.cpp:148] Top shape: 24 256 14 14 (1204224)
I0403 19:37:38.673625  9468 net.cpp:156] Memory required for data: 1047659808
I0403 19:37:38.673645  9468 layer_factory.hpp:77] Creating layer inception_4c/5x5_reduce
I0403 19:37:38.673673  9468 net.cpp:91] Creating Layer inception_4c/5x5_reduce
I0403 19:37:38.673696  9468 net.cpp:425] inception_4c/5x5_reduce <- inception_4b/output_inception_4b/output_0_split_2
I0403 19:37:38.673722  9468 net.cpp:399] inception_4c/5x5_reduce -> inception_4c/5x5_reduce
I0403 19:37:38.675061  9468 net.cpp:141] Setting up inception_4c/5x5_reduce
I0403 19:37:38.675099  9468 net.cpp:148] Top shape: 24 24 14 14 (112896)
I0403 19:37:38.675122  9468 net.cpp:156] Memory required for data: 1048111392
I0403 19:37:38.675153  9468 layer_factory.hpp:77] Creating layer inception_4c/relu_5x5_reduce
I0403 19:37:38.675184  9468 net.cpp:91] Creating Layer inception_4c/relu_5x5_reduce
I0403 19:37:38.675207  9468 net.cpp:425] inception_4c/relu_5x5_reduce <- inception_4c/5x5_reduce
I0403 19:37:38.675233  9468 net.cpp:386] inception_4c/relu_5x5_reduce -> inception_4c/5x5_reduce (in-place)
I0403 19:37:38.675467  9468 net.cpp:141] Setting up inception_4c/relu_5x5_reduce
I0403 19:37:38.675498  9468 net.cpp:148] Top shape: 24 24 14 14 (112896)
I0403 19:37:38.675516  9468 net.cpp:156] Memory required for data: 1048562976
I0403 19:37:38.675534  9468 layer_factory.hpp:77] Creating layer inception_4c/5x5
I0403 19:37:38.675562  9468 net.cpp:91] Creating Layer inception_4c/5x5
I0403 19:37:38.675585  9468 net.cpp:425] inception_4c/5x5 <- inception_4c/5x5_reduce
I0403 19:37:38.675612  9468 net.cpp:399] inception_4c/5x5 -> inception_4c/5x5
I0403 19:37:38.677368  9468 net.cpp:141] Setting up inception_4c/5x5
I0403 19:37:38.677404  9468 net.cpp:148] Top shape: 24 64 14 14 (301056)
I0403 19:37:38.677424  9468 net.cpp:156] Memory required for data: 1049767200
I0403 19:37:38.677448  9468 layer_factory.hpp:77] Creating layer inception_4c/relu_5x5
I0403 19:37:38.677474  9468 net.cpp:91] Creating Layer inception_4c/relu_5x5
I0403 19:37:38.677496  9468 net.cpp:425] inception_4c/relu_5x5 <- inception_4c/5x5
I0403 19:37:38.677520  9468 net.cpp:386] inception_4c/relu_5x5 -> inception_4c/5x5 (in-place)
I0403 19:37:38.677870  9468 net.cpp:141] Setting up inception_4c/relu_5x5
I0403 19:37:38.677903  9468 net.cpp:148] Top shape: 24 64 14 14 (301056)
I0403 19:37:38.677922  9468 net.cpp:156] Memory required for data: 1050971424
I0403 19:37:38.677942  9468 layer_factory.hpp:77] Creating layer inception_4c/pool
I0403 19:37:38.677968  9468 net.cpp:91] Creating Layer inception_4c/pool
I0403 19:37:38.677989  9468 net.cpp:425] inception_4c/pool <- inception_4b/output_inception_4b/output_0_split_3
I0403 19:37:38.678010  9468 net.cpp:399] inception_4c/pool -> inception_4c/pool
I0403 19:37:38.678093  9468 net.cpp:141] Setting up inception_4c/pool
I0403 19:37:38.678123  9468 net.cpp:148] Top shape: 24 512 14 14 (2408448)
I0403 19:37:38.678143  9468 net.cpp:156] Memory required for data: 1060605216
I0403 19:37:38.678160  9468 layer_factory.hpp:77] Creating layer inception_4c/pool_proj
I0403 19:37:38.678205  9468 net.cpp:91] Creating Layer inception_4c/pool_proj
I0403 19:37:38.678228  9468 net.cpp:425] inception_4c/pool_proj <- inception_4c/pool
I0403 19:37:38.678254  9468 net.cpp:399] inception_4c/pool_proj -> inception_4c/pool_proj
I0403 19:37:38.679760  9468 net.cpp:141] Setting up inception_4c/pool_proj
I0403 19:37:38.679795  9468 net.cpp:148] Top shape: 24 64 14 14 (301056)
I0403 19:37:38.679832  9468 net.cpp:156] Memory required for data: 1061809440
I0403 19:37:38.679857  9468 layer_factory.hpp:77] Creating layer inception_4c/relu_pool_proj
I0403 19:37:38.679880  9468 net.cpp:91] Creating Layer inception_4c/relu_pool_proj
I0403 19:37:38.679900  9468 net.cpp:425] inception_4c/relu_pool_proj <- inception_4c/pool_proj
I0403 19:37:38.679925  9468 net.cpp:386] inception_4c/relu_pool_proj -> inception_4c/pool_proj (in-place)
I0403 19:37:38.680157  9468 net.cpp:141] Setting up inception_4c/relu_pool_proj
I0403 19:37:38.680196  9468 net.cpp:148] Top shape: 24 64 14 14 (301056)
I0403 19:37:38.680217  9468 net.cpp:156] Memory required for data: 1063013664
I0403 19:37:38.680236  9468 layer_factory.hpp:77] Creating layer inception_4c/output
I0403 19:37:38.680261  9468 net.cpp:91] Creating Layer inception_4c/output
I0403 19:37:38.680284  9468 net.cpp:425] inception_4c/output <- inception_4c/1x1
I0403 19:37:38.680305  9468 net.cpp:425] inception_4c/output <- inception_4c/3x3
I0403 19:37:38.680325  9468 net.cpp:425] inception_4c/output <- inception_4c/5x5
I0403 19:37:38.680346  9468 net.cpp:425] inception_4c/output <- inception_4c/pool_proj
I0403 19:37:38.680367  9468 net.cpp:399] inception_4c/output -> inception_4c/output
I0403 19:37:38.680423  9468 net.cpp:141] Setting up inception_4c/output
I0403 19:37:38.680455  9468 net.cpp:148] Top shape: 24 512 14 14 (2408448)
I0403 19:37:38.680476  9468 net.cpp:156] Memory required for data: 1072647456
I0403 19:37:38.680495  9468 layer_factory.hpp:77] Creating layer inception_4c/output_inception_4c/output_0_split
I0403 19:37:38.680517  9468 net.cpp:91] Creating Layer inception_4c/output_inception_4c/output_0_split
I0403 19:37:38.680537  9468 net.cpp:425] inception_4c/output_inception_4c/output_0_split <- inception_4c/output
I0403 19:37:38.680562  9468 net.cpp:399] inception_4c/output_inception_4c/output_0_split -> inception_4c/output_inception_4c/output_0_split_0
I0403 19:37:38.680588  9468 net.cpp:399] inception_4c/output_inception_4c/output_0_split -> inception_4c/output_inception_4c/output_0_split_1
I0403 19:37:38.680614  9468 net.cpp:399] inception_4c/output_inception_4c/output_0_split -> inception_4c/output_inception_4c/output_0_split_2
I0403 19:37:38.680640  9468 net.cpp:399] inception_4c/output_inception_4c/output_0_split -> inception_4c/output_inception_4c/output_0_split_3
I0403 19:37:38.680744  9468 net.cpp:141] Setting up inception_4c/output_inception_4c/output_0_split
I0403 19:37:38.680778  9468 net.cpp:148] Top shape: 24 512 14 14 (2408448)
I0403 19:37:38.680800  9468 net.cpp:148] Top shape: 24 512 14 14 (2408448)
I0403 19:37:38.680820  9468 net.cpp:148] Top shape: 24 512 14 14 (2408448)
I0403 19:37:38.680840  9468 net.cpp:148] Top shape: 24 512 14 14 (2408448)
I0403 19:37:38.680858  9468 net.cpp:156] Memory required for data: 1111182624
I0403 19:37:38.680877  9468 layer_factory.hpp:77] Creating layer inception_4d/1x1
I0403 19:37:38.680904  9468 net.cpp:91] Creating Layer inception_4d/1x1
I0403 19:37:38.680927  9468 net.cpp:425] inception_4d/1x1 <- inception_4c/output_inception_4c/output_0_split_0
I0403 19:37:38.680949  9468 net.cpp:399] inception_4d/1x1 -> inception_4d/1x1
I0403 19:37:38.682674  9468 net.cpp:141] Setting up inception_4d/1x1
I0403 19:37:38.682713  9468 net.cpp:148] Top shape: 24 112 14 14 (526848)
I0403 19:37:38.682734  9468 net.cpp:156] Memory required for data: 1113290016
I0403 19:37:38.682757  9468 layer_factory.hpp:77] Creating layer inception_4d/relu_1x1
I0403 19:37:38.682780  9468 net.cpp:91] Creating Layer inception_4d/relu_1x1
I0403 19:37:38.682801  9468 net.cpp:425] inception_4d/relu_1x1 <- inception_4d/1x1
I0403 19:37:38.682821  9468 net.cpp:386] inception_4d/relu_1x1 -> inception_4d/1x1 (in-place)
I0403 19:37:38.683051  9468 net.cpp:141] Setting up inception_4d/relu_1x1
I0403 19:37:38.683084  9468 net.cpp:148] Top shape: 24 112 14 14 (526848)
I0403 19:37:38.683104  9468 net.cpp:156] Memory required for data: 1115397408
I0403 19:37:38.683125  9468 layer_factory.hpp:77] Creating layer inception_4d/3x3_reduce
I0403 19:37:38.683167  9468 net.cpp:91] Creating Layer inception_4d/3x3_reduce
I0403 19:37:38.683199  9468 net.cpp:425] inception_4d/3x3_reduce <- inception_4c/output_inception_4c/output_0_split_1
I0403 19:37:38.683228  9468 net.cpp:399] inception_4d/3x3_reduce -> inception_4d/3x3_reduce
I0403 19:37:38.685096  9468 net.cpp:141] Setting up inception_4d/3x3_reduce
I0403 19:37:38.685132  9468 net.cpp:148] Top shape: 24 144 14 14 (677376)
I0403 19:37:38.685151  9468 net.cpp:156] Memory required for data: 1118106912
I0403 19:37:38.685174  9468 layer_factory.hpp:77] Creating layer inception_4d/relu_3x3_reduce
I0403 19:37:38.685210  9468 net.cpp:91] Creating Layer inception_4d/relu_3x3_reduce
I0403 19:37:38.685232  9468 net.cpp:425] inception_4d/relu_3x3_reduce <- inception_4d/3x3_reduce
I0403 19:37:38.685256  9468 net.cpp:386] inception_4d/relu_3x3_reduce -> inception_4d/3x3_reduce (in-place)
I0403 19:37:38.685617  9468 net.cpp:141] Setting up inception_4d/relu_3x3_reduce
I0403 19:37:38.685650  9468 net.cpp:148] Top shape: 24 144 14 14 (677376)
I0403 19:37:38.685669  9468 net.cpp:156] Memory required for data: 1120816416
I0403 19:37:38.685688  9468 layer_factory.hpp:77] Creating layer inception_4d/3x3
I0403 19:37:38.685715  9468 net.cpp:91] Creating Layer inception_4d/3x3
I0403 19:37:38.685739  9468 net.cpp:425] inception_4d/3x3 <- inception_4d/3x3_reduce
I0403 19:37:38.685765  9468 net.cpp:399] inception_4d/3x3 -> inception_4d/3x3
I0403 19:37:38.691007  9468 net.cpp:141] Setting up inception_4d/3x3
I0403 19:37:38.691048  9468 net.cpp:148] Top shape: 24 288 14 14 (1354752)
I0403 19:37:38.691069  9468 net.cpp:156] Memory required for data: 1126235424
I0403 19:37:38.691092  9468 layer_factory.hpp:77] Creating layer inception_4d/relu_3x3
I0403 19:37:38.691115  9468 net.cpp:91] Creating Layer inception_4d/relu_3x3
I0403 19:37:38.691136  9468 net.cpp:425] inception_4d/relu_3x3 <- inception_4d/3x3
I0403 19:37:38.691161  9468 net.cpp:386] inception_4d/relu_3x3 -> inception_4d/3x3 (in-place)
I0403 19:37:38.691396  9468 net.cpp:141] Setting up inception_4d/relu_3x3
I0403 19:37:38.691428  9468 net.cpp:148] Top shape: 24 288 14 14 (1354752)
I0403 19:37:38.691447  9468 net.cpp:156] Memory required for data: 1131654432
I0403 19:37:38.691465  9468 layer_factory.hpp:77] Creating layer inception_4d/5x5_reduce
I0403 19:37:38.691493  9468 net.cpp:91] Creating Layer inception_4d/5x5_reduce
I0403 19:37:38.691515  9468 net.cpp:425] inception_4d/5x5_reduce <- inception_4c/output_inception_4c/output_0_split_2
I0403 19:37:38.691543  9468 net.cpp:399] inception_4d/5x5_reduce -> inception_4d/5x5_reduce
I0403 19:37:38.692960  9468 net.cpp:141] Setting up inception_4d/5x5_reduce
I0403 19:37:38.692998  9468 net.cpp:148] Top shape: 24 32 14 14 (150528)
I0403 19:37:38.693019  9468 net.cpp:156] Memory required for data: 1132256544
I0403 19:37:38.693042  9468 layer_factory.hpp:77] Creating layer inception_4d/relu_5x5_reduce
I0403 19:37:38.693065  9468 net.cpp:91] Creating Layer inception_4d/relu_5x5_reduce
I0403 19:37:38.693085  9468 net.cpp:425] inception_4d/relu_5x5_reduce <- inception_4d/5x5_reduce
I0403 19:37:38.693107  9468 net.cpp:386] inception_4d/relu_5x5_reduce -> inception_4d/5x5_reduce (in-place)
I0403 19:37:38.693353  9468 net.cpp:141] Setting up inception_4d/relu_5x5_reduce
I0403 19:37:38.693384  9468 net.cpp:148] Top shape: 24 32 14 14 (150528)
I0403 19:37:38.693403  9468 net.cpp:156] Memory required for data: 1132858656
I0403 19:37:38.693421  9468 layer_factory.hpp:77] Creating layer inception_4d/5x5
I0403 19:37:38.693449  9468 net.cpp:91] Creating Layer inception_4d/5x5
I0403 19:37:38.693471  9468 net.cpp:425] inception_4d/5x5 <- inception_4d/5x5_reduce
I0403 19:37:38.693500  9468 net.cpp:399] inception_4d/5x5 -> inception_4d/5x5
I0403 19:37:38.695305  9468 net.cpp:141] Setting up inception_4d/5x5
I0403 19:37:38.695339  9468 net.cpp:148] Top shape: 24 64 14 14 (301056)
I0403 19:37:38.695359  9468 net.cpp:156] Memory required for data: 1134062880
I0403 19:37:38.695384  9468 layer_factory.hpp:77] Creating layer inception_4d/relu_5x5
I0403 19:37:38.695428  9468 net.cpp:91] Creating Layer inception_4d/relu_5x5
I0403 19:37:38.695451  9468 net.cpp:425] inception_4d/relu_5x5 <- inception_4d/5x5
I0403 19:37:38.695472  9468 net.cpp:386] inception_4d/relu_5x5 -> inception_4d/5x5 (in-place)
I0403 19:37:38.695840  9468 net.cpp:141] Setting up inception_4d/relu_5x5
I0403 19:37:38.695873  9468 net.cpp:148] Top shape: 24 64 14 14 (301056)
I0403 19:37:38.695894  9468 net.cpp:156] Memory required for data: 1135267104
I0403 19:37:38.695912  9468 layer_factory.hpp:77] Creating layer inception_4d/pool
I0403 19:37:38.695935  9468 net.cpp:91] Creating Layer inception_4d/pool
I0403 19:37:38.695955  9468 net.cpp:425] inception_4d/pool <- inception_4c/output_inception_4c/output_0_split_3
I0403 19:37:38.695981  9468 net.cpp:399] inception_4d/pool -> inception_4d/pool
I0403 19:37:38.696064  9468 net.cpp:141] Setting up inception_4d/pool
I0403 19:37:38.696094  9468 net.cpp:148] Top shape: 24 512 14 14 (2408448)
I0403 19:37:38.696113  9468 net.cpp:156] Memory required for data: 1144900896
I0403 19:37:38.696132  9468 layer_factory.hpp:77] Creating layer inception_4d/pool_proj
I0403 19:37:38.696159  9468 net.cpp:91] Creating Layer inception_4d/pool_proj
I0403 19:37:38.696192  9468 net.cpp:425] inception_4d/pool_proj <- inception_4d/pool
I0403 19:37:38.696221  9468 net.cpp:399] inception_4d/pool_proj -> inception_4d/pool_proj
I0403 19:37:38.698388  9468 net.cpp:141] Setting up inception_4d/pool_proj
I0403 19:37:38.698427  9468 net.cpp:148] Top shape: 24 64 14 14 (301056)
I0403 19:37:38.698449  9468 net.cpp:156] Memory required for data: 1146105120
I0403 19:37:38.698473  9468 layer_factory.hpp:77] Creating layer inception_4d/relu_pool_proj
I0403 19:37:38.698496  9468 net.cpp:91] Creating Layer inception_4d/relu_pool_proj
I0403 19:37:38.698518  9468 net.cpp:425] inception_4d/relu_pool_proj <- inception_4d/pool_proj
I0403 19:37:38.698542  9468 net.cpp:386] inception_4d/relu_pool_proj -> inception_4d/pool_proj (in-place)
I0403 19:37:38.698777  9468 net.cpp:141] Setting up inception_4d/relu_pool_proj
I0403 19:37:38.698809  9468 net.cpp:148] Top shape: 24 64 14 14 (301056)
I0403 19:37:38.698827  9468 net.cpp:156] Memory required for data: 1147309344
I0403 19:37:38.698845  9468 layer_factory.hpp:77] Creating layer inception_4d/output
I0403 19:37:38.698868  9468 net.cpp:91] Creating Layer inception_4d/output
I0403 19:37:38.698887  9468 net.cpp:425] inception_4d/output <- inception_4d/1x1
I0403 19:37:38.698909  9468 net.cpp:425] inception_4d/output <- inception_4d/3x3
I0403 19:37:38.698931  9468 net.cpp:425] inception_4d/output <- inception_4d/5x5
I0403 19:37:38.698952  9468 net.cpp:425] inception_4d/output <- inception_4d/pool_proj
I0403 19:37:38.698976  9468 net.cpp:399] inception_4d/output -> inception_4d/output
I0403 19:37:38.699035  9468 net.cpp:141] Setting up inception_4d/output
I0403 19:37:38.699067  9468 net.cpp:148] Top shape: 24 528 14 14 (2483712)
I0403 19:37:38.699087  9468 net.cpp:156] Memory required for data: 1157244192
I0403 19:37:38.699106  9468 layer_factory.hpp:77] Creating layer inception_4d/output_inception_4d/output_0_split
I0403 19:37:38.699129  9468 net.cpp:91] Creating Layer inception_4d/output_inception_4d/output_0_split
I0403 19:37:38.699148  9468 net.cpp:425] inception_4d/output_inception_4d/output_0_split <- inception_4d/output
I0403 19:37:38.699170  9468 net.cpp:399] inception_4d/output_inception_4d/output_0_split -> inception_4d/output_inception_4d/output_0_split_0
I0403 19:37:38.699208  9468 net.cpp:399] inception_4d/output_inception_4d/output_0_split -> inception_4d/output_inception_4d/output_0_split_1
I0403 19:37:38.699237  9468 net.cpp:399] inception_4d/output_inception_4d/output_0_split -> inception_4d/output_inception_4d/output_0_split_2
I0403 19:37:38.699265  9468 net.cpp:399] inception_4d/output_inception_4d/output_0_split -> inception_4d/output_inception_4d/output_0_split_3
I0403 19:37:38.699291  9468 net.cpp:399] inception_4d/output_inception_4d/output_0_split -> inception_4d/output_inception_4d/output_0_split_4
I0403 19:37:38.699420  9468 net.cpp:141] Setting up inception_4d/output_inception_4d/output_0_split
I0403 19:37:38.699463  9468 net.cpp:148] Top shape: 24 528 14 14 (2483712)
I0403 19:37:38.699487  9468 net.cpp:148] Top shape: 24 528 14 14 (2483712)
I0403 19:37:38.699509  9468 net.cpp:148] Top shape: 24 528 14 14 (2483712)
I0403 19:37:38.699529  9468 net.cpp:148] Top shape: 24 528 14 14 (2483712)
I0403 19:37:38.699550  9468 net.cpp:148] Top shape: 24 528 14 14 (2483712)
I0403 19:37:38.699568  9468 net.cpp:156] Memory required for data: 1206918432
I0403 19:37:38.699586  9468 layer_factory.hpp:77] Creating layer loss2/ave_pool
I0403 19:37:38.699609  9468 net.cpp:91] Creating Layer loss2/ave_pool
I0403 19:37:38.699630  9468 net.cpp:425] loss2/ave_pool <- inception_4d/output_inception_4d/output_0_split_0
I0403 19:37:38.699653  9468 net.cpp:399] loss2/ave_pool -> loss2/ave_pool
I0403 19:37:38.700042  9468 net.cpp:141] Setting up loss2/ave_pool
I0403 19:37:38.700079  9468 net.cpp:148] Top shape: 24 528 4 4 (202752)
I0403 19:37:38.700100  9468 net.cpp:156] Memory required for data: 1207729440
I0403 19:37:38.700119  9468 layer_factory.hpp:77] Creating layer loss2/conv
I0403 19:37:38.700147  9468 net.cpp:91] Creating Layer loss2/conv
I0403 19:37:38.700170  9468 net.cpp:425] loss2/conv <- loss2/ave_pool
I0403 19:37:38.700203  9468 net.cpp:399] loss2/conv -> loss2/conv
I0403 19:37:38.702519  9468 net.cpp:141] Setting up loss2/conv
I0403 19:37:38.702555  9468 net.cpp:148] Top shape: 24 128 4 4 (49152)
I0403 19:37:38.702575  9468 net.cpp:156] Memory required for data: 1207926048
I0403 19:37:38.702599  9468 layer_factory.hpp:77] Creating layer loss2/relu_conv
I0403 19:37:38.702621  9468 net.cpp:91] Creating Layer loss2/relu_conv
I0403 19:37:38.702641  9468 net.cpp:425] loss2/relu_conv <- loss2/conv
I0403 19:37:38.702667  9468 net.cpp:386] loss2/relu_conv -> loss2/conv (in-place)
I0403 19:37:38.703016  9468 net.cpp:141] Setting up loss2/relu_conv
I0403 19:37:38.703049  9468 net.cpp:148] Top shape: 24 128 4 4 (49152)
I0403 19:37:38.703068  9468 net.cpp:156] Memory required for data: 1208122656
I0403 19:37:38.703086  9468 layer_factory.hpp:77] Creating layer loss2/fc
I0403 19:37:38.703111  9468 net.cpp:91] Creating Layer loss2/fc
I0403 19:37:38.703131  9468 net.cpp:425] loss2/fc <- loss2/conv
I0403 19:37:38.703158  9468 net.cpp:399] loss2/fc -> loss2/fc
I0403 19:37:38.724968  9468 net.cpp:141] Setting up loss2/fc
I0403 19:37:38.725015  9468 net.cpp:148] Top shape: 24 1024 (24576)
I0403 19:37:38.725034  9468 net.cpp:156] Memory required for data: 1208220960
I0403 19:37:38.725059  9468 layer_factory.hpp:77] Creating layer loss2/relu_fc
I0403 19:37:38.725080  9468 net.cpp:91] Creating Layer loss2/relu_fc
I0403 19:37:38.725101  9468 net.cpp:425] loss2/relu_fc <- loss2/fc
I0403 19:37:38.725122  9468 net.cpp:386] loss2/relu_fc -> loss2/fc (in-place)
I0403 19:37:38.725503  9468 net.cpp:141] Setting up loss2/relu_fc
I0403 19:37:38.725536  9468 net.cpp:148] Top shape: 24 1024 (24576)
I0403 19:37:38.725556  9468 net.cpp:156] Memory required for data: 1208319264
I0403 19:37:38.725575  9468 layer_factory.hpp:77] Creating layer loss2/drop_fc
I0403 19:37:38.725600  9468 net.cpp:91] Creating Layer loss2/drop_fc
I0403 19:37:38.725620  9468 net.cpp:425] loss2/drop_fc <- loss2/fc
I0403 19:37:38.725643  9468 net.cpp:386] loss2/drop_fc -> loss2/fc (in-place)
I0403 19:37:38.725705  9468 net.cpp:141] Setting up loss2/drop_fc
I0403 19:37:38.725733  9468 net.cpp:148] Top shape: 24 1024 (24576)
I0403 19:37:38.725752  9468 net.cpp:156] Memory required for data: 1208417568
I0403 19:37:38.725771  9468 layer_factory.hpp:77] Creating layer loss2/classifier_plantvillage
I0403 19:37:38.725798  9468 net.cpp:91] Creating Layer loss2/classifier_plantvillage
I0403 19:37:38.725819  9468 net.cpp:425] loss2/classifier_plantvillage <- loss2/fc
I0403 19:37:38.725847  9468 net.cpp:399] loss2/classifier_plantvillage -> loss2/classifier_plantvillage
I0403 19:37:38.726356  9468 net.cpp:141] Setting up loss2/classifier_plantvillage
I0403 19:37:38.726388  9468 net.cpp:148] Top shape: 24 38 (912)
I0403 19:37:38.726425  9468 net.cpp:156] Memory required for data: 1208421216
I0403 19:37:38.726450  9468 layer_factory.hpp:77] Creating layer loss2/classifier_plantvillage_loss2/classifier_plantvillage_0_split
I0403 19:37:38.726474  9468 net.cpp:91] Creating Layer loss2/classifier_plantvillage_loss2/classifier_plantvillage_0_split
I0403 19:37:38.726495  9468 net.cpp:425] loss2/classifier_plantvillage_loss2/classifier_plantvillage_0_split <- loss2/classifier_plantvillage
I0403 19:37:38.726519  9468 net.cpp:399] loss2/classifier_plantvillage_loss2/classifier_plantvillage_0_split -> loss2/classifier_plantvillage_loss2/classifier_plantvillage_0_split_0
I0403 19:37:38.726547  9468 net.cpp:399] loss2/classifier_plantvillage_loss2/classifier_plantvillage_0_split -> loss2/classifier_plantvillage_loss2/classifier_plantvillage_0_split_1
I0403 19:37:38.726572  9468 net.cpp:399] loss2/classifier_plantvillage_loss2/classifier_plantvillage_0_split -> loss2/classifier_plantvillage_loss2/classifier_plantvillage_0_split_2
I0403 19:37:38.726671  9468 net.cpp:141] Setting up loss2/classifier_plantvillage_loss2/classifier_plantvillage_0_split
I0403 19:37:38.726701  9468 net.cpp:148] Top shape: 24 38 (912)
I0403 19:37:38.726721  9468 net.cpp:148] Top shape: 24 38 (912)
I0403 19:37:38.726740  9468 net.cpp:148] Top shape: 24 38 (912)
I0403 19:37:38.726758  9468 net.cpp:156] Memory required for data: 1208432160
I0403 19:37:38.726778  9468 layer_factory.hpp:77] Creating layer inception_4e/1x1
I0403 19:37:38.726805  9468 net.cpp:91] Creating Layer inception_4e/1x1
I0403 19:37:38.726827  9468 net.cpp:425] inception_4e/1x1 <- inception_4d/output_inception_4d/output_0_split_1
I0403 19:37:38.726852  9468 net.cpp:399] inception_4e/1x1 -> inception_4e/1x1
I0403 19:37:38.729113  9468 net.cpp:141] Setting up inception_4e/1x1
I0403 19:37:38.729149  9468 net.cpp:148] Top shape: 24 256 14 14 (1204224)
I0403 19:37:38.729169  9468 net.cpp:156] Memory required for data: 1213249056
I0403 19:37:38.729200  9468 layer_factory.hpp:77] Creating layer inception_4e/relu_1x1
I0403 19:37:38.729228  9468 net.cpp:91] Creating Layer inception_4e/relu_1x1
I0403 19:37:38.729249  9468 net.cpp:425] inception_4e/relu_1x1 <- inception_4e/1x1
I0403 19:37:38.729279  9468 net.cpp:386] inception_4e/relu_1x1 -> inception_4e/1x1 (in-place)
I0403 19:37:38.729645  9468 net.cpp:141] Setting up inception_4e/relu_1x1
I0403 19:37:38.729677  9468 net.cpp:148] Top shape: 24 256 14 14 (1204224)
I0403 19:37:38.729696  9468 net.cpp:156] Memory required for data: 1218065952
I0403 19:37:38.729715  9468 layer_factory.hpp:77] Creating layer inception_4e/3x3_reduce
I0403 19:37:38.729743  9468 net.cpp:91] Creating Layer inception_4e/3x3_reduce
I0403 19:37:38.729765  9468 net.cpp:425] inception_4e/3x3_reduce <- inception_4d/output_inception_4d/output_0_split_2
I0403 19:37:38.729794  9468 net.cpp:399] inception_4e/3x3_reduce -> inception_4e/3x3_reduce
I0403 19:37:38.732403  9468 net.cpp:141] Setting up inception_4e/3x3_reduce
I0403 19:37:38.732439  9468 net.cpp:148] Top shape: 24 160 14 14 (752640)
I0403 19:37:38.732460  9468 net.cpp:156] Memory required for data: 1221076512
I0403 19:37:38.732483  9468 layer_factory.hpp:77] Creating layer inception_4e/relu_3x3_reduce
I0403 19:37:38.732511  9468 net.cpp:91] Creating Layer inception_4e/relu_3x3_reduce
I0403 19:37:38.732532  9468 net.cpp:425] inception_4e/relu_3x3_reduce <- inception_4e/3x3_reduce
I0403 19:37:38.732558  9468 net.cpp:386] inception_4e/relu_3x3_reduce -> inception_4e/3x3_reduce (in-place)
I0403 19:37:38.732794  9468 net.cpp:141] Setting up inception_4e/relu_3x3_reduce
I0403 19:37:38.732825  9468 net.cpp:148] Top shape: 24 160 14 14 (752640)
I0403 19:37:38.732843  9468 net.cpp:156] Memory required for data: 1224087072
I0403 19:37:38.732862  9468 layer_factory.hpp:77] Creating layer inception_4e/3x3
I0403 19:37:38.732890  9468 net.cpp:91] Creating Layer inception_4e/3x3
I0403 19:37:38.732913  9468 net.cpp:425] inception_4e/3x3 <- inception_4e/3x3_reduce
I0403 19:37:38.732939  9468 net.cpp:399] inception_4e/3x3 -> inception_4e/3x3
I0403 19:37:38.739265  9468 net.cpp:141] Setting up inception_4e/3x3
I0403 19:37:38.739317  9468 net.cpp:148] Top shape: 24 320 14 14 (1505280)
I0403 19:37:38.739338  9468 net.cpp:156] Memory required for data: 1230108192
I0403 19:37:38.739362  9468 layer_factory.hpp:77] Creating layer inception_4e/relu_3x3
I0403 19:37:38.739388  9468 net.cpp:91] Creating Layer inception_4e/relu_3x3
I0403 19:37:38.739410  9468 net.cpp:425] inception_4e/relu_3x3 <- inception_4e/3x3
I0403 19:37:38.739433  9468 net.cpp:386] inception_4e/relu_3x3 -> inception_4e/3x3 (in-place)
I0403 19:37:38.739804  9468 net.cpp:141] Setting up inception_4e/relu_3x3
I0403 19:37:38.739840  9468 net.cpp:148] Top shape: 24 320 14 14 (1505280)
I0403 19:37:38.739861  9468 net.cpp:156] Memory required for data: 1236129312
I0403 19:37:38.739881  9468 layer_factory.hpp:77] Creating layer inception_4e/5x5_reduce
I0403 19:37:38.739910  9468 net.cpp:91] Creating Layer inception_4e/5x5_reduce
I0403 19:37:38.739938  9468 net.cpp:425] inception_4e/5x5_reduce <- inception_4d/output_inception_4d/output_0_split_3
I0403 19:37:38.739964  9468 net.cpp:399] inception_4e/5x5_reduce -> inception_4e/5x5_reduce
I0403 19:37:38.741327  9468 net.cpp:141] Setting up inception_4e/5x5_reduce
I0403 19:37:38.741364  9468 net.cpp:148] Top shape: 24 32 14 14 (150528)
I0403 19:37:38.741384  9468 net.cpp:156] Memory required for data: 1236731424
I0403 19:37:38.741408  9468 layer_factory.hpp:77] Creating layer inception_4e/relu_5x5_reduce
I0403 19:37:38.741435  9468 net.cpp:91] Creating Layer inception_4e/relu_5x5_reduce
I0403 19:37:38.741459  9468 net.cpp:425] inception_4e/relu_5x5_reduce <- inception_4e/5x5_reduce
I0403 19:37:38.741482  9468 net.cpp:386] inception_4e/relu_5x5_reduce -> inception_4e/5x5_reduce (in-place)
I0403 19:37:38.741844  9468 net.cpp:141] Setting up inception_4e/relu_5x5_reduce
I0403 19:37:38.741879  9468 net.cpp:148] Top shape: 24 32 14 14 (150528)
I0403 19:37:38.741907  9468 net.cpp:156] Memory required for data: 1237333536
I0403 19:37:38.741927  9468 layer_factory.hpp:77] Creating layer inception_4e/5x5
I0403 19:37:38.741982  9468 net.cpp:91] Creating Layer inception_4e/5x5
I0403 19:37:38.742010  9468 net.cpp:425] inception_4e/5x5 <- inception_4e/5x5_reduce
I0403 19:37:38.742043  9468 net.cpp:399] inception_4e/5x5 -> inception_4e/5x5
I0403 19:37:38.744364  9468 net.cpp:141] Setting up inception_4e/5x5
I0403 19:37:38.744408  9468 net.cpp:148] Top shape: 24 128 14 14 (602112)
I0403 19:37:38.744431  9468 net.cpp:156] Memory required for data: 1239741984
I0403 19:37:38.744456  9468 layer_factory.hpp:77] Creating layer inception_4e/relu_5x5
I0403 19:37:38.744482  9468 net.cpp:91] Creating Layer inception_4e/relu_5x5
I0403 19:37:38.744508  9468 net.cpp:425] inception_4e/relu_5x5 <- inception_4e/5x5
I0403 19:37:38.744541  9468 net.cpp:386] inception_4e/relu_5x5 -> inception_4e/5x5 (in-place)
I0403 19:37:38.744794  9468 net.cpp:141] Setting up inception_4e/relu_5x5
I0403 19:37:38.744829  9468 net.cpp:148] Top shape: 24 128 14 14 (602112)
I0403 19:37:38.744850  9468 net.cpp:156] Memory required for data: 1242150432
I0403 19:37:38.744870  9468 layer_factory.hpp:77] Creating layer inception_4e/pool
I0403 19:37:38.744902  9468 net.cpp:91] Creating Layer inception_4e/pool
I0403 19:37:38.744933  9468 net.cpp:425] inception_4e/pool <- inception_4d/output_inception_4d/output_0_split_4
I0403 19:37:38.744971  9468 net.cpp:399] inception_4e/pool -> inception_4e/pool
I0403 19:37:38.745060  9468 net.cpp:141] Setting up inception_4e/pool
I0403 19:37:38.745095  9468 net.cpp:148] Top shape: 24 528 14 14 (2483712)
I0403 19:37:38.745118  9468 net.cpp:156] Memory required for data: 1252085280
I0403 19:37:38.745142  9468 layer_factory.hpp:77] Creating layer inception_4e/pool_proj
I0403 19:37:38.745185  9468 net.cpp:91] Creating Layer inception_4e/pool_proj
I0403 19:37:38.745213  9468 net.cpp:425] inception_4e/pool_proj <- inception_4e/pool
I0403 19:37:38.745237  9468 net.cpp:399] inception_4e/pool_proj -> inception_4e/pool_proj
I0403 19:37:38.747112  9468 net.cpp:141] Setting up inception_4e/pool_proj
I0403 19:37:38.747164  9468 net.cpp:148] Top shape: 24 128 14 14 (602112)
I0403 19:37:38.747195  9468 net.cpp:156] Memory required for data: 1254493728
I0403 19:37:38.747226  9468 layer_factory.hpp:77] Creating layer inception_4e/relu_pool_proj
I0403 19:37:38.747258  9468 net.cpp:91] Creating Layer inception_4e/relu_pool_proj
I0403 19:37:38.747284  9468 net.cpp:425] inception_4e/relu_pool_proj <- inception_4e/pool_proj
I0403 19:37:38.747310  9468 net.cpp:386] inception_4e/relu_pool_proj -> inception_4e/pool_proj (in-place)
I0403 19:37:38.747666  9468 net.cpp:141] Setting up inception_4e/relu_pool_proj
I0403 19:37:38.747701  9468 net.cpp:148] Top shape: 24 128 14 14 (602112)
I0403 19:37:38.747722  9468 net.cpp:156] Memory required for data: 1256902176
I0403 19:37:38.747741  9468 layer_factory.hpp:77] Creating layer inception_4e/output
I0403 19:37:38.747764  9468 net.cpp:91] Creating Layer inception_4e/output
I0403 19:37:38.747783  9468 net.cpp:425] inception_4e/output <- inception_4e/1x1
I0403 19:37:38.747812  9468 net.cpp:425] inception_4e/output <- inception_4e/3x3
I0403 19:37:38.747833  9468 net.cpp:425] inception_4e/output <- inception_4e/5x5
I0403 19:37:38.747853  9468 net.cpp:425] inception_4e/output <- inception_4e/pool_proj
I0403 19:37:38.747874  9468 net.cpp:399] inception_4e/output -> inception_4e/output
I0403 19:37:38.747938  9468 net.cpp:141] Setting up inception_4e/output
I0403 19:37:38.747967  9468 net.cpp:148] Top shape: 24 832 14 14 (3913728)
I0403 19:37:38.747987  9468 net.cpp:156] Memory required for data: 1272557088
I0403 19:37:38.748005  9468 layer_factory.hpp:77] Creating layer pool4/3x3_s2
I0403 19:37:38.748030  9468 net.cpp:91] Creating Layer pool4/3x3_s2
I0403 19:37:38.748052  9468 net.cpp:425] pool4/3x3_s2 <- inception_4e/output
I0403 19:37:38.748076  9468 net.cpp:399] pool4/3x3_s2 -> pool4/3x3_s2
I0403 19:37:38.748162  9468 net.cpp:141] Setting up pool4/3x3_s2
I0403 19:37:38.748200  9468 net.cpp:148] Top shape: 24 832 7 7 (978432)
I0403 19:37:38.748221  9468 net.cpp:156] Memory required for data: 1276470816
I0403 19:37:38.748239  9468 layer_factory.hpp:77] Creating layer pool4/3x3_s2_pool4/3x3_s2_0_split
I0403 19:37:38.748261  9468 net.cpp:91] Creating Layer pool4/3x3_s2_pool4/3x3_s2_0_split
I0403 19:37:38.748281  9468 net.cpp:425] pool4/3x3_s2_pool4/3x3_s2_0_split <- pool4/3x3_s2
I0403 19:37:38.748306  9468 net.cpp:399] pool4/3x3_s2_pool4/3x3_s2_0_split -> pool4/3x3_s2_pool4/3x3_s2_0_split_0
I0403 19:37:38.748332  9468 net.cpp:399] pool4/3x3_s2_pool4/3x3_s2_0_split -> pool4/3x3_s2_pool4/3x3_s2_0_split_1
I0403 19:37:38.748359  9468 net.cpp:399] pool4/3x3_s2_pool4/3x3_s2_0_split -> pool4/3x3_s2_pool4/3x3_s2_0_split_2
I0403 19:37:38.748405  9468 net.cpp:399] pool4/3x3_s2_pool4/3x3_s2_0_split -> pool4/3x3_s2_pool4/3x3_s2_0_split_3
I0403 19:37:38.748520  9468 net.cpp:141] Setting up pool4/3x3_s2_pool4/3x3_s2_0_split
I0403 19:37:38.748554  9468 net.cpp:148] Top shape: 24 832 7 7 (978432)
I0403 19:37:38.748576  9468 net.cpp:148] Top shape: 24 832 7 7 (978432)
I0403 19:37:38.748596  9468 net.cpp:148] Top shape: 24 832 7 7 (978432)
I0403 19:37:38.748616  9468 net.cpp:148] Top shape: 24 832 7 7 (978432)
I0403 19:37:38.748634  9468 net.cpp:156] Memory required for data: 1292125728
I0403 19:37:38.748653  9468 layer_factory.hpp:77] Creating layer inception_5a/1x1
I0403 19:37:38.748682  9468 net.cpp:91] Creating Layer inception_5a/1x1
I0403 19:37:38.748705  9468 net.cpp:425] inception_5a/1x1 <- pool4/3x3_s2_pool4/3x3_s2_0_split_0
I0403 19:37:38.748731  9468 net.cpp:399] inception_5a/1x1 -> inception_5a/1x1
I0403 19:37:38.752243  9468 net.cpp:141] Setting up inception_5a/1x1
I0403 19:37:38.752279  9468 net.cpp:148] Top shape: 24 256 7 7 (301056)
I0403 19:37:38.752300  9468 net.cpp:156] Memory required for data: 1293329952
I0403 19:37:38.752323  9468 layer_factory.hpp:77] Creating layer inception_5a/relu_1x1
I0403 19:37:38.752346  9468 net.cpp:91] Creating Layer inception_5a/relu_1x1
I0403 19:37:38.752374  9468 net.cpp:425] inception_5a/relu_1x1 <- inception_5a/1x1
I0403 19:37:38.752399  9468 net.cpp:386] inception_5a/relu_1x1 -> inception_5a/1x1 (in-place)
I0403 19:37:38.752784  9468 net.cpp:141] Setting up inception_5a/relu_1x1
I0403 19:37:38.752817  9468 net.cpp:148] Top shape: 24 256 7 7 (301056)
I0403 19:37:38.752837  9468 net.cpp:156] Memory required for data: 1294534176
I0403 19:37:38.752856  9468 layer_factory.hpp:77] Creating layer inception_5a/3x3_reduce
I0403 19:37:38.752883  9468 net.cpp:91] Creating Layer inception_5a/3x3_reduce
I0403 19:37:38.752907  9468 net.cpp:425] inception_5a/3x3_reduce <- pool4/3x3_s2_pool4/3x3_s2_0_split_1
I0403 19:37:38.752933  9468 net.cpp:399] inception_5a/3x3_reduce -> inception_5a/3x3_reduce
I0403 19:37:38.755933  9468 net.cpp:141] Setting up inception_5a/3x3_reduce
I0403 19:37:38.755970  9468 net.cpp:148] Top shape: 24 160 7 7 (188160)
I0403 19:37:38.755990  9468 net.cpp:156] Memory required for data: 1295286816
I0403 19:37:38.756014  9468 layer_factory.hpp:77] Creating layer inception_5a/relu_3x3_reduce
I0403 19:37:38.756041  9468 net.cpp:91] Creating Layer inception_5a/relu_3x3_reduce
I0403 19:37:38.756062  9468 net.cpp:425] inception_5a/relu_3x3_reduce <- inception_5a/3x3_reduce
I0403 19:37:38.756085  9468 net.cpp:386] inception_5a/relu_3x3_reduce -> inception_5a/3x3_reduce (in-place)
I0403 19:37:38.756330  9468 net.cpp:141] Setting up inception_5a/relu_3x3_reduce
I0403 19:37:38.756362  9468 net.cpp:148] Top shape: 24 160 7 7 (188160)
I0403 19:37:38.756381  9468 net.cpp:156] Memory required for data: 1296039456
I0403 19:37:38.756400  9468 layer_factory.hpp:77] Creating layer inception_5a/3x3
I0403 19:37:38.756429  9468 net.cpp:91] Creating Layer inception_5a/3x3
I0403 19:37:38.756451  9468 net.cpp:425] inception_5a/3x3 <- inception_5a/3x3_reduce
I0403 19:37:38.756479  9468 net.cpp:399] inception_5a/3x3 -> inception_5a/3x3
I0403 19:37:38.762730  9468 net.cpp:141] Setting up inception_5a/3x3
I0403 19:37:38.762770  9468 net.cpp:148] Top shape: 24 320 7 7 (376320)
I0403 19:37:38.762791  9468 net.cpp:156] Memory required for data: 1297544736
I0403 19:37:38.762815  9468 layer_factory.hpp:77] Creating layer inception_5a/relu_3x3
I0403 19:37:38.762837  9468 net.cpp:91] Creating Layer inception_5a/relu_3x3
I0403 19:37:38.762857  9468 net.cpp:425] inception_5a/relu_3x3 <- inception_5a/3x3
I0403 19:37:38.762882  9468 net.cpp:386] inception_5a/relu_3x3 -> inception_5a/3x3 (in-place)
I0403 19:37:38.763254  9468 net.cpp:141] Setting up inception_5a/relu_3x3
I0403 19:37:38.763290  9468 net.cpp:148] Top shape: 24 320 7 7 (376320)
I0403 19:37:38.763310  9468 net.cpp:156] Memory required for data: 1299050016
I0403 19:37:38.763330  9468 layer_factory.hpp:77] Creating layer inception_5a/5x5_reduce
I0403 19:37:38.763360  9468 net.cpp:91] Creating Layer inception_5a/5x5_reduce
I0403 19:37:38.763382  9468 net.cpp:425] inception_5a/5x5_reduce <- pool4/3x3_s2_pool4/3x3_s2_0_split_2
I0403 19:37:38.763409  9468 net.cpp:399] inception_5a/5x5_reduce -> inception_5a/5x5_reduce
I0403 19:37:38.764859  9468 net.cpp:141] Setting up inception_5a/5x5_reduce
I0403 19:37:38.764895  9468 net.cpp:148] Top shape: 24 32 7 7 (37632)
I0403 19:37:38.764915  9468 net.cpp:156] Memory required for data: 1299200544
I0403 19:37:38.764938  9468 layer_factory.hpp:77] Creating layer inception_5a/relu_5x5_reduce
I0403 19:37:38.764962  9468 net.cpp:91] Creating Layer inception_5a/relu_5x5_reduce
I0403 19:37:38.764982  9468 net.cpp:425] inception_5a/relu_5x5_reduce <- inception_5a/5x5_reduce
I0403 19:37:38.765007  9468 net.cpp:386] inception_5a/relu_5x5_reduce -> inception_5a/5x5_reduce (in-place)
I0403 19:37:38.765388  9468 net.cpp:141] Setting up inception_5a/relu_5x5_reduce
I0403 19:37:38.765421  9468 net.cpp:148] Top shape: 24 32 7 7 (37632)
I0403 19:37:38.765440  9468 net.cpp:156] Memory required for data: 1299351072
I0403 19:37:38.765460  9468 layer_factory.hpp:77] Creating layer inception_5a/5x5
I0403 19:37:38.765488  9468 net.cpp:91] Creating Layer inception_5a/5x5
I0403 19:37:38.765511  9468 net.cpp:425] inception_5a/5x5 <- inception_5a/5x5_reduce
I0403 19:37:38.765537  9468 net.cpp:399] inception_5a/5x5 -> inception_5a/5x5
I0403 19:37:38.767664  9468 net.cpp:141] Setting up inception_5a/5x5
I0403 19:37:38.767719  9468 net.cpp:148] Top shape: 24 128 7 7 (150528)
I0403 19:37:38.767750  9468 net.cpp:156] Memory required for data: 1299953184
I0403 19:37:38.767774  9468 layer_factory.hpp:77] Creating layer inception_5a/relu_5x5
I0403 19:37:38.767797  9468 net.cpp:91] Creating Layer inception_5a/relu_5x5
I0403 19:37:38.767818  9468 net.cpp:425] inception_5a/relu_5x5 <- inception_5a/5x5
I0403 19:37:38.767843  9468 net.cpp:386] inception_5a/relu_5x5 -> inception_5a/5x5 (in-place)
I0403 19:37:38.768082  9468 net.cpp:141] Setting up inception_5a/relu_5x5
I0403 19:37:38.768115  9468 net.cpp:148] Top shape: 24 128 7 7 (150528)
I0403 19:37:38.768133  9468 net.cpp:156] Memory required for data: 1300555296
I0403 19:37:38.768153  9468 layer_factory.hpp:77] Creating layer inception_5a/pool
I0403 19:37:38.768182  9468 net.cpp:91] Creating Layer inception_5a/pool
I0403 19:37:38.768205  9468 net.cpp:425] inception_5a/pool <- pool4/3x3_s2_pool4/3x3_s2_0_split_3
I0403 19:37:38.768231  9468 net.cpp:399] inception_5a/pool -> inception_5a/pool
I0403 19:37:38.768323  9468 net.cpp:141] Setting up inception_5a/pool
I0403 19:37:38.768353  9468 net.cpp:148] Top shape: 24 832 7 7 (978432)
I0403 19:37:38.768373  9468 net.cpp:156] Memory required for data: 1304469024
I0403 19:37:38.768391  9468 layer_factory.hpp:77] Creating layer inception_5a/pool_proj
I0403 19:37:38.768419  9468 net.cpp:91] Creating Layer inception_5a/pool_proj
I0403 19:37:38.768442  9468 net.cpp:425] inception_5a/pool_proj <- inception_5a/pool
I0403 19:37:38.768468  9468 net.cpp:399] inception_5a/pool_proj -> inception_5a/pool_proj
I0403 19:37:38.771265  9468 net.cpp:141] Setting up inception_5a/pool_proj
I0403 19:37:38.771306  9468 net.cpp:148] Top shape: 24 128 7 7 (150528)
I0403 19:37:38.771327  9468 net.cpp:156] Memory required for data: 1305071136
I0403 19:37:38.771353  9468 layer_factory.hpp:77] Creating layer inception_5a/relu_pool_proj
I0403 19:37:38.771375  9468 net.cpp:91] Creating Layer inception_5a/relu_pool_proj
I0403 19:37:38.771396  9468 net.cpp:425] inception_5a/relu_pool_proj <- inception_5a/pool_proj
I0403 19:37:38.771417  9468 net.cpp:386] inception_5a/relu_pool_proj -> inception_5a/pool_proj (in-place)
I0403 19:37:38.771785  9468 net.cpp:141] Setting up inception_5a/relu_pool_proj
I0403 19:37:38.771819  9468 net.cpp:148] Top shape: 24 128 7 7 (150528)
I0403 19:37:38.771841  9468 net.cpp:156] Memory required for data: 1305673248
I0403 19:37:38.771860  9468 layer_factory.hpp:77] Creating layer inception_5a/output
I0403 19:37:38.771883  9468 net.cpp:91] Creating Layer inception_5a/output
I0403 19:37:38.771901  9468 net.cpp:425] inception_5a/output <- inception_5a/1x1
I0403 19:37:38.771926  9468 net.cpp:425] inception_5a/output <- inception_5a/3x3
I0403 19:37:38.771947  9468 net.cpp:425] inception_5a/output <- inception_5a/5x5
I0403 19:37:38.771967  9468 net.cpp:425] inception_5a/output <- inception_5a/pool_proj
I0403 19:37:38.771989  9468 net.cpp:399] inception_5a/output -> inception_5a/output
I0403 19:37:38.772054  9468 net.cpp:141] Setting up inception_5a/output
I0403 19:37:38.772083  9468 net.cpp:148] Top shape: 24 832 7 7 (978432)
I0403 19:37:38.772102  9468 net.cpp:156] Memory required for data: 1309586976
I0403 19:37:38.772120  9468 layer_factory.hpp:77] Creating layer inception_5a/output_inception_5a/output_0_split
I0403 19:37:38.772147  9468 net.cpp:91] Creating Layer inception_5a/output_inception_5a/output_0_split
I0403 19:37:38.772167  9468 net.cpp:425] inception_5a/output_inception_5a/output_0_split <- inception_5a/output
I0403 19:37:38.772207  9468 net.cpp:399] inception_5a/output_inception_5a/output_0_split -> inception_5a/output_inception_5a/output_0_split_0
I0403 19:37:38.772235  9468 net.cpp:399] inception_5a/output_inception_5a/output_0_split -> inception_5a/output_inception_5a/output_0_split_1
I0403 19:37:38.772261  9468 net.cpp:399] inception_5a/output_inception_5a/output_0_split -> inception_5a/output_inception_5a/output_0_split_2
I0403 19:37:38.772289  9468 net.cpp:399] inception_5a/output_inception_5a/output_0_split -> inception_5a/output_inception_5a/output_0_split_3
I0403 19:37:38.772430  9468 net.cpp:141] Setting up inception_5a/output_inception_5a/output_0_split
I0403 19:37:38.772461  9468 net.cpp:148] Top shape: 24 832 7 7 (978432)
I0403 19:37:38.772482  9468 net.cpp:148] Top shape: 24 832 7 7 (978432)
I0403 19:37:38.772502  9468 net.cpp:148] Top shape: 24 832 7 7 (978432)
I0403 19:37:38.772523  9468 net.cpp:148] Top shape: 24 832 7 7 (978432)
I0403 19:37:38.772539  9468 net.cpp:156] Memory required for data: 1325241888
I0403 19:37:38.772558  9468 layer_factory.hpp:77] Creating layer inception_5b/1x1
I0403 19:37:38.772586  9468 net.cpp:91] Creating Layer inception_5b/1x1
I0403 19:37:38.772610  9468 net.cpp:425] inception_5b/1x1 <- inception_5a/output_inception_5a/output_0_split_0
I0403 19:37:38.772639  9468 net.cpp:399] inception_5b/1x1 -> inception_5b/1x1
I0403 19:37:38.777331  9468 net.cpp:141] Setting up inception_5b/1x1
I0403 19:37:38.777375  9468 net.cpp:148] Top shape: 24 384 7 7 (451584)
I0403 19:37:38.777398  9468 net.cpp:156] Memory required for data: 1327048224
I0403 19:37:38.777426  9468 layer_factory.hpp:77] Creating layer inception_5b/relu_1x1
I0403 19:37:38.777453  9468 net.cpp:91] Creating Layer inception_5b/relu_1x1
I0403 19:37:38.777477  9468 net.cpp:425] inception_5b/relu_1x1 <- inception_5b/1x1
I0403 19:37:38.777503  9468 net.cpp:386] inception_5b/relu_1x1 -> inception_5b/1x1 (in-place)
I0403 19:37:38.777878  9468 net.cpp:141] Setting up inception_5b/relu_1x1
I0403 19:37:38.777910  9468 net.cpp:148] Top shape: 24 384 7 7 (451584)
I0403 19:37:38.777930  9468 net.cpp:156] Memory required for data: 1328854560
I0403 19:37:38.777951  9468 layer_factory.hpp:77] Creating layer inception_5b/3x3_reduce
I0403 19:37:38.777984  9468 net.cpp:91] Creating Layer inception_5b/3x3_reduce
I0403 19:37:38.778012  9468 net.cpp:425] inception_5b/3x3_reduce <- inception_5a/output_inception_5a/output_0_split_1
I0403 19:37:38.778035  9468 net.cpp:399] inception_5b/3x3_reduce -> inception_5b/3x3_reduce
I0403 19:37:38.781335  9468 net.cpp:141] Setting up inception_5b/3x3_reduce
I0403 19:37:38.781380  9468 net.cpp:148] Top shape: 24 192 7 7 (225792)
I0403 19:37:38.781405  9468 net.cpp:156] Memory required for data: 1329757728
I0403 19:37:38.781431  9468 layer_factory.hpp:77] Creating layer inception_5b/relu_3x3_reduce
I0403 19:37:38.781462  9468 net.cpp:91] Creating Layer inception_5b/relu_3x3_reduce
I0403 19:37:38.781486  9468 net.cpp:425] inception_5b/relu_3x3_reduce <- inception_5b/3x3_reduce
I0403 19:37:38.781510  9468 net.cpp:386] inception_5b/relu_3x3_reduce -> inception_5b/3x3_reduce (in-place)
I0403 19:37:38.781752  9468 net.cpp:141] Setting up inception_5b/relu_3x3_reduce
I0403 19:37:38.781786  9468 net.cpp:148] Top shape: 24 192 7 7 (225792)
I0403 19:37:38.781806  9468 net.cpp:156] Memory required for data: 1330660896
I0403 19:37:38.781828  9468 layer_factory.hpp:77] Creating layer inception_5b/3x3
I0403 19:37:38.781858  9468 net.cpp:91] Creating Layer inception_5b/3x3
I0403 19:37:38.781880  9468 net.cpp:425] inception_5b/3x3 <- inception_5b/3x3_reduce
I0403 19:37:38.781910  9468 net.cpp:399] inception_5b/3x3 -> inception_5b/3x3
I0403 19:37:38.790226  9468 net.cpp:141] Setting up inception_5b/3x3
I0403 19:37:38.790267  9468 net.cpp:148] Top shape: 24 384 7 7 (451584)
I0403 19:37:38.790288  9468 net.cpp:156] Memory required for data: 1332467232
I0403 19:37:38.790313  9468 layer_factory.hpp:77] Creating layer inception_5b/relu_3x3
I0403 19:37:38.790335  9468 net.cpp:91] Creating Layer inception_5b/relu_3x3
I0403 19:37:38.790365  9468 net.cpp:425] inception_5b/relu_3x3 <- inception_5b/3x3
I0403 19:37:38.790386  9468 net.cpp:386] inception_5b/relu_3x3 -> inception_5b/3x3 (in-place)
I0403 19:37:38.790767  9468 net.cpp:141] Setting up inception_5b/relu_3x3
I0403 19:37:38.790804  9468 net.cpp:148] Top shape: 24 384 7 7 (451584)
I0403 19:37:38.790824  9468 net.cpp:156] Memory required for data: 1334273568
I0403 19:37:38.790845  9468 layer_factory.hpp:77] Creating layer inception_5b/5x5_reduce
I0403 19:37:38.790904  9468 net.cpp:91] Creating Layer inception_5b/5x5_reduce
I0403 19:37:38.790928  9468 net.cpp:425] inception_5b/5x5_reduce <- inception_5a/output_inception_5a/output_0_split_2
I0403 19:37:38.790954  9468 net.cpp:399] inception_5b/5x5_reduce -> inception_5b/5x5_reduce
I0403 19:37:38.792567  9468 net.cpp:141] Setting up inception_5b/5x5_reduce
I0403 19:37:38.792604  9468 net.cpp:148] Top shape: 24 48 7 7 (56448)
I0403 19:37:38.792625  9468 net.cpp:156] Memory required for data: 1334499360
I0403 19:37:38.792649  9468 layer_factory.hpp:77] Creating layer inception_5b/relu_5x5_reduce
I0403 19:37:38.792672  9468 net.cpp:91] Creating Layer inception_5b/relu_5x5_reduce
I0403 19:37:38.792693  9468 net.cpp:425] inception_5b/relu_5x5_reduce <- inception_5b/5x5_reduce
I0403 19:37:38.792718  9468 net.cpp:386] inception_5b/relu_5x5_reduce -> inception_5b/5x5_reduce (in-place)
I0403 19:37:38.793171  9468 net.cpp:141] Setting up inception_5b/relu_5x5_reduce
I0403 19:37:38.793212  9468 net.cpp:148] Top shape: 24 48 7 7 (56448)
I0403 19:37:38.793231  9468 net.cpp:156] Memory required for data: 1334725152
I0403 19:37:38.793251  9468 layer_factory.hpp:77] Creating layer inception_5b/5x5
I0403 19:37:38.793277  9468 net.cpp:91] Creating Layer inception_5b/5x5
I0403 19:37:38.793298  9468 net.cpp:425] inception_5b/5x5 <- inception_5b/5x5_reduce
I0403 19:37:38.793323  9468 net.cpp:399] inception_5b/5x5 -> inception_5b/5x5
I0403 19:37:38.795904  9468 net.cpp:141] Setting up inception_5b/5x5
I0403 19:37:38.795939  9468 net.cpp:148] Top shape: 24 128 7 7 (150528)
I0403 19:37:38.795959  9468 net.cpp:156] Memory required for data: 1335327264
I0403 19:37:38.795982  9468 layer_factory.hpp:77] Creating layer inception_5b/relu_5x5
I0403 19:37:38.796005  9468 net.cpp:91] Creating Layer inception_5b/relu_5x5
I0403 19:37:38.796026  9468 net.cpp:425] inception_5b/relu_5x5 <- inception_5b/5x5
I0403 19:37:38.796051  9468 net.cpp:386] inception_5b/relu_5x5 -> inception_5b/5x5 (in-place)
I0403 19:37:38.796300  9468 net.cpp:141] Setting up inception_5b/relu_5x5
I0403 19:37:38.796334  9468 net.cpp:148] Top shape: 24 128 7 7 (150528)
I0403 19:37:38.796351  9468 net.cpp:156] Memory required for data: 1335929376
I0403 19:37:38.796371  9468 layer_factory.hpp:77] Creating layer inception_5b/pool
I0403 19:37:38.796397  9468 net.cpp:91] Creating Layer inception_5b/pool
I0403 19:37:38.796419  9468 net.cpp:425] inception_5b/pool <- inception_5a/output_inception_5a/output_0_split_3
I0403 19:37:38.796444  9468 net.cpp:399] inception_5b/pool -> inception_5b/pool
I0403 19:37:38.796540  9468 net.cpp:141] Setting up inception_5b/pool
I0403 19:37:38.796569  9468 net.cpp:148] Top shape: 24 832 7 7 (978432)
I0403 19:37:38.796588  9468 net.cpp:156] Memory required for data: 1339843104
I0403 19:37:38.796608  9468 layer_factory.hpp:77] Creating layer inception_5b/pool_proj
I0403 19:37:38.796635  9468 net.cpp:91] Creating Layer inception_5b/pool_proj
I0403 19:37:38.796658  9468 net.cpp:425] inception_5b/pool_proj <- inception_5b/pool
I0403 19:37:38.796686  9468 net.cpp:399] inception_5b/pool_proj -> inception_5b/pool_proj
I0403 19:37:38.799510  9468 net.cpp:141] Setting up inception_5b/pool_proj
I0403 19:37:38.799548  9468 net.cpp:148] Top shape: 24 128 7 7 (150528)
I0403 19:37:38.799571  9468 net.cpp:156] Memory required for data: 1340445216
I0403 19:37:38.799593  9468 layer_factory.hpp:77] Creating layer inception_5b/relu_pool_proj
I0403 19:37:38.799617  9468 net.cpp:91] Creating Layer inception_5b/relu_pool_proj
I0403 19:37:38.799638  9468 net.cpp:425] inception_5b/relu_pool_proj <- inception_5b/pool_proj
I0403 19:37:38.799664  9468 net.cpp:386] inception_5b/relu_pool_proj -> inception_5b/pool_proj (in-place)
I0403 19:37:38.800027  9468 net.cpp:141] Setting up inception_5b/relu_pool_proj
I0403 19:37:38.800062  9468 net.cpp:148] Top shape: 24 128 7 7 (150528)
I0403 19:37:38.800081  9468 net.cpp:156] Memory required for data: 1341047328
I0403 19:37:38.800101  9468 layer_factory.hpp:77] Creating layer inception_5b/output
I0403 19:37:38.800124  9468 net.cpp:91] Creating Layer inception_5b/output
I0403 19:37:38.800161  9468 net.cpp:425] inception_5b/output <- inception_5b/1x1
I0403 19:37:38.800191  9468 net.cpp:425] inception_5b/output <- inception_5b/3x3
I0403 19:37:38.800215  9468 net.cpp:425] inception_5b/output <- inception_5b/5x5
I0403 19:37:38.800236  9468 net.cpp:425] inception_5b/output <- inception_5b/pool_proj
I0403 19:37:38.800262  9468 net.cpp:399] inception_5b/output -> inception_5b/output
I0403 19:37:38.800328  9468 net.cpp:141] Setting up inception_5b/output
I0403 19:37:38.800359  9468 net.cpp:148] Top shape: 24 1024 7 7 (1204224)
I0403 19:37:38.800376  9468 net.cpp:156] Memory required for data: 1345864224
I0403 19:37:38.800395  9468 layer_factory.hpp:77] Creating layer pool5/7x7_s1
I0403 19:37:38.800422  9468 net.cpp:91] Creating Layer pool5/7x7_s1
I0403 19:37:38.800443  9468 net.cpp:425] pool5/7x7_s1 <- inception_5b/output
I0403 19:37:38.800467  9468 net.cpp:399] pool5/7x7_s1 -> pool5/7x7_s1
I0403 19:37:38.800737  9468 net.cpp:141] Setting up pool5/7x7_s1
I0403 19:37:38.800770  9468 net.cpp:148] Top shape: 24 1024 1 1 (24576)
I0403 19:37:38.800791  9468 net.cpp:156] Memory required for data: 1345962528
I0403 19:37:38.800809  9468 layer_factory.hpp:77] Creating layer pool5/drop_7x7_s1
I0403 19:37:38.800832  9468 net.cpp:91] Creating Layer pool5/drop_7x7_s1
I0403 19:37:38.800853  9468 net.cpp:425] pool5/drop_7x7_s1 <- pool5/7x7_s1
I0403 19:37:38.800879  9468 net.cpp:386] pool5/drop_7x7_s1 -> pool5/7x7_s1 (in-place)
I0403 19:37:38.800941  9468 net.cpp:141] Setting up pool5/drop_7x7_s1
I0403 19:37:38.800971  9468 net.cpp:148] Top shape: 24 1024 1 1 (24576)
I0403 19:37:38.800990  9468 net.cpp:156] Memory required for data: 1346060832
I0403 19:37:38.801009  9468 layer_factory.hpp:77] Creating layer loss3/classifier_plantvillage
I0403 19:37:38.801036  9468 net.cpp:91] Creating Layer loss3/classifier_plantvillage
I0403 19:37:38.801059  9468 net.cpp:425] loss3/classifier_plantvillage <- pool5/7x7_s1
I0403 19:37:38.801086  9468 net.cpp:399] loss3/classifier_plantvillage -> loss3/classifier_plantvillage
I0403 19:37:38.801626  9468 net.cpp:141] Setting up loss3/classifier_plantvillage
I0403 19:37:38.801658  9468 net.cpp:148] Top shape: 24 38 (912)
I0403 19:37:38.801677  9468 net.cpp:156] Memory required for data: 1346064480
I0403 19:37:38.801700  9468 layer_factory.hpp:77] Creating layer loss3/classifier_plantvillage_loss3/classifier_plantvillage_0_split
I0403 19:37:38.801726  9468 net.cpp:91] Creating Layer loss3/classifier_plantvillage_loss3/classifier_plantvillage_0_split
I0403 19:37:38.801746  9468 net.cpp:425] loss3/classifier_plantvillage_loss3/classifier_plantvillage_0_split <- loss3/classifier_plantvillage
I0403 19:37:38.801769  9468 net.cpp:399] loss3/classifier_plantvillage_loss3/classifier_plantvillage_0_split -> loss3/classifier_plantvillage_loss3/classifier_plantvillage_0_split_0
I0403 19:37:38.801795  9468 net.cpp:399] loss3/classifier_plantvillage_loss3/classifier_plantvillage_0_split -> loss3/classifier_plantvillage_loss3/classifier_plantvillage_0_split_1
I0403 19:37:38.801820  9468 net.cpp:399] loss3/classifier_plantvillage_loss3/classifier_plantvillage_0_split -> loss3/classifier_plantvillage_loss3/classifier_plantvillage_0_split_2
I0403 19:37:38.801849  9468 net.cpp:399] loss3/classifier_plantvillage_loss3/classifier_plantvillage_0_split -> loss3/classifier_plantvillage_loss3/classifier_plantvillage_0_split_3
I0403 19:37:38.801977  9468 net.cpp:141] Setting up loss3/classifier_plantvillage_loss3/classifier_plantvillage_0_split
I0403 19:37:38.802006  9468 net.cpp:148] Top shape: 24 38 (912)
I0403 19:37:38.802026  9468 net.cpp:148] Top shape: 24 38 (912)
I0403 19:37:38.802045  9468 net.cpp:148] Top shape: 24 38 (912)
I0403 19:37:38.802065  9468 net.cpp:148] Top shape: 24 38 (912)
I0403 19:37:38.802083  9468 net.cpp:156] Memory required for data: 1346079072
I0403 19:37:38.802103  9468 layer_factory.hpp:77] Creating layer loss1/loss
I0403 19:37:38.802129  9468 net.cpp:91] Creating Layer loss1/loss
I0403 19:37:38.802151  9468 net.cpp:425] loss1/loss <- loss1/classifier_plantvillage_loss1/classifier_plantvillage_0_split_0
I0403 19:37:38.802203  9468 net.cpp:425] loss1/loss <- label_data_1_split_0
…
