…
I0403 19:28:44.180133  9284 net.cpp:313] The NetState phase (1) differed from the phase (0) specified by a rule in layer data
I0403 19:28:44.181294  9284 net.cpp:49] Initializing net from parameters: 
state {
  phase: TEST
}
layer {
  name: "data"
  type: "Data"
  top: "data"
  top: "label"
  include {
    phase: TEST
  }
  transform_param {
    mirror: false
    crop_size: 224
    mean_file: "/home/mohanty/data/final_dataset/lmdb/grayscale-50-50/mean.binaryproto"
  }
  data_param {
    source: "/home/mohanty/data/final_dataset/lmdb/grayscale-50-50/test_db"
    batch_size: 24
    backend: LMDB
  }
}
layer {
  name: "conv1/7x7_s2"
  type: "Convolution"
  bottom: "data"
  top: "conv1/7x7_s2"
  param {
    lr_mult: 1
    decay_mult: 1
  }
  param {
    lr_mult: 2
    decay_mult: 0
  }
  convolution_param {
    num_output: 64
    pad: 3
    kernel_size: 7
    stride: 2
    weight_filler {
      type: "xavier"
      std: 0.1
    }
    bias_filler {
      type: "constant"
      value: 0.2
    }
  }
}
layer {
  name: "conv1/relu_7x7"
  type: "ReLU"
  bottom: "conv1/7x7_s2"
  top: "conv1/7x7_s2"
}
layer {
  name: "pool1/3x3_s2"
  type: "Pooling"
  bottom: "conv1/7x7_s2"
  top: "pool1/3x3_s2"
  pooling_param {
    pool: MAX
    kernel_size: 3
    stride: 2
  }
}
layer {
  name: "pool1/norm1"
  type: "LRN"
  bottom: "pool1/3x3_s2"
  top: "pool1/norm1"
  lrn_param {
    local_size: 5
    alpha: 0.0001
    beta: 0.75
  }
}
layer {
  name: "conv2/3x3_reduce"
  type: "Convolution"
  bottom: "pool1/norm1"
  top: "conv2/3x3_reduce"
  param {
    lr_mult: 1
    decay_mult: 1
  }
  param {
    lr_mult: 2
    decay_mult: 0
  }
  convolution_param {
    num_output: 64
    kernel_size: 1
    weight_filler {
      type: "xavier"
      std: 0.1
    }
    bias_filler {
      type: "constant"
      value: 0.2
    }
  }
}
layer {
  name: "conv2/relu_3x3_reduce"
  type: "ReLU"
  bottom: "conv2/3x3_reduce"
  top: "conv2/3x3_reduce"
}
layer {
  name: "conv2/3x3"
  type: "Convolution"
  bottom: "conv2/3x3_reduce"
  top: "conv2/3x3"
  param {
    lr_mult: 1
    decay_mult: 1
  }
  param {
    lr_mult: 2
    decay_mult: 0
  }
  convolution_param {
    num_output: 192
    pad: 1
    kernel_size: 3
    weight_filler {
      type: "xavier"
      std: 0.03
    }
    bias_filler {
      type: "constant"
      value: 0.2
    }
  }
}
layer {
  name: "conv2/relu_3x3"
  type: "ReLU"
  bottom: "conv2/3x3"
  top: "conv2/3x3"
}
layer {
  name: "conv2/norm2"
  type: "LRN"
  bottom: "conv2/3x3"
  top: "conv2/norm2"
  lrn_param {
    local_size: 5
    alpha: 0.0001
    beta: 0.75
  }
}
layer {
  name: "pool2/3x3_s2"
  type: "Pooling"
  bottom: "conv2/norm2"
  top: "pool2/3x3_s2"
  pooling_param {
    pool: MAX
    kernel_size: 3
    stride: 2
  }
}
layer {
  name: "inception_3a/1x1"
  type: "Convolution"
  bottom: "pool2/3x3_s2"
  top: "inception_3a/1x1"
  param {
    lr_mult: 1
    decay_mult: 1
  }
  param {
    lr_mult: 2
    decay_mult: 0
  }
  convolution_param {
    num_output: 64
    kernel_size: 1
    weight_filler {
      type: "xavier"
      std: 0.03
    }
    bias_filler {
      type: "constant"
      value: 0.2
    }
  }
}
layer {
  name: "inception_3a/relu_1x1"
  type: "ReLU"
  bottom: "inception_3a/1x1"
  top: "inception_3a/1x1"
}
layer {
  name: "inception_3a/3x3_reduce"
  type: "Convolution"
  bottom: "pool2/3x3_s2"
  top: "inception_3a/3x3_reduce"
  param {
    lr_mult: 1
    decay_mult: 1
  }
  param {
    lr_mult: 2
    decay_mult: 0
  }
  convolution_param {
    num_output: 96
    kernel_size: 1
    weight_filler {
      type: "xavier"
      std: 0.09
    }
    bias_filler {
      type: "constant"
      value: 0.2
    }
  }
}
layer {
  name: "inception_3a/relu_3x3_reduce"
  type: "ReLU"
  bottom: "inception_3a/3x3_reduce"
  top: "inception_3a/3x3_reduce"
}
layer {
  name: "inception_3a/3x3"
  type: "Convolution"
  bottom: "inception_3a/3x3_reduce"
  top: "inception_3a/3x3"
  param {
    lr_mult: 1
    decay_mult: 1
  }
  param {
    lr_mult: 2
    decay_mult: 0
  }
  convolution_param {
    num_output: 128
    pad: 1
    kernel_size: 3
    weight_filler {
      type: "xavier"
      std: 0.03
    }
    bias_filler {
      type: "constant"
      value: 0.2
    }
  }
}
layer {
  name: "inception_3a/relu_3x3"
  type: "ReLU"
  bottom: "inception_3a/3x3"
  top: "inception_3a/3x3"
}
layer {
  name: "inception_3a/5x5_reduce"
  type: "Convolution"
  bottom: "pool2/3x3_s2"
  top: "inception_3a/5x5_reduce"
  param {
    lr_mult: 1
    decay_mult: 1
  }
  param {
    lr_mult: 2
    decay_mult: 0
  }
  convolution_param {
    num_output: 16
    kernel_size: 1
    weight_filler {
      type: "xavier"
      std: 0.2
    }
    bias_filler {
      type: "constant"
      value: 0.2
    }
  }
}
layer {
  name: "inception_3a/relu_5x5_reduce"
  type: "ReLU"
  bottom: "inception_3a/5x5_reduce"
  top: "inception_3a/5x5_reduce"
}
layer {
  name: "inception_3a/5x5"
  type: "Convolution"
  bottom: "inception_3a/5x5_reduce"
  top: "inception_3a/5x5"
  param {
    lr_mult: 1
    decay_mult: 1
  }
  param {
    lr_mult: 2
    decay_mult: 0
  }
  convolution_param {
    num_output: 32
    pad: 2
    kernel_size: 5
    weight_filler {
      type: "xavier"
      std: 0.03
    }
    bias_filler {
      type: "constant"
      value: 0.2
    }
  }
}
layer {
  name: "inception_3a/relu_5x5"
  type: "ReLU"
  bottom: "inception_3a/5x5"
  top: "inception_3a/5x5"
}
layer {
  name: "inception_3a/pool"
  type: "Pooling"
  bottom: "pool2/3x3_s2"
  top: "inception_3a/pool"
  pooling_param {
    pool: MAX
    kernel_size: 3
    stride: 1
    pad: 1
  }
}
layer {
  name: "inception_3a/pool_proj"
  type: "Convolution"
  bottom: "inception_3a/pool"
  top: "inception_3a/pool_proj"
  param {
    lr_mult: 1
    decay_mult: 1
  }
  param {
    lr_mult: 2
    decay_mult: 0
  }
  convolution_param {
    num_output: 32
    kernel_size: 1
    weight_filler {
      type: "xavier"
      std: 0.1
    }
    bias_filler {
      type: "constant"
      value: 0.2
    }
  }
}
layer {
  name: "inception_3a/relu_pool_proj"
  type: "ReLU"
  bottom: "inception_3a/pool_proj"
  top: "inception_3a/pool_proj"
}
layer {
  name: "inception_3a/output"
  type: "Concat"
  bottom: "inception_3a/1x1"
  bottom: "inception_3a/3x3"
  bottom: "inception_3a/5x5"
  bottom: "inception_3a/pool_proj"
  top: "inception_3a/output"
}
layer {
  name: "inception_3b/1x1"
  type: "Convolution"
  bottom: "inception_3a/output"
  top: "inception_3b/1x1"
  param {
    lr_mult: 1
    decay_mult: 1
  }
  param {
    lr_mult: 2
    decay_mult: 0
  }
  convolution_param {
    num_output: 128
    kernel_size: 1
    weight_filler {
      type: "xavier"
      std: 0.03
    }
    bias_filler {
      type: "constant"
      value: 0.2
    }
  }
}
layer {
  name: "inception_3b/relu_1x1"
  type: "ReLU"
  bottom: "inception_3b/1x1"
  top: "inception_3b/1x1"
}
layer {
  name: "inception_3b/3x3_reduce"
  type: "Convolution"
  bottom: "inception_3a/output"
  top: "inception_3b/3x3_reduce"
  param {
    lr_mult: 1
    decay_mult: 1
  }
  param {
    lr_mult: 2
    decay_mult: 0
  }
  convolution_param {
    num_output: 128
    kernel_size: 1
    weight_filler {
      type: "xavier"
      std: 0.09
    }
    bias_filler {
      type: "constant"
      value: 0.2
    }
  }
}
layer {
  name: "inception_3b/relu_3x3_reduce"
  type: "ReLU"
  bottom: "inception_3b/3x3_reduce"
  top: "inception_3b/3x3_reduce"
}
layer {
  name: "inception_3b/3x3"
  type: "Convolution"
  bottom: "inception_3b/3x3_reduce"
  top: "inception_3b/3x3"
  param {
    lr_mult: 1
    decay_mult: 1
  }
  param {
    lr_mult: 2
    decay_mult: 0
  }
  convolution_param {
    num_output: 192
    pad: 1
    kernel_size: 3
    weight_filler {
      type: "xavier"
      std: 0.03
    }
    bias_filler {
      type: "constant"
      value: 0.2
    }
  }
}
layer {
  name: "inception_3b/relu_3x3"
  type: "ReLU"
  bottom: "inception_3b/3x3"
  top: "inception_3b/3x3"
}
layer {
  name: "inception_3b/5x5_reduce"
  type: "Convolution"
  bottom: "inception_3a/output"
  top: "inception_3b/5x5_reduce"
  param {
    lr_mult: 1
    decay_mult: 1
  }
  param {
    lr_mult: 2
    decay_mult: 0
  }
  convolution_param {
    num_output: 32
    kernel_size: 1
    weight_filler {
      type: "xavier"
      std: 0.2
    }
    bias_filler {
      type: "constant"
      value: 0.2
    }
  }
}
layer {
  name: "inception_3b/relu_5x5_reduce"
  type: "ReLU"
  bottom: "inception_3b/5x5_reduce"
  top: "inception_3b/5x5_reduce"
}
layer {
  name: "inception_3b/5x5"
  type: "Convolution"
  bottom: "inception_3b/5x5_reduce"
  top: "inception_3b/5x5"
  param {
    lr_mult: 1
    decay_mult: 1
  }
  param {
    lr_mult: 2
    decay_mult: 0
  }
  convolution_param {
    num_output: 96
    pad: 2
    kernel_size: 5
    weight_filler {
      type: "xavier"
      std: 0.03
    }
    bias_filler {
      type: "constant"
      value: 0.2
    }
  }
}
layer {
  name: "inception_3b/relu_5x5"
  type: "ReLU"
  bottom: "inception_3b/5x5"
  top: "inception_3b/5x5"
}
layer {
  name: "inception_3b/pool"
  type: "Pooling"
  bottom: "inception_3a/output"
  top: "inception_3b/pool"
  pooling_param {
    pool: MAX
    kernel_size: 3
    stride: 1
    pad: 1
  }
}
layer {
  name: "inception_3b/pool_proj"
  type: "Convolution"
  bottom: "inception_3b/pool"
  top: "inception_3b/pool_proj"
  param {
    lr_mult: 1
    decay_mult: 1
  }
  param {
    lr_mult: 2
    decay_mult: 0
  }
  convolution_param {
    num_output: 64
    kernel_size: 1
    weight_filler {
      type: "xavier"
      std: 0.1
    }
    bias_filler {
      type: "constant"
      value: 0.2
    }
  }
}
layer {
  name: "inception_3b/relu_pool_proj"
  type: "ReLU"
  bottom: "inception_3b/pool_proj"
  top: "inception_3b/pool_proj"
}
layer {
  name: "inception_3b/output"
  type: "Concat"
  bottom: "inception_3b/1x1"
  bottom: "inception_3b/3x3"
  bottom: "inception_3b/5x5"
  bottom: "inception_3b/pool_proj"
  top: "inception_3b/output"
}
layer {
  name: "pool3/3x3_s2"
  type: "Pooling"
  bottom: "inception_3b/output"
  top: "pool3/3x3_s2"
  pooling_param {
    pool: MAX
    kernel_size: 3
    stride: 2
  }
}
layer {
  name: "inception_4a/1x1"
  type: "Convolution"
  bottom: "pool3/3x3_s2"
  top: "inception_4a/1x1"
  param {
    lr_mult: 1
    decay_mult: 1
  }
  param {
    lr_mult: 2
    decay_mult: 0
  }
  convolution_param {
    num_output: 192
    kernel_size: 1
    weight_filler {
      type: "xavier"
      std: 0.03
    }
    bias_filler {
      type: "constant"
      value: 0.2
    }
  }
}
layer {
  name: "inception_4a/relu_1x1"
  type: "ReLU"
  bottom: "inception_4a/1x1"
  top: "inception_4a/1x1"
}
layer {
  name: "inception_4a/3x3_reduce"
  type: "Convolution"
  bottom: "pool3/3x3_s2"
  top: "inception_4a/3x3_reduce"
  param {
    lr_mult: 1
    decay_mult: 1
  }
  param {
    lr_mult: 2
    decay_mult: 0
  }
  convolution_param {
    num_output: 96
    kernel_size: 1
    weight_filler {
      type: "xavier"
      std: 0.09
    }
    bias_filler {
      type: "constant"
      value: 0.2
    }
  }
}
layer {
  name: "inception_4a/relu_3x3_reduce"
  type: "ReLU"
  bottom: "inception_4a/3x3_reduce"
  top: "inception_4a/3x3_reduce"
}
layer {
  name: "inception_4a/3x3"
  type: "Convolution"
  bottom: "inception_4a/3x3_reduce"
  top: "inception_4a/3x3"
  param {
    lr_mult: 1
    decay_mult: 1
  }
  param {
    lr_mult: 2
    decay_mult: 0
  }
  convolution_param {
    num_output: 208
    pad: 1
    kernel_size: 3
    weight_filler {
      type: "xavier"
      std: 0.03
    }
    bias_filler {
      type: "constant"
      value: 0.2
    }
  }
}
layer {
  name: "inception_4a/relu_3x3"
  type: "ReLU"
  bottom: "inception_4a/3x3"
  top: "inception_4a/3x3"
}
layer {
  name: "inception_4a/5x5_reduce"
  type: "Convolution"
  bottom: "pool3/3x3_s2"
  top: "inception_4a/5x5_reduce"
  param {
    lr_mult: 1
    decay_mult: 1
  }
  param {
    lr_mult: 2
    decay_mult: 0
  }
  convolution_param {
    num_output: 16
    kernel_size: 1
    weight_filler {
      type: "xavier"
      std: 0.2
    }
    bias_filler {
      type: "constant"
      value: 0.2
    }
  }
}
layer {
  name: "inception_4a/relu_5x5_reduce"
  type: "ReLU"
  bottom: "inception_4a/5x5_reduce"
  top: "inception_4a/5x5_reduce"
}
layer {
  name: "inception_4a/5x5"
  type: "Convolution"
  bottom: "inception_4a/5x5_reduce"
  top: "inception_4a/5x5"
  param {
    lr_mult: 1
    decay_mult: 1
  }
  param {
    lr_mult: 2
    decay_mult: 0
  }
  convolution_param {
    num_output: 48
    pad: 2
    kernel_size: 5
    weight_filler {
      type: "xavier"
      std: 0.03
    }
    bias_filler {
      type: "constant"
      value: 0.2
    }
  }
}
layer {
  name: "inception_4a/relu_5x5"
  type: "ReLU"
  bottom: "inception_4a/5x5"
  top: "inception_4a/5x5"
}
layer {
  name: "inception_4a/pool"
  type: "Pooling"
  bottom: "pool3/3x3_s2"
  top: "inception_4a/pool"
  pooling_param {
    pool: MAX
    kernel_size: 3
    stride: 1
    pad: 1
  }
}
layer {
  name: "inception_4a/pool_proj"
  type: "Convolution"
  bottom: "inception_4a/pool"
  top: "inception_4a/pool_proj"
  param {
    lr_mult: 1
    decay_mult: 1
  }
  param {
    lr_mult: 2
    decay_mult: 0
  }
  convolution_param {
    num_output: 64
    kernel_size: 1
    weight_filler {
      type: "xavier"
      std: 0.1
    }
    bias_filler {
      type: "constant"
      value: 0.2
    }
  }
}
layer {
  name: "inception_4a/relu_pool_proj"
  type: "ReLU"
  bottom: "inception_4a/pool_proj"
  top: "inception_4a/pool_proj"
}
layer {
  name: "inception_4a/output"
  type: "Concat"
  bottom: "inception_4a/1x1"
  bottom: "inception_4a/3x3"
  bottom: "inception_4a/5x5"
  bottom: "inception_4a/pool_proj"
  top: "inception_4a/output"
}
layer {
  name: "loss1/ave_pool"
  type: "Pooling"
  bottom: "inception_4a/output"
  top: "loss1/ave_pool"
  pooling_param {
    pool: AVE
    kernel_size: 5
    stride: 3
  }
}
layer {
  name: "loss1/conv"
  type: "Convolution"
  bottom: "loss1/ave_pool"
  top: "loss1/conv"
  param {
    lr_mult: 1
    decay_mult: 1
  }
  param {
    lr_mult: 2
    decay_mult: 0
  }
  convolution_param {
    num_output: 128
    kernel_size: 1
    weight_filler {
      type: "xavier"
      std: 0.08
    }
    bias_filler {
      type: "constant"
      value: 0.2
    }
  }
}
layer {
  name: "loss1/relu_conv"
  type: "ReLU"
  bottom: "loss1/conv"
  top: "loss1/conv"
}
layer {
  name: "loss1/fc"
  type: "InnerProduct"
  bottom: "loss1/conv"
  top: "loss1/fc"
  param {
    lr_mult: 1
    decay_mult: 1
  }
  param {
    lr_mult: 2
    decay_mult: 0
  }
  inner_product_param {
    num_output: 1024
    weight_filler {
      type: "xavier"
      std: 0.02
    }
    bias_filler {
      type: "constant"
      value: 0.2
    }
  }
}
layer {
  name: "loss1/relu_fc"
  type: "ReLU"
  bottom: "loss1/fc"
  top: "loss1/fc"
}
layer {
  name: "loss1/drop_fc"
  type: "Dropout"
  bottom: "loss1/fc"
  top: "loss1/fc"
  dropout_param {
    dropout_ratio: 0.7
  }
}
layer {
  name: "loss1/classifier_plantvillage"
  type: "InnerProduct"
  bottom: "loss1/fc"
  top: "loss1/classifier_plantvillage"
  param {
    lr_mult: 1
    decay_mult: 1
  }
  param {
    lr_mult: 2
    decay_mult: 0
  }
  inner_product_param {
    num_output: 38
    weight_filler {
      type: "xavier"
      std: 0.0009765625
    }
    bias_filler {
      type: "constant"
      value: 0
    }
  }
}
layer {
  name: "inception_4b/1x1"
  type: "Convolution"
  bottom: "inception_4a/output"
  top: "inception_4b/1x1"
  param {
    lr_mult: 1
    decay_mult: 1
  }
  param {
    lr_mult: 2
    decay_mult: 0
  }
  convolution_param {
    num_output: 160
    kernel_size: 1
    weight_filler {
      type: "xavier"
      std: 0.03
    }
    bias_filler {
      type: "constant"
      value: 0.2
    }
  }
}
layer {
  name: "inception_4b/relu_1x1"
  type: "ReLU"
  bottom: "inception_4b/1x1"
  top: "inception_4b/1x1"
}
layer {
  name: "inception_4b/3x3_reduce"
  type: "Convolution"
  bottom: "inception_4a/output"
  top: "inception_4b/3x3_reduce"
  param {
    lr_mult: 1
    decay_mult: 1
  }
  param {
    lr_mult: 2
    decay_mult: 0
  }
  convolution_param {
    num_output: 112
    kernel_size: 1
    weight_filler {
      type: "xavier"
      std: 0.09
    }
    bias_filler {
      type: "constant"
      value: 0.2
    }
  }
}
layer {
  name: "inception_4b/relu_3x3_reduce"
  type: "ReLU"
  bottom: "inception_4b/3x3_reduce"
  top: "inception_4b/3x3_reduce"
}
layer {
  name: "inception_4b/3x3"
  type: "Convolution"
  bottom: "inception_4b/3x3_reduce"
  top: "inception_4b/3x3"
  param {
    lr_mult: 1
    decay_mult: 1
  }
  param {
    lr_mult: 2
    decay_mult: 0
  }
  convolution_param {
    num_output: 224
    pad: 1
    kernel_size: 3
    weight_filler {
      type: "xavier"
      std: 0.03
    }
    bias_filler {
      type: "constant"
      value: 0.2
    }
  }
}
layer {
  name: "inception_4b/relu_3x3"
  type: "ReLU"
  bottom: "inception_4b/3x3"
  top: "inception_4b/3x3"
}
layer {
  name: "inception_4b/5x5_reduce"
  type: "Convolution"
  bottom: "inception_4a/output"
  top: "inception_4b/5x5_reduce"
  param {
    lr_mult: 1
    decay_mult: 1
  }
  param {
    lr_mult: 2
    decay_mult: 0
  }
  convolution_param {
    num_output: 24
    kernel_size: 1
    weight_filler {
      type: "xavier"
      std: 0.2
    }
    bias_filler {
      type: "constant"
      value: 0.2
    }
  }
}
layer {
  name: "inception_4b/relu_5x5_reduce"
  type: "ReLU"
  bottom: "inception_4b/5x5_reduce"
  top: "inception_4b/5x5_reduce"
}
layer {
  name: "inception_4b/5x5"
  type: "Convolution"
  bottom: "inception_4b/5x5_reduce"
  top: "inception_4b/5x5"
  param {
    lr_mult: 1
    decay_mult: 1
  }
  param {
    lr_mult: 2
    decay_mult: 0
  }
  convolution_param {
    num_output: 64
    pad: 2
    kernel_size: 5
    weight_filler {
      type: "xavier"
      std: 0.03
    }
    bias_filler {
      type: "constant"
      value: 0.2
    }
  }
}
layer {
  name: "inception_4b/relu_5x5"
  type: "ReLU"
  bottom: "inception_4b/5x5"
  top: "inception_4b/5x5"
}
layer {
  name: "inception_4b/pool"
  type: "Pooling"
  bottom: "inception_4a/output"
  top: "inception_4b/pool"
  pooling_param {
    pool: MAX
    kernel_size: 3
    stride: 1
    pad: 1
  }
}
layer {
  name: "inception_4b/pool_proj"
  type: "Convolution"
  bottom: "inception_4b/pool"
  top: "inception_4b/pool_proj"
  param {
    lr_mult: 1
    decay_mult: 1
  }
  param {
    lr_mult: 2
    decay_mult: 0
  }
  convolution_param {
    num_output: 64
    kernel_size: 1
    weight_filler {
      type: "xavier"
      std: 0.1
    }
    bias_filler {
      type: "constant"
      value: 0.2
    }
  }
}
layer {
  name: "inception_4b/relu_pool_proj"
  type: "ReLU"
  bottom: "inception_4b/pool_proj"
  top: "inception_4b/pool_proj"
}
layer {
  name: "inception_4b/output"
  type: "Concat"
  bottom: "inception_4b/1x1"
  bottom: "inception_4b/3x3"
  bottom: "inception_4b/5x5"
  bottom: "inception_4b/pool_proj"
  top: "inception_4b/output"
}
layer {
  name: "inception_4c/1x1"
  type: "Convolution"
  bottom: "inception_4b/output"
  top: "inception_4c/1x1"
  param {
    lr_mult: 1
    decay_mult: 1
  }
  param {
    lr_mult: 2
    decay_mult: 0
  }
  convolution_param {
    num_output: 128
    kernel_size: 1
    weight_filler {
      type: "xavier"
      std: 0.03
    }
    bias_filler {
      type: "constant"
      value: 0.2
    }
  }
}
layer {
  name: "inception_4c/relu_1x1"
  type: "ReLU"
  bottom: "inception_4c/1x1"
  top: "inception_4c/1x1"
}
layer {
  name: "inception_4c/3x3_reduce"
  type: "Convolution"
  bottom: "inception_4b/output"
  top: "inception_4c/3x3_reduce"
  param {
    lr_mult: 1
    decay_mult: 1
  }
  param {
    lr_mult: 2
    decay_mult: 0
  }
  convolution_param {
    num_output: 128
    kernel_size: 1
    weight_filler {
      type: "xavier"
      std: 0.09
    }
    bias_filler {
      type: "constant"
      value: 0.2
    }
  }
}
layer {
  name: "inception_4c/relu_3x3_reduce"
  type: "ReLU"
  bottom: "inception_4c/3x3_reduce"
  top: "inception_4c/3x3_reduce"
}
layer {
  name: "inception_4c/3x3"
  type: "Convolution"
  bottom: "inception_4c/3x3_reduce"
  top: "inception_4c/3x3"
  param {
    lr_mult: 1
    decay_mult: 1
  }
  param {
    lr_mult: 2
    decay_mult: 0
  }
  convolution_param {
    num_output: 256
    pad: 1
    kernel_size: 3
    weight_filler {
      type: "xavier"
      std: 0.03
    }
    bias_filler {
      type: "constant"
      value: 0.2
    }
  }
}
layer {
  name: "inception_4c/relu_3x3"
  type: "ReLU"
  bottom: "inception_4c/3x3"
  top: "inception_4c/3x3"
}
layer {
  name: "inception_4c/5x5_reduce"
  type: "Convolution"
  bottom: "inception_4b/output"
  top: "inception_4c/5x5_reduce"
  param {
    lr_mult: 1
    decay_mult: 1
  }
  param {
    lr_mult: 2
    decay_mult: 0
  }
  convolution_param {
    num_output: 24
    kernel_size: 1
    weight_filler {
      type: "xavier"
      std: 0.2
    }
    bias_filler {
      type: "constant"
      value: 0.2
    }
  }
}
layer {
  name: "inception_4c/relu_5x5_reduce"
  type: "ReLU"
  bottom: "inception_4c/5x5_reduce"
  top: "inception_4c/5x5_reduce"
}
layer {
  name: "inception_4c/5x5"
  type: "Convolution"
  bottom: "inception_4c/5x5_reduce"
  top: "inception_4c/5x5"
  param {
    lr_mult: 1
    decay_mult: 1
  }
  param {
    lr_mult: 2
    decay_mult: 0
  }
  convolution_param {
    num_output: 64
    pad: 2
    kernel_size: 5
    weight_filler {
      type: "xavier"
      std: 0.03
    }
    bias_filler {
      type: "constant"
      value: 0.2
    }
  }
}
layer {
  name: "inception_4c/relu_5x5"
  type: "ReLU"
  bottom: "inception_4c/5x5"
  top: "inception_4c/5x5"
}
layer {
  name: "inception_4c/pool"
  type: "Pooling"
  bottom: "inception_4b/output"
  top: "inception_4c/pool"
  pooling_param {
    pool: MAX
    kernel_size: 3
    stride: 1
    pad: 1
  }
}
layer {
  name: "inception_4c/pool_proj"
  type: "Convolution"
  bottom: "inception_4c/pool"
  top: "inception_4c/pool_proj"
  param {
    lr_mult: 1
    decay_mult: 1
  }
  param {
    lr_mult: 2
    decay_mult: 0
  }
  convolution_param {
    num_output: 64
    kernel_size: 1
    weight_filler {
      type: "xavier"
      std: 0.1
    }
    bias_filler {
      type: "constant"
      value: 0.2
    }
  }
}
layer {
  name: "inception_4c/relu_pool_proj"
  type: "ReLU"
  bottom: "inception_4c/pool_proj"
  top: "inception_4c/pool_proj"
}
layer {
  name: "inception_4c/output"
  type: "Concat"
  bottom: "inception_4c/1x1"
  bottom: "inception_4c/3x3"
  bottom: "inception_4c/5x5"
  bottom: "inception_4c/pool_proj"
  top: "inception_4c/output"
}
layer {
  name: "inception_4d/1x1"
  type: "Convolution"
  bottom: "inception_4c/output"
  top: "inception_4d/1x1"
  param {
    lr_mult: 1
    decay_mult: 1
  }
  param {
    lr_mult: 2
    decay_mult: 0
  }
  convolution_param {
    num_output: 112
    kernel_size: 1
    weight_filler {
      type: "xavier"
      std: 0.03
    }
    bias_filler {
      type: "constant"
      value: 0.2
    }
  }
}
layer {
  name: "inception_4d/relu_1x1"
  type: "ReLU"
  bottom: "inception_4d/1x1"
  top: "inception_4d/1x1"
}
layer {
  name: "inception_4d/3x3_reduce"
  type: "Convolution"
  bottom: "inception_4c/output"
  top: "inception_4d/3x3_reduce"
  param {
    lr_mult: 1
    decay_mult: 1
  }
  param {
    lr_mult: 2
    decay_mult: 0
  }
  convolution_param {
    num_output: 144
    kernel_size: 1
    weight_filler {
      type: "xavier"
      std: 0.09
    }
    bias_filler {
      type: "constant"
      value: 0.2
    }
  }
}
layer {
  name: "inception_4d/relu_3x3_reduce"
  type: "ReLU"
  bottom: "inception_4d/3x3_reduce"
  top: "inception_4d/3x3_reduce"
}
layer {
  name: "inception_4d/3x3"
  type: "Convolution"
  bottom: "inception_4d/3x3_reduce"
  top: "inception_4d/3x3"
  param {
    lr_mult: 1
    decay_mult: 1
  }
  param {
    lr_mult: 2
    decay_mult: 0
  }
  convolution_param {
    num_output: 288
    pad: 1
    kernel_size: 3
    weight_filler {
      type: "xavier"
      std: 0.03
    }
    bias_filler {
      type: "constant"
      value: 0.2
    }
  }
}
layer {
  name: "inception_4d/relu_3x3"
  type: "ReLU"
  bottom: "inception_4d/3x3"
  top: "inception_4d/3x3"
}
layer {
  name: "inception_4d/5x5_reduce"
  type: "Convolution"
  bottom: "inception_4c/output"
  top: "inception_4d/5x5_reduce"
  param {
    lr_mult: 1
    decay_mult: 1
  }
  param {
    lr_mult: 2
    decay_mult: 0
  }
  convolution_param {
    num_output: 32
    kernel_size: 1
    weight_filler {
      type: "xavier"
      std: 0.2
    }
    bias_filler {
      type: "constant"
      value: 0.2
    }
  }
}
layer {
  name: "inception_4d/relu_5x5_reduce"
  type: "ReLU"
  bottom: "inception_4d/5x5_reduce"
  top: "inception_4d/5x5_reduce"
}
layer {
  name: "inception_4d/5x5"
  type: "Convolution"
  bottom: "inception_4d/5x5_reduce"
  top: "inception_4d/5x5"
  param {
    lr_mult: 1
    decay_mult: 1
  }
  param {
    lr_mult: 2
    decay_mult: 0
  }
  convolution_param {
    num_output: 64
    pad: 2
    kernel_size: 5
    weight_filler {
      type: "xavier"
      std: 0.03
    }
    bias_filler {
      type: "constant"
      value: 0.2
    }
  }
}
layer {
  name: "inception_4d/relu_5x5"
  type: "ReLU"
  bottom: "inception_4d/5x5"
  top: "inception_4d/5x5"
}
layer {
  name: "inception_4d/pool"
  type: "Pooling"
  bottom: "inception_4c/output"
  top: "inception_4d/pool"
  pooling_param {
    pool: MAX
    kernel_size: 3
    stride: 1
    pad: 1
  }
}
layer {
  name: "inception_4d/pool_proj"
  type: "Convolution"
  bottom: "inception_4d/pool"
  top: "inception_4d/pool_proj"
  param {
    lr_mult: 1
    decay_mult: 1
  }
  param {
    lr_mult: 2
    decay_mult: 0
  }
  convolution_param {
    num_output: 64
    kernel_size: 1
    weight_filler {
      type: "xavier"
      std: 0.1
    }
    bias_filler {
      type: "constant"
      value: 0.2
    }
  }
}
layer {
  name: "inception_4d/relu_pool_proj"
  type: "ReLU"
  bottom: "inception_4d/pool_proj"
  top: "inception_4d/pool_proj"
}
layer {
  name: "inception_4d/output"
  type: "Concat"
  bottom: "inception_4d/1x1"
  bottom: "inception_4d/3x3"
  bottom: "inception_4d/5x5"
  bottom: "inception_4d/pool_proj"
  top: "inception_4d/output"
}
layer {
  name: "loss2/ave_pool"
  type: "Pooling"
  bottom: "inception_4d/output"
  top: "loss2/ave_pool"
  pooling_param {
    pool: AVE
    kernel_size: 5
    stride: 3
  }
}
layer {
  name: "loss2/conv"
  type: "Convolution"
  bottom: "loss2/ave_pool"
  top: "loss2/conv"
  param {
    lr_mult: 1
    decay_mult: 1
  }
  param {
    lr_mult: 2
    decay_mult: 0
  }
  convolution_param {
    num_output: 128
    kernel_size: 1
    weight_filler {
      type: "xavier"
      std: 0.08
    }
    bias_filler {
      type: "constant"
      value: 0.2
    }
  }
}
layer {
  name: "loss2/relu_conv"
  type: "ReLU"
  bottom: "loss2/conv"
  top: "loss2/conv"
}
layer {
  name: "loss2/fc"
  type: "InnerProduct"
  bottom: "loss2/conv"
  top: "loss2/fc"
  param {
    lr_mult: 1
    decay_mult: 1
  }
  param {
    lr_mult: 2
    decay_mult: 0
  }
  inner_product_param {
    num_output: 1024
    weight_filler {
      type: "xavier"
      std: 0.02
    }
    bias_filler {
      type: "constant"
      value: 0.2
    }
  }
}
layer {
  name: "loss2/relu_fc"
  type: "ReLU"
  bottom: "loss2/fc"
  top: "loss2/fc"
}
layer {
  name: "loss2/drop_fc"
  type: "Dropout"
  bottom: "loss2/fc"
  top: "loss2/fc"
  dropout_param {
    dropout_ratio: 0.7
  }
}
layer {
  name: "loss2/classifier_plantvillage"
  type: "InnerProduct"
  bottom: "loss2/fc"
  top: "loss2/classifier_plantvillage"
  param {
    lr_mult: 1
    decay_mult: 1
  }
  param {
    lr_mult: 2
    decay_mult: 0
  }
  inner_product_param {
    num_output: 38
    weight_filler {
      type: "xavier"
      std: 0.0009765625
    }
    bias_filler {
      type: "constant"
      value: 0
    }
  }
}
layer {
  name: "inception_4e/1x1"
  type: "Convolution"
  bottom: "inception_4d/output"
  top: "inception_4e/1x1"
  param {
    lr_mult: 1
    decay_mult: 1
  }
  param {
    lr_mult: 2
    decay_mult: 0
  }
  convolution_param {
    num_output: 256
    kernel_size: 1
    weight_filler {
      type: "xavier"
      std: 0.03
    }
    bias_filler {
      type: "constant"
      value: 0.2
    }
  }
}
layer {
  name: "inception_4e/relu_1x1"
  type: "ReLU"
  bottom: "inception_4e/1x1"
  top: "inception_4e/1x1"
}
layer {
  name: "inception_4e/3x3_reduce"
  type: "Convolution"
  bottom: "inception_4d/output"
  top: "inception_4e/3x3_reduce"
  param {
    lr_mult: 1
    decay_mult: 1
  }
  param {
    lr_mult: 2
    decay_mult: 0
  }
  convolution_param {
    num_output: 160
    kernel_size: 1
    weight_filler {
      type: "xavier"
      std: 0.09
    }
    bias_filler {
      type: "constant"
      value: 0.2
    }
  }
}
layer {
  name: "inception_4e/relu_3x3_reduce"
  type: "ReLU"
  bottom: "inception_4e/3x3_reduce"
  top: "inception_4e/3x3_reduce"
}
layer {
  name: "inception_4e/3x3"
  type: "Convolution"
  bottom: "inception_4e/3x3_reduce"
  top: "inception_4e/3x3"
  param {
    lr_mult: 1
    decay_mult: 1
  }
  param {
    lr_mult: 2
    decay_mult: 0
  }
  convolution_param {
    num_output: 320
    pad: 1
    kernel_size: 3
    weight_filler {
      type: "xavier"
      std: 0.03
    }
    bias_filler {
      type: "constant"
      value: 0.2
    }
  }
}
layer {
  name: "inception_4e/relu_3x3"
  type: "ReLU"
  bottom: "inception_4e/3x3"
  top: "inception_4e/3x3"
}
layer {
  name: "inception_4e/5x5_reduce"
  type: "Convolution"
  bottom: "inception_4d/output"
  top: "inception_4e/5x5_reduce"
  param {
    lr_mult: 1
    decay_mult: 1
  }
  param {
    lr_mult: 2
    decay_mult: 0
  }
  convolution_param {
    num_output: 32
    kernel_size: 1
    weight_filler {
      type: "xavier"
      std: 0.2
    }
    bias_filler {
      type: "constant"
      value: 0.2
    }
  }
}
layer {
  name: "inception_4e/relu_5x5_reduce"
  type: "ReLU"
  bottom: "inception_4e/5x5_reduce"
  top: "inception_4e/5x5_reduce"
}
layer {
  name: "inception_4e/5x5"
  type: "Convolution"
  bottom: "inception_4e/5x5_reduce"
  top: "inception_4e/
I0403 19:28:44.182838  9284 layer_factory.hpp:77] Creating layer data
I0403 19:28:44.183446  9284 net.cpp:91] Creating Layer data
I0403 19:28:44.183480  9284 net.cpp:399] data -> data
I0403 19:28:44.183533  9284 net.cpp:399] data -> label
I0403 19:28:44.183571  9284 data_transformer.cpp:25] Loading mean file from: /home/mohanty/data/final_dataset/lmdb/grayscale-50-50/mean.binaryproto
I0403 19:28:44.184701  9286 db_lmdb.cpp:38] Opened lmdb /home/mohanty/data/final_dataset/lmdb/grayscale-50-50/test_db
I0403 19:28:44.197130  9284 data_layer.cpp:41] output data size: 24,3,224,224
I0403 19:28:44.225308  9284 net.cpp:141] Setting up data
I0403 19:28:44.225397  9284 net.cpp:148] Top shape: 24 3 224 224 (3612672)
I0403 19:28:44.225421  9284 net.cpp:148] Top shape: 24 (24)
I0403 19:28:44.225438  9284 net.cpp:156] Memory required for data: 14450784
I0403 19:28:44.225466  9284 layer_factory.hpp:77] Creating layer label_data_1_split
I0403 19:28:44.225494  9284 net.cpp:91] Creating Layer label_data_1_split
I0403 19:28:44.225512  9284 net.cpp:425] label_data_1_split <- label
I0403 19:28:44.225544  9284 net.cpp:399] label_data_1_split -> label_data_1_split_0
I0403 19:28:44.225572  9284 net.cpp:399] label_data_1_split -> label_data_1_split_1
I0403 19:28:44.225594  9284 net.cpp:399] label_data_1_split -> label_data_1_split_2
I0403 19:28:44.225615  9284 net.cpp:399] label_data_1_split -> label_data_1_split_3
I0403 19:28:44.225633  9284 net.cpp:399] label_data_1_split -> label_data_1_split_4
I0403 19:28:44.225654  9284 net.cpp:399] label_data_1_split -> label_data_1_split_5
I0403 19:28:44.225673  9284 net.cpp:399] label_data_1_split -> label_data_1_split_6
I0403 19:28:44.225694  9284 net.cpp:399] label_data_1_split -> label_data_1_split_7
I0403 19:28:44.225714  9284 net.cpp:399] label_data_1_split -> label_data_1_split_8
I0403 19:28:44.225744  9284 net.cpp:399] label_data_1_split -> label_data_1_split_9
I0403 19:28:44.225860  9284 net.cpp:141] Setting up label_data_1_split
I0403 19:28:44.225884  9284 net.cpp:148] Top shape: 24 (24)
I0403 19:28:44.225901  9284 net.cpp:148] Top shape: 24 (24)
I0403 19:28:44.225919  9284 net.cpp:148] Top shape: 24 (24)
I0403 19:28:44.225935  9284 net.cpp:148] Top shape: 24 (24)
I0403 19:28:44.225951  9284 net.cpp:148] Top shape: 24 (24)
I0403 19:28:44.225967  9284 net.cpp:148] Top shape: 24 (24)
I0403 19:28:44.225985  9284 net.cpp:148] Top shape: 24 (24)
I0403 19:28:44.226001  9284 net.cpp:148] Top shape: 24 (24)
I0403 19:28:44.226016  9284 net.cpp:148] Top shape: 24 (24)
I0403 19:28:44.226040  9284 net.cpp:148] Top shape: 24 (24)
I0403 19:28:44.226085  9284 net.cpp:156] Memory required for data: 14451744
I0403 19:28:44.226101  9284 layer_factory.hpp:77] Creating layer conv1/7x7_s2
I0403 19:28:44.226135  9284 net.cpp:91] Creating Layer conv1/7x7_s2
I0403 19:28:44.226153  9284 net.cpp:425] conv1/7x7_s2 <- data
I0403 19:28:44.226173  9284 net.cpp:399] conv1/7x7_s2 -> conv1/7x7_s2
I0403 19:28:44.372020  9284 net.cpp:141] Setting up conv1/7x7_s2
I0403 19:28:44.372097  9284 net.cpp:148] Top shape: 24 64 112 112 (19267584)
I0403 19:28:44.372117  9284 net.cpp:156] Memory required for data: 91522080
I0403 19:28:44.372150  9284 layer_factory.hpp:77] Creating layer conv1/relu_7x7
I0403 19:28:44.372180  9284 net.cpp:91] Creating Layer conv1/relu_7x7
I0403 19:28:44.372202  9284 net.cpp:425] conv1/relu_7x7 <- conv1/7x7_s2
I0403 19:28:44.372231  9284 net.cpp:386] conv1/relu_7x7 -> conv1/7x7_s2 (in-place)
I0403 19:28:44.372512  9284 net.cpp:141] Setting up conv1/relu_7x7
I0403 19:28:44.372541  9284 net.cpp:148] Top shape: 24 64 112 112 (19267584)
I0403 19:28:44.372558  9284 net.cpp:156] Memory required for data: 168592416
I0403 19:28:44.372575  9284 layer_factory.hpp:77] Creating layer pool1/3x3_s2
I0403 19:28:44.372602  9284 net.cpp:91] Creating Layer pool1/3x3_s2
I0403 19:28:44.372623  9284 net.cpp:425] pool1/3x3_s2 <- conv1/7x7_s2
I0403 19:28:44.372643  9284 net.cpp:399] pool1/3x3_s2 -> pool1/3x3_s2
I0403 19:28:44.372725  9284 net.cpp:141] Setting up pool1/3x3_s2
I0403 19:28:44.372751  9284 net.cpp:148] Top shape: 24 64 56 56 (4816896)
I0403 19:28:44.372766  9284 net.cpp:156] Memory required for data: 187860000
I0403 19:28:44.372782  9284 layer_factory.hpp:77] Creating layer pool1/norm1
I0403 19:28:44.372807  9284 net.cpp:91] Creating Layer pool1/norm1
I0403 19:28:44.372827  9284 net.cpp:425] pool1/norm1 <- pool1/3x3_s2
I0403 19:28:44.372848  9284 net.cpp:399] pool1/norm1 -> pool1/norm1
I0403 19:28:44.373167  9284 net.cpp:141] Setting up pool1/norm1
I0403 19:28:44.373196  9284 net.cpp:148] Top shape: 24 64 56 56 (4816896)
I0403 19:28:44.373224  9284 net.cpp:156] Memory required for data: 207127584
I0403 19:28:44.373307  9284 layer_factory.hpp:77] Creating layer conv2/3x3_reduce
I0403 19:28:44.373342  9284 net.cpp:91] Creating Layer conv2/3x3_reduce
I0403 19:28:44.373363  9284 net.cpp:425] conv2/3x3_reduce <- pool1/norm1
I0403 19:28:44.373384  9284 net.cpp:399] conv2/3x3_reduce -> conv2/3x3_reduce
I0403 19:28:44.374857  9284 net.cpp:141] Setting up conv2/3x3_reduce
I0403 19:28:44.374933  9284 net.cpp:148] Top shape: 24 64 56 56 (4816896)
I0403 19:28:44.374955  9284 net.cpp:156] Memory required for data: 226395168
I0403 19:28:44.374979  9284 layer_factory.hpp:77] Creating layer conv2/relu_3x3_reduce
I0403 19:28:44.374999  9284 net.cpp:91] Creating Layer conv2/relu_3x3_reduce
I0403 19:28:44.375015  9284 net.cpp:425] conv2/relu_3x3_reduce <- conv2/3x3_reduce
I0403 19:28:44.375036  9284 net.cpp:386] conv2/relu_3x3_reduce -> conv2/3x3_reduce (in-place)
I0403 19:28:44.375327  9284 net.cpp:141] Setting up conv2/relu_3x3_reduce
I0403 19:28:44.375358  9284 net.cpp:148] Top shape: 24 64 56 56 (4816896)
I0403 19:28:44.375375  9284 net.cpp:156] Memory required for data: 245662752
I0403 19:28:44.375392  9284 layer_factory.hpp:77] Creating layer conv2/3x3
I0403 19:28:44.375417  9284 net.cpp:91] Creating Layer conv2/3x3
I0403 19:28:44.375438  9284 net.cpp:425] conv2/3x3 <- conv2/3x3_reduce
I0403 19:28:44.375458  9284 net.cpp:399] conv2/3x3 -> conv2/3x3
I0403 19:28:44.377918  9284 net.cpp:141] Setting up conv2/3x3
I0403 19:28:44.377954  9284 net.cpp:148] Top shape: 24 192 56 56 (14450688)
I0403 19:28:44.377974  9284 net.cpp:156] Memory required for data: 303465504
I0403 19:28:44.377997  9284 layer_factory.hpp:77] Creating layer conv2/relu_3x3
I0403 19:28:44.378020  9284 net.cpp:91] Creating Layer conv2/relu_3x3
I0403 19:28:44.378036  9284 net.cpp:425] conv2/relu_3x3 <- conv2/3x3
I0403 19:28:44.378058  9284 net.cpp:386] conv2/relu_3x3 -> conv2/3x3 (in-place)
I0403 19:28:44.378300  9284 net.cpp:141] Setting up conv2/relu_3x3
I0403 19:28:44.378329  9284 net.cpp:148] Top shape: 24 192 56 56 (14450688)
I0403 19:28:44.378377  9284 net.cpp:156] Memory required for data: 361268256
I0403 19:28:44.378393  9284 layer_factory.hpp:77] Creating layer conv2/norm2
I0403 19:28:44.378415  9284 net.cpp:91] Creating Layer conv2/norm2
I0403 19:28:44.378435  9284 net.cpp:425] conv2/norm2 <- conv2/3x3
I0403 19:28:44.378454  9284 net.cpp:399] conv2/norm2 -> conv2/norm2
I0403 19:28:44.378772  9284 net.cpp:141] Setting up conv2/norm2
I0403 19:28:44.378801  9284 net.cpp:148] Top shape: 24 192 56 56 (14450688)
I0403 19:28:44.378818  9284 net.cpp:156] Memory required for data: 419071008
I0403 19:28:44.378834  9284 layer_factory.hpp:77] Creating layer pool2/3x3_s2
I0403 19:28:44.378855  9284 net.cpp:91] Creating Layer pool2/3x3_s2
I0403 19:28:44.378872  9284 net.cpp:425] pool2/3x3_s2 <- conv2/norm2
I0403 19:28:44.378892  9284 net.cpp:399] pool2/3x3_s2 -> pool2/3x3_s2
I0403 19:28:44.378949  9284 net.cpp:141] Setting up pool2/3x3_s2
I0403 19:28:44.378974  9284 net.cpp:148] Top shape: 24 192 28 28 (3612672)
I0403 19:28:44.378990  9284 net.cpp:156] Memory required for data: 433521696
I0403 19:28:44.379006  9284 layer_factory.hpp:77] Creating layer pool2/3x3_s2_pool2/3x3_s2_0_split
I0403 19:28:44.379024  9284 net.cpp:91] Creating Layer pool2/3x3_s2_pool2/3x3_s2_0_split
I0403 19:28:44.379041  9284 net.cpp:425] pool2/3x3_s2_pool2/3x3_s2_0_split <- pool2/3x3_s2
I0403 19:28:44.379062  9284 net.cpp:399] pool2/3x3_s2_pool2/3x3_s2_0_split -> pool2/3x3_s2_pool2/3x3_s2_0_split_0
I0403 19:28:44.379084  9284 net.cpp:399] pool2/3x3_s2_pool2/3x3_s2_0_split -> pool2/3x3_s2_pool2/3x3_s2_0_split_1
I0403 19:28:44.379106  9284 net.cpp:399] pool2/3x3_s2_pool2/3x3_s2_0_split -> pool2/3x3_s2_pool2/3x3_s2_0_split_2
I0403 19:28:44.379127  9284 net.cpp:399] pool2/3x3_s2_pool2/3x3_s2_0_split -> pool2/3x3_s2_pool2/3x3_s2_0_split_3
I0403 19:28:44.379201  9284 net.cpp:141] Setting up pool2/3x3_s2_pool2/3x3_s2_0_split
I0403 19:28:44.379230  9284 net.cpp:148] Top shape: 24 192 28 28 (3612672)
I0403 19:28:44.379248  9284 net.cpp:148] Top shape: 24 192 28 28 (3612672)
I0403 19:28:44.379266  9284 net.cpp:148] Top shape: 24 192 28 28 (3612672)
I0403 19:28:44.379282  9284 net.cpp:148] Top shape: 24 192 28 28 (3612672)
I0403 19:28:44.379297  9284 net.cpp:156] Memory required for data: 491324448
I0403 19:28:44.379312  9284 layer_factory.hpp:77] Creating layer inception_3a/1x1
I0403 19:28:44.379336  9284 net.cpp:91] Creating Layer inception_3a/1x1
I0403 19:28:44.379355  9284 net.cpp:425] inception_3a/1x1 <- pool2/3x3_s2_pool2/3x3_s2_0_split_0
I0403 19:28:44.379377  9284 net.cpp:399] inception_3a/1x1 -> inception_3a/1x1
I0403 19:28:44.381016  9284 net.cpp:141] Setting up inception_3a/1x1
I0403 19:28:44.381054  9284 net.cpp:148] Top shape: 24 64 28 28 (1204224)
I0403 19:28:44.381074  9284 net.cpp:156] Memory required for data: 496141344
I0403 19:28:44.381094  9284 layer_factory.hpp:77] Creating layer inception_3a/relu_1x1
I0403 19:28:44.381114  9284 net.cpp:91] Creating Layer inception_3a/relu_1x1
I0403 19:28:44.381130  9284 net.cpp:425] inception_3a/relu_1x1 <- inception_3a/1x1
I0403 19:28:44.381150  9284 net.cpp:386] inception_3a/relu_1x1 -> inception_3a/1x1 (in-place)
I0403 19:28:44.381340  9284 net.cpp:141] Setting up inception_3a/relu_1x1
I0403 19:28:44.381367  9284 net.cpp:148] Top shape: 24 64 28 28 (1204224)
I0403 19:28:44.381384  9284 net.cpp:156] Memory required for data: 500958240
I0403 19:28:44.381402  9284 layer_factory.hpp:77] Creating layer inception_3a/3x3_reduce
I0403 19:28:44.381427  9284 net.cpp:91] Creating Layer inception_3a/3x3_reduce
I0403 19:28:44.381445  9284 net.cpp:425] inception_3a/3x3_reduce <- pool2/3x3_s2_pool2/3x3_s2_0_split_1
I0403 19:28:44.381469  9284 net.cpp:399] inception_3a/3x3_reduce -> inception_3a/3x3_reduce
I0403 19:28:44.383285  9284 net.cpp:141] Setting up inception_3a/3x3_reduce
I0403 19:28:44.383321  9284 net.cpp:148] Top shape: 24 96 28 28 (1806336)
I0403 19:28:44.383338  9284 net.cpp:156] Memory required for data: 508183584
I0403 19:28:44.383364  9284 layer_factory.hpp:77] Creating layer inception_3a/relu_3x3_reduce
I0403 19:28:44.383404  9284 net.cpp:91] Creating Layer inception_3a/relu_3x3_reduce
I0403 19:28:44.383422  9284 net.cpp:425] inception_3a/relu_3x3_reduce <- inception_3a/3x3_reduce
I0403 19:28:44.383445  9284 net.cpp:386] inception_3a/relu_3x3_reduce -> inception_3a/3x3_reduce (in-place)
I0403 19:28:44.383641  9284 net.cpp:141] Setting up inception_3a/relu_3x3_reduce
I0403 19:28:44.383667  9284 net.cpp:148] Top shape: 24 96 28 28 (1806336)
I0403 19:28:44.383684  9284 net.cpp:156] Memory required for data: 515408928
I0403 19:28:44.383700  9284 layer_factory.hpp:77] Creating layer inception_3a/3x3
I0403 19:28:44.383725  9284 net.cpp:91] Creating Layer inception_3a/3x3
I0403 19:28:44.383744  9284 net.cpp:425] inception_3a/3x3 <- inception_3a/3x3_reduce
I0403 19:28:44.383764  9284 net.cpp:399] inception_3a/3x3 -> inception_3a/3x3
I0403 19:28:44.385571  9284 net.cpp:141] Setting up inception_3a/3x3
I0403 19:28:44.385602  9284 net.cpp:148] Top shape: 24 128 28 28 (2408448)
I0403 19:28:44.385622  9284 net.cpp:156] Memory required for data: 525042720
I0403 19:28:44.385643  9284 layer_factory.hpp:77] Creating layer inception_3a/relu_3x3
I0403 19:28:44.385663  9284 net.cpp:91] Creating Layer inception_3a/relu_3x3
I0403 19:28:44.385680  9284 net.cpp:425] inception_3a/relu_3x3 <- inception_3a/3x3
I0403 19:28:44.385702  9284 net.cpp:386] inception_3a/relu_3x3 -> inception_3a/3x3 (in-place)
I0403 19:28:44.385985  9284 net.cpp:141] Setting up inception_3a/relu_3x3
I0403 19:28:44.386015  9284 net.cpp:148] Top shape: 24 128 28 28 (2408448)
I0403 19:28:44.386034  9284 net.cpp:156] Memory required for data: 534676512
I0403 19:28:44.386051  9284 layer_factory.hpp:77] Creating layer inception_3a/5x5_reduce
I0403 19:28:44.386076  9284 net.cpp:91] Creating Layer inception_3a/5x5_reduce
I0403 19:28:44.386096  9284 net.cpp:425] inception_3a/5x5_reduce <- pool2/3x3_s2_pool2/3x3_s2_0_split_2
I0403 19:28:44.386121  9284 net.cpp:399] inception_3a/5x5_reduce -> inception_3a/5x5_reduce
I0403 19:28:44.387135  9284 net.cpp:141] Setting up inception_3a/5x5_reduce
I0403 19:28:44.387167  9284 net.cpp:148] Top shape: 24 16 28 28 (301056)
I0403 19:28:44.387186  9284 net.cpp:156] Memory required for data: 535880736
I0403 19:28:44.387205  9284 layer_factory.hpp:77] Creating layer inception_3a/relu_5x5_reduce
I0403 19:28:44.387244  9284 net.cpp:91] Creating Layer inception_3a/relu_5x5_reduce
I0403 19:28:44.387264  9284 net.cpp:425] inception_3a/relu_5x5_reduce <- inception_3a/5x5_reduce
I0403 19:28:44.387295  9284 net.cpp:386] inception_3a/relu_5x5_reduce -> inception_3a/5x5_reduce (in-place)
I0403 19:28:44.387606  9284 net.cpp:141] Setting up inception_3a/relu_5x5_reduce
I0403 19:28:44.387634  9284 net.cpp:148] Top shape: 24 16 28 28 (301056)
I0403 19:28:44.387650  9284 net.cpp:156] Memory required for data: 537084960
I0403 19:28:44.387665  9284 layer_factory.hpp:77] Creating layer inception_3a/5x5
I0403 19:28:44.387689  9284 net.cpp:91] Creating Layer inception_3a/5x5
I0403 19:28:44.387708  9284 net.cpp:425] inception_3a/5x5 <- inception_3a/5x5_reduce
I0403 19:28:44.387732  9284 net.cpp:399] inception_3a/5x5 -> inception_3a/5x5
I0403 19:28:44.388797  9284 net.cpp:141] Setting up inception_3a/5x5
I0403 19:28:44.388831  9284 net.cpp:148] Top shape: 24 32 28 28 (602112)
I0403 19:28:44.388850  9284 net.cpp:156] Memory required for data: 539493408
I0403 19:28:44.388871  9284 layer_factory.hpp:77] Creating layer inception_3a/relu_5x5
I0403 19:28:44.388890  9284 net.cpp:91] Creating Layer inception_3a/relu_5x5
I0403 19:28:44.388907  9284 net.cpp:425] inception_3a/relu_5x5 <- inception_3a/5x5
I0403 19:28:44.388926  9284 net.cpp:386] inception_3a/relu_5x5 -> inception_3a/5x5 (in-place)
I0403 19:28:44.389108  9284 net.cpp:141] Setting up inception_3a/relu_5x5
I0403 19:28:44.389135  9284 net.cpp:148] Top shape: 24 32 28 28 (602112)
I0403 19:28:44.389150  9284 net.cpp:156] Memory required for data: 541901856
I0403 19:28:44.389166  9284 layer_factory.hpp:77] Creating layer inception_3a/pool
I0403 19:28:44.389186  9284 net.cpp:91] Creating Layer inception_3a/pool
I0403 19:28:44.389225  9284 net.cpp:425] inception_3a/pool <- pool2/3x3_s2_pool2/3x3_s2_0_split_3
I0403 19:28:44.389248  9284 net.cpp:399] inception_3a/pool -> inception_3a/pool
I0403 19:28:44.389308  9284 net.cpp:141] Setting up inception_3a/pool
I0403 19:28:44.389335  9284 net.cpp:148] Top shape: 24 192 28 28 (3612672)
I0403 19:28:44.389351  9284 net.cpp:156] Memory required for data: 556352544
I0403 19:28:44.389367  9284 layer_factory.hpp:77] Creating layer inception_3a/pool_proj
I0403 19:28:44.389390  9284 net.cpp:91] Creating Layer inception_3a/pool_proj
I0403 19:28:44.389410  9284 net.cpp:425] inception_3a/pool_proj <- inception_3a/pool
I0403 19:28:44.389430  9284 net.cpp:399] inception_3a/pool_proj -> inception_3a/pool_proj
I0403 19:28:44.390446  9284 net.cpp:141] Setting up inception_3a/pool_proj
I0403 19:28:44.390477  9284 net.cpp:148] Top shape: 24 32 28 28 (602112)
I0403 19:28:44.390496  9284 net.cpp:156] Memory required for data: 558760992
I0403 19:28:44.390527  9284 layer_factory.hpp:77] Creating layer inception_3a/relu_pool_proj
I0403 19:28:44.390547  9284 net.cpp:91] Creating Layer inception_3a/relu_pool_proj
I0403 19:28:44.390574  9284 net.cpp:425] inception_3a/relu_pool_proj <- inception_3a/pool_proj
I0403 19:28:44.390596  9284 net.cpp:386] inception_3a/relu_pool_proj -> inception_3a/pool_proj (in-place)
I0403 19:28:44.390888  9284 net.cpp:141] Setting up inception_3a/relu_pool_proj
I0403 19:28:44.390918  9284 net.cpp:148] Top shape: 24 32 28 28 (602112)
I0403 19:28:44.390935  9284 net.cpp:156] Memory required for data: 561169440
I0403 19:28:44.390952  9284 layer_factory.hpp:77] Creating layer inception_3a/output
I0403 19:28:44.390971  9284 net.cpp:91] Creating Layer inception_3a/output
I0403 19:28:44.390987  9284 net.cpp:425] inception_3a/output <- inception_3a/1x1
I0403 19:28:44.391005  9284 net.cpp:425] inception_3a/output <- inception_3a/3x3
I0403 19:28:44.391022  9284 net.cpp:425] inception_3a/output <- inception_3a/5x5
I0403 19:28:44.391039  9284 net.cpp:425] inception_3a/output <- inception_3a/pool_proj
I0403 19:28:44.391059  9284 net.cpp:399] inception_3a/output -> inception_3a/output
I0403 19:28:44.391108  9284 net.cpp:141] Setting up inception_3a/output
I0403 19:28:44.391131  9284 net.cpp:148] Top shape: 24 256 28 28 (4816896)
I0403 19:28:44.391150  9284 net.cpp:156] Memory required for data: 580437024
I0403 19:28:44.391167  9284 layer_factory.hpp:77] Creating layer inception_3a/output_inception_3a/output_0_split
I0403 19:28:44.391186  9284 net.cpp:91] Creating Layer inception_3a/output_inception_3a/output_0_split
I0403 19:28:44.391202  9284 net.cpp:425] inception_3a/output_inception_3a/output_0_split <- inception_3a/output
I0403 19:28:44.391227  9284 net.cpp:399] inception_3a/output_inception_3a/output_0_split -> inception_3a/output_inception_3a/output_0_split_0
I0403 19:28:44.391249  9284 net.cpp:399] inception_3a/output_inception_3a/output_0_split -> inception_3a/output_inception_3a/output_0_split_1
I0403 19:28:44.391276  9284 net.cpp:399] inception_3a/output_inception_3a/output_0_split -> inception_3a/output_inception_3a/output_0_split_2
I0403 19:28:44.391299  9284 net.cpp:399] inception_3a/output_inception_3a/output_0_split -> inception_3a/output_inception_3a/output_0_split_3
I0403 19:28:44.391377  9284 net.cpp:141] Setting up inception_3a/output_inception_3a/output_0_split
I0403 19:28:44.391402  9284 net.cpp:148] Top shape: 24 256 28 28 (4816896)
I0403 19:28:44.391420  9284 net.cpp:148] Top shape: 24 256 28 28 (4816896)
I0403 19:28:44.391436  9284 net.cpp:148] Top shape: 24 256 28 28 (4816896)
I0403 19:28:44.391453  9284 net.cpp:148] Top shape: 24 256 28 28 (4816896)
I0403 19:28:44.391468  9284 net.cpp:156] Memory required for data: 657507360
I0403 19:28:44.391484  9284 layer_factory.hpp:77] Creating layer inception_3b/1x1
I0403 19:28:44.391508  9284 net.cpp:91] Creating Layer inception_3b/1x1
I0403 19:28:44.391527  9284 net.cpp:425] inception_3b/1x1 <- inception_3a/output_inception_3a/output_0_split_0
I0403 19:28:44.391546  9284 net.cpp:399] inception_3b/1x1 -> inception_3b/1x1
I0403 19:28:44.392747  9284 net.cpp:141] Setting up inception_3b/1x1
I0403 19:28:44.392791  9284 net.cpp:148] Top shape: 24 128 28 28 (2408448)
I0403 19:28:44.392809  9284 net.cpp:156] Memory required for data: 667141152
I0403 19:28:44.392829  9284 layer_factory.hpp:77] Creating layer inception_3b/relu_1x1
I0403 19:28:44.392853  9284 net.cpp:91] Creating Layer inception_3b/relu_1x1
I0403 19:28:44.392871  9284 net.cpp:425] inception_3b/relu_1x1 <- inception_3b/1x1
I0403 19:28:44.392891  9284 net.cpp:386] inception_3b/relu_1x1 -> inception_3b/1x1 (in-place)
I0403 19:28:44.393076  9284 net.cpp:141] Setting up inception_3b/relu_1x1
I0403 19:28:44.393103  9284 net.cpp:148] Top shape: 24 128 28 28 (2408448)
I0403 19:28:44.393121  9284 net.cpp:156] Memory required for data: 676774944
I0403 19:28:44.393138  9284 layer_factory.hpp:77] Creating layer inception_3b/3x3_reduce
I0403 19:28:44.393162  9284 net.cpp:91] Creating Layer inception_3b/3x3_reduce
I0403 19:28:44.393182  9284 net.cpp:425] inception_3b/3x3_reduce <- inception_3a/output_inception_3a/output_0_split_1
I0403 19:28:44.393205  9284 net.cpp:399] inception_3b/3x3_reduce -> inception_3b/3x3_reduce
I0403 19:28:44.394403  9284 net.cpp:141] Setting up inception_3b/3x3_reduce
I0403 19:28:44.394434  9284 net.cpp:148] Top shape: 24 128 28 28 (2408448)
I0403 19:28:44.394455  9284 net.cpp:156] Memory required for data: 686408736
I0403 19:28:44.394475  9284 layer_factory.hpp:77] Creating layer inception_3b/relu_3x3_reduce
I0403 19:28:44.394495  9284 net.cpp:91] Creating Layer inception_3b/relu_3x3_reduce
I0403 19:28:44.394515  9284 net.cpp:425] inception_3b/relu_3x3_reduce <- inception_3b/3x3_reduce
I0403 19:28:44.394533  9284 net.cpp:386] inception_3b/relu_3x3_reduce -> inception_3b/3x3_reduce (in-place)
I0403 19:28:44.394716  9284 net.cpp:141] Setting up inception_3b/relu_3x3_reduce
I0403 19:28:44.394745  9284 net.cpp:148] Top shape: 24 128 28 28 (2408448)
I0403 19:28:44.394762  9284 net.cpp:156] Memory required for data: 696042528
I0403 19:28:44.394778  9284 layer_factory.hpp:77] Creating layer inception_3b/3x3
I0403 19:28:44.394804  9284 net.cpp:91] Creating Layer inception_3b/3x3
I0403 19:28:44.394822  9284 net.cpp:425] inception_3b/3x3 <- inception_3b/3x3_reduce
I0403 19:28:44.394845  9284 net.cpp:399] inception_3b/3x3 -> inception_3b/3x3
I0403 19:28:44.397917  9284 net.cpp:141] Setting up inception_3b/3x3
I0403 19:28:44.397949  9284 net.cpp:148] Top shape: 24 192 28 28 (3612672)
I0403 19:28:44.397967  9284 net.cpp:156] Memory required for data: 710493216
I0403 19:28:44.397986  9284 layer_factory.hpp:77] Creating layer inception_3b/relu_3x3
I0403 19:28:44.398006  9284 net.cpp:91] Creating Layer inception_3b/relu_3x3
I0403 19:28:44.398025  9284 net.cpp:425] inception_3b/relu_3x3 <- inception_3b/3x3
I0403 19:28:44.398047  9284 net.cpp:386] inception_3b/relu_3x3 -> inception_3b/3x3 (in-place)
I0403 19:28:44.398345  9284 net.cpp:141] Setting up inception_3b/relu_3x3
I0403 19:28:44.398375  9284 net.cpp:148] Top shape: 24 192 28 28 (3612672)
I0403 19:28:44.398391  9284 net.cpp:156] Memory required for data: 724943904
I0403 19:28:44.398408  9284 layer_factory.hpp:77] Creating layer inception_3b/5x5_reduce
I0403 19:28:44.398433  9284 net.cpp:91] Creating Layer inception_3b/5x5_reduce
I0403 19:28:44.398453  9284 net.cpp:425] inception_3b/5x5_reduce <- inception_3a/output_inception_3a/output_0_split_2
I0403 19:28:44.398478  9284 net.cpp:399] inception_3b/5x5_reduce -> inception_3b/5x5_reduce
I0403 19:28:44.399518  9284 net.cpp:141] Setting up inception_3b/5x5_reduce
I0403 19:28:44.399551  9284 net.cpp:148] Top shape: 24 32 28 28 (602112)
I0403 19:28:44.399570  9284 net.cpp:156] Memory required for data: 727352352
I0403 19:28:44.399591  9284 layer_factory.hpp:77] Creating layer inception_3b/relu_5x5_reduce
I0403 19:28:44.399611  9284 net.cpp:91] Creating Layer inception_3b/relu_5x5_reduce
I0403 19:28:44.399629  9284 net.cpp:425] inception_3b/relu_5x5_reduce <- inception_3b/5x5_reduce
I0403 19:28:44.399652  9284 net.cpp:386] inception_3b/relu_5x5_reduce -> inception_3b/5x5_reduce (in-place)
I0403 19:28:44.399855  9284 net.cpp:141] Setting up inception_3b/relu_5x5_reduce
I0403 19:28:44.399883  9284 net.cpp:148] Top shape: 24 32 28 28 (602112)
I0403 19:28:44.399899  9284 net.cpp:156] Memory required for data: 729760800
I0403 19:28:44.399914  9284 layer_factory.hpp:77] Creating layer inception_3b/5x5
I0403 19:28:44.399938  9284 net.cpp:91] Creating Layer inception_3b/5x5
I0403 19:28:44.399956  9284 net.cpp:425] inception_3b/5x5 <- inception_3b/5x5_reduce
I0403 19:28:44.399979  9284 net.cpp:399] inception_3b/5x5 -> inception_3b/5x5
I0403 19:28:44.402053  9284 net.cpp:141] Setting up inception_3b/5x5
I0403 19:28:44.402086  9284 net.cpp:148] Top shape: 24 96 28 28 (1806336)
I0403 19:28:44.402103  9284 net.cpp:156] Memory required for data: 736986144
I0403 19:28:44.402124  9284 layer_factory.hpp:77] Creating layer inception_3b/relu_5x5
I0403 19:28:44.402150  9284 net.cpp:91] Creating Layer inception_3b/relu_5x5
I0403 19:28:44.402168  9284 net.cpp:425] inception_3b/relu_5x5 <- inception_3b/5x5
I0403 19:28:44.402187  9284 net.cpp:386] inception_3b/relu_5x5 -> inception_3b/5x5 (in-place)
I0403 19:28:44.402397  9284 net.cpp:141] Setting up inception_3b/relu_5x5
I0403 19:28:44.402426  9284 net.cpp:148] Top shape: 24 96 28 28 (1806336)
I0403 19:28:44.402442  9284 net.cpp:156] Memory required for data: 744211488
I0403 19:28:44.402458  9284 layer_factory.hpp:77] Creating layer inception_3b/pool
I0403 19:28:44.402477  9284 net.cpp:91] Creating Layer inception_3b/pool
I0403 19:28:44.402494  9284 net.cpp:425] inception_3b/pool <- inception_3a/output_inception_3a/output_0_split_3
I0403 19:28:44.402513  9284 net.cpp:399] inception_3b/pool -> inception_3b/pool
I0403 19:28:44.402572  9284 net.cpp:141] Setting up inception_3b/pool
I0403 19:28:44.402601  9284 net.cpp:148] Top shape: 24 256 28 28 (4816896)
I0403 19:28:44.402617  9284 net.cpp:156] Memory required for data: 763479072
I0403 19:28:44.402633  9284 layer_factory.hpp:77] Creating layer inception_3b/pool_proj
I0403 19:28:44.402655  9284 net.cpp:91] Creating Layer inception_3b/pool_proj
I0403 19:28:44.402673  9284 net.cpp:425] inception_3b/pool_proj <- inception_3b/pool
I0403 19:28:44.402695  9284 net.cpp:399] inception_3b/pool_proj -> inception_3b/pool_proj
I0403 19:28:44.403836  9284 net.cpp:141] Setting up inception_3b/pool_proj
I0403 19:28:44.403866  9284 net.cpp:148] Top shape: 24 64 28 28 (1204224)
I0403 19:28:44.403882  9284 net.cpp:156] Memory required for data: 768295968
I0403 19:28:44.403900  9284 layer_factory.hpp:77] Creating layer inception_3b/relu_pool_proj
I0403 19:28:44.403921  9284 net.cpp:91] Creating Layer inception_3b/relu_pool_proj
I0403 19:28:44.403939  9284 net.cpp:425] inception_3b/relu_pool_proj <- inception_3b/pool_proj
I0403 19:28:44.403957  9284 net.cpp:386] inception_3b/relu_pool_proj -> inception_3b/pool_proj (in-place)
I0403 19:28:44.404366  9284 net.cpp:141] Setting up inception_3b/relu_pool_proj
I0403 19:28:44.404392  9284 net.cpp:148] Top shape: 24 64 28 28 (1204224)
I0403 19:28:44.404408  9284 net.cpp:156] Memory required for data: 773112864
I0403 19:28:44.404424  9284 layer_factory.hpp:77] Creating layer inception_3b/output
I0403 19:28:44.404443  9284 net.cpp:91] Creating Layer inception_3b/output
I0403 19:28:44.404458  9284 net.cpp:425] inception_3b/output <- inception_3b/1x1
I0403 19:28:44.404475  9284 net.cpp:425] inception_3b/output <- inception_3b/3x3
I0403 19:28:44.404491  9284 net.cpp:425] inception_3b/output <- inception_3b/5x5
I0403 19:28:44.404508  9284 net.cpp:425] inception_3b/output <- inception_3b/pool_proj
I0403 19:28:44.404527  9284 net.cpp:399] inception_3b/output -> inception_3b/output
I0403 19:28:44.404572  9284 net.cpp:141] Setting up inception_3b/output
I0403 19:28:44.404598  9284 net.cpp:148] Top shape: 24 480 28 28 (9031680)
I0403 19:28:44.404614  9284 net.cpp:156] Memory required for data: 809239584
I0403 19:28:44.404630  9284 layer_factory.hpp:77] Creating layer pool3/3x3_s2
I0403 19:28:44.404649  9284 net.cpp:91] Creating Layer pool3/3x3_s2
I0403 19:28:44.404664  9284 net.cpp:425] pool3/3x3_s2 <- inception_3b/output
I0403 19:28:44.404701  9284 net.cpp:399] pool3/3x3_s2 -> pool3/3x3_s2
I0403 19:28:44.404763  9284 net.cpp:141] Setting up pool3/3x3_s2
I0403 19:28:44.404788  9284 net.cpp:148] Top shape: 24 480 14 14 (2257920)
I0403 19:28:44.404803  9284 net.cpp:156] Memory required for data: 818271264
I0403 19:28:44.404819  9284 layer_factory.hpp:77] Creating layer pool3/3x3_s2_pool3/3x3_s2_0_split
I0403 19:28:44.404839  9284 net.cpp:91] Creating Layer pool3/3x3_s2_pool3/3x3_s2_0_split
I0403 19:28:44.404855  9284 net.cpp:425] pool3/3x3_s2_pool3/3x3_s2_0_split <- pool3/3x3_s2
I0403 19:28:44.404872  9284 net.cpp:399] pool3/3x3_s2_pool3/3x3_s2_0_split -> pool3/3x3_s2_pool3/3x3_s2_0_split_0
I0403 19:28:44.404892  9284 net.cpp:399] pool3/3x3_s2_pool3/3x3_s2_0_split -> pool3/3x3_s2_pool3/3x3_s2_0_split_1
I0403 19:28:44.404912  9284 net.cpp:399] pool3/3x3_s2_pool3/3x3_s2_0_split -> pool3/3x3_s2_pool3/3x3_s2_0_split_2
I0403 19:28:44.404935  9284 net.cpp:399] pool3/3x3_s2_pool3/3x3_s2_0_split -> pool3/3x3_s2_pool3/3x3_s2_0_split_3
I0403 19:28:44.405015  9284 net.cpp:141] Setting up pool3/3x3_s2_pool3/3x3_s2_0_split
I0403 19:28:44.405038  9284 net.cpp:148] Top shape: 24 480 14 14 (2257920)
I0403 19:28:44.405055  9284 net.cpp:148] Top shape: 24 480 14 14 (2257920)
I0403 19:28:44.405072  9284 net.cpp:148] Top shape: 24 480 14 14 (2257920)
I0403 19:28:44.405088  9284 net.cpp:148] Top shape: 24 480 14 14 (2257920)
I0403 19:28:44.405103  9284 net.cpp:156] Memory required for data: 854397984
I0403 19:28:44.405118  9284 layer_factory.hpp:77] Creating layer inception_4a/1x1
I0403 19:28:44.405141  9284 net.cpp:91] Creating Layer inception_4a/1x1
I0403 19:28:44.405158  9284 net.cpp:425] inception_4a/1x1 <- pool3/3x3_s2_pool3/3x3_s2_0_split_0
I0403 19:28:44.405180  9284 net.cpp:399] inception_4a/1x1 -> inception_4a/1x1
I0403 19:28:44.406869  9284 net.cpp:141] Setting up inception_4a/1x1
I0403 19:28:44.406899  9284 net.cpp:148] Top shape: 24 192 14 14 (903168)
I0403 19:28:44.406915  9284 net.cpp:156] Memory required for data: 858010656
I0403 19:28:44.406935  9284 layer_factory.hpp:77] Creating layer inception_4a/relu_1x1
I0403 19:28:44.406957  9284 net.cpp:91] Creating Layer inception_4a/relu_1x1
I0403 19:28:44.406975  9284 net.cpp:425] inception_4a/relu_1x1 <- inception_4a/1x1
I0403 19:28:44.406994  9284 net.cpp:386] inception_4a/relu_1x1 -> inception_4a/1x1 (in-place)
I0403 19:28:44.407176  9284 net.cpp:141] Setting up inception_4a/relu_1x1
I0403 19:28:44.407202  9284 net.cpp:148] Top shape: 24 192 14 14 (903168)
I0403 19:28:44.407223  9284 net.cpp:156] Memory required for data: 861623328
I0403 19:28:44.407239  9284 layer_factory.hpp:77] Creating layer inception_4a/3x3_reduce
I0403 19:28:44.407265  9284 net.cpp:91] Creating Layer inception_4a/3x3_reduce
I0403 19:28:44.407284  9284 net.cpp:425] inception_4a/3x3_reduce <- pool3/3x3_s2_pool3/3x3_s2_0_split_1
I0403 19:28:44.407304  9284 net.cpp:399] inception_4a/3x3_reduce -> inception_4a/3x3_reduce
I0403 19:28:44.408577  9284 net.cpp:141] Setting up inception_4a/3x3_reduce
I0403 19:28:44.408606  9284 net.cpp:148] Top shape: 24 96 14 14 (451584)
I0403 19:28:44.408620  9284 net.cpp:156] Memory required for data: 863429664
I0403 19:28:44.408645  9284 layer_factory.hpp:77] Creating layer inception_4a/relu_3x3_reduce
I0403 19:28:44.408666  9284 net.cpp:91] Creating Layer inception_4a/relu_3x3_reduce
I0403 19:28:44.408684  9284 net.cpp:425] inception_4a/relu_3x3_reduce <- inception_4a/3x3_reduce
I0403 19:28:44.408701  9284 net.cpp:386] inception_4a/relu_3x3_reduce -> inception_4a/3x3_reduce (in-place)
I0403 19:28:44.408875  9284 net.cpp:141] Setting up inception_4a/relu_3x3_reduce
I0403 19:28:44.408901  9284 net.cpp:148] Top shape: 24 96 14 14 (451584)
I0403 19:28:44.408915  9284 net.cpp:156] Memory required for data: 865236000
I0403 19:28:44.408931  9284 layer_factory.hpp:77] Creating layer inception_4a/3x3
I0403 19:28:44.408953  9284 net.cpp:91] Creating Layer inception_4a/3x3
I0403 19:28:44.408977  9284 net.cpp:425] inception_4a/3x3 <- inception_4a/3x3_reduce
I0403 19:28:44.408996  9284 net.cpp:399] inception_4a/3x3 -> inception_4a/3x3
I0403 19:28:44.411690  9284 net.cpp:141] Setting up inception_4a/3x3
I0403 19:28:44.411723  9284 net.cpp:148] Top shape: 24 208 14 14 (978432)
I0403 19:28:44.411741  9284 net.cpp:156] Memory required for data: 869149728
I0403 19:28:44.411761  9284 layer_factory.hpp:77] Creating layer inception_4a/relu_3x3
I0403 19:28:44.411779  9284 net.cpp:91] Creating Layer inception_4a/relu_3x3
I0403 19:28:44.411795  9284 net.cpp:425] inception_4a/relu_3x3 <- inception_4a/3x3
I0403 19:28:44.411813  9284 net.cpp:386] inception_4a/relu_3x3 -> inception_4a/3x3 (in-place)
I0403 19:28:44.412087  9284 net.cpp:141] Setting up inception_4a/relu_3x3
I0403 19:28:44.412118  9284 net.cpp:148] Top shape: 24 208 14 14 (978432)
I0403 19:28:44.412135  9284 net.cpp:156] Memory required for data: 873063456
I0403 19:28:44.412152  9284 layer_factory.hpp:77] Creating layer inception_4a/5x5_reduce
I0403 19:28:44.412173  9284 net.cpp:91] Creating Layer inception_4a/5x5_reduce
I0403 19:28:44.412190  9284 net.cpp:425] inception_4a/5x5_reduce <- pool3/3x3_s2_pool3/3x3_s2_0_split_2
I0403 19:28:44.412225  9284 net.cpp:399] inception_4a/5x5_reduce -> inception_4a/5x5_reduce
I0403 19:28:44.413234  9284 net.cpp:141] Setting up inception_4a/5x5_reduce
I0403 19:28:44.413265  9284 net.cpp:148] Top shape: 24 16 14 14 (75264)
I0403 19:28:44.413295  9284 net.cpp:156] Memory required for data: 873364512
I0403 19:28:44.413314  9284 layer_factory.hpp:77] Creating layer inception_4a/relu_5x5_reduce
I0403 19:28:44.413332  9284 net.cpp:91] Creating Layer inception_4a/relu_5x5_reduce
I0403 19:28:44.413348  9284 net.cpp:425] inception_4a/relu_5x5_reduce <- inception_4a/5x5_reduce
I0403 19:28:44.413367  9284 net.cpp:386] inception_4a/relu_5x5_reduce -> inception_4a/5x5_reduce (in-place)
I0403 19:28:44.413552  9284 net.cpp:141] Setting up inception_4a/relu_5x5_reduce
I0403 19:28:44.413589  9284 net.cpp:148] Top shape: 24 16 14 14 (75264)
I0403 19:28:44.413604  9284 net.cpp:156] Memory required for data: 873665568
I0403 19:28:44.413620  9284 layer_factory.hpp:77] Creating layer inception_4a/5x5
I0403 19:28:44.413642  9284 net.cpp:91] Creating Layer inception_4a/5x5
I0403 19:28:44.413661  9284 net.cpp:425] inception_4a/5x5 <- inception_4a/5x5_reduce
I0403 19:28:44.413681  9284 net.cpp:399] inception_4a/5x5 -> inception_4a/5x5
I0403 19:28:44.414788  9284 net.cpp:141] Setting up inception_4a/5x5
I0403 19:28:44.414816  9284 net.cpp:148] Top shape: 24 48 14 14 (225792)
I0403 19:28:44.414834  9284 net.cpp:156] Memory required for data: 874568736
I0403 19:28:44.414854  9284 layer_factory.hpp:77] Creating layer inception_4a/relu_5x5
I0403 19:28:44.414871  9284 net.cpp:91] Creating Layer inception_4a/relu_5x5
I0403 19:28:44.414888  9284 net.cpp:425] inception_4a/relu_5x5 <- inception_4a/5x5
I0403 19:28:44.414908  9284 net.cpp:386] inception_4a/relu_5x5 -> inception_4a/5x5 (in-place)
I0403 19:28:44.415081  9284 net.cpp:141] Setting up inception_4a/relu_5x5
I0403 19:28:44.415107  9284 net.cpp:148] Top shape: 24 48 14 14 (225792)
I0403 19:28:44.415122  9284 net.cpp:156] Memory required for data: 875471904
I0403 19:28:44.415137  9284 layer_factory.hpp:77] Creating layer inception_4a/pool
I0403 19:28:44.415158  9284 net.cpp:91] Creating Layer inception_4a/pool
I0403 19:28:44.415174  9284 net.cpp:425] inception_4a/pool <- pool3/3x3_s2_pool3/3x3_s2_0_split_3
I0403 19:28:44.415191  9284 net.cpp:399] inception_4a/pool -> inception_4a/pool
I0403 19:28:44.415258  9284 net.cpp:141] Setting up inception_4a/pool
I0403 19:28:44.415282  9284 net.cpp:148] Top shape: 24 480 14 14 (2257920)
I0403 19:28:44.415297  9284 net.cpp:156] Memory required for data: 884503584
I0403 19:28:44.415312  9284 layer_factory.hpp:77] Creating layer inception_4a/pool_proj
I0403 19:28:44.415333  9284 net.cpp:91] Creating Layer inception_4a/pool_proj
I0403 19:28:44.415351  9284 net.cpp:425] inception_4a/pool_proj <- inception_4a/pool
I0403 19:28:44.415372  9284 net.cpp:399] inception_4a/pool_proj -> inception_4a/pool_proj
I0403 19:28:44.416522  9284 net.cpp:141] Setting up inception_4a/pool_proj
I0403 19:28:44.416553  9284 net.cpp:148] Top shape: 24 64 14 14 (301056)
I0403 19:28:44.416584  9284 net.cpp:156] Memory required for data: 885707808
I0403 19:28:44.416604  9284 layer_factory.hpp:77] Creating layer inception_4a/relu_pool_proj
I0403 19:28:44.416625  9284 net.cpp:91] Creating Layer inception_4a/relu_pool_proj
I0403 19:28:44.416642  9284 net.cpp:425] inception_4a/relu_pool_proj <- inception_4a/pool_proj
I0403 19:28:44.416659  9284 net.cpp:386] inception_4a/relu_pool_proj -> inception_4a/pool_proj (in-place)
I0403 19:28:44.416940  9284 net.cpp:141] Setting up inception_4a/relu_pool_proj
I0403 19:28:44.416967  9284 net.cpp:148] Top shape: 24 64 14 14 (301056)
I0403 19:28:44.416982  9284 net.cpp:156] Memory required for data: 886912032
I0403 19:28:44.416996  9284 layer_factory.hpp:77] Creating layer inception_4a/output
I0403 19:28:44.417014  9284 net.cpp:91] Creating Layer inception_4a/output
I0403 19:28:44.417031  9284 net.cpp:425] inception_4a/output <- inception_4a/1x1
I0403 19:28:44.417047  9284 net.cpp:425] inception_4a/output <- inception_4a/3x3
I0403 19:28:44.417063  9284 net.cpp:425] inception_4a/output <- inception_4a/5x5
I0403 19:28:44.417079  9284 net.cpp:425] inception_4a/output <- inception_4a/pool_proj
I0403 19:28:44.417098  9284 net.cpp:399] inception_4a/output -> inception_4a/output
I0403 19:28:44.417145  9284 net.cpp:141] Setting up inception_4a/output
I0403 19:28:44.417167  9284 net.cpp:148] Top shape: 24 512 14 14 (2408448)
I0403 19:28:44.417182  9284 net.cpp:156] Memory required for data: 896545824
I0403 19:28:44.417197  9284 layer_factory.hpp:77] Creating layer inception_4a/output_inception_4a/output_0_split
I0403 19:28:44.417222  9284 net.cpp:91] Creating Layer inception_4a/output_inception_4a/output_0_split
I0403 19:28:44.417238  9284 net.cpp:425] inception_4a/output_inception_4a/output_0_split <- inception_4a/output
I0403 19:28:44.417258  9284 net.cpp:399] inception_4a/output_inception_4a/output_0_split -> inception_4a/output_inception_4a/output_0_split_0
I0403 19:28:44.417290  9284 net.cpp:399] inception_4a/output_inception_4a/output_0_split -> inception_4a/output_inception_4a/output_0_split_1
I0403 19:28:44.417311  9284 net.cpp:399] inception_4a/output_inception_4a/output_0_split -> inception_4a/output_inception_4a/output_0_split_2
I0403 19:28:44.417333  9284 net.cpp:399] inception_4a/output_inception_4a/output_0_split -> inception_4a/output_inception_4a/output_0_split_3
I0403 19:28:44.417354  9284 net.cpp:399] inception_4a/output_inception_4a/output_0_split -> inception_4a/output_inception_4a/output_0_split_4
I0403 19:28:44.417448  9284 net.cpp:141] Setting up inception_4a/output_inception_4a/output_0_split
I0403 19:28:44.417475  9284 net.cpp:148] Top shape: 24 512 14 14 (2408448)
I0403 19:28:44.417492  9284 net.cpp:148] Top shape: 24 512 14 14 (2408448)
I0403 19:28:44.417510  9284 net.cpp:148] Top shape: 24 512 14 14 (2408448)
I0403 19:28:44.417526  9284 net.cpp:148] Top shape: 24 512 14 14 (2408448)
I0403 19:28:44.417542  9284 net.cpp:148] Top shape: 24 512 14 14 (2408448)
I0403 19:28:44.417557  9284 net.cpp:156] Memory required for data: 944714784
I0403 19:28:44.417583  9284 layer_factory.hpp:77] Creating layer loss1/ave_pool
I0403 19:28:44.417601  9284 net.cpp:91] Creating Layer loss1/ave_pool
I0403 19:28:44.417616  9284 net.cpp:425] loss1/ave_pool <- inception_4a/output_inception_4a/output_0_split_0
I0403 19:28:44.417636  9284 net.cpp:399] loss1/ave_pool -> loss1/ave_pool
I0403 19:28:44.417842  9284 net.cpp:141] Setting up loss1/ave_pool
I0403 19:28:44.417868  9284 net.cpp:148] Top shape: 24 512 4 4 (196608)
I0403 19:28:44.417883  9284 net.cpp:156] Memory required for data: 945501216
I0403 19:28:44.417898  9284 layer_factory.hpp:77] Creating layer loss1/conv
I0403 19:28:44.417920  9284 net.cpp:91] Creating Layer loss1/conv
I0403 19:28:44.417937  9284 net.cpp:425] loss1/conv <- loss1/ave_pool
I0403 19:28:44.417958  9284 net.cpp:399] loss1/conv -> loss1/conv
I0403 19:28:44.419389  9284 net.cpp:141] Setting up loss1/conv
I0403 19:28:44.419420  9284 net.cpp:148] Top shape: 24 128 4 4 (49152)
I0403 19:28:44.419450  9284 net.cpp:156] Memory required for data: 945697824
I0403 19:28:44.419471  9284 layer_factory.hpp:77] Creating layer loss1/relu_conv
I0403 19:28:44.419489  9284 net.cpp:91] Creating Layer loss1/relu_conv
I0403 19:28:44.419504  9284 net.cpp:425] loss1/relu_conv <- loss1/conv
I0403 19:28:44.419522  9284 net.cpp:386] loss1/relu_conv -> loss1/conv (in-place)
I0403 19:28:44.419807  9284 net.cpp:141] Setting up loss1/relu_conv
I0403 19:28:44.419836  9284 net.cpp:148] Top shape: 24 128 4 4 (49152)
I0403 19:28:44.419852  9284 net.cpp:156] Memory required for data: 945894432
I0403 19:28:44.419868  9284 layer_factory.hpp:77] Creating layer loss1/fc
I0403 19:28:44.419891  9284 net.cpp:91] Creating Layer loss1/fc
I0403 19:28:44.419909  9284 net.cpp:425] loss1/fc <- loss1/conv
I0403 19:28:44.419930  9284 net.cpp:399] loss1/fc -> loss1/fc
I0403 19:28:44.438040  9284 net.cpp:141] Setting up loss1/fc
I0403 19:28:44.438076  9284 net.cpp:148] Top shape: 24 1024 (24576)
I0403 19:28:44.438091  9284 net.cpp:156] Memory required for data: 945992736
I0403 19:28:44.438110  9284 layer_factory.hpp:77] Creating layer loss1/relu_fc
I0403 19:28:44.438132  9284 net.cpp:91] Creating Layer loss1/relu_fc
I0403 19:28:44.438149  9284 net.cpp:425] loss1/relu_fc <- loss1/fc
I0403 19:28:44.438169  9284 net.cpp:386] loss1/relu_fc -> loss1/fc (in-place)
I0403 19:28:44.438357  9284 net.cpp:141] Setting up loss1/relu_fc
I0403 19:28:44.438385  9284 net.cpp:148] Top shape: 24 1024 (24576)
I0403 19:28:44.438400  9284 net.cpp:156] Memory required for data: 946091040
I0403 19:28:44.438416  9284 layer_factory.hpp:77] Creating layer loss1/drop_fc
I0403 19:28:44.438441  9284 net.cpp:91] Creating Layer loss1/drop_fc
I0403 19:28:44.438459  9284 net.cpp:425] loss1/drop_fc <- loss1/fc
I0403 19:28:44.438477  9284 net.cpp:386] loss1/drop_fc -> loss1/fc (in-place)
I0403 19:28:44.438529  9284 net.cpp:141] Setting up loss1/drop_fc
I0403 19:28:44.438552  9284 net.cpp:148] Top shape: 24 1024 (24576)
I0403 19:28:44.438567  9284 net.cpp:156] Memory required for data: 946189344
I0403 19:28:44.438582  9284 layer_factory.hpp:77] Creating layer loss1/classifier_plantvillage
I0403 19:28:44.438601  9284 net.cpp:91] Creating Layer loss1/classifier_plantvillage
I0403 19:28:44.438621  9284 net.cpp:425] loss1/classifier_plantvillage <- loss1/fc
I0403 19:28:44.438639  9284 net.cpp:399] loss1/classifier_plantvillage -> loss1/classifier_plantvillage
I0403 19:28:44.439555  9284 net.cpp:141] Setting up loss1/classifier_plantvillage
I0403 19:28:44.439585  9284 net.cpp:148] Top shape: 24 38 (912)
I0403 19:28:44.439602  9284 net.cpp:156] Memory required for data: 946192992
I0403 19:28:44.439620  9284 layer_factory.hpp:77] Creating layer loss1/classifier_plantvillage_loss1/classifier_plantvillage_0_split
I0403 19:28:44.439640  9284 net.cpp:91] Creating Layer loss1/classifier_plantvillage_loss1/classifier_plantvillage_0_split
I0403 19:28:44.439656  9284 net.cpp:425] loss1/classifier_plantvillage_loss1/classifier_plantvillage_0_split <- loss1/classifier_plantvillage
I0403 19:28:44.439674  9284 net.cpp:399] loss1/classifier_plantvillage_loss1/classifier_plantvillage_0_split -> loss1/classifier_plantvillage_loss1/classifier_plantvillage_0_split_0
I0403 19:28:44.439693  9284 net.cpp:399] loss1/classifier_plantvillage_loss1/classifier_plantvillage_0_split -> loss1/classifier_plantvillage_loss1/classifier_plantvillage_0_split_1
I0403 19:28:44.439713  9284 net.cpp:399] loss1/classifier_plantvillage_loss1/classifier_plantvillage_0_split -> loss1/classifier_plantvillage_loss1/classifier_plantvillage_0_split_2
I0403 19:28:44.439781  9284 net.cpp:141] Setting up loss1/classifier_plantvillage_loss1/classifier_plantvillage_0_split
I0403 19:28:44.439805  9284 net.cpp:148] Top shape: 24 38 (912)
I0403 19:28:44.439821  9284 net.cpp:148] Top shape: 24 38 (912)
I0403 19:28:44.439837  9284 net.cpp:148] Top shape: 24 38 (912)
I0403 19:28:44.439852  9284 net.cpp:156] Memory required for data: 946203936
I0403 19:28:44.439867  9284 layer_factory.hpp:77] Creating layer inception_4b/1x1
I0403 19:28:44.439888  9284 net.cpp:91] Creating Layer inception_4b/1x1
I0403 19:28:44.439919  9284 net.cpp:425] inception_4b/1x1 <- inception_4a/output_inception_4a/output_0_split_1
I0403 19:28:44.439942  9284 net.cpp:399] inception_4b/1x1 -> inception_4b/1x1
I0403 19:28:44.441573  9284 net.cpp:141] Setting up inception_4b/1x1
I0403 19:28:44.441606  9284 net.cpp:148] Top shape: 24 160 14 14 (752640)
I0403 19:28:44.441627  9284 net.cpp:156] Memory required for data: 949214496
I0403 19:28:44.441647  9284 layer_factory.hpp:77] Creating layer inception_4b/relu_1x1
I0403 19:28:44.441668  9284 net.cpp:91] Creating Layer inception_4b/relu_1x1
I0403 19:28:44.441684  9284 net.cpp:425] inception_4b/relu_1x1 <- inception_4b/1x1
I0403 19:28:44.441701  9284 net.cpp:386] inception_4b/relu_1x1 -> inception_4b/1x1 (in-place)
I0403 19:28:44.441879  9284 net.cpp:141] Setting up inception_4b/relu_1x1
I0403 19:28:44.441905  9284 net.cpp:148] Top shape: 24 160 14 14 (752640)
I0403 19:28:44.441920  9284 net.cpp:156] Memory required for data: 952225056
I0403 19:28:44.441934  9284 layer_factory.hpp:77] Creating layer inception_4b/3x3_reduce
I0403 19:28:44.441957  9284 net.cpp:91] Creating Layer inception_4b/3x3_reduce
I0403 19:28:44.441974  9284 net.cpp:425] inception_4b/3x3_reduce <- inception_4a/output_inception_4a/output_0_split_2
I0403 19:28:44.441995  9284 net.cpp:399] inception_4b/3x3_reduce -> inception_4b/3x3_reduce
I0403 19:28:44.443388  9284 net.cpp:141] Setting up inception_4b/3x3_reduce
I0403 19:28:44.443416  9284 net.cpp:148] Top shape: 24 112 14 14 (526848)
I0403 19:28:44.443433  9284 net.cpp:156] Memory required for data: 954332448
I0403 19:28:44.443452  9284 layer_factory.hpp:77] Creating layer inception_4b/relu_3x3_reduce
I0403 19:28:44.443470  9284 net.cpp:91] Creating Layer inception_4b/relu_3x3_reduce
I0403 19:28:44.443487  9284 net.cpp:425] inception_4b/relu_3x3_reduce <- inception_4b/3x3_reduce
I0403 19:28:44.443507  9284 net.cpp:386] inception_4b/relu_3x3_reduce -> inception_4b/3x3_reduce (in-place)
I0403 19:28:44.443799  9284 net.cpp:141] Setting up inception_4b/relu_3x3_reduce
I0403 19:28:44.443826  9284 net.cpp:148] Top shape: 24 112 14 14 (526848)
I0403 19:28:44.443842  9284 net.cpp:156] Memory required for data: 956439840
I0403 19:28:44.443857  9284 layer_factory.hpp:77] Creating layer inception_4b/3x3
I0403 19:28:44.443881  9284 net.cpp:91] Creating Layer inception_4b/3x3
I0403 19:28:44.443899  9284 net.cpp:425] inception_4b/3x3 <- inception_4b/3x3_reduce
I0403 19:28:44.443923  9284 net.cpp:399] inception_4b/3x3 -> inception_4b/3x3
I0403 19:28:44.447031  9284 net.cpp:141] Setting up inception_4b/3x3
I0403 19:28:44.447062  9284 net.cpp:148] Top shape: 24 224 14 14 (1053696)
I0403 19:28:44.447079  9284 net.cpp:156] Memory required for data: 960654624
I0403 19:28:44.447099  9284 layer_factory.hpp:77] Creating layer inception_4b/relu_3x3
I0403 19:28:44.447121  9284 net.cpp:91] Creating Layer inception_4b/relu_3x3
I0403 19:28:44.447139  9284 net.cpp:425] inception_4b/relu_3x3 <- inception_4b/3x3
I0403 19:28:44.447159  9284 net.cpp:386] inception_4b/relu_3x3 -> inception_4b/3x3 (in-place)
I0403 19:28:44.447351  9284 net.cpp:141] Setting up inception_4b/relu_3x3
I0403 19:28:44.447379  9284 net.cpp:148] Top shape: 24 224 14 14 (1053696)
I0403 19:28:44.447396  9284 net.cpp:156] Memory required for data: 964869408
I0403 19:28:44.447410  9284 layer_factory.hpp:77] Creating layer inception_4b/5x5_reduce
I0403 19:28:44.447433  9284 net.cpp:91] Creating Layer inception_4b/5x5_reduce
I0403 19:28:44.447451  9284 net.cpp:425] inception_4b/5x5_reduce <- inception_4a/output_inception_4a/output_0_split_3
I0403 19:28:44.447471  9284 net.cpp:399] inception_4b/5x5_reduce -> inception_4b/5x5_reduce
I0403 19:28:44.448591  9284 net.cpp:141] Setting up inception_4b/5x5_reduce
I0403 19:28:44.448623  9284 net.cpp:148] Top shape: 24 24 14 14 (112896)
I0403 19:28:44.448642  9284 net.cpp:156] Memory required for data: 965320992
I0403 19:28:44.448662  9284 layer_factory.hpp:77] Creating layer inception_4b/relu_5x5_reduce
I0403 19:28:44.448681  9284 net.cpp:91] Creating Layer inception_4b/relu_5x5_reduce
I0403 19:28:44.448714  9284 net.cpp:425] inception_4b/relu_5x5_reduce <- inception_4b/5x5_reduce
I0403 19:28:44.448745  9284 net.cpp:386] inception_4b/relu_5x5_reduce -> inception_4b/5x5_reduce (in-place)
I0403 19:28:44.448933  9284 net.cpp:141] Setting up inception_4b/relu_5x5_reduce
I0403 19:28:44.448959  9284 net.cpp:148] Top shape: 24 24 14 14 (112896)
I0403 19:28:44.448976  9284 net.cpp:156] Memory required for data: 965772576
I0403 19:28:44.448992  9284 layer_factory.hpp:77] Creating layer inception_4b/5x5
I0403 19:28:44.449014  9284 net.cpp:91] Creating Layer inception_4b/5x5
I0403 19:28:44.449033  9284 net.cpp:425] inception_4b/5x5 <- inception_4b/5x5_reduce
I0403 19:28:44.449054  9284 net.cpp:399] inception_4b/5x5 -> inception_4b/5x5
I0403 19:28:44.450373  9284 net.cpp:141] Setting up inception_4b/5x5
I0403 19:28:44.450405  9284 net.cpp:148] Top shape: 24 64 14 14 (301056)
I0403 19:28:44.450424  9284 net.cpp:156] Memory required for data: 966976800
I0403 19:28:44.450443  9284 layer_factory.hpp:77] Creating layer inception_4b/relu_5x5
I0403 19:28:44.450462  9284 net.cpp:91] Creating Layer inception_4b/relu_5x5
I0403 19:28:44.450480  9284 net.cpp:425] inception_4b/relu_5x5 <- inception_4b/5x5
I0403 19:28:44.450498  9284 net.cpp:386] inception_4b/relu_5x5 -> inception_4b/5x5 (in-place)
I0403 19:28:44.450790  9284 net.cpp:141] Setting up inception_4b/relu_5x5
I0403 19:28:44.450822  9284 net.cpp:148] Top shape: 24 64 14 14 (301056)
I0403 19:28:44.450840  9284 net.cpp:156] Memory required for data: 968181024
I0403 19:28:44.450856  9284 layer_factory.hpp:77] Creating layer inception_4b/pool
I0403 19:28:44.450875  9284 net.cpp:91] Creating Layer inception_4b/pool
I0403 19:28:44.450892  9284 net.cpp:425] inception_4b/pool <- inception_4a/output_inception_4a/output_0_split_4
I0403 19:28:44.450911  9284 net.cpp:399] inception_4b/pool -> inception_4b/pool
I0403 19:28:44.450983  9284 net.cpp:141] Setting up inception_4b/pool
I0403 19:28:44.451007  9284 net.cpp:148] Top shape: 24 512 14 14 (2408448)
I0403 19:28:44.451022  9284 net.cpp:156] Memory required for data: 977814816
I0403 19:28:44.451037  9284 layer_factory.hpp:77] Creating layer inception_4b/pool_proj
I0403 19:28:44.451061  9284 net.cpp:91] Creating Layer inception_4b/pool_proj
I0403 19:28:44.451078  9284 net.cpp:425] inception_4b/pool_proj <- inception_4b/pool
I0403 19:28:44.451100  9284 net.cpp:399] inception_4b/pool_proj -> inception_4b/pool_proj
I0403 19:28:44.452373  9284 net.cpp:141] Setting up inception_4b/pool_proj
I0403 19:28:44.452404  9284 net.cpp:148] Top shape: 24 64 14 14 (301056)
I0403 19:28:44.452421  9284 net.cpp:156] Memory required for data: 979019040
I0403 19:28:44.452441  9284 layer_factory.hpp:77] Creating layer inception_4b/relu_pool_proj
I0403 19:28:44.452461  9284 net.cpp:91] Creating Layer inception_4b/relu_pool_proj
I0403 19:28:44.452476  9284 net.cpp:425] inception_4b/relu_pool_proj <- inception_4b/pool_proj
I0403 19:28:44.452498  9284 net.cpp:386] inception_4b/relu_pool_proj -> inception_4b/pool_proj (in-place)
I0403 19:28:44.452690  9284 net.cpp:141] Setting up inception_4b/relu_pool_proj
I0403 19:28:44.452718  9284 net.cpp:148] Top shape: 24 64 14 14 (301056)
I0403 19:28:44.452733  9284 net.cpp:156] Memory required for data: 980223264
I0403 19:28:44.452749  9284 layer_factory.hpp:77] Creating layer inception_4b/output
I0403 19:28:44.452765  9284 net.cpp:91] Creating Layer inception_4b/output
I0403 19:28:44.452782  9284 net.cpp:425] inception_4b/output <- inception_4b/1x1
I0403 19:28:44.452798  9284 net.cpp:425] inception_4b/output <- inception_4b/3x3
I0403 19:28:44.452819  9284 net.cpp:425] inception_4b/output <- inception_4b/5x5
I0403 19:28:44.452836  9284 net.cpp:425] inception_4b/output <- inception_4b/pool_proj
I0403 19:28:44.452853  9284 net.cpp:399] inception_4b/output -> inception_4b/output
I0403 19:28:44.452899  9284 net.cpp:141] Setting up inception_4b/output
I0403 19:28:44.452926  9284 net.cpp:148] Top shape: 24 512 14 14 (2408448)
I0403 19:28:44.452942  9284 net.cpp:156] Memory required for data: 989857056
I0403 19:28:44.452972  9284 layer_factory.hpp:77] Creating layer inception_4b/output_inception_4b/output_0_split
I0403 19:28:44.452992  9284 net.cpp:91] Creating Layer inception_4b/output_inception_4b/output_0_split
I0403 19:28:44.453008  9284 net.cpp:425] inception_4b/output_inception_4b/output_0_split <- inception_4b/output
I0403 19:28:44.453029  9284 net.cpp:399] inception_4b/output_inception_4b/output_0_split -> inception_4b/output_inception_4b/output_0_split_0
I0403 19:28:44.453050  9284 net.cpp:399] inception_4b/output_inception_4b/output_0_split -> inception_4b/output_inception_4b/output_0_split_1
I0403 19:28:44.453071  9284 net.cpp:399] inception_4b/output_inception_4b/output_0_split -> inception_4b/output_inception_4b/output_0_split_2
I0403 19:28:44.453093  9284 net.cpp:399] inception_4b/output_inception_4b/output_0_split -> inception_4b/output_inception_4b/output_0_split_3
I0403 19:28:44.453177  9284 net.cpp:141] Setting up inception_4b/output_inception_4b/output_0_split
I0403 19:28:44.453204  9284 net.cpp:148] Top shape: 24 512 14 14 (2408448)
I0403 19:28:44.453229  9284 net.cpp:148] Top shape: 24 512 14 14 (2408448)
I0403 19:28:44.453258  9284 net.cpp:148] Top shape: 24 512 14 14 (2408448)
I0403 19:28:44.453275  9284 net.cpp:148] Top shape: 24 512 14 14 (2408448)
I0403 19:28:44.453290  9284 net.cpp:156] Memory required for data: 1028392224
I0403 19:28:44.453306  9284 layer_factory.hpp:77] Creating layer inception_4c/1x1
I0403 19:28:44.453327  9284 net.cpp:91] Creating Layer inception_4c/1x1
I0403 19:28:44.453344  9284 net.cpp:425] inception_4c/1x1 <- inception_4b/output_inception_4b/output_0_split_0
I0403 19:28:44.453367  9284 net.cpp:399] inception_4c/1x1 -> inception_4c/1x1
I0403 19:28:44.454865  9284 net.cpp:141] Setting up inception_4c/1x1
I0403 19:28:44.454896  9284 net.cpp:148] Top shape: 24 128 14 14 (602112)
I0403 19:28:44.454912  9284 net.cpp:156] Memory required for data: 1030800672
I0403 19:28:44.454932  9284 layer_factory.hpp:77] Creating layer inception_4c/relu_1x1
I0403 19:28:44.454954  9284 net.cpp:91] Creating Layer inception_4c/relu_1x1
I0403 19:28:44.454973  9284 net.cpp:425] inception_4c/relu_1x1 <- inception_4c/1x1
I0403 19:28:44.454993  9284 net.cpp:386] inception_4c/relu_1x1 -> inception_4c/1x1 (in-place)
I0403 19:28:44.455185  9284 net.cpp:141] Setting up inception_4c/relu_1x1
I0403 19:28:44.455216  9284 net.cpp:148] Top shape: 24 128 14 14 (602112)
I0403 19:28:44.455234  9284 net.cpp:156] Memory required for data: 1033209120
I0403 19:28:44.455250  9284 layer_factory.hpp:77] Creating layer inception_4c/3x3_reduce
I0403 19:28:44.455274  9284 net.cpp:91] Creating Layer inception_4c/3x3_reduce
I0403 19:28:44.455292  9284 net.cpp:425] inception_4c/3x3_reduce <- inception_4b/output_inception_4b/output_0_split_1
I0403 19:28:44.455312  9284 net.cpp:399] inception_4c/3x3_reduce -> inception_4c/3x3_reduce
I0403 19:28:44.457350  9284 net.cpp:141] Setting up inception_4c/3x3_reduce
I0403 19:28:44.457384  9284 net.cpp:148] Top shape: 24 128 14 14 (602112)
I0403 19:28:44.457403  9284 net.cpp:156] Memory required for data: 1035617568
I0403 19:28:44.457424  9284 layer_factory.hpp:77] Creating layer inception_4c/relu_3x3_reduce
I0403 19:28:44.457447  9284 net.cpp:91] Creating Layer inception_4c/relu_3x3_reduce
I0403 19:28:44.457464  9284 net.cpp:425] inception_4c/relu_3x3_reduce <- inception_4c/3x3_reduce
I0403 19:28:44.457485  9284 net.cpp:386] inception_4c/relu_3x3_reduce -> inception_4c/3x3_reduce (in-place)
I0403 19:28:44.457792  9284 net.cpp:141] Setting up inception_4c/relu_3x3_reduce
I0403 19:28:44.457823  9284 net.cpp:148] Top shape: 24 128 14 14 (602112)
I0403 19:28:44.457840  9284 net.cpp:156] Memory required for data: 1038026016
I0403 19:28:44.457857  9284 layer_factory.hpp:77] Creating layer inception_4c/3x3
I0403 19:28:44.457881  9284 net.cpp:91] Creating Layer inception_4c/3x3
I0403 19:28:44.457900  9284 net.cpp:425] inception_4c/3x3 <- inception_4c/3x3_reduce
I0403 19:28:44.457919  9284 net.cpp:399] inception_4c/3x3 -> inception_4c/3x3
I0403 19:28:44.461678  9284 net.cpp:141] Setting up inception_4c/3x3
I0403 19:28:44.461724  9284 net.cpp:148] Top shape: 24 256 14 14 (1204224)
I0403 19:28:44.461743  9284 net.cpp:156] Memory required for data: 1042842912
I0403 19:28:44.461777  9284 layer_factory.hpp:77] Creating layer inception_4c/relu_3x3
I0403 19:28:44.461799  9284 net.cpp:91] Creating Layer inception_4c/relu_3x3
I0403 19:28:44.461817  9284 net.cpp:425] inception_4c/relu_3x3 <- inception_4c/3x3
I0403 19:28:44.461836  9284 net.cpp:386] inception_4c/relu_3x3 -> inception_4c/3x3 (in-place)
I0403 19:28:44.462023  9284 net.cpp:141] Setting up inception_4c/relu_3x3
I0403 19:28:44.462052  9284 net.cpp:148] Top shape: 24 256 14 14 (1204224)
I0403 19:28:44.462067  9284 net.cpp:156] Memory required for data: 1047659808
I0403 19:28:44.462083  9284 layer_factory.hpp:77] Creating layer inception_4c/5x5_reduce
I0403 19:28:44.462107  9284 net.cpp:91] Creating Layer inception_4c/5x5_reduce
I0403 19:28:44.462126  9284 net.cpp:425] inception_4c/5x5_reduce <- inception_4b/output_inception_4b/output_0_split_2
I0403 19:28:44.462146  9284 net.cpp:399] inception_4c/5x5_reduce -> inception_4c/5x5_reduce
I0403 19:28:44.463289  9284 net.cpp:141] Setting up inception_4c/5x5_reduce
I0403 19:28:44.463321  9284 net.cpp:148] Top shape: 24 24 14 14 (112896)
I0403 19:28:44.463340  9284 net.cpp:156] Memory required for data: 1048111392
I0403 19:28:44.463358  9284 layer_factory.hpp:77] Creating layer inception_4c/relu_5x5_reduce
I0403 19:28:44.463378  9284 net.cpp:91] Creating Layer inception_4c/relu_5x5_reduce
I0403 19:28:44.463394  9284 net.cpp:425] inception_4c/relu_5x5_reduce <- inception_4c/5x5_reduce
I0403 19:28:44.463416  9284 net.cpp:386] inception_4c/relu_5x5_reduce -> inception_4c/5x5_reduce (in-place)
I0403 19:28:44.463611  9284 net.cpp:141] Setting up inception_4c/relu_5x5_reduce
I0403 19:28:44.463639  9284 net.cpp:148] Top shape: 24 24 14 14 (112896)
I0403 19:28:44.463654  9284 net.cpp:156] Memory required for data: 1048562976
I0403 19:28:44.463670  9284 layer_factory.hpp:77] Creating layer inception_4c/5x5
I0403 19:28:44.463693  9284 net.cpp:91] Creating Layer inception_4c/5x5
I0403 19:28:44.463712  9284 net.cpp:425] inception_4c/5x5 <- inception_4c/5x5_reduce
I0403 19:28:44.463734  9284 net.cpp:399] inception_4c/5x5 -> inception_4c/5x5
I0403 19:28:44.465023  9284 net.cpp:141] Setting up inception_4c/5x5
I0403 19:28:44.465054  9284 net.cpp:148] Top shape: 24 64 14 14 (301056)
I0403 19:28:44.465071  9284 net.cpp:156] Memory required for data: 1049767200
I0403 19:28:44.465090  9284 layer_factory.hpp:77] Creating layer inception_4c/relu_5x5
I0403 19:28:44.465113  9284 net.cpp:91] Creating Layer inception_4c/relu_5x5
I0403 19:28:44.465131  9284 net.cpp:425] inception_4c/relu_5x5 <- inception_4c/5x5
I0403 19:28:44.465150  9284 net.cpp:386] inception_4c/relu_5x5 -> inception_4c/5x5 (in-place)
I0403 19:28:44.465458  9284 net.cpp:141] Setting up inception_4c/relu_5x5
I0403 19:28:44.465487  9284 net.cpp:148] Top shape: 24 64 14 14 (301056)
I0403 19:28:44.465502  9284 net.cpp:156] Memory required for data: 1050971424
I0403 19:28:44.465518  9284 layer_factory.hpp:77] Creating layer inception_4c/pool
I0403 19:28:44.465540  9284 net.cpp:91] Creating Layer inception_4c/pool
I0403 19:28:44.465559  9284 net.cpp:425] inception_4c/pool <- inception_4b/output_inception_4b/output_0_split_3
I0403 19:28:44.465579  9284 net.cpp:399] inception_4c/pool -> inception_4c/pool
I0403 19:28:44.465647  9284 net.cpp:141] Setting up inception_4c/pool
I0403 19:28:44.465673  9284 net.cpp:148] Top shape: 24 512 14 14 (2408448)
I0403 19:28:44.465688  9284 net.cpp:156] Memory required for data: 1060605216
I0403 19:28:44.465704  9284 layer_factory.hpp:77] Creating layer inception_4c/pool_proj
I0403 19:28:44.465728  9284 net.cpp:91] Creating Layer inception_4c/pool_proj
I0403 19:28:44.465746  9284 net.cpp:425] inception_4c/pool_proj <- inception_4c/pool
I0403 19:28:44.465770  9284 net.cpp:399] inception_4c/pool_proj -> inception_4c/pool_proj
I0403 19:28:44.467067  9284 net.cpp:141] Setting up inception_4c/pool_proj
I0403 19:28:44.467100  9284 net.cpp:148] Top shape: 24 64 14 14 (301056)
I0403 19:28:44.467133  9284 net.cpp:156] Memory required for data: 1061809440
I0403 19:28:44.467154  9284 layer_factory.hpp:77] Creating layer inception_4c/relu_pool_proj
I0403 19:28:44.467172  9284 net.cpp:91] Creating Layer inception_4c/relu_pool_proj
I0403 19:28:44.467191  9284 net.cpp:425] inception_4c/relu_pool_proj <- inception_4c/pool_proj
I0403 19:28:44.467231  9284 net.cpp:386] inception_4c/relu_pool_proj -> inception_4c/pool_proj (in-place)
I0403 19:28:44.467433  9284 net.cpp:141] Setting up inception_4c/relu_pool_proj
I0403 19:28:44.467459  9284 net.cpp:148] Top shape: 24 64 14 14 (301056)
I0403 19:28:44.467474  9284 net.cpp:156] Memory required for data: 1063013664
I0403 19:28:44.467490  9284 layer_factory.hpp:77] Creating layer inception_4c/output
I0403 19:28:44.467507  9284 net.cpp:91] Creating Layer inception_4c/output
I0403 19:28:44.467525  9284 net.cpp:425] inception_4c/output <- inception_4c/1x1
I0403 19:28:44.467541  9284 net.cpp:425] inception_4c/output <- inception_4c/3x3
I0403 19:28:44.467558  9284 net.cpp:425] inception_4c/output <- inception_4c/5x5
I0403 19:28:44.467582  9284 net.cpp:425] inception_4c/output <- inception_4c/pool_proj
I0403 19:28:44.467603  9284 net.cpp:399] inception_4c/output -> inception_4c/output
I0403 19:28:44.467651  9284 net.cpp:141] Setting up inception_4c/output
I0403 19:28:44.467679  9284 net.cpp:148] Top shape: 24 512 14 14 (2408448)
I0403 19:28:44.467695  9284 net.cpp:156] Memory required for data: 1072647456
I0403 19:28:44.467710  9284 layer_factory.hpp:77] Creating layer inception_4c/output_inception_4c/output_0_split
I0403 19:28:44.467728  9284 net.cpp:91] Creating Layer inception_4c/output_inception_4c/output_0_split
I0403 19:28:44.467743  9284 net.cpp:425] inception_4c/output_inception_4c/output_0_split <- inception_4c/output
I0403 19:28:44.467763  9284 net.cpp:399] inception_4c/output_inception_4c/output_0_split -> inception_4c/output_inception_4c/output_0_split_0
I0403 19:28:44.467785  9284 net.cpp:399] inception_4c/output_inception_4c/output_0_split -> inception_4c/output_inception_4c/output_0_split_1
I0403 19:28:44.467806  9284 net.cpp:399] inception_4c/output_inception_4c/output_0_split -> inception_4c/output_inception_4c/output_0_split_2
I0403 19:28:44.467828  9284 net.cpp:399] inception_4c/output_inception_4c/output_0_split -> inception_4c/output_inception_4c/output_0_split_3
I0403 19:28:44.467916  9284 net.cpp:141] Setting up inception_4c/output_inception_4c/output_0_split
I0403 19:28:44.467939  9284 net.cpp:148] Top shape: 24 512 14 14 (2408448)
I0403 19:28:44.467960  9284 net.cpp:148] Top shape: 24 512 14 14 (2408448)
I0403 19:28:44.467977  9284 net.cpp:148] Top shape: 24 512 14 14 (2408448)
I0403 19:28:44.467993  9284 net.cpp:148] Top shape: 24 512 14 14 (2408448)
I0403 19:28:44.468008  9284 net.cpp:156] Memory required for data: 1111182624
I0403 19:28:44.468022  9284 layer_factory.hpp:77] Creating layer inception_4d/1x1
I0403 19:28:44.468042  9284 net.cpp:91] Creating Layer inception_4d/1x1
I0403 19:28:44.468060  9284 net.cpp:425] inception_4d/1x1 <- inception_4c/output_inception_4c/output_0_split_0
I0403 19:28:44.468081  9284 net.cpp:399] inception_4d/1x1 -> inception_4d/1x1
I0403 19:28:44.469605  9284 net.cpp:141] Setting up inception_4d/1x1
I0403 19:28:44.469635  9284 net.cpp:148] Top shape: 24 112 14 14 (526848)
I0403 19:28:44.469652  9284 net.cpp:156] Memory required for data: 1113290016
I0403 19:28:44.469671  9284 layer_factory.hpp:77] Creating layer inception_4d/relu_1x1
I0403 19:28:44.469693  9284 net.cpp:91] Creating Layer inception_4d/relu_1x1
I0403 19:28:44.469712  9284 net.cpp:425] inception_4d/relu_1x1 <- inception_4d/1x1
I0403 19:28:44.469732  9284 net.cpp:386] inception_4d/relu_1x1 -> inception_4d/1x1 (in-place)
I0403 19:28:44.469946  9284 net.cpp:141] Setting up inception_4d/relu_1x1
I0403 19:28:44.469976  9284 net.cpp:148] Top shape: 24 112 14 14 (526848)
I0403 19:28:44.469993  9284 net.cpp:156] Memory required for data: 1115397408
I0403 19:28:44.470010  9284 layer_factory.hpp:77] Creating layer inception_4d/3x3_reduce
I0403 19:28:44.470049  9284 net.cpp:91] Creating Layer inception_4d/3x3_reduce
I0403 19:28:44.470070  9284 net.cpp:425] inception_4d/3x3_reduce <- inception_4c/output_inception_4c/output_0_split_1
I0403 19:28:44.470090  9284 net.cpp:399] inception_4d/3x3_reduce -> inception_4d/3x3_reduce
I0403 19:28:44.471704  9284 net.cpp:141] Setting up inception_4d/3x3_reduce
I0403 19:28:44.471734  9284 net.cpp:148] Top shape: 24 144 14 14 (677376)
I0403 19:28:44.471750  9284 net.cpp:156] Memory required for data: 1118106912
I0403 19:28:44.471771  9284 layer_factory.hpp:77] Creating layer inception_4d/relu_3x3_reduce
I0403 19:28:44.471793  9284 net.cpp:91] Creating Layer inception_4d/relu_3x3_reduce
I0403 19:28:44.471812  9284 net.cpp:425] inception_4d/relu_3x3_reduce <- inception_4d/3x3_reduce
I0403 19:28:44.471830  9284 net.cpp:386] inception_4d/relu_3x3_reduce -> inception_4d/3x3_reduce (in-place)
I0403 19:28:44.472131  9284 net.cpp:141] Setting up inception_4d/relu_3x3_reduce
I0403 19:28:44.472159  9284 net.cpp:148] Top shape: 24 144 14 14 (677376)
I0403 19:28:44.472175  9284 net.cpp:156] Memory required for data: 1120816416
I0403 19:28:44.472192  9284 layer_factory.hpp:77] Creating layer inception_4d/3x3
I0403 19:28:44.472218  9284 net.cpp:91] Creating Layer inception_4d/3x3
I0403 19:28:44.472239  9284 net.cpp:425] inception_4d/3x3 <- inception_4d/3x3_reduce
I0403 19:28:44.472260  9284 net.cpp:399] inception_4d/3x3 -> inception_4d/3x3
I0403 19:28:44.476686  9284 net.cpp:141] Setting up inception_4d/3x3
I0403 19:28:44.476718  9284 net.cpp:148] Top shape: 24 288 14 14 (1354752)
I0403 19:28:44.476735  9284 net.cpp:156] Memory required for data: 1126235424
I0403 19:28:44.476755  9284 layer_factory.hpp:77] Creating layer inception_4d/relu_3x3
I0403 19:28:44.476781  9284 net.cpp:91] Creating Layer inception_4d/relu_3x3
I0403 19:28:44.476799  9284 net.cpp:425] inception_4d/relu_3x3 <- inception_4d/3x3
I0403 19:28:44.476816  9284 net.cpp:386] inception_4d/relu_3x3 -> inception_4d/3x3 (in-place)
I0403 19:28:44.477005  9284 net.cpp:141] Setting up inception_4d/relu_3x3
I0403 19:28:44.477032  9284 net.cpp:148] Top shape: 24 288 14 14 (1354752)
I0403 19:28:44.477047  9284 net.cpp:156] Memory required for data: 1131654432
I0403 19:28:44.477062  9284 layer_factory.hpp:77] Creating layer inception_4d/5x5_reduce
I0403 19:28:44.477084  9284 net.cpp:91] Creating Layer inception_4d/5x5_reduce
I0403 19:28:44.477102  9284 net.cpp:425] inception_4d/5x5_reduce <- inception_4c/output_inception_4c/output_0_split_2
I0403 19:28:44.477125  9284 net.cpp:399] inception_4d/5x5_reduce -> inception_4d/5x5_reduce
I0403 19:28:44.478348  9284 net.cpp:141] Setting up inception_4d/5x5_reduce
I0403 19:28:44.478379  9284 net.cpp:148] Top shape: 24 32 14 14 (150528)
I0403 19:28:44.478399  9284 net.cpp:156] Memory required for data: 1132256544
I0403 19:28:44.478420  9284 layer_factory.hpp:77] Creating layer inception_4d/relu_5x5_reduce
I0403 19:28:44.478440  9284 net.cpp:91] Creating Layer inception_4d/relu_5x5_reduce
I0403 19:28:44.478456  9284 net.cpp:425] inception_4d/relu_5x5_reduce <- inception_4d/5x5_reduce
I0403 19:28:44.478476  9284 net.cpp:386] inception_4d/relu_5x5_reduce -> inception_4d/5x5_reduce (in-place)
I0403 19:28:44.478669  9284 net.cpp:141] Setting up inception_4d/relu_5x5_reduce
I0403 19:28:44.478698  9284 net.cpp:148] Top shape: 24 32 14 14 (150528)
I0403 19:28:44.478714  9284 net.cpp:156] Memory required for data: 1132858656
I0403 19:28:44.478729  9284 layer_factory.hpp:77] Creating layer inception_4d/5x5
I0403 19:28:44.478752  9284 net.cpp:91] Creating Layer inception_4d/5x5
I0403 19:28:44.478771  9284 net.cpp:425] inception_4d/5x5 <- inception_4d/5x5_reduce
I0403 19:28:44.478791  9284 net.cpp:399] inception_4d/5x5 -> inception_4d/5x5
I0403 19:28:44.480329  9284 net.cpp:141] Setting up inception_4d/5x5
I0403 19:28:44.480370  9284 net.cpp:148] Top shape: 24 64 14 14 (301056)
I0403 19:28:44.480388  9284 net.cpp:156] Memory required for data: 1134062880
I0403 19:28:44.480409  9284 layer_factory.hpp:77] Creating layer inception_4d/relu_5x5
I0403 19:28:44.480446  9284 net.cpp:91] Creating Layer inception_4d/relu_5x5
I0403 19:28:44.480465  9284 net.cpp:425] inception_4d/relu_5x5 <- inception_4d/5x5
I0403 19:28:44.480487  9284 net.cpp:386] inception_4d/relu_5x5 -> inception_4d/5x5 (in-place)
I0403 19:28:44.480825  9284 net.cpp:141] Setting up inception_4d/relu_5x5
I0403 19:28:44.480854  9284 net.cpp:148] Top shape: 24 64 14 14 (301056)
I0403 19:28:44.480871  9284 net.cpp:156] Memory required for data: 1135267104
I0403 19:28:44.480887  9284 layer_factory.hpp:77] Creating layer inception_4d/pool
I0403 19:28:44.480906  9284 net.cpp:91] Creating Layer inception_4d/pool
I0403 19:28:44.480923  9284 net.cpp:425] inception_4d/pool <- inception_4c/output_inception_4c/output_0_split_3
I0403 19:28:44.480945  9284 net.cpp:399] inception_4d/pool -> inception_4d/pool
I0403 19:28:44.481016  9284 net.cpp:141] Setting up inception_4d/pool
I0403 19:28:44.481045  9284 net.cpp:148] Top shape: 24 512 14 14 (2408448)
I0403 19:28:44.481062  9284 net.cpp:156] Memory required for data: 1144900896
I0403 19:28:44.481078  9284 layer_factory.hpp:77] Creating layer inception_4d/pool_proj
I0403 19:28:44.481101  9284 net.cpp:91] Creating Layer inception_4d/pool_proj
I0403 19:28:44.481119  9284 net.cpp:425] inception_4d/pool_proj <- inception_4d/pool
I0403 19:28:44.481138  9284 net.cpp:399] inception_4d/pool_proj -> inception_4d/pool_proj
I0403 19:28:44.482980  9284 net.cpp:141] Setting up inception_4d/pool_proj
I0403 19:28:44.483011  9284 net.cpp:148] Top shape: 24 64 14 14 (301056)
I0403 19:28:44.483028  9284 net.cpp:156] Memory required for data: 1146105120
I0403 19:28:44.483048  9284 layer_factory.hpp:77] Creating layer inception_4d/relu_pool_proj
I0403 19:28:44.483070  9284 net.cpp:91] Creating Layer inception_4d/relu_pool_proj
I0403 19:28:44.483090  9284 net.cpp:425] inception_4d/relu_pool_proj <- inception_4d/pool_proj
I0403 19:28:44.483108  9284 net.cpp:386] inception_4d/relu_pool_proj -> inception_4d/pool_proj (in-place)
I0403 19:28:44.483314  9284 net.cpp:141] Setting up inception_4d/relu_pool_proj
I0403 19:28:44.483342  9284 net.cpp:148] Top shape: 24 64 14 14 (301056)
I0403 19:28:44.483358  9284 net.cpp:156] Memory required for data: 1147309344
I0403 19:28:44.483374  9284 layer_factory.hpp:77] Creating layer inception_4d/output
I0403 19:28:44.483393  9284 net.cpp:91] Creating Layer inception_4d/output
I0403 19:28:44.483410  9284 net.cpp:425] inception_4d/output <- inception_4d/1x1
I0403 19:28:44.483428  9284 net.cpp:425] inception_4d/output <- inception_4d/3x3
I0403 19:28:44.483446  9284 net.cpp:425] inception_4d/output <- inception_4d/5x5
I0403 19:28:44.483463  9284 net.cpp:425] inception_4d/output <- inception_4d/pool_proj
I0403 19:28:44.483486  9284 net.cpp:399] inception_4d/output -> inception_4d/output
I0403 19:28:44.483536  9284 net.cpp:141] Setting up inception_4d/output
I0403 19:28:44.483566  9284 net.cpp:148] Top shape: 24 528 14 14 (2483712)
I0403 19:28:44.483583  9284 net.cpp:156] Memory required for data: 1157244192
I0403 19:28:44.483599  9284 layer_factory.hpp:77] Creating layer inception_4d/output_inception_4d/output_0_split
I0403 19:28:44.483618  9284 net.cpp:91] Creating Layer inception_4d/output_inception_4d/output_0_split
I0403 19:28:44.483634  9284 net.cpp:425] inception_4d/output_inception_4d/output_0_split <- inception_4d/output
I0403 19:28:44.483651  9284 net.cpp:399] inception_4d/output_inception_4d/output_0_split -> inception_4d/output_inception_4d/output_0_split_0
I0403 19:28:44.483674  9284 net.cpp:399] inception_4d/output_inception_4d/output_0_split -> inception_4d/output_inception_4d/output_0_split_1
I0403 19:28:44.483696  9284 net.cpp:399] inception_4d/output_inception_4d/output_0_split -> inception_4d/output_inception_4d/output_0_split_2
I0403 19:28:44.483719  9284 net.cpp:399] inception_4d/output_inception_4d/output_0_split -> inception_4d/output_inception_4d/output_0_split_3
I0403 19:28:44.483739  9284 net.cpp:399] inception_4d/output_inception_4d/output_0_split -> inception_4d/output_inception_4d/output_0_split_4
I0403 19:28:44.483845  9284 net.cpp:141] Setting up inception_4d/output_inception_4d/output_0_split
I0403 19:28:44.483882  9284 net.cpp:148] Top shape: 24 528 14 14 (2483712)
I0403 19:28:44.483901  9284 net.cpp:148] Top shape: 24 528 14 14 (2483712)
I0403 19:28:44.483916  9284 net.cpp:148] Top shape: 24 528 14 14 (2483712)
I0403 19:28:44.483933  9284 net.cpp:148] Top shape: 24 528 14 14 (2483712)
I0403 19:28:44.483949  9284 net.cpp:148] Top shape: 24 528 14 14 (2483712)
I0403 19:28:44.483963  9284 net.cpp:156] Memory required for data: 1206918432
I0403 19:28:44.483978  9284 layer_factory.hpp:77] Creating layer loss2/ave_pool
I0403 19:28:44.483999  9284 net.cpp:91] Creating Layer loss2/ave_pool
I0403 19:28:44.484017  9284 net.cpp:425] loss2/ave_pool <- inception_4d/output_inception_4d/output_0_split_0
I0403 19:28:44.484037  9284 net.cpp:399] loss2/ave_pool -> loss2/ave_pool
I0403 19:28:44.484364  9284 net.cpp:141] Setting up loss2/ave_pool
I0403 19:28:44.484391  9284 net.cpp:148] Top shape: 24 528 4 4 (202752)
I0403 19:28:44.484408  9284 net.cpp:156] Memory required for data: 1207729440
I0403 19:28:44.484423  9284 layer_factory.hpp:77] Creating layer loss2/conv
I0403 19:28:44.484448  9284 net.cpp:91] Creating Layer loss2/conv
I0403 19:28:44.484467  9284 net.cpp:425] loss2/conv <- loss2/ave_pool
I0403 19:28:44.484486  9284 net.cpp:399] loss2/conv -> loss2/conv
I0403 19:28:44.486511  9284 net.cpp:141] Setting up loss2/conv
I0403 19:28:44.486541  9284 net.cpp:148] Top shape: 24 128 4 4 (49152)
I0403 19:28:44.486559  9284 net.cpp:156] Memory required for data: 1207926048
I0403 19:28:44.486579  9284 layer_factory.hpp:77] Creating layer loss2/relu_conv
I0403 19:28:44.486598  9284 net.cpp:91] Creating Layer loss2/relu_conv
I0403 19:28:44.486616  9284 net.cpp:425] loss2/relu_conv <- loss2/conv
I0403 19:28:44.486640  9284 net.cpp:386] loss2/relu_conv -> loss2/conv (in-place)
I0403 19:28:44.486954  9284 net.cpp:141] Setting up loss2/relu_conv
I0403 19:28:44.486981  9284 net.cpp:148] Top shape: 24 128 4 4 (49152)
I0403 19:28:44.486999  9284 net.cpp:156] Memory required for data: 1208122656
I0403 19:28:44.487015  9284 layer_factory.hpp:77] Creating layer loss2/fc
I0403 19:28:44.487035  9284 net.cpp:91] Creating Layer loss2/fc
I0403 19:28:44.487051  9284 net.cpp:425] loss2/fc <- loss2/conv
I0403 19:28:44.487073  9284 net.cpp:399] loss2/fc -> loss2/fc
I0403 19:28:44.505082  9284 net.cpp:141] Setting up loss2/fc
I0403 19:28:44.505120  9284 net.cpp:148] Top shape: 24 1024 (24576)
I0403 19:28:44.505137  9284 net.cpp:156] Memory required for data: 1208220960
I0403 19:28:44.505156  9284 layer_factory.hpp:77] Creating layer loss2/relu_fc
I0403 19:28:44.505175  9284 net.cpp:91] Creating Layer loss2/relu_fc
I0403 19:28:44.505192  9284 net.cpp:425] loss2/relu_fc <- loss2/fc
I0403 19:28:44.505214  9284 net.cpp:386] loss2/relu_fc -> loss2/fc (in-place)
I0403 19:28:44.505516  9284 net.cpp:141] Setting up loss2/relu_fc
I0403 19:28:44.505544  9284 net.cpp:148] Top shape: 24 1024 (24576)
I0403 19:28:44.505561  9284 net.cpp:156] Memory required for data: 1208319264
I0403 19:28:44.505575  9284 layer_factory.hpp:77] Creating layer loss2/drop_fc
I0403 19:28:44.505594  9284 net.cpp:91] Creating Layer loss2/drop_fc
I0403 19:28:44.505609  9284 net.cpp:425] loss2/drop_fc <- loss2/fc
I0403 19:28:44.505627  9284 net.cpp:386] loss2/drop_fc -> loss2/fc (in-place)
I0403 19:28:44.505678  9284 net.cpp:141] Setting up loss2/drop_fc
I0403 19:28:44.505702  9284 net.cpp:148] Top shape: 24 1024 (24576)
I0403 19:28:44.505717  9284 net.cpp:156] Memory required for data: 1208417568
I0403 19:28:44.505731  9284 layer_factory.hpp:77] Creating layer loss2/classifier_plantvillage
I0403 19:28:44.505751  9284 net.cpp:91] Creating Layer loss2/classifier_plantvillage
I0403 19:28:44.505769  9284 net.cpp:425] loss2/classifier_plantvillage <- loss2/fc
I0403 19:28:44.505786  9284 net.cpp:399] loss2/classifier_plantvillage -> loss2/classifier_plantvillage
I0403 19:28:44.506201  9284 net.cpp:141] Setting up loss2/classifier_plantvillage
I0403 19:28:44.506234  9284 net.cpp:148] Top shape: 24 38 (912)
I0403 19:28:44.506266  9284 net.cpp:156] Memory required for data: 1208421216
I0403 19:28:44.506286  9284 layer_factory.hpp:77] Creating layer loss2/classifier_plantvillage_loss2/classifier_plantvillage_0_split
I0403 19:28:44.506304  9284 net.cpp:91] Creating Layer loss2/classifier_plantvillage_loss2/classifier_plantvillage_0_split
I0403 19:28:44.506320  9284 net.cpp:425] loss2/classifier_plantvillage_loss2/classifier_plantvillage_0_split <- loss2/classifier_plantvillage
I0403 19:28:44.506340  9284 net.cpp:399] loss2/classifier_plantvillage_loss2/classifier_plantvillage_0_split -> loss2/classifier_plantvillage_loss2/classifier_plantvillage_0_split_0
I0403 19:28:44.506362  9284 net.cpp:399] loss2/classifier_plantvillage_loss2/classifier_plantvillage_0_split -> loss2/classifier_plantvillage_loss2/classifier_plantvillage_0_split_1
I0403 19:28:44.506382  9284 net.cpp:399] loss2/classifier_plantvillage_loss2/classifier_plantvillage_0_split -> loss2/classifier_plantvillage_loss2/classifier_plantvillage_0_split_2
I0403 19:28:44.506464  9284 net.cpp:141] Setting up loss2/classifier_plantvillage_loss2/classifier_plantvillage_0_split
I0403 19:28:44.506489  9284 net.cpp:148] Top shape: 24 38 (912)
I0403 19:28:44.506505  9284 net.cpp:148] Top shape: 24 38 (912)
I0403 19:28:44.506520  9284 net.cpp:148] Top shape: 24 38 (912)
I0403 19:28:44.506534  9284 net.cpp:156] Memory required for data: 1208432160
I0403 19:28:44.506549  9284 layer_factory.hpp:77] Creating layer inception_4e/1x1
I0403 19:28:44.506572  9284 net.cpp:91] Creating Layer inception_4e/1x1
I0403 19:28:44.506589  9284 net.cpp:425] inception_4e/1x1 <- inception_4d/output_inception_4d/output_0_split_1
I0403 19:28:44.506608  9284 net.cpp:399] inception_4e/1x1 -> inception_4e/1x1
I0403 19:28:44.508440  9284 net.cpp:141] Setting up inception_4e/1x1
I0403 19:28:44.508471  9284 net.cpp:148] Top shape: 24 256 14 14 (1204224)
I0403 19:28:44.508486  9284 net.cpp:156] Memory required for data: 1213249056
I0403 19:28:44.508507  9284 layer_factory.hpp:77] Creating layer inception_4e/relu_1x1
I0403 19:28:44.508527  9284 net.cpp:91] Creating Layer inception_4e/relu_1x1
I0403 19:28:44.508548  9284 net.cpp:425] inception_4e/relu_1x1 <- inception_4e/1x1
I0403 19:28:44.508565  9284 net.cpp:386] inception_4e/relu_1x1 -> inception_4e/1x1 (in-place)
I0403 19:28:44.508860  9284 net.cpp:141] Setting up inception_4e/relu_1x1
I0403 19:28:44.508888  9284 net.cpp:148] Top shape: 24 256 14 14 (1204224)
I0403 19:28:44.508903  9284 net.cpp:156] Memory required for data: 1218065952
I0403 19:28:44.508918  9284 layer_factory.hpp:77] Creating layer inception_4e/3x3_reduce
I0403 19:28:44.508939  9284 net.cpp:91] Creating Layer inception_4e/3x3_reduce
I0403 19:28:44.508957  9284 net.cpp:425] inception_4e/3x3_reduce <- inception_4d/output_inception_4d/output_0_split_2
I0403 19:28:44.508978  9284 net.cpp:399] inception_4e/3x3_reduce -> inception_4e/3x3_reduce
I0403 19:28:44.511138  9284 net.cpp:141] Setting up inception_4e/3x3_reduce
I0403 19:28:44.511169  9284 net.cpp:148] Top shape: 24 160 14 14 (752640)
I0403 19:28:44.511186  9284 net.cpp:156] Memory required for data: 1221076512
I0403 19:28:44.511205  9284 layer_factory.hpp:77] Creating layer inception_4e/relu_3x3_reduce
I0403 19:28:44.511231  9284 net.cpp:91] Creating Layer inception_4e/relu_3x3_reduce
I0403 19:28:44.511248  9284 net.cpp:425] inception_4e/relu_3x3_reduce <- inception_4e/3x3_reduce
I0403 19:28:44.511270  9284 net.cpp:386] inception_4e/relu_3x3_reduce -> inception_4e/3x3_reduce (in-place)
I0403 19:28:44.511457  9284 net.cpp:141] Setting up inception_4e/relu_3x3_reduce
I0403 19:28:44.511483  9284 net.cpp:148] Top shape: 24 160 14 14 (752640)
I0403 19:28:44.511498  9284 net.cpp:156] Memory required for data: 1224087072
I0403 19:28:44.511513  9284 layer_factory.hpp:77] Creating layer inception_4e/3x3
I0403 19:28:44.511535  9284 net.cpp:91] Creating Layer inception_4e/3x3
I0403 19:28:44.511571  9284 net.cpp:425] inception_4e/3x3 <- inception_4e/3x3_reduce
I0403 19:28:44.511593  9284 net.cpp:399] inception_4e/3x3 -> inception_4e/3x3
I0403 19:28:44.516608  9284 net.cpp:141] Setting up inception_4e/3x3
I0403 19:28:44.516654  9284 net.cpp:148] Top shape: 24 320 14 14 (1505280)
I0403 19:28:44.516669  9284 net.cpp:156] Memory required for data: 1230108192
I0403 19:28:44.516688  9284 layer_factory.hpp:77] Creating layer inception_4e/relu_3x3
I0403 19:28:44.516708  9284 net.cpp:91] Creating Layer inception_4e/relu_3x3
I0403 19:28:44.516726  9284 net.cpp:425] inception_4e/relu_3x3 <- inception_4e/3x3
I0403 19:28:44.516742  9284 net.cpp:386] inception_4e/relu_3x3 -> inception_4e/3x3 (in-place)
I0403 19:28:44.517046  9284 net.cpp:141] Setting up inception_4e/relu_3x3
I0403 19:28:44.517073  9284 net.cpp:148] Top shape: 24 320 14 14 (1505280)
I0403 19:28:44.517088  9284 net.cpp:156] Memory required for data: 1236129312
I0403 19:28:44.517104  9284 layer_factory.hpp:77] Creating layer inception_4e/5x5_reduce
I0403 19:28:44.517127  9284 net.cpp:91] Creating Layer inception_4e/5x5_reduce
I0403 19:28:44.517144  9284 net.cpp:425] inception_4e/5x5_reduce <- inception_4d/output_inception_4d/output_0_split_3
I0403 19:28:44.517179  9284 net.cpp:399] inception_4e/5x5_reduce -> inception_4e/5x5_reduce
I0403 19:28:44.518326  9284 net.cpp:141] Setting up inception_4e/5x5_reduce
I0403 19:28:44.518357  9284 net.cpp:148] Top shape: 24 32 14 14 (150528)
I0403 19:28:44.518373  9284 net.cpp:156] Memory required for data: 1236731424
I0403 19:28:44.518393  9284 layer_factory.hpp:77] Creating layer inception_4e/relu_5x5_reduce
I0403 19:28:44.518411  9284 net.cpp:91] Creating Layer inception_4e/relu_5x5_reduce
I0403 19:28:44.518427  9284 net.cpp:425] inception_4e/relu_5x5_reduce <- inception_4e/5x5_reduce
I0403 19:28:44.518447  9284 net.cpp:386] inception_4e/relu_5x5_reduce -> inception_4e/5x5_reduce (in-place)
I0403 19:28:44.518753  9284 net.cpp:141] Setting up inception_4e/relu_5x5_reduce
I0403 19:28:44.518779  9284 net.cpp:148] Top shape: 24 32 14 14 (150528)
I0403 19:28:44.518793  9284 net.cpp:156] Memory required for data: 1237333536
I0403 19:28:44.518808  9284 layer_factory.hpp:77] Creating layer inception_4e/5x5
I0403 19:28:44.518849  9284 net.cpp:91] Creating Layer inception_4e/5x5
I0403 19:28:44.518868  9284 net.cpp:425] inception_4e/5x5 <- inception_4e/5x5_reduce
I0403 19:28:44.518888  9284 net.cpp:399] inception_4e/5x5 -> inception_4e/5x5
I0403 19:28:44.520787  9284 net.cpp:141] Setting up inception_4e/5x5
I0403 19:28:44.520819  9284 net.cpp:148] Top shape: 24 128 14 14 (602112)
I0403 19:28:44.520848  9284 net.cpp:156] Memory required for data: 1239741984
I0403 19:28:44.520869  9284 layer_factory.hpp:77] Creating layer inception_4e/relu_5x5
I0403 19:28:44.520886  9284 net.cpp:91] Creating Layer inception_4e/relu_5x5
I0403 19:28:44.520902  9284 net.cpp:425] inception_4e/relu_5x5 <- inception_4e/5x5
I0403 19:28:44.520922  9284 net.cpp:386] inception_4e/relu_5x5 -> inception_4e/5x5 (in-place)
I0403 19:28:44.521122  9284 net.cpp:141] Setting up inception_4e/relu_5x5
I0403 19:28:44.521147  9284 net.cpp:148] Top shape: 24 128 14 14 (602112)
I0403 19:28:44.521162  9284 net.cpp:156] Memory required for data: 1242150432
I0403 19:28:44.521176  9284 layer_factory.hpp:77] Creating layer inception_4e/pool
I0403 19:28:44.521194  9284 net.cpp:91] Creating Layer inception_4e/pool
I0403 19:28:44.521216  9284 net.cpp:425] inception_4e/pool <- inception_4d/output_inception_4d/output_0_split_4
I0403 19:28:44.521239  9284 net.cpp:399] inception_4e/pool -> inception_4e/pool
I0403 19:28:44.521322  9284 net.cpp:141] Setting up inception_4e/pool
I0403 19:28:44.521347  9284 net.cpp:148] Top shape: 24 528 14 14 (2483712)
I0403 19:28:44.521363  9284 net.cpp:156] Memory required for data: 1252085280
I0403 19:28:44.521378  9284 layer_factory.hpp:77] Creating layer inception_4e/pool_proj
I0403 19:28:44.521404  9284 net.cpp:91] Creating Layer inception_4e/pool_proj
I0403 19:28:44.521421  9284 net.cpp:425] inception_4e/pool_proj <- inception_4e/pool
I0403 19:28:44.521441  9284 net.cpp:399] inception_4e/pool_proj -> inception_4e/pool_proj
I0403 19:28:44.522979  9284 net.cpp:141] Setting up inception_4e/pool_proj
I0403 19:28:44.523020  9284 net.cpp:148] Top shape: 24 128 14 14 (602112)
I0403 19:28:44.523037  9284 net.cpp:156] Memory required for data: 1254493728
I0403 19:28:44.523056  9284 layer_factory.hpp:77] Creating layer inception_4e/relu_pool_proj
I0403 19:28:44.523077  9284 net.cpp:91] Creating Layer inception_4e/relu_pool_proj
I0403 19:28:44.523097  9284 net.cpp:425] inception_4e/relu_pool_proj <- inception_4e/pool_proj
I0403 19:28:44.523114  9284 net.cpp:386] inception_4e/relu_pool_proj -> inception_4e/pool_proj (in-place)
I0403 19:28:44.523414  9284 net.cpp:141] Setting up inception_4e/relu_pool_proj
I0403 19:28:44.523440  9284 net.cpp:148] Top shape: 24 128 14 14 (602112)
I0403 19:28:44.523455  9284 net.cpp:156] Memory required for data: 1256902176
I0403 19:28:44.523470  9284 layer_factory.hpp:77] Creating layer inception_4e/output
I0403 19:28:44.523490  9284 net.cpp:91] Creating Layer inception_4e/output
I0403 19:28:44.523506  9284 net.cpp:425] inception_4e/output <- inception_4e/1x1
I0403 19:28:44.523524  9284 net.cpp:425] inception_4e/output <- inception_4e/3x3
I0403 19:28:44.523540  9284 net.cpp:425] inception_4e/output <- inception_4e/5x5
I0403 19:28:44.523555  9284 net.cpp:425] inception_4e/output <- inception_4e/pool_proj
I0403 19:28:44.523572  9284 net.cpp:399] inception_4e/output -> inception_4e/output
I0403 19:28:44.523624  9284 net.cpp:141] Setting up inception_4e/output
I0403 19:28:44.523648  9284 net.cpp:148] Top shape: 24 832 14 14 (3913728)
I0403 19:28:44.523663  9284 net.cpp:156] Memory required for data: 1272557088
I0403 19:28:44.523676  9284 layer_factory.hpp:77] Creating layer pool4/3x3_s2
I0403 19:28:44.523694  9284 net.cpp:91] Creating Layer pool4/3x3_s2
I0403 19:28:44.523710  9284 net.cpp:425] pool4/3x3_s2 <- inception_4e/output
I0403 19:28:44.523730  9284 net.cpp:399] pool4/3x3_s2 -> pool4/3x3_s2
I0403 19:28:44.523802  9284 net.cpp:141] Setting up pool4/3x3_s2
I0403 19:28:44.523825  9284 net.cpp:148] Top shape: 24 832 7 7 (978432)
I0403 19:28:44.523840  9284 net.cpp:156] Memory required for data: 1276470816
I0403 19:28:44.523854  9284 layer_factory.hpp:77] Creating layer pool4/3x3_s2_pool4/3x3_s2_0_split
I0403 19:28:44.523872  9284 net.cpp:91] Creating Layer pool4/3x3_s2_pool4/3x3_s2_0_split
I0403 19:28:44.523887  9284 net.cpp:425] pool4/3x3_s2_pool4/3x3_s2_0_split <- pool4/3x3_s2
I0403 19:28:44.523907  9284 net.cpp:399] pool4/3x3_s2_pool4/3x3_s2_0_split -> pool4/3x3_s2_pool4/3x3_s2_0_split_0
I0403 19:28:44.523928  9284 net.cpp:399] pool4/3x3_s2_pool4/3x3_s2_0_split -> pool4/3x3_s2_pool4/3x3_s2_0_split_1
I0403 19:28:44.523947  9284 net.cpp:399] pool4/3x3_s2_pool4/3x3_s2_0_split -> pool4/3x3_s2_pool4/3x3_s2_0_split_2
I0403 19:28:44.523967  9284 net.cpp:399] pool4/3x3_s2_pool4/3x3_s2_0_split -> pool4/3x3_s2_pool4/3x3_s2_0_split_3
I0403 19:28:44.524058  9284 net.cpp:141] Setting up pool4/3x3_s2_pool4/3x3_s2_0_split
I0403 19:28:44.524085  9284 net.cpp:148] Top shape: 24 832 7 7 (978432)
I0403 19:28:44.524102  9284 net.cpp:148] Top shape: 24 832 7 7 (978432)
I0403 19:28:44.524118  9284 net.cpp:148] Top shape: 24 832 7 7 (978432)
I0403 19:28:44.524133  9284 net.cpp:148] Top shape: 24 832 7 7 (978432)
I0403 19:28:44.524147  9284 net.cpp:156] Memory required for data: 1292125728
I0403 19:28:44.524163  9284 layer_factory.hpp:77] Creating layer inception_5a/1x1
I0403 19:28:44.524184  9284 net.cpp:91] Creating Layer inception_5a/1x1
I0403 19:28:44.524201  9284 net.cpp:425] inception_5a/1x1 <- pool4/3x3_s2_pool4/3x3_s2_0_split_0
I0403 19:28:44.524229  9284 net.cpp:399] inception_5a/1x1 -> inception_5a/1x1
I0403 19:28:44.527124  9284 net.cpp:141] Setting up inception_5a/1x1
I0403 19:28:44.527156  9284 net.cpp:148] Top shape: 24 256 7 7 (301056)
I0403 19:28:44.527173  9284 net.cpp:156] Memory required for data: 1293329952
I0403 19:28:44.527194  9284 layer_factory.hpp:77] Creating layer inception_5a/relu_1x1
I0403 19:28:44.527217  9284 net.cpp:91] Creating Layer inception_5a/relu_1x1
I0403 19:28:44.527236  9284 net.cpp:425] inception_5a/relu_1x1 <- inception_5a/1x1
I0403 19:28:44.527257  9284 net.cpp:386] inception_5a/relu_1x1 -> inception_5a/1x1 (in-place)
I0403 19:28:44.527573  9284 net.cpp:141] Setting up inception_5a/relu_1x1
I0403 19:28:44.527601  9284 net.cpp:148] Top shape: 24 256 7 7 (301056)
I0403 19:28:44.527616  9284 net.cpp:156] Memory required for data: 1294534176
I0403 19:28:44.527632  9284 layer_factory.hpp:77] Creating layer inception_5a/3x3_reduce
I0403 19:28:44.527654  9284 net.cpp:91] Creating Layer inception_5a/3x3_reduce
I0403 19:28:44.527673  9284 net.cpp:425] inception_5a/3x3_reduce <- pool4/3x3_s2_pool4/3x3_s2_0_split_1
I0403 19:28:44.527693  9284 net.cpp:399] inception_5a/3x3_reduce -> inception_5a/3x3_reduce
I0403 19:28:44.530230  9284 net.cpp:141] Setting up inception_5a/3x3_reduce
I0403 19:28:44.530259  9284 net.cpp:148] Top shape: 24 160 7 7 (188160)
I0403 19:28:44.530275  9284 net.cpp:156] Memory required for data: 1295286816
I0403 19:28:44.530300  9284 layer_factory.hpp:77] Creating layer inception_5a/relu_3x3_reduce
I0403 19:28:44.530321  9284 net.cpp:91] Creating Layer inception_5a/relu_3x3_reduce
I0403 19:28:44.530340  9284 net.cpp:425] inception_5a/relu_3x3_reduce <- inception_5a/3x3_reduce
I0403 19:28:44.530359  9284 net.cpp:386] inception_5a/relu_3x3_reduce -> inception_5a/3x3_reduce (in-place)
I0403 19:28:44.530549  9284 net.cpp:141] Setting up inception_5a/relu_3x3_reduce
I0403 19:28:44.530581  9284 net.cpp:148] Top shape: 24 160 7 7 (188160)
I0403 19:28:44.530606  9284 net.cpp:156] Memory required for data: 1296039456
I0403 19:28:44.530627  9284 layer_factory.hpp:77] Creating layer inception_5a/3x3
I0403 19:28:44.530657  9284 net.cpp:91] Creating Layer inception_5a/3x3
I0403 19:28:44.530678  9284 net.cpp:425] inception_5a/3x3 <- inception_5a/3x3_reduce
I0403 19:28:44.530697  9284 net.cpp:399] inception_5a/3x3 -> inception_5a/3x3
I0403 19:28:44.535987  9284 net.cpp:141] Setting up inception_5a/3x3
I0403 19:28:44.536022  9284 net.cpp:148] Top shape: 24 320 7 7 (376320)
I0403 19:28:44.536039  9284 net.cpp:156] Memory required for data: 1297544736
I0403 19:28:44.536061  9284 layer_factory.hpp:77] Creating layer inception_5a/relu_3x3
I0403 19:28:44.536079  9284 net.cpp:91] Creating Layer inception_5a/relu_3x3
I0403 19:28:44.536098  9284 net.cpp:425] inception_5a/relu_3x3 <- inception_5a/3x3
I0403 19:28:44.536118  9284 net.cpp:386] inception_5a/relu_3x3 -> inception_5a/3x3 (in-place)
I0403 19:28:44.536432  9284 net.cpp:141] Setting up inception_5a/relu_3x3
I0403 19:28:44.536463  9284 net.cpp:148] Top shape: 24 320 7 7 (376320)
I0403 19:28:44.536480  9284 net.cpp:156] Memory required for data: 1299050016
I0403 19:28:44.536497  9284 layer_factory.hpp:77] Creating layer inception_5a/5x5_reduce
I0403 19:28:44.536523  9284 net.cpp:91] Creating Layer inception_5a/5x5_reduce
I0403 19:28:44.536542  9284 net.cpp:425] inception_5a/5x5_reduce <- pool4/3x3_s2_pool4/3x3_s2_0_split_2
I0403 19:28:44.536562  9284 net.cpp:399] inception_5a/5x5_reduce -> inception_5a/5x5_reduce
I0403 19:28:44.537809  9284 net.cpp:141] Setting up inception_5a/5x5_reduce
I0403 19:28:44.537842  9284 net.cpp:148] Top shape: 24 32 7 7 (37632)
I0403 19:28:44.537860  9284 net.cpp:156] Memory required for data: 1299200544
I0403 19:28:44.537881  9284 layer_factory.hpp:77] Creating layer inception_5a/relu_5x5_reduce
I0403 19:28:44.537901  9284 net.cpp:91] Creating Layer inception_5a/relu_5x5_reduce
I0403 19:28:44.537919  9284 net.cpp:425] inception_5a/relu_5x5_reduce <- inception_5a/5x5_reduce
I0403 19:28:44.537938  9284 net.cpp:386] inception_5a/relu_5x5_reduce -> inception_5a/5x5_reduce (in-place)
I0403 19:28:44.538255  9284 net.cpp:141] Setting up inception_5a/relu_5x5_reduce
I0403 19:28:44.538283  9284 net.cpp:148] Top shape: 24 32 7 7 (37632)
I0403 19:28:44.538298  9284 net.cpp:156] Memory required for data: 1299351072
I0403 19:28:44.538314  9284 layer_factory.hpp:77] Creating layer inception_5a/5x5
I0403 19:28:44.538338  9284 net.cpp:91] Creating Layer inception_5a/5x5
I0403 19:28:44.538357  9284 net.cpp:425] inception_5a/5x5 <- inception_5a/5x5_reduce
I0403 19:28:44.538378  9284 net.cpp:399] inception_5a/5x5 -> inception_5a/5x5
I0403 19:28:44.540216  9284 net.cpp:141] Setting up inception_5a/5x5
I0403 19:28:44.540261  9284 net.cpp:148] Top shape: 24 128 7 7 (150528)
I0403 19:28:44.540278  9284 net.cpp:156] Memory required for data: 1299953184
I0403 19:28:44.540298  9284 layer_factory.hpp:77] Creating layer inception_5a/relu_5x5
I0403 19:28:44.540316  9284 net.cpp:91] Creating Layer inception_5a/relu_5x5
I0403 19:28:44.540333  9284 net.cpp:425] inception_5a/relu_5x5 <- inception_5a/5x5
I0403 19:28:44.540354  9284 net.cpp:386] inception_5a/relu_5x5 -> inception_5a/5x5 (in-place)
I0403 19:28:44.540552  9284 net.cpp:141] Setting up inception_5a/relu_5x5
I0403 19:28:44.540580  9284 net.cpp:148] Top shape: 24 128 7 7 (150528)
I0403 19:28:44.540596  9284 net.cpp:156] Memory required for data: 1300555296
I0403 19:28:44.540611  9284 layer_factory.hpp:77] Creating layer inception_5a/pool
I0403 19:28:44.540629  9284 net.cpp:91] Creating Layer inception_5a/pool
I0403 19:28:44.540645  9284 net.cpp:425] inception_5a/pool <- pool4/3x3_s2_pool4/3x3_s2_0_split_3
I0403 19:28:44.540666  9284 net.cpp:399] inception_5a/pool -> inception_5a/pool
I0403 19:28:44.540741  9284 net.cpp:141] Setting up inception_5a/pool
I0403 19:28:44.540766  9284 net.cpp:148] Top shape: 24 832 7 7 (978432)
I0403 19:28:44.540782  9284 net.cpp:156] Memory required for data: 1304469024
I0403 19:28:44.540797  9284 layer_factory.hpp:77] Creating layer inception_5a/pool_proj
I0403 19:28:44.540823  9284 net.cpp:91] Creating Layer inception_5a/pool_proj
I0403 19:28:44.540841  9284 net.cpp:425] inception_5a/pool_proj <- inception_5a/pool
I0403 19:28:44.540861  9284 net.cpp:399] inception_5a/pool_proj -> inception_5a/pool_proj
I0403 19:28:44.543282  9284 net.cpp:141] Setting up inception_5a/pool_proj
I0403 19:28:44.543318  9284 net.cpp:148] Top shape: 24 128 7 7 (150528)
I0403 19:28:44.543334  9284 net.cpp:156] Memory required for data: 1305071136
I0403 19:28:44.543355  9284 layer_factory.hpp:77] Creating layer inception_5a/relu_pool_proj
I0403 19:28:44.543375  9284 net.cpp:91] Creating Layer inception_5a/relu_pool_proj
I0403 19:28:44.543392  9284 net.cpp:425] inception_5a/relu_pool_proj <- inception_5a/pool_proj
I0403 19:28:44.543411  9284 net.cpp:386] inception_5a/relu_pool_proj -> inception_5a/pool_proj (in-place)
I0403 19:28:44.543721  9284 net.cpp:141] Setting up inception_5a/relu_pool_proj
I0403 19:28:44.543751  9284 net.cpp:148] Top shape: 24 128 7 7 (150528)
I0403 19:28:44.543768  9284 net.cpp:156] Memory required for data: 1305673248
I0403 19:28:44.543784  9284 layer_factory.hpp:77] Creating layer inception_5a/output
I0403 19:28:44.543802  9284 net.cpp:91] Creating Layer inception_5a/output
I0403 19:28:44.543819  9284 net.cpp:425] inception_5a/output <- inception_5a/1x1
I0403 19:28:44.543836  9284 net.cpp:425] inception_5a/output <- inception_5a/3x3
I0403 19:28:44.543853  9284 net.cpp:425] inception_5a/output <- inception_5a/5x5
I0403 19:28:44.543870  9284 net.cpp:425] inception_5a/output <- inception_5a/pool_proj
I0403 19:28:44.543889  9284 net.cpp:399] inception_5a/output -> inception_5a/output
I0403 19:28:44.543941  9284 net.cpp:141] Setting up inception_5a/output
I0403 19:28:44.543965  9284 net.cpp:148] Top shape: 24 832 7 7 (978432)
I0403 19:28:44.543980  9284 net.cpp:156] Memory required for data: 1309586976
I0403 19:28:44.543997  9284 layer_factory.hpp:77] Creating layer inception_5a/output_inception_5a/output_0_split
I0403 19:28:44.544014  9284 net.cpp:91] Creating Layer inception_5a/output_inception_5a/output_0_split
I0403 19:28:44.544034  9284 net.cpp:425] inception_5a/output_inception_5a/output_0_split <- inception_5a/output
I0403 19:28:44.544051  9284 net.cpp:399] inception_5a/output_inception_5a/output_0_split -> inception_5a/output_inception_5a/output_0_split_0
I0403 19:28:44.544072  9284 net.cpp:399] inception_5a/output_inception_5a/output_0_split -> inception_5a/output_inception_5a/output_0_split_1
I0403 19:28:44.544092  9284 net.cpp:399] inception_5a/output_inception_5a/output_0_split -> inception_5a/output_inception_5a/output_0_split_2
I0403 19:28:44.544113  9284 net.cpp:399] inception_5a/output_inception_5a/output_0_split -> inception_5a/output_inception_5a/output_0_split_3
I0403 19:28:44.544241  9284 net.cpp:141] Setting up inception_5a/output_inception_5a/output_0_split
I0403 19:28:44.544266  9284 net.cpp:148] Top shape: 24 832 7 7 (978432)
I0403 19:28:44.544284  9284 net.cpp:148] Top shape: 24 832 7 7 (978432)
I0403 19:28:44.544301  9284 net.cpp:148] Top shape: 24 832 7 7 (978432)
I0403 19:28:44.544318  9284 net.cpp:148] Top shape: 24 832 7 7 (978432)
I0403 19:28:44.544333  9284 net.cpp:156] Memory required for data: 1325241888
I0403 19:28:44.544348  9284 layer_factory.hpp:77] Creating layer inception_5b/1x1
I0403 19:28:44.544371  9284 net.cpp:91] Creating Layer inception_5b/1x1
I0403 19:28:44.544390  9284 net.cpp:425] inception_5b/1x1 <- inception_5a/output_inception_5a/output_0_split_0
I0403 19:28:44.544412  9284 net.cpp:399] inception_5b/1x1 -> inception_5b/1x1
I0403 19:28:44.548344  9284 net.cpp:141] Setting up inception_5b/1x1
I0403 19:28:44.548377  9284 net.cpp:148] Top shape: 24 384 7 7 (451584)
I0403 19:28:44.548393  9284 net.cpp:156] Memory required for data: 1327048224
I0403 19:28:44.548413  9284 layer_factory.hpp:77] Creating layer inception_5b/relu_1x1
I0403 19:28:44.548434  9284 net.cpp:91] Creating Layer inception_5b/relu_1x1
I0403 19:28:44.548454  9284 net.cpp:425] inception_5b/relu_1x1 <- inception_5b/1x1
I0403 19:28:44.548472  9284 net.cpp:386] inception_5b/relu_1x1 -> inception_5b/1x1 (in-place)
I0403 19:28:44.548786  9284 net.cpp:141] Setting up inception_5b/relu_1x1
I0403 19:28:44.548815  9284 net.cpp:148] Top shape: 24 384 7 7 (451584)
I0403 19:28:44.548832  9284 net.cpp:156] Memory required for data: 1328854560
I0403 19:28:44.548848  9284 layer_factory.hpp:77] Creating layer inception_5b/3x3_reduce
I0403 19:28:44.548872  9284 net.cpp:91] Creating Layer inception_5b/3x3_reduce
I0403 19:28:44.548894  9284 net.cpp:425] inception_5b/3x3_reduce <- inception_5a/output_inception_5a/output_0_split_1
I0403 19:28:44.548915  9284 net.cpp:399] inception_5b/3x3_reduce -> inception_5b/3x3_reduce
I0403 19:28:44.551735  9284 net.cpp:141] Setting up inception_5b/3x3_reduce
I0403 19:28:44.551767  9284 net.cpp:148] Top shape: 24 192 7 7 (225792)
I0403 19:28:44.551791  9284 net.cpp:156] Memory required for data: 1329757728
I0403 19:28:44.551812  9284 layer_factory.hpp:77] Creating layer inception_5b/relu_3x3_reduce
I0403 19:28:44.551832  9284 net.cpp:91] Creating Layer inception_5b/relu_3x3_reduce
I0403 19:28:44.551851  9284 net.cpp:425] inception_5b/relu_3x3_reduce <- inception_5b/3x3_reduce
I0403 19:28:44.551869  9284 net.cpp:386] inception_5b/relu_3x3_reduce -> inception_5b/3x3_reduce (in-place)
I0403 19:28:44.552067  9284 net.cpp:141] Setting up inception_5b/relu_3x3_reduce
I0403 19:28:44.552096  9284 net.cpp:148] Top shape: 24 192 7 7 (225792)
I0403 19:28:44.552112  9284 net.cpp:156] Memory required for data: 1330660896
I0403 19:28:44.552129  9284 layer_factory.hpp:77] Creating layer inception_5b/3x3
I0403 19:28:44.552150  9284 net.cpp:91] Creating Layer inception_5b/3x3
I0403 19:28:44.552170  9284 net.cpp:425] inception_5b/3x3 <- inception_5b/3x3_reduce
I0403 19:28:44.552187  9284 net.cpp:399] inception_5b/3x3 -> inception_5b/3x3
I0403 19:28:44.559245  9284 net.cpp:141] Setting up inception_5b/3x3
I0403 19:28:44.559279  9284 net.cpp:148] Top shape: 24 384 7 7 (451584)
I0403 19:28:44.559298  9284 net.cpp:156] Memory required for data: 1332467232
I0403 19:28:44.559319  9284 layer_factory.hpp:77] Creating layer inception_5b/relu_3x3
I0403 19:28:44.559337  9284 net.cpp:91] Creating Layer inception_5b/relu_3x3
I0403 19:28:44.559356  9284 net.cpp:425] inception_5b/relu_3x3 <- inception_5b/3x3
I0403 19:28:44.559375  9284 net.cpp:386] inception_5b/relu_3x3 -> inception_5b/3x3 (in-place)
I0403 19:28:44.559690  9284 net.cpp:141] Setting up inception_5b/relu_3x3
I0403 19:28:44.559722  9284 net.cpp:148] Top shape: 24 384 7 7 (451584)
I0403 19:28:44.559741  9284 net.cpp:156] Memory required for data: 1334273568
I0403 19:28:44.559757  9284 layer_factory.hpp:77] Creating layer inception_5b/5x5_reduce
I0403 19:28:44.559798  9284 net.cpp:91] Creating Layer inception_5b/5x5_reduce
I0403 19:28:44.559820  9284 net.cpp:425] inception_5b/5x5_reduce <- inception_5a/output_inception_5a/output_0_split_2
I0403 19:28:44.559840  9284 net.cpp:399] inception_5b/5x5_reduce -> inception_5b/5x5_reduce
I0403 19:28:44.561167  9284 net.cpp:141] Setting up inception_5b/5x5_reduce
I0403 19:28:44.561197  9284 net.cpp:148] Top shape: 24 48 7 7 (56448)
I0403 19:28:44.561223  9284 net.cpp:156] Memory required for data: 1334499360
I0403 19:28:44.561242  9284 layer_factory.hpp:77] Creating layer inception_5b/relu_5x5_reduce
I0403 19:28:44.561264  9284 net.cpp:91] Creating Layer inception_5b/relu_5x5_reduce
I0403 19:28:44.561282  9284 net.cpp:425] inception_5b/relu_5x5_reduce <- inception_5b/5x5_reduce
I0403 19:28:44.561300  9284 net.cpp:386] inception_5b/relu_5x5_reduce -> inception_5b/5x5_reduce (in-place)
I0403 19:28:44.561688  9284 net.cpp:141] Setting up inception_5b/relu_5x5_reduce
I0403 19:28:44.561717  9284 net.cpp:148] Top shape: 24 48 7 7 (56448)
I0403 19:28:44.561734  9284 net.cpp:156] Memory required for data: 1334725152
I0403 19:28:44.561750  9284 layer_factory.hpp:77] Creating layer inception_5b/5x5
I0403 19:28:44.561772  9284 net.cpp:91] Creating Layer inception_5b/5x5
I0403 19:28:44.561790  9284 net.cpp:425] inception_5b/5x5 <- inception_5b/5x5_reduce
I0403 19:28:44.561810  9284 net.cpp:399] inception_5b/5x5 -> inception_5b/5x5
I0403 19:28:44.564087  9284 net.cpp:141] Setting up inception_5b/5x5
I0403 19:28:44.564121  9284 net.cpp:148] Top shape: 24 128 7 7 (150528)
I0403 19:28:44.564137  9284 net.cpp:156] Memory required for data: 1335327264
I0403 19:28:44.564158  9284 layer_factory.hpp:77] Creating layer inception_5b/relu_5x5
I0403 19:28:44.564178  9284 net.cpp:91] Creating Layer inception_5b/relu_5x5
I0403 19:28:44.564196  9284 net.cpp:425] inception_5b/relu_5x5 <- inception_5b/5x5
I0403 19:28:44.564224  9284 net.cpp:386] inception_5b/relu_5x5 -> inception_5b/5x5 (in-place)
I0403 19:28:44.564431  9284 net.cpp:141] Setting up inception_5b/relu_5x5
I0403 19:28:44.564458  9284 net.cpp:148] Top shape: 24 128 7 7 (150528)
I0403 19:28:44.564476  9284 net.cpp:156] Memory required for data: 1335929376
I0403 19:28:44.564491  9284 layer_factory.hpp:77] Creating layer inception_5b/pool
I0403 19:28:44.564512  9284 net.cpp:91] Creating Layer inception_5b/pool
I0403 19:28:44.564532  9284 net.cpp:425] inception_5b/pool <- inception_5a/output_inception_5a/output_0_split_3
I0403 19:28:44.564551  9284 net.cpp:399] inception_5b/pool -> inception_5b/pool
I0403 19:28:44.564628  9284 net.cpp:141] Setting up inception_5b/pool
I0403 19:28:44.564653  9284 net.cpp:148] Top shape: 24 832 7 7 (978432)
I0403 19:28:44.564668  9284 net.cpp:156] Memory required for data: 1339843104
I0403 19:28:44.564683  9284 layer_factory.hpp:77] Creating layer inception_5b/pool_proj
I0403 19:28:44.564707  9284 net.cpp:91] Creating Layer inception_5b/pool_proj
I0403 19:28:44.564725  9284 net.cpp:425] inception_5b/pool_proj <- inception_5b/pool
I0403 19:28:44.564746  9284 net.cpp:399] inception_5b/pool_proj -> inception_5b/pool_proj
I0403 19:28:44.567173  9284 net.cpp:141] Setting up inception_5b/pool_proj
I0403 19:28:44.567204  9284 net.cpp:148] Top shape: 24 128 7 7 (150528)
I0403 19:28:44.567230  9284 net.cpp:156] Memory required for data: 1340445216
I0403 19:28:44.567250  9284 layer_factory.hpp:77] Creating layer inception_5b/relu_pool_proj
I0403 19:28:44.567270  9284 net.cpp:91] Creating Layer inception_5b/relu_pool_proj
I0403 19:28:44.567287  9284 net.cpp:425] inception_5b/relu_pool_proj <- inception_5b/pool_proj
I0403 19:28:44.567307  9284 net.cpp:386] inception_5b/relu_pool_proj -> inception_5b/pool_proj (in-place)
I0403 19:28:44.567605  9284 net.cpp:141] Setting up inception_5b/relu_pool_proj
I0403 19:28:44.567636  9284 net.cpp:148] Top shape: 24 128 7 7 (150528)
I0403 19:28:44.567653  9284 net.cpp:156] Memory required for data: 1341047328
I0403 19:28:44.567669  9284 layer_factory.hpp:77] Creating layer inception_5b/output
I0403 19:28:44.567688  9284 net.cpp:91] Creating Layer inception_5b/output
I0403 19:28:44.567721  9284 net.cpp:425] inception_5b/output <- inception_5b/1x1
I0403 19:28:44.567740  9284 net.cpp:425] inception_5b/output <- inception_5b/3x3
I0403 19:28:44.567756  9284 net.cpp:425] inception_5b/output <- inception_5b/5x5
I0403 19:28:44.567772  9284 net.cpp:425] inception_5b/output <- inception_5b/pool_proj
I0403 19:28:44.567790  9284 net.cpp:399] inception_5b/output -> inception_5b/output
I0403 19:28:44.567847  9284 net.cpp:141] Setting up inception_5b/output
I0403 19:28:44.567873  9284 net.cpp:148] Top shape: 24 1024 7 7 (1204224)
I0403 19:28:44.567888  9284 net.cpp:156] Memory required for data: 1345864224
I0403 19:28:44.567904  9284 layer_factory.hpp:77] Creating layer pool5/7x7_s1
I0403 19:28:44.567924  9284 net.cpp:91] Creating Layer pool5/7x7_s1
I0403 19:28:44.567942  9284 net.cpp:425] pool5/7x7_s1 <- inception_5b/output
I0403 19:28:44.567962  9284 net.cpp:399] pool5/7x7_s1 -> pool5/7x7_s1
I0403 19:28:44.568182  9284 net.cpp:141] Setting up pool5/7x7_s1
I0403 19:28:44.568217  9284 net.cpp:148] Top shape: 24 1024 1 1 (24576)
I0403 19:28:44.568233  9284 net.cpp:156] Memory required for data: 1345962528
I0403 19:28:44.568248  9284 layer_factory.hpp:77] Creating layer pool5/drop_7x7_s1
I0403 19:28:44.568266  9284 net.cpp:91] Creating Layer pool5/drop_7x7_s1
I0403 19:28:44.568282  9284 net.cpp:425] pool5/drop_7x7_s1 <- pool5/7x7_s1
I0403 19:28:44.568301  9284 net.cpp:386] pool5/drop_7x7_s1 -> pool5/7x7_s1 (in-place)
I0403 19:28:44.568353  9284 net.cpp:141] Setting up pool5/drop_7x7_s1
I0403 19:28:44.568377  9284 net.cpp:148] Top shape: 24 1024 1 1 (24576)
I0403 19:28:44.568390  9284 net.cpp:156] Memory required for data: 1346060832
I0403 19:28:44.568405  9284 layer_factory.hpp:77] Creating layer loss3/classifier_plantvillage
I0403 19:28:44.568428  9284 net.cpp:91] Creating Layer loss3/classifier_plantvillage
I0403 19:28:44.568444  9284 net.cpp:425] loss3/classifier_plantvillage <- pool5/7x7_s1
I0403 19:28:44.568465  9284 net.cpp:399] loss3/classifier_plantvillage -> loss3/classifier_plantvillage
I0403 19:28:44.568895  9284 net.cpp:141] Setting up loss3/classifier_plantvillage
I0403 19:28:44.568920  9284 net.cpp:148] Top shape: 24 38 (912)
I0403 19:28:44.568934  9284 net.cpp:156] Memory required for data: 1346064480
I0403 19:28:44.568953  9284 layer_factory.hpp:77] Creating layer loss3/classifier_plantvillage_loss3/classifier_plantvillage_0_split
I0403 19:28:44.568974  9284 net.cpp:91] Creating Layer loss3/classifier_plantvillage_loss3/classifier_plantvillage_0_split
I0403 19:28:44.568991  9284 net.cpp:425] loss3/classifier_plantvillage_loss3/classifier_plantvillage_0_split <- loss3/classifier_plantvillage
I0403 19:28:44.569010  9284 net.cpp:399] loss3/classifier_plantvillage_loss3/classifier_plantvillage_0_split -> loss3/classifier_plantvillage_loss3/classifier_plantvillage_0_split_0
I0403 19:28:44.569030  9284 net.cpp:399] loss3/classifier_plantvillage_loss3/classifier_plantvillage_0_split -> loss3/classifier_plantvillage_loss3/classifier_plantvillage_0_split_1
I0403 19:28:44.569051  9284 net.cpp:399] loss3/classifier_plantvillage_loss3/classifier_plantvillage_0_split -> loss3/classifier_plantvillage_loss3/classifier_plantvillage_0_split_2
I0403 19:28:44.569070  9284 net.cpp:399] loss3/classifier_plantvillage_loss3/classifier_plantvillage_0_split -> loss3/classifier_plantvillage_loss3/classifier_plantvillage_0_split_3
I0403 19:28:44.569171  9284 net.cpp:141] Setting up loss3/classifier_plantvillage_loss3/classifier_plantvillage_0_split
I0403 19:28:44.569195  9284 net.cpp:148] Top shape: 24 38 (912)
I0403 19:28:44.569221  9284 net.cpp:148] Top shape: 24 38 (912)
I0403 19:28:44.569245  9284 net.cpp:148] Top shape: 24 38 (912)
I0403 19:28:44.569262  9284 net.cpp:148] Top shape: 24 38 (912)
I0403 19:28:44.569277  9284 net.cpp:156] Memory required for data: 1346079072
I0403 19:28:44.569299  9284 layer_factory.hpp:77] Creating layer loss1/loss
I0403 19:28:44.569321  9284 net.cpp:91] Creating Layer loss1/loss
I0403 19:28:44.569339  9284 net.cpp:425] loss1/loss <- loss1/classifier_plantvillage_loss1/classifier_plantvillage_0_split_0
I0403 19:28:44.569370  9284 net.cpp:425] loss1/loss <- label_data_1_split_0
…
