…
I0403 19:25:10.263985  9208 net.cpp:313] The NetState phase (1) differed from the phase (0) specified by a rule in layer data
I0403 19:25:10.265211  9208 net.cpp:49] Initializing net from parameters: 
state {
  phase: TEST
}
layer {
  name: "data"
  type: "Data"
  top: "data"
  top: "label"
  include {
    phase: TEST
  }
  transform_param {
    mirror: false
    crop_size: 224
    mean_file: "/home/mohanty/data/final_dataset/lmdb/grayscale-50-50/mean.binaryproto"
  }
  data_param {
    source: "/home/mohanty/data/final_dataset/lmdb/grayscale-50-50/test_db"
    batch_size: 24
    backend: LMDB
  }
}
layer {
  name: "conv1/7x7_s2"
  type: "Convolution"
  bottom: "data"
  top: "conv1/7x7_s2"
  param {
    lr_mult: 1
    decay_mult: 1
  }
  param {
    lr_mult: 2
    decay_mult: 0
  }
  convolution_param {
    num_output: 64
    pad: 3
    kernel_size: 7
    stride: 2
    weight_filler {
      type: "xavier"
      std: 0.1
    }
    bias_filler {
      type: "constant"
      value: 0.2
    }
  }
}
layer {
  name: "conv1/relu_7x7"
  type: "ReLU"
  bottom: "conv1/7x7_s2"
  top: "conv1/7x7_s2"
}
layer {
  name: "pool1/3x3_s2"
  type: "Pooling"
  bottom: "conv1/7x7_s2"
  top: "pool1/3x3_s2"
  pooling_param {
    pool: MAX
    kernel_size: 3
    stride: 2
  }
}
layer {
  name: "pool1/norm1"
  type: "LRN"
  bottom: "pool1/3x3_s2"
  top: "pool1/norm1"
  lrn_param {
    local_size: 5
    alpha: 0.0001
    beta: 0.75
  }
}
layer {
  name: "conv2/3x3_reduce"
  type: "Convolution"
  bottom: "pool1/norm1"
  top: "conv2/3x3_reduce"
  param {
    lr_mult: 1
    decay_mult: 1
  }
  param {
    lr_mult: 2
    decay_mult: 0
  }
  convolution_param {
    num_output: 64
    kernel_size: 1
    weight_filler {
      type: "xavier"
      std: 0.1
    }
    bias_filler {
      type: "constant"
      value: 0.2
    }
  }
}
layer {
  name: "conv2/relu_3x3_reduce"
  type: "ReLU"
  bottom: "conv2/3x3_reduce"
  top: "conv2/3x3_reduce"
}
layer {
  name: "conv2/3x3"
  type: "Convolution"
  bottom: "conv2/3x3_reduce"
  top: "conv2/3x3"
  param {
    lr_mult: 1
    decay_mult: 1
  }
  param {
    lr_mult: 2
    decay_mult: 0
  }
  convolution_param {
    num_output: 192
    pad: 1
    kernel_size: 3
    weight_filler {
      type: "xavier"
      std: 0.03
    }
    bias_filler {
      type: "constant"
      value: 0.2
    }
  }
}
layer {
  name: "conv2/relu_3x3"
  type: "ReLU"
  bottom: "conv2/3x3"
  top: "conv2/3x3"
}
layer {
  name: "conv2/norm2"
  type: "LRN"
  bottom: "conv2/3x3"
  top: "conv2/norm2"
  lrn_param {
    local_size: 5
    alpha: 0.0001
    beta: 0.75
  }
}
layer {
  name: "pool2/3x3_s2"
  type: "Pooling"
  bottom: "conv2/norm2"
  top: "pool2/3x3_s2"
  pooling_param {
    pool: MAX
    kernel_size: 3
    stride: 2
  }
}
layer {
  name: "inception_3a/1x1"
  type: "Convolution"
  bottom: "pool2/3x3_s2"
  top: "inception_3a/1x1"
  param {
    lr_mult: 1
    decay_mult: 1
  }
  param {
    lr_mult: 2
    decay_mult: 0
  }
  convolution_param {
    num_output: 64
    kernel_size: 1
    weight_filler {
      type: "xavier"
      std: 0.03
    }
    bias_filler {
      type: "constant"
      value: 0.2
    }
  }
}
layer {
  name: "inception_3a/relu_1x1"
  type: "ReLU"
  bottom: "inception_3a/1x1"
  top: "inception_3a/1x1"
}
layer {
  name: "inception_3a/3x3_reduce"
  type: "Convolution"
  bottom: "pool2/3x3_s2"
  top: "inception_3a/3x3_reduce"
  param {
    lr_mult: 1
    decay_mult: 1
  }
  param {
    lr_mult: 2
    decay_mult: 0
  }
  convolution_param {
    num_output: 96
    kernel_size: 1
    weight_filler {
      type: "xavier"
      std: 0.09
    }
    bias_filler {
      type: "constant"
      value: 0.2
    }
  }
}
layer {
  name: "inception_3a/relu_3x3_reduce"
  type: "ReLU"
  bottom: "inception_3a/3x3_reduce"
  top: "inception_3a/3x3_reduce"
}
layer {
  name: "inception_3a/3x3"
  type: "Convolution"
  bottom: "inception_3a/3x3_reduce"
  top: "inception_3a/3x3"
  param {
    lr_mult: 1
    decay_mult: 1
  }
  param {
    lr_mult: 2
    decay_mult: 0
  }
  convolution_param {
    num_output: 128
    pad: 1
    kernel_size: 3
    weight_filler {
      type: "xavier"
      std: 0.03
    }
    bias_filler {
      type: "constant"
      value: 0.2
    }
  }
}
layer {
  name: "inception_3a/relu_3x3"
  type: "ReLU"
  bottom: "inception_3a/3x3"
  top: "inception_3a/3x3"
}
layer {
  name: "inception_3a/5x5_reduce"
  type: "Convolution"
  bottom: "pool2/3x3_s2"
  top: "inception_3a/5x5_reduce"
  param {
    lr_mult: 1
    decay_mult: 1
  }
  param {
    lr_mult: 2
    decay_mult: 0
  }
  convolution_param {
    num_output: 16
    kernel_size: 1
    weight_filler {
      type: "xavier"
      std: 0.2
    }
    bias_filler {
      type: "constant"
      value: 0.2
    }
  }
}
layer {
  name: "inception_3a/relu_5x5_reduce"
  type: "ReLU"
  bottom: "inception_3a/5x5_reduce"
  top: "inception_3a/5x5_reduce"
}
layer {
  name: "inception_3a/5x5"
  type: "Convolution"
  bottom: "inception_3a/5x5_reduce"
  top: "inception_3a/5x5"
  param {
    lr_mult: 1
    decay_mult: 1
  }
  param {
    lr_mult: 2
    decay_mult: 0
  }
  convolution_param {
    num_output: 32
    pad: 2
    kernel_size: 5
    weight_filler {
      type: "xavier"
      std: 0.03
    }
    bias_filler {
      type: "constant"
      value: 0.2
    }
  }
}
layer {
  name: "inception_3a/relu_5x5"
  type: "ReLU"
  bottom: "inception_3a/5x5"
  top: "inception_3a/5x5"
}
layer {
  name: "inception_3a/pool"
  type: "Pooling"
  bottom: "pool2/3x3_s2"
  top: "inception_3a/pool"
  pooling_param {
    pool: MAX
    kernel_size: 3
    stride: 1
    pad: 1
  }
}
layer {
  name: "inception_3a/pool_proj"
  type: "Convolution"
  bottom: "inception_3a/pool"
  top: "inception_3a/pool_proj"
  param {
    lr_mult: 1
    decay_mult: 1
  }
  param {
    lr_mult: 2
    decay_mult: 0
  }
  convolution_param {
    num_output: 32
    kernel_size: 1
    weight_filler {
      type: "xavier"
      std: 0.1
    }
    bias_filler {
      type: "constant"
      value: 0.2
    }
  }
}
layer {
  name: "inception_3a/relu_pool_proj"
  type: "ReLU"
  bottom: "inception_3a/pool_proj"
  top: "inception_3a/pool_proj"
}
layer {
  name: "inception_3a/output"
  type: "Concat"
  bottom: "inception_3a/1x1"
  bottom: "inception_3a/3x3"
  bottom: "inception_3a/5x5"
  bottom: "inception_3a/pool_proj"
  top: "inception_3a/output"
}
layer {
  name: "inception_3b/1x1"
  type: "Convolution"
  bottom: "inception_3a/output"
  top: "inception_3b/1x1"
  param {
    lr_mult: 1
    decay_mult: 1
  }
  param {
    lr_mult: 2
    decay_mult: 0
  }
  convolution_param {
    num_output: 128
    kernel_size: 1
    weight_filler {
      type: "xavier"
      std: 0.03
    }
    bias_filler {
      type: "constant"
      value: 0.2
    }
  }
}
layer {
  name: "inception_3b/relu_1x1"
  type: "ReLU"
  bottom: "inception_3b/1x1"
  top: "inception_3b/1x1"
}
layer {
  name: "inception_3b/3x3_reduce"
  type: "Convolution"
  bottom: "inception_3a/output"
  top: "inception_3b/3x3_reduce"
  param {
    lr_mult: 1
    decay_mult: 1
  }
  param {
    lr_mult: 2
    decay_mult: 0
  }
  convolution_param {
    num_output: 128
    kernel_size: 1
    weight_filler {
      type: "xavier"
      std: 0.09
    }
    bias_filler {
      type: "constant"
      value: 0.2
    }
  }
}
layer {
  name: "inception_3b/relu_3x3_reduce"
  type: "ReLU"
  bottom: "inception_3b/3x3_reduce"
  top: "inception_3b/3x3_reduce"
}
layer {
  name: "inception_3b/3x3"
  type: "Convolution"
  bottom: "inception_3b/3x3_reduce"
  top: "inception_3b/3x3"
  param {
    lr_mult: 1
    decay_mult: 1
  }
  param {
    lr_mult: 2
    decay_mult: 0
  }
  convolution_param {
    num_output: 192
    pad: 1
    kernel_size: 3
    weight_filler {
      type: "xavier"
      std: 0.03
    }
    bias_filler {
      type: "constant"
      value: 0.2
    }
  }
}
layer {
  name: "inception_3b/relu_3x3"
  type: "ReLU"
  bottom: "inception_3b/3x3"
  top: "inception_3b/3x3"
}
layer {
  name: "inception_3b/5x5_reduce"
  type: "Convolution"
  bottom: "inception_3a/output"
  top: "inception_3b/5x5_reduce"
  param {
    lr_mult: 1
    decay_mult: 1
  }
  param {
    lr_mult: 2
    decay_mult: 0
  }
  convolution_param {
    num_output: 32
    kernel_size: 1
    weight_filler {
      type: "xavier"
      std: 0.2
    }
    bias_filler {
      type: "constant"
      value: 0.2
    }
  }
}
layer {
  name: "inception_3b/relu_5x5_reduce"
  type: "ReLU"
  bottom: "inception_3b/5x5_reduce"
  top: "inception_3b/5x5_reduce"
}
layer {
  name: "inception_3b/5x5"
  type: "Convolution"
  bottom: "inception_3b/5x5_reduce"
  top: "inception_3b/5x5"
  param {
    lr_mult: 1
    decay_mult: 1
  }
  param {
    lr_mult: 2
    decay_mult: 0
  }
  convolution_param {
    num_output: 96
    pad: 2
    kernel_size: 5
    weight_filler {
      type: "xavier"
      std: 0.03
    }
    bias_filler {
      type: "constant"
      value: 0.2
    }
  }
}
layer {
  name: "inception_3b/relu_5x5"
  type: "ReLU"
  bottom: "inception_3b/5x5"
  top: "inception_3b/5x5"
}
layer {
  name: "inception_3b/pool"
  type: "Pooling"
  bottom: "inception_3a/output"
  top: "inception_3b/pool"
  pooling_param {
    pool: MAX
    kernel_size: 3
    stride: 1
    pad: 1
  }
}
layer {
  name: "inception_3b/pool_proj"
  type: "Convolution"
  bottom: "inception_3b/pool"
  top: "inception_3b/pool_proj"
  param {
    lr_mult: 1
    decay_mult: 1
  }
  param {
    lr_mult: 2
    decay_mult: 0
  }
  convolution_param {
    num_output: 64
    kernel_size: 1
    weight_filler {
      type: "xavier"
      std: 0.1
    }
    bias_filler {
      type: "constant"
      value: 0.2
    }
  }
}
layer {
  name: "inception_3b/relu_pool_proj"
  type: "ReLU"
  bottom: "inception_3b/pool_proj"
  top: "inception_3b/pool_proj"
}
layer {
  name: "inception_3b/output"
  type: "Concat"
  bottom: "inception_3b/1x1"
  bottom: "inception_3b/3x3"
  bottom: "inception_3b/5x5"
  bottom: "inception_3b/pool_proj"
  top: "inception_3b/output"
}
layer {
  name: "pool3/3x3_s2"
  type: "Pooling"
  bottom: "inception_3b/output"
  top: "pool3/3x3_s2"
  pooling_param {
    pool: MAX
    kernel_size: 3
    stride: 2
  }
}
layer {
  name: "inception_4a/1x1"
  type: "Convolution"
  bottom: "pool3/3x3_s2"
  top: "inception_4a/1x1"
  param {
    lr_mult: 1
    decay_mult: 1
  }
  param {
    lr_mult: 2
    decay_mult: 0
  }
  convolution_param {
    num_output: 192
    kernel_size: 1
    weight_filler {
      type: "xavier"
      std: 0.03
    }
    bias_filler {
      type: "constant"
      value: 0.2
    }
  }
}
layer {
  name: "inception_4a/relu_1x1"
  type: "ReLU"
  bottom: "inception_4a/1x1"
  top: "inception_4a/1x1"
}
layer {
  name: "inception_4a/3x3_reduce"
  type: "Convolution"
  bottom: "pool3/3x3_s2"
  top: "inception_4a/3x3_reduce"
  param {
    lr_mult: 1
    decay_mult: 1
  }
  param {
    lr_mult: 2
    decay_mult: 0
  }
  convolution_param {
    num_output: 96
    kernel_size: 1
    weight_filler {
      type: "xavier"
      std: 0.09
    }
    bias_filler {
      type: "constant"
      value: 0.2
    }
  }
}
layer {
  name: "inception_4a/relu_3x3_reduce"
  type: "ReLU"
  bottom: "inception_4a/3x3_reduce"
  top: "inception_4a/3x3_reduce"
}
layer {
  name: "inception_4a/3x3"
  type: "Convolution"
  bottom: "inception_4a/3x3_reduce"
  top: "inception_4a/3x3"
  param {
    lr_mult: 1
    decay_mult: 1
  }
  param {
    lr_mult: 2
    decay_mult: 0
  }
  convolution_param {
    num_output: 208
    pad: 1
    kernel_size: 3
    weight_filler {
      type: "xavier"
      std: 0.03
    }
    bias_filler {
      type: "constant"
      value: 0.2
    }
  }
}
layer {
  name: "inception_4a/relu_3x3"
  type: "ReLU"
  bottom: "inception_4a/3x3"
  top: "inception_4a/3x3"
}
layer {
  name: "inception_4a/5x5_reduce"
  type: "Convolution"
  bottom: "pool3/3x3_s2"
  top: "inception_4a/5x5_reduce"
  param {
    lr_mult: 1
    decay_mult: 1
  }
  param {
    lr_mult: 2
    decay_mult: 0
  }
  convolution_param {
    num_output: 16
    kernel_size: 1
    weight_filler {
      type: "xavier"
      std: 0.2
    }
    bias_filler {
      type: "constant"
      value: 0.2
    }
  }
}
layer {
  name: "inception_4a/relu_5x5_reduce"
  type: "ReLU"
  bottom: "inception_4a/5x5_reduce"
  top: "inception_4a/5x5_reduce"
}
layer {
  name: "inception_4a/5x5"
  type: "Convolution"
  bottom: "inception_4a/5x5_reduce"
  top: "inception_4a/5x5"
  param {
    lr_mult: 1
    decay_mult: 1
  }
  param {
    lr_mult: 2
    decay_mult: 0
  }
  convolution_param {
    num_output: 48
    pad: 2
    kernel_size: 5
    weight_filler {
      type: "xavier"
      std: 0.03
    }
    bias_filler {
      type: "constant"
      value: 0.2
    }
  }
}
layer {
  name: "inception_4a/relu_5x5"
  type: "ReLU"
  bottom: "inception_4a/5x5"
  top: "inception_4a/5x5"
}
layer {
  name: "inception_4a/pool"
  type: "Pooling"
  bottom: "pool3/3x3_s2"
  top: "inception_4a/pool"
  pooling_param {
    pool: MAX
    kernel_size: 3
    stride: 1
    pad: 1
  }
}
layer {
  name: "inception_4a/pool_proj"
  type: "Convolution"
  bottom: "inception_4a/pool"
  top: "inception_4a/pool_proj"
  param {
    lr_mult: 1
    decay_mult: 1
  }
  param {
    lr_mult: 2
    decay_mult: 0
  }
  convolution_param {
    num_output: 64
    kernel_size: 1
    weight_filler {
      type: "xavier"
      std: 0.1
    }
    bias_filler {
      type: "constant"
      value: 0.2
    }
  }
}
layer {
  name: "inception_4a/relu_pool_proj"
  type: "ReLU"
  bottom: "inception_4a/pool_proj"
  top: "inception_4a/pool_proj"
}
layer {
  name: "inception_4a/output"
  type: "Concat"
  bottom: "inception_4a/1x1"
  bottom: "inception_4a/3x3"
  bottom: "inception_4a/5x5"
  bottom: "inception_4a/pool_proj"
  top: "inception_4a/output"
}
layer {
  name: "loss1/ave_pool"
  type: "Pooling"
  bottom: "inception_4a/output"
  top: "loss1/ave_pool"
  pooling_param {
    pool: AVE
    kernel_size: 5
    stride: 3
  }
}
layer {
  name: "loss1/conv"
  type: "Convolution"
  bottom: "loss1/ave_pool"
  top: "loss1/conv"
  param {
    lr_mult: 1
    decay_mult: 1
  }
  param {
    lr_mult: 2
    decay_mult: 0
  }
  convolution_param {
    num_output: 128
    kernel_size: 1
    weight_filler {
      type: "xavier"
      std: 0.08
    }
    bias_filler {
      type: "constant"
      value: 0.2
    }
  }
}
layer {
  name: "loss1/relu_conv"
  type: "ReLU"
  bottom: "loss1/conv"
  top: "loss1/conv"
}
layer {
  name: "loss1/fc"
  type: "InnerProduct"
  bottom: "loss1/conv"
  top: "loss1/fc"
  param {
    lr_mult: 1
    decay_mult: 1
  }
  param {
    lr_mult: 2
    decay_mult: 0
  }
  inner_product_param {
    num_output: 1024
    weight_filler {
      type: "xavier"
      std: 0.02
    }
    bias_filler {
      type: "constant"
      value: 0.2
    }
  }
}
layer {
  name: "loss1/relu_fc"
  type: "ReLU"
  bottom: "loss1/fc"
  top: "loss1/fc"
}
layer {
  name: "loss1/drop_fc"
  type: "Dropout"
  bottom: "loss1/fc"
  top: "loss1/fc"
  dropout_param {
    dropout_ratio: 0.7
  }
}
layer {
  name: "loss1/classifier_plantvillage"
  type: "InnerProduct"
  bottom: "loss1/fc"
  top: "loss1/classifier_plantvillage"
  param {
    lr_mult: 1
    decay_mult: 1
  }
  param {
    lr_mult: 2
    decay_mult: 0
  }
  inner_product_param {
    num_output: 38
    weight_filler {
      type: "xavier"
      std: 0.0009765625
    }
    bias_filler {
      type: "constant"
      value: 0
    }
  }
}
layer {
  name: "inception_4b/1x1"
  type: "Convolution"
  bottom: "inception_4a/output"
  top: "inception_4b/1x1"
  param {
    lr_mult: 1
    decay_mult: 1
  }
  param {
    lr_mult: 2
    decay_mult: 0
  }
  convolution_param {
    num_output: 160
    kernel_size: 1
    weight_filler {
      type: "xavier"
      std: 0.03
    }
    bias_filler {
      type: "constant"
      value: 0.2
    }
  }
}
layer {
  name: "inception_4b/relu_1x1"
  type: "ReLU"
  bottom: "inception_4b/1x1"
  top: "inception_4b/1x1"
}
layer {
  name: "inception_4b/3x3_reduce"
  type: "Convolution"
  bottom: "inception_4a/output"
  top: "inception_4b/3x3_reduce"
  param {
    lr_mult: 1
    decay_mult: 1
  }
  param {
    lr_mult: 2
    decay_mult: 0
  }
  convolution_param {
    num_output: 112
    kernel_size: 1
    weight_filler {
      type: "xavier"
      std: 0.09
    }
    bias_filler {
      type: "constant"
      value: 0.2
    }
  }
}
layer {
  name: "inception_4b/relu_3x3_reduce"
  type: "ReLU"
  bottom: "inception_4b/3x3_reduce"
  top: "inception_4b/3x3_reduce"
}
layer {
  name: "inception_4b/3x3"
  type: "Convolution"
  bottom: "inception_4b/3x3_reduce"
  top: "inception_4b/3x3"
  param {
    lr_mult: 1
    decay_mult: 1
  }
  param {
    lr_mult: 2
    decay_mult: 0
  }
  convolution_param {
    num_output: 224
    pad: 1
    kernel_size: 3
    weight_filler {
      type: "xavier"
      std: 0.03
    }
    bias_filler {
      type: "constant"
      value: 0.2
    }
  }
}
layer {
  name: "inception_4b/relu_3x3"
  type: "ReLU"
  bottom: "inception_4b/3x3"
  top: "inception_4b/3x3"
}
layer {
  name: "inception_4b/5x5_reduce"
  type: "Convolution"
  bottom: "inception_4a/output"
  top: "inception_4b/5x5_reduce"
  param {
    lr_mult: 1
    decay_mult: 1
  }
  param {
    lr_mult: 2
    decay_mult: 0
  }
  convolution_param {
    num_output: 24
    kernel_size: 1
    weight_filler {
      type: "xavier"
      std: 0.2
    }
    bias_filler {
      type: "constant"
      value: 0.2
    }
  }
}
layer {
  name: "inception_4b/relu_5x5_reduce"
  type: "ReLU"
  bottom: "inception_4b/5x5_reduce"
  top: "inception_4b/5x5_reduce"
}
layer {
  name: "inception_4b/5x5"
  type: "Convolution"
  bottom: "inception_4b/5x5_reduce"
  top: "inception_4b/5x5"
  param {
    lr_mult: 1
    decay_mult: 1
  }
  param {
    lr_mult: 2
    decay_mult: 0
  }
  convolution_param {
    num_output: 64
    pad: 2
    kernel_size: 5
    weight_filler {
      type: "xavier"
      std: 0.03
    }
    bias_filler {
      type: "constant"
      value: 0.2
    }
  }
}
layer {
  name: "inception_4b/relu_5x5"
  type: "ReLU"
  bottom: "inception_4b/5x5"
  top: "inception_4b/5x5"
}
layer {
  name: "inception_4b/pool"
  type: "Pooling"
  bottom: "inception_4a/output"
  top: "inception_4b/pool"
  pooling_param {
    pool: MAX
    kernel_size: 3
    stride: 1
    pad: 1
  }
}
layer {
  name: "inception_4b/pool_proj"
  type: "Convolution"
  bottom: "inception_4b/pool"
  top: "inception_4b/pool_proj"
  param {
    lr_mult: 1
    decay_mult: 1
  }
  param {
    lr_mult: 2
    decay_mult: 0
  }
  convolution_param {
    num_output: 64
    kernel_size: 1
    weight_filler {
      type: "xavier"
      std: 0.1
    }
    bias_filler {
      type: "constant"
      value: 0.2
    }
  }
}
layer {
  name: "inception_4b/relu_pool_proj"
  type: "ReLU"
  bottom: "inception_4b/pool_proj"
  top: "inception_4b/pool_proj"
}
layer {
  name: "inception_4b/output"
  type: "Concat"
  bottom: "inception_4b/1x1"
  bottom: "inception_4b/3x3"
  bottom: "inception_4b/5x5"
  bottom: "inception_4b/pool_proj"
  top: "inception_4b/output"
}
layer {
  name: "inception_4c/1x1"
  type: "Convolution"
  bottom: "inception_4b/output"
  top: "inception_4c/1x1"
  param {
    lr_mult: 1
    decay_mult: 1
  }
  param {
    lr_mult: 2
    decay_mult: 0
  }
  convolution_param {
    num_output: 128
    kernel_size: 1
    weight_filler {
      type: "xavier"
      std: 0.03
    }
    bias_filler {
      type: "constant"
      value: 0.2
    }
  }
}
layer {
  name: "inception_4c/relu_1x1"
  type: "ReLU"
  bottom: "inception_4c/1x1"
  top: "inception_4c/1x1"
}
layer {
  name: "inception_4c/3x3_reduce"
  type: "Convolution"
  bottom: "inception_4b/output"
  top: "inception_4c/3x3_reduce"
  param {
    lr_mult: 1
    decay_mult: 1
  }
  param {
    lr_mult: 2
    decay_mult: 0
  }
  convolution_param {
    num_output: 128
    kernel_size: 1
    weight_filler {
      type: "xavier"
      std: 0.09
    }
    bias_filler {
      type: "constant"
      value: 0.2
    }
  }
}
layer {
  name: "inception_4c/relu_3x3_reduce"
  type: "ReLU"
  bottom: "inception_4c/3x3_reduce"
  top: "inception_4c/3x3_reduce"
}
layer {
  name: "inception_4c/3x3"
  type: "Convolution"
  bottom: "inception_4c/3x3_reduce"
  top: "inception_4c/3x3"
  param {
    lr_mult: 1
    decay_mult: 1
  }
  param {
    lr_mult: 2
    decay_mult: 0
  }
  convolution_param {
    num_output: 256
    pad: 1
    kernel_size: 3
    weight_filler {
      type: "xavier"
      std: 0.03
    }
    bias_filler {
      type: "constant"
      value: 0.2
    }
  }
}
layer {
  name: "inception_4c/relu_3x3"
  type: "ReLU"
  bottom: "inception_4c/3x3"
  top: "inception_4c/3x3"
}
layer {
  name: "inception_4c/5x5_reduce"
  type: "Convolution"
  bottom: "inception_4b/output"
  top: "inception_4c/5x5_reduce"
  param {
    lr_mult: 1
    decay_mult: 1
  }
  param {
    lr_mult: 2
    decay_mult: 0
  }
  convolution_param {
    num_output: 24
    kernel_size: 1
    weight_filler {
      type: "xavier"
      std: 0.2
    }
    bias_filler {
      type: "constant"
      value: 0.2
    }
  }
}
layer {
  name: "inception_4c/relu_5x5_reduce"
  type: "ReLU"
  bottom: "inception_4c/5x5_reduce"
  top: "inception_4c/5x5_reduce"
}
layer {
  name: "inception_4c/5x5"
  type: "Convolution"
  bottom: "inception_4c/5x5_reduce"
  top: "inception_4c/5x5"
  param {
    lr_mult: 1
    decay_mult: 1
  }
  param {
    lr_mult: 2
    decay_mult: 0
  }
  convolution_param {
    num_output: 64
    pad: 2
    kernel_size: 5
    weight_filler {
      type: "xavier"
      std: 0.03
    }
    bias_filler {
      type: "constant"
      value: 0.2
    }
  }
}
layer {
  name: "inception_4c/relu_5x5"
  type: "ReLU"
  bottom: "inception_4c/5x5"
  top: "inception_4c/5x5"
}
layer {
  name: "inception_4c/pool"
  type: "Pooling"
  bottom: "inception_4b/output"
  top: "inception_4c/pool"
  pooling_param {
    pool: MAX
    kernel_size: 3
    stride: 1
    pad: 1
  }
}
layer {
  name: "inception_4c/pool_proj"
  type: "Convolution"
  bottom: "inception_4c/pool"
  top: "inception_4c/pool_proj"
  param {
    lr_mult: 1
    decay_mult: 1
  }
  param {
    lr_mult: 2
    decay_mult: 0
  }
  convolution_param {
    num_output: 64
    kernel_size: 1
    weight_filler {
      type: "xavier"
      std: 0.1
    }
    bias_filler {
      type: "constant"
      value: 0.2
    }
  }
}
layer {
  name: "inception_4c/relu_pool_proj"
  type: "ReLU"
  bottom: "inception_4c/pool_proj"
  top: "inception_4c/pool_proj"
}
layer {
  name: "inception_4c/output"
  type: "Concat"
  bottom: "inception_4c/1x1"
  bottom: "inception_4c/3x3"
  bottom: "inception_4c/5x5"
  bottom: "inception_4c/pool_proj"
  top: "inception_4c/output"
}
layer {
  name: "inception_4d/1x1"
  type: "Convolution"
  bottom: "inception_4c/output"
  top: "inception_4d/1x1"
  param {
    lr_mult: 1
    decay_mult: 1
  }
  param {
    lr_mult: 2
    decay_mult: 0
  }
  convolution_param {
    num_output: 112
    kernel_size: 1
    weight_filler {
      type: "xavier"
      std: 0.03
    }
    bias_filler {
      type: "constant"
      value: 0.2
    }
  }
}
layer {
  name: "inception_4d/relu_1x1"
  type: "ReLU"
  bottom: "inception_4d/1x1"
  top: "inception_4d/1x1"
}
layer {
  name: "inception_4d/3x3_reduce"
  type: "Convolution"
  bottom: "inception_4c/output"
  top: "inception_4d/3x3_reduce"
  param {
    lr_mult: 1
    decay_mult: 1
  }
  param {
    lr_mult: 2
    decay_mult: 0
  }
  convolution_param {
    num_output: 144
    kernel_size: 1
    weight_filler {
      type: "xavier"
      std: 0.09
    }
    bias_filler {
      type: "constant"
      value: 0.2
    }
  }
}
layer {
  name: "inception_4d/relu_3x3_reduce"
  type: "ReLU"
  bottom: "inception_4d/3x3_reduce"
  top: "inception_4d/3x3_reduce"
}
layer {
  name: "inception_4d/3x3"
  type: "Convolution"
  bottom: "inception_4d/3x3_reduce"
  top: "inception_4d/3x3"
  param {
    lr_mult: 1
    decay_mult: 1
  }
  param {
    lr_mult: 2
    decay_mult: 0
  }
  convolution_param {
    num_output: 288
    pad: 1
    kernel_size: 3
    weight_filler {
      type: "xavier"
      std: 0.03
    }
    bias_filler {
      type: "constant"
      value: 0.2
    }
  }
}
layer {
  name: "inception_4d/relu_3x3"
  type: "ReLU"
  bottom: "inception_4d/3x3"
  top: "inception_4d/3x3"
}
layer {
  name: "inception_4d/5x5_reduce"
  type: "Convolution"
  bottom: "inception_4c/output"
  top: "inception_4d/5x5_reduce"
  param {
    lr_mult: 1
    decay_mult: 1
  }
  param {
    lr_mult: 2
    decay_mult: 0
  }
  convolution_param {
    num_output: 32
    kernel_size: 1
    weight_filler {
      type: "xavier"
      std: 0.2
    }
    bias_filler {
      type: "constant"
      value: 0.2
    }
  }
}
layer {
  name: "inception_4d/relu_5x5_reduce"
  type: "ReLU"
  bottom: "inception_4d/5x5_reduce"
  top: "inception_4d/5x5_reduce"
}
layer {
  name: "inception_4d/5x5"
  type: "Convolution"
  bottom: "inception_4d/5x5_reduce"
  top: "inception_4d/5x5"
  param {
    lr_mult: 1
    decay_mult: 1
  }
  param {
    lr_mult: 2
    decay_mult: 0
  }
  convolution_param {
    num_output: 64
    pad: 2
    kernel_size: 5
    weight_filler {
      type: "xavier"
      std: 0.03
    }
    bias_filler {
      type: "constant"
      value: 0.2
    }
  }
}
layer {
  name: "inception_4d/relu_5x5"
  type: "ReLU"
  bottom: "inception_4d/5x5"
  top: "inception_4d/5x5"
}
layer {
  name: "inception_4d/pool"
  type: "Pooling"
  bottom: "inception_4c/output"
  top: "inception_4d/pool"
  pooling_param {
    pool: MAX
    kernel_size: 3
    stride: 1
    pad: 1
  }
}
layer {
  name: "inception_4d/pool_proj"
  type: "Convolution"
  bottom: "inception_4d/pool"
  top: "inception_4d/pool_proj"
  param {
    lr_mult: 1
    decay_mult: 1
  }
  param {
    lr_mult: 2
    decay_mult: 0
  }
  convolution_param {
    num_output: 64
    kernel_size: 1
    weight_filler {
      type: "xavier"
      std: 0.1
    }
    bias_filler {
      type: "constant"
      value: 0.2
    }
  }
}
layer {
  name: "inception_4d/relu_pool_proj"
  type: "ReLU"
  bottom: "inception_4d/pool_proj"
  top: "inception_4d/pool_proj"
}
layer {
  name: "inception_4d/output"
  type: "Concat"
  bottom: "inception_4d/1x1"
  bottom: "inception_4d/3x3"
  bottom: "inception_4d/5x5"
  bottom: "inception_4d/pool_proj"
  top: "inception_4d/output"
}
layer {
  name: "loss2/ave_pool"
  type: "Pooling"
  bottom: "inception_4d/output"
  top: "loss2/ave_pool"
  pooling_param {
    pool: AVE
    kernel_size: 5
    stride: 3
  }
}
layer {
  name: "loss2/conv"
  type: "Convolution"
  bottom: "loss2/ave_pool"
  top: "loss2/conv"
  param {
    lr_mult: 1
    decay_mult: 1
  }
  param {
    lr_mult: 2
    decay_mult: 0
  }
  convolution_param {
    num_output: 128
    kernel_size: 1
    weight_filler {
      type: "xavier"
      std: 0.08
    }
    bias_filler {
      type: "constant"
      value: 0.2
    }
  }
}
layer {
  name: "loss2/relu_conv"
  type: "ReLU"
  bottom: "loss2/conv"
  top: "loss2/conv"
}
layer {
  name: "loss2/fc"
  type: "InnerProduct"
  bottom: "loss2/conv"
  top: "loss2/fc"
  param {
    lr_mult: 1
    decay_mult: 1
  }
  param {
    lr_mult: 2
    decay_mult: 0
  }
  inner_product_param {
    num_output: 1024
    weight_filler {
      type: "xavier"
      std: 0.02
    }
    bias_filler {
      type: "constant"
      value: 0.2
    }
  }
}
layer {
  name: "loss2/relu_fc"
  type: "ReLU"
  bottom: "loss2/fc"
  top: "loss2/fc"
}
layer {
  name: "loss2/drop_fc"
  type: "Dropout"
  bottom: "loss2/fc"
  top: "loss2/fc"
  dropout_param {
    dropout_ratio: 0.7
  }
}
layer {
  name: "loss2/classifier_plantvillage"
  type: "InnerProduct"
  bottom: "loss2/fc"
  top: "loss2/classifier_plantvillage"
  param {
    lr_mult: 1
    decay_mult: 1
  }
  param {
    lr_mult: 2
    decay_mult: 0
  }
  inner_product_param {
    num_output: 38
    weight_filler {
      type: "xavier"
      std: 0.0009765625
    }
    bias_filler {
      type: "constant"
      value: 0
    }
  }
}
layer {
  name: "inception_4e/1x1"
  type: "Convolution"
  bottom: "inception_4d/output"
  top: "inception_4e/1x1"
  param {
    lr_mult: 1
    decay_mult: 1
  }
  param {
    lr_mult: 2
    decay_mult: 0
  }
  convolution_param {
    num_output: 256
    kernel_size: 1
    weight_filler {
      type: "xavier"
      std: 0.03
    }
    bias_filler {
      type: "constant"
      value: 0.2
    }
  }
}
layer {
  name: "inception_4e/relu_1x1"
  type: "ReLU"
  bottom: "inception_4e/1x1"
  top: "inception_4e/1x1"
}
layer {
  name: "inception_4e/3x3_reduce"
  type: "Convolution"
  bottom: "inception_4d/output"
  top: "inception_4e/3x3_reduce"
  param {
    lr_mult: 1
    decay_mult: 1
  }
  param {
    lr_mult: 2
    decay_mult: 0
  }
  convolution_param {
    num_output: 160
    kernel_size: 1
    weight_filler {
      type: "xavier"
      std: 0.09
    }
    bias_filler {
      type: "constant"
      value: 0.2
    }
  }
}
layer {
  name: "inception_4e/relu_3x3_reduce"
  type: "ReLU"
  bottom: "inception_4e/3x3_reduce"
  top: "inception_4e/3x3_reduce"
}
layer {
  name: "inception_4e/3x3"
  type: "Convolution"
  bottom: "inception_4e/3x3_reduce"
  top: "inception_4e/3x3"
  param {
    lr_mult: 1
    decay_mult: 1
  }
  param {
    lr_mult: 2
    decay_mult: 0
  }
  convolution_param {
    num_output: 320
    pad: 1
    kernel_size: 3
    weight_filler {
      type: "xavier"
      std: 0.03
    }
    bias_filler {
      type: "constant"
      value: 0.2
    }
  }
}
layer {
  name: "inception_4e/relu_3x3"
  type: "ReLU"
  bottom: "inception_4e/3x3"
  top: "inception_4e/3x3"
}
layer {
  name: "inception_4e/5x5_reduce"
  type: "Convolution"
  bottom: "inception_4d/output"
  top: "inception_4e/5x5_reduce"
  param {
    lr_mult: 1
    decay_mult: 1
  }
  param {
    lr_mult: 2
    decay_mult: 0
  }
  convolution_param {
    num_output: 32
    kernel_size: 1
    weight_filler {
      type: "xavier"
      std: 0.2
    }
    bias_filler {
      type: "constant"
      value: 0.2
    }
  }
}
layer {
  name: "inception_4e/relu_5x5_reduce"
  type: "ReLU"
  bottom: "inception_4e/5x5_reduce"
  top: "inception_4e/5x5_reduce"
}
layer {
  name: "inception_4e/5x5"
  type: "Convolution"
  bottom: "inception_4e/5x5_reduce"
  top: "inception_4e/
I0403 19:25:10.266731  9208 layer_factory.hpp:77] Creating layer data
I0403 19:25:10.267364  9208 net.cpp:91] Creating Layer data
I0403 19:25:10.267393  9208 net.cpp:399] data -> data
I0403 19:25:10.267446  9208 net.cpp:399] data -> label
I0403 19:25:10.267485  9208 data_transformer.cpp:25] Loading mean file from: /home/mohanty/data/final_dataset/lmdb/grayscale-50-50/mean.binaryproto
I0403 19:25:10.393746  9211 db_lmdb.cpp:38] Opened lmdb /home/mohanty/data/final_dataset/lmdb/grayscale-50-50/test_db
I0403 19:25:10.396287  9208 data_layer.cpp:41] output data size: 24,3,224,224
I0403 19:25:10.425596  9208 net.cpp:141] Setting up data
I0403 19:25:10.425669  9208 net.cpp:148] Top shape: 24 3 224 224 (3612672)
I0403 19:25:10.425699  9208 net.cpp:148] Top shape: 24 (24)
I0403 19:25:10.425725  9208 net.cpp:156] Memory required for data: 14450784
I0403 19:25:10.425760  9208 layer_factory.hpp:77] Creating layer label_data_1_split
I0403 19:25:10.425791  9208 net.cpp:91] Creating Layer label_data_1_split
I0403 19:25:10.425809  9208 net.cpp:425] label_data_1_split <- label
I0403 19:25:10.425840  9208 net.cpp:399] label_data_1_split -> label_data_1_split_0
I0403 19:25:10.425873  9208 net.cpp:399] label_data_1_split -> label_data_1_split_1
I0403 19:25:10.425901  9208 net.cpp:399] label_data_1_split -> label_data_1_split_2
I0403 19:25:10.425928  9208 net.cpp:399] label_data_1_split -> label_data_1_split_3
I0403 19:25:10.425953  9208 net.cpp:399] label_data_1_split -> label_data_1_split_4
I0403 19:25:10.425977  9208 net.cpp:399] label_data_1_split -> label_data_1_split_5
I0403 19:25:10.425997  9208 net.cpp:399] label_data_1_split -> label_data_1_split_6
I0403 19:25:10.426020  9208 net.cpp:399] label_data_1_split -> label_data_1_split_7
I0403 19:25:10.426041  9208 net.cpp:399] label_data_1_split -> label_data_1_split_8
I0403 19:25:10.426065  9208 net.cpp:399] label_data_1_split -> label_data_1_split_9
I0403 19:25:10.426195  9208 net.cpp:141] Setting up label_data_1_split
I0403 19:25:10.426223  9208 net.cpp:148] Top shape: 24 (24)
I0403 19:25:10.426240  9208 net.cpp:148] Top shape: 24 (24)
I0403 19:25:10.426256  9208 net.cpp:148] Top shape: 24 (24)
I0403 19:25:10.426273  9208 net.cpp:148] Top shape: 24 (24)
I0403 19:25:10.426290  9208 net.cpp:148] Top shape: 24 (24)
I0403 19:25:10.426309  9208 net.cpp:148] Top shape: 24 (24)
I0403 19:25:10.426327  9208 net.cpp:148] Top shape: 24 (24)
I0403 19:25:10.426344  9208 net.cpp:148] Top shape: 24 (24)
I0403 19:25:10.426362  9208 net.cpp:148] Top shape: 24 (24)
I0403 19:25:10.426378  9208 net.cpp:148] Top shape: 24 (24)
I0403 19:25:10.426426  9208 net.cpp:156] Memory required for data: 14451744
I0403 19:25:10.426445  9208 layer_factory.hpp:77] Creating layer conv1/7x7_s2
I0403 19:25:10.426481  9208 net.cpp:91] Creating Layer conv1/7x7_s2
I0403 19:25:10.426498  9208 net.cpp:425] conv1/7x7_s2 <- data
I0403 19:25:10.426520  9208 net.cpp:399] conv1/7x7_s2 -> conv1/7x7_s2
I0403 19:25:12.644418  9208 net.cpp:141] Setting up conv1/7x7_s2
I0403 19:25:12.644515  9208 net.cpp:148] Top shape: 24 64 112 112 (19267584)
I0403 19:25:12.644532  9208 net.cpp:156] Memory required for data: 91522080
I0403 19:25:12.644564  9208 layer_factory.hpp:77] Creating layer conv1/relu_7x7
I0403 19:25:12.644593  9208 net.cpp:91] Creating Layer conv1/relu_7x7
I0403 19:25:12.644611  9208 net.cpp:425] conv1/relu_7x7 <- conv1/7x7_s2
I0403 19:25:12.644632  9208 net.cpp:386] conv1/relu_7x7 -> conv1/7x7_s2 (in-place)
I0403 19:25:12.645047  9208 net.cpp:141] Setting up conv1/relu_7x7
I0403 19:25:12.645076  9208 net.cpp:148] Top shape: 24 64 112 112 (19267584)
I0403 19:25:12.645092  9208 net.cpp:156] Memory required for data: 168592416
I0403 19:25:12.645107  9208 layer_factory.hpp:77] Creating layer pool1/3x3_s2
I0403 19:25:12.645133  9208 net.cpp:91] Creating Layer pool1/3x3_s2
I0403 19:25:12.645150  9208 net.cpp:425] pool1/3x3_s2 <- conv1/7x7_s2
I0403 19:25:12.645170  9208 net.cpp:399] pool1/3x3_s2 -> pool1/3x3_s2
I0403 19:25:12.645256  9208 net.cpp:141] Setting up pool1/3x3_s2
I0403 19:25:12.645280  9208 net.cpp:148] Top shape: 24 64 56 56 (4816896)
I0403 19:25:12.645294  9208 net.cpp:156] Memory required for data: 187860000
I0403 19:25:12.645309  9208 layer_factory.hpp:77] Creating layer pool1/norm1
I0403 19:25:12.645335  9208 net.cpp:91] Creating Layer pool1/norm1
I0403 19:25:12.645352  9208 net.cpp:425] pool1/norm1 <- pool1/3x3_s2
I0403 19:25:12.645371  9208 net.cpp:399] pool1/norm1 -> pool1/norm1
I0403 19:25:12.650414  9208 net.cpp:141] Setting up pool1/norm1
I0403 19:25:12.650503  9208 net.cpp:148] Top shape: 24 64 56 56 (4816896)
I0403 19:25:12.650521  9208 net.cpp:156] Memory required for data: 207127584
I0403 19:25:12.650538  9208 layer_factory.hpp:77] Creating layer conv2/3x3_reduce
I0403 19:25:12.650571  9208 net.cpp:91] Creating Layer conv2/3x3_reduce
I0403 19:25:12.650593  9208 net.cpp:425] conv2/3x3_reduce <- pool1/norm1
I0403 19:25:12.650617  9208 net.cpp:399] conv2/3x3_reduce -> conv2/3x3_reduce
I0403 19:25:12.656635  9208 net.cpp:141] Setting up conv2/3x3_reduce
I0403 19:25:12.656723  9208 net.cpp:148] Top shape: 24 64 56 56 (4816896)
I0403 19:25:12.656739  9208 net.cpp:156] Memory required for data: 226395168
I0403 19:25:12.656767  9208 layer_factory.hpp:77] Creating layer conv2/relu_3x3_reduce
I0403 19:25:12.656793  9208 net.cpp:91] Creating Layer conv2/relu_3x3_reduce
I0403 19:25:12.656811  9208 net.cpp:425] conv2/relu_3x3_reduce <- conv2/3x3_reduce
I0403 19:25:12.656831  9208 net.cpp:386] conv2/relu_3x3_reduce -> conv2/3x3_reduce (in-place)
I0403 19:25:12.657193  9208 net.cpp:141] Setting up conv2/relu_3x3_reduce
I0403 19:25:12.657227  9208 net.cpp:148] Top shape: 24 64 56 56 (4816896)
I0403 19:25:12.657243  9208 net.cpp:156] Memory required for data: 245662752
I0403 19:25:12.657258  9208 layer_factory.hpp:77] Creating layer conv2/3x3
I0403 19:25:12.657291  9208 net.cpp:91] Creating Layer conv2/3x3
I0403 19:25:12.657310  9208 net.cpp:425] conv2/3x3 <- conv2/3x3_reduce
I0403 19:25:12.657328  9208 net.cpp:399] conv2/3x3 -> conv2/3x3
I0403 19:25:12.668844  9208 net.cpp:141] Setting up conv2/3x3
I0403 19:25:12.668951  9208 net.cpp:148] Top shape: 24 192 56 56 (14450688)
I0403 19:25:12.668970  9208 net.cpp:156] Memory required for data: 303465504
I0403 19:25:12.668998  9208 layer_factory.hpp:77] Creating layer conv2/relu_3x3
I0403 19:25:12.669023  9208 net.cpp:91] Creating Layer conv2/relu_3x3
I0403 19:25:12.669042  9208 net.cpp:425] conv2/relu_3x3 <- conv2/3x3
I0403 19:25:12.669062  9208 net.cpp:386] conv2/relu_3x3 -> conv2/3x3 (in-place)
I0403 19:25:12.669263  9208 net.cpp:141] Setting up conv2/relu_3x3
I0403 19:25:12.669289  9208 net.cpp:148] Top shape: 24 192 56 56 (14450688)
I0403 19:25:12.669338  9208 net.cpp:156] Memory required for data: 361268256
I0403 19:25:12.669356  9208 layer_factory.hpp:77] Creating layer conv2/norm2
I0403 19:25:12.669379  9208 net.cpp:91] Creating Layer conv2/norm2
I0403 19:25:12.669397  9208 net.cpp:425] conv2/norm2 <- conv2/3x3
I0403 19:25:12.669415  9208 net.cpp:399] conv2/norm2 -> conv2/norm2
I0403 19:25:12.674119  9208 net.cpp:141] Setting up conv2/norm2
I0403 19:25:12.674219  9208 net.cpp:148] Top shape: 24 192 56 56 (14450688)
I0403 19:25:12.674238  9208 net.cpp:156] Memory required for data: 419071008
I0403 19:25:12.674257  9208 layer_factory.hpp:77] Creating layer pool2/3x3_s2
I0403 19:25:12.674284  9208 net.cpp:91] Creating Layer pool2/3x3_s2
I0403 19:25:12.674304  9208 net.cpp:425] pool2/3x3_s2 <- conv2/norm2
I0403 19:25:12.674327  9208 net.cpp:399] pool2/3x3_s2 -> pool2/3x3_s2
I0403 19:25:12.674392  9208 net.cpp:141] Setting up pool2/3x3_s2
I0403 19:25:12.674417  9208 net.cpp:148] Top shape: 24 192 28 28 (3612672)
I0403 19:25:12.674432  9208 net.cpp:156] Memory required for data: 433521696
I0403 19:25:12.674446  9208 layer_factory.hpp:77] Creating layer pool2/3x3_s2_pool2/3x3_s2_0_split
I0403 19:25:12.674465  9208 net.cpp:91] Creating Layer pool2/3x3_s2_pool2/3x3_s2_0_split
I0403 19:25:12.674481  9208 net.cpp:425] pool2/3x3_s2_pool2/3x3_s2_0_split <- pool2/3x3_s2
I0403 19:25:12.674504  9208 net.cpp:399] pool2/3x3_s2_pool2/3x3_s2_0_split -> pool2/3x3_s2_pool2/3x3_s2_0_split_0
I0403 19:25:12.674525  9208 net.cpp:399] pool2/3x3_s2_pool2/3x3_s2_0_split -> pool2/3x3_s2_pool2/3x3_s2_0_split_1
I0403 19:25:12.674546  9208 net.cpp:399] pool2/3x3_s2_pool2/3x3_s2_0_split -> pool2/3x3_s2_pool2/3x3_s2_0_split_2
I0403 19:25:12.674566  9208 net.cpp:399] pool2/3x3_s2_pool2/3x3_s2_0_split -> pool2/3x3_s2_pool2/3x3_s2_0_split_3
I0403 19:25:12.674645  9208 net.cpp:141] Setting up pool2/3x3_s2_pool2/3x3_s2_0_split
I0403 19:25:12.674671  9208 net.cpp:148] Top shape: 24 192 28 28 (3612672)
I0403 19:25:12.674688  9208 net.cpp:148] Top shape: 24 192 28 28 (3612672)
I0403 19:25:12.674705  9208 net.cpp:148] Top shape: 24 192 28 28 (3612672)
I0403 19:25:12.674721  9208 net.cpp:148] Top shape: 24 192 28 28 (3612672)
I0403 19:25:12.674736  9208 net.cpp:156] Memory required for data: 491324448
I0403 19:25:12.674751  9208 layer_factory.hpp:77] Creating layer inception_3a/1x1
I0403 19:25:12.674779  9208 net.cpp:91] Creating Layer inception_3a/1x1
I0403 19:25:12.674798  9208 net.cpp:425] inception_3a/1x1 <- pool2/3x3_s2_pool2/3x3_s2_0_split_0
I0403 19:25:12.674819  9208 net.cpp:399] inception_3a/1x1 -> inception_3a/1x1
I0403 19:25:12.681833  9208 net.cpp:141] Setting up inception_3a/1x1
I0403 19:25:12.681927  9208 net.cpp:148] Top shape: 24 64 28 28 (1204224)
I0403 19:25:12.681948  9208 net.cpp:156] Memory required for data: 496141344
I0403 19:25:12.681972  9208 layer_factory.hpp:77] Creating layer inception_3a/relu_1x1
I0403 19:25:12.681996  9208 net.cpp:91] Creating Layer inception_3a/relu_1x1
I0403 19:25:12.682015  9208 net.cpp:425] inception_3a/relu_1x1 <- inception_3a/1x1
I0403 19:25:12.682035  9208 net.cpp:386] inception_3a/relu_1x1 -> inception_3a/1x1 (in-place)
I0403 19:25:12.682250  9208 net.cpp:141] Setting up inception_3a/relu_1x1
I0403 19:25:12.682278  9208 net.cpp:148] Top shape: 24 64 28 28 (1204224)
I0403 19:25:12.682296  9208 net.cpp:156] Memory required for data: 500958240
I0403 19:25:12.682310  9208 layer_factory.hpp:77] Creating layer inception_3a/3x3_reduce
I0403 19:25:12.682338  9208 net.cpp:91] Creating Layer inception_3a/3x3_reduce
I0403 19:25:12.682356  9208 net.cpp:425] inception_3a/3x3_reduce <- pool2/3x3_s2_pool2/3x3_s2_0_split_1
I0403 19:25:12.682376  9208 net.cpp:399] inception_3a/3x3_reduce -> inception_3a/3x3_reduce
I0403 19:25:12.695425  9208 net.cpp:141] Setting up inception_3a/3x3_reduce
I0403 19:25:12.695538  9208 net.cpp:148] Top shape: 24 96 28 28 (1806336)
I0403 19:25:12.695555  9208 net.cpp:156] Memory required for data: 508183584
I0403 19:25:12.695581  9208 layer_factory.hpp:77] Creating layer inception_3a/relu_3x3_reduce
I0403 19:25:12.695642  9208 net.cpp:91] Creating Layer inception_3a/relu_3x3_reduce
I0403 19:25:12.695662  9208 net.cpp:425] inception_3a/relu_3x3_reduce <- inception_3a/3x3_reduce
I0403 19:25:12.695684  9208 net.cpp:386] inception_3a/relu_3x3_reduce -> inception_3a/3x3_reduce (in-place)
I0403 19:25:12.695865  9208 net.cpp:141] Setting up inception_3a/relu_3x3_reduce
I0403 19:25:12.695890  9208 net.cpp:148] Top shape: 24 96 28 28 (1806336)
I0403 19:25:12.695904  9208 net.cpp:156] Memory required for data: 515408928
I0403 19:25:12.695919  9208 layer_factory.hpp:77] Creating layer inception_3a/3x3
I0403 19:25:12.695943  9208 net.cpp:91] Creating Layer inception_3a/3x3
I0403 19:25:12.695960  9208 net.cpp:425] inception_3a/3x3 <- inception_3a/3x3_reduce
I0403 19:25:12.695981  9208 net.cpp:399] inception_3a/3x3 -> inception_3a/3x3
I0403 19:25:12.705507  9208 net.cpp:141] Setting up inception_3a/3x3
I0403 19:25:12.705620  9208 net.cpp:148] Top shape: 24 128 28 28 (2408448)
I0403 19:25:12.705636  9208 net.cpp:156] Memory required for data: 525042720
I0403 19:25:12.705659  9208 layer_factory.hpp:77] Creating layer inception_3a/relu_3x3
I0403 19:25:12.705682  9208 net.cpp:91] Creating Layer inception_3a/relu_3x3
I0403 19:25:12.705700  9208 net.cpp:425] inception_3a/relu_3x3 <- inception_3a/3x3
I0403 19:25:12.705720  9208 net.cpp:386] inception_3a/relu_3x3 -> inception_3a/3x3 (in-place)
I0403 19:25:12.711009  9208 net.cpp:141] Setting up inception_3a/relu_3x3
I0403 19:25:12.711107  9208 net.cpp:148] Top shape: 24 128 28 28 (2408448)
I0403 19:25:12.711124  9208 net.cpp:156] Memory required for data: 534676512
I0403 19:25:12.711143  9208 layer_factory.hpp:77] Creating layer inception_3a/5x5_reduce
I0403 19:25:12.711172  9208 net.cpp:91] Creating Layer inception_3a/5x5_reduce
I0403 19:25:12.711192  9208 net.cpp:425] inception_3a/5x5_reduce <- pool2/3x3_s2_pool2/3x3_s2_0_split_2
I0403 19:25:12.711220  9208 net.cpp:399] inception_3a/5x5_reduce -> inception_3a/5x5_reduce
I0403 19:25:12.712496  9208 net.cpp:141] Setting up inception_3a/5x5_reduce
I0403 19:25:12.712525  9208 net.cpp:148] Top shape: 24 16 28 28 (301056)
I0403 19:25:12.712540  9208 net.cpp:156] Memory required for data: 535880736
I0403 19:25:12.712558  9208 layer_factory.hpp:77] Creating layer inception_3a/relu_5x5_reduce
I0403 19:25:12.712577  9208 net.cpp:91] Creating Layer inception_3a/relu_5x5_reduce
I0403 19:25:12.712592  9208 net.cpp:425] inception_3a/relu_5x5_reduce <- inception_3a/5x5_reduce
I0403 19:25:12.712611  9208 net.cpp:386] inception_3a/relu_5x5_reduce -> inception_3a/5x5_reduce (in-place)
I0403 19:25:12.713351  9208 net.cpp:141] Setting up inception_3a/relu_5x5_reduce
I0403 19:25:12.713383  9208 net.cpp:148] Top shape: 24 16 28 28 (301056)
I0403 19:25:12.713409  9208 net.cpp:156] Memory required for data: 537084960
I0403 19:25:12.713424  9208 layer_factory.hpp:77] Creating layer inception_3a/5x5
I0403 19:25:12.713446  9208 net.cpp:91] Creating Layer inception_3a/5x5
I0403 19:25:12.713464  9208 net.cpp:425] inception_3a/5x5 <- inception_3a/5x5_reduce
I0403 19:25:12.713496  9208 net.cpp:399] inception_3a/5x5 -> inception_3a/5x5
I0403 19:25:12.717835  9208 net.cpp:141] Setting up inception_3a/5x5
I0403 19:25:12.717932  9208 net.cpp:148] Top shape: 24 32 28 28 (602112)
I0403 19:25:12.717949  9208 net.cpp:156] Memory required for data: 539493408
I0403 19:25:12.717972  9208 layer_factory.hpp:77] Creating layer inception_3a/relu_5x5
I0403 19:25:12.717995  9208 net.cpp:91] Creating Layer inception_3a/relu_5x5
I0403 19:25:12.718013  9208 net.cpp:425] inception_3a/relu_5x5 <- inception_3a/5x5
I0403 19:25:12.718030  9208 net.cpp:386] inception_3a/relu_5x5 -> inception_3a/5x5 (in-place)
I0403 19:25:12.718225  9208 net.cpp:141] Setting up inception_3a/relu_5x5
I0403 19:25:12.718253  9208 net.cpp:148] Top shape: 24 32 28 28 (602112)
I0403 19:25:12.718269  9208 net.cpp:156] Memory required for data: 541901856
I0403 19:25:12.718286  9208 layer_factory.hpp:77] Creating layer inception_3a/pool
I0403 19:25:12.718305  9208 net.cpp:91] Creating Layer inception_3a/pool
I0403 19:25:12.718358  9208 net.cpp:425] inception_3a/pool <- pool2/3x3_s2_pool2/3x3_s2_0_split_3
I0403 19:25:12.718381  9208 net.cpp:399] inception_3a/pool -> inception_3a/pool
I0403 19:25:12.718446  9208 net.cpp:141] Setting up inception_3a/pool
I0403 19:25:12.718473  9208 net.cpp:148] Top shape: 24 192 28 28 (3612672)
I0403 19:25:12.718488  9208 net.cpp:156] Memory required for data: 556352544
I0403 19:25:12.718516  9208 layer_factory.hpp:77] Creating layer inception_3a/pool_proj
I0403 19:25:12.718549  9208 net.cpp:91] Creating Layer inception_3a/pool_proj
I0403 19:25:12.718577  9208 net.cpp:425] inception_3a/pool_proj <- inception_3a/pool
I0403 19:25:12.718595  9208 net.cpp:399] inception_3a/pool_proj -> inception_3a/pool_proj
I0403 19:25:12.721961  9208 net.cpp:141] Setting up inception_3a/pool_proj
I0403 19:25:12.722056  9208 net.cpp:148] Top shape: 24 32 28 28 (602112)
I0403 19:25:12.722072  9208 net.cpp:156] Memory required for data: 558760992
I0403 19:25:12.722105  9208 layer_factory.hpp:77] Creating layer inception_3a/relu_pool_proj
I0403 19:25:12.722128  9208 net.cpp:91] Creating Layer inception_3a/relu_pool_proj
I0403 19:25:12.722146  9208 net.cpp:425] inception_3a/relu_pool_proj <- inception_3a/pool_proj
I0403 19:25:12.722167  9208 net.cpp:386] inception_3a/relu_pool_proj -> inception_3a/pool_proj (in-place)
I0403 19:25:12.722549  9208 net.cpp:141] Setting up inception_3a/relu_pool_proj
I0403 19:25:12.722579  9208 net.cpp:148] Top shape: 24 32 28 28 (602112)
I0403 19:25:12.722594  9208 net.cpp:156] Memory required for data: 561169440
I0403 19:25:12.722607  9208 layer_factory.hpp:77] Creating layer inception_3a/output
I0403 19:25:12.722625  9208 net.cpp:91] Creating Layer inception_3a/output
I0403 19:25:12.722640  9208 net.cpp:425] inception_3a/output <- inception_3a/1x1
I0403 19:25:12.722656  9208 net.cpp:425] inception_3a/output <- inception_3a/3x3
I0403 19:25:12.722671  9208 net.cpp:425] inception_3a/output <- inception_3a/5x5
I0403 19:25:12.722687  9208 net.cpp:425] inception_3a/output <- inception_3a/pool_proj
I0403 19:25:12.722702  9208 net.cpp:399] inception_3a/output -> inception_3a/output
I0403 19:25:12.722754  9208 net.cpp:141] Setting up inception_3a/output
I0403 19:25:12.722776  9208 net.cpp:148] Top shape: 24 256 28 28 (4816896)
I0403 19:25:12.722790  9208 net.cpp:156] Memory required for data: 580437024
I0403 19:25:12.722805  9208 layer_factory.hpp:77] Creating layer inception_3a/output_inception_3a/output_0_split
I0403 19:25:12.722823  9208 net.cpp:91] Creating Layer inception_3a/output_inception_3a/output_0_split
I0403 19:25:12.722837  9208 net.cpp:425] inception_3a/output_inception_3a/output_0_split <- inception_3a/output
I0403 19:25:12.722853  9208 net.cpp:399] inception_3a/output_inception_3a/output_0_split -> inception_3a/output_inception_3a/output_0_split_0
I0403 19:25:12.722872  9208 net.cpp:399] inception_3a/output_inception_3a/output_0_split -> inception_3a/output_inception_3a/output_0_split_1
I0403 19:25:12.722900  9208 net.cpp:399] inception_3a/output_inception_3a/output_0_split -> inception_3a/output_inception_3a/output_0_split_2
I0403 19:25:12.722921  9208 net.cpp:399] inception_3a/output_inception_3a/output_0_split -> inception_3a/output_inception_3a/output_0_split_3
I0403 19:25:12.722996  9208 net.cpp:141] Setting up inception_3a/output_inception_3a/output_0_split
I0403 19:25:12.723018  9208 net.cpp:148] Top shape: 24 256 28 28 (4816896)
I0403 19:25:12.723034  9208 net.cpp:148] Top shape: 24 256 28 28 (4816896)
I0403 19:25:12.723049  9208 net.cpp:148] Top shape: 24 256 28 28 (4816896)
I0403 19:25:12.723064  9208 net.cpp:148] Top shape: 24 256 28 28 (4816896)
I0403 19:25:12.723078  9208 net.cpp:156] Memory required for data: 657507360
I0403 19:25:12.723095  9208 layer_factory.hpp:77] Creating layer inception_3b/1x1
I0403 19:25:12.723125  9208 net.cpp:91] Creating Layer inception_3b/1x1
I0403 19:25:12.723142  9208 net.cpp:425] inception_3b/1x1 <- inception_3a/output_inception_3a/output_0_split_0
I0403 19:25:12.723160  9208 net.cpp:399] inception_3b/1x1 -> inception_3b/1x1
I0403 19:25:12.724339  9208 net.cpp:141] Setting up inception_3b/1x1
I0403 19:25:12.724395  9208 net.cpp:148] Top shape: 24 128 28 28 (2408448)
I0403 19:25:12.724411  9208 net.cpp:156] Memory required for data: 667141152
I0403 19:25:12.724428  9208 layer_factory.hpp:77] Creating layer inception_3b/relu_1x1
I0403 19:25:12.724448  9208 net.cpp:91] Creating Layer inception_3b/relu_1x1
I0403 19:25:12.724464  9208 net.cpp:425] inception_3b/relu_1x1 <- inception_3b/1x1
I0403 19:25:12.724481  9208 net.cpp:386] inception_3b/relu_1x1 -> inception_3b/1x1 (in-place)
I0403 19:25:12.724654  9208 net.cpp:141] Setting up inception_3b/relu_1x1
I0403 19:25:12.724681  9208 net.cpp:148] Top shape: 24 128 28 28 (2408448)
I0403 19:25:12.724696  9208 net.cpp:156] Memory required for data: 676774944
I0403 19:25:12.724711  9208 layer_factory.hpp:77] Creating layer inception_3b/3x3_reduce
I0403 19:25:12.724732  9208 net.cpp:91] Creating Layer inception_3b/3x3_reduce
I0403 19:25:12.724750  9208 net.cpp:425] inception_3b/3x3_reduce <- inception_3a/output_inception_3a/output_0_split_1
I0403 19:25:12.724768  9208 net.cpp:399] inception_3b/3x3_reduce -> inception_3b/3x3_reduce
I0403 19:25:12.726101  9208 net.cpp:141] Setting up inception_3b/3x3_reduce
I0403 19:25:12.726130  9208 net.cpp:148] Top shape: 24 128 28 28 (2408448)
I0403 19:25:12.726145  9208 net.cpp:156] Memory required for data: 686408736
I0403 19:25:12.726162  9208 layer_factory.hpp:77] Creating layer inception_3b/relu_3x3_reduce
I0403 19:25:12.726182  9208 net.cpp:91] Creating Layer inception_3b/relu_3x3_reduce
I0403 19:25:12.726198  9208 net.cpp:425] inception_3b/relu_3x3_reduce <- inception_3b/3x3_reduce
I0403 19:25:12.726222  9208 net.cpp:386] inception_3b/relu_3x3_reduce -> inception_3b/3x3_reduce (in-place)
I0403 19:25:12.726403  9208 net.cpp:141] Setting up inception_3b/relu_3x3_reduce
I0403 19:25:12.726430  9208 net.cpp:148] Top shape: 24 128 28 28 (2408448)
I0403 19:25:12.726445  9208 net.cpp:156] Memory required for data: 696042528
I0403 19:25:12.726459  9208 layer_factory.hpp:77] Creating layer inception_3b/3x3
I0403 19:25:12.726485  9208 net.cpp:91] Creating Layer inception_3b/3x3
I0403 19:25:12.726503  9208 net.cpp:425] inception_3b/3x3 <- inception_3b/3x3_reduce
I0403 19:25:12.726528  9208 net.cpp:399] inception_3b/3x3 -> inception_3b/3x3
I0403 19:25:12.729534  9208 net.cpp:141] Setting up inception_3b/3x3
I0403 19:25:12.729568  9208 net.cpp:148] Top shape: 24 192 28 28 (3612672)
I0403 19:25:12.729586  9208 net.cpp:156] Memory required for data: 710493216
I0403 19:25:12.729605  9208 layer_factory.hpp:77] Creating layer inception_3b/relu_3x3
I0403 19:25:12.729624  9208 net.cpp:91] Creating Layer inception_3b/relu_3x3
I0403 19:25:12.729638  9208 net.cpp:425] inception_3b/relu_3x3 <- inception_3b/3x3
I0403 19:25:12.729655  9208 net.cpp:386] inception_3b/relu_3x3 -> inception_3b/3x3 (in-place)
I0403 19:25:12.729934  9208 net.cpp:141] Setting up inception_3b/relu_3x3
I0403 19:25:12.729962  9208 net.cpp:148] Top shape: 24 192 28 28 (3612672)
I0403 19:25:12.729979  9208 net.cpp:156] Memory required for data: 724943904
I0403 19:25:12.729993  9208 layer_factory.hpp:77] Creating layer inception_3b/5x5_reduce
I0403 19:25:12.730015  9208 net.cpp:91] Creating Layer inception_3b/5x5_reduce
I0403 19:25:12.730032  9208 net.cpp:425] inception_3b/5x5_reduce <- inception_3a/output_inception_3a/output_0_split_2
I0403 19:25:12.730051  9208 net.cpp:399] inception_3b/5x5_reduce -> inception_3b/5x5_reduce
I0403 19:25:12.731065  9208 net.cpp:141] Setting up inception_3b/5x5_reduce
I0403 19:25:12.731096  9208 net.cpp:148] Top shape: 24 32 28 28 (602112)
I0403 19:25:12.731111  9208 net.cpp:156] Memory required for data: 727352352
I0403 19:25:12.731129  9208 layer_factory.hpp:77] Creating layer inception_3b/relu_5x5_reduce
I0403 19:25:12.731148  9208 net.cpp:91] Creating Layer inception_3b/relu_5x5_reduce
I0403 19:25:12.731163  9208 net.cpp:425] inception_3b/relu_5x5_reduce <- inception_3b/5x5_reduce
I0403 19:25:12.731179  9208 net.cpp:386] inception_3b/relu_5x5_reduce -> inception_3b/5x5_reduce (in-place)
I0403 19:25:12.731385  9208 net.cpp:141] Setting up inception_3b/relu_5x5_reduce
I0403 19:25:12.731410  9208 net.cpp:148] Top shape: 24 32 28 28 (602112)
I0403 19:25:12.731426  9208 net.cpp:156] Memory required for data: 729760800
I0403 19:25:12.731441  9208 layer_factory.hpp:77] Creating layer inception_3b/5x5
I0403 19:25:12.731465  9208 net.cpp:91] Creating Layer inception_3b/5x5
I0403 19:25:12.731484  9208 net.cpp:425] inception_3b/5x5 <- inception_3b/5x5_reduce
I0403 19:25:12.731505  9208 net.cpp:399] inception_3b/5x5 -> inception_3b/5x5
I0403 19:25:12.733530  9208 net.cpp:141] Setting up inception_3b/5x5
I0403 19:25:12.733561  9208 net.cpp:148] Top shape: 24 96 28 28 (1806336)
I0403 19:25:12.733577  9208 net.cpp:156] Memory required for data: 736986144
I0403 19:25:12.733594  9208 layer_factory.hpp:77] Creating layer inception_3b/relu_5x5
I0403 19:25:12.733614  9208 net.cpp:91] Creating Layer inception_3b/relu_5x5
I0403 19:25:12.733631  9208 net.cpp:425] inception_3b/relu_5x5 <- inception_3b/5x5
I0403 19:25:12.733647  9208 net.cpp:386] inception_3b/relu_5x5 -> inception_3b/5x5 (in-place)
I0403 19:25:12.733844  9208 net.cpp:141] Setting up inception_3b/relu_5x5
I0403 19:25:12.733870  9208 net.cpp:148] Top shape: 24 96 28 28 (1806336)
I0403 19:25:12.733883  9208 net.cpp:156] Memory required for data: 744211488
I0403 19:25:12.733898  9208 layer_factory.hpp:77] Creating layer inception_3b/pool
I0403 19:25:12.733916  9208 net.cpp:91] Creating Layer inception_3b/pool
I0403 19:25:12.733932  9208 net.cpp:425] inception_3b/pool <- inception_3a/output_inception_3a/output_0_split_3
I0403 19:25:12.733950  9208 net.cpp:399] inception_3b/pool -> inception_3b/pool
I0403 19:25:12.734007  9208 net.cpp:141] Setting up inception_3b/pool
I0403 19:25:12.734030  9208 net.cpp:148] Top shape: 24 256 28 28 (4816896)
I0403 19:25:12.734043  9208 net.cpp:156] Memory required for data: 763479072
I0403 19:25:12.734057  9208 layer_factory.hpp:77] Creating layer inception_3b/pool_proj
I0403 19:25:12.734081  9208 net.cpp:91] Creating Layer inception_3b/pool_proj
I0403 19:25:12.734097  9208 net.cpp:425] inception_3b/pool_proj <- inception_3b/pool
I0403 19:25:12.734118  9208 net.cpp:399] inception_3b/pool_proj -> inception_3b/pool_proj
I0403 19:25:12.735226  9208 net.cpp:141] Setting up inception_3b/pool_proj
I0403 19:25:12.735256  9208 net.cpp:148] Top shape: 24 64 28 28 (1204224)
I0403 19:25:12.735273  9208 net.cpp:156] Memory required for data: 768295968
I0403 19:25:12.735291  9208 layer_factory.hpp:77] Creating layer inception_3b/relu_pool_proj
I0403 19:25:12.735311  9208 net.cpp:91] Creating Layer inception_3b/relu_pool_proj
I0403 19:25:12.735328  9208 net.cpp:425] inception_3b/relu_pool_proj <- inception_3b/pool_proj
I0403 19:25:12.735345  9208 net.cpp:386] inception_3b/relu_pool_proj -> inception_3b/pool_proj (in-place)
I0403 19:25:12.735740  9208 net.cpp:141] Setting up inception_3b/relu_pool_proj
I0403 19:25:12.735771  9208 net.cpp:148] Top shape: 24 64 28 28 (1204224)
I0403 19:25:12.735786  9208 net.cpp:156] Memory required for data: 773112864
I0403 19:25:12.735800  9208 layer_factory.hpp:77] Creating layer inception_3b/output
I0403 19:25:12.735818  9208 net.cpp:91] Creating Layer inception_3b/output
I0403 19:25:12.735832  9208 net.cpp:425] inception_3b/output <- inception_3b/1x1
I0403 19:25:12.735848  9208 net.cpp:425] inception_3b/output <- inception_3b/3x3
I0403 19:25:12.735863  9208 net.cpp:425] inception_3b/output <- inception_3b/5x5
I0403 19:25:12.735878  9208 net.cpp:425] inception_3b/output <- inception_3b/pool_proj
I0403 19:25:12.735900  9208 net.cpp:399] inception_3b/output -> inception_3b/output
I0403 19:25:12.735944  9208 net.cpp:141] Setting up inception_3b/output
I0403 19:25:12.735971  9208 net.cpp:148] Top shape: 24 480 28 28 (9031680)
I0403 19:25:12.735986  9208 net.cpp:156] Memory required for data: 809239584
I0403 19:25:12.736001  9208 layer_factory.hpp:77] Creating layer pool3/3x3_s2
I0403 19:25:12.736017  9208 net.cpp:91] Creating Layer pool3/3x3_s2
I0403 19:25:12.736032  9208 net.cpp:425] pool3/3x3_s2 <- inception_3b/output
I0403 19:25:12.736065  9208 net.cpp:399] pool3/3x3_s2 -> pool3/3x3_s2
I0403 19:25:12.736124  9208 net.cpp:141] Setting up pool3/3x3_s2
I0403 19:25:12.736147  9208 net.cpp:148] Top shape: 24 480 14 14 (2257920)
I0403 19:25:12.736161  9208 net.cpp:156] Memory required for data: 818271264
I0403 19:25:12.736176  9208 layer_factory.hpp:77] Creating layer pool3/3x3_s2_pool3/3x3_s2_0_split
I0403 19:25:12.736192  9208 net.cpp:91] Creating Layer pool3/3x3_s2_pool3/3x3_s2_0_split
I0403 19:25:12.736207  9208 net.cpp:425] pool3/3x3_s2_pool3/3x3_s2_0_split <- pool3/3x3_s2
I0403 19:25:12.736244  9208 net.cpp:399] pool3/3x3_s2_pool3/3x3_s2_0_split -> pool3/3x3_s2_pool3/3x3_s2_0_split_0
I0403 19:25:12.736265  9208 net.cpp:399] pool3/3x3_s2_pool3/3x3_s2_0_split -> pool3/3x3_s2_pool3/3x3_s2_0_split_1
I0403 19:25:12.736286  9208 net.cpp:399] pool3/3x3_s2_pool3/3x3_s2_0_split -> pool3/3x3_s2_pool3/3x3_s2_0_split_2
I0403 19:25:12.736306  9208 net.cpp:399] pool3/3x3_s2_pool3/3x3_s2_0_split -> pool3/3x3_s2_pool3/3x3_s2_0_split_3
I0403 19:25:12.736389  9208 net.cpp:141] Setting up pool3/3x3_s2_pool3/3x3_s2_0_split
I0403 19:25:12.736413  9208 net.cpp:148] Top shape: 24 480 14 14 (2257920)
I0403 19:25:12.736430  9208 net.cpp:148] Top shape: 24 480 14 14 (2257920)
I0403 19:25:12.736445  9208 net.cpp:148] Top shape: 24 480 14 14 (2257920)
I0403 19:25:12.736462  9208 net.cpp:148] Top shape: 24 480 14 14 (2257920)
I0403 19:25:12.736476  9208 net.cpp:156] Memory required for data: 854397984
I0403 19:25:12.736490  9208 layer_factory.hpp:77] Creating layer inception_4a/1x1
I0403 19:25:12.736524  9208 net.cpp:91] Creating Layer inception_4a/1x1
I0403 19:25:12.736542  9208 net.cpp:425] inception_4a/1x1 <- pool3/3x3_s2_pool3/3x3_s2_0_split_0
I0403 19:25:12.736562  9208 net.cpp:399] inception_4a/1x1 -> inception_4a/1x1
I0403 19:25:12.738157  9208 net.cpp:141] Setting up inception_4a/1x1
I0403 19:25:12.738185  9208 net.cpp:148] Top shape: 24 192 14 14 (903168)
I0403 19:25:12.738200  9208 net.cpp:156] Memory required for data: 858010656
I0403 19:25:12.738226  9208 layer_factory.hpp:77] Creating layer inception_4a/relu_1x1
I0403 19:25:12.738250  9208 net.cpp:91] Creating Layer inception_4a/relu_1x1
I0403 19:25:12.738268  9208 net.cpp:425] inception_4a/relu_1x1 <- inception_4a/1x1
I0403 19:25:12.738287  9208 net.cpp:386] inception_4a/relu_1x1 -> inception_4a/1x1 (in-place)
I0403 19:25:12.738468  9208 net.cpp:141] Setting up inception_4a/relu_1x1
I0403 19:25:12.738493  9208 net.cpp:148] Top shape: 24 192 14 14 (903168)
I0403 19:25:12.738507  9208 net.cpp:156] Memory required for data: 861623328
I0403 19:25:12.738522  9208 layer_factory.hpp:77] Creating layer inception_4a/3x3_reduce
I0403 19:25:12.738545  9208 net.cpp:91] Creating Layer inception_4a/3x3_reduce
I0403 19:25:12.738562  9208 net.cpp:425] inception_4a/3x3_reduce <- pool3/3x3_s2_pool3/3x3_s2_0_split_1
I0403 19:25:12.738581  9208 net.cpp:399] inception_4a/3x3_reduce -> inception_4a/3x3_reduce
I0403 19:25:12.739863  9208 net.cpp:141] Setting up inception_4a/3x3_reduce
I0403 19:25:12.739892  9208 net.cpp:148] Top shape: 24 96 14 14 (451584)
I0403 19:25:12.739910  9208 net.cpp:156] Memory required for data: 863429664
I0403 19:25:12.739936  9208 layer_factory.hpp:77] Creating layer inception_4a/relu_3x3_reduce
I0403 19:25:12.739955  9208 net.cpp:91] Creating Layer inception_4a/relu_3x3_reduce
I0403 19:25:12.739971  9208 net.cpp:425] inception_4a/relu_3x3_reduce <- inception_4a/3x3_reduce
I0403 19:25:12.739989  9208 net.cpp:386] inception_4a/relu_3x3_reduce -> inception_4a/3x3_reduce (in-place)
I0403 19:25:12.740164  9208 net.cpp:141] Setting up inception_4a/relu_3x3_reduce
I0403 19:25:12.740190  9208 net.cpp:148] Top shape: 24 96 14 14 (451584)
I0403 19:25:12.740219  9208 net.cpp:156] Memory required for data: 865236000
I0403 19:25:12.740249  9208 layer_factory.hpp:77] Creating layer inception_4a/3x3
I0403 19:25:12.740272  9208 net.cpp:91] Creating Layer inception_4a/3x3
I0403 19:25:12.740289  9208 net.cpp:425] inception_4a/3x3 <- inception_4a/3x3_reduce
I0403 19:25:12.740310  9208 net.cpp:399] inception_4a/3x3 -> inception_4a/3x3
I0403 19:25:12.743150  9208 net.cpp:141] Setting up inception_4a/3x3
I0403 19:25:12.743183  9208 net.cpp:148] Top shape: 24 208 14 14 (978432)
I0403 19:25:12.743199  9208 net.cpp:156] Memory required for data: 869149728
I0403 19:25:12.743226  9208 layer_factory.hpp:77] Creating layer inception_4a/relu_3x3
I0403 19:25:12.743247  9208 net.cpp:91] Creating Layer inception_4a/relu_3x3
I0403 19:25:12.743264  9208 net.cpp:425] inception_4a/relu_3x3 <- inception_4a/3x3
I0403 19:25:12.743283  9208 net.cpp:386] inception_4a/relu_3x3 -> inception_4a/3x3 (in-place)
I0403 19:25:12.743571  9208 net.cpp:141] Setting up inception_4a/relu_3x3
I0403 19:25:12.743597  9208 net.cpp:148] Top shape: 24 208 14 14 (978432)
I0403 19:25:12.743613  9208 net.cpp:156] Memory required for data: 873063456
I0403 19:25:12.743626  9208 layer_factory.hpp:77] Creating layer inception_4a/5x5_reduce
I0403 19:25:12.743649  9208 net.cpp:91] Creating Layer inception_4a/5x5_reduce
I0403 19:25:12.743666  9208 net.cpp:425] inception_4a/5x5_reduce <- pool3/3x3_s2_pool3/3x3_s2_0_split_2
I0403 19:25:12.743687  9208 net.cpp:399] inception_4a/5x5_reduce -> inception_4a/5x5_reduce
I0403 19:25:12.744746  9208 net.cpp:141] Setting up inception_4a/5x5_reduce
I0403 19:25:12.744777  9208 net.cpp:148] Top shape: 24 16 14 14 (75264)
I0403 19:25:12.744794  9208 net.cpp:156] Memory required for data: 873364512
I0403 19:25:12.744813  9208 layer_factory.hpp:77] Creating layer inception_4a/relu_5x5_reduce
I0403 19:25:12.744833  9208 net.cpp:91] Creating Layer inception_4a/relu_5x5_reduce
I0403 19:25:12.744849  9208 net.cpp:425] inception_4a/relu_5x5_reduce <- inception_4a/5x5_reduce
I0403 19:25:12.744870  9208 net.cpp:386] inception_4a/relu_5x5_reduce -> inception_4a/5x5_reduce (in-place)
I0403 19:25:12.745056  9208 net.cpp:141] Setting up inception_4a/relu_5x5_reduce
I0403 19:25:12.745081  9208 net.cpp:148] Top shape: 24 16 14 14 (75264)
I0403 19:25:12.745096  9208 net.cpp:156] Memory required for data: 873665568
I0403 19:25:12.745110  9208 layer_factory.hpp:77] Creating layer inception_4a/5x5
I0403 19:25:12.745132  9208 net.cpp:91] Creating Layer inception_4a/5x5
I0403 19:25:12.745151  9208 net.cpp:425] inception_4a/5x5 <- inception_4a/5x5_reduce
I0403 19:25:12.745172  9208 net.cpp:399] inception_4a/5x5 -> inception_4a/5x5
I0403 19:25:12.746350  9208 net.cpp:141] Setting up inception_4a/5x5
I0403 19:25:12.746378  9208 net.cpp:148] Top shape: 24 48 14 14 (225792)
I0403 19:25:12.746394  9208 net.cpp:156] Memory required for data: 874568736
I0403 19:25:12.746413  9208 layer_factory.hpp:77] Creating layer inception_4a/relu_5x5
I0403 19:25:12.746433  9208 net.cpp:91] Creating Layer inception_4a/relu_5x5
I0403 19:25:12.746448  9208 net.cpp:425] inception_4a/relu_5x5 <- inception_4a/5x5
I0403 19:25:12.746467  9208 net.cpp:386] inception_4a/relu_5x5 -> inception_4a/5x5 (in-place)
I0403 19:25:12.746665  9208 net.cpp:141] Setting up inception_4a/relu_5x5
I0403 19:25:12.746690  9208 net.cpp:148] Top shape: 24 48 14 14 (225792)
I0403 19:25:12.746704  9208 net.cpp:156] Memory required for data: 875471904
I0403 19:25:12.746719  9208 layer_factory.hpp:77] Creating layer inception_4a/pool
I0403 19:25:12.746739  9208 net.cpp:91] Creating Layer inception_4a/pool
I0403 19:25:12.746755  9208 net.cpp:425] inception_4a/pool <- pool3/3x3_s2_pool3/3x3_s2_0_split_3
I0403 19:25:12.746773  9208 net.cpp:399] inception_4a/pool -> inception_4a/pool
I0403 19:25:12.746836  9208 net.cpp:141] Setting up inception_4a/pool
I0403 19:25:12.746860  9208 net.cpp:148] Top shape: 24 480 14 14 (2257920)
I0403 19:25:12.746875  9208 net.cpp:156] Memory required for data: 884503584
I0403 19:25:12.746888  9208 layer_factory.hpp:77] Creating layer inception_4a/pool_proj
I0403 19:25:12.746911  9208 net.cpp:91] Creating Layer inception_4a/pool_proj
I0403 19:25:12.746927  9208 net.cpp:425] inception_4a/pool_proj <- inception_4a/pool
I0403 19:25:12.746948  9208 net.cpp:399] inception_4a/pool_proj -> inception_4a/pool_proj
I0403 19:25:12.748148  9208 net.cpp:141] Setting up inception_4a/pool_proj
I0403 19:25:12.748178  9208 net.cpp:148] Top shape: 24 64 14 14 (301056)
I0403 19:25:12.748215  9208 net.cpp:156] Memory required for data: 885707808
I0403 19:25:12.748239  9208 layer_factory.hpp:77] Creating layer inception_4a/relu_pool_proj
I0403 19:25:12.748258  9208 net.cpp:91] Creating Layer inception_4a/relu_pool_proj
I0403 19:25:12.748280  9208 net.cpp:425] inception_4a/relu_pool_proj <- inception_4a/pool_proj
I0403 19:25:12.748302  9208 net.cpp:386] inception_4a/relu_pool_proj -> inception_4a/pool_proj (in-place)
I0403 19:25:12.748592  9208 net.cpp:141] Setting up inception_4a/relu_pool_proj
I0403 19:25:12.748620  9208 net.cpp:148] Top shape: 24 64 14 14 (301056)
I0403 19:25:12.748638  9208 net.cpp:156] Memory required for data: 886912032
I0403 19:25:12.748654  9208 layer_factory.hpp:77] Creating layer inception_4a/output
I0403 19:25:12.748673  9208 net.cpp:91] Creating Layer inception_4a/output
I0403 19:25:12.748689  9208 net.cpp:425] inception_4a/output <- inception_4a/1x1
I0403 19:25:12.748708  9208 net.cpp:425] inception_4a/output <- inception_4a/3x3
I0403 19:25:12.748723  9208 net.cpp:425] inception_4a/output <- inception_4a/5x5
I0403 19:25:12.748740  9208 net.cpp:425] inception_4a/output <- inception_4a/pool_proj
I0403 19:25:12.748759  9208 net.cpp:399] inception_4a/output -> inception_4a/output
I0403 19:25:12.748805  9208 net.cpp:141] Setting up inception_4a/output
I0403 19:25:12.748831  9208 net.cpp:148] Top shape: 24 512 14 14 (2408448)
I0403 19:25:12.748849  9208 net.cpp:156] Memory required for data: 896545824
I0403 19:25:12.748867  9208 layer_factory.hpp:77] Creating layer inception_4a/output_inception_4a/output_0_split
I0403 19:25:12.748884  9208 net.cpp:91] Creating Layer inception_4a/output_inception_4a/output_0_split
I0403 19:25:12.748900  9208 net.cpp:425] inception_4a/output_inception_4a/output_0_split <- inception_4a/output
I0403 19:25:12.748922  9208 net.cpp:399] inception_4a/output_inception_4a/output_0_split -> inception_4a/output_inception_4a/output_0_split_0
I0403 19:25:12.748944  9208 net.cpp:399] inception_4a/output_inception_4a/output_0_split -> inception_4a/output_inception_4a/output_0_split_1
I0403 19:25:12.748965  9208 net.cpp:399] inception_4a/output_inception_4a/output_0_split -> inception_4a/output_inception_4a/output_0_split_2
I0403 19:25:12.748988  9208 net.cpp:399] inception_4a/output_inception_4a/output_0_split -> inception_4a/output_inception_4a/output_0_split_3
I0403 19:25:12.749011  9208 net.cpp:399] inception_4a/output_inception_4a/output_0_split -> inception_4a/output_inception_4a/output_0_split_4
I0403 19:25:12.749107  9208 net.cpp:141] Setting up inception_4a/output_inception_4a/output_0_split
I0403 19:25:12.749133  9208 net.cpp:148] Top shape: 24 512 14 14 (2408448)
I0403 19:25:12.749150  9208 net.cpp:148] Top shape: 24 512 14 14 (2408448)
I0403 19:25:12.749166  9208 net.cpp:148] Top shape: 24 512 14 14 (2408448)
I0403 19:25:12.749182  9208 net.cpp:148] Top shape: 24 512 14 14 (2408448)
I0403 19:25:12.749198  9208 net.cpp:148] Top shape: 24 512 14 14 (2408448)
I0403 19:25:12.749217  9208 net.cpp:156] Memory required for data: 944714784
I0403 19:25:12.749245  9208 layer_factory.hpp:77] Creating layer loss1/ave_pool
I0403 19:25:12.749264  9208 net.cpp:91] Creating Layer loss1/ave_pool
I0403 19:25:12.749280  9208 net.cpp:425] loss1/ave_pool <- inception_4a/output_inception_4a/output_0_split_0
I0403 19:25:12.749300  9208 net.cpp:399] loss1/ave_pool -> loss1/ave_pool
I0403 19:25:12.749531  9208 net.cpp:141] Setting up loss1/ave_pool
I0403 19:25:12.749557  9208 net.cpp:148] Top shape: 24 512 4 4 (196608)
I0403 19:25:12.749572  9208 net.cpp:156] Memory required for data: 945501216
I0403 19:25:12.749586  9208 layer_factory.hpp:77] Creating layer loss1/conv
I0403 19:25:12.749608  9208 net.cpp:91] Creating Layer loss1/conv
I0403 19:25:12.749626  9208 net.cpp:425] loss1/conv <- loss1/ave_pool
I0403 19:25:12.749649  9208 net.cpp:399] loss1/conv -> loss1/conv
I0403 19:25:12.751103  9208 net.cpp:141] Setting up loss1/conv
I0403 19:25:12.751133  9208 net.cpp:148] Top shape: 24 128 4 4 (49152)
I0403 19:25:12.751165  9208 net.cpp:156] Memory required for data: 945697824
I0403 19:25:12.751185  9208 layer_factory.hpp:77] Creating layer loss1/relu_conv
I0403 19:25:12.751204  9208 net.cpp:91] Creating Layer loss1/relu_conv
I0403 19:25:12.751224  9208 net.cpp:425] loss1/relu_conv <- loss1/conv
I0403 19:25:12.751242  9208 net.cpp:386] loss1/relu_conv -> loss1/conv (in-place)
I0403 19:25:12.751533  9208 net.cpp:141] Setting up loss1/relu_conv
I0403 19:25:12.751559  9208 net.cpp:148] Top shape: 24 128 4 4 (49152)
I0403 19:25:12.751576  9208 net.cpp:156] Memory required for data: 945894432
I0403 19:25:12.751592  9208 layer_factory.hpp:77] Creating layer loss1/fc
I0403 19:25:12.751617  9208 net.cpp:91] Creating Layer loss1/fc
I0403 19:25:12.751636  9208 net.cpp:425] loss1/fc <- loss1/conv
I0403 19:25:12.751657  9208 net.cpp:399] loss1/fc -> loss1/fc
I0403 19:25:12.770050  9208 net.cpp:141] Setting up loss1/fc
I0403 19:25:12.770115  9208 net.cpp:148] Top shape: 24 1024 (24576)
I0403 19:25:12.770130  9208 net.cpp:156] Memory required for data: 945992736
I0403 19:25:12.770149  9208 layer_factory.hpp:77] Creating layer loss1/relu_fc
I0403 19:25:12.770175  9208 net.cpp:91] Creating Layer loss1/relu_fc
I0403 19:25:12.770192  9208 net.cpp:425] loss1/relu_fc <- loss1/fc
I0403 19:25:12.770215  9208 net.cpp:386] loss1/relu_fc -> loss1/fc (in-place)
I0403 19:25:12.770437  9208 net.cpp:141] Setting up loss1/relu_fc
I0403 19:25:12.770462  9208 net.cpp:148] Top shape: 24 1024 (24576)
I0403 19:25:12.770476  9208 net.cpp:156] Memory required for data: 946091040
I0403 19:25:12.770491  9208 layer_factory.hpp:77] Creating layer loss1/drop_fc
I0403 19:25:12.770522  9208 net.cpp:91] Creating Layer loss1/drop_fc
I0403 19:25:12.770540  9208 net.cpp:425] loss1/drop_fc <- loss1/fc
I0403 19:25:12.770557  9208 net.cpp:386] loss1/drop_fc -> loss1/fc (in-place)
I0403 19:25:12.770623  9208 net.cpp:141] Setting up loss1/drop_fc
I0403 19:25:12.770648  9208 net.cpp:148] Top shape: 24 1024 (24576)
I0403 19:25:12.770663  9208 net.cpp:156] Memory required for data: 946189344
I0403 19:25:12.770678  9208 layer_factory.hpp:77] Creating layer loss1/classifier_plantvillage
I0403 19:25:12.770700  9208 net.cpp:91] Creating Layer loss1/classifier_plantvillage
I0403 19:25:12.770716  9208 net.cpp:425] loss1/classifier_plantvillage <- loss1/fc
I0403 19:25:12.770736  9208 net.cpp:399] loss1/classifier_plantvillage -> loss1/classifier_plantvillage
I0403 19:25:12.771653  9208 net.cpp:141] Setting up loss1/classifier_plantvillage
I0403 19:25:12.771683  9208 net.cpp:148] Top shape: 24 38 (912)
I0403 19:25:12.771699  9208 net.cpp:156] Memory required for data: 946192992
I0403 19:25:12.771718  9208 layer_factory.hpp:77] Creating layer loss1/classifier_plantvillage_loss1/classifier_plantvillage_0_split
I0403 19:25:12.771734  9208 net.cpp:91] Creating Layer loss1/classifier_plantvillage_loss1/classifier_plantvillage_0_split
I0403 19:25:12.771749  9208 net.cpp:425] loss1/classifier_plantvillage_loss1/classifier_plantvillage_0_split <- loss1/classifier_plantvillage
I0403 19:25:12.771765  9208 net.cpp:399] loss1/classifier_plantvillage_loss1/classifier_plantvillage_0_split -> loss1/classifier_plantvillage_loss1/classifier_plantvillage_0_split_0
I0403 19:25:12.771783  9208 net.cpp:399] loss1/classifier_plantvillage_loss1/classifier_plantvillage_0_split -> loss1/classifier_plantvillage_loss1/classifier_plantvillage_0_split_1
I0403 19:25:12.771802  9208 net.cpp:399] loss1/classifier_plantvillage_loss1/classifier_plantvillage_0_split -> loss1/classifier_plantvillage_loss1/classifier_plantvillage_0_split_2
I0403 19:25:12.771867  9208 net.cpp:141] Setting up loss1/classifier_plantvillage_loss1/classifier_plantvillage_0_split
I0403 19:25:12.771889  9208 net.cpp:148] Top shape: 24 38 (912)
I0403 19:25:12.771904  9208 net.cpp:148] Top shape: 24 38 (912)
I0403 19:25:12.771919  9208 net.cpp:148] Top shape: 24 38 (912)
I0403 19:25:12.771932  9208 net.cpp:156] Memory required for data: 946203936
I0403 19:25:12.771946  9208 layer_factory.hpp:77] Creating layer inception_4b/1x1
I0403 19:25:12.771966  9208 net.cpp:91] Creating Layer inception_4b/1x1
I0403 19:25:12.772001  9208 net.cpp:425] inception_4b/1x1 <- inception_4a/output_inception_4a/output_0_split_1
I0403 19:25:12.772022  9208 net.cpp:399] inception_4b/1x1 -> inception_4b/1x1
I0403 19:25:12.773711  9208 net.cpp:141] Setting up inception_4b/1x1
I0403 19:25:12.773741  9208 net.cpp:148] Top shape: 24 160 14 14 (752640)
I0403 19:25:12.773756  9208 net.cpp:156] Memory required for data: 949214496
I0403 19:25:12.773774  9208 layer_factory.hpp:77] Creating layer inception_4b/relu_1x1
I0403 19:25:12.773793  9208 net.cpp:91] Creating Layer inception_4b/relu_1x1
I0403 19:25:12.773813  9208 net.cpp:425] inception_4b/relu_1x1 <- inception_4b/1x1
I0403 19:25:12.773833  9208 net.cpp:386] inception_4b/relu_1x1 -> inception_4b/1x1 (in-place)
I0403 19:25:12.774011  9208 net.cpp:141] Setting up inception_4b/relu_1x1
I0403 19:25:12.774041  9208 net.cpp:148] Top shape: 24 160 14 14 (752640)
I0403 19:25:12.774058  9208 net.cpp:156] Memory required for data: 952225056
I0403 19:25:12.774073  9208 layer_factory.hpp:77] Creating layer inception_4b/3x3_reduce
I0403 19:25:12.774097  9208 net.cpp:91] Creating Layer inception_4b/3x3_reduce
I0403 19:25:12.774116  9208 net.cpp:425] inception_4b/3x3_reduce <- inception_4a/output_inception_4a/output_0_split_2
I0403 19:25:12.774138  9208 net.cpp:399] inception_4b/3x3_reduce -> inception_4b/3x3_reduce
I0403 19:25:12.775471  9208 net.cpp:141] Setting up inception_4b/3x3_reduce
I0403 19:25:12.775501  9208 net.cpp:148] Top shape: 24 112 14 14 (526848)
I0403 19:25:12.775517  9208 net.cpp:156] Memory required for data: 954332448
I0403 19:25:12.775535  9208 layer_factory.hpp:77] Creating layer inception_4b/relu_3x3_reduce
I0403 19:25:12.775552  9208 net.cpp:91] Creating Layer inception_4b/relu_3x3_reduce
I0403 19:25:12.775568  9208 net.cpp:425] inception_4b/relu_3x3_reduce <- inception_4b/3x3_reduce
I0403 19:25:12.775586  9208 net.cpp:386] inception_4b/relu_3x3_reduce -> inception_4b/3x3_reduce (in-place)
I0403 19:25:12.775879  9208 net.cpp:141] Setting up inception_4b/relu_3x3_reduce
I0403 19:25:12.775907  9208 net.cpp:148] Top shape: 24 112 14 14 (526848)
I0403 19:25:12.775923  9208 net.cpp:156] Memory required for data: 956439840
I0403 19:25:12.775938  9208 layer_factory.hpp:77] Creating layer inception_4b/3x3
I0403 19:25:12.775959  9208 net.cpp:91] Creating Layer inception_4b/3x3
I0403 19:25:12.775976  9208 net.cpp:425] inception_4b/3x3 <- inception_4b/3x3_reduce
I0403 19:25:12.775995  9208 net.cpp:399] inception_4b/3x3 -> inception_4b/3x3
I0403 19:25:12.779186  9208 net.cpp:141] Setting up inception_4b/3x3
I0403 19:25:12.779225  9208 net.cpp:148] Top shape: 24 224 14 14 (1053696)
I0403 19:25:12.779242  9208 net.cpp:156] Memory required for data: 960654624
I0403 19:25:12.779260  9208 layer_factory.hpp:77] Creating layer inception_4b/relu_3x3
I0403 19:25:12.779283  9208 net.cpp:91] Creating Layer inception_4b/relu_3x3
I0403 19:25:12.779299  9208 net.cpp:425] inception_4b/relu_3x3 <- inception_4b/3x3
I0403 19:25:12.779316  9208 net.cpp:386] inception_4b/relu_3x3 -> inception_4b/3x3 (in-place)
I0403 19:25:12.779495  9208 net.cpp:141] Setting up inception_4b/relu_3x3
I0403 19:25:12.779517  9208 net.cpp:148] Top shape: 24 224 14 14 (1053696)
I0403 19:25:12.779531  9208 net.cpp:156] Memory required for data: 964869408
I0403 19:25:12.779546  9208 layer_factory.hpp:77] Creating layer inception_4b/5x5_reduce
I0403 19:25:12.779570  9208 net.cpp:91] Creating Layer inception_4b/5x5_reduce
I0403 19:25:12.779587  9208 net.cpp:425] inception_4b/5x5_reduce <- inception_4a/output_inception_4a/output_0_split_3
I0403 19:25:12.779605  9208 net.cpp:399] inception_4b/5x5_reduce -> inception_4b/5x5_reduce
I0403 19:25:12.780673  9208 net.cpp:141] Setting up inception_4b/5x5_reduce
I0403 19:25:12.780704  9208 net.cpp:148] Top shape: 24 24 14 14 (112896)
I0403 19:25:12.780721  9208 net.cpp:156] Memory required for data: 965320992
I0403 19:25:12.780740  9208 layer_factory.hpp:77] Creating layer inception_4b/relu_5x5_reduce
I0403 19:25:12.780760  9208 net.cpp:91] Creating Layer inception_4b/relu_5x5_reduce
I0403 19:25:12.780791  9208 net.cpp:425] inception_4b/relu_5x5_reduce <- inception_4b/5x5_reduce
I0403 19:25:12.780812  9208 net.cpp:386] inception_4b/relu_5x5_reduce -> inception_4b/5x5_reduce (in-place)
I0403 19:25:12.780992  9208 net.cpp:141] Setting up inception_4b/relu_5x5_reduce
I0403 19:25:12.781018  9208 net.cpp:148] Top shape: 24 24 14 14 (112896)
I0403 19:25:12.781033  9208 net.cpp:156] Memory required for data: 965772576
I0403 19:25:12.781049  9208 layer_factory.hpp:77] Creating layer inception_4b/5x5
I0403 19:25:12.781071  9208 net.cpp:91] Creating Layer inception_4b/5x5
I0403 19:25:12.781087  9208 net.cpp:425] inception_4b/5x5 <- inception_4b/5x5_reduce
I0403 19:25:12.781107  9208 net.cpp:399] inception_4b/5x5 -> inception_4b/5x5
I0403 19:25:12.782349  9208 net.cpp:141] Setting up inception_4b/5x5
I0403 19:25:12.782382  9208 net.cpp:148] Top shape: 24 64 14 14 (301056)
I0403 19:25:12.782398  9208 net.cpp:156] Memory required for data: 966976800
I0403 19:25:12.782415  9208 layer_factory.hpp:77] Creating layer inception_4b/relu_5x5
I0403 19:25:12.782433  9208 net.cpp:91] Creating Layer inception_4b/relu_5x5
I0403 19:25:12.782449  9208 net.cpp:425] inception_4b/relu_5x5 <- inception_4b/5x5
I0403 19:25:12.782464  9208 net.cpp:386] inception_4b/relu_5x5 -> inception_4b/5x5 (in-place)
I0403 19:25:12.782742  9208 net.cpp:141] Setting up inception_4b/relu_5x5
I0403 19:25:12.782768  9208 net.cpp:148] Top shape: 24 64 14 14 (301056)
I0403 19:25:12.782784  9208 net.cpp:156] Memory required for data: 968181024
I0403 19:25:12.782799  9208 layer_factory.hpp:77] Creating layer inception_4b/pool
I0403 19:25:12.782816  9208 net.cpp:91] Creating Layer inception_4b/pool
I0403 19:25:12.782831  9208 net.cpp:425] inception_4b/pool <- inception_4a/output_inception_4a/output_0_split_4
I0403 19:25:12.782848  9208 net.cpp:399] inception_4b/pool -> inception_4b/pool
I0403 19:25:12.782912  9208 net.cpp:141] Setting up inception_4b/pool
I0403 19:25:12.782934  9208 net.cpp:148] Top shape: 24 512 14 14 (2408448)
I0403 19:25:12.782948  9208 net.cpp:156] Memory required for data: 977814816
I0403 19:25:12.782961  9208 layer_factory.hpp:77] Creating layer inception_4b/pool_proj
I0403 19:25:12.782982  9208 net.cpp:91] Creating Layer inception_4b/pool_proj
I0403 19:25:12.782999  9208 net.cpp:425] inception_4b/pool_proj <- inception_4b/pool
I0403 19:25:12.783018  9208 net.cpp:399] inception_4b/pool_proj -> inception_4b/pool_proj
I0403 19:25:12.784193  9208 net.cpp:141] Setting up inception_4b/pool_proj
I0403 19:25:12.784229  9208 net.cpp:148] Top shape: 24 64 14 14 (301056)
I0403 19:25:12.784245  9208 net.cpp:156] Memory required for data: 979019040
I0403 19:25:12.784261  9208 layer_factory.hpp:77] Creating layer inception_4b/relu_pool_proj
I0403 19:25:12.784278  9208 net.cpp:91] Creating Layer inception_4b/relu_pool_proj
I0403 19:25:12.784293  9208 net.cpp:425] inception_4b/relu_pool_proj <- inception_4b/pool_proj
I0403 19:25:12.784310  9208 net.cpp:386] inception_4b/relu_pool_proj -> inception_4b/pool_proj (in-place)
I0403 19:25:12.784489  9208 net.cpp:141] Setting up inception_4b/relu_pool_proj
I0403 19:25:12.784518  9208 net.cpp:148] Top shape: 24 64 14 14 (301056)
I0403 19:25:12.784533  9208 net.cpp:156] Memory required for data: 980223264
I0403 19:25:12.784546  9208 layer_factory.hpp:77] Creating layer inception_4b/output
I0403 19:25:12.784564  9208 net.cpp:91] Creating Layer inception_4b/output
I0403 19:25:12.784579  9208 net.cpp:425] inception_4b/output <- inception_4b/1x1
I0403 19:25:12.784595  9208 net.cpp:425] inception_4b/output <- inception_4b/3x3
I0403 19:25:12.784610  9208 net.cpp:425] inception_4b/output <- inception_4b/5x5
I0403 19:25:12.784624  9208 net.cpp:425] inception_4b/output <- inception_4b/pool_proj
I0403 19:25:12.784643  9208 net.cpp:399] inception_4b/output -> inception_4b/output
I0403 19:25:12.784687  9208 net.cpp:141] Setting up inception_4b/output
I0403 19:25:12.784711  9208 net.cpp:148] Top shape: 24 512 14 14 (2408448)
I0403 19:25:12.784726  9208 net.cpp:156] Memory required for data: 989857056
I0403 19:25:12.784754  9208 layer_factory.hpp:77] Creating layer inception_4b/output_inception_4b/output_0_split
I0403 19:25:12.784771  9208 net.cpp:91] Creating Layer inception_4b/output_inception_4b/output_0_split
I0403 19:25:12.784785  9208 net.cpp:425] inception_4b/output_inception_4b/output_0_split <- inception_4b/output
I0403 19:25:12.784802  9208 net.cpp:399] inception_4b/output_inception_4b/output_0_split -> inception_4b/output_inception_4b/output_0_split_0
I0403 19:25:12.784826  9208 net.cpp:399] inception_4b/output_inception_4b/output_0_split -> inception_4b/output_inception_4b/output_0_split_1
I0403 19:25:12.784848  9208 net.cpp:399] inception_4b/output_inception_4b/output_0_split -> inception_4b/output_inception_4b/output_0_split_2
I0403 19:25:12.784873  9208 net.cpp:399] inception_4b/output_inception_4b/output_0_split -> inception_4b/output_inception_4b/output_0_split_3
I0403 19:25:12.784956  9208 net.cpp:141] Setting up inception_4b/output_inception_4b/output_0_split
I0403 19:25:12.784981  9208 net.cpp:148] Top shape: 24 512 14 14 (2408448)
I0403 19:25:12.784996  9208 net.cpp:148] Top shape: 24 512 14 14 (2408448)
I0403 19:25:12.785012  9208 net.cpp:148] Top shape: 24 512 14 14 (2408448)
I0403 19:25:12.785028  9208 net.cpp:148] Top shape: 24 512 14 14 (2408448)
I0403 19:25:12.785043  9208 net.cpp:156] Memory required for data: 1028392224
I0403 19:25:12.785059  9208 layer_factory.hpp:77] Creating layer inception_4c/1x1
I0403 19:25:12.785082  9208 net.cpp:91] Creating Layer inception_4c/1x1
I0403 19:25:12.785100  9208 net.cpp:425] inception_4c/1x1 <- inception_4b/output_inception_4b/output_0_split_0
I0403 19:25:12.785121  9208 net.cpp:399] inception_4c/1x1 -> inception_4c/1x1
I0403 19:25:12.786653  9208 net.cpp:141] Setting up inception_4c/1x1
I0403 19:25:12.786680  9208 net.cpp:148] Top shape: 24 128 14 14 (602112)
I0403 19:25:12.786695  9208 net.cpp:156] Memory required for data: 1030800672
I0403 19:25:12.786713  9208 layer_factory.hpp:77] Creating layer inception_4c/relu_1x1
I0403 19:25:12.786733  9208 net.cpp:91] Creating Layer inception_4c/relu_1x1
I0403 19:25:12.786751  9208 net.cpp:425] inception_4c/relu_1x1 <- inception_4c/1x1
I0403 19:25:12.786767  9208 net.cpp:386] inception_4c/relu_1x1 -> inception_4c/1x1 (in-place)
I0403 19:25:12.786948  9208 net.cpp:141] Setting up inception_4c/relu_1x1
I0403 19:25:12.786973  9208 net.cpp:148] Top shape: 24 128 14 14 (602112)
I0403 19:25:12.786988  9208 net.cpp:156] Memory required for data: 1033209120
I0403 19:25:12.787003  9208 layer_factory.hpp:77] Creating layer inception_4c/3x3_reduce
I0403 19:25:12.787024  9208 net.cpp:91] Creating Layer inception_4c/3x3_reduce
I0403 19:25:12.787044  9208 net.cpp:425] inception_4c/3x3_reduce <- inception_4b/output_inception_4b/output_0_split_1
I0403 19:25:12.787061  9208 net.cpp:399] inception_4c/3x3_reduce -> inception_4c/3x3_reduce
I0403 19:25:12.789042  9208 net.cpp:141] Setting up inception_4c/3x3_reduce
I0403 19:25:12.789072  9208 net.cpp:148] Top shape: 24 128 14 14 (602112)
I0403 19:25:12.789086  9208 net.cpp:156] Memory required for data: 1035617568
I0403 19:25:12.789104  9208 layer_factory.hpp:77] Creating layer inception_4c/relu_3x3_reduce
I0403 19:25:12.789124  9208 net.cpp:91] Creating Layer inception_4c/relu_3x3_reduce
I0403 19:25:12.789141  9208 net.cpp:425] inception_4c/relu_3x3_reduce <- inception_4c/3x3_reduce
I0403 19:25:12.789158  9208 net.cpp:386] inception_4c/relu_3x3_reduce -> inception_4c/3x3_reduce (in-place)
I0403 19:25:12.789489  9208 net.cpp:141] Setting up inception_4c/relu_3x3_reduce
I0403 19:25:12.789515  9208 net.cpp:148] Top shape: 24 128 14 14 (602112)
I0403 19:25:12.789531  9208 net.cpp:156] Memory required for data: 1038026016
I0403 19:25:12.789546  9208 layer_factory.hpp:77] Creating layer inception_4c/3x3
I0403 19:25:12.789584  9208 net.cpp:91] Creating Layer inception_4c/3x3
I0403 19:25:12.789602  9208 net.cpp:425] inception_4c/3x3 <- inception_4c/3x3_reduce
I0403 19:25:12.789621  9208 net.cpp:399] inception_4c/3x3 -> inception_4c/3x3
I0403 19:25:12.793345  9208 net.cpp:141] Setting up inception_4c/3x3
I0403 19:25:12.793390  9208 net.cpp:148] Top shape: 24 256 14 14 (1204224)
I0403 19:25:12.793408  9208 net.cpp:156] Memory required for data: 1042842912
I0403 19:25:12.793442  9208 layer_factory.hpp:77] Creating layer inception_4c/relu_3x3
I0403 19:25:12.793467  9208 net.cpp:91] Creating Layer inception_4c/relu_3x3
I0403 19:25:12.793485  9208 net.cpp:425] inception_4c/relu_3x3 <- inception_4c/3x3
I0403 19:25:12.793503  9208 net.cpp:386] inception_4c/relu_3x3 -> inception_4c/3x3 (in-place)
I0403 19:25:12.793705  9208 net.cpp:141] Setting up inception_4c/relu_3x3
I0403 19:25:12.793735  9208 net.cpp:148] Top shape: 24 256 14 14 (1204224)
I0403 19:25:12.793751  9208 net.cpp:156] Memory required for data: 1047659808
I0403 19:25:12.793767  9208 layer_factory.hpp:77] Creating layer inception_4c/5x5_reduce
I0403 19:25:12.793803  9208 net.cpp:91] Creating Layer inception_4c/5x5_reduce
I0403 19:25:12.793820  9208 net.cpp:425] inception_4c/5x5_reduce <- inception_4b/output_inception_4b/output_0_split_2
I0403 19:25:12.793839  9208 net.cpp:399] inception_4c/5x5_reduce -> inception_4c/5x5_reduce
I0403 19:25:12.794967  9208 net.cpp:141] Setting up inception_4c/5x5_reduce
I0403 19:25:12.794997  9208 net.cpp:148] Top shape: 24 24 14 14 (112896)
I0403 19:25:12.795013  9208 net.cpp:156] Memory required for data: 1048111392
I0403 19:25:12.795032  9208 layer_factory.hpp:77] Creating layer inception_4c/relu_5x5_reduce
I0403 19:25:12.795049  9208 net.cpp:91] Creating Layer inception_4c/relu_5x5_reduce
I0403 19:25:12.795066  9208 net.cpp:425] inception_4c/relu_5x5_reduce <- inception_4c/5x5_reduce
I0403 19:25:12.795085  9208 net.cpp:386] inception_4c/relu_5x5_reduce -> inception_4c/5x5_reduce (in-place)
I0403 19:25:12.795277  9208 net.cpp:141] Setting up inception_4c/relu_5x5_reduce
I0403 19:25:12.795302  9208 net.cpp:148] Top shape: 24 24 14 14 (112896)
I0403 19:25:12.795316  9208 net.cpp:156] Memory required for data: 1048562976
I0403 19:25:12.795331  9208 layer_factory.hpp:77] Creating layer inception_4c/5x5
I0403 19:25:12.795352  9208 net.cpp:91] Creating Layer inception_4c/5x5
I0403 19:25:12.795369  9208 net.cpp:425] inception_4c/5x5 <- inception_4c/5x5_reduce
I0403 19:25:12.795390  9208 net.cpp:399] inception_4c/5x5 -> inception_4c/5x5
I0403 19:25:12.796638  9208 net.cpp:141] Setting up inception_4c/5x5
I0403 19:25:12.796665  9208 net.cpp:148] Top shape: 24 64 14 14 (301056)
I0403 19:25:12.796680  9208 net.cpp:156] Memory required for data: 1049767200
I0403 19:25:12.796699  9208 layer_factory.hpp:77] Creating layer inception_4c/relu_5x5
I0403 19:25:12.796720  9208 net.cpp:91] Creating Layer inception_4c/relu_5x5
I0403 19:25:12.796738  9208 net.cpp:425] inception_4c/relu_5x5 <- inception_4c/5x5
I0403 19:25:12.796756  9208 net.cpp:386] inception_4c/relu_5x5 -> inception_4c/5x5 (in-place)
I0403 19:25:12.797052  9208 net.cpp:141] Setting up inception_4c/relu_5x5
I0403 19:25:12.797078  9208 net.cpp:148] Top shape: 24 64 14 14 (301056)
I0403 19:25:12.797092  9208 net.cpp:156] Memory required for data: 1050971424
I0403 19:25:12.797107  9208 layer_factory.hpp:77] Creating layer inception_4c/pool
I0403 19:25:12.797129  9208 net.cpp:91] Creating Layer inception_4c/pool
I0403 19:25:12.797147  9208 net.cpp:425] inception_4c/pool <- inception_4b/output_inception_4b/output_0_split_3
I0403 19:25:12.797169  9208 net.cpp:399] inception_4c/pool -> inception_4c/pool
I0403 19:25:12.797241  9208 net.cpp:141] Setting up inception_4c/pool
I0403 19:25:12.797267  9208 net.cpp:148] Top shape: 24 512 14 14 (2408448)
I0403 19:25:12.797293  9208 net.cpp:156] Memory required for data: 1060605216
I0403 19:25:12.797308  9208 layer_factory.hpp:77] Creating layer inception_4c/pool_proj
I0403 19:25:12.797330  9208 net.cpp:91] Creating Layer inception_4c/pool_proj
I0403 19:25:12.797348  9208 net.cpp:425] inception_4c/pool_proj <- inception_4c/pool
I0403 19:25:12.797368  9208 net.cpp:399] inception_4c/pool_proj -> inception_4c/pool_proj
I0403 19:25:12.798617  9208 net.cpp:141] Setting up inception_4c/pool_proj
I0403 19:25:12.798650  9208 net.cpp:148] Top shape: 24 64 14 14 (301056)
I0403 19:25:12.798677  9208 net.cpp:156] Memory required for data: 1061809440
I0403 19:25:12.798696  9208 layer_factory.hpp:77] Creating layer inception_4c/relu_pool_proj
I0403 19:25:12.798714  9208 net.cpp:91] Creating Layer inception_4c/relu_pool_proj
I0403 19:25:12.798730  9208 net.cpp:425] inception_4c/relu_pool_proj <- inception_4c/pool_proj
I0403 19:25:12.798746  9208 net.cpp:386] inception_4c/relu_pool_proj -> inception_4c/pool_proj (in-place)
I0403 19:25:12.798935  9208 net.cpp:141] Setting up inception_4c/relu_pool_proj
I0403 19:25:12.798959  9208 net.cpp:148] Top shape: 24 64 14 14 (301056)
I0403 19:25:12.798974  9208 net.cpp:156] Memory required for data: 1063013664
I0403 19:25:12.798987  9208 layer_factory.hpp:77] Creating layer inception_4c/output
I0403 19:25:12.799003  9208 net.cpp:91] Creating Layer inception_4c/output
I0403 19:25:12.799018  9208 net.cpp:425] inception_4c/output <- inception_4c/1x1
I0403 19:25:12.799034  9208 net.cpp:425] inception_4c/output <- inception_4c/3x3
I0403 19:25:12.799051  9208 net.cpp:425] inception_4c/output <- inception_4c/5x5
I0403 19:25:12.799067  9208 net.cpp:425] inception_4c/output <- inception_4c/pool_proj
I0403 19:25:12.799085  9208 net.cpp:399] inception_4c/output -> inception_4c/output
I0403 19:25:12.799131  9208 net.cpp:141] Setting up inception_4c/output
I0403 19:25:12.799156  9208 net.cpp:148] Top shape: 24 512 14 14 (2408448)
I0403 19:25:12.799171  9208 net.cpp:156] Memory required for data: 1072647456
I0403 19:25:12.799187  9208 layer_factory.hpp:77] Creating layer inception_4c/output_inception_4c/output_0_split
I0403 19:25:12.799203  9208 net.cpp:91] Creating Layer inception_4c/output_inception_4c/output_0_split
I0403 19:25:12.799223  9208 net.cpp:425] inception_4c/output_inception_4c/output_0_split <- inception_4c/output
I0403 19:25:12.799242  9208 net.cpp:399] inception_4c/output_inception_4c/output_0_split -> inception_4c/output_inception_4c/output_0_split_0
I0403 19:25:12.799264  9208 net.cpp:399] inception_4c/output_inception_4c/output_0_split -> inception_4c/output_inception_4c/output_0_split_1
I0403 19:25:12.799284  9208 net.cpp:399] inception_4c/output_inception_4c/output_0_split -> inception_4c/output_inception_4c/output_0_split_2
I0403 19:25:12.799304  9208 net.cpp:399] inception_4c/output_inception_4c/output_0_split -> inception_4c/output_inception_4c/output_0_split_3
I0403 19:25:12.799391  9208 net.cpp:141] Setting up inception_4c/output_inception_4c/output_0_split
I0403 19:25:12.799412  9208 net.cpp:148] Top shape: 24 512 14 14 (2408448)
I0403 19:25:12.799428  9208 net.cpp:148] Top shape: 24 512 14 14 (2408448)
I0403 19:25:12.799443  9208 net.cpp:148] Top shape: 24 512 14 14 (2408448)
I0403 19:25:12.799458  9208 net.cpp:148] Top shape: 24 512 14 14 (2408448)
I0403 19:25:12.799473  9208 net.cpp:156] Memory required for data: 1111182624
I0403 19:25:12.799486  9208 layer_factory.hpp:77] Creating layer inception_4d/1x1
I0403 19:25:12.799513  9208 net.cpp:91] Creating Layer inception_4d/1x1
I0403 19:25:12.799530  9208 net.cpp:425] inception_4d/1x1 <- inception_4c/output_inception_4c/output_0_split_0
I0403 19:25:12.799551  9208 net.cpp:399] inception_4d/1x1 -> inception_4d/1x1
I0403 19:25:12.800941  9208 net.cpp:141] Setting up inception_4d/1x1
I0403 19:25:12.800968  9208 net.cpp:148] Top shape: 24 112 14 14 (526848)
I0403 19:25:12.800983  9208 net.cpp:156] Memory required for data: 1113290016
I0403 19:25:12.801002  9208 layer_factory.hpp:77] Creating layer inception_4d/relu_1x1
I0403 19:25:12.801022  9208 net.cpp:91] Creating Layer inception_4d/relu_1x1
I0403 19:25:12.801038  9208 net.cpp:425] inception_4d/relu_1x1 <- inception_4d/1x1
I0403 19:25:12.801054  9208 net.cpp:386] inception_4d/relu_1x1 -> inception_4d/1x1 (in-place)
I0403 19:25:12.801254  9208 net.cpp:141] Setting up inception_4d/relu_1x1
I0403 19:25:12.801292  9208 net.cpp:148] Top shape: 24 112 14 14 (526848)
I0403 19:25:12.801308  9208 net.cpp:156] Memory required for data: 1115397408
I0403 19:25:12.801323  9208 layer_factory.hpp:77] Creating layer inception_4d/3x3_reduce
I0403 19:25:12.801359  9208 net.cpp:91] Creating Layer inception_4d/3x3_reduce
I0403 19:25:12.801378  9208 net.cpp:425] inception_4d/3x3_reduce <- inception_4c/output_inception_4c/output_0_split_1
I0403 19:25:12.801398  9208 net.cpp:399] inception_4d/3x3_reduce -> inception_4d/3x3_reduce
I0403 19:25:12.802981  9208 net.cpp:141] Setting up inception_4d/3x3_reduce
I0403 19:25:12.803009  9208 net.cpp:148] Top shape: 24 144 14 14 (677376)
I0403 19:25:12.803025  9208 net.cpp:156] Memory required for data: 1118106912
I0403 19:25:12.803042  9208 layer_factory.hpp:77] Creating layer inception_4d/relu_3x3_reduce
I0403 19:25:12.803059  9208 net.cpp:91] Creating Layer inception_4d/relu_3x3_reduce
I0403 19:25:12.803076  9208 net.cpp:425] inception_4d/relu_3x3_reduce <- inception_4d/3x3_reduce
I0403 19:25:12.803094  9208 net.cpp:386] inception_4d/relu_3x3_reduce -> inception_4d/3x3_reduce (in-place)
I0403 19:25:12.803400  9208 net.cpp:141] Setting up inception_4d/relu_3x3_reduce
I0403 19:25:12.803426  9208 net.cpp:148] Top shape: 24 144 14 14 (677376)
I0403 19:25:12.803453  9208 net.cpp:156] Memory required for data: 1120816416
I0403 19:25:12.803469  9208 layer_factory.hpp:77] Creating layer inception_4d/3x3
I0403 19:25:12.803493  9208 net.cpp:91] Creating Layer inception_4d/3x3
I0403 19:25:12.803511  9208 net.cpp:425] inception_4d/3x3 <- inception_4d/3x3_reduce
I0403 19:25:12.803532  9208 net.cpp:399] inception_4d/3x3 -> inception_4d/3x3
I0403 19:25:12.807782  9208 net.cpp:141] Setting up inception_4d/3x3
I0403 19:25:12.807811  9208 net.cpp:148] Top shape: 24 288 14 14 (1354752)
I0403 19:25:12.807826  9208 net.cpp:156] Memory required for data: 1126235424
I0403 19:25:12.807843  9208 layer_factory.hpp:77] Creating layer inception_4d/relu_3x3
I0403 19:25:12.807863  9208 net.cpp:91] Creating Layer inception_4d/relu_3x3
I0403 19:25:12.807880  9208 net.cpp:425] inception_4d/relu_3x3 <- inception_4d/3x3
I0403 19:25:12.807896  9208 net.cpp:386] inception_4d/relu_3x3 -> inception_4d/3x3 (in-place)
I0403 19:25:12.808075  9208 net.cpp:141] Setting up inception_4d/relu_3x3
I0403 19:25:12.808101  9208 net.cpp:148] Top shape: 24 288 14 14 (1354752)
I0403 19:25:12.808116  9208 net.cpp:156] Memory required for data: 1131654432
I0403 19:25:12.808130  9208 layer_factory.hpp:77] Creating layer inception_4d/5x5_reduce
I0403 19:25:12.808158  9208 net.cpp:91] Creating Layer inception_4d/5x5_reduce
I0403 19:25:12.808176  9208 net.cpp:425] inception_4d/5x5_reduce <- inception_4c/output_inception_4c/output_0_split_2
I0403 19:25:12.808195  9208 net.cpp:399] inception_4d/5x5_reduce -> inception_4d/5x5_reduce
I0403 19:25:12.809350  9208 net.cpp:141] Setting up inception_4d/5x5_reduce
I0403 19:25:12.809381  9208 net.cpp:148] Top shape: 24 32 14 14 (150528)
I0403 19:25:12.809396  9208 net.cpp:156] Memory required for data: 1132256544
I0403 19:25:12.809414  9208 layer_factory.hpp:77] Creating layer inception_4d/relu_5x5_reduce
I0403 19:25:12.809433  9208 net.cpp:91] Creating Layer inception_4d/relu_5x5_reduce
I0403 19:25:12.809450  9208 net.cpp:425] inception_4d/relu_5x5_reduce <- inception_4d/5x5_reduce
I0403 19:25:12.809466  9208 net.cpp:386] inception_4d/relu_5x5_reduce -> inception_4d/5x5_reduce (in-place)
I0403 19:25:12.809667  9208 net.cpp:141] Setting up inception_4d/relu_5x5_reduce
I0403 19:25:12.809694  9208 net.cpp:148] Top shape: 24 32 14 14 (150528)
I0403 19:25:12.809708  9208 net.cpp:156] Memory required for data: 1132858656
I0403 19:25:12.809723  9208 layer_factory.hpp:77] Creating layer inception_4d/5x5
I0403 19:25:12.809744  9208 net.cpp:91] Creating Layer inception_4d/5x5
I0403 19:25:12.809762  9208 net.cpp:425] inception_4d/5x5 <- inception_4d/5x5_reduce
I0403 19:25:12.809778  9208 net.cpp:399] inception_4d/5x5 -> inception_4d/5x5
I0403 19:25:12.811281  9208 net.cpp:141] Setting up inception_4d/5x5
I0403 19:25:12.811310  9208 net.cpp:148] Top shape: 24 64 14 14 (301056)
I0403 19:25:12.811326  9208 net.cpp:156] Memory required for data: 1134062880
I0403 19:25:12.811344  9208 layer_factory.hpp:77] Creating layer inception_4d/relu_5x5
I0403 19:25:12.811375  9208 net.cpp:91] Creating Layer inception_4d/relu_5x5
I0403 19:25:12.811391  9208 net.cpp:425] inception_4d/relu_5x5 <- inception_4d/5x5
I0403 19:25:12.811411  9208 net.cpp:386] inception_4d/relu_5x5 -> inception_4d/5x5 (in-place)
I0403 19:25:12.811702  9208 net.cpp:141] Setting up inception_4d/relu_5x5
I0403 19:25:12.811730  9208 net.cpp:148] Top shape: 24 64 14 14 (301056)
I0403 19:25:12.811759  9208 net.cpp:156] Memory required for data: 1135267104
I0403 19:25:12.811775  9208 layer_factory.hpp:77] Creating layer inception_4d/pool
I0403 19:25:12.811797  9208 net.cpp:91] Creating Layer inception_4d/pool
I0403 19:25:12.811815  9208 net.cpp:425] inception_4d/pool <- inception_4c/output_inception_4c/output_0_split_3
I0403 19:25:12.811836  9208 net.cpp:399] inception_4d/pool -> inception_4d/pool
I0403 19:25:12.811902  9208 net.cpp:141] Setting up inception_4d/pool
I0403 19:25:12.811926  9208 net.cpp:148] Top shape: 24 512 14 14 (2408448)
I0403 19:25:12.811941  9208 net.cpp:156] Memory required for data: 1144900896
I0403 19:25:12.811967  9208 layer_factory.hpp:77] Creating layer inception_4d/pool_proj
I0403 19:25:12.811986  9208 net.cpp:91] Creating Layer inception_4d/pool_proj
I0403 19:25:12.812001  9208 net.cpp:425] inception_4d/pool_proj <- inception_4d/pool
I0403 19:25:12.812022  9208 net.cpp:399] inception_4d/pool_proj -> inception_4d/pool_proj
I0403 19:25:12.813866  9208 net.cpp:141] Setting up inception_4d/pool_proj
I0403 19:25:12.813897  9208 net.cpp:148] Top shape: 24 64 14 14 (301056)
I0403 19:25:12.813912  9208 net.cpp:156] Memory required for data: 1146105120
I0403 19:25:12.813930  9208 layer_factory.hpp:77] Creating layer inception_4d/relu_pool_proj
I0403 19:25:12.813951  9208 net.cpp:91] Creating Layer inception_4d/relu_pool_proj
I0403 19:25:12.813969  9208 net.cpp:425] inception_4d/relu_pool_proj <- inception_4d/pool_proj
I0403 19:25:12.813987  9208 net.cpp:386] inception_4d/relu_pool_proj -> inception_4d/pool_proj (in-place)
I0403 19:25:12.814172  9208 net.cpp:141] Setting up inception_4d/relu_pool_proj
I0403 19:25:12.814218  9208 net.cpp:148] Top shape: 24 64 14 14 (301056)
I0403 19:25:12.814234  9208 net.cpp:156] Memory required for data: 1147309344
I0403 19:25:12.814250  9208 layer_factory.hpp:77] Creating layer inception_4d/output
I0403 19:25:12.814267  9208 net.cpp:91] Creating Layer inception_4d/output
I0403 19:25:12.814283  9208 net.cpp:425] inception_4d/output <- inception_4d/1x1
I0403 19:25:12.814301  9208 net.cpp:425] inception_4d/output <- inception_4d/3x3
I0403 19:25:12.814316  9208 net.cpp:425] inception_4d/output <- inception_4d/5x5
I0403 19:25:12.814332  9208 net.cpp:425] inception_4d/output <- inception_4d/pool_proj
I0403 19:25:12.814349  9208 net.cpp:399] inception_4d/output -> inception_4d/output
I0403 19:25:12.814399  9208 net.cpp:141] Setting up inception_4d/output
I0403 19:25:12.814424  9208 net.cpp:148] Top shape: 24 528 14 14 (2483712)
I0403 19:25:12.814438  9208 net.cpp:156] Memory required for data: 1157244192
I0403 19:25:12.814458  9208 layer_factory.hpp:77] Creating layer inception_4d/output_inception_4d/output_0_split
I0403 19:25:12.814481  9208 net.cpp:91] Creating Layer inception_4d/output_inception_4d/output_0_split
I0403 19:25:12.814497  9208 net.cpp:425] inception_4d/output_inception_4d/output_0_split <- inception_4d/output
I0403 19:25:12.814514  9208 net.cpp:399] inception_4d/output_inception_4d/output_0_split -> inception_4d/output_inception_4d/output_0_split_0
I0403 19:25:12.814548  9208 net.cpp:399] inception_4d/output_inception_4d/output_0_split -> inception_4d/output_inception_4d/output_0_split_1
I0403 19:25:12.814568  9208 net.cpp:399] inception_4d/output_inception_4d/output_0_split -> inception_4d/output_inception_4d/output_0_split_2
I0403 19:25:12.814590  9208 net.cpp:399] inception_4d/output_inception_4d/output_0_split -> inception_4d/output_inception_4d/output_0_split_3
I0403 19:25:12.814611  9208 net.cpp:399] inception_4d/output_inception_4d/output_0_split -> inception_4d/output_inception_4d/output_0_split_4
I0403 19:25:12.814718  9208 net.cpp:141] Setting up inception_4d/output_inception_4d/output_0_split
I0403 19:25:12.814754  9208 net.cpp:148] Top shape: 24 528 14 14 (2483712)
I0403 19:25:12.814769  9208 net.cpp:148] Top shape: 24 528 14 14 (2483712)
I0403 19:25:12.814785  9208 net.cpp:148] Top shape: 24 528 14 14 (2483712)
I0403 19:25:12.814800  9208 net.cpp:148] Top shape: 24 528 14 14 (2483712)
I0403 19:25:12.814815  9208 net.cpp:148] Top shape: 24 528 14 14 (2483712)
I0403 19:25:12.814829  9208 net.cpp:156] Memory required for data: 1206918432
I0403 19:25:12.814843  9208 layer_factory.hpp:77] Creating layer loss2/ave_pool
I0403 19:25:12.814862  9208 net.cpp:91] Creating Layer loss2/ave_pool
I0403 19:25:12.814882  9208 net.cpp:425] loss2/ave_pool <- inception_4d/output_inception_4d/output_0_split_0
I0403 19:25:12.814900  9208 net.cpp:399] loss2/ave_pool -> loss2/ave_pool
I0403 19:25:12.815223  9208 net.cpp:141] Setting up loss2/ave_pool
I0403 19:25:12.815249  9208 net.cpp:148] Top shape: 24 528 4 4 (202752)
I0403 19:25:12.815264  9208 net.cpp:156] Memory required for data: 1207729440
I0403 19:25:12.815279  9208 layer_factory.hpp:77] Creating layer loss2/conv
I0403 19:25:12.815301  9208 net.cpp:91] Creating Layer loss2/conv
I0403 19:25:12.815320  9208 net.cpp:425] loss2/conv <- loss2/ave_pool
I0403 19:25:12.815340  9208 net.cpp:399] loss2/conv -> loss2/conv
I0403 19:25:12.817435  9208 net.cpp:141] Setting up loss2/conv
I0403 19:25:12.817471  9208 net.cpp:148] Top shape: 24 128 4 4 (49152)
I0403 19:25:12.817495  9208 net.cpp:156] Memory required for data: 1207926048
I0403 19:25:12.817518  9208 layer_factory.hpp:77] Creating layer loss2/relu_conv
I0403 19:25:12.817553  9208 net.cpp:91] Creating Layer loss2/relu_conv
I0403 19:25:12.817579  9208 net.cpp:425] loss2/relu_conv <- loss2/conv
I0403 19:25:12.817605  9208 net.cpp:386] loss2/relu_conv -> loss2/conv (in-place)
I0403 19:25:12.817912  9208 net.cpp:141] Setting up loss2/relu_conv
I0403 19:25:12.817944  9208 net.cpp:148] Top shape: 24 128 4 4 (49152)
I0403 19:25:12.817960  9208 net.cpp:156] Memory required for data: 1208122656
I0403 19:25:12.817980  9208 layer_factory.hpp:77] Creating layer loss2/fc
I0403 19:25:12.818004  9208 net.cpp:91] Creating Layer loss2/fc
I0403 19:25:12.818022  9208 net.cpp:425] loss2/fc <- loss2/conv
I0403 19:25:12.818045  9208 net.cpp:399] loss2/fc -> loss2/fc
I0403 19:25:12.837151  9208 net.cpp:141] Setting up loss2/fc
I0403 19:25:12.837226  9208 net.cpp:148] Top shape: 24 1024 (24576)
I0403 19:25:12.837245  9208 net.cpp:156] Memory required for data: 1208220960
I0403 19:25:12.837267  9208 layer_factory.hpp:77] Creating layer loss2/relu_fc
I0403 19:25:12.837290  9208 net.cpp:91] Creating Layer loss2/relu_fc
I0403 19:25:12.837308  9208 net.cpp:425] loss2/relu_fc <- loss2/fc
I0403 19:25:12.837327  9208 net.cpp:386] loss2/relu_fc -> loss2/fc (in-place)
I0403 19:25:12.837723  9208 net.cpp:141] Setting up loss2/relu_fc
I0403 19:25:12.837754  9208 net.cpp:148] Top shape: 24 1024 (24576)
I0403 19:25:12.837771  9208 net.cpp:156] Memory required for data: 1208319264
I0403 19:25:12.837787  9208 layer_factory.hpp:77] Creating layer loss2/drop_fc
I0403 19:25:12.837807  9208 net.cpp:91] Creating Layer loss2/drop_fc
I0403 19:25:12.837823  9208 net.cpp:425] loss2/drop_fc <- loss2/fc
I0403 19:25:12.837842  9208 net.cpp:386] loss2/drop_fc -> loss2/fc (in-place)
I0403 19:25:12.837898  9208 net.cpp:141] Setting up loss2/drop_fc
I0403 19:25:12.837923  9208 net.cpp:148] Top shape: 24 1024 (24576)
I0403 19:25:12.837937  9208 net.cpp:156] Memory required for data: 1208417568
I0403 19:25:12.837954  9208 layer_factory.hpp:77] Creating layer loss2/classifier_plantvillage
I0403 19:25:12.837975  9208 net.cpp:91] Creating Layer loss2/classifier_plantvillage
I0403 19:25:12.837993  9208 net.cpp:425] loss2/classifier_plantvillage <- loss2/fc
I0403 19:25:12.838012  9208 net.cpp:399] loss2/classifier_plantvillage -> loss2/classifier_plantvillage
I0403 19:25:12.838460  9208 net.cpp:141] Setting up loss2/classifier_plantvillage
I0403 19:25:12.838487  9208 net.cpp:148] Top shape: 24 38 (912)
I0403 19:25:12.838533  9208 net.cpp:156] Memory required for data: 1208421216
I0403 19:25:12.838553  9208 layer_factory.hpp:77] Creating layer loss2/classifier_plantvillage_loss2/classifier_plantvillage_0_split
I0403 19:25:12.838572  9208 net.cpp:91] Creating Layer loss2/classifier_plantvillage_loss2/classifier_plantvillage_0_split
I0403 19:25:12.838588  9208 net.cpp:425] loss2/classifier_plantvillage_loss2/classifier_plantvillage_0_split <- loss2/classifier_plantvillage
I0403 19:25:12.838610  9208 net.cpp:399] loss2/classifier_plantvillage_loss2/classifier_plantvillage_0_split -> loss2/classifier_plantvillage_loss2/classifier_plantvillage_0_split_0
I0403 19:25:12.838632  9208 net.cpp:399] loss2/classifier_plantvillage_loss2/classifier_plantvillage_0_split -> loss2/classifier_plantvillage_loss2/classifier_plantvillage_0_split_1
I0403 19:25:12.838654  9208 net.cpp:399] loss2/classifier_plantvillage_loss2/classifier_plantvillage_0_split -> loss2/classifier_plantvillage_loss2/classifier_plantvillage_0_split_2
I0403 19:25:12.838738  9208 net.cpp:141] Setting up loss2/classifier_plantvillage_loss2/classifier_plantvillage_0_split
I0403 19:25:12.838767  9208 net.cpp:148] Top shape: 24 38 (912)
I0403 19:25:12.838784  9208 net.cpp:148] Top shape: 24 38 (912)
I0403 19:25:12.838801  9208 net.cpp:148] Top shape: 24 38 (912)
I0403 19:25:12.838816  9208 net.cpp:156] Memory required for data: 1208432160
I0403 19:25:12.838831  9208 layer_factory.hpp:77] Creating layer inception_4e/1x1
I0403 19:25:12.838857  9208 net.cpp:91] Creating Layer inception_4e/1x1
I0403 19:25:12.838876  9208 net.cpp:425] inception_4e/1x1 <- inception_4d/output_inception_4d/output_0_split_1
I0403 19:25:12.838897  9208 net.cpp:399] inception_4e/1x1 -> inception_4e/1x1
I0403 19:25:12.840953  9208 net.cpp:141] Setting up inception_4e/1x1
I0403 19:25:12.840983  9208 net.cpp:148] Top shape: 24 256 14 14 (1204224)
I0403 19:25:12.840999  9208 net.cpp:156] Memory required for data: 1213249056
I0403 19:25:12.841019  9208 layer_factory.hpp:77] Creating layer inception_4e/relu_1x1
I0403 19:25:12.841037  9208 net.cpp:91] Creating Layer inception_4e/relu_1x1
I0403 19:25:12.841054  9208 net.cpp:425] inception_4e/relu_1x1 <- inception_4e/1x1
I0403 19:25:12.841074  9208 net.cpp:386] inception_4e/relu_1x1 -> inception_4e/1x1 (in-place)
I0403 19:25:12.841398  9208 net.cpp:141] Setting up inception_4e/relu_1x1
I0403 19:25:12.841428  9208 net.cpp:148] Top shape: 24 256 14 14 (1204224)
I0403 19:25:12.841456  9208 net.cpp:156] Memory required for data: 1218065952
I0403 19:25:12.841472  9208 layer_factory.hpp:77] Creating layer inception_4e/3x3_reduce
I0403 19:25:12.841498  9208 net.cpp:91] Creating Layer inception_4e/3x3_reduce
I0403 19:25:12.841526  9208 net.cpp:425] inception_4e/3x3_reduce <- inception_4d/output_inception_4d/output_0_split_2
I0403 19:25:12.841558  9208 net.cpp:399] inception_4e/3x3_reduce -> inception_4e/3x3_reduce
I0403 19:25:12.843895  9208 net.cpp:141] Setting up inception_4e/3x3_reduce
I0403 19:25:12.843929  9208 net.cpp:148] Top shape: 24 160 14 14 (752640)
I0403 19:25:12.843945  9208 net.cpp:156] Memory required for data: 1221076512
I0403 19:25:12.843962  9208 layer_factory.hpp:77] Creating layer inception_4e/relu_3x3_reduce
I0403 19:25:12.843981  9208 net.cpp:91] Creating Layer inception_4e/relu_3x3_reduce
I0403 19:25:12.843997  9208 net.cpp:425] inception_4e/relu_3x3_reduce <- inception_4e/3x3_reduce
I0403 19:25:12.844017  9208 net.cpp:386] inception_4e/relu_3x3_reduce -> inception_4e/3x3_reduce (in-place)
I0403 19:25:12.844216  9208 net.cpp:141] Setting up inception_4e/relu_3x3_reduce
I0403 19:25:12.844243  9208 net.cpp:148] Top shape: 24 160 14 14 (752640)
I0403 19:25:12.844256  9208 net.cpp:156] Memory required for data: 1224087072
I0403 19:25:12.844280  9208 layer_factory.hpp:77] Creating layer inception_4e/3x3
I0403 19:25:12.844303  9208 net.cpp:91] Creating Layer inception_4e/3x3
I0403 19:25:12.844321  9208 net.cpp:425] inception_4e/3x3 <- inception_4e/3x3_reduce
I0403 19:25:12.844342  9208 net.cpp:399] inception_4e/3x3 -> inception_4e/3x3
I0403 19:25:12.849792  9208 net.cpp:141] Setting up inception_4e/3x3
I0403 19:25:12.849858  9208 net.cpp:148] Top shape: 24 320 14 14 (1505280)
I0403 19:25:12.849880  9208 net.cpp:156] Memory required for data: 1230108192
I0403 19:25:12.849910  9208 layer_factory.hpp:77] Creating layer inception_4e/relu_3x3
I0403 19:25:12.849943  9208 net.cpp:91] Creating Layer inception_4e/relu_3x3
I0403 19:25:12.850002  9208 net.cpp:425] inception_4e/relu_3x3 <- inception_4e/3x3
I0403 19:25:12.850039  9208 net.cpp:386] inception_4e/relu_3x3 -> inception_4e/3x3 (in-place)
I0403 19:25:12.850412  9208 net.cpp:141] Setting up inception_4e/relu_3x3
I0403 19:25:12.850441  9208 net.cpp:148] Top shape: 24 320 14 14 (1505280)
I0403 19:25:12.850457  9208 net.cpp:156] Memory required for data: 1236129312
I0403 19:25:12.850472  9208 layer_factory.hpp:77] Creating layer inception_4e/5x5_reduce
I0403 19:25:12.850497  9208 net.cpp:91] Creating Layer inception_4e/5x5_reduce
I0403 19:25:12.850515  9208 net.cpp:425] inception_4e/5x5_reduce <- inception_4d/output_inception_4d/output_0_split_3
I0403 19:25:12.850553  9208 net.cpp:399] inception_4e/5x5_reduce -> inception_4e/5x5_reduce
I0403 19:25:12.851716  9208 net.cpp:141] Setting up inception_4e/5x5_reduce
I0403 19:25:12.851769  9208 net.cpp:148] Top shape: 24 32 14 14 (150528)
I0403 19:25:12.851796  9208 net.cpp:156] Memory required for data: 1236731424
I0403 19:25:12.851819  9208 layer_factory.hpp:77] Creating layer inception_4e/relu_5x5_reduce
I0403 19:25:12.851837  9208 net.cpp:91] Creating Layer inception_4e/relu_5x5_reduce
I0403 19:25:12.851861  9208 net.cpp:425] inception_4e/relu_5x5_reduce <- inception_4e/5x5_reduce
I0403 19:25:12.851881  9208 net.cpp:386] inception_4e/relu_5x5_reduce -> inception_4e/5x5_reduce (in-place)
I0403 19:25:12.852193  9208 net.cpp:141] Setting up inception_4e/relu_5x5_reduce
I0403 19:25:12.852229  9208 net.cpp:148] Top shape: 24 32 14 14 (150528)
I0403 19:25:12.852258  9208 net.cpp:156] Memory required for data: 1237333536
I0403 19:25:12.852274  9208 layer_factory.hpp:77] Creating layer inception_4e/5x5
I0403 19:25:12.852319  9208 net.cpp:91] Creating Layer inception_4e/5x5
I0403 19:25:12.852339  9208 net.cpp:425] inception_4e/5x5 <- inception_4e/5x5_reduce
I0403 19:25:12.852363  9208 net.cpp:399] inception_4e/5x5 -> inception_4e/5x5
I0403 19:25:12.854276  9208 net.cpp:141] Setting up inception_4e/5x5
I0403 19:25:12.854306  9208 net.cpp:148] Top shape: 24 128 14 14 (602112)
I0403 19:25:12.854322  9208 net.cpp:156] Memory required for data: 1239741984
I0403 19:25:12.854341  9208 layer_factory.hpp:77] Creating layer inception_4e/relu_5x5
I0403 19:25:12.854362  9208 net.cpp:91] Creating Layer inception_4e/relu_5x5
I0403 19:25:12.854378  9208 net.cpp:425] inception_4e/relu_5x5 <- inception_4e/5x5
I0403 19:25:12.854396  9208 net.cpp:386] inception_4e/relu_5x5 -> inception_4e/5x5 (in-place)
I0403 19:25:12.854600  9208 net.cpp:141] Setting up inception_4e/relu_5x5
I0403 19:25:12.854625  9208 net.cpp:148] Top shape: 24 128 14 14 (602112)
I0403 19:25:12.854640  9208 net.cpp:156] Memory required for data: 1242150432
I0403 19:25:12.854655  9208 layer_factory.hpp:77] Creating layer inception_4e/pool
I0403 19:25:12.854673  9208 net.cpp:91] Creating Layer inception_4e/pool
I0403 19:25:12.854689  9208 net.cpp:425] inception_4e/pool <- inception_4d/output_inception_4d/output_0_split_4
I0403 19:25:12.854710  9208 net.cpp:399] inception_4e/pool -> inception_4e/pool
I0403 19:25:12.854784  9208 net.cpp:141] Setting up inception_4e/pool
I0403 19:25:12.854807  9208 net.cpp:148] Top shape: 24 528 14 14 (2483712)
I0403 19:25:12.854821  9208 net.cpp:156] Memory required for data: 1252085280
I0403 19:25:12.854837  9208 layer_factory.hpp:77] Creating layer inception_4e/pool_proj
I0403 19:25:12.854861  9208 net.cpp:91] Creating Layer inception_4e/pool_proj
I0403 19:25:12.854878  9208 net.cpp:425] inception_4e/pool_proj <- inception_4e/pool
I0403 19:25:12.854897  9208 net.cpp:399] inception_4e/pool_proj -> inception_4e/pool_proj
I0403 19:25:12.856564  9208 net.cpp:141] Setting up inception_4e/pool_proj
I0403 19:25:12.856618  9208 net.cpp:148] Top shape: 24 128 14 14 (602112)
I0403 19:25:12.856634  9208 net.cpp:156] Memory required for data: 1254493728
I0403 19:25:12.856652  9208 layer_factory.hpp:77] Creating layer inception_4e/relu_pool_proj
I0403 19:25:12.856673  9208 net.cpp:91] Creating Layer inception_4e/relu_pool_proj
I0403 19:25:12.856690  9208 net.cpp:425] inception_4e/relu_pool_proj <- inception_4e/pool_proj
I0403 19:25:12.856708  9208 net.cpp:386] inception_4e/relu_pool_proj -> inception_4e/pool_proj (in-place)
I0403 19:25:12.857012  9208 net.cpp:141] Setting up inception_4e/relu_pool_proj
I0403 19:25:12.857038  9208 net.cpp:148] Top shape: 24 128 14 14 (602112)
I0403 19:25:12.857053  9208 net.cpp:156] Memory required for data: 1256902176
I0403 19:25:12.857070  9208 layer_factory.hpp:77] Creating layer inception_4e/output
I0403 19:25:12.857090  9208 net.cpp:91] Creating Layer inception_4e/output
I0403 19:25:12.857111  9208 net.cpp:425] inception_4e/output <- inception_4e/1x1
I0403 19:25:12.857127  9208 net.cpp:425] inception_4e/output <- inception_4e/3x3
I0403 19:25:12.857143  9208 net.cpp:425] inception_4e/output <- inception_4e/5x5
I0403 19:25:12.857159  9208 net.cpp:425] inception_4e/output <- inception_4e/pool_proj
I0403 19:25:12.857177  9208 net.cpp:399] inception_4e/output -> inception_4e/output
I0403 19:25:12.857234  9208 net.cpp:141] Setting up inception_4e/output
I0403 19:25:12.857261  9208 net.cpp:148] Top shape: 24 832 14 14 (3913728)
I0403 19:25:12.857276  9208 net.cpp:156] Memory required for data: 1272557088
I0403 19:25:12.857290  9208 layer_factory.hpp:77] Creating layer pool4/3x3_s2
I0403 19:25:12.857308  9208 net.cpp:91] Creating Layer pool4/3x3_s2
I0403 19:25:12.857324  9208 net.cpp:425] pool4/3x3_s2 <- inception_4e/output
I0403 19:25:12.857344  9208 net.cpp:399] pool4/3x3_s2 -> pool4/3x3_s2
I0403 19:25:12.857414  9208 net.cpp:141] Setting up pool4/3x3_s2
I0403 19:25:12.857441  9208 net.cpp:148] Top shape: 24 832 7 7 (978432)
I0403 19:25:12.857456  9208 net.cpp:156] Memory required for data: 1276470816
I0403 19:25:12.857471  9208 layer_factory.hpp:77] Creating layer pool4/3x3_s2_pool4/3x3_s2_0_split
I0403 19:25:12.857493  9208 net.cpp:91] Creating Layer pool4/3x3_s2_pool4/3x3_s2_0_split
I0403 19:25:12.857517  9208 net.cpp:425] pool4/3x3_s2_pool4/3x3_s2_0_split <- pool4/3x3_s2
I0403 19:25:12.857537  9208 net.cpp:399] pool4/3x3_s2_pool4/3x3_s2_0_split -> pool4/3x3_s2_pool4/3x3_s2_0_split_0
I0403 19:25:12.857558  9208 net.cpp:399] pool4/3x3_s2_pool4/3x3_s2_0_split -> pool4/3x3_s2_pool4/3x3_s2_0_split_1
I0403 19:25:12.857578  9208 net.cpp:399] pool4/3x3_s2_pool4/3x3_s2_0_split -> pool4/3x3_s2_pool4/3x3_s2_0_split_2
I0403 19:25:12.857597  9208 net.cpp:399] pool4/3x3_s2_pool4/3x3_s2_0_split -> pool4/3x3_s2_pool4/3x3_s2_0_split_3
I0403 19:25:12.857693  9208 net.cpp:141] Setting up pool4/3x3_s2_pool4/3x3_s2_0_split
I0403 19:25:12.857718  9208 net.cpp:148] Top shape: 24 832 7 7 (978432)
I0403 19:25:12.857735  9208 net.cpp:148] Top shape: 24 832 7 7 (978432)
I0403 19:25:12.857758  9208 net.cpp:148] Top shape: 24 832 7 7 (978432)
I0403 19:25:12.857774  9208 net.cpp:148] Top shape: 24 832 7 7 (978432)
I0403 19:25:12.857789  9208 net.cpp:156] Memory required for data: 1292125728
I0403 19:25:12.857803  9208 layer_factory.hpp:77] Creating layer inception_5a/1x1
I0403 19:25:12.857827  9208 net.cpp:91] Creating Layer inception_5a/1x1
I0403 19:25:12.857846  9208 net.cpp:425] inception_5a/1x1 <- pool4/3x3_s2_pool4/3x3_s2_0_split_0
I0403 19:25:12.857867  9208 net.cpp:399] inception_5a/1x1 -> inception_5a/1x1
I0403 19:25:12.860813  9208 net.cpp:141] Setting up inception_5a/1x1
I0403 19:25:12.860846  9208 net.cpp:148] Top shape: 24 256 7 7 (301056)
I0403 19:25:12.860862  9208 net.cpp:156] Memory required for data: 1293329952
I0403 19:25:12.860882  9208 layer_factory.hpp:77] Creating layer inception_5a/relu_1x1
I0403 19:25:12.860900  9208 net.cpp:91] Creating Layer inception_5a/relu_1x1
I0403 19:25:12.860915  9208 net.cpp:425] inception_5a/relu_1x1 <- inception_5a/1x1
I0403 19:25:12.860934  9208 net.cpp:386] inception_5a/relu_1x1 -> inception_5a/1x1 (in-place)
I0403 19:25:12.861264  9208 net.cpp:141] Setting up inception_5a/relu_1x1
I0403 19:25:12.861294  9208 net.cpp:148] Top shape: 24 256 7 7 (301056)
I0403 19:25:12.861310  9208 net.cpp:156] Memory required for data: 1294534176
I0403 19:25:12.861325  9208 layer_factory.hpp:77] Creating layer inception_5a/3x3_reduce
I0403 19:25:12.861347  9208 net.cpp:91] Creating Layer inception_5a/3x3_reduce
I0403 19:25:12.861366  9208 net.cpp:425] inception_5a/3x3_reduce <- pool4/3x3_s2_pool4/3x3_s2_0_split_1
I0403 19:25:12.861385  9208 net.cpp:399] inception_5a/3x3_reduce -> inception_5a/3x3_reduce
I0403 19:25:12.863943  9208 net.cpp:141] Setting up inception_5a/3x3_reduce
I0403 19:25:12.863973  9208 net.cpp:148] Top shape: 24 160 7 7 (188160)
I0403 19:25:12.863988  9208 net.cpp:156] Memory required for data: 1295286816
I0403 19:25:12.864006  9208 layer_factory.hpp:77] Creating layer inception_5a/relu_3x3_reduce
I0403 19:25:12.864027  9208 net.cpp:91] Creating Layer inception_5a/relu_3x3_reduce
I0403 19:25:12.864043  9208 net.cpp:425] inception_5a/relu_3x3_reduce <- inception_5a/3x3_reduce
I0403 19:25:12.864060  9208 net.cpp:386] inception_5a/relu_3x3_reduce -> inception_5a/3x3_reduce (in-place)
I0403 19:25:12.864253  9208 net.cpp:141] Setting up inception_5a/relu_3x3_reduce
I0403 19:25:12.864280  9208 net.cpp:148] Top shape: 24 160 7 7 (188160)
I0403 19:25:12.864295  9208 net.cpp:156] Memory required for data: 1296039456
I0403 19:25:12.864323  9208 layer_factory.hpp:77] Creating layer inception_5a/3x3
I0403 19:25:12.864346  9208 net.cpp:91] Creating Layer inception_5a/3x3
I0403 19:25:12.864364  9208 net.cpp:425] inception_5a/3x3 <- inception_5a/3x3_reduce
I0403 19:25:12.864383  9208 net.cpp:399] inception_5a/3x3 -> inception_5a/3x3
I0403 19:25:12.869614  9208 net.cpp:141] Setting up inception_5a/3x3
I0403 19:25:12.869644  9208 net.cpp:148] Top shape: 24 320 7 7 (376320)
I0403 19:25:12.869659  9208 net.cpp:156] Memory required for data: 1297544736
I0403 19:25:12.869680  9208 layer_factory.hpp:77] Creating layer inception_5a/relu_3x3
I0403 19:25:12.869699  9208 net.cpp:91] Creating Layer inception_5a/relu_3x3
I0403 19:25:12.869714  9208 net.cpp:425] inception_5a/relu_3x3 <- inception_5a/3x3
I0403 19:25:12.869731  9208 net.cpp:386] inception_5a/relu_3x3 -> inception_5a/3x3 (in-place)
I0403 19:25:12.870029  9208 net.cpp:141] Setting up inception_5a/relu_3x3
I0403 19:25:12.870057  9208 net.cpp:148] Top shape: 24 320 7 7 (376320)
I0403 19:25:12.870072  9208 net.cpp:156] Memory required for data: 1299050016
I0403 19:25:12.870087  9208 layer_factory.hpp:77] Creating layer inception_5a/5x5_reduce
I0403 19:25:12.870110  9208 net.cpp:91] Creating Layer inception_5a/5x5_reduce
I0403 19:25:12.870127  9208 net.cpp:425] inception_5a/5x5_reduce <- pool4/3x3_s2_pool4/3x3_s2_0_split_2
I0403 19:25:12.870146  9208 net.cpp:399] inception_5a/5x5_reduce -> inception_5a/5x5_reduce
I0403 19:25:12.871367  9208 net.cpp:141] Setting up inception_5a/5x5_reduce
I0403 19:25:12.871398  9208 net.cpp:148] Top shape: 24 32 7 7 (37632)
I0403 19:25:12.871414  9208 net.cpp:156] Memory required for data: 1299200544
I0403 19:25:12.871433  9208 layer_factory.hpp:77] Creating layer inception_5a/relu_5x5_reduce
I0403 19:25:12.871449  9208 net.cpp:91] Creating Layer inception_5a/relu_5x5_reduce
I0403 19:25:12.871466  9208 net.cpp:425] inception_5a/relu_5x5_reduce <- inception_5a/5x5_reduce
I0403 19:25:12.871484  9208 net.cpp:386] inception_5a/relu_5x5_reduce -> inception_5a/5x5_reduce (in-place)
I0403 19:25:12.871793  9208 net.cpp:141] Setting up inception_5a/relu_5x5_reduce
I0403 19:25:12.871819  9208 net.cpp:148] Top shape: 24 32 7 7 (37632)
I0403 19:25:12.871834  9208 net.cpp:156] Memory required for data: 1299351072
I0403 19:25:12.871847  9208 layer_factory.hpp:77] Creating layer inception_5a/5x5
I0403 19:25:12.871870  9208 net.cpp:91] Creating Layer inception_5a/5x5
I0403 19:25:12.871886  9208 net.cpp:425] inception_5a/5x5 <- inception_5a/5x5_reduce
I0403 19:25:12.871907  9208 net.cpp:399] inception_5a/5x5 -> inception_5a/5x5
I0403 19:25:12.873683  9208 net.cpp:141] Setting up inception_5a/5x5
I0403 19:25:12.873723  9208 net.cpp:148] Top shape: 24 128 7 7 (150528)
I0403 19:25:12.873739  9208 net.cpp:156] Memory required for data: 1299953184
I0403 19:25:12.873756  9208 layer_factory.hpp:77] Creating layer inception_5a/relu_5x5
I0403 19:25:12.873776  9208 net.cpp:91] Creating Layer inception_5a/relu_5x5
I0403 19:25:12.873792  9208 net.cpp:425] inception_5a/relu_5x5 <- inception_5a/5x5
I0403 19:25:12.873810  9208 net.cpp:386] inception_5a/relu_5x5 -> inception_5a/5x5 (in-place)
I0403 19:25:12.874004  9208 net.cpp:141] Setting up inception_5a/relu_5x5
I0403 19:25:12.874028  9208 net.cpp:148] Top shape: 24 128 7 7 (150528)
I0403 19:25:12.874042  9208 net.cpp:156] Memory required for data: 1300555296
I0403 19:25:12.874058  9208 layer_factory.hpp:77] Creating layer inception_5a/pool
I0403 19:25:12.874074  9208 net.cpp:91] Creating Layer inception_5a/pool
I0403 19:25:12.874090  9208 net.cpp:425] inception_5a/pool <- pool4/3x3_s2_pool4/3x3_s2_0_split_3
I0403 19:25:12.874110  9208 net.cpp:399] inception_5a/pool -> inception_5a/pool
I0403 19:25:12.874181  9208 net.cpp:141] Setting up inception_5a/pool
I0403 19:25:12.874204  9208 net.cpp:148] Top shape: 24 832 7 7 (978432)
I0403 19:25:12.874223  9208 net.cpp:156] Memory required for data: 1304469024
I0403 19:25:12.874238  9208 layer_factory.hpp:77] Creating layer inception_5a/pool_proj
I0403 19:25:12.874260  9208 net.cpp:91] Creating Layer inception_5a/pool_proj
I0403 19:25:12.874279  9208 net.cpp:425] inception_5a/pool_proj <- inception_5a/pool
I0403 19:25:12.874296  9208 net.cpp:399] inception_5a/pool_proj -> inception_5a/pool_proj
I0403 19:25:12.876611  9208 net.cpp:141] Setting up inception_5a/pool_proj
I0403 19:25:12.876641  9208 net.cpp:148] Top shape: 24 128 7 7 (150528)
I0403 19:25:12.876655  9208 net.cpp:156] Memory required for data: 1305071136
I0403 19:25:12.876673  9208 layer_factory.hpp:77] Creating layer inception_5a/relu_pool_proj
I0403 19:25:12.876693  9208 net.cpp:91] Creating Layer inception_5a/relu_pool_proj
I0403 19:25:12.876709  9208 net.cpp:425] inception_5a/relu_pool_proj <- inception_5a/pool_proj
I0403 19:25:12.876726  9208 net.cpp:386] inception_5a/relu_pool_proj -> inception_5a/pool_proj (in-place)
I0403 19:25:12.877024  9208 net.cpp:141] Setting up inception_5a/relu_pool_proj
I0403 19:25:12.877049  9208 net.cpp:148] Top shape: 24 128 7 7 (150528)
I0403 19:25:12.877064  9208 net.cpp:156] Memory required for data: 1305673248
I0403 19:25:12.877079  9208 layer_factory.hpp:77] Creating layer inception_5a/output
I0403 19:25:12.877099  9208 net.cpp:91] Creating Layer inception_5a/output
I0403 19:25:12.877115  9208 net.cpp:425] inception_5a/output <- inception_5a/1x1
I0403 19:25:12.877131  9208 net.cpp:425] inception_5a/output <- inception_5a/3x3
I0403 19:25:12.877147  9208 net.cpp:425] inception_5a/output <- inception_5a/5x5
I0403 19:25:12.877162  9208 net.cpp:425] inception_5a/output <- inception_5a/pool_proj
I0403 19:25:12.877178  9208 net.cpp:399] inception_5a/output -> inception_5a/output
I0403 19:25:12.877233  9208 net.cpp:141] Setting up inception_5a/output
I0403 19:25:12.877256  9208 net.cpp:148] Top shape: 24 832 7 7 (978432)
I0403 19:25:12.877271  9208 net.cpp:156] Memory required for data: 1309586976
I0403 19:25:12.877285  9208 layer_factory.hpp:77] Creating layer inception_5a/output_inception_5a/output_0_split
I0403 19:25:12.877302  9208 net.cpp:91] Creating Layer inception_5a/output_inception_5a/output_0_split
I0403 19:25:12.877317  9208 net.cpp:425] inception_5a/output_inception_5a/output_0_split <- inception_5a/output
I0403 19:25:12.877337  9208 net.cpp:399] inception_5a/output_inception_5a/output_0_split -> inception_5a/output_inception_5a/output_0_split_0
I0403 19:25:12.877358  9208 net.cpp:399] inception_5a/output_inception_5a/output_0_split -> inception_5a/output_inception_5a/output_0_split_1
I0403 19:25:12.877378  9208 net.cpp:399] inception_5a/output_inception_5a/output_0_split -> inception_5a/output_inception_5a/output_0_split_2
I0403 19:25:12.877398  9208 net.cpp:399] inception_5a/output_inception_5a/output_0_split -> inception_5a/output_inception_5a/output_0_split_3
I0403 19:25:12.877511  9208 net.cpp:141] Setting up inception_5a/output_inception_5a/output_0_split
I0403 19:25:12.877534  9208 net.cpp:148] Top shape: 24 832 7 7 (978432)
I0403 19:25:12.877552  9208 net.cpp:148] Top shape: 24 832 7 7 (978432)
I0403 19:25:12.877567  9208 net.cpp:148] Top shape: 24 832 7 7 (978432)
I0403 19:25:12.877581  9208 net.cpp:148] Top shape: 24 832 7 7 (978432)
I0403 19:25:12.877595  9208 net.cpp:156] Memory required for data: 1325241888
I0403 19:25:12.877609  9208 layer_factory.hpp:77] Creating layer inception_5b/1x1
I0403 19:25:12.877630  9208 net.cpp:91] Creating Layer inception_5b/1x1
I0403 19:25:12.877648  9208 net.cpp:425] inception_5b/1x1 <- inception_5a/output_inception_5a/output_0_split_0
I0403 19:25:12.877670  9208 net.cpp:399] inception_5b/1x1 -> inception_5b/1x1
I0403 19:25:12.881536  9208 net.cpp:141] Setting up inception_5b/1x1
I0403 19:25:12.881567  9208 net.cpp:148] Top shape: 24 384 7 7 (451584)
I0403 19:25:12.881594  9208 net.cpp:156] Memory required for data: 1327048224
I0403 19:25:12.881613  9208 layer_factory.hpp:77] Creating layer inception_5b/relu_1x1
I0403 19:25:12.881633  9208 net.cpp:91] Creating Layer inception_5b/relu_1x1
I0403 19:25:12.881649  9208 net.cpp:425] inception_5b/relu_1x1 <- inception_5b/1x1
I0403 19:25:12.881666  9208 net.cpp:386] inception_5b/relu_1x1 -> inception_5b/1x1 (in-place)
I0403 19:25:12.882279  9208 net.cpp:141] Setting up inception_5b/relu_1x1
I0403 19:25:12.882307  9208 net.cpp:148] Top shape: 24 384 7 7 (451584)
I0403 19:25:12.882320  9208 net.cpp:156] Memory required for data: 1328854560
I0403 19:25:12.882335  9208 layer_factory.hpp:77] Creating layer inception_5b/3x3_reduce
I0403 19:25:12.882357  9208 net.cpp:91] Creating Layer inception_5b/3x3_reduce
I0403 19:25:12.882375  9208 net.cpp:425] inception_5b/3x3_reduce <- inception_5a/output_inception_5a/output_0_split_1
I0403 19:25:12.882396  9208 net.cpp:399] inception_5b/3x3_reduce -> inception_5b/3x3_reduce
I0403 19:25:12.885069  9208 net.cpp:141] Setting up inception_5b/3x3_reduce
I0403 19:25:12.885099  9208 net.cpp:148] Top shape: 24 192 7 7 (225792)
I0403 19:25:12.885114  9208 net.cpp:156] Memory required for data: 1329757728
I0403 19:25:12.885133  9208 layer_factory.hpp:77] Creating layer inception_5b/relu_3x3_reduce
I0403 19:25:12.885152  9208 net.cpp:91] Creating Layer inception_5b/relu_3x3_reduce
I0403 19:25:12.885169  9208 net.cpp:425] inception_5b/relu_3x3_reduce <- inception_5b/3x3_reduce
I0403 19:25:12.885186  9208 net.cpp:386] inception_5b/relu_3x3_reduce -> inception_5b/3x3_reduce (in-place)
I0403 19:25:12.885401  9208 net.cpp:141] Setting up inception_5b/relu_3x3_reduce
I0403 19:25:12.885428  9208 net.cpp:148] Top shape: 24 192 7 7 (225792)
I0403 19:25:12.885444  9208 net.cpp:156] Memory required for data: 1330660896
I0403 19:25:12.885459  9208 layer_factory.hpp:77] Creating layer inception_5b/3x3
I0403 19:25:12.885481  9208 net.cpp:91] Creating Layer inception_5b/3x3
I0403 19:25:12.885499  9208 net.cpp:425] inception_5b/3x3 <- inception_5b/3x3_reduce
I0403 19:25:12.885519  9208 net.cpp:399] inception_5b/3x3 -> inception_5b/3x3
I0403 19:25:12.892384  9208 net.cpp:141] Setting up inception_5b/3x3
I0403 19:25:12.892416  9208 net.cpp:148] Top shape: 24 384 7 7 (451584)
I0403 19:25:12.892431  9208 net.cpp:156] Memory required for data: 1332467232
I0403 19:25:12.892448  9208 layer_factory.hpp:77] Creating layer inception_5b/relu_3x3
I0403 19:25:12.892469  9208 net.cpp:91] Creating Layer inception_5b/relu_3x3
I0403 19:25:12.892488  9208 net.cpp:425] inception_5b/relu_3x3 <- inception_5b/3x3
I0403 19:25:12.892505  9208 net.cpp:386] inception_5b/relu_3x3 -> inception_5b/3x3 (in-place)
I0403 19:25:12.892808  9208 net.cpp:141] Setting up inception_5b/relu_3x3
I0403 19:25:12.892834  9208 net.cpp:148] Top shape: 24 384 7 7 (451584)
I0403 19:25:12.892849  9208 net.cpp:156] Memory required for data: 1334273568
I0403 19:25:12.892864  9208 layer_factory.hpp:77] Creating layer inception_5b/5x5_reduce
I0403 19:25:12.892902  9208 net.cpp:91] Creating Layer inception_5b/5x5_reduce
I0403 19:25:12.892921  9208 net.cpp:425] inception_5b/5x5_reduce <- inception_5a/output_inception_5a/output_0_split_2
I0403 19:25:12.892943  9208 net.cpp:399] inception_5b/5x5_reduce -> inception_5b/5x5_reduce
I0403 19:25:12.894245  9208 net.cpp:141] Setting up inception_5b/5x5_reduce
I0403 19:25:12.894274  9208 net.cpp:148] Top shape: 24 48 7 7 (56448)
I0403 19:25:12.894301  9208 net.cpp:156] Memory required for data: 1334499360
I0403 19:25:12.894321  9208 layer_factory.hpp:77] Creating layer inception_5b/relu_5x5_reduce
I0403 19:25:12.894341  9208 net.cpp:91] Creating Layer inception_5b/relu_5x5_reduce
I0403 19:25:12.894359  9208 net.cpp:425] inception_5b/relu_5x5_reduce <- inception_5b/5x5_reduce
I0403 19:25:12.894376  9208 net.cpp:386] inception_5b/relu_5x5_reduce -> inception_5b/5x5_reduce (in-place)
I0403 19:25:12.894788  9208 net.cpp:141] Setting up inception_5b/relu_5x5_reduce
I0403 19:25:12.894814  9208 net.cpp:148] Top shape: 24 48 7 7 (56448)
I0403 19:25:12.894829  9208 net.cpp:156] Memory required for data: 1334725152
I0403 19:25:12.894845  9208 layer_factory.hpp:77] Creating layer inception_5b/5x5
I0403 19:25:12.894865  9208 net.cpp:91] Creating Layer inception_5b/5x5
I0403 19:25:12.894881  9208 net.cpp:425] inception_5b/5x5 <- inception_5b/5x5_reduce
I0403 19:25:12.894901  9208 net.cpp:399] inception_5b/5x5 -> inception_5b/5x5
I0403 19:25:12.896991  9208 net.cpp:141] Setting up inception_5b/5x5
I0403 19:25:12.897020  9208 net.cpp:148] Top shape: 24 128 7 7 (150528)
I0403 19:25:12.897037  9208 net.cpp:156] Memory required for data: 1335327264
I0403 19:25:12.897055  9208 layer_factory.hpp:77] Creating layer inception_5b/relu_5x5
I0403 19:25:12.897073  9208 net.cpp:91] Creating Layer inception_5b/relu_5x5
I0403 19:25:12.897089  9208 net.cpp:425] inception_5b/relu_5x5 <- inception_5b/5x5
I0403 19:25:12.897105  9208 net.cpp:386] inception_5b/relu_5x5 -> inception_5b/5x5 (in-place)
I0403 19:25:12.897310  9208 net.cpp:141] Setting up inception_5b/relu_5x5
I0403 19:25:12.897336  9208 net.cpp:148] Top shape: 24 128 7 7 (150528)
I0403 19:25:12.897349  9208 net.cpp:156] Memory required for data: 1335929376
I0403 19:25:12.897364  9208 layer_factory.hpp:77] Creating layer inception_5b/pool
I0403 19:25:12.897382  9208 net.cpp:91] Creating Layer inception_5b/pool
I0403 19:25:12.897397  9208 net.cpp:425] inception_5b/pool <- inception_5a/output_inception_5a/output_0_split_3
I0403 19:25:12.897418  9208 net.cpp:399] inception_5b/pool -> inception_5b/pool
I0403 19:25:12.897490  9208 net.cpp:141] Setting up inception_5b/pool
I0403 19:25:12.897516  9208 net.cpp:148] Top shape: 24 832 7 7 (978432)
I0403 19:25:12.897531  9208 net.cpp:156] Memory required for data: 1339843104
I0403 19:25:12.897546  9208 layer_factory.hpp:77] Creating layer inception_5b/pool_proj
I0403 19:25:12.897567  9208 net.cpp:91] Creating Layer inception_5b/pool_proj
I0403 19:25:12.897584  9208 net.cpp:425] inception_5b/pool_proj <- inception_5b/pool
I0403 19:25:12.897603  9208 net.cpp:399] inception_5b/pool_proj -> inception_5b/pool_proj
I0403 19:25:12.899926  9208 net.cpp:141] Setting up inception_5b/pool_proj
I0403 19:25:12.899960  9208 net.cpp:148] Top shape: 24 128 7 7 (150528)
I0403 19:25:12.899976  9208 net.cpp:156] Memory required for data: 1340445216
I0403 19:25:12.899994  9208 layer_factory.hpp:77] Creating layer inception_5b/relu_pool_proj
I0403 19:25:12.900014  9208 net.cpp:91] Creating Layer inception_5b/relu_pool_proj
I0403 19:25:12.900032  9208 net.cpp:425] inception_5b/relu_pool_proj <- inception_5b/pool_proj
I0403 19:25:12.900048  9208 net.cpp:386] inception_5b/relu_pool_proj -> inception_5b/pool_proj (in-place)
I0403 19:25:12.900355  9208 net.cpp:141] Setting up inception_5b/relu_pool_proj
I0403 19:25:12.900383  9208 net.cpp:148] Top shape: 24 128 7 7 (150528)
I0403 19:25:12.900399  9208 net.cpp:156] Memory required for data: 1341047328
I0403 19:25:12.900416  9208 layer_factory.hpp:77] Creating layer inception_5b/output
I0403 19:25:12.900436  9208 net.cpp:91] Creating Layer inception_5b/output
I0403 19:25:12.900466  9208 net.cpp:425] inception_5b/output <- inception_5b/1x1
I0403 19:25:12.900485  9208 net.cpp:425] inception_5b/output <- inception_5b/3x3
I0403 19:25:12.900501  9208 net.cpp:425] inception_5b/output <- inception_5b/5x5
I0403 19:25:12.900516  9208 net.cpp:425] inception_5b/output <- inception_5b/pool_proj
I0403 19:25:12.900532  9208 net.cpp:399] inception_5b/output -> inception_5b/output
I0403 19:25:12.900585  9208 net.cpp:141] Setting up inception_5b/output
I0403 19:25:12.900609  9208 net.cpp:148] Top shape: 24 1024 7 7 (1204224)
I0403 19:25:12.900625  9208 net.cpp:156] Memory required for data: 1345864224
I0403 19:25:12.900640  9208 layer_factory.hpp:77] Creating layer pool5/7x7_s1
I0403 19:25:12.900662  9208 net.cpp:91] Creating Layer pool5/7x7_s1
I0403 19:25:12.900682  9208 net.cpp:425] pool5/7x7_s1 <- inception_5b/output
I0403 19:25:12.900710  9208 net.cpp:399] pool5/7x7_s1 -> pool5/7x7_s1
I0403 19:25:12.900933  9208 net.cpp:141] Setting up pool5/7x7_s1
I0403 19:25:12.900961  9208 net.cpp:148] Top shape: 24 1024 1 1 (24576)
I0403 19:25:12.900977  9208 net.cpp:156] Memory required for data: 1345962528
I0403 19:25:12.900993  9208 layer_factory.hpp:77] Creating layer pool5/drop_7x7_s1
I0403 19:25:12.901023  9208 net.cpp:91] Creating Layer pool5/drop_7x7_s1
I0403 19:25:12.901038  9208 net.cpp:425] pool5/drop_7x7_s1 <- pool5/7x7_s1
I0403 19:25:12.901057  9208 net.cpp:386] pool5/drop_7x7_s1 -> pool5/7x7_s1 (in-place)
I0403 19:25:12.901110  9208 net.cpp:141] Setting up pool5/drop_7x7_s1
I0403 19:25:12.901134  9208 net.cpp:148] Top shape: 24 1024 1 1 (24576)
I0403 19:25:12.901149  9208 net.cpp:156] Memory required for data: 1346060832
I0403 19:25:12.901163  9208 layer_factory.hpp:77] Creating layer loss3/classifier_plantvillage
I0403 19:25:12.901185  9208 net.cpp:91] Creating Layer loss3/classifier_plantvillage
I0403 19:25:12.901202  9208 net.cpp:425] loss3/classifier_plantvillage <- pool5/7x7_s1
I0403 19:25:12.901227  9208 net.cpp:399] loss3/classifier_plantvillage -> loss3/classifier_plantvillage
I0403 19:25:12.901705  9208 net.cpp:141] Setting up loss3/classifier_plantvillage
I0403 19:25:12.901732  9208 net.cpp:148] Top shape: 24 38 (912)
I0403 19:25:12.901747  9208 net.cpp:156] Memory required for data: 1346064480
I0403 19:25:12.901767  9208 layer_factory.hpp:77] Creating layer loss3/classifier_plantvillage_loss3/classifier_plantvillage_0_split
I0403 19:25:12.901785  9208 net.cpp:91] Creating Layer loss3/classifier_plantvillage_loss3/classifier_plantvillage_0_split
I0403 19:25:12.901801  9208 net.cpp:425] loss3/classifier_plantvillage_loss3/classifier_plantvillage_0_split <- loss3/classifier_plantvillage
I0403 19:25:12.901825  9208 net.cpp:399] loss3/classifier_plantvillage_loss3/classifier_plantvillage_0_split -> loss3/classifier_plantvillage_loss3/classifier_plantvillage_0_split_0
I0403 19:25:12.901849  9208 net.cpp:399] loss3/classifier_plantvillage_loss3/classifier_plantvillage_0_split -> loss3/classifier_plantvillage_loss3/classifier_plantvillage_0_split_1
I0403 19:25:12.901870  9208 net.cpp:399] loss3/classifier_plantvillage_loss3/classifier_plantvillage_0_split -> loss3/classifier_plantvillage_loss3/classifier_plantvillage_0_split_2
I0403 19:25:12.901892  9208 net.cpp:399] loss3/classifier_plantvillage_loss3/classifier_plantvillage_0_split -> loss3/classifier_plantvillage_loss3/classifier_plantvillage_0_split_3
I0403 19:25:12.901998  9208 net.cpp:141] Setting up loss3/classifier_plantvillage_loss3/classifier_plantvillage_0_split
I0403 19:25:12.902024  9208 net.cpp:148] Top shape: 24 38 (912)
I0403 19:25:12.902041  9208 net.cpp:148] Top shape: 24 38 (912)
I0403 19:25:12.902058  9208 net.cpp:148] Top shape: 24 38 (912)
I0403 19:25:12.902076  9208 net.cpp:148] Top shape: 24 38 (912)
I0403 19:25:12.902091  9208 net.cpp:156] Memory required for data: 1346079072
I0403 19:25:12.902107  9208 layer_factory.hpp:77] Creating layer loss1/loss
I0403 19:25:12.902132  9208 net.cpp:91] Creating Layer loss1/loss
I0403 19:25:12.902151  9208 net.cpp:425] loss1/loss <- loss1/classifier_plantvillage_loss1/classifier_plantvillage_0_split_0
I0403 19:25:12.902185  9208 net.cpp:425] loss1/loss <- label_data_1_split_0
…
