…
I0403 19:21:38.975219  9147 net.cpp:313] The NetState phase (1) differed from the phase (0) specified by a rule in layer data
I0403 19:21:38.976372  9147 net.cpp:49] Initializing net from parameters: 
state {
  phase: TEST
}
layer {
  name: "data"
  type: "Data"
  top: "data"
  top: "label"
  include {
    phase: TEST
  }
  transform_param {
    mirror: false
    crop_size: 224
    mean_file: "/home/mohanty/data/final_dataset/lmdb/grayscale-50-50/mean.binaryproto"
  }
  data_param {
    source: "/home/mohanty/data/final_dataset/lmdb/grayscale-50-50/test_db"
    batch_size: 24
    backend: LMDB
  }
}
layer {
  name: "conv1/7x7_s2"
  type: "Convolution"
  bottom: "data"
  top: "conv1/7x7_s2"
  param {
    lr_mult: 1
    decay_mult: 1
  }
  param {
    lr_mult: 2
    decay_mult: 0
  }
  convolution_param {
    num_output: 64
    pad: 3
    kernel_size: 7
    stride: 2
    weight_filler {
      type: "xavier"
      std: 0.1
    }
    bias_filler {
      type: "constant"
      value: 0.2
    }
  }
}
layer {
  name: "conv1/relu_7x7"
  type: "ReLU"
  bottom: "conv1/7x7_s2"
  top: "conv1/7x7_s2"
}
layer {
  name: "pool1/3x3_s2"
  type: "Pooling"
  bottom: "conv1/7x7_s2"
  top: "pool1/3x3_s2"
  pooling_param {
    pool: MAX
    kernel_size: 3
    stride: 2
  }
}
layer {
  name: "pool1/norm1"
  type: "LRN"
  bottom: "pool1/3x3_s2"
  top: "pool1/norm1"
  lrn_param {
    local_size: 5
    alpha: 0.0001
    beta: 0.75
  }
}
layer {
  name: "conv2/3x3_reduce"
  type: "Convolution"
  bottom: "pool1/norm1"
  top: "conv2/3x3_reduce"
  param {
    lr_mult: 1
    decay_mult: 1
  }
  param {
    lr_mult: 2
    decay_mult: 0
  }
  convolution_param {
    num_output: 64
    kernel_size: 1
    weight_filler {
      type: "xavier"
      std: 0.1
    }
    bias_filler {
      type: "constant"
      value: 0.2
    }
  }
}
layer {
  name: "conv2/relu_3x3_reduce"
  type: "ReLU"
  bottom: "conv2/3x3_reduce"
  top: "conv2/3x3_reduce"
}
layer {
  name: "conv2/3x3"
  type: "Convolution"
  bottom: "conv2/3x3_reduce"
  top: "conv2/3x3"
  param {
    lr_mult: 1
    decay_mult: 1
  }
  param {
    lr_mult: 2
    decay_mult: 0
  }
  convolution_param {
    num_output: 192
    pad: 1
    kernel_size: 3
    weight_filler {
      type: "xavier"
      std: 0.03
    }
    bias_filler {
      type: "constant"
      value: 0.2
    }
  }
}
layer {
  name: "conv2/relu_3x3"
  type: "ReLU"
  bottom: "conv2/3x3"
  top: "conv2/3x3"
}
layer {
  name: "conv2/norm2"
  type: "LRN"
  bottom: "conv2/3x3"
  top: "conv2/norm2"
  lrn_param {
    local_size: 5
    alpha: 0.0001
    beta: 0.75
  }
}
layer {
  name: "pool2/3x3_s2"
  type: "Pooling"
  bottom: "conv2/norm2"
  top: "pool2/3x3_s2"
  pooling_param {
    pool: MAX
    kernel_size: 3
    stride: 2
  }
}
layer {
  name: "inception_3a/1x1"
  type: "Convolution"
  bottom: "pool2/3x3_s2"
  top: "inception_3a/1x1"
  param {
    lr_mult: 1
    decay_mult: 1
  }
  param {
    lr_mult: 2
    decay_mult: 0
  }
  convolution_param {
    num_output: 64
    kernel_size: 1
    weight_filler {
      type: "xavier"
      std: 0.03
    }
    bias_filler {
      type: "constant"
      value: 0.2
    }
  }
}
layer {
  name: "inception_3a/relu_1x1"
  type: "ReLU"
  bottom: "inception_3a/1x1"
  top: "inception_3a/1x1"
}
layer {
  name: "inception_3a/3x3_reduce"
  type: "Convolution"
  bottom: "pool2/3x3_s2"
  top: "inception_3a/3x3_reduce"
  param {
    lr_mult: 1
    decay_mult: 1
  }
  param {
    lr_mult: 2
    decay_mult: 0
  }
  convolution_param {
    num_output: 96
    kernel_size: 1
    weight_filler {
      type: "xavier"
      std: 0.09
    }
    bias_filler {
      type: "constant"
      value: 0.2
    }
  }
}
layer {
  name: "inception_3a/relu_3x3_reduce"
  type: "ReLU"
  bottom: "inception_3a/3x3_reduce"
  top: "inception_3a/3x3_reduce"
}
layer {
  name: "inception_3a/3x3"
  type: "Convolution"
  bottom: "inception_3a/3x3_reduce"
  top: "inception_3a/3x3"
  param {
    lr_mult: 1
    decay_mult: 1
  }
  param {
    lr_mult: 2
    decay_mult: 0
  }
  convolution_param {
    num_output: 128
    pad: 1
    kernel_size: 3
    weight_filler {
      type: "xavier"
      std: 0.03
    }
    bias_filler {
      type: "constant"
      value: 0.2
    }
  }
}
layer {
  name: "inception_3a/relu_3x3"
  type: "ReLU"
  bottom: "inception_3a/3x3"
  top: "inception_3a/3x3"
}
layer {
  name: "inception_3a/5x5_reduce"
  type: "Convolution"
  bottom: "pool2/3x3_s2"
  top: "inception_3a/5x5_reduce"
  param {
    lr_mult: 1
    decay_mult: 1
  }
  param {
    lr_mult: 2
    decay_mult: 0
  }
  convolution_param {
    num_output: 16
    kernel_size: 1
    weight_filler {
      type: "xavier"
      std: 0.2
    }
    bias_filler {
      type: "constant"
      value: 0.2
    }
  }
}
layer {
  name: "inception_3a/relu_5x5_reduce"
  type: "ReLU"
  bottom: "inception_3a/5x5_reduce"
  top: "inception_3a/5x5_reduce"
}
layer {
  name: "inception_3a/5x5"
  type: "Convolution"
  bottom: "inception_3a/5x5_reduce"
  top: "inception_3a/5x5"
  param {
    lr_mult: 1
    decay_mult: 1
  }
  param {
    lr_mult: 2
    decay_mult: 0
  }
  convolution_param {
    num_output: 32
    pad: 2
    kernel_size: 5
    weight_filler {
      type: "xavier"
      std: 0.03
    }
    bias_filler {
      type: "constant"
      value: 0.2
    }
  }
}
layer {
  name: "inception_3a/relu_5x5"
  type: "ReLU"
  bottom: "inception_3a/5x5"
  top: "inception_3a/5x5"
}
layer {
  name: "inception_3a/pool"
  type: "Pooling"
  bottom: "pool2/3x3_s2"
  top: "inception_3a/pool"
  pooling_param {
    pool: MAX
    kernel_size: 3
    stride: 1
    pad: 1
  }
}
layer {
  name: "inception_3a/pool_proj"
  type: "Convolution"
  bottom: "inception_3a/pool"
  top: "inception_3a/pool_proj"
  param {
    lr_mult: 1
    decay_mult: 1
  }
  param {
    lr_mult: 2
    decay_mult: 0
  }
  convolution_param {
    num_output: 32
    kernel_size: 1
    weight_filler {
      type: "xavier"
      std: 0.1
    }
    bias_filler {
      type: "constant"
      value: 0.2
    }
  }
}
layer {
  name: "inception_3a/relu_pool_proj"
  type: "ReLU"
  bottom: "inception_3a/pool_proj"
  top: "inception_3a/pool_proj"
}
layer {
  name: "inception_3a/output"
  type: "Concat"
  bottom: "inception_3a/1x1"
  bottom: "inception_3a/3x3"
  bottom: "inception_3a/5x5"
  bottom: "inception_3a/pool_proj"
  top: "inception_3a/output"
}
layer {
  name: "inception_3b/1x1"
  type: "Convolution"
  bottom: "inception_3a/output"
  top: "inception_3b/1x1"
  param {
    lr_mult: 1
    decay_mult: 1
  }
  param {
    lr_mult: 2
    decay_mult: 0
  }
  convolution_param {
    num_output: 128
    kernel_size: 1
    weight_filler {
      type: "xavier"
      std: 0.03
    }
    bias_filler {
      type: "constant"
      value: 0.2
    }
  }
}
layer {
  name: "inception_3b/relu_1x1"
  type: "ReLU"
  bottom: "inception_3b/1x1"
  top: "inception_3b/1x1"
}
layer {
  name: "inception_3b/3x3_reduce"
  type: "Convolution"
  bottom: "inception_3a/output"
  top: "inception_3b/3x3_reduce"
  param {
    lr_mult: 1
    decay_mult: 1
  }
  param {
    lr_mult: 2
    decay_mult: 0
  }
  convolution_param {
    num_output: 128
    kernel_size: 1
    weight_filler {
      type: "xavier"
      std: 0.09
    }
    bias_filler {
      type: "constant"
      value: 0.2
    }
  }
}
layer {
  name: "inception_3b/relu_3x3_reduce"
  type: "ReLU"
  bottom: "inception_3b/3x3_reduce"
  top: "inception_3b/3x3_reduce"
}
layer {
  name: "inception_3b/3x3"
  type: "Convolution"
  bottom: "inception_3b/3x3_reduce"
  top: "inception_3b/3x3"
  param {
    lr_mult: 1
    decay_mult: 1
  }
  param {
    lr_mult: 2
    decay_mult: 0
  }
  convolution_param {
    num_output: 192
    pad: 1
    kernel_size: 3
    weight_filler {
      type: "xavier"
      std: 0.03
    }
    bias_filler {
      type: "constant"
      value: 0.2
    }
  }
}
layer {
  name: "inception_3b/relu_3x3"
  type: "ReLU"
  bottom: "inception_3b/3x3"
  top: "inception_3b/3x3"
}
layer {
  name: "inception_3b/5x5_reduce"
  type: "Convolution"
  bottom: "inception_3a/output"
  top: "inception_3b/5x5_reduce"
  param {
    lr_mult: 1
    decay_mult: 1
  }
  param {
    lr_mult: 2
    decay_mult: 0
  }
  convolution_param {
    num_output: 32
    kernel_size: 1
    weight_filler {
      type: "xavier"
      std: 0.2
    }
    bias_filler {
      type: "constant"
      value: 0.2
    }
  }
}
layer {
  name: "inception_3b/relu_5x5_reduce"
  type: "ReLU"
  bottom: "inception_3b/5x5_reduce"
  top: "inception_3b/5x5_reduce"
}
layer {
  name: "inception_3b/5x5"
  type: "Convolution"
  bottom: "inception_3b/5x5_reduce"
  top: "inception_3b/5x5"
  param {
    lr_mult: 1
    decay_mult: 1
  }
  param {
    lr_mult: 2
    decay_mult: 0
  }
  convolution_param {
    num_output: 96
    pad: 2
    kernel_size: 5
    weight_filler {
      type: "xavier"
      std: 0.03
    }
    bias_filler {
      type: "constant"
      value: 0.2
    }
  }
}
layer {
  name: "inception_3b/relu_5x5"
  type: "ReLU"
  bottom: "inception_3b/5x5"
  top: "inception_3b/5x5"
}
layer {
  name: "inception_3b/pool"
  type: "Pooling"
  bottom: "inception_3a/output"
  top: "inception_3b/pool"
  pooling_param {
    pool: MAX
    kernel_size: 3
    stride: 1
    pad: 1
  }
}
layer {
  name: "inception_3b/pool_proj"
  type: "Convolution"
  bottom: "inception_3b/pool"
  top: "inception_3b/pool_proj"
  param {
    lr_mult: 1
    decay_mult: 1
  }
  param {
    lr_mult: 2
    decay_mult: 0
  }
  convolution_param {
    num_output: 64
    kernel_size: 1
    weight_filler {
      type: "xavier"
      std: 0.1
    }
    bias_filler {
      type: "constant"
      value: 0.2
    }
  }
}
layer {
  name: "inception_3b/relu_pool_proj"
  type: "ReLU"
  bottom: "inception_3b/pool_proj"
  top: "inception_3b/pool_proj"
}
layer {
  name: "inception_3b/output"
  type: "Concat"
  bottom: "inception_3b/1x1"
  bottom: "inception_3b/3x3"
  bottom: "inception_3b/5x5"
  bottom: "inception_3b/pool_proj"
  top: "inception_3b/output"
}
layer {
  name: "pool3/3x3_s2"
  type: "Pooling"
  bottom: "inception_3b/output"
  top: "pool3/3x3_s2"
  pooling_param {
    pool: MAX
    kernel_size: 3
    stride: 2
  }
}
layer {
  name: "inception_4a/1x1"
  type: "Convolution"
  bottom: "pool3/3x3_s2"
  top: "inception_4a/1x1"
  param {
    lr_mult: 1
    decay_mult: 1
  }
  param {
    lr_mult: 2
    decay_mult: 0
  }
  convolution_param {
    num_output: 192
    kernel_size: 1
    weight_filler {
      type: "xavier"
      std: 0.03
    }
    bias_filler {
      type: "constant"
      value: 0.2
    }
  }
}
layer {
  name: "inception_4a/relu_1x1"
  type: "ReLU"
  bottom: "inception_4a/1x1"
  top: "inception_4a/1x1"
}
layer {
  name: "inception_4a/3x3_reduce"
  type: "Convolution"
  bottom: "pool3/3x3_s2"
  top: "inception_4a/3x3_reduce"
  param {
    lr_mult: 1
    decay_mult: 1
  }
  param {
    lr_mult: 2
    decay_mult: 0
  }
  convolution_param {
    num_output: 96
    kernel_size: 1
    weight_filler {
      type: "xavier"
      std: 0.09
    }
    bias_filler {
      type: "constant"
      value: 0.2
    }
  }
}
layer {
  name: "inception_4a/relu_3x3_reduce"
  type: "ReLU"
  bottom: "inception_4a/3x3_reduce"
  top: "inception_4a/3x3_reduce"
}
layer {
  name: "inception_4a/3x3"
  type: "Convolution"
  bottom: "inception_4a/3x3_reduce"
  top: "inception_4a/3x3"
  param {
    lr_mult: 1
    decay_mult: 1
  }
  param {
    lr_mult: 2
    decay_mult: 0
  }
  convolution_param {
    num_output: 208
    pad: 1
    kernel_size: 3
    weight_filler {
      type: "xavier"
      std: 0.03
    }
    bias_filler {
      type: "constant"
      value: 0.2
    }
  }
}
layer {
  name: "inception_4a/relu_3x3"
  type: "ReLU"
  bottom: "inception_4a/3x3"
  top: "inception_4a/3x3"
}
layer {
  name: "inception_4a/5x5_reduce"
  type: "Convolution"
  bottom: "pool3/3x3_s2"
  top: "inception_4a/5x5_reduce"
  param {
    lr_mult: 1
    decay_mult: 1
  }
  param {
    lr_mult: 2
    decay_mult: 0
  }
  convolution_param {
    num_output: 16
    kernel_size: 1
    weight_filler {
      type: "xavier"
      std: 0.2
    }
    bias_filler {
      type: "constant"
      value: 0.2
    }
  }
}
layer {
  name: "inception_4a/relu_5x5_reduce"
  type: "ReLU"
  bottom: "inception_4a/5x5_reduce"
  top: "inception_4a/5x5_reduce"
}
layer {
  name: "inception_4a/5x5"
  type: "Convolution"
  bottom: "inception_4a/5x5_reduce"
  top: "inception_4a/5x5"
  param {
    lr_mult: 1
    decay_mult: 1
  }
  param {
    lr_mult: 2
    decay_mult: 0
  }
  convolution_param {
    num_output: 48
    pad: 2
    kernel_size: 5
    weight_filler {
      type: "xavier"
      std: 0.03
    }
    bias_filler {
      type: "constant"
      value: 0.2
    }
  }
}
layer {
  name: "inception_4a/relu_5x5"
  type: "ReLU"
  bottom: "inception_4a/5x5"
  top: "inception_4a/5x5"
}
layer {
  name: "inception_4a/pool"
  type: "Pooling"
  bottom: "pool3/3x3_s2"
  top: "inception_4a/pool"
  pooling_param {
    pool: MAX
    kernel_size: 3
    stride: 1
    pad: 1
  }
}
layer {
  name: "inception_4a/pool_proj"
  type: "Convolution"
  bottom: "inception_4a/pool"
  top: "inception_4a/pool_proj"
  param {
    lr_mult: 1
    decay_mult: 1
  }
  param {
    lr_mult: 2
    decay_mult: 0
  }
  convolution_param {
    num_output: 64
    kernel_size: 1
    weight_filler {
      type: "xavier"
      std: 0.1
    }
    bias_filler {
      type: "constant"
      value: 0.2
    }
  }
}
layer {
  name: "inception_4a/relu_pool_proj"
  type: "ReLU"
  bottom: "inception_4a/pool_proj"
  top: "inception_4a/pool_proj"
}
layer {
  name: "inception_4a/output"
  type: "Concat"
  bottom: "inception_4a/1x1"
  bottom: "inception_4a/3x3"
  bottom: "inception_4a/5x5"
  bottom: "inception_4a/pool_proj"
  top: "inception_4a/output"
}
layer {
  name: "loss1/ave_pool"
  type: "Pooling"
  bottom: "inception_4a/output"
  top: "loss1/ave_pool"
  pooling_param {
    pool: AVE
    kernel_size: 5
    stride: 3
  }
}
layer {
  name: "loss1/conv"
  type: "Convolution"
  bottom: "loss1/ave_pool"
  top: "loss1/conv"
  param {
    lr_mult: 1
    decay_mult: 1
  }
  param {
    lr_mult: 2
    decay_mult: 0
  }
  convolution_param {
    num_output: 128
    kernel_size: 1
    weight_filler {
      type: "xavier"
      std: 0.08
    }
    bias_filler {
      type: "constant"
      value: 0.2
    }
  }
}
layer {
  name: "loss1/relu_conv"
  type: "ReLU"
  bottom: "loss1/conv"
  top: "loss1/conv"
}
layer {
  name: "loss1/fc"
  type: "InnerProduct"
  bottom: "loss1/conv"
  top: "loss1/fc"
  param {
    lr_mult: 1
    decay_mult: 1
  }
  param {
    lr_mult: 2
    decay_mult: 0
  }
  inner_product_param {
    num_output: 1024
    weight_filler {
      type: "xavier"
      std: 0.02
    }
    bias_filler {
      type: "constant"
      value: 0.2
    }
  }
}
layer {
  name: "loss1/relu_fc"
  type: "ReLU"
  bottom: "loss1/fc"
  top: "loss1/fc"
}
layer {
  name: "loss1/drop_fc"
  type: "Dropout"
  bottom: "loss1/fc"
  top: "loss1/fc"
  dropout_param {
    dropout_ratio: 0.7
  }
}
layer {
  name: "loss1/classifier_plantvillage"
  type: "InnerProduct"
  bottom: "loss1/fc"
  top: "loss1/classifier_plantvillage"
  param {
    lr_mult: 1
    decay_mult: 1
  }
  param {
    lr_mult: 2
    decay_mult: 0
  }
  inner_product_param {
    num_output: 38
    weight_filler {
      type: "xavier"
      std: 0.0009765625
    }
    bias_filler {
      type: "constant"
      value: 0
    }
  }
}
layer {
  name: "inception_4b/1x1"
  type: "Convolution"
  bottom: "inception_4a/output"
  top: "inception_4b/1x1"
  param {
    lr_mult: 1
    decay_mult: 1
  }
  param {
    lr_mult: 2
    decay_mult: 0
  }
  convolution_param {
    num_output: 160
    kernel_size: 1
    weight_filler {
      type: "xavier"
      std: 0.03
    }
    bias_filler {
      type: "constant"
      value: 0.2
    }
  }
}
layer {
  name: "inception_4b/relu_1x1"
  type: "ReLU"
  bottom: "inception_4b/1x1"
  top: "inception_4b/1x1"
}
layer {
  name: "inception_4b/3x3_reduce"
  type: "Convolution"
  bottom: "inception_4a/output"
  top: "inception_4b/3x3_reduce"
  param {
    lr_mult: 1
    decay_mult: 1
  }
  param {
    lr_mult: 2
    decay_mult: 0
  }
  convolution_param {
    num_output: 112
    kernel_size: 1
    weight_filler {
      type: "xavier"
      std: 0.09
    }
    bias_filler {
      type: "constant"
      value: 0.2
    }
  }
}
layer {
  name: "inception_4b/relu_3x3_reduce"
  type: "ReLU"
  bottom: "inception_4b/3x3_reduce"
  top: "inception_4b/3x3_reduce"
}
layer {
  name: "inception_4b/3x3"
  type: "Convolution"
  bottom: "inception_4b/3x3_reduce"
  top: "inception_4b/3x3"
  param {
    lr_mult: 1
    decay_mult: 1
  }
  param {
    lr_mult: 2
    decay_mult: 0
  }
  convolution_param {
    num_output: 224
    pad: 1
    kernel_size: 3
    weight_filler {
      type: "xavier"
      std: 0.03
    }
    bias_filler {
      type: "constant"
      value: 0.2
    }
  }
}
layer {
  name: "inception_4b/relu_3x3"
  type: "ReLU"
  bottom: "inception_4b/3x3"
  top: "inception_4b/3x3"
}
layer {
  name: "inception_4b/5x5_reduce"
  type: "Convolution"
  bottom: "inception_4a/output"
  top: "inception_4b/5x5_reduce"
  param {
    lr_mult: 1
    decay_mult: 1
  }
  param {
    lr_mult: 2
    decay_mult: 0
  }
  convolution_param {
    num_output: 24
    kernel_size: 1
    weight_filler {
      type: "xavier"
      std: 0.2
    }
    bias_filler {
      type: "constant"
      value: 0.2
    }
  }
}
layer {
  name: "inception_4b/relu_5x5_reduce"
  type: "ReLU"
  bottom: "inception_4b/5x5_reduce"
  top: "inception_4b/5x5_reduce"
}
layer {
  name: "inception_4b/5x5"
  type: "Convolution"
  bottom: "inception_4b/5x5_reduce"
  top: "inception_4b/5x5"
  param {
    lr_mult: 1
    decay_mult: 1
  }
  param {
    lr_mult: 2
    decay_mult: 0
  }
  convolution_param {
    num_output: 64
    pad: 2
    kernel_size: 5
    weight_filler {
      type: "xavier"
      std: 0.03
    }
    bias_filler {
      type: "constant"
      value: 0.2
    }
  }
}
layer {
  name: "inception_4b/relu_5x5"
  type: "ReLU"
  bottom: "inception_4b/5x5"
  top: "inception_4b/5x5"
}
layer {
  name: "inception_4b/pool"
  type: "Pooling"
  bottom: "inception_4a/output"
  top: "inception_4b/pool"
  pooling_param {
    pool: MAX
    kernel_size: 3
    stride: 1
    pad: 1
  }
}
layer {
  name: "inception_4b/pool_proj"
  type: "Convolution"
  bottom: "inception_4b/pool"
  top: "inception_4b/pool_proj"
  param {
    lr_mult: 1
    decay_mult: 1
  }
  param {
    lr_mult: 2
    decay_mult: 0
  }
  convolution_param {
    num_output: 64
    kernel_size: 1
    weight_filler {
      type: "xavier"
      std: 0.1
    }
    bias_filler {
      type: "constant"
      value: 0.2
    }
  }
}
layer {
  name: "inception_4b/relu_pool_proj"
  type: "ReLU"
  bottom: "inception_4b/pool_proj"
  top: "inception_4b/pool_proj"
}
layer {
  name: "inception_4b/output"
  type: "Concat"
  bottom: "inception_4b/1x1"
  bottom: "inception_4b/3x3"
  bottom: "inception_4b/5x5"
  bottom: "inception_4b/pool_proj"
  top: "inception_4b/output"
}
layer {
  name: "inception_4c/1x1"
  type: "Convolution"
  bottom: "inception_4b/output"
  top: "inception_4c/1x1"
  param {
    lr_mult: 1
    decay_mult: 1
  }
  param {
    lr_mult: 2
    decay_mult: 0
  }
  convolution_param {
    num_output: 128
    kernel_size: 1
    weight_filler {
      type: "xavier"
      std: 0.03
    }
    bias_filler {
      type: "constant"
      value: 0.2
    }
  }
}
layer {
  name: "inception_4c/relu_1x1"
  type: "ReLU"
  bottom: "inception_4c/1x1"
  top: "inception_4c/1x1"
}
layer {
  name: "inception_4c/3x3_reduce"
  type: "Convolution"
  bottom: "inception_4b/output"
  top: "inception_4c/3x3_reduce"
  param {
    lr_mult: 1
    decay_mult: 1
  }
  param {
    lr_mult: 2
    decay_mult: 0
  }
  convolution_param {
    num_output: 128
    kernel_size: 1
    weight_filler {
      type: "xavier"
      std: 0.09
    }
    bias_filler {
      type: "constant"
      value: 0.2
    }
  }
}
layer {
  name: "inception_4c/relu_3x3_reduce"
  type: "ReLU"
  bottom: "inception_4c/3x3_reduce"
  top: "inception_4c/3x3_reduce"
}
layer {
  name: "inception_4c/3x3"
  type: "Convolution"
  bottom: "inception_4c/3x3_reduce"
  top: "inception_4c/3x3"
  param {
    lr_mult: 1
    decay_mult: 1
  }
  param {
    lr_mult: 2
    decay_mult: 0
  }
  convolution_param {
    num_output: 256
    pad: 1
    kernel_size: 3
    weight_filler {
      type: "xavier"
      std: 0.03
    }
    bias_filler {
      type: "constant"
      value: 0.2
    }
  }
}
layer {
  name: "inception_4c/relu_3x3"
  type: "ReLU"
  bottom: "inception_4c/3x3"
  top: "inception_4c/3x3"
}
layer {
  name: "inception_4c/5x5_reduce"
  type: "Convolution"
  bottom: "inception_4b/output"
  top: "inception_4c/5x5_reduce"
  param {
    lr_mult: 1
    decay_mult: 1
  }
  param {
    lr_mult: 2
    decay_mult: 0
  }
  convolution_param {
    num_output: 24
    kernel_size: 1
    weight_filler {
      type: "xavier"
      std: 0.2
    }
    bias_filler {
      type: "constant"
      value: 0.2
    }
  }
}
layer {
  name: "inception_4c/relu_5x5_reduce"
  type: "ReLU"
  bottom: "inception_4c/5x5_reduce"
  top: "inception_4c/5x5_reduce"
}
layer {
  name: "inception_4c/5x5"
  type: "Convolution"
  bottom: "inception_4c/5x5_reduce"
  top: "inception_4c/5x5"
  param {
    lr_mult: 1
    decay_mult: 1
  }
  param {
    lr_mult: 2
    decay_mult: 0
  }
  convolution_param {
    num_output: 64
    pad: 2
    kernel_size: 5
    weight_filler {
      type: "xavier"
      std: 0.03
    }
    bias_filler {
      type: "constant"
      value: 0.2
    }
  }
}
layer {
  name: "inception_4c/relu_5x5"
  type: "ReLU"
  bottom: "inception_4c/5x5"
  top: "inception_4c/5x5"
}
layer {
  name: "inception_4c/pool"
  type: "Pooling"
  bottom: "inception_4b/output"
  top: "inception_4c/pool"
  pooling_param {
    pool: MAX
    kernel_size: 3
    stride: 1
    pad: 1
  }
}
layer {
  name: "inception_4c/pool_proj"
  type: "Convolution"
  bottom: "inception_4c/pool"
  top: "inception_4c/pool_proj"
  param {
    lr_mult: 1
    decay_mult: 1
  }
  param {
    lr_mult: 2
    decay_mult: 0
  }
  convolution_param {
    num_output: 64
    kernel_size: 1
    weight_filler {
      type: "xavier"
      std: 0.1
    }
    bias_filler {
      type: "constant"
      value: 0.2
    }
  }
}
layer {
  name: "inception_4c/relu_pool_proj"
  type: "ReLU"
  bottom: "inception_4c/pool_proj"
  top: "inception_4c/pool_proj"
}
layer {
  name: "inception_4c/output"
  type: "Concat"
  bottom: "inception_4c/1x1"
  bottom: "inception_4c/3x3"
  bottom: "inception_4c/5x5"
  bottom: "inception_4c/pool_proj"
  top: "inception_4c/output"
}
layer {
  name: "inception_4d/1x1"
  type: "Convolution"
  bottom: "inception_4c/output"
  top: "inception_4d/1x1"
  param {
    lr_mult: 1
    decay_mult: 1
  }
  param {
    lr_mult: 2
    decay_mult: 0
  }
  convolution_param {
    num_output: 112
    kernel_size: 1
    weight_filler {
      type: "xavier"
      std: 0.03
    }
    bias_filler {
      type: "constant"
      value: 0.2
    }
  }
}
layer {
  name: "inception_4d/relu_1x1"
  type: "ReLU"
  bottom: "inception_4d/1x1"
  top: "inception_4d/1x1"
}
layer {
  name: "inception_4d/3x3_reduce"
  type: "Convolution"
  bottom: "inception_4c/output"
  top: "inception_4d/3x3_reduce"
  param {
    lr_mult: 1
    decay_mult: 1
  }
  param {
    lr_mult: 2
    decay_mult: 0
  }
  convolution_param {
    num_output: 144
    kernel_size: 1
    weight_filler {
      type: "xavier"
      std: 0.09
    }
    bias_filler {
      type: "constant"
      value: 0.2
    }
  }
}
layer {
  name: "inception_4d/relu_3x3_reduce"
  type: "ReLU"
  bottom: "inception_4d/3x3_reduce"
  top: "inception_4d/3x3_reduce"
}
layer {
  name: "inception_4d/3x3"
  type: "Convolution"
  bottom: "inception_4d/3x3_reduce"
  top: "inception_4d/3x3"
  param {
    lr_mult: 1
    decay_mult: 1
  }
  param {
    lr_mult: 2
    decay_mult: 0
  }
  convolution_param {
    num_output: 288
    pad: 1
    kernel_size: 3
    weight_filler {
      type: "xavier"
      std: 0.03
    }
    bias_filler {
      type: "constant"
      value: 0.2
    }
  }
}
layer {
  name: "inception_4d/relu_3x3"
  type: "ReLU"
  bottom: "inception_4d/3x3"
  top: "inception_4d/3x3"
}
layer {
  name: "inception_4d/5x5_reduce"
  type: "Convolution"
  bottom: "inception_4c/output"
  top: "inception_4d/5x5_reduce"
  param {
    lr_mult: 1
    decay_mult: 1
  }
  param {
    lr_mult: 2
    decay_mult: 0
  }
  convolution_param {
    num_output: 32
    kernel_size: 1
    weight_filler {
      type: "xavier"
      std: 0.2
    }
    bias_filler {
      type: "constant"
      value: 0.2
    }
  }
}
layer {
  name: "inception_4d/relu_5x5_reduce"
  type: "ReLU"
  bottom: "inception_4d/5x5_reduce"
  top: "inception_4d/5x5_reduce"
}
layer {
  name: "inception_4d/5x5"
  type: "Convolution"
  bottom: "inception_4d/5x5_reduce"
  top: "inception_4d/5x5"
  param {
    lr_mult: 1
    decay_mult: 1
  }
  param {
    lr_mult: 2
    decay_mult: 0
  }
  convolution_param {
    num_output: 64
    pad: 2
    kernel_size: 5
    weight_filler {
      type: "xavier"
      std: 0.03
    }
    bias_filler {
      type: "constant"
      value: 0.2
    }
  }
}
layer {
  name: "inception_4d/relu_5x5"
  type: "ReLU"
  bottom: "inception_4d/5x5"
  top: "inception_4d/5x5"
}
layer {
  name: "inception_4d/pool"
  type: "Pooling"
  bottom: "inception_4c/output"
  top: "inception_4d/pool"
  pooling_param {
    pool: MAX
    kernel_size: 3
    stride: 1
    pad: 1
  }
}
layer {
  name: "inception_4d/pool_proj"
  type: "Convolution"
  bottom: "inception_4d/pool"
  top: "inception_4d/pool_proj"
  param {
    lr_mult: 1
    decay_mult: 1
  }
  param {
    lr_mult: 2
    decay_mult: 0
  }
  convolution_param {
    num_output: 64
    kernel_size: 1
    weight_filler {
      type: "xavier"
      std: 0.1
    }
    bias_filler {
      type: "constant"
      value: 0.2
    }
  }
}
layer {
  name: "inception_4d/relu_pool_proj"
  type: "ReLU"
  bottom: "inception_4d/pool_proj"
  top: "inception_4d/pool_proj"
}
layer {
  name: "inception_4d/output"
  type: "Concat"
  bottom: "inception_4d/1x1"
  bottom: "inception_4d/3x3"
  bottom: "inception_4d/5x5"
  bottom: "inception_4d/pool_proj"
  top: "inception_4d/output"
}
layer {
  name: "loss2/ave_pool"
  type: "Pooling"
  bottom: "inception_4d/output"
  top: "loss2/ave_pool"
  pooling_param {
    pool: AVE
    kernel_size: 5
    stride: 3
  }
}
layer {
  name: "loss2/conv"
  type: "Convolution"
  bottom: "loss2/ave_pool"
  top: "loss2/conv"
  param {
    lr_mult: 1
    decay_mult: 1
  }
  param {
    lr_mult: 2
    decay_mult: 0
  }
  convolution_param {
    num_output: 128
    kernel_size: 1
    weight_filler {
      type: "xavier"
      std: 0.08
    }
    bias_filler {
      type: "constant"
      value: 0.2
    }
  }
}
layer {
  name: "loss2/relu_conv"
  type: "ReLU"
  bottom: "loss2/conv"
  top: "loss2/conv"
}
layer {
  name: "loss2/fc"
  type: "InnerProduct"
  bottom: "loss2/conv"
  top: "loss2/fc"
  param {
    lr_mult: 1
    decay_mult: 1
  }
  param {
    lr_mult: 2
    decay_mult: 0
  }
  inner_product_param {
    num_output: 1024
    weight_filler {
      type: "xavier"
      std: 0.02
    }
    bias_filler {
      type: "constant"
      value: 0.2
    }
  }
}
layer {
  name: "loss2/relu_fc"
  type: "ReLU"
  bottom: "loss2/fc"
  top: "loss2/fc"
}
layer {
  name: "loss2/drop_fc"
  type: "Dropout"
  bottom: "loss2/fc"
  top: "loss2/fc"
  dropout_param {
    dropout_ratio: 0.7
  }
}
layer {
  name: "loss2/classifier_plantvillage"
  type: "InnerProduct"
  bottom: "loss2/fc"
  top: "loss2/classifier_plantvillage"
  param {
    lr_mult: 1
    decay_mult: 1
  }
  param {
    lr_mult: 2
    decay_mult: 0
  }
  inner_product_param {
    num_output: 38
    weight_filler {
      type: "xavier"
      std: 0.0009765625
    }
    bias_filler {
      type: "constant"
      value: 0
    }
  }
}
layer {
  name: "inception_4e/1x1"
  type: "Convolution"
  bottom: "inception_4d/output"
  top: "inception_4e/1x1"
  param {
    lr_mult: 1
    decay_mult: 1
  }
  param {
    lr_mult: 2
    decay_mult: 0
  }
  convolution_param {
    num_output: 256
    kernel_size: 1
    weight_filler {
      type: "xavier"
      std: 0.03
    }
    bias_filler {
      type: "constant"
      value: 0.2
    }
  }
}
layer {
  name: "inception_4e/relu_1x1"
  type: "ReLU"
  bottom: "inception_4e/1x1"
  top: "inception_4e/1x1"
}
layer {
  name: "inception_4e/3x3_reduce"
  type: "Convolution"
  bottom: "inception_4d/output"
  top: "inception_4e/3x3_reduce"
  param {
    lr_mult: 1
    decay_mult: 1
  }
  param {
    lr_mult: 2
    decay_mult: 0
  }
  convolution_param {
    num_output: 160
    kernel_size: 1
    weight_filler {
      type: "xavier"
      std: 0.09
    }
    bias_filler {
      type: "constant"
      value: 0.2
    }
  }
}
layer {
  name: "inception_4e/relu_3x3_reduce"
  type: "ReLU"
  bottom: "inception_4e/3x3_reduce"
  top: "inception_4e/3x3_reduce"
}
layer {
  name: "inception_4e/3x3"
  type: "Convolution"
  bottom: "inception_4e/3x3_reduce"
  top: "inception_4e/3x3"
  param {
    lr_mult: 1
    decay_mult: 1
  }
  param {
    lr_mult: 2
    decay_mult: 0
  }
  convolution_param {
    num_output: 320
    pad: 1
    kernel_size: 3
    weight_filler {
      type: "xavier"
      std: 0.03
    }
    bias_filler {
      type: "constant"
      value: 0.2
    }
  }
}
layer {
  name: "inception_4e/relu_3x3"
  type: "ReLU"
  bottom: "inception_4e/3x3"
  top: "inception_4e/3x3"
}
layer {
  name: "inception_4e/5x5_reduce"
  type: "Convolution"
  bottom: "inception_4d/output"
  top: "inception_4e/5x5_reduce"
  param {
    lr_mult: 1
    decay_mult: 1
  }
  param {
    lr_mult: 2
    decay_mult: 0
  }
  convolution_param {
    num_output: 32
    kernel_size: 1
    weight_filler {
      type: "xavier"
      std: 0.2
    }
    bias_filler {
      type: "constant"
      value: 0.2
    }
  }
}
layer {
  name: "inception_4e/relu_5x5_reduce"
  type: "ReLU"
  bottom: "inception_4e/5x5_reduce"
  top: "inception_4e/5x5_reduce"
}
layer {
  name: "inception_4e/5x5"
  type: "Convolution"
  bottom: "inception_4e/5x5_reduce"
  top: "inception_4e/
I0403 19:21:38.977887  9147 layer_factory.hpp:77] Creating layer data
I0403 19:21:38.978483  9147 net.cpp:91] Creating Layer data
I0403 19:21:38.978514  9147 net.cpp:399] data -> data
I0403 19:21:38.978566  9147 net.cpp:399] data -> label
I0403 19:21:38.978602  9147 data_transformer.cpp:25] Loading mean file from: /home/mohanty/data/final_dataset/lmdb/grayscale-50-50/mean.binaryproto
I0403 19:21:38.979728  9149 db_lmdb.cpp:38] Opened lmdb /home/mohanty/data/final_dataset/lmdb/grayscale-50-50/test_db
I0403 19:21:38.991864  9147 data_layer.cpp:41] output data size: 24,3,224,224
I0403 19:21:39.020220  9147 net.cpp:141] Setting up data
I0403 19:21:39.020299  9147 net.cpp:148] Top shape: 24 3 224 224 (3612672)
I0403 19:21:39.020324  9147 net.cpp:148] Top shape: 24 (24)
I0403 19:21:39.020340  9147 net.cpp:156] Memory required for data: 14450784
I0403 19:21:39.020369  9147 layer_factory.hpp:77] Creating layer label_data_1_split
I0403 19:21:39.020396  9147 net.cpp:91] Creating Layer label_data_1_split
I0403 19:21:39.020414  9147 net.cpp:425] label_data_1_split <- label
I0403 19:21:39.020447  9147 net.cpp:399] label_data_1_split -> label_data_1_split_0
I0403 19:21:39.020473  9147 net.cpp:399] label_data_1_split -> label_data_1_split_1
I0403 19:21:39.020495  9147 net.cpp:399] label_data_1_split -> label_data_1_split_2
I0403 19:21:39.020517  9147 net.cpp:399] label_data_1_split -> label_data_1_split_3
I0403 19:21:39.020537  9147 net.cpp:399] label_data_1_split -> label_data_1_split_4
I0403 19:21:39.020557  9147 net.cpp:399] label_data_1_split -> label_data_1_split_5
I0403 19:21:39.020577  9147 net.cpp:399] label_data_1_split -> label_data_1_split_6
I0403 19:21:39.020597  9147 net.cpp:399] label_data_1_split -> label_data_1_split_7
I0403 19:21:39.020617  9147 net.cpp:399] label_data_1_split -> label_data_1_split_8
I0403 19:21:39.020638  9147 net.cpp:399] label_data_1_split -> label_data_1_split_9
I0403 19:21:39.020759  9147 net.cpp:141] Setting up label_data_1_split
I0403 19:21:39.020783  9147 net.cpp:148] Top shape: 24 (24)
I0403 19:21:39.020802  9147 net.cpp:148] Top shape: 24 (24)
I0403 19:21:39.020817  9147 net.cpp:148] Top shape: 24 (24)
I0403 19:21:39.020834  9147 net.cpp:148] Top shape: 24 (24)
I0403 19:21:39.020850  9147 net.cpp:148] Top shape: 24 (24)
I0403 19:21:39.020865  9147 net.cpp:148] Top shape: 24 (24)
I0403 19:21:39.020882  9147 net.cpp:148] Top shape: 24 (24)
I0403 19:21:39.020898  9147 net.cpp:148] Top shape: 24 (24)
I0403 19:21:39.020915  9147 net.cpp:148] Top shape: 24 (24)
I0403 19:21:39.020931  9147 net.cpp:148] Top shape: 24 (24)
I0403 19:21:39.020977  9147 net.cpp:156] Memory required for data: 14451744
I0403 19:21:39.020992  9147 layer_factory.hpp:77] Creating layer conv1/7x7_s2
I0403 19:21:39.021026  9147 net.cpp:91] Creating Layer conv1/7x7_s2
I0403 19:21:39.021045  9147 net.cpp:425] conv1/7x7_s2 <- data
I0403 19:21:39.021065  9147 net.cpp:399] conv1/7x7_s2 -> conv1/7x7_s2
I0403 19:21:39.172303  9147 net.cpp:141] Setting up conv1/7x7_s2
I0403 19:21:39.172379  9147 net.cpp:148] Top shape: 24 64 112 112 (19267584)
I0403 19:21:39.172396  9147 net.cpp:156] Memory required for data: 91522080
I0403 19:21:39.172428  9147 layer_factory.hpp:77] Creating layer conv1/relu_7x7
I0403 19:21:39.172456  9147 net.cpp:91] Creating Layer conv1/relu_7x7
I0403 19:21:39.172474  9147 net.cpp:425] conv1/relu_7x7 <- conv1/7x7_s2
I0403 19:21:39.172493  9147 net.cpp:386] conv1/relu_7x7 -> conv1/7x7_s2 (in-place)
I0403 19:21:39.172757  9147 net.cpp:141] Setting up conv1/relu_7x7
I0403 19:21:39.172785  9147 net.cpp:148] Top shape: 24 64 112 112 (19267584)
I0403 19:21:39.172801  9147 net.cpp:156] Memory required for data: 168592416
I0403 19:21:39.172816  9147 layer_factory.hpp:77] Creating layer pool1/3x3_s2
I0403 19:21:39.172842  9147 net.cpp:91] Creating Layer pool1/3x3_s2
I0403 19:21:39.172858  9147 net.cpp:425] pool1/3x3_s2 <- conv1/7x7_s2
I0403 19:21:39.172931  9147 net.cpp:399] pool1/3x3_s2 -> pool1/3x3_s2
I0403 19:21:39.173013  9147 net.cpp:141] Setting up pool1/3x3_s2
I0403 19:21:39.173038  9147 net.cpp:148] Top shape: 24 64 56 56 (4816896)
I0403 19:21:39.173053  9147 net.cpp:156] Memory required for data: 187860000
I0403 19:21:39.173069  9147 layer_factory.hpp:77] Creating layer pool1/norm1
I0403 19:21:39.173094  9147 net.cpp:91] Creating Layer pool1/norm1
I0403 19:21:39.173111  9147 net.cpp:425] pool1/norm1 <- pool1/3x3_s2
I0403 19:21:39.173128  9147 net.cpp:399] pool1/norm1 -> pool1/norm1
I0403 19:21:39.173434  9147 net.cpp:141] Setting up pool1/norm1
I0403 19:21:39.173462  9147 net.cpp:148] Top shape: 24 64 56 56 (4816896)
I0403 19:21:39.173477  9147 net.cpp:156] Memory required for data: 207127584
I0403 19:21:39.173492  9147 layer_factory.hpp:77] Creating layer conv2/3x3_reduce
I0403 19:21:39.173517  9147 net.cpp:91] Creating Layer conv2/3x3_reduce
I0403 19:21:39.173534  9147 net.cpp:425] conv2/3x3_reduce <- pool1/norm1
I0403 19:21:39.173553  9147 net.cpp:399] conv2/3x3_reduce -> conv2/3x3_reduce
I0403 19:21:39.174891  9147 net.cpp:141] Setting up conv2/3x3_reduce
I0403 19:21:39.174921  9147 net.cpp:148] Top shape: 24 64 56 56 (4816896)
I0403 19:21:39.174937  9147 net.cpp:156] Memory required for data: 226395168
I0403 19:21:39.174958  9147 layer_factory.hpp:77] Creating layer conv2/relu_3x3_reduce
I0403 19:21:39.174988  9147 net.cpp:91] Creating Layer conv2/relu_3x3_reduce
I0403 19:21:39.175004  9147 net.cpp:425] conv2/relu_3x3_reduce <- conv2/3x3_reduce
I0403 19:21:39.175021  9147 net.cpp:386] conv2/relu_3x3_reduce -> conv2/3x3_reduce (in-place)
I0403 19:21:39.175292  9147 net.cpp:141] Setting up conv2/relu_3x3_reduce
I0403 19:21:39.175319  9147 net.cpp:148] Top shape: 24 64 56 56 (4816896)
I0403 19:21:39.175335  9147 net.cpp:156] Memory required for data: 245662752
I0403 19:21:39.175351  9147 layer_factory.hpp:77] Creating layer conv2/3x3
I0403 19:21:39.175374  9147 net.cpp:91] Creating Layer conv2/3x3
I0403 19:21:39.175390  9147 net.cpp:425] conv2/3x3 <- conv2/3x3_reduce
I0403 19:21:39.175411  9147 net.cpp:399] conv2/3x3 -> conv2/3x3
I0403 19:21:39.177755  9147 net.cpp:141] Setting up conv2/3x3
I0403 19:21:39.177799  9147 net.cpp:148] Top shape: 24 192 56 56 (14450688)
I0403 19:21:39.177816  9147 net.cpp:156] Memory required for data: 303465504
I0403 19:21:39.177839  9147 layer_factory.hpp:77] Creating layer conv2/relu_3x3
I0403 19:21:39.177857  9147 net.cpp:91] Creating Layer conv2/relu_3x3
I0403 19:21:39.177875  9147 net.cpp:425] conv2/relu_3x3 <- conv2/3x3
I0403 19:21:39.177892  9147 net.cpp:386] conv2/relu_3x3 -> conv2/3x3 (in-place)
I0403 19:21:39.178057  9147 net.cpp:141] Setting up conv2/relu_3x3
I0403 19:21:39.178083  9147 net.cpp:148] Top shape: 24 192 56 56 (14450688)
I0403 19:21:39.178130  9147 net.cpp:156] Memory required for data: 361268256
I0403 19:21:39.178148  9147 layer_factory.hpp:77] Creating layer conv2/norm2
I0403 19:21:39.178166  9147 net.cpp:91] Creating Layer conv2/norm2
I0403 19:21:39.178184  9147 net.cpp:425] conv2/norm2 <- conv2/3x3
I0403 19:21:39.178201  9147 net.cpp:399] conv2/norm2 -> conv2/norm2
I0403 19:21:39.178519  9147 net.cpp:141] Setting up conv2/norm2
I0403 19:21:39.178545  9147 net.cpp:148] Top shape: 24 192 56 56 (14450688)
I0403 19:21:39.178560  9147 net.cpp:156] Memory required for data: 419071008
I0403 19:21:39.178575  9147 layer_factory.hpp:77] Creating layer pool2/3x3_s2
I0403 19:21:39.178593  9147 net.cpp:91] Creating Layer pool2/3x3_s2
I0403 19:21:39.178609  9147 net.cpp:425] pool2/3x3_s2 <- conv2/norm2
I0403 19:21:39.178628  9147 net.cpp:399] pool2/3x3_s2 -> pool2/3x3_s2
I0403 19:21:39.178678  9147 net.cpp:141] Setting up pool2/3x3_s2
I0403 19:21:39.178700  9147 net.cpp:148] Top shape: 24 192 28 28 (3612672)
I0403 19:21:39.178715  9147 net.cpp:156] Memory required for data: 433521696
I0403 19:21:39.178730  9147 layer_factory.hpp:77] Creating layer pool2/3x3_s2_pool2/3x3_s2_0_split
I0403 19:21:39.178746  9147 net.cpp:91] Creating Layer pool2/3x3_s2_pool2/3x3_s2_0_split
I0403 19:21:39.178769  9147 net.cpp:425] pool2/3x3_s2_pool2/3x3_s2_0_split <- pool2/3x3_s2
I0403 19:21:39.178787  9147 net.cpp:399] pool2/3x3_s2_pool2/3x3_s2_0_split -> pool2/3x3_s2_pool2/3x3_s2_0_split_0
I0403 19:21:39.178807  9147 net.cpp:399] pool2/3x3_s2_pool2/3x3_s2_0_split -> pool2/3x3_s2_pool2/3x3_s2_0_split_1
I0403 19:21:39.178825  9147 net.cpp:399] pool2/3x3_s2_pool2/3x3_s2_0_split -> pool2/3x3_s2_pool2/3x3_s2_0_split_2
I0403 19:21:39.178844  9147 net.cpp:399] pool2/3x3_s2_pool2/3x3_s2_0_split -> pool2/3x3_s2_pool2/3x3_s2_0_split_3
I0403 19:21:39.178908  9147 net.cpp:141] Setting up pool2/3x3_s2_pool2/3x3_s2_0_split
I0403 19:21:39.178931  9147 net.cpp:148] Top shape: 24 192 28 28 (3612672)
I0403 19:21:39.178947  9147 net.cpp:148] Top shape: 24 192 28 28 (3612672)
I0403 19:21:39.178964  9147 net.cpp:148] Top shape: 24 192 28 28 (3612672)
I0403 19:21:39.178979  9147 net.cpp:148] Top shape: 24 192 28 28 (3612672)
I0403 19:21:39.178993  9147 net.cpp:156] Memory required for data: 491324448
I0403 19:21:39.179008  9147 layer_factory.hpp:77] Creating layer inception_3a/1x1
I0403 19:21:39.179028  9147 net.cpp:91] Creating Layer inception_3a/1x1
I0403 19:21:39.179044  9147 net.cpp:425] inception_3a/1x1 <- pool2/3x3_s2_pool2/3x3_s2_0_split_0
I0403 19:21:39.179064  9147 net.cpp:399] inception_3a/1x1 -> inception_3a/1x1
I0403 19:21:39.180547  9147 net.cpp:141] Setting up inception_3a/1x1
I0403 19:21:39.180577  9147 net.cpp:148] Top shape: 24 64 28 28 (1204224)
I0403 19:21:39.180593  9147 net.cpp:156] Memory required for data: 496141344
I0403 19:21:39.180611  9147 layer_factory.hpp:77] Creating layer inception_3a/relu_1x1
I0403 19:21:39.180629  9147 net.cpp:91] Creating Layer inception_3a/relu_1x1
I0403 19:21:39.180645  9147 net.cpp:425] inception_3a/relu_1x1 <- inception_3a/1x1
I0403 19:21:39.180662  9147 net.cpp:386] inception_3a/relu_1x1 -> inception_3a/1x1 (in-place)
I0403 19:21:39.180824  9147 net.cpp:141] Setting up inception_3a/relu_1x1
I0403 19:21:39.180848  9147 net.cpp:148] Top shape: 24 64 28 28 (1204224)
I0403 19:21:39.180863  9147 net.cpp:156] Memory required for data: 500958240
I0403 19:21:39.180878  9147 layer_factory.hpp:77] Creating layer inception_3a/3x3_reduce
I0403 19:21:39.180902  9147 net.cpp:91] Creating Layer inception_3a/3x3_reduce
I0403 19:21:39.180919  9147 net.cpp:425] inception_3a/3x3_reduce <- pool2/3x3_s2_pool2/3x3_s2_0_split_1
I0403 19:21:39.180938  9147 net.cpp:399] inception_3a/3x3_reduce -> inception_3a/3x3_reduce
I0403 19:21:39.182662  9147 net.cpp:141] Setting up inception_3a/3x3_reduce
I0403 19:21:39.182693  9147 net.cpp:148] Top shape: 24 96 28 28 (1806336)
I0403 19:21:39.182708  9147 net.cpp:156] Memory required for data: 508183584
I0403 19:21:39.182729  9147 layer_factory.hpp:77] Creating layer inception_3a/relu_3x3_reduce
I0403 19:21:39.182777  9147 net.cpp:91] Creating Layer inception_3a/relu_3x3_reduce
I0403 19:21:39.182796  9147 net.cpp:425] inception_3a/relu_3x3_reduce <- inception_3a/3x3_reduce
I0403 19:21:39.182812  9147 net.cpp:386] inception_3a/relu_3x3_reduce -> inception_3a/3x3_reduce (in-place)
I0403 19:21:39.182999  9147 net.cpp:141] Setting up inception_3a/relu_3x3_reduce
I0403 19:21:39.183025  9147 net.cpp:148] Top shape: 24 96 28 28 (1806336)
I0403 19:21:39.183039  9147 net.cpp:156] Memory required for data: 515408928
I0403 19:21:39.183055  9147 layer_factory.hpp:77] Creating layer inception_3a/3x3
I0403 19:21:39.183078  9147 net.cpp:91] Creating Layer inception_3a/3x3
I0403 19:21:39.183095  9147 net.cpp:425] inception_3a/3x3 <- inception_3a/3x3_reduce
I0403 19:21:39.183116  9147 net.cpp:399] inception_3a/3x3 -> inception_3a/3x3
I0403 19:21:39.184811  9147 net.cpp:141] Setting up inception_3a/3x3
I0403 19:21:39.184841  9147 net.cpp:148] Top shape: 24 128 28 28 (2408448)
I0403 19:21:39.184857  9147 net.cpp:156] Memory required for data: 525042720
I0403 19:21:39.184877  9147 layer_factory.hpp:77] Creating layer inception_3a/relu_3x3
I0403 19:21:39.184901  9147 net.cpp:91] Creating Layer inception_3a/relu_3x3
I0403 19:21:39.184918  9147 net.cpp:425] inception_3a/relu_3x3 <- inception_3a/3x3
I0403 19:21:39.184937  9147 net.cpp:386] inception_3a/relu_3x3 -> inception_3a/3x3 (in-place)
I0403 19:21:39.185222  9147 net.cpp:141] Setting up inception_3a/relu_3x3
I0403 19:21:39.185250  9147 net.cpp:148] Top shape: 24 128 28 28 (2408448)
I0403 19:21:39.185266  9147 net.cpp:156] Memory required for data: 534676512
I0403 19:21:39.185282  9147 layer_factory.hpp:77] Creating layer inception_3a/5x5_reduce
I0403 19:21:39.185307  9147 net.cpp:91] Creating Layer inception_3a/5x5_reduce
I0403 19:21:39.185324  9147 net.cpp:425] inception_3a/5x5_reduce <- pool2/3x3_s2_pool2/3x3_s2_0_split_2
I0403 19:21:39.185345  9147 net.cpp:399] inception_3a/5x5_reduce -> inception_3a/5x5_reduce
I0403 19:21:39.186323  9147 net.cpp:141] Setting up inception_3a/5x5_reduce
I0403 19:21:39.186352  9147 net.cpp:148] Top shape: 24 16 28 28 (301056)
I0403 19:21:39.186372  9147 net.cpp:156] Memory required for data: 535880736
I0403 19:21:39.186391  9147 layer_factory.hpp:77] Creating layer inception_3a/relu_5x5_reduce
I0403 19:21:39.186410  9147 net.cpp:91] Creating Layer inception_3a/relu_5x5_reduce
I0403 19:21:39.186427  9147 net.cpp:425] inception_3a/relu_5x5_reduce <- inception_3a/5x5_reduce
I0403 19:21:39.186446  9147 net.cpp:386] inception_3a/relu_5x5_reduce -> inception_3a/5x5_reduce (in-place)
I0403 19:21:39.186746  9147 net.cpp:141] Setting up inception_3a/relu_5x5_reduce
I0403 19:21:39.186779  9147 net.cpp:148] Top shape: 24 16 28 28 (301056)
I0403 19:21:39.186796  9147 net.cpp:156] Memory required for data: 537084960
I0403 19:21:39.186811  9147 layer_factory.hpp:77] Creating layer inception_3a/5x5
I0403 19:21:39.186835  9147 net.cpp:91] Creating Layer inception_3a/5x5
I0403 19:21:39.186852  9147 net.cpp:425] inception_3a/5x5 <- inception_3a/5x5_reduce
I0403 19:21:39.186872  9147 net.cpp:399] inception_3a/5x5 -> inception_3a/5x5
I0403 19:21:39.187909  9147 net.cpp:141] Setting up inception_3a/5x5
I0403 19:21:39.187938  9147 net.cpp:148] Top shape: 24 32 28 28 (602112)
I0403 19:21:39.187955  9147 net.cpp:156] Memory required for data: 539493408
I0403 19:21:39.187974  9147 layer_factory.hpp:77] Creating layer inception_3a/relu_5x5
I0403 19:21:39.187996  9147 net.cpp:91] Creating Layer inception_3a/relu_5x5
I0403 19:21:39.188014  9147 net.cpp:425] inception_3a/relu_5x5 <- inception_3a/5x5
I0403 19:21:39.188035  9147 net.cpp:386] inception_3a/relu_5x5 -> inception_3a/5x5 (in-place)
I0403 19:21:39.188220  9147 net.cpp:141] Setting up inception_3a/relu_5x5
I0403 19:21:39.188246  9147 net.cpp:148] Top shape: 24 32 28 28 (602112)
I0403 19:21:39.188263  9147 net.cpp:156] Memory required for data: 541901856
I0403 19:21:39.188278  9147 layer_factory.hpp:77] Creating layer inception_3a/pool
I0403 19:21:39.188302  9147 net.cpp:91] Creating Layer inception_3a/pool
I0403 19:21:39.188334  9147 net.cpp:425] inception_3a/pool <- pool2/3x3_s2_pool2/3x3_s2_0_split_3
I0403 19:21:39.188354  9147 net.cpp:399] inception_3a/pool -> inception_3a/pool
I0403 19:21:39.188415  9147 net.cpp:141] Setting up inception_3a/pool
I0403 19:21:39.188439  9147 net.cpp:148] Top shape: 24 192 28 28 (3612672)
I0403 19:21:39.188454  9147 net.cpp:156] Memory required for data: 556352544
I0403 19:21:39.188469  9147 layer_factory.hpp:77] Creating layer inception_3a/pool_proj
I0403 19:21:39.188491  9147 net.cpp:91] Creating Layer inception_3a/pool_proj
I0403 19:21:39.188508  9147 net.cpp:425] inception_3a/pool_proj <- inception_3a/pool
I0403 19:21:39.188529  9147 net.cpp:399] inception_3a/pool_proj -> inception_3a/pool_proj
I0403 19:21:39.189518  9147 net.cpp:141] Setting up inception_3a/pool_proj
I0403 19:21:39.189549  9147 net.cpp:148] Top shape: 24 32 28 28 (602112)
I0403 19:21:39.189568  9147 net.cpp:156] Memory required for data: 558760992
I0403 19:21:39.189592  9147 layer_factory.hpp:77] Creating layer inception_3a/relu_pool_proj
I0403 19:21:39.189613  9147 net.cpp:91] Creating Layer inception_3a/relu_pool_proj
I0403 19:21:39.189630  9147 net.cpp:425] inception_3a/relu_pool_proj <- inception_3a/pool_proj
I0403 19:21:39.189646  9147 net.cpp:386] inception_3a/relu_pool_proj -> inception_3a/pool_proj (in-place)
I0403 19:21:39.189925  9147 net.cpp:141] Setting up inception_3a/relu_pool_proj
I0403 19:21:39.189954  9147 net.cpp:148] Top shape: 24 32 28 28 (602112)
I0403 19:21:39.189970  9147 net.cpp:156] Memory required for data: 561169440
I0403 19:21:39.189985  9147 layer_factory.hpp:77] Creating layer inception_3a/output
I0403 19:21:39.190006  9147 net.cpp:91] Creating Layer inception_3a/output
I0403 19:21:39.190021  9147 net.cpp:425] inception_3a/output <- inception_3a/1x1
I0403 19:21:39.190038  9147 net.cpp:425] inception_3a/output <- inception_3a/3x3
I0403 19:21:39.190055  9147 net.cpp:425] inception_3a/output <- inception_3a/5x5
I0403 19:21:39.190071  9147 net.cpp:425] inception_3a/output <- inception_3a/pool_proj
I0403 19:21:39.190088  9147 net.cpp:399] inception_3a/output -> inception_3a/output
I0403 19:21:39.190137  9147 net.cpp:141] Setting up inception_3a/output
I0403 19:21:39.190160  9147 net.cpp:148] Top shape: 24 256 28 28 (4816896)
I0403 19:21:39.190176  9147 net.cpp:156] Memory required for data: 580437024
I0403 19:21:39.190191  9147 layer_factory.hpp:77] Creating layer inception_3a/output_inception_3a/output_0_split
I0403 19:21:39.190207  9147 net.cpp:91] Creating Layer inception_3a/output_inception_3a/output_0_split
I0403 19:21:39.190230  9147 net.cpp:425] inception_3a/output_inception_3a/output_0_split <- inception_3a/output
I0403 19:21:39.190251  9147 net.cpp:399] inception_3a/output_inception_3a/output_0_split -> inception_3a/output_inception_3a/output_0_split_0
I0403 19:21:39.190274  9147 net.cpp:399] inception_3a/output_inception_3a/output_0_split -> inception_3a/output_inception_3a/output_0_split_1
I0403 19:21:39.190295  9147 net.cpp:399] inception_3a/output_inception_3a/output_0_split -> inception_3a/output_inception_3a/output_0_split_2
I0403 19:21:39.190316  9147 net.cpp:399] inception_3a/output_inception_3a/output_0_split -> inception_3a/output_inception_3a/output_0_split_3
I0403 19:21:39.190392  9147 net.cpp:141] Setting up inception_3a/output_inception_3a/output_0_split
I0403 19:21:39.190415  9147 net.cpp:148] Top shape: 24 256 28 28 (4816896)
I0403 19:21:39.190433  9147 net.cpp:148] Top shape: 24 256 28 28 (4816896)
I0403 19:21:39.190448  9147 net.cpp:148] Top shape: 24 256 28 28 (4816896)
I0403 19:21:39.190464  9147 net.cpp:148] Top shape: 24 256 28 28 (4816896)
I0403 19:21:39.190485  9147 net.cpp:156] Memory required for data: 657507360
I0403 19:21:39.190500  9147 layer_factory.hpp:77] Creating layer inception_3b/1x1
I0403 19:21:39.190521  9147 net.cpp:91] Creating Layer inception_3b/1x1
I0403 19:21:39.190539  9147 net.cpp:425] inception_3b/1x1 <- inception_3a/output_inception_3a/output_0_split_0
I0403 19:21:39.190560  9147 net.cpp:399] inception_3b/1x1 -> inception_3b/1x1
I0403 19:21:39.191757  9147 net.cpp:141] Setting up inception_3b/1x1
I0403 19:21:39.191803  9147 net.cpp:148] Top shape: 24 128 28 28 (2408448)
I0403 19:21:39.191820  9147 net.cpp:156] Memory required for data: 667141152
I0403 19:21:39.191838  9147 layer_factory.hpp:77] Creating layer inception_3b/relu_1x1
I0403 19:21:39.191856  9147 net.cpp:91] Creating Layer inception_3b/relu_1x1
I0403 19:21:39.191872  9147 net.cpp:425] inception_3b/relu_1x1 <- inception_3b/1x1
I0403 19:21:39.191892  9147 net.cpp:386] inception_3b/relu_1x1 -> inception_3b/1x1 (in-place)
I0403 19:21:39.192075  9147 net.cpp:141] Setting up inception_3b/relu_1x1
I0403 19:21:39.192101  9147 net.cpp:148] Top shape: 24 128 28 28 (2408448)
I0403 19:21:39.192116  9147 net.cpp:156] Memory required for data: 676774944
I0403 19:21:39.192129  9147 layer_factory.hpp:77] Creating layer inception_3b/3x3_reduce
I0403 19:21:39.192152  9147 net.cpp:91] Creating Layer inception_3b/3x3_reduce
I0403 19:21:39.192168  9147 net.cpp:425] inception_3b/3x3_reduce <- inception_3a/output_inception_3a/output_0_split_1
I0403 19:21:39.192190  9147 net.cpp:399] inception_3b/3x3_reduce -> inception_3b/3x3_reduce
I0403 19:21:39.193363  9147 net.cpp:141] Setting up inception_3b/3x3_reduce
I0403 19:21:39.193393  9147 net.cpp:148] Top shape: 24 128 28 28 (2408448)
I0403 19:21:39.193409  9147 net.cpp:156] Memory required for data: 686408736
I0403 19:21:39.193428  9147 layer_factory.hpp:77] Creating layer inception_3b/relu_3x3_reduce
I0403 19:21:39.193451  9147 net.cpp:91] Creating Layer inception_3b/relu_3x3_reduce
I0403 19:21:39.193471  9147 net.cpp:425] inception_3b/relu_3x3_reduce <- inception_3b/3x3_reduce
I0403 19:21:39.193490  9147 net.cpp:386] inception_3b/relu_3x3_reduce -> inception_3b/3x3_reduce (in-place)
I0403 19:21:39.193667  9147 net.cpp:141] Setting up inception_3b/relu_3x3_reduce
I0403 19:21:39.193693  9147 net.cpp:148] Top shape: 24 128 28 28 (2408448)
I0403 19:21:39.193708  9147 net.cpp:156] Memory required for data: 696042528
I0403 19:21:39.193722  9147 layer_factory.hpp:77] Creating layer inception_3b/3x3
I0403 19:21:39.193749  9147 net.cpp:91] Creating Layer inception_3b/3x3
I0403 19:21:39.193768  9147 net.cpp:425] inception_3b/3x3 <- inception_3b/3x3_reduce
I0403 19:21:39.193789  9147 net.cpp:399] inception_3b/3x3 -> inception_3b/3x3
I0403 19:21:39.196763  9147 net.cpp:141] Setting up inception_3b/3x3
I0403 19:21:39.196794  9147 net.cpp:148] Top shape: 24 192 28 28 (3612672)
I0403 19:21:39.196810  9147 net.cpp:156] Memory required for data: 710493216
I0403 19:21:39.196828  9147 layer_factory.hpp:77] Creating layer inception_3b/relu_3x3
I0403 19:21:39.196848  9147 net.cpp:91] Creating Layer inception_3b/relu_3x3
I0403 19:21:39.196866  9147 net.cpp:425] inception_3b/relu_3x3 <- inception_3b/3x3
I0403 19:21:39.196882  9147 net.cpp:386] inception_3b/relu_3x3 -> inception_3b/3x3 (in-place)
I0403 19:21:39.197154  9147 net.cpp:141] Setting up inception_3b/relu_3x3
I0403 19:21:39.197180  9147 net.cpp:148] Top shape: 24 192 28 28 (3612672)
I0403 19:21:39.197196  9147 net.cpp:156] Memory required for data: 724943904
I0403 19:21:39.197216  9147 layer_factory.hpp:77] Creating layer inception_3b/5x5_reduce
I0403 19:21:39.197238  9147 net.cpp:91] Creating Layer inception_3b/5x5_reduce
I0403 19:21:39.197257  9147 net.cpp:425] inception_3b/5x5_reduce <- inception_3a/output_inception_3a/output_0_split_2
I0403 19:21:39.197278  9147 net.cpp:399] inception_3b/5x5_reduce -> inception_3b/5x5_reduce
I0403 19:21:39.198264  9147 net.cpp:141] Setting up inception_3b/5x5_reduce
I0403 19:21:39.198292  9147 net.cpp:148] Top shape: 24 32 28 28 (602112)
I0403 19:21:39.198307  9147 net.cpp:156] Memory required for data: 727352352
I0403 19:21:39.198324  9147 layer_factory.hpp:77] Creating layer inception_3b/relu_5x5_reduce
I0403 19:21:39.198344  9147 net.cpp:91] Creating Layer inception_3b/relu_5x5_reduce
I0403 19:21:39.198360  9147 net.cpp:425] inception_3b/relu_5x5_reduce <- inception_3b/5x5_reduce
I0403 19:21:39.198377  9147 net.cpp:386] inception_3b/relu_5x5_reduce -> inception_3b/5x5_reduce (in-place)
I0403 19:21:39.198580  9147 net.cpp:141] Setting up inception_3b/relu_5x5_reduce
I0403 19:21:39.198604  9147 net.cpp:148] Top shape: 24 32 28 28 (602112)
I0403 19:21:39.198618  9147 net.cpp:156] Memory required for data: 729760800
I0403 19:21:39.198633  9147 layer_factory.hpp:77] Creating layer inception_3b/5x5
I0403 19:21:39.198657  9147 net.cpp:91] Creating Layer inception_3b/5x5
I0403 19:21:39.198673  9147 net.cpp:425] inception_3b/5x5 <- inception_3b/5x5_reduce
I0403 19:21:39.198693  9147 net.cpp:399] inception_3b/5x5 -> inception_3b/5x5
I0403 19:21:39.200738  9147 net.cpp:141] Setting up inception_3b/5x5
I0403 19:21:39.200768  9147 net.cpp:148] Top shape: 24 96 28 28 (1806336)
I0403 19:21:39.200784  9147 net.cpp:156] Memory required for data: 736986144
I0403 19:21:39.200803  9147 layer_factory.hpp:77] Creating layer inception_3b/relu_5x5
I0403 19:21:39.200821  9147 net.cpp:91] Creating Layer inception_3b/relu_5x5
I0403 19:21:39.200839  9147 net.cpp:425] inception_3b/relu_5x5 <- inception_3b/5x5
I0403 19:21:39.200857  9147 net.cpp:386] inception_3b/relu_5x5 -> inception_3b/5x5 (in-place)
I0403 19:21:39.201046  9147 net.cpp:141] Setting up inception_3b/relu_5x5
I0403 19:21:39.201071  9147 net.cpp:148] Top shape: 24 96 28 28 (1806336)
I0403 19:21:39.201086  9147 net.cpp:156] Memory required for data: 744211488
I0403 19:21:39.201100  9147 layer_factory.hpp:77] Creating layer inception_3b/pool
I0403 19:21:39.201117  9147 net.cpp:91] Creating Layer inception_3b/pool
I0403 19:21:39.201133  9147 net.cpp:425] inception_3b/pool <- inception_3a/output_inception_3a/output_0_split_3
I0403 19:21:39.201149  9147 net.cpp:399] inception_3b/pool -> inception_3b/pool
I0403 19:21:39.201211  9147 net.cpp:141] Setting up inception_3b/pool
I0403 19:21:39.201236  9147 net.cpp:148] Top shape: 24 256 28 28 (4816896)
I0403 19:21:39.201249  9147 net.cpp:156] Memory required for data: 763479072
I0403 19:21:39.201263  9147 layer_factory.hpp:77] Creating layer inception_3b/pool_proj
I0403 19:21:39.201284  9147 net.cpp:91] Creating Layer inception_3b/pool_proj
I0403 19:21:39.201302  9147 net.cpp:425] inception_3b/pool_proj <- inception_3b/pool
I0403 19:21:39.201321  9147 net.cpp:399] inception_3b/pool_proj -> inception_3b/pool_proj
I0403 19:21:39.202376  9147 net.cpp:141] Setting up inception_3b/pool_proj
I0403 19:21:39.202406  9147 net.cpp:148] Top shape: 24 64 28 28 (1204224)
I0403 19:21:39.202424  9147 net.cpp:156] Memory required for data: 768295968
I0403 19:21:39.202442  9147 layer_factory.hpp:77] Creating layer inception_3b/relu_pool_proj
I0403 19:21:39.202461  9147 net.cpp:91] Creating Layer inception_3b/relu_pool_proj
I0403 19:21:39.202476  9147 net.cpp:425] inception_3b/relu_pool_proj <- inception_3b/pool_proj
I0403 19:21:39.202494  9147 net.cpp:386] inception_3b/relu_pool_proj -> inception_3b/pool_proj (in-place)
I0403 19:21:39.202889  9147 net.cpp:141] Setting up inception_3b/relu_pool_proj
I0403 19:21:39.202919  9147 net.cpp:148] Top shape: 24 64 28 28 (1204224)
I0403 19:21:39.202936  9147 net.cpp:156] Memory required for data: 773112864
I0403 19:21:39.202952  9147 layer_factory.hpp:77] Creating layer inception_3b/output
I0403 19:21:39.202970  9147 net.cpp:91] Creating Layer inception_3b/output
I0403 19:21:39.202986  9147 net.cpp:425] inception_3b/output <- inception_3b/1x1
I0403 19:21:39.203001  9147 net.cpp:425] inception_3b/output <- inception_3b/3x3
I0403 19:21:39.203017  9147 net.cpp:425] inception_3b/output <- inception_3b/5x5
I0403 19:21:39.203033  9147 net.cpp:425] inception_3b/output <- inception_3b/pool_proj
I0403 19:21:39.203050  9147 net.cpp:399] inception_3b/output -> inception_3b/output
I0403 19:21:39.203095  9147 net.cpp:141] Setting up inception_3b/output
I0403 19:21:39.203119  9147 net.cpp:148] Top shape: 24 480 28 28 (9031680)
I0403 19:21:39.203133  9147 net.cpp:156] Memory required for data: 809239584
I0403 19:21:39.203150  9147 layer_factory.hpp:77] Creating layer pool3/3x3_s2
I0403 19:21:39.203171  9147 net.cpp:91] Creating Layer pool3/3x3_s2
I0403 19:21:39.203186  9147 net.cpp:425] pool3/3x3_s2 <- inception_3b/output
I0403 19:21:39.203233  9147 net.cpp:399] pool3/3x3_s2 -> pool3/3x3_s2
I0403 19:21:39.203294  9147 net.cpp:141] Setting up pool3/3x3_s2
I0403 19:21:39.203317  9147 net.cpp:148] Top shape: 24 480 14 14 (2257920)
I0403 19:21:39.203331  9147 net.cpp:156] Memory required for data: 818271264
I0403 19:21:39.203346  9147 layer_factory.hpp:77] Creating layer pool3/3x3_s2_pool3/3x3_s2_0_split
I0403 19:21:39.203363  9147 net.cpp:91] Creating Layer pool3/3x3_s2_pool3/3x3_s2_0_split
I0403 19:21:39.203378  9147 net.cpp:425] pool3/3x3_s2_pool3/3x3_s2_0_split <- pool3/3x3_s2
I0403 19:21:39.203397  9147 net.cpp:399] pool3/3x3_s2_pool3/3x3_s2_0_split -> pool3/3x3_s2_pool3/3x3_s2_0_split_0
I0403 19:21:39.203416  9147 net.cpp:399] pool3/3x3_s2_pool3/3x3_s2_0_split -> pool3/3x3_s2_pool3/3x3_s2_0_split_1
I0403 19:21:39.203436  9147 net.cpp:399] pool3/3x3_s2_pool3/3x3_s2_0_split -> pool3/3x3_s2_pool3/3x3_s2_0_split_2
I0403 19:21:39.203454  9147 net.cpp:399] pool3/3x3_s2_pool3/3x3_s2_0_split -> pool3/3x3_s2_pool3/3x3_s2_0_split_3
I0403 19:21:39.203532  9147 net.cpp:141] Setting up pool3/3x3_s2_pool3/3x3_s2_0_split
I0403 19:21:39.203557  9147 net.cpp:148] Top shape: 24 480 14 14 (2257920)
I0403 19:21:39.203573  9147 net.cpp:148] Top shape: 24 480 14 14 (2257920)
I0403 19:21:39.203589  9147 net.cpp:148] Top shape: 24 480 14 14 (2257920)
I0403 19:21:39.203604  9147 net.cpp:148] Top shape: 24 480 14 14 (2257920)
I0403 19:21:39.203620  9147 net.cpp:156] Memory required for data: 854397984
I0403 19:21:39.203634  9147 layer_factory.hpp:77] Creating layer inception_4a/1x1
I0403 19:21:39.203655  9147 net.cpp:91] Creating Layer inception_4a/1x1
I0403 19:21:39.203672  9147 net.cpp:425] inception_4a/1x1 <- pool3/3x3_s2_pool3/3x3_s2_0_split_0
I0403 19:21:39.203691  9147 net.cpp:399] inception_4a/1x1 -> inception_4a/1x1
I0403 19:21:39.205267  9147 net.cpp:141] Setting up inception_4a/1x1
I0403 19:21:39.205298  9147 net.cpp:148] Top shape: 24 192 14 14 (903168)
I0403 19:21:39.205315  9147 net.cpp:156] Memory required for data: 858010656
I0403 19:21:39.205334  9147 layer_factory.hpp:77] Creating layer inception_4a/relu_1x1
I0403 19:21:39.205353  9147 net.cpp:91] Creating Layer inception_4a/relu_1x1
I0403 19:21:39.205368  9147 net.cpp:425] inception_4a/relu_1x1 <- inception_4a/1x1
I0403 19:21:39.205389  9147 net.cpp:386] inception_4a/relu_1x1 -> inception_4a/1x1 (in-place)
I0403 19:21:39.205564  9147 net.cpp:141] Setting up inception_4a/relu_1x1
I0403 19:21:39.205590  9147 net.cpp:148] Top shape: 24 192 14 14 (903168)
I0403 19:21:39.205606  9147 net.cpp:156] Memory required for data: 861623328
I0403 19:21:39.205621  9147 layer_factory.hpp:77] Creating layer inception_4a/3x3_reduce
I0403 19:21:39.205643  9147 net.cpp:91] Creating Layer inception_4a/3x3_reduce
I0403 19:21:39.205662  9147 net.cpp:425] inception_4a/3x3_reduce <- pool3/3x3_s2_pool3/3x3_s2_0_split_1
I0403 19:21:39.205683  9147 net.cpp:399] inception_4a/3x3_reduce -> inception_4a/3x3_reduce
I0403 19:21:39.206961  9147 net.cpp:141] Setting up inception_4a/3x3_reduce
I0403 19:21:39.206993  9147 net.cpp:148] Top shape: 24 96 14 14 (451584)
I0403 19:21:39.207010  9147 net.cpp:156] Memory required for data: 863429664
I0403 19:21:39.207032  9147 layer_factory.hpp:77] Creating layer inception_4a/relu_3x3_reduce
I0403 19:21:39.207058  9147 net.cpp:91] Creating Layer inception_4a/relu_3x3_reduce
I0403 19:21:39.207077  9147 net.cpp:425] inception_4a/relu_3x3_reduce <- inception_4a/3x3_reduce
I0403 19:21:39.207096  9147 net.cpp:386] inception_4a/relu_3x3_reduce -> inception_4a/3x3_reduce (in-place)
I0403 19:21:39.207286  9147 net.cpp:141] Setting up inception_4a/relu_3x3_reduce
I0403 19:21:39.207311  9147 net.cpp:148] Top shape: 24 96 14 14 (451584)
I0403 19:21:39.207325  9147 net.cpp:156] Memory required for data: 865236000
I0403 19:21:39.207340  9147 layer_factory.hpp:77] Creating layer inception_4a/3x3
I0403 19:21:39.207361  9147 net.cpp:91] Creating Layer inception_4a/3x3
I0403 19:21:39.207378  9147 net.cpp:425] inception_4a/3x3 <- inception_4a/3x3_reduce
I0403 19:21:39.207399  9147 net.cpp:399] inception_4a/3x3 -> inception_4a/3x3
I0403 19:21:39.210117  9147 net.cpp:141] Setting up inception_4a/3x3
I0403 19:21:39.210147  9147 net.cpp:148] Top shape: 24 208 14 14 (978432)
I0403 19:21:39.210165  9147 net.cpp:156] Memory required for data: 869149728
I0403 19:21:39.210185  9147 layer_factory.hpp:77] Creating layer inception_4a/relu_3x3
I0403 19:21:39.210204  9147 net.cpp:91] Creating Layer inception_4a/relu_3x3
I0403 19:21:39.210227  9147 net.cpp:425] inception_4a/relu_3x3 <- inception_4a/3x3
I0403 19:21:39.210244  9147 net.cpp:386] inception_4a/relu_3x3 -> inception_4a/3x3 (in-place)
I0403 19:21:39.210526  9147 net.cpp:141] Setting up inception_4a/relu_3x3
I0403 19:21:39.210553  9147 net.cpp:148] Top shape: 24 208 14 14 (978432)
I0403 19:21:39.210569  9147 net.cpp:156] Memory required for data: 873063456
I0403 19:21:39.210584  9147 layer_factory.hpp:77] Creating layer inception_4a/5x5_reduce
I0403 19:21:39.210608  9147 net.cpp:91] Creating Layer inception_4a/5x5_reduce
I0403 19:21:39.210624  9147 net.cpp:425] inception_4a/5x5_reduce <- pool3/3x3_s2_pool3/3x3_s2_0_split_2
I0403 19:21:39.210645  9147 net.cpp:399] inception_4a/5x5_reduce -> inception_4a/5x5_reduce
I0403 19:21:39.211669  9147 net.cpp:141] Setting up inception_4a/5x5_reduce
I0403 19:21:39.211699  9147 net.cpp:148] Top shape: 24 16 14 14 (75264)
I0403 19:21:39.211715  9147 net.cpp:156] Memory required for data: 873364512
I0403 19:21:39.211735  9147 layer_factory.hpp:77] Creating layer inception_4a/relu_5x5_reduce
I0403 19:21:39.211755  9147 net.cpp:91] Creating Layer inception_4a/relu_5x5_reduce
I0403 19:21:39.211771  9147 net.cpp:425] inception_4a/relu_5x5_reduce <- inception_4a/5x5_reduce
I0403 19:21:39.211789  9147 net.cpp:386] inception_4a/relu_5x5_reduce -> inception_4a/5x5_reduce (in-place)
I0403 19:21:39.211971  9147 net.cpp:141] Setting up inception_4a/relu_5x5_reduce
I0403 19:21:39.211998  9147 net.cpp:148] Top shape: 24 16 14 14 (75264)
I0403 19:21:39.212014  9147 net.cpp:156] Memory required for data: 873665568
I0403 19:21:39.212030  9147 layer_factory.hpp:77] Creating layer inception_4a/5x5
I0403 19:21:39.212054  9147 net.cpp:91] Creating Layer inception_4a/5x5
I0403 19:21:39.212074  9147 net.cpp:425] inception_4a/5x5 <- inception_4a/5x5_reduce
I0403 19:21:39.212092  9147 net.cpp:399] inception_4a/5x5 -> inception_4a/5x5
I0403 19:21:39.213183  9147 net.cpp:141] Setting up inception_4a/5x5
I0403 19:21:39.213224  9147 net.cpp:148] Top shape: 24 48 14 14 (225792)
I0403 19:21:39.213244  9147 net.cpp:156] Memory required for data: 874568736
I0403 19:21:39.213263  9147 layer_factory.hpp:77] Creating layer inception_4a/relu_5x5
I0403 19:21:39.213280  9147 net.cpp:91] Creating Layer inception_4a/relu_5x5
I0403 19:21:39.213296  9147 net.cpp:425] inception_4a/relu_5x5 <- inception_4a/5x5
I0403 19:21:39.213313  9147 net.cpp:386] inception_4a/relu_5x5 -> inception_4a/5x5 (in-place)
I0403 19:21:39.213495  9147 net.cpp:141] Setting up inception_4a/relu_5x5
I0403 19:21:39.213524  9147 net.cpp:148] Top shape: 24 48 14 14 (225792)
I0403 19:21:39.213541  9147 net.cpp:156] Memory required for data: 875471904
I0403 19:21:39.213557  9147 layer_factory.hpp:77] Creating layer inception_4a/pool
I0403 19:21:39.213575  9147 net.cpp:91] Creating Layer inception_4a/pool
I0403 19:21:39.213592  9147 net.cpp:425] inception_4a/pool <- pool3/3x3_s2_pool3/3x3_s2_0_split_3
I0403 19:21:39.213611  9147 net.cpp:399] inception_4a/pool -> inception_4a/pool
I0403 19:21:39.213676  9147 net.cpp:141] Setting up inception_4a/pool
I0403 19:21:39.213702  9147 net.cpp:148] Top shape: 24 480 14 14 (2257920)
I0403 19:21:39.213719  9147 net.cpp:156] Memory required for data: 884503584
I0403 19:21:39.213735  9147 layer_factory.hpp:77] Creating layer inception_4a/pool_proj
I0403 19:21:39.213757  9147 net.cpp:91] Creating Layer inception_4a/pool_proj
I0403 19:21:39.213773  9147 net.cpp:425] inception_4a/pool_proj <- inception_4a/pool
I0403 19:21:39.213793  9147 net.cpp:399] inception_4a/pool_proj -> inception_4a/pool_proj
I0403 19:21:39.214962  9147 net.cpp:141] Setting up inception_4a/pool_proj
I0403 19:21:39.214994  9147 net.cpp:148] Top shape: 24 64 14 14 (301056)
I0403 19:21:39.215025  9147 net.cpp:156] Memory required for data: 885707808
I0403 19:21:39.215044  9147 layer_factory.hpp:77] Creating layer inception_4a/relu_pool_proj
I0403 19:21:39.215062  9147 net.cpp:91] Creating Layer inception_4a/relu_pool_proj
I0403 19:21:39.215080  9147 net.cpp:425] inception_4a/relu_pool_proj <- inception_4a/pool_proj
I0403 19:21:39.215100  9147 net.cpp:386] inception_4a/relu_pool_proj -> inception_4a/pool_proj (in-place)
I0403 19:21:39.215390  9147 net.cpp:141] Setting up inception_4a/relu_pool_proj
I0403 19:21:39.215420  9147 net.cpp:148] Top shape: 24 64 14 14 (301056)
I0403 19:21:39.215435  9147 net.cpp:156] Memory required for data: 886912032
I0403 19:21:39.215451  9147 layer_factory.hpp:77] Creating layer inception_4a/output
I0403 19:21:39.215469  9147 net.cpp:91] Creating Layer inception_4a/output
I0403 19:21:39.215484  9147 net.cpp:425] inception_4a/output <- inception_4a/1x1
I0403 19:21:39.215500  9147 net.cpp:425] inception_4a/output <- inception_4a/3x3
I0403 19:21:39.215517  9147 net.cpp:425] inception_4a/output <- inception_4a/5x5
I0403 19:21:39.215533  9147 net.cpp:425] inception_4a/output <- inception_4a/pool_proj
I0403 19:21:39.215548  9147 net.cpp:399] inception_4a/output -> inception_4a/output
I0403 19:21:39.215593  9147 net.cpp:141] Setting up inception_4a/output
I0403 19:21:39.215616  9147 net.cpp:148] Top shape: 24 512 14 14 (2408448)
I0403 19:21:39.215631  9147 net.cpp:156] Memory required for data: 896545824
I0403 19:21:39.215644  9147 layer_factory.hpp:77] Creating layer inception_4a/output_inception_4a/output_0_split
I0403 19:21:39.215663  9147 net.cpp:91] Creating Layer inception_4a/output_inception_4a/output_0_split
I0403 19:21:39.215679  9147 net.cpp:425] inception_4a/output_inception_4a/output_0_split <- inception_4a/output
I0403 19:21:39.215697  9147 net.cpp:399] inception_4a/output_inception_4a/output_0_split -> inception_4a/output_inception_4a/output_0_split_0
I0403 19:21:39.215716  9147 net.cpp:399] inception_4a/output_inception_4a/output_0_split -> inception_4a/output_inception_4a/output_0_split_1
I0403 19:21:39.215736  9147 net.cpp:399] inception_4a/output_inception_4a/output_0_split -> inception_4a/output_inception_4a/output_0_split_2
I0403 19:21:39.215759  9147 net.cpp:399] inception_4a/output_inception_4a/output_0_split -> inception_4a/output_inception_4a/output_0_split_3
I0403 19:21:39.215780  9147 net.cpp:399] inception_4a/output_inception_4a/output_0_split -> inception_4a/output_inception_4a/output_0_split_4
I0403 19:21:39.215873  9147 net.cpp:141] Setting up inception_4a/output_inception_4a/output_0_split
I0403 19:21:39.215896  9147 net.cpp:148] Top shape: 24 512 14 14 (2408448)
I0403 19:21:39.215912  9147 net.cpp:148] Top shape: 24 512 14 14 (2408448)
I0403 19:21:39.215927  9147 net.cpp:148] Top shape: 24 512 14 14 (2408448)
I0403 19:21:39.215942  9147 net.cpp:148] Top shape: 24 512 14 14 (2408448)
I0403 19:21:39.215957  9147 net.cpp:148] Top shape: 24 512 14 14 (2408448)
I0403 19:21:39.215970  9147 net.cpp:156] Memory required for data: 944714784
I0403 19:21:39.215984  9147 layer_factory.hpp:77] Creating layer loss1/ave_pool
I0403 19:21:39.216003  9147 net.cpp:91] Creating Layer loss1/ave_pool
I0403 19:21:39.216020  9147 net.cpp:425] loss1/ave_pool <- inception_4a/output_inception_4a/output_0_split_0
I0403 19:21:39.216037  9147 net.cpp:399] loss1/ave_pool -> loss1/ave_pool
I0403 19:21:39.216248  9147 net.cpp:141] Setting up loss1/ave_pool
I0403 19:21:39.216276  9147 net.cpp:148] Top shape: 24 512 4 4 (196608)
I0403 19:21:39.216290  9147 net.cpp:156] Memory required for data: 945501216
I0403 19:21:39.216305  9147 layer_factory.hpp:77] Creating layer loss1/conv
I0403 19:21:39.216327  9147 net.cpp:91] Creating Layer loss1/conv
I0403 19:21:39.216344  9147 net.cpp:425] loss1/conv <- loss1/ave_pool
I0403 19:21:39.216366  9147 net.cpp:399] loss1/conv -> loss1/conv
I0403 19:21:39.217787  9147 net.cpp:141] Setting up loss1/conv
I0403 19:21:39.217815  9147 net.cpp:148] Top shape: 24 128 4 4 (49152)
I0403 19:21:39.217844  9147 net.cpp:156] Memory required for data: 945697824
I0403 19:21:39.217864  9147 layer_factory.hpp:77] Creating layer loss1/relu_conv
I0403 19:21:39.217882  9147 net.cpp:91] Creating Layer loss1/relu_conv
I0403 19:21:39.217898  9147 net.cpp:425] loss1/relu_conv <- loss1/conv
I0403 19:21:39.217914  9147 net.cpp:386] loss1/relu_conv -> loss1/conv (in-place)
I0403 19:21:39.218194  9147 net.cpp:141] Setting up loss1/relu_conv
I0403 19:21:39.218224  9147 net.cpp:148] Top shape: 24 128 4 4 (49152)
I0403 19:21:39.218240  9147 net.cpp:156] Memory required for data: 945894432
I0403 19:21:39.218253  9147 layer_factory.hpp:77] Creating layer loss1/fc
I0403 19:21:39.218278  9147 net.cpp:91] Creating Layer loss1/fc
I0403 19:21:39.218296  9147 net.cpp:425] loss1/fc <- loss1/conv
I0403 19:21:39.218312  9147 net.cpp:399] loss1/fc -> loss1/fc
I0403 19:21:39.235869  9147 net.cpp:141] Setting up loss1/fc
I0403 19:21:39.235904  9147 net.cpp:148] Top shape: 24 1024 (24576)
I0403 19:21:39.235920  9147 net.cpp:156] Memory required for data: 945992736
I0403 19:21:39.235939  9147 layer_factory.hpp:77] Creating layer loss1/relu_fc
I0403 19:21:39.235957  9147 net.cpp:91] Creating Layer loss1/relu_fc
I0403 19:21:39.235973  9147 net.cpp:425] loss1/relu_fc <- loss1/fc
I0403 19:21:39.235992  9147 net.cpp:386] loss1/relu_fc -> loss1/fc (in-place)
I0403 19:21:39.236187  9147 net.cpp:141] Setting up loss1/relu_fc
I0403 19:21:39.236215  9147 net.cpp:148] Top shape: 24 1024 (24576)
I0403 19:21:39.236230  9147 net.cpp:156] Memory required for data: 946091040
I0403 19:21:39.236245  9147 layer_factory.hpp:77] Creating layer loss1/drop_fc
I0403 19:21:39.236274  9147 net.cpp:91] Creating Layer loss1/drop_fc
I0403 19:21:39.236291  9147 net.cpp:425] loss1/drop_fc <- loss1/fc
I0403 19:21:39.236310  9147 net.cpp:386] loss1/drop_fc -> loss1/fc (in-place)
I0403 19:21:39.236358  9147 net.cpp:141] Setting up loss1/drop_fc
I0403 19:21:39.236382  9147 net.cpp:148] Top shape: 24 1024 (24576)
I0403 19:21:39.236394  9147 net.cpp:156] Memory required for data: 946189344
I0403 19:21:39.236410  9147 layer_factory.hpp:77] Creating layer loss1/classifier_plantvillage
I0403 19:21:39.236433  9147 net.cpp:91] Creating Layer loss1/classifier_plantvillage
I0403 19:21:39.236449  9147 net.cpp:425] loss1/classifier_plantvillage <- loss1/fc
I0403 19:21:39.236480  9147 net.cpp:399] loss1/classifier_plantvillage -> loss1/classifier_plantvillage
I0403 19:21:39.237396  9147 net.cpp:141] Setting up loss1/classifier_plantvillage
I0403 19:21:39.237424  9147 net.cpp:148] Top shape: 24 38 (912)
I0403 19:21:39.237439  9147 net.cpp:156] Memory required for data: 946192992
I0403 19:21:39.237457  9147 layer_factory.hpp:77] Creating layer loss1/classifier_plantvillage_loss1/classifier_plantvillage_0_split
I0403 19:21:39.237485  9147 net.cpp:91] Creating Layer loss1/classifier_plantvillage_loss1/classifier_plantvillage_0_split
I0403 19:21:39.237500  9147 net.cpp:425] loss1/classifier_plantvillage_loss1/classifier_plantvillage_0_split <- loss1/classifier_plantvillage
I0403 19:21:39.237519  9147 net.cpp:399] loss1/classifier_plantvillage_loss1/classifier_plantvillage_0_split -> loss1/classifier_plantvillage_loss1/classifier_plantvillage_0_split_0
I0403 19:21:39.237540  9147 net.cpp:399] loss1/classifier_plantvillage_loss1/classifier_plantvillage_0_split -> loss1/classifier_plantvillage_loss1/classifier_plantvillage_0_split_1
I0403 19:21:39.237558  9147 net.cpp:399] loss1/classifier_plantvillage_loss1/classifier_plantvillage_0_split -> loss1/classifier_plantvillage_loss1/classifier_plantvillage_0_split_2
I0403 19:21:39.237622  9147 net.cpp:141] Setting up loss1/classifier_plantvillage_loss1/classifier_plantvillage_0_split
I0403 19:21:39.237646  9147 net.cpp:148] Top shape: 24 38 (912)
I0403 19:21:39.237663  9147 net.cpp:148] Top shape: 24 38 (912)
I0403 19:21:39.237679  9147 net.cpp:148] Top shape: 24 38 (912)
I0403 19:21:39.237691  9147 net.cpp:156] Memory required for data: 946203936
I0403 19:21:39.237705  9147 layer_factory.hpp:77] Creating layer inception_4b/1x1
I0403 19:21:39.237723  9147 net.cpp:91] Creating Layer inception_4b/1x1
I0403 19:21:39.237756  9147 net.cpp:425] inception_4b/1x1 <- inception_4a/output_inception_4a/output_0_split_1
I0403 19:21:39.237776  9147 net.cpp:399] inception_4b/1x1 -> inception_4b/1x1
I0403 19:21:39.239398  9147 net.cpp:141] Setting up inception_4b/1x1
I0403 19:21:39.239426  9147 net.cpp:148] Top shape: 24 160 14 14 (752640)
I0403 19:21:39.239441  9147 net.cpp:156] Memory required for data: 949214496
I0403 19:21:39.239471  9147 layer_factory.hpp:77] Creating layer inception_4b/relu_1x1
I0403 19:21:39.239490  9147 net.cpp:91] Creating Layer inception_4b/relu_1x1
I0403 19:21:39.239506  9147 net.cpp:425] inception_4b/relu_1x1 <- inception_4b/1x1
I0403 19:21:39.239523  9147 net.cpp:386] inception_4b/relu_1x1 -> inception_4b/1x1 (in-place)
I0403 19:21:39.239706  9147 net.cpp:141] Setting up inception_4b/relu_1x1
I0403 19:21:39.239729  9147 net.cpp:148] Top shape: 24 160 14 14 (752640)
I0403 19:21:39.239743  9147 net.cpp:156] Memory required for data: 952225056
I0403 19:21:39.239758  9147 layer_factory.hpp:77] Creating layer inception_4b/3x3_reduce
I0403 19:21:39.239781  9147 net.cpp:91] Creating Layer inception_4b/3x3_reduce
I0403 19:21:39.239797  9147 net.cpp:425] inception_4b/3x3_reduce <- inception_4a/output_inception_4a/output_0_split_2
I0403 19:21:39.239816  9147 net.cpp:399] inception_4b/3x3_reduce -> inception_4b/3x3_reduce
I0403 19:21:39.241160  9147 net.cpp:141] Setting up inception_4b/3x3_reduce
I0403 19:21:39.241189  9147 net.cpp:148] Top shape: 24 112 14 14 (526848)
I0403 19:21:39.241204  9147 net.cpp:156] Memory required for data: 954332448
I0403 19:21:39.241228  9147 layer_factory.hpp:77] Creating layer inception_4b/relu_3x3_reduce
I0403 19:21:39.241253  9147 net.cpp:91] Creating Layer inception_4b/relu_3x3_reduce
I0403 19:21:39.241271  9147 net.cpp:425] inception_4b/relu_3x3_reduce <- inception_4b/3x3_reduce
I0403 19:21:39.241287  9147 net.cpp:386] inception_4b/relu_3x3_reduce -> inception_4b/3x3_reduce (in-place)
I0403 19:21:39.241559  9147 net.cpp:141] Setting up inception_4b/relu_3x3_reduce
I0403 19:21:39.241583  9147 net.cpp:148] Top shape: 24 112 14 14 (526848)
I0403 19:21:39.241598  9147 net.cpp:156] Memory required for data: 956439840
I0403 19:21:39.241612  9147 layer_factory.hpp:77] Creating layer inception_4b/3x3
I0403 19:21:39.241634  9147 net.cpp:91] Creating Layer inception_4b/3x3
I0403 19:21:39.241652  9147 net.cpp:425] inception_4b/3x3 <- inception_4b/3x3_reduce
I0403 19:21:39.241669  9147 net.cpp:399] inception_4b/3x3 -> inception_4b/3x3
I0403 19:21:39.244587  9147 net.cpp:141] Setting up inception_4b/3x3
I0403 19:21:39.244619  9147 net.cpp:148] Top shape: 24 224 14 14 (1053696)
I0403 19:21:39.244637  9147 net.cpp:156] Memory required for data: 960654624
I0403 19:21:39.244654  9147 layer_factory.hpp:77] Creating layer inception_4b/relu_3x3
I0403 19:21:39.244671  9147 net.cpp:91] Creating Layer inception_4b/relu_3x3
I0403 19:21:39.244688  9147 net.cpp:425] inception_4b/relu_3x3 <- inception_4b/3x3
I0403 19:21:39.244706  9147 net.cpp:386] inception_4b/relu_3x3 -> inception_4b/3x3 (in-place)
I0403 19:21:39.244887  9147 net.cpp:141] Setting up inception_4b/relu_3x3
I0403 19:21:39.244911  9147 net.cpp:148] Top shape: 24 224 14 14 (1053696)
I0403 19:21:39.244925  9147 net.cpp:156] Memory required for data: 964869408
I0403 19:21:39.244940  9147 layer_factory.hpp:77] Creating layer inception_4b/5x5_reduce
I0403 19:21:39.244959  9147 net.cpp:91] Creating Layer inception_4b/5x5_reduce
I0403 19:21:39.244976  9147 net.cpp:425] inception_4b/5x5_reduce <- inception_4a/output_inception_4a/output_0_split_3
I0403 19:21:39.244997  9147 net.cpp:399] inception_4b/5x5_reduce -> inception_4b/5x5_reduce
I0403 19:21:39.246084  9147 net.cpp:141] Setting up inception_4b/5x5_reduce
I0403 19:21:39.246111  9147 net.cpp:148] Top shape: 24 24 14 14 (112896)
I0403 19:21:39.246125  9147 net.cpp:156] Memory required for data: 965320992
I0403 19:21:39.246145  9147 layer_factory.hpp:77] Creating layer inception_4b/relu_5x5_reduce
I0403 19:21:39.246163  9147 net.cpp:91] Creating Layer inception_4b/relu_5x5_reduce
I0403 19:21:39.246193  9147 net.cpp:425] inception_4b/relu_5x5_reduce <- inception_4b/5x5_reduce
I0403 19:21:39.246217  9147 net.cpp:386] inception_4b/relu_5x5_reduce -> inception_4b/5x5_reduce (in-place)
I0403 19:21:39.246398  9147 net.cpp:141] Setting up inception_4b/relu_5x5_reduce
I0403 19:21:39.246424  9147 net.cpp:148] Top shape: 24 24 14 14 (112896)
I0403 19:21:39.246438  9147 net.cpp:156] Memory required for data: 965772576
I0403 19:21:39.246453  9147 layer_factory.hpp:77] Creating layer inception_4b/5x5
I0403 19:21:39.246472  9147 net.cpp:91] Creating Layer inception_4b/5x5
I0403 19:21:39.246490  9147 net.cpp:425] inception_4b/5x5 <- inception_4b/5x5_reduce
I0403 19:21:39.246507  9147 net.cpp:399] inception_4b/5x5 -> inception_4b/5x5
I0403 19:21:39.247717  9147 net.cpp:141] Setting up inception_4b/5x5
I0403 19:21:39.247745  9147 net.cpp:148] Top shape: 24 64 14 14 (301056)
I0403 19:21:39.247761  9147 net.cpp:156] Memory required for data: 966976800
I0403 19:21:39.247778  9147 layer_factory.hpp:77] Creating layer inception_4b/relu_5x5
I0403 19:21:39.247798  9147 net.cpp:91] Creating Layer inception_4b/relu_5x5
I0403 19:21:39.247815  9147 net.cpp:425] inception_4b/relu_5x5 <- inception_4b/5x5
I0403 19:21:39.247833  9147 net.cpp:386] inception_4b/relu_5x5 -> inception_4b/5x5 (in-place)
I0403 19:21:39.248111  9147 net.cpp:141] Setting up inception_4b/relu_5x5
I0403 19:21:39.248136  9147 net.cpp:148] Top shape: 24 64 14 14 (301056)
I0403 19:21:39.248150  9147 net.cpp:156] Memory required for data: 968181024
I0403 19:21:39.248164  9147 layer_factory.hpp:77] Creating layer inception_4b/pool
I0403 19:21:39.248184  9147 net.cpp:91] Creating Layer inception_4b/pool
I0403 19:21:39.248200  9147 net.cpp:425] inception_4b/pool <- inception_4a/output_inception_4a/output_0_split_4
I0403 19:21:39.248225  9147 net.cpp:399] inception_4b/pool -> inception_4b/pool
I0403 19:21:39.248292  9147 net.cpp:141] Setting up inception_4b/pool
I0403 19:21:39.248316  9147 net.cpp:148] Top shape: 24 512 14 14 (2408448)
I0403 19:21:39.248329  9147 net.cpp:156] Memory required for data: 977814816
I0403 19:21:39.248343  9147 layer_factory.hpp:77] Creating layer inception_4b/pool_proj
I0403 19:21:39.248363  9147 net.cpp:91] Creating Layer inception_4b/pool_proj
I0403 19:21:39.248380  9147 net.cpp:425] inception_4b/pool_proj <- inception_4b/pool
I0403 19:21:39.248399  9147 net.cpp:399] inception_4b/pool_proj -> inception_4b/pool_proj
I0403 19:21:39.249577  9147 net.cpp:141] Setting up inception_4b/pool_proj
I0403 19:21:39.249604  9147 net.cpp:148] Top shape: 24 64 14 14 (301056)
I0403 19:21:39.249619  9147 net.cpp:156] Memory required for data: 979019040
I0403 19:21:39.249635  9147 layer_factory.hpp:77] Creating layer inception_4b/relu_pool_proj
I0403 19:21:39.249655  9147 net.cpp:91] Creating Layer inception_4b/relu_pool_proj
I0403 19:21:39.249672  9147 net.cpp:425] inception_4b/relu_pool_proj <- inception_4b/pool_proj
I0403 19:21:39.249688  9147 net.cpp:386] inception_4b/relu_pool_proj -> inception_4b/pool_proj (in-place)
I0403 19:21:39.249863  9147 net.cpp:141] Setting up inception_4b/relu_pool_proj
I0403 19:21:39.249889  9147 net.cpp:148] Top shape: 24 64 14 14 (301056)
I0403 19:21:39.249903  9147 net.cpp:156] Memory required for data: 980223264
I0403 19:21:39.249917  9147 layer_factory.hpp:77] Creating layer inception_4b/output
I0403 19:21:39.249933  9147 net.cpp:91] Creating Layer inception_4b/output
I0403 19:21:39.249948  9147 net.cpp:425] inception_4b/output <- inception_4b/1x1
I0403 19:21:39.249963  9147 net.cpp:425] inception_4b/output <- inception_4b/3x3
I0403 19:21:39.249979  9147 net.cpp:425] inception_4b/output <- inception_4b/5x5
I0403 19:21:39.249994  9147 net.cpp:425] inception_4b/output <- inception_4b/pool_proj
I0403 19:21:39.250010  9147 net.cpp:399] inception_4b/output -> inception_4b/output
I0403 19:21:39.250054  9147 net.cpp:141] Setting up inception_4b/output
I0403 19:21:39.250077  9147 net.cpp:148] Top shape: 24 512 14 14 (2408448)
I0403 19:21:39.250090  9147 net.cpp:156] Memory required for data: 989857056
I0403 19:21:39.250118  9147 layer_factory.hpp:77] Creating layer inception_4b/output_inception_4b/output_0_split
I0403 19:21:39.250135  9147 net.cpp:91] Creating Layer inception_4b/output_inception_4b/output_0_split
I0403 19:21:39.250150  9147 net.cpp:425] inception_4b/output_inception_4b/output_0_split <- inception_4b/output
I0403 19:21:39.250169  9147 net.cpp:399] inception_4b/output_inception_4b/output_0_split -> inception_4b/output_inception_4b/output_0_split_0
I0403 19:21:39.250188  9147 net.cpp:399] inception_4b/output_inception_4b/output_0_split -> inception_4b/output_inception_4b/output_0_split_1
I0403 19:21:39.250214  9147 net.cpp:399] inception_4b/output_inception_4b/output_0_split -> inception_4b/output_inception_4b/output_0_split_2
I0403 19:21:39.250238  9147 net.cpp:399] inception_4b/output_inception_4b/output_0_split -> inception_4b/output_inception_4b/output_0_split_3
I0403 19:21:39.250322  9147 net.cpp:141] Setting up inception_4b/output_inception_4b/output_0_split
I0403 19:21:39.250344  9147 net.cpp:148] Top shape: 24 512 14 14 (2408448)
I0403 19:21:39.250360  9147 net.cpp:148] Top shape: 24 512 14 14 (2408448)
I0403 19:21:39.250375  9147 net.cpp:148] Top shape: 24 512 14 14 (2408448)
I0403 19:21:39.250390  9147 net.cpp:148] Top shape: 24 512 14 14 (2408448)
I0403 19:21:39.250402  9147 net.cpp:156] Memory required for data: 1028392224
I0403 19:21:39.250416  9147 layer_factory.hpp:77] Creating layer inception_4c/1x1
I0403 19:21:39.250437  9147 net.cpp:91] Creating Layer inception_4c/1x1
I0403 19:21:39.250453  9147 net.cpp:425] inception_4c/1x1 <- inception_4b/output_inception_4b/output_0_split_0
I0403 19:21:39.250473  9147 net.cpp:399] inception_4c/1x1 -> inception_4c/1x1
I0403 19:21:39.251884  9147 net.cpp:141] Setting up inception_4c/1x1
I0403 19:21:39.251919  9147 net.cpp:148] Top shape: 24 128 14 14 (602112)
I0403 19:21:39.251935  9147 net.cpp:156] Memory required for data: 1030800672
I0403 19:21:39.251953  9147 layer_factory.hpp:77] Creating layer inception_4c/relu_1x1
I0403 19:21:39.251970  9147 net.cpp:91] Creating Layer inception_4c/relu_1x1
I0403 19:21:39.251986  9147 net.cpp:425] inception_4c/relu_1x1 <- inception_4c/1x1
I0403 19:21:39.252004  9147 net.cpp:386] inception_4c/relu_1x1 -> inception_4c/1x1 (in-place)
I0403 19:21:39.252180  9147 net.cpp:141] Setting up inception_4c/relu_1x1
I0403 19:21:39.252205  9147 net.cpp:148] Top shape: 24 128 14 14 (602112)
I0403 19:21:39.252233  9147 net.cpp:156] Memory required for data: 1033209120
I0403 19:21:39.252249  9147 layer_factory.hpp:77] Creating layer inception_4c/3x3_reduce
I0403 19:21:39.252270  9147 net.cpp:91] Creating Layer inception_4c/3x3_reduce
I0403 19:21:39.252287  9147 net.cpp:425] inception_4c/3x3_reduce <- inception_4b/output_inception_4b/output_0_split_1
I0403 19:21:39.252310  9147 net.cpp:399] inception_4c/3x3_reduce -> inception_4c/3x3_reduce
I0403 19:21:39.254204  9147 net.cpp:141] Setting up inception_4c/3x3_reduce
I0403 19:21:39.254238  9147 net.cpp:148] Top shape: 24 128 14 14 (602112)
I0403 19:21:39.254257  9147 net.cpp:156] Memory required for data: 1035617568
I0403 19:21:39.254276  9147 layer_factory.hpp:77] Creating layer inception_4c/relu_3x3_reduce
I0403 19:21:39.254297  9147 net.cpp:91] Creating Layer inception_4c/relu_3x3_reduce
I0403 19:21:39.254313  9147 net.cpp:425] inception_4c/relu_3x3_reduce <- inception_4c/3x3_reduce
I0403 19:21:39.254330  9147 net.cpp:386] inception_4c/relu_3x3_reduce -> inception_4c/3x3_reduce (in-place)
I0403 19:21:39.254614  9147 net.cpp:141] Setting up inception_4c/relu_3x3_reduce
I0403 19:21:39.254639  9147 net.cpp:148] Top shape: 24 128 14 14 (602112)
I0403 19:21:39.254654  9147 net.cpp:156] Memory required for data: 1038026016
I0403 19:21:39.254669  9147 layer_factory.hpp:77] Creating layer inception_4c/3x3
I0403 19:21:39.254691  9147 net.cpp:91] Creating Layer inception_4c/3x3
I0403 19:21:39.254709  9147 net.cpp:425] inception_4c/3x3 <- inception_4c/3x3_reduce
I0403 19:21:39.254729  9147 net.cpp:399] inception_4c/3x3 -> inception_4c/3x3
I0403 19:21:39.258272  9147 net.cpp:141] Setting up inception_4c/3x3
I0403 19:21:39.258314  9147 net.cpp:148] Top shape: 24 256 14 14 (1204224)
I0403 19:21:39.258330  9147 net.cpp:156] Memory required for data: 1042842912
I0403 19:21:39.258361  9147 layer_factory.hpp:77] Creating layer inception_4c/relu_3x3
I0403 19:21:39.258384  9147 net.cpp:91] Creating Layer inception_4c/relu_3x3
I0403 19:21:39.258402  9147 net.cpp:425] inception_4c/relu_3x3 <- inception_4c/3x3
I0403 19:21:39.258420  9147 net.cpp:386] inception_4c/relu_3x3 -> inception_4c/3x3 (in-place)
I0403 19:21:39.258599  9147 net.cpp:141] Setting up inception_4c/relu_3x3
I0403 19:21:39.258622  9147 net.cpp:148] Top shape: 24 256 14 14 (1204224)
I0403 19:21:39.258636  9147 net.cpp:156] Memory required for data: 1047659808
I0403 19:21:39.258651  9147 layer_factory.hpp:77] Creating layer inception_4c/5x5_reduce
I0403 19:21:39.258671  9147 net.cpp:91] Creating Layer inception_4c/5x5_reduce
I0403 19:21:39.258688  9147 net.cpp:425] inception_4c/5x5_reduce <- inception_4b/output_inception_4b/output_0_split_2
I0403 19:21:39.258709  9147 net.cpp:399] inception_4c/5x5_reduce -> inception_4c/5x5_reduce
I0403 19:21:39.259790  9147 net.cpp:141] Setting up inception_4c/5x5_reduce
I0403 19:21:39.259819  9147 net.cpp:148] Top shape: 24 24 14 14 (112896)
I0403 19:21:39.259832  9147 net.cpp:156] Memory required for data: 1048111392
I0403 19:21:39.259850  9147 layer_factory.hpp:77] Creating layer inception_4c/relu_5x5_reduce
I0403 19:21:39.259872  9147 net.cpp:91] Creating Layer inception_4c/relu_5x5_reduce
I0403 19:21:39.259891  9147 net.cpp:425] inception_4c/relu_5x5_reduce <- inception_4c/5x5_reduce
I0403 19:21:39.259907  9147 net.cpp:386] inception_4c/relu_5x5_reduce -> inception_4c/5x5_reduce (in-place)
I0403 19:21:39.260083  9147 net.cpp:141] Setting up inception_4c/relu_5x5_reduce
I0403 19:21:39.260109  9147 net.cpp:148] Top shape: 24 24 14 14 (112896)
I0403 19:21:39.260124  9147 net.cpp:156] Memory required for data: 1048562976
I0403 19:21:39.260139  9147 layer_factory.hpp:77] Creating layer inception_4c/5x5
I0403 19:21:39.260160  9147 net.cpp:91] Creating Layer inception_4c/5x5
I0403 19:21:39.260177  9147 net.cpp:425] inception_4c/5x5 <- inception_4c/5x5_reduce
I0403 19:21:39.260195  9147 net.cpp:399] inception_4c/5x5 -> inception_4c/5x5
I0403 19:21:39.261431  9147 net.cpp:141] Setting up inception_4c/5x5
I0403 19:21:39.261462  9147 net.cpp:148] Top shape: 24 64 14 14 (301056)
I0403 19:21:39.261478  9147 net.cpp:156] Memory required for data: 1049767200
I0403 19:21:39.261497  9147 layer_factory.hpp:77] Creating layer inception_4c/relu_5x5
I0403 19:21:39.261514  9147 net.cpp:91] Creating Layer inception_4c/relu_5x5
I0403 19:21:39.261529  9147 net.cpp:425] inception_4c/relu_5x5 <- inception_4c/5x5
I0403 19:21:39.261549  9147 net.cpp:386] inception_4c/relu_5x5 -> inception_4c/5x5 (in-place)
I0403 19:21:39.261847  9147 net.cpp:141] Setting up inception_4c/relu_5x5
I0403 19:21:39.261873  9147 net.cpp:148] Top shape: 24 64 14 14 (301056)
I0403 19:21:39.261888  9147 net.cpp:156] Memory required for data: 1050971424
I0403 19:21:39.261904  9147 layer_factory.hpp:77] Creating layer inception_4c/pool
I0403 19:21:39.261920  9147 net.cpp:91] Creating Layer inception_4c/pool
I0403 19:21:39.261935  9147 net.cpp:425] inception_4c/pool <- inception_4b/output_inception_4b/output_0_split_3
I0403 19:21:39.261955  9147 net.cpp:399] inception_4c/pool -> inception_4c/pool
I0403 19:21:39.262018  9147 net.cpp:141] Setting up inception_4c/pool
I0403 19:21:39.262042  9147 net.cpp:148] Top shape: 24 512 14 14 (2408448)
I0403 19:21:39.262054  9147 net.cpp:156] Memory required for data: 1060605216
I0403 19:21:39.262069  9147 layer_factory.hpp:77] Creating layer inception_4c/pool_proj
I0403 19:21:39.262089  9147 net.cpp:91] Creating Layer inception_4c/pool_proj
I0403 19:21:39.262105  9147 net.cpp:425] inception_4c/pool_proj <- inception_4c/pool
I0403 19:21:39.262125  9147 net.cpp:399] inception_4c/pool_proj -> inception_4c/pool_proj
I0403 19:21:39.263345  9147 net.cpp:141] Setting up inception_4c/pool_proj
I0403 19:21:39.263372  9147 net.cpp:148] Top shape: 24 64 14 14 (301056)
I0403 19:21:39.263401  9147 net.cpp:156] Memory required for data: 1061809440
I0403 19:21:39.263420  9147 layer_factory.hpp:77] Creating layer inception_4c/relu_pool_proj
I0403 19:21:39.263442  9147 net.cpp:91] Creating Layer inception_4c/relu_pool_proj
I0403 19:21:39.263470  9147 net.cpp:425] inception_4c/relu_pool_proj <- inception_4c/pool_proj
I0403 19:21:39.263486  9147 net.cpp:386] inception_4c/relu_pool_proj -> inception_4c/pool_proj (in-place)
I0403 19:21:39.263680  9147 net.cpp:141] Setting up inception_4c/relu_pool_proj
I0403 19:21:39.263705  9147 net.cpp:148] Top shape: 24 64 14 14 (301056)
I0403 19:21:39.263720  9147 net.cpp:156] Memory required for data: 1063013664
I0403 19:21:39.263734  9147 layer_factory.hpp:77] Creating layer inception_4c/output
I0403 19:21:39.263753  9147 net.cpp:91] Creating Layer inception_4c/output
I0403 19:21:39.263769  9147 net.cpp:425] inception_4c/output <- inception_4c/1x1
I0403 19:21:39.263785  9147 net.cpp:425] inception_4c/output <- inception_4c/3x3
I0403 19:21:39.263800  9147 net.cpp:425] inception_4c/output <- inception_4c/5x5
I0403 19:21:39.263815  9147 net.cpp:425] inception_4c/output <- inception_4c/pool_proj
I0403 19:21:39.263831  9147 net.cpp:399] inception_4c/output -> inception_4c/output
I0403 19:21:39.263880  9147 net.cpp:141] Setting up inception_4c/output
I0403 19:21:39.263901  9147 net.cpp:148] Top shape: 24 512 14 14 (2408448)
I0403 19:21:39.263916  9147 net.cpp:156] Memory required for data: 1072647456
I0403 19:21:39.263929  9147 layer_factory.hpp:77] Creating layer inception_4c/output_inception_4c/output_0_split
I0403 19:21:39.263947  9147 net.cpp:91] Creating Layer inception_4c/output_inception_4c/output_0_split
I0403 19:21:39.263962  9147 net.cpp:425] inception_4c/output_inception_4c/output_0_split <- inception_4c/output
I0403 19:21:39.263980  9147 net.cpp:399] inception_4c/output_inception_4c/output_0_split -> inception_4c/output_inception_4c/output_0_split_0
I0403 19:21:39.264000  9147 net.cpp:399] inception_4c/output_inception_4c/output_0_split -> inception_4c/output_inception_4c/output_0_split_1
I0403 19:21:39.264021  9147 net.cpp:399] inception_4c/output_inception_4c/output_0_split -> inception_4c/output_inception_4c/output_0_split_2
I0403 19:21:39.264040  9147 net.cpp:399] inception_4c/output_inception_4c/output_0_split -> inception_4c/output_inception_4c/output_0_split_3
I0403 19:21:39.264130  9147 net.cpp:141] Setting up inception_4c/output_inception_4c/output_0_split
I0403 19:21:39.264153  9147 net.cpp:148] Top shape: 24 512 14 14 (2408448)
I0403 19:21:39.264168  9147 net.cpp:148] Top shape: 24 512 14 14 (2408448)
I0403 19:21:39.264183  9147 net.cpp:148] Top shape: 24 512 14 14 (2408448)
I0403 19:21:39.264199  9147 net.cpp:148] Top shape: 24 512 14 14 (2408448)
I0403 19:21:39.264217  9147 net.cpp:156] Memory required for data: 1111182624
I0403 19:21:39.264233  9147 layer_factory.hpp:77] Creating layer inception_4d/1x1
I0403 19:21:39.264262  9147 net.cpp:91] Creating Layer inception_4d/1x1
I0403 19:21:39.264281  9147 net.cpp:425] inception_4d/1x1 <- inception_4c/output_inception_4c/output_0_split_0
I0403 19:21:39.264300  9147 net.cpp:399] inception_4d/1x1 -> inception_4d/1x1
I0403 19:21:39.265686  9147 net.cpp:141] Setting up inception_4d/1x1
I0403 19:21:39.265717  9147 net.cpp:148] Top shape: 24 112 14 14 (526848)
I0403 19:21:39.265733  9147 net.cpp:156] Memory required for data: 1113290016
I0403 19:21:39.265750  9147 layer_factory.hpp:77] Creating layer inception_4d/relu_1x1
I0403 19:21:39.265769  9147 net.cpp:91] Creating Layer inception_4d/relu_1x1
I0403 19:21:39.265784  9147 net.cpp:425] inception_4d/relu_1x1 <- inception_4d/1x1
I0403 19:21:39.265804  9147 net.cpp:386] inception_4d/relu_1x1 -> inception_4d/1x1 (in-place)
I0403 19:21:39.266005  9147 net.cpp:141] Setting up inception_4d/relu_1x1
I0403 19:21:39.266029  9147 net.cpp:148] Top shape: 24 112 14 14 (526848)
I0403 19:21:39.266046  9147 net.cpp:156] Memory required for data: 1115397408
I0403 19:21:39.266072  9147 layer_factory.hpp:77] Creating layer inception_4d/3x3_reduce
I0403 19:21:39.266111  9147 net.cpp:91] Creating Layer inception_4d/3x3_reduce
I0403 19:21:39.266131  9147 net.cpp:425] inception_4d/3x3_reduce <- inception_4c/output_inception_4c/output_0_split_1
I0403 19:21:39.266154  9147 net.cpp:399] inception_4d/3x3_reduce -> inception_4d/3x3_reduce
I0403 19:21:39.267740  9147 net.cpp:141] Setting up inception_4d/3x3_reduce
I0403 19:21:39.267774  9147 net.cpp:148] Top shape: 24 144 14 14 (677376)
I0403 19:21:39.267791  9147 net.cpp:156] Memory required for data: 1118106912
I0403 19:21:39.267810  9147 layer_factory.hpp:77] Creating layer inception_4d/relu_3x3_reduce
I0403 19:21:39.267828  9147 net.cpp:91] Creating Layer inception_4d/relu_3x3_reduce
I0403 19:21:39.267845  9147 net.cpp:425] inception_4d/relu_3x3_reduce <- inception_4d/3x3_reduce
I0403 19:21:39.267863  9147 net.cpp:386] inception_4d/relu_3x3_reduce -> inception_4d/3x3_reduce (in-place)
I0403 19:21:39.268151  9147 net.cpp:141] Setting up inception_4d/relu_3x3_reduce
I0403 19:21:39.268182  9147 net.cpp:148] Top shape: 24 144 14 14 (677376)
I0403 19:21:39.268196  9147 net.cpp:156] Memory required for data: 1120816416
I0403 19:21:39.268218  9147 layer_factory.hpp:77] Creating layer inception_4d/3x3
I0403 19:21:39.268241  9147 net.cpp:91] Creating Layer inception_4d/3x3
I0403 19:21:39.268260  9147 net.cpp:425] inception_4d/3x3 <- inception_4d/3x3_reduce
I0403 19:21:39.268278  9147 net.cpp:399] inception_4d/3x3 -> inception_4d/3x3
I0403 19:21:39.272565  9147 net.cpp:141] Setting up inception_4d/3x3
I0403 19:21:39.272594  9147 net.cpp:148] Top shape: 24 288 14 14 (1354752)
I0403 19:21:39.272611  9147 net.cpp:156] Memory required for data: 1126235424
I0403 19:21:39.272629  9147 layer_factory.hpp:77] Creating layer inception_4d/relu_3x3
I0403 19:21:39.272649  9147 net.cpp:91] Creating Layer inception_4d/relu_3x3
I0403 19:21:39.272665  9147 net.cpp:425] inception_4d/relu_3x3 <- inception_4d/3x3
I0403 19:21:39.272685  9147 net.cpp:386] inception_4d/relu_3x3 -> inception_4d/3x3 (in-place)
I0403 19:21:39.272868  9147 net.cpp:141] Setting up inception_4d/relu_3x3
I0403 19:21:39.272896  9147 net.cpp:148] Top shape: 24 288 14 14 (1354752)
I0403 19:21:39.272910  9147 net.cpp:156] Memory required for data: 1131654432
I0403 19:21:39.272924  9147 layer_factory.hpp:77] Creating layer inception_4d/5x5_reduce
I0403 19:21:39.272946  9147 net.cpp:91] Creating Layer inception_4d/5x5_reduce
I0403 19:21:39.272964  9147 net.cpp:425] inception_4d/5x5_reduce <- inception_4c/output_inception_4c/output_0_split_2
I0403 19:21:39.272985  9147 net.cpp:399] inception_4d/5x5_reduce -> inception_4d/5x5_reduce
I0403 19:21:39.274197  9147 net.cpp:141] Setting up inception_4d/5x5_reduce
I0403 19:21:39.274233  9147 net.cpp:148] Top shape: 24 32 14 14 (150528)
I0403 19:21:39.274250  9147 net.cpp:156] Memory required for data: 1132256544
I0403 19:21:39.274267  9147 layer_factory.hpp:77] Creating layer inception_4d/relu_5x5_reduce
I0403 19:21:39.274284  9147 net.cpp:91] Creating Layer inception_4d/relu_5x5_reduce
I0403 19:21:39.274303  9147 net.cpp:425] inception_4d/relu_5x5_reduce <- inception_4d/5x5_reduce
I0403 19:21:39.274320  9147 net.cpp:386] inception_4d/relu_5x5_reduce -> inception_4d/5x5_reduce (in-place)
I0403 19:21:39.274507  9147 net.cpp:141] Setting up inception_4d/relu_5x5_reduce
I0403 19:21:39.274530  9147 net.cpp:148] Top shape: 24 32 14 14 (150528)
I0403 19:21:39.274544  9147 net.cpp:156] Memory required for data: 1132858656
I0403 19:21:39.274559  9147 layer_factory.hpp:77] Creating layer inception_4d/5x5
I0403 19:21:39.274583  9147 net.cpp:91] Creating Layer inception_4d/5x5
I0403 19:21:39.274601  9147 net.cpp:425] inception_4d/5x5 <- inception_4d/5x5_reduce
I0403 19:21:39.274622  9147 net.cpp:399] inception_4d/5x5 -> inception_4d/5x5
I0403 19:21:39.276108  9147 net.cpp:141] Setting up inception_4d/5x5
I0403 19:21:39.276136  9147 net.cpp:148] Top shape: 24 64 14 14 (301056)
I0403 19:21:39.276152  9147 net.cpp:156] Memory required for data: 1134062880
I0403 19:21:39.276170  9147 layer_factory.hpp:77] Creating layer inception_4d/relu_5x5
I0403 19:21:39.276206  9147 net.cpp:91] Creating Layer inception_4d/relu_5x5
I0403 19:21:39.276233  9147 net.cpp:425] inception_4d/relu_5x5 <- inception_4d/5x5
I0403 19:21:39.276252  9147 net.cpp:386] inception_4d/relu_5x5 -> inception_4d/5x5 (in-place)
I0403 19:21:39.276554  9147 net.cpp:141] Setting up inception_4d/relu_5x5
I0403 19:21:39.276581  9147 net.cpp:148] Top shape: 24 64 14 14 (301056)
I0403 19:21:39.276597  9147 net.cpp:156] Memory required for data: 1135267104
I0403 19:21:39.276612  9147 layer_factory.hpp:77] Creating layer inception_4d/pool
I0403 19:21:39.276631  9147 net.cpp:91] Creating Layer inception_4d/pool
I0403 19:21:39.276648  9147 net.cpp:425] inception_4d/pool <- inception_4c/output_inception_4c/output_0_split_3
I0403 19:21:39.276669  9147 net.cpp:399] inception_4d/pool -> inception_4d/pool
I0403 19:21:39.276737  9147 net.cpp:141] Setting up inception_4d/pool
I0403 19:21:39.276762  9147 net.cpp:148] Top shape: 24 512 14 14 (2408448)
I0403 19:21:39.276777  9147 net.cpp:156] Memory required for data: 1144900896
I0403 19:21:39.276792  9147 layer_factory.hpp:77] Creating layer inception_4d/pool_proj
I0403 19:21:39.276813  9147 net.cpp:91] Creating Layer inception_4d/pool_proj
I0403 19:21:39.276831  9147 net.cpp:425] inception_4d/pool_proj <- inception_4d/pool
I0403 19:21:39.276854  9147 net.cpp:399] inception_4d/pool_proj -> inception_4d/pool_proj
I0403 19:21:39.278677  9147 net.cpp:141] Setting up inception_4d/pool_proj
I0403 19:21:39.278707  9147 net.cpp:148] Top shape: 24 64 14 14 (301056)
I0403 19:21:39.278722  9147 net.cpp:156] Memory required for data: 1146105120
I0403 19:21:39.278740  9147 layer_factory.hpp:77] Creating layer inception_4d/relu_pool_proj
I0403 19:21:39.278758  9147 net.cpp:91] Creating Layer inception_4d/relu_pool_proj
I0403 19:21:39.278774  9147 net.cpp:425] inception_4d/relu_pool_proj <- inception_4d/pool_proj
I0403 19:21:39.278795  9147 net.cpp:386] inception_4d/relu_pool_proj -> inception_4d/pool_proj (in-place)
I0403 19:21:39.278985  9147 net.cpp:141] Setting up inception_4d/relu_pool_proj
I0403 19:21:39.279011  9147 net.cpp:148] Top shape: 24 64 14 14 (301056)
I0403 19:21:39.279026  9147 net.cpp:156] Memory required for data: 1147309344
I0403 19:21:39.279041  9147 layer_factory.hpp:77] Creating layer inception_4d/output
I0403 19:21:39.279059  9147 net.cpp:91] Creating Layer inception_4d/output
I0403 19:21:39.279078  9147 net.cpp:425] inception_4d/output <- inception_4d/1x1
I0403 19:21:39.279094  9147 net.cpp:425] inception_4d/output <- inception_4d/3x3
I0403 19:21:39.279110  9147 net.cpp:425] inception_4d/output <- inception_4d/5x5
I0403 19:21:39.279126  9147 net.cpp:425] inception_4d/output <- inception_4d/pool_proj
I0403 19:21:39.279144  9147 net.cpp:399] inception_4d/output -> inception_4d/output
I0403 19:21:39.279192  9147 net.cpp:141] Setting up inception_4d/output
I0403 19:21:39.279223  9147 net.cpp:148] Top shape: 24 528 14 14 (2483712)
I0403 19:21:39.279239  9147 net.cpp:156] Memory required for data: 1157244192
I0403 19:21:39.279263  9147 layer_factory.hpp:77] Creating layer inception_4d/output_inception_4d/output_0_split
I0403 19:21:39.279281  9147 net.cpp:91] Creating Layer inception_4d/output_inception_4d/output_0_split
I0403 19:21:39.279295  9147 net.cpp:425] inception_4d/output_inception_4d/output_0_split <- inception_4d/output
I0403 19:21:39.279314  9147 net.cpp:399] inception_4d/output_inception_4d/output_0_split -> inception_4d/output_inception_4d/output_0_split_0
I0403 19:21:39.279337  9147 net.cpp:399] inception_4d/output_inception_4d/output_0_split -> inception_4d/output_inception_4d/output_0_split_1
I0403 19:21:39.279358  9147 net.cpp:399] inception_4d/output_inception_4d/output_0_split -> inception_4d/output_inception_4d/output_0_split_2
I0403 19:21:39.279381  9147 net.cpp:399] inception_4d/output_inception_4d/output_0_split -> inception_4d/output_inception_4d/output_0_split_3
I0403 19:21:39.279402  9147 net.cpp:399] inception_4d/output_inception_4d/output_0_split -> inception_4d/output_inception_4d/output_0_split_4
I0403 19:21:39.279503  9147 net.cpp:141] Setting up inception_4d/output_inception_4d/output_0_split
I0403 19:21:39.279547  9147 net.cpp:148] Top shape: 24 528 14 14 (2483712)
I0403 19:21:39.279567  9147 net.cpp:148] Top shape: 24 528 14 14 (2483712)
I0403 19:21:39.279583  9147 net.cpp:148] Top shape: 24 528 14 14 (2483712)
I0403 19:21:39.279598  9147 net.cpp:148] Top shape: 24 528 14 14 (2483712)
I0403 19:21:39.279613  9147 net.cpp:148] Top shape: 24 528 14 14 (2483712)
I0403 19:21:39.279628  9147 net.cpp:156] Memory required for data: 1206918432
I0403 19:21:39.279641  9147 layer_factory.hpp:77] Creating layer loss2/ave_pool
I0403 19:21:39.279659  9147 net.cpp:91] Creating Layer loss2/ave_pool
I0403 19:21:39.279675  9147 net.cpp:425] loss2/ave_pool <- inception_4d/output_inception_4d/output_0_split_0
I0403 19:21:39.279695  9147 net.cpp:399] loss2/ave_pool -> loss2/ave_pool
I0403 19:21:39.280011  9147 net.cpp:141] Setting up loss2/ave_pool
I0403 19:21:39.280037  9147 net.cpp:148] Top shape: 24 528 4 4 (202752)
I0403 19:21:39.280052  9147 net.cpp:156] Memory required for data: 1207729440
I0403 19:21:39.280066  9147 layer_factory.hpp:77] Creating layer loss2/conv
I0403 19:21:39.280089  9147 net.cpp:91] Creating Layer loss2/conv
I0403 19:21:39.280107  9147 net.cpp:425] loss2/conv <- loss2/ave_pool
I0403 19:21:39.280128  9147 net.cpp:399] loss2/conv -> loss2/conv
I0403 19:21:39.282063  9147 net.cpp:141] Setting up loss2/conv
I0403 19:21:39.282093  9147 net.cpp:148] Top shape: 24 128 4 4 (49152)
I0403 19:21:39.282107  9147 net.cpp:156] Memory required for data: 1207926048
I0403 19:21:39.282125  9147 layer_factory.hpp:77] Creating layer loss2/relu_conv
I0403 19:21:39.282146  9147 net.cpp:91] Creating Layer loss2/relu_conv
I0403 19:21:39.282165  9147 net.cpp:425] loss2/relu_conv <- loss2/conv
I0403 19:21:39.282183  9147 net.cpp:386] loss2/relu_conv -> loss2/conv (in-place)
I0403 19:21:39.282483  9147 net.cpp:141] Setting up loss2/relu_conv
I0403 19:21:39.282510  9147 net.cpp:148] Top shape: 24 128 4 4 (49152)
I0403 19:21:39.282526  9147 net.cpp:156] Memory required for data: 1208122656
I0403 19:21:39.282541  9147 layer_factory.hpp:77] Creating layer loss2/fc
I0403 19:21:39.282562  9147 net.cpp:91] Creating Layer loss2/fc
I0403 19:21:39.282579  9147 net.cpp:425] loss2/fc <- loss2/conv
I0403 19:21:39.282601  9147 net.cpp:399] loss2/fc -> loss2/fc
I0403 19:21:39.300511  9147 net.cpp:141] Setting up loss2/fc
I0403 19:21:39.300559  9147 net.cpp:148] Top shape: 24 1024 (24576)
I0403 19:21:39.300575  9147 net.cpp:156] Memory required for data: 1208220960
I0403 19:21:39.300595  9147 layer_factory.hpp:77] Creating layer loss2/relu_fc
I0403 19:21:39.300612  9147 net.cpp:91] Creating Layer loss2/relu_fc
I0403 19:21:39.300632  9147 net.cpp:425] loss2/relu_fc <- loss2/fc
I0403 19:21:39.300650  9147 net.cpp:386] loss2/relu_fc -> loss2/fc (in-place)
I0403 19:21:39.300986  9147 net.cpp:141] Setting up loss2/relu_fc
I0403 19:21:39.301012  9147 net.cpp:148] Top shape: 24 1024 (24576)
I0403 19:21:39.301026  9147 net.cpp:156] Memory required for data: 1208319264
I0403 19:21:39.301041  9147 layer_factory.hpp:77] Creating layer loss2/drop_fc
I0403 19:21:39.301059  9147 net.cpp:91] Creating Layer loss2/drop_fc
I0403 19:21:39.301079  9147 net.cpp:425] loss2/drop_fc <- loss2/fc
I0403 19:21:39.301095  9147 net.cpp:386] loss2/drop_fc -> loss2/fc (in-place)
I0403 19:21:39.301144  9147 net.cpp:141] Setting up loss2/drop_fc
I0403 19:21:39.301169  9147 net.cpp:148] Top shape: 24 1024 (24576)
I0403 19:21:39.301184  9147 net.cpp:156] Memory required for data: 1208417568
I0403 19:21:39.301198  9147 layer_factory.hpp:77] Creating layer loss2/classifier_plantvillage
I0403 19:21:39.301223  9147 net.cpp:91] Creating Layer loss2/classifier_plantvillage
I0403 19:21:39.301240  9147 net.cpp:425] loss2/classifier_plantvillage <- loss2/fc
I0403 19:21:39.301261  9147 net.cpp:399] loss2/classifier_plantvillage -> loss2/classifier_plantvillage
I0403 19:21:39.301681  9147 net.cpp:141] Setting up loss2/classifier_plantvillage
I0403 19:21:39.301707  9147 net.cpp:148] Top shape: 24 38 (912)
I0403 19:21:39.301746  9147 net.cpp:156] Memory required for data: 1208421216
I0403 19:21:39.301765  9147 layer_factory.hpp:77] Creating layer loss2/classifier_plantvillage_loss2/classifier_plantvillage_0_split
I0403 19:21:39.301784  9147 net.cpp:91] Creating Layer loss2/classifier_plantvillage_loss2/classifier_plantvillage_0_split
I0403 19:21:39.301798  9147 net.cpp:425] loss2/classifier_plantvillage_loss2/classifier_plantvillage_0_split <- loss2/classifier_plantvillage
I0403 19:21:39.301815  9147 net.cpp:399] loss2/classifier_plantvillage_loss2/classifier_plantvillage_0_split -> loss2/classifier_plantvillage_loss2/classifier_plantvillage_0_split_0
I0403 19:21:39.301834  9147 net.cpp:399] loss2/classifier_plantvillage_loss2/classifier_plantvillage_0_split -> loss2/classifier_plantvillage_loss2/classifier_plantvillage_0_split_1
I0403 19:21:39.301857  9147 net.cpp:399] loss2/classifier_plantvillage_loss2/classifier_plantvillage_0_split -> loss2/classifier_plantvillage_loss2/classifier_plantvillage_0_split_2
I0403 19:21:39.301937  9147 net.cpp:141] Setting up loss2/classifier_plantvillage_loss2/classifier_plantvillage_0_split
I0403 19:21:39.301960  9147 net.cpp:148] Top shape: 24 38 (912)
I0403 19:21:39.301976  9147 net.cpp:148] Top shape: 24 38 (912)
I0403 19:21:39.301991  9147 net.cpp:148] Top shape: 24 38 (912)
I0403 19:21:39.302006  9147 net.cpp:156] Memory required for data: 1208432160
I0403 19:21:39.302019  9147 layer_factory.hpp:77] Creating layer inception_4e/1x1
I0403 19:21:39.302042  9147 net.cpp:91] Creating Layer inception_4e/1x1
I0403 19:21:39.302059  9147 net.cpp:425] inception_4e/1x1 <- inception_4d/output_inception_4d/output_0_split_1
I0403 19:21:39.302079  9147 net.cpp:399] inception_4e/1x1 -> inception_4e/1x1
I0403 19:21:39.303967  9147 net.cpp:141] Setting up inception_4e/1x1
I0403 19:21:39.303995  9147 net.cpp:148] Top shape: 24 256 14 14 (1204224)
I0403 19:21:39.304010  9147 net.cpp:156] Memory required for data: 1213249056
I0403 19:21:39.304028  9147 layer_factory.hpp:77] Creating layer inception_4e/relu_1x1
I0403 19:21:39.304049  9147 net.cpp:91] Creating Layer inception_4e/relu_1x1
I0403 19:21:39.304065  9147 net.cpp:425] inception_4e/relu_1x1 <- inception_4e/1x1
I0403 19:21:39.304082  9147 net.cpp:386] inception_4e/relu_1x1 -> inception_4e/1x1 (in-place)
I0403 19:21:39.304384  9147 net.cpp:141] Setting up inception_4e/relu_1x1
I0403 19:21:39.304411  9147 net.cpp:148] Top shape: 24 256 14 14 (1204224)
I0403 19:21:39.304426  9147 net.cpp:156] Memory required for data: 1218065952
I0403 19:21:39.304443  9147 layer_factory.hpp:77] Creating layer inception_4e/3x3_reduce
I0403 19:21:39.304467  9147 net.cpp:91] Creating Layer inception_4e/3x3_reduce
I0403 19:21:39.304484  9147 net.cpp:425] inception_4e/3x3_reduce <- inception_4d/output_inception_4d/output_0_split_2
I0403 19:21:39.304503  9147 net.cpp:399] inception_4e/3x3_reduce -> inception_4e/3x3_reduce
I0403 19:21:39.306687  9147 net.cpp:141] Setting up inception_4e/3x3_reduce
I0403 19:21:39.306716  9147 net.cpp:148] Top shape: 24 160 14 14 (752640)
I0403 19:21:39.306730  9147 net.cpp:156] Memory required for data: 1221076512
I0403 19:21:39.306748  9147 layer_factory.hpp:77] Creating layer inception_4e/relu_3x3_reduce
I0403 19:21:39.306771  9147 net.cpp:91] Creating Layer inception_4e/relu_3x3_reduce
I0403 19:21:39.306788  9147 net.cpp:425] inception_4e/relu_3x3_reduce <- inception_4e/3x3_reduce
I0403 19:21:39.306805  9147 net.cpp:386] inception_4e/relu_3x3_reduce -> inception_4e/3x3_reduce (in-place)
I0403 19:21:39.306988  9147 net.cpp:141] Setting up inception_4e/relu_3x3_reduce
I0403 19:21:39.307014  9147 net.cpp:148] Top shape: 24 160 14 14 (752640)
I0403 19:21:39.307030  9147 net.cpp:156] Memory required for data: 1224087072
I0403 19:21:39.307045  9147 layer_factory.hpp:77] Creating layer inception_4e/3x3
I0403 19:21:39.307066  9147 net.cpp:91] Creating Layer inception_4e/3x3
I0403 19:21:39.307083  9147 net.cpp:425] inception_4e/3x3 <- inception_4e/3x3_reduce
I0403 19:21:39.307101  9147 net.cpp:399] inception_4e/3x3 -> inception_4e/3x3
I0403 19:21:39.312041  9147 net.cpp:141] Setting up inception_4e/3x3
I0403 19:21:39.312088  9147 net.cpp:148] Top shape: 24 320 14 14 (1505280)
I0403 19:21:39.312105  9147 net.cpp:156] Memory required for data: 1230108192
I0403 19:21:39.312124  9147 layer_factory.hpp:77] Creating layer inception_4e/relu_3x3
I0403 19:21:39.312142  9147 net.cpp:91] Creating Layer inception_4e/relu_3x3
I0403 19:21:39.312157  9147 net.cpp:425] inception_4e/relu_3x3 <- inception_4e/3x3
I0403 19:21:39.312175  9147 net.cpp:386] inception_4e/relu_3x3 -> inception_4e/3x3 (in-place)
I0403 19:21:39.312481  9147 net.cpp:141] Setting up inception_4e/relu_3x3
I0403 19:21:39.312507  9147 net.cpp:148] Top shape: 24 320 14 14 (1505280)
I0403 19:21:39.312521  9147 net.cpp:156] Memory required for data: 1236129312
I0403 19:21:39.312536  9147 layer_factory.hpp:77] Creating layer inception_4e/5x5_reduce
I0403 19:21:39.312559  9147 net.cpp:91] Creating Layer inception_4e/5x5_reduce
I0403 19:21:39.312577  9147 net.cpp:425] inception_4e/5x5_reduce <- inception_4d/output_inception_4d/output_0_split_3
I0403 19:21:39.312597  9147 net.cpp:399] inception_4e/5x5_reduce -> inception_4e/5x5_reduce
I0403 19:21:39.313647  9147 net.cpp:141] Setting up inception_4e/5x5_reduce
I0403 19:21:39.313675  9147 net.cpp:148] Top shape: 24 32 14 14 (150528)
I0403 19:21:39.313690  9147 net.cpp:156] Memory required for data: 1236731424
I0403 19:21:39.313709  9147 layer_factory.hpp:77] Creating layer inception_4e/relu_5x5_reduce
I0403 19:21:39.313729  9147 net.cpp:91] Creating Layer inception_4e/relu_5x5_reduce
I0403 19:21:39.313745  9147 net.cpp:425] inception_4e/relu_5x5_reduce <- inception_4e/5x5_reduce
I0403 19:21:39.313760  9147 net.cpp:386] inception_4e/relu_5x5_reduce -> inception_4e/5x5_reduce (in-place)
I0403 19:21:39.314051  9147 net.cpp:141] Setting up inception_4e/relu_5x5_reduce
I0403 19:21:39.314076  9147 net.cpp:148] Top shape: 24 32 14 14 (150528)
I0403 19:21:39.314091  9147 net.cpp:156] Memory required for data: 1237333536
I0403 19:21:39.314105  9147 layer_factory.hpp:77] Creating layer inception_4e/5x5
I0403 19:21:39.314143  9147 net.cpp:91] Creating Layer inception_4e/5x5
I0403 19:21:39.314172  9147 net.cpp:425] inception_4e/5x5 <- inception_4e/5x5_reduce
I0403 19:21:39.314190  9147 net.cpp:399] inception_4e/5x5 -> inception_4e/5x5
I0403 19:21:39.316038  9147 net.cpp:141] Setting up inception_4e/5x5
I0403 19:21:39.316067  9147 net.cpp:148] Top shape: 24 128 14 14 (602112)
I0403 19:21:39.316102  9147 net.cpp:156] Memory required for data: 1239741984
I0403 19:21:39.316135  9147 layer_factory.hpp:77] Creating layer inception_4e/relu_5x5
I0403 19:21:39.316159  9147 net.cpp:91] Creating Layer inception_4e/relu_5x5
I0403 19:21:39.316176  9147 net.cpp:425] inception_4e/relu_5x5 <- inception_4e/5x5
I0403 19:21:39.316195  9147 net.cpp:386] inception_4e/relu_5x5 -> inception_4e/5x5 (in-place)
I0403 19:21:39.316398  9147 net.cpp:141] Setting up inception_4e/relu_5x5
I0403 19:21:39.316426  9147 net.cpp:148] Top shape: 24 128 14 14 (602112)
I0403 19:21:39.316444  9147 net.cpp:156] Memory required for data: 1242150432
I0403 19:21:39.316460  9147 layer_factory.hpp:77] Creating layer inception_4e/pool
I0403 19:21:39.316478  9147 net.cpp:91] Creating Layer inception_4e/pool
I0403 19:21:39.316493  9147 net.cpp:425] inception_4e/pool <- inception_4d/output_inception_4d/output_0_split_4
I0403 19:21:39.316512  9147 net.cpp:399] inception_4e/pool -> inception_4e/pool
I0403 19:21:39.316593  9147 net.cpp:141] Setting up inception_4e/pool
I0403 19:21:39.316635  9147 net.cpp:148] Top shape: 24 528 14 14 (2483712)
I0403 19:21:39.316679  9147 net.cpp:156] Memory required for data: 1252085280
I0403 19:21:39.316717  9147 layer_factory.hpp:77] Creating layer inception_4e/pool_proj
I0403 19:21:39.316761  9147 net.cpp:91] Creating Layer inception_4e/pool_proj
I0403 19:21:39.316792  9147 net.cpp:425] inception_4e/pool_proj <- inception_4e/pool
I0403 19:21:39.316812  9147 net.cpp:399] inception_4e/pool_proj -> inception_4e/pool_proj
I0403 19:21:39.318305  9147 net.cpp:141] Setting up inception_4e/pool_proj
I0403 19:21:39.318343  9147 net.cpp:148] Top shape: 24 128 14 14 (602112)
I0403 19:21:39.318358  9147 net.cpp:156] Memory required for data: 1254493728
I0403 19:21:39.318377  9147 layer_factory.hpp:77] Creating layer inception_4e/relu_pool_proj
I0403 19:21:39.318394  9147 net.cpp:91] Creating Layer inception_4e/relu_pool_proj
I0403 19:21:39.318409  9147 net.cpp:425] inception_4e/relu_pool_proj <- inception_4e/pool_proj
I0403 19:21:39.318429  9147 net.cpp:386] inception_4e/relu_pool_proj -> inception_4e/pool_proj (in-place)
I0403 19:21:39.318722  9147 net.cpp:141] Setting up inception_4e/relu_pool_proj
I0403 19:21:39.318747  9147 net.cpp:148] Top shape: 24 128 14 14 (602112)
I0403 19:21:39.318761  9147 net.cpp:156] Memory required for data: 1256902176
I0403 19:21:39.318775  9147 layer_factory.hpp:77] Creating layer inception_4e/output
I0403 19:21:39.318794  9147 net.cpp:91] Creating Layer inception_4e/output
I0403 19:21:39.318809  9147 net.cpp:425] inception_4e/output <- inception_4e/1x1
I0403 19:21:39.318824  9147 net.cpp:425] inception_4e/output <- inception_4e/3x3
I0403 19:21:39.318838  9147 net.cpp:425] inception_4e/output <- inception_4e/5x5
I0403 19:21:39.318853  9147 net.cpp:425] inception_4e/output <- inception_4e/pool_proj
I0403 19:21:39.318871  9147 net.cpp:399] inception_4e/output -> inception_4e/output
I0403 19:21:39.318919  9147 net.cpp:141] Setting up inception_4e/output
I0403 19:21:39.318944  9147 net.cpp:148] Top shape: 24 832 14 14 (3913728)
I0403 19:21:39.318958  9147 net.cpp:156] Memory required for data: 1272557088
I0403 19:21:39.318974  9147 layer_factory.hpp:77] Creating layer pool4/3x3_s2
I0403 19:21:39.318989  9147 net.cpp:91] Creating Layer pool4/3x3_s2
I0403 19:21:39.319005  9147 net.cpp:425] pool4/3x3_s2 <- inception_4e/output
I0403 19:21:39.319025  9147 net.cpp:399] pool4/3x3_s2 -> pool4/3x3_s2
I0403 19:21:39.319089  9147 net.cpp:141] Setting up pool4/3x3_s2
I0403 19:21:39.319113  9147 net.cpp:148] Top shape: 24 832 7 7 (978432)
I0403 19:21:39.319126  9147 net.cpp:156] Memory required for data: 1276470816
I0403 19:21:39.319140  9147 layer_factory.hpp:77] Creating layer pool4/3x3_s2_pool4/3x3_s2_0_split
I0403 19:21:39.319159  9147 net.cpp:91] Creating Layer pool4/3x3_s2_pool4/3x3_s2_0_split
I0403 19:21:39.319175  9147 net.cpp:425] pool4/3x3_s2_pool4/3x3_s2_0_split <- pool4/3x3_s2
I0403 19:21:39.319191  9147 net.cpp:399] pool4/3x3_s2_pool4/3x3_s2_0_split -> pool4/3x3_s2_pool4/3x3_s2_0_split_0
I0403 19:21:39.319216  9147 net.cpp:399] pool4/3x3_s2_pool4/3x3_s2_0_split -> pool4/3x3_s2_pool4/3x3_s2_0_split_1
I0403 19:21:39.319237  9147 net.cpp:399] pool4/3x3_s2_pool4/3x3_s2_0_split -> pool4/3x3_s2_pool4/3x3_s2_0_split_2
I0403 19:21:39.319269  9147 net.cpp:399] pool4/3x3_s2_pool4/3x3_s2_0_split -> pool4/3x3_s2_pool4/3x3_s2_0_split_3
I0403 19:21:39.319362  9147 net.cpp:141] Setting up pool4/3x3_s2_pool4/3x3_s2_0_split
I0403 19:21:39.319386  9147 net.cpp:148] Top shape: 24 832 7 7 (978432)
I0403 19:21:39.319401  9147 net.cpp:148] Top shape: 24 832 7 7 (978432)
I0403 19:21:39.319416  9147 net.cpp:148] Top shape: 24 832 7 7 (978432)
I0403 19:21:39.319432  9147 net.cpp:148] Top shape: 24 832 7 7 (978432)
I0403 19:21:39.319445  9147 net.cpp:156] Memory required for data: 1292125728
I0403 19:21:39.319459  9147 layer_factory.hpp:77] Creating layer inception_5a/1x1
I0403 19:21:39.319480  9147 net.cpp:91] Creating Layer inception_5a/1x1
I0403 19:21:39.319497  9147 net.cpp:425] inception_5a/1x1 <- pool4/3x3_s2_pool4/3x3_s2_0_split_0
I0403 19:21:39.319517  9147 net.cpp:399] inception_5a/1x1 -> inception_5a/1x1
I0403 19:21:39.322327  9147 net.cpp:141] Setting up inception_5a/1x1
I0403 19:21:39.322357  9147 net.cpp:148] Top shape: 24 256 7 7 (301056)
I0403 19:21:39.322372  9147 net.cpp:156] Memory required for data: 1293329952
I0403 19:21:39.322391  9147 layer_factory.hpp:77] Creating layer inception_5a/relu_1x1
I0403 19:21:39.322410  9147 net.cpp:91] Creating Layer inception_5a/relu_1x1
I0403 19:21:39.322427  9147 net.cpp:425] inception_5a/relu_1x1 <- inception_5a/1x1
I0403 19:21:39.322443  9147 net.cpp:386] inception_5a/relu_1x1 -> inception_5a/1x1 (in-place)
I0403 19:21:39.322751  9147 net.cpp:141] Setting up inception_5a/relu_1x1
I0403 19:21:39.322777  9147 net.cpp:148] Top shape: 24 256 7 7 (301056)
I0403 19:21:39.322791  9147 net.cpp:156] Memory required for data: 1294534176
I0403 19:21:39.322805  9147 layer_factory.hpp:77] Creating layer inception_5a/3x3_reduce
I0403 19:21:39.322827  9147 net.cpp:91] Creating Layer inception_5a/3x3_reduce
I0403 19:21:39.322849  9147 net.cpp:425] inception_5a/3x3_reduce <- pool4/3x3_s2_pool4/3x3_s2_0_split_1
I0403 19:21:39.322870  9147 net.cpp:399] inception_5a/3x3_reduce -> inception_5a/3x3_reduce
I0403 19:21:39.325373  9147 net.cpp:141] Setting up inception_5a/3x3_reduce
I0403 19:21:39.325402  9147 net.cpp:148] Top shape: 24 160 7 7 (188160)
I0403 19:21:39.325418  9147 net.cpp:156] Memory required for data: 1295286816
I0403 19:21:39.325436  9147 layer_factory.hpp:77] Creating layer inception_5a/relu_3x3_reduce
I0403 19:21:39.325454  9147 net.cpp:91] Creating Layer inception_5a/relu_3x3_reduce
I0403 19:21:39.325469  9147 net.cpp:425] inception_5a/relu_3x3_reduce <- inception_5a/3x3_reduce
I0403 19:21:39.325489  9147 net.cpp:386] inception_5a/relu_3x3_reduce -> inception_5a/3x3_reduce (in-place)
I0403 19:21:39.325673  9147 net.cpp:141] Setting up inception_5a/relu_3x3_reduce
I0403 19:21:39.325697  9147 net.cpp:148] Top shape: 24 160 7 7 (188160)
I0403 19:21:39.325711  9147 net.cpp:156] Memory required for data: 1296039456
I0403 19:21:39.325726  9147 layer_factory.hpp:77] Creating layer inception_5a/3x3
I0403 19:21:39.325748  9147 net.cpp:91] Creating Layer inception_5a/3x3
I0403 19:21:39.325764  9147 net.cpp:425] inception_5a/3x3 <- inception_5a/3x3_reduce
I0403 19:21:39.325786  9147 net.cpp:399] inception_5a/3x3 -> inception_5a/3x3
I0403 19:21:39.330694  9147 net.cpp:141] Setting up inception_5a/3x3
I0403 19:21:39.330724  9147 net.cpp:148] Top shape: 24 320 7 7 (376320)
I0403 19:21:39.330740  9147 net.cpp:156] Memory required for data: 1297544736
I0403 19:21:39.330759  9147 layer_factory.hpp:77] Creating layer inception_5a/relu_3x3
I0403 19:21:39.330778  9147 net.cpp:91] Creating Layer inception_5a/relu_3x3
I0403 19:21:39.330796  9147 net.cpp:425] inception_5a/relu_3x3 <- inception_5a/3x3
I0403 19:21:39.330813  9147 net.cpp:386] inception_5a/relu_3x3 -> inception_5a/3x3 (in-place)
I0403 19:21:39.331101  9147 net.cpp:141] Setting up inception_5a/relu_3x3
I0403 19:21:39.331126  9147 net.cpp:148] Top shape: 24 320 7 7 (376320)
I0403 19:21:39.331141  9147 net.cpp:156] Memory required for data: 1299050016
I0403 19:21:39.331156  9147 layer_factory.hpp:77] Creating layer inception_5a/5x5_reduce
I0403 19:21:39.331176  9147 net.cpp:91] Creating Layer inception_5a/5x5_reduce
I0403 19:21:39.331193  9147 net.cpp:425] inception_5a/5x5_reduce <- pool4/3x3_s2_pool4/3x3_s2_0_split_2
I0403 19:21:39.331220  9147 net.cpp:399] inception_5a/5x5_reduce -> inception_5a/5x5_reduce
I0403 19:21:39.332414  9147 net.cpp:141] Setting up inception_5a/5x5_reduce
I0403 19:21:39.332445  9147 net.cpp:148] Top shape: 24 32 7 7 (37632)
I0403 19:21:39.332461  9147 net.cpp:156] Memory required for data: 1299200544
I0403 19:21:39.332479  9147 layer_factory.hpp:77] Creating layer inception_5a/relu_5x5_reduce
I0403 19:21:39.332499  9147 net.cpp:91] Creating Layer inception_5a/relu_5x5_reduce
I0403 19:21:39.332515  9147 net.cpp:425] inception_5a/relu_5x5_reduce <- inception_5a/5x5_reduce
I0403 19:21:39.332532  9147 net.cpp:386] inception_5a/relu_5x5_reduce -> inception_5a/5x5_reduce (in-place)
I0403 19:21:39.332834  9147 net.cpp:141] Setting up inception_5a/relu_5x5_reduce
I0403 19:21:39.332860  9147 net.cpp:148] Top shape: 24 32 7 7 (37632)
I0403 19:21:39.332880  9147 net.cpp:156] Memory required for data: 1299351072
I0403 19:21:39.332895  9147 layer_factory.hpp:77] Creating layer inception_5a/5x5
I0403 19:21:39.332914  9147 net.cpp:91] Creating Layer inception_5a/5x5
I0403 19:21:39.332931  9147 net.cpp:425] inception_5a/5x5 <- inception_5a/5x5_reduce
I0403 19:21:39.332952  9147 net.cpp:399] inception_5a/5x5 -> inception_5a/5x5
I0403 19:21:39.334697  9147 net.cpp:141] Setting up inception_5a/5x5
I0403 19:21:39.334738  9147 net.cpp:148] Top shape: 24 128 7 7 (150528)
I0403 19:21:39.334753  9147 net.cpp:156] Memory required for data: 1299953184
I0403 19:21:39.334770  9147 layer_factory.hpp:77] Creating layer inception_5a/relu_5x5
I0403 19:21:39.334791  9147 net.cpp:91] Creating Layer inception_5a/relu_5x5
I0403 19:21:39.334808  9147 net.cpp:425] inception_5a/relu_5x5 <- inception_5a/5x5
I0403 19:21:39.334825  9147 net.cpp:386] inception_5a/relu_5x5 -> inception_5a/5x5 (in-place)
I0403 19:21:39.335017  9147 net.cpp:141] Setting up inception_5a/relu_5x5
I0403 19:21:39.335044  9147 net.cpp:148] Top shape: 24 128 7 7 (150528)
I0403 19:21:39.335059  9147 net.cpp:156] Memory required for data: 1300555296
I0403 19:21:39.335074  9147 layer_factory.hpp:77] Creating layer inception_5a/pool
I0403 19:21:39.335091  9147 net.cpp:91] Creating Layer inception_5a/pool
I0403 19:21:39.335108  9147 net.cpp:425] inception_5a/pool <- pool4/3x3_s2_pool4/3x3_s2_0_split_3
I0403 19:21:39.335124  9147 net.cpp:399] inception_5a/pool -> inception_5a/pool
I0403 19:21:39.335196  9147 net.cpp:141] Setting up inception_5a/pool
I0403 19:21:39.335227  9147 net.cpp:148] Top shape: 24 832 7 7 (978432)
I0403 19:21:39.335242  9147 net.cpp:156] Memory required for data: 1304469024
I0403 19:21:39.335265  9147 layer_factory.hpp:77] Creating layer inception_5a/pool_proj
I0403 19:21:39.335294  9147 net.cpp:91] Creating Layer inception_5a/pool_proj
I0403 19:21:39.335311  9147 net.cpp:425] inception_5a/pool_proj <- inception_5a/pool
I0403 19:21:39.335332  9147 net.cpp:399] inception_5a/pool_proj -> inception_5a/pool_proj
I0403 19:21:39.337641  9147 net.cpp:141] Setting up inception_5a/pool_proj
I0403 19:21:39.337672  9147 net.cpp:148] Top shape: 24 128 7 7 (150528)
I0403 19:21:39.337688  9147 net.cpp:156] Memory required for data: 1305071136
I0403 19:21:39.337707  9147 layer_factory.hpp:77] Creating layer inception_5a/relu_pool_proj
I0403 19:21:39.337728  9147 net.cpp:91] Creating Layer inception_5a/relu_pool_proj
I0403 19:21:39.337745  9147 net.cpp:425] inception_5a/relu_pool_proj <- inception_5a/pool_proj
I0403 19:21:39.337764  9147 net.cpp:386] inception_5a/relu_pool_proj -> inception_5a/pool_proj (in-place)
I0403 19:21:39.338063  9147 net.cpp:141] Setting up inception_5a/relu_pool_proj
I0403 19:21:39.338088  9147 net.cpp:148] Top shape: 24 128 7 7 (150528)
I0403 19:21:39.338104  9147 net.cpp:156] Memory required for data: 1305673248
I0403 19:21:39.338119  9147 layer_factory.hpp:77] Creating layer inception_5a/output
I0403 19:21:39.338135  9147 net.cpp:91] Creating Layer inception_5a/output
I0403 19:21:39.338150  9147 net.cpp:425] inception_5a/output <- inception_5a/1x1
I0403 19:21:39.338176  9147 net.cpp:425] inception_5a/output <- inception_5a/3x3
I0403 19:21:39.338194  9147 net.cpp:425] inception_5a/output <- inception_5a/5x5
I0403 19:21:39.338213  9147 net.cpp:425] inception_5a/output <- inception_5a/pool_proj
I0403 19:21:39.338233  9147 net.cpp:399] inception_5a/output -> inception_5a/output
I0403 19:21:39.338284  9147 net.cpp:141] Setting up inception_5a/output
I0403 19:21:39.338310  9147 net.cpp:148] Top shape: 24 832 7 7 (978432)
I0403 19:21:39.338325  9147 net.cpp:156] Memory required for data: 1309586976
I0403 19:21:39.338340  9147 layer_factory.hpp:77] Creating layer inception_5a/output_inception_5a/output_0_split
I0403 19:21:39.338357  9147 net.cpp:91] Creating Layer inception_5a/output_inception_5a/output_0_split
I0403 19:21:39.338372  9147 net.cpp:425] inception_5a/output_inception_5a/output_0_split <- inception_5a/output
I0403 19:21:39.338392  9147 net.cpp:399] inception_5a/output_inception_5a/output_0_split -> inception_5a/output_inception_5a/output_0_split_0
I0403 19:21:39.338413  9147 net.cpp:399] inception_5a/output_inception_5a/output_0_split -> inception_5a/output_inception_5a/output_0_split_1
I0403 19:21:39.338433  9147 net.cpp:399] inception_5a/output_inception_5a/output_0_split -> inception_5a/output_inception_5a/output_0_split_2
I0403 19:21:39.338454  9147 net.cpp:399] inception_5a/output_inception_5a/output_0_split -> inception_5a/output_inception_5a/output_0_split_3
I0403 19:21:39.338572  9147 net.cpp:141] Setting up inception_5a/output_inception_5a/output_0_split
I0403 19:21:39.338595  9147 net.cpp:148] Top shape: 24 832 7 7 (978432)
I0403 19:21:39.338611  9147 net.cpp:148] Top shape: 24 832 7 7 (978432)
I0403 19:21:39.338626  9147 net.cpp:148] Top shape: 24 832 7 7 (978432)
I0403 19:21:39.338641  9147 net.cpp:148] Top shape: 24 832 7 7 (978432)
I0403 19:21:39.338656  9147 net.cpp:156] Memory required for data: 1325241888
I0403 19:21:39.338670  9147 layer_factory.hpp:77] Creating layer inception_5b/1x1
I0403 19:21:39.338692  9147 net.cpp:91] Creating Layer inception_5b/1x1
I0403 19:21:39.338709  9147 net.cpp:425] inception_5b/1x1 <- inception_5a/output_inception_5a/output_0_split_0
I0403 19:21:39.338731  9147 net.cpp:399] inception_5b/1x1 -> inception_5b/1x1
I0403 19:21:39.342545  9147 net.cpp:141] Setting up inception_5b/1x1
I0403 19:21:39.342576  9147 net.cpp:148] Top shape: 24 384 7 7 (451584)
I0403 19:21:39.342592  9147 net.cpp:156] Memory required for data: 1327048224
I0403 19:21:39.342612  9147 layer_factory.hpp:77] Creating layer inception_5b/relu_1x1
I0403 19:21:39.342629  9147 net.cpp:91] Creating Layer inception_5b/relu_1x1
I0403 19:21:39.342645  9147 net.cpp:425] inception_5b/relu_1x1 <- inception_5b/1x1
I0403 19:21:39.342666  9147 net.cpp:386] inception_5b/relu_1x1 -> inception_5b/1x1 (in-place)
I0403 19:21:39.342975  9147 net.cpp:141] Setting up inception_5b/relu_1x1
I0403 19:21:39.343003  9147 net.cpp:148] Top shape: 24 384 7 7 (451584)
I0403 19:21:39.343019  9147 net.cpp:156] Memory required for data: 1328854560
I0403 19:21:39.343034  9147 layer_factory.hpp:77] Creating layer inception_5b/3x3_reduce
I0403 19:21:39.343057  9147 net.cpp:91] Creating Layer inception_5b/3x3_reduce
I0403 19:21:39.343075  9147 net.cpp:425] inception_5b/3x3_reduce <- inception_5a/output_inception_5a/output_0_split_1
I0403 19:21:39.343097  9147 net.cpp:399] inception_5b/3x3_reduce -> inception_5b/3x3_reduce
I0403 19:21:39.345805  9147 net.cpp:141] Setting up inception_5b/3x3_reduce
I0403 19:21:39.345836  9147 net.cpp:148] Top shape: 24 192 7 7 (225792)
I0403 19:21:39.345852  9147 net.cpp:156] Memory required for data: 1329757728
I0403 19:21:39.345871  9147 layer_factory.hpp:77] Creating layer inception_5b/relu_3x3_reduce
I0403 19:21:39.345888  9147 net.cpp:91] Creating Layer inception_5b/relu_3x3_reduce
I0403 19:21:39.345907  9147 net.cpp:425] inception_5b/relu_3x3_reduce <- inception_5b/3x3_reduce
I0403 19:21:39.345924  9147 net.cpp:386] inception_5b/relu_3x3_reduce -> inception_5b/3x3_reduce (in-place)
I0403 19:21:39.346117  9147 net.cpp:141] Setting up inception_5b/relu_3x3_reduce
I0403 19:21:39.346141  9147 net.cpp:148] Top shape: 24 192 7 7 (225792)
I0403 19:21:39.346156  9147 net.cpp:156] Memory required for data: 1330660896
I0403 19:21:39.346170  9147 layer_factory.hpp:77] Creating layer inception_5b/3x3
I0403 19:21:39.346192  9147 net.cpp:91] Creating Layer inception_5b/3x3
I0403 19:21:39.346215  9147 net.cpp:425] inception_5b/3x3 <- inception_5b/3x3_reduce
I0403 19:21:39.346238  9147 net.cpp:399] inception_5b/3x3 -> inception_5b/3x3
I0403 19:21:39.353065  9147 net.cpp:141] Setting up inception_5b/3x3
I0403 19:21:39.353094  9147 net.cpp:148] Top shape: 24 384 7 7 (451584)
I0403 19:21:39.353109  9147 net.cpp:156] Memory required for data: 1332467232
I0403 19:21:39.353128  9147 layer_factory.hpp:77] Creating layer inception_5b/relu_3x3
I0403 19:21:39.353149  9147 net.cpp:91] Creating Layer inception_5b/relu_3x3
I0403 19:21:39.353166  9147 net.cpp:425] inception_5b/relu_3x3 <- inception_5b/3x3
I0403 19:21:39.353185  9147 net.cpp:386] inception_5b/relu_3x3 -> inception_5b/3x3 (in-place)
I0403 19:21:39.353504  9147 net.cpp:141] Setting up inception_5b/relu_3x3
I0403 19:21:39.353531  9147 net.cpp:148] Top shape: 24 384 7 7 (451584)
I0403 19:21:39.353546  9147 net.cpp:156] Memory required for data: 1334273568
I0403 19:21:39.353562  9147 layer_factory.hpp:77] Creating layer inception_5b/5x5_reduce
I0403 19:21:39.353600  9147 net.cpp:91] Creating Layer inception_5b/5x5_reduce
I0403 19:21:39.353621  9147 net.cpp:425] inception_5b/5x5_reduce <- inception_5a/output_inception_5a/output_0_split_2
I0403 19:21:39.353646  9147 net.cpp:399] inception_5b/5x5_reduce -> inception_5b/5x5_reduce
I0403 19:21:39.354979  9147 net.cpp:141] Setting up inception_5b/5x5_reduce
I0403 19:21:39.355010  9147 net.cpp:148] Top shape: 24 48 7 7 (56448)
I0403 19:21:39.355025  9147 net.cpp:156] Memory required for data: 1334499360
I0403 19:21:39.355043  9147 layer_factory.hpp:77] Creating layer inception_5b/relu_5x5_reduce
I0403 19:21:39.355062  9147 net.cpp:91] Creating Layer inception_5b/relu_5x5_reduce
I0403 19:21:39.355079  9147 net.cpp:425] inception_5b/relu_5x5_reduce <- inception_5b/5x5_reduce
I0403 19:21:39.355099  9147 net.cpp:386] inception_5b/relu_5x5_reduce -> inception_5b/5x5_reduce (in-place)
I0403 19:21:39.355512  9147 net.cpp:141] Setting up inception_5b/relu_5x5_reduce
I0403 19:21:39.355538  9147 net.cpp:148] Top shape: 24 48 7 7 (56448)
I0403 19:21:39.355554  9147 net.cpp:156] Memory required for data: 1334725152
I0403 19:21:39.355577  9147 layer_factory.hpp:77] Creating layer inception_5b/5x5
I0403 19:21:39.355598  9147 net.cpp:91] Creating Layer inception_5b/5x5
I0403 19:21:39.355617  9147 net.cpp:425] inception_5b/5x5 <- inception_5b/5x5_reduce
I0403 19:21:39.355643  9147 net.cpp:399] inception_5b/5x5 -> inception_5b/5x5
I0403 19:21:39.357785  9147 net.cpp:141] Setting up inception_5b/5x5
I0403 19:21:39.357815  9147 net.cpp:148] Top shape: 24 128 7 7 (150528)
I0403 19:21:39.357831  9147 net.cpp:156] Memory required for data: 1335327264
I0403 19:21:39.357851  9147 layer_factory.hpp:77] Creating layer inception_5b/relu_5x5
I0403 19:21:39.357872  9147 net.cpp:91] Creating Layer inception_5b/relu_5x5
I0403 19:21:39.357888  9147 net.cpp:425] inception_5b/relu_5x5 <- inception_5b/5x5
I0403 19:21:39.357906  9147 net.cpp:386] inception_5b/relu_5x5 -> inception_5b/5x5 (in-place)
I0403 19:21:39.358106  9147 net.cpp:141] Setting up inception_5b/relu_5x5
I0403 19:21:39.358134  9147 net.cpp:148] Top shape: 24 128 7 7 (150528)
I0403 19:21:39.358150  9147 net.cpp:156] Memory required for data: 1335929376
I0403 19:21:39.358167  9147 layer_factory.hpp:77] Creating layer inception_5b/pool
I0403 19:21:39.358186  9147 net.cpp:91] Creating Layer inception_5b/pool
I0403 19:21:39.358201  9147 net.cpp:425] inception_5b/pool <- inception_5a/output_inception_5a/output_0_split_3
I0403 19:21:39.358229  9147 net.cpp:399] inception_5b/pool -> inception_5b/pool
I0403 19:21:39.358304  9147 net.cpp:141] Setting up inception_5b/pool
I0403 19:21:39.358328  9147 net.cpp:148] Top shape: 24 832 7 7 (978432)
I0403 19:21:39.358343  9147 net.cpp:156] Memory required for data: 1339843104
I0403 19:21:39.358358  9147 layer_factory.hpp:77] Creating layer inception_5b/pool_proj
I0403 19:21:39.358381  9147 net.cpp:91] Creating Layer inception_5b/pool_proj
I0403 19:21:39.358398  9147 net.cpp:425] inception_5b/pool_proj <- inception_5b/pool
I0403 19:21:39.358419  9147 net.cpp:399] inception_5b/pool_proj -> inception_5b/pool_proj
I0403 19:21:39.360815  9147 net.cpp:141] Setting up inception_5b/pool_proj
I0403 19:21:39.360846  9147 net.cpp:148] Top shape: 24 128 7 7 (150528)
I0403 19:21:39.360862  9147 net.cpp:156] Memory required for data: 1340445216
I0403 19:21:39.360879  9147 layer_factory.hpp:77] Creating layer inception_5b/relu_pool_proj
I0403 19:21:39.360898  9147 net.cpp:91] Creating Layer inception_5b/relu_pool_proj
I0403 19:21:39.360914  9147 net.cpp:425] inception_5b/relu_pool_proj <- inception_5b/pool_proj
I0403 19:21:39.360934  9147 net.cpp:386] inception_5b/relu_pool_proj -> inception_5b/pool_proj (in-place)
I0403 19:21:39.361255  9147 net.cpp:141] Setting up inception_5b/relu_pool_proj
I0403 19:21:39.361282  9147 net.cpp:148] Top shape: 24 128 7 7 (150528)
I0403 19:21:39.361299  9147 net.cpp:156] Memory required for data: 1341047328
I0403 19:21:39.361313  9147 layer_factory.hpp:77] Creating layer inception_5b/output
I0403 19:21:39.361331  9147 net.cpp:91] Creating Layer inception_5b/output
I0403 19:21:39.361362  9147 net.cpp:425] inception_5b/output <- inception_5b/1x1
I0403 19:21:39.361382  9147 net.cpp:425] inception_5b/output <- inception_5b/3x3
I0403 19:21:39.361398  9147 net.cpp:425] inception_5b/output <- inception_5b/5x5
I0403 19:21:39.361414  9147 net.cpp:425] inception_5b/output <- inception_5b/pool_proj
I0403 19:21:39.361433  9147 net.cpp:399] inception_5b/output -> inception_5b/output
I0403 19:21:39.361487  9147 net.cpp:141] Setting up inception_5b/output
I0403 19:21:39.361515  9147 net.cpp:148] Top shape: 24 1024 7 7 (1204224)
I0403 19:21:39.361529  9147 net.cpp:156] Memory required for data: 1345864224
I0403 19:21:39.361544  9147 layer_factory.hpp:77] Creating layer pool5/7x7_s1
I0403 19:21:39.361562  9147 net.cpp:91] Creating Layer pool5/7x7_s1
I0403 19:21:39.361579  9147 net.cpp:425] pool5/7x7_s1 <- inception_5b/output
I0403 19:21:39.361599  9147 net.cpp:399] pool5/7x7_s1 -> pool5/7x7_s1
I0403 19:21:39.361822  9147 net.cpp:141] Setting up pool5/7x7_s1
I0403 19:21:39.361848  9147 net.cpp:148] Top shape: 24 1024 1 1 (24576)
I0403 19:21:39.361863  9147 net.cpp:156] Memory required for data: 1345962528
I0403 19:21:39.361878  9147 layer_factory.hpp:77] Creating layer pool5/drop_7x7_s1
I0403 19:21:39.361896  9147 net.cpp:91] Creating Layer pool5/drop_7x7_s1
I0403 19:21:39.361912  9147 net.cpp:425] pool5/drop_7x7_s1 <- pool5/7x7_s1
I0403 19:21:39.361932  9147 net.cpp:386] pool5/drop_7x7_s1 -> pool5/7x7_s1 (in-place)
I0403 19:21:39.361986  9147 net.cpp:141] Setting up pool5/drop_7x7_s1
I0403 19:21:39.362010  9147 net.cpp:148] Top shape: 24 1024 1 1 (24576)
I0403 19:21:39.362025  9147 net.cpp:156] Memory required for data: 1346060832
I0403 19:21:39.362040  9147 layer_factory.hpp:77] Creating layer loss3/classifier_plantvillage
I0403 19:21:39.362058  9147 net.cpp:91] Creating Layer loss3/classifier_plantvillage
I0403 19:21:39.362074  9147 net.cpp:425] loss3/classifier_plantvillage <- pool5/7x7_s1
I0403 19:21:39.362095  9147 net.cpp:399] loss3/classifier_plantvillage -> loss3/classifier_plantvillage
I0403 19:21:39.362565  9147 net.cpp:141] Setting up loss3/classifier_plantvillage
I0403 19:21:39.362591  9147 net.cpp:148] Top shape: 24 38 (912)
I0403 19:21:39.362606  9147 net.cpp:156] Memory required for data: 1346064480
I0403 19:21:39.362623  9147 layer_factory.hpp:77] Creating layer loss3/classifier_plantvillage_loss3/classifier_plantvillage_0_split
I0403 19:21:39.362644  9147 net.cpp:91] Creating Layer loss3/classifier_plantvillage_loss3/classifier_plantvillage_0_split
I0403 19:21:39.362661  9147 net.cpp:425] loss3/classifier_plantvillage_loss3/classifier_plantvillage_0_split <- loss3/classifier_plantvillage
I0403 19:21:39.362682  9147 net.cpp:399] loss3/classifier_plantvillage_loss3/classifier_plantvillage_0_split -> loss3/classifier_plantvillage_loss3/classifier_plantvillage_0_split_0
I0403 19:21:39.362704  9147 net.cpp:399] loss3/classifier_plantvillage_loss3/classifier_plantvillage_0_split -> loss3/classifier_plantvillage_loss3/classifier_plantvillage_0_split_1
I0403 19:21:39.362723  9147 net.cpp:399] loss3/classifier_plantvillage_loss3/classifier_plantvillage_0_split -> loss3/classifier_plantvillage_loss3/classifier_plantvillage_0_split_2
I0403 19:21:39.362742  9147 net.cpp:399] loss3/classifier_plantvillage_loss3/classifier_plantvillage_0_split -> loss3/classifier_plantvillage_loss3/classifier_plantvillage_0_split_3
I0403 19:21:39.362846  9147 net.cpp:141] Setting up loss3/classifier_plantvillage_loss3/classifier_plantvillage_0_split
I0403 19:21:39.362870  9147 net.cpp:148] Top shape: 24 38 (912)
I0403 19:21:39.362887  9147 net.cpp:148] Top shape: 24 38 (912)
I0403 19:21:39.362903  9147 net.cpp:148] Top shape: 24 38 (912)
I0403 19:21:39.362918  9147 net.cpp:148] Top shape: 24 38 (912)
I0403 19:21:39.362933  9147 net.cpp:156] Memory required for data: 1346079072
I0403 19:21:39.362948  9147 layer_factory.hpp:77] Creating layer loss1/loss
I0403 19:21:39.362970  9147 net.cpp:91] Creating Layer loss1/loss
I0403 19:21:39.362987  9147 net.cpp:425] loss1/loss <- loss1/classifier_plantvillage_loss1/classifier_plantvillage_0_split_0
I0403 19:21:39.363019  9147 net.cpp:425] loss1/loss <- label_data_1_split_0
…
