…
I0403 19:35:48.422694  9426 net.cpp:313] The NetState phase (1) differed from the phase (0) specified by a rule in layer data
I0403 19:35:48.423934  9426 net.cpp:49] Initializing net from parameters: 
state {
  phase: TEST
}
layer {
  name: "data"
  type: "Data"
  top: "data"
  top: "label"
  include {
    phase: TEST
  }
  transform_param {
    mirror: false
    crop_size: 224
    mean_file: "/home/mohanty/data/final_dataset/lmdb/grayscale-50-50/mean.binaryproto"
  }
  data_param {
    source: "/home/mohanty/data/final_dataset/lmdb/grayscale-50-50/test_db"
    batch_size: 24
    backend: LMDB
  }
}
layer {
  name: "conv1/7x7_s2"
  type: "Convolution"
  bottom: "data"
  top: "conv1/7x7_s2"
  param {
    lr_mult: 1
    decay_mult: 1
  }
  param {
    lr_mult: 2
    decay_mult: 0
  }
  convolution_param {
    num_output: 64
    pad: 3
    kernel_size: 7
    stride: 2
    weight_filler {
      type: "xavier"
      std: 0.1
    }
    bias_filler {
      type: "constant"
      value: 0.2
    }
  }
}
layer {
  name: "conv1/relu_7x7"
  type: "ReLU"
  bottom: "conv1/7x7_s2"
  top: "conv1/7x7_s2"
}
layer {
  name: "pool1/3x3_s2"
  type: "Pooling"
  bottom: "conv1/7x7_s2"
  top: "pool1/3x3_s2"
  pooling_param {
    pool: MAX
    kernel_size: 3
    stride: 2
  }
}
layer {
  name: "pool1/norm1"
  type: "LRN"
  bottom: "pool1/3x3_s2"
  top: "pool1/norm1"
  lrn_param {
    local_size: 5
    alpha: 0.0001
    beta: 0.75
  }
}
layer {
  name: "conv2/3x3_reduce"
  type: "Convolution"
  bottom: "pool1/norm1"
  top: "conv2/3x3_reduce"
  param {
    lr_mult: 1
    decay_mult: 1
  }
  param {
    lr_mult: 2
    decay_mult: 0
  }
  convolution_param {
    num_output: 64
    kernel_size: 1
    weight_filler {
      type: "xavier"
      std: 0.1
    }
    bias_filler {
      type: "constant"
      value: 0.2
    }
  }
}
layer {
  name: "conv2/relu_3x3_reduce"
  type: "ReLU"
  bottom: "conv2/3x3_reduce"
  top: "conv2/3x3_reduce"
}
layer {
  name: "conv2/3x3"
  type: "Convolution"
  bottom: "conv2/3x3_reduce"
  top: "conv2/3x3"
  param {
    lr_mult: 1
    decay_mult: 1
  }
  param {
    lr_mult: 2
    decay_mult: 0
  }
  convolution_param {
    num_output: 192
    pad: 1
    kernel_size: 3
    weight_filler {
      type: "xavier"
      std: 0.03
    }
    bias_filler {
      type: "constant"
      value: 0.2
    }
  }
}
layer {
  name: "conv2/relu_3x3"
  type: "ReLU"
  bottom: "conv2/3x3"
  top: "conv2/3x3"
}
layer {
  name: "conv2/norm2"
  type: "LRN"
  bottom: "conv2/3x3"
  top: "conv2/norm2"
  lrn_param {
    local_size: 5
    alpha: 0.0001
    beta: 0.75
  }
}
layer {
  name: "pool2/3x3_s2"
  type: "Pooling"
  bottom: "conv2/norm2"
  top: "pool2/3x3_s2"
  pooling_param {
    pool: MAX
    kernel_size: 3
    stride: 2
  }
}
layer {
  name: "inception_3a/1x1"
  type: "Convolution"
  bottom: "pool2/3x3_s2"
  top: "inception_3a/1x1"
  param {
    lr_mult: 1
    decay_mult: 1
  }
  param {
    lr_mult: 2
    decay_mult: 0
  }
  convolution_param {
    num_output: 64
    kernel_size: 1
    weight_filler {
      type: "xavier"
      std: 0.03
    }
    bias_filler {
      type: "constant"
      value: 0.2
    }
  }
}
layer {
  name: "inception_3a/relu_1x1"
  type: "ReLU"
  bottom: "inception_3a/1x1"
  top: "inception_3a/1x1"
}
layer {
  name: "inception_3a/3x3_reduce"
  type: "Convolution"
  bottom: "pool2/3x3_s2"
  top: "inception_3a/3x3_reduce"
  param {
    lr_mult: 1
    decay_mult: 1
  }
  param {
    lr_mult: 2
    decay_mult: 0
  }
  convolution_param {
    num_output: 96
    kernel_size: 1
    weight_filler {
      type: "xavier"
      std: 0.09
    }
    bias_filler {
      type: "constant"
      value: 0.2
    }
  }
}
layer {
  name: "inception_3a/relu_3x3_reduce"
  type: "ReLU"
  bottom: "inception_3a/3x3_reduce"
  top: "inception_3a/3x3_reduce"
}
layer {
  name: "inception_3a/3x3"
  type: "Convolution"
  bottom: "inception_3a/3x3_reduce"
  top: "inception_3a/3x3"
  param {
    lr_mult: 1
    decay_mult: 1
  }
  param {
    lr_mult: 2
    decay_mult: 0
  }
  convolution_param {
    num_output: 128
    pad: 1
    kernel_size: 3
    weight_filler {
      type: "xavier"
      std: 0.03
    }
    bias_filler {
      type: "constant"
      value: 0.2
    }
  }
}
layer {
  name: "inception_3a/relu_3x3"
  type: "ReLU"
  bottom: "inception_3a/3x3"
  top: "inception_3a/3x3"
}
layer {
  name: "inception_3a/5x5_reduce"
  type: "Convolution"
  bottom: "pool2/3x3_s2"
  top: "inception_3a/5x5_reduce"
  param {
    lr_mult: 1
    decay_mult: 1
  }
  param {
    lr_mult: 2
    decay_mult: 0
  }
  convolution_param {
    num_output: 16
    kernel_size: 1
    weight_filler {
      type: "xavier"
      std: 0.2
    }
    bias_filler {
      type: "constant"
      value: 0.2
    }
  }
}
layer {
  name: "inception_3a/relu_5x5_reduce"
  type: "ReLU"
  bottom: "inception_3a/5x5_reduce"
  top: "inception_3a/5x5_reduce"
}
layer {
  name: "inception_3a/5x5"
  type: "Convolution"
  bottom: "inception_3a/5x5_reduce"
  top: "inception_3a/5x5"
  param {
    lr_mult: 1
    decay_mult: 1
  }
  param {
    lr_mult: 2
    decay_mult: 0
  }
  convolution_param {
    num_output: 32
    pad: 2
    kernel_size: 5
    weight_filler {
      type: "xavier"
      std: 0.03
    }
    bias_filler {
      type: "constant"
      value: 0.2
    }
  }
}
layer {
  name: "inception_3a/relu_5x5"
  type: "ReLU"
  bottom: "inception_3a/5x5"
  top: "inception_3a/5x5"
}
layer {
  name: "inception_3a/pool"
  type: "Pooling"
  bottom: "pool2/3x3_s2"
  top: "inception_3a/pool"
  pooling_param {
    pool: MAX
    kernel_size: 3
    stride: 1
    pad: 1
  }
}
layer {
  name: "inception_3a/pool_proj"
  type: "Convolution"
  bottom: "inception_3a/pool"
  top: "inception_3a/pool_proj"
  param {
    lr_mult: 1
    decay_mult: 1
  }
  param {
    lr_mult: 2
    decay_mult: 0
  }
  convolution_param {
    num_output: 32
    kernel_size: 1
    weight_filler {
      type: "xavier"
      std: 0.1
    }
    bias_filler {
      type: "constant"
      value: 0.2
    }
  }
}
layer {
  name: "inception_3a/relu_pool_proj"
  type: "ReLU"
  bottom: "inception_3a/pool_proj"
  top: "inception_3a/pool_proj"
}
layer {
  name: "inception_3a/output"
  type: "Concat"
  bottom: "inception_3a/1x1"
  bottom: "inception_3a/3x3"
  bottom: "inception_3a/5x5"
  bottom: "inception_3a/pool_proj"
  top: "inception_3a/output"
}
layer {
  name: "inception_3b/1x1"
  type: "Convolution"
  bottom: "inception_3a/output"
  top: "inception_3b/1x1"
  param {
    lr_mult: 1
    decay_mult: 1
  }
  param {
    lr_mult: 2
    decay_mult: 0
  }
  convolution_param {
    num_output: 128
    kernel_size: 1
    weight_filler {
      type: "xavier"
      std: 0.03
    }
    bias_filler {
      type: "constant"
      value: 0.2
    }
  }
}
layer {
  name: "inception_3b/relu_1x1"
  type: "ReLU"
  bottom: "inception_3b/1x1"
  top: "inception_3b/1x1"
}
layer {
  name: "inception_3b/3x3_reduce"
  type: "Convolution"
  bottom: "inception_3a/output"
  top: "inception_3b/3x3_reduce"
  param {
    lr_mult: 1
    decay_mult: 1
  }
  param {
    lr_mult: 2
    decay_mult: 0
  }
  convolution_param {
    num_output: 128
    kernel_size: 1
    weight_filler {
      type: "xavier"
      std: 0.09
    }
    bias_filler {
      type: "constant"
      value: 0.2
    }
  }
}
layer {
  name: "inception_3b/relu_3x3_reduce"
  type: "ReLU"
  bottom: "inception_3b/3x3_reduce"
  top: "inception_3b/3x3_reduce"
}
layer {
  name: "inception_3b/3x3"
  type: "Convolution"
  bottom: "inception_3b/3x3_reduce"
  top: "inception_3b/3x3"
  param {
    lr_mult: 1
    decay_mult: 1
  }
  param {
    lr_mult: 2
    decay_mult: 0
  }
  convolution_param {
    num_output: 192
    pad: 1
    kernel_size: 3
    weight_filler {
      type: "xavier"
      std: 0.03
    }
    bias_filler {
      type: "constant"
      value: 0.2
    }
  }
}
layer {
  name: "inception_3b/relu_3x3"
  type: "ReLU"
  bottom: "inception_3b/3x3"
  top: "inception_3b/3x3"
}
layer {
  name: "inception_3b/5x5_reduce"
  type: "Convolution"
  bottom: "inception_3a/output"
  top: "inception_3b/5x5_reduce"
  param {
    lr_mult: 1
    decay_mult: 1
  }
  param {
    lr_mult: 2
    decay_mult: 0
  }
  convolution_param {
    num_output: 32
    kernel_size: 1
    weight_filler {
      type: "xavier"
      std: 0.2
    }
    bias_filler {
      type: "constant"
      value: 0.2
    }
  }
}
layer {
  name: "inception_3b/relu_5x5_reduce"
  type: "ReLU"
  bottom: "inception_3b/5x5_reduce"
  top: "inception_3b/5x5_reduce"
}
layer {
  name: "inception_3b/5x5"
  type: "Convolution"
  bottom: "inception_3b/5x5_reduce"
  top: "inception_3b/5x5"
  param {
    lr_mult: 1
    decay_mult: 1
  }
  param {
    lr_mult: 2
    decay_mult: 0
  }
  convolution_param {
    num_output: 96
    pad: 2
    kernel_size: 5
    weight_filler {
      type: "xavier"
      std: 0.03
    }
    bias_filler {
      type: "constant"
      value: 0.2
    }
  }
}
layer {
  name: "inception_3b/relu_5x5"
  type: "ReLU"
  bottom: "inception_3b/5x5"
  top: "inception_3b/5x5"
}
layer {
  name: "inception_3b/pool"
  type: "Pooling"
  bottom: "inception_3a/output"
  top: "inception_3b/pool"
  pooling_param {
    pool: MAX
    kernel_size: 3
    stride: 1
    pad: 1
  }
}
layer {
  name: "inception_3b/pool_proj"
  type: "Convolution"
  bottom: "inception_3b/pool"
  top: "inception_3b/pool_proj"
  param {
    lr_mult: 1
    decay_mult: 1
  }
  param {
    lr_mult: 2
    decay_mult: 0
  }
  convolution_param {
    num_output: 64
    kernel_size: 1
    weight_filler {
      type: "xavier"
      std: 0.1
    }
    bias_filler {
      type: "constant"
      value: 0.2
    }
  }
}
layer {
  name: "inception_3b/relu_pool_proj"
  type: "ReLU"
  bottom: "inception_3b/pool_proj"
  top: "inception_3b/pool_proj"
}
layer {
  name: "inception_3b/output"
  type: "Concat"
  bottom: "inception_3b/1x1"
  bottom: "inception_3b/3x3"
  bottom: "inception_3b/5x5"
  bottom: "inception_3b/pool_proj"
  top: "inception_3b/output"
}
layer {
  name: "pool3/3x3_s2"
  type: "Pooling"
  bottom: "inception_3b/output"
  top: "pool3/3x3_s2"
  pooling_param {
    pool: MAX
    kernel_size: 3
    stride: 2
  }
}
layer {
  name: "inception_4a/1x1"
  type: "Convolution"
  bottom: "pool3/3x3_s2"
  top: "inception_4a/1x1"
  param {
    lr_mult: 1
    decay_mult: 1
  }
  param {
    lr_mult: 2
    decay_mult: 0
  }
  convolution_param {
    num_output: 192
    kernel_size: 1
    weight_filler {
      type: "xavier"
      std: 0.03
    }
    bias_filler {
      type: "constant"
      value: 0.2
    }
  }
}
layer {
  name: "inception_4a/relu_1x1"
  type: "ReLU"
  bottom: "inception_4a/1x1"
  top: "inception_4a/1x1"
}
layer {
  name: "inception_4a/3x3_reduce"
  type: "Convolution"
  bottom: "pool3/3x3_s2"
  top: "inception_4a/3x3_reduce"
  param {
    lr_mult: 1
    decay_mult: 1
  }
  param {
    lr_mult: 2
    decay_mult: 0
  }
  convolution_param {
    num_output: 96
    kernel_size: 1
    weight_filler {
      type: "xavier"
      std: 0.09
    }
    bias_filler {
      type: "constant"
      value: 0.2
    }
  }
}
layer {
  name: "inception_4a/relu_3x3_reduce"
  type: "ReLU"
  bottom: "inception_4a/3x3_reduce"
  top: "inception_4a/3x3_reduce"
}
layer {
  name: "inception_4a/3x3"
  type: "Convolution"
  bottom: "inception_4a/3x3_reduce"
  top: "inception_4a/3x3"
  param {
    lr_mult: 1
    decay_mult: 1
  }
  param {
    lr_mult: 2
    decay_mult: 0
  }
  convolution_param {
    num_output: 208
    pad: 1
    kernel_size: 3
    weight_filler {
      type: "xavier"
      std: 0.03
    }
    bias_filler {
      type: "constant"
      value: 0.2
    }
  }
}
layer {
  name: "inception_4a/relu_3x3"
  type: "ReLU"
  bottom: "inception_4a/3x3"
  top: "inception_4a/3x3"
}
layer {
  name: "inception_4a/5x5_reduce"
  type: "Convolution"
  bottom: "pool3/3x3_s2"
  top: "inception_4a/5x5_reduce"
  param {
    lr_mult: 1
    decay_mult: 1
  }
  param {
    lr_mult: 2
    decay_mult: 0
  }
  convolution_param {
    num_output: 16
    kernel_size: 1
    weight_filler {
      type: "xavier"
      std: 0.2
    }
    bias_filler {
      type: "constant"
      value: 0.2
    }
  }
}
layer {
  name: "inception_4a/relu_5x5_reduce"
  type: "ReLU"
  bottom: "inception_4a/5x5_reduce"
  top: "inception_4a/5x5_reduce"
}
layer {
  name: "inception_4a/5x5"
  type: "Convolution"
  bottom: "inception_4a/5x5_reduce"
  top: "inception_4a/5x5"
  param {
    lr_mult: 1
    decay_mult: 1
  }
  param {
    lr_mult: 2
    decay_mult: 0
  }
  convolution_param {
    num_output: 48
    pad: 2
    kernel_size: 5
    weight_filler {
      type: "xavier"
      std: 0.03
    }
    bias_filler {
      type: "constant"
      value: 0.2
    }
  }
}
layer {
  name: "inception_4a/relu_5x5"
  type: "ReLU"
  bottom: "inception_4a/5x5"
  top: "inception_4a/5x5"
}
layer {
  name: "inception_4a/pool"
  type: "Pooling"
  bottom: "pool3/3x3_s2"
  top: "inception_4a/pool"
  pooling_param {
    pool: MAX
    kernel_size: 3
    stride: 1
    pad: 1
  }
}
layer {
  name: "inception_4a/pool_proj"
  type: "Convolution"
  bottom: "inception_4a/pool"
  top: "inception_4a/pool_proj"
  param {
    lr_mult: 1
    decay_mult: 1
  }
  param {
    lr_mult: 2
    decay_mult: 0
  }
  convolution_param {
    num_output: 64
    kernel_size: 1
    weight_filler {
      type: "xavier"
      std: 0.1
    }
    bias_filler {
      type: "constant"
      value: 0.2
    }
  }
}
layer {
  name: "inception_4a/relu_pool_proj"
  type: "ReLU"
  bottom: "inception_4a/pool_proj"
  top: "inception_4a/pool_proj"
}
layer {
  name: "inception_4a/output"
  type: "Concat"
  bottom: "inception_4a/1x1"
  bottom: "inception_4a/3x3"
  bottom: "inception_4a/5x5"
  bottom: "inception_4a/pool_proj"
  top: "inception_4a/output"
}
layer {
  name: "loss1/ave_pool"
  type: "Pooling"
  bottom: "inception_4a/output"
  top: "loss1/ave_pool"
  pooling_param {
    pool: AVE
    kernel_size: 5
    stride: 3
  }
}
layer {
  name: "loss1/conv"
  type: "Convolution"
  bottom: "loss1/ave_pool"
  top: "loss1/conv"
  param {
    lr_mult: 1
    decay_mult: 1
  }
  param {
    lr_mult: 2
    decay_mult: 0
  }
  convolution_param {
    num_output: 128
    kernel_size: 1
    weight_filler {
      type: "xavier"
      std: 0.08
    }
    bias_filler {
      type: "constant"
      value: 0.2
    }
  }
}
layer {
  name: "loss1/relu_conv"
  type: "ReLU"
  bottom: "loss1/conv"
  top: "loss1/conv"
}
layer {
  name: "loss1/fc"
  type: "InnerProduct"
  bottom: "loss1/conv"
  top: "loss1/fc"
  param {
    lr_mult: 1
    decay_mult: 1
  }
  param {
    lr_mult: 2
    decay_mult: 0
  }
  inner_product_param {
    num_output: 1024
    weight_filler {
      type: "xavier"
      std: 0.02
    }
    bias_filler {
      type: "constant"
      value: 0.2
    }
  }
}
layer {
  name: "loss1/relu_fc"
  type: "ReLU"
  bottom: "loss1/fc"
  top: "loss1/fc"
}
layer {
  name: "loss1/drop_fc"
  type: "Dropout"
  bottom: "loss1/fc"
  top: "loss1/fc"
  dropout_param {
    dropout_ratio: 0.7
  }
}
layer {
  name: "loss1/classifier_plantvillage"
  type: "InnerProduct"
  bottom: "loss1/fc"
  top: "loss1/classifier_plantvillage"
  param {
    lr_mult: 1
    decay_mult: 1
  }
  param {
    lr_mult: 2
    decay_mult: 0
  }
  inner_product_param {
    num_output: 38
    weight_filler {
      type: "xavier"
      std: 0.0009765625
    }
    bias_filler {
      type: "constant"
      value: 0
    }
  }
}
layer {
  name: "inception_4b/1x1"
  type: "Convolution"
  bottom: "inception_4a/output"
  top: "inception_4b/1x1"
  param {
    lr_mult: 1
    decay_mult: 1
  }
  param {
    lr_mult: 2
    decay_mult: 0
  }
  convolution_param {
    num_output: 160
    kernel_size: 1
    weight_filler {
      type: "xavier"
      std: 0.03
    }
    bias_filler {
      type: "constant"
      value: 0.2
    }
  }
}
layer {
  name: "inception_4b/relu_1x1"
  type: "ReLU"
  bottom: "inception_4b/1x1"
  top: "inception_4b/1x1"
}
layer {
  name: "inception_4b/3x3_reduce"
  type: "Convolution"
  bottom: "inception_4a/output"
  top: "inception_4b/3x3_reduce"
  param {
    lr_mult: 1
    decay_mult: 1
  }
  param {
    lr_mult: 2
    decay_mult: 0
  }
  convolution_param {
    num_output: 112
    kernel_size: 1
    weight_filler {
      type: "xavier"
      std: 0.09
    }
    bias_filler {
      type: "constant"
      value: 0.2
    }
  }
}
layer {
  name: "inception_4b/relu_3x3_reduce"
  type: "ReLU"
  bottom: "inception_4b/3x3_reduce"
  top: "inception_4b/3x3_reduce"
}
layer {
  name: "inception_4b/3x3"
  type: "Convolution"
  bottom: "inception_4b/3x3_reduce"
  top: "inception_4b/3x3"
  param {
    lr_mult: 1
    decay_mult: 1
  }
  param {
    lr_mult: 2
    decay_mult: 0
  }
  convolution_param {
    num_output: 224
    pad: 1
    kernel_size: 3
    weight_filler {
      type: "xavier"
      std: 0.03
    }
    bias_filler {
      type: "constant"
      value: 0.2
    }
  }
}
layer {
  name: "inception_4b/relu_3x3"
  type: "ReLU"
  bottom: "inception_4b/3x3"
  top: "inception_4b/3x3"
}
layer {
  name: "inception_4b/5x5_reduce"
  type: "Convolution"
  bottom: "inception_4a/output"
  top: "inception_4b/5x5_reduce"
  param {
    lr_mult: 1
    decay_mult: 1
  }
  param {
    lr_mult: 2
    decay_mult: 0
  }
  convolution_param {
    num_output: 24
    kernel_size: 1
    weight_filler {
      type: "xavier"
      std: 0.2
    }
    bias_filler {
      type: "constant"
      value: 0.2
    }
  }
}
layer {
  name: "inception_4b/relu_5x5_reduce"
  type: "ReLU"
  bottom: "inception_4b/5x5_reduce"
  top: "inception_4b/5x5_reduce"
}
layer {
  name: "inception_4b/5x5"
  type: "Convolution"
  bottom: "inception_4b/5x5_reduce"
  top: "inception_4b/5x5"
  param {
    lr_mult: 1
    decay_mult: 1
  }
  param {
    lr_mult: 2
    decay_mult: 0
  }
  convolution_param {
    num_output: 64
    pad: 2
    kernel_size: 5
    weight_filler {
      type: "xavier"
      std: 0.03
    }
    bias_filler {
      type: "constant"
      value: 0.2
    }
  }
}
layer {
  name: "inception_4b/relu_5x5"
  type: "ReLU"
  bottom: "inception_4b/5x5"
  top: "inception_4b/5x5"
}
layer {
  name: "inception_4b/pool"
  type: "Pooling"
  bottom: "inception_4a/output"
  top: "inception_4b/pool"
  pooling_param {
    pool: MAX
    kernel_size: 3
    stride: 1
    pad: 1
  }
}
layer {
  name: "inception_4b/pool_proj"
  type: "Convolution"
  bottom: "inception_4b/pool"
  top: "inception_4b/pool_proj"
  param {
    lr_mult: 1
    decay_mult: 1
  }
  param {
    lr_mult: 2
    decay_mult: 0
  }
  convolution_param {
    num_output: 64
    kernel_size: 1
    weight_filler {
      type: "xavier"
      std: 0.1
    }
    bias_filler {
      type: "constant"
      value: 0.2
    }
  }
}
layer {
  name: "inception_4b/relu_pool_proj"
  type: "ReLU"
  bottom: "inception_4b/pool_proj"
  top: "inception_4b/pool_proj"
}
layer {
  name: "inception_4b/output"
  type: "Concat"
  bottom: "inception_4b/1x1"
  bottom: "inception_4b/3x3"
  bottom: "inception_4b/5x5"
  bottom: "inception_4b/pool_proj"
  top: "inception_4b/output"
}
layer {
  name: "inception_4c/1x1"
  type: "Convolution"
  bottom: "inception_4b/output"
  top: "inception_4c/1x1"
  param {
    lr_mult: 1
    decay_mult: 1
  }
  param {
    lr_mult: 2
    decay_mult: 0
  }
  convolution_param {
    num_output: 128
    kernel_size: 1
    weight_filler {
      type: "xavier"
      std: 0.03
    }
    bias_filler {
      type: "constant"
      value: 0.2
    }
  }
}
layer {
  name: "inception_4c/relu_1x1"
  type: "ReLU"
  bottom: "inception_4c/1x1"
  top: "inception_4c/1x1"
}
layer {
  name: "inception_4c/3x3_reduce"
  type: "Convolution"
  bottom: "inception_4b/output"
  top: "inception_4c/3x3_reduce"
  param {
    lr_mult: 1
    decay_mult: 1
  }
  param {
    lr_mult: 2
    decay_mult: 0
  }
  convolution_param {
    num_output: 128
    kernel_size: 1
    weight_filler {
      type: "xavier"
      std: 0.09
    }
    bias_filler {
      type: "constant"
      value: 0.2
    }
  }
}
layer {
  name: "inception_4c/relu_3x3_reduce"
  type: "ReLU"
  bottom: "inception_4c/3x3_reduce"
  top: "inception_4c/3x3_reduce"
}
layer {
  name: "inception_4c/3x3"
  type: "Convolution"
  bottom: "inception_4c/3x3_reduce"
  top: "inception_4c/3x3"
  param {
    lr_mult: 1
    decay_mult: 1
  }
  param {
    lr_mult: 2
    decay_mult: 0
  }
  convolution_param {
    num_output: 256
    pad: 1
    kernel_size: 3
    weight_filler {
      type: "xavier"
      std: 0.03
    }
    bias_filler {
      type: "constant"
      value: 0.2
    }
  }
}
layer {
  name: "inception_4c/relu_3x3"
  type: "ReLU"
  bottom: "inception_4c/3x3"
  top: "inception_4c/3x3"
}
layer {
  name: "inception_4c/5x5_reduce"
  type: "Convolution"
  bottom: "inception_4b/output"
  top: "inception_4c/5x5_reduce"
  param {
    lr_mult: 1
    decay_mult: 1
  }
  param {
    lr_mult: 2
    decay_mult: 0
  }
  convolution_param {
    num_output: 24
    kernel_size: 1
    weight_filler {
      type: "xavier"
      std: 0.2
    }
    bias_filler {
      type: "constant"
      value: 0.2
    }
  }
}
layer {
  name: "inception_4c/relu_5x5_reduce"
  type: "ReLU"
  bottom: "inception_4c/5x5_reduce"
  top: "inception_4c/5x5_reduce"
}
layer {
  name: "inception_4c/5x5"
  type: "Convolution"
  bottom: "inception_4c/5x5_reduce"
  top: "inception_4c/5x5"
  param {
    lr_mult: 1
    decay_mult: 1
  }
  param {
    lr_mult: 2
    decay_mult: 0
  }
  convolution_param {
    num_output: 64
    pad: 2
    kernel_size: 5
    weight_filler {
      type: "xavier"
      std: 0.03
    }
    bias_filler {
      type: "constant"
      value: 0.2
    }
  }
}
layer {
  name: "inception_4c/relu_5x5"
  type: "ReLU"
  bottom: "inception_4c/5x5"
  top: "inception_4c/5x5"
}
layer {
  name: "inception_4c/pool"
  type: "Pooling"
  bottom: "inception_4b/output"
  top: "inception_4c/pool"
  pooling_param {
    pool: MAX
    kernel_size: 3
    stride: 1
    pad: 1
  }
}
layer {
  name: "inception_4c/pool_proj"
  type: "Convolution"
  bottom: "inception_4c/pool"
  top: "inception_4c/pool_proj"
  param {
    lr_mult: 1
    decay_mult: 1
  }
  param {
    lr_mult: 2
    decay_mult: 0
  }
  convolution_param {
    num_output: 64
    kernel_size: 1
    weight_filler {
      type: "xavier"
      std: 0.1
    }
    bias_filler {
      type: "constant"
      value: 0.2
    }
  }
}
layer {
  name: "inception_4c/relu_pool_proj"
  type: "ReLU"
  bottom: "inception_4c/pool_proj"
  top: "inception_4c/pool_proj"
}
layer {
  name: "inception_4c/output"
  type: "Concat"
  bottom: "inception_4c/1x1"
  bottom: "inception_4c/3x3"
  bottom: "inception_4c/5x5"
  bottom: "inception_4c/pool_proj"
  top: "inception_4c/output"
}
layer {
  name: "inception_4d/1x1"
  type: "Convolution"
  bottom: "inception_4c/output"
  top: "inception_4d/1x1"
  param {
    lr_mult: 1
    decay_mult: 1
  }
  param {
    lr_mult: 2
    decay_mult: 0
  }
  convolution_param {
    num_output: 112
    kernel_size: 1
    weight_filler {
      type: "xavier"
      std: 0.03
    }
    bias_filler {
      type: "constant"
      value: 0.2
    }
  }
}
layer {
  name: "inception_4d/relu_1x1"
  type: "ReLU"
  bottom: "inception_4d/1x1"
  top: "inception_4d/1x1"
}
layer {
  name: "inception_4d/3x3_reduce"
  type: "Convolution"
  bottom: "inception_4c/output"
  top: "inception_4d/3x3_reduce"
  param {
    lr_mult: 1
    decay_mult: 1
  }
  param {
    lr_mult: 2
    decay_mult: 0
  }
  convolution_param {
    num_output: 144
    kernel_size: 1
    weight_filler {
      type: "xavier"
      std: 0.09
    }
    bias_filler {
      type: "constant"
      value: 0.2
    }
  }
}
layer {
  name: "inception_4d/relu_3x3_reduce"
  type: "ReLU"
  bottom: "inception_4d/3x3_reduce"
  top: "inception_4d/3x3_reduce"
}
layer {
  name: "inception_4d/3x3"
  type: "Convolution"
  bottom: "inception_4d/3x3_reduce"
  top: "inception_4d/3x3"
  param {
    lr_mult: 1
    decay_mult: 1
  }
  param {
    lr_mult: 2
    decay_mult: 0
  }
  convolution_param {
    num_output: 288
    pad: 1
    kernel_size: 3
    weight_filler {
      type: "xavier"
      std: 0.03
    }
    bias_filler {
      type: "constant"
      value: 0.2
    }
  }
}
layer {
  name: "inception_4d/relu_3x3"
  type: "ReLU"
  bottom: "inception_4d/3x3"
  top: "inception_4d/3x3"
}
layer {
  name: "inception_4d/5x5_reduce"
  type: "Convolution"
  bottom: "inception_4c/output"
  top: "inception_4d/5x5_reduce"
  param {
    lr_mult: 1
    decay_mult: 1
  }
  param {
    lr_mult: 2
    decay_mult: 0
  }
  convolution_param {
    num_output: 32
    kernel_size: 1
    weight_filler {
      type: "xavier"
      std: 0.2
    }
    bias_filler {
      type: "constant"
      value: 0.2
    }
  }
}
layer {
  name: "inception_4d/relu_5x5_reduce"
  type: "ReLU"
  bottom: "inception_4d/5x5_reduce"
  top: "inception_4d/5x5_reduce"
}
layer {
  name: "inception_4d/5x5"
  type: "Convolution"
  bottom: "inception_4d/5x5_reduce"
  top: "inception_4d/5x5"
  param {
    lr_mult: 1
    decay_mult: 1
  }
  param {
    lr_mult: 2
    decay_mult: 0
  }
  convolution_param {
    num_output: 64
    pad: 2
    kernel_size: 5
    weight_filler {
      type: "xavier"
      std: 0.03
    }
    bias_filler {
      type: "constant"
      value: 0.2
    }
  }
}
layer {
  name: "inception_4d/relu_5x5"
  type: "ReLU"
  bottom: "inception_4d/5x5"
  top: "inception_4d/5x5"
}
layer {
  name: "inception_4d/pool"
  type: "Pooling"
  bottom: "inception_4c/output"
  top: "inception_4d/pool"
  pooling_param {
    pool: MAX
    kernel_size: 3
    stride: 1
    pad: 1
  }
}
layer {
  name: "inception_4d/pool_proj"
  type: "Convolution"
  bottom: "inception_4d/pool"
  top: "inception_4d/pool_proj"
  param {
    lr_mult: 1
    decay_mult: 1
  }
  param {
    lr_mult: 2
    decay_mult: 0
  }
  convolution_param {
    num_output: 64
    kernel_size: 1
    weight_filler {
      type: "xavier"
      std: 0.1
    }
    bias_filler {
      type: "constant"
      value: 0.2
    }
  }
}
layer {
  name: "inception_4d/relu_pool_proj"
  type: "ReLU"
  bottom: "inception_4d/pool_proj"
  top: "inception_4d/pool_proj"
}
layer {
  name: "inception_4d/output"
  type: "Concat"
  bottom: "inception_4d/1x1"
  bottom: "inception_4d/3x3"
  bottom: "inception_4d/5x5"
  bottom: "inception_4d/pool_proj"
  top: "inception_4d/output"
}
layer {
  name: "loss2/ave_pool"
  type: "Pooling"
  bottom: "inception_4d/output"
  top: "loss2/ave_pool"
  pooling_param {
    pool: AVE
    kernel_size: 5
    stride: 3
  }
}
layer {
  name: "loss2/conv"
  type: "Convolution"
  bottom: "loss2/ave_pool"
  top: "loss2/conv"
  param {
    lr_mult: 1
    decay_mult: 1
  }
  param {
    lr_mult: 2
    decay_mult: 0
  }
  convolution_param {
    num_output: 128
    kernel_size: 1
    weight_filler {
      type: "xavier"
      std: 0.08
    }
    bias_filler {
      type: "constant"
      value: 0.2
    }
  }
}
layer {
  name: "loss2/relu_conv"
  type: "ReLU"
  bottom: "loss2/conv"
  top: "loss2/conv"
}
layer {
  name: "loss2/fc"
  type: "InnerProduct"
  bottom: "loss2/conv"
  top: "loss2/fc"
  param {
    lr_mult: 1
    decay_mult: 1
  }
  param {
    lr_mult: 2
    decay_mult: 0
  }
  inner_product_param {
    num_output: 1024
    weight_filler {
      type: "xavier"
      std: 0.02
    }
    bias_filler {
      type: "constant"
      value: 0.2
    }
  }
}
layer {
  name: "loss2/relu_fc"
  type: "ReLU"
  bottom: "loss2/fc"
  top: "loss2/fc"
}
layer {
  name: "loss2/drop_fc"
  type: "Dropout"
  bottom: "loss2/fc"
  top: "loss2/fc"
  dropout_param {
    dropout_ratio: 0.7
  }
}
layer {
  name: "loss2/classifier_plantvillage"
  type: "InnerProduct"
  bottom: "loss2/fc"
  top: "loss2/classifier_plantvillage"
  param {
    lr_mult: 1
    decay_mult: 1
  }
  param {
    lr_mult: 2
    decay_mult: 0
  }
  inner_product_param {
    num_output: 38
    weight_filler {
      type: "xavier"
      std: 0.0009765625
    }
    bias_filler {
      type: "constant"
      value: 0
    }
  }
}
layer {
  name: "inception_4e/1x1"
  type: "Convolution"
  bottom: "inception_4d/output"
  top: "inception_4e/1x1"
  param {
    lr_mult: 1
    decay_mult: 1
  }
  param {
    lr_mult: 2
    decay_mult: 0
  }
  convolution_param {
    num_output: 256
    kernel_size: 1
    weight_filler {
      type: "xavier"
      std: 0.03
    }
    bias_filler {
      type: "constant"
      value: 0.2
    }
  }
}
layer {
  name: "inception_4e/relu_1x1"
  type: "ReLU"
  bottom: "inception_4e/1x1"
  top: "inception_4e/1x1"
}
layer {
  name: "inception_4e/3x3_reduce"
  type: "Convolution"
  bottom: "inception_4d/output"
  top: "inception_4e/3x3_reduce"
  param {
    lr_mult: 1
    decay_mult: 1
  }
  param {
    lr_mult: 2
    decay_mult: 0
  }
  convolution_param {
    num_output: 160
    kernel_size: 1
    weight_filler {
      type: "xavier"
      std: 0.09
    }
    bias_filler {
      type: "constant"
      value: 0.2
    }
  }
}
layer {
  name: "inception_4e/relu_3x3_reduce"
  type: "ReLU"
  bottom: "inception_4e/3x3_reduce"
  top: "inception_4e/3x3_reduce"
}
layer {
  name: "inception_4e/3x3"
  type: "Convolution"
  bottom: "inception_4e/3x3_reduce"
  top: "inception_4e/3x3"
  param {
    lr_mult: 1
    decay_mult: 1
  }
  param {
    lr_mult: 2
    decay_mult: 0
  }
  convolution_param {
    num_output: 320
    pad: 1
    kernel_size: 3
    weight_filler {
      type: "xavier"
      std: 0.03
    }
    bias_filler {
      type: "constant"
      value: 0.2
    }
  }
}
layer {
  name: "inception_4e/relu_3x3"
  type: "ReLU"
  bottom: "inception_4e/3x3"
  top: "inception_4e/3x3"
}
layer {
  name: "inception_4e/5x5_reduce"
  type: "Convolution"
  bottom: "inception_4d/output"
  top: "inception_4e/5x5_reduce"
  param {
    lr_mult: 1
    decay_mult: 1
  }
  param {
    lr_mult: 2
    decay_mult: 0
  }
  convolution_param {
    num_output: 32
    kernel_size: 1
    weight_filler {
      type: "xavier"
      std: 0.2
    }
    bias_filler {
      type: "constant"
      value: 0.2
    }
  }
}
layer {
  name: "inception_4e/relu_5x5_reduce"
  type: "ReLU"
  bottom: "inception_4e/5x5_reduce"
  top: "inception_4e/5x5_reduce"
}
layer {
  name: "inception_4e/5x5"
  type: "Convolution"
  bottom: "inception_4e/5x5_reduce"
  top: "inception_4e/
I0403 19:35:48.425534  9426 layer_factory.hpp:77] Creating layer data
I0403 19:35:48.426169  9426 net.cpp:91] Creating Layer data
I0403 19:35:48.426201  9426 net.cpp:399] data -> data
I0403 19:35:48.426268  9426 net.cpp:399] data -> label
I0403 19:35:48.426307  9426 data_transformer.cpp:25] Loading mean file from: /home/mohanty/data/final_dataset/lmdb/grayscale-50-50/mean.binaryproto
I0403 19:35:48.427453  9428 db_lmdb.cpp:38] Opened lmdb /home/mohanty/data/final_dataset/lmdb/grayscale-50-50/test_db
I0403 19:35:48.439920  9426 data_layer.cpp:41] output data size: 24,3,224,224
I0403 19:35:48.468507  9426 net.cpp:141] Setting up data
I0403 19:35:48.468603  9426 net.cpp:148] Top shape: 24 3 224 224 (3612672)
I0403 19:35:48.468627  9426 net.cpp:148] Top shape: 24 (24)
I0403 19:35:48.468643  9426 net.cpp:156] Memory required for data: 14450784
I0403 19:35:48.468672  9426 layer_factory.hpp:77] Creating layer label_data_1_split
I0403 19:35:48.468700  9426 net.cpp:91] Creating Layer label_data_1_split
I0403 19:35:48.468720  9426 net.cpp:425] label_data_1_split <- label
I0403 19:35:48.468751  9426 net.cpp:399] label_data_1_split -> label_data_1_split_0
I0403 19:35:48.468780  9426 net.cpp:399] label_data_1_split -> label_data_1_split_1
I0403 19:35:48.468802  9426 net.cpp:399] label_data_1_split -> label_data_1_split_2
I0403 19:35:48.468824  9426 net.cpp:399] label_data_1_split -> label_data_1_split_3
I0403 19:35:48.468845  9426 net.cpp:399] label_data_1_split -> label_data_1_split_4
I0403 19:35:48.468866  9426 net.cpp:399] label_data_1_split -> label_data_1_split_5
I0403 19:35:48.468885  9426 net.cpp:399] label_data_1_split -> label_data_1_split_6
I0403 19:35:48.468907  9426 net.cpp:399] label_data_1_split -> label_data_1_split_7
I0403 19:35:48.468929  9426 net.cpp:399] label_data_1_split -> label_data_1_split_8
I0403 19:35:48.468950  9426 net.cpp:399] label_data_1_split -> label_data_1_split_9
I0403 19:35:48.469076  9426 net.cpp:141] Setting up label_data_1_split
I0403 19:35:48.469100  9426 net.cpp:148] Top shape: 24 (24)
I0403 19:35:48.469120  9426 net.cpp:148] Top shape: 24 (24)
I0403 19:35:48.469136  9426 net.cpp:148] Top shape: 24 (24)
I0403 19:35:48.469153  9426 net.cpp:148] Top shape: 24 (24)
I0403 19:35:48.469169  9426 net.cpp:148] Top shape: 24 (24)
I0403 19:35:48.469187  9426 net.cpp:148] Top shape: 24 (24)
I0403 19:35:48.469202  9426 net.cpp:148] Top shape: 24 (24)
I0403 19:35:48.469223  9426 net.cpp:148] Top shape: 24 (24)
I0403 19:35:48.469240  9426 net.cpp:148] Top shape: 24 (24)
I0403 19:35:48.469257  9426 net.cpp:148] Top shape: 24 (24)
I0403 19:35:48.469305  9426 net.cpp:156] Memory required for data: 14451744
I0403 19:35:48.469321  9426 layer_factory.hpp:77] Creating layer conv1/7x7_s2
I0403 19:35:48.469355  9426 net.cpp:91] Creating Layer conv1/7x7_s2
I0403 19:35:48.469375  9426 net.cpp:425] conv1/7x7_s2 <- data
I0403 19:35:48.469395  9426 net.cpp:399] conv1/7x7_s2 -> conv1/7x7_s2
I0403 19:35:48.617835  9426 net.cpp:141] Setting up conv1/7x7_s2
I0403 19:35:48.617914  9426 net.cpp:148] Top shape: 24 64 112 112 (19267584)
I0403 19:35:48.617934  9426 net.cpp:156] Memory required for data: 91522080
I0403 19:35:48.617969  9426 layer_factory.hpp:77] Creating layer conv1/relu_7x7
I0403 19:35:48.618001  9426 net.cpp:91] Creating Layer conv1/relu_7x7
I0403 19:35:48.618022  9426 net.cpp:425] conv1/relu_7x7 <- conv1/7x7_s2
I0403 19:35:48.618044  9426 net.cpp:386] conv1/relu_7x7 -> conv1/7x7_s2 (in-place)
I0403 19:35:48.618321  9426 net.cpp:141] Setting up conv1/relu_7x7
I0403 19:35:48.618351  9426 net.cpp:148] Top shape: 24 64 112 112 (19267584)
I0403 19:35:48.618369  9426 net.cpp:156] Memory required for data: 168592416
I0403 19:35:48.618386  9426 layer_factory.hpp:77] Creating layer pool1/3x3_s2
I0403 19:35:48.618413  9426 net.cpp:91] Creating Layer pool1/3x3_s2
I0403 19:35:48.618433  9426 net.cpp:425] pool1/3x3_s2 <- conv1/7x7_s2
I0403 19:35:48.618453  9426 net.cpp:399] pool1/3x3_s2 -> pool1/3x3_s2
I0403 19:35:48.618532  9426 net.cpp:141] Setting up pool1/3x3_s2
I0403 19:35:48.618559  9426 net.cpp:148] Top shape: 24 64 56 56 (4816896)
I0403 19:35:48.618576  9426 net.cpp:156] Memory required for data: 187860000
I0403 19:35:48.618592  9426 layer_factory.hpp:77] Creating layer pool1/norm1
I0403 19:35:48.618619  9426 net.cpp:91] Creating Layer pool1/norm1
I0403 19:35:48.618639  9426 net.cpp:425] pool1/norm1 <- pool1/3x3_s2
I0403 19:35:48.618659  9426 net.cpp:399] pool1/norm1 -> pool1/norm1
I0403 19:35:48.618958  9426 net.cpp:141] Setting up pool1/norm1
I0403 19:35:48.618988  9426 net.cpp:148] Top shape: 24 64 56 56 (4816896)
I0403 19:35:48.619006  9426 net.cpp:156] Memory required for data: 207127584
I0403 19:35:48.619024  9426 layer_factory.hpp:77] Creating layer conv2/3x3_reduce
I0403 19:35:48.619050  9426 net.cpp:91] Creating Layer conv2/3x3_reduce
I0403 19:35:48.619070  9426 net.cpp:425] conv2/3x3_reduce <- pool1/norm1
I0403 19:35:48.619091  9426 net.cpp:399] conv2/3x3_reduce -> conv2/3x3_reduce
I0403 19:35:48.620510  9426 net.cpp:141] Setting up conv2/3x3_reduce
I0403 19:35:48.620542  9426 net.cpp:148] Top shape: 24 64 56 56 (4816896)
I0403 19:35:48.620559  9426 net.cpp:156] Memory required for data: 226395168
I0403 19:35:48.620581  9426 layer_factory.hpp:77] Creating layer conv2/relu_3x3_reduce
I0403 19:35:48.620601  9426 net.cpp:91] Creating Layer conv2/relu_3x3_reduce
I0403 19:35:48.620620  9426 net.cpp:425] conv2/relu_3x3_reduce <- conv2/3x3_reduce
I0403 19:35:48.620637  9426 net.cpp:386] conv2/relu_3x3_reduce -> conv2/3x3_reduce (in-place)
I0403 19:35:48.620900  9426 net.cpp:141] Setting up conv2/relu_3x3_reduce
I0403 19:35:48.620929  9426 net.cpp:148] Top shape: 24 64 56 56 (4816896)
I0403 19:35:48.620944  9426 net.cpp:156] Memory required for data: 245662752
I0403 19:35:48.620960  9426 layer_factory.hpp:77] Creating layer conv2/3x3
I0403 19:35:48.620985  9426 net.cpp:91] Creating Layer conv2/3x3
I0403 19:35:48.621002  9426 net.cpp:425] conv2/3x3 <- conv2/3x3_reduce
I0403 19:35:48.621031  9426 net.cpp:399] conv2/3x3 -> conv2/3x3
I0403 19:35:48.623395  9426 net.cpp:141] Setting up conv2/3x3
I0403 19:35:48.623427  9426 net.cpp:148] Top shape: 24 192 56 56 (14450688)
I0403 19:35:48.623445  9426 net.cpp:156] Memory required for data: 303465504
I0403 19:35:48.623468  9426 layer_factory.hpp:77] Creating layer conv2/relu_3x3
I0403 19:35:48.623489  9426 net.cpp:91] Creating Layer conv2/relu_3x3
I0403 19:35:48.623507  9426 net.cpp:425] conv2/relu_3x3 <- conv2/3x3
I0403 19:35:48.623525  9426 net.cpp:386] conv2/relu_3x3 -> conv2/3x3 (in-place)
I0403 19:35:48.623697  9426 net.cpp:141] Setting up conv2/relu_3x3
I0403 19:35:48.623723  9426 net.cpp:148] Top shape: 24 192 56 56 (14450688)
I0403 19:35:48.623777  9426 net.cpp:156] Memory required for data: 361268256
I0403 19:35:48.623795  9426 layer_factory.hpp:77] Creating layer conv2/norm2
I0403 19:35:48.623816  9426 net.cpp:91] Creating Layer conv2/norm2
I0403 19:35:48.623832  9426 net.cpp:425] conv2/norm2 <- conv2/3x3
I0403 19:35:48.623852  9426 net.cpp:399] conv2/norm2 -> conv2/norm2
I0403 19:35:48.624155  9426 net.cpp:141] Setting up conv2/norm2
I0403 19:35:48.624187  9426 net.cpp:148] Top shape: 24 192 56 56 (14450688)
I0403 19:35:48.624209  9426 net.cpp:156] Memory required for data: 419071008
I0403 19:35:48.624227  9426 layer_factory.hpp:77] Creating layer pool2/3x3_s2
I0403 19:35:48.624248  9426 net.cpp:91] Creating Layer pool2/3x3_s2
I0403 19:35:48.624264  9426 net.cpp:425] pool2/3x3_s2 <- conv2/norm2
I0403 19:35:48.624284  9426 net.cpp:399] pool2/3x3_s2 -> pool2/3x3_s2
I0403 19:35:48.624336  9426 net.cpp:141] Setting up pool2/3x3_s2
I0403 19:35:48.624359  9426 net.cpp:148] Top shape: 24 192 28 28 (3612672)
I0403 19:35:48.624375  9426 net.cpp:156] Memory required for data: 433521696
I0403 19:35:48.624392  9426 layer_factory.hpp:77] Creating layer pool2/3x3_s2_pool2/3x3_s2_0_split
I0403 19:35:48.624410  9426 net.cpp:91] Creating Layer pool2/3x3_s2_pool2/3x3_s2_0_split
I0403 19:35:48.624428  9426 net.cpp:425] pool2/3x3_s2_pool2/3x3_s2_0_split <- pool2/3x3_s2
I0403 19:35:48.624445  9426 net.cpp:399] pool2/3x3_s2_pool2/3x3_s2_0_split -> pool2/3x3_s2_pool2/3x3_s2_0_split_0
I0403 19:35:48.624467  9426 net.cpp:399] pool2/3x3_s2_pool2/3x3_s2_0_split -> pool2/3x3_s2_pool2/3x3_s2_0_split_1
I0403 19:35:48.624488  9426 net.cpp:399] pool2/3x3_s2_pool2/3x3_s2_0_split -> pool2/3x3_s2_pool2/3x3_s2_0_split_2
I0403 19:35:48.624511  9426 net.cpp:399] pool2/3x3_s2_pool2/3x3_s2_0_split -> pool2/3x3_s2_pool2/3x3_s2_0_split_3
I0403 19:35:48.624578  9426 net.cpp:141] Setting up pool2/3x3_s2_pool2/3x3_s2_0_split
I0403 19:35:48.624601  9426 net.cpp:148] Top shape: 24 192 28 28 (3612672)
I0403 19:35:48.624620  9426 net.cpp:148] Top shape: 24 192 28 28 (3612672)
I0403 19:35:48.624637  9426 net.cpp:148] Top shape: 24 192 28 28 (3612672)
I0403 19:35:48.624655  9426 net.cpp:148] Top shape: 24 192 28 28 (3612672)
I0403 19:35:48.624670  9426 net.cpp:156] Memory required for data: 491324448
I0403 19:35:48.624686  9426 layer_factory.hpp:77] Creating layer inception_3a/1x1
I0403 19:35:48.624707  9426 net.cpp:91] Creating Layer inception_3a/1x1
I0403 19:35:48.624725  9426 net.cpp:425] inception_3a/1x1 <- pool2/3x3_s2_pool2/3x3_s2_0_split_0
I0403 19:35:48.624745  9426 net.cpp:399] inception_3a/1x1 -> inception_3a/1x1
I0403 19:35:48.626346  9426 net.cpp:141] Setting up inception_3a/1x1
I0403 19:35:48.626379  9426 net.cpp:148] Top shape: 24 64 28 28 (1204224)
I0403 19:35:48.626395  9426 net.cpp:156] Memory required for data: 496141344
I0403 19:35:48.626416  9426 layer_factory.hpp:77] Creating layer inception_3a/relu_1x1
I0403 19:35:48.626440  9426 net.cpp:91] Creating Layer inception_3a/relu_1x1
I0403 19:35:48.626457  9426 net.cpp:425] inception_3a/relu_1x1 <- inception_3a/1x1
I0403 19:35:48.626477  9426 net.cpp:386] inception_3a/relu_1x1 -> inception_3a/1x1 (in-place)
I0403 19:35:48.626664  9426 net.cpp:141] Setting up inception_3a/relu_1x1
I0403 19:35:48.626690  9426 net.cpp:148] Top shape: 24 64 28 28 (1204224)
I0403 19:35:48.626706  9426 net.cpp:156] Memory required for data: 500958240
I0403 19:35:48.626723  9426 layer_factory.hpp:77] Creating layer inception_3a/3x3_reduce
I0403 19:35:48.626747  9426 net.cpp:91] Creating Layer inception_3a/3x3_reduce
I0403 19:35:48.626766  9426 net.cpp:425] inception_3a/3x3_reduce <- pool2/3x3_s2_pool2/3x3_s2_0_split_1
I0403 19:35:48.626788  9426 net.cpp:399] inception_3a/3x3_reduce -> inception_3a/3x3_reduce
I0403 19:35:48.628561  9426 net.cpp:141] Setting up inception_3a/3x3_reduce
I0403 19:35:48.628597  9426 net.cpp:148] Top shape: 24 96 28 28 (1806336)
I0403 19:35:48.628615  9426 net.cpp:156] Memory required for data: 508183584
I0403 19:35:48.628639  9426 layer_factory.hpp:77] Creating layer inception_3a/relu_3x3_reduce
I0403 19:35:48.628677  9426 net.cpp:91] Creating Layer inception_3a/relu_3x3_reduce
I0403 19:35:48.628697  9426 net.cpp:425] inception_3a/relu_3x3_reduce <- inception_3a/3x3_reduce
I0403 19:35:48.628720  9426 net.cpp:386] inception_3a/relu_3x3_reduce -> inception_3a/3x3_reduce (in-place)
I0403 19:35:48.628912  9426 net.cpp:141] Setting up inception_3a/relu_3x3_reduce
I0403 19:35:48.628942  9426 net.cpp:148] Top shape: 24 96 28 28 (1806336)
I0403 19:35:48.628958  9426 net.cpp:156] Memory required for data: 515408928
I0403 19:35:48.628974  9426 layer_factory.hpp:77] Creating layer inception_3a/3x3
I0403 19:35:48.628999  9426 net.cpp:91] Creating Layer inception_3a/3x3
I0403 19:35:48.629019  9426 net.cpp:425] inception_3a/3x3 <- inception_3a/3x3_reduce
I0403 19:35:48.629042  9426 net.cpp:399] inception_3a/3x3 -> inception_3a/3x3
I0403 19:35:48.630777  9426 net.cpp:141] Setting up inception_3a/3x3
I0403 19:35:48.630811  9426 net.cpp:148] Top shape: 24 128 28 28 (2408448)
I0403 19:35:48.630830  9426 net.cpp:156] Memory required for data: 525042720
I0403 19:35:48.630849  9426 layer_factory.hpp:77] Creating layer inception_3a/relu_3x3
I0403 19:35:48.630870  9426 net.cpp:91] Creating Layer inception_3a/relu_3x3
I0403 19:35:48.630889  9426 net.cpp:425] inception_3a/relu_3x3 <- inception_3a/3x3
I0403 19:35:48.630913  9426 net.cpp:386] inception_3a/relu_3x3 -> inception_3a/3x3 (in-place)
I0403 19:35:48.631202  9426 net.cpp:141] Setting up inception_3a/relu_3x3
I0403 19:35:48.631233  9426 net.cpp:148] Top shape: 24 128 28 28 (2408448)
I0403 19:35:48.631252  9426 net.cpp:156] Memory required for data: 534676512
I0403 19:35:48.631268  9426 layer_factory.hpp:77] Creating layer inception_3a/5x5_reduce
I0403 19:35:48.631291  9426 net.cpp:91] Creating Layer inception_3a/5x5_reduce
I0403 19:35:48.631311  9426 net.cpp:425] inception_3a/5x5_reduce <- pool2/3x3_s2_pool2/3x3_s2_0_split_2
I0403 19:35:48.631331  9426 net.cpp:399] inception_3a/5x5_reduce -> inception_3a/5x5_reduce
I0403 19:35:48.632341  9426 net.cpp:141] Setting up inception_3a/5x5_reduce
I0403 19:35:48.632372  9426 net.cpp:148] Top shape: 24 16 28 28 (301056)
I0403 19:35:48.632390  9426 net.cpp:156] Memory required for data: 535880736
I0403 19:35:48.632411  9426 layer_factory.hpp:77] Creating layer inception_3a/relu_5x5_reduce
I0403 19:35:48.632431  9426 net.cpp:91] Creating Layer inception_3a/relu_5x5_reduce
I0403 19:35:48.632450  9426 net.cpp:425] inception_3a/relu_5x5_reduce <- inception_3a/5x5_reduce
I0403 19:35:48.632473  9426 net.cpp:386] inception_3a/relu_5x5_reduce -> inception_3a/5x5_reduce (in-place)
I0403 19:35:48.632776  9426 net.cpp:141] Setting up inception_3a/relu_5x5_reduce
I0403 19:35:48.632805  9426 net.cpp:148] Top shape: 24 16 28 28 (301056)
I0403 19:35:48.632822  9426 net.cpp:156] Memory required for data: 537084960
I0403 19:35:48.632838  9426 layer_factory.hpp:77] Creating layer inception_3a/5x5
I0403 19:35:48.632863  9426 net.cpp:91] Creating Layer inception_3a/5x5
I0403 19:35:48.632884  9426 net.cpp:425] inception_3a/5x5 <- inception_3a/5x5_reduce
I0403 19:35:48.632908  9426 net.cpp:399] inception_3a/5x5 -> inception_3a/5x5
I0403 19:35:48.633980  9426 net.cpp:141] Setting up inception_3a/5x5
I0403 19:35:48.634011  9426 net.cpp:148] Top shape: 24 32 28 28 (602112)
I0403 19:35:48.634030  9426 net.cpp:156] Memory required for data: 539493408
I0403 19:35:48.634052  9426 layer_factory.hpp:77] Creating layer inception_3a/relu_5x5
I0403 19:35:48.634071  9426 net.cpp:91] Creating Layer inception_3a/relu_5x5
I0403 19:35:48.634089  9426 net.cpp:425] inception_3a/relu_5x5 <- inception_3a/5x5
I0403 19:35:48.634112  9426 net.cpp:386] inception_3a/relu_5x5 -> inception_3a/5x5 (in-place)
I0403 19:35:48.634296  9426 net.cpp:141] Setting up inception_3a/relu_5x5
I0403 19:35:48.634322  9426 net.cpp:148] Top shape: 24 32 28 28 (602112)
I0403 19:35:48.634338  9426 net.cpp:156] Memory required for data: 541901856
I0403 19:35:48.634353  9426 layer_factory.hpp:77] Creating layer inception_3a/pool
I0403 19:35:48.634373  9426 net.cpp:91] Creating Layer inception_3a/pool
I0403 19:35:48.634404  9426 net.cpp:425] inception_3a/pool <- pool2/3x3_s2_pool2/3x3_s2_0_split_3
I0403 19:35:48.634428  9426 net.cpp:399] inception_3a/pool -> inception_3a/pool
I0403 19:35:48.634490  9426 net.cpp:141] Setting up inception_3a/pool
I0403 19:35:48.634516  9426 net.cpp:148] Top shape: 24 192 28 28 (3612672)
I0403 19:35:48.634531  9426 net.cpp:156] Memory required for data: 556352544
I0403 19:35:48.634547  9426 layer_factory.hpp:77] Creating layer inception_3a/pool_proj
I0403 19:35:48.634573  9426 net.cpp:91] Creating Layer inception_3a/pool_proj
I0403 19:35:48.634593  9426 net.cpp:425] inception_3a/pool_proj <- inception_3a/pool
I0403 19:35:48.634613  9426 net.cpp:399] inception_3a/pool_proj -> inception_3a/pool_proj
I0403 19:35:48.635632  9426 net.cpp:141] Setting up inception_3a/pool_proj
I0403 19:35:48.635661  9426 net.cpp:148] Top shape: 24 32 28 28 (602112)
I0403 19:35:48.635679  9426 net.cpp:156] Memory required for data: 558760992
I0403 19:35:48.635704  9426 layer_factory.hpp:77] Creating layer inception_3a/relu_pool_proj
I0403 19:35:48.635725  9426 net.cpp:91] Creating Layer inception_3a/relu_pool_proj
I0403 19:35:48.635743  9426 net.cpp:425] inception_3a/relu_pool_proj <- inception_3a/pool_proj
I0403 19:35:48.635764  9426 net.cpp:386] inception_3a/relu_pool_proj -> inception_3a/pool_proj (in-place)
I0403 19:35:48.636054  9426 net.cpp:141] Setting up inception_3a/relu_pool_proj
I0403 19:35:48.636085  9426 net.cpp:148] Top shape: 24 32 28 28 (602112)
I0403 19:35:48.636101  9426 net.cpp:156] Memory required for data: 561169440
I0403 19:35:48.636118  9426 layer_factory.hpp:77] Creating layer inception_3a/output
I0403 19:35:48.636137  9426 net.cpp:91] Creating Layer inception_3a/output
I0403 19:35:48.636154  9426 net.cpp:425] inception_3a/output <- inception_3a/1x1
I0403 19:35:48.636173  9426 net.cpp:425] inception_3a/output <- inception_3a/3x3
I0403 19:35:48.636194  9426 net.cpp:425] inception_3a/output <- inception_3a/5x5
I0403 19:35:48.636212  9426 net.cpp:425] inception_3a/output <- inception_3a/pool_proj
I0403 19:35:48.636234  9426 net.cpp:399] inception_3a/output -> inception_3a/output
I0403 19:35:48.636284  9426 net.cpp:141] Setting up inception_3a/output
I0403 19:35:48.636309  9426 net.cpp:148] Top shape: 24 256 28 28 (4816896)
I0403 19:35:48.636325  9426 net.cpp:156] Memory required for data: 580437024
I0403 19:35:48.636342  9426 layer_factory.hpp:77] Creating layer inception_3a/output_inception_3a/output_0_split
I0403 19:35:48.636363  9426 net.cpp:91] Creating Layer inception_3a/output_inception_3a/output_0_split
I0403 19:35:48.636380  9426 net.cpp:425] inception_3a/output_inception_3a/output_0_split <- inception_3a/output
I0403 19:35:48.636399  9426 net.cpp:399] inception_3a/output_inception_3a/output_0_split -> inception_3a/output_inception_3a/output_0_split_0
I0403 19:35:48.636421  9426 net.cpp:399] inception_3a/output_inception_3a/output_0_split -> inception_3a/output_inception_3a/output_0_split_1
I0403 19:35:48.636448  9426 net.cpp:399] inception_3a/output_inception_3a/output_0_split -> inception_3a/output_inception_3a/output_0_split_2
I0403 19:35:48.636471  9426 net.cpp:399] inception_3a/output_inception_3a/output_0_split -> inception_3a/output_inception_3a/output_0_split_3
I0403 19:35:48.636551  9426 net.cpp:141] Setting up inception_3a/output_inception_3a/output_0_split
I0403 19:35:48.636577  9426 net.cpp:148] Top shape: 24 256 28 28 (4816896)
I0403 19:35:48.636596  9426 net.cpp:148] Top shape: 24 256 28 28 (4816896)
I0403 19:35:48.636615  9426 net.cpp:148] Top shape: 24 256 28 28 (4816896)
I0403 19:35:48.636631  9426 net.cpp:148] Top shape: 24 256 28 28 (4816896)
I0403 19:35:48.636647  9426 net.cpp:156] Memory required for data: 657507360
I0403 19:35:48.636663  9426 layer_factory.hpp:77] Creating layer inception_3b/1x1
I0403 19:35:48.636687  9426 net.cpp:91] Creating Layer inception_3b/1x1
I0403 19:35:48.636706  9426 net.cpp:425] inception_3b/1x1 <- inception_3a/output_inception_3a/output_0_split_0
I0403 19:35:48.636726  9426 net.cpp:399] inception_3b/1x1 -> inception_3b/1x1
I0403 19:35:48.637922  9426 net.cpp:141] Setting up inception_3b/1x1
I0403 19:35:48.637967  9426 net.cpp:148] Top shape: 24 128 28 28 (2408448)
I0403 19:35:48.637989  9426 net.cpp:156] Memory required for data: 667141152
I0403 19:35:48.638011  9426 layer_factory.hpp:77] Creating layer inception_3b/relu_1x1
I0403 19:35:48.638031  9426 net.cpp:91] Creating Layer inception_3b/relu_1x1
I0403 19:35:48.638049  9426 net.cpp:425] inception_3b/relu_1x1 <- inception_3b/1x1
I0403 19:35:48.638068  9426 net.cpp:386] inception_3b/relu_1x1 -> inception_3b/1x1 (in-place)
I0403 19:35:48.638267  9426 net.cpp:141] Setting up inception_3b/relu_1x1
I0403 19:35:48.638314  9426 net.cpp:148] Top shape: 24 128 28 28 (2408448)
I0403 19:35:48.638331  9426 net.cpp:156] Memory required for data: 676774944
I0403 19:35:48.638348  9426 layer_factory.hpp:77] Creating layer inception_3b/3x3_reduce
I0403 19:35:48.638381  9426 net.cpp:91] Creating Layer inception_3b/3x3_reduce
I0403 19:35:48.638401  9426 net.cpp:425] inception_3b/3x3_reduce <- inception_3a/output_inception_3a/output_0_split_1
I0403 19:35:48.638420  9426 net.cpp:399] inception_3b/3x3_reduce -> inception_3b/3x3_reduce
I0403 19:35:48.639626  9426 net.cpp:141] Setting up inception_3b/3x3_reduce
I0403 19:35:48.639657  9426 net.cpp:148] Top shape: 24 128 28 28 (2408448)
I0403 19:35:48.639674  9426 net.cpp:156] Memory required for data: 686408736
I0403 19:35:48.639695  9426 layer_factory.hpp:77] Creating layer inception_3b/relu_3x3_reduce
I0403 19:35:48.639719  9426 net.cpp:91] Creating Layer inception_3b/relu_3x3_reduce
I0403 19:35:48.639739  9426 net.cpp:425] inception_3b/relu_3x3_reduce <- inception_3b/3x3_reduce
I0403 19:35:48.639758  9426 net.cpp:386] inception_3b/relu_3x3_reduce -> inception_3b/3x3_reduce (in-place)
I0403 19:35:48.639940  9426 net.cpp:141] Setting up inception_3b/relu_3x3_reduce
I0403 19:35:48.639967  9426 net.cpp:148] Top shape: 24 128 28 28 (2408448)
I0403 19:35:48.639983  9426 net.cpp:156] Memory required for data: 696042528
I0403 19:35:48.640000  9426 layer_factory.hpp:77] Creating layer inception_3b/3x3
I0403 19:35:48.640027  9426 net.cpp:91] Creating Layer inception_3b/3x3
I0403 19:35:48.640048  9426 net.cpp:425] inception_3b/3x3 <- inception_3b/3x3_reduce
I0403 19:35:48.640071  9426 net.cpp:399] inception_3b/3x3 -> inception_3b/3x3
I0403 19:35:48.643143  9426 net.cpp:141] Setting up inception_3b/3x3
I0403 19:35:48.643187  9426 net.cpp:148] Top shape: 24 192 28 28 (3612672)
I0403 19:35:48.643210  9426 net.cpp:156] Memory required for data: 710493216
I0403 19:35:48.643231  9426 layer_factory.hpp:77] Creating layer inception_3b/relu_3x3
I0403 19:35:48.643254  9426 net.cpp:91] Creating Layer inception_3b/relu_3x3
I0403 19:35:48.643273  9426 net.cpp:425] inception_3b/relu_3x3 <- inception_3b/3x3
I0403 19:35:48.643295  9426 net.cpp:386] inception_3b/relu_3x3 -> inception_3b/3x3 (in-place)
I0403 19:35:48.643586  9426 net.cpp:141] Setting up inception_3b/relu_3x3
I0403 19:35:48.643617  9426 net.cpp:148] Top shape: 24 192 28 28 (3612672)
I0403 19:35:48.643635  9426 net.cpp:156] Memory required for data: 724943904
I0403 19:35:48.643653  9426 layer_factory.hpp:77] Creating layer inception_3b/5x5_reduce
I0403 19:35:48.643678  9426 net.cpp:91] Creating Layer inception_3b/5x5_reduce
I0403 19:35:48.643698  9426 net.cpp:425] inception_3b/5x5_reduce <- inception_3a/output_inception_3a/output_0_split_2
I0403 19:35:48.643718  9426 net.cpp:399] inception_3b/5x5_reduce -> inception_3b/5x5_reduce
I0403 19:35:48.644755  9426 net.cpp:141] Setting up inception_3b/5x5_reduce
I0403 19:35:48.644798  9426 net.cpp:148] Top shape: 24 32 28 28 (602112)
I0403 19:35:48.644816  9426 net.cpp:156] Memory required for data: 727352352
I0403 19:35:48.644840  9426 layer_factory.hpp:77] Creating layer inception_3b/relu_5x5_reduce
I0403 19:35:48.644858  9426 net.cpp:91] Creating Layer inception_3b/relu_5x5_reduce
I0403 19:35:48.644876  9426 net.cpp:425] inception_3b/relu_5x5_reduce <- inception_3b/5x5_reduce
I0403 19:35:48.644897  9426 net.cpp:386] inception_3b/relu_5x5_reduce -> inception_3b/5x5_reduce (in-place)
I0403 19:35:48.645103  9426 net.cpp:141] Setting up inception_3b/relu_5x5_reduce
I0403 19:35:48.645130  9426 net.cpp:148] Top shape: 24 32 28 28 (602112)
I0403 19:35:48.645148  9426 net.cpp:156] Memory required for data: 729760800
I0403 19:35:48.645164  9426 layer_factory.hpp:77] Creating layer inception_3b/5x5
I0403 19:35:48.645193  9426 net.cpp:91] Creating Layer inception_3b/5x5
I0403 19:35:48.645215  9426 net.cpp:425] inception_3b/5x5 <- inception_3b/5x5_reduce
I0403 19:35:48.645238  9426 net.cpp:399] inception_3b/5x5 -> inception_3b/5x5
I0403 19:35:48.647316  9426 net.cpp:141] Setting up inception_3b/5x5
I0403 19:35:48.647348  9426 net.cpp:148] Top shape: 24 96 28 28 (1806336)
I0403 19:35:48.647366  9426 net.cpp:156] Memory required for data: 736986144
I0403 19:35:48.647387  9426 layer_factory.hpp:77] Creating layer inception_3b/relu_5x5
I0403 19:35:48.647408  9426 net.cpp:91] Creating Layer inception_3b/relu_5x5
I0403 19:35:48.647426  9426 net.cpp:425] inception_3b/relu_5x5 <- inception_3b/5x5
I0403 19:35:48.647445  9426 net.cpp:386] inception_3b/relu_5x5 -> inception_3b/5x5 (in-place)
I0403 19:35:48.647647  9426 net.cpp:141] Setting up inception_3b/relu_5x5
I0403 19:35:48.647675  9426 net.cpp:148] Top shape: 24 96 28 28 (1806336)
I0403 19:35:48.647691  9426 net.cpp:156] Memory required for data: 744211488
I0403 19:35:48.647706  9426 layer_factory.hpp:77] Creating layer inception_3b/pool
I0403 19:35:48.647725  9426 net.cpp:91] Creating Layer inception_3b/pool
I0403 19:35:48.647743  9426 net.cpp:425] inception_3b/pool <- inception_3a/output_inception_3a/output_0_split_3
I0403 19:35:48.647763  9426 net.cpp:399] inception_3b/pool -> inception_3b/pool
I0403 19:35:48.647822  9426 net.cpp:141] Setting up inception_3b/pool
I0403 19:35:48.647847  9426 net.cpp:148] Top shape: 24 256 28 28 (4816896)
I0403 19:35:48.647862  9426 net.cpp:156] Memory required for data: 763479072
I0403 19:35:48.647878  9426 layer_factory.hpp:77] Creating layer inception_3b/pool_proj
I0403 19:35:48.647904  9426 net.cpp:91] Creating Layer inception_3b/pool_proj
I0403 19:35:48.647923  9426 net.cpp:425] inception_3b/pool_proj <- inception_3b/pool
I0403 19:35:48.647943  9426 net.cpp:399] inception_3b/pool_proj -> inception_3b/pool_proj
I0403 19:35:48.649051  9426 net.cpp:141] Setting up inception_3b/pool_proj
I0403 19:35:48.649081  9426 net.cpp:148] Top shape: 24 64 28 28 (1204224)
I0403 19:35:48.649101  9426 net.cpp:156] Memory required for data: 768295968
I0403 19:35:48.649121  9426 layer_factory.hpp:77] Creating layer inception_3b/relu_pool_proj
I0403 19:35:48.649142  9426 net.cpp:91] Creating Layer inception_3b/relu_pool_proj
I0403 19:35:48.649163  9426 net.cpp:425] inception_3b/relu_pool_proj <- inception_3b/pool_proj
I0403 19:35:48.649186  9426 net.cpp:386] inception_3b/relu_pool_proj -> inception_3b/pool_proj (in-place)
I0403 19:35:48.649593  9426 net.cpp:141] Setting up inception_3b/relu_pool_proj
I0403 19:35:48.649622  9426 net.cpp:148] Top shape: 24 64 28 28 (1204224)
I0403 19:35:48.649639  9426 net.cpp:156] Memory required for data: 773112864
I0403 19:35:48.649655  9426 layer_factory.hpp:77] Creating layer inception_3b/output
I0403 19:35:48.649675  9426 net.cpp:91] Creating Layer inception_3b/output
I0403 19:35:48.649693  9426 net.cpp:425] inception_3b/output <- inception_3b/1x1
I0403 19:35:48.649713  9426 net.cpp:425] inception_3b/output <- inception_3b/3x3
I0403 19:35:48.649729  9426 net.cpp:425] inception_3b/output <- inception_3b/5x5
I0403 19:35:48.649746  9426 net.cpp:425] inception_3b/output <- inception_3b/pool_proj
I0403 19:35:48.649767  9426 net.cpp:399] inception_3b/output -> inception_3b/output
I0403 19:35:48.649816  9426 net.cpp:141] Setting up inception_3b/output
I0403 19:35:48.649844  9426 net.cpp:148] Top shape: 24 480 28 28 (9031680)
I0403 19:35:48.649863  9426 net.cpp:156] Memory required for data: 809239584
I0403 19:35:48.649879  9426 layer_factory.hpp:77] Creating layer pool3/3x3_s2
I0403 19:35:48.649899  9426 net.cpp:91] Creating Layer pool3/3x3_s2
I0403 19:35:48.649915  9426 net.cpp:425] pool3/3x3_s2 <- inception_3b/output
I0403 19:35:48.649953  9426 net.cpp:399] pool3/3x3_s2 -> pool3/3x3_s2
I0403 19:35:48.650017  9426 net.cpp:141] Setting up pool3/3x3_s2
I0403 19:35:48.650041  9426 net.cpp:148] Top shape: 24 480 14 14 (2257920)
I0403 19:35:48.650058  9426 net.cpp:156] Memory required for data: 818271264
I0403 19:35:48.650074  9426 layer_factory.hpp:77] Creating layer pool3/3x3_s2_pool3/3x3_s2_0_split
I0403 19:35:48.650095  9426 net.cpp:91] Creating Layer pool3/3x3_s2_pool3/3x3_s2_0_split
I0403 19:35:48.650113  9426 net.cpp:425] pool3/3x3_s2_pool3/3x3_s2_0_split <- pool3/3x3_s2
I0403 19:35:48.650131  9426 net.cpp:399] pool3/3x3_s2_pool3/3x3_s2_0_split -> pool3/3x3_s2_pool3/3x3_s2_0_split_0
I0403 19:35:48.650152  9426 net.cpp:399] pool3/3x3_s2_pool3/3x3_s2_0_split -> pool3/3x3_s2_pool3/3x3_s2_0_split_1
I0403 19:35:48.650174  9426 net.cpp:399] pool3/3x3_s2_pool3/3x3_s2_0_split -> pool3/3x3_s2_pool3/3x3_s2_0_split_2
I0403 19:35:48.650202  9426 net.cpp:399] pool3/3x3_s2_pool3/3x3_s2_0_split -> pool3/3x3_s2_pool3/3x3_s2_0_split_3
I0403 19:35:48.650285  9426 net.cpp:141] Setting up pool3/3x3_s2_pool3/3x3_s2_0_split
I0403 19:35:48.650308  9426 net.cpp:148] Top shape: 24 480 14 14 (2257920)
I0403 19:35:48.650326  9426 net.cpp:148] Top shape: 24 480 14 14 (2257920)
I0403 19:35:48.650342  9426 net.cpp:148] Top shape: 24 480 14 14 (2257920)
I0403 19:35:48.650359  9426 net.cpp:148] Top shape: 24 480 14 14 (2257920)
I0403 19:35:48.650374  9426 net.cpp:156] Memory required for data: 854397984
I0403 19:35:48.650389  9426 layer_factory.hpp:77] Creating layer inception_4a/1x1
I0403 19:35:48.650413  9426 net.cpp:91] Creating Layer inception_4a/1x1
I0403 19:35:48.650432  9426 net.cpp:425] inception_4a/1x1 <- pool3/3x3_s2_pool3/3x3_s2_0_split_0
I0403 19:35:48.650454  9426 net.cpp:399] inception_4a/1x1 -> inception_4a/1x1
I0403 19:35:48.652107  9426 net.cpp:141] Setting up inception_4a/1x1
I0403 19:35:48.652135  9426 net.cpp:148] Top shape: 24 192 14 14 (903168)
I0403 19:35:48.652158  9426 net.cpp:156] Memory required for data: 858010656
I0403 19:35:48.652182  9426 layer_factory.hpp:77] Creating layer inception_4a/relu_1x1
I0403 19:35:48.652215  9426 net.cpp:91] Creating Layer inception_4a/relu_1x1
I0403 19:35:48.652240  9426 net.cpp:425] inception_4a/relu_1x1 <- inception_4a/1x1
I0403 19:35:48.652261  9426 net.cpp:386] inception_4a/relu_1x1 -> inception_4a/1x1 (in-place)
I0403 19:35:48.652446  9426 net.cpp:141] Setting up inception_4a/relu_1x1
I0403 19:35:48.652477  9426 net.cpp:148] Top shape: 24 192 14 14 (903168)
I0403 19:35:48.652494  9426 net.cpp:156] Memory required for data: 861623328
I0403 19:35:48.652510  9426 layer_factory.hpp:77] Creating layer inception_4a/3x3_reduce
I0403 19:35:48.652534  9426 net.cpp:91] Creating Layer inception_4a/3x3_reduce
I0403 19:35:48.652552  9426 net.cpp:425] inception_4a/3x3_reduce <- pool3/3x3_s2_pool3/3x3_s2_0_split_1
I0403 19:35:48.652573  9426 net.cpp:399] inception_4a/3x3_reduce -> inception_4a/3x3_reduce
I0403 19:35:48.654052  9426 net.cpp:141] Setting up inception_4a/3x3_reduce
I0403 19:35:48.654083  9426 net.cpp:148] Top shape: 24 96 14 14 (451584)
I0403 19:35:48.654100  9426 net.cpp:156] Memory required for data: 863429664
I0403 19:35:48.654129  9426 layer_factory.hpp:77] Creating layer inception_4a/relu_3x3_reduce
I0403 19:35:48.654150  9426 net.cpp:91] Creating Layer inception_4a/relu_3x3_reduce
I0403 19:35:48.654167  9426 net.cpp:425] inception_4a/relu_3x3_reduce <- inception_4a/3x3_reduce
I0403 19:35:48.654194  9426 net.cpp:386] inception_4a/relu_3x3_reduce -> inception_4a/3x3_reduce (in-place)
I0403 19:35:48.654379  9426 net.cpp:141] Setting up inception_4a/relu_3x3_reduce
I0403 19:35:48.654405  9426 net.cpp:148] Top shape: 24 96 14 14 (451584)
I0403 19:35:48.654422  9426 net.cpp:156] Memory required for data: 865236000
I0403 19:35:48.654438  9426 layer_factory.hpp:77] Creating layer inception_4a/3x3
I0403 19:35:48.654461  9426 net.cpp:91] Creating Layer inception_4a/3x3
I0403 19:35:48.654480  9426 net.cpp:425] inception_4a/3x3 <- inception_4a/3x3_reduce
I0403 19:35:48.654503  9426 net.cpp:399] inception_4a/3x3 -> inception_4a/3x3
I0403 19:35:48.657445  9426 net.cpp:141] Setting up inception_4a/3x3
I0403 19:35:48.657476  9426 net.cpp:148] Top shape: 24 208 14 14 (978432)
I0403 19:35:48.657495  9426 net.cpp:156] Memory required for data: 869149728
I0403 19:35:48.657513  9426 layer_factory.hpp:77] Creating layer inception_4a/relu_3x3
I0403 19:35:48.657538  9426 net.cpp:91] Creating Layer inception_4a/relu_3x3
I0403 19:35:48.657557  9426 net.cpp:425] inception_4a/relu_3x3 <- inception_4a/3x3
I0403 19:35:48.657577  9426 net.cpp:386] inception_4a/relu_3x3 -> inception_4a/3x3 (in-place)
I0403 19:35:48.657932  9426 net.cpp:141] Setting up inception_4a/relu_3x3
I0403 19:35:48.657959  9426 net.cpp:148] Top shape: 24 208 14 14 (978432)
I0403 19:35:48.657976  9426 net.cpp:156] Memory required for data: 873063456
I0403 19:35:48.657992  9426 layer_factory.hpp:77] Creating layer inception_4a/5x5_reduce
I0403 19:35:48.658020  9426 net.cpp:91] Creating Layer inception_4a/5x5_reduce
I0403 19:35:48.658040  9426 net.cpp:425] inception_4a/5x5_reduce <- pool3/3x3_s2_pool3/3x3_s2_0_split_2
I0403 19:35:48.658059  9426 net.cpp:399] inception_4a/5x5_reduce -> inception_4a/5x5_reduce
I0403 19:35:48.659235  9426 net.cpp:141] Setting up inception_4a/5x5_reduce
I0403 19:35:48.659266  9426 net.cpp:148] Top shape: 24 16 14 14 (75264)
I0403 19:35:48.659286  9426 net.cpp:156] Memory required for data: 873364512
I0403 19:35:48.659306  9426 layer_factory.hpp:77] Creating layer inception_4a/relu_5x5_reduce
I0403 19:35:48.659325  9426 net.cpp:91] Creating Layer inception_4a/relu_5x5_reduce
I0403 19:35:48.659343  9426 net.cpp:425] inception_4a/relu_5x5_reduce <- inception_4a/5x5_reduce
I0403 19:35:48.659364  9426 net.cpp:386] inception_4a/relu_5x5_reduce -> inception_4a/5x5_reduce (in-place)
I0403 19:35:48.659551  9426 net.cpp:141] Setting up inception_4a/relu_5x5_reduce
I0403 19:35:48.659577  9426 net.cpp:148] Top shape: 24 16 14 14 (75264)
I0403 19:35:48.659593  9426 net.cpp:156] Memory required for data: 873665568
I0403 19:35:48.659610  9426 layer_factory.hpp:77] Creating layer inception_4a/5x5
I0403 19:35:48.659633  9426 net.cpp:91] Creating Layer inception_4a/5x5
I0403 19:35:48.659652  9426 net.cpp:425] inception_4a/5x5 <- inception_4a/5x5_reduce
I0403 19:35:48.659675  9426 net.cpp:399] inception_4a/5x5 -> inception_4a/5x5
I0403 19:35:48.660876  9426 net.cpp:141] Setting up inception_4a/5x5
I0403 19:35:48.660905  9426 net.cpp:148] Top shape: 24 48 14 14 (225792)
I0403 19:35:48.660923  9426 net.cpp:156] Memory required for data: 874568736
I0403 19:35:48.660943  9426 layer_factory.hpp:77] Creating layer inception_4a/relu_5x5
I0403 19:35:48.660967  9426 net.cpp:91] Creating Layer inception_4a/relu_5x5
I0403 19:35:48.660986  9426 net.cpp:425] inception_4a/relu_5x5 <- inception_4a/5x5
I0403 19:35:48.661005  9426 net.cpp:386] inception_4a/relu_5x5 -> inception_4a/5x5 (in-place)
I0403 19:35:48.661200  9426 net.cpp:141] Setting up inception_4a/relu_5x5
I0403 19:35:48.661227  9426 net.cpp:148] Top shape: 24 48 14 14 (225792)
I0403 19:35:48.661244  9426 net.cpp:156] Memory required for data: 875471904
I0403 19:35:48.661262  9426 layer_factory.hpp:77] Creating layer inception_4a/pool
I0403 19:35:48.661286  9426 net.cpp:91] Creating Layer inception_4a/pool
I0403 19:35:48.661305  9426 net.cpp:425] inception_4a/pool <- pool3/3x3_s2_pool3/3x3_s2_0_split_3
I0403 19:35:48.661325  9426 net.cpp:399] inception_4a/pool -> inception_4a/pool
I0403 19:35:48.661392  9426 net.cpp:141] Setting up inception_4a/pool
I0403 19:35:48.661418  9426 net.cpp:148] Top shape: 24 480 14 14 (2257920)
I0403 19:35:48.661437  9426 net.cpp:156] Memory required for data: 884503584
I0403 19:35:48.661453  9426 layer_factory.hpp:77] Creating layer inception_4a/pool_proj
I0403 19:35:48.661476  9426 net.cpp:91] Creating Layer inception_4a/pool_proj
I0403 19:35:48.661496  9426 net.cpp:425] inception_4a/pool_proj <- inception_4a/pool
I0403 19:35:48.661519  9426 net.cpp:399] inception_4a/pool_proj -> inception_4a/pool_proj
I0403 19:35:48.662770  9426 net.cpp:141] Setting up inception_4a/pool_proj
I0403 19:35:48.662798  9426 net.cpp:148] Top shape: 24 64 14 14 (301056)
I0403 19:35:48.662830  9426 net.cpp:156] Memory required for data: 885707808
I0403 19:35:48.662850  9426 layer_factory.hpp:77] Creating layer inception_4a/relu_pool_proj
I0403 19:35:48.662873  9426 net.cpp:91] Creating Layer inception_4a/relu_pool_proj
I0403 19:35:48.662890  9426 net.cpp:425] inception_4a/relu_pool_proj <- inception_4a/pool_proj
I0403 19:35:48.662909  9426 net.cpp:386] inception_4a/relu_pool_proj -> inception_4a/pool_proj (in-place)
I0403 19:35:48.663233  9426 net.cpp:141] Setting up inception_4a/relu_pool_proj
I0403 19:35:48.663260  9426 net.cpp:148] Top shape: 24 64 14 14 (301056)
I0403 19:35:48.663276  9426 net.cpp:156] Memory required for data: 886912032
I0403 19:35:48.663305  9426 layer_factory.hpp:77] Creating layer inception_4a/output
I0403 19:35:48.663323  9426 net.cpp:91] Creating Layer inception_4a/output
I0403 19:35:48.663344  9426 net.cpp:425] inception_4a/output <- inception_4a/1x1
I0403 19:35:48.663362  9426 net.cpp:425] inception_4a/output <- inception_4a/3x3
I0403 19:35:48.663380  9426 net.cpp:425] inception_4a/output <- inception_4a/5x5
I0403 19:35:48.663398  9426 net.cpp:425] inception_4a/output <- inception_4a/pool_proj
I0403 19:35:48.663415  9426 net.cpp:399] inception_4a/output -> inception_4a/output
I0403 19:35:48.663461  9426 net.cpp:141] Setting up inception_4a/output
I0403 19:35:48.663488  9426 net.cpp:148] Top shape: 24 512 14 14 (2408448)
I0403 19:35:48.663506  9426 net.cpp:156] Memory required for data: 896545824
I0403 19:35:48.663522  9426 layer_factory.hpp:77] Creating layer inception_4a/output_inception_4a/output_0_split
I0403 19:35:48.663540  9426 net.cpp:91] Creating Layer inception_4a/output_inception_4a/output_0_split
I0403 19:35:48.663558  9426 net.cpp:425] inception_4a/output_inception_4a/output_0_split <- inception_4a/output
I0403 19:35:48.663590  9426 net.cpp:399] inception_4a/output_inception_4a/output_0_split -> inception_4a/output_inception_4a/output_0_split_0
I0403 19:35:48.663612  9426 net.cpp:399] inception_4a/output_inception_4a/output_0_split -> inception_4a/output_inception_4a/output_0_split_1
I0403 19:35:48.663635  9426 net.cpp:399] inception_4a/output_inception_4a/output_0_split -> inception_4a/output_inception_4a/output_0_split_2
I0403 19:35:48.663656  9426 net.cpp:399] inception_4a/output_inception_4a/output_0_split -> inception_4a/output_inception_4a/output_0_split_3
I0403 19:35:48.663677  9426 net.cpp:399] inception_4a/output_inception_4a/output_0_split -> inception_4a/output_inception_4a/output_0_split_4
I0403 19:35:48.663772  9426 net.cpp:141] Setting up inception_4a/output_inception_4a/output_0_split
I0403 19:35:48.663796  9426 net.cpp:148] Top shape: 24 512 14 14 (2408448)
I0403 19:35:48.663816  9426 net.cpp:148] Top shape: 24 512 14 14 (2408448)
I0403 19:35:48.663835  9426 net.cpp:148] Top shape: 24 512 14 14 (2408448)
I0403 19:35:48.663851  9426 net.cpp:148] Top shape: 24 512 14 14 (2408448)
I0403 19:35:48.663867  9426 net.cpp:148] Top shape: 24 512 14 14 (2408448)
I0403 19:35:48.663882  9426 net.cpp:156] Memory required for data: 944714784
I0403 19:35:48.663897  9426 layer_factory.hpp:77] Creating layer loss1/ave_pool
I0403 19:35:48.663916  9426 net.cpp:91] Creating Layer loss1/ave_pool
I0403 19:35:48.663933  9426 net.cpp:425] loss1/ave_pool <- inception_4a/output_inception_4a/output_0_split_0
I0403 19:35:48.663957  9426 net.cpp:399] loss1/ave_pool -> loss1/ave_pool
I0403 19:35:48.664170  9426 net.cpp:141] Setting up loss1/ave_pool
I0403 19:35:48.664201  9426 net.cpp:148] Top shape: 24 512 4 4 (196608)
I0403 19:35:48.664217  9426 net.cpp:156] Memory required for data: 945501216
I0403 19:35:48.664233  9426 layer_factory.hpp:77] Creating layer loss1/conv
I0403 19:35:48.664258  9426 net.cpp:91] Creating Layer loss1/conv
I0403 19:35:48.664275  9426 net.cpp:425] loss1/conv <- loss1/ave_pool
I0403 19:35:48.664310  9426 net.cpp:399] loss1/conv -> loss1/conv
I0403 19:35:48.665896  9426 net.cpp:141] Setting up loss1/conv
I0403 19:35:48.665926  9426 net.cpp:148] Top shape: 24 128 4 4 (49152)
I0403 19:35:48.665956  9426 net.cpp:156] Memory required for data: 945697824
I0403 19:35:48.665977  9426 layer_factory.hpp:77] Creating layer loss1/relu_conv
I0403 19:35:48.665998  9426 net.cpp:91] Creating Layer loss1/relu_conv
I0403 19:35:48.666016  9426 net.cpp:425] loss1/relu_conv <- loss1/conv
I0403 19:35:48.666034  9426 net.cpp:386] loss1/relu_conv -> loss1/conv (in-place)
I0403 19:35:48.666343  9426 net.cpp:141] Setting up loss1/relu_conv
I0403 19:35:48.666371  9426 net.cpp:148] Top shape: 24 128 4 4 (49152)
I0403 19:35:48.666388  9426 net.cpp:156] Memory required for data: 945894432
I0403 19:35:48.666404  9426 layer_factory.hpp:77] Creating layer loss1/fc
I0403 19:35:48.666431  9426 net.cpp:91] Creating Layer loss1/fc
I0403 19:35:48.666451  9426 net.cpp:425] loss1/fc <- loss1/conv
I0403 19:35:48.666474  9426 net.cpp:399] loss1/fc -> loss1/fc
I0403 19:35:48.685556  9426 net.cpp:141] Setting up loss1/fc
I0403 19:35:48.685618  9426 net.cpp:148] Top shape: 24 1024 (24576)
I0403 19:35:48.685636  9426 net.cpp:156] Memory required for data: 945992736
I0403 19:35:48.685657  9426 layer_factory.hpp:77] Creating layer loss1/relu_fc
I0403 19:35:48.685678  9426 net.cpp:91] Creating Layer loss1/relu_fc
I0403 19:35:48.685698  9426 net.cpp:425] loss1/relu_fc <- loss1/fc
I0403 19:35:48.685719  9426 net.cpp:386] loss1/relu_fc -> loss1/fc (in-place)
I0403 19:35:48.685952  9426 net.cpp:141] Setting up loss1/relu_fc
I0403 19:35:48.685978  9426 net.cpp:148] Top shape: 24 1024 (24576)
I0403 19:35:48.685995  9426 net.cpp:156] Memory required for data: 946091040
I0403 19:35:48.686010  9426 layer_factory.hpp:77] Creating layer loss1/drop_fc
I0403 19:35:48.686040  9426 net.cpp:91] Creating Layer loss1/drop_fc
I0403 19:35:48.686058  9426 net.cpp:425] loss1/drop_fc <- loss1/fc
I0403 19:35:48.686076  9426 net.cpp:386] loss1/drop_fc -> loss1/fc (in-place)
I0403 19:35:48.686141  9426 net.cpp:141] Setting up loss1/drop_fc
I0403 19:35:48.686164  9426 net.cpp:148] Top shape: 24 1024 (24576)
I0403 19:35:48.686185  9426 net.cpp:156] Memory required for data: 946189344
I0403 19:35:48.686203  9426 layer_factory.hpp:77] Creating layer loss1/classifier_plantvillage
I0403 19:35:48.686223  9426 net.cpp:91] Creating Layer loss1/classifier_plantvillage
I0403 19:35:48.686239  9426 net.cpp:425] loss1/classifier_plantvillage <- loss1/fc
I0403 19:35:48.686262  9426 net.cpp:399] loss1/classifier_plantvillage -> loss1/classifier_plantvillage
I0403 19:35:48.687505  9426 net.cpp:141] Setting up loss1/classifier_plantvillage
I0403 19:35:48.687531  9426 net.cpp:148] Top shape: 24 38 (912)
I0403 19:35:48.687547  9426 net.cpp:156] Memory required for data: 946192992
I0403 19:35:48.687566  9426 layer_factory.hpp:77] Creating layer loss1/classifier_plantvillage_loss1/classifier_plantvillage_0_split
I0403 19:35:48.687587  9426 net.cpp:91] Creating Layer loss1/classifier_plantvillage_loss1/classifier_plantvillage_0_split
I0403 19:35:48.687603  9426 net.cpp:425] loss1/classifier_plantvillage_loss1/classifier_plantvillage_0_split <- loss1/classifier_plantvillage
I0403 19:35:48.687621  9426 net.cpp:399] loss1/classifier_plantvillage_loss1/classifier_plantvillage_0_split -> loss1/classifier_plantvillage_loss1/classifier_plantvillage_0_split_0
I0403 19:35:48.687643  9426 net.cpp:399] loss1/classifier_plantvillage_loss1/classifier_plantvillage_0_split -> loss1/classifier_plantvillage_loss1/classifier_plantvillage_0_split_1
I0403 19:35:48.687662  9426 net.cpp:399] loss1/classifier_plantvillage_loss1/classifier_plantvillage_0_split -> loss1/classifier_plantvillage_loss1/classifier_plantvillage_0_split_2
I0403 19:35:48.687731  9426 net.cpp:141] Setting up loss1/classifier_plantvillage_loss1/classifier_plantvillage_0_split
I0403 19:35:48.687754  9426 net.cpp:148] Top shape: 24 38 (912)
I0403 19:35:48.687772  9426 net.cpp:148] Top shape: 24 38 (912)
I0403 19:35:48.687788  9426 net.cpp:148] Top shape: 24 38 (912)
I0403 19:35:48.687801  9426 net.cpp:156] Memory required for data: 946203936
I0403 19:35:48.687816  9426 layer_factory.hpp:77] Creating layer inception_4b/1x1
I0403 19:35:48.687841  9426 net.cpp:91] Creating Layer inception_4b/1x1
I0403 19:35:48.687887  9426 net.cpp:425] inception_4b/1x1 <- inception_4a/output_inception_4a/output_0_split_1
I0403 19:35:48.687909  9426 net.cpp:399] inception_4b/1x1 -> inception_4b/1x1
I0403 19:35:48.689653  9426 net.cpp:141] Setting up inception_4b/1x1
I0403 19:35:48.689684  9426 net.cpp:148] Top shape: 24 160 14 14 (752640)
I0403 19:35:48.689702  9426 net.cpp:156] Memory required for data: 949214496
I0403 19:35:48.689720  9426 layer_factory.hpp:77] Creating layer inception_4b/relu_1x1
I0403 19:35:48.689739  9426 net.cpp:91] Creating Layer inception_4b/relu_1x1
I0403 19:35:48.689755  9426 net.cpp:425] inception_4b/relu_1x1 <- inception_4b/1x1
I0403 19:35:48.689775  9426 net.cpp:386] inception_4b/relu_1x1 -> inception_4b/1x1 (in-place)
I0403 19:35:48.689954  9426 net.cpp:141] Setting up inception_4b/relu_1x1
I0403 19:35:48.689980  9426 net.cpp:148] Top shape: 24 160 14 14 (752640)
I0403 19:35:48.689995  9426 net.cpp:156] Memory required for data: 952225056
I0403 19:35:48.690011  9426 layer_factory.hpp:77] Creating layer inception_4b/3x3_reduce
I0403 19:35:48.690034  9426 net.cpp:91] Creating Layer inception_4b/3x3_reduce
I0403 19:35:48.690053  9426 net.cpp:425] inception_4b/3x3_reduce <- inception_4a/output_inception_4a/output_0_split_2
I0403 19:35:48.690075  9426 net.cpp:399] inception_4b/3x3_reduce -> inception_4b/3x3_reduce
I0403 19:35:48.691437  9426 net.cpp:141] Setting up inception_4b/3x3_reduce
I0403 19:35:48.691464  9426 net.cpp:148] Top shape: 24 112 14 14 (526848)
I0403 19:35:48.691480  9426 net.cpp:156] Memory required for data: 954332448
I0403 19:35:48.691499  9426 layer_factory.hpp:77] Creating layer inception_4b/relu_3x3_reduce
I0403 19:35:48.691519  9426 net.cpp:91] Creating Layer inception_4b/relu_3x3_reduce
I0403 19:35:48.691534  9426 net.cpp:425] inception_4b/relu_3x3_reduce <- inception_4b/3x3_reduce
I0403 19:35:48.691555  9426 net.cpp:386] inception_4b/relu_3x3_reduce -> inception_4b/3x3_reduce (in-place)
I0403 19:35:48.691834  9426 net.cpp:141] Setting up inception_4b/relu_3x3_reduce
I0403 19:35:48.691860  9426 net.cpp:148] Top shape: 24 112 14 14 (526848)
I0403 19:35:48.691876  9426 net.cpp:156] Memory required for data: 956439840
I0403 19:35:48.691891  9426 layer_factory.hpp:77] Creating layer inception_4b/3x3
I0403 19:35:48.691915  9426 net.cpp:91] Creating Layer inception_4b/3x3
I0403 19:35:48.691931  9426 net.cpp:425] inception_4b/3x3 <- inception_4b/3x3_reduce
I0403 19:35:48.691953  9426 net.cpp:399] inception_4b/3x3 -> inception_4b/3x3
I0403 19:35:48.694990  9426 net.cpp:141] Setting up inception_4b/3x3
I0403 19:35:48.695021  9426 net.cpp:148] Top shape: 24 224 14 14 (1053696)
I0403 19:35:48.695039  9426 net.cpp:156] Memory required for data: 960654624
I0403 19:35:48.695057  9426 layer_factory.hpp:77] Creating layer inception_4b/relu_3x3
I0403 19:35:48.695078  9426 net.cpp:91] Creating Layer inception_4b/relu_3x3
I0403 19:35:48.695097  9426 net.cpp:425] inception_4b/relu_3x3 <- inception_4b/3x3
I0403 19:35:48.695116  9426 net.cpp:386] inception_4b/relu_3x3 -> inception_4b/3x3 (in-place)
I0403 19:35:48.695302  9426 net.cpp:141] Setting up inception_4b/relu_3x3
I0403 19:35:48.695328  9426 net.cpp:148] Top shape: 24 224 14 14 (1053696)
I0403 19:35:48.695344  9426 net.cpp:156] Memory required for data: 964869408
I0403 19:35:48.695360  9426 layer_factory.hpp:77] Creating layer inception_4b/5x5_reduce
I0403 19:35:48.695384  9426 net.cpp:91] Creating Layer inception_4b/5x5_reduce
I0403 19:35:48.695402  9426 net.cpp:425] inception_4b/5x5_reduce <- inception_4a/output_inception_4a/output_0_split_3
I0403 19:35:48.695422  9426 net.cpp:399] inception_4b/5x5_reduce -> inception_4b/5x5_reduce
I0403 19:35:48.696540  9426 net.cpp:141] Setting up inception_4b/5x5_reduce
I0403 19:35:48.696570  9426 net.cpp:148] Top shape: 24 24 14 14 (112896)
I0403 19:35:48.696586  9426 net.cpp:156] Memory required for data: 965320992
I0403 19:35:48.696604  9426 layer_factory.hpp:77] Creating layer inception_4b/relu_5x5_reduce
I0403 19:35:48.696622  9426 net.cpp:91] Creating Layer inception_4b/relu_5x5_reduce
I0403 19:35:48.696653  9426 net.cpp:425] inception_4b/relu_5x5_reduce <- inception_4b/5x5_reduce
I0403 19:35:48.696676  9426 net.cpp:386] inception_4b/relu_5x5_reduce -> inception_4b/5x5_reduce (in-place)
I0403 19:35:48.696859  9426 net.cpp:141] Setting up inception_4b/relu_5x5_reduce
I0403 19:35:48.696884  9426 net.cpp:148] Top shape: 24 24 14 14 (112896)
I0403 19:35:48.696899  9426 net.cpp:156] Memory required for data: 965772576
I0403 19:35:48.696913  9426 layer_factory.hpp:77] Creating layer inception_4b/5x5
I0403 19:35:48.696936  9426 net.cpp:91] Creating Layer inception_4b/5x5
I0403 19:35:48.696954  9426 net.cpp:425] inception_4b/5x5 <- inception_4b/5x5_reduce
I0403 19:35:48.696976  9426 net.cpp:399] inception_4b/5x5 -> inception_4b/5x5
I0403 19:35:48.698205  9426 net.cpp:141] Setting up inception_4b/5x5
I0403 19:35:48.698235  9426 net.cpp:148] Top shape: 24 64 14 14 (301056)
I0403 19:35:48.698252  9426 net.cpp:156] Memory required for data: 966976800
I0403 19:35:48.698272  9426 layer_factory.hpp:77] Creating layer inception_4b/relu_5x5
I0403 19:35:48.698290  9426 net.cpp:91] Creating Layer inception_4b/relu_5x5
I0403 19:35:48.698307  9426 net.cpp:425] inception_4b/relu_5x5 <- inception_4b/5x5
I0403 19:35:48.698331  9426 net.cpp:386] inception_4b/relu_5x5 -> inception_4b/5x5 (in-place)
I0403 19:35:48.698618  9426 net.cpp:141] Setting up inception_4b/relu_5x5
I0403 19:35:48.698647  9426 net.cpp:148] Top shape: 24 64 14 14 (301056)
I0403 19:35:48.698664  9426 net.cpp:156] Memory required for data: 968181024
I0403 19:35:48.698679  9426 layer_factory.hpp:77] Creating layer inception_4b/pool
I0403 19:35:48.698698  9426 net.cpp:91] Creating Layer inception_4b/pool
I0403 19:35:48.698715  9426 net.cpp:425] inception_4b/pool <- inception_4a/output_inception_4a/output_0_split_4
I0403 19:35:48.698736  9426 net.cpp:399] inception_4b/pool -> inception_4b/pool
I0403 19:35:48.698801  9426 net.cpp:141] Setting up inception_4b/pool
I0403 19:35:48.698824  9426 net.cpp:148] Top shape: 24 512 14 14 (2408448)
I0403 19:35:48.698839  9426 net.cpp:156] Memory required for data: 977814816
I0403 19:35:48.698854  9426 layer_factory.hpp:77] Creating layer inception_4b/pool_proj
I0403 19:35:48.698878  9426 net.cpp:91] Creating Layer inception_4b/pool_proj
I0403 19:35:48.698895  9426 net.cpp:425] inception_4b/pool_proj <- inception_4b/pool
I0403 19:35:48.698916  9426 net.cpp:399] inception_4b/pool_proj -> inception_4b/pool_proj
I0403 19:35:48.700129  9426 net.cpp:141] Setting up inception_4b/pool_proj
I0403 19:35:48.700158  9426 net.cpp:148] Top shape: 24 64 14 14 (301056)
I0403 19:35:48.700176  9426 net.cpp:156] Memory required for data: 979019040
I0403 19:35:48.700258  9426 layer_factory.hpp:77] Creating layer inception_4b/relu_pool_proj
I0403 19:35:48.700283  9426 net.cpp:91] Creating Layer inception_4b/relu_pool_proj
I0403 19:35:48.700299  9426 net.cpp:425] inception_4b/relu_pool_proj <- inception_4b/pool_proj
I0403 19:35:48.700320  9426 net.cpp:386] inception_4b/relu_pool_proj -> inception_4b/pool_proj (in-place)
I0403 19:35:48.700500  9426 net.cpp:141] Setting up inception_4b/relu_pool_proj
I0403 19:35:48.700525  9426 net.cpp:148] Top shape: 24 64 14 14 (301056)
I0403 19:35:48.700541  9426 net.cpp:156] Memory required for data: 980223264
I0403 19:35:48.700556  9426 layer_factory.hpp:77] Creating layer inception_4b/output
I0403 19:35:48.700573  9426 net.cpp:91] Creating Layer inception_4b/output
I0403 19:35:48.700589  9426 net.cpp:425] inception_4b/output <- inception_4b/1x1
I0403 19:35:48.700606  9426 net.cpp:425] inception_4b/output <- inception_4b/3x3
I0403 19:35:48.700623  9426 net.cpp:425] inception_4b/output <- inception_4b/5x5
I0403 19:35:48.700637  9426 net.cpp:425] inception_4b/output <- inception_4b/pool_proj
I0403 19:35:48.700657  9426 net.cpp:399] inception_4b/output -> inception_4b/output
I0403 19:35:48.700703  9426 net.cpp:141] Setting up inception_4b/output
I0403 19:35:48.700729  9426 net.cpp:148] Top shape: 24 512 14 14 (2408448)
I0403 19:35:48.700745  9426 net.cpp:156] Memory required for data: 989857056
I0403 19:35:48.700774  9426 layer_factory.hpp:77] Creating layer inception_4b/output_inception_4b/output_0_split
I0403 19:35:48.700793  9426 net.cpp:91] Creating Layer inception_4b/output_inception_4b/output_0_split
I0403 19:35:48.700809  9426 net.cpp:425] inception_4b/output_inception_4b/output_0_split <- inception_4b/output
I0403 19:35:48.700827  9426 net.cpp:399] inception_4b/output_inception_4b/output_0_split -> inception_4b/output_inception_4b/output_0_split_0
I0403 19:35:48.700851  9426 net.cpp:399] inception_4b/output_inception_4b/output_0_split -> inception_4b/output_inception_4b/output_0_split_1
I0403 19:35:48.700872  9426 net.cpp:399] inception_4b/output_inception_4b/output_0_split -> inception_4b/output_inception_4b/output_0_split_2
I0403 19:35:48.700893  9426 net.cpp:399] inception_4b/output_inception_4b/output_0_split -> inception_4b/output_inception_4b/output_0_split_3
I0403 19:35:48.700979  9426 net.cpp:141] Setting up inception_4b/output_inception_4b/output_0_split
I0403 19:35:48.701002  9426 net.cpp:148] Top shape: 24 512 14 14 (2408448)
I0403 19:35:48.701019  9426 net.cpp:148] Top shape: 24 512 14 14 (2408448)
I0403 19:35:48.701035  9426 net.cpp:148] Top shape: 24 512 14 14 (2408448)
I0403 19:35:48.701050  9426 net.cpp:148] Top shape: 24 512 14 14 (2408448)
I0403 19:35:48.701064  9426 net.cpp:156] Memory required for data: 1028392224
I0403 19:35:48.701079  9426 layer_factory.hpp:77] Creating layer inception_4c/1x1
I0403 19:35:48.701107  9426 net.cpp:91] Creating Layer inception_4c/1x1
I0403 19:35:48.701124  9426 net.cpp:425] inception_4c/1x1 <- inception_4b/output_inception_4b/output_0_split_0
I0403 19:35:48.701143  9426 net.cpp:399] inception_4c/1x1 -> inception_4c/1x1
I0403 19:35:48.702666  9426 net.cpp:141] Setting up inception_4c/1x1
I0403 19:35:48.702694  9426 net.cpp:148] Top shape: 24 128 14 14 (602112)
I0403 19:35:48.702710  9426 net.cpp:156] Memory required for data: 1030800672
I0403 19:35:48.702729  9426 layer_factory.hpp:77] Creating layer inception_4c/relu_1x1
I0403 19:35:48.702749  9426 net.cpp:91] Creating Layer inception_4c/relu_1x1
I0403 19:35:48.702766  9426 net.cpp:425] inception_4c/relu_1x1 <- inception_4c/1x1
I0403 19:35:48.702785  9426 net.cpp:386] inception_4c/relu_1x1 -> inception_4c/1x1 (in-place)
I0403 19:35:48.702962  9426 net.cpp:141] Setting up inception_4c/relu_1x1
I0403 19:35:48.702987  9426 net.cpp:148] Top shape: 24 128 14 14 (602112)
I0403 19:35:48.703006  9426 net.cpp:156] Memory required for data: 1033209120
I0403 19:35:48.703022  9426 layer_factory.hpp:77] Creating layer inception_4c/3x3_reduce
I0403 19:35:48.703042  9426 net.cpp:91] Creating Layer inception_4c/3x3_reduce
I0403 19:35:48.703059  9426 net.cpp:425] inception_4c/3x3_reduce <- inception_4b/output_inception_4b/output_0_split_1
I0403 19:35:48.703081  9426 net.cpp:399] inception_4c/3x3_reduce -> inception_4c/3x3_reduce
I0403 19:35:48.705067  9426 net.cpp:141] Setting up inception_4c/3x3_reduce
I0403 19:35:48.705098  9426 net.cpp:148] Top shape: 24 128 14 14 (602112)
I0403 19:35:48.705116  9426 net.cpp:156] Memory required for data: 1035617568
I0403 19:35:48.705134  9426 layer_factory.hpp:77] Creating layer inception_4c/relu_3x3_reduce
I0403 19:35:48.705152  9426 net.cpp:91] Creating Layer inception_4c/relu_3x3_reduce
I0403 19:35:48.705169  9426 net.cpp:425] inception_4c/relu_3x3_reduce <- inception_4c/3x3_reduce
I0403 19:35:48.705191  9426 net.cpp:386] inception_4c/relu_3x3_reduce -> inception_4c/3x3_reduce (in-place)
I0403 19:35:48.705478  9426 net.cpp:141] Setting up inception_4c/relu_3x3_reduce
I0403 19:35:48.705507  9426 net.cpp:148] Top shape: 24 128 14 14 (602112)
I0403 19:35:48.705523  9426 net.cpp:156] Memory required for data: 1038026016
I0403 19:35:48.705539  9426 layer_factory.hpp:77] Creating layer inception_4c/3x3
I0403 19:35:48.705564  9426 net.cpp:91] Creating Layer inception_4c/3x3
I0403 19:35:48.705581  9426 net.cpp:425] inception_4c/3x3 <- inception_4c/3x3_reduce
I0403 19:35:48.705600  9426 net.cpp:399] inception_4c/3x3 -> inception_4c/3x3
I0403 19:35:48.709297  9426 net.cpp:141] Setting up inception_4c/3x3
I0403 19:35:48.709343  9426 net.cpp:148] Top shape: 24 256 14 14 (1204224)
I0403 19:35:48.709362  9426 net.cpp:156] Memory required for data: 1042842912
I0403 19:35:48.709394  9426 layer_factory.hpp:77] Creating layer inception_4c/relu_3x3
I0403 19:35:48.709416  9426 net.cpp:91] Creating Layer inception_4c/relu_3x3
I0403 19:35:48.709436  9426 net.cpp:425] inception_4c/relu_3x3 <- inception_4c/3x3
I0403 19:35:48.709457  9426 net.cpp:386] inception_4c/relu_3x3 -> inception_4c/3x3 (in-place)
I0403 19:35:48.709641  9426 net.cpp:141] Setting up inception_4c/relu_3x3
I0403 19:35:48.709667  9426 net.cpp:148] Top shape: 24 256 14 14 (1204224)
I0403 19:35:48.709683  9426 net.cpp:156] Memory required for data: 1047659808
I0403 19:35:48.709698  9426 layer_factory.hpp:77] Creating layer inception_4c/5x5_reduce
I0403 19:35:48.709722  9426 net.cpp:91] Creating Layer inception_4c/5x5_reduce
I0403 19:35:48.709739  9426 net.cpp:425] inception_4c/5x5_reduce <- inception_4b/output_inception_4b/output_0_split_2
I0403 19:35:48.709761  9426 net.cpp:399] inception_4c/5x5_reduce -> inception_4c/5x5_reduce
I0403 19:35:48.710855  9426 net.cpp:141] Setting up inception_4c/5x5_reduce
I0403 19:35:48.710885  9426 net.cpp:148] Top shape: 24 24 14 14 (112896)
I0403 19:35:48.710901  9426 net.cpp:156] Memory required for data: 1048111392
I0403 19:35:48.710919  9426 layer_factory.hpp:77] Creating layer inception_4c/relu_5x5_reduce
I0403 19:35:48.710938  9426 net.cpp:91] Creating Layer inception_4c/relu_5x5_reduce
I0403 19:35:48.710955  9426 net.cpp:425] inception_4c/relu_5x5_reduce <- inception_4c/5x5_reduce
I0403 19:35:48.710975  9426 net.cpp:386] inception_4c/relu_5x5_reduce -> inception_4c/5x5_reduce (in-place)
I0403 19:35:48.711159  9426 net.cpp:141] Setting up inception_4c/relu_5x5_reduce
I0403 19:35:48.711189  9426 net.cpp:148] Top shape: 24 24 14 14 (112896)
I0403 19:35:48.711205  9426 net.cpp:156] Memory required for data: 1048562976
I0403 19:35:48.711220  9426 layer_factory.hpp:77] Creating layer inception_4c/5x5
I0403 19:35:48.711243  9426 net.cpp:91] Creating Layer inception_4c/5x5
I0403 19:35:48.711261  9426 net.cpp:425] inception_4c/5x5 <- inception_4c/5x5_reduce
I0403 19:35:48.711282  9426 net.cpp:399] inception_4c/5x5 -> inception_4c/5x5
I0403 19:35:48.712602  9426 net.cpp:141] Setting up inception_4c/5x5
I0403 19:35:48.712630  9426 net.cpp:148] Top shape: 24 64 14 14 (301056)
I0403 19:35:48.712646  9426 net.cpp:156] Memory required for data: 1049767200
I0403 19:35:48.712664  9426 layer_factory.hpp:77] Creating layer inception_4c/relu_5x5
I0403 19:35:48.712682  9426 net.cpp:91] Creating Layer inception_4c/relu_5x5
I0403 19:35:48.712698  9426 net.cpp:425] inception_4c/relu_5x5 <- inception_4c/5x5
I0403 19:35:48.712718  9426 net.cpp:386] inception_4c/relu_5x5 -> inception_4c/5x5 (in-place)
I0403 19:35:48.713011  9426 net.cpp:141] Setting up inception_4c/relu_5x5
I0403 19:35:48.713037  9426 net.cpp:148] Top shape: 24 64 14 14 (301056)
I0403 19:35:48.713052  9426 net.cpp:156] Memory required for data: 1050971424
I0403 19:35:48.713066  9426 layer_factory.hpp:77] Creating layer inception_4c/pool
I0403 19:35:48.713084  9426 net.cpp:91] Creating Layer inception_4c/pool
I0403 19:35:48.713100  9426 net.cpp:425] inception_4c/pool <- inception_4b/output_inception_4b/output_0_split_3
I0403 19:35:48.713121  9426 net.cpp:399] inception_4c/pool -> inception_4c/pool
I0403 19:35:48.713197  9426 net.cpp:141] Setting up inception_4c/pool
I0403 19:35:48.713222  9426 net.cpp:148] Top shape: 24 512 14 14 (2408448)
I0403 19:35:48.713238  9426 net.cpp:156] Memory required for data: 1060605216
I0403 19:35:48.713253  9426 layer_factory.hpp:77] Creating layer inception_4c/pool_proj
I0403 19:35:48.713275  9426 net.cpp:91] Creating Layer inception_4c/pool_proj
I0403 19:35:48.713294  9426 net.cpp:425] inception_4c/pool_proj <- inception_4c/pool
I0403 19:35:48.713313  9426 net.cpp:399] inception_4c/pool_proj -> inception_4c/pool_proj
I0403 19:35:48.714618  9426 net.cpp:141] Setting up inception_4c/pool_proj
I0403 19:35:48.714649  9426 net.cpp:148] Top shape: 24 64 14 14 (301056)
I0403 19:35:48.714680  9426 net.cpp:156] Memory required for data: 1061809440
I0403 19:35:48.714699  9426 layer_factory.hpp:77] Creating layer inception_4c/relu_pool_proj
I0403 19:35:48.714717  9426 net.cpp:91] Creating Layer inception_4c/relu_pool_proj
I0403 19:35:48.714735  9426 net.cpp:425] inception_4c/relu_pool_proj <- inception_4c/pool_proj
I0403 19:35:48.714754  9426 net.cpp:386] inception_4c/relu_pool_proj -> inception_4c/pool_proj (in-place)
I0403 19:35:48.714937  9426 net.cpp:141] Setting up inception_4c/relu_pool_proj
I0403 19:35:48.714962  9426 net.cpp:148] Top shape: 24 64 14 14 (301056)
I0403 19:35:48.714977  9426 net.cpp:156] Memory required for data: 1063013664
I0403 19:35:48.714993  9426 layer_factory.hpp:77] Creating layer inception_4c/output
I0403 19:35:48.715009  9426 net.cpp:91] Creating Layer inception_4c/output
I0403 19:35:48.715025  9426 net.cpp:425] inception_4c/output <- inception_4c/1x1
I0403 19:35:48.715042  9426 net.cpp:425] inception_4c/output <- inception_4c/3x3
I0403 19:35:48.715059  9426 net.cpp:425] inception_4c/output <- inception_4c/5x5
I0403 19:35:48.715075  9426 net.cpp:425] inception_4c/output <- inception_4c/pool_proj
I0403 19:35:48.715093  9426 net.cpp:399] inception_4c/output -> inception_4c/output
I0403 19:35:48.715140  9426 net.cpp:141] Setting up inception_4c/output
I0403 19:35:48.715167  9426 net.cpp:148] Top shape: 24 512 14 14 (2408448)
I0403 19:35:48.715186  9426 net.cpp:156] Memory required for data: 1072647456
I0403 19:35:48.715204  9426 layer_factory.hpp:77] Creating layer inception_4c/output_inception_4c/output_0_split
I0403 19:35:48.715221  9426 net.cpp:91] Creating Layer inception_4c/output_inception_4c/output_0_split
I0403 19:35:48.715237  9426 net.cpp:425] inception_4c/output_inception_4c/output_0_split <- inception_4c/output
I0403 19:35:48.715255  9426 net.cpp:399] inception_4c/output_inception_4c/output_0_split -> inception_4c/output_inception_4c/output_0_split_0
I0403 19:35:48.715277  9426 net.cpp:399] inception_4c/output_inception_4c/output_0_split -> inception_4c/output_inception_4c/output_0_split_1
I0403 19:35:48.715299  9426 net.cpp:399] inception_4c/output_inception_4c/output_0_split -> inception_4c/output_inception_4c/output_0_split_2
I0403 19:35:48.715319  9426 net.cpp:399] inception_4c/output_inception_4c/output_0_split -> inception_4c/output_inception_4c/output_0_split_3
I0403 19:35:48.715407  9426 net.cpp:141] Setting up inception_4c/output_inception_4c/output_0_split
I0403 19:35:48.715431  9426 net.cpp:148] Top shape: 24 512 14 14 (2408448)
I0403 19:35:48.715447  9426 net.cpp:148] Top shape: 24 512 14 14 (2408448)
I0403 19:35:48.715463  9426 net.cpp:148] Top shape: 24 512 14 14 (2408448)
I0403 19:35:48.715479  9426 net.cpp:148] Top shape: 24 512 14 14 (2408448)
I0403 19:35:48.715493  9426 net.cpp:156] Memory required for data: 1111182624
I0403 19:35:48.715508  9426 layer_factory.hpp:77] Creating layer inception_4d/1x1
I0403 19:35:48.715531  9426 net.cpp:91] Creating Layer inception_4d/1x1
I0403 19:35:48.715549  9426 net.cpp:425] inception_4d/1x1 <- inception_4c/output_inception_4c/output_0_split_0
I0403 19:35:48.715569  9426 net.cpp:399] inception_4d/1x1 -> inception_4d/1x1
I0403 19:35:48.717028  9426 net.cpp:141] Setting up inception_4d/1x1
I0403 19:35:48.717058  9426 net.cpp:148] Top shape: 24 112 14 14 (526848)
I0403 19:35:48.717074  9426 net.cpp:156] Memory required for data: 1113290016
I0403 19:35:48.717093  9426 layer_factory.hpp:77] Creating layer inception_4d/relu_1x1
I0403 19:35:48.717113  9426 net.cpp:91] Creating Layer inception_4d/relu_1x1
I0403 19:35:48.717130  9426 net.cpp:425] inception_4d/relu_1x1 <- inception_4d/1x1
I0403 19:35:48.717149  9426 net.cpp:386] inception_4d/relu_1x1 -> inception_4d/1x1 (in-place)
I0403 19:35:48.717339  9426 net.cpp:141] Setting up inception_4d/relu_1x1
I0403 19:35:48.717366  9426 net.cpp:148] Top shape: 24 112 14 14 (526848)
I0403 19:35:48.717382  9426 net.cpp:156] Memory required for data: 1115397408
I0403 19:35:48.717398  9426 layer_factory.hpp:77] Creating layer inception_4d/3x3_reduce
I0403 19:35:48.717434  9426 net.cpp:91] Creating Layer inception_4d/3x3_reduce
I0403 19:35:48.717453  9426 net.cpp:425] inception_4d/3x3_reduce <- inception_4c/output_inception_4c/output_0_split_1
I0403 19:35:48.717473  9426 net.cpp:399] inception_4d/3x3_reduce -> inception_4d/3x3_reduce
I0403 19:35:48.719002  9426 net.cpp:141] Setting up inception_4d/3x3_reduce
I0403 19:35:48.719030  9426 net.cpp:148] Top shape: 24 144 14 14 (677376)
I0403 19:35:48.719046  9426 net.cpp:156] Memory required for data: 1118106912
I0403 19:35:48.719064  9426 layer_factory.hpp:77] Creating layer inception_4d/relu_3x3_reduce
I0403 19:35:48.719086  9426 net.cpp:91] Creating Layer inception_4d/relu_3x3_reduce
I0403 19:35:48.719104  9426 net.cpp:425] inception_4d/relu_3x3_reduce <- inception_4d/3x3_reduce
I0403 19:35:48.719121  9426 net.cpp:386] inception_4d/relu_3x3_reduce -> inception_4d/3x3_reduce (in-place)
I0403 19:35:48.719429  9426 net.cpp:141] Setting up inception_4d/relu_3x3_reduce
I0403 19:35:48.719455  9426 net.cpp:148] Top shape: 24 144 14 14 (677376)
I0403 19:35:48.719471  9426 net.cpp:156] Memory required for data: 1120816416
I0403 19:35:48.719486  9426 layer_factory.hpp:77] Creating layer inception_4d/3x3
I0403 19:35:48.719511  9426 net.cpp:91] Creating Layer inception_4d/3x3
I0403 19:35:48.719528  9426 net.cpp:425] inception_4d/3x3 <- inception_4d/3x3_reduce
I0403 19:35:48.719549  9426 net.cpp:399] inception_4d/3x3 -> inception_4d/3x3
I0403 19:35:48.723949  9426 net.cpp:141] Setting up inception_4d/3x3
I0403 19:35:48.723980  9426 net.cpp:148] Top shape: 24 288 14 14 (1354752)
I0403 19:35:48.723996  9426 net.cpp:156] Memory required for data: 1126235424
I0403 19:35:48.724014  9426 layer_factory.hpp:77] Creating layer inception_4d/relu_3x3
I0403 19:35:48.724036  9426 net.cpp:91] Creating Layer inception_4d/relu_3x3
I0403 19:35:48.724053  9426 net.cpp:425] inception_4d/relu_3x3 <- inception_4d/3x3
I0403 19:35:48.724071  9426 net.cpp:386] inception_4d/relu_3x3 -> inception_4d/3x3 (in-place)
I0403 19:35:48.724261  9426 net.cpp:141] Setting up inception_4d/relu_3x3
I0403 19:35:48.724287  9426 net.cpp:148] Top shape: 24 288 14 14 (1354752)
I0403 19:35:48.724304  9426 net.cpp:156] Memory required for data: 1131654432
I0403 19:35:48.724319  9426 layer_factory.hpp:77] Creating layer inception_4d/5x5_reduce
I0403 19:35:48.724341  9426 net.cpp:91] Creating Layer inception_4d/5x5_reduce
I0403 19:35:48.724360  9426 net.cpp:425] inception_4d/5x5_reduce <- inception_4c/output_inception_4c/output_0_split_2
I0403 19:35:48.724380  9426 net.cpp:399] inception_4d/5x5_reduce -> inception_4d/5x5_reduce
I0403 19:35:48.725587  9426 net.cpp:141] Setting up inception_4d/5x5_reduce
I0403 19:35:48.725616  9426 net.cpp:148] Top shape: 24 32 14 14 (150528)
I0403 19:35:48.725631  9426 net.cpp:156] Memory required for data: 1132256544
I0403 19:35:48.725649  9426 layer_factory.hpp:77] Creating layer inception_4d/relu_5x5_reduce
I0403 19:35:48.725672  9426 net.cpp:91] Creating Layer inception_4d/relu_5x5_reduce
I0403 19:35:48.725688  9426 net.cpp:425] inception_4d/relu_5x5_reduce <- inception_4d/5x5_reduce
I0403 19:35:48.725708  9426 net.cpp:386] inception_4d/relu_5x5_reduce -> inception_4d/5x5_reduce (in-place)
I0403 19:35:48.725889  9426 net.cpp:141] Setting up inception_4d/relu_5x5_reduce
I0403 19:35:48.725916  9426 net.cpp:148] Top shape: 24 32 14 14 (150528)
I0403 19:35:48.725931  9426 net.cpp:156] Memory required for data: 1132858656
I0403 19:35:48.725946  9426 layer_factory.hpp:77] Creating layer inception_4d/5x5
I0403 19:35:48.725970  9426 net.cpp:91] Creating Layer inception_4d/5x5
I0403 19:35:48.725988  9426 net.cpp:425] inception_4d/5x5 <- inception_4d/5x5_reduce
I0403 19:35:48.726009  9426 net.cpp:399] inception_4d/5x5 -> inception_4d/5x5
I0403 19:35:48.727481  9426 net.cpp:141] Setting up inception_4d/5x5
I0403 19:35:48.727510  9426 net.cpp:148] Top shape: 24 64 14 14 (301056)
I0403 19:35:48.727526  9426 net.cpp:156] Memory required for data: 1134062880
I0403 19:35:48.727545  9426 layer_factory.hpp:77] Creating layer inception_4d/relu_5x5
I0403 19:35:48.727579  9426 net.cpp:91] Creating Layer inception_4d/relu_5x5
I0403 19:35:48.727597  9426 net.cpp:425] inception_4d/relu_5x5 <- inception_4d/5x5
I0403 19:35:48.727617  9426 net.cpp:386] inception_4d/relu_5x5 -> inception_4d/5x5 (in-place)
I0403 19:35:48.727917  9426 net.cpp:141] Setting up inception_4d/relu_5x5
I0403 19:35:48.727943  9426 net.cpp:148] Top shape: 24 64 14 14 (301056)
I0403 19:35:48.727959  9426 net.cpp:156] Memory required for data: 1135267104
I0403 19:35:48.727974  9426 layer_factory.hpp:77] Creating layer inception_4d/pool
I0403 19:35:48.727993  9426 net.cpp:91] Creating Layer inception_4d/pool
I0403 19:35:48.728009  9426 net.cpp:425] inception_4d/pool <- inception_4c/output_inception_4c/output_0_split_3
I0403 19:35:48.728030  9426 net.cpp:399] inception_4d/pool -> inception_4d/pool
I0403 19:35:48.728097  9426 net.cpp:141] Setting up inception_4d/pool
I0403 19:35:48.728122  9426 net.cpp:148] Top shape: 24 512 14 14 (2408448)
I0403 19:35:48.728138  9426 net.cpp:156] Memory required for data: 1144900896
I0403 19:35:48.728153  9426 layer_factory.hpp:77] Creating layer inception_4d/pool_proj
I0403 19:35:48.728181  9426 net.cpp:91] Creating Layer inception_4d/pool_proj
I0403 19:35:48.728199  9426 net.cpp:425] inception_4d/pool_proj <- inception_4d/pool
I0403 19:35:48.728219  9426 net.cpp:399] inception_4d/pool_proj -> inception_4d/pool_proj
I0403 19:35:48.730051  9426 net.cpp:141] Setting up inception_4d/pool_proj
I0403 19:35:48.730079  9426 net.cpp:148] Top shape: 24 64 14 14 (301056)
I0403 19:35:48.730096  9426 net.cpp:156] Memory required for data: 1146105120
I0403 19:35:48.730115  9426 layer_factory.hpp:77] Creating layer inception_4d/relu_pool_proj
I0403 19:35:48.730137  9426 net.cpp:91] Creating Layer inception_4d/relu_pool_proj
I0403 19:35:48.730155  9426 net.cpp:425] inception_4d/relu_pool_proj <- inception_4d/pool_proj
I0403 19:35:48.730173  9426 net.cpp:386] inception_4d/relu_pool_proj -> inception_4d/pool_proj (in-place)
I0403 19:35:48.730363  9426 net.cpp:141] Setting up inception_4d/relu_pool_proj
I0403 19:35:48.730391  9426 net.cpp:148] Top shape: 24 64 14 14 (301056)
I0403 19:35:48.730407  9426 net.cpp:156] Memory required for data: 1147309344
I0403 19:35:48.730422  9426 layer_factory.hpp:77] Creating layer inception_4d/output
I0403 19:35:48.730440  9426 net.cpp:91] Creating Layer inception_4d/output
I0403 19:35:48.730456  9426 net.cpp:425] inception_4d/output <- inception_4d/1x1
I0403 19:35:48.730474  9426 net.cpp:425] inception_4d/output <- inception_4d/3x3
I0403 19:35:48.730490  9426 net.cpp:425] inception_4d/output <- inception_4d/5x5
I0403 19:35:48.730507  9426 net.cpp:425] inception_4d/output <- inception_4d/pool_proj
I0403 19:35:48.730527  9426 net.cpp:399] inception_4d/output -> inception_4d/output
I0403 19:35:48.730576  9426 net.cpp:141] Setting up inception_4d/output
I0403 19:35:48.730598  9426 net.cpp:148] Top shape: 24 528 14 14 (2483712)
I0403 19:35:48.730613  9426 net.cpp:156] Memory required for data: 1157244192
I0403 19:35:48.730628  9426 layer_factory.hpp:77] Creating layer inception_4d/output_inception_4d/output_0_split
I0403 19:35:48.730649  9426 net.cpp:91] Creating Layer inception_4d/output_inception_4d/output_0_split
I0403 19:35:48.730666  9426 net.cpp:425] inception_4d/output_inception_4d/output_0_split <- inception_4d/output
I0403 19:35:48.730684  9426 net.cpp:399] inception_4d/output_inception_4d/output_0_split -> inception_4d/output_inception_4d/output_0_split_0
I0403 19:35:48.730708  9426 net.cpp:399] inception_4d/output_inception_4d/output_0_split -> inception_4d/output_inception_4d/output_0_split_1
I0403 19:35:48.730731  9426 net.cpp:399] inception_4d/output_inception_4d/output_0_split -> inception_4d/output_inception_4d/output_0_split_2
I0403 19:35:48.730753  9426 net.cpp:399] inception_4d/output_inception_4d/output_0_split -> inception_4d/output_inception_4d/output_0_split_3
I0403 19:35:48.730774  9426 net.cpp:399] inception_4d/output_inception_4d/output_0_split -> inception_4d/output_inception_4d/output_0_split_4
I0403 19:35:48.730877  9426 net.cpp:141] Setting up inception_4d/output_inception_4d/output_0_split
I0403 19:35:48.730913  9426 net.cpp:148] Top shape: 24 528 14 14 (2483712)
I0403 19:35:48.730931  9426 net.cpp:148] Top shape: 24 528 14 14 (2483712)
I0403 19:35:48.730947  9426 net.cpp:148] Top shape: 24 528 14 14 (2483712)
I0403 19:35:48.730964  9426 net.cpp:148] Top shape: 24 528 14 14 (2483712)
I0403 19:35:48.730980  9426 net.cpp:148] Top shape: 24 528 14 14 (2483712)
I0403 19:35:48.730994  9426 net.cpp:156] Memory required for data: 1206918432
I0403 19:35:48.731009  9426 layer_factory.hpp:77] Creating layer loss2/ave_pool
I0403 19:35:48.731029  9426 net.cpp:91] Creating Layer loss2/ave_pool
I0403 19:35:48.731046  9426 net.cpp:425] loss2/ave_pool <- inception_4d/output_inception_4d/output_0_split_0
I0403 19:35:48.731065  9426 net.cpp:399] loss2/ave_pool -> loss2/ave_pool
I0403 19:35:48.731426  9426 net.cpp:141] Setting up loss2/ave_pool
I0403 19:35:48.731457  9426 net.cpp:148] Top shape: 24 528 4 4 (202752)
I0403 19:35:48.731474  9426 net.cpp:156] Memory required for data: 1207729440
I0403 19:35:48.731489  9426 layer_factory.hpp:77] Creating layer loss2/conv
I0403 19:35:48.731510  9426 net.cpp:91] Creating Layer loss2/conv
I0403 19:35:48.731528  9426 net.cpp:425] loss2/conv <- loss2/ave_pool
I0403 19:35:48.731550  9426 net.cpp:399] loss2/conv -> loss2/conv
I0403 19:35:48.733526  9426 net.cpp:141] Setting up loss2/conv
I0403 19:35:48.733556  9426 net.cpp:148] Top shape: 24 128 4 4 (49152)
I0403 19:35:48.733572  9426 net.cpp:156] Memory required for data: 1207926048
I0403 19:35:48.733589  9426 layer_factory.hpp:77] Creating layer loss2/relu_conv
I0403 19:35:48.733608  9426 net.cpp:91] Creating Layer loss2/relu_conv
I0403 19:35:48.733625  9426 net.cpp:425] loss2/relu_conv <- loss2/conv
I0403 19:35:48.733645  9426 net.cpp:386] loss2/relu_conv -> loss2/conv (in-place)
I0403 19:35:48.733973  9426 net.cpp:141] Setting up loss2/relu_conv
I0403 19:35:48.733999  9426 net.cpp:148] Top shape: 24 128 4 4 (49152)
I0403 19:35:48.734014  9426 net.cpp:156] Memory required for data: 1208122656
I0403 19:35:48.734030  9426 layer_factory.hpp:77] Creating layer loss2/fc
I0403 19:35:48.734050  9426 net.cpp:91] Creating Layer loss2/fc
I0403 19:35:48.734067  9426 net.cpp:425] loss2/fc <- loss2/conv
I0403 19:35:48.734091  9426 net.cpp:399] loss2/fc -> loss2/fc
I0403 19:35:48.751821  9426 net.cpp:141] Setting up loss2/fc
I0403 19:35:48.751865  9426 net.cpp:148] Top shape: 24 1024 (24576)
I0403 19:35:48.751884  9426 net.cpp:156] Memory required for data: 1208220960
I0403 19:35:48.751904  9426 layer_factory.hpp:77] Creating layer loss2/relu_fc
I0403 19:35:48.751926  9426 net.cpp:91] Creating Layer loss2/relu_fc
I0403 19:35:48.751945  9426 net.cpp:425] loss2/relu_fc <- loss2/fc
I0403 19:35:48.751963  9426 net.cpp:386] loss2/relu_fc -> loss2/fc (in-place)
I0403 19:35:48.752297  9426 net.cpp:141] Setting up loss2/relu_fc
I0403 19:35:48.752326  9426 net.cpp:148] Top shape: 24 1024 (24576)
I0403 19:35:48.752342  9426 net.cpp:156] Memory required for data: 1208319264
I0403 19:35:48.752358  9426 layer_factory.hpp:77] Creating layer loss2/drop_fc
I0403 19:35:48.752377  9426 net.cpp:91] Creating Layer loss2/drop_fc
I0403 19:35:48.752393  9426 net.cpp:425] loss2/drop_fc <- loss2/fc
I0403 19:35:48.752410  9426 net.cpp:386] loss2/drop_fc -> loss2/fc (in-place)
I0403 19:35:48.752463  9426 net.cpp:141] Setting up loss2/drop_fc
I0403 19:35:48.752486  9426 net.cpp:148] Top shape: 24 1024 (24576)
I0403 19:35:48.752501  9426 net.cpp:156] Memory required for data: 1208417568
I0403 19:35:48.752516  9426 layer_factory.hpp:77] Creating layer loss2/classifier_plantvillage
I0403 19:35:48.752539  9426 net.cpp:91] Creating Layer loss2/classifier_plantvillage
I0403 19:35:48.752557  9426 net.cpp:425] loss2/classifier_plantvillage <- loss2/fc
I0403 19:35:48.752575  9426 net.cpp:399] loss2/classifier_plantvillage -> loss2/classifier_plantvillage
I0403 19:35:48.752984  9426 net.cpp:141] Setting up loss2/classifier_plantvillage
I0403 19:35:48.753008  9426 net.cpp:148] Top shape: 24 38 (912)
I0403 19:35:48.753042  9426 net.cpp:156] Memory required for data: 1208421216
I0403 19:35:48.753062  9426 layer_factory.hpp:77] Creating layer loss2/classifier_plantvillage_loss2/classifier_plantvillage_0_split
I0403 19:35:48.753082  9426 net.cpp:91] Creating Layer loss2/classifier_plantvillage_loss2/classifier_plantvillage_0_split
I0403 19:35:48.753098  9426 net.cpp:425] loss2/classifier_plantvillage_loss2/classifier_plantvillage_0_split <- loss2/classifier_plantvillage
I0403 19:35:48.753118  9426 net.cpp:399] loss2/classifier_plantvillage_loss2/classifier_plantvillage_0_split -> loss2/classifier_plantvillage_loss2/classifier_plantvillage_0_split_0
I0403 19:35:48.753139  9426 net.cpp:399] loss2/classifier_plantvillage_loss2/classifier_plantvillage_0_split -> loss2/classifier_plantvillage_loss2/classifier_plantvillage_0_split_1
I0403 19:35:48.753160  9426 net.cpp:399] loss2/classifier_plantvillage_loss2/classifier_plantvillage_0_split -> loss2/classifier_plantvillage_loss2/classifier_plantvillage_0_split_2
I0403 19:35:48.753265  9426 net.cpp:141] Setting up loss2/classifier_plantvillage_loss2/classifier_plantvillage_0_split
I0403 19:35:48.753293  9426 net.cpp:148] Top shape: 24 38 (912)
I0403 19:35:48.753309  9426 net.cpp:148] Top shape: 24 38 (912)
I0403 19:35:48.753326  9426 net.cpp:148] Top shape: 24 38 (912)
I0403 19:35:48.753340  9426 net.cpp:156] Memory required for data: 1208432160
I0403 19:35:48.753355  9426 layer_factory.hpp:77] Creating layer inception_4e/1x1
I0403 19:35:48.753376  9426 net.cpp:91] Creating Layer inception_4e/1x1
I0403 19:35:48.753393  9426 net.cpp:425] inception_4e/1x1 <- inception_4d/output_inception_4d/output_0_split_1
I0403 19:35:48.753412  9426 net.cpp:399] inception_4e/1x1 -> inception_4e/1x1
I0403 19:35:48.755349  9426 net.cpp:141] Setting up inception_4e/1x1
I0403 19:35:48.755378  9426 net.cpp:148] Top shape: 24 256 14 14 (1204224)
I0403 19:35:48.755393  9426 net.cpp:156] Memory required for data: 1213249056
I0403 19:35:48.755411  9426 layer_factory.hpp:77] Creating layer inception_4e/relu_1x1
I0403 19:35:48.755430  9426 net.cpp:91] Creating Layer inception_4e/relu_1x1
I0403 19:35:48.755446  9426 net.cpp:425] inception_4e/relu_1x1 <- inception_4e/1x1
I0403 19:35:48.755466  9426 net.cpp:386] inception_4e/relu_1x1 -> inception_4e/1x1 (in-place)
I0403 19:35:48.755762  9426 net.cpp:141] Setting up inception_4e/relu_1x1
I0403 19:35:48.755789  9426 net.cpp:148] Top shape: 24 256 14 14 (1204224)
I0403 19:35:48.755805  9426 net.cpp:156] Memory required for data: 1218065952
I0403 19:35:48.755820  9426 layer_factory.hpp:77] Creating layer inception_4e/3x3_reduce
I0403 19:35:48.755842  9426 net.cpp:91] Creating Layer inception_4e/3x3_reduce
I0403 19:35:48.755861  9426 net.cpp:425] inception_4e/3x3_reduce <- inception_4d/output_inception_4d/output_0_split_2
I0403 19:35:48.755882  9426 net.cpp:399] inception_4e/3x3_reduce -> inception_4e/3x3_reduce
I0403 19:35:48.758075  9426 net.cpp:141] Setting up inception_4e/3x3_reduce
I0403 19:35:48.758105  9426 net.cpp:148] Top shape: 24 160 14 14 (752640)
I0403 19:35:48.758122  9426 net.cpp:156] Memory required for data: 1221076512
I0403 19:35:48.758141  9426 layer_factory.hpp:77] Creating layer inception_4e/relu_3x3_reduce
I0403 19:35:48.758160  9426 net.cpp:91] Creating Layer inception_4e/relu_3x3_reduce
I0403 19:35:48.758179  9426 net.cpp:425] inception_4e/relu_3x3_reduce <- inception_4e/3x3_reduce
I0403 19:35:48.758201  9426 net.cpp:386] inception_4e/relu_3x3_reduce -> inception_4e/3x3_reduce (in-place)
I0403 19:35:48.758388  9426 net.cpp:141] Setting up inception_4e/relu_3x3_reduce
I0403 19:35:48.758412  9426 net.cpp:148] Top shape: 24 160 14 14 (752640)
I0403 19:35:48.758427  9426 net.cpp:156] Memory required for data: 1224087072
I0403 19:35:48.758442  9426 layer_factory.hpp:77] Creating layer inception_4e/3x3
I0403 19:35:48.758466  9426 net.cpp:91] Creating Layer inception_4e/3x3
I0403 19:35:48.758484  9426 net.cpp:425] inception_4e/3x3 <- inception_4e/3x3_reduce
I0403 19:35:48.758507  9426 net.cpp:399] inception_4e/3x3 -> inception_4e/3x3
I0403 19:35:48.763567  9426 net.cpp:141] Setting up inception_4e/3x3
I0403 19:35:48.763612  9426 net.cpp:148] Top shape: 24 320 14 14 (1505280)
I0403 19:35:48.763636  9426 net.cpp:156] Memory required for data: 1230108192
I0403 19:35:48.763661  9426 layer_factory.hpp:77] Creating layer inception_4e/relu_3x3
I0403 19:35:48.763685  9426 net.cpp:91] Creating Layer inception_4e/relu_3x3
I0403 19:35:48.763707  9426 net.cpp:425] inception_4e/relu_3x3 <- inception_4e/3x3
I0403 19:35:48.763730  9426 net.cpp:386] inception_4e/relu_3x3 -> inception_4e/3x3 (in-place)
I0403 19:35:48.764030  9426 net.cpp:141] Setting up inception_4e/relu_3x3
I0403 19:35:48.764061  9426 net.cpp:148] Top shape: 24 320 14 14 (1505280)
I0403 19:35:48.764078  9426 net.cpp:156] Memory required for data: 1236129312
I0403 19:35:48.764096  9426 layer_factory.hpp:77] Creating layer inception_4e/5x5_reduce
I0403 19:35:48.764120  9426 net.cpp:91] Creating Layer inception_4e/5x5_reduce
I0403 19:35:48.764145  9426 net.cpp:425] inception_4e/5x5_reduce <- inception_4d/output_inception_4d/output_0_split_3
I0403 19:35:48.764168  9426 net.cpp:399] inception_4e/5x5_reduce -> inception_4e/5x5_reduce
I0403 19:35:48.765255  9426 net.cpp:141] Setting up inception_4e/5x5_reduce
I0403 19:35:48.765285  9426 net.cpp:148] Top shape: 24 32 14 14 (150528)
I0403 19:35:48.765306  9426 net.cpp:156] Memory required for data: 1236731424
I0403 19:35:48.765329  9426 layer_factory.hpp:77] Creating layer inception_4e/relu_5x5_reduce
I0403 19:35:48.765350  9426 net.cpp:91] Creating Layer inception_4e/relu_5x5_reduce
I0403 19:35:48.765367  9426 net.cpp:425] inception_4e/relu_5x5_reduce <- inception_4e/5x5_reduce
I0403 19:35:48.765390  9426 net.cpp:386] inception_4e/relu_5x5_reduce -> inception_4e/5x5_reduce (in-place)
I0403 19:35:48.765694  9426 net.cpp:141] Setting up inception_4e/relu_5x5_reduce
I0403 19:35:48.765722  9426 net.cpp:148] Top shape: 24 32 14 14 (150528)
I0403 19:35:48.765743  9426 net.cpp:156] Memory required for data: 1237333536
I0403 19:35:48.765763  9426 layer_factory.hpp:77] Creating layer inception_4e/5x5
I0403 19:35:48.765811  9426 net.cpp:91] Creating Layer inception_4e/5x5
I0403 19:35:48.765833  9426 net.cpp:425] inception_4e/5x5 <- inception_4e/5x5_reduce
I0403 19:35:48.765859  9426 net.cpp:399] inception_4e/5x5 -> inception_4e/5x5
I0403 19:35:48.767710  9426 net.cpp:141] Setting up inception_4e/5x5
I0403 19:35:48.767746  9426 net.cpp:148] Top shape: 24 128 14 14 (602112)
I0403 19:35:48.767763  9426 net.cpp:156] Memory required for data: 1239741984
I0403 19:35:48.767783  9426 layer_factory.hpp:77] Creating layer inception_4e/relu_5x5
I0403 19:35:48.767802  9426 net.cpp:91] Creating Layer inception_4e/relu_5x5
I0403 19:35:48.767819  9426 net.cpp:425] inception_4e/relu_5x5 <- inception_4e/5x5
I0403 19:35:48.767838  9426 net.cpp:386] inception_4e/relu_5x5 -> inception_4e/5x5 (in-place)
I0403 19:35:48.768034  9426 net.cpp:141] Setting up inception_4e/relu_5x5
I0403 19:35:48.768059  9426 net.cpp:148] Top shape: 24 128 14 14 (602112)
I0403 19:35:48.768075  9426 net.cpp:156] Memory required for data: 1242150432
I0403 19:35:48.768090  9426 layer_factory.hpp:77] Creating layer inception_4e/pool
I0403 19:35:48.768110  9426 net.cpp:91] Creating Layer inception_4e/pool
I0403 19:35:48.768126  9426 net.cpp:425] inception_4e/pool <- inception_4d/output_inception_4d/output_0_split_4
I0403 19:35:48.768147  9426 net.cpp:399] inception_4e/pool -> inception_4e/pool
I0403 19:35:48.768230  9426 net.cpp:141] Setting up inception_4e/pool
I0403 19:35:48.768256  9426 net.cpp:148] Top shape: 24 528 14 14 (2483712)
I0403 19:35:48.768272  9426 net.cpp:156] Memory required for data: 1252085280
I0403 19:35:48.768287  9426 layer_factory.hpp:77] Creating layer inception_4e/pool_proj
I0403 19:35:48.768311  9426 net.cpp:91] Creating Layer inception_4e/pool_proj
I0403 19:35:48.768328  9426 net.cpp:425] inception_4e/pool_proj <- inception_4e/pool
I0403 19:35:48.768347  9426 net.cpp:399] inception_4e/pool_proj -> inception_4e/pool_proj
I0403 19:35:48.769901  9426 net.cpp:141] Setting up inception_4e/pool_proj
I0403 19:35:48.769944  9426 net.cpp:148] Top shape: 24 128 14 14 (602112)
I0403 19:35:48.769963  9426 net.cpp:156] Memory required for data: 1254493728
I0403 19:35:48.769982  9426 layer_factory.hpp:77] Creating layer inception_4e/relu_pool_proj
I0403 19:35:48.770001  9426 net.cpp:91] Creating Layer inception_4e/relu_pool_proj
I0403 19:35:48.770020  9426 net.cpp:425] inception_4e/relu_pool_proj <- inception_4e/pool_proj
I0403 19:35:48.770037  9426 net.cpp:386] inception_4e/relu_pool_proj -> inception_4e/pool_proj (in-place)
I0403 19:35:48.770336  9426 net.cpp:141] Setting up inception_4e/relu_pool_proj
I0403 19:35:48.770365  9426 net.cpp:148] Top shape: 24 128 14 14 (602112)
I0403 19:35:48.770381  9426 net.cpp:156] Memory required for data: 1256902176
I0403 19:35:48.770397  9426 layer_factory.hpp:77] Creating layer inception_4e/output
I0403 19:35:48.770416  9426 net.cpp:91] Creating Layer inception_4e/output
I0403 19:35:48.770433  9426 net.cpp:425] inception_4e/output <- inception_4e/1x1
I0403 19:35:48.770459  9426 net.cpp:425] inception_4e/output <- inception_4e/3x3
I0403 19:35:48.770474  9426 net.cpp:425] inception_4e/output <- inception_4e/5x5
I0403 19:35:48.770491  9426 net.cpp:425] inception_4e/output <- inception_4e/pool_proj
I0403 19:35:48.770509  9426 net.cpp:399] inception_4e/output -> inception_4e/output
I0403 19:35:48.770561  9426 net.cpp:141] Setting up inception_4e/output
I0403 19:35:48.770586  9426 net.cpp:148] Top shape: 24 832 14 14 (3913728)
I0403 19:35:48.770601  9426 net.cpp:156] Memory required for data: 1272557088
I0403 19:35:48.770614  9426 layer_factory.hpp:77] Creating layer pool4/3x3_s2
I0403 19:35:48.770634  9426 net.cpp:91] Creating Layer pool4/3x3_s2
I0403 19:35:48.770653  9426 net.cpp:425] pool4/3x3_s2 <- inception_4e/output
I0403 19:35:48.770671  9426 net.cpp:399] pool4/3x3_s2 -> pool4/3x3_s2
I0403 19:35:48.770748  9426 net.cpp:141] Setting up pool4/3x3_s2
I0403 19:35:48.770772  9426 net.cpp:148] Top shape: 24 832 7 7 (978432)
I0403 19:35:48.770787  9426 net.cpp:156] Memory required for data: 1276470816
I0403 19:35:48.770802  9426 layer_factory.hpp:77] Creating layer pool4/3x3_s2_pool4/3x3_s2_0_split
I0403 19:35:48.770820  9426 net.cpp:91] Creating Layer pool4/3x3_s2_pool4/3x3_s2_0_split
I0403 19:35:48.770836  9426 net.cpp:425] pool4/3x3_s2_pool4/3x3_s2_0_split <- pool4/3x3_s2
I0403 19:35:48.770858  9426 net.cpp:399] pool4/3x3_s2_pool4/3x3_s2_0_split -> pool4/3x3_s2_pool4/3x3_s2_0_split_0
I0403 19:35:48.770879  9426 net.cpp:399] pool4/3x3_s2_pool4/3x3_s2_0_split -> pool4/3x3_s2_pool4/3x3_s2_0_split_1
I0403 19:35:48.770900  9426 net.cpp:399] pool4/3x3_s2_pool4/3x3_s2_0_split -> pool4/3x3_s2_pool4/3x3_s2_0_split_2
I0403 19:35:48.770920  9426 net.cpp:399] pool4/3x3_s2_pool4/3x3_s2_0_split -> pool4/3x3_s2_pool4/3x3_s2_0_split_3
I0403 19:35:48.771018  9426 net.cpp:141] Setting up pool4/3x3_s2_pool4/3x3_s2_0_split
I0403 19:35:48.771042  9426 net.cpp:148] Top shape: 24 832 7 7 (978432)
I0403 19:35:48.771059  9426 net.cpp:148] Top shape: 24 832 7 7 (978432)
I0403 19:35:48.771076  9426 net.cpp:148] Top shape: 24 832 7 7 (978432)
I0403 19:35:48.771092  9426 net.cpp:148] Top shape: 24 832 7 7 (978432)
I0403 19:35:48.771106  9426 net.cpp:156] Memory required for data: 1292125728
I0403 19:35:48.771121  9426 layer_factory.hpp:77] Creating layer inception_5a/1x1
I0403 19:35:48.771145  9426 net.cpp:91] Creating Layer inception_5a/1x1
I0403 19:35:48.771164  9426 net.cpp:425] inception_5a/1x1 <- pool4/3x3_s2_pool4/3x3_s2_0_split_0
I0403 19:35:48.771189  9426 net.cpp:399] inception_5a/1x1 -> inception_5a/1x1
I0403 19:35:48.774055  9426 net.cpp:141] Setting up inception_5a/1x1
I0403 19:35:48.774086  9426 net.cpp:148] Top shape: 24 256 7 7 (301056)
I0403 19:35:48.774103  9426 net.cpp:156] Memory required for data: 1293329952
I0403 19:35:48.774122  9426 layer_factory.hpp:77] Creating layer inception_5a/relu_1x1
I0403 19:35:48.774140  9426 net.cpp:91] Creating Layer inception_5a/relu_1x1
I0403 19:35:48.774158  9426 net.cpp:425] inception_5a/relu_1x1 <- inception_5a/1x1
I0403 19:35:48.774183  9426 net.cpp:386] inception_5a/relu_1x1 -> inception_5a/1x1 (in-place)
I0403 19:35:48.774520  9426 net.cpp:141] Setting up inception_5a/relu_1x1
I0403 19:35:48.774552  9426 net.cpp:148] Top shape: 24 256 7 7 (301056)
I0403 19:35:48.774570  9426 net.cpp:156] Memory required for data: 1294534176
I0403 19:35:48.774586  9426 layer_factory.hpp:77] Creating layer inception_5a/3x3_reduce
I0403 19:35:48.774610  9426 net.cpp:91] Creating Layer inception_5a/3x3_reduce
I0403 19:35:48.774628  9426 net.cpp:425] inception_5a/3x3_reduce <- pool4/3x3_s2_pool4/3x3_s2_0_split_1
I0403 19:35:48.774649  9426 net.cpp:399] inception_5a/3x3_reduce -> inception_5a/3x3_reduce
I0403 19:35:48.777210  9426 net.cpp:141] Setting up inception_5a/3x3_reduce
I0403 19:35:48.777251  9426 net.cpp:148] Top shape: 24 160 7 7 (188160)
I0403 19:35:48.777268  9426 net.cpp:156] Memory required for data: 1295286816
I0403 19:35:48.777287  9426 layer_factory.hpp:77] Creating layer inception_5a/relu_3x3_reduce
I0403 19:35:48.777309  9426 net.cpp:91] Creating Layer inception_5a/relu_3x3_reduce
I0403 19:35:48.777326  9426 net.cpp:425] inception_5a/relu_3x3_reduce <- inception_5a/3x3_reduce
I0403 19:35:48.777345  9426 net.cpp:386] inception_5a/relu_3x3_reduce -> inception_5a/3x3_reduce (in-place)
I0403 19:35:48.777550  9426 net.cpp:141] Setting up inception_5a/relu_3x3_reduce
I0403 19:35:48.777590  9426 net.cpp:148] Top shape: 24 160 7 7 (188160)
I0403 19:35:48.777607  9426 net.cpp:156] Memory required for data: 1296039456
I0403 19:35:48.777623  9426 layer_factory.hpp:77] Creating layer inception_5a/3x3
I0403 19:35:48.777647  9426 net.cpp:91] Creating Layer inception_5a/3x3
I0403 19:35:48.777667  9426 net.cpp:425] inception_5a/3x3 <- inception_5a/3x3_reduce
I0403 19:35:48.777686  9426 net.cpp:399] inception_5a/3x3 -> inception_5a/3x3
I0403 19:35:48.782927  9426 net.cpp:141] Setting up inception_5a/3x3
I0403 19:35:48.782959  9426 net.cpp:148] Top shape: 24 320 7 7 (376320)
I0403 19:35:48.782976  9426 net.cpp:156] Memory required for data: 1297544736
I0403 19:35:48.782995  9426 layer_factory.hpp:77] Creating layer inception_5a/relu_3x3
I0403 19:35:48.783015  9426 net.cpp:91] Creating Layer inception_5a/relu_3x3
I0403 19:35:48.783031  9426 net.cpp:425] inception_5a/relu_3x3 <- inception_5a/3x3
I0403 19:35:48.783049  9426 net.cpp:386] inception_5a/relu_3x3 -> inception_5a/3x3 (in-place)
I0403 19:35:48.783371  9426 net.cpp:141] Setting up inception_5a/relu_3x3
I0403 19:35:48.783401  9426 net.cpp:148] Top shape: 24 320 7 7 (376320)
I0403 19:35:48.783418  9426 net.cpp:156] Memory required for data: 1299050016
I0403 19:35:48.783433  9426 layer_factory.hpp:77] Creating layer inception_5a/5x5_reduce
I0403 19:35:48.783457  9426 net.cpp:91] Creating Layer inception_5a/5x5_reduce
I0403 19:35:48.783478  9426 net.cpp:425] inception_5a/5x5_reduce <- pool4/3x3_s2_pool4/3x3_s2_0_split_2
I0403 19:35:48.783499  9426 net.cpp:399] inception_5a/5x5_reduce -> inception_5a/5x5_reduce
I0403 19:35:48.784718  9426 net.cpp:141] Setting up inception_5a/5x5_reduce
I0403 19:35:48.784749  9426 net.cpp:148] Top shape: 24 32 7 7 (37632)
I0403 19:35:48.784765  9426 net.cpp:156] Memory required for data: 1299200544
I0403 19:35:48.784785  9426 layer_factory.hpp:77] Creating layer inception_5a/relu_5x5_reduce
I0403 19:35:48.784803  9426 net.cpp:91] Creating Layer inception_5a/relu_5x5_reduce
I0403 19:35:48.784821  9426 net.cpp:425] inception_5a/relu_5x5_reduce <- inception_5a/5x5_reduce
I0403 19:35:48.784840  9426 net.cpp:386] inception_5a/relu_5x5_reduce -> inception_5a/5x5_reduce (in-place)
I0403 19:35:48.785141  9426 net.cpp:141] Setting up inception_5a/relu_5x5_reduce
I0403 19:35:48.785167  9426 net.cpp:148] Top shape: 24 32 7 7 (37632)
I0403 19:35:48.785188  9426 net.cpp:156] Memory required for data: 1299351072
I0403 19:35:48.785204  9426 layer_factory.hpp:77] Creating layer inception_5a/5x5
I0403 19:35:48.785239  9426 net.cpp:91] Creating Layer inception_5a/5x5
I0403 19:35:48.785259  9426 net.cpp:425] inception_5a/5x5 <- inception_5a/5x5_reduce
I0403 19:35:48.785281  9426 net.cpp:399] inception_5a/5x5 -> inception_5a/5x5
I0403 19:35:48.787073  9426 net.cpp:141] Setting up inception_5a/5x5
I0403 19:35:48.787122  9426 net.cpp:148] Top shape: 24 128 7 7 (150528)
I0403 19:35:48.787138  9426 net.cpp:156] Memory required for data: 1299953184
I0403 19:35:48.787158  9426 layer_factory.hpp:77] Creating layer inception_5a/relu_5x5
I0403 19:35:48.787175  9426 net.cpp:91] Creating Layer inception_5a/relu_5x5
I0403 19:35:48.787197  9426 net.cpp:425] inception_5a/relu_5x5 <- inception_5a/5x5
I0403 19:35:48.787215  9426 net.cpp:386] inception_5a/relu_5x5 -> inception_5a/5x5 (in-place)
I0403 19:35:48.787431  9426 net.cpp:141] Setting up inception_5a/relu_5x5
I0403 19:35:48.787456  9426 net.cpp:148] Top shape: 24 128 7 7 (150528)
I0403 19:35:48.787477  9426 net.cpp:156] Memory required for data: 1300555296
I0403 19:35:48.787505  9426 layer_factory.hpp:77] Creating layer inception_5a/pool
I0403 19:35:48.787525  9426 net.cpp:91] Creating Layer inception_5a/pool
I0403 19:35:48.787547  9426 net.cpp:425] inception_5a/pool <- pool4/3x3_s2_pool4/3x3_s2_0_split_3
I0403 19:35:48.787582  9426 net.cpp:399] inception_5a/pool -> inception_5a/pool
I0403 19:35:48.787657  9426 net.cpp:141] Setting up inception_5a/pool
I0403 19:35:48.787688  9426 net.cpp:148] Top shape: 24 832 7 7 (978432)
I0403 19:35:48.787713  9426 net.cpp:156] Memory required for data: 1304469024
I0403 19:35:48.787731  9426 layer_factory.hpp:77] Creating layer inception_5a/pool_proj
I0403 19:35:48.787763  9426 net.cpp:91] Creating Layer inception_5a/pool_proj
I0403 19:35:48.787791  9426 net.cpp:425] inception_5a/pool_proj <- inception_5a/pool
I0403 19:35:48.787814  9426 net.cpp:399] inception_5a/pool_proj -> inception_5a/pool_proj
I0403 19:35:48.906270  9426 net.cpp:141] Setting up inception_5a/pool_proj
I0403 19:35:48.906975  9426 net.cpp:148] Top shape: 24 128 7 7 (150528)
I0403 19:35:48.907001  9426 net.cpp:156] Memory required for data: 1305071136
I0403 19:35:48.907027  9426 layer_factory.hpp:77] Creating layer inception_5a/relu_pool_proj
I0403 19:35:48.907060  9426 net.cpp:91] Creating Layer inception_5a/relu_pool_proj
I0403 19:35:48.907083  9426 net.cpp:425] inception_5a/relu_pool_proj <- inception_5a/pool_proj
I0403 19:35:48.907106  9426 net.cpp:386] inception_5a/relu_pool_proj -> inception_5a/pool_proj (in-place)
I0403 19:35:48.917453  9426 net.cpp:141] Setting up inception_5a/relu_pool_proj
I0403 19:35:48.917510  9426 net.cpp:148] Top shape: 24 128 7 7 (150528)
I0403 19:35:48.917531  9426 net.cpp:156] Memory required for data: 1305673248
I0403 19:35:48.917556  9426 layer_factory.hpp:77] Creating layer inception_5a/output
I0403 19:35:48.917595  9426 net.cpp:91] Creating Layer inception_5a/output
I0403 19:35:48.917618  9426 net.cpp:425] inception_5a/output <- inception_5a/1x1
I0403 19:35:48.917640  9426 net.cpp:425] inception_5a/output <- inception_5a/3x3
I0403 19:35:48.917661  9426 net.cpp:425] inception_5a/output <- inception_5a/5x5
I0403 19:35:48.917680  9426 net.cpp:425] inception_5a/output <- inception_5a/pool_proj
I0403 19:35:48.917708  9426 net.cpp:399] inception_5a/output -> inception_5a/output
I0403 19:35:48.917814  9426 net.cpp:141] Setting up inception_5a/output
I0403 19:35:48.917855  9426 net.cpp:148] Top shape: 24 832 7 7 (978432)
I0403 19:35:48.917873  9426 net.cpp:156] Memory required for data: 1309586976
I0403 19:35:48.917903  9426 layer_factory.hpp:77] Creating layer inception_5a/output_inception_5a/output_0_split
I0403 19:35:48.917924  9426 net.cpp:91] Creating Layer inception_5a/output_inception_5a/output_0_split
I0403 19:35:48.917943  9426 net.cpp:425] inception_5a/output_inception_5a/output_0_split <- inception_5a/output
I0403 19:35:48.917979  9426 net.cpp:399] inception_5a/output_inception_5a/output_0_split -> inception_5a/output_inception_5a/output_0_split_0
I0403 19:35:48.918004  9426 net.cpp:399] inception_5a/output_inception_5a/output_0_split -> inception_5a/output_inception_5a/output_0_split_1
I0403 19:35:48.918031  9426 net.cpp:399] inception_5a/output_inception_5a/output_0_split -> inception_5a/output_inception_5a/output_0_split_2
I0403 19:35:48.918056  9426 net.cpp:399] inception_5a/output_inception_5a/output_0_split -> inception_5a/output_inception_5a/output_0_split_3
I0403 19:35:48.918216  9426 net.cpp:141] Setting up inception_5a/output_inception_5a/output_0_split
I0403 19:35:48.918246  9426 net.cpp:148] Top shape: 24 832 7 7 (978432)
I0403 19:35:48.918267  9426 net.cpp:148] Top shape: 24 832 7 7 (978432)
I0403 19:35:48.918285  9426 net.cpp:148] Top shape: 24 832 7 7 (978432)
I0403 19:35:48.918304  9426 net.cpp:148] Top shape: 24 832 7 7 (978432)
I0403 19:35:48.918334  9426 net.cpp:156] Memory required for data: 1325241888
I0403 19:35:48.918354  9426 layer_factory.hpp:77] Creating layer inception_5b/1x1
I0403 19:35:48.918395  9426 net.cpp:91] Creating Layer inception_5b/1x1
I0403 19:35:48.918437  9426 net.cpp:425] inception_5b/1x1 <- inception_5a/output_inception_5a/output_0_split_0
I0403 19:35:48.918481  9426 net.cpp:399] inception_5b/1x1 -> inception_5b/1x1
I0403 19:35:48.922762  9426 net.cpp:141] Setting up inception_5b/1x1
I0403 19:35:48.922794  9426 net.cpp:148] Top shape: 24 384 7 7 (451584)
I0403 19:35:48.922811  9426 net.cpp:156] Memory required for data: 1327048224
I0403 19:35:48.922832  9426 layer_factory.hpp:77] Creating layer inception_5b/relu_1x1
I0403 19:35:48.922854  9426 net.cpp:91] Creating Layer inception_5b/relu_1x1
I0403 19:35:48.922873  9426 net.cpp:425] inception_5b/relu_1x1 <- inception_5b/1x1
I0403 19:35:48.922893  9426 net.cpp:386] inception_5b/relu_1x1 -> inception_5b/1x1 (in-place)
I0403 19:35:48.923228  9426 net.cpp:141] Setting up inception_5b/relu_1x1
I0403 19:35:48.923254  9426 net.cpp:148] Top shape: 24 384 7 7 (451584)
I0403 19:35:48.923270  9426 net.cpp:156] Memory required for data: 1328854560
I0403 19:35:48.923285  9426 layer_factory.hpp:77] Creating layer inception_5b/3x3_reduce
I0403 19:35:48.923310  9426 net.cpp:91] Creating Layer inception_5b/3x3_reduce
I0403 19:35:48.923328  9426 net.cpp:425] inception_5b/3x3_reduce <- inception_5a/output_inception_5a/output_0_split_1
I0403 19:35:48.923351  9426 net.cpp:399] inception_5b/3x3_reduce -> inception_5b/3x3_reduce
I0403 19:35:48.926085  9426 net.cpp:141] Setting up inception_5b/3x3_reduce
I0403 19:35:48.926115  9426 net.cpp:148] Top shape: 24 192 7 7 (225792)
I0403 19:35:48.926131  9426 net.cpp:156] Memory required for data: 1329757728
I0403 19:35:48.926151  9426 layer_factory.hpp:77] Creating layer inception_5b/relu_3x3_reduce
I0403 19:35:48.926172  9426 net.cpp:91] Creating Layer inception_5b/relu_3x3_reduce
I0403 19:35:48.926193  9426 net.cpp:425] inception_5b/relu_3x3_reduce <- inception_5b/3x3_reduce
I0403 19:35:48.926213  9426 net.cpp:386] inception_5b/relu_3x3_reduce -> inception_5b/3x3_reduce (in-place)
I0403 19:35:48.926403  9426 net.cpp:141] Setting up inception_5b/relu_3x3_reduce
I0403 19:35:48.926430  9426 net.cpp:148] Top shape: 24 192 7 7 (225792)
I0403 19:35:48.926445  9426 net.cpp:156] Memory required for data: 1330660896
I0403 19:35:48.926461  9426 layer_factory.hpp:77] Creating layer inception_5b/3x3
I0403 19:35:48.926486  9426 net.cpp:91] Creating Layer inception_5b/3x3
I0403 19:35:48.926503  9426 net.cpp:425] inception_5b/3x3 <- inception_5b/3x3_reduce
I0403 19:35:48.926527  9426 net.cpp:399] inception_5b/3x3 -> inception_5b/3x3
I0403 19:35:48.933439  9426 net.cpp:141] Setting up inception_5b/3x3
I0403 19:35:48.933472  9426 net.cpp:148] Top shape: 24 384 7 7 (451584)
I0403 19:35:48.933490  9426 net.cpp:156] Memory required for data: 1332467232
I0403 19:35:48.933508  9426 layer_factory.hpp:77] Creating layer inception_5b/relu_3x3
I0403 19:35:48.933529  9426 net.cpp:91] Creating Layer inception_5b/relu_3x3
I0403 19:35:48.933547  9426 net.cpp:425] inception_5b/relu_3x3 <- inception_5b/3x3
I0403 19:35:48.933565  9426 net.cpp:386] inception_5b/relu_3x3 -> inception_5b/3x3 (in-place)
I0403 19:35:48.933866  9426 net.cpp:141] Setting up inception_5b/relu_3x3
I0403 19:35:48.933892  9426 net.cpp:148] Top shape: 24 384 7 7 (451584)
I0403 19:35:48.933908  9426 net.cpp:156] Memory required for data: 1334273568
I0403 19:35:48.933924  9426 layer_factory.hpp:77] Creating layer inception_5b/5x5_reduce
I0403 19:35:48.933966  9426 net.cpp:91] Creating Layer inception_5b/5x5_reduce
I0403 19:35:48.933987  9426 net.cpp:425] inception_5b/5x5_reduce <- inception_5a/output_inception_5a/output_0_split_2
I0403 19:35:48.934007  9426 net.cpp:399] inception_5b/5x5_reduce -> inception_5b/5x5_reduce
I0403 19:35:48.935297  9426 net.cpp:141] Setting up inception_5b/5x5_reduce
I0403 19:35:48.935330  9426 net.cpp:148] Top shape: 24 48 7 7 (56448)
I0403 19:35:48.935348  9426 net.cpp:156] Memory required for data: 1334499360
I0403 19:35:48.935367  9426 layer_factory.hpp:77] Creating layer inception_5b/relu_5x5_reduce
I0403 19:35:48.935385  9426 net.cpp:91] Creating Layer inception_5b/relu_5x5_reduce
I0403 19:35:48.935402  9426 net.cpp:425] inception_5b/relu_5x5_reduce <- inception_5b/5x5_reduce
I0403 19:35:48.935420  9426 net.cpp:386] inception_5b/relu_5x5_reduce -> inception_5b/5x5_reduce (in-place)
I0403 19:35:48.935801  9426 net.cpp:141] Setting up inception_5b/relu_5x5_reduce
I0403 19:35:48.935828  9426 net.cpp:148] Top shape: 24 48 7 7 (56448)
I0403 19:35:48.935844  9426 net.cpp:156] Memory required for data: 1334725152
I0403 19:35:48.935860  9426 layer_factory.hpp:77] Creating layer inception_5b/5x5
I0403 19:35:48.935880  9426 net.cpp:91] Creating Layer inception_5b/5x5
I0403 19:35:48.935899  9426 net.cpp:425] inception_5b/5x5 <- inception_5b/5x5_reduce
I0403 19:35:48.935919  9426 net.cpp:399] inception_5b/5x5 -> inception_5b/5x5
I0403 19:35:48.938020  9426 net.cpp:141] Setting up inception_5b/5x5
I0403 19:35:48.938052  9426 net.cpp:148] Top shape: 24 128 7 7 (150528)
I0403 19:35:48.938069  9426 net.cpp:156] Memory required for data: 1335327264
I0403 19:35:48.938088  9426 layer_factory.hpp:77] Creating layer inception_5b/relu_5x5
I0403 19:35:48.938107  9426 net.cpp:91] Creating Layer inception_5b/relu_5x5
I0403 19:35:48.938123  9426 net.cpp:425] inception_5b/relu_5x5 <- inception_5b/5x5
I0403 19:35:48.938144  9426 net.cpp:386] inception_5b/relu_5x5 -> inception_5b/5x5 (in-place)
I0403 19:35:48.938360  9426 net.cpp:141] Setting up inception_5b/relu_5x5
I0403 19:35:48.938386  9426 net.cpp:148] Top shape: 24 128 7 7 (150528)
I0403 19:35:48.938402  9426 net.cpp:156] Memory required for data: 1335929376
I0403 19:35:48.938418  9426 layer_factory.hpp:77] Creating layer inception_5b/pool
I0403 19:35:48.938438  9426 net.cpp:91] Creating Layer inception_5b/pool
I0403 19:35:48.938457  9426 net.cpp:425] inception_5b/pool <- inception_5a/output_inception_5a/output_0_split_3
I0403 19:35:48.938491  9426 net.cpp:399] inception_5b/pool -> inception_5b/pool
I0403 19:35:48.938567  9426 net.cpp:141] Setting up inception_5b/pool
I0403 19:35:48.938591  9426 net.cpp:148] Top shape: 24 832 7 7 (978432)
I0403 19:35:48.938606  9426 net.cpp:156] Memory required for data: 1339843104
I0403 19:35:48.938621  9426 layer_factory.hpp:77] Creating layer inception_5b/pool_proj
I0403 19:35:48.938644  9426 net.cpp:91] Creating Layer inception_5b/pool_proj
I0403 19:35:48.938663  9426 net.cpp:425] inception_5b/pool_proj <- inception_5b/pool
I0403 19:35:48.938683  9426 net.cpp:399] inception_5b/pool_proj -> inception_5b/pool_proj
I0403 19:35:48.941035  9426 net.cpp:141] Setting up inception_5b/pool_proj
I0403 19:35:48.941071  9426 net.cpp:148] Top shape: 24 128 7 7 (150528)
I0403 19:35:48.941088  9426 net.cpp:156] Memory required for data: 1340445216
I0403 19:35:48.941107  9426 layer_factory.hpp:77] Creating layer inception_5b/relu_pool_proj
I0403 19:35:48.941128  9426 net.cpp:91] Creating Layer inception_5b/relu_pool_proj
I0403 19:35:48.941146  9426 net.cpp:425] inception_5b/relu_pool_proj <- inception_5b/pool_proj
I0403 19:35:48.941165  9426 net.cpp:386] inception_5b/relu_pool_proj -> inception_5b/pool_proj (in-place)
I0403 19:35:48.941473  9426 net.cpp:141] Setting up inception_5b/relu_pool_proj
I0403 19:35:48.941503  9426 net.cpp:148] Top shape: 24 128 7 7 (150528)
I0403 19:35:48.941519  9426 net.cpp:156] Memory required for data: 1341047328
I0403 19:35:48.941534  9426 layer_factory.hpp:77] Creating layer inception_5b/output
I0403 19:35:48.941552  9426 net.cpp:91] Creating Layer inception_5b/output
I0403 19:35:48.941588  9426 net.cpp:425] inception_5b/output <- inception_5b/1x1
I0403 19:35:48.941609  9426 net.cpp:425] inception_5b/output <- inception_5b/3x3
I0403 19:35:48.941627  9426 net.cpp:425] inception_5b/output <- inception_5b/5x5
I0403 19:35:48.941643  9426 net.cpp:425] inception_5b/output <- inception_5b/pool_proj
I0403 19:35:48.941661  9426 net.cpp:399] inception_5b/output -> inception_5b/output
I0403 19:35:48.941717  9426 net.cpp:141] Setting up inception_5b/output
I0403 19:35:48.941740  9426 net.cpp:148] Top shape: 24 1024 7 7 (1204224)
I0403 19:35:48.941756  9426 net.cpp:156] Memory required for data: 1345864224
I0403 19:35:48.941772  9426 layer_factory.hpp:77] Creating layer pool5/7x7_s1
I0403 19:35:48.941793  9426 net.cpp:91] Creating Layer pool5/7x7_s1
I0403 19:35:48.941812  9426 net.cpp:425] pool5/7x7_s1 <- inception_5b/output
I0403 19:35:48.941831  9426 net.cpp:399] pool5/7x7_s1 -> pool5/7x7_s1
I0403 19:35:48.942049  9426 net.cpp:141] Setting up pool5/7x7_s1
I0403 19:35:48.942077  9426 net.cpp:148] Top shape: 24 1024 1 1 (24576)
I0403 19:35:48.942093  9426 net.cpp:156] Memory required for data: 1345962528
I0403 19:35:48.942108  9426 layer_factory.hpp:77] Creating layer pool5/drop_7x7_s1
I0403 19:35:48.942127  9426 net.cpp:91] Creating Layer pool5/drop_7x7_s1
I0403 19:35:48.942143  9426 net.cpp:425] pool5/drop_7x7_s1 <- pool5/7x7_s1
I0403 19:35:48.942163  9426 net.cpp:386] pool5/drop_7x7_s1 -> pool5/7x7_s1 (in-place)
I0403 19:35:48.942219  9426 net.cpp:141] Setting up pool5/drop_7x7_s1
I0403 19:35:48.942244  9426 net.cpp:148] Top shape: 24 1024 1 1 (24576)
I0403 19:35:48.942260  9426 net.cpp:156] Memory required for data: 1346060832
I0403 19:35:48.942273  9426 layer_factory.hpp:77] Creating layer loss3/classifier_plantvillage
I0403 19:35:48.942296  9426 net.cpp:91] Creating Layer loss3/classifier_plantvillage
I0403 19:35:48.942314  9426 net.cpp:425] loss3/classifier_plantvillage <- pool5/7x7_s1
I0403 19:35:48.942333  9426 net.cpp:399] loss3/classifier_plantvillage -> loss3/classifier_plantvillage
I0403 19:35:48.942762  9426 net.cpp:141] Setting up loss3/classifier_plantvillage
I0403 19:35:48.942786  9426 net.cpp:148] Top shape: 24 38 (912)
I0403 19:35:48.942801  9426 net.cpp:156] Memory required for data: 1346064480
I0403 19:35:48.942819  9426 layer_factory.hpp:77] Creating layer loss3/classifier_plantvillage_loss3/classifier_plantvillage_0_split
I0403 19:35:48.942838  9426 net.cpp:91] Creating Layer loss3/classifier_plantvillage_loss3/classifier_plantvillage_0_split
I0403 19:35:48.942854  9426 net.cpp:425] loss3/classifier_plantvillage_loss3/classifier_plantvillage_0_split <- loss3/classifier_plantvillage
I0403 19:35:48.942878  9426 net.cpp:399] loss3/classifier_plantvillage_loss3/classifier_plantvillage_0_split -> loss3/classifier_plantvillage_loss3/classifier_plantvillage_0_split_0
I0403 19:35:48.942901  9426 net.cpp:399] loss3/classifier_plantvillage_loss3/classifier_plantvillage_0_split -> loss3/classifier_plantvillage_loss3/classifier_plantvillage_0_split_1
I0403 19:35:48.942922  9426 net.cpp:399] loss3/classifier_plantvillage_loss3/classifier_plantvillage_0_split -> loss3/classifier_plantvillage_loss3/classifier_plantvillage_0_split_2
I0403 19:35:48.942942  9426 net.cpp:399] loss3/classifier_plantvillage_loss3/classifier_plantvillage_0_split -> loss3/classifier_plantvillage_loss3/classifier_plantvillage_0_split_3
I0403 19:35:48.943048  9426 net.cpp:141] Setting up loss3/classifier_plantvillage_loss3/classifier_plantvillage_0_split
I0403 19:35:48.943071  9426 net.cpp:148] Top shape: 24 38 (912)
I0403 19:35:48.943089  9426 net.cpp:148] Top shape: 24 38 (912)
I0403 19:35:48.943104  9426 net.cpp:148] Top shape: 24 38 (912)
I0403 19:35:48.943120  9426 net.cpp:148] Top shape: 24 38 (912)
I0403 19:35:48.943135  9426 net.cpp:156] Memory required for data: 1346079072
I0403 19:35:48.943148  9426 layer_factory.hpp:77] Creating layer loss1/loss
I0403 19:35:48.943171  9426 net.cpp:91] Creating Layer loss1/loss
I0403 19:35:48.943200  9426 net.cpp:425] loss1/loss <- loss1/classifier_plantvillage_loss1/classifier_plantvillage_0_split_0
I0403 19:35:48.943233  9426 net.cpp:425] loss1/loss <- label_data_1_split_0
…
