…
I0403 19:09:19.581873  8681 net.cpp:313] The NetState phase (1) differed from the phase (0) specified by a rule in layer data
I0403 19:09:19.583844  8681 net.cpp:49] Initializing net from parameters: 
state {
  phase: TEST
}
layer {
  name: "data"
  type: "Data"
  top: "data"
  top: "label"
  include {
    phase: TEST
  }
  transform_param {
    mirror: false
    crop_size: 224
    mean_file: "/home/mohanty/data/final_dataset/lmdb/grayscale-50-50/mean.binaryproto"
  }
  data_param {
    source: "/home/mohanty/data/final_dataset/lmdb/grayscale-50-50/test_db"
    batch_size: 24
    backend: LMDB
  }
}
layer {
  name: "conv1/7x7_s2"
  type: "Convolution"
  bottom: "data"
  top: "conv1/7x7_s2"
  param {
    lr_mult: 1
    decay_mult: 1
  }
  param {
    lr_mult: 2
    decay_mult: 0
  }
  convolution_param {
    num_output: 64
    pad: 3
    kernel_size: 7
    stride: 2
    weight_filler {
      type: "xavier"
      std: 0.1
    }
    bias_filler {
      type: "constant"
      value: 0.2
    }
  }
}
layer {
  name: "conv1/relu_7x7"
  type: "ReLU"
  bottom: "conv1/7x7_s2"
  top: "conv1/7x7_s2"
}
layer {
  name: "pool1/3x3_s2"
  type: "Pooling"
  bottom: "conv1/7x7_s2"
  top: "pool1/3x3_s2"
  pooling_param {
    pool: MAX
    kernel_size: 3
    stride: 2
  }
}
layer {
  name: "pool1/norm1"
  type: "LRN"
  bottom: "pool1/3x3_s2"
  top: "pool1/norm1"
  lrn_param {
    local_size: 5
    alpha: 0.0001
    beta: 0.75
  }
}
layer {
  name: "conv2/3x3_reduce"
  type: "Convolution"
  bottom: "pool1/norm1"
  top: "conv2/3x3_reduce"
  param {
    lr_mult: 1
    decay_mult: 1
  }
  param {
    lr_mult: 2
    decay_mult: 0
  }
  convolution_param {
    num_output: 64
    kernel_size: 1
    weight_filler {
      type: "xavier"
      std: 0.1
    }
    bias_filler {
      type: "constant"
      value: 0.2
    }
  }
}
layer {
  name: "conv2/relu_3x3_reduce"
  type: "ReLU"
  bottom: "conv2/3x3_reduce"
  top: "conv2/3x3_reduce"
}
layer {
  name: "conv2/3x3"
  type: "Convolution"
  bottom: "conv2/3x3_reduce"
  top: "conv2/3x3"
  param {
    lr_mult: 1
    decay_mult: 1
  }
  param {
    lr_mult: 2
    decay_mult: 0
  }
  convolution_param {
    num_output: 192
    pad: 1
    kernel_size: 3
    weight_filler {
      type: "xavier"
      std: 0.03
    }
    bias_filler {
      type: "constant"
      value: 0.2
    }
  }
}
layer {
  name: "conv2/relu_3x3"
  type: "ReLU"
  bottom: "conv2/3x3"
  top: "conv2/3x3"
}
layer {
  name: "conv2/norm2"
  type: "LRN"
  bottom: "conv2/3x3"
  top: "conv2/norm2"
  lrn_param {
    local_size: 5
    alpha: 0.0001
    beta: 0.75
  }
}
layer {
  name: "pool2/3x3_s2"
  type: "Pooling"
  bottom: "conv2/norm2"
  top: "pool2/3x3_s2"
  pooling_param {
    pool: MAX
    kernel_size: 3
    stride: 2
  }
}
layer {
  name: "inception_3a/1x1"
  type: "Convolution"
  bottom: "pool2/3x3_s2"
  top: "inception_3a/1x1"
  param {
    lr_mult: 1
    decay_mult: 1
  }
  param {
    lr_mult: 2
    decay_mult: 0
  }
  convolution_param {
    num_output: 64
    kernel_size: 1
    weight_filler {
      type: "xavier"
      std: 0.03
    }
    bias_filler {
      type: "constant"
      value: 0.2
    }
  }
}
layer {
  name: "inception_3a/relu_1x1"
  type: "ReLU"
  bottom: "inception_3a/1x1"
  top: "inception_3a/1x1"
}
layer {
  name: "inception_3a/3x3_reduce"
  type: "Convolution"
  bottom: "pool2/3x3_s2"
  top: "inception_3a/3x3_reduce"
  param {
    lr_mult: 1
    decay_mult: 1
  }
  param {
    lr_mult: 2
    decay_mult: 0
  }
  convolution_param {
    num_output: 96
    kernel_size: 1
    weight_filler {
      type: "xavier"
      std: 0.09
    }
    bias_filler {
      type: "constant"
      value: 0.2
    }
  }
}
layer {
  name: "inception_3a/relu_3x3_reduce"
  type: "ReLU"
  bottom: "inception_3a/3x3_reduce"
  top: "inception_3a/3x3_reduce"
}
layer {
  name: "inception_3a/3x3"
  type: "Convolution"
  bottom: "inception_3a/3x3_reduce"
  top: "inception_3a/3x3"
  param {
    lr_mult: 1
    decay_mult: 1
  }
  param {
    lr_mult: 2
    decay_mult: 0
  }
  convolution_param {
    num_output: 128
    pad: 1
    kernel_size: 3
    weight_filler {
      type: "xavier"
      std: 0.03
    }
    bias_filler {
      type: "constant"
      value: 0.2
    }
  }
}
layer {
  name: "inception_3a/relu_3x3"
  type: "ReLU"
  bottom: "inception_3a/3x3"
  top: "inception_3a/3x3"
}
layer {
  name: "inception_3a/5x5_reduce"
  type: "Convolution"
  bottom: "pool2/3x3_s2"
  top: "inception_3a/5x5_reduce"
  param {
    lr_mult: 1
    decay_mult: 1
  }
  param {
    lr_mult: 2
    decay_mult: 0
  }
  convolution_param {
    num_output: 16
    kernel_size: 1
    weight_filler {
      type: "xavier"
      std: 0.2
    }
    bias_filler {
      type: "constant"
      value: 0.2
    }
  }
}
layer {
  name: "inception_3a/relu_5x5_reduce"
  type: "ReLU"
  bottom: "inception_3a/5x5_reduce"
  top: "inception_3a/5x5_reduce"
}
layer {
  name: "inception_3a/5x5"
  type: "Convolution"
  bottom: "inception_3a/5x5_reduce"
  top: "inception_3a/5x5"
  param {
    lr_mult: 1
    decay_mult: 1
  }
  param {
    lr_mult: 2
    decay_mult: 0
  }
  convolution_param {
    num_output: 32
    pad: 2
    kernel_size: 5
    weight_filler {
      type: "xavier"
      std: 0.03
    }
    bias_filler {
      type: "constant"
      value: 0.2
    }
  }
}
layer {
  name: "inception_3a/relu_5x5"
  type: "ReLU"
  bottom: "inception_3a/5x5"
  top: "inception_3a/5x5"
}
layer {
  name: "inception_3a/pool"
  type: "Pooling"
  bottom: "pool2/3x3_s2"
  top: "inception_3a/pool"
  pooling_param {
    pool: MAX
    kernel_size: 3
    stride: 1
    pad: 1
  }
}
layer {
  name: "inception_3a/pool_proj"
  type: "Convolution"
  bottom: "inception_3a/pool"
  top: "inception_3a/pool_proj"
  param {
    lr_mult: 1
    decay_mult: 1
  }
  param {
    lr_mult: 2
    decay_mult: 0
  }
  convolution_param {
    num_output: 32
    kernel_size: 1
    weight_filler {
      type: "xavier"
      std: 0.1
    }
    bias_filler {
      type: "constant"
      value: 0.2
    }
  }
}
layer {
  name: "inception_3a/relu_pool_proj"
  type: "ReLU"
  bottom: "inception_3a/pool_proj"
  top: "inception_3a/pool_proj"
}
layer {
  name: "inception_3a/output"
  type: "Concat"
  bottom: "inception_3a/1x1"
  bottom: "inception_3a/3x3"
  bottom: "inception_3a/5x5"
  bottom: "inception_3a/pool_proj"
  top: "inception_3a/output"
}
layer {
  name: "inception_3b/1x1"
  type: "Convolution"
  bottom: "inception_3a/output"
  top: "inception_3b/1x1"
  param {
    lr_mult: 1
    decay_mult: 1
  }
  param {
    lr_mult: 2
    decay_mult: 0
  }
  convolution_param {
    num_output: 128
    kernel_size: 1
    weight_filler {
      type: "xavier"
      std: 0.03
    }
    bias_filler {
      type: "constant"
      value: 0.2
    }
  }
}
layer {
  name: "inception_3b/relu_1x1"
  type: "ReLU"
  bottom: "inception_3b/1x1"
  top: "inception_3b/1x1"
}
layer {
  name: "inception_3b/3x3_reduce"
  type: "Convolution"
  bottom: "inception_3a/output"
  top: "inception_3b/3x3_reduce"
  param {
    lr_mult: 1
    decay_mult: 1
  }
  param {
    lr_mult: 2
    decay_mult: 0
  }
  convolution_param {
    num_output: 128
    kernel_size: 1
    weight_filler {
      type: "xavier"
      std: 0.09
    }
    bias_filler {
      type: "constant"
      value: 0.2
    }
  }
}
layer {
  name: "inception_3b/relu_3x3_reduce"
  type: "ReLU"
  bottom: "inception_3b/3x3_reduce"
  top: "inception_3b/3x3_reduce"
}
layer {
  name: "inception_3b/3x3"
  type: "Convolution"
  bottom: "inception_3b/3x3_reduce"
  top: "inception_3b/3x3"
  param {
    lr_mult: 1
    decay_mult: 1
  }
  param {
    lr_mult: 2
    decay_mult: 0
  }
  convolution_param {
    num_output: 192
    pad: 1
    kernel_size: 3
    weight_filler {
      type: "xavier"
      std: 0.03
    }
    bias_filler {
      type: "constant"
      value: 0.2
    }
  }
}
layer {
  name: "inception_3b/relu_3x3"
  type: "ReLU"
  bottom: "inception_3b/3x3"
  top: "inception_3b/3x3"
}
layer {
  name: "inception_3b/5x5_reduce"
  type: "Convolution"
  bottom: "inception_3a/output"
  top: "inception_3b/5x5_reduce"
  param {
    lr_mult: 1
    decay_mult: 1
  }
  param {
    lr_mult: 2
    decay_mult: 0
  }
  convolution_param {
    num_output: 32
    kernel_size: 1
    weight_filler {
      type: "xavier"
      std: 0.2
    }
    bias_filler {
      type: "constant"
      value: 0.2
    }
  }
}
layer {
  name: "inception_3b/relu_5x5_reduce"
  type: "ReLU"
  bottom: "inception_3b/5x5_reduce"
  top: "inception_3b/5x5_reduce"
}
layer {
  name: "inception_3b/5x5"
  type: "Convolution"
  bottom: "inception_3b/5x5_reduce"
  top: "inception_3b/5x5"
  param {
    lr_mult: 1
    decay_mult: 1
  }
  param {
    lr_mult: 2
    decay_mult: 0
  }
  convolution_param {
    num_output: 96
    pad: 2
    kernel_size: 5
    weight_filler {
      type: "xavier"
      std: 0.03
    }
    bias_filler {
      type: "constant"
      value: 0.2
    }
  }
}
layer {
  name: "inception_3b/relu_5x5"
  type: "ReLU"
  bottom: "inception_3b/5x5"
  top: "inception_3b/5x5"
}
layer {
  name: "inception_3b/pool"
  type: "Pooling"
  bottom: "inception_3a/output"
  top: "inception_3b/pool"
  pooling_param {
    pool: MAX
    kernel_size: 3
    stride: 1
    pad: 1
  }
}
layer {
  name: "inception_3b/pool_proj"
  type: "Convolution"
  bottom: "inception_3b/pool"
  top: "inception_3b/pool_proj"
  param {
    lr_mult: 1
    decay_mult: 1
  }
  param {
    lr_mult: 2
    decay_mult: 0
  }
  convolution_param {
    num_output: 64
    kernel_size: 1
    weight_filler {
      type: "xavier"
      std: 0.1
    }
    bias_filler {
      type: "constant"
      value: 0.2
    }
  }
}
layer {
  name: "inception_3b/relu_pool_proj"
  type: "ReLU"
  bottom: "inception_3b/pool_proj"
  top: "inception_3b/pool_proj"
}
layer {
  name: "inception_3b/output"
  type: "Concat"
  bottom: "inception_3b/1x1"
  bottom: "inception_3b/3x3"
  bottom: "inception_3b/5x5"
  bottom: "inception_3b/pool_proj"
  top: "inception_3b/output"
}
layer {
  name: "pool3/3x3_s2"
  type: "Pooling"
  bottom: "inception_3b/output"
  top: "pool3/3x3_s2"
  pooling_param {
    pool: MAX
    kernel_size: 3
    stride: 2
  }
}
layer {
  name: "inception_4a/1x1"
  type: "Convolution"
  bottom: "pool3/3x3_s2"
  top: "inception_4a/1x1"
  param {
    lr_mult: 1
    decay_mult: 1
  }
  param {
    lr_mult: 2
    decay_mult: 0
  }
  convolution_param {
    num_output: 192
    kernel_size: 1
    weight_filler {
      type: "xavier"
      std: 0.03
    }
    bias_filler {
      type: "constant"
      value: 0.2
    }
  }
}
layer {
  name: "inception_4a/relu_1x1"
  type: "ReLU"
  bottom: "inception_4a/1x1"
  top: "inception_4a/1x1"
}
layer {
  name: "inception_4a/3x3_reduce"
  type: "Convolution"
  bottom: "pool3/3x3_s2"
  top: "inception_4a/3x3_reduce"
  param {
    lr_mult: 1
    decay_mult: 1
  }
  param {
    lr_mult: 2
    decay_mult: 0
  }
  convolution_param {
    num_output: 96
    kernel_size: 1
    weight_filler {
      type: "xavier"
      std: 0.09
    }
    bias_filler {
      type: "constant"
      value: 0.2
    }
  }
}
layer {
  name: "inception_4a/relu_3x3_reduce"
  type: "ReLU"
  bottom: "inception_4a/3x3_reduce"
  top: "inception_4a/3x3_reduce"
}
layer {
  name: "inception_4a/3x3"
  type: "Convolution"
  bottom: "inception_4a/3x3_reduce"
  top: "inception_4a/3x3"
  param {
    lr_mult: 1
    decay_mult: 1
  }
  param {
    lr_mult: 2
    decay_mult: 0
  }
  convolution_param {
    num_output: 208
    pad: 1
    kernel_size: 3
    weight_filler {
      type: "xavier"
      std: 0.03
    }
    bias_filler {
      type: "constant"
      value: 0.2
    }
  }
}
layer {
  name: "inception_4a/relu_3x3"
  type: "ReLU"
  bottom: "inception_4a/3x3"
  top: "inception_4a/3x3"
}
layer {
  name: "inception_4a/5x5_reduce"
  type: "Convolution"
  bottom: "pool3/3x3_s2"
  top: "inception_4a/5x5_reduce"
  param {
    lr_mult: 1
    decay_mult: 1
  }
  param {
    lr_mult: 2
    decay_mult: 0
  }
  convolution_param {
    num_output: 16
    kernel_size: 1
    weight_filler {
      type: "xavier"
      std: 0.2
    }
    bias_filler {
      type: "constant"
      value: 0.2
    }
  }
}
layer {
  name: "inception_4a/relu_5x5_reduce"
  type: "ReLU"
  bottom: "inception_4a/5x5_reduce"
  top: "inception_4a/5x5_reduce"
}
layer {
  name: "inception_4a/5x5"
  type: "Convolution"
  bottom: "inception_4a/5x5_reduce"
  top: "inception_4a/5x5"
  param {
    lr_mult: 1
    decay_mult: 1
  }
  param {
    lr_mult: 2
    decay_mult: 0
  }
  convolution_param {
    num_output: 48
    pad: 2
    kernel_size: 5
    weight_filler {
      type: "xavier"
      std: 0.03
    }
    bias_filler {
      type: "constant"
      value: 0.2
    }
  }
}
layer {
  name: "inception_4a/relu_5x5"
  type: "ReLU"
  bottom: "inception_4a/5x5"
  top: "inception_4a/5x5"
}
layer {
  name: "inception_4a/pool"
  type: "Pooling"
  bottom: "pool3/3x3_s2"
  top: "inception_4a/pool"
  pooling_param {
    pool: MAX
    kernel_size: 3
    stride: 1
    pad: 1
  }
}
layer {
  name: "inception_4a/pool_proj"
  type: "Convolution"
  bottom: "inception_4a/pool"
  top: "inception_4a/pool_proj"
  param {
    lr_mult: 1
    decay_mult: 1
  }
  param {
    lr_mult: 2
    decay_mult: 0
  }
  convolution_param {
    num_output: 64
    kernel_size: 1
    weight_filler {
      type: "xavier"
      std: 0.1
    }
    bias_filler {
      type: "constant"
      value: 0.2
    }
  }
}
layer {
  name: "inception_4a/relu_pool_proj"
  type: "ReLU"
  bottom: "inception_4a/pool_proj"
  top: "inception_4a/pool_proj"
}
layer {
  name: "inception_4a/output"
  type: "Concat"
  bottom: "inception_4a/1x1"
  bottom: "inception_4a/3x3"
  bottom: "inception_4a/5x5"
  bottom: "inception_4a/pool_proj"
  top: "inception_4a/output"
}
layer {
  name: "loss1/ave_pool"
  type: "Pooling"
  bottom: "inception_4a/output"
  top: "loss1/ave_pool"
  pooling_param {
    pool: AVE
    kernel_size: 5
    stride: 3
  }
}
layer {
  name: "loss1/conv"
  type: "Convolution"
  bottom: "loss1/ave_pool"
  top: "loss1/conv"
  param {
    lr_mult: 1
    decay_mult: 1
  }
  param {
    lr_mult: 2
    decay_mult: 0
  }
  convolution_param {
    num_output: 128
    kernel_size: 1
    weight_filler {
      type: "xavier"
      std: 0.08
    }
    bias_filler {
      type: "constant"
      value: 0.2
    }
  }
}
layer {
  name: "loss1/relu_conv"
  type: "ReLU"
  bottom: "loss1/conv"
  top: "loss1/conv"
}
layer {
  name: "loss1/fc"
  type: "InnerProduct"
  bottom: "loss1/conv"
  top: "loss1/fc"
  param {
    lr_mult: 1
    decay_mult: 1
  }
  param {
    lr_mult: 2
    decay_mult: 0
  }
  inner_product_param {
    num_output: 1024
    weight_filler {
      type: "xavier"
      std: 0.02
    }
    bias_filler {
      type: "constant"
      value: 0.2
    }
  }
}
layer {
  name: "loss1/relu_fc"
  type: "ReLU"
  bottom: "loss1/fc"
  top: "loss1/fc"
}
layer {
  name: "loss1/drop_fc"
  type: "Dropout"
  bottom: "loss1/fc"
  top: "loss1/fc"
  dropout_param {
    dropout_ratio: 0.7
  }
}
layer {
  name: "loss1/classifier_plantvillage"
  type: "InnerProduct"
  bottom: "loss1/fc"
  top: "loss1/classifier_plantvillage"
  param {
    lr_mult: 1
    decay_mult: 1
  }
  param {
    lr_mult: 2
    decay_mult: 0
  }
  inner_product_param {
    num_output: 38
    weight_filler {
      type: "xavier"
      std: 0.0009765625
    }
    bias_filler {
      type: "constant"
      value: 0
    }
  }
}
layer {
  name: "inception_4b/1x1"
  type: "Convolution"
  bottom: "inception_4a/output"
  top: "inception_4b/1x1"
  param {
    lr_mult: 1
    decay_mult: 1
  }
  param {
    lr_mult: 2
    decay_mult: 0
  }
  convolution_param {
    num_output: 160
    kernel_size: 1
    weight_filler {
      type: "xavier"
      std: 0.03
    }
    bias_filler {
      type: "constant"
      value: 0.2
    }
  }
}
layer {
  name: "inception_4b/relu_1x1"
  type: "ReLU"
  bottom: "inception_4b/1x1"
  top: "inception_4b/1x1"
}
layer {
  name: "inception_4b/3x3_reduce"
  type: "Convolution"
  bottom: "inception_4a/output"
  top: "inception_4b/3x3_reduce"
  param {
    lr_mult: 1
    decay_mult: 1
  }
  param {
    lr_mult: 2
    decay_mult: 0
  }
  convolution_param {
    num_output: 112
    kernel_size: 1
    weight_filler {
      type: "xavier"
      std: 0.09
    }
    bias_filler {
      type: "constant"
      value: 0.2
    }
  }
}
layer {
  name: "inception_4b/relu_3x3_reduce"
  type: "ReLU"
  bottom: "inception_4b/3x3_reduce"
  top: "inception_4b/3x3_reduce"
}
layer {
  name: "inception_4b/3x3"
  type: "Convolution"
  bottom: "inception_4b/3x3_reduce"
  top: "inception_4b/3x3"
  param {
    lr_mult: 1
    decay_mult: 1
  }
  param {
    lr_mult: 2
    decay_mult: 0
  }
  convolution_param {
    num_output: 224
    pad: 1
    kernel_size: 3
    weight_filler {
      type: "xavier"
      std: 0.03
    }
    bias_filler {
      type: "constant"
      value: 0.2
    }
  }
}
layer {
  name: "inception_4b/relu_3x3"
  type: "ReLU"
  bottom: "inception_4b/3x3"
  top: "inception_4b/3x3"
}
layer {
  name: "inception_4b/5x5_reduce"
  type: "Convolution"
  bottom: "inception_4a/output"
  top: "inception_4b/5x5_reduce"
  param {
    lr_mult: 1
    decay_mult: 1
  }
  param {
    lr_mult: 2
    decay_mult: 0
  }
  convolution_param {
    num_output: 24
    kernel_size: 1
    weight_filler {
      type: "xavier"
      std: 0.2
    }
    bias_filler {
      type: "constant"
      value: 0.2
    }
  }
}
layer {
  name: "inception_4b/relu_5x5_reduce"
  type: "ReLU"
  bottom: "inception_4b/5x5_reduce"
  top: "inception_4b/5x5_reduce"
}
layer {
  name: "inception_4b/5x5"
  type: "Convolution"
  bottom: "inception_4b/5x5_reduce"
  top: "inception_4b/5x5"
  param {
    lr_mult: 1
    decay_mult: 1
  }
  param {
    lr_mult: 2
    decay_mult: 0
  }
  convolution_param {
    num_output: 64
    pad: 2
    kernel_size: 5
    weight_filler {
      type: "xavier"
      std: 0.03
    }
    bias_filler {
      type: "constant"
      value: 0.2
    }
  }
}
layer {
  name: "inception_4b/relu_5x5"
  type: "ReLU"
  bottom: "inception_4b/5x5"
  top: "inception_4b/5x5"
}
layer {
  name: "inception_4b/pool"
  type: "Pooling"
  bottom: "inception_4a/output"
  top: "inception_4b/pool"
  pooling_param {
    pool: MAX
    kernel_size: 3
    stride: 1
    pad: 1
  }
}
layer {
  name: "inception_4b/pool_proj"
  type: "Convolution"
  bottom: "inception_4b/pool"
  top: "inception_4b/pool_proj"
  param {
    lr_mult: 1
    decay_mult: 1
  }
  param {
    lr_mult: 2
    decay_mult: 0
  }
  convolution_param {
    num_output: 64
    kernel_size: 1
    weight_filler {
      type: "xavier"
      std: 0.1
    }
    bias_filler {
      type: "constant"
      value: 0.2
    }
  }
}
layer {
  name: "inception_4b/relu_pool_proj"
  type: "ReLU"
  bottom: "inception_4b/pool_proj"
  top: "inception_4b/pool_proj"
}
layer {
  name: "inception_4b/output"
  type: "Concat"
  bottom: "inception_4b/1x1"
  bottom: "inception_4b/3x3"
  bottom: "inception_4b/5x5"
  bottom: "inception_4b/pool_proj"
  top: "inception_4b/output"
}
layer {
  name: "inception_4c/1x1"
  type: "Convolution"
  bottom: "inception_4b/output"
  top: "inception_4c/1x1"
  param {
    lr_mult: 1
    decay_mult: 1
  }
  param {
    lr_mult: 2
    decay_mult: 0
  }
  convolution_param {
    num_output: 128
    kernel_size: 1
    weight_filler {
      type: "xavier"
      std: 0.03
    }
    bias_filler {
      type: "constant"
      value: 0.2
    }
  }
}
layer {
  name: "inception_4c/relu_1x1"
  type: "ReLU"
  bottom: "inception_4c/1x1"
  top: "inception_4c/1x1"
}
layer {
  name: "inception_4c/3x3_reduce"
  type: "Convolution"
  bottom: "inception_4b/output"
  top: "inception_4c/3x3_reduce"
  param {
    lr_mult: 1
    decay_mult: 1
  }
  param {
    lr_mult: 2
    decay_mult: 0
  }
  convolution_param {
    num_output: 128
    kernel_size: 1
    weight_filler {
      type: "xavier"
      std: 0.09
    }
    bias_filler {
      type: "constant"
      value: 0.2
    }
  }
}
layer {
  name: "inception_4c/relu_3x3_reduce"
  type: "ReLU"
  bottom: "inception_4c/3x3_reduce"
  top: "inception_4c/3x3_reduce"
}
layer {
  name: "inception_4c/3x3"
  type: "Convolution"
  bottom: "inception_4c/3x3_reduce"
  top: "inception_4c/3x3"
  param {
    lr_mult: 1
    decay_mult: 1
  }
  param {
    lr_mult: 2
    decay_mult: 0
  }
  convolution_param {
    num_output: 256
    pad: 1
    kernel_size: 3
    weight_filler {
      type: "xavier"
      std: 0.03
    }
    bias_filler {
      type: "constant"
      value: 0.2
    }
  }
}
layer {
  name: "inception_4c/relu_3x3"
  type: "ReLU"
  bottom: "inception_4c/3x3"
  top: "inception_4c/3x3"
}
layer {
  name: "inception_4c/5x5_reduce"
  type: "Convolution"
  bottom: "inception_4b/output"
  top: "inception_4c/5x5_reduce"
  param {
    lr_mult: 1
    decay_mult: 1
  }
  param {
    lr_mult: 2
    decay_mult: 0
  }
  convolution_param {
    num_output: 24
    kernel_size: 1
    weight_filler {
      type: "xavier"
      std: 0.2
    }
    bias_filler {
      type: "constant"
      value: 0.2
    }
  }
}
layer {
  name: "inception_4c/relu_5x5_reduce"
  type: "ReLU"
  bottom: "inception_4c/5x5_reduce"
  top: "inception_4c/5x5_reduce"
}
layer {
  name: "inception_4c/5x5"
  type: "Convolution"
  bottom: "inception_4c/5x5_reduce"
  top: "inception_4c/5x5"
  param {
    lr_mult: 1
    decay_mult: 1
  }
  param {
    lr_mult: 2
    decay_mult: 0
  }
  convolution_param {
    num_output: 64
    pad: 2
    kernel_size: 5
    weight_filler {
      type: "xavier"
      std: 0.03
    }
    bias_filler {
      type: "constant"
      value: 0.2
    }
  }
}
layer {
  name: "inception_4c/relu_5x5"
  type: "ReLU"
  bottom: "inception_4c/5x5"
  top: "inception_4c/5x5"
}
layer {
  name: "inception_4c/pool"
  type: "Pooling"
  bottom: "inception_4b/output"
  top: "inception_4c/pool"
  pooling_param {
    pool: MAX
    kernel_size: 3
    stride: 1
    pad: 1
  }
}
layer {
  name: "inception_4c/pool_proj"
  type: "Convolution"
  bottom: "inception_4c/pool"
  top: "inception_4c/pool_proj"
  param {
    lr_mult: 1
    decay_mult: 1
  }
  param {
    lr_mult: 2
    decay_mult: 0
  }
  convolution_param {
    num_output: 64
    kernel_size: 1
    weight_filler {
      type: "xavier"
      std: 0.1
    }
    bias_filler {
      type: "constant"
      value: 0.2
    }
  }
}
layer {
  name: "inception_4c/relu_pool_proj"
  type: "ReLU"
  bottom: "inception_4c/pool_proj"
  top: "inception_4c/pool_proj"
}
layer {
  name: "inception_4c/output"
  type: "Concat"
  bottom: "inception_4c/1x1"
  bottom: "inception_4c/3x3"
  bottom: "inception_4c/5x5"
  bottom: "inception_4c/pool_proj"
  top: "inception_4c/output"
}
layer {
  name: "inception_4d/1x1"
  type: "Convolution"
  bottom: "inception_4c/output"
  top: "inception_4d/1x1"
  param {
    lr_mult: 1
    decay_mult: 1
  }
  param {
    lr_mult: 2
    decay_mult: 0
  }
  convolution_param {
    num_output: 112
    kernel_size: 1
    weight_filler {
      type: "xavier"
      std: 0.03
    }
    bias_filler {
      type: "constant"
      value: 0.2
    }
  }
}
layer {
  name: "inception_4d/relu_1x1"
  type: "ReLU"
  bottom: "inception_4d/1x1"
  top: "inception_4d/1x1"
}
layer {
  name: "inception_4d/3x3_reduce"
  type: "Convolution"
  bottom: "inception_4c/output"
  top: "inception_4d/3x3_reduce"
  param {
    lr_mult: 1
    decay_mult: 1
  }
  param {
    lr_mult: 2
    decay_mult: 0
  }
  convolution_param {
    num_output: 144
    kernel_size: 1
    weight_filler {
      type: "xavier"
      std: 0.09
    }
    bias_filler {
      type: "constant"
      value: 0.2
    }
  }
}
layer {
  name: "inception_4d/relu_3x3_reduce"
  type: "ReLU"
  bottom: "inception_4d/3x3_reduce"
  top: "inception_4d/3x3_reduce"
}
layer {
  name: "inception_4d/3x3"
  type: "Convolution"
  bottom: "inception_4d/3x3_reduce"
  top: "inception_4d/3x3"
  param {
    lr_mult: 1
    decay_mult: 1
  }
  param {
    lr_mult: 2
    decay_mult: 0
  }
  convolution_param {
    num_output: 288
    pad: 1
    kernel_size: 3
    weight_filler {
      type: "xavier"
      std: 0.03
    }
    bias_filler {
      type: "constant"
      value: 0.2
    }
  }
}
layer {
  name: "inception_4d/relu_3x3"
  type: "ReLU"
  bottom: "inception_4d/3x3"
  top: "inception_4d/3x3"
}
layer {
  name: "inception_4d/5x5_reduce"
  type: "Convolution"
  bottom: "inception_4c/output"
  top: "inception_4d/5x5_reduce"
  param {
    lr_mult: 1
    decay_mult: 1
  }
  param {
    lr_mult: 2
    decay_mult: 0
  }
  convolution_param {
    num_output: 32
    kernel_size: 1
    weight_filler {
      type: "xavier"
      std: 0.2
    }
    bias_filler {
      type: "constant"
      value: 0.2
    }
  }
}
layer {
  name: "inception_4d/relu_5x5_reduce"
  type: "ReLU"
  bottom: "inception_4d/5x5_reduce"
  top: "inception_4d/5x5_reduce"
}
layer {
  name: "inception_4d/5x5"
  type: "Convolution"
  bottom: "inception_4d/5x5_reduce"
  top: "inception_4d/5x5"
  param {
    lr_mult: 1
    decay_mult: 1
  }
  param {
    lr_mult: 2
    decay_mult: 0
  }
  convolution_param {
    num_output: 64
    pad: 2
    kernel_size: 5
    weight_filler {
      type: "xavier"
      std: 0.03
    }
    bias_filler {
      type: "constant"
      value: 0.2
    }
  }
}
layer {
  name: "inception_4d/relu_5x5"
  type: "ReLU"
  bottom: "inception_4d/5x5"
  top: "inception_4d/5x5"
}
layer {
  name: "inception_4d/pool"
  type: "Pooling"
  bottom: "inception_4c/output"
  top: "inception_4d/pool"
  pooling_param {
    pool: MAX
    kernel_size: 3
    stride: 1
    pad: 1
  }
}
layer {
  name: "inception_4d/pool_proj"
  type: "Convolution"
  bottom: "inception_4d/pool"
  top: "inception_4d/pool_proj"
  param {
    lr_mult: 1
    decay_mult: 1
  }
  param {
    lr_mult: 2
    decay_mult: 0
  }
  convolution_param {
    num_output: 64
    kernel_size: 1
    weight_filler {
      type: "xavier"
      std: 0.1
    }
    bias_filler {
      type: "constant"
      value: 0.2
    }
  }
}
layer {
  name: "inception_4d/relu_pool_proj"
  type: "ReLU"
  bottom: "inception_4d/pool_proj"
  top: "inception_4d/pool_proj"
}
layer {
  name: "inception_4d/output"
  type: "Concat"
  bottom: "inception_4d/1x1"
  bottom: "inception_4d/3x3"
  bottom: "inception_4d/5x5"
  bottom: "inception_4d/pool_proj"
  top: "inception_4d/output"
}
layer {
  name: "loss2/ave_pool"
  type: "Pooling"
  bottom: "inception_4d/output"
  top: "loss2/ave_pool"
  pooling_param {
    pool: AVE
    kernel_size: 5
    stride: 3
  }
}
layer {
  name: "loss2/conv"
  type: "Convolution"
  bottom: "loss2/ave_pool"
  top: "loss2/conv"
  param {
    lr_mult: 1
    decay_mult: 1
  }
  param {
    lr_mult: 2
    decay_mult: 0
  }
  convolution_param {
    num_output: 128
    kernel_size: 1
    weight_filler {
      type: "xavier"
      std: 0.08
    }
    bias_filler {
      type: "constant"
      value: 0.2
    }
  }
}
layer {
  name: "loss2/relu_conv"
  type: "ReLU"
  bottom: "loss2/conv"
  top: "loss2/conv"
}
layer {
  name: "loss2/fc"
  type: "InnerProduct"
  bottom: "loss2/conv"
  top: "loss2/fc"
  param {
    lr_mult: 1
    decay_mult: 1
  }
  param {
    lr_mult: 2
    decay_mult: 0
  }
  inner_product_param {
    num_output: 1024
    weight_filler {
      type: "xavier"
      std: 0.02
    }
    bias_filler {
      type: "constant"
      value: 0.2
    }
  }
}
layer {
  name: "loss2/relu_fc"
  type: "ReLU"
  bottom: "loss2/fc"
  top: "loss2/fc"
}
layer {
  name: "loss2/drop_fc"
  type: "Dropout"
  bottom: "loss2/fc"
  top: "loss2/fc"
  dropout_param {
    dropout_ratio: 0.7
  }
}
layer {
  name: "loss2/classifier_plantvillage"
  type: "InnerProduct"
  bottom: "loss2/fc"
  top: "loss2/classifier_plantvillage"
  param {
    lr_mult: 1
    decay_mult: 1
  }
  param {
    lr_mult: 2
    decay_mult: 0
  }
  inner_product_param {
    num_output: 38
    weight_filler {
      type: "xavier"
      std: 0.0009765625
    }
    bias_filler {
      type: "constant"
      value: 0
    }
  }
}
layer {
  name: "inception_4e/1x1"
  type: "Convolution"
  bottom: "inception_4d/output"
  top: "inception_4e/1x1"
  param {
    lr_mult: 1
    decay_mult: 1
  }
  param {
    lr_mult: 2
    decay_mult: 0
  }
  convolution_param {
    num_output: 256
    kernel_size: 1
    weight_filler {
      type: "xavier"
      std: 0.03
    }
    bias_filler {
      type: "constant"
      value: 0.2
    }
  }
}
layer {
  name: "inception_4e/relu_1x1"
  type: "ReLU"
  bottom: "inception_4e/1x1"
  top: "inception_4e/1x1"
}
layer {
  name: "inception_4e/3x3_reduce"
  type: "Convolution"
  bottom: "inception_4d/output"
  top: "inception_4e/3x3_reduce"
  param {
    lr_mult: 1
    decay_mult: 1
  }
  param {
    lr_mult: 2
    decay_mult: 0
  }
  convolution_param {
    num_output: 160
    kernel_size: 1
    weight_filler {
      type: "xavier"
      std: 0.09
    }
    bias_filler {
      type: "constant"
      value: 0.2
    }
  }
}
layer {
  name: "inception_4e/relu_3x3_reduce"
  type: "ReLU"
  bottom: "inception_4e/3x3_reduce"
  top: "inception_4e/3x3_reduce"
}
layer {
  name: "inception_4e/3x3"
  type: "Convolution"
  bottom: "inception_4e/3x3_reduce"
  top: "inception_4e/3x3"
  param {
    lr_mult: 1
    decay_mult: 1
  }
  param {
    lr_mult: 2
    decay_mult: 0
  }
  convolution_param {
    num_output: 320
    pad: 1
    kernel_size: 3
    weight_filler {
      type: "xavier"
      std: 0.03
    }
    bias_filler {
      type: "constant"
      value: 0.2
    }
  }
}
layer {
  name: "inception_4e/relu_3x3"
  type: "ReLU"
  bottom: "inception_4e/3x3"
  top: "inception_4e/3x3"
}
layer {
  name: "inception_4e/5x5_reduce"
  type: "Convolution"
  bottom: "inception_4d/output"
  top: "inception_4e/5x5_reduce"
  param {
    lr_mult: 1
    decay_mult: 1
  }
  param {
    lr_mult: 2
    decay_mult: 0
  }
  convolution_param {
    num_output: 32
    kernel_size: 1
    weight_filler {
      type: "xavier"
      std: 0.2
    }
    bias_filler {
      type: "constant"
      value: 0.2
    }
  }
}
layer {
  name: "inception_4e/relu_5x5_reduce"
  type: "ReLU"
  bottom: "inception_4e/5x5_reduce"
  top: "inception_4e/5x5_reduce"
}
layer {
  name: "inception_4e/5x5"
  type: "Convolution"
  bottom: "inception_4e/5x5_reduce"
  top: "inception_4e/
I0403 19:09:19.585615  8681 layer_factory.hpp:77] Creating layer data
I0403 19:09:19.586210  8681 net.cpp:91] Creating Layer data
I0403 19:09:19.586243  8681 net.cpp:399] data -> data
I0403 19:09:19.586293  8681 net.cpp:399] data -> label
I0403 19:09:19.586328  8681 data_transformer.cpp:25] Loading mean file from: /home/mohanty/data/final_dataset/lmdb/grayscale-50-50/mean.binaryproto
I0403 19:09:19.587385  8684 db_lmdb.cpp:38] Opened lmdb /home/mohanty/data/final_dataset/lmdb/grayscale-50-50/test_db
I0403 19:09:19.599139  8681 data_layer.cpp:41] output data size: 24,3,224,224
I0403 19:09:19.625653  8681 net.cpp:141] Setting up data
I0403 19:09:19.625733  8681 net.cpp:148] Top shape: 24 3 224 224 (3612672)
I0403 19:09:19.625756  8681 net.cpp:148] Top shape: 24 (24)
I0403 19:09:19.625772  8681 net.cpp:156] Memory required for data: 14450784
I0403 19:09:19.625799  8681 layer_factory.hpp:77] Creating layer label_data_1_split
I0403 19:09:19.625828  8681 net.cpp:91] Creating Layer label_data_1_split
I0403 19:09:19.625844  8681 net.cpp:425] label_data_1_split <- label
I0403 19:09:19.625875  8681 net.cpp:399] label_data_1_split -> label_data_1_split_0
I0403 19:09:19.625905  8681 net.cpp:399] label_data_1_split -> label_data_1_split_1
I0403 19:09:19.625926  8681 net.cpp:399] label_data_1_split -> label_data_1_split_2
I0403 19:09:19.625947  8681 net.cpp:399] label_data_1_split -> label_data_1_split_3
I0403 19:09:19.625968  8681 net.cpp:399] label_data_1_split -> label_data_1_split_4
I0403 19:09:19.625988  8681 net.cpp:399] label_data_1_split -> label_data_1_split_5
I0403 19:09:19.626008  8681 net.cpp:399] label_data_1_split -> label_data_1_split_6
I0403 19:09:19.626027  8681 net.cpp:399] label_data_1_split -> label_data_1_split_7
I0403 19:09:19.626046  8681 net.cpp:399] label_data_1_split -> label_data_1_split_8
I0403 19:09:19.626066  8681 net.cpp:399] label_data_1_split -> label_data_1_split_9
I0403 19:09:19.626179  8681 net.cpp:141] Setting up label_data_1_split
I0403 19:09:19.626202  8681 net.cpp:148] Top shape: 24 (24)
I0403 19:09:19.626219  8681 net.cpp:148] Top shape: 24 (24)
I0403 19:09:19.626235  8681 net.cpp:148] Top shape: 24 (24)
I0403 19:09:19.626253  8681 net.cpp:148] Top shape: 24 (24)
I0403 19:09:19.626269  8681 net.cpp:148] Top shape: 24 (24)
I0403 19:09:19.626284  8681 net.cpp:148] Top shape: 24 (24)
I0403 19:09:19.626301  8681 net.cpp:148] Top shape: 24 (24)
I0403 19:09:19.626315  8681 net.cpp:148] Top shape: 24 (24)
I0403 19:09:19.626332  8681 net.cpp:148] Top shape: 24 (24)
I0403 19:09:19.626348  8681 net.cpp:148] Top shape: 24 (24)
I0403 19:09:19.626390  8681 net.cpp:156] Memory required for data: 14451744
I0403 19:09:19.626407  8681 layer_factory.hpp:77] Creating layer conv1/7x7_s2
I0403 19:09:19.626441  8681 net.cpp:91] Creating Layer conv1/7x7_s2
I0403 19:09:19.626459  8681 net.cpp:425] conv1/7x7_s2 <- data
I0403 19:09:19.626478  8681 net.cpp:399] conv1/7x7_s2 -> conv1/7x7_s2
I0403 19:09:19.769096  8681 net.cpp:141] Setting up conv1/7x7_s2
I0403 19:09:19.769179  8681 net.cpp:148] Top shape: 24 64 112 112 (19267584)
I0403 19:09:19.769197  8681 net.cpp:156] Memory required for data: 91522080
I0403 19:09:19.769233  8681 layer_factory.hpp:77] Creating layer conv1/relu_7x7
I0403 19:09:19.769263  8681 net.cpp:91] Creating Layer conv1/relu_7x7
I0403 19:09:19.769282  8681 net.cpp:425] conv1/relu_7x7 <- conv1/7x7_s2
I0403 19:09:19.769302  8681 net.cpp:386] conv1/relu_7x7 -> conv1/7x7_s2 (in-place)
I0403 19:09:19.769562  8681 net.cpp:141] Setting up conv1/relu_7x7
I0403 19:09:19.769589  8681 net.cpp:148] Top shape: 24 64 112 112 (19267584)
I0403 19:09:19.769605  8681 net.cpp:156] Memory required for data: 168592416
I0403 19:09:19.769621  8681 layer_factory.hpp:77] Creating layer pool1/3x3_s2
I0403 19:09:19.769647  8681 net.cpp:91] Creating Layer pool1/3x3_s2
I0403 19:09:19.769665  8681 net.cpp:425] pool1/3x3_s2 <- conv1/7x7_s2
I0403 19:09:19.769685  8681 net.cpp:399] pool1/3x3_s2 -> pool1/3x3_s2
I0403 19:09:19.769759  8681 net.cpp:141] Setting up pool1/3x3_s2
I0403 19:09:19.769783  8681 net.cpp:148] Top shape: 24 64 56 56 (4816896)
I0403 19:09:19.769799  8681 net.cpp:156] Memory required for data: 187860000
I0403 19:09:19.769814  8681 layer_factory.hpp:77] Creating layer pool1/norm1
I0403 19:09:19.769840  8681 net.cpp:91] Creating Layer pool1/norm1
I0403 19:09:19.769858  8681 net.cpp:425] pool1/norm1 <- pool1/3x3_s2
I0403 19:09:19.769878  8681 net.cpp:399] pool1/norm1 -> pool1/norm1
I0403 19:09:19.770174  8681 net.cpp:141] Setting up pool1/norm1
I0403 19:09:19.770202  8681 net.cpp:148] Top shape: 24 64 56 56 (4816896)
I0403 19:09:19.770225  8681 net.cpp:156] Memory required for data: 207127584
I0403 19:09:19.770241  8681 layer_factory.hpp:77] Creating layer conv2/3x3_reduce
I0403 19:09:19.770267  8681 net.cpp:91] Creating Layer conv2/3x3_reduce
I0403 19:09:19.770283  8681 net.cpp:425] conv2/3x3_reduce <- pool1/norm1
I0403 19:09:19.770303  8681 net.cpp:399] conv2/3x3_reduce -> conv2/3x3_reduce
I0403 19:09:19.771646  8681 net.cpp:141] Setting up conv2/3x3_reduce
I0403 19:09:19.771678  8681 net.cpp:148] Top shape: 24 64 56 56 (4816896)
I0403 19:09:19.771695  8681 net.cpp:156] Memory required for data: 226395168
I0403 19:09:19.771718  8681 layer_factory.hpp:77] Creating layer conv2/relu_3x3_reduce
I0403 19:09:19.771736  8681 net.cpp:91] Creating Layer conv2/relu_3x3_reduce
I0403 19:09:19.771754  8681 net.cpp:425] conv2/relu_3x3_reduce <- conv2/3x3_reduce
I0403 19:09:19.771771  8681 net.cpp:386] conv2/relu_3x3_reduce -> conv2/3x3_reduce (in-place)
I0403 19:09:19.772023  8681 net.cpp:141] Setting up conv2/relu_3x3_reduce
I0403 19:09:19.772050  8681 net.cpp:148] Top shape: 24 64 56 56 (4816896)
I0403 19:09:19.772066  8681 net.cpp:156] Memory required for data: 245662752
I0403 19:09:19.772081  8681 layer_factory.hpp:77] Creating layer conv2/3x3
I0403 19:09:19.772104  8681 net.cpp:91] Creating Layer conv2/3x3
I0403 19:09:19.772122  8681 net.cpp:425] conv2/3x3 <- conv2/3x3_reduce
I0403 19:09:19.772141  8681 net.cpp:399] conv2/3x3 -> conv2/3x3
I0403 19:09:19.774387  8681 net.cpp:141] Setting up conv2/3x3
I0403 19:09:19.774420  8681 net.cpp:148] Top shape: 24 192 56 56 (14450688)
I0403 19:09:19.774437  8681 net.cpp:156] Memory required for data: 303465504
I0403 19:09:19.774461  8681 layer_factory.hpp:77] Creating layer conv2/relu_3x3
I0403 19:09:19.774480  8681 net.cpp:91] Creating Layer conv2/relu_3x3
I0403 19:09:19.774497  8681 net.cpp:425] conv2/relu_3x3 <- conv2/3x3
I0403 19:09:19.774516  8681 net.cpp:386] conv2/relu_3x3 -> conv2/3x3 (in-place)
I0403 19:09:19.774680  8681 net.cpp:141] Setting up conv2/relu_3x3
I0403 19:09:19.774708  8681 net.cpp:148] Top shape: 24 192 56 56 (14450688)
I0403 19:09:19.774755  8681 net.cpp:156] Memory required for data: 361268256
I0403 19:09:19.774772  8681 layer_factory.hpp:77] Creating layer conv2/norm2
I0403 19:09:19.774792  8681 net.cpp:91] Creating Layer conv2/norm2
I0403 19:09:19.774811  8681 net.cpp:425] conv2/norm2 <- conv2/3x3
I0403 19:09:19.774830  8681 net.cpp:399] conv2/norm2 -> conv2/norm2
I0403 19:09:19.775116  8681 net.cpp:141] Setting up conv2/norm2
I0403 19:09:19.775144  8681 net.cpp:148] Top shape: 24 192 56 56 (14450688)
I0403 19:09:19.775161  8681 net.cpp:156] Memory required for data: 419071008
I0403 19:09:19.775177  8681 layer_factory.hpp:77] Creating layer pool2/3x3_s2
I0403 19:09:19.775197  8681 net.cpp:91] Creating Layer pool2/3x3_s2
I0403 19:09:19.775219  8681 net.cpp:425] pool2/3x3_s2 <- conv2/norm2
I0403 19:09:19.775239  8681 net.cpp:399] pool2/3x3_s2 -> pool2/3x3_s2
I0403 19:09:19.775290  8681 net.cpp:141] Setting up pool2/3x3_s2
I0403 19:09:19.775312  8681 net.cpp:148] Top shape: 24 192 28 28 (3612672)
I0403 19:09:19.775327  8681 net.cpp:156] Memory required for data: 433521696
I0403 19:09:19.775343  8681 layer_factory.hpp:77] Creating layer pool2/3x3_s2_pool2/3x3_s2_0_split
I0403 19:09:19.775362  8681 net.cpp:91] Creating Layer pool2/3x3_s2_pool2/3x3_s2_0_split
I0403 19:09:19.775377  8681 net.cpp:425] pool2/3x3_s2_pool2/3x3_s2_0_split <- pool2/3x3_s2
I0403 19:09:19.775395  8681 net.cpp:399] pool2/3x3_s2_pool2/3x3_s2_0_split -> pool2/3x3_s2_pool2/3x3_s2_0_split_0
I0403 19:09:19.775415  8681 net.cpp:399] pool2/3x3_s2_pool2/3x3_s2_0_split -> pool2/3x3_s2_pool2/3x3_s2_0_split_1
I0403 19:09:19.775435  8681 net.cpp:399] pool2/3x3_s2_pool2/3x3_s2_0_split -> pool2/3x3_s2_pool2/3x3_s2_0_split_2
I0403 19:09:19.775456  8681 net.cpp:399] pool2/3x3_s2_pool2/3x3_s2_0_split -> pool2/3x3_s2_pool2/3x3_s2_0_split_3
I0403 19:09:19.775522  8681 net.cpp:141] Setting up pool2/3x3_s2_pool2/3x3_s2_0_split
I0403 19:09:19.775545  8681 net.cpp:148] Top shape: 24 192 28 28 (3612672)
I0403 19:09:19.775563  8681 net.cpp:148] Top shape: 24 192 28 28 (3612672)
I0403 19:09:19.775578  8681 net.cpp:148] Top shape: 24 192 28 28 (3612672)
I0403 19:09:19.775595  8681 net.cpp:148] Top shape: 24 192 28 28 (3612672)
I0403 19:09:19.775609  8681 net.cpp:156] Memory required for data: 491324448
I0403 19:09:19.775624  8681 layer_factory.hpp:77] Creating layer inception_3a/1x1
I0403 19:09:19.775645  8681 net.cpp:91] Creating Layer inception_3a/1x1
I0403 19:09:19.775663  8681 net.cpp:425] inception_3a/1x1 <- pool2/3x3_s2_pool2/3x3_s2_0_split_0
I0403 19:09:19.775682  8681 net.cpp:399] inception_3a/1x1 -> inception_3a/1x1
I0403 19:09:19.777175  8681 net.cpp:141] Setting up inception_3a/1x1
I0403 19:09:19.777205  8681 net.cpp:148] Top shape: 24 64 28 28 (1204224)
I0403 19:09:19.777228  8681 net.cpp:156] Memory required for data: 496141344
I0403 19:09:19.777248  8681 layer_factory.hpp:77] Creating layer inception_3a/relu_1x1
I0403 19:09:19.777269  8681 net.cpp:91] Creating Layer inception_3a/relu_1x1
I0403 19:09:19.777287  8681 net.cpp:425] inception_3a/relu_1x1 <- inception_3a/1x1
I0403 19:09:19.777304  8681 net.cpp:386] inception_3a/relu_1x1 -> inception_3a/1x1 (in-place)
I0403 19:09:19.777484  8681 net.cpp:141] Setting up inception_3a/relu_1x1
I0403 19:09:19.777513  8681 net.cpp:148] Top shape: 24 64 28 28 (1204224)
I0403 19:09:19.777529  8681 net.cpp:156] Memory required for data: 500958240
I0403 19:09:19.777544  8681 layer_factory.hpp:77] Creating layer inception_3a/3x3_reduce
I0403 19:09:19.777567  8681 net.cpp:91] Creating Layer inception_3a/3x3_reduce
I0403 19:09:19.777590  8681 net.cpp:425] inception_3a/3x3_reduce <- pool2/3x3_s2_pool2/3x3_s2_0_split_1
I0403 19:09:19.777611  8681 net.cpp:399] inception_3a/3x3_reduce -> inception_3a/3x3_reduce
I0403 19:09:19.779284  8681 net.cpp:141] Setting up inception_3a/3x3_reduce
I0403 19:09:19.779314  8681 net.cpp:148] Top shape: 24 96 28 28 (1806336)
I0403 19:09:19.779330  8681 net.cpp:156] Memory required for data: 508183584
I0403 19:09:19.779353  8681 layer_factory.hpp:77] Creating layer inception_3a/relu_3x3_reduce
I0403 19:09:19.779388  8681 net.cpp:91] Creating Layer inception_3a/relu_3x3_reduce
I0403 19:09:19.779405  8681 net.cpp:425] inception_3a/relu_3x3_reduce <- inception_3a/3x3_reduce
I0403 19:09:19.779427  8681 net.cpp:386] inception_3a/relu_3x3_reduce -> inception_3a/3x3_reduce (in-place)
I0403 19:09:19.779603  8681 net.cpp:141] Setting up inception_3a/relu_3x3_reduce
I0403 19:09:19.779629  8681 net.cpp:148] Top shape: 24 96 28 28 (1806336)
I0403 19:09:19.779644  8681 net.cpp:156] Memory required for data: 515408928
I0403 19:09:19.779660  8681 layer_factory.hpp:77] Creating layer inception_3a/3x3
I0403 19:09:19.779686  8681 net.cpp:91] Creating Layer inception_3a/3x3
I0403 19:09:19.779705  8681 net.cpp:425] inception_3a/3x3 <- inception_3a/3x3_reduce
I0403 19:09:19.779727  8681 net.cpp:399] inception_3a/3x3 -> inception_3a/3x3
I0403 19:09:19.781361  8681 net.cpp:141] Setting up inception_3a/3x3
I0403 19:09:19.781390  8681 net.cpp:148] Top shape: 24 128 28 28 (2408448)
I0403 19:09:19.781409  8681 net.cpp:156] Memory required for data: 525042720
I0403 19:09:19.781431  8681 layer_factory.hpp:77] Creating layer inception_3a/relu_3x3
I0403 19:09:19.781450  8681 net.cpp:91] Creating Layer inception_3a/relu_3x3
I0403 19:09:19.781466  8681 net.cpp:425] inception_3a/relu_3x3 <- inception_3a/3x3
I0403 19:09:19.781484  8681 net.cpp:386] inception_3a/relu_3x3 -> inception_3a/3x3 (in-place)
I0403 19:09:19.781754  8681 net.cpp:141] Setting up inception_3a/relu_3x3
I0403 19:09:19.781782  8681 net.cpp:148] Top shape: 24 128 28 28 (2408448)
I0403 19:09:19.781798  8681 net.cpp:156] Memory required for data: 534676512
I0403 19:09:19.781813  8681 layer_factory.hpp:77] Creating layer inception_3a/5x5_reduce
I0403 19:09:19.781836  8681 net.cpp:91] Creating Layer inception_3a/5x5_reduce
I0403 19:09:19.781853  8681 net.cpp:425] inception_3a/5x5_reduce <- pool2/3x3_s2_pool2/3x3_s2_0_split_2
I0403 19:09:19.781873  8681 net.cpp:399] inception_3a/5x5_reduce -> inception_3a/5x5_reduce
I0403 19:09:19.782822  8681 net.cpp:141] Setting up inception_3a/5x5_reduce
I0403 19:09:19.782852  8681 net.cpp:148] Top shape: 24 16 28 28 (301056)
I0403 19:09:19.782871  8681 net.cpp:156] Memory required for data: 535880736
I0403 19:09:19.782888  8681 layer_factory.hpp:77] Creating layer inception_3a/relu_5x5_reduce
I0403 19:09:19.782907  8681 net.cpp:91] Creating Layer inception_3a/relu_5x5_reduce
I0403 19:09:19.782922  8681 net.cpp:425] inception_3a/relu_5x5_reduce <- inception_3a/5x5_reduce
I0403 19:09:19.782943  8681 net.cpp:386] inception_3a/relu_5x5_reduce -> inception_3a/5x5_reduce (in-place)
I0403 19:09:19.783236  8681 net.cpp:141] Setting up inception_3a/relu_5x5_reduce
I0403 19:09:19.783262  8681 net.cpp:148] Top shape: 24 16 28 28 (301056)
I0403 19:09:19.783277  8681 net.cpp:156] Memory required for data: 537084960
I0403 19:09:19.783291  8681 layer_factory.hpp:77] Creating layer inception_3a/5x5
I0403 19:09:19.783314  8681 net.cpp:91] Creating Layer inception_3a/5x5
I0403 19:09:19.783332  8681 net.cpp:425] inception_3a/5x5 <- inception_3a/5x5_reduce
I0403 19:09:19.783354  8681 net.cpp:399] inception_3a/5x5 -> inception_3a/5x5
I0403 19:09:19.784356  8681 net.cpp:141] Setting up inception_3a/5x5
I0403 19:09:19.784384  8681 net.cpp:148] Top shape: 24 32 28 28 (602112)
I0403 19:09:19.784399  8681 net.cpp:156] Memory required for data: 539493408
I0403 19:09:19.784418  8681 layer_factory.hpp:77] Creating layer inception_3a/relu_5x5
I0403 19:09:19.784438  8681 net.cpp:91] Creating Layer inception_3a/relu_5x5
I0403 19:09:19.784456  8681 net.cpp:425] inception_3a/relu_5x5 <- inception_3a/5x5
I0403 19:09:19.784474  8681 net.cpp:386] inception_3a/relu_5x5 -> inception_3a/5x5 (in-place)
I0403 19:09:19.784648  8681 net.cpp:141] Setting up inception_3a/relu_5x5
I0403 19:09:19.784672  8681 net.cpp:148] Top shape: 24 32 28 28 (602112)
I0403 19:09:19.784687  8681 net.cpp:156] Memory required for data: 541901856
I0403 19:09:19.784703  8681 layer_factory.hpp:77] Creating layer inception_3a/pool
I0403 19:09:19.784720  8681 net.cpp:91] Creating Layer inception_3a/pool
I0403 19:09:19.784749  8681 net.cpp:425] inception_3a/pool <- pool2/3x3_s2_pool2/3x3_s2_0_split_3
I0403 19:09:19.784771  8681 net.cpp:399] inception_3a/pool -> inception_3a/pool
I0403 19:09:19.784828  8681 net.cpp:141] Setting up inception_3a/pool
I0403 19:09:19.784852  8681 net.cpp:148] Top shape: 24 192 28 28 (3612672)
I0403 19:09:19.784867  8681 net.cpp:156] Memory required for data: 556352544
I0403 19:09:19.784880  8681 layer_factory.hpp:77] Creating layer inception_3a/pool_proj
I0403 19:09:19.784905  8681 net.cpp:91] Creating Layer inception_3a/pool_proj
I0403 19:09:19.784924  8681 net.cpp:425] inception_3a/pool_proj <- inception_3a/pool
I0403 19:09:19.784942  8681 net.cpp:399] inception_3a/pool_proj -> inception_3a/pool_proj
I0403 19:09:19.785898  8681 net.cpp:141] Setting up inception_3a/pool_proj
I0403 19:09:19.785926  8681 net.cpp:148] Top shape: 24 32 28 28 (602112)
I0403 19:09:19.785941  8681 net.cpp:156] Memory required for data: 558760992
I0403 19:09:19.785965  8681 layer_factory.hpp:77] Creating layer inception_3a/relu_pool_proj
I0403 19:09:19.785985  8681 net.cpp:91] Creating Layer inception_3a/relu_pool_proj
I0403 19:09:19.786001  8681 net.cpp:425] inception_3a/relu_pool_proj <- inception_3a/pool_proj
I0403 19:09:19.786020  8681 net.cpp:386] inception_3a/relu_pool_proj -> inception_3a/pool_proj (in-place)
I0403 19:09:19.786296  8681 net.cpp:141] Setting up inception_3a/relu_pool_proj
I0403 19:09:19.786322  8681 net.cpp:148] Top shape: 24 32 28 28 (602112)
I0403 19:09:19.786337  8681 net.cpp:156] Memory required for data: 561169440
I0403 19:09:19.786352  8681 layer_factory.hpp:77] Creating layer inception_3a/output
I0403 19:09:19.786376  8681 net.cpp:91] Creating Layer inception_3a/output
I0403 19:09:19.786393  8681 net.cpp:425] inception_3a/output <- inception_3a/1x1
I0403 19:09:19.786411  8681 net.cpp:425] inception_3a/output <- inception_3a/3x3
I0403 19:09:19.786427  8681 net.cpp:425] inception_3a/output <- inception_3a/5x5
I0403 19:09:19.786443  8681 net.cpp:425] inception_3a/output <- inception_3a/pool_proj
I0403 19:09:19.786460  8681 net.cpp:399] inception_3a/output -> inception_3a/output
I0403 19:09:19.786507  8681 net.cpp:141] Setting up inception_3a/output
I0403 19:09:19.786530  8681 net.cpp:148] Top shape: 24 256 28 28 (4816896)
I0403 19:09:19.786545  8681 net.cpp:156] Memory required for data: 580437024
I0403 19:09:19.786561  8681 layer_factory.hpp:77] Creating layer inception_3a/output_inception_3a/output_0_split
I0403 19:09:19.786577  8681 net.cpp:91] Creating Layer inception_3a/output_inception_3a/output_0_split
I0403 19:09:19.786592  8681 net.cpp:425] inception_3a/output_inception_3a/output_0_split <- inception_3a/output
I0403 19:09:19.786612  8681 net.cpp:399] inception_3a/output_inception_3a/output_0_split -> inception_3a/output_inception_3a/output_0_split_0
I0403 19:09:19.786634  8681 net.cpp:399] inception_3a/output_inception_3a/output_0_split -> inception_3a/output_inception_3a/output_0_split_1
I0403 19:09:19.786659  8681 net.cpp:399] inception_3a/output_inception_3a/output_0_split -> inception_3a/output_inception_3a/output_0_split_2
I0403 19:09:19.786681  8681 net.cpp:399] inception_3a/output_inception_3a/output_0_split -> inception_3a/output_inception_3a/output_0_split_3
I0403 19:09:19.786753  8681 net.cpp:141] Setting up inception_3a/output_inception_3a/output_0_split
I0403 19:09:19.786777  8681 net.cpp:148] Top shape: 24 256 28 28 (4816896)
I0403 19:09:19.786795  8681 net.cpp:148] Top shape: 24 256 28 28 (4816896)
I0403 19:09:19.786813  8681 net.cpp:148] Top shape: 24 256 28 28 (4816896)
I0403 19:09:19.786828  8681 net.cpp:148] Top shape: 24 256 28 28 (4816896)
I0403 19:09:19.786842  8681 net.cpp:156] Memory required for data: 657507360
I0403 19:09:19.786857  8681 layer_factory.hpp:77] Creating layer inception_3b/1x1
I0403 19:09:19.786877  8681 net.cpp:91] Creating Layer inception_3b/1x1
I0403 19:09:19.786895  8681 net.cpp:425] inception_3b/1x1 <- inception_3a/output_inception_3a/output_0_split_0
I0403 19:09:19.786916  8681 net.cpp:399] inception_3b/1x1 -> inception_3b/1x1
I0403 19:09:19.788036  8681 net.cpp:141] Setting up inception_3b/1x1
I0403 19:09:19.788075  8681 net.cpp:148] Top shape: 24 128 28 28 (2408448)
I0403 19:09:19.788091  8681 net.cpp:156] Memory required for data: 667141152
I0403 19:09:19.788110  8681 layer_factory.hpp:77] Creating layer inception_3b/relu_1x1
I0403 19:09:19.788131  8681 net.cpp:91] Creating Layer inception_3b/relu_1x1
I0403 19:09:19.788147  8681 net.cpp:425] inception_3b/relu_1x1 <- inception_3b/1x1
I0403 19:09:19.788166  8681 net.cpp:386] inception_3b/relu_1x1 -> inception_3b/1x1 (in-place)
I0403 19:09:19.788346  8681 net.cpp:141] Setting up inception_3b/relu_1x1
I0403 19:09:19.788372  8681 net.cpp:148] Top shape: 24 128 28 28 (2408448)
I0403 19:09:19.788388  8681 net.cpp:156] Memory required for data: 676774944
I0403 19:09:19.788403  8681 layer_factory.hpp:77] Creating layer inception_3b/3x3_reduce
I0403 19:09:19.788425  8681 net.cpp:91] Creating Layer inception_3b/3x3_reduce
I0403 19:09:19.788444  8681 net.cpp:425] inception_3b/3x3_reduce <- inception_3a/output_inception_3a/output_0_split_1
I0403 19:09:19.788463  8681 net.cpp:399] inception_3b/3x3_reduce -> inception_3b/3x3_reduce
I0403 19:09:19.789577  8681 net.cpp:141] Setting up inception_3b/3x3_reduce
I0403 19:09:19.789604  8681 net.cpp:148] Top shape: 24 128 28 28 (2408448)
I0403 19:09:19.789620  8681 net.cpp:156] Memory required for data: 686408736
I0403 19:09:19.789638  8681 layer_factory.hpp:77] Creating layer inception_3b/relu_3x3_reduce
I0403 19:09:19.789659  8681 net.cpp:91] Creating Layer inception_3b/relu_3x3_reduce
I0403 19:09:19.789676  8681 net.cpp:425] inception_3b/relu_3x3_reduce <- inception_3b/3x3_reduce
I0403 19:09:19.789693  8681 net.cpp:386] inception_3b/relu_3x3_reduce -> inception_3b/3x3_reduce (in-place)
I0403 19:09:19.789863  8681 net.cpp:141] Setting up inception_3b/relu_3x3_reduce
I0403 19:09:19.789894  8681 net.cpp:148] Top shape: 24 128 28 28 (2408448)
I0403 19:09:19.789911  8681 net.cpp:156] Memory required for data: 696042528
I0403 19:09:19.789926  8681 layer_factory.hpp:77] Creating layer inception_3b/3x3
I0403 19:09:19.789949  8681 net.cpp:91] Creating Layer inception_3b/3x3
I0403 19:09:19.789968  8681 net.cpp:425] inception_3b/3x3 <- inception_3b/3x3_reduce
I0403 19:09:19.789989  8681 net.cpp:399] inception_3b/3x3 -> inception_3b/3x3
I0403 19:09:19.792855  8681 net.cpp:141] Setting up inception_3b/3x3
I0403 19:09:19.792882  8681 net.cpp:148] Top shape: 24 192 28 28 (3612672)
I0403 19:09:19.792898  8681 net.cpp:156] Memory required for data: 710493216
I0403 19:09:19.792919  8681 layer_factory.hpp:77] Creating layer inception_3b/relu_3x3
I0403 19:09:19.792937  8681 net.cpp:91] Creating Layer inception_3b/relu_3x3
I0403 19:09:19.792953  8681 net.cpp:425] inception_3b/relu_3x3 <- inception_3b/3x3
I0403 19:09:19.792970  8681 net.cpp:386] inception_3b/relu_3x3 -> inception_3b/3x3 (in-place)
I0403 19:09:19.793256  8681 net.cpp:141] Setting up inception_3b/relu_3x3
I0403 19:09:19.793289  8681 net.cpp:148] Top shape: 24 192 28 28 (3612672)
I0403 19:09:19.793304  8681 net.cpp:156] Memory required for data: 724943904
I0403 19:09:19.793319  8681 layer_factory.hpp:77] Creating layer inception_3b/5x5_reduce
I0403 19:09:19.793345  8681 net.cpp:91] Creating Layer inception_3b/5x5_reduce
I0403 19:09:19.793364  8681 net.cpp:425] inception_3b/5x5_reduce <- inception_3a/output_inception_3a/output_0_split_2
I0403 19:09:19.793382  8681 net.cpp:399] inception_3b/5x5_reduce -> inception_3b/5x5_reduce
I0403 19:09:19.794351  8681 net.cpp:141] Setting up inception_3b/5x5_reduce
I0403 19:09:19.794379  8681 net.cpp:148] Top shape: 24 32 28 28 (602112)
I0403 19:09:19.794395  8681 net.cpp:156] Memory required for data: 727352352
I0403 19:09:19.794414  8681 layer_factory.hpp:77] Creating layer inception_3b/relu_5x5_reduce
I0403 19:09:19.794433  8681 net.cpp:91] Creating Layer inception_3b/relu_5x5_reduce
I0403 19:09:19.794450  8681 net.cpp:425] inception_3b/relu_5x5_reduce <- inception_3b/5x5_reduce
I0403 19:09:19.794471  8681 net.cpp:386] inception_3b/relu_5x5_reduce -> inception_3b/5x5_reduce (in-place)
I0403 19:09:19.794663  8681 net.cpp:141] Setting up inception_3b/relu_5x5_reduce
I0403 19:09:19.794688  8681 net.cpp:148] Top shape: 24 32 28 28 (602112)
I0403 19:09:19.794703  8681 net.cpp:156] Memory required for data: 729760800
I0403 19:09:19.794718  8681 layer_factory.hpp:77] Creating layer inception_3b/5x5
I0403 19:09:19.794739  8681 net.cpp:91] Creating Layer inception_3b/5x5
I0403 19:09:19.794757  8681 net.cpp:425] inception_3b/5x5 <- inception_3b/5x5_reduce
I0403 19:09:19.794778  8681 net.cpp:399] inception_3b/5x5 -> inception_3b/5x5
I0403 19:09:19.796711  8681 net.cpp:141] Setting up inception_3b/5x5
I0403 19:09:19.796741  8681 net.cpp:148] Top shape: 24 96 28 28 (1806336)
I0403 19:09:19.796756  8681 net.cpp:156] Memory required for data: 736986144
I0403 19:09:19.796775  8681 layer_factory.hpp:77] Creating layer inception_3b/relu_5x5
I0403 19:09:19.796795  8681 net.cpp:91] Creating Layer inception_3b/relu_5x5
I0403 19:09:19.796813  8681 net.cpp:425] inception_3b/relu_5x5 <- inception_3b/5x5
I0403 19:09:19.796829  8681 net.cpp:386] inception_3b/relu_5x5 -> inception_3b/5x5 (in-place)
I0403 19:09:19.797024  8681 net.cpp:141] Setting up inception_3b/relu_5x5
I0403 19:09:19.797049  8681 net.cpp:148] Top shape: 24 96 28 28 (1806336)
I0403 19:09:19.797063  8681 net.cpp:156] Memory required for data: 744211488
I0403 19:09:19.797078  8681 layer_factory.hpp:77] Creating layer inception_3b/pool
I0403 19:09:19.797096  8681 net.cpp:91] Creating Layer inception_3b/pool
I0403 19:09:19.797112  8681 net.cpp:425] inception_3b/pool <- inception_3a/output_inception_3a/output_0_split_3
I0403 19:09:19.797132  8681 net.cpp:399] inception_3b/pool -> inception_3b/pool
I0403 19:09:19.797186  8681 net.cpp:141] Setting up inception_3b/pool
I0403 19:09:19.797212  8681 net.cpp:148] Top shape: 24 256 28 28 (4816896)
I0403 19:09:19.797229  8681 net.cpp:156] Memory required for data: 763479072
I0403 19:09:19.797243  8681 layer_factory.hpp:77] Creating layer inception_3b/pool_proj
I0403 19:09:19.797266  8681 net.cpp:91] Creating Layer inception_3b/pool_proj
I0403 19:09:19.797284  8681 net.cpp:425] inception_3b/pool_proj <- inception_3b/pool
I0403 19:09:19.797307  8681 net.cpp:399] inception_3b/pool_proj -> inception_3b/pool_proj
I0403 19:09:19.798351  8681 net.cpp:141] Setting up inception_3b/pool_proj
I0403 19:09:19.798378  8681 net.cpp:148] Top shape: 24 64 28 28 (1204224)
I0403 19:09:19.798394  8681 net.cpp:156] Memory required for data: 768295968
I0403 19:09:19.798413  8681 layer_factory.hpp:77] Creating layer inception_3b/relu_pool_proj
I0403 19:09:19.798431  8681 net.cpp:91] Creating Layer inception_3b/relu_pool_proj
I0403 19:09:19.798447  8681 net.cpp:425] inception_3b/relu_pool_proj <- inception_3b/pool_proj
I0403 19:09:19.798470  8681 net.cpp:386] inception_3b/relu_pool_proj -> inception_3b/pool_proj (in-place)
I0403 19:09:19.798867  8681 net.cpp:141] Setting up inception_3b/relu_pool_proj
I0403 19:09:19.798897  8681 net.cpp:148] Top shape: 24 64 28 28 (1204224)
I0403 19:09:19.798913  8681 net.cpp:156] Memory required for data: 773112864
I0403 19:09:19.798929  8681 layer_factory.hpp:77] Creating layer inception_3b/output
I0403 19:09:19.798948  8681 net.cpp:91] Creating Layer inception_3b/output
I0403 19:09:19.798964  8681 net.cpp:425] inception_3b/output <- inception_3b/1x1
I0403 19:09:19.798982  8681 net.cpp:425] inception_3b/output <- inception_3b/3x3
I0403 19:09:19.798998  8681 net.cpp:425] inception_3b/output <- inception_3b/5x5
I0403 19:09:19.799015  8681 net.cpp:425] inception_3b/output <- inception_3b/pool_proj
I0403 19:09:19.799047  8681 net.cpp:399] inception_3b/output -> inception_3b/output
I0403 19:09:19.799090  8681 net.cpp:141] Setting up inception_3b/output
I0403 19:09:19.799113  8681 net.cpp:148] Top shape: 24 480 28 28 (9031680)
I0403 19:09:19.799127  8681 net.cpp:156] Memory required for data: 809239584
I0403 19:09:19.799142  8681 layer_factory.hpp:77] Creating layer pool3/3x3_s2
I0403 19:09:19.799162  8681 net.cpp:91] Creating Layer pool3/3x3_s2
I0403 19:09:19.799180  8681 net.cpp:425] pool3/3x3_s2 <- inception_3b/output
I0403 19:09:19.799216  8681 net.cpp:399] pool3/3x3_s2 -> pool3/3x3_s2
I0403 19:09:19.799276  8681 net.cpp:141] Setting up pool3/3x3_s2
I0403 19:09:19.799300  8681 net.cpp:148] Top shape: 24 480 14 14 (2257920)
I0403 19:09:19.799326  8681 net.cpp:156] Memory required for data: 818271264
I0403 19:09:19.799341  8681 layer_factory.hpp:77] Creating layer pool3/3x3_s2_pool3/3x3_s2_0_split
I0403 19:09:19.799357  8681 net.cpp:91] Creating Layer pool3/3x3_s2_pool3/3x3_s2_0_split
I0403 19:09:19.799372  8681 net.cpp:425] pool3/3x3_s2_pool3/3x3_s2_0_split <- pool3/3x3_s2
I0403 19:09:19.799392  8681 net.cpp:399] pool3/3x3_s2_pool3/3x3_s2_0_split -> pool3/3x3_s2_pool3/3x3_s2_0_split_0
I0403 19:09:19.799412  8681 net.cpp:399] pool3/3x3_s2_pool3/3x3_s2_0_split -> pool3/3x3_s2_pool3/3x3_s2_0_split_1
I0403 19:09:19.799432  8681 net.cpp:399] pool3/3x3_s2_pool3/3x3_s2_0_split -> pool3/3x3_s2_pool3/3x3_s2_0_split_2
I0403 19:09:19.799450  8681 net.cpp:399] pool3/3x3_s2_pool3/3x3_s2_0_split -> pool3/3x3_s2_pool3/3x3_s2_0_split_3
I0403 19:09:19.799525  8681 net.cpp:141] Setting up pool3/3x3_s2_pool3/3x3_s2_0_split
I0403 19:09:19.799546  8681 net.cpp:148] Top shape: 24 480 14 14 (2257920)
I0403 19:09:19.799562  8681 net.cpp:148] Top shape: 24 480 14 14 (2257920)
I0403 19:09:19.799577  8681 net.cpp:148] Top shape: 24 480 14 14 (2257920)
I0403 19:09:19.799593  8681 net.cpp:148] Top shape: 24 480 14 14 (2257920)
I0403 19:09:19.799607  8681 net.cpp:156] Memory required for data: 854397984
I0403 19:09:19.799620  8681 layer_factory.hpp:77] Creating layer inception_4a/1x1
I0403 19:09:19.799643  8681 net.cpp:91] Creating Layer inception_4a/1x1
I0403 19:09:19.799659  8681 net.cpp:425] inception_4a/1x1 <- pool3/3x3_s2_pool3/3x3_s2_0_split_0
I0403 19:09:19.799679  8681 net.cpp:399] inception_4a/1x1 -> inception_4a/1x1
I0403 19:09:19.801180  8681 net.cpp:141] Setting up inception_4a/1x1
I0403 19:09:19.801208  8681 net.cpp:148] Top shape: 24 192 14 14 (903168)
I0403 19:09:19.801228  8681 net.cpp:156] Memory required for data: 858010656
I0403 19:09:19.801245  8681 layer_factory.hpp:77] Creating layer inception_4a/relu_1x1
I0403 19:09:19.801264  8681 net.cpp:91] Creating Layer inception_4a/relu_1x1
I0403 19:09:19.801278  8681 net.cpp:425] inception_4a/relu_1x1 <- inception_4a/1x1
I0403 19:09:19.801298  8681 net.cpp:386] inception_4a/relu_1x1 -> inception_4a/1x1 (in-place)
I0403 19:09:19.801471  8681 net.cpp:141] Setting up inception_4a/relu_1x1
I0403 19:09:19.801496  8681 net.cpp:148] Top shape: 24 192 14 14 (903168)
I0403 19:09:19.801511  8681 net.cpp:156] Memory required for data: 861623328
I0403 19:09:19.801525  8681 layer_factory.hpp:77] Creating layer inception_4a/3x3_reduce
I0403 19:09:19.801547  8681 net.cpp:91] Creating Layer inception_4a/3x3_reduce
I0403 19:09:19.801563  8681 net.cpp:425] inception_4a/3x3_reduce <- pool3/3x3_s2_pool3/3x3_s2_0_split_1
I0403 19:09:19.801584  8681 net.cpp:399] inception_4a/3x3_reduce -> inception_4a/3x3_reduce
I0403 19:09:19.802836  8681 net.cpp:141] Setting up inception_4a/3x3_reduce
I0403 19:09:19.802865  8681 net.cpp:148] Top shape: 24 96 14 14 (451584)
I0403 19:09:19.802880  8681 net.cpp:156] Memory required for data: 863429664
I0403 19:09:19.802903  8681 layer_factory.hpp:77] Creating layer inception_4a/relu_3x3_reduce
I0403 19:09:19.802922  8681 net.cpp:91] Creating Layer inception_4a/relu_3x3_reduce
I0403 19:09:19.802938  8681 net.cpp:425] inception_4a/relu_3x3_reduce <- inception_4a/3x3_reduce
I0403 19:09:19.802958  8681 net.cpp:386] inception_4a/relu_3x3_reduce -> inception_4a/3x3_reduce (in-place)
I0403 19:09:19.803123  8681 net.cpp:141] Setting up inception_4a/relu_3x3_reduce
I0403 19:09:19.803148  8681 net.cpp:148] Top shape: 24 96 14 14 (451584)
I0403 19:09:19.803161  8681 net.cpp:156] Memory required for data: 865236000
I0403 19:09:19.803175  8681 layer_factory.hpp:77] Creating layer inception_4a/3x3
I0403 19:09:19.803196  8681 net.cpp:91] Creating Layer inception_4a/3x3
I0403 19:09:19.803217  8681 net.cpp:425] inception_4a/3x3 <- inception_4a/3x3_reduce
I0403 19:09:19.803241  8681 net.cpp:399] inception_4a/3x3 -> inception_4a/3x3
I0403 19:09:19.805804  8681 net.cpp:141] Setting up inception_4a/3x3
I0403 19:09:19.805832  8681 net.cpp:148] Top shape: 24 208 14 14 (978432)
I0403 19:09:19.805848  8681 net.cpp:156] Memory required for data: 869149728
I0403 19:09:19.805866  8681 layer_factory.hpp:77] Creating layer inception_4a/relu_3x3
I0403 19:09:19.805886  8681 net.cpp:91] Creating Layer inception_4a/relu_3x3
I0403 19:09:19.805902  8681 net.cpp:425] inception_4a/relu_3x3 <- inception_4a/3x3
I0403 19:09:19.805919  8681 net.cpp:386] inception_4a/relu_3x3 -> inception_4a/3x3 (in-place)
I0403 19:09:19.806185  8681 net.cpp:141] Setting up inception_4a/relu_3x3
I0403 19:09:19.806212  8681 net.cpp:148] Top shape: 24 208 14 14 (978432)
I0403 19:09:19.806229  8681 net.cpp:156] Memory required for data: 873063456
I0403 19:09:19.806243  8681 layer_factory.hpp:77] Creating layer inception_4a/5x5_reduce
I0403 19:09:19.806267  8681 net.cpp:91] Creating Layer inception_4a/5x5_reduce
I0403 19:09:19.806283  8681 net.cpp:425] inception_4a/5x5_reduce <- pool3/3x3_s2_pool3/3x3_s2_0_split_2
I0403 19:09:19.806306  8681 net.cpp:399] inception_4a/5x5_reduce -> inception_4a/5x5_reduce
I0403 19:09:19.807271  8681 net.cpp:141] Setting up inception_4a/5x5_reduce
I0403 19:09:19.807297  8681 net.cpp:148] Top shape: 24 16 14 14 (75264)
I0403 19:09:19.807313  8681 net.cpp:156] Memory required for data: 873364512
I0403 19:09:19.807330  8681 layer_factory.hpp:77] Creating layer inception_4a/relu_5x5_reduce
I0403 19:09:19.807350  8681 net.cpp:91] Creating Layer inception_4a/relu_5x5_reduce
I0403 19:09:19.807366  8681 net.cpp:425] inception_4a/relu_5x5_reduce <- inception_4a/5x5_reduce
I0403 19:09:19.807384  8681 net.cpp:386] inception_4a/relu_5x5_reduce -> inception_4a/5x5_reduce (in-place)
I0403 19:09:19.807554  8681 net.cpp:141] Setting up inception_4a/relu_5x5_reduce
I0403 19:09:19.807579  8681 net.cpp:148] Top shape: 24 16 14 14 (75264)
I0403 19:09:19.807592  8681 net.cpp:156] Memory required for data: 873665568
I0403 19:09:19.807606  8681 layer_factory.hpp:77] Creating layer inception_4a/5x5
I0403 19:09:19.807628  8681 net.cpp:91] Creating Layer inception_4a/5x5
I0403 19:09:19.807646  8681 net.cpp:425] inception_4a/5x5 <- inception_4a/5x5_reduce
I0403 19:09:19.807667  8681 net.cpp:399] inception_4a/5x5 -> inception_4a/5x5
I0403 19:09:19.808714  8681 net.cpp:141] Setting up inception_4a/5x5
I0403 19:09:19.808743  8681 net.cpp:148] Top shape: 24 48 14 14 (225792)
I0403 19:09:19.808758  8681 net.cpp:156] Memory required for data: 874568736
I0403 19:09:19.808776  8681 layer_factory.hpp:77] Creating layer inception_4a/relu_5x5
I0403 19:09:19.808794  8681 net.cpp:91] Creating Layer inception_4a/relu_5x5
I0403 19:09:19.808810  8681 net.cpp:425] inception_4a/relu_5x5 <- inception_4a/5x5
I0403 19:09:19.808830  8681 net.cpp:386] inception_4a/relu_5x5 -> inception_4a/5x5 (in-place)
I0403 19:09:19.808997  8681 net.cpp:141] Setting up inception_4a/relu_5x5
I0403 19:09:19.809021  8681 net.cpp:148] Top shape: 24 48 14 14 (225792)
I0403 19:09:19.809036  8681 net.cpp:156] Memory required for data: 875471904
I0403 19:09:19.809051  8681 layer_factory.hpp:77] Creating layer inception_4a/pool
I0403 19:09:19.809067  8681 net.cpp:91] Creating Layer inception_4a/pool
I0403 19:09:19.809082  8681 net.cpp:425] inception_4a/pool <- pool3/3x3_s2_pool3/3x3_s2_0_split_3
I0403 19:09:19.809103  8681 net.cpp:399] inception_4a/pool -> inception_4a/pool
I0403 19:09:19.809162  8681 net.cpp:141] Setting up inception_4a/pool
I0403 19:09:19.809186  8681 net.cpp:148] Top shape: 24 480 14 14 (2257920)
I0403 19:09:19.809201  8681 net.cpp:156] Memory required for data: 884503584
I0403 19:09:19.809221  8681 layer_factory.hpp:77] Creating layer inception_4a/pool_proj
I0403 19:09:19.809243  8681 net.cpp:91] Creating Layer inception_4a/pool_proj
I0403 19:09:19.809260  8681 net.cpp:425] inception_4a/pool_proj <- inception_4a/pool
I0403 19:09:19.809280  8681 net.cpp:399] inception_4a/pool_proj -> inception_4a/pool_proj
I0403 19:09:19.810380  8681 net.cpp:141] Setting up inception_4a/pool_proj
I0403 19:09:19.810407  8681 net.cpp:148] Top shape: 24 64 14 14 (301056)
I0403 19:09:19.810437  8681 net.cpp:156] Memory required for data: 885707808
I0403 19:09:19.810456  8681 layer_factory.hpp:77] Creating layer inception_4a/relu_pool_proj
I0403 19:09:19.810477  8681 net.cpp:91] Creating Layer inception_4a/relu_pool_proj
I0403 19:09:19.810494  8681 net.cpp:425] inception_4a/relu_pool_proj <- inception_4a/pool_proj
I0403 19:09:19.810511  8681 net.cpp:386] inception_4a/relu_pool_proj -> inception_4a/pool_proj (in-place)
I0403 19:09:19.810778  8681 net.cpp:141] Setting up inception_4a/relu_pool_proj
I0403 19:09:19.810803  8681 net.cpp:148] Top shape: 24 64 14 14 (301056)
I0403 19:09:19.810818  8681 net.cpp:156] Memory required for data: 886912032
I0403 19:09:19.810833  8681 layer_factory.hpp:77] Creating layer inception_4a/output
I0403 19:09:19.810850  8681 net.cpp:91] Creating Layer inception_4a/output
I0403 19:09:19.810865  8681 net.cpp:425] inception_4a/output <- inception_4a/1x1
I0403 19:09:19.810883  8681 net.cpp:425] inception_4a/output <- inception_4a/3x3
I0403 19:09:19.810899  8681 net.cpp:425] inception_4a/output <- inception_4a/5x5
I0403 19:09:19.810914  8681 net.cpp:425] inception_4a/output <- inception_4a/pool_proj
I0403 19:09:19.810932  8681 net.cpp:399] inception_4a/output -> inception_4a/output
I0403 19:09:19.810976  8681 net.cpp:141] Setting up inception_4a/output
I0403 19:09:19.811000  8681 net.cpp:148] Top shape: 24 512 14 14 (2408448)
I0403 19:09:19.811015  8681 net.cpp:156] Memory required for data: 896545824
I0403 19:09:19.811030  8681 layer_factory.hpp:77] Creating layer inception_4a/output_inception_4a/output_0_split
I0403 19:09:19.811048  8681 net.cpp:91] Creating Layer inception_4a/output_inception_4a/output_0_split
I0403 19:09:19.811064  8681 net.cpp:425] inception_4a/output_inception_4a/output_0_split <- inception_4a/output
I0403 19:09:19.811085  8681 net.cpp:399] inception_4a/output_inception_4a/output_0_split -> inception_4a/output_inception_4a/output_0_split_0
I0403 19:09:19.811106  8681 net.cpp:399] inception_4a/output_inception_4a/output_0_split -> inception_4a/output_inception_4a/output_0_split_1
I0403 19:09:19.811128  8681 net.cpp:399] inception_4a/output_inception_4a/output_0_split -> inception_4a/output_inception_4a/output_0_split_2
I0403 19:09:19.811149  8681 net.cpp:399] inception_4a/output_inception_4a/output_0_split -> inception_4a/output_inception_4a/output_0_split_3
I0403 19:09:19.811169  8681 net.cpp:399] inception_4a/output_inception_4a/output_0_split -> inception_4a/output_inception_4a/output_0_split_4
I0403 19:09:19.811280  8681 net.cpp:141] Setting up inception_4a/output_inception_4a/output_0_split
I0403 19:09:19.811305  8681 net.cpp:148] Top shape: 24 512 14 14 (2408448)
I0403 19:09:19.811322  8681 net.cpp:148] Top shape: 24 512 14 14 (2408448)
I0403 19:09:19.811339  8681 net.cpp:148] Top shape: 24 512 14 14 (2408448)
I0403 19:09:19.811355  8681 net.cpp:148] Top shape: 24 512 14 14 (2408448)
I0403 19:09:19.811372  8681 net.cpp:148] Top shape: 24 512 14 14 (2408448)
I0403 19:09:19.811386  8681 net.cpp:156] Memory required for data: 944714784
I0403 19:09:19.811401  8681 layer_factory.hpp:77] Creating layer loss1/ave_pool
I0403 19:09:19.811421  8681 net.cpp:91] Creating Layer loss1/ave_pool
I0403 19:09:19.811439  8681 net.cpp:425] loss1/ave_pool <- inception_4a/output_inception_4a/output_0_split_0
I0403 19:09:19.811457  8681 net.cpp:399] loss1/ave_pool -> loss1/ave_pool
I0403 19:09:19.811668  8681 net.cpp:141] Setting up loss1/ave_pool
I0403 19:09:19.811692  8681 net.cpp:148] Top shape: 24 512 4 4 (196608)
I0403 19:09:19.811707  8681 net.cpp:156] Memory required for data: 945501216
I0403 19:09:19.811720  8681 layer_factory.hpp:77] Creating layer loss1/conv
I0403 19:09:19.811741  8681 net.cpp:91] Creating Layer loss1/conv
I0403 19:09:19.811758  8681 net.cpp:425] loss1/conv <- loss1/ave_pool
I0403 19:09:19.811777  8681 net.cpp:399] loss1/conv -> loss1/conv
I0403 19:09:19.813077  8681 net.cpp:141] Setting up loss1/conv
I0403 19:09:19.813104  8681 net.cpp:148] Top shape: 24 128 4 4 (49152)
I0403 19:09:19.813132  8681 net.cpp:156] Memory required for data: 945697824
I0403 19:09:19.813150  8681 layer_factory.hpp:77] Creating layer loss1/relu_conv
I0403 19:09:19.813170  8681 net.cpp:91] Creating Layer loss1/relu_conv
I0403 19:09:19.813187  8681 net.cpp:425] loss1/relu_conv <- loss1/conv
I0403 19:09:19.813204  8681 net.cpp:386] loss1/relu_conv -> loss1/conv (in-place)
I0403 19:09:19.813483  8681 net.cpp:141] Setting up loss1/relu_conv
I0403 19:09:19.813508  8681 net.cpp:148] Top shape: 24 128 4 4 (49152)
I0403 19:09:19.813522  8681 net.cpp:156] Memory required for data: 945894432
I0403 19:09:19.813537  8681 layer_factory.hpp:77] Creating layer loss1/fc
I0403 19:09:19.813562  8681 net.cpp:91] Creating Layer loss1/fc
I0403 19:09:19.813580  8681 net.cpp:425] loss1/fc <- loss1/conv
I0403 19:09:19.813599  8681 net.cpp:399] loss1/fc -> loss1/fc
I0403 19:09:19.830507  8681 net.cpp:141] Setting up loss1/fc
I0403 19:09:19.830539  8681 net.cpp:148] Top shape: 24 1024 (24576)
I0403 19:09:19.830555  8681 net.cpp:156] Memory required for data: 945992736
I0403 19:09:19.830574  8681 layer_factory.hpp:77] Creating layer loss1/relu_fc
I0403 19:09:19.830592  8681 net.cpp:91] Creating Layer loss1/relu_fc
I0403 19:09:19.830607  8681 net.cpp:425] loss1/relu_fc <- loss1/fc
I0403 19:09:19.830626  8681 net.cpp:386] loss1/relu_fc -> loss1/fc (in-place)
I0403 19:09:19.830801  8681 net.cpp:141] Setting up loss1/relu_fc
I0403 19:09:19.830823  8681 net.cpp:148] Top shape: 24 1024 (24576)
I0403 19:09:19.830838  8681 net.cpp:156] Memory required for data: 946091040
I0403 19:09:19.830852  8681 layer_factory.hpp:77] Creating layer loss1/drop_fc
I0403 19:09:19.830878  8681 net.cpp:91] Creating Layer loss1/drop_fc
I0403 19:09:19.830895  8681 net.cpp:425] loss1/drop_fc <- loss1/fc
I0403 19:09:19.830911  8681 net.cpp:386] loss1/drop_fc -> loss1/fc (in-place)
I0403 19:09:19.830958  8681 net.cpp:141] Setting up loss1/drop_fc
I0403 19:09:19.830983  8681 net.cpp:148] Top shape: 24 1024 (24576)
I0403 19:09:19.830998  8681 net.cpp:156] Memory required for data: 946189344
I0403 19:09:19.831012  8681 layer_factory.hpp:77] Creating layer loss1/classifier_plantvillage
I0403 19:09:19.831029  8681 net.cpp:91] Creating Layer loss1/classifier_plantvillage
I0403 19:09:19.831044  8681 net.cpp:425] loss1/classifier_plantvillage <- loss1/fc
I0403 19:09:19.831064  8681 net.cpp:399] loss1/classifier_plantvillage -> loss1/classifier_plantvillage
I0403 19:09:19.831920  8681 net.cpp:141] Setting up loss1/classifier_plantvillage
I0403 19:09:19.831946  8681 net.cpp:148] Top shape: 24 38 (912)
I0403 19:09:19.831961  8681 net.cpp:156] Memory required for data: 946192992
I0403 19:09:19.831979  8681 layer_factory.hpp:77] Creating layer loss1/classifier_plantvillage_loss1/classifier_plantvillage_0_split
I0403 19:09:19.831997  8681 net.cpp:91] Creating Layer loss1/classifier_plantvillage_loss1/classifier_plantvillage_0_split
I0403 19:09:19.832013  8681 net.cpp:425] loss1/classifier_plantvillage_loss1/classifier_plantvillage_0_split <- loss1/classifier_plantvillage
I0403 19:09:19.832031  8681 net.cpp:399] loss1/classifier_plantvillage_loss1/classifier_plantvillage_0_split -> loss1/classifier_plantvillage_loss1/classifier_plantvillage_0_split_0
I0403 19:09:19.832049  8681 net.cpp:399] loss1/classifier_plantvillage_loss1/classifier_plantvillage_0_split -> loss1/classifier_plantvillage_loss1/classifier_plantvillage_0_split_1
I0403 19:09:19.832069  8681 net.cpp:399] loss1/classifier_plantvillage_loss1/classifier_plantvillage_0_split -> loss1/classifier_plantvillage_loss1/classifier_plantvillage_0_split_2
I0403 19:09:19.832134  8681 net.cpp:141] Setting up loss1/classifier_plantvillage_loss1/classifier_plantvillage_0_split
I0403 19:09:19.832155  8681 net.cpp:148] Top shape: 24 38 (912)
I0403 19:09:19.832170  8681 net.cpp:148] Top shape: 24 38 (912)
I0403 19:09:19.832185  8681 net.cpp:148] Top shape: 24 38 (912)
I0403 19:09:19.832198  8681 net.cpp:156] Memory required for data: 946203936
I0403 19:09:19.832216  8681 layer_factory.hpp:77] Creating layer inception_4b/1x1
I0403 19:09:19.832238  8681 net.cpp:91] Creating Layer inception_4b/1x1
I0403 19:09:19.832269  8681 net.cpp:425] inception_4b/1x1 <- inception_4a/output_inception_4a/output_0_split_1
I0403 19:09:19.832288  8681 net.cpp:399] inception_4b/1x1 -> inception_4b/1x1
I0403 19:09:19.833797  8681 net.cpp:141] Setting up inception_4b/1x1
I0403 19:09:19.833824  8681 net.cpp:148] Top shape: 24 160 14 14 (752640)
I0403 19:09:19.833838  8681 net.cpp:156] Memory required for data: 949214496
I0403 19:09:19.833858  8681 layer_factory.hpp:77] Creating layer inception_4b/relu_1x1
I0403 19:09:19.833879  8681 net.cpp:91] Creating Layer inception_4b/relu_1x1
I0403 19:09:19.833896  8681 net.cpp:425] inception_4b/relu_1x1 <- inception_4b/1x1
I0403 19:09:19.833914  8681 net.cpp:386] inception_4b/relu_1x1 -> inception_4b/1x1 (in-place)
I0403 19:09:19.834079  8681 net.cpp:141] Setting up inception_4b/relu_1x1
I0403 19:09:19.834105  8681 net.cpp:148] Top shape: 24 160 14 14 (752640)
I0403 19:09:19.834118  8681 net.cpp:156] Memory required for data: 952225056
I0403 19:09:19.834132  8681 layer_factory.hpp:77] Creating layer inception_4b/3x3_reduce
I0403 19:09:19.834153  8681 net.cpp:91] Creating Layer inception_4b/3x3_reduce
I0403 19:09:19.834170  8681 net.cpp:425] inception_4b/3x3_reduce <- inception_4a/output_inception_4a/output_0_split_2
I0403 19:09:19.834190  8681 net.cpp:399] inception_4b/3x3_reduce -> inception_4b/3x3_reduce
I0403 19:09:19.835440  8681 net.cpp:141] Setting up inception_4b/3x3_reduce
I0403 19:09:19.835471  8681 net.cpp:148] Top shape: 24 112 14 14 (526848)
I0403 19:09:19.835487  8681 net.cpp:156] Memory required for data: 954332448
I0403 19:09:19.835505  8681 layer_factory.hpp:77] Creating layer inception_4b/relu_3x3_reduce
I0403 19:09:19.835521  8681 net.cpp:91] Creating Layer inception_4b/relu_3x3_reduce
I0403 19:09:19.835538  8681 net.cpp:425] inception_4b/relu_3x3_reduce <- inception_4b/3x3_reduce
I0403 19:09:19.835556  8681 net.cpp:386] inception_4b/relu_3x3_reduce -> inception_4b/3x3_reduce (in-place)
I0403 19:09:19.835814  8681 net.cpp:141] Setting up inception_4b/relu_3x3_reduce
I0403 19:09:19.835841  8681 net.cpp:148] Top shape: 24 112 14 14 (526848)
I0403 19:09:19.835856  8681 net.cpp:156] Memory required for data: 956439840
I0403 19:09:19.835871  8681 layer_factory.hpp:77] Creating layer inception_4b/3x3
I0403 19:09:19.835892  8681 net.cpp:91] Creating Layer inception_4b/3x3
I0403 19:09:19.835908  8681 net.cpp:425] inception_4b/3x3 <- inception_4b/3x3_reduce
I0403 19:09:19.835927  8681 net.cpp:399] inception_4b/3x3 -> inception_4b/3x3
I0403 19:09:19.838713  8681 net.cpp:141] Setting up inception_4b/3x3
I0403 19:09:19.838740  8681 net.cpp:148] Top shape: 24 224 14 14 (1053696)
I0403 19:09:19.838755  8681 net.cpp:156] Memory required for data: 960654624
I0403 19:09:19.838773  8681 layer_factory.hpp:77] Creating layer inception_4b/relu_3x3
I0403 19:09:19.838790  8681 net.cpp:91] Creating Layer inception_4b/relu_3x3
I0403 19:09:19.838806  8681 net.cpp:425] inception_4b/relu_3x3 <- inception_4b/3x3
I0403 19:09:19.838825  8681 net.cpp:386] inception_4b/relu_3x3 -> inception_4b/3x3 (in-place)
I0403 19:09:19.838995  8681 net.cpp:141] Setting up inception_4b/relu_3x3
I0403 19:09:19.839018  8681 net.cpp:148] Top shape: 24 224 14 14 (1053696)
I0403 19:09:19.839032  8681 net.cpp:156] Memory required for data: 964869408
I0403 19:09:19.839047  8681 layer_factory.hpp:77] Creating layer inception_4b/5x5_reduce
I0403 19:09:19.839068  8681 net.cpp:91] Creating Layer inception_4b/5x5_reduce
I0403 19:09:19.839085  8681 net.cpp:425] inception_4b/5x5_reduce <- inception_4a/output_inception_4a/output_0_split_3
I0403 19:09:19.839107  8681 net.cpp:399] inception_4b/5x5_reduce -> inception_4b/5x5_reduce
I0403 19:09:19.840118  8681 net.cpp:141] Setting up inception_4b/5x5_reduce
I0403 19:09:19.840147  8681 net.cpp:148] Top shape: 24 24 14 14 (112896)
I0403 19:09:19.840163  8681 net.cpp:156] Memory required for data: 965320992
I0403 19:09:19.840180  8681 layer_factory.hpp:77] Creating layer inception_4b/relu_5x5_reduce
I0403 19:09:19.840198  8681 net.cpp:91] Creating Layer inception_4b/relu_5x5_reduce
I0403 19:09:19.840231  8681 net.cpp:425] inception_4b/relu_5x5_reduce <- inception_4b/5x5_reduce
I0403 19:09:19.840250  8681 net.cpp:386] inception_4b/relu_5x5_reduce -> inception_4b/5x5_reduce (in-place)
I0403 19:09:19.840425  8681 net.cpp:141] Setting up inception_4b/relu_5x5_reduce
I0403 19:09:19.840448  8681 net.cpp:148] Top shape: 24 24 14 14 (112896)
I0403 19:09:19.840464  8681 net.cpp:156] Memory required for data: 965772576
I0403 19:09:19.840479  8681 layer_factory.hpp:77] Creating layer inception_4b/5x5
I0403 19:09:19.840500  8681 net.cpp:91] Creating Layer inception_4b/5x5
I0403 19:09:19.840518  8681 net.cpp:425] inception_4b/5x5 <- inception_4b/5x5_reduce
I0403 19:09:19.840541  8681 net.cpp:399] inception_4b/5x5 -> inception_4b/5x5
I0403 19:09:19.841681  8681 net.cpp:141] Setting up inception_4b/5x5
I0403 19:09:19.841708  8681 net.cpp:148] Top shape: 24 64 14 14 (301056)
I0403 19:09:19.841722  8681 net.cpp:156] Memory required for data: 966976800
I0403 19:09:19.841740  8681 layer_factory.hpp:77] Creating layer inception_4b/relu_5x5
I0403 19:09:19.841759  8681 net.cpp:91] Creating Layer inception_4b/relu_5x5
I0403 19:09:19.841775  8681 net.cpp:425] inception_4b/relu_5x5 <- inception_4b/5x5
I0403 19:09:19.841792  8681 net.cpp:386] inception_4b/relu_5x5 -> inception_4b/5x5 (in-place)
I0403 19:09:19.842059  8681 net.cpp:141] Setting up inception_4b/relu_5x5
I0403 19:09:19.842084  8681 net.cpp:148] Top shape: 24 64 14 14 (301056)
I0403 19:09:19.842098  8681 net.cpp:156] Memory required for data: 968181024
I0403 19:09:19.842113  8681 layer_factory.hpp:77] Creating layer inception_4b/pool
I0403 19:09:19.842133  8681 net.cpp:91] Creating Layer inception_4b/pool
I0403 19:09:19.842150  8681 net.cpp:425] inception_4b/pool <- inception_4a/output_inception_4a/output_0_split_4
I0403 19:09:19.842169  8681 net.cpp:399] inception_4b/pool -> inception_4b/pool
I0403 19:09:19.842234  8681 net.cpp:141] Setting up inception_4b/pool
I0403 19:09:19.842257  8681 net.cpp:148] Top shape: 24 512 14 14 (2408448)
I0403 19:09:19.842272  8681 net.cpp:156] Memory required for data: 977814816
I0403 19:09:19.842285  8681 layer_factory.hpp:77] Creating layer inception_4b/pool_proj
I0403 19:09:19.842306  8681 net.cpp:91] Creating Layer inception_4b/pool_proj
I0403 19:09:19.842324  8681 net.cpp:425] inception_4b/pool_proj <- inception_4b/pool
I0403 19:09:19.842344  8681 net.cpp:399] inception_4b/pool_proj -> inception_4b/pool_proj
I0403 19:09:19.843472  8681 net.cpp:141] Setting up inception_4b/pool_proj
I0403 19:09:19.843498  8681 net.cpp:148] Top shape: 24 64 14 14 (301056)
I0403 19:09:19.843513  8681 net.cpp:156] Memory required for data: 979019040
I0403 19:09:19.843530  8681 layer_factory.hpp:77] Creating layer inception_4b/relu_pool_proj
I0403 19:09:19.843549  8681 net.cpp:91] Creating Layer inception_4b/relu_pool_proj
I0403 19:09:19.843566  8681 net.cpp:425] inception_4b/relu_pool_proj <- inception_4b/pool_proj
I0403 19:09:19.843583  8681 net.cpp:386] inception_4b/relu_pool_proj -> inception_4b/pool_proj (in-place)
I0403 19:09:19.843754  8681 net.cpp:141] Setting up inception_4b/relu_pool_proj
I0403 19:09:19.843777  8681 net.cpp:148] Top shape: 24 64 14 14 (301056)
I0403 19:09:19.843791  8681 net.cpp:156] Memory required for data: 980223264
I0403 19:09:19.843806  8681 layer_factory.hpp:77] Creating layer inception_4b/output
I0403 19:09:19.843822  8681 net.cpp:91] Creating Layer inception_4b/output
I0403 19:09:19.843837  8681 net.cpp:425] inception_4b/output <- inception_4b/1x1
I0403 19:09:19.843852  8681 net.cpp:425] inception_4b/output <- inception_4b/3x3
I0403 19:09:19.843868  8681 net.cpp:425] inception_4b/output <- inception_4b/5x5
I0403 19:09:19.843884  8681 net.cpp:425] inception_4b/output <- inception_4b/pool_proj
I0403 19:09:19.843902  8681 net.cpp:399] inception_4b/output -> inception_4b/output
I0403 19:09:19.843946  8681 net.cpp:141] Setting up inception_4b/output
I0403 19:09:19.843976  8681 net.cpp:148] Top shape: 24 512 14 14 (2408448)
I0403 19:09:19.843991  8681 net.cpp:156] Memory required for data: 989857056
I0403 19:09:19.844018  8681 layer_factory.hpp:77] Creating layer inception_4b/output_inception_4b/output_0_split
I0403 19:09:19.844036  8681 net.cpp:91] Creating Layer inception_4b/output_inception_4b/output_0_split
I0403 19:09:19.844050  8681 net.cpp:425] inception_4b/output_inception_4b/output_0_split <- inception_4b/output
I0403 19:09:19.844068  8681 net.cpp:399] inception_4b/output_inception_4b/output_0_split -> inception_4b/output_inception_4b/output_0_split_0
I0403 19:09:19.844087  8681 net.cpp:399] inception_4b/output_inception_4b/output_0_split -> inception_4b/output_inception_4b/output_0_split_1
I0403 19:09:19.844112  8681 net.cpp:399] inception_4b/output_inception_4b/output_0_split -> inception_4b/output_inception_4b/output_0_split_2
I0403 19:09:19.844135  8681 net.cpp:399] inception_4b/output_inception_4b/output_0_split -> inception_4b/output_inception_4b/output_0_split_3
I0403 19:09:19.844218  8681 net.cpp:141] Setting up inception_4b/output_inception_4b/output_0_split
I0403 19:09:19.844241  8681 net.cpp:148] Top shape: 24 512 14 14 (2408448)
I0403 19:09:19.844257  8681 net.cpp:148] Top shape: 24 512 14 14 (2408448)
I0403 19:09:19.844271  8681 net.cpp:148] Top shape: 24 512 14 14 (2408448)
I0403 19:09:19.844287  8681 net.cpp:148] Top shape: 24 512 14 14 (2408448)
I0403 19:09:19.844300  8681 net.cpp:156] Memory required for data: 1028392224
I0403 19:09:19.844315  8681 layer_factory.hpp:77] Creating layer inception_4c/1x1
I0403 19:09:19.844336  8681 net.cpp:91] Creating Layer inception_4c/1x1
I0403 19:09:19.844352  8681 net.cpp:425] inception_4c/1x1 <- inception_4b/output_inception_4b/output_0_split_0
I0403 19:09:19.844372  8681 net.cpp:399] inception_4c/1x1 -> inception_4c/1x1
I0403 19:09:19.845716  8681 net.cpp:141] Setting up inception_4c/1x1
I0403 19:09:19.845743  8681 net.cpp:148] Top shape: 24 128 14 14 (602112)
I0403 19:09:19.845758  8681 net.cpp:156] Memory required for data: 1030800672
I0403 19:09:19.845777  8681 layer_factory.hpp:77] Creating layer inception_4c/relu_1x1
I0403 19:09:19.845793  8681 net.cpp:91] Creating Layer inception_4c/relu_1x1
I0403 19:09:19.845808  8681 net.cpp:425] inception_4c/relu_1x1 <- inception_4c/1x1
I0403 19:09:19.845826  8681 net.cpp:386] inception_4c/relu_1x1 -> inception_4c/1x1 (in-place)
I0403 19:09:19.845996  8681 net.cpp:141] Setting up inception_4c/relu_1x1
I0403 19:09:19.846019  8681 net.cpp:148] Top shape: 24 128 14 14 (602112)
I0403 19:09:19.846034  8681 net.cpp:156] Memory required for data: 1033209120
I0403 19:09:19.846048  8681 layer_factory.hpp:77] Creating layer inception_4c/3x3_reduce
I0403 19:09:19.846070  8681 net.cpp:91] Creating Layer inception_4c/3x3_reduce
I0403 19:09:19.846086  8681 net.cpp:425] inception_4c/3x3_reduce <- inception_4b/output_inception_4b/output_0_split_1
I0403 19:09:19.846108  8681 net.cpp:399] inception_4c/3x3_reduce -> inception_4c/3x3_reduce
I0403 19:09:19.847973  8681 net.cpp:141] Setting up inception_4c/3x3_reduce
I0403 19:09:19.848001  8681 net.cpp:148] Top shape: 24 128 14 14 (602112)
I0403 19:09:19.848016  8681 net.cpp:156] Memory required for data: 1035617568
I0403 19:09:19.848040  8681 layer_factory.hpp:77] Creating layer inception_4c/relu_3x3_reduce
I0403 19:09:19.848062  8681 net.cpp:91] Creating Layer inception_4c/relu_3x3_reduce
I0403 19:09:19.848078  8681 net.cpp:425] inception_4c/relu_3x3_reduce <- inception_4c/3x3_reduce
I0403 19:09:19.848094  8681 net.cpp:386] inception_4c/relu_3x3_reduce -> inception_4c/3x3_reduce (in-place)
I0403 19:09:19.848366  8681 net.cpp:141] Setting up inception_4c/relu_3x3_reduce
I0403 19:09:19.848392  8681 net.cpp:148] Top shape: 24 128 14 14 (602112)
I0403 19:09:19.848405  8681 net.cpp:156] Memory required for data: 1038026016
I0403 19:09:19.848419  8681 layer_factory.hpp:77] Creating layer inception_4c/3x3
I0403 19:09:19.848441  8681 net.cpp:91] Creating Layer inception_4c/3x3
I0403 19:09:19.848458  8681 net.cpp:425] inception_4c/3x3 <- inception_4c/3x3_reduce
I0403 19:09:19.848479  8681 net.cpp:399] inception_4c/3x3 -> inception_4c/3x3
I0403 19:09:19.851881  8681 net.cpp:141] Setting up inception_4c/3x3
I0403 19:09:19.851920  8681 net.cpp:148] Top shape: 24 256 14 14 (1204224)
I0403 19:09:19.851935  8681 net.cpp:156] Memory required for data: 1042842912
I0403 19:09:19.851969  8681 layer_factory.hpp:77] Creating layer inception_4c/relu_3x3
I0403 19:09:19.851990  8681 net.cpp:91] Creating Layer inception_4c/relu_3x3
I0403 19:09:19.852007  8681 net.cpp:425] inception_4c/relu_3x3 <- inception_4c/3x3
I0403 19:09:19.852025  8681 net.cpp:386] inception_4c/relu_3x3 -> inception_4c/3x3 (in-place)
I0403 19:09:19.852193  8681 net.cpp:141] Setting up inception_4c/relu_3x3
I0403 19:09:19.852223  8681 net.cpp:148] Top shape: 24 256 14 14 (1204224)
I0403 19:09:19.852239  8681 net.cpp:156] Memory required for data: 1047659808
I0403 19:09:19.852253  8681 layer_factory.hpp:77] Creating layer inception_4c/5x5_reduce
I0403 19:09:19.852277  8681 net.cpp:91] Creating Layer inception_4c/5x5_reduce
I0403 19:09:19.852293  8681 net.cpp:425] inception_4c/5x5_reduce <- inception_4b/output_inception_4b/output_0_split_2
I0403 19:09:19.852313  8681 net.cpp:399] inception_4c/5x5_reduce -> inception_4c/5x5_reduce
I0403 19:09:19.853358  8681 net.cpp:141] Setting up inception_4c/5x5_reduce
I0403 19:09:19.853386  8681 net.cpp:148] Top shape: 24 24 14 14 (112896)
I0403 19:09:19.853402  8681 net.cpp:156] Memory required for data: 1048111392
I0403 19:09:19.853421  8681 layer_factory.hpp:77] Creating layer inception_4c/relu_5x5_reduce
I0403 19:09:19.853440  8681 net.cpp:91] Creating Layer inception_4c/relu_5x5_reduce
I0403 19:09:19.853456  8681 net.cpp:425] inception_4c/relu_5x5_reduce <- inception_4c/5x5_reduce
I0403 19:09:19.853487  8681 net.cpp:386] inception_4c/relu_5x5_reduce -> inception_4c/5x5_reduce (in-place)
I0403 19:09:19.853662  8681 net.cpp:141] Setting up inception_4c/relu_5x5_reduce
I0403 19:09:19.853685  8681 net.cpp:148] Top shape: 24 24 14 14 (112896)
I0403 19:09:19.853700  8681 net.cpp:156] Memory required for data: 1048562976
I0403 19:09:19.853715  8681 layer_factory.hpp:77] Creating layer inception_4c/5x5
I0403 19:09:19.853736  8681 net.cpp:91] Creating Layer inception_4c/5x5
I0403 19:09:19.853752  8681 net.cpp:425] inception_4c/5x5 <- inception_4c/5x5_reduce
I0403 19:09:19.853773  8681 net.cpp:399] inception_4c/5x5 -> inception_4c/5x5
I0403 19:09:19.854933  8681 net.cpp:141] Setting up inception_4c/5x5
I0403 19:09:19.854959  8681 net.cpp:148] Top shape: 24 64 14 14 (301056)
I0403 19:09:19.854974  8681 net.cpp:156] Memory required for data: 1049767200
I0403 19:09:19.854992  8681 layer_factory.hpp:77] Creating layer inception_4c/relu_5x5
I0403 19:09:19.855010  8681 net.cpp:91] Creating Layer inception_4c/relu_5x5
I0403 19:09:19.855025  8681 net.cpp:425] inception_4c/relu_5x5 <- inception_4c/5x5
I0403 19:09:19.855042  8681 net.cpp:386] inception_4c/relu_5x5 -> inception_4c/5x5 (in-place)
I0403 19:09:19.855322  8681 net.cpp:141] Setting up inception_4c/relu_5x5
I0403 19:09:19.855347  8681 net.cpp:148] Top shape: 24 64 14 14 (301056)
I0403 19:09:19.855362  8681 net.cpp:156] Memory required for data: 1050971424
I0403 19:09:19.855377  8681 layer_factory.hpp:77] Creating layer inception_4c/pool
I0403 19:09:19.855393  8681 net.cpp:91] Creating Layer inception_4c/pool
I0403 19:09:19.855408  8681 net.cpp:425] inception_4c/pool <- inception_4b/output_inception_4b/output_0_split_3
I0403 19:09:19.855428  8681 net.cpp:399] inception_4c/pool -> inception_4c/pool
I0403 19:09:19.855492  8681 net.cpp:141] Setting up inception_4c/pool
I0403 19:09:19.855515  8681 net.cpp:148] Top shape: 24 512 14 14 (2408448)
I0403 19:09:19.855528  8681 net.cpp:156] Memory required for data: 1060605216
I0403 19:09:19.855543  8681 layer_factory.hpp:77] Creating layer inception_4c/pool_proj
I0403 19:09:19.855566  8681 net.cpp:91] Creating Layer inception_4c/pool_proj
I0403 19:09:19.855582  8681 net.cpp:425] inception_4c/pool_proj <- inception_4c/pool
I0403 19:09:19.855599  8681 net.cpp:399] inception_4c/pool_proj -> inception_4c/pool_proj
I0403 19:09:19.856739  8681 net.cpp:141] Setting up inception_4c/pool_proj
I0403 19:09:19.856765  8681 net.cpp:148] Top shape: 24 64 14 14 (301056)
I0403 19:09:19.856792  8681 net.cpp:156] Memory required for data: 1061809440
I0403 19:09:19.856811  8681 layer_factory.hpp:77] Creating layer inception_4c/relu_pool_proj
I0403 19:09:19.856830  8681 net.cpp:91] Creating Layer inception_4c/relu_pool_proj
I0403 19:09:19.856848  8681 net.cpp:425] inception_4c/relu_pool_proj <- inception_4c/pool_proj
I0403 19:09:19.856864  8681 net.cpp:386] inception_4c/relu_pool_proj -> inception_4c/pool_proj (in-place)
I0403 19:09:19.857035  8681 net.cpp:141] Setting up inception_4c/relu_pool_proj
I0403 19:09:19.857059  8681 net.cpp:148] Top shape: 24 64 14 14 (301056)
I0403 19:09:19.857072  8681 net.cpp:156] Memory required for data: 1063013664
I0403 19:09:19.857087  8681 layer_factory.hpp:77] Creating layer inception_4c/output
I0403 19:09:19.857103  8681 net.cpp:91] Creating Layer inception_4c/output
I0403 19:09:19.857118  8681 net.cpp:425] inception_4c/output <- inception_4c/1x1
I0403 19:09:19.857133  8681 net.cpp:425] inception_4c/output <- inception_4c/3x3
I0403 19:09:19.857149  8681 net.cpp:425] inception_4c/output <- inception_4c/5x5
I0403 19:09:19.857164  8681 net.cpp:425] inception_4c/output <- inception_4c/pool_proj
I0403 19:09:19.857182  8681 net.cpp:399] inception_4c/output -> inception_4c/output
I0403 19:09:19.857233  8681 net.cpp:141] Setting up inception_4c/output
I0403 19:09:19.857256  8681 net.cpp:148] Top shape: 24 512 14 14 (2408448)
I0403 19:09:19.857271  8681 net.cpp:156] Memory required for data: 1072647456
I0403 19:09:19.857297  8681 layer_factory.hpp:77] Creating layer inception_4c/output_inception_4c/output_0_split
I0403 19:09:19.857314  8681 net.cpp:91] Creating Layer inception_4c/output_inception_4c/output_0_split
I0403 19:09:19.857329  8681 net.cpp:425] inception_4c/output_inception_4c/output_0_split <- inception_4c/output
I0403 19:09:19.857347  8681 net.cpp:399] inception_4c/output_inception_4c/output_0_split -> inception_4c/output_inception_4c/output_0_split_0
I0403 19:09:19.857367  8681 net.cpp:399] inception_4c/output_inception_4c/output_0_split -> inception_4c/output_inception_4c/output_0_split_1
I0403 19:09:19.857388  8681 net.cpp:399] inception_4c/output_inception_4c/output_0_split -> inception_4c/output_inception_4c/output_0_split_2
I0403 19:09:19.857409  8681 net.cpp:399] inception_4c/output_inception_4c/output_0_split -> inception_4c/output_inception_4c/output_0_split_3
I0403 19:09:19.857492  8681 net.cpp:141] Setting up inception_4c/output_inception_4c/output_0_split
I0403 19:09:19.857516  8681 net.cpp:148] Top shape: 24 512 14 14 (2408448)
I0403 19:09:19.857532  8681 net.cpp:148] Top shape: 24 512 14 14 (2408448)
I0403 19:09:19.857547  8681 net.cpp:148] Top shape: 24 512 14 14 (2408448)
I0403 19:09:19.857563  8681 net.cpp:148] Top shape: 24 512 14 14 (2408448)
I0403 19:09:19.857575  8681 net.cpp:156] Memory required for data: 1111182624
I0403 19:09:19.857601  8681 layer_factory.hpp:77] Creating layer inception_4d/1x1
I0403 19:09:19.857622  8681 net.cpp:91] Creating Layer inception_4d/1x1
I0403 19:09:19.857640  8681 net.cpp:425] inception_4d/1x1 <- inception_4c/output_inception_4c/output_0_split_0
I0403 19:09:19.857658  8681 net.cpp:399] inception_4d/1x1 -> inception_4d/1x1
I0403 19:09:19.858958  8681 net.cpp:141] Setting up inception_4d/1x1
I0403 19:09:19.858983  8681 net.cpp:148] Top shape: 24 112 14 14 (526848)
I0403 19:09:19.858999  8681 net.cpp:156] Memory required for data: 1113290016
I0403 19:09:19.859015  8681 layer_factory.hpp:77] Creating layer inception_4d/relu_1x1
I0403 19:09:19.859035  8681 net.cpp:91] Creating Layer inception_4d/relu_1x1
I0403 19:09:19.859051  8681 net.cpp:425] inception_4d/relu_1x1 <- inception_4d/1x1
I0403 19:09:19.859068  8681 net.cpp:386] inception_4d/relu_1x1 -> inception_4d/1x1 (in-place)
I0403 19:09:19.859248  8681 net.cpp:141] Setting up inception_4d/relu_1x1
I0403 19:09:19.859274  8681 net.cpp:148] Top shape: 24 112 14 14 (526848)
I0403 19:09:19.859288  8681 net.cpp:156] Memory required for data: 1115397408
I0403 19:09:19.859311  8681 layer_factory.hpp:77] Creating layer inception_4d/3x3_reduce
I0403 19:09:19.859344  8681 net.cpp:91] Creating Layer inception_4d/3x3_reduce
I0403 19:09:19.859360  8681 net.cpp:425] inception_4d/3x3_reduce <- inception_4c/output_inception_4c/output_0_split_1
I0403 19:09:19.859381  8681 net.cpp:399] inception_4d/3x3_reduce -> inception_4d/3x3_reduce
I0403 19:09:19.860805  8681 net.cpp:141] Setting up inception_4d/3x3_reduce
I0403 19:09:19.860832  8681 net.cpp:148] Top shape: 24 144 14 14 (677376)
I0403 19:09:19.860847  8681 net.cpp:156] Memory required for data: 1118106912
I0403 19:09:19.860864  8681 layer_factory.hpp:77] Creating layer inception_4d/relu_3x3_reduce
I0403 19:09:19.860882  8681 net.cpp:91] Creating Layer inception_4d/relu_3x3_reduce
I0403 19:09:19.860898  8681 net.cpp:425] inception_4d/relu_3x3_reduce <- inception_4d/3x3_reduce
I0403 19:09:19.860918  8681 net.cpp:386] inception_4d/relu_3x3_reduce -> inception_4d/3x3_reduce (in-place)
I0403 19:09:19.861191  8681 net.cpp:141] Setting up inception_4d/relu_3x3_reduce
I0403 19:09:19.861219  8681 net.cpp:148] Top shape: 24 144 14 14 (677376)
I0403 19:09:19.861237  8681 net.cpp:156] Memory required for data: 1120816416
I0403 19:09:19.861250  8681 layer_factory.hpp:77] Creating layer inception_4d/3x3
I0403 19:09:19.861273  8681 net.cpp:91] Creating Layer inception_4d/3x3
I0403 19:09:19.861289  8681 net.cpp:425] inception_4d/3x3 <- inception_4d/3x3_reduce
I0403 19:09:19.861310  8681 net.cpp:399] inception_4d/3x3 -> inception_4d/3x3
I0403 19:09:19.865366  8681 net.cpp:141] Setting up inception_4d/3x3
I0403 19:09:19.865394  8681 net.cpp:148] Top shape: 24 288 14 14 (1354752)
I0403 19:09:19.865409  8681 net.cpp:156] Memory required for data: 1126235424
I0403 19:09:19.865427  8681 layer_factory.hpp:77] Creating layer inception_4d/relu_3x3
I0403 19:09:19.865447  8681 net.cpp:91] Creating Layer inception_4d/relu_3x3
I0403 19:09:19.865464  8681 net.cpp:425] inception_4d/relu_3x3 <- inception_4d/3x3
I0403 19:09:19.865481  8681 net.cpp:386] inception_4d/relu_3x3 -> inception_4d/3x3 (in-place)
I0403 19:09:19.865656  8681 net.cpp:141] Setting up inception_4d/relu_3x3
I0403 19:09:19.865682  8681 net.cpp:148] Top shape: 24 288 14 14 (1354752)
I0403 19:09:19.865697  8681 net.cpp:156] Memory required for data: 1131654432
I0403 19:09:19.865712  8681 layer_factory.hpp:77] Creating layer inception_4d/5x5_reduce
I0403 19:09:19.865736  8681 net.cpp:91] Creating Layer inception_4d/5x5_reduce
I0403 19:09:19.865753  8681 net.cpp:425] inception_4d/5x5_reduce <- inception_4c/output_inception_4c/output_0_split_2
I0403 19:09:19.865772  8681 net.cpp:399] inception_4d/5x5_reduce -> inception_4d/5x5_reduce
I0403 19:09:19.866853  8681 net.cpp:141] Setting up inception_4d/5x5_reduce
I0403 19:09:19.866879  8681 net.cpp:148] Top shape: 24 32 14 14 (150528)
I0403 19:09:19.866895  8681 net.cpp:156] Memory required for data: 1132256544
I0403 19:09:19.866912  8681 layer_factory.hpp:77] Creating layer inception_4d/relu_5x5_reduce
I0403 19:09:19.866931  8681 net.cpp:91] Creating Layer inception_4d/relu_5x5_reduce
I0403 19:09:19.866948  8681 net.cpp:425] inception_4d/relu_5x5_reduce <- inception_4d/5x5_reduce
I0403 19:09:19.866966  8681 net.cpp:386] inception_4d/relu_5x5_reduce -> inception_4d/5x5_reduce (in-place)
I0403 19:09:19.867143  8681 net.cpp:141] Setting up inception_4d/relu_5x5_reduce
I0403 19:09:19.867169  8681 net.cpp:148] Top shape: 24 32 14 14 (150528)
I0403 19:09:19.867185  8681 net.cpp:156] Memory required for data: 1132858656
I0403 19:09:19.867199  8681 layer_factory.hpp:77] Creating layer inception_4d/5x5
I0403 19:09:19.867233  8681 net.cpp:91] Creating Layer inception_4d/5x5
I0403 19:09:19.867250  8681 net.cpp:425] inception_4d/5x5 <- inception_4d/5x5_reduce
I0403 19:09:19.867269  8681 net.cpp:399] inception_4d/5x5 -> inception_4d/5x5
I0403 19:09:19.868638  8681 net.cpp:141] Setting up inception_4d/5x5
I0403 19:09:19.868666  8681 net.cpp:148] Top shape: 24 64 14 14 (301056)
I0403 19:09:19.868682  8681 net.cpp:156] Memory required for data: 1134062880
I0403 19:09:19.868700  8681 layer_factory.hpp:77] Creating layer inception_4d/relu_5x5
I0403 19:09:19.868731  8681 net.cpp:91] Creating Layer inception_4d/relu_5x5
I0403 19:09:19.868747  8681 net.cpp:425] inception_4d/relu_5x5 <- inception_4d/5x5
I0403 19:09:19.868764  8681 net.cpp:386] inception_4d/relu_5x5 -> inception_4d/5x5 (in-place)
I0403 19:09:19.869048  8681 net.cpp:141] Setting up inception_4d/relu_5x5
I0403 19:09:19.869076  8681 net.cpp:148] Top shape: 24 64 14 14 (301056)
I0403 19:09:19.869091  8681 net.cpp:156] Memory required for data: 1135267104
I0403 19:09:19.869105  8681 layer_factory.hpp:77] Creating layer inception_4d/pool
I0403 19:09:19.869122  8681 net.cpp:91] Creating Layer inception_4d/pool
I0403 19:09:19.869138  8681 net.cpp:425] inception_4d/pool <- inception_4c/output_inception_4c/output_0_split_3
I0403 19:09:19.869158  8681 net.cpp:399] inception_4d/pool -> inception_4d/pool
I0403 19:09:19.869225  8681 net.cpp:141] Setting up inception_4d/pool
I0403 19:09:19.869248  8681 net.cpp:148] Top shape: 24 512 14 14 (2408448)
I0403 19:09:19.869262  8681 net.cpp:156] Memory required for data: 1144900896
I0403 19:09:19.869277  8681 layer_factory.hpp:77] Creating layer inception_4d/pool_proj
I0403 19:09:19.869302  8681 net.cpp:91] Creating Layer inception_4d/pool_proj
I0403 19:09:19.869320  8681 net.cpp:425] inception_4d/pool_proj <- inception_4d/pool
I0403 19:09:19.869338  8681 net.cpp:399] inception_4d/pool_proj -> inception_4d/pool_proj
I0403 19:09:19.870991  8681 net.cpp:141] Setting up inception_4d/pool_proj
I0403 19:09:19.871019  8681 net.cpp:148] Top shape: 24 64 14 14 (301056)
I0403 19:09:19.871036  8681 net.cpp:156] Memory required for data: 1146105120
I0403 19:09:19.871053  8681 layer_factory.hpp:77] Creating layer inception_4d/relu_pool_proj
I0403 19:09:19.871073  8681 net.cpp:91] Creating Layer inception_4d/relu_pool_proj
I0403 19:09:19.871088  8681 net.cpp:425] inception_4d/relu_pool_proj <- inception_4d/pool_proj
I0403 19:09:19.871105  8681 net.cpp:386] inception_4d/relu_pool_proj -> inception_4d/pool_proj (in-place)
I0403 19:09:19.871285  8681 net.cpp:141] Setting up inception_4d/relu_pool_proj
I0403 19:09:19.871311  8681 net.cpp:148] Top shape: 24 64 14 14 (301056)
I0403 19:09:19.871327  8681 net.cpp:156] Memory required for data: 1147309344
I0403 19:09:19.871342  8681 layer_factory.hpp:77] Creating layer inception_4d/output
I0403 19:09:19.871358  8681 net.cpp:91] Creating Layer inception_4d/output
I0403 19:09:19.871373  8681 net.cpp:425] inception_4d/output <- inception_4d/1x1
I0403 19:09:19.871388  8681 net.cpp:425] inception_4d/output <- inception_4d/3x3
I0403 19:09:19.871404  8681 net.cpp:425] inception_4d/output <- inception_4d/5x5
I0403 19:09:19.871420  8681 net.cpp:425] inception_4d/output <- inception_4d/pool_proj
I0403 19:09:19.871436  8681 net.cpp:399] inception_4d/output -> inception_4d/output
I0403 19:09:19.871482  8681 net.cpp:141] Setting up inception_4d/output
I0403 19:09:19.871505  8681 net.cpp:148] Top shape: 24 528 14 14 (2483712)
I0403 19:09:19.871520  8681 net.cpp:156] Memory required for data: 1157244192
I0403 19:09:19.871533  8681 layer_factory.hpp:77] Creating layer inception_4d/output_inception_4d/output_0_split
I0403 19:09:19.871552  8681 net.cpp:91] Creating Layer inception_4d/output_inception_4d/output_0_split
I0403 19:09:19.871568  8681 net.cpp:425] inception_4d/output_inception_4d/output_0_split <- inception_4d/output
I0403 19:09:19.871585  8681 net.cpp:399] inception_4d/output_inception_4d/output_0_split -> inception_4d/output_inception_4d/output_0_split_0
I0403 19:09:19.871604  8681 net.cpp:399] inception_4d/output_inception_4d/output_0_split -> inception_4d/output_inception_4d/output_0_split_1
I0403 19:09:19.871625  8681 net.cpp:399] inception_4d/output_inception_4d/output_0_split -> inception_4d/output_inception_4d/output_0_split_2
I0403 19:09:19.871650  8681 net.cpp:399] inception_4d/output_inception_4d/output_0_split -> inception_4d/output_inception_4d/output_0_split_3
I0403 19:09:19.871670  8681 net.cpp:399] inception_4d/output_inception_4d/output_0_split -> inception_4d/output_inception_4d/output_0_split_4
I0403 19:09:19.871765  8681 net.cpp:141] Setting up inception_4d/output_inception_4d/output_0_split
I0403 19:09:19.871798  8681 net.cpp:148] Top shape: 24 528 14 14 (2483712)
I0403 19:09:19.871815  8681 net.cpp:148] Top shape: 24 528 14 14 (2483712)
I0403 19:09:19.871831  8681 net.cpp:148] Top shape: 24 528 14 14 (2483712)
I0403 19:09:19.871845  8681 net.cpp:148] Top shape: 24 528 14 14 (2483712)
I0403 19:09:19.871860  8681 net.cpp:148] Top shape: 24 528 14 14 (2483712)
I0403 19:09:19.871873  8681 net.cpp:156] Memory required for data: 1206918432
I0403 19:09:19.871887  8681 layer_factory.hpp:77] Creating layer loss2/ave_pool
I0403 19:09:19.871903  8681 net.cpp:91] Creating Layer loss2/ave_pool
I0403 19:09:19.871919  8681 net.cpp:425] loss2/ave_pool <- inception_4d/output_inception_4d/output_0_split_0
I0403 19:09:19.871938  8681 net.cpp:399] loss2/ave_pool -> loss2/ave_pool
I0403 19:09:19.872239  8681 net.cpp:141] Setting up loss2/ave_pool
I0403 19:09:19.872264  8681 net.cpp:148] Top shape: 24 528 4 4 (202752)
I0403 19:09:19.872278  8681 net.cpp:156] Memory required for data: 1207729440
I0403 19:09:19.872293  8681 layer_factory.hpp:77] Creating layer loss2/conv
I0403 19:09:19.872314  8681 net.cpp:91] Creating Layer loss2/conv
I0403 19:09:19.872331  8681 net.cpp:425] loss2/conv <- loss2/ave_pool
I0403 19:09:19.872351  8681 net.cpp:399] loss2/conv -> loss2/conv
I0403 19:09:19.874142  8681 net.cpp:141] Setting up loss2/conv
I0403 19:09:19.874172  8681 net.cpp:148] Top shape: 24 128 4 4 (49152)
I0403 19:09:19.874188  8681 net.cpp:156] Memory required for data: 1207926048
I0403 19:09:19.874207  8681 layer_factory.hpp:77] Creating layer loss2/relu_conv
I0403 19:09:19.874228  8681 net.cpp:91] Creating Layer loss2/relu_conv
I0403 19:09:19.874243  8681 net.cpp:425] loss2/relu_conv <- loss2/conv
I0403 19:09:19.874263  8681 net.cpp:386] loss2/relu_conv -> loss2/conv (in-place)
I0403 19:09:19.874536  8681 net.cpp:141] Setting up loss2/relu_conv
I0403 19:09:19.874562  8681 net.cpp:148] Top shape: 24 128 4 4 (49152)
I0403 19:09:19.874578  8681 net.cpp:156] Memory required for data: 1208122656
I0403 19:09:19.874593  8681 layer_factory.hpp:77] Creating layer loss2/fc
I0403 19:09:19.874611  8681 net.cpp:91] Creating Layer loss2/fc
I0403 19:09:19.874627  8681 net.cpp:425] loss2/fc <- loss2/conv
I0403 19:09:19.874649  8681 net.cpp:399] loss2/fc -> loss2/fc
I0403 19:09:19.891479  8681 net.cpp:141] Setting up loss2/fc
I0403 19:09:19.891510  8681 net.cpp:148] Top shape: 24 1024 (24576)
I0403 19:09:19.891526  8681 net.cpp:156] Memory required for data: 1208220960
I0403 19:09:19.891543  8681 layer_factory.hpp:77] Creating layer loss2/relu_fc
I0403 19:09:19.891563  8681 net.cpp:91] Creating Layer loss2/relu_fc
I0403 19:09:19.891579  8681 net.cpp:425] loss2/relu_fc <- loss2/fc
I0403 19:09:19.891595  8681 net.cpp:386] loss2/relu_fc -> loss2/fc (in-place)
I0403 19:09:19.891885  8681 net.cpp:141] Setting up loss2/relu_fc
I0403 19:09:19.891911  8681 net.cpp:148] Top shape: 24 1024 (24576)
I0403 19:09:19.891924  8681 net.cpp:156] Memory required for data: 1208319264
I0403 19:09:19.891938  8681 layer_factory.hpp:77] Creating layer loss2/drop_fc
I0403 19:09:19.891958  8681 net.cpp:91] Creating Layer loss2/drop_fc
I0403 19:09:19.891974  8681 net.cpp:425] loss2/drop_fc <- loss2/fc
I0403 19:09:19.891991  8681 net.cpp:386] loss2/drop_fc -> loss2/fc (in-place)
I0403 19:09:19.892040  8681 net.cpp:141] Setting up loss2/drop_fc
I0403 19:09:19.892060  8681 net.cpp:148] Top shape: 24 1024 (24576)
I0403 19:09:19.892074  8681 net.cpp:156] Memory required for data: 1208417568
I0403 19:09:19.892088  8681 layer_factory.hpp:77] Creating layer loss2/classifier_plantvillage
I0403 19:09:19.892107  8681 net.cpp:91] Creating Layer loss2/classifier_plantvillage
I0403 19:09:19.892122  8681 net.cpp:425] loss2/classifier_plantvillage <- loss2/fc
I0403 19:09:19.892143  8681 net.cpp:399] loss2/classifier_plantvillage -> loss2/classifier_plantvillage
I0403 19:09:19.892525  8681 net.cpp:141] Setting up loss2/classifier_plantvillage
I0403 19:09:19.892549  8681 net.cpp:148] Top shape: 24 38 (912)
I0403 19:09:19.892576  8681 net.cpp:156] Memory required for data: 1208421216
I0403 19:09:19.892595  8681 layer_factory.hpp:77] Creating layer loss2/classifier_plantvillage_loss2/classifier_plantvillage_0_split
I0403 19:09:19.892612  8681 net.cpp:91] Creating Layer loss2/classifier_plantvillage_loss2/classifier_plantvillage_0_split
I0403 19:09:19.892628  8681 net.cpp:425] loss2/classifier_plantvillage_loss2/classifier_plantvillage_0_split <- loss2/classifier_plantvillage
I0403 19:09:19.892647  8681 net.cpp:399] loss2/classifier_plantvillage_loss2/classifier_plantvillage_0_split -> loss2/classifier_plantvillage_loss2/classifier_plantvillage_0_split_0
I0403 19:09:19.892668  8681 net.cpp:399] loss2/classifier_plantvillage_loss2/classifier_plantvillage_0_split -> loss2/classifier_plantvillage_loss2/classifier_plantvillage_0_split_1
I0403 19:09:19.892688  8681 net.cpp:399] loss2/classifier_plantvillage_loss2/classifier_plantvillage_0_split -> loss2/classifier_plantvillage_loss2/classifier_plantvillage_0_split_2
I0403 19:09:19.892760  8681 net.cpp:141] Setting up loss2/classifier_plantvillage_loss2/classifier_plantvillage_0_split
I0403 19:09:19.892783  8681 net.cpp:148] Top shape: 24 38 (912)
I0403 19:09:19.892801  8681 net.cpp:148] Top shape: 24 38 (912)
I0403 19:09:19.892815  8681 net.cpp:148] Top shape: 24 38 (912)
I0403 19:09:19.892829  8681 net.cpp:156] Memory required for data: 1208432160
I0403 19:09:19.892843  8681 layer_factory.hpp:77] Creating layer inception_4e/1x1
I0403 19:09:19.892863  8681 net.cpp:91] Creating Layer inception_4e/1x1
I0403 19:09:19.892879  8681 net.cpp:425] inception_4e/1x1 <- inception_4d/output_inception_4d/output_0_split_1
I0403 19:09:19.892896  8681 net.cpp:399] inception_4e/1x1 -> inception_4e/1x1
I0403 19:09:19.894618  8681 net.cpp:141] Setting up inception_4e/1x1
I0403 19:09:19.894645  8681 net.cpp:148] Top shape: 24 256 14 14 (1204224)
I0403 19:09:19.894659  8681 net.cpp:156] Memory required for data: 1213249056
I0403 19:09:19.894677  8681 layer_factory.hpp:77] Creating layer inception_4e/relu_1x1
I0403 19:09:19.894695  8681 net.cpp:91] Creating Layer inception_4e/relu_1x1
I0403 19:09:19.894709  8681 net.cpp:425] inception_4e/relu_1x1 <- inception_4e/1x1
I0403 19:09:19.894728  8681 net.cpp:386] inception_4e/relu_1x1 -> inception_4e/1x1 (in-place)
I0403 19:09:19.895015  8681 net.cpp:141] Setting up inception_4e/relu_1x1
I0403 19:09:19.895040  8681 net.cpp:148] Top shape: 24 256 14 14 (1204224)
I0403 19:09:19.895054  8681 net.cpp:156] Memory required for data: 1218065952
I0403 19:09:19.895069  8681 layer_factory.hpp:77] Creating layer inception_4e/3x3_reduce
I0403 19:09:19.895090  8681 net.cpp:91] Creating Layer inception_4e/3x3_reduce
I0403 19:09:19.895107  8681 net.cpp:425] inception_4e/3x3_reduce <- inception_4d/output_inception_4d/output_0_split_2
I0403 19:09:19.895128  8681 net.cpp:399] inception_4e/3x3_reduce -> inception_4e/3x3_reduce
I0403 19:09:19.897127  8681 net.cpp:141] Setting up inception_4e/3x3_reduce
I0403 19:09:19.897157  8681 net.cpp:148] Top shape: 24 160 14 14 (752640)
I0403 19:09:19.897173  8681 net.cpp:156] Memory required for data: 1221076512
I0403 19:09:19.897192  8681 layer_factory.hpp:77] Creating layer inception_4e/relu_3x3_reduce
I0403 19:09:19.897212  8681 net.cpp:91] Creating Layer inception_4e/relu_3x3_reduce
I0403 19:09:19.897228  8681 net.cpp:425] inception_4e/relu_3x3_reduce <- inception_4e/3x3_reduce
I0403 19:09:19.897248  8681 net.cpp:386] inception_4e/relu_3x3_reduce -> inception_4e/3x3_reduce (in-place)
I0403 19:09:19.897424  8681 net.cpp:141] Setting up inception_4e/relu_3x3_reduce
I0403 19:09:19.897447  8681 net.cpp:148] Top shape: 24 160 14 14 (752640)
I0403 19:09:19.897464  8681 net.cpp:156] Memory required for data: 1224087072
I0403 19:09:19.897478  8681 layer_factory.hpp:77] Creating layer inception_4e/3x3
I0403 19:09:19.897500  8681 net.cpp:91] Creating Layer inception_4e/3x3
I0403 19:09:19.897516  8681 net.cpp:425] inception_4e/3x3 <- inception_4e/3x3_reduce
I0403 19:09:19.897537  8681 net.cpp:399] inception_4e/3x3 -> inception_4e/3x3
I0403 19:09:19.902277  8681 net.cpp:141] Setting up inception_4e/3x3
I0403 19:09:19.902318  8681 net.cpp:148] Top shape: 24 320 14 14 (1505280)
I0403 19:09:19.902334  8681 net.cpp:156] Memory required for data: 1230108192
I0403 19:09:19.902354  8681 layer_factory.hpp:77] Creating layer inception_4e/relu_3x3
I0403 19:09:19.902371  8681 net.cpp:91] Creating Layer inception_4e/relu_3x3
I0403 19:09:19.902386  8681 net.cpp:425] inception_4e/relu_3x3 <- inception_4e/3x3
I0403 19:09:19.902405  8681 net.cpp:386] inception_4e/relu_3x3 -> inception_4e/3x3 (in-place)
I0403 19:09:19.902690  8681 net.cpp:141] Setting up inception_4e/relu_3x3
I0403 19:09:19.902714  8681 net.cpp:148] Top shape: 24 320 14 14 (1505280)
I0403 19:09:19.902729  8681 net.cpp:156] Memory required for data: 1236129312
I0403 19:09:19.902743  8681 layer_factory.hpp:77] Creating layer inception_4e/5x5_reduce
I0403 19:09:19.902767  8681 net.cpp:91] Creating Layer inception_4e/5x5_reduce
I0403 19:09:19.902786  8681 net.cpp:425] inception_4e/5x5_reduce <- inception_4d/output_inception_4d/output_0_split_3
I0403 19:09:19.902806  8681 net.cpp:399] inception_4e/5x5_reduce -> inception_4e/5x5_reduce
I0403 19:09:19.903822  8681 net.cpp:141] Setting up inception_4e/5x5_reduce
I0403 19:09:19.903851  8681 net.cpp:148] Top shape: 24 32 14 14 (150528)
I0403 19:09:19.903866  8681 net.cpp:156] Memory required for data: 1236731424
I0403 19:09:19.903883  8681 layer_factory.hpp:77] Creating layer inception_4e/relu_5x5_reduce
I0403 19:09:19.903900  8681 net.cpp:91] Creating Layer inception_4e/relu_5x5_reduce
I0403 19:09:19.903916  8681 net.cpp:425] inception_4e/relu_5x5_reduce <- inception_4e/5x5_reduce
I0403 19:09:19.903933  8681 net.cpp:386] inception_4e/relu_5x5_reduce -> inception_4e/5x5_reduce (in-place)
I0403 19:09:19.904222  8681 net.cpp:141] Setting up inception_4e/relu_5x5_reduce
I0403 19:09:19.904248  8681 net.cpp:148] Top shape: 24 32 14 14 (150528)
I0403 19:09:19.904263  8681 net.cpp:156] Memory required for data: 1237333536
I0403 19:09:19.904278  8681 layer_factory.hpp:77] Creating layer inception_4e/5x5
I0403 19:09:19.904314  8681 net.cpp:91] Creating Layer inception_4e/5x5
I0403 19:09:19.904333  8681 net.cpp:425] inception_4e/5x5 <- inception_4e/5x5_reduce
I0403 19:09:19.904352  8681 net.cpp:399] inception_4e/5x5 -> inception_4e/5x5
I0403 19:09:19.906080  8681 net.cpp:141] Setting up inception_4e/5x5
I0403 19:09:19.906111  8681 net.cpp:148] Top shape: 24 128 14 14 (602112)
I0403 19:09:19.906127  8681 net.cpp:156] Memory required for data: 1239741984
I0403 19:09:19.906146  8681 layer_factory.hpp:77] Creating layer inception_4e/relu_5x5
I0403 19:09:19.906164  8681 net.cpp:91] Creating Layer inception_4e/relu_5x5
I0403 19:09:19.906180  8681 net.cpp:425] inception_4e/relu_5x5 <- inception_4e/5x5
I0403 19:09:19.906198  8681 net.cpp:386] inception_4e/relu_5x5 -> inception_4e/5x5 (in-place)
I0403 19:09:19.906389  8681 net.cpp:141] Setting up inception_4e/relu_5x5
I0403 19:09:19.906414  8681 net.cpp:148] Top shape: 24 128 14 14 (602112)
I0403 19:09:19.906430  8681 net.cpp:156] Memory required for data: 1242150432
I0403 19:09:19.906443  8681 layer_factory.hpp:77] Creating layer inception_4e/pool
I0403 19:09:19.906461  8681 net.cpp:91] Creating Layer inception_4e/pool
I0403 19:09:19.906476  8681 net.cpp:425] inception_4e/pool <- inception_4d/output_inception_4d/output_0_split_4
I0403 19:09:19.906494  8681 net.cpp:399] inception_4e/pool -> inception_4e/pool
I0403 19:09:19.906561  8681 net.cpp:141] Setting up inception_4e/pool
I0403 19:09:19.906584  8681 net.cpp:148] Top shape: 24 528 14 14 (2483712)
I0403 19:09:19.906597  8681 net.cpp:156] Memory required for data: 1252085280
I0403 19:09:19.906611  8681 layer_factory.hpp:77] Creating layer inception_4e/pool_proj
I0403 19:09:19.906632  8681 net.cpp:91] Creating Layer inception_4e/pool_proj
I0403 19:09:19.906648  8681 net.cpp:425] inception_4e/pool_proj <- inception_4e/pool
I0403 19:09:19.906668  8681 net.cpp:399] inception_4e/pool_proj -> inception_4e/pool_proj
I0403 19:09:19.908092  8681 net.cpp:141] Setting up inception_4e/pool_proj
I0403 19:09:19.908129  8681 net.cpp:148] Top shape: 24 128 14 14 (602112)
I0403 19:09:19.908145  8681 net.cpp:156] Memory required for data: 1254493728
I0403 19:09:19.908162  8681 layer_factory.hpp:77] Creating layer inception_4e/relu_pool_proj
I0403 19:09:19.908182  8681 net.cpp:91] Creating Layer inception_4e/relu_pool_proj
I0403 19:09:19.908198  8681 net.cpp:425] inception_4e/relu_pool_proj <- inception_4e/pool_proj
I0403 19:09:19.908220  8681 net.cpp:386] inception_4e/relu_pool_proj -> inception_4e/pool_proj (in-place)
I0403 19:09:19.908502  8681 net.cpp:141] Setting up inception_4e/relu_pool_proj
I0403 19:09:19.908527  8681 net.cpp:148] Top shape: 24 128 14 14 (602112)
I0403 19:09:19.908541  8681 net.cpp:156] Memory required for data: 1256902176
I0403 19:09:19.908555  8681 layer_factory.hpp:77] Creating layer inception_4e/output
I0403 19:09:19.908574  8681 net.cpp:91] Creating Layer inception_4e/output
I0403 19:09:19.908591  8681 net.cpp:425] inception_4e/output <- inception_4e/1x1
I0403 19:09:19.908607  8681 net.cpp:425] inception_4e/output <- inception_4e/3x3
I0403 19:09:19.908622  8681 net.cpp:425] inception_4e/output <- inception_4e/5x5
I0403 19:09:19.908637  8681 net.cpp:425] inception_4e/output <- inception_4e/pool_proj
I0403 19:09:19.908653  8681 net.cpp:399] inception_4e/output -> inception_4e/output
I0403 19:09:19.908701  8681 net.cpp:141] Setting up inception_4e/output
I0403 19:09:19.908723  8681 net.cpp:148] Top shape: 24 832 14 14 (3913728)
I0403 19:09:19.908737  8681 net.cpp:156] Memory required for data: 1272557088
I0403 19:09:19.908751  8681 layer_factory.hpp:77] Creating layer pool4/3x3_s2
I0403 19:09:19.908767  8681 net.cpp:91] Creating Layer pool4/3x3_s2
I0403 19:09:19.908782  8681 net.cpp:425] pool4/3x3_s2 <- inception_4e/output
I0403 19:09:19.908803  8681 net.cpp:399] pool4/3x3_s2 -> pool4/3x3_s2
I0403 19:09:19.908867  8681 net.cpp:141] Setting up pool4/3x3_s2
I0403 19:09:19.908892  8681 net.cpp:148] Top shape: 24 832 7 7 (978432)
I0403 19:09:19.908906  8681 net.cpp:156] Memory required for data: 1276470816
I0403 19:09:19.908921  8681 layer_factory.hpp:77] Creating layer pool4/3x3_s2_pool4/3x3_s2_0_split
I0403 19:09:19.908937  8681 net.cpp:91] Creating Layer pool4/3x3_s2_pool4/3x3_s2_0_split
I0403 19:09:19.908952  8681 net.cpp:425] pool4/3x3_s2_pool4/3x3_s2_0_split <- pool4/3x3_s2
I0403 19:09:19.908968  8681 net.cpp:399] pool4/3x3_s2_pool4/3x3_s2_0_split -> pool4/3x3_s2_pool4/3x3_s2_0_split_0
I0403 19:09:19.908990  8681 net.cpp:399] pool4/3x3_s2_pool4/3x3_s2_0_split -> pool4/3x3_s2_pool4/3x3_s2_0_split_1
I0403 19:09:19.909011  8681 net.cpp:399] pool4/3x3_s2_pool4/3x3_s2_0_split -> pool4/3x3_s2_pool4/3x3_s2_0_split_2
I0403 19:09:19.909030  8681 net.cpp:399] pool4/3x3_s2_pool4/3x3_s2_0_split -> pool4/3x3_s2_pool4/3x3_s2_0_split_3
I0403 19:09:19.909117  8681 net.cpp:141] Setting up pool4/3x3_s2_pool4/3x3_s2_0_split
I0403 19:09:19.909139  8681 net.cpp:148] Top shape: 24 832 7 7 (978432)
I0403 19:09:19.909155  8681 net.cpp:148] Top shape: 24 832 7 7 (978432)
I0403 19:09:19.909170  8681 net.cpp:148] Top shape: 24 832 7 7 (978432)
I0403 19:09:19.909185  8681 net.cpp:148] Top shape: 24 832 7 7 (978432)
I0403 19:09:19.909198  8681 net.cpp:156] Memory required for data: 1292125728
I0403 19:09:19.909216  8681 layer_factory.hpp:77] Creating layer inception_5a/1x1
I0403 19:09:19.909238  8681 net.cpp:91] Creating Layer inception_5a/1x1
I0403 19:09:19.909256  8681 net.cpp:425] inception_5a/1x1 <- pool4/3x3_s2_pool4/3x3_s2_0_split_0
I0403 19:09:19.909276  8681 net.cpp:399] inception_5a/1x1 -> inception_5a/1x1
I0403 19:09:19.912003  8681 net.cpp:141] Setting up inception_5a/1x1
I0403 19:09:19.912029  8681 net.cpp:148] Top shape: 24 256 7 7 (301056)
I0403 19:09:19.912045  8681 net.cpp:156] Memory required for data: 1293329952
I0403 19:09:19.912063  8681 layer_factory.hpp:77] Creating layer inception_5a/relu_1x1
I0403 19:09:19.912083  8681 net.cpp:91] Creating Layer inception_5a/relu_1x1
I0403 19:09:19.912099  8681 net.cpp:425] inception_5a/relu_1x1 <- inception_5a/1x1
I0403 19:09:19.912117  8681 net.cpp:386] inception_5a/relu_1x1 -> inception_5a/1x1 (in-place)
I0403 19:09:19.912416  8681 net.cpp:141] Setting up inception_5a/relu_1x1
I0403 19:09:19.912441  8681 net.cpp:148] Top shape: 24 256 7 7 (301056)
I0403 19:09:19.912456  8681 net.cpp:156] Memory required for data: 1294534176
I0403 19:09:19.912472  8681 layer_factory.hpp:77] Creating layer inception_5a/3x3_reduce
I0403 19:09:19.912494  8681 net.cpp:91] Creating Layer inception_5a/3x3_reduce
I0403 19:09:19.912513  8681 net.cpp:425] inception_5a/3x3_reduce <- pool4/3x3_s2_pool4/3x3_s2_0_split_1
I0403 19:09:19.912530  8681 net.cpp:399] inception_5a/3x3_reduce -> inception_5a/3x3_reduce
I0403 19:09:19.914855  8681 net.cpp:141] Setting up inception_5a/3x3_reduce
I0403 19:09:19.914882  8681 net.cpp:148] Top shape: 24 160 7 7 (188160)
I0403 19:09:19.914898  8681 net.cpp:156] Memory required for data: 1295286816
I0403 19:09:19.914916  8681 layer_factory.hpp:77] Creating layer inception_5a/relu_3x3_reduce
I0403 19:09:19.914935  8681 net.cpp:91] Creating Layer inception_5a/relu_3x3_reduce
I0403 19:09:19.914952  8681 net.cpp:425] inception_5a/relu_3x3_reduce <- inception_5a/3x3_reduce
I0403 19:09:19.914968  8681 net.cpp:386] inception_5a/relu_3x3_reduce -> inception_5a/3x3_reduce (in-place)
I0403 19:09:19.915148  8681 net.cpp:141] Setting up inception_5a/relu_3x3_reduce
I0403 19:09:19.915172  8681 net.cpp:148] Top shape: 24 160 7 7 (188160)
I0403 19:09:19.915186  8681 net.cpp:156] Memory required for data: 1296039456
I0403 19:09:19.915200  8681 layer_factory.hpp:77] Creating layer inception_5a/3x3
I0403 19:09:19.915228  8681 net.cpp:91] Creating Layer inception_5a/3x3
I0403 19:09:19.915246  8681 net.cpp:425] inception_5a/3x3 <- inception_5a/3x3_reduce
I0403 19:09:19.915264  8681 net.cpp:399] inception_5a/3x3 -> inception_5a/3x3
I0403 19:09:19.920127  8681 net.cpp:141] Setting up inception_5a/3x3
I0403 19:09:19.920157  8681 net.cpp:148] Top shape: 24 320 7 7 (376320)
I0403 19:09:19.920174  8681 net.cpp:156] Memory required for data: 1297544736
I0403 19:09:19.920192  8681 layer_factory.hpp:77] Creating layer inception_5a/relu_3x3
I0403 19:09:19.920212  8681 net.cpp:91] Creating Layer inception_5a/relu_3x3
I0403 19:09:19.920229  8681 net.cpp:425] inception_5a/relu_3x3 <- inception_5a/3x3
I0403 19:09:19.920246  8681 net.cpp:386] inception_5a/relu_3x3 -> inception_5a/3x3 (in-place)
I0403 19:09:19.920529  8681 net.cpp:141] Setting up inception_5a/relu_3x3
I0403 19:09:19.920557  8681 net.cpp:148] Top shape: 24 320 7 7 (376320)
I0403 19:09:19.920572  8681 net.cpp:156] Memory required for data: 1299050016
I0403 19:09:19.920586  8681 layer_factory.hpp:77] Creating layer inception_5a/5x5_reduce
I0403 19:09:19.920606  8681 net.cpp:91] Creating Layer inception_5a/5x5_reduce
I0403 19:09:19.920622  8681 net.cpp:425] inception_5a/5x5_reduce <- pool4/3x3_s2_pool4/3x3_s2_0_split_2
I0403 19:09:19.920644  8681 net.cpp:399] inception_5a/5x5_reduce -> inception_5a/5x5_reduce
I0403 19:09:19.921763  8681 net.cpp:141] Setting up inception_5a/5x5_reduce
I0403 19:09:19.921793  8681 net.cpp:148] Top shape: 24 32 7 7 (37632)
I0403 19:09:19.921813  8681 net.cpp:156] Memory required for data: 1299200544
I0403 19:09:19.921829  8681 layer_factory.hpp:77] Creating layer inception_5a/relu_5x5_reduce
I0403 19:09:19.921846  8681 net.cpp:91] Creating Layer inception_5a/relu_5x5_reduce
I0403 19:09:19.921861  8681 net.cpp:425] inception_5a/relu_5x5_reduce <- inception_5a/5x5_reduce
I0403 19:09:19.921880  8681 net.cpp:386] inception_5a/relu_5x5_reduce -> inception_5a/5x5_reduce (in-place)
I0403 19:09:19.922169  8681 net.cpp:141] Setting up inception_5a/relu_5x5_reduce
I0403 19:09:19.922195  8681 net.cpp:148] Top shape: 24 32 7 7 (37632)
I0403 19:09:19.922215  8681 net.cpp:156] Memory required for data: 1299351072
I0403 19:09:19.922231  8681 layer_factory.hpp:77] Creating layer inception_5a/5x5
I0403 19:09:19.922252  8681 net.cpp:91] Creating Layer inception_5a/5x5
I0403 19:09:19.922269  8681 net.cpp:425] inception_5a/5x5 <- inception_5a/5x5_reduce
I0403 19:09:19.922287  8681 net.cpp:399] inception_5a/5x5 -> inception_5a/5x5
I0403 19:09:19.923920  8681 net.cpp:141] Setting up inception_5a/5x5
I0403 19:09:19.923960  8681 net.cpp:148] Top shape: 24 128 7 7 (150528)
I0403 19:09:19.923976  8681 net.cpp:156] Memory required for data: 1299953184
I0403 19:09:19.923995  8681 layer_factory.hpp:77] Creating layer inception_5a/relu_5x5
I0403 19:09:19.924011  8681 net.cpp:91] Creating Layer inception_5a/relu_5x5
I0403 19:09:19.924026  8681 net.cpp:425] inception_5a/relu_5x5 <- inception_5a/5x5
I0403 19:09:19.924043  8681 net.cpp:386] inception_5a/relu_5x5 -> inception_5a/5x5 (in-place)
I0403 19:09:19.924231  8681 net.cpp:141] Setting up inception_5a/relu_5x5
I0403 19:09:19.924257  8681 net.cpp:148] Top shape: 24 128 7 7 (150528)
I0403 19:09:19.924271  8681 net.cpp:156] Memory required for data: 1300555296
I0403 19:09:19.924285  8681 layer_factory.hpp:77] Creating layer inception_5a/pool
I0403 19:09:19.924302  8681 net.cpp:91] Creating Layer inception_5a/pool
I0403 19:09:19.924319  8681 net.cpp:425] inception_5a/pool <- pool4/3x3_s2_pool4/3x3_s2_0_split_3
I0403 19:09:19.924338  8681 net.cpp:399] inception_5a/pool -> inception_5a/pool
I0403 19:09:19.924404  8681 net.cpp:141] Setting up inception_5a/pool
I0403 19:09:19.924429  8681 net.cpp:148] Top shape: 24 832 7 7 (978432)
I0403 19:09:19.924443  8681 net.cpp:156] Memory required for data: 1304469024
I0403 19:09:19.924458  8681 layer_factory.hpp:77] Creating layer inception_5a/pool_proj
I0403 19:09:19.924479  8681 net.cpp:91] Creating Layer inception_5a/pool_proj
I0403 19:09:19.924494  8681 net.cpp:425] inception_5a/pool_proj <- inception_5a/pool
I0403 19:09:19.924515  8681 net.cpp:399] inception_5a/pool_proj -> inception_5a/pool_proj
I0403 19:09:19.926672  8681 net.cpp:141] Setting up inception_5a/pool_proj
I0403 19:09:19.926699  8681 net.cpp:148] Top shape: 24 128 7 7 (150528)
I0403 19:09:19.926714  8681 net.cpp:156] Memory required for data: 1305071136
I0403 19:09:19.926733  8681 layer_factory.hpp:77] Creating layer inception_5a/relu_pool_proj
I0403 19:09:19.926750  8681 net.cpp:91] Creating Layer inception_5a/relu_pool_proj
I0403 19:09:19.926766  8681 net.cpp:425] inception_5a/relu_pool_proj <- inception_5a/pool_proj
I0403 19:09:19.926784  8681 net.cpp:386] inception_5a/relu_pool_proj -> inception_5a/pool_proj (in-place)
I0403 19:09:19.927064  8681 net.cpp:141] Setting up inception_5a/relu_pool_proj
I0403 19:09:19.927088  8681 net.cpp:148] Top shape: 24 128 7 7 (150528)
I0403 19:09:19.927103  8681 net.cpp:156] Memory required for data: 1305673248
I0403 19:09:19.927117  8681 layer_factory.hpp:77] Creating layer inception_5a/output
I0403 19:09:19.927136  8681 net.cpp:91] Creating Layer inception_5a/output
I0403 19:09:19.927152  8681 net.cpp:425] inception_5a/output <- inception_5a/1x1
I0403 19:09:19.927170  8681 net.cpp:425] inception_5a/output <- inception_5a/3x3
I0403 19:09:19.927184  8681 net.cpp:425] inception_5a/output <- inception_5a/5x5
I0403 19:09:19.927219  8681 net.cpp:425] inception_5a/output <- inception_5a/pool_proj
I0403 19:09:19.927237  8681 net.cpp:399] inception_5a/output -> inception_5a/output
I0403 19:09:19.927289  8681 net.cpp:141] Setting up inception_5a/output
I0403 19:09:19.927311  8681 net.cpp:148] Top shape: 24 832 7 7 (978432)
I0403 19:09:19.927326  8681 net.cpp:156] Memory required for data: 1309586976
I0403 19:09:19.927341  8681 layer_factory.hpp:77] Creating layer inception_5a/output_inception_5a/output_0_split
I0403 19:09:19.927358  8681 net.cpp:91] Creating Layer inception_5a/output_inception_5a/output_0_split
I0403 19:09:19.927374  8681 net.cpp:425] inception_5a/output_inception_5a/output_0_split <- inception_5a/output
I0403 19:09:19.927402  8681 net.cpp:399] inception_5a/output_inception_5a/output_0_split -> inception_5a/output_inception_5a/output_0_split_0
I0403 19:09:19.927423  8681 net.cpp:399] inception_5a/output_inception_5a/output_0_split -> inception_5a/output_inception_5a/output_0_split_1
I0403 19:09:19.927443  8681 net.cpp:399] inception_5a/output_inception_5a/output_0_split -> inception_5a/output_inception_5a/output_0_split_2
I0403 19:09:19.927464  8681 net.cpp:399] inception_5a/output_inception_5a/output_0_split -> inception_5a/output_inception_5a/output_0_split_3
I0403 19:09:19.927582  8681 net.cpp:141] Setting up inception_5a/output_inception_5a/output_0_split
I0403 19:09:19.927608  8681 net.cpp:148] Top shape: 24 832 7 7 (978432)
I0403 19:09:19.927623  8681 net.cpp:148] Top shape: 24 832 7 7 (978432)
I0403 19:09:19.927639  8681 net.cpp:148] Top shape: 24 832 7 7 (978432)
I0403 19:09:19.927654  8681 net.cpp:148] Top shape: 24 832 7 7 (978432)
I0403 19:09:19.927667  8681 net.cpp:156] Memory required for data: 1325241888
I0403 19:09:19.927681  8681 layer_factory.hpp:77] Creating layer inception_5b/1x1
I0403 19:09:19.927712  8681 net.cpp:91] Creating Layer inception_5b/1x1
I0403 19:09:19.927729  8681 net.cpp:425] inception_5b/1x1 <- inception_5a/output_inception_5a/output_0_split_0
I0403 19:09:19.927747  8681 net.cpp:399] inception_5b/1x1 -> inception_5b/1x1
I0403 19:09:19.931337  8681 net.cpp:141] Setting up inception_5b/1x1
I0403 19:09:19.931365  8681 net.cpp:148] Top shape: 24 384 7 7 (451584)
I0403 19:09:19.931380  8681 net.cpp:156] Memory required for data: 1327048224
I0403 19:09:19.931397  8681 layer_factory.hpp:77] Creating layer inception_5b/relu_1x1
I0403 19:09:19.931416  8681 net.cpp:91] Creating Layer inception_5b/relu_1x1
I0403 19:09:19.931433  8681 net.cpp:425] inception_5b/relu_1x1 <- inception_5b/1x1
I0403 19:09:19.931450  8681 net.cpp:386] inception_5b/relu_1x1 -> inception_5b/1x1 (in-place)
I0403 19:09:19.931741  8681 net.cpp:141] Setting up inception_5b/relu_1x1
I0403 19:09:19.931766  8681 net.cpp:148] Top shape: 24 384 7 7 (451584)
I0403 19:09:19.931780  8681 net.cpp:156] Memory required for data: 1328854560
I0403 19:09:19.931794  8681 layer_factory.hpp:77] Creating layer inception_5b/3x3_reduce
I0403 19:09:19.931815  8681 net.cpp:91] Creating Layer inception_5b/3x3_reduce
I0403 19:09:19.931833  8681 net.cpp:425] inception_5b/3x3_reduce <- inception_5a/output_inception_5a/output_0_split_1
I0403 19:09:19.931854  8681 net.cpp:399] inception_5b/3x3_reduce -> inception_5b/3x3_reduce
I0403 19:09:19.934381  8681 net.cpp:141] Setting up inception_5b/3x3_reduce
I0403 19:09:19.934408  8681 net.cpp:148] Top shape: 24 192 7 7 (225792)
I0403 19:09:19.934423  8681 net.cpp:156] Memory required for data: 1329757728
I0403 19:09:19.934442  8681 layer_factory.hpp:77] Creating layer inception_5b/relu_3x3_reduce
I0403 19:09:19.934460  8681 net.cpp:91] Creating Layer inception_5b/relu_3x3_reduce
I0403 19:09:19.934476  8681 net.cpp:425] inception_5b/relu_3x3_reduce <- inception_5b/3x3_reduce
I0403 19:09:19.934494  8681 net.cpp:386] inception_5b/relu_3x3_reduce -> inception_5b/3x3_reduce (in-place)
I0403 19:09:19.934676  8681 net.cpp:141] Setting up inception_5b/relu_3x3_reduce
I0403 19:09:19.934701  8681 net.cpp:148] Top shape: 24 192 7 7 (225792)
I0403 19:09:19.934715  8681 net.cpp:156] Memory required for data: 1330660896
I0403 19:09:19.934731  8681 layer_factory.hpp:77] Creating layer inception_5b/3x3
I0403 19:09:19.934754  8681 net.cpp:91] Creating Layer inception_5b/3x3
I0403 19:09:19.934772  8681 net.cpp:425] inception_5b/3x3 <- inception_5b/3x3_reduce
I0403 19:09:19.934790  8681 net.cpp:399] inception_5b/3x3 -> inception_5b/3x3
I0403 19:09:19.941197  8681 net.cpp:141] Setting up inception_5b/3x3
I0403 19:09:19.941229  8681 net.cpp:148] Top shape: 24 384 7 7 (451584)
I0403 19:09:19.941246  8681 net.cpp:156] Memory required for data: 1332467232
I0403 19:09:19.941265  8681 layer_factory.hpp:77] Creating layer inception_5b/relu_3x3
I0403 19:09:19.941285  8681 net.cpp:91] Creating Layer inception_5b/relu_3x3
I0403 19:09:19.941303  8681 net.cpp:425] inception_5b/relu_3x3 <- inception_5b/3x3
I0403 19:09:19.941320  8681 net.cpp:386] inception_5b/relu_3x3 -> inception_5b/3x3 (in-place)
I0403 19:09:19.941609  8681 net.cpp:141] Setting up inception_5b/relu_3x3
I0403 19:09:19.941635  8681 net.cpp:148] Top shape: 24 384 7 7 (451584)
I0403 19:09:19.941649  8681 net.cpp:156] Memory required for data: 1334273568
I0403 19:09:19.941664  8681 layer_factory.hpp:77] Creating layer inception_5b/5x5_reduce
I0403 19:09:19.941701  8681 net.cpp:91] Creating Layer inception_5b/5x5_reduce
I0403 19:09:19.941720  8681 net.cpp:425] inception_5b/5x5_reduce <- inception_5a/output_inception_5a/output_0_split_2
I0403 19:09:19.941742  8681 net.cpp:399] inception_5b/5x5_reduce -> inception_5b/5x5_reduce
I0403 19:09:19.942982  8681 net.cpp:141] Setting up inception_5b/5x5_reduce
I0403 19:09:19.943009  8681 net.cpp:148] Top shape: 24 48 7 7 (56448)
I0403 19:09:19.943024  8681 net.cpp:156] Memory required for data: 1334499360
I0403 19:09:19.943042  8681 layer_factory.hpp:77] Creating layer inception_5b/relu_5x5_reduce
I0403 19:09:19.943063  8681 net.cpp:91] Creating Layer inception_5b/relu_5x5_reduce
I0403 19:09:19.943079  8681 net.cpp:425] inception_5b/relu_5x5_reduce <- inception_5b/5x5_reduce
I0403 19:09:19.943097  8681 net.cpp:386] inception_5b/relu_5x5_reduce -> inception_5b/5x5_reduce (in-place)
I0403 19:09:19.943508  8681 net.cpp:141] Setting up inception_5b/relu_5x5_reduce
I0403 19:09:19.943547  8681 net.cpp:148] Top shape: 24 48 7 7 (56448)
I0403 19:09:19.943562  8681 net.cpp:156] Memory required for data: 1334725152
I0403 19:09:19.943577  8681 layer_factory.hpp:77] Creating layer inception_5b/5x5
I0403 19:09:19.943596  8681 net.cpp:91] Creating Layer inception_5b/5x5
I0403 19:09:19.943614  8681 net.cpp:425] inception_5b/5x5 <- inception_5b/5x5_reduce
I0403 19:09:19.943632  8681 net.cpp:399] inception_5b/5x5 -> inception_5b/5x5
I0403 19:09:19.945626  8681 net.cpp:141] Setting up inception_5b/5x5
I0403 19:09:19.945653  8681 net.cpp:148] Top shape: 24 128 7 7 (150528)
I0403 19:09:19.945668  8681 net.cpp:156] Memory required for data: 1335327264
I0403 19:09:19.945686  8681 layer_factory.hpp:77] Creating layer inception_5b/relu_5x5
I0403 19:09:19.945706  8681 net.cpp:91] Creating Layer inception_5b/relu_5x5
I0403 19:09:19.945724  8681 net.cpp:425] inception_5b/relu_5x5 <- inception_5b/5x5
I0403 19:09:19.945740  8681 net.cpp:386] inception_5b/relu_5x5 -> inception_5b/5x5 (in-place)
I0403 19:09:19.945932  8681 net.cpp:141] Setting up inception_5b/relu_5x5
I0403 19:09:19.945956  8681 net.cpp:148] Top shape: 24 128 7 7 (150528)
I0403 19:09:19.945971  8681 net.cpp:156] Memory required for data: 1335929376
I0403 19:09:19.945986  8681 layer_factory.hpp:77] Creating layer inception_5b/pool
I0403 19:09:19.946002  8681 net.cpp:91] Creating Layer inception_5b/pool
I0403 19:09:19.946018  8681 net.cpp:425] inception_5b/pool <- inception_5a/output_inception_5a/output_0_split_3
I0403 19:09:19.946039  8681 net.cpp:399] inception_5b/pool -> inception_5b/pool
I0403 19:09:19.946112  8681 net.cpp:141] Setting up inception_5b/pool
I0403 19:09:19.946135  8681 net.cpp:148] Top shape: 24 832 7 7 (978432)
I0403 19:09:19.946149  8681 net.cpp:156] Memory required for data: 1339843104
I0403 19:09:19.946163  8681 layer_factory.hpp:77] Creating layer inception_5b/pool_proj
I0403 19:09:19.946187  8681 net.cpp:91] Creating Layer inception_5b/pool_proj
I0403 19:09:19.946204  8681 net.cpp:425] inception_5b/pool_proj <- inception_5b/pool
I0403 19:09:19.946228  8681 net.cpp:399] inception_5b/pool_proj -> inception_5b/pool_proj
I0403 19:09:19.948439  8681 net.cpp:141] Setting up inception_5b/pool_proj
I0403 19:09:19.948479  8681 net.cpp:148] Top shape: 24 128 7 7 (150528)
I0403 19:09:19.948494  8681 net.cpp:156] Memory required for data: 1340445216
I0403 19:09:19.948513  8681 layer_factory.hpp:77] Creating layer inception_5b/relu_pool_proj
I0403 19:09:19.948531  8681 net.cpp:91] Creating Layer inception_5b/relu_pool_proj
I0403 19:09:19.948549  8681 net.cpp:425] inception_5b/relu_pool_proj <- inception_5b/pool_proj
I0403 19:09:19.948565  8681 net.cpp:386] inception_5b/relu_pool_proj -> inception_5b/pool_proj (in-place)
I0403 19:09:19.948845  8681 net.cpp:141] Setting up inception_5b/relu_pool_proj
I0403 19:09:19.948870  8681 net.cpp:148] Top shape: 24 128 7 7 (150528)
I0403 19:09:19.948884  8681 net.cpp:156] Memory required for data: 1341047328
I0403 19:09:19.948899  8681 layer_factory.hpp:77] Creating layer inception_5b/output
I0403 19:09:19.948917  8681 net.cpp:91] Creating Layer inception_5b/output
I0403 19:09:19.948946  8681 net.cpp:425] inception_5b/output <- inception_5b/1x1
I0403 19:09:19.948963  8681 net.cpp:425] inception_5b/output <- inception_5b/3x3
I0403 19:09:19.948978  8681 net.cpp:425] inception_5b/output <- inception_5b/5x5
I0403 19:09:19.948994  8681 net.cpp:425] inception_5b/output <- inception_5b/pool_proj
I0403 19:09:19.949012  8681 net.cpp:399] inception_5b/output -> inception_5b/output
I0403 19:09:19.949061  8681 net.cpp:141] Setting up inception_5b/output
I0403 19:09:19.949084  8681 net.cpp:148] Top shape: 24 1024 7 7 (1204224)
I0403 19:09:19.949098  8681 net.cpp:156] Memory required for data: 1345864224
I0403 19:09:19.949112  8681 layer_factory.hpp:77] Creating layer pool5/7x7_s1
I0403 19:09:19.949129  8681 net.cpp:91] Creating Layer pool5/7x7_s1
I0403 19:09:19.949144  8681 net.cpp:425] pool5/7x7_s1 <- inception_5b/output
I0403 19:09:19.949190  8681 net.cpp:399] pool5/7x7_s1 -> pool5/7x7_s1
I0403 19:09:19.949406  8681 net.cpp:141] Setting up pool5/7x7_s1
I0403 19:09:19.949445  8681 net.cpp:148] Top shape: 24 1024 1 1 (24576)
I0403 19:09:19.949460  8681 net.cpp:156] Memory required for data: 1345962528
I0403 19:09:19.949475  8681 layer_factory.hpp:77] Creating layer pool5/drop_7x7_s1
I0403 19:09:19.949491  8681 net.cpp:91] Creating Layer pool5/drop_7x7_s1
I0403 19:09:19.949506  8681 net.cpp:425] pool5/drop_7x7_s1 <- pool5/7x7_s1
I0403 19:09:19.949522  8681 net.cpp:386] pool5/drop_7x7_s1 -> pool5/7x7_s1 (in-place)
I0403 19:09:19.949570  8681 net.cpp:141] Setting up pool5/drop_7x7_s1
I0403 19:09:19.949592  8681 net.cpp:148] Top shape: 24 1024 1 1 (24576)
I0403 19:09:19.949606  8681 net.cpp:156] Memory required for data: 1346060832
I0403 19:09:19.949620  8681 layer_factory.hpp:77] Creating layer loss3/classifier_plantvillage
I0403 19:09:19.949640  8681 net.cpp:91] Creating Layer loss3/classifier_plantvillage
I0403 19:09:19.949656  8681 net.cpp:425] loss3/classifier_plantvillage <- pool5/7x7_s1
I0403 19:09:19.949674  8681 net.cpp:399] loss3/classifier_plantvillage -> loss3/classifier_plantvillage
I0403 19:09:19.950079  8681 net.cpp:141] Setting up loss3/classifier_plantvillage
I0403 19:09:19.950103  8681 net.cpp:148] Top shape: 24 38 (912)
I0403 19:09:19.950116  8681 net.cpp:156] Memory required for data: 1346064480
I0403 19:09:19.950134  8681 layer_factory.hpp:77] Creating layer loss3/classifier_plantvillage_loss3/classifier_plantvillage_0_split
I0403 19:09:19.950151  8681 net.cpp:91] Creating Layer loss3/classifier_plantvillage_loss3/classifier_plantvillage_0_split
I0403 19:09:19.950166  8681 net.cpp:425] loss3/classifier_plantvillage_loss3/classifier_plantvillage_0_split <- loss3/classifier_plantvillage
I0403 19:09:19.950186  8681 net.cpp:399] loss3/classifier_plantvillage_loss3/classifier_plantvillage_0_split -> loss3/classifier_plantvillage_loss3/classifier_plantvillage_0_split_0
I0403 19:09:19.950206  8681 net.cpp:399] loss3/classifier_plantvillage_loss3/classifier_plantvillage_0_split -> loss3/classifier_plantvillage_loss3/classifier_plantvillage_0_split_1
I0403 19:09:19.950232  8681 net.cpp:399] loss3/classifier_plantvillage_loss3/classifier_plantvillage_0_split -> loss3/classifier_plantvillage_loss3/classifier_plantvillage_0_split_2
I0403 19:09:19.950251  8681 net.cpp:399] loss3/classifier_plantvillage_loss3/classifier_plantvillage_0_split -> loss3/classifier_plantvillage_loss3/classifier_plantvillage_0_split_3
I0403 19:09:19.950347  8681 net.cpp:141] Setting up loss3/classifier_plantvillage_loss3/classifier_plantvillage_0_split
I0403 19:09:19.950371  8681 net.cpp:148] Top shape: 24 38 (912)
I0403 19:09:19.950388  8681 net.cpp:148] Top shape: 24 38 (912)
I0403 19:09:19.950403  8681 net.cpp:148] Top shape: 24 38 (912)
I0403 19:09:19.950418  8681 net.cpp:148] Top shape: 24 38 (912)
I0403 19:09:19.950431  8681 net.cpp:156] Memory required for data: 1346079072
I0403 19:09:19.950444  8681 layer_factory.hpp:77] Creating layer loss1/loss
I0403 19:09:19.950465  8681 net.cpp:91] Creating Layer loss1/loss
I0403 19:09:19.950482  8681 net.cpp:425] loss1/loss <- loss1/classifier_plantvillage_loss1/classifier_plantvillage_0_split_0
I0403 19:09:19.950511  8681 net.cpp:425] loss1/loss <- label_data_1_split_0
…
