…
I0403 19:14:35.261657  8979 net.cpp:313] The NetState phase (1) differed from the phase (0) specified by a rule in layer data
I0403 19:14:35.263933  8979 net.cpp:49] Initializing net from parameters: 
state {
  phase: TEST
}
layer {
  name: "data"
  type: "Data"
  top: "data"
  top: "label"
  include {
    phase: TEST
  }
  transform_param {
    mirror: false
    crop_size: 224
    mean_file: "/home/mohanty/data/final_dataset/lmdb/grayscale-50-50/mean.binaryproto"
  }
  data_param {
    source: "/home/mohanty/data/final_dataset/lmdb/grayscale-50-50/test_db"
    batch_size: 24
    backend: LMDB
  }
}
layer {
  name: "conv1/7x7_s2"
  type: "Convolution"
  bottom: "data"
  top: "conv1/7x7_s2"
  param {
    lr_mult: 1
    decay_mult: 1
  }
  param {
    lr_mult: 2
    decay_mult: 0
  }
  convolution_param {
    num_output: 64
    pad: 3
    kernel_size: 7
    stride: 2
    weight_filler {
      type: "xavier"
      std: 0.1
    }
    bias_filler {
      type: "constant"
      value: 0.2
    }
  }
}
layer {
  name: "conv1/relu_7x7"
  type: "ReLU"
  bottom: "conv1/7x7_s2"
  top: "conv1/7x7_s2"
}
layer {
  name: "pool1/3x3_s2"
  type: "Pooling"
  bottom: "conv1/7x7_s2"
  top: "pool1/3x3_s2"
  pooling_param {
    pool: MAX
    kernel_size: 3
    stride: 2
  }
}
layer {
  name: "pool1/norm1"
  type: "LRN"
  bottom: "pool1/3x3_s2"
  top: "pool1/norm1"
  lrn_param {
    local_size: 5
    alpha: 0.0001
    beta: 0.75
  }
}
layer {
  name: "conv2/3x3_reduce"
  type: "Convolution"
  bottom: "pool1/norm1"
  top: "conv2/3x3_reduce"
  param {
    lr_mult: 1
    decay_mult: 1
  }
  param {
    lr_mult: 2
    decay_mult: 0
  }
  convolution_param {
    num_output: 64
    kernel_size: 1
    weight_filler {
      type: "xavier"
      std: 0.1
    }
    bias_filler {
      type: "constant"
      value: 0.2
    }
  }
}
layer {
  name: "conv2/relu_3x3_reduce"
  type: "ReLU"
  bottom: "conv2/3x3_reduce"
  top: "conv2/3x3_reduce"
}
layer {
  name: "conv2/3x3"
  type: "Convolution"
  bottom: "conv2/3x3_reduce"
  top: "conv2/3x3"
  param {
    lr_mult: 1
    decay_mult: 1
  }
  param {
    lr_mult: 2
    decay_mult: 0
  }
  convolution_param {
    num_output: 192
    pad: 1
    kernel_size: 3
    weight_filler {
      type: "xavier"
      std: 0.03
    }
    bias_filler {
      type: "constant"
      value: 0.2
    }
  }
}
layer {
  name: "conv2/relu_3x3"
  type: "ReLU"
  bottom: "conv2/3x3"
  top: "conv2/3x3"
}
layer {
  name: "conv2/norm2"
  type: "LRN"
  bottom: "conv2/3x3"
  top: "conv2/norm2"
  lrn_param {
    local_size: 5
    alpha: 0.0001
    beta: 0.75
  }
}
layer {
  name: "pool2/3x3_s2"
  type: "Pooling"
  bottom: "conv2/norm2"
  top: "pool2/3x3_s2"
  pooling_param {
    pool: MAX
    kernel_size: 3
    stride: 2
  }
}
layer {
  name: "inception_3a/1x1"
  type: "Convolution"
  bottom: "pool2/3x3_s2"
  top: "inception_3a/1x1"
  param {
    lr_mult: 1
    decay_mult: 1
  }
  param {
    lr_mult: 2
    decay_mult: 0
  }
  convolution_param {
    num_output: 64
    kernel_size: 1
    weight_filler {
      type: "xavier"
      std: 0.03
    }
    bias_filler {
      type: "constant"
      value: 0.2
    }
  }
}
layer {
  name: "inception_3a/relu_1x1"
  type: "ReLU"
  bottom: "inception_3a/1x1"
  top: "inception_3a/1x1"
}
layer {
  name: "inception_3a/3x3_reduce"
  type: "Convolution"
  bottom: "pool2/3x3_s2"
  top: "inception_3a/3x3_reduce"
  param {
    lr_mult: 1
    decay_mult: 1
  }
  param {
    lr_mult: 2
    decay_mult: 0
  }
  convolution_param {
    num_output: 96
    kernel_size: 1
    weight_filler {
      type: "xavier"
      std: 0.09
    }
    bias_filler {
      type: "constant"
      value: 0.2
    }
  }
}
layer {
  name: "inception_3a/relu_3x3_reduce"
  type: "ReLU"
  bottom: "inception_3a/3x3_reduce"
  top: "inception_3a/3x3_reduce"
}
layer {
  name: "inception_3a/3x3"
  type: "Convolution"
  bottom: "inception_3a/3x3_reduce"
  top: "inception_3a/3x3"
  param {
    lr_mult: 1
    decay_mult: 1
  }
  param {
    lr_mult: 2
    decay_mult: 0
  }
  convolution_param {
    num_output: 128
    pad: 1
    kernel_size: 3
    weight_filler {
      type: "xavier"
      std: 0.03
    }
    bias_filler {
      type: "constant"
      value: 0.2
    }
  }
}
layer {
  name: "inception_3a/relu_3x3"
  type: "ReLU"
  bottom: "inception_3a/3x3"
  top: "inception_3a/3x3"
}
layer {
  name: "inception_3a/5x5_reduce"
  type: "Convolution"
  bottom: "pool2/3x3_s2"
  top: "inception_3a/5x5_reduce"
  param {
    lr_mult: 1
    decay_mult: 1
  }
  param {
    lr_mult: 2
    decay_mult: 0
  }
  convolution_param {
    num_output: 16
    kernel_size: 1
    weight_filler {
      type: "xavier"
      std: 0.2
    }
    bias_filler {
      type: "constant"
      value: 0.2
    }
  }
}
layer {
  name: "inception_3a/relu_5x5_reduce"
  type: "ReLU"
  bottom: "inception_3a/5x5_reduce"
  top: "inception_3a/5x5_reduce"
}
layer {
  name: "inception_3a/5x5"
  type: "Convolution"
  bottom: "inception_3a/5x5_reduce"
  top: "inception_3a/5x5"
  param {
    lr_mult: 1
    decay_mult: 1
  }
  param {
    lr_mult: 2
    decay_mult: 0
  }
  convolution_param {
    num_output: 32
    pad: 2
    kernel_size: 5
    weight_filler {
      type: "xavier"
      std: 0.03
    }
    bias_filler {
      type: "constant"
      value: 0.2
    }
  }
}
layer {
  name: "inception_3a/relu_5x5"
  type: "ReLU"
  bottom: "inception_3a/5x5"
  top: "inception_3a/5x5"
}
layer {
  name: "inception_3a/pool"
  type: "Pooling"
  bottom: "pool2/3x3_s2"
  top: "inception_3a/pool"
  pooling_param {
    pool: MAX
    kernel_size: 3
    stride: 1
    pad: 1
  }
}
layer {
  name: "inception_3a/pool_proj"
  type: "Convolution"
  bottom: "inception_3a/pool"
  top: "inception_3a/pool_proj"
  param {
    lr_mult: 1
    decay_mult: 1
  }
  param {
    lr_mult: 2
    decay_mult: 0
  }
  convolution_param {
    num_output: 32
    kernel_size: 1
    weight_filler {
      type: "xavier"
      std: 0.1
    }
    bias_filler {
      type: "constant"
      value: 0.2
    }
  }
}
layer {
  name: "inception_3a/relu_pool_proj"
  type: "ReLU"
  bottom: "inception_3a/pool_proj"
  top: "inception_3a/pool_proj"
}
layer {
  name: "inception_3a/output"
  type: "Concat"
  bottom: "inception_3a/1x1"
  bottom: "inception_3a/3x3"
  bottom: "inception_3a/5x5"
  bottom: "inception_3a/pool_proj"
  top: "inception_3a/output"
}
layer {
  name: "inception_3b/1x1"
  type: "Convolution"
  bottom: "inception_3a/output"
  top: "inception_3b/1x1"
  param {
    lr_mult: 1
    decay_mult: 1
  }
  param {
    lr_mult: 2
    decay_mult: 0
  }
  convolution_param {
    num_output: 128
    kernel_size: 1
    weight_filler {
      type: "xavier"
      std: 0.03
    }
    bias_filler {
      type: "constant"
      value: 0.2
    }
  }
}
layer {
  name: "inception_3b/relu_1x1"
  type: "ReLU"
  bottom: "inception_3b/1x1"
  top: "inception_3b/1x1"
}
layer {
  name: "inception_3b/3x3_reduce"
  type: "Convolution"
  bottom: "inception_3a/output"
  top: "inception_3b/3x3_reduce"
  param {
    lr_mult: 1
    decay_mult: 1
  }
  param {
    lr_mult: 2
    decay_mult: 0
  }
  convolution_param {
    num_output: 128
    kernel_size: 1
    weight_filler {
      type: "xavier"
      std: 0.09
    }
    bias_filler {
      type: "constant"
      value: 0.2
    }
  }
}
layer {
  name: "inception_3b/relu_3x3_reduce"
  type: "ReLU"
  bottom: "inception_3b/3x3_reduce"
  top: "inception_3b/3x3_reduce"
}
layer {
  name: "inception_3b/3x3"
  type: "Convolution"
  bottom: "inception_3b/3x3_reduce"
  top: "inception_3b/3x3"
  param {
    lr_mult: 1
    decay_mult: 1
  }
  param {
    lr_mult: 2
    decay_mult: 0
  }
  convolution_param {
    num_output: 192
    pad: 1
    kernel_size: 3
    weight_filler {
      type: "xavier"
      std: 0.03
    }
    bias_filler {
      type: "constant"
      value: 0.2
    }
  }
}
layer {
  name: "inception_3b/relu_3x3"
  type: "ReLU"
  bottom: "inception_3b/3x3"
  top: "inception_3b/3x3"
}
layer {
  name: "inception_3b/5x5_reduce"
  type: "Convolution"
  bottom: "inception_3a/output"
  top: "inception_3b/5x5_reduce"
  param {
    lr_mult: 1
    decay_mult: 1
  }
  param {
    lr_mult: 2
    decay_mult: 0
  }
  convolution_param {
    num_output: 32
    kernel_size: 1
    weight_filler {
      type: "xavier"
      std: 0.2
    }
    bias_filler {
      type: "constant"
      value: 0.2
    }
  }
}
layer {
  name: "inception_3b/relu_5x5_reduce"
  type: "ReLU"
  bottom: "inception_3b/5x5_reduce"
  top: "inception_3b/5x5_reduce"
}
layer {
  name: "inception_3b/5x5"
  type: "Convolution"
  bottom: "inception_3b/5x5_reduce"
  top: "inception_3b/5x5"
  param {
    lr_mult: 1
    decay_mult: 1
  }
  param {
    lr_mult: 2
    decay_mult: 0
  }
  convolution_param {
    num_output: 96
    pad: 2
    kernel_size: 5
    weight_filler {
      type: "xavier"
      std: 0.03
    }
    bias_filler {
      type: "constant"
      value: 0.2
    }
  }
}
layer {
  name: "inception_3b/relu_5x5"
  type: "ReLU"
  bottom: "inception_3b/5x5"
  top: "inception_3b/5x5"
}
layer {
  name: "inception_3b/pool"
  type: "Pooling"
  bottom: "inception_3a/output"
  top: "inception_3b/pool"
  pooling_param {
    pool: MAX
    kernel_size: 3
    stride: 1
    pad: 1
  }
}
layer {
  name: "inception_3b/pool_proj"
  type: "Convolution"
  bottom: "inception_3b/pool"
  top: "inception_3b/pool_proj"
  param {
    lr_mult: 1
    decay_mult: 1
  }
  param {
    lr_mult: 2
    decay_mult: 0
  }
  convolution_param {
    num_output: 64
    kernel_size: 1
    weight_filler {
      type: "xavier"
      std: 0.1
    }
    bias_filler {
      type: "constant"
      value: 0.2
    }
  }
}
layer {
  name: "inception_3b/relu_pool_proj"
  type: "ReLU"
  bottom: "inception_3b/pool_proj"
  top: "inception_3b/pool_proj"
}
layer {
  name: "inception_3b/output"
  type: "Concat"
  bottom: "inception_3b/1x1"
  bottom: "inception_3b/3x3"
  bottom: "inception_3b/5x5"
  bottom: "inception_3b/pool_proj"
  top: "inception_3b/output"
}
layer {
  name: "pool3/3x3_s2"
  type: "Pooling"
  bottom: "inception_3b/output"
  top: "pool3/3x3_s2"
  pooling_param {
    pool: MAX
    kernel_size: 3
    stride: 2
  }
}
layer {
  name: "inception_4a/1x1"
  type: "Convolution"
  bottom: "pool3/3x3_s2"
  top: "inception_4a/1x1"
  param {
    lr_mult: 1
    decay_mult: 1
  }
  param {
    lr_mult: 2
    decay_mult: 0
  }
  convolution_param {
    num_output: 192
    kernel_size: 1
    weight_filler {
      type: "xavier"
      std: 0.03
    }
    bias_filler {
      type: "constant"
      value: 0.2
    }
  }
}
layer {
  name: "inception_4a/relu_1x1"
  type: "ReLU"
  bottom: "inception_4a/1x1"
  top: "inception_4a/1x1"
}
layer {
  name: "inception_4a/3x3_reduce"
  type: "Convolution"
  bottom: "pool3/3x3_s2"
  top: "inception_4a/3x3_reduce"
  param {
    lr_mult: 1
    decay_mult: 1
  }
  param {
    lr_mult: 2
    decay_mult: 0
  }
  convolution_param {
    num_output: 96
    kernel_size: 1
    weight_filler {
      type: "xavier"
      std: 0.09
    }
    bias_filler {
      type: "constant"
      value: 0.2
    }
  }
}
layer {
  name: "inception_4a/relu_3x3_reduce"
  type: "ReLU"
  bottom: "inception_4a/3x3_reduce"
  top: "inception_4a/3x3_reduce"
}
layer {
  name: "inception_4a/3x3"
  type: "Convolution"
  bottom: "inception_4a/3x3_reduce"
  top: "inception_4a/3x3"
  param {
    lr_mult: 1
    decay_mult: 1
  }
  param {
    lr_mult: 2
    decay_mult: 0
  }
  convolution_param {
    num_output: 208
    pad: 1
    kernel_size: 3
    weight_filler {
      type: "xavier"
      std: 0.03
    }
    bias_filler {
      type: "constant"
      value: 0.2
    }
  }
}
layer {
  name: "inception_4a/relu_3x3"
  type: "ReLU"
  bottom: "inception_4a/3x3"
  top: "inception_4a/3x3"
}
layer {
  name: "inception_4a/5x5_reduce"
  type: "Convolution"
  bottom: "pool3/3x3_s2"
  top: "inception_4a/5x5_reduce"
  param {
    lr_mult: 1
    decay_mult: 1
  }
  param {
    lr_mult: 2
    decay_mult: 0
  }
  convolution_param {
    num_output: 16
    kernel_size: 1
    weight_filler {
      type: "xavier"
      std: 0.2
    }
    bias_filler {
      type: "constant"
      value: 0.2
    }
  }
}
layer {
  name: "inception_4a/relu_5x5_reduce"
  type: "ReLU"
  bottom: "inception_4a/5x5_reduce"
  top: "inception_4a/5x5_reduce"
}
layer {
  name: "inception_4a/5x5"
  type: "Convolution"
  bottom: "inception_4a/5x5_reduce"
  top: "inception_4a/5x5"
  param {
    lr_mult: 1
    decay_mult: 1
  }
  param {
    lr_mult: 2
    decay_mult: 0
  }
  convolution_param {
    num_output: 48
    pad: 2
    kernel_size: 5
    weight_filler {
      type: "xavier"
      std: 0.03
    }
    bias_filler {
      type: "constant"
      value: 0.2
    }
  }
}
layer {
  name: "inception_4a/relu_5x5"
  type: "ReLU"
  bottom: "inception_4a/5x5"
  top: "inception_4a/5x5"
}
layer {
  name: "inception_4a/pool"
  type: "Pooling"
  bottom: "pool3/3x3_s2"
  top: "inception_4a/pool"
  pooling_param {
    pool: MAX
    kernel_size: 3
    stride: 1
    pad: 1
  }
}
layer {
  name: "inception_4a/pool_proj"
  type: "Convolution"
  bottom: "inception_4a/pool"
  top: "inception_4a/pool_proj"
  param {
    lr_mult: 1
    decay_mult: 1
  }
  param {
    lr_mult: 2
    decay_mult: 0
  }
  convolution_param {
    num_output: 64
    kernel_size: 1
    weight_filler {
      type: "xavier"
      std: 0.1
    }
    bias_filler {
      type: "constant"
      value: 0.2
    }
  }
}
layer {
  name: "inception_4a/relu_pool_proj"
  type: "ReLU"
  bottom: "inception_4a/pool_proj"
  top: "inception_4a/pool_proj"
}
layer {
  name: "inception_4a/output"
  type: "Concat"
  bottom: "inception_4a/1x1"
  bottom: "inception_4a/3x3"
  bottom: "inception_4a/5x5"
  bottom: "inception_4a/pool_proj"
  top: "inception_4a/output"
}
layer {
  name: "loss1/ave_pool"
  type: "Pooling"
  bottom: "inception_4a/output"
  top: "loss1/ave_pool"
  pooling_param {
    pool: AVE
    kernel_size: 5
    stride: 3
  }
}
layer {
  name: "loss1/conv"
  type: "Convolution"
  bottom: "loss1/ave_pool"
  top: "loss1/conv"
  param {
    lr_mult: 1
    decay_mult: 1
  }
  param {
    lr_mult: 2
    decay_mult: 0
  }
  convolution_param {
    num_output: 128
    kernel_size: 1
    weight_filler {
      type: "xavier"
      std: 0.08
    }
    bias_filler {
      type: "constant"
      value: 0.2
    }
  }
}
layer {
  name: "loss1/relu_conv"
  type: "ReLU"
  bottom: "loss1/conv"
  top: "loss1/conv"
}
layer {
  name: "loss1/fc"
  type: "InnerProduct"
  bottom: "loss1/conv"
  top: "loss1/fc"
  param {
    lr_mult: 1
    decay_mult: 1
  }
  param {
    lr_mult: 2
    decay_mult: 0
  }
  inner_product_param {
    num_output: 1024
    weight_filler {
      type: "xavier"
      std: 0.02
    }
    bias_filler {
      type: "constant"
      value: 0.2
    }
  }
}
layer {
  name: "loss1/relu_fc"
  type: "ReLU"
  bottom: "loss1/fc"
  top: "loss1/fc"
}
layer {
  name: "loss1/drop_fc"
  type: "Dropout"
  bottom: "loss1/fc"
  top: "loss1/fc"
  dropout_param {
    dropout_ratio: 0.7
  }
}
layer {
  name: "loss1/classifier_plantvillage"
  type: "InnerProduct"
  bottom: "loss1/fc"
  top: "loss1/classifier_plantvillage"
  param {
    lr_mult: 1
    decay_mult: 1
  }
  param {
    lr_mult: 2
    decay_mult: 0
  }
  inner_product_param {
    num_output: 38
    weight_filler {
      type: "xavier"
      std: 0.0009765625
    }
    bias_filler {
      type: "constant"
      value: 0
    }
  }
}
layer {
  name: "inception_4b/1x1"
  type: "Convolution"
  bottom: "inception_4a/output"
  top: "inception_4b/1x1"
  param {
    lr_mult: 1
    decay_mult: 1
  }
  param {
    lr_mult: 2
    decay_mult: 0
  }
  convolution_param {
    num_output: 160
    kernel_size: 1
    weight_filler {
      type: "xavier"
      std: 0.03
    }
    bias_filler {
      type: "constant"
      value: 0.2
    }
  }
}
layer {
  name: "inception_4b/relu_1x1"
  type: "ReLU"
  bottom: "inception_4b/1x1"
  top: "inception_4b/1x1"
}
layer {
  name: "inception_4b/3x3_reduce"
  type: "Convolution"
  bottom: "inception_4a/output"
  top: "inception_4b/3x3_reduce"
  param {
    lr_mult: 1
    decay_mult: 1
  }
  param {
    lr_mult: 2
    decay_mult: 0
  }
  convolution_param {
    num_output: 112
    kernel_size: 1
    weight_filler {
      type: "xavier"
      std: 0.09
    }
    bias_filler {
      type: "constant"
      value: 0.2
    }
  }
}
layer {
  name: "inception_4b/relu_3x3_reduce"
  type: "ReLU"
  bottom: "inception_4b/3x3_reduce"
  top: "inception_4b/3x3_reduce"
}
layer {
  name: "inception_4b/3x3"
  type: "Convolution"
  bottom: "inception_4b/3x3_reduce"
  top: "inception_4b/3x3"
  param {
    lr_mult: 1
    decay_mult: 1
  }
  param {
    lr_mult: 2
    decay_mult: 0
  }
  convolution_param {
    num_output: 224
    pad: 1
    kernel_size: 3
    weight_filler {
      type: "xavier"
      std: 0.03
    }
    bias_filler {
      type: "constant"
      value: 0.2
    }
  }
}
layer {
  name: "inception_4b/relu_3x3"
  type: "ReLU"
  bottom: "inception_4b/3x3"
  top: "inception_4b/3x3"
}
layer {
  name: "inception_4b/5x5_reduce"
  type: "Convolution"
  bottom: "inception_4a/output"
  top: "inception_4b/5x5_reduce"
  param {
    lr_mult: 1
    decay_mult: 1
  }
  param {
    lr_mult: 2
    decay_mult: 0
  }
  convolution_param {
    num_output: 24
    kernel_size: 1
    weight_filler {
      type: "xavier"
      std: 0.2
    }
    bias_filler {
      type: "constant"
      value: 0.2
    }
  }
}
layer {
  name: "inception_4b/relu_5x5_reduce"
  type: "ReLU"
  bottom: "inception_4b/5x5_reduce"
  top: "inception_4b/5x5_reduce"
}
layer {
  name: "inception_4b/5x5"
  type: "Convolution"
  bottom: "inception_4b/5x5_reduce"
  top: "inception_4b/5x5"
  param {
    lr_mult: 1
    decay_mult: 1
  }
  param {
    lr_mult: 2
    decay_mult: 0
  }
  convolution_param {
    num_output: 64
    pad: 2
    kernel_size: 5
    weight_filler {
      type: "xavier"
      std: 0.03
    }
    bias_filler {
      type: "constant"
      value: 0.2
    }
  }
}
layer {
  name: "inception_4b/relu_5x5"
  type: "ReLU"
  bottom: "inception_4b/5x5"
  top: "inception_4b/5x5"
}
layer {
  name: "inception_4b/pool"
  type: "Pooling"
  bottom: "inception_4a/output"
  top: "inception_4b/pool"
  pooling_param {
    pool: MAX
    kernel_size: 3
    stride: 1
    pad: 1
  }
}
layer {
  name: "inception_4b/pool_proj"
  type: "Convolution"
  bottom: "inception_4b/pool"
  top: "inception_4b/pool_proj"
  param {
    lr_mult: 1
    decay_mult: 1
  }
  param {
    lr_mult: 2
    decay_mult: 0
  }
  convolution_param {
    num_output: 64
    kernel_size: 1
    weight_filler {
      type: "xavier"
      std: 0.1
    }
    bias_filler {
      type: "constant"
      value: 0.2
    }
  }
}
layer {
  name: "inception_4b/relu_pool_proj"
  type: "ReLU"
  bottom: "inception_4b/pool_proj"
  top: "inception_4b/pool_proj"
}
layer {
  name: "inception_4b/output"
  type: "Concat"
  bottom: "inception_4b/1x1"
  bottom: "inception_4b/3x3"
  bottom: "inception_4b/5x5"
  bottom: "inception_4b/pool_proj"
  top: "inception_4b/output"
}
layer {
  name: "inception_4c/1x1"
  type: "Convolution"
  bottom: "inception_4b/output"
  top: "inception_4c/1x1"
  param {
    lr_mult: 1
    decay_mult: 1
  }
  param {
    lr_mult: 2
    decay_mult: 0
  }
  convolution_param {
    num_output: 128
    kernel_size: 1
    weight_filler {
      type: "xavier"
      std: 0.03
    }
    bias_filler {
      type: "constant"
      value: 0.2
    }
  }
}
layer {
  name: "inception_4c/relu_1x1"
  type: "ReLU"
  bottom: "inception_4c/1x1"
  top: "inception_4c/1x1"
}
layer {
  name: "inception_4c/3x3_reduce"
  type: "Convolution"
  bottom: "inception_4b/output"
  top: "inception_4c/3x3_reduce"
  param {
    lr_mult: 1
    decay_mult: 1
  }
  param {
    lr_mult: 2
    decay_mult: 0
  }
  convolution_param {
    num_output: 128
    kernel_size: 1
    weight_filler {
      type: "xavier"
      std: 0.09
    }
    bias_filler {
      type: "constant"
      value: 0.2
    }
  }
}
layer {
  name: "inception_4c/relu_3x3_reduce"
  type: "ReLU"
  bottom: "inception_4c/3x3_reduce"
  top: "inception_4c/3x3_reduce"
}
layer {
  name: "inception_4c/3x3"
  type: "Convolution"
  bottom: "inception_4c/3x3_reduce"
  top: "inception_4c/3x3"
  param {
    lr_mult: 1
    decay_mult: 1
  }
  param {
    lr_mult: 2
    decay_mult: 0
  }
  convolution_param {
    num_output: 256
    pad: 1
    kernel_size: 3
    weight_filler {
      type: "xavier"
      std: 0.03
    }
    bias_filler {
      type: "constant"
      value: 0.2
    }
  }
}
layer {
  name: "inception_4c/relu_3x3"
  type: "ReLU"
  bottom: "inception_4c/3x3"
  top: "inception_4c/3x3"
}
layer {
  name: "inception_4c/5x5_reduce"
  type: "Convolution"
  bottom: "inception_4b/output"
  top: "inception_4c/5x5_reduce"
  param {
    lr_mult: 1
    decay_mult: 1
  }
  param {
    lr_mult: 2
    decay_mult: 0
  }
  convolution_param {
    num_output: 24
    kernel_size: 1
    weight_filler {
      type: "xavier"
      std: 0.2
    }
    bias_filler {
      type: "constant"
      value: 0.2
    }
  }
}
layer {
  name: "inception_4c/relu_5x5_reduce"
  type: "ReLU"
  bottom: "inception_4c/5x5_reduce"
  top: "inception_4c/5x5_reduce"
}
layer {
  name: "inception_4c/5x5"
  type: "Convolution"
  bottom: "inception_4c/5x5_reduce"
  top: "inception_4c/5x5"
  param {
    lr_mult: 1
    decay_mult: 1
  }
  param {
    lr_mult: 2
    decay_mult: 0
  }
  convolution_param {
    num_output: 64
    pad: 2
    kernel_size: 5
    weight_filler {
      type: "xavier"
      std: 0.03
    }
    bias_filler {
      type: "constant"
      value: 0.2
    }
  }
}
layer {
  name: "inception_4c/relu_5x5"
  type: "ReLU"
  bottom: "inception_4c/5x5"
  top: "inception_4c/5x5"
}
layer {
  name: "inception_4c/pool"
  type: "Pooling"
  bottom: "inception_4b/output"
  top: "inception_4c/pool"
  pooling_param {
    pool: MAX
    kernel_size: 3
    stride: 1
    pad: 1
  }
}
layer {
  name: "inception_4c/pool_proj"
  type: "Convolution"
  bottom: "inception_4c/pool"
  top: "inception_4c/pool_proj"
  param {
    lr_mult: 1
    decay_mult: 1
  }
  param {
    lr_mult: 2
    decay_mult: 0
  }
  convolution_param {
    num_output: 64
    kernel_size: 1
    weight_filler {
      type: "xavier"
      std: 0.1
    }
    bias_filler {
      type: "constant"
      value: 0.2
    }
  }
}
layer {
  name: "inception_4c/relu_pool_proj"
  type: "ReLU"
  bottom: "inception_4c/pool_proj"
  top: "inception_4c/pool_proj"
}
layer {
  name: "inception_4c/output"
  type: "Concat"
  bottom: "inception_4c/1x1"
  bottom: "inception_4c/3x3"
  bottom: "inception_4c/5x5"
  bottom: "inception_4c/pool_proj"
  top: "inception_4c/output"
}
layer {
  name: "inception_4d/1x1"
  type: "Convolution"
  bottom: "inception_4c/output"
  top: "inception_4d/1x1"
  param {
    lr_mult: 1
    decay_mult: 1
  }
  param {
    lr_mult: 2
    decay_mult: 0
  }
  convolution_param {
    num_output: 112
    kernel_size: 1
    weight_filler {
      type: "xavier"
      std: 0.03
    }
    bias_filler {
      type: "constant"
      value: 0.2
    }
  }
}
layer {
  name: "inception_4d/relu_1x1"
  type: "ReLU"
  bottom: "inception_4d/1x1"
  top: "inception_4d/1x1"
}
layer {
  name: "inception_4d/3x3_reduce"
  type: "Convolution"
  bottom: "inception_4c/output"
  top: "inception_4d/3x3_reduce"
  param {
    lr_mult: 1
    decay_mult: 1
  }
  param {
    lr_mult: 2
    decay_mult: 0
  }
  convolution_param {
    num_output: 144
    kernel_size: 1
    weight_filler {
      type: "xavier"
      std: 0.09
    }
    bias_filler {
      type: "constant"
      value: 0.2
    }
  }
}
layer {
  name: "inception_4d/relu_3x3_reduce"
  type: "ReLU"
  bottom: "inception_4d/3x3_reduce"
  top: "inception_4d/3x3_reduce"
}
layer {
  name: "inception_4d/3x3"
  type: "Convolution"
  bottom: "inception_4d/3x3_reduce"
  top: "inception_4d/3x3"
  param {
    lr_mult: 1
    decay_mult: 1
  }
  param {
    lr_mult: 2
    decay_mult: 0
  }
  convolution_param {
    num_output: 288
    pad: 1
    kernel_size: 3
    weight_filler {
      type: "xavier"
      std: 0.03
    }
    bias_filler {
      type: "constant"
      value: 0.2
    }
  }
}
layer {
  name: "inception_4d/relu_3x3"
  type: "ReLU"
  bottom: "inception_4d/3x3"
  top: "inception_4d/3x3"
}
layer {
  name: "inception_4d/5x5_reduce"
  type: "Convolution"
  bottom: "inception_4c/output"
  top: "inception_4d/5x5_reduce"
  param {
    lr_mult: 1
    decay_mult: 1
  }
  param {
    lr_mult: 2
    decay_mult: 0
  }
  convolution_param {
    num_output: 32
    kernel_size: 1
    weight_filler {
      type: "xavier"
      std: 0.2
    }
    bias_filler {
      type: "constant"
      value: 0.2
    }
  }
}
layer {
  name: "inception_4d/relu_5x5_reduce"
  type: "ReLU"
  bottom: "inception_4d/5x5_reduce"
  top: "inception_4d/5x5_reduce"
}
layer {
  name: "inception_4d/5x5"
  type: "Convolution"
  bottom: "inception_4d/5x5_reduce"
  top: "inception_4d/5x5"
  param {
    lr_mult: 1
    decay_mult: 1
  }
  param {
    lr_mult: 2
    decay_mult: 0
  }
  convolution_param {
    num_output: 64
    pad: 2
    kernel_size: 5
    weight_filler {
      type: "xavier"
      std: 0.03
    }
    bias_filler {
      type: "constant"
      value: 0.2
    }
  }
}
layer {
  name: "inception_4d/relu_5x5"
  type: "ReLU"
  bottom: "inception_4d/5x5"
  top: "inception_4d/5x5"
}
layer {
  name: "inception_4d/pool"
  type: "Pooling"
  bottom: "inception_4c/output"
  top: "inception_4d/pool"
  pooling_param {
    pool: MAX
    kernel_size: 3
    stride: 1
    pad: 1
  }
}
layer {
  name: "inception_4d/pool_proj"
  type: "Convolution"
  bottom: "inception_4d/pool"
  top: "inception_4d/pool_proj"
  param {
    lr_mult: 1
    decay_mult: 1
  }
  param {
    lr_mult: 2
    decay_mult: 0
  }
  convolution_param {
    num_output: 64
    kernel_size: 1
    weight_filler {
      type: "xavier"
      std: 0.1
    }
    bias_filler {
      type: "constant"
      value: 0.2
    }
  }
}
layer {
  name: "inception_4d/relu_pool_proj"
  type: "ReLU"
  bottom: "inception_4d/pool_proj"
  top: "inception_4d/pool_proj"
}
layer {
  name: "inception_4d/output"
  type: "Concat"
  bottom: "inception_4d/1x1"
  bottom: "inception_4d/3x3"
  bottom: "inception_4d/5x5"
  bottom: "inception_4d/pool_proj"
  top: "inception_4d/output"
}
layer {
  name: "loss2/ave_pool"
  type: "Pooling"
  bottom: "inception_4d/output"
  top: "loss2/ave_pool"
  pooling_param {
    pool: AVE
    kernel_size: 5
    stride: 3
  }
}
layer {
  name: "loss2/conv"
  type: "Convolution"
  bottom: "loss2/ave_pool"
  top: "loss2/conv"
  param {
    lr_mult: 1
    decay_mult: 1
  }
  param {
    lr_mult: 2
    decay_mult: 0
  }
  convolution_param {
    num_output: 128
    kernel_size: 1
    weight_filler {
      type: "xavier"
      std: 0.08
    }
    bias_filler {
      type: "constant"
      value: 0.2
    }
  }
}
layer {
  name: "loss2/relu_conv"
  type: "ReLU"
  bottom: "loss2/conv"
  top: "loss2/conv"
}
layer {
  name: "loss2/fc"
  type: "InnerProduct"
  bottom: "loss2/conv"
  top: "loss2/fc"
  param {
    lr_mult: 1
    decay_mult: 1
  }
  param {
    lr_mult: 2
    decay_mult: 0
  }
  inner_product_param {
    num_output: 1024
    weight_filler {
      type: "xavier"
      std: 0.02
    }
    bias_filler {
      type: "constant"
      value: 0.2
    }
  }
}
layer {
  name: "loss2/relu_fc"
  type: "ReLU"
  bottom: "loss2/fc"
  top: "loss2/fc"
}
layer {
  name: "loss2/drop_fc"
  type: "Dropout"
  bottom: "loss2/fc"
  top: "loss2/fc"
  dropout_param {
    dropout_ratio: 0.7
  }
}
layer {
  name: "loss2/classifier_plantvillage"
  type: "InnerProduct"
  bottom: "loss2/fc"
  top: "loss2/classifier_plantvillage"
  param {
    lr_mult: 1
    decay_mult: 1
  }
  param {
    lr_mult: 2
    decay_mult: 0
  }
  inner_product_param {
    num_output: 38
    weight_filler {
      type: "xavier"
      std: 0.0009765625
    }
    bias_filler {
      type: "constant"
      value: 0
    }
  }
}
layer {
  name: "inception_4e/1x1"
  type: "Convolution"
  bottom: "inception_4d/output"
  top: "inception_4e/1x1"
  param {
    lr_mult: 1
    decay_mult: 1
  }
  param {
    lr_mult: 2
    decay_mult: 0
  }
  convolution_param {
    num_output: 256
    kernel_size: 1
    weight_filler {
      type: "xavier"
      std: 0.03
    }
    bias_filler {
      type: "constant"
      value: 0.2
    }
  }
}
layer {
  name: "inception_4e/relu_1x1"
  type: "ReLU"
  bottom: "inception_4e/1x1"
  top: "inception_4e/1x1"
}
layer {
  name: "inception_4e/3x3_reduce"
  type: "Convolution"
  bottom: "inception_4d/output"
  top: "inception_4e/3x3_reduce"
  param {
    lr_mult: 1
    decay_mult: 1
  }
  param {
    lr_mult: 2
    decay_mult: 0
  }
  convolution_param {
    num_output: 160
    kernel_size: 1
    weight_filler {
      type: "xavier"
      std: 0.09
    }
    bias_filler {
      type: "constant"
      value: 0.2
    }
  }
}
layer {
  name: "inception_4e/relu_3x3_reduce"
  type: "ReLU"
  bottom: "inception_4e/3x3_reduce"
  top: "inception_4e/3x3_reduce"
}
layer {
  name: "inception_4e/3x3"
  type: "Convolution"
  bottom: "inception_4e/3x3_reduce"
  top: "inception_4e/3x3"
  param {
    lr_mult: 1
    decay_mult: 1
  }
  param {
    lr_mult: 2
    decay_mult: 0
  }
  convolution_param {
    num_output: 320
    pad: 1
    kernel_size: 3
    weight_filler {
      type: "xavier"
      std: 0.03
    }
    bias_filler {
      type: "constant"
      value: 0.2
    }
  }
}
layer {
  name: "inception_4e/relu_3x3"
  type: "ReLU"
  bottom: "inception_4e/3x3"
  top: "inception_4e/3x3"
}
layer {
  name: "inception_4e/5x5_reduce"
  type: "Convolution"
  bottom: "inception_4d/output"
  top: "inception_4e/5x5_reduce"
  param {
    lr_mult: 1
    decay_mult: 1
  }
  param {
    lr_mult: 2
    decay_mult: 0
  }
  convolution_param {
    num_output: 32
    kernel_size: 1
    weight_filler {
      type: "xavier"
      std: 0.2
    }
    bias_filler {
      type: "constant"
      value: 0.2
    }
  }
}
layer {
  name: "inception_4e/relu_5x5_reduce"
  type: "ReLU"
  bottom: "inception_4e/5x5_reduce"
  top: "inception_4e/5x5_reduce"
}
layer {
  name: "inception_4e/5x5"
  type: "Convolution"
  bottom: "inception_4e/5x5_reduce"
  top: "inception_4e/
I0403 19:14:35.266119  8979 layer_factory.hpp:77] Creating layer data
I0403 19:14:35.266849  8979 net.cpp:91] Creating Layer data
I0403 19:14:35.266885  8979 net.cpp:399] data -> data
I0403 19:14:35.266947  8979 net.cpp:399] data -> label
I0403 19:14:35.266991  8979 data_transformer.cpp:25] Loading mean file from: /home/mohanty/data/final_dataset/lmdb/grayscale-50-50/mean.binaryproto
I0403 19:14:35.268229  8982 db_lmdb.cpp:38] Opened lmdb /home/mohanty/data/final_dataset/lmdb/grayscale-50-50/test_db
I0403 19:14:35.282685  8979 data_layer.cpp:41] output data size: 24,3,224,224
I0403 19:14:35.314465  8979 net.cpp:141] Setting up data
I0403 19:14:35.314560  8979 net.cpp:148] Top shape: 24 3 224 224 (3612672)
I0403 19:14:35.314587  8979 net.cpp:148] Top shape: 24 (24)
I0403 19:14:35.314606  8979 net.cpp:156] Memory required for data: 14450784
I0403 19:14:35.314638  8979 layer_factory.hpp:77] Creating layer label_data_1_split
I0403 19:14:35.314671  8979 net.cpp:91] Creating Layer label_data_1_split
I0403 19:14:35.314693  8979 net.cpp:425] label_data_1_split <- label
I0403 19:14:35.314733  8979 net.cpp:399] label_data_1_split -> label_data_1_split_0
I0403 19:14:35.314766  8979 net.cpp:399] label_data_1_split -> label_data_1_split_1
I0403 19:14:35.314793  8979 net.cpp:399] label_data_1_split -> label_data_1_split_2
I0403 19:14:35.314818  8979 net.cpp:399] label_data_1_split -> label_data_1_split_3
I0403 19:14:35.314842  8979 net.cpp:399] label_data_1_split -> label_data_1_split_4
I0403 19:14:35.314868  8979 net.cpp:399] label_data_1_split -> label_data_1_split_5
I0403 19:14:35.314893  8979 net.cpp:399] label_data_1_split -> label_data_1_split_6
I0403 19:14:35.314918  8979 net.cpp:399] label_data_1_split -> label_data_1_split_7
I0403 19:14:35.314941  8979 net.cpp:399] label_data_1_split -> label_data_1_split_8
I0403 19:14:35.314966  8979 net.cpp:399] label_data_1_split -> label_data_1_split_9
I0403 19:14:35.315110  8979 net.cpp:141] Setting up label_data_1_split
I0403 19:14:35.315140  8979 net.cpp:148] Top shape: 24 (24)
I0403 19:14:35.315161  8979 net.cpp:148] Top shape: 24 (24)
I0403 19:14:35.315182  8979 net.cpp:148] Top shape: 24 (24)
I0403 19:14:35.315201  8979 net.cpp:148] Top shape: 24 (24)
I0403 19:14:35.315227  8979 net.cpp:148] Top shape: 24 (24)
I0403 19:14:35.315246  8979 net.cpp:148] Top shape: 24 (24)
I0403 19:14:35.315266  8979 net.cpp:148] Top shape: 24 (24)
I0403 19:14:35.315286  8979 net.cpp:148] Top shape: 24 (24)
I0403 19:14:35.315306  8979 net.cpp:148] Top shape: 24 (24)
I0403 19:14:35.315327  8979 net.cpp:148] Top shape: 24 (24)
I0403 19:14:35.315382  8979 net.cpp:156] Memory required for data: 14451744
I0403 19:14:35.315403  8979 layer_factory.hpp:77] Creating layer conv1/7x7_s2
I0403 19:14:35.315443  8979 net.cpp:91] Creating Layer conv1/7x7_s2
I0403 19:14:35.315467  8979 net.cpp:425] conv1/7x7_s2 <- data
I0403 19:14:35.315492  8979 net.cpp:399] conv1/7x7_s2 -> conv1/7x7_s2
I0403 19:14:35.481408  8979 net.cpp:141] Setting up conv1/7x7_s2
I0403 19:14:35.481500  8979 net.cpp:148] Top shape: 24 64 112 112 (19267584)
I0403 19:14:35.481523  8979 net.cpp:156] Memory required for data: 91522080
I0403 19:14:35.481559  8979 layer_factory.hpp:77] Creating layer conv1/relu_7x7
I0403 19:14:35.481593  8979 net.cpp:91] Creating Layer conv1/relu_7x7
I0403 19:14:35.481616  8979 net.cpp:425] conv1/relu_7x7 <- conv1/7x7_s2
I0403 19:14:35.481637  8979 net.cpp:386] conv1/relu_7x7 -> conv1/7x7_s2 (in-place)
I0403 19:14:35.481941  8979 net.cpp:141] Setting up conv1/relu_7x7
I0403 19:14:35.481973  8979 net.cpp:148] Top shape: 24 64 112 112 (19267584)
I0403 19:14:35.481992  8979 net.cpp:156] Memory required for data: 168592416
I0403 19:14:35.482010  8979 layer_factory.hpp:77] Creating layer pool1/3x3_s2
I0403 19:14:35.482040  8979 net.cpp:91] Creating Layer pool1/3x3_s2
I0403 19:14:35.482061  8979 net.cpp:425] pool1/3x3_s2 <- conv1/7x7_s2
I0403 19:14:35.482084  8979 net.cpp:399] pool1/3x3_s2 -> pool1/3x3_s2
I0403 19:14:35.482172  8979 net.cpp:141] Setting up pool1/3x3_s2
I0403 19:14:35.482203  8979 net.cpp:148] Top shape: 24 64 56 56 (4816896)
I0403 19:14:35.482226  8979 net.cpp:156] Memory required for data: 187860000
I0403 19:14:35.482247  8979 layer_factory.hpp:77] Creating layer pool1/norm1
I0403 19:14:35.482295  8979 net.cpp:91] Creating Layer pool1/norm1
I0403 19:14:35.482322  8979 net.cpp:425] pool1/norm1 <- pool1/3x3_s2
I0403 19:14:35.482347  8979 net.cpp:399] pool1/norm1 -> pool1/norm1
I0403 19:14:35.482686  8979 net.cpp:141] Setting up pool1/norm1
I0403 19:14:35.482719  8979 net.cpp:148] Top shape: 24 64 56 56 (4816896)
I0403 19:14:35.482739  8979 net.cpp:156] Memory required for data: 207127584
I0403 19:14:35.482760  8979 layer_factory.hpp:77] Creating layer conv2/3x3_reduce
I0403 19:14:35.482790  8979 net.cpp:91] Creating Layer conv2/3x3_reduce
I0403 19:14:35.482810  8979 net.cpp:425] conv2/3x3_reduce <- pool1/norm1
I0403 19:14:35.482832  8979 net.cpp:399] conv2/3x3_reduce -> conv2/3x3_reduce
I0403 19:14:35.484506  8979 net.cpp:141] Setting up conv2/3x3_reduce
I0403 19:14:35.484546  8979 net.cpp:148] Top shape: 24 64 56 56 (4816896)
I0403 19:14:35.484567  8979 net.cpp:156] Memory required for data: 226395168
I0403 19:14:35.484593  8979 layer_factory.hpp:77] Creating layer conv2/relu_3x3_reduce
I0403 19:14:35.484616  8979 net.cpp:91] Creating Layer conv2/relu_3x3_reduce
I0403 19:14:35.484637  8979 net.cpp:425] conv2/relu_3x3_reduce <- conv2/3x3_reduce
I0403 19:14:35.484660  8979 net.cpp:386] conv2/relu_3x3_reduce -> conv2/3x3_reduce (in-place)
I0403 19:14:35.484987  8979 net.cpp:141] Setting up conv2/relu_3x3_reduce
I0403 19:14:35.485020  8979 net.cpp:148] Top shape: 24 64 56 56 (4816896)
I0403 19:14:35.485039  8979 net.cpp:156] Memory required for data: 245662752
I0403 19:14:35.485059  8979 layer_factory.hpp:77] Creating layer conv2/3x3
I0403 19:14:35.485088  8979 net.cpp:91] Creating Layer conv2/3x3
I0403 19:14:35.485110  8979 net.cpp:425] conv2/3x3 <- conv2/3x3_reduce
I0403 19:14:35.485136  8979 net.cpp:399] conv2/3x3 -> conv2/3x3
I0403 19:14:35.487897  8979 net.cpp:141] Setting up conv2/3x3
I0403 19:14:35.487936  8979 net.cpp:148] Top shape: 24 192 56 56 (14450688)
I0403 19:14:35.487957  8979 net.cpp:156] Memory required for data: 303465504
I0403 19:14:35.487984  8979 layer_factory.hpp:77] Creating layer conv2/relu_3x3
I0403 19:14:35.488006  8979 net.cpp:91] Creating Layer conv2/relu_3x3
I0403 19:14:35.488025  8979 net.cpp:425] conv2/relu_3x3 <- conv2/3x3
I0403 19:14:35.488049  8979 net.cpp:386] conv2/relu_3x3 -> conv2/3x3 (in-place)
I0403 19:14:35.488265  8979 net.cpp:141] Setting up conv2/relu_3x3
I0403 19:14:35.488296  8979 net.cpp:148] Top shape: 24 192 56 56 (14450688)
I0403 19:14:35.488351  8979 net.cpp:156] Memory required for data: 361268256
I0403 19:14:35.488371  8979 layer_factory.hpp:77] Creating layer conv2/norm2
I0403 19:14:35.488397  8979 net.cpp:91] Creating Layer conv2/norm2
I0403 19:14:35.488417  8979 net.cpp:425] conv2/norm2 <- conv2/3x3
I0403 19:14:35.488443  8979 net.cpp:399] conv2/norm2 -> conv2/norm2
I0403 19:14:35.488860  8979 net.cpp:141] Setting up conv2/norm2
I0403 19:14:35.488896  8979 net.cpp:148] Top shape: 24 192 56 56 (14450688)
I0403 19:14:35.488916  8979 net.cpp:156] Memory required for data: 419071008
I0403 19:14:35.488935  8979 layer_factory.hpp:77] Creating layer pool2/3x3_s2
I0403 19:14:35.488957  8979 net.cpp:91] Creating Layer pool2/3x3_s2
I0403 19:14:35.488977  8979 net.cpp:425] pool2/3x3_s2 <- conv2/norm2
I0403 19:14:35.489014  8979 net.cpp:399] pool2/3x3_s2 -> pool2/3x3_s2
I0403 19:14:35.489080  8979 net.cpp:141] Setting up pool2/3x3_s2
I0403 19:14:35.489109  8979 net.cpp:148] Top shape: 24 192 28 28 (3612672)
I0403 19:14:35.489126  8979 net.cpp:156] Memory required for data: 433521696
I0403 19:14:35.489145  8979 layer_factory.hpp:77] Creating layer pool2/3x3_s2_pool2/3x3_s2_0_split
I0403 19:14:35.489169  8979 net.cpp:91] Creating Layer pool2/3x3_s2_pool2/3x3_s2_0_split
I0403 19:14:35.489189  8979 net.cpp:425] pool2/3x3_s2_pool2/3x3_s2_0_split <- pool2/3x3_s2
I0403 19:14:35.489215  8979 net.cpp:399] pool2/3x3_s2_pool2/3x3_s2_0_split -> pool2/3x3_s2_pool2/3x3_s2_0_split_0
I0403 19:14:35.489241  8979 net.cpp:399] pool2/3x3_s2_pool2/3x3_s2_0_split -> pool2/3x3_s2_pool2/3x3_s2_0_split_1
I0403 19:14:35.489269  8979 net.cpp:399] pool2/3x3_s2_pool2/3x3_s2_0_split -> pool2/3x3_s2_pool2/3x3_s2_0_split_2
I0403 19:14:35.489295  8979 net.cpp:399] pool2/3x3_s2_pool2/3x3_s2_0_split -> pool2/3x3_s2_pool2/3x3_s2_0_split_3
I0403 19:14:35.489382  8979 net.cpp:141] Setting up pool2/3x3_s2_pool2/3x3_s2_0_split
I0403 19:14:35.489410  8979 net.cpp:148] Top shape: 24 192 28 28 (3612672)
I0403 19:14:35.489431  8979 net.cpp:148] Top shape: 24 192 28 28 (3612672)
I0403 19:14:35.489452  8979 net.cpp:148] Top shape: 24 192 28 28 (3612672)
I0403 19:14:35.489473  8979 net.cpp:148] Top shape: 24 192 28 28 (3612672)
I0403 19:14:35.489491  8979 net.cpp:156] Memory required for data: 491324448
I0403 19:14:35.489509  8979 layer_factory.hpp:77] Creating layer inception_3a/1x1
I0403 19:14:35.489537  8979 net.cpp:91] Creating Layer inception_3a/1x1
I0403 19:14:35.489559  8979 net.cpp:425] inception_3a/1x1 <- pool2/3x3_s2_pool2/3x3_s2_0_split_0
I0403 19:14:35.489585  8979 net.cpp:399] inception_3a/1x1 -> inception_3a/1x1
I0403 19:14:35.491406  8979 net.cpp:141] Setting up inception_3a/1x1
I0403 19:14:35.491446  8979 net.cpp:148] Top shape: 24 64 28 28 (1204224)
I0403 19:14:35.491468  8979 net.cpp:156] Memory required for data: 496141344
I0403 19:14:35.491492  8979 layer_factory.hpp:77] Creating layer inception_3a/relu_1x1
I0403 19:14:35.491515  8979 net.cpp:91] Creating Layer inception_3a/relu_1x1
I0403 19:14:35.491535  8979 net.cpp:425] inception_3a/relu_1x1 <- inception_3a/1x1
I0403 19:14:35.491560  8979 net.cpp:386] inception_3a/relu_1x1 -> inception_3a/1x1 (in-place)
I0403 19:14:35.491778  8979 net.cpp:141] Setting up inception_3a/relu_1x1
I0403 19:14:35.491809  8979 net.cpp:148] Top shape: 24 64 28 28 (1204224)
I0403 19:14:35.491827  8979 net.cpp:156] Memory required for data: 500958240
I0403 19:14:35.491847  8979 layer_factory.hpp:77] Creating layer inception_3a/3x3_reduce
I0403 19:14:35.491874  8979 net.cpp:91] Creating Layer inception_3a/3x3_reduce
I0403 19:14:35.491896  8979 net.cpp:425] inception_3a/3x3_reduce <- pool2/3x3_s2_pool2/3x3_s2_0_split_1
I0403 19:14:35.491922  8979 net.cpp:399] inception_3a/3x3_reduce -> inception_3a/3x3_reduce
I0403 19:14:35.493930  8979 net.cpp:141] Setting up inception_3a/3x3_reduce
I0403 19:14:35.493966  8979 net.cpp:148] Top shape: 24 96 28 28 (1806336)
I0403 19:14:35.493986  8979 net.cpp:156] Memory required for data: 508183584
I0403 19:14:35.494014  8979 layer_factory.hpp:77] Creating layer inception_3a/relu_3x3_reduce
I0403 19:14:35.494060  8979 net.cpp:91] Creating Layer inception_3a/relu_3x3_reduce
I0403 19:14:35.494081  8979 net.cpp:425] inception_3a/relu_3x3_reduce <- inception_3a/3x3_reduce
I0403 19:14:35.494102  8979 net.cpp:386] inception_3a/relu_3x3_reduce -> inception_3a/3x3_reduce (in-place)
I0403 19:14:35.494328  8979 net.cpp:141] Setting up inception_3a/relu_3x3_reduce
I0403 19:14:35.494362  8979 net.cpp:148] Top shape: 24 96 28 28 (1806336)
I0403 19:14:35.494382  8979 net.cpp:156] Memory required for data: 515408928
I0403 19:14:35.494401  8979 layer_factory.hpp:77] Creating layer inception_3a/3x3
I0403 19:14:35.494429  8979 net.cpp:91] Creating Layer inception_3a/3x3
I0403 19:14:35.494451  8979 net.cpp:425] inception_3a/3x3 <- inception_3a/3x3_reduce
I0403 19:14:35.494475  8979 net.cpp:399] inception_3a/3x3 -> inception_3a/3x3
I0403 19:14:35.496484  8979 net.cpp:141] Setting up inception_3a/3x3
I0403 19:14:35.496518  8979 net.cpp:148] Top shape: 24 128 28 28 (2408448)
I0403 19:14:35.496537  8979 net.cpp:156] Memory required for data: 525042720
I0403 19:14:35.496562  8979 layer_factory.hpp:77] Creating layer inception_3a/relu_3x3
I0403 19:14:35.496587  8979 net.cpp:91] Creating Layer inception_3a/relu_3x3
I0403 19:14:35.496608  8979 net.cpp:425] inception_3a/relu_3x3 <- inception_3a/3x3
I0403 19:14:35.496630  8979 net.cpp:386] inception_3a/relu_3x3 -> inception_3a/3x3 (in-place)
I0403 19:14:35.496954  8979 net.cpp:141] Setting up inception_3a/relu_3x3
I0403 19:14:35.496986  8979 net.cpp:148] Top shape: 24 128 28 28 (2408448)
I0403 19:14:35.497006  8979 net.cpp:156] Memory required for data: 534676512
I0403 19:14:35.497025  8979 layer_factory.hpp:77] Creating layer inception_3a/5x5_reduce
I0403 19:14:35.497053  8979 net.cpp:91] Creating Layer inception_3a/5x5_reduce
I0403 19:14:35.497074  8979 net.cpp:425] inception_3a/5x5_reduce <- pool2/3x3_s2_pool2/3x3_s2_0_split_2
I0403 19:14:35.497100  8979 net.cpp:399] inception_3a/5x5_reduce -> inception_3a/5x5_reduce
I0403 19:14:35.498263  8979 net.cpp:141] Setting up inception_3a/5x5_reduce
I0403 19:14:35.498297  8979 net.cpp:148] Top shape: 24 16 28 28 (301056)
I0403 19:14:35.498317  8979 net.cpp:156] Memory required for data: 535880736
I0403 19:14:35.498340  8979 layer_factory.hpp:77] Creating layer inception_3a/relu_5x5_reduce
I0403 19:14:35.498365  8979 net.cpp:91] Creating Layer inception_3a/relu_5x5_reduce
I0403 19:14:35.498385  8979 net.cpp:425] inception_3a/relu_5x5_reduce <- inception_3a/5x5_reduce
I0403 19:14:35.498406  8979 net.cpp:386] inception_3a/relu_5x5_reduce -> inception_3a/5x5_reduce (in-place)
I0403 19:14:35.498747  8979 net.cpp:141] Setting up inception_3a/relu_5x5_reduce
I0403 19:14:35.498780  8979 net.cpp:148] Top shape: 24 16 28 28 (301056)
I0403 19:14:35.498798  8979 net.cpp:156] Memory required for data: 537084960
I0403 19:14:35.498817  8979 layer_factory.hpp:77] Creating layer inception_3a/5x5
I0403 19:14:35.498845  8979 net.cpp:91] Creating Layer inception_3a/5x5
I0403 19:14:35.498867  8979 net.cpp:425] inception_3a/5x5 <- inception_3a/5x5_reduce
I0403 19:14:35.498894  8979 net.cpp:399] inception_3a/5x5 -> inception_3a/5x5
I0403 19:14:35.500118  8979 net.cpp:141] Setting up inception_3a/5x5
I0403 19:14:35.500152  8979 net.cpp:148] Top shape: 24 32 28 28 (602112)
I0403 19:14:35.500171  8979 net.cpp:156] Memory required for data: 539493408
I0403 19:14:35.500195  8979 layer_factory.hpp:77] Creating layer inception_3a/relu_5x5
I0403 19:14:35.500224  8979 net.cpp:91] Creating Layer inception_3a/relu_5x5
I0403 19:14:35.500246  8979 net.cpp:425] inception_3a/relu_5x5 <- inception_3a/5x5
I0403 19:14:35.500274  8979 net.cpp:386] inception_3a/relu_5x5 -> inception_3a/5x5 (in-place)
I0403 19:14:35.500488  8979 net.cpp:141] Setting up inception_3a/relu_5x5
I0403 19:14:35.500519  8979 net.cpp:148] Top shape: 24 32 28 28 (602112)
I0403 19:14:35.500538  8979 net.cpp:156] Memory required for data: 541901856
I0403 19:14:35.500557  8979 layer_factory.hpp:77] Creating layer inception_3a/pool
I0403 19:14:35.500582  8979 net.cpp:91] Creating Layer inception_3a/pool
I0403 19:14:35.500618  8979 net.cpp:425] inception_3a/pool <- pool2/3x3_s2_pool2/3x3_s2_0_split_3
I0403 19:14:35.500641  8979 net.cpp:399] inception_3a/pool -> inception_3a/pool
I0403 19:14:35.500713  8979 net.cpp:141] Setting up inception_3a/pool
I0403 19:14:35.500743  8979 net.cpp:148] Top shape: 24 192 28 28 (3612672)
I0403 19:14:35.500761  8979 net.cpp:156] Memory required for data: 556352544
I0403 19:14:35.500780  8979 layer_factory.hpp:77] Creating layer inception_3a/pool_proj
I0403 19:14:35.500808  8979 net.cpp:91] Creating Layer inception_3a/pool_proj
I0403 19:14:35.500829  8979 net.cpp:425] inception_3a/pool_proj <- inception_3a/pool
I0403 19:14:35.500857  8979 net.cpp:399] inception_3a/pool_proj -> inception_3a/pool_proj
I0403 19:14:35.502032  8979 net.cpp:141] Setting up inception_3a/pool_proj
I0403 19:14:35.502068  8979 net.cpp:148] Top shape: 24 32 28 28 (602112)
I0403 19:14:35.502089  8979 net.cpp:156] Memory required for data: 558760992
I0403 19:14:35.502115  8979 layer_factory.hpp:77] Creating layer inception_3a/relu_pool_proj
I0403 19:14:35.502142  8979 net.cpp:91] Creating Layer inception_3a/relu_pool_proj
I0403 19:14:35.502162  8979 net.cpp:425] inception_3a/relu_pool_proj <- inception_3a/pool_proj
I0403 19:14:35.502184  8979 net.cpp:386] inception_3a/relu_pool_proj -> inception_3a/pool_proj (in-place)
I0403 19:14:35.502522  8979 net.cpp:141] Setting up inception_3a/relu_pool_proj
I0403 19:14:35.502555  8979 net.cpp:148] Top shape: 24 32 28 28 (602112)
I0403 19:14:35.502574  8979 net.cpp:156] Memory required for data: 561169440
I0403 19:14:35.502593  8979 layer_factory.hpp:77] Creating layer inception_3a/output
I0403 19:14:35.502615  8979 net.cpp:91] Creating Layer inception_3a/output
I0403 19:14:35.502635  8979 net.cpp:425] inception_3a/output <- inception_3a/1x1
I0403 19:14:35.502656  8979 net.cpp:425] inception_3a/output <- inception_3a/3x3
I0403 19:14:35.502677  8979 net.cpp:425] inception_3a/output <- inception_3a/5x5
I0403 19:14:35.502696  8979 net.cpp:425] inception_3a/output <- inception_3a/pool_proj
I0403 19:14:35.502722  8979 net.cpp:399] inception_3a/output -> inception_3a/output
I0403 19:14:35.502779  8979 net.cpp:141] Setting up inception_3a/output
I0403 19:14:35.502812  8979 net.cpp:148] Top shape: 24 256 28 28 (4816896)
I0403 19:14:35.502831  8979 net.cpp:156] Memory required for data: 580437024
I0403 19:14:35.502851  8979 layer_factory.hpp:77] Creating layer inception_3a/output_inception_3a/output_0_split
I0403 19:14:35.502872  8979 net.cpp:91] Creating Layer inception_3a/output_inception_3a/output_0_split
I0403 19:14:35.502892  8979 net.cpp:425] inception_3a/output_inception_3a/output_0_split <- inception_3a/output
I0403 19:14:35.502915  8979 net.cpp:399] inception_3a/output_inception_3a/output_0_split -> inception_3a/output_inception_3a/output_0_split_0
I0403 19:14:35.502940  8979 net.cpp:399] inception_3a/output_inception_3a/output_0_split -> inception_3a/output_inception_3a/output_0_split_1
I0403 19:14:35.502969  8979 net.cpp:399] inception_3a/output_inception_3a/output_0_split -> inception_3a/output_inception_3a/output_0_split_2
I0403 19:14:35.502995  8979 net.cpp:399] inception_3a/output_inception_3a/output_0_split -> inception_3a/output_inception_3a/output_0_split_3
I0403 19:14:35.503089  8979 net.cpp:141] Setting up inception_3a/output_inception_3a/output_0_split
I0403 19:14:35.503118  8979 net.cpp:148] Top shape: 24 256 28 28 (4816896)
I0403 19:14:35.503139  8979 net.cpp:148] Top shape: 24 256 28 28 (4816896)
I0403 19:14:35.503159  8979 net.cpp:148] Top shape: 24 256 28 28 (4816896)
I0403 19:14:35.503178  8979 net.cpp:148] Top shape: 24 256 28 28 (4816896)
I0403 19:14:35.503196  8979 net.cpp:156] Memory required for data: 657507360
I0403 19:14:35.503228  8979 layer_factory.hpp:77] Creating layer inception_3b/1x1
I0403 19:14:35.503260  8979 net.cpp:91] Creating Layer inception_3b/1x1
I0403 19:14:35.503283  8979 net.cpp:425] inception_3b/1x1 <- inception_3a/output_inception_3a/output_0_split_0
I0403 19:14:35.503309  8979 net.cpp:399] inception_3b/1x1 -> inception_3b/1x1
I0403 19:14:35.504691  8979 net.cpp:141] Setting up inception_3b/1x1
I0403 19:14:35.504742  8979 net.cpp:148] Top shape: 24 128 28 28 (2408448)
I0403 19:14:35.504762  8979 net.cpp:156] Memory required for data: 667141152
I0403 19:14:35.504786  8979 layer_factory.hpp:77] Creating layer inception_3b/relu_1x1
I0403 19:14:35.504807  8979 net.cpp:91] Creating Layer inception_3b/relu_1x1
I0403 19:14:35.504827  8979 net.cpp:425] inception_3b/relu_1x1 <- inception_3b/1x1
I0403 19:14:35.504853  8979 net.cpp:386] inception_3b/relu_1x1 -> inception_3b/1x1 (in-place)
I0403 19:14:35.505067  8979 net.cpp:141] Setting up inception_3b/relu_1x1
I0403 19:14:35.505097  8979 net.cpp:148] Top shape: 24 128 28 28 (2408448)
I0403 19:14:35.505116  8979 net.cpp:156] Memory required for data: 676774944
I0403 19:14:35.505134  8979 layer_factory.hpp:77] Creating layer inception_3b/3x3_reduce
I0403 19:14:35.505162  8979 net.cpp:91] Creating Layer inception_3b/3x3_reduce
I0403 19:14:35.505184  8979 net.cpp:425] inception_3b/3x3_reduce <- inception_3a/output_inception_3a/output_0_split_1
I0403 19:14:35.505218  8979 net.cpp:399] inception_3b/3x3_reduce -> inception_3b/3x3_reduce
I0403 19:14:35.506597  8979 net.cpp:141] Setting up inception_3b/3x3_reduce
I0403 19:14:35.506636  8979 net.cpp:148] Top shape: 24 128 28 28 (2408448)
I0403 19:14:35.506657  8979 net.cpp:156] Memory required for data: 686408736
I0403 19:14:35.506680  8979 layer_factory.hpp:77] Creating layer inception_3b/relu_3x3_reduce
I0403 19:14:35.506703  8979 net.cpp:91] Creating Layer inception_3b/relu_3x3_reduce
I0403 19:14:35.506723  8979 net.cpp:425] inception_3b/relu_3x3_reduce <- inception_3b/3x3_reduce
I0403 19:14:35.506748  8979 net.cpp:386] inception_3b/relu_3x3_reduce -> inception_3b/3x3_reduce (in-place)
I0403 19:14:35.506963  8979 net.cpp:141] Setting up inception_3b/relu_3x3_reduce
I0403 19:14:35.506992  8979 net.cpp:148] Top shape: 24 128 28 28 (2408448)
I0403 19:14:35.507011  8979 net.cpp:156] Memory required for data: 696042528
I0403 19:14:35.507030  8979 layer_factory.hpp:77] Creating layer inception_3b/3x3
I0403 19:14:35.507062  8979 net.cpp:91] Creating Layer inception_3b/3x3
I0403 19:14:35.507084  8979 net.cpp:425] inception_3b/3x3 <- inception_3b/3x3_reduce
I0403 19:14:35.507108  8979 net.cpp:399] inception_3b/3x3 -> inception_3b/3x3
I0403 19:14:35.510643  8979 net.cpp:141] Setting up inception_3b/3x3
I0403 19:14:35.510679  8979 net.cpp:148] Top shape: 24 192 28 28 (3612672)
I0403 19:14:35.510697  8979 net.cpp:156] Memory required for data: 710493216
I0403 19:14:35.510721  8979 layer_factory.hpp:77] Creating layer inception_3b/relu_3x3
I0403 19:14:35.510746  8979 net.cpp:91] Creating Layer inception_3b/relu_3x3
I0403 19:14:35.510767  8979 net.cpp:425] inception_3b/relu_3x3 <- inception_3b/3x3
I0403 19:14:35.510789  8979 net.cpp:386] inception_3b/relu_3x3 -> inception_3b/3x3 (in-place)
I0403 19:14:35.511119  8979 net.cpp:141] Setting up inception_3b/relu_3x3
I0403 19:14:35.511152  8979 net.cpp:148] Top shape: 24 192 28 28 (3612672)
I0403 19:14:35.511178  8979 net.cpp:156] Memory required for data: 724943904
I0403 19:14:35.511196  8979 layer_factory.hpp:77] Creating layer inception_3b/5x5_reduce
I0403 19:14:35.511230  8979 net.cpp:91] Creating Layer inception_3b/5x5_reduce
I0403 19:14:35.511253  8979 net.cpp:425] inception_3b/5x5_reduce <- inception_3a/output_inception_3a/output_0_split_2
I0403 19:14:35.511281  8979 net.cpp:399] inception_3b/5x5_reduce -> inception_3b/5x5_reduce
I0403 19:14:35.512487  8979 net.cpp:141] Setting up inception_3b/5x5_reduce
I0403 19:14:35.512522  8979 net.cpp:148] Top shape: 24 32 28 28 (602112)
I0403 19:14:35.512542  8979 net.cpp:156] Memory required for data: 727352352
I0403 19:14:35.512565  8979 layer_factory.hpp:77] Creating layer inception_3b/relu_5x5_reduce
I0403 19:14:35.512590  8979 net.cpp:91] Creating Layer inception_3b/relu_5x5_reduce
I0403 19:14:35.512612  8979 net.cpp:425] inception_3b/relu_5x5_reduce <- inception_3b/5x5_reduce
I0403 19:14:35.512634  8979 net.cpp:386] inception_3b/relu_5x5_reduce -> inception_3b/5x5_reduce (in-place)
I0403 19:14:35.512871  8979 net.cpp:141] Setting up inception_3b/relu_5x5_reduce
I0403 19:14:35.512902  8979 net.cpp:148] Top shape: 24 32 28 28 (602112)
I0403 19:14:35.512922  8979 net.cpp:156] Memory required for data: 729760800
I0403 19:14:35.512940  8979 layer_factory.hpp:77] Creating layer inception_3b/5x5
I0403 19:14:35.512967  8979 net.cpp:91] Creating Layer inception_3b/5x5
I0403 19:14:35.512989  8979 net.cpp:425] inception_3b/5x5 <- inception_3b/5x5_reduce
I0403 19:14:35.513015  8979 net.cpp:399] inception_3b/5x5 -> inception_3b/5x5
I0403 19:14:35.515390  8979 net.cpp:141] Setting up inception_3b/5x5
I0403 19:14:35.515429  8979 net.cpp:148] Top shape: 24 96 28 28 (1806336)
I0403 19:14:35.515450  8979 net.cpp:156] Memory required for data: 736986144
I0403 19:14:35.515473  8979 layer_factory.hpp:77] Creating layer inception_3b/relu_5x5
I0403 19:14:35.515496  8979 net.cpp:91] Creating Layer inception_3b/relu_5x5
I0403 19:14:35.515516  8979 net.cpp:425] inception_3b/relu_5x5 <- inception_3b/5x5
I0403 19:14:35.515539  8979 net.cpp:386] inception_3b/relu_5x5 -> inception_3b/5x5 (in-place)
I0403 19:14:35.515774  8979 net.cpp:141] Setting up inception_3b/relu_5x5
I0403 19:14:35.515806  8979 net.cpp:148] Top shape: 24 96 28 28 (1806336)
I0403 19:14:35.515825  8979 net.cpp:156] Memory required for data: 744211488
I0403 19:14:35.515843  8979 layer_factory.hpp:77] Creating layer inception_3b/pool
I0403 19:14:35.515866  8979 net.cpp:91] Creating Layer inception_3b/pool
I0403 19:14:35.515884  8979 net.cpp:425] inception_3b/pool <- inception_3a/output_inception_3a/output_0_split_3
I0403 19:14:35.515908  8979 net.cpp:399] inception_3b/pool -> inception_3b/pool
I0403 19:14:35.515976  8979 net.cpp:141] Setting up inception_3b/pool
I0403 19:14:35.516006  8979 net.cpp:148] Top shape: 24 256 28 28 (4816896)
I0403 19:14:35.516026  8979 net.cpp:156] Memory required for data: 763479072
I0403 19:14:35.516044  8979 layer_factory.hpp:77] Creating layer inception_3b/pool_proj
I0403 19:14:35.516077  8979 net.cpp:91] Creating Layer inception_3b/pool_proj
I0403 19:14:35.516098  8979 net.cpp:425] inception_3b/pool_proj <- inception_3b/pool
I0403 19:14:35.516122  8979 net.cpp:399] inception_3b/pool_proj -> inception_3b/pool_proj
I0403 19:14:35.517417  8979 net.cpp:141] Setting up inception_3b/pool_proj
I0403 19:14:35.517452  8979 net.cpp:148] Top shape: 24 64 28 28 (1204224)
I0403 19:14:35.517472  8979 net.cpp:156] Memory required for data: 768295968
I0403 19:14:35.517495  8979 layer_factory.hpp:77] Creating layer inception_3b/relu_pool_proj
I0403 19:14:35.517521  8979 net.cpp:91] Creating Layer inception_3b/relu_pool_proj
I0403 19:14:35.517544  8979 net.cpp:425] inception_3b/relu_pool_proj <- inception_3b/pool_proj
I0403 19:14:35.517565  8979 net.cpp:386] inception_3b/relu_pool_proj -> inception_3b/pool_proj (in-place)
I0403 19:14:35.518030  8979 net.cpp:141] Setting up inception_3b/relu_pool_proj
I0403 19:14:35.518062  8979 net.cpp:148] Top shape: 24 64 28 28 (1204224)
I0403 19:14:35.518081  8979 net.cpp:156] Memory required for data: 773112864
I0403 19:14:35.518100  8979 layer_factory.hpp:77] Creating layer inception_3b/output
I0403 19:14:35.518126  8979 net.cpp:91] Creating Layer inception_3b/output
I0403 19:14:35.518146  8979 net.cpp:425] inception_3b/output <- inception_3b/1x1
I0403 19:14:35.518167  8979 net.cpp:425] inception_3b/output <- inception_3b/3x3
I0403 19:14:35.518188  8979 net.cpp:425] inception_3b/output <- inception_3b/5x5
I0403 19:14:35.518213  8979 net.cpp:425] inception_3b/output <- inception_3b/pool_proj
I0403 19:14:35.518236  8979 net.cpp:399] inception_3b/output -> inception_3b/output
I0403 19:14:35.518293  8979 net.cpp:141] Setting up inception_3b/output
I0403 19:14:35.518322  8979 net.cpp:148] Top shape: 24 480 28 28 (9031680)
I0403 19:14:35.518342  8979 net.cpp:156] Memory required for data: 809239584
I0403 19:14:35.518359  8979 layer_factory.hpp:77] Creating layer pool3/3x3_s2
I0403 19:14:35.518381  8979 net.cpp:91] Creating Layer pool3/3x3_s2
I0403 19:14:35.518400  8979 net.cpp:425] pool3/3x3_s2 <- inception_3b/output
I0403 19:14:35.518445  8979 net.cpp:399] pool3/3x3_s2 -> pool3/3x3_s2
I0403 19:14:35.518517  8979 net.cpp:141] Setting up pool3/3x3_s2
I0403 19:14:35.518548  8979 net.cpp:148] Top shape: 24 480 14 14 (2257920)
I0403 19:14:35.518566  8979 net.cpp:156] Memory required for data: 818271264
I0403 19:14:35.518586  8979 layer_factory.hpp:77] Creating layer pool3/3x3_s2_pool3/3x3_s2_0_split
I0403 19:14:35.518607  8979 net.cpp:91] Creating Layer pool3/3x3_s2_pool3/3x3_s2_0_split
I0403 19:14:35.518626  8979 net.cpp:425] pool3/3x3_s2_pool3/3x3_s2_0_split <- pool3/3x3_s2
I0403 19:14:35.518648  8979 net.cpp:399] pool3/3x3_s2_pool3/3x3_s2_0_split -> pool3/3x3_s2_pool3/3x3_s2_0_split_0
I0403 19:14:35.518673  8979 net.cpp:399] pool3/3x3_s2_pool3/3x3_s2_0_split -> pool3/3x3_s2_pool3/3x3_s2_0_split_1
I0403 19:14:35.518700  8979 net.cpp:399] pool3/3x3_s2_pool3/3x3_s2_0_split -> pool3/3x3_s2_pool3/3x3_s2_0_split_2
I0403 19:14:35.518735  8979 net.cpp:399] pool3/3x3_s2_pool3/3x3_s2_0_split -> pool3/3x3_s2_pool3/3x3_s2_0_split_3
I0403 19:14:35.518831  8979 net.cpp:141] Setting up pool3/3x3_s2_pool3/3x3_s2_0_split
I0403 19:14:35.518860  8979 net.cpp:148] Top shape: 24 480 14 14 (2257920)
I0403 19:14:35.518882  8979 net.cpp:148] Top shape: 24 480 14 14 (2257920)
I0403 19:14:35.518900  8979 net.cpp:148] Top shape: 24 480 14 14 (2257920)
I0403 19:14:35.518919  8979 net.cpp:148] Top shape: 24 480 14 14 (2257920)
I0403 19:14:35.518937  8979 net.cpp:156] Memory required for data: 854397984
I0403 19:14:35.518956  8979 layer_factory.hpp:77] Creating layer inception_4a/1x1
I0403 19:14:35.518983  8979 net.cpp:91] Creating Layer inception_4a/1x1
I0403 19:14:35.519004  8979 net.cpp:425] inception_4a/1x1 <- pool3/3x3_s2_pool3/3x3_s2_0_split_0
I0403 19:14:35.519031  8979 net.cpp:399] inception_4a/1x1 -> inception_4a/1x1
I0403 19:14:35.520948  8979 net.cpp:141] Setting up inception_4a/1x1
I0403 19:14:35.520983  8979 net.cpp:148] Top shape: 24 192 14 14 (903168)
I0403 19:14:35.521003  8979 net.cpp:156] Memory required for data: 858010656
I0403 19:14:35.521026  8979 layer_factory.hpp:77] Creating layer inception_4a/relu_1x1
I0403 19:14:35.521051  8979 net.cpp:91] Creating Layer inception_4a/relu_1x1
I0403 19:14:35.521073  8979 net.cpp:425] inception_4a/relu_1x1 <- inception_4a/1x1
I0403 19:14:35.521095  8979 net.cpp:386] inception_4a/relu_1x1 -> inception_4a/1x1 (in-place)
I0403 19:14:35.521323  8979 net.cpp:141] Setting up inception_4a/relu_1x1
I0403 19:14:35.521354  8979 net.cpp:148] Top shape: 24 192 14 14 (903168)
I0403 19:14:35.521373  8979 net.cpp:156] Memory required for data: 861623328
I0403 19:14:35.521390  8979 layer_factory.hpp:77] Creating layer inception_4a/3x3_reduce
I0403 19:14:35.521419  8979 net.cpp:91] Creating Layer inception_4a/3x3_reduce
I0403 19:14:35.521440  8979 net.cpp:425] inception_4a/3x3_reduce <- pool3/3x3_s2_pool3/3x3_s2_0_split_1
I0403 19:14:35.521467  8979 net.cpp:399] inception_4a/3x3_reduce -> inception_4a/3x3_reduce
I0403 19:14:35.523031  8979 net.cpp:141] Setting up inception_4a/3x3_reduce
I0403 19:14:35.523069  8979 net.cpp:148] Top shape: 24 96 14 14 (451584)
I0403 19:14:35.523090  8979 net.cpp:156] Memory required for data: 863429664
I0403 19:14:35.523118  8979 layer_factory.hpp:77] Creating layer inception_4a/relu_3x3_reduce
I0403 19:14:35.523145  8979 net.cpp:91] Creating Layer inception_4a/relu_3x3_reduce
I0403 19:14:35.523166  8979 net.cpp:425] inception_4a/relu_3x3_reduce <- inception_4a/3x3_reduce
I0403 19:14:35.523188  8979 net.cpp:386] inception_4a/relu_3x3_reduce -> inception_4a/3x3_reduce (in-place)
I0403 19:14:35.523411  8979 net.cpp:141] Setting up inception_4a/relu_3x3_reduce
I0403 19:14:35.523445  8979 net.cpp:148] Top shape: 24 96 14 14 (451584)
I0403 19:14:35.523464  8979 net.cpp:156] Memory required for data: 865236000
I0403 19:14:35.523483  8979 layer_factory.hpp:77] Creating layer inception_4a/3x3
I0403 19:14:35.523511  8979 net.cpp:91] Creating Layer inception_4a/3x3
I0403 19:14:35.523535  8979 net.cpp:425] inception_4a/3x3 <- inception_4a/3x3_reduce
I0403 19:14:35.523560  8979 net.cpp:399] inception_4a/3x3 -> inception_4a/3x3
I0403 19:14:35.526815  8979 net.cpp:141] Setting up inception_4a/3x3
I0403 19:14:35.526859  8979 net.cpp:148] Top shape: 24 208 14 14 (978432)
I0403 19:14:35.526880  8979 net.cpp:156] Memory required for data: 869149728
I0403 19:14:35.526904  8979 layer_factory.hpp:77] Creating layer inception_4a/relu_3x3
I0403 19:14:35.526937  8979 net.cpp:91] Creating Layer inception_4a/relu_3x3
I0403 19:14:35.526957  8979 net.cpp:425] inception_4a/relu_3x3 <- inception_4a/3x3
I0403 19:14:35.526980  8979 net.cpp:386] inception_4a/relu_3x3 -> inception_4a/3x3 (in-place)
I0403 19:14:35.527318  8979 net.cpp:141] Setting up inception_4a/relu_3x3
I0403 19:14:35.527353  8979 net.cpp:148] Top shape: 24 208 14 14 (978432)
I0403 19:14:35.527372  8979 net.cpp:156] Memory required for data: 873063456
I0403 19:14:35.527392  8979 layer_factory.hpp:77] Creating layer inception_4a/5x5_reduce
I0403 19:14:35.527421  8979 net.cpp:91] Creating Layer inception_4a/5x5_reduce
I0403 19:14:35.527443  8979 net.cpp:425] inception_4a/5x5_reduce <- pool3/3x3_s2_pool3/3x3_s2_0_split_2
I0403 19:14:35.527468  8979 net.cpp:399] inception_4a/5x5_reduce -> inception_4a/5x5_reduce
I0403 19:14:35.528723  8979 net.cpp:141] Setting up inception_4a/5x5_reduce
I0403 19:14:35.528758  8979 net.cpp:148] Top shape: 24 16 14 14 (75264)
I0403 19:14:35.528777  8979 net.cpp:156] Memory required for data: 873364512
I0403 19:14:35.528800  8979 layer_factory.hpp:77] Creating layer inception_4a/relu_5x5_reduce
I0403 19:14:35.528823  8979 net.cpp:91] Creating Layer inception_4a/relu_5x5_reduce
I0403 19:14:35.528843  8979 net.cpp:425] inception_4a/relu_5x5_reduce <- inception_4a/5x5_reduce
I0403 19:14:35.528867  8979 net.cpp:386] inception_4a/relu_5x5_reduce -> inception_4a/5x5_reduce (in-place)
I0403 19:14:35.529084  8979 net.cpp:141] Setting up inception_4a/relu_5x5_reduce
I0403 19:14:35.529115  8979 net.cpp:148] Top shape: 24 16 14 14 (75264)
I0403 19:14:35.529134  8979 net.cpp:156] Memory required for data: 873665568
I0403 19:14:35.529152  8979 layer_factory.hpp:77] Creating layer inception_4a/5x5
I0403 19:14:35.529181  8979 net.cpp:91] Creating Layer inception_4a/5x5
I0403 19:14:35.529202  8979 net.cpp:425] inception_4a/5x5 <- inception_4a/5x5_reduce
I0403 19:14:35.529237  8979 net.cpp:399] inception_4a/5x5 -> inception_4a/5x5
I0403 19:14:35.530556  8979 net.cpp:141] Setting up inception_4a/5x5
I0403 19:14:35.530591  8979 net.cpp:148] Top shape: 24 48 14 14 (225792)
I0403 19:14:35.530611  8979 net.cpp:156] Memory required for data: 874568736
I0403 19:14:35.530633  8979 layer_factory.hpp:77] Creating layer inception_4a/relu_5x5
I0403 19:14:35.530658  8979 net.cpp:91] Creating Layer inception_4a/relu_5x5
I0403 19:14:35.530680  8979 net.cpp:425] inception_4a/relu_5x5 <- inception_4a/5x5
I0403 19:14:35.530702  8979 net.cpp:386] inception_4a/relu_5x5 -> inception_4a/5x5 (in-place)
I0403 19:14:35.530925  8979 net.cpp:141] Setting up inception_4a/relu_5x5
I0403 19:14:35.530958  8979 net.cpp:148] Top shape: 24 48 14 14 (225792)
I0403 19:14:35.530977  8979 net.cpp:156] Memory required for data: 875471904
I0403 19:14:35.530997  8979 layer_factory.hpp:77] Creating layer inception_4a/pool
I0403 19:14:35.531018  8979 net.cpp:91] Creating Layer inception_4a/pool
I0403 19:14:35.531038  8979 net.cpp:425] inception_4a/pool <- pool3/3x3_s2_pool3/3x3_s2_0_split_3
I0403 19:14:35.531062  8979 net.cpp:399] inception_4a/pool -> inception_4a/pool
I0403 19:14:35.531137  8979 net.cpp:141] Setting up inception_4a/pool
I0403 19:14:35.531167  8979 net.cpp:148] Top shape: 24 480 14 14 (2257920)
I0403 19:14:35.531183  8979 net.cpp:156] Memory required for data: 884503584
I0403 19:14:35.531203  8979 layer_factory.hpp:77] Creating layer inception_4a/pool_proj
I0403 19:14:35.531244  8979 net.cpp:91] Creating Layer inception_4a/pool_proj
I0403 19:14:35.531267  8979 net.cpp:425] inception_4a/pool_proj <- inception_4a/pool
I0403 19:14:35.531292  8979 net.cpp:399] inception_4a/pool_proj -> inception_4a/pool_proj
I0403 19:14:35.532718  8979 net.cpp:141] Setting up inception_4a/pool_proj
I0403 19:14:35.532753  8979 net.cpp:148] Top shape: 24 64 14 14 (301056)
I0403 19:14:35.532798  8979 net.cpp:156] Memory required for data: 885707808
I0403 19:14:35.532821  8979 layer_factory.hpp:77] Creating layer inception_4a/relu_pool_proj
I0403 19:14:35.532845  8979 net.cpp:91] Creating Layer inception_4a/relu_pool_proj
I0403 19:14:35.532866  8979 net.cpp:425] inception_4a/relu_pool_proj <- inception_4a/pool_proj
I0403 19:14:35.532886  8979 net.cpp:386] inception_4a/relu_pool_proj -> inception_4a/pool_proj (in-place)
I0403 19:14:35.533238  8979 net.cpp:141] Setting up inception_4a/relu_pool_proj
I0403 19:14:35.533272  8979 net.cpp:148] Top shape: 24 64 14 14 (301056)
I0403 19:14:35.533294  8979 net.cpp:156] Memory required for data: 886912032
I0403 19:14:35.533313  8979 layer_factory.hpp:77] Creating layer inception_4a/output
I0403 19:14:35.533335  8979 net.cpp:91] Creating Layer inception_4a/output
I0403 19:14:35.533354  8979 net.cpp:425] inception_4a/output <- inception_4a/1x1
I0403 19:14:35.533375  8979 net.cpp:425] inception_4a/output <- inception_4a/3x3
I0403 19:14:35.533395  8979 net.cpp:425] inception_4a/output <- inception_4a/5x5
I0403 19:14:35.533414  8979 net.cpp:425] inception_4a/output <- inception_4a/pool_proj
I0403 19:14:35.533434  8979 net.cpp:399] inception_4a/output -> inception_4a/output
I0403 19:14:35.533491  8979 net.cpp:141] Setting up inception_4a/output
I0403 19:14:35.533520  8979 net.cpp:148] Top shape: 24 512 14 14 (2408448)
I0403 19:14:35.533538  8979 net.cpp:156] Memory required for data: 896545824
I0403 19:14:35.533557  8979 layer_factory.hpp:77] Creating layer inception_4a/output_inception_4a/output_0_split
I0403 19:14:35.533578  8979 net.cpp:91] Creating Layer inception_4a/output_inception_4a/output_0_split
I0403 19:14:35.533602  8979 net.cpp:425] inception_4a/output_inception_4a/output_0_split <- inception_4a/output
I0403 19:14:35.533624  8979 net.cpp:399] inception_4a/output_inception_4a/output_0_split -> inception_4a/output_inception_4a/output_0_split_0
I0403 19:14:35.533649  8979 net.cpp:399] inception_4a/output_inception_4a/output_0_split -> inception_4a/output_inception_4a/output_0_split_1
I0403 19:14:35.533674  8979 net.cpp:399] inception_4a/output_inception_4a/output_0_split -> inception_4a/output_inception_4a/output_0_split_2
I0403 19:14:35.533700  8979 net.cpp:399] inception_4a/output_inception_4a/output_0_split -> inception_4a/output_inception_4a/output_0_split_3
I0403 19:14:35.533726  8979 net.cpp:399] inception_4a/output_inception_4a/output_0_split -> inception_4a/output_inception_4a/output_0_split_4
I0403 19:14:35.533840  8979 net.cpp:141] Setting up inception_4a/output_inception_4a/output_0_split
I0403 19:14:35.533869  8979 net.cpp:148] Top shape: 24 512 14 14 (2408448)
I0403 19:14:35.533891  8979 net.cpp:148] Top shape: 24 512 14 14 (2408448)
I0403 19:14:35.533911  8979 net.cpp:148] Top shape: 24 512 14 14 (2408448)
I0403 19:14:35.533931  8979 net.cpp:148] Top shape: 24 512 14 14 (2408448)
I0403 19:14:35.533951  8979 net.cpp:148] Top shape: 24 512 14 14 (2408448)
I0403 19:14:35.533968  8979 net.cpp:156] Memory required for data: 944714784
I0403 19:14:35.533987  8979 layer_factory.hpp:77] Creating layer loss1/ave_pool
I0403 19:14:35.534008  8979 net.cpp:91] Creating Layer loss1/ave_pool
I0403 19:14:35.534029  8979 net.cpp:425] loss1/ave_pool <- inception_4a/output_inception_4a/output_0_split_0
I0403 19:14:35.534054  8979 net.cpp:399] loss1/ave_pool -> loss1/ave_pool
I0403 19:14:35.534318  8979 net.cpp:141] Setting up loss1/ave_pool
I0403 19:14:35.534353  8979 net.cpp:148] Top shape: 24 512 4 4 (196608)
I0403 19:14:35.534373  8979 net.cpp:156] Memory required for data: 945501216
I0403 19:14:35.534392  8979 layer_factory.hpp:77] Creating layer loss1/conv
I0403 19:14:35.534417  8979 net.cpp:91] Creating Layer loss1/conv
I0403 19:14:35.534438  8979 net.cpp:425] loss1/conv <- loss1/ave_pool
I0403 19:14:35.534464  8979 net.cpp:399] loss1/conv -> loss1/conv
I0403 19:14:35.536165  8979 net.cpp:141] Setting up loss1/conv
I0403 19:14:35.536203  8979 net.cpp:148] Top shape: 24 128 4 4 (49152)
I0403 19:14:35.536247  8979 net.cpp:156] Memory required for data: 945697824
I0403 19:14:35.536273  8979 layer_factory.hpp:77] Creating layer loss1/relu_conv
I0403 19:14:35.536295  8979 net.cpp:91] Creating Layer loss1/relu_conv
I0403 19:14:35.536315  8979 net.cpp:425] loss1/relu_conv <- loss1/conv
I0403 19:14:35.536340  8979 net.cpp:386] loss1/relu_conv -> loss1/conv (in-place)
I0403 19:14:35.536677  8979 net.cpp:141] Setting up loss1/relu_conv
I0403 19:14:35.536712  8979 net.cpp:148] Top shape: 24 128 4 4 (49152)
I0403 19:14:35.536732  8979 net.cpp:156] Memory required for data: 945894432
I0403 19:14:35.536751  8979 layer_factory.hpp:77] Creating layer loss1/fc
I0403 19:14:35.536780  8979 net.cpp:91] Creating Layer loss1/fc
I0403 19:14:35.536803  8979 net.cpp:425] loss1/fc <- loss1/conv
I0403 19:14:35.536829  8979 net.cpp:399] loss1/fc -> loss1/fc
I0403 19:14:35.558867  8979 net.cpp:141] Setting up loss1/fc
I0403 19:14:35.558909  8979 net.cpp:148] Top shape: 24 1024 (24576)
I0403 19:14:35.558930  8979 net.cpp:156] Memory required for data: 945992736
I0403 19:14:35.558954  8979 layer_factory.hpp:77] Creating layer loss1/relu_fc
I0403 19:14:35.558980  8979 net.cpp:91] Creating Layer loss1/relu_fc
I0403 19:14:35.559002  8979 net.cpp:425] loss1/relu_fc <- loss1/fc
I0403 19:14:35.559025  8979 net.cpp:386] loss1/relu_fc -> loss1/fc (in-place)
I0403 19:14:35.559264  8979 net.cpp:141] Setting up loss1/relu_fc
I0403 19:14:35.559295  8979 net.cpp:148] Top shape: 24 1024 (24576)
I0403 19:14:35.559315  8979 net.cpp:156] Memory required for data: 946091040
I0403 19:14:35.559334  8979 layer_factory.hpp:77] Creating layer loss1/drop_fc
I0403 19:14:35.559365  8979 net.cpp:91] Creating Layer loss1/drop_fc
I0403 19:14:35.559387  8979 net.cpp:425] loss1/drop_fc <- loss1/fc
I0403 19:14:35.559412  8979 net.cpp:386] loss1/drop_fc -> loss1/fc (in-place)
I0403 19:14:35.559475  8979 net.cpp:141] Setting up loss1/drop_fc
I0403 19:14:35.559504  8979 net.cpp:148] Top shape: 24 1024 (24576)
I0403 19:14:35.559521  8979 net.cpp:156] Memory required for data: 946189344
I0403 19:14:35.559540  8979 layer_factory.hpp:77] Creating layer loss1/classifier_plantvillage
I0403 19:14:35.559569  8979 net.cpp:91] Creating Layer loss1/classifier_plantvillage
I0403 19:14:35.559592  8979 net.cpp:425] loss1/classifier_plantvillage <- loss1/fc
I0403 19:14:35.559614  8979 net.cpp:399] loss1/classifier_plantvillage -> loss1/classifier_plantvillage
I0403 19:14:35.560705  8979 net.cpp:141] Setting up loss1/classifier_plantvillage
I0403 19:14:35.560742  8979 net.cpp:148] Top shape: 24 38 (912)
I0403 19:14:35.560763  8979 net.cpp:156] Memory required for data: 946192992
I0403 19:14:35.560786  8979 layer_factory.hpp:77] Creating layer loss1/classifier_plantvillage_loss1/classifier_plantvillage_0_split
I0403 19:14:35.560809  8979 net.cpp:91] Creating Layer loss1/classifier_plantvillage_loss1/classifier_plantvillage_0_split
I0403 19:14:35.560830  8979 net.cpp:425] loss1/classifier_plantvillage_loss1/classifier_plantvillage_0_split <- loss1/classifier_plantvillage
I0403 19:14:35.560853  8979 net.cpp:399] loss1/classifier_plantvillage_loss1/classifier_plantvillage_0_split -> loss1/classifier_plantvillage_loss1/classifier_plantvillage_0_split_0
I0403 19:14:35.560883  8979 net.cpp:399] loss1/classifier_plantvillage_loss1/classifier_plantvillage_0_split -> loss1/classifier_plantvillage_loss1/classifier_plantvillage_0_split_1
I0403 19:14:35.560909  8979 net.cpp:399] loss1/classifier_plantvillage_loss1/classifier_plantvillage_0_split -> loss1/classifier_plantvillage_loss1/classifier_plantvillage_0_split_2
I0403 19:14:35.560991  8979 net.cpp:141] Setting up loss1/classifier_plantvillage_loss1/classifier_plantvillage_0_split
I0403 19:14:35.561019  8979 net.cpp:148] Top shape: 24 38 (912)
I0403 19:14:35.561040  8979 net.cpp:148] Top shape: 24 38 (912)
I0403 19:14:35.561059  8979 net.cpp:148] Top shape: 24 38 (912)
I0403 19:14:35.561077  8979 net.cpp:156] Memory required for data: 946203936
I0403 19:14:35.561096  8979 layer_factory.hpp:77] Creating layer inception_4b/1x1
I0403 19:14:35.561125  8979 net.cpp:91] Creating Layer inception_4b/1x1
I0403 19:14:35.561166  8979 net.cpp:425] inception_4b/1x1 <- inception_4a/output_inception_4a/output_0_split_1
I0403 19:14:35.561190  8979 net.cpp:399] inception_4b/1x1 -> inception_4b/1x1
I0403 19:14:35.563215  8979 net.cpp:141] Setting up inception_4b/1x1
I0403 19:14:35.563251  8979 net.cpp:148] Top shape: 24 160 14 14 (752640)
I0403 19:14:35.563271  8979 net.cpp:156] Memory required for data: 949214496
I0403 19:14:35.563295  8979 layer_factory.hpp:77] Creating layer inception_4b/relu_1x1
I0403 19:14:35.563318  8979 net.cpp:91] Creating Layer inception_4b/relu_1x1
I0403 19:14:35.563338  8979 net.cpp:425] inception_4b/relu_1x1 <- inception_4b/1x1
I0403 19:14:35.563364  8979 net.cpp:386] inception_4b/relu_1x1 -> inception_4b/1x1 (in-place)
I0403 19:14:35.563585  8979 net.cpp:141] Setting up inception_4b/relu_1x1
I0403 19:14:35.563616  8979 net.cpp:148] Top shape: 24 160 14 14 (752640)
I0403 19:14:35.563634  8979 net.cpp:156] Memory required for data: 952225056
I0403 19:14:35.563652  8979 layer_factory.hpp:77] Creating layer inception_4b/3x3_reduce
I0403 19:14:35.563683  8979 net.cpp:91] Creating Layer inception_4b/3x3_reduce
I0403 19:14:35.563706  8979 net.cpp:425] inception_4b/3x3_reduce <- inception_4a/output_inception_4a/output_0_split_2
I0403 19:14:35.563733  8979 net.cpp:399] inception_4b/3x3_reduce -> inception_4b/3x3_reduce
I0403 19:14:35.565439  8979 net.cpp:141] Setting up inception_4b/3x3_reduce
I0403 19:14:35.565474  8979 net.cpp:148] Top shape: 24 112 14 14 (526848)
I0403 19:14:35.565495  8979 net.cpp:156] Memory required for data: 954332448
I0403 19:14:35.565517  8979 layer_factory.hpp:77] Creating layer inception_4b/relu_3x3_reduce
I0403 19:14:35.565542  8979 net.cpp:91] Creating Layer inception_4b/relu_3x3_reduce
I0403 19:14:35.565564  8979 net.cpp:425] inception_4b/relu_3x3_reduce <- inception_4b/3x3_reduce
I0403 19:14:35.565585  8979 net.cpp:386] inception_4b/relu_3x3_reduce -> inception_4b/3x3_reduce (in-place)
I0403 19:14:35.565925  8979 net.cpp:141] Setting up inception_4b/relu_3x3_reduce
I0403 19:14:35.565958  8979 net.cpp:148] Top shape: 24 112 14 14 (526848)
I0403 19:14:35.565978  8979 net.cpp:156] Memory required for data: 956439840
I0403 19:14:35.565995  8979 layer_factory.hpp:77] Creating layer inception_4b/3x3
I0403 19:14:35.566023  8979 net.cpp:91] Creating Layer inception_4b/3x3
I0403 19:14:35.566045  8979 net.cpp:425] inception_4b/3x3 <- inception_4b/3x3_reduce
I0403 19:14:35.566072  8979 net.cpp:399] inception_4b/3x3 -> inception_4b/3x3
I0403 19:14:35.569708  8979 net.cpp:141] Setting up inception_4b/3x3
I0403 19:14:35.569746  8979 net.cpp:148] Top shape: 24 224 14 14 (1053696)
I0403 19:14:35.569767  8979 net.cpp:156] Memory required for data: 960654624
I0403 19:14:35.569790  8979 layer_factory.hpp:77] Creating layer inception_4b/relu_3x3
I0403 19:14:35.569819  8979 net.cpp:91] Creating Layer inception_4b/relu_3x3
I0403 19:14:35.569841  8979 net.cpp:425] inception_4b/relu_3x3 <- inception_4b/3x3
I0403 19:14:35.569864  8979 net.cpp:386] inception_4b/relu_3x3 -> inception_4b/3x3 (in-place)
I0403 19:14:35.570086  8979 net.cpp:141] Setting up inception_4b/relu_3x3
I0403 19:14:35.570116  8979 net.cpp:148] Top shape: 24 224 14 14 (1053696)
I0403 19:14:35.570135  8979 net.cpp:156] Memory required for data: 964869408
I0403 19:14:35.570154  8979 layer_factory.hpp:77] Creating layer inception_4b/5x5_reduce
I0403 19:14:35.570183  8979 net.cpp:91] Creating Layer inception_4b/5x5_reduce
I0403 19:14:35.570204  8979 net.cpp:425] inception_4b/5x5_reduce <- inception_4a/output_inception_4a/output_0_split_3
I0403 19:14:35.570241  8979 net.cpp:399] inception_4b/5x5_reduce -> inception_4b/5x5_reduce
I0403 19:14:35.571573  8979 net.cpp:141] Setting up inception_4b/5x5_reduce
I0403 19:14:35.571606  8979 net.cpp:148] Top shape: 24 24 14 14 (112896)
I0403 19:14:35.571626  8979 net.cpp:156] Memory required for data: 965320992
I0403 19:14:35.571650  8979 layer_factory.hpp:77] Creating layer inception_4b/relu_5x5_reduce
I0403 19:14:35.571673  8979 net.cpp:91] Creating Layer inception_4b/relu_5x5_reduce
I0403 19:14:35.571710  8979 net.cpp:425] inception_4b/relu_5x5_reduce <- inception_4b/5x5_reduce
I0403 19:14:35.571737  8979 net.cpp:386] inception_4b/relu_5x5_reduce -> inception_4b/5x5_reduce (in-place)
I0403 19:14:35.571961  8979 net.cpp:141] Setting up inception_4b/relu_5x5_reduce
I0403 19:14:35.571992  8979 net.cpp:148] Top shape: 24 24 14 14 (112896)
I0403 19:14:35.572010  8979 net.cpp:156] Memory required for data: 965772576
I0403 19:14:35.572029  8979 layer_factory.hpp:77] Creating layer inception_4b/5x5
I0403 19:14:35.572057  8979 net.cpp:91] Creating Layer inception_4b/5x5
I0403 19:14:35.572077  8979 net.cpp:425] inception_4b/5x5 <- inception_4b/5x5_reduce
I0403 19:14:35.572104  8979 net.cpp:399] inception_4b/5x5 -> inception_4b/5x5
I0403 19:14:35.573631  8979 net.cpp:141] Setting up inception_4b/5x5
I0403 19:14:35.573665  8979 net.cpp:148] Top shape: 24 64 14 14 (301056)
I0403 19:14:35.573685  8979 net.cpp:156] Memory required for data: 966976800
I0403 19:14:35.573709  8979 layer_factory.hpp:77] Creating layer inception_4b/relu_5x5
I0403 19:14:35.573731  8979 net.cpp:91] Creating Layer inception_4b/relu_5x5
I0403 19:14:35.573751  8979 net.cpp:425] inception_4b/relu_5x5 <- inception_4b/5x5
I0403 19:14:35.573776  8979 net.cpp:386] inception_4b/relu_5x5 -> inception_4b/5x5 (in-place)
I0403 19:14:35.574123  8979 net.cpp:141] Setting up inception_4b/relu_5x5
I0403 19:14:35.574156  8979 net.cpp:148] Top shape: 24 64 14 14 (301056)
I0403 19:14:35.574175  8979 net.cpp:156] Memory required for data: 968181024
I0403 19:14:35.574194  8979 layer_factory.hpp:77] Creating layer inception_4b/pool
I0403 19:14:35.574223  8979 net.cpp:91] Creating Layer inception_4b/pool
I0403 19:14:35.574245  8979 net.cpp:425] inception_4b/pool <- inception_4a/output_inception_4a/output_0_split_4
I0403 19:14:35.574271  8979 net.cpp:399] inception_4b/pool -> inception_4b/pool
I0403 19:14:35.574352  8979 net.cpp:141] Setting up inception_4b/pool
I0403 19:14:35.574384  8979 net.cpp:148] Top shape: 24 512 14 14 (2408448)
I0403 19:14:35.574404  8979 net.cpp:156] Memory required for data: 977814816
I0403 19:14:35.574424  8979 layer_factory.hpp:77] Creating layer inception_4b/pool_proj
I0403 19:14:35.574451  8979 net.cpp:91] Creating Layer inception_4b/pool_proj
I0403 19:14:35.574473  8979 net.cpp:425] inception_4b/pool_proj <- inception_4b/pool
I0403 19:14:35.574496  8979 net.cpp:399] inception_4b/pool_proj -> inception_4b/pool_proj
I0403 19:14:35.575973  8979 net.cpp:141] Setting up inception_4b/pool_proj
I0403 19:14:35.576006  8979 net.cpp:148] Top shape: 24 64 14 14 (301056)
I0403 19:14:35.576025  8979 net.cpp:156] Memory required for data: 979019040
I0403 19:14:35.576047  8979 layer_factory.hpp:77] Creating layer inception_4b/relu_pool_proj
I0403 19:14:35.576073  8979 net.cpp:91] Creating Layer inception_4b/relu_pool_proj
I0403 19:14:35.576095  8979 net.cpp:425] inception_4b/relu_pool_proj <- inception_4b/pool_proj
I0403 19:14:35.576117  8979 net.cpp:386] inception_4b/relu_pool_proj -> inception_4b/pool_proj (in-place)
I0403 19:14:35.576344  8979 net.cpp:141] Setting up inception_4b/relu_pool_proj
I0403 19:14:35.576375  8979 net.cpp:148] Top shape: 24 64 14 14 (301056)
I0403 19:14:35.576395  8979 net.cpp:156] Memory required for data: 980223264
I0403 19:14:35.576413  8979 layer_factory.hpp:77] Creating layer inception_4b/output
I0403 19:14:35.576437  8979 net.cpp:91] Creating Layer inception_4b/output
I0403 19:14:35.576458  8979 net.cpp:425] inception_4b/output <- inception_4b/1x1
I0403 19:14:35.576479  8979 net.cpp:425] inception_4b/output <- inception_4b/3x3
I0403 19:14:35.576499  8979 net.cpp:425] inception_4b/output <- inception_4b/5x5
I0403 19:14:35.576519  8979 net.cpp:425] inception_4b/output <- inception_4b/pool_proj
I0403 19:14:35.576540  8979 net.cpp:399] inception_4b/output -> inception_4b/output
I0403 19:14:35.576598  8979 net.cpp:141] Setting up inception_4b/output
I0403 19:14:35.576627  8979 net.cpp:148] Top shape: 24 512 14 14 (2408448)
I0403 19:14:35.576647  8979 net.cpp:156] Memory required for data: 989857056
I0403 19:14:35.576681  8979 layer_factory.hpp:77] Creating layer inception_4b/output_inception_4b/output_0_split
I0403 19:14:35.576705  8979 net.cpp:91] Creating Layer inception_4b/output_inception_4b/output_0_split
I0403 19:14:35.576725  8979 net.cpp:425] inception_4b/output_inception_4b/output_0_split <- inception_4b/output
I0403 19:14:35.576750  8979 net.cpp:399] inception_4b/output_inception_4b/output_0_split -> inception_4b/output_inception_4b/output_0_split_0
I0403 19:14:35.576776  8979 net.cpp:399] inception_4b/output_inception_4b/output_0_split -> inception_4b/output_inception_4b/output_0_split_1
I0403 19:14:35.576802  8979 net.cpp:399] inception_4b/output_inception_4b/output_0_split -> inception_4b/output_inception_4b/output_0_split_2
I0403 19:14:35.576828  8979 net.cpp:399] inception_4b/output_inception_4b/output_0_split -> inception_4b/output_inception_4b/output_0_split_3
I0403 19:14:35.576933  8979 net.cpp:141] Setting up inception_4b/output_inception_4b/output_0_split
I0403 19:14:35.576966  8979 net.cpp:148] Top shape: 24 512 14 14 (2408448)
I0403 19:14:35.576987  8979 net.cpp:148] Top shape: 24 512 14 14 (2408448)
I0403 19:14:35.577006  8979 net.cpp:148] Top shape: 24 512 14 14 (2408448)
I0403 19:14:35.577026  8979 net.cpp:148] Top shape: 24 512 14 14 (2408448)
I0403 19:14:35.577044  8979 net.cpp:156] Memory required for data: 1028392224
I0403 19:14:35.577062  8979 layer_factory.hpp:77] Creating layer inception_4c/1x1
I0403 19:14:35.577090  8979 net.cpp:91] Creating Layer inception_4c/1x1
I0403 19:14:35.577111  8979 net.cpp:425] inception_4c/1x1 <- inception_4b/output_inception_4b/output_0_split_0
I0403 19:14:35.577136  8979 net.cpp:399] inception_4c/1x1 -> inception_4c/1x1
I0403 19:14:35.578912  8979 net.cpp:141] Setting up inception_4c/1x1
I0403 19:14:35.578946  8979 net.cpp:148] Top shape: 24 128 14 14 (602112)
I0403 19:14:35.578966  8979 net.cpp:156] Memory required for data: 1030800672
I0403 19:14:35.578990  8979 layer_factory.hpp:77] Creating layer inception_4c/relu_1x1
I0403 19:14:35.579017  8979 net.cpp:91] Creating Layer inception_4c/relu_1x1
I0403 19:14:35.579040  8979 net.cpp:425] inception_4c/relu_1x1 <- inception_4c/1x1
I0403 19:14:35.579061  8979 net.cpp:386] inception_4c/relu_1x1 -> inception_4c/1x1 (in-place)
I0403 19:14:35.579291  8979 net.cpp:141] Setting up inception_4c/relu_1x1
I0403 19:14:35.579324  8979 net.cpp:148] Top shape: 24 128 14 14 (602112)
I0403 19:14:35.579344  8979 net.cpp:156] Memory required for data: 1033209120
I0403 19:14:35.579361  8979 layer_factory.hpp:77] Creating layer inception_4c/3x3_reduce
I0403 19:14:35.579391  8979 net.cpp:91] Creating Layer inception_4c/3x3_reduce
I0403 19:14:35.579413  8979 net.cpp:425] inception_4c/3x3_reduce <- inception_4b/output_inception_4b/output_0_split_1
I0403 19:14:35.579440  8979 net.cpp:399] inception_4c/3x3_reduce -> inception_4c/3x3_reduce
I0403 19:14:35.581795  8979 net.cpp:141] Setting up inception_4c/3x3_reduce
I0403 19:14:35.581831  8979 net.cpp:148] Top shape: 24 128 14 14 (602112)
I0403 19:14:35.581851  8979 net.cpp:156] Memory required for data: 1035617568
I0403 19:14:35.581873  8979 layer_factory.hpp:77] Creating layer inception_4c/relu_3x3_reduce
I0403 19:14:35.581895  8979 net.cpp:91] Creating Layer inception_4c/relu_3x3_reduce
I0403 19:14:35.581917  8979 net.cpp:425] inception_4c/relu_3x3_reduce <- inception_4c/3x3_reduce
I0403 19:14:35.581945  8979 net.cpp:386] inception_4c/relu_3x3_reduce -> inception_4c/3x3_reduce (in-place)
I0403 19:14:35.582305  8979 net.cpp:141] Setting up inception_4c/relu_3x3_reduce
I0403 19:14:35.582339  8979 net.cpp:148] Top shape: 24 128 14 14 (602112)
I0403 19:14:35.582357  8979 net.cpp:156] Memory required for data: 1038026016
I0403 19:14:35.582378  8979 layer_factory.hpp:77] Creating layer inception_4c/3x3
I0403 19:14:35.582407  8979 net.cpp:91] Creating Layer inception_4c/3x3
I0403 19:14:35.582428  8979 net.cpp:425] inception_4c/3x3 <- inception_4c/3x3_reduce
I0403 19:14:35.582456  8979 net.cpp:399] inception_4c/3x3 -> inception_4c/3x3
I0403 19:14:35.586861  8979 net.cpp:141] Setting up inception_4c/3x3
I0403 19:14:35.586912  8979 net.cpp:148] Top shape: 24 256 14 14 (1204224)
I0403 19:14:35.586932  8979 net.cpp:156] Memory required for data: 1042842912
I0403 19:14:35.586972  8979 layer_factory.hpp:77] Creating layer inception_4c/relu_3x3
I0403 19:14:35.586997  8979 net.cpp:91] Creating Layer inception_4c/relu_3x3
I0403 19:14:35.587023  8979 net.cpp:425] inception_4c/relu_3x3 <- inception_4c/3x3
I0403 19:14:35.587044  8979 net.cpp:386] inception_4c/relu_3x3 -> inception_4c/3x3 (in-place)
I0403 19:14:35.587285  8979 net.cpp:141] Setting up inception_4c/relu_3x3
I0403 19:14:35.587316  8979 net.cpp:148] Top shape: 24 256 14 14 (1204224)
I0403 19:14:35.587334  8979 net.cpp:156] Memory required for data: 1047659808
I0403 19:14:35.587353  8979 layer_factory.hpp:77] Creating layer inception_4c/5x5_reduce
I0403 19:14:35.587383  8979 net.cpp:91] Creating Layer inception_4c/5x5_reduce
I0403 19:14:35.587405  8979 net.cpp:425] inception_4c/5x5_reduce <- inception_4b/output_inception_4b/output_0_split_2
I0403 19:14:35.587432  8979 net.cpp:399] inception_4c/5x5_reduce -> inception_4c/5x5_reduce
I0403 19:14:35.588771  8979 net.cpp:141] Setting up inception_4c/5x5_reduce
I0403 19:14:35.588806  8979 net.cpp:148] Top shape: 24 24 14 14 (112896)
I0403 19:14:35.588826  8979 net.cpp:156] Memory required for data: 1048111392
I0403 19:14:35.588850  8979 layer_factory.hpp:77] Creating layer inception_4c/relu_5x5_reduce
I0403 19:14:35.588872  8979 net.cpp:91] Creating Layer inception_4c/relu_5x5_reduce
I0403 19:14:35.588892  8979 net.cpp:425] inception_4c/relu_5x5_reduce <- inception_4c/5x5_reduce
I0403 19:14:35.588917  8979 net.cpp:386] inception_4c/relu_5x5_reduce -> inception_4c/5x5_reduce (in-place)
I0403 19:14:35.589143  8979 net.cpp:141] Setting up inception_4c/relu_5x5_reduce
I0403 19:14:35.589174  8979 net.cpp:148] Top shape: 24 24 14 14 (112896)
I0403 19:14:35.589192  8979 net.cpp:156] Memory required for data: 1048562976
I0403 19:14:35.589218  8979 layer_factory.hpp:77] Creating layer inception_4c/5x5
I0403 19:14:35.589248  8979 net.cpp:91] Creating Layer inception_4c/5x5
I0403 19:14:35.589270  8979 net.cpp:425] inception_4c/5x5 <- inception_4c/5x5_reduce
I0403 19:14:35.589296  8979 net.cpp:399] inception_4c/5x5 -> inception_4c/5x5
I0403 19:14:35.590824  8979 net.cpp:141] Setting up inception_4c/5x5
I0403 19:14:35.590858  8979 net.cpp:148] Top shape: 24 64 14 14 (301056)
I0403 19:14:35.590878  8979 net.cpp:156] Memory required for data: 1049767200
I0403 19:14:35.590901  8979 layer_factory.hpp:77] Creating layer inception_4c/relu_5x5
I0403 19:14:35.590927  8979 net.cpp:91] Creating Layer inception_4c/relu_5x5
I0403 19:14:35.590948  8979 net.cpp:425] inception_4c/relu_5x5 <- inception_4c/5x5
I0403 19:14:35.590970  8979 net.cpp:386] inception_4c/relu_5x5 -> inception_4c/5x5 (in-place)
I0403 19:14:35.591333  8979 net.cpp:141] Setting up inception_4c/relu_5x5
I0403 19:14:35.591367  8979 net.cpp:148] Top shape: 24 64 14 14 (301056)
I0403 19:14:35.591385  8979 net.cpp:156] Memory required for data: 1050971424
I0403 19:14:35.591404  8979 layer_factory.hpp:77] Creating layer inception_4c/pool
I0403 19:14:35.591434  8979 net.cpp:91] Creating Layer inception_4c/pool
I0403 19:14:35.591457  8979 net.cpp:425] inception_4c/pool <- inception_4b/output_inception_4b/output_0_split_3
I0403 19:14:35.591480  8979 net.cpp:399] inception_4c/pool -> inception_4c/pool
I0403 19:14:35.591563  8979 net.cpp:141] Setting up inception_4c/pool
I0403 19:14:35.591593  8979 net.cpp:148] Top shape: 24 512 14 14 (2408448)
I0403 19:14:35.591611  8979 net.cpp:156] Memory required for data: 1060605216
I0403 19:14:35.591630  8979 layer_factory.hpp:77] Creating layer inception_4c/pool_proj
I0403 19:14:35.591658  8979 net.cpp:91] Creating Layer inception_4c/pool_proj
I0403 19:14:35.591680  8979 net.cpp:425] inception_4c/pool_proj <- inception_4c/pool
I0403 19:14:35.591706  8979 net.cpp:399] inception_4c/pool_proj -> inception_4c/pool_proj
I0403 19:14:35.593224  8979 net.cpp:141] Setting up inception_4c/pool_proj
I0403 19:14:35.593260  8979 net.cpp:148] Top shape: 24 64 14 14 (301056)
I0403 19:14:35.593296  8979 net.cpp:156] Memory required for data: 1061809440
I0403 19:14:35.593320  8979 layer_factory.hpp:77] Creating layer inception_4c/relu_pool_proj
I0403 19:14:35.593343  8979 net.cpp:91] Creating Layer inception_4c/relu_pool_proj
I0403 19:14:35.593369  8979 net.cpp:425] inception_4c/relu_pool_proj <- inception_4c/pool_proj
I0403 19:14:35.593390  8979 net.cpp:386] inception_4c/relu_pool_proj -> inception_4c/pool_proj (in-place)
I0403 19:14:35.593611  8979 net.cpp:141] Setting up inception_4c/relu_pool_proj
I0403 19:14:35.593642  8979 net.cpp:148] Top shape: 24 64 14 14 (301056)
I0403 19:14:35.593660  8979 net.cpp:156] Memory required for data: 1063013664
I0403 19:14:35.593679  8979 layer_factory.hpp:77] Creating layer inception_4c/output
I0403 19:14:35.593703  8979 net.cpp:91] Creating Layer inception_4c/output
I0403 19:14:35.593724  8979 net.cpp:425] inception_4c/output <- inception_4c/1x1
I0403 19:14:35.593745  8979 net.cpp:425] inception_4c/output <- inception_4c/3x3
I0403 19:14:35.593765  8979 net.cpp:425] inception_4c/output <- inception_4c/5x5
I0403 19:14:35.593786  8979 net.cpp:425] inception_4c/output <- inception_4c/pool_proj
I0403 19:14:35.593807  8979 net.cpp:399] inception_4c/output -> inception_4c/output
I0403 19:14:35.593866  8979 net.cpp:141] Setting up inception_4c/output
I0403 19:14:35.593894  8979 net.cpp:148] Top shape: 24 512 14 14 (2408448)
I0403 19:14:35.593914  8979 net.cpp:156] Memory required for data: 1072647456
I0403 19:14:35.593931  8979 layer_factory.hpp:77] Creating layer inception_4c/output_inception_4c/output_0_split
I0403 19:14:35.593953  8979 net.cpp:91] Creating Layer inception_4c/output_inception_4c/output_0_split
I0403 19:14:35.593973  8979 net.cpp:425] inception_4c/output_inception_4c/output_0_split <- inception_4c/output
I0403 19:14:35.593998  8979 net.cpp:399] inception_4c/output_inception_4c/output_0_split -> inception_4c/output_inception_4c/output_0_split_0
I0403 19:14:35.594024  8979 net.cpp:399] inception_4c/output_inception_4c/output_0_split -> inception_4c/output_inception_4c/output_0_split_1
I0403 19:14:35.594050  8979 net.cpp:399] inception_4c/output_inception_4c/output_0_split -> inception_4c/output_inception_4c/output_0_split_2
I0403 19:14:35.594075  8979 net.cpp:399] inception_4c/output_inception_4c/output_0_split -> inception_4c/output_inception_4c/output_0_split_3
I0403 19:14:35.594185  8979 net.cpp:141] Setting up inception_4c/output_inception_4c/output_0_split
I0403 19:14:35.594223  8979 net.cpp:148] Top shape: 24 512 14 14 (2408448)
I0403 19:14:35.594247  8979 net.cpp:148] Top shape: 24 512 14 14 (2408448)
I0403 19:14:35.594267  8979 net.cpp:148] Top shape: 24 512 14 14 (2408448)
I0403 19:14:35.594287  8979 net.cpp:148] Top shape: 24 512 14 14 (2408448)
I0403 19:14:35.594305  8979 net.cpp:156] Memory required for data: 1111182624
I0403 19:14:35.594324  8979 layer_factory.hpp:77] Creating layer inception_4d/1x1
I0403 19:14:35.594352  8979 net.cpp:91] Creating Layer inception_4d/1x1
I0403 19:14:35.594373  8979 net.cpp:425] inception_4d/1x1 <- inception_4c/output_inception_4c/output_0_split_0
I0403 19:14:35.594396  8979 net.cpp:399] inception_4d/1x1 -> inception_4d/1x1
I0403 19:14:35.596084  8979 net.cpp:141] Setting up inception_4d/1x1
I0403 19:14:35.596122  8979 net.cpp:148] Top shape: 24 112 14 14 (526848)
I0403 19:14:35.596143  8979 net.cpp:156] Memory required for data: 1113290016
I0403 19:14:35.596166  8979 layer_factory.hpp:77] Creating layer inception_4d/relu_1x1
I0403 19:14:35.596189  8979 net.cpp:91] Creating Layer inception_4d/relu_1x1
I0403 19:14:35.596216  8979 net.cpp:425] inception_4d/relu_1x1 <- inception_4d/1x1
I0403 19:14:35.596243  8979 net.cpp:386] inception_4d/relu_1x1 -> inception_4d/1x1 (in-place)
I0403 19:14:35.596477  8979 net.cpp:141] Setting up inception_4d/relu_1x1
I0403 19:14:35.596506  8979 net.cpp:148] Top shape: 24 112 14 14 (526848)
I0403 19:14:35.596525  8979 net.cpp:156] Memory required for data: 1115397408
I0403 19:14:35.596544  8979 layer_factory.hpp:77] Creating layer inception_4d/3x3_reduce
I0403 19:14:35.596590  8979 net.cpp:91] Creating Layer inception_4d/3x3_reduce
I0403 19:14:35.596613  8979 net.cpp:425] inception_4d/3x3_reduce <- inception_4c/output_inception_4c/output_0_split_1
I0403 19:14:35.596640  8979 net.cpp:399] inception_4d/3x3_reduce -> inception_4d/3x3_reduce
I0403 19:14:35.598496  8979 net.cpp:141] Setting up inception_4d/3x3_reduce
I0403 19:14:35.598531  8979 net.cpp:148] Top shape: 24 144 14 14 (677376)
I0403 19:14:35.598551  8979 net.cpp:156] Memory required for data: 1118106912
I0403 19:14:35.598573  8979 layer_factory.hpp:77] Creating layer inception_4d/relu_3x3_reduce
I0403 19:14:35.598599  8979 net.cpp:91] Creating Layer inception_4d/relu_3x3_reduce
I0403 19:14:35.598620  8979 net.cpp:425] inception_4d/relu_3x3_reduce <- inception_4d/3x3_reduce
I0403 19:14:35.598642  8979 net.cpp:386] inception_4d/relu_3x3_reduce -> inception_4d/3x3_reduce (in-place)
I0403 19:14:35.598989  8979 net.cpp:141] Setting up inception_4d/relu_3x3_reduce
I0403 19:14:35.599021  8979 net.cpp:148] Top shape: 24 144 14 14 (677376)
I0403 19:14:35.599040  8979 net.cpp:156] Memory required for data: 1120816416
I0403 19:14:35.599061  8979 layer_factory.hpp:77] Creating layer inception_4d/3x3
I0403 19:14:35.599089  8979 net.cpp:91] Creating Layer inception_4d/3x3
I0403 19:14:35.599112  8979 net.cpp:425] inception_4d/3x3 <- inception_4d/3x3_reduce
I0403 19:14:35.599138  8979 net.cpp:399] inception_4d/3x3 -> inception_4d/3x3
I0403 19:14:35.604413  8979 net.cpp:141] Setting up inception_4d/3x3
I0403 19:14:35.604454  8979 net.cpp:148] Top shape: 24 288 14 14 (1354752)
I0403 19:14:35.604475  8979 net.cpp:156] Memory required for data: 1126235424
I0403 19:14:35.604498  8979 layer_factory.hpp:77] Creating layer inception_4d/relu_3x3
I0403 19:14:35.604521  8979 net.cpp:91] Creating Layer inception_4d/relu_3x3
I0403 19:14:35.604542  8979 net.cpp:425] inception_4d/relu_3x3 <- inception_4d/3x3
I0403 19:14:35.604567  8979 net.cpp:386] inception_4d/relu_3x3 -> inception_4d/3x3 (in-place)
I0403 19:14:35.604792  8979 net.cpp:141] Setting up inception_4d/relu_3x3
I0403 19:14:35.604823  8979 net.cpp:148] Top shape: 24 288 14 14 (1354752)
I0403 19:14:35.604841  8979 net.cpp:156] Memory required for data: 1131654432
I0403 19:14:35.604871  8979 layer_factory.hpp:77] Creating layer inception_4d/5x5_reduce
I0403 19:14:35.604898  8979 net.cpp:91] Creating Layer inception_4d/5x5_reduce
I0403 19:14:35.604920  8979 net.cpp:425] inception_4d/5x5_reduce <- inception_4c/output_inception_4c/output_0_split_2
I0403 19:14:35.604948  8979 net.cpp:399] inception_4d/5x5_reduce -> inception_4d/5x5_reduce
I0403 19:14:35.606367  8979 net.cpp:141] Setting up inception_4d/5x5_reduce
I0403 19:14:35.606405  8979 net.cpp:148] Top shape: 24 32 14 14 (150528)
I0403 19:14:35.606425  8979 net.cpp:156] Memory required for data: 1132256544
I0403 19:14:35.606448  8979 layer_factory.hpp:77] Creating layer inception_4d/relu_5x5_reduce
I0403 19:14:35.606470  8979 net.cpp:91] Creating Layer inception_4d/relu_5x5_reduce
I0403 19:14:35.606490  8979 net.cpp:425] inception_4d/relu_5x5_reduce <- inception_4d/5x5_reduce
I0403 19:14:35.606519  8979 net.cpp:386] inception_4d/relu_5x5_reduce -> inception_4d/5x5_reduce (in-place)
I0403 19:14:35.606751  8979 net.cpp:141] Setting up inception_4d/relu_5x5_reduce
I0403 19:14:35.606781  8979 net.cpp:148] Top shape: 24 32 14 14 (150528)
I0403 19:14:35.606801  8979 net.cpp:156] Memory required for data: 1132858656
I0403 19:14:35.606819  8979 layer_factory.hpp:77] Creating layer inception_4d/5x5
I0403 19:14:35.606848  8979 net.cpp:91] Creating Layer inception_4d/5x5
I0403 19:14:35.606869  8979 net.cpp:425] inception_4d/5x5 <- inception_4d/5x5_reduce
I0403 19:14:35.606895  8979 net.cpp:399] inception_4d/5x5 -> inception_4d/5x5
I0403 19:14:35.608695  8979 net.cpp:141] Setting up inception_4d/5x5
I0403 19:14:35.608729  8979 net.cpp:148] Top shape: 24 64 14 14 (301056)
I0403 19:14:35.608749  8979 net.cpp:156] Memory required for data: 1134062880
I0403 19:14:35.608777  8979 layer_factory.hpp:77] Creating layer inception_4d/relu_5x5
I0403 19:14:35.608819  8979 net.cpp:91] Creating Layer inception_4d/relu_5x5
I0403 19:14:35.608842  8979 net.cpp:425] inception_4d/relu_5x5 <- inception_4d/5x5
I0403 19:14:35.608865  8979 net.cpp:386] inception_4d/relu_5x5 -> inception_4d/5x5 (in-place)
I0403 19:14:35.609244  8979 net.cpp:141] Setting up inception_4d/relu_5x5
I0403 19:14:35.609277  8979 net.cpp:148] Top shape: 24 64 14 14 (301056)
I0403 19:14:35.609295  8979 net.cpp:156] Memory required for data: 1135267104
I0403 19:14:35.609314  8979 layer_factory.hpp:77] Creating layer inception_4d/pool
I0403 19:14:35.609336  8979 net.cpp:91] Creating Layer inception_4d/pool
I0403 19:14:35.609356  8979 net.cpp:425] inception_4d/pool <- inception_4c/output_inception_4c/output_0_split_3
I0403 19:14:35.609382  8979 net.cpp:399] inception_4d/pool -> inception_4d/pool
I0403 19:14:35.609468  8979 net.cpp:141] Setting up inception_4d/pool
I0403 19:14:35.609498  8979 net.cpp:148] Top shape: 24 512 14 14 (2408448)
I0403 19:14:35.609518  8979 net.cpp:156] Memory required for data: 1144900896
I0403 19:14:35.609535  8979 layer_factory.hpp:77] Creating layer inception_4d/pool_proj
I0403 19:14:35.609563  8979 net.cpp:91] Creating Layer inception_4d/pool_proj
I0403 19:14:35.609585  8979 net.cpp:425] inception_4d/pool_proj <- inception_4d/pool
I0403 19:14:35.609611  8979 net.cpp:399] inception_4d/pool_proj -> inception_4d/pool_proj
I0403 19:14:35.611753  8979 net.cpp:141] Setting up inception_4d/pool_proj
I0403 19:14:35.611793  8979 net.cpp:148] Top shape: 24 64 14 14 (301056)
I0403 19:14:35.611812  8979 net.cpp:156] Memory required for data: 1146105120
I0403 19:14:35.611835  8979 layer_factory.hpp:77] Creating layer inception_4d/relu_pool_proj
I0403 19:14:35.611858  8979 net.cpp:91] Creating Layer inception_4d/relu_pool_proj
I0403 19:14:35.611881  8979 net.cpp:425] inception_4d/relu_pool_proj <- inception_4d/pool_proj
I0403 19:14:35.611907  8979 net.cpp:386] inception_4d/relu_pool_proj -> inception_4d/pool_proj (in-place)
I0403 19:14:35.612136  8979 net.cpp:141] Setting up inception_4d/relu_pool_proj
I0403 19:14:35.612167  8979 net.cpp:148] Top shape: 24 64 14 14 (301056)
I0403 19:14:35.612186  8979 net.cpp:156] Memory required for data: 1147309344
I0403 19:14:35.612205  8979 layer_factory.hpp:77] Creating layer inception_4d/output
I0403 19:14:35.612246  8979 net.cpp:91] Creating Layer inception_4d/output
I0403 19:14:35.612267  8979 net.cpp:425] inception_4d/output <- inception_4d/1x1
I0403 19:14:35.612287  8979 net.cpp:425] inception_4d/output <- inception_4d/3x3
I0403 19:14:35.612308  8979 net.cpp:425] inception_4d/output <- inception_4d/5x5
I0403 19:14:35.612328  8979 net.cpp:425] inception_4d/output <- inception_4d/pool_proj
I0403 19:14:35.612352  8979 net.cpp:399] inception_4d/output -> inception_4d/output
I0403 19:14:35.612412  8979 net.cpp:141] Setting up inception_4d/output
I0403 19:14:35.612443  8979 net.cpp:148] Top shape: 24 528 14 14 (2483712)
I0403 19:14:35.612463  8979 net.cpp:156] Memory required for data: 1157244192
I0403 19:14:35.612481  8979 layer_factory.hpp:77] Creating layer inception_4d/output_inception_4d/output_0_split
I0403 19:14:35.612504  8979 net.cpp:91] Creating Layer inception_4d/output_inception_4d/output_0_split
I0403 19:14:35.612524  8979 net.cpp:425] inception_4d/output_inception_4d/output_0_split <- inception_4d/output
I0403 19:14:35.612548  8979 net.cpp:399] inception_4d/output_inception_4d/output_0_split -> inception_4d/output_inception_4d/output_0_split_0
I0403 19:14:35.612576  8979 net.cpp:399] inception_4d/output_inception_4d/output_0_split -> inception_4d/output_inception_4d/output_0_split_1
I0403 19:14:35.612601  8979 net.cpp:399] inception_4d/output_inception_4d/output_0_split -> inception_4d/output_inception_4d/output_0_split_2
I0403 19:14:35.612627  8979 net.cpp:399] inception_4d/output_inception_4d/output_0_split -> inception_4d/output_inception_4d/output_0_split_3
I0403 19:14:35.612651  8979 net.cpp:399] inception_4d/output_inception_4d/output_0_split -> inception_4d/output_inception_4d/output_0_split_4
I0403 19:14:35.612779  8979 net.cpp:141] Setting up inception_4d/output_inception_4d/output_0_split
I0403 19:14:35.612823  8979 net.cpp:148] Top shape: 24 528 14 14 (2483712)
I0403 19:14:35.612848  8979 net.cpp:148] Top shape: 24 528 14 14 (2483712)
I0403 19:14:35.612869  8979 net.cpp:148] Top shape: 24 528 14 14 (2483712)
I0403 19:14:35.612889  8979 net.cpp:148] Top shape: 24 528 14 14 (2483712)
I0403 19:14:35.612908  8979 net.cpp:148] Top shape: 24 528 14 14 (2483712)
I0403 19:14:35.612926  8979 net.cpp:156] Memory required for data: 1206918432
I0403 19:14:35.612946  8979 layer_factory.hpp:77] Creating layer loss2/ave_pool
I0403 19:14:35.612967  8979 net.cpp:91] Creating Layer loss2/ave_pool
I0403 19:14:35.612987  8979 net.cpp:425] loss2/ave_pool <- inception_4d/output_inception_4d/output_0_split_0
I0403 19:14:35.613013  8979 net.cpp:399] loss2/ave_pool -> loss2/ave_pool
I0403 19:14:35.613395  8979 net.cpp:141] Setting up loss2/ave_pool
I0403 19:14:35.613431  8979 net.cpp:148] Top shape: 24 528 4 4 (202752)
I0403 19:14:35.613453  8979 net.cpp:156] Memory required for data: 1207729440
I0403 19:14:35.613472  8979 layer_factory.hpp:77] Creating layer loss2/conv
I0403 19:14:35.613500  8979 net.cpp:91] Creating Layer loss2/conv
I0403 19:14:35.613523  8979 net.cpp:425] loss2/conv <- loss2/ave_pool
I0403 19:14:35.613554  8979 net.cpp:399] loss2/conv -> loss2/conv
I0403 19:14:35.615865  8979 net.cpp:141] Setting up loss2/conv
I0403 19:14:35.615901  8979 net.cpp:148] Top shape: 24 128 4 4 (49152)
I0403 19:14:35.615921  8979 net.cpp:156] Memory required for data: 1207926048
I0403 19:14:35.615945  8979 layer_factory.hpp:77] Creating layer loss2/relu_conv
I0403 19:14:35.615972  8979 net.cpp:91] Creating Layer loss2/relu_conv
I0403 19:14:35.615993  8979 net.cpp:425] loss2/relu_conv <- loss2/conv
I0403 19:14:35.616014  8979 net.cpp:386] loss2/relu_conv -> loss2/conv (in-place)
I0403 19:14:35.616367  8979 net.cpp:141] Setting up loss2/relu_conv
I0403 19:14:35.616400  8979 net.cpp:148] Top shape: 24 128 4 4 (49152)
I0403 19:14:35.616420  8979 net.cpp:156] Memory required for data: 1208122656
I0403 19:14:35.616438  8979 layer_factory.hpp:77] Creating layer loss2/fc
I0403 19:14:35.616466  8979 net.cpp:91] Creating Layer loss2/fc
I0403 19:14:35.616487  8979 net.cpp:425] loss2/fc <- loss2/conv
I0403 19:14:35.616510  8979 net.cpp:399] loss2/fc -> loss2/fc
I0403 19:14:35.638525  8979 net.cpp:141] Setting up loss2/fc
I0403 19:14:35.638566  8979 net.cpp:148] Top shape: 24 1024 (24576)
I0403 19:14:35.638586  8979 net.cpp:156] Memory required for data: 1208220960
I0403 19:14:35.638609  8979 layer_factory.hpp:77] Creating layer loss2/relu_fc
I0403 19:14:35.638631  8979 net.cpp:91] Creating Layer loss2/relu_fc
I0403 19:14:35.638651  8979 net.cpp:425] loss2/relu_fc <- loss2/fc
I0403 19:14:35.638676  8979 net.cpp:386] loss2/relu_fc -> loss2/fc (in-place)
I0403 19:14:35.639051  8979 net.cpp:141] Setting up loss2/relu_fc
I0403 19:14:35.639084  8979 net.cpp:148] Top shape: 24 1024 (24576)
I0403 19:14:35.639103  8979 net.cpp:156] Memory required for data: 1208319264
I0403 19:14:35.639122  8979 layer_factory.hpp:77] Creating layer loss2/drop_fc
I0403 19:14:35.639144  8979 net.cpp:91] Creating Layer loss2/drop_fc
I0403 19:14:35.639164  8979 net.cpp:425] loss2/drop_fc <- loss2/fc
I0403 19:14:35.639190  8979 net.cpp:386] loss2/drop_fc -> loss2/fc (in-place)
I0403 19:14:35.639261  8979 net.cpp:141] Setting up loss2/drop_fc
I0403 19:14:35.639291  8979 net.cpp:148] Top shape: 24 1024 (24576)
I0403 19:14:35.639308  8979 net.cpp:156] Memory required for data: 1208417568
I0403 19:14:35.639328  8979 layer_factory.hpp:77] Creating layer loss2/classifier_plantvillage
I0403 19:14:35.639354  8979 net.cpp:91] Creating Layer loss2/classifier_plantvillage
I0403 19:14:35.639375  8979 net.cpp:425] loss2/classifier_plantvillage <- loss2/fc
I0403 19:14:35.639401  8979 net.cpp:399] loss2/classifier_plantvillage -> loss2/classifier_plantvillage
I0403 19:14:35.639899  8979 net.cpp:141] Setting up loss2/classifier_plantvillage
I0403 19:14:35.639930  8979 net.cpp:148] Top shape: 24 38 (912)
I0403 19:14:35.639966  8979 net.cpp:156] Memory required for data: 1208421216
I0403 19:14:35.639989  8979 layer_factory.hpp:77] Creating layer loss2/classifier_plantvillage_loss2/classifier_plantvillage_0_split
I0403 19:14:35.640017  8979 net.cpp:91] Creating Layer loss2/classifier_plantvillage_loss2/classifier_plantvillage_0_split
I0403 19:14:35.640038  8979 net.cpp:425] loss2/classifier_plantvillage_loss2/classifier_plantvillage_0_split <- loss2/classifier_plantvillage
I0403 19:14:35.640060  8979 net.cpp:399] loss2/classifier_plantvillage_loss2/classifier_plantvillage_0_split -> loss2/classifier_plantvillage_loss2/classifier_plantvillage_0_split_0
I0403 19:14:35.640085  8979 net.cpp:399] loss2/classifier_plantvillage_loss2/classifier_plantvillage_0_split -> loss2/classifier_plantvillage_loss2/classifier_plantvillage_0_split_1
I0403 19:14:35.640111  8979 net.cpp:399] loss2/classifier_plantvillage_loss2/classifier_plantvillage_0_split -> loss2/classifier_plantvillage_loss2/classifier_plantvillage_0_split_2
I0403 19:14:35.640218  8979 net.cpp:141] Setting up loss2/classifier_plantvillage_loss2/classifier_plantvillage_0_split
I0403 19:14:35.640247  8979 net.cpp:148] Top shape: 24 38 (912)
I0403 19:14:35.640269  8979 net.cpp:148] Top shape: 24 38 (912)
I0403 19:14:35.640288  8979 net.cpp:148] Top shape: 24 38 (912)
I0403 19:14:35.640305  8979 net.cpp:156] Memory required for data: 1208432160
I0403 19:14:35.640324  8979 layer_factory.hpp:77] Creating layer inception_4e/1x1
I0403 19:14:35.640348  8979 net.cpp:91] Creating Layer inception_4e/1x1
I0403 19:14:35.640369  8979 net.cpp:425] inception_4e/1x1 <- inception_4d/output_inception_4d/output_0_split_1
I0403 19:14:35.640395  8979 net.cpp:399] inception_4e/1x1 -> inception_4e/1x1
I0403 19:14:35.642648  8979 net.cpp:141] Setting up inception_4e/1x1
I0403 19:14:35.642684  8979 net.cpp:148] Top shape: 24 256 14 14 (1204224)
I0403 19:14:35.642704  8979 net.cpp:156] Memory required for data: 1213249056
I0403 19:14:35.642727  8979 layer_factory.hpp:77] Creating layer inception_4e/relu_1x1
I0403 19:14:35.642753  8979 net.cpp:91] Creating Layer inception_4e/relu_1x1
I0403 19:14:35.642774  8979 net.cpp:425] inception_4e/relu_1x1 <- inception_4e/1x1
I0403 19:14:35.642796  8979 net.cpp:386] inception_4e/relu_1x1 -> inception_4e/1x1 (in-place)
I0403 19:14:35.643154  8979 net.cpp:141] Setting up inception_4e/relu_1x1
I0403 19:14:35.643187  8979 net.cpp:148] Top shape: 24 256 14 14 (1204224)
I0403 19:14:35.643206  8979 net.cpp:156] Memory required for data: 1218065952
I0403 19:14:35.643234  8979 layer_factory.hpp:77] Creating layer inception_4e/3x3_reduce
I0403 19:14:35.643261  8979 net.cpp:91] Creating Layer inception_4e/3x3_reduce
I0403 19:14:35.643285  8979 net.cpp:425] inception_4e/3x3_reduce <- inception_4d/output_inception_4d/output_0_split_2
I0403 19:14:35.643311  8979 net.cpp:399] inception_4e/3x3_reduce -> inception_4e/3x3_reduce
I0403 19:14:35.645905  8979 net.cpp:141] Setting up inception_4e/3x3_reduce
I0403 19:14:35.645941  8979 net.cpp:148] Top shape: 24 160 14 14 (752640)
I0403 19:14:35.645961  8979 net.cpp:156] Memory required for data: 1221076512
I0403 19:14:35.645983  8979 layer_factory.hpp:77] Creating layer inception_4e/relu_3x3_reduce
I0403 19:14:35.646010  8979 net.cpp:91] Creating Layer inception_4e/relu_3x3_reduce
I0403 19:14:35.646033  8979 net.cpp:425] inception_4e/relu_3x3_reduce <- inception_4e/3x3_reduce
I0403 19:14:35.646054  8979 net.cpp:386] inception_4e/relu_3x3_reduce -> inception_4e/3x3_reduce (in-place)
I0403 19:14:35.646291  8979 net.cpp:141] Setting up inception_4e/relu_3x3_reduce
I0403 19:14:35.646323  8979 net.cpp:148] Top shape: 24 160 14 14 (752640)
I0403 19:14:35.646340  8979 net.cpp:156] Memory required for data: 1224087072
I0403 19:14:35.646366  8979 layer_factory.hpp:77] Creating layer inception_4e/3x3
I0403 19:14:35.646395  8979 net.cpp:91] Creating Layer inception_4e/3x3
I0403 19:14:35.646416  8979 net.cpp:425] inception_4e/3x3 <- inception_4e/3x3_reduce
I0403 19:14:35.646440  8979 net.cpp:399] inception_4e/3x3 -> inception_4e/3x3
I0403 19:14:35.652680  8979 net.cpp:141] Setting up inception_4e/3x3
I0403 19:14:35.652731  8979 net.cpp:148] Top shape: 24 320 14 14 (1505280)
I0403 19:14:35.652753  8979 net.cpp:156] Memory required for data: 1230108192
I0403 19:14:35.652777  8979 layer_factory.hpp:77] Creating layer inception_4e/relu_3x3
I0403 19:14:35.652802  8979 net.cpp:91] Creating Layer inception_4e/relu_3x3
I0403 19:14:35.652822  8979 net.cpp:425] inception_4e/relu_3x3 <- inception_4e/3x3
I0403 19:14:35.652844  8979 net.cpp:386] inception_4e/relu_3x3 -> inception_4e/3x3 (in-place)
I0403 19:14:35.653220  8979 net.cpp:141] Setting up inception_4e/relu_3x3
I0403 19:14:35.653256  8979 net.cpp:148] Top shape: 24 320 14 14 (1505280)
I0403 19:14:35.653276  8979 net.cpp:156] Memory required for data: 1236129312
I0403 19:14:35.653295  8979 layer_factory.hpp:77] Creating layer inception_4e/5x5_reduce
I0403 19:14:35.653324  8979 net.cpp:91] Creating Layer inception_4e/5x5_reduce
I0403 19:14:35.653347  8979 net.cpp:425] inception_4e/5x5_reduce <- inception_4d/output_inception_4d/output_0_split_3
I0403 19:14:35.653372  8979 net.cpp:399] inception_4e/5x5_reduce -> inception_4e/5x5_reduce
I0403 19:14:35.654693  8979 net.cpp:141] Setting up inception_4e/5x5_reduce
I0403 19:14:35.654728  8979 net.cpp:148] Top shape: 24 32 14 14 (150528)
I0403 19:14:35.654747  8979 net.cpp:156] Memory required for data: 1236731424
I0403 19:14:35.654770  8979 layer_factory.hpp:77] Creating layer inception_4e/relu_5x5_reduce
I0403 19:14:35.654796  8979 net.cpp:91] Creating Layer inception_4e/relu_5x5_reduce
I0403 19:14:35.654819  8979 net.cpp:425] inception_4e/relu_5x5_reduce <- inception_4e/5x5_reduce
I0403 19:14:35.654840  8979 net.cpp:386] inception_4e/relu_5x5_reduce -> inception_4e/5x5_reduce (in-place)
I0403 19:14:35.655220  8979 net.cpp:141] Setting up inception_4e/relu_5x5_reduce
I0403 19:14:35.655251  8979 net.cpp:148] Top shape: 24 32 14 14 (150528)
I0403 19:14:35.655272  8979 net.cpp:156] Memory required for data: 1237333536
I0403 19:14:35.655290  8979 layer_factory.hpp:77] Creating layer inception_4e/5x5
I0403 19:14:35.655335  8979 net.cpp:91] Creating Layer inception_4e/5x5
I0403 19:14:35.655359  8979 net.cpp:425] inception_4e/5x5 <- inception_4e/5x5_reduce
I0403 19:14:35.655383  8979 net.cpp:399] inception_4e/5x5 -> inception_4e/5x5
I0403 19:14:35.657636  8979 net.cpp:141] Setting up inception_4e/5x5
I0403 19:14:35.657671  8979 net.cpp:148] Top shape: 24 128 14 14 (602112)
I0403 19:14:35.657693  8979 net.cpp:156] Memory required for data: 1239741984
I0403 19:14:35.657716  8979 layer_factory.hpp:77] Creating layer inception_4e/relu_5x5
I0403 19:14:35.657739  8979 net.cpp:91] Creating Layer inception_4e/relu_5x5
I0403 19:14:35.657759  8979 net.cpp:425] inception_4e/relu_5x5 <- inception_4e/5x5
I0403 19:14:35.657784  8979 net.cpp:386] inception_4e/relu_5x5 -> inception_4e/5x5 (in-place)
I0403 19:14:35.658032  8979 net.cpp:141] Setting up inception_4e/relu_5x5
I0403 19:14:35.658064  8979 net.cpp:148] Top shape: 24 128 14 14 (602112)
I0403 19:14:35.658082  8979 net.cpp:156] Memory required for data: 1242150432
I0403 19:14:35.658102  8979 layer_factory.hpp:77] Creating layer inception_4e/pool
I0403 19:14:35.658126  8979 net.cpp:91] Creating Layer inception_4e/pool
I0403 19:14:35.658148  8979 net.cpp:425] inception_4e/pool <- inception_4d/output_inception_4d/output_0_split_4
I0403 19:14:35.658170  8979 net.cpp:399] inception_4e/pool -> inception_4e/pool
I0403 19:14:35.658267  8979 net.cpp:141] Setting up inception_4e/pool
I0403 19:14:35.658298  8979 net.cpp:148] Top shape: 24 528 14 14 (2483712)
I0403 19:14:35.658316  8979 net.cpp:156] Memory required for data: 1252085280
I0403 19:14:35.658335  8979 layer_factory.hpp:77] Creating layer inception_4e/pool_proj
I0403 19:14:35.658362  8979 net.cpp:91] Creating Layer inception_4e/pool_proj
I0403 19:14:35.658385  8979 net.cpp:425] inception_4e/pool_proj <- inception_4e/pool
I0403 19:14:35.658411  8979 net.cpp:399] inception_4e/pool_proj -> inception_4e/pool_proj
I0403 19:14:35.660274  8979 net.cpp:141] Setting up inception_4e/pool_proj
I0403 19:14:35.660325  8979 net.cpp:148] Top shape: 24 128 14 14 (602112)
I0403 19:14:35.660346  8979 net.cpp:156] Memory required for data: 1254493728
I0403 19:14:35.660369  8979 layer_factory.hpp:77] Creating layer inception_4e/relu_pool_proj
I0403 19:14:35.660392  8979 net.cpp:91] Creating Layer inception_4e/relu_pool_proj
I0403 19:14:35.660411  8979 net.cpp:425] inception_4e/relu_pool_proj <- inception_4e/pool_proj
I0403 19:14:35.660435  8979 net.cpp:386] inception_4e/relu_pool_proj -> inception_4e/pool_proj (in-place)
I0403 19:14:35.660794  8979 net.cpp:141] Setting up inception_4e/relu_pool_proj
I0403 19:14:35.660826  8979 net.cpp:148] Top shape: 24 128 14 14 (602112)
I0403 19:14:35.660845  8979 net.cpp:156] Memory required for data: 1256902176
I0403 19:14:35.660864  8979 layer_factory.hpp:77] Creating layer inception_4e/output
I0403 19:14:35.660887  8979 net.cpp:91] Creating Layer inception_4e/output
I0403 19:14:35.660907  8979 net.cpp:425] inception_4e/output <- inception_4e/1x1
I0403 19:14:35.660928  8979 net.cpp:425] inception_4e/output <- inception_4e/3x3
I0403 19:14:35.660948  8979 net.cpp:425] inception_4e/output <- inception_4e/5x5
I0403 19:14:35.660967  8979 net.cpp:425] inception_4e/output <- inception_4e/pool_proj
I0403 19:14:35.660989  8979 net.cpp:399] inception_4e/output -> inception_4e/output
I0403 19:14:35.661051  8979 net.cpp:141] Setting up inception_4e/output
I0403 19:14:35.661082  8979 net.cpp:148] Top shape: 24 832 14 14 (3913728)
I0403 19:14:35.661099  8979 net.cpp:156] Memory required for data: 1272557088
I0403 19:14:35.661118  8979 layer_factory.hpp:77] Creating layer pool4/3x3_s2
I0403 19:14:35.661144  8979 net.cpp:91] Creating Layer pool4/3x3_s2
I0403 19:14:35.661164  8979 net.cpp:425] pool4/3x3_s2 <- inception_4e/output
I0403 19:14:35.661187  8979 net.cpp:399] pool4/3x3_s2 -> pool4/3x3_s2
I0403 19:14:35.661279  8979 net.cpp:141] Setting up pool4/3x3_s2
I0403 19:14:35.661309  8979 net.cpp:148] Top shape: 24 832 7 7 (978432)
I0403 19:14:35.661329  8979 net.cpp:156] Memory required for data: 1276470816
I0403 19:14:35.661347  8979 layer_factory.hpp:77] Creating layer pool4/3x3_s2_pool4/3x3_s2_0_split
I0403 19:14:35.661370  8979 net.cpp:91] Creating Layer pool4/3x3_s2_pool4/3x3_s2_0_split
I0403 19:14:35.661388  8979 net.cpp:425] pool4/3x3_s2_pool4/3x3_s2_0_split <- pool4/3x3_s2
I0403 19:14:35.661412  8979 net.cpp:399] pool4/3x3_s2_pool4/3x3_s2_0_split -> pool4/3x3_s2_pool4/3x3_s2_0_split_0
I0403 19:14:35.661439  8979 net.cpp:399] pool4/3x3_s2_pool4/3x3_s2_0_split -> pool4/3x3_s2_pool4/3x3_s2_0_split_1
I0403 19:14:35.661464  8979 net.cpp:399] pool4/3x3_s2_pool4/3x3_s2_0_split -> pool4/3x3_s2_pool4/3x3_s2_0_split_2
I0403 19:14:35.661489  8979 net.cpp:399] pool4/3x3_s2_pool4/3x3_s2_0_split -> pool4/3x3_s2_pool4/3x3_s2_0_split_3
I0403 19:14:35.661603  8979 net.cpp:141] Setting up pool4/3x3_s2_pool4/3x3_s2_0_split
I0403 19:14:35.661635  8979 net.cpp:148] Top shape: 24 832 7 7 (978432)
I0403 19:14:35.661658  8979 net.cpp:148] Top shape: 24 832 7 7 (978432)
I0403 19:14:35.661677  8979 net.cpp:148] Top shape: 24 832 7 7 (978432)
I0403 19:14:35.661696  8979 net.cpp:148] Top shape: 24 832 7 7 (978432)
I0403 19:14:35.661715  8979 net.cpp:156] Memory required for data: 1292125728
I0403 19:14:35.661732  8979 layer_factory.hpp:77] Creating layer inception_5a/1x1
I0403 19:14:35.661761  8979 net.cpp:91] Creating Layer inception_5a/1x1
I0403 19:14:35.661782  8979 net.cpp:425] inception_5a/1x1 <- pool4/3x3_s2_pool4/3x3_s2_0_split_0
I0403 19:14:35.661818  8979 net.cpp:399] inception_5a/1x1 -> inception_5a/1x1
I0403 19:14:35.665349  8979 net.cpp:141] Setting up inception_5a/1x1
I0403 19:14:35.665385  8979 net.cpp:148] Top shape: 24 256 7 7 (301056)
I0403 19:14:35.665405  8979 net.cpp:156] Memory required for data: 1293329952
I0403 19:14:35.665427  8979 layer_factory.hpp:77] Creating layer inception_5a/relu_1x1
I0403 19:14:35.665452  8979 net.cpp:91] Creating Layer inception_5a/relu_1x1
I0403 19:14:35.665475  8979 net.cpp:425] inception_5a/relu_1x1 <- inception_5a/1x1
I0403 19:14:35.665496  8979 net.cpp:386] inception_5a/relu_1x1 -> inception_5a/1x1 (in-place)
I0403 19:14:35.665877  8979 net.cpp:141] Setting up inception_5a/relu_1x1
I0403 19:14:35.665910  8979 net.cpp:148] Top shape: 24 256 7 7 (301056)
I0403 19:14:35.665930  8979 net.cpp:156] Memory required for data: 1294534176
I0403 19:14:35.665948  8979 layer_factory.hpp:77] Creating layer inception_5a/3x3_reduce
I0403 19:14:35.665976  8979 net.cpp:91] Creating Layer inception_5a/3x3_reduce
I0403 19:14:35.665997  8979 net.cpp:425] inception_5a/3x3_reduce <- pool4/3x3_s2_pool4/3x3_s2_0_split_1
I0403 19:14:35.666028  8979 net.cpp:399] inception_5a/3x3_reduce -> inception_5a/3x3_reduce
I0403 19:14:35.669064  8979 net.cpp:141] Setting up inception_5a/3x3_reduce
I0403 19:14:35.669105  8979 net.cpp:148] Top shape: 24 160 7 7 (188160)
I0403 19:14:35.669126  8979 net.cpp:156] Memory required for data: 1295286816
I0403 19:14:35.669149  8979 layer_factory.hpp:77] Creating layer inception_5a/relu_3x3_reduce
I0403 19:14:35.669172  8979 net.cpp:91] Creating Layer inception_5a/relu_3x3_reduce
I0403 19:14:35.669191  8979 net.cpp:425] inception_5a/relu_3x3_reduce <- inception_5a/3x3_reduce
I0403 19:14:35.669219  8979 net.cpp:386] inception_5a/relu_3x3_reduce -> inception_5a/3x3_reduce (in-place)
I0403 19:14:35.669458  8979 net.cpp:141] Setting up inception_5a/relu_3x3_reduce
I0403 19:14:35.669489  8979 net.cpp:148] Top shape: 24 160 7 7 (188160)
I0403 19:14:35.669508  8979 net.cpp:156] Memory required for data: 1296039456
I0403 19:14:35.669528  8979 layer_factory.hpp:77] Creating layer inception_5a/3x3
I0403 19:14:35.669554  8979 net.cpp:91] Creating Layer inception_5a/3x3
I0403 19:14:35.669575  8979 net.cpp:425] inception_5a/3x3 <- inception_5a/3x3_reduce
I0403 19:14:35.669603  8979 net.cpp:399] inception_5a/3x3 -> inception_5a/3x3
I0403 19:14:35.675881  8979 net.cpp:141] Setting up inception_5a/3x3
I0403 19:14:35.675918  8979 net.cpp:148] Top shape: 24 320 7 7 (376320)
I0403 19:14:35.675938  8979 net.cpp:156] Memory required for data: 1297544736
I0403 19:14:35.675962  8979 layer_factory.hpp:77] Creating layer inception_5a/relu_3x3
I0403 19:14:35.675984  8979 net.cpp:91] Creating Layer inception_5a/relu_3x3
I0403 19:14:35.676005  8979 net.cpp:425] inception_5a/relu_3x3 <- inception_5a/3x3
I0403 19:14:35.676030  8979 net.cpp:386] inception_5a/relu_3x3 -> inception_5a/3x3 (in-place)
I0403 19:14:35.676398  8979 net.cpp:141] Setting up inception_5a/relu_3x3
I0403 19:14:35.676430  8979 net.cpp:148] Top shape: 24 320 7 7 (376320)
I0403 19:14:35.676450  8979 net.cpp:156] Memory required for data: 1299050016
I0403 19:14:35.676468  8979 layer_factory.hpp:77] Creating layer inception_5a/5x5_reduce
I0403 19:14:35.676496  8979 net.cpp:91] Creating Layer inception_5a/5x5_reduce
I0403 19:14:35.676519  8979 net.cpp:425] inception_5a/5x5_reduce <- pool4/3x3_s2_pool4/3x3_s2_0_split_2
I0403 19:14:35.676548  8979 net.cpp:399] inception_5a/5x5_reduce -> inception_5a/5x5_reduce
I0403 19:14:35.677994  8979 net.cpp:141] Setting up inception_5a/5x5_reduce
I0403 19:14:35.678028  8979 net.cpp:148] Top shape: 24 32 7 7 (37632)
I0403 19:14:35.678048  8979 net.cpp:156] Memory required for data: 1299200544
I0403 19:14:35.678072  8979 layer_factory.hpp:77] Creating layer inception_5a/relu_5x5_reduce
I0403 19:14:35.678097  8979 net.cpp:91] Creating Layer inception_5a/relu_5x5_reduce
I0403 19:14:35.678119  8979 net.cpp:425] inception_5a/relu_5x5_reduce <- inception_5a/5x5_reduce
I0403 19:14:35.678141  8979 net.cpp:386] inception_5a/relu_5x5_reduce -> inception_5a/5x5_reduce (in-place)
I0403 19:14:35.678514  8979 net.cpp:141] Setting up inception_5a/relu_5x5_reduce
I0403 19:14:35.678546  8979 net.cpp:148] Top shape: 24 32 7 7 (37632)
I0403 19:14:35.678565  8979 net.cpp:156] Memory required for data: 1299351072
I0403 19:14:35.678585  8979 layer_factory.hpp:77] Creating layer inception_5a/5x5
I0403 19:14:35.678613  8979 net.cpp:91] Creating Layer inception_5a/5x5
I0403 19:14:35.678634  8979 net.cpp:425] inception_5a/5x5 <- inception_5a/5x5_reduce
I0403 19:14:35.678661  8979 net.cpp:399] inception_5a/5x5 -> inception_5a/5x5
I0403 19:14:35.680794  8979 net.cpp:141] Setting up inception_5a/5x5
I0403 19:14:35.680866  8979 net.cpp:148] Top shape: 24 128 7 7 (150528)
I0403 19:14:35.680892  8979 net.cpp:156] Memory required for data: 1299953184
I0403 19:14:35.680922  8979 layer_factory.hpp:77] Creating layer inception_5a/relu_5x5
I0403 19:14:35.680965  8979 net.cpp:91] Creating Layer inception_5a/relu_5x5
I0403 19:14:35.681005  8979 net.cpp:425] inception_5a/relu_5x5 <- inception_5a/5x5
I0403 19:14:35.681042  8979 net.cpp:386] inception_5a/relu_5x5 -> inception_5a/5x5 (in-place)
I0403 19:14:35.681287  8979 net.cpp:141] Setting up inception_5a/relu_5x5
I0403 19:14:35.681318  8979 net.cpp:148] Top shape: 24 128 7 7 (150528)
I0403 19:14:35.681336  8979 net.cpp:156] Memory required for data: 1300555296
I0403 19:14:35.681356  8979 layer_factory.hpp:77] Creating layer inception_5a/pool
I0403 19:14:35.681380  8979 net.cpp:91] Creating Layer inception_5a/pool
I0403 19:14:35.681402  8979 net.cpp:425] inception_5a/pool <- pool4/3x3_s2_pool4/3x3_s2_0_split_3
I0403 19:14:35.681424  8979 net.cpp:399] inception_5a/pool -> inception_5a/pool
I0403 19:14:35.681514  8979 net.cpp:141] Setting up inception_5a/pool
I0403 19:14:35.681543  8979 net.cpp:148] Top shape: 24 832 7 7 (978432)
I0403 19:14:35.681562  8979 net.cpp:156] Memory required for data: 1304469024
I0403 19:14:35.681581  8979 layer_factory.hpp:77] Creating layer inception_5a/pool_proj
I0403 19:14:35.681607  8979 net.cpp:91] Creating Layer inception_5a/pool_proj
I0403 19:14:35.681629  8979 net.cpp:425] inception_5a/pool_proj <- inception_5a/pool
I0403 19:14:35.681656  8979 net.cpp:399] inception_5a/pool_proj -> inception_5a/pool_proj
I0403 19:14:35.684478  8979 net.cpp:141] Setting up inception_5a/pool_proj
I0403 19:14:35.684520  8979 net.cpp:148] Top shape: 24 128 7 7 (150528)
I0403 19:14:35.684541  8979 net.cpp:156] Memory required for data: 1305071136
I0403 19:14:35.684566  8979 layer_factory.hpp:77] Creating layer inception_5a/relu_pool_proj
I0403 19:14:35.684588  8979 net.cpp:91] Creating Layer inception_5a/relu_pool_proj
I0403 19:14:35.684608  8979 net.cpp:425] inception_5a/relu_pool_proj <- inception_5a/pool_proj
I0403 19:14:35.684633  8979 net.cpp:386] inception_5a/relu_pool_proj -> inception_5a/pool_proj (in-place)
I0403 19:14:35.684999  8979 net.cpp:141] Setting up inception_5a/relu_pool_proj
I0403 19:14:35.685035  8979 net.cpp:148] Top shape: 24 128 7 7 (150528)
I0403 19:14:35.685055  8979 net.cpp:156] Memory required for data: 1305673248
I0403 19:14:35.685075  8979 layer_factory.hpp:77] Creating layer inception_5a/output
I0403 19:14:35.685097  8979 net.cpp:91] Creating Layer inception_5a/output
I0403 19:14:35.685117  8979 net.cpp:425] inception_5a/output <- inception_5a/1x1
I0403 19:14:35.685138  8979 net.cpp:425] inception_5a/output <- inception_5a/3x3
I0403 19:14:35.685159  8979 net.cpp:425] inception_5a/output <- inception_5a/5x5
I0403 19:14:35.685179  8979 net.cpp:425] inception_5a/output <- inception_5a/pool_proj
I0403 19:14:35.685204  8979 net.cpp:399] inception_5a/output -> inception_5a/output
I0403 19:14:35.685276  8979 net.cpp:141] Setting up inception_5a/output
I0403 19:14:35.685304  8979 net.cpp:148] Top shape: 24 832 7 7 (978432)
I0403 19:14:35.685323  8979 net.cpp:156] Memory required for data: 1309586976
I0403 19:14:35.685343  8979 layer_factory.hpp:77] Creating layer inception_5a/output_inception_5a/output_0_split
I0403 19:14:35.685369  8979 net.cpp:91] Creating Layer inception_5a/output_inception_5a/output_0_split
I0403 19:14:35.685389  8979 net.cpp:425] inception_5a/output_inception_5a/output_0_split <- inception_5a/output
I0403 19:14:35.685412  8979 net.cpp:399] inception_5a/output_inception_5a/output_0_split -> inception_5a/output_inception_5a/output_0_split_0
I0403 19:14:35.685437  8979 net.cpp:399] inception_5a/output_inception_5a/output_0_split -> inception_5a/output_inception_5a/output_0_split_1
I0403 19:14:35.685467  8979 net.cpp:399] inception_5a/output_inception_5a/output_0_split -> inception_5a/output_inception_5a/output_0_split_2
I0403 19:14:35.685493  8979 net.cpp:399] inception_5a/output_inception_5a/output_0_split -> inception_5a/output_inception_5a/output_0_split_3
I0403 19:14:35.685631  8979 net.cpp:141] Setting up inception_5a/output_inception_5a/output_0_split
I0403 19:14:35.685659  8979 net.cpp:148] Top shape: 24 832 7 7 (978432)
I0403 19:14:35.685680  8979 net.cpp:148] Top shape: 24 832 7 7 (978432)
I0403 19:14:35.685703  8979 net.cpp:148] Top shape: 24 832 7 7 (978432)
I0403 19:14:35.685721  8979 net.cpp:148] Top shape: 24 832 7 7 (978432)
I0403 19:14:35.685739  8979 net.cpp:156] Memory required for data: 1325241888
I0403 19:14:35.685758  8979 layer_factory.hpp:77] Creating layer inception_5b/1x1
I0403 19:14:35.685786  8979 net.cpp:91] Creating Layer inception_5b/1x1
I0403 19:14:35.685808  8979 net.cpp:425] inception_5b/1x1 <- inception_5a/output_inception_5a/output_0_split_0
I0403 19:14:35.685834  8979 net.cpp:399] inception_5b/1x1 -> inception_5b/1x1
I0403 19:14:35.690485  8979 net.cpp:141] Setting up inception_5b/1x1
I0403 19:14:35.690526  8979 net.cpp:148] Top shape: 24 384 7 7 (451584)
I0403 19:14:35.690548  8979 net.cpp:156] Memory required for data: 1327048224
I0403 19:14:35.690572  8979 layer_factory.hpp:77] Creating layer inception_5b/relu_1x1
I0403 19:14:35.690594  8979 net.cpp:91] Creating Layer inception_5b/relu_1x1
I0403 19:14:35.690613  8979 net.cpp:425] inception_5b/relu_1x1 <- inception_5b/1x1
I0403 19:14:35.690635  8979 net.cpp:386] inception_5b/relu_1x1 -> inception_5b/1x1 (in-place)
I0403 19:14:35.691012  8979 net.cpp:141] Setting up inception_5b/relu_1x1
I0403 19:14:35.691048  8979 net.cpp:148] Top shape: 24 384 7 7 (451584)
I0403 19:14:35.691068  8979 net.cpp:156] Memory required for data: 1328854560
I0403 19:14:35.691087  8979 layer_factory.hpp:77] Creating layer inception_5b/3x3_reduce
I0403 19:14:35.691114  8979 net.cpp:91] Creating Layer inception_5b/3x3_reduce
I0403 19:14:35.691138  8979 net.cpp:425] inception_5b/3x3_reduce <- inception_5a/output_inception_5a/output_0_split_1
I0403 19:14:35.691161  8979 net.cpp:399] inception_5b/3x3_reduce -> inception_5b/3x3_reduce
I0403 19:14:35.694456  8979 net.cpp:141] Setting up inception_5b/3x3_reduce
I0403 19:14:35.694496  8979 net.cpp:148] Top shape: 24 192 7 7 (225792)
I0403 19:14:35.694517  8979 net.cpp:156] Memory required for data: 1329757728
I0403 19:14:35.694540  8979 layer_factory.hpp:77] Creating layer inception_5b/relu_3x3_reduce
I0403 19:14:35.694563  8979 net.cpp:91] Creating Layer inception_5b/relu_3x3_reduce
I0403 19:14:35.694583  8979 net.cpp:425] inception_5b/relu_3x3_reduce <- inception_5b/3x3_reduce
I0403 19:14:35.694607  8979 net.cpp:386] inception_5b/relu_3x3_reduce -> inception_5b/3x3_reduce (in-place)
I0403 19:14:35.694845  8979 net.cpp:141] Setting up inception_5b/relu_3x3_reduce
I0403 19:14:35.694876  8979 net.cpp:148] Top shape: 24 192 7 7 (225792)
I0403 19:14:35.694895  8979 net.cpp:156] Memory required for data: 1330660896
I0403 19:14:35.694914  8979 layer_factory.hpp:77] Creating layer inception_5b/3x3
I0403 19:14:35.694943  8979 net.cpp:91] Creating Layer inception_5b/3x3
I0403 19:14:35.694965  8979 net.cpp:425] inception_5b/3x3 <- inception_5b/3x3_reduce
I0403 19:14:35.694993  8979 net.cpp:399] inception_5b/3x3 -> inception_5b/3x3
I0403 19:14:35.703367  8979 net.cpp:141] Setting up inception_5b/3x3
I0403 19:14:35.703407  8979 net.cpp:148] Top shape: 24 384 7 7 (451584)
I0403 19:14:35.703428  8979 net.cpp:156] Memory required for data: 1332467232
I0403 19:14:35.703451  8979 layer_factory.hpp:77] Creating layer inception_5b/relu_3x3
I0403 19:14:35.703472  8979 net.cpp:91] Creating Layer inception_5b/relu_3x3
I0403 19:14:35.703493  8979 net.cpp:425] inception_5b/relu_3x3 <- inception_5b/3x3
I0403 19:14:35.703518  8979 net.cpp:386] inception_5b/relu_3x3 -> inception_5b/3x3 (in-place)
I0403 19:14:35.703886  8979 net.cpp:141] Setting up inception_5b/relu_3x3
I0403 19:14:35.703922  8979 net.cpp:148] Top shape: 24 384 7 7 (451584)
I0403 19:14:35.703941  8979 net.cpp:156] Memory required for data: 1334273568
I0403 19:14:35.703959  8979 layer_factory.hpp:77] Creating layer inception_5b/5x5_reduce
I0403 19:14:35.704005  8979 net.cpp:91] Creating Layer inception_5b/5x5_reduce
I0403 19:14:35.704030  8979 net.cpp:425] inception_5b/5x5_reduce <- inception_5a/output_inception_5a/output_0_split_2
I0403 19:14:35.704054  8979 net.cpp:399] inception_5b/5x5_reduce -> inception_5b/5x5_reduce
I0403 19:14:35.705652  8979 net.cpp:141] Setting up inception_5b/5x5_reduce
I0403 19:14:35.705689  8979 net.cpp:148] Top shape: 24 48 7 7 (56448)
I0403 19:14:35.705709  8979 net.cpp:156] Memory required for data: 1334499360
I0403 19:14:35.705732  8979 layer_factory.hpp:77] Creating layer inception_5b/relu_5x5_reduce
I0403 19:14:35.705755  8979 net.cpp:91] Creating Layer inception_5b/relu_5x5_reduce
I0403 19:14:35.705776  8979 net.cpp:425] inception_5b/relu_5x5_reduce <- inception_5b/5x5_reduce
I0403 19:14:35.705801  8979 net.cpp:386] inception_5b/relu_5x5_reduce -> inception_5b/5x5_reduce (in-place)
I0403 19:14:35.706274  8979 net.cpp:141] Setting up inception_5b/relu_5x5_reduce
I0403 19:14:35.706305  8979 net.cpp:148] Top shape: 24 48 7 7 (56448)
I0403 19:14:35.706326  8979 net.cpp:156] Memory required for data: 1334725152
I0403 19:14:35.706344  8979 layer_factory.hpp:77] Creating layer inception_5b/5x5
I0403 19:14:35.706370  8979 net.cpp:91] Creating Layer inception_5b/5x5
I0403 19:14:35.706392  8979 net.cpp:425] inception_5b/5x5 <- inception_5b/5x5_reduce
I0403 19:14:35.706414  8979 net.cpp:399] inception_5b/5x5 -> inception_5b/5x5
I0403 19:14:35.708966  8979 net.cpp:141] Setting up inception_5b/5x5
I0403 19:14:35.709000  8979 net.cpp:148] Top shape: 24 128 7 7 (150528)
I0403 19:14:35.709020  8979 net.cpp:156] Memory required for data: 1335327264
I0403 19:14:35.709043  8979 layer_factory.hpp:77] Creating layer inception_5b/relu_5x5
I0403 19:14:35.709069  8979 net.cpp:91] Creating Layer inception_5b/relu_5x5
I0403 19:14:35.709090  8979 net.cpp:425] inception_5b/relu_5x5 <- inception_5b/5x5
I0403 19:14:35.709112  8979 net.cpp:386] inception_5b/relu_5x5 -> inception_5b/5x5 (in-place)
I0403 19:14:35.709360  8979 net.cpp:141] Setting up inception_5b/relu_5x5
I0403 19:14:35.709391  8979 net.cpp:148] Top shape: 24 128 7 7 (150528)
I0403 19:14:35.709411  8979 net.cpp:156] Memory required for data: 1335929376
I0403 19:14:35.709429  8979 layer_factory.hpp:77] Creating layer inception_5b/pool
I0403 19:14:35.709455  8979 net.cpp:91] Creating Layer inception_5b/pool
I0403 19:14:35.709475  8979 net.cpp:425] inception_5b/pool <- inception_5a/output_inception_5a/output_0_split_3
I0403 19:14:35.709498  8979 net.cpp:399] inception_5b/pool -> inception_5b/pool
I0403 19:14:35.709594  8979 net.cpp:141] Setting up inception_5b/pool
I0403 19:14:35.709624  8979 net.cpp:148] Top shape: 24 832 7 7 (978432)
I0403 19:14:35.709641  8979 net.cpp:156] Memory required for data: 1339843104
I0403 19:14:35.709661  8979 layer_factory.hpp:77] Creating layer inception_5b/pool_proj
I0403 19:14:35.709687  8979 net.cpp:91] Creating Layer inception_5b/pool_proj
I0403 19:14:35.709710  8979 net.cpp:425] inception_5b/pool_proj <- inception_5b/pool
I0403 19:14:35.709735  8979 net.cpp:399] inception_5b/pool_proj -> inception_5b/pool_proj
I0403 19:14:35.712599  8979 net.cpp:141] Setting up inception_5b/pool_proj
I0403 19:14:35.712637  8979 net.cpp:148] Top shape: 24 128 7 7 (150528)
I0403 19:14:35.712658  8979 net.cpp:156] Memory required for data: 1340445216
I0403 19:14:35.712682  8979 layer_factory.hpp:77] Creating layer inception_5b/relu_pool_proj
I0403 19:14:35.712704  8979 net.cpp:91] Creating Layer inception_5b/relu_pool_proj
I0403 19:14:35.712725  8979 net.cpp:425] inception_5b/relu_pool_proj <- inception_5b/pool_proj
I0403 19:14:35.712750  8979 net.cpp:386] inception_5b/relu_pool_proj -> inception_5b/pool_proj (in-place)
I0403 19:14:35.713119  8979 net.cpp:141] Setting up inception_5b/relu_pool_proj
I0403 19:14:35.713151  8979 net.cpp:148] Top shape: 24 128 7 7 (150528)
I0403 19:14:35.713171  8979 net.cpp:156] Memory required for data: 1341047328
I0403 19:14:35.713189  8979 layer_factory.hpp:77] Creating layer inception_5b/output
I0403 19:14:35.713218  8979 net.cpp:91] Creating Layer inception_5b/output
I0403 19:14:35.713258  8979 net.cpp:425] inception_5b/output <- inception_5b/1x1
I0403 19:14:35.713279  8979 net.cpp:425] inception_5b/output <- inception_5b/3x3
I0403 19:14:35.713301  8979 net.cpp:425] inception_5b/output <- inception_5b/5x5
I0403 19:14:35.713321  8979 net.cpp:425] inception_5b/output <- inception_5b/pool_proj
I0403 19:14:35.713346  8979 net.cpp:399] inception_5b/output -> inception_5b/output
I0403 19:14:35.713410  8979 net.cpp:141] Setting up inception_5b/output
I0403 19:14:35.713443  8979 net.cpp:148] Top shape: 24 1024 7 7 (1204224)
I0403 19:14:35.713461  8979 net.cpp:156] Memory required for data: 1345864224
I0403 19:14:35.713479  8979 layer_factory.hpp:77] Creating layer pool5/7x7_s1
I0403 19:14:35.713501  8979 net.cpp:91] Creating Layer pool5/7x7_s1
I0403 19:14:35.713521  8979 net.cpp:425] pool5/7x7_s1 <- inception_5b/output
I0403 19:14:35.713543  8979 net.cpp:399] pool5/7x7_s1 -> pool5/7x7_s1
I0403 19:14:35.713819  8979 net.cpp:141] Setting up pool5/7x7_s1
I0403 19:14:35.713851  8979 net.cpp:148] Top shape: 24 1024 1 1 (24576)
I0403 19:14:35.713871  8979 net.cpp:156] Memory required for data: 1345962528
I0403 19:14:35.713889  8979 layer_factory.hpp:77] Creating layer pool5/drop_7x7_s1
I0403 19:14:35.713912  8979 net.cpp:91] Creating Layer pool5/drop_7x7_s1
I0403 19:14:35.713932  8979 net.cpp:425] pool5/drop_7x7_s1 <- pool5/7x7_s1
I0403 19:14:35.713956  8979 net.cpp:386] pool5/drop_7x7_s1 -> pool5/7x7_s1 (in-place)
I0403 19:14:35.714020  8979 net.cpp:141] Setting up pool5/drop_7x7_s1
I0403 19:14:35.714051  8979 net.cpp:148] Top shape: 24 1024 1 1 (24576)
I0403 19:14:35.714069  8979 net.cpp:156] Memory required for data: 1346060832
I0403 19:14:35.714087  8979 layer_factory.hpp:77] Creating layer loss3/classifier_plantvillage
I0403 19:14:35.714110  8979 net.cpp:91] Creating Layer loss3/classifier_plantvillage
I0403 19:14:35.714131  8979 net.cpp:425] loss3/classifier_plantvillage <- pool5/7x7_s1
I0403 19:14:35.714157  8979 net.cpp:399] loss3/classifier_plantvillage -> loss3/classifier_plantvillage
I0403 19:14:35.714694  8979 net.cpp:141] Setting up loss3/classifier_plantvillage
I0403 19:14:35.714726  8979 net.cpp:148] Top shape: 24 38 (912)
I0403 19:14:35.714745  8979 net.cpp:156] Memory required for data: 1346064480
I0403 19:14:35.714766  8979 layer_factory.hpp:77] Creating layer loss3/classifier_plantvillage_loss3/classifier_plantvillage_0_split
I0403 19:14:35.714793  8979 net.cpp:91] Creating Layer loss3/classifier_plantvillage_loss3/classifier_plantvillage_0_split
I0403 19:14:35.714817  8979 net.cpp:425] loss3/classifier_plantvillage_loss3/classifier_plantvillage_0_split <- loss3/classifier_plantvillage
I0403 19:14:35.714838  8979 net.cpp:399] loss3/classifier_plantvillage_loss3/classifier_plantvillage_0_split -> loss3/classifier_plantvillage_loss3/classifier_plantvillage_0_split_0
I0403 19:14:35.714864  8979 net.cpp:399] loss3/classifier_plantvillage_loss3/classifier_plantvillage_0_split -> loss3/classifier_plantvillage_loss3/classifier_plantvillage_0_split_1
I0403 19:14:35.714898  8979 net.cpp:399] loss3/classifier_plantvillage_loss3/classifier_plantvillage_0_split -> loss3/classifier_plantvillage_loss3/classifier_plantvillage_0_split_2
I0403 19:14:35.714923  8979 net.cpp:399] loss3/classifier_plantvillage_loss3/classifier_plantvillage_0_split -> loss3/classifier_plantvillage_loss3/classifier_plantvillage_0_split_3
I0403 19:14:35.715050  8979 net.cpp:141] Setting up loss3/classifier_plantvillage_loss3/classifier_plantvillage_0_split
I0403 19:14:35.715080  8979 net.cpp:148] Top shape: 24 38 (912)
I0403 19:14:35.715101  8979 net.cpp:148] Top shape: 24 38 (912)
I0403 19:14:35.715121  8979 net.cpp:148] Top shape: 24 38 (912)
I0403 19:14:35.715139  8979 net.cpp:148] Top shape: 24 38 (912)
I0403 19:14:35.715157  8979 net.cpp:156] Memory required for data: 1346079072
I0403 19:14:35.715175  8979 layer_factory.hpp:77] Creating layer loss1/loss
I0403 19:14:35.715204  8979 net.cpp:91] Creating Layer loss1/loss
I0403 19:14:35.715234  8979 net.cpp:425] loss1/loss <- loss1/classifier_plantvillage_loss1/classifier_plantvillage_0_split_0
I0403 19:14:35.715272  8979 net.cpp:425] loss1/loss <- label_data_1_split_0
…
