…
I0403 19:12:49.852347  8952 net.cpp:313] The NetState phase (1) differed from the phase (0) specified by a rule in layer data
I0403 19:12:49.854002  8952 net.cpp:49] Initializing net from parameters: 
state {
  phase: TEST
}
layer {
  name: "data"
  type: "Data"
  top: "data"
  top: "label"
  include {
    phase: TEST
  }
  transform_param {
    mirror: false
    crop_size: 224
    mean_file: "/home/mohanty/data/final_dataset/lmdb/grayscale-50-50/mean.binaryproto"
  }
  data_param {
    source: "/home/mohanty/data/final_dataset/lmdb/grayscale-50-50/test_db"
    batch_size: 24
    backend: LMDB
  }
}
layer {
  name: "conv1/7x7_s2"
  type: "Convolution"
  bottom: "data"
  top: "conv1/7x7_s2"
  param {
    lr_mult: 1
    decay_mult: 1
  }
  param {
    lr_mult: 2
    decay_mult: 0
  }
  convolution_param {
    num_output: 64
    pad: 3
    kernel_size: 7
    stride: 2
    weight_filler {
      type: "xavier"
      std: 0.1
    }
    bias_filler {
      type: "constant"
      value: 0.2
    }
  }
}
layer {
  name: "conv1/relu_7x7"
  type: "ReLU"
  bottom: "conv1/7x7_s2"
  top: "conv1/7x7_s2"
}
layer {
  name: "pool1/3x3_s2"
  type: "Pooling"
  bottom: "conv1/7x7_s2"
  top: "pool1/3x3_s2"
  pooling_param {
    pool: MAX
    kernel_size: 3
    stride: 2
  }
}
layer {
  name: "pool1/norm1"
  type: "LRN"
  bottom: "pool1/3x3_s2"
  top: "pool1/norm1"
  lrn_param {
    local_size: 5
    alpha: 0.0001
    beta: 0.75
  }
}
layer {
  name: "conv2/3x3_reduce"
  type: "Convolution"
  bottom: "pool1/norm1"
  top: "conv2/3x3_reduce"
  param {
    lr_mult: 1
    decay_mult: 1
  }
  param {
    lr_mult: 2
    decay_mult: 0
  }
  convolution_param {
    num_output: 64
    kernel_size: 1
    weight_filler {
      type: "xavier"
      std: 0.1
    }
    bias_filler {
      type: "constant"
      value: 0.2
    }
  }
}
layer {
  name: "conv2/relu_3x3_reduce"
  type: "ReLU"
  bottom: "conv2/3x3_reduce"
  top: "conv2/3x3_reduce"
}
layer {
  name: "conv2/3x3"
  type: "Convolution"
  bottom: "conv2/3x3_reduce"
  top: "conv2/3x3"
  param {
    lr_mult: 1
    decay_mult: 1
  }
  param {
    lr_mult: 2
    decay_mult: 0
  }
  convolution_param {
    num_output: 192
    pad: 1
    kernel_size: 3
    weight_filler {
      type: "xavier"
      std: 0.03
    }
    bias_filler {
      type: "constant"
      value: 0.2
    }
  }
}
layer {
  name: "conv2/relu_3x3"
  type: "ReLU"
  bottom: "conv2/3x3"
  top: "conv2/3x3"
}
layer {
  name: "conv2/norm2"
  type: "LRN"
  bottom: "conv2/3x3"
  top: "conv2/norm2"
  lrn_param {
    local_size: 5
    alpha: 0.0001
    beta: 0.75
  }
}
layer {
  name: "pool2/3x3_s2"
  type: "Pooling"
  bottom: "conv2/norm2"
  top: "pool2/3x3_s2"
  pooling_param {
    pool: MAX
    kernel_size: 3
    stride: 2
  }
}
layer {
  name: "inception_3a/1x1"
  type: "Convolution"
  bottom: "pool2/3x3_s2"
  top: "inception_3a/1x1"
  param {
    lr_mult: 1
    decay_mult: 1
  }
  param {
    lr_mult: 2
    decay_mult: 0
  }
  convolution_param {
    num_output: 64
    kernel_size: 1
    weight_filler {
      type: "xavier"
      std: 0.03
    }
    bias_filler {
      type: "constant"
      value: 0.2
    }
  }
}
layer {
  name: "inception_3a/relu_1x1"
  type: "ReLU"
  bottom: "inception_3a/1x1"
  top: "inception_3a/1x1"
}
layer {
  name: "inception_3a/3x3_reduce"
  type: "Convolution"
  bottom: "pool2/3x3_s2"
  top: "inception_3a/3x3_reduce"
  param {
    lr_mult: 1
    decay_mult: 1
  }
  param {
    lr_mult: 2
    decay_mult: 0
  }
  convolution_param {
    num_output: 96
    kernel_size: 1
    weight_filler {
      type: "xavier"
      std: 0.09
    }
    bias_filler {
      type: "constant"
      value: 0.2
    }
  }
}
layer {
  name: "inception_3a/relu_3x3_reduce"
  type: "ReLU"
  bottom: "inception_3a/3x3_reduce"
  top: "inception_3a/3x3_reduce"
}
layer {
  name: "inception_3a/3x3"
  type: "Convolution"
  bottom: "inception_3a/3x3_reduce"
  top: "inception_3a/3x3"
  param {
    lr_mult: 1
    decay_mult: 1
  }
  param {
    lr_mult: 2
    decay_mult: 0
  }
  convolution_param {
    num_output: 128
    pad: 1
    kernel_size: 3
    weight_filler {
      type: "xavier"
      std: 0.03
    }
    bias_filler {
      type: "constant"
      value: 0.2
    }
  }
}
layer {
  name: "inception_3a/relu_3x3"
  type: "ReLU"
  bottom: "inception_3a/3x3"
  top: "inception_3a/3x3"
}
layer {
  name: "inception_3a/5x5_reduce"
  type: "Convolution"
  bottom: "pool2/3x3_s2"
  top: "inception_3a/5x5_reduce"
  param {
    lr_mult: 1
    decay_mult: 1
  }
  param {
    lr_mult: 2
    decay_mult: 0
  }
  convolution_param {
    num_output: 16
    kernel_size: 1
    weight_filler {
      type: "xavier"
      std: 0.2
    }
    bias_filler {
      type: "constant"
      value: 0.2
    }
  }
}
layer {
  name: "inception_3a/relu_5x5_reduce"
  type: "ReLU"
  bottom: "inception_3a/5x5_reduce"
  top: "inception_3a/5x5_reduce"
}
layer {
  name: "inception_3a/5x5"
  type: "Convolution"
  bottom: "inception_3a/5x5_reduce"
  top: "inception_3a/5x5"
  param {
    lr_mult: 1
    decay_mult: 1
  }
  param {
    lr_mult: 2
    decay_mult: 0
  }
  convolution_param {
    num_output: 32
    pad: 2
    kernel_size: 5
    weight_filler {
      type: "xavier"
      std: 0.03
    }
    bias_filler {
      type: "constant"
      value: 0.2
    }
  }
}
layer {
  name: "inception_3a/relu_5x5"
  type: "ReLU"
  bottom: "inception_3a/5x5"
  top: "inception_3a/5x5"
}
layer {
  name: "inception_3a/pool"
  type: "Pooling"
  bottom: "pool2/3x3_s2"
  top: "inception_3a/pool"
  pooling_param {
    pool: MAX
    kernel_size: 3
    stride: 1
    pad: 1
  }
}
layer {
  name: "inception_3a/pool_proj"
  type: "Convolution"
  bottom: "inception_3a/pool"
  top: "inception_3a/pool_proj"
  param {
    lr_mult: 1
    decay_mult: 1
  }
  param {
    lr_mult: 2
    decay_mult: 0
  }
  convolution_param {
    num_output: 32
    kernel_size: 1
    weight_filler {
      type: "xavier"
      std: 0.1
    }
    bias_filler {
      type: "constant"
      value: 0.2
    }
  }
}
layer {
  name: "inception_3a/relu_pool_proj"
  type: "ReLU"
  bottom: "inception_3a/pool_proj"
  top: "inception_3a/pool_proj"
}
layer {
  name: "inception_3a/output"
  type: "Concat"
  bottom: "inception_3a/1x1"
  bottom: "inception_3a/3x3"
  bottom: "inception_3a/5x5"
  bottom: "inception_3a/pool_proj"
  top: "inception_3a/output"
}
layer {
  name: "inception_3b/1x1"
  type: "Convolution"
  bottom: "inception_3a/output"
  top: "inception_3b/1x1"
  param {
    lr_mult: 1
    decay_mult: 1
  }
  param {
    lr_mult: 2
    decay_mult: 0
  }
  convolution_param {
    num_output: 128
    kernel_size: 1
    weight_filler {
      type: "xavier"
      std: 0.03
    }
    bias_filler {
      type: "constant"
      value: 0.2
    }
  }
}
layer {
  name: "inception_3b/relu_1x1"
  type: "ReLU"
  bottom: "inception_3b/1x1"
  top: "inception_3b/1x1"
}
layer {
  name: "inception_3b/3x3_reduce"
  type: "Convolution"
  bottom: "inception_3a/output"
  top: "inception_3b/3x3_reduce"
  param {
    lr_mult: 1
    decay_mult: 1
  }
  param {
    lr_mult: 2
    decay_mult: 0
  }
  convolution_param {
    num_output: 128
    kernel_size: 1
    weight_filler {
      type: "xavier"
      std: 0.09
    }
    bias_filler {
      type: "constant"
      value: 0.2
    }
  }
}
layer {
  name: "inception_3b/relu_3x3_reduce"
  type: "ReLU"
  bottom: "inception_3b/3x3_reduce"
  top: "inception_3b/3x3_reduce"
}
layer {
  name: "inception_3b/3x3"
  type: "Convolution"
  bottom: "inception_3b/3x3_reduce"
  top: "inception_3b/3x3"
  param {
    lr_mult: 1
    decay_mult: 1
  }
  param {
    lr_mult: 2
    decay_mult: 0
  }
  convolution_param {
    num_output: 192
    pad: 1
    kernel_size: 3
    weight_filler {
      type: "xavier"
      std: 0.03
    }
    bias_filler {
      type: "constant"
      value: 0.2
    }
  }
}
layer {
  name: "inception_3b/relu_3x3"
  type: "ReLU"
  bottom: "inception_3b/3x3"
  top: "inception_3b/3x3"
}
layer {
  name: "inception_3b/5x5_reduce"
  type: "Convolution"
  bottom: "inception_3a/output"
  top: "inception_3b/5x5_reduce"
  param {
    lr_mult: 1
    decay_mult: 1
  }
  param {
    lr_mult: 2
    decay_mult: 0
  }
  convolution_param {
    num_output: 32
    kernel_size: 1
    weight_filler {
      type: "xavier"
      std: 0.2
    }
    bias_filler {
      type: "constant"
      value: 0.2
    }
  }
}
layer {
  name: "inception_3b/relu_5x5_reduce"
  type: "ReLU"
  bottom: "inception_3b/5x5_reduce"
  top: "inception_3b/5x5_reduce"
}
layer {
  name: "inception_3b/5x5"
  type: "Convolution"
  bottom: "inception_3b/5x5_reduce"
  top: "inception_3b/5x5"
  param {
    lr_mult: 1
    decay_mult: 1
  }
  param {
    lr_mult: 2
    decay_mult: 0
  }
  convolution_param {
    num_output: 96
    pad: 2
    kernel_size: 5
    weight_filler {
      type: "xavier"
      std: 0.03
    }
    bias_filler {
      type: "constant"
      value: 0.2
    }
  }
}
layer {
  name: "inception_3b/relu_5x5"
  type: "ReLU"
  bottom: "inception_3b/5x5"
  top: "inception_3b/5x5"
}
layer {
  name: "inception_3b/pool"
  type: "Pooling"
  bottom: "inception_3a/output"
  top: "inception_3b/pool"
  pooling_param {
    pool: MAX
    kernel_size: 3
    stride: 1
    pad: 1
  }
}
layer {
  name: "inception_3b/pool_proj"
  type: "Convolution"
  bottom: "inception_3b/pool"
  top: "inception_3b/pool_proj"
  param {
    lr_mult: 1
    decay_mult: 1
  }
  param {
    lr_mult: 2
    decay_mult: 0
  }
  convolution_param {
    num_output: 64
    kernel_size: 1
    weight_filler {
      type: "xavier"
      std: 0.1
    }
    bias_filler {
      type: "constant"
      value: 0.2
    }
  }
}
layer {
  name: "inception_3b/relu_pool_proj"
  type: "ReLU"
  bottom: "inception_3b/pool_proj"
  top: "inception_3b/pool_proj"
}
layer {
  name: "inception_3b/output"
  type: "Concat"
  bottom: "inception_3b/1x1"
  bottom: "inception_3b/3x3"
  bottom: "inception_3b/5x5"
  bottom: "inception_3b/pool_proj"
  top: "inception_3b/output"
}
layer {
  name: "pool3/3x3_s2"
  type: "Pooling"
  bottom: "inception_3b/output"
  top: "pool3/3x3_s2"
  pooling_param {
    pool: MAX
    kernel_size: 3
    stride: 2
  }
}
layer {
  name: "inception_4a/1x1"
  type: "Convolution"
  bottom: "pool3/3x3_s2"
  top: "inception_4a/1x1"
  param {
    lr_mult: 1
    decay_mult: 1
  }
  param {
    lr_mult: 2
    decay_mult: 0
  }
  convolution_param {
    num_output: 192
    kernel_size: 1
    weight_filler {
      type: "xavier"
      std: 0.03
    }
    bias_filler {
      type: "constant"
      value: 0.2
    }
  }
}
layer {
  name: "inception_4a/relu_1x1"
  type: "ReLU"
  bottom: "inception_4a/1x1"
  top: "inception_4a/1x1"
}
layer {
  name: "inception_4a/3x3_reduce"
  type: "Convolution"
  bottom: "pool3/3x3_s2"
  top: "inception_4a/3x3_reduce"
  param {
    lr_mult: 1
    decay_mult: 1
  }
  param {
    lr_mult: 2
    decay_mult: 0
  }
  convolution_param {
    num_output: 96
    kernel_size: 1
    weight_filler {
      type: "xavier"
      std: 0.09
    }
    bias_filler {
      type: "constant"
      value: 0.2
    }
  }
}
layer {
  name: "inception_4a/relu_3x3_reduce"
  type: "ReLU"
  bottom: "inception_4a/3x3_reduce"
  top: "inception_4a/3x3_reduce"
}
layer {
  name: "inception_4a/3x3"
  type: "Convolution"
  bottom: "inception_4a/3x3_reduce"
  top: "inception_4a/3x3"
  param {
    lr_mult: 1
    decay_mult: 1
  }
  param {
    lr_mult: 2
    decay_mult: 0
  }
  convolution_param {
    num_output: 208
    pad: 1
    kernel_size: 3
    weight_filler {
      type: "xavier"
      std: 0.03
    }
    bias_filler {
      type: "constant"
      value: 0.2
    }
  }
}
layer {
  name: "inception_4a/relu_3x3"
  type: "ReLU"
  bottom: "inception_4a/3x3"
  top: "inception_4a/3x3"
}
layer {
  name: "inception_4a/5x5_reduce"
  type: "Convolution"
  bottom: "pool3/3x3_s2"
  top: "inception_4a/5x5_reduce"
  param {
    lr_mult: 1
    decay_mult: 1
  }
  param {
    lr_mult: 2
    decay_mult: 0
  }
  convolution_param {
    num_output: 16
    kernel_size: 1
    weight_filler {
      type: "xavier"
      std: 0.2
    }
    bias_filler {
      type: "constant"
      value: 0.2
    }
  }
}
layer {
  name: "inception_4a/relu_5x5_reduce"
  type: "ReLU"
  bottom: "inception_4a/5x5_reduce"
  top: "inception_4a/5x5_reduce"
}
layer {
  name: "inception_4a/5x5"
  type: "Convolution"
  bottom: "inception_4a/5x5_reduce"
  top: "inception_4a/5x5"
  param {
    lr_mult: 1
    decay_mult: 1
  }
  param {
    lr_mult: 2
    decay_mult: 0
  }
  convolution_param {
    num_output: 48
    pad: 2
    kernel_size: 5
    weight_filler {
      type: "xavier"
      std: 0.03
    }
    bias_filler {
      type: "constant"
      value: 0.2
    }
  }
}
layer {
  name: "inception_4a/relu_5x5"
  type: "ReLU"
  bottom: "inception_4a/5x5"
  top: "inception_4a/5x5"
}
layer {
  name: "inception_4a/pool"
  type: "Pooling"
  bottom: "pool3/3x3_s2"
  top: "inception_4a/pool"
  pooling_param {
    pool: MAX
    kernel_size: 3
    stride: 1
    pad: 1
  }
}
layer {
  name: "inception_4a/pool_proj"
  type: "Convolution"
  bottom: "inception_4a/pool"
  top: "inception_4a/pool_proj"
  param {
    lr_mult: 1
    decay_mult: 1
  }
  param {
    lr_mult: 2
    decay_mult: 0
  }
  convolution_param {
    num_output: 64
    kernel_size: 1
    weight_filler {
      type: "xavier"
      std: 0.1
    }
    bias_filler {
      type: "constant"
      value: 0.2
    }
  }
}
layer {
  name: "inception_4a/relu_pool_proj"
  type: "ReLU"
  bottom: "inception_4a/pool_proj"
  top: "inception_4a/pool_proj"
}
layer {
  name: "inception_4a/output"
  type: "Concat"
  bottom: "inception_4a/1x1"
  bottom: "inception_4a/3x3"
  bottom: "inception_4a/5x5"
  bottom: "inception_4a/pool_proj"
  top: "inception_4a/output"
}
layer {
  name: "loss1/ave_pool"
  type: "Pooling"
  bottom: "inception_4a/output"
  top: "loss1/ave_pool"
  pooling_param {
    pool: AVE
    kernel_size: 5
    stride: 3
  }
}
layer {
  name: "loss1/conv"
  type: "Convolution"
  bottom: "loss1/ave_pool"
  top: "loss1/conv"
  param {
    lr_mult: 1
    decay_mult: 1
  }
  param {
    lr_mult: 2
    decay_mult: 0
  }
  convolution_param {
    num_output: 128
    kernel_size: 1
    weight_filler {
      type: "xavier"
      std: 0.08
    }
    bias_filler {
      type: "constant"
      value: 0.2
    }
  }
}
layer {
  name: "loss1/relu_conv"
  type: "ReLU"
  bottom: "loss1/conv"
  top: "loss1/conv"
}
layer {
  name: "loss1/fc"
  type: "InnerProduct"
  bottom: "loss1/conv"
  top: "loss1/fc"
  param {
    lr_mult: 1
    decay_mult: 1
  }
  param {
    lr_mult: 2
    decay_mult: 0
  }
  inner_product_param {
    num_output: 1024
    weight_filler {
      type: "xavier"
      std: 0.02
    }
    bias_filler {
      type: "constant"
      value: 0.2
    }
  }
}
layer {
  name: "loss1/relu_fc"
  type: "ReLU"
  bottom: "loss1/fc"
  top: "loss1/fc"
}
layer {
  name: "loss1/drop_fc"
  type: "Dropout"
  bottom: "loss1/fc"
  top: "loss1/fc"
  dropout_param {
    dropout_ratio: 0.7
  }
}
layer {
  name: "loss1/classifier_plantvillage"
  type: "InnerProduct"
  bottom: "loss1/fc"
  top: "loss1/classifier_plantvillage"
  param {
    lr_mult: 1
    decay_mult: 1
  }
  param {
    lr_mult: 2
    decay_mult: 0
  }
  inner_product_param {
    num_output: 38
    weight_filler {
      type: "xavier"
      std: 0.0009765625
    }
    bias_filler {
      type: "constant"
      value: 0
    }
  }
}
layer {
  name: "inception_4b/1x1"
  type: "Convolution"
  bottom: "inception_4a/output"
  top: "inception_4b/1x1"
  param {
    lr_mult: 1
    decay_mult: 1
  }
  param {
    lr_mult: 2
    decay_mult: 0
  }
  convolution_param {
    num_output: 160
    kernel_size: 1
    weight_filler {
      type: "xavier"
      std: 0.03
    }
    bias_filler {
      type: "constant"
      value: 0.2
    }
  }
}
layer {
  name: "inception_4b/relu_1x1"
  type: "ReLU"
  bottom: "inception_4b/1x1"
  top: "inception_4b/1x1"
}
layer {
  name: "inception_4b/3x3_reduce"
  type: "Convolution"
  bottom: "inception_4a/output"
  top: "inception_4b/3x3_reduce"
  param {
    lr_mult: 1
    decay_mult: 1
  }
  param {
    lr_mult: 2
    decay_mult: 0
  }
  convolution_param {
    num_output: 112
    kernel_size: 1
    weight_filler {
      type: "xavier"
      std: 0.09
    }
    bias_filler {
      type: "constant"
      value: 0.2
    }
  }
}
layer {
  name: "inception_4b/relu_3x3_reduce"
  type: "ReLU"
  bottom: "inception_4b/3x3_reduce"
  top: "inception_4b/3x3_reduce"
}
layer {
  name: "inception_4b/3x3"
  type: "Convolution"
  bottom: "inception_4b/3x3_reduce"
  top: "inception_4b/3x3"
  param {
    lr_mult: 1
    decay_mult: 1
  }
  param {
    lr_mult: 2
    decay_mult: 0
  }
  convolution_param {
    num_output: 224
    pad: 1
    kernel_size: 3
    weight_filler {
      type: "xavier"
      std: 0.03
    }
    bias_filler {
      type: "constant"
      value: 0.2
    }
  }
}
layer {
  name: "inception_4b/relu_3x3"
  type: "ReLU"
  bottom: "inception_4b/3x3"
  top: "inception_4b/3x3"
}
layer {
  name: "inception_4b/5x5_reduce"
  type: "Convolution"
  bottom: "inception_4a/output"
  top: "inception_4b/5x5_reduce"
  param {
    lr_mult: 1
    decay_mult: 1
  }
  param {
    lr_mult: 2
    decay_mult: 0
  }
  convolution_param {
    num_output: 24
    kernel_size: 1
    weight_filler {
      type: "xavier"
      std: 0.2
    }
    bias_filler {
      type: "constant"
      value: 0.2
    }
  }
}
layer {
  name: "inception_4b/relu_5x5_reduce"
  type: "ReLU"
  bottom: "inception_4b/5x5_reduce"
  top: "inception_4b/5x5_reduce"
}
layer {
  name: "inception_4b/5x5"
  type: "Convolution"
  bottom: "inception_4b/5x5_reduce"
  top: "inception_4b/5x5"
  param {
    lr_mult: 1
    decay_mult: 1
  }
  param {
    lr_mult: 2
    decay_mult: 0
  }
  convolution_param {
    num_output: 64
    pad: 2
    kernel_size: 5
    weight_filler {
      type: "xavier"
      std: 0.03
    }
    bias_filler {
      type: "constant"
      value: 0.2
    }
  }
}
layer {
  name: "inception_4b/relu_5x5"
  type: "ReLU"
  bottom: "inception_4b/5x5"
  top: "inception_4b/5x5"
}
layer {
  name: "inception_4b/pool"
  type: "Pooling"
  bottom: "inception_4a/output"
  top: "inception_4b/pool"
  pooling_param {
    pool: MAX
    kernel_size: 3
    stride: 1
    pad: 1
  }
}
layer {
  name: "inception_4b/pool_proj"
  type: "Convolution"
  bottom: "inception_4b/pool"
  top: "inception_4b/pool_proj"
  param {
    lr_mult: 1
    decay_mult: 1
  }
  param {
    lr_mult: 2
    decay_mult: 0
  }
  convolution_param {
    num_output: 64
    kernel_size: 1
    weight_filler {
      type: "xavier"
      std: 0.1
    }
    bias_filler {
      type: "constant"
      value: 0.2
    }
  }
}
layer {
  name: "inception_4b/relu_pool_proj"
  type: "ReLU"
  bottom: "inception_4b/pool_proj"
  top: "inception_4b/pool_proj"
}
layer {
  name: "inception_4b/output"
  type: "Concat"
  bottom: "inception_4b/1x1"
  bottom: "inception_4b/3x3"
  bottom: "inception_4b/5x5"
  bottom: "inception_4b/pool_proj"
  top: "inception_4b/output"
}
layer {
  name: "inception_4c/1x1"
  type: "Convolution"
  bottom: "inception_4b/output"
  top: "inception_4c/1x1"
  param {
    lr_mult: 1
    decay_mult: 1
  }
  param {
    lr_mult: 2
    decay_mult: 0
  }
  convolution_param {
    num_output: 128
    kernel_size: 1
    weight_filler {
      type: "xavier"
      std: 0.03
    }
    bias_filler {
      type: "constant"
      value: 0.2
    }
  }
}
layer {
  name: "inception_4c/relu_1x1"
  type: "ReLU"
  bottom: "inception_4c/1x1"
  top: "inception_4c/1x1"
}
layer {
  name: "inception_4c/3x3_reduce"
  type: "Convolution"
  bottom: "inception_4b/output"
  top: "inception_4c/3x3_reduce"
  param {
    lr_mult: 1
    decay_mult: 1
  }
  param {
    lr_mult: 2
    decay_mult: 0
  }
  convolution_param {
    num_output: 128
    kernel_size: 1
    weight_filler {
      type: "xavier"
      std: 0.09
    }
    bias_filler {
      type: "constant"
      value: 0.2
    }
  }
}
layer {
  name: "inception_4c/relu_3x3_reduce"
  type: "ReLU"
  bottom: "inception_4c/3x3_reduce"
  top: "inception_4c/3x3_reduce"
}
layer {
  name: "inception_4c/3x3"
  type: "Convolution"
  bottom: "inception_4c/3x3_reduce"
  top: "inception_4c/3x3"
  param {
    lr_mult: 1
    decay_mult: 1
  }
  param {
    lr_mult: 2
    decay_mult: 0
  }
  convolution_param {
    num_output: 256
    pad: 1
    kernel_size: 3
    weight_filler {
      type: "xavier"
      std: 0.03
    }
    bias_filler {
      type: "constant"
      value: 0.2
    }
  }
}
layer {
  name: "inception_4c/relu_3x3"
  type: "ReLU"
  bottom: "inception_4c/3x3"
  top: "inception_4c/3x3"
}
layer {
  name: "inception_4c/5x5_reduce"
  type: "Convolution"
  bottom: "inception_4b/output"
  top: "inception_4c/5x5_reduce"
  param {
    lr_mult: 1
    decay_mult: 1
  }
  param {
    lr_mult: 2
    decay_mult: 0
  }
  convolution_param {
    num_output: 24
    kernel_size: 1
    weight_filler {
      type: "xavier"
      std: 0.2
    }
    bias_filler {
      type: "constant"
      value: 0.2
    }
  }
}
layer {
  name: "inception_4c/relu_5x5_reduce"
  type: "ReLU"
  bottom: "inception_4c/5x5_reduce"
  top: "inception_4c/5x5_reduce"
}
layer {
  name: "inception_4c/5x5"
  type: "Convolution"
  bottom: "inception_4c/5x5_reduce"
  top: "inception_4c/5x5"
  param {
    lr_mult: 1
    decay_mult: 1
  }
  param {
    lr_mult: 2
    decay_mult: 0
  }
  convolution_param {
    num_output: 64
    pad: 2
    kernel_size: 5
    weight_filler {
      type: "xavier"
      std: 0.03
    }
    bias_filler {
      type: "constant"
      value: 0.2
    }
  }
}
layer {
  name: "inception_4c/relu_5x5"
  type: "ReLU"
  bottom: "inception_4c/5x5"
  top: "inception_4c/5x5"
}
layer {
  name: "inception_4c/pool"
  type: "Pooling"
  bottom: "inception_4b/output"
  top: "inception_4c/pool"
  pooling_param {
    pool: MAX
    kernel_size: 3
    stride: 1
    pad: 1
  }
}
layer {
  name: "inception_4c/pool_proj"
  type: "Convolution"
  bottom: "inception_4c/pool"
  top: "inception_4c/pool_proj"
  param {
    lr_mult: 1
    decay_mult: 1
  }
  param {
    lr_mult: 2
    decay_mult: 0
  }
  convolution_param {
    num_output: 64
    kernel_size: 1
    weight_filler {
      type: "xavier"
      std: 0.1
    }
    bias_filler {
      type: "constant"
      value: 0.2
    }
  }
}
layer {
  name: "inception_4c/relu_pool_proj"
  type: "ReLU"
  bottom: "inception_4c/pool_proj"
  top: "inception_4c/pool_proj"
}
layer {
  name: "inception_4c/output"
  type: "Concat"
  bottom: "inception_4c/1x1"
  bottom: "inception_4c/3x3"
  bottom: "inception_4c/5x5"
  bottom: "inception_4c/pool_proj"
  top: "inception_4c/output"
}
layer {
  name: "inception_4d/1x1"
  type: "Convolution"
  bottom: "inception_4c/output"
  top: "inception_4d/1x1"
  param {
    lr_mult: 1
    decay_mult: 1
  }
  param {
    lr_mult: 2
    decay_mult: 0
  }
  convolution_param {
    num_output: 112
    kernel_size: 1
    weight_filler {
      type: "xavier"
      std: 0.03
    }
    bias_filler {
      type: "constant"
      value: 0.2
    }
  }
}
layer {
  name: "inception_4d/relu_1x1"
  type: "ReLU"
  bottom: "inception_4d/1x1"
  top: "inception_4d/1x1"
}
layer {
  name: "inception_4d/3x3_reduce"
  type: "Convolution"
  bottom: "inception_4c/output"
  top: "inception_4d/3x3_reduce"
  param {
    lr_mult: 1
    decay_mult: 1
  }
  param {
    lr_mult: 2
    decay_mult: 0
  }
  convolution_param {
    num_output: 144
    kernel_size: 1
    weight_filler {
      type: "xavier"
      std: 0.09
    }
    bias_filler {
      type: "constant"
      value: 0.2
    }
  }
}
layer {
  name: "inception_4d/relu_3x3_reduce"
  type: "ReLU"
  bottom: "inception_4d/3x3_reduce"
  top: "inception_4d/3x3_reduce"
}
layer {
  name: "inception_4d/3x3"
  type: "Convolution"
  bottom: "inception_4d/3x3_reduce"
  top: "inception_4d/3x3"
  param {
    lr_mult: 1
    decay_mult: 1
  }
  param {
    lr_mult: 2
    decay_mult: 0
  }
  convolution_param {
    num_output: 288
    pad: 1
    kernel_size: 3
    weight_filler {
      type: "xavier"
      std: 0.03
    }
    bias_filler {
      type: "constant"
      value: 0.2
    }
  }
}
layer {
  name: "inception_4d/relu_3x3"
  type: "ReLU"
  bottom: "inception_4d/3x3"
  top: "inception_4d/3x3"
}
layer {
  name: "inception_4d/5x5_reduce"
  type: "Convolution"
  bottom: "inception_4c/output"
  top: "inception_4d/5x5_reduce"
  param {
    lr_mult: 1
    decay_mult: 1
  }
  param {
    lr_mult: 2
    decay_mult: 0
  }
  convolution_param {
    num_output: 32
    kernel_size: 1
    weight_filler {
      type: "xavier"
      std: 0.2
    }
    bias_filler {
      type: "constant"
      value: 0.2
    }
  }
}
layer {
  name: "inception_4d/relu_5x5_reduce"
  type: "ReLU"
  bottom: "inception_4d/5x5_reduce"
  top: "inception_4d/5x5_reduce"
}
layer {
  name: "inception_4d/5x5"
  type: "Convolution"
  bottom: "inception_4d/5x5_reduce"
  top: "inception_4d/5x5"
  param {
    lr_mult: 1
    decay_mult: 1
  }
  param {
    lr_mult: 2
    decay_mult: 0
  }
  convolution_param {
    num_output: 64
    pad: 2
    kernel_size: 5
    weight_filler {
      type: "xavier"
      std: 0.03
    }
    bias_filler {
      type: "constant"
      value: 0.2
    }
  }
}
layer {
  name: "inception_4d/relu_5x5"
  type: "ReLU"
  bottom: "inception_4d/5x5"
  top: "inception_4d/5x5"
}
layer {
  name: "inception_4d/pool"
  type: "Pooling"
  bottom: "inception_4c/output"
  top: "inception_4d/pool"
  pooling_param {
    pool: MAX
    kernel_size: 3
    stride: 1
    pad: 1
  }
}
layer {
  name: "inception_4d/pool_proj"
  type: "Convolution"
  bottom: "inception_4d/pool"
  top: "inception_4d/pool_proj"
  param {
    lr_mult: 1
    decay_mult: 1
  }
  param {
    lr_mult: 2
    decay_mult: 0
  }
  convolution_param {
    num_output: 64
    kernel_size: 1
    weight_filler {
      type: "xavier"
      std: 0.1
    }
    bias_filler {
      type: "constant"
      value: 0.2
    }
  }
}
layer {
  name: "inception_4d/relu_pool_proj"
  type: "ReLU"
  bottom: "inception_4d/pool_proj"
  top: "inception_4d/pool_proj"
}
layer {
  name: "inception_4d/output"
  type: "Concat"
  bottom: "inception_4d/1x1"
  bottom: "inception_4d/3x3"
  bottom: "inception_4d/5x5"
  bottom: "inception_4d/pool_proj"
  top: "inception_4d/output"
}
layer {
  name: "loss2/ave_pool"
  type: "Pooling"
  bottom: "inception_4d/output"
  top: "loss2/ave_pool"
  pooling_param {
    pool: AVE
    kernel_size: 5
    stride: 3
  }
}
layer {
  name: "loss2/conv"
  type: "Convolution"
  bottom: "loss2/ave_pool"
  top: "loss2/conv"
  param {
    lr_mult: 1
    decay_mult: 1
  }
  param {
    lr_mult: 2
    decay_mult: 0
  }
  convolution_param {
    num_output: 128
    kernel_size: 1
    weight_filler {
      type: "xavier"
      std: 0.08
    }
    bias_filler {
      type: "constant"
      value: 0.2
    }
  }
}
layer {
  name: "loss2/relu_conv"
  type: "ReLU"
  bottom: "loss2/conv"
  top: "loss2/conv"
}
layer {
  name: "loss2/fc"
  type: "InnerProduct"
  bottom: "loss2/conv"
  top: "loss2/fc"
  param {
    lr_mult: 1
    decay_mult: 1
  }
  param {
    lr_mult: 2
    decay_mult: 0
  }
  inner_product_param {
    num_output: 1024
    weight_filler {
      type: "xavier"
      std: 0.02
    }
    bias_filler {
      type: "constant"
      value: 0.2
    }
  }
}
layer {
  name: "loss2/relu_fc"
  type: "ReLU"
  bottom: "loss2/fc"
  top: "loss2/fc"
}
layer {
  name: "loss2/drop_fc"
  type: "Dropout"
  bottom: "loss2/fc"
  top: "loss2/fc"
  dropout_param {
    dropout_ratio: 0.7
  }
}
layer {
  name: "loss2/classifier_plantvillage"
  type: "InnerProduct"
  bottom: "loss2/fc"
  top: "loss2/classifier_plantvillage"
  param {
    lr_mult: 1
    decay_mult: 1
  }
  param {
    lr_mult: 2
    decay_mult: 0
  }
  inner_product_param {
    num_output: 38
    weight_filler {
      type: "xavier"
      std: 0.0009765625
    }
    bias_filler {
      type: "constant"
      value: 0
    }
  }
}
layer {
  name: "inception_4e/1x1"
  type: "Convolution"
  bottom: "inception_4d/output"
  top: "inception_4e/1x1"
  param {
    lr_mult: 1
    decay_mult: 1
  }
  param {
    lr_mult: 2
    decay_mult: 0
  }
  convolution_param {
    num_output: 256
    kernel_size: 1
    weight_filler {
      type: "xavier"
      std: 0.03
    }
    bias_filler {
      type: "constant"
      value: 0.2
    }
  }
}
layer {
  name: "inception_4e/relu_1x1"
  type: "ReLU"
  bottom: "inception_4e/1x1"
  top: "inception_4e/1x1"
}
layer {
  name: "inception_4e/3x3_reduce"
  type: "Convolution"
  bottom: "inception_4d/output"
  top: "inception_4e/3x3_reduce"
  param {
    lr_mult: 1
    decay_mult: 1
  }
  param {
    lr_mult: 2
    decay_mult: 0
  }
  convolution_param {
    num_output: 160
    kernel_size: 1
    weight_filler {
      type: "xavier"
      std: 0.09
    }
    bias_filler {
      type: "constant"
      value: 0.2
    }
  }
}
layer {
  name: "inception_4e/relu_3x3_reduce"
  type: "ReLU"
  bottom: "inception_4e/3x3_reduce"
  top: "inception_4e/3x3_reduce"
}
layer {
  name: "inception_4e/3x3"
  type: "Convolution"
  bottom: "inception_4e/3x3_reduce"
  top: "inception_4e/3x3"
  param {
    lr_mult: 1
    decay_mult: 1
  }
  param {
    lr_mult: 2
    decay_mult: 0
  }
  convolution_param {
    num_output: 320
    pad: 1
    kernel_size: 3
    weight_filler {
      type: "xavier"
      std: 0.03
    }
    bias_filler {
      type: "constant"
      value: 0.2
    }
  }
}
layer {
  name: "inception_4e/relu_3x3"
  type: "ReLU"
  bottom: "inception_4e/3x3"
  top: "inception_4e/3x3"
}
layer {
  name: "inception_4e/5x5_reduce"
  type: "Convolution"
  bottom: "inception_4d/output"
  top: "inception_4e/5x5_reduce"
  param {
    lr_mult: 1
    decay_mult: 1
  }
  param {
    lr_mult: 2
    decay_mult: 0
  }
  convolution_param {
    num_output: 32
    kernel_size: 1
    weight_filler {
      type: "xavier"
      std: 0.2
    }
    bias_filler {
      type: "constant"
      value: 0.2
    }
  }
}
layer {
  name: "inception_4e/relu_5x5_reduce"
  type: "ReLU"
  bottom: "inception_4e/5x5_reduce"
  top: "inception_4e/5x5_reduce"
}
layer {
  name: "inception_4e/5x5"
  type: "Convolution"
  bottom: "inception_4e/5x5_reduce"
  top: "inception_4e/
I0403 19:12:49.855831  8952 layer_factory.hpp:77] Creating layer data
I0403 19:12:49.856408  8952 net.cpp:91] Creating Layer data
I0403 19:12:49.856441  8952 net.cpp:399] data -> data
I0403 19:12:49.856488  8952 net.cpp:399] data -> label
I0403 19:12:49.856523  8952 data_transformer.cpp:25] Loading mean file from: /home/mohanty/data/final_dataset/lmdb/grayscale-50-50/mean.binaryproto
I0403 19:12:49.857630  8954 db_lmdb.cpp:38] Opened lmdb /home/mohanty/data/final_dataset/lmdb/grayscale-50-50/test_db
I0403 19:12:49.869590  8952 data_layer.cpp:41] output data size: 24,3,224,224
I0403 19:12:49.896564  8952 net.cpp:141] Setting up data
I0403 19:12:49.896646  8952 net.cpp:148] Top shape: 24 3 224 224 (3612672)
I0403 19:12:49.896668  8952 net.cpp:148] Top shape: 24 (24)
I0403 19:12:49.896683  8952 net.cpp:156] Memory required for data: 14450784
I0403 19:12:49.896709  8952 layer_factory.hpp:77] Creating layer label_data_1_split
I0403 19:12:49.896736  8952 net.cpp:91] Creating Layer label_data_1_split
I0403 19:12:49.896754  8952 net.cpp:425] label_data_1_split <- label
I0403 19:12:49.896785  8952 net.cpp:399] label_data_1_split -> label_data_1_split_0
I0403 19:12:49.896812  8952 net.cpp:399] label_data_1_split -> label_data_1_split_1
I0403 19:12:49.896832  8952 net.cpp:399] label_data_1_split -> label_data_1_split_2
I0403 19:12:49.896853  8952 net.cpp:399] label_data_1_split -> label_data_1_split_3
I0403 19:12:49.896872  8952 net.cpp:399] label_data_1_split -> label_data_1_split_4
I0403 19:12:49.896891  8952 net.cpp:399] label_data_1_split -> label_data_1_split_5
I0403 19:12:49.896909  8952 net.cpp:399] label_data_1_split -> label_data_1_split_6
I0403 19:12:49.896929  8952 net.cpp:399] label_data_1_split -> label_data_1_split_7
I0403 19:12:49.896947  8952 net.cpp:399] label_data_1_split -> label_data_1_split_8
I0403 19:12:49.896965  8952 net.cpp:399] label_data_1_split -> label_data_1_split_9
I0403 19:12:49.897076  8952 net.cpp:141] Setting up label_data_1_split
I0403 19:12:49.897099  8952 net.cpp:148] Top shape: 24 (24)
I0403 19:12:49.897116  8952 net.cpp:148] Top shape: 24 (24)
I0403 19:12:49.897132  8952 net.cpp:148] Top shape: 24 (24)
I0403 19:12:49.897148  8952 net.cpp:148] Top shape: 24 (24)
I0403 19:12:49.897163  8952 net.cpp:148] Top shape: 24 (24)
I0403 19:12:49.897179  8952 net.cpp:148] Top shape: 24 (24)
I0403 19:12:49.897194  8952 net.cpp:148] Top shape: 24 (24)
I0403 19:12:49.897227  8952 net.cpp:148] Top shape: 24 (24)
I0403 19:12:49.897258  8952 net.cpp:148] Top shape: 24 (24)
I0403 19:12:49.897275  8952 net.cpp:148] Top shape: 24 (24)
I0403 19:12:49.897320  8952 net.cpp:156] Memory required for data: 14451744
I0403 19:12:49.897336  8952 layer_factory.hpp:77] Creating layer conv1/7x7_s2
I0403 19:12:49.897368  8952 net.cpp:91] Creating Layer conv1/7x7_s2
I0403 19:12:49.897387  8952 net.cpp:425] conv1/7x7_s2 <- data
I0403 19:12:49.897408  8952 net.cpp:399] conv1/7x7_s2 -> conv1/7x7_s2
I0403 19:12:50.034629  8952 net.cpp:141] Setting up conv1/7x7_s2
I0403 19:12:50.034708  8952 net.cpp:148] Top shape: 24 64 112 112 (19267584)
I0403 19:12:50.034726  8952 net.cpp:156] Memory required for data: 91522080
I0403 19:12:50.034759  8952 layer_factory.hpp:77] Creating layer conv1/relu_7x7
I0403 19:12:50.034787  8952 net.cpp:91] Creating Layer conv1/relu_7x7
I0403 19:12:50.034806  8952 net.cpp:425] conv1/relu_7x7 <- conv1/7x7_s2
I0403 19:12:50.034826  8952 net.cpp:386] conv1/relu_7x7 -> conv1/7x7_s2 (in-place)
I0403 19:12:50.035086  8952 net.cpp:141] Setting up conv1/relu_7x7
I0403 19:12:50.035115  8952 net.cpp:148] Top shape: 24 64 112 112 (19267584)
I0403 19:12:50.035130  8952 net.cpp:156] Memory required for data: 168592416
I0403 19:12:50.035146  8952 layer_factory.hpp:77] Creating layer pool1/3x3_s2
I0403 19:12:50.035172  8952 net.cpp:91] Creating Layer pool1/3x3_s2
I0403 19:12:50.035190  8952 net.cpp:425] pool1/3x3_s2 <- conv1/7x7_s2
I0403 19:12:50.035213  8952 net.cpp:399] pool1/3x3_s2 -> pool1/3x3_s2
I0403 19:12:50.035290  8952 net.cpp:141] Setting up pool1/3x3_s2
I0403 19:12:50.035315  8952 net.cpp:148] Top shape: 24 64 56 56 (4816896)
I0403 19:12:50.035329  8952 net.cpp:156] Memory required for data: 187860000
I0403 19:12:50.035346  8952 layer_factory.hpp:77] Creating layer pool1/norm1
I0403 19:12:50.035370  8952 net.cpp:91] Creating Layer pool1/norm1
I0403 19:12:50.035387  8952 net.cpp:425] pool1/norm1 <- pool1/3x3_s2
I0403 19:12:50.035405  8952 net.cpp:399] pool1/norm1 -> pool1/norm1
I0403 19:12:50.035699  8952 net.cpp:141] Setting up pool1/norm1
I0403 19:12:50.035729  8952 net.cpp:148] Top shape: 24 64 56 56 (4816896)
I0403 19:12:50.035747  8952 net.cpp:156] Memory required for data: 207127584
I0403 19:12:50.035763  8952 layer_factory.hpp:77] Creating layer conv2/3x3_reduce
I0403 19:12:50.035789  8952 net.cpp:91] Creating Layer conv2/3x3_reduce
I0403 19:12:50.035804  8952 net.cpp:425] conv2/3x3_reduce <- pool1/norm1
I0403 19:12:50.035827  8952 net.cpp:399] conv2/3x3_reduce -> conv2/3x3_reduce
I0403 19:12:50.037252  8952 net.cpp:141] Setting up conv2/3x3_reduce
I0403 19:12:50.037286  8952 net.cpp:148] Top shape: 24 64 56 56 (4816896)
I0403 19:12:50.037304  8952 net.cpp:156] Memory required for data: 226395168
I0403 19:12:50.037327  8952 layer_factory.hpp:77] Creating layer conv2/relu_3x3_reduce
I0403 19:12:50.037346  8952 net.cpp:91] Creating Layer conv2/relu_3x3_reduce
I0403 19:12:50.037364  8952 net.cpp:425] conv2/relu_3x3_reduce <- conv2/3x3_reduce
I0403 19:12:50.037384  8952 net.cpp:386] conv2/relu_3x3_reduce -> conv2/3x3_reduce (in-place)
I0403 19:12:50.037693  8952 net.cpp:141] Setting up conv2/relu_3x3_reduce
I0403 19:12:50.037722  8952 net.cpp:148] Top shape: 24 64 56 56 (4816896)
I0403 19:12:50.037739  8952 net.cpp:156] Memory required for data: 245662752
I0403 19:12:50.037753  8952 layer_factory.hpp:77] Creating layer conv2/3x3
I0403 19:12:50.037777  8952 net.cpp:91] Creating Layer conv2/3x3
I0403 19:12:50.037796  8952 net.cpp:425] conv2/3x3 <- conv2/3x3_reduce
I0403 19:12:50.037822  8952 net.cpp:399] conv2/3x3 -> conv2/3x3
I0403 19:12:50.040184  8952 net.cpp:141] Setting up conv2/3x3
I0403 19:12:50.040220  8952 net.cpp:148] Top shape: 24 192 56 56 (14450688)
I0403 19:12:50.040240  8952 net.cpp:156] Memory required for data: 303465504
I0403 19:12:50.040262  8952 layer_factory.hpp:77] Creating layer conv2/relu_3x3
I0403 19:12:50.040282  8952 net.cpp:91] Creating Layer conv2/relu_3x3
I0403 19:12:50.040297  8952 net.cpp:425] conv2/relu_3x3 <- conv2/3x3
I0403 19:12:50.040318  8952 net.cpp:386] conv2/relu_3x3 -> conv2/3x3 (in-place)
I0403 19:12:50.040500  8952 net.cpp:141] Setting up conv2/relu_3x3
I0403 19:12:50.040526  8952 net.cpp:148] Top shape: 24 192 56 56 (14450688)
I0403 19:12:50.040572  8952 net.cpp:156] Memory required for data: 361268256
I0403 19:12:50.040590  8952 layer_factory.hpp:77] Creating layer conv2/norm2
I0403 19:12:50.040611  8952 net.cpp:91] Creating Layer conv2/norm2
I0403 19:12:50.040627  8952 net.cpp:425] conv2/norm2 <- conv2/3x3
I0403 19:12:50.040647  8952 net.cpp:399] conv2/norm2 -> conv2/norm2
I0403 19:12:50.040953  8952 net.cpp:141] Setting up conv2/norm2
I0403 19:12:50.040995  8952 net.cpp:148] Top shape: 24 192 56 56 (14450688)
I0403 19:12:50.041018  8952 net.cpp:156] Memory required for data: 419071008
I0403 19:12:50.041033  8952 layer_factory.hpp:77] Creating layer pool2/3x3_s2
I0403 19:12:50.041055  8952 net.cpp:91] Creating Layer pool2/3x3_s2
I0403 19:12:50.041072  8952 net.cpp:425] pool2/3x3_s2 <- conv2/norm2
I0403 19:12:50.041092  8952 net.cpp:399] pool2/3x3_s2 -> pool2/3x3_s2
I0403 19:12:50.041146  8952 net.cpp:141] Setting up pool2/3x3_s2
I0403 19:12:50.041170  8952 net.cpp:148] Top shape: 24 192 28 28 (3612672)
I0403 19:12:50.041185  8952 net.cpp:156] Memory required for data: 433521696
I0403 19:12:50.041200  8952 layer_factory.hpp:77] Creating layer pool2/3x3_s2_pool2/3x3_s2_0_split
I0403 19:12:50.041226  8952 net.cpp:91] Creating Layer pool2/3x3_s2_pool2/3x3_s2_0_split
I0403 19:12:50.041244  8952 net.cpp:425] pool2/3x3_s2_pool2/3x3_s2_0_split <- pool2/3x3_s2
I0403 19:12:50.041261  8952 net.cpp:399] pool2/3x3_s2_pool2/3x3_s2_0_split -> pool2/3x3_s2_pool2/3x3_s2_0_split_0
I0403 19:12:50.041281  8952 net.cpp:399] pool2/3x3_s2_pool2/3x3_s2_0_split -> pool2/3x3_s2_pool2/3x3_s2_0_split_1
I0403 19:12:50.041301  8952 net.cpp:399] pool2/3x3_s2_pool2/3x3_s2_0_split -> pool2/3x3_s2_pool2/3x3_s2_0_split_2
I0403 19:12:50.041321  8952 net.cpp:399] pool2/3x3_s2_pool2/3x3_s2_0_split -> pool2/3x3_s2_pool2/3x3_s2_0_split_3
I0403 19:12:50.041395  8952 net.cpp:141] Setting up pool2/3x3_s2_pool2/3x3_s2_0_split
I0403 19:12:50.041419  8952 net.cpp:148] Top shape: 24 192 28 28 (3612672)
I0403 19:12:50.041437  8952 net.cpp:148] Top shape: 24 192 28 28 (3612672)
I0403 19:12:50.041455  8952 net.cpp:148] Top shape: 24 192 28 28 (3612672)
I0403 19:12:50.041471  8952 net.cpp:148] Top shape: 24 192 28 28 (3612672)
I0403 19:12:50.041486  8952 net.cpp:156] Memory required for data: 491324448
I0403 19:12:50.041501  8952 layer_factory.hpp:77] Creating layer inception_3a/1x1
I0403 19:12:50.041523  8952 net.cpp:91] Creating Layer inception_3a/1x1
I0403 19:12:50.041553  8952 net.cpp:425] inception_3a/1x1 <- pool2/3x3_s2_pool2/3x3_s2_0_split_0
I0403 19:12:50.041575  8952 net.cpp:399] inception_3a/1x1 -> inception_3a/1x1
I0403 19:12:50.043181  8952 net.cpp:141] Setting up inception_3a/1x1
I0403 19:12:50.043227  8952 net.cpp:148] Top shape: 24 64 28 28 (1204224)
I0403 19:12:50.043248  8952 net.cpp:156] Memory required for data: 496141344
I0403 19:12:50.043267  8952 layer_factory.hpp:77] Creating layer inception_3a/relu_1x1
I0403 19:12:50.043287  8952 net.cpp:91] Creating Layer inception_3a/relu_1x1
I0403 19:12:50.043303  8952 net.cpp:425] inception_3a/relu_1x1 <- inception_3a/1x1
I0403 19:12:50.043323  8952 net.cpp:386] inception_3a/relu_1x1 -> inception_3a/1x1 (in-place)
I0403 19:12:50.043506  8952 net.cpp:141] Setting up inception_3a/relu_1x1
I0403 19:12:50.043532  8952 net.cpp:148] Top shape: 24 64 28 28 (1204224)
I0403 19:12:50.043547  8952 net.cpp:156] Memory required for data: 500958240
I0403 19:12:50.043563  8952 layer_factory.hpp:77] Creating layer inception_3a/3x3_reduce
I0403 19:12:50.043586  8952 net.cpp:91] Creating Layer inception_3a/3x3_reduce
I0403 19:12:50.043603  8952 net.cpp:425] inception_3a/3x3_reduce <- pool2/3x3_s2_pool2/3x3_s2_0_split_1
I0403 19:12:50.043625  8952 net.cpp:399] inception_3a/3x3_reduce -> inception_3a/3x3_reduce
I0403 19:12:50.045346  8952 net.cpp:141] Setting up inception_3a/3x3_reduce
I0403 19:12:50.045379  8952 net.cpp:148] Top shape: 24 96 28 28 (1806336)
I0403 19:12:50.045397  8952 net.cpp:156] Memory required for data: 508183584
I0403 19:12:50.045418  8952 layer_factory.hpp:77] Creating layer inception_3a/relu_3x3_reduce
I0403 19:12:50.045459  8952 net.cpp:91] Creating Layer inception_3a/relu_3x3_reduce
I0403 19:12:50.045477  8952 net.cpp:425] inception_3a/relu_3x3_reduce <- inception_3a/3x3_reduce
I0403 19:12:50.045495  8952 net.cpp:386] inception_3a/relu_3x3_reduce -> inception_3a/3x3_reduce (in-place)
I0403 19:12:50.045703  8952 net.cpp:141] Setting up inception_3a/relu_3x3_reduce
I0403 19:12:50.045732  8952 net.cpp:148] Top shape: 24 96 28 28 (1806336)
I0403 19:12:50.045748  8952 net.cpp:156] Memory required for data: 515408928
I0403 19:12:50.045764  8952 layer_factory.hpp:77] Creating layer inception_3a/3x3
I0403 19:12:50.045789  8952 net.cpp:91] Creating Layer inception_3a/3x3
I0403 19:12:50.045806  8952 net.cpp:425] inception_3a/3x3 <- inception_3a/3x3_reduce
I0403 19:12:50.045838  8952 net.cpp:399] inception_3a/3x3 -> inception_3a/3x3
I0403 19:12:50.047528  8952 net.cpp:141] Setting up inception_3a/3x3
I0403 19:12:50.047557  8952 net.cpp:148] Top shape: 24 128 28 28 (2408448)
I0403 19:12:50.047574  8952 net.cpp:156] Memory required for data: 525042720
I0403 19:12:50.047591  8952 layer_factory.hpp:77] Creating layer inception_3a/relu_3x3
I0403 19:12:50.047610  8952 net.cpp:91] Creating Layer inception_3a/relu_3x3
I0403 19:12:50.047626  8952 net.cpp:425] inception_3a/relu_3x3 <- inception_3a/3x3
I0403 19:12:50.047646  8952 net.cpp:386] inception_3a/relu_3x3 -> inception_3a/3x3 (in-place)
I0403 19:12:50.047924  8952 net.cpp:141] Setting up inception_3a/relu_3x3
I0403 19:12:50.047952  8952 net.cpp:148] Top shape: 24 128 28 28 (2408448)
I0403 19:12:50.047968  8952 net.cpp:156] Memory required for data: 534676512
I0403 19:12:50.047983  8952 layer_factory.hpp:77] Creating layer inception_3a/5x5_reduce
I0403 19:12:50.048007  8952 net.cpp:91] Creating Layer inception_3a/5x5_reduce
I0403 19:12:50.048024  8952 net.cpp:425] inception_3a/5x5_reduce <- pool2/3x3_s2_pool2/3x3_s2_0_split_2
I0403 19:12:50.048046  8952 net.cpp:399] inception_3a/5x5_reduce -> inception_3a/5x5_reduce
I0403 19:12:50.049031  8952 net.cpp:141] Setting up inception_3a/5x5_reduce
I0403 19:12:50.049060  8952 net.cpp:148] Top shape: 24 16 28 28 (301056)
I0403 19:12:50.049077  8952 net.cpp:156] Memory required for data: 535880736
I0403 19:12:50.049095  8952 layer_factory.hpp:77] Creating layer inception_3a/relu_5x5_reduce
I0403 19:12:50.049116  8952 net.cpp:91] Creating Layer inception_3a/relu_5x5_reduce
I0403 19:12:50.049134  8952 net.cpp:425] inception_3a/relu_5x5_reduce <- inception_3a/5x5_reduce
I0403 19:12:50.049151  8952 net.cpp:386] inception_3a/relu_5x5_reduce -> inception_3a/5x5_reduce (in-place)
I0403 19:12:50.049473  8952 net.cpp:141] Setting up inception_3a/relu_5x5_reduce
I0403 19:12:50.049499  8952 net.cpp:148] Top shape: 24 16 28 28 (301056)
I0403 19:12:50.049528  8952 net.cpp:156] Memory required for data: 537084960
I0403 19:12:50.049543  8952 layer_factory.hpp:77] Creating layer inception_3a/5x5
I0403 19:12:50.049566  8952 net.cpp:91] Creating Layer inception_3a/5x5
I0403 19:12:50.049584  8952 net.cpp:425] inception_3a/5x5 <- inception_3a/5x5_reduce
I0403 19:12:50.049607  8952 net.cpp:399] inception_3a/5x5 -> inception_3a/5x5
I0403 19:12:50.050691  8952 net.cpp:141] Setting up inception_3a/5x5
I0403 19:12:50.050721  8952 net.cpp:148] Top shape: 24 32 28 28 (602112)
I0403 19:12:50.050739  8952 net.cpp:156] Memory required for data: 539493408
I0403 19:12:50.050758  8952 layer_factory.hpp:77] Creating layer inception_3a/relu_5x5
I0403 19:12:50.050777  8952 net.cpp:91] Creating Layer inception_3a/relu_5x5
I0403 19:12:50.050793  8952 net.cpp:425] inception_3a/relu_5x5 <- inception_3a/5x5
I0403 19:12:50.050814  8952 net.cpp:386] inception_3a/relu_5x5 -> inception_3a/5x5 (in-place)
I0403 19:12:50.050992  8952 net.cpp:141] Setting up inception_3a/relu_5x5
I0403 19:12:50.051019  8952 net.cpp:148] Top shape: 24 32 28 28 (602112)
I0403 19:12:50.051036  8952 net.cpp:156] Memory required for data: 541901856
I0403 19:12:50.051051  8952 layer_factory.hpp:77] Creating layer inception_3a/pool
I0403 19:12:50.051072  8952 net.cpp:91] Creating Layer inception_3a/pool
I0403 19:12:50.051105  8952 net.cpp:425] inception_3a/pool <- pool2/3x3_s2_pool2/3x3_s2_0_split_3
I0403 19:12:50.051125  8952 net.cpp:399] inception_3a/pool -> inception_3a/pool
I0403 19:12:50.051184  8952 net.cpp:141] Setting up inception_3a/pool
I0403 19:12:50.051214  8952 net.cpp:148] Top shape: 24 192 28 28 (3612672)
I0403 19:12:50.051232  8952 net.cpp:156] Memory required for data: 556352544
I0403 19:12:50.051249  8952 layer_factory.hpp:77] Creating layer inception_3a/pool_proj
I0403 19:12:50.051271  8952 net.cpp:91] Creating Layer inception_3a/pool_proj
I0403 19:12:50.051291  8952 net.cpp:425] inception_3a/pool_proj <- inception_3a/pool
I0403 19:12:50.051313  8952 net.cpp:399] inception_3a/pool_proj -> inception_3a/pool_proj
I0403 19:12:50.052302  8952 net.cpp:141] Setting up inception_3a/pool_proj
I0403 19:12:50.052333  8952 net.cpp:148] Top shape: 24 32 28 28 (602112)
I0403 19:12:50.052350  8952 net.cpp:156] Memory required for data: 558760992
I0403 19:12:50.052372  8952 layer_factory.hpp:77] Creating layer inception_3a/relu_pool_proj
I0403 19:12:50.052393  8952 net.cpp:91] Creating Layer inception_3a/relu_pool_proj
I0403 19:12:50.052410  8952 net.cpp:425] inception_3a/relu_pool_proj <- inception_3a/pool_proj
I0403 19:12:50.052428  8952 net.cpp:386] inception_3a/relu_pool_proj -> inception_3a/pool_proj (in-place)
I0403 19:12:50.052705  8952 net.cpp:141] Setting up inception_3a/relu_pool_proj
I0403 19:12:50.052731  8952 net.cpp:148] Top shape: 24 32 28 28 (602112)
I0403 19:12:50.052747  8952 net.cpp:156] Memory required for data: 561169440
I0403 19:12:50.052762  8952 layer_factory.hpp:77] Creating layer inception_3a/output
I0403 19:12:50.052779  8952 net.cpp:91] Creating Layer inception_3a/output
I0403 19:12:50.052795  8952 net.cpp:425] inception_3a/output <- inception_3a/1x1
I0403 19:12:50.052811  8952 net.cpp:425] inception_3a/output <- inception_3a/3x3
I0403 19:12:50.052827  8952 net.cpp:425] inception_3a/output <- inception_3a/5x5
I0403 19:12:50.052842  8952 net.cpp:425] inception_3a/output <- inception_3a/pool_proj
I0403 19:12:50.052861  8952 net.cpp:399] inception_3a/output -> inception_3a/output
I0403 19:12:50.052906  8952 net.cpp:141] Setting up inception_3a/output
I0403 19:12:50.052933  8952 net.cpp:148] Top shape: 24 256 28 28 (4816896)
I0403 19:12:50.052948  8952 net.cpp:156] Memory required for data: 580437024
I0403 19:12:50.052963  8952 layer_factory.hpp:77] Creating layer inception_3a/output_inception_3a/output_0_split
I0403 19:12:50.052980  8952 net.cpp:91] Creating Layer inception_3a/output_inception_3a/output_0_split
I0403 19:12:50.052995  8952 net.cpp:425] inception_3a/output_inception_3a/output_0_split <- inception_3a/output
I0403 19:12:50.053012  8952 net.cpp:399] inception_3a/output_inception_3a/output_0_split -> inception_3a/output_inception_3a/output_0_split_0
I0403 19:12:50.053032  8952 net.cpp:399] inception_3a/output_inception_3a/output_0_split -> inception_3a/output_inception_3a/output_0_split_1
I0403 19:12:50.053056  8952 net.cpp:399] inception_3a/output_inception_3a/output_0_split -> inception_3a/output_inception_3a/output_0_split_2
I0403 19:12:50.053079  8952 net.cpp:399] inception_3a/output_inception_3a/output_0_split -> inception_3a/output_inception_3a/output_0_split_3
I0403 19:12:50.053153  8952 net.cpp:141] Setting up inception_3a/output_inception_3a/output_0_split
I0403 19:12:50.053179  8952 net.cpp:148] Top shape: 24 256 28 28 (4816896)
I0403 19:12:50.053196  8952 net.cpp:148] Top shape: 24 256 28 28 (4816896)
I0403 19:12:50.053217  8952 net.cpp:148] Top shape: 24 256 28 28 (4816896)
I0403 19:12:50.053236  8952 net.cpp:148] Top shape: 24 256 28 28 (4816896)
I0403 19:12:50.053249  8952 net.cpp:156] Memory required for data: 657507360
I0403 19:12:50.053264  8952 layer_factory.hpp:77] Creating layer inception_3b/1x1
I0403 19:12:50.053287  8952 net.cpp:91] Creating Layer inception_3b/1x1
I0403 19:12:50.053304  8952 net.cpp:425] inception_3b/1x1 <- inception_3a/output_inception_3a/output_0_split_0
I0403 19:12:50.053323  8952 net.cpp:399] inception_3b/1x1 -> inception_3b/1x1
I0403 19:12:50.054486  8952 net.cpp:141] Setting up inception_3b/1x1
I0403 19:12:50.054527  8952 net.cpp:148] Top shape: 24 128 28 28 (2408448)
I0403 19:12:50.054543  8952 net.cpp:156] Memory required for data: 667141152
I0403 19:12:50.054561  8952 layer_factory.hpp:77] Creating layer inception_3b/relu_1x1
I0403 19:12:50.054579  8952 net.cpp:91] Creating Layer inception_3b/relu_1x1
I0403 19:12:50.054596  8952 net.cpp:425] inception_3b/relu_1x1 <- inception_3b/1x1
I0403 19:12:50.054616  8952 net.cpp:386] inception_3b/relu_1x1 -> inception_3b/1x1 (in-place)
I0403 19:12:50.054790  8952 net.cpp:141] Setting up inception_3b/relu_1x1
I0403 19:12:50.054816  8952 net.cpp:148] Top shape: 24 128 28 28 (2408448)
I0403 19:12:50.054829  8952 net.cpp:156] Memory required for data: 676774944
I0403 19:12:50.054844  8952 layer_factory.hpp:77] Creating layer inception_3b/3x3_reduce
I0403 19:12:50.054865  8952 net.cpp:91] Creating Layer inception_3b/3x3_reduce
I0403 19:12:50.054883  8952 net.cpp:425] inception_3b/3x3_reduce <- inception_3a/output_inception_3a/output_0_split_1
I0403 19:12:50.054904  8952 net.cpp:399] inception_3b/3x3_reduce -> inception_3b/3x3_reduce
I0403 19:12:50.056038  8952 net.cpp:141] Setting up inception_3b/3x3_reduce
I0403 19:12:50.056069  8952 net.cpp:148] Top shape: 24 128 28 28 (2408448)
I0403 19:12:50.056087  8952 net.cpp:156] Memory required for data: 686408736
I0403 19:12:50.056104  8952 layer_factory.hpp:77] Creating layer inception_3b/relu_3x3_reduce
I0403 19:12:50.056123  8952 net.cpp:91] Creating Layer inception_3b/relu_3x3_reduce
I0403 19:12:50.056138  8952 net.cpp:425] inception_3b/relu_3x3_reduce <- inception_3b/3x3_reduce
I0403 19:12:50.056155  8952 net.cpp:386] inception_3b/relu_3x3_reduce -> inception_3b/3x3_reduce (in-place)
I0403 19:12:50.056334  8952 net.cpp:141] Setting up inception_3b/relu_3x3_reduce
I0403 19:12:50.056360  8952 net.cpp:148] Top shape: 24 128 28 28 (2408448)
I0403 19:12:50.056375  8952 net.cpp:156] Memory required for data: 696042528
I0403 19:12:50.056390  8952 layer_factory.hpp:77] Creating layer inception_3b/3x3
I0403 19:12:50.056414  8952 net.cpp:91] Creating Layer inception_3b/3x3
I0403 19:12:50.056432  8952 net.cpp:425] inception_3b/3x3 <- inception_3b/3x3_reduce
I0403 19:12:50.056453  8952 net.cpp:399] inception_3b/3x3 -> inception_3b/3x3
I0403 19:12:50.059357  8952 net.cpp:141] Setting up inception_3b/3x3
I0403 19:12:50.059386  8952 net.cpp:148] Top shape: 24 192 28 28 (3612672)
I0403 19:12:50.059402  8952 net.cpp:156] Memory required for data: 710493216
I0403 19:12:50.059422  8952 layer_factory.hpp:77] Creating layer inception_3b/relu_3x3
I0403 19:12:50.059439  8952 net.cpp:91] Creating Layer inception_3b/relu_3x3
I0403 19:12:50.059455  8952 net.cpp:425] inception_3b/relu_3x3 <- inception_3b/3x3
I0403 19:12:50.059474  8952 net.cpp:386] inception_3b/relu_3x3 -> inception_3b/3x3 (in-place)
I0403 19:12:50.059746  8952 net.cpp:141] Setting up inception_3b/relu_3x3
I0403 19:12:50.059772  8952 net.cpp:148] Top shape: 24 192 28 28 (3612672)
I0403 19:12:50.059787  8952 net.cpp:156] Memory required for data: 724943904
I0403 19:12:50.059801  8952 layer_factory.hpp:77] Creating layer inception_3b/5x5_reduce
I0403 19:12:50.059823  8952 net.cpp:91] Creating Layer inception_3b/5x5_reduce
I0403 19:12:50.059841  8952 net.cpp:425] inception_3b/5x5_reduce <- inception_3a/output_inception_3a/output_0_split_2
I0403 19:12:50.059864  8952 net.cpp:399] inception_3b/5x5_reduce -> inception_3b/5x5_reduce
I0403 19:12:50.060832  8952 net.cpp:141] Setting up inception_3b/5x5_reduce
I0403 19:12:50.060859  8952 net.cpp:148] Top shape: 24 32 28 28 (602112)
I0403 19:12:50.060875  8952 net.cpp:156] Memory required for data: 727352352
I0403 19:12:50.060894  8952 layer_factory.hpp:77] Creating layer inception_3b/relu_5x5_reduce
I0403 19:12:50.060911  8952 net.cpp:91] Creating Layer inception_3b/relu_5x5_reduce
I0403 19:12:50.060927  8952 net.cpp:425] inception_3b/relu_5x5_reduce <- inception_3b/5x5_reduce
I0403 19:12:50.060950  8952 net.cpp:386] inception_3b/relu_5x5_reduce -> inception_3b/5x5_reduce (in-place)
I0403 19:12:50.061137  8952 net.cpp:141] Setting up inception_3b/relu_5x5_reduce
I0403 19:12:50.061162  8952 net.cpp:148] Top shape: 24 32 28 28 (602112)
I0403 19:12:50.061178  8952 net.cpp:156] Memory required for data: 729760800
I0403 19:12:50.061192  8952 layer_factory.hpp:77] Creating layer inception_3b/5x5
I0403 19:12:50.061221  8952 net.cpp:91] Creating Layer inception_3b/5x5
I0403 19:12:50.061240  8952 net.cpp:425] inception_3b/5x5 <- inception_3b/5x5_reduce
I0403 19:12:50.061261  8952 net.cpp:399] inception_3b/5x5 -> inception_3b/5x5
I0403 19:12:50.063241  8952 net.cpp:141] Setting up inception_3b/5x5
I0403 19:12:50.063273  8952 net.cpp:148] Top shape: 24 96 28 28 (1806336)
I0403 19:12:50.063289  8952 net.cpp:156] Memory required for data: 736986144
I0403 19:12:50.063308  8952 layer_factory.hpp:77] Creating layer inception_3b/relu_5x5
I0403 19:12:50.063326  8952 net.cpp:91] Creating Layer inception_3b/relu_5x5
I0403 19:12:50.063343  8952 net.cpp:425] inception_3b/relu_5x5 <- inception_3b/5x5
I0403 19:12:50.063359  8952 net.cpp:386] inception_3b/relu_5x5 -> inception_3b/5x5 (in-place)
I0403 19:12:50.063551  8952 net.cpp:141] Setting up inception_3b/relu_5x5
I0403 19:12:50.063576  8952 net.cpp:148] Top shape: 24 96 28 28 (1806336)
I0403 19:12:50.063591  8952 net.cpp:156] Memory required for data: 744211488
I0403 19:12:50.063606  8952 layer_factory.hpp:77] Creating layer inception_3b/pool
I0403 19:12:50.063622  8952 net.cpp:91] Creating Layer inception_3b/pool
I0403 19:12:50.063638  8952 net.cpp:425] inception_3b/pool <- inception_3a/output_inception_3a/output_0_split_3
I0403 19:12:50.063657  8952 net.cpp:399] inception_3b/pool -> inception_3b/pool
I0403 19:12:50.063710  8952 net.cpp:141] Setting up inception_3b/pool
I0403 19:12:50.063735  8952 net.cpp:148] Top shape: 24 256 28 28 (4816896)
I0403 19:12:50.063750  8952 net.cpp:156] Memory required for data: 763479072
I0403 19:12:50.063766  8952 layer_factory.hpp:77] Creating layer inception_3b/pool_proj
I0403 19:12:50.063786  8952 net.cpp:91] Creating Layer inception_3b/pool_proj
I0403 19:12:50.063804  8952 net.cpp:425] inception_3b/pool_proj <- inception_3b/pool
I0403 19:12:50.063822  8952 net.cpp:399] inception_3b/pool_proj -> inception_3b/pool_proj
I0403 19:12:50.064858  8952 net.cpp:141] Setting up inception_3b/pool_proj
I0403 19:12:50.064885  8952 net.cpp:148] Top shape: 24 64 28 28 (1204224)
I0403 19:12:50.064900  8952 net.cpp:156] Memory required for data: 768295968
I0403 19:12:50.064918  8952 layer_factory.hpp:77] Creating layer inception_3b/relu_pool_proj
I0403 19:12:50.064936  8952 net.cpp:91] Creating Layer inception_3b/relu_pool_proj
I0403 19:12:50.064954  8952 net.cpp:425] inception_3b/relu_pool_proj <- inception_3b/pool_proj
I0403 19:12:50.064970  8952 net.cpp:386] inception_3b/relu_pool_proj -> inception_3b/pool_proj (in-place)
I0403 19:12:50.065343  8952 net.cpp:141] Setting up inception_3b/relu_pool_proj
I0403 19:12:50.065368  8952 net.cpp:148] Top shape: 24 64 28 28 (1204224)
I0403 19:12:50.065382  8952 net.cpp:156] Memory required for data: 773112864
I0403 19:12:50.065397  8952 layer_factory.hpp:77] Creating layer inception_3b/output
I0403 19:12:50.065413  8952 net.cpp:91] Creating Layer inception_3b/output
I0403 19:12:50.065428  8952 net.cpp:425] inception_3b/output <- inception_3b/1x1
I0403 19:12:50.065456  8952 net.cpp:425] inception_3b/output <- inception_3b/3x3
I0403 19:12:50.065472  8952 net.cpp:425] inception_3b/output <- inception_3b/5x5
I0403 19:12:50.065488  8952 net.cpp:425] inception_3b/output <- inception_3b/pool_proj
I0403 19:12:50.065507  8952 net.cpp:399] inception_3b/output -> inception_3b/output
I0403 19:12:50.065552  8952 net.cpp:141] Setting up inception_3b/output
I0403 19:12:50.065577  8952 net.cpp:148] Top shape: 24 480 28 28 (9031680)
I0403 19:12:50.065590  8952 net.cpp:156] Memory required for data: 809239584
I0403 19:12:50.065605  8952 layer_factory.hpp:77] Creating layer pool3/3x3_s2
I0403 19:12:50.065623  8952 net.cpp:91] Creating Layer pool3/3x3_s2
I0403 19:12:50.065639  8952 net.cpp:425] pool3/3x3_s2 <- inception_3b/output
I0403 19:12:50.065673  8952 net.cpp:399] pool3/3x3_s2 -> pool3/3x3_s2
I0403 19:12:50.065742  8952 net.cpp:141] Setting up pool3/3x3_s2
I0403 19:12:50.065765  8952 net.cpp:148] Top shape: 24 480 14 14 (2257920)
I0403 19:12:50.065779  8952 net.cpp:156] Memory required for data: 818271264
I0403 19:12:50.065793  8952 layer_factory.hpp:77] Creating layer pool3/3x3_s2_pool3/3x3_s2_0_split
I0403 19:12:50.065811  8952 net.cpp:91] Creating Layer pool3/3x3_s2_pool3/3x3_s2_0_split
I0403 19:12:50.065826  8952 net.cpp:425] pool3/3x3_s2_pool3/3x3_s2_0_split <- pool3/3x3_s2
I0403 19:12:50.065843  8952 net.cpp:399] pool3/3x3_s2_pool3/3x3_s2_0_split -> pool3/3x3_s2_pool3/3x3_s2_0_split_0
I0403 19:12:50.065865  8952 net.cpp:399] pool3/3x3_s2_pool3/3x3_s2_0_split -> pool3/3x3_s2_pool3/3x3_s2_0_split_1
I0403 19:12:50.065883  8952 net.cpp:399] pool3/3x3_s2_pool3/3x3_s2_0_split -> pool3/3x3_s2_pool3/3x3_s2_0_split_2
I0403 19:12:50.065901  8952 net.cpp:399] pool3/3x3_s2_pool3/3x3_s2_0_split -> pool3/3x3_s2_pool3/3x3_s2_0_split_3
I0403 19:12:50.065973  8952 net.cpp:141] Setting up pool3/3x3_s2_pool3/3x3_s2_0_split
I0403 19:12:50.065995  8952 net.cpp:148] Top shape: 24 480 14 14 (2257920)
I0403 19:12:50.066011  8952 net.cpp:148] Top shape: 24 480 14 14 (2257920)
I0403 19:12:50.066026  8952 net.cpp:148] Top shape: 24 480 14 14 (2257920)
I0403 19:12:50.066041  8952 net.cpp:148] Top shape: 24 480 14 14 (2257920)
I0403 19:12:50.066054  8952 net.cpp:156] Memory required for data: 854397984
I0403 19:12:50.066068  8952 layer_factory.hpp:77] Creating layer inception_4a/1x1
I0403 19:12:50.066089  8952 net.cpp:91] Creating Layer inception_4a/1x1
I0403 19:12:50.066105  8952 net.cpp:425] inception_4a/1x1 <- pool3/3x3_s2_pool3/3x3_s2_0_split_0
I0403 19:12:50.066129  8952 net.cpp:399] inception_4a/1x1 -> inception_4a/1x1
I0403 19:12:50.067663  8952 net.cpp:141] Setting up inception_4a/1x1
I0403 19:12:50.067690  8952 net.cpp:148] Top shape: 24 192 14 14 (903168)
I0403 19:12:50.067705  8952 net.cpp:156] Memory required for data: 858010656
I0403 19:12:50.067734  8952 layer_factory.hpp:77] Creating layer inception_4a/relu_1x1
I0403 19:12:50.067757  8952 net.cpp:91] Creating Layer inception_4a/relu_1x1
I0403 19:12:50.067775  8952 net.cpp:425] inception_4a/relu_1x1 <- inception_4a/1x1
I0403 19:12:50.067791  8952 net.cpp:386] inception_4a/relu_1x1 -> inception_4a/1x1 (in-place)
I0403 19:12:50.067960  8952 net.cpp:141] Setting up inception_4a/relu_1x1
I0403 19:12:50.067987  8952 net.cpp:148] Top shape: 24 192 14 14 (903168)
I0403 19:12:50.068002  8952 net.cpp:156] Memory required for data: 861623328
I0403 19:12:50.068017  8952 layer_factory.hpp:77] Creating layer inception_4a/3x3_reduce
I0403 19:12:50.068037  8952 net.cpp:91] Creating Layer inception_4a/3x3_reduce
I0403 19:12:50.068053  8952 net.cpp:425] inception_4a/3x3_reduce <- pool3/3x3_s2_pool3/3x3_s2_0_split_1
I0403 19:12:50.068073  8952 net.cpp:399] inception_4a/3x3_reduce -> inception_4a/3x3_reduce
I0403 19:12:50.069300  8952 net.cpp:141] Setting up inception_4a/3x3_reduce
I0403 19:12:50.069327  8952 net.cpp:148] Top shape: 24 96 14 14 (451584)
I0403 19:12:50.069342  8952 net.cpp:156] Memory required for data: 863429664
I0403 19:12:50.069365  8952 layer_factory.hpp:77] Creating layer inception_4a/relu_3x3_reduce
I0403 19:12:50.069387  8952 net.cpp:91] Creating Layer inception_4a/relu_3x3_reduce
I0403 19:12:50.069403  8952 net.cpp:425] inception_4a/relu_3x3_reduce <- inception_4a/3x3_reduce
I0403 19:12:50.069422  8952 net.cpp:386] inception_4a/relu_3x3_reduce -> inception_4a/3x3_reduce (in-place)
I0403 19:12:50.069605  8952 net.cpp:141] Setting up inception_4a/relu_3x3_reduce
I0403 19:12:50.069633  8952 net.cpp:148] Top shape: 24 96 14 14 (451584)
I0403 19:12:50.069648  8952 net.cpp:156] Memory required for data: 865236000
I0403 19:12:50.069664  8952 layer_factory.hpp:77] Creating layer inception_4a/3x3
I0403 19:12:50.069684  8952 net.cpp:91] Creating Layer inception_4a/3x3
I0403 19:12:50.069701  8952 net.cpp:425] inception_4a/3x3 <- inception_4a/3x3_reduce
I0403 19:12:50.069720  8952 net.cpp:399] inception_4a/3x3 -> inception_4a/3x3
I0403 19:12:50.072320  8952 net.cpp:141] Setting up inception_4a/3x3
I0403 19:12:50.072350  8952 net.cpp:148] Top shape: 24 208 14 14 (978432)
I0403 19:12:50.072366  8952 net.cpp:156] Memory required for data: 869149728
I0403 19:12:50.072384  8952 layer_factory.hpp:77] Creating layer inception_4a/relu_3x3
I0403 19:12:50.072402  8952 net.cpp:91] Creating Layer inception_4a/relu_3x3
I0403 19:12:50.072417  8952 net.cpp:425] inception_4a/relu_3x3 <- inception_4a/3x3
I0403 19:12:50.072434  8952 net.cpp:386] inception_4a/relu_3x3 -> inception_4a/3x3 (in-place)
I0403 19:12:50.072702  8952 net.cpp:141] Setting up inception_4a/relu_3x3
I0403 19:12:50.072731  8952 net.cpp:148] Top shape: 24 208 14 14 (978432)
I0403 19:12:50.072746  8952 net.cpp:156] Memory required for data: 873063456
I0403 19:12:50.072762  8952 layer_factory.hpp:77] Creating layer inception_4a/5x5_reduce
I0403 19:12:50.072783  8952 net.cpp:91] Creating Layer inception_4a/5x5_reduce
I0403 19:12:50.072800  8952 net.cpp:425] inception_4a/5x5_reduce <- pool3/3x3_s2_pool3/3x3_s2_0_split_2
I0403 19:12:50.072819  8952 net.cpp:399] inception_4a/5x5_reduce -> inception_4a/5x5_reduce
I0403 19:12:50.073859  8952 net.cpp:141] Setting up inception_4a/5x5_reduce
I0403 19:12:50.073885  8952 net.cpp:148] Top shape: 24 16 14 14 (75264)
I0403 19:12:50.073900  8952 net.cpp:156] Memory required for data: 873364512
I0403 19:12:50.073920  8952 layer_factory.hpp:77] Creating layer inception_4a/relu_5x5_reduce
I0403 19:12:50.073936  8952 net.cpp:91] Creating Layer inception_4a/relu_5x5_reduce
I0403 19:12:50.073951  8952 net.cpp:425] inception_4a/relu_5x5_reduce <- inception_4a/5x5_reduce
I0403 19:12:50.073969  8952 net.cpp:386] inception_4a/relu_5x5_reduce -> inception_4a/5x5_reduce (in-place)
I0403 19:12:50.074139  8952 net.cpp:141] Setting up inception_4a/relu_5x5_reduce
I0403 19:12:50.074163  8952 net.cpp:148] Top shape: 24 16 14 14 (75264)
I0403 19:12:50.074178  8952 net.cpp:156] Memory required for data: 873665568
I0403 19:12:50.074193  8952 layer_factory.hpp:77] Creating layer inception_4a/5x5
I0403 19:12:50.074220  8952 net.cpp:91] Creating Layer inception_4a/5x5
I0403 19:12:50.074239  8952 net.cpp:425] inception_4a/5x5 <- inception_4a/5x5_reduce
I0403 19:12:50.074262  8952 net.cpp:399] inception_4a/5x5 -> inception_4a/5x5
I0403 19:12:50.075296  8952 net.cpp:141] Setting up inception_4a/5x5
I0403 19:12:50.075323  8952 net.cpp:148] Top shape: 24 48 14 14 (225792)
I0403 19:12:50.075338  8952 net.cpp:156] Memory required for data: 874568736
I0403 19:12:50.075356  8952 layer_factory.hpp:77] Creating layer inception_4a/relu_5x5
I0403 19:12:50.075376  8952 net.cpp:91] Creating Layer inception_4a/relu_5x5
I0403 19:12:50.075392  8952 net.cpp:425] inception_4a/relu_5x5 <- inception_4a/5x5
I0403 19:12:50.075409  8952 net.cpp:386] inception_4a/relu_5x5 -> inception_4a/5x5 (in-place)
I0403 19:12:50.075578  8952 net.cpp:141] Setting up inception_4a/relu_5x5
I0403 19:12:50.075604  8952 net.cpp:148] Top shape: 24 48 14 14 (225792)
I0403 19:12:50.075619  8952 net.cpp:156] Memory required for data: 875471904
I0403 19:12:50.075634  8952 layer_factory.hpp:77] Creating layer inception_4a/pool
I0403 19:12:50.075650  8952 net.cpp:91] Creating Layer inception_4a/pool
I0403 19:12:50.075665  8952 net.cpp:425] inception_4a/pool <- pool3/3x3_s2_pool3/3x3_s2_0_split_3
I0403 19:12:50.075682  8952 net.cpp:399] inception_4a/pool -> inception_4a/pool
I0403 19:12:50.075741  8952 net.cpp:141] Setting up inception_4a/pool
I0403 19:12:50.075763  8952 net.cpp:148] Top shape: 24 480 14 14 (2257920)
I0403 19:12:50.075778  8952 net.cpp:156] Memory required for data: 884503584
I0403 19:12:50.075791  8952 layer_factory.hpp:77] Creating layer inception_4a/pool_proj
I0403 19:12:50.075812  8952 net.cpp:91] Creating Layer inception_4a/pool_proj
I0403 19:12:50.075829  8952 net.cpp:425] inception_4a/pool_proj <- inception_4a/pool
I0403 19:12:50.075850  8952 net.cpp:399] inception_4a/pool_proj -> inception_4a/pool_proj
I0403 19:12:50.076961  8952 net.cpp:141] Setting up inception_4a/pool_proj
I0403 19:12:50.076989  8952 net.cpp:148] Top shape: 24 64 14 14 (301056)
I0403 19:12:50.077018  8952 net.cpp:156] Memory required for data: 885707808
I0403 19:12:50.077036  8952 layer_factory.hpp:77] Creating layer inception_4a/relu_pool_proj
I0403 19:12:50.077057  8952 net.cpp:91] Creating Layer inception_4a/relu_pool_proj
I0403 19:12:50.077075  8952 net.cpp:425] inception_4a/relu_pool_proj <- inception_4a/pool_proj
I0403 19:12:50.077091  8952 net.cpp:386] inception_4a/relu_pool_proj -> inception_4a/pool_proj (in-place)
I0403 19:12:50.077386  8952 net.cpp:141] Setting up inception_4a/relu_pool_proj
I0403 19:12:50.077412  8952 net.cpp:148] Top shape: 24 64 14 14 (301056)
I0403 19:12:50.077427  8952 net.cpp:156] Memory required for data: 886912032
I0403 19:12:50.077455  8952 layer_factory.hpp:77] Creating layer inception_4a/output
I0403 19:12:50.077474  8952 net.cpp:91] Creating Layer inception_4a/output
I0403 19:12:50.077491  8952 net.cpp:425] inception_4a/output <- inception_4a/1x1
I0403 19:12:50.077508  8952 net.cpp:425] inception_4a/output <- inception_4a/3x3
I0403 19:12:50.077524  8952 net.cpp:425] inception_4a/output <- inception_4a/5x5
I0403 19:12:50.077540  8952 net.cpp:425] inception_4a/output <- inception_4a/pool_proj
I0403 19:12:50.077558  8952 net.cpp:399] inception_4a/output -> inception_4a/output
I0403 19:12:50.077607  8952 net.cpp:141] Setting up inception_4a/output
I0403 19:12:50.077631  8952 net.cpp:148] Top shape: 24 512 14 14 (2408448)
I0403 19:12:50.077646  8952 net.cpp:156] Memory required for data: 896545824
I0403 19:12:50.077661  8952 layer_factory.hpp:77] Creating layer inception_4a/output_inception_4a/output_0_split
I0403 19:12:50.077678  8952 net.cpp:91] Creating Layer inception_4a/output_inception_4a/output_0_split
I0403 19:12:50.077694  8952 net.cpp:425] inception_4a/output_inception_4a/output_0_split <- inception_4a/output
I0403 19:12:50.077715  8952 net.cpp:399] inception_4a/output_inception_4a/output_0_split -> inception_4a/output_inception_4a/output_0_split_0
I0403 19:12:50.077749  8952 net.cpp:399] inception_4a/output_inception_4a/output_0_split -> inception_4a/output_inception_4a/output_0_split_1
I0403 19:12:50.077769  8952 net.cpp:399] inception_4a/output_inception_4a/output_0_split -> inception_4a/output_inception_4a/output_0_split_2
I0403 19:12:50.077800  8952 net.cpp:399] inception_4a/output_inception_4a/output_0_split -> inception_4a/output_inception_4a/output_0_split_3
I0403 19:12:50.077817  8952 net.cpp:399] inception_4a/output_inception_4a/output_0_split -> inception_4a/output_inception_4a/output_0_split_4
I0403 19:12:50.077921  8952 net.cpp:141] Setting up inception_4a/output_inception_4a/output_0_split
I0403 19:12:50.077944  8952 net.cpp:148] Top shape: 24 512 14 14 (2408448)
I0403 19:12:50.077961  8952 net.cpp:148] Top shape: 24 512 14 14 (2408448)
I0403 19:12:50.077976  8952 net.cpp:148] Top shape: 24 512 14 14 (2408448)
I0403 19:12:50.077991  8952 net.cpp:148] Top shape: 24 512 14 14 (2408448)
I0403 19:12:50.078007  8952 net.cpp:148] Top shape: 24 512 14 14 (2408448)
I0403 19:12:50.078021  8952 net.cpp:156] Memory required for data: 944714784
I0403 19:12:50.078035  8952 layer_factory.hpp:77] Creating layer loss1/ave_pool
I0403 19:12:50.078052  8952 net.cpp:91] Creating Layer loss1/ave_pool
I0403 19:12:50.078068  8952 net.cpp:425] loss1/ave_pool <- inception_4a/output_inception_4a/output_0_split_0
I0403 19:12:50.078088  8952 net.cpp:399] loss1/ave_pool -> loss1/ave_pool
I0403 19:12:50.078301  8952 net.cpp:141] Setting up loss1/ave_pool
I0403 19:12:50.078326  8952 net.cpp:148] Top shape: 24 512 4 4 (196608)
I0403 19:12:50.078341  8952 net.cpp:156] Memory required for data: 945501216
I0403 19:12:50.078356  8952 layer_factory.hpp:77] Creating layer loss1/conv
I0403 19:12:50.078378  8952 net.cpp:91] Creating Layer loss1/conv
I0403 19:12:50.078395  8952 net.cpp:425] loss1/conv <- loss1/ave_pool
I0403 19:12:50.078416  8952 net.cpp:399] loss1/conv -> loss1/conv
I0403 19:12:50.079790  8952 net.cpp:141] Setting up loss1/conv
I0403 19:12:50.079843  8952 net.cpp:148] Top shape: 24 128 4 4 (49152)
I0403 19:12:50.079900  8952 net.cpp:156] Memory required for data: 945697824
I0403 19:12:50.079949  8952 layer_factory.hpp:77] Creating layer loss1/relu_conv
I0403 19:12:50.079988  8952 net.cpp:91] Creating Layer loss1/relu_conv
I0403 19:12:50.080020  8952 net.cpp:425] loss1/relu_conv <- loss1/conv
I0403 19:12:50.080054  8952 net.cpp:386] loss1/relu_conv -> loss1/conv (in-place)
I0403 19:12:50.080330  8952 net.cpp:141] Setting up loss1/relu_conv
I0403 19:12:50.080359  8952 net.cpp:148] Top shape: 24 128 4 4 (49152)
I0403 19:12:50.080375  8952 net.cpp:156] Memory required for data: 945894432
I0403 19:12:50.080389  8952 layer_factory.hpp:77] Creating layer loss1/fc
I0403 19:12:50.080412  8952 net.cpp:91] Creating Layer loss1/fc
I0403 19:12:50.080430  8952 net.cpp:425] loss1/fc <- loss1/conv
I0403 19:12:50.080451  8952 net.cpp:399] loss1/fc -> loss1/fc
I0403 19:12:50.097890  8952 net.cpp:141] Setting up loss1/fc
I0403 19:12:50.097928  8952 net.cpp:148] Top shape: 24 1024 (24576)
I0403 19:12:50.097944  8952 net.cpp:156] Memory required for data: 945992736
I0403 19:12:50.097961  8952 layer_factory.hpp:77] Creating layer loss1/relu_fc
I0403 19:12:50.097980  8952 net.cpp:91] Creating Layer loss1/relu_fc
I0403 19:12:50.097995  8952 net.cpp:425] loss1/relu_fc <- loss1/fc
I0403 19:12:50.098011  8952 net.cpp:386] loss1/relu_fc -> loss1/fc (in-place)
I0403 19:12:50.098192  8952 net.cpp:141] Setting up loss1/relu_fc
I0403 19:12:50.098224  8952 net.cpp:148] Top shape: 24 1024 (24576)
I0403 19:12:50.098240  8952 net.cpp:156] Memory required for data: 946091040
I0403 19:12:50.098254  8952 layer_factory.hpp:77] Creating layer loss1/drop_fc
I0403 19:12:50.098279  8952 net.cpp:91] Creating Layer loss1/drop_fc
I0403 19:12:50.098296  8952 net.cpp:425] loss1/drop_fc <- loss1/fc
I0403 19:12:50.098314  8952 net.cpp:386] loss1/drop_fc -> loss1/fc (in-place)
I0403 19:12:50.098363  8952 net.cpp:141] Setting up loss1/drop_fc
I0403 19:12:50.098386  8952 net.cpp:148] Top shape: 24 1024 (24576)
I0403 19:12:50.098400  8952 net.cpp:156] Memory required for data: 946189344
I0403 19:12:50.098414  8952 layer_factory.hpp:77] Creating layer loss1/classifier_plantvillage
I0403 19:12:50.098435  8952 net.cpp:91] Creating Layer loss1/classifier_plantvillage
I0403 19:12:50.098453  8952 net.cpp:425] loss1/classifier_plantvillage <- loss1/fc
I0403 19:12:50.098469  8952 net.cpp:399] loss1/classifier_plantvillage -> loss1/classifier_plantvillage
I0403 19:12:50.099357  8952 net.cpp:141] Setting up loss1/classifier_plantvillage
I0403 19:12:50.099387  8952 net.cpp:148] Top shape: 24 38 (912)
I0403 19:12:50.099403  8952 net.cpp:156] Memory required for data: 946192992
I0403 19:12:50.099421  8952 layer_factory.hpp:77] Creating layer loss1/classifier_plantvillage_loss1/classifier_plantvillage_0_split
I0403 19:12:50.099438  8952 net.cpp:91] Creating Layer loss1/classifier_plantvillage_loss1/classifier_plantvillage_0_split
I0403 19:12:50.099453  8952 net.cpp:425] loss1/classifier_plantvillage_loss1/classifier_plantvillage_0_split <- loss1/classifier_plantvillage
I0403 19:12:50.099470  8952 net.cpp:399] loss1/classifier_plantvillage_loss1/classifier_plantvillage_0_split -> loss1/classifier_plantvillage_loss1/classifier_plantvillage_0_split_0
I0403 19:12:50.099489  8952 net.cpp:399] loss1/classifier_plantvillage_loss1/classifier_plantvillage_0_split -> loss1/classifier_plantvillage_loss1/classifier_plantvillage_0_split_1
I0403 19:12:50.099510  8952 net.cpp:399] loss1/classifier_plantvillage_loss1/classifier_plantvillage_0_split -> loss1/classifier_plantvillage_loss1/classifier_plantvillage_0_split_2
I0403 19:12:50.099575  8952 net.cpp:141] Setting up loss1/classifier_plantvillage_loss1/classifier_plantvillage_0_split
I0403 19:12:50.099597  8952 net.cpp:148] Top shape: 24 38 (912)
I0403 19:12:50.099613  8952 net.cpp:148] Top shape: 24 38 (912)
I0403 19:12:50.099628  8952 net.cpp:148] Top shape: 24 38 (912)
I0403 19:12:50.099642  8952 net.cpp:156] Memory required for data: 946203936
I0403 19:12:50.099655  8952 layer_factory.hpp:77] Creating layer inception_4b/1x1
I0403 19:12:50.099675  8952 net.cpp:91] Creating Layer inception_4b/1x1
I0403 19:12:50.099706  8952 net.cpp:425] inception_4b/1x1 <- inception_4a/output_inception_4a/output_0_split_1
I0403 19:12:50.099731  8952 net.cpp:399] inception_4b/1x1 -> inception_4b/1x1
I0403 19:12:50.101311  8952 net.cpp:141] Setting up inception_4b/1x1
I0403 19:12:50.101339  8952 net.cpp:148] Top shape: 24 160 14 14 (752640)
I0403 19:12:50.101354  8952 net.cpp:156] Memory required for data: 949214496
I0403 19:12:50.101372  8952 layer_factory.hpp:77] Creating layer inception_4b/relu_1x1
I0403 19:12:50.101389  8952 net.cpp:91] Creating Layer inception_4b/relu_1x1
I0403 19:12:50.101405  8952 net.cpp:425] inception_4b/relu_1x1 <- inception_4b/1x1
I0403 19:12:50.101424  8952 net.cpp:386] inception_4b/relu_1x1 -> inception_4b/1x1 (in-place)
I0403 19:12:50.101613  8952 net.cpp:141] Setting up inception_4b/relu_1x1
I0403 19:12:50.101639  8952 net.cpp:148] Top shape: 24 160 14 14 (752640)
I0403 19:12:50.101652  8952 net.cpp:156] Memory required for data: 952225056
I0403 19:12:50.101668  8952 layer_factory.hpp:77] Creating layer inception_4b/3x3_reduce
I0403 19:12:50.101691  8952 net.cpp:91] Creating Layer inception_4b/3x3_reduce
I0403 19:12:50.101707  8952 net.cpp:425] inception_4b/3x3_reduce <- inception_4a/output_inception_4a/output_0_split_2
I0403 19:12:50.101742  8952 net.cpp:399] inception_4b/3x3_reduce -> inception_4b/3x3_reduce
I0403 19:12:50.103051  8952 net.cpp:141] Setting up inception_4b/3x3_reduce
I0403 19:12:50.103080  8952 net.cpp:148] Top shape: 24 112 14 14 (526848)
I0403 19:12:50.103093  8952 net.cpp:156] Memory required for data: 954332448
I0403 19:12:50.103111  8952 layer_factory.hpp:77] Creating layer inception_4b/relu_3x3_reduce
I0403 19:12:50.103132  8952 net.cpp:91] Creating Layer inception_4b/relu_3x3_reduce
I0403 19:12:50.103148  8952 net.cpp:425] inception_4b/relu_3x3_reduce <- inception_4b/3x3_reduce
I0403 19:12:50.103165  8952 net.cpp:386] inception_4b/relu_3x3_reduce -> inception_4b/3x3_reduce (in-place)
I0403 19:12:50.103441  8952 net.cpp:141] Setting up inception_4b/relu_3x3_reduce
I0403 19:12:50.103467  8952 net.cpp:148] Top shape: 24 112 14 14 (526848)
I0403 19:12:50.103482  8952 net.cpp:156] Memory required for data: 956439840
I0403 19:12:50.103497  8952 layer_factory.hpp:77] Creating layer inception_4b/3x3
I0403 19:12:50.103518  8952 net.cpp:91] Creating Layer inception_4b/3x3
I0403 19:12:50.103534  8952 net.cpp:425] inception_4b/3x3 <- inception_4b/3x3_reduce
I0403 19:12:50.103557  8952 net.cpp:399] inception_4b/3x3 -> inception_4b/3x3
I0403 19:12:50.106475  8952 net.cpp:141] Setting up inception_4b/3x3
I0403 19:12:50.106503  8952 net.cpp:148] Top shape: 24 224 14 14 (1053696)
I0403 19:12:50.106523  8952 net.cpp:156] Memory required for data: 960654624
I0403 19:12:50.106541  8952 layer_factory.hpp:77] Creating layer inception_4b/relu_3x3
I0403 19:12:50.106559  8952 net.cpp:91] Creating Layer inception_4b/relu_3x3
I0403 19:12:50.106575  8952 net.cpp:425] inception_4b/relu_3x3 <- inception_4b/3x3
I0403 19:12:50.106591  8952 net.cpp:386] inception_4b/relu_3x3 -> inception_4b/3x3 (in-place)
I0403 19:12:50.106766  8952 net.cpp:141] Setting up inception_4b/relu_3x3
I0403 19:12:50.106793  8952 net.cpp:148] Top shape: 24 224 14 14 (1053696)
I0403 19:12:50.106809  8952 net.cpp:156] Memory required for data: 964869408
I0403 19:12:50.106823  8952 layer_factory.hpp:77] Creating layer inception_4b/5x5_reduce
I0403 19:12:50.106844  8952 net.cpp:91] Creating Layer inception_4b/5x5_reduce
I0403 19:12:50.106861  8952 net.cpp:425] inception_4b/5x5_reduce <- inception_4a/output_inception_4a/output_0_split_3
I0403 19:12:50.106879  8952 net.cpp:399] inception_4b/5x5_reduce -> inception_4b/5x5_reduce
I0403 19:12:50.107924  8952 net.cpp:141] Setting up inception_4b/5x5_reduce
I0403 19:12:50.107951  8952 net.cpp:148] Top shape: 24 24 14 14 (112896)
I0403 19:12:50.107966  8952 net.cpp:156] Memory required for data: 965320992
I0403 19:12:50.107985  8952 layer_factory.hpp:77] Creating layer inception_4b/relu_5x5_reduce
I0403 19:12:50.108002  8952 net.cpp:91] Creating Layer inception_4b/relu_5x5_reduce
I0403 19:12:50.108031  8952 net.cpp:425] inception_4b/relu_5x5_reduce <- inception_4b/5x5_reduce
I0403 19:12:50.108052  8952 net.cpp:386] inception_4b/relu_5x5_reduce -> inception_4b/5x5_reduce (in-place)
I0403 19:12:50.108234  8952 net.cpp:141] Setting up inception_4b/relu_5x5_reduce
I0403 19:12:50.108258  8952 net.cpp:148] Top shape: 24 24 14 14 (112896)
I0403 19:12:50.108273  8952 net.cpp:156] Memory required for data: 965772576
I0403 19:12:50.108288  8952 layer_factory.hpp:77] Creating layer inception_4b/5x5
I0403 19:12:50.108312  8952 net.cpp:91] Creating Layer inception_4b/5x5
I0403 19:12:50.108330  8952 net.cpp:425] inception_4b/5x5 <- inception_4b/5x5_reduce
I0403 19:12:50.108350  8952 net.cpp:399] inception_4b/5x5 -> inception_4b/5x5
I0403 19:12:50.109570  8952 net.cpp:141] Setting up inception_4b/5x5
I0403 19:12:50.109597  8952 net.cpp:148] Top shape: 24 64 14 14 (301056)
I0403 19:12:50.109612  8952 net.cpp:156] Memory required for data: 966976800
I0403 19:12:50.109632  8952 layer_factory.hpp:77] Creating layer inception_4b/relu_5x5
I0403 19:12:50.109649  8952 net.cpp:91] Creating Layer inception_4b/relu_5x5
I0403 19:12:50.109664  8952 net.cpp:425] inception_4b/relu_5x5 <- inception_4b/5x5
I0403 19:12:50.109684  8952 net.cpp:386] inception_4b/relu_5x5 -> inception_4b/5x5 (in-place)
I0403 19:12:50.109973  8952 net.cpp:141] Setting up inception_4b/relu_5x5
I0403 19:12:50.109999  8952 net.cpp:148] Top shape: 24 64 14 14 (301056)
I0403 19:12:50.110014  8952 net.cpp:156] Memory required for data: 968181024
I0403 19:12:50.110028  8952 layer_factory.hpp:77] Creating layer inception_4b/pool
I0403 19:12:50.110045  8952 net.cpp:91] Creating Layer inception_4b/pool
I0403 19:12:50.110061  8952 net.cpp:425] inception_4b/pool <- inception_4a/output_inception_4a/output_0_split_4
I0403 19:12:50.110082  8952 net.cpp:399] inception_4b/pool -> inception_4b/pool
I0403 19:12:50.110146  8952 net.cpp:141] Setting up inception_4b/pool
I0403 19:12:50.110169  8952 net.cpp:148] Top shape: 24 512 14 14 (2408448)
I0403 19:12:50.110183  8952 net.cpp:156] Memory required for data: 977814816
I0403 19:12:50.110198  8952 layer_factory.hpp:77] Creating layer inception_4b/pool_proj
I0403 19:12:50.110227  8952 net.cpp:91] Creating Layer inception_4b/pool_proj
I0403 19:12:50.110245  8952 net.cpp:425] inception_4b/pool_proj <- inception_4b/pool
I0403 19:12:50.110263  8952 net.cpp:399] inception_4b/pool_proj -> inception_4b/pool_proj
I0403 19:12:50.111428  8952 net.cpp:141] Setting up inception_4b/pool_proj
I0403 19:12:50.111455  8952 net.cpp:148] Top shape: 24 64 14 14 (301056)
I0403 19:12:50.111469  8952 net.cpp:156] Memory required for data: 979019040
I0403 19:12:50.111487  8952 layer_factory.hpp:77] Creating layer inception_4b/relu_pool_proj
I0403 19:12:50.111505  8952 net.cpp:91] Creating Layer inception_4b/relu_pool_proj
I0403 19:12:50.111521  8952 net.cpp:425] inception_4b/relu_pool_proj <- inception_4b/pool_proj
I0403 19:12:50.111541  8952 net.cpp:386] inception_4b/relu_pool_proj -> inception_4b/pool_proj (in-place)
I0403 19:12:50.111717  8952 net.cpp:141] Setting up inception_4b/relu_pool_proj
I0403 19:12:50.111742  8952 net.cpp:148] Top shape: 24 64 14 14 (301056)
I0403 19:12:50.111757  8952 net.cpp:156] Memory required for data: 980223264
I0403 19:12:50.111771  8952 layer_factory.hpp:77] Creating layer inception_4b/output
I0403 19:12:50.111790  8952 net.cpp:91] Creating Layer inception_4b/output
I0403 19:12:50.111806  8952 net.cpp:425] inception_4b/output <- inception_4b/1x1
I0403 19:12:50.111822  8952 net.cpp:425] inception_4b/output <- inception_4b/3x3
I0403 19:12:50.111837  8952 net.cpp:425] inception_4b/output <- inception_4b/5x5
I0403 19:12:50.111852  8952 net.cpp:425] inception_4b/output <- inception_4b/pool_proj
I0403 19:12:50.111870  8952 net.cpp:399] inception_4b/output -> inception_4b/output
I0403 19:12:50.111914  8952 net.cpp:141] Setting up inception_4b/output
I0403 19:12:50.111937  8952 net.cpp:148] Top shape: 24 512 14 14 (2408448)
I0403 19:12:50.111951  8952 net.cpp:156] Memory required for data: 989857056
I0403 19:12:50.111982  8952 layer_factory.hpp:77] Creating layer inception_4b/output_inception_4b/output_0_split
I0403 19:12:50.111999  8952 net.cpp:91] Creating Layer inception_4b/output_inception_4b/output_0_split
I0403 19:12:50.112013  8952 net.cpp:425] inception_4b/output_inception_4b/output_0_split <- inception_4b/output
I0403 19:12:50.112032  8952 net.cpp:399] inception_4b/output_inception_4b/output_0_split -> inception_4b/output_inception_4b/output_0_split_0
I0403 19:12:50.112052  8952 net.cpp:399] inception_4b/output_inception_4b/output_0_split -> inception_4b/output_inception_4b/output_0_split_1
I0403 19:12:50.112071  8952 net.cpp:399] inception_4b/output_inception_4b/output_0_split -> inception_4b/output_inception_4b/output_0_split_2
I0403 19:12:50.112090  8952 net.cpp:399] inception_4b/output_inception_4b/output_0_split -> inception_4b/output_inception_4b/output_0_split_3
I0403 19:12:50.112169  8952 net.cpp:141] Setting up inception_4b/output_inception_4b/output_0_split
I0403 19:12:50.112193  8952 net.cpp:148] Top shape: 24 512 14 14 (2408448)
I0403 19:12:50.112221  8952 net.cpp:148] Top shape: 24 512 14 14 (2408448)
I0403 19:12:50.112241  8952 net.cpp:148] Top shape: 24 512 14 14 (2408448)
I0403 19:12:50.112256  8952 net.cpp:148] Top shape: 24 512 14 14 (2408448)
I0403 19:12:50.112269  8952 net.cpp:156] Memory required for data: 1028392224
I0403 19:12:50.112283  8952 layer_factory.hpp:77] Creating layer inception_4c/1x1
I0403 19:12:50.112306  8952 net.cpp:91] Creating Layer inception_4c/1x1
I0403 19:12:50.112323  8952 net.cpp:425] inception_4c/1x1 <- inception_4b/output_inception_4b/output_0_split_0
I0403 19:12:50.112340  8952 net.cpp:399] inception_4c/1x1 -> inception_4c/1x1
I0403 19:12:50.113867  8952 net.cpp:141] Setting up inception_4c/1x1
I0403 19:12:50.113894  8952 net.cpp:148] Top shape: 24 128 14 14 (602112)
I0403 19:12:50.113909  8952 net.cpp:156] Memory required for data: 1030800672
I0403 19:12:50.113926  8952 layer_factory.hpp:77] Creating layer inception_4c/relu_1x1
I0403 19:12:50.113946  8952 net.cpp:91] Creating Layer inception_4c/relu_1x1
I0403 19:12:50.113963  8952 net.cpp:425] inception_4c/relu_1x1 <- inception_4c/1x1
I0403 19:12:50.113981  8952 net.cpp:386] inception_4c/relu_1x1 -> inception_4c/1x1 (in-place)
I0403 19:12:50.114157  8952 net.cpp:141] Setting up inception_4c/relu_1x1
I0403 19:12:50.114184  8952 net.cpp:148] Top shape: 24 128 14 14 (602112)
I0403 19:12:50.114199  8952 net.cpp:156] Memory required for data: 1033209120
I0403 19:12:50.114220  8952 layer_factory.hpp:77] Creating layer inception_4c/3x3_reduce
I0403 19:12:50.114243  8952 net.cpp:91] Creating Layer inception_4c/3x3_reduce
I0403 19:12:50.114259  8952 net.cpp:425] inception_4c/3x3_reduce <- inception_4b/output_inception_4b/output_0_split_1
I0403 19:12:50.114279  8952 net.cpp:399] inception_4c/3x3_reduce -> inception_4c/3x3_reduce
I0403 19:12:50.116166  8952 net.cpp:141] Setting up inception_4c/3x3_reduce
I0403 19:12:50.116197  8952 net.cpp:148] Top shape: 24 128 14 14 (602112)
I0403 19:12:50.116219  8952 net.cpp:156] Memory required for data: 1035617568
I0403 19:12:50.116238  8952 layer_factory.hpp:77] Creating layer inception_4c/relu_3x3_reduce
I0403 19:12:50.116255  8952 net.cpp:91] Creating Layer inception_4c/relu_3x3_reduce
I0403 19:12:50.116271  8952 net.cpp:425] inception_4c/relu_3x3_reduce <- inception_4c/3x3_reduce
I0403 19:12:50.116291  8952 net.cpp:386] inception_4c/relu_3x3_reduce -> inception_4c/3x3_reduce (in-place)
I0403 19:12:50.116567  8952 net.cpp:141] Setting up inception_4c/relu_3x3_reduce
I0403 19:12:50.116595  8952 net.cpp:148] Top shape: 24 128 14 14 (602112)
I0403 19:12:50.116611  8952 net.cpp:156] Memory required for data: 1038026016
I0403 19:12:50.116637  8952 layer_factory.hpp:77] Creating layer inception_4c/3x3
I0403 19:12:50.116684  8952 net.cpp:91] Creating Layer inception_4c/3x3
I0403 19:12:50.116729  8952 net.cpp:425] inception_4c/3x3 <- inception_4c/3x3_reduce
I0403 19:12:50.116750  8952 net.cpp:399] inception_4c/3x3 -> inception_4c/3x3
I0403 19:12:50.120270  8952 net.cpp:141] Setting up inception_4c/3x3
I0403 19:12:50.120314  8952 net.cpp:148] Top shape: 24 256 14 14 (1204224)
I0403 19:12:50.120331  8952 net.cpp:156] Memory required for data: 1042842912
I0403 19:12:50.120362  8952 layer_factory.hpp:77] Creating layer inception_4c/relu_3x3
I0403 19:12:50.120383  8952 net.cpp:91] Creating Layer inception_4c/relu_3x3
I0403 19:12:50.120398  8952 net.cpp:425] inception_4c/relu_3x3 <- inception_4c/3x3
I0403 19:12:50.120417  8952 net.cpp:386] inception_4c/relu_3x3 -> inception_4c/3x3 (in-place)
I0403 19:12:50.120594  8952 net.cpp:141] Setting up inception_4c/relu_3x3
I0403 19:12:50.120618  8952 net.cpp:148] Top shape: 24 256 14 14 (1204224)
I0403 19:12:50.120633  8952 net.cpp:156] Memory required for data: 1047659808
I0403 19:12:50.120647  8952 layer_factory.hpp:77] Creating layer inception_4c/5x5_reduce
I0403 19:12:50.120671  8952 net.cpp:91] Creating Layer inception_4c/5x5_reduce
I0403 19:12:50.120687  8952 net.cpp:425] inception_4c/5x5_reduce <- inception_4b/output_inception_4b/output_0_split_2
I0403 19:12:50.120708  8952 net.cpp:399] inception_4c/5x5_reduce -> inception_4c/5x5_reduce
I0403 19:12:50.121794  8952 net.cpp:141] Setting up inception_4c/5x5_reduce
I0403 19:12:50.121845  8952 net.cpp:148] Top shape: 24 24 14 14 (112896)
I0403 19:12:50.121886  8952 net.cpp:156] Memory required for data: 1048111392
I0403 19:12:50.121906  8952 layer_factory.hpp:77] Creating layer inception_4c/relu_5x5_reduce
I0403 19:12:50.121923  8952 net.cpp:91] Creating Layer inception_4c/relu_5x5_reduce
I0403 19:12:50.121939  8952 net.cpp:425] inception_4c/relu_5x5_reduce <- inception_4c/5x5_reduce
I0403 19:12:50.121958  8952 net.cpp:386] inception_4c/relu_5x5_reduce -> inception_4c/5x5_reduce (in-place)
I0403 19:12:50.122138  8952 net.cpp:141] Setting up inception_4c/relu_5x5_reduce
I0403 19:12:50.122161  8952 net.cpp:148] Top shape: 24 24 14 14 (112896)
I0403 19:12:50.122175  8952 net.cpp:156] Memory required for data: 1048562976
I0403 19:12:50.122191  8952 layer_factory.hpp:77] Creating layer inception_4c/5x5
I0403 19:12:50.122234  8952 net.cpp:91] Creating Layer inception_4c/5x5
I0403 19:12:50.122256  8952 net.cpp:425] inception_4c/5x5 <- inception_4c/5x5_reduce
I0403 19:12:50.122277  8952 net.cpp:399] inception_4c/5x5 -> inception_4c/5x5
I0403 19:12:50.123491  8952 net.cpp:141] Setting up inception_4c/5x5
I0403 19:12:50.123517  8952 net.cpp:148] Top shape: 24 64 14 14 (301056)
I0403 19:12:50.123531  8952 net.cpp:156] Memory required for data: 1049767200
I0403 19:12:50.123549  8952 layer_factory.hpp:77] Creating layer inception_4c/relu_5x5
I0403 19:12:50.123569  8952 net.cpp:91] Creating Layer inception_4c/relu_5x5
I0403 19:12:50.123585  8952 net.cpp:425] inception_4c/relu_5x5 <- inception_4c/5x5
I0403 19:12:50.123602  8952 net.cpp:386] inception_4c/relu_5x5 -> inception_4c/5x5 (in-place)
I0403 19:12:50.123886  8952 net.cpp:141] Setting up inception_4c/relu_5x5
I0403 19:12:50.123913  8952 net.cpp:148] Top shape: 24 64 14 14 (301056)
I0403 19:12:50.123927  8952 net.cpp:156] Memory required for data: 1050971424
I0403 19:12:50.123942  8952 layer_factory.hpp:77] Creating layer inception_4c/pool
I0403 19:12:50.123961  8952 net.cpp:91] Creating Layer inception_4c/pool
I0403 19:12:50.123977  8952 net.cpp:425] inception_4c/pool <- inception_4b/output_inception_4b/output_0_split_3
I0403 19:12:50.123994  8952 net.cpp:399] inception_4c/pool -> inception_4c/pool
I0403 19:12:50.124058  8952 net.cpp:141] Setting up inception_4c/pool
I0403 19:12:50.124081  8952 net.cpp:148] Top shape: 24 512 14 14 (2408448)
I0403 19:12:50.124096  8952 net.cpp:156] Memory required for data: 1060605216
I0403 19:12:50.124110  8952 layer_factory.hpp:77] Creating layer inception_4c/pool_proj
I0403 19:12:50.124130  8952 net.cpp:91] Creating Layer inception_4c/pool_proj
I0403 19:12:50.124148  8952 net.cpp:425] inception_4c/pool_proj <- inception_4c/pool
I0403 19:12:50.124167  8952 net.cpp:399] inception_4c/pool_proj -> inception_4c/pool_proj
I0403 19:12:50.125360  8952 net.cpp:141] Setting up inception_4c/pool_proj
I0403 19:12:50.125386  8952 net.cpp:148] Top shape: 24 64 14 14 (301056)
I0403 19:12:50.125414  8952 net.cpp:156] Memory required for data: 1061809440
I0403 19:12:50.125445  8952 layer_factory.hpp:77] Creating layer inception_4c/relu_pool_proj
I0403 19:12:50.125463  8952 net.cpp:91] Creating Layer inception_4c/relu_pool_proj
I0403 19:12:50.125479  8952 net.cpp:425] inception_4c/relu_pool_proj <- inception_4c/pool_proj
I0403 19:12:50.125499  8952 net.cpp:386] inception_4c/relu_pool_proj -> inception_4c/pool_proj (in-place)
I0403 19:12:50.125680  8952 net.cpp:141] Setting up inception_4c/relu_pool_proj
I0403 19:12:50.125706  8952 net.cpp:148] Top shape: 24 64 14 14 (301056)
I0403 19:12:50.125720  8952 net.cpp:156] Memory required for data: 1063013664
I0403 19:12:50.125747  8952 layer_factory.hpp:77] Creating layer inception_4c/output
I0403 19:12:50.125766  8952 net.cpp:91] Creating Layer inception_4c/output
I0403 19:12:50.125782  8952 net.cpp:425] inception_4c/output <- inception_4c/1x1
I0403 19:12:50.125797  8952 net.cpp:425] inception_4c/output <- inception_4c/3x3
I0403 19:12:50.125813  8952 net.cpp:425] inception_4c/output <- inception_4c/5x5
I0403 19:12:50.125828  8952 net.cpp:425] inception_4c/output <- inception_4c/pool_proj
I0403 19:12:50.125844  8952 net.cpp:399] inception_4c/output -> inception_4c/output
I0403 19:12:50.125888  8952 net.cpp:141] Setting up inception_4c/output
I0403 19:12:50.125913  8952 net.cpp:148] Top shape: 24 512 14 14 (2408448)
I0403 19:12:50.125929  8952 net.cpp:156] Memory required for data: 1072647456
I0403 19:12:50.125943  8952 layer_factory.hpp:77] Creating layer inception_4c/output_inception_4c/output_0_split
I0403 19:12:50.125959  8952 net.cpp:91] Creating Layer inception_4c/output_inception_4c/output_0_split
I0403 19:12:50.125974  8952 net.cpp:425] inception_4c/output_inception_4c/output_0_split <- inception_4c/output
I0403 19:12:50.125993  8952 net.cpp:399] inception_4c/output_inception_4c/output_0_split -> inception_4c/output_inception_4c/output_0_split_0
I0403 19:12:50.126013  8952 net.cpp:399] inception_4c/output_inception_4c/output_0_split -> inception_4c/output_inception_4c/output_0_split_1
I0403 19:12:50.126032  8952 net.cpp:399] inception_4c/output_inception_4c/output_0_split -> inception_4c/output_inception_4c/output_0_split_2
I0403 19:12:50.126051  8952 net.cpp:399] inception_4c/output_inception_4c/output_0_split -> inception_4c/output_inception_4c/output_0_split_3
I0403 19:12:50.126132  8952 net.cpp:141] Setting up inception_4c/output_inception_4c/output_0_split
I0403 19:12:50.126157  8952 net.cpp:148] Top shape: 24 512 14 14 (2408448)
I0403 19:12:50.126173  8952 net.cpp:148] Top shape: 24 512 14 14 (2408448)
I0403 19:12:50.126189  8952 net.cpp:148] Top shape: 24 512 14 14 (2408448)
I0403 19:12:50.126204  8952 net.cpp:148] Top shape: 24 512 14 14 (2408448)
I0403 19:12:50.126225  8952 net.cpp:156] Memory required for data: 1111182624
I0403 19:12:50.126240  8952 layer_factory.hpp:77] Creating layer inception_4d/1x1
I0403 19:12:50.126261  8952 net.cpp:91] Creating Layer inception_4d/1x1
I0403 19:12:50.126278  8952 net.cpp:425] inception_4d/1x1 <- inception_4c/output_inception_4c/output_0_split_0
I0403 19:12:50.126296  8952 net.cpp:399] inception_4d/1x1 -> inception_4d/1x1
I0403 19:12:50.127647  8952 net.cpp:141] Setting up inception_4d/1x1
I0403 19:12:50.127681  8952 net.cpp:148] Top shape: 24 112 14 14 (526848)
I0403 19:12:50.127697  8952 net.cpp:156] Memory required for data: 1113290016
I0403 19:12:50.127715  8952 layer_factory.hpp:77] Creating layer inception_4d/relu_1x1
I0403 19:12:50.127732  8952 net.cpp:91] Creating Layer inception_4d/relu_1x1
I0403 19:12:50.127748  8952 net.cpp:425] inception_4d/relu_1x1 <- inception_4d/1x1
I0403 19:12:50.127764  8952 net.cpp:386] inception_4d/relu_1x1 -> inception_4d/1x1 (in-place)
I0403 19:12:50.127943  8952 net.cpp:141] Setting up inception_4d/relu_1x1
I0403 19:12:50.127969  8952 net.cpp:148] Top shape: 24 112 14 14 (526848)
I0403 19:12:50.127985  8952 net.cpp:156] Memory required for data: 1115397408
I0403 19:12:50.127998  8952 layer_factory.hpp:77] Creating layer inception_4d/3x3_reduce
I0403 19:12:50.128032  8952 net.cpp:91] Creating Layer inception_4d/3x3_reduce
I0403 19:12:50.128051  8952 net.cpp:425] inception_4d/3x3_reduce <- inception_4c/output_inception_4c/output_0_split_1
I0403 19:12:50.128070  8952 net.cpp:399] inception_4d/3x3_reduce -> inception_4d/3x3_reduce
I0403 19:12:50.129559  8952 net.cpp:141] Setting up inception_4d/3x3_reduce
I0403 19:12:50.129586  8952 net.cpp:148] Top shape: 24 144 14 14 (677376)
I0403 19:12:50.129601  8952 net.cpp:156] Memory required for data: 1118106912
I0403 19:12:50.129619  8952 layer_factory.hpp:77] Creating layer inception_4d/relu_3x3_reduce
I0403 19:12:50.129639  8952 net.cpp:91] Creating Layer inception_4d/relu_3x3_reduce
I0403 19:12:50.129657  8952 net.cpp:425] inception_4d/relu_3x3_reduce <- inception_4d/3x3_reduce
I0403 19:12:50.129674  8952 net.cpp:386] inception_4d/relu_3x3_reduce -> inception_4d/3x3_reduce (in-place)
I0403 19:12:50.129974  8952 net.cpp:141] Setting up inception_4d/relu_3x3_reduce
I0403 19:12:50.129999  8952 net.cpp:148] Top shape: 24 144 14 14 (677376)
I0403 19:12:50.130014  8952 net.cpp:156] Memory required for data: 1120816416
I0403 19:12:50.130028  8952 layer_factory.hpp:77] Creating layer inception_4d/3x3
I0403 19:12:50.130050  8952 net.cpp:91] Creating Layer inception_4d/3x3
I0403 19:12:50.130067  8952 net.cpp:425] inception_4d/3x3 <- inception_4d/3x3_reduce
I0403 19:12:50.130087  8952 net.cpp:399] inception_4d/3x3 -> inception_4d/3x3
I0403 19:12:50.135360  8952 net.cpp:141] Setting up inception_4d/3x3
I0403 19:12:50.135393  8952 net.cpp:148] Top shape: 24 288 14 14 (1354752)
I0403 19:12:50.135411  8952 net.cpp:156] Memory required for data: 1126235424
I0403 19:12:50.135429  8952 layer_factory.hpp:77] Creating layer inception_4d/relu_3x3
I0403 19:12:50.135447  8952 net.cpp:91] Creating Layer inception_4d/relu_3x3
I0403 19:12:50.135463  8952 net.cpp:425] inception_4d/relu_3x3 <- inception_4d/3x3
I0403 19:12:50.135484  8952 net.cpp:386] inception_4d/relu_3x3 -> inception_4d/3x3 (in-place)
I0403 19:12:50.135670  8952 net.cpp:141] Setting up inception_4d/relu_3x3
I0403 19:12:50.135695  8952 net.cpp:148] Top shape: 24 288 14 14 (1354752)
I0403 19:12:50.135710  8952 net.cpp:156] Memory required for data: 1131654432
I0403 19:12:50.135725  8952 layer_factory.hpp:77] Creating layer inception_4d/5x5_reduce
I0403 19:12:50.135747  8952 net.cpp:91] Creating Layer inception_4d/5x5_reduce
I0403 19:12:50.135766  8952 net.cpp:425] inception_4d/5x5_reduce <- inception_4c/output_inception_4c/output_0_split_2
I0403 19:12:50.135787  8952 net.cpp:399] inception_4d/5x5_reduce -> inception_4d/5x5_reduce
I0403 19:12:50.136929  8952 net.cpp:141] Setting up inception_4d/5x5_reduce
I0403 19:12:50.136960  8952 net.cpp:148] Top shape: 24 32 14 14 (150528)
I0403 19:12:50.136976  8952 net.cpp:156] Memory required for data: 1132256544
I0403 19:12:50.136996  8952 layer_factory.hpp:77] Creating layer inception_4d/relu_5x5_reduce
I0403 19:12:50.137012  8952 net.cpp:91] Creating Layer inception_4d/relu_5x5_reduce
I0403 19:12:50.137029  8952 net.cpp:425] inception_4d/relu_5x5_reduce <- inception_4d/5x5_reduce
I0403 19:12:50.137048  8952 net.cpp:386] inception_4d/relu_5x5_reduce -> inception_4d/5x5_reduce (in-place)
I0403 19:12:50.137241  8952 net.cpp:141] Setting up inception_4d/relu_5x5_reduce
I0403 19:12:50.137266  8952 net.cpp:148] Top shape: 24 32 14 14 (150528)
I0403 19:12:50.137282  8952 net.cpp:156] Memory required for data: 1132858656
I0403 19:12:50.137297  8952 layer_factory.hpp:77] Creating layer inception_4d/5x5
I0403 19:12:50.137320  8952 net.cpp:91] Creating Layer inception_4d/5x5
I0403 19:12:50.137336  8952 net.cpp:425] inception_4d/5x5 <- inception_4d/5x5_reduce
I0403 19:12:50.137357  8952 net.cpp:399] inception_4d/5x5 -> inception_4d/5x5
I0403 19:12:50.138845  8952 net.cpp:141] Setting up inception_4d/5x5
I0403 19:12:50.138873  8952 net.cpp:148] Top shape: 24 64 14 14 (301056)
I0403 19:12:50.138888  8952 net.cpp:156] Memory required for data: 1134062880
I0403 19:12:50.138908  8952 layer_factory.hpp:77] Creating layer inception_4d/relu_5x5
I0403 19:12:50.138943  8952 net.cpp:91] Creating Layer inception_4d/relu_5x5
I0403 19:12:50.138962  8952 net.cpp:425] inception_4d/relu_5x5 <- inception_4d/5x5
I0403 19:12:50.138979  8952 net.cpp:386] inception_4d/relu_5x5 -> inception_4d/5x5 (in-place)
I0403 19:12:50.139284  8952 net.cpp:141] Setting up inception_4d/relu_5x5
I0403 19:12:50.139312  8952 net.cpp:148] Top shape: 24 64 14 14 (301056)
I0403 19:12:50.139325  8952 net.cpp:156] Memory required for data: 1135267104
I0403 19:12:50.139341  8952 layer_factory.hpp:77] Creating layer inception_4d/pool
I0403 19:12:50.139358  8952 net.cpp:91] Creating Layer inception_4d/pool
I0403 19:12:50.139382  8952 net.cpp:425] inception_4d/pool <- inception_4c/output_inception_4c/output_0_split_3
I0403 19:12:50.139400  8952 net.cpp:399] inception_4d/pool -> inception_4d/pool
I0403 19:12:50.139467  8952 net.cpp:141] Setting up inception_4d/pool
I0403 19:12:50.139490  8952 net.cpp:148] Top shape: 24 512 14 14 (2408448)
I0403 19:12:50.139505  8952 net.cpp:156] Memory required for data: 1144900896
I0403 19:12:50.139520  8952 layer_factory.hpp:77] Creating layer inception_4d/pool_proj
I0403 19:12:50.139542  8952 net.cpp:91] Creating Layer inception_4d/pool_proj
I0403 19:12:50.139559  8952 net.cpp:425] inception_4d/pool_proj <- inception_4d/pool
I0403 19:12:50.139580  8952 net.cpp:399] inception_4d/pool_proj -> inception_4d/pool_proj
I0403 19:12:50.141342  8952 net.cpp:141] Setting up inception_4d/pool_proj
I0403 19:12:50.141374  8952 net.cpp:148] Top shape: 24 64 14 14 (301056)
I0403 19:12:50.141391  8952 net.cpp:156] Memory required for data: 1146105120
I0403 19:12:50.141408  8952 layer_factory.hpp:77] Creating layer inception_4d/relu_pool_proj
I0403 19:12:50.141427  8952 net.cpp:91] Creating Layer inception_4d/relu_pool_proj
I0403 19:12:50.141455  8952 net.cpp:425] inception_4d/relu_pool_proj <- inception_4d/pool_proj
I0403 19:12:50.141474  8952 net.cpp:386] inception_4d/relu_pool_proj -> inception_4d/pool_proj (in-place)
I0403 19:12:50.141665  8952 net.cpp:141] Setting up inception_4d/relu_pool_proj
I0403 19:12:50.141690  8952 net.cpp:148] Top shape: 24 64 14 14 (301056)
I0403 19:12:50.141705  8952 net.cpp:156] Memory required for data: 1147309344
I0403 19:12:50.141721  8952 layer_factory.hpp:77] Creating layer inception_4d/output
I0403 19:12:50.141749  8952 net.cpp:91] Creating Layer inception_4d/output
I0403 19:12:50.141765  8952 net.cpp:425] inception_4d/output <- inception_4d/1x1
I0403 19:12:50.141782  8952 net.cpp:425] inception_4d/output <- inception_4d/3x3
I0403 19:12:50.141798  8952 net.cpp:425] inception_4d/output <- inception_4d/5x5
I0403 19:12:50.141813  8952 net.cpp:425] inception_4d/output <- inception_4d/pool_proj
I0403 19:12:50.141832  8952 net.cpp:399] inception_4d/output -> inception_4d/output
I0403 19:12:50.141880  8952 net.cpp:141] Setting up inception_4d/output
I0403 19:12:50.141904  8952 net.cpp:148] Top shape: 24 528 14 14 (2483712)
I0403 19:12:50.141929  8952 net.cpp:156] Memory required for data: 1157244192
I0403 19:12:50.141943  8952 layer_factory.hpp:77] Creating layer inception_4d/output_inception_4d/output_0_split
I0403 19:12:50.141962  8952 net.cpp:91] Creating Layer inception_4d/output_inception_4d/output_0_split
I0403 19:12:50.141978  8952 net.cpp:425] inception_4d/output_inception_4d/output_0_split <- inception_4d/output
I0403 19:12:50.141994  8952 net.cpp:399] inception_4d/output_inception_4d/output_0_split -> inception_4d/output_inception_4d/output_0_split_0
I0403 19:12:50.142016  8952 net.cpp:399] inception_4d/output_inception_4d/output_0_split -> inception_4d/output_inception_4d/output_0_split_1
I0403 19:12:50.142037  8952 net.cpp:399] inception_4d/output_inception_4d/output_0_split -> inception_4d/output_inception_4d/output_0_split_2
I0403 19:12:50.142058  8952 net.cpp:399] inception_4d/output_inception_4d/output_0_split -> inception_4d/output_inception_4d/output_0_split_3
I0403 19:12:50.142077  8952 net.cpp:399] inception_4d/output_inception_4d/output_0_split -> inception_4d/output_inception_4d/output_0_split_4
I0403 19:12:50.142177  8952 net.cpp:141] Setting up inception_4d/output_inception_4d/output_0_split
I0403 19:12:50.142232  8952 net.cpp:148] Top shape: 24 528 14 14 (2483712)
I0403 19:12:50.142253  8952 net.cpp:148] Top shape: 24 528 14 14 (2483712)
I0403 19:12:50.142271  8952 net.cpp:148] Top shape: 24 528 14 14 (2483712)
I0403 19:12:50.142287  8952 net.cpp:148] Top shape: 24 528 14 14 (2483712)
I0403 19:12:50.142303  8952 net.cpp:148] Top shape: 24 528 14 14 (2483712)
I0403 19:12:50.142318  8952 net.cpp:156] Memory required for data: 1206918432
I0403 19:12:50.142331  8952 layer_factory.hpp:77] Creating layer loss2/ave_pool
I0403 19:12:50.142349  8952 net.cpp:91] Creating Layer loss2/ave_pool
I0403 19:12:50.142364  8952 net.cpp:425] loss2/ave_pool <- inception_4d/output_inception_4d/output_0_split_0
I0403 19:12:50.142382  8952 net.cpp:399] loss2/ave_pool -> loss2/ave_pool
I0403 19:12:50.142711  8952 net.cpp:141] Setting up loss2/ave_pool
I0403 19:12:50.142740  8952 net.cpp:148] Top shape: 24 528 4 4 (202752)
I0403 19:12:50.142756  8952 net.cpp:156] Memory required for data: 1207729440
I0403 19:12:50.142771  8952 layer_factory.hpp:77] Creating layer loss2/conv
I0403 19:12:50.142794  8952 net.cpp:91] Creating Layer loss2/conv
I0403 19:12:50.142812  8952 net.cpp:425] loss2/conv <- loss2/ave_pool
I0403 19:12:50.142832  8952 net.cpp:399] loss2/conv -> loss2/conv
I0403 19:12:50.144737  8952 net.cpp:141] Setting up loss2/conv
I0403 19:12:50.144765  8952 net.cpp:148] Top shape: 24 128 4 4 (49152)
I0403 19:12:50.144793  8952 net.cpp:156] Memory required for data: 1207926048
I0403 19:12:50.144814  8952 layer_factory.hpp:77] Creating layer loss2/relu_conv
I0403 19:12:50.144834  8952 net.cpp:91] Creating Layer loss2/relu_conv
I0403 19:12:50.144852  8952 net.cpp:425] loss2/relu_conv <- loss2/conv
I0403 19:12:50.144870  8952 net.cpp:386] loss2/relu_conv -> loss2/conv (in-place)
I0403 19:12:50.145169  8952 net.cpp:141] Setting up loss2/relu_conv
I0403 19:12:50.145195  8952 net.cpp:148] Top shape: 24 128 4 4 (49152)
I0403 19:12:50.145215  8952 net.cpp:156] Memory required for data: 1208122656
I0403 19:12:50.145233  8952 layer_factory.hpp:77] Creating layer loss2/fc
I0403 19:12:50.145256  8952 net.cpp:91] Creating Layer loss2/fc
I0403 19:12:50.145274  8952 net.cpp:425] loss2/fc <- loss2/conv
I0403 19:12:50.145294  8952 net.cpp:399] loss2/fc -> loss2/fc
I0403 19:12:50.163825  8952 net.cpp:141] Setting up loss2/fc
I0403 19:12:50.163864  8952 net.cpp:148] Top shape: 24 1024 (24576)
I0403 19:12:50.163880  8952 net.cpp:156] Memory required for data: 1208220960
I0403 19:12:50.163899  8952 layer_factory.hpp:77] Creating layer loss2/relu_fc
I0403 19:12:50.163919  8952 net.cpp:91] Creating Layer loss2/relu_fc
I0403 19:12:50.163936  8952 net.cpp:425] loss2/relu_fc <- loss2/fc
I0403 19:12:50.163956  8952 net.cpp:386] loss2/relu_fc -> loss2/fc (in-place)
I0403 19:12:50.164276  8952 net.cpp:141] Setting up loss2/relu_fc
I0403 19:12:50.164302  8952 net.cpp:148] Top shape: 24 1024 (24576)
I0403 19:12:50.164319  8952 net.cpp:156] Memory required for data: 1208319264
I0403 19:12:50.164335  8952 layer_factory.hpp:77] Creating layer loss2/drop_fc
I0403 19:12:50.164353  8952 net.cpp:91] Creating Layer loss2/drop_fc
I0403 19:12:50.164369  8952 net.cpp:425] loss2/drop_fc <- loss2/fc
I0403 19:12:50.164389  8952 net.cpp:386] loss2/drop_fc -> loss2/fc (in-place)
I0403 19:12:50.164439  8952 net.cpp:141] Setting up loss2/drop_fc
I0403 19:12:50.164463  8952 net.cpp:148] Top shape: 24 1024 (24576)
I0403 19:12:50.164479  8952 net.cpp:156] Memory required for data: 1208417568
I0403 19:12:50.164494  8952 layer_factory.hpp:77] Creating layer loss2/classifier_plantvillage
I0403 19:12:50.164515  8952 net.cpp:91] Creating Layer loss2/classifier_plantvillage
I0403 19:12:50.164531  8952 net.cpp:425] loss2/classifier_plantvillage <- loss2/fc
I0403 19:12:50.164553  8952 net.cpp:399] loss2/classifier_plantvillage -> loss2/classifier_plantvillage
I0403 19:12:50.164971  8952 net.cpp:141] Setting up loss2/classifier_plantvillage
I0403 19:12:50.164997  8952 net.cpp:148] Top shape: 24 38 (912)
I0403 19:12:50.165030  8952 net.cpp:156] Memory required for data: 1208421216
I0403 19:12:50.165050  8952 layer_factory.hpp:77] Creating layer loss2/classifier_plantvillage_loss2/classifier_plantvillage_0_split
I0403 19:12:50.165068  8952 net.cpp:91] Creating Layer loss2/classifier_plantvillage_loss2/classifier_plantvillage_0_split
I0403 19:12:50.165086  8952 net.cpp:425] loss2/classifier_plantvillage_loss2/classifier_plantvillage_0_split <- loss2/classifier_plantvillage
I0403 19:12:50.165107  8952 net.cpp:399] loss2/classifier_plantvillage_loss2/classifier_plantvillage_0_split -> loss2/classifier_plantvillage_loss2/classifier_plantvillage_0_split_0
I0403 19:12:50.165127  8952 net.cpp:399] loss2/classifier_plantvillage_loss2/classifier_plantvillage_0_split -> loss2/classifier_plantvillage_loss2/classifier_plantvillage_0_split_1
I0403 19:12:50.165148  8952 net.cpp:399] loss2/classifier_plantvillage_loss2/classifier_plantvillage_0_split -> loss2/classifier_plantvillage_loss2/classifier_plantvillage_0_split_2
I0403 19:12:50.165236  8952 net.cpp:141] Setting up loss2/classifier_plantvillage_loss2/classifier_plantvillage_0_split
I0403 19:12:50.165261  8952 net.cpp:148] Top shape: 24 38 (912)
I0403 19:12:50.165277  8952 net.cpp:148] Top shape: 24 38 (912)
I0403 19:12:50.165294  8952 net.cpp:148] Top shape: 24 38 (912)
I0403 19:12:50.165309  8952 net.cpp:156] Memory required for data: 1208432160
I0403 19:12:50.165324  8952 layer_factory.hpp:77] Creating layer inception_4e/1x1
I0403 19:12:50.165348  8952 net.cpp:91] Creating Layer inception_4e/1x1
I0403 19:12:50.165365  8952 net.cpp:425] inception_4e/1x1 <- inception_4d/output_inception_4d/output_0_split_1
I0403 19:12:50.165385  8952 net.cpp:399] inception_4e/1x1 -> inception_4e/1x1
I0403 19:12:50.167299  8952 net.cpp:141] Setting up inception_4e/1x1
I0403 19:12:50.167328  8952 net.cpp:148] Top shape: 24 256 14 14 (1204224)
I0403 19:12:50.167345  8952 net.cpp:156] Memory required for data: 1213249056
I0403 19:12:50.167363  8952 layer_factory.hpp:77] Creating layer inception_4e/relu_1x1
I0403 19:12:50.167384  8952 net.cpp:91] Creating Layer inception_4e/relu_1x1
I0403 19:12:50.167402  8952 net.cpp:425] inception_4e/relu_1x1 <- inception_4e/1x1
I0403 19:12:50.167419  8952 net.cpp:386] inception_4e/relu_1x1 -> inception_4e/1x1 (in-place)
I0403 19:12:50.167724  8952 net.cpp:141] Setting up inception_4e/relu_1x1
I0403 19:12:50.167757  8952 net.cpp:148] Top shape: 24 256 14 14 (1204224)
I0403 19:12:50.167774  8952 net.cpp:156] Memory required for data: 1218065952
I0403 19:12:50.167817  8952 layer_factory.hpp:77] Creating layer inception_4e/3x3_reduce
I0403 19:12:50.167841  8952 net.cpp:91] Creating Layer inception_4e/3x3_reduce
I0403 19:12:50.167860  8952 net.cpp:425] inception_4e/3x3_reduce <- inception_4d/output_inception_4d/output_0_split_2
I0403 19:12:50.167881  8952 net.cpp:399] inception_4e/3x3_reduce -> inception_4e/3x3_reduce
I0403 19:12:50.170106  8952 net.cpp:141] Setting up inception_4e/3x3_reduce
I0403 19:12:50.170136  8952 net.cpp:148] Top shape: 24 160 14 14 (752640)
I0403 19:12:50.170152  8952 net.cpp:156] Memory required for data: 1221076512
I0403 19:12:50.170171  8952 layer_factory.hpp:77] Creating layer inception_4e/relu_3x3_reduce
I0403 19:12:50.170189  8952 net.cpp:91] Creating Layer inception_4e/relu_3x3_reduce
I0403 19:12:50.170207  8952 net.cpp:425] inception_4e/relu_3x3_reduce <- inception_4e/3x3_reduce
I0403 19:12:50.170233  8952 net.cpp:386] inception_4e/relu_3x3_reduce -> inception_4e/3x3_reduce (in-place)
I0403 19:12:50.170426  8952 net.cpp:141] Setting up inception_4e/relu_3x3_reduce
I0403 19:12:50.170452  8952 net.cpp:148] Top shape: 24 160 14 14 (752640)
I0403 19:12:50.170469  8952 net.cpp:156] Memory required for data: 1224087072
I0403 19:12:50.170483  8952 layer_factory.hpp:77] Creating layer inception_4e/3x3
I0403 19:12:50.170506  8952 net.cpp:91] Creating Layer inception_4e/3x3
I0403 19:12:50.170526  8952 net.cpp:425] inception_4e/3x3 <- inception_4e/3x3_reduce
I0403 19:12:50.170547  8952 net.cpp:399] inception_4e/3x3 -> inception_4e/3x3
I0403 19:12:50.175711  8952 net.cpp:141] Setting up inception_4e/3x3
I0403 19:12:50.175753  8952 net.cpp:148] Top shape: 24 320 14 14 (1505280)
I0403 19:12:50.175770  8952 net.cpp:156] Memory required for data: 1230108192
I0403 19:12:50.175788  8952 layer_factory.hpp:77] Creating layer inception_4e/relu_3x3
I0403 19:12:50.175808  8952 net.cpp:91] Creating Layer inception_4e/relu_3x3
I0403 19:12:50.175835  8952 net.cpp:425] inception_4e/relu_3x3 <- inception_4e/3x3
I0403 19:12:50.175853  8952 net.cpp:386] inception_4e/relu_3x3 -> inception_4e/3x3 (in-place)
I0403 19:12:50.176152  8952 net.cpp:141] Setting up inception_4e/relu_3x3
I0403 19:12:50.176182  8952 net.cpp:148] Top shape: 24 320 14 14 (1505280)
I0403 19:12:50.176197  8952 net.cpp:156] Memory required for data: 1236129312
I0403 19:12:50.176218  8952 layer_factory.hpp:77] Creating layer inception_4e/5x5_reduce
I0403 19:12:50.176244  8952 net.cpp:91] Creating Layer inception_4e/5x5_reduce
I0403 19:12:50.176261  8952 net.cpp:425] inception_4e/5x5_reduce <- inception_4d/output_inception_4d/output_0_split_3
I0403 19:12:50.176280  8952 net.cpp:399] inception_4e/5x5_reduce -> inception_4e/5x5_reduce
I0403 19:12:50.177372  8952 net.cpp:141] Setting up inception_4e/5x5_reduce
I0403 19:12:50.177402  8952 net.cpp:148] Top shape: 24 32 14 14 (150528)
I0403 19:12:50.177417  8952 net.cpp:156] Memory required for data: 1236731424
I0403 19:12:50.177448  8952 layer_factory.hpp:77] Creating layer inception_4e/relu_5x5_reduce
I0403 19:12:50.177474  8952 net.cpp:91] Creating Layer inception_4e/relu_5x5_reduce
I0403 19:12:50.177492  8952 net.cpp:425] inception_4e/relu_5x5_reduce <- inception_4e/5x5_reduce
I0403 19:12:50.177523  8952 net.cpp:386] inception_4e/relu_5x5_reduce -> inception_4e/5x5_reduce (in-place)
I0403 19:12:50.177839  8952 net.cpp:141] Setting up inception_4e/relu_5x5_reduce
I0403 19:12:50.177865  8952 net.cpp:148] Top shape: 24 32 14 14 (150528)
I0403 19:12:50.177881  8952 net.cpp:156] Memory required for data: 1237333536
I0403 19:12:50.177896  8952 layer_factory.hpp:77] Creating layer inception_4e/5x5
I0403 19:12:50.177934  8952 net.cpp:91] Creating Layer inception_4e/5x5
I0403 19:12:50.177953  8952 net.cpp:425] inception_4e/5x5 <- inception_4e/5x5_reduce
I0403 19:12:50.177973  8952 net.cpp:399] inception_4e/5x5 -> inception_4e/5x5
I0403 19:12:50.179879  8952 net.cpp:141] Setting up inception_4e/5x5
I0403 19:12:50.179929  8952 net.cpp:148] Top shape: 24 128 14 14 (602112)
I0403 19:12:50.179970  8952 net.cpp:156] Memory required for data: 1239741984
I0403 19:12:50.179998  8952 layer_factory.hpp:77] Creating layer inception_4e/relu_5x5
I0403 19:12:50.180016  8952 net.cpp:91] Creating Layer inception_4e/relu_5x5
I0403 19:12:50.180032  8952 net.cpp:425] inception_4e/relu_5x5 <- inception_4e/5x5
I0403 19:12:50.180052  8952 net.cpp:386] inception_4e/relu_5x5 -> inception_4e/5x5 (in-place)
I0403 19:12:50.180256  8952 net.cpp:141] Setting up inception_4e/relu_5x5
I0403 19:12:50.180281  8952 net.cpp:148] Top shape: 24 128 14 14 (602112)
I0403 19:12:50.180296  8952 net.cpp:156] Memory required for data: 1242150432
I0403 19:12:50.180311  8952 layer_factory.hpp:77] Creating layer inception_4e/pool
I0403 19:12:50.180330  8952 net.cpp:91] Creating Layer inception_4e/pool
I0403 19:12:50.180344  8952 net.cpp:425] inception_4e/pool <- inception_4d/output_inception_4d/output_0_split_4
I0403 19:12:50.180364  8952 net.cpp:399] inception_4e/pool -> inception_4e/pool
I0403 19:12:50.180434  8952 net.cpp:141] Setting up inception_4e/pool
I0403 19:12:50.180459  8952 net.cpp:148] Top shape: 24 528 14 14 (2483712)
I0403 19:12:50.180472  8952 net.cpp:156] Memory required for data: 1252085280
I0403 19:12:50.180487  8952 layer_factory.hpp:77] Creating layer inception_4e/pool_proj
I0403 19:12:50.180511  8952 net.cpp:91] Creating Layer inception_4e/pool_proj
I0403 19:12:50.180528  8952 net.cpp:425] inception_4e/pool_proj <- inception_4e/pool
I0403 19:12:50.180547  8952 net.cpp:399] inception_4e/pool_proj -> inception_4e/pool_proj
I0403 19:12:50.182081  8952 net.cpp:141] Setting up inception_4e/pool_proj
I0403 19:12:50.182126  8952 net.cpp:148] Top shape: 24 128 14 14 (602112)
I0403 19:12:50.182143  8952 net.cpp:156] Memory required for data: 1254493728
I0403 19:12:50.182163  8952 layer_factory.hpp:77] Creating layer inception_4e/relu_pool_proj
I0403 19:12:50.182180  8952 net.cpp:91] Creating Layer inception_4e/relu_pool_proj
I0403 19:12:50.182196  8952 net.cpp:425] inception_4e/relu_pool_proj <- inception_4e/pool_proj
I0403 19:12:50.182229  8952 net.cpp:386] inception_4e/relu_pool_proj -> inception_4e/pool_proj (in-place)
I0403 19:12:50.182523  8952 net.cpp:141] Setting up inception_4e/relu_pool_proj
I0403 19:12:50.182551  8952 net.cpp:148] Top shape: 24 128 14 14 (602112)
I0403 19:12:50.182567  8952 net.cpp:156] Memory required for data: 1256902176
I0403 19:12:50.182582  8952 layer_factory.hpp:77] Creating layer inception_4e/output
I0403 19:12:50.182600  8952 net.cpp:91] Creating Layer inception_4e/output
I0403 19:12:50.182615  8952 net.cpp:425] inception_4e/output <- inception_4e/1x1
I0403 19:12:50.182632  8952 net.cpp:425] inception_4e/output <- inception_4e/3x3
I0403 19:12:50.182648  8952 net.cpp:425] inception_4e/output <- inception_4e/5x5
I0403 19:12:50.182663  8952 net.cpp:425] inception_4e/output <- inception_4e/pool_proj
I0403 19:12:50.182682  8952 net.cpp:399] inception_4e/output -> inception_4e/output
I0403 19:12:50.182731  8952 net.cpp:141] Setting up inception_4e/output
I0403 19:12:50.182755  8952 net.cpp:148] Top shape: 24 832 14 14 (3913728)
I0403 19:12:50.182770  8952 net.cpp:156] Memory required for data: 1272557088
I0403 19:12:50.182785  8952 layer_factory.hpp:77] Creating layer pool4/3x3_s2
I0403 19:12:50.182806  8952 net.cpp:91] Creating Layer pool4/3x3_s2
I0403 19:12:50.182821  8952 net.cpp:425] pool4/3x3_s2 <- inception_4e/output
I0403 19:12:50.182839  8952 net.cpp:399] pool4/3x3_s2 -> pool4/3x3_s2
I0403 19:12:50.182909  8952 net.cpp:141] Setting up pool4/3x3_s2
I0403 19:12:50.182932  8952 net.cpp:148] Top shape: 24 832 7 7 (978432)
I0403 19:12:50.182947  8952 net.cpp:156] Memory required for data: 1276470816
I0403 19:12:50.182962  8952 layer_factory.hpp:77] Creating layer pool4/3x3_s2_pool4/3x3_s2_0_split
I0403 19:12:50.182979  8952 net.cpp:91] Creating Layer pool4/3x3_s2_pool4/3x3_s2_0_split
I0403 19:12:50.182996  8952 net.cpp:425] pool4/3x3_s2_pool4/3x3_s2_0_split <- pool4/3x3_s2
I0403 19:12:50.183014  8952 net.cpp:399] pool4/3x3_s2_pool4/3x3_s2_0_split -> pool4/3x3_s2_pool4/3x3_s2_0_split_0
I0403 19:12:50.183035  8952 net.cpp:399] pool4/3x3_s2_pool4/3x3_s2_0_split -> pool4/3x3_s2_pool4/3x3_s2_0_split_1
I0403 19:12:50.183055  8952 net.cpp:399] pool4/3x3_s2_pool4/3x3_s2_0_split -> pool4/3x3_s2_pool4/3x3_s2_0_split_2
I0403 19:12:50.183075  8952 net.cpp:399] pool4/3x3_s2_pool4/3x3_s2_0_split -> pool4/3x3_s2_pool4/3x3_s2_0_split_3
I0403 19:12:50.183167  8952 net.cpp:141] Setting up pool4/3x3_s2_pool4/3x3_s2_0_split
I0403 19:12:50.183190  8952 net.cpp:148] Top shape: 24 832 7 7 (978432)
I0403 19:12:50.183207  8952 net.cpp:148] Top shape: 24 832 7 7 (978432)
I0403 19:12:50.183230  8952 net.cpp:148] Top shape: 24 832 7 7 (978432)
I0403 19:12:50.183248  8952 net.cpp:148] Top shape: 24 832 7 7 (978432)
I0403 19:12:50.183261  8952 net.cpp:156] Memory required for data: 1292125728
I0403 19:12:50.183276  8952 layer_factory.hpp:77] Creating layer inception_5a/1x1
I0403 19:12:50.183298  8952 net.cpp:91] Creating Layer inception_5a/1x1
I0403 19:12:50.183316  8952 net.cpp:425] inception_5a/1x1 <- pool4/3x3_s2_pool4/3x3_s2_0_split_0
I0403 19:12:50.183337  8952 net.cpp:399] inception_5a/1x1 -> inception_5a/1x1
I0403 19:12:50.186230  8952 net.cpp:141] Setting up inception_5a/1x1
I0403 19:12:50.186260  8952 net.cpp:148] Top shape: 24 256 7 7 (301056)
I0403 19:12:50.186275  8952 net.cpp:156] Memory required for data: 1293329952
I0403 19:12:50.186293  8952 layer_factory.hpp:77] Creating layer inception_5a/relu_1x1
I0403 19:12:50.186311  8952 net.cpp:91] Creating Layer inception_5a/relu_1x1
I0403 19:12:50.186327  8952 net.cpp:425] inception_5a/relu_1x1 <- inception_5a/1x1
I0403 19:12:50.186347  8952 net.cpp:386] inception_5a/relu_1x1 -> inception_5a/1x1 (in-place)
I0403 19:12:50.186661  8952 net.cpp:141] Setting up inception_5a/relu_1x1
I0403 19:12:50.186686  8952 net.cpp:148] Top shape: 24 256 7 7 (301056)
I0403 19:12:50.186702  8952 net.cpp:156] Memory required for data: 1294534176
I0403 19:12:50.186717  8952 layer_factory.hpp:77] Creating layer inception_5a/3x3_reduce
I0403 19:12:50.186738  8952 net.cpp:91] Creating Layer inception_5a/3x3_reduce
I0403 19:12:50.186756  8952 net.cpp:425] inception_5a/3x3_reduce <- pool4/3x3_s2_pool4/3x3_s2_0_split_1
I0403 19:12:50.186779  8952 net.cpp:399] inception_5a/3x3_reduce -> inception_5a/3x3_reduce
I0403 19:12:50.189282  8952 net.cpp:141] Setting up inception_5a/3x3_reduce
I0403 19:12:50.189311  8952 net.cpp:148] Top shape: 24 160 7 7 (188160)
I0403 19:12:50.189327  8952 net.cpp:156] Memory required for data: 1295286816
I0403 19:12:50.189345  8952 layer_factory.hpp:77] Creating layer inception_5a/relu_3x3_reduce
I0403 19:12:50.189365  8952 net.cpp:91] Creating Layer inception_5a/relu_3x3_reduce
I0403 19:12:50.189383  8952 net.cpp:425] inception_5a/relu_3x3_reduce <- inception_5a/3x3_reduce
I0403 19:12:50.189399  8952 net.cpp:386] inception_5a/relu_3x3_reduce -> inception_5a/3x3_reduce (in-place)
I0403 19:12:50.189606  8952 net.cpp:141] Setting up inception_5a/relu_3x3_reduce
I0403 19:12:50.189633  8952 net.cpp:148] Top shape: 24 160 7 7 (188160)
I0403 19:12:50.189648  8952 net.cpp:156] Memory required for data: 1296039456
I0403 19:12:50.189663  8952 layer_factory.hpp:77] Creating layer inception_5a/3x3
I0403 19:12:50.189687  8952 net.cpp:91] Creating Layer inception_5a/3x3
I0403 19:12:50.189707  8952 net.cpp:425] inception_5a/3x3 <- inception_5a/3x3_reduce
I0403 19:12:50.189740  8952 net.cpp:399] inception_5a/3x3 -> inception_5a/3x3
I0403 19:12:50.194882  8952 net.cpp:141] Setting up inception_5a/3x3
I0403 19:12:50.194916  8952 net.cpp:148] Top shape: 24 320 7 7 (376320)
I0403 19:12:50.194932  8952 net.cpp:156] Memory required for data: 1297544736
I0403 19:12:50.194952  8952 layer_factory.hpp:77] Creating layer inception_5a/relu_3x3
I0403 19:12:50.194969  8952 net.cpp:91] Creating Layer inception_5a/relu_3x3
I0403 19:12:50.194984  8952 net.cpp:425] inception_5a/relu_3x3 <- inception_5a/3x3
I0403 19:12:50.195004  8952 net.cpp:386] inception_5a/relu_3x3 -> inception_5a/3x3 (in-place)
I0403 19:12:50.195303  8952 net.cpp:141] Setting up inception_5a/relu_3x3
I0403 19:12:50.195333  8952 net.cpp:148] Top shape: 24 320 7 7 (376320)
I0403 19:12:50.195348  8952 net.cpp:156] Memory required for data: 1299050016
I0403 19:12:50.195363  8952 layer_factory.hpp:77] Creating layer inception_5a/5x5_reduce
I0403 19:12:50.195387  8952 net.cpp:91] Creating Layer inception_5a/5x5_reduce
I0403 19:12:50.195405  8952 net.cpp:425] inception_5a/5x5_reduce <- pool4/3x3_s2_pool4/3x3_s2_0_split_2
I0403 19:12:50.195426  8952 net.cpp:399] inception_5a/5x5_reduce -> inception_5a/5x5_reduce
I0403 19:12:50.196635  8952 net.cpp:141] Setting up inception_5a/5x5_reduce
I0403 19:12:50.196663  8952 net.cpp:148] Top shape: 24 32 7 7 (37632)
I0403 19:12:50.196679  8952 net.cpp:156] Memory required for data: 1299200544
I0403 19:12:50.196697  8952 layer_factory.hpp:77] Creating layer inception_5a/relu_5x5_reduce
I0403 19:12:50.196715  8952 net.cpp:91] Creating Layer inception_5a/relu_5x5_reduce
I0403 19:12:50.196732  8952 net.cpp:425] inception_5a/relu_5x5_reduce <- inception_5a/5x5_reduce
I0403 19:12:50.196751  8952 net.cpp:386] inception_5a/relu_5x5_reduce -> inception_5a/5x5_reduce (in-place)
I0403 19:12:50.197052  8952 net.cpp:141] Setting up inception_5a/relu_5x5_reduce
I0403 19:12:50.197079  8952 net.cpp:148] Top shape: 24 32 7 7 (37632)
I0403 19:12:50.197094  8952 net.cpp:156] Memory required for data: 1299351072
I0403 19:12:50.197109  8952 layer_factory.hpp:77] Creating layer inception_5a/5x5
I0403 19:12:50.197131  8952 net.cpp:91] Creating Layer inception_5a/5x5
I0403 19:12:50.197149  8952 net.cpp:425] inception_5a/5x5 <- inception_5a/5x5_reduce
I0403 19:12:50.197170  8952 net.cpp:399] inception_5a/5x5 -> inception_5a/5x5
I0403 19:12:50.198931  8952 net.cpp:141] Setting up inception_5a/5x5
I0403 19:12:50.198974  8952 net.cpp:148] Top shape: 24 128 7 7 (150528)
I0403 19:12:50.198992  8952 net.cpp:156] Memory required for data: 1299953184
I0403 19:12:50.199010  8952 layer_factory.hpp:77] Creating layer inception_5a/relu_5x5
I0403 19:12:50.199028  8952 net.cpp:91] Creating Layer inception_5a/relu_5x5
I0403 19:12:50.199045  8952 net.cpp:425] inception_5a/relu_5x5 <- inception_5a/5x5
I0403 19:12:50.199064  8952 net.cpp:386] inception_5a/relu_5x5 -> inception_5a/5x5 (in-place)
I0403 19:12:50.199265  8952 net.cpp:141] Setting up inception_5a/relu_5x5
I0403 19:12:50.199290  8952 net.cpp:148] Top shape: 24 128 7 7 (150528)
I0403 19:12:50.199304  8952 net.cpp:156] Memory required for data: 1300555296
I0403 19:12:50.199319  8952 layer_factory.hpp:77] Creating layer inception_5a/pool
I0403 19:12:50.199337  8952 net.cpp:91] Creating Layer inception_5a/pool
I0403 19:12:50.199352  8952 net.cpp:425] inception_5a/pool <- pool4/3x3_s2_pool4/3x3_s2_0_split_3
I0403 19:12:50.199373  8952 net.cpp:399] inception_5a/pool -> inception_5a/pool
I0403 19:12:50.199467  8952 net.cpp:141] Setting up inception_5a/pool
I0403 19:12:50.199492  8952 net.cpp:148] Top shape: 24 832 7 7 (978432)
I0403 19:12:50.199507  8952 net.cpp:156] Memory required for data: 1304469024
I0403 19:12:50.199522  8952 layer_factory.hpp:77] Creating layer inception_5a/pool_proj
I0403 19:12:50.199544  8952 net.cpp:91] Creating Layer inception_5a/pool_proj
I0403 19:12:50.199561  8952 net.cpp:425] inception_5a/pool_proj <- inception_5a/pool
I0403 19:12:50.199586  8952 net.cpp:399] inception_5a/pool_proj -> inception_5a/pool_proj
I0403 19:12:50.201910  8952 net.cpp:141] Setting up inception_5a/pool_proj
I0403 19:12:50.201941  8952 net.cpp:148] Top shape: 24 128 7 7 (150528)
I0403 19:12:50.201958  8952 net.cpp:156] Memory required for data: 1305071136
I0403 19:12:50.201978  8952 layer_factory.hpp:77] Creating layer inception_5a/relu_pool_proj
I0403 19:12:50.201995  8952 net.cpp:91] Creating Layer inception_5a/relu_pool_proj
I0403 19:12:50.202011  8952 net.cpp:425] inception_5a/relu_pool_proj <- inception_5a/pool_proj
I0403 19:12:50.202029  8952 net.cpp:386] inception_5a/relu_pool_proj -> inception_5a/pool_proj (in-place)
I0403 19:12:50.202342  8952 net.cpp:141] Setting up inception_5a/relu_pool_proj
I0403 19:12:50.202371  8952 net.cpp:148] Top shape: 24 128 7 7 (150528)
I0403 19:12:50.202388  8952 net.cpp:156] Memory required for data: 1305673248
I0403 19:12:50.202402  8952 layer_factory.hpp:77] Creating layer inception_5a/output
I0403 19:12:50.202420  8952 net.cpp:91] Creating Layer inception_5a/output
I0403 19:12:50.202436  8952 net.cpp:425] inception_5a/output <- inception_5a/1x1
I0403 19:12:50.202453  8952 net.cpp:425] inception_5a/output <- inception_5a/3x3
I0403 19:12:50.202469  8952 net.cpp:425] inception_5a/output <- inception_5a/5x5
I0403 19:12:50.202486  8952 net.cpp:425] inception_5a/output <- inception_5a/pool_proj
I0403 19:12:50.202502  8952 net.cpp:399] inception_5a/output -> inception_5a/output
I0403 19:12:50.202554  8952 net.cpp:141] Setting up inception_5a/output
I0403 19:12:50.202600  8952 net.cpp:148] Top shape: 24 832 7 7 (978432)
I0403 19:12:50.202641  8952 net.cpp:156] Memory required for data: 1309586976
I0403 19:12:50.202656  8952 layer_factory.hpp:77] Creating layer inception_5a/output_inception_5a/output_0_split
I0403 19:12:50.202675  8952 net.cpp:91] Creating Layer inception_5a/output_inception_5a/output_0_split
I0403 19:12:50.202692  8952 net.cpp:425] inception_5a/output_inception_5a/output_0_split <- inception_5a/output
I0403 19:12:50.202708  8952 net.cpp:399] inception_5a/output_inception_5a/output_0_split -> inception_5a/output_inception_5a/output_0_split_0
I0403 19:12:50.202728  8952 net.cpp:399] inception_5a/output_inception_5a/output_0_split -> inception_5a/output_inception_5a/output_0_split_1
I0403 19:12:50.202747  8952 net.cpp:399] inception_5a/output_inception_5a/output_0_split -> inception_5a/output_inception_5a/output_0_split_2
I0403 19:12:50.202769  8952 net.cpp:399] inception_5a/output_inception_5a/output_0_split -> inception_5a/output_inception_5a/output_0_split_3
I0403 19:12:50.202882  8952 net.cpp:141] Setting up inception_5a/output_inception_5a/output_0_split
I0403 19:12:50.202904  8952 net.cpp:148] Top shape: 24 832 7 7 (978432)
I0403 19:12:50.202921  8952 net.cpp:148] Top shape: 24 832 7 7 (978432)
I0403 19:12:50.202937  8952 net.cpp:148] Top shape: 24 832 7 7 (978432)
I0403 19:12:50.202953  8952 net.cpp:148] Top shape: 24 832 7 7 (978432)
I0403 19:12:50.202966  8952 net.cpp:156] Memory required for data: 1325241888
I0403 19:12:50.202981  8952 layer_factory.hpp:77] Creating layer inception_5b/1x1
I0403 19:12:50.203003  8952 net.cpp:91] Creating Layer inception_5b/1x1
I0403 19:12:50.203022  8952 net.cpp:425] inception_5b/1x1 <- inception_5a/output_inception_5a/output_0_split_0
I0403 19:12:50.203042  8952 net.cpp:399] inception_5b/1x1 -> inception_5b/1x1
I0403 19:12:50.206902  8952 net.cpp:141] Setting up inception_5b/1x1
I0403 19:12:50.206933  8952 net.cpp:148] Top shape: 24 384 7 7 (451584)
I0403 19:12:50.206948  8952 net.cpp:156] Memory required for data: 1327048224
I0403 19:12:50.206966  8952 layer_factory.hpp:77] Creating layer inception_5b/relu_1x1
I0403 19:12:50.206986  8952 net.cpp:91] Creating Layer inception_5b/relu_1x1
I0403 19:12:50.207003  8952 net.cpp:425] inception_5b/relu_1x1 <- inception_5b/1x1
I0403 19:12:50.207021  8952 net.cpp:386] inception_5b/relu_1x1 -> inception_5b/1x1 (in-place)
I0403 19:12:50.207332  8952 net.cpp:141] Setting up inception_5b/relu_1x1
I0403 19:12:50.207360  8952 net.cpp:148] Top shape: 24 384 7 7 (451584)
I0403 19:12:50.207375  8952 net.cpp:156] Memory required for data: 1328854560
I0403 19:12:50.207389  8952 layer_factory.hpp:77] Creating layer inception_5b/3x3_reduce
I0403 19:12:50.207413  8952 net.cpp:91] Creating Layer inception_5b/3x3_reduce
I0403 19:12:50.207432  8952 net.cpp:425] inception_5b/3x3_reduce <- inception_5a/output_inception_5a/output_0_split_1
I0403 19:12:50.207453  8952 net.cpp:399] inception_5b/3x3_reduce -> inception_5b/3x3_reduce
I0403 19:12:50.210188  8952 net.cpp:141] Setting up inception_5b/3x3_reduce
I0403 19:12:50.210227  8952 net.cpp:148] Top shape: 24 192 7 7 (225792)
I0403 19:12:50.210243  8952 net.cpp:156] Memory required for data: 1329757728
I0403 19:12:50.210263  8952 layer_factory.hpp:77] Creating layer inception_5b/relu_3x3_reduce
I0403 19:12:50.210280  8952 net.cpp:91] Creating Layer inception_5b/relu_3x3_reduce
I0403 19:12:50.210296  8952 net.cpp:425] inception_5b/relu_3x3_reduce <- inception_5b/3x3_reduce
I0403 19:12:50.210314  8952 net.cpp:386] inception_5b/relu_3x3_reduce -> inception_5b/3x3_reduce (in-place)
I0403 19:12:50.210512  8952 net.cpp:141] Setting up inception_5b/relu_3x3_reduce
I0403 19:12:50.210537  8952 net.cpp:148] Top shape: 24 192 7 7 (225792)
I0403 19:12:50.210551  8952 net.cpp:156] Memory required for data: 1330660896
I0403 19:12:50.210566  8952 layer_factory.hpp:77] Creating layer inception_5b/3x3
I0403 19:12:50.210588  8952 net.cpp:91] Creating Layer inception_5b/3x3
I0403 19:12:50.210605  8952 net.cpp:425] inception_5b/3x3 <- inception_5b/3x3_reduce
I0403 19:12:50.210628  8952 net.cpp:399] inception_5b/3x3 -> inception_5b/3x3
I0403 19:12:50.217489  8952 net.cpp:141] Setting up inception_5b/3x3
I0403 19:12:50.217520  8952 net.cpp:148] Top shape: 24 384 7 7 (451584)
I0403 19:12:50.217537  8952 net.cpp:156] Memory required for data: 1332467232
I0403 19:12:50.217556  8952 layer_factory.hpp:77] Creating layer inception_5b/relu_3x3
I0403 19:12:50.217576  8952 net.cpp:91] Creating Layer inception_5b/relu_3x3
I0403 19:12:50.217592  8952 net.cpp:425] inception_5b/relu_3x3 <- inception_5b/3x3
I0403 19:12:50.217612  8952 net.cpp:386] inception_5b/relu_3x3 -> inception_5b/3x3 (in-place)
I0403 19:12:50.217931  8952 net.cpp:141] Setting up inception_5b/relu_3x3
I0403 19:12:50.217962  8952 net.cpp:148] Top shape: 24 384 7 7 (451584)
I0403 19:12:50.217978  8952 net.cpp:156] Memory required for data: 1334273568
I0403 19:12:50.217993  8952 layer_factory.hpp:77] Creating layer inception_5b/5x5_reduce
I0403 19:12:50.218029  8952 net.cpp:91] Creating Layer inception_5b/5x5_reduce
I0403 19:12:50.218049  8952 net.cpp:425] inception_5b/5x5_reduce <- inception_5a/output_inception_5a/output_0_split_2
I0403 19:12:50.218068  8952 net.cpp:399] inception_5b/5x5_reduce -> inception_5b/5x5_reduce
I0403 19:12:50.219360  8952 net.cpp:141] Setting up inception_5b/5x5_reduce
I0403 19:12:50.219390  8952 net.cpp:148] Top shape: 24 48 7 7 (56448)
I0403 19:12:50.219408  8952 net.cpp:156] Memory required for data: 1334499360
I0403 19:12:50.219425  8952 layer_factory.hpp:77] Creating layer inception_5b/relu_5x5_reduce
I0403 19:12:50.219456  8952 net.cpp:91] Creating Layer inception_5b/relu_5x5_reduce
I0403 19:12:50.219473  8952 net.cpp:425] inception_5b/relu_5x5_reduce <- inception_5b/5x5_reduce
I0403 19:12:50.219493  8952 net.cpp:386] inception_5b/relu_5x5_reduce -> inception_5b/5x5_reduce (in-place)
I0403 19:12:50.219890  8952 net.cpp:141] Setting up inception_5b/relu_5x5_reduce
I0403 19:12:50.219918  8952 net.cpp:148] Top shape: 24 48 7 7 (56448)
I0403 19:12:50.219933  8952 net.cpp:156] Memory required for data: 1334725152
I0403 19:12:50.219949  8952 layer_factory.hpp:77] Creating layer inception_5b/5x5
I0403 19:12:50.219969  8952 net.cpp:91] Creating Layer inception_5b/5x5
I0403 19:12:50.219985  8952 net.cpp:425] inception_5b/5x5 <- inception_5b/5x5_reduce
I0403 19:12:50.220005  8952 net.cpp:399] inception_5b/5x5 -> inception_5b/5x5
I0403 19:12:50.222097  8952 net.cpp:141] Setting up inception_5b/5x5
I0403 19:12:50.222124  8952 net.cpp:148] Top shape: 24 128 7 7 (150528)
I0403 19:12:50.222141  8952 net.cpp:156] Memory required for data: 1335327264
I0403 19:12:50.222158  8952 layer_factory.hpp:77] Creating layer inception_5b/relu_5x5
I0403 19:12:50.222177  8952 net.cpp:91] Creating Layer inception_5b/relu_5x5
I0403 19:12:50.222192  8952 net.cpp:425] inception_5b/relu_5x5 <- inception_5b/5x5
I0403 19:12:50.222221  8952 net.cpp:386] inception_5b/relu_5x5 -> inception_5b/5x5 (in-place)
I0403 19:12:50.222419  8952 net.cpp:141] Setting up inception_5b/relu_5x5
I0403 19:12:50.222445  8952 net.cpp:148] Top shape: 24 128 7 7 (150528)
I0403 19:12:50.222460  8952 net.cpp:156] Memory required for data: 1335929376
I0403 19:12:50.222476  8952 layer_factory.hpp:77] Creating layer inception_5b/pool
I0403 19:12:50.222494  8952 net.cpp:91] Creating Layer inception_5b/pool
I0403 19:12:50.222512  8952 net.cpp:425] inception_5b/pool <- inception_5a/output_inception_5a/output_0_split_3
I0403 19:12:50.222530  8952 net.cpp:399] inception_5b/pool -> inception_5b/pool
I0403 19:12:50.222604  8952 net.cpp:141] Setting up inception_5b/pool
I0403 19:12:50.222627  8952 net.cpp:148] Top shape: 24 832 7 7 (978432)
I0403 19:12:50.222641  8952 net.cpp:156] Memory required for data: 1339843104
I0403 19:12:50.222656  8952 layer_factory.hpp:77] Creating layer inception_5b/pool_proj
I0403 19:12:50.222678  8952 net.cpp:91] Creating Layer inception_5b/pool_proj
I0403 19:12:50.222695  8952 net.cpp:425] inception_5b/pool_proj <- inception_5b/pool
I0403 19:12:50.222717  8952 net.cpp:399] inception_5b/pool_proj -> inception_5b/pool_proj
I0403 19:12:50.225067  8952 net.cpp:141] Setting up inception_5b/pool_proj
I0403 19:12:50.225100  8952 net.cpp:148] Top shape: 24 128 7 7 (150528)
I0403 19:12:50.225116  8952 net.cpp:156] Memory required for data: 1340445216
I0403 19:12:50.225134  8952 layer_factory.hpp:77] Creating layer inception_5b/relu_pool_proj
I0403 19:12:50.225152  8952 net.cpp:91] Creating Layer inception_5b/relu_pool_proj
I0403 19:12:50.225169  8952 net.cpp:425] inception_5b/relu_pool_proj <- inception_5b/pool_proj
I0403 19:12:50.225188  8952 net.cpp:386] inception_5b/relu_pool_proj -> inception_5b/pool_proj (in-place)
I0403 19:12:50.225505  8952 net.cpp:141] Setting up inception_5b/relu_pool_proj
I0403 19:12:50.225534  8952 net.cpp:148] Top shape: 24 128 7 7 (150528)
I0403 19:12:50.225550  8952 net.cpp:156] Memory required for data: 1341047328
I0403 19:12:50.225566  8952 layer_factory.hpp:77] Creating layer inception_5b/output
I0403 19:12:50.225584  8952 net.cpp:91] Creating Layer inception_5b/output
I0403 19:12:50.225616  8952 net.cpp:425] inception_5b/output <- inception_5b/1x1
I0403 19:12:50.225635  8952 net.cpp:425] inception_5b/output <- inception_5b/3x3
I0403 19:12:50.225651  8952 net.cpp:425] inception_5b/output <- inception_5b/5x5
I0403 19:12:50.225667  8952 net.cpp:425] inception_5b/output <- inception_5b/pool_proj
I0403 19:12:50.225687  8952 net.cpp:399] inception_5b/output -> inception_5b/output
I0403 19:12:50.225752  8952 net.cpp:141] Setting up inception_5b/output
I0403 19:12:50.225776  8952 net.cpp:148] Top shape: 24 1024 7 7 (1204224)
I0403 19:12:50.225791  8952 net.cpp:156] Memory required for data: 1345864224
I0403 19:12:50.225806  8952 layer_factory.hpp:77] Creating layer pool5/7x7_s1
I0403 19:12:50.225827  8952 net.cpp:91] Creating Layer pool5/7x7_s1
I0403 19:12:50.225846  8952 net.cpp:425] pool5/7x7_s1 <- inception_5b/output
I0403 19:12:50.225863  8952 net.cpp:399] pool5/7x7_s1 -> pool5/7x7_s1
I0403 19:12:50.226080  8952 net.cpp:141] Setting up pool5/7x7_s1
I0403 19:12:50.226105  8952 net.cpp:148] Top shape: 24 1024 1 1 (24576)
I0403 19:12:50.226120  8952 net.cpp:156] Memory required for data: 1345962528
I0403 19:12:50.226135  8952 layer_factory.hpp:77] Creating layer pool5/drop_7x7_s1
I0403 19:12:50.226152  8952 net.cpp:91] Creating Layer pool5/drop_7x7_s1
I0403 19:12:50.226168  8952 net.cpp:425] pool5/drop_7x7_s1 <- pool5/7x7_s1
I0403 19:12:50.226191  8952 net.cpp:386] pool5/drop_7x7_s1 -> pool5/7x7_s1 (in-place)
I0403 19:12:50.226248  8952 net.cpp:141] Setting up pool5/drop_7x7_s1
I0403 19:12:50.226271  8952 net.cpp:148] Top shape: 24 1024 1 1 (24576)
I0403 19:12:50.226286  8952 net.cpp:156] Memory required for data: 1346060832
I0403 19:12:50.226300  8952 layer_factory.hpp:77] Creating layer loss3/classifier_plantvillage
I0403 19:12:50.226322  8952 net.cpp:91] Creating Layer loss3/classifier_plantvillage
I0403 19:12:50.226339  8952 net.cpp:425] loss3/classifier_plantvillage <- pool5/7x7_s1
I0403 19:12:50.226361  8952 net.cpp:399] loss3/classifier_plantvillage -> loss3/classifier_plantvillage
I0403 19:12:50.226786  8952 net.cpp:141] Setting up loss3/classifier_plantvillage
I0403 19:12:50.226811  8952 net.cpp:148] Top shape: 24 38 (912)
I0403 19:12:50.226826  8952 net.cpp:156] Memory required for data: 1346064480
I0403 19:12:50.226845  8952 layer_factory.hpp:77] Creating layer loss3/classifier_plantvillage_loss3/classifier_plantvillage_0_split
I0403 19:12:50.226866  8952 net.cpp:91] Creating Layer loss3/classifier_plantvillage_loss3/classifier_plantvillage_0_split
I0403 19:12:50.226882  8952 net.cpp:425] loss3/classifier_plantvillage_loss3/classifier_plantvillage_0_split <- loss3/classifier_plantvillage
I0403 19:12:50.226900  8952 net.cpp:399] loss3/classifier_plantvillage_loss3/classifier_plantvillage_0_split -> loss3/classifier_plantvillage_loss3/classifier_plantvillage_0_split_0
I0403 19:12:50.226920  8952 net.cpp:399] loss3/classifier_plantvillage_loss3/classifier_plantvillage_0_split -> loss3/classifier_plantvillage_loss3/classifier_plantvillage_0_split_1
I0403 19:12:50.226940  8952 net.cpp:399] loss3/classifier_plantvillage_loss3/classifier_plantvillage_0_split -> loss3/classifier_plantvillage_loss3/classifier_plantvillage_0_split_2
I0403 19:12:50.226963  8952 net.cpp:399] loss3/classifier_plantvillage_loss3/classifier_plantvillage_0_split -> loss3/classifier_plantvillage_loss3/classifier_plantvillage_0_split_3
I0403 19:12:50.227064  8952 net.cpp:141] Setting up loss3/classifier_plantvillage_loss3/classifier_plantvillage_0_split
I0403 19:12:50.227087  8952 net.cpp:148] Top shape: 24 38 (912)
I0403 19:12:50.227104  8952 net.cpp:148] Top shape: 24 38 (912)
I0403 19:12:50.227120  8952 net.cpp:148] Top shape: 24 38 (912)
I0403 19:12:50.227135  8952 net.cpp:148] Top shape: 24 38 (912)
I0403 19:12:50.227149  8952 net.cpp:156] Memory required for data: 1346079072
I0403 19:12:50.227164  8952 layer_factory.hpp:77] Creating layer loss1/loss
I0403 19:12:50.227185  8952 net.cpp:91] Creating Layer loss1/loss
I0403 19:12:50.227203  8952 net.cpp:425] loss1/loss <- loss1/classifier_plantvillage_loss1/classifier_plantvillage_0_split_0
I0403 19:12:50.227241  8952 net.cpp:425] loss1/loss <- label_data_1_split_0
…
