…
I0403 19:34:02.814664  9390 net.cpp:313] The NetState phase (1) differed from the phase (0) specified by a rule in layer data
I0403 19:34:02.815778  9390 net.cpp:49] Initializing net from parameters: 
state {
  phase: TEST
}
layer {
  name: "data"
  type: "Data"
  top: "data"
  top: "label"
  include {
    phase: TEST
  }
  transform_param {
    mirror: false
    crop_size: 224
    mean_file: "/home/mohanty/data/final_dataset/lmdb/grayscale-50-50/mean.binaryproto"
  }
  data_param {
    source: "/home/mohanty/data/final_dataset/lmdb/grayscale-50-50/test_db"
    batch_size: 24
    backend: LMDB
  }
}
layer {
  name: "conv1/7x7_s2"
  type: "Convolution"
  bottom: "data"
  top: "conv1/7x7_s2"
  param {
    lr_mult: 1
    decay_mult: 1
  }
  param {
    lr_mult: 2
    decay_mult: 0
  }
  convolution_param {
    num_output: 64
    pad: 3
    kernel_size: 7
    stride: 2
    weight_filler {
      type: "xavier"
      std: 0.1
    }
    bias_filler {
      type: "constant"
      value: 0.2
    }
  }
}
layer {
  name: "conv1/relu_7x7"
  type: "ReLU"
  bottom: "conv1/7x7_s2"
  top: "conv1/7x7_s2"
}
layer {
  name: "pool1/3x3_s2"
  type: "Pooling"
  bottom: "conv1/7x7_s2"
  top: "pool1/3x3_s2"
  pooling_param {
    pool: MAX
    kernel_size: 3
    stride: 2
  }
}
layer {
  name: "pool1/norm1"
  type: "LRN"
  bottom: "pool1/3x3_s2"
  top: "pool1/norm1"
  lrn_param {
    local_size: 5
    alpha: 0.0001
    beta: 0.75
  }
}
layer {
  name: "conv2/3x3_reduce"
  type: "Convolution"
  bottom: "pool1/norm1"
  top: "conv2/3x3_reduce"
  param {
    lr_mult: 1
    decay_mult: 1
  }
  param {
    lr_mult: 2
    decay_mult: 0
  }
  convolution_param {
    num_output: 64
    kernel_size: 1
    weight_filler {
      type: "xavier"
      std: 0.1
    }
    bias_filler {
      type: "constant"
      value: 0.2
    }
  }
}
layer {
  name: "conv2/relu_3x3_reduce"
  type: "ReLU"
  bottom: "conv2/3x3_reduce"
  top: "conv2/3x3_reduce"
}
layer {
  name: "conv2/3x3"
  type: "Convolution"
  bottom: "conv2/3x3_reduce"
  top: "conv2/3x3"
  param {
    lr_mult: 1
    decay_mult: 1
  }
  param {
    lr_mult: 2
    decay_mult: 0
  }
  convolution_param {
    num_output: 192
    pad: 1
    kernel_size: 3
    weight_filler {
      type: "xavier"
      std: 0.03
    }
    bias_filler {
      type: "constant"
      value: 0.2
    }
  }
}
layer {
  name: "conv2/relu_3x3"
  type: "ReLU"
  bottom: "conv2/3x3"
  top: "conv2/3x3"
}
layer {
  name: "conv2/norm2"
  type: "LRN"
  bottom: "conv2/3x3"
  top: "conv2/norm2"
  lrn_param {
    local_size: 5
    alpha: 0.0001
    beta: 0.75
  }
}
layer {
  name: "pool2/3x3_s2"
  type: "Pooling"
  bottom: "conv2/norm2"
  top: "pool2/3x3_s2"
  pooling_param {
    pool: MAX
    kernel_size: 3
    stride: 2
  }
}
layer {
  name: "inception_3a/1x1"
  type: "Convolution"
  bottom: "pool2/3x3_s2"
  top: "inception_3a/1x1"
  param {
    lr_mult: 1
    decay_mult: 1
  }
  param {
    lr_mult: 2
    decay_mult: 0
  }
  convolution_param {
    num_output: 64
    kernel_size: 1
    weight_filler {
      type: "xavier"
      std: 0.03
    }
    bias_filler {
      type: "constant"
      value: 0.2
    }
  }
}
layer {
  name: "inception_3a/relu_1x1"
  type: "ReLU"
  bottom: "inception_3a/1x1"
  top: "inception_3a/1x1"
}
layer {
  name: "inception_3a/3x3_reduce"
  type: "Convolution"
  bottom: "pool2/3x3_s2"
  top: "inception_3a/3x3_reduce"
  param {
    lr_mult: 1
    decay_mult: 1
  }
  param {
    lr_mult: 2
    decay_mult: 0
  }
  convolution_param {
    num_output: 96
    kernel_size: 1
    weight_filler {
      type: "xavier"
      std: 0.09
    }
    bias_filler {
      type: "constant"
      value: 0.2
    }
  }
}
layer {
  name: "inception_3a/relu_3x3_reduce"
  type: "ReLU"
  bottom: "inception_3a/3x3_reduce"
  top: "inception_3a/3x3_reduce"
}
layer {
  name: "inception_3a/3x3"
  type: "Convolution"
  bottom: "inception_3a/3x3_reduce"
  top: "inception_3a/3x3"
  param {
    lr_mult: 1
    decay_mult: 1
  }
  param {
    lr_mult: 2
    decay_mult: 0
  }
  convolution_param {
    num_output: 128
    pad: 1
    kernel_size: 3
    weight_filler {
      type: "xavier"
      std: 0.03
    }
    bias_filler {
      type: "constant"
      value: 0.2
    }
  }
}
layer {
  name: "inception_3a/relu_3x3"
  type: "ReLU"
  bottom: "inception_3a/3x3"
  top: "inception_3a/3x3"
}
layer {
  name: "inception_3a/5x5_reduce"
  type: "Convolution"
  bottom: "pool2/3x3_s2"
  top: "inception_3a/5x5_reduce"
  param {
    lr_mult: 1
    decay_mult: 1
  }
  param {
    lr_mult: 2
    decay_mult: 0
  }
  convolution_param {
    num_output: 16
    kernel_size: 1
    weight_filler {
      type: "xavier"
      std: 0.2
    }
    bias_filler {
      type: "constant"
      value: 0.2
    }
  }
}
layer {
  name: "inception_3a/relu_5x5_reduce"
  type: "ReLU"
  bottom: "inception_3a/5x5_reduce"
  top: "inception_3a/5x5_reduce"
}
layer {
  name: "inception_3a/5x5"
  type: "Convolution"
  bottom: "inception_3a/5x5_reduce"
  top: "inception_3a/5x5"
  param {
    lr_mult: 1
    decay_mult: 1
  }
  param {
    lr_mult: 2
    decay_mult: 0
  }
  convolution_param {
    num_output: 32
    pad: 2
    kernel_size: 5
    weight_filler {
      type: "xavier"
      std: 0.03
    }
    bias_filler {
      type: "constant"
      value: 0.2
    }
  }
}
layer {
  name: "inception_3a/relu_5x5"
  type: "ReLU"
  bottom: "inception_3a/5x5"
  top: "inception_3a/5x5"
}
layer {
  name: "inception_3a/pool"
  type: "Pooling"
  bottom: "pool2/3x3_s2"
  top: "inception_3a/pool"
  pooling_param {
    pool: MAX
    kernel_size: 3
    stride: 1
    pad: 1
  }
}
layer {
  name: "inception_3a/pool_proj"
  type: "Convolution"
  bottom: "inception_3a/pool"
  top: "inception_3a/pool_proj"
  param {
    lr_mult: 1
    decay_mult: 1
  }
  param {
    lr_mult: 2
    decay_mult: 0
  }
  convolution_param {
    num_output: 32
    kernel_size: 1
    weight_filler {
      type: "xavier"
      std: 0.1
    }
    bias_filler {
      type: "constant"
      value: 0.2
    }
  }
}
layer {
  name: "inception_3a/relu_pool_proj"
  type: "ReLU"
  bottom: "inception_3a/pool_proj"
  top: "inception_3a/pool_proj"
}
layer {
  name: "inception_3a/output"
  type: "Concat"
  bottom: "inception_3a/1x1"
  bottom: "inception_3a/3x3"
  bottom: "inception_3a/5x5"
  bottom: "inception_3a/pool_proj"
  top: "inception_3a/output"
}
layer {
  name: "inception_3b/1x1"
  type: "Convolution"
  bottom: "inception_3a/output"
  top: "inception_3b/1x1"
  param {
    lr_mult: 1
    decay_mult: 1
  }
  param {
    lr_mult: 2
    decay_mult: 0
  }
  convolution_param {
    num_output: 128
    kernel_size: 1
    weight_filler {
      type: "xavier"
      std: 0.03
    }
    bias_filler {
      type: "constant"
      value: 0.2
    }
  }
}
layer {
  name: "inception_3b/relu_1x1"
  type: "ReLU"
  bottom: "inception_3b/1x1"
  top: "inception_3b/1x1"
}
layer {
  name: "inception_3b/3x3_reduce"
  type: "Convolution"
  bottom: "inception_3a/output"
  top: "inception_3b/3x3_reduce"
  param {
    lr_mult: 1
    decay_mult: 1
  }
  param {
    lr_mult: 2
    decay_mult: 0
  }
  convolution_param {
    num_output: 128
    kernel_size: 1
    weight_filler {
      type: "xavier"
      std: 0.09
    }
    bias_filler {
      type: "constant"
      value: 0.2
    }
  }
}
layer {
  name: "inception_3b/relu_3x3_reduce"
  type: "ReLU"
  bottom: "inception_3b/3x3_reduce"
  top: "inception_3b/3x3_reduce"
}
layer {
  name: "inception_3b/3x3"
  type: "Convolution"
  bottom: "inception_3b/3x3_reduce"
  top: "inception_3b/3x3"
  param {
    lr_mult: 1
    decay_mult: 1
  }
  param {
    lr_mult: 2
    decay_mult: 0
  }
  convolution_param {
    num_output: 192
    pad: 1
    kernel_size: 3
    weight_filler {
      type: "xavier"
      std: 0.03
    }
    bias_filler {
      type: "constant"
      value: 0.2
    }
  }
}
layer {
  name: "inception_3b/relu_3x3"
  type: "ReLU"
  bottom: "inception_3b/3x3"
  top: "inception_3b/3x3"
}
layer {
  name: "inception_3b/5x5_reduce"
  type: "Convolution"
  bottom: "inception_3a/output"
  top: "inception_3b/5x5_reduce"
  param {
    lr_mult: 1
    decay_mult: 1
  }
  param {
    lr_mult: 2
    decay_mult: 0
  }
  convolution_param {
    num_output: 32
    kernel_size: 1
    weight_filler {
      type: "xavier"
      std: 0.2
    }
    bias_filler {
      type: "constant"
      value: 0.2
    }
  }
}
layer {
  name: "inception_3b/relu_5x5_reduce"
  type: "ReLU"
  bottom: "inception_3b/5x5_reduce"
  top: "inception_3b/5x5_reduce"
}
layer {
  name: "inception_3b/5x5"
  type: "Convolution"
  bottom: "inception_3b/5x5_reduce"
  top: "inception_3b/5x5"
  param {
    lr_mult: 1
    decay_mult: 1
  }
  param {
    lr_mult: 2
    decay_mult: 0
  }
  convolution_param {
    num_output: 96
    pad: 2
    kernel_size: 5
    weight_filler {
      type: "xavier"
      std: 0.03
    }
    bias_filler {
      type: "constant"
      value: 0.2
    }
  }
}
layer {
  name: "inception_3b/relu_5x5"
  type: "ReLU"
  bottom: "inception_3b/5x5"
  top: "inception_3b/5x5"
}
layer {
  name: "inception_3b/pool"
  type: "Pooling"
  bottom: "inception_3a/output"
  top: "inception_3b/pool"
  pooling_param {
    pool: MAX
    kernel_size: 3
    stride: 1
    pad: 1
  }
}
layer {
  name: "inception_3b/pool_proj"
  type: "Convolution"
  bottom: "inception_3b/pool"
  top: "inception_3b/pool_proj"
  param {
    lr_mult: 1
    decay_mult: 1
  }
  param {
    lr_mult: 2
    decay_mult: 0
  }
  convolution_param {
    num_output: 64
    kernel_size: 1
    weight_filler {
      type: "xavier"
      std: 0.1
    }
    bias_filler {
      type: "constant"
      value: 0.2
    }
  }
}
layer {
  name: "inception_3b/relu_pool_proj"
  type: "ReLU"
  bottom: "inception_3b/pool_proj"
  top: "inception_3b/pool_proj"
}
layer {
  name: "inception_3b/output"
  type: "Concat"
  bottom: "inception_3b/1x1"
  bottom: "inception_3b/3x3"
  bottom: "inception_3b/5x5"
  bottom: "inception_3b/pool_proj"
  top: "inception_3b/output"
}
layer {
  name: "pool3/3x3_s2"
  type: "Pooling"
  bottom: "inception_3b/output"
  top: "pool3/3x3_s2"
  pooling_param {
    pool: MAX
    kernel_size: 3
    stride: 2
  }
}
layer {
  name: "inception_4a/1x1"
  type: "Convolution"
  bottom: "pool3/3x3_s2"
  top: "inception_4a/1x1"
  param {
    lr_mult: 1
    decay_mult: 1
  }
  param {
    lr_mult: 2
    decay_mult: 0
  }
  convolution_param {
    num_output: 192
    kernel_size: 1
    weight_filler {
      type: "xavier"
      std: 0.03
    }
    bias_filler {
      type: "constant"
      value: 0.2
    }
  }
}
layer {
  name: "inception_4a/relu_1x1"
  type: "ReLU"
  bottom: "inception_4a/1x1"
  top: "inception_4a/1x1"
}
layer {
  name: "inception_4a/3x3_reduce"
  type: "Convolution"
  bottom: "pool3/3x3_s2"
  top: "inception_4a/3x3_reduce"
  param {
    lr_mult: 1
    decay_mult: 1
  }
  param {
    lr_mult: 2
    decay_mult: 0
  }
  convolution_param {
    num_output: 96
    kernel_size: 1
    weight_filler {
      type: "xavier"
      std: 0.09
    }
    bias_filler {
      type: "constant"
      value: 0.2
    }
  }
}
layer {
  name: "inception_4a/relu_3x3_reduce"
  type: "ReLU"
  bottom: "inception_4a/3x3_reduce"
  top: "inception_4a/3x3_reduce"
}
layer {
  name: "inception_4a/3x3"
  type: "Convolution"
  bottom: "inception_4a/3x3_reduce"
  top: "inception_4a/3x3"
  param {
    lr_mult: 1
    decay_mult: 1
  }
  param {
    lr_mult: 2
    decay_mult: 0
  }
  convolution_param {
    num_output: 208
    pad: 1
    kernel_size: 3
    weight_filler {
      type: "xavier"
      std: 0.03
    }
    bias_filler {
      type: "constant"
      value: 0.2
    }
  }
}
layer {
  name: "inception_4a/relu_3x3"
  type: "ReLU"
  bottom: "inception_4a/3x3"
  top: "inception_4a/3x3"
}
layer {
  name: "inception_4a/5x5_reduce"
  type: "Convolution"
  bottom: "pool3/3x3_s2"
  top: "inception_4a/5x5_reduce"
  param {
    lr_mult: 1
    decay_mult: 1
  }
  param {
    lr_mult: 2
    decay_mult: 0
  }
  convolution_param {
    num_output: 16
    kernel_size: 1
    weight_filler {
      type: "xavier"
      std: 0.2
    }
    bias_filler {
      type: "constant"
      value: 0.2
    }
  }
}
layer {
  name: "inception_4a/relu_5x5_reduce"
  type: "ReLU"
  bottom: "inception_4a/5x5_reduce"
  top: "inception_4a/5x5_reduce"
}
layer {
  name: "inception_4a/5x5"
  type: "Convolution"
  bottom: "inception_4a/5x5_reduce"
  top: "inception_4a/5x5"
  param {
    lr_mult: 1
    decay_mult: 1
  }
  param {
    lr_mult: 2
    decay_mult: 0
  }
  convolution_param {
    num_output: 48
    pad: 2
    kernel_size: 5
    weight_filler {
      type: "xavier"
      std: 0.03
    }
    bias_filler {
      type: "constant"
      value: 0.2
    }
  }
}
layer {
  name: "inception_4a/relu_5x5"
  type: "ReLU"
  bottom: "inception_4a/5x5"
  top: "inception_4a/5x5"
}
layer {
  name: "inception_4a/pool"
  type: "Pooling"
  bottom: "pool3/3x3_s2"
  top: "inception_4a/pool"
  pooling_param {
    pool: MAX
    kernel_size: 3
    stride: 1
    pad: 1
  }
}
layer {
  name: "inception_4a/pool_proj"
  type: "Convolution"
  bottom: "inception_4a/pool"
  top: "inception_4a/pool_proj"
  param {
    lr_mult: 1
    decay_mult: 1
  }
  param {
    lr_mult: 2
    decay_mult: 0
  }
  convolution_param {
    num_output: 64
    kernel_size: 1
    weight_filler {
      type: "xavier"
      std: 0.1
    }
    bias_filler {
      type: "constant"
      value: 0.2
    }
  }
}
layer {
  name: "inception_4a/relu_pool_proj"
  type: "ReLU"
  bottom: "inception_4a/pool_proj"
  top: "inception_4a/pool_proj"
}
layer {
  name: "inception_4a/output"
  type: "Concat"
  bottom: "inception_4a/1x1"
  bottom: "inception_4a/3x3"
  bottom: "inception_4a/5x5"
  bottom: "inception_4a/pool_proj"
  top: "inception_4a/output"
}
layer {
  name: "loss1/ave_pool"
  type: "Pooling"
  bottom: "inception_4a/output"
  top: "loss1/ave_pool"
  pooling_param {
    pool: AVE
    kernel_size: 5
    stride: 3
  }
}
layer {
  name: "loss1/conv"
  type: "Convolution"
  bottom: "loss1/ave_pool"
  top: "loss1/conv"
  param {
    lr_mult: 1
    decay_mult: 1
  }
  param {
    lr_mult: 2
    decay_mult: 0
  }
  convolution_param {
    num_output: 128
    kernel_size: 1
    weight_filler {
      type: "xavier"
      std: 0.08
    }
    bias_filler {
      type: "constant"
      value: 0.2
    }
  }
}
layer {
  name: "loss1/relu_conv"
  type: "ReLU"
  bottom: "loss1/conv"
  top: "loss1/conv"
}
layer {
  name: "loss1/fc"
  type: "InnerProduct"
  bottom: "loss1/conv"
  top: "loss1/fc"
  param {
    lr_mult: 1
    decay_mult: 1
  }
  param {
    lr_mult: 2
    decay_mult: 0
  }
  inner_product_param {
    num_output: 1024
    weight_filler {
      type: "xavier"
      std: 0.02
    }
    bias_filler {
      type: "constant"
      value: 0.2
    }
  }
}
layer {
  name: "loss1/relu_fc"
  type: "ReLU"
  bottom: "loss1/fc"
  top: "loss1/fc"
}
layer {
  name: "loss1/drop_fc"
  type: "Dropout"
  bottom: "loss1/fc"
  top: "loss1/fc"
  dropout_param {
    dropout_ratio: 0.7
  }
}
layer {
  name: "loss1/classifier_plantvillage"
  type: "InnerProduct"
  bottom: "loss1/fc"
  top: "loss1/classifier_plantvillage"
  param {
    lr_mult: 1
    decay_mult: 1
  }
  param {
    lr_mult: 2
    decay_mult: 0
  }
  inner_product_param {
    num_output: 38
    weight_filler {
      type: "xavier"
      std: 0.0009765625
    }
    bias_filler {
      type: "constant"
      value: 0
    }
  }
}
layer {
  name: "inception_4b/1x1"
  type: "Convolution"
  bottom: "inception_4a/output"
  top: "inception_4b/1x1"
  param {
    lr_mult: 1
    decay_mult: 1
  }
  param {
    lr_mult: 2
    decay_mult: 0
  }
  convolution_param {
    num_output: 160
    kernel_size: 1
    weight_filler {
      type: "xavier"
      std: 0.03
    }
    bias_filler {
      type: "constant"
      value: 0.2
    }
  }
}
layer {
  name: "inception_4b/relu_1x1"
  type: "ReLU"
  bottom: "inception_4b/1x1"
  top: "inception_4b/1x1"
}
layer {
  name: "inception_4b/3x3_reduce"
  type: "Convolution"
  bottom: "inception_4a/output"
  top: "inception_4b/3x3_reduce"
  param {
    lr_mult: 1
    decay_mult: 1
  }
  param {
    lr_mult: 2
    decay_mult: 0
  }
  convolution_param {
    num_output: 112
    kernel_size: 1
    weight_filler {
      type: "xavier"
      std: 0.09
    }
    bias_filler {
      type: "constant"
      value: 0.2
    }
  }
}
layer {
  name: "inception_4b/relu_3x3_reduce"
  type: "ReLU"
  bottom: "inception_4b/3x3_reduce"
  top: "inception_4b/3x3_reduce"
}
layer {
  name: "inception_4b/3x3"
  type: "Convolution"
  bottom: "inception_4b/3x3_reduce"
  top: "inception_4b/3x3"
  param {
    lr_mult: 1
    decay_mult: 1
  }
  param {
    lr_mult: 2
    decay_mult: 0
  }
  convolution_param {
    num_output: 224
    pad: 1
    kernel_size: 3
    weight_filler {
      type: "xavier"
      std: 0.03
    }
    bias_filler {
      type: "constant"
      value: 0.2
    }
  }
}
layer {
  name: "inception_4b/relu_3x3"
  type: "ReLU"
  bottom: "inception_4b/3x3"
  top: "inception_4b/3x3"
}
layer {
  name: "inception_4b/5x5_reduce"
  type: "Convolution"
  bottom: "inception_4a/output"
  top: "inception_4b/5x5_reduce"
  param {
    lr_mult: 1
    decay_mult: 1
  }
  param {
    lr_mult: 2
    decay_mult: 0
  }
  convolution_param {
    num_output: 24
    kernel_size: 1
    weight_filler {
      type: "xavier"
      std: 0.2
    }
    bias_filler {
      type: "constant"
      value: 0.2
    }
  }
}
layer {
  name: "inception_4b/relu_5x5_reduce"
  type: "ReLU"
  bottom: "inception_4b/5x5_reduce"
  top: "inception_4b/5x5_reduce"
}
layer {
  name: "inception_4b/5x5"
  type: "Convolution"
  bottom: "inception_4b/5x5_reduce"
  top: "inception_4b/5x5"
  param {
    lr_mult: 1
    decay_mult: 1
  }
  param {
    lr_mult: 2
    decay_mult: 0
  }
  convolution_param {
    num_output: 64
    pad: 2
    kernel_size: 5
    weight_filler {
      type: "xavier"
      std: 0.03
    }
    bias_filler {
      type: "constant"
      value: 0.2
    }
  }
}
layer {
  name: "inception_4b/relu_5x5"
  type: "ReLU"
  bottom: "inception_4b/5x5"
  top: "inception_4b/5x5"
}
layer {
  name: "inception_4b/pool"
  type: "Pooling"
  bottom: "inception_4a/output"
  top: "inception_4b/pool"
  pooling_param {
    pool: MAX
    kernel_size: 3
    stride: 1
    pad: 1
  }
}
layer {
  name: "inception_4b/pool_proj"
  type: "Convolution"
  bottom: "inception_4b/pool"
  top: "inception_4b/pool_proj"
  param {
    lr_mult: 1
    decay_mult: 1
  }
  param {
    lr_mult: 2
    decay_mult: 0
  }
  convolution_param {
    num_output: 64
    kernel_size: 1
    weight_filler {
      type: "xavier"
      std: 0.1
    }
    bias_filler {
      type: "constant"
      value: 0.2
    }
  }
}
layer {
  name: "inception_4b/relu_pool_proj"
  type: "ReLU"
  bottom: "inception_4b/pool_proj"
  top: "inception_4b/pool_proj"
}
layer {
  name: "inception_4b/output"
  type: "Concat"
  bottom: "inception_4b/1x1"
  bottom: "inception_4b/3x3"
  bottom: "inception_4b/5x5"
  bottom: "inception_4b/pool_proj"
  top: "inception_4b/output"
}
layer {
  name: "inception_4c/1x1"
  type: "Convolution"
  bottom: "inception_4b/output"
  top: "inception_4c/1x1"
  param {
    lr_mult: 1
    decay_mult: 1
  }
  param {
    lr_mult: 2
    decay_mult: 0
  }
  convolution_param {
    num_output: 128
    kernel_size: 1
    weight_filler {
      type: "xavier"
      std: 0.03
    }
    bias_filler {
      type: "constant"
      value: 0.2
    }
  }
}
layer {
  name: "inception_4c/relu_1x1"
  type: "ReLU"
  bottom: "inception_4c/1x1"
  top: "inception_4c/1x1"
}
layer {
  name: "inception_4c/3x3_reduce"
  type: "Convolution"
  bottom: "inception_4b/output"
  top: "inception_4c/3x3_reduce"
  param {
    lr_mult: 1
    decay_mult: 1
  }
  param {
    lr_mult: 2
    decay_mult: 0
  }
  convolution_param {
    num_output: 128
    kernel_size: 1
    weight_filler {
      type: "xavier"
      std: 0.09
    }
    bias_filler {
      type: "constant"
      value: 0.2
    }
  }
}
layer {
  name: "inception_4c/relu_3x3_reduce"
  type: "ReLU"
  bottom: "inception_4c/3x3_reduce"
  top: "inception_4c/3x3_reduce"
}
layer {
  name: "inception_4c/3x3"
  type: "Convolution"
  bottom: "inception_4c/3x3_reduce"
  top: "inception_4c/3x3"
  param {
    lr_mult: 1
    decay_mult: 1
  }
  param {
    lr_mult: 2
    decay_mult: 0
  }
  convolution_param {
    num_output: 256
    pad: 1
    kernel_size: 3
    weight_filler {
      type: "xavier"
      std: 0.03
    }
    bias_filler {
      type: "constant"
      value: 0.2
    }
  }
}
layer {
  name: "inception_4c/relu_3x3"
  type: "ReLU"
  bottom: "inception_4c/3x3"
  top: "inception_4c/3x3"
}
layer {
  name: "inception_4c/5x5_reduce"
  type: "Convolution"
  bottom: "inception_4b/output"
  top: "inception_4c/5x5_reduce"
  param {
    lr_mult: 1
    decay_mult: 1
  }
  param {
    lr_mult: 2
    decay_mult: 0
  }
  convolution_param {
    num_output: 24
    kernel_size: 1
    weight_filler {
      type: "xavier"
      std: 0.2
    }
    bias_filler {
      type: "constant"
      value: 0.2
    }
  }
}
layer {
  name: "inception_4c/relu_5x5_reduce"
  type: "ReLU"
  bottom: "inception_4c/5x5_reduce"
  top: "inception_4c/5x5_reduce"
}
layer {
  name: "inception_4c/5x5"
  type: "Convolution"
  bottom: "inception_4c/5x5_reduce"
  top: "inception_4c/5x5"
  param {
    lr_mult: 1
    decay_mult: 1
  }
  param {
    lr_mult: 2
    decay_mult: 0
  }
  convolution_param {
    num_output: 64
    pad: 2
    kernel_size: 5
    weight_filler {
      type: "xavier"
      std: 0.03
    }
    bias_filler {
      type: "constant"
      value: 0.2
    }
  }
}
layer {
  name: "inception_4c/relu_5x5"
  type: "ReLU"
  bottom: "inception_4c/5x5"
  top: "inception_4c/5x5"
}
layer {
  name: "inception_4c/pool"
  type: "Pooling"
  bottom: "inception_4b/output"
  top: "inception_4c/pool"
  pooling_param {
    pool: MAX
    kernel_size: 3
    stride: 1
    pad: 1
  }
}
layer {
  name: "inception_4c/pool_proj"
  type: "Convolution"
  bottom: "inception_4c/pool"
  top: "inception_4c/pool_proj"
  param {
    lr_mult: 1
    decay_mult: 1
  }
  param {
    lr_mult: 2
    decay_mult: 0
  }
  convolution_param {
    num_output: 64
    kernel_size: 1
    weight_filler {
      type: "xavier"
      std: 0.1
    }
    bias_filler {
      type: "constant"
      value: 0.2
    }
  }
}
layer {
  name: "inception_4c/relu_pool_proj"
  type: "ReLU"
  bottom: "inception_4c/pool_proj"
  top: "inception_4c/pool_proj"
}
layer {
  name: "inception_4c/output"
  type: "Concat"
  bottom: "inception_4c/1x1"
  bottom: "inception_4c/3x3"
  bottom: "inception_4c/5x5"
  bottom: "inception_4c/pool_proj"
  top: "inception_4c/output"
}
layer {
  name: "inception_4d/1x1"
  type: "Convolution"
  bottom: "inception_4c/output"
  top: "inception_4d/1x1"
  param {
    lr_mult: 1
    decay_mult: 1
  }
  param {
    lr_mult: 2
    decay_mult: 0
  }
  convolution_param {
    num_output: 112
    kernel_size: 1
    weight_filler {
      type: "xavier"
      std: 0.03
    }
    bias_filler {
      type: "constant"
      value: 0.2
    }
  }
}
layer {
  name: "inception_4d/relu_1x1"
  type: "ReLU"
  bottom: "inception_4d/1x1"
  top: "inception_4d/1x1"
}
layer {
  name: "inception_4d/3x3_reduce"
  type: "Convolution"
  bottom: "inception_4c/output"
  top: "inception_4d/3x3_reduce"
  param {
    lr_mult: 1
    decay_mult: 1
  }
  param {
    lr_mult: 2
    decay_mult: 0
  }
  convolution_param {
    num_output: 144
    kernel_size: 1
    weight_filler {
      type: "xavier"
      std: 0.09
    }
    bias_filler {
      type: "constant"
      value: 0.2
    }
  }
}
layer {
  name: "inception_4d/relu_3x3_reduce"
  type: "ReLU"
  bottom: "inception_4d/3x3_reduce"
  top: "inception_4d/3x3_reduce"
}
layer {
  name: "inception_4d/3x3"
  type: "Convolution"
  bottom: "inception_4d/3x3_reduce"
  top: "inception_4d/3x3"
  param {
    lr_mult: 1
    decay_mult: 1
  }
  param {
    lr_mult: 2
    decay_mult: 0
  }
  convolution_param {
    num_output: 288
    pad: 1
    kernel_size: 3
    weight_filler {
      type: "xavier"
      std: 0.03
    }
    bias_filler {
      type: "constant"
      value: 0.2
    }
  }
}
layer {
  name: "inception_4d/relu_3x3"
  type: "ReLU"
  bottom: "inception_4d/3x3"
  top: "inception_4d/3x3"
}
layer {
  name: "inception_4d/5x5_reduce"
  type: "Convolution"
  bottom: "inception_4c/output"
  top: "inception_4d/5x5_reduce"
  param {
    lr_mult: 1
    decay_mult: 1
  }
  param {
    lr_mult: 2
    decay_mult: 0
  }
  convolution_param {
    num_output: 32
    kernel_size: 1
    weight_filler {
      type: "xavier"
      std: 0.2
    }
    bias_filler {
      type: "constant"
      value: 0.2
    }
  }
}
layer {
  name: "inception_4d/relu_5x5_reduce"
  type: "ReLU"
  bottom: "inception_4d/5x5_reduce"
  top: "inception_4d/5x5_reduce"
}
layer {
  name: "inception_4d/5x5"
  type: "Convolution"
  bottom: "inception_4d/5x5_reduce"
  top: "inception_4d/5x5"
  param {
    lr_mult: 1
    decay_mult: 1
  }
  param {
    lr_mult: 2
    decay_mult: 0
  }
  convolution_param {
    num_output: 64
    pad: 2
    kernel_size: 5
    weight_filler {
      type: "xavier"
      std: 0.03
    }
    bias_filler {
      type: "constant"
      value: 0.2
    }
  }
}
layer {
  name: "inception_4d/relu_5x5"
  type: "ReLU"
  bottom: "inception_4d/5x5"
  top: "inception_4d/5x5"
}
layer {
  name: "inception_4d/pool"
  type: "Pooling"
  bottom: "inception_4c/output"
  top: "inception_4d/pool"
  pooling_param {
    pool: MAX
    kernel_size: 3
    stride: 1
    pad: 1
  }
}
layer {
  name: "inception_4d/pool_proj"
  type: "Convolution"
  bottom: "inception_4d/pool"
  top: "inception_4d/pool_proj"
  param {
    lr_mult: 1
    decay_mult: 1
  }
  param {
    lr_mult: 2
    decay_mult: 0
  }
  convolution_param {
    num_output: 64
    kernel_size: 1
    weight_filler {
      type: "xavier"
      std: 0.1
    }
    bias_filler {
      type: "constant"
      value: 0.2
    }
  }
}
layer {
  name: "inception_4d/relu_pool_proj"
  type: "ReLU"
  bottom: "inception_4d/pool_proj"
  top: "inception_4d/pool_proj"
}
layer {
  name: "inception_4d/output"
  type: "Concat"
  bottom: "inception_4d/1x1"
  bottom: "inception_4d/3x3"
  bottom: "inception_4d/5x5"
  bottom: "inception_4d/pool_proj"
  top: "inception_4d/output"
}
layer {
  name: "loss2/ave_pool"
  type: "Pooling"
  bottom: "inception_4d/output"
  top: "loss2/ave_pool"
  pooling_param {
    pool: AVE
    kernel_size: 5
    stride: 3
  }
}
layer {
  name: "loss2/conv"
  type: "Convolution"
  bottom: "loss2/ave_pool"
  top: "loss2/conv"
  param {
    lr_mult: 1
    decay_mult: 1
  }
  param {
    lr_mult: 2
    decay_mult: 0
  }
  convolution_param {
    num_output: 128
    kernel_size: 1
    weight_filler {
      type: "xavier"
      std: 0.08
    }
    bias_filler {
      type: "constant"
      value: 0.2
    }
  }
}
layer {
  name: "loss2/relu_conv"
  type: "ReLU"
  bottom: "loss2/conv"
  top: "loss2/conv"
}
layer {
  name: "loss2/fc"
  type: "InnerProduct"
  bottom: "loss2/conv"
  top: "loss2/fc"
  param {
    lr_mult: 1
    decay_mult: 1
  }
  param {
    lr_mult: 2
    decay_mult: 0
  }
  inner_product_param {
    num_output: 1024
    weight_filler {
      type: "xavier"
      std: 0.02
    }
    bias_filler {
      type: "constant"
      value: 0.2
    }
  }
}
layer {
  name: "loss2/relu_fc"
  type: "ReLU"
  bottom: "loss2/fc"
  top: "loss2/fc"
}
layer {
  name: "loss2/drop_fc"
  type: "Dropout"
  bottom: "loss2/fc"
  top: "loss2/fc"
  dropout_param {
    dropout_ratio: 0.7
  }
}
layer {
  name: "loss2/classifier_plantvillage"
  type: "InnerProduct"
  bottom: "loss2/fc"
  top: "loss2/classifier_plantvillage"
  param {
    lr_mult: 1
    decay_mult: 1
  }
  param {
    lr_mult: 2
    decay_mult: 0
  }
  inner_product_param {
    num_output: 38
    weight_filler {
      type: "xavier"
      std: 0.0009765625
    }
    bias_filler {
      type: "constant"
      value: 0
    }
  }
}
layer {
  name: "inception_4e/1x1"
  type: "Convolution"
  bottom: "inception_4d/output"
  top: "inception_4e/1x1"
  param {
    lr_mult: 1
    decay_mult: 1
  }
  param {
    lr_mult: 2
    decay_mult: 0
  }
  convolution_param {
    num_output: 256
    kernel_size: 1
    weight_filler {
      type: "xavier"
      std: 0.03
    }
    bias_filler {
      type: "constant"
      value: 0.2
    }
  }
}
layer {
  name: "inception_4e/relu_1x1"
  type: "ReLU"
  bottom: "inception_4e/1x1"
  top: "inception_4e/1x1"
}
layer {
  name: "inception_4e/3x3_reduce"
  type: "Convolution"
  bottom: "inception_4d/output"
  top: "inception_4e/3x3_reduce"
  param {
    lr_mult: 1
    decay_mult: 1
  }
  param {
    lr_mult: 2
    decay_mult: 0
  }
  convolution_param {
    num_output: 160
    kernel_size: 1
    weight_filler {
      type: "xavier"
      std: 0.09
    }
    bias_filler {
      type: "constant"
      value: 0.2
    }
  }
}
layer {
  name: "inception_4e/relu_3x3_reduce"
  type: "ReLU"
  bottom: "inception_4e/3x3_reduce"
  top: "inception_4e/3x3_reduce"
}
layer {
  name: "inception_4e/3x3"
  type: "Convolution"
  bottom: "inception_4e/3x3_reduce"
  top: "inception_4e/3x3"
  param {
    lr_mult: 1
    decay_mult: 1
  }
  param {
    lr_mult: 2
    decay_mult: 0
  }
  convolution_param {
    num_output: 320
    pad: 1
    kernel_size: 3
    weight_filler {
      type: "xavier"
      std: 0.03
    }
    bias_filler {
      type: "constant"
      value: 0.2
    }
  }
}
layer {
  name: "inception_4e/relu_3x3"
  type: "ReLU"
  bottom: "inception_4e/3x3"
  top: "inception_4e/3x3"
}
layer {
  name: "inception_4e/5x5_reduce"
  type: "Convolution"
  bottom: "inception_4d/output"
  top: "inception_4e/5x5_reduce"
  param {
    lr_mult: 1
    decay_mult: 1
  }
  param {
    lr_mult: 2
    decay_mult: 0
  }
  convolution_param {
    num_output: 32
    kernel_size: 1
    weight_filler {
      type: "xavier"
      std: 0.2
    }
    bias_filler {
      type: "constant"
      value: 0.2
    }
  }
}
layer {
  name: "inception_4e/relu_5x5_reduce"
  type: "ReLU"
  bottom: "inception_4e/5x5_reduce"
  top: "inception_4e/5x5_reduce"
}
layer {
  name: "inception_4e/5x5"
  type: "Convolution"
  bottom: "inception_4e/5x5_reduce"
  top: "inception_4e/
I0403 19:34:02.817396  9390 layer_factory.hpp:77] Creating layer data
I0403 19:34:02.817997  9390 net.cpp:91] Creating Layer data
I0403 19:34:02.818027  9390 net.cpp:399] data -> data
I0403 19:34:02.818078  9390 net.cpp:399] data -> label
I0403 19:34:02.818114  9390 data_transformer.cpp:25] Loading mean file from: /home/mohanty/data/final_dataset/lmdb/grayscale-50-50/mean.binaryproto
I0403 19:34:02.819627  9394 db_lmdb.cpp:38] Opened lmdb /home/mohanty/data/final_dataset/lmdb/grayscale-50-50/test_db
I0403 19:34:02.831569  9390 data_layer.cpp:41] output data size: 24,3,224,224
I0403 19:34:02.858850  9390 net.cpp:141] Setting up data
I0403 19:34:02.858904  9390 net.cpp:148] Top shape: 24 3 224 224 (3612672)
I0403 19:34:02.858927  9390 net.cpp:148] Top shape: 24 (24)
I0403 19:34:02.858943  9390 net.cpp:156] Memory required for data: 14450784
I0403 19:34:02.858969  9390 layer_factory.hpp:77] Creating layer label_data_1_split
I0403 19:34:02.858995  9390 net.cpp:91] Creating Layer label_data_1_split
I0403 19:34:02.859014  9390 net.cpp:425] label_data_1_split <- label
I0403 19:34:02.859045  9390 net.cpp:399] label_data_1_split -> label_data_1_split_0
I0403 19:34:02.859071  9390 net.cpp:399] label_data_1_split -> label_data_1_split_1
I0403 19:34:02.859094  9390 net.cpp:399] label_data_1_split -> label_data_1_split_2
I0403 19:34:02.859115  9390 net.cpp:399] label_data_1_split -> label_data_1_split_3
I0403 19:34:02.859135  9390 net.cpp:399] label_data_1_split -> label_data_1_split_4
I0403 19:34:02.859155  9390 net.cpp:399] label_data_1_split -> label_data_1_split_5
I0403 19:34:02.859175  9390 net.cpp:399] label_data_1_split -> label_data_1_split_6
I0403 19:34:02.859196  9390 net.cpp:399] label_data_1_split -> label_data_1_split_7
I0403 19:34:02.859223  9390 net.cpp:399] label_data_1_split -> label_data_1_split_8
I0403 19:34:02.859246  9390 net.cpp:399] label_data_1_split -> label_data_1_split_9
I0403 19:34:02.859360  9390 net.cpp:141] Setting up label_data_1_split
I0403 19:34:02.859383  9390 net.cpp:148] Top shape: 24 (24)
I0403 19:34:02.859400  9390 net.cpp:148] Top shape: 24 (24)
I0403 19:34:02.859417  9390 net.cpp:148] Top shape: 24 (24)
I0403 19:34:02.859433  9390 net.cpp:148] Top shape: 24 (24)
I0403 19:34:02.859448  9390 net.cpp:148] Top shape: 24 (24)
I0403 19:34:02.859464  9390 net.cpp:148] Top shape: 24 (24)
I0403 19:34:02.859480  9390 net.cpp:148] Top shape: 24 (24)
I0403 19:34:02.859496  9390 net.cpp:148] Top shape: 24 (24)
I0403 19:34:02.859513  9390 net.cpp:148] Top shape: 24 (24)
I0403 19:34:02.859529  9390 net.cpp:148] Top shape: 24 (24)
I0403 19:34:02.859575  9390 net.cpp:156] Memory required for data: 14451744
I0403 19:34:02.859591  9390 layer_factory.hpp:77] Creating layer conv1/7x7_s2
I0403 19:34:02.859623  9390 net.cpp:91] Creating Layer conv1/7x7_s2
I0403 19:34:02.859642  9390 net.cpp:425] conv1/7x7_s2 <- data
I0403 19:34:02.859661  9390 net.cpp:399] conv1/7x7_s2 -> conv1/7x7_s2
I0403 19:34:02.999238  9390 net.cpp:141] Setting up conv1/7x7_s2
I0403 19:34:02.999315  9390 net.cpp:148] Top shape: 24 64 112 112 (19267584)
I0403 19:34:02.999335  9390 net.cpp:156] Memory required for data: 91522080
I0403 19:34:02.999366  9390 layer_factory.hpp:77] Creating layer conv1/relu_7x7
I0403 19:34:02.999394  9390 net.cpp:91] Creating Layer conv1/relu_7x7
I0403 19:34:02.999414  9390 net.cpp:425] conv1/relu_7x7 <- conv1/7x7_s2
I0403 19:34:02.999434  9390 net.cpp:386] conv1/relu_7x7 -> conv1/7x7_s2 (in-place)
I0403 19:34:02.999686  9390 net.cpp:141] Setting up conv1/relu_7x7
I0403 19:34:02.999712  9390 net.cpp:148] Top shape: 24 64 112 112 (19267584)
I0403 19:34:02.999728  9390 net.cpp:156] Memory required for data: 168592416
I0403 19:34:02.999743  9390 layer_factory.hpp:77] Creating layer pool1/3x3_s2
I0403 19:34:02.999768  9390 net.cpp:91] Creating Layer pool1/3x3_s2
I0403 19:34:02.999788  9390 net.cpp:425] pool1/3x3_s2 <- conv1/7x7_s2
I0403 19:34:02.999806  9390 net.cpp:399] pool1/3x3_s2 -> pool1/3x3_s2
I0403 19:34:02.999876  9390 net.cpp:141] Setting up pool1/3x3_s2
I0403 19:34:02.999900  9390 net.cpp:148] Top shape: 24 64 56 56 (4816896)
I0403 19:34:02.999915  9390 net.cpp:156] Memory required for data: 187860000
I0403 19:34:02.999930  9390 layer_factory.hpp:77] Creating layer pool1/norm1
I0403 19:34:02.999954  9390 net.cpp:91] Creating Layer pool1/norm1
I0403 19:34:02.999972  9390 net.cpp:425] pool1/norm1 <- pool1/3x3_s2
I0403 19:34:02.999992  9390 net.cpp:399] pool1/norm1 -> pool1/norm1
I0403 19:34:03.000285  9390 net.cpp:141] Setting up pool1/norm1
I0403 19:34:03.000313  9390 net.cpp:148] Top shape: 24 64 56 56 (4816896)
I0403 19:34:03.000329  9390 net.cpp:156] Memory required for data: 207127584
I0403 19:34:03.000344  9390 layer_factory.hpp:77] Creating layer conv2/3x3_reduce
I0403 19:34:03.000367  9390 net.cpp:91] Creating Layer conv2/3x3_reduce
I0403 19:34:03.000385  9390 net.cpp:425] conv2/3x3_reduce <- pool1/norm1
I0403 19:34:03.000403  9390 net.cpp:399] conv2/3x3_reduce -> conv2/3x3_reduce
I0403 19:34:03.001729  9390 net.cpp:141] Setting up conv2/3x3_reduce
I0403 19:34:03.001760  9390 net.cpp:148] Top shape: 24 64 56 56 (4816896)
I0403 19:34:03.001777  9390 net.cpp:156] Memory required for data: 226395168
I0403 19:34:03.001801  9390 layer_factory.hpp:77] Creating layer conv2/relu_3x3_reduce
I0403 19:34:03.001821  9390 net.cpp:91] Creating Layer conv2/relu_3x3_reduce
I0403 19:34:03.001837  9390 net.cpp:425] conv2/relu_3x3_reduce <- conv2/3x3_reduce
I0403 19:34:03.001853  9390 net.cpp:386] conv2/relu_3x3_reduce -> conv2/3x3_reduce (in-place)
I0403 19:34:03.002118  9390 net.cpp:141] Setting up conv2/relu_3x3_reduce
I0403 19:34:03.002145  9390 net.cpp:148] Top shape: 24 64 56 56 (4816896)
I0403 19:34:03.002159  9390 net.cpp:156] Memory required for data: 245662752
I0403 19:34:03.002176  9390 layer_factory.hpp:77] Creating layer conv2/3x3
I0403 19:34:03.002204  9390 net.cpp:91] Creating Layer conv2/3x3
I0403 19:34:03.002223  9390 net.cpp:425] conv2/3x3 <- conv2/3x3_reduce
I0403 19:34:03.002243  9390 net.cpp:399] conv2/3x3 -> conv2/3x3
I0403 19:34:03.004541  9390 net.cpp:141] Setting up conv2/3x3
I0403 19:34:03.004572  9390 net.cpp:148] Top shape: 24 192 56 56 (14450688)
I0403 19:34:03.004590  9390 net.cpp:156] Memory required for data: 303465504
I0403 19:34:03.004611  9390 layer_factory.hpp:77] Creating layer conv2/relu_3x3
I0403 19:34:03.004632  9390 net.cpp:91] Creating Layer conv2/relu_3x3
I0403 19:34:03.004650  9390 net.cpp:425] conv2/relu_3x3 <- conv2/3x3
I0403 19:34:03.004669  9390 net.cpp:386] conv2/relu_3x3 -> conv2/3x3 (in-place)
I0403 19:34:03.004842  9390 net.cpp:141] Setting up conv2/relu_3x3
I0403 19:34:03.004868  9390 net.cpp:148] Top shape: 24 192 56 56 (14450688)
I0403 19:34:03.004919  9390 net.cpp:156] Memory required for data: 361268256
I0403 19:34:03.004935  9390 layer_factory.hpp:77] Creating layer conv2/norm2
I0403 19:34:03.004953  9390 net.cpp:91] Creating Layer conv2/norm2
I0403 19:34:03.004968  9390 net.cpp:425] conv2/norm2 <- conv2/3x3
I0403 19:34:03.004987  9390 net.cpp:399] conv2/norm2 -> conv2/norm2
I0403 19:34:03.005326  9390 net.cpp:141] Setting up conv2/norm2
I0403 19:34:03.005353  9390 net.cpp:148] Top shape: 24 192 56 56 (14450688)
I0403 19:34:03.005369  9390 net.cpp:156] Memory required for data: 419071008
I0403 19:34:03.005384  9390 layer_factory.hpp:77] Creating layer pool2/3x3_s2
I0403 19:34:03.005403  9390 net.cpp:91] Creating Layer pool2/3x3_s2
I0403 19:34:03.005417  9390 net.cpp:425] pool2/3x3_s2 <- conv2/norm2
I0403 19:34:03.005437  9390 net.cpp:399] pool2/3x3_s2 -> pool2/3x3_s2
I0403 19:34:03.005489  9390 net.cpp:141] Setting up pool2/3x3_s2
I0403 19:34:03.005513  9390 net.cpp:148] Top shape: 24 192 28 28 (3612672)
I0403 19:34:03.005528  9390 net.cpp:156] Memory required for data: 433521696
I0403 19:34:03.005543  9390 layer_factory.hpp:77] Creating layer pool2/3x3_s2_pool2/3x3_s2_0_split
I0403 19:34:03.005564  9390 net.cpp:91] Creating Layer pool2/3x3_s2_pool2/3x3_s2_0_split
I0403 19:34:03.005581  9390 net.cpp:425] pool2/3x3_s2_pool2/3x3_s2_0_split <- pool2/3x3_s2
I0403 19:34:03.005599  9390 net.cpp:399] pool2/3x3_s2_pool2/3x3_s2_0_split -> pool2/3x3_s2_pool2/3x3_s2_0_split_0
I0403 19:34:03.005621  9390 net.cpp:399] pool2/3x3_s2_pool2/3x3_s2_0_split -> pool2/3x3_s2_pool2/3x3_s2_0_split_1
I0403 19:34:03.005642  9390 net.cpp:399] pool2/3x3_s2_pool2/3x3_s2_0_split -> pool2/3x3_s2_pool2/3x3_s2_0_split_2
I0403 19:34:03.005662  9390 net.cpp:399] pool2/3x3_s2_pool2/3x3_s2_0_split -> pool2/3x3_s2_pool2/3x3_s2_0_split_3
I0403 19:34:03.005733  9390 net.cpp:141] Setting up pool2/3x3_s2_pool2/3x3_s2_0_split
I0403 19:34:03.005756  9390 net.cpp:148] Top shape: 24 192 28 28 (3612672)
I0403 19:34:03.005774  9390 net.cpp:148] Top shape: 24 192 28 28 (3612672)
I0403 19:34:03.005790  9390 net.cpp:148] Top shape: 24 192 28 28 (3612672)
I0403 19:34:03.005806  9390 net.cpp:148] Top shape: 24 192 28 28 (3612672)
I0403 19:34:03.005820  9390 net.cpp:156] Memory required for data: 491324448
I0403 19:34:03.005836  9390 layer_factory.hpp:77] Creating layer inception_3a/1x1
I0403 19:34:03.005858  9390 net.cpp:91] Creating Layer inception_3a/1x1
I0403 19:34:03.005877  9390 net.cpp:425] inception_3a/1x1 <- pool2/3x3_s2_pool2/3x3_s2_0_split_0
I0403 19:34:03.005897  9390 net.cpp:399] inception_3a/1x1 -> inception_3a/1x1
I0403 19:34:03.007454  9390 net.cpp:141] Setting up inception_3a/1x1
I0403 19:34:03.007483  9390 net.cpp:148] Top shape: 24 64 28 28 (1204224)
I0403 19:34:03.007498  9390 net.cpp:156] Memory required for data: 496141344
I0403 19:34:03.007518  9390 layer_factory.hpp:77] Creating layer inception_3a/relu_1x1
I0403 19:34:03.007537  9390 net.cpp:91] Creating Layer inception_3a/relu_1x1
I0403 19:34:03.007553  9390 net.cpp:425] inception_3a/relu_1x1 <- inception_3a/1x1
I0403 19:34:03.007570  9390 net.cpp:386] inception_3a/relu_1x1 -> inception_3a/1x1 (in-place)
I0403 19:34:03.007738  9390 net.cpp:141] Setting up inception_3a/relu_1x1
I0403 19:34:03.007766  9390 net.cpp:148] Top shape: 24 64 28 28 (1204224)
I0403 19:34:03.007781  9390 net.cpp:156] Memory required for data: 500958240
I0403 19:34:03.007796  9390 layer_factory.hpp:77] Creating layer inception_3a/3x3_reduce
I0403 19:34:03.007817  9390 net.cpp:91] Creating Layer inception_3a/3x3_reduce
I0403 19:34:03.007833  9390 net.cpp:425] inception_3a/3x3_reduce <- pool2/3x3_s2_pool2/3x3_s2_0_split_1
I0403 19:34:03.007853  9390 net.cpp:399] inception_3a/3x3_reduce -> inception_3a/3x3_reduce
I0403 19:34:03.009479  9390 net.cpp:141] Setting up inception_3a/3x3_reduce
I0403 19:34:03.009510  9390 net.cpp:148] Top shape: 24 96 28 28 (1806336)
I0403 19:34:03.009526  9390 net.cpp:156] Memory required for data: 508183584
I0403 19:34:03.009547  9390 layer_factory.hpp:77] Creating layer inception_3a/relu_3x3_reduce
I0403 19:34:03.009584  9390 net.cpp:91] Creating Layer inception_3a/relu_3x3_reduce
I0403 19:34:03.009603  9390 net.cpp:425] inception_3a/relu_3x3_reduce <- inception_3a/3x3_reduce
I0403 19:34:03.009621  9390 net.cpp:386] inception_3a/relu_3x3_reduce -> inception_3a/3x3_reduce (in-place)
I0403 19:34:03.009796  9390 net.cpp:141] Setting up inception_3a/relu_3x3_reduce
I0403 19:34:03.009822  9390 net.cpp:148] Top shape: 24 96 28 28 (1806336)
I0403 19:34:03.009837  9390 net.cpp:156] Memory required for data: 515408928
I0403 19:34:03.009852  9390 layer_factory.hpp:77] Creating layer inception_3a/3x3
I0403 19:34:03.009877  9390 net.cpp:91] Creating Layer inception_3a/3x3
I0403 19:34:03.009896  9390 net.cpp:425] inception_3a/3x3 <- inception_3a/3x3_reduce
I0403 19:34:03.009918  9390 net.cpp:399] inception_3a/3x3 -> inception_3a/3x3
I0403 19:34:03.011500  9390 net.cpp:141] Setting up inception_3a/3x3
I0403 19:34:03.011529  9390 net.cpp:148] Top shape: 24 128 28 28 (2408448)
I0403 19:34:03.011546  9390 net.cpp:156] Memory required for data: 525042720
I0403 19:34:03.011564  9390 layer_factory.hpp:77] Creating layer inception_3a/relu_3x3
I0403 19:34:03.011584  9390 net.cpp:91] Creating Layer inception_3a/relu_3x3
I0403 19:34:03.011600  9390 net.cpp:425] inception_3a/relu_3x3 <- inception_3a/3x3
I0403 19:34:03.011616  9390 net.cpp:386] inception_3a/relu_3x3 -> inception_3a/3x3 (in-place)
I0403 19:34:03.011878  9390 net.cpp:141] Setting up inception_3a/relu_3x3
I0403 19:34:03.011904  9390 net.cpp:148] Top shape: 24 128 28 28 (2408448)
I0403 19:34:03.011917  9390 net.cpp:156] Memory required for data: 534676512
I0403 19:34:03.011932  9390 layer_factory.hpp:77] Creating layer inception_3a/5x5_reduce
I0403 19:34:03.011955  9390 net.cpp:91] Creating Layer inception_3a/5x5_reduce
I0403 19:34:03.011971  9390 net.cpp:425] inception_3a/5x5_reduce <- pool2/3x3_s2_pool2/3x3_s2_0_split_2
I0403 19:34:03.011992  9390 net.cpp:399] inception_3a/5x5_reduce -> inception_3a/5x5_reduce
I0403 19:34:03.012919  9390 net.cpp:141] Setting up inception_3a/5x5_reduce
I0403 19:34:03.012948  9390 net.cpp:148] Top shape: 24 16 28 28 (301056)
I0403 19:34:03.012964  9390 net.cpp:156] Memory required for data: 535880736
I0403 19:34:03.012984  9390 layer_factory.hpp:77] Creating layer inception_3a/relu_5x5_reduce
I0403 19:34:03.013005  9390 net.cpp:91] Creating Layer inception_3a/relu_5x5_reduce
I0403 19:34:03.013020  9390 net.cpp:425] inception_3a/relu_5x5_reduce <- inception_3a/5x5_reduce
I0403 19:34:03.013037  9390 net.cpp:386] inception_3a/relu_5x5_reduce -> inception_3a/5x5_reduce (in-place)
I0403 19:34:03.013327  9390 net.cpp:141] Setting up inception_3a/relu_5x5_reduce
I0403 19:34:03.013355  9390 net.cpp:148] Top shape: 24 16 28 28 (301056)
I0403 19:34:03.013371  9390 net.cpp:156] Memory required for data: 537084960
I0403 19:34:03.013386  9390 layer_factory.hpp:77] Creating layer inception_3a/5x5
I0403 19:34:03.013411  9390 net.cpp:91] Creating Layer inception_3a/5x5
I0403 19:34:03.013427  9390 net.cpp:425] inception_3a/5x5 <- inception_3a/5x5_reduce
I0403 19:34:03.013447  9390 net.cpp:399] inception_3a/5x5 -> inception_3a/5x5
I0403 19:34:03.014477  9390 net.cpp:141] Setting up inception_3a/5x5
I0403 19:34:03.014505  9390 net.cpp:148] Top shape: 24 32 28 28 (602112)
I0403 19:34:03.014520  9390 net.cpp:156] Memory required for data: 539493408
I0403 19:34:03.014539  9390 layer_factory.hpp:77] Creating layer inception_3a/relu_5x5
I0403 19:34:03.014559  9390 net.cpp:91] Creating Layer inception_3a/relu_5x5
I0403 19:34:03.014575  9390 net.cpp:425] inception_3a/relu_5x5 <- inception_3a/5x5
I0403 19:34:03.014591  9390 net.cpp:386] inception_3a/relu_5x5 -> inception_3a/5x5 (in-place)
I0403 19:34:03.014757  9390 net.cpp:141] Setting up inception_3a/relu_5x5
I0403 19:34:03.014781  9390 net.cpp:148] Top shape: 24 32 28 28 (602112)
I0403 19:34:03.014796  9390 net.cpp:156] Memory required for data: 541901856
I0403 19:34:03.014811  9390 layer_factory.hpp:77] Creating layer inception_3a/pool
I0403 19:34:03.014829  9390 net.cpp:91] Creating Layer inception_3a/pool
I0403 19:34:03.014859  9390 net.cpp:425] inception_3a/pool <- pool2/3x3_s2_pool2/3x3_s2_0_split_3
I0403 19:34:03.014878  9390 net.cpp:399] inception_3a/pool -> inception_3a/pool
I0403 19:34:03.014933  9390 net.cpp:141] Setting up inception_3a/pool
I0403 19:34:03.014956  9390 net.cpp:148] Top shape: 24 192 28 28 (3612672)
I0403 19:34:03.014971  9390 net.cpp:156] Memory required for data: 556352544
I0403 19:34:03.014986  9390 layer_factory.hpp:77] Creating layer inception_3a/pool_proj
I0403 19:34:03.015007  9390 net.cpp:91] Creating Layer inception_3a/pool_proj
I0403 19:34:03.015023  9390 net.cpp:425] inception_3a/pool_proj <- inception_3a/pool
I0403 19:34:03.015044  9390 net.cpp:399] inception_3a/pool_proj -> inception_3a/pool_proj
I0403 19:34:03.016001  9390 net.cpp:141] Setting up inception_3a/pool_proj
I0403 19:34:03.016031  9390 net.cpp:148] Top shape: 24 32 28 28 (602112)
I0403 19:34:03.016046  9390 net.cpp:156] Memory required for data: 558760992
I0403 19:34:03.016067  9390 layer_factory.hpp:77] Creating layer inception_3a/relu_pool_proj
I0403 19:34:03.016119  9390 net.cpp:91] Creating Layer inception_3a/relu_pool_proj
I0403 19:34:03.016134  9390 net.cpp:425] inception_3a/relu_pool_proj <- inception_3a/pool_proj
I0403 19:34:03.016151  9390 net.cpp:386] inception_3a/relu_pool_proj -> inception_3a/pool_proj (in-place)
I0403 19:34:03.016438  9390 net.cpp:141] Setting up inception_3a/relu_pool_proj
I0403 19:34:03.016464  9390 net.cpp:148] Top shape: 24 32 28 28 (602112)
I0403 19:34:03.016479  9390 net.cpp:156] Memory required for data: 561169440
I0403 19:34:03.016494  9390 layer_factory.hpp:77] Creating layer inception_3a/output
I0403 19:34:03.016512  9390 net.cpp:91] Creating Layer inception_3a/output
I0403 19:34:03.016528  9390 net.cpp:425] inception_3a/output <- inception_3a/1x1
I0403 19:34:03.016544  9390 net.cpp:425] inception_3a/output <- inception_3a/3x3
I0403 19:34:03.016561  9390 net.cpp:425] inception_3a/output <- inception_3a/5x5
I0403 19:34:03.016576  9390 net.cpp:425] inception_3a/output <- inception_3a/pool_proj
I0403 19:34:03.016592  9390 net.cpp:399] inception_3a/output -> inception_3a/output
I0403 19:34:03.016640  9390 net.cpp:141] Setting up inception_3a/output
I0403 19:34:03.016672  9390 net.cpp:148] Top shape: 24 256 28 28 (4816896)
I0403 19:34:03.016686  9390 net.cpp:156] Memory required for data: 580437024
I0403 19:34:03.016700  9390 layer_factory.hpp:77] Creating layer inception_3a/output_inception_3a/output_0_split
I0403 19:34:03.016716  9390 net.cpp:91] Creating Layer inception_3a/output_inception_3a/output_0_split
I0403 19:34:03.016731  9390 net.cpp:425] inception_3a/output_inception_3a/output_0_split <- inception_3a/output
I0403 19:34:03.016749  9390 net.cpp:399] inception_3a/output_inception_3a/output_0_split -> inception_3a/output_inception_3a/output_0_split_0
I0403 19:34:03.016769  9390 net.cpp:399] inception_3a/output_inception_3a/output_0_split -> inception_3a/output_inception_3a/output_0_split_1
I0403 19:34:03.016790  9390 net.cpp:399] inception_3a/output_inception_3a/output_0_split -> inception_3a/output_inception_3a/output_0_split_2
I0403 19:34:03.016810  9390 net.cpp:399] inception_3a/output_inception_3a/output_0_split -> inception_3a/output_inception_3a/output_0_split_3
I0403 19:34:03.016882  9390 net.cpp:141] Setting up inception_3a/output_inception_3a/output_0_split
I0403 19:34:03.016906  9390 net.cpp:148] Top shape: 24 256 28 28 (4816896)
I0403 19:34:03.016921  9390 net.cpp:148] Top shape: 24 256 28 28 (4816896)
I0403 19:34:03.016937  9390 net.cpp:148] Top shape: 24 256 28 28 (4816896)
I0403 19:34:03.016952  9390 net.cpp:148] Top shape: 24 256 28 28 (4816896)
I0403 19:34:03.016964  9390 net.cpp:156] Memory required for data: 657507360
I0403 19:34:03.016978  9390 layer_factory.hpp:77] Creating layer inception_3b/1x1
I0403 19:34:03.016999  9390 net.cpp:91] Creating Layer inception_3b/1x1
I0403 19:34:03.017015  9390 net.cpp:425] inception_3b/1x1 <- inception_3a/output_inception_3a/output_0_split_0
I0403 19:34:03.017035  9390 net.cpp:399] inception_3b/1x1 -> inception_3b/1x1
I0403 19:34:03.018170  9390 net.cpp:141] Setting up inception_3b/1x1
I0403 19:34:03.018213  9390 net.cpp:148] Top shape: 24 128 28 28 (2408448)
I0403 19:34:03.018229  9390 net.cpp:156] Memory required for data: 667141152
I0403 19:34:03.018247  9390 layer_factory.hpp:77] Creating layer inception_3b/relu_1x1
I0403 19:34:03.018265  9390 net.cpp:91] Creating Layer inception_3b/relu_1x1
I0403 19:34:03.018281  9390 net.cpp:425] inception_3b/relu_1x1 <- inception_3b/1x1
I0403 19:34:03.018301  9390 net.cpp:386] inception_3b/relu_1x1 -> inception_3b/1x1 (in-place)
I0403 19:34:03.018468  9390 net.cpp:141] Setting up inception_3b/relu_1x1
I0403 19:34:03.018492  9390 net.cpp:148] Top shape: 24 128 28 28 (2408448)
I0403 19:34:03.018507  9390 net.cpp:156] Memory required for data: 676774944
I0403 19:34:03.018522  9390 layer_factory.hpp:77] Creating layer inception_3b/3x3_reduce
I0403 19:34:03.018543  9390 net.cpp:91] Creating Layer inception_3b/3x3_reduce
I0403 19:34:03.018559  9390 net.cpp:425] inception_3b/3x3_reduce <- inception_3a/output_inception_3a/output_0_split_1
I0403 19:34:03.018580  9390 net.cpp:399] inception_3b/3x3_reduce -> inception_3b/3x3_reduce
I0403 19:34:03.019695  9390 net.cpp:141] Setting up inception_3b/3x3_reduce
I0403 19:34:03.019724  9390 net.cpp:148] Top shape: 24 128 28 28 (2408448)
I0403 19:34:03.019740  9390 net.cpp:156] Memory required for data: 686408736
I0403 19:34:03.019772  9390 layer_factory.hpp:77] Creating layer inception_3b/relu_3x3_reduce
I0403 19:34:03.019789  9390 net.cpp:91] Creating Layer inception_3b/relu_3x3_reduce
I0403 19:34:03.019814  9390 net.cpp:425] inception_3b/relu_3x3_reduce <- inception_3b/3x3_reduce
I0403 19:34:03.019834  9390 net.cpp:386] inception_3b/relu_3x3_reduce -> inception_3b/3x3_reduce (in-place)
I0403 19:34:03.019999  9390 net.cpp:141] Setting up inception_3b/relu_3x3_reduce
I0403 19:34:03.020023  9390 net.cpp:148] Top shape: 24 128 28 28 (2408448)
I0403 19:34:03.020038  9390 net.cpp:156] Memory required for data: 696042528
I0403 19:34:03.020052  9390 layer_factory.hpp:77] Creating layer inception_3b/3x3
I0403 19:34:03.020081  9390 net.cpp:91] Creating Layer inception_3b/3x3
I0403 19:34:03.020097  9390 net.cpp:425] inception_3b/3x3 <- inception_3b/3x3_reduce
I0403 19:34:03.020117  9390 net.cpp:399] inception_3b/3x3 -> inception_3b/3x3
I0403 19:34:03.022980  9390 net.cpp:141] Setting up inception_3b/3x3
I0403 19:34:03.023008  9390 net.cpp:148] Top shape: 24 192 28 28 (3612672)
I0403 19:34:03.023025  9390 net.cpp:156] Memory required for data: 710493216
I0403 19:34:03.023042  9390 layer_factory.hpp:77] Creating layer inception_3b/relu_3x3
I0403 19:34:03.023064  9390 net.cpp:91] Creating Layer inception_3b/relu_3x3
I0403 19:34:03.023080  9390 net.cpp:425] inception_3b/relu_3x3 <- inception_3b/3x3
I0403 19:34:03.023097  9390 net.cpp:386] inception_3b/relu_3x3 -> inception_3b/3x3 (in-place)
I0403 19:34:03.023388  9390 net.cpp:141] Setting up inception_3b/relu_3x3
I0403 19:34:03.023414  9390 net.cpp:148] Top shape: 24 192 28 28 (3612672)
I0403 19:34:03.023429  9390 net.cpp:156] Memory required for data: 724943904
I0403 19:34:03.023443  9390 layer_factory.hpp:77] Creating layer inception_3b/5x5_reduce
I0403 19:34:03.023478  9390 net.cpp:91] Creating Layer inception_3b/5x5_reduce
I0403 19:34:03.023496  9390 net.cpp:425] inception_3b/5x5_reduce <- inception_3a/output_inception_3a/output_0_split_2
I0403 19:34:03.023519  9390 net.cpp:399] inception_3b/5x5_reduce -> inception_3b/5x5_reduce
I0403 19:34:03.024503  9390 net.cpp:141] Setting up inception_3b/5x5_reduce
I0403 19:34:03.024531  9390 net.cpp:148] Top shape: 24 32 28 28 (602112)
I0403 19:34:03.024547  9390 net.cpp:156] Memory required for data: 727352352
I0403 19:34:03.024566  9390 layer_factory.hpp:77] Creating layer inception_3b/relu_5x5_reduce
I0403 19:34:03.024587  9390 net.cpp:91] Creating Layer inception_3b/relu_5x5_reduce
I0403 19:34:03.024605  9390 net.cpp:425] inception_3b/relu_5x5_reduce <- inception_3b/5x5_reduce
I0403 19:34:03.024622  9390 net.cpp:386] inception_3b/relu_5x5_reduce -> inception_3b/5x5_reduce (in-place)
I0403 19:34:03.024809  9390 net.cpp:141] Setting up inception_3b/relu_5x5_reduce
I0403 19:34:03.024834  9390 net.cpp:148] Top shape: 24 32 28 28 (602112)
I0403 19:34:03.024848  9390 net.cpp:156] Memory required for data: 729760800
I0403 19:34:03.024863  9390 layer_factory.hpp:77] Creating layer inception_3b/5x5
I0403 19:34:03.024885  9390 net.cpp:91] Creating Layer inception_3b/5x5
I0403 19:34:03.024901  9390 net.cpp:425] inception_3b/5x5 <- inception_3b/5x5_reduce
I0403 19:34:03.024919  9390 net.cpp:399] inception_3b/5x5 -> inception_3b/5x5
I0403 19:34:03.026849  9390 net.cpp:141] Setting up inception_3b/5x5
I0403 19:34:03.026880  9390 net.cpp:148] Top shape: 24 96 28 28 (1806336)
I0403 19:34:03.026895  9390 net.cpp:156] Memory required for data: 736986144
I0403 19:34:03.026913  9390 layer_factory.hpp:77] Creating layer inception_3b/relu_5x5
I0403 19:34:03.026932  9390 net.cpp:91] Creating Layer inception_3b/relu_5x5
I0403 19:34:03.026947  9390 net.cpp:425] inception_3b/relu_5x5 <- inception_3b/5x5
I0403 19:34:03.026964  9390 net.cpp:386] inception_3b/relu_5x5 -> inception_3b/5x5 (in-place)
I0403 19:34:03.027151  9390 net.cpp:141] Setting up inception_3b/relu_5x5
I0403 19:34:03.027175  9390 net.cpp:148] Top shape: 24 96 28 28 (1806336)
I0403 19:34:03.027194  9390 net.cpp:156] Memory required for data: 744211488
I0403 19:34:03.027209  9390 layer_factory.hpp:77] Creating layer inception_3b/pool
I0403 19:34:03.027226  9390 net.cpp:91] Creating Layer inception_3b/pool
I0403 19:34:03.027242  9390 net.cpp:425] inception_3b/pool <- inception_3a/output_inception_3a/output_0_split_3
I0403 19:34:03.027259  9390 net.cpp:399] inception_3b/pool -> inception_3b/pool
I0403 19:34:03.027317  9390 net.cpp:141] Setting up inception_3b/pool
I0403 19:34:03.027339  9390 net.cpp:148] Top shape: 24 256 28 28 (4816896)
I0403 19:34:03.027354  9390 net.cpp:156] Memory required for data: 763479072
I0403 19:34:03.027369  9390 layer_factory.hpp:77] Creating layer inception_3b/pool_proj
I0403 19:34:03.027390  9390 net.cpp:91] Creating Layer inception_3b/pool_proj
I0403 19:34:03.027406  9390 net.cpp:425] inception_3b/pool_proj <- inception_3b/pool
I0403 19:34:03.027426  9390 net.cpp:399] inception_3b/pool_proj -> inception_3b/pool_proj
I0403 19:34:03.028475  9390 net.cpp:141] Setting up inception_3b/pool_proj
I0403 19:34:03.028503  9390 net.cpp:148] Top shape: 24 64 28 28 (1204224)
I0403 19:34:03.028519  9390 net.cpp:156] Memory required for data: 768295968
I0403 19:34:03.028539  9390 layer_factory.hpp:77] Creating layer inception_3b/relu_pool_proj
I0403 19:34:03.028558  9390 net.cpp:91] Creating Layer inception_3b/relu_pool_proj
I0403 19:34:03.028573  9390 net.cpp:425] inception_3b/relu_pool_proj <- inception_3b/pool_proj
I0403 19:34:03.028601  9390 net.cpp:386] inception_3b/relu_pool_proj -> inception_3b/pool_proj (in-place)
I0403 19:34:03.028982  9390 net.cpp:141] Setting up inception_3b/relu_pool_proj
I0403 19:34:03.029009  9390 net.cpp:148] Top shape: 24 64 28 28 (1204224)
I0403 19:34:03.029027  9390 net.cpp:156] Memory required for data: 773112864
I0403 19:34:03.029042  9390 layer_factory.hpp:77] Creating layer inception_3b/output
I0403 19:34:03.029059  9390 net.cpp:91] Creating Layer inception_3b/output
I0403 19:34:03.029074  9390 net.cpp:425] inception_3b/output <- inception_3b/1x1
I0403 19:34:03.029091  9390 net.cpp:425] inception_3b/output <- inception_3b/3x3
I0403 19:34:03.029119  9390 net.cpp:425] inception_3b/output <- inception_3b/5x5
I0403 19:34:03.029134  9390 net.cpp:425] inception_3b/output <- inception_3b/pool_proj
I0403 19:34:03.029148  9390 net.cpp:399] inception_3b/output -> inception_3b/output
I0403 19:34:03.029196  9390 net.cpp:141] Setting up inception_3b/output
I0403 19:34:03.029218  9390 net.cpp:148] Top shape: 24 480 28 28 (9031680)
I0403 19:34:03.029233  9390 net.cpp:156] Memory required for data: 809239584
I0403 19:34:03.029247  9390 layer_factory.hpp:77] Creating layer pool3/3x3_s2
I0403 19:34:03.029268  9390 net.cpp:91] Creating Layer pool3/3x3_s2
I0403 19:34:03.029296  9390 net.cpp:425] pool3/3x3_s2 <- inception_3b/output
I0403 19:34:03.029328  9390 net.cpp:399] pool3/3x3_s2 -> pool3/3x3_s2
I0403 19:34:03.029387  9390 net.cpp:141] Setting up pool3/3x3_s2
I0403 19:34:03.029412  9390 net.cpp:148] Top shape: 24 480 14 14 (2257920)
I0403 19:34:03.029427  9390 net.cpp:156] Memory required for data: 818271264
I0403 19:34:03.029441  9390 layer_factory.hpp:77] Creating layer pool3/3x3_s2_pool3/3x3_s2_0_split
I0403 19:34:03.029458  9390 net.cpp:91] Creating Layer pool3/3x3_s2_pool3/3x3_s2_0_split
I0403 19:34:03.029485  9390 net.cpp:425] pool3/3x3_s2_pool3/3x3_s2_0_split <- pool3/3x3_s2
I0403 19:34:03.029505  9390 net.cpp:399] pool3/3x3_s2_pool3/3x3_s2_0_split -> pool3/3x3_s2_pool3/3x3_s2_0_split_0
I0403 19:34:03.029525  9390 net.cpp:399] pool3/3x3_s2_pool3/3x3_s2_0_split -> pool3/3x3_s2_pool3/3x3_s2_0_split_1
I0403 19:34:03.029546  9390 net.cpp:399] pool3/3x3_s2_pool3/3x3_s2_0_split -> pool3/3x3_s2_pool3/3x3_s2_0_split_2
I0403 19:34:03.029567  9390 net.cpp:399] pool3/3x3_s2_pool3/3x3_s2_0_split -> pool3/3x3_s2_pool3/3x3_s2_0_split_3
I0403 19:34:03.029656  9390 net.cpp:141] Setting up pool3/3x3_s2_pool3/3x3_s2_0_split
I0403 19:34:03.029680  9390 net.cpp:148] Top shape: 24 480 14 14 (2257920)
I0403 19:34:03.029695  9390 net.cpp:148] Top shape: 24 480 14 14 (2257920)
I0403 19:34:03.029711  9390 net.cpp:148] Top shape: 24 480 14 14 (2257920)
I0403 19:34:03.029727  9390 net.cpp:148] Top shape: 24 480 14 14 (2257920)
I0403 19:34:03.029742  9390 net.cpp:156] Memory required for data: 854397984
I0403 19:34:03.029767  9390 layer_factory.hpp:77] Creating layer inception_4a/1x1
I0403 19:34:03.029790  9390 net.cpp:91] Creating Layer inception_4a/1x1
I0403 19:34:03.029806  9390 net.cpp:425] inception_4a/1x1 <- pool3/3x3_s2_pool3/3x3_s2_0_split_0
I0403 19:34:03.029824  9390 net.cpp:399] inception_4a/1x1 -> inception_4a/1x1
I0403 19:34:03.031381  9390 net.cpp:141] Setting up inception_4a/1x1
I0403 19:34:03.031412  9390 net.cpp:148] Top shape: 24 192 14 14 (903168)
I0403 19:34:03.031430  9390 net.cpp:156] Memory required for data: 858010656
I0403 19:34:03.031448  9390 layer_factory.hpp:77] Creating layer inception_4a/relu_1x1
I0403 19:34:03.031478  9390 net.cpp:91] Creating Layer inception_4a/relu_1x1
I0403 19:34:03.031494  9390 net.cpp:425] inception_4a/relu_1x1 <- inception_4a/1x1
I0403 19:34:03.031514  9390 net.cpp:386] inception_4a/relu_1x1 -> inception_4a/1x1 (in-place)
I0403 19:34:03.031705  9390 net.cpp:141] Setting up inception_4a/relu_1x1
I0403 19:34:03.031731  9390 net.cpp:148] Top shape: 24 192 14 14 (903168)
I0403 19:34:03.031747  9390 net.cpp:156] Memory required for data: 861623328
I0403 19:34:03.031774  9390 layer_factory.hpp:77] Creating layer inception_4a/3x3_reduce
I0403 19:34:03.031796  9390 net.cpp:91] Creating Layer inception_4a/3x3_reduce
I0403 19:34:03.031815  9390 net.cpp:425] inception_4a/3x3_reduce <- pool3/3x3_s2_pool3/3x3_s2_0_split_1
I0403 19:34:03.031834  9390 net.cpp:399] inception_4a/3x3_reduce -> inception_4a/3x3_reduce
I0403 19:34:03.033098  9390 net.cpp:141] Setting up inception_4a/3x3_reduce
I0403 19:34:03.033128  9390 net.cpp:148] Top shape: 24 96 14 14 (451584)
I0403 19:34:03.033144  9390 net.cpp:156] Memory required for data: 863429664
I0403 19:34:03.033165  9390 layer_factory.hpp:77] Creating layer inception_4a/relu_3x3_reduce
I0403 19:34:03.033196  9390 net.cpp:91] Creating Layer inception_4a/relu_3x3_reduce
I0403 19:34:03.033215  9390 net.cpp:425] inception_4a/relu_3x3_reduce <- inception_4a/3x3_reduce
I0403 19:34:03.033232  9390 net.cpp:386] inception_4a/relu_3x3_reduce -> inception_4a/3x3_reduce (in-place)
I0403 19:34:03.033421  9390 net.cpp:141] Setting up inception_4a/relu_3x3_reduce
I0403 19:34:03.033447  9390 net.cpp:148] Top shape: 24 96 14 14 (451584)
I0403 19:34:03.033464  9390 net.cpp:156] Memory required for data: 865236000
I0403 19:34:03.033493  9390 layer_factory.hpp:77] Creating layer inception_4a/3x3
I0403 19:34:03.033515  9390 net.cpp:91] Creating Layer inception_4a/3x3
I0403 19:34:03.033534  9390 net.cpp:425] inception_4a/3x3 <- inception_4a/3x3_reduce
I0403 19:34:03.033555  9390 net.cpp:399] inception_4a/3x3 -> inception_4a/3x3
I0403 19:34:03.036357  9390 net.cpp:141] Setting up inception_4a/3x3
I0403 19:34:03.036386  9390 net.cpp:148] Top shape: 24 208 14 14 (978432)
I0403 19:34:03.036402  9390 net.cpp:156] Memory required for data: 869149728
I0403 19:34:03.036422  9390 layer_factory.hpp:77] Creating layer inception_4a/relu_3x3
I0403 19:34:03.036439  9390 net.cpp:91] Creating Layer inception_4a/relu_3x3
I0403 19:34:03.036459  9390 net.cpp:425] inception_4a/relu_3x3 <- inception_4a/3x3
I0403 19:34:03.036478  9390 net.cpp:386] inception_4a/relu_3x3 -> inception_4a/3x3 (in-place)
I0403 19:34:03.036766  9390 net.cpp:141] Setting up inception_4a/relu_3x3
I0403 19:34:03.036792  9390 net.cpp:148] Top shape: 24 208 14 14 (978432)
I0403 19:34:03.036806  9390 net.cpp:156] Memory required for data: 873063456
I0403 19:34:03.036821  9390 layer_factory.hpp:77] Creating layer inception_4a/5x5_reduce
I0403 19:34:03.036844  9390 net.cpp:91] Creating Layer inception_4a/5x5_reduce
I0403 19:34:03.036862  9390 net.cpp:425] inception_4a/5x5_reduce <- pool3/3x3_s2_pool3/3x3_s2_0_split_2
I0403 19:34:03.036883  9390 net.cpp:399] inception_4a/5x5_reduce -> inception_4a/5x5_reduce
I0403 19:34:03.037909  9390 net.cpp:141] Setting up inception_4a/5x5_reduce
I0403 19:34:03.037937  9390 net.cpp:148] Top shape: 24 16 14 14 (75264)
I0403 19:34:03.037953  9390 net.cpp:156] Memory required for data: 873364512
I0403 19:34:03.037972  9390 layer_factory.hpp:77] Creating layer inception_4a/relu_5x5_reduce
I0403 19:34:03.037994  9390 net.cpp:91] Creating Layer inception_4a/relu_5x5_reduce
I0403 19:34:03.038010  9390 net.cpp:425] inception_4a/relu_5x5_reduce <- inception_4a/5x5_reduce
I0403 19:34:03.038028  9390 net.cpp:386] inception_4a/relu_5x5_reduce -> inception_4a/5x5_reduce (in-place)
I0403 19:34:03.038223  9390 net.cpp:141] Setting up inception_4a/relu_5x5_reduce
I0403 19:34:03.038249  9390 net.cpp:148] Top shape: 24 16 14 14 (75264)
I0403 19:34:03.038264  9390 net.cpp:156] Memory required for data: 873665568
I0403 19:34:03.038278  9390 layer_factory.hpp:77] Creating layer inception_4a/5x5
I0403 19:34:03.038301  9390 net.cpp:91] Creating Layer inception_4a/5x5
I0403 19:34:03.038319  9390 net.cpp:425] inception_4a/5x5 <- inception_4a/5x5_reduce
I0403 19:34:03.038338  9390 net.cpp:399] inception_4a/5x5 -> inception_4a/5x5
I0403 19:34:03.039415  9390 net.cpp:141] Setting up inception_4a/5x5
I0403 19:34:03.039446  9390 net.cpp:148] Top shape: 24 48 14 14 (225792)
I0403 19:34:03.039464  9390 net.cpp:156] Memory required for data: 874568736
I0403 19:34:03.039484  9390 layer_factory.hpp:77] Creating layer inception_4a/relu_5x5
I0403 19:34:03.039501  9390 net.cpp:91] Creating Layer inception_4a/relu_5x5
I0403 19:34:03.039520  9390 net.cpp:425] inception_4a/relu_5x5 <- inception_4a/5x5
I0403 19:34:03.039537  9390 net.cpp:386] inception_4a/relu_5x5 -> inception_4a/5x5 (in-place)
I0403 19:34:03.039729  9390 net.cpp:141] Setting up inception_4a/relu_5x5
I0403 19:34:03.039762  9390 net.cpp:148] Top shape: 24 48 14 14 (225792)
I0403 19:34:03.039779  9390 net.cpp:156] Memory required for data: 875471904
I0403 19:34:03.039795  9390 layer_factory.hpp:77] Creating layer inception_4a/pool
I0403 19:34:03.039814  9390 net.cpp:91] Creating Layer inception_4a/pool
I0403 19:34:03.039830  9390 net.cpp:425] inception_4a/pool <- pool3/3x3_s2_pool3/3x3_s2_0_split_3
I0403 19:34:03.039851  9390 net.cpp:399] inception_4a/pool -> inception_4a/pool
I0403 19:34:03.039924  9390 net.cpp:141] Setting up inception_4a/pool
I0403 19:34:03.039950  9390 net.cpp:148] Top shape: 24 480 14 14 (2257920)
I0403 19:34:03.039965  9390 net.cpp:156] Memory required for data: 884503584
I0403 19:34:03.039980  9390 layer_factory.hpp:77] Creating layer inception_4a/pool_proj
I0403 19:34:03.040000  9390 net.cpp:91] Creating Layer inception_4a/pool_proj
I0403 19:34:03.040016  9390 net.cpp:425] inception_4a/pool_proj <- inception_4a/pool
I0403 19:34:03.040036  9390 net.cpp:399] inception_4a/pool_proj -> inception_4a/pool_proj
I0403 19:34:03.041193  9390 net.cpp:141] Setting up inception_4a/pool_proj
I0403 19:34:03.041225  9390 net.cpp:148] Top shape: 24 64 14 14 (301056)
I0403 19:34:03.041257  9390 net.cpp:156] Memory required for data: 885707808
I0403 19:34:03.041277  9390 layer_factory.hpp:77] Creating layer inception_4a/relu_pool_proj
I0403 19:34:03.041296  9390 net.cpp:91] Creating Layer inception_4a/relu_pool_proj
I0403 19:34:03.041312  9390 net.cpp:425] inception_4a/relu_pool_proj <- inception_4a/pool_proj
I0403 19:34:03.041331  9390 net.cpp:386] inception_4a/relu_pool_proj -> inception_4a/pool_proj (in-place)
I0403 19:34:03.041620  9390 net.cpp:141] Setting up inception_4a/relu_pool_proj
I0403 19:34:03.041651  9390 net.cpp:148] Top shape: 24 64 14 14 (301056)
I0403 19:34:03.041666  9390 net.cpp:156] Memory required for data: 886912032
I0403 19:34:03.041682  9390 layer_factory.hpp:77] Creating layer inception_4a/output
I0403 19:34:03.041699  9390 net.cpp:91] Creating Layer inception_4a/output
I0403 19:34:03.041715  9390 net.cpp:425] inception_4a/output <- inception_4a/1x1
I0403 19:34:03.041733  9390 net.cpp:425] inception_4a/output <- inception_4a/3x3
I0403 19:34:03.041749  9390 net.cpp:425] inception_4a/output <- inception_4a/5x5
I0403 19:34:03.041765  9390 net.cpp:425] inception_4a/output <- inception_4a/pool_proj
I0403 19:34:03.041782  9390 net.cpp:399] inception_4a/output -> inception_4a/output
I0403 19:34:03.041829  9390 net.cpp:141] Setting up inception_4a/output
I0403 19:34:03.041853  9390 net.cpp:148] Top shape: 24 512 14 14 (2408448)
I0403 19:34:03.041869  9390 net.cpp:156] Memory required for data: 896545824
I0403 19:34:03.041896  9390 layer_factory.hpp:77] Creating layer inception_4a/output_inception_4a/output_0_split
I0403 19:34:03.041915  9390 net.cpp:91] Creating Layer inception_4a/output_inception_4a/output_0_split
I0403 19:34:03.041931  9390 net.cpp:425] inception_4a/output_inception_4a/output_0_split <- inception_4a/output
I0403 19:34:03.041949  9390 net.cpp:399] inception_4a/output_inception_4a/output_0_split -> inception_4a/output_inception_4a/output_0_split_0
I0403 19:34:03.041970  9390 net.cpp:399] inception_4a/output_inception_4a/output_0_split -> inception_4a/output_inception_4a/output_0_split_1
I0403 19:34:03.041990  9390 net.cpp:399] inception_4a/output_inception_4a/output_0_split -> inception_4a/output_inception_4a/output_0_split_2
I0403 19:34:03.042014  9390 net.cpp:399] inception_4a/output_inception_4a/output_0_split -> inception_4a/output_inception_4a/output_0_split_3
I0403 19:34:03.042035  9390 net.cpp:399] inception_4a/output_inception_4a/output_0_split -> inception_4a/output_inception_4a/output_0_split_4
I0403 19:34:03.042131  9390 net.cpp:141] Setting up inception_4a/output_inception_4a/output_0_split
I0403 19:34:03.042155  9390 net.cpp:148] Top shape: 24 512 14 14 (2408448)
I0403 19:34:03.042171  9390 net.cpp:148] Top shape: 24 512 14 14 (2408448)
I0403 19:34:03.042192  9390 net.cpp:148] Top shape: 24 512 14 14 (2408448)
I0403 19:34:03.042209  9390 net.cpp:148] Top shape: 24 512 14 14 (2408448)
I0403 19:34:03.042224  9390 net.cpp:148] Top shape: 24 512 14 14 (2408448)
I0403 19:34:03.042238  9390 net.cpp:156] Memory required for data: 944714784
I0403 19:34:03.042253  9390 layer_factory.hpp:77] Creating layer loss1/ave_pool
I0403 19:34:03.042273  9390 net.cpp:91] Creating Layer loss1/ave_pool
I0403 19:34:03.042290  9390 net.cpp:425] loss1/ave_pool <- inception_4a/output_inception_4a/output_0_split_0
I0403 19:34:03.042309  9390 net.cpp:399] loss1/ave_pool -> loss1/ave_pool
I0403 19:34:03.042512  9390 net.cpp:141] Setting up loss1/ave_pool
I0403 19:34:03.042541  9390 net.cpp:148] Top shape: 24 512 4 4 (196608)
I0403 19:34:03.042557  9390 net.cpp:156] Memory required for data: 945501216
I0403 19:34:03.042572  9390 layer_factory.hpp:77] Creating layer loss1/conv
I0403 19:34:03.042593  9390 net.cpp:91] Creating Layer loss1/conv
I0403 19:34:03.042611  9390 net.cpp:425] loss1/conv <- loss1/ave_pool
I0403 19:34:03.042630  9390 net.cpp:399] loss1/conv -> loss1/conv
I0403 19:34:03.044073  9390 net.cpp:141] Setting up loss1/conv
I0403 19:34:03.044102  9390 net.cpp:148] Top shape: 24 128 4 4 (49152)
I0403 19:34:03.044133  9390 net.cpp:156] Memory required for data: 945697824
I0403 19:34:03.044154  9390 layer_factory.hpp:77] Creating layer loss1/relu_conv
I0403 19:34:03.044174  9390 net.cpp:91] Creating Layer loss1/relu_conv
I0403 19:34:03.044196  9390 net.cpp:425] loss1/relu_conv <- loss1/conv
I0403 19:34:03.044214  9390 net.cpp:386] loss1/relu_conv -> loss1/conv (in-place)
I0403 19:34:03.044497  9390 net.cpp:141] Setting up loss1/relu_conv
I0403 19:34:03.044523  9390 net.cpp:148] Top shape: 24 128 4 4 (49152)
I0403 19:34:03.044538  9390 net.cpp:156] Memory required for data: 945894432
I0403 19:34:03.044553  9390 layer_factory.hpp:77] Creating layer loss1/fc
I0403 19:34:03.044579  9390 net.cpp:91] Creating Layer loss1/fc
I0403 19:34:03.044596  9390 net.cpp:425] loss1/fc <- loss1/conv
I0403 19:34:03.044615  9390 net.cpp:399] loss1/fc -> loss1/fc
I0403 19:34:03.062680  9390 net.cpp:141] Setting up loss1/fc
I0403 19:34:03.062731  9390 net.cpp:148] Top shape: 24 1024 (24576)
I0403 19:34:03.062747  9390 net.cpp:156] Memory required for data: 945992736
I0403 19:34:03.062767  9390 layer_factory.hpp:77] Creating layer loss1/relu_fc
I0403 19:34:03.062786  9390 net.cpp:91] Creating Layer loss1/relu_fc
I0403 19:34:03.062803  9390 net.cpp:425] loss1/relu_fc <- loss1/fc
I0403 19:34:03.062824  9390 net.cpp:386] loss1/relu_fc -> loss1/fc (in-place)
I0403 19:34:03.063031  9390 net.cpp:141] Setting up loss1/relu_fc
I0403 19:34:03.063056  9390 net.cpp:148] Top shape: 24 1024 (24576)
I0403 19:34:03.063071  9390 net.cpp:156] Memory required for data: 946091040
I0403 19:34:03.063087  9390 layer_factory.hpp:77] Creating layer loss1/drop_fc
I0403 19:34:03.063114  9390 net.cpp:91] Creating Layer loss1/drop_fc
I0403 19:34:03.063132  9390 net.cpp:425] loss1/drop_fc <- loss1/fc
I0403 19:34:03.063151  9390 net.cpp:386] loss1/drop_fc -> loss1/fc (in-place)
I0403 19:34:03.063213  9390 net.cpp:141] Setting up loss1/drop_fc
I0403 19:34:03.063238  9390 net.cpp:148] Top shape: 24 1024 (24576)
I0403 19:34:03.063266  9390 net.cpp:156] Memory required for data: 946189344
I0403 19:34:03.063282  9390 layer_factory.hpp:77] Creating layer loss1/classifier_plantvillage
I0403 19:34:03.063305  9390 net.cpp:91] Creating Layer loss1/classifier_plantvillage
I0403 19:34:03.063323  9390 net.cpp:425] loss1/classifier_plantvillage <- loss1/fc
I0403 19:34:03.063344  9390 net.cpp:399] loss1/classifier_plantvillage -> loss1/classifier_plantvillage
I0403 19:34:03.064303  9390 net.cpp:141] Setting up loss1/classifier_plantvillage
I0403 19:34:03.064334  9390 net.cpp:148] Top shape: 24 38 (912)
I0403 19:34:03.064352  9390 net.cpp:156] Memory required for data: 946192992
I0403 19:34:03.064370  9390 layer_factory.hpp:77] Creating layer loss1/classifier_plantvillage_loss1/classifier_plantvillage_0_split
I0403 19:34:03.064388  9390 net.cpp:91] Creating Layer loss1/classifier_plantvillage_loss1/classifier_plantvillage_0_split
I0403 19:34:03.064404  9390 net.cpp:425] loss1/classifier_plantvillage_loss1/classifier_plantvillage_0_split <- loss1/classifier_plantvillage
I0403 19:34:03.064424  9390 net.cpp:399] loss1/classifier_plantvillage_loss1/classifier_plantvillage_0_split -> loss1/classifier_plantvillage_loss1/classifier_plantvillage_0_split_0
I0403 19:34:03.064443  9390 net.cpp:399] loss1/classifier_plantvillage_loss1/classifier_plantvillage_0_split -> loss1/classifier_plantvillage_loss1/classifier_plantvillage_0_split_1
I0403 19:34:03.064465  9390 net.cpp:399] loss1/classifier_plantvillage_loss1/classifier_plantvillage_0_split -> loss1/classifier_plantvillage_loss1/classifier_plantvillage_0_split_2
I0403 19:34:03.064532  9390 net.cpp:141] Setting up loss1/classifier_plantvillage_loss1/classifier_plantvillage_0_split
I0403 19:34:03.064555  9390 net.cpp:148] Top shape: 24 38 (912)
I0403 19:34:03.064573  9390 net.cpp:148] Top shape: 24 38 (912)
I0403 19:34:03.064587  9390 net.cpp:148] Top shape: 24 38 (912)
I0403 19:34:03.064601  9390 net.cpp:156] Memory required for data: 946203936
I0403 19:34:03.064616  9390 layer_factory.hpp:77] Creating layer inception_4b/1x1
I0403 19:34:03.064640  9390 net.cpp:91] Creating Layer inception_4b/1x1
I0403 19:34:03.064679  9390 net.cpp:425] inception_4b/1x1 <- inception_4a/output_inception_4a/output_0_split_1
I0403 19:34:03.064699  9390 net.cpp:399] inception_4b/1x1 -> inception_4b/1x1
I0403 19:34:03.066388  9390 net.cpp:141] Setting up inception_4b/1x1
I0403 19:34:03.066417  9390 net.cpp:148] Top shape: 24 160 14 14 (752640)
I0403 19:34:03.066433  9390 net.cpp:156] Memory required for data: 949214496
I0403 19:34:03.066452  9390 layer_factory.hpp:77] Creating layer inception_4b/relu_1x1
I0403 19:34:03.066475  9390 net.cpp:91] Creating Layer inception_4b/relu_1x1
I0403 19:34:03.066493  9390 net.cpp:425] inception_4b/relu_1x1 <- inception_4b/1x1
I0403 19:34:03.066510  9390 net.cpp:386] inception_4b/relu_1x1 -> inception_4b/1x1 (in-place)
I0403 19:34:03.066690  9390 net.cpp:141] Setting up inception_4b/relu_1x1
I0403 19:34:03.066715  9390 net.cpp:148] Top shape: 24 160 14 14 (752640)
I0403 19:34:03.066730  9390 net.cpp:156] Memory required for data: 952225056
I0403 19:34:03.066745  9390 layer_factory.hpp:77] Creating layer inception_4b/3x3_reduce
I0403 19:34:03.066767  9390 net.cpp:91] Creating Layer inception_4b/3x3_reduce
I0403 19:34:03.066787  9390 net.cpp:425] inception_4b/3x3_reduce <- inception_4a/output_inception_4a/output_0_split_2
I0403 19:34:03.066805  9390 net.cpp:399] inception_4b/3x3_reduce -> inception_4b/3x3_reduce
I0403 19:34:03.068204  9390 net.cpp:141] Setting up inception_4b/3x3_reduce
I0403 19:34:03.068233  9390 net.cpp:148] Top shape: 24 112 14 14 (526848)
I0403 19:34:03.068248  9390 net.cpp:156] Memory required for data: 954332448
I0403 19:34:03.068267  9390 layer_factory.hpp:77] Creating layer inception_4b/relu_3x3_reduce
I0403 19:34:03.068287  9390 net.cpp:91] Creating Layer inception_4b/relu_3x3_reduce
I0403 19:34:03.068305  9390 net.cpp:425] inception_4b/relu_3x3_reduce <- inception_4b/3x3_reduce
I0403 19:34:03.068323  9390 net.cpp:386] inception_4b/relu_3x3_reduce -> inception_4b/3x3_reduce (in-place)
I0403 19:34:03.068608  9390 net.cpp:141] Setting up inception_4b/relu_3x3_reduce
I0403 19:34:03.068635  9390 net.cpp:148] Top shape: 24 112 14 14 (526848)
I0403 19:34:03.068650  9390 net.cpp:156] Memory required for data: 956439840
I0403 19:34:03.068666  9390 layer_factory.hpp:77] Creating layer inception_4b/3x3
I0403 19:34:03.068689  9390 net.cpp:91] Creating Layer inception_4b/3x3
I0403 19:34:03.068709  9390 net.cpp:425] inception_4b/3x3 <- inception_4b/3x3_reduce
I0403 19:34:03.068730  9390 net.cpp:399] inception_4b/3x3 -> inception_4b/3x3
I0403 19:34:03.071761  9390 net.cpp:141] Setting up inception_4b/3x3
I0403 19:34:03.071794  9390 net.cpp:148] Top shape: 24 224 14 14 (1053696)
I0403 19:34:03.071812  9390 net.cpp:156] Memory required for data: 960654624
I0403 19:34:03.071831  9390 layer_factory.hpp:77] Creating layer inception_4b/relu_3x3
I0403 19:34:03.071851  9390 net.cpp:91] Creating Layer inception_4b/relu_3x3
I0403 19:34:03.071882  9390 net.cpp:425] inception_4b/relu_3x3 <- inception_4b/3x3
I0403 19:34:03.071902  9390 net.cpp:386] inception_4b/relu_3x3 -> inception_4b/3x3 (in-place)
I0403 19:34:03.072082  9390 net.cpp:141] Setting up inception_4b/relu_3x3
I0403 19:34:03.072108  9390 net.cpp:148] Top shape: 24 224 14 14 (1053696)
I0403 19:34:03.072124  9390 net.cpp:156] Memory required for data: 964869408
I0403 19:34:03.072139  9390 layer_factory.hpp:77] Creating layer inception_4b/5x5_reduce
I0403 19:34:03.072160  9390 net.cpp:91] Creating Layer inception_4b/5x5_reduce
I0403 19:34:03.072190  9390 net.cpp:425] inception_4b/5x5_reduce <- inception_4a/output_inception_4a/output_0_split_3
I0403 19:34:03.072216  9390 net.cpp:399] inception_4b/5x5_reduce -> inception_4b/5x5_reduce
I0403 19:34:03.073313  9390 net.cpp:141] Setting up inception_4b/5x5_reduce
I0403 19:34:03.073343  9390 net.cpp:148] Top shape: 24 24 14 14 (112896)
I0403 19:34:03.073359  9390 net.cpp:156] Memory required for data: 965320992
I0403 19:34:03.073379  9390 layer_factory.hpp:77] Creating layer inception_4b/relu_5x5_reduce
I0403 19:34:03.073400  9390 net.cpp:91] Creating Layer inception_4b/relu_5x5_reduce
I0403 19:34:03.073431  9390 net.cpp:425] inception_4b/relu_5x5_reduce <- inception_4b/5x5_reduce
I0403 19:34:03.073451  9390 net.cpp:386] inception_4b/relu_5x5_reduce -> inception_4b/5x5_reduce (in-place)
I0403 19:34:03.073635  9390 net.cpp:141] Setting up inception_4b/relu_5x5_reduce
I0403 19:34:03.073663  9390 net.cpp:148] Top shape: 24 24 14 14 (112896)
I0403 19:34:03.073680  9390 net.cpp:156] Memory required for data: 965772576
I0403 19:34:03.073696  9390 layer_factory.hpp:77] Creating layer inception_4b/5x5
I0403 19:34:03.073719  9390 net.cpp:91] Creating Layer inception_4b/5x5
I0403 19:34:03.073737  9390 net.cpp:425] inception_4b/5x5 <- inception_4b/5x5_reduce
I0403 19:34:03.073756  9390 net.cpp:399] inception_4b/5x5 -> inception_4b/5x5
I0403 19:34:03.075083  9390 net.cpp:141] Setting up inception_4b/5x5
I0403 19:34:03.075112  9390 net.cpp:148] Top shape: 24 64 14 14 (301056)
I0403 19:34:03.075140  9390 net.cpp:156] Memory required for data: 966976800
I0403 19:34:03.075160  9390 layer_factory.hpp:77] Creating layer inception_4b/relu_5x5
I0403 19:34:03.075186  9390 net.cpp:91] Creating Layer inception_4b/relu_5x5
I0403 19:34:03.075206  9390 net.cpp:425] inception_4b/relu_5x5 <- inception_4b/5x5
I0403 19:34:03.075225  9390 net.cpp:386] inception_4b/relu_5x5 -> inception_4b/5x5 (in-place)
I0403 19:34:03.075557  9390 net.cpp:141] Setting up inception_4b/relu_5x5
I0403 19:34:03.075584  9390 net.cpp:148] Top shape: 24 64 14 14 (301056)
I0403 19:34:03.075598  9390 net.cpp:156] Memory required for data: 968181024
I0403 19:34:03.075613  9390 layer_factory.hpp:77] Creating layer inception_4b/pool
I0403 19:34:03.075631  9390 net.cpp:91] Creating Layer inception_4b/pool
I0403 19:34:03.075652  9390 net.cpp:425] inception_4b/pool <- inception_4a/output_inception_4a/output_0_split_4
I0403 19:34:03.075670  9390 net.cpp:399] inception_4b/pool -> inception_4b/pool
I0403 19:34:03.075736  9390 net.cpp:141] Setting up inception_4b/pool
I0403 19:34:03.075759  9390 net.cpp:148] Top shape: 24 512 14 14 (2408448)
I0403 19:34:03.075775  9390 net.cpp:156] Memory required for data: 977814816
I0403 19:34:03.075790  9390 layer_factory.hpp:77] Creating layer inception_4b/pool_proj
I0403 19:34:03.075812  9390 net.cpp:91] Creating Layer inception_4b/pool_proj
I0403 19:34:03.075829  9390 net.cpp:425] inception_4b/pool_proj <- inception_4b/pool
I0403 19:34:03.075850  9390 net.cpp:399] inception_4b/pool_proj -> inception_4b/pool_proj
I0403 19:34:03.077085  9390 net.cpp:141] Setting up inception_4b/pool_proj
I0403 19:34:03.077114  9390 net.cpp:148] Top shape: 24 64 14 14 (301056)
I0403 19:34:03.077131  9390 net.cpp:156] Memory required for data: 979019040
I0403 19:34:03.077149  9390 layer_factory.hpp:77] Creating layer inception_4b/relu_pool_proj
I0403 19:34:03.077170  9390 net.cpp:91] Creating Layer inception_4b/relu_pool_proj
I0403 19:34:03.077196  9390 net.cpp:425] inception_4b/relu_pool_proj <- inception_4b/pool_proj
I0403 19:34:03.077214  9390 net.cpp:386] inception_4b/relu_pool_proj -> inception_4b/pool_proj (in-place)
I0403 19:34:03.077397  9390 net.cpp:141] Setting up inception_4b/relu_pool_proj
I0403 19:34:03.077421  9390 net.cpp:148] Top shape: 24 64 14 14 (301056)
I0403 19:34:03.077436  9390 net.cpp:156] Memory required for data: 980223264
I0403 19:34:03.077451  9390 layer_factory.hpp:77] Creating layer inception_4b/output
I0403 19:34:03.077471  9390 net.cpp:91] Creating Layer inception_4b/output
I0403 19:34:03.077487  9390 net.cpp:425] inception_4b/output <- inception_4b/1x1
I0403 19:34:03.077504  9390 net.cpp:425] inception_4b/output <- inception_4b/3x3
I0403 19:34:03.077519  9390 net.cpp:425] inception_4b/output <- inception_4b/5x5
I0403 19:34:03.077535  9390 net.cpp:425] inception_4b/output <- inception_4b/pool_proj
I0403 19:34:03.077551  9390 net.cpp:399] inception_4b/output -> inception_4b/output
I0403 19:34:03.077600  9390 net.cpp:141] Setting up inception_4b/output
I0403 19:34:03.077622  9390 net.cpp:148] Top shape: 24 512 14 14 (2408448)
I0403 19:34:03.077637  9390 net.cpp:156] Memory required for data: 989857056
I0403 19:34:03.077667  9390 layer_factory.hpp:77] Creating layer inception_4b/output_inception_4b/output_0_split
I0403 19:34:03.077685  9390 net.cpp:91] Creating Layer inception_4b/output_inception_4b/output_0_split
I0403 19:34:03.077700  9390 net.cpp:425] inception_4b/output_inception_4b/output_0_split <- inception_4b/output
I0403 19:34:03.077720  9390 net.cpp:399] inception_4b/output_inception_4b/output_0_split -> inception_4b/output_inception_4b/output_0_split_0
I0403 19:34:03.077740  9390 net.cpp:399] inception_4b/output_inception_4b/output_0_split -> inception_4b/output_inception_4b/output_0_split_1
I0403 19:34:03.077762  9390 net.cpp:399] inception_4b/output_inception_4b/output_0_split -> inception_4b/output_inception_4b/output_0_split_2
I0403 19:34:03.077783  9390 net.cpp:399] inception_4b/output_inception_4b/output_0_split -> inception_4b/output_inception_4b/output_0_split_3
I0403 19:34:03.077874  9390 net.cpp:141] Setting up inception_4b/output_inception_4b/output_0_split
I0403 19:34:03.077898  9390 net.cpp:148] Top shape: 24 512 14 14 (2408448)
I0403 19:34:03.077914  9390 net.cpp:148] Top shape: 24 512 14 14 (2408448)
I0403 19:34:03.077930  9390 net.cpp:148] Top shape: 24 512 14 14 (2408448)
I0403 19:34:03.077946  9390 net.cpp:148] Top shape: 24 512 14 14 (2408448)
I0403 19:34:03.077960  9390 net.cpp:156] Memory required for data: 1028392224
I0403 19:34:03.077975  9390 layer_factory.hpp:77] Creating layer inception_4c/1x1
I0403 19:34:03.077997  9390 net.cpp:91] Creating Layer inception_4c/1x1
I0403 19:34:03.078016  9390 net.cpp:425] inception_4c/1x1 <- inception_4b/output_inception_4b/output_0_split_0
I0403 19:34:03.078037  9390 net.cpp:399] inception_4c/1x1 -> inception_4c/1x1
I0403 19:34:03.079577  9390 net.cpp:141] Setting up inception_4c/1x1
I0403 19:34:03.079609  9390 net.cpp:148] Top shape: 24 128 14 14 (602112)
I0403 19:34:03.079627  9390 net.cpp:156] Memory required for data: 1030800672
I0403 19:34:03.079645  9390 layer_factory.hpp:77] Creating layer inception_4c/relu_1x1
I0403 19:34:03.079663  9390 net.cpp:91] Creating Layer inception_4c/relu_1x1
I0403 19:34:03.079679  9390 net.cpp:425] inception_4c/relu_1x1 <- inception_4c/1x1
I0403 19:34:03.079697  9390 net.cpp:386] inception_4c/relu_1x1 -> inception_4c/1x1 (in-place)
I0403 19:34:03.079875  9390 net.cpp:141] Setting up inception_4c/relu_1x1
I0403 19:34:03.079900  9390 net.cpp:148] Top shape: 24 128 14 14 (602112)
I0403 19:34:03.079913  9390 net.cpp:156] Memory required for data: 1033209120
I0403 19:34:03.079928  9390 layer_factory.hpp:77] Creating layer inception_4c/3x3_reduce
I0403 19:34:03.079949  9390 net.cpp:91] Creating Layer inception_4c/3x3_reduce
I0403 19:34:03.079967  9390 net.cpp:425] inception_4c/3x3_reduce <- inception_4b/output_inception_4b/output_0_split_1
I0403 19:34:03.079988  9390 net.cpp:399] inception_4c/3x3_reduce -> inception_4c/3x3_reduce
I0403 19:34:03.081924  9390 net.cpp:141] Setting up inception_4c/3x3_reduce
I0403 19:34:03.081956  9390 net.cpp:148] Top shape: 24 128 14 14 (602112)
I0403 19:34:03.081971  9390 net.cpp:156] Memory required for data: 1035617568
I0403 19:34:03.081990  9390 layer_factory.hpp:77] Creating layer inception_4c/relu_3x3_reduce
I0403 19:34:03.082008  9390 net.cpp:91] Creating Layer inception_4c/relu_3x3_reduce
I0403 19:34:03.082023  9390 net.cpp:425] inception_4c/relu_3x3_reduce <- inception_4c/3x3_reduce
I0403 19:34:03.082042  9390 net.cpp:386] inception_4c/relu_3x3_reduce -> inception_4c/3x3_reduce (in-place)
I0403 19:34:03.082334  9390 net.cpp:141] Setting up inception_4c/relu_3x3_reduce
I0403 19:34:03.082360  9390 net.cpp:148] Top shape: 24 128 14 14 (602112)
I0403 19:34:03.082373  9390 net.cpp:156] Memory required for data: 1038026016
I0403 19:34:03.082388  9390 layer_factory.hpp:77] Creating layer inception_4c/3x3
I0403 19:34:03.082412  9390 net.cpp:91] Creating Layer inception_4c/3x3
I0403 19:34:03.082428  9390 net.cpp:425] inception_4c/3x3 <- inception_4c/3x3_reduce
I0403 19:34:03.082449  9390 net.cpp:399] inception_4c/3x3 -> inception_4c/3x3
I0403 19:34:03.086074  9390 net.cpp:141] Setting up inception_4c/3x3
I0403 19:34:03.086117  9390 net.cpp:148] Top shape: 24 256 14 14 (1204224)
I0403 19:34:03.086135  9390 net.cpp:156] Memory required for data: 1042842912
I0403 19:34:03.086169  9390 layer_factory.hpp:77] Creating layer inception_4c/relu_3x3
I0403 19:34:03.086202  9390 net.cpp:91] Creating Layer inception_4c/relu_3x3
I0403 19:34:03.086221  9390 net.cpp:425] inception_4c/relu_3x3 <- inception_4c/3x3
I0403 19:34:03.086239  9390 net.cpp:386] inception_4c/relu_3x3 -> inception_4c/3x3 (in-place)
I0403 19:34:03.086426  9390 net.cpp:141] Setting up inception_4c/relu_3x3
I0403 19:34:03.086452  9390 net.cpp:148] Top shape: 24 256 14 14 (1204224)
I0403 19:34:03.086468  9390 net.cpp:156] Memory required for data: 1047659808
I0403 19:34:03.086483  9390 layer_factory.hpp:77] Creating layer inception_4c/5x5_reduce
I0403 19:34:03.086505  9390 net.cpp:91] Creating Layer inception_4c/5x5_reduce
I0403 19:34:03.086524  9390 net.cpp:425] inception_4c/5x5_reduce <- inception_4b/output_inception_4b/output_0_split_2
I0403 19:34:03.086547  9390 net.cpp:399] inception_4c/5x5_reduce -> inception_4c/5x5_reduce
I0403 19:34:03.087692  9390 net.cpp:141] Setting up inception_4c/5x5_reduce
I0403 19:34:03.087719  9390 net.cpp:148] Top shape: 24 24 14 14 (112896)
I0403 19:34:03.087734  9390 net.cpp:156] Memory required for data: 1048111392
I0403 19:34:03.087754  9390 layer_factory.hpp:77] Creating layer inception_4c/relu_5x5_reduce
I0403 19:34:03.087774  9390 net.cpp:91] Creating Layer inception_4c/relu_5x5_reduce
I0403 19:34:03.087788  9390 net.cpp:425] inception_4c/relu_5x5_reduce <- inception_4c/5x5_reduce
I0403 19:34:03.087805  9390 net.cpp:386] inception_4c/relu_5x5_reduce -> inception_4c/5x5_reduce (in-place)
I0403 19:34:03.087985  9390 net.cpp:141] Setting up inception_4c/relu_5x5_reduce
I0403 19:34:03.088011  9390 net.cpp:148] Top shape: 24 24 14 14 (112896)
I0403 19:34:03.088026  9390 net.cpp:156] Memory required for data: 1048562976
I0403 19:34:03.088040  9390 layer_factory.hpp:77] Creating layer inception_4c/5x5
I0403 19:34:03.088059  9390 net.cpp:91] Creating Layer inception_4c/5x5
I0403 19:34:03.088076  9390 net.cpp:425] inception_4c/5x5 <- inception_4c/5x5_reduce
I0403 19:34:03.088096  9390 net.cpp:399] inception_4c/5x5 -> inception_4c/5x5
I0403 19:34:03.089345  9390 net.cpp:141] Setting up inception_4c/5x5
I0403 19:34:03.089372  9390 net.cpp:148] Top shape: 24 64 14 14 (301056)
I0403 19:34:03.089387  9390 net.cpp:156] Memory required for data: 1049767200
I0403 19:34:03.089406  9390 layer_factory.hpp:77] Creating layer inception_4c/relu_5x5
I0403 19:34:03.089426  9390 net.cpp:91] Creating Layer inception_4c/relu_5x5
I0403 19:34:03.089442  9390 net.cpp:425] inception_4c/relu_5x5 <- inception_4c/5x5
I0403 19:34:03.089458  9390 net.cpp:386] inception_4c/relu_5x5 -> inception_4c/5x5 (in-place)
I0403 19:34:03.089741  9390 net.cpp:141] Setting up inception_4c/relu_5x5
I0403 19:34:03.089766  9390 net.cpp:148] Top shape: 24 64 14 14 (301056)
I0403 19:34:03.089781  9390 net.cpp:156] Memory required for data: 1050971424
I0403 19:34:03.089795  9390 layer_factory.hpp:77] Creating layer inception_4c/pool
I0403 19:34:03.089814  9390 net.cpp:91] Creating Layer inception_4c/pool
I0403 19:34:03.089830  9390 net.cpp:425] inception_4c/pool <- inception_4b/output_inception_4b/output_0_split_3
I0403 19:34:03.089848  9390 net.cpp:399] inception_4c/pool -> inception_4c/pool
I0403 19:34:03.089913  9390 net.cpp:141] Setting up inception_4c/pool
I0403 19:34:03.089937  9390 net.cpp:148] Top shape: 24 512 14 14 (2408448)
I0403 19:34:03.089951  9390 net.cpp:156] Memory required for data: 1060605216
I0403 19:34:03.089965  9390 layer_factory.hpp:77] Creating layer inception_4c/pool_proj
I0403 19:34:03.089987  9390 net.cpp:91] Creating Layer inception_4c/pool_proj
I0403 19:34:03.090003  9390 net.cpp:425] inception_4c/pool_proj <- inception_4c/pool
I0403 19:34:03.090023  9390 net.cpp:399] inception_4c/pool_proj -> inception_4c/pool_proj
I0403 19:34:03.091220  9390 net.cpp:141] Setting up inception_4c/pool_proj
I0403 19:34:03.091248  9390 net.cpp:148] Top shape: 24 64 14 14 (301056)
I0403 19:34:03.091291  9390 net.cpp:156] Memory required for data: 1061809440
I0403 19:34:03.091312  9390 layer_factory.hpp:77] Creating layer inception_4c/relu_pool_proj
I0403 19:34:03.091333  9390 net.cpp:91] Creating Layer inception_4c/relu_pool_proj
I0403 19:34:03.091351  9390 net.cpp:425] inception_4c/relu_pool_proj <- inception_4c/pool_proj
I0403 19:34:03.091368  9390 net.cpp:386] inception_4c/relu_pool_proj -> inception_4c/pool_proj (in-place)
I0403 19:34:03.091552  9390 net.cpp:141] Setting up inception_4c/relu_pool_proj
I0403 19:34:03.091588  9390 net.cpp:148] Top shape: 24 64 14 14 (301056)
I0403 19:34:03.091603  9390 net.cpp:156] Memory required for data: 1063013664
I0403 19:34:03.091617  9390 layer_factory.hpp:77] Creating layer inception_4c/output
I0403 19:34:03.091635  9390 net.cpp:91] Creating Layer inception_4c/output
I0403 19:34:03.091651  9390 net.cpp:425] inception_4c/output <- inception_4c/1x1
I0403 19:34:03.091667  9390 net.cpp:425] inception_4c/output <- inception_4c/3x3
I0403 19:34:03.091682  9390 net.cpp:425] inception_4c/output <- inception_4c/5x5
I0403 19:34:03.091697  9390 net.cpp:425] inception_4c/output <- inception_4c/pool_proj
I0403 19:34:03.091713  9390 net.cpp:399] inception_4c/output -> inception_4c/output
I0403 19:34:03.091760  9390 net.cpp:141] Setting up inception_4c/output
I0403 19:34:03.091784  9390 net.cpp:148] Top shape: 24 512 14 14 (2408448)
I0403 19:34:03.091797  9390 net.cpp:156] Memory required for data: 1072647456
I0403 19:34:03.091811  9390 layer_factory.hpp:77] Creating layer inception_4c/output_inception_4c/output_0_split
I0403 19:34:03.091828  9390 net.cpp:91] Creating Layer inception_4c/output_inception_4c/output_0_split
I0403 19:34:03.091843  9390 net.cpp:425] inception_4c/output_inception_4c/output_0_split <- inception_4c/output
I0403 19:34:03.091861  9390 net.cpp:399] inception_4c/output_inception_4c/output_0_split -> inception_4c/output_inception_4c/output_0_split_0
I0403 19:34:03.091881  9390 net.cpp:399] inception_4c/output_inception_4c/output_0_split -> inception_4c/output_inception_4c/output_0_split_1
I0403 19:34:03.091902  9390 net.cpp:399] inception_4c/output_inception_4c/output_0_split -> inception_4c/output_inception_4c/output_0_split_2
I0403 19:34:03.091922  9390 net.cpp:399] inception_4c/output_inception_4c/output_0_split -> inception_4c/output_inception_4c/output_0_split_3
I0403 19:34:03.092008  9390 net.cpp:141] Setting up inception_4c/output_inception_4c/output_0_split
I0403 19:34:03.092031  9390 net.cpp:148] Top shape: 24 512 14 14 (2408448)
I0403 19:34:03.092046  9390 net.cpp:148] Top shape: 24 512 14 14 (2408448)
I0403 19:34:03.092061  9390 net.cpp:148] Top shape: 24 512 14 14 (2408448)
I0403 19:34:03.092077  9390 net.cpp:148] Top shape: 24 512 14 14 (2408448)
I0403 19:34:03.092090  9390 net.cpp:156] Memory required for data: 1111182624
I0403 19:34:03.092104  9390 layer_factory.hpp:77] Creating layer inception_4d/1x1
I0403 19:34:03.092126  9390 net.cpp:91] Creating Layer inception_4d/1x1
I0403 19:34:03.092144  9390 net.cpp:425] inception_4d/1x1 <- inception_4c/output_inception_4c/output_0_split_0
I0403 19:34:03.092162  9390 net.cpp:399] inception_4d/1x1 -> inception_4d/1x1
I0403 19:34:03.093516  9390 net.cpp:141] Setting up inception_4d/1x1
I0403 19:34:03.093545  9390 net.cpp:148] Top shape: 24 112 14 14 (526848)
I0403 19:34:03.093561  9390 net.cpp:156] Memory required for data: 1113290016
I0403 19:34:03.093580  9390 layer_factory.hpp:77] Creating layer inception_4d/relu_1x1
I0403 19:34:03.093597  9390 net.cpp:91] Creating Layer inception_4d/relu_1x1
I0403 19:34:03.093612  9390 net.cpp:425] inception_4d/relu_1x1 <- inception_4d/1x1
I0403 19:34:03.093631  9390 net.cpp:386] inception_4d/relu_1x1 -> inception_4d/1x1 (in-place)
I0403 19:34:03.093816  9390 net.cpp:141] Setting up inception_4d/relu_1x1
I0403 19:34:03.093839  9390 net.cpp:148] Top shape: 24 112 14 14 (526848)
I0403 19:34:03.093853  9390 net.cpp:156] Memory required for data: 1115397408
I0403 19:34:03.093868  9390 layer_factory.hpp:77] Creating layer inception_4d/3x3_reduce
I0403 19:34:03.093904  9390 net.cpp:91] Creating Layer inception_4d/3x3_reduce
I0403 19:34:03.093924  9390 net.cpp:425] inception_4d/3x3_reduce <- inception_4c/output_inception_4c/output_0_split_1
I0403 19:34:03.093943  9390 net.cpp:399] inception_4d/3x3_reduce -> inception_4d/3x3_reduce
I0403 19:34:03.095490  9390 net.cpp:141] Setting up inception_4d/3x3_reduce
I0403 19:34:03.095520  9390 net.cpp:148] Top shape: 24 144 14 14 (677376)
I0403 19:34:03.095536  9390 net.cpp:156] Memory required for data: 1118106912
I0403 19:34:03.095556  9390 layer_factory.hpp:77] Creating layer inception_4d/relu_3x3_reduce
I0403 19:34:03.095584  9390 net.cpp:91] Creating Layer inception_4d/relu_3x3_reduce
I0403 19:34:03.095599  9390 net.cpp:425] inception_4d/relu_3x3_reduce <- inception_4d/3x3_reduce
I0403 19:34:03.095616  9390 net.cpp:386] inception_4d/relu_3x3_reduce -> inception_4d/3x3_reduce (in-place)
I0403 19:34:03.095904  9390 net.cpp:141] Setting up inception_4d/relu_3x3_reduce
I0403 19:34:03.095932  9390 net.cpp:148] Top shape: 24 144 14 14 (677376)
I0403 19:34:03.095947  9390 net.cpp:156] Memory required for data: 1120816416
I0403 19:34:03.095962  9390 layer_factory.hpp:77] Creating layer inception_4d/3x3
I0403 19:34:03.095983  9390 net.cpp:91] Creating Layer inception_4d/3x3
I0403 19:34:03.095999  9390 net.cpp:425] inception_4d/3x3 <- inception_4d/3x3_reduce
I0403 19:34:03.096019  9390 net.cpp:399] inception_4d/3x3 -> inception_4d/3x3
I0403 19:34:03.100221  9390 net.cpp:141] Setting up inception_4d/3x3
I0403 19:34:03.100250  9390 net.cpp:148] Top shape: 24 288 14 14 (1354752)
I0403 19:34:03.100265  9390 net.cpp:156] Memory required for data: 1126235424
I0403 19:34:03.100283  9390 layer_factory.hpp:77] Creating layer inception_4d/relu_3x3
I0403 19:34:03.100301  9390 net.cpp:91] Creating Layer inception_4d/relu_3x3
I0403 19:34:03.100317  9390 net.cpp:425] inception_4d/relu_3x3 <- inception_4d/3x3
I0403 19:34:03.100337  9390 net.cpp:386] inception_4d/relu_3x3 -> inception_4d/3x3 (in-place)
I0403 19:34:03.100517  9390 net.cpp:141] Setting up inception_4d/relu_3x3
I0403 19:34:03.100540  9390 net.cpp:148] Top shape: 24 288 14 14 (1354752)
I0403 19:34:03.100554  9390 net.cpp:156] Memory required for data: 1131654432
I0403 19:34:03.100569  9390 layer_factory.hpp:77] Creating layer inception_4d/5x5_reduce
I0403 19:34:03.100590  9390 net.cpp:91] Creating Layer inception_4d/5x5_reduce
I0403 19:34:03.100607  9390 net.cpp:425] inception_4d/5x5_reduce <- inception_4c/output_inception_4c/output_0_split_2
I0403 19:34:03.100627  9390 net.cpp:399] inception_4d/5x5_reduce -> inception_4d/5x5_reduce
I0403 19:34:03.101748  9390 net.cpp:141] Setting up inception_4d/5x5_reduce
I0403 19:34:03.101778  9390 net.cpp:148] Top shape: 24 32 14 14 (150528)
I0403 19:34:03.101793  9390 net.cpp:156] Memory required for data: 1132256544
I0403 19:34:03.101810  9390 layer_factory.hpp:77] Creating layer inception_4d/relu_5x5_reduce
I0403 19:34:03.101829  9390 net.cpp:91] Creating Layer inception_4d/relu_5x5_reduce
I0403 19:34:03.101845  9390 net.cpp:425] inception_4d/relu_5x5_reduce <- inception_4d/5x5_reduce
I0403 19:34:03.101862  9390 net.cpp:386] inception_4d/relu_5x5_reduce -> inception_4d/5x5_reduce (in-place)
I0403 19:34:03.102044  9390 net.cpp:141] Setting up inception_4d/relu_5x5_reduce
I0403 19:34:03.102069  9390 net.cpp:148] Top shape: 24 32 14 14 (150528)
I0403 19:34:03.102083  9390 net.cpp:156] Memory required for data: 1132858656
I0403 19:34:03.102098  9390 layer_factory.hpp:77] Creating layer inception_4d/5x5
I0403 19:34:03.102119  9390 net.cpp:91] Creating Layer inception_4d/5x5
I0403 19:34:03.102135  9390 net.cpp:425] inception_4d/5x5 <- inception_4d/5x5_reduce
I0403 19:34:03.102157  9390 net.cpp:399] inception_4d/5x5 -> inception_4d/5x5
I0403 19:34:03.103627  9390 net.cpp:141] Setting up inception_4d/5x5
I0403 19:34:03.103657  9390 net.cpp:148] Top shape: 24 64 14 14 (301056)
I0403 19:34:03.103672  9390 net.cpp:156] Memory required for data: 1134062880
I0403 19:34:03.103691  9390 layer_factory.hpp:77] Creating layer inception_4d/relu_5x5
I0403 19:34:03.103727  9390 net.cpp:91] Creating Layer inception_4d/relu_5x5
I0403 19:34:03.103746  9390 net.cpp:425] inception_4d/relu_5x5 <- inception_4d/5x5
I0403 19:34:03.103765  9390 net.cpp:386] inception_4d/relu_5x5 -> inception_4d/5x5 (in-place)
I0403 19:34:03.104055  9390 net.cpp:141] Setting up inception_4d/relu_5x5
I0403 19:34:03.104080  9390 net.cpp:148] Top shape: 24 64 14 14 (301056)
I0403 19:34:03.104095  9390 net.cpp:156] Memory required for data: 1135267104
I0403 19:34:03.104110  9390 layer_factory.hpp:77] Creating layer inception_4d/pool
I0403 19:34:03.104130  9390 net.cpp:91] Creating Layer inception_4d/pool
I0403 19:34:03.104146  9390 net.cpp:425] inception_4d/pool <- inception_4c/output_inception_4c/output_0_split_3
I0403 19:34:03.104164  9390 net.cpp:399] inception_4d/pool -> inception_4d/pool
I0403 19:34:03.104238  9390 net.cpp:141] Setting up inception_4d/pool
I0403 19:34:03.104261  9390 net.cpp:148] Top shape: 24 512 14 14 (2408448)
I0403 19:34:03.104275  9390 net.cpp:156] Memory required for data: 1144900896
I0403 19:34:03.104290  9390 layer_factory.hpp:77] Creating layer inception_4d/pool_proj
I0403 19:34:03.104315  9390 net.cpp:91] Creating Layer inception_4d/pool_proj
I0403 19:34:03.104331  9390 net.cpp:425] inception_4d/pool_proj <- inception_4d/pool
I0403 19:34:03.104352  9390 net.cpp:399] inception_4d/pool_proj -> inception_4d/pool_proj
I0403 19:34:03.106262  9390 net.cpp:141] Setting up inception_4d/pool_proj
I0403 19:34:03.106295  9390 net.cpp:148] Top shape: 24 64 14 14 (301056)
I0403 19:34:03.106312  9390 net.cpp:156] Memory required for data: 1146105120
I0403 19:34:03.106330  9390 layer_factory.hpp:77] Creating layer inception_4d/relu_pool_proj
I0403 19:34:03.106348  9390 net.cpp:91] Creating Layer inception_4d/relu_pool_proj
I0403 19:34:03.106364  9390 net.cpp:425] inception_4d/relu_pool_proj <- inception_4d/pool_proj
I0403 19:34:03.106382  9390 net.cpp:386] inception_4d/relu_pool_proj -> inception_4d/pool_proj (in-place)
I0403 19:34:03.106562  9390 net.cpp:141] Setting up inception_4d/relu_pool_proj
I0403 19:34:03.106587  9390 net.cpp:148] Top shape: 24 64 14 14 (301056)
I0403 19:34:03.106601  9390 net.cpp:156] Memory required for data: 1147309344
I0403 19:34:03.106616  9390 layer_factory.hpp:77] Creating layer inception_4d/output
I0403 19:34:03.106636  9390 net.cpp:91] Creating Layer inception_4d/output
I0403 19:34:03.106650  9390 net.cpp:425] inception_4d/output <- inception_4d/1x1
I0403 19:34:03.106667  9390 net.cpp:425] inception_4d/output <- inception_4d/3x3
I0403 19:34:03.106681  9390 net.cpp:425] inception_4d/output <- inception_4d/5x5
I0403 19:34:03.106696  9390 net.cpp:425] inception_4d/output <- inception_4d/pool_proj
I0403 19:34:03.106714  9390 net.cpp:399] inception_4d/output -> inception_4d/output
I0403 19:34:03.106761  9390 net.cpp:141] Setting up inception_4d/output
I0403 19:34:03.106784  9390 net.cpp:148] Top shape: 24 528 14 14 (2483712)
I0403 19:34:03.106799  9390 net.cpp:156] Memory required for data: 1157244192
I0403 19:34:03.106813  9390 layer_factory.hpp:77] Creating layer inception_4d/output_inception_4d/output_0_split
I0403 19:34:03.106830  9390 net.cpp:91] Creating Layer inception_4d/output_inception_4d/output_0_split
I0403 19:34:03.106844  9390 net.cpp:425] inception_4d/output_inception_4d/output_0_split <- inception_4d/output
I0403 19:34:03.106864  9390 net.cpp:399] inception_4d/output_inception_4d/output_0_split -> inception_4d/output_inception_4d/output_0_split_0
I0403 19:34:03.106884  9390 net.cpp:399] inception_4d/output_inception_4d/output_0_split -> inception_4d/output_inception_4d/output_0_split_1
I0403 19:34:03.106905  9390 net.cpp:399] inception_4d/output_inception_4d/output_0_split -> inception_4d/output_inception_4d/output_0_split_2
I0403 19:34:03.106925  9390 net.cpp:399] inception_4d/output_inception_4d/output_0_split -> inception_4d/output_inception_4d/output_0_split_3
I0403 19:34:03.106945  9390 net.cpp:399] inception_4d/output_inception_4d/output_0_split -> inception_4d/output_inception_4d/output_0_split_4
I0403 19:34:03.107045  9390 net.cpp:141] Setting up inception_4d/output_inception_4d/output_0_split
I0403 19:34:03.107080  9390 net.cpp:148] Top shape: 24 528 14 14 (2483712)
I0403 19:34:03.107100  9390 net.cpp:148] Top shape: 24 528 14 14 (2483712)
I0403 19:34:03.107117  9390 net.cpp:148] Top shape: 24 528 14 14 (2483712)
I0403 19:34:03.107133  9390 net.cpp:148] Top shape: 24 528 14 14 (2483712)
I0403 19:34:03.107148  9390 net.cpp:148] Top shape: 24 528 14 14 (2483712)
I0403 19:34:03.107161  9390 net.cpp:156] Memory required for data: 1206918432
I0403 19:34:03.107177  9390 layer_factory.hpp:77] Creating layer loss2/ave_pool
I0403 19:34:03.107200  9390 net.cpp:91] Creating Layer loss2/ave_pool
I0403 19:34:03.107218  9390 net.cpp:425] loss2/ave_pool <- inception_4d/output_inception_4d/output_0_split_0
I0403 19:34:03.107237  9390 net.cpp:399] loss2/ave_pool -> loss2/ave_pool
I0403 19:34:03.107580  9390 net.cpp:141] Setting up loss2/ave_pool
I0403 19:34:03.107606  9390 net.cpp:148] Top shape: 24 528 4 4 (202752)
I0403 19:34:03.107621  9390 net.cpp:156] Memory required for data: 1207729440
I0403 19:34:03.107636  9390 layer_factory.hpp:77] Creating layer loss2/conv
I0403 19:34:03.107658  9390 net.cpp:91] Creating Layer loss2/conv
I0403 19:34:03.107676  9390 net.cpp:425] loss2/conv <- loss2/ave_pool
I0403 19:34:03.107697  9390 net.cpp:399] loss2/conv -> loss2/conv
I0403 19:34:03.109562  9390 net.cpp:141] Setting up loss2/conv
I0403 19:34:03.109593  9390 net.cpp:148] Top shape: 24 128 4 4 (49152)
I0403 19:34:03.109608  9390 net.cpp:156] Memory required for data: 1207926048
I0403 19:34:03.109627  9390 layer_factory.hpp:77] Creating layer loss2/relu_conv
I0403 19:34:03.109647  9390 net.cpp:91] Creating Layer loss2/relu_conv
I0403 19:34:03.109664  9390 net.cpp:425] loss2/relu_conv <- loss2/conv
I0403 19:34:03.109683  9390 net.cpp:386] loss2/relu_conv -> loss2/conv (in-place)
I0403 19:34:03.109966  9390 net.cpp:141] Setting up loss2/relu_conv
I0403 19:34:03.109993  9390 net.cpp:148] Top shape: 24 128 4 4 (49152)
I0403 19:34:03.110009  9390 net.cpp:156] Memory required for data: 1208122656
I0403 19:34:03.110025  9390 layer_factory.hpp:77] Creating layer loss2/fc
I0403 19:34:03.110045  9390 net.cpp:91] Creating Layer loss2/fc
I0403 19:34:03.110061  9390 net.cpp:425] loss2/fc <- loss2/conv
I0403 19:34:03.110083  9390 net.cpp:399] loss2/fc -> loss2/fc
I0403 19:34:03.127846  9390 net.cpp:141] Setting up loss2/fc
I0403 19:34:03.127878  9390 net.cpp:148] Top shape: 24 1024 (24576)
I0403 19:34:03.127894  9390 net.cpp:156] Memory required for data: 1208220960
I0403 19:34:03.127914  9390 layer_factory.hpp:77] Creating layer loss2/relu_fc
I0403 19:34:03.127933  9390 net.cpp:91] Creating Layer loss2/relu_fc
I0403 19:34:03.127950  9390 net.cpp:425] loss2/relu_fc <- loss2/fc
I0403 19:34:03.127971  9390 net.cpp:386] loss2/relu_fc -> loss2/fc (in-place)
I0403 19:34:03.128288  9390 net.cpp:141] Setting up loss2/relu_fc
I0403 19:34:03.128316  9390 net.cpp:148] Top shape: 24 1024 (24576)
I0403 19:34:03.128332  9390 net.cpp:156] Memory required for data: 1208319264
I0403 19:34:03.128348  9390 layer_factory.hpp:77] Creating layer loss2/drop_fc
I0403 19:34:03.128367  9390 net.cpp:91] Creating Layer loss2/drop_fc
I0403 19:34:03.128383  9390 net.cpp:425] loss2/drop_fc <- loss2/fc
I0403 19:34:03.128403  9390 net.cpp:386] loss2/drop_fc -> loss2/fc (in-place)
I0403 19:34:03.128453  9390 net.cpp:141] Setting up loss2/drop_fc
I0403 19:34:03.128479  9390 net.cpp:148] Top shape: 24 1024 (24576)
I0403 19:34:03.128494  9390 net.cpp:156] Memory required for data: 1208417568
I0403 19:34:03.128509  9390 layer_factory.hpp:77] Creating layer loss2/classifier_plantvillage
I0403 19:34:03.128527  9390 net.cpp:91] Creating Layer loss2/classifier_plantvillage
I0403 19:34:03.128542  9390 net.cpp:425] loss2/classifier_plantvillage <- loss2/fc
I0403 19:34:03.128564  9390 net.cpp:399] loss2/classifier_plantvillage -> loss2/classifier_plantvillage
I0403 19:34:03.128969  9390 net.cpp:141] Setting up loss2/classifier_plantvillage
I0403 19:34:03.128996  9390 net.cpp:148] Top shape: 24 38 (912)
I0403 19:34:03.129031  9390 net.cpp:156] Memory required for data: 1208421216
I0403 19:34:03.129051  9390 layer_factory.hpp:77] Creating layer loss2/classifier_plantvillage_loss2/classifier_plantvillage_0_split
I0403 19:34:03.129070  9390 net.cpp:91] Creating Layer loss2/classifier_plantvillage_loss2/classifier_plantvillage_0_split
I0403 19:34:03.129084  9390 net.cpp:425] loss2/classifier_plantvillage_loss2/classifier_plantvillage_0_split <- loss2/classifier_plantvillage
I0403 19:34:03.129102  9390 net.cpp:399] loss2/classifier_plantvillage_loss2/classifier_plantvillage_0_split -> loss2/classifier_plantvillage_loss2/classifier_plantvillage_0_split_0
I0403 19:34:03.129122  9390 net.cpp:399] loss2/classifier_plantvillage_loss2/classifier_plantvillage_0_split -> loss2/classifier_plantvillage_loss2/classifier_plantvillage_0_split_1
I0403 19:34:03.129147  9390 net.cpp:399] loss2/classifier_plantvillage_loss2/classifier_plantvillage_0_split -> loss2/classifier_plantvillage_loss2/classifier_plantvillage_0_split_2
I0403 19:34:03.129232  9390 net.cpp:141] Setting up loss2/classifier_plantvillage_loss2/classifier_plantvillage_0_split
I0403 19:34:03.129268  9390 net.cpp:148] Top shape: 24 38 (912)
I0403 19:34:03.129284  9390 net.cpp:148] Top shape: 24 38 (912)
I0403 19:34:03.129300  9390 net.cpp:148] Top shape: 24 38 (912)
I0403 19:34:03.129314  9390 net.cpp:156] Memory required for data: 1208432160
I0403 19:34:03.129329  9390 layer_factory.hpp:77] Creating layer inception_4e/1x1
I0403 19:34:03.129350  9390 net.cpp:91] Creating Layer inception_4e/1x1
I0403 19:34:03.129367  9390 net.cpp:425] inception_4e/1x1 <- inception_4d/output_inception_4d/output_0_split_1
I0403 19:34:03.129390  9390 net.cpp:399] inception_4e/1x1 -> inception_4e/1x1
I0403 19:34:03.131261  9390 net.cpp:141] Setting up inception_4e/1x1
I0403 19:34:03.131292  9390 net.cpp:148] Top shape: 24 256 14 14 (1204224)
I0403 19:34:03.131307  9390 net.cpp:156] Memory required for data: 1213249056
I0403 19:34:03.131326  9390 layer_factory.hpp:77] Creating layer inception_4e/relu_1x1
I0403 19:34:03.131347  9390 net.cpp:91] Creating Layer inception_4e/relu_1x1
I0403 19:34:03.131364  9390 net.cpp:425] inception_4e/relu_1x1 <- inception_4e/1x1
I0403 19:34:03.131383  9390 net.cpp:386] inception_4e/relu_1x1 -> inception_4e/1x1 (in-place)
I0403 19:34:03.131695  9390 net.cpp:141] Setting up inception_4e/relu_1x1
I0403 19:34:03.131721  9390 net.cpp:148] Top shape: 24 256 14 14 (1204224)
I0403 19:34:03.131736  9390 net.cpp:156] Memory required for data: 1218065952
I0403 19:34:03.131750  9390 layer_factory.hpp:77] Creating layer inception_4e/3x3_reduce
I0403 19:34:03.131778  9390 net.cpp:91] Creating Layer inception_4e/3x3_reduce
I0403 19:34:03.131795  9390 net.cpp:425] inception_4e/3x3_reduce <- inception_4d/output_inception_4d/output_0_split_2
I0403 19:34:03.131814  9390 net.cpp:399] inception_4e/3x3_reduce -> inception_4e/3x3_reduce
I0403 19:34:03.133982  9390 net.cpp:141] Setting up inception_4e/3x3_reduce
I0403 19:34:03.134016  9390 net.cpp:148] Top shape: 24 160 14 14 (752640)
I0403 19:34:03.134032  9390 net.cpp:156] Memory required for data: 1221076512
I0403 19:34:03.134050  9390 layer_factory.hpp:77] Creating layer inception_4e/relu_3x3_reduce
I0403 19:34:03.134071  9390 net.cpp:91] Creating Layer inception_4e/relu_3x3_reduce
I0403 19:34:03.134090  9390 net.cpp:425] inception_4e/relu_3x3_reduce <- inception_4e/3x3_reduce
I0403 19:34:03.134109  9390 net.cpp:386] inception_4e/relu_3x3_reduce -> inception_4e/3x3_reduce (in-place)
I0403 19:34:03.134300  9390 net.cpp:141] Setting up inception_4e/relu_3x3_reduce
I0403 19:34:03.134330  9390 net.cpp:148] Top shape: 24 160 14 14 (752640)
I0403 19:34:03.134346  9390 net.cpp:156] Memory required for data: 1224087072
I0403 19:34:03.134362  9390 layer_factory.hpp:77] Creating layer inception_4e/3x3
I0403 19:34:03.134385  9390 net.cpp:91] Creating Layer inception_4e/3x3
I0403 19:34:03.134402  9390 net.cpp:425] inception_4e/3x3 <- inception_4e/3x3_reduce
I0403 19:34:03.134421  9390 net.cpp:399] inception_4e/3x3 -> inception_4e/3x3
I0403 19:34:03.139559  9390 net.cpp:141] Setting up inception_4e/3x3
I0403 19:34:03.139606  9390 net.cpp:148] Top shape: 24 320 14 14 (1505280)
I0403 19:34:03.139623  9390 net.cpp:156] Memory required for data: 1230108192
I0403 19:34:03.139642  9390 layer_factory.hpp:77] Creating layer inception_4e/relu_3x3
I0403 19:34:03.139662  9390 net.cpp:91] Creating Layer inception_4e/relu_3x3
I0403 19:34:03.139678  9390 net.cpp:425] inception_4e/relu_3x3 <- inception_4e/3x3
I0403 19:34:03.139696  9390 net.cpp:386] inception_4e/relu_3x3 -> inception_4e/3x3 (in-place)
I0403 19:34:03.140018  9390 net.cpp:141] Setting up inception_4e/relu_3x3
I0403 19:34:03.140055  9390 net.cpp:148] Top shape: 24 320 14 14 (1505280)
I0403 19:34:03.140071  9390 net.cpp:156] Memory required for data: 1236129312
I0403 19:34:03.140087  9390 layer_factory.hpp:77] Creating layer inception_4e/5x5_reduce
I0403 19:34:03.140110  9390 net.cpp:91] Creating Layer inception_4e/5x5_reduce
I0403 19:34:03.140128  9390 net.cpp:425] inception_4e/5x5_reduce <- inception_4d/output_inception_4d/output_0_split_3
I0403 19:34:03.140151  9390 net.cpp:399] inception_4e/5x5_reduce -> inception_4e/5x5_reduce
I0403 19:34:03.141243  9390 net.cpp:141] Setting up inception_4e/5x5_reduce
I0403 19:34:03.141285  9390 net.cpp:148] Top shape: 24 32 14 14 (150528)
I0403 19:34:03.141301  9390 net.cpp:156] Memory required for data: 1236731424
I0403 19:34:03.141320  9390 layer_factory.hpp:77] Creating layer inception_4e/relu_5x5_reduce
I0403 19:34:03.141342  9390 net.cpp:91] Creating Layer inception_4e/relu_5x5_reduce
I0403 19:34:03.141360  9390 net.cpp:425] inception_4e/relu_5x5_reduce <- inception_4e/5x5_reduce
I0403 19:34:03.141378  9390 net.cpp:386] inception_4e/relu_5x5_reduce -> inception_4e/5x5_reduce (in-place)
I0403 19:34:03.141708  9390 net.cpp:141] Setting up inception_4e/relu_5x5_reduce
I0403 19:34:03.141736  9390 net.cpp:148] Top shape: 24 32 14 14 (150528)
I0403 19:34:03.141752  9390 net.cpp:156] Memory required for data: 1237333536
I0403 19:34:03.141767  9390 layer_factory.hpp:77] Creating layer inception_4e/5x5
I0403 19:34:03.141808  9390 net.cpp:91] Creating Layer inception_4e/5x5
I0403 19:34:03.141826  9390 net.cpp:425] inception_4e/5x5 <- inception_4e/5x5_reduce
I0403 19:34:03.141849  9390 net.cpp:399] inception_4e/5x5 -> inception_4e/5x5
I0403 19:34:03.143772  9390 net.cpp:141] Setting up inception_4e/5x5
I0403 19:34:03.143802  9390 net.cpp:148] Top shape: 24 128 14 14 (602112)
I0403 19:34:03.143821  9390 net.cpp:156] Memory required for data: 1239741984
I0403 19:34:03.143841  9390 layer_factory.hpp:77] Creating layer inception_4e/relu_5x5
I0403 19:34:03.143860  9390 net.cpp:91] Creating Layer inception_4e/relu_5x5
I0403 19:34:03.143877  9390 net.cpp:425] inception_4e/relu_5x5 <- inception_4e/5x5
I0403 19:34:03.143898  9390 net.cpp:386] inception_4e/relu_5x5 -> inception_4e/5x5 (in-place)
I0403 19:34:03.144104  9390 net.cpp:141] Setting up inception_4e/relu_5x5
I0403 19:34:03.144130  9390 net.cpp:148] Top shape: 24 128 14 14 (602112)
I0403 19:34:03.144146  9390 net.cpp:156] Memory required for data: 1242150432
I0403 19:34:03.144161  9390 layer_factory.hpp:77] Creating layer inception_4e/pool
I0403 19:34:03.144189  9390 net.cpp:91] Creating Layer inception_4e/pool
I0403 19:34:03.144209  9390 net.cpp:425] inception_4e/pool <- inception_4d/output_inception_4d/output_0_split_4
I0403 19:34:03.144229  9390 net.cpp:399] inception_4e/pool -> inception_4e/pool
I0403 19:34:03.144317  9390 net.cpp:141] Setting up inception_4e/pool
I0403 19:34:03.144343  9390 net.cpp:148] Top shape: 24 528 14 14 (2483712)
I0403 19:34:03.144358  9390 net.cpp:156] Memory required for data: 1252085280
I0403 19:34:03.144373  9390 layer_factory.hpp:77] Creating layer inception_4e/pool_proj
I0403 19:34:03.144397  9390 net.cpp:91] Creating Layer inception_4e/pool_proj
I0403 19:34:03.144415  9390 net.cpp:425] inception_4e/pool_proj <- inception_4e/pool
I0403 19:34:03.144438  9390 net.cpp:399] inception_4e/pool_proj -> inception_4e/pool_proj
I0403 19:34:03.146047  9390 net.cpp:141] Setting up inception_4e/pool_proj
I0403 19:34:03.146088  9390 net.cpp:148] Top shape: 24 128 14 14 (602112)
I0403 19:34:03.146106  9390 net.cpp:156] Memory required for data: 1254493728
I0403 19:34:03.146126  9390 layer_factory.hpp:77] Creating layer inception_4e/relu_pool_proj
I0403 19:34:03.146145  9390 net.cpp:91] Creating Layer inception_4e/relu_pool_proj
I0403 19:34:03.146162  9390 net.cpp:425] inception_4e/relu_pool_proj <- inception_4e/pool_proj
I0403 19:34:03.146190  9390 net.cpp:386] inception_4e/relu_pool_proj -> inception_4e/pool_proj (in-place)
I0403 19:34:03.146502  9390 net.cpp:141] Setting up inception_4e/relu_pool_proj
I0403 19:34:03.146529  9390 net.cpp:148] Top shape: 24 128 14 14 (602112)
I0403 19:34:03.146546  9390 net.cpp:156] Memory required for data: 1256902176
I0403 19:34:03.146563  9390 layer_factory.hpp:77] Creating layer inception_4e/output
I0403 19:34:03.146581  9390 net.cpp:91] Creating Layer inception_4e/output
I0403 19:34:03.146598  9390 net.cpp:425] inception_4e/output <- inception_4e/1x1
I0403 19:34:03.146616  9390 net.cpp:425] inception_4e/output <- inception_4e/3x3
I0403 19:34:03.146633  9390 net.cpp:425] inception_4e/output <- inception_4e/5x5
I0403 19:34:03.146651  9390 net.cpp:425] inception_4e/output <- inception_4e/pool_proj
I0403 19:34:03.146670  9390 net.cpp:399] inception_4e/output -> inception_4e/output
I0403 19:34:03.146723  9390 net.cpp:141] Setting up inception_4e/output
I0403 19:34:03.146750  9390 net.cpp:148] Top shape: 24 832 14 14 (3913728)
I0403 19:34:03.146767  9390 net.cpp:156] Memory required for data: 1272557088
I0403 19:34:03.146783  9390 layer_factory.hpp:77] Creating layer pool4/3x3_s2
I0403 19:34:03.146801  9390 net.cpp:91] Creating Layer pool4/3x3_s2
I0403 19:34:03.146817  9390 net.cpp:425] pool4/3x3_s2 <- inception_4e/output
I0403 19:34:03.146836  9390 net.cpp:399] pool4/3x3_s2 -> pool4/3x3_s2
I0403 19:34:03.146906  9390 net.cpp:141] Setting up pool4/3x3_s2
I0403 19:34:03.146931  9390 net.cpp:148] Top shape: 24 832 7 7 (978432)
I0403 19:34:03.146946  9390 net.cpp:156] Memory required for data: 1276470816
I0403 19:34:03.146961  9390 layer_factory.hpp:77] Creating layer pool4/3x3_s2_pool4/3x3_s2_0_split
I0403 19:34:03.146981  9390 net.cpp:91] Creating Layer pool4/3x3_s2_pool4/3x3_s2_0_split
I0403 19:34:03.146997  9390 net.cpp:425] pool4/3x3_s2_pool4/3x3_s2_0_split <- pool4/3x3_s2
I0403 19:34:03.147016  9390 net.cpp:399] pool4/3x3_s2_pool4/3x3_s2_0_split -> pool4/3x3_s2_pool4/3x3_s2_0_split_0
I0403 19:34:03.147035  9390 net.cpp:399] pool4/3x3_s2_pool4/3x3_s2_0_split -> pool4/3x3_s2_pool4/3x3_s2_0_split_1
I0403 19:34:03.147056  9390 net.cpp:399] pool4/3x3_s2_pool4/3x3_s2_0_split -> pool4/3x3_s2_pool4/3x3_s2_0_split_2
I0403 19:34:03.147080  9390 net.cpp:399] pool4/3x3_s2_pool4/3x3_s2_0_split -> pool4/3x3_s2_pool4/3x3_s2_0_split_3
I0403 19:34:03.147176  9390 net.cpp:141] Setting up pool4/3x3_s2_pool4/3x3_s2_0_split
I0403 19:34:03.147207  9390 net.cpp:148] Top shape: 24 832 7 7 (978432)
I0403 19:34:03.147224  9390 net.cpp:148] Top shape: 24 832 7 7 (978432)
I0403 19:34:03.147240  9390 net.cpp:148] Top shape: 24 832 7 7 (978432)
I0403 19:34:03.147256  9390 net.cpp:148] Top shape: 24 832 7 7 (978432)
I0403 19:34:03.147271  9390 net.cpp:156] Memory required for data: 1292125728
I0403 19:34:03.147286  9390 layer_factory.hpp:77] Creating layer inception_5a/1x1
I0403 19:34:03.147310  9390 net.cpp:91] Creating Layer inception_5a/1x1
I0403 19:34:03.147326  9390 net.cpp:425] inception_5a/1x1 <- pool4/3x3_s2_pool4/3x3_s2_0_split_0
I0403 19:34:03.147347  9390 net.cpp:399] inception_5a/1x1 -> inception_5a/1x1
I0403 19:34:03.150370  9390 net.cpp:141] Setting up inception_5a/1x1
I0403 19:34:03.150403  9390 net.cpp:148] Top shape: 24 256 7 7 (301056)
I0403 19:34:03.150419  9390 net.cpp:156] Memory required for data: 1293329952
I0403 19:34:03.150439  9390 layer_factory.hpp:77] Creating layer inception_5a/relu_1x1
I0403 19:34:03.150463  9390 net.cpp:91] Creating Layer inception_5a/relu_1x1
I0403 19:34:03.150488  9390 net.cpp:425] inception_5a/relu_1x1 <- inception_5a/1x1
I0403 19:34:03.150516  9390 net.cpp:386] inception_5a/relu_1x1 -> inception_5a/1x1 (in-place)
I0403 19:34:03.150873  9390 net.cpp:141] Setting up inception_5a/relu_1x1
I0403 19:34:03.150902  9390 net.cpp:148] Top shape: 24 256 7 7 (301056)
I0403 19:34:03.150918  9390 net.cpp:156] Memory required for data: 1294534176
I0403 19:34:03.150933  9390 layer_factory.hpp:77] Creating layer inception_5a/3x3_reduce
I0403 19:34:03.150956  9390 net.cpp:91] Creating Layer inception_5a/3x3_reduce
I0403 19:34:03.150974  9390 net.cpp:425] inception_5a/3x3_reduce <- pool4/3x3_s2_pool4/3x3_s2_0_split_1
I0403 19:34:03.150996  9390 net.cpp:399] inception_5a/3x3_reduce -> inception_5a/3x3_reduce
I0403 19:34:03.153591  9390 net.cpp:141] Setting up inception_5a/3x3_reduce
I0403 19:34:03.153622  9390 net.cpp:148] Top shape: 24 160 7 7 (188160)
I0403 19:34:03.153640  9390 net.cpp:156] Memory required for data: 1295286816
I0403 19:34:03.153661  9390 layer_factory.hpp:77] Creating layer inception_5a/relu_3x3_reduce
I0403 19:34:03.153679  9390 net.cpp:91] Creating Layer inception_5a/relu_3x3_reduce
I0403 19:34:03.153697  9390 net.cpp:425] inception_5a/relu_3x3_reduce <- inception_5a/3x3_reduce
I0403 19:34:03.153717  9390 net.cpp:386] inception_5a/relu_3x3_reduce -> inception_5a/3x3_reduce (in-place)
I0403 19:34:03.153911  9390 net.cpp:141] Setting up inception_5a/relu_3x3_reduce
I0403 19:34:03.153939  9390 net.cpp:148] Top shape: 24 160 7 7 (188160)
I0403 19:34:03.153955  9390 net.cpp:156] Memory required for data: 1296039456
I0403 19:34:03.153971  9390 layer_factory.hpp:77] Creating layer inception_5a/3x3
I0403 19:34:03.153993  9390 net.cpp:91] Creating Layer inception_5a/3x3
I0403 19:34:03.154012  9390 net.cpp:425] inception_5a/3x3 <- inception_5a/3x3_reduce
I0403 19:34:03.154034  9390 net.cpp:399] inception_5a/3x3 -> inception_5a/3x3
I0403 19:34:03.159287  9390 net.cpp:141] Setting up inception_5a/3x3
I0403 19:34:03.159320  9390 net.cpp:148] Top shape: 24 320 7 7 (376320)
I0403 19:34:03.159337  9390 net.cpp:156] Memory required for data: 1297544736
I0403 19:34:03.159356  9390 layer_factory.hpp:77] Creating layer inception_5a/relu_3x3
I0403 19:34:03.159378  9390 net.cpp:91] Creating Layer inception_5a/relu_3x3
I0403 19:34:03.159397  9390 net.cpp:425] inception_5a/relu_3x3 <- inception_5a/3x3
I0403 19:34:03.159415  9390 net.cpp:386] inception_5a/relu_3x3 -> inception_5a/3x3 (in-place)
I0403 19:34:03.159719  9390 net.cpp:141] Setting up inception_5a/relu_3x3
I0403 19:34:03.159749  9390 net.cpp:148] Top shape: 24 320 7 7 (376320)
I0403 19:34:03.159765  9390 net.cpp:156] Memory required for data: 1299050016
I0403 19:34:03.159780  9390 layer_factory.hpp:77] Creating layer inception_5a/5x5_reduce
I0403 19:34:03.159802  9390 net.cpp:91] Creating Layer inception_5a/5x5_reduce
I0403 19:34:03.159821  9390 net.cpp:425] inception_5a/5x5_reduce <- pool4/3x3_s2_pool4/3x3_s2_0_split_2
I0403 19:34:03.159844  9390 net.cpp:399] inception_5a/5x5_reduce -> inception_5a/5x5_reduce
I0403 19:34:03.161098  9390 net.cpp:141] Setting up inception_5a/5x5_reduce
I0403 19:34:03.161134  9390 net.cpp:148] Top shape: 24 32 7 7 (37632)
I0403 19:34:03.161151  9390 net.cpp:156] Memory required for data: 1299200544
I0403 19:34:03.161171  9390 layer_factory.hpp:77] Creating layer inception_5a/relu_5x5_reduce
I0403 19:34:03.161197  9390 net.cpp:91] Creating Layer inception_5a/relu_5x5_reduce
I0403 19:34:03.161216  9390 net.cpp:425] inception_5a/relu_5x5_reduce <- inception_5a/5x5_reduce
I0403 19:34:03.161232  9390 net.cpp:386] inception_5a/relu_5x5_reduce -> inception_5a/5x5_reduce (in-place)
I0403 19:34:03.161543  9390 net.cpp:141] Setting up inception_5a/relu_5x5_reduce
I0403 19:34:03.161571  9390 net.cpp:148] Top shape: 24 32 7 7 (37632)
I0403 19:34:03.161587  9390 net.cpp:156] Memory required for data: 1299351072
I0403 19:34:03.161604  9390 layer_factory.hpp:77] Creating layer inception_5a/5x5
I0403 19:34:03.161628  9390 net.cpp:91] Creating Layer inception_5a/5x5
I0403 19:34:03.161646  9390 net.cpp:425] inception_5a/5x5 <- inception_5a/5x5_reduce
I0403 19:34:03.161669  9390 net.cpp:399] inception_5a/5x5 -> inception_5a/5x5
I0403 19:34:03.163470  9390 net.cpp:141] Setting up inception_5a/5x5
I0403 19:34:03.163513  9390 net.cpp:148] Top shape: 24 128 7 7 (150528)
I0403 19:34:03.163530  9390 net.cpp:156] Memory required for data: 1299953184
I0403 19:34:03.163549  9390 layer_factory.hpp:77] Creating layer inception_5a/relu_5x5
I0403 19:34:03.163570  9390 net.cpp:91] Creating Layer inception_5a/relu_5x5
I0403 19:34:03.163589  9390 net.cpp:425] inception_5a/relu_5x5 <- inception_5a/5x5
I0403 19:34:03.163606  9390 net.cpp:386] inception_5a/relu_5x5 -> inception_5a/5x5 (in-place)
I0403 19:34:03.163805  9390 net.cpp:141] Setting up inception_5a/relu_5x5
I0403 19:34:03.163831  9390 net.cpp:148] Top shape: 24 128 7 7 (150528)
I0403 19:34:03.163849  9390 net.cpp:156] Memory required for data: 1300555296
I0403 19:34:03.163866  9390 layer_factory.hpp:77] Creating layer inception_5a/pool
I0403 19:34:03.163884  9390 net.cpp:91] Creating Layer inception_5a/pool
I0403 19:34:03.163902  9390 net.cpp:425] inception_5a/pool <- pool4/3x3_s2_pool4/3x3_s2_0_split_3
I0403 19:34:03.163919  9390 net.cpp:399] inception_5a/pool -> inception_5a/pool
I0403 19:34:03.163995  9390 net.cpp:141] Setting up inception_5a/pool
I0403 19:34:03.164019  9390 net.cpp:148] Top shape: 24 832 7 7 (978432)
I0403 19:34:03.164034  9390 net.cpp:156] Memory required for data: 1304469024
I0403 19:34:03.164050  9390 layer_factory.hpp:77] Creating layer inception_5a/pool_proj
I0403 19:34:03.164078  9390 net.cpp:91] Creating Layer inception_5a/pool_proj
I0403 19:34:03.164096  9390 net.cpp:425] inception_5a/pool_proj <- inception_5a/pool
I0403 19:34:03.164119  9390 net.cpp:399] inception_5a/pool_proj -> inception_5a/pool_proj
I0403 19:34:03.166534  9390 net.cpp:141] Setting up inception_5a/pool_proj
I0403 19:34:03.166566  9390 net.cpp:148] Top shape: 24 128 7 7 (150528)
I0403 19:34:03.166584  9390 net.cpp:156] Memory required for data: 1305071136
I0403 19:34:03.166602  9390 layer_factory.hpp:77] Creating layer inception_5a/relu_pool_proj
I0403 19:34:03.166620  9390 net.cpp:91] Creating Layer inception_5a/relu_pool_proj
I0403 19:34:03.166640  9390 net.cpp:425] inception_5a/relu_pool_proj <- inception_5a/pool_proj
I0403 19:34:03.166657  9390 net.cpp:386] inception_5a/relu_pool_proj -> inception_5a/pool_proj (in-place)
I0403 19:34:03.166954  9390 net.cpp:141] Setting up inception_5a/relu_pool_proj
I0403 19:34:03.166981  9390 net.cpp:148] Top shape: 24 128 7 7 (150528)
I0403 19:34:03.166997  9390 net.cpp:156] Memory required for data: 1305673248
I0403 19:34:03.167013  9390 layer_factory.hpp:77] Creating layer inception_5a/output
I0403 19:34:03.167031  9390 net.cpp:91] Creating Layer inception_5a/output
I0403 19:34:03.167047  9390 net.cpp:425] inception_5a/output <- inception_5a/1x1
I0403 19:34:03.167062  9390 net.cpp:425] inception_5a/output <- inception_5a/3x3
I0403 19:34:03.167078  9390 net.cpp:425] inception_5a/output <- inception_5a/5x5
I0403 19:34:03.167094  9390 net.cpp:425] inception_5a/output <- inception_5a/pool_proj
I0403 19:34:03.167114  9390 net.cpp:399] inception_5a/output -> inception_5a/output
I0403 19:34:03.167165  9390 net.cpp:141] Setting up inception_5a/output
I0403 19:34:03.167196  9390 net.cpp:148] Top shape: 24 832 7 7 (978432)
I0403 19:34:03.167212  9390 net.cpp:156] Memory required for data: 1309586976
I0403 19:34:03.167227  9390 layer_factory.hpp:77] Creating layer inception_5a/output_inception_5a/output_0_split
I0403 19:34:03.167245  9390 net.cpp:91] Creating Layer inception_5a/output_inception_5a/output_0_split
I0403 19:34:03.167260  9390 net.cpp:425] inception_5a/output_inception_5a/output_0_split <- inception_5a/output
I0403 19:34:03.167278  9390 net.cpp:399] inception_5a/output_inception_5a/output_0_split -> inception_5a/output_inception_5a/output_0_split_0
I0403 19:34:03.167301  9390 net.cpp:399] inception_5a/output_inception_5a/output_0_split -> inception_5a/output_inception_5a/output_0_split_1
I0403 19:34:03.167323  9390 net.cpp:399] inception_5a/output_inception_5a/output_0_split -> inception_5a/output_inception_5a/output_0_split_2
I0403 19:34:03.167345  9390 net.cpp:399] inception_5a/output_inception_5a/output_0_split -> inception_5a/output_inception_5a/output_0_split_3
I0403 19:34:03.167454  9390 net.cpp:141] Setting up inception_5a/output_inception_5a/output_0_split
I0403 19:34:03.167479  9390 net.cpp:148] Top shape: 24 832 7 7 (978432)
I0403 19:34:03.167495  9390 net.cpp:148] Top shape: 24 832 7 7 (978432)
I0403 19:34:03.167511  9390 net.cpp:148] Top shape: 24 832 7 7 (978432)
I0403 19:34:03.167526  9390 net.cpp:148] Top shape: 24 832 7 7 (978432)
I0403 19:34:03.167541  9390 net.cpp:156] Memory required for data: 1325241888
I0403 19:34:03.167554  9390 layer_factory.hpp:77] Creating layer inception_5b/1x1
I0403 19:34:03.167577  9390 net.cpp:91] Creating Layer inception_5b/1x1
I0403 19:34:03.167595  9390 net.cpp:425] inception_5b/1x1 <- inception_5a/output_inception_5a/output_0_split_0
I0403 19:34:03.167616  9390 net.cpp:399] inception_5b/1x1 -> inception_5b/1x1
I0403 19:34:03.171478  9390 net.cpp:141] Setting up inception_5b/1x1
I0403 19:34:03.171509  9390 net.cpp:148] Top shape: 24 384 7 7 (451584)
I0403 19:34:03.171525  9390 net.cpp:156] Memory required for data: 1327048224
I0403 19:34:03.171542  9390 layer_factory.hpp:77] Creating layer inception_5b/relu_1x1
I0403 19:34:03.171561  9390 net.cpp:91] Creating Layer inception_5b/relu_1x1
I0403 19:34:03.171576  9390 net.cpp:425] inception_5b/relu_1x1 <- inception_5b/1x1
I0403 19:34:03.171597  9390 net.cpp:386] inception_5b/relu_1x1 -> inception_5b/1x1 (in-place)
I0403 19:34:03.171907  9390 net.cpp:141] Setting up inception_5b/relu_1x1
I0403 19:34:03.171933  9390 net.cpp:148] Top shape: 24 384 7 7 (451584)
I0403 19:34:03.171949  9390 net.cpp:156] Memory required for data: 1328854560
I0403 19:34:03.171964  9390 layer_factory.hpp:77] Creating layer inception_5b/3x3_reduce
I0403 19:34:03.171986  9390 net.cpp:91] Creating Layer inception_5b/3x3_reduce
I0403 19:34:03.172003  9390 net.cpp:425] inception_5b/3x3_reduce <- inception_5a/output_inception_5a/output_0_split_1
I0403 19:34:03.172025  9390 net.cpp:399] inception_5b/3x3_reduce -> inception_5b/3x3_reduce
I0403 19:34:03.174777  9390 net.cpp:141] Setting up inception_5b/3x3_reduce
I0403 19:34:03.174808  9390 net.cpp:148] Top shape: 24 192 7 7 (225792)
I0403 19:34:03.174825  9390 net.cpp:156] Memory required for data: 1329757728
I0403 19:34:03.174845  9390 layer_factory.hpp:77] Creating layer inception_5b/relu_3x3_reduce
I0403 19:34:03.174865  9390 net.cpp:91] Creating Layer inception_5b/relu_3x3_reduce
I0403 19:34:03.174882  9390 net.cpp:425] inception_5b/relu_3x3_reduce <- inception_5b/3x3_reduce
I0403 19:34:03.174902  9390 net.cpp:386] inception_5b/relu_3x3_reduce -> inception_5b/3x3_reduce (in-place)
I0403 19:34:03.175118  9390 net.cpp:141] Setting up inception_5b/relu_3x3_reduce
I0403 19:34:03.175146  9390 net.cpp:148] Top shape: 24 192 7 7 (225792)
I0403 19:34:03.175164  9390 net.cpp:156] Memory required for data: 1330660896
I0403 19:34:03.175189  9390 layer_factory.hpp:77] Creating layer inception_5b/3x3
I0403 19:34:03.175215  9390 net.cpp:91] Creating Layer inception_5b/3x3
I0403 19:34:03.175233  9390 net.cpp:425] inception_5b/3x3 <- inception_5b/3x3_reduce
I0403 19:34:03.175271  9390 net.cpp:399] inception_5b/3x3 -> inception_5b/3x3
I0403 19:34:03.182131  9390 net.cpp:141] Setting up inception_5b/3x3
I0403 19:34:03.182162  9390 net.cpp:148] Top shape: 24 384 7 7 (451584)
I0403 19:34:03.182191  9390 net.cpp:156] Memory required for data: 1332467232
I0403 19:34:03.182215  9390 layer_factory.hpp:77] Creating layer inception_5b/relu_3x3
I0403 19:34:03.182234  9390 net.cpp:91] Creating Layer inception_5b/relu_3x3
I0403 19:34:03.182252  9390 net.cpp:425] inception_5b/relu_3x3 <- inception_5b/3x3
I0403 19:34:03.182271  9390 net.cpp:386] inception_5b/relu_3x3 -> inception_5b/3x3 (in-place)
I0403 19:34:03.182575  9390 net.cpp:141] Setting up inception_5b/relu_3x3
I0403 19:34:03.182601  9390 net.cpp:148] Top shape: 24 384 7 7 (451584)
I0403 19:34:03.182616  9390 net.cpp:156] Memory required for data: 1334273568
I0403 19:34:03.182631  9390 layer_factory.hpp:77] Creating layer inception_5b/5x5_reduce
I0403 19:34:03.182669  9390 net.cpp:91] Creating Layer inception_5b/5x5_reduce
I0403 19:34:03.182688  9390 net.cpp:425] inception_5b/5x5_reduce <- inception_5a/output_inception_5a/output_0_split_2
I0403 19:34:03.182711  9390 net.cpp:399] inception_5b/5x5_reduce -> inception_5b/5x5_reduce
I0403 19:34:03.183996  9390 net.cpp:141] Setting up inception_5b/5x5_reduce
I0403 19:34:03.184026  9390 net.cpp:148] Top shape: 24 48 7 7 (56448)
I0403 19:34:03.184042  9390 net.cpp:156] Memory required for data: 1334499360
I0403 19:34:03.184063  9390 layer_factory.hpp:77] Creating layer inception_5b/relu_5x5_reduce
I0403 19:34:03.184082  9390 net.cpp:91] Creating Layer inception_5b/relu_5x5_reduce
I0403 19:34:03.184098  9390 net.cpp:425] inception_5b/relu_5x5_reduce <- inception_5b/5x5_reduce
I0403 19:34:03.184118  9390 net.cpp:386] inception_5b/relu_5x5_reduce -> inception_5b/5x5_reduce (in-place)
I0403 19:34:03.184521  9390 net.cpp:141] Setting up inception_5b/relu_5x5_reduce
I0403 19:34:03.184551  9390 net.cpp:148] Top shape: 24 48 7 7 (56448)
I0403 19:34:03.184579  9390 net.cpp:156] Memory required for data: 1334725152
I0403 19:34:03.184595  9390 layer_factory.hpp:77] Creating layer inception_5b/5x5
I0403 19:34:03.184617  9390 net.cpp:91] Creating Layer inception_5b/5x5
I0403 19:34:03.184633  9390 net.cpp:425] inception_5b/5x5 <- inception_5b/5x5_reduce
I0403 19:34:03.184653  9390 net.cpp:399] inception_5b/5x5 -> inception_5b/5x5
I0403 19:34:03.186741  9390 net.cpp:141] Setting up inception_5b/5x5
I0403 19:34:03.186769  9390 net.cpp:148] Top shape: 24 128 7 7 (150528)
I0403 19:34:03.186785  9390 net.cpp:156] Memory required for data: 1335327264
I0403 19:34:03.186803  9390 layer_factory.hpp:77] Creating layer inception_5b/relu_5x5
I0403 19:34:03.186823  9390 net.cpp:91] Creating Layer inception_5b/relu_5x5
I0403 19:34:03.186839  9390 net.cpp:425] inception_5b/relu_5x5 <- inception_5b/5x5
I0403 19:34:03.186857  9390 net.cpp:386] inception_5b/relu_5x5 -> inception_5b/5x5 (in-place)
I0403 19:34:03.187078  9390 net.cpp:141] Setting up inception_5b/relu_5x5
I0403 19:34:03.187104  9390 net.cpp:148] Top shape: 24 128 7 7 (150528)
I0403 19:34:03.187119  9390 net.cpp:156] Memory required for data: 1335929376
I0403 19:34:03.187135  9390 layer_factory.hpp:77] Creating layer inception_5b/pool
I0403 19:34:03.187155  9390 net.cpp:91] Creating Layer inception_5b/pool
I0403 19:34:03.187172  9390 net.cpp:425] inception_5b/pool <- inception_5a/output_inception_5a/output_0_split_3
I0403 19:34:03.187198  9390 net.cpp:399] inception_5b/pool -> inception_5b/pool
I0403 19:34:03.187288  9390 net.cpp:141] Setting up inception_5b/pool
I0403 19:34:03.187312  9390 net.cpp:148] Top shape: 24 832 7 7 (978432)
I0403 19:34:03.187326  9390 net.cpp:156] Memory required for data: 1339843104
I0403 19:34:03.187341  9390 layer_factory.hpp:77] Creating layer inception_5b/pool_proj
I0403 19:34:03.187363  9390 net.cpp:91] Creating Layer inception_5b/pool_proj
I0403 19:34:03.187381  9390 net.cpp:425] inception_5b/pool_proj <- inception_5b/pool
I0403 19:34:03.187402  9390 net.cpp:399] inception_5b/pool_proj -> inception_5b/pool_proj
I0403 19:34:03.189787  9390 net.cpp:141] Setting up inception_5b/pool_proj
I0403 19:34:03.189817  9390 net.cpp:148] Top shape: 24 128 7 7 (150528)
I0403 19:34:03.189834  9390 net.cpp:156] Memory required for data: 1340445216
I0403 19:34:03.189853  9390 layer_factory.hpp:77] Creating layer inception_5b/relu_pool_proj
I0403 19:34:03.189872  9390 net.cpp:91] Creating Layer inception_5b/relu_pool_proj
I0403 19:34:03.189888  9390 net.cpp:425] inception_5b/relu_pool_proj <- inception_5b/pool_proj
I0403 19:34:03.189908  9390 net.cpp:386] inception_5b/relu_pool_proj -> inception_5b/pool_proj (in-place)
I0403 19:34:03.190217  9390 net.cpp:141] Setting up inception_5b/relu_pool_proj
I0403 19:34:03.190243  9390 net.cpp:148] Top shape: 24 128 7 7 (150528)
I0403 19:34:03.190258  9390 net.cpp:156] Memory required for data: 1341047328
I0403 19:34:03.190274  9390 layer_factory.hpp:77] Creating layer inception_5b/output
I0403 19:34:03.190291  9390 net.cpp:91] Creating Layer inception_5b/output
I0403 19:34:03.190322  9390 net.cpp:425] inception_5b/output <- inception_5b/1x1
I0403 19:34:03.190340  9390 net.cpp:425] inception_5b/output <- inception_5b/3x3
I0403 19:34:03.190357  9390 net.cpp:425] inception_5b/output <- inception_5b/5x5
I0403 19:34:03.190373  9390 net.cpp:425] inception_5b/output <- inception_5b/pool_proj
I0403 19:34:03.190393  9390 net.cpp:399] inception_5b/output -> inception_5b/output
I0403 19:34:03.190445  9390 net.cpp:141] Setting up inception_5b/output
I0403 19:34:03.190472  9390 net.cpp:148] Top shape: 24 1024 7 7 (1204224)
I0403 19:34:03.190487  9390 net.cpp:156] Memory required for data: 1345864224
I0403 19:34:03.190502  9390 layer_factory.hpp:77] Creating layer pool5/7x7_s1
I0403 19:34:03.190520  9390 net.cpp:91] Creating Layer pool5/7x7_s1
I0403 19:34:03.190536  9390 net.cpp:425] pool5/7x7_s1 <- inception_5b/output
I0403 19:34:03.190556  9390 net.cpp:399] pool5/7x7_s1 -> pool5/7x7_s1
I0403 19:34:03.190775  9390 net.cpp:141] Setting up pool5/7x7_s1
I0403 19:34:03.190800  9390 net.cpp:148] Top shape: 24 1024 1 1 (24576)
I0403 19:34:03.190815  9390 net.cpp:156] Memory required for data: 1345962528
I0403 19:34:03.190830  9390 layer_factory.hpp:77] Creating layer pool5/drop_7x7_s1
I0403 19:34:03.190848  9390 net.cpp:91] Creating Layer pool5/drop_7x7_s1
I0403 19:34:03.190863  9390 net.cpp:425] pool5/drop_7x7_s1 <- pool5/7x7_s1
I0403 19:34:03.190882  9390 net.cpp:386] pool5/drop_7x7_s1 -> pool5/7x7_s1 (in-place)
I0403 19:34:03.190935  9390 net.cpp:141] Setting up pool5/drop_7x7_s1
I0403 19:34:03.190958  9390 net.cpp:148] Top shape: 24 1024 1 1 (24576)
I0403 19:34:03.190973  9390 net.cpp:156] Memory required for data: 1346060832
I0403 19:34:03.190989  9390 layer_factory.hpp:77] Creating layer loss3/classifier_plantvillage
I0403 19:34:03.191007  9390 net.cpp:91] Creating Layer loss3/classifier_plantvillage
I0403 19:34:03.191022  9390 net.cpp:425] loss3/classifier_plantvillage <- pool5/7x7_s1
I0403 19:34:03.191042  9390 net.cpp:399] loss3/classifier_plantvillage -> loss3/classifier_plantvillage
I0403 19:34:03.191483  9390 net.cpp:141] Setting up loss3/classifier_plantvillage
I0403 19:34:03.191507  9390 net.cpp:148] Top shape: 24 38 (912)
I0403 19:34:03.191522  9390 net.cpp:156] Memory required for data: 1346064480
I0403 19:34:03.191540  9390 layer_factory.hpp:77] Creating layer loss3/classifier_plantvillage_loss3/classifier_plantvillage_0_split
I0403 19:34:03.191560  9390 net.cpp:91] Creating Layer loss3/classifier_plantvillage_loss3/classifier_plantvillage_0_split
I0403 19:34:03.191577  9390 net.cpp:425] loss3/classifier_plantvillage_loss3/classifier_plantvillage_0_split <- loss3/classifier_plantvillage
I0403 19:34:03.191597  9390 net.cpp:399] loss3/classifier_plantvillage_loss3/classifier_plantvillage_0_split -> loss3/classifier_plantvillage_loss3/classifier_plantvillage_0_split_0
I0403 19:34:03.191618  9390 net.cpp:399] loss3/classifier_plantvillage_loss3/classifier_plantvillage_0_split -> loss3/classifier_plantvillage_loss3/classifier_plantvillage_0_split_1
I0403 19:34:03.191638  9390 net.cpp:399] loss3/classifier_plantvillage_loss3/classifier_plantvillage_0_split -> loss3/classifier_plantvillage_loss3/classifier_plantvillage_0_split_2
I0403 19:34:03.191659  9390 net.cpp:399] loss3/classifier_plantvillage_loss3/classifier_plantvillage_0_split -> loss3/classifier_plantvillage_loss3/classifier_plantvillage_0_split_3
I0403 19:34:03.191761  9390 net.cpp:141] Setting up loss3/classifier_plantvillage_loss3/classifier_plantvillage_0_split
I0403 19:34:03.191784  9390 net.cpp:148] Top shape: 24 38 (912)
I0403 19:34:03.191802  9390 net.cpp:148] Top shape: 24 38 (912)
I0403 19:34:03.191817  9390 net.cpp:148] Top shape: 24 38 (912)
I0403 19:34:03.191833  9390 net.cpp:148] Top shape: 24 38 (912)
I0403 19:34:03.191850  9390 net.cpp:156] Memory required for data: 1346079072
I0403 19:34:03.191865  9390 layer_factory.hpp:77] Creating layer loss1/loss
I0403 19:34:03.191887  9390 net.cpp:91] Creating Layer loss1/loss
I0403 19:34:03.191905  9390 net.cpp:425] loss1/loss <- loss1/classifier_plantvillage_loss1/classifier_plantvillage_0_split_0
I0403 19:34:03.191936  9390 net.cpp:425] loss1/loss <- label_data_1_split_0
…
