…
I0403 19:46:34.222333  9660 net.cpp:313] The NetState phase (1) differed from the phase (0) specified by a rule in layer data
I0403 19:46:34.223561  9660 net.cpp:49] Initializing net from parameters: 
state {
  phase: TEST
}
layer {
  name: "data"
  type: "Data"
  top: "data"
  top: "label"
  include {
    phase: TEST
  }
  transform_param {
    mirror: false
    crop_size: 224
    mean_file: "/home/mohanty/data/final_dataset/lmdb/grayscale-50-50/mean.binaryproto"
  }
  data_param {
    source: "/home/mohanty/data/final_dataset/lmdb/grayscale-50-50/test_db"
    batch_size: 24
    backend: LMDB
  }
}
layer {
  name: "conv1/7x7_s2"
  type: "Convolution"
  bottom: "data"
  top: "conv1/7x7_s2"
  param {
    lr_mult: 1
    decay_mult: 1
  }
  param {
    lr_mult: 2
    decay_mult: 0
  }
  convolution_param {
    num_output: 64
    pad: 3
    kernel_size: 7
    stride: 2
    weight_filler {
      type: "xavier"
      std: 0.1
    }
    bias_filler {
      type: "constant"
      value: 0.2
    }
  }
}
layer {
  name: "conv1/relu_7x7"
  type: "ReLU"
  bottom: "conv1/7x7_s2"
  top: "conv1/7x7_s2"
}
layer {
  name: "pool1/3x3_s2"
  type: "Pooling"
  bottom: "conv1/7x7_s2"
  top: "pool1/3x3_s2"
  pooling_param {
    pool: MAX
    kernel_size: 3
    stride: 2
  }
}
layer {
  name: "pool1/norm1"
  type: "LRN"
  bottom: "pool1/3x3_s2"
  top: "pool1/norm1"
  lrn_param {
    local_size: 5
    alpha: 0.0001
    beta: 0.75
  }
}
layer {
  name: "conv2/3x3_reduce"
  type: "Convolution"
  bottom: "pool1/norm1"
  top: "conv2/3x3_reduce"
  param {
    lr_mult: 1
    decay_mult: 1
  }
  param {
    lr_mult: 2
    decay_mult: 0
  }
  convolution_param {
    num_output: 64
    kernel_size: 1
    weight_filler {
      type: "xavier"
      std: 0.1
    }
    bias_filler {
      type: "constant"
      value: 0.2
    }
  }
}
layer {
  name: "conv2/relu_3x3_reduce"
  type: "ReLU"
  bottom: "conv2/3x3_reduce"
  top: "conv2/3x3_reduce"
}
layer {
  name: "conv2/3x3"
  type: "Convolution"
  bottom: "conv2/3x3_reduce"
  top: "conv2/3x3"
  param {
    lr_mult: 1
    decay_mult: 1
  }
  param {
    lr_mult: 2
    decay_mult: 0
  }
  convolution_param {
    num_output: 192
    pad: 1
    kernel_size: 3
    weight_filler {
      type: "xavier"
      std: 0.03
    }
    bias_filler {
      type: "constant"
      value: 0.2
    }
  }
}
layer {
  name: "conv2/relu_3x3"
  type: "ReLU"
  bottom: "conv2/3x3"
  top: "conv2/3x3"
}
layer {
  name: "conv2/norm2"
  type: "LRN"
  bottom: "conv2/3x3"
  top: "conv2/norm2"
  lrn_param {
    local_size: 5
    alpha: 0.0001
    beta: 0.75
  }
}
layer {
  name: "pool2/3x3_s2"
  type: "Pooling"
  bottom: "conv2/norm2"
  top: "pool2/3x3_s2"
  pooling_param {
    pool: MAX
    kernel_size: 3
    stride: 2
  }
}
layer {
  name: "inception_3a/1x1"
  type: "Convolution"
  bottom: "pool2/3x3_s2"
  top: "inception_3a/1x1"
  param {
    lr_mult: 1
    decay_mult: 1
  }
  param {
    lr_mult: 2
    decay_mult: 0
  }
  convolution_param {
    num_output: 64
    kernel_size: 1
    weight_filler {
      type: "xavier"
      std: 0.03
    }
    bias_filler {
      type: "constant"
      value: 0.2
    }
  }
}
layer {
  name: "inception_3a/relu_1x1"
  type: "ReLU"
  bottom: "inception_3a/1x1"
  top: "inception_3a/1x1"
}
layer {
  name: "inception_3a/3x3_reduce"
  type: "Convolution"
  bottom: "pool2/3x3_s2"
  top: "inception_3a/3x3_reduce"
  param {
    lr_mult: 1
    decay_mult: 1
  }
  param {
    lr_mult: 2
    decay_mult: 0
  }
  convolution_param {
    num_output: 96
    kernel_size: 1
    weight_filler {
      type: "xavier"
      std: 0.09
    }
    bias_filler {
      type: "constant"
      value: 0.2
    }
  }
}
layer {
  name: "inception_3a/relu_3x3_reduce"
  type: "ReLU"
  bottom: "inception_3a/3x3_reduce"
  top: "inception_3a/3x3_reduce"
}
layer {
  name: "inception_3a/3x3"
  type: "Convolution"
  bottom: "inception_3a/3x3_reduce"
  top: "inception_3a/3x3"
  param {
    lr_mult: 1
    decay_mult: 1
  }
  param {
    lr_mult: 2
    decay_mult: 0
  }
  convolution_param {
    num_output: 128
    pad: 1
    kernel_size: 3
    weight_filler {
      type: "xavier"
      std: 0.03
    }
    bias_filler {
      type: "constant"
      value: 0.2
    }
  }
}
layer {
  name: "inception_3a/relu_3x3"
  type: "ReLU"
  bottom: "inception_3a/3x3"
  top: "inception_3a/3x3"
}
layer {
  name: "inception_3a/5x5_reduce"
  type: "Convolution"
  bottom: "pool2/3x3_s2"
  top: "inception_3a/5x5_reduce"
  param {
    lr_mult: 1
    decay_mult: 1
  }
  param {
    lr_mult: 2
    decay_mult: 0
  }
  convolution_param {
    num_output: 16
    kernel_size: 1
    weight_filler {
      type: "xavier"
      std: 0.2
    }
    bias_filler {
      type: "constant"
      value: 0.2
    }
  }
}
layer {
  name: "inception_3a/relu_5x5_reduce"
  type: "ReLU"
  bottom: "inception_3a/5x5_reduce"
  top: "inception_3a/5x5_reduce"
}
layer {
  name: "inception_3a/5x5"
  type: "Convolution"
  bottom: "inception_3a/5x5_reduce"
  top: "inception_3a/5x5"
  param {
    lr_mult: 1
    decay_mult: 1
  }
  param {
    lr_mult: 2
    decay_mult: 0
  }
  convolution_param {
    num_output: 32
    pad: 2
    kernel_size: 5
    weight_filler {
      type: "xavier"
      std: 0.03
    }
    bias_filler {
      type: "constant"
      value: 0.2
    }
  }
}
layer {
  name: "inception_3a/relu_5x5"
  type: "ReLU"
  bottom: "inception_3a/5x5"
  top: "inception_3a/5x5"
}
layer {
  name: "inception_3a/pool"
  type: "Pooling"
  bottom: "pool2/3x3_s2"
  top: "inception_3a/pool"
  pooling_param {
    pool: MAX
    kernel_size: 3
    stride: 1
    pad: 1
  }
}
layer {
  name: "inception_3a/pool_proj"
  type: "Convolution"
  bottom: "inception_3a/pool"
  top: "inception_3a/pool_proj"
  param {
    lr_mult: 1
    decay_mult: 1
  }
  param {
    lr_mult: 2
    decay_mult: 0
  }
  convolution_param {
    num_output: 32
    kernel_size: 1
    weight_filler {
      type: "xavier"
      std: 0.1
    }
    bias_filler {
      type: "constant"
      value: 0.2
    }
  }
}
layer {
  name: "inception_3a/relu_pool_proj"
  type: "ReLU"
  bottom: "inception_3a/pool_proj"
  top: "inception_3a/pool_proj"
}
layer {
  name: "inception_3a/output"
  type: "Concat"
  bottom: "inception_3a/1x1"
  bottom: "inception_3a/3x3"
  bottom: "inception_3a/5x5"
  bottom: "inception_3a/pool_proj"
  top: "inception_3a/output"
}
layer {
  name: "inception_3b/1x1"
  type: "Convolution"
  bottom: "inception_3a/output"
  top: "inception_3b/1x1"
  param {
    lr_mult: 1
    decay_mult: 1
  }
  param {
    lr_mult: 2
    decay_mult: 0
  }
  convolution_param {
    num_output: 128
    kernel_size: 1
    weight_filler {
      type: "xavier"
      std: 0.03
    }
    bias_filler {
      type: "constant"
      value: 0.2
    }
  }
}
layer {
  name: "inception_3b/relu_1x1"
  type: "ReLU"
  bottom: "inception_3b/1x1"
  top: "inception_3b/1x1"
}
layer {
  name: "inception_3b/3x3_reduce"
  type: "Convolution"
  bottom: "inception_3a/output"
  top: "inception_3b/3x3_reduce"
  param {
    lr_mult: 1
    decay_mult: 1
  }
  param {
    lr_mult: 2
    decay_mult: 0
  }
  convolution_param {
    num_output: 128
    kernel_size: 1
    weight_filler {
      type: "xavier"
      std: 0.09
    }
    bias_filler {
      type: "constant"
      value: 0.2
    }
  }
}
layer {
  name: "inception_3b/relu_3x3_reduce"
  type: "ReLU"
  bottom: "inception_3b/3x3_reduce"
  top: "inception_3b/3x3_reduce"
}
layer {
  name: "inception_3b/3x3"
  type: "Convolution"
  bottom: "inception_3b/3x3_reduce"
  top: "inception_3b/3x3"
  param {
    lr_mult: 1
    decay_mult: 1
  }
  param {
    lr_mult: 2
    decay_mult: 0
  }
  convolution_param {
    num_output: 192
    pad: 1
    kernel_size: 3
    weight_filler {
      type: "xavier"
      std: 0.03
    }
    bias_filler {
      type: "constant"
      value: 0.2
    }
  }
}
layer {
  name: "inception_3b/relu_3x3"
  type: "ReLU"
  bottom: "inception_3b/3x3"
  top: "inception_3b/3x3"
}
layer {
  name: "inception_3b/5x5_reduce"
  type: "Convolution"
  bottom: "inception_3a/output"
  top: "inception_3b/5x5_reduce"
  param {
    lr_mult: 1
    decay_mult: 1
  }
  param {
    lr_mult: 2
    decay_mult: 0
  }
  convolution_param {
    num_output: 32
    kernel_size: 1
    weight_filler {
      type: "xavier"
      std: 0.2
    }
    bias_filler {
      type: "constant"
      value: 0.2
    }
  }
}
layer {
  name: "inception_3b/relu_5x5_reduce"
  type: "ReLU"
  bottom: "inception_3b/5x5_reduce"
  top: "inception_3b/5x5_reduce"
}
layer {
  name: "inception_3b/5x5"
  type: "Convolution"
  bottom: "inception_3b/5x5_reduce"
  top: "inception_3b/5x5"
  param {
    lr_mult: 1
    decay_mult: 1
  }
  param {
    lr_mult: 2
    decay_mult: 0
  }
  convolution_param {
    num_output: 96
    pad: 2
    kernel_size: 5
    weight_filler {
      type: "xavier"
      std: 0.03
    }
    bias_filler {
      type: "constant"
      value: 0.2
    }
  }
}
layer {
  name: "inception_3b/relu_5x5"
  type: "ReLU"
  bottom: "inception_3b/5x5"
  top: "inception_3b/5x5"
}
layer {
  name: "inception_3b/pool"
  type: "Pooling"
  bottom: "inception_3a/output"
  top: "inception_3b/pool"
  pooling_param {
    pool: MAX
    kernel_size: 3
    stride: 1
    pad: 1
  }
}
layer {
  name: "inception_3b/pool_proj"
  type: "Convolution"
  bottom: "inception_3b/pool"
  top: "inception_3b/pool_proj"
  param {
    lr_mult: 1
    decay_mult: 1
  }
  param {
    lr_mult: 2
    decay_mult: 0
  }
  convolution_param {
    num_output: 64
    kernel_size: 1
    weight_filler {
      type: "xavier"
      std: 0.1
    }
    bias_filler {
      type: "constant"
      value: 0.2
    }
  }
}
layer {
  name: "inception_3b/relu_pool_proj"
  type: "ReLU"
  bottom: "inception_3b/pool_proj"
  top: "inception_3b/pool_proj"
}
layer {
  name: "inception_3b/output"
  type: "Concat"
  bottom: "inception_3b/1x1"
  bottom: "inception_3b/3x3"
  bottom: "inception_3b/5x5"
  bottom: "inception_3b/pool_proj"
  top: "inception_3b/output"
}
layer {
  name: "pool3/3x3_s2"
  type: "Pooling"
  bottom: "inception_3b/output"
  top: "pool3/3x3_s2"
  pooling_param {
    pool: MAX
    kernel_size: 3
    stride: 2
  }
}
layer {
  name: "inception_4a/1x1"
  type: "Convolution"
  bottom: "pool3/3x3_s2"
  top: "inception_4a/1x1"
  param {
    lr_mult: 1
    decay_mult: 1
  }
  param {
    lr_mult: 2
    decay_mult: 0
  }
  convolution_param {
    num_output: 192
    kernel_size: 1
    weight_filler {
      type: "xavier"
      std: 0.03
    }
    bias_filler {
      type: "constant"
      value: 0.2
    }
  }
}
layer {
  name: "inception_4a/relu_1x1"
  type: "ReLU"
  bottom: "inception_4a/1x1"
  top: "inception_4a/1x1"
}
layer {
  name: "inception_4a/3x3_reduce"
  type: "Convolution"
  bottom: "pool3/3x3_s2"
  top: "inception_4a/3x3_reduce"
  param {
    lr_mult: 1
    decay_mult: 1
  }
  param {
    lr_mult: 2
    decay_mult: 0
  }
  convolution_param {
    num_output: 96
    kernel_size: 1
    weight_filler {
      type: "xavier"
      std: 0.09
    }
    bias_filler {
      type: "constant"
      value: 0.2
    }
  }
}
layer {
  name: "inception_4a/relu_3x3_reduce"
  type: "ReLU"
  bottom: "inception_4a/3x3_reduce"
  top: "inception_4a/3x3_reduce"
}
layer {
  name: "inception_4a/3x3"
  type: "Convolution"
  bottom: "inception_4a/3x3_reduce"
  top: "inception_4a/3x3"
  param {
    lr_mult: 1
    decay_mult: 1
  }
  param {
    lr_mult: 2
    decay_mult: 0
  }
  convolution_param {
    num_output: 208
    pad: 1
    kernel_size: 3
    weight_filler {
      type: "xavier"
      std: 0.03
    }
    bias_filler {
      type: "constant"
      value: 0.2
    }
  }
}
layer {
  name: "inception_4a/relu_3x3"
  type: "ReLU"
  bottom: "inception_4a/3x3"
  top: "inception_4a/3x3"
}
layer {
  name: "inception_4a/5x5_reduce"
  type: "Convolution"
  bottom: "pool3/3x3_s2"
  top: "inception_4a/5x5_reduce"
  param {
    lr_mult: 1
    decay_mult: 1
  }
  param {
    lr_mult: 2
    decay_mult: 0
  }
  convolution_param {
    num_output: 16
    kernel_size: 1
    weight_filler {
      type: "xavier"
      std: 0.2
    }
    bias_filler {
      type: "constant"
      value: 0.2
    }
  }
}
layer {
  name: "inception_4a/relu_5x5_reduce"
  type: "ReLU"
  bottom: "inception_4a/5x5_reduce"
  top: "inception_4a/5x5_reduce"
}
layer {
  name: "inception_4a/5x5"
  type: "Convolution"
  bottom: "inception_4a/5x5_reduce"
  top: "inception_4a/5x5"
  param {
    lr_mult: 1
    decay_mult: 1
  }
  param {
    lr_mult: 2
    decay_mult: 0
  }
  convolution_param {
    num_output: 48
    pad: 2
    kernel_size: 5
    weight_filler {
      type: "xavier"
      std: 0.03
    }
    bias_filler {
      type: "constant"
      value: 0.2
    }
  }
}
layer {
  name: "inception_4a/relu_5x5"
  type: "ReLU"
  bottom: "inception_4a/5x5"
  top: "inception_4a/5x5"
}
layer {
  name: "inception_4a/pool"
  type: "Pooling"
  bottom: "pool3/3x3_s2"
  top: "inception_4a/pool"
  pooling_param {
    pool: MAX
    kernel_size: 3
    stride: 1
    pad: 1
  }
}
layer {
  name: "inception_4a/pool_proj"
  type: "Convolution"
  bottom: "inception_4a/pool"
  top: "inception_4a/pool_proj"
  param {
    lr_mult: 1
    decay_mult: 1
  }
  param {
    lr_mult: 2
    decay_mult: 0
  }
  convolution_param {
    num_output: 64
    kernel_size: 1
    weight_filler {
      type: "xavier"
      std: 0.1
    }
    bias_filler {
      type: "constant"
      value: 0.2
    }
  }
}
layer {
  name: "inception_4a/relu_pool_proj"
  type: "ReLU"
  bottom: "inception_4a/pool_proj"
  top: "inception_4a/pool_proj"
}
layer {
  name: "inception_4a/output"
  type: "Concat"
  bottom: "inception_4a/1x1"
  bottom: "inception_4a/3x3"
  bottom: "inception_4a/5x5"
  bottom: "inception_4a/pool_proj"
  top: "inception_4a/output"
}
layer {
  name: "loss1/ave_pool"
  type: "Pooling"
  bottom: "inception_4a/output"
  top: "loss1/ave_pool"
  pooling_param {
    pool: AVE
    kernel_size: 5
    stride: 3
  }
}
layer {
  name: "loss1/conv"
  type: "Convolution"
  bottom: "loss1/ave_pool"
  top: "loss1/conv"
  param {
    lr_mult: 1
    decay_mult: 1
  }
  param {
    lr_mult: 2
    decay_mult: 0
  }
  convolution_param {
    num_output: 128
    kernel_size: 1
    weight_filler {
      type: "xavier"
      std: 0.08
    }
    bias_filler {
      type: "constant"
      value: 0.2
    }
  }
}
layer {
  name: "loss1/relu_conv"
  type: "ReLU"
  bottom: "loss1/conv"
  top: "loss1/conv"
}
layer {
  name: "loss1/fc"
  type: "InnerProduct"
  bottom: "loss1/conv"
  top: "loss1/fc"
  param {
    lr_mult: 1
    decay_mult: 1
  }
  param {
    lr_mult: 2
    decay_mult: 0
  }
  inner_product_param {
    num_output: 1024
    weight_filler {
      type: "xavier"
      std: 0.02
    }
    bias_filler {
      type: "constant"
      value: 0.2
    }
  }
}
layer {
  name: "loss1/relu_fc"
  type: "ReLU"
  bottom: "loss1/fc"
  top: "loss1/fc"
}
layer {
  name: "loss1/drop_fc"
  type: "Dropout"
  bottom: "loss1/fc"
  top: "loss1/fc"
  dropout_param {
    dropout_ratio: 0.7
  }
}
layer {
  name: "loss1/classifier_plantvillage"
  type: "InnerProduct"
  bottom: "loss1/fc"
  top: "loss1/classifier_plantvillage"
  param {
    lr_mult: 1
    decay_mult: 1
  }
  param {
    lr_mult: 2
    decay_mult: 0
  }
  inner_product_param {
    num_output: 38
    weight_filler {
      type: "xavier"
      std: 0.0009765625
    }
    bias_filler {
      type: "constant"
      value: 0
    }
  }
}
layer {
  name: "inception_4b/1x1"
  type: "Convolution"
  bottom: "inception_4a/output"
  top: "inception_4b/1x1"
  param {
    lr_mult: 1
    decay_mult: 1
  }
  param {
    lr_mult: 2
    decay_mult: 0
  }
  convolution_param {
    num_output: 160
    kernel_size: 1
    weight_filler {
      type: "xavier"
      std: 0.03
    }
    bias_filler {
      type: "constant"
      value: 0.2
    }
  }
}
layer {
  name: "inception_4b/relu_1x1"
  type: "ReLU"
  bottom: "inception_4b/1x1"
  top: "inception_4b/1x1"
}
layer {
  name: "inception_4b/3x3_reduce"
  type: "Convolution"
  bottom: "inception_4a/output"
  top: "inception_4b/3x3_reduce"
  param {
    lr_mult: 1
    decay_mult: 1
  }
  param {
    lr_mult: 2
    decay_mult: 0
  }
  convolution_param {
    num_output: 112
    kernel_size: 1
    weight_filler {
      type: "xavier"
      std: 0.09
    }
    bias_filler {
      type: "constant"
      value: 0.2
    }
  }
}
layer {
  name: "inception_4b/relu_3x3_reduce"
  type: "ReLU"
  bottom: "inception_4b/3x3_reduce"
  top: "inception_4b/3x3_reduce"
}
layer {
  name: "inception_4b/3x3"
  type: "Convolution"
  bottom: "inception_4b/3x3_reduce"
  top: "inception_4b/3x3"
  param {
    lr_mult: 1
    decay_mult: 1
  }
  param {
    lr_mult: 2
    decay_mult: 0
  }
  convolution_param {
    num_output: 224
    pad: 1
    kernel_size: 3
    weight_filler {
      type: "xavier"
      std: 0.03
    }
    bias_filler {
      type: "constant"
      value: 0.2
    }
  }
}
layer {
  name: "inception_4b/relu_3x3"
  type: "ReLU"
  bottom: "inception_4b/3x3"
  top: "inception_4b/3x3"
}
layer {
  name: "inception_4b/5x5_reduce"
  type: "Convolution"
  bottom: "inception_4a/output"
  top: "inception_4b/5x5_reduce"
  param {
    lr_mult: 1
    decay_mult: 1
  }
  param {
    lr_mult: 2
    decay_mult: 0
  }
  convolution_param {
    num_output: 24
    kernel_size: 1
    weight_filler {
      type: "xavier"
      std: 0.2
    }
    bias_filler {
      type: "constant"
      value: 0.2
    }
  }
}
layer {
  name: "inception_4b/relu_5x5_reduce"
  type: "ReLU"
  bottom: "inception_4b/5x5_reduce"
  top: "inception_4b/5x5_reduce"
}
layer {
  name: "inception_4b/5x5"
  type: "Convolution"
  bottom: "inception_4b/5x5_reduce"
  top: "inception_4b/5x5"
  param {
    lr_mult: 1
    decay_mult: 1
  }
  param {
    lr_mult: 2
    decay_mult: 0
  }
  convolution_param {
    num_output: 64
    pad: 2
    kernel_size: 5
    weight_filler {
      type: "xavier"
      std: 0.03
    }
    bias_filler {
      type: "constant"
      value: 0.2
    }
  }
}
layer {
  name: "inception_4b/relu_5x5"
  type: "ReLU"
  bottom: "inception_4b/5x5"
  top: "inception_4b/5x5"
}
layer {
  name: "inception_4b/pool"
  type: "Pooling"
  bottom: "inception_4a/output"
  top: "inception_4b/pool"
  pooling_param {
    pool: MAX
    kernel_size: 3
    stride: 1
    pad: 1
  }
}
layer {
  name: "inception_4b/pool_proj"
  type: "Convolution"
  bottom: "inception_4b/pool"
  top: "inception_4b/pool_proj"
  param {
    lr_mult: 1
    decay_mult: 1
  }
  param {
    lr_mult: 2
    decay_mult: 0
  }
  convolution_param {
    num_output: 64
    kernel_size: 1
    weight_filler {
      type: "xavier"
      std: 0.1
    }
    bias_filler {
      type: "constant"
      value: 0.2
    }
  }
}
layer {
  name: "inception_4b/relu_pool_proj"
  type: "ReLU"
  bottom: "inception_4b/pool_proj"
  top: "inception_4b/pool_proj"
}
layer {
  name: "inception_4b/output"
  type: "Concat"
  bottom: "inception_4b/1x1"
  bottom: "inception_4b/3x3"
  bottom: "inception_4b/5x5"
  bottom: "inception_4b/pool_proj"
  top: "inception_4b/output"
}
layer {
  name: "inception_4c/1x1"
  type: "Convolution"
  bottom: "inception_4b/output"
  top: "inception_4c/1x1"
  param {
    lr_mult: 1
    decay_mult: 1
  }
  param {
    lr_mult: 2
    decay_mult: 0
  }
  convolution_param {
    num_output: 128
    kernel_size: 1
    weight_filler {
      type: "xavier"
      std: 0.03
    }
    bias_filler {
      type: "constant"
      value: 0.2
    }
  }
}
layer {
  name: "inception_4c/relu_1x1"
  type: "ReLU"
  bottom: "inception_4c/1x1"
  top: "inception_4c/1x1"
}
layer {
  name: "inception_4c/3x3_reduce"
  type: "Convolution"
  bottom: "inception_4b/output"
  top: "inception_4c/3x3_reduce"
  param {
    lr_mult: 1
    decay_mult: 1
  }
  param {
    lr_mult: 2
    decay_mult: 0
  }
  convolution_param {
    num_output: 128
    kernel_size: 1
    weight_filler {
      type: "xavier"
      std: 0.09
    }
    bias_filler {
      type: "constant"
      value: 0.2
    }
  }
}
layer {
  name: "inception_4c/relu_3x3_reduce"
  type: "ReLU"
  bottom: "inception_4c/3x3_reduce"
  top: "inception_4c/3x3_reduce"
}
layer {
  name: "inception_4c/3x3"
  type: "Convolution"
  bottom: "inception_4c/3x3_reduce"
  top: "inception_4c/3x3"
  param {
    lr_mult: 1
    decay_mult: 1
  }
  param {
    lr_mult: 2
    decay_mult: 0
  }
  convolution_param {
    num_output: 256
    pad: 1
    kernel_size: 3
    weight_filler {
      type: "xavier"
      std: 0.03
    }
    bias_filler {
      type: "constant"
      value: 0.2
    }
  }
}
layer {
  name: "inception_4c/relu_3x3"
  type: "ReLU"
  bottom: "inception_4c/3x3"
  top: "inception_4c/3x3"
}
layer {
  name: "inception_4c/5x5_reduce"
  type: "Convolution"
  bottom: "inception_4b/output"
  top: "inception_4c/5x5_reduce"
  param {
    lr_mult: 1
    decay_mult: 1
  }
  param {
    lr_mult: 2
    decay_mult: 0
  }
  convolution_param {
    num_output: 24
    kernel_size: 1
    weight_filler {
      type: "xavier"
      std: 0.2
    }
    bias_filler {
      type: "constant"
      value: 0.2
    }
  }
}
layer {
  name: "inception_4c/relu_5x5_reduce"
  type: "ReLU"
  bottom: "inception_4c/5x5_reduce"
  top: "inception_4c/5x5_reduce"
}
layer {
  name: "inception_4c/5x5"
  type: "Convolution"
  bottom: "inception_4c/5x5_reduce"
  top: "inception_4c/5x5"
  param {
    lr_mult: 1
    decay_mult: 1
  }
  param {
    lr_mult: 2
    decay_mult: 0
  }
  convolution_param {
    num_output: 64
    pad: 2
    kernel_size: 5
    weight_filler {
      type: "xavier"
      std: 0.03
    }
    bias_filler {
      type: "constant"
      value: 0.2
    }
  }
}
layer {
  name: "inception_4c/relu_5x5"
  type: "ReLU"
  bottom: "inception_4c/5x5"
  top: "inception_4c/5x5"
}
layer {
  name: "inception_4c/pool"
  type: "Pooling"
  bottom: "inception_4b/output"
  top: "inception_4c/pool"
  pooling_param {
    pool: MAX
    kernel_size: 3
    stride: 1
    pad: 1
  }
}
layer {
  name: "inception_4c/pool_proj"
  type: "Convolution"
  bottom: "inception_4c/pool"
  top: "inception_4c/pool_proj"
  param {
    lr_mult: 1
    decay_mult: 1
  }
  param {
    lr_mult: 2
    decay_mult: 0
  }
  convolution_param {
    num_output: 64
    kernel_size: 1
    weight_filler {
      type: "xavier"
      std: 0.1
    }
    bias_filler {
      type: "constant"
      value: 0.2
    }
  }
}
layer {
  name: "inception_4c/relu_pool_proj"
  type: "ReLU"
  bottom: "inception_4c/pool_proj"
  top: "inception_4c/pool_proj"
}
layer {
  name: "inception_4c/output"
  type: "Concat"
  bottom: "inception_4c/1x1"
  bottom: "inception_4c/3x3"
  bottom: "inception_4c/5x5"
  bottom: "inception_4c/pool_proj"
  top: "inception_4c/output"
}
layer {
  name: "inception_4d/1x1"
  type: "Convolution"
  bottom: "inception_4c/output"
  top: "inception_4d/1x1"
  param {
    lr_mult: 1
    decay_mult: 1
  }
  param {
    lr_mult: 2
    decay_mult: 0
  }
  convolution_param {
    num_output: 112
    kernel_size: 1
    weight_filler {
      type: "xavier"
      std: 0.03
    }
    bias_filler {
      type: "constant"
      value: 0.2
    }
  }
}
layer {
  name: "inception_4d/relu_1x1"
  type: "ReLU"
  bottom: "inception_4d/1x1"
  top: "inception_4d/1x1"
}
layer {
  name: "inception_4d/3x3_reduce"
  type: "Convolution"
  bottom: "inception_4c/output"
  top: "inception_4d/3x3_reduce"
  param {
    lr_mult: 1
    decay_mult: 1
  }
  param {
    lr_mult: 2
    decay_mult: 0
  }
  convolution_param {
    num_output: 144
    kernel_size: 1
    weight_filler {
      type: "xavier"
      std: 0.09
    }
    bias_filler {
      type: "constant"
      value: 0.2
    }
  }
}
layer {
  name: "inception_4d/relu_3x3_reduce"
  type: "ReLU"
  bottom: "inception_4d/3x3_reduce"
  top: "inception_4d/3x3_reduce"
}
layer {
  name: "inception_4d/3x3"
  type: "Convolution"
  bottom: "inception_4d/3x3_reduce"
  top: "inception_4d/3x3"
  param {
    lr_mult: 1
    decay_mult: 1
  }
  param {
    lr_mult: 2
    decay_mult: 0
  }
  convolution_param {
    num_output: 288
    pad: 1
    kernel_size: 3
    weight_filler {
      type: "xavier"
      std: 0.03
    }
    bias_filler {
      type: "constant"
      value: 0.2
    }
  }
}
layer {
  name: "inception_4d/relu_3x3"
  type: "ReLU"
  bottom: "inception_4d/3x3"
  top: "inception_4d/3x3"
}
layer {
  name: "inception_4d/5x5_reduce"
  type: "Convolution"
  bottom: "inception_4c/output"
  top: "inception_4d/5x5_reduce"
  param {
    lr_mult: 1
    decay_mult: 1
  }
  param {
    lr_mult: 2
    decay_mult: 0
  }
  convolution_param {
    num_output: 32
    kernel_size: 1
    weight_filler {
      type: "xavier"
      std: 0.2
    }
    bias_filler {
      type: "constant"
      value: 0.2
    }
  }
}
layer {
  name: "inception_4d/relu_5x5_reduce"
  type: "ReLU"
  bottom: "inception_4d/5x5_reduce"
  top: "inception_4d/5x5_reduce"
}
layer {
  name: "inception_4d/5x5"
  type: "Convolution"
  bottom: "inception_4d/5x5_reduce"
  top: "inception_4d/5x5"
  param {
    lr_mult: 1
    decay_mult: 1
  }
  param {
    lr_mult: 2
    decay_mult: 0
  }
  convolution_param {
    num_output: 64
    pad: 2
    kernel_size: 5
    weight_filler {
      type: "xavier"
      std: 0.03
    }
    bias_filler {
      type: "constant"
      value: 0.2
    }
  }
}
layer {
  name: "inception_4d/relu_5x5"
  type: "ReLU"
  bottom: "inception_4d/5x5"
  top: "inception_4d/5x5"
}
layer {
  name: "inception_4d/pool"
  type: "Pooling"
  bottom: "inception_4c/output"
  top: "inception_4d/pool"
  pooling_param {
    pool: MAX
    kernel_size: 3
    stride: 1
    pad: 1
  }
}
layer {
  name: "inception_4d/pool_proj"
  type: "Convolution"
  bottom: "inception_4d/pool"
  top: "inception_4d/pool_proj"
  param {
    lr_mult: 1
    decay_mult: 1
  }
  param {
    lr_mult: 2
    decay_mult: 0
  }
  convolution_param {
    num_output: 64
    kernel_size: 1
    weight_filler {
      type: "xavier"
      std: 0.1
    }
    bias_filler {
      type: "constant"
      value: 0.2
    }
  }
}
layer {
  name: "inception_4d/relu_pool_proj"
  type: "ReLU"
  bottom: "inception_4d/pool_proj"
  top: "inception_4d/pool_proj"
}
layer {
  name: "inception_4d/output"
  type: "Concat"
  bottom: "inception_4d/1x1"
  bottom: "inception_4d/3x3"
  bottom: "inception_4d/5x5"
  bottom: "inception_4d/pool_proj"
  top: "inception_4d/output"
}
layer {
  name: "loss2/ave_pool"
  type: "Pooling"
  bottom: "inception_4d/output"
  top: "loss2/ave_pool"
  pooling_param {
    pool: AVE
    kernel_size: 5
    stride: 3
  }
}
layer {
  name: "loss2/conv"
  type: "Convolution"
  bottom: "loss2/ave_pool"
  top: "loss2/conv"
  param {
    lr_mult: 1
    decay_mult: 1
  }
  param {
    lr_mult: 2
    decay_mult: 0
  }
  convolution_param {
    num_output: 128
    kernel_size: 1
    weight_filler {
      type: "xavier"
      std: 0.08
    }
    bias_filler {
      type: "constant"
      value: 0.2
    }
  }
}
layer {
  name: "loss2/relu_conv"
  type: "ReLU"
  bottom: "loss2/conv"
  top: "loss2/conv"
}
layer {
  name: "loss2/fc"
  type: "InnerProduct"
  bottom: "loss2/conv"
  top: "loss2/fc"
  param {
    lr_mult: 1
    decay_mult: 1
  }
  param {
    lr_mult: 2
    decay_mult: 0
  }
  inner_product_param {
    num_output: 1024
    weight_filler {
      type: "xavier"
      std: 0.02
    }
    bias_filler {
      type: "constant"
      value: 0.2
    }
  }
}
layer {
  name: "loss2/relu_fc"
  type: "ReLU"
  bottom: "loss2/fc"
  top: "loss2/fc"
}
layer {
  name: "loss2/drop_fc"
  type: "Dropout"
  bottom: "loss2/fc"
  top: "loss2/fc"
  dropout_param {
    dropout_ratio: 0.7
  }
}
layer {
  name: "loss2/classifier_plantvillage"
  type: "InnerProduct"
  bottom: "loss2/fc"
  top: "loss2/classifier_plantvillage"
  param {
    lr_mult: 1
    decay_mult: 1
  }
  param {
    lr_mult: 2
    decay_mult: 0
  }
  inner_product_param {
    num_output: 38
    weight_filler {
      type: "xavier"
      std: 0.0009765625
    }
    bias_filler {
      type: "constant"
      value: 0
    }
  }
}
layer {
  name: "inception_4e/1x1"
  type: "Convolution"
  bottom: "inception_4d/output"
  top: "inception_4e/1x1"
  param {
    lr_mult: 1
    decay_mult: 1
  }
  param {
    lr_mult: 2
    decay_mult: 0
  }
  convolution_param {
    num_output: 256
    kernel_size: 1
    weight_filler {
      type: "xavier"
      std: 0.03
    }
    bias_filler {
      type: "constant"
      value: 0.2
    }
  }
}
layer {
  name: "inception_4e/relu_1x1"
  type: "ReLU"
  bottom: "inception_4e/1x1"
  top: "inception_4e/1x1"
}
layer {
  name: "inception_4e/3x3_reduce"
  type: "Convolution"
  bottom: "inception_4d/output"
  top: "inception_4e/3x3_reduce"
  param {
    lr_mult: 1
    decay_mult: 1
  }
  param {
    lr_mult: 2
    decay_mult: 0
  }
  convolution_param {
    num_output: 160
    kernel_size: 1
    weight_filler {
      type: "xavier"
      std: 0.09
    }
    bias_filler {
      type: "constant"
      value: 0.2
    }
  }
}
layer {
  name: "inception_4e/relu_3x3_reduce"
  type: "ReLU"
  bottom: "inception_4e/3x3_reduce"
  top: "inception_4e/3x3_reduce"
}
layer {
  name: "inception_4e/3x3"
  type: "Convolution"
  bottom: "inception_4e/3x3_reduce"
  top: "inception_4e/3x3"
  param {
    lr_mult: 1
    decay_mult: 1
  }
  param {
    lr_mult: 2
    decay_mult: 0
  }
  convolution_param {
    num_output: 320
    pad: 1
    kernel_size: 3
    weight_filler {
      type: "xavier"
      std: 0.03
    }
    bias_filler {
      type: "constant"
      value: 0.2
    }
  }
}
layer {
  name: "inception_4e/relu_3x3"
  type: "ReLU"
  bottom: "inception_4e/3x3"
  top: "inception_4e/3x3"
}
layer {
  name: "inception_4e/5x5_reduce"
  type: "Convolution"
  bottom: "inception_4d/output"
  top: "inception_4e/5x5_reduce"
  param {
    lr_mult: 1
    decay_mult: 1
  }
  param {
    lr_mult: 2
    decay_mult: 0
  }
  convolution_param {
    num_output: 32
    kernel_size: 1
    weight_filler {
      type: "xavier"
      std: 0.2
    }
    bias_filler {
      type: "constant"
      value: 0.2
    }
  }
}
layer {
  name: "inception_4e/relu_5x5_reduce"
  type: "ReLU"
  bottom: "inception_4e/5x5_reduce"
  top: "inception_4e/5x5_reduce"
}
layer {
  name: "inception_4e/5x5"
  type: "Convolution"
  bottom: "inception_4e/5x5_reduce"
  top: "inception_4e/
I0403 19:46:34.225127  9660 layer_factory.hpp:77] Creating layer data
I0403 19:46:34.225759  9660 net.cpp:91] Creating Layer data
I0403 19:46:34.225792  9660 net.cpp:399] data -> data
I0403 19:46:34.225843  9660 net.cpp:399] data -> label
I0403 19:46:34.225880  9660 data_transformer.cpp:25] Loading mean file from: /home/mohanty/data/final_dataset/lmdb/grayscale-50-50/mean.binaryproto
I0403 19:46:34.226994  9665 db_lmdb.cpp:38] Opened lmdb /home/mohanty/data/final_dataset/lmdb/grayscale-50-50/test_db
I0403 19:46:34.239359  9660 data_layer.cpp:41] output data size: 24,3,224,224
I0403 19:46:34.267336  9660 net.cpp:141] Setting up data
I0403 19:46:34.267395  9660 net.cpp:148] Top shape: 24 3 224 224 (3612672)
I0403 19:46:34.267419  9660 net.cpp:148] Top shape: 24 (24)
I0403 19:46:34.267434  9660 net.cpp:156] Memory required for data: 14450784
I0403 19:46:34.267462  9660 layer_factory.hpp:77] Creating layer label_data_1_split
I0403 19:46:34.267485  9660 net.cpp:91] Creating Layer label_data_1_split
I0403 19:46:34.267504  9660 net.cpp:425] label_data_1_split <- label
I0403 19:46:34.267556  9660 net.cpp:399] label_data_1_split -> label_data_1_split_0
I0403 19:46:34.267586  9660 net.cpp:399] label_data_1_split -> label_data_1_split_1
I0403 19:46:34.267616  9660 net.cpp:399] label_data_1_split -> label_data_1_split_2
I0403 19:46:34.267645  9660 net.cpp:399] label_data_1_split -> label_data_1_split_3
I0403 19:46:34.267671  9660 net.cpp:399] label_data_1_split -> label_data_1_split_4
I0403 19:46:34.267696  9660 net.cpp:399] label_data_1_split -> label_data_1_split_5
I0403 19:46:34.267717  9660 net.cpp:399] label_data_1_split -> label_data_1_split_6
I0403 19:46:34.267738  9660 net.cpp:399] label_data_1_split -> label_data_1_split_7
I0403 19:46:34.267757  9660 net.cpp:399] label_data_1_split -> label_data_1_split_8
I0403 19:46:34.267777  9660 net.cpp:399] label_data_1_split -> label_data_1_split_9
I0403 19:46:34.267894  9660 net.cpp:141] Setting up label_data_1_split
I0403 19:46:34.267922  9660 net.cpp:148] Top shape: 24 (24)
I0403 19:46:34.267946  9660 net.cpp:148] Top shape: 24 (24)
I0403 19:46:34.267968  9660 net.cpp:148] Top shape: 24 (24)
I0403 19:46:34.267987  9660 net.cpp:148] Top shape: 24 (24)
I0403 19:46:34.268007  9660 net.cpp:148] Top shape: 24 (24)
I0403 19:46:34.268023  9660 net.cpp:148] Top shape: 24 (24)
I0403 19:46:34.268040  9660 net.cpp:148] Top shape: 24 (24)
I0403 19:46:34.268056  9660 net.cpp:148] Top shape: 24 (24)
I0403 19:46:34.268072  9660 net.cpp:148] Top shape: 24 (24)
I0403 19:46:34.268088  9660 net.cpp:148] Top shape: 24 (24)
I0403 19:46:34.268121  9660 net.cpp:156] Memory required for data: 14451744
I0403 19:46:34.268137  9660 layer_factory.hpp:77] Creating layer conv1/7x7_s2
I0403 19:46:34.268167  9660 net.cpp:91] Creating Layer conv1/7x7_s2
I0403 19:46:34.268185  9660 net.cpp:425] conv1/7x7_s2 <- data
I0403 19:46:34.268204  9660 net.cpp:399] conv1/7x7_s2 -> conv1/7x7_s2
I0403 19:46:34.419086  9660 net.cpp:141] Setting up conv1/7x7_s2
I0403 19:46:34.419152  9660 net.cpp:148] Top shape: 24 64 112 112 (19267584)
I0403 19:46:34.419170  9660 net.cpp:156] Memory required for data: 91522080
I0403 19:46:34.419209  9660 layer_factory.hpp:77] Creating layer conv1/relu_7x7
I0403 19:46:34.419239  9660 net.cpp:91] Creating Layer conv1/relu_7x7
I0403 19:46:34.419260  9660 net.cpp:425] conv1/relu_7x7 <- conv1/7x7_s2
I0403 19:46:34.419281  9660 net.cpp:386] conv1/relu_7x7 -> conv1/7x7_s2 (in-place)
I0403 19:46:34.419554  9660 net.cpp:141] Setting up conv1/relu_7x7
I0403 19:46:34.419584  9660 net.cpp:148] Top shape: 24 64 112 112 (19267584)
I0403 19:46:34.419601  9660 net.cpp:156] Memory required for data: 168592416
I0403 19:46:34.419620  9660 layer_factory.hpp:77] Creating layer pool1/3x3_s2
I0403 19:46:34.419646  9660 net.cpp:91] Creating Layer pool1/3x3_s2
I0403 19:46:34.419667  9660 net.cpp:425] pool1/3x3_s2 <- conv1/7x7_s2
I0403 19:46:34.419687  9660 net.cpp:399] pool1/3x3_s2 -> pool1/3x3_s2
I0403 19:46:34.419761  9660 net.cpp:141] Setting up pool1/3x3_s2
I0403 19:46:34.419786  9660 net.cpp:148] Top shape: 24 64 56 56 (4816896)
I0403 19:46:34.419802  9660 net.cpp:156] Memory required for data: 187860000
I0403 19:46:34.419818  9660 layer_factory.hpp:77] Creating layer pool1/norm1
I0403 19:46:34.419850  9660 net.cpp:91] Creating Layer pool1/norm1
I0403 19:46:34.419868  9660 net.cpp:425] pool1/norm1 <- pool1/3x3_s2
I0403 19:46:34.419888  9660 net.cpp:399] pool1/norm1 -> pool1/norm1
I0403 19:46:34.420198  9660 net.cpp:141] Setting up pool1/norm1
I0403 19:46:34.420228  9660 net.cpp:148] Top shape: 24 64 56 56 (4816896)
I0403 19:46:34.420248  9660 net.cpp:156] Memory required for data: 207127584
I0403 19:46:34.420265  9660 layer_factory.hpp:77] Creating layer conv2/3x3_reduce
I0403 19:46:34.420291  9660 net.cpp:91] Creating Layer conv2/3x3_reduce
I0403 19:46:34.420312  9660 net.cpp:425] conv2/3x3_reduce <- pool1/norm1
I0403 19:46:34.420333  9660 net.cpp:399] conv2/3x3_reduce -> conv2/3x3_reduce
I0403 19:46:34.421720  9660 net.cpp:141] Setting up conv2/3x3_reduce
I0403 19:46:34.421753  9660 net.cpp:148] Top shape: 24 64 56 56 (4816896)
I0403 19:46:34.421772  9660 net.cpp:156] Memory required for data: 226395168
I0403 19:46:34.421797  9660 layer_factory.hpp:77] Creating layer conv2/relu_3x3_reduce
I0403 19:46:34.421821  9660 net.cpp:91] Creating Layer conv2/relu_3x3_reduce
I0403 19:46:34.421841  9660 net.cpp:425] conv2/relu_3x3_reduce <- conv2/3x3_reduce
I0403 19:46:34.421862  9660 net.cpp:386] conv2/relu_3x3_reduce -> conv2/3x3_reduce (in-place)
I0403 19:46:34.422135  9660 net.cpp:141] Setting up conv2/relu_3x3_reduce
I0403 19:46:34.422188  9660 net.cpp:148] Top shape: 24 64 56 56 (4816896)
I0403 19:46:34.422269  9660 net.cpp:156] Memory required for data: 245662752
I0403 19:46:34.422291  9660 layer_factory.hpp:77] Creating layer conv2/3x3
I0403 19:46:34.422361  9660 net.cpp:91] Creating Layer conv2/3x3
I0403 19:46:34.422382  9660 net.cpp:425] conv2/3x3 <- conv2/3x3_reduce
I0403 19:46:34.422405  9660 net.cpp:399] conv2/3x3 -> conv2/3x3
I0403 19:46:34.424813  9660 net.cpp:141] Setting up conv2/3x3
I0403 19:46:34.424852  9660 net.cpp:148] Top shape: 24 192 56 56 (14450688)
I0403 19:46:34.424872  9660 net.cpp:156] Memory required for data: 303465504
I0403 19:46:34.424898  9660 layer_factory.hpp:77] Creating layer conv2/relu_3x3
I0403 19:46:34.424919  9660 net.cpp:91] Creating Layer conv2/relu_3x3
I0403 19:46:34.424938  9660 net.cpp:425] conv2/relu_3x3 <- conv2/3x3
I0403 19:46:34.424958  9660 net.cpp:386] conv2/relu_3x3 -> conv2/3x3 (in-place)
I0403 19:46:34.425151  9660 net.cpp:141] Setting up conv2/relu_3x3
I0403 19:46:34.425184  9660 net.cpp:148] Top shape: 24 192 56 56 (14450688)
I0403 19:46:34.425235  9660 net.cpp:156] Memory required for data: 361268256
I0403 19:46:34.425252  9660 layer_factory.hpp:77] Creating layer conv2/norm2
I0403 19:46:34.425273  9660 net.cpp:91] Creating Layer conv2/norm2
I0403 19:46:34.425294  9660 net.cpp:425] conv2/norm2 <- conv2/3x3
I0403 19:46:34.425317  9660 net.cpp:399] conv2/norm2 -> conv2/norm2
I0403 19:46:34.425650  9660 net.cpp:141] Setting up conv2/norm2
I0403 19:46:34.425679  9660 net.cpp:148] Top shape: 24 192 56 56 (14450688)
I0403 19:46:34.425698  9660 net.cpp:156] Memory required for data: 419071008
I0403 19:46:34.425714  9660 layer_factory.hpp:77] Creating layer pool2/3x3_s2
I0403 19:46:34.425735  9660 net.cpp:91] Creating Layer pool2/3x3_s2
I0403 19:46:34.425753  9660 net.cpp:425] pool2/3x3_s2 <- conv2/norm2
I0403 19:46:34.425776  9660 net.cpp:399] pool2/3x3_s2 -> pool2/3x3_s2
I0403 19:46:34.425837  9660 net.cpp:141] Setting up pool2/3x3_s2
I0403 19:46:34.425861  9660 net.cpp:148] Top shape: 24 192 28 28 (3612672)
I0403 19:46:34.425879  9660 net.cpp:156] Memory required for data: 433521696
I0403 19:46:34.425895  9660 layer_factory.hpp:77] Creating layer pool2/3x3_s2_pool2/3x3_s2_0_split
I0403 19:46:34.425917  9660 net.cpp:91] Creating Layer pool2/3x3_s2_pool2/3x3_s2_0_split
I0403 19:46:34.425935  9660 net.cpp:425] pool2/3x3_s2_pool2/3x3_s2_0_split <- pool2/3x3_s2
I0403 19:46:34.425956  9660 net.cpp:399] pool2/3x3_s2_pool2/3x3_s2_0_split -> pool2/3x3_s2_pool2/3x3_s2_0_split_0
I0403 19:46:34.425982  9660 net.cpp:399] pool2/3x3_s2_pool2/3x3_s2_0_split -> pool2/3x3_s2_pool2/3x3_s2_0_split_1
I0403 19:46:34.426004  9660 net.cpp:399] pool2/3x3_s2_pool2/3x3_s2_0_split -> pool2/3x3_s2_pool2/3x3_s2_0_split_2
I0403 19:46:34.426025  9660 net.cpp:399] pool2/3x3_s2_pool2/3x3_s2_0_split -> pool2/3x3_s2_pool2/3x3_s2_0_split_3
I0403 19:46:34.426100  9660 net.cpp:141] Setting up pool2/3x3_s2_pool2/3x3_s2_0_split
I0403 19:46:34.426123  9660 net.cpp:148] Top shape: 24 192 28 28 (3612672)
I0403 19:46:34.426142  9660 net.cpp:148] Top shape: 24 192 28 28 (3612672)
I0403 19:46:34.426162  9660 net.cpp:148] Top shape: 24 192 28 28 (3612672)
I0403 19:46:34.426182  9660 net.cpp:148] Top shape: 24 192 28 28 (3612672)
I0403 19:46:34.426198  9660 net.cpp:156] Memory required for data: 491324448
I0403 19:46:34.426215  9660 layer_factory.hpp:77] Creating layer inception_3a/1x1
I0403 19:46:34.426245  9660 net.cpp:91] Creating Layer inception_3a/1x1
I0403 19:46:34.426266  9660 net.cpp:425] inception_3a/1x1 <- pool2/3x3_s2_pool2/3x3_s2_0_split_0
I0403 19:46:34.426290  9660 net.cpp:399] inception_3a/1x1 -> inception_3a/1x1
I0403 19:46:34.427920  9660 net.cpp:141] Setting up inception_3a/1x1
I0403 19:46:34.427953  9660 net.cpp:148] Top shape: 24 64 28 28 (1204224)
I0403 19:46:34.427970  9660 net.cpp:156] Memory required for data: 496141344
I0403 19:46:34.427990  9660 layer_factory.hpp:77] Creating layer inception_3a/relu_1x1
I0403 19:46:34.428011  9660 net.cpp:91] Creating Layer inception_3a/relu_1x1
I0403 19:46:34.428030  9660 net.cpp:425] inception_3a/relu_1x1 <- inception_3a/1x1
I0403 19:46:34.428048  9660 net.cpp:386] inception_3a/relu_1x1 -> inception_3a/1x1 (in-place)
I0403 19:46:34.428239  9660 net.cpp:141] Setting up inception_3a/relu_1x1
I0403 19:46:34.428267  9660 net.cpp:148] Top shape: 24 64 28 28 (1204224)
I0403 19:46:34.428282  9660 net.cpp:156] Memory required for data: 500958240
I0403 19:46:34.428297  9660 layer_factory.hpp:77] Creating layer inception_3a/3x3_reduce
I0403 19:46:34.428321  9660 net.cpp:91] Creating Layer inception_3a/3x3_reduce
I0403 19:46:34.428340  9660 net.cpp:425] inception_3a/3x3_reduce <- pool2/3x3_s2_pool2/3x3_s2_0_split_1
I0403 19:46:34.428360  9660 net.cpp:399] inception_3a/3x3_reduce -> inception_3a/3x3_reduce
I0403 19:46:34.430160  9660 net.cpp:141] Setting up inception_3a/3x3_reduce
I0403 19:46:34.430197  9660 net.cpp:148] Top shape: 24 96 28 28 (1806336)
I0403 19:46:34.430214  9660 net.cpp:156] Memory required for data: 508183584
I0403 19:46:34.430238  9660 layer_factory.hpp:77] Creating layer inception_3a/relu_3x3_reduce
I0403 19:46:34.430279  9660 net.cpp:91] Creating Layer inception_3a/relu_3x3_reduce
I0403 19:46:34.430301  9660 net.cpp:425] inception_3a/relu_3x3_reduce <- inception_3a/3x3_reduce
I0403 19:46:34.430322  9660 net.cpp:386] inception_3a/relu_3x3_reduce -> inception_3a/3x3_reduce (in-place)
I0403 19:46:34.430518  9660 net.cpp:141] Setting up inception_3a/relu_3x3_reduce
I0403 19:46:34.430551  9660 net.cpp:148] Top shape: 24 96 28 28 (1806336)
I0403 19:46:34.430567  9660 net.cpp:156] Memory required for data: 515408928
I0403 19:46:34.430583  9660 layer_factory.hpp:77] Creating layer inception_3a/3x3
I0403 19:46:34.430606  9660 net.cpp:91] Creating Layer inception_3a/3x3
I0403 19:46:34.430624  9660 net.cpp:425] inception_3a/3x3 <- inception_3a/3x3_reduce
I0403 19:46:34.430646  9660 net.cpp:399] inception_3a/3x3 -> inception_3a/3x3
I0403 19:46:34.433078  9660 net.cpp:141] Setting up inception_3a/3x3
I0403 19:46:34.433141  9660 net.cpp:148] Top shape: 24 128 28 28 (2408448)
I0403 19:46:34.433197  9660 net.cpp:156] Memory required for data: 525042720
I0403 19:46:34.433239  9660 layer_factory.hpp:77] Creating layer inception_3a/relu_3x3
I0403 19:46:34.433266  9660 net.cpp:91] Creating Layer inception_3a/relu_3x3
I0403 19:46:34.433286  9660 net.cpp:425] inception_3a/relu_3x3 <- inception_3a/3x3
I0403 19:46:34.433305  9660 net.cpp:386] inception_3a/relu_3x3 -> inception_3a/3x3 (in-place)
I0403 19:46:34.433747  9660 net.cpp:141] Setting up inception_3a/relu_3x3
I0403 19:46:34.433795  9660 net.cpp:148] Top shape: 24 128 28 28 (2408448)
I0403 19:46:34.433825  9660 net.cpp:156] Memory required for data: 534676512
I0403 19:46:34.433852  9660 layer_factory.hpp:77] Creating layer inception_3a/5x5_reduce
I0403 19:46:34.433881  9660 net.cpp:91] Creating Layer inception_3a/5x5_reduce
I0403 19:46:34.433903  9660 net.cpp:425] inception_3a/5x5_reduce <- pool2/3x3_s2_pool2/3x3_s2_0_split_2
I0403 19:46:34.433926  9660 net.cpp:399] inception_3a/5x5_reduce -> inception_3a/5x5_reduce
I0403 19:46:34.435425  9660 net.cpp:141] Setting up inception_3a/5x5_reduce
I0403 19:46:34.435456  9660 net.cpp:148] Top shape: 24 16 28 28 (301056)
I0403 19:46:34.435472  9660 net.cpp:156] Memory required for data: 535880736
I0403 19:46:34.435492  9660 layer_factory.hpp:77] Creating layer inception_3a/relu_5x5_reduce
I0403 19:46:34.435514  9660 net.cpp:91] Creating Layer inception_3a/relu_5x5_reduce
I0403 19:46:34.435549  9660 net.cpp:425] inception_3a/relu_5x5_reduce <- inception_3a/5x5_reduce
I0403 19:46:34.435603  9660 net.cpp:386] inception_3a/relu_5x5_reduce -> inception_3a/5x5_reduce (in-place)
I0403 19:46:34.436041  9660 net.cpp:141] Setting up inception_3a/relu_5x5_reduce
I0403 19:46:34.436074  9660 net.cpp:148] Top shape: 24 16 28 28 (301056)
I0403 19:46:34.436095  9660 net.cpp:156] Memory required for data: 537084960
I0403 19:46:34.436115  9660 layer_factory.hpp:77] Creating layer inception_3a/5x5
I0403 19:46:34.436152  9660 net.cpp:91] Creating Layer inception_3a/5x5
I0403 19:46:34.436205  9660 net.cpp:425] inception_3a/5x5 <- inception_3a/5x5_reduce
I0403 19:46:34.436234  9660 net.cpp:399] inception_3a/5x5 -> inception_3a/5x5
I0403 19:46:34.438262  9660 net.cpp:141] Setting up inception_3a/5x5
I0403 19:46:34.438294  9660 net.cpp:148] Top shape: 24 32 28 28 (602112)
I0403 19:46:34.438311  9660 net.cpp:156] Memory required for data: 539493408
I0403 19:46:34.438331  9660 layer_factory.hpp:77] Creating layer inception_3a/relu_5x5
I0403 19:46:34.438432  9660 net.cpp:91] Creating Layer inception_3a/relu_5x5
I0403 19:46:34.438452  9660 net.cpp:425] inception_3a/relu_5x5 <- inception_3a/5x5
I0403 19:46:34.438470  9660 net.cpp:386] inception_3a/relu_5x5 -> inception_3a/5x5 (in-place)
I0403 19:46:34.438820  9660 net.cpp:141] Setting up inception_3a/relu_5x5
I0403 19:46:34.438907  9660 net.cpp:148] Top shape: 24 32 28 28 (602112)
I0403 19:46:34.438927  9660 net.cpp:156] Memory required for data: 541901856
I0403 19:46:34.438942  9660 layer_factory.hpp:77] Creating layer inception_3a/pool
I0403 19:46:34.438966  9660 net.cpp:91] Creating Layer inception_3a/pool
I0403 19:46:34.439085  9660 net.cpp:425] inception_3a/pool <- pool2/3x3_s2_pool2/3x3_s2_0_split_3
I0403 19:46:34.439106  9660 net.cpp:399] inception_3a/pool -> inception_3a/pool
I0403 19:46:34.439244  9660 net.cpp:141] Setting up inception_3a/pool
I0403 19:46:34.439271  9660 net.cpp:148] Top shape: 24 192 28 28 (3612672)
I0403 19:46:34.439363  9660 net.cpp:156] Memory required for data: 556352544
I0403 19:46:34.439383  9660 layer_factory.hpp:77] Creating layer inception_3a/pool_proj
I0403 19:46:34.439415  9660 net.cpp:91] Creating Layer inception_3a/pool_proj
I0403 19:46:34.439435  9660 net.cpp:425] inception_3a/pool_proj <- inception_3a/pool
I0403 19:46:34.439534  9660 net.cpp:399] inception_3a/pool_proj -> inception_3a/pool_proj
I0403 19:46:34.441138  9660 net.cpp:141] Setting up inception_3a/pool_proj
I0403 19:46:34.441174  9660 net.cpp:148] Top shape: 24 32 28 28 (602112)
I0403 19:46:34.441198  9660 net.cpp:156] Memory required for data: 558760992
I0403 19:46:34.441226  9660 layer_factory.hpp:77] Creating layer inception_3a/relu_pool_proj
I0403 19:46:34.441252  9660 net.cpp:91] Creating Layer inception_3a/relu_pool_proj
I0403 19:46:34.441270  9660 net.cpp:425] inception_3a/relu_pool_proj <- inception_3a/pool_proj
I0403 19:46:34.441292  9660 net.cpp:386] inception_3a/relu_pool_proj -> inception_3a/pool_proj (in-place)
I0403 19:46:34.441582  9660 net.cpp:141] Setting up inception_3a/relu_pool_proj
I0403 19:46:34.441612  9660 net.cpp:148] Top shape: 24 32 28 28 (602112)
I0403 19:46:34.441629  9660 net.cpp:156] Memory required for data: 561169440
I0403 19:46:34.441648  9660 layer_factory.hpp:77] Creating layer inception_3a/output
I0403 19:46:34.441669  9660 net.cpp:91] Creating Layer inception_3a/output
I0403 19:46:34.441689  9660 net.cpp:425] inception_3a/output <- inception_3a/1x1
I0403 19:46:34.441706  9660 net.cpp:425] inception_3a/output <- inception_3a/3x3
I0403 19:46:34.441726  9660 net.cpp:425] inception_3a/output <- inception_3a/5x5
I0403 19:46:34.441743  9660 net.cpp:425] inception_3a/output <- inception_3a/pool_proj
I0403 19:46:34.441763  9660 net.cpp:399] inception_3a/output -> inception_3a/output
I0403 19:46:34.441817  9660 net.cpp:141] Setting up inception_3a/output
I0403 19:46:34.441843  9660 net.cpp:148] Top shape: 24 256 28 28 (4816896)
I0403 19:46:34.441859  9660 net.cpp:156] Memory required for data: 580437024
I0403 19:46:34.441875  9660 layer_factory.hpp:77] Creating layer inception_3a/output_inception_3a/output_0_split
I0403 19:46:34.441895  9660 net.cpp:91] Creating Layer inception_3a/output_inception_3a/output_0_split
I0403 19:46:34.441912  9660 net.cpp:425] inception_3a/output_inception_3a/output_0_split <- inception_3a/output
I0403 19:46:34.441934  9660 net.cpp:399] inception_3a/output_inception_3a/output_0_split -> inception_3a/output_inception_3a/output_0_split_0
I0403 19:46:34.441957  9660 net.cpp:399] inception_3a/output_inception_3a/output_0_split -> inception_3a/output_inception_3a/output_0_split_1
I0403 19:46:34.441982  9660 net.cpp:399] inception_3a/output_inception_3a/output_0_split -> inception_3a/output_inception_3a/output_0_split_2
I0403 19:46:34.442008  9660 net.cpp:399] inception_3a/output_inception_3a/output_0_split -> inception_3a/output_inception_3a/output_0_split_3
I0403 19:46:34.442092  9660 net.cpp:141] Setting up inception_3a/output_inception_3a/output_0_split
I0403 19:46:34.442117  9660 net.cpp:148] Top shape: 24 256 28 28 (4816896)
I0403 19:46:34.442137  9660 net.cpp:148] Top shape: 24 256 28 28 (4816896)
I0403 19:46:34.442155  9660 net.cpp:148] Top shape: 24 256 28 28 (4816896)
I0403 19:46:34.442173  9660 net.cpp:148] Top shape: 24 256 28 28 (4816896)
I0403 19:46:34.442195  9660 net.cpp:156] Memory required for data: 657507360
I0403 19:46:34.442211  9660 layer_factory.hpp:77] Creating layer inception_3b/1x1
I0403 19:46:34.442236  9660 net.cpp:91] Creating Layer inception_3b/1x1
I0403 19:46:34.442256  9660 net.cpp:425] inception_3b/1x1 <- inception_3a/output_inception_3a/output_0_split_0
I0403 19:46:34.442281  9660 net.cpp:399] inception_3b/1x1 -> inception_3b/1x1
I0403 19:46:34.447212  9660 net.cpp:141] Setting up inception_3b/1x1
I0403 19:46:34.447263  9660 net.cpp:148] Top shape: 24 128 28 28 (2408448)
I0403 19:46:34.447281  9660 net.cpp:156] Memory required for data: 667141152
I0403 19:46:34.447304  9660 layer_factory.hpp:77] Creating layer inception_3b/relu_1x1
I0403 19:46:34.447324  9660 net.cpp:91] Creating Layer inception_3b/relu_1x1
I0403 19:46:34.447341  9660 net.cpp:425] inception_3b/relu_1x1 <- inception_3b/1x1
I0403 19:46:34.447363  9660 net.cpp:386] inception_3b/relu_1x1 -> inception_3b/1x1 (in-place)
I0403 19:46:34.447552  9660 net.cpp:141] Setting up inception_3b/relu_1x1
I0403 19:46:34.447578  9660 net.cpp:148] Top shape: 24 128 28 28 (2408448)
I0403 19:46:34.447597  9660 net.cpp:156] Memory required for data: 676774944
I0403 19:46:34.447614  9660 layer_factory.hpp:77] Creating layer inception_3b/3x3_reduce
I0403 19:46:34.447641  9660 net.cpp:91] Creating Layer inception_3b/3x3_reduce
I0403 19:46:34.447662  9660 net.cpp:425] inception_3b/3x3_reduce <- inception_3a/output_inception_3a/output_0_split_1
I0403 19:46:34.447687  9660 net.cpp:399] inception_3b/3x3_reduce -> inception_3b/3x3_reduce
I0403 19:46:34.448914  9660 net.cpp:141] Setting up inception_3b/3x3_reduce
I0403 19:46:34.448945  9660 net.cpp:148] Top shape: 24 128 28 28 (2408448)
I0403 19:46:34.448962  9660 net.cpp:156] Memory required for data: 686408736
I0403 19:46:34.448982  9660 layer_factory.hpp:77] Creating layer inception_3b/relu_3x3_reduce
I0403 19:46:34.449002  9660 net.cpp:91] Creating Layer inception_3b/relu_3x3_reduce
I0403 19:46:34.449023  9660 net.cpp:425] inception_3b/relu_3x3_reduce <- inception_3b/3x3_reduce
I0403 19:46:34.449040  9660 net.cpp:386] inception_3b/relu_3x3_reduce -> inception_3b/3x3_reduce (in-place)
I0403 19:46:34.449232  9660 net.cpp:141] Setting up inception_3b/relu_3x3_reduce
I0403 19:46:34.449260  9660 net.cpp:148] Top shape: 24 128 28 28 (2408448)
I0403 19:46:34.449278  9660 net.cpp:156] Memory required for data: 696042528
I0403 19:46:34.449296  9660 layer_factory.hpp:77] Creating layer inception_3b/3x3
I0403 19:46:34.449326  9660 net.cpp:91] Creating Layer inception_3b/3x3
I0403 19:46:34.449347  9660 net.cpp:425] inception_3b/3x3 <- inception_3b/3x3_reduce
I0403 19:46:34.449368  9660 net.cpp:399] inception_3b/3x3 -> inception_3b/3x3
I0403 19:46:34.452489  9660 net.cpp:141] Setting up inception_3b/3x3
I0403 19:46:34.452522  9660 net.cpp:148] Top shape: 24 192 28 28 (3612672)
I0403 19:46:34.452538  9660 net.cpp:156] Memory required for data: 710493216
I0403 19:46:34.452559  9660 layer_factory.hpp:77] Creating layer inception_3b/relu_3x3
I0403 19:46:34.452584  9660 net.cpp:91] Creating Layer inception_3b/relu_3x3
I0403 19:46:34.452605  9660 net.cpp:425] inception_3b/relu_3x3 <- inception_3b/3x3
I0403 19:46:34.452622  9660 net.cpp:386] inception_3b/relu_3x3 -> inception_3b/3x3 (in-place)
I0403 19:46:34.452915  9660 net.cpp:141] Setting up inception_3b/relu_3x3
I0403 19:46:34.452944  9660 net.cpp:148] Top shape: 24 192 28 28 (3612672)
I0403 19:46:34.452962  9660 net.cpp:156] Memory required for data: 724943904
I0403 19:46:34.452980  9660 layer_factory.hpp:77] Creating layer inception_3b/5x5_reduce
I0403 19:46:34.453006  9660 net.cpp:91] Creating Layer inception_3b/5x5_reduce
I0403 19:46:34.453025  9660 net.cpp:425] inception_3b/5x5_reduce <- inception_3a/output_inception_3a/output_0_split_2
I0403 19:46:34.453049  9660 net.cpp:399] inception_3b/5x5_reduce -> inception_3b/5x5_reduce
I0403 19:46:34.454119  9660 net.cpp:141] Setting up inception_3b/5x5_reduce
I0403 19:46:34.454149  9660 net.cpp:148] Top shape: 24 32 28 28 (602112)
I0403 19:46:34.454169  9660 net.cpp:156] Memory required for data: 727352352
I0403 19:46:34.454195  9660 layer_factory.hpp:77] Creating layer inception_3b/relu_5x5_reduce
I0403 19:46:34.454219  9660 net.cpp:91] Creating Layer inception_3b/relu_5x5_reduce
I0403 19:46:34.454239  9660 net.cpp:425] inception_3b/relu_5x5_reduce <- inception_3b/5x5_reduce
I0403 19:46:34.454259  9660 net.cpp:386] inception_3b/relu_5x5_reduce -> inception_3b/5x5_reduce (in-place)
I0403 19:46:34.454466  9660 net.cpp:141] Setting up inception_3b/relu_5x5_reduce
I0403 19:46:34.454493  9660 net.cpp:148] Top shape: 24 32 28 28 (602112)
I0403 19:46:34.454509  9660 net.cpp:156] Memory required for data: 729760800
I0403 19:46:34.454524  9660 layer_factory.hpp:77] Creating layer inception_3b/5x5
I0403 19:46:34.454550  9660 net.cpp:91] Creating Layer inception_3b/5x5
I0403 19:46:34.454571  9660 net.cpp:425] inception_3b/5x5 <- inception_3b/5x5_reduce
I0403 19:46:34.454592  9660 net.cpp:399] inception_3b/5x5 -> inception_3b/5x5
I0403 19:46:34.456662  9660 net.cpp:141] Setting up inception_3b/5x5
I0403 19:46:34.456693  9660 net.cpp:148] Top shape: 24 96 28 28 (1806336)
I0403 19:46:34.456710  9660 net.cpp:156] Memory required for data: 736986144
I0403 19:46:34.456730  9660 layer_factory.hpp:77] Creating layer inception_3b/relu_5x5
I0403 19:46:34.456749  9660 net.cpp:91] Creating Layer inception_3b/relu_5x5
I0403 19:46:34.456766  9660 net.cpp:425] inception_3b/relu_5x5 <- inception_3b/5x5
I0403 19:46:34.456787  9660 net.cpp:386] inception_3b/relu_5x5 -> inception_3b/5x5 (in-place)
I0403 19:46:34.456992  9660 net.cpp:141] Setting up inception_3b/relu_5x5
I0403 19:46:34.457018  9660 net.cpp:148] Top shape: 24 96 28 28 (1806336)
I0403 19:46:34.457034  9660 net.cpp:156] Memory required for data: 744211488
I0403 19:46:34.457051  9660 layer_factory.hpp:77] Creating layer inception_3b/pool
I0403 19:46:34.457069  9660 net.cpp:91] Creating Layer inception_3b/pool
I0403 19:46:34.457087  9660 net.cpp:425] inception_3b/pool <- inception_3a/output_inception_3a/output_0_split_3
I0403 19:46:34.457104  9660 net.cpp:399] inception_3b/pool -> inception_3b/pool
I0403 19:46:34.457171  9660 net.cpp:141] Setting up inception_3b/pool
I0403 19:46:34.457203  9660 net.cpp:148] Top shape: 24 256 28 28 (4816896)
I0403 19:46:34.457219  9660 net.cpp:156] Memory required for data: 763479072
I0403 19:46:34.457236  9660 layer_factory.hpp:77] Creating layer inception_3b/pool_proj
I0403 19:46:34.457259  9660 net.cpp:91] Creating Layer inception_3b/pool_proj
I0403 19:46:34.457280  9660 net.cpp:425] inception_3b/pool_proj <- inception_3b/pool
I0403 19:46:34.457304  9660 net.cpp:399] inception_3b/pool_proj -> inception_3b/pool_proj
I0403 19:46:34.458526  9660 net.cpp:141] Setting up inception_3b/pool_proj
I0403 19:46:34.458559  9660 net.cpp:148] Top shape: 24 64 28 28 (1204224)
I0403 19:46:34.458578  9660 net.cpp:156] Memory required for data: 768295968
I0403 19:46:34.458598  9660 layer_factory.hpp:77] Creating layer inception_3b/relu_pool_proj
I0403 19:46:34.458619  9660 net.cpp:91] Creating Layer inception_3b/relu_pool_proj
I0403 19:46:34.458638  9660 net.cpp:425] inception_3b/relu_pool_proj <- inception_3b/pool_proj
I0403 19:46:34.458662  9660 net.cpp:386] inception_3b/relu_pool_proj -> inception_3b/pool_proj (in-place)
I0403 19:46:34.459074  9660 net.cpp:141] Setting up inception_3b/relu_pool_proj
I0403 19:46:34.459105  9660 net.cpp:148] Top shape: 24 64 28 28 (1204224)
I0403 19:46:34.459122  9660 net.cpp:156] Memory required for data: 773112864
I0403 19:46:34.459139  9660 layer_factory.hpp:77] Creating layer inception_3b/output
I0403 19:46:34.459158  9660 net.cpp:91] Creating Layer inception_3b/output
I0403 19:46:34.459182  9660 net.cpp:425] inception_3b/output <- inception_3b/1x1
I0403 19:46:34.459203  9660 net.cpp:425] inception_3b/output <- inception_3b/3x3
I0403 19:46:34.459221  9660 net.cpp:425] inception_3b/output <- inception_3b/5x5
I0403 19:46:34.459240  9660 net.cpp:425] inception_3b/output <- inception_3b/pool_proj
I0403 19:46:34.459260  9660 net.cpp:399] inception_3b/output -> inception_3b/output
I0403 19:46:34.459311  9660 net.cpp:141] Setting up inception_3b/output
I0403 19:46:34.459336  9660 net.cpp:148] Top shape: 24 480 28 28 (9031680)
I0403 19:46:34.459354  9660 net.cpp:156] Memory required for data: 809239584
I0403 19:46:34.459372  9660 layer_factory.hpp:77] Creating layer pool3/3x3_s2
I0403 19:46:34.459393  9660 net.cpp:91] Creating Layer pool3/3x3_s2
I0403 19:46:34.459413  9660 net.cpp:425] pool3/3x3_s2 <- inception_3b/output
I0403 19:46:34.459449  9660 net.cpp:399] pool3/3x3_s2 -> pool3/3x3_s2
I0403 19:46:34.459513  9660 net.cpp:141] Setting up pool3/3x3_s2
I0403 19:46:34.459538  9660 net.cpp:148] Top shape: 24 480 14 14 (2257920)
I0403 19:46:34.459554  9660 net.cpp:156] Memory required for data: 818271264
I0403 19:46:34.459570  9660 layer_factory.hpp:77] Creating layer pool3/3x3_s2_pool3/3x3_s2_0_split
I0403 19:46:34.459591  9660 net.cpp:91] Creating Layer pool3/3x3_s2_pool3/3x3_s2_0_split
I0403 19:46:34.459609  9660 net.cpp:425] pool3/3x3_s2_pool3/3x3_s2_0_split <- pool3/3x3_s2
I0403 19:46:34.459628  9660 net.cpp:399] pool3/3x3_s2_pool3/3x3_s2_0_split -> pool3/3x3_s2_pool3/3x3_s2_0_split_0
I0403 19:46:34.459650  9660 net.cpp:399] pool3/3x3_s2_pool3/3x3_s2_0_split -> pool3/3x3_s2_pool3/3x3_s2_0_split_1
I0403 19:46:34.459673  9660 net.cpp:399] pool3/3x3_s2_pool3/3x3_s2_0_split -> pool3/3x3_s2_pool3/3x3_s2_0_split_2
I0403 19:46:34.459697  9660 net.cpp:399] pool3/3x3_s2_pool3/3x3_s2_0_split -> pool3/3x3_s2_pool3/3x3_s2_0_split_3
I0403 19:46:34.459779  9660 net.cpp:141] Setting up pool3/3x3_s2_pool3/3x3_s2_0_split
I0403 19:46:34.459805  9660 net.cpp:148] Top shape: 24 480 14 14 (2257920)
I0403 19:46:34.459823  9660 net.cpp:148] Top shape: 24 480 14 14 (2257920)
I0403 19:46:34.459839  9660 net.cpp:148] Top shape: 24 480 14 14 (2257920)
I0403 19:46:34.459857  9660 net.cpp:148] Top shape: 24 480 14 14 (2257920)
I0403 19:46:34.459874  9660 net.cpp:156] Memory required for data: 854397984
I0403 19:46:34.459892  9660 layer_factory.hpp:77] Creating layer inception_4a/1x1
I0403 19:46:34.459915  9660 net.cpp:91] Creating Layer inception_4a/1x1
I0403 19:46:34.459939  9660 net.cpp:425] inception_4a/1x1 <- pool3/3x3_s2_pool3/3x3_s2_0_split_0
I0403 19:46:34.459961  9660 net.cpp:399] inception_4a/1x1 -> inception_4a/1x1
I0403 19:46:34.461623  9660 net.cpp:141] Setting up inception_4a/1x1
I0403 19:46:34.461658  9660 net.cpp:148] Top shape: 24 192 14 14 (903168)
I0403 19:46:34.461674  9660 net.cpp:156] Memory required for data: 858010656
I0403 19:46:34.461694  9660 layer_factory.hpp:77] Creating layer inception_4a/relu_1x1
I0403 19:46:34.461715  9660 net.cpp:91] Creating Layer inception_4a/relu_1x1
I0403 19:46:34.461735  9660 net.cpp:425] inception_4a/relu_1x1 <- inception_4a/1x1
I0403 19:46:34.461757  9660 net.cpp:386] inception_4a/relu_1x1 -> inception_4a/1x1 (in-place)
I0403 19:46:34.461946  9660 net.cpp:141] Setting up inception_4a/relu_1x1
I0403 19:46:34.461973  9660 net.cpp:148] Top shape: 24 192 14 14 (903168)
I0403 19:46:34.461989  9660 net.cpp:156] Memory required for data: 861623328
I0403 19:46:34.462005  9660 layer_factory.hpp:77] Creating layer inception_4a/3x3_reduce
I0403 19:46:34.462029  9660 net.cpp:91] Creating Layer inception_4a/3x3_reduce
I0403 19:46:34.462050  9660 net.cpp:425] inception_4a/3x3_reduce <- pool3/3x3_s2_pool3/3x3_s2_0_split_1
I0403 19:46:34.462074  9660 net.cpp:399] inception_4a/3x3_reduce -> inception_4a/3x3_reduce
I0403 19:46:34.463454  9660 net.cpp:141] Setting up inception_4a/3x3_reduce
I0403 19:46:34.463486  9660 net.cpp:148] Top shape: 24 96 14 14 (451584)
I0403 19:46:34.463505  9660 net.cpp:156] Memory required for data: 863429664
I0403 19:46:34.463531  9660 layer_factory.hpp:77] Creating layer inception_4a/relu_3x3_reduce
I0403 19:46:34.463557  9660 net.cpp:91] Creating Layer inception_4a/relu_3x3_reduce
I0403 19:46:34.463577  9660 net.cpp:425] inception_4a/relu_3x3_reduce <- inception_4a/3x3_reduce
I0403 19:46:34.463595  9660 net.cpp:386] inception_4a/relu_3x3_reduce -> inception_4a/3x3_reduce (in-place)
I0403 19:46:34.463789  9660 net.cpp:141] Setting up inception_4a/relu_3x3_reduce
I0403 19:46:34.463817  9660 net.cpp:148] Top shape: 24 96 14 14 (451584)
I0403 19:46:34.463835  9660 net.cpp:156] Memory required for data: 865236000
I0403 19:46:34.463851  9660 layer_factory.hpp:77] Creating layer inception_4a/3x3
I0403 19:46:34.463876  9660 net.cpp:91] Creating Layer inception_4a/3x3
I0403 19:46:34.463896  9660 net.cpp:425] inception_4a/3x3 <- inception_4a/3x3_reduce
I0403 19:46:34.463920  9660 net.cpp:399] inception_4a/3x3 -> inception_4a/3x3
I0403 19:46:34.466763  9660 net.cpp:141] Setting up inception_4a/3x3
I0403 19:46:34.466794  9660 net.cpp:148] Top shape: 24 208 14 14 (978432)
I0403 19:46:34.466811  9660 net.cpp:156] Memory required for data: 869149728
I0403 19:46:34.466830  9660 layer_factory.hpp:77] Creating layer inception_4a/relu_3x3
I0403 19:46:34.466855  9660 net.cpp:91] Creating Layer inception_4a/relu_3x3
I0403 19:46:34.466873  9660 net.cpp:425] inception_4a/relu_3x3 <- inception_4a/3x3
I0403 19:46:34.466893  9660 net.cpp:386] inception_4a/relu_3x3 -> inception_4a/3x3 (in-place)
I0403 19:46:34.467195  9660 net.cpp:141] Setting up inception_4a/relu_3x3
I0403 19:46:34.467223  9660 net.cpp:148] Top shape: 24 208 14 14 (978432)
I0403 19:46:34.467242  9660 net.cpp:156] Memory required for data: 873063456
I0403 19:46:34.467260  9660 layer_factory.hpp:77] Creating layer inception_4a/5x5_reduce
I0403 19:46:34.467286  9660 net.cpp:91] Creating Layer inception_4a/5x5_reduce
I0403 19:46:34.467306  9660 net.cpp:425] inception_4a/5x5_reduce <- pool3/3x3_s2_pool3/3x3_s2_0_split_2
I0403 19:46:34.467330  9660 net.cpp:399] inception_4a/5x5_reduce -> inception_4a/5x5_reduce
I0403 19:46:34.468407  9660 net.cpp:141] Setting up inception_4a/5x5_reduce
I0403 19:46:34.468436  9660 net.cpp:148] Top shape: 24 16 14 14 (75264)
I0403 19:46:34.468453  9660 net.cpp:156] Memory required for data: 873364512
I0403 19:46:34.468473  9660 layer_factory.hpp:77] Creating layer inception_4a/relu_5x5_reduce
I0403 19:46:34.468497  9660 net.cpp:91] Creating Layer inception_4a/relu_5x5_reduce
I0403 19:46:34.468515  9660 net.cpp:425] inception_4a/relu_5x5_reduce <- inception_4a/5x5_reduce
I0403 19:46:34.468534  9660 net.cpp:386] inception_4a/relu_5x5_reduce -> inception_4a/5x5_reduce (in-place)
I0403 19:46:34.468725  9660 net.cpp:141] Setting up inception_4a/relu_5x5_reduce
I0403 19:46:34.468754  9660 net.cpp:148] Top shape: 24 16 14 14 (75264)
I0403 19:46:34.468770  9660 net.cpp:156] Memory required for data: 873665568
I0403 19:46:34.468785  9660 layer_factory.hpp:77] Creating layer inception_4a/5x5
I0403 19:46:34.468808  9660 net.cpp:91] Creating Layer inception_4a/5x5
I0403 19:46:34.468827  9660 net.cpp:425] inception_4a/5x5 <- inception_4a/5x5_reduce
I0403 19:46:34.468847  9660 net.cpp:399] inception_4a/5x5 -> inception_4a/5x5
I0403 19:46:34.469992  9660 net.cpp:141] Setting up inception_4a/5x5
I0403 19:46:34.470024  9660 net.cpp:148] Top shape: 24 48 14 14 (225792)
I0403 19:46:34.470041  9660 net.cpp:156] Memory required for data: 874568736
I0403 19:46:34.470060  9660 layer_factory.hpp:77] Creating layer inception_4a/relu_5x5
I0403 19:46:34.470079  9660 net.cpp:91] Creating Layer inception_4a/relu_5x5
I0403 19:46:34.470096  9660 net.cpp:425] inception_4a/relu_5x5 <- inception_4a/5x5
I0403 19:46:34.470114  9660 net.cpp:386] inception_4a/relu_5x5 -> inception_4a/5x5 (in-place)
I0403 19:46:34.470312  9660 net.cpp:141] Setting up inception_4a/relu_5x5
I0403 19:46:34.470350  9660 net.cpp:148] Top shape: 24 48 14 14 (225792)
I0403 19:46:34.470366  9660 net.cpp:156] Memory required for data: 875471904
I0403 19:46:34.470384  9660 layer_factory.hpp:77] Creating layer inception_4a/pool
I0403 19:46:34.470404  9660 net.cpp:91] Creating Layer inception_4a/pool
I0403 19:46:34.470423  9660 net.cpp:425] inception_4a/pool <- pool3/3x3_s2_pool3/3x3_s2_0_split_3
I0403 19:46:34.470445  9660 net.cpp:399] inception_4a/pool -> inception_4a/pool
I0403 19:46:34.470511  9660 net.cpp:141] Setting up inception_4a/pool
I0403 19:46:34.470540  9660 net.cpp:148] Top shape: 24 480 14 14 (2257920)
I0403 19:46:34.470561  9660 net.cpp:156] Memory required for data: 884503584
I0403 19:46:34.470577  9660 layer_factory.hpp:77] Creating layer inception_4a/pool_proj
I0403 19:46:34.470602  9660 net.cpp:91] Creating Layer inception_4a/pool_proj
I0403 19:46:34.470621  9660 net.cpp:425] inception_4a/pool_proj <- inception_4a/pool
I0403 19:46:34.470643  9660 net.cpp:399] inception_4a/pool_proj -> inception_4a/pool_proj
I0403 19:46:34.471874  9660 net.cpp:141] Setting up inception_4a/pool_proj
I0403 19:46:34.471912  9660 net.cpp:148] Top shape: 24 64 14 14 (301056)
I0403 19:46:34.471947  9660 net.cpp:156] Memory required for data: 885707808
I0403 19:46:34.471969  9660 layer_factory.hpp:77] Creating layer inception_4a/relu_pool_proj
I0403 19:46:34.471989  9660 net.cpp:91] Creating Layer inception_4a/relu_pool_proj
I0403 19:46:34.472008  9660 net.cpp:425] inception_4a/relu_pool_proj <- inception_4a/pool_proj
I0403 19:46:34.472028  9660 net.cpp:386] inception_4a/relu_pool_proj -> inception_4a/pool_proj (in-place)
I0403 19:46:34.472337  9660 net.cpp:141] Setting up inception_4a/relu_pool_proj
I0403 19:46:34.472368  9660 net.cpp:148] Top shape: 24 64 14 14 (301056)
I0403 19:46:34.472385  9660 net.cpp:156] Memory required for data: 886912032
I0403 19:46:34.472403  9660 layer_factory.hpp:77] Creating layer inception_4a/output
I0403 19:46:34.472420  9660 net.cpp:91] Creating Layer inception_4a/output
I0403 19:46:34.472440  9660 net.cpp:425] inception_4a/output <- inception_4a/1x1
I0403 19:46:34.472458  9660 net.cpp:425] inception_4a/output <- inception_4a/3x3
I0403 19:46:34.472477  9660 net.cpp:425] inception_4a/output <- inception_4a/5x5
I0403 19:46:34.472494  9660 net.cpp:425] inception_4a/output <- inception_4a/pool_proj
I0403 19:46:34.472514  9660 net.cpp:399] inception_4a/output -> inception_4a/output
I0403 19:46:34.472565  9660 net.cpp:141] Setting up inception_4a/output
I0403 19:46:34.472591  9660 net.cpp:148] Top shape: 24 512 14 14 (2408448)
I0403 19:46:34.472609  9660 net.cpp:156] Memory required for data: 896545824
I0403 19:46:34.472626  9660 layer_factory.hpp:77] Creating layer inception_4a/output_inception_4a/output_0_split
I0403 19:46:34.472647  9660 net.cpp:91] Creating Layer inception_4a/output_inception_4a/output_0_split
I0403 19:46:34.472664  9660 net.cpp:425] inception_4a/output_inception_4a/output_0_split <- inception_4a/output
I0403 19:46:34.472683  9660 net.cpp:399] inception_4a/output_inception_4a/output_0_split -> inception_4a/output_inception_4a/output_0_split_0
I0403 19:46:34.472707  9660 net.cpp:399] inception_4a/output_inception_4a/output_0_split -> inception_4a/output_inception_4a/output_0_split_1
I0403 19:46:34.472729  9660 net.cpp:399] inception_4a/output_inception_4a/output_0_split -> inception_4a/output_inception_4a/output_0_split_2
I0403 19:46:34.472754  9660 net.cpp:399] inception_4a/output_inception_4a/output_0_split -> inception_4a/output_inception_4a/output_0_split_3
I0403 19:46:34.472779  9660 net.cpp:399] inception_4a/output_inception_4a/output_0_split -> inception_4a/output_inception_4a/output_0_split_4
I0403 19:46:34.472878  9660 net.cpp:141] Setting up inception_4a/output_inception_4a/output_0_split
I0403 19:46:34.472903  9660 net.cpp:148] Top shape: 24 512 14 14 (2408448)
I0403 19:46:34.472920  9660 net.cpp:148] Top shape: 24 512 14 14 (2408448)
I0403 19:46:34.472939  9660 net.cpp:148] Top shape: 24 512 14 14 (2408448)
I0403 19:46:34.472956  9660 net.cpp:148] Top shape: 24 512 14 14 (2408448)
I0403 19:46:34.472975  9660 net.cpp:148] Top shape: 24 512 14 14 (2408448)
I0403 19:46:34.472991  9660 net.cpp:156] Memory required for data: 944714784
I0403 19:46:34.473006  9660 layer_factory.hpp:77] Creating layer loss1/ave_pool
I0403 19:46:34.473027  9660 net.cpp:91] Creating Layer loss1/ave_pool
I0403 19:46:34.473047  9660 net.cpp:425] loss1/ave_pool <- inception_4a/output_inception_4a/output_0_split_0
I0403 19:46:34.473067  9660 net.cpp:399] loss1/ave_pool -> loss1/ave_pool
I0403 19:46:34.473297  9660 net.cpp:141] Setting up loss1/ave_pool
I0403 19:46:34.473327  9660 net.cpp:148] Top shape: 24 512 4 4 (196608)
I0403 19:46:34.473343  9660 net.cpp:156] Memory required for data: 945501216
I0403 19:46:34.473359  9660 layer_factory.hpp:77] Creating layer loss1/conv
I0403 19:46:34.473383  9660 net.cpp:91] Creating Layer loss1/conv
I0403 19:46:34.473402  9660 net.cpp:425] loss1/conv <- loss1/ave_pool
I0403 19:46:34.473423  9660 net.cpp:399] loss1/conv -> loss1/conv
I0403 19:46:34.475002  9660 net.cpp:141] Setting up loss1/conv
I0403 19:46:34.475059  9660 net.cpp:148] Top shape: 24 128 4 4 (49152)
I0403 19:46:34.475105  9660 net.cpp:156] Memory required for data: 945697824
I0403 19:46:34.475127  9660 layer_factory.hpp:77] Creating layer loss1/relu_conv
I0403 19:46:34.475153  9660 net.cpp:91] Creating Layer loss1/relu_conv
I0403 19:46:34.475173  9660 net.cpp:425] loss1/relu_conv <- loss1/conv
I0403 19:46:34.475203  9660 net.cpp:386] loss1/relu_conv -> loss1/conv (in-place)
I0403 19:46:34.475505  9660 net.cpp:141] Setting up loss1/relu_conv
I0403 19:46:34.475533  9660 net.cpp:148] Top shape: 24 128 4 4 (49152)
I0403 19:46:34.475549  9660 net.cpp:156] Memory required for data: 945894432
I0403 19:46:34.475565  9660 layer_factory.hpp:77] Creating layer loss1/fc
I0403 19:46:34.475597  9660 net.cpp:91] Creating Layer loss1/fc
I0403 19:46:34.475617  9660 net.cpp:425] loss1/fc <- loss1/conv
I0403 19:46:34.475636  9660 net.cpp:399] loss1/fc -> loss1/fc
I0403 19:46:34.495307  9660 net.cpp:141] Setting up loss1/fc
I0403 19:46:34.495355  9660 net.cpp:148] Top shape: 24 1024 (24576)
I0403 19:46:34.495373  9660 net.cpp:156] Memory required for data: 945992736
I0403 19:46:34.495398  9660 layer_factory.hpp:77] Creating layer loss1/relu_fc
I0403 19:46:34.495419  9660 net.cpp:91] Creating Layer loss1/relu_fc
I0403 19:46:34.495439  9660 net.cpp:425] loss1/relu_fc <- loss1/fc
I0403 19:46:34.495461  9660 net.cpp:386] loss1/relu_fc -> loss1/fc (in-place)
I0403 19:46:34.495698  9660 net.cpp:141] Setting up loss1/relu_fc
I0403 19:46:34.495724  9660 net.cpp:148] Top shape: 24 1024 (24576)
I0403 19:46:34.495740  9660 net.cpp:156] Memory required for data: 946091040
I0403 19:46:34.495756  9660 layer_factory.hpp:77] Creating layer loss1/drop_fc
I0403 19:46:34.495789  9660 net.cpp:91] Creating Layer loss1/drop_fc
I0403 19:46:34.495807  9660 net.cpp:425] loss1/drop_fc <- loss1/fc
I0403 19:46:34.495829  9660 net.cpp:386] loss1/drop_fc -> loss1/fc (in-place)
I0403 19:46:34.495887  9660 net.cpp:141] Setting up loss1/drop_fc
I0403 19:46:34.495910  9660 net.cpp:148] Top shape: 24 1024 (24576)
I0403 19:46:34.495925  9660 net.cpp:156] Memory required for data: 946189344
I0403 19:46:34.495942  9660 layer_factory.hpp:77] Creating layer loss1/classifier_plantvillage
I0403 19:46:34.495967  9660 net.cpp:91] Creating Layer loss1/classifier_plantvillage
I0403 19:46:34.495985  9660 net.cpp:425] loss1/classifier_plantvillage <- loss1/fc
I0403 19:46:34.496007  9660 net.cpp:399] loss1/classifier_plantvillage -> loss1/classifier_plantvillage
I0403 19:46:34.497025  9660 net.cpp:141] Setting up loss1/classifier_plantvillage
I0403 19:46:34.497056  9660 net.cpp:148] Top shape: 24 38 (912)
I0403 19:46:34.497073  9660 net.cpp:156] Memory required for data: 946192992
I0403 19:46:34.497093  9660 layer_factory.hpp:77] Creating layer loss1/classifier_plantvillage_loss1/classifier_plantvillage_0_split
I0403 19:46:34.497112  9660 net.cpp:91] Creating Layer loss1/classifier_plantvillage_loss1/classifier_plantvillage_0_split
I0403 19:46:34.497129  9660 net.cpp:425] loss1/classifier_plantvillage_loss1/classifier_plantvillage_0_split <- loss1/classifier_plantvillage
I0403 19:46:34.497150  9660 net.cpp:399] loss1/classifier_plantvillage_loss1/classifier_plantvillage_0_split -> loss1/classifier_plantvillage_loss1/classifier_plantvillage_0_split_0
I0403 19:46:34.497174  9660 net.cpp:399] loss1/classifier_plantvillage_loss1/classifier_plantvillage_0_split -> loss1/classifier_plantvillage_loss1/classifier_plantvillage_0_split_1
I0403 19:46:34.497203  9660 net.cpp:399] loss1/classifier_plantvillage_loss1/classifier_plantvillage_0_split -> loss1/classifier_plantvillage_loss1/classifier_plantvillage_0_split_2
I0403 19:46:34.497289  9660 net.cpp:141] Setting up loss1/classifier_plantvillage_loss1/classifier_plantvillage_0_split
I0403 19:46:34.497316  9660 net.cpp:148] Top shape: 24 38 (912)
I0403 19:46:34.497345  9660 net.cpp:148] Top shape: 24 38 (912)
I0403 19:46:34.497362  9660 net.cpp:148] Top shape: 24 38 (912)
I0403 19:46:34.497391  9660 net.cpp:156] Memory required for data: 946203936
I0403 19:46:34.497408  9660 layer_factory.hpp:77] Creating layer inception_4b/1x1
I0403 19:46:34.497455  9660 net.cpp:91] Creating Layer inception_4b/1x1
I0403 19:46:34.497504  9660 net.cpp:425] inception_4b/1x1 <- inception_4a/output_inception_4a/output_0_split_1
I0403 19:46:34.497526  9660 net.cpp:399] inception_4b/1x1 -> inception_4b/1x1
I0403 19:46:34.499307  9660 net.cpp:141] Setting up inception_4b/1x1
I0403 19:46:34.499338  9660 net.cpp:148] Top shape: 24 160 14 14 (752640)
I0403 19:46:34.499354  9660 net.cpp:156] Memory required for data: 949214496
I0403 19:46:34.499374  9660 layer_factory.hpp:77] Creating layer inception_4b/relu_1x1
I0403 19:46:34.499395  9660 net.cpp:91] Creating Layer inception_4b/relu_1x1
I0403 19:46:34.499413  9660 net.cpp:425] inception_4b/relu_1x1 <- inception_4b/1x1
I0403 19:46:34.499431  9660 net.cpp:386] inception_4b/relu_1x1 -> inception_4b/1x1 (in-place)
I0403 19:46:34.499619  9660 net.cpp:141] Setting up inception_4b/relu_1x1
I0403 19:46:34.499645  9660 net.cpp:148] Top shape: 24 160 14 14 (752640)
I0403 19:46:34.499661  9660 net.cpp:156] Memory required for data: 952225056
I0403 19:46:34.499677  9660 layer_factory.hpp:77] Creating layer inception_4b/3x3_reduce
I0403 19:46:34.499702  9660 net.cpp:91] Creating Layer inception_4b/3x3_reduce
I0403 19:46:34.499721  9660 net.cpp:425] inception_4b/3x3_reduce <- inception_4a/output_inception_4a/output_0_split_2
I0403 19:46:34.499740  9660 net.cpp:399] inception_4b/3x3_reduce -> inception_4b/3x3_reduce
I0403 19:46:34.501175  9660 net.cpp:141] Setting up inception_4b/3x3_reduce
I0403 19:46:34.501214  9660 net.cpp:148] Top shape: 24 112 14 14 (526848)
I0403 19:46:34.501230  9660 net.cpp:156] Memory required for data: 954332448
I0403 19:46:34.501248  9660 layer_factory.hpp:77] Creating layer inception_4b/relu_3x3_reduce
I0403 19:46:34.501271  9660 net.cpp:91] Creating Layer inception_4b/relu_3x3_reduce
I0403 19:46:34.501289  9660 net.cpp:425] inception_4b/relu_3x3_reduce <- inception_4b/3x3_reduce
I0403 19:46:34.501308  9660 net.cpp:386] inception_4b/relu_3x3_reduce -> inception_4b/3x3_reduce (in-place)
I0403 19:46:34.501610  9660 net.cpp:141] Setting up inception_4b/relu_3x3_reduce
I0403 19:46:34.501637  9660 net.cpp:148] Top shape: 24 112 14 14 (526848)
I0403 19:46:34.501653  9660 net.cpp:156] Memory required for data: 956439840
I0403 19:46:34.501669  9660 layer_factory.hpp:77] Creating layer inception_4b/3x3
I0403 19:46:34.501693  9660 net.cpp:91] Creating Layer inception_4b/3x3
I0403 19:46:34.501713  9660 net.cpp:425] inception_4b/3x3 <- inception_4b/3x3_reduce
I0403 19:46:34.501732  9660 net.cpp:399] inception_4b/3x3 -> inception_4b/3x3
I0403 19:46:34.504889  9660 net.cpp:141] Setting up inception_4b/3x3
I0403 19:46:34.504921  9660 net.cpp:148] Top shape: 24 224 14 14 (1053696)
I0403 19:46:34.504940  9660 net.cpp:156] Memory required for data: 960654624
I0403 19:46:34.504961  9660 layer_factory.hpp:77] Creating layer inception_4b/relu_3x3
I0403 19:46:34.504978  9660 net.cpp:91] Creating Layer inception_4b/relu_3x3
I0403 19:46:34.504995  9660 net.cpp:425] inception_4b/relu_3x3 <- inception_4b/3x3
I0403 19:46:34.505017  9660 net.cpp:386] inception_4b/relu_3x3 -> inception_4b/3x3 (in-place)
I0403 19:46:34.505216  9660 net.cpp:141] Setting up inception_4b/relu_3x3
I0403 19:46:34.505244  9660 net.cpp:148] Top shape: 24 224 14 14 (1053696)
I0403 19:46:34.505259  9660 net.cpp:156] Memory required for data: 964869408
I0403 19:46:34.505275  9660 layer_factory.hpp:77] Creating layer inception_4b/5x5_reduce
I0403 19:46:34.505298  9660 net.cpp:91] Creating Layer inception_4b/5x5_reduce
I0403 19:46:34.505318  9660 net.cpp:425] inception_4b/5x5_reduce <- inception_4a/output_inception_4a/output_0_split_3
I0403 19:46:34.505342  9660 net.cpp:399] inception_4b/5x5_reduce -> inception_4b/5x5_reduce
I0403 19:46:34.506484  9660 net.cpp:141] Setting up inception_4b/5x5_reduce
I0403 19:46:34.506513  9660 net.cpp:148] Top shape: 24 24 14 14 (112896)
I0403 19:46:34.506530  9660 net.cpp:156] Memory required for data: 965320992
I0403 19:46:34.506549  9660 layer_factory.hpp:77] Creating layer inception_4b/relu_5x5_reduce
I0403 19:46:34.506570  9660 net.cpp:91] Creating Layer inception_4b/relu_5x5_reduce
I0403 19:46:34.506603  9660 net.cpp:425] inception_4b/relu_5x5_reduce <- inception_4b/5x5_reduce
I0403 19:46:34.506621  9660 net.cpp:386] inception_4b/relu_5x5_reduce -> inception_4b/5x5_reduce (in-place)
I0403 19:46:34.506813  9660 net.cpp:141] Setting up inception_4b/relu_5x5_reduce
I0403 19:46:34.506841  9660 net.cpp:148] Top shape: 24 24 14 14 (112896)
I0403 19:46:34.506857  9660 net.cpp:156] Memory required for data: 965772576
I0403 19:46:34.506873  9660 layer_factory.hpp:77] Creating layer inception_4b/5x5
I0403 19:46:34.506896  9660 net.cpp:91] Creating Layer inception_4b/5x5
I0403 19:46:34.506916  9660 net.cpp:425] inception_4b/5x5 <- inception_4b/5x5_reduce
I0403 19:46:34.506935  9660 net.cpp:399] inception_4b/5x5 -> inception_4b/5x5
I0403 19:46:34.508246  9660 net.cpp:141] Setting up inception_4b/5x5
I0403 19:46:34.508276  9660 net.cpp:148] Top shape: 24 64 14 14 (301056)
I0403 19:46:34.508293  9660 net.cpp:156] Memory required for data: 966976800
I0403 19:46:34.508312  9660 layer_factory.hpp:77] Creating layer inception_4b/relu_5x5
I0403 19:46:34.508333  9660 net.cpp:91] Creating Layer inception_4b/relu_5x5
I0403 19:46:34.508352  9660 net.cpp:425] inception_4b/relu_5x5 <- inception_4b/5x5
I0403 19:46:34.508369  9660 net.cpp:386] inception_4b/relu_5x5 -> inception_4b/5x5 (in-place)
I0403 19:46:34.508674  9660 net.cpp:141] Setting up inception_4b/relu_5x5
I0403 19:46:34.508702  9660 net.cpp:148] Top shape: 24 64 14 14 (301056)
I0403 19:46:34.508718  9660 net.cpp:156] Memory required for data: 968181024
I0403 19:46:34.508734  9660 layer_factory.hpp:77] Creating layer inception_4b/pool
I0403 19:46:34.508756  9660 net.cpp:91] Creating Layer inception_4b/pool
I0403 19:46:34.508775  9660 net.cpp:425] inception_4b/pool <- inception_4a/output_inception_4a/output_0_split_4
I0403 19:46:34.508795  9660 net.cpp:399] inception_4b/pool -> inception_4b/pool
I0403 19:46:34.508862  9660 net.cpp:141] Setting up inception_4b/pool
I0403 19:46:34.508887  9660 net.cpp:148] Top shape: 24 512 14 14 (2408448)
I0403 19:46:34.508901  9660 net.cpp:156] Memory required for data: 977814816
I0403 19:46:34.508916  9660 layer_factory.hpp:77] Creating layer inception_4b/pool_proj
I0403 19:46:34.508939  9660 net.cpp:91] Creating Layer inception_4b/pool_proj
I0403 19:46:34.508958  9660 net.cpp:425] inception_4b/pool_proj <- inception_4b/pool
I0403 19:46:34.508981  9660 net.cpp:399] inception_4b/pool_proj -> inception_4b/pool_proj
I0403 19:46:34.510270  9660 net.cpp:141] Setting up inception_4b/pool_proj
I0403 19:46:34.510300  9660 net.cpp:148] Top shape: 24 64 14 14 (301056)
I0403 19:46:34.510316  9660 net.cpp:156] Memory required for data: 979019040
I0403 19:46:34.510344  9660 layer_factory.hpp:77] Creating layer inception_4b/relu_pool_proj
I0403 19:46:34.510367  9660 net.cpp:91] Creating Layer inception_4b/relu_pool_proj
I0403 19:46:34.510386  9660 net.cpp:425] inception_4b/relu_pool_proj <- inception_4b/pool_proj
I0403 19:46:34.510404  9660 net.cpp:386] inception_4b/relu_pool_proj -> inception_4b/pool_proj (in-place)
I0403 19:46:34.510596  9660 net.cpp:141] Setting up inception_4b/relu_pool_proj
I0403 19:46:34.510630  9660 net.cpp:148] Top shape: 24 64 14 14 (301056)
I0403 19:46:34.510646  9660 net.cpp:156] Memory required for data: 980223264
I0403 19:46:34.510661  9660 layer_factory.hpp:77] Creating layer inception_4b/output
I0403 19:46:34.510682  9660 net.cpp:91] Creating Layer inception_4b/output
I0403 19:46:34.510700  9660 net.cpp:425] inception_4b/output <- inception_4b/1x1
I0403 19:46:34.510718  9660 net.cpp:425] inception_4b/output <- inception_4b/3x3
I0403 19:46:34.510735  9660 net.cpp:425] inception_4b/output <- inception_4b/5x5
I0403 19:46:34.510752  9660 net.cpp:425] inception_4b/output <- inception_4b/pool_proj
I0403 19:46:34.510771  9660 net.cpp:399] inception_4b/output -> inception_4b/output
I0403 19:46:34.510819  9660 net.cpp:141] Setting up inception_4b/output
I0403 19:46:34.510843  9660 net.cpp:148] Top shape: 24 512 14 14 (2408448)
I0403 19:46:34.510859  9660 net.cpp:156] Memory required for data: 989857056
I0403 19:46:34.510891  9660 layer_factory.hpp:77] Creating layer inception_4b/output_inception_4b/output_0_split
I0403 19:46:34.510910  9660 net.cpp:91] Creating Layer inception_4b/output_inception_4b/output_0_split
I0403 19:46:34.510926  9660 net.cpp:425] inception_4b/output_inception_4b/output_0_split <- inception_4b/output
I0403 19:46:34.510947  9660 net.cpp:399] inception_4b/output_inception_4b/output_0_split -> inception_4b/output_inception_4b/output_0_split_0
I0403 19:46:34.510970  9660 net.cpp:399] inception_4b/output_inception_4b/output_0_split -> inception_4b/output_inception_4b/output_0_split_1
I0403 19:46:34.510992  9660 net.cpp:399] inception_4b/output_inception_4b/output_0_split -> inception_4b/output_inception_4b/output_0_split_2
I0403 19:46:34.511013  9660 net.cpp:399] inception_4b/output_inception_4b/output_0_split -> inception_4b/output_inception_4b/output_0_split_3
I0403 19:46:34.511106  9660 net.cpp:141] Setting up inception_4b/output_inception_4b/output_0_split
I0403 19:46:34.511131  9660 net.cpp:148] Top shape: 24 512 14 14 (2408448)
I0403 19:46:34.511154  9660 net.cpp:148] Top shape: 24 512 14 14 (2408448)
I0403 19:46:34.511170  9660 net.cpp:148] Top shape: 24 512 14 14 (2408448)
I0403 19:46:34.511195  9660 net.cpp:148] Top shape: 24 512 14 14 (2408448)
I0403 19:46:34.511210  9660 net.cpp:156] Memory required for data: 1028392224
I0403 19:46:34.511226  9660 layer_factory.hpp:77] Creating layer inception_4c/1x1
I0403 19:46:34.511250  9660 net.cpp:91] Creating Layer inception_4c/1x1
I0403 19:46:34.511268  9660 net.cpp:425] inception_4c/1x1 <- inception_4b/output_inception_4b/output_0_split_0
I0403 19:46:34.511291  9660 net.cpp:399] inception_4c/1x1 -> inception_4c/1x1
I0403 19:46:34.512811  9660 net.cpp:141] Setting up inception_4c/1x1
I0403 19:46:34.512845  9660 net.cpp:148] Top shape: 24 128 14 14 (602112)
I0403 19:46:34.512862  9660 net.cpp:156] Memory required for data: 1030800672
I0403 19:46:34.512882  9660 layer_factory.hpp:77] Creating layer inception_4c/relu_1x1
I0403 19:46:34.512902  9660 net.cpp:91] Creating Layer inception_4c/relu_1x1
I0403 19:46:34.512917  9660 net.cpp:425] inception_4c/relu_1x1 <- inception_4c/1x1
I0403 19:46:34.512938  9660 net.cpp:386] inception_4c/relu_1x1 -> inception_4c/1x1 (in-place)
I0403 19:46:34.513137  9660 net.cpp:141] Setting up inception_4c/relu_1x1
I0403 19:46:34.513164  9660 net.cpp:148] Top shape: 24 128 14 14 (602112)
I0403 19:46:34.513186  9660 net.cpp:156] Memory required for data: 1033209120
I0403 19:46:34.513203  9660 layer_factory.hpp:77] Creating layer inception_4c/3x3_reduce
I0403 19:46:34.513227  9660 net.cpp:91] Creating Layer inception_4c/3x3_reduce
I0403 19:46:34.513247  9660 net.cpp:425] inception_4c/3x3_reduce <- inception_4b/output_inception_4b/output_0_split_1
I0403 19:46:34.513268  9660 net.cpp:399] inception_4c/3x3_reduce -> inception_4c/3x3_reduce
I0403 19:46:34.515316  9660 net.cpp:141] Setting up inception_4c/3x3_reduce
I0403 19:46:34.515347  9660 net.cpp:148] Top shape: 24 128 14 14 (602112)
I0403 19:46:34.515363  9660 net.cpp:156] Memory required for data: 1035617568
I0403 19:46:34.515383  9660 layer_factory.hpp:77] Creating layer inception_4c/relu_3x3_reduce
I0403 19:46:34.515403  9660 net.cpp:91] Creating Layer inception_4c/relu_3x3_reduce
I0403 19:46:34.515419  9660 net.cpp:425] inception_4c/relu_3x3_reduce <- inception_4c/3x3_reduce
I0403 19:46:34.515439  9660 net.cpp:386] inception_4c/relu_3x3_reduce -> inception_4c/3x3_reduce (in-place)
I0403 19:46:34.515740  9660 net.cpp:141] Setting up inception_4c/relu_3x3_reduce
I0403 19:46:34.515769  9660 net.cpp:148] Top shape: 24 128 14 14 (602112)
I0403 19:46:34.515784  9660 net.cpp:156] Memory required for data: 1038026016
I0403 19:46:34.515799  9660 layer_factory.hpp:77] Creating layer inception_4c/3x3
I0403 19:46:34.515825  9660 net.cpp:91] Creating Layer inception_4c/3x3
I0403 19:46:34.515843  9660 net.cpp:425] inception_4c/3x3 <- inception_4c/3x3_reduce
I0403 19:46:34.515866  9660 net.cpp:399] inception_4c/3x3 -> inception_4c/3x3
I0403 19:46:34.519753  9660 net.cpp:141] Setting up inception_4c/3x3
I0403 19:46:34.519799  9660 net.cpp:148] Top shape: 24 256 14 14 (1204224)
I0403 19:46:34.519816  9660 net.cpp:156] Memory required for data: 1042842912
I0403 19:46:34.519850  9660 layer_factory.hpp:77] Creating layer inception_4c/relu_3x3
I0403 19:46:34.519873  9660 net.cpp:91] Creating Layer inception_4c/relu_3x3
I0403 19:46:34.519891  9660 net.cpp:425] inception_4c/relu_3x3 <- inception_4c/3x3
I0403 19:46:34.519909  9660 net.cpp:386] inception_4c/relu_3x3 -> inception_4c/3x3 (in-place)
I0403 19:46:34.520103  9660 net.cpp:141] Setting up inception_4c/relu_3x3
I0403 19:46:34.520130  9660 net.cpp:148] Top shape: 24 256 14 14 (1204224)
I0403 19:46:34.520145  9660 net.cpp:156] Memory required for data: 1047659808
I0403 19:46:34.520161  9660 layer_factory.hpp:77] Creating layer inception_4c/5x5_reduce
I0403 19:46:34.520191  9660 net.cpp:91] Creating Layer inception_4c/5x5_reduce
I0403 19:46:34.520211  9660 net.cpp:425] inception_4c/5x5_reduce <- inception_4b/output_inception_4b/output_0_split_2
I0403 19:46:34.520236  9660 net.cpp:399] inception_4c/5x5_reduce -> inception_4c/5x5_reduce
I0403 19:46:34.521392  9660 net.cpp:141] Setting up inception_4c/5x5_reduce
I0403 19:46:34.521421  9660 net.cpp:148] Top shape: 24 24 14 14 (112896)
I0403 19:46:34.521437  9660 net.cpp:156] Memory required for data: 1048111392
I0403 19:46:34.521456  9660 layer_factory.hpp:77] Creating layer inception_4c/relu_5x5_reduce
I0403 19:46:34.521478  9660 net.cpp:91] Creating Layer inception_4c/relu_5x5_reduce
I0403 19:46:34.521495  9660 net.cpp:425] inception_4c/relu_5x5_reduce <- inception_4c/5x5_reduce
I0403 19:46:34.521514  9660 net.cpp:386] inception_4c/relu_5x5_reduce -> inception_4c/5x5_reduce (in-place)
I0403 19:46:34.521710  9660 net.cpp:141] Setting up inception_4c/relu_5x5_reduce
I0403 19:46:34.521739  9660 net.cpp:148] Top shape: 24 24 14 14 (112896)
I0403 19:46:34.521754  9660 net.cpp:156] Memory required for data: 1048562976
I0403 19:46:34.521770  9660 layer_factory.hpp:77] Creating layer inception_4c/5x5
I0403 19:46:34.521793  9660 net.cpp:91] Creating Layer inception_4c/5x5
I0403 19:46:34.521812  9660 net.cpp:425] inception_4c/5x5 <- inception_4c/5x5_reduce
I0403 19:46:34.521832  9660 net.cpp:399] inception_4c/5x5 -> inception_4c/5x5
I0403 19:46:34.523167  9660 net.cpp:141] Setting up inception_4c/5x5
I0403 19:46:34.523205  9660 net.cpp:148] Top shape: 24 64 14 14 (301056)
I0403 19:46:34.523222  9660 net.cpp:156] Memory required for data: 1049767200
I0403 19:46:34.523242  9660 layer_factory.hpp:77] Creating layer inception_4c/relu_5x5
I0403 19:46:34.523263  9660 net.cpp:91] Creating Layer inception_4c/relu_5x5
I0403 19:46:34.523280  9660 net.cpp:425] inception_4c/relu_5x5 <- inception_4c/5x5
I0403 19:46:34.523299  9660 net.cpp:386] inception_4c/relu_5x5 -> inception_4c/5x5 (in-place)
I0403 19:46:34.523607  9660 net.cpp:141] Setting up inception_4c/relu_5x5
I0403 19:46:34.523633  9660 net.cpp:148] Top shape: 24 64 14 14 (301056)
I0403 19:46:34.523649  9660 net.cpp:156] Memory required for data: 1050971424
I0403 19:46:34.523664  9660 layer_factory.hpp:77] Creating layer inception_4c/pool
I0403 19:46:34.523685  9660 net.cpp:91] Creating Layer inception_4c/pool
I0403 19:46:34.523704  9660 net.cpp:425] inception_4c/pool <- inception_4b/output_inception_4b/output_0_split_3
I0403 19:46:34.523725  9660 net.cpp:399] inception_4c/pool -> inception_4c/pool
I0403 19:46:34.523793  9660 net.cpp:141] Setting up inception_4c/pool
I0403 19:46:34.523818  9660 net.cpp:148] Top shape: 24 512 14 14 (2408448)
I0403 19:46:34.523833  9660 net.cpp:156] Memory required for data: 1060605216
I0403 19:46:34.523849  9660 layer_factory.hpp:77] Creating layer inception_4c/pool_proj
I0403 19:46:34.523870  9660 net.cpp:91] Creating Layer inception_4c/pool_proj
I0403 19:46:34.523888  9660 net.cpp:425] inception_4c/pool_proj <- inception_4c/pool
I0403 19:46:34.523911  9660 net.cpp:399] inception_4c/pool_proj -> inception_4c/pool_proj
I0403 19:46:34.525353  9660 net.cpp:141] Setting up inception_4c/pool_proj
I0403 19:46:34.525383  9660 net.cpp:148] Top shape: 24 64 14 14 (301056)
I0403 19:46:34.525414  9660 net.cpp:156] Memory required for data: 1061809440
I0403 19:46:34.525435  9660 layer_factory.hpp:77] Creating layer inception_4c/relu_pool_proj
I0403 19:46:34.525459  9660 net.cpp:91] Creating Layer inception_4c/relu_pool_proj
I0403 19:46:34.525475  9660 net.cpp:425] inception_4c/relu_pool_proj <- inception_4c/pool_proj
I0403 19:46:34.525495  9660 net.cpp:386] inception_4c/relu_pool_proj -> inception_4c/pool_proj (in-place)
I0403 19:46:34.525691  9660 net.cpp:141] Setting up inception_4c/relu_pool_proj
I0403 19:46:34.525717  9660 net.cpp:148] Top shape: 24 64 14 14 (301056)
I0403 19:46:34.525732  9660 net.cpp:156] Memory required for data: 1063013664
I0403 19:46:34.525748  9660 layer_factory.hpp:77] Creating layer inception_4c/output
I0403 19:46:34.525768  9660 net.cpp:91] Creating Layer inception_4c/output
I0403 19:46:34.525785  9660 net.cpp:425] inception_4c/output <- inception_4c/1x1
I0403 19:46:34.525804  9660 net.cpp:425] inception_4c/output <- inception_4c/3x3
I0403 19:46:34.525820  9660 net.cpp:425] inception_4c/output <- inception_4c/5x5
I0403 19:46:34.525836  9660 net.cpp:425] inception_4c/output <- inception_4c/pool_proj
I0403 19:46:34.525854  9660 net.cpp:399] inception_4c/output -> inception_4c/output
I0403 19:46:34.525905  9660 net.cpp:141] Setting up inception_4c/output
I0403 19:46:34.525929  9660 net.cpp:148] Top shape: 24 512 14 14 (2408448)
I0403 19:46:34.525944  9660 net.cpp:156] Memory required for data: 1072647456
I0403 19:46:34.525960  9660 layer_factory.hpp:77] Creating layer inception_4c/output_inception_4c/output_0_split
I0403 19:46:34.525977  9660 net.cpp:91] Creating Layer inception_4c/output_inception_4c/output_0_split
I0403 19:46:34.525993  9660 net.cpp:425] inception_4c/output_inception_4c/output_0_split <- inception_4c/output
I0403 19:46:34.526015  9660 net.cpp:399] inception_4c/output_inception_4c/output_0_split -> inception_4c/output_inception_4c/output_0_split_0
I0403 19:46:34.526036  9660 net.cpp:399] inception_4c/output_inception_4c/output_0_split -> inception_4c/output_inception_4c/output_0_split_1
I0403 19:46:34.526057  9660 net.cpp:399] inception_4c/output_inception_4c/output_0_split -> inception_4c/output_inception_4c/output_0_split_2
I0403 19:46:34.526078  9660 net.cpp:399] inception_4c/output_inception_4c/output_0_split -> inception_4c/output_inception_4c/output_0_split_3
I0403 19:46:34.526175  9660 net.cpp:141] Setting up inception_4c/output_inception_4c/output_0_split
I0403 19:46:34.526206  9660 net.cpp:148] Top shape: 24 512 14 14 (2408448)
I0403 19:46:34.526222  9660 net.cpp:148] Top shape: 24 512 14 14 (2408448)
I0403 19:46:34.526239  9660 net.cpp:148] Top shape: 24 512 14 14 (2408448)
I0403 19:46:34.526255  9660 net.cpp:148] Top shape: 24 512 14 14 (2408448)
I0403 19:46:34.526271  9660 net.cpp:156] Memory required for data: 1111182624
I0403 19:46:34.526286  9660 layer_factory.hpp:77] Creating layer inception_4d/1x1
I0403 19:46:34.526309  9660 net.cpp:91] Creating Layer inception_4d/1x1
I0403 19:46:34.526329  9660 net.cpp:425] inception_4d/1x1 <- inception_4c/output_inception_4c/output_0_split_0
I0403 19:46:34.526350  9660 net.cpp:399] inception_4d/1x1 -> inception_4d/1x1
I0403 19:46:34.527824  9660 net.cpp:141] Setting up inception_4d/1x1
I0403 19:46:34.527858  9660 net.cpp:148] Top shape: 24 112 14 14 (526848)
I0403 19:46:34.527874  9660 net.cpp:156] Memory required for data: 1113290016
I0403 19:46:34.527894  9660 layer_factory.hpp:77] Creating layer inception_4d/relu_1x1
I0403 19:46:34.527912  9660 net.cpp:91] Creating Layer inception_4d/relu_1x1
I0403 19:46:34.527930  9660 net.cpp:425] inception_4d/relu_1x1 <- inception_4d/1x1
I0403 19:46:34.527951  9660 net.cpp:386] inception_4d/relu_1x1 -> inception_4d/1x1 (in-place)
I0403 19:46:34.528149  9660 net.cpp:141] Setting up inception_4d/relu_1x1
I0403 19:46:34.528175  9660 net.cpp:148] Top shape: 24 112 14 14 (526848)
I0403 19:46:34.528198  9660 net.cpp:156] Memory required for data: 1115397408
I0403 19:46:34.528215  9660 layer_factory.hpp:77] Creating layer inception_4d/3x3_reduce
I0403 19:46:34.528252  9660 net.cpp:91] Creating Layer inception_4d/3x3_reduce
I0403 19:46:34.528273  9660 net.cpp:425] inception_4d/3x3_reduce <- inception_4c/output_inception_4c/output_0_split_1
I0403 19:46:34.528296  9660 net.cpp:399] inception_4d/3x3_reduce -> inception_4d/3x3_reduce
I0403 19:46:34.529909  9660 net.cpp:141] Setting up inception_4d/3x3_reduce
I0403 19:46:34.529942  9660 net.cpp:148] Top shape: 24 144 14 14 (677376)
I0403 19:46:34.529958  9660 net.cpp:156] Memory required for data: 1118106912
I0403 19:46:34.529978  9660 layer_factory.hpp:77] Creating layer inception_4d/relu_3x3_reduce
I0403 19:46:34.529997  9660 net.cpp:91] Creating Layer inception_4d/relu_3x3_reduce
I0403 19:46:34.530014  9660 net.cpp:425] inception_4d/relu_3x3_reduce <- inception_4d/3x3_reduce
I0403 19:46:34.530031  9660 net.cpp:386] inception_4d/relu_3x3_reduce -> inception_4d/3x3_reduce (in-place)
I0403 19:46:34.530346  9660 net.cpp:141] Setting up inception_4d/relu_3x3_reduce
I0403 19:46:34.530377  9660 net.cpp:148] Top shape: 24 144 14 14 (677376)
I0403 19:46:34.530395  9660 net.cpp:156] Memory required for data: 1120816416
I0403 19:46:34.530411  9660 layer_factory.hpp:77] Creating layer inception_4d/3x3
I0403 19:46:34.530433  9660 net.cpp:91] Creating Layer inception_4d/3x3
I0403 19:46:34.530452  9660 net.cpp:425] inception_4d/3x3 <- inception_4d/3x3_reduce
I0403 19:46:34.530472  9660 net.cpp:399] inception_4d/3x3 -> inception_4d/3x3
I0403 19:46:34.535023  9660 net.cpp:141] Setting up inception_4d/3x3
I0403 19:46:34.535055  9660 net.cpp:148] Top shape: 24 288 14 14 (1354752)
I0403 19:46:34.535071  9660 net.cpp:156] Memory required for data: 1126235424
I0403 19:46:34.535091  9660 layer_factory.hpp:77] Creating layer inception_4d/relu_3x3
I0403 19:46:34.535110  9660 net.cpp:91] Creating Layer inception_4d/relu_3x3
I0403 19:46:34.535127  9660 net.cpp:425] inception_4d/relu_3x3 <- inception_4d/3x3
I0403 19:46:34.535154  9660 net.cpp:386] inception_4d/relu_3x3 -> inception_4d/3x3 (in-place)
I0403 19:46:34.535358  9660 net.cpp:141] Setting up inception_4d/relu_3x3
I0403 19:46:34.535384  9660 net.cpp:148] Top shape: 24 288 14 14 (1354752)
I0403 19:46:34.535400  9660 net.cpp:156] Memory required for data: 1131654432
I0403 19:46:34.535415  9660 layer_factory.hpp:77] Creating layer inception_4d/5x5_reduce
I0403 19:46:34.535439  9660 net.cpp:91] Creating Layer inception_4d/5x5_reduce
I0403 19:46:34.535459  9660 net.cpp:425] inception_4d/5x5_reduce <- inception_4c/output_inception_4c/output_0_split_2
I0403 19:46:34.535480  9660 net.cpp:399] inception_4d/5x5_reduce -> inception_4d/5x5_reduce
I0403 19:46:34.536754  9660 net.cpp:141] Setting up inception_4d/5x5_reduce
I0403 19:46:34.536784  9660 net.cpp:148] Top shape: 24 32 14 14 (150528)
I0403 19:46:34.536799  9660 net.cpp:156] Memory required for data: 1132256544
I0403 19:46:34.536818  9660 layer_factory.hpp:77] Creating layer inception_4d/relu_5x5_reduce
I0403 19:46:34.536837  9660 net.cpp:91] Creating Layer inception_4d/relu_5x5_reduce
I0403 19:46:34.536854  9660 net.cpp:425] inception_4d/relu_5x5_reduce <- inception_4d/5x5_reduce
I0403 19:46:34.536875  9660 net.cpp:386] inception_4d/relu_5x5_reduce -> inception_4d/5x5_reduce (in-place)
I0403 19:46:34.537075  9660 net.cpp:141] Setting up inception_4d/relu_5x5_reduce
I0403 19:46:34.537101  9660 net.cpp:148] Top shape: 24 32 14 14 (150528)
I0403 19:46:34.537117  9660 net.cpp:156] Memory required for data: 1132858656
I0403 19:46:34.537132  9660 layer_factory.hpp:77] Creating layer inception_4d/5x5
I0403 19:46:34.537155  9660 net.cpp:91] Creating Layer inception_4d/5x5
I0403 19:46:34.537174  9660 net.cpp:425] inception_4d/5x5 <- inception_4d/5x5_reduce
I0403 19:46:34.537202  9660 net.cpp:399] inception_4d/5x5 -> inception_4d/5x5
I0403 19:46:34.538966  9660 net.cpp:141] Setting up inception_4d/5x5
I0403 19:46:34.538996  9660 net.cpp:148] Top shape: 24 64 14 14 (301056)
I0403 19:46:34.539013  9660 net.cpp:156] Memory required for data: 1134062880
I0403 19:46:34.539033  9660 layer_factory.hpp:77] Creating layer inception_4d/relu_5x5
I0403 19:46:34.539072  9660 net.cpp:91] Creating Layer inception_4d/relu_5x5
I0403 19:46:34.539090  9660 net.cpp:425] inception_4d/relu_5x5 <- inception_4d/5x5
I0403 19:46:34.539109  9660 net.cpp:386] inception_4d/relu_5x5 -> inception_4d/5x5 (in-place)
I0403 19:46:34.539439  9660 net.cpp:141] Setting up inception_4d/relu_5x5
I0403 19:46:34.539468  9660 net.cpp:148] Top shape: 24 64 14 14 (301056)
I0403 19:46:34.539484  9660 net.cpp:156] Memory required for data: 1135267104
I0403 19:46:34.539500  9660 layer_factory.hpp:77] Creating layer inception_4d/pool
I0403 19:46:34.539521  9660 net.cpp:91] Creating Layer inception_4d/pool
I0403 19:46:34.539541  9660 net.cpp:425] inception_4d/pool <- inception_4c/output_inception_4c/output_0_split_3
I0403 19:46:34.539559  9660 net.cpp:399] inception_4d/pool -> inception_4d/pool
I0403 19:46:34.539633  9660 net.cpp:141] Setting up inception_4d/pool
I0403 19:46:34.539657  9660 net.cpp:148] Top shape: 24 512 14 14 (2408448)
I0403 19:46:34.539672  9660 net.cpp:156] Memory required for data: 1144900896
I0403 19:46:34.539688  9660 layer_factory.hpp:77] Creating layer inception_4d/pool_proj
I0403 19:46:34.539711  9660 net.cpp:91] Creating Layer inception_4d/pool_proj
I0403 19:46:34.539729  9660 net.cpp:425] inception_4d/pool_proj <- inception_4d/pool
I0403 19:46:34.539752  9660 net.cpp:399] inception_4d/pool_proj -> inception_4d/pool_proj
I0403 19:46:34.541643  9660 net.cpp:141] Setting up inception_4d/pool_proj
I0403 19:46:34.541676  9660 net.cpp:148] Top shape: 24 64 14 14 (301056)
I0403 19:46:34.541692  9660 net.cpp:156] Memory required for data: 1146105120
I0403 19:46:34.541712  9660 layer_factory.hpp:77] Creating layer inception_4d/relu_pool_proj
I0403 19:46:34.541731  9660 net.cpp:91] Creating Layer inception_4d/relu_pool_proj
I0403 19:46:34.541749  9660 net.cpp:425] inception_4d/relu_pool_proj <- inception_4d/pool_proj
I0403 19:46:34.541769  9660 net.cpp:386] inception_4d/relu_pool_proj -> inception_4d/pool_proj (in-place)
I0403 19:46:34.541970  9660 net.cpp:141] Setting up inception_4d/relu_pool_proj
I0403 19:46:34.541996  9660 net.cpp:148] Top shape: 24 64 14 14 (301056)
I0403 19:46:34.542011  9660 net.cpp:156] Memory required for data: 1147309344
I0403 19:46:34.542026  9660 layer_factory.hpp:77] Creating layer inception_4d/output
I0403 19:46:34.542047  9660 net.cpp:91] Creating Layer inception_4d/output
I0403 19:46:34.542064  9660 net.cpp:425] inception_4d/output <- inception_4d/1x1
I0403 19:46:34.542083  9660 net.cpp:425] inception_4d/output <- inception_4d/3x3
I0403 19:46:34.542099  9660 net.cpp:425] inception_4d/output <- inception_4d/5x5
I0403 19:46:34.542116  9660 net.cpp:425] inception_4d/output <- inception_4d/pool_proj
I0403 19:46:34.542135  9660 net.cpp:399] inception_4d/output -> inception_4d/output
I0403 19:46:34.542201  9660 net.cpp:141] Setting up inception_4d/output
I0403 19:46:34.542227  9660 net.cpp:148] Top shape: 24 528 14 14 (2483712)
I0403 19:46:34.542243  9660 net.cpp:156] Memory required for data: 1157244192
I0403 19:46:34.542258  9660 layer_factory.hpp:77] Creating layer inception_4d/output_inception_4d/output_0_split
I0403 19:46:34.542278  9660 net.cpp:91] Creating Layer inception_4d/output_inception_4d/output_0_split
I0403 19:46:34.542294  9660 net.cpp:425] inception_4d/output_inception_4d/output_0_split <- inception_4d/output
I0403 19:46:34.542315  9660 net.cpp:399] inception_4d/output_inception_4d/output_0_split -> inception_4d/output_inception_4d/output_0_split_0
I0403 19:46:34.542337  9660 net.cpp:399] inception_4d/output_inception_4d/output_0_split -> inception_4d/output_inception_4d/output_0_split_1
I0403 19:46:34.542359  9660 net.cpp:399] inception_4d/output_inception_4d/output_0_split -> inception_4d/output_inception_4d/output_0_split_2
I0403 19:46:34.542382  9660 net.cpp:399] inception_4d/output_inception_4d/output_0_split -> inception_4d/output_inception_4d/output_0_split_3
I0403 19:46:34.542403  9660 net.cpp:399] inception_4d/output_inception_4d/output_0_split -> inception_4d/output_inception_4d/output_0_split_4
I0403 19:46:34.542513  9660 net.cpp:141] Setting up inception_4d/output_inception_4d/output_0_split
I0403 19:46:34.542551  9660 net.cpp:148] Top shape: 24 528 14 14 (2483712)
I0403 19:46:34.542572  9660 net.cpp:148] Top shape: 24 528 14 14 (2483712)
I0403 19:46:34.542624  9660 net.cpp:148] Top shape: 24 528 14 14 (2483712)
I0403 19:46:34.542644  9660 net.cpp:148] Top shape: 24 528 14 14 (2483712)
I0403 19:46:34.542660  9660 net.cpp:148] Top shape: 24 528 14 14 (2483712)
I0403 19:46:34.542675  9660 net.cpp:156] Memory required for data: 1206918432
I0403 19:46:34.542690  9660 layer_factory.hpp:77] Creating layer loss2/ave_pool
I0403 19:46:34.542708  9660 net.cpp:91] Creating Layer loss2/ave_pool
I0403 19:46:34.542726  9660 net.cpp:425] loss2/ave_pool <- inception_4d/output_inception_4d/output_0_split_0
I0403 19:46:34.542749  9660 net.cpp:399] loss2/ave_pool -> loss2/ave_pool
I0403 19:46:34.543082  9660 net.cpp:141] Setting up loss2/ave_pool
I0403 19:46:34.543110  9660 net.cpp:148] Top shape: 24 528 4 4 (202752)
I0403 19:46:34.543126  9660 net.cpp:156] Memory required for data: 1207729440
I0403 19:46:34.543143  9660 layer_factory.hpp:77] Creating layer loss2/conv
I0403 19:46:34.543165  9660 net.cpp:91] Creating Layer loss2/conv
I0403 19:46:34.543192  9660 net.cpp:425] loss2/conv <- loss2/ave_pool
I0403 19:46:34.543216  9660 net.cpp:399] loss2/conv -> loss2/conv
I0403 19:46:34.545251  9660 net.cpp:141] Setting up loss2/conv
I0403 19:46:34.545282  9660 net.cpp:148] Top shape: 24 128 4 4 (49152)
I0403 19:46:34.545300  9660 net.cpp:156] Memory required for data: 1207926048
I0403 19:46:34.545320  9660 layer_factory.hpp:77] Creating layer loss2/relu_conv
I0403 19:46:34.545344  9660 net.cpp:91] Creating Layer loss2/relu_conv
I0403 19:46:34.545362  9660 net.cpp:425] loss2/relu_conv <- loss2/conv
I0403 19:46:34.545380  9660 net.cpp:386] loss2/relu_conv -> loss2/conv (in-place)
I0403 19:46:34.545687  9660 net.cpp:141] Setting up loss2/relu_conv
I0403 19:46:34.545714  9660 net.cpp:148] Top shape: 24 128 4 4 (49152)
I0403 19:46:34.545730  9660 net.cpp:156] Memory required for data: 1208122656
I0403 19:46:34.545747  9660 layer_factory.hpp:77] Creating layer loss2/fc
I0403 19:46:34.545769  9660 net.cpp:91] Creating Layer loss2/fc
I0403 19:46:34.545789  9660 net.cpp:425] loss2/fc <- loss2/conv
I0403 19:46:34.545811  9660 net.cpp:399] loss2/fc -> loss2/fc
I0403 19:46:34.564616  9660 net.cpp:141] Setting up loss2/fc
I0403 19:46:34.564652  9660 net.cpp:148] Top shape: 24 1024 (24576)
I0403 19:46:34.564668  9660 net.cpp:156] Memory required for data: 1208220960
I0403 19:46:34.564689  9660 layer_factory.hpp:77] Creating layer loss2/relu_fc
I0403 19:46:34.564707  9660 net.cpp:91] Creating Layer loss2/relu_fc
I0403 19:46:34.564724  9660 net.cpp:425] loss2/relu_fc <- loss2/fc
I0403 19:46:34.564746  9660 net.cpp:386] loss2/relu_fc -> loss2/fc (in-place)
I0403 19:46:34.565063  9660 net.cpp:141] Setting up loss2/relu_fc
I0403 19:46:34.565091  9660 net.cpp:148] Top shape: 24 1024 (24576)
I0403 19:46:34.565107  9660 net.cpp:156] Memory required for data: 1208319264
I0403 19:46:34.565122  9660 layer_factory.hpp:77] Creating layer loss2/drop_fc
I0403 19:46:34.565141  9660 net.cpp:91] Creating Layer loss2/drop_fc
I0403 19:46:34.565158  9660 net.cpp:425] loss2/drop_fc <- loss2/fc
I0403 19:46:34.565184  9660 net.cpp:386] loss2/drop_fc -> loss2/fc (in-place)
I0403 19:46:34.565239  9660 net.cpp:141] Setting up loss2/drop_fc
I0403 19:46:34.565266  9660 net.cpp:148] Top shape: 24 1024 (24576)
I0403 19:46:34.565282  9660 net.cpp:156] Memory required for data: 1208417568
I0403 19:46:34.565297  9660 layer_factory.hpp:77] Creating layer loss2/classifier_plantvillage
I0403 19:46:34.565316  9660 net.cpp:91] Creating Layer loss2/classifier_plantvillage
I0403 19:46:34.565333  9660 net.cpp:425] loss2/classifier_plantvillage <- loss2/fc
I0403 19:46:34.565356  9660 net.cpp:399] loss2/classifier_plantvillage -> loss2/classifier_plantvillage
I0403 19:46:34.565785  9660 net.cpp:141] Setting up loss2/classifier_plantvillage
I0403 19:46:34.565815  9660 net.cpp:148] Top shape: 24 38 (912)
I0403 19:46:34.565850  9660 net.cpp:156] Memory required for data: 1208421216
I0403 19:46:34.565870  9660 layer_factory.hpp:77] Creating layer loss2/classifier_plantvillage_loss2/classifier_plantvillage_0_split
I0403 19:46:34.565888  9660 net.cpp:91] Creating Layer loss2/classifier_plantvillage_loss2/classifier_plantvillage_0_split
I0403 19:46:34.565906  9660 net.cpp:425] loss2/classifier_plantvillage_loss2/classifier_plantvillage_0_split <- loss2/classifier_plantvillage
I0403 19:46:34.565924  9660 net.cpp:399] loss2/classifier_plantvillage_loss2/classifier_plantvillage_0_split -> loss2/classifier_plantvillage_loss2/classifier_plantvillage_0_split_0
I0403 19:46:34.565946  9660 net.cpp:399] loss2/classifier_plantvillage_loss2/classifier_plantvillage_0_split -> loss2/classifier_plantvillage_loss2/classifier_plantvillage_0_split_1
I0403 19:46:34.565971  9660 net.cpp:399] loss2/classifier_plantvillage_loss2/classifier_plantvillage_0_split -> loss2/classifier_plantvillage_loss2/classifier_plantvillage_0_split_2
I0403 19:46:34.566054  9660 net.cpp:141] Setting up loss2/classifier_plantvillage_loss2/classifier_plantvillage_0_split
I0403 19:46:34.566079  9660 net.cpp:148] Top shape: 24 38 (912)
I0403 19:46:34.566097  9660 net.cpp:148] Top shape: 24 38 (912)
I0403 19:46:34.566112  9660 net.cpp:148] Top shape: 24 38 (912)
I0403 19:46:34.566128  9660 net.cpp:156] Memory required for data: 1208432160
I0403 19:46:34.566143  9660 layer_factory.hpp:77] Creating layer inception_4e/1x1
I0403 19:46:34.566164  9660 net.cpp:91] Creating Layer inception_4e/1x1
I0403 19:46:34.566189  9660 net.cpp:425] inception_4e/1x1 <- inception_4d/output_inception_4d/output_0_split_1
I0403 19:46:34.566213  9660 net.cpp:399] inception_4e/1x1 -> inception_4e/1x1
I0403 19:46:34.568152  9660 net.cpp:141] Setting up inception_4e/1x1
I0403 19:46:34.568187  9660 net.cpp:148] Top shape: 24 256 14 14 (1204224)
I0403 19:46:34.568207  9660 net.cpp:156] Memory required for data: 1213249056
I0403 19:46:34.568227  9660 layer_factory.hpp:77] Creating layer inception_4e/relu_1x1
I0403 19:46:34.568248  9660 net.cpp:91] Creating Layer inception_4e/relu_1x1
I0403 19:46:34.568266  9660 net.cpp:425] inception_4e/relu_1x1 <- inception_4e/1x1
I0403 19:46:34.568285  9660 net.cpp:386] inception_4e/relu_1x1 -> inception_4e/1x1 (in-place)
I0403 19:46:34.568604  9660 net.cpp:141] Setting up inception_4e/relu_1x1
I0403 19:46:34.568632  9660 net.cpp:148] Top shape: 24 256 14 14 (1204224)
I0403 19:46:34.568647  9660 net.cpp:156] Memory required for data: 1218065952
I0403 19:46:34.568663  9660 layer_factory.hpp:77] Creating layer inception_4e/3x3_reduce
I0403 19:46:34.568688  9660 net.cpp:91] Creating Layer inception_4e/3x3_reduce
I0403 19:46:34.568707  9660 net.cpp:425] inception_4e/3x3_reduce <- inception_4d/output_inception_4d/output_0_split_2
I0403 19:46:34.568727  9660 net.cpp:399] inception_4e/3x3_reduce -> inception_4e/3x3_reduce
I0403 19:46:34.570983  9660 net.cpp:141] Setting up inception_4e/3x3_reduce
I0403 19:46:34.571014  9660 net.cpp:148] Top shape: 24 160 14 14 (752640)
I0403 19:46:34.571030  9660 net.cpp:156] Memory required for data: 1221076512
I0403 19:46:34.571050  9660 layer_factory.hpp:77] Creating layer inception_4e/relu_3x3_reduce
I0403 19:46:34.571074  9660 net.cpp:91] Creating Layer inception_4e/relu_3x3_reduce
I0403 19:46:34.571091  9660 net.cpp:425] inception_4e/relu_3x3_reduce <- inception_4e/3x3_reduce
I0403 19:46:34.571110  9660 net.cpp:386] inception_4e/relu_3x3_reduce -> inception_4e/3x3_reduce (in-place)
I0403 19:46:34.571321  9660 net.cpp:141] Setting up inception_4e/relu_3x3_reduce
I0403 19:46:34.571351  9660 net.cpp:148] Top shape: 24 160 14 14 (752640)
I0403 19:46:34.571367  9660 net.cpp:156] Memory required for data: 1224087072
I0403 19:46:34.571382  9660 layer_factory.hpp:77] Creating layer inception_4e/3x3
I0403 19:46:34.571406  9660 net.cpp:91] Creating Layer inception_4e/3x3
I0403 19:46:34.571425  9660 net.cpp:425] inception_4e/3x3 <- inception_4e/3x3_reduce
I0403 19:46:34.571445  9660 net.cpp:399] inception_4e/3x3 -> inception_4e/3x3
I0403 19:46:34.576791  9660 net.cpp:141] Setting up inception_4e/3x3
I0403 19:46:34.576838  9660 net.cpp:148] Top shape: 24 320 14 14 (1505280)
I0403 19:46:34.576855  9660 net.cpp:156] Memory required for data: 1230108192
I0403 19:46:34.576875  9660 layer_factory.hpp:77] Creating layer inception_4e/relu_3x3
I0403 19:46:34.576894  9660 net.cpp:91] Creating Layer inception_4e/relu_3x3
I0403 19:46:34.576912  9660 net.cpp:425] inception_4e/relu_3x3 <- inception_4e/3x3
I0403 19:46:34.576933  9660 net.cpp:386] inception_4e/relu_3x3 -> inception_4e/3x3 (in-place)
I0403 19:46:34.577301  9660 net.cpp:141] Setting up inception_4e/relu_3x3
I0403 19:46:34.577332  9660 net.cpp:148] Top shape: 24 320 14 14 (1505280)
I0403 19:46:34.577348  9660 net.cpp:156] Memory required for data: 1236129312
I0403 19:46:34.577364  9660 layer_factory.hpp:77] Creating layer inception_4e/5x5_reduce
I0403 19:46:34.577389  9660 net.cpp:91] Creating Layer inception_4e/5x5_reduce
I0403 19:46:34.577409  9660 net.cpp:425] inception_4e/5x5_reduce <- inception_4d/output_inception_4d/output_0_split_3
I0403 19:46:34.577430  9660 net.cpp:399] inception_4e/5x5_reduce -> inception_4e/5x5_reduce
I0403 19:46:34.578578  9660 net.cpp:141] Setting up inception_4e/5x5_reduce
I0403 19:46:34.578608  9660 net.cpp:148] Top shape: 24 32 14 14 (150528)
I0403 19:46:34.578624  9660 net.cpp:156] Memory required for data: 1236731424
I0403 19:46:34.578644  9660 layer_factory.hpp:77] Creating layer inception_4e/relu_5x5_reduce
I0403 19:46:34.578665  9660 net.cpp:91] Creating Layer inception_4e/relu_5x5_reduce
I0403 19:46:34.578683  9660 net.cpp:425] inception_4e/relu_5x5_reduce <- inception_4e/5x5_reduce
I0403 19:46:34.578702  9660 net.cpp:386] inception_4e/relu_5x5_reduce -> inception_4e/5x5_reduce (in-place)
I0403 19:46:34.579022  9660 net.cpp:141] Setting up inception_4e/relu_5x5_reduce
I0403 19:46:34.579049  9660 net.cpp:148] Top shape: 24 32 14 14 (150528)
I0403 19:46:34.579066  9660 net.cpp:156] Memory required for data: 1237333536
I0403 19:46:34.579082  9660 layer_factory.hpp:77] Creating layer inception_4e/5x5
I0403 19:46:34.579121  9660 net.cpp:91] Creating Layer inception_4e/5x5
I0403 19:46:34.579141  9660 net.cpp:425] inception_4e/5x5 <- inception_4e/5x5_reduce
I0403 19:46:34.579164  9660 net.cpp:399] inception_4e/5x5 -> inception_4e/5x5
I0403 19:46:34.581128  9660 net.cpp:141] Setting up inception_4e/5x5
I0403 19:46:34.581158  9660 net.cpp:148] Top shape: 24 128 14 14 (602112)
I0403 19:46:34.581174  9660 net.cpp:156] Memory required for data: 1239741984
I0403 19:46:34.581203  9660 layer_factory.hpp:77] Creating layer inception_4e/relu_5x5
I0403 19:46:34.581223  9660 net.cpp:91] Creating Layer inception_4e/relu_5x5
I0403 19:46:34.581239  9660 net.cpp:425] inception_4e/relu_5x5 <- inception_4e/5x5
I0403 19:46:34.581260  9660 net.cpp:386] inception_4e/relu_5x5 -> inception_4e/5x5 (in-place)
I0403 19:46:34.581475  9660 net.cpp:141] Setting up inception_4e/relu_5x5
I0403 19:46:34.581501  9660 net.cpp:148] Top shape: 24 128 14 14 (602112)
I0403 19:46:34.581516  9660 net.cpp:156] Memory required for data: 1242150432
I0403 19:46:34.581532  9660 layer_factory.hpp:77] Creating layer inception_4e/pool
I0403 19:46:34.581552  9660 net.cpp:91] Creating Layer inception_4e/pool
I0403 19:46:34.581571  9660 net.cpp:425] inception_4e/pool <- inception_4d/output_inception_4d/output_0_split_4
I0403 19:46:34.581590  9660 net.cpp:399] inception_4e/pool -> inception_4e/pool
I0403 19:46:34.581666  9660 net.cpp:141] Setting up inception_4e/pool
I0403 19:46:34.581691  9660 net.cpp:148] Top shape: 24 528 14 14 (2483712)
I0403 19:46:34.581707  9660 net.cpp:156] Memory required for data: 1252085280
I0403 19:46:34.581722  9660 layer_factory.hpp:77] Creating layer inception_4e/pool_proj
I0403 19:46:34.581744  9660 net.cpp:91] Creating Layer inception_4e/pool_proj
I0403 19:46:34.581763  9660 net.cpp:425] inception_4e/pool_proj <- inception_4e/pool
I0403 19:46:34.581784  9660 net.cpp:399] inception_4e/pool_proj -> inception_4e/pool_proj
I0403 19:46:34.583451  9660 net.cpp:141] Setting up inception_4e/pool_proj
I0403 19:46:34.583493  9660 net.cpp:148] Top shape: 24 128 14 14 (602112)
I0403 19:46:34.583509  9660 net.cpp:156] Memory required for data: 1254493728
I0403 19:46:34.583529  9660 layer_factory.hpp:77] Creating layer inception_4e/relu_pool_proj
I0403 19:46:34.583547  9660 net.cpp:91] Creating Layer inception_4e/relu_pool_proj
I0403 19:46:34.583565  9660 net.cpp:425] inception_4e/relu_pool_proj <- inception_4e/pool_proj
I0403 19:46:34.583586  9660 net.cpp:386] inception_4e/relu_pool_proj -> inception_4e/pool_proj (in-place)
I0403 19:46:34.583902  9660 net.cpp:141] Setting up inception_4e/relu_pool_proj
I0403 19:46:34.583930  9660 net.cpp:148] Top shape: 24 128 14 14 (602112)
I0403 19:46:34.583946  9660 net.cpp:156] Memory required for data: 1256902176
I0403 19:46:34.583962  9660 layer_factory.hpp:77] Creating layer inception_4e/output
I0403 19:46:34.583981  9660 net.cpp:91] Creating Layer inception_4e/output
I0403 19:46:34.583997  9660 net.cpp:425] inception_4e/output <- inception_4e/1x1
I0403 19:46:34.584013  9660 net.cpp:425] inception_4e/output <- inception_4e/3x3
I0403 19:46:34.584030  9660 net.cpp:425] inception_4e/output <- inception_4e/5x5
I0403 19:46:34.584046  9660 net.cpp:425] inception_4e/output <- inception_4e/pool_proj
I0403 19:46:34.584066  9660 net.cpp:399] inception_4e/output -> inception_4e/output
I0403 19:46:34.584120  9660 net.cpp:141] Setting up inception_4e/output
I0403 19:46:34.584146  9660 net.cpp:148] Top shape: 24 832 14 14 (3913728)
I0403 19:46:34.584163  9660 net.cpp:156] Memory required for data: 1272557088
I0403 19:46:34.584187  9660 layer_factory.hpp:77] Creating layer pool4/3x3_s2
I0403 19:46:34.584206  9660 net.cpp:91] Creating Layer pool4/3x3_s2
I0403 19:46:34.584223  9660 net.cpp:425] pool4/3x3_s2 <- inception_4e/output
I0403 19:46:34.584242  9660 net.cpp:399] pool4/3x3_s2 -> pool4/3x3_s2
I0403 19:46:34.584316  9660 net.cpp:141] Setting up pool4/3x3_s2
I0403 19:46:34.584342  9660 net.cpp:148] Top shape: 24 832 7 7 (978432)
I0403 19:46:34.584357  9660 net.cpp:156] Memory required for data: 1276470816
I0403 19:46:34.584372  9660 layer_factory.hpp:77] Creating layer pool4/3x3_s2_pool4/3x3_s2_0_split
I0403 19:46:34.584391  9660 net.cpp:91] Creating Layer pool4/3x3_s2_pool4/3x3_s2_0_split
I0403 19:46:34.584408  9660 net.cpp:425] pool4/3x3_s2_pool4/3x3_s2_0_split <- pool4/3x3_s2
I0403 19:46:34.584427  9660 net.cpp:399] pool4/3x3_s2_pool4/3x3_s2_0_split -> pool4/3x3_s2_pool4/3x3_s2_0_split_0
I0403 19:46:34.584450  9660 net.cpp:399] pool4/3x3_s2_pool4/3x3_s2_0_split -> pool4/3x3_s2_pool4/3x3_s2_0_split_1
I0403 19:46:34.584470  9660 net.cpp:399] pool4/3x3_s2_pool4/3x3_s2_0_split -> pool4/3x3_s2_pool4/3x3_s2_0_split_2
I0403 19:46:34.584494  9660 net.cpp:399] pool4/3x3_s2_pool4/3x3_s2_0_split -> pool4/3x3_s2_pool4/3x3_s2_0_split_3
I0403 19:46:34.584591  9660 net.cpp:141] Setting up pool4/3x3_s2_pool4/3x3_s2_0_split
I0403 19:46:34.584616  9660 net.cpp:148] Top shape: 24 832 7 7 (978432)
I0403 19:46:34.584633  9660 net.cpp:148] Top shape: 24 832 7 7 (978432)
I0403 19:46:34.584650  9660 net.cpp:148] Top shape: 24 832 7 7 (978432)
I0403 19:46:34.584666  9660 net.cpp:148] Top shape: 24 832 7 7 (978432)
I0403 19:46:34.584681  9660 net.cpp:156] Memory required for data: 1292125728
I0403 19:46:34.584695  9660 layer_factory.hpp:77] Creating layer inception_5a/1x1
I0403 19:46:34.584718  9660 net.cpp:91] Creating Layer inception_5a/1x1
I0403 19:46:34.584736  9660 net.cpp:425] inception_5a/1x1 <- pool4/3x3_s2_pool4/3x3_s2_0_split_0
I0403 19:46:34.584761  9660 net.cpp:399] inception_5a/1x1 -> inception_5a/1x1
I0403 19:46:34.587815  9660 net.cpp:141] Setting up inception_5a/1x1
I0403 19:46:34.587846  9660 net.cpp:148] Top shape: 24 256 7 7 (301056)
I0403 19:46:34.587863  9660 net.cpp:156] Memory required for data: 1293329952
I0403 19:46:34.587882  9660 layer_factory.hpp:77] Creating layer inception_5a/relu_1x1
I0403 19:46:34.587904  9660 net.cpp:91] Creating Layer inception_5a/relu_1x1
I0403 19:46:34.587924  9660 net.cpp:425] inception_5a/relu_1x1 <- inception_5a/1x1
I0403 19:46:34.587942  9660 net.cpp:386] inception_5a/relu_1x1 -> inception_5a/1x1 (in-place)
I0403 19:46:34.588282  9660 net.cpp:141] Setting up inception_5a/relu_1x1
I0403 19:46:34.588310  9660 net.cpp:148] Top shape: 24 256 7 7 (301056)
I0403 19:46:34.588325  9660 net.cpp:156] Memory required for data: 1294534176
I0403 19:46:34.588341  9660 layer_factory.hpp:77] Creating layer inception_5a/3x3_reduce
I0403 19:46:34.588366  9660 net.cpp:91] Creating Layer inception_5a/3x3_reduce
I0403 19:46:34.588384  9660 net.cpp:425] inception_5a/3x3_reduce <- pool4/3x3_s2_pool4/3x3_s2_0_split_1
I0403 19:46:34.588408  9660 net.cpp:399] inception_5a/3x3_reduce -> inception_5a/3x3_reduce
I0403 19:46:34.591024  9660 net.cpp:141] Setting up inception_5a/3x3_reduce
I0403 19:46:34.591056  9660 net.cpp:148] Top shape: 24 160 7 7 (188160)
I0403 19:46:34.591073  9660 net.cpp:156] Memory required for data: 1295286816
I0403 19:46:34.591092  9660 layer_factory.hpp:77] Creating layer inception_5a/relu_3x3_reduce
I0403 19:46:34.591111  9660 net.cpp:91] Creating Layer inception_5a/relu_3x3_reduce
I0403 19:46:34.591128  9660 net.cpp:425] inception_5a/relu_3x3_reduce <- inception_5a/3x3_reduce
I0403 19:46:34.591150  9660 net.cpp:386] inception_5a/relu_3x3_reduce -> inception_5a/3x3_reduce (in-place)
I0403 19:46:34.591358  9660 net.cpp:141] Setting up inception_5a/relu_3x3_reduce
I0403 19:46:34.591387  9660 net.cpp:148] Top shape: 24 160 7 7 (188160)
I0403 19:46:34.591403  9660 net.cpp:156] Memory required for data: 1296039456
I0403 19:46:34.591420  9660 layer_factory.hpp:77] Creating layer inception_5a/3x3
I0403 19:46:34.591445  9660 net.cpp:91] Creating Layer inception_5a/3x3
I0403 19:46:34.591465  9660 net.cpp:425] inception_5a/3x3 <- inception_5a/3x3_reduce
I0403 19:46:34.591490  9660 net.cpp:399] inception_5a/3x3 -> inception_5a/3x3
I0403 19:46:34.596869  9660 net.cpp:141] Setting up inception_5a/3x3
I0403 19:46:34.596901  9660 net.cpp:148] Top shape: 24 320 7 7 (376320)
I0403 19:46:34.596918  9660 net.cpp:156] Memory required for data: 1297544736
I0403 19:46:34.596938  9660 layer_factory.hpp:77] Creating layer inception_5a/relu_3x3
I0403 19:46:34.596962  9660 net.cpp:91] Creating Layer inception_5a/relu_3x3
I0403 19:46:34.596981  9660 net.cpp:425] inception_5a/relu_3x3 <- inception_5a/3x3
I0403 19:46:34.596999  9660 net.cpp:386] inception_5a/relu_3x3 -> inception_5a/3x3 (in-place)
I0403 19:46:34.597321  9660 net.cpp:141] Setting up inception_5a/relu_3x3
I0403 19:46:34.597347  9660 net.cpp:148] Top shape: 24 320 7 7 (376320)
I0403 19:46:34.597363  9660 net.cpp:156] Memory required for data: 1299050016
I0403 19:46:34.597379  9660 layer_factory.hpp:77] Creating layer inception_5a/5x5_reduce
I0403 19:46:34.597404  9660 net.cpp:91] Creating Layer inception_5a/5x5_reduce
I0403 19:46:34.597421  9660 net.cpp:425] inception_5a/5x5_reduce <- pool4/3x3_s2_pool4/3x3_s2_0_split_2
I0403 19:46:34.597445  9660 net.cpp:399] inception_5a/5x5_reduce -> inception_5a/5x5_reduce
I0403 19:46:34.598707  9660 net.cpp:141] Setting up inception_5a/5x5_reduce
I0403 19:46:34.598739  9660 net.cpp:148] Top shape: 24 32 7 7 (37632)
I0403 19:46:34.598757  9660 net.cpp:156] Memory required for data: 1299200544
I0403 19:46:34.598778  9660 layer_factory.hpp:77] Creating layer inception_5a/relu_5x5_reduce
I0403 19:46:34.598795  9660 net.cpp:91] Creating Layer inception_5a/relu_5x5_reduce
I0403 19:46:34.598812  9660 net.cpp:425] inception_5a/relu_5x5_reduce <- inception_5a/5x5_reduce
I0403 19:46:34.598831  9660 net.cpp:386] inception_5a/relu_5x5_reduce -> inception_5a/5x5_reduce (in-place)
I0403 19:46:34.599153  9660 net.cpp:141] Setting up inception_5a/relu_5x5_reduce
I0403 19:46:34.599189  9660 net.cpp:148] Top shape: 24 32 7 7 (37632)
I0403 19:46:34.599207  9660 net.cpp:156] Memory required for data: 1299351072
I0403 19:46:34.599223  9660 layer_factory.hpp:77] Creating layer inception_5a/5x5
I0403 19:46:34.599246  9660 net.cpp:91] Creating Layer inception_5a/5x5
I0403 19:46:34.599266  9660 net.cpp:425] inception_5a/5x5 <- inception_5a/5x5_reduce
I0403 19:46:34.599288  9660 net.cpp:399] inception_5a/5x5 -> inception_5a/5x5
I0403 19:46:34.601150  9660 net.cpp:141] Setting up inception_5a/5x5
I0403 19:46:34.601199  9660 net.cpp:148] Top shape: 24 128 7 7 (150528)
I0403 19:46:34.601217  9660 net.cpp:156] Memory required for data: 1299953184
I0403 19:46:34.601236  9660 layer_factory.hpp:77] Creating layer inception_5a/relu_5x5
I0403 19:46:34.601259  9660 net.cpp:91] Creating Layer inception_5a/relu_5x5
I0403 19:46:34.601277  9660 net.cpp:425] inception_5a/relu_5x5 <- inception_5a/5x5
I0403 19:46:34.601295  9660 net.cpp:386] inception_5a/relu_5x5 -> inception_5a/5x5 (in-place)
I0403 19:46:34.601506  9660 net.cpp:141] Setting up inception_5a/relu_5x5
I0403 19:46:34.601536  9660 net.cpp:148] Top shape: 24 128 7 7 (150528)
I0403 19:46:34.601552  9660 net.cpp:156] Memory required for data: 1300555296
I0403 19:46:34.601567  9660 layer_factory.hpp:77] Creating layer inception_5a/pool
I0403 19:46:34.601586  9660 net.cpp:91] Creating Layer inception_5a/pool
I0403 19:46:34.601603  9660 net.cpp:425] inception_5a/pool <- pool4/3x3_s2_pool4/3x3_s2_0_split_3
I0403 19:46:34.601621  9660 net.cpp:399] inception_5a/pool -> inception_5a/pool
I0403 19:46:34.601698  9660 net.cpp:141] Setting up inception_5a/pool
I0403 19:46:34.601723  9660 net.cpp:148] Top shape: 24 832 7 7 (978432)
I0403 19:46:34.601738  9660 net.cpp:156] Memory required for data: 1304469024
I0403 19:46:34.601754  9660 layer_factory.hpp:77] Creating layer inception_5a/pool_proj
I0403 19:46:34.601778  9660 net.cpp:91] Creating Layer inception_5a/pool_proj
I0403 19:46:34.601796  9660 net.cpp:425] inception_5a/pool_proj <- inception_5a/pool
I0403 19:46:34.601819  9660 net.cpp:399] inception_5a/pool_proj -> inception_5a/pool_proj
I0403 19:46:34.604275  9660 net.cpp:141] Setting up inception_5a/pool_proj
I0403 19:46:34.604307  9660 net.cpp:148] Top shape: 24 128 7 7 (150528)
I0403 19:46:34.604324  9660 net.cpp:156] Memory required for data: 1305071136
I0403 19:46:34.604343  9660 layer_factory.hpp:77] Creating layer inception_5a/relu_pool_proj
I0403 19:46:34.604364  9660 net.cpp:91] Creating Layer inception_5a/relu_pool_proj
I0403 19:46:34.604382  9660 net.cpp:425] inception_5a/relu_pool_proj <- inception_5a/pool_proj
I0403 19:46:34.604401  9660 net.cpp:386] inception_5a/relu_pool_proj -> inception_5a/pool_proj (in-place)
I0403 19:46:34.604718  9660 net.cpp:141] Setting up inception_5a/relu_pool_proj
I0403 19:46:34.604746  9660 net.cpp:148] Top shape: 24 128 7 7 (150528)
I0403 19:46:34.604761  9660 net.cpp:156] Memory required for data: 1305673248
I0403 19:46:34.604778  9660 layer_factory.hpp:77] Creating layer inception_5a/output
I0403 19:46:34.604795  9660 net.cpp:91] Creating Layer inception_5a/output
I0403 19:46:34.604811  9660 net.cpp:425] inception_5a/output <- inception_5a/1x1
I0403 19:46:34.604830  9660 net.cpp:425] inception_5a/output <- inception_5a/3x3
I0403 19:46:34.604847  9660 net.cpp:425] inception_5a/output <- inception_5a/5x5
I0403 19:46:34.604864  9660 net.cpp:425] inception_5a/output <- inception_5a/pool_proj
I0403 19:46:34.604884  9660 net.cpp:399] inception_5a/output -> inception_5a/output
I0403 19:46:34.604938  9660 net.cpp:141] Setting up inception_5a/output
I0403 19:46:34.604964  9660 net.cpp:148] Top shape: 24 832 7 7 (978432)
I0403 19:46:34.604980  9660 net.cpp:156] Memory required for data: 1309586976
I0403 19:46:34.604996  9660 layer_factory.hpp:77] Creating layer inception_5a/output_inception_5a/output_0_split
I0403 19:46:34.605015  9660 net.cpp:91] Creating Layer inception_5a/output_inception_5a/output_0_split
I0403 19:46:34.605031  9660 net.cpp:425] inception_5a/output_inception_5a/output_0_split <- inception_5a/output
I0403 19:46:34.605049  9660 net.cpp:399] inception_5a/output_inception_5a/output_0_split -> inception_5a/output_inception_5a/output_0_split_0
I0403 19:46:34.605075  9660 net.cpp:399] inception_5a/output_inception_5a/output_0_split -> inception_5a/output_inception_5a/output_0_split_1
I0403 19:46:34.605098  9660 net.cpp:399] inception_5a/output_inception_5a/output_0_split -> inception_5a/output_inception_5a/output_0_split_2
I0403 19:46:34.605119  9660 net.cpp:399] inception_5a/output_inception_5a/output_0_split -> inception_5a/output_inception_5a/output_0_split_3
I0403 19:46:34.605245  9660 net.cpp:141] Setting up inception_5a/output_inception_5a/output_0_split
I0403 19:46:34.605270  9660 net.cpp:148] Top shape: 24 832 7 7 (978432)
I0403 19:46:34.605288  9660 net.cpp:148] Top shape: 24 832 7 7 (978432)
I0403 19:46:34.605304  9660 net.cpp:148] Top shape: 24 832 7 7 (978432)
I0403 19:46:34.605320  9660 net.cpp:148] Top shape: 24 832 7 7 (978432)
I0403 19:46:34.605335  9660 net.cpp:156] Memory required for data: 1325241888
I0403 19:46:34.605350  9660 layer_factory.hpp:77] Creating layer inception_5b/1x1
I0403 19:46:34.605375  9660 net.cpp:91] Creating Layer inception_5b/1x1
I0403 19:46:34.605393  9660 net.cpp:425] inception_5b/1x1 <- inception_5a/output_inception_5a/output_0_split_0
I0403 19:46:34.605415  9660 net.cpp:399] inception_5b/1x1 -> inception_5b/1x1
I0403 19:46:34.609462  9660 net.cpp:141] Setting up inception_5b/1x1
I0403 19:46:34.609493  9660 net.cpp:148] Top shape: 24 384 7 7 (451584)
I0403 19:46:34.609510  9660 net.cpp:156] Memory required for data: 1327048224
I0403 19:46:34.609529  9660 layer_factory.hpp:77] Creating layer inception_5b/relu_1x1
I0403 19:46:34.609549  9660 net.cpp:91] Creating Layer inception_5b/relu_1x1
I0403 19:46:34.609566  9660 net.cpp:425] inception_5b/relu_1x1 <- inception_5b/1x1
I0403 19:46:34.609586  9660 net.cpp:386] inception_5b/relu_1x1 -> inception_5b/1x1 (in-place)
I0403 19:46:34.609917  9660 net.cpp:141] Setting up inception_5b/relu_1x1
I0403 19:46:34.609946  9660 net.cpp:148] Top shape: 24 384 7 7 (451584)
I0403 19:46:34.609961  9660 net.cpp:156] Memory required for data: 1328854560
I0403 19:46:34.609977  9660 layer_factory.hpp:77] Creating layer inception_5b/3x3_reduce
I0403 19:46:34.610000  9660 net.cpp:91] Creating Layer inception_5b/3x3_reduce
I0403 19:46:34.610019  9660 net.cpp:425] inception_5b/3x3_reduce <- inception_5a/output_inception_5a/output_0_split_1
I0403 19:46:34.610044  9660 net.cpp:399] inception_5b/3x3_reduce -> inception_5b/3x3_reduce
I0403 19:46:34.612910  9660 net.cpp:141] Setting up inception_5b/3x3_reduce
I0403 19:46:34.612941  9660 net.cpp:148] Top shape: 24 192 7 7 (225792)
I0403 19:46:34.612958  9660 net.cpp:156] Memory required for data: 1329757728
I0403 19:46:34.612978  9660 layer_factory.hpp:77] Creating layer inception_5b/relu_3x3_reduce
I0403 19:46:34.612998  9660 net.cpp:91] Creating Layer inception_5b/relu_3x3_reduce
I0403 19:46:34.613019  9660 net.cpp:425] inception_5b/relu_3x3_reduce <- inception_5b/3x3_reduce
I0403 19:46:34.613040  9660 net.cpp:386] inception_5b/relu_3x3_reduce -> inception_5b/3x3_reduce (in-place)
I0403 19:46:34.613256  9660 net.cpp:141] Setting up inception_5b/relu_3x3_reduce
I0403 19:46:34.613282  9660 net.cpp:148] Top shape: 24 192 7 7 (225792)
I0403 19:46:34.613298  9660 net.cpp:156] Memory required for data: 1330660896
I0403 19:46:34.613313  9660 layer_factory.hpp:77] Creating layer inception_5b/3x3
I0403 19:46:34.613337  9660 net.cpp:91] Creating Layer inception_5b/3x3
I0403 19:46:34.613355  9660 net.cpp:425] inception_5b/3x3 <- inception_5b/3x3_reduce
I0403 19:46:34.613379  9660 net.cpp:399] inception_5b/3x3 -> inception_5b/3x3
I0403 19:46:34.620546  9660 net.cpp:141] Setting up inception_5b/3x3
I0403 19:46:34.620578  9660 net.cpp:148] Top shape: 24 384 7 7 (451584)
I0403 19:46:34.620594  9660 net.cpp:156] Memory required for data: 1332467232
I0403 19:46:34.620614  9660 layer_factory.hpp:77] Creating layer inception_5b/relu_3x3
I0403 19:46:34.620635  9660 net.cpp:91] Creating Layer inception_5b/relu_3x3
I0403 19:46:34.620652  9660 net.cpp:425] inception_5b/relu_3x3 <- inception_5b/3x3
I0403 19:46:34.620671  9660 net.cpp:386] inception_5b/relu_3x3 -> inception_5b/3x3 (in-place)
I0403 19:46:34.620990  9660 net.cpp:141] Setting up inception_5b/relu_3x3
I0403 19:46:34.621019  9660 net.cpp:148] Top shape: 24 384 7 7 (451584)
I0403 19:46:34.621034  9660 net.cpp:156] Memory required for data: 1334273568
I0403 19:46:34.621050  9660 layer_factory.hpp:77] Creating layer inception_5b/5x5_reduce
I0403 19:46:34.621093  9660 net.cpp:91] Creating Layer inception_5b/5x5_reduce
I0403 19:46:34.621112  9660 net.cpp:425] inception_5b/5x5_reduce <- inception_5a/output_inception_5a/output_0_split_2
I0403 19:46:34.621136  9660 net.cpp:399] inception_5b/5x5_reduce -> inception_5b/5x5_reduce
I0403 19:46:34.622531  9660 net.cpp:141] Setting up inception_5b/5x5_reduce
I0403 19:46:34.622561  9660 net.cpp:148] Top shape: 24 48 7 7 (56448)
I0403 19:46:34.622577  9660 net.cpp:156] Memory required for data: 1334499360
I0403 19:46:34.622597  9660 layer_factory.hpp:77] Creating layer inception_5b/relu_5x5_reduce
I0403 19:46:34.622617  9660 net.cpp:91] Creating Layer inception_5b/relu_5x5_reduce
I0403 19:46:34.622633  9660 net.cpp:425] inception_5b/relu_5x5_reduce <- inception_5b/5x5_reduce
I0403 19:46:34.622658  9660 net.cpp:386] inception_5b/relu_5x5_reduce -> inception_5b/5x5_reduce (in-place)
I0403 19:46:34.623057  9660 net.cpp:141] Setting up inception_5b/relu_5x5_reduce
I0403 19:46:34.623086  9660 net.cpp:148] Top shape: 24 48 7 7 (56448)
I0403 19:46:34.623102  9660 net.cpp:156] Memory required for data: 1334725152
I0403 19:46:34.623118  9660 layer_factory.hpp:77] Creating layer inception_5b/5x5
I0403 19:46:34.623139  9660 net.cpp:91] Creating Layer inception_5b/5x5
I0403 19:46:34.623157  9660 net.cpp:425] inception_5b/5x5 <- inception_5b/5x5_reduce
I0403 19:46:34.623184  9660 net.cpp:399] inception_5b/5x5 -> inception_5b/5x5
I0403 19:46:34.625411  9660 net.cpp:141] Setting up inception_5b/5x5
I0403 19:46:34.625442  9660 net.cpp:148] Top shape: 24 128 7 7 (150528)
I0403 19:46:34.625458  9660 net.cpp:156] Memory required for data: 1335327264
I0403 19:46:34.625478  9660 layer_factory.hpp:77] Creating layer inception_5b/relu_5x5
I0403 19:46:34.625499  9660 net.cpp:91] Creating Layer inception_5b/relu_5x5
I0403 19:46:34.625516  9660 net.cpp:425] inception_5b/relu_5x5 <- inception_5b/5x5
I0403 19:46:34.625535  9660 net.cpp:386] inception_5b/relu_5x5 -> inception_5b/5x5 (in-place)
I0403 19:46:34.625749  9660 net.cpp:141] Setting up inception_5b/relu_5x5
I0403 19:46:34.625776  9660 net.cpp:148] Top shape: 24 128 7 7 (150528)
I0403 19:46:34.625792  9660 net.cpp:156] Memory required for data: 1335929376
I0403 19:46:34.625808  9660 layer_factory.hpp:77] Creating layer inception_5b/pool
I0403 19:46:34.625828  9660 net.cpp:91] Creating Layer inception_5b/pool
I0403 19:46:34.625846  9660 net.cpp:425] inception_5b/pool <- inception_5a/output_inception_5a/output_0_split_3
I0403 19:46:34.625865  9660 net.cpp:399] inception_5b/pool -> inception_5b/pool
I0403 19:46:34.625946  9660 net.cpp:141] Setting up inception_5b/pool
I0403 19:46:34.625970  9660 net.cpp:148] Top shape: 24 832 7 7 (978432)
I0403 19:46:34.625985  9660 net.cpp:156] Memory required for data: 1339843104
I0403 19:46:34.626001  9660 layer_factory.hpp:77] Creating layer inception_5b/pool_proj
I0403 19:46:34.626024  9660 net.cpp:91] Creating Layer inception_5b/pool_proj
I0403 19:46:34.626042  9660 net.cpp:425] inception_5b/pool_proj <- inception_5b/pool
I0403 19:46:34.626065  9660 net.cpp:399] inception_5b/pool_proj -> inception_5b/pool_proj
I0403 19:46:34.628535  9660 net.cpp:141] Setting up inception_5b/pool_proj
I0403 19:46:34.628566  9660 net.cpp:148] Top shape: 24 128 7 7 (150528)
I0403 19:46:34.628583  9660 net.cpp:156] Memory required for data: 1340445216
I0403 19:46:34.628602  9660 layer_factory.hpp:77] Creating layer inception_5b/relu_pool_proj
I0403 19:46:34.628621  9660 net.cpp:91] Creating Layer inception_5b/relu_pool_proj
I0403 19:46:34.628638  9660 net.cpp:425] inception_5b/relu_pool_proj <- inception_5b/pool_proj
I0403 19:46:34.628659  9660 net.cpp:386] inception_5b/relu_pool_proj -> inception_5b/pool_proj (in-place)
I0403 19:46:34.628991  9660 net.cpp:141] Setting up inception_5b/relu_pool_proj
I0403 19:46:34.629019  9660 net.cpp:148] Top shape: 24 128 7 7 (150528)
I0403 19:46:34.629035  9660 net.cpp:156] Memory required for data: 1341047328
I0403 19:46:34.629050  9660 layer_factory.hpp:77] Creating layer inception_5b/output
I0403 19:46:34.629070  9660 net.cpp:91] Creating Layer inception_5b/output
I0403 19:46:34.629104  9660 net.cpp:425] inception_5b/output <- inception_5b/1x1
I0403 19:46:34.629123  9660 net.cpp:425] inception_5b/output <- inception_5b/3x3
I0403 19:46:34.629140  9660 net.cpp:425] inception_5b/output <- inception_5b/5x5
I0403 19:46:34.629158  9660 net.cpp:425] inception_5b/output <- inception_5b/pool_proj
I0403 19:46:34.629185  9660 net.cpp:399] inception_5b/output -> inception_5b/output
I0403 19:46:34.629243  9660 net.cpp:141] Setting up inception_5b/output
I0403 19:46:34.629271  9660 net.cpp:148] Top shape: 24 1024 7 7 (1204224)
I0403 19:46:34.629287  9660 net.cpp:156] Memory required for data: 1345864224
I0403 19:46:34.629304  9660 layer_factory.hpp:77] Creating layer pool5/7x7_s1
I0403 19:46:34.629323  9660 net.cpp:91] Creating Layer pool5/7x7_s1
I0403 19:46:34.629340  9660 net.cpp:425] pool5/7x7_s1 <- inception_5b/output
I0403 19:46:34.629362  9660 net.cpp:399] pool5/7x7_s1 -> pool5/7x7_s1
I0403 19:46:34.629595  9660 net.cpp:141] Setting up pool5/7x7_s1
I0403 19:46:34.629622  9660 net.cpp:148] Top shape: 24 1024 1 1 (24576)
I0403 19:46:34.629637  9660 net.cpp:156] Memory required for data: 1345962528
I0403 19:46:34.629653  9660 layer_factory.hpp:77] Creating layer pool5/drop_7x7_s1
I0403 19:46:34.629672  9660 net.cpp:91] Creating Layer pool5/drop_7x7_s1
I0403 19:46:34.629688  9660 net.cpp:425] pool5/drop_7x7_s1 <- pool5/7x7_s1
I0403 19:46:34.629709  9660 net.cpp:386] pool5/drop_7x7_s1 -> pool5/7x7_s1 (in-place)
I0403 19:46:34.629765  9660 net.cpp:141] Setting up pool5/drop_7x7_s1
I0403 19:46:34.629789  9660 net.cpp:148] Top shape: 24 1024 1 1 (24576)
I0403 19:46:34.629804  9660 net.cpp:156] Memory required for data: 1346060832
I0403 19:46:34.629819  9660 layer_factory.hpp:77] Creating layer loss3/classifier_plantvillage
I0403 19:46:34.629839  9660 net.cpp:91] Creating Layer loss3/classifier_plantvillage
I0403 19:46:34.629856  9660 net.cpp:425] loss3/classifier_plantvillage <- pool5/7x7_s1
I0403 19:46:34.629878  9660 net.cpp:399] loss3/classifier_plantvillage -> loss3/classifier_plantvillage
I0403 19:46:34.630344  9660 net.cpp:141] Setting up loss3/classifier_plantvillage
I0403 19:46:34.630372  9660 net.cpp:148] Top shape: 24 38 (912)
I0403 19:46:34.630386  9660 net.cpp:156] Memory required for data: 1346064480
I0403 19:46:34.630405  9660 layer_factory.hpp:77] Creating layer loss3/classifier_plantvillage_loss3/classifier_plantvillage_0_split
I0403 19:46:34.630429  9660 net.cpp:91] Creating Layer loss3/classifier_plantvillage_loss3/classifier_plantvillage_0_split
I0403 19:46:34.630445  9660 net.cpp:425] loss3/classifier_plantvillage_loss3/classifier_plantvillage_0_split <- loss3/classifier_plantvillage
I0403 19:46:34.630466  9660 net.cpp:399] loss3/classifier_plantvillage_loss3/classifier_plantvillage_0_split -> loss3/classifier_plantvillage_loss3/classifier_plantvillage_0_split_0
I0403 19:46:34.630488  9660 net.cpp:399] loss3/classifier_plantvillage_loss3/classifier_plantvillage_0_split -> loss3/classifier_plantvillage_loss3/classifier_plantvillage_0_split_1
I0403 19:46:34.630511  9660 net.cpp:399] loss3/classifier_plantvillage_loss3/classifier_plantvillage_0_split -> loss3/classifier_plantvillage_loss3/classifier_plantvillage_0_split_2
I0403 19:46:34.630532  9660 net.cpp:399] loss3/classifier_plantvillage_loss3/classifier_plantvillage_0_split -> loss3/classifier_plantvillage_loss3/classifier_plantvillage_0_split_3
I0403 19:46:34.630640  9660 net.cpp:141] Setting up loss3/classifier_plantvillage_loss3/classifier_plantvillage_0_split
I0403 19:46:34.630664  9660 net.cpp:148] Top shape: 24 38 (912)
I0403 19:46:34.630682  9660 net.cpp:148] Top shape: 24 38 (912)
I0403 19:46:34.630698  9660 net.cpp:148] Top shape: 24 38 (912)
I0403 19:46:34.630715  9660 net.cpp:148] Top shape: 24 38 (912)
I0403 19:46:34.630729  9660 net.cpp:156] Memory required for data: 1346079072
I0403 19:46:34.630745  9660 layer_factory.hpp:77] Creating layer loss1/loss
I0403 19:46:34.630767  9660 net.cpp:91] Creating Layer loss1/loss
I0403 19:46:34.630786  9660 net.cpp:425] loss1/loss <- loss1/classifier_plantvillage_loss1/classifier_plantvillage_0_split_0
I0403 19:46:34.630818  9660 net.cpp:425] loss1/loss <- label_data_1_split_0
…
