…
I0403 19:11:04.723552  8843 net.cpp:313] The NetState phase (1) differed from the phase (0) specified by a rule in layer data
I0403 19:11:04.724721  8843 net.cpp:49] Initializing net from parameters: 
state {
  phase: TEST
}
layer {
  name: "data"
  type: "Data"
  top: "data"
  top: "label"
  include {
    phase: TEST
  }
  transform_param {
    mirror: false
    crop_size: 224
    mean_file: "/home/mohanty/data/final_dataset/lmdb/grayscale-50-50/mean.binaryproto"
  }
  data_param {
    source: "/home/mohanty/data/final_dataset/lmdb/grayscale-50-50/test_db"
    batch_size: 24
    backend: LMDB
  }
}
layer {
  name: "conv1/7x7_s2"
  type: "Convolution"
  bottom: "data"
  top: "conv1/7x7_s2"
  param {
    lr_mult: 1
    decay_mult: 1
  }
  param {
    lr_mult: 2
    decay_mult: 0
  }
  convolution_param {
    num_output: 64
    pad: 3
    kernel_size: 7
    stride: 2
    weight_filler {
      type: "xavier"
      std: 0.1
    }
    bias_filler {
      type: "constant"
      value: 0.2
    }
  }
}
layer {
  name: "conv1/relu_7x7"
  type: "ReLU"
  bottom: "conv1/7x7_s2"
  top: "conv1/7x7_s2"
}
layer {
  name: "pool1/3x3_s2"
  type: "Pooling"
  bottom: "conv1/7x7_s2"
  top: "pool1/3x3_s2"
  pooling_param {
    pool: MAX
    kernel_size: 3
    stride: 2
  }
}
layer {
  name: "pool1/norm1"
  type: "LRN"
  bottom: "pool1/3x3_s2"
  top: "pool1/norm1"
  lrn_param {
    local_size: 5
    alpha: 0.0001
    beta: 0.75
  }
}
layer {
  name: "conv2/3x3_reduce"
  type: "Convolution"
  bottom: "pool1/norm1"
  top: "conv2/3x3_reduce"
  param {
    lr_mult: 1
    decay_mult: 1
  }
  param {
    lr_mult: 2
    decay_mult: 0
  }
  convolution_param {
    num_output: 64
    kernel_size: 1
    weight_filler {
      type: "xavier"
      std: 0.1
    }
    bias_filler {
      type: "constant"
      value: 0.2
    }
  }
}
layer {
  name: "conv2/relu_3x3_reduce"
  type: "ReLU"
  bottom: "conv2/3x3_reduce"
  top: "conv2/3x3_reduce"
}
layer {
  name: "conv2/3x3"
  type: "Convolution"
  bottom: "conv2/3x3_reduce"
  top: "conv2/3x3"
  param {
    lr_mult: 1
    decay_mult: 1
  }
  param {
    lr_mult: 2
    decay_mult: 0
  }
  convolution_param {
    num_output: 192
    pad: 1
    kernel_size: 3
    weight_filler {
      type: "xavier"
      std: 0.03
    }
    bias_filler {
      type: "constant"
      value: 0.2
    }
  }
}
layer {
  name: "conv2/relu_3x3"
  type: "ReLU"
  bottom: "conv2/3x3"
  top: "conv2/3x3"
}
layer {
  name: "conv2/norm2"
  type: "LRN"
  bottom: "conv2/3x3"
  top: "conv2/norm2"
  lrn_param {
    local_size: 5
    alpha: 0.0001
    beta: 0.75
  }
}
layer {
  name: "pool2/3x3_s2"
  type: "Pooling"
  bottom: "conv2/norm2"
  top: "pool2/3x3_s2"
  pooling_param {
    pool: MAX
    kernel_size: 3
    stride: 2
  }
}
layer {
  name: "inception_3a/1x1"
  type: "Convolution"
  bottom: "pool2/3x3_s2"
  top: "inception_3a/1x1"
  param {
    lr_mult: 1
    decay_mult: 1
  }
  param {
    lr_mult: 2
    decay_mult: 0
  }
  convolution_param {
    num_output: 64
    kernel_size: 1
    weight_filler {
      type: "xavier"
      std: 0.03
    }
    bias_filler {
      type: "constant"
      value: 0.2
    }
  }
}
layer {
  name: "inception_3a/relu_1x1"
  type: "ReLU"
  bottom: "inception_3a/1x1"
  top: "inception_3a/1x1"
}
layer {
  name: "inception_3a/3x3_reduce"
  type: "Convolution"
  bottom: "pool2/3x3_s2"
  top: "inception_3a/3x3_reduce"
  param {
    lr_mult: 1
    decay_mult: 1
  }
  param {
    lr_mult: 2
    decay_mult: 0
  }
  convolution_param {
    num_output: 96
    kernel_size: 1
    weight_filler {
      type: "xavier"
      std: 0.09
    }
    bias_filler {
      type: "constant"
      value: 0.2
    }
  }
}
layer {
  name: "inception_3a/relu_3x3_reduce"
  type: "ReLU"
  bottom: "inception_3a/3x3_reduce"
  top: "inception_3a/3x3_reduce"
}
layer {
  name: "inception_3a/3x3"
  type: "Convolution"
  bottom: "inception_3a/3x3_reduce"
  top: "inception_3a/3x3"
  param {
    lr_mult: 1
    decay_mult: 1
  }
  param {
    lr_mult: 2
    decay_mult: 0
  }
  convolution_param {
    num_output: 128
    pad: 1
    kernel_size: 3
    weight_filler {
      type: "xavier"
      std: 0.03
    }
    bias_filler {
      type: "constant"
      value: 0.2
    }
  }
}
layer {
  name: "inception_3a/relu_3x3"
  type: "ReLU"
  bottom: "inception_3a/3x3"
  top: "inception_3a/3x3"
}
layer {
  name: "inception_3a/5x5_reduce"
  type: "Convolution"
  bottom: "pool2/3x3_s2"
  top: "inception_3a/5x5_reduce"
  param {
    lr_mult: 1
    decay_mult: 1
  }
  param {
    lr_mult: 2
    decay_mult: 0
  }
  convolution_param {
    num_output: 16
    kernel_size: 1
    weight_filler {
      type: "xavier"
      std: 0.2
    }
    bias_filler {
      type: "constant"
      value: 0.2
    }
  }
}
layer {
  name: "inception_3a/relu_5x5_reduce"
  type: "ReLU"
  bottom: "inception_3a/5x5_reduce"
  top: "inception_3a/5x5_reduce"
}
layer {
  name: "inception_3a/5x5"
  type: "Convolution"
  bottom: "inception_3a/5x5_reduce"
  top: "inception_3a/5x5"
  param {
    lr_mult: 1
    decay_mult: 1
  }
  param {
    lr_mult: 2
    decay_mult: 0
  }
  convolution_param {
    num_output: 32
    pad: 2
    kernel_size: 5
    weight_filler {
      type: "xavier"
      std: 0.03
    }
    bias_filler {
      type: "constant"
      value: 0.2
    }
  }
}
layer {
  name: "inception_3a/relu_5x5"
  type: "ReLU"
  bottom: "inception_3a/5x5"
  top: "inception_3a/5x5"
}
layer {
  name: "inception_3a/pool"
  type: "Pooling"
  bottom: "pool2/3x3_s2"
  top: "inception_3a/pool"
  pooling_param {
    pool: MAX
    kernel_size: 3
    stride: 1
    pad: 1
  }
}
layer {
  name: "inception_3a/pool_proj"
  type: "Convolution"
  bottom: "inception_3a/pool"
  top: "inception_3a/pool_proj"
  param {
    lr_mult: 1
    decay_mult: 1
  }
  param {
    lr_mult: 2
    decay_mult: 0
  }
  convolution_param {
    num_output: 32
    kernel_size: 1
    weight_filler {
      type: "xavier"
      std: 0.1
    }
    bias_filler {
      type: "constant"
      value: 0.2
    }
  }
}
layer {
  name: "inception_3a/relu_pool_proj"
  type: "ReLU"
  bottom: "inception_3a/pool_proj"
  top: "inception_3a/pool_proj"
}
layer {
  name: "inception_3a/output"
  type: "Concat"
  bottom: "inception_3a/1x1"
  bottom: "inception_3a/3x3"
  bottom: "inception_3a/5x5"
  bottom: "inception_3a/pool_proj"
  top: "inception_3a/output"
}
layer {
  name: "inception_3b/1x1"
  type: "Convolution"
  bottom: "inception_3a/output"
  top: "inception_3b/1x1"
  param {
    lr_mult: 1
    decay_mult: 1
  }
  param {
    lr_mult: 2
    decay_mult: 0
  }
  convolution_param {
    num_output: 128
    kernel_size: 1
    weight_filler {
      type: "xavier"
      std: 0.03
    }
    bias_filler {
      type: "constant"
      value: 0.2
    }
  }
}
layer {
  name: "inception_3b/relu_1x1"
  type: "ReLU"
  bottom: "inception_3b/1x1"
  top: "inception_3b/1x1"
}
layer {
  name: "inception_3b/3x3_reduce"
  type: "Convolution"
  bottom: "inception_3a/output"
  top: "inception_3b/3x3_reduce"
  param {
    lr_mult: 1
    decay_mult: 1
  }
  param {
    lr_mult: 2
    decay_mult: 0
  }
  convolution_param {
    num_output: 128
    kernel_size: 1
    weight_filler {
      type: "xavier"
      std: 0.09
    }
    bias_filler {
      type: "constant"
      value: 0.2
    }
  }
}
layer {
  name: "inception_3b/relu_3x3_reduce"
  type: "ReLU"
  bottom: "inception_3b/3x3_reduce"
  top: "inception_3b/3x3_reduce"
}
layer {
  name: "inception_3b/3x3"
  type: "Convolution"
  bottom: "inception_3b/3x3_reduce"
  top: "inception_3b/3x3"
  param {
    lr_mult: 1
    decay_mult: 1
  }
  param {
    lr_mult: 2
    decay_mult: 0
  }
  convolution_param {
    num_output: 192
    pad: 1
    kernel_size: 3
    weight_filler {
      type: "xavier"
      std: 0.03
    }
    bias_filler {
      type: "constant"
      value: 0.2
    }
  }
}
layer {
  name: "inception_3b/relu_3x3"
  type: "ReLU"
  bottom: "inception_3b/3x3"
  top: "inception_3b/3x3"
}
layer {
  name: "inception_3b/5x5_reduce"
  type: "Convolution"
  bottom: "inception_3a/output"
  top: "inception_3b/5x5_reduce"
  param {
    lr_mult: 1
    decay_mult: 1
  }
  param {
    lr_mult: 2
    decay_mult: 0
  }
  convolution_param {
    num_output: 32
    kernel_size: 1
    weight_filler {
      type: "xavier"
      std: 0.2
    }
    bias_filler {
      type: "constant"
      value: 0.2
    }
  }
}
layer {
  name: "inception_3b/relu_5x5_reduce"
  type: "ReLU"
  bottom: "inception_3b/5x5_reduce"
  top: "inception_3b/5x5_reduce"
}
layer {
  name: "inception_3b/5x5"
  type: "Convolution"
  bottom: "inception_3b/5x5_reduce"
  top: "inception_3b/5x5"
  param {
    lr_mult: 1
    decay_mult: 1
  }
  param {
    lr_mult: 2
    decay_mult: 0
  }
  convolution_param {
    num_output: 96
    pad: 2
    kernel_size: 5
    weight_filler {
      type: "xavier"
      std: 0.03
    }
    bias_filler {
      type: "constant"
      value: 0.2
    }
  }
}
layer {
  name: "inception_3b/relu_5x5"
  type: "ReLU"
  bottom: "inception_3b/5x5"
  top: "inception_3b/5x5"
}
layer {
  name: "inception_3b/pool"
  type: "Pooling"
  bottom: "inception_3a/output"
  top: "inception_3b/pool"
  pooling_param {
    pool: MAX
    kernel_size: 3
    stride: 1
    pad: 1
  }
}
layer {
  name: "inception_3b/pool_proj"
  type: "Convolution"
  bottom: "inception_3b/pool"
  top: "inception_3b/pool_proj"
  param {
    lr_mult: 1
    decay_mult: 1
  }
  param {
    lr_mult: 2
    decay_mult: 0
  }
  convolution_param {
    num_output: 64
    kernel_size: 1
    weight_filler {
      type: "xavier"
      std: 0.1
    }
    bias_filler {
      type: "constant"
      value: 0.2
    }
  }
}
layer {
  name: "inception_3b/relu_pool_proj"
  type: "ReLU"
  bottom: "inception_3b/pool_proj"
  top: "inception_3b/pool_proj"
}
layer {
  name: "inception_3b/output"
  type: "Concat"
  bottom: "inception_3b/1x1"
  bottom: "inception_3b/3x3"
  bottom: "inception_3b/5x5"
  bottom: "inception_3b/pool_proj"
  top: "inception_3b/output"
}
layer {
  name: "pool3/3x3_s2"
  type: "Pooling"
  bottom: "inception_3b/output"
  top: "pool3/3x3_s2"
  pooling_param {
    pool: MAX
    kernel_size: 3
    stride: 2
  }
}
layer {
  name: "inception_4a/1x1"
  type: "Convolution"
  bottom: "pool3/3x3_s2"
  top: "inception_4a/1x1"
  param {
    lr_mult: 1
    decay_mult: 1
  }
  param {
    lr_mult: 2
    decay_mult: 0
  }
  convolution_param {
    num_output: 192
    kernel_size: 1
    weight_filler {
      type: "xavier"
      std: 0.03
    }
    bias_filler {
      type: "constant"
      value: 0.2
    }
  }
}
layer {
  name: "inception_4a/relu_1x1"
  type: "ReLU"
  bottom: "inception_4a/1x1"
  top: "inception_4a/1x1"
}
layer {
  name: "inception_4a/3x3_reduce"
  type: "Convolution"
  bottom: "pool3/3x3_s2"
  top: "inception_4a/3x3_reduce"
  param {
    lr_mult: 1
    decay_mult: 1
  }
  param {
    lr_mult: 2
    decay_mult: 0
  }
  convolution_param {
    num_output: 96
    kernel_size: 1
    weight_filler {
      type: "xavier"
      std: 0.09
    }
    bias_filler {
      type: "constant"
      value: 0.2
    }
  }
}
layer {
  name: "inception_4a/relu_3x3_reduce"
  type: "ReLU"
  bottom: "inception_4a/3x3_reduce"
  top: "inception_4a/3x3_reduce"
}
layer {
  name: "inception_4a/3x3"
  type: "Convolution"
  bottom: "inception_4a/3x3_reduce"
  top: "inception_4a/3x3"
  param {
    lr_mult: 1
    decay_mult: 1
  }
  param {
    lr_mult: 2
    decay_mult: 0
  }
  convolution_param {
    num_output: 208
    pad: 1
    kernel_size: 3
    weight_filler {
      type: "xavier"
      std: 0.03
    }
    bias_filler {
      type: "constant"
      value: 0.2
    }
  }
}
layer {
  name: "inception_4a/relu_3x3"
  type: "ReLU"
  bottom: "inception_4a/3x3"
  top: "inception_4a/3x3"
}
layer {
  name: "inception_4a/5x5_reduce"
  type: "Convolution"
  bottom: "pool3/3x3_s2"
  top: "inception_4a/5x5_reduce"
  param {
    lr_mult: 1
    decay_mult: 1
  }
  param {
    lr_mult: 2
    decay_mult: 0
  }
  convolution_param {
    num_output: 16
    kernel_size: 1
    weight_filler {
      type: "xavier"
      std: 0.2
    }
    bias_filler {
      type: "constant"
      value: 0.2
    }
  }
}
layer {
  name: "inception_4a/relu_5x5_reduce"
  type: "ReLU"
  bottom: "inception_4a/5x5_reduce"
  top: "inception_4a/5x5_reduce"
}
layer {
  name: "inception_4a/5x5"
  type: "Convolution"
  bottom: "inception_4a/5x5_reduce"
  top: "inception_4a/5x5"
  param {
    lr_mult: 1
    decay_mult: 1
  }
  param {
    lr_mult: 2
    decay_mult: 0
  }
  convolution_param {
    num_output: 48
    pad: 2
    kernel_size: 5
    weight_filler {
      type: "xavier"
      std: 0.03
    }
    bias_filler {
      type: "constant"
      value: 0.2
    }
  }
}
layer {
  name: "inception_4a/relu_5x5"
  type: "ReLU"
  bottom: "inception_4a/5x5"
  top: "inception_4a/5x5"
}
layer {
  name: "inception_4a/pool"
  type: "Pooling"
  bottom: "pool3/3x3_s2"
  top: "inception_4a/pool"
  pooling_param {
    pool: MAX
    kernel_size: 3
    stride: 1
    pad: 1
  }
}
layer {
  name: "inception_4a/pool_proj"
  type: "Convolution"
  bottom: "inception_4a/pool"
  top: "inception_4a/pool_proj"
  param {
    lr_mult: 1
    decay_mult: 1
  }
  param {
    lr_mult: 2
    decay_mult: 0
  }
  convolution_param {
    num_output: 64
    kernel_size: 1
    weight_filler {
      type: "xavier"
      std: 0.1
    }
    bias_filler {
      type: "constant"
      value: 0.2
    }
  }
}
layer {
  name: "inception_4a/relu_pool_proj"
  type: "ReLU"
  bottom: "inception_4a/pool_proj"
  top: "inception_4a/pool_proj"
}
layer {
  name: "inception_4a/output"
  type: "Concat"
  bottom: "inception_4a/1x1"
  bottom: "inception_4a/3x3"
  bottom: "inception_4a/5x5"
  bottom: "inception_4a/pool_proj"
  top: "inception_4a/output"
}
layer {
  name: "loss1/ave_pool"
  type: "Pooling"
  bottom: "inception_4a/output"
  top: "loss1/ave_pool"
  pooling_param {
    pool: AVE
    kernel_size: 5
    stride: 3
  }
}
layer {
  name: "loss1/conv"
  type: "Convolution"
  bottom: "loss1/ave_pool"
  top: "loss1/conv"
  param {
    lr_mult: 1
    decay_mult: 1
  }
  param {
    lr_mult: 2
    decay_mult: 0
  }
  convolution_param {
    num_output: 128
    kernel_size: 1
    weight_filler {
      type: "xavier"
      std: 0.08
    }
    bias_filler {
      type: "constant"
      value: 0.2
    }
  }
}
layer {
  name: "loss1/relu_conv"
  type: "ReLU"
  bottom: "loss1/conv"
  top: "loss1/conv"
}
layer {
  name: "loss1/fc"
  type: "InnerProduct"
  bottom: "loss1/conv"
  top: "loss1/fc"
  param {
    lr_mult: 1
    decay_mult: 1
  }
  param {
    lr_mult: 2
    decay_mult: 0
  }
  inner_product_param {
    num_output: 1024
    weight_filler {
      type: "xavier"
      std: 0.02
    }
    bias_filler {
      type: "constant"
      value: 0.2
    }
  }
}
layer {
  name: "loss1/relu_fc"
  type: "ReLU"
  bottom: "loss1/fc"
  top: "loss1/fc"
}
layer {
  name: "loss1/drop_fc"
  type: "Dropout"
  bottom: "loss1/fc"
  top: "loss1/fc"
  dropout_param {
    dropout_ratio: 0.7
  }
}
layer {
  name: "loss1/classifier_plantvillage"
  type: "InnerProduct"
  bottom: "loss1/fc"
  top: "loss1/classifier_plantvillage"
  param {
    lr_mult: 1
    decay_mult: 1
  }
  param {
    lr_mult: 2
    decay_mult: 0
  }
  inner_product_param {
    num_output: 38
    weight_filler {
      type: "xavier"
      std: 0.0009765625
    }
    bias_filler {
      type: "constant"
      value: 0
    }
  }
}
layer {
  name: "inception_4b/1x1"
  type: "Convolution"
  bottom: "inception_4a/output"
  top: "inception_4b/1x1"
  param {
    lr_mult: 1
    decay_mult: 1
  }
  param {
    lr_mult: 2
    decay_mult: 0
  }
  convolution_param {
    num_output: 160
    kernel_size: 1
    weight_filler {
      type: "xavier"
      std: 0.03
    }
    bias_filler {
      type: "constant"
      value: 0.2
    }
  }
}
layer {
  name: "inception_4b/relu_1x1"
  type: "ReLU"
  bottom: "inception_4b/1x1"
  top: "inception_4b/1x1"
}
layer {
  name: "inception_4b/3x3_reduce"
  type: "Convolution"
  bottom: "inception_4a/output"
  top: "inception_4b/3x3_reduce"
  param {
    lr_mult: 1
    decay_mult: 1
  }
  param {
    lr_mult: 2
    decay_mult: 0
  }
  convolution_param {
    num_output: 112
    kernel_size: 1
    weight_filler {
      type: "xavier"
      std: 0.09
    }
    bias_filler {
      type: "constant"
      value: 0.2
    }
  }
}
layer {
  name: "inception_4b/relu_3x3_reduce"
  type: "ReLU"
  bottom: "inception_4b/3x3_reduce"
  top: "inception_4b/3x3_reduce"
}
layer {
  name: "inception_4b/3x3"
  type: "Convolution"
  bottom: "inception_4b/3x3_reduce"
  top: "inception_4b/3x3"
  param {
    lr_mult: 1
    decay_mult: 1
  }
  param {
    lr_mult: 2
    decay_mult: 0
  }
  convolution_param {
    num_output: 224
    pad: 1
    kernel_size: 3
    weight_filler {
      type: "xavier"
      std: 0.03
    }
    bias_filler {
      type: "constant"
      value: 0.2
    }
  }
}
layer {
  name: "inception_4b/relu_3x3"
  type: "ReLU"
  bottom: "inception_4b/3x3"
  top: "inception_4b/3x3"
}
layer {
  name: "inception_4b/5x5_reduce"
  type: "Convolution"
  bottom: "inception_4a/output"
  top: "inception_4b/5x5_reduce"
  param {
    lr_mult: 1
    decay_mult: 1
  }
  param {
    lr_mult: 2
    decay_mult: 0
  }
  convolution_param {
    num_output: 24
    kernel_size: 1
    weight_filler {
      type: "xavier"
      std: 0.2
    }
    bias_filler {
      type: "constant"
      value: 0.2
    }
  }
}
layer {
  name: "inception_4b/relu_5x5_reduce"
  type: "ReLU"
  bottom: "inception_4b/5x5_reduce"
  top: "inception_4b/5x5_reduce"
}
layer {
  name: "inception_4b/5x5"
  type: "Convolution"
  bottom: "inception_4b/5x5_reduce"
  top: "inception_4b/5x5"
  param {
    lr_mult: 1
    decay_mult: 1
  }
  param {
    lr_mult: 2
    decay_mult: 0
  }
  convolution_param {
    num_output: 64
    pad: 2
    kernel_size: 5
    weight_filler {
      type: "xavier"
      std: 0.03
    }
    bias_filler {
      type: "constant"
      value: 0.2
    }
  }
}
layer {
  name: "inception_4b/relu_5x5"
  type: "ReLU"
  bottom: "inception_4b/5x5"
  top: "inception_4b/5x5"
}
layer {
  name: "inception_4b/pool"
  type: "Pooling"
  bottom: "inception_4a/output"
  top: "inception_4b/pool"
  pooling_param {
    pool: MAX
    kernel_size: 3
    stride: 1
    pad: 1
  }
}
layer {
  name: "inception_4b/pool_proj"
  type: "Convolution"
  bottom: "inception_4b/pool"
  top: "inception_4b/pool_proj"
  param {
    lr_mult: 1
    decay_mult: 1
  }
  param {
    lr_mult: 2
    decay_mult: 0
  }
  convolution_param {
    num_output: 64
    kernel_size: 1
    weight_filler {
      type: "xavier"
      std: 0.1
    }
    bias_filler {
      type: "constant"
      value: 0.2
    }
  }
}
layer {
  name: "inception_4b/relu_pool_proj"
  type: "ReLU"
  bottom: "inception_4b/pool_proj"
  top: "inception_4b/pool_proj"
}
layer {
  name: "inception_4b/output"
  type: "Concat"
  bottom: "inception_4b/1x1"
  bottom: "inception_4b/3x3"
  bottom: "inception_4b/5x5"
  bottom: "inception_4b/pool_proj"
  top: "inception_4b/output"
}
layer {
  name: "inception_4c/1x1"
  type: "Convolution"
  bottom: "inception_4b/output"
  top: "inception_4c/1x1"
  param {
    lr_mult: 1
    decay_mult: 1
  }
  param {
    lr_mult: 2
    decay_mult: 0
  }
  convolution_param {
    num_output: 128
    kernel_size: 1
    weight_filler {
      type: "xavier"
      std: 0.03
    }
    bias_filler {
      type: "constant"
      value: 0.2
    }
  }
}
layer {
  name: "inception_4c/relu_1x1"
  type: "ReLU"
  bottom: "inception_4c/1x1"
  top: "inception_4c/1x1"
}
layer {
  name: "inception_4c/3x3_reduce"
  type: "Convolution"
  bottom: "inception_4b/output"
  top: "inception_4c/3x3_reduce"
  param {
    lr_mult: 1
    decay_mult: 1
  }
  param {
    lr_mult: 2
    decay_mult: 0
  }
  convolution_param {
    num_output: 128
    kernel_size: 1
    weight_filler {
      type: "xavier"
      std: 0.09
    }
    bias_filler {
      type: "constant"
      value: 0.2
    }
  }
}
layer {
  name: "inception_4c/relu_3x3_reduce"
  type: "ReLU"
  bottom: "inception_4c/3x3_reduce"
  top: "inception_4c/3x3_reduce"
}
layer {
  name: "inception_4c/3x3"
  type: "Convolution"
  bottom: "inception_4c/3x3_reduce"
  top: "inception_4c/3x3"
  param {
    lr_mult: 1
    decay_mult: 1
  }
  param {
    lr_mult: 2
    decay_mult: 0
  }
  convolution_param {
    num_output: 256
    pad: 1
    kernel_size: 3
    weight_filler {
      type: "xavier"
      std: 0.03
    }
    bias_filler {
      type: "constant"
      value: 0.2
    }
  }
}
layer {
  name: "inception_4c/relu_3x3"
  type: "ReLU"
  bottom: "inception_4c/3x3"
  top: "inception_4c/3x3"
}
layer {
  name: "inception_4c/5x5_reduce"
  type: "Convolution"
  bottom: "inception_4b/output"
  top: "inception_4c/5x5_reduce"
  param {
    lr_mult: 1
    decay_mult: 1
  }
  param {
    lr_mult: 2
    decay_mult: 0
  }
  convolution_param {
    num_output: 24
    kernel_size: 1
    weight_filler {
      type: "xavier"
      std: 0.2
    }
    bias_filler {
      type: "constant"
      value: 0.2
    }
  }
}
layer {
  name: "inception_4c/relu_5x5_reduce"
  type: "ReLU"
  bottom: "inception_4c/5x5_reduce"
  top: "inception_4c/5x5_reduce"
}
layer {
  name: "inception_4c/5x5"
  type: "Convolution"
  bottom: "inception_4c/5x5_reduce"
  top: "inception_4c/5x5"
  param {
    lr_mult: 1
    decay_mult: 1
  }
  param {
    lr_mult: 2
    decay_mult: 0
  }
  convolution_param {
    num_output: 64
    pad: 2
    kernel_size: 5
    weight_filler {
      type: "xavier"
      std: 0.03
    }
    bias_filler {
      type: "constant"
      value: 0.2
    }
  }
}
layer {
  name: "inception_4c/relu_5x5"
  type: "ReLU"
  bottom: "inception_4c/5x5"
  top: "inception_4c/5x5"
}
layer {
  name: "inception_4c/pool"
  type: "Pooling"
  bottom: "inception_4b/output"
  top: "inception_4c/pool"
  pooling_param {
    pool: MAX
    kernel_size: 3
    stride: 1
    pad: 1
  }
}
layer {
  name: "inception_4c/pool_proj"
  type: "Convolution"
  bottom: "inception_4c/pool"
  top: "inception_4c/pool_proj"
  param {
    lr_mult: 1
    decay_mult: 1
  }
  param {
    lr_mult: 2
    decay_mult: 0
  }
  convolution_param {
    num_output: 64
    kernel_size: 1
    weight_filler {
      type: "xavier"
      std: 0.1
    }
    bias_filler {
      type: "constant"
      value: 0.2
    }
  }
}
layer {
  name: "inception_4c/relu_pool_proj"
  type: "ReLU"
  bottom: "inception_4c/pool_proj"
  top: "inception_4c/pool_proj"
}
layer {
  name: "inception_4c/output"
  type: "Concat"
  bottom: "inception_4c/1x1"
  bottom: "inception_4c/3x3"
  bottom: "inception_4c/5x5"
  bottom: "inception_4c/pool_proj"
  top: "inception_4c/output"
}
layer {
  name: "inception_4d/1x1"
  type: "Convolution"
  bottom: "inception_4c/output"
  top: "inception_4d/1x1"
  param {
    lr_mult: 1
    decay_mult: 1
  }
  param {
    lr_mult: 2
    decay_mult: 0
  }
  convolution_param {
    num_output: 112
    kernel_size: 1
    weight_filler {
      type: "xavier"
      std: 0.03
    }
    bias_filler {
      type: "constant"
      value: 0.2
    }
  }
}
layer {
  name: "inception_4d/relu_1x1"
  type: "ReLU"
  bottom: "inception_4d/1x1"
  top: "inception_4d/1x1"
}
layer {
  name: "inception_4d/3x3_reduce"
  type: "Convolution"
  bottom: "inception_4c/output"
  top: "inception_4d/3x3_reduce"
  param {
    lr_mult: 1
    decay_mult: 1
  }
  param {
    lr_mult: 2
    decay_mult: 0
  }
  convolution_param {
    num_output: 144
    kernel_size: 1
    weight_filler {
      type: "xavier"
      std: 0.09
    }
    bias_filler {
      type: "constant"
      value: 0.2
    }
  }
}
layer {
  name: "inception_4d/relu_3x3_reduce"
  type: "ReLU"
  bottom: "inception_4d/3x3_reduce"
  top: "inception_4d/3x3_reduce"
}
layer {
  name: "inception_4d/3x3"
  type: "Convolution"
  bottom: "inception_4d/3x3_reduce"
  top: "inception_4d/3x3"
  param {
    lr_mult: 1
    decay_mult: 1
  }
  param {
    lr_mult: 2
    decay_mult: 0
  }
  convolution_param {
    num_output: 288
    pad: 1
    kernel_size: 3
    weight_filler {
      type: "xavier"
      std: 0.03
    }
    bias_filler {
      type: "constant"
      value: 0.2
    }
  }
}
layer {
  name: "inception_4d/relu_3x3"
  type: "ReLU"
  bottom: "inception_4d/3x3"
  top: "inception_4d/3x3"
}
layer {
  name: "inception_4d/5x5_reduce"
  type: "Convolution"
  bottom: "inception_4c/output"
  top: "inception_4d/5x5_reduce"
  param {
    lr_mult: 1
    decay_mult: 1
  }
  param {
    lr_mult: 2
    decay_mult: 0
  }
  convolution_param {
    num_output: 32
    kernel_size: 1
    weight_filler {
      type: "xavier"
      std: 0.2
    }
    bias_filler {
      type: "constant"
      value: 0.2
    }
  }
}
layer {
  name: "inception_4d/relu_5x5_reduce"
  type: "ReLU"
  bottom: "inception_4d/5x5_reduce"
  top: "inception_4d/5x5_reduce"
}
layer {
  name: "inception_4d/5x5"
  type: "Convolution"
  bottom: "inception_4d/5x5_reduce"
  top: "inception_4d/5x5"
  param {
    lr_mult: 1
    decay_mult: 1
  }
  param {
    lr_mult: 2
    decay_mult: 0
  }
  convolution_param {
    num_output: 64
    pad: 2
    kernel_size: 5
    weight_filler {
      type: "xavier"
      std: 0.03
    }
    bias_filler {
      type: "constant"
      value: 0.2
    }
  }
}
layer {
  name: "inception_4d/relu_5x5"
  type: "ReLU"
  bottom: "inception_4d/5x5"
  top: "inception_4d/5x5"
}
layer {
  name: "inception_4d/pool"
  type: "Pooling"
  bottom: "inception_4c/output"
  top: "inception_4d/pool"
  pooling_param {
    pool: MAX
    kernel_size: 3
    stride: 1
    pad: 1
  }
}
layer {
  name: "inception_4d/pool_proj"
  type: "Convolution"
  bottom: "inception_4d/pool"
  top: "inception_4d/pool_proj"
  param {
    lr_mult: 1
    decay_mult: 1
  }
  param {
    lr_mult: 2
    decay_mult: 0
  }
  convolution_param {
    num_output: 64
    kernel_size: 1
    weight_filler {
      type: "xavier"
      std: 0.1
    }
    bias_filler {
      type: "constant"
      value: 0.2
    }
  }
}
layer {
  name: "inception_4d/relu_pool_proj"
  type: "ReLU"
  bottom: "inception_4d/pool_proj"
  top: "inception_4d/pool_proj"
}
layer {
  name: "inception_4d/output"
  type: "Concat"
  bottom: "inception_4d/1x1"
  bottom: "inception_4d/3x3"
  bottom: "inception_4d/5x5"
  bottom: "inception_4d/pool_proj"
  top: "inception_4d/output"
}
layer {
  name: "loss2/ave_pool"
  type: "Pooling"
  bottom: "inception_4d/output"
  top: "loss2/ave_pool"
  pooling_param {
    pool: AVE
    kernel_size: 5
    stride: 3
  }
}
layer {
  name: "loss2/conv"
  type: "Convolution"
  bottom: "loss2/ave_pool"
  top: "loss2/conv"
  param {
    lr_mult: 1
    decay_mult: 1
  }
  param {
    lr_mult: 2
    decay_mult: 0
  }
  convolution_param {
    num_output: 128
    kernel_size: 1
    weight_filler {
      type: "xavier"
      std: 0.08
    }
    bias_filler {
      type: "constant"
      value: 0.2
    }
  }
}
layer {
  name: "loss2/relu_conv"
  type: "ReLU"
  bottom: "loss2/conv"
  top: "loss2/conv"
}
layer {
  name: "loss2/fc"
  type: "InnerProduct"
  bottom: "loss2/conv"
  top: "loss2/fc"
  param {
    lr_mult: 1
    decay_mult: 1
  }
  param {
    lr_mult: 2
    decay_mult: 0
  }
  inner_product_param {
    num_output: 1024
    weight_filler {
      type: "xavier"
      std: 0.02
    }
    bias_filler {
      type: "constant"
      value: 0.2
    }
  }
}
layer {
  name: "loss2/relu_fc"
  type: "ReLU"
  bottom: "loss2/fc"
  top: "loss2/fc"
}
layer {
  name: "loss2/drop_fc"
  type: "Dropout"
  bottom: "loss2/fc"
  top: "loss2/fc"
  dropout_param {
    dropout_ratio: 0.7
  }
}
layer {
  name: "loss2/classifier_plantvillage"
  type: "InnerProduct"
  bottom: "loss2/fc"
  top: "loss2/classifier_plantvillage"
  param {
    lr_mult: 1
    decay_mult: 1
  }
  param {
    lr_mult: 2
    decay_mult: 0
  }
  inner_product_param {
    num_output: 38
    weight_filler {
      type: "xavier"
      std: 0.0009765625
    }
    bias_filler {
      type: "constant"
      value: 0
    }
  }
}
layer {
  name: "inception_4e/1x1"
  type: "Convolution"
  bottom: "inception_4d/output"
  top: "inception_4e/1x1"
  param {
    lr_mult: 1
    decay_mult: 1
  }
  param {
    lr_mult: 2
    decay_mult: 0
  }
  convolution_param {
    num_output: 256
    kernel_size: 1
    weight_filler {
      type: "xavier"
      std: 0.03
    }
    bias_filler {
      type: "constant"
      value: 0.2
    }
  }
}
layer {
  name: "inception_4e/relu_1x1"
  type: "ReLU"
  bottom: "inception_4e/1x1"
  top: "inception_4e/1x1"
}
layer {
  name: "inception_4e/3x3_reduce"
  type: "Convolution"
  bottom: "inception_4d/output"
  top: "inception_4e/3x3_reduce"
  param {
    lr_mult: 1
    decay_mult: 1
  }
  param {
    lr_mult: 2
    decay_mult: 0
  }
  convolution_param {
    num_output: 160
    kernel_size: 1
    weight_filler {
      type: "xavier"
      std: 0.09
    }
    bias_filler {
      type: "constant"
      value: 0.2
    }
  }
}
layer {
  name: "inception_4e/relu_3x3_reduce"
  type: "ReLU"
  bottom: "inception_4e/3x3_reduce"
  top: "inception_4e/3x3_reduce"
}
layer {
  name: "inception_4e/3x3"
  type: "Convolution"
  bottom: "inception_4e/3x3_reduce"
  top: "inception_4e/3x3"
  param {
    lr_mult: 1
    decay_mult: 1
  }
  param {
    lr_mult: 2
    decay_mult: 0
  }
  convolution_param {
    num_output: 320
    pad: 1
    kernel_size: 3
    weight_filler {
      type: "xavier"
      std: 0.03
    }
    bias_filler {
      type: "constant"
      value: 0.2
    }
  }
}
layer {
  name: "inception_4e/relu_3x3"
  type: "ReLU"
  bottom: "inception_4e/3x3"
  top: "inception_4e/3x3"
}
layer {
  name: "inception_4e/5x5_reduce"
  type: "Convolution"
  bottom: "inception_4d/output"
  top: "inception_4e/5x5_reduce"
  param {
    lr_mult: 1
    decay_mult: 1
  }
  param {
    lr_mult: 2
    decay_mult: 0
  }
  convolution_param {
    num_output: 32
    kernel_size: 1
    weight_filler {
      type: "xavier"
      std: 0.2
    }
    bias_filler {
      type: "constant"
      value: 0.2
    }
  }
}
layer {
  name: "inception_4e/relu_5x5_reduce"
  type: "ReLU"
  bottom: "inception_4e/5x5_reduce"
  top: "inception_4e/5x5_reduce"
}
layer {
  name: "inception_4e/5x5"
  type: "Convolution"
  bottom: "inception_4e/5x5_reduce"
  top: "inception_4e/
I0403 19:11:04.726891  8843 layer_factory.hpp:77] Creating layer data
I0403 19:11:04.727497  8843 net.cpp:91] Creating Layer data
I0403 19:11:04.727529  8843 net.cpp:399] data -> data
I0403 19:11:04.727582  8843 net.cpp:399] data -> label
I0403 19:11:04.727618  8843 data_transformer.cpp:25] Loading mean file from: /home/mohanty/data/final_dataset/lmdb/grayscale-50-50/mean.binaryproto
I0403 19:11:04.728751  8846 db_lmdb.cpp:38] Opened lmdb /home/mohanty/data/final_dataset/lmdb/grayscale-50-50/test_db
I0403 19:11:04.741556  8843 data_layer.cpp:41] output data size: 24,3,224,224
I0403 19:11:04.770386  8843 net.cpp:141] Setting up data
I0403 19:11:04.770478  8843 net.cpp:148] Top shape: 24 3 224 224 (3612672)
I0403 19:11:04.770503  8843 net.cpp:148] Top shape: 24 (24)
I0403 19:11:04.770519  8843 net.cpp:156] Memory required for data: 14450784
I0403 19:11:04.770550  8843 layer_factory.hpp:77] Creating layer label_data_1_split
I0403 19:11:04.770576  8843 net.cpp:91] Creating Layer label_data_1_split
I0403 19:11:04.770594  8843 net.cpp:425] label_data_1_split <- label
I0403 19:11:04.770627  8843 net.cpp:399] label_data_1_split -> label_data_1_split_0
I0403 19:11:04.770656  8843 net.cpp:399] label_data_1_split -> label_data_1_split_1
I0403 19:11:04.770680  8843 net.cpp:399] label_data_1_split -> label_data_1_split_2
I0403 19:11:04.770704  8843 net.cpp:399] label_data_1_split -> label_data_1_split_3
I0403 19:11:04.770723  8843 net.cpp:399] label_data_1_split -> label_data_1_split_4
I0403 19:11:04.770742  8843 net.cpp:399] label_data_1_split -> label_data_1_split_5
I0403 19:11:04.770762  8843 net.cpp:399] label_data_1_split -> label_data_1_split_6
I0403 19:11:04.770783  8843 net.cpp:399] label_data_1_split -> label_data_1_split_7
I0403 19:11:04.770805  8843 net.cpp:399] label_data_1_split -> label_data_1_split_8
I0403 19:11:04.770826  8843 net.cpp:399] label_data_1_split -> label_data_1_split_9
I0403 19:11:04.770942  8843 net.cpp:141] Setting up label_data_1_split
I0403 19:11:04.770967  8843 net.cpp:148] Top shape: 24 (24)
I0403 19:11:04.770985  8843 net.cpp:148] Top shape: 24 (24)
I0403 19:11:04.771003  8843 net.cpp:148] Top shape: 24 (24)
I0403 19:11:04.771019  8843 net.cpp:148] Top shape: 24 (24)
I0403 19:11:04.771036  8843 net.cpp:148] Top shape: 24 (24)
I0403 19:11:04.771054  8843 net.cpp:148] Top shape: 24 (24)
I0403 19:11:04.771070  8843 net.cpp:148] Top shape: 24 (24)
I0403 19:11:04.771086  8843 net.cpp:148] Top shape: 24 (24)
I0403 19:11:04.771101  8843 net.cpp:148] Top shape: 24 (24)
I0403 19:11:04.771121  8843 net.cpp:148] Top shape: 24 (24)
I0403 19:11:04.771168  8843 net.cpp:156] Memory required for data: 14451744
I0403 19:11:04.771185  8843 layer_factory.hpp:77] Creating layer conv1/7x7_s2
I0403 19:11:04.771236  8843 net.cpp:91] Creating Layer conv1/7x7_s2
I0403 19:11:04.771256  8843 net.cpp:425] conv1/7x7_s2 <- data
I0403 19:11:04.771277  8843 net.cpp:399] conv1/7x7_s2 -> conv1/7x7_s2
I0403 19:11:04.919144  8843 net.cpp:141] Setting up conv1/7x7_s2
I0403 19:11:04.919255  8843 net.cpp:148] Top shape: 24 64 112 112 (19267584)
I0403 19:11:04.919272  8843 net.cpp:156] Memory required for data: 91522080
I0403 19:11:04.919306  8843 layer_factory.hpp:77] Creating layer conv1/relu_7x7
I0403 19:11:04.919333  8843 net.cpp:91] Creating Layer conv1/relu_7x7
I0403 19:11:04.919353  8843 net.cpp:425] conv1/relu_7x7 <- conv1/7x7_s2
I0403 19:11:04.919371  8843 net.cpp:386] conv1/relu_7x7 -> conv1/7x7_s2 (in-place)
I0403 19:11:04.919633  8843 net.cpp:141] Setting up conv1/relu_7x7
I0403 19:11:04.919662  8843 net.cpp:148] Top shape: 24 64 112 112 (19267584)
I0403 19:11:04.919677  8843 net.cpp:156] Memory required for data: 168592416
I0403 19:11:04.919692  8843 layer_factory.hpp:77] Creating layer pool1/3x3_s2
I0403 19:11:04.919718  8843 net.cpp:91] Creating Layer pool1/3x3_s2
I0403 19:11:04.919739  8843 net.cpp:425] pool1/3x3_s2 <- conv1/7x7_s2
I0403 19:11:04.919759  8843 net.cpp:399] pool1/3x3_s2 -> pool1/3x3_s2
I0403 19:11:04.919836  8843 net.cpp:141] Setting up pool1/3x3_s2
I0403 19:11:04.919863  8843 net.cpp:148] Top shape: 24 64 56 56 (4816896)
I0403 19:11:04.919878  8843 net.cpp:156] Memory required for data: 187860000
I0403 19:11:04.919895  8843 layer_factory.hpp:77] Creating layer pool1/norm1
I0403 19:11:04.919920  8843 net.cpp:91] Creating Layer pool1/norm1
I0403 19:11:04.919939  8843 net.cpp:425] pool1/norm1 <- pool1/3x3_s2
I0403 19:11:04.919956  8843 net.cpp:399] pool1/norm1 -> pool1/norm1
I0403 19:11:04.920260  8843 net.cpp:141] Setting up pool1/norm1
I0403 19:11:04.920287  8843 net.cpp:148] Top shape: 24 64 56 56 (4816896)
I0403 19:11:04.920302  8843 net.cpp:156] Memory required for data: 207127584
I0403 19:11:04.920317  8843 layer_factory.hpp:77] Creating layer conv2/3x3_reduce
I0403 19:11:04.920341  8843 net.cpp:91] Creating Layer conv2/3x3_reduce
I0403 19:11:04.920358  8843 net.cpp:425] conv2/3x3_reduce <- pool1/norm1
I0403 19:11:04.920377  8843 net.cpp:399] conv2/3x3_reduce -> conv2/3x3_reduce
I0403 19:11:04.921715  8843 net.cpp:141] Setting up conv2/3x3_reduce
I0403 19:11:04.921746  8843 net.cpp:148] Top shape: 24 64 56 56 (4816896)
I0403 19:11:04.921764  8843 net.cpp:156] Memory required for data: 226395168
I0403 19:11:04.921785  8843 layer_factory.hpp:77] Creating layer conv2/relu_3x3_reduce
I0403 19:11:04.921803  8843 net.cpp:91] Creating Layer conv2/relu_3x3_reduce
I0403 19:11:04.921819  8843 net.cpp:425] conv2/relu_3x3_reduce <- conv2/3x3_reduce
I0403 19:11:04.921835  8843 net.cpp:386] conv2/relu_3x3_reduce -> conv2/3x3_reduce (in-place)
I0403 19:11:04.922099  8843 net.cpp:141] Setting up conv2/relu_3x3_reduce
I0403 19:11:04.922128  8843 net.cpp:148] Top shape: 24 64 56 56 (4816896)
I0403 19:11:04.922144  8843 net.cpp:156] Memory required for data: 245662752
I0403 19:11:04.922159  8843 layer_factory.hpp:77] Creating layer conv2/3x3
I0403 19:11:04.922196  8843 net.cpp:91] Creating Layer conv2/3x3
I0403 19:11:04.922216  8843 net.cpp:425] conv2/3x3 <- conv2/3x3_reduce
I0403 19:11:04.922240  8843 net.cpp:399] conv2/3x3 -> conv2/3x3
I0403 19:11:04.924667  8843 net.cpp:141] Setting up conv2/3x3
I0403 19:11:04.924700  8843 net.cpp:148] Top shape: 24 192 56 56 (14450688)
I0403 19:11:04.924717  8843 net.cpp:156] Memory required for data: 303465504
I0403 19:11:04.924738  8843 layer_factory.hpp:77] Creating layer conv2/relu_3x3
I0403 19:11:04.924757  8843 net.cpp:91] Creating Layer conv2/relu_3x3
I0403 19:11:04.924773  8843 net.cpp:425] conv2/relu_3x3 <- conv2/3x3
I0403 19:11:04.924798  8843 net.cpp:386] conv2/relu_3x3 -> conv2/3x3 (in-place)
I0403 19:11:04.924970  8843 net.cpp:141] Setting up conv2/relu_3x3
I0403 19:11:04.924995  8843 net.cpp:148] Top shape: 24 192 56 56 (14450688)
I0403 19:11:04.925045  8843 net.cpp:156] Memory required for data: 361268256
I0403 19:11:04.925060  8843 layer_factory.hpp:77] Creating layer conv2/norm2
I0403 19:11:04.925081  8843 net.cpp:91] Creating Layer conv2/norm2
I0403 19:11:04.925097  8843 net.cpp:425] conv2/norm2 <- conv2/3x3
I0403 19:11:04.925117  8843 net.cpp:399] conv2/norm2 -> conv2/norm2
I0403 19:11:04.925420  8843 net.cpp:141] Setting up conv2/norm2
I0403 19:11:04.925447  8843 net.cpp:148] Top shape: 24 192 56 56 (14450688)
I0403 19:11:04.925465  8843 net.cpp:156] Memory required for data: 419071008
I0403 19:11:04.925480  8843 layer_factory.hpp:77] Creating layer pool2/3x3_s2
I0403 19:11:04.925498  8843 net.cpp:91] Creating Layer pool2/3x3_s2
I0403 19:11:04.925515  8843 net.cpp:425] pool2/3x3_s2 <- conv2/norm2
I0403 19:11:04.925532  8843 net.cpp:399] pool2/3x3_s2 -> pool2/3x3_s2
I0403 19:11:04.925586  8843 net.cpp:141] Setting up pool2/3x3_s2
I0403 19:11:04.925609  8843 net.cpp:148] Top shape: 24 192 28 28 (3612672)
I0403 19:11:04.925624  8843 net.cpp:156] Memory required for data: 433521696
I0403 19:11:04.925638  8843 layer_factory.hpp:77] Creating layer pool2/3x3_s2_pool2/3x3_s2_0_split
I0403 19:11:04.925657  8843 net.cpp:91] Creating Layer pool2/3x3_s2_pool2/3x3_s2_0_split
I0403 19:11:04.925673  8843 net.cpp:425] pool2/3x3_s2_pool2/3x3_s2_0_split <- pool2/3x3_s2
I0403 19:11:04.925693  8843 net.cpp:399] pool2/3x3_s2_pool2/3x3_s2_0_split -> pool2/3x3_s2_pool2/3x3_s2_0_split_0
I0403 19:11:04.925714  8843 net.cpp:399] pool2/3x3_s2_pool2/3x3_s2_0_split -> pool2/3x3_s2_pool2/3x3_s2_0_split_1
I0403 19:11:04.925734  8843 net.cpp:399] pool2/3x3_s2_pool2/3x3_s2_0_split -> pool2/3x3_s2_pool2/3x3_s2_0_split_2
I0403 19:11:04.925753  8843 net.cpp:399] pool2/3x3_s2_pool2/3x3_s2_0_split -> pool2/3x3_s2_pool2/3x3_s2_0_split_3
I0403 19:11:04.925827  8843 net.cpp:141] Setting up pool2/3x3_s2_pool2/3x3_s2_0_split
I0403 19:11:04.925849  8843 net.cpp:148] Top shape: 24 192 28 28 (3612672)
I0403 19:11:04.925865  8843 net.cpp:148] Top shape: 24 192 28 28 (3612672)
I0403 19:11:04.925881  8843 net.cpp:148] Top shape: 24 192 28 28 (3612672)
I0403 19:11:04.925895  8843 net.cpp:148] Top shape: 24 192 28 28 (3612672)
I0403 19:11:04.925909  8843 net.cpp:156] Memory required for data: 491324448
I0403 19:11:04.925923  8843 layer_factory.hpp:77] Creating layer inception_3a/1x1
I0403 19:11:04.925947  8843 net.cpp:91] Creating Layer inception_3a/1x1
I0403 19:11:04.925964  8843 net.cpp:425] inception_3a/1x1 <- pool2/3x3_s2_pool2/3x3_s2_0_split_0
I0403 19:11:04.925986  8843 net.cpp:399] inception_3a/1x1 -> inception_3a/1x1
I0403 19:11:04.927539  8843 net.cpp:141] Setting up inception_3a/1x1
I0403 19:11:04.927572  8843 net.cpp:148] Top shape: 24 64 28 28 (1204224)
I0403 19:11:04.927588  8843 net.cpp:156] Memory required for data: 496141344
I0403 19:11:04.927608  8843 layer_factory.hpp:77] Creating layer inception_3a/relu_1x1
I0403 19:11:04.927628  8843 net.cpp:91] Creating Layer inception_3a/relu_1x1
I0403 19:11:04.927644  8843 net.cpp:425] inception_3a/relu_1x1 <- inception_3a/1x1
I0403 19:11:04.927664  8843 net.cpp:386] inception_3a/relu_1x1 -> inception_3a/1x1 (in-place)
I0403 19:11:04.927834  8843 net.cpp:141] Setting up inception_3a/relu_1x1
I0403 19:11:04.927860  8843 net.cpp:148] Top shape: 24 64 28 28 (1204224)
I0403 19:11:04.927873  8843 net.cpp:156] Memory required for data: 500958240
I0403 19:11:04.927889  8843 layer_factory.hpp:77] Creating layer inception_3a/3x3_reduce
I0403 19:11:04.927911  8843 net.cpp:91] Creating Layer inception_3a/3x3_reduce
I0403 19:11:04.927930  8843 net.cpp:425] inception_3a/3x3_reduce <- pool2/3x3_s2_pool2/3x3_s2_0_split_1
I0403 19:11:04.927950  8843 net.cpp:399] inception_3a/3x3_reduce -> inception_3a/3x3_reduce
I0403 19:11:04.929626  8843 net.cpp:141] Setting up inception_3a/3x3_reduce
I0403 19:11:04.929658  8843 net.cpp:148] Top shape: 24 96 28 28 (1806336)
I0403 19:11:04.929677  8843 net.cpp:156] Memory required for data: 508183584
I0403 19:11:04.929697  8843 layer_factory.hpp:77] Creating layer inception_3a/relu_3x3_reduce
I0403 19:11:04.929733  8843 net.cpp:91] Creating Layer inception_3a/relu_3x3_reduce
I0403 19:11:04.929750  8843 net.cpp:425] inception_3a/relu_3x3_reduce <- inception_3a/3x3_reduce
I0403 19:11:04.929774  8843 net.cpp:386] inception_3a/relu_3x3_reduce -> inception_3a/3x3_reduce (in-place)
I0403 19:11:04.929954  8843 net.cpp:141] Setting up inception_3a/relu_3x3_reduce
I0403 19:11:04.929978  8843 net.cpp:148] Top shape: 24 96 28 28 (1806336)
I0403 19:11:04.929994  8843 net.cpp:156] Memory required for data: 515408928
I0403 19:11:04.930008  8843 layer_factory.hpp:77] Creating layer inception_3a/3x3
I0403 19:11:04.930032  8843 net.cpp:91] Creating Layer inception_3a/3x3
I0403 19:11:04.930048  8843 net.cpp:425] inception_3a/3x3 <- inception_3a/3x3_reduce
I0403 19:11:04.930070  8843 net.cpp:399] inception_3a/3x3 -> inception_3a/3x3
I0403 19:11:04.931701  8843 net.cpp:141] Setting up inception_3a/3x3
I0403 19:11:04.931731  8843 net.cpp:148] Top shape: 24 128 28 28 (2408448)
I0403 19:11:04.931748  8843 net.cpp:156] Memory required for data: 525042720
I0403 19:11:04.931766  8843 layer_factory.hpp:77] Creating layer inception_3a/relu_3x3
I0403 19:11:04.931784  8843 net.cpp:91] Creating Layer inception_3a/relu_3x3
I0403 19:11:04.931800  8843 net.cpp:425] inception_3a/relu_3x3 <- inception_3a/3x3
I0403 19:11:04.931820  8843 net.cpp:386] inception_3a/relu_3x3 -> inception_3a/3x3 (in-place)
I0403 19:11:04.932091  8843 net.cpp:141] Setting up inception_3a/relu_3x3
I0403 19:11:04.932121  8843 net.cpp:148] Top shape: 24 128 28 28 (2408448)
I0403 19:11:04.932137  8843 net.cpp:156] Memory required for data: 534676512
I0403 19:11:04.932152  8843 layer_factory.hpp:77] Creating layer inception_3a/5x5_reduce
I0403 19:11:04.932174  8843 net.cpp:91] Creating Layer inception_3a/5x5_reduce
I0403 19:11:04.932204  8843 net.cpp:425] inception_3a/5x5_reduce <- pool2/3x3_s2_pool2/3x3_s2_0_split_2
I0403 19:11:04.932224  8843 net.cpp:399] inception_3a/5x5_reduce -> inception_3a/5x5_reduce
I0403 19:11:04.933181  8843 net.cpp:141] Setting up inception_3a/5x5_reduce
I0403 19:11:04.933209  8843 net.cpp:148] Top shape: 24 16 28 28 (301056)
I0403 19:11:04.933225  8843 net.cpp:156] Memory required for data: 535880736
I0403 19:11:04.933243  8843 layer_factory.hpp:77] Creating layer inception_3a/relu_5x5_reduce
I0403 19:11:04.933262  8843 net.cpp:91] Creating Layer inception_3a/relu_5x5_reduce
I0403 19:11:04.933287  8843 net.cpp:425] inception_3a/relu_5x5_reduce <- inception_3a/5x5_reduce
I0403 19:11:04.933306  8843 net.cpp:386] inception_3a/relu_5x5_reduce -> inception_3a/5x5_reduce (in-place)
I0403 19:11:04.933578  8843 net.cpp:141] Setting up inception_3a/relu_5x5_reduce
I0403 19:11:04.933604  8843 net.cpp:148] Top shape: 24 16 28 28 (301056)
I0403 19:11:04.933619  8843 net.cpp:156] Memory required for data: 537084960
I0403 19:11:04.933632  8843 layer_factory.hpp:77] Creating layer inception_3a/5x5
I0403 19:11:04.933655  8843 net.cpp:91] Creating Layer inception_3a/5x5
I0403 19:11:04.933672  8843 net.cpp:425] inception_3a/5x5 <- inception_3a/5x5_reduce
I0403 19:11:04.933694  8843 net.cpp:399] inception_3a/5x5 -> inception_3a/5x5
I0403 19:11:04.934700  8843 net.cpp:141] Setting up inception_3a/5x5
I0403 19:11:04.934730  8843 net.cpp:148] Top shape: 24 32 28 28 (602112)
I0403 19:11:04.934746  8843 net.cpp:156] Memory required for data: 539493408
I0403 19:11:04.934764  8843 layer_factory.hpp:77] Creating layer inception_3a/relu_5x5
I0403 19:11:04.934782  8843 net.cpp:91] Creating Layer inception_3a/relu_5x5
I0403 19:11:04.934798  8843 net.cpp:425] inception_3a/relu_5x5 <- inception_3a/5x5
I0403 19:11:04.934819  8843 net.cpp:386] inception_3a/relu_5x5 -> inception_3a/5x5 (in-place)
I0403 19:11:04.934990  8843 net.cpp:141] Setting up inception_3a/relu_5x5
I0403 19:11:04.935015  8843 net.cpp:148] Top shape: 24 32 28 28 (602112)
I0403 19:11:04.935029  8843 net.cpp:156] Memory required for data: 541901856
I0403 19:11:04.935045  8843 layer_factory.hpp:77] Creating layer inception_3a/pool
I0403 19:11:04.935063  8843 net.cpp:91] Creating Layer inception_3a/pool
I0403 19:11:04.935094  8843 net.cpp:425] inception_3a/pool <- pool2/3x3_s2_pool2/3x3_s2_0_split_3
I0403 19:11:04.935116  8843 net.cpp:399] inception_3a/pool -> inception_3a/pool
I0403 19:11:04.935173  8843 net.cpp:141] Setting up inception_3a/pool
I0403 19:11:04.935201  8843 net.cpp:148] Top shape: 24 192 28 28 (3612672)
I0403 19:11:04.935216  8843 net.cpp:156] Memory required for data: 556352544
I0403 19:11:04.935231  8843 layer_factory.hpp:77] Creating layer inception_3a/pool_proj
I0403 19:11:04.935256  8843 net.cpp:91] Creating Layer inception_3a/pool_proj
I0403 19:11:04.935274  8843 net.cpp:425] inception_3a/pool_proj <- inception_3a/pool
I0403 19:11:04.935293  8843 net.cpp:399] inception_3a/pool_proj -> inception_3a/pool_proj
I0403 19:11:04.936247  8843 net.cpp:141] Setting up inception_3a/pool_proj
I0403 19:11:04.936275  8843 net.cpp:148] Top shape: 24 32 28 28 (602112)
I0403 19:11:04.936291  8843 net.cpp:156] Memory required for data: 558760992
I0403 19:11:04.936316  8843 layer_factory.hpp:77] Creating layer inception_3a/relu_pool_proj
I0403 19:11:04.936336  8843 net.cpp:91] Creating Layer inception_3a/relu_pool_proj
I0403 19:11:04.936359  8843 net.cpp:425] inception_3a/relu_pool_proj <- inception_3a/pool_proj
I0403 19:11:04.936378  8843 net.cpp:386] inception_3a/relu_pool_proj -> inception_3a/pool_proj (in-place)
I0403 19:11:04.936648  8843 net.cpp:141] Setting up inception_3a/relu_pool_proj
I0403 19:11:04.936677  8843 net.cpp:148] Top shape: 24 32 28 28 (602112)
I0403 19:11:04.936694  8843 net.cpp:156] Memory required for data: 561169440
I0403 19:11:04.936709  8843 layer_factory.hpp:77] Creating layer inception_3a/output
I0403 19:11:04.936728  8843 net.cpp:91] Creating Layer inception_3a/output
I0403 19:11:04.936744  8843 net.cpp:425] inception_3a/output <- inception_3a/1x1
I0403 19:11:04.936760  8843 net.cpp:425] inception_3a/output <- inception_3a/3x3
I0403 19:11:04.936776  8843 net.cpp:425] inception_3a/output <- inception_3a/5x5
I0403 19:11:04.936792  8843 net.cpp:425] inception_3a/output <- inception_3a/pool_proj
I0403 19:11:04.936811  8843 net.cpp:399] inception_3a/output -> inception_3a/output
I0403 19:11:04.936857  8843 net.cpp:141] Setting up inception_3a/output
I0403 19:11:04.936879  8843 net.cpp:148] Top shape: 24 256 28 28 (4816896)
I0403 19:11:04.936894  8843 net.cpp:156] Memory required for data: 580437024
I0403 19:11:04.936909  8843 layer_factory.hpp:77] Creating layer inception_3a/output_inception_3a/output_0_split
I0403 19:11:04.936929  8843 net.cpp:91] Creating Layer inception_3a/output_inception_3a/output_0_split
I0403 19:11:04.936946  8843 net.cpp:425] inception_3a/output_inception_3a/output_0_split <- inception_3a/output
I0403 19:11:04.936964  8843 net.cpp:399] inception_3a/output_inception_3a/output_0_split -> inception_3a/output_inception_3a/output_0_split_0
I0403 19:11:04.936985  8843 net.cpp:399] inception_3a/output_inception_3a/output_0_split -> inception_3a/output_inception_3a/output_0_split_1
I0403 19:11:04.937011  8843 net.cpp:399] inception_3a/output_inception_3a/output_0_split -> inception_3a/output_inception_3a/output_0_split_2
I0403 19:11:04.937031  8843 net.cpp:399] inception_3a/output_inception_3a/output_0_split -> inception_3a/output_inception_3a/output_0_split_3
I0403 19:11:04.937105  8843 net.cpp:141] Setting up inception_3a/output_inception_3a/output_0_split
I0403 19:11:04.937131  8843 net.cpp:148] Top shape: 24 256 28 28 (4816896)
I0403 19:11:04.937150  8843 net.cpp:148] Top shape: 24 256 28 28 (4816896)
I0403 19:11:04.937166  8843 net.cpp:148] Top shape: 24 256 28 28 (4816896)
I0403 19:11:04.937186  8843 net.cpp:148] Top shape: 24 256 28 28 (4816896)
I0403 19:11:04.937201  8843 net.cpp:156] Memory required for data: 657507360
I0403 19:11:04.937216  8843 layer_factory.hpp:77] Creating layer inception_3b/1x1
I0403 19:11:04.937239  8843 net.cpp:91] Creating Layer inception_3b/1x1
I0403 19:11:04.937258  8843 net.cpp:425] inception_3b/1x1 <- inception_3a/output_inception_3a/output_0_split_0
I0403 19:11:04.937275  8843 net.cpp:399] inception_3b/1x1 -> inception_3b/1x1
I0403 19:11:04.938407  8843 net.cpp:141] Setting up inception_3b/1x1
I0403 19:11:04.938449  8843 net.cpp:148] Top shape: 24 128 28 28 (2408448)
I0403 19:11:04.938467  8843 net.cpp:156] Memory required for data: 667141152
I0403 19:11:04.938484  8843 layer_factory.hpp:77] Creating layer inception_3b/relu_1x1
I0403 19:11:04.938503  8843 net.cpp:91] Creating Layer inception_3b/relu_1x1
I0403 19:11:04.938519  8843 net.cpp:425] inception_3b/relu_1x1 <- inception_3b/1x1
I0403 19:11:04.938536  8843 net.cpp:386] inception_3b/relu_1x1 -> inception_3b/1x1 (in-place)
I0403 19:11:04.938712  8843 net.cpp:141] Setting up inception_3b/relu_1x1
I0403 19:11:04.938738  8843 net.cpp:148] Top shape: 24 128 28 28 (2408448)
I0403 19:11:04.938755  8843 net.cpp:156] Memory required for data: 676774944
I0403 19:11:04.938769  8843 layer_factory.hpp:77] Creating layer inception_3b/3x3_reduce
I0403 19:11:04.938793  8843 net.cpp:91] Creating Layer inception_3b/3x3_reduce
I0403 19:11:04.938812  8843 net.cpp:425] inception_3b/3x3_reduce <- inception_3a/output_inception_3a/output_0_split_1
I0403 19:11:04.938830  8843 net.cpp:399] inception_3b/3x3_reduce -> inception_3b/3x3_reduce
I0403 19:11:04.939976  8843 net.cpp:141] Setting up inception_3b/3x3_reduce
I0403 19:11:04.940003  8843 net.cpp:148] Top shape: 24 128 28 28 (2408448)
I0403 19:11:04.940018  8843 net.cpp:156] Memory required for data: 686408736
I0403 19:11:04.940037  8843 layer_factory.hpp:77] Creating layer inception_3b/relu_3x3_reduce
I0403 19:11:04.940060  8843 net.cpp:91] Creating Layer inception_3b/relu_3x3_reduce
I0403 19:11:04.940078  8843 net.cpp:425] inception_3b/relu_3x3_reduce <- inception_3b/3x3_reduce
I0403 19:11:04.940095  8843 net.cpp:386] inception_3b/relu_3x3_reduce -> inception_3b/3x3_reduce (in-place)
I0403 19:11:04.940274  8843 net.cpp:141] Setting up inception_3b/relu_3x3_reduce
I0403 19:11:04.940299  8843 net.cpp:148] Top shape: 24 128 28 28 (2408448)
I0403 19:11:04.940313  8843 net.cpp:156] Memory required for data: 696042528
I0403 19:11:04.940328  8843 layer_factory.hpp:77] Creating layer inception_3b/3x3
I0403 19:11:04.940353  8843 net.cpp:91] Creating Layer inception_3b/3x3
I0403 19:11:04.940371  8843 net.cpp:425] inception_3b/3x3 <- inception_3b/3x3_reduce
I0403 19:11:04.940392  8843 net.cpp:399] inception_3b/3x3 -> inception_3b/3x3
I0403 19:11:04.943323  8843 net.cpp:141] Setting up inception_3b/3x3
I0403 19:11:04.943356  8843 net.cpp:148] Top shape: 24 192 28 28 (3612672)
I0403 19:11:04.943372  8843 net.cpp:156] Memory required for data: 710493216
I0403 19:11:04.943390  8843 layer_factory.hpp:77] Creating layer inception_3b/relu_3x3
I0403 19:11:04.943408  8843 net.cpp:91] Creating Layer inception_3b/relu_3x3
I0403 19:11:04.943423  8843 net.cpp:425] inception_3b/relu_3x3 <- inception_3b/3x3
I0403 19:11:04.943442  8843 net.cpp:386] inception_3b/relu_3x3 -> inception_3b/3x3 (in-place)
I0403 19:11:04.943717  8843 net.cpp:141] Setting up inception_3b/relu_3x3
I0403 19:11:04.943747  8843 net.cpp:148] Top shape: 24 192 28 28 (3612672)
I0403 19:11:04.943761  8843 net.cpp:156] Memory required for data: 724943904
I0403 19:11:04.943776  8843 layer_factory.hpp:77] Creating layer inception_3b/5x5_reduce
I0403 19:11:04.943799  8843 net.cpp:91] Creating Layer inception_3b/5x5_reduce
I0403 19:11:04.943819  8843 net.cpp:425] inception_3b/5x5_reduce <- inception_3a/output_inception_3a/output_0_split_2
I0403 19:11:04.943836  8843 net.cpp:399] inception_3b/5x5_reduce -> inception_3b/5x5_reduce
I0403 19:11:04.944824  8843 net.cpp:141] Setting up inception_3b/5x5_reduce
I0403 19:11:04.944854  8843 net.cpp:148] Top shape: 24 32 28 28 (602112)
I0403 19:11:04.944871  8843 net.cpp:156] Memory required for data: 727352352
I0403 19:11:04.944890  8843 layer_factory.hpp:77] Creating layer inception_3b/relu_5x5_reduce
I0403 19:11:04.944910  8843 net.cpp:91] Creating Layer inception_3b/relu_5x5_reduce
I0403 19:11:04.944926  8843 net.cpp:425] inception_3b/relu_5x5_reduce <- inception_3b/5x5_reduce
I0403 19:11:04.944946  8843 net.cpp:386] inception_3b/relu_5x5_reduce -> inception_3b/5x5_reduce (in-place)
I0403 19:11:04.945135  8843 net.cpp:141] Setting up inception_3b/relu_5x5_reduce
I0403 19:11:04.945160  8843 net.cpp:148] Top shape: 24 32 28 28 (602112)
I0403 19:11:04.945175  8843 net.cpp:156] Memory required for data: 729760800
I0403 19:11:04.945196  8843 layer_factory.hpp:77] Creating layer inception_3b/5x5
I0403 19:11:04.945219  8843 net.cpp:91] Creating Layer inception_3b/5x5
I0403 19:11:04.945235  8843 net.cpp:425] inception_3b/5x5 <- inception_3b/5x5_reduce
I0403 19:11:04.945256  8843 net.cpp:399] inception_3b/5x5 -> inception_3b/5x5
I0403 19:11:04.947206  8843 net.cpp:141] Setting up inception_3b/5x5
I0403 19:11:04.947233  8843 net.cpp:148] Top shape: 24 96 28 28 (1806336)
I0403 19:11:04.947249  8843 net.cpp:156] Memory required for data: 736986144
I0403 19:11:04.947268  8843 layer_factory.hpp:77] Creating layer inception_3b/relu_5x5
I0403 19:11:04.947288  8843 net.cpp:91] Creating Layer inception_3b/relu_5x5
I0403 19:11:04.947305  8843 net.cpp:425] inception_3b/relu_5x5 <- inception_3b/5x5
I0403 19:11:04.947322  8843 net.cpp:386] inception_3b/relu_5x5 -> inception_3b/5x5 (in-place)
I0403 19:11:04.947515  8843 net.cpp:141] Setting up inception_3b/relu_5x5
I0403 19:11:04.947540  8843 net.cpp:148] Top shape: 24 96 28 28 (1806336)
I0403 19:11:04.947554  8843 net.cpp:156] Memory required for data: 744211488
I0403 19:11:04.947569  8843 layer_factory.hpp:77] Creating layer inception_3b/pool
I0403 19:11:04.947587  8843 net.cpp:91] Creating Layer inception_3b/pool
I0403 19:11:04.947603  8843 net.cpp:425] inception_3b/pool <- inception_3a/output_inception_3a/output_0_split_3
I0403 19:11:04.947621  8843 net.cpp:399] inception_3b/pool -> inception_3b/pool
I0403 19:11:04.947676  8843 net.cpp:141] Setting up inception_3b/pool
I0403 19:11:04.947698  8843 net.cpp:148] Top shape: 24 256 28 28 (4816896)
I0403 19:11:04.947712  8843 net.cpp:156] Memory required for data: 763479072
I0403 19:11:04.947726  8843 layer_factory.hpp:77] Creating layer inception_3b/pool_proj
I0403 19:11:04.947751  8843 net.cpp:91] Creating Layer inception_3b/pool_proj
I0403 19:11:04.947767  8843 net.cpp:425] inception_3b/pool_proj <- inception_3b/pool
I0403 19:11:04.947785  8843 net.cpp:399] inception_3b/pool_proj -> inception_3b/pool_proj
I0403 19:11:04.948832  8843 net.cpp:141] Setting up inception_3b/pool_proj
I0403 19:11:04.948858  8843 net.cpp:148] Top shape: 24 64 28 28 (1204224)
I0403 19:11:04.948873  8843 net.cpp:156] Memory required for data: 768295968
I0403 19:11:04.948890  8843 layer_factory.hpp:77] Creating layer inception_3b/relu_pool_proj
I0403 19:11:04.948909  8843 net.cpp:91] Creating Layer inception_3b/relu_pool_proj
I0403 19:11:04.948925  8843 net.cpp:425] inception_3b/relu_pool_proj <- inception_3b/pool_proj
I0403 19:11:04.948941  8843 net.cpp:386] inception_3b/relu_pool_proj -> inception_3b/pool_proj (in-place)
I0403 19:11:04.949342  8843 net.cpp:141] Setting up inception_3b/relu_pool_proj
I0403 19:11:04.949369  8843 net.cpp:148] Top shape: 24 64 28 28 (1204224)
I0403 19:11:04.949385  8843 net.cpp:156] Memory required for data: 773112864
I0403 19:11:04.949401  8843 layer_factory.hpp:77] Creating layer inception_3b/output
I0403 19:11:04.949420  8843 net.cpp:91] Creating Layer inception_3b/output
I0403 19:11:04.949437  8843 net.cpp:425] inception_3b/output <- inception_3b/1x1
I0403 19:11:04.949479  8843 net.cpp:425] inception_3b/output <- inception_3b/3x3
I0403 19:11:04.949522  8843 net.cpp:425] inception_3b/output <- inception_3b/5x5
I0403 19:11:04.949566  8843 net.cpp:425] inception_3b/output <- inception_3b/pool_proj
I0403 19:11:04.949594  8843 net.cpp:399] inception_3b/output -> inception_3b/output
I0403 19:11:04.949635  8843 net.cpp:141] Setting up inception_3b/output
I0403 19:11:04.949663  8843 net.cpp:148] Top shape: 24 480 28 28 (9031680)
I0403 19:11:04.949702  8843 net.cpp:156] Memory required for data: 809239584
I0403 19:11:04.949719  8843 layer_factory.hpp:77] Creating layer pool3/3x3_s2
I0403 19:11:04.949736  8843 net.cpp:91] Creating Layer pool3/3x3_s2
I0403 19:11:04.949751  8843 net.cpp:425] pool3/3x3_s2 <- inception_3b/output
I0403 19:11:04.949790  8843 net.cpp:399] pool3/3x3_s2 -> pool3/3x3_s2
I0403 19:11:04.949849  8843 net.cpp:141] Setting up pool3/3x3_s2
I0403 19:11:04.949872  8843 net.cpp:148] Top shape: 24 480 14 14 (2257920)
I0403 19:11:04.949887  8843 net.cpp:156] Memory required for data: 818271264
I0403 19:11:04.949900  8843 layer_factory.hpp:77] Creating layer pool3/3x3_s2_pool3/3x3_s2_0_split
I0403 19:11:04.949919  8843 net.cpp:91] Creating Layer pool3/3x3_s2_pool3/3x3_s2_0_split
I0403 19:11:04.949935  8843 net.cpp:425] pool3/3x3_s2_pool3/3x3_s2_0_split <- pool3/3x3_s2
I0403 19:11:04.949952  8843 net.cpp:399] pool3/3x3_s2_pool3/3x3_s2_0_split -> pool3/3x3_s2_pool3/3x3_s2_0_split_0
I0403 19:11:04.949970  8843 net.cpp:399] pool3/3x3_s2_pool3/3x3_s2_0_split -> pool3/3x3_s2_pool3/3x3_s2_0_split_1
I0403 19:11:04.950001  8843 net.cpp:399] pool3/3x3_s2_pool3/3x3_s2_0_split -> pool3/3x3_s2_pool3/3x3_s2_0_split_2
I0403 19:11:04.950022  8843 net.cpp:399] pool3/3x3_s2_pool3/3x3_s2_0_split -> pool3/3x3_s2_pool3/3x3_s2_0_split_3
I0403 19:11:04.950098  8843 net.cpp:141] Setting up pool3/3x3_s2_pool3/3x3_s2_0_split
I0403 19:11:04.950119  8843 net.cpp:148] Top shape: 24 480 14 14 (2257920)
I0403 19:11:04.950172  8843 net.cpp:148] Top shape: 24 480 14 14 (2257920)
I0403 19:11:04.950203  8843 net.cpp:148] Top shape: 24 480 14 14 (2257920)
I0403 19:11:04.950233  8843 net.cpp:148] Top shape: 24 480 14 14 (2257920)
I0403 19:11:04.950248  8843 net.cpp:156] Memory required for data: 854397984
I0403 19:11:04.950265  8843 layer_factory.hpp:77] Creating layer inception_4a/1x1
I0403 19:11:04.950289  8843 net.cpp:91] Creating Layer inception_4a/1x1
I0403 19:11:04.950309  8843 net.cpp:425] inception_4a/1x1 <- pool3/3x3_s2_pool3/3x3_s2_0_split_0
I0403 19:11:04.950330  8843 net.cpp:399] inception_4a/1x1 -> inception_4a/1x1
I0403 19:11:04.952025  8843 net.cpp:141] Setting up inception_4a/1x1
I0403 19:11:04.952067  8843 net.cpp:148] Top shape: 24 192 14 14 (903168)
I0403 19:11:04.952086  8843 net.cpp:156] Memory required for data: 858010656
I0403 19:11:04.952119  8843 layer_factory.hpp:77] Creating layer inception_4a/relu_1x1
I0403 19:11:04.952141  8843 net.cpp:91] Creating Layer inception_4a/relu_1x1
I0403 19:11:04.952157  8843 net.cpp:425] inception_4a/relu_1x1 <- inception_4a/1x1
I0403 19:11:04.952173  8843 net.cpp:386] inception_4a/relu_1x1 -> inception_4a/1x1 (in-place)
I0403 19:11:04.952370  8843 net.cpp:141] Setting up inception_4a/relu_1x1
I0403 19:11:04.952400  8843 net.cpp:148] Top shape: 24 192 14 14 (903168)
I0403 19:11:04.952415  8843 net.cpp:156] Memory required for data: 861623328
I0403 19:11:04.952431  8843 layer_factory.hpp:77] Creating layer inception_4a/3x3_reduce
I0403 19:11:04.952455  8843 net.cpp:91] Creating Layer inception_4a/3x3_reduce
I0403 19:11:04.952472  8843 net.cpp:425] inception_4a/3x3_reduce <- pool3/3x3_s2_pool3/3x3_s2_0_split_1
I0403 19:11:04.952502  8843 net.cpp:399] inception_4a/3x3_reduce -> inception_4a/3x3_reduce
I0403 19:11:04.953873  8843 net.cpp:141] Setting up inception_4a/3x3_reduce
I0403 19:11:04.953902  8843 net.cpp:148] Top shape: 24 96 14 14 (451584)
I0403 19:11:04.953917  8843 net.cpp:156] Memory required for data: 863429664
I0403 19:11:04.953941  8843 layer_factory.hpp:77] Creating layer inception_4a/relu_3x3_reduce
I0403 19:11:04.953960  8843 net.cpp:91] Creating Layer inception_4a/relu_3x3_reduce
I0403 19:11:04.953976  8843 net.cpp:425] inception_4a/relu_3x3_reduce <- inception_4a/3x3_reduce
I0403 19:11:04.953995  8843 net.cpp:386] inception_4a/relu_3x3_reduce -> inception_4a/3x3_reduce (in-place)
I0403 19:11:04.954206  8843 net.cpp:141] Setting up inception_4a/relu_3x3_reduce
I0403 19:11:04.954244  8843 net.cpp:148] Top shape: 24 96 14 14 (451584)
I0403 19:11:04.954259  8843 net.cpp:156] Memory required for data: 865236000
I0403 19:11:04.954274  8843 layer_factory.hpp:77] Creating layer inception_4a/3x3
I0403 19:11:04.954309  8843 net.cpp:91] Creating Layer inception_4a/3x3
I0403 19:11:04.954330  8843 net.cpp:425] inception_4a/3x3 <- inception_4a/3x3_reduce
I0403 19:11:04.954368  8843 net.cpp:399] inception_4a/3x3 -> inception_4a/3x3
I0403 19:11:04.957217  8843 net.cpp:141] Setting up inception_4a/3x3
I0403 19:11:04.957247  8843 net.cpp:148] Top shape: 24 208 14 14 (978432)
I0403 19:11:04.957262  8843 net.cpp:156] Memory required for data: 869149728
I0403 19:11:04.957281  8843 layer_factory.hpp:77] Creating layer inception_4a/relu_3x3
I0403 19:11:04.957316  8843 net.cpp:91] Creating Layer inception_4a/relu_3x3
I0403 19:11:04.957334  8843 net.cpp:425] inception_4a/relu_3x3 <- inception_4a/3x3
I0403 19:11:04.957352  8843 net.cpp:386] inception_4a/relu_3x3 -> inception_4a/3x3 (in-place)
I0403 19:11:04.957648  8843 net.cpp:141] Setting up inception_4a/relu_3x3
I0403 19:11:04.957687  8843 net.cpp:148] Top shape: 24 208 14 14 (978432)
I0403 19:11:04.957702  8843 net.cpp:156] Memory required for data: 873063456
I0403 19:11:04.957718  8843 layer_factory.hpp:77] Creating layer inception_4a/5x5_reduce
I0403 19:11:04.957756  8843 net.cpp:91] Creating Layer inception_4a/5x5_reduce
I0403 19:11:04.957777  8843 net.cpp:425] inception_4a/5x5_reduce <- pool3/3x3_s2_pool3/3x3_s2_0_split_2
I0403 19:11:04.957799  8843 net.cpp:399] inception_4a/5x5_reduce -> inception_4a/5x5_reduce
I0403 19:11:04.958967  8843 net.cpp:141] Setting up inception_4a/5x5_reduce
I0403 19:11:04.959014  8843 net.cpp:148] Top shape: 24 16 14 14 (75264)
I0403 19:11:04.959035  8843 net.cpp:156] Memory required for data: 873364512
I0403 19:11:04.959055  8843 layer_factory.hpp:77] Creating layer inception_4a/relu_5x5_reduce
I0403 19:11:04.959074  8843 net.cpp:91] Creating Layer inception_4a/relu_5x5_reduce
I0403 19:11:04.959091  8843 net.cpp:425] inception_4a/relu_5x5_reduce <- inception_4a/5x5_reduce
I0403 19:11:04.959125  8843 net.cpp:386] inception_4a/relu_5x5_reduce -> inception_4a/5x5_reduce (in-place)
I0403 19:11:04.959344  8843 net.cpp:141] Setting up inception_4a/relu_5x5_reduce
I0403 19:11:04.959377  8843 net.cpp:148] Top shape: 24 16 14 14 (75264)
I0403 19:11:04.959395  8843 net.cpp:156] Memory required for data: 873665568
I0403 19:11:04.959414  8843 layer_factory.hpp:77] Creating layer inception_4a/5x5
I0403 19:11:04.959437  8843 net.cpp:91] Creating Layer inception_4a/5x5
I0403 19:11:04.959471  8843 net.cpp:425] inception_4a/5x5 <- inception_4a/5x5_reduce
I0403 19:11:04.959496  8843 net.cpp:399] inception_4a/5x5 -> inception_4a/5x5
I0403 19:11:04.960682  8843 net.cpp:141] Setting up inception_4a/5x5
I0403 19:11:04.960710  8843 net.cpp:148] Top shape: 24 48 14 14 (225792)
I0403 19:11:04.960728  8843 net.cpp:156] Memory required for data: 874568736
I0403 19:11:04.960747  8843 layer_factory.hpp:77] Creating layer inception_4a/relu_5x5
I0403 19:11:04.960767  8843 net.cpp:91] Creating Layer inception_4a/relu_5x5
I0403 19:11:04.960784  8843 net.cpp:425] inception_4a/relu_5x5 <- inception_4a/5x5
I0403 19:11:04.960801  8843 net.cpp:386] inception_4a/relu_5x5 -> inception_4a/5x5 (in-place)
I0403 19:11:04.960993  8843 net.cpp:141] Setting up inception_4a/relu_5x5
I0403 19:11:04.961019  8843 net.cpp:148] Top shape: 24 48 14 14 (225792)
I0403 19:11:04.961033  8843 net.cpp:156] Memory required for data: 875471904
I0403 19:11:04.961048  8843 layer_factory.hpp:77] Creating layer inception_4a/pool
I0403 19:11:04.961069  8843 net.cpp:91] Creating Layer inception_4a/pool
I0403 19:11:04.961086  8843 net.cpp:425] inception_4a/pool <- pool3/3x3_s2_pool3/3x3_s2_0_split_3
I0403 19:11:04.961105  8843 net.cpp:399] inception_4a/pool -> inception_4a/pool
I0403 19:11:04.961169  8843 net.cpp:141] Setting up inception_4a/pool
I0403 19:11:04.961202  8843 net.cpp:148] Top shape: 24 480 14 14 (2257920)
I0403 19:11:04.961218  8843 net.cpp:156] Memory required for data: 884503584
I0403 19:11:04.961232  8843 layer_factory.hpp:77] Creating layer inception_4a/pool_proj
I0403 19:11:04.961266  8843 net.cpp:91] Creating Layer inception_4a/pool_proj
I0403 19:11:04.961283  8843 net.cpp:425] inception_4a/pool_proj <- inception_4a/pool
I0403 19:11:04.961307  8843 net.cpp:399] inception_4a/pool_proj -> inception_4a/pool_proj
I0403 19:11:04.962585  8843 net.cpp:141] Setting up inception_4a/pool_proj
I0403 19:11:04.962615  8843 net.cpp:148] Top shape: 24 64 14 14 (301056)
I0403 19:11:04.962646  8843 net.cpp:156] Memory required for data: 885707808
I0403 19:11:04.962666  8843 layer_factory.hpp:77] Creating layer inception_4a/relu_pool_proj
I0403 19:11:04.962687  8843 net.cpp:91] Creating Layer inception_4a/relu_pool_proj
I0403 19:11:04.962704  8843 net.cpp:425] inception_4a/relu_pool_proj <- inception_4a/pool_proj
I0403 19:11:04.962720  8843 net.cpp:386] inception_4a/relu_pool_proj -> inception_4a/pool_proj (in-place)
I0403 19:11:04.963002  8843 net.cpp:141] Setting up inception_4a/relu_pool_proj
I0403 19:11:04.963028  8843 net.cpp:148] Top shape: 24 64 14 14 (301056)
I0403 19:11:04.963043  8843 net.cpp:156] Memory required for data: 886912032
I0403 19:11:04.963058  8843 layer_factory.hpp:77] Creating layer inception_4a/output
I0403 19:11:04.963078  8843 net.cpp:91] Creating Layer inception_4a/output
I0403 19:11:04.963094  8843 net.cpp:425] inception_4a/output <- inception_4a/1x1
I0403 19:11:04.963110  8843 net.cpp:425] inception_4a/output <- inception_4a/3x3
I0403 19:11:04.963126  8843 net.cpp:425] inception_4a/output <- inception_4a/5x5
I0403 19:11:04.963142  8843 net.cpp:425] inception_4a/output <- inception_4a/pool_proj
I0403 19:11:04.963160  8843 net.cpp:399] inception_4a/output -> inception_4a/output
I0403 19:11:04.963210  8843 net.cpp:141] Setting up inception_4a/output
I0403 19:11:04.963237  8843 net.cpp:148] Top shape: 24 512 14 14 (2408448)
I0403 19:11:04.963251  8843 net.cpp:156] Memory required for data: 896545824
I0403 19:11:04.963265  8843 layer_factory.hpp:77] Creating layer inception_4a/output_inception_4a/output_0_split
I0403 19:11:04.963284  8843 net.cpp:91] Creating Layer inception_4a/output_inception_4a/output_0_split
I0403 19:11:04.963299  8843 net.cpp:425] inception_4a/output_inception_4a/output_0_split <- inception_4a/output
I0403 19:11:04.963318  8843 net.cpp:399] inception_4a/output_inception_4a/output_0_split -> inception_4a/output_inception_4a/output_0_split_0
I0403 19:11:04.963338  8843 net.cpp:399] inception_4a/output_inception_4a/output_0_split -> inception_4a/output_inception_4a/output_0_split_1
I0403 19:11:04.963358  8843 net.cpp:399] inception_4a/output_inception_4a/output_0_split -> inception_4a/output_inception_4a/output_0_split_2
I0403 19:11:04.963379  8843 net.cpp:399] inception_4a/output_inception_4a/output_0_split -> inception_4a/output_inception_4a/output_0_split_3
I0403 19:11:04.963398  8843 net.cpp:399] inception_4a/output_inception_4a/output_0_split -> inception_4a/output_inception_4a/output_0_split_4
I0403 19:11:04.963490  8843 net.cpp:141] Setting up inception_4a/output_inception_4a/output_0_split
I0403 19:11:04.963515  8843 net.cpp:148] Top shape: 24 512 14 14 (2408448)
I0403 19:11:04.963532  8843 net.cpp:148] Top shape: 24 512 14 14 (2408448)
I0403 19:11:04.963548  8843 net.cpp:148] Top shape: 24 512 14 14 (2408448)
I0403 19:11:04.963563  8843 net.cpp:148] Top shape: 24 512 14 14 (2408448)
I0403 19:11:04.963578  8843 net.cpp:148] Top shape: 24 512 14 14 (2408448)
I0403 19:11:04.963593  8843 net.cpp:156] Memory required for data: 944714784
I0403 19:11:04.963606  8843 layer_factory.hpp:77] Creating layer loss1/ave_pool
I0403 19:11:04.963624  8843 net.cpp:91] Creating Layer loss1/ave_pool
I0403 19:11:04.963640  8843 net.cpp:425] loss1/ave_pool <- inception_4a/output_inception_4a/output_0_split_0
I0403 19:11:04.963660  8843 net.cpp:399] loss1/ave_pool -> loss1/ave_pool
I0403 19:11:04.963862  8843 net.cpp:141] Setting up loss1/ave_pool
I0403 19:11:04.963888  8843 net.cpp:148] Top shape: 24 512 4 4 (196608)
I0403 19:11:04.963903  8843 net.cpp:156] Memory required for data: 945501216
I0403 19:11:04.963918  8843 layer_factory.hpp:77] Creating layer loss1/conv
I0403 19:11:04.963940  8843 net.cpp:91] Creating Layer loss1/conv
I0403 19:11:04.963958  8843 net.cpp:425] loss1/conv <- loss1/ave_pool
I0403 19:11:04.963979  8843 net.cpp:399] loss1/conv -> loss1/conv
I0403 19:11:04.965404  8843 net.cpp:141] Setting up loss1/conv
I0403 19:11:04.965432  8843 net.cpp:148] Top shape: 24 128 4 4 (49152)
I0403 19:11:04.965462  8843 net.cpp:156] Memory required for data: 945697824
I0403 19:11:04.965484  8843 layer_factory.hpp:77] Creating layer loss1/relu_conv
I0403 19:11:04.965503  8843 net.cpp:91] Creating Layer loss1/relu_conv
I0403 19:11:04.965519  8843 net.cpp:425] loss1/relu_conv <- loss1/conv
I0403 19:11:04.965536  8843 net.cpp:386] loss1/relu_conv -> loss1/conv (in-place)
I0403 19:11:04.965819  8843 net.cpp:141] Setting up loss1/relu_conv
I0403 19:11:04.965848  8843 net.cpp:148] Top shape: 24 128 4 4 (49152)
I0403 19:11:04.965865  8843 net.cpp:156] Memory required for data: 945894432
I0403 19:11:04.965879  8843 layer_factory.hpp:77] Creating layer loss1/fc
I0403 19:11:04.965903  8843 net.cpp:91] Creating Layer loss1/fc
I0403 19:11:04.965921  8843 net.cpp:425] loss1/fc <- loss1/conv
I0403 19:11:04.965942  8843 net.cpp:399] loss1/fc -> loss1/fc
I0403 19:11:04.983754  8843 net.cpp:141] Setting up loss1/fc
I0403 19:11:04.983788  8843 net.cpp:148] Top shape: 24 1024 (24576)
I0403 19:11:04.983804  8843 net.cpp:156] Memory required for data: 945992736
I0403 19:11:04.983822  8843 layer_factory.hpp:77] Creating layer loss1/relu_fc
I0403 19:11:04.983842  8843 net.cpp:91] Creating Layer loss1/relu_fc
I0403 19:11:04.983858  8843 net.cpp:425] loss1/relu_fc <- loss1/fc
I0403 19:11:04.983875  8843 net.cpp:386] loss1/relu_fc -> loss1/fc (in-place)
I0403 19:11:04.984060  8843 net.cpp:141] Setting up loss1/relu_fc
I0403 19:11:04.984086  8843 net.cpp:148] Top shape: 24 1024 (24576)
I0403 19:11:04.984100  8843 net.cpp:156] Memory required for data: 946091040
I0403 19:11:04.984115  8843 layer_factory.hpp:77] Creating layer loss1/drop_fc
I0403 19:11:04.984139  8843 net.cpp:91] Creating Layer loss1/drop_fc
I0403 19:11:04.984156  8843 net.cpp:425] loss1/drop_fc <- loss1/fc
I0403 19:11:04.984174  8843 net.cpp:386] loss1/drop_fc -> loss1/fc (in-place)
I0403 19:11:04.984231  8843 net.cpp:141] Setting up loss1/drop_fc
I0403 19:11:04.984254  8843 net.cpp:148] Top shape: 24 1024 (24576)
I0403 19:11:04.984267  8843 net.cpp:156] Memory required for data: 946189344
I0403 19:11:04.984282  8843 layer_factory.hpp:77] Creating layer loss1/classifier_plantvillage
I0403 19:11:04.984299  8843 net.cpp:91] Creating Layer loss1/classifier_plantvillage
I0403 19:11:04.984314  8843 net.cpp:425] loss1/classifier_plantvillage <- loss1/fc
I0403 19:11:04.984335  8843 net.cpp:399] loss1/classifier_plantvillage -> loss1/classifier_plantvillage
I0403 19:11:04.985224  8843 net.cpp:141] Setting up loss1/classifier_plantvillage
I0403 19:11:04.985250  8843 net.cpp:148] Top shape: 24 38 (912)
I0403 19:11:04.985265  8843 net.cpp:156] Memory required for data: 946192992
I0403 19:11:04.985282  8843 layer_factory.hpp:77] Creating layer loss1/classifier_plantvillage_loss1/classifier_plantvillage_0_split
I0403 19:11:04.985302  8843 net.cpp:91] Creating Layer loss1/classifier_plantvillage_loss1/classifier_plantvillage_0_split
I0403 19:11:04.985319  8843 net.cpp:425] loss1/classifier_plantvillage_loss1/classifier_plantvillage_0_split <- loss1/classifier_plantvillage
I0403 19:11:04.985337  8843 net.cpp:399] loss1/classifier_plantvillage_loss1/classifier_plantvillage_0_split -> loss1/classifier_plantvillage_loss1/classifier_plantvillage_0_split_0
I0403 19:11:04.985357  8843 net.cpp:399] loss1/classifier_plantvillage_loss1/classifier_plantvillage_0_split -> loss1/classifier_plantvillage_loss1/classifier_plantvillage_0_split_1
I0403 19:11:04.985375  8843 net.cpp:399] loss1/classifier_plantvillage_loss1/classifier_plantvillage_0_split -> loss1/classifier_plantvillage_loss1/classifier_plantvillage_0_split_2
I0403 19:11:04.985443  8843 net.cpp:141] Setting up loss1/classifier_plantvillage_loss1/classifier_plantvillage_0_split
I0403 19:11:04.985466  8843 net.cpp:148] Top shape: 24 38 (912)
I0403 19:11:04.985481  8843 net.cpp:148] Top shape: 24 38 (912)
I0403 19:11:04.985496  8843 net.cpp:148] Top shape: 24 38 (912)
I0403 19:11:04.985509  8843 net.cpp:156] Memory required for data: 946203936
I0403 19:11:04.985523  8843 layer_factory.hpp:77] Creating layer inception_4b/1x1
I0403 19:11:04.985545  8843 net.cpp:91] Creating Layer inception_4b/1x1
I0403 19:11:04.985577  8843 net.cpp:425] inception_4b/1x1 <- inception_4a/output_inception_4a/output_0_split_1
I0403 19:11:04.985597  8843 net.cpp:399] inception_4b/1x1 -> inception_4b/1x1
I0403 19:11:04.987185  8843 net.cpp:141] Setting up inception_4b/1x1
I0403 19:11:04.987216  8843 net.cpp:148] Top shape: 24 160 14 14 (752640)
I0403 19:11:04.987234  8843 net.cpp:156] Memory required for data: 949214496
I0403 19:11:04.987253  8843 layer_factory.hpp:77] Creating layer inception_4b/relu_1x1
I0403 19:11:04.987270  8843 net.cpp:91] Creating Layer inception_4b/relu_1x1
I0403 19:11:04.987287  8843 net.cpp:425] inception_4b/relu_1x1 <- inception_4b/1x1
I0403 19:11:04.987306  8843 net.cpp:386] inception_4b/relu_1x1 -> inception_4b/1x1 (in-place)
I0403 19:11:04.987478  8843 net.cpp:141] Setting up inception_4b/relu_1x1
I0403 19:11:04.987504  8843 net.cpp:148] Top shape: 24 160 14 14 (752640)
I0403 19:11:04.987517  8843 net.cpp:156] Memory required for data: 952225056
I0403 19:11:04.987532  8843 layer_factory.hpp:77] Creating layer inception_4b/3x3_reduce
I0403 19:11:04.987553  8843 net.cpp:91] Creating Layer inception_4b/3x3_reduce
I0403 19:11:04.987571  8843 net.cpp:425] inception_4b/3x3_reduce <- inception_4a/output_inception_4a/output_0_split_2
I0403 19:11:04.987591  8843 net.cpp:399] inception_4b/3x3_reduce -> inception_4b/3x3_reduce
I0403 19:11:04.988904  8843 net.cpp:141] Setting up inception_4b/3x3_reduce
I0403 19:11:04.988932  8843 net.cpp:148] Top shape: 24 112 14 14 (526848)
I0403 19:11:04.988947  8843 net.cpp:156] Memory required for data: 954332448
I0403 19:11:04.988965  8843 layer_factory.hpp:77] Creating layer inception_4b/relu_3x3_reduce
I0403 19:11:04.988983  8843 net.cpp:91] Creating Layer inception_4b/relu_3x3_reduce
I0403 19:11:04.988999  8843 net.cpp:425] inception_4b/relu_3x3_reduce <- inception_4b/3x3_reduce
I0403 19:11:04.989017  8843 net.cpp:386] inception_4b/relu_3x3_reduce -> inception_4b/3x3_reduce (in-place)
I0403 19:11:04.989295  8843 net.cpp:141] Setting up inception_4b/relu_3x3_reduce
I0403 19:11:04.989321  8843 net.cpp:148] Top shape: 24 112 14 14 (526848)
I0403 19:11:04.989336  8843 net.cpp:156] Memory required for data: 956439840
I0403 19:11:04.989351  8843 layer_factory.hpp:77] Creating layer inception_4b/3x3
I0403 19:11:04.989375  8843 net.cpp:91] Creating Layer inception_4b/3x3
I0403 19:11:04.989393  8843 net.cpp:425] inception_4b/3x3 <- inception_4b/3x3_reduce
I0403 19:11:04.989413  8843 net.cpp:399] inception_4b/3x3 -> inception_4b/3x3
I0403 19:11:04.992307  8843 net.cpp:141] Setting up inception_4b/3x3
I0403 19:11:04.992336  8843 net.cpp:148] Top shape: 24 224 14 14 (1053696)
I0403 19:11:04.992350  8843 net.cpp:156] Memory required for data: 960654624
I0403 19:11:04.992368  8843 layer_factory.hpp:77] Creating layer inception_4b/relu_3x3
I0403 19:11:04.992388  8843 net.cpp:91] Creating Layer inception_4b/relu_3x3
I0403 19:11:04.992404  8843 net.cpp:425] inception_4b/relu_3x3 <- inception_4b/3x3
I0403 19:11:04.992420  8843 net.cpp:386] inception_4b/relu_3x3 -> inception_4b/3x3 (in-place)
I0403 19:11:04.992596  8843 net.cpp:141] Setting up inception_4b/relu_3x3
I0403 19:11:04.992622  8843 net.cpp:148] Top shape: 24 224 14 14 (1053696)
I0403 19:11:04.992637  8843 net.cpp:156] Memory required for data: 964869408
I0403 19:11:04.992652  8843 layer_factory.hpp:77] Creating layer inception_4b/5x5_reduce
I0403 19:11:04.992673  8843 net.cpp:91] Creating Layer inception_4b/5x5_reduce
I0403 19:11:04.992691  8843 net.cpp:425] inception_4b/5x5_reduce <- inception_4a/output_inception_4a/output_0_split_3
I0403 19:11:04.992709  8843 net.cpp:399] inception_4b/5x5_reduce -> inception_4b/5x5_reduce
I0403 19:11:04.993767  8843 net.cpp:141] Setting up inception_4b/5x5_reduce
I0403 19:11:04.993794  8843 net.cpp:148] Top shape: 24 24 14 14 (112896)
I0403 19:11:04.993810  8843 net.cpp:156] Memory required for data: 965320992
I0403 19:11:04.993829  8843 layer_factory.hpp:77] Creating layer inception_4b/relu_5x5_reduce
I0403 19:11:04.993846  8843 net.cpp:91] Creating Layer inception_4b/relu_5x5_reduce
I0403 19:11:04.993876  8843 net.cpp:425] inception_4b/relu_5x5_reduce <- inception_4b/5x5_reduce
I0403 19:11:04.993896  8843 net.cpp:386] inception_4b/relu_5x5_reduce -> inception_4b/5x5_reduce (in-place)
I0403 19:11:04.994077  8843 net.cpp:141] Setting up inception_4b/relu_5x5_reduce
I0403 19:11:04.994102  8843 net.cpp:148] Top shape: 24 24 14 14 (112896)
I0403 19:11:04.994117  8843 net.cpp:156] Memory required for data: 965772576
I0403 19:11:04.994130  8843 layer_factory.hpp:77] Creating layer inception_4b/5x5
I0403 19:11:04.994153  8843 net.cpp:91] Creating Layer inception_4b/5x5
I0403 19:11:04.994169  8843 net.cpp:425] inception_4b/5x5 <- inception_4b/5x5_reduce
I0403 19:11:04.994196  8843 net.cpp:399] inception_4b/5x5 -> inception_4b/5x5
I0403 19:11:04.995391  8843 net.cpp:141] Setting up inception_4b/5x5
I0403 19:11:04.995420  8843 net.cpp:148] Top shape: 24 64 14 14 (301056)
I0403 19:11:04.995436  8843 net.cpp:156] Memory required for data: 966976800
I0403 19:11:04.995455  8843 layer_factory.hpp:77] Creating layer inception_4b/relu_5x5
I0403 19:11:04.995472  8843 net.cpp:91] Creating Layer inception_4b/relu_5x5
I0403 19:11:04.995487  8843 net.cpp:425] inception_4b/relu_5x5 <- inception_4b/5x5
I0403 19:11:04.995507  8843 net.cpp:386] inception_4b/relu_5x5 -> inception_4b/5x5 (in-place)
I0403 19:11:04.995781  8843 net.cpp:141] Setting up inception_4b/relu_5x5
I0403 19:11:04.995810  8843 net.cpp:148] Top shape: 24 64 14 14 (301056)
I0403 19:11:04.995826  8843 net.cpp:156] Memory required for data: 968181024
I0403 19:11:04.995848  8843 layer_factory.hpp:77] Creating layer inception_4b/pool
I0403 19:11:04.995865  8843 net.cpp:91] Creating Layer inception_4b/pool
I0403 19:11:04.995882  8843 net.cpp:425] inception_4b/pool <- inception_4a/output_inception_4a/output_0_split_4
I0403 19:11:04.995903  8843 net.cpp:399] inception_4b/pool -> inception_4b/pool
I0403 19:11:04.995975  8843 net.cpp:141] Setting up inception_4b/pool
I0403 19:11:04.996000  8843 net.cpp:148] Top shape: 24 512 14 14 (2408448)
I0403 19:11:04.996013  8843 net.cpp:156] Memory required for data: 977814816
I0403 19:11:04.996027  8843 layer_factory.hpp:77] Creating layer inception_4b/pool_proj
I0403 19:11:04.996049  8843 net.cpp:91] Creating Layer inception_4b/pool_proj
I0403 19:11:04.996067  8843 net.cpp:425] inception_4b/pool_proj <- inception_4b/pool
I0403 19:11:04.996086  8843 net.cpp:399] inception_4b/pool_proj -> inception_4b/pool_proj
I0403 19:11:04.997303  8843 net.cpp:141] Setting up inception_4b/pool_proj
I0403 19:11:04.997331  8843 net.cpp:148] Top shape: 24 64 14 14 (301056)
I0403 19:11:04.997347  8843 net.cpp:156] Memory required for data: 979019040
I0403 19:11:04.997365  8843 layer_factory.hpp:77] Creating layer inception_4b/relu_pool_proj
I0403 19:11:04.997383  8843 net.cpp:91] Creating Layer inception_4b/relu_pool_proj
I0403 19:11:04.997400  8843 net.cpp:425] inception_4b/relu_pool_proj <- inception_4b/pool_proj
I0403 19:11:04.997418  8843 net.cpp:386] inception_4b/relu_pool_proj -> inception_4b/pool_proj (in-place)
I0403 19:11:04.997598  8843 net.cpp:141] Setting up inception_4b/relu_pool_proj
I0403 19:11:04.997622  8843 net.cpp:148] Top shape: 24 64 14 14 (301056)
I0403 19:11:04.997637  8843 net.cpp:156] Memory required for data: 980223264
I0403 19:11:04.997651  8843 layer_factory.hpp:77] Creating layer inception_4b/output
I0403 19:11:04.997669  8843 net.cpp:91] Creating Layer inception_4b/output
I0403 19:11:04.997684  8843 net.cpp:425] inception_4b/output <- inception_4b/1x1
I0403 19:11:04.997699  8843 net.cpp:425] inception_4b/output <- inception_4b/3x3
I0403 19:11:04.997714  8843 net.cpp:425] inception_4b/output <- inception_4b/5x5
I0403 19:11:04.997730  8843 net.cpp:425] inception_4b/output <- inception_4b/pool_proj
I0403 19:11:04.997748  8843 net.cpp:399] inception_4b/output -> inception_4b/output
I0403 19:11:04.997793  8843 net.cpp:141] Setting up inception_4b/output
I0403 19:11:04.997818  8843 net.cpp:148] Top shape: 24 512 14 14 (2408448)
I0403 19:11:04.997833  8843 net.cpp:156] Memory required for data: 989857056
I0403 19:11:04.997860  8843 layer_factory.hpp:77] Creating layer inception_4b/output_inception_4b/output_0_split
I0403 19:11:04.997879  8843 net.cpp:91] Creating Layer inception_4b/output_inception_4b/output_0_split
I0403 19:11:04.997895  8843 net.cpp:425] inception_4b/output_inception_4b/output_0_split <- inception_4b/output
I0403 19:11:04.997915  8843 net.cpp:399] inception_4b/output_inception_4b/output_0_split -> inception_4b/output_inception_4b/output_0_split_0
I0403 19:11:04.997934  8843 net.cpp:399] inception_4b/output_inception_4b/output_0_split -> inception_4b/output_inception_4b/output_0_split_1
I0403 19:11:04.997954  8843 net.cpp:399] inception_4b/output_inception_4b/output_0_split -> inception_4b/output_inception_4b/output_0_split_2
I0403 19:11:04.997974  8843 net.cpp:399] inception_4b/output_inception_4b/output_0_split -> inception_4b/output_inception_4b/output_0_split_3
I0403 19:11:04.998057  8843 net.cpp:141] Setting up inception_4b/output_inception_4b/output_0_split
I0403 19:11:04.998080  8843 net.cpp:148] Top shape: 24 512 14 14 (2408448)
I0403 19:11:04.998096  8843 net.cpp:148] Top shape: 24 512 14 14 (2408448)
I0403 19:11:04.998111  8843 net.cpp:148] Top shape: 24 512 14 14 (2408448)
I0403 19:11:04.998126  8843 net.cpp:148] Top shape: 24 512 14 14 (2408448)
I0403 19:11:04.998138  8843 net.cpp:156] Memory required for data: 1028392224
I0403 19:11:04.998152  8843 layer_factory.hpp:77] Creating layer inception_4c/1x1
I0403 19:11:04.998180  8843 net.cpp:91] Creating Layer inception_4c/1x1
I0403 19:11:04.998199  8843 net.cpp:425] inception_4c/1x1 <- inception_4b/output_inception_4b/output_0_split_0
I0403 19:11:04.998219  8843 net.cpp:399] inception_4c/1x1 -> inception_4c/1x1
I0403 19:11:04.999663  8843 net.cpp:141] Setting up inception_4c/1x1
I0403 19:11:04.999691  8843 net.cpp:148] Top shape: 24 128 14 14 (602112)
I0403 19:11:04.999706  8843 net.cpp:156] Memory required for data: 1030800672
I0403 19:11:04.999724  8843 layer_factory.hpp:77] Creating layer inception_4c/relu_1x1
I0403 19:11:04.999745  8843 net.cpp:91] Creating Layer inception_4c/relu_1x1
I0403 19:11:04.999763  8843 net.cpp:425] inception_4c/relu_1x1 <- inception_4c/1x1
I0403 19:11:04.999779  8843 net.cpp:386] inception_4c/relu_1x1 -> inception_4c/1x1 (in-place)
I0403 19:11:04.999956  8843 net.cpp:141] Setting up inception_4c/relu_1x1
I0403 19:11:04.999984  8843 net.cpp:148] Top shape: 24 128 14 14 (602112)
I0403 19:11:04.999999  8843 net.cpp:156] Memory required for data: 1033209120
I0403 19:11:05.000013  8843 layer_factory.hpp:77] Creating layer inception_4c/3x3_reduce
I0403 19:11:05.000032  8843 net.cpp:91] Creating Layer inception_4c/3x3_reduce
I0403 19:11:05.000048  8843 net.cpp:425] inception_4c/3x3_reduce <- inception_4b/output_inception_4b/output_0_split_1
I0403 19:11:05.000074  8843 net.cpp:399] inception_4c/3x3_reduce -> inception_4c/3x3_reduce
I0403 19:11:05.002051  8843 net.cpp:141] Setting up inception_4c/3x3_reduce
I0403 19:11:05.002084  8843 net.cpp:148] Top shape: 24 128 14 14 (602112)
I0403 19:11:05.002099  8843 net.cpp:156] Memory required for data: 1035617568
I0403 19:11:05.002118  8843 layer_factory.hpp:77] Creating layer inception_4c/relu_3x3_reduce
I0403 19:11:05.002136  8843 net.cpp:91] Creating Layer inception_4c/relu_3x3_reduce
I0403 19:11:05.002153  8843 net.cpp:425] inception_4c/relu_3x3_reduce <- inception_4c/3x3_reduce
I0403 19:11:05.002171  8843 net.cpp:386] inception_4c/relu_3x3_reduce -> inception_4c/3x3_reduce (in-place)
I0403 19:11:05.002465  8843 net.cpp:141] Setting up inception_4c/relu_3x3_reduce
I0403 19:11:05.002495  8843 net.cpp:148] Top shape: 24 128 14 14 (602112)
I0403 19:11:05.002511  8843 net.cpp:156] Memory required for data: 1038026016
I0403 19:11:05.002526  8843 layer_factory.hpp:77] Creating layer inception_4c/3x3
I0403 19:11:05.002552  8843 net.cpp:91] Creating Layer inception_4c/3x3
I0403 19:11:05.002570  8843 net.cpp:425] inception_4c/3x3 <- inception_4c/3x3_reduce
I0403 19:11:05.002589  8843 net.cpp:399] inception_4c/3x3 -> inception_4c/3x3
I0403 19:11:05.006125  8843 net.cpp:141] Setting up inception_4c/3x3
I0403 19:11:05.006168  8843 net.cpp:148] Top shape: 24 256 14 14 (1204224)
I0403 19:11:05.006191  8843 net.cpp:156] Memory required for data: 1042842912
I0403 19:11:05.006222  8843 layer_factory.hpp:77] Creating layer inception_4c/relu_3x3
I0403 19:11:05.006242  8843 net.cpp:91] Creating Layer inception_4c/relu_3x3
I0403 19:11:05.006258  8843 net.cpp:425] inception_4c/relu_3x3 <- inception_4c/3x3
I0403 19:11:05.006278  8843 net.cpp:386] inception_4c/relu_3x3 -> inception_4c/3x3 (in-place)
I0403 19:11:05.006458  8843 net.cpp:141] Setting up inception_4c/relu_3x3
I0403 19:11:05.006484  8843 net.cpp:148] Top shape: 24 256 14 14 (1204224)
I0403 19:11:05.006497  8843 net.cpp:156] Memory required for data: 1047659808
I0403 19:11:05.006512  8843 layer_factory.hpp:77] Creating layer inception_4c/5x5_reduce
I0403 19:11:05.006536  8843 net.cpp:91] Creating Layer inception_4c/5x5_reduce
I0403 19:11:05.006553  8843 net.cpp:425] inception_4c/5x5_reduce <- inception_4b/output_inception_4b/output_0_split_2
I0403 19:11:05.006577  8843 net.cpp:399] inception_4c/5x5_reduce -> inception_4c/5x5_reduce
I0403 19:11:05.007649  8843 net.cpp:141] Setting up inception_4c/5x5_reduce
I0403 19:11:05.007679  8843 net.cpp:148] Top shape: 24 24 14 14 (112896)
I0403 19:11:05.007694  8843 net.cpp:156] Memory required for data: 1048111392
I0403 19:11:05.007714  8843 layer_factory.hpp:77] Creating layer inception_4c/relu_5x5_reduce
I0403 19:11:05.007732  8843 net.cpp:91] Creating Layer inception_4c/relu_5x5_reduce
I0403 19:11:05.007748  8843 net.cpp:425] inception_4c/relu_5x5_reduce <- inception_4c/5x5_reduce
I0403 19:11:05.007767  8843 net.cpp:386] inception_4c/relu_5x5_reduce -> inception_4c/5x5_reduce (in-place)
I0403 19:11:05.007951  8843 net.cpp:141] Setting up inception_4c/relu_5x5_reduce
I0403 19:11:05.007977  8843 net.cpp:148] Top shape: 24 24 14 14 (112896)
I0403 19:11:05.007990  8843 net.cpp:156] Memory required for data: 1048562976
I0403 19:11:05.008005  8843 layer_factory.hpp:77] Creating layer inception_4c/5x5
I0403 19:11:05.008031  8843 net.cpp:91] Creating Layer inception_4c/5x5
I0403 19:11:05.008049  8843 net.cpp:425] inception_4c/5x5 <- inception_4c/5x5_reduce
I0403 19:11:05.008069  8843 net.cpp:399] inception_4c/5x5 -> inception_4c/5x5
I0403 19:11:05.009294  8843 net.cpp:141] Setting up inception_4c/5x5
I0403 19:11:05.009320  8843 net.cpp:148] Top shape: 24 64 14 14 (301056)
I0403 19:11:05.009335  8843 net.cpp:156] Memory required for data: 1049767200
I0403 19:11:05.009354  8843 layer_factory.hpp:77] Creating layer inception_4c/relu_5x5
I0403 19:11:05.009376  8843 net.cpp:91] Creating Layer inception_4c/relu_5x5
I0403 19:11:05.009392  8843 net.cpp:425] inception_4c/relu_5x5 <- inception_4c/5x5
I0403 19:11:05.009409  8843 net.cpp:386] inception_4c/relu_5x5 -> inception_4c/5x5 (in-place)
I0403 19:11:05.009693  8843 net.cpp:141] Setting up inception_4c/relu_5x5
I0403 19:11:05.009719  8843 net.cpp:148] Top shape: 24 64 14 14 (301056)
I0403 19:11:05.009735  8843 net.cpp:156] Memory required for data: 1050971424
I0403 19:11:05.009749  8843 layer_factory.hpp:77] Creating layer inception_4c/pool
I0403 19:11:05.009766  8843 net.cpp:91] Creating Layer inception_4c/pool
I0403 19:11:05.009783  8843 net.cpp:425] inception_4c/pool <- inception_4b/output_inception_4b/output_0_split_3
I0403 19:11:05.009804  8843 net.cpp:399] inception_4c/pool -> inception_4c/pool
I0403 19:11:05.009868  8843 net.cpp:141] Setting up inception_4c/pool
I0403 19:11:05.009892  8843 net.cpp:148] Top shape: 24 512 14 14 (2408448)
I0403 19:11:05.009907  8843 net.cpp:156] Memory required for data: 1060605216
I0403 19:11:05.009922  8843 layer_factory.hpp:77] Creating layer inception_4c/pool_proj
I0403 19:11:05.009944  8843 net.cpp:91] Creating Layer inception_4c/pool_proj
I0403 19:11:05.009961  8843 net.cpp:425] inception_4c/pool_proj <- inception_4c/pool
I0403 19:11:05.009980  8843 net.cpp:399] inception_4c/pool_proj -> inception_4c/pool_proj
I0403 19:11:05.011175  8843 net.cpp:141] Setting up inception_4c/pool_proj
I0403 19:11:05.011209  8843 net.cpp:148] Top shape: 24 64 14 14 (301056)
I0403 19:11:05.011239  8843 net.cpp:156] Memory required for data: 1061809440
I0403 19:11:05.011257  8843 layer_factory.hpp:77] Creating layer inception_4c/relu_pool_proj
I0403 19:11:05.011276  8843 net.cpp:91] Creating Layer inception_4c/relu_pool_proj
I0403 19:11:05.011291  8843 net.cpp:425] inception_4c/relu_pool_proj <- inception_4c/pool_proj
I0403 19:11:05.011312  8843 net.cpp:386] inception_4c/relu_pool_proj -> inception_4c/pool_proj (in-place)
I0403 19:11:05.011490  8843 net.cpp:141] Setting up inception_4c/relu_pool_proj
I0403 19:11:05.011515  8843 net.cpp:148] Top shape: 24 64 14 14 (301056)
I0403 19:11:05.011530  8843 net.cpp:156] Memory required for data: 1063013664
I0403 19:11:05.011545  8843 layer_factory.hpp:77] Creating layer inception_4c/output
I0403 19:11:05.011564  8843 net.cpp:91] Creating Layer inception_4c/output
I0403 19:11:05.011579  8843 net.cpp:425] inception_4c/output <- inception_4c/1x1
I0403 19:11:05.011595  8843 net.cpp:425] inception_4c/output <- inception_4c/3x3
I0403 19:11:05.011610  8843 net.cpp:425] inception_4c/output <- inception_4c/5x5
I0403 19:11:05.011626  8843 net.cpp:425] inception_4c/output <- inception_4c/pool_proj
I0403 19:11:05.011646  8843 net.cpp:399] inception_4c/output -> inception_4c/output
I0403 19:11:05.011689  8843 net.cpp:141] Setting up inception_4c/output
I0403 19:11:05.011719  8843 net.cpp:148] Top shape: 24 512 14 14 (2408448)
I0403 19:11:05.011734  8843 net.cpp:156] Memory required for data: 1072647456
I0403 19:11:05.011749  8843 layer_factory.hpp:77] Creating layer inception_4c/output_inception_4c/output_0_split
I0403 19:11:05.011766  8843 net.cpp:91] Creating Layer inception_4c/output_inception_4c/output_0_split
I0403 19:11:05.011782  8843 net.cpp:425] inception_4c/output_inception_4c/output_0_split <- inception_4c/output
I0403 19:11:05.011798  8843 net.cpp:399] inception_4c/output_inception_4c/output_0_split -> inception_4c/output_inception_4c/output_0_split_0
I0403 19:11:05.011821  8843 net.cpp:399] inception_4c/output_inception_4c/output_0_split -> inception_4c/output_inception_4c/output_0_split_1
I0403 19:11:05.011842  8843 net.cpp:399] inception_4c/output_inception_4c/output_0_split -> inception_4c/output_inception_4c/output_0_split_2
I0403 19:11:05.011860  8843 net.cpp:399] inception_4c/output_inception_4c/output_0_split -> inception_4c/output_inception_4c/output_0_split_3
I0403 19:11:05.011948  8843 net.cpp:141] Setting up inception_4c/output_inception_4c/output_0_split
I0403 19:11:05.011972  8843 net.cpp:148] Top shape: 24 512 14 14 (2408448)
I0403 19:11:05.011988  8843 net.cpp:148] Top shape: 24 512 14 14 (2408448)
I0403 19:11:05.012004  8843 net.cpp:148] Top shape: 24 512 14 14 (2408448)
I0403 19:11:05.012018  8843 net.cpp:148] Top shape: 24 512 14 14 (2408448)
I0403 19:11:05.012032  8843 net.cpp:156] Memory required for data: 1111182624
I0403 19:11:05.012048  8843 layer_factory.hpp:77] Creating layer inception_4d/1x1
I0403 19:11:05.012069  8843 net.cpp:91] Creating Layer inception_4d/1x1
I0403 19:11:05.012086  8843 net.cpp:425] inception_4d/1x1 <- inception_4c/output_inception_4c/output_0_split_0
I0403 19:11:05.012104  8843 net.cpp:399] inception_4d/1x1 -> inception_4d/1x1
I0403 19:11:05.013459  8843 net.cpp:141] Setting up inception_4d/1x1
I0403 19:11:05.013486  8843 net.cpp:148] Top shape: 24 112 14 14 (526848)
I0403 19:11:05.013502  8843 net.cpp:156] Memory required for data: 1113290016
I0403 19:11:05.013521  8843 layer_factory.hpp:77] Creating layer inception_4d/relu_1x1
I0403 19:11:05.013541  8843 net.cpp:91] Creating Layer inception_4d/relu_1x1
I0403 19:11:05.013558  8843 net.cpp:425] inception_4d/relu_1x1 <- inception_4d/1x1
I0403 19:11:05.013576  8843 net.cpp:386] inception_4d/relu_1x1 -> inception_4d/1x1 (in-place)
I0403 19:11:05.013756  8843 net.cpp:141] Setting up inception_4d/relu_1x1
I0403 19:11:05.013784  8843 net.cpp:148] Top shape: 24 112 14 14 (526848)
I0403 19:11:05.013799  8843 net.cpp:156] Memory required for data: 1115397408
I0403 19:11:05.013814  8843 layer_factory.hpp:77] Creating layer inception_4d/3x3_reduce
I0403 19:11:05.013849  8843 net.cpp:91] Creating Layer inception_4d/3x3_reduce
I0403 19:11:05.013867  8843 net.cpp:425] inception_4d/3x3_reduce <- inception_4c/output_inception_4c/output_0_split_1
I0403 19:11:05.013885  8843 net.cpp:399] inception_4d/3x3_reduce -> inception_4d/3x3_reduce
I0403 19:11:05.015374  8843 net.cpp:141] Setting up inception_4d/3x3_reduce
I0403 19:11:05.015401  8843 net.cpp:148] Top shape: 24 144 14 14 (677376)
I0403 19:11:05.015416  8843 net.cpp:156] Memory required for data: 1118106912
I0403 19:11:05.015436  8843 layer_factory.hpp:77] Creating layer inception_4d/relu_3x3_reduce
I0403 19:11:05.015456  8843 net.cpp:91] Creating Layer inception_4d/relu_3x3_reduce
I0403 19:11:05.015475  8843 net.cpp:425] inception_4d/relu_3x3_reduce <- inception_4d/3x3_reduce
I0403 19:11:05.015492  8843 net.cpp:386] inception_4d/relu_3x3_reduce -> inception_4d/3x3_reduce (in-place)
I0403 19:11:05.015777  8843 net.cpp:141] Setting up inception_4d/relu_3x3_reduce
I0403 19:11:05.015804  8843 net.cpp:148] Top shape: 24 144 14 14 (677376)
I0403 19:11:05.015817  8843 net.cpp:156] Memory required for data: 1120816416
I0403 19:11:05.015832  8843 layer_factory.hpp:77] Creating layer inception_4d/3x3
I0403 19:11:05.015857  8843 net.cpp:91] Creating Layer inception_4d/3x3
I0403 19:11:05.015877  8843 net.cpp:425] inception_4d/3x3 <- inception_4d/3x3_reduce
I0403 19:11:05.015897  8843 net.cpp:399] inception_4d/3x3 -> inception_4d/3x3
I0403 19:11:05.020104  8843 net.cpp:141] Setting up inception_4d/3x3
I0403 19:11:05.020138  8843 net.cpp:148] Top shape: 24 288 14 14 (1354752)
I0403 19:11:05.020154  8843 net.cpp:156] Memory required for data: 1126235424
I0403 19:11:05.020174  8843 layer_factory.hpp:77] Creating layer inception_4d/relu_3x3
I0403 19:11:05.020203  8843 net.cpp:91] Creating Layer inception_4d/relu_3x3
I0403 19:11:05.020221  8843 net.cpp:425] inception_4d/relu_3x3 <- inception_4d/3x3
I0403 19:11:05.020241  8843 net.cpp:386] inception_4d/relu_3x3 -> inception_4d/3x3 (in-place)
I0403 19:11:05.020428  8843 net.cpp:141] Setting up inception_4d/relu_3x3
I0403 19:11:05.020454  8843 net.cpp:148] Top shape: 24 288 14 14 (1354752)
I0403 19:11:05.020469  8843 net.cpp:156] Memory required for data: 1131654432
I0403 19:11:05.020484  8843 layer_factory.hpp:77] Creating layer inception_4d/5x5_reduce
I0403 19:11:05.020505  8843 net.cpp:91] Creating Layer inception_4d/5x5_reduce
I0403 19:11:05.020522  8843 net.cpp:425] inception_4d/5x5_reduce <- inception_4c/output_inception_4c/output_0_split_2
I0403 19:11:05.020541  8843 net.cpp:399] inception_4d/5x5_reduce -> inception_4d/5x5_reduce
I0403 19:11:05.021663  8843 net.cpp:141] Setting up inception_4d/5x5_reduce
I0403 19:11:05.021692  8843 net.cpp:148] Top shape: 24 32 14 14 (150528)
I0403 19:11:05.021708  8843 net.cpp:156] Memory required for data: 1132256544
I0403 19:11:05.021728  8843 layer_factory.hpp:77] Creating layer inception_4d/relu_5x5_reduce
I0403 19:11:05.021747  8843 net.cpp:91] Creating Layer inception_4d/relu_5x5_reduce
I0403 19:11:05.021766  8843 net.cpp:425] inception_4d/relu_5x5_reduce <- inception_4d/5x5_reduce
I0403 19:11:05.021785  8843 net.cpp:386] inception_4d/relu_5x5_reduce -> inception_4d/5x5_reduce (in-place)
I0403 19:11:05.021968  8843 net.cpp:141] Setting up inception_4d/relu_5x5_reduce
I0403 19:11:05.021992  8843 net.cpp:148] Top shape: 24 32 14 14 (150528)
I0403 19:11:05.022007  8843 net.cpp:156] Memory required for data: 1132858656
I0403 19:11:05.022022  8843 layer_factory.hpp:77] Creating layer inception_4d/5x5
I0403 19:11:05.022044  8843 net.cpp:91] Creating Layer inception_4d/5x5
I0403 19:11:05.022063  8843 net.cpp:425] inception_4d/5x5 <- inception_4d/5x5_reduce
I0403 19:11:05.022083  8843 net.cpp:399] inception_4d/5x5 -> inception_4d/5x5
I0403 19:11:05.023525  8843 net.cpp:141] Setting up inception_4d/5x5
I0403 19:11:05.023553  8843 net.cpp:148] Top shape: 24 64 14 14 (301056)
I0403 19:11:05.023567  8843 net.cpp:156] Memory required for data: 1134062880
I0403 19:11:05.023587  8843 layer_factory.hpp:77] Creating layer inception_4d/relu_5x5
I0403 19:11:05.023619  8843 net.cpp:91] Creating Layer inception_4d/relu_5x5
I0403 19:11:05.023636  8843 net.cpp:425] inception_4d/relu_5x5 <- inception_4d/5x5
I0403 19:11:05.023655  8843 net.cpp:386] inception_4d/relu_5x5 -> inception_4d/5x5 (in-place)
I0403 19:11:05.023950  8843 net.cpp:141] Setting up inception_4d/relu_5x5
I0403 19:11:05.023977  8843 net.cpp:148] Top shape: 24 64 14 14 (301056)
I0403 19:11:05.023991  8843 net.cpp:156] Memory required for data: 1135267104
I0403 19:11:05.024005  8843 layer_factory.hpp:77] Creating layer inception_4d/pool
I0403 19:11:05.024022  8843 net.cpp:91] Creating Layer inception_4d/pool
I0403 19:11:05.024037  8843 net.cpp:425] inception_4d/pool <- inception_4c/output_inception_4c/output_0_split_3
I0403 19:11:05.024057  8843 net.cpp:399] inception_4d/pool -> inception_4d/pool
I0403 19:11:05.024123  8843 net.cpp:141] Setting up inception_4d/pool
I0403 19:11:05.024147  8843 net.cpp:148] Top shape: 24 512 14 14 (2408448)
I0403 19:11:05.024161  8843 net.cpp:156] Memory required for data: 1144900896
I0403 19:11:05.024175  8843 layer_factory.hpp:77] Creating layer inception_4d/pool_proj
I0403 19:11:05.024205  8843 net.cpp:91] Creating Layer inception_4d/pool_proj
I0403 19:11:05.024224  8843 net.cpp:425] inception_4d/pool_proj <- inception_4d/pool
I0403 19:11:05.024241  8843 net.cpp:399] inception_4d/pool_proj -> inception_4d/pool_proj
I0403 19:11:05.025957  8843 net.cpp:141] Setting up inception_4d/pool_proj
I0403 19:11:05.025988  8843 net.cpp:148] Top shape: 24 64 14 14 (301056)
I0403 19:11:05.026005  8843 net.cpp:156] Memory required for data: 1146105120
I0403 19:11:05.026022  8843 layer_factory.hpp:77] Creating layer inception_4d/relu_pool_proj
I0403 19:11:05.026041  8843 net.cpp:91] Creating Layer inception_4d/relu_pool_proj
I0403 19:11:05.026057  8843 net.cpp:425] inception_4d/relu_pool_proj <- inception_4d/pool_proj
I0403 19:11:05.026073  8843 net.cpp:386] inception_4d/relu_pool_proj -> inception_4d/pool_proj (in-place)
I0403 19:11:05.026262  8843 net.cpp:141] Setting up inception_4d/relu_pool_proj
I0403 19:11:05.026288  8843 net.cpp:148] Top shape: 24 64 14 14 (301056)
I0403 19:11:05.026304  8843 net.cpp:156] Memory required for data: 1147309344
I0403 19:11:05.026317  8843 layer_factory.hpp:77] Creating layer inception_4d/output
I0403 19:11:05.026335  8843 net.cpp:91] Creating Layer inception_4d/output
I0403 19:11:05.026350  8843 net.cpp:425] inception_4d/output <- inception_4d/1x1
I0403 19:11:05.026366  8843 net.cpp:425] inception_4d/output <- inception_4d/3x3
I0403 19:11:05.026382  8843 net.cpp:425] inception_4d/output <- inception_4d/5x5
I0403 19:11:05.026397  8843 net.cpp:425] inception_4d/output <- inception_4d/pool_proj
I0403 19:11:05.026417  8843 net.cpp:399] inception_4d/output -> inception_4d/output
I0403 19:11:05.026461  8843 net.cpp:141] Setting up inception_4d/output
I0403 19:11:05.026484  8843 net.cpp:148] Top shape: 24 528 14 14 (2483712)
I0403 19:11:05.026499  8843 net.cpp:156] Memory required for data: 1157244192
I0403 19:11:05.026511  8843 layer_factory.hpp:77] Creating layer inception_4d/output_inception_4d/output_0_split
I0403 19:11:05.026535  8843 net.cpp:91] Creating Layer inception_4d/output_inception_4d/output_0_split
I0403 19:11:05.026551  8843 net.cpp:425] inception_4d/output_inception_4d/output_0_split <- inception_4d/output
I0403 19:11:05.026567  8843 net.cpp:399] inception_4d/output_inception_4d/output_0_split -> inception_4d/output_inception_4d/output_0_split_0
I0403 19:11:05.026592  8843 net.cpp:399] inception_4d/output_inception_4d/output_0_split -> inception_4d/output_inception_4d/output_0_split_1
I0403 19:11:05.026612  8843 net.cpp:399] inception_4d/output_inception_4d/output_0_split -> inception_4d/output_inception_4d/output_0_split_2
I0403 19:11:05.026633  8843 net.cpp:399] inception_4d/output_inception_4d/output_0_split -> inception_4d/output_inception_4d/output_0_split_3
I0403 19:11:05.026653  8843 net.cpp:399] inception_4d/output_inception_4d/output_0_split -> inception_4d/output_inception_4d/output_0_split_4
I0403 19:11:05.026751  8843 net.cpp:141] Setting up inception_4d/output_inception_4d/output_0_split
I0403 19:11:05.026787  8843 net.cpp:148] Top shape: 24 528 14 14 (2483712)
I0403 19:11:05.026804  8843 net.cpp:148] Top shape: 24 528 14 14 (2483712)
I0403 19:11:05.026820  8843 net.cpp:148] Top shape: 24 528 14 14 (2483712)
I0403 19:11:05.026835  8843 net.cpp:148] Top shape: 24 528 14 14 (2483712)
I0403 19:11:05.026850  8843 net.cpp:148] Top shape: 24 528 14 14 (2483712)
I0403 19:11:05.026865  8843 net.cpp:156] Memory required for data: 1206918432
I0403 19:11:05.026878  8843 layer_factory.hpp:77] Creating layer loss2/ave_pool
I0403 19:11:05.026897  8843 net.cpp:91] Creating Layer loss2/ave_pool
I0403 19:11:05.026914  8843 net.cpp:425] loss2/ave_pool <- inception_4d/output_inception_4d/output_0_split_0
I0403 19:11:05.026932  8843 net.cpp:399] loss2/ave_pool -> loss2/ave_pool
I0403 19:11:05.027243  8843 net.cpp:141] Setting up loss2/ave_pool
I0403 19:11:05.027271  8843 net.cpp:148] Top shape: 24 528 4 4 (202752)
I0403 19:11:05.027287  8843 net.cpp:156] Memory required for data: 1207729440
I0403 19:11:05.027302  8843 layer_factory.hpp:77] Creating layer loss2/conv
I0403 19:11:05.027321  8843 net.cpp:91] Creating Layer loss2/conv
I0403 19:11:05.027339  8843 net.cpp:425] loss2/conv <- loss2/ave_pool
I0403 19:11:05.027359  8843 net.cpp:399] loss2/conv -> loss2/conv
I0403 19:11:05.029278  8843 net.cpp:141] Setting up loss2/conv
I0403 19:11:05.029309  8843 net.cpp:148] Top shape: 24 128 4 4 (49152)
I0403 19:11:05.029323  8843 net.cpp:156] Memory required for data: 1207926048
I0403 19:11:05.029342  8843 layer_factory.hpp:77] Creating layer loss2/relu_conv
I0403 19:11:05.029361  8843 net.cpp:91] Creating Layer loss2/relu_conv
I0403 19:11:05.029376  8843 net.cpp:425] loss2/relu_conv <- loss2/conv
I0403 19:11:05.029397  8843 net.cpp:386] loss2/relu_conv -> loss2/conv (in-place)
I0403 19:11:05.029685  8843 net.cpp:141] Setting up loss2/relu_conv
I0403 19:11:05.029711  8843 net.cpp:148] Top shape: 24 128 4 4 (49152)
I0403 19:11:05.029727  8843 net.cpp:156] Memory required for data: 1208122656
I0403 19:11:05.029742  8843 layer_factory.hpp:77] Creating layer loss2/fc
I0403 19:11:05.029762  8843 net.cpp:91] Creating Layer loss2/fc
I0403 19:11:05.029778  8843 net.cpp:425] loss2/fc <- loss2/conv
I0403 19:11:05.029800  8843 net.cpp:399] loss2/fc -> loss2/fc
I0403 19:11:05.047632  8843 net.cpp:141] Setting up loss2/fc
I0403 19:11:05.047670  8843 net.cpp:148] Top shape: 24 1024 (24576)
I0403 19:11:05.047685  8843 net.cpp:156] Memory required for data: 1208220960
I0403 19:11:05.047704  8843 layer_factory.hpp:77] Creating layer loss2/relu_fc
I0403 19:11:05.047725  8843 net.cpp:91] Creating Layer loss2/relu_fc
I0403 19:11:05.047744  8843 net.cpp:425] loss2/relu_fc <- loss2/fc
I0403 19:11:05.047760  8843 net.cpp:386] loss2/relu_fc -> loss2/fc (in-place)
I0403 19:11:05.048068  8843 net.cpp:141] Setting up loss2/relu_fc
I0403 19:11:05.048096  8843 net.cpp:148] Top shape: 24 1024 (24576)
I0403 19:11:05.048112  8843 net.cpp:156] Memory required for data: 1208319264
I0403 19:11:05.048127  8843 layer_factory.hpp:77] Creating layer loss2/drop_fc
I0403 19:11:05.048146  8843 net.cpp:91] Creating Layer loss2/drop_fc
I0403 19:11:05.048162  8843 net.cpp:425] loss2/drop_fc <- loss2/fc
I0403 19:11:05.048183  8843 net.cpp:386] loss2/drop_fc -> loss2/fc (in-place)
I0403 19:11:05.048238  8843 net.cpp:141] Setting up loss2/drop_fc
I0403 19:11:05.048260  8843 net.cpp:148] Top shape: 24 1024 (24576)
I0403 19:11:05.048275  8843 net.cpp:156] Memory required for data: 1208417568
I0403 19:11:05.048291  8843 layer_factory.hpp:77] Creating layer loss2/classifier_plantvillage
I0403 19:11:05.048313  8843 net.cpp:91] Creating Layer loss2/classifier_plantvillage
I0403 19:11:05.048331  8843 net.cpp:425] loss2/classifier_plantvillage <- loss2/fc
I0403 19:11:05.048349  8843 net.cpp:399] loss2/classifier_plantvillage -> loss2/classifier_plantvillage
I0403 19:11:05.048754  8843 net.cpp:141] Setting up loss2/classifier_plantvillage
I0403 19:11:05.048779  8843 net.cpp:148] Top shape: 24 38 (912)
I0403 19:11:05.048813  8843 net.cpp:156] Memory required for data: 1208421216
I0403 19:11:05.048832  8843 layer_factory.hpp:77] Creating layer loss2/classifier_plantvillage_loss2/classifier_plantvillage_0_split
I0403 19:11:05.048851  8843 net.cpp:91] Creating Layer loss2/classifier_plantvillage_loss2/classifier_plantvillage_0_split
I0403 19:11:05.048867  8843 net.cpp:425] loss2/classifier_plantvillage_loss2/classifier_plantvillage_0_split <- loss2/classifier_plantvillage
I0403 19:11:05.048889  8843 net.cpp:399] loss2/classifier_plantvillage_loss2/classifier_plantvillage_0_split -> loss2/classifier_plantvillage_loss2/classifier_plantvillage_0_split_0
I0403 19:11:05.048910  8843 net.cpp:399] loss2/classifier_plantvillage_loss2/classifier_plantvillage_0_split -> loss2/classifier_plantvillage_loss2/classifier_plantvillage_0_split_1
I0403 19:11:05.048933  8843 net.cpp:399] loss2/classifier_plantvillage_loss2/classifier_plantvillage_0_split -> loss2/classifier_plantvillage_loss2/classifier_plantvillage_0_split_2
I0403 19:11:05.049010  8843 net.cpp:141] Setting up loss2/classifier_plantvillage_loss2/classifier_plantvillage_0_split
I0403 19:11:05.049036  8843 net.cpp:148] Top shape: 24 38 (912)
I0403 19:11:05.049053  8843 net.cpp:148] Top shape: 24 38 (912)
I0403 19:11:05.049069  8843 net.cpp:148] Top shape: 24 38 (912)
I0403 19:11:05.049082  8843 net.cpp:156] Memory required for data: 1208432160
I0403 19:11:05.049098  8843 layer_factory.hpp:77] Creating layer inception_4e/1x1
I0403 19:11:05.049118  8843 net.cpp:91] Creating Layer inception_4e/1x1
I0403 19:11:05.049134  8843 net.cpp:425] inception_4e/1x1 <- inception_4d/output_inception_4d/output_0_split_1
I0403 19:11:05.049152  8843 net.cpp:399] inception_4e/1x1 -> inception_4e/1x1
I0403 19:11:05.051192  8843 net.cpp:141] Setting up inception_4e/1x1
I0403 19:11:05.051223  8843 net.cpp:148] Top shape: 24 256 14 14 (1204224)
I0403 19:11:05.051239  8843 net.cpp:156] Memory required for data: 1213249056
I0403 19:11:05.051259  8843 layer_factory.hpp:77] Creating layer inception_4e/relu_1x1
I0403 19:11:05.051276  8843 net.cpp:91] Creating Layer inception_4e/relu_1x1
I0403 19:11:05.051291  8843 net.cpp:425] inception_4e/relu_1x1 <- inception_4e/1x1
I0403 19:11:05.051314  8843 net.cpp:386] inception_4e/relu_1x1 -> inception_4e/1x1 (in-place)
I0403 19:11:05.051614  8843 net.cpp:141] Setting up inception_4e/relu_1x1
I0403 19:11:05.051641  8843 net.cpp:148] Top shape: 24 256 14 14 (1204224)
I0403 19:11:05.051656  8843 net.cpp:156] Memory required for data: 1218065952
I0403 19:11:05.051671  8843 layer_factory.hpp:77] Creating layer inception_4e/3x3_reduce
I0403 19:11:05.051694  8843 net.cpp:91] Creating Layer inception_4e/3x3_reduce
I0403 19:11:05.051712  8843 net.cpp:425] inception_4e/3x3_reduce <- inception_4d/output_inception_4d/output_0_split_2
I0403 19:11:05.051733  8843 net.cpp:399] inception_4e/3x3_reduce -> inception_4e/3x3_reduce
I0403 19:11:05.053902  8843 net.cpp:141] Setting up inception_4e/3x3_reduce
I0403 19:11:05.053933  8843 net.cpp:148] Top shape: 24 160 14 14 (752640)
I0403 19:11:05.053951  8843 net.cpp:156] Memory required for data: 1221076512
I0403 19:11:05.053968  8843 layer_factory.hpp:77] Creating layer inception_4e/relu_3x3_reduce
I0403 19:11:05.053987  8843 net.cpp:91] Creating Layer inception_4e/relu_3x3_reduce
I0403 19:11:05.054003  8843 net.cpp:425] inception_4e/relu_3x3_reduce <- inception_4e/3x3_reduce
I0403 19:11:05.054023  8843 net.cpp:386] inception_4e/relu_3x3_reduce -> inception_4e/3x3_reduce (in-place)
I0403 19:11:05.054217  8843 net.cpp:141] Setting up inception_4e/relu_3x3_reduce
I0403 19:11:05.054244  8843 net.cpp:148] Top shape: 24 160 14 14 (752640)
I0403 19:11:05.054258  8843 net.cpp:156] Memory required for data: 1224087072
I0403 19:11:05.054273  8843 layer_factory.hpp:77] Creating layer inception_4e/3x3
I0403 19:11:05.054301  8843 net.cpp:91] Creating Layer inception_4e/3x3
I0403 19:11:05.054318  8843 net.cpp:425] inception_4e/3x3 <- inception_4e/3x3_reduce
I0403 19:11:05.054339  8843 net.cpp:399] inception_4e/3x3 -> inception_4e/3x3
I0403 19:11:05.059453  8843 net.cpp:141] Setting up inception_4e/3x3
I0403 19:11:05.059494  8843 net.cpp:148] Top shape: 24 320 14 14 (1505280)
I0403 19:11:05.059510  8843 net.cpp:156] Memory required for data: 1230108192
I0403 19:11:05.059528  8843 layer_factory.hpp:77] Creating layer inception_4e/relu_3x3
I0403 19:11:05.059550  8843 net.cpp:91] Creating Layer inception_4e/relu_3x3
I0403 19:11:05.059567  8843 net.cpp:425] inception_4e/relu_3x3 <- inception_4e/3x3
I0403 19:11:05.059586  8843 net.cpp:386] inception_4e/relu_3x3 -> inception_4e/3x3 (in-place)
I0403 19:11:05.059893  8843 net.cpp:141] Setting up inception_4e/relu_3x3
I0403 19:11:05.059921  8843 net.cpp:148] Top shape: 24 320 14 14 (1505280)
I0403 19:11:05.059937  8843 net.cpp:156] Memory required for data: 1236129312
I0403 19:11:05.059950  8843 layer_factory.hpp:77] Creating layer inception_4e/5x5_reduce
I0403 19:11:05.059975  8843 net.cpp:91] Creating Layer inception_4e/5x5_reduce
I0403 19:11:05.059993  8843 net.cpp:425] inception_4e/5x5_reduce <- inception_4d/output_inception_4d/output_0_split_3
I0403 19:11:05.060014  8843 net.cpp:399] inception_4e/5x5_reduce -> inception_4e/5x5_reduce
I0403 19:11:05.061105  8843 net.cpp:141] Setting up inception_4e/5x5_reduce
I0403 19:11:05.061133  8843 net.cpp:148] Top shape: 24 32 14 14 (150528)
I0403 19:11:05.061148  8843 net.cpp:156] Memory required for data: 1236731424
I0403 19:11:05.061184  8843 layer_factory.hpp:77] Creating layer inception_4e/relu_5x5_reduce
I0403 19:11:05.061204  8843 net.cpp:91] Creating Layer inception_4e/relu_5x5_reduce
I0403 19:11:05.061221  8843 net.cpp:425] inception_4e/relu_5x5_reduce <- inception_4e/5x5_reduce
I0403 19:11:05.061241  8843 net.cpp:386] inception_4e/relu_5x5_reduce -> inception_4e/5x5_reduce (in-place)
I0403 19:11:05.061565  8843 net.cpp:141] Setting up inception_4e/relu_5x5_reduce
I0403 19:11:05.061592  8843 net.cpp:148] Top shape: 24 32 14 14 (150528)
I0403 19:11:05.061607  8843 net.cpp:156] Memory required for data: 1237333536
I0403 19:11:05.061624  8843 layer_factory.hpp:77] Creating layer inception_4e/5x5
I0403 19:11:05.061661  8843 net.cpp:91] Creating Layer inception_4e/5x5
I0403 19:11:05.061681  8843 net.cpp:425] inception_4e/5x5 <- inception_4e/5x5_reduce
I0403 19:11:05.061700  8843 net.cpp:399] inception_4e/5x5 -> inception_4e/5x5
I0403 19:11:05.063555  8843 net.cpp:141] Setting up inception_4e/5x5
I0403 19:11:05.063587  8843 net.cpp:148] Top shape: 24 128 14 14 (602112)
I0403 19:11:05.063603  8843 net.cpp:156] Memory required for data: 1239741984
I0403 19:11:05.063624  8843 layer_factory.hpp:77] Creating layer inception_4e/relu_5x5
I0403 19:11:05.063642  8843 net.cpp:91] Creating Layer inception_4e/relu_5x5
I0403 19:11:05.063658  8843 net.cpp:425] inception_4e/relu_5x5 <- inception_4e/5x5
I0403 19:11:05.063674  8843 net.cpp:386] inception_4e/relu_5x5 -> inception_4e/5x5 (in-place)
I0403 19:11:05.063877  8843 net.cpp:141] Setting up inception_4e/relu_5x5
I0403 19:11:05.063902  8843 net.cpp:148] Top shape: 24 128 14 14 (602112)
I0403 19:11:05.063917  8843 net.cpp:156] Memory required for data: 1242150432
I0403 19:11:05.063933  8843 layer_factory.hpp:77] Creating layer inception_4e/pool
I0403 19:11:05.063951  8843 net.cpp:91] Creating Layer inception_4e/pool
I0403 19:11:05.063968  8843 net.cpp:425] inception_4e/pool <- inception_4d/output_inception_4d/output_0_split_4
I0403 19:11:05.063992  8843 net.cpp:399] inception_4e/pool -> inception_4e/pool
I0403 19:11:05.064061  8843 net.cpp:141] Setting up inception_4e/pool
I0403 19:11:05.064088  8843 net.cpp:148] Top shape: 24 528 14 14 (2483712)
I0403 19:11:05.064105  8843 net.cpp:156] Memory required for data: 1252085280
I0403 19:11:05.064119  8843 layer_factory.hpp:77] Creating layer inception_4e/pool_proj
I0403 19:11:05.064141  8843 net.cpp:91] Creating Layer inception_4e/pool_proj
I0403 19:11:05.064159  8843 net.cpp:425] inception_4e/pool_proj <- inception_4e/pool
I0403 19:11:05.064182  8843 net.cpp:399] inception_4e/pool_proj -> inception_4e/pool_proj
I0403 19:11:05.065688  8843 net.cpp:141] Setting up inception_4e/pool_proj
I0403 19:11:05.065732  8843 net.cpp:148] Top shape: 24 128 14 14 (602112)
I0403 19:11:05.065748  8843 net.cpp:156] Memory required for data: 1254493728
I0403 19:11:05.065767  8843 layer_factory.hpp:77] Creating layer inception_4e/relu_pool_proj
I0403 19:11:05.065783  8843 net.cpp:91] Creating Layer inception_4e/relu_pool_proj
I0403 19:11:05.065799  8843 net.cpp:425] inception_4e/relu_pool_proj <- inception_4e/pool_proj
I0403 19:11:05.065817  8843 net.cpp:386] inception_4e/relu_pool_proj -> inception_4e/pool_proj (in-place)
I0403 19:11:05.066112  8843 net.cpp:141] Setting up inception_4e/relu_pool_proj
I0403 19:11:05.066141  8843 net.cpp:148] Top shape: 24 128 14 14 (602112)
I0403 19:11:05.066156  8843 net.cpp:156] Memory required for data: 1256902176
I0403 19:11:05.066171  8843 layer_factory.hpp:77] Creating layer inception_4e/output
I0403 19:11:05.066195  8843 net.cpp:91] Creating Layer inception_4e/output
I0403 19:11:05.066212  8843 net.cpp:425] inception_4e/output <- inception_4e/1x1
I0403 19:11:05.066228  8843 net.cpp:425] inception_4e/output <- inception_4e/3x3
I0403 19:11:05.066246  8843 net.cpp:425] inception_4e/output <- inception_4e/5x5
I0403 19:11:05.066262  8843 net.cpp:425] inception_4e/output <- inception_4e/pool_proj
I0403 19:11:05.066278  8843 net.cpp:399] inception_4e/output -> inception_4e/output
I0403 19:11:05.066329  8843 net.cpp:141] Setting up inception_4e/output
I0403 19:11:05.066354  8843 net.cpp:148] Top shape: 24 832 14 14 (3913728)
I0403 19:11:05.066370  8843 net.cpp:156] Memory required for data: 1272557088
I0403 19:11:05.066385  8843 layer_factory.hpp:77] Creating layer pool4/3x3_s2
I0403 19:11:05.066404  8843 net.cpp:91] Creating Layer pool4/3x3_s2
I0403 19:11:05.066421  8843 net.cpp:425] pool4/3x3_s2 <- inception_4e/output
I0403 19:11:05.066439  8843 net.cpp:399] pool4/3x3_s2 -> pool4/3x3_s2
I0403 19:11:05.066509  8843 net.cpp:141] Setting up pool4/3x3_s2
I0403 19:11:05.066532  8843 net.cpp:148] Top shape: 24 832 7 7 (978432)
I0403 19:11:05.066546  8843 net.cpp:156] Memory required for data: 1276470816
I0403 19:11:05.066562  8843 layer_factory.hpp:77] Creating layer pool4/3x3_s2_pool4/3x3_s2_0_split
I0403 19:11:05.066579  8843 net.cpp:91] Creating Layer pool4/3x3_s2_pool4/3x3_s2_0_split
I0403 19:11:05.066596  8843 net.cpp:425] pool4/3x3_s2_pool4/3x3_s2_0_split <- pool4/3x3_s2
I0403 19:11:05.066617  8843 net.cpp:399] pool4/3x3_s2_pool4/3x3_s2_0_split -> pool4/3x3_s2_pool4/3x3_s2_0_split_0
I0403 19:11:05.066637  8843 net.cpp:399] pool4/3x3_s2_pool4/3x3_s2_0_split -> pool4/3x3_s2_pool4/3x3_s2_0_split_1
I0403 19:11:05.066658  8843 net.cpp:399] pool4/3x3_s2_pool4/3x3_s2_0_split -> pool4/3x3_s2_pool4/3x3_s2_0_split_2
I0403 19:11:05.066678  8843 net.cpp:399] pool4/3x3_s2_pool4/3x3_s2_0_split -> pool4/3x3_s2_pool4/3x3_s2_0_split_3
I0403 19:11:05.066769  8843 net.cpp:141] Setting up pool4/3x3_s2_pool4/3x3_s2_0_split
I0403 19:11:05.066794  8843 net.cpp:148] Top shape: 24 832 7 7 (978432)
I0403 19:11:05.066812  8843 net.cpp:148] Top shape: 24 832 7 7 (978432)
I0403 19:11:05.066828  8843 net.cpp:148] Top shape: 24 832 7 7 (978432)
I0403 19:11:05.066844  8843 net.cpp:148] Top shape: 24 832 7 7 (978432)
I0403 19:11:05.066857  8843 net.cpp:156] Memory required for data: 1292125728
I0403 19:11:05.066872  8843 layer_factory.hpp:77] Creating layer inception_5a/1x1
I0403 19:11:05.066895  8843 net.cpp:91] Creating Layer inception_5a/1x1
I0403 19:11:05.066912  8843 net.cpp:425] inception_5a/1x1 <- pool4/3x3_s2_pool4/3x3_s2_0_split_0
I0403 19:11:05.066931  8843 net.cpp:399] inception_5a/1x1 -> inception_5a/1x1
I0403 19:11:05.069830  8843 net.cpp:141] Setting up inception_5a/1x1
I0403 19:11:05.069862  8843 net.cpp:148] Top shape: 24 256 7 7 (301056)
I0403 19:11:05.069880  8843 net.cpp:156] Memory required for data: 1293329952
I0403 19:11:05.069898  8843 layer_factory.hpp:77] Creating layer inception_5a/relu_1x1
I0403 19:11:05.069916  8843 net.cpp:91] Creating Layer inception_5a/relu_1x1
I0403 19:11:05.069932  8843 net.cpp:425] inception_5a/relu_1x1 <- inception_5a/1x1
I0403 19:11:05.069952  8843 net.cpp:386] inception_5a/relu_1x1 -> inception_5a/1x1 (in-place)
I0403 19:11:05.070267  8843 net.cpp:141] Setting up inception_5a/relu_1x1
I0403 19:11:05.070297  8843 net.cpp:148] Top shape: 24 256 7 7 (301056)
I0403 19:11:05.070312  8843 net.cpp:156] Memory required for data: 1294534176
I0403 19:11:05.070327  8843 layer_factory.hpp:77] Creating layer inception_5a/3x3_reduce
I0403 19:11:05.070350  8843 net.cpp:91] Creating Layer inception_5a/3x3_reduce
I0403 19:11:05.070369  8843 net.cpp:425] inception_5a/3x3_reduce <- pool4/3x3_s2_pool4/3x3_s2_0_split_1
I0403 19:11:05.070387  8843 net.cpp:399] inception_5a/3x3_reduce -> inception_5a/3x3_reduce
I0403 19:11:05.072891  8843 net.cpp:141] Setting up inception_5a/3x3_reduce
I0403 19:11:05.072921  8843 net.cpp:148] Top shape: 24 160 7 7 (188160)
I0403 19:11:05.072937  8843 net.cpp:156] Memory required for data: 1295286816
I0403 19:11:05.072954  8843 layer_factory.hpp:77] Creating layer inception_5a/relu_3x3_reduce
I0403 19:11:05.072976  8843 net.cpp:91] Creating Layer inception_5a/relu_3x3_reduce
I0403 19:11:05.072993  8843 net.cpp:425] inception_5a/relu_3x3_reduce <- inception_5a/3x3_reduce
I0403 19:11:05.073011  8843 net.cpp:386] inception_5a/relu_3x3_reduce -> inception_5a/3x3_reduce (in-place)
I0403 19:11:05.073211  8843 net.cpp:141] Setting up inception_5a/relu_3x3_reduce
I0403 19:11:05.073240  8843 net.cpp:148] Top shape: 24 160 7 7 (188160)
I0403 19:11:05.073256  8843 net.cpp:156] Memory required for data: 1296039456
I0403 19:11:05.073271  8843 layer_factory.hpp:77] Creating layer inception_5a/3x3
I0403 19:11:05.073295  8843 net.cpp:91] Creating Layer inception_5a/3x3
I0403 19:11:05.073313  8843 net.cpp:425] inception_5a/3x3 <- inception_5a/3x3_reduce
I0403 19:11:05.073333  8843 net.cpp:399] inception_5a/3x3 -> inception_5a/3x3
I0403 19:11:05.078475  8843 net.cpp:141] Setting up inception_5a/3x3
I0403 19:11:05.078507  8843 net.cpp:148] Top shape: 24 320 7 7 (376320)
I0403 19:11:05.078523  8843 net.cpp:156] Memory required for data: 1297544736
I0403 19:11:05.078542  8843 layer_factory.hpp:77] Creating layer inception_5a/relu_3x3
I0403 19:11:05.078562  8843 net.cpp:91] Creating Layer inception_5a/relu_3x3
I0403 19:11:05.078578  8843 net.cpp:425] inception_5a/relu_3x3 <- inception_5a/3x3
I0403 19:11:05.078598  8843 net.cpp:386] inception_5a/relu_3x3 -> inception_5a/3x3 (in-place)
I0403 19:11:05.078898  8843 net.cpp:141] Setting up inception_5a/relu_3x3
I0403 19:11:05.078927  8843 net.cpp:148] Top shape: 24 320 7 7 (376320)
I0403 19:11:05.078944  8843 net.cpp:156] Memory required for data: 1299050016
I0403 19:11:05.078959  8843 layer_factory.hpp:77] Creating layer inception_5a/5x5_reduce
I0403 19:11:05.078984  8843 net.cpp:91] Creating Layer inception_5a/5x5_reduce
I0403 19:11:05.079002  8843 net.cpp:425] inception_5a/5x5_reduce <- pool4/3x3_s2_pool4/3x3_s2_0_split_2
I0403 19:11:05.079021  8843 net.cpp:399] inception_5a/5x5_reduce -> inception_5a/5x5_reduce
I0403 19:11:05.080227  8843 net.cpp:141] Setting up inception_5a/5x5_reduce
I0403 19:11:05.080260  8843 net.cpp:148] Top shape: 24 32 7 7 (37632)
I0403 19:11:05.080277  8843 net.cpp:156] Memory required for data: 1299200544
I0403 19:11:05.080296  8843 layer_factory.hpp:77] Creating layer inception_5a/relu_5x5_reduce
I0403 19:11:05.080313  8843 net.cpp:91] Creating Layer inception_5a/relu_5x5_reduce
I0403 19:11:05.080330  8843 net.cpp:425] inception_5a/relu_5x5_reduce <- inception_5a/5x5_reduce
I0403 19:11:05.080350  8843 net.cpp:386] inception_5a/relu_5x5_reduce -> inception_5a/5x5_reduce (in-place)
I0403 19:11:05.080652  8843 net.cpp:141] Setting up inception_5a/relu_5x5_reduce
I0403 19:11:05.080679  8843 net.cpp:148] Top shape: 24 32 7 7 (37632)
I0403 19:11:05.080695  8843 net.cpp:156] Memory required for data: 1299351072
I0403 19:11:05.080711  8843 layer_factory.hpp:77] Creating layer inception_5a/5x5
I0403 19:11:05.080734  8843 net.cpp:91] Creating Layer inception_5a/5x5
I0403 19:11:05.080752  8843 net.cpp:425] inception_5a/5x5 <- inception_5a/5x5_reduce
I0403 19:11:05.080773  8843 net.cpp:399] inception_5a/5x5 -> inception_5a/5x5
I0403 19:11:05.082517  8843 net.cpp:141] Setting up inception_5a/5x5
I0403 19:11:05.082561  8843 net.cpp:148] Top shape: 24 128 7 7 (150528)
I0403 19:11:05.082578  8843 net.cpp:156] Memory required for data: 1299953184
I0403 19:11:05.082598  8843 layer_factory.hpp:77] Creating layer inception_5a/relu_5x5
I0403 19:11:05.082615  8843 net.cpp:91] Creating Layer inception_5a/relu_5x5
I0403 19:11:05.082639  8843 net.cpp:425] inception_5a/relu_5x5 <- inception_5a/5x5
I0403 19:11:05.082656  8843 net.cpp:386] inception_5a/relu_5x5 -> inception_5a/5x5 (in-place)
I0403 19:11:05.082856  8843 net.cpp:141] Setting up inception_5a/relu_5x5
I0403 19:11:05.082881  8843 net.cpp:148] Top shape: 24 128 7 7 (150528)
I0403 19:11:05.082896  8843 net.cpp:156] Memory required for data: 1300555296
I0403 19:11:05.082911  8843 layer_factory.hpp:77] Creating layer inception_5a/pool
I0403 19:11:05.082927  8843 net.cpp:91] Creating Layer inception_5a/pool
I0403 19:11:05.082943  8843 net.cpp:425] inception_5a/pool <- pool4/3x3_s2_pool4/3x3_s2_0_split_3
I0403 19:11:05.082964  8843 net.cpp:399] inception_5a/pool -> inception_5a/pool
I0403 19:11:05.083035  8843 net.cpp:141] Setting up inception_5a/pool
I0403 19:11:05.083060  8843 net.cpp:148] Top shape: 24 832 7 7 (978432)
I0403 19:11:05.083076  8843 net.cpp:156] Memory required for data: 1304469024
I0403 19:11:05.083089  8843 layer_factory.hpp:77] Creating layer inception_5a/pool_proj
I0403 19:11:05.083111  8843 net.cpp:91] Creating Layer inception_5a/pool_proj
I0403 19:11:05.083128  8843 net.cpp:425] inception_5a/pool_proj <- inception_5a/pool
I0403 19:11:05.083149  8843 net.cpp:399] inception_5a/pool_proj -> inception_5a/pool_proj
I0403 19:11:05.085440  8843 net.cpp:141] Setting up inception_5a/pool_proj
I0403 19:11:05.085469  8843 net.cpp:148] Top shape: 24 128 7 7 (150528)
I0403 19:11:05.085484  8843 net.cpp:156] Memory required for data: 1305071136
I0403 19:11:05.085502  8843 layer_factory.hpp:77] Creating layer inception_5a/relu_pool_proj
I0403 19:11:05.085522  8843 net.cpp:91] Creating Layer inception_5a/relu_pool_proj
I0403 19:11:05.085541  8843 net.cpp:425] inception_5a/relu_pool_proj <- inception_5a/pool_proj
I0403 19:11:05.085557  8843 net.cpp:386] inception_5a/relu_pool_proj -> inception_5a/pool_proj (in-place)
I0403 19:11:05.085852  8843 net.cpp:141] Setting up inception_5a/relu_pool_proj
I0403 19:11:05.085878  8843 net.cpp:148] Top shape: 24 128 7 7 (150528)
I0403 19:11:05.085893  8843 net.cpp:156] Memory required for data: 1305673248
I0403 19:11:05.085908  8843 layer_factory.hpp:77] Creating layer inception_5a/output
I0403 19:11:05.085928  8843 net.cpp:91] Creating Layer inception_5a/output
I0403 19:11:05.085945  8843 net.cpp:425] inception_5a/output <- inception_5a/1x1
I0403 19:11:05.085961  8843 net.cpp:425] inception_5a/output <- inception_5a/3x3
I0403 19:11:05.085978  8843 net.cpp:425] inception_5a/output <- inception_5a/5x5
I0403 19:11:05.085994  8843 net.cpp:425] inception_5a/output <- inception_5a/pool_proj
I0403 19:11:05.086010  8843 net.cpp:399] inception_5a/output -> inception_5a/output
I0403 19:11:05.086061  8843 net.cpp:141] Setting up inception_5a/output
I0403 19:11:05.086086  8843 net.cpp:148] Top shape: 24 832 7 7 (978432)
I0403 19:11:05.086099  8843 net.cpp:156] Memory required for data: 1309586976
I0403 19:11:05.086114  8843 layer_factory.hpp:77] Creating layer inception_5a/output_inception_5a/output_0_split
I0403 19:11:05.086132  8843 net.cpp:91] Creating Layer inception_5a/output_inception_5a/output_0_split
I0403 19:11:05.086148  8843 net.cpp:425] inception_5a/output_inception_5a/output_0_split <- inception_5a/output
I0403 19:11:05.086169  8843 net.cpp:399] inception_5a/output_inception_5a/output_0_split -> inception_5a/output_inception_5a/output_0_split_0
I0403 19:11:05.086196  8843 net.cpp:399] inception_5a/output_inception_5a/output_0_split -> inception_5a/output_inception_5a/output_0_split_1
I0403 19:11:05.086218  8843 net.cpp:399] inception_5a/output_inception_5a/output_0_split -> inception_5a/output_inception_5a/output_0_split_2
I0403 19:11:05.086238  8843 net.cpp:399] inception_5a/output_inception_5a/output_0_split -> inception_5a/output_inception_5a/output_0_split_3
I0403 19:11:05.086357  8843 net.cpp:141] Setting up inception_5a/output_inception_5a/output_0_split
I0403 19:11:05.086381  8843 net.cpp:148] Top shape: 24 832 7 7 (978432)
I0403 19:11:05.086397  8843 net.cpp:148] Top shape: 24 832 7 7 (978432)
I0403 19:11:05.086413  8843 net.cpp:148] Top shape: 24 832 7 7 (978432)
I0403 19:11:05.086429  8843 net.cpp:148] Top shape: 24 832 7 7 (978432)
I0403 19:11:05.086442  8843 net.cpp:156] Memory required for data: 1325241888
I0403 19:11:05.086457  8843 layer_factory.hpp:77] Creating layer inception_5b/1x1
I0403 19:11:05.086479  8843 net.cpp:91] Creating Layer inception_5b/1x1
I0403 19:11:05.086498  8843 net.cpp:425] inception_5b/1x1 <- inception_5a/output_inception_5a/output_0_split_0
I0403 19:11:05.086519  8843 net.cpp:399] inception_5b/1x1 -> inception_5b/1x1
I0403 19:11:05.090289  8843 net.cpp:141] Setting up inception_5b/1x1
I0403 19:11:05.090318  8843 net.cpp:148] Top shape: 24 384 7 7 (451584)
I0403 19:11:05.090333  8843 net.cpp:156] Memory required for data: 1327048224
I0403 19:11:05.090353  8843 layer_factory.hpp:77] Creating layer inception_5b/relu_1x1
I0403 19:11:05.090373  8843 net.cpp:91] Creating Layer inception_5b/relu_1x1
I0403 19:11:05.090389  8843 net.cpp:425] inception_5b/relu_1x1 <- inception_5b/1x1
I0403 19:11:05.090409  8843 net.cpp:386] inception_5b/relu_1x1 -> inception_5b/1x1 (in-place)
I0403 19:11:05.090718  8843 net.cpp:141] Setting up inception_5b/relu_1x1
I0403 19:11:05.090744  8843 net.cpp:148] Top shape: 24 384 7 7 (451584)
I0403 19:11:05.090759  8843 net.cpp:156] Memory required for data: 1328854560
I0403 19:11:05.090775  8843 layer_factory.hpp:77] Creating layer inception_5b/3x3_reduce
I0403 19:11:05.090797  8843 net.cpp:91] Creating Layer inception_5b/3x3_reduce
I0403 19:11:05.090816  8843 net.cpp:425] inception_5b/3x3_reduce <- inception_5a/output_inception_5a/output_0_split_1
I0403 19:11:05.090837  8843 net.cpp:399] inception_5b/3x3_reduce -> inception_5b/3x3_reduce
I0403 19:11:05.093544  8843 net.cpp:141] Setting up inception_5b/3x3_reduce
I0403 19:11:05.093574  8843 net.cpp:148] Top shape: 24 192 7 7 (225792)
I0403 19:11:05.093590  8843 net.cpp:156] Memory required for data: 1329757728
I0403 19:11:05.093608  8843 layer_factory.hpp:77] Creating layer inception_5b/relu_3x3_reduce
I0403 19:11:05.093628  8843 net.cpp:91] Creating Layer inception_5b/relu_3x3_reduce
I0403 19:11:05.093646  8843 net.cpp:425] inception_5b/relu_3x3_reduce <- inception_5b/3x3_reduce
I0403 19:11:05.093663  8843 net.cpp:386] inception_5b/relu_3x3_reduce -> inception_5b/3x3_reduce (in-place)
I0403 19:11:05.093858  8843 net.cpp:141] Setting up inception_5b/relu_3x3_reduce
I0403 19:11:05.093883  8843 net.cpp:148] Top shape: 24 192 7 7 (225792)
I0403 19:11:05.093897  8843 net.cpp:156] Memory required for data: 1330660896
I0403 19:11:05.093912  8843 layer_factory.hpp:77] Creating layer inception_5b/3x3
I0403 19:11:05.093935  8843 net.cpp:91] Creating Layer inception_5b/3x3
I0403 19:11:05.093952  8843 net.cpp:425] inception_5b/3x3 <- inception_5b/3x3_reduce
I0403 19:11:05.093974  8843 net.cpp:399] inception_5b/3x3 -> inception_5b/3x3
I0403 19:11:05.100741  8843 net.cpp:141] Setting up inception_5b/3x3
I0403 19:11:05.100771  8843 net.cpp:148] Top shape: 24 384 7 7 (451584)
I0403 19:11:05.100786  8843 net.cpp:156] Memory required for data: 1332467232
I0403 19:11:05.100805  8843 layer_factory.hpp:77] Creating layer inception_5b/relu_3x3
I0403 19:11:05.100826  8843 net.cpp:91] Creating Layer inception_5b/relu_3x3
I0403 19:11:05.100843  8843 net.cpp:425] inception_5b/relu_3x3 <- inception_5b/3x3
I0403 19:11:05.100862  8843 net.cpp:386] inception_5b/relu_3x3 -> inception_5b/3x3 (in-place)
I0403 19:11:05.101161  8843 net.cpp:141] Setting up inception_5b/relu_3x3
I0403 19:11:05.101191  8843 net.cpp:148] Top shape: 24 384 7 7 (451584)
I0403 19:11:05.101208  8843 net.cpp:156] Memory required for data: 1334273568
I0403 19:11:05.101223  8843 layer_factory.hpp:77] Creating layer inception_5b/5x5_reduce
I0403 19:11:05.101264  8843 net.cpp:91] Creating Layer inception_5b/5x5_reduce
I0403 19:11:05.101284  8843 net.cpp:425] inception_5b/5x5_reduce <- inception_5a/output_inception_5a/output_0_split_2
I0403 19:11:05.101302  8843 net.cpp:399] inception_5b/5x5_reduce -> inception_5b/5x5_reduce
I0403 19:11:05.102608  8843 net.cpp:141] Setting up inception_5b/5x5_reduce
I0403 19:11:05.102639  8843 net.cpp:148] Top shape: 24 48 7 7 (56448)
I0403 19:11:05.102658  8843 net.cpp:156] Memory required for data: 1334499360
I0403 19:11:05.102676  8843 layer_factory.hpp:77] Creating layer inception_5b/relu_5x5_reduce
I0403 19:11:05.102694  8843 net.cpp:91] Creating Layer inception_5b/relu_5x5_reduce
I0403 19:11:05.102711  8843 net.cpp:425] inception_5b/relu_5x5_reduce <- inception_5b/5x5_reduce
I0403 19:11:05.102728  8843 net.cpp:386] inception_5b/relu_5x5_reduce -> inception_5b/5x5_reduce (in-place)
I0403 19:11:05.103109  8843 net.cpp:141] Setting up inception_5b/relu_5x5_reduce
I0403 19:11:05.103137  8843 net.cpp:148] Top shape: 24 48 7 7 (56448)
I0403 19:11:05.103152  8843 net.cpp:156] Memory required for data: 1334725152
I0403 19:11:05.103166  8843 layer_factory.hpp:77] Creating layer inception_5b/5x5
I0403 19:11:05.103193  8843 net.cpp:91] Creating Layer inception_5b/5x5
I0403 19:11:05.103212  8843 net.cpp:425] inception_5b/5x5 <- inception_5b/5x5_reduce
I0403 19:11:05.103231  8843 net.cpp:399] inception_5b/5x5 -> inception_5b/5x5
I0403 19:11:05.105303  8843 net.cpp:141] Setting up inception_5b/5x5
I0403 19:11:05.105334  8843 net.cpp:148] Top shape: 24 128 7 7 (150528)
I0403 19:11:05.105350  8843 net.cpp:156] Memory required for data: 1335327264
I0403 19:11:05.105367  8843 layer_factory.hpp:77] Creating layer inception_5b/relu_5x5
I0403 19:11:05.105386  8843 net.cpp:91] Creating Layer inception_5b/relu_5x5
I0403 19:11:05.105403  8843 net.cpp:425] inception_5b/relu_5x5 <- inception_5b/5x5
I0403 19:11:05.105423  8843 net.cpp:386] inception_5b/relu_5x5 -> inception_5b/5x5 (in-place)
I0403 19:11:05.105624  8843 net.cpp:141] Setting up inception_5b/relu_5x5
I0403 19:11:05.105649  8843 net.cpp:148] Top shape: 24 128 7 7 (150528)
I0403 19:11:05.105664  8843 net.cpp:156] Memory required for data: 1335929376
I0403 19:11:05.105679  8843 layer_factory.hpp:77] Creating layer inception_5b/pool
I0403 19:11:05.105697  8843 net.cpp:91] Creating Layer inception_5b/pool
I0403 19:11:05.105715  8843 net.cpp:425] inception_5b/pool <- inception_5a/output_inception_5a/output_0_split_3
I0403 19:11:05.105736  8843 net.cpp:399] inception_5b/pool -> inception_5b/pool
I0403 19:11:05.105810  8843 net.cpp:141] Setting up inception_5b/pool
I0403 19:11:05.105834  8843 net.cpp:148] Top shape: 24 832 7 7 (978432)
I0403 19:11:05.105849  8843 net.cpp:156] Memory required for data: 1339843104
I0403 19:11:05.105865  8843 layer_factory.hpp:77] Creating layer inception_5b/pool_proj
I0403 19:11:05.105890  8843 net.cpp:91] Creating Layer inception_5b/pool_proj
I0403 19:11:05.105908  8843 net.cpp:425] inception_5b/pool_proj <- inception_5b/pool
I0403 19:11:05.105926  8843 net.cpp:399] inception_5b/pool_proj -> inception_5b/pool_proj
I0403 19:11:05.108285  8843 net.cpp:141] Setting up inception_5b/pool_proj
I0403 19:11:05.108316  8843 net.cpp:148] Top shape: 24 128 7 7 (150528)
I0403 19:11:05.108335  8843 net.cpp:156] Memory required for data: 1340445216
I0403 19:11:05.108353  8843 layer_factory.hpp:77] Creating layer inception_5b/relu_pool_proj
I0403 19:11:05.108372  8843 net.cpp:91] Creating Layer inception_5b/relu_pool_proj
I0403 19:11:05.108389  8843 net.cpp:425] inception_5b/relu_pool_proj <- inception_5b/pool_proj
I0403 19:11:05.108407  8843 net.cpp:386] inception_5b/relu_pool_proj -> inception_5b/pool_proj (in-place)
I0403 19:11:05.108711  8843 net.cpp:141] Setting up inception_5b/relu_pool_proj
I0403 19:11:05.108741  8843 net.cpp:148] Top shape: 24 128 7 7 (150528)
I0403 19:11:05.108758  8843 net.cpp:156] Memory required for data: 1341047328
I0403 19:11:05.108773  8843 layer_factory.hpp:77] Creating layer inception_5b/output
I0403 19:11:05.108791  8843 net.cpp:91] Creating Layer inception_5b/output
I0403 19:11:05.108824  8843 net.cpp:425] inception_5b/output <- inception_5b/1x1
I0403 19:11:05.108841  8843 net.cpp:425] inception_5b/output <- inception_5b/3x3
I0403 19:11:05.108858  8843 net.cpp:425] inception_5b/output <- inception_5b/5x5
I0403 19:11:05.108875  8843 net.cpp:425] inception_5b/output <- inception_5b/pool_proj
I0403 19:11:05.108891  8843 net.cpp:399] inception_5b/output -> inception_5b/output
I0403 19:11:05.108947  8843 net.cpp:141] Setting up inception_5b/output
I0403 19:11:05.108971  8843 net.cpp:148] Top shape: 24 1024 7 7 (1204224)
I0403 19:11:05.108986  8843 net.cpp:156] Memory required for data: 1345864224
I0403 19:11:05.109001  8843 layer_factory.hpp:77] Creating layer pool5/7x7_s1
I0403 19:11:05.109021  8843 net.cpp:91] Creating Layer pool5/7x7_s1
I0403 19:11:05.109040  8843 net.cpp:425] pool5/7x7_s1 <- inception_5b/output
I0403 19:11:05.109058  8843 net.cpp:399] pool5/7x7_s1 -> pool5/7x7_s1
I0403 19:11:05.109287  8843 net.cpp:141] Setting up pool5/7x7_s1
I0403 19:11:05.109314  8843 net.cpp:148] Top shape: 24 1024 1 1 (24576)
I0403 19:11:05.109329  8843 net.cpp:156] Memory required for data: 1345962528
I0403 19:11:05.109344  8843 layer_factory.hpp:77] Creating layer pool5/drop_7x7_s1
I0403 19:11:05.109364  8843 net.cpp:91] Creating Layer pool5/drop_7x7_s1
I0403 19:11:05.109380  8843 net.cpp:425] pool5/drop_7x7_s1 <- pool5/7x7_s1
I0403 19:11:05.109396  8843 net.cpp:386] pool5/drop_7x7_s1 -> pool5/7x7_s1 (in-place)
I0403 19:11:05.109449  8843 net.cpp:141] Setting up pool5/drop_7x7_s1
I0403 19:11:05.109472  8843 net.cpp:148] Top shape: 24 1024 1 1 (24576)
I0403 19:11:05.109488  8843 net.cpp:156] Memory required for data: 1346060832
I0403 19:11:05.109503  8843 layer_factory.hpp:77] Creating layer loss3/classifier_plantvillage
I0403 19:11:05.109524  8843 net.cpp:91] Creating Layer loss3/classifier_plantvillage
I0403 19:11:05.109541  8843 net.cpp:425] loss3/classifier_plantvillage <- pool5/7x7_s1
I0403 19:11:05.109560  8843 net.cpp:399] loss3/classifier_plantvillage -> loss3/classifier_plantvillage
I0403 19:11:05.109989  8843 net.cpp:141] Setting up loss3/classifier_plantvillage
I0403 19:11:05.110014  8843 net.cpp:148] Top shape: 24 38 (912)
I0403 19:11:05.110030  8843 net.cpp:156] Memory required for data: 1346064480
I0403 19:11:05.110049  8843 layer_factory.hpp:77] Creating layer loss3/classifier_plantvillage_loss3/classifier_plantvillage_0_split
I0403 19:11:05.110069  8843 net.cpp:91] Creating Layer loss3/classifier_plantvillage_loss3/classifier_plantvillage_0_split
I0403 19:11:05.110085  8843 net.cpp:425] loss3/classifier_plantvillage_loss3/classifier_plantvillage_0_split <- loss3/classifier_plantvillage
I0403 19:11:05.110106  8843 net.cpp:399] loss3/classifier_plantvillage_loss3/classifier_plantvillage_0_split -> loss3/classifier_plantvillage_loss3/classifier_plantvillage_0_split_0
I0403 19:11:05.110129  8843 net.cpp:399] loss3/classifier_plantvillage_loss3/classifier_plantvillage_0_split -> loss3/classifier_plantvillage_loss3/classifier_plantvillage_0_split_1
I0403 19:11:05.110151  8843 net.cpp:399] loss3/classifier_plantvillage_loss3/classifier_plantvillage_0_split -> loss3/classifier_plantvillage_loss3/classifier_plantvillage_0_split_2
I0403 19:11:05.110172  8843 net.cpp:399] loss3/classifier_plantvillage_loss3/classifier_plantvillage_0_split -> loss3/classifier_plantvillage_loss3/classifier_plantvillage_0_split_3
I0403 19:11:05.110285  8843 net.cpp:141] Setting up loss3/classifier_plantvillage_loss3/classifier_plantvillage_0_split
I0403 19:11:05.110309  8843 net.cpp:148] Top shape: 24 38 (912)
I0403 19:11:05.110327  8843 net.cpp:148] Top shape: 24 38 (912)
I0403 19:11:05.110342  8843 net.cpp:148] Top shape: 24 38 (912)
I0403 19:11:05.110357  8843 net.cpp:148] Top shape: 24 38 (912)
I0403 19:11:05.110371  8843 net.cpp:156] Memory required for data: 1346079072
I0403 19:11:05.110386  8843 layer_factory.hpp:77] Creating layer loss1/loss
I0403 19:11:05.110409  8843 net.cpp:91] Creating Layer loss1/loss
I0403 19:11:05.110426  8843 net.cpp:425] loss1/loss <- loss1/classifier_plantvillage_loss1/classifier_plantvillage_0_split_0
I0403 19:11:05.110457  8843 net.cpp:425] loss1/loss <- label_data_1_split_0
…
