…
I0403 19:04:03.485330  8599 net.cpp:313] The NetState phase (1) differed from the phase (0) specified by a rule in layer data
I0403 19:04:03.486732  8599 net.cpp:49] Initializing net from parameters: 
state {
  phase: TEST
}
layer {
  name: "data"
  type: "Data"
  top: "data"
  top: "label"
  include {
    phase: TEST
  }
  transform_param {
    mirror: false
    crop_size: 224
    mean_file: "/home/mohanty/data/final_dataset/lmdb/grayscale-50-50/mean.binaryproto"
  }
  data_param {
    source: "/home/mohanty/data/final_dataset/lmdb/grayscale-50-50/test_db"
    batch_size: 24
    backend: LMDB
  }
}
layer {
  name: "conv1/7x7_s2"
  type: "Convolution"
  bottom: "data"
  top: "conv1/7x7_s2"
  param {
    lr_mult: 1
    decay_mult: 1
  }
  param {
    lr_mult: 2
    decay_mult: 0
  }
  convolution_param {
    num_output: 64
    pad: 3
    kernel_size: 7
    stride: 2
    weight_filler {
      type: "xavier"
      std: 0.1
    }
    bias_filler {
      type: "constant"
      value: 0.2
    }
  }
}
layer {
  name: "conv1/relu_7x7"
  type: "ReLU"
  bottom: "conv1/7x7_s2"
  top: "conv1/7x7_s2"
}
layer {
  name: "pool1/3x3_s2"
  type: "Pooling"
  bottom: "conv1/7x7_s2"
  top: "pool1/3x3_s2"
  pooling_param {
    pool: MAX
    kernel_size: 3
    stride: 2
  }
}
layer {
  name: "pool1/norm1"
  type: "LRN"
  bottom: "pool1/3x3_s2"
  top: "pool1/norm1"
  lrn_param {
    local_size: 5
    alpha: 0.0001
    beta: 0.75
  }
}
layer {
  name: "conv2/3x3_reduce"
  type: "Convolution"
  bottom: "pool1/norm1"
  top: "conv2/3x3_reduce"
  param {
    lr_mult: 1
    decay_mult: 1
  }
  param {
    lr_mult: 2
    decay_mult: 0
  }
  convolution_param {
    num_output: 64
    kernel_size: 1
    weight_filler {
      type: "xavier"
      std: 0.1
    }
    bias_filler {
      type: "constant"
      value: 0.2
    }
  }
}
layer {
  name: "conv2/relu_3x3_reduce"
  type: "ReLU"
  bottom: "conv2/3x3_reduce"
  top: "conv2/3x3_reduce"
}
layer {
  name: "conv2/3x3"
  type: "Convolution"
  bottom: "conv2/3x3_reduce"
  top: "conv2/3x3"
  param {
    lr_mult: 1
    decay_mult: 1
  }
  param {
    lr_mult: 2
    decay_mult: 0
  }
  convolution_param {
    num_output: 192
    pad: 1
    kernel_size: 3
    weight_filler {
      type: "xavier"
      std: 0.03
    }
    bias_filler {
      type: "constant"
      value: 0.2
    }
  }
}
layer {
  name: "conv2/relu_3x3"
  type: "ReLU"
  bottom: "conv2/3x3"
  top: "conv2/3x3"
}
layer {
  name: "conv2/norm2"
  type: "LRN"
  bottom: "conv2/3x3"
  top: "conv2/norm2"
  lrn_param {
    local_size: 5
    alpha: 0.0001
    beta: 0.75
  }
}
layer {
  name: "pool2/3x3_s2"
  type: "Pooling"
  bottom: "conv2/norm2"
  top: "pool2/3x3_s2"
  pooling_param {
    pool: MAX
    kernel_size: 3
    stride: 2
  }
}
layer {
  name: "inception_3a/1x1"
  type: "Convolution"
  bottom: "pool2/3x3_s2"
  top: "inception_3a/1x1"
  param {
    lr_mult: 1
    decay_mult: 1
  }
  param {
    lr_mult: 2
    decay_mult: 0
  }
  convolution_param {
    num_output: 64
    kernel_size: 1
    weight_filler {
      type: "xavier"
      std: 0.03
    }
    bias_filler {
      type: "constant"
      value: 0.2
    }
  }
}
layer {
  name: "inception_3a/relu_1x1"
  type: "ReLU"
  bottom: "inception_3a/1x1"
  top: "inception_3a/1x1"
}
layer {
  name: "inception_3a/3x3_reduce"
  type: "Convolution"
  bottom: "pool2/3x3_s2"
  top: "inception_3a/3x3_reduce"
  param {
    lr_mult: 1
    decay_mult: 1
  }
  param {
    lr_mult: 2
    decay_mult: 0
  }
  convolution_param {
    num_output: 96
    kernel_size: 1
    weight_filler {
      type: "xavier"
      std: 0.09
    }
    bias_filler {
      type: "constant"
      value: 0.2
    }
  }
}
layer {
  name: "inception_3a/relu_3x3_reduce"
  type: "ReLU"
  bottom: "inception_3a/3x3_reduce"
  top: "inception_3a/3x3_reduce"
}
layer {
  name: "inception_3a/3x3"
  type: "Convolution"
  bottom: "inception_3a/3x3_reduce"
  top: "inception_3a/3x3"
  param {
    lr_mult: 1
    decay_mult: 1
  }
  param {
    lr_mult: 2
    decay_mult: 0
  }
  convolution_param {
    num_output: 128
    pad: 1
    kernel_size: 3
    weight_filler {
      type: "xavier"
      std: 0.03
    }
    bias_filler {
      type: "constant"
      value: 0.2
    }
  }
}
layer {
  name: "inception_3a/relu_3x3"
  type: "ReLU"
  bottom: "inception_3a/3x3"
  top: "inception_3a/3x3"
}
layer {
  name: "inception_3a/5x5_reduce"
  type: "Convolution"
  bottom: "pool2/3x3_s2"
  top: "inception_3a/5x5_reduce"
  param {
    lr_mult: 1
    decay_mult: 1
  }
  param {
    lr_mult: 2
    decay_mult: 0
  }
  convolution_param {
    num_output: 16
    kernel_size: 1
    weight_filler {
      type: "xavier"
      std: 0.2
    }
    bias_filler {
      type: "constant"
      value: 0.2
    }
  }
}
layer {
  name: "inception_3a/relu_5x5_reduce"
  type: "ReLU"
  bottom: "inception_3a/5x5_reduce"
  top: "inception_3a/5x5_reduce"
}
layer {
  name: "inception_3a/5x5"
  type: "Convolution"
  bottom: "inception_3a/5x5_reduce"
  top: "inception_3a/5x5"
  param {
    lr_mult: 1
    decay_mult: 1
  }
  param {
    lr_mult: 2
    decay_mult: 0
  }
  convolution_param {
    num_output: 32
    pad: 2
    kernel_size: 5
    weight_filler {
      type: "xavier"
      std: 0.03
    }
    bias_filler {
      type: "constant"
      value: 0.2
    }
  }
}
layer {
  name: "inception_3a/relu_5x5"
  type: "ReLU"
  bottom: "inception_3a/5x5"
  top: "inception_3a/5x5"
}
layer {
  name: "inception_3a/pool"
  type: "Pooling"
  bottom: "pool2/3x3_s2"
  top: "inception_3a/pool"
  pooling_param {
    pool: MAX
    kernel_size: 3
    stride: 1
    pad: 1
  }
}
layer {
  name: "inception_3a/pool_proj"
  type: "Convolution"
  bottom: "inception_3a/pool"
  top: "inception_3a/pool_proj"
  param {
    lr_mult: 1
    decay_mult: 1
  }
  param {
    lr_mult: 2
    decay_mult: 0
  }
  convolution_param {
    num_output: 32
    kernel_size: 1
    weight_filler {
      type: "xavier"
      std: 0.1
    }
    bias_filler {
      type: "constant"
      value: 0.2
    }
  }
}
layer {
  name: "inception_3a/relu_pool_proj"
  type: "ReLU"
  bottom: "inception_3a/pool_proj"
  top: "inception_3a/pool_proj"
}
layer {
  name: "inception_3a/output"
  type: "Concat"
  bottom: "inception_3a/1x1"
  bottom: "inception_3a/3x3"
  bottom: "inception_3a/5x5"
  bottom: "inception_3a/pool_proj"
  top: "inception_3a/output"
}
layer {
  name: "inception_3b/1x1"
  type: "Convolution"
  bottom: "inception_3a/output"
  top: "inception_3b/1x1"
  param {
    lr_mult: 1
    decay_mult: 1
  }
  param {
    lr_mult: 2
    decay_mult: 0
  }
  convolution_param {
    num_output: 128
    kernel_size: 1
    weight_filler {
      type: "xavier"
      std: 0.03
    }
    bias_filler {
      type: "constant"
      value: 0.2
    }
  }
}
layer {
  name: "inception_3b/relu_1x1"
  type: "ReLU"
  bottom: "inception_3b/1x1"
  top: "inception_3b/1x1"
}
layer {
  name: "inception_3b/3x3_reduce"
  type: "Convolution"
  bottom: "inception_3a/output"
  top: "inception_3b/3x3_reduce"
  param {
    lr_mult: 1
    decay_mult: 1
  }
  param {
    lr_mult: 2
    decay_mult: 0
  }
  convolution_param {
    num_output: 128
    kernel_size: 1
    weight_filler {
      type: "xavier"
      std: 0.09
    }
    bias_filler {
      type: "constant"
      value: 0.2
    }
  }
}
layer {
  name: "inception_3b/relu_3x3_reduce"
  type: "ReLU"
  bottom: "inception_3b/3x3_reduce"
  top: "inception_3b/3x3_reduce"
}
layer {
  name: "inception_3b/3x3"
  type: "Convolution"
  bottom: "inception_3b/3x3_reduce"
  top: "inception_3b/3x3"
  param {
    lr_mult: 1
    decay_mult: 1
  }
  param {
    lr_mult: 2
    decay_mult: 0
  }
  convolution_param {
    num_output: 192
    pad: 1
    kernel_size: 3
    weight_filler {
      type: "xavier"
      std: 0.03
    }
    bias_filler {
      type: "constant"
      value: 0.2
    }
  }
}
layer {
  name: "inception_3b/relu_3x3"
  type: "ReLU"
  bottom: "inception_3b/3x3"
  top: "inception_3b/3x3"
}
layer {
  name: "inception_3b/5x5_reduce"
  type: "Convolution"
  bottom: "inception_3a/output"
  top: "inception_3b/5x5_reduce"
  param {
    lr_mult: 1
    decay_mult: 1
  }
  param {
    lr_mult: 2
    decay_mult: 0
  }
  convolution_param {
    num_output: 32
    kernel_size: 1
    weight_filler {
      type: "xavier"
      std: 0.2
    }
    bias_filler {
      type: "constant"
      value: 0.2
    }
  }
}
layer {
  name: "inception_3b/relu_5x5_reduce"
  type: "ReLU"
  bottom: "inception_3b/5x5_reduce"
  top: "inception_3b/5x5_reduce"
}
layer {
  name: "inception_3b/5x5"
  type: "Convolution"
  bottom: "inception_3b/5x5_reduce"
  top: "inception_3b/5x5"
  param {
    lr_mult: 1
    decay_mult: 1
  }
  param {
    lr_mult: 2
    decay_mult: 0
  }
  convolution_param {
    num_output: 96
    pad: 2
    kernel_size: 5
    weight_filler {
      type: "xavier"
      std: 0.03
    }
    bias_filler {
      type: "constant"
      value: 0.2
    }
  }
}
layer {
  name: "inception_3b/relu_5x5"
  type: "ReLU"
  bottom: "inception_3b/5x5"
  top: "inception_3b/5x5"
}
layer {
  name: "inception_3b/pool"
  type: "Pooling"
  bottom: "inception_3a/output"
  top: "inception_3b/pool"
  pooling_param {
    pool: MAX
    kernel_size: 3
    stride: 1
    pad: 1
  }
}
layer {
  name: "inception_3b/pool_proj"
  type: "Convolution"
  bottom: "inception_3b/pool"
  top: "inception_3b/pool_proj"
  param {
    lr_mult: 1
    decay_mult: 1
  }
  param {
    lr_mult: 2
    decay_mult: 0
  }
  convolution_param {
    num_output: 64
    kernel_size: 1
    weight_filler {
      type: "xavier"
      std: 0.1
    }
    bias_filler {
      type: "constant"
      value: 0.2
    }
  }
}
layer {
  name: "inception_3b/relu_pool_proj"
  type: "ReLU"
  bottom: "inception_3b/pool_proj"
  top: "inception_3b/pool_proj"
}
layer {
  name: "inception_3b/output"
  type: "Concat"
  bottom: "inception_3b/1x1"
  bottom: "inception_3b/3x3"
  bottom: "inception_3b/5x5"
  bottom: "inception_3b/pool_proj"
  top: "inception_3b/output"
}
layer {
  name: "pool3/3x3_s2"
  type: "Pooling"
  bottom: "inception_3b/output"
  top: "pool3/3x3_s2"
  pooling_param {
    pool: MAX
    kernel_size: 3
    stride: 2
  }
}
layer {
  name: "inception_4a/1x1"
  type: "Convolution"
  bottom: "pool3/3x3_s2"
  top: "inception_4a/1x1"
  param {
    lr_mult: 1
    decay_mult: 1
  }
  param {
    lr_mult: 2
    decay_mult: 0
  }
  convolution_param {
    num_output: 192
    kernel_size: 1
    weight_filler {
      type: "xavier"
      std: 0.03
    }
    bias_filler {
      type: "constant"
      value: 0.2
    }
  }
}
layer {
  name: "inception_4a/relu_1x1"
  type: "ReLU"
  bottom: "inception_4a/1x1"
  top: "inception_4a/1x1"
}
layer {
  name: "inception_4a/3x3_reduce"
  type: "Convolution"
  bottom: "pool3/3x3_s2"
  top: "inception_4a/3x3_reduce"
  param {
    lr_mult: 1
    decay_mult: 1
  }
  param {
    lr_mult: 2
    decay_mult: 0
  }
  convolution_param {
    num_output: 96
    kernel_size: 1
    weight_filler {
      type: "xavier"
      std: 0.09
    }
    bias_filler {
      type: "constant"
      value: 0.2
    }
  }
}
layer {
  name: "inception_4a/relu_3x3_reduce"
  type: "ReLU"
  bottom: "inception_4a/3x3_reduce"
  top: "inception_4a/3x3_reduce"
}
layer {
  name: "inception_4a/3x3"
  type: "Convolution"
  bottom: "inception_4a/3x3_reduce"
  top: "inception_4a/3x3"
  param {
    lr_mult: 1
    decay_mult: 1
  }
  param {
    lr_mult: 2
    decay_mult: 0
  }
  convolution_param {
    num_output: 208
    pad: 1
    kernel_size: 3
    weight_filler {
      type: "xavier"
      std: 0.03
    }
    bias_filler {
      type: "constant"
      value: 0.2
    }
  }
}
layer {
  name: "inception_4a/relu_3x3"
  type: "ReLU"
  bottom: "inception_4a/3x3"
  top: "inception_4a/3x3"
}
layer {
  name: "inception_4a/5x5_reduce"
  type: "Convolution"
  bottom: "pool3/3x3_s2"
  top: "inception_4a/5x5_reduce"
  param {
    lr_mult: 1
    decay_mult: 1
  }
  param {
    lr_mult: 2
    decay_mult: 0
  }
  convolution_param {
    num_output: 16
    kernel_size: 1
    weight_filler {
      type: "xavier"
      std: 0.2
    }
    bias_filler {
      type: "constant"
      value: 0.2
    }
  }
}
layer {
  name: "inception_4a/relu_5x5_reduce"
  type: "ReLU"
  bottom: "inception_4a/5x5_reduce"
  top: "inception_4a/5x5_reduce"
}
layer {
  name: "inception_4a/5x5"
  type: "Convolution"
  bottom: "inception_4a/5x5_reduce"
  top: "inception_4a/5x5"
  param {
    lr_mult: 1
    decay_mult: 1
  }
  param {
    lr_mult: 2
    decay_mult: 0
  }
  convolution_param {
    num_output: 48
    pad: 2
    kernel_size: 5
    weight_filler {
      type: "xavier"
      std: 0.03
    }
    bias_filler {
      type: "constant"
      value: 0.2
    }
  }
}
layer {
  name: "inception_4a/relu_5x5"
  type: "ReLU"
  bottom: "inception_4a/5x5"
  top: "inception_4a/5x5"
}
layer {
  name: "inception_4a/pool"
  type: "Pooling"
  bottom: "pool3/3x3_s2"
  top: "inception_4a/pool"
  pooling_param {
    pool: MAX
    kernel_size: 3
    stride: 1
    pad: 1
  }
}
layer {
  name: "inception_4a/pool_proj"
  type: "Convolution"
  bottom: "inception_4a/pool"
  top: "inception_4a/pool_proj"
  param {
    lr_mult: 1
    decay_mult: 1
  }
  param {
    lr_mult: 2
    decay_mult: 0
  }
  convolution_param {
    num_output: 64
    kernel_size: 1
    weight_filler {
      type: "xavier"
      std: 0.1
    }
    bias_filler {
      type: "constant"
      value: 0.2
    }
  }
}
layer {
  name: "inception_4a/relu_pool_proj"
  type: "ReLU"
  bottom: "inception_4a/pool_proj"
  top: "inception_4a/pool_proj"
}
layer {
  name: "inception_4a/output"
  type: "Concat"
  bottom: "inception_4a/1x1"
  bottom: "inception_4a/3x3"
  bottom: "inception_4a/5x5"
  bottom: "inception_4a/pool_proj"
  top: "inception_4a/output"
}
layer {
  name: "loss1/ave_pool"
  type: "Pooling"
  bottom: "inception_4a/output"
  top: "loss1/ave_pool"
  pooling_param {
    pool: AVE
    kernel_size: 5
    stride: 3
  }
}
layer {
  name: "loss1/conv"
  type: "Convolution"
  bottom: "loss1/ave_pool"
  top: "loss1/conv"
  param {
    lr_mult: 1
    decay_mult: 1
  }
  param {
    lr_mult: 2
    decay_mult: 0
  }
  convolution_param {
    num_output: 128
    kernel_size: 1
    weight_filler {
      type: "xavier"
      std: 0.08
    }
    bias_filler {
      type: "constant"
      value: 0.2
    }
  }
}
layer {
  name: "loss1/relu_conv"
  type: "ReLU"
  bottom: "loss1/conv"
  top: "loss1/conv"
}
layer {
  name: "loss1/fc"
  type: "InnerProduct"
  bottom: "loss1/conv"
  top: "loss1/fc"
  param {
    lr_mult: 1
    decay_mult: 1
  }
  param {
    lr_mult: 2
    decay_mult: 0
  }
  inner_product_param {
    num_output: 1024
    weight_filler {
      type: "xavier"
      std: 0.02
    }
    bias_filler {
      type: "constant"
      value: 0.2
    }
  }
}
layer {
  name: "loss1/relu_fc"
  type: "ReLU"
  bottom: "loss1/fc"
  top: "loss1/fc"
}
layer {
  name: "loss1/drop_fc"
  type: "Dropout"
  bottom: "loss1/fc"
  top: "loss1/fc"
  dropout_param {
    dropout_ratio: 0.7
  }
}
layer {
  name: "loss1/classifier_plantvillage"
  type: "InnerProduct"
  bottom: "loss1/fc"
  top: "loss1/classifier_plantvillage"
  param {
    lr_mult: 1
    decay_mult: 1
  }
  param {
    lr_mult: 2
    decay_mult: 0
  }
  inner_product_param {
    num_output: 38
    weight_filler {
      type: "xavier"
      std: 0.0009765625
    }
    bias_filler {
      type: "constant"
      value: 0
    }
  }
}
layer {
  name: "inception_4b/1x1"
  type: "Convolution"
  bottom: "inception_4a/output"
  top: "inception_4b/1x1"
  param {
    lr_mult: 1
    decay_mult: 1
  }
  param {
    lr_mult: 2
    decay_mult: 0
  }
  convolution_param {
    num_output: 160
    kernel_size: 1
    weight_filler {
      type: "xavier"
      std: 0.03
    }
    bias_filler {
      type: "constant"
      value: 0.2
    }
  }
}
layer {
  name: "inception_4b/relu_1x1"
  type: "ReLU"
  bottom: "inception_4b/1x1"
  top: "inception_4b/1x1"
}
layer {
  name: "inception_4b/3x3_reduce"
  type: "Convolution"
  bottom: "inception_4a/output"
  top: "inception_4b/3x3_reduce"
  param {
    lr_mult: 1
    decay_mult: 1
  }
  param {
    lr_mult: 2
    decay_mult: 0
  }
  convolution_param {
    num_output: 112
    kernel_size: 1
    weight_filler {
      type: "xavier"
      std: 0.09
    }
    bias_filler {
      type: "constant"
      value: 0.2
    }
  }
}
layer {
  name: "inception_4b/relu_3x3_reduce"
  type: "ReLU"
  bottom: "inception_4b/3x3_reduce"
  top: "inception_4b/3x3_reduce"
}
layer {
  name: "inception_4b/3x3"
  type: "Convolution"
  bottom: "inception_4b/3x3_reduce"
  top: "inception_4b/3x3"
  param {
    lr_mult: 1
    decay_mult: 1
  }
  param {
    lr_mult: 2
    decay_mult: 0
  }
  convolution_param {
    num_output: 224
    pad: 1
    kernel_size: 3
    weight_filler {
      type: "xavier"
      std: 0.03
    }
    bias_filler {
      type: "constant"
      value: 0.2
    }
  }
}
layer {
  name: "inception_4b/relu_3x3"
  type: "ReLU"
  bottom: "inception_4b/3x3"
  top: "inception_4b/3x3"
}
layer {
  name: "inception_4b/5x5_reduce"
  type: "Convolution"
  bottom: "inception_4a/output"
  top: "inception_4b/5x5_reduce"
  param {
    lr_mult: 1
    decay_mult: 1
  }
  param {
    lr_mult: 2
    decay_mult: 0
  }
  convolution_param {
    num_output: 24
    kernel_size: 1
    weight_filler {
      type: "xavier"
      std: 0.2
    }
    bias_filler {
      type: "constant"
      value: 0.2
    }
  }
}
layer {
  name: "inception_4b/relu_5x5_reduce"
  type: "ReLU"
  bottom: "inception_4b/5x5_reduce"
  top: "inception_4b/5x5_reduce"
}
layer {
  name: "inception_4b/5x5"
  type: "Convolution"
  bottom: "inception_4b/5x5_reduce"
  top: "inception_4b/5x5"
  param {
    lr_mult: 1
    decay_mult: 1
  }
  param {
    lr_mult: 2
    decay_mult: 0
  }
  convolution_param {
    num_output: 64
    pad: 2
    kernel_size: 5
    weight_filler {
      type: "xavier"
      std: 0.03
    }
    bias_filler {
      type: "constant"
      value: 0.2
    }
  }
}
layer {
  name: "inception_4b/relu_5x5"
  type: "ReLU"
  bottom: "inception_4b/5x5"
  top: "inception_4b/5x5"
}
layer {
  name: "inception_4b/pool"
  type: "Pooling"
  bottom: "inception_4a/output"
  top: "inception_4b/pool"
  pooling_param {
    pool: MAX
    kernel_size: 3
    stride: 1
    pad: 1
  }
}
layer {
  name: "inception_4b/pool_proj"
  type: "Convolution"
  bottom: "inception_4b/pool"
  top: "inception_4b/pool_proj"
  param {
    lr_mult: 1
    decay_mult: 1
  }
  param {
    lr_mult: 2
    decay_mult: 0
  }
  convolution_param {
    num_output: 64
    kernel_size: 1
    weight_filler {
      type: "xavier"
      std: 0.1
    }
    bias_filler {
      type: "constant"
      value: 0.2
    }
  }
}
layer {
  name: "inception_4b/relu_pool_proj"
  type: "ReLU"
  bottom: "inception_4b/pool_proj"
  top: "inception_4b/pool_proj"
}
layer {
  name: "inception_4b/output"
  type: "Concat"
  bottom: "inception_4b/1x1"
  bottom: "inception_4b/3x3"
  bottom: "inception_4b/5x5"
  bottom: "inception_4b/pool_proj"
  top: "inception_4b/output"
}
layer {
  name: "inception_4c/1x1"
  type: "Convolution"
  bottom: "inception_4b/output"
  top: "inception_4c/1x1"
  param {
    lr_mult: 1
    decay_mult: 1
  }
  param {
    lr_mult: 2
    decay_mult: 0
  }
  convolution_param {
    num_output: 128
    kernel_size: 1
    weight_filler {
      type: "xavier"
      std: 0.03
    }
    bias_filler {
      type: "constant"
      value: 0.2
    }
  }
}
layer {
  name: "inception_4c/relu_1x1"
  type: "ReLU"
  bottom: "inception_4c/1x1"
  top: "inception_4c/1x1"
}
layer {
  name: "inception_4c/3x3_reduce"
  type: "Convolution"
  bottom: "inception_4b/output"
  top: "inception_4c/3x3_reduce"
  param {
    lr_mult: 1
    decay_mult: 1
  }
  param {
    lr_mult: 2
    decay_mult: 0
  }
  convolution_param {
    num_output: 128
    kernel_size: 1
    weight_filler {
      type: "xavier"
      std: 0.09
    }
    bias_filler {
      type: "constant"
      value: 0.2
    }
  }
}
layer {
  name: "inception_4c/relu_3x3_reduce"
  type: "ReLU"
  bottom: "inception_4c/3x3_reduce"
  top: "inception_4c/3x3_reduce"
}
layer {
  name: "inception_4c/3x3"
  type: "Convolution"
  bottom: "inception_4c/3x3_reduce"
  top: "inception_4c/3x3"
  param {
    lr_mult: 1
    decay_mult: 1
  }
  param {
    lr_mult: 2
    decay_mult: 0
  }
  convolution_param {
    num_output: 256
    pad: 1
    kernel_size: 3
    weight_filler {
      type: "xavier"
      std: 0.03
    }
    bias_filler {
      type: "constant"
      value: 0.2
    }
  }
}
layer {
  name: "inception_4c/relu_3x3"
  type: "ReLU"
  bottom: "inception_4c/3x3"
  top: "inception_4c/3x3"
}
layer {
  name: "inception_4c/5x5_reduce"
  type: "Convolution"
  bottom: "inception_4b/output"
  top: "inception_4c/5x5_reduce"
  param {
    lr_mult: 1
    decay_mult: 1
  }
  param {
    lr_mult: 2
    decay_mult: 0
  }
  convolution_param {
    num_output: 24
    kernel_size: 1
    weight_filler {
      type: "xavier"
      std: 0.2
    }
    bias_filler {
      type: "constant"
      value: 0.2
    }
  }
}
layer {
  name: "inception_4c/relu_5x5_reduce"
  type: "ReLU"
  bottom: "inception_4c/5x5_reduce"
  top: "inception_4c/5x5_reduce"
}
layer {
  name: "inception_4c/5x5"
  type: "Convolution"
  bottom: "inception_4c/5x5_reduce"
  top: "inception_4c/5x5"
  param {
    lr_mult: 1
    decay_mult: 1
  }
  param {
    lr_mult: 2
    decay_mult: 0
  }
  convolution_param {
    num_output: 64
    pad: 2
    kernel_size: 5
    weight_filler {
      type: "xavier"
      std: 0.03
    }
    bias_filler {
      type: "constant"
      value: 0.2
    }
  }
}
layer {
  name: "inception_4c/relu_5x5"
  type: "ReLU"
  bottom: "inception_4c/5x5"
  top: "inception_4c/5x5"
}
layer {
  name: "inception_4c/pool"
  type: "Pooling"
  bottom: "inception_4b/output"
  top: "inception_4c/pool"
  pooling_param {
    pool: MAX
    kernel_size: 3
    stride: 1
    pad: 1
  }
}
layer {
  name: "inception_4c/pool_proj"
  type: "Convolution"
  bottom: "inception_4c/pool"
  top: "inception_4c/pool_proj"
  param {
    lr_mult: 1
    decay_mult: 1
  }
  param {
    lr_mult: 2
    decay_mult: 0
  }
  convolution_param {
    num_output: 64
    kernel_size: 1
    weight_filler {
      type: "xavier"
      std: 0.1
    }
    bias_filler {
      type: "constant"
      value: 0.2
    }
  }
}
layer {
  name: "inception_4c/relu_pool_proj"
  type: "ReLU"
  bottom: "inception_4c/pool_proj"
  top: "inception_4c/pool_proj"
}
layer {
  name: "inception_4c/output"
  type: "Concat"
  bottom: "inception_4c/1x1"
  bottom: "inception_4c/3x3"
  bottom: "inception_4c/5x5"
  bottom: "inception_4c/pool_proj"
  top: "inception_4c/output"
}
layer {
  name: "inception_4d/1x1"
  type: "Convolution"
  bottom: "inception_4c/output"
  top: "inception_4d/1x1"
  param {
    lr_mult: 1
    decay_mult: 1
  }
  param {
    lr_mult: 2
    decay_mult: 0
  }
  convolution_param {
    num_output: 112
    kernel_size: 1
    weight_filler {
      type: "xavier"
      std: 0.03
    }
    bias_filler {
      type: "constant"
      value: 0.2
    }
  }
}
layer {
  name: "inception_4d/relu_1x1"
  type: "ReLU"
  bottom: "inception_4d/1x1"
  top: "inception_4d/1x1"
}
layer {
  name: "inception_4d/3x3_reduce"
  type: "Convolution"
  bottom: "inception_4c/output"
  top: "inception_4d/3x3_reduce"
  param {
    lr_mult: 1
    decay_mult: 1
  }
  param {
    lr_mult: 2
    decay_mult: 0
  }
  convolution_param {
    num_output: 144
    kernel_size: 1
    weight_filler {
      type: "xavier"
      std: 0.09
    }
    bias_filler {
      type: "constant"
      value: 0.2
    }
  }
}
layer {
  name: "inception_4d/relu_3x3_reduce"
  type: "ReLU"
  bottom: "inception_4d/3x3_reduce"
  top: "inception_4d/3x3_reduce"
}
layer {
  name: "inception_4d/3x3"
  type: "Convolution"
  bottom: "inception_4d/3x3_reduce"
  top: "inception_4d/3x3"
  param {
    lr_mult: 1
    decay_mult: 1
  }
  param {
    lr_mult: 2
    decay_mult: 0
  }
  convolution_param {
    num_output: 288
    pad: 1
    kernel_size: 3
    weight_filler {
      type: "xavier"
      std: 0.03
    }
    bias_filler {
      type: "constant"
      value: 0.2
    }
  }
}
layer {
  name: "inception_4d/relu_3x3"
  type: "ReLU"
  bottom: "inception_4d/3x3"
  top: "inception_4d/3x3"
}
layer {
  name: "inception_4d/5x5_reduce"
  type: "Convolution"
  bottom: "inception_4c/output"
  top: "inception_4d/5x5_reduce"
  param {
    lr_mult: 1
    decay_mult: 1
  }
  param {
    lr_mult: 2
    decay_mult: 0
  }
  convolution_param {
    num_output: 32
    kernel_size: 1
    weight_filler {
      type: "xavier"
      std: 0.2
    }
    bias_filler {
      type: "constant"
      value: 0.2
    }
  }
}
layer {
  name: "inception_4d/relu_5x5_reduce"
  type: "ReLU"
  bottom: "inception_4d/5x5_reduce"
  top: "inception_4d/5x5_reduce"
}
layer {
  name: "inception_4d/5x5"
  type: "Convolution"
  bottom: "inception_4d/5x5_reduce"
  top: "inception_4d/5x5"
  param {
    lr_mult: 1
    decay_mult: 1
  }
  param {
    lr_mult: 2
    decay_mult: 0
  }
  convolution_param {
    num_output: 64
    pad: 2
    kernel_size: 5
    weight_filler {
      type: "xavier"
      std: 0.03
    }
    bias_filler {
      type: "constant"
      value: 0.2
    }
  }
}
layer {
  name: "inception_4d/relu_5x5"
  type: "ReLU"
  bottom: "inception_4d/5x5"
  top: "inception_4d/5x5"
}
layer {
  name: "inception_4d/pool"
  type: "Pooling"
  bottom: "inception_4c/output"
  top: "inception_4d/pool"
  pooling_param {
    pool: MAX
    kernel_size: 3
    stride: 1
    pad: 1
  }
}
layer {
  name: "inception_4d/pool_proj"
  type: "Convolution"
  bottom: "inception_4d/pool"
  top: "inception_4d/pool_proj"
  param {
    lr_mult: 1
    decay_mult: 1
  }
  param {
    lr_mult: 2
    decay_mult: 0
  }
  convolution_param {
    num_output: 64
    kernel_size: 1
    weight_filler {
      type: "xavier"
      std: 0.1
    }
    bias_filler {
      type: "constant"
      value: 0.2
    }
  }
}
layer {
  name: "inception_4d/relu_pool_proj"
  type: "ReLU"
  bottom: "inception_4d/pool_proj"
  top: "inception_4d/pool_proj"
}
layer {
  name: "inception_4d/output"
  type: "Concat"
  bottom: "inception_4d/1x1"
  bottom: "inception_4d/3x3"
  bottom: "inception_4d/5x5"
  bottom: "inception_4d/pool_proj"
  top: "inception_4d/output"
}
layer {
  name: "loss2/ave_pool"
  type: "Pooling"
  bottom: "inception_4d/output"
  top: "loss2/ave_pool"
  pooling_param {
    pool: AVE
    kernel_size: 5
    stride: 3
  }
}
layer {
  name: "loss2/conv"
  type: "Convolution"
  bottom: "loss2/ave_pool"
  top: "loss2/conv"
  param {
    lr_mult: 1
    decay_mult: 1
  }
  param {
    lr_mult: 2
    decay_mult: 0
  }
  convolution_param {
    num_output: 128
    kernel_size: 1
    weight_filler {
      type: "xavier"
      std: 0.08
    }
    bias_filler {
      type: "constant"
      value: 0.2
    }
  }
}
layer {
  name: "loss2/relu_conv"
  type: "ReLU"
  bottom: "loss2/conv"
  top: "loss2/conv"
}
layer {
  name: "loss2/fc"
  type: "InnerProduct"
  bottom: "loss2/conv"
  top: "loss2/fc"
  param {
    lr_mult: 1
    decay_mult: 1
  }
  param {
    lr_mult: 2
    decay_mult: 0
  }
  inner_product_param {
    num_output: 1024
    weight_filler {
      type: "xavier"
      std: 0.02
    }
    bias_filler {
      type: "constant"
      value: 0.2
    }
  }
}
layer {
  name: "loss2/relu_fc"
  type: "ReLU"
  bottom: "loss2/fc"
  top: "loss2/fc"
}
layer {
  name: "loss2/drop_fc"
  type: "Dropout"
  bottom: "loss2/fc"
  top: "loss2/fc"
  dropout_param {
    dropout_ratio: 0.7
  }
}
layer {
  name: "loss2/classifier_plantvillage"
  type: "InnerProduct"
  bottom: "loss2/fc"
  top: "loss2/classifier_plantvillage"
  param {
    lr_mult: 1
    decay_mult: 1
  }
  param {
    lr_mult: 2
    decay_mult: 0
  }
  inner_product_param {
    num_output: 38
    weight_filler {
      type: "xavier"
      std: 0.0009765625
    }
    bias_filler {
      type: "constant"
      value: 0
    }
  }
}
layer {
  name: "inception_4e/1x1"
  type: "Convolution"
  bottom: "inception_4d/output"
  top: "inception_4e/1x1"
  param {
    lr_mult: 1
    decay_mult: 1
  }
  param {
    lr_mult: 2
    decay_mult: 0
  }
  convolution_param {
    num_output: 256
    kernel_size: 1
    weight_filler {
      type: "xavier"
      std: 0.03
    }
    bias_filler {
      type: "constant"
      value: 0.2
    }
  }
}
layer {
  name: "inception_4e/relu_1x1"
  type: "ReLU"
  bottom: "inception_4e/1x1"
  top: "inception_4e/1x1"
}
layer {
  name: "inception_4e/3x3_reduce"
  type: "Convolution"
  bottom: "inception_4d/output"
  top: "inception_4e/3x3_reduce"
  param {
    lr_mult: 1
    decay_mult: 1
  }
  param {
    lr_mult: 2
    decay_mult: 0
  }
  convolution_param {
    num_output: 160
    kernel_size: 1
    weight_filler {
      type: "xavier"
      std: 0.09
    }
    bias_filler {
      type: "constant"
      value: 0.2
    }
  }
}
layer {
  name: "inception_4e/relu_3x3_reduce"
  type: "ReLU"
  bottom: "inception_4e/3x3_reduce"
  top: "inception_4e/3x3_reduce"
}
layer {
  name: "inception_4e/3x3"
  type: "Convolution"
  bottom: "inception_4e/3x3_reduce"
  top: "inception_4e/3x3"
  param {
    lr_mult: 1
    decay_mult: 1
  }
  param {
    lr_mult: 2
    decay_mult: 0
  }
  convolution_param {
    num_output: 320
    pad: 1
    kernel_size: 3
    weight_filler {
      type: "xavier"
      std: 0.03
    }
    bias_filler {
      type: "constant"
      value: 0.2
    }
  }
}
layer {
  name: "inception_4e/relu_3x3"
  type: "ReLU"
  bottom: "inception_4e/3x3"
  top: "inception_4e/3x3"
}
layer {
  name: "inception_4e/5x5_reduce"
  type: "Convolution"
  bottom: "inception_4d/output"
  top: "inception_4e/5x5_reduce"
  param {
    lr_mult: 1
    decay_mult: 1
  }
  param {
    lr_mult: 2
    decay_mult: 0
  }
  convolution_param {
    num_output: 32
    kernel_size: 1
    weight_filler {
      type: "xavier"
      std: 0.2
    }
    bias_filler {
      type: "constant"
      value: 0.2
    }
  }
}
layer {
  name: "inception_4e/relu_5x5_reduce"
  type: "ReLU"
  bottom: "inception_4e/5x5_reduce"
  top: "inception_4e/5x5_reduce"
}
layer {
  name: "inception_4e/5x5"
  type: "Convolution"
  bottom: "inception_4e/5x5_reduce"
  top: "inception_4e/
I0403 19:04:03.488867  8599 layer_factory.hpp:77] Creating layer data
I0403 19:04:03.489598  8599 net.cpp:91] Creating Layer data
I0403 19:04:03.489634  8599 net.cpp:399] data -> data
I0403 19:04:03.489697  8599 net.cpp:399] data -> label
I0403 19:04:03.489740  8599 data_transformer.cpp:25] Loading mean file from: /home/mohanty/data/final_dataset/lmdb/grayscale-50-50/mean.binaryproto
I0403 19:04:03.490888  8602 db_lmdb.cpp:38] Opened lmdb /home/mohanty/data/final_dataset/lmdb/grayscale-50-50/test_db
I0403 19:04:03.505892  8599 data_layer.cpp:41] output data size: 24,3,224,224
I0403 19:04:03.537499  8599 net.cpp:141] Setting up data
I0403 19:04:03.537591  8599 net.cpp:148] Top shape: 24 3 224 224 (3612672)
I0403 19:04:03.537622  8599 net.cpp:148] Top shape: 24 (24)
I0403 19:04:03.537642  8599 net.cpp:156] Memory required for data: 14450784
I0403 19:04:03.537675  8599 layer_factory.hpp:77] Creating layer label_data_1_split
I0403 19:04:03.537708  8599 net.cpp:91] Creating Layer label_data_1_split
I0403 19:04:03.537732  8599 net.cpp:425] label_data_1_split <- label
I0403 19:04:03.537772  8599 net.cpp:399] label_data_1_split -> label_data_1_split_0
I0403 19:04:03.537811  8599 net.cpp:399] label_data_1_split -> label_data_1_split_1
I0403 19:04:03.537838  8599 net.cpp:399] label_data_1_split -> label_data_1_split_2
I0403 19:04:03.537866  8599 net.cpp:399] label_data_1_split -> label_data_1_split_3
I0403 19:04:03.537890  8599 net.cpp:399] label_data_1_split -> label_data_1_split_4
I0403 19:04:03.537914  8599 net.cpp:399] label_data_1_split -> label_data_1_split_5
I0403 19:04:03.537938  8599 net.cpp:399] label_data_1_split -> label_data_1_split_6
I0403 19:04:03.537964  8599 net.cpp:399] label_data_1_split -> label_data_1_split_7
I0403 19:04:03.537988  8599 net.cpp:399] label_data_1_split -> label_data_1_split_8
I0403 19:04:03.538012  8599 net.cpp:399] label_data_1_split -> label_data_1_split_9
I0403 19:04:03.538152  8599 net.cpp:141] Setting up label_data_1_split
I0403 19:04:03.538182  8599 net.cpp:148] Top shape: 24 (24)
I0403 19:04:03.538203  8599 net.cpp:148] Top shape: 24 (24)
I0403 19:04:03.538229  8599 net.cpp:148] Top shape: 24 (24)
I0403 19:04:03.538250  8599 net.cpp:148] Top shape: 24 (24)
I0403 19:04:03.538269  8599 net.cpp:148] Top shape: 24 (24)
I0403 19:04:03.538288  8599 net.cpp:148] Top shape: 24 (24)
I0403 19:04:03.538307  8599 net.cpp:148] Top shape: 24 (24)
I0403 19:04:03.538327  8599 net.cpp:148] Top shape: 24 (24)
I0403 19:04:03.538347  8599 net.cpp:148] Top shape: 24 (24)
I0403 19:04:03.538367  8599 net.cpp:148] Top shape: 24 (24)
I0403 19:04:03.538421  8599 net.cpp:156] Memory required for data: 14451744
I0403 19:04:03.538444  8599 layer_factory.hpp:77] Creating layer conv1/7x7_s2
I0403 19:04:03.538480  8599 net.cpp:91] Creating Layer conv1/7x7_s2
I0403 19:04:03.538503  8599 net.cpp:425] conv1/7x7_s2 <- data
I0403 19:04:03.538527  8599 net.cpp:399] conv1/7x7_s2 -> conv1/7x7_s2
I0403 19:04:03.707049  8599 net.cpp:141] Setting up conv1/7x7_s2
I0403 19:04:03.707144  8599 net.cpp:148] Top shape: 24 64 112 112 (19267584)
I0403 19:04:03.707166  8599 net.cpp:156] Memory required for data: 91522080
I0403 19:04:03.707211  8599 layer_factory.hpp:77] Creating layer conv1/relu_7x7
I0403 19:04:03.707245  8599 net.cpp:91] Creating Layer conv1/relu_7x7
I0403 19:04:03.707268  8599 net.cpp:425] conv1/relu_7x7 <- conv1/7x7_s2
I0403 19:04:03.707293  8599 net.cpp:386] conv1/relu_7x7 -> conv1/7x7_s2 (in-place)
I0403 19:04:03.707620  8599 net.cpp:141] Setting up conv1/relu_7x7
I0403 19:04:03.707653  8599 net.cpp:148] Top shape: 24 64 112 112 (19267584)
I0403 19:04:03.707672  8599 net.cpp:156] Memory required for data: 168592416
I0403 19:04:03.707691  8599 layer_factory.hpp:77] Creating layer pool1/3x3_s2
I0403 19:04:03.707720  8599 net.cpp:91] Creating Layer pool1/3x3_s2
I0403 19:04:03.707742  8599 net.cpp:425] pool1/3x3_s2 <- conv1/7x7_s2
I0403 19:04:03.707768  8599 net.cpp:399] pool1/3x3_s2 -> pool1/3x3_s2
I0403 19:04:03.707861  8599 net.cpp:141] Setting up pool1/3x3_s2
I0403 19:04:03.707890  8599 net.cpp:148] Top shape: 24 64 56 56 (4816896)
I0403 19:04:03.707908  8599 net.cpp:156] Memory required for data: 187860000
I0403 19:04:03.707926  8599 layer_factory.hpp:77] Creating layer pool1/norm1
I0403 19:04:03.707957  8599 net.cpp:91] Creating Layer pool1/norm1
I0403 19:04:03.708034  8599 net.cpp:425] pool1/norm1 <- pool1/3x3_s2
I0403 19:04:03.708066  8599 net.cpp:399] pool1/norm1 -> pool1/norm1
I0403 19:04:03.708433  8599 net.cpp:141] Setting up pool1/norm1
I0403 19:04:03.708470  8599 net.cpp:148] Top shape: 24 64 56 56 (4816896)
I0403 19:04:03.708490  8599 net.cpp:156] Memory required for data: 207127584
I0403 19:04:03.708509  8599 layer_factory.hpp:77] Creating layer conv2/3x3_reduce
I0403 19:04:03.708542  8599 net.cpp:91] Creating Layer conv2/3x3_reduce
I0403 19:04:03.708564  8599 net.cpp:425] conv2/3x3_reduce <- pool1/norm1
I0403 19:04:03.708586  8599 net.cpp:399] conv2/3x3_reduce -> conv2/3x3_reduce
I0403 19:04:03.710312  8599 net.cpp:141] Setting up conv2/3x3_reduce
I0403 19:04:03.710350  8599 net.cpp:148] Top shape: 24 64 56 56 (4816896)
I0403 19:04:03.710371  8599 net.cpp:156] Memory required for data: 226395168
I0403 19:04:03.710400  8599 layer_factory.hpp:77] Creating layer conv2/relu_3x3_reduce
I0403 19:04:03.710425  8599 net.cpp:91] Creating Layer conv2/relu_3x3_reduce
I0403 19:04:03.710444  8599 net.cpp:425] conv2/relu_3x3_reduce <- conv2/3x3_reduce
I0403 19:04:03.710466  8599 net.cpp:386] conv2/relu_3x3_reduce -> conv2/3x3_reduce (in-place)
I0403 19:04:03.710791  8599 net.cpp:141] Setting up conv2/relu_3x3_reduce
I0403 19:04:03.710824  8599 net.cpp:148] Top shape: 24 64 56 56 (4816896)
I0403 19:04:03.710842  8599 net.cpp:156] Memory required for data: 245662752
I0403 19:04:03.710861  8599 layer_factory.hpp:77] Creating layer conv2/3x3
I0403 19:04:03.710891  8599 net.cpp:91] Creating Layer conv2/3x3
I0403 19:04:03.710911  8599 net.cpp:425] conv2/3x3 <- conv2/3x3_reduce
I0403 19:04:03.710938  8599 net.cpp:399] conv2/3x3 -> conv2/3x3
I0403 19:04:03.713703  8599 net.cpp:141] Setting up conv2/3x3
I0403 19:04:03.713742  8599 net.cpp:148] Top shape: 24 192 56 56 (14450688)
I0403 19:04:03.713767  8599 net.cpp:156] Memory required for data: 303465504
I0403 19:04:03.713794  8599 layer_factory.hpp:77] Creating layer conv2/relu_3x3
I0403 19:04:03.713819  8599 net.cpp:91] Creating Layer conv2/relu_3x3
I0403 19:04:03.713837  8599 net.cpp:425] conv2/relu_3x3 <- conv2/3x3
I0403 19:04:03.713860  8599 net.cpp:386] conv2/relu_3x3 -> conv2/3x3 (in-place)
I0403 19:04:03.714115  8599 net.cpp:141] Setting up conv2/relu_3x3
I0403 19:04:03.714148  8599 net.cpp:148] Top shape: 24 192 56 56 (14450688)
I0403 19:04:03.714211  8599 net.cpp:156] Memory required for data: 361268256
I0403 19:04:03.714232  8599 layer_factory.hpp:77] Creating layer conv2/norm2
I0403 19:04:03.714262  8599 net.cpp:91] Creating Layer conv2/norm2
I0403 19:04:03.714283  8599 net.cpp:425] conv2/norm2 <- conv2/3x3
I0403 19:04:03.714304  8599 net.cpp:399] conv2/norm2 -> conv2/norm2
I0403 19:04:03.714659  8599 net.cpp:141] Setting up conv2/norm2
I0403 19:04:03.714692  8599 net.cpp:148] Top shape: 24 192 56 56 (14450688)
I0403 19:04:03.714711  8599 net.cpp:156] Memory required for data: 419071008
I0403 19:04:03.714730  8599 layer_factory.hpp:77] Creating layer pool2/3x3_s2
I0403 19:04:03.714754  8599 net.cpp:91] Creating Layer pool2/3x3_s2
I0403 19:04:03.714776  8599 net.cpp:425] pool2/3x3_s2 <- conv2/norm2
I0403 19:04:03.714797  8599 net.cpp:399] pool2/3x3_s2 -> pool2/3x3_s2
I0403 19:04:03.714861  8599 net.cpp:141] Setting up pool2/3x3_s2
I0403 19:04:03.714890  8599 net.cpp:148] Top shape: 24 192 28 28 (3612672)
I0403 19:04:03.714908  8599 net.cpp:156] Memory required for data: 433521696
I0403 19:04:03.714926  8599 layer_factory.hpp:77] Creating layer pool2/3x3_s2_pool2/3x3_s2_0_split
I0403 19:04:03.714948  8599 net.cpp:91] Creating Layer pool2/3x3_s2_pool2/3x3_s2_0_split
I0403 19:04:03.714968  8599 net.cpp:425] pool2/3x3_s2_pool2/3x3_s2_0_split <- pool2/3x3_s2
I0403 19:04:03.714993  8599 net.cpp:399] pool2/3x3_s2_pool2/3x3_s2_0_split -> pool2/3x3_s2_pool2/3x3_s2_0_split_0
I0403 19:04:03.715019  8599 net.cpp:399] pool2/3x3_s2_pool2/3x3_s2_0_split -> pool2/3x3_s2_pool2/3x3_s2_0_split_1
I0403 19:04:03.715044  8599 net.cpp:399] pool2/3x3_s2_pool2/3x3_s2_0_split -> pool2/3x3_s2_pool2/3x3_s2_0_split_2
I0403 19:04:03.715068  8599 net.cpp:399] pool2/3x3_s2_pool2/3x3_s2_0_split -> pool2/3x3_s2_pool2/3x3_s2_0_split_3
I0403 19:04:03.715154  8599 net.cpp:141] Setting up pool2/3x3_s2_pool2/3x3_s2_0_split
I0403 19:04:03.715190  8599 net.cpp:148] Top shape: 24 192 28 28 (3612672)
I0403 19:04:03.715214  8599 net.cpp:148] Top shape: 24 192 28 28 (3612672)
I0403 19:04:03.715234  8599 net.cpp:148] Top shape: 24 192 28 28 (3612672)
I0403 19:04:03.715252  8599 net.cpp:148] Top shape: 24 192 28 28 (3612672)
I0403 19:04:03.715270  8599 net.cpp:156] Memory required for data: 491324448
I0403 19:04:03.715286  8599 layer_factory.hpp:77] Creating layer inception_3a/1x1
I0403 19:04:03.715313  8599 net.cpp:91] Creating Layer inception_3a/1x1
I0403 19:04:03.715334  8599 net.cpp:425] inception_3a/1x1 <- pool2/3x3_s2_pool2/3x3_s2_0_split_0
I0403 19:04:03.715358  8599 net.cpp:399] inception_3a/1x1 -> inception_3a/1x1
I0403 19:04:03.717226  8599 net.cpp:141] Setting up inception_3a/1x1
I0403 19:04:03.717264  8599 net.cpp:148] Top shape: 24 64 28 28 (1204224)
I0403 19:04:03.717284  8599 net.cpp:156] Memory required for data: 496141344
I0403 19:04:03.717306  8599 layer_factory.hpp:77] Creating layer inception_3a/relu_1x1
I0403 19:04:03.717332  8599 net.cpp:91] Creating Layer inception_3a/relu_1x1
I0403 19:04:03.717355  8599 net.cpp:425] inception_3a/relu_1x1 <- inception_3a/1x1
I0403 19:04:03.717376  8599 net.cpp:386] inception_3a/relu_1x1 -> inception_3a/1x1 (in-place)
I0403 19:04:03.717592  8599 net.cpp:141] Setting up inception_3a/relu_1x1
I0403 19:04:03.717625  8599 net.cpp:148] Top shape: 24 64 28 28 (1204224)
I0403 19:04:03.717645  8599 net.cpp:156] Memory required for data: 500958240
I0403 19:04:03.717664  8599 layer_factory.hpp:77] Creating layer inception_3a/3x3_reduce
I0403 19:04:03.717697  8599 net.cpp:91] Creating Layer inception_3a/3x3_reduce
I0403 19:04:03.717720  8599 net.cpp:425] inception_3a/3x3_reduce <- pool2/3x3_s2_pool2/3x3_s2_0_split_1
I0403 19:04:03.717744  8599 net.cpp:399] inception_3a/3x3_reduce -> inception_3a/3x3_reduce
I0403 19:04:03.719821  8599 net.cpp:141] Setting up inception_3a/3x3_reduce
I0403 19:04:03.719861  8599 net.cpp:148] Top shape: 24 96 28 28 (1806336)
I0403 19:04:03.719884  8599 net.cpp:156] Memory required for data: 508183584
I0403 19:04:03.719914  8599 layer_factory.hpp:77] Creating layer inception_3a/relu_3x3_reduce
I0403 19:04:03.719959  8599 net.cpp:91] Creating Layer inception_3a/relu_3x3_reduce
I0403 19:04:03.719982  8599 net.cpp:425] inception_3a/relu_3x3_reduce <- inception_3a/3x3_reduce
I0403 19:04:03.720010  8599 net.cpp:386] inception_3a/relu_3x3_reduce -> inception_3a/3x3_reduce (in-place)
I0403 19:04:03.720242  8599 net.cpp:141] Setting up inception_3a/relu_3x3_reduce
I0403 19:04:03.720276  8599 net.cpp:148] Top shape: 24 96 28 28 (1806336)
I0403 19:04:03.720295  8599 net.cpp:156] Memory required for data: 515408928
I0403 19:04:03.720314  8599 layer_factory.hpp:77] Creating layer inception_3a/3x3
I0403 19:04:03.720342  8599 net.cpp:91] Creating Layer inception_3a/3x3
I0403 19:04:03.720366  8599 net.cpp:425] inception_3a/3x3 <- inception_3a/3x3_reduce
I0403 19:04:03.720396  8599 net.cpp:399] inception_3a/3x3 -> inception_3a/3x3
I0403 19:04:03.722390  8599 net.cpp:141] Setting up inception_3a/3x3
I0403 19:04:03.722426  8599 net.cpp:148] Top shape: 24 128 28 28 (2408448)
I0403 19:04:03.722446  8599 net.cpp:156] Memory required for data: 525042720
I0403 19:04:03.722470  8599 layer_factory.hpp:77] Creating layer inception_3a/relu_3x3
I0403 19:04:03.722494  8599 net.cpp:91] Creating Layer inception_3a/relu_3x3
I0403 19:04:03.722515  8599 net.cpp:425] inception_3a/relu_3x3 <- inception_3a/3x3
I0403 19:04:03.722537  8599 net.cpp:386] inception_3a/relu_3x3 -> inception_3a/3x3 (in-place)
I0403 19:04:03.722858  8599 net.cpp:141] Setting up inception_3a/relu_3x3
I0403 19:04:03.722892  8599 net.cpp:148] Top shape: 24 128 28 28 (2408448)
I0403 19:04:03.722909  8599 net.cpp:156] Memory required for data: 534676512
I0403 19:04:03.722929  8599 layer_factory.hpp:77] Creating layer inception_3a/5x5_reduce
I0403 19:04:03.722959  8599 net.cpp:91] Creating Layer inception_3a/5x5_reduce
I0403 19:04:03.722980  8599 net.cpp:425] inception_3a/5x5_reduce <- pool2/3x3_s2_pool2/3x3_s2_0_split_2
I0403 19:04:03.723003  8599 net.cpp:399] inception_3a/5x5_reduce -> inception_3a/5x5_reduce
I0403 19:04:03.724166  8599 net.cpp:141] Setting up inception_3a/5x5_reduce
I0403 19:04:03.724208  8599 net.cpp:148] Top shape: 24 16 28 28 (301056)
I0403 19:04:03.724231  8599 net.cpp:156] Memory required for data: 535880736
I0403 19:04:03.724254  8599 layer_factory.hpp:77] Creating layer inception_3a/relu_5x5_reduce
I0403 19:04:03.724277  8599 net.cpp:91] Creating Layer inception_3a/relu_5x5_reduce
I0403 19:04:03.724297  8599 net.cpp:425] inception_3a/relu_5x5_reduce <- inception_3a/5x5_reduce
I0403 19:04:03.724321  8599 net.cpp:386] inception_3a/relu_5x5_reduce -> inception_3a/5x5_reduce (in-place)
I0403 19:04:03.724653  8599 net.cpp:141] Setting up inception_3a/relu_5x5_reduce
I0403 19:04:03.724685  8599 net.cpp:148] Top shape: 24 16 28 28 (301056)
I0403 19:04:03.724705  8599 net.cpp:156] Memory required for data: 537084960
I0403 19:04:03.724723  8599 layer_factory.hpp:77] Creating layer inception_3a/5x5
I0403 19:04:03.724751  8599 net.cpp:91] Creating Layer inception_3a/5x5
I0403 19:04:03.724772  8599 net.cpp:425] inception_3a/5x5 <- inception_3a/5x5_reduce
I0403 19:04:03.724798  8599 net.cpp:399] inception_3a/5x5 -> inception_3a/5x5
I0403 19:04:03.726001  8599 net.cpp:141] Setting up inception_3a/5x5
I0403 19:04:03.726034  8599 net.cpp:148] Top shape: 24 32 28 28 (602112)
I0403 19:04:03.726054  8599 net.cpp:156] Memory required for data: 539493408
I0403 19:04:03.726078  8599 layer_factory.hpp:77] Creating layer inception_3a/relu_5x5
I0403 19:04:03.726102  8599 net.cpp:91] Creating Layer inception_3a/relu_5x5
I0403 19:04:03.726122  8599 net.cpp:425] inception_3a/relu_5x5 <- inception_3a/5x5
I0403 19:04:03.726145  8599 net.cpp:386] inception_3a/relu_5x5 -> inception_3a/5x5 (in-place)
I0403 19:04:03.726357  8599 net.cpp:141] Setting up inception_3a/relu_5x5
I0403 19:04:03.726390  8599 net.cpp:148] Top shape: 24 32 28 28 (602112)
I0403 19:04:03.726408  8599 net.cpp:156] Memory required for data: 541901856
I0403 19:04:03.726428  8599 layer_factory.hpp:77] Creating layer inception_3a/pool
I0403 19:04:03.726450  8599 net.cpp:91] Creating Layer inception_3a/pool
I0403 19:04:03.726486  8599 net.cpp:425] inception_3a/pool <- pool2/3x3_s2_pool2/3x3_s2_0_split_3
I0403 19:04:03.726513  8599 net.cpp:399] inception_3a/pool -> inception_3a/pool
I0403 19:04:03.726583  8599 net.cpp:141] Setting up inception_3a/pool
I0403 19:04:03.726611  8599 net.cpp:148] Top shape: 24 192 28 28 (3612672)
I0403 19:04:03.726630  8599 net.cpp:156] Memory required for data: 556352544
I0403 19:04:03.726650  8599 layer_factory.hpp:77] Creating layer inception_3a/pool_proj
I0403 19:04:03.726680  8599 net.cpp:91] Creating Layer inception_3a/pool_proj
I0403 19:04:03.726701  8599 net.cpp:425] inception_3a/pool_proj <- inception_3a/pool
I0403 19:04:03.726724  8599 net.cpp:399] inception_3a/pool_proj -> inception_3a/pool_proj
I0403 19:04:03.727880  8599 net.cpp:141] Setting up inception_3a/pool_proj
I0403 19:04:03.727913  8599 net.cpp:148] Top shape: 24 32 28 28 (602112)
I0403 19:04:03.727932  8599 net.cpp:156] Memory required for data: 558760992
I0403 19:04:03.727962  8599 layer_factory.hpp:77] Creating layer inception_3a/relu_pool_proj
I0403 19:04:03.727987  8599 net.cpp:91] Creating Layer inception_3a/relu_pool_proj
I0403 19:04:03.728006  8599 net.cpp:425] inception_3a/relu_pool_proj <- inception_3a/pool_proj
I0403 19:04:03.728032  8599 net.cpp:386] inception_3a/relu_pool_proj -> inception_3a/pool_proj (in-place)
I0403 19:04:03.728364  8599 net.cpp:141] Setting up inception_3a/relu_pool_proj
I0403 19:04:03.728396  8599 net.cpp:148] Top shape: 24 32 28 28 (602112)
I0403 19:04:03.728415  8599 net.cpp:156] Memory required for data: 561169440
I0403 19:04:03.728435  8599 layer_factory.hpp:77] Creating layer inception_3a/output
I0403 19:04:03.728459  8599 net.cpp:91] Creating Layer inception_3a/output
I0403 19:04:03.728480  8599 net.cpp:425] inception_3a/output <- inception_3a/1x1
I0403 19:04:03.728502  8599 net.cpp:425] inception_3a/output <- inception_3a/3x3
I0403 19:04:03.728520  8599 net.cpp:425] inception_3a/output <- inception_3a/5x5
I0403 19:04:03.728539  8599 net.cpp:425] inception_3a/output <- inception_3a/pool_proj
I0403 19:04:03.728561  8599 net.cpp:399] inception_3a/output -> inception_3a/output
I0403 19:04:03.728620  8599 net.cpp:141] Setting up inception_3a/output
I0403 19:04:03.728648  8599 net.cpp:148] Top shape: 24 256 28 28 (4816896)
I0403 19:04:03.728667  8599 net.cpp:156] Memory required for data: 580437024
I0403 19:04:03.728685  8599 layer_factory.hpp:77] Creating layer inception_3a/output_inception_3a/output_0_split
I0403 19:04:03.728705  8599 net.cpp:91] Creating Layer inception_3a/output_inception_3a/output_0_split
I0403 19:04:03.728724  8599 net.cpp:425] inception_3a/output_inception_3a/output_0_split <- inception_3a/output
I0403 19:04:03.728749  8599 net.cpp:399] inception_3a/output_inception_3a/output_0_split -> inception_3a/output_inception_3a/output_0_split_0
I0403 19:04:03.728775  8599 net.cpp:399] inception_3a/output_inception_3a/output_0_split -> inception_3a/output_inception_3a/output_0_split_1
I0403 19:04:03.728806  8599 net.cpp:399] inception_3a/output_inception_3a/output_0_split -> inception_3a/output_inception_3a/output_0_split_2
I0403 19:04:03.728833  8599 net.cpp:399] inception_3a/output_inception_3a/output_0_split -> inception_3a/output_inception_3a/output_0_split_3
I0403 19:04:03.728922  8599 net.cpp:141] Setting up inception_3a/output_inception_3a/output_0_split
I0403 19:04:03.728950  8599 net.cpp:148] Top shape: 24 256 28 28 (4816896)
I0403 19:04:03.728974  8599 net.cpp:148] Top shape: 24 256 28 28 (4816896)
I0403 19:04:03.728996  8599 net.cpp:148] Top shape: 24 256 28 28 (4816896)
I0403 19:04:03.729017  8599 net.cpp:148] Top shape: 24 256 28 28 (4816896)
I0403 19:04:03.729033  8599 net.cpp:156] Memory required for data: 657507360
I0403 19:04:03.729053  8599 layer_factory.hpp:77] Creating layer inception_3b/1x1
I0403 19:04:03.729077  8599 net.cpp:91] Creating Layer inception_3b/1x1
I0403 19:04:03.729099  8599 net.cpp:425] inception_3b/1x1 <- inception_3a/output_inception_3a/output_0_split_0
I0403 19:04:03.729125  8599 net.cpp:399] inception_3b/1x1 -> inception_3b/1x1
I0403 19:04:03.730486  8599 net.cpp:141] Setting up inception_3b/1x1
I0403 19:04:03.730535  8599 net.cpp:148] Top shape: 24 128 28 28 (2408448)
I0403 19:04:03.730556  8599 net.cpp:156] Memory required for data: 667141152
I0403 19:04:03.730579  8599 layer_factory.hpp:77] Creating layer inception_3b/relu_1x1
I0403 19:04:03.730603  8599 net.cpp:91] Creating Layer inception_3b/relu_1x1
I0403 19:04:03.730625  8599 net.cpp:425] inception_3b/relu_1x1 <- inception_3b/1x1
I0403 19:04:03.730648  8599 net.cpp:386] inception_3b/relu_1x1 -> inception_3b/1x1 (in-place)
I0403 19:04:03.730860  8599 net.cpp:141] Setting up inception_3b/relu_1x1
I0403 19:04:03.730892  8599 net.cpp:148] Top shape: 24 128 28 28 (2408448)
I0403 19:04:03.730911  8599 net.cpp:156] Memory required for data: 676774944
I0403 19:04:03.730929  8599 layer_factory.hpp:77] Creating layer inception_3b/3x3_reduce
I0403 19:04:03.730959  8599 net.cpp:91] Creating Layer inception_3b/3x3_reduce
I0403 19:04:03.730981  8599 net.cpp:425] inception_3b/3x3_reduce <- inception_3a/output_inception_3a/output_0_split_1
I0403 19:04:03.731004  8599 net.cpp:399] inception_3b/3x3_reduce -> inception_3b/3x3_reduce
I0403 19:04:03.732378  8599 net.cpp:141] Setting up inception_3b/3x3_reduce
I0403 19:04:03.732411  8599 net.cpp:148] Top shape: 24 128 28 28 (2408448)
I0403 19:04:03.732432  8599 net.cpp:156] Memory required for data: 686408736
I0403 19:04:03.732455  8599 layer_factory.hpp:77] Creating layer inception_3b/relu_3x3_reduce
I0403 19:04:03.732481  8599 net.cpp:91] Creating Layer inception_3b/relu_3x3_reduce
I0403 19:04:03.732501  8599 net.cpp:425] inception_3b/relu_3x3_reduce <- inception_3b/3x3_reduce
I0403 19:04:03.732523  8599 net.cpp:386] inception_3b/relu_3x3_reduce -> inception_3b/3x3_reduce (in-place)
I0403 19:04:03.732736  8599 net.cpp:141] Setting up inception_3b/relu_3x3_reduce
I0403 19:04:03.732772  8599 net.cpp:148] Top shape: 24 128 28 28 (2408448)
I0403 19:04:03.732791  8599 net.cpp:156] Memory required for data: 696042528
I0403 19:04:03.732810  8599 layer_factory.hpp:77] Creating layer inception_3b/3x3
I0403 19:04:03.732839  8599 net.cpp:91] Creating Layer inception_3b/3x3
I0403 19:04:03.732862  8599 net.cpp:425] inception_3b/3x3 <- inception_3b/3x3_reduce
I0403 19:04:03.732888  8599 net.cpp:399] inception_3b/3x3 -> inception_3b/3x3
I0403 19:04:03.736387  8599 net.cpp:141] Setting up inception_3b/3x3
I0403 19:04:03.736451  8599 net.cpp:148] Top shape: 24 192 28 28 (3612672)
I0403 19:04:03.736470  8599 net.cpp:156] Memory required for data: 710493216
I0403 19:04:03.736493  8599 layer_factory.hpp:77] Creating layer inception_3b/relu_3x3
I0403 19:04:03.736520  8599 net.cpp:91] Creating Layer inception_3b/relu_3x3
I0403 19:04:03.736541  8599 net.cpp:425] inception_3b/relu_3x3 <- inception_3b/3x3
I0403 19:04:03.736562  8599 net.cpp:386] inception_3b/relu_3x3 -> inception_3b/3x3 (in-place)
I0403 19:04:03.736888  8599 net.cpp:141] Setting up inception_3b/relu_3x3
I0403 19:04:03.736920  8599 net.cpp:148] Top shape: 24 192 28 28 (3612672)
I0403 19:04:03.736939  8599 net.cpp:156] Memory required for data: 724943904
I0403 19:04:03.736958  8599 layer_factory.hpp:77] Creating layer inception_3b/5x5_reduce
I0403 19:04:03.736994  8599 net.cpp:91] Creating Layer inception_3b/5x5_reduce
I0403 19:04:03.737016  8599 net.cpp:425] inception_3b/5x5_reduce <- inception_3a/output_inception_3a/output_0_split_2
I0403 19:04:03.737040  8599 net.cpp:399] inception_3b/5x5_reduce -> inception_3b/5x5_reduce
I0403 19:04:03.738231  8599 net.cpp:141] Setting up inception_3b/5x5_reduce
I0403 19:04:03.738265  8599 net.cpp:148] Top shape: 24 32 28 28 (602112)
I0403 19:04:03.738286  8599 net.cpp:156] Memory required for data: 727352352
I0403 19:04:03.738308  8599 layer_factory.hpp:77] Creating layer inception_3b/relu_5x5_reduce
I0403 19:04:03.738333  8599 net.cpp:91] Creating Layer inception_3b/relu_5x5_reduce
I0403 19:04:03.738354  8599 net.cpp:425] inception_3b/relu_5x5_reduce <- inception_3b/5x5_reduce
I0403 19:04:03.738376  8599 net.cpp:386] inception_3b/relu_5x5_reduce -> inception_3b/5x5_reduce (in-place)
I0403 19:04:03.738611  8599 net.cpp:141] Setting up inception_3b/relu_5x5_reduce
I0403 19:04:03.738642  8599 net.cpp:148] Top shape: 24 32 28 28 (602112)
I0403 19:04:03.738662  8599 net.cpp:156] Memory required for data: 729760800
I0403 19:04:03.738679  8599 layer_factory.hpp:77] Creating layer inception_3b/5x5
I0403 19:04:03.738706  8599 net.cpp:91] Creating Layer inception_3b/5x5
I0403 19:04:03.738729  8599 net.cpp:425] inception_3b/5x5 <- inception_3b/5x5_reduce
I0403 19:04:03.738754  8599 net.cpp:399] inception_3b/5x5 -> inception_3b/5x5
I0403 19:04:03.741091  8599 net.cpp:141] Setting up inception_3b/5x5
I0403 19:04:03.741127  8599 net.cpp:148] Top shape: 24 96 28 28 (1806336)
I0403 19:04:03.741147  8599 net.cpp:156] Memory required for data: 736986144
I0403 19:04:03.741169  8599 layer_factory.hpp:77] Creating layer inception_3b/relu_5x5
I0403 19:04:03.741200  8599 net.cpp:91] Creating Layer inception_3b/relu_5x5
I0403 19:04:03.741222  8599 net.cpp:425] inception_3b/relu_5x5 <- inception_3b/5x5
I0403 19:04:03.741245  8599 net.cpp:386] inception_3b/relu_5x5 -> inception_3b/5x5 (in-place)
I0403 19:04:03.741479  8599 net.cpp:141] Setting up inception_3b/relu_5x5
I0403 19:04:03.741510  8599 net.cpp:148] Top shape: 24 96 28 28 (1806336)
I0403 19:04:03.741528  8599 net.cpp:156] Memory required for data: 744211488
I0403 19:04:03.741550  8599 layer_factory.hpp:77] Creating layer inception_3b/pool
I0403 19:04:03.741574  8599 net.cpp:91] Creating Layer inception_3b/pool
I0403 19:04:03.741592  8599 net.cpp:425] inception_3b/pool <- inception_3a/output_inception_3a/output_0_split_3
I0403 19:04:03.741616  8599 net.cpp:399] inception_3b/pool -> inception_3b/pool
I0403 19:04:03.741683  8599 net.cpp:141] Setting up inception_3b/pool
I0403 19:04:03.741714  8599 net.cpp:148] Top shape: 24 256 28 28 (4816896)
I0403 19:04:03.741731  8599 net.cpp:156] Memory required for data: 763479072
I0403 19:04:03.741750  8599 layer_factory.hpp:77] Creating layer inception_3b/pool_proj
I0403 19:04:03.741777  8599 net.cpp:91] Creating Layer inception_3b/pool_proj
I0403 19:04:03.741799  8599 net.cpp:425] inception_3b/pool_proj <- inception_3b/pool
I0403 19:04:03.741825  8599 net.cpp:399] inception_3b/pool_proj -> inception_3b/pool_proj
I0403 19:04:03.743091  8599 net.cpp:141] Setting up inception_3b/pool_proj
I0403 19:04:03.743126  8599 net.cpp:148] Top shape: 24 64 28 28 (1204224)
I0403 19:04:03.743146  8599 net.cpp:156] Memory required for data: 768295968
I0403 19:04:03.743170  8599 layer_factory.hpp:77] Creating layer inception_3b/relu_pool_proj
I0403 19:04:03.743206  8599 net.cpp:91] Creating Layer inception_3b/relu_pool_proj
I0403 19:04:03.743228  8599 net.cpp:425] inception_3b/relu_pool_proj <- inception_3b/pool_proj
I0403 19:04:03.743253  8599 net.cpp:386] inception_3b/relu_pool_proj -> inception_3b/pool_proj (in-place)
I0403 19:04:03.743695  8599 net.cpp:141] Setting up inception_3b/relu_pool_proj
I0403 19:04:03.743731  8599 net.cpp:148] Top shape: 24 64 28 28 (1204224)
I0403 19:04:03.743749  8599 net.cpp:156] Memory required for data: 773112864
I0403 19:04:03.743768  8599 layer_factory.hpp:77] Creating layer inception_3b/output
I0403 19:04:03.743790  8599 net.cpp:91] Creating Layer inception_3b/output
I0403 19:04:03.743808  8599 net.cpp:425] inception_3b/output <- inception_3b/1x1
I0403 19:04:03.743829  8599 net.cpp:425] inception_3b/output <- inception_3b/3x3
I0403 19:04:03.743849  8599 net.cpp:425] inception_3b/output <- inception_3b/5x5
I0403 19:04:03.743870  8599 net.cpp:425] inception_3b/output <- inception_3b/pool_proj
I0403 19:04:03.743892  8599 net.cpp:399] inception_3b/output -> inception_3b/output
I0403 19:04:03.743947  8599 net.cpp:141] Setting up inception_3b/output
I0403 19:04:03.743974  8599 net.cpp:148] Top shape: 24 480 28 28 (9031680)
I0403 19:04:03.743993  8599 net.cpp:156] Memory required for data: 809239584
I0403 19:04:03.744011  8599 layer_factory.hpp:77] Creating layer pool3/3x3_s2
I0403 19:04:03.744037  8599 net.cpp:91] Creating Layer pool3/3x3_s2
I0403 19:04:03.744057  8599 net.cpp:425] pool3/3x3_s2 <- inception_3b/output
I0403 19:04:03.744098  8599 net.cpp:399] pool3/3x3_s2 -> pool3/3x3_s2
I0403 19:04:03.744170  8599 net.cpp:141] Setting up pool3/3x3_s2
I0403 19:04:03.744204  8599 net.cpp:148] Top shape: 24 480 14 14 (2257920)
I0403 19:04:03.744222  8599 net.cpp:156] Memory required for data: 818271264
I0403 19:04:03.744242  8599 layer_factory.hpp:77] Creating layer pool3/3x3_s2_pool3/3x3_s2_0_split
I0403 19:04:03.744263  8599 net.cpp:91] Creating Layer pool3/3x3_s2_pool3/3x3_s2_0_split
I0403 19:04:03.744283  8599 net.cpp:425] pool3/3x3_s2_pool3/3x3_s2_0_split <- pool3/3x3_s2
I0403 19:04:03.744312  8599 net.cpp:399] pool3/3x3_s2_pool3/3x3_s2_0_split -> pool3/3x3_s2_pool3/3x3_s2_0_split_0
I0403 19:04:03.744336  8599 net.cpp:399] pool3/3x3_s2_pool3/3x3_s2_0_split -> pool3/3x3_s2_pool3/3x3_s2_0_split_1
I0403 19:04:03.744360  8599 net.cpp:399] pool3/3x3_s2_pool3/3x3_s2_0_split -> pool3/3x3_s2_pool3/3x3_s2_0_split_2
I0403 19:04:03.744385  8599 net.cpp:399] pool3/3x3_s2_pool3/3x3_s2_0_split -> pool3/3x3_s2_pool3/3x3_s2_0_split_3
I0403 19:04:03.744478  8599 net.cpp:141] Setting up pool3/3x3_s2_pool3/3x3_s2_0_split
I0403 19:04:03.744506  8599 net.cpp:148] Top shape: 24 480 14 14 (2257920)
I0403 19:04:03.744526  8599 net.cpp:148] Top shape: 24 480 14 14 (2257920)
I0403 19:04:03.744545  8599 net.cpp:148] Top shape: 24 480 14 14 (2257920)
I0403 19:04:03.744566  8599 net.cpp:148] Top shape: 24 480 14 14 (2257920)
I0403 19:04:03.744583  8599 net.cpp:156] Memory required for data: 854397984
I0403 19:04:03.744601  8599 layer_factory.hpp:77] Creating layer inception_4a/1x1
I0403 19:04:03.744627  8599 net.cpp:91] Creating Layer inception_4a/1x1
I0403 19:04:03.744649  8599 net.cpp:425] inception_4a/1x1 <- pool3/3x3_s2_pool3/3x3_s2_0_split_0
I0403 19:04:03.744675  8599 net.cpp:399] inception_4a/1x1 -> inception_4a/1x1
I0403 19:04:03.746572  8599 net.cpp:141] Setting up inception_4a/1x1
I0403 19:04:03.746608  8599 net.cpp:148] Top shape: 24 192 14 14 (903168)
I0403 19:04:03.746628  8599 net.cpp:156] Memory required for data: 858010656
I0403 19:04:03.746650  8599 layer_factory.hpp:77] Creating layer inception_4a/relu_1x1
I0403 19:04:03.746672  8599 net.cpp:91] Creating Layer inception_4a/relu_1x1
I0403 19:04:03.746692  8599 net.cpp:425] inception_4a/relu_1x1 <- inception_4a/1x1
I0403 19:04:03.746717  8599 net.cpp:386] inception_4a/relu_1x1 -> inception_4a/1x1 (in-place)
I0403 19:04:03.746932  8599 net.cpp:141] Setting up inception_4a/relu_1x1
I0403 19:04:03.746961  8599 net.cpp:148] Top shape: 24 192 14 14 (903168)
I0403 19:04:03.746979  8599 net.cpp:156] Memory required for data: 861623328
I0403 19:04:03.746999  8599 layer_factory.hpp:77] Creating layer inception_4a/3x3_reduce
I0403 19:04:03.747026  8599 net.cpp:91] Creating Layer inception_4a/3x3_reduce
I0403 19:04:03.747047  8599 net.cpp:425] inception_4a/3x3_reduce <- pool3/3x3_s2_pool3/3x3_s2_0_split_1
I0403 19:04:03.747074  8599 net.cpp:399] inception_4a/3x3_reduce -> inception_4a/3x3_reduce
I0403 19:04:03.748610  8599 net.cpp:141] Setting up inception_4a/3x3_reduce
I0403 19:04:03.748644  8599 net.cpp:148] Top shape: 24 96 14 14 (451584)
I0403 19:04:03.748664  8599 net.cpp:156] Memory required for data: 863429664
I0403 19:04:03.748695  8599 layer_factory.hpp:77] Creating layer inception_4a/relu_3x3_reduce
I0403 19:04:03.748719  8599 net.cpp:91] Creating Layer inception_4a/relu_3x3_reduce
I0403 19:04:03.748739  8599 net.cpp:425] inception_4a/relu_3x3_reduce <- inception_4a/3x3_reduce
I0403 19:04:03.748764  8599 net.cpp:386] inception_4a/relu_3x3_reduce -> inception_4a/3x3_reduce (in-place)
I0403 19:04:03.748971  8599 net.cpp:141] Setting up inception_4a/relu_3x3_reduce
I0403 19:04:03.749002  8599 net.cpp:148] Top shape: 24 96 14 14 (451584)
I0403 19:04:03.749020  8599 net.cpp:156] Memory required for data: 865236000
I0403 19:04:03.749039  8599 layer_factory.hpp:77] Creating layer inception_4a/3x3
I0403 19:04:03.749066  8599 net.cpp:91] Creating Layer inception_4a/3x3
I0403 19:04:03.749089  8599 net.cpp:425] inception_4a/3x3 <- inception_4a/3x3_reduce
I0403 19:04:03.749114  8599 net.cpp:399] inception_4a/3x3 -> inception_4a/3x3
I0403 19:04:03.752331  8599 net.cpp:141] Setting up inception_4a/3x3
I0403 19:04:03.752367  8599 net.cpp:148] Top shape: 24 208 14 14 (978432)
I0403 19:04:03.752388  8599 net.cpp:156] Memory required for data: 869149728
I0403 19:04:03.752409  8599 layer_factory.hpp:77] Creating layer inception_4a/relu_3x3
I0403 19:04:03.752434  8599 net.cpp:91] Creating Layer inception_4a/relu_3x3
I0403 19:04:03.752456  8599 net.cpp:425] inception_4a/relu_3x3 <- inception_4a/3x3
I0403 19:04:03.752480  8599 net.cpp:386] inception_4a/relu_3x3 -> inception_4a/3x3 (in-place)
I0403 19:04:03.752806  8599 net.cpp:141] Setting up inception_4a/relu_3x3
I0403 19:04:03.752838  8599 net.cpp:148] Top shape: 24 208 14 14 (978432)
I0403 19:04:03.752857  8599 net.cpp:156] Memory required for data: 873063456
I0403 19:04:03.752878  8599 layer_factory.hpp:77] Creating layer inception_4a/5x5_reduce
I0403 19:04:03.752907  8599 net.cpp:91] Creating Layer inception_4a/5x5_reduce
I0403 19:04:03.752928  8599 net.cpp:425] inception_4a/5x5_reduce <- pool3/3x3_s2_pool3/3x3_s2_0_split_2
I0403 19:04:03.752956  8599 net.cpp:399] inception_4a/5x5_reduce -> inception_4a/5x5_reduce
I0403 19:04:03.754187  8599 net.cpp:141] Setting up inception_4a/5x5_reduce
I0403 19:04:03.754222  8599 net.cpp:148] Top shape: 24 16 14 14 (75264)
I0403 19:04:03.754242  8599 net.cpp:156] Memory required for data: 873364512
I0403 19:04:03.754266  8599 layer_factory.hpp:77] Creating layer inception_4a/relu_5x5_reduce
I0403 19:04:03.754290  8599 net.cpp:91] Creating Layer inception_4a/relu_5x5_reduce
I0403 19:04:03.754310  8599 net.cpp:425] inception_4a/relu_5x5_reduce <- inception_4a/5x5_reduce
I0403 19:04:03.754333  8599 net.cpp:386] inception_4a/relu_5x5_reduce -> inception_4a/5x5_reduce (in-place)
I0403 19:04:03.754552  8599 net.cpp:141] Setting up inception_4a/relu_5x5_reduce
I0403 19:04:03.754585  8599 net.cpp:148] Top shape: 24 16 14 14 (75264)
I0403 19:04:03.754603  8599 net.cpp:156] Memory required for data: 873665568
I0403 19:04:03.754622  8599 layer_factory.hpp:77] Creating layer inception_4a/5x5
I0403 19:04:03.754649  8599 net.cpp:91] Creating Layer inception_4a/5x5
I0403 19:04:03.754673  8599 net.cpp:425] inception_4a/5x5 <- inception_4a/5x5_reduce
I0403 19:04:03.754699  8599 net.cpp:399] inception_4a/5x5 -> inception_4a/5x5
I0403 19:04:03.755990  8599 net.cpp:141] Setting up inception_4a/5x5
I0403 19:04:03.756026  8599 net.cpp:148] Top shape: 24 48 14 14 (225792)
I0403 19:04:03.756047  8599 net.cpp:156] Memory required for data: 874568736
I0403 19:04:03.756070  8599 layer_factory.hpp:77] Creating layer inception_4a/relu_5x5
I0403 19:04:03.756093  8599 net.cpp:91] Creating Layer inception_4a/relu_5x5
I0403 19:04:03.756111  8599 net.cpp:425] inception_4a/relu_5x5 <- inception_4a/5x5
I0403 19:04:03.756135  8599 net.cpp:386] inception_4a/relu_5x5 -> inception_4a/5x5 (in-place)
I0403 19:04:03.756356  8599 net.cpp:141] Setting up inception_4a/relu_5x5
I0403 19:04:03.756386  8599 net.cpp:148] Top shape: 24 48 14 14 (225792)
I0403 19:04:03.756404  8599 net.cpp:156] Memory required for data: 875471904
I0403 19:04:03.756422  8599 layer_factory.hpp:77] Creating layer inception_4a/pool
I0403 19:04:03.756445  8599 net.cpp:91] Creating Layer inception_4a/pool
I0403 19:04:03.756465  8599 net.cpp:425] inception_4a/pool <- pool3/3x3_s2_pool3/3x3_s2_0_split_3
I0403 19:04:03.756490  8599 net.cpp:399] inception_4a/pool -> inception_4a/pool
I0403 19:04:03.756564  8599 net.cpp:141] Setting up inception_4a/pool
I0403 19:04:03.756593  8599 net.cpp:148] Top shape: 24 480 14 14 (2257920)
I0403 19:04:03.756611  8599 net.cpp:156] Memory required for data: 884503584
I0403 19:04:03.756629  8599 layer_factory.hpp:77] Creating layer inception_4a/pool_proj
I0403 19:04:03.756659  8599 net.cpp:91] Creating Layer inception_4a/pool_proj
I0403 19:04:03.756682  8599 net.cpp:425] inception_4a/pool_proj <- inception_4a/pool
I0403 19:04:03.756705  8599 net.cpp:399] inception_4a/pool_proj -> inception_4a/pool_proj
I0403 19:04:03.758110  8599 net.cpp:141] Setting up inception_4a/pool_proj
I0403 19:04:03.758144  8599 net.cpp:148] Top shape: 24 64 14 14 (301056)
I0403 19:04:03.758186  8599 net.cpp:156] Memory required for data: 885707808
I0403 19:04:03.758213  8599 layer_factory.hpp:77] Creating layer inception_4a/relu_pool_proj
I0403 19:04:03.758235  8599 net.cpp:91] Creating Layer inception_4a/relu_pool_proj
I0403 19:04:03.758260  8599 net.cpp:425] inception_4a/relu_pool_proj <- inception_4a/pool_proj
I0403 19:04:03.758280  8599 net.cpp:386] inception_4a/relu_pool_proj -> inception_4a/pool_proj (in-place)
I0403 19:04:03.758620  8599 net.cpp:141] Setting up inception_4a/relu_pool_proj
I0403 19:04:03.758653  8599 net.cpp:148] Top shape: 24 64 14 14 (301056)
I0403 19:04:03.758672  8599 net.cpp:156] Memory required for data: 886912032
I0403 19:04:03.758692  8599 layer_factory.hpp:77] Creating layer inception_4a/output
I0403 19:04:03.758713  8599 net.cpp:91] Creating Layer inception_4a/output
I0403 19:04:03.758731  8599 net.cpp:425] inception_4a/output <- inception_4a/1x1
I0403 19:04:03.758752  8599 net.cpp:425] inception_4a/output <- inception_4a/3x3
I0403 19:04:03.758772  8599 net.cpp:425] inception_4a/output <- inception_4a/5x5
I0403 19:04:03.758793  8599 net.cpp:425] inception_4a/output <- inception_4a/pool_proj
I0403 19:04:03.758816  8599 net.cpp:399] inception_4a/output -> inception_4a/output
I0403 19:04:03.758870  8599 net.cpp:141] Setting up inception_4a/output
I0403 19:04:03.758903  8599 net.cpp:148] Top shape: 24 512 14 14 (2408448)
I0403 19:04:03.758921  8599 net.cpp:156] Memory required for data: 896545824
I0403 19:04:03.758940  8599 layer_factory.hpp:77] Creating layer inception_4a/output_inception_4a/output_0_split
I0403 19:04:03.758963  8599 net.cpp:91] Creating Layer inception_4a/output_inception_4a/output_0_split
I0403 19:04:03.758982  8599 net.cpp:425] inception_4a/output_inception_4a/output_0_split <- inception_4a/output
I0403 19:04:03.759007  8599 net.cpp:399] inception_4a/output_inception_4a/output_0_split -> inception_4a/output_inception_4a/output_0_split_0
I0403 19:04:03.759033  8599 net.cpp:399] inception_4a/output_inception_4a/output_0_split -> inception_4a/output_inception_4a/output_0_split_1
I0403 19:04:03.759058  8599 net.cpp:399] inception_4a/output_inception_4a/output_0_split -> inception_4a/output_inception_4a/output_0_split_2
I0403 19:04:03.759085  8599 net.cpp:399] inception_4a/output_inception_4a/output_0_split -> inception_4a/output_inception_4a/output_0_split_3
I0403 19:04:03.759111  8599 net.cpp:399] inception_4a/output_inception_4a/output_0_split -> inception_4a/output_inception_4a/output_0_split_4
I0403 19:04:03.759229  8599 net.cpp:141] Setting up inception_4a/output_inception_4a/output_0_split
I0403 19:04:03.759258  8599 net.cpp:148] Top shape: 24 512 14 14 (2408448)
I0403 19:04:03.759279  8599 net.cpp:148] Top shape: 24 512 14 14 (2408448)
I0403 19:04:03.759299  8599 net.cpp:148] Top shape: 24 512 14 14 (2408448)
I0403 19:04:03.759318  8599 net.cpp:148] Top shape: 24 512 14 14 (2408448)
I0403 19:04:03.759337  8599 net.cpp:148] Top shape: 24 512 14 14 (2408448)
I0403 19:04:03.759354  8599 net.cpp:156] Memory required for data: 944714784
I0403 19:04:03.759372  8599 layer_factory.hpp:77] Creating layer loss1/ave_pool
I0403 19:04:03.759397  8599 net.cpp:91] Creating Layer loss1/ave_pool
I0403 19:04:03.759418  8599 net.cpp:425] loss1/ave_pool <- inception_4a/output_inception_4a/output_0_split_0
I0403 19:04:03.759440  8599 net.cpp:399] loss1/ave_pool -> loss1/ave_pool
I0403 19:04:03.759687  8599 net.cpp:141] Setting up loss1/ave_pool
I0403 19:04:03.759719  8599 net.cpp:148] Top shape: 24 512 4 4 (196608)
I0403 19:04:03.759737  8599 net.cpp:156] Memory required for data: 945501216
I0403 19:04:03.759757  8599 layer_factory.hpp:77] Creating layer loss1/conv
I0403 19:04:03.759784  8599 net.cpp:91] Creating Layer loss1/conv
I0403 19:04:03.759807  8599 net.cpp:425] loss1/conv <- loss1/ave_pool
I0403 19:04:03.759834  8599 net.cpp:399] loss1/conv -> loss1/conv
I0403 19:04:03.761523  8599 net.cpp:141] Setting up loss1/conv
I0403 19:04:03.761557  8599 net.cpp:148] Top shape: 24 128 4 4 (49152)
I0403 19:04:03.761592  8599 net.cpp:156] Memory required for data: 945697824
I0403 19:04:03.761618  8599 layer_factory.hpp:77] Creating layer loss1/relu_conv
I0403 19:04:03.761642  8599 net.cpp:91] Creating Layer loss1/relu_conv
I0403 19:04:03.761664  8599 net.cpp:425] loss1/relu_conv <- loss1/conv
I0403 19:04:03.761687  8599 net.cpp:386] loss1/relu_conv -> loss1/conv (in-place)
I0403 19:04:03.762024  8599 net.cpp:141] Setting up loss1/relu_conv
I0403 19:04:03.762058  8599 net.cpp:148] Top shape: 24 128 4 4 (49152)
I0403 19:04:03.762076  8599 net.cpp:156] Memory required for data: 945894432
I0403 19:04:03.762095  8599 layer_factory.hpp:77] Creating layer loss1/fc
I0403 19:04:03.762127  8599 net.cpp:91] Creating Layer loss1/fc
I0403 19:04:03.762150  8599 net.cpp:425] loss1/fc <- loss1/conv
I0403 19:04:03.762181  8599 net.cpp:399] loss1/fc -> loss1/fc
I0403 19:04:03.784121  8599 net.cpp:141] Setting up loss1/fc
I0403 19:04:03.784160  8599 net.cpp:148] Top shape: 24 1024 (24576)
I0403 19:04:03.784189  8599 net.cpp:156] Memory required for data: 945992736
I0403 19:04:03.784214  8599 layer_factory.hpp:77] Creating layer loss1/relu_fc
I0403 19:04:03.784235  8599 net.cpp:91] Creating Layer loss1/relu_fc
I0403 19:04:03.784256  8599 net.cpp:425] loss1/relu_fc <- loss1/fc
I0403 19:04:03.784281  8599 net.cpp:386] loss1/relu_fc -> loss1/fc (in-place)
I0403 19:04:03.784509  8599 net.cpp:141] Setting up loss1/relu_fc
I0403 19:04:03.784541  8599 net.cpp:148] Top shape: 24 1024 (24576)
I0403 19:04:03.784559  8599 net.cpp:156] Memory required for data: 946091040
I0403 19:04:03.784579  8599 layer_factory.hpp:77] Creating layer loss1/drop_fc
I0403 19:04:03.784613  8599 net.cpp:91] Creating Layer loss1/drop_fc
I0403 19:04:03.784636  8599 net.cpp:425] loss1/drop_fc <- loss1/fc
I0403 19:04:03.784658  8599 net.cpp:386] loss1/drop_fc -> loss1/fc (in-place)
I0403 19:04:03.784720  8599 net.cpp:141] Setting up loss1/drop_fc
I0403 19:04:03.784751  8599 net.cpp:148] Top shape: 24 1024 (24576)
I0403 19:04:03.784772  8599 net.cpp:156] Memory required for data: 946189344
I0403 19:04:03.784792  8599 layer_factory.hpp:77] Creating layer loss1/classifier_plantvillage
I0403 19:04:03.784816  8599 net.cpp:91] Creating Layer loss1/classifier_plantvillage
I0403 19:04:03.784835  8599 net.cpp:425] loss1/classifier_plantvillage <- loss1/fc
I0403 19:04:03.784863  8599 net.cpp:399] loss1/classifier_plantvillage -> loss1/classifier_plantvillage
I0403 19:04:03.785948  8599 net.cpp:141] Setting up loss1/classifier_plantvillage
I0403 19:04:03.785982  8599 net.cpp:148] Top shape: 24 38 (912)
I0403 19:04:03.786002  8599 net.cpp:156] Memory required for data: 946192992
I0403 19:04:03.786026  8599 layer_factory.hpp:77] Creating layer loss1/classifier_plantvillage_loss1/classifier_plantvillage_0_split
I0403 19:04:03.786049  8599 net.cpp:91] Creating Layer loss1/classifier_plantvillage_loss1/classifier_plantvillage_0_split
I0403 19:04:03.786069  8599 net.cpp:425] loss1/classifier_plantvillage_loss1/classifier_plantvillage_0_split <- loss1/classifier_plantvillage
I0403 19:04:03.786095  8599 net.cpp:399] loss1/classifier_plantvillage_loss1/classifier_plantvillage_0_split -> loss1/classifier_plantvillage_loss1/classifier_plantvillage_0_split_0
I0403 19:04:03.786121  8599 net.cpp:399] loss1/classifier_plantvillage_loss1/classifier_plantvillage_0_split -> loss1/classifier_plantvillage_loss1/classifier_plantvillage_0_split_1
I0403 19:04:03.786147  8599 net.cpp:399] loss1/classifier_plantvillage_loss1/classifier_plantvillage_0_split -> loss1/classifier_plantvillage_loss1/classifier_plantvillage_0_split_2
I0403 19:04:03.786234  8599 net.cpp:141] Setting up loss1/classifier_plantvillage_loss1/classifier_plantvillage_0_split
I0403 19:04:03.786264  8599 net.cpp:148] Top shape: 24 38 (912)
I0403 19:04:03.786284  8599 net.cpp:148] Top shape: 24 38 (912)
I0403 19:04:03.786304  8599 net.cpp:148] Top shape: 24 38 (912)
I0403 19:04:03.786324  8599 net.cpp:156] Memory required for data: 946203936
I0403 19:04:03.786342  8599 layer_factory.hpp:77] Creating layer inception_4b/1x1
I0403 19:04:03.786370  8599 net.cpp:91] Creating Layer inception_4b/1x1
I0403 19:04:03.786407  8599 net.cpp:425] inception_4b/1x1 <- inception_4a/output_inception_4a/output_0_split_1
I0403 19:04:03.786433  8599 net.cpp:399] inception_4b/1x1 -> inception_4b/1x1
I0403 19:04:03.788385  8599 net.cpp:141] Setting up inception_4b/1x1
I0403 19:04:03.788420  8599 net.cpp:148] Top shape: 24 160 14 14 (752640)
I0403 19:04:03.788442  8599 net.cpp:156] Memory required for data: 949214496
I0403 19:04:03.788465  8599 layer_factory.hpp:77] Creating layer inception_4b/relu_1x1
I0403 19:04:03.788491  8599 net.cpp:91] Creating Layer inception_4b/relu_1x1
I0403 19:04:03.788511  8599 net.cpp:425] inception_4b/relu_1x1 <- inception_4b/1x1
I0403 19:04:03.788533  8599 net.cpp:386] inception_4b/relu_1x1 -> inception_4b/1x1 (in-place)
I0403 19:04:03.788748  8599 net.cpp:141] Setting up inception_4b/relu_1x1
I0403 19:04:03.788782  8599 net.cpp:148] Top shape: 24 160 14 14 (752640)
I0403 19:04:03.788802  8599 net.cpp:156] Memory required for data: 952225056
I0403 19:04:03.788820  8599 layer_factory.hpp:77] Creating layer inception_4b/3x3_reduce
I0403 19:04:03.788847  8599 net.cpp:91] Creating Layer inception_4b/3x3_reduce
I0403 19:04:03.788871  8599 net.cpp:425] inception_4b/3x3_reduce <- inception_4a/output_inception_4a/output_0_split_2
I0403 19:04:03.788894  8599 net.cpp:399] inception_4b/3x3_reduce -> inception_4b/3x3_reduce
I0403 19:04:03.790529  8599 net.cpp:141] Setting up inception_4b/3x3_reduce
I0403 19:04:03.790566  8599 net.cpp:148] Top shape: 24 112 14 14 (526848)
I0403 19:04:03.790586  8599 net.cpp:156] Memory required for data: 954332448
I0403 19:04:03.790609  8599 layer_factory.hpp:77] Creating layer inception_4b/relu_3x3_reduce
I0403 19:04:03.790633  8599 net.cpp:91] Creating Layer inception_4b/relu_3x3_reduce
I0403 19:04:03.790653  8599 net.cpp:425] inception_4b/relu_3x3_reduce <- inception_4b/3x3_reduce
I0403 19:04:03.790676  8599 net.cpp:386] inception_4b/relu_3x3_reduce -> inception_4b/3x3_reduce (in-place)
I0403 19:04:03.791012  8599 net.cpp:141] Setting up inception_4b/relu_3x3_reduce
I0403 19:04:03.791046  8599 net.cpp:148] Top shape: 24 112 14 14 (526848)
I0403 19:04:03.791065  8599 net.cpp:156] Memory required for data: 956439840
I0403 19:04:03.791085  8599 layer_factory.hpp:77] Creating layer inception_4b/3x3
I0403 19:04:03.791111  8599 net.cpp:91] Creating Layer inception_4b/3x3
I0403 19:04:03.791133  8599 net.cpp:425] inception_4b/3x3 <- inception_4b/3x3_reduce
I0403 19:04:03.791157  8599 net.cpp:399] inception_4b/3x3 -> inception_4b/3x3
I0403 19:04:03.794776  8599 net.cpp:141] Setting up inception_4b/3x3
I0403 19:04:03.794813  8599 net.cpp:148] Top shape: 24 224 14 14 (1053696)
I0403 19:04:03.794834  8599 net.cpp:156] Memory required for data: 960654624
I0403 19:04:03.794857  8599 layer_factory.hpp:77] Creating layer inception_4b/relu_3x3
I0403 19:04:03.794879  8599 net.cpp:91] Creating Layer inception_4b/relu_3x3
I0403 19:04:03.794899  8599 net.cpp:425] inception_4b/relu_3x3 <- inception_4b/3x3
I0403 19:04:03.794924  8599 net.cpp:386] inception_4b/relu_3x3 -> inception_4b/3x3 (in-place)
I0403 19:04:03.795145  8599 net.cpp:141] Setting up inception_4b/relu_3x3
I0403 19:04:03.795176  8599 net.cpp:148] Top shape: 24 224 14 14 (1053696)
I0403 19:04:03.795200  8599 net.cpp:156] Memory required for data: 964869408
I0403 19:04:03.795218  8599 layer_factory.hpp:77] Creating layer inception_4b/5x5_reduce
I0403 19:04:03.795246  8599 net.cpp:91] Creating Layer inception_4b/5x5_reduce
I0403 19:04:03.795269  8599 net.cpp:425] inception_4b/5x5_reduce <- inception_4a/output_inception_4a/output_0_split_3
I0403 19:04:03.795298  8599 net.cpp:399] inception_4b/5x5_reduce -> inception_4b/5x5_reduce
I0403 19:04:03.796615  8599 net.cpp:141] Setting up inception_4b/5x5_reduce
I0403 19:04:03.796653  8599 net.cpp:148] Top shape: 24 24 14 14 (112896)
I0403 19:04:03.796674  8599 net.cpp:156] Memory required for data: 965320992
I0403 19:04:03.796697  8599 layer_factory.hpp:77] Creating layer inception_4b/relu_5x5_reduce
I0403 19:04:03.796720  8599 net.cpp:91] Creating Layer inception_4b/relu_5x5_reduce
I0403 19:04:03.796758  8599 net.cpp:425] inception_4b/relu_5x5_reduce <- inception_4b/5x5_reduce
I0403 19:04:03.796782  8599 net.cpp:386] inception_4b/relu_5x5_reduce -> inception_4b/5x5_reduce (in-place)
I0403 19:04:03.797008  8599 net.cpp:141] Setting up inception_4b/relu_5x5_reduce
I0403 19:04:03.797042  8599 net.cpp:148] Top shape: 24 24 14 14 (112896)
I0403 19:04:03.797063  8599 net.cpp:156] Memory required for data: 965772576
I0403 19:04:03.797081  8599 layer_factory.hpp:77] Creating layer inception_4b/5x5
I0403 19:04:03.797108  8599 net.cpp:91] Creating Layer inception_4b/5x5
I0403 19:04:03.797130  8599 net.cpp:425] inception_4b/5x5 <- inception_4b/5x5_reduce
I0403 19:04:03.797158  8599 net.cpp:399] inception_4b/5x5 -> inception_4b/5x5
I0403 19:04:03.798640  8599 net.cpp:141] Setting up inception_4b/5x5
I0403 19:04:03.798674  8599 net.cpp:148] Top shape: 24 64 14 14 (301056)
I0403 19:04:03.798694  8599 net.cpp:156] Memory required for data: 966976800
I0403 19:04:03.798717  8599 layer_factory.hpp:77] Creating layer inception_4b/relu_5x5
I0403 19:04:03.798743  8599 net.cpp:91] Creating Layer inception_4b/relu_5x5
I0403 19:04:03.798764  8599 net.cpp:425] inception_4b/relu_5x5 <- inception_4b/5x5
I0403 19:04:03.798786  8599 net.cpp:386] inception_4b/relu_5x5 -> inception_4b/5x5 (in-place)
I0403 19:04:03.799123  8599 net.cpp:141] Setting up inception_4b/relu_5x5
I0403 19:04:03.799155  8599 net.cpp:148] Top shape: 24 64 14 14 (301056)
I0403 19:04:03.799175  8599 net.cpp:156] Memory required for data: 968181024
I0403 19:04:03.799199  8599 layer_factory.hpp:77] Creating layer inception_4b/pool
I0403 19:04:03.799227  8599 net.cpp:91] Creating Layer inception_4b/pool
I0403 19:04:03.799250  8599 net.cpp:425] inception_4b/pool <- inception_4a/output_inception_4a/output_0_split_4
I0403 19:04:03.799273  8599 net.cpp:399] inception_4b/pool -> inception_4b/pool
I0403 19:04:03.799352  8599 net.cpp:141] Setting up inception_4b/pool
I0403 19:04:03.799382  8599 net.cpp:148] Top shape: 24 512 14 14 (2408448)
I0403 19:04:03.799401  8599 net.cpp:156] Memory required for data: 977814816
I0403 19:04:03.799419  8599 layer_factory.hpp:77] Creating layer inception_4b/pool_proj
I0403 19:04:03.799448  8599 net.cpp:91] Creating Layer inception_4b/pool_proj
I0403 19:04:03.799469  8599 net.cpp:425] inception_4b/pool_proj <- inception_4b/pool
I0403 19:04:03.799494  8599 net.cpp:399] inception_4b/pool_proj -> inception_4b/pool_proj
I0403 19:04:03.800941  8599 net.cpp:141] Setting up inception_4b/pool_proj
I0403 19:04:03.800976  8599 net.cpp:148] Top shape: 24 64 14 14 (301056)
I0403 19:04:03.800997  8599 net.cpp:156] Memory required for data: 979019040
I0403 19:04:03.801019  8599 layer_factory.hpp:77] Creating layer inception_4b/relu_pool_proj
I0403 19:04:03.801043  8599 net.cpp:91] Creating Layer inception_4b/relu_pool_proj
I0403 19:04:03.801064  8599 net.cpp:425] inception_4b/relu_pool_proj <- inception_4b/pool_proj
I0403 19:04:03.801086  8599 net.cpp:386] inception_4b/relu_pool_proj -> inception_4b/pool_proj (in-place)
I0403 19:04:03.801316  8599 net.cpp:141] Setting up inception_4b/relu_pool_proj
I0403 19:04:03.801347  8599 net.cpp:148] Top shape: 24 64 14 14 (301056)
I0403 19:04:03.801367  8599 net.cpp:156] Memory required for data: 980223264
I0403 19:04:03.801386  8599 layer_factory.hpp:77] Creating layer inception_4b/output
I0403 19:04:03.801408  8599 net.cpp:91] Creating Layer inception_4b/output
I0403 19:04:03.801426  8599 net.cpp:425] inception_4b/output <- inception_4b/1x1
I0403 19:04:03.801448  8599 net.cpp:425] inception_4b/output <- inception_4b/3x3
I0403 19:04:03.801468  8599 net.cpp:425] inception_4b/output <- inception_4b/5x5
I0403 19:04:03.801488  8599 net.cpp:425] inception_4b/output <- inception_4b/pool_proj
I0403 19:04:03.801512  8599 net.cpp:399] inception_4b/output -> inception_4b/output
I0403 19:04:03.801568  8599 net.cpp:141] Setting up inception_4b/output
I0403 19:04:03.801599  8599 net.cpp:148] Top shape: 24 512 14 14 (2408448)
I0403 19:04:03.801620  8599 net.cpp:156] Memory required for data: 989857056
I0403 19:04:03.801654  8599 layer_factory.hpp:77] Creating layer inception_4b/output_inception_4b/output_0_split
I0403 19:04:03.801677  8599 net.cpp:91] Creating Layer inception_4b/output_inception_4b/output_0_split
I0403 19:04:03.801697  8599 net.cpp:425] inception_4b/output_inception_4b/output_0_split <- inception_4b/output
I0403 19:04:03.801719  8599 net.cpp:399] inception_4b/output_inception_4b/output_0_split -> inception_4b/output_inception_4b/output_0_split_0
I0403 19:04:03.801743  8599 net.cpp:399] inception_4b/output_inception_4b/output_0_split -> inception_4b/output_inception_4b/output_0_split_1
I0403 19:04:03.801772  8599 net.cpp:399] inception_4b/output_inception_4b/output_0_split -> inception_4b/output_inception_4b/output_0_split_2
I0403 19:04:03.801800  8599 net.cpp:399] inception_4b/output_inception_4b/output_0_split -> inception_4b/output_inception_4b/output_0_split_3
I0403 19:04:03.801901  8599 net.cpp:141] Setting up inception_4b/output_inception_4b/output_0_split
I0403 19:04:03.801930  8599 net.cpp:148] Top shape: 24 512 14 14 (2408448)
I0403 19:04:03.801950  8599 net.cpp:148] Top shape: 24 512 14 14 (2408448)
I0403 19:04:03.801970  8599 net.cpp:148] Top shape: 24 512 14 14 (2408448)
I0403 19:04:03.801990  8599 net.cpp:148] Top shape: 24 512 14 14 (2408448)
I0403 19:04:03.802007  8599 net.cpp:156] Memory required for data: 1028392224
I0403 19:04:03.802026  8599 layer_factory.hpp:77] Creating layer inception_4c/1x1
I0403 19:04:03.802054  8599 net.cpp:91] Creating Layer inception_4c/1x1
I0403 19:04:03.802076  8599 net.cpp:425] inception_4c/1x1 <- inception_4b/output_inception_4b/output_0_split_0
I0403 19:04:03.802103  8599 net.cpp:399] inception_4c/1x1 -> inception_4c/1x1
I0403 19:04:03.803858  8599 net.cpp:141] Setting up inception_4c/1x1
I0403 19:04:03.803892  8599 net.cpp:148] Top shape: 24 128 14 14 (602112)
I0403 19:04:03.803911  8599 net.cpp:156] Memory required for data: 1030800672
I0403 19:04:03.803933  8599 layer_factory.hpp:77] Creating layer inception_4c/relu_1x1
I0403 19:04:03.803956  8599 net.cpp:91] Creating Layer inception_4c/relu_1x1
I0403 19:04:03.803977  8599 net.cpp:425] inception_4c/relu_1x1 <- inception_4c/1x1
I0403 19:04:03.804002  8599 net.cpp:386] inception_4c/relu_1x1 -> inception_4c/1x1 (in-place)
I0403 19:04:03.804224  8599 net.cpp:141] Setting up inception_4c/relu_1x1
I0403 19:04:03.804255  8599 net.cpp:148] Top shape: 24 128 14 14 (602112)
I0403 19:04:03.804273  8599 net.cpp:156] Memory required for data: 1033209120
I0403 19:04:03.804291  8599 layer_factory.hpp:77] Creating layer inception_4c/3x3_reduce
I0403 19:04:03.804318  8599 net.cpp:91] Creating Layer inception_4c/3x3_reduce
I0403 19:04:03.804342  8599 net.cpp:425] inception_4c/3x3_reduce <- inception_4b/output_inception_4b/output_0_split_1
I0403 19:04:03.804371  8599 net.cpp:399] inception_4c/3x3_reduce -> inception_4c/3x3_reduce
I0403 19:04:03.806699  8599 net.cpp:141] Setting up inception_4c/3x3_reduce
I0403 19:04:03.806735  8599 net.cpp:148] Top shape: 24 128 14 14 (602112)
I0403 19:04:03.806753  8599 net.cpp:156] Memory required for data: 1035617568
I0403 19:04:03.806777  8599 layer_factory.hpp:77] Creating layer inception_4c/relu_3x3_reduce
I0403 19:04:03.806802  8599 net.cpp:91] Creating Layer inception_4c/relu_3x3_reduce
I0403 19:04:03.806823  8599 net.cpp:425] inception_4c/relu_3x3_reduce <- inception_4c/3x3_reduce
I0403 19:04:03.806844  8599 net.cpp:386] inception_4c/relu_3x3_reduce -> inception_4c/3x3_reduce (in-place)
I0403 19:04:03.807198  8599 net.cpp:141] Setting up inception_4c/relu_3x3_reduce
I0403 19:04:03.807231  8599 net.cpp:148] Top shape: 24 128 14 14 (602112)
I0403 19:04:03.807251  8599 net.cpp:156] Memory required for data: 1038026016
I0403 19:04:03.807271  8599 layer_factory.hpp:77] Creating layer inception_4c/3x3
I0403 19:04:03.807299  8599 net.cpp:91] Creating Layer inception_4c/3x3
I0403 19:04:03.807320  8599 net.cpp:425] inception_4c/3x3 <- inception_4c/3x3_reduce
I0403 19:04:03.807348  8599 net.cpp:399] inception_4c/3x3 -> inception_4c/3x3
I0403 19:04:03.811697  8599 net.cpp:141] Setting up inception_4c/3x3
I0403 19:04:03.811746  8599 net.cpp:148] Top shape: 24 256 14 14 (1204224)
I0403 19:04:03.811767  8599 net.cpp:156] Memory required for data: 1042842912
I0403 19:04:03.811806  8599 layer_factory.hpp:77] Creating layer inception_4c/relu_3x3
I0403 19:04:03.811835  8599 net.cpp:91] Creating Layer inception_4c/relu_3x3
I0403 19:04:03.811856  8599 net.cpp:425] inception_4c/relu_3x3 <- inception_4c/3x3
I0403 19:04:03.811877  8599 net.cpp:386] inception_4c/relu_3x3 -> inception_4c/3x3 (in-place)
I0403 19:04:03.812095  8599 net.cpp:141] Setting up inception_4c/relu_3x3
I0403 19:04:03.812129  8599 net.cpp:148] Top shape: 24 256 14 14 (1204224)
I0403 19:04:03.812150  8599 net.cpp:156] Memory required for data: 1047659808
I0403 19:04:03.812168  8599 layer_factory.hpp:77] Creating layer inception_4c/5x5_reduce
I0403 19:04:03.812203  8599 net.cpp:91] Creating Layer inception_4c/5x5_reduce
I0403 19:04:03.812227  8599 net.cpp:425] inception_4c/5x5_reduce <- inception_4b/output_inception_4b/output_0_split_2
I0403 19:04:03.812252  8599 net.cpp:399] inception_4c/5x5_reduce -> inception_4c/5x5_reduce
I0403 19:04:03.813587  8599 net.cpp:141] Setting up inception_4c/5x5_reduce
I0403 19:04:03.813626  8599 net.cpp:148] Top shape: 24 24 14 14 (112896)
I0403 19:04:03.813647  8599 net.cpp:156] Memory required for data: 1048111392
I0403 19:04:03.813670  8599 layer_factory.hpp:77] Creating layer inception_4c/relu_5x5_reduce
I0403 19:04:03.813694  8599 net.cpp:91] Creating Layer inception_4c/relu_5x5_reduce
I0403 19:04:03.813712  8599 net.cpp:425] inception_4c/relu_5x5_reduce <- inception_4c/5x5_reduce
I0403 19:04:03.813899  8599 net.cpp:386] inception_4c/relu_5x5_reduce -> inception_4c/5x5_reduce (in-place)
I0403 19:04:03.814167  8599 net.cpp:141] Setting up inception_4c/relu_5x5_reduce
I0403 19:04:03.814206  8599 net.cpp:148] Top shape: 24 24 14 14 (112896)
I0403 19:04:03.814227  8599 net.cpp:156] Memory required for data: 1048562976
I0403 19:04:03.814247  8599 layer_factory.hpp:77] Creating layer inception_4c/5x5
I0403 19:04:03.814276  8599 net.cpp:91] Creating Layer inception_4c/5x5
I0403 19:04:03.814298  8599 net.cpp:425] inception_4c/5x5 <- inception_4c/5x5_reduce
I0403 19:04:03.814322  8599 net.cpp:399] inception_4c/5x5 -> inception_4c/5x5
I0403 19:04:03.815840  8599 net.cpp:141] Setting up inception_4c/5x5
I0403 19:04:03.815873  8599 net.cpp:148] Top shape: 24 64 14 14 (301056)
I0403 19:04:03.815893  8599 net.cpp:156] Memory required for data: 1049767200
I0403 19:04:03.815917  8599 layer_factory.hpp:77] Creating layer inception_4c/relu_5x5
I0403 19:04:03.815938  8599 net.cpp:91] Creating Layer inception_4c/relu_5x5
I0403 19:04:03.815958  8599 net.cpp:425] inception_4c/relu_5x5 <- inception_4c/5x5
I0403 19:04:03.815984  8599 net.cpp:386] inception_4c/relu_5x5 -> inception_4c/5x5 (in-place)
I0403 19:04:03.816335  8599 net.cpp:141] Setting up inception_4c/relu_5x5
I0403 19:04:03.816367  8599 net.cpp:148] Top shape: 24 64 14 14 (301056)
I0403 19:04:03.816386  8599 net.cpp:156] Memory required for data: 1050971424
I0403 19:04:03.816406  8599 layer_factory.hpp:77] Creating layer inception_4c/pool
I0403 19:04:03.816428  8599 net.cpp:91] Creating Layer inception_4c/pool
I0403 19:04:03.816448  8599 net.cpp:425] inception_4c/pool <- inception_4b/output_inception_4b/output_0_split_3
I0403 19:04:03.816473  8599 net.cpp:399] inception_4c/pool -> inception_4c/pool
I0403 19:04:03.816552  8599 net.cpp:141] Setting up inception_4c/pool
I0403 19:04:03.816581  8599 net.cpp:148] Top shape: 24 512 14 14 (2408448)
I0403 19:04:03.816598  8599 net.cpp:156] Memory required for data: 1060605216
I0403 19:04:03.816617  8599 layer_factory.hpp:77] Creating layer inception_4c/pool_proj
I0403 19:04:03.816644  8599 net.cpp:91] Creating Layer inception_4c/pool_proj
I0403 19:04:03.816665  8599 net.cpp:425] inception_4c/pool_proj <- inception_4c/pool
I0403 19:04:03.816689  8599 net.cpp:399] inception_4c/pool_proj -> inception_4c/pool_proj
I0403 19:04:03.818181  8599 net.cpp:141] Setting up inception_4c/pool_proj
I0403 19:04:03.818215  8599 net.cpp:148] Top shape: 24 64 14 14 (301056)
I0403 19:04:03.818251  8599 net.cpp:156] Memory required for data: 1061809440
I0403 19:04:03.818275  8599 layer_factory.hpp:77] Creating layer inception_4c/relu_pool_proj
I0403 19:04:03.818300  8599 net.cpp:91] Creating Layer inception_4c/relu_pool_proj
I0403 19:04:03.818321  8599 net.cpp:425] inception_4c/relu_pool_proj <- inception_4c/pool_proj
I0403 19:04:03.818342  8599 net.cpp:386] inception_4c/relu_pool_proj -> inception_4c/pool_proj (in-place)
I0403 19:04:03.818567  8599 net.cpp:141] Setting up inception_4c/relu_pool_proj
I0403 19:04:03.818598  8599 net.cpp:148] Top shape: 24 64 14 14 (301056)
I0403 19:04:03.818616  8599 net.cpp:156] Memory required for data: 1063013664
I0403 19:04:03.818634  8599 layer_factory.hpp:77] Creating layer inception_4c/output
I0403 19:04:03.818655  8599 net.cpp:91] Creating Layer inception_4c/output
I0403 19:04:03.818675  8599 net.cpp:425] inception_4c/output <- inception_4c/1x1
I0403 19:04:03.818694  8599 net.cpp:425] inception_4c/output <- inception_4c/3x3
I0403 19:04:03.818713  8599 net.cpp:425] inception_4c/output <- inception_4c/5x5
I0403 19:04:03.818733  8599 net.cpp:425] inception_4c/output <- inception_4c/pool_proj
I0403 19:04:03.818755  8599 net.cpp:399] inception_4c/output -> inception_4c/output
I0403 19:04:03.818814  8599 net.cpp:141] Setting up inception_4c/output
I0403 19:04:03.818840  8599 net.cpp:148] Top shape: 24 512 14 14 (2408448)
I0403 19:04:03.818862  8599 net.cpp:156] Memory required for data: 1072647456
I0403 19:04:03.818881  8599 layer_factory.hpp:77] Creating layer inception_4c/output_inception_4c/output_0_split
I0403 19:04:03.818902  8599 net.cpp:91] Creating Layer inception_4c/output_inception_4c/output_0_split
I0403 19:04:03.818920  8599 net.cpp:425] inception_4c/output_inception_4c/output_0_split <- inception_4c/output
I0403 19:04:03.818941  8599 net.cpp:399] inception_4c/output_inception_4c/output_0_split -> inception_4c/output_inception_4c/output_0_split_0
I0403 19:04:03.818965  8599 net.cpp:399] inception_4c/output_inception_4c/output_0_split -> inception_4c/output_inception_4c/output_0_split_1
I0403 19:04:03.818989  8599 net.cpp:399] inception_4c/output_inception_4c/output_0_split -> inception_4c/output_inception_4c/output_0_split_2
I0403 19:04:03.819016  8599 net.cpp:399] inception_4c/output_inception_4c/output_0_split -> inception_4c/output_inception_4c/output_0_split_3
I0403 19:04:03.819130  8599 net.cpp:141] Setting up inception_4c/output_inception_4c/output_0_split
I0403 19:04:03.819159  8599 net.cpp:148] Top shape: 24 512 14 14 (2408448)
I0403 19:04:03.819183  8599 net.cpp:148] Top shape: 24 512 14 14 (2408448)
I0403 19:04:03.819205  8599 net.cpp:148] Top shape: 24 512 14 14 (2408448)
I0403 19:04:03.819224  8599 net.cpp:148] Top shape: 24 512 14 14 (2408448)
I0403 19:04:03.819242  8599 net.cpp:156] Memory required for data: 1111182624
I0403 19:04:03.819258  8599 layer_factory.hpp:77] Creating layer inception_4d/1x1
I0403 19:04:03.819285  8599 net.cpp:91] Creating Layer inception_4d/1x1
I0403 19:04:03.819308  8599 net.cpp:425] inception_4d/1x1 <- inception_4c/output_inception_4c/output_0_split_0
I0403 19:04:03.819337  8599 net.cpp:399] inception_4d/1x1 -> inception_4d/1x1
I0403 19:04:03.821017  8599 net.cpp:141] Setting up inception_4d/1x1
I0403 19:04:03.821053  8599 net.cpp:148] Top shape: 24 112 14 14 (526848)
I0403 19:04:03.821071  8599 net.cpp:156] Memory required for data: 1113290016
I0403 19:04:03.821094  8599 layer_factory.hpp:77] Creating layer inception_4d/relu_1x1
I0403 19:04:03.821117  8599 net.cpp:91] Creating Layer inception_4d/relu_1x1
I0403 19:04:03.821138  8599 net.cpp:425] inception_4d/relu_1x1 <- inception_4d/1x1
I0403 19:04:03.821161  8599 net.cpp:386] inception_4d/relu_1x1 -> inception_4d/1x1 (in-place)
I0403 19:04:03.821390  8599 net.cpp:141] Setting up inception_4d/relu_1x1
I0403 19:04:03.821420  8599 net.cpp:148] Top shape: 24 112 14 14 (526848)
I0403 19:04:03.821442  8599 net.cpp:156] Memory required for data: 1115397408
I0403 19:04:03.821460  8599 layer_factory.hpp:77] Creating layer inception_4d/3x3_reduce
I0403 19:04:03.821501  8599 net.cpp:91] Creating Layer inception_4d/3x3_reduce
I0403 19:04:03.821522  8599 net.cpp:425] inception_4d/3x3_reduce <- inception_4c/output_inception_4c/output_0_split_1
I0403 19:04:03.821549  8599 net.cpp:399] inception_4d/3x3_reduce -> inception_4d/3x3_reduce
I0403 19:04:03.823417  8599 net.cpp:141] Setting up inception_4d/3x3_reduce
I0403 19:04:03.823451  8599 net.cpp:148] Top shape: 24 144 14 14 (677376)
I0403 19:04:03.823472  8599 net.cpp:156] Memory required for data: 1118106912
I0403 19:04:03.823494  8599 layer_factory.hpp:77] Creating layer inception_4d/relu_3x3_reduce
I0403 19:04:03.823516  8599 net.cpp:91] Creating Layer inception_4d/relu_3x3_reduce
I0403 19:04:03.823535  8599 net.cpp:425] inception_4d/relu_3x3_reduce <- inception_4d/3x3_reduce
I0403 19:04:03.823559  8599 net.cpp:386] inception_4d/relu_3x3_reduce -> inception_4d/3x3_reduce (in-place)
I0403 19:04:03.823911  8599 net.cpp:141] Setting up inception_4d/relu_3x3_reduce
I0403 19:04:03.823943  8599 net.cpp:148] Top shape: 24 144 14 14 (677376)
I0403 19:04:03.823961  8599 net.cpp:156] Memory required for data: 1120816416
I0403 19:04:03.823979  8599 layer_factory.hpp:77] Creating layer inception_4d/3x3
I0403 19:04:03.824008  8599 net.cpp:91] Creating Layer inception_4d/3x3
I0403 19:04:03.824029  8599 net.cpp:425] inception_4d/3x3 <- inception_4d/3x3_reduce
I0403 19:04:03.824059  8599 net.cpp:399] inception_4d/3x3 -> inception_4d/3x3
I0403 19:04:03.829282  8599 net.cpp:141] Setting up inception_4d/3x3
I0403 19:04:03.829316  8599 net.cpp:148] Top shape: 24 288 14 14 (1354752)
I0403 19:04:03.829336  8599 net.cpp:156] Memory required for data: 1126235424
I0403 19:04:03.829358  8599 layer_factory.hpp:77] Creating layer inception_4d/relu_3x3
I0403 19:04:03.829383  8599 net.cpp:91] Creating Layer inception_4d/relu_3x3
I0403 19:04:03.829403  8599 net.cpp:425] inception_4d/relu_3x3 <- inception_4d/3x3
I0403 19:04:03.829424  8599 net.cpp:386] inception_4d/relu_3x3 -> inception_4d/3x3 (in-place)
I0403 19:04:03.829653  8599 net.cpp:141] Setting up inception_4d/relu_3x3
I0403 19:04:03.829684  8599 net.cpp:148] Top shape: 24 288 14 14 (1354752)
I0403 19:04:03.829701  8599 net.cpp:156] Memory required for data: 1131654432
I0403 19:04:03.829720  8599 layer_factory.hpp:77] Creating layer inception_4d/5x5_reduce
I0403 19:04:03.829748  8599 net.cpp:91] Creating Layer inception_4d/5x5_reduce
I0403 19:04:03.829771  8599 net.cpp:425] inception_4d/5x5_reduce <- inception_4c/output_inception_4c/output_0_split_2
I0403 19:04:03.829793  8599 net.cpp:399] inception_4d/5x5_reduce -> inception_4d/5x5_reduce
I0403 19:04:03.831192  8599 net.cpp:141] Setting up inception_4d/5x5_reduce
I0403 19:04:03.831228  8599 net.cpp:148] Top shape: 24 32 14 14 (150528)
I0403 19:04:03.831250  8599 net.cpp:156] Memory required for data: 1132256544
I0403 19:04:03.831274  8599 layer_factory.hpp:77] Creating layer inception_4d/relu_5x5_reduce
I0403 19:04:03.831297  8599 net.cpp:91] Creating Layer inception_4d/relu_5x5_reduce
I0403 19:04:03.831318  8599 net.cpp:425] inception_4d/relu_5x5_reduce <- inception_4d/5x5_reduce
I0403 19:04:03.831341  8599 net.cpp:386] inception_4d/relu_5x5_reduce -> inception_4d/5x5_reduce (in-place)
I0403 19:04:03.831569  8599 net.cpp:141] Setting up inception_4d/relu_5x5_reduce
I0403 19:04:03.831604  8599 net.cpp:148] Top shape: 24 32 14 14 (150528)
I0403 19:04:03.831622  8599 net.cpp:156] Memory required for data: 1132858656
I0403 19:04:03.831640  8599 layer_factory.hpp:77] Creating layer inception_4d/5x5
I0403 19:04:03.831667  8599 net.cpp:91] Creating Layer inception_4d/5x5
I0403 19:04:03.831688  8599 net.cpp:425] inception_4d/5x5 <- inception_4d/5x5_reduce
I0403 19:04:03.831712  8599 net.cpp:399] inception_4d/5x5 -> inception_4d/5x5
I0403 19:04:03.833499  8599 net.cpp:141] Setting up inception_4d/5x5
I0403 19:04:03.833536  8599 net.cpp:148] Top shape: 24 64 14 14 (301056)
I0403 19:04:03.833557  8599 net.cpp:156] Memory required for data: 1134062880
I0403 19:04:03.833581  8599 layer_factory.hpp:77] Creating layer inception_4d/relu_5x5
I0403 19:04:03.833621  8599 net.cpp:91] Creating Layer inception_4d/relu_5x5
I0403 19:04:03.833642  8599 net.cpp:425] inception_4d/relu_5x5 <- inception_4d/5x5
I0403 19:04:03.833663  8599 net.cpp:386] inception_4d/relu_5x5 -> inception_4d/5x5 (in-place)
I0403 19:04:03.834029  8599 net.cpp:141] Setting up inception_4d/relu_5x5
I0403 19:04:03.834064  8599 net.cpp:148] Top shape: 24 64 14 14 (301056)
I0403 19:04:03.834084  8599 net.cpp:156] Memory required for data: 1135267104
I0403 19:04:03.834102  8599 layer_factory.hpp:77] Creating layer inception_4d/pool
I0403 19:04:03.834125  8599 net.cpp:91] Creating Layer inception_4d/pool
I0403 19:04:03.834144  8599 net.cpp:425] inception_4d/pool <- inception_4c/output_inception_4c/output_0_split_3
I0403 19:04:03.834166  8599 net.cpp:399] inception_4d/pool -> inception_4d/pool
I0403 19:04:03.834255  8599 net.cpp:141] Setting up inception_4d/pool
I0403 19:04:03.834285  8599 net.cpp:148] Top shape: 24 512 14 14 (2408448)
I0403 19:04:03.834302  8599 net.cpp:156] Memory required for data: 1144900896
I0403 19:04:03.834321  8599 layer_factory.hpp:77] Creating layer inception_4d/pool_proj
I0403 19:04:03.834347  8599 net.cpp:91] Creating Layer inception_4d/pool_proj
I0403 19:04:03.834368  8599 net.cpp:425] inception_4d/pool_proj <- inception_4d/pool
I0403 19:04:03.834394  8599 net.cpp:399] inception_4d/pool_proj -> inception_4d/pool_proj
I0403 19:04:03.836547  8599 net.cpp:141] Setting up inception_4d/pool_proj
I0403 19:04:03.836585  8599 net.cpp:148] Top shape: 24 64 14 14 (301056)
I0403 19:04:03.836604  8599 net.cpp:156] Memory required for data: 1146105120
I0403 19:04:03.836627  8599 layer_factory.hpp:77] Creating layer inception_4d/relu_pool_proj
I0403 19:04:03.836652  8599 net.cpp:91] Creating Layer inception_4d/relu_pool_proj
I0403 19:04:03.836673  8599 net.cpp:425] inception_4d/relu_pool_proj <- inception_4d/pool_proj
I0403 19:04:03.836694  8599 net.cpp:386] inception_4d/relu_pool_proj -> inception_4d/pool_proj (in-place)
I0403 19:04:03.836920  8599 net.cpp:141] Setting up inception_4d/relu_pool_proj
I0403 19:04:03.836951  8599 net.cpp:148] Top shape: 24 64 14 14 (301056)
I0403 19:04:03.836968  8599 net.cpp:156] Memory required for data: 1147309344
I0403 19:04:03.836987  8599 layer_factory.hpp:77] Creating layer inception_4d/output
I0403 19:04:03.837009  8599 net.cpp:91] Creating Layer inception_4d/output
I0403 19:04:03.837029  8599 net.cpp:425] inception_4d/output <- inception_4d/1x1
I0403 19:04:03.837049  8599 net.cpp:425] inception_4d/output <- inception_4d/3x3
I0403 19:04:03.837069  8599 net.cpp:425] inception_4d/output <- inception_4d/5x5
I0403 19:04:03.837088  8599 net.cpp:425] inception_4d/output <- inception_4d/pool_proj
I0403 19:04:03.837108  8599 net.cpp:399] inception_4d/output -> inception_4d/output
I0403 19:04:03.837168  8599 net.cpp:141] Setting up inception_4d/output
I0403 19:04:03.837203  8599 net.cpp:148] Top shape: 24 528 14 14 (2483712)
I0403 19:04:03.837220  8599 net.cpp:156] Memory required for data: 1157244192
I0403 19:04:03.837239  8599 layer_factory.hpp:77] Creating layer inception_4d/output_inception_4d/output_0_split
I0403 19:04:03.837260  8599 net.cpp:91] Creating Layer inception_4d/output_inception_4d/output_0_split
I0403 19:04:03.837280  8599 net.cpp:425] inception_4d/output_inception_4d/output_0_split <- inception_4d/output
I0403 19:04:03.837304  8599 net.cpp:399] inception_4d/output_inception_4d/output_0_split -> inception_4d/output_inception_4d/output_0_split_0
I0403 19:04:03.837332  8599 net.cpp:399] inception_4d/output_inception_4d/output_0_split -> inception_4d/output_inception_4d/output_0_split_1
I0403 19:04:03.837357  8599 net.cpp:399] inception_4d/output_inception_4d/output_0_split -> inception_4d/output_inception_4d/output_0_split_2
I0403 19:04:03.837388  8599 net.cpp:399] inception_4d/output_inception_4d/output_0_split -> inception_4d/output_inception_4d/output_0_split_3
I0403 19:04:03.837412  8599 net.cpp:399] inception_4d/output_inception_4d/output_0_split -> inception_4d/output_inception_4d/output_0_split_4
I0403 19:04:03.837541  8599 net.cpp:141] Setting up inception_4d/output_inception_4d/output_0_split
I0403 19:04:03.837586  8599 net.cpp:148] Top shape: 24 528 14 14 (2483712)
I0403 19:04:03.837607  8599 net.cpp:148] Top shape: 24 528 14 14 (2483712)
I0403 19:04:03.837627  8599 net.cpp:148] Top shape: 24 528 14 14 (2483712)
I0403 19:04:03.837646  8599 net.cpp:148] Top shape: 24 528 14 14 (2483712)
I0403 19:04:03.837666  8599 net.cpp:148] Top shape: 24 528 14 14 (2483712)
I0403 19:04:03.837682  8599 net.cpp:156] Memory required for data: 1206918432
I0403 19:04:03.837699  8599 layer_factory.hpp:77] Creating layer loss2/ave_pool
I0403 19:04:03.837721  8599 net.cpp:91] Creating Layer loss2/ave_pool
I0403 19:04:03.837740  8599 net.cpp:425] loss2/ave_pool <- inception_4d/output_inception_4d/output_0_split_0
I0403 19:04:03.837766  8599 net.cpp:399] loss2/ave_pool -> loss2/ave_pool
I0403 19:04:03.838148  8599 net.cpp:141] Setting up loss2/ave_pool
I0403 19:04:03.838186  8599 net.cpp:148] Top shape: 24 528 4 4 (202752)
I0403 19:04:03.838206  8599 net.cpp:156] Memory required for data: 1207729440
I0403 19:04:03.838224  8599 layer_factory.hpp:77] Creating layer loss2/conv
I0403 19:04:03.838251  8599 net.cpp:91] Creating Layer loss2/conv
I0403 19:04:03.838274  8599 net.cpp:425] loss2/conv <- loss2/ave_pool
I0403 19:04:03.838299  8599 net.cpp:399] loss2/conv -> loss2/conv
I0403 19:04:03.840597  8599 net.cpp:141] Setting up loss2/conv
I0403 19:04:03.840634  8599 net.cpp:148] Top shape: 24 128 4 4 (49152)
I0403 19:04:03.840654  8599 net.cpp:156] Memory required for data: 1207926048
I0403 19:04:03.840677  8599 layer_factory.hpp:77] Creating layer loss2/relu_conv
I0403 19:04:03.840699  8599 net.cpp:91] Creating Layer loss2/relu_conv
I0403 19:04:03.840718  8599 net.cpp:425] loss2/relu_conv <- loss2/conv
I0403 19:04:03.840742  8599 net.cpp:386] loss2/relu_conv -> loss2/conv (in-place)
I0403 19:04:03.841096  8599 net.cpp:141] Setting up loss2/relu_conv
I0403 19:04:03.841131  8599 net.cpp:148] Top shape: 24 128 4 4 (49152)
I0403 19:04:03.841150  8599 net.cpp:156] Memory required for data: 1208122656
I0403 19:04:03.841168  8599 layer_factory.hpp:77] Creating layer loss2/fc
I0403 19:04:03.841197  8599 net.cpp:91] Creating Layer loss2/fc
I0403 19:04:03.841218  8599 net.cpp:425] loss2/fc <- loss2/conv
I0403 19:04:03.841245  8599 net.cpp:399] loss2/fc -> loss2/fc
I0403 19:04:03.863128  8599 net.cpp:141] Setting up loss2/fc
I0403 19:04:03.863168  8599 net.cpp:148] Top shape: 24 1024 (24576)
I0403 19:04:03.863198  8599 net.cpp:156] Memory required for data: 1208220960
I0403 19:04:03.863224  8599 layer_factory.hpp:77] Creating layer loss2/relu_fc
I0403 19:04:03.863248  8599 net.cpp:91] Creating Layer loss2/relu_fc
I0403 19:04:03.863270  8599 net.cpp:425] loss2/relu_fc <- loss2/fc
I0403 19:04:03.863291  8599 net.cpp:386] loss2/relu_fc -> loss2/fc (in-place)
I0403 19:04:03.863648  8599 net.cpp:141] Setting up loss2/relu_fc
I0403 19:04:03.863679  8599 net.cpp:148] Top shape: 24 1024 (24576)
I0403 19:04:03.863698  8599 net.cpp:156] Memory required for data: 1208319264
I0403 19:04:03.863715  8599 layer_factory.hpp:77] Creating layer loss2/drop_fc
I0403 19:04:03.863740  8599 net.cpp:91] Creating Layer loss2/drop_fc
I0403 19:04:03.863761  8599 net.cpp:425] loss2/drop_fc <- loss2/fc
I0403 19:04:03.863782  8599 net.cpp:386] loss2/drop_fc -> loss2/fc (in-place)
I0403 19:04:03.863844  8599 net.cpp:141] Setting up loss2/drop_fc
I0403 19:04:03.863873  8599 net.cpp:148] Top shape: 24 1024 (24576)
I0403 19:04:03.863890  8599 net.cpp:156] Memory required for data: 1208417568
I0403 19:04:03.863908  8599 layer_factory.hpp:77] Creating layer loss2/classifier_plantvillage
I0403 19:04:03.863930  8599 net.cpp:91] Creating Layer loss2/classifier_plantvillage
I0403 19:04:03.863950  8599 net.cpp:425] loss2/classifier_plantvillage <- loss2/fc
I0403 19:04:03.863976  8599 net.cpp:399] loss2/classifier_plantvillage -> loss2/classifier_plantvillage
I0403 19:04:03.864480  8599 net.cpp:141] Setting up loss2/classifier_plantvillage
I0403 19:04:03.864511  8599 net.cpp:148] Top shape: 24 38 (912)
I0403 19:04:03.864547  8599 net.cpp:156] Memory required for data: 1208421216
I0403 19:04:03.864570  8599 layer_factory.hpp:77] Creating layer loss2/classifier_plantvillage_loss2/classifier_plantvillage_0_split
I0403 19:04:03.864593  8599 net.cpp:91] Creating Layer loss2/classifier_plantvillage_loss2/classifier_plantvillage_0_split
I0403 19:04:03.864612  8599 net.cpp:425] loss2/classifier_plantvillage_loss2/classifier_plantvillage_0_split <- loss2/classifier_plantvillage
I0403 19:04:03.864637  8599 net.cpp:399] loss2/classifier_plantvillage_loss2/classifier_plantvillage_0_split -> loss2/classifier_plantvillage_loss2/classifier_plantvillage_0_split_0
I0403 19:04:03.864663  8599 net.cpp:399] loss2/classifier_plantvillage_loss2/classifier_plantvillage_0_split -> loss2/classifier_plantvillage_loss2/classifier_plantvillage_0_split_1
I0403 19:04:03.864689  8599 net.cpp:399] loss2/classifier_plantvillage_loss2/classifier_plantvillage_0_split -> loss2/classifier_plantvillage_loss2/classifier_plantvillage_0_split_2
I0403 19:04:03.864783  8599 net.cpp:141] Setting up loss2/classifier_plantvillage_loss2/classifier_plantvillage_0_split
I0403 19:04:03.864810  8599 net.cpp:148] Top shape: 24 38 (912)
I0403 19:04:03.864830  8599 net.cpp:148] Top shape: 24 38 (912)
I0403 19:04:03.864850  8599 net.cpp:148] Top shape: 24 38 (912)
I0403 19:04:03.864866  8599 net.cpp:156] Memory required for data: 1208432160
I0403 19:04:03.864883  8599 layer_factory.hpp:77] Creating layer inception_4e/1x1
I0403 19:04:03.864910  8599 net.cpp:91] Creating Layer inception_4e/1x1
I0403 19:04:03.864931  8599 net.cpp:425] inception_4e/1x1 <- inception_4d/output_inception_4d/output_0_split_1
I0403 19:04:03.864954  8599 net.cpp:399] inception_4e/1x1 -> inception_4e/1x1
I0403 19:04:03.867182  8599 net.cpp:141] Setting up inception_4e/1x1
I0403 19:04:03.867218  8599 net.cpp:148] Top shape: 24 256 14 14 (1204224)
I0403 19:04:03.867238  8599 net.cpp:156] Memory required for data: 1213249056
I0403 19:04:03.867260  8599 layer_factory.hpp:77] Creating layer inception_4e/relu_1x1
I0403 19:04:03.867282  8599 net.cpp:91] Creating Layer inception_4e/relu_1x1
I0403 19:04:03.867301  8599 net.cpp:425] inception_4e/relu_1x1 <- inception_4e/1x1
I0403 19:04:03.867326  8599 net.cpp:386] inception_4e/relu_1x1 -> inception_4e/1x1 (in-place)
I0403 19:04:03.867692  8599 net.cpp:141] Setting up inception_4e/relu_1x1
I0403 19:04:03.867727  8599 net.cpp:148] Top shape: 24 256 14 14 (1204224)
I0403 19:04:03.867745  8599 net.cpp:156] Memory required for data: 1218065952
I0403 19:04:03.867764  8599 layer_factory.hpp:77] Creating layer inception_4e/3x3_reduce
I0403 19:04:03.867791  8599 net.cpp:91] Creating Layer inception_4e/3x3_reduce
I0403 19:04:03.867812  8599 net.cpp:425] inception_4e/3x3_reduce <- inception_4d/output_inception_4d/output_0_split_2
I0403 19:04:03.867838  8599 net.cpp:399] inception_4e/3x3_reduce -> inception_4e/3x3_reduce
I0403 19:04:03.870410  8599 net.cpp:141] Setting up inception_4e/3x3_reduce
I0403 19:04:03.870445  8599 net.cpp:148] Top shape: 24 160 14 14 (752640)
I0403 19:04:03.870465  8599 net.cpp:156] Memory required for data: 1221076512
I0403 19:04:03.870491  8599 layer_factory.hpp:77] Creating layer inception_4e/relu_3x3_reduce
I0403 19:04:03.870513  8599 net.cpp:91] Creating Layer inception_4e/relu_3x3_reduce
I0403 19:04:03.870533  8599 net.cpp:425] inception_4e/relu_3x3_reduce <- inception_4e/3x3_reduce
I0403 19:04:03.870554  8599 net.cpp:386] inception_4e/relu_3x3_reduce -> inception_4e/3x3_reduce (in-place)
I0403 19:04:03.870789  8599 net.cpp:141] Setting up inception_4e/relu_3x3_reduce
I0403 19:04:03.870818  8599 net.cpp:148] Top shape: 24 160 14 14 (752640)
I0403 19:04:03.870836  8599 net.cpp:156] Memory required for data: 1224087072
I0403 19:04:03.870854  8599 layer_factory.hpp:77] Creating layer inception_4e/3x3
I0403 19:04:03.870882  8599 net.cpp:91] Creating Layer inception_4e/3x3
I0403 19:04:03.870903  8599 net.cpp:425] inception_4e/3x3 <- inception_4e/3x3_reduce
I0403 19:04:03.870929  8599 net.cpp:399] inception_4e/3x3 -> inception_4e/3x3
I0403 19:04:03.877109  8599 net.cpp:141] Setting up inception_4e/3x3
I0403 19:04:03.877162  8599 net.cpp:148] Top shape: 24 320 14 14 (1505280)
I0403 19:04:03.877188  8599 net.cpp:156] Memory required for data: 1230108192
I0403 19:04:03.877213  8599 layer_factory.hpp:77] Creating layer inception_4e/relu_3x3
I0403 19:04:03.877234  8599 net.cpp:91] Creating Layer inception_4e/relu_3x3
I0403 19:04:03.877255  8599 net.cpp:425] inception_4e/relu_3x3 <- inception_4e/3x3
I0403 19:04:03.877279  8599 net.cpp:386] inception_4e/relu_3x3 -> inception_4e/3x3 (in-place)
I0403 19:04:03.877645  8599 net.cpp:141] Setting up inception_4e/relu_3x3
I0403 19:04:03.877676  8599 net.cpp:148] Top shape: 24 320 14 14 (1505280)
I0403 19:04:03.877696  8599 net.cpp:156] Memory required for data: 1236129312
I0403 19:04:03.877713  8599 layer_factory.hpp:77] Creating layer inception_4e/5x5_reduce
I0403 19:04:03.877743  8599 net.cpp:91] Creating Layer inception_4e/5x5_reduce
I0403 19:04:03.877763  8599 net.cpp:425] inception_4e/5x5_reduce <- inception_4d/output_inception_4d/output_0_split_3
I0403 19:04:03.877794  8599 net.cpp:399] inception_4e/5x5_reduce -> inception_4e/5x5_reduce
I0403 19:04:03.879112  8599 net.cpp:141] Setting up inception_4e/5x5_reduce
I0403 19:04:03.879148  8599 net.cpp:148] Top shape: 24 32 14 14 (150528)
I0403 19:04:03.879168  8599 net.cpp:156] Memory required for data: 1236731424
I0403 19:04:03.879197  8599 layer_factory.hpp:77] Creating layer inception_4e/relu_5x5_reduce
I0403 19:04:03.879220  8599 net.cpp:91] Creating Layer inception_4e/relu_5x5_reduce
I0403 19:04:03.879240  8599 net.cpp:425] inception_4e/relu_5x5_reduce <- inception_4e/5x5_reduce
I0403 19:04:03.879261  8599 net.cpp:386] inception_4e/relu_5x5_reduce -> inception_4e/5x5_reduce (in-place)
I0403 19:04:03.879622  8599 net.cpp:141] Setting up inception_4e/relu_5x5_reduce
I0403 19:04:03.879657  8599 net.cpp:148] Top shape: 24 32 14 14 (150528)
I0403 19:04:03.879676  8599 net.cpp:156] Memory required for data: 1237333536
I0403 19:04:03.879695  8599 layer_factory.hpp:77] Creating layer inception_4e/5x5
I0403 19:04:03.879742  8599 net.cpp:91] Creating Layer inception_4e/5x5
I0403 19:04:03.879766  8599 net.cpp:425] inception_4e/5x5 <- inception_4e/5x5_reduce
I0403 19:04:03.879791  8599 net.cpp:399] inception_4e/5x5 -> inception_4e/5x5
I0403 19:04:03.882014  8599 net.cpp:141] Setting up inception_4e/5x5
I0403 19:04:03.882048  8599 net.cpp:148] Top shape: 24 128 14 14 (602112)
I0403 19:04:03.882067  8599 net.cpp:156] Memory required for data: 1239741984
I0403 19:04:03.882091  8599 layer_factory.hpp:77] Creating layer inception_4e/relu_5x5
I0403 19:04:03.882115  8599 net.cpp:91] Creating Layer inception_4e/relu_5x5
I0403 19:04:03.882138  8599 net.cpp:425] inception_4e/relu_5x5 <- inception_4e/5x5
I0403 19:04:03.882158  8599 net.cpp:386] inception_4e/relu_5x5 -> inception_4e/5x5 (in-place)
I0403 19:04:03.882405  8599 net.cpp:141] Setting up inception_4e/relu_5x5
I0403 19:04:03.882439  8599 net.cpp:148] Top shape: 24 128 14 14 (602112)
I0403 19:04:03.882458  8599 net.cpp:156] Memory required for data: 1242150432
I0403 19:04:03.882477  8599 layer_factory.hpp:77] Creating layer inception_4e/pool
I0403 19:04:03.882498  8599 net.cpp:91] Creating Layer inception_4e/pool
I0403 19:04:03.882516  8599 net.cpp:425] inception_4e/pool <- inception_4d/output_inception_4d/output_0_split_4
I0403 19:04:03.882541  8599 net.cpp:399] inception_4e/pool -> inception_4e/pool
I0403 19:04:03.882624  8599 net.cpp:141] Setting up inception_4e/pool
I0403 19:04:03.882655  8599 net.cpp:148] Top shape: 24 528 14 14 (2483712)
I0403 19:04:03.882673  8599 net.cpp:156] Memory required for data: 1252085280
I0403 19:04:03.882690  8599 layer_factory.hpp:77] Creating layer inception_4e/pool_proj
I0403 19:04:03.882721  8599 net.cpp:91] Creating Layer inception_4e/pool_proj
I0403 19:04:03.882742  8599 net.cpp:425] inception_4e/pool_proj <- inception_4e/pool
I0403 19:04:03.882767  8599 net.cpp:399] inception_4e/pool_proj -> inception_4e/pool_proj
I0403 19:04:03.884627  8599 net.cpp:141] Setting up inception_4e/pool_proj
I0403 19:04:03.884675  8599 net.cpp:148] Top shape: 24 128 14 14 (602112)
I0403 19:04:03.884696  8599 net.cpp:156] Memory required for data: 1254493728
I0403 19:04:03.884718  8599 layer_factory.hpp:77] Creating layer inception_4e/relu_pool_proj
I0403 19:04:03.884743  8599 net.cpp:91] Creating Layer inception_4e/relu_pool_proj
I0403 19:04:03.884764  8599 net.cpp:425] inception_4e/relu_pool_proj <- inception_4e/pool_proj
I0403 19:04:03.884785  8599 net.cpp:386] inception_4e/relu_pool_proj -> inception_4e/pool_proj (in-place)
I0403 19:04:03.885144  8599 net.cpp:141] Setting up inception_4e/relu_pool_proj
I0403 19:04:03.885181  8599 net.cpp:148] Top shape: 24 128 14 14 (602112)
I0403 19:04:03.885202  8599 net.cpp:156] Memory required for data: 1256902176
I0403 19:04:03.885221  8599 layer_factory.hpp:77] Creating layer inception_4e/output
I0403 19:04:03.885246  8599 net.cpp:91] Creating Layer inception_4e/output
I0403 19:04:03.885265  8599 net.cpp:425] inception_4e/output <- inception_4e/1x1
I0403 19:04:03.885285  8599 net.cpp:425] inception_4e/output <- inception_4e/3x3
I0403 19:04:03.885309  8599 net.cpp:425] inception_4e/output <- inception_4e/5x5
I0403 19:04:03.885329  8599 net.cpp:425] inception_4e/output <- inception_4e/pool_proj
I0403 19:04:03.885349  8599 net.cpp:399] inception_4e/output -> inception_4e/output
I0403 19:04:03.885411  8599 net.cpp:141] Setting up inception_4e/output
I0403 19:04:03.885440  8599 net.cpp:148] Top shape: 24 832 14 14 (3913728)
I0403 19:04:03.885458  8599 net.cpp:156] Memory required for data: 1272557088
I0403 19:04:03.885476  8599 layer_factory.hpp:77] Creating layer pool4/3x3_s2
I0403 19:04:03.885498  8599 net.cpp:91] Creating Layer pool4/3x3_s2
I0403 19:04:03.885517  8599 net.cpp:425] pool4/3x3_s2 <- inception_4e/output
I0403 19:04:03.885542  8599 net.cpp:399] pool4/3x3_s2 -> pool4/3x3_s2
I0403 19:04:03.885624  8599 net.cpp:141] Setting up pool4/3x3_s2
I0403 19:04:03.885656  8599 net.cpp:148] Top shape: 24 832 7 7 (978432)
I0403 19:04:03.885675  8599 net.cpp:156] Memory required for data: 1276470816
I0403 19:04:03.885694  8599 layer_factory.hpp:77] Creating layer pool4/3x3_s2_pool4/3x3_s2_0_split
I0403 19:04:03.885713  8599 net.cpp:91] Creating Layer pool4/3x3_s2_pool4/3x3_s2_0_split
I0403 19:04:03.885733  8599 net.cpp:425] pool4/3x3_s2_pool4/3x3_s2_0_split <- pool4/3x3_s2
I0403 19:04:03.885754  8599 net.cpp:399] pool4/3x3_s2_pool4/3x3_s2_0_split -> pool4/3x3_s2_pool4/3x3_s2_0_split_0
I0403 19:04:03.885782  8599 net.cpp:399] pool4/3x3_s2_pool4/3x3_s2_0_split -> pool4/3x3_s2_pool4/3x3_s2_0_split_1
I0403 19:04:03.885808  8599 net.cpp:399] pool4/3x3_s2_pool4/3x3_s2_0_split -> pool4/3x3_s2_pool4/3x3_s2_0_split_2
I0403 19:04:03.885833  8599 net.cpp:399] pool4/3x3_s2_pool4/3x3_s2_0_split -> pool4/3x3_s2_pool4/3x3_s2_0_split_3
I0403 19:04:03.885944  8599 net.cpp:141] Setting up pool4/3x3_s2_pool4/3x3_s2_0_split
I0403 19:04:03.885973  8599 net.cpp:148] Top shape: 24 832 7 7 (978432)
I0403 19:04:03.885993  8599 net.cpp:148] Top shape: 24 832 7 7 (978432)
I0403 19:04:03.886013  8599 net.cpp:148] Top shape: 24 832 7 7 (978432)
I0403 19:04:03.886031  8599 net.cpp:148] Top shape: 24 832 7 7 (978432)
I0403 19:04:03.886049  8599 net.cpp:156] Memory required for data: 1292125728
I0403 19:04:03.886065  8599 layer_factory.hpp:77] Creating layer inception_5a/1x1
I0403 19:04:03.886093  8599 net.cpp:91] Creating Layer inception_5a/1x1
I0403 19:04:03.886114  8599 net.cpp:425] inception_5a/1x1 <- pool4/3x3_s2_pool4/3x3_s2_0_split_0
I0403 19:04:03.886142  8599 net.cpp:399] inception_5a/1x1 -> inception_5a/1x1
I0403 19:04:03.889621  8599 net.cpp:141] Setting up inception_5a/1x1
I0403 19:04:03.889657  8599 net.cpp:148] Top shape: 24 256 7 7 (301056)
I0403 19:04:03.889677  8599 net.cpp:156] Memory required for data: 1293329952
I0403 19:04:03.889699  8599 layer_factory.hpp:77] Creating layer inception_5a/relu_1x1
I0403 19:04:03.889729  8599 net.cpp:91] Creating Layer inception_5a/relu_1x1
I0403 19:04:03.889750  8599 net.cpp:425] inception_5a/relu_1x1 <- inception_5a/1x1
I0403 19:04:03.889771  8599 net.cpp:386] inception_5a/relu_1x1 -> inception_5a/1x1 (in-place)
I0403 19:04:03.890149  8599 net.cpp:141] Setting up inception_5a/relu_1x1
I0403 19:04:03.890187  8599 net.cpp:148] Top shape: 24 256 7 7 (301056)
I0403 19:04:03.890208  8599 net.cpp:156] Memory required for data: 1294534176
I0403 19:04:03.890225  8599 layer_factory.hpp:77] Creating layer inception_5a/3x3_reduce
I0403 19:04:03.890254  8599 net.cpp:91] Creating Layer inception_5a/3x3_reduce
I0403 19:04:03.890276  8599 net.cpp:425] inception_5a/3x3_reduce <- pool4/3x3_s2_pool4/3x3_s2_0_split_1
I0403 19:04:03.890300  8599 net.cpp:399] inception_5a/3x3_reduce -> inception_5a/3x3_reduce
I0403 19:04:03.893293  8599 net.cpp:141] Setting up inception_5a/3x3_reduce
I0403 19:04:03.893331  8599 net.cpp:148] Top shape: 24 160 7 7 (188160)
I0403 19:04:03.893350  8599 net.cpp:156] Memory required for data: 1295286816
I0403 19:04:03.893373  8599 layer_factory.hpp:77] Creating layer inception_5a/relu_3x3_reduce
I0403 19:04:03.893399  8599 net.cpp:91] Creating Layer inception_5a/relu_3x3_reduce
I0403 19:04:03.893419  8599 net.cpp:425] inception_5a/relu_3x3_reduce <- inception_5a/3x3_reduce
I0403 19:04:03.893441  8599 net.cpp:386] inception_5a/relu_3x3_reduce -> inception_5a/3x3_reduce (in-place)
I0403 19:04:03.893677  8599 net.cpp:141] Setting up inception_5a/relu_3x3_reduce
I0403 19:04:03.893708  8599 net.cpp:148] Top shape: 24 160 7 7 (188160)
I0403 19:04:03.893726  8599 net.cpp:156] Memory required for data: 1296039456
I0403 19:04:03.893744  8599 layer_factory.hpp:77] Creating layer inception_5a/3x3
I0403 19:04:03.893775  8599 net.cpp:91] Creating Layer inception_5a/3x3
I0403 19:04:03.893796  8599 net.cpp:425] inception_5a/3x3 <- inception_5a/3x3_reduce
I0403 19:04:03.893820  8599 net.cpp:399] inception_5a/3x3 -> inception_5a/3x3
I0403 19:04:03.900030  8599 net.cpp:141] Setting up inception_5a/3x3
I0403 19:04:03.900070  8599 net.cpp:148] Top shape: 24 320 7 7 (376320)
I0403 19:04:03.900095  8599 net.cpp:156] Memory required for data: 1297544736
I0403 19:04:03.900120  8599 layer_factory.hpp:77] Creating layer inception_5a/relu_3x3
I0403 19:04:03.900142  8599 net.cpp:91] Creating Layer inception_5a/relu_3x3
I0403 19:04:03.900163  8599 net.cpp:425] inception_5a/relu_3x3 <- inception_5a/3x3
I0403 19:04:03.900189  8599 net.cpp:386] inception_5a/relu_3x3 -> inception_5a/3x3 (in-place)
I0403 19:04:03.900558  8599 net.cpp:141] Setting up inception_5a/relu_3x3
I0403 19:04:03.900590  8599 net.cpp:148] Top shape: 24 320 7 7 (376320)
I0403 19:04:03.900611  8599 net.cpp:156] Memory required for data: 1299050016
I0403 19:04:03.900629  8599 layer_factory.hpp:77] Creating layer inception_5a/5x5_reduce
I0403 19:04:03.900655  8599 net.cpp:91] Creating Layer inception_5a/5x5_reduce
I0403 19:04:03.900674  8599 net.cpp:425] inception_5a/5x5_reduce <- pool4/3x3_s2_pool4/3x3_s2_0_split_2
I0403 19:04:03.900701  8599 net.cpp:399] inception_5a/5x5_reduce -> inception_5a/5x5_reduce
I0403 19:04:03.902158  8599 net.cpp:141] Setting up inception_5a/5x5_reduce
I0403 19:04:03.902201  8599 net.cpp:148] Top shape: 24 32 7 7 (37632)
I0403 19:04:03.902222  8599 net.cpp:156] Memory required for data: 1299200544
I0403 19:04:03.902245  8599 layer_factory.hpp:77] Creating layer inception_5a/relu_5x5_reduce
I0403 19:04:03.902267  8599 net.cpp:91] Creating Layer inception_5a/relu_5x5_reduce
I0403 19:04:03.902287  8599 net.cpp:425] inception_5a/relu_5x5_reduce <- inception_5a/5x5_reduce
I0403 19:04:03.902309  8599 net.cpp:386] inception_5a/relu_5x5_reduce -> inception_5a/5x5_reduce (in-place)
I0403 19:04:03.902670  8599 net.cpp:141] Setting up inception_5a/relu_5x5_reduce
I0403 19:04:03.902704  8599 net.cpp:148] Top shape: 24 32 7 7 (37632)
I0403 19:04:03.902724  8599 net.cpp:156] Memory required for data: 1299351072
I0403 19:04:03.902741  8599 layer_factory.hpp:77] Creating layer inception_5a/5x5
I0403 19:04:03.902768  8599 net.cpp:91] Creating Layer inception_5a/5x5
I0403 19:04:03.902789  8599 net.cpp:425] inception_5a/5x5 <- inception_5a/5x5_reduce
I0403 19:04:03.902813  8599 net.cpp:399] inception_5a/5x5 -> inception_5a/5x5
I0403 19:04:03.904932  8599 net.cpp:141] Setting up inception_5a/5x5
I0403 19:04:03.904980  8599 net.cpp:148] Top shape: 24 128 7 7 (150528)
I0403 19:04:03.905000  8599 net.cpp:156] Memory required for data: 1299953184
I0403 19:04:03.905024  8599 layer_factory.hpp:77] Creating layer inception_5a/relu_5x5
I0403 19:04:03.905048  8599 net.cpp:91] Creating Layer inception_5a/relu_5x5
I0403 19:04:03.905068  8599 net.cpp:425] inception_5a/relu_5x5 <- inception_5a/5x5
I0403 19:04:03.905089  8599 net.cpp:386] inception_5a/relu_5x5 -> inception_5a/5x5 (in-place)
I0403 19:04:03.905330  8599 net.cpp:141] Setting up inception_5a/relu_5x5
I0403 19:04:03.905367  8599 net.cpp:148] Top shape: 24 128 7 7 (150528)
I0403 19:04:03.905387  8599 net.cpp:156] Memory required for data: 1300555296
I0403 19:04:03.905405  8599 layer_factory.hpp:77] Creating layer inception_5a/pool
I0403 19:04:03.905426  8599 net.cpp:91] Creating Layer inception_5a/pool
I0403 19:04:03.905447  8599 net.cpp:425] inception_5a/pool <- pool4/3x3_s2_pool4/3x3_s2_0_split_3
I0403 19:04:03.905470  8599 net.cpp:399] inception_5a/pool -> inception_5a/pool
I0403 19:04:03.905555  8599 net.cpp:141] Setting up inception_5a/pool
I0403 19:04:03.905586  8599 net.cpp:148] Top shape: 24 832 7 7 (978432)
I0403 19:04:03.905606  8599 net.cpp:156] Memory required for data: 1304469024
I0403 19:04:03.905623  8599 layer_factory.hpp:77] Creating layer inception_5a/pool_proj
I0403 19:04:03.905647  8599 net.cpp:91] Creating Layer inception_5a/pool_proj
I0403 19:04:03.905668  8599 net.cpp:425] inception_5a/pool_proj <- inception_5a/pool
I0403 19:04:03.905694  8599 net.cpp:399] inception_5a/pool_proj -> inception_5a/pool_proj
I0403 19:04:03.908468  8599 net.cpp:141] Setting up inception_5a/pool_proj
I0403 19:04:03.908505  8599 net.cpp:148] Top shape: 24 128 7 7 (150528)
I0403 19:04:03.908524  8599 net.cpp:156] Memory required for data: 1305071136
I0403 19:04:03.908547  8599 layer_factory.hpp:77] Creating layer inception_5a/relu_pool_proj
I0403 19:04:03.908571  8599 net.cpp:91] Creating Layer inception_5a/relu_pool_proj
I0403 19:04:03.908591  8599 net.cpp:425] inception_5a/relu_pool_proj <- inception_5a/pool_proj
I0403 19:04:03.908613  8599 net.cpp:386] inception_5a/relu_pool_proj -> inception_5a/pool_proj (in-place)
I0403 19:04:03.908968  8599 net.cpp:141] Setting up inception_5a/relu_pool_proj
I0403 19:04:03.909000  8599 net.cpp:148] Top shape: 24 128 7 7 (150528)
I0403 19:04:03.909019  8599 net.cpp:156] Memory required for data: 1305673248
I0403 19:04:03.909037  8599 layer_factory.hpp:77] Creating layer inception_5a/output
I0403 19:04:03.909059  8599 net.cpp:91] Creating Layer inception_5a/output
I0403 19:04:03.909078  8599 net.cpp:425] inception_5a/output <- inception_5a/1x1
I0403 19:04:03.909102  8599 net.cpp:425] inception_5a/output <- inception_5a/3x3
I0403 19:04:03.909123  8599 net.cpp:425] inception_5a/output <- inception_5a/5x5
I0403 19:04:03.909142  8599 net.cpp:425] inception_5a/output <- inception_5a/pool_proj
I0403 19:04:03.909163  8599 net.cpp:399] inception_5a/output -> inception_5a/output
I0403 19:04:03.909231  8599 net.cpp:141] Setting up inception_5a/output
I0403 19:04:03.909260  8599 net.cpp:148] Top shape: 24 832 7 7 (978432)
I0403 19:04:03.909278  8599 net.cpp:156] Memory required for data: 1309586976
I0403 19:04:03.909297  8599 layer_factory.hpp:77] Creating layer inception_5a/output_inception_5a/output_0_split
I0403 19:04:03.909317  8599 net.cpp:91] Creating Layer inception_5a/output_inception_5a/output_0_split
I0403 19:04:03.909337  8599 net.cpp:425] inception_5a/output_inception_5a/output_0_split <- inception_5a/output
I0403 19:04:03.909361  8599 net.cpp:399] inception_5a/output_inception_5a/output_0_split -> inception_5a/output_inception_5a/output_0_split_0
I0403 19:04:03.909387  8599 net.cpp:399] inception_5a/output_inception_5a/output_0_split -> inception_5a/output_inception_5a/output_0_split_1
I0403 19:04:03.909412  8599 net.cpp:399] inception_5a/output_inception_5a/output_0_split -> inception_5a/output_inception_5a/output_0_split_2
I0403 19:04:03.909438  8599 net.cpp:399] inception_5a/output_inception_5a/output_0_split -> inception_5a/output_inception_5a/output_0_split_3
I0403 19:04:03.909576  8599 net.cpp:141] Setting up inception_5a/output_inception_5a/output_0_split
I0403 19:04:03.909612  8599 net.cpp:148] Top shape: 24 832 7 7 (978432)
I0403 19:04:03.909634  8599 net.cpp:148] Top shape: 24 832 7 7 (978432)
I0403 19:04:03.909653  8599 net.cpp:148] Top shape: 24 832 7 7 (978432)
I0403 19:04:03.909673  8599 net.cpp:148] Top shape: 24 832 7 7 (978432)
I0403 19:04:03.909689  8599 net.cpp:156] Memory required for data: 1325241888
I0403 19:04:03.909708  8599 layer_factory.hpp:77] Creating layer inception_5b/1x1
I0403 19:04:03.909734  8599 net.cpp:91] Creating Layer inception_5b/1x1
I0403 19:04:03.909755  8599 net.cpp:425] inception_5b/1x1 <- inception_5a/output_inception_5a/output_0_split_0
I0403 19:04:03.909778  8599 net.cpp:399] inception_5b/1x1 -> inception_5b/1x1
I0403 19:04:03.914366  8599 net.cpp:141] Setting up inception_5b/1x1
I0403 19:04:03.914403  8599 net.cpp:148] Top shape: 24 384 7 7 (451584)
I0403 19:04:03.914422  8599 net.cpp:156] Memory required for data: 1327048224
I0403 19:04:03.914446  8599 layer_factory.hpp:77] Creating layer inception_5b/relu_1x1
I0403 19:04:03.914472  8599 net.cpp:91] Creating Layer inception_5b/relu_1x1
I0403 19:04:03.914494  8599 net.cpp:425] inception_5b/relu_1x1 <- inception_5b/1x1
I0403 19:04:03.914515  8599 net.cpp:386] inception_5b/relu_1x1 -> inception_5b/1x1 (in-place)
I0403 19:04:03.914885  8599 net.cpp:141] Setting up inception_5b/relu_1x1
I0403 19:04:03.914917  8599 net.cpp:148] Top shape: 24 384 7 7 (451584)
I0403 19:04:03.914935  8599 net.cpp:156] Memory required for data: 1328854560
I0403 19:04:03.914954  8599 layer_factory.hpp:77] Creating layer inception_5b/3x3_reduce
I0403 19:04:03.914981  8599 net.cpp:91] Creating Layer inception_5b/3x3_reduce
I0403 19:04:03.915004  8599 net.cpp:425] inception_5b/3x3_reduce <- inception_5a/output_inception_5a/output_0_split_1
I0403 19:04:03.915031  8599 net.cpp:399] inception_5b/3x3_reduce -> inception_5b/3x3_reduce
I0403 19:04:03.918287  8599 net.cpp:141] Setting up inception_5b/3x3_reduce
I0403 19:04:03.918323  8599 net.cpp:148] Top shape: 24 192 7 7 (225792)
I0403 19:04:03.918341  8599 net.cpp:156] Memory required for data: 1329757728
I0403 19:04:03.918365  8599 layer_factory.hpp:77] Creating layer inception_5b/relu_3x3_reduce
I0403 19:04:03.918390  8599 net.cpp:91] Creating Layer inception_5b/relu_3x3_reduce
I0403 19:04:03.918411  8599 net.cpp:425] inception_5b/relu_3x3_reduce <- inception_5b/3x3_reduce
I0403 19:04:03.918431  8599 net.cpp:386] inception_5b/relu_3x3_reduce -> inception_5b/3x3_reduce (in-place)
I0403 19:04:03.918668  8599 net.cpp:141] Setting up inception_5b/relu_3x3_reduce
I0403 19:04:03.918701  8599 net.cpp:148] Top shape: 24 192 7 7 (225792)
I0403 19:04:03.918720  8599 net.cpp:156] Memory required for data: 1330660896
I0403 19:04:03.918740  8599 layer_factory.hpp:77] Creating layer inception_5b/3x3
I0403 19:04:03.918766  8599 net.cpp:91] Creating Layer inception_5b/3x3
I0403 19:04:03.918787  8599 net.cpp:425] inception_5b/3x3 <- inception_5b/3x3_reduce
I0403 19:04:03.918810  8599 net.cpp:399] inception_5b/3x3 -> inception_5b/3x3
I0403 19:04:03.927110  8599 net.cpp:141] Setting up inception_5b/3x3
I0403 19:04:03.927147  8599 net.cpp:148] Top shape: 24 384 7 7 (451584)
I0403 19:04:03.927170  8599 net.cpp:156] Memory required for data: 1332467232
I0403 19:04:03.927197  8599 layer_factory.hpp:77] Creating layer inception_5b/relu_3x3
I0403 19:04:03.927224  8599 net.cpp:91] Creating Layer inception_5b/relu_3x3
I0403 19:04:03.927245  8599 net.cpp:425] inception_5b/relu_3x3 <- inception_5b/3x3
I0403 19:04:03.927268  8599 net.cpp:386] inception_5b/relu_3x3 -> inception_5b/3x3 (in-place)
I0403 19:04:03.927630  8599 net.cpp:141] Setting up inception_5b/relu_3x3
I0403 19:04:03.927662  8599 net.cpp:148] Top shape: 24 384 7 7 (451584)
I0403 19:04:03.927681  8599 net.cpp:156] Memory required for data: 1334273568
I0403 19:04:03.927700  8599 layer_factory.hpp:77] Creating layer inception_5b/5x5_reduce
I0403 19:04:03.927744  8599 net.cpp:91] Creating Layer inception_5b/5x5_reduce
I0403 19:04:03.927767  8599 net.cpp:425] inception_5b/5x5_reduce <- inception_5a/output_inception_5a/output_0_split_2
I0403 19:04:03.927794  8599 net.cpp:399] inception_5b/5x5_reduce -> inception_5b/5x5_reduce
I0403 19:04:03.929368  8599 net.cpp:141] Setting up inception_5b/5x5_reduce
I0403 19:04:03.929401  8599 net.cpp:148] Top shape: 24 48 7 7 (56448)
I0403 19:04:03.929420  8599 net.cpp:156] Memory required for data: 1334499360
I0403 19:04:03.929445  8599 layer_factory.hpp:77] Creating layer inception_5b/relu_5x5_reduce
I0403 19:04:03.929471  8599 net.cpp:91] Creating Layer inception_5b/relu_5x5_reduce
I0403 19:04:03.929491  8599 net.cpp:425] inception_5b/relu_5x5_reduce <- inception_5b/5x5_reduce
I0403 19:04:03.929512  8599 net.cpp:386] inception_5b/relu_5x5_reduce -> inception_5b/5x5_reduce (in-place)
I0403 19:04:03.929971  8599 net.cpp:141] Setting up inception_5b/relu_5x5_reduce
I0403 19:04:03.930003  8599 net.cpp:148] Top shape: 24 48 7 7 (56448)
I0403 19:04:03.930022  8599 net.cpp:156] Memory required for data: 1334725152
I0403 19:04:03.930040  8599 layer_factory.hpp:77] Creating layer inception_5b/5x5
I0403 19:04:03.930065  8599 net.cpp:91] Creating Layer inception_5b/5x5
I0403 19:04:03.930086  8599 net.cpp:425] inception_5b/5x5 <- inception_5b/5x5_reduce
I0403 19:04:03.930110  8599 net.cpp:399] inception_5b/5x5 -> inception_5b/5x5
I0403 19:04:03.932632  8599 net.cpp:141] Setting up inception_5b/5x5
I0403 19:04:03.932667  8599 net.cpp:148] Top shape: 24 128 7 7 (150528)
I0403 19:04:03.932687  8599 net.cpp:156] Memory required for data: 1335327264
I0403 19:04:03.932708  8599 layer_factory.hpp:77] Creating layer inception_5b/relu_5x5
I0403 19:04:03.932734  8599 net.cpp:91] Creating Layer inception_5b/relu_5x5
I0403 19:04:03.932755  8599 net.cpp:425] inception_5b/relu_5x5 <- inception_5b/5x5
I0403 19:04:03.932776  8599 net.cpp:386] inception_5b/relu_5x5 -> inception_5b/5x5 (in-place)
I0403 19:04:03.933017  8599 net.cpp:141] Setting up inception_5b/relu_5x5
I0403 19:04:03.933048  8599 net.cpp:148] Top shape: 24 128 7 7 (150528)
I0403 19:04:03.933066  8599 net.cpp:156] Memory required for data: 1335929376
I0403 19:04:03.933084  8599 layer_factory.hpp:77] Creating layer inception_5b/pool
I0403 19:04:03.933106  8599 net.cpp:91] Creating Layer inception_5b/pool
I0403 19:04:03.933126  8599 net.cpp:425] inception_5b/pool <- inception_5a/output_inception_5a/output_0_split_3
I0403 19:04:03.933153  8599 net.cpp:399] inception_5b/pool -> inception_5b/pool
I0403 19:04:03.933254  8599 net.cpp:141] Setting up inception_5b/pool
I0403 19:04:03.933284  8599 net.cpp:148] Top shape: 24 832 7 7 (978432)
I0403 19:04:03.933302  8599 net.cpp:156] Memory required for data: 1339843104
I0403 19:04:03.933320  8599 layer_factory.hpp:77] Creating layer inception_5b/pool_proj
I0403 19:04:03.933348  8599 net.cpp:91] Creating Layer inception_5b/pool_proj
I0403 19:04:03.933370  8599 net.cpp:425] inception_5b/pool_proj <- inception_5b/pool
I0403 19:04:03.933393  8599 net.cpp:399] inception_5b/pool_proj -> inception_5b/pool_proj
I0403 19:04:03.936172  8599 net.cpp:141] Setting up inception_5b/pool_proj
I0403 19:04:03.936213  8599 net.cpp:148] Top shape: 24 128 7 7 (150528)
I0403 19:04:03.936233  8599 net.cpp:156] Memory required for data: 1340445216
I0403 19:04:03.936255  8599 layer_factory.hpp:77] Creating layer inception_5b/relu_pool_proj
I0403 19:04:03.936281  8599 net.cpp:91] Creating Layer inception_5b/relu_pool_proj
I0403 19:04:03.936301  8599 net.cpp:425] inception_5b/relu_pool_proj <- inception_5b/pool_proj
I0403 19:04:03.936322  8599 net.cpp:386] inception_5b/relu_pool_proj -> inception_5b/pool_proj (in-place)
I0403 19:04:03.936683  8599 net.cpp:141] Setting up inception_5b/relu_pool_proj
I0403 19:04:03.936715  8599 net.cpp:148] Top shape: 24 128 7 7 (150528)
I0403 19:04:03.936734  8599 net.cpp:156] Memory required for data: 1341047328
I0403 19:04:03.936753  8599 layer_factory.hpp:77] Creating layer inception_5b/output
I0403 19:04:03.936777  8599 net.cpp:91] Creating Layer inception_5b/output
I0403 19:04:03.936815  8599 net.cpp:425] inception_5b/output <- inception_5b/1x1
I0403 19:04:03.936836  8599 net.cpp:425] inception_5b/output <- inception_5b/3x3
I0403 19:04:03.936856  8599 net.cpp:425] inception_5b/output <- inception_5b/5x5
I0403 19:04:03.936875  8599 net.cpp:425] inception_5b/output <- inception_5b/pool_proj
I0403 19:04:03.936897  8599 net.cpp:399] inception_5b/output -> inception_5b/output
I0403 19:04:03.936961  8599 net.cpp:141] Setting up inception_5b/output
I0403 19:04:03.936990  8599 net.cpp:148] Top shape: 24 1024 7 7 (1204224)
I0403 19:04:03.937007  8599 net.cpp:156] Memory required for data: 1345864224
I0403 19:04:03.937026  8599 layer_factory.hpp:77] Creating layer pool5/7x7_s1
I0403 19:04:03.937047  8599 net.cpp:91] Creating Layer pool5/7x7_s1
I0403 19:04:03.937065  8599 net.cpp:425] pool5/7x7_s1 <- inception_5b/output
I0403 19:04:03.937089  8599 net.cpp:399] pool5/7x7_s1 -> pool5/7x7_s1
I0403 19:04:03.937366  8599 net.cpp:141] Setting up pool5/7x7_s1
I0403 19:04:03.937399  8599 net.cpp:148] Top shape: 24 1024 1 1 (24576)
I0403 19:04:03.937419  8599 net.cpp:156] Memory required for data: 1345962528
I0403 19:04:03.937438  8599 layer_factory.hpp:77] Creating layer pool5/drop_7x7_s1
I0403 19:04:03.937459  8599 net.cpp:91] Creating Layer pool5/drop_7x7_s1
I0403 19:04:03.937479  8599 net.cpp:425] pool5/drop_7x7_s1 <- pool5/7x7_s1
I0403 19:04:03.937500  8599 net.cpp:386] pool5/drop_7x7_s1 -> pool5/7x7_s1 (in-place)
I0403 19:04:03.937563  8599 net.cpp:141] Setting up pool5/drop_7x7_s1
I0403 19:04:03.937592  8599 net.cpp:148] Top shape: 24 1024 1 1 (24576)
I0403 19:04:03.937609  8599 net.cpp:156] Memory required for data: 1346060832
I0403 19:04:03.937628  8599 layer_factory.hpp:77] Creating layer loss3/classifier_plantvillage
I0403 19:04:03.937654  8599 net.cpp:91] Creating Layer loss3/classifier_plantvillage
I0403 19:04:03.937675  8599 net.cpp:425] loss3/classifier_plantvillage <- pool5/7x7_s1
I0403 19:04:03.937698  8599 net.cpp:399] loss3/classifier_plantvillage -> loss3/classifier_plantvillage
I0403 19:04:03.938228  8599 net.cpp:141] Setting up loss3/classifier_plantvillage
I0403 19:04:03.938258  8599 net.cpp:148] Top shape: 24 38 (912)
I0403 19:04:03.938277  8599 net.cpp:156] Memory required for data: 1346064480
I0403 19:04:03.938298  8599 layer_factory.hpp:77] Creating layer loss3/classifier_plantvillage_loss3/classifier_plantvillage_0_split
I0403 19:04:03.938321  8599 net.cpp:91] Creating Layer loss3/classifier_plantvillage_loss3/classifier_plantvillage_0_split
I0403 19:04:03.938341  8599 net.cpp:425] loss3/classifier_plantvillage_loss3/classifier_plantvillage_0_split <- loss3/classifier_plantvillage
I0403 19:04:03.938367  8599 net.cpp:399] loss3/classifier_plantvillage_loss3/classifier_plantvillage_0_split -> loss3/classifier_plantvillage_loss3/classifier_plantvillage_0_split_0
I0403 19:04:03.938393  8599 net.cpp:399] loss3/classifier_plantvillage_loss3/classifier_plantvillage_0_split -> loss3/classifier_plantvillage_loss3/classifier_plantvillage_0_split_1
I0403 19:04:03.938419  8599 net.cpp:399] loss3/classifier_plantvillage_loss3/classifier_plantvillage_0_split -> loss3/classifier_plantvillage_loss3/classifier_plantvillage_0_split_2
I0403 19:04:03.938446  8599 net.cpp:399] loss3/classifier_plantvillage_loss3/classifier_plantvillage_0_split -> loss3/classifier_plantvillage_loss3/classifier_plantvillage_0_split_3
I0403 19:04:03.938572  8599 net.cpp:141] Setting up loss3/classifier_plantvillage_loss3/classifier_plantvillage_0_split
I0403 19:04:03.938602  8599 net.cpp:148] Top shape: 24 38 (912)
I0403 19:04:03.938623  8599 net.cpp:148] Top shape: 24 38 (912)
I0403 19:04:03.938642  8599 net.cpp:148] Top shape: 24 38 (912)
I0403 19:04:03.938662  8599 net.cpp:148] Top shape: 24 38 (912)
I0403 19:04:03.938679  8599 net.cpp:156] Memory required for data: 1346079072
I0403 19:04:03.938699  8599 layer_factory.hpp:77] Creating layer loss1/loss
I0403 19:04:03.938724  8599 net.cpp:91] Creating Layer loss1/loss
I0403 19:04:03.938745  8599 net.cpp:425] loss1/loss <- loss1/classifier_plantvillage_loss1/classifier_plantvillage_0_split_0
I0403 19:04:03.938783  8599 net.cpp:425] loss1/loss <- label_data_1_split_0
…
