…
I0403 19:18:06.578289  9063 net.cpp:313] The NetState phase (1) differed from the phase (0) specified by a rule in layer data
I0403 19:18:06.579447  9063 net.cpp:49] Initializing net from parameters: 
state {
  phase: TEST
}
layer {
  name: "data"
  type: "Data"
  top: "data"
  top: "label"
  include {
    phase: TEST
  }
  transform_param {
    mirror: false
    crop_size: 224
    mean_file: "/home/mohanty/data/final_dataset/lmdb/grayscale-50-50/mean.binaryproto"
  }
  data_param {
    source: "/home/mohanty/data/final_dataset/lmdb/grayscale-50-50/test_db"
    batch_size: 24
    backend: LMDB
  }
}
layer {
  name: "conv1/7x7_s2"
  type: "Convolution"
  bottom: "data"
  top: "conv1/7x7_s2"
  param {
    lr_mult: 1
    decay_mult: 1
  }
  param {
    lr_mult: 2
    decay_mult: 0
  }
  convolution_param {
    num_output: 64
    pad: 3
    kernel_size: 7
    stride: 2
    weight_filler {
      type: "xavier"
      std: 0.1
    }
    bias_filler {
      type: "constant"
      value: 0.2
    }
  }
}
layer {
  name: "conv1/relu_7x7"
  type: "ReLU"
  bottom: "conv1/7x7_s2"
  top: "conv1/7x7_s2"
}
layer {
  name: "pool1/3x3_s2"
  type: "Pooling"
  bottom: "conv1/7x7_s2"
  top: "pool1/3x3_s2"
  pooling_param {
    pool: MAX
    kernel_size: 3
    stride: 2
  }
}
layer {
  name: "pool1/norm1"
  type: "LRN"
  bottom: "pool1/3x3_s2"
  top: "pool1/norm1"
  lrn_param {
    local_size: 5
    alpha: 0.0001
    beta: 0.75
  }
}
layer {
  name: "conv2/3x3_reduce"
  type: "Convolution"
  bottom: "pool1/norm1"
  top: "conv2/3x3_reduce"
  param {
    lr_mult: 1
    decay_mult: 1
  }
  param {
    lr_mult: 2
    decay_mult: 0
  }
  convolution_param {
    num_output: 64
    kernel_size: 1
    weight_filler {
      type: "xavier"
      std: 0.1
    }
    bias_filler {
      type: "constant"
      value: 0.2
    }
  }
}
layer {
  name: "conv2/relu_3x3_reduce"
  type: "ReLU"
  bottom: "conv2/3x3_reduce"
  top: "conv2/3x3_reduce"
}
layer {
  name: "conv2/3x3"
  type: "Convolution"
  bottom: "conv2/3x3_reduce"
  top: "conv2/3x3"
  param {
    lr_mult: 1
    decay_mult: 1
  }
  param {
    lr_mult: 2
    decay_mult: 0
  }
  convolution_param {
    num_output: 192
    pad: 1
    kernel_size: 3
    weight_filler {
      type: "xavier"
      std: 0.03
    }
    bias_filler {
      type: "constant"
      value: 0.2
    }
  }
}
layer {
  name: "conv2/relu_3x3"
  type: "ReLU"
  bottom: "conv2/3x3"
  top: "conv2/3x3"
}
layer {
  name: "conv2/norm2"
  type: "LRN"
  bottom: "conv2/3x3"
  top: "conv2/norm2"
  lrn_param {
    local_size: 5
    alpha: 0.0001
    beta: 0.75
  }
}
layer {
  name: "pool2/3x3_s2"
  type: "Pooling"
  bottom: "conv2/norm2"
  top: "pool2/3x3_s2"
  pooling_param {
    pool: MAX
    kernel_size: 3
    stride: 2
  }
}
layer {
  name: "inception_3a/1x1"
  type: "Convolution"
  bottom: "pool2/3x3_s2"
  top: "inception_3a/1x1"
  param {
    lr_mult: 1
    decay_mult: 1
  }
  param {
    lr_mult: 2
    decay_mult: 0
  }
  convolution_param {
    num_output: 64
    kernel_size: 1
    weight_filler {
      type: "xavier"
      std: 0.03
    }
    bias_filler {
      type: "constant"
      value: 0.2
    }
  }
}
layer {
  name: "inception_3a/relu_1x1"
  type: "ReLU"
  bottom: "inception_3a/1x1"
  top: "inception_3a/1x1"
}
layer {
  name: "inception_3a/3x3_reduce"
  type: "Convolution"
  bottom: "pool2/3x3_s2"
  top: "inception_3a/3x3_reduce"
  param {
    lr_mult: 1
    decay_mult: 1
  }
  param {
    lr_mult: 2
    decay_mult: 0
  }
  convolution_param {
    num_output: 96
    kernel_size: 1
    weight_filler {
      type: "xavier"
      std: 0.09
    }
    bias_filler {
      type: "constant"
      value: 0.2
    }
  }
}
layer {
  name: "inception_3a/relu_3x3_reduce"
  type: "ReLU"
  bottom: "inception_3a/3x3_reduce"
  top: "inception_3a/3x3_reduce"
}
layer {
  name: "inception_3a/3x3"
  type: "Convolution"
  bottom: "inception_3a/3x3_reduce"
  top: "inception_3a/3x3"
  param {
    lr_mult: 1
    decay_mult: 1
  }
  param {
    lr_mult: 2
    decay_mult: 0
  }
  convolution_param {
    num_output: 128
    pad: 1
    kernel_size: 3
    weight_filler {
      type: "xavier"
      std: 0.03
    }
    bias_filler {
      type: "constant"
      value: 0.2
    }
  }
}
layer {
  name: "inception_3a/relu_3x3"
  type: "ReLU"
  bottom: "inception_3a/3x3"
  top: "inception_3a/3x3"
}
layer {
  name: "inception_3a/5x5_reduce"
  type: "Convolution"
  bottom: "pool2/3x3_s2"
  top: "inception_3a/5x5_reduce"
  param {
    lr_mult: 1
    decay_mult: 1
  }
  param {
    lr_mult: 2
    decay_mult: 0
  }
  convolution_param {
    num_output: 16
    kernel_size: 1
    weight_filler {
      type: "xavier"
      std: 0.2
    }
    bias_filler {
      type: "constant"
      value: 0.2
    }
  }
}
layer {
  name: "inception_3a/relu_5x5_reduce"
  type: "ReLU"
  bottom: "inception_3a/5x5_reduce"
  top: "inception_3a/5x5_reduce"
}
layer {
  name: "inception_3a/5x5"
  type: "Convolution"
  bottom: "inception_3a/5x5_reduce"
  top: "inception_3a/5x5"
  param {
    lr_mult: 1
    decay_mult: 1
  }
  param {
    lr_mult: 2
    decay_mult: 0
  }
  convolution_param {
    num_output: 32
    pad: 2
    kernel_size: 5
    weight_filler {
      type: "xavier"
      std: 0.03
    }
    bias_filler {
      type: "constant"
      value: 0.2
    }
  }
}
layer {
  name: "inception_3a/relu_5x5"
  type: "ReLU"
  bottom: "inception_3a/5x5"
  top: "inception_3a/5x5"
}
layer {
  name: "inception_3a/pool"
  type: "Pooling"
  bottom: "pool2/3x3_s2"
  top: "inception_3a/pool"
  pooling_param {
    pool: MAX
    kernel_size: 3
    stride: 1
    pad: 1
  }
}
layer {
  name: "inception_3a/pool_proj"
  type: "Convolution"
  bottom: "inception_3a/pool"
  top: "inception_3a/pool_proj"
  param {
    lr_mult: 1
    decay_mult: 1
  }
  param {
    lr_mult: 2
    decay_mult: 0
  }
  convolution_param {
    num_output: 32
    kernel_size: 1
    weight_filler {
      type: "xavier"
      std: 0.1
    }
    bias_filler {
      type: "constant"
      value: 0.2
    }
  }
}
layer {
  name: "inception_3a/relu_pool_proj"
  type: "ReLU"
  bottom: "inception_3a/pool_proj"
  top: "inception_3a/pool_proj"
}
layer {
  name: "inception_3a/output"
  type: "Concat"
  bottom: "inception_3a/1x1"
  bottom: "inception_3a/3x3"
  bottom: "inception_3a/5x5"
  bottom: "inception_3a/pool_proj"
  top: "inception_3a/output"
}
layer {
  name: "inception_3b/1x1"
  type: "Convolution"
  bottom: "inception_3a/output"
  top: "inception_3b/1x1"
  param {
    lr_mult: 1
    decay_mult: 1
  }
  param {
    lr_mult: 2
    decay_mult: 0
  }
  convolution_param {
    num_output: 128
    kernel_size: 1
    weight_filler {
      type: "xavier"
      std: 0.03
    }
    bias_filler {
      type: "constant"
      value: 0.2
    }
  }
}
layer {
  name: "inception_3b/relu_1x1"
  type: "ReLU"
  bottom: "inception_3b/1x1"
  top: "inception_3b/1x1"
}
layer {
  name: "inception_3b/3x3_reduce"
  type: "Convolution"
  bottom: "inception_3a/output"
  top: "inception_3b/3x3_reduce"
  param {
    lr_mult: 1
    decay_mult: 1
  }
  param {
    lr_mult: 2
    decay_mult: 0
  }
  convolution_param {
    num_output: 128
    kernel_size: 1
    weight_filler {
      type: "xavier"
      std: 0.09
    }
    bias_filler {
      type: "constant"
      value: 0.2
    }
  }
}
layer {
  name: "inception_3b/relu_3x3_reduce"
  type: "ReLU"
  bottom: "inception_3b/3x3_reduce"
  top: "inception_3b/3x3_reduce"
}
layer {
  name: "inception_3b/3x3"
  type: "Convolution"
  bottom: "inception_3b/3x3_reduce"
  top: "inception_3b/3x3"
  param {
    lr_mult: 1
    decay_mult: 1
  }
  param {
    lr_mult: 2
    decay_mult: 0
  }
  convolution_param {
    num_output: 192
    pad: 1
    kernel_size: 3
    weight_filler {
      type: "xavier"
      std: 0.03
    }
    bias_filler {
      type: "constant"
      value: 0.2
    }
  }
}
layer {
  name: "inception_3b/relu_3x3"
  type: "ReLU"
  bottom: "inception_3b/3x3"
  top: "inception_3b/3x3"
}
layer {
  name: "inception_3b/5x5_reduce"
  type: "Convolution"
  bottom: "inception_3a/output"
  top: "inception_3b/5x5_reduce"
  param {
    lr_mult: 1
    decay_mult: 1
  }
  param {
    lr_mult: 2
    decay_mult: 0
  }
  convolution_param {
    num_output: 32
    kernel_size: 1
    weight_filler {
      type: "xavier"
      std: 0.2
    }
    bias_filler {
      type: "constant"
      value: 0.2
    }
  }
}
layer {
  name: "inception_3b/relu_5x5_reduce"
  type: "ReLU"
  bottom: "inception_3b/5x5_reduce"
  top: "inception_3b/5x5_reduce"
}
layer {
  name: "inception_3b/5x5"
  type: "Convolution"
  bottom: "inception_3b/5x5_reduce"
  top: "inception_3b/5x5"
  param {
    lr_mult: 1
    decay_mult: 1
  }
  param {
    lr_mult: 2
    decay_mult: 0
  }
  convolution_param {
    num_output: 96
    pad: 2
    kernel_size: 5
    weight_filler {
      type: "xavier"
      std: 0.03
    }
    bias_filler {
      type: "constant"
      value: 0.2
    }
  }
}
layer {
  name: "inception_3b/relu_5x5"
  type: "ReLU"
  bottom: "inception_3b/5x5"
  top: "inception_3b/5x5"
}
layer {
  name: "inception_3b/pool"
  type: "Pooling"
  bottom: "inception_3a/output"
  top: "inception_3b/pool"
  pooling_param {
    pool: MAX
    kernel_size: 3
    stride: 1
    pad: 1
  }
}
layer {
  name: "inception_3b/pool_proj"
  type: "Convolution"
  bottom: "inception_3b/pool"
  top: "inception_3b/pool_proj"
  param {
    lr_mult: 1
    decay_mult: 1
  }
  param {
    lr_mult: 2
    decay_mult: 0
  }
  convolution_param {
    num_output: 64
    kernel_size: 1
    weight_filler {
      type: "xavier"
      std: 0.1
    }
    bias_filler {
      type: "constant"
      value: 0.2
    }
  }
}
layer {
  name: "inception_3b/relu_pool_proj"
  type: "ReLU"
  bottom: "inception_3b/pool_proj"
  top: "inception_3b/pool_proj"
}
layer {
  name: "inception_3b/output"
  type: "Concat"
  bottom: "inception_3b/1x1"
  bottom: "inception_3b/3x3"
  bottom: "inception_3b/5x5"
  bottom: "inception_3b/pool_proj"
  top: "inception_3b/output"
}
layer {
  name: "pool3/3x3_s2"
  type: "Pooling"
  bottom: "inception_3b/output"
  top: "pool3/3x3_s2"
  pooling_param {
    pool: MAX
    kernel_size: 3
    stride: 2
  }
}
layer {
  name: "inception_4a/1x1"
  type: "Convolution"
  bottom: "pool3/3x3_s2"
  top: "inception_4a/1x1"
  param {
    lr_mult: 1
    decay_mult: 1
  }
  param {
    lr_mult: 2
    decay_mult: 0
  }
  convolution_param {
    num_output: 192
    kernel_size: 1
    weight_filler {
      type: "xavier"
      std: 0.03
    }
    bias_filler {
      type: "constant"
      value: 0.2
    }
  }
}
layer {
  name: "inception_4a/relu_1x1"
  type: "ReLU"
  bottom: "inception_4a/1x1"
  top: "inception_4a/1x1"
}
layer {
  name: "inception_4a/3x3_reduce"
  type: "Convolution"
  bottom: "pool3/3x3_s2"
  top: "inception_4a/3x3_reduce"
  param {
    lr_mult: 1
    decay_mult: 1
  }
  param {
    lr_mult: 2
    decay_mult: 0
  }
  convolution_param {
    num_output: 96
    kernel_size: 1
    weight_filler {
      type: "xavier"
      std: 0.09
    }
    bias_filler {
      type: "constant"
      value: 0.2
    }
  }
}
layer {
  name: "inception_4a/relu_3x3_reduce"
  type: "ReLU"
  bottom: "inception_4a/3x3_reduce"
  top: "inception_4a/3x3_reduce"
}
layer {
  name: "inception_4a/3x3"
  type: "Convolution"
  bottom: "inception_4a/3x3_reduce"
  top: "inception_4a/3x3"
  param {
    lr_mult: 1
    decay_mult: 1
  }
  param {
    lr_mult: 2
    decay_mult: 0
  }
  convolution_param {
    num_output: 208
    pad: 1
    kernel_size: 3
    weight_filler {
      type: "xavier"
      std: 0.03
    }
    bias_filler {
      type: "constant"
      value: 0.2
    }
  }
}
layer {
  name: "inception_4a/relu_3x3"
  type: "ReLU"
  bottom: "inception_4a/3x3"
  top: "inception_4a/3x3"
}
layer {
  name: "inception_4a/5x5_reduce"
  type: "Convolution"
  bottom: "pool3/3x3_s2"
  top: "inception_4a/5x5_reduce"
  param {
    lr_mult: 1
    decay_mult: 1
  }
  param {
    lr_mult: 2
    decay_mult: 0
  }
  convolution_param {
    num_output: 16
    kernel_size: 1
    weight_filler {
      type: "xavier"
      std: 0.2
    }
    bias_filler {
      type: "constant"
      value: 0.2
    }
  }
}
layer {
  name: "inception_4a/relu_5x5_reduce"
  type: "ReLU"
  bottom: "inception_4a/5x5_reduce"
  top: "inception_4a/5x5_reduce"
}
layer {
  name: "inception_4a/5x5"
  type: "Convolution"
  bottom: "inception_4a/5x5_reduce"
  top: "inception_4a/5x5"
  param {
    lr_mult: 1
    decay_mult: 1
  }
  param {
    lr_mult: 2
    decay_mult: 0
  }
  convolution_param {
    num_output: 48
    pad: 2
    kernel_size: 5
    weight_filler {
      type: "xavier"
      std: 0.03
    }
    bias_filler {
      type: "constant"
      value: 0.2
    }
  }
}
layer {
  name: "inception_4a/relu_5x5"
  type: "ReLU"
  bottom: "inception_4a/5x5"
  top: "inception_4a/5x5"
}
layer {
  name: "inception_4a/pool"
  type: "Pooling"
  bottom: "pool3/3x3_s2"
  top: "inception_4a/pool"
  pooling_param {
    pool: MAX
    kernel_size: 3
    stride: 1
    pad: 1
  }
}
layer {
  name: "inception_4a/pool_proj"
  type: "Convolution"
  bottom: "inception_4a/pool"
  top: "inception_4a/pool_proj"
  param {
    lr_mult: 1
    decay_mult: 1
  }
  param {
    lr_mult: 2
    decay_mult: 0
  }
  convolution_param {
    num_output: 64
    kernel_size: 1
    weight_filler {
      type: "xavier"
      std: 0.1
    }
    bias_filler {
      type: "constant"
      value: 0.2
    }
  }
}
layer {
  name: "inception_4a/relu_pool_proj"
  type: "ReLU"
  bottom: "inception_4a/pool_proj"
  top: "inception_4a/pool_proj"
}
layer {
  name: "inception_4a/output"
  type: "Concat"
  bottom: "inception_4a/1x1"
  bottom: "inception_4a/3x3"
  bottom: "inception_4a/5x5"
  bottom: "inception_4a/pool_proj"
  top: "inception_4a/output"
}
layer {
  name: "loss1/ave_pool"
  type: "Pooling"
  bottom: "inception_4a/output"
  top: "loss1/ave_pool"
  pooling_param {
    pool: AVE
    kernel_size: 5
    stride: 3
  }
}
layer {
  name: "loss1/conv"
  type: "Convolution"
  bottom: "loss1/ave_pool"
  top: "loss1/conv"
  param {
    lr_mult: 1
    decay_mult: 1
  }
  param {
    lr_mult: 2
    decay_mult: 0
  }
  convolution_param {
    num_output: 128
    kernel_size: 1
    weight_filler {
      type: "xavier"
      std: 0.08
    }
    bias_filler {
      type: "constant"
      value: 0.2
    }
  }
}
layer {
  name: "loss1/relu_conv"
  type: "ReLU"
  bottom: "loss1/conv"
  top: "loss1/conv"
}
layer {
  name: "loss1/fc"
  type: "InnerProduct"
  bottom: "loss1/conv"
  top: "loss1/fc"
  param {
    lr_mult: 1
    decay_mult: 1
  }
  param {
    lr_mult: 2
    decay_mult: 0
  }
  inner_product_param {
    num_output: 1024
    weight_filler {
      type: "xavier"
      std: 0.02
    }
    bias_filler {
      type: "constant"
      value: 0.2
    }
  }
}
layer {
  name: "loss1/relu_fc"
  type: "ReLU"
  bottom: "loss1/fc"
  top: "loss1/fc"
}
layer {
  name: "loss1/drop_fc"
  type: "Dropout"
  bottom: "loss1/fc"
  top: "loss1/fc"
  dropout_param {
    dropout_ratio: 0.7
  }
}
layer {
  name: "loss1/classifier_plantvillage"
  type: "InnerProduct"
  bottom: "loss1/fc"
  top: "loss1/classifier_plantvillage"
  param {
    lr_mult: 1
    decay_mult: 1
  }
  param {
    lr_mult: 2
    decay_mult: 0
  }
  inner_product_param {
    num_output: 38
    weight_filler {
      type: "xavier"
      std: 0.0009765625
    }
    bias_filler {
      type: "constant"
      value: 0
    }
  }
}
layer {
  name: "inception_4b/1x1"
  type: "Convolution"
  bottom: "inception_4a/output"
  top: "inception_4b/1x1"
  param {
    lr_mult: 1
    decay_mult: 1
  }
  param {
    lr_mult: 2
    decay_mult: 0
  }
  convolution_param {
    num_output: 160
    kernel_size: 1
    weight_filler {
      type: "xavier"
      std: 0.03
    }
    bias_filler {
      type: "constant"
      value: 0.2
    }
  }
}
layer {
  name: "inception_4b/relu_1x1"
  type: "ReLU"
  bottom: "inception_4b/1x1"
  top: "inception_4b/1x1"
}
layer {
  name: "inception_4b/3x3_reduce"
  type: "Convolution"
  bottom: "inception_4a/output"
  top: "inception_4b/3x3_reduce"
  param {
    lr_mult: 1
    decay_mult: 1
  }
  param {
    lr_mult: 2
    decay_mult: 0
  }
  convolution_param {
    num_output: 112
    kernel_size: 1
    weight_filler {
      type: "xavier"
      std: 0.09
    }
    bias_filler {
      type: "constant"
      value: 0.2
    }
  }
}
layer {
  name: "inception_4b/relu_3x3_reduce"
  type: "ReLU"
  bottom: "inception_4b/3x3_reduce"
  top: "inception_4b/3x3_reduce"
}
layer {
  name: "inception_4b/3x3"
  type: "Convolution"
  bottom: "inception_4b/3x3_reduce"
  top: "inception_4b/3x3"
  param {
    lr_mult: 1
    decay_mult: 1
  }
  param {
    lr_mult: 2
    decay_mult: 0
  }
  convolution_param {
    num_output: 224
    pad: 1
    kernel_size: 3
    weight_filler {
      type: "xavier"
      std: 0.03
    }
    bias_filler {
      type: "constant"
      value: 0.2
    }
  }
}
layer {
  name: "inception_4b/relu_3x3"
  type: "ReLU"
  bottom: "inception_4b/3x3"
  top: "inception_4b/3x3"
}
layer {
  name: "inception_4b/5x5_reduce"
  type: "Convolution"
  bottom: "inception_4a/output"
  top: "inception_4b/5x5_reduce"
  param {
    lr_mult: 1
    decay_mult: 1
  }
  param {
    lr_mult: 2
    decay_mult: 0
  }
  convolution_param {
    num_output: 24
    kernel_size: 1
    weight_filler {
      type: "xavier"
      std: 0.2
    }
    bias_filler {
      type: "constant"
      value: 0.2
    }
  }
}
layer {
  name: "inception_4b/relu_5x5_reduce"
  type: "ReLU"
  bottom: "inception_4b/5x5_reduce"
  top: "inception_4b/5x5_reduce"
}
layer {
  name: "inception_4b/5x5"
  type: "Convolution"
  bottom: "inception_4b/5x5_reduce"
  top: "inception_4b/5x5"
  param {
    lr_mult: 1
    decay_mult: 1
  }
  param {
    lr_mult: 2
    decay_mult: 0
  }
  convolution_param {
    num_output: 64
    pad: 2
    kernel_size: 5
    weight_filler {
      type: "xavier"
      std: 0.03
    }
    bias_filler {
      type: "constant"
      value: 0.2
    }
  }
}
layer {
  name: "inception_4b/relu_5x5"
  type: "ReLU"
  bottom: "inception_4b/5x5"
  top: "inception_4b/5x5"
}
layer {
  name: "inception_4b/pool"
  type: "Pooling"
  bottom: "inception_4a/output"
  top: "inception_4b/pool"
  pooling_param {
    pool: MAX
    kernel_size: 3
    stride: 1
    pad: 1
  }
}
layer {
  name: "inception_4b/pool_proj"
  type: "Convolution"
  bottom: "inception_4b/pool"
  top: "inception_4b/pool_proj"
  param {
    lr_mult: 1
    decay_mult: 1
  }
  param {
    lr_mult: 2
    decay_mult: 0
  }
  convolution_param {
    num_output: 64
    kernel_size: 1
    weight_filler {
      type: "xavier"
      std: 0.1
    }
    bias_filler {
      type: "constant"
      value: 0.2
    }
  }
}
layer {
  name: "inception_4b/relu_pool_proj"
  type: "ReLU"
  bottom: "inception_4b/pool_proj"
  top: "inception_4b/pool_proj"
}
layer {
  name: "inception_4b/output"
  type: "Concat"
  bottom: "inception_4b/1x1"
  bottom: "inception_4b/3x3"
  bottom: "inception_4b/5x5"
  bottom: "inception_4b/pool_proj"
  top: "inception_4b/output"
}
layer {
  name: "inception_4c/1x1"
  type: "Convolution"
  bottom: "inception_4b/output"
  top: "inception_4c/1x1"
  param {
    lr_mult: 1
    decay_mult: 1
  }
  param {
    lr_mult: 2
    decay_mult: 0
  }
  convolution_param {
    num_output: 128
    kernel_size: 1
    weight_filler {
      type: "xavier"
      std: 0.03
    }
    bias_filler {
      type: "constant"
      value: 0.2
    }
  }
}
layer {
  name: "inception_4c/relu_1x1"
  type: "ReLU"
  bottom: "inception_4c/1x1"
  top: "inception_4c/1x1"
}
layer {
  name: "inception_4c/3x3_reduce"
  type: "Convolution"
  bottom: "inception_4b/output"
  top: "inception_4c/3x3_reduce"
  param {
    lr_mult: 1
    decay_mult: 1
  }
  param {
    lr_mult: 2
    decay_mult: 0
  }
  convolution_param {
    num_output: 128
    kernel_size: 1
    weight_filler {
      type: "xavier"
      std: 0.09
    }
    bias_filler {
      type: "constant"
      value: 0.2
    }
  }
}
layer {
  name: "inception_4c/relu_3x3_reduce"
  type: "ReLU"
  bottom: "inception_4c/3x3_reduce"
  top: "inception_4c/3x3_reduce"
}
layer {
  name: "inception_4c/3x3"
  type: "Convolution"
  bottom: "inception_4c/3x3_reduce"
  top: "inception_4c/3x3"
  param {
    lr_mult: 1
    decay_mult: 1
  }
  param {
    lr_mult: 2
    decay_mult: 0
  }
  convolution_param {
    num_output: 256
    pad: 1
    kernel_size: 3
    weight_filler {
      type: "xavier"
      std: 0.03
    }
    bias_filler {
      type: "constant"
      value: 0.2
    }
  }
}
layer {
  name: "inception_4c/relu_3x3"
  type: "ReLU"
  bottom: "inception_4c/3x3"
  top: "inception_4c/3x3"
}
layer {
  name: "inception_4c/5x5_reduce"
  type: "Convolution"
  bottom: "inception_4b/output"
  top: "inception_4c/5x5_reduce"
  param {
    lr_mult: 1
    decay_mult: 1
  }
  param {
    lr_mult: 2
    decay_mult: 0
  }
  convolution_param {
    num_output: 24
    kernel_size: 1
    weight_filler {
      type: "xavier"
      std: 0.2
    }
    bias_filler {
      type: "constant"
      value: 0.2
    }
  }
}
layer {
  name: "inception_4c/relu_5x5_reduce"
  type: "ReLU"
  bottom: "inception_4c/5x5_reduce"
  top: "inception_4c/5x5_reduce"
}
layer {
  name: "inception_4c/5x5"
  type: "Convolution"
  bottom: "inception_4c/5x5_reduce"
  top: "inception_4c/5x5"
  param {
    lr_mult: 1
    decay_mult: 1
  }
  param {
    lr_mult: 2
    decay_mult: 0
  }
  convolution_param {
    num_output: 64
    pad: 2
    kernel_size: 5
    weight_filler {
      type: "xavier"
      std: 0.03
    }
    bias_filler {
      type: "constant"
      value: 0.2
    }
  }
}
layer {
  name: "inception_4c/relu_5x5"
  type: "ReLU"
  bottom: "inception_4c/5x5"
  top: "inception_4c/5x5"
}
layer {
  name: "inception_4c/pool"
  type: "Pooling"
  bottom: "inception_4b/output"
  top: "inception_4c/pool"
  pooling_param {
    pool: MAX
    kernel_size: 3
    stride: 1
    pad: 1
  }
}
layer {
  name: "inception_4c/pool_proj"
  type: "Convolution"
  bottom: "inception_4c/pool"
  top: "inception_4c/pool_proj"
  param {
    lr_mult: 1
    decay_mult: 1
  }
  param {
    lr_mult: 2
    decay_mult: 0
  }
  convolution_param {
    num_output: 64
    kernel_size: 1
    weight_filler {
      type: "xavier"
      std: 0.1
    }
    bias_filler {
      type: "constant"
      value: 0.2
    }
  }
}
layer {
  name: "inception_4c/relu_pool_proj"
  type: "ReLU"
  bottom: "inception_4c/pool_proj"
  top: "inception_4c/pool_proj"
}
layer {
  name: "inception_4c/output"
  type: "Concat"
  bottom: "inception_4c/1x1"
  bottom: "inception_4c/3x3"
  bottom: "inception_4c/5x5"
  bottom: "inception_4c/pool_proj"
  top: "inception_4c/output"
}
layer {
  name: "inception_4d/1x1"
  type: "Convolution"
  bottom: "inception_4c/output"
  top: "inception_4d/1x1"
  param {
    lr_mult: 1
    decay_mult: 1
  }
  param {
    lr_mult: 2
    decay_mult: 0
  }
  convolution_param {
    num_output: 112
    kernel_size: 1
    weight_filler {
      type: "xavier"
      std: 0.03
    }
    bias_filler {
      type: "constant"
      value: 0.2
    }
  }
}
layer {
  name: "inception_4d/relu_1x1"
  type: "ReLU"
  bottom: "inception_4d/1x1"
  top: "inception_4d/1x1"
}
layer {
  name: "inception_4d/3x3_reduce"
  type: "Convolution"
  bottom: "inception_4c/output"
  top: "inception_4d/3x3_reduce"
  param {
    lr_mult: 1
    decay_mult: 1
  }
  param {
    lr_mult: 2
    decay_mult: 0
  }
  convolution_param {
    num_output: 144
    kernel_size: 1
    weight_filler {
      type: "xavier"
      std: 0.09
    }
    bias_filler {
      type: "constant"
      value: 0.2
    }
  }
}
layer {
  name: "inception_4d/relu_3x3_reduce"
  type: "ReLU"
  bottom: "inception_4d/3x3_reduce"
  top: "inception_4d/3x3_reduce"
}
layer {
  name: "inception_4d/3x3"
  type: "Convolution"
  bottom: "inception_4d/3x3_reduce"
  top: "inception_4d/3x3"
  param {
    lr_mult: 1
    decay_mult: 1
  }
  param {
    lr_mult: 2
    decay_mult: 0
  }
  convolution_param {
    num_output: 288
    pad: 1
    kernel_size: 3
    weight_filler {
      type: "xavier"
      std: 0.03
    }
    bias_filler {
      type: "constant"
      value: 0.2
    }
  }
}
layer {
  name: "inception_4d/relu_3x3"
  type: "ReLU"
  bottom: "inception_4d/3x3"
  top: "inception_4d/3x3"
}
layer {
  name: "inception_4d/5x5_reduce"
  type: "Convolution"
  bottom: "inception_4c/output"
  top: "inception_4d/5x5_reduce"
  param {
    lr_mult: 1
    decay_mult: 1
  }
  param {
    lr_mult: 2
    decay_mult: 0
  }
  convolution_param {
    num_output: 32
    kernel_size: 1
    weight_filler {
      type: "xavier"
      std: 0.2
    }
    bias_filler {
      type: "constant"
      value: 0.2
    }
  }
}
layer {
  name: "inception_4d/relu_5x5_reduce"
  type: "ReLU"
  bottom: "inception_4d/5x5_reduce"
  top: "inception_4d/5x5_reduce"
}
layer {
  name: "inception_4d/5x5"
  type: "Convolution"
  bottom: "inception_4d/5x5_reduce"
  top: "inception_4d/5x5"
  param {
    lr_mult: 1
    decay_mult: 1
  }
  param {
    lr_mult: 2
    decay_mult: 0
  }
  convolution_param {
    num_output: 64
    pad: 2
    kernel_size: 5
    weight_filler {
      type: "xavier"
      std: 0.03
    }
    bias_filler {
      type: "constant"
      value: 0.2
    }
  }
}
layer {
  name: "inception_4d/relu_5x5"
  type: "ReLU"
  bottom: "inception_4d/5x5"
  top: "inception_4d/5x5"
}
layer {
  name: "inception_4d/pool"
  type: "Pooling"
  bottom: "inception_4c/output"
  top: "inception_4d/pool"
  pooling_param {
    pool: MAX
    kernel_size: 3
    stride: 1
    pad: 1
  }
}
layer {
  name: "inception_4d/pool_proj"
  type: "Convolution"
  bottom: "inception_4d/pool"
  top: "inception_4d/pool_proj"
  param {
    lr_mult: 1
    decay_mult: 1
  }
  param {
    lr_mult: 2
    decay_mult: 0
  }
  convolution_param {
    num_output: 64
    kernel_size: 1
    weight_filler {
      type: "xavier"
      std: 0.1
    }
    bias_filler {
      type: "constant"
      value: 0.2
    }
  }
}
layer {
  name: "inception_4d/relu_pool_proj"
  type: "ReLU"
  bottom: "inception_4d/pool_proj"
  top: "inception_4d/pool_proj"
}
layer {
  name: "inception_4d/output"
  type: "Concat"
  bottom: "inception_4d/1x1"
  bottom: "inception_4d/3x3"
  bottom: "inception_4d/5x5"
  bottom: "inception_4d/pool_proj"
  top: "inception_4d/output"
}
layer {
  name: "loss2/ave_pool"
  type: "Pooling"
  bottom: "inception_4d/output"
  top: "loss2/ave_pool"
  pooling_param {
    pool: AVE
    kernel_size: 5
    stride: 3
  }
}
layer {
  name: "loss2/conv"
  type: "Convolution"
  bottom: "loss2/ave_pool"
  top: "loss2/conv"
  param {
    lr_mult: 1
    decay_mult: 1
  }
  param {
    lr_mult: 2
    decay_mult: 0
  }
  convolution_param {
    num_output: 128
    kernel_size: 1
    weight_filler {
      type: "xavier"
      std: 0.08
    }
    bias_filler {
      type: "constant"
      value: 0.2
    }
  }
}
layer {
  name: "loss2/relu_conv"
  type: "ReLU"
  bottom: "loss2/conv"
  top: "loss2/conv"
}
layer {
  name: "loss2/fc"
  type: "InnerProduct"
  bottom: "loss2/conv"
  top: "loss2/fc"
  param {
    lr_mult: 1
    decay_mult: 1
  }
  param {
    lr_mult: 2
    decay_mult: 0
  }
  inner_product_param {
    num_output: 1024
    weight_filler {
      type: "xavier"
      std: 0.02
    }
    bias_filler {
      type: "constant"
      value: 0.2
    }
  }
}
layer {
  name: "loss2/relu_fc"
  type: "ReLU"
  bottom: "loss2/fc"
  top: "loss2/fc"
}
layer {
  name: "loss2/drop_fc"
  type: "Dropout"
  bottom: "loss2/fc"
  top: "loss2/fc"
  dropout_param {
    dropout_ratio: 0.7
  }
}
layer {
  name: "loss2/classifier_plantvillage"
  type: "InnerProduct"
  bottom: "loss2/fc"
  top: "loss2/classifier_plantvillage"
  param {
    lr_mult: 1
    decay_mult: 1
  }
  param {
    lr_mult: 2
    decay_mult: 0
  }
  inner_product_param {
    num_output: 38
    weight_filler {
      type: "xavier"
      std: 0.0009765625
    }
    bias_filler {
      type: "constant"
      value: 0
    }
  }
}
layer {
  name: "inception_4e/1x1"
  type: "Convolution"
  bottom: "inception_4d/output"
  top: "inception_4e/1x1"
  param {
    lr_mult: 1
    decay_mult: 1
  }
  param {
    lr_mult: 2
    decay_mult: 0
  }
  convolution_param {
    num_output: 256
    kernel_size: 1
    weight_filler {
      type: "xavier"
      std: 0.03
    }
    bias_filler {
      type: "constant"
      value: 0.2
    }
  }
}
layer {
  name: "inception_4e/relu_1x1"
  type: "ReLU"
  bottom: "inception_4e/1x1"
  top: "inception_4e/1x1"
}
layer {
  name: "inception_4e/3x3_reduce"
  type: "Convolution"
  bottom: "inception_4d/output"
  top: "inception_4e/3x3_reduce"
  param {
    lr_mult: 1
    decay_mult: 1
  }
  param {
    lr_mult: 2
    decay_mult: 0
  }
  convolution_param {
    num_output: 160
    kernel_size: 1
    weight_filler {
      type: "xavier"
      std: 0.09
    }
    bias_filler {
      type: "constant"
      value: 0.2
    }
  }
}
layer {
  name: "inception_4e/relu_3x3_reduce"
  type: "ReLU"
  bottom: "inception_4e/3x3_reduce"
  top: "inception_4e/3x3_reduce"
}
layer {
  name: "inception_4e/3x3"
  type: "Convolution"
  bottom: "inception_4e/3x3_reduce"
  top: "inception_4e/3x3"
  param {
    lr_mult: 1
    decay_mult: 1
  }
  param {
    lr_mult: 2
    decay_mult: 0
  }
  convolution_param {
    num_output: 320
    pad: 1
    kernel_size: 3
    weight_filler {
      type: "xavier"
      std: 0.03
    }
    bias_filler {
      type: "constant"
      value: 0.2
    }
  }
}
layer {
  name: "inception_4e/relu_3x3"
  type: "ReLU"
  bottom: "inception_4e/3x3"
  top: "inception_4e/3x3"
}
layer {
  name: "inception_4e/5x5_reduce"
  type: "Convolution"
  bottom: "inception_4d/output"
  top: "inception_4e/5x5_reduce"
  param {
    lr_mult: 1
    decay_mult: 1
  }
  param {
    lr_mult: 2
    decay_mult: 0
  }
  convolution_param {
    num_output: 32
    kernel_size: 1
    weight_filler {
      type: "xavier"
      std: 0.2
    }
    bias_filler {
      type: "constant"
      value: 0.2
    }
  }
}
layer {
  name: "inception_4e/relu_5x5_reduce"
  type: "ReLU"
  bottom: "inception_4e/5x5_reduce"
  top: "inception_4e/5x5_reduce"
}
layer {
  name: "inception_4e/5x5"
  type: "Convolution"
  bottom: "inception_4e/5x5_reduce"
  top: "inception_4e/
I0403 19:18:06.580919  9063 layer_factory.hpp:77] Creating layer data
I0403 19:18:06.581539  9063 net.cpp:91] Creating Layer data
I0403 19:18:06.581571  9063 net.cpp:399] data -> data
I0403 19:18:06.581620  9063 net.cpp:399] data -> label
I0403 19:18:06.581656  9063 data_transformer.cpp:25] Loading mean file from: /home/mohanty/data/final_dataset/lmdb/grayscale-50-50/mean.binaryproto
I0403 19:18:06.582744  9065 db_lmdb.cpp:38] Opened lmdb /home/mohanty/data/final_dataset/lmdb/grayscale-50-50/test_db
I0403 19:18:06.594714  9063 data_layer.cpp:41] output data size: 24,3,224,224
I0403 19:18:06.621610  9063 net.cpp:141] Setting up data
I0403 19:18:06.621673  9063 net.cpp:148] Top shape: 24 3 224 224 (3612672)
I0403 19:18:06.621695  9063 net.cpp:148] Top shape: 24 (24)
I0403 19:18:06.621711  9063 net.cpp:156] Memory required for data: 14450784
I0403 19:18:06.621740  9063 layer_factory.hpp:77] Creating layer label_data_1_split
I0403 19:18:06.621767  9063 net.cpp:91] Creating Layer label_data_1_split
I0403 19:18:06.621785  9063 net.cpp:425] label_data_1_split <- label
I0403 19:18:06.621819  9063 net.cpp:399] label_data_1_split -> label_data_1_split_0
I0403 19:18:06.621845  9063 net.cpp:399] label_data_1_split -> label_data_1_split_1
I0403 19:18:06.621866  9063 net.cpp:399] label_data_1_split -> label_data_1_split_2
I0403 19:18:06.621887  9063 net.cpp:399] label_data_1_split -> label_data_1_split_3
I0403 19:18:06.621907  9063 net.cpp:399] label_data_1_split -> label_data_1_split_4
I0403 19:18:06.621927  9063 net.cpp:399] label_data_1_split -> label_data_1_split_5
I0403 19:18:06.621947  9063 net.cpp:399] label_data_1_split -> label_data_1_split_6
I0403 19:18:06.621966  9063 net.cpp:399] label_data_1_split -> label_data_1_split_7
I0403 19:18:06.621986  9063 net.cpp:399] label_data_1_split -> label_data_1_split_8
I0403 19:18:06.622006  9063 net.cpp:399] label_data_1_split -> label_data_1_split_9
I0403 19:18:06.622126  9063 net.cpp:141] Setting up label_data_1_split
I0403 19:18:06.622150  9063 net.cpp:148] Top shape: 24 (24)
I0403 19:18:06.622169  9063 net.cpp:148] Top shape: 24 (24)
I0403 19:18:06.622185  9063 net.cpp:148] Top shape: 24 (24)
I0403 19:18:06.622201  9063 net.cpp:148] Top shape: 24 (24)
I0403 19:18:06.622246  9063 net.cpp:148] Top shape: 24 (24)
I0403 19:18:06.622265  9063 net.cpp:148] Top shape: 24 (24)
I0403 19:18:06.622282  9063 net.cpp:148] Top shape: 24 (24)
I0403 19:18:06.622299  9063 net.cpp:148] Top shape: 24 (24)
I0403 19:18:06.622315  9063 net.cpp:148] Top shape: 24 (24)
I0403 19:18:06.622333  9063 net.cpp:148] Top shape: 24 (24)
I0403 19:18:06.622370  9063 net.cpp:156] Memory required for data: 14451744
I0403 19:18:06.622387  9063 layer_factory.hpp:77] Creating layer conv1/7x7_s2
I0403 19:18:06.622421  9063 net.cpp:91] Creating Layer conv1/7x7_s2
I0403 19:18:06.622439  9063 net.cpp:425] conv1/7x7_s2 <- data
I0403 19:18:06.622459  9063 net.cpp:399] conv1/7x7_s2 -> conv1/7x7_s2
I0403 19:18:06.765195  9063 net.cpp:141] Setting up conv1/7x7_s2
I0403 19:18:06.765272  9063 net.cpp:148] Top shape: 24 64 112 112 (19267584)
I0403 19:18:06.765290  9063 net.cpp:156] Memory required for data: 91522080
I0403 19:18:06.765321  9063 layer_factory.hpp:77] Creating layer conv1/relu_7x7
I0403 19:18:06.765348  9063 net.cpp:91] Creating Layer conv1/relu_7x7
I0403 19:18:06.765367  9063 net.cpp:425] conv1/relu_7x7 <- conv1/7x7_s2
I0403 19:18:06.765388  9063 net.cpp:386] conv1/relu_7x7 -> conv1/7x7_s2 (in-place)
I0403 19:18:06.765668  9063 net.cpp:141] Setting up conv1/relu_7x7
I0403 19:18:06.765696  9063 net.cpp:148] Top shape: 24 64 112 112 (19267584)
I0403 19:18:06.765710  9063 net.cpp:156] Memory required for data: 168592416
I0403 19:18:06.765725  9063 layer_factory.hpp:77] Creating layer pool1/3x3_s2
I0403 19:18:06.765750  9063 net.cpp:91] Creating Layer pool1/3x3_s2
I0403 19:18:06.765768  9063 net.cpp:425] pool1/3x3_s2 <- conv1/7x7_s2
I0403 19:18:06.765789  9063 net.cpp:399] pool1/3x3_s2 -> pool1/3x3_s2
I0403 19:18:06.765894  9063 net.cpp:141] Setting up pool1/3x3_s2
I0403 19:18:06.765919  9063 net.cpp:148] Top shape: 24 64 56 56 (4816896)
I0403 19:18:06.765957  9063 net.cpp:156] Memory required for data: 187860000
I0403 19:18:06.765974  9063 layer_factory.hpp:77] Creating layer pool1/norm1
I0403 19:18:06.766021  9063 net.cpp:91] Creating Layer pool1/norm1
I0403 19:18:06.766039  9063 net.cpp:425] pool1/norm1 <- pool1/3x3_s2
I0403 19:18:06.766074  9063 net.cpp:399] pool1/norm1 -> pool1/norm1
I0403 19:18:06.766410  9063 net.cpp:141] Setting up pool1/norm1
I0403 19:18:06.766438  9063 net.cpp:148] Top shape: 24 64 56 56 (4816896)
I0403 19:18:06.766453  9063 net.cpp:156] Memory required for data: 207127584
I0403 19:18:06.766470  9063 layer_factory.hpp:77] Creating layer conv2/3x3_reduce
I0403 19:18:06.766496  9063 net.cpp:91] Creating Layer conv2/3x3_reduce
I0403 19:18:06.766515  9063 net.cpp:425] conv2/3x3_reduce <- pool1/norm1
I0403 19:18:06.766535  9063 net.cpp:399] conv2/3x3_reduce -> conv2/3x3_reduce
I0403 19:18:06.768077  9063 net.cpp:141] Setting up conv2/3x3_reduce
I0403 19:18:06.768110  9063 net.cpp:148] Top shape: 24 64 56 56 (4816896)
I0403 19:18:06.768128  9063 net.cpp:156] Memory required for data: 226395168
I0403 19:18:06.768151  9063 layer_factory.hpp:77] Creating layer conv2/relu_3x3_reduce
I0403 19:18:06.768169  9063 net.cpp:91] Creating Layer conv2/relu_3x3_reduce
I0403 19:18:06.768185  9063 net.cpp:425] conv2/relu_3x3_reduce <- conv2/3x3_reduce
I0403 19:18:06.768203  9063 net.cpp:386] conv2/relu_3x3_reduce -> conv2/3x3_reduce (in-place)
I0403 19:18:06.768486  9063 net.cpp:141] Setting up conv2/relu_3x3_reduce
I0403 19:18:06.768515  9063 net.cpp:148] Top shape: 24 64 56 56 (4816896)
I0403 19:18:06.768532  9063 net.cpp:156] Memory required for data: 245662752
I0403 19:18:06.768548  9063 layer_factory.hpp:77] Creating layer conv2/3x3
I0403 19:18:06.768573  9063 net.cpp:91] Creating Layer conv2/3x3
I0403 19:18:06.768590  9063 net.cpp:425] conv2/3x3 <- conv2/3x3_reduce
I0403 19:18:06.768613  9063 net.cpp:399] conv2/3x3 -> conv2/3x3
I0403 19:18:06.770903  9063 net.cpp:141] Setting up conv2/3x3
I0403 19:18:06.770936  9063 net.cpp:148] Top shape: 24 192 56 56 (14450688)
I0403 19:18:06.770953  9063 net.cpp:156] Memory required for data: 303465504
I0403 19:18:06.770974  9063 layer_factory.hpp:77] Creating layer conv2/relu_3x3
I0403 19:18:06.770992  9063 net.cpp:91] Creating Layer conv2/relu_3x3
I0403 19:18:06.771008  9063 net.cpp:425] conv2/relu_3x3 <- conv2/3x3
I0403 19:18:06.771028  9063 net.cpp:386] conv2/relu_3x3 -> conv2/3x3 (in-place)
I0403 19:18:06.771203  9063 net.cpp:141] Setting up conv2/relu_3x3
I0403 19:18:06.771232  9063 net.cpp:148] Top shape: 24 192 56 56 (14450688)
I0403 19:18:06.771278  9063 net.cpp:156] Memory required for data: 361268256
I0403 19:18:06.771293  9063 layer_factory.hpp:77] Creating layer conv2/norm2
I0403 19:18:06.771314  9063 net.cpp:91] Creating Layer conv2/norm2
I0403 19:18:06.771330  9063 net.cpp:425] conv2/norm2 <- conv2/3x3
I0403 19:18:06.771348  9063 net.cpp:399] conv2/norm2 -> conv2/norm2
I0403 19:18:06.771647  9063 net.cpp:141] Setting up conv2/norm2
I0403 19:18:06.771677  9063 net.cpp:148] Top shape: 24 192 56 56 (14450688)
I0403 19:18:06.771692  9063 net.cpp:156] Memory required for data: 419071008
I0403 19:18:06.771706  9063 layer_factory.hpp:77] Creating layer pool2/3x3_s2
I0403 19:18:06.771724  9063 net.cpp:91] Creating Layer pool2/3x3_s2
I0403 19:18:06.771739  9063 net.cpp:425] pool2/3x3_s2 <- conv2/norm2
I0403 19:18:06.771757  9063 net.cpp:399] pool2/3x3_s2 -> pool2/3x3_s2
I0403 19:18:06.771811  9063 net.cpp:141] Setting up pool2/3x3_s2
I0403 19:18:06.771834  9063 net.cpp:148] Top shape: 24 192 28 28 (3612672)
I0403 19:18:06.771849  9063 net.cpp:156] Memory required for data: 433521696
I0403 19:18:06.771863  9063 layer_factory.hpp:77] Creating layer pool2/3x3_s2_pool2/3x3_s2_0_split
I0403 19:18:06.771881  9063 net.cpp:91] Creating Layer pool2/3x3_s2_pool2/3x3_s2_0_split
I0403 19:18:06.771896  9063 net.cpp:425] pool2/3x3_s2_pool2/3x3_s2_0_split <- pool2/3x3_s2
I0403 19:18:06.771915  9063 net.cpp:399] pool2/3x3_s2_pool2/3x3_s2_0_split -> pool2/3x3_s2_pool2/3x3_s2_0_split_0
I0403 19:18:06.771935  9063 net.cpp:399] pool2/3x3_s2_pool2/3x3_s2_0_split -> pool2/3x3_s2_pool2/3x3_s2_0_split_1
I0403 19:18:06.771955  9063 net.cpp:399] pool2/3x3_s2_pool2/3x3_s2_0_split -> pool2/3x3_s2_pool2/3x3_s2_0_split_2
I0403 19:18:06.771975  9063 net.cpp:399] pool2/3x3_s2_pool2/3x3_s2_0_split -> pool2/3x3_s2_pool2/3x3_s2_0_split_3
I0403 19:18:06.772048  9063 net.cpp:141] Setting up pool2/3x3_s2_pool2/3x3_s2_0_split
I0403 19:18:06.772070  9063 net.cpp:148] Top shape: 24 192 28 28 (3612672)
I0403 19:18:06.772088  9063 net.cpp:148] Top shape: 24 192 28 28 (3612672)
I0403 19:18:06.772102  9063 net.cpp:148] Top shape: 24 192 28 28 (3612672)
I0403 19:18:06.772117  9063 net.cpp:148] Top shape: 24 192 28 28 (3612672)
I0403 19:18:06.772131  9063 net.cpp:156] Memory required for data: 491324448
I0403 19:18:06.772145  9063 layer_factory.hpp:77] Creating layer inception_3a/1x1
I0403 19:18:06.772168  9063 net.cpp:91] Creating Layer inception_3a/1x1
I0403 19:18:06.772186  9063 net.cpp:425] inception_3a/1x1 <- pool2/3x3_s2_pool2/3x3_s2_0_split_0
I0403 19:18:06.772205  9063 net.cpp:399] inception_3a/1x1 -> inception_3a/1x1
I0403 19:18:06.773733  9063 net.cpp:141] Setting up inception_3a/1x1
I0403 19:18:06.773766  9063 net.cpp:148] Top shape: 24 64 28 28 (1204224)
I0403 19:18:06.773782  9063 net.cpp:156] Memory required for data: 496141344
I0403 19:18:06.773802  9063 layer_factory.hpp:77] Creating layer inception_3a/relu_1x1
I0403 19:18:06.773821  9063 net.cpp:91] Creating Layer inception_3a/relu_1x1
I0403 19:18:06.773838  9063 net.cpp:425] inception_3a/relu_1x1 <- inception_3a/1x1
I0403 19:18:06.773857  9063 net.cpp:386] inception_3a/relu_1x1 -> inception_3a/1x1 (in-place)
I0403 19:18:06.774031  9063 net.cpp:141] Setting up inception_3a/relu_1x1
I0403 19:18:06.774056  9063 net.cpp:148] Top shape: 24 64 28 28 (1204224)
I0403 19:18:06.774070  9063 net.cpp:156] Memory required for data: 500958240
I0403 19:18:06.774085  9063 layer_factory.hpp:77] Creating layer inception_3a/3x3_reduce
I0403 19:18:06.774107  9063 net.cpp:91] Creating Layer inception_3a/3x3_reduce
I0403 19:18:06.774124  9063 net.cpp:425] inception_3a/3x3_reduce <- pool2/3x3_s2_pool2/3x3_s2_0_split_1
I0403 19:18:06.774145  9063 net.cpp:399] inception_3a/3x3_reduce -> inception_3a/3x3_reduce
I0403 19:18:06.775884  9063 net.cpp:141] Setting up inception_3a/3x3_reduce
I0403 19:18:06.775916  9063 net.cpp:148] Top shape: 24 96 28 28 (1806336)
I0403 19:18:06.775933  9063 net.cpp:156] Memory required for data: 508183584
I0403 19:18:06.775954  9063 layer_factory.hpp:77] Creating layer inception_3a/relu_3x3_reduce
I0403 19:18:06.775990  9063 net.cpp:91] Creating Layer inception_3a/relu_3x3_reduce
I0403 19:18:06.776006  9063 net.cpp:425] inception_3a/relu_3x3_reduce <- inception_3a/3x3_reduce
I0403 19:18:06.776026  9063 net.cpp:386] inception_3a/relu_3x3_reduce -> inception_3a/3x3_reduce (in-place)
I0403 19:18:06.776214  9063 net.cpp:141] Setting up inception_3a/relu_3x3_reduce
I0403 19:18:06.776242  9063 net.cpp:148] Top shape: 24 96 28 28 (1806336)
I0403 19:18:06.776258  9063 net.cpp:156] Memory required for data: 515408928
I0403 19:18:06.776273  9063 layer_factory.hpp:77] Creating layer inception_3a/3x3
I0403 19:18:06.776293  9063 net.cpp:91] Creating Layer inception_3a/3x3
I0403 19:18:06.776309  9063 net.cpp:425] inception_3a/3x3 <- inception_3a/3x3_reduce
I0403 19:18:06.776331  9063 net.cpp:399] inception_3a/3x3 -> inception_3a/3x3
I0403 19:18:06.777966  9063 net.cpp:141] Setting up inception_3a/3x3
I0403 19:18:06.777998  9063 net.cpp:148] Top shape: 24 128 28 28 (2408448)
I0403 19:18:06.778015  9063 net.cpp:156] Memory required for data: 525042720
I0403 19:18:06.778033  9063 layer_factory.hpp:77] Creating layer inception_3a/relu_3x3
I0403 19:18:06.778051  9063 net.cpp:91] Creating Layer inception_3a/relu_3x3
I0403 19:18:06.778069  9063 net.cpp:425] inception_3a/relu_3x3 <- inception_3a/3x3
I0403 19:18:06.778087  9063 net.cpp:386] inception_3a/relu_3x3 -> inception_3a/3x3 (in-place)
I0403 19:18:06.778362  9063 net.cpp:141] Setting up inception_3a/relu_3x3
I0403 19:18:06.778390  9063 net.cpp:148] Top shape: 24 128 28 28 (2408448)
I0403 19:18:06.778405  9063 net.cpp:156] Memory required for data: 534676512
I0403 19:18:06.778421  9063 layer_factory.hpp:77] Creating layer inception_3a/5x5_reduce
I0403 19:18:06.778445  9063 net.cpp:91] Creating Layer inception_3a/5x5_reduce
I0403 19:18:06.778463  9063 net.cpp:425] inception_3a/5x5_reduce <- pool2/3x3_s2_pool2/3x3_s2_0_split_2
I0403 19:18:06.778484  9063 net.cpp:399] inception_3a/5x5_reduce -> inception_3a/5x5_reduce
I0403 19:18:06.779438  9063 net.cpp:141] Setting up inception_3a/5x5_reduce
I0403 19:18:06.779469  9063 net.cpp:148] Top shape: 24 16 28 28 (301056)
I0403 19:18:06.779484  9063 net.cpp:156] Memory required for data: 535880736
I0403 19:18:06.779503  9063 layer_factory.hpp:77] Creating layer inception_3a/relu_5x5_reduce
I0403 19:18:06.779523  9063 net.cpp:91] Creating Layer inception_3a/relu_5x5_reduce
I0403 19:18:06.779541  9063 net.cpp:425] inception_3a/relu_5x5_reduce <- inception_3a/5x5_reduce
I0403 19:18:06.779558  9063 net.cpp:386] inception_3a/relu_5x5_reduce -> inception_3a/5x5_reduce (in-place)
I0403 19:18:06.779846  9063 net.cpp:141] Setting up inception_3a/relu_5x5_reduce
I0403 19:18:06.779872  9063 net.cpp:148] Top shape: 24 16 28 28 (301056)
I0403 19:18:06.779887  9063 net.cpp:156] Memory required for data: 537084960
I0403 19:18:06.779902  9063 layer_factory.hpp:77] Creating layer inception_3a/5x5
I0403 19:18:06.779924  9063 net.cpp:91] Creating Layer inception_3a/5x5
I0403 19:18:06.779942  9063 net.cpp:425] inception_3a/5x5 <- inception_3a/5x5_reduce
I0403 19:18:06.779963  9063 net.cpp:399] inception_3a/5x5 -> inception_3a/5x5
I0403 19:18:06.780972  9063 net.cpp:141] Setting up inception_3a/5x5
I0403 19:18:06.781002  9063 net.cpp:148] Top shape: 24 32 28 28 (602112)
I0403 19:18:06.781018  9063 net.cpp:156] Memory required for data: 539493408
I0403 19:18:06.781035  9063 layer_factory.hpp:77] Creating layer inception_3a/relu_5x5
I0403 19:18:06.781054  9063 net.cpp:91] Creating Layer inception_3a/relu_5x5
I0403 19:18:06.781069  9063 net.cpp:425] inception_3a/relu_5x5 <- inception_3a/5x5
I0403 19:18:06.781088  9063 net.cpp:386] inception_3a/relu_5x5 -> inception_3a/5x5 (in-place)
I0403 19:18:06.781267  9063 net.cpp:141] Setting up inception_3a/relu_5x5
I0403 19:18:06.781293  9063 net.cpp:148] Top shape: 24 32 28 28 (602112)
I0403 19:18:06.781308  9063 net.cpp:156] Memory required for data: 541901856
I0403 19:18:06.781323  9063 layer_factory.hpp:77] Creating layer inception_3a/pool
I0403 19:18:06.781342  9063 net.cpp:91] Creating Layer inception_3a/pool
I0403 19:18:06.781371  9063 net.cpp:425] inception_3a/pool <- pool2/3x3_s2_pool2/3x3_s2_0_split_3
I0403 19:18:06.781393  9063 net.cpp:399] inception_3a/pool -> inception_3a/pool
I0403 19:18:06.781450  9063 net.cpp:141] Setting up inception_3a/pool
I0403 19:18:06.781474  9063 net.cpp:148] Top shape: 24 192 28 28 (3612672)
I0403 19:18:06.781488  9063 net.cpp:156] Memory required for data: 556352544
I0403 19:18:06.781503  9063 layer_factory.hpp:77] Creating layer inception_3a/pool_proj
I0403 19:18:06.781528  9063 net.cpp:91] Creating Layer inception_3a/pool_proj
I0403 19:18:06.781546  9063 net.cpp:425] inception_3a/pool_proj <- inception_3a/pool
I0403 19:18:06.781564  9063 net.cpp:399] inception_3a/pool_proj -> inception_3a/pool_proj
I0403 19:18:06.782551  9063 net.cpp:141] Setting up inception_3a/pool_proj
I0403 19:18:06.782583  9063 net.cpp:148] Top shape: 24 32 28 28 (602112)
I0403 19:18:06.782599  9063 net.cpp:156] Memory required for data: 558760992
I0403 19:18:06.782624  9063 layer_factory.hpp:77] Creating layer inception_3a/relu_pool_proj
I0403 19:18:06.782646  9063 net.cpp:91] Creating Layer inception_3a/relu_pool_proj
I0403 19:18:06.782665  9063 net.cpp:425] inception_3a/relu_pool_proj <- inception_3a/pool_proj
I0403 19:18:06.782681  9063 net.cpp:386] inception_3a/relu_pool_proj -> inception_3a/pool_proj (in-place)
I0403 19:18:06.782964  9063 net.cpp:141] Setting up inception_3a/relu_pool_proj
I0403 19:18:06.782994  9063 net.cpp:148] Top shape: 24 32 28 28 (602112)
I0403 19:18:06.783010  9063 net.cpp:156] Memory required for data: 561169440
I0403 19:18:06.783025  9063 layer_factory.hpp:77] Creating layer inception_3a/output
I0403 19:18:06.783043  9063 net.cpp:91] Creating Layer inception_3a/output
I0403 19:18:06.783058  9063 net.cpp:425] inception_3a/output <- inception_3a/1x1
I0403 19:18:06.783076  9063 net.cpp:425] inception_3a/output <- inception_3a/3x3
I0403 19:18:06.783092  9063 net.cpp:425] inception_3a/output <- inception_3a/5x5
I0403 19:18:06.783108  9063 net.cpp:425] inception_3a/output <- inception_3a/pool_proj
I0403 19:18:06.783128  9063 net.cpp:399] inception_3a/output -> inception_3a/output
I0403 19:18:06.783175  9063 net.cpp:141] Setting up inception_3a/output
I0403 19:18:06.783198  9063 net.cpp:148] Top shape: 24 256 28 28 (4816896)
I0403 19:18:06.783226  9063 net.cpp:156] Memory required for data: 580437024
I0403 19:18:06.783243  9063 layer_factory.hpp:77] Creating layer inception_3a/output_inception_3a/output_0_split
I0403 19:18:06.783264  9063 net.cpp:91] Creating Layer inception_3a/output_inception_3a/output_0_split
I0403 19:18:06.783282  9063 net.cpp:425] inception_3a/output_inception_3a/output_0_split <- inception_3a/output
I0403 19:18:06.783299  9063 net.cpp:399] inception_3a/output_inception_3a/output_0_split -> inception_3a/output_inception_3a/output_0_split_0
I0403 19:18:06.783320  9063 net.cpp:399] inception_3a/output_inception_3a/output_0_split -> inception_3a/output_inception_3a/output_0_split_1
I0403 19:18:06.783346  9063 net.cpp:399] inception_3a/output_inception_3a/output_0_split -> inception_3a/output_inception_3a/output_0_split_2
I0403 19:18:06.783367  9063 net.cpp:399] inception_3a/output_inception_3a/output_0_split -> inception_3a/output_inception_3a/output_0_split_3
I0403 19:18:06.783443  9063 net.cpp:141] Setting up inception_3a/output_inception_3a/output_0_split
I0403 19:18:06.783471  9063 net.cpp:148] Top shape: 24 256 28 28 (4816896)
I0403 19:18:06.783490  9063 net.cpp:148] Top shape: 24 256 28 28 (4816896)
I0403 19:18:06.783507  9063 net.cpp:148] Top shape: 24 256 28 28 (4816896)
I0403 19:18:06.783524  9063 net.cpp:148] Top shape: 24 256 28 28 (4816896)
I0403 19:18:06.783537  9063 net.cpp:156] Memory required for data: 657507360
I0403 19:18:06.783553  9063 layer_factory.hpp:77] Creating layer inception_3b/1x1
I0403 19:18:06.783576  9063 net.cpp:91] Creating Layer inception_3b/1x1
I0403 19:18:06.783594  9063 net.cpp:425] inception_3b/1x1 <- inception_3a/output_inception_3a/output_0_split_0
I0403 19:18:06.783614  9063 net.cpp:399] inception_3b/1x1 -> inception_3b/1x1
I0403 19:18:06.784773  9063 net.cpp:141] Setting up inception_3b/1x1
I0403 19:18:06.784818  9063 net.cpp:148] Top shape: 24 128 28 28 (2408448)
I0403 19:18:06.784842  9063 net.cpp:156] Memory required for data: 667141152
I0403 19:18:06.784867  9063 layer_factory.hpp:77] Creating layer inception_3b/relu_1x1
I0403 19:18:06.784894  9063 net.cpp:91] Creating Layer inception_3b/relu_1x1
I0403 19:18:06.784920  9063 net.cpp:425] inception_3b/relu_1x1 <- inception_3b/1x1
I0403 19:18:06.784945  9063 net.cpp:386] inception_3b/relu_1x1 -> inception_3b/1x1 (in-place)
I0403 19:18:06.785126  9063 net.cpp:141] Setting up inception_3b/relu_1x1
I0403 19:18:06.785151  9063 net.cpp:148] Top shape: 24 128 28 28 (2408448)
I0403 19:18:06.785179  9063 net.cpp:156] Memory required for data: 676774944
I0403 19:18:06.785195  9063 layer_factory.hpp:77] Creating layer inception_3b/3x3_reduce
I0403 19:18:06.785224  9063 net.cpp:91] Creating Layer inception_3b/3x3_reduce
I0403 19:18:06.785243  9063 net.cpp:425] inception_3b/3x3_reduce <- inception_3a/output_inception_3a/output_0_split_1
I0403 19:18:06.785266  9063 net.cpp:399] inception_3b/3x3_reduce -> inception_3b/3x3_reduce
I0403 19:18:06.786476  9063 net.cpp:141] Setting up inception_3b/3x3_reduce
I0403 19:18:06.786505  9063 net.cpp:148] Top shape: 24 128 28 28 (2408448)
I0403 19:18:06.786521  9063 net.cpp:156] Memory required for data: 686408736
I0403 19:18:06.786540  9063 layer_factory.hpp:77] Creating layer inception_3b/relu_3x3_reduce
I0403 19:18:06.786561  9063 net.cpp:91] Creating Layer inception_3b/relu_3x3_reduce
I0403 19:18:06.786578  9063 net.cpp:425] inception_3b/relu_3x3_reduce <- inception_3b/3x3_reduce
I0403 19:18:06.786597  9063 net.cpp:386] inception_3b/relu_3x3_reduce -> inception_3b/3x3_reduce (in-place)
I0403 19:18:06.786780  9063 net.cpp:141] Setting up inception_3b/relu_3x3_reduce
I0403 19:18:06.786810  9063 net.cpp:148] Top shape: 24 128 28 28 (2408448)
I0403 19:18:06.786826  9063 net.cpp:156] Memory required for data: 696042528
I0403 19:18:06.786841  9063 layer_factory.hpp:77] Creating layer inception_3b/3x3
I0403 19:18:06.786866  9063 net.cpp:91] Creating Layer inception_3b/3x3
I0403 19:18:06.786887  9063 net.cpp:425] inception_3b/3x3 <- inception_3b/3x3_reduce
I0403 19:18:06.786906  9063 net.cpp:399] inception_3b/3x3 -> inception_3b/3x3
I0403 19:18:06.789893  9063 net.cpp:141] Setting up inception_3b/3x3
I0403 19:18:06.789926  9063 net.cpp:148] Top shape: 24 192 28 28 (3612672)
I0403 19:18:06.789942  9063 net.cpp:156] Memory required for data: 710493216
I0403 19:18:06.789961  9063 layer_factory.hpp:77] Creating layer inception_3b/relu_3x3
I0403 19:18:06.789979  9063 net.cpp:91] Creating Layer inception_3b/relu_3x3
I0403 19:18:06.790004  9063 net.cpp:425] inception_3b/relu_3x3 <- inception_3b/3x3
I0403 19:18:06.790030  9063 net.cpp:386] inception_3b/relu_3x3 -> inception_3b/3x3 (in-place)
I0403 19:18:06.790325  9063 net.cpp:141] Setting up inception_3b/relu_3x3
I0403 19:18:06.790355  9063 net.cpp:148] Top shape: 24 192 28 28 (3612672)
I0403 19:18:06.790371  9063 net.cpp:156] Memory required for data: 724943904
I0403 19:18:06.790387  9063 layer_factory.hpp:77] Creating layer inception_3b/5x5_reduce
I0403 19:18:06.790412  9063 net.cpp:91] Creating Layer inception_3b/5x5_reduce
I0403 19:18:06.790431  9063 net.cpp:425] inception_3b/5x5_reduce <- inception_3a/output_inception_3a/output_0_split_2
I0403 19:18:06.790455  9063 net.cpp:399] inception_3b/5x5_reduce -> inception_3b/5x5_reduce
I0403 19:18:06.791482  9063 net.cpp:141] Setting up inception_3b/5x5_reduce
I0403 19:18:06.791513  9063 net.cpp:148] Top shape: 24 32 28 28 (602112)
I0403 19:18:06.791532  9063 net.cpp:156] Memory required for data: 727352352
I0403 19:18:06.791549  9063 layer_factory.hpp:77] Creating layer inception_3b/relu_5x5_reduce
I0403 19:18:06.791568  9063 net.cpp:91] Creating Layer inception_3b/relu_5x5_reduce
I0403 19:18:06.791584  9063 net.cpp:425] inception_3b/relu_5x5_reduce <- inception_3b/5x5_reduce
I0403 19:18:06.791604  9063 net.cpp:386] inception_3b/relu_5x5_reduce -> inception_3b/5x5_reduce (in-place)
I0403 19:18:06.791800  9063 net.cpp:141] Setting up inception_3b/relu_5x5_reduce
I0403 19:18:06.791831  9063 net.cpp:148] Top shape: 24 32 28 28 (602112)
I0403 19:18:06.791846  9063 net.cpp:156] Memory required for data: 729760800
I0403 19:18:06.791862  9063 layer_factory.hpp:77] Creating layer inception_3b/5x5
I0403 19:18:06.791884  9063 net.cpp:91] Creating Layer inception_3b/5x5
I0403 19:18:06.791903  9063 net.cpp:425] inception_3b/5x5 <- inception_3b/5x5_reduce
I0403 19:18:06.791924  9063 net.cpp:399] inception_3b/5x5 -> inception_3b/5x5
I0403 19:18:06.794008  9063 net.cpp:141] Setting up inception_3b/5x5
I0403 19:18:06.794036  9063 net.cpp:148] Top shape: 24 96 28 28 (1806336)
I0403 19:18:06.794052  9063 net.cpp:156] Memory required for data: 736986144
I0403 19:18:06.794071  9063 layer_factory.hpp:77] Creating layer inception_3b/relu_5x5
I0403 19:18:06.794092  9063 net.cpp:91] Creating Layer inception_3b/relu_5x5
I0403 19:18:06.794111  9063 net.cpp:425] inception_3b/relu_5x5 <- inception_3b/5x5
I0403 19:18:06.794127  9063 net.cpp:386] inception_3b/relu_5x5 -> inception_3b/5x5 (in-place)
I0403 19:18:06.794335  9063 net.cpp:141] Setting up inception_3b/relu_5x5
I0403 19:18:06.794361  9063 net.cpp:148] Top shape: 24 96 28 28 (1806336)
I0403 19:18:06.794376  9063 net.cpp:156] Memory required for data: 744211488
I0403 19:18:06.794392  9063 layer_factory.hpp:77] Creating layer inception_3b/pool
I0403 19:18:06.794411  9063 net.cpp:91] Creating Layer inception_3b/pool
I0403 19:18:06.794427  9063 net.cpp:425] inception_3b/pool <- inception_3a/output_inception_3a/output_0_split_3
I0403 19:18:06.794446  9063 net.cpp:399] inception_3b/pool -> inception_3b/pool
I0403 19:18:06.794504  9063 net.cpp:141] Setting up inception_3b/pool
I0403 19:18:06.794528  9063 net.cpp:148] Top shape: 24 256 28 28 (4816896)
I0403 19:18:06.794543  9063 net.cpp:156] Memory required for data: 763479072
I0403 19:18:06.794559  9063 layer_factory.hpp:77] Creating layer inception_3b/pool_proj
I0403 19:18:06.794582  9063 net.cpp:91] Creating Layer inception_3b/pool_proj
I0403 19:18:06.794601  9063 net.cpp:425] inception_3b/pool_proj <- inception_3b/pool
I0403 19:18:06.794620  9063 net.cpp:399] inception_3b/pool_proj -> inception_3b/pool_proj
I0403 19:18:06.795702  9063 net.cpp:141] Setting up inception_3b/pool_proj
I0403 19:18:06.795729  9063 net.cpp:148] Top shape: 24 64 28 28 (1204224)
I0403 19:18:06.795745  9063 net.cpp:156] Memory required for data: 768295968
I0403 19:18:06.795764  9063 layer_factory.hpp:77] Creating layer inception_3b/relu_pool_proj
I0403 19:18:06.795784  9063 net.cpp:91] Creating Layer inception_3b/relu_pool_proj
I0403 19:18:06.795802  9063 net.cpp:425] inception_3b/relu_pool_proj <- inception_3b/pool_proj
I0403 19:18:06.795819  9063 net.cpp:386] inception_3b/relu_pool_proj -> inception_3b/pool_proj (in-place)
I0403 19:18:06.796217  9063 net.cpp:141] Setting up inception_3b/relu_pool_proj
I0403 19:18:06.796244  9063 net.cpp:148] Top shape: 24 64 28 28 (1204224)
I0403 19:18:06.796260  9063 net.cpp:156] Memory required for data: 773112864
I0403 19:18:06.796275  9063 layer_factory.hpp:77] Creating layer inception_3b/output
I0403 19:18:06.796293  9063 net.cpp:91] Creating Layer inception_3b/output
I0403 19:18:06.796309  9063 net.cpp:425] inception_3b/output <- inception_3b/1x1
I0403 19:18:06.796325  9063 net.cpp:425] inception_3b/output <- inception_3b/3x3
I0403 19:18:06.796342  9063 net.cpp:425] inception_3b/output <- inception_3b/5x5
I0403 19:18:06.796358  9063 net.cpp:425] inception_3b/output <- inception_3b/pool_proj
I0403 19:18:06.796378  9063 net.cpp:399] inception_3b/output -> inception_3b/output
I0403 19:18:06.796422  9063 net.cpp:141] Setting up inception_3b/output
I0403 19:18:06.796448  9063 net.cpp:148] Top shape: 24 480 28 28 (9031680)
I0403 19:18:06.796464  9063 net.cpp:156] Memory required for data: 809239584
I0403 19:18:06.796479  9063 layer_factory.hpp:77] Creating layer pool3/3x3_s2
I0403 19:18:06.796496  9063 net.cpp:91] Creating Layer pool3/3x3_s2
I0403 19:18:06.796512  9063 net.cpp:425] pool3/3x3_s2 <- inception_3b/output
I0403 19:18:06.796550  9063 net.cpp:399] pool3/3x3_s2 -> pool3/3x3_s2
I0403 19:18:06.796609  9063 net.cpp:141] Setting up pool3/3x3_s2
I0403 19:18:06.796633  9063 net.cpp:148] Top shape: 24 480 14 14 (2257920)
I0403 19:18:06.796648  9063 net.cpp:156] Memory required for data: 818271264
I0403 19:18:06.796663  9063 layer_factory.hpp:77] Creating layer pool3/3x3_s2_pool3/3x3_s2_0_split
I0403 19:18:06.796681  9063 net.cpp:91] Creating Layer pool3/3x3_s2_pool3/3x3_s2_0_split
I0403 19:18:06.796699  9063 net.cpp:425] pool3/3x3_s2_pool3/3x3_s2_0_split <- pool3/3x3_s2
I0403 19:18:06.796715  9063 net.cpp:399] pool3/3x3_s2_pool3/3x3_s2_0_split -> pool3/3x3_s2_pool3/3x3_s2_0_split_0
I0403 19:18:06.796735  9063 net.cpp:399] pool3/3x3_s2_pool3/3x3_s2_0_split -> pool3/3x3_s2_pool3/3x3_s2_0_split_1
I0403 19:18:06.796754  9063 net.cpp:399] pool3/3x3_s2_pool3/3x3_s2_0_split -> pool3/3x3_s2_pool3/3x3_s2_0_split_2
I0403 19:18:06.796779  9063 net.cpp:399] pool3/3x3_s2_pool3/3x3_s2_0_split -> pool3/3x3_s2_pool3/3x3_s2_0_split_3
I0403 19:18:06.796861  9063 net.cpp:141] Setting up pool3/3x3_s2_pool3/3x3_s2_0_split
I0403 19:18:06.796885  9063 net.cpp:148] Top shape: 24 480 14 14 (2257920)
I0403 19:18:06.796901  9063 net.cpp:148] Top shape: 24 480 14 14 (2257920)
I0403 19:18:06.796917  9063 net.cpp:148] Top shape: 24 480 14 14 (2257920)
I0403 19:18:06.796932  9063 net.cpp:148] Top shape: 24 480 14 14 (2257920)
I0403 19:18:06.796947  9063 net.cpp:156] Memory required for data: 854397984
I0403 19:18:06.796960  9063 layer_factory.hpp:77] Creating layer inception_4a/1x1
I0403 19:18:06.796983  9063 net.cpp:91] Creating Layer inception_4a/1x1
I0403 19:18:06.797001  9063 net.cpp:425] inception_4a/1x1 <- pool3/3x3_s2_pool3/3x3_s2_0_split_0
I0403 19:18:06.797022  9063 net.cpp:399] inception_4a/1x1 -> inception_4a/1x1
I0403 19:18:06.798627  9063 net.cpp:141] Setting up inception_4a/1x1
I0403 19:18:06.798656  9063 net.cpp:148] Top shape: 24 192 14 14 (903168)
I0403 19:18:06.798672  9063 net.cpp:156] Memory required for data: 858010656
I0403 19:18:06.798691  9063 layer_factory.hpp:77] Creating layer inception_4a/relu_1x1
I0403 19:18:06.798712  9063 net.cpp:91] Creating Layer inception_4a/relu_1x1
I0403 19:18:06.798728  9063 net.cpp:425] inception_4a/relu_1x1 <- inception_4a/1x1
I0403 19:18:06.798746  9063 net.cpp:386] inception_4a/relu_1x1 -> inception_4a/1x1 (in-place)
I0403 19:18:06.798926  9063 net.cpp:141] Setting up inception_4a/relu_1x1
I0403 19:18:06.798955  9063 net.cpp:148] Top shape: 24 192 14 14 (903168)
I0403 19:18:06.798971  9063 net.cpp:156] Memory required for data: 861623328
I0403 19:18:06.798986  9063 layer_factory.hpp:77] Creating layer inception_4a/3x3_reduce
I0403 19:18:06.799010  9063 net.cpp:91] Creating Layer inception_4a/3x3_reduce
I0403 19:18:06.799027  9063 net.cpp:425] inception_4a/3x3_reduce <- pool3/3x3_s2_pool3/3x3_s2_0_split_1
I0403 19:18:06.799047  9063 net.cpp:399] inception_4a/3x3_reduce -> inception_4a/3x3_reduce
I0403 19:18:06.800355  9063 net.cpp:141] Setting up inception_4a/3x3_reduce
I0403 19:18:06.800384  9063 net.cpp:148] Top shape: 24 96 14 14 (451584)
I0403 19:18:06.800400  9063 net.cpp:156] Memory required for data: 863429664
I0403 19:18:06.800426  9063 layer_factory.hpp:77] Creating layer inception_4a/relu_3x3_reduce
I0403 19:18:06.800446  9063 net.cpp:91] Creating Layer inception_4a/relu_3x3_reduce
I0403 19:18:06.800463  9063 net.cpp:425] inception_4a/relu_3x3_reduce <- inception_4a/3x3_reduce
I0403 19:18:06.800482  9063 net.cpp:386] inception_4a/relu_3x3_reduce -> inception_4a/3x3_reduce (in-place)
I0403 19:18:06.800665  9063 net.cpp:141] Setting up inception_4a/relu_3x3_reduce
I0403 19:18:06.800693  9063 net.cpp:148] Top shape: 24 96 14 14 (451584)
I0403 19:18:06.800709  9063 net.cpp:156] Memory required for data: 865236000
I0403 19:18:06.800724  9063 layer_factory.hpp:77] Creating layer inception_4a/3x3
I0403 19:18:06.800745  9063 net.cpp:91] Creating Layer inception_4a/3x3
I0403 19:18:06.800761  9063 net.cpp:425] inception_4a/3x3 <- inception_4a/3x3_reduce
I0403 19:18:06.800783  9063 net.cpp:399] inception_4a/3x3 -> inception_4a/3x3
I0403 19:18:06.803539  9063 net.cpp:141] Setting up inception_4a/3x3
I0403 19:18:06.803570  9063 net.cpp:148] Top shape: 24 208 14 14 (978432)
I0403 19:18:06.803586  9063 net.cpp:156] Memory required for data: 869149728
I0403 19:18:06.803604  9063 layer_factory.hpp:77] Creating layer inception_4a/relu_3x3
I0403 19:18:06.803622  9063 net.cpp:91] Creating Layer inception_4a/relu_3x3
I0403 19:18:06.803638  9063 net.cpp:425] inception_4a/relu_3x3 <- inception_4a/3x3
I0403 19:18:06.803658  9063 net.cpp:386] inception_4a/relu_3x3 -> inception_4a/3x3 (in-place)
I0403 19:18:06.803935  9063 net.cpp:141] Setting up inception_4a/relu_3x3
I0403 19:18:06.803962  9063 net.cpp:148] Top shape: 24 208 14 14 (978432)
I0403 19:18:06.803978  9063 net.cpp:156] Memory required for data: 873063456
I0403 19:18:06.803993  9063 layer_factory.hpp:77] Creating layer inception_4a/5x5_reduce
I0403 19:18:06.804018  9063 net.cpp:91] Creating Layer inception_4a/5x5_reduce
I0403 19:18:06.804034  9063 net.cpp:425] inception_4a/5x5_reduce <- pool3/3x3_s2_pool3/3x3_s2_0_split_2
I0403 19:18:06.804054  9063 net.cpp:399] inception_4a/5x5_reduce -> inception_4a/5x5_reduce
I0403 19:18:06.805075  9063 net.cpp:141] Setting up inception_4a/5x5_reduce
I0403 19:18:06.805105  9063 net.cpp:148] Top shape: 24 16 14 14 (75264)
I0403 19:18:06.805121  9063 net.cpp:156] Memory required for data: 873364512
I0403 19:18:06.805140  9063 layer_factory.hpp:77] Creating layer inception_4a/relu_5x5_reduce
I0403 19:18:06.805157  9063 net.cpp:91] Creating Layer inception_4a/relu_5x5_reduce
I0403 19:18:06.805173  9063 net.cpp:425] inception_4a/relu_5x5_reduce <- inception_4a/5x5_reduce
I0403 19:18:06.805192  9063 net.cpp:386] inception_4a/relu_5x5_reduce -> inception_4a/5x5_reduce (in-place)
I0403 19:18:06.805380  9063 net.cpp:141] Setting up inception_4a/relu_5x5_reduce
I0403 19:18:06.805404  9063 net.cpp:148] Top shape: 24 16 14 14 (75264)
I0403 19:18:06.805419  9063 net.cpp:156] Memory required for data: 873665568
I0403 19:18:06.805434  9063 layer_factory.hpp:77] Creating layer inception_4a/5x5
I0403 19:18:06.805456  9063 net.cpp:91] Creating Layer inception_4a/5x5
I0403 19:18:06.805474  9063 net.cpp:425] inception_4a/5x5 <- inception_4a/5x5_reduce
I0403 19:18:06.805495  9063 net.cpp:399] inception_4a/5x5 -> inception_4a/5x5
I0403 19:18:06.806586  9063 net.cpp:141] Setting up inception_4a/5x5
I0403 19:18:06.806612  9063 net.cpp:148] Top shape: 24 48 14 14 (225792)
I0403 19:18:06.806628  9063 net.cpp:156] Memory required for data: 874568736
I0403 19:18:06.806645  9063 layer_factory.hpp:77] Creating layer inception_4a/relu_5x5
I0403 19:18:06.806666  9063 net.cpp:91] Creating Layer inception_4a/relu_5x5
I0403 19:18:06.806684  9063 net.cpp:425] inception_4a/relu_5x5 <- inception_4a/5x5
I0403 19:18:06.806701  9063 net.cpp:386] inception_4a/relu_5x5 -> inception_4a/5x5 (in-place)
I0403 19:18:06.806879  9063 net.cpp:141] Setting up inception_4a/relu_5x5
I0403 19:18:06.806903  9063 net.cpp:148] Top shape: 24 48 14 14 (225792)
I0403 19:18:06.806918  9063 net.cpp:156] Memory required for data: 875471904
I0403 19:18:06.806932  9063 layer_factory.hpp:77] Creating layer inception_4a/pool
I0403 19:18:06.806952  9063 net.cpp:91] Creating Layer inception_4a/pool
I0403 19:18:06.806969  9063 net.cpp:425] inception_4a/pool <- pool3/3x3_s2_pool3/3x3_s2_0_split_3
I0403 19:18:06.806987  9063 net.cpp:399] inception_4a/pool -> inception_4a/pool
I0403 19:18:06.807047  9063 net.cpp:141] Setting up inception_4a/pool
I0403 19:18:06.807070  9063 net.cpp:148] Top shape: 24 480 14 14 (2257920)
I0403 19:18:06.807085  9063 net.cpp:156] Memory required for data: 884503584
I0403 19:18:06.807101  9063 layer_factory.hpp:77] Creating layer inception_4a/pool_proj
I0403 19:18:06.807121  9063 net.cpp:91] Creating Layer inception_4a/pool_proj
I0403 19:18:06.807139  9063 net.cpp:425] inception_4a/pool_proj <- inception_4a/pool
I0403 19:18:06.807160  9063 net.cpp:399] inception_4a/pool_proj -> inception_4a/pool_proj
I0403 19:18:06.808352  9063 net.cpp:141] Setting up inception_4a/pool_proj
I0403 19:18:06.808382  9063 net.cpp:148] Top shape: 24 64 14 14 (301056)
I0403 19:18:06.808413  9063 net.cpp:156] Memory required for data: 885707808
I0403 19:18:06.808432  9063 layer_factory.hpp:77] Creating layer inception_4a/relu_pool_proj
I0403 19:18:06.808454  9063 net.cpp:91] Creating Layer inception_4a/relu_pool_proj
I0403 19:18:06.808472  9063 net.cpp:425] inception_4a/relu_pool_proj <- inception_4a/pool_proj
I0403 19:18:06.808490  9063 net.cpp:386] inception_4a/relu_pool_proj -> inception_4a/pool_proj (in-place)
I0403 19:18:06.808791  9063 net.cpp:141] Setting up inception_4a/relu_pool_proj
I0403 19:18:06.808818  9063 net.cpp:148] Top shape: 24 64 14 14 (301056)
I0403 19:18:06.808833  9063 net.cpp:156] Memory required for data: 886912032
I0403 19:18:06.808848  9063 layer_factory.hpp:77] Creating layer inception_4a/output
I0403 19:18:06.808868  9063 net.cpp:91] Creating Layer inception_4a/output
I0403 19:18:06.808886  9063 net.cpp:425] inception_4a/output <- inception_4a/1x1
I0403 19:18:06.808902  9063 net.cpp:425] inception_4a/output <- inception_4a/3x3
I0403 19:18:06.808919  9063 net.cpp:425] inception_4a/output <- inception_4a/5x5
I0403 19:18:06.808935  9063 net.cpp:425] inception_4a/output <- inception_4a/pool_proj
I0403 19:18:06.808953  9063 net.cpp:399] inception_4a/output -> inception_4a/output
I0403 19:18:06.809000  9063 net.cpp:141] Setting up inception_4a/output
I0403 19:18:06.809023  9063 net.cpp:148] Top shape: 24 512 14 14 (2408448)
I0403 19:18:06.809038  9063 net.cpp:156] Memory required for data: 896545824
I0403 19:18:06.809053  9063 layer_factory.hpp:77] Creating layer inception_4a/output_inception_4a/output_0_split
I0403 19:18:06.809070  9063 net.cpp:91] Creating Layer inception_4a/output_inception_4a/output_0_split
I0403 19:18:06.809087  9063 net.cpp:425] inception_4a/output_inception_4a/output_0_split <- inception_4a/output
I0403 19:18:06.809108  9063 net.cpp:399] inception_4a/output_inception_4a/output_0_split -> inception_4a/output_inception_4a/output_0_split_0
I0403 19:18:06.809129  9063 net.cpp:399] inception_4a/output_inception_4a/output_0_split -> inception_4a/output_inception_4a/output_0_split_1
I0403 19:18:06.809149  9063 net.cpp:399] inception_4a/output_inception_4a/output_0_split -> inception_4a/output_inception_4a/output_0_split_2
I0403 19:18:06.809170  9063 net.cpp:399] inception_4a/output_inception_4a/output_0_split -> inception_4a/output_inception_4a/output_0_split_3
I0403 19:18:06.809191  9063 net.cpp:399] inception_4a/output_inception_4a/output_0_split -> inception_4a/output_inception_4a/output_0_split_4
I0403 19:18:06.809290  9063 net.cpp:141] Setting up inception_4a/output_inception_4a/output_0_split
I0403 19:18:06.809314  9063 net.cpp:148] Top shape: 24 512 14 14 (2408448)
I0403 19:18:06.809334  9063 net.cpp:148] Top shape: 24 512 14 14 (2408448)
I0403 19:18:06.809350  9063 net.cpp:148] Top shape: 24 512 14 14 (2408448)
I0403 19:18:06.809367  9063 net.cpp:148] Top shape: 24 512 14 14 (2408448)
I0403 19:18:06.809383  9063 net.cpp:148] Top shape: 24 512 14 14 (2408448)
I0403 19:18:06.809397  9063 net.cpp:156] Memory required for data: 944714784
I0403 19:18:06.809412  9063 layer_factory.hpp:77] Creating layer loss1/ave_pool
I0403 19:18:06.809430  9063 net.cpp:91] Creating Layer loss1/ave_pool
I0403 19:18:06.809447  9063 net.cpp:425] loss1/ave_pool <- inception_4a/output_inception_4a/output_0_split_0
I0403 19:18:06.809469  9063 net.cpp:399] loss1/ave_pool -> loss1/ave_pool
I0403 19:18:06.809687  9063 net.cpp:141] Setting up loss1/ave_pool
I0403 19:18:06.809713  9063 net.cpp:148] Top shape: 24 512 4 4 (196608)
I0403 19:18:06.809728  9063 net.cpp:156] Memory required for data: 945501216
I0403 19:18:06.809743  9063 layer_factory.hpp:77] Creating layer loss1/conv
I0403 19:18:06.809767  9063 net.cpp:91] Creating Layer loss1/conv
I0403 19:18:06.809783  9063 net.cpp:425] loss1/conv <- loss1/ave_pool
I0403 19:18:06.809805  9063 net.cpp:399] loss1/conv -> loss1/conv
I0403 19:18:06.811267  9063 net.cpp:141] Setting up loss1/conv
I0403 19:18:06.811297  9063 net.cpp:148] Top shape: 24 128 4 4 (49152)
I0403 19:18:06.811327  9063 net.cpp:156] Memory required for data: 945697824
I0403 19:18:06.811347  9063 layer_factory.hpp:77] Creating layer loss1/relu_conv
I0403 19:18:06.811365  9063 net.cpp:91] Creating Layer loss1/relu_conv
I0403 19:18:06.811381  9063 net.cpp:425] loss1/relu_conv <- loss1/conv
I0403 19:18:06.811401  9063 net.cpp:386] loss1/relu_conv -> loss1/conv (in-place)
I0403 19:18:06.811691  9063 net.cpp:141] Setting up loss1/relu_conv
I0403 19:18:06.811723  9063 net.cpp:148] Top shape: 24 128 4 4 (49152)
I0403 19:18:06.811739  9063 net.cpp:156] Memory required for data: 945894432
I0403 19:18:06.811755  9063 layer_factory.hpp:77] Creating layer loss1/fc
I0403 19:18:06.811780  9063 net.cpp:91] Creating Layer loss1/fc
I0403 19:18:06.811799  9063 net.cpp:425] loss1/fc <- loss1/conv
I0403 19:18:06.811820  9063 net.cpp:399] loss1/fc -> loss1/fc
I0403 19:18:06.830313  9063 net.cpp:141] Setting up loss1/fc
I0403 19:18:06.830363  9063 net.cpp:148] Top shape: 24 1024 (24576)
I0403 19:18:06.830379  9063 net.cpp:156] Memory required for data: 945992736
I0403 19:18:06.830399  9063 layer_factory.hpp:77] Creating layer loss1/relu_fc
I0403 19:18:06.830433  9063 net.cpp:91] Creating Layer loss1/relu_fc
I0403 19:18:06.830452  9063 net.cpp:425] loss1/relu_fc <- loss1/fc
I0403 19:18:06.830471  9063 net.cpp:386] loss1/relu_fc -> loss1/fc (in-place)
I0403 19:18:06.830698  9063 net.cpp:141] Setting up loss1/relu_fc
I0403 19:18:06.830725  9063 net.cpp:148] Top shape: 24 1024 (24576)
I0403 19:18:06.830741  9063 net.cpp:156] Memory required for data: 946091040
I0403 19:18:06.830756  9063 layer_factory.hpp:77] Creating layer loss1/drop_fc
I0403 19:18:06.830797  9063 net.cpp:91] Creating Layer loss1/drop_fc
I0403 19:18:06.830816  9063 net.cpp:425] loss1/drop_fc <- loss1/fc
I0403 19:18:06.830832  9063 net.cpp:386] loss1/drop_fc -> loss1/fc (in-place)
I0403 19:18:06.830885  9063 net.cpp:141] Setting up loss1/drop_fc
I0403 19:18:06.830907  9063 net.cpp:148] Top shape: 24 1024 (24576)
I0403 19:18:06.830921  9063 net.cpp:156] Memory required for data: 946189344
I0403 19:18:06.830936  9063 layer_factory.hpp:77] Creating layer loss1/classifier_plantvillage
I0403 19:18:06.830967  9063 net.cpp:91] Creating Layer loss1/classifier_plantvillage
I0403 19:18:06.830983  9063 net.cpp:425] loss1/classifier_plantvillage <- loss1/fc
I0403 19:18:06.831004  9063 net.cpp:399] loss1/classifier_plantvillage -> loss1/classifier_plantvillage
I0403 19:18:06.831948  9063 net.cpp:141] Setting up loss1/classifier_plantvillage
I0403 19:18:06.831975  9063 net.cpp:148] Top shape: 24 38 (912)
I0403 19:18:06.831990  9063 net.cpp:156] Memory required for data: 946192992
I0403 19:18:06.832007  9063 layer_factory.hpp:77] Creating layer loss1/classifier_plantvillage_loss1/classifier_plantvillage_0_split
I0403 19:18:06.832031  9063 net.cpp:91] Creating Layer loss1/classifier_plantvillage_loss1/classifier_plantvillage_0_split
I0403 19:18:06.832047  9063 net.cpp:425] loss1/classifier_plantvillage_loss1/classifier_plantvillage_0_split <- loss1/classifier_plantvillage
I0403 19:18:06.832065  9063 net.cpp:399] loss1/classifier_plantvillage_loss1/classifier_plantvillage_0_split -> loss1/classifier_plantvillage_loss1/classifier_plantvillage_0_split_0
I0403 19:18:06.832084  9063 net.cpp:399] loss1/classifier_plantvillage_loss1/classifier_plantvillage_0_split -> loss1/classifier_plantvillage_loss1/classifier_plantvillage_0_split_1
I0403 19:18:06.832108  9063 net.cpp:399] loss1/classifier_plantvillage_loss1/classifier_plantvillage_0_split -> loss1/classifier_plantvillage_loss1/classifier_plantvillage_0_split_2
I0403 19:18:06.832171  9063 net.cpp:141] Setting up loss1/classifier_plantvillage_loss1/classifier_plantvillage_0_split
I0403 19:18:06.832193  9063 net.cpp:148] Top shape: 24 38 (912)
I0403 19:18:06.832221  9063 net.cpp:148] Top shape: 24 38 (912)
I0403 19:18:06.832240  9063 net.cpp:148] Top shape: 24 38 (912)
I0403 19:18:06.832253  9063 net.cpp:156] Memory required for data: 946203936
I0403 19:18:06.832267  9063 layer_factory.hpp:77] Creating layer inception_4b/1x1
I0403 19:18:06.832290  9063 net.cpp:91] Creating Layer inception_4b/1x1
I0403 19:18:06.832330  9063 net.cpp:425] inception_4b/1x1 <- inception_4a/output_inception_4a/output_0_split_1
I0403 19:18:06.832350  9063 net.cpp:399] inception_4b/1x1 -> inception_4b/1x1
I0403 19:18:06.833979  9063 net.cpp:141] Setting up inception_4b/1x1
I0403 19:18:06.834009  9063 net.cpp:148] Top shape: 24 160 14 14 (752640)
I0403 19:18:06.834025  9063 net.cpp:156] Memory required for data: 949214496
I0403 19:18:06.834043  9063 layer_factory.hpp:77] Creating layer inception_4b/relu_1x1
I0403 19:18:06.834061  9063 net.cpp:91] Creating Layer inception_4b/relu_1x1
I0403 19:18:06.834077  9063 net.cpp:425] inception_4b/relu_1x1 <- inception_4b/1x1
I0403 19:18:06.834096  9063 net.cpp:386] inception_4b/relu_1x1 -> inception_4b/1x1 (in-place)
I0403 19:18:06.834280  9063 net.cpp:141] Setting up inception_4b/relu_1x1
I0403 19:18:06.834303  9063 net.cpp:148] Top shape: 24 160 14 14 (752640)
I0403 19:18:06.834317  9063 net.cpp:156] Memory required for data: 952225056
I0403 19:18:06.834332  9063 layer_factory.hpp:77] Creating layer inception_4b/3x3_reduce
I0403 19:18:06.834357  9063 net.cpp:91] Creating Layer inception_4b/3x3_reduce
I0403 19:18:06.834374  9063 net.cpp:425] inception_4b/3x3_reduce <- inception_4a/output_inception_4a/output_0_split_2
I0403 19:18:06.834394  9063 net.cpp:399] inception_4b/3x3_reduce -> inception_4b/3x3_reduce
I0403 19:18:06.835727  9063 net.cpp:141] Setting up inception_4b/3x3_reduce
I0403 19:18:06.835753  9063 net.cpp:148] Top shape: 24 112 14 14 (526848)
I0403 19:18:06.835768  9063 net.cpp:156] Memory required for data: 954332448
I0403 19:18:06.835786  9063 layer_factory.hpp:77] Creating layer inception_4b/relu_3x3_reduce
I0403 19:18:06.835803  9063 net.cpp:91] Creating Layer inception_4b/relu_3x3_reduce
I0403 19:18:06.835819  9063 net.cpp:425] inception_4b/relu_3x3_reduce <- inception_4b/3x3_reduce
I0403 19:18:06.835839  9063 net.cpp:386] inception_4b/relu_3x3_reduce -> inception_4b/3x3_reduce (in-place)
I0403 19:18:06.836119  9063 net.cpp:141] Setting up inception_4b/relu_3x3_reduce
I0403 19:18:06.836144  9063 net.cpp:148] Top shape: 24 112 14 14 (526848)
I0403 19:18:06.836158  9063 net.cpp:156] Memory required for data: 956439840
I0403 19:18:06.836187  9063 layer_factory.hpp:77] Creating layer inception_4b/3x3
I0403 19:18:06.836215  9063 net.cpp:91] Creating Layer inception_4b/3x3
I0403 19:18:06.836233  9063 net.cpp:425] inception_4b/3x3 <- inception_4b/3x3_reduce
I0403 19:18:06.836254  9063 net.cpp:399] inception_4b/3x3 -> inception_4b/3x3
I0403 19:18:06.839265  9063 net.cpp:141] Setting up inception_4b/3x3
I0403 19:18:06.839294  9063 net.cpp:148] Top shape: 24 224 14 14 (1053696)
I0403 19:18:06.839309  9063 net.cpp:156] Memory required for data: 960654624
I0403 19:18:06.839328  9063 layer_factory.hpp:77] Creating layer inception_4b/relu_3x3
I0403 19:18:06.839347  9063 net.cpp:91] Creating Layer inception_4b/relu_3x3
I0403 19:18:06.839364  9063 net.cpp:425] inception_4b/relu_3x3 <- inception_4b/3x3
I0403 19:18:06.839380  9063 net.cpp:386] inception_4b/relu_3x3 -> inception_4b/3x3 (in-place)
I0403 19:18:06.839557  9063 net.cpp:141] Setting up inception_4b/relu_3x3
I0403 19:18:06.839583  9063 net.cpp:148] Top shape: 24 224 14 14 (1053696)
I0403 19:18:06.839599  9063 net.cpp:156] Memory required for data: 964869408
I0403 19:18:06.839613  9063 layer_factory.hpp:77] Creating layer inception_4b/5x5_reduce
I0403 19:18:06.839637  9063 net.cpp:91] Creating Layer inception_4b/5x5_reduce
I0403 19:18:06.839653  9063 net.cpp:425] inception_4b/5x5_reduce <- inception_4a/output_inception_4a/output_0_split_3
I0403 19:18:06.839671  9063 net.cpp:399] inception_4b/5x5_reduce -> inception_4b/5x5_reduce
I0403 19:18:06.840742  9063 net.cpp:141] Setting up inception_4b/5x5_reduce
I0403 19:18:06.840770  9063 net.cpp:148] Top shape: 24 24 14 14 (112896)
I0403 19:18:06.840785  9063 net.cpp:156] Memory required for data: 965320992
I0403 19:18:06.840804  9063 layer_factory.hpp:77] Creating layer inception_4b/relu_5x5_reduce
I0403 19:18:06.840824  9063 net.cpp:91] Creating Layer inception_4b/relu_5x5_reduce
I0403 19:18:06.840853  9063 net.cpp:425] inception_4b/relu_5x5_reduce <- inception_4b/5x5_reduce
I0403 19:18:06.840874  9063 net.cpp:386] inception_4b/relu_5x5_reduce -> inception_4b/5x5_reduce (in-place)
I0403 19:18:06.841058  9063 net.cpp:141] Setting up inception_4b/relu_5x5_reduce
I0403 19:18:06.841080  9063 net.cpp:148] Top shape: 24 24 14 14 (112896)
I0403 19:18:06.841094  9063 net.cpp:156] Memory required for data: 965772576
I0403 19:18:06.841109  9063 layer_factory.hpp:77] Creating layer inception_4b/5x5
I0403 19:18:06.841130  9063 net.cpp:91] Creating Layer inception_4b/5x5
I0403 19:18:06.841147  9063 net.cpp:425] inception_4b/5x5 <- inception_4b/5x5_reduce
I0403 19:18:06.841167  9063 net.cpp:399] inception_4b/5x5 -> inception_4b/5x5
I0403 19:18:06.842376  9063 net.cpp:141] Setting up inception_4b/5x5
I0403 19:18:06.842406  9063 net.cpp:148] Top shape: 24 64 14 14 (301056)
I0403 19:18:06.842422  9063 net.cpp:156] Memory required for data: 966976800
I0403 19:18:06.842439  9063 layer_factory.hpp:77] Creating layer inception_4b/relu_5x5
I0403 19:18:06.842469  9063 net.cpp:91] Creating Layer inception_4b/relu_5x5
I0403 19:18:06.842485  9063 net.cpp:425] inception_4b/relu_5x5 <- inception_4b/5x5
I0403 19:18:06.842504  9063 net.cpp:386] inception_4b/relu_5x5 -> inception_4b/5x5 (in-place)
I0403 19:18:06.842782  9063 net.cpp:141] Setting up inception_4b/relu_5x5
I0403 19:18:06.842809  9063 net.cpp:148] Top shape: 24 64 14 14 (301056)
I0403 19:18:06.842824  9063 net.cpp:156] Memory required for data: 968181024
I0403 19:18:06.842839  9063 layer_factory.hpp:77] Creating layer inception_4b/pool
I0403 19:18:06.842855  9063 net.cpp:91] Creating Layer inception_4b/pool
I0403 19:18:06.842871  9063 net.cpp:425] inception_4b/pool <- inception_4a/output_inception_4a/output_0_split_4
I0403 19:18:06.842892  9063 net.cpp:399] inception_4b/pool -> inception_4b/pool
I0403 19:18:06.842954  9063 net.cpp:141] Setting up inception_4b/pool
I0403 19:18:06.842978  9063 net.cpp:148] Top shape: 24 512 14 14 (2408448)
I0403 19:18:06.842991  9063 net.cpp:156] Memory required for data: 977814816
I0403 19:18:06.843005  9063 layer_factory.hpp:77] Creating layer inception_4b/pool_proj
I0403 19:18:06.843027  9063 net.cpp:91] Creating Layer inception_4b/pool_proj
I0403 19:18:06.843044  9063 net.cpp:425] inception_4b/pool_proj <- inception_4b/pool
I0403 19:18:06.843063  9063 net.cpp:399] inception_4b/pool_proj -> inception_4b/pool_proj
I0403 19:18:06.844244  9063 net.cpp:141] Setting up inception_4b/pool_proj
I0403 19:18:06.844275  9063 net.cpp:148] Top shape: 24 64 14 14 (301056)
I0403 19:18:06.844290  9063 net.cpp:156] Memory required for data: 979019040
I0403 19:18:06.844308  9063 layer_factory.hpp:77] Creating layer inception_4b/relu_pool_proj
I0403 19:18:06.844326  9063 net.cpp:91] Creating Layer inception_4b/relu_pool_proj
I0403 19:18:06.844341  9063 net.cpp:425] inception_4b/relu_pool_proj <- inception_4b/pool_proj
I0403 19:18:06.844360  9063 net.cpp:386] inception_4b/relu_pool_proj -> inception_4b/pool_proj (in-place)
I0403 19:18:06.844540  9063 net.cpp:141] Setting up inception_4b/relu_pool_proj
I0403 19:18:06.844564  9063 net.cpp:148] Top shape: 24 64 14 14 (301056)
I0403 19:18:06.844578  9063 net.cpp:156] Memory required for data: 980223264
I0403 19:18:06.844593  9063 layer_factory.hpp:77] Creating layer inception_4b/output
I0403 19:18:06.844609  9063 net.cpp:91] Creating Layer inception_4b/output
I0403 19:18:06.844624  9063 net.cpp:425] inception_4b/output <- inception_4b/1x1
I0403 19:18:06.844640  9063 net.cpp:425] inception_4b/output <- inception_4b/3x3
I0403 19:18:06.844655  9063 net.cpp:425] inception_4b/output <- inception_4b/5x5
I0403 19:18:06.844671  9063 net.cpp:425] inception_4b/output <- inception_4b/pool_proj
I0403 19:18:06.844689  9063 net.cpp:399] inception_4b/output -> inception_4b/output
I0403 19:18:06.844737  9063 net.cpp:141] Setting up inception_4b/output
I0403 19:18:06.844758  9063 net.cpp:148] Top shape: 24 512 14 14 (2408448)
I0403 19:18:06.844772  9063 net.cpp:156] Memory required for data: 989857056
I0403 19:18:06.844800  9063 layer_factory.hpp:77] Creating layer inception_4b/output_inception_4b/output_0_split
I0403 19:18:06.844817  9063 net.cpp:91] Creating Layer inception_4b/output_inception_4b/output_0_split
I0403 19:18:06.844832  9063 net.cpp:425] inception_4b/output_inception_4b/output_0_split <- inception_4b/output
I0403 19:18:06.844851  9063 net.cpp:399] inception_4b/output_inception_4b/output_0_split -> inception_4b/output_inception_4b/output_0_split_0
I0403 19:18:06.844871  9063 net.cpp:399] inception_4b/output_inception_4b/output_0_split -> inception_4b/output_inception_4b/output_0_split_1
I0403 19:18:06.844892  9063 net.cpp:399] inception_4b/output_inception_4b/output_0_split -> inception_4b/output_inception_4b/output_0_split_2
I0403 19:18:06.844912  9063 net.cpp:399] inception_4b/output_inception_4b/output_0_split -> inception_4b/output_inception_4b/output_0_split_3
I0403 19:18:06.844995  9063 net.cpp:141] Setting up inception_4b/output_inception_4b/output_0_split
I0403 19:18:06.845016  9063 net.cpp:148] Top shape: 24 512 14 14 (2408448)
I0403 19:18:06.845031  9063 net.cpp:148] Top shape: 24 512 14 14 (2408448)
I0403 19:18:06.845046  9063 net.cpp:148] Top shape: 24 512 14 14 (2408448)
I0403 19:18:06.845062  9063 net.cpp:148] Top shape: 24 512 14 14 (2408448)
I0403 19:18:06.845075  9063 net.cpp:156] Memory required for data: 1028392224
I0403 19:18:06.845089  9063 layer_factory.hpp:77] Creating layer inception_4c/1x1
I0403 19:18:06.845111  9063 net.cpp:91] Creating Layer inception_4c/1x1
I0403 19:18:06.845129  9063 net.cpp:425] inception_4c/1x1 <- inception_4b/output_inception_4b/output_0_split_0
I0403 19:18:06.845146  9063 net.cpp:399] inception_4c/1x1 -> inception_4c/1x1
I0403 19:18:06.846602  9063 net.cpp:141] Setting up inception_4c/1x1
I0403 19:18:06.846631  9063 net.cpp:148] Top shape: 24 128 14 14 (602112)
I0403 19:18:06.846647  9063 net.cpp:156] Memory required for data: 1030800672
I0403 19:18:06.846664  9063 layer_factory.hpp:77] Creating layer inception_4c/relu_1x1
I0403 19:18:06.846684  9063 net.cpp:91] Creating Layer inception_4c/relu_1x1
I0403 19:18:06.846701  9063 net.cpp:425] inception_4c/relu_1x1 <- inception_4c/1x1
I0403 19:18:06.846719  9063 net.cpp:386] inception_4c/relu_1x1 -> inception_4c/1x1 (in-place)
I0403 19:18:06.846901  9063 net.cpp:141] Setting up inception_4c/relu_1x1
I0403 19:18:06.846927  9063 net.cpp:148] Top shape: 24 128 14 14 (602112)
I0403 19:18:06.846943  9063 net.cpp:156] Memory required for data: 1033209120
I0403 19:18:06.846957  9063 layer_factory.hpp:77] Creating layer inception_4c/3x3_reduce
I0403 19:18:06.846979  9063 net.cpp:91] Creating Layer inception_4c/3x3_reduce
I0403 19:18:06.846997  9063 net.cpp:425] inception_4c/3x3_reduce <- inception_4b/output_inception_4b/output_0_split_1
I0403 19:18:06.847015  9063 net.cpp:399] inception_4c/3x3_reduce -> inception_4c/3x3_reduce
I0403 19:18:06.849009  9063 net.cpp:141] Setting up inception_4c/3x3_reduce
I0403 19:18:06.849038  9063 net.cpp:148] Top shape: 24 128 14 14 (602112)
I0403 19:18:06.849056  9063 net.cpp:156] Memory required for data: 1035617568
I0403 19:18:06.849074  9063 layer_factory.hpp:77] Creating layer inception_4c/relu_3x3_reduce
I0403 19:18:06.849092  9063 net.cpp:91] Creating Layer inception_4c/relu_3x3_reduce
I0403 19:18:06.849107  9063 net.cpp:425] inception_4c/relu_3x3_reduce <- inception_4c/3x3_reduce
I0403 19:18:06.849124  9063 net.cpp:386] inception_4c/relu_3x3_reduce -> inception_4c/3x3_reduce (in-place)
I0403 19:18:06.849418  9063 net.cpp:141] Setting up inception_4c/relu_3x3_reduce
I0403 19:18:06.849447  9063 net.cpp:148] Top shape: 24 128 14 14 (602112)
I0403 19:18:06.849462  9063 net.cpp:156] Memory required for data: 1038026016
I0403 19:18:06.849478  9063 layer_factory.hpp:77] Creating layer inception_4c/3x3
I0403 19:18:06.849501  9063 net.cpp:91] Creating Layer inception_4c/3x3
I0403 19:18:06.849519  9063 net.cpp:425] inception_4c/3x3 <- inception_4c/3x3_reduce
I0403 19:18:06.849537  9063 net.cpp:399] inception_4c/3x3 -> inception_4c/3x3
I0403 19:18:06.853193  9063 net.cpp:141] Setting up inception_4c/3x3
I0403 19:18:06.853243  9063 net.cpp:148] Top shape: 24 256 14 14 (1204224)
I0403 19:18:06.853260  9063 net.cpp:156] Memory required for data: 1042842912
I0403 19:18:06.853292  9063 layer_factory.hpp:77] Creating layer inception_4c/relu_3x3
I0403 19:18:06.853314  9063 net.cpp:91] Creating Layer inception_4c/relu_3x3
I0403 19:18:06.853330  9063 net.cpp:425] inception_4c/relu_3x3 <- inception_4c/3x3
I0403 19:18:06.853350  9063 net.cpp:386] inception_4c/relu_3x3 -> inception_4c/3x3 (in-place)
I0403 19:18:06.853533  9063 net.cpp:141] Setting up inception_4c/relu_3x3
I0403 19:18:06.853559  9063 net.cpp:148] Top shape: 24 256 14 14 (1204224)
I0403 19:18:06.853574  9063 net.cpp:156] Memory required for data: 1047659808
I0403 19:18:06.853587  9063 layer_factory.hpp:77] Creating layer inception_4c/5x5_reduce
I0403 19:18:06.853611  9063 net.cpp:91] Creating Layer inception_4c/5x5_reduce
I0403 19:18:06.853629  9063 net.cpp:425] inception_4c/5x5_reduce <- inception_4b/output_inception_4b/output_0_split_2
I0403 19:18:06.853651  9063 net.cpp:399] inception_4c/5x5_reduce -> inception_4c/5x5_reduce
I0403 19:18:06.854750  9063 net.cpp:141] Setting up inception_4c/5x5_reduce
I0403 19:18:06.854782  9063 net.cpp:148] Top shape: 24 24 14 14 (112896)
I0403 19:18:06.854799  9063 net.cpp:156] Memory required for data: 1048111392
I0403 19:18:06.854816  9063 layer_factory.hpp:77] Creating layer inception_4c/relu_5x5_reduce
I0403 19:18:06.854835  9063 net.cpp:91] Creating Layer inception_4c/relu_5x5_reduce
I0403 19:18:06.854851  9063 net.cpp:425] inception_4c/relu_5x5_reduce <- inception_4c/5x5_reduce
I0403 19:18:06.854871  9063 net.cpp:386] inception_4c/relu_5x5_reduce -> inception_4c/5x5_reduce (in-place)
I0403 19:18:06.855062  9063 net.cpp:141] Setting up inception_4c/relu_5x5_reduce
I0403 19:18:06.855087  9063 net.cpp:148] Top shape: 24 24 14 14 (112896)
I0403 19:18:06.855101  9063 net.cpp:156] Memory required for data: 1048562976
I0403 19:18:06.855116  9063 layer_factory.hpp:77] Creating layer inception_4c/5x5
I0403 19:18:06.855139  9063 net.cpp:91] Creating Layer inception_4c/5x5
I0403 19:18:06.855156  9063 net.cpp:425] inception_4c/5x5 <- inception_4c/5x5_reduce
I0403 19:18:06.855177  9063 net.cpp:399] inception_4c/5x5 -> inception_4c/5x5
I0403 19:18:06.856534  9063 net.cpp:141] Setting up inception_4c/5x5
I0403 19:18:06.856564  9063 net.cpp:148] Top shape: 24 64 14 14 (301056)
I0403 19:18:06.856580  9063 net.cpp:156] Memory required for data: 1049767200
I0403 19:18:06.856600  9063 layer_factory.hpp:77] Creating layer inception_4c/relu_5x5
I0403 19:18:06.856622  9063 net.cpp:91] Creating Layer inception_4c/relu_5x5
I0403 19:18:06.856652  9063 net.cpp:425] inception_4c/relu_5x5 <- inception_4c/5x5
I0403 19:18:06.856672  9063 net.cpp:386] inception_4c/relu_5x5 -> inception_4c/5x5 (in-place)
I0403 19:18:06.856991  9063 net.cpp:141] Setting up inception_4c/relu_5x5
I0403 19:18:06.857028  9063 net.cpp:148] Top shape: 24 64 14 14 (301056)
I0403 19:18:06.857043  9063 net.cpp:156] Memory required for data: 1050971424
I0403 19:18:06.857059  9063 layer_factory.hpp:77] Creating layer inception_4c/pool
I0403 19:18:06.857075  9063 net.cpp:91] Creating Layer inception_4c/pool
I0403 19:18:06.857092  9063 net.cpp:425] inception_4c/pool <- inception_4b/output_inception_4b/output_0_split_3
I0403 19:18:06.857113  9063 net.cpp:399] inception_4c/pool -> inception_4c/pool
I0403 19:18:06.857179  9063 net.cpp:141] Setting up inception_4c/pool
I0403 19:18:06.857203  9063 net.cpp:148] Top shape: 24 512 14 14 (2408448)
I0403 19:18:06.857223  9063 net.cpp:156] Memory required for data: 1060605216
I0403 19:18:06.857239  9063 layer_factory.hpp:77] Creating layer inception_4c/pool_proj
I0403 19:18:06.857264  9063 net.cpp:91] Creating Layer inception_4c/pool_proj
I0403 19:18:06.857281  9063 net.cpp:425] inception_4c/pool_proj <- inception_4c/pool
I0403 19:18:06.857300  9063 net.cpp:399] inception_4c/pool_proj -> inception_4c/pool_proj
I0403 19:18:06.858587  9063 net.cpp:141] Setting up inception_4c/pool_proj
I0403 19:18:06.858618  9063 net.cpp:148] Top shape: 24 64 14 14 (301056)
I0403 19:18:06.858649  9063 net.cpp:156] Memory required for data: 1061809440
I0403 19:18:06.858669  9063 layer_factory.hpp:77] Creating layer inception_4c/relu_pool_proj
I0403 19:18:06.858687  9063 net.cpp:91] Creating Layer inception_4c/relu_pool_proj
I0403 19:18:06.858705  9063 net.cpp:425] inception_4c/relu_pool_proj <- inception_4c/pool_proj
I0403 19:18:06.858724  9063 net.cpp:386] inception_4c/relu_pool_proj -> inception_4c/pool_proj (in-place)
I0403 19:18:06.858924  9063 net.cpp:141] Setting up inception_4c/relu_pool_proj
I0403 19:18:06.858948  9063 net.cpp:148] Top shape: 24 64 14 14 (301056)
I0403 19:18:06.858963  9063 net.cpp:156] Memory required for data: 1063013664
I0403 19:18:06.858978  9063 layer_factory.hpp:77] Creating layer inception_4c/output
I0403 19:18:06.858994  9063 net.cpp:91] Creating Layer inception_4c/output
I0403 19:18:06.859010  9063 net.cpp:425] inception_4c/output <- inception_4c/1x1
I0403 19:18:06.859038  9063 net.cpp:425] inception_4c/output <- inception_4c/3x3
I0403 19:18:06.859055  9063 net.cpp:425] inception_4c/output <- inception_4c/5x5
I0403 19:18:06.859071  9063 net.cpp:425] inception_4c/output <- inception_4c/pool_proj
I0403 19:18:06.859091  9063 net.cpp:399] inception_4c/output -> inception_4c/output
I0403 19:18:06.859138  9063 net.cpp:141] Setting up inception_4c/output
I0403 19:18:06.859177  9063 net.cpp:148] Top shape: 24 512 14 14 (2408448)
I0403 19:18:06.859195  9063 net.cpp:156] Memory required for data: 1072647456
I0403 19:18:06.859215  9063 layer_factory.hpp:77] Creating layer inception_4c/output_inception_4c/output_0_split
I0403 19:18:06.859236  9063 net.cpp:91] Creating Layer inception_4c/output_inception_4c/output_0_split
I0403 19:18:06.859251  9063 net.cpp:425] inception_4c/output_inception_4c/output_0_split <- inception_4c/output
I0403 19:18:06.859271  9063 net.cpp:399] inception_4c/output_inception_4c/output_0_split -> inception_4c/output_inception_4c/output_0_split_0
I0403 19:18:06.859294  9063 net.cpp:399] inception_4c/output_inception_4c/output_0_split -> inception_4c/output_inception_4c/output_0_split_1
I0403 19:18:06.859329  9063 net.cpp:399] inception_4c/output_inception_4c/output_0_split -> inception_4c/output_inception_4c/output_0_split_2
I0403 19:18:06.859352  9063 net.cpp:399] inception_4c/output_inception_4c/output_0_split -> inception_4c/output_inception_4c/output_0_split_3
I0403 19:18:06.859447  9063 net.cpp:141] Setting up inception_4c/output_inception_4c/output_0_split
I0403 19:18:06.859483  9063 net.cpp:148] Top shape: 24 512 14 14 (2408448)
I0403 19:18:06.859498  9063 net.cpp:148] Top shape: 24 512 14 14 (2408448)
I0403 19:18:06.859514  9063 net.cpp:148] Top shape: 24 512 14 14 (2408448)
I0403 19:18:06.859529  9063 net.cpp:148] Top shape: 24 512 14 14 (2408448)
I0403 19:18:06.859544  9063 net.cpp:156] Memory required for data: 1111182624
I0403 19:18:06.859557  9063 layer_factory.hpp:77] Creating layer inception_4d/1x1
I0403 19:18:06.859580  9063 net.cpp:91] Creating Layer inception_4d/1x1
I0403 19:18:06.859598  9063 net.cpp:425] inception_4d/1x1 <- inception_4c/output_inception_4c/output_0_split_0
I0403 19:18:06.859630  9063 net.cpp:399] inception_4d/1x1 -> inception_4d/1x1
I0403 19:18:06.861135  9063 net.cpp:141] Setting up inception_4d/1x1
I0403 19:18:06.861165  9063 net.cpp:148] Top shape: 24 112 14 14 (526848)
I0403 19:18:06.861181  9063 net.cpp:156] Memory required for data: 1113290016
I0403 19:18:06.861202  9063 layer_factory.hpp:77] Creating layer inception_4d/relu_1x1
I0403 19:18:06.861228  9063 net.cpp:91] Creating Layer inception_4d/relu_1x1
I0403 19:18:06.861248  9063 net.cpp:425] inception_4d/relu_1x1 <- inception_4d/1x1
I0403 19:18:06.861265  9063 net.cpp:386] inception_4d/relu_1x1 -> inception_4d/1x1 (in-place)
I0403 19:18:06.861505  9063 net.cpp:141] Setting up inception_4d/relu_1x1
I0403 19:18:06.861532  9063 net.cpp:148] Top shape: 24 112 14 14 (526848)
I0403 19:18:06.861547  9063 net.cpp:156] Memory required for data: 1115397408
I0403 19:18:06.861563  9063 layer_factory.hpp:77] Creating layer inception_4d/3x3_reduce
I0403 19:18:06.861600  9063 net.cpp:91] Creating Layer inception_4d/3x3_reduce
I0403 19:18:06.861618  9063 net.cpp:425] inception_4d/3x3_reduce <- inception_4c/output_inception_4c/output_0_split_1
I0403 19:18:06.861640  9063 net.cpp:399] inception_4d/3x3_reduce -> inception_4d/3x3_reduce
I0403 19:18:06.863262  9063 net.cpp:141] Setting up inception_4d/3x3_reduce
I0403 19:18:06.863291  9063 net.cpp:148] Top shape: 24 144 14 14 (677376)
I0403 19:18:06.863306  9063 net.cpp:156] Memory required for data: 1118106912
I0403 19:18:06.863323  9063 layer_factory.hpp:77] Creating layer inception_4d/relu_3x3_reduce
I0403 19:18:06.863343  9063 net.cpp:91] Creating Layer inception_4d/relu_3x3_reduce
I0403 19:18:06.863360  9063 net.cpp:425] inception_4d/relu_3x3_reduce <- inception_4d/3x3_reduce
I0403 19:18:06.863379  9063 net.cpp:386] inception_4d/relu_3x3_reduce -> inception_4d/3x3_reduce (in-place)
I0403 19:18:06.863679  9063 net.cpp:141] Setting up inception_4d/relu_3x3_reduce
I0403 19:18:06.863705  9063 net.cpp:148] Top shape: 24 144 14 14 (677376)
I0403 19:18:06.863732  9063 net.cpp:156] Memory required for data: 1120816416
I0403 19:18:06.863749  9063 layer_factory.hpp:77] Creating layer inception_4d/3x3
I0403 19:18:06.863771  9063 net.cpp:91] Creating Layer inception_4d/3x3
I0403 19:18:06.863803  9063 net.cpp:425] inception_4d/3x3 <- inception_4d/3x3_reduce
I0403 19:18:06.863826  9063 net.cpp:399] inception_4d/3x3 -> inception_4d/3x3
I0403 19:18:06.868247  9063 net.cpp:141] Setting up inception_4d/3x3
I0403 19:18:06.868276  9063 net.cpp:148] Top shape: 24 288 14 14 (1354752)
I0403 19:18:06.868293  9063 net.cpp:156] Memory required for data: 1126235424
I0403 19:18:06.868310  9063 layer_factory.hpp:77] Creating layer inception_4d/relu_3x3
I0403 19:18:06.868327  9063 net.cpp:91] Creating Layer inception_4d/relu_3x3
I0403 19:18:06.868343  9063 net.cpp:425] inception_4d/relu_3x3 <- inception_4d/3x3
I0403 19:18:06.868360  9063 net.cpp:386] inception_4d/relu_3x3 -> inception_4d/3x3 (in-place)
I0403 19:18:06.868546  9063 net.cpp:141] Setting up inception_4d/relu_3x3
I0403 19:18:06.868572  9063 net.cpp:148] Top shape: 24 288 14 14 (1354752)
I0403 19:18:06.868587  9063 net.cpp:156] Memory required for data: 1131654432
I0403 19:18:06.868602  9063 layer_factory.hpp:77] Creating layer inception_4d/5x5_reduce
I0403 19:18:06.868623  9063 net.cpp:91] Creating Layer inception_4d/5x5_reduce
I0403 19:18:06.868651  9063 net.cpp:425] inception_4d/5x5_reduce <- inception_4c/output_inception_4c/output_0_split_2
I0403 19:18:06.868674  9063 net.cpp:399] inception_4d/5x5_reduce -> inception_4d/5x5_reduce
I0403 19:18:06.869882  9063 net.cpp:141] Setting up inception_4d/5x5_reduce
I0403 19:18:06.869910  9063 net.cpp:148] Top shape: 24 32 14 14 (150528)
I0403 19:18:06.869925  9063 net.cpp:156] Memory required for data: 1132256544
I0403 19:18:06.869943  9063 layer_factory.hpp:77] Creating layer inception_4d/relu_5x5_reduce
I0403 19:18:06.869976  9063 net.cpp:91] Creating Layer inception_4d/relu_5x5_reduce
I0403 19:18:06.869993  9063 net.cpp:425] inception_4d/relu_5x5_reduce <- inception_4d/5x5_reduce
I0403 19:18:06.870009  9063 net.cpp:386] inception_4d/relu_5x5_reduce -> inception_4d/5x5_reduce (in-place)
I0403 19:18:06.870193  9063 net.cpp:141] Setting up inception_4d/relu_5x5_reduce
I0403 19:18:06.870224  9063 net.cpp:148] Top shape: 24 32 14 14 (150528)
I0403 19:18:06.870240  9063 net.cpp:156] Memory required for data: 1132858656
I0403 19:18:06.870254  9063 layer_factory.hpp:77] Creating layer inception_4d/5x5
I0403 19:18:06.870276  9063 net.cpp:91] Creating Layer inception_4d/5x5
I0403 19:18:06.870293  9063 net.cpp:425] inception_4d/5x5 <- inception_4d/5x5_reduce
I0403 19:18:06.870313  9063 net.cpp:399] inception_4d/5x5 -> inception_4d/5x5
I0403 19:18:06.871822  9063 net.cpp:141] Setting up inception_4d/5x5
I0403 19:18:06.871850  9063 net.cpp:148] Top shape: 24 64 14 14 (301056)
I0403 19:18:06.871865  9063 net.cpp:156] Memory required for data: 1134062880
I0403 19:18:06.871883  9063 layer_factory.hpp:77] Creating layer inception_4d/relu_5x5
I0403 19:18:06.871915  9063 net.cpp:91] Creating Layer inception_4d/relu_5x5
I0403 19:18:06.871932  9063 net.cpp:425] inception_4d/relu_5x5 <- inception_4d/5x5
I0403 19:18:06.871950  9063 net.cpp:386] inception_4d/relu_5x5 -> inception_4d/5x5 (in-place)
I0403 19:18:06.872265  9063 net.cpp:141] Setting up inception_4d/relu_5x5
I0403 19:18:06.872292  9063 net.cpp:148] Top shape: 24 64 14 14 (301056)
I0403 19:18:06.872305  9063 net.cpp:156] Memory required for data: 1135267104
I0403 19:18:06.872320  9063 layer_factory.hpp:77] Creating layer inception_4d/pool
I0403 19:18:06.872339  9063 net.cpp:91] Creating Layer inception_4d/pool
I0403 19:18:06.872354  9063 net.cpp:425] inception_4d/pool <- inception_4c/output_inception_4c/output_0_split_3
I0403 19:18:06.872373  9063 net.cpp:399] inception_4d/pool -> inception_4d/pool
I0403 19:18:06.872440  9063 net.cpp:141] Setting up inception_4d/pool
I0403 19:18:06.872463  9063 net.cpp:148] Top shape: 24 512 14 14 (2408448)
I0403 19:18:06.872478  9063 net.cpp:156] Memory required for data: 1144900896
I0403 19:18:06.872493  9063 layer_factory.hpp:77] Creating layer inception_4d/pool_proj
I0403 19:18:06.872515  9063 net.cpp:91] Creating Layer inception_4d/pool_proj
I0403 19:18:06.872532  9063 net.cpp:425] inception_4d/pool_proj <- inception_4d/pool
I0403 19:18:06.872550  9063 net.cpp:399] inception_4d/pool_proj -> inception_4d/pool_proj
I0403 19:18:06.874333  9063 net.cpp:141] Setting up inception_4d/pool_proj
I0403 19:18:06.874364  9063 net.cpp:148] Top shape: 24 64 14 14 (301056)
I0403 19:18:06.874382  9063 net.cpp:156] Memory required for data: 1146105120
I0403 19:18:06.874399  9063 layer_factory.hpp:77] Creating layer inception_4d/relu_pool_proj
I0403 19:18:06.874416  9063 net.cpp:91] Creating Layer inception_4d/relu_pool_proj
I0403 19:18:06.874433  9063 net.cpp:425] inception_4d/relu_pool_proj <- inception_4d/pool_proj
I0403 19:18:06.874450  9063 net.cpp:386] inception_4d/relu_pool_proj -> inception_4d/pool_proj (in-place)
I0403 19:18:06.874640  9063 net.cpp:141] Setting up inception_4d/relu_pool_proj
I0403 19:18:06.874666  9063 net.cpp:148] Top shape: 24 64 14 14 (301056)
I0403 19:18:06.874682  9063 net.cpp:156] Memory required for data: 1147309344
I0403 19:18:06.874697  9063 layer_factory.hpp:77] Creating layer inception_4d/output
I0403 19:18:06.874716  9063 net.cpp:91] Creating Layer inception_4d/output
I0403 19:18:06.874732  9063 net.cpp:425] inception_4d/output <- inception_4d/1x1
I0403 19:18:06.874747  9063 net.cpp:425] inception_4d/output <- inception_4d/3x3
I0403 19:18:06.874763  9063 net.cpp:425] inception_4d/output <- inception_4d/5x5
I0403 19:18:06.874779  9063 net.cpp:425] inception_4d/output <- inception_4d/pool_proj
I0403 19:18:06.874799  9063 net.cpp:399] inception_4d/output -> inception_4d/output
I0403 19:18:06.874845  9063 net.cpp:141] Setting up inception_4d/output
I0403 19:18:06.874869  9063 net.cpp:148] Top shape: 24 528 14 14 (2483712)
I0403 19:18:06.874883  9063 net.cpp:156] Memory required for data: 1157244192
I0403 19:18:06.874898  9063 layer_factory.hpp:77] Creating layer inception_4d/output_inception_4d/output_0_split
I0403 19:18:06.874918  9063 net.cpp:91] Creating Layer inception_4d/output_inception_4d/output_0_split
I0403 19:18:06.874935  9063 net.cpp:425] inception_4d/output_inception_4d/output_0_split <- inception_4d/output
I0403 19:18:06.874953  9063 net.cpp:399] inception_4d/output_inception_4d/output_0_split -> inception_4d/output_inception_4d/output_0_split_0
I0403 19:18:06.874977  9063 net.cpp:399] inception_4d/output_inception_4d/output_0_split -> inception_4d/output_inception_4d/output_0_split_1
I0403 19:18:06.874997  9063 net.cpp:399] inception_4d/output_inception_4d/output_0_split -> inception_4d/output_inception_4d/output_0_split_2
I0403 19:18:06.875018  9063 net.cpp:399] inception_4d/output_inception_4d/output_0_split -> inception_4d/output_inception_4d/output_0_split_3
I0403 19:18:06.875038  9063 net.cpp:399] inception_4d/output_inception_4d/output_0_split -> inception_4d/output_inception_4d/output_0_split_4
I0403 19:18:06.875144  9063 net.cpp:141] Setting up inception_4d/output_inception_4d/output_0_split
I0403 19:18:06.875180  9063 net.cpp:148] Top shape: 24 528 14 14 (2483712)
I0403 19:18:06.875196  9063 net.cpp:148] Top shape: 24 528 14 14 (2483712)
I0403 19:18:06.875218  9063 net.cpp:148] Top shape: 24 528 14 14 (2483712)
I0403 19:18:06.875236  9063 net.cpp:148] Top shape: 24 528 14 14 (2483712)
I0403 19:18:06.875252  9063 net.cpp:148] Top shape: 24 528 14 14 (2483712)
I0403 19:18:06.875267  9063 net.cpp:156] Memory required for data: 1206918432
I0403 19:18:06.875282  9063 layer_factory.hpp:77] Creating layer loss2/ave_pool
I0403 19:18:06.875301  9063 net.cpp:91] Creating Layer loss2/ave_pool
I0403 19:18:06.875318  9063 net.cpp:425] loss2/ave_pool <- inception_4d/output_inception_4d/output_0_split_0
I0403 19:18:06.875336  9063 net.cpp:399] loss2/ave_pool -> loss2/ave_pool
I0403 19:18:06.875648  9063 net.cpp:141] Setting up loss2/ave_pool
I0403 19:18:06.875676  9063 net.cpp:148] Top shape: 24 528 4 4 (202752)
I0403 19:18:06.875692  9063 net.cpp:156] Memory required for data: 1207729440
I0403 19:18:06.875707  9063 layer_factory.hpp:77] Creating layer loss2/conv
I0403 19:18:06.875730  9063 net.cpp:91] Creating Layer loss2/conv
I0403 19:18:06.875747  9063 net.cpp:425] loss2/conv <- loss2/ave_pool
I0403 19:18:06.875767  9063 net.cpp:399] loss2/conv -> loss2/conv
I0403 19:18:06.877722  9063 net.cpp:141] Setting up loss2/conv
I0403 19:18:06.877750  9063 net.cpp:148] Top shape: 24 128 4 4 (49152)
I0403 19:18:06.877766  9063 net.cpp:156] Memory required for data: 1207926048
I0403 19:18:06.877785  9063 layer_factory.hpp:77] Creating layer loss2/relu_conv
I0403 19:18:06.877804  9063 net.cpp:91] Creating Layer loss2/relu_conv
I0403 19:18:06.877822  9063 net.cpp:425] loss2/relu_conv <- loss2/conv
I0403 19:18:06.877840  9063 net.cpp:386] loss2/relu_conv -> loss2/conv (in-place)
I0403 19:18:06.878134  9063 net.cpp:141] Setting up loss2/relu_conv
I0403 19:18:06.878159  9063 net.cpp:148] Top shape: 24 128 4 4 (49152)
I0403 19:18:06.878175  9063 net.cpp:156] Memory required for data: 1208122656
I0403 19:18:06.878196  9063 layer_factory.hpp:77] Creating layer loss2/fc
I0403 19:18:06.878228  9063 net.cpp:91] Creating Layer loss2/fc
I0403 19:18:06.878255  9063 net.cpp:425] loss2/fc <- loss2/conv
I0403 19:18:06.878281  9063 net.cpp:399] loss2/fc -> loss2/fc
I0403 19:18:06.897167  9063 net.cpp:141] Setting up loss2/fc
I0403 19:18:06.897250  9063 net.cpp:148] Top shape: 24 1024 (24576)
I0403 19:18:06.897272  9063 net.cpp:156] Memory required for data: 1208220960
I0403 19:18:06.897300  9063 layer_factory.hpp:77] Creating layer loss2/relu_fc
I0403 19:18:06.897330  9063 net.cpp:91] Creating Layer loss2/relu_fc
I0403 19:18:06.897351  9063 net.cpp:425] loss2/relu_fc <- loss2/fc
I0403 19:18:06.897380  9063 net.cpp:386] loss2/relu_fc -> loss2/fc (in-place)
I0403 19:18:06.897778  9063 net.cpp:141] Setting up loss2/relu_fc
I0403 19:18:06.897809  9063 net.cpp:148] Top shape: 24 1024 (24576)
I0403 19:18:06.897826  9063 net.cpp:156] Memory required for data: 1208319264
I0403 19:18:06.897842  9063 layer_factory.hpp:77] Creating layer loss2/drop_fc
I0403 19:18:06.897861  9063 net.cpp:91] Creating Layer loss2/drop_fc
I0403 19:18:06.897879  9063 net.cpp:425] loss2/drop_fc <- loss2/fc
I0403 19:18:06.897900  9063 net.cpp:386] loss2/drop_fc -> loss2/fc (in-place)
I0403 19:18:06.897955  9063 net.cpp:141] Setting up loss2/drop_fc
I0403 19:18:06.897979  9063 net.cpp:148] Top shape: 24 1024 (24576)
I0403 19:18:06.897994  9063 net.cpp:156] Memory required for data: 1208417568
I0403 19:18:06.898010  9063 layer_factory.hpp:77] Creating layer loss2/classifier_plantvillage
I0403 19:18:06.898033  9063 net.cpp:91] Creating Layer loss2/classifier_plantvillage
I0403 19:18:06.898052  9063 net.cpp:425] loss2/classifier_plantvillage <- loss2/fc
I0403 19:18:06.898074  9063 net.cpp:399] loss2/classifier_plantvillage -> loss2/classifier_plantvillage
I0403 19:18:06.898520  9063 net.cpp:141] Setting up loss2/classifier_plantvillage
I0403 19:18:06.898546  9063 net.cpp:148] Top shape: 24 38 (912)
I0403 19:18:06.898591  9063 net.cpp:156] Memory required for data: 1208421216
I0403 19:18:06.898610  9063 layer_factory.hpp:77] Creating layer loss2/classifier_plantvillage_loss2/classifier_plantvillage_0_split
I0403 19:18:06.898629  9063 net.cpp:91] Creating Layer loss2/classifier_plantvillage_loss2/classifier_plantvillage_0_split
I0403 19:18:06.898650  9063 net.cpp:425] loss2/classifier_plantvillage_loss2/classifier_plantvillage_0_split <- loss2/classifier_plantvillage
I0403 19:18:06.898669  9063 net.cpp:399] loss2/classifier_plantvillage_loss2/classifier_plantvillage_0_split -> loss2/classifier_plantvillage_loss2/classifier_plantvillage_0_split_0
I0403 19:18:06.898690  9063 net.cpp:399] loss2/classifier_plantvillage_loss2/classifier_plantvillage_0_split -> loss2/classifier_plantvillage_loss2/classifier_plantvillage_0_split_1
I0403 19:18:06.898712  9063 net.cpp:399] loss2/classifier_plantvillage_loss2/classifier_plantvillage_0_split -> loss2/classifier_plantvillage_loss2/classifier_plantvillage_0_split_2
I0403 19:18:06.898797  9063 net.cpp:141] Setting up loss2/classifier_plantvillage_loss2/classifier_plantvillage_0_split
I0403 19:18:06.898823  9063 net.cpp:148] Top shape: 24 38 (912)
I0403 19:18:06.898841  9063 net.cpp:148] Top shape: 24 38 (912)
I0403 19:18:06.898859  9063 net.cpp:148] Top shape: 24 38 (912)
I0403 19:18:06.898872  9063 net.cpp:156] Memory required for data: 1208432160
I0403 19:18:06.898888  9063 layer_factory.hpp:77] Creating layer inception_4e/1x1
I0403 19:18:06.898910  9063 net.cpp:91] Creating Layer inception_4e/1x1
I0403 19:18:06.898929  9063 net.cpp:425] inception_4e/1x1 <- inception_4d/output_inception_4d/output_0_split_1
I0403 19:18:06.898952  9063 net.cpp:399] inception_4e/1x1 -> inception_4e/1x1
I0403 19:18:06.901031  9063 net.cpp:141] Setting up inception_4e/1x1
I0403 19:18:06.901059  9063 net.cpp:148] Top shape: 24 256 14 14 (1204224)
I0403 19:18:06.901075  9063 net.cpp:156] Memory required for data: 1213249056
I0403 19:18:06.901094  9063 layer_factory.hpp:77] Creating layer inception_4e/relu_1x1
I0403 19:18:06.901113  9063 net.cpp:91] Creating Layer inception_4e/relu_1x1
I0403 19:18:06.901129  9063 net.cpp:425] inception_4e/relu_1x1 <- inception_4e/1x1
I0403 19:18:06.901149  9063 net.cpp:386] inception_4e/relu_1x1 -> inception_4e/1x1 (in-place)
I0403 19:18:06.901468  9063 net.cpp:141] Setting up inception_4e/relu_1x1
I0403 19:18:06.901495  9063 net.cpp:148] Top shape: 24 256 14 14 (1204224)
I0403 19:18:06.901511  9063 net.cpp:156] Memory required for data: 1218065952
I0403 19:18:06.901527  9063 layer_factory.hpp:77] Creating layer inception_4e/3x3_reduce
I0403 19:18:06.901551  9063 net.cpp:91] Creating Layer inception_4e/3x3_reduce
I0403 19:18:06.901569  9063 net.cpp:425] inception_4e/3x3_reduce <- inception_4d/output_inception_4d/output_0_split_2
I0403 19:18:06.901592  9063 net.cpp:399] inception_4e/3x3_reduce -> inception_4e/3x3_reduce
I0403 19:18:06.903966  9063 net.cpp:141] Setting up inception_4e/3x3_reduce
I0403 19:18:06.903998  9063 net.cpp:148] Top shape: 24 160 14 14 (752640)
I0403 19:18:06.904016  9063 net.cpp:156] Memory required for data: 1221076512
I0403 19:18:06.904036  9063 layer_factory.hpp:77] Creating layer inception_4e/relu_3x3_reduce
I0403 19:18:06.904054  9063 net.cpp:91] Creating Layer inception_4e/relu_3x3_reduce
I0403 19:18:06.904072  9063 net.cpp:425] inception_4e/relu_3x3_reduce <- inception_4e/3x3_reduce
I0403 19:18:06.904093  9063 net.cpp:386] inception_4e/relu_3x3_reduce -> inception_4e/3x3_reduce (in-place)
I0403 19:18:06.904314  9063 net.cpp:141] Setting up inception_4e/relu_3x3_reduce
I0403 19:18:06.904340  9063 net.cpp:148] Top shape: 24 160 14 14 (752640)
I0403 19:18:06.904356  9063 net.cpp:156] Memory required for data: 1224087072
I0403 19:18:06.904371  9063 layer_factory.hpp:77] Creating layer inception_4e/3x3
I0403 19:18:06.904405  9063 net.cpp:91] Creating Layer inception_4e/3x3
I0403 19:18:06.904424  9063 net.cpp:425] inception_4e/3x3 <- inception_4e/3x3_reduce
I0403 19:18:06.904448  9063 net.cpp:399] inception_4e/3x3 -> inception_4e/3x3
I0403 19:18:06.909804  9063 net.cpp:141] Setting up inception_4e/3x3
I0403 19:18:06.909847  9063 net.cpp:148] Top shape: 24 320 14 14 (1505280)
I0403 19:18:06.909876  9063 net.cpp:156] Memory required for data: 1230108192
I0403 19:18:06.909895  9063 layer_factory.hpp:77] Creating layer inception_4e/relu_3x3
I0403 19:18:06.909916  9063 net.cpp:91] Creating Layer inception_4e/relu_3x3
I0403 19:18:06.909935  9063 net.cpp:425] inception_4e/relu_3x3 <- inception_4e/3x3
I0403 19:18:06.909953  9063 net.cpp:386] inception_4e/relu_3x3 -> inception_4e/3x3 (in-place)
I0403 19:18:06.910285  9063 net.cpp:141] Setting up inception_4e/relu_3x3
I0403 19:18:06.910313  9063 net.cpp:148] Top shape: 24 320 14 14 (1505280)
I0403 19:18:06.910331  9063 net.cpp:156] Memory required for data: 1236129312
I0403 19:18:06.910346  9063 layer_factory.hpp:77] Creating layer inception_4e/5x5_reduce
I0403 19:18:06.910372  9063 net.cpp:91] Creating Layer inception_4e/5x5_reduce
I0403 19:18:06.910403  9063 net.cpp:425] inception_4e/5x5_reduce <- inception_4d/output_inception_4d/output_0_split_3
I0403 19:18:06.910423  9063 net.cpp:399] inception_4e/5x5_reduce -> inception_4e/5x5_reduce
I0403 19:18:06.911579  9063 net.cpp:141] Setting up inception_4e/5x5_reduce
I0403 19:18:06.911608  9063 net.cpp:148] Top shape: 24 32 14 14 (150528)
I0403 19:18:06.911624  9063 net.cpp:156] Memory required for data: 1236731424
I0403 19:18:06.911656  9063 layer_factory.hpp:77] Creating layer inception_4e/relu_5x5_reduce
I0403 19:18:06.911675  9063 net.cpp:91] Creating Layer inception_4e/relu_5x5_reduce
I0403 19:18:06.911692  9063 net.cpp:425] inception_4e/relu_5x5_reduce <- inception_4e/5x5_reduce
I0403 19:18:06.911712  9063 net.cpp:386] inception_4e/relu_5x5_reduce -> inception_4e/5x5_reduce (in-place)
I0403 19:18:06.912032  9063 net.cpp:141] Setting up inception_4e/relu_5x5_reduce
I0403 19:18:06.912058  9063 net.cpp:148] Top shape: 24 32 14 14 (150528)
I0403 19:18:06.912073  9063 net.cpp:156] Memory required for data: 1237333536
I0403 19:18:06.912096  9063 layer_factory.hpp:77] Creating layer inception_4e/5x5
I0403 19:18:06.912142  9063 net.cpp:91] Creating Layer inception_4e/5x5
I0403 19:18:06.912163  9063 net.cpp:425] inception_4e/5x5 <- inception_4e/5x5_reduce
I0403 19:18:06.912183  9063 net.cpp:399] inception_4e/5x5 -> inception_4e/5x5
I0403 19:18:06.914193  9063 net.cpp:141] Setting up inception_4e/5x5
I0403 19:18:06.914232  9063 net.cpp:148] Top shape: 24 128 14 14 (602112)
I0403 19:18:06.914250  9063 net.cpp:156] Memory required for data: 1239741984
I0403 19:18:06.914269  9063 layer_factory.hpp:77] Creating layer inception_4e/relu_5x5
I0403 19:18:06.914288  9063 net.cpp:91] Creating Layer inception_4e/relu_5x5
I0403 19:18:06.914305  9063 net.cpp:425] inception_4e/relu_5x5 <- inception_4e/5x5
I0403 19:18:06.914324  9063 net.cpp:386] inception_4e/relu_5x5 -> inception_4e/5x5 (in-place)
I0403 19:18:06.914532  9063 net.cpp:141] Setting up inception_4e/relu_5x5
I0403 19:18:06.914557  9063 net.cpp:148] Top shape: 24 128 14 14 (602112)
I0403 19:18:06.914572  9063 net.cpp:156] Memory required for data: 1242150432
I0403 19:18:06.914587  9063 layer_factory.hpp:77] Creating layer inception_4e/pool
I0403 19:18:06.914605  9063 net.cpp:91] Creating Layer inception_4e/pool
I0403 19:18:06.914621  9063 net.cpp:425] inception_4e/pool <- inception_4d/output_inception_4d/output_0_split_4
I0403 19:18:06.914643  9063 net.cpp:399] inception_4e/pool -> inception_4e/pool
I0403 19:18:06.914716  9063 net.cpp:141] Setting up inception_4e/pool
I0403 19:18:06.914741  9063 net.cpp:148] Top shape: 24 528 14 14 (2483712)
I0403 19:18:06.914757  9063 net.cpp:156] Memory required for data: 1252085280
I0403 19:18:06.914772  9063 layer_factory.hpp:77] Creating layer inception_4e/pool_proj
I0403 19:18:06.914796  9063 net.cpp:91] Creating Layer inception_4e/pool_proj
I0403 19:18:06.914814  9063 net.cpp:425] inception_4e/pool_proj <- inception_4e/pool
I0403 19:18:06.914834  9063 net.cpp:399] inception_4e/pool_proj -> inception_4e/pool_proj
I0403 19:18:06.916452  9063 net.cpp:141] Setting up inception_4e/pool_proj
I0403 19:18:06.916501  9063 net.cpp:148] Top shape: 24 128 14 14 (602112)
I0403 19:18:06.916518  9063 net.cpp:156] Memory required for data: 1254493728
I0403 19:18:06.916538  9063 layer_factory.hpp:77] Creating layer inception_4e/relu_pool_proj
I0403 19:18:06.916556  9063 net.cpp:91] Creating Layer inception_4e/relu_pool_proj
I0403 19:18:06.916573  9063 net.cpp:425] inception_4e/relu_pool_proj <- inception_4e/pool_proj
I0403 19:18:06.916589  9063 net.cpp:386] inception_4e/relu_pool_proj -> inception_4e/pool_proj (in-place)
I0403 19:18:06.916893  9063 net.cpp:141] Setting up inception_4e/relu_pool_proj
I0403 19:18:06.916923  9063 net.cpp:148] Top shape: 24 128 14 14 (602112)
I0403 19:18:06.916939  9063 net.cpp:156] Memory required for data: 1256902176
I0403 19:18:06.916954  9063 layer_factory.hpp:77] Creating layer inception_4e/output
I0403 19:18:06.916972  9063 net.cpp:91] Creating Layer inception_4e/output
I0403 19:18:06.916988  9063 net.cpp:425] inception_4e/output <- inception_4e/1x1
I0403 19:18:06.917006  9063 net.cpp:425] inception_4e/output <- inception_4e/3x3
I0403 19:18:06.917022  9063 net.cpp:425] inception_4e/output <- inception_4e/5x5
I0403 19:18:06.917038  9063 net.cpp:425] inception_4e/output <- inception_4e/pool_proj
I0403 19:18:06.917055  9063 net.cpp:399] inception_4e/output -> inception_4e/output
I0403 19:18:06.917109  9063 net.cpp:141] Setting up inception_4e/output
I0403 19:18:06.917134  9063 net.cpp:148] Top shape: 24 832 14 14 (3913728)
I0403 19:18:06.917148  9063 net.cpp:156] Memory required for data: 1272557088
I0403 19:18:06.917165  9063 layer_factory.hpp:77] Creating layer pool4/3x3_s2
I0403 19:18:06.917184  9063 net.cpp:91] Creating Layer pool4/3x3_s2
I0403 19:18:06.917201  9063 net.cpp:425] pool4/3x3_s2 <- inception_4e/output
I0403 19:18:06.917229  9063 net.cpp:399] pool4/3x3_s2 -> pool4/3x3_s2
I0403 19:18:06.917301  9063 net.cpp:141] Setting up pool4/3x3_s2
I0403 19:18:06.917325  9063 net.cpp:148] Top shape: 24 832 7 7 (978432)
I0403 19:18:06.917340  9063 net.cpp:156] Memory required for data: 1276470816
I0403 19:18:06.917356  9063 layer_factory.hpp:77] Creating layer pool4/3x3_s2_pool4/3x3_s2_0_split
I0403 19:18:06.917372  9063 net.cpp:91] Creating Layer pool4/3x3_s2_pool4/3x3_s2_0_split
I0403 19:18:06.917388  9063 net.cpp:425] pool4/3x3_s2_pool4/3x3_s2_0_split <- pool4/3x3_s2
I0403 19:18:06.917408  9063 net.cpp:399] pool4/3x3_s2_pool4/3x3_s2_0_split -> pool4/3x3_s2_pool4/3x3_s2_0_split_0
I0403 19:18:06.917431  9063 net.cpp:399] pool4/3x3_s2_pool4/3x3_s2_0_split -> pool4/3x3_s2_pool4/3x3_s2_0_split_1
I0403 19:18:06.917451  9063 net.cpp:399] pool4/3x3_s2_pool4/3x3_s2_0_split -> pool4/3x3_s2_pool4/3x3_s2_0_split_2
I0403 19:18:06.917480  9063 net.cpp:399] pool4/3x3_s2_pool4/3x3_s2_0_split -> pool4/3x3_s2_pool4/3x3_s2_0_split_3
I0403 19:18:06.917584  9063 net.cpp:141] Setting up pool4/3x3_s2_pool4/3x3_s2_0_split
I0403 19:18:06.917610  9063 net.cpp:148] Top shape: 24 832 7 7 (978432)
I0403 19:18:06.917628  9063 net.cpp:148] Top shape: 24 832 7 7 (978432)
I0403 19:18:06.917644  9063 net.cpp:148] Top shape: 24 832 7 7 (978432)
I0403 19:18:06.917659  9063 net.cpp:148] Top shape: 24 832 7 7 (978432)
I0403 19:18:06.917673  9063 net.cpp:156] Memory required for data: 1292125728
I0403 19:18:06.917688  9063 layer_factory.hpp:77] Creating layer inception_5a/1x1
I0403 19:18:06.917711  9063 net.cpp:91] Creating Layer inception_5a/1x1
I0403 19:18:06.917729  9063 net.cpp:425] inception_5a/1x1 <- pool4/3x3_s2_pool4/3x3_s2_0_split_0
I0403 19:18:06.917749  9063 net.cpp:399] inception_5a/1x1 -> inception_5a/1x1
I0403 19:18:06.920845  9063 net.cpp:141] Setting up inception_5a/1x1
I0403 19:18:06.920877  9063 net.cpp:148] Top shape: 24 256 7 7 (301056)
I0403 19:18:06.920898  9063 net.cpp:156] Memory required for data: 1293329952
I0403 19:18:06.920918  9063 layer_factory.hpp:77] Creating layer inception_5a/relu_1x1
I0403 19:18:06.920938  9063 net.cpp:91] Creating Layer inception_5a/relu_1x1
I0403 19:18:06.920955  9063 net.cpp:425] inception_5a/relu_1x1 <- inception_5a/1x1
I0403 19:18:06.920979  9063 net.cpp:386] inception_5a/relu_1x1 -> inception_5a/1x1 (in-place)
I0403 19:18:06.921322  9063 net.cpp:141] Setting up inception_5a/relu_1x1
I0403 19:18:06.921353  9063 net.cpp:148] Top shape: 24 256 7 7 (301056)
I0403 19:18:06.921371  9063 net.cpp:156] Memory required for data: 1294534176
I0403 19:18:06.921388  9063 layer_factory.hpp:77] Creating layer inception_5a/3x3_reduce
I0403 19:18:06.921411  9063 net.cpp:91] Creating Layer inception_5a/3x3_reduce
I0403 19:18:06.921434  9063 net.cpp:425] inception_5a/3x3_reduce <- pool4/3x3_s2_pool4/3x3_s2_0_split_1
I0403 19:18:06.921463  9063 net.cpp:399] inception_5a/3x3_reduce -> inception_5a/3x3_reduce
I0403 19:18:06.924104  9063 net.cpp:141] Setting up inception_5a/3x3_reduce
I0403 19:18:06.924135  9063 net.cpp:148] Top shape: 24 160 7 7 (188160)
I0403 19:18:06.924152  9063 net.cpp:156] Memory required for data: 1295286816
I0403 19:18:06.924172  9063 layer_factory.hpp:77] Creating layer inception_5a/relu_3x3_reduce
I0403 19:18:06.924193  9063 net.cpp:91] Creating Layer inception_5a/relu_3x3_reduce
I0403 19:18:06.924218  9063 net.cpp:425] inception_5a/relu_3x3_reduce <- inception_5a/3x3_reduce
I0403 19:18:06.924240  9063 net.cpp:386] inception_5a/relu_3x3_reduce -> inception_5a/3x3_reduce (in-place)
I0403 19:18:06.924448  9063 net.cpp:141] Setting up inception_5a/relu_3x3_reduce
I0403 19:18:06.924475  9063 net.cpp:148] Top shape: 24 160 7 7 (188160)
I0403 19:18:06.924492  9063 net.cpp:156] Memory required for data: 1296039456
I0403 19:18:06.924507  9063 layer_factory.hpp:77] Creating layer inception_5a/3x3
I0403 19:18:06.924532  9063 net.cpp:91] Creating Layer inception_5a/3x3
I0403 19:18:06.924551  9063 net.cpp:425] inception_5a/3x3 <- inception_5a/3x3_reduce
I0403 19:18:06.924571  9063 net.cpp:399] inception_5a/3x3 -> inception_5a/3x3
I0403 19:18:06.929978  9063 net.cpp:141] Setting up inception_5a/3x3
I0403 19:18:06.930012  9063 net.cpp:148] Top shape: 24 320 7 7 (376320)
I0403 19:18:06.930030  9063 net.cpp:156] Memory required for data: 1297544736
I0403 19:18:06.930050  9063 layer_factory.hpp:77] Creating layer inception_5a/relu_3x3
I0403 19:18:06.930068  9063 net.cpp:91] Creating Layer inception_5a/relu_3x3
I0403 19:18:06.930085  9063 net.cpp:425] inception_5a/relu_3x3 <- inception_5a/3x3
I0403 19:18:06.930106  9063 net.cpp:386] inception_5a/relu_3x3 -> inception_5a/3x3 (in-place)
I0403 19:18:06.930430  9063 net.cpp:141] Setting up inception_5a/relu_3x3
I0403 19:18:06.930462  9063 net.cpp:148] Top shape: 24 320 7 7 (376320)
I0403 19:18:06.930479  9063 net.cpp:156] Memory required for data: 1299050016
I0403 19:18:06.930495  9063 layer_factory.hpp:77] Creating layer inception_5a/5x5_reduce
I0403 19:18:06.930518  9063 net.cpp:91] Creating Layer inception_5a/5x5_reduce
I0403 19:18:06.930537  9063 net.cpp:425] inception_5a/5x5_reduce <- pool4/3x3_s2_pool4/3x3_s2_0_split_2
I0403 19:18:06.930562  9063 net.cpp:399] inception_5a/5x5_reduce -> inception_5a/5x5_reduce
I0403 19:18:06.931830  9063 net.cpp:141] Setting up inception_5a/5x5_reduce
I0403 19:18:06.931864  9063 net.cpp:148] Top shape: 24 32 7 7 (37632)
I0403 19:18:06.931880  9063 net.cpp:156] Memory required for data: 1299200544
I0403 19:18:06.931900  9063 layer_factory.hpp:77] Creating layer inception_5a/relu_5x5_reduce
I0403 19:18:06.931920  9063 net.cpp:91] Creating Layer inception_5a/relu_5x5_reduce
I0403 19:18:06.931937  9063 net.cpp:425] inception_5a/relu_5x5_reduce <- inception_5a/5x5_reduce
I0403 19:18:06.931958  9063 net.cpp:386] inception_5a/relu_5x5_reduce -> inception_5a/5x5_reduce (in-place)
I0403 19:18:06.932297  9063 net.cpp:141] Setting up inception_5a/relu_5x5_reduce
I0403 19:18:06.932325  9063 net.cpp:148] Top shape: 24 32 7 7 (37632)
I0403 19:18:06.932340  9063 net.cpp:156] Memory required for data: 1299351072
I0403 19:18:06.932358  9063 layer_factory.hpp:77] Creating layer inception_5a/5x5
I0403 19:18:06.932381  9063 net.cpp:91] Creating Layer inception_5a/5x5
I0403 19:18:06.932400  9063 net.cpp:425] inception_5a/5x5 <- inception_5a/5x5_reduce
I0403 19:18:06.932422  9063 net.cpp:399] inception_5a/5x5 -> inception_5a/5x5
I0403 19:18:06.934289  9063 net.cpp:141] Setting up inception_5a/5x5
I0403 19:18:06.934334  9063 net.cpp:148] Top shape: 24 128 7 7 (150528)
I0403 19:18:06.934352  9063 net.cpp:156] Memory required for data: 1299953184
I0403 19:18:06.934372  9063 layer_factory.hpp:77] Creating layer inception_5a/relu_5x5
I0403 19:18:06.934391  9063 net.cpp:91] Creating Layer inception_5a/relu_5x5
I0403 19:18:06.934407  9063 net.cpp:425] inception_5a/relu_5x5 <- inception_5a/5x5
I0403 19:18:06.934428  9063 net.cpp:386] inception_5a/relu_5x5 -> inception_5a/5x5 (in-place)
I0403 19:18:06.934638  9063 net.cpp:141] Setting up inception_5a/relu_5x5
I0403 19:18:06.934664  9063 net.cpp:148] Top shape: 24 128 7 7 (150528)
I0403 19:18:06.934679  9063 net.cpp:156] Memory required for data: 1300555296
I0403 19:18:06.934695  9063 layer_factory.hpp:77] Creating layer inception_5a/pool
I0403 19:18:06.934713  9063 net.cpp:91] Creating Layer inception_5a/pool
I0403 19:18:06.934731  9063 net.cpp:425] inception_5a/pool <- pool4/3x3_s2_pool4/3x3_s2_0_split_3
I0403 19:18:06.934756  9063 net.cpp:399] inception_5a/pool -> inception_5a/pool
I0403 19:18:06.934831  9063 net.cpp:141] Setting up inception_5a/pool
I0403 19:18:06.934856  9063 net.cpp:148] Top shape: 24 832 7 7 (978432)
I0403 19:18:06.934871  9063 net.cpp:156] Memory required for data: 1304469024
I0403 19:18:06.934887  9063 layer_factory.hpp:77] Creating layer inception_5a/pool_proj
I0403 19:18:06.934911  9063 net.cpp:91] Creating Layer inception_5a/pool_proj
I0403 19:18:06.934929  9063 net.cpp:425] inception_5a/pool_proj <- inception_5a/pool
I0403 19:18:06.934952  9063 net.cpp:399] inception_5a/pool_proj -> inception_5a/pool_proj
I0403 19:18:06.937383  9063 net.cpp:141] Setting up inception_5a/pool_proj
I0403 19:18:06.937415  9063 net.cpp:148] Top shape: 24 128 7 7 (150528)
I0403 19:18:06.937433  9063 net.cpp:156] Memory required for data: 1305071136
I0403 19:18:06.937451  9063 layer_factory.hpp:77] Creating layer inception_5a/relu_pool_proj
I0403 19:18:06.937472  9063 net.cpp:91] Creating Layer inception_5a/relu_pool_proj
I0403 19:18:06.937491  9063 net.cpp:425] inception_5a/relu_pool_proj <- inception_5a/pool_proj
I0403 19:18:06.937510  9063 net.cpp:386] inception_5a/relu_pool_proj -> inception_5a/pool_proj (in-place)
I0403 19:18:06.937831  9063 net.cpp:141] Setting up inception_5a/relu_pool_proj
I0403 19:18:06.937860  9063 net.cpp:148] Top shape: 24 128 7 7 (150528)
I0403 19:18:06.937875  9063 net.cpp:156] Memory required for data: 1305673248
I0403 19:18:06.937891  9063 layer_factory.hpp:77] Creating layer inception_5a/output
I0403 19:18:06.937911  9063 net.cpp:91] Creating Layer inception_5a/output
I0403 19:18:06.937928  9063 net.cpp:425] inception_5a/output <- inception_5a/1x1
I0403 19:18:06.937947  9063 net.cpp:425] inception_5a/output <- inception_5a/3x3
I0403 19:18:06.937963  9063 net.cpp:425] inception_5a/output <- inception_5a/5x5
I0403 19:18:06.937980  9063 net.cpp:425] inception_5a/output <- inception_5a/pool_proj
I0403 19:18:06.937997  9063 net.cpp:399] inception_5a/output -> inception_5a/output
I0403 19:18:06.938052  9063 net.cpp:141] Setting up inception_5a/output
I0403 19:18:06.938077  9063 net.cpp:148] Top shape: 24 832 7 7 (978432)
I0403 19:18:06.938092  9063 net.cpp:156] Memory required for data: 1309586976
I0403 19:18:06.938107  9063 layer_factory.hpp:77] Creating layer inception_5a/output_inception_5a/output_0_split
I0403 19:18:06.938125  9063 net.cpp:91] Creating Layer inception_5a/output_inception_5a/output_0_split
I0403 19:18:06.938143  9063 net.cpp:425] inception_5a/output_inception_5a/output_0_split <- inception_5a/output
I0403 19:18:06.938163  9063 net.cpp:399] inception_5a/output_inception_5a/output_0_split -> inception_5a/output_inception_5a/output_0_split_0
I0403 19:18:06.938185  9063 net.cpp:399] inception_5a/output_inception_5a/output_0_split -> inception_5a/output_inception_5a/output_0_split_1
I0403 19:18:06.938215  9063 net.cpp:399] inception_5a/output_inception_5a/output_0_split -> inception_5a/output_inception_5a/output_0_split_2
I0403 19:18:06.938240  9063 net.cpp:399] inception_5a/output_inception_5a/output_0_split -> inception_5a/output_inception_5a/output_0_split_3
I0403 19:18:06.938362  9063 net.cpp:141] Setting up inception_5a/output_inception_5a/output_0_split
I0403 19:18:06.938387  9063 net.cpp:148] Top shape: 24 832 7 7 (978432)
I0403 19:18:06.938405  9063 net.cpp:148] Top shape: 24 832 7 7 (978432)
I0403 19:18:06.938421  9063 net.cpp:148] Top shape: 24 832 7 7 (978432)
I0403 19:18:06.938437  9063 net.cpp:148] Top shape: 24 832 7 7 (978432)
I0403 19:18:06.938452  9063 net.cpp:156] Memory required for data: 1325241888
I0403 19:18:06.938467  9063 layer_factory.hpp:77] Creating layer inception_5b/1x1
I0403 19:18:06.938491  9063 net.cpp:91] Creating Layer inception_5b/1x1
I0403 19:18:06.938510  9063 net.cpp:425] inception_5b/1x1 <- inception_5a/output_inception_5a/output_0_split_0
I0403 19:18:06.938534  9063 net.cpp:399] inception_5b/1x1 -> inception_5b/1x1
I0403 19:18:06.942561  9063 net.cpp:141] Setting up inception_5b/1x1
I0403 19:18:06.942595  9063 net.cpp:148] Top shape: 24 384 7 7 (451584)
I0403 19:18:06.942611  9063 net.cpp:156] Memory required for data: 1327048224
I0403 19:18:06.942631  9063 layer_factory.hpp:77] Creating layer inception_5b/relu_1x1
I0403 19:18:06.942652  9063 net.cpp:91] Creating Layer inception_5b/relu_1x1
I0403 19:18:06.942670  9063 net.cpp:425] inception_5b/relu_1x1 <- inception_5b/1x1
I0403 19:18:06.942688  9063 net.cpp:386] inception_5b/relu_1x1 -> inception_5b/1x1 (in-place)
I0403 19:18:06.943013  9063 net.cpp:141] Setting up inception_5b/relu_1x1
I0403 19:18:06.943042  9063 net.cpp:148] Top shape: 24 384 7 7 (451584)
I0403 19:18:06.943058  9063 net.cpp:156] Memory required for data: 1328854560
I0403 19:18:06.943073  9063 layer_factory.hpp:77] Creating layer inception_5b/3x3_reduce
I0403 19:18:06.943096  9063 net.cpp:91] Creating Layer inception_5b/3x3_reduce
I0403 19:18:06.943115  9063 net.cpp:425] inception_5b/3x3_reduce <- inception_5a/output_inception_5a/output_0_split_1
I0403 19:18:06.943138  9063 net.cpp:399] inception_5b/3x3_reduce -> inception_5b/3x3_reduce
I0403 19:18:06.945991  9063 net.cpp:141] Setting up inception_5b/3x3_reduce
I0403 19:18:06.946022  9063 net.cpp:148] Top shape: 24 192 7 7 (225792)
I0403 19:18:06.946038  9063 net.cpp:156] Memory required for data: 1329757728
I0403 19:18:06.946070  9063 layer_factory.hpp:77] Creating layer inception_5b/relu_3x3_reduce
I0403 19:18:06.946090  9063 net.cpp:91] Creating Layer inception_5b/relu_3x3_reduce
I0403 19:18:06.946108  9063 net.cpp:425] inception_5b/relu_3x3_reduce <- inception_5b/3x3_reduce
I0403 19:18:06.946126  9063 net.cpp:386] inception_5b/relu_3x3_reduce -> inception_5b/3x3_reduce (in-place)
I0403 19:18:06.946357  9063 net.cpp:141] Setting up inception_5b/relu_3x3_reduce
I0403 19:18:06.946382  9063 net.cpp:148] Top shape: 24 192 7 7 (225792)
I0403 19:18:06.946398  9063 net.cpp:156] Memory required for data: 1330660896
I0403 19:18:06.946414  9063 layer_factory.hpp:77] Creating layer inception_5b/3x3
I0403 19:18:06.946437  9063 net.cpp:91] Creating Layer inception_5b/3x3
I0403 19:18:06.946457  9063 net.cpp:425] inception_5b/3x3 <- inception_5b/3x3_reduce
I0403 19:18:06.946491  9063 net.cpp:399] inception_5b/3x3 -> inception_5b/3x3
I0403 19:18:06.953657  9063 net.cpp:141] Setting up inception_5b/3x3
I0403 19:18:06.953701  9063 net.cpp:148] Top shape: 24 384 7 7 (451584)
I0403 19:18:06.953717  9063 net.cpp:156] Memory required for data: 1332467232
I0403 19:18:06.953740  9063 layer_factory.hpp:77] Creating layer inception_5b/relu_3x3
I0403 19:18:06.953759  9063 net.cpp:91] Creating Layer inception_5b/relu_3x3
I0403 19:18:06.953778  9063 net.cpp:425] inception_5b/relu_3x3 <- inception_5b/3x3
I0403 19:18:06.953795  9063 net.cpp:386] inception_5b/relu_3x3 -> inception_5b/3x3 (in-place)
I0403 19:18:06.954124  9063 net.cpp:141] Setting up inception_5b/relu_3x3
I0403 19:18:06.954151  9063 net.cpp:148] Top shape: 24 384 7 7 (451584)
I0403 19:18:06.954166  9063 net.cpp:156] Memory required for data: 1334273568
I0403 19:18:06.954182  9063 layer_factory.hpp:77] Creating layer inception_5b/5x5_reduce
I0403 19:18:06.954229  9063 net.cpp:91] Creating Layer inception_5b/5x5_reduce
I0403 19:18:06.954251  9063 net.cpp:425] inception_5b/5x5_reduce <- inception_5a/output_inception_5a/output_0_split_2
I0403 19:18:06.954270  9063 net.cpp:399] inception_5b/5x5_reduce -> inception_5b/5x5_reduce
I0403 19:18:06.955664  9063 net.cpp:141] Setting up inception_5b/5x5_reduce
I0403 19:18:06.955696  9063 net.cpp:148] Top shape: 24 48 7 7 (56448)
I0403 19:18:06.955713  9063 net.cpp:156] Memory required for data: 1334499360
I0403 19:18:06.955731  9063 layer_factory.hpp:77] Creating layer inception_5b/relu_5x5_reduce
I0403 19:18:06.955749  9063 net.cpp:91] Creating Layer inception_5b/relu_5x5_reduce
I0403 19:18:06.955766  9063 net.cpp:425] inception_5b/relu_5x5_reduce <- inception_5b/5x5_reduce
I0403 19:18:06.955785  9063 net.cpp:386] inception_5b/relu_5x5_reduce -> inception_5b/5x5_reduce (in-place)
I0403 19:18:06.956178  9063 net.cpp:141] Setting up inception_5b/relu_5x5_reduce
I0403 19:18:06.956205  9063 net.cpp:148] Top shape: 24 48 7 7 (56448)
I0403 19:18:06.956230  9063 net.cpp:156] Memory required for data: 1334725152
I0403 19:18:06.956245  9063 layer_factory.hpp:77] Creating layer inception_5b/5x5
I0403 19:18:06.956266  9063 net.cpp:91] Creating Layer inception_5b/5x5
I0403 19:18:06.956284  9063 net.cpp:425] inception_5b/5x5 <- inception_5b/5x5_reduce
I0403 19:18:06.956303  9063 net.cpp:399] inception_5b/5x5 -> inception_5b/5x5
I0403 19:18:06.958503  9063 net.cpp:141] Setting up inception_5b/5x5
I0403 19:18:06.958547  9063 net.cpp:148] Top shape: 24 128 7 7 (150528)
I0403 19:18:06.958564  9063 net.cpp:156] Memory required for data: 1335327264
I0403 19:18:06.958583  9063 layer_factory.hpp:77] Creating layer inception_5b/relu_5x5
I0403 19:18:06.958602  9063 net.cpp:91] Creating Layer inception_5b/relu_5x5
I0403 19:18:06.958619  9063 net.cpp:425] inception_5b/relu_5x5 <- inception_5b/5x5
I0403 19:18:06.958639  9063 net.cpp:386] inception_5b/relu_5x5 -> inception_5b/5x5 (in-place)
I0403 19:18:06.958844  9063 net.cpp:141] Setting up inception_5b/relu_5x5
I0403 19:18:06.958869  9063 net.cpp:148] Top shape: 24 128 7 7 (150528)
I0403 19:18:06.958884  9063 net.cpp:156] Memory required for data: 1335929376
I0403 19:18:06.958899  9063 layer_factory.hpp:77] Creating layer inception_5b/pool
I0403 19:18:06.958916  9063 net.cpp:91] Creating Layer inception_5b/pool
I0403 19:18:06.958933  9063 net.cpp:425] inception_5b/pool <- inception_5a/output_inception_5a/output_0_split_3
I0403 19:18:06.958955  9063 net.cpp:399] inception_5b/pool -> inception_5b/pool
I0403 19:18:06.959033  9063 net.cpp:141] Setting up inception_5b/pool
I0403 19:18:06.959056  9063 net.cpp:148] Top shape: 24 832 7 7 (978432)
I0403 19:18:06.959071  9063 net.cpp:156] Memory required for data: 1339843104
I0403 19:18:06.959086  9063 layer_factory.hpp:77] Creating layer inception_5b/pool_proj
I0403 19:18:06.959111  9063 net.cpp:91] Creating Layer inception_5b/pool_proj
I0403 19:18:06.959131  9063 net.cpp:425] inception_5b/pool_proj <- inception_5b/pool
I0403 19:18:06.959151  9063 net.cpp:399] inception_5b/pool_proj -> inception_5b/pool_proj
I0403 19:18:06.961549  9063 net.cpp:141] Setting up inception_5b/pool_proj
I0403 19:18:06.961582  9063 net.cpp:148] Top shape: 24 128 7 7 (150528)
I0403 19:18:06.961599  9063 net.cpp:156] Memory required for data: 1340445216
I0403 19:18:06.961619  9063 layer_factory.hpp:77] Creating layer inception_5b/relu_pool_proj
I0403 19:18:06.961638  9063 net.cpp:91] Creating Layer inception_5b/relu_pool_proj
I0403 19:18:06.961655  9063 net.cpp:425] inception_5b/relu_pool_proj <- inception_5b/pool_proj
I0403 19:18:06.961673  9063 net.cpp:386] inception_5b/relu_pool_proj -> inception_5b/pool_proj (in-place)
I0403 19:18:06.961984  9063 net.cpp:141] Setting up inception_5b/relu_pool_proj
I0403 19:18:06.962014  9063 net.cpp:148] Top shape: 24 128 7 7 (150528)
I0403 19:18:06.962031  9063 net.cpp:156] Memory required for data: 1341047328
I0403 19:18:06.962046  9063 layer_factory.hpp:77] Creating layer inception_5b/output
I0403 19:18:06.962076  9063 net.cpp:91] Creating Layer inception_5b/output
I0403 19:18:06.962108  9063 net.cpp:425] inception_5b/output <- inception_5b/1x1
I0403 19:18:06.962128  9063 net.cpp:425] inception_5b/output <- inception_5b/3x3
I0403 19:18:06.962146  9063 net.cpp:425] inception_5b/output <- inception_5b/5x5
I0403 19:18:06.962162  9063 net.cpp:425] inception_5b/output <- inception_5b/pool_proj
I0403 19:18:06.962180  9063 net.cpp:399] inception_5b/output -> inception_5b/output
I0403 19:18:06.962249  9063 net.cpp:141] Setting up inception_5b/output
I0403 19:18:06.962275  9063 net.cpp:148] Top shape: 24 1024 7 7 (1204224)
I0403 19:18:06.962291  9063 net.cpp:156] Memory required for data: 1345864224
I0403 19:18:06.962306  9063 layer_factory.hpp:77] Creating layer pool5/7x7_s1
I0403 19:18:06.962327  9063 net.cpp:91] Creating Layer pool5/7x7_s1
I0403 19:18:06.962345  9063 net.cpp:425] pool5/7x7_s1 <- inception_5b/output
I0403 19:18:06.962364  9063 net.cpp:399] pool5/7x7_s1 -> pool5/7x7_s1
I0403 19:18:06.962613  9063 net.cpp:141] Setting up pool5/7x7_s1
I0403 19:18:06.962641  9063 net.cpp:148] Top shape: 24 1024 1 1 (24576)
I0403 19:18:06.962656  9063 net.cpp:156] Memory required for data: 1345962528
I0403 19:18:06.962672  9063 layer_factory.hpp:77] Creating layer pool5/drop_7x7_s1
I0403 19:18:06.962692  9063 net.cpp:91] Creating Layer pool5/drop_7x7_s1
I0403 19:18:06.962708  9063 net.cpp:425] pool5/drop_7x7_s1 <- pool5/7x7_s1
I0403 19:18:06.962729  9063 net.cpp:386] pool5/drop_7x7_s1 -> pool5/7x7_s1 (in-place)
I0403 19:18:06.962782  9063 net.cpp:141] Setting up pool5/drop_7x7_s1
I0403 19:18:06.962807  9063 net.cpp:148] Top shape: 24 1024 1 1 (24576)
I0403 19:18:06.962822  9063 net.cpp:156] Memory required for data: 1346060832
I0403 19:18:06.962838  9063 layer_factory.hpp:77] Creating layer loss3/classifier_plantvillage
I0403 19:18:06.962860  9063 net.cpp:91] Creating Layer loss3/classifier_plantvillage
I0403 19:18:06.962879  9063 net.cpp:425] loss3/classifier_plantvillage <- pool5/7x7_s1
I0403 19:18:06.962901  9063 net.cpp:399] loss3/classifier_plantvillage -> loss3/classifier_plantvillage
I0403 19:18:06.963367  9063 net.cpp:141] Setting up loss3/classifier_plantvillage
I0403 19:18:06.963394  9063 net.cpp:148] Top shape: 24 38 (912)
I0403 19:18:06.963409  9063 net.cpp:156] Memory required for data: 1346064480
I0403 19:18:06.963428  9063 layer_factory.hpp:77] Creating layer loss3/classifier_plantvillage_loss3/classifier_plantvillage_0_split
I0403 19:18:06.963448  9063 net.cpp:91] Creating Layer loss3/classifier_plantvillage_loss3/classifier_plantvillage_0_split
I0403 19:18:06.963464  9063 net.cpp:425] loss3/classifier_plantvillage_loss3/classifier_plantvillage_0_split <- loss3/classifier_plantvillage
I0403 19:18:06.963485  9063 net.cpp:399] loss3/classifier_plantvillage_loss3/classifier_plantvillage_0_split -> loss3/classifier_plantvillage_loss3/classifier_plantvillage_0_split_0
I0403 19:18:06.963508  9063 net.cpp:399] loss3/classifier_plantvillage_loss3/classifier_plantvillage_0_split -> loss3/classifier_plantvillage_loss3/classifier_plantvillage_0_split_1
I0403 19:18:06.963531  9063 net.cpp:399] loss3/classifier_plantvillage_loss3/classifier_plantvillage_0_split -> loss3/classifier_plantvillage_loss3/classifier_plantvillage_0_split_2
I0403 19:18:06.963558  9063 net.cpp:399] loss3/classifier_plantvillage_loss3/classifier_plantvillage_0_split -> loss3/classifier_plantvillage_loss3/classifier_plantvillage_0_split_3
I0403 19:18:06.963671  9063 net.cpp:141] Setting up loss3/classifier_plantvillage_loss3/classifier_plantvillage_0_split
I0403 19:18:06.963696  9063 net.cpp:148] Top shape: 24 38 (912)
I0403 19:18:06.963713  9063 net.cpp:148] Top shape: 24 38 (912)
I0403 19:18:06.963742  9063 net.cpp:148] Top shape: 24 38 (912)
I0403 19:18:06.963768  9063 net.cpp:148] Top shape: 24 38 (912)
I0403 19:18:06.963795  9063 net.cpp:156] Memory required for data: 1346079072
I0403 19:18:06.963814  9063 layer_factory.hpp:77] Creating layer loss1/loss
I0403 19:18:06.963836  9063 net.cpp:91] Creating Layer loss1/loss
I0403 19:18:06.963856  9063 net.cpp:425] loss1/loss <- loss1/classifier_plantvillage_loss1/classifier_plantvillage_0_split_0
I0403 19:18:06.963889  9063 net.cpp:425] loss1/loss <- label_data_1_split_0
…
