…
I0403 19:23:24.561496  9177 net.cpp:313] The NetState phase (1) differed from the phase (0) specified by a rule in layer data
I0403 19:23:24.562634  9177 net.cpp:49] Initializing net from parameters: 
state {
  phase: TEST
}
layer {
  name: "data"
  type: "Data"
  top: "data"
  top: "label"
  include {
    phase: TEST
  }
  transform_param {
    mirror: false
    crop_size: 224
    mean_file: "/home/mohanty/data/final_dataset/lmdb/grayscale-50-50/mean.binaryproto"
  }
  data_param {
    source: "/home/mohanty/data/final_dataset/lmdb/grayscale-50-50/test_db"
    batch_size: 24
    backend: LMDB
  }
}
layer {
  name: "conv1/7x7_s2"
  type: "Convolution"
  bottom: "data"
  top: "conv1/7x7_s2"
  param {
    lr_mult: 1
    decay_mult: 1
  }
  param {
    lr_mult: 2
    decay_mult: 0
  }
  convolution_param {
    num_output: 64
    pad: 3
    kernel_size: 7
    stride: 2
    weight_filler {
      type: "xavier"
      std: 0.1
    }
    bias_filler {
      type: "constant"
      value: 0.2
    }
  }
}
layer {
  name: "conv1/relu_7x7"
  type: "ReLU"
  bottom: "conv1/7x7_s2"
  top: "conv1/7x7_s2"
}
layer {
  name: "pool1/3x3_s2"
  type: "Pooling"
  bottom: "conv1/7x7_s2"
  top: "pool1/3x3_s2"
  pooling_param {
    pool: MAX
    kernel_size: 3
    stride: 2
  }
}
layer {
  name: "pool1/norm1"
  type: "LRN"
  bottom: "pool1/3x3_s2"
  top: "pool1/norm1"
  lrn_param {
    local_size: 5
    alpha: 0.0001
    beta: 0.75
  }
}
layer {
  name: "conv2/3x3_reduce"
  type: "Convolution"
  bottom: "pool1/norm1"
  top: "conv2/3x3_reduce"
  param {
    lr_mult: 1
    decay_mult: 1
  }
  param {
    lr_mult: 2
    decay_mult: 0
  }
  convolution_param {
    num_output: 64
    kernel_size: 1
    weight_filler {
      type: "xavier"
      std: 0.1
    }
    bias_filler {
      type: "constant"
      value: 0.2
    }
  }
}
layer {
  name: "conv2/relu_3x3_reduce"
  type: "ReLU"
  bottom: "conv2/3x3_reduce"
  top: "conv2/3x3_reduce"
}
layer {
  name: "conv2/3x3"
  type: "Convolution"
  bottom: "conv2/3x3_reduce"
  top: "conv2/3x3"
  param {
    lr_mult: 1
    decay_mult: 1
  }
  param {
    lr_mult: 2
    decay_mult: 0
  }
  convolution_param {
    num_output: 192
    pad: 1
    kernel_size: 3
    weight_filler {
      type: "xavier"
      std: 0.03
    }
    bias_filler {
      type: "constant"
      value: 0.2
    }
  }
}
layer {
  name: "conv2/relu_3x3"
  type: "ReLU"
  bottom: "conv2/3x3"
  top: "conv2/3x3"
}
layer {
  name: "conv2/norm2"
  type: "LRN"
  bottom: "conv2/3x3"
  top: "conv2/norm2"
  lrn_param {
    local_size: 5
    alpha: 0.0001
    beta: 0.75
  }
}
layer {
  name: "pool2/3x3_s2"
  type: "Pooling"
  bottom: "conv2/norm2"
  top: "pool2/3x3_s2"
  pooling_param {
    pool: MAX
    kernel_size: 3
    stride: 2
  }
}
layer {
  name: "inception_3a/1x1"
  type: "Convolution"
  bottom: "pool2/3x3_s2"
  top: "inception_3a/1x1"
  param {
    lr_mult: 1
    decay_mult: 1
  }
  param {
    lr_mult: 2
    decay_mult: 0
  }
  convolution_param {
    num_output: 64
    kernel_size: 1
    weight_filler {
      type: "xavier"
      std: 0.03
    }
    bias_filler {
      type: "constant"
      value: 0.2
    }
  }
}
layer {
  name: "inception_3a/relu_1x1"
  type: "ReLU"
  bottom: "inception_3a/1x1"
  top: "inception_3a/1x1"
}
layer {
  name: "inception_3a/3x3_reduce"
  type: "Convolution"
  bottom: "pool2/3x3_s2"
  top: "inception_3a/3x3_reduce"
  param {
    lr_mult: 1
    decay_mult: 1
  }
  param {
    lr_mult: 2
    decay_mult: 0
  }
  convolution_param {
    num_output: 96
    kernel_size: 1
    weight_filler {
      type: "xavier"
      std: 0.09
    }
    bias_filler {
      type: "constant"
      value: 0.2
    }
  }
}
layer {
  name: "inception_3a/relu_3x3_reduce"
  type: "ReLU"
  bottom: "inception_3a/3x3_reduce"
  top: "inception_3a/3x3_reduce"
}
layer {
  name: "inception_3a/3x3"
  type: "Convolution"
  bottom: "inception_3a/3x3_reduce"
  top: "inception_3a/3x3"
  param {
    lr_mult: 1
    decay_mult: 1
  }
  param {
    lr_mult: 2
    decay_mult: 0
  }
  convolution_param {
    num_output: 128
    pad: 1
    kernel_size: 3
    weight_filler {
      type: "xavier"
      std: 0.03
    }
    bias_filler {
      type: "constant"
      value: 0.2
    }
  }
}
layer {
  name: "inception_3a/relu_3x3"
  type: "ReLU"
  bottom: "inception_3a/3x3"
  top: "inception_3a/3x3"
}
layer {
  name: "inception_3a/5x5_reduce"
  type: "Convolution"
  bottom: "pool2/3x3_s2"
  top: "inception_3a/5x5_reduce"
  param {
    lr_mult: 1
    decay_mult: 1
  }
  param {
    lr_mult: 2
    decay_mult: 0
  }
  convolution_param {
    num_output: 16
    kernel_size: 1
    weight_filler {
      type: "xavier"
      std: 0.2
    }
    bias_filler {
      type: "constant"
      value: 0.2
    }
  }
}
layer {
  name: "inception_3a/relu_5x5_reduce"
  type: "ReLU"
  bottom: "inception_3a/5x5_reduce"
  top: "inception_3a/5x5_reduce"
}
layer {
  name: "inception_3a/5x5"
  type: "Convolution"
  bottom: "inception_3a/5x5_reduce"
  top: "inception_3a/5x5"
  param {
    lr_mult: 1
    decay_mult: 1
  }
  param {
    lr_mult: 2
    decay_mult: 0
  }
  convolution_param {
    num_output: 32
    pad: 2
    kernel_size: 5
    weight_filler {
      type: "xavier"
      std: 0.03
    }
    bias_filler {
      type: "constant"
      value: 0.2
    }
  }
}
layer {
  name: "inception_3a/relu_5x5"
  type: "ReLU"
  bottom: "inception_3a/5x5"
  top: "inception_3a/5x5"
}
layer {
  name: "inception_3a/pool"
  type: "Pooling"
  bottom: "pool2/3x3_s2"
  top: "inception_3a/pool"
  pooling_param {
    pool: MAX
    kernel_size: 3
    stride: 1
    pad: 1
  }
}
layer {
  name: "inception_3a/pool_proj"
  type: "Convolution"
  bottom: "inception_3a/pool"
  top: "inception_3a/pool_proj"
  param {
    lr_mult: 1
    decay_mult: 1
  }
  param {
    lr_mult: 2
    decay_mult: 0
  }
  convolution_param {
    num_output: 32
    kernel_size: 1
    weight_filler {
      type: "xavier"
      std: 0.1
    }
    bias_filler {
      type: "constant"
      value: 0.2
    }
  }
}
layer {
  name: "inception_3a/relu_pool_proj"
  type: "ReLU"
  bottom: "inception_3a/pool_proj"
  top: "inception_3a/pool_proj"
}
layer {
  name: "inception_3a/output"
  type: "Concat"
  bottom: "inception_3a/1x1"
  bottom: "inception_3a/3x3"
  bottom: "inception_3a/5x5"
  bottom: "inception_3a/pool_proj"
  top: "inception_3a/output"
}
layer {
  name: "inception_3b/1x1"
  type: "Convolution"
  bottom: "inception_3a/output"
  top: "inception_3b/1x1"
  param {
    lr_mult: 1
    decay_mult: 1
  }
  param {
    lr_mult: 2
    decay_mult: 0
  }
  convolution_param {
    num_output: 128
    kernel_size: 1
    weight_filler {
      type: "xavier"
      std: 0.03
    }
    bias_filler {
      type: "constant"
      value: 0.2
    }
  }
}
layer {
  name: "inception_3b/relu_1x1"
  type: "ReLU"
  bottom: "inception_3b/1x1"
  top: "inception_3b/1x1"
}
layer {
  name: "inception_3b/3x3_reduce"
  type: "Convolution"
  bottom: "inception_3a/output"
  top: "inception_3b/3x3_reduce"
  param {
    lr_mult: 1
    decay_mult: 1
  }
  param {
    lr_mult: 2
    decay_mult: 0
  }
  convolution_param {
    num_output: 128
    kernel_size: 1
    weight_filler {
      type: "xavier"
      std: 0.09
    }
    bias_filler {
      type: "constant"
      value: 0.2
    }
  }
}
layer {
  name: "inception_3b/relu_3x3_reduce"
  type: "ReLU"
  bottom: "inception_3b/3x3_reduce"
  top: "inception_3b/3x3_reduce"
}
layer {
  name: "inception_3b/3x3"
  type: "Convolution"
  bottom: "inception_3b/3x3_reduce"
  top: "inception_3b/3x3"
  param {
    lr_mult: 1
    decay_mult: 1
  }
  param {
    lr_mult: 2
    decay_mult: 0
  }
  convolution_param {
    num_output: 192
    pad: 1
    kernel_size: 3
    weight_filler {
      type: "xavier"
      std: 0.03
    }
    bias_filler {
      type: "constant"
      value: 0.2
    }
  }
}
layer {
  name: "inception_3b/relu_3x3"
  type: "ReLU"
  bottom: "inception_3b/3x3"
  top: "inception_3b/3x3"
}
layer {
  name: "inception_3b/5x5_reduce"
  type: "Convolution"
  bottom: "inception_3a/output"
  top: "inception_3b/5x5_reduce"
  param {
    lr_mult: 1
    decay_mult: 1
  }
  param {
    lr_mult: 2
    decay_mult: 0
  }
  convolution_param {
    num_output: 32
    kernel_size: 1
    weight_filler {
      type: "xavier"
      std: 0.2
    }
    bias_filler {
      type: "constant"
      value: 0.2
    }
  }
}
layer {
  name: "inception_3b/relu_5x5_reduce"
  type: "ReLU"
  bottom: "inception_3b/5x5_reduce"
  top: "inception_3b/5x5_reduce"
}
layer {
  name: "inception_3b/5x5"
  type: "Convolution"
  bottom: "inception_3b/5x5_reduce"
  top: "inception_3b/5x5"
  param {
    lr_mult: 1
    decay_mult: 1
  }
  param {
    lr_mult: 2
    decay_mult: 0
  }
  convolution_param {
    num_output: 96
    pad: 2
    kernel_size: 5
    weight_filler {
      type: "xavier"
      std: 0.03
    }
    bias_filler {
      type: "constant"
      value: 0.2
    }
  }
}
layer {
  name: "inception_3b/relu_5x5"
  type: "ReLU"
  bottom: "inception_3b/5x5"
  top: "inception_3b/5x5"
}
layer {
  name: "inception_3b/pool"
  type: "Pooling"
  bottom: "inception_3a/output"
  top: "inception_3b/pool"
  pooling_param {
    pool: MAX
    kernel_size: 3
    stride: 1
    pad: 1
  }
}
layer {
  name: "inception_3b/pool_proj"
  type: "Convolution"
  bottom: "inception_3b/pool"
  top: "inception_3b/pool_proj"
  param {
    lr_mult: 1
    decay_mult: 1
  }
  param {
    lr_mult: 2
    decay_mult: 0
  }
  convolution_param {
    num_output: 64
    kernel_size: 1
    weight_filler {
      type: "xavier"
      std: 0.1
    }
    bias_filler {
      type: "constant"
      value: 0.2
    }
  }
}
layer {
  name: "inception_3b/relu_pool_proj"
  type: "ReLU"
  bottom: "inception_3b/pool_proj"
  top: "inception_3b/pool_proj"
}
layer {
  name: "inception_3b/output"
  type: "Concat"
  bottom: "inception_3b/1x1"
  bottom: "inception_3b/3x3"
  bottom: "inception_3b/5x5"
  bottom: "inception_3b/pool_proj"
  top: "inception_3b/output"
}
layer {
  name: "pool3/3x3_s2"
  type: "Pooling"
  bottom: "inception_3b/output"
  top: "pool3/3x3_s2"
  pooling_param {
    pool: MAX
    kernel_size: 3
    stride: 2
  }
}
layer {
  name: "inception_4a/1x1"
  type: "Convolution"
  bottom: "pool3/3x3_s2"
  top: "inception_4a/1x1"
  param {
    lr_mult: 1
    decay_mult: 1
  }
  param {
    lr_mult: 2
    decay_mult: 0
  }
  convolution_param {
    num_output: 192
    kernel_size: 1
    weight_filler {
      type: "xavier"
      std: 0.03
    }
    bias_filler {
      type: "constant"
      value: 0.2
    }
  }
}
layer {
  name: "inception_4a/relu_1x1"
  type: "ReLU"
  bottom: "inception_4a/1x1"
  top: "inception_4a/1x1"
}
layer {
  name: "inception_4a/3x3_reduce"
  type: "Convolution"
  bottom: "pool3/3x3_s2"
  top: "inception_4a/3x3_reduce"
  param {
    lr_mult: 1
    decay_mult: 1
  }
  param {
    lr_mult: 2
    decay_mult: 0
  }
  convolution_param {
    num_output: 96
    kernel_size: 1
    weight_filler {
      type: "xavier"
      std: 0.09
    }
    bias_filler {
      type: "constant"
      value: 0.2
    }
  }
}
layer {
  name: "inception_4a/relu_3x3_reduce"
  type: "ReLU"
  bottom: "inception_4a/3x3_reduce"
  top: "inception_4a/3x3_reduce"
}
layer {
  name: "inception_4a/3x3"
  type: "Convolution"
  bottom: "inception_4a/3x3_reduce"
  top: "inception_4a/3x3"
  param {
    lr_mult: 1
    decay_mult: 1
  }
  param {
    lr_mult: 2
    decay_mult: 0
  }
  convolution_param {
    num_output: 208
    pad: 1
    kernel_size: 3
    weight_filler {
      type: "xavier"
      std: 0.03
    }
    bias_filler {
      type: "constant"
      value: 0.2
    }
  }
}
layer {
  name: "inception_4a/relu_3x3"
  type: "ReLU"
  bottom: "inception_4a/3x3"
  top: "inception_4a/3x3"
}
layer {
  name: "inception_4a/5x5_reduce"
  type: "Convolution"
  bottom: "pool3/3x3_s2"
  top: "inception_4a/5x5_reduce"
  param {
    lr_mult: 1
    decay_mult: 1
  }
  param {
    lr_mult: 2
    decay_mult: 0
  }
  convolution_param {
    num_output: 16
    kernel_size: 1
    weight_filler {
      type: "xavier"
      std: 0.2
    }
    bias_filler {
      type: "constant"
      value: 0.2
    }
  }
}
layer {
  name: "inception_4a/relu_5x5_reduce"
  type: "ReLU"
  bottom: "inception_4a/5x5_reduce"
  top: "inception_4a/5x5_reduce"
}
layer {
  name: "inception_4a/5x5"
  type: "Convolution"
  bottom: "inception_4a/5x5_reduce"
  top: "inception_4a/5x5"
  param {
    lr_mult: 1
    decay_mult: 1
  }
  param {
    lr_mult: 2
    decay_mult: 0
  }
  convolution_param {
    num_output: 48
    pad: 2
    kernel_size: 5
    weight_filler {
      type: "xavier"
      std: 0.03
    }
    bias_filler {
      type: "constant"
      value: 0.2
    }
  }
}
layer {
  name: "inception_4a/relu_5x5"
  type: "ReLU"
  bottom: "inception_4a/5x5"
  top: "inception_4a/5x5"
}
layer {
  name: "inception_4a/pool"
  type: "Pooling"
  bottom: "pool3/3x3_s2"
  top: "inception_4a/pool"
  pooling_param {
    pool: MAX
    kernel_size: 3
    stride: 1
    pad: 1
  }
}
layer {
  name: "inception_4a/pool_proj"
  type: "Convolution"
  bottom: "inception_4a/pool"
  top: "inception_4a/pool_proj"
  param {
    lr_mult: 1
    decay_mult: 1
  }
  param {
    lr_mult: 2
    decay_mult: 0
  }
  convolution_param {
    num_output: 64
    kernel_size: 1
    weight_filler {
      type: "xavier"
      std: 0.1
    }
    bias_filler {
      type: "constant"
      value: 0.2
    }
  }
}
layer {
  name: "inception_4a/relu_pool_proj"
  type: "ReLU"
  bottom: "inception_4a/pool_proj"
  top: "inception_4a/pool_proj"
}
layer {
  name: "inception_4a/output"
  type: "Concat"
  bottom: "inception_4a/1x1"
  bottom: "inception_4a/3x3"
  bottom: "inception_4a/5x5"
  bottom: "inception_4a/pool_proj"
  top: "inception_4a/output"
}
layer {
  name: "loss1/ave_pool"
  type: "Pooling"
  bottom: "inception_4a/output"
  top: "loss1/ave_pool"
  pooling_param {
    pool: AVE
    kernel_size: 5
    stride: 3
  }
}
layer {
  name: "loss1/conv"
  type: "Convolution"
  bottom: "loss1/ave_pool"
  top: "loss1/conv"
  param {
    lr_mult: 1
    decay_mult: 1
  }
  param {
    lr_mult: 2
    decay_mult: 0
  }
  convolution_param {
    num_output: 128
    kernel_size: 1
    weight_filler {
      type: "xavier"
      std: 0.08
    }
    bias_filler {
      type: "constant"
      value: 0.2
    }
  }
}
layer {
  name: "loss1/relu_conv"
  type: "ReLU"
  bottom: "loss1/conv"
  top: "loss1/conv"
}
layer {
  name: "loss1/fc"
  type: "InnerProduct"
  bottom: "loss1/conv"
  top: "loss1/fc"
  param {
    lr_mult: 1
    decay_mult: 1
  }
  param {
    lr_mult: 2
    decay_mult: 0
  }
  inner_product_param {
    num_output: 1024
    weight_filler {
      type: "xavier"
      std: 0.02
    }
    bias_filler {
      type: "constant"
      value: 0.2
    }
  }
}
layer {
  name: "loss1/relu_fc"
  type: "ReLU"
  bottom: "loss1/fc"
  top: "loss1/fc"
}
layer {
  name: "loss1/drop_fc"
  type: "Dropout"
  bottom: "loss1/fc"
  top: "loss1/fc"
  dropout_param {
    dropout_ratio: 0.7
  }
}
layer {
  name: "loss1/classifier_plantvillage"
  type: "InnerProduct"
  bottom: "loss1/fc"
  top: "loss1/classifier_plantvillage"
  param {
    lr_mult: 1
    decay_mult: 1
  }
  param {
    lr_mult: 2
    decay_mult: 0
  }
  inner_product_param {
    num_output: 38
    weight_filler {
      type: "xavier"
      std: 0.0009765625
    }
    bias_filler {
      type: "constant"
      value: 0
    }
  }
}
layer {
  name: "inception_4b/1x1"
  type: "Convolution"
  bottom: "inception_4a/output"
  top: "inception_4b/1x1"
  param {
    lr_mult: 1
    decay_mult: 1
  }
  param {
    lr_mult: 2
    decay_mult: 0
  }
  convolution_param {
    num_output: 160
    kernel_size: 1
    weight_filler {
      type: "xavier"
      std: 0.03
    }
    bias_filler {
      type: "constant"
      value: 0.2
    }
  }
}
layer {
  name: "inception_4b/relu_1x1"
  type: "ReLU"
  bottom: "inception_4b/1x1"
  top: "inception_4b/1x1"
}
layer {
  name: "inception_4b/3x3_reduce"
  type: "Convolution"
  bottom: "inception_4a/output"
  top: "inception_4b/3x3_reduce"
  param {
    lr_mult: 1
    decay_mult: 1
  }
  param {
    lr_mult: 2
    decay_mult: 0
  }
  convolution_param {
    num_output: 112
    kernel_size: 1
    weight_filler {
      type: "xavier"
      std: 0.09
    }
    bias_filler {
      type: "constant"
      value: 0.2
    }
  }
}
layer {
  name: "inception_4b/relu_3x3_reduce"
  type: "ReLU"
  bottom: "inception_4b/3x3_reduce"
  top: "inception_4b/3x3_reduce"
}
layer {
  name: "inception_4b/3x3"
  type: "Convolution"
  bottom: "inception_4b/3x3_reduce"
  top: "inception_4b/3x3"
  param {
    lr_mult: 1
    decay_mult: 1
  }
  param {
    lr_mult: 2
    decay_mult: 0
  }
  convolution_param {
    num_output: 224
    pad: 1
    kernel_size: 3
    weight_filler {
      type: "xavier"
      std: 0.03
    }
    bias_filler {
      type: "constant"
      value: 0.2
    }
  }
}
layer {
  name: "inception_4b/relu_3x3"
  type: "ReLU"
  bottom: "inception_4b/3x3"
  top: "inception_4b/3x3"
}
layer {
  name: "inception_4b/5x5_reduce"
  type: "Convolution"
  bottom: "inception_4a/output"
  top: "inception_4b/5x5_reduce"
  param {
    lr_mult: 1
    decay_mult: 1
  }
  param {
    lr_mult: 2
    decay_mult: 0
  }
  convolution_param {
    num_output: 24
    kernel_size: 1
    weight_filler {
      type: "xavier"
      std: 0.2
    }
    bias_filler {
      type: "constant"
      value: 0.2
    }
  }
}
layer {
  name: "inception_4b/relu_5x5_reduce"
  type: "ReLU"
  bottom: "inception_4b/5x5_reduce"
  top: "inception_4b/5x5_reduce"
}
layer {
  name: "inception_4b/5x5"
  type: "Convolution"
  bottom: "inception_4b/5x5_reduce"
  top: "inception_4b/5x5"
  param {
    lr_mult: 1
    decay_mult: 1
  }
  param {
    lr_mult: 2
    decay_mult: 0
  }
  convolution_param {
    num_output: 64
    pad: 2
    kernel_size: 5
    weight_filler {
      type: "xavier"
      std: 0.03
    }
    bias_filler {
      type: "constant"
      value: 0.2
    }
  }
}
layer {
  name: "inception_4b/relu_5x5"
  type: "ReLU"
  bottom: "inception_4b/5x5"
  top: "inception_4b/5x5"
}
layer {
  name: "inception_4b/pool"
  type: "Pooling"
  bottom: "inception_4a/output"
  top: "inception_4b/pool"
  pooling_param {
    pool: MAX
    kernel_size: 3
    stride: 1
    pad: 1
  }
}
layer {
  name: "inception_4b/pool_proj"
  type: "Convolution"
  bottom: "inception_4b/pool"
  top: "inception_4b/pool_proj"
  param {
    lr_mult: 1
    decay_mult: 1
  }
  param {
    lr_mult: 2
    decay_mult: 0
  }
  convolution_param {
    num_output: 64
    kernel_size: 1
    weight_filler {
      type: "xavier"
      std: 0.1
    }
    bias_filler {
      type: "constant"
      value: 0.2
    }
  }
}
layer {
  name: "inception_4b/relu_pool_proj"
  type: "ReLU"
  bottom: "inception_4b/pool_proj"
  top: "inception_4b/pool_proj"
}
layer {
  name: "inception_4b/output"
  type: "Concat"
  bottom: "inception_4b/1x1"
  bottom: "inception_4b/3x3"
  bottom: "inception_4b/5x5"
  bottom: "inception_4b/pool_proj"
  top: "inception_4b/output"
}
layer {
  name: "inception_4c/1x1"
  type: "Convolution"
  bottom: "inception_4b/output"
  top: "inception_4c/1x1"
  param {
    lr_mult: 1
    decay_mult: 1
  }
  param {
    lr_mult: 2
    decay_mult: 0
  }
  convolution_param {
    num_output: 128
    kernel_size: 1
    weight_filler {
      type: "xavier"
      std: 0.03
    }
    bias_filler {
      type: "constant"
      value: 0.2
    }
  }
}
layer {
  name: "inception_4c/relu_1x1"
  type: "ReLU"
  bottom: "inception_4c/1x1"
  top: "inception_4c/1x1"
}
layer {
  name: "inception_4c/3x3_reduce"
  type: "Convolution"
  bottom: "inception_4b/output"
  top: "inception_4c/3x3_reduce"
  param {
    lr_mult: 1
    decay_mult: 1
  }
  param {
    lr_mult: 2
    decay_mult: 0
  }
  convolution_param {
    num_output: 128
    kernel_size: 1
    weight_filler {
      type: "xavier"
      std: 0.09
    }
    bias_filler {
      type: "constant"
      value: 0.2
    }
  }
}
layer {
  name: "inception_4c/relu_3x3_reduce"
  type: "ReLU"
  bottom: "inception_4c/3x3_reduce"
  top: "inception_4c/3x3_reduce"
}
layer {
  name: "inception_4c/3x3"
  type: "Convolution"
  bottom: "inception_4c/3x3_reduce"
  top: "inception_4c/3x3"
  param {
    lr_mult: 1
    decay_mult: 1
  }
  param {
    lr_mult: 2
    decay_mult: 0
  }
  convolution_param {
    num_output: 256
    pad: 1
    kernel_size: 3
    weight_filler {
      type: "xavier"
      std: 0.03
    }
    bias_filler {
      type: "constant"
      value: 0.2
    }
  }
}
layer {
  name: "inception_4c/relu_3x3"
  type: "ReLU"
  bottom: "inception_4c/3x3"
  top: "inception_4c/3x3"
}
layer {
  name: "inception_4c/5x5_reduce"
  type: "Convolution"
  bottom: "inception_4b/output"
  top: "inception_4c/5x5_reduce"
  param {
    lr_mult: 1
    decay_mult: 1
  }
  param {
    lr_mult: 2
    decay_mult: 0
  }
  convolution_param {
    num_output: 24
    kernel_size: 1
    weight_filler {
      type: "xavier"
      std: 0.2
    }
    bias_filler {
      type: "constant"
      value: 0.2
    }
  }
}
layer {
  name: "inception_4c/relu_5x5_reduce"
  type: "ReLU"
  bottom: "inception_4c/5x5_reduce"
  top: "inception_4c/5x5_reduce"
}
layer {
  name: "inception_4c/5x5"
  type: "Convolution"
  bottom: "inception_4c/5x5_reduce"
  top: "inception_4c/5x5"
  param {
    lr_mult: 1
    decay_mult: 1
  }
  param {
    lr_mult: 2
    decay_mult: 0
  }
  convolution_param {
    num_output: 64
    pad: 2
    kernel_size: 5
    weight_filler {
      type: "xavier"
      std: 0.03
    }
    bias_filler {
      type: "constant"
      value: 0.2
    }
  }
}
layer {
  name: "inception_4c/relu_5x5"
  type: "ReLU"
  bottom: "inception_4c/5x5"
  top: "inception_4c/5x5"
}
layer {
  name: "inception_4c/pool"
  type: "Pooling"
  bottom: "inception_4b/output"
  top: "inception_4c/pool"
  pooling_param {
    pool: MAX
    kernel_size: 3
    stride: 1
    pad: 1
  }
}
layer {
  name: "inception_4c/pool_proj"
  type: "Convolution"
  bottom: "inception_4c/pool"
  top: "inception_4c/pool_proj"
  param {
    lr_mult: 1
    decay_mult: 1
  }
  param {
    lr_mult: 2
    decay_mult: 0
  }
  convolution_param {
    num_output: 64
    kernel_size: 1
    weight_filler {
      type: "xavier"
      std: 0.1
    }
    bias_filler {
      type: "constant"
      value: 0.2
    }
  }
}
layer {
  name: "inception_4c/relu_pool_proj"
  type: "ReLU"
  bottom: "inception_4c/pool_proj"
  top: "inception_4c/pool_proj"
}
layer {
  name: "inception_4c/output"
  type: "Concat"
  bottom: "inception_4c/1x1"
  bottom: "inception_4c/3x3"
  bottom: "inception_4c/5x5"
  bottom: "inception_4c/pool_proj"
  top: "inception_4c/output"
}
layer {
  name: "inception_4d/1x1"
  type: "Convolution"
  bottom: "inception_4c/output"
  top: "inception_4d/1x1"
  param {
    lr_mult: 1
    decay_mult: 1
  }
  param {
    lr_mult: 2
    decay_mult: 0
  }
  convolution_param {
    num_output: 112
    kernel_size: 1
    weight_filler {
      type: "xavier"
      std: 0.03
    }
    bias_filler {
      type: "constant"
      value: 0.2
    }
  }
}
layer {
  name: "inception_4d/relu_1x1"
  type: "ReLU"
  bottom: "inception_4d/1x1"
  top: "inception_4d/1x1"
}
layer {
  name: "inception_4d/3x3_reduce"
  type: "Convolution"
  bottom: "inception_4c/output"
  top: "inception_4d/3x3_reduce"
  param {
    lr_mult: 1
    decay_mult: 1
  }
  param {
    lr_mult: 2
    decay_mult: 0
  }
  convolution_param {
    num_output: 144
    kernel_size: 1
    weight_filler {
      type: "xavier"
      std: 0.09
    }
    bias_filler {
      type: "constant"
      value: 0.2
    }
  }
}
layer {
  name: "inception_4d/relu_3x3_reduce"
  type: "ReLU"
  bottom: "inception_4d/3x3_reduce"
  top: "inception_4d/3x3_reduce"
}
layer {
  name: "inception_4d/3x3"
  type: "Convolution"
  bottom: "inception_4d/3x3_reduce"
  top: "inception_4d/3x3"
  param {
    lr_mult: 1
    decay_mult: 1
  }
  param {
    lr_mult: 2
    decay_mult: 0
  }
  convolution_param {
    num_output: 288
    pad: 1
    kernel_size: 3
    weight_filler {
      type: "xavier"
      std: 0.03
    }
    bias_filler {
      type: "constant"
      value: 0.2
    }
  }
}
layer {
  name: "inception_4d/relu_3x3"
  type: "ReLU"
  bottom: "inception_4d/3x3"
  top: "inception_4d/3x3"
}
layer {
  name: "inception_4d/5x5_reduce"
  type: "Convolution"
  bottom: "inception_4c/output"
  top: "inception_4d/5x5_reduce"
  param {
    lr_mult: 1
    decay_mult: 1
  }
  param {
    lr_mult: 2
    decay_mult: 0
  }
  convolution_param {
    num_output: 32
    kernel_size: 1
    weight_filler {
      type: "xavier"
      std: 0.2
    }
    bias_filler {
      type: "constant"
      value: 0.2
    }
  }
}
layer {
  name: "inception_4d/relu_5x5_reduce"
  type: "ReLU"
  bottom: "inception_4d/5x5_reduce"
  top: "inception_4d/5x5_reduce"
}
layer {
  name: "inception_4d/5x5"
  type: "Convolution"
  bottom: "inception_4d/5x5_reduce"
  top: "inception_4d/5x5"
  param {
    lr_mult: 1
    decay_mult: 1
  }
  param {
    lr_mult: 2
    decay_mult: 0
  }
  convolution_param {
    num_output: 64
    pad: 2
    kernel_size: 5
    weight_filler {
      type: "xavier"
      std: 0.03
    }
    bias_filler {
      type: "constant"
      value: 0.2
    }
  }
}
layer {
  name: "inception_4d/relu_5x5"
  type: "ReLU"
  bottom: "inception_4d/5x5"
  top: "inception_4d/5x5"
}
layer {
  name: "inception_4d/pool"
  type: "Pooling"
  bottom: "inception_4c/output"
  top: "inception_4d/pool"
  pooling_param {
    pool: MAX
    kernel_size: 3
    stride: 1
    pad: 1
  }
}
layer {
  name: "inception_4d/pool_proj"
  type: "Convolution"
  bottom: "inception_4d/pool"
  top: "inception_4d/pool_proj"
  param {
    lr_mult: 1
    decay_mult: 1
  }
  param {
    lr_mult: 2
    decay_mult: 0
  }
  convolution_param {
    num_output: 64
    kernel_size: 1
    weight_filler {
      type: "xavier"
      std: 0.1
    }
    bias_filler {
      type: "constant"
      value: 0.2
    }
  }
}
layer {
  name: "inception_4d/relu_pool_proj"
  type: "ReLU"
  bottom: "inception_4d/pool_proj"
  top: "inception_4d/pool_proj"
}
layer {
  name: "inception_4d/output"
  type: "Concat"
  bottom: "inception_4d/1x1"
  bottom: "inception_4d/3x3"
  bottom: "inception_4d/5x5"
  bottom: "inception_4d/pool_proj"
  top: "inception_4d/output"
}
layer {
  name: "loss2/ave_pool"
  type: "Pooling"
  bottom: "inception_4d/output"
  top: "loss2/ave_pool"
  pooling_param {
    pool: AVE
    kernel_size: 5
    stride: 3
  }
}
layer {
  name: "loss2/conv"
  type: "Convolution"
  bottom: "loss2/ave_pool"
  top: "loss2/conv"
  param {
    lr_mult: 1
    decay_mult: 1
  }
  param {
    lr_mult: 2
    decay_mult: 0
  }
  convolution_param {
    num_output: 128
    kernel_size: 1
    weight_filler {
      type: "xavier"
      std: 0.08
    }
    bias_filler {
      type: "constant"
      value: 0.2
    }
  }
}
layer {
  name: "loss2/relu_conv"
  type: "ReLU"
  bottom: "loss2/conv"
  top: "loss2/conv"
}
layer {
  name: "loss2/fc"
  type: "InnerProduct"
  bottom: "loss2/conv"
  top: "loss2/fc"
  param {
    lr_mult: 1
    decay_mult: 1
  }
  param {
    lr_mult: 2
    decay_mult: 0
  }
  inner_product_param {
    num_output: 1024
    weight_filler {
      type: "xavier"
      std: 0.02
    }
    bias_filler {
      type: "constant"
      value: 0.2
    }
  }
}
layer {
  name: "loss2/relu_fc"
  type: "ReLU"
  bottom: "loss2/fc"
  top: "loss2/fc"
}
layer {
  name: "loss2/drop_fc"
  type: "Dropout"
  bottom: "loss2/fc"
  top: "loss2/fc"
  dropout_param {
    dropout_ratio: 0.7
  }
}
layer {
  name: "loss2/classifier_plantvillage"
  type: "InnerProduct"
  bottom: "loss2/fc"
  top: "loss2/classifier_plantvillage"
  param {
    lr_mult: 1
    decay_mult: 1
  }
  param {
    lr_mult: 2
    decay_mult: 0
  }
  inner_product_param {
    num_output: 38
    weight_filler {
      type: "xavier"
      std: 0.0009765625
    }
    bias_filler {
      type: "constant"
      value: 0
    }
  }
}
layer {
  name: "inception_4e/1x1"
  type: "Convolution"
  bottom: "inception_4d/output"
  top: "inception_4e/1x1"
  param {
    lr_mult: 1
    decay_mult: 1
  }
  param {
    lr_mult: 2
    decay_mult: 0
  }
  convolution_param {
    num_output: 256
    kernel_size: 1
    weight_filler {
      type: "xavier"
      std: 0.03
    }
    bias_filler {
      type: "constant"
      value: 0.2
    }
  }
}
layer {
  name: "inception_4e/relu_1x1"
  type: "ReLU"
  bottom: "inception_4e/1x1"
  top: "inception_4e/1x1"
}
layer {
  name: "inception_4e/3x3_reduce"
  type: "Convolution"
  bottom: "inception_4d/output"
  top: "inception_4e/3x3_reduce"
  param {
    lr_mult: 1
    decay_mult: 1
  }
  param {
    lr_mult: 2
    decay_mult: 0
  }
  convolution_param {
    num_output: 160
    kernel_size: 1
    weight_filler {
      type: "xavier"
      std: 0.09
    }
    bias_filler {
      type: "constant"
      value: 0.2
    }
  }
}
layer {
  name: "inception_4e/relu_3x3_reduce"
  type: "ReLU"
  bottom: "inception_4e/3x3_reduce"
  top: "inception_4e/3x3_reduce"
}
layer {
  name: "inception_4e/3x3"
  type: "Convolution"
  bottom: "inception_4e/3x3_reduce"
  top: "inception_4e/3x3"
  param {
    lr_mult: 1
    decay_mult: 1
  }
  param {
    lr_mult: 2
    decay_mult: 0
  }
  convolution_param {
    num_output: 320
    pad: 1
    kernel_size: 3
    weight_filler {
      type: "xavier"
      std: 0.03
    }
    bias_filler {
      type: "constant"
      value: 0.2
    }
  }
}
layer {
  name: "inception_4e/relu_3x3"
  type: "ReLU"
  bottom: "inception_4e/3x3"
  top: "inception_4e/3x3"
}
layer {
  name: "inception_4e/5x5_reduce"
  type: "Convolution"
  bottom: "inception_4d/output"
  top: "inception_4e/5x5_reduce"
  param {
    lr_mult: 1
    decay_mult: 1
  }
  param {
    lr_mult: 2
    decay_mult: 0
  }
  convolution_param {
    num_output: 32
    kernel_size: 1
    weight_filler {
      type: "xavier"
      std: 0.2
    }
    bias_filler {
      type: "constant"
      value: 0.2
    }
  }
}
layer {
  name: "inception_4e/relu_5x5_reduce"
  type: "ReLU"
  bottom: "inception_4e/5x5_reduce"
  top: "inception_4e/5x5_reduce"
}
layer {
  name: "inception_4e/5x5"
  type: "Convolution"
  bottom: "inception_4e/5x5_reduce"
  top: "inception_4e/
I0403 19:23:24.564092  9177 layer_factory.hpp:77] Creating layer data
I0403 19:23:24.564697  9177 net.cpp:91] Creating Layer data
I0403 19:23:24.564730  9177 net.cpp:399] data -> data
I0403 19:23:24.564793  9177 net.cpp:399] data -> label
I0403 19:23:24.564827  9177 data_transformer.cpp:25] Loading mean file from: /home/mohanty/data/final_dataset/lmdb/grayscale-50-50/mean.binaryproto
I0403 19:23:24.565874  9179 db_lmdb.cpp:38] Opened lmdb /home/mohanty/data/final_dataset/lmdb/grayscale-50-50/test_db
I0403 19:23:24.577689  9177 data_layer.cpp:41] output data size: 24,3,224,224
I0403 19:23:24.605206  9177 net.cpp:141] Setting up data
I0403 19:23:24.605293  9177 net.cpp:148] Top shape: 24 3 224 224 (3612672)
I0403 19:23:24.605329  9177 net.cpp:148] Top shape: 24 (24)
I0403 19:23:24.605345  9177 net.cpp:156] Memory required for data: 14450784
I0403 19:23:24.605372  9177 layer_factory.hpp:77] Creating layer label_data_1_split
I0403 19:23:24.605401  9177 net.cpp:91] Creating Layer label_data_1_split
I0403 19:23:24.605419  9177 net.cpp:425] label_data_1_split <- label
I0403 19:23:24.605451  9177 net.cpp:399] label_data_1_split -> label_data_1_split_0
I0403 19:23:24.605480  9177 net.cpp:399] label_data_1_split -> label_data_1_split_1
I0403 19:23:24.605502  9177 net.cpp:399] label_data_1_split -> label_data_1_split_2
I0403 19:23:24.605525  9177 net.cpp:399] label_data_1_split -> label_data_1_split_3
I0403 19:23:24.605545  9177 net.cpp:399] label_data_1_split -> label_data_1_split_4
I0403 19:23:24.605566  9177 net.cpp:399] label_data_1_split -> label_data_1_split_5
I0403 19:23:24.605587  9177 net.cpp:399] label_data_1_split -> label_data_1_split_6
I0403 19:23:24.605618  9177 net.cpp:399] label_data_1_split -> label_data_1_split_7
I0403 19:23:24.605639  9177 net.cpp:399] label_data_1_split -> label_data_1_split_8
I0403 19:23:24.605660  9177 net.cpp:399] label_data_1_split -> label_data_1_split_9
I0403 19:23:24.605777  9177 net.cpp:141] Setting up label_data_1_split
I0403 19:23:24.605800  9177 net.cpp:148] Top shape: 24 (24)
I0403 19:23:24.605818  9177 net.cpp:148] Top shape: 24 (24)
I0403 19:23:24.605834  9177 net.cpp:148] Top shape: 24 (24)
I0403 19:23:24.605849  9177 net.cpp:148] Top shape: 24 (24)
I0403 19:23:24.605865  9177 net.cpp:148] Top shape: 24 (24)
I0403 19:23:24.605880  9177 net.cpp:148] Top shape: 24 (24)
I0403 19:23:24.605896  9177 net.cpp:148] Top shape: 24 (24)
I0403 19:23:24.605911  9177 net.cpp:148] Top shape: 24 (24)
I0403 19:23:24.605927  9177 net.cpp:148] Top shape: 24 (24)
I0403 19:23:24.605943  9177 net.cpp:148] Top shape: 24 (24)
I0403 19:23:24.605988  9177 net.cpp:156] Memory required for data: 14451744
I0403 19:23:24.606004  9177 layer_factory.hpp:77] Creating layer conv1/7x7_s2
I0403 19:23:24.606035  9177 net.cpp:91] Creating Layer conv1/7x7_s2
I0403 19:23:24.606055  9177 net.cpp:425] conv1/7x7_s2 <- data
I0403 19:23:24.606075  9177 net.cpp:399] conv1/7x7_s2 -> conv1/7x7_s2
I0403 19:23:24.747949  9177 net.cpp:141] Setting up conv1/7x7_s2
I0403 19:23:24.748028  9177 net.cpp:148] Top shape: 24 64 112 112 (19267584)
I0403 19:23:24.748045  9177 net.cpp:156] Memory required for data: 91522080
I0403 19:23:24.748080  9177 layer_factory.hpp:77] Creating layer conv1/relu_7x7
I0403 19:23:24.748107  9177 net.cpp:91] Creating Layer conv1/relu_7x7
I0403 19:23:24.748126  9177 net.cpp:425] conv1/relu_7x7 <- conv1/7x7_s2
I0403 19:23:24.748145  9177 net.cpp:386] conv1/relu_7x7 -> conv1/7x7_s2 (in-place)
I0403 19:23:24.748468  9177 net.cpp:141] Setting up conv1/relu_7x7
I0403 19:23:24.748498  9177 net.cpp:148] Top shape: 24 64 112 112 (19267584)
I0403 19:23:24.748515  9177 net.cpp:156] Memory required for data: 168592416
I0403 19:23:24.748529  9177 layer_factory.hpp:77] Creating layer pool1/3x3_s2
I0403 19:23:24.748554  9177 net.cpp:91] Creating Layer pool1/3x3_s2
I0403 19:23:24.748571  9177 net.cpp:425] pool1/3x3_s2 <- conv1/7x7_s2
I0403 19:23:24.748590  9177 net.cpp:399] pool1/3x3_s2 -> pool1/3x3_s2
I0403 19:23:24.748667  9177 net.cpp:141] Setting up pool1/3x3_s2
I0403 19:23:24.748692  9177 net.cpp:148] Top shape: 24 64 56 56 (4816896)
I0403 19:23:24.748705  9177 net.cpp:156] Memory required for data: 187860000
I0403 19:23:24.748720  9177 layer_factory.hpp:77] Creating layer pool1/norm1
I0403 19:23:24.748746  9177 net.cpp:91] Creating Layer pool1/norm1
I0403 19:23:24.748764  9177 net.cpp:425] pool1/norm1 <- pool1/3x3_s2
I0403 19:23:24.748785  9177 net.cpp:399] pool1/norm1 -> pool1/norm1
I0403 19:23:24.749080  9177 net.cpp:141] Setting up pool1/norm1
I0403 19:23:24.749109  9177 net.cpp:148] Top shape: 24 64 56 56 (4816896)
I0403 19:23:24.749125  9177 net.cpp:156] Memory required for data: 207127584
I0403 19:23:24.749140  9177 layer_factory.hpp:77] Creating layer conv2/3x3_reduce
I0403 19:23:24.749166  9177 net.cpp:91] Creating Layer conv2/3x3_reduce
I0403 19:23:24.749183  9177 net.cpp:425] conv2/3x3_reduce <- pool1/norm1
I0403 19:23:24.749202  9177 net.cpp:399] conv2/3x3_reduce -> conv2/3x3_reduce
I0403 19:23:24.750682  9177 net.cpp:141] Setting up conv2/3x3_reduce
I0403 19:23:24.750711  9177 net.cpp:148] Top shape: 24 64 56 56 (4816896)
I0403 19:23:24.750727  9177 net.cpp:156] Memory required for data: 226395168
I0403 19:23:24.750748  9177 layer_factory.hpp:77] Creating layer conv2/relu_3x3_reduce
I0403 19:23:24.750769  9177 net.cpp:91] Creating Layer conv2/relu_3x3_reduce
I0403 19:23:24.750785  9177 net.cpp:425] conv2/relu_3x3_reduce <- conv2/3x3_reduce
I0403 19:23:24.750803  9177 net.cpp:386] conv2/relu_3x3_reduce -> conv2/3x3_reduce (in-place)
I0403 19:23:24.751070  9177 net.cpp:141] Setting up conv2/relu_3x3_reduce
I0403 19:23:24.751096  9177 net.cpp:148] Top shape: 24 64 56 56 (4816896)
I0403 19:23:24.751111  9177 net.cpp:156] Memory required for data: 245662752
I0403 19:23:24.751127  9177 layer_factory.hpp:77] Creating layer conv2/3x3
I0403 19:23:24.751149  9177 net.cpp:91] Creating Layer conv2/3x3
I0403 19:23:24.751166  9177 net.cpp:425] conv2/3x3 <- conv2/3x3_reduce
I0403 19:23:24.751188  9177 net.cpp:399] conv2/3x3 -> conv2/3x3
I0403 19:23:24.753559  9177 net.cpp:141] Setting up conv2/3x3
I0403 19:23:24.753592  9177 net.cpp:148] Top shape: 24 192 56 56 (14450688)
I0403 19:23:24.753608  9177 net.cpp:156] Memory required for data: 303465504
I0403 19:23:24.753633  9177 layer_factory.hpp:77] Creating layer conv2/relu_3x3
I0403 19:23:24.753654  9177 net.cpp:91] Creating Layer conv2/relu_3x3
I0403 19:23:24.753670  9177 net.cpp:425] conv2/relu_3x3 <- conv2/3x3
I0403 19:23:24.753687  9177 net.cpp:386] conv2/relu_3x3 -> conv2/3x3 (in-place)
I0403 19:23:24.753875  9177 net.cpp:141] Setting up conv2/relu_3x3
I0403 19:23:24.753901  9177 net.cpp:148] Top shape: 24 192 56 56 (14450688)
I0403 19:23:24.753945  9177 net.cpp:156] Memory required for data: 361268256
I0403 19:23:24.753962  9177 layer_factory.hpp:77] Creating layer conv2/norm2
I0403 19:23:24.753979  9177 net.cpp:91] Creating Layer conv2/norm2
I0403 19:23:24.753995  9177 net.cpp:425] conv2/norm2 <- conv2/3x3
I0403 19:23:24.754016  9177 net.cpp:399] conv2/norm2 -> conv2/norm2
I0403 19:23:24.754328  9177 net.cpp:141] Setting up conv2/norm2
I0403 19:23:24.754355  9177 net.cpp:148] Top shape: 24 192 56 56 (14450688)
I0403 19:23:24.754370  9177 net.cpp:156] Memory required for data: 419071008
I0403 19:23:24.754384  9177 layer_factory.hpp:77] Creating layer pool2/3x3_s2
I0403 19:23:24.754402  9177 net.cpp:91] Creating Layer pool2/3x3_s2
I0403 19:23:24.754418  9177 net.cpp:425] pool2/3x3_s2 <- conv2/norm2
I0403 19:23:24.754437  9177 net.cpp:399] pool2/3x3_s2 -> pool2/3x3_s2
I0403 19:23:24.754490  9177 net.cpp:141] Setting up pool2/3x3_s2
I0403 19:23:24.754514  9177 net.cpp:148] Top shape: 24 192 28 28 (3612672)
I0403 19:23:24.754530  9177 net.cpp:156] Memory required for data: 433521696
I0403 19:23:24.754544  9177 layer_factory.hpp:77] Creating layer pool2/3x3_s2_pool2/3x3_s2_0_split
I0403 19:23:24.754561  9177 net.cpp:91] Creating Layer pool2/3x3_s2_pool2/3x3_s2_0_split
I0403 19:23:24.754576  9177 net.cpp:425] pool2/3x3_s2_pool2/3x3_s2_0_split <- pool2/3x3_s2
I0403 19:23:24.754595  9177 net.cpp:399] pool2/3x3_s2_pool2/3x3_s2_0_split -> pool2/3x3_s2_pool2/3x3_s2_0_split_0
I0403 19:23:24.754616  9177 net.cpp:399] pool2/3x3_s2_pool2/3x3_s2_0_split -> pool2/3x3_s2_pool2/3x3_s2_0_split_1
I0403 19:23:24.754637  9177 net.cpp:399] pool2/3x3_s2_pool2/3x3_s2_0_split -> pool2/3x3_s2_pool2/3x3_s2_0_split_2
I0403 19:23:24.754657  9177 net.cpp:399] pool2/3x3_s2_pool2/3x3_s2_0_split -> pool2/3x3_s2_pool2/3x3_s2_0_split_3
I0403 19:23:24.754727  9177 net.cpp:141] Setting up pool2/3x3_s2_pool2/3x3_s2_0_split
I0403 19:23:24.754750  9177 net.cpp:148] Top shape: 24 192 28 28 (3612672)
I0403 19:23:24.754766  9177 net.cpp:148] Top shape: 24 192 28 28 (3612672)
I0403 19:23:24.754781  9177 net.cpp:148] Top shape: 24 192 28 28 (3612672)
I0403 19:23:24.754796  9177 net.cpp:148] Top shape: 24 192 28 28 (3612672)
I0403 19:23:24.754811  9177 net.cpp:156] Memory required for data: 491324448
I0403 19:23:24.754824  9177 layer_factory.hpp:77] Creating layer inception_3a/1x1
I0403 19:23:24.754848  9177 net.cpp:91] Creating Layer inception_3a/1x1
I0403 19:23:24.754865  9177 net.cpp:425] inception_3a/1x1 <- pool2/3x3_s2_pool2/3x3_s2_0_split_0
I0403 19:23:24.754884  9177 net.cpp:399] inception_3a/1x1 -> inception_3a/1x1
I0403 19:23:24.756433  9177 net.cpp:141] Setting up inception_3a/1x1
I0403 19:23:24.756464  9177 net.cpp:148] Top shape: 24 64 28 28 (1204224)
I0403 19:23:24.756479  9177 net.cpp:156] Memory required for data: 496141344
I0403 19:23:24.756496  9177 layer_factory.hpp:77] Creating layer inception_3a/relu_1x1
I0403 19:23:24.756516  9177 net.cpp:91] Creating Layer inception_3a/relu_1x1
I0403 19:23:24.756533  9177 net.cpp:425] inception_3a/relu_1x1 <- inception_3a/1x1
I0403 19:23:24.756551  9177 net.cpp:386] inception_3a/relu_1x1 -> inception_3a/1x1 (in-place)
I0403 19:23:24.756723  9177 net.cpp:141] Setting up inception_3a/relu_1x1
I0403 19:23:24.756747  9177 net.cpp:148] Top shape: 24 64 28 28 (1204224)
I0403 19:23:24.756765  9177 net.cpp:156] Memory required for data: 500958240
I0403 19:23:24.756780  9177 layer_factory.hpp:77] Creating layer inception_3a/3x3_reduce
I0403 19:23:24.756800  9177 net.cpp:91] Creating Layer inception_3a/3x3_reduce
I0403 19:23:24.756817  9177 net.cpp:425] inception_3a/3x3_reduce <- pool2/3x3_s2_pool2/3x3_s2_0_split_1
I0403 19:23:24.756839  9177 net.cpp:399] inception_3a/3x3_reduce -> inception_3a/3x3_reduce
I0403 19:23:24.758622  9177 net.cpp:141] Setting up inception_3a/3x3_reduce
I0403 19:23:24.758653  9177 net.cpp:148] Top shape: 24 96 28 28 (1806336)
I0403 19:23:24.758671  9177 net.cpp:156] Memory required for data: 508183584
I0403 19:23:24.758694  9177 layer_factory.hpp:77] Creating layer inception_3a/relu_3x3_reduce
I0403 19:23:24.758730  9177 net.cpp:91] Creating Layer inception_3a/relu_3x3_reduce
I0403 19:23:24.758751  9177 net.cpp:425] inception_3a/relu_3x3_reduce <- inception_3a/3x3_reduce
I0403 19:23:24.758777  9177 net.cpp:386] inception_3a/relu_3x3_reduce -> inception_3a/3x3_reduce (in-place)
I0403 19:23:24.758985  9177 net.cpp:141] Setting up inception_3a/relu_3x3_reduce
I0403 19:23:24.759011  9177 net.cpp:148] Top shape: 24 96 28 28 (1806336)
I0403 19:23:24.759045  9177 net.cpp:156] Memory required for data: 515408928
I0403 19:23:24.759071  9177 layer_factory.hpp:77] Creating layer inception_3a/3x3
I0403 19:23:24.759098  9177 net.cpp:91] Creating Layer inception_3a/3x3
I0403 19:23:24.759143  9177 net.cpp:425] inception_3a/3x3 <- inception_3a/3x3_reduce
I0403 19:23:24.759189  9177 net.cpp:399] inception_3a/3x3 -> inception_3a/3x3
I0403 19:23:24.760829  9177 net.cpp:141] Setting up inception_3a/3x3
I0403 19:23:24.760859  9177 net.cpp:148] Top shape: 24 128 28 28 (2408448)
I0403 19:23:24.760874  9177 net.cpp:156] Memory required for data: 525042720
I0403 19:23:24.760892  9177 layer_factory.hpp:77] Creating layer inception_3a/relu_3x3
I0403 19:23:24.760912  9177 net.cpp:91] Creating Layer inception_3a/relu_3x3
I0403 19:23:24.760928  9177 net.cpp:425] inception_3a/relu_3x3 <- inception_3a/3x3
I0403 19:23:24.760946  9177 net.cpp:386] inception_3a/relu_3x3 -> inception_3a/3x3 (in-place)
I0403 19:23:24.761222  9177 net.cpp:141] Setting up inception_3a/relu_3x3
I0403 19:23:24.761248  9177 net.cpp:148] Top shape: 24 128 28 28 (2408448)
I0403 19:23:24.761265  9177 net.cpp:156] Memory required for data: 534676512
I0403 19:23:24.761281  9177 layer_factory.hpp:77] Creating layer inception_3a/5x5_reduce
I0403 19:23:24.761303  9177 net.cpp:91] Creating Layer inception_3a/5x5_reduce
I0403 19:23:24.761320  9177 net.cpp:425] inception_3a/5x5_reduce <- pool2/3x3_s2_pool2/3x3_s2_0_split_2
I0403 19:23:24.761344  9177 net.cpp:399] inception_3a/5x5_reduce -> inception_3a/5x5_reduce
I0403 19:23:24.762375  9177 net.cpp:141] Setting up inception_3a/5x5_reduce
I0403 19:23:24.762405  9177 net.cpp:148] Top shape: 24 16 28 28 (301056)
I0403 19:23:24.762423  9177 net.cpp:156] Memory required for data: 535880736
I0403 19:23:24.762441  9177 layer_factory.hpp:77] Creating layer inception_3a/relu_5x5_reduce
I0403 19:23:24.762462  9177 net.cpp:91] Creating Layer inception_3a/relu_5x5_reduce
I0403 19:23:24.762493  9177 net.cpp:425] inception_3a/relu_5x5_reduce <- inception_3a/5x5_reduce
I0403 19:23:24.762511  9177 net.cpp:386] inception_3a/relu_5x5_reduce -> inception_3a/5x5_reduce (in-place)
I0403 19:23:24.762814  9177 net.cpp:141] Setting up inception_3a/relu_5x5_reduce
I0403 19:23:24.762843  9177 net.cpp:148] Top shape: 24 16 28 28 (301056)
I0403 19:23:24.762864  9177 net.cpp:156] Memory required for data: 537084960
I0403 19:23:24.762879  9177 layer_factory.hpp:77] Creating layer inception_3a/5x5
I0403 19:23:24.762902  9177 net.cpp:91] Creating Layer inception_3a/5x5
I0403 19:23:24.762920  9177 net.cpp:425] inception_3a/5x5 <- inception_3a/5x5_reduce
I0403 19:23:24.762939  9177 net.cpp:399] inception_3a/5x5 -> inception_3a/5x5
I0403 19:23:24.763967  9177 net.cpp:141] Setting up inception_3a/5x5
I0403 19:23:24.763994  9177 net.cpp:148] Top shape: 24 32 28 28 (602112)
I0403 19:23:24.764010  9177 net.cpp:156] Memory required for data: 539493408
I0403 19:23:24.764029  9177 layer_factory.hpp:77] Creating layer inception_3a/relu_5x5
I0403 19:23:24.764051  9177 net.cpp:91] Creating Layer inception_3a/relu_5x5
I0403 19:23:24.764070  9177 net.cpp:425] inception_3a/relu_5x5 <- inception_3a/5x5
I0403 19:23:24.764086  9177 net.cpp:386] inception_3a/relu_5x5 -> inception_3a/5x5 (in-place)
I0403 19:23:24.764266  9177 net.cpp:141] Setting up inception_3a/relu_5x5
I0403 19:23:24.764295  9177 net.cpp:148] Top shape: 24 32 28 28 (602112)
I0403 19:23:24.764310  9177 net.cpp:156] Memory required for data: 541901856
I0403 19:23:24.764327  9177 layer_factory.hpp:77] Creating layer inception_3a/pool
I0403 19:23:24.764344  9177 net.cpp:91] Creating Layer inception_3a/pool
I0403 19:23:24.764375  9177 net.cpp:425] inception_3a/pool <- pool2/3x3_s2_pool2/3x3_s2_0_split_3
I0403 19:23:24.764394  9177 net.cpp:399] inception_3a/pool -> inception_3a/pool
I0403 19:23:24.764453  9177 net.cpp:141] Setting up inception_3a/pool
I0403 19:23:24.764477  9177 net.cpp:148] Top shape: 24 192 28 28 (3612672)
I0403 19:23:24.764492  9177 net.cpp:156] Memory required for data: 556352544
I0403 19:23:24.764508  9177 layer_factory.hpp:77] Creating layer inception_3a/pool_proj
I0403 19:23:24.764530  9177 net.cpp:91] Creating Layer inception_3a/pool_proj
I0403 19:23:24.764549  9177 net.cpp:425] inception_3a/pool_proj <- inception_3a/pool
I0403 19:23:24.764570  9177 net.cpp:399] inception_3a/pool_proj -> inception_3a/pool_proj
I0403 19:23:24.765566  9177 net.cpp:141] Setting up inception_3a/pool_proj
I0403 19:23:24.765599  9177 net.cpp:148] Top shape: 24 32 28 28 (602112)
I0403 19:23:24.765616  9177 net.cpp:156] Memory required for data: 558760992
I0403 19:23:24.765640  9177 layer_factory.hpp:77] Creating layer inception_3a/relu_pool_proj
I0403 19:23:24.765661  9177 net.cpp:91] Creating Layer inception_3a/relu_pool_proj
I0403 19:23:24.765679  9177 net.cpp:425] inception_3a/relu_pool_proj <- inception_3a/pool_proj
I0403 19:23:24.765698  9177 net.cpp:386] inception_3a/relu_pool_proj -> inception_3a/pool_proj (in-place)
I0403 19:23:24.765995  9177 net.cpp:141] Setting up inception_3a/relu_pool_proj
I0403 19:23:24.766021  9177 net.cpp:148] Top shape: 24 32 28 28 (602112)
I0403 19:23:24.766036  9177 net.cpp:156] Memory required for data: 561169440
I0403 19:23:24.766052  9177 layer_factory.hpp:77] Creating layer inception_3a/output
I0403 19:23:24.766072  9177 net.cpp:91] Creating Layer inception_3a/output
I0403 19:23:24.766089  9177 net.cpp:425] inception_3a/output <- inception_3a/1x1
I0403 19:23:24.766105  9177 net.cpp:425] inception_3a/output <- inception_3a/3x3
I0403 19:23:24.766121  9177 net.cpp:425] inception_3a/output <- inception_3a/5x5
I0403 19:23:24.766137  9177 net.cpp:425] inception_3a/output <- inception_3a/pool_proj
I0403 19:23:24.766155  9177 net.cpp:399] inception_3a/output -> inception_3a/output
I0403 19:23:24.766202  9177 net.cpp:141] Setting up inception_3a/output
I0403 19:23:24.766230  9177 net.cpp:148] Top shape: 24 256 28 28 (4816896)
I0403 19:23:24.766248  9177 net.cpp:156] Memory required for data: 580437024
I0403 19:23:24.766263  9177 layer_factory.hpp:77] Creating layer inception_3a/output_inception_3a/output_0_split
I0403 19:23:24.766281  9177 net.cpp:91] Creating Layer inception_3a/output_inception_3a/output_0_split
I0403 19:23:24.766296  9177 net.cpp:425] inception_3a/output_inception_3a/output_0_split <- inception_3a/output
I0403 19:23:24.766317  9177 net.cpp:399] inception_3a/output_inception_3a/output_0_split -> inception_3a/output_inception_3a/output_0_split_0
I0403 19:23:24.766337  9177 net.cpp:399] inception_3a/output_inception_3a/output_0_split -> inception_3a/output_inception_3a/output_0_split_1
I0403 19:23:24.766362  9177 net.cpp:399] inception_3a/output_inception_3a/output_0_split -> inception_3a/output_inception_3a/output_0_split_2
I0403 19:23:24.766383  9177 net.cpp:399] inception_3a/output_inception_3a/output_0_split -> inception_3a/output_inception_3a/output_0_split_3
I0403 19:23:24.766459  9177 net.cpp:141] Setting up inception_3a/output_inception_3a/output_0_split
I0403 19:23:24.766482  9177 net.cpp:148] Top shape: 24 256 28 28 (4816896)
I0403 19:23:24.766499  9177 net.cpp:148] Top shape: 24 256 28 28 (4816896)
I0403 19:23:24.766516  9177 net.cpp:148] Top shape: 24 256 28 28 (4816896)
I0403 19:23:24.766532  9177 net.cpp:148] Top shape: 24 256 28 28 (4816896)
I0403 19:23:24.766554  9177 net.cpp:156] Memory required for data: 657507360
I0403 19:23:24.766569  9177 layer_factory.hpp:77] Creating layer inception_3b/1x1
I0403 19:23:24.766592  9177 net.cpp:91] Creating Layer inception_3b/1x1
I0403 19:23:24.766610  9177 net.cpp:425] inception_3b/1x1 <- inception_3a/output_inception_3a/output_0_split_0
I0403 19:23:24.766631  9177 net.cpp:399] inception_3b/1x1 -> inception_3b/1x1
I0403 19:23:24.767787  9177 net.cpp:141] Setting up inception_3b/1x1
I0403 19:23:24.767827  9177 net.cpp:148] Top shape: 24 128 28 28 (2408448)
I0403 19:23:24.767844  9177 net.cpp:156] Memory required for data: 667141152
I0403 19:23:24.767863  9177 layer_factory.hpp:77] Creating layer inception_3b/relu_1x1
I0403 19:23:24.767885  9177 net.cpp:91] Creating Layer inception_3b/relu_1x1
I0403 19:23:24.767902  9177 net.cpp:425] inception_3b/relu_1x1 <- inception_3b/1x1
I0403 19:23:24.767920  9177 net.cpp:386] inception_3b/relu_1x1 -> inception_3b/1x1 (in-place)
I0403 19:23:24.768097  9177 net.cpp:141] Setting up inception_3b/relu_1x1
I0403 19:23:24.768122  9177 net.cpp:148] Top shape: 24 128 28 28 (2408448)
I0403 19:23:24.768138  9177 net.cpp:156] Memory required for data: 676774944
I0403 19:23:24.768153  9177 layer_factory.hpp:77] Creating layer inception_3b/3x3_reduce
I0403 19:23:24.768177  9177 net.cpp:91] Creating Layer inception_3b/3x3_reduce
I0403 19:23:24.768194  9177 net.cpp:425] inception_3b/3x3_reduce <- inception_3a/output_inception_3a/output_0_split_1
I0403 19:23:24.768220  9177 net.cpp:399] inception_3b/3x3_reduce -> inception_3b/3x3_reduce
I0403 19:23:24.769382  9177 net.cpp:141] Setting up inception_3b/3x3_reduce
I0403 19:23:24.769410  9177 net.cpp:148] Top shape: 24 128 28 28 (2408448)
I0403 19:23:24.769426  9177 net.cpp:156] Memory required for data: 686408736
I0403 19:23:24.769445  9177 layer_factory.hpp:77] Creating layer inception_3b/relu_3x3_reduce
I0403 19:23:24.769477  9177 net.cpp:91] Creating Layer inception_3b/relu_3x3_reduce
I0403 19:23:24.769495  9177 net.cpp:425] inception_3b/relu_3x3_reduce <- inception_3b/3x3_reduce
I0403 19:23:24.769515  9177 net.cpp:386] inception_3b/relu_3x3_reduce -> inception_3b/3x3_reduce (in-place)
I0403 19:23:24.769700  9177 net.cpp:141] Setting up inception_3b/relu_3x3_reduce
I0403 19:23:24.769726  9177 net.cpp:148] Top shape: 24 128 28 28 (2408448)
I0403 19:23:24.769742  9177 net.cpp:156] Memory required for data: 696042528
I0403 19:23:24.769769  9177 layer_factory.hpp:77] Creating layer inception_3b/3x3
I0403 19:23:24.769796  9177 net.cpp:91] Creating Layer inception_3b/3x3
I0403 19:23:24.769814  9177 net.cpp:425] inception_3b/3x3 <- inception_3b/3x3_reduce
I0403 19:23:24.769834  9177 net.cpp:399] inception_3b/3x3 -> inception_3b/3x3
I0403 19:23:24.772847  9177 net.cpp:141] Setting up inception_3b/3x3
I0403 19:23:24.772878  9177 net.cpp:148] Top shape: 24 192 28 28 (3612672)
I0403 19:23:24.772897  9177 net.cpp:156] Memory required for data: 710493216
I0403 19:23:24.772917  9177 layer_factory.hpp:77] Creating layer inception_3b/relu_3x3
I0403 19:23:24.772938  9177 net.cpp:91] Creating Layer inception_3b/relu_3x3
I0403 19:23:24.772955  9177 net.cpp:425] inception_3b/relu_3x3 <- inception_3b/3x3
I0403 19:23:24.772974  9177 net.cpp:386] inception_3b/relu_3x3 -> inception_3b/3x3 (in-place)
I0403 19:23:24.773262  9177 net.cpp:141] Setting up inception_3b/relu_3x3
I0403 19:23:24.773290  9177 net.cpp:148] Top shape: 24 192 28 28 (3612672)
I0403 19:23:24.773308  9177 net.cpp:156] Memory required for data: 724943904
I0403 19:23:24.773324  9177 layer_factory.hpp:77] Creating layer inception_3b/5x5_reduce
I0403 19:23:24.773347  9177 net.cpp:91] Creating Layer inception_3b/5x5_reduce
I0403 19:23:24.773366  9177 net.cpp:425] inception_3b/5x5_reduce <- inception_3a/output_inception_3a/output_0_split_2
I0403 19:23:24.773389  9177 net.cpp:399] inception_3b/5x5_reduce -> inception_3b/5x5_reduce
I0403 19:23:24.774438  9177 net.cpp:141] Setting up inception_3b/5x5_reduce
I0403 19:23:24.774469  9177 net.cpp:148] Top shape: 24 32 28 28 (602112)
I0403 19:23:24.774485  9177 net.cpp:156] Memory required for data: 727352352
I0403 19:23:24.774504  9177 layer_factory.hpp:77] Creating layer inception_3b/relu_5x5_reduce
I0403 19:23:24.774525  9177 net.cpp:91] Creating Layer inception_3b/relu_5x5_reduce
I0403 19:23:24.774541  9177 net.cpp:425] inception_3b/relu_5x5_reduce <- inception_3b/5x5_reduce
I0403 19:23:24.774559  9177 net.cpp:386] inception_3b/relu_5x5_reduce -> inception_3b/5x5_reduce (in-place)
I0403 19:23:24.774751  9177 net.cpp:141] Setting up inception_3b/relu_5x5_reduce
I0403 19:23:24.774780  9177 net.cpp:148] Top shape: 24 32 28 28 (602112)
I0403 19:23:24.774796  9177 net.cpp:156] Memory required for data: 729760800
I0403 19:23:24.774811  9177 layer_factory.hpp:77] Creating layer inception_3b/5x5
I0403 19:23:24.774833  9177 net.cpp:91] Creating Layer inception_3b/5x5
I0403 19:23:24.774852  9177 net.cpp:425] inception_3b/5x5 <- inception_3b/5x5_reduce
I0403 19:23:24.774870  9177 net.cpp:399] inception_3b/5x5 -> inception_3b/5x5
I0403 19:23:24.776885  9177 net.cpp:141] Setting up inception_3b/5x5
I0403 19:23:24.776916  9177 net.cpp:148] Top shape: 24 96 28 28 (1806336)
I0403 19:23:24.776932  9177 net.cpp:156] Memory required for data: 736986144
I0403 19:23:24.776952  9177 layer_factory.hpp:77] Creating layer inception_3b/relu_5x5
I0403 19:23:24.776970  9177 net.cpp:91] Creating Layer inception_3b/relu_5x5
I0403 19:23:24.776988  9177 net.cpp:425] inception_3b/relu_5x5 <- inception_3b/5x5
I0403 19:23:24.777010  9177 net.cpp:386] inception_3b/relu_5x5 -> inception_3b/5x5 (in-place)
I0403 19:23:24.777212  9177 net.cpp:141] Setting up inception_3b/relu_5x5
I0403 19:23:24.777240  9177 net.cpp:148] Top shape: 24 96 28 28 (1806336)
I0403 19:23:24.777257  9177 net.cpp:156] Memory required for data: 744211488
I0403 19:23:24.777273  9177 layer_factory.hpp:77] Creating layer inception_3b/pool
I0403 19:23:24.777292  9177 net.cpp:91] Creating Layer inception_3b/pool
I0403 19:23:24.777309  9177 net.cpp:425] inception_3b/pool <- inception_3a/output_inception_3a/output_0_split_3
I0403 19:23:24.777328  9177 net.cpp:399] inception_3b/pool -> inception_3b/pool
I0403 19:23:24.777386  9177 net.cpp:141] Setting up inception_3b/pool
I0403 19:23:24.777411  9177 net.cpp:148] Top shape: 24 256 28 28 (4816896)
I0403 19:23:24.777426  9177 net.cpp:156] Memory required for data: 763479072
I0403 19:23:24.777442  9177 layer_factory.hpp:77] Creating layer inception_3b/pool_proj
I0403 19:23:24.777478  9177 net.cpp:91] Creating Layer inception_3b/pool_proj
I0403 19:23:24.777498  9177 net.cpp:425] inception_3b/pool_proj <- inception_3b/pool
I0403 19:23:24.777529  9177 net.cpp:399] inception_3b/pool_proj -> inception_3b/pool_proj
I0403 19:23:24.778627  9177 net.cpp:141] Setting up inception_3b/pool_proj
I0403 19:23:24.778661  9177 net.cpp:148] Top shape: 24 64 28 28 (1204224)
I0403 19:23:24.778677  9177 net.cpp:156] Memory required for data: 768295968
I0403 19:23:24.778697  9177 layer_factory.hpp:77] Creating layer inception_3b/relu_pool_proj
I0403 19:23:24.778715  9177 net.cpp:91] Creating Layer inception_3b/relu_pool_proj
I0403 19:23:24.778731  9177 net.cpp:425] inception_3b/relu_pool_proj <- inception_3b/pool_proj
I0403 19:23:24.778749  9177 net.cpp:386] inception_3b/relu_pool_proj -> inception_3b/pool_proj (in-place)
I0403 19:23:24.779160  9177 net.cpp:141] Setting up inception_3b/relu_pool_proj
I0403 19:23:24.779186  9177 net.cpp:148] Top shape: 24 64 28 28 (1204224)
I0403 19:23:24.779201  9177 net.cpp:156] Memory required for data: 773112864
I0403 19:23:24.779219  9177 layer_factory.hpp:77] Creating layer inception_3b/output
I0403 19:23:24.779240  9177 net.cpp:91] Creating Layer inception_3b/output
I0403 19:23:24.779258  9177 net.cpp:425] inception_3b/output <- inception_3b/1x1
I0403 19:23:24.779275  9177 net.cpp:425] inception_3b/output <- inception_3b/3x3
I0403 19:23:24.779291  9177 net.cpp:425] inception_3b/output <- inception_3b/5x5
I0403 19:23:24.779306  9177 net.cpp:425] inception_3b/output <- inception_3b/pool_proj
I0403 19:23:24.779323  9177 net.cpp:399] inception_3b/output -> inception_3b/output
I0403 19:23:24.779368  9177 net.cpp:141] Setting up inception_3b/output
I0403 19:23:24.779392  9177 net.cpp:148] Top shape: 24 480 28 28 (9031680)
I0403 19:23:24.779407  9177 net.cpp:156] Memory required for data: 809239584
I0403 19:23:24.779422  9177 layer_factory.hpp:77] Creating layer pool3/3x3_s2
I0403 19:23:24.779438  9177 net.cpp:91] Creating Layer pool3/3x3_s2
I0403 19:23:24.779454  9177 net.cpp:425] pool3/3x3_s2 <- inception_3b/output
I0403 19:23:24.779492  9177 net.cpp:399] pool3/3x3_s2 -> pool3/3x3_s2
I0403 19:23:24.779556  9177 net.cpp:141] Setting up pool3/3x3_s2
I0403 19:23:24.779579  9177 net.cpp:148] Top shape: 24 480 14 14 (2257920)
I0403 19:23:24.779593  9177 net.cpp:156] Memory required for data: 818271264
I0403 19:23:24.779608  9177 layer_factory.hpp:77] Creating layer pool3/3x3_s2_pool3/3x3_s2_0_split
I0403 19:23:24.779625  9177 net.cpp:91] Creating Layer pool3/3x3_s2_pool3/3x3_s2_0_split
I0403 19:23:24.779640  9177 net.cpp:425] pool3/3x3_s2_pool3/3x3_s2_0_split <- pool3/3x3_s2
I0403 19:23:24.779660  9177 net.cpp:399] pool3/3x3_s2_pool3/3x3_s2_0_split -> pool3/3x3_s2_pool3/3x3_s2_0_split_0
I0403 19:23:24.779680  9177 net.cpp:399] pool3/3x3_s2_pool3/3x3_s2_0_split -> pool3/3x3_s2_pool3/3x3_s2_0_split_1
I0403 19:23:24.779700  9177 net.cpp:399] pool3/3x3_s2_pool3/3x3_s2_0_split -> pool3/3x3_s2_pool3/3x3_s2_0_split_2
I0403 19:23:24.779718  9177 net.cpp:399] pool3/3x3_s2_pool3/3x3_s2_0_split -> pool3/3x3_s2_pool3/3x3_s2_0_split_3
I0403 19:23:24.779798  9177 net.cpp:141] Setting up pool3/3x3_s2_pool3/3x3_s2_0_split
I0403 19:23:24.779822  9177 net.cpp:148] Top shape: 24 480 14 14 (2257920)
I0403 19:23:24.779839  9177 net.cpp:148] Top shape: 24 480 14 14 (2257920)
I0403 19:23:24.779855  9177 net.cpp:148] Top shape: 24 480 14 14 (2257920)
I0403 19:23:24.779870  9177 net.cpp:148] Top shape: 24 480 14 14 (2257920)
I0403 19:23:24.779883  9177 net.cpp:156] Memory required for data: 854397984
I0403 19:23:24.779898  9177 layer_factory.hpp:77] Creating layer inception_4a/1x1
I0403 19:23:24.779920  9177 net.cpp:91] Creating Layer inception_4a/1x1
I0403 19:23:24.779937  9177 net.cpp:425] inception_4a/1x1 <- pool3/3x3_s2_pool3/3x3_s2_0_split_0
I0403 19:23:24.779956  9177 net.cpp:399] inception_4a/1x1 -> inception_4a/1x1
I0403 19:23:24.781535  9177 net.cpp:141] Setting up inception_4a/1x1
I0403 19:23:24.781568  9177 net.cpp:148] Top shape: 24 192 14 14 (903168)
I0403 19:23:24.781584  9177 net.cpp:156] Memory required for data: 858010656
I0403 19:23:24.781605  9177 layer_factory.hpp:77] Creating layer inception_4a/relu_1x1
I0403 19:23:24.781623  9177 net.cpp:91] Creating Layer inception_4a/relu_1x1
I0403 19:23:24.781640  9177 net.cpp:425] inception_4a/relu_1x1 <- inception_4a/1x1
I0403 19:23:24.781661  9177 net.cpp:386] inception_4a/relu_1x1 -> inception_4a/1x1 (in-place)
I0403 19:23:24.781850  9177 net.cpp:141] Setting up inception_4a/relu_1x1
I0403 19:23:24.781875  9177 net.cpp:148] Top shape: 24 192 14 14 (903168)
I0403 19:23:24.781889  9177 net.cpp:156] Memory required for data: 861623328
I0403 19:23:24.781904  9177 layer_factory.hpp:77] Creating layer inception_4a/3x3_reduce
I0403 19:23:24.781925  9177 net.cpp:91] Creating Layer inception_4a/3x3_reduce
I0403 19:23:24.781942  9177 net.cpp:425] inception_4a/3x3_reduce <- pool3/3x3_s2_pool3/3x3_s2_0_split_1
I0403 19:23:24.781963  9177 net.cpp:399] inception_4a/3x3_reduce -> inception_4a/3x3_reduce
I0403 19:23:24.783251  9177 net.cpp:141] Setting up inception_4a/3x3_reduce
I0403 19:23:24.783282  9177 net.cpp:148] Top shape: 24 96 14 14 (451584)
I0403 19:23:24.783299  9177 net.cpp:156] Memory required for data: 863429664
I0403 19:23:24.783325  9177 layer_factory.hpp:77] Creating layer inception_4a/relu_3x3_reduce
I0403 19:23:24.783345  9177 net.cpp:91] Creating Layer inception_4a/relu_3x3_reduce
I0403 19:23:24.783362  9177 net.cpp:425] inception_4a/relu_3x3_reduce <- inception_4a/3x3_reduce
I0403 19:23:24.783378  9177 net.cpp:386] inception_4a/relu_3x3_reduce -> inception_4a/3x3_reduce (in-place)
I0403 19:23:24.783552  9177 net.cpp:141] Setting up inception_4a/relu_3x3_reduce
I0403 19:23:24.783576  9177 net.cpp:148] Top shape: 24 96 14 14 (451584)
I0403 19:23:24.783591  9177 net.cpp:156] Memory required for data: 865236000
I0403 19:23:24.783606  9177 layer_factory.hpp:77] Creating layer inception_4a/3x3
I0403 19:23:24.783627  9177 net.cpp:91] Creating Layer inception_4a/3x3
I0403 19:23:24.783645  9177 net.cpp:425] inception_4a/3x3 <- inception_4a/3x3_reduce
I0403 19:23:24.783665  9177 net.cpp:399] inception_4a/3x3 -> inception_4a/3x3
I0403 19:23:24.786368  9177 net.cpp:141] Setting up inception_4a/3x3
I0403 19:23:24.786398  9177 net.cpp:148] Top shape: 24 208 14 14 (978432)
I0403 19:23:24.786414  9177 net.cpp:156] Memory required for data: 869149728
I0403 19:23:24.786432  9177 layer_factory.hpp:77] Creating layer inception_4a/relu_3x3
I0403 19:23:24.786451  9177 net.cpp:91] Creating Layer inception_4a/relu_3x3
I0403 19:23:24.786468  9177 net.cpp:425] inception_4a/relu_3x3 <- inception_4a/3x3
I0403 19:23:24.786489  9177 net.cpp:386] inception_4a/relu_3x3 -> inception_4a/3x3 (in-place)
I0403 19:23:24.786762  9177 net.cpp:141] Setting up inception_4a/relu_3x3
I0403 19:23:24.786790  9177 net.cpp:148] Top shape: 24 208 14 14 (978432)
I0403 19:23:24.786808  9177 net.cpp:156] Memory required for data: 873063456
I0403 19:23:24.786823  9177 layer_factory.hpp:77] Creating layer inception_4a/5x5_reduce
I0403 19:23:24.786846  9177 net.cpp:91] Creating Layer inception_4a/5x5_reduce
I0403 19:23:24.786864  9177 net.cpp:425] inception_4a/5x5_reduce <- pool3/3x3_s2_pool3/3x3_s2_0_split_2
I0403 19:23:24.786886  9177 net.cpp:399] inception_4a/5x5_reduce -> inception_4a/5x5_reduce
I0403 19:23:24.787897  9177 net.cpp:141] Setting up inception_4a/5x5_reduce
I0403 19:23:24.787926  9177 net.cpp:148] Top shape: 24 16 14 14 (75264)
I0403 19:23:24.787942  9177 net.cpp:156] Memory required for data: 873364512
I0403 19:23:24.787961  9177 layer_factory.hpp:77] Creating layer inception_4a/relu_5x5_reduce
I0403 19:23:24.787982  9177 net.cpp:91] Creating Layer inception_4a/relu_5x5_reduce
I0403 19:23:24.788002  9177 net.cpp:425] inception_4a/relu_5x5_reduce <- inception_4a/5x5_reduce
I0403 19:23:24.788020  9177 net.cpp:386] inception_4a/relu_5x5_reduce -> inception_4a/5x5_reduce (in-place)
I0403 19:23:24.788198  9177 net.cpp:141] Setting up inception_4a/relu_5x5_reduce
I0403 19:23:24.788233  9177 net.cpp:148] Top shape: 24 16 14 14 (75264)
I0403 19:23:24.788254  9177 net.cpp:156] Memory required for data: 873665568
I0403 19:23:24.788269  9177 layer_factory.hpp:77] Creating layer inception_4a/5x5
I0403 19:23:24.788291  9177 net.cpp:91] Creating Layer inception_4a/5x5
I0403 19:23:24.788310  9177 net.cpp:425] inception_4a/5x5 <- inception_4a/5x5_reduce
I0403 19:23:24.788328  9177 net.cpp:399] inception_4a/5x5 -> inception_4a/5x5
I0403 19:23:24.789398  9177 net.cpp:141] Setting up inception_4a/5x5
I0403 19:23:24.789427  9177 net.cpp:148] Top shape: 24 48 14 14 (225792)
I0403 19:23:24.789443  9177 net.cpp:156] Memory required for data: 874568736
I0403 19:23:24.789460  9177 layer_factory.hpp:77] Creating layer inception_4a/relu_5x5
I0403 19:23:24.789494  9177 net.cpp:91] Creating Layer inception_4a/relu_5x5
I0403 19:23:24.789510  9177 net.cpp:425] inception_4a/relu_5x5 <- inception_4a/5x5
I0403 19:23:24.789528  9177 net.cpp:386] inception_4a/relu_5x5 -> inception_4a/5x5 (in-place)
I0403 19:23:24.789711  9177 net.cpp:141] Setting up inception_4a/relu_5x5
I0403 19:23:24.789739  9177 net.cpp:148] Top shape: 24 48 14 14 (225792)
I0403 19:23:24.789768  9177 net.cpp:156] Memory required for data: 875471904
I0403 19:23:24.789785  9177 layer_factory.hpp:77] Creating layer inception_4a/pool
I0403 19:23:24.789803  9177 net.cpp:91] Creating Layer inception_4a/pool
I0403 19:23:24.789819  9177 net.cpp:425] inception_4a/pool <- pool3/3x3_s2_pool3/3x3_s2_0_split_3
I0403 19:23:24.789840  9177 net.cpp:399] inception_4a/pool -> inception_4a/pool
I0403 19:23:24.789901  9177 net.cpp:141] Setting up inception_4a/pool
I0403 19:23:24.789924  9177 net.cpp:148] Top shape: 24 480 14 14 (2257920)
I0403 19:23:24.789939  9177 net.cpp:156] Memory required for data: 884503584
I0403 19:23:24.789953  9177 layer_factory.hpp:77] Creating layer inception_4a/pool_proj
I0403 19:23:24.789978  9177 net.cpp:91] Creating Layer inception_4a/pool_proj
I0403 19:23:24.789994  9177 net.cpp:425] inception_4a/pool_proj <- inception_4a/pool
I0403 19:23:24.790014  9177 net.cpp:399] inception_4a/pool_proj -> inception_4a/pool_proj
I0403 19:23:24.791188  9177 net.cpp:141] Setting up inception_4a/pool_proj
I0403 19:23:24.791224  9177 net.cpp:148] Top shape: 24 64 14 14 (301056)
I0403 19:23:24.791257  9177 net.cpp:156] Memory required for data: 885707808
I0403 19:23:24.791278  9177 layer_factory.hpp:77] Creating layer inception_4a/relu_pool_proj
I0403 19:23:24.791299  9177 net.cpp:91] Creating Layer inception_4a/relu_pool_proj
I0403 19:23:24.791316  9177 net.cpp:425] inception_4a/relu_pool_proj <- inception_4a/pool_proj
I0403 19:23:24.791339  9177 net.cpp:386] inception_4a/relu_pool_proj -> inception_4a/pool_proj (in-place)
I0403 19:23:24.791621  9177 net.cpp:141] Setting up inception_4a/relu_pool_proj
I0403 19:23:24.791651  9177 net.cpp:148] Top shape: 24 64 14 14 (301056)
I0403 19:23:24.791667  9177 net.cpp:156] Memory required for data: 886912032
I0403 19:23:24.791683  9177 layer_factory.hpp:77] Creating layer inception_4a/output
I0403 19:23:24.791702  9177 net.cpp:91] Creating Layer inception_4a/output
I0403 19:23:24.791718  9177 net.cpp:425] inception_4a/output <- inception_4a/1x1
I0403 19:23:24.791734  9177 net.cpp:425] inception_4a/output <- inception_4a/3x3
I0403 19:23:24.791750  9177 net.cpp:425] inception_4a/output <- inception_4a/5x5
I0403 19:23:24.791766  9177 net.cpp:425] inception_4a/output <- inception_4a/pool_proj
I0403 19:23:24.791785  9177 net.cpp:399] inception_4a/output -> inception_4a/output
I0403 19:23:24.791829  9177 net.cpp:141] Setting up inception_4a/output
I0403 19:23:24.791852  9177 net.cpp:148] Top shape: 24 512 14 14 (2408448)
I0403 19:23:24.791867  9177 net.cpp:156] Memory required for data: 896545824
I0403 19:23:24.791882  9177 layer_factory.hpp:77] Creating layer inception_4a/output_inception_4a/output_0_split
I0403 19:23:24.791900  9177 net.cpp:91] Creating Layer inception_4a/output_inception_4a/output_0_split
I0403 19:23:24.791916  9177 net.cpp:425] inception_4a/output_inception_4a/output_0_split <- inception_4a/output
I0403 19:23:24.791942  9177 net.cpp:399] inception_4a/output_inception_4a/output_0_split -> inception_4a/output_inception_4a/output_0_split_0
I0403 19:23:24.791962  9177 net.cpp:399] inception_4a/output_inception_4a/output_0_split -> inception_4a/output_inception_4a/output_0_split_1
I0403 19:23:24.791986  9177 net.cpp:399] inception_4a/output_inception_4a/output_0_split -> inception_4a/output_inception_4a/output_0_split_2
I0403 19:23:24.792006  9177 net.cpp:399] inception_4a/output_inception_4a/output_0_split -> inception_4a/output_inception_4a/output_0_split_3
I0403 19:23:24.792026  9177 net.cpp:399] inception_4a/output_inception_4a/output_0_split -> inception_4a/output_inception_4a/output_0_split_4
I0403 19:23:24.792115  9177 net.cpp:141] Setting up inception_4a/output_inception_4a/output_0_split
I0403 19:23:24.792138  9177 net.cpp:148] Top shape: 24 512 14 14 (2408448)
I0403 19:23:24.792155  9177 net.cpp:148] Top shape: 24 512 14 14 (2408448)
I0403 19:23:24.792171  9177 net.cpp:148] Top shape: 24 512 14 14 (2408448)
I0403 19:23:24.792186  9177 net.cpp:148] Top shape: 24 512 14 14 (2408448)
I0403 19:23:24.792201  9177 net.cpp:148] Top shape: 24 512 14 14 (2408448)
I0403 19:23:24.792219  9177 net.cpp:156] Memory required for data: 944714784
I0403 19:23:24.792234  9177 layer_factory.hpp:77] Creating layer loss1/ave_pool
I0403 19:23:24.792256  9177 net.cpp:91] Creating Layer loss1/ave_pool
I0403 19:23:24.792273  9177 net.cpp:425] loss1/ave_pool <- inception_4a/output_inception_4a/output_0_split_0
I0403 19:23:24.792291  9177 net.cpp:399] loss1/ave_pool -> loss1/ave_pool
I0403 19:23:24.792493  9177 net.cpp:141] Setting up loss1/ave_pool
I0403 19:23:24.792521  9177 net.cpp:148] Top shape: 24 512 4 4 (196608)
I0403 19:23:24.792537  9177 net.cpp:156] Memory required for data: 945501216
I0403 19:23:24.792551  9177 layer_factory.hpp:77] Creating layer loss1/conv
I0403 19:23:24.792573  9177 net.cpp:91] Creating Layer loss1/conv
I0403 19:23:24.792590  9177 net.cpp:425] loss1/conv <- loss1/ave_pool
I0403 19:23:24.792609  9177 net.cpp:399] loss1/conv -> loss1/conv
I0403 19:23:24.794044  9177 net.cpp:141] Setting up loss1/conv
I0403 19:23:24.794075  9177 net.cpp:148] Top shape: 24 128 4 4 (49152)
I0403 19:23:24.794106  9177 net.cpp:156] Memory required for data: 945697824
I0403 19:23:24.794126  9177 layer_factory.hpp:77] Creating layer loss1/relu_conv
I0403 19:23:24.794147  9177 net.cpp:91] Creating Layer loss1/relu_conv
I0403 19:23:24.794164  9177 net.cpp:425] loss1/relu_conv <- loss1/conv
I0403 19:23:24.794183  9177 net.cpp:386] loss1/relu_conv -> loss1/conv (in-place)
I0403 19:23:24.794466  9177 net.cpp:141] Setting up loss1/relu_conv
I0403 19:23:24.794494  9177 net.cpp:148] Top shape: 24 128 4 4 (49152)
I0403 19:23:24.794510  9177 net.cpp:156] Memory required for data: 945894432
I0403 19:23:24.794525  9177 layer_factory.hpp:77] Creating layer loss1/fc
I0403 19:23:24.794553  9177 net.cpp:91] Creating Layer loss1/fc
I0403 19:23:24.794571  9177 net.cpp:425] loss1/fc <- loss1/conv
I0403 19:23:24.794590  9177 net.cpp:399] loss1/fc -> loss1/fc
I0403 19:23:24.812532  9177 net.cpp:141] Setting up loss1/fc
I0403 19:23:24.812577  9177 net.cpp:148] Top shape: 24 1024 (24576)
I0403 19:23:24.812592  9177 net.cpp:156] Memory required for data: 945992736
I0403 19:23:24.812611  9177 layer_factory.hpp:77] Creating layer loss1/relu_fc
I0403 19:23:24.812630  9177 net.cpp:91] Creating Layer loss1/relu_fc
I0403 19:23:24.812649  9177 net.cpp:425] loss1/relu_fc <- loss1/fc
I0403 19:23:24.812669  9177 net.cpp:386] loss1/relu_fc -> loss1/fc (in-place)
I0403 19:23:24.812858  9177 net.cpp:141] Setting up loss1/relu_fc
I0403 19:23:24.812882  9177 net.cpp:148] Top shape: 24 1024 (24576)
I0403 19:23:24.812906  9177 net.cpp:156] Memory required for data: 946091040
I0403 19:23:24.812921  9177 layer_factory.hpp:77] Creating layer loss1/drop_fc
I0403 19:23:24.812948  9177 net.cpp:91] Creating Layer loss1/drop_fc
I0403 19:23:24.812966  9177 net.cpp:425] loss1/drop_fc <- loss1/fc
I0403 19:23:24.812985  9177 net.cpp:386] loss1/drop_fc -> loss1/fc (in-place)
I0403 19:23:24.813035  9177 net.cpp:141] Setting up loss1/drop_fc
I0403 19:23:24.813060  9177 net.cpp:148] Top shape: 24 1024 (24576)
I0403 19:23:24.813076  9177 net.cpp:156] Memory required for data: 946189344
I0403 19:23:24.813091  9177 layer_factory.hpp:77] Creating layer loss1/classifier_plantvillage
I0403 19:23:24.813108  9177 net.cpp:91] Creating Layer loss1/classifier_plantvillage
I0403 19:23:24.813123  9177 net.cpp:425] loss1/classifier_plantvillage <- loss1/fc
I0403 19:23:24.813144  9177 net.cpp:399] loss1/classifier_plantvillage -> loss1/classifier_plantvillage
I0403 19:23:24.814111  9177 net.cpp:141] Setting up loss1/classifier_plantvillage
I0403 19:23:24.814139  9177 net.cpp:148] Top shape: 24 38 (912)
I0403 19:23:24.814155  9177 net.cpp:156] Memory required for data: 946192992
I0403 19:23:24.814187  9177 layer_factory.hpp:77] Creating layer loss1/classifier_plantvillage_loss1/classifier_plantvillage_0_split
I0403 19:23:24.814205  9177 net.cpp:91] Creating Layer loss1/classifier_plantvillage_loss1/classifier_plantvillage_0_split
I0403 19:23:24.814226  9177 net.cpp:425] loss1/classifier_plantvillage_loss1/classifier_plantvillage_0_split <- loss1/classifier_plantvillage
I0403 19:23:24.814249  9177 net.cpp:399] loss1/classifier_plantvillage_loss1/classifier_plantvillage_0_split -> loss1/classifier_plantvillage_loss1/classifier_plantvillage_0_split_0
I0403 19:23:24.814270  9177 net.cpp:399] loss1/classifier_plantvillage_loss1/classifier_plantvillage_0_split -> loss1/classifier_plantvillage_loss1/classifier_plantvillage_0_split_1
I0403 19:23:24.814291  9177 net.cpp:399] loss1/classifier_plantvillage_loss1/classifier_plantvillage_0_split -> loss1/classifier_plantvillage_loss1/classifier_plantvillage_0_split_2
I0403 19:23:24.814366  9177 net.cpp:141] Setting up loss1/classifier_plantvillage_loss1/classifier_plantvillage_0_split
I0403 19:23:24.814389  9177 net.cpp:148] Top shape: 24 38 (912)
I0403 19:23:24.814406  9177 net.cpp:148] Top shape: 24 38 (912)
I0403 19:23:24.814422  9177 net.cpp:148] Top shape: 24 38 (912)
I0403 19:23:24.814436  9177 net.cpp:156] Memory required for data: 946203936
I0403 19:23:24.814451  9177 layer_factory.hpp:77] Creating layer inception_4b/1x1
I0403 19:23:24.814476  9177 net.cpp:91] Creating Layer inception_4b/1x1
I0403 19:23:24.814513  9177 net.cpp:425] inception_4b/1x1 <- inception_4a/output_inception_4a/output_0_split_1
I0403 19:23:24.814545  9177 net.cpp:399] inception_4b/1x1 -> inception_4b/1x1
I0403 19:23:24.816189  9177 net.cpp:141] Setting up inception_4b/1x1
I0403 19:23:24.816223  9177 net.cpp:148] Top shape: 24 160 14 14 (752640)
I0403 19:23:24.816241  9177 net.cpp:156] Memory required for data: 949214496
I0403 19:23:24.816259  9177 layer_factory.hpp:77] Creating layer inception_4b/relu_1x1
I0403 19:23:24.816279  9177 net.cpp:91] Creating Layer inception_4b/relu_1x1
I0403 19:23:24.816296  9177 net.cpp:425] inception_4b/relu_1x1 <- inception_4b/1x1
I0403 19:23:24.816313  9177 net.cpp:386] inception_4b/relu_1x1 -> inception_4b/1x1 (in-place)
I0403 19:23:24.816483  9177 net.cpp:141] Setting up inception_4b/relu_1x1
I0403 19:23:24.816510  9177 net.cpp:148] Top shape: 24 160 14 14 (752640)
I0403 19:23:24.816525  9177 net.cpp:156] Memory required for data: 952225056
I0403 19:23:24.816540  9177 layer_factory.hpp:77] Creating layer inception_4b/3x3_reduce
I0403 19:23:24.816560  9177 net.cpp:91] Creating Layer inception_4b/3x3_reduce
I0403 19:23:24.816576  9177 net.cpp:425] inception_4b/3x3_reduce <- inception_4a/output_inception_4a/output_0_split_2
I0403 19:23:24.816596  9177 net.cpp:399] inception_4b/3x3_reduce -> inception_4b/3x3_reduce
I0403 19:23:24.817965  9177 net.cpp:141] Setting up inception_4b/3x3_reduce
I0403 19:23:24.817993  9177 net.cpp:148] Top shape: 24 112 14 14 (526848)
I0403 19:23:24.818009  9177 net.cpp:156] Memory required for data: 954332448
I0403 19:23:24.818028  9177 layer_factory.hpp:77] Creating layer inception_4b/relu_3x3_reduce
I0403 19:23:24.818049  9177 net.cpp:91] Creating Layer inception_4b/relu_3x3_reduce
I0403 19:23:24.818065  9177 net.cpp:425] inception_4b/relu_3x3_reduce <- inception_4b/3x3_reduce
I0403 19:23:24.818083  9177 net.cpp:386] inception_4b/relu_3x3_reduce -> inception_4b/3x3_reduce (in-place)
I0403 19:23:24.818359  9177 net.cpp:141] Setting up inception_4b/relu_3x3_reduce
I0403 19:23:24.818384  9177 net.cpp:148] Top shape: 24 112 14 14 (526848)
I0403 19:23:24.818402  9177 net.cpp:156] Memory required for data: 956439840
I0403 19:23:24.818416  9177 layer_factory.hpp:77] Creating layer inception_4b/3x3
I0403 19:23:24.818436  9177 net.cpp:91] Creating Layer inception_4b/3x3
I0403 19:23:24.818451  9177 net.cpp:425] inception_4b/3x3 <- inception_4b/3x3_reduce
I0403 19:23:24.818472  9177 net.cpp:399] inception_4b/3x3 -> inception_4b/3x3
I0403 19:23:24.821408  9177 net.cpp:141] Setting up inception_4b/3x3
I0403 19:23:24.821439  9177 net.cpp:148] Top shape: 24 224 14 14 (1053696)
I0403 19:23:24.821455  9177 net.cpp:156] Memory required for data: 960654624
I0403 19:23:24.821475  9177 layer_factory.hpp:77] Creating layer inception_4b/relu_3x3
I0403 19:23:24.821492  9177 net.cpp:91] Creating Layer inception_4b/relu_3x3
I0403 19:23:24.821508  9177 net.cpp:425] inception_4b/relu_3x3 <- inception_4b/3x3
I0403 19:23:24.821539  9177 net.cpp:386] inception_4b/relu_3x3 -> inception_4b/3x3 (in-place)
I0403 19:23:24.821713  9177 net.cpp:141] Setting up inception_4b/relu_3x3
I0403 19:23:24.821738  9177 net.cpp:148] Top shape: 24 224 14 14 (1053696)
I0403 19:23:24.821753  9177 net.cpp:156] Memory required for data: 964869408
I0403 19:23:24.821765  9177 layer_factory.hpp:77] Creating layer inception_4b/5x5_reduce
I0403 19:23:24.821786  9177 net.cpp:91] Creating Layer inception_4b/5x5_reduce
I0403 19:23:24.821804  9177 net.cpp:425] inception_4b/5x5_reduce <- inception_4a/output_inception_4a/output_0_split_3
I0403 19:23:24.821825  9177 net.cpp:399] inception_4b/5x5_reduce -> inception_4b/5x5_reduce
I0403 19:23:24.822875  9177 net.cpp:141] Setting up inception_4b/5x5_reduce
I0403 19:23:24.822902  9177 net.cpp:148] Top shape: 24 24 14 14 (112896)
I0403 19:23:24.822918  9177 net.cpp:156] Memory required for data: 965320992
I0403 19:23:24.822937  9177 layer_factory.hpp:77] Creating layer inception_4b/relu_5x5_reduce
I0403 19:23:24.822957  9177 net.cpp:91] Creating Layer inception_4b/relu_5x5_reduce
I0403 19:23:24.822988  9177 net.cpp:425] inception_4b/relu_5x5_reduce <- inception_4b/5x5_reduce
I0403 19:23:24.823006  9177 net.cpp:386] inception_4b/relu_5x5_reduce -> inception_4b/5x5_reduce (in-place)
I0403 19:23:24.823215  9177 net.cpp:141] Setting up inception_4b/relu_5x5_reduce
I0403 19:23:24.823243  9177 net.cpp:148] Top shape: 24 24 14 14 (112896)
I0403 19:23:24.823259  9177 net.cpp:156] Memory required for data: 965772576
I0403 19:23:24.823274  9177 layer_factory.hpp:77] Creating layer inception_4b/5x5
I0403 19:23:24.823297  9177 net.cpp:91] Creating Layer inception_4b/5x5
I0403 19:23:24.823314  9177 net.cpp:425] inception_4b/5x5 <- inception_4b/5x5_reduce
I0403 19:23:24.823345  9177 net.cpp:399] inception_4b/5x5 -> inception_4b/5x5
I0403 19:23:24.824537  9177 net.cpp:141] Setting up inception_4b/5x5
I0403 19:23:24.824564  9177 net.cpp:148] Top shape: 24 64 14 14 (301056)
I0403 19:23:24.824579  9177 net.cpp:156] Memory required for data: 966976800
I0403 19:23:24.824596  9177 layer_factory.hpp:77] Creating layer inception_4b/relu_5x5
I0403 19:23:24.824615  9177 net.cpp:91] Creating Layer inception_4b/relu_5x5
I0403 19:23:24.824632  9177 net.cpp:425] inception_4b/relu_5x5 <- inception_4b/5x5
I0403 19:23:24.824650  9177 net.cpp:386] inception_4b/relu_5x5 -> inception_4b/5x5 (in-place)
I0403 19:23:24.824919  9177 net.cpp:141] Setting up inception_4b/relu_5x5
I0403 19:23:24.824945  9177 net.cpp:148] Top shape: 24 64 14 14 (301056)
I0403 19:23:24.824959  9177 net.cpp:156] Memory required for data: 968181024
I0403 19:23:24.824975  9177 layer_factory.hpp:77] Creating layer inception_4b/pool
I0403 19:23:24.824991  9177 net.cpp:91] Creating Layer inception_4b/pool
I0403 19:23:24.825007  9177 net.cpp:425] inception_4b/pool <- inception_4a/output_inception_4a/output_0_split_4
I0403 19:23:24.825028  9177 net.cpp:399] inception_4b/pool -> inception_4b/pool
I0403 19:23:24.825091  9177 net.cpp:141] Setting up inception_4b/pool
I0403 19:23:24.825114  9177 net.cpp:148] Top shape: 24 512 14 14 (2408448)
I0403 19:23:24.825129  9177 net.cpp:156] Memory required for data: 977814816
I0403 19:23:24.825142  9177 layer_factory.hpp:77] Creating layer inception_4b/pool_proj
I0403 19:23:24.825165  9177 net.cpp:91] Creating Layer inception_4b/pool_proj
I0403 19:23:24.825181  9177 net.cpp:425] inception_4b/pool_proj <- inception_4b/pool
I0403 19:23:24.825201  9177 net.cpp:399] inception_4b/pool_proj -> inception_4b/pool_proj
I0403 19:23:24.826418  9177 net.cpp:141] Setting up inception_4b/pool_proj
I0403 19:23:24.826447  9177 net.cpp:148] Top shape: 24 64 14 14 (301056)
I0403 19:23:24.826462  9177 net.cpp:156] Memory required for data: 979019040
I0403 19:23:24.826493  9177 layer_factory.hpp:77] Creating layer inception_4b/relu_pool_proj
I0403 19:23:24.826513  9177 net.cpp:91] Creating Layer inception_4b/relu_pool_proj
I0403 19:23:24.826529  9177 net.cpp:425] inception_4b/relu_pool_proj <- inception_4b/pool_proj
I0403 19:23:24.826546  9177 net.cpp:386] inception_4b/relu_pool_proj -> inception_4b/pool_proj (in-place)
I0403 19:23:24.826719  9177 net.cpp:141] Setting up inception_4b/relu_pool_proj
I0403 19:23:24.826747  9177 net.cpp:148] Top shape: 24 64 14 14 (301056)
I0403 19:23:24.826762  9177 net.cpp:156] Memory required for data: 980223264
I0403 19:23:24.826777  9177 layer_factory.hpp:77] Creating layer inception_4b/output
I0403 19:23:24.826794  9177 net.cpp:91] Creating Layer inception_4b/output
I0403 19:23:24.826808  9177 net.cpp:425] inception_4b/output <- inception_4b/1x1
I0403 19:23:24.826824  9177 net.cpp:425] inception_4b/output <- inception_4b/3x3
I0403 19:23:24.826840  9177 net.cpp:425] inception_4b/output <- inception_4b/5x5
I0403 19:23:24.826854  9177 net.cpp:425] inception_4b/output <- inception_4b/pool_proj
I0403 19:23:24.826871  9177 net.cpp:399] inception_4b/output -> inception_4b/output
I0403 19:23:24.826916  9177 net.cpp:141] Setting up inception_4b/output
I0403 19:23:24.826938  9177 net.cpp:148] Top shape: 24 512 14 14 (2408448)
I0403 19:23:24.826952  9177 net.cpp:156] Memory required for data: 989857056
I0403 19:23:24.826979  9177 layer_factory.hpp:77] Creating layer inception_4b/output_inception_4b/output_0_split
I0403 19:23:24.826999  9177 net.cpp:91] Creating Layer inception_4b/output_inception_4b/output_0_split
I0403 19:23:24.827015  9177 net.cpp:425] inception_4b/output_inception_4b/output_0_split <- inception_4b/output
I0403 19:23:24.827033  9177 net.cpp:399] inception_4b/output_inception_4b/output_0_split -> inception_4b/output_inception_4b/output_0_split_0
I0403 19:23:24.827052  9177 net.cpp:399] inception_4b/output_inception_4b/output_0_split -> inception_4b/output_inception_4b/output_0_split_1
I0403 19:23:24.827071  9177 net.cpp:399] inception_4b/output_inception_4b/output_0_split -> inception_4b/output_inception_4b/output_0_split_2
I0403 19:23:24.827090  9177 net.cpp:399] inception_4b/output_inception_4b/output_0_split -> inception_4b/output_inception_4b/output_0_split_3
I0403 19:23:24.827172  9177 net.cpp:141] Setting up inception_4b/output_inception_4b/output_0_split
I0403 19:23:24.827194  9177 net.cpp:148] Top shape: 24 512 14 14 (2408448)
I0403 19:23:24.827215  9177 net.cpp:148] Top shape: 24 512 14 14 (2408448)
I0403 19:23:24.827232  9177 net.cpp:148] Top shape: 24 512 14 14 (2408448)
I0403 19:23:24.827249  9177 net.cpp:148] Top shape: 24 512 14 14 (2408448)
I0403 19:23:24.827261  9177 net.cpp:156] Memory required for data: 1028392224
I0403 19:23:24.827275  9177 layer_factory.hpp:77] Creating layer inception_4c/1x1
I0403 19:23:24.827296  9177 net.cpp:91] Creating Layer inception_4c/1x1
I0403 19:23:24.827313  9177 net.cpp:425] inception_4c/1x1 <- inception_4b/output_inception_4b/output_0_split_0
I0403 19:23:24.827334  9177 net.cpp:399] inception_4c/1x1 -> inception_4c/1x1
I0403 19:23:24.828727  9177 net.cpp:141] Setting up inception_4c/1x1
I0403 19:23:24.828759  9177 net.cpp:148] Top shape: 24 128 14 14 (602112)
I0403 19:23:24.828775  9177 net.cpp:156] Memory required for data: 1030800672
I0403 19:23:24.828794  9177 layer_factory.hpp:77] Creating layer inception_4c/relu_1x1
I0403 19:23:24.828811  9177 net.cpp:91] Creating Layer inception_4c/relu_1x1
I0403 19:23:24.828826  9177 net.cpp:425] inception_4c/relu_1x1 <- inception_4c/1x1
I0403 19:23:24.828842  9177 net.cpp:386] inception_4c/relu_1x1 -> inception_4c/1x1 (in-place)
I0403 19:23:24.829015  9177 net.cpp:141] Setting up inception_4c/relu_1x1
I0403 19:23:24.829040  9177 net.cpp:148] Top shape: 24 128 14 14 (602112)
I0403 19:23:24.829053  9177 net.cpp:156] Memory required for data: 1033209120
I0403 19:23:24.829067  9177 layer_factory.hpp:77] Creating layer inception_4c/3x3_reduce
I0403 19:23:24.829089  9177 net.cpp:91] Creating Layer inception_4c/3x3_reduce
I0403 19:23:24.829107  9177 net.cpp:425] inception_4c/3x3_reduce <- inception_4b/output_inception_4b/output_0_split_1
I0403 19:23:24.829128  9177 net.cpp:399] inception_4c/3x3_reduce -> inception_4c/3x3_reduce
I0403 19:23:24.831094  9177 net.cpp:141] Setting up inception_4c/3x3_reduce
I0403 19:23:24.831123  9177 net.cpp:148] Top shape: 24 128 14 14 (602112)
I0403 19:23:24.831141  9177 net.cpp:156] Memory required for data: 1035617568
I0403 19:23:24.831161  9177 layer_factory.hpp:77] Creating layer inception_4c/relu_3x3_reduce
I0403 19:23:24.831181  9177 net.cpp:91] Creating Layer inception_4c/relu_3x3_reduce
I0403 19:23:24.831198  9177 net.cpp:425] inception_4c/relu_3x3_reduce <- inception_4c/3x3_reduce
I0403 19:23:24.831233  9177 net.cpp:386] inception_4c/relu_3x3_reduce -> inception_4c/3x3_reduce (in-place)
I0403 19:23:24.831508  9177 net.cpp:141] Setting up inception_4c/relu_3x3_reduce
I0403 19:23:24.831534  9177 net.cpp:148] Top shape: 24 128 14 14 (602112)
I0403 19:23:24.831548  9177 net.cpp:156] Memory required for data: 1038026016
I0403 19:23:24.831563  9177 layer_factory.hpp:77] Creating layer inception_4c/3x3
I0403 19:23:24.831584  9177 net.cpp:91] Creating Layer inception_4c/3x3
I0403 19:23:24.831603  9177 net.cpp:425] inception_4c/3x3 <- inception_4c/3x3_reduce
I0403 19:23:24.831622  9177 net.cpp:399] inception_4c/3x3 -> inception_4c/3x3
I0403 19:23:24.835185  9177 net.cpp:141] Setting up inception_4c/3x3
I0403 19:23:24.835232  9177 net.cpp:148] Top shape: 24 256 14 14 (1204224)
I0403 19:23:24.835250  9177 net.cpp:156] Memory required for data: 1042842912
I0403 19:23:24.835281  9177 layer_factory.hpp:77] Creating layer inception_4c/relu_3x3
I0403 19:23:24.835304  9177 net.cpp:91] Creating Layer inception_4c/relu_3x3
I0403 19:23:24.835321  9177 net.cpp:425] inception_4c/relu_3x3 <- inception_4c/3x3
I0403 19:23:24.835338  9177 net.cpp:386] inception_4c/relu_3x3 -> inception_4c/3x3 (in-place)
I0403 19:23:24.835512  9177 net.cpp:141] Setting up inception_4c/relu_3x3
I0403 19:23:24.835536  9177 net.cpp:148] Top shape: 24 256 14 14 (1204224)
I0403 19:23:24.835549  9177 net.cpp:156] Memory required for data: 1047659808
I0403 19:23:24.835563  9177 layer_factory.hpp:77] Creating layer inception_4c/5x5_reduce
I0403 19:23:24.835584  9177 net.cpp:91] Creating Layer inception_4c/5x5_reduce
I0403 19:23:24.835602  9177 net.cpp:425] inception_4c/5x5_reduce <- inception_4b/output_inception_4b/output_0_split_2
I0403 19:23:24.835623  9177 net.cpp:399] inception_4c/5x5_reduce -> inception_4c/5x5_reduce
I0403 19:23:24.836704  9177 net.cpp:141] Setting up inception_4c/5x5_reduce
I0403 19:23:24.836732  9177 net.cpp:148] Top shape: 24 24 14 14 (112896)
I0403 19:23:24.836748  9177 net.cpp:156] Memory required for data: 1048111392
I0403 19:23:24.836767  9177 layer_factory.hpp:77] Creating layer inception_4c/relu_5x5_reduce
I0403 19:23:24.836787  9177 net.cpp:91] Creating Layer inception_4c/relu_5x5_reduce
I0403 19:23:24.836805  9177 net.cpp:425] inception_4c/relu_5x5_reduce <- inception_4c/5x5_reduce
I0403 19:23:24.836823  9177 net.cpp:386] inception_4c/relu_5x5_reduce -> inception_4c/5x5_reduce (in-place)
I0403 19:23:24.836999  9177 net.cpp:141] Setting up inception_4c/relu_5x5_reduce
I0403 19:23:24.837026  9177 net.cpp:148] Top shape: 24 24 14 14 (112896)
I0403 19:23:24.837043  9177 net.cpp:156] Memory required for data: 1048562976
I0403 19:23:24.837057  9177 layer_factory.hpp:77] Creating layer inception_4c/5x5
I0403 19:23:24.837079  9177 net.cpp:91] Creating Layer inception_4c/5x5
I0403 19:23:24.837095  9177 net.cpp:425] inception_4c/5x5 <- inception_4c/5x5_reduce
I0403 19:23:24.837113  9177 net.cpp:399] inception_4c/5x5 -> inception_4c/5x5
I0403 19:23:24.838347  9177 net.cpp:141] Setting up inception_4c/5x5
I0403 19:23:24.838382  9177 net.cpp:148] Top shape: 24 64 14 14 (301056)
I0403 19:23:24.838397  9177 net.cpp:156] Memory required for data: 1049767200
I0403 19:23:24.838416  9177 layer_factory.hpp:77] Creating layer inception_4c/relu_5x5
I0403 19:23:24.838435  9177 net.cpp:91] Creating Layer inception_4c/relu_5x5
I0403 19:23:24.838451  9177 net.cpp:425] inception_4c/relu_5x5 <- inception_4c/5x5
I0403 19:23:24.838467  9177 net.cpp:386] inception_4c/relu_5x5 -> inception_4c/5x5 (in-place)
I0403 19:23:24.838747  9177 net.cpp:141] Setting up inception_4c/relu_5x5
I0403 19:23:24.838775  9177 net.cpp:148] Top shape: 24 64 14 14 (301056)
I0403 19:23:24.838793  9177 net.cpp:156] Memory required for data: 1050971424
I0403 19:23:24.838807  9177 layer_factory.hpp:77] Creating layer inception_4c/pool
I0403 19:23:24.838825  9177 net.cpp:91] Creating Layer inception_4c/pool
I0403 19:23:24.838840  9177 net.cpp:425] inception_4c/pool <- inception_4b/output_inception_4b/output_0_split_3
I0403 19:23:24.838858  9177 net.cpp:399] inception_4c/pool -> inception_4c/pool
I0403 19:23:24.838922  9177 net.cpp:141] Setting up inception_4c/pool
I0403 19:23:24.838945  9177 net.cpp:148] Top shape: 24 512 14 14 (2408448)
I0403 19:23:24.838959  9177 net.cpp:156] Memory required for data: 1060605216
I0403 19:23:24.838974  9177 layer_factory.hpp:77] Creating layer inception_4c/pool_proj
I0403 19:23:24.838995  9177 net.cpp:91] Creating Layer inception_4c/pool_proj
I0403 19:23:24.839012  9177 net.cpp:425] inception_4c/pool_proj <- inception_4c/pool
I0403 19:23:24.839031  9177 net.cpp:399] inception_4c/pool_proj -> inception_4c/pool_proj
I0403 19:23:24.840216  9177 net.cpp:141] Setting up inception_4c/pool_proj
I0403 19:23:24.840245  9177 net.cpp:148] Top shape: 24 64 14 14 (301056)
I0403 19:23:24.840276  9177 net.cpp:156] Memory required for data: 1061809440
I0403 19:23:24.840296  9177 layer_factory.hpp:77] Creating layer inception_4c/relu_pool_proj
I0403 19:23:24.840314  9177 net.cpp:91] Creating Layer inception_4c/relu_pool_proj
I0403 19:23:24.840332  9177 net.cpp:425] inception_4c/relu_pool_proj <- inception_4c/pool_proj
I0403 19:23:24.840348  9177 net.cpp:386] inception_4c/relu_pool_proj -> inception_4c/pool_proj (in-place)
I0403 19:23:24.840525  9177 net.cpp:141] Setting up inception_4c/relu_pool_proj
I0403 19:23:24.840551  9177 net.cpp:148] Top shape: 24 64 14 14 (301056)
I0403 19:23:24.840566  9177 net.cpp:156] Memory required for data: 1063013664
I0403 19:23:24.840581  9177 layer_factory.hpp:77] Creating layer inception_4c/output
I0403 19:23:24.840597  9177 net.cpp:91] Creating Layer inception_4c/output
I0403 19:23:24.840612  9177 net.cpp:425] inception_4c/output <- inception_4c/1x1
I0403 19:23:24.840628  9177 net.cpp:425] inception_4c/output <- inception_4c/3x3
I0403 19:23:24.840644  9177 net.cpp:425] inception_4c/output <- inception_4c/5x5
I0403 19:23:24.840659  9177 net.cpp:425] inception_4c/output <- inception_4c/pool_proj
I0403 19:23:24.840675  9177 net.cpp:399] inception_4c/output -> inception_4c/output
I0403 19:23:24.840720  9177 net.cpp:141] Setting up inception_4c/output
I0403 19:23:24.840744  9177 net.cpp:148] Top shape: 24 512 14 14 (2408448)
I0403 19:23:24.840757  9177 net.cpp:156] Memory required for data: 1072647456
I0403 19:23:24.840772  9177 layer_factory.hpp:77] Creating layer inception_4c/output_inception_4c/output_0_split
I0403 19:23:24.840790  9177 net.cpp:91] Creating Layer inception_4c/output_inception_4c/output_0_split
I0403 19:23:24.840806  9177 net.cpp:425] inception_4c/output_inception_4c/output_0_split <- inception_4c/output
I0403 19:23:24.840822  9177 net.cpp:399] inception_4c/output_inception_4c/output_0_split -> inception_4c/output_inception_4c/output_0_split_0
I0403 19:23:24.840842  9177 net.cpp:399] inception_4c/output_inception_4c/output_0_split -> inception_4c/output_inception_4c/output_0_split_1
I0403 19:23:24.840862  9177 net.cpp:399] inception_4c/output_inception_4c/output_0_split -> inception_4c/output_inception_4c/output_0_split_2
I0403 19:23:24.840880  9177 net.cpp:399] inception_4c/output_inception_4c/output_0_split -> inception_4c/output_inception_4c/output_0_split_3
I0403 19:23:24.840963  9177 net.cpp:141] Setting up inception_4c/output_inception_4c/output_0_split
I0403 19:23:24.840986  9177 net.cpp:148] Top shape: 24 512 14 14 (2408448)
I0403 19:23:24.841001  9177 net.cpp:148] Top shape: 24 512 14 14 (2408448)
I0403 19:23:24.841017  9177 net.cpp:148] Top shape: 24 512 14 14 (2408448)
I0403 19:23:24.841032  9177 net.cpp:148] Top shape: 24 512 14 14 (2408448)
I0403 19:23:24.841044  9177 net.cpp:156] Memory required for data: 1111182624
I0403 19:23:24.841059  9177 layer_factory.hpp:77] Creating layer inception_4d/1x1
I0403 19:23:24.841084  9177 net.cpp:91] Creating Layer inception_4d/1x1
I0403 19:23:24.841100  9177 net.cpp:425] inception_4d/1x1 <- inception_4c/output_inception_4c/output_0_split_0
I0403 19:23:24.841120  9177 net.cpp:399] inception_4d/1x1 -> inception_4d/1x1
I0403 19:23:24.842516  9177 net.cpp:141] Setting up inception_4d/1x1
I0403 19:23:24.842545  9177 net.cpp:148] Top shape: 24 112 14 14 (526848)
I0403 19:23:24.842562  9177 net.cpp:156] Memory required for data: 1113290016
I0403 19:23:24.842581  9177 layer_factory.hpp:77] Creating layer inception_4d/relu_1x1
I0403 19:23:24.842598  9177 net.cpp:91] Creating Layer inception_4d/relu_1x1
I0403 19:23:24.842614  9177 net.cpp:425] inception_4d/relu_1x1 <- inception_4d/1x1
I0403 19:23:24.842634  9177 net.cpp:386] inception_4d/relu_1x1 -> inception_4d/1x1 (in-place)
I0403 19:23:24.842813  9177 net.cpp:141] Setting up inception_4d/relu_1x1
I0403 19:23:24.842838  9177 net.cpp:148] Top shape: 24 112 14 14 (526848)
I0403 19:23:24.842851  9177 net.cpp:156] Memory required for data: 1115397408
I0403 19:23:24.842864  9177 layer_factory.hpp:77] Creating layer inception_4d/3x3_reduce
I0403 19:23:24.842900  9177 net.cpp:91] Creating Layer inception_4d/3x3_reduce
I0403 19:23:24.842916  9177 net.cpp:425] inception_4d/3x3_reduce <- inception_4c/output_inception_4c/output_0_split_1
I0403 19:23:24.842937  9177 net.cpp:399] inception_4d/3x3_reduce -> inception_4d/3x3_reduce
I0403 19:23:24.844414  9177 net.cpp:141] Setting up inception_4d/3x3_reduce
I0403 19:23:24.844444  9177 net.cpp:148] Top shape: 24 144 14 14 (677376)
I0403 19:23:24.844462  9177 net.cpp:156] Memory required for data: 1118106912
I0403 19:23:24.844480  9177 layer_factory.hpp:77] Creating layer inception_4d/relu_3x3_reduce
I0403 19:23:24.844498  9177 net.cpp:91] Creating Layer inception_4d/relu_3x3_reduce
I0403 19:23:24.844513  9177 net.cpp:425] inception_4d/relu_3x3_reduce <- inception_4d/3x3_reduce
I0403 19:23:24.844532  9177 net.cpp:386] inception_4d/relu_3x3_reduce -> inception_4d/3x3_reduce (in-place)
I0403 19:23:24.844813  9177 net.cpp:141] Setting up inception_4d/relu_3x3_reduce
I0403 19:23:24.844841  9177 net.cpp:148] Top shape: 24 144 14 14 (677376)
I0403 19:23:24.844856  9177 net.cpp:156] Memory required for data: 1120816416
I0403 19:23:24.844871  9177 layer_factory.hpp:77] Creating layer inception_4d/3x3
I0403 19:23:24.844892  9177 net.cpp:91] Creating Layer inception_4d/3x3
I0403 19:23:24.844909  9177 net.cpp:425] inception_4d/3x3 <- inception_4d/3x3_reduce
I0403 19:23:24.844928  9177 net.cpp:399] inception_4d/3x3 -> inception_4d/3x3
I0403 19:23:24.849195  9177 net.cpp:141] Setting up inception_4d/3x3
I0403 19:23:24.849242  9177 net.cpp:148] Top shape: 24 288 14 14 (1354752)
I0403 19:23:24.849258  9177 net.cpp:156] Memory required for data: 1126235424
I0403 19:23:24.849278  9177 layer_factory.hpp:77] Creating layer inception_4d/relu_3x3
I0403 19:23:24.849318  9177 net.cpp:91] Creating Layer inception_4d/relu_3x3
I0403 19:23:24.849335  9177 net.cpp:425] inception_4d/relu_3x3 <- inception_4d/3x3
I0403 19:23:24.849366  9177 net.cpp:386] inception_4d/relu_3x3 -> inception_4d/3x3 (in-place)
I0403 19:23:24.849575  9177 net.cpp:141] Setting up inception_4d/relu_3x3
I0403 19:23:24.849601  9177 net.cpp:148] Top shape: 24 288 14 14 (1354752)
I0403 19:23:24.849617  9177 net.cpp:156] Memory required for data: 1131654432
I0403 19:23:24.849644  9177 layer_factory.hpp:77] Creating layer inception_4d/5x5_reduce
I0403 19:23:24.849669  9177 net.cpp:91] Creating Layer inception_4d/5x5_reduce
I0403 19:23:24.849690  9177 net.cpp:425] inception_4d/5x5_reduce <- inception_4c/output_inception_4c/output_0_split_2
I0403 19:23:24.849712  9177 net.cpp:399] inception_4d/5x5_reduce -> inception_4d/5x5_reduce
I0403 19:23:24.851042  9177 net.cpp:141] Setting up inception_4d/5x5_reduce
I0403 19:23:24.851073  9177 net.cpp:148] Top shape: 24 32 14 14 (150528)
I0403 19:23:24.851089  9177 net.cpp:156] Memory required for data: 1132256544
I0403 19:23:24.851109  9177 layer_factory.hpp:77] Creating layer inception_4d/relu_5x5_reduce
I0403 19:23:24.851127  9177 net.cpp:91] Creating Layer inception_4d/relu_5x5_reduce
I0403 19:23:24.851145  9177 net.cpp:425] inception_4d/relu_5x5_reduce <- inception_4d/5x5_reduce
I0403 19:23:24.851166  9177 net.cpp:386] inception_4d/relu_5x5_reduce -> inception_4d/5x5_reduce (in-place)
I0403 19:23:24.851383  9177 net.cpp:141] Setting up inception_4d/relu_5x5_reduce
I0403 19:23:24.851410  9177 net.cpp:148] Top shape: 24 32 14 14 (150528)
I0403 19:23:24.851426  9177 net.cpp:156] Memory required for data: 1132858656
I0403 19:23:24.851443  9177 layer_factory.hpp:77] Creating layer inception_4d/5x5
I0403 19:23:24.851466  9177 net.cpp:91] Creating Layer inception_4d/5x5
I0403 19:23:24.851485  9177 net.cpp:425] inception_4d/5x5 <- inception_4d/5x5_reduce
I0403 19:23:24.851507  9177 net.cpp:399] inception_4d/5x5 -> inception_4d/5x5
I0403 19:23:24.853096  9177 net.cpp:141] Setting up inception_4d/5x5
I0403 19:23:24.853127  9177 net.cpp:148] Top shape: 24 64 14 14 (301056)
I0403 19:23:24.853143  9177 net.cpp:156] Memory required for data: 1134062880
I0403 19:23:24.853164  9177 layer_factory.hpp:77] Creating layer inception_4d/relu_5x5
I0403 19:23:24.853201  9177 net.cpp:91] Creating Layer inception_4d/relu_5x5
I0403 19:23:24.853229  9177 net.cpp:425] inception_4d/relu_5x5 <- inception_4d/5x5
I0403 19:23:24.853260  9177 net.cpp:386] inception_4d/relu_5x5 -> inception_4d/5x5 (in-place)
I0403 19:23:24.853592  9177 net.cpp:141] Setting up inception_4d/relu_5x5
I0403 19:23:24.853621  9177 net.cpp:148] Top shape: 24 64 14 14 (301056)
I0403 19:23:24.853636  9177 net.cpp:156] Memory required for data: 1135267104
I0403 19:23:24.853651  9177 layer_factory.hpp:77] Creating layer inception_4d/pool
I0403 19:23:24.853672  9177 net.cpp:91] Creating Layer inception_4d/pool
I0403 19:23:24.853689  9177 net.cpp:425] inception_4d/pool <- inception_4c/output_inception_4c/output_0_split_3
I0403 19:23:24.853708  9177 net.cpp:399] inception_4d/pool -> inception_4d/pool
I0403 19:23:24.853778  9177 net.cpp:141] Setting up inception_4d/pool
I0403 19:23:24.853807  9177 net.cpp:148] Top shape: 24 512 14 14 (2408448)
I0403 19:23:24.853822  9177 net.cpp:156] Memory required for data: 1144900896
I0403 19:23:24.853837  9177 layer_factory.hpp:77] Creating layer inception_4d/pool_proj
I0403 19:23:24.853860  9177 net.cpp:91] Creating Layer inception_4d/pool_proj
I0403 19:23:24.853879  9177 net.cpp:425] inception_4d/pool_proj <- inception_4d/pool
I0403 19:23:24.853900  9177 net.cpp:399] inception_4d/pool_proj -> inception_4d/pool_proj
I0403 19:23:24.855794  9177 net.cpp:141] Setting up inception_4d/pool_proj
I0403 19:23:24.855826  9177 net.cpp:148] Top shape: 24 64 14 14 (301056)
I0403 19:23:24.855844  9177 net.cpp:156] Memory required for data: 1146105120
I0403 19:23:24.855864  9177 layer_factory.hpp:77] Creating layer inception_4d/relu_pool_proj
I0403 19:23:24.855885  9177 net.cpp:91] Creating Layer inception_4d/relu_pool_proj
I0403 19:23:24.855903  9177 net.cpp:425] inception_4d/relu_pool_proj <- inception_4d/pool_proj
I0403 19:23:24.855922  9177 net.cpp:386] inception_4d/relu_pool_proj -> inception_4d/pool_proj (in-place)
I0403 19:23:24.856113  9177 net.cpp:141] Setting up inception_4d/relu_pool_proj
I0403 19:23:24.856139  9177 net.cpp:148] Top shape: 24 64 14 14 (301056)
I0403 19:23:24.856154  9177 net.cpp:156] Memory required for data: 1147309344
I0403 19:23:24.856169  9177 layer_factory.hpp:77] Creating layer inception_4d/output
I0403 19:23:24.856189  9177 net.cpp:91] Creating Layer inception_4d/output
I0403 19:23:24.856206  9177 net.cpp:425] inception_4d/output <- inception_4d/1x1
I0403 19:23:24.856231  9177 net.cpp:425] inception_4d/output <- inception_4d/3x3
I0403 19:23:24.856248  9177 net.cpp:425] inception_4d/output <- inception_4d/5x5
I0403 19:23:24.856264  9177 net.cpp:425] inception_4d/output <- inception_4d/pool_proj
I0403 19:23:24.856281  9177 net.cpp:399] inception_4d/output -> inception_4d/output
I0403 19:23:24.856331  9177 net.cpp:141] Setting up inception_4d/output
I0403 19:23:24.856355  9177 net.cpp:148] Top shape: 24 528 14 14 (2483712)
I0403 19:23:24.856370  9177 net.cpp:156] Memory required for data: 1157244192
I0403 19:23:24.856385  9177 layer_factory.hpp:77] Creating layer inception_4d/output_inception_4d/output_0_split
I0403 19:23:24.856403  9177 net.cpp:91] Creating Layer inception_4d/output_inception_4d/output_0_split
I0403 19:23:24.856418  9177 net.cpp:425] inception_4d/output_inception_4d/output_0_split <- inception_4d/output
I0403 19:23:24.856438  9177 net.cpp:399] inception_4d/output_inception_4d/output_0_split -> inception_4d/output_inception_4d/output_0_split_0
I0403 19:23:24.856462  9177 net.cpp:399] inception_4d/output_inception_4d/output_0_split -> inception_4d/output_inception_4d/output_0_split_1
I0403 19:23:24.856483  9177 net.cpp:399] inception_4d/output_inception_4d/output_0_split -> inception_4d/output_inception_4d/output_0_split_2
I0403 19:23:24.856504  9177 net.cpp:399] inception_4d/output_inception_4d/output_0_split -> inception_4d/output_inception_4d/output_0_split_3
I0403 19:23:24.856525  9177 net.cpp:399] inception_4d/output_inception_4d/output_0_split -> inception_4d/output_inception_4d/output_0_split_4
I0403 19:23:24.856639  9177 net.cpp:141] Setting up inception_4d/output_inception_4d/output_0_split
I0403 19:23:24.856676  9177 net.cpp:148] Top shape: 24 528 14 14 (2483712)
I0403 19:23:24.856694  9177 net.cpp:148] Top shape: 24 528 14 14 (2483712)
I0403 19:23:24.856710  9177 net.cpp:148] Top shape: 24 528 14 14 (2483712)
I0403 19:23:24.856726  9177 net.cpp:148] Top shape: 24 528 14 14 (2483712)
I0403 19:23:24.856744  9177 net.cpp:148] Top shape: 24 528 14 14 (2483712)
I0403 19:23:24.856757  9177 net.cpp:156] Memory required for data: 1206918432
I0403 19:23:24.856772  9177 layer_factory.hpp:77] Creating layer loss2/ave_pool
I0403 19:23:24.856791  9177 net.cpp:91] Creating Layer loss2/ave_pool
I0403 19:23:24.856806  9177 net.cpp:425] loss2/ave_pool <- inception_4d/output_inception_4d/output_0_split_0
I0403 19:23:24.856828  9177 net.cpp:399] loss2/ave_pool -> loss2/ave_pool
I0403 19:23:24.857154  9177 net.cpp:141] Setting up loss2/ave_pool
I0403 19:23:24.857182  9177 net.cpp:148] Top shape: 24 528 4 4 (202752)
I0403 19:23:24.857197  9177 net.cpp:156] Memory required for data: 1207729440
I0403 19:23:24.857218  9177 layer_factory.hpp:77] Creating layer loss2/conv
I0403 19:23:24.857244  9177 net.cpp:91] Creating Layer loss2/conv
I0403 19:23:24.857275  9177 net.cpp:425] loss2/conv <- loss2/ave_pool
I0403 19:23:24.857297  9177 net.cpp:399] loss2/conv -> loss2/conv
I0403 19:23:24.859351  9177 net.cpp:141] Setting up loss2/conv
I0403 19:23:24.859381  9177 net.cpp:148] Top shape: 24 128 4 4 (49152)
I0403 19:23:24.859398  9177 net.cpp:156] Memory required for data: 1207926048
I0403 19:23:24.859417  9177 layer_factory.hpp:77] Creating layer loss2/relu_conv
I0403 19:23:24.859439  9177 net.cpp:91] Creating Layer loss2/relu_conv
I0403 19:23:24.859458  9177 net.cpp:425] loss2/relu_conv <- loss2/conv
I0403 19:23:24.859477  9177 net.cpp:386] loss2/relu_conv -> loss2/conv (in-place)
I0403 19:23:24.859787  9177 net.cpp:141] Setting up loss2/relu_conv
I0403 19:23:24.859813  9177 net.cpp:148] Top shape: 24 128 4 4 (49152)
I0403 19:23:24.859829  9177 net.cpp:156] Memory required for data: 1208122656
I0403 19:23:24.859845  9177 layer_factory.hpp:77] Creating layer loss2/fc
I0403 19:23:24.859871  9177 net.cpp:91] Creating Layer loss2/fc
I0403 19:23:24.859889  9177 net.cpp:425] loss2/fc <- loss2/conv
I0403 19:23:24.859910  9177 net.cpp:399] loss2/fc -> loss2/fc
I0403 19:23:24.878531  9177 net.cpp:141] Setting up loss2/fc
I0403 19:23:24.878584  9177 net.cpp:148] Top shape: 24 1024 (24576)
I0403 19:23:24.878602  9177 net.cpp:156] Memory required for data: 1208220960
I0403 19:23:24.878624  9177 layer_factory.hpp:77] Creating layer loss2/relu_fc
I0403 19:23:24.878645  9177 net.cpp:91] Creating Layer loss2/relu_fc
I0403 19:23:24.878662  9177 net.cpp:425] loss2/relu_fc <- loss2/fc
I0403 19:23:24.878684  9177 net.cpp:386] loss2/relu_fc -> loss2/fc (in-place)
I0403 19:23:24.879035  9177 net.cpp:141] Setting up loss2/relu_fc
I0403 19:23:24.879062  9177 net.cpp:148] Top shape: 24 1024 (24576)
I0403 19:23:24.879077  9177 net.cpp:156] Memory required for data: 1208319264
I0403 19:23:24.879092  9177 layer_factory.hpp:77] Creating layer loss2/drop_fc
I0403 19:23:24.879112  9177 net.cpp:91] Creating Layer loss2/drop_fc
I0403 19:23:24.879127  9177 net.cpp:425] loss2/drop_fc <- loss2/fc
I0403 19:23:24.879148  9177 net.cpp:386] loss2/drop_fc -> loss2/fc (in-place)
I0403 19:23:24.879201  9177 net.cpp:141] Setting up loss2/drop_fc
I0403 19:23:24.879235  9177 net.cpp:148] Top shape: 24 1024 (24576)
I0403 19:23:24.879262  9177 net.cpp:156] Memory required for data: 1208417568
I0403 19:23:24.879278  9177 layer_factory.hpp:77] Creating layer loss2/classifier_plantvillage
I0403 19:23:24.879298  9177 net.cpp:91] Creating Layer loss2/classifier_plantvillage
I0403 19:23:24.879315  9177 net.cpp:425] loss2/classifier_plantvillage <- loss2/fc
I0403 19:23:24.879338  9177 net.cpp:399] loss2/classifier_plantvillage -> loss2/classifier_plantvillage
I0403 19:23:24.879782  9177 net.cpp:141] Setting up loss2/classifier_plantvillage
I0403 19:23:24.879808  9177 net.cpp:148] Top shape: 24 38 (912)
I0403 19:23:24.879848  9177 net.cpp:156] Memory required for data: 1208421216
I0403 19:23:24.879866  9177 layer_factory.hpp:77] Creating layer loss2/classifier_plantvillage_loss2/classifier_plantvillage_0_split
I0403 19:23:24.879887  9177 net.cpp:91] Creating Layer loss2/classifier_plantvillage_loss2/classifier_plantvillage_0_split
I0403 19:23:24.879904  9177 net.cpp:425] loss2/classifier_plantvillage_loss2/classifier_plantvillage_0_split <- loss2/classifier_plantvillage
I0403 19:23:24.879923  9177 net.cpp:399] loss2/classifier_plantvillage_loss2/classifier_plantvillage_0_split -> loss2/classifier_plantvillage_loss2/classifier_plantvillage_0_split_0
I0403 19:23:24.879948  9177 net.cpp:399] loss2/classifier_plantvillage_loss2/classifier_plantvillage_0_split -> loss2/classifier_plantvillage_loss2/classifier_plantvillage_0_split_1
I0403 19:23:24.879971  9177 net.cpp:399] loss2/classifier_plantvillage_loss2/classifier_plantvillage_0_split -> loss2/classifier_plantvillage_loss2/classifier_plantvillage_0_split_2
I0403 19:23:24.880049  9177 net.cpp:141] Setting up loss2/classifier_plantvillage_loss2/classifier_plantvillage_0_split
I0403 19:23:24.880074  9177 net.cpp:148] Top shape: 24 38 (912)
I0403 19:23:24.880090  9177 net.cpp:148] Top shape: 24 38 (912)
I0403 19:23:24.880106  9177 net.cpp:148] Top shape: 24 38 (912)
I0403 19:23:24.880120  9177 net.cpp:156] Memory required for data: 1208432160
I0403 19:23:24.880136  9177 layer_factory.hpp:77] Creating layer inception_4e/1x1
I0403 19:23:24.880159  9177 net.cpp:91] Creating Layer inception_4e/1x1
I0403 19:23:24.880177  9177 net.cpp:425] inception_4e/1x1 <- inception_4d/output_inception_4d/output_0_split_1
I0403 19:23:24.880198  9177 net.cpp:399] inception_4e/1x1 -> inception_4e/1x1
I0403 19:23:24.882117  9177 net.cpp:141] Setting up inception_4e/1x1
I0403 19:23:24.882148  9177 net.cpp:148] Top shape: 24 256 14 14 (1204224)
I0403 19:23:24.882165  9177 net.cpp:156] Memory required for data: 1213249056
I0403 19:23:24.882184  9177 layer_factory.hpp:77] Creating layer inception_4e/relu_1x1
I0403 19:23:24.882203  9177 net.cpp:91] Creating Layer inception_4e/relu_1x1
I0403 19:23:24.882233  9177 net.cpp:425] inception_4e/relu_1x1 <- inception_4e/1x1
I0403 19:23:24.882253  9177 net.cpp:386] inception_4e/relu_1x1 -> inception_4e/1x1 (in-place)
I0403 19:23:24.882565  9177 net.cpp:141] Setting up inception_4e/relu_1x1
I0403 19:23:24.882594  9177 net.cpp:148] Top shape: 24 256 14 14 (1204224)
I0403 19:23:24.882611  9177 net.cpp:156] Memory required for data: 1218065952
I0403 19:23:24.882627  9177 layer_factory.hpp:77] Creating layer inception_4e/3x3_reduce
I0403 19:23:24.882649  9177 net.cpp:91] Creating Layer inception_4e/3x3_reduce
I0403 19:23:24.882668  9177 net.cpp:425] inception_4e/3x3_reduce <- inception_4d/output_inception_4d/output_0_split_2
I0403 19:23:24.882688  9177 net.cpp:399] inception_4e/3x3_reduce -> inception_4e/3x3_reduce
I0403 19:23:24.884932  9177 net.cpp:141] Setting up inception_4e/3x3_reduce
I0403 19:23:24.884963  9177 net.cpp:148] Top shape: 24 160 14 14 (752640)
I0403 19:23:24.884980  9177 net.cpp:156] Memory required for data: 1221076512
I0403 19:23:24.884999  9177 layer_factory.hpp:77] Creating layer inception_4e/relu_3x3_reduce
I0403 19:23:24.885020  9177 net.cpp:91] Creating Layer inception_4e/relu_3x3_reduce
I0403 19:23:24.885038  9177 net.cpp:425] inception_4e/relu_3x3_reduce <- inception_4e/3x3_reduce
I0403 19:23:24.885057  9177 net.cpp:386] inception_4e/relu_3x3_reduce -> inception_4e/3x3_reduce (in-place)
I0403 19:23:24.885254  9177 net.cpp:141] Setting up inception_4e/relu_3x3_reduce
I0403 19:23:24.885283  9177 net.cpp:148] Top shape: 24 160 14 14 (752640)
I0403 19:23:24.885299  9177 net.cpp:156] Memory required for data: 1224087072
I0403 19:23:24.885314  9177 layer_factory.hpp:77] Creating layer inception_4e/3x3
I0403 19:23:24.885337  9177 net.cpp:91] Creating Layer inception_4e/3x3
I0403 19:23:24.885355  9177 net.cpp:425] inception_4e/3x3 <- inception_4e/3x3_reduce
I0403 19:23:24.885375  9177 net.cpp:399] inception_4e/3x3 -> inception_4e/3x3
I0403 19:23:24.890676  9177 net.cpp:141] Setting up inception_4e/3x3
I0403 19:23:24.890722  9177 net.cpp:148] Top shape: 24 320 14 14 (1505280)
I0403 19:23:24.890739  9177 net.cpp:156] Memory required for data: 1230108192
I0403 19:23:24.890758  9177 layer_factory.hpp:77] Creating layer inception_4e/relu_3x3
I0403 19:23:24.890777  9177 net.cpp:91] Creating Layer inception_4e/relu_3x3
I0403 19:23:24.890796  9177 net.cpp:425] inception_4e/relu_3x3 <- inception_4e/3x3
I0403 19:23:24.890817  9177 net.cpp:386] inception_4e/relu_3x3 -> inception_4e/3x3 (in-place)
I0403 19:23:24.891129  9177 net.cpp:141] Setting up inception_4e/relu_3x3
I0403 19:23:24.891156  9177 net.cpp:148] Top shape: 24 320 14 14 (1505280)
I0403 19:23:24.891171  9177 net.cpp:156] Memory required for data: 1236129312
I0403 19:23:24.891186  9177 layer_factory.hpp:77] Creating layer inception_4e/5x5_reduce
I0403 19:23:24.891224  9177 net.cpp:91] Creating Layer inception_4e/5x5_reduce
I0403 19:23:24.891268  9177 net.cpp:425] inception_4e/5x5_reduce <- inception_4d/output_inception_4d/output_0_split_3
I0403 19:23:24.891291  9177 net.cpp:399] inception_4e/5x5_reduce -> inception_4e/5x5_reduce
I0403 19:23:24.892441  9177 net.cpp:141] Setting up inception_4e/5x5_reduce
I0403 19:23:24.892472  9177 net.cpp:148] Top shape: 24 32 14 14 (150528)
I0403 19:23:24.892488  9177 net.cpp:156] Memory required for data: 1236731424
I0403 19:23:24.892508  9177 layer_factory.hpp:77] Creating layer inception_4e/relu_5x5_reduce
I0403 19:23:24.892531  9177 net.cpp:91] Creating Layer inception_4e/relu_5x5_reduce
I0403 19:23:24.892549  9177 net.cpp:425] inception_4e/relu_5x5_reduce <- inception_4e/5x5_reduce
I0403 19:23:24.892567  9177 net.cpp:386] inception_4e/relu_5x5_reduce -> inception_4e/5x5_reduce (in-place)
I0403 19:23:24.892874  9177 net.cpp:141] Setting up inception_4e/relu_5x5_reduce
I0403 19:23:24.892904  9177 net.cpp:148] Top shape: 24 32 14 14 (150528)
I0403 19:23:24.892920  9177 net.cpp:156] Memory required for data: 1237333536
I0403 19:23:24.892935  9177 layer_factory.hpp:77] Creating layer inception_4e/5x5
I0403 19:23:24.892976  9177 net.cpp:91] Creating Layer inception_4e/5x5
I0403 19:23:24.892997  9177 net.cpp:425] inception_4e/5x5 <- inception_4e/5x5_reduce
I0403 19:23:24.893019  9177 net.cpp:399] inception_4e/5x5 -> inception_4e/5x5
I0403 19:23:24.894951  9177 net.cpp:141] Setting up inception_4e/5x5
I0403 19:23:24.894991  9177 net.cpp:148] Top shape: 24 128 14 14 (602112)
I0403 19:23:24.895007  9177 net.cpp:156] Memory required for data: 1239741984
I0403 19:23:24.895027  9177 layer_factory.hpp:77] Creating layer inception_4e/relu_5x5
I0403 19:23:24.895048  9177 net.cpp:91] Creating Layer inception_4e/relu_5x5
I0403 19:23:24.895066  9177 net.cpp:425] inception_4e/relu_5x5 <- inception_4e/5x5
I0403 19:23:24.895086  9177 net.cpp:386] inception_4e/relu_5x5 -> inception_4e/5x5 (in-place)
I0403 19:23:24.895304  9177 net.cpp:141] Setting up inception_4e/relu_5x5
I0403 19:23:24.895333  9177 net.cpp:148] Top shape: 24 128 14 14 (602112)
I0403 19:23:24.895347  9177 net.cpp:156] Memory required for data: 1242150432
I0403 19:23:24.895364  9177 layer_factory.hpp:77] Creating layer inception_4e/pool
I0403 19:23:24.895385  9177 net.cpp:91] Creating Layer inception_4e/pool
I0403 19:23:24.895403  9177 net.cpp:425] inception_4e/pool <- inception_4d/output_inception_4d/output_0_split_4
I0403 19:23:24.895423  9177 net.cpp:399] inception_4e/pool -> inception_4e/pool
I0403 19:23:24.895496  9177 net.cpp:141] Setting up inception_4e/pool
I0403 19:23:24.895522  9177 net.cpp:148] Top shape: 24 528 14 14 (2483712)
I0403 19:23:24.895537  9177 net.cpp:156] Memory required for data: 1252085280
I0403 19:23:24.895553  9177 layer_factory.hpp:77] Creating layer inception_4e/pool_proj
I0403 19:23:24.895587  9177 net.cpp:91] Creating Layer inception_4e/pool_proj
I0403 19:23:24.895606  9177 net.cpp:425] inception_4e/pool_proj <- inception_4e/pool
I0403 19:23:24.895628  9177 net.cpp:399] inception_4e/pool_proj -> inception_4e/pool_proj
I0403 19:23:24.897138  9177 net.cpp:141] Setting up inception_4e/pool_proj
I0403 19:23:24.897179  9177 net.cpp:148] Top shape: 24 128 14 14 (602112)
I0403 19:23:24.897195  9177 net.cpp:156] Memory required for data: 1254493728
I0403 19:23:24.897222  9177 layer_factory.hpp:77] Creating layer inception_4e/relu_pool_proj
I0403 19:23:24.897243  9177 net.cpp:91] Creating Layer inception_4e/relu_pool_proj
I0403 19:23:24.897261  9177 net.cpp:425] inception_4e/relu_pool_proj <- inception_4e/pool_proj
I0403 19:23:24.897291  9177 net.cpp:386] inception_4e/relu_pool_proj -> inception_4e/pool_proj (in-place)
I0403 19:23:24.897598  9177 net.cpp:141] Setting up inception_4e/relu_pool_proj
I0403 19:23:24.897625  9177 net.cpp:148] Top shape: 24 128 14 14 (602112)
I0403 19:23:24.897640  9177 net.cpp:156] Memory required for data: 1256902176
I0403 19:23:24.897655  9177 layer_factory.hpp:77] Creating layer inception_4e/output
I0403 19:23:24.897672  9177 net.cpp:91] Creating Layer inception_4e/output
I0403 19:23:24.897687  9177 net.cpp:425] inception_4e/output <- inception_4e/1x1
I0403 19:23:24.897704  9177 net.cpp:425] inception_4e/output <- inception_4e/3x3
I0403 19:23:24.897721  9177 net.cpp:425] inception_4e/output <- inception_4e/5x5
I0403 19:23:24.897735  9177 net.cpp:425] inception_4e/output <- inception_4e/pool_proj
I0403 19:23:24.897755  9177 net.cpp:399] inception_4e/output -> inception_4e/output
I0403 19:23:24.897805  9177 net.cpp:141] Setting up inception_4e/output
I0403 19:23:24.897830  9177 net.cpp:148] Top shape: 24 832 14 14 (3913728)
I0403 19:23:24.897846  9177 net.cpp:156] Memory required for data: 1272557088
I0403 19:23:24.897861  9177 layer_factory.hpp:77] Creating layer pool4/3x3_s2
I0403 19:23:24.897878  9177 net.cpp:91] Creating Layer pool4/3x3_s2
I0403 19:23:24.897894  9177 net.cpp:425] pool4/3x3_s2 <- inception_4e/output
I0403 19:23:24.897915  9177 net.cpp:399] pool4/3x3_s2 -> pool4/3x3_s2
I0403 19:23:24.897982  9177 net.cpp:141] Setting up pool4/3x3_s2
I0403 19:23:24.898006  9177 net.cpp:148] Top shape: 24 832 7 7 (978432)
I0403 19:23:24.898020  9177 net.cpp:156] Memory required for data: 1276470816
I0403 19:23:24.898036  9177 layer_factory.hpp:77] Creating layer pool4/3x3_s2_pool4/3x3_s2_0_split
I0403 19:23:24.898054  9177 net.cpp:91] Creating Layer pool4/3x3_s2_pool4/3x3_s2_0_split
I0403 19:23:24.898072  9177 net.cpp:425] pool4/3x3_s2_pool4/3x3_s2_0_split <- pool4/3x3_s2
I0403 19:23:24.898089  9177 net.cpp:399] pool4/3x3_s2_pool4/3x3_s2_0_split -> pool4/3x3_s2_pool4/3x3_s2_0_split_0
I0403 19:23:24.898109  9177 net.cpp:399] pool4/3x3_s2_pool4/3x3_s2_0_split -> pool4/3x3_s2_pool4/3x3_s2_0_split_1
I0403 19:23:24.898128  9177 net.cpp:399] pool4/3x3_s2_pool4/3x3_s2_0_split -> pool4/3x3_s2_pool4/3x3_s2_0_split_2
I0403 19:23:24.898150  9177 net.cpp:399] pool4/3x3_s2_pool4/3x3_s2_0_split -> pool4/3x3_s2_pool4/3x3_s2_0_split_3
I0403 19:23:24.898252  9177 net.cpp:141] Setting up pool4/3x3_s2_pool4/3x3_s2_0_split
I0403 19:23:24.898275  9177 net.cpp:148] Top shape: 24 832 7 7 (978432)
I0403 19:23:24.898293  9177 net.cpp:148] Top shape: 24 832 7 7 (978432)
I0403 19:23:24.898308  9177 net.cpp:148] Top shape: 24 832 7 7 (978432)
I0403 19:23:24.898324  9177 net.cpp:148] Top shape: 24 832 7 7 (978432)
I0403 19:23:24.898336  9177 net.cpp:156] Memory required for data: 1292125728
I0403 19:23:24.898351  9177 layer_factory.hpp:77] Creating layer inception_5a/1x1
I0403 19:23:24.898373  9177 net.cpp:91] Creating Layer inception_5a/1x1
I0403 19:23:24.898391  9177 net.cpp:425] inception_5a/1x1 <- pool4/3x3_s2_pool4/3x3_s2_0_split_0
I0403 19:23:24.898412  9177 net.cpp:399] inception_5a/1x1 -> inception_5a/1x1
I0403 19:23:24.901353  9177 net.cpp:141] Setting up inception_5a/1x1
I0403 19:23:24.901383  9177 net.cpp:148] Top shape: 24 256 7 7 (301056)
I0403 19:23:24.901401  9177 net.cpp:156] Memory required for data: 1293329952
I0403 19:23:24.901419  9177 layer_factory.hpp:77] Creating layer inception_5a/relu_1x1
I0403 19:23:24.901440  9177 net.cpp:91] Creating Layer inception_5a/relu_1x1
I0403 19:23:24.901456  9177 net.cpp:425] inception_5a/relu_1x1 <- inception_5a/1x1
I0403 19:23:24.901474  9177 net.cpp:386] inception_5a/relu_1x1 -> inception_5a/1x1 (in-place)
I0403 19:23:24.901785  9177 net.cpp:141] Setting up inception_5a/relu_1x1
I0403 19:23:24.901813  9177 net.cpp:148] Top shape: 24 256 7 7 (301056)
I0403 19:23:24.901828  9177 net.cpp:156] Memory required for data: 1294534176
I0403 19:23:24.901854  9177 layer_factory.hpp:77] Creating layer inception_5a/3x3_reduce
I0403 19:23:24.901877  9177 net.cpp:91] Creating Layer inception_5a/3x3_reduce
I0403 19:23:24.901896  9177 net.cpp:425] inception_5a/3x3_reduce <- pool4/3x3_s2_pool4/3x3_s2_0_split_1
I0403 19:23:24.901918  9177 net.cpp:399] inception_5a/3x3_reduce -> inception_5a/3x3_reduce
I0403 19:23:24.904491  9177 net.cpp:141] Setting up inception_5a/3x3_reduce
I0403 19:23:24.904523  9177 net.cpp:148] Top shape: 24 160 7 7 (188160)
I0403 19:23:24.904539  9177 net.cpp:156] Memory required for data: 1295286816
I0403 19:23:24.904558  9177 layer_factory.hpp:77] Creating layer inception_5a/relu_3x3_reduce
I0403 19:23:24.904577  9177 net.cpp:91] Creating Layer inception_5a/relu_3x3_reduce
I0403 19:23:24.904593  9177 net.cpp:425] inception_5a/relu_3x3_reduce <- inception_5a/3x3_reduce
I0403 19:23:24.904613  9177 net.cpp:386] inception_5a/relu_3x3_reduce -> inception_5a/3x3_reduce (in-place)
I0403 19:23:24.904799  9177 net.cpp:141] Setting up inception_5a/relu_3x3_reduce
I0403 19:23:24.904824  9177 net.cpp:148] Top shape: 24 160 7 7 (188160)
I0403 19:23:24.904839  9177 net.cpp:156] Memory required for data: 1296039456
I0403 19:23:24.904853  9177 layer_factory.hpp:77] Creating layer inception_5a/3x3
I0403 19:23:24.904878  9177 net.cpp:91] Creating Layer inception_5a/3x3
I0403 19:23:24.904896  9177 net.cpp:425] inception_5a/3x3 <- inception_5a/3x3_reduce
I0403 19:23:24.904918  9177 net.cpp:399] inception_5a/3x3 -> inception_5a/3x3
I0403 19:23:24.910022  9177 net.cpp:141] Setting up inception_5a/3x3
I0403 19:23:24.910053  9177 net.cpp:148] Top shape: 24 320 7 7 (376320)
I0403 19:23:24.910070  9177 net.cpp:156] Memory required for data: 1297544736
I0403 19:23:24.910089  9177 layer_factory.hpp:77] Creating layer inception_5a/relu_3x3
I0403 19:23:24.910109  9177 net.cpp:91] Creating Layer inception_5a/relu_3x3
I0403 19:23:24.910137  9177 net.cpp:425] inception_5a/relu_3x3 <- inception_5a/3x3
I0403 19:23:24.910156  9177 net.cpp:386] inception_5a/relu_3x3 -> inception_5a/3x3 (in-place)
I0403 19:23:24.910472  9177 net.cpp:141] Setting up inception_5a/relu_3x3
I0403 19:23:24.910501  9177 net.cpp:148] Top shape: 24 320 7 7 (376320)
I0403 19:23:24.910516  9177 net.cpp:156] Memory required for data: 1299050016
I0403 19:23:24.910531  9177 layer_factory.hpp:77] Creating layer inception_5a/5x5_reduce
I0403 19:23:24.910554  9177 net.cpp:91] Creating Layer inception_5a/5x5_reduce
I0403 19:23:24.910573  9177 net.cpp:425] inception_5a/5x5_reduce <- pool4/3x3_s2_pool4/3x3_s2_0_split_2
I0403 19:23:24.910596  9177 net.cpp:399] inception_5a/5x5_reduce -> inception_5a/5x5_reduce
I0403 19:23:24.911823  9177 net.cpp:141] Setting up inception_5a/5x5_reduce
I0403 19:23:24.911854  9177 net.cpp:148] Top shape: 24 32 7 7 (37632)
I0403 19:23:24.911870  9177 net.cpp:156] Memory required for data: 1299200544
I0403 19:23:24.911887  9177 layer_factory.hpp:77] Creating layer inception_5a/relu_5x5_reduce
I0403 19:23:24.911908  9177 net.cpp:91] Creating Layer inception_5a/relu_5x5_reduce
I0403 19:23:24.911924  9177 net.cpp:425] inception_5a/relu_5x5_reduce <- inception_5a/5x5_reduce
I0403 19:23:24.911942  9177 net.cpp:386] inception_5a/relu_5x5_reduce -> inception_5a/5x5_reduce (in-place)
I0403 19:23:24.912255  9177 net.cpp:141] Setting up inception_5a/relu_5x5_reduce
I0403 19:23:24.912281  9177 net.cpp:148] Top shape: 24 32 7 7 (37632)
I0403 19:23:24.912295  9177 net.cpp:156] Memory required for data: 1299351072
I0403 19:23:24.912309  9177 layer_factory.hpp:77] Creating layer inception_5a/5x5
I0403 19:23:24.912333  9177 net.cpp:91] Creating Layer inception_5a/5x5
I0403 19:23:24.912350  9177 net.cpp:425] inception_5a/5x5 <- inception_5a/5x5_reduce
I0403 19:23:24.912370  9177 net.cpp:399] inception_5a/5x5 -> inception_5a/5x5
I0403 19:23:24.914098  9177 net.cpp:141] Setting up inception_5a/5x5
I0403 19:23:24.914139  9177 net.cpp:148] Top shape: 24 128 7 7 (150528)
I0403 19:23:24.914155  9177 net.cpp:156] Memory required for data: 1299953184
I0403 19:23:24.914175  9177 layer_factory.hpp:77] Creating layer inception_5a/relu_5x5
I0403 19:23:24.914196  9177 net.cpp:91] Creating Layer inception_5a/relu_5x5
I0403 19:23:24.914223  9177 net.cpp:425] inception_5a/relu_5x5 <- inception_5a/5x5
I0403 19:23:24.914242  9177 net.cpp:386] inception_5a/relu_5x5 -> inception_5a/5x5 (in-place)
I0403 19:23:24.914435  9177 net.cpp:141] Setting up inception_5a/relu_5x5
I0403 19:23:24.914459  9177 net.cpp:148] Top shape: 24 128 7 7 (150528)
I0403 19:23:24.914474  9177 net.cpp:156] Memory required for data: 1300555296
I0403 19:23:24.914489  9177 layer_factory.hpp:77] Creating layer inception_5a/pool
I0403 19:23:24.914510  9177 net.cpp:91] Creating Layer inception_5a/pool
I0403 19:23:24.914526  9177 net.cpp:425] inception_5a/pool <- pool4/3x3_s2_pool4/3x3_s2_0_split_3
I0403 19:23:24.914546  9177 net.cpp:399] inception_5a/pool -> inception_5a/pool
I0403 19:23:24.914618  9177 net.cpp:141] Setting up inception_5a/pool
I0403 19:23:24.914643  9177 net.cpp:148] Top shape: 24 832 7 7 (978432)
I0403 19:23:24.914657  9177 net.cpp:156] Memory required for data: 1304469024
I0403 19:23:24.914671  9177 layer_factory.hpp:77] Creating layer inception_5a/pool_proj
I0403 19:23:24.914693  9177 net.cpp:91] Creating Layer inception_5a/pool_proj
I0403 19:23:24.914711  9177 net.cpp:425] inception_5a/pool_proj <- inception_5a/pool
I0403 19:23:24.914731  9177 net.cpp:399] inception_5a/pool_proj -> inception_5a/pool_proj
I0403 19:23:24.917052  9177 net.cpp:141] Setting up inception_5a/pool_proj
I0403 19:23:24.917083  9177 net.cpp:148] Top shape: 24 128 7 7 (150528)
I0403 19:23:24.917099  9177 net.cpp:156] Memory required for data: 1305071136
I0403 19:23:24.917119  9177 layer_factory.hpp:77] Creating layer inception_5a/relu_pool_proj
I0403 19:23:24.917136  9177 net.cpp:91] Creating Layer inception_5a/relu_pool_proj
I0403 19:23:24.917152  9177 net.cpp:425] inception_5a/relu_pool_proj <- inception_5a/pool_proj
I0403 19:23:24.917171  9177 net.cpp:386] inception_5a/relu_pool_proj -> inception_5a/pool_proj (in-place)
I0403 19:23:24.917481  9177 net.cpp:141] Setting up inception_5a/relu_pool_proj
I0403 19:23:24.917508  9177 net.cpp:148] Top shape: 24 128 7 7 (150528)
I0403 19:23:24.917523  9177 net.cpp:156] Memory required for data: 1305673248
I0403 19:23:24.917538  9177 layer_factory.hpp:77] Creating layer inception_5a/output
I0403 19:23:24.917557  9177 net.cpp:91] Creating Layer inception_5a/output
I0403 19:23:24.917572  9177 net.cpp:425] inception_5a/output <- inception_5a/1x1
I0403 19:23:24.917588  9177 net.cpp:425] inception_5a/output <- inception_5a/3x3
I0403 19:23:24.917604  9177 net.cpp:425] inception_5a/output <- inception_5a/5x5
I0403 19:23:24.917619  9177 net.cpp:425] inception_5a/output <- inception_5a/pool_proj
I0403 19:23:24.917639  9177 net.cpp:399] inception_5a/output -> inception_5a/output
I0403 19:23:24.917690  9177 net.cpp:141] Setting up inception_5a/output
I0403 19:23:24.917714  9177 net.cpp:148] Top shape: 24 832 7 7 (978432)
I0403 19:23:24.917729  9177 net.cpp:156] Memory required for data: 1309586976
I0403 19:23:24.917744  9177 layer_factory.hpp:77] Creating layer inception_5a/output_inception_5a/output_0_split
I0403 19:23:24.917762  9177 net.cpp:91] Creating Layer inception_5a/output_inception_5a/output_0_split
I0403 19:23:24.917776  9177 net.cpp:425] inception_5a/output_inception_5a/output_0_split <- inception_5a/output
I0403 19:23:24.917793  9177 net.cpp:399] inception_5a/output_inception_5a/output_0_split -> inception_5a/output_inception_5a/output_0_split_0
I0403 19:23:24.917815  9177 net.cpp:399] inception_5a/output_inception_5a/output_0_split -> inception_5a/output_inception_5a/output_0_split_1
I0403 19:23:24.917837  9177 net.cpp:399] inception_5a/output_inception_5a/output_0_split -> inception_5a/output_inception_5a/output_0_split_2
I0403 19:23:24.917857  9177 net.cpp:399] inception_5a/output_inception_5a/output_0_split -> inception_5a/output_inception_5a/output_0_split_3
I0403 19:23:24.917968  9177 net.cpp:141] Setting up inception_5a/output_inception_5a/output_0_split
I0403 19:23:24.917994  9177 net.cpp:148] Top shape: 24 832 7 7 (978432)
I0403 19:23:24.918009  9177 net.cpp:148] Top shape: 24 832 7 7 (978432)
I0403 19:23:24.918023  9177 net.cpp:148] Top shape: 24 832 7 7 (978432)
I0403 19:23:24.918040  9177 net.cpp:148] Top shape: 24 832 7 7 (978432)
I0403 19:23:24.918052  9177 net.cpp:156] Memory required for data: 1325241888
I0403 19:23:24.918067  9177 layer_factory.hpp:77] Creating layer inception_5b/1x1
I0403 19:23:24.918092  9177 net.cpp:91] Creating Layer inception_5b/1x1
I0403 19:23:24.918108  9177 net.cpp:425] inception_5b/1x1 <- inception_5a/output_inception_5a/output_0_split_0
I0403 19:23:24.918128  9177 net.cpp:399] inception_5b/1x1 -> inception_5b/1x1
I0403 19:23:24.921957  9177 net.cpp:141] Setting up inception_5b/1x1
I0403 19:23:24.921986  9177 net.cpp:148] Top shape: 24 384 7 7 (451584)
I0403 19:23:24.922003  9177 net.cpp:156] Memory required for data: 1327048224
I0403 19:23:24.922022  9177 layer_factory.hpp:77] Creating layer inception_5b/relu_1x1
I0403 19:23:24.922040  9177 net.cpp:91] Creating Layer inception_5b/relu_1x1
I0403 19:23:24.922057  9177 net.cpp:425] inception_5b/relu_1x1 <- inception_5b/1x1
I0403 19:23:24.922076  9177 net.cpp:386] inception_5b/relu_1x1 -> inception_5b/1x1 (in-place)
I0403 19:23:24.922396  9177 net.cpp:141] Setting up inception_5b/relu_1x1
I0403 19:23:24.922423  9177 net.cpp:148] Top shape: 24 384 7 7 (451584)
I0403 19:23:24.922438  9177 net.cpp:156] Memory required for data: 1328854560
I0403 19:23:24.922453  9177 layer_factory.hpp:77] Creating layer inception_5b/3x3_reduce
I0403 19:23:24.922475  9177 net.cpp:91] Creating Layer inception_5b/3x3_reduce
I0403 19:23:24.922492  9177 net.cpp:425] inception_5b/3x3_reduce <- inception_5a/output_inception_5a/output_0_split_1
I0403 19:23:24.922515  9177 net.cpp:399] inception_5b/3x3_reduce -> inception_5b/3x3_reduce
I0403 19:23:24.925253  9177 net.cpp:141] Setting up inception_5b/3x3_reduce
I0403 19:23:24.925284  9177 net.cpp:148] Top shape: 24 192 7 7 (225792)
I0403 19:23:24.925302  9177 net.cpp:156] Memory required for data: 1329757728
I0403 19:23:24.925321  9177 layer_factory.hpp:77] Creating layer inception_5b/relu_3x3_reduce
I0403 19:23:24.925339  9177 net.cpp:91] Creating Layer inception_5b/relu_3x3_reduce
I0403 19:23:24.925355  9177 net.cpp:425] inception_5b/relu_3x3_reduce <- inception_5b/3x3_reduce
I0403 19:23:24.925375  9177 net.cpp:386] inception_5b/relu_3x3_reduce -> inception_5b/3x3_reduce (in-place)
I0403 19:23:24.925570  9177 net.cpp:141] Setting up inception_5b/relu_3x3_reduce
I0403 19:23:24.925597  9177 net.cpp:148] Top shape: 24 192 7 7 (225792)
I0403 19:23:24.925612  9177 net.cpp:156] Memory required for data: 1330660896
I0403 19:23:24.925626  9177 layer_factory.hpp:77] Creating layer inception_5b/3x3
I0403 19:23:24.925649  9177 net.cpp:91] Creating Layer inception_5b/3x3
I0403 19:23:24.925668  9177 net.cpp:425] inception_5b/3x3 <- inception_5b/3x3_reduce
I0403 19:23:24.925689  9177 net.cpp:399] inception_5b/3x3 -> inception_5b/3x3
I0403 19:23:24.932545  9177 net.cpp:141] Setting up inception_5b/3x3
I0403 19:23:24.932588  9177 net.cpp:148] Top shape: 24 384 7 7 (451584)
I0403 19:23:24.932605  9177 net.cpp:156] Memory required for data: 1332467232
I0403 19:23:24.932623  9177 layer_factory.hpp:77] Creating layer inception_5b/relu_3x3
I0403 19:23:24.932642  9177 net.cpp:91] Creating Layer inception_5b/relu_3x3
I0403 19:23:24.932659  9177 net.cpp:425] inception_5b/relu_3x3 <- inception_5b/3x3
I0403 19:23:24.932680  9177 net.cpp:386] inception_5b/relu_3x3 -> inception_5b/3x3 (in-place)
I0403 19:23:24.932987  9177 net.cpp:141] Setting up inception_5b/relu_3x3
I0403 19:23:24.933013  9177 net.cpp:148] Top shape: 24 384 7 7 (451584)
I0403 19:23:24.933028  9177 net.cpp:156] Memory required for data: 1334273568
I0403 19:23:24.933043  9177 layer_factory.hpp:77] Creating layer inception_5b/5x5_reduce
I0403 19:23:24.933080  9177 net.cpp:91] Creating Layer inception_5b/5x5_reduce
I0403 19:23:24.933099  9177 net.cpp:425] inception_5b/5x5_reduce <- inception_5a/output_inception_5a/output_0_split_2
I0403 19:23:24.933122  9177 net.cpp:399] inception_5b/5x5_reduce -> inception_5b/5x5_reduce
I0403 19:23:24.934415  9177 net.cpp:141] Setting up inception_5b/5x5_reduce
I0403 19:23:24.934444  9177 net.cpp:148] Top shape: 24 48 7 7 (56448)
I0403 19:23:24.934461  9177 net.cpp:156] Memory required for data: 1334499360
I0403 19:23:24.934480  9177 layer_factory.hpp:77] Creating layer inception_5b/relu_5x5_reduce
I0403 19:23:24.934501  9177 net.cpp:91] Creating Layer inception_5b/relu_5x5_reduce
I0403 19:23:24.934520  9177 net.cpp:425] inception_5b/relu_5x5_reduce <- inception_5b/5x5_reduce
I0403 19:23:24.934537  9177 net.cpp:386] inception_5b/relu_5x5_reduce -> inception_5b/5x5_reduce (in-place)
I0403 19:23:24.934911  9177 net.cpp:141] Setting up inception_5b/relu_5x5_reduce
I0403 19:23:24.934937  9177 net.cpp:148] Top shape: 24 48 7 7 (56448)
I0403 19:23:24.934952  9177 net.cpp:156] Memory required for data: 1334725152
I0403 19:23:24.934967  9177 layer_factory.hpp:77] Creating layer inception_5b/5x5
I0403 19:23:24.934986  9177 net.cpp:91] Creating Layer inception_5b/5x5
I0403 19:23:24.935003  9177 net.cpp:425] inception_5b/5x5 <- inception_5b/5x5_reduce
I0403 19:23:24.935022  9177 net.cpp:399] inception_5b/5x5 -> inception_5b/5x5
I0403 19:23:24.937125  9177 net.cpp:141] Setting up inception_5b/5x5
I0403 19:23:24.937153  9177 net.cpp:148] Top shape: 24 128 7 7 (150528)
I0403 19:23:24.937170  9177 net.cpp:156] Memory required for data: 1335327264
I0403 19:23:24.937188  9177 layer_factory.hpp:77] Creating layer inception_5b/relu_5x5
I0403 19:23:24.937212  9177 net.cpp:91] Creating Layer inception_5b/relu_5x5
I0403 19:23:24.937232  9177 net.cpp:425] inception_5b/relu_5x5 <- inception_5b/5x5
I0403 19:23:24.937249  9177 net.cpp:386] inception_5b/relu_5x5 -> inception_5b/5x5 (in-place)
I0403 19:23:24.937443  9177 net.cpp:141] Setting up inception_5b/relu_5x5
I0403 19:23:24.937470  9177 net.cpp:148] Top shape: 24 128 7 7 (150528)
I0403 19:23:24.937485  9177 net.cpp:156] Memory required for data: 1335929376
I0403 19:23:24.937500  9177 layer_factory.hpp:77] Creating layer inception_5b/pool
I0403 19:23:24.937518  9177 net.cpp:91] Creating Layer inception_5b/pool
I0403 19:23:24.937535  9177 net.cpp:425] inception_5b/pool <- inception_5a/output_inception_5a/output_0_split_3
I0403 19:23:24.937552  9177 net.cpp:399] inception_5b/pool -> inception_5b/pool
I0403 19:23:24.937625  9177 net.cpp:141] Setting up inception_5b/pool
I0403 19:23:24.937649  9177 net.cpp:148] Top shape: 24 832 7 7 (978432)
I0403 19:23:24.937664  9177 net.cpp:156] Memory required for data: 1339843104
I0403 19:23:24.937679  9177 layer_factory.hpp:77] Creating layer inception_5b/pool_proj
I0403 19:23:24.937703  9177 net.cpp:91] Creating Layer inception_5b/pool_proj
I0403 19:23:24.937722  9177 net.cpp:425] inception_5b/pool_proj <- inception_5b/pool
I0403 19:23:24.937742  9177 net.cpp:399] inception_5b/pool_proj -> inception_5b/pool_proj
I0403 19:23:24.940150  9177 net.cpp:141] Setting up inception_5b/pool_proj
I0403 19:23:24.940181  9177 net.cpp:148] Top shape: 24 128 7 7 (150528)
I0403 19:23:24.940197  9177 net.cpp:156] Memory required for data: 1340445216
I0403 19:23:24.940223  9177 layer_factory.hpp:77] Creating layer inception_5b/relu_pool_proj
I0403 19:23:24.940248  9177 net.cpp:91] Creating Layer inception_5b/relu_pool_proj
I0403 19:23:24.940265  9177 net.cpp:425] inception_5b/relu_pool_proj <- inception_5b/pool_proj
I0403 19:23:24.940284  9177 net.cpp:386] inception_5b/relu_pool_proj -> inception_5b/pool_proj (in-place)
I0403 19:23:24.940593  9177 net.cpp:141] Setting up inception_5b/relu_pool_proj
I0403 19:23:24.940620  9177 net.cpp:148] Top shape: 24 128 7 7 (150528)
I0403 19:23:24.940636  9177 net.cpp:156] Memory required for data: 1341047328
I0403 19:23:24.940652  9177 layer_factory.hpp:77] Creating layer inception_5b/output
I0403 19:23:24.940670  9177 net.cpp:91] Creating Layer inception_5b/output
I0403 19:23:24.940701  9177 net.cpp:425] inception_5b/output <- inception_5b/1x1
I0403 19:23:24.940718  9177 net.cpp:425] inception_5b/output <- inception_5b/3x3
I0403 19:23:24.940738  9177 net.cpp:425] inception_5b/output <- inception_5b/5x5
I0403 19:23:24.940755  9177 net.cpp:425] inception_5b/output <- inception_5b/pool_proj
I0403 19:23:24.940773  9177 net.cpp:399] inception_5b/output -> inception_5b/output
I0403 19:23:24.940825  9177 net.cpp:141] Setting up inception_5b/output
I0403 19:23:24.940852  9177 net.cpp:148] Top shape: 24 1024 7 7 (1204224)
I0403 19:23:24.940877  9177 net.cpp:156] Memory required for data: 1345864224
I0403 19:23:24.940892  9177 layer_factory.hpp:77] Creating layer pool5/7x7_s1
I0403 19:23:24.940910  9177 net.cpp:91] Creating Layer pool5/7x7_s1
I0403 19:23:24.940927  9177 net.cpp:425] pool5/7x7_s1 <- inception_5b/output
I0403 19:23:24.940949  9177 net.cpp:399] pool5/7x7_s1 -> pool5/7x7_s1
I0403 19:23:24.941174  9177 net.cpp:141] Setting up pool5/7x7_s1
I0403 19:23:24.941200  9177 net.cpp:148] Top shape: 24 1024 1 1 (24576)
I0403 19:23:24.941222  9177 net.cpp:156] Memory required for data: 1345962528
I0403 19:23:24.941238  9177 layer_factory.hpp:77] Creating layer pool5/drop_7x7_s1
I0403 19:23:24.941259  9177 net.cpp:91] Creating Layer pool5/drop_7x7_s1
I0403 19:23:24.941289  9177 net.cpp:425] pool5/drop_7x7_s1 <- pool5/7x7_s1
I0403 19:23:24.941308  9177 net.cpp:386] pool5/drop_7x7_s1 -> pool5/7x7_s1 (in-place)
I0403 19:23:24.941362  9177 net.cpp:141] Setting up pool5/drop_7x7_s1
I0403 19:23:24.941386  9177 net.cpp:148] Top shape: 24 1024 1 1 (24576)
I0403 19:23:24.941402  9177 net.cpp:156] Memory required for data: 1346060832
I0403 19:23:24.941417  9177 layer_factory.hpp:77] Creating layer loss3/classifier_plantvillage
I0403 19:23:24.941438  9177 net.cpp:91] Creating Layer loss3/classifier_plantvillage
I0403 19:23:24.941455  9177 net.cpp:425] loss3/classifier_plantvillage <- pool5/7x7_s1
I0403 19:23:24.941478  9177 net.cpp:399] loss3/classifier_plantvillage -> loss3/classifier_plantvillage
I0403 19:23:24.941936  9177 net.cpp:141] Setting up loss3/classifier_plantvillage
I0403 19:23:24.941961  9177 net.cpp:148] Top shape: 24 38 (912)
I0403 19:23:24.941975  9177 net.cpp:156] Memory required for data: 1346064480
I0403 19:23:24.941994  9177 layer_factory.hpp:77] Creating layer loss3/classifier_plantvillage_loss3/classifier_plantvillage_0_split
I0403 19:23:24.942013  9177 net.cpp:91] Creating Layer loss3/classifier_plantvillage_loss3/classifier_plantvillage_0_split
I0403 19:23:24.942029  9177 net.cpp:425] loss3/classifier_plantvillage_loss3/classifier_plantvillage_0_split <- loss3/classifier_plantvillage
I0403 19:23:24.942050  9177 net.cpp:399] loss3/classifier_plantvillage_loss3/classifier_plantvillage_0_split -> loss3/classifier_plantvillage_loss3/classifier_plantvillage_0_split_0
I0403 19:23:24.942072  9177 net.cpp:399] loss3/classifier_plantvillage_loss3/classifier_plantvillage_0_split -> loss3/classifier_plantvillage_loss3/classifier_plantvillage_0_split_1
I0403 19:23:24.942092  9177 net.cpp:399] loss3/classifier_plantvillage_loss3/classifier_plantvillage_0_split -> loss3/classifier_plantvillage_loss3/classifier_plantvillage_0_split_2
I0403 19:23:24.942114  9177 net.cpp:399] loss3/classifier_plantvillage_loss3/classifier_plantvillage_0_split -> loss3/classifier_plantvillage_loss3/classifier_plantvillage_0_split_3
I0403 19:23:24.942235  9177 net.cpp:141] Setting up loss3/classifier_plantvillage_loss3/classifier_plantvillage_0_split
I0403 19:23:24.942261  9177 net.cpp:148] Top shape: 24 38 (912)
I0403 19:23:24.942278  9177 net.cpp:148] Top shape: 24 38 (912)
I0403 19:23:24.942293  9177 net.cpp:148] Top shape: 24 38 (912)
I0403 19:23:24.942309  9177 net.cpp:148] Top shape: 24 38 (912)
I0403 19:23:24.942323  9177 net.cpp:156] Memory required for data: 1346079072
I0403 19:23:24.942338  9177 layer_factory.hpp:77] Creating layer loss1/loss
I0403 19:23:24.942363  9177 net.cpp:91] Creating Layer loss1/loss
I0403 19:23:24.942381  9177 net.cpp:425] loss1/loss <- loss1/classifier_plantvillage_loss1/classifier_plantvillage_0_split_0
I0403 19:23:24.942412  9177 net.cpp:425] loss1/loss <- label_data_1_split_0
…
