…
I0403 19:16:20.854079  9017 net.cpp:313] The NetState phase (1) differed from the phase (0) specified by a rule in layer data
I0403 19:16:20.855196  9017 net.cpp:49] Initializing net from parameters: 
state {
  phase: TEST
}
layer {
  name: "data"
  type: "Data"
  top: "data"
  top: "label"
  include {
    phase: TEST
  }
  transform_param {
    mirror: false
    crop_size: 224
    mean_file: "/home/mohanty/data/final_dataset/lmdb/grayscale-50-50/mean.binaryproto"
  }
  data_param {
    source: "/home/mohanty/data/final_dataset/lmdb/grayscale-50-50/test_db"
    batch_size: 24
    backend: LMDB
  }
}
layer {
  name: "conv1/7x7_s2"
  type: "Convolution"
  bottom: "data"
  top: "conv1/7x7_s2"
  param {
    lr_mult: 1
    decay_mult: 1
  }
  param {
    lr_mult: 2
    decay_mult: 0
  }
  convolution_param {
    num_output: 64
    pad: 3
    kernel_size: 7
    stride: 2
    weight_filler {
      type: "xavier"
      std: 0.1
    }
    bias_filler {
      type: "constant"
      value: 0.2
    }
  }
}
layer {
  name: "conv1/relu_7x7"
  type: "ReLU"
  bottom: "conv1/7x7_s2"
  top: "conv1/7x7_s2"
}
layer {
  name: "pool1/3x3_s2"
  type: "Pooling"
  bottom: "conv1/7x7_s2"
  top: "pool1/3x3_s2"
  pooling_param {
    pool: MAX
    kernel_size: 3
    stride: 2
  }
}
layer {
  name: "pool1/norm1"
  type: "LRN"
  bottom: "pool1/3x3_s2"
  top: "pool1/norm1"
  lrn_param {
    local_size: 5
    alpha: 0.0001
    beta: 0.75
  }
}
layer {
  name: "conv2/3x3_reduce"
  type: "Convolution"
  bottom: "pool1/norm1"
  top: "conv2/3x3_reduce"
  param {
    lr_mult: 1
    decay_mult: 1
  }
  param {
    lr_mult: 2
    decay_mult: 0
  }
  convolution_param {
    num_output: 64
    kernel_size: 1
    weight_filler {
      type: "xavier"
      std: 0.1
    }
    bias_filler {
      type: "constant"
      value: 0.2
    }
  }
}
layer {
  name: "conv2/relu_3x3_reduce"
  type: "ReLU"
  bottom: "conv2/3x3_reduce"
  top: "conv2/3x3_reduce"
}
layer {
  name: "conv2/3x3"
  type: "Convolution"
  bottom: "conv2/3x3_reduce"
  top: "conv2/3x3"
  param {
    lr_mult: 1
    decay_mult: 1
  }
  param {
    lr_mult: 2
    decay_mult: 0
  }
  convolution_param {
    num_output: 192
    pad: 1
    kernel_size: 3
    weight_filler {
      type: "xavier"
      std: 0.03
    }
    bias_filler {
      type: "constant"
      value: 0.2
    }
  }
}
layer {
  name: "conv2/relu_3x3"
  type: "ReLU"
  bottom: "conv2/3x3"
  top: "conv2/3x3"
}
layer {
  name: "conv2/norm2"
  type: "LRN"
  bottom: "conv2/3x3"
  top: "conv2/norm2"
  lrn_param {
    local_size: 5
    alpha: 0.0001
    beta: 0.75
  }
}
layer {
  name: "pool2/3x3_s2"
  type: "Pooling"
  bottom: "conv2/norm2"
  top: "pool2/3x3_s2"
  pooling_param {
    pool: MAX
    kernel_size: 3
    stride: 2
  }
}
layer {
  name: "inception_3a/1x1"
  type: "Convolution"
  bottom: "pool2/3x3_s2"
  top: "inception_3a/1x1"
  param {
    lr_mult: 1
    decay_mult: 1
  }
  param {
    lr_mult: 2
    decay_mult: 0
  }
  convolution_param {
    num_output: 64
    kernel_size: 1
    weight_filler {
      type: "xavier"
      std: 0.03
    }
    bias_filler {
      type: "constant"
      value: 0.2
    }
  }
}
layer {
  name: "inception_3a/relu_1x1"
  type: "ReLU"
  bottom: "inception_3a/1x1"
  top: "inception_3a/1x1"
}
layer {
  name: "inception_3a/3x3_reduce"
  type: "Convolution"
  bottom: "pool2/3x3_s2"
  top: "inception_3a/3x3_reduce"
  param {
    lr_mult: 1
    decay_mult: 1
  }
  param {
    lr_mult: 2
    decay_mult: 0
  }
  convolution_param {
    num_output: 96
    kernel_size: 1
    weight_filler {
      type: "xavier"
      std: 0.09
    }
    bias_filler {
      type: "constant"
      value: 0.2
    }
  }
}
layer {
  name: "inception_3a/relu_3x3_reduce"
  type: "ReLU"
  bottom: "inception_3a/3x3_reduce"
  top: "inception_3a/3x3_reduce"
}
layer {
  name: "inception_3a/3x3"
  type: "Convolution"
  bottom: "inception_3a/3x3_reduce"
  top: "inception_3a/3x3"
  param {
    lr_mult: 1
    decay_mult: 1
  }
  param {
    lr_mult: 2
    decay_mult: 0
  }
  convolution_param {
    num_output: 128
    pad: 1
    kernel_size: 3
    weight_filler {
      type: "xavier"
      std: 0.03
    }
    bias_filler {
      type: "constant"
      value: 0.2
    }
  }
}
layer {
  name: "inception_3a/relu_3x3"
  type: "ReLU"
  bottom: "inception_3a/3x3"
  top: "inception_3a/3x3"
}
layer {
  name: "inception_3a/5x5_reduce"
  type: "Convolution"
  bottom: "pool2/3x3_s2"
  top: "inception_3a/5x5_reduce"
  param {
    lr_mult: 1
    decay_mult: 1
  }
  param {
    lr_mult: 2
    decay_mult: 0
  }
  convolution_param {
    num_output: 16
    kernel_size: 1
    weight_filler {
      type: "xavier"
      std: 0.2
    }
    bias_filler {
      type: "constant"
      value: 0.2
    }
  }
}
layer {
  name: "inception_3a/relu_5x5_reduce"
  type: "ReLU"
  bottom: "inception_3a/5x5_reduce"
  top: "inception_3a/5x5_reduce"
}
layer {
  name: "inception_3a/5x5"
  type: "Convolution"
  bottom: "inception_3a/5x5_reduce"
  top: "inception_3a/5x5"
  param {
    lr_mult: 1
    decay_mult: 1
  }
  param {
    lr_mult: 2
    decay_mult: 0
  }
  convolution_param {
    num_output: 32
    pad: 2
    kernel_size: 5
    weight_filler {
      type: "xavier"
      std: 0.03
    }
    bias_filler {
      type: "constant"
      value: 0.2
    }
  }
}
layer {
  name: "inception_3a/relu_5x5"
  type: "ReLU"
  bottom: "inception_3a/5x5"
  top: "inception_3a/5x5"
}
layer {
  name: "inception_3a/pool"
  type: "Pooling"
  bottom: "pool2/3x3_s2"
  top: "inception_3a/pool"
  pooling_param {
    pool: MAX
    kernel_size: 3
    stride: 1
    pad: 1
  }
}
layer {
  name: "inception_3a/pool_proj"
  type: "Convolution"
  bottom: "inception_3a/pool"
  top: "inception_3a/pool_proj"
  param {
    lr_mult: 1
    decay_mult: 1
  }
  param {
    lr_mult: 2
    decay_mult: 0
  }
  convolution_param {
    num_output: 32
    kernel_size: 1
    weight_filler {
      type: "xavier"
      std: 0.1
    }
    bias_filler {
      type: "constant"
      value: 0.2
    }
  }
}
layer {
  name: "inception_3a/relu_pool_proj"
  type: "ReLU"
  bottom: "inception_3a/pool_proj"
  top: "inception_3a/pool_proj"
}
layer {
  name: "inception_3a/output"
  type: "Concat"
  bottom: "inception_3a/1x1"
  bottom: "inception_3a/3x3"
  bottom: "inception_3a/5x5"
  bottom: "inception_3a/pool_proj"
  top: "inception_3a/output"
}
layer {
  name: "inception_3b/1x1"
  type: "Convolution"
  bottom: "inception_3a/output"
  top: "inception_3b/1x1"
  param {
    lr_mult: 1
    decay_mult: 1
  }
  param {
    lr_mult: 2
    decay_mult: 0
  }
  convolution_param {
    num_output: 128
    kernel_size: 1
    weight_filler {
      type: "xavier"
      std: 0.03
    }
    bias_filler {
      type: "constant"
      value: 0.2
    }
  }
}
layer {
  name: "inception_3b/relu_1x1"
  type: "ReLU"
  bottom: "inception_3b/1x1"
  top: "inception_3b/1x1"
}
layer {
  name: "inception_3b/3x3_reduce"
  type: "Convolution"
  bottom: "inception_3a/output"
  top: "inception_3b/3x3_reduce"
  param {
    lr_mult: 1
    decay_mult: 1
  }
  param {
    lr_mult: 2
    decay_mult: 0
  }
  convolution_param {
    num_output: 128
    kernel_size: 1
    weight_filler {
      type: "xavier"
      std: 0.09
    }
    bias_filler {
      type: "constant"
      value: 0.2
    }
  }
}
layer {
  name: "inception_3b/relu_3x3_reduce"
  type: "ReLU"
  bottom: "inception_3b/3x3_reduce"
  top: "inception_3b/3x3_reduce"
}
layer {
  name: "inception_3b/3x3"
  type: "Convolution"
  bottom: "inception_3b/3x3_reduce"
  top: "inception_3b/3x3"
  param {
    lr_mult: 1
    decay_mult: 1
  }
  param {
    lr_mult: 2
    decay_mult: 0
  }
  convolution_param {
    num_output: 192
    pad: 1
    kernel_size: 3
    weight_filler {
      type: "xavier"
      std: 0.03
    }
    bias_filler {
      type: "constant"
      value: 0.2
    }
  }
}
layer {
  name: "inception_3b/relu_3x3"
  type: "ReLU"
  bottom: "inception_3b/3x3"
  top: "inception_3b/3x3"
}
layer {
  name: "inception_3b/5x5_reduce"
  type: "Convolution"
  bottom: "inception_3a/output"
  top: "inception_3b/5x5_reduce"
  param {
    lr_mult: 1
    decay_mult: 1
  }
  param {
    lr_mult: 2
    decay_mult: 0
  }
  convolution_param {
    num_output: 32
    kernel_size: 1
    weight_filler {
      type: "xavier"
      std: 0.2
    }
    bias_filler {
      type: "constant"
      value: 0.2
    }
  }
}
layer {
  name: "inception_3b/relu_5x5_reduce"
  type: "ReLU"
  bottom: "inception_3b/5x5_reduce"
  top: "inception_3b/5x5_reduce"
}
layer {
  name: "inception_3b/5x5"
  type: "Convolution"
  bottom: "inception_3b/5x5_reduce"
  top: "inception_3b/5x5"
  param {
    lr_mult: 1
    decay_mult: 1
  }
  param {
    lr_mult: 2
    decay_mult: 0
  }
  convolution_param {
    num_output: 96
    pad: 2
    kernel_size: 5
    weight_filler {
      type: "xavier"
      std: 0.03
    }
    bias_filler {
      type: "constant"
      value: 0.2
    }
  }
}
layer {
  name: "inception_3b/relu_5x5"
  type: "ReLU"
  bottom: "inception_3b/5x5"
  top: "inception_3b/5x5"
}
layer {
  name: "inception_3b/pool"
  type: "Pooling"
  bottom: "inception_3a/output"
  top: "inception_3b/pool"
  pooling_param {
    pool: MAX
    kernel_size: 3
    stride: 1
    pad: 1
  }
}
layer {
  name: "inception_3b/pool_proj"
  type: "Convolution"
  bottom: "inception_3b/pool"
  top: "inception_3b/pool_proj"
  param {
    lr_mult: 1
    decay_mult: 1
  }
  param {
    lr_mult: 2
    decay_mult: 0
  }
  convolution_param {
    num_output: 64
    kernel_size: 1
    weight_filler {
      type: "xavier"
      std: 0.1
    }
    bias_filler {
      type: "constant"
      value: 0.2
    }
  }
}
layer {
  name: "inception_3b/relu_pool_proj"
  type: "ReLU"
  bottom: "inception_3b/pool_proj"
  top: "inception_3b/pool_proj"
}
layer {
  name: "inception_3b/output"
  type: "Concat"
  bottom: "inception_3b/1x1"
  bottom: "inception_3b/3x3"
  bottom: "inception_3b/5x5"
  bottom: "inception_3b/pool_proj"
  top: "inception_3b/output"
}
layer {
  name: "pool3/3x3_s2"
  type: "Pooling"
  bottom: "inception_3b/output"
  top: "pool3/3x3_s2"
  pooling_param {
    pool: MAX
    kernel_size: 3
    stride: 2
  }
}
layer {
  name: "inception_4a/1x1"
  type: "Convolution"
  bottom: "pool3/3x3_s2"
  top: "inception_4a/1x1"
  param {
    lr_mult: 1
    decay_mult: 1
  }
  param {
    lr_mult: 2
    decay_mult: 0
  }
  convolution_param {
    num_output: 192
    kernel_size: 1
    weight_filler {
      type: "xavier"
      std: 0.03
    }
    bias_filler {
      type: "constant"
      value: 0.2
    }
  }
}
layer {
  name: "inception_4a/relu_1x1"
  type: "ReLU"
  bottom: "inception_4a/1x1"
  top: "inception_4a/1x1"
}
layer {
  name: "inception_4a/3x3_reduce"
  type: "Convolution"
  bottom: "pool3/3x3_s2"
  top: "inception_4a/3x3_reduce"
  param {
    lr_mult: 1
    decay_mult: 1
  }
  param {
    lr_mult: 2
    decay_mult: 0
  }
  convolution_param {
    num_output: 96
    kernel_size: 1
    weight_filler {
      type: "xavier"
      std: 0.09
    }
    bias_filler {
      type: "constant"
      value: 0.2
    }
  }
}
layer {
  name: "inception_4a/relu_3x3_reduce"
  type: "ReLU"
  bottom: "inception_4a/3x3_reduce"
  top: "inception_4a/3x3_reduce"
}
layer {
  name: "inception_4a/3x3"
  type: "Convolution"
  bottom: "inception_4a/3x3_reduce"
  top: "inception_4a/3x3"
  param {
    lr_mult: 1
    decay_mult: 1
  }
  param {
    lr_mult: 2
    decay_mult: 0
  }
  convolution_param {
    num_output: 208
    pad: 1
    kernel_size: 3
    weight_filler {
      type: "xavier"
      std: 0.03
    }
    bias_filler {
      type: "constant"
      value: 0.2
    }
  }
}
layer {
  name: "inception_4a/relu_3x3"
  type: "ReLU"
  bottom: "inception_4a/3x3"
  top: "inception_4a/3x3"
}
layer {
  name: "inception_4a/5x5_reduce"
  type: "Convolution"
  bottom: "pool3/3x3_s2"
  top: "inception_4a/5x5_reduce"
  param {
    lr_mult: 1
    decay_mult: 1
  }
  param {
    lr_mult: 2
    decay_mult: 0
  }
  convolution_param {
    num_output: 16
    kernel_size: 1
    weight_filler {
      type: "xavier"
      std: 0.2
    }
    bias_filler {
      type: "constant"
      value: 0.2
    }
  }
}
layer {
  name: "inception_4a/relu_5x5_reduce"
  type: "ReLU"
  bottom: "inception_4a/5x5_reduce"
  top: "inception_4a/5x5_reduce"
}
layer {
  name: "inception_4a/5x5"
  type: "Convolution"
  bottom: "inception_4a/5x5_reduce"
  top: "inception_4a/5x5"
  param {
    lr_mult: 1
    decay_mult: 1
  }
  param {
    lr_mult: 2
    decay_mult: 0
  }
  convolution_param {
    num_output: 48
    pad: 2
    kernel_size: 5
    weight_filler {
      type: "xavier"
      std: 0.03
    }
    bias_filler {
      type: "constant"
      value: 0.2
    }
  }
}
layer {
  name: "inception_4a/relu_5x5"
  type: "ReLU"
  bottom: "inception_4a/5x5"
  top: "inception_4a/5x5"
}
layer {
  name: "inception_4a/pool"
  type: "Pooling"
  bottom: "pool3/3x3_s2"
  top: "inception_4a/pool"
  pooling_param {
    pool: MAX
    kernel_size: 3
    stride: 1
    pad: 1
  }
}
layer {
  name: "inception_4a/pool_proj"
  type: "Convolution"
  bottom: "inception_4a/pool"
  top: "inception_4a/pool_proj"
  param {
    lr_mult: 1
    decay_mult: 1
  }
  param {
    lr_mult: 2
    decay_mult: 0
  }
  convolution_param {
    num_output: 64
    kernel_size: 1
    weight_filler {
      type: "xavier"
      std: 0.1
    }
    bias_filler {
      type: "constant"
      value: 0.2
    }
  }
}
layer {
  name: "inception_4a/relu_pool_proj"
  type: "ReLU"
  bottom: "inception_4a/pool_proj"
  top: "inception_4a/pool_proj"
}
layer {
  name: "inception_4a/output"
  type: "Concat"
  bottom: "inception_4a/1x1"
  bottom: "inception_4a/3x3"
  bottom: "inception_4a/5x5"
  bottom: "inception_4a/pool_proj"
  top: "inception_4a/output"
}
layer {
  name: "loss1/ave_pool"
  type: "Pooling"
  bottom: "inception_4a/output"
  top: "loss1/ave_pool"
  pooling_param {
    pool: AVE
    kernel_size: 5
    stride: 3
  }
}
layer {
  name: "loss1/conv"
  type: "Convolution"
  bottom: "loss1/ave_pool"
  top: "loss1/conv"
  param {
    lr_mult: 1
    decay_mult: 1
  }
  param {
    lr_mult: 2
    decay_mult: 0
  }
  convolution_param {
    num_output: 128
    kernel_size: 1
    weight_filler {
      type: "xavier"
      std: 0.08
    }
    bias_filler {
      type: "constant"
      value: 0.2
    }
  }
}
layer {
  name: "loss1/relu_conv"
  type: "ReLU"
  bottom: "loss1/conv"
  top: "loss1/conv"
}
layer {
  name: "loss1/fc"
  type: "InnerProduct"
  bottom: "loss1/conv"
  top: "loss1/fc"
  param {
    lr_mult: 1
    decay_mult: 1
  }
  param {
    lr_mult: 2
    decay_mult: 0
  }
  inner_product_param {
    num_output: 1024
    weight_filler {
      type: "xavier"
      std: 0.02
    }
    bias_filler {
      type: "constant"
      value: 0.2
    }
  }
}
layer {
  name: "loss1/relu_fc"
  type: "ReLU"
  bottom: "loss1/fc"
  top: "loss1/fc"
}
layer {
  name: "loss1/drop_fc"
  type: "Dropout"
  bottom: "loss1/fc"
  top: "loss1/fc"
  dropout_param {
    dropout_ratio: 0.7
  }
}
layer {
  name: "loss1/classifier_plantvillage"
  type: "InnerProduct"
  bottom: "loss1/fc"
  top: "loss1/classifier_plantvillage"
  param {
    lr_mult: 1
    decay_mult: 1
  }
  param {
    lr_mult: 2
    decay_mult: 0
  }
  inner_product_param {
    num_output: 38
    weight_filler {
      type: "xavier"
      std: 0.0009765625
    }
    bias_filler {
      type: "constant"
      value: 0
    }
  }
}
layer {
  name: "inception_4b/1x1"
  type: "Convolution"
  bottom: "inception_4a/output"
  top: "inception_4b/1x1"
  param {
    lr_mult: 1
    decay_mult: 1
  }
  param {
    lr_mult: 2
    decay_mult: 0
  }
  convolution_param {
    num_output: 160
    kernel_size: 1
    weight_filler {
      type: "xavier"
      std: 0.03
    }
    bias_filler {
      type: "constant"
      value: 0.2
    }
  }
}
layer {
  name: "inception_4b/relu_1x1"
  type: "ReLU"
  bottom: "inception_4b/1x1"
  top: "inception_4b/1x1"
}
layer {
  name: "inception_4b/3x3_reduce"
  type: "Convolution"
  bottom: "inception_4a/output"
  top: "inception_4b/3x3_reduce"
  param {
    lr_mult: 1
    decay_mult: 1
  }
  param {
    lr_mult: 2
    decay_mult: 0
  }
  convolution_param {
    num_output: 112
    kernel_size: 1
    weight_filler {
      type: "xavier"
      std: 0.09
    }
    bias_filler {
      type: "constant"
      value: 0.2
    }
  }
}
layer {
  name: "inception_4b/relu_3x3_reduce"
  type: "ReLU"
  bottom: "inception_4b/3x3_reduce"
  top: "inception_4b/3x3_reduce"
}
layer {
  name: "inception_4b/3x3"
  type: "Convolution"
  bottom: "inception_4b/3x3_reduce"
  top: "inception_4b/3x3"
  param {
    lr_mult: 1
    decay_mult: 1
  }
  param {
    lr_mult: 2
    decay_mult: 0
  }
  convolution_param {
    num_output: 224
    pad: 1
    kernel_size: 3
    weight_filler {
      type: "xavier"
      std: 0.03
    }
    bias_filler {
      type: "constant"
      value: 0.2
    }
  }
}
layer {
  name: "inception_4b/relu_3x3"
  type: "ReLU"
  bottom: "inception_4b/3x3"
  top: "inception_4b/3x3"
}
layer {
  name: "inception_4b/5x5_reduce"
  type: "Convolution"
  bottom: "inception_4a/output"
  top: "inception_4b/5x5_reduce"
  param {
    lr_mult: 1
    decay_mult: 1
  }
  param {
    lr_mult: 2
    decay_mult: 0
  }
  convolution_param {
    num_output: 24
    kernel_size: 1
    weight_filler {
      type: "xavier"
      std: 0.2
    }
    bias_filler {
      type: "constant"
      value: 0.2
    }
  }
}
layer {
  name: "inception_4b/relu_5x5_reduce"
  type: "ReLU"
  bottom: "inception_4b/5x5_reduce"
  top: "inception_4b/5x5_reduce"
}
layer {
  name: "inception_4b/5x5"
  type: "Convolution"
  bottom: "inception_4b/5x5_reduce"
  top: "inception_4b/5x5"
  param {
    lr_mult: 1
    decay_mult: 1
  }
  param {
    lr_mult: 2
    decay_mult: 0
  }
  convolution_param {
    num_output: 64
    pad: 2
    kernel_size: 5
    weight_filler {
      type: "xavier"
      std: 0.03
    }
    bias_filler {
      type: "constant"
      value: 0.2
    }
  }
}
layer {
  name: "inception_4b/relu_5x5"
  type: "ReLU"
  bottom: "inception_4b/5x5"
  top: "inception_4b/5x5"
}
layer {
  name: "inception_4b/pool"
  type: "Pooling"
  bottom: "inception_4a/output"
  top: "inception_4b/pool"
  pooling_param {
    pool: MAX
    kernel_size: 3
    stride: 1
    pad: 1
  }
}
layer {
  name: "inception_4b/pool_proj"
  type: "Convolution"
  bottom: "inception_4b/pool"
  top: "inception_4b/pool_proj"
  param {
    lr_mult: 1
    decay_mult: 1
  }
  param {
    lr_mult: 2
    decay_mult: 0
  }
  convolution_param {
    num_output: 64
    kernel_size: 1
    weight_filler {
      type: "xavier"
      std: 0.1
    }
    bias_filler {
      type: "constant"
      value: 0.2
    }
  }
}
layer {
  name: "inception_4b/relu_pool_proj"
  type: "ReLU"
  bottom: "inception_4b/pool_proj"
  top: "inception_4b/pool_proj"
}
layer {
  name: "inception_4b/output"
  type: "Concat"
  bottom: "inception_4b/1x1"
  bottom: "inception_4b/3x3"
  bottom: "inception_4b/5x5"
  bottom: "inception_4b/pool_proj"
  top: "inception_4b/output"
}
layer {
  name: "inception_4c/1x1"
  type: "Convolution"
  bottom: "inception_4b/output"
  top: "inception_4c/1x1"
  param {
    lr_mult: 1
    decay_mult: 1
  }
  param {
    lr_mult: 2
    decay_mult: 0
  }
  convolution_param {
    num_output: 128
    kernel_size: 1
    weight_filler {
      type: "xavier"
      std: 0.03
    }
    bias_filler {
      type: "constant"
      value: 0.2
    }
  }
}
layer {
  name: "inception_4c/relu_1x1"
  type: "ReLU"
  bottom: "inception_4c/1x1"
  top: "inception_4c/1x1"
}
layer {
  name: "inception_4c/3x3_reduce"
  type: "Convolution"
  bottom: "inception_4b/output"
  top: "inception_4c/3x3_reduce"
  param {
    lr_mult: 1
    decay_mult: 1
  }
  param {
    lr_mult: 2
    decay_mult: 0
  }
  convolution_param {
    num_output: 128
    kernel_size: 1
    weight_filler {
      type: "xavier"
      std: 0.09
    }
    bias_filler {
      type: "constant"
      value: 0.2
    }
  }
}
layer {
  name: "inception_4c/relu_3x3_reduce"
  type: "ReLU"
  bottom: "inception_4c/3x3_reduce"
  top: "inception_4c/3x3_reduce"
}
layer {
  name: "inception_4c/3x3"
  type: "Convolution"
  bottom: "inception_4c/3x3_reduce"
  top: "inception_4c/3x3"
  param {
    lr_mult: 1
    decay_mult: 1
  }
  param {
    lr_mult: 2
    decay_mult: 0
  }
  convolution_param {
    num_output: 256
    pad: 1
    kernel_size: 3
    weight_filler {
      type: "xavier"
      std: 0.03
    }
    bias_filler {
      type: "constant"
      value: 0.2
    }
  }
}
layer {
  name: "inception_4c/relu_3x3"
  type: "ReLU"
  bottom: "inception_4c/3x3"
  top: "inception_4c/3x3"
}
layer {
  name: "inception_4c/5x5_reduce"
  type: "Convolution"
  bottom: "inception_4b/output"
  top: "inception_4c/5x5_reduce"
  param {
    lr_mult: 1
    decay_mult: 1
  }
  param {
    lr_mult: 2
    decay_mult: 0
  }
  convolution_param {
    num_output: 24
    kernel_size: 1
    weight_filler {
      type: "xavier"
      std: 0.2
    }
    bias_filler {
      type: "constant"
      value: 0.2
    }
  }
}
layer {
  name: "inception_4c/relu_5x5_reduce"
  type: "ReLU"
  bottom: "inception_4c/5x5_reduce"
  top: "inception_4c/5x5_reduce"
}
layer {
  name: "inception_4c/5x5"
  type: "Convolution"
  bottom: "inception_4c/5x5_reduce"
  top: "inception_4c/5x5"
  param {
    lr_mult: 1
    decay_mult: 1
  }
  param {
    lr_mult: 2
    decay_mult: 0
  }
  convolution_param {
    num_output: 64
    pad: 2
    kernel_size: 5
    weight_filler {
      type: "xavier"
      std: 0.03
    }
    bias_filler {
      type: "constant"
      value: 0.2
    }
  }
}
layer {
  name: "inception_4c/relu_5x5"
  type: "ReLU"
  bottom: "inception_4c/5x5"
  top: "inception_4c/5x5"
}
layer {
  name: "inception_4c/pool"
  type: "Pooling"
  bottom: "inception_4b/output"
  top: "inception_4c/pool"
  pooling_param {
    pool: MAX
    kernel_size: 3
    stride: 1
    pad: 1
  }
}
layer {
  name: "inception_4c/pool_proj"
  type: "Convolution"
  bottom: "inception_4c/pool"
  top: "inception_4c/pool_proj"
  param {
    lr_mult: 1
    decay_mult: 1
  }
  param {
    lr_mult: 2
    decay_mult: 0
  }
  convolution_param {
    num_output: 64
    kernel_size: 1
    weight_filler {
      type: "xavier"
      std: 0.1
    }
    bias_filler {
      type: "constant"
      value: 0.2
    }
  }
}
layer {
  name: "inception_4c/relu_pool_proj"
  type: "ReLU"
  bottom: "inception_4c/pool_proj"
  top: "inception_4c/pool_proj"
}
layer {
  name: "inception_4c/output"
  type: "Concat"
  bottom: "inception_4c/1x1"
  bottom: "inception_4c/3x3"
  bottom: "inception_4c/5x5"
  bottom: "inception_4c/pool_proj"
  top: "inception_4c/output"
}
layer {
  name: "inception_4d/1x1"
  type: "Convolution"
  bottom: "inception_4c/output"
  top: "inception_4d/1x1"
  param {
    lr_mult: 1
    decay_mult: 1
  }
  param {
    lr_mult: 2
    decay_mult: 0
  }
  convolution_param {
    num_output: 112
    kernel_size: 1
    weight_filler {
      type: "xavier"
      std: 0.03
    }
    bias_filler {
      type: "constant"
      value: 0.2
    }
  }
}
layer {
  name: "inception_4d/relu_1x1"
  type: "ReLU"
  bottom: "inception_4d/1x1"
  top: "inception_4d/1x1"
}
layer {
  name: "inception_4d/3x3_reduce"
  type: "Convolution"
  bottom: "inception_4c/output"
  top: "inception_4d/3x3_reduce"
  param {
    lr_mult: 1
    decay_mult: 1
  }
  param {
    lr_mult: 2
    decay_mult: 0
  }
  convolution_param {
    num_output: 144
    kernel_size: 1
    weight_filler {
      type: "xavier"
      std: 0.09
    }
    bias_filler {
      type: "constant"
      value: 0.2
    }
  }
}
layer {
  name: "inception_4d/relu_3x3_reduce"
  type: "ReLU"
  bottom: "inception_4d/3x3_reduce"
  top: "inception_4d/3x3_reduce"
}
layer {
  name: "inception_4d/3x3"
  type: "Convolution"
  bottom: "inception_4d/3x3_reduce"
  top: "inception_4d/3x3"
  param {
    lr_mult: 1
    decay_mult: 1
  }
  param {
    lr_mult: 2
    decay_mult: 0
  }
  convolution_param {
    num_output: 288
    pad: 1
    kernel_size: 3
    weight_filler {
      type: "xavier"
      std: 0.03
    }
    bias_filler {
      type: "constant"
      value: 0.2
    }
  }
}
layer {
  name: "inception_4d/relu_3x3"
  type: "ReLU"
  bottom: "inception_4d/3x3"
  top: "inception_4d/3x3"
}
layer {
  name: "inception_4d/5x5_reduce"
  type: "Convolution"
  bottom: "inception_4c/output"
  top: "inception_4d/5x5_reduce"
  param {
    lr_mult: 1
    decay_mult: 1
  }
  param {
    lr_mult: 2
    decay_mult: 0
  }
  convolution_param {
    num_output: 32
    kernel_size: 1
    weight_filler {
      type: "xavier"
      std: 0.2
    }
    bias_filler {
      type: "constant"
      value: 0.2
    }
  }
}
layer {
  name: "inception_4d/relu_5x5_reduce"
  type: "ReLU"
  bottom: "inception_4d/5x5_reduce"
  top: "inception_4d/5x5_reduce"
}
layer {
  name: "inception_4d/5x5"
  type: "Convolution"
  bottom: "inception_4d/5x5_reduce"
  top: "inception_4d/5x5"
  param {
    lr_mult: 1
    decay_mult: 1
  }
  param {
    lr_mult: 2
    decay_mult: 0
  }
  convolution_param {
    num_output: 64
    pad: 2
    kernel_size: 5
    weight_filler {
      type: "xavier"
      std: 0.03
    }
    bias_filler {
      type: "constant"
      value: 0.2
    }
  }
}
layer {
  name: "inception_4d/relu_5x5"
  type: "ReLU"
  bottom: "inception_4d/5x5"
  top: "inception_4d/5x5"
}
layer {
  name: "inception_4d/pool"
  type: "Pooling"
  bottom: "inception_4c/output"
  top: "inception_4d/pool"
  pooling_param {
    pool: MAX
    kernel_size: 3
    stride: 1
    pad: 1
  }
}
layer {
  name: "inception_4d/pool_proj"
  type: "Convolution"
  bottom: "inception_4d/pool"
  top: "inception_4d/pool_proj"
  param {
    lr_mult: 1
    decay_mult: 1
  }
  param {
    lr_mult: 2
    decay_mult: 0
  }
  convolution_param {
    num_output: 64
    kernel_size: 1
    weight_filler {
      type: "xavier"
      std: 0.1
    }
    bias_filler {
      type: "constant"
      value: 0.2
    }
  }
}
layer {
  name: "inception_4d/relu_pool_proj"
  type: "ReLU"
  bottom: "inception_4d/pool_proj"
  top: "inception_4d/pool_proj"
}
layer {
  name: "inception_4d/output"
  type: "Concat"
  bottom: "inception_4d/1x1"
  bottom: "inception_4d/3x3"
  bottom: "inception_4d/5x5"
  bottom: "inception_4d/pool_proj"
  top: "inception_4d/output"
}
layer {
  name: "loss2/ave_pool"
  type: "Pooling"
  bottom: "inception_4d/output"
  top: "loss2/ave_pool"
  pooling_param {
    pool: AVE
    kernel_size: 5
    stride: 3
  }
}
layer {
  name: "loss2/conv"
  type: "Convolution"
  bottom: "loss2/ave_pool"
  top: "loss2/conv"
  param {
    lr_mult: 1
    decay_mult: 1
  }
  param {
    lr_mult: 2
    decay_mult: 0
  }
  convolution_param {
    num_output: 128
    kernel_size: 1
    weight_filler {
      type: "xavier"
      std: 0.08
    }
    bias_filler {
      type: "constant"
      value: 0.2
    }
  }
}
layer {
  name: "loss2/relu_conv"
  type: "ReLU"
  bottom: "loss2/conv"
  top: "loss2/conv"
}
layer {
  name: "loss2/fc"
  type: "InnerProduct"
  bottom: "loss2/conv"
  top: "loss2/fc"
  param {
    lr_mult: 1
    decay_mult: 1
  }
  param {
    lr_mult: 2
    decay_mult: 0
  }
  inner_product_param {
    num_output: 1024
    weight_filler {
      type: "xavier"
      std: 0.02
    }
    bias_filler {
      type: "constant"
      value: 0.2
    }
  }
}
layer {
  name: "loss2/relu_fc"
  type: "ReLU"
  bottom: "loss2/fc"
  top: "loss2/fc"
}
layer {
  name: "loss2/drop_fc"
  type: "Dropout"
  bottom: "loss2/fc"
  top: "loss2/fc"
  dropout_param {
    dropout_ratio: 0.7
  }
}
layer {
  name: "loss2/classifier_plantvillage"
  type: "InnerProduct"
  bottom: "loss2/fc"
  top: "loss2/classifier_plantvillage"
  param {
    lr_mult: 1
    decay_mult: 1
  }
  param {
    lr_mult: 2
    decay_mult: 0
  }
  inner_product_param {
    num_output: 38
    weight_filler {
      type: "xavier"
      std: 0.0009765625
    }
    bias_filler {
      type: "constant"
      value: 0
    }
  }
}
layer {
  name: "inception_4e/1x1"
  type: "Convolution"
  bottom: "inception_4d/output"
  top: "inception_4e/1x1"
  param {
    lr_mult: 1
    decay_mult: 1
  }
  param {
    lr_mult: 2
    decay_mult: 0
  }
  convolution_param {
    num_output: 256
    kernel_size: 1
    weight_filler {
      type: "xavier"
      std: 0.03
    }
    bias_filler {
      type: "constant"
      value: 0.2
    }
  }
}
layer {
  name: "inception_4e/relu_1x1"
  type: "ReLU"
  bottom: "inception_4e/1x1"
  top: "inception_4e/1x1"
}
layer {
  name: "inception_4e/3x3_reduce"
  type: "Convolution"
  bottom: "inception_4d/output"
  top: "inception_4e/3x3_reduce"
  param {
    lr_mult: 1
    decay_mult: 1
  }
  param {
    lr_mult: 2
    decay_mult: 0
  }
  convolution_param {
    num_output: 160
    kernel_size: 1
    weight_filler {
      type: "xavier"
      std: 0.09
    }
    bias_filler {
      type: "constant"
      value: 0.2
    }
  }
}
layer {
  name: "inception_4e/relu_3x3_reduce"
  type: "ReLU"
  bottom: "inception_4e/3x3_reduce"
  top: "inception_4e/3x3_reduce"
}
layer {
  name: "inception_4e/3x3"
  type: "Convolution"
  bottom: "inception_4e/3x3_reduce"
  top: "inception_4e/3x3"
  param {
    lr_mult: 1
    decay_mult: 1
  }
  param {
    lr_mult: 2
    decay_mult: 0
  }
  convolution_param {
    num_output: 320
    pad: 1
    kernel_size: 3
    weight_filler {
      type: "xavier"
      std: 0.03
    }
    bias_filler {
      type: "constant"
      value: 0.2
    }
  }
}
layer {
  name: "inception_4e/relu_3x3"
  type: "ReLU"
  bottom: "inception_4e/3x3"
  top: "inception_4e/3x3"
}
layer {
  name: "inception_4e/5x5_reduce"
  type: "Convolution"
  bottom: "inception_4d/output"
  top: "inception_4e/5x5_reduce"
  param {
    lr_mult: 1
    decay_mult: 1
  }
  param {
    lr_mult: 2
    decay_mult: 0
  }
  convolution_param {
    num_output: 32
    kernel_size: 1
    weight_filler {
      type: "xavier"
      std: 0.2
    }
    bias_filler {
      type: "constant"
      value: 0.2
    }
  }
}
layer {
  name: "inception_4e/relu_5x5_reduce"
  type: "ReLU"
  bottom: "inception_4e/5x5_reduce"
  top: "inception_4e/5x5_reduce"
}
layer {
  name: "inception_4e/5x5"
  type: "Convolution"
  bottom: "inception_4e/5x5_reduce"
  top: "inception_4e/
I0403 19:16:20.857012  9017 layer_factory.hpp:77] Creating layer data
I0403 19:16:20.857591  9017 net.cpp:91] Creating Layer data
I0403 19:16:20.857623  9017 net.cpp:399] data -> data
I0403 19:16:20.857672  9017 net.cpp:399] data -> label
I0403 19:16:20.857707  9017 data_transformer.cpp:25] Loading mean file from: /home/mohanty/data/final_dataset/lmdb/grayscale-50-50/mean.binaryproto
I0403 19:16:20.858777  9020 db_lmdb.cpp:38] Opened lmdb /home/mohanty/data/final_dataset/lmdb/grayscale-50-50/test_db
I0403 19:16:20.870604  9017 data_layer.cpp:41] output data size: 24,3,224,224
I0403 19:16:20.897281  9017 net.cpp:141] Setting up data
I0403 19:16:20.897357  9017 net.cpp:148] Top shape: 24 3 224 224 (3612672)
I0403 19:16:20.897393  9017 net.cpp:148] Top shape: 24 (24)
I0403 19:16:20.897410  9017 net.cpp:156] Memory required for data: 14450784
I0403 19:16:20.897441  9017 layer_factory.hpp:77] Creating layer label_data_1_split
I0403 19:16:20.897469  9017 net.cpp:91] Creating Layer label_data_1_split
I0403 19:16:20.897487  9017 net.cpp:425] label_data_1_split <- label
I0403 19:16:20.897531  9017 net.cpp:399] label_data_1_split -> label_data_1_split_0
I0403 19:16:20.897557  9017 net.cpp:399] label_data_1_split -> label_data_1_split_1
I0403 19:16:20.897578  9017 net.cpp:399] label_data_1_split -> label_data_1_split_2
I0403 19:16:20.897599  9017 net.cpp:399] label_data_1_split -> label_data_1_split_3
I0403 19:16:20.897621  9017 net.cpp:399] label_data_1_split -> label_data_1_split_4
I0403 19:16:20.897641  9017 net.cpp:399] label_data_1_split -> label_data_1_split_5
I0403 19:16:20.897661  9017 net.cpp:399] label_data_1_split -> label_data_1_split_6
I0403 19:16:20.897681  9017 net.cpp:399] label_data_1_split -> label_data_1_split_7
I0403 19:16:20.897713  9017 net.cpp:399] label_data_1_split -> label_data_1_split_8
I0403 19:16:20.897733  9017 net.cpp:399] label_data_1_split -> label_data_1_split_9
I0403 19:16:20.897848  9017 net.cpp:141] Setting up label_data_1_split
I0403 19:16:20.897871  9017 net.cpp:148] Top shape: 24 (24)
I0403 19:16:20.897886  9017 net.cpp:148] Top shape: 24 (24)
I0403 19:16:20.897902  9017 net.cpp:148] Top shape: 24 (24)
I0403 19:16:20.897917  9017 net.cpp:148] Top shape: 24 (24)
I0403 19:16:20.897932  9017 net.cpp:148] Top shape: 24 (24)
I0403 19:16:20.897946  9017 net.cpp:148] Top shape: 24 (24)
I0403 19:16:20.897963  9017 net.cpp:148] Top shape: 24 (24)
I0403 19:16:20.897977  9017 net.cpp:148] Top shape: 24 (24)
I0403 19:16:20.897992  9017 net.cpp:148] Top shape: 24 (24)
I0403 19:16:20.898007  9017 net.cpp:148] Top shape: 24 (24)
I0403 19:16:20.898051  9017 net.cpp:156] Memory required for data: 14451744
I0403 19:16:20.898066  9017 layer_factory.hpp:77] Creating layer conv1/7x7_s2
I0403 19:16:20.898097  9017 net.cpp:91] Creating Layer conv1/7x7_s2
I0403 19:16:20.898115  9017 net.cpp:425] conv1/7x7_s2 <- data
I0403 19:16:20.898133  9017 net.cpp:399] conv1/7x7_s2 -> conv1/7x7_s2
I0403 19:16:21.038631  9017 net.cpp:141] Setting up conv1/7x7_s2
I0403 19:16:21.038708  9017 net.cpp:148] Top shape: 24 64 112 112 (19267584)
I0403 19:16:21.038725  9017 net.cpp:156] Memory required for data: 91522080
I0403 19:16:21.038755  9017 layer_factory.hpp:77] Creating layer conv1/relu_7x7
I0403 19:16:21.038781  9017 net.cpp:91] Creating Layer conv1/relu_7x7
I0403 19:16:21.038799  9017 net.cpp:425] conv1/relu_7x7 <- conv1/7x7_s2
I0403 19:16:21.038817  9017 net.cpp:386] conv1/relu_7x7 -> conv1/7x7_s2 (in-place)
I0403 19:16:21.039086  9017 net.cpp:141] Setting up conv1/relu_7x7
I0403 19:16:21.039113  9017 net.cpp:148] Top shape: 24 64 112 112 (19267584)
I0403 19:16:21.039126  9017 net.cpp:156] Memory required for data: 168592416
I0403 19:16:21.039141  9017 layer_factory.hpp:77] Creating layer pool1/3x3_s2
I0403 19:16:21.039165  9017 net.cpp:91] Creating Layer pool1/3x3_s2
I0403 19:16:21.039182  9017 net.cpp:425] pool1/3x3_s2 <- conv1/7x7_s2
I0403 19:16:21.039199  9017 net.cpp:399] pool1/3x3_s2 -> pool1/3x3_s2
I0403 19:16:21.039279  9017 net.cpp:141] Setting up pool1/3x3_s2
I0403 19:16:21.039302  9017 net.cpp:148] Top shape: 24 64 56 56 (4816896)
I0403 19:16:21.039316  9017 net.cpp:156] Memory required for data: 187860000
I0403 19:16:21.039330  9017 layer_factory.hpp:77] Creating layer pool1/norm1
I0403 19:16:21.039355  9017 net.cpp:91] Creating Layer pool1/norm1
I0403 19:16:21.039372  9017 net.cpp:425] pool1/norm1 <- pool1/3x3_s2
I0403 19:16:21.039389  9017 net.cpp:399] pool1/norm1 -> pool1/norm1
I0403 19:16:21.039680  9017 net.cpp:141] Setting up pool1/norm1
I0403 19:16:21.039705  9017 net.cpp:148] Top shape: 24 64 56 56 (4816896)
I0403 19:16:21.039719  9017 net.cpp:156] Memory required for data: 207127584
I0403 19:16:21.039734  9017 layer_factory.hpp:77] Creating layer conv2/3x3_reduce
I0403 19:16:21.039762  9017 net.cpp:91] Creating Layer conv2/3x3_reduce
I0403 19:16:21.039779  9017 net.cpp:425] conv2/3x3_reduce <- pool1/norm1
I0403 19:16:21.039798  9017 net.cpp:399] conv2/3x3_reduce -> conv2/3x3_reduce
I0403 19:16:21.041229  9017 net.cpp:141] Setting up conv2/3x3_reduce
I0403 19:16:21.041259  9017 net.cpp:148] Top shape: 24 64 56 56 (4816896)
I0403 19:16:21.041275  9017 net.cpp:156] Memory required for data: 226395168
I0403 19:16:21.041295  9017 layer_factory.hpp:77] Creating layer conv2/relu_3x3_reduce
I0403 19:16:21.041314  9017 net.cpp:91] Creating Layer conv2/relu_3x3_reduce
I0403 19:16:21.041331  9017 net.cpp:425] conv2/relu_3x3_reduce <- conv2/3x3_reduce
I0403 19:16:21.041347  9017 net.cpp:386] conv2/relu_3x3_reduce -> conv2/3x3_reduce (in-place)
I0403 19:16:21.041602  9017 net.cpp:141] Setting up conv2/relu_3x3_reduce
I0403 19:16:21.041628  9017 net.cpp:148] Top shape: 24 64 56 56 (4816896)
I0403 19:16:21.041642  9017 net.cpp:156] Memory required for data: 245662752
I0403 19:16:21.041704  9017 layer_factory.hpp:77] Creating layer conv2/3x3
I0403 19:16:21.041733  9017 net.cpp:91] Creating Layer conv2/3x3
I0403 19:16:21.041751  9017 net.cpp:425] conv2/3x3 <- conv2/3x3_reduce
I0403 19:16:21.041771  9017 net.cpp:399] conv2/3x3 -> conv2/3x3
I0403 19:16:21.044035  9017 net.cpp:141] Setting up conv2/3x3
I0403 19:16:21.044065  9017 net.cpp:148] Top shape: 24 192 56 56 (14450688)
I0403 19:16:21.044081  9017 net.cpp:156] Memory required for data: 303465504
I0403 19:16:21.044101  9017 layer_factory.hpp:77] Creating layer conv2/relu_3x3
I0403 19:16:21.044122  9017 net.cpp:91] Creating Layer conv2/relu_3x3
I0403 19:16:21.044138  9017 net.cpp:425] conv2/relu_3x3 <- conv2/3x3
I0403 19:16:21.044155  9017 net.cpp:386] conv2/relu_3x3 -> conv2/3x3 (in-place)
I0403 19:16:21.044330  9017 net.cpp:141] Setting up conv2/relu_3x3
I0403 19:16:21.044373  9017 net.cpp:148] Top shape: 24 192 56 56 (14450688)
I0403 19:16:21.044420  9017 net.cpp:156] Memory required for data: 361268256
I0403 19:16:21.044435  9017 layer_factory.hpp:77] Creating layer conv2/norm2
I0403 19:16:21.044455  9017 net.cpp:91] Creating Layer conv2/norm2
I0403 19:16:21.044471  9017 net.cpp:425] conv2/norm2 <- conv2/3x3
I0403 19:16:21.044491  9017 net.cpp:399] conv2/norm2 -> conv2/norm2
I0403 19:16:21.044795  9017 net.cpp:141] Setting up conv2/norm2
I0403 19:16:21.044822  9017 net.cpp:148] Top shape: 24 192 56 56 (14450688)
I0403 19:16:21.044837  9017 net.cpp:156] Memory required for data: 419071008
I0403 19:16:21.044852  9017 layer_factory.hpp:77] Creating layer pool2/3x3_s2
I0403 19:16:21.044868  9017 net.cpp:91] Creating Layer pool2/3x3_s2
I0403 19:16:21.044883  9017 net.cpp:425] pool2/3x3_s2 <- conv2/norm2
I0403 19:16:21.044905  9017 net.cpp:399] pool2/3x3_s2 -> pool2/3x3_s2
I0403 19:16:21.044955  9017 net.cpp:141] Setting up pool2/3x3_s2
I0403 19:16:21.044980  9017 net.cpp:148] Top shape: 24 192 28 28 (3612672)
I0403 19:16:21.044994  9017 net.cpp:156] Memory required for data: 433521696
I0403 19:16:21.045007  9017 layer_factory.hpp:77] Creating layer pool2/3x3_s2_pool2/3x3_s2_0_split
I0403 19:16:21.045024  9017 net.cpp:91] Creating Layer pool2/3x3_s2_pool2/3x3_s2_0_split
I0403 19:16:21.045039  9017 net.cpp:425] pool2/3x3_s2_pool2/3x3_s2_0_split <- pool2/3x3_s2
I0403 19:16:21.045055  9017 net.cpp:399] pool2/3x3_s2_pool2/3x3_s2_0_split -> pool2/3x3_s2_pool2/3x3_s2_0_split_0
I0403 19:16:21.045074  9017 net.cpp:399] pool2/3x3_s2_pool2/3x3_s2_0_split -> pool2/3x3_s2_pool2/3x3_s2_0_split_1
I0403 19:16:21.045095  9017 net.cpp:399] pool2/3x3_s2_pool2/3x3_s2_0_split -> pool2/3x3_s2_pool2/3x3_s2_0_split_2
I0403 19:16:21.045114  9017 net.cpp:399] pool2/3x3_s2_pool2/3x3_s2_0_split -> pool2/3x3_s2_pool2/3x3_s2_0_split_3
I0403 19:16:21.045184  9017 net.cpp:141] Setting up pool2/3x3_s2_pool2/3x3_s2_0_split
I0403 19:16:21.045205  9017 net.cpp:148] Top shape: 24 192 28 28 (3612672)
I0403 19:16:21.045228  9017 net.cpp:148] Top shape: 24 192 28 28 (3612672)
I0403 19:16:21.045243  9017 net.cpp:148] Top shape: 24 192 28 28 (3612672)
I0403 19:16:21.045258  9017 net.cpp:148] Top shape: 24 192 28 28 (3612672)
I0403 19:16:21.045270  9017 net.cpp:156] Memory required for data: 491324448
I0403 19:16:21.045284  9017 layer_factory.hpp:77] Creating layer inception_3a/1x1
I0403 19:16:21.045306  9017 net.cpp:91] Creating Layer inception_3a/1x1
I0403 19:16:21.045322  9017 net.cpp:425] inception_3a/1x1 <- pool2/3x3_s2_pool2/3x3_s2_0_split_0
I0403 19:16:21.045341  9017 net.cpp:399] inception_3a/1x1 -> inception_3a/1x1
I0403 19:16:21.046880  9017 net.cpp:141] Setting up inception_3a/1x1
I0403 19:16:21.046910  9017 net.cpp:148] Top shape: 24 64 28 28 (1204224)
I0403 19:16:21.046924  9017 net.cpp:156] Memory required for data: 496141344
I0403 19:16:21.046942  9017 layer_factory.hpp:77] Creating layer inception_3a/relu_1x1
I0403 19:16:21.046959  9017 net.cpp:91] Creating Layer inception_3a/relu_1x1
I0403 19:16:21.046977  9017 net.cpp:425] inception_3a/relu_1x1 <- inception_3a/1x1
I0403 19:16:21.046995  9017 net.cpp:386] inception_3a/relu_1x1 -> inception_3a/1x1 (in-place)
I0403 19:16:21.047164  9017 net.cpp:141] Setting up inception_3a/relu_1x1
I0403 19:16:21.047195  9017 net.cpp:148] Top shape: 24 64 28 28 (1204224)
I0403 19:16:21.047219  9017 net.cpp:156] Memory required for data: 500958240
I0403 19:16:21.047240  9017 layer_factory.hpp:77] Creating layer inception_3a/3x3_reduce
I0403 19:16:21.047261  9017 net.cpp:91] Creating Layer inception_3a/3x3_reduce
I0403 19:16:21.047278  9017 net.cpp:425] inception_3a/3x3_reduce <- pool2/3x3_s2_pool2/3x3_s2_0_split_1
I0403 19:16:21.047298  9017 net.cpp:399] inception_3a/3x3_reduce -> inception_3a/3x3_reduce
I0403 19:16:21.048954  9017 net.cpp:141] Setting up inception_3a/3x3_reduce
I0403 19:16:21.048982  9017 net.cpp:148] Top shape: 24 96 28 28 (1806336)
I0403 19:16:21.048997  9017 net.cpp:156] Memory required for data: 508183584
I0403 19:16:21.049018  9017 layer_factory.hpp:77] Creating layer inception_3a/relu_3x3_reduce
I0403 19:16:21.049053  9017 net.cpp:91] Creating Layer inception_3a/relu_3x3_reduce
I0403 19:16:21.049070  9017 net.cpp:425] inception_3a/relu_3x3_reduce <- inception_3a/3x3_reduce
I0403 19:16:21.049088  9017 net.cpp:386] inception_3a/relu_3x3_reduce -> inception_3a/3x3_reduce (in-place)
I0403 19:16:21.049271  9017 net.cpp:141] Setting up inception_3a/relu_3x3_reduce
I0403 19:16:21.049298  9017 net.cpp:148] Top shape: 24 96 28 28 (1806336)
I0403 19:16:21.049312  9017 net.cpp:156] Memory required for data: 515408928
I0403 19:16:21.049326  9017 layer_factory.hpp:77] Creating layer inception_3a/3x3
I0403 19:16:21.049350  9017 net.cpp:91] Creating Layer inception_3a/3x3
I0403 19:16:21.049366  9017 net.cpp:425] inception_3a/3x3 <- inception_3a/3x3_reduce
I0403 19:16:21.049386  9017 net.cpp:399] inception_3a/3x3 -> inception_3a/3x3
I0403 19:16:21.051026  9017 net.cpp:141] Setting up inception_3a/3x3
I0403 19:16:21.051054  9017 net.cpp:148] Top shape: 24 128 28 28 (2408448)
I0403 19:16:21.051069  9017 net.cpp:156] Memory required for data: 525042720
I0403 19:16:21.051086  9017 layer_factory.hpp:77] Creating layer inception_3a/relu_3x3
I0403 19:16:21.051105  9017 net.cpp:91] Creating Layer inception_3a/relu_3x3
I0403 19:16:21.051122  9017 net.cpp:425] inception_3a/relu_3x3 <- inception_3a/3x3
I0403 19:16:21.051138  9017 net.cpp:386] inception_3a/relu_3x3 -> inception_3a/3x3 (in-place)
I0403 19:16:21.051412  9017 net.cpp:141] Setting up inception_3a/relu_3x3
I0403 19:16:21.051439  9017 net.cpp:148] Top shape: 24 128 28 28 (2408448)
I0403 19:16:21.051451  9017 net.cpp:156] Memory required for data: 534676512
I0403 19:16:21.051465  9017 layer_factory.hpp:77] Creating layer inception_3a/5x5_reduce
I0403 19:16:21.051487  9017 net.cpp:91] Creating Layer inception_3a/5x5_reduce
I0403 19:16:21.051503  9017 net.cpp:425] inception_3a/5x5_reduce <- pool2/3x3_s2_pool2/3x3_s2_0_split_2
I0403 19:16:21.051523  9017 net.cpp:399] inception_3a/5x5_reduce -> inception_3a/5x5_reduce
I0403 19:16:21.052489  9017 net.cpp:141] Setting up inception_3a/5x5_reduce
I0403 19:16:21.052525  9017 net.cpp:148] Top shape: 24 16 28 28 (301056)
I0403 19:16:21.052541  9017 net.cpp:156] Memory required for data: 535880736
I0403 19:16:21.052558  9017 layer_factory.hpp:77] Creating layer inception_3a/relu_5x5_reduce
I0403 19:16:21.052577  9017 net.cpp:91] Creating Layer inception_3a/relu_5x5_reduce
I0403 19:16:21.052593  9017 net.cpp:425] inception_3a/relu_5x5_reduce <- inception_3a/5x5_reduce
I0403 19:16:21.052610  9017 net.cpp:386] inception_3a/relu_5x5_reduce -> inception_3a/5x5_reduce (in-place)
I0403 19:16:21.052886  9017 net.cpp:141] Setting up inception_3a/relu_5x5_reduce
I0403 19:16:21.052912  9017 net.cpp:148] Top shape: 24 16 28 28 (301056)
I0403 19:16:21.052927  9017 net.cpp:156] Memory required for data: 537084960
I0403 19:16:21.052942  9017 layer_factory.hpp:77] Creating layer inception_3a/5x5
I0403 19:16:21.052963  9017 net.cpp:91] Creating Layer inception_3a/5x5
I0403 19:16:21.052979  9017 net.cpp:425] inception_3a/5x5 <- inception_3a/5x5_reduce
I0403 19:16:21.052997  9017 net.cpp:399] inception_3a/5x5 -> inception_3a/5x5
I0403 19:16:21.054010  9017 net.cpp:141] Setting up inception_3a/5x5
I0403 19:16:21.054036  9017 net.cpp:148] Top shape: 24 32 28 28 (602112)
I0403 19:16:21.054051  9017 net.cpp:156] Memory required for data: 539493408
I0403 19:16:21.054069  9017 layer_factory.hpp:77] Creating layer inception_3a/relu_5x5
I0403 19:16:21.054088  9017 net.cpp:91] Creating Layer inception_3a/relu_5x5
I0403 19:16:21.054105  9017 net.cpp:425] inception_3a/relu_5x5 <- inception_3a/5x5
I0403 19:16:21.054121  9017 net.cpp:386] inception_3a/relu_5x5 -> inception_3a/5x5 (in-place)
I0403 19:16:21.054299  9017 net.cpp:141] Setting up inception_3a/relu_5x5
I0403 19:16:21.054323  9017 net.cpp:148] Top shape: 24 32 28 28 (602112)
I0403 19:16:21.054340  9017 net.cpp:156] Memory required for data: 541901856
I0403 19:16:21.054354  9017 layer_factory.hpp:77] Creating layer inception_3a/pool
I0403 19:16:21.054371  9017 net.cpp:91] Creating Layer inception_3a/pool
I0403 19:16:21.054400  9017 net.cpp:425] inception_3a/pool <- pool2/3x3_s2_pool2/3x3_s2_0_split_3
I0403 19:16:21.054419  9017 net.cpp:399] inception_3a/pool -> inception_3a/pool
I0403 19:16:21.054486  9017 net.cpp:141] Setting up inception_3a/pool
I0403 19:16:21.054509  9017 net.cpp:148] Top shape: 24 192 28 28 (3612672)
I0403 19:16:21.054535  9017 net.cpp:156] Memory required for data: 556352544
I0403 19:16:21.054551  9017 layer_factory.hpp:77] Creating layer inception_3a/pool_proj
I0403 19:16:21.054574  9017 net.cpp:91] Creating Layer inception_3a/pool_proj
I0403 19:16:21.054592  9017 net.cpp:425] inception_3a/pool_proj <- inception_3a/pool
I0403 19:16:21.054615  9017 net.cpp:399] inception_3a/pool_proj -> inception_3a/pool_proj
I0403 19:16:21.055588  9017 net.cpp:141] Setting up inception_3a/pool_proj
I0403 19:16:21.055618  9017 net.cpp:148] Top shape: 24 32 28 28 (602112)
I0403 19:16:21.055632  9017 net.cpp:156] Memory required for data: 558760992
I0403 19:16:21.055654  9017 layer_factory.hpp:77] Creating layer inception_3a/relu_pool_proj
I0403 19:16:21.055675  9017 net.cpp:91] Creating Layer inception_3a/relu_pool_proj
I0403 19:16:21.055691  9017 net.cpp:425] inception_3a/relu_pool_proj <- inception_3a/pool_proj
I0403 19:16:21.055708  9017 net.cpp:386] inception_3a/relu_pool_proj -> inception_3a/pool_proj (in-place)
I0403 19:16:21.055979  9017 net.cpp:141] Setting up inception_3a/relu_pool_proj
I0403 19:16:21.056005  9017 net.cpp:148] Top shape: 24 32 28 28 (602112)
I0403 19:16:21.056018  9017 net.cpp:156] Memory required for data: 561169440
I0403 19:16:21.056033  9017 layer_factory.hpp:77] Creating layer inception_3a/output
I0403 19:16:21.056051  9017 net.cpp:91] Creating Layer inception_3a/output
I0403 19:16:21.056066  9017 net.cpp:425] inception_3a/output <- inception_3a/1x1
I0403 19:16:21.056082  9017 net.cpp:425] inception_3a/output <- inception_3a/3x3
I0403 19:16:21.056097  9017 net.cpp:425] inception_3a/output <- inception_3a/5x5
I0403 19:16:21.056113  9017 net.cpp:425] inception_3a/output <- inception_3a/pool_proj
I0403 19:16:21.056131  9017 net.cpp:399] inception_3a/output -> inception_3a/output
I0403 19:16:21.056180  9017 net.cpp:141] Setting up inception_3a/output
I0403 19:16:21.056203  9017 net.cpp:148] Top shape: 24 256 28 28 (4816896)
I0403 19:16:21.056224  9017 net.cpp:156] Memory required for data: 580437024
I0403 19:16:21.056239  9017 layer_factory.hpp:77] Creating layer inception_3a/output_inception_3a/output_0_split
I0403 19:16:21.056257  9017 net.cpp:91] Creating Layer inception_3a/output_inception_3a/output_0_split
I0403 19:16:21.056272  9017 net.cpp:425] inception_3a/output_inception_3a/output_0_split <- inception_3a/output
I0403 19:16:21.056290  9017 net.cpp:399] inception_3a/output_inception_3a/output_0_split -> inception_3a/output_inception_3a/output_0_split_0
I0403 19:16:21.056311  9017 net.cpp:399] inception_3a/output_inception_3a/output_0_split -> inception_3a/output_inception_3a/output_0_split_1
I0403 19:16:21.056334  9017 net.cpp:399] inception_3a/output_inception_3a/output_0_split -> inception_3a/output_inception_3a/output_0_split_2
I0403 19:16:21.056356  9017 net.cpp:399] inception_3a/output_inception_3a/output_0_split -> inception_3a/output_inception_3a/output_0_split_3
I0403 19:16:21.056429  9017 net.cpp:141] Setting up inception_3a/output_inception_3a/output_0_split
I0403 19:16:21.056452  9017 net.cpp:148] Top shape: 24 256 28 28 (4816896)
I0403 19:16:21.056468  9017 net.cpp:148] Top shape: 24 256 28 28 (4816896)
I0403 19:16:21.056484  9017 net.cpp:148] Top shape: 24 256 28 28 (4816896)
I0403 19:16:21.056499  9017 net.cpp:148] Top shape: 24 256 28 28 (4816896)
I0403 19:16:21.056514  9017 net.cpp:156] Memory required for data: 657507360
I0403 19:16:21.056527  9017 layer_factory.hpp:77] Creating layer inception_3b/1x1
I0403 19:16:21.056548  9017 net.cpp:91] Creating Layer inception_3b/1x1
I0403 19:16:21.056565  9017 net.cpp:425] inception_3b/1x1 <- inception_3a/output_inception_3a/output_0_split_0
I0403 19:16:21.056586  9017 net.cpp:399] inception_3b/1x1 -> inception_3b/1x1
I0403 19:16:21.057736  9017 net.cpp:141] Setting up inception_3b/1x1
I0403 19:16:21.057788  9017 net.cpp:148] Top shape: 24 128 28 28 (2408448)
I0403 19:16:21.057804  9017 net.cpp:156] Memory required for data: 667141152
I0403 19:16:21.057822  9017 layer_factory.hpp:77] Creating layer inception_3b/relu_1x1
I0403 19:16:21.057839  9017 net.cpp:91] Creating Layer inception_3b/relu_1x1
I0403 19:16:21.057855  9017 net.cpp:425] inception_3b/relu_1x1 <- inception_3b/1x1
I0403 19:16:21.057875  9017 net.cpp:386] inception_3b/relu_1x1 -> inception_3b/1x1 (in-place)
I0403 19:16:21.058054  9017 net.cpp:141] Setting up inception_3b/relu_1x1
I0403 19:16:21.058079  9017 net.cpp:148] Top shape: 24 128 28 28 (2408448)
I0403 19:16:21.058094  9017 net.cpp:156] Memory required for data: 676774944
I0403 19:16:21.058107  9017 layer_factory.hpp:77] Creating layer inception_3b/3x3_reduce
I0403 19:16:21.058130  9017 net.cpp:91] Creating Layer inception_3b/3x3_reduce
I0403 19:16:21.058146  9017 net.cpp:425] inception_3b/3x3_reduce <- inception_3a/output_inception_3a/output_0_split_1
I0403 19:16:21.058168  9017 net.cpp:399] inception_3b/3x3_reduce -> inception_3b/3x3_reduce
I0403 19:16:21.059342  9017 net.cpp:141] Setting up inception_3b/3x3_reduce
I0403 19:16:21.059370  9017 net.cpp:148] Top shape: 24 128 28 28 (2408448)
I0403 19:16:21.059386  9017 net.cpp:156] Memory required for data: 686408736
I0403 19:16:21.059406  9017 layer_factory.hpp:77] Creating layer inception_3b/relu_3x3_reduce
I0403 19:16:21.059423  9017 net.cpp:91] Creating Layer inception_3b/relu_3x3_reduce
I0403 19:16:21.059438  9017 net.cpp:425] inception_3b/relu_3x3_reduce <- inception_3b/3x3_reduce
I0403 19:16:21.059458  9017 net.cpp:386] inception_3b/relu_3x3_reduce -> inception_3b/3x3_reduce (in-place)
I0403 19:16:21.059629  9017 net.cpp:141] Setting up inception_3b/relu_3x3_reduce
I0403 19:16:21.059654  9017 net.cpp:148] Top shape: 24 128 28 28 (2408448)
I0403 19:16:21.059669  9017 net.cpp:156] Memory required for data: 696042528
I0403 19:16:21.059682  9017 layer_factory.hpp:77] Creating layer inception_3b/3x3
I0403 19:16:21.059708  9017 net.cpp:91] Creating Layer inception_3b/3x3
I0403 19:16:21.059725  9017 net.cpp:425] inception_3b/3x3 <- inception_3b/3x3_reduce
I0403 19:16:21.059744  9017 net.cpp:399] inception_3b/3x3 -> inception_3b/3x3
I0403 19:16:21.062697  9017 net.cpp:141] Setting up inception_3b/3x3
I0403 19:16:21.062728  9017 net.cpp:148] Top shape: 24 192 28 28 (3612672)
I0403 19:16:21.062744  9017 net.cpp:156] Memory required for data: 710493216
I0403 19:16:21.062774  9017 layer_factory.hpp:77] Creating layer inception_3b/relu_3x3
I0403 19:16:21.062794  9017 net.cpp:91] Creating Layer inception_3b/relu_3x3
I0403 19:16:21.062811  9017 net.cpp:425] inception_3b/relu_3x3 <- inception_3b/3x3
I0403 19:16:21.062829  9017 net.cpp:386] inception_3b/relu_3x3 -> inception_3b/3x3 (in-place)
I0403 19:16:21.063102  9017 net.cpp:141] Setting up inception_3b/relu_3x3
I0403 19:16:21.063129  9017 net.cpp:148] Top shape: 24 192 28 28 (3612672)
I0403 19:16:21.063143  9017 net.cpp:156] Memory required for data: 724943904
I0403 19:16:21.063158  9017 layer_factory.hpp:77] Creating layer inception_3b/5x5_reduce
I0403 19:16:21.063182  9017 net.cpp:91] Creating Layer inception_3b/5x5_reduce
I0403 19:16:21.063200  9017 net.cpp:425] inception_3b/5x5_reduce <- inception_3a/output_inception_3a/output_0_split_2
I0403 19:16:21.063228  9017 net.cpp:399] inception_3b/5x5_reduce -> inception_3b/5x5_reduce
I0403 19:16:21.064206  9017 net.cpp:141] Setting up inception_3b/5x5_reduce
I0403 19:16:21.064239  9017 net.cpp:148] Top shape: 24 32 28 28 (602112)
I0403 19:16:21.064254  9017 net.cpp:156] Memory required for data: 727352352
I0403 19:16:21.064272  9017 layer_factory.hpp:77] Creating layer inception_3b/relu_5x5_reduce
I0403 19:16:21.064292  9017 net.cpp:91] Creating Layer inception_3b/relu_5x5_reduce
I0403 19:16:21.064309  9017 net.cpp:425] inception_3b/relu_5x5_reduce <- inception_3b/5x5_reduce
I0403 19:16:21.064327  9017 net.cpp:386] inception_3b/relu_5x5_reduce -> inception_3b/5x5_reduce (in-place)
I0403 19:16:21.064532  9017 net.cpp:141] Setting up inception_3b/relu_5x5_reduce
I0403 19:16:21.064559  9017 net.cpp:148] Top shape: 24 32 28 28 (602112)
I0403 19:16:21.064574  9017 net.cpp:156] Memory required for data: 729760800
I0403 19:16:21.064589  9017 layer_factory.hpp:77] Creating layer inception_3b/5x5
I0403 19:16:21.064610  9017 net.cpp:91] Creating Layer inception_3b/5x5
I0403 19:16:21.064627  9017 net.cpp:425] inception_3b/5x5 <- inception_3b/5x5_reduce
I0403 19:16:21.064648  9017 net.cpp:399] inception_3b/5x5 -> inception_3b/5x5
I0403 19:16:21.066674  9017 net.cpp:141] Setting up inception_3b/5x5
I0403 19:16:21.066704  9017 net.cpp:148] Top shape: 24 96 28 28 (1806336)
I0403 19:16:21.066720  9017 net.cpp:156] Memory required for data: 736986144
I0403 19:16:21.066737  9017 layer_factory.hpp:77] Creating layer inception_3b/relu_5x5
I0403 19:16:21.066766  9017 net.cpp:91] Creating Layer inception_3b/relu_5x5
I0403 19:16:21.066781  9017 net.cpp:425] inception_3b/relu_5x5 <- inception_3b/5x5
I0403 19:16:21.066799  9017 net.cpp:386] inception_3b/relu_5x5 -> inception_3b/5x5 (in-place)
I0403 19:16:21.066983  9017 net.cpp:141] Setting up inception_3b/relu_5x5
I0403 19:16:21.067008  9017 net.cpp:148] Top shape: 24 96 28 28 (1806336)
I0403 19:16:21.067023  9017 net.cpp:156] Memory required for data: 744211488
I0403 19:16:21.067036  9017 layer_factory.hpp:77] Creating layer inception_3b/pool
I0403 19:16:21.067052  9017 net.cpp:91] Creating Layer inception_3b/pool
I0403 19:16:21.067068  9017 net.cpp:425] inception_3b/pool <- inception_3a/output_inception_3a/output_0_split_3
I0403 19:16:21.067087  9017 net.cpp:399] inception_3b/pool -> inception_3b/pool
I0403 19:16:21.067142  9017 net.cpp:141] Setting up inception_3b/pool
I0403 19:16:21.067164  9017 net.cpp:148] Top shape: 24 256 28 28 (4816896)
I0403 19:16:21.067178  9017 net.cpp:156] Memory required for data: 763479072
I0403 19:16:21.067193  9017 layer_factory.hpp:77] Creating layer inception_3b/pool_proj
I0403 19:16:21.067219  9017 net.cpp:91] Creating Layer inception_3b/pool_proj
I0403 19:16:21.067237  9017 net.cpp:425] inception_3b/pool_proj <- inception_3b/pool
I0403 19:16:21.067257  9017 net.cpp:399] inception_3b/pool_proj -> inception_3b/pool_proj
I0403 19:16:21.068274  9017 net.cpp:141] Setting up inception_3b/pool_proj
I0403 19:16:21.068302  9017 net.cpp:148] Top shape: 24 64 28 28 (1204224)
I0403 19:16:21.068318  9017 net.cpp:156] Memory required for data: 768295968
I0403 19:16:21.068336  9017 layer_factory.hpp:77] Creating layer inception_3b/relu_pool_proj
I0403 19:16:21.068353  9017 net.cpp:91] Creating Layer inception_3b/relu_pool_proj
I0403 19:16:21.068368  9017 net.cpp:425] inception_3b/relu_pool_proj <- inception_3b/pool_proj
I0403 19:16:21.068384  9017 net.cpp:386] inception_3b/relu_pool_proj -> inception_3b/pool_proj (in-place)
I0403 19:16:21.068758  9017 net.cpp:141] Setting up inception_3b/relu_pool_proj
I0403 19:16:21.068783  9017 net.cpp:148] Top shape: 24 64 28 28 (1204224)
I0403 19:16:21.068799  9017 net.cpp:156] Memory required for data: 773112864
I0403 19:16:21.068812  9017 layer_factory.hpp:77] Creating layer inception_3b/output
I0403 19:16:21.068831  9017 net.cpp:91] Creating Layer inception_3b/output
I0403 19:16:21.068846  9017 net.cpp:425] inception_3b/output <- inception_3b/1x1
I0403 19:16:21.068863  9017 net.cpp:425] inception_3b/output <- inception_3b/3x3
I0403 19:16:21.068878  9017 net.cpp:425] inception_3b/output <- inception_3b/5x5
I0403 19:16:21.068892  9017 net.cpp:425] inception_3b/output <- inception_3b/pool_proj
I0403 19:16:21.068909  9017 net.cpp:399] inception_3b/output -> inception_3b/output
I0403 19:16:21.068953  9017 net.cpp:141] Setting up inception_3b/output
I0403 19:16:21.068974  9017 net.cpp:148] Top shape: 24 480 28 28 (9031680)
I0403 19:16:21.068989  9017 net.cpp:156] Memory required for data: 809239584
I0403 19:16:21.069002  9017 layer_factory.hpp:77] Creating layer pool3/3x3_s2
I0403 19:16:21.069020  9017 net.cpp:91] Creating Layer pool3/3x3_s2
I0403 19:16:21.069034  9017 net.cpp:425] pool3/3x3_s2 <- inception_3b/output
I0403 19:16:21.069067  9017 net.cpp:399] pool3/3x3_s2 -> pool3/3x3_s2
I0403 19:16:21.069124  9017 net.cpp:141] Setting up pool3/3x3_s2
I0403 19:16:21.069146  9017 net.cpp:148] Top shape: 24 480 14 14 (2257920)
I0403 19:16:21.069160  9017 net.cpp:156] Memory required for data: 818271264
I0403 19:16:21.069175  9017 layer_factory.hpp:77] Creating layer pool3/3x3_s2_pool3/3x3_s2_0_split
I0403 19:16:21.069192  9017 net.cpp:91] Creating Layer pool3/3x3_s2_pool3/3x3_s2_0_split
I0403 19:16:21.069213  9017 net.cpp:425] pool3/3x3_s2_pool3/3x3_s2_0_split <- pool3/3x3_s2
I0403 19:16:21.069233  9017 net.cpp:399] pool3/3x3_s2_pool3/3x3_s2_0_split -> pool3/3x3_s2_pool3/3x3_s2_0_split_0
I0403 19:16:21.069253  9017 net.cpp:399] pool3/3x3_s2_pool3/3x3_s2_0_split -> pool3/3x3_s2_pool3/3x3_s2_0_split_1
I0403 19:16:21.069272  9017 net.cpp:399] pool3/3x3_s2_pool3/3x3_s2_0_split -> pool3/3x3_s2_pool3/3x3_s2_0_split_2
I0403 19:16:21.069290  9017 net.cpp:399] pool3/3x3_s2_pool3/3x3_s2_0_split -> pool3/3x3_s2_pool3/3x3_s2_0_split_3
I0403 19:16:21.069362  9017 net.cpp:141] Setting up pool3/3x3_s2_pool3/3x3_s2_0_split
I0403 19:16:21.069386  9017 net.cpp:148] Top shape: 24 480 14 14 (2257920)
I0403 19:16:21.069402  9017 net.cpp:148] Top shape: 24 480 14 14 (2257920)
I0403 19:16:21.069417  9017 net.cpp:148] Top shape: 24 480 14 14 (2257920)
I0403 19:16:21.069432  9017 net.cpp:148] Top shape: 24 480 14 14 (2257920)
I0403 19:16:21.069447  9017 net.cpp:156] Memory required for data: 854397984
I0403 19:16:21.069460  9017 layer_factory.hpp:77] Creating layer inception_4a/1x1
I0403 19:16:21.069494  9017 net.cpp:91] Creating Layer inception_4a/1x1
I0403 19:16:21.069509  9017 net.cpp:425] inception_4a/1x1 <- pool3/3x3_s2_pool3/3x3_s2_0_split_0
I0403 19:16:21.069533  9017 net.cpp:399] inception_4a/1x1 -> inception_4a/1x1
I0403 19:16:21.071099  9017 net.cpp:141] Setting up inception_4a/1x1
I0403 19:16:21.071137  9017 net.cpp:148] Top shape: 24 192 14 14 (903168)
I0403 19:16:21.071153  9017 net.cpp:156] Memory required for data: 858010656
I0403 19:16:21.071171  9017 layer_factory.hpp:77] Creating layer inception_4a/relu_1x1
I0403 19:16:21.071187  9017 net.cpp:91] Creating Layer inception_4a/relu_1x1
I0403 19:16:21.071202  9017 net.cpp:425] inception_4a/relu_1x1 <- inception_4a/1x1
I0403 19:16:21.071225  9017 net.cpp:386] inception_4a/relu_1x1 -> inception_4a/1x1 (in-place)
I0403 19:16:21.071400  9017 net.cpp:141] Setting up inception_4a/relu_1x1
I0403 19:16:21.071424  9017 net.cpp:148] Top shape: 24 192 14 14 (903168)
I0403 19:16:21.071439  9017 net.cpp:156] Memory required for data: 861623328
I0403 19:16:21.071452  9017 layer_factory.hpp:77] Creating layer inception_4a/3x3_reduce
I0403 19:16:21.071473  9017 net.cpp:91] Creating Layer inception_4a/3x3_reduce
I0403 19:16:21.071491  9017 net.cpp:425] inception_4a/3x3_reduce <- pool3/3x3_s2_pool3/3x3_s2_0_split_1
I0403 19:16:21.071511  9017 net.cpp:399] inception_4a/3x3_reduce -> inception_4a/3x3_reduce
I0403 19:16:21.072751  9017 net.cpp:141] Setting up inception_4a/3x3_reduce
I0403 19:16:21.072782  9017 net.cpp:148] Top shape: 24 96 14 14 (451584)
I0403 19:16:21.072796  9017 net.cpp:156] Memory required for data: 863429664
I0403 19:16:21.072820  9017 layer_factory.hpp:77] Creating layer inception_4a/relu_3x3_reduce
I0403 19:16:21.072839  9017 net.cpp:91] Creating Layer inception_4a/relu_3x3_reduce
I0403 19:16:21.072854  9017 net.cpp:425] inception_4a/relu_3x3_reduce <- inception_4a/3x3_reduce
I0403 19:16:21.072871  9017 net.cpp:386] inception_4a/relu_3x3_reduce -> inception_4a/3x3_reduce (in-place)
I0403 19:16:21.073046  9017 net.cpp:141] Setting up inception_4a/relu_3x3_reduce
I0403 19:16:21.073072  9017 net.cpp:148] Top shape: 24 96 14 14 (451584)
I0403 19:16:21.073086  9017 net.cpp:156] Memory required for data: 865236000
I0403 19:16:21.073101  9017 layer_factory.hpp:77] Creating layer inception_4a/3x3
I0403 19:16:21.073122  9017 net.cpp:91] Creating Layer inception_4a/3x3
I0403 19:16:21.073138  9017 net.cpp:425] inception_4a/3x3 <- inception_4a/3x3_reduce
I0403 19:16:21.073158  9017 net.cpp:399] inception_4a/3x3 -> inception_4a/3x3
I0403 19:16:21.075817  9017 net.cpp:141] Setting up inception_4a/3x3
I0403 19:16:21.075845  9017 net.cpp:148] Top shape: 24 208 14 14 (978432)
I0403 19:16:21.075860  9017 net.cpp:156] Memory required for data: 869149728
I0403 19:16:21.075877  9017 layer_factory.hpp:77] Creating layer inception_4a/relu_3x3
I0403 19:16:21.075894  9017 net.cpp:91] Creating Layer inception_4a/relu_3x3
I0403 19:16:21.075909  9017 net.cpp:425] inception_4a/relu_3x3 <- inception_4a/3x3
I0403 19:16:21.075928  9017 net.cpp:386] inception_4a/relu_3x3 -> inception_4a/3x3 (in-place)
I0403 19:16:21.076215  9017 net.cpp:141] Setting up inception_4a/relu_3x3
I0403 19:16:21.076239  9017 net.cpp:148] Top shape: 24 208 14 14 (978432)
I0403 19:16:21.076253  9017 net.cpp:156] Memory required for data: 873063456
I0403 19:16:21.076267  9017 layer_factory.hpp:77] Creating layer inception_4a/5x5_reduce
I0403 19:16:21.076289  9017 net.cpp:91] Creating Layer inception_4a/5x5_reduce
I0403 19:16:21.076306  9017 net.cpp:425] inception_4a/5x5_reduce <- pool3/3x3_s2_pool3/3x3_s2_0_split_2
I0403 19:16:21.076326  9017 net.cpp:399] inception_4a/5x5_reduce -> inception_4a/5x5_reduce
I0403 19:16:21.077324  9017 net.cpp:141] Setting up inception_4a/5x5_reduce
I0403 19:16:21.077350  9017 net.cpp:148] Top shape: 24 16 14 14 (75264)
I0403 19:16:21.077365  9017 net.cpp:156] Memory required for data: 873364512
I0403 19:16:21.077383  9017 layer_factory.hpp:77] Creating layer inception_4a/relu_5x5_reduce
I0403 19:16:21.077402  9017 net.cpp:91] Creating Layer inception_4a/relu_5x5_reduce
I0403 19:16:21.077419  9017 net.cpp:425] inception_4a/relu_5x5_reduce <- inception_4a/5x5_reduce
I0403 19:16:21.077435  9017 net.cpp:386] inception_4a/relu_5x5_reduce -> inception_4a/5x5_reduce (in-place)
I0403 19:16:21.077622  9017 net.cpp:141] Setting up inception_4a/relu_5x5_reduce
I0403 19:16:21.077647  9017 net.cpp:148] Top shape: 24 16 14 14 (75264)
I0403 19:16:21.077661  9017 net.cpp:156] Memory required for data: 873665568
I0403 19:16:21.077677  9017 layer_factory.hpp:77] Creating layer inception_4a/5x5
I0403 19:16:21.077698  9017 net.cpp:91] Creating Layer inception_4a/5x5
I0403 19:16:21.077716  9017 net.cpp:425] inception_4a/5x5 <- inception_4a/5x5_reduce
I0403 19:16:21.077738  9017 net.cpp:399] inception_4a/5x5 -> inception_4a/5x5
I0403 19:16:21.078832  9017 net.cpp:141] Setting up inception_4a/5x5
I0403 19:16:21.078860  9017 net.cpp:148] Top shape: 24 48 14 14 (225792)
I0403 19:16:21.078874  9017 net.cpp:156] Memory required for data: 874568736
I0403 19:16:21.078891  9017 layer_factory.hpp:77] Creating layer inception_4a/relu_5x5
I0403 19:16:21.078912  9017 net.cpp:91] Creating Layer inception_4a/relu_5x5
I0403 19:16:21.078927  9017 net.cpp:425] inception_4a/relu_5x5 <- inception_4a/5x5
I0403 19:16:21.078943  9017 net.cpp:386] inception_4a/relu_5x5 -> inception_4a/5x5 (in-place)
I0403 19:16:21.079114  9017 net.cpp:141] Setting up inception_4a/relu_5x5
I0403 19:16:21.079139  9017 net.cpp:148] Top shape: 24 48 14 14 (225792)
I0403 19:16:21.079152  9017 net.cpp:156] Memory required for data: 875471904
I0403 19:16:21.079166  9017 layer_factory.hpp:77] Creating layer inception_4a/pool
I0403 19:16:21.079183  9017 net.cpp:91] Creating Layer inception_4a/pool
I0403 19:16:21.079200  9017 net.cpp:425] inception_4a/pool <- pool3/3x3_s2_pool3/3x3_s2_0_split_3
I0403 19:16:21.079237  9017 net.cpp:399] inception_4a/pool -> inception_4a/pool
I0403 19:16:21.079311  9017 net.cpp:141] Setting up inception_4a/pool
I0403 19:16:21.079335  9017 net.cpp:148] Top shape: 24 480 14 14 (2257920)
I0403 19:16:21.079349  9017 net.cpp:156] Memory required for data: 884503584
I0403 19:16:21.079363  9017 layer_factory.hpp:77] Creating layer inception_4a/pool_proj
I0403 19:16:21.079386  9017 net.cpp:91] Creating Layer inception_4a/pool_proj
I0403 19:16:21.079402  9017 net.cpp:425] inception_4a/pool_proj <- inception_4a/pool
I0403 19:16:21.079421  9017 net.cpp:399] inception_4a/pool_proj -> inception_4a/pool_proj
I0403 19:16:21.080559  9017 net.cpp:141] Setting up inception_4a/pool_proj
I0403 19:16:21.080590  9017 net.cpp:148] Top shape: 24 64 14 14 (301056)
I0403 19:16:21.080618  9017 net.cpp:156] Memory required for data: 885707808
I0403 19:16:21.080637  9017 layer_factory.hpp:77] Creating layer inception_4a/relu_pool_proj
I0403 19:16:21.080654  9017 net.cpp:91] Creating Layer inception_4a/relu_pool_proj
I0403 19:16:21.080669  9017 net.cpp:425] inception_4a/relu_pool_proj <- inception_4a/pool_proj
I0403 19:16:21.080689  9017 net.cpp:386] inception_4a/relu_pool_proj -> inception_4a/pool_proj (in-place)
I0403 19:16:21.080960  9017 net.cpp:141] Setting up inception_4a/relu_pool_proj
I0403 19:16:21.080988  9017 net.cpp:148] Top shape: 24 64 14 14 (301056)
I0403 19:16:21.081003  9017 net.cpp:156] Memory required for data: 886912032
I0403 19:16:21.081018  9017 layer_factory.hpp:77] Creating layer inception_4a/output
I0403 19:16:21.081034  9017 net.cpp:91] Creating Layer inception_4a/output
I0403 19:16:21.081049  9017 net.cpp:425] inception_4a/output <- inception_4a/1x1
I0403 19:16:21.081065  9017 net.cpp:425] inception_4a/output <- inception_4a/3x3
I0403 19:16:21.081080  9017 net.cpp:425] inception_4a/output <- inception_4a/5x5
I0403 19:16:21.081095  9017 net.cpp:425] inception_4a/output <- inception_4a/pool_proj
I0403 19:16:21.081111  9017 net.cpp:399] inception_4a/output -> inception_4a/output
I0403 19:16:21.081156  9017 net.cpp:141] Setting up inception_4a/output
I0403 19:16:21.081177  9017 net.cpp:148] Top shape: 24 512 14 14 (2408448)
I0403 19:16:21.081192  9017 net.cpp:156] Memory required for data: 896545824
I0403 19:16:21.081205  9017 layer_factory.hpp:77] Creating layer inception_4a/output_inception_4a/output_0_split
I0403 19:16:21.081233  9017 net.cpp:91] Creating Layer inception_4a/output_inception_4a/output_0_split
I0403 19:16:21.081249  9017 net.cpp:425] inception_4a/output_inception_4a/output_0_split <- inception_4a/output
I0403 19:16:21.081266  9017 net.cpp:399] inception_4a/output_inception_4a/output_0_split -> inception_4a/output_inception_4a/output_0_split_0
I0403 19:16:21.081285  9017 net.cpp:399] inception_4a/output_inception_4a/output_0_split -> inception_4a/output_inception_4a/output_0_split_1
I0403 19:16:21.081315  9017 net.cpp:399] inception_4a/output_inception_4a/output_0_split -> inception_4a/output_inception_4a/output_0_split_2
I0403 19:16:21.081336  9017 net.cpp:399] inception_4a/output_inception_4a/output_0_split -> inception_4a/output_inception_4a/output_0_split_3
I0403 19:16:21.081354  9017 net.cpp:399] inception_4a/output_inception_4a/output_0_split -> inception_4a/output_inception_4a/output_0_split_4
I0403 19:16:21.081444  9017 net.cpp:141] Setting up inception_4a/output_inception_4a/output_0_split
I0403 19:16:21.081477  9017 net.cpp:148] Top shape: 24 512 14 14 (2408448)
I0403 19:16:21.081493  9017 net.cpp:148] Top shape: 24 512 14 14 (2408448)
I0403 19:16:21.081509  9017 net.cpp:148] Top shape: 24 512 14 14 (2408448)
I0403 19:16:21.081524  9017 net.cpp:148] Top shape: 24 512 14 14 (2408448)
I0403 19:16:21.081539  9017 net.cpp:148] Top shape: 24 512 14 14 (2408448)
I0403 19:16:21.081553  9017 net.cpp:156] Memory required for data: 944714784
I0403 19:16:21.081568  9017 layer_factory.hpp:77] Creating layer loss1/ave_pool
I0403 19:16:21.081584  9017 net.cpp:91] Creating Layer loss1/ave_pool
I0403 19:16:21.081600  9017 net.cpp:425] loss1/ave_pool <- inception_4a/output_inception_4a/output_0_split_0
I0403 19:16:21.081619  9017 net.cpp:399] loss1/ave_pool -> loss1/ave_pool
I0403 19:16:21.081833  9017 net.cpp:141] Setting up loss1/ave_pool
I0403 19:16:21.081861  9017 net.cpp:148] Top shape: 24 512 4 4 (196608)
I0403 19:16:21.081876  9017 net.cpp:156] Memory required for data: 945501216
I0403 19:16:21.081890  9017 layer_factory.hpp:77] Creating layer loss1/conv
I0403 19:16:21.081912  9017 net.cpp:91] Creating Layer loss1/conv
I0403 19:16:21.081928  9017 net.cpp:425] loss1/conv <- loss1/ave_pool
I0403 19:16:21.081946  9017 net.cpp:399] loss1/conv -> loss1/conv
I0403 19:16:21.083353  9017 net.cpp:141] Setting up loss1/conv
I0403 19:16:21.083381  9017 net.cpp:148] Top shape: 24 128 4 4 (49152)
I0403 19:16:21.083408  9017 net.cpp:156] Memory required for data: 945697824
I0403 19:16:21.083427  9017 layer_factory.hpp:77] Creating layer loss1/relu_conv
I0403 19:16:21.083446  9017 net.cpp:91] Creating Layer loss1/relu_conv
I0403 19:16:21.083461  9017 net.cpp:425] loss1/relu_conv <- loss1/conv
I0403 19:16:21.083479  9017 net.cpp:386] loss1/relu_conv -> loss1/conv (in-place)
I0403 19:16:21.083751  9017 net.cpp:141] Setting up loss1/relu_conv
I0403 19:16:21.083776  9017 net.cpp:148] Top shape: 24 128 4 4 (49152)
I0403 19:16:21.083791  9017 net.cpp:156] Memory required for data: 945894432
I0403 19:16:21.083806  9017 layer_factory.hpp:77] Creating layer loss1/fc
I0403 19:16:21.083828  9017 net.cpp:91] Creating Layer loss1/fc
I0403 19:16:21.083844  9017 net.cpp:425] loss1/fc <- loss1/conv
I0403 19:16:21.083864  9017 net.cpp:399] loss1/fc -> loss1/fc
I0403 19:16:21.101632  9017 net.cpp:141] Setting up loss1/fc
I0403 19:16:21.101667  9017 net.cpp:148] Top shape: 24 1024 (24576)
I0403 19:16:21.101683  9017 net.cpp:156] Memory required for data: 945992736
I0403 19:16:21.101701  9017 layer_factory.hpp:77] Creating layer loss1/relu_fc
I0403 19:16:21.101721  9017 net.cpp:91] Creating Layer loss1/relu_fc
I0403 19:16:21.101735  9017 net.cpp:425] loss1/relu_fc <- loss1/fc
I0403 19:16:21.101765  9017 net.cpp:386] loss1/relu_fc -> loss1/fc (in-place)
I0403 19:16:21.101948  9017 net.cpp:141] Setting up loss1/relu_fc
I0403 19:16:21.101971  9017 net.cpp:148] Top shape: 24 1024 (24576)
I0403 19:16:21.101985  9017 net.cpp:156] Memory required for data: 946091040
I0403 19:16:21.102005  9017 layer_factory.hpp:77] Creating layer loss1/drop_fc
I0403 19:16:21.102030  9017 net.cpp:91] Creating Layer loss1/drop_fc
I0403 19:16:21.102046  9017 net.cpp:425] loss1/drop_fc <- loss1/fc
I0403 19:16:21.102064  9017 net.cpp:386] loss1/drop_fc -> loss1/fc (in-place)
I0403 19:16:21.102113  9017 net.cpp:141] Setting up loss1/drop_fc
I0403 19:16:21.102134  9017 net.cpp:148] Top shape: 24 1024 (24576)
I0403 19:16:21.102149  9017 net.cpp:156] Memory required for data: 946189344
I0403 19:16:21.102162  9017 layer_factory.hpp:77] Creating layer loss1/classifier_plantvillage
I0403 19:16:21.102187  9017 net.cpp:91] Creating Layer loss1/classifier_plantvillage
I0403 19:16:21.102205  9017 net.cpp:425] loss1/classifier_plantvillage <- loss1/fc
I0403 19:16:21.102237  9017 net.cpp:399] loss1/classifier_plantvillage -> loss1/classifier_plantvillage
I0403 19:16:21.103189  9017 net.cpp:141] Setting up loss1/classifier_plantvillage
I0403 19:16:21.103221  9017 net.cpp:148] Top shape: 24 38 (912)
I0403 19:16:21.103237  9017 net.cpp:156] Memory required for data: 946192992
I0403 19:16:21.103255  9017 layer_factory.hpp:77] Creating layer loss1/classifier_plantvillage_loss1/classifier_plantvillage_0_split
I0403 19:16:21.103272  9017 net.cpp:91] Creating Layer loss1/classifier_plantvillage_loss1/classifier_plantvillage_0_split
I0403 19:16:21.103287  9017 net.cpp:425] loss1/classifier_plantvillage_loss1/classifier_plantvillage_0_split <- loss1/classifier_plantvillage
I0403 19:16:21.103307  9017 net.cpp:399] loss1/classifier_plantvillage_loss1/classifier_plantvillage_0_split -> loss1/classifier_plantvillage_loss1/classifier_plantvillage_0_split_0
I0403 19:16:21.103327  9017 net.cpp:399] loss1/classifier_plantvillage_loss1/classifier_plantvillage_0_split -> loss1/classifier_plantvillage_loss1/classifier_plantvillage_0_split_1
I0403 19:16:21.103346  9017 net.cpp:399] loss1/classifier_plantvillage_loss1/classifier_plantvillage_0_split -> loss1/classifier_plantvillage_loss1/classifier_plantvillage_0_split_2
I0403 19:16:21.103410  9017 net.cpp:141] Setting up loss1/classifier_plantvillage_loss1/classifier_plantvillage_0_split
I0403 19:16:21.103431  9017 net.cpp:148] Top shape: 24 38 (912)
I0403 19:16:21.103447  9017 net.cpp:148] Top shape: 24 38 (912)
I0403 19:16:21.103462  9017 net.cpp:148] Top shape: 24 38 (912)
I0403 19:16:21.103477  9017 net.cpp:156] Memory required for data: 946203936
I0403 19:16:21.103489  9017 layer_factory.hpp:77] Creating layer inception_4b/1x1
I0403 19:16:21.103510  9017 net.cpp:91] Creating Layer inception_4b/1x1
I0403 19:16:21.103541  9017 net.cpp:425] inception_4b/1x1 <- inception_4a/output_inception_4a/output_0_split_1
I0403 19:16:21.103561  9017 net.cpp:399] inception_4b/1x1 -> inception_4b/1x1
I0403 19:16:21.105144  9017 net.cpp:141] Setting up inception_4b/1x1
I0403 19:16:21.105172  9017 net.cpp:148] Top shape: 24 160 14 14 (752640)
I0403 19:16:21.105187  9017 net.cpp:156] Memory required for data: 949214496
I0403 19:16:21.105206  9017 layer_factory.hpp:77] Creating layer inception_4b/relu_1x1
I0403 19:16:21.105229  9017 net.cpp:91] Creating Layer inception_4b/relu_1x1
I0403 19:16:21.105247  9017 net.cpp:425] inception_4b/relu_1x1 <- inception_4b/1x1
I0403 19:16:21.105265  9017 net.cpp:386] inception_4b/relu_1x1 -> inception_4b/1x1 (in-place)
I0403 19:16:21.105439  9017 net.cpp:141] Setting up inception_4b/relu_1x1
I0403 19:16:21.105463  9017 net.cpp:148] Top shape: 24 160 14 14 (752640)
I0403 19:16:21.105490  9017 net.cpp:156] Memory required for data: 952225056
I0403 19:16:21.105504  9017 layer_factory.hpp:77] Creating layer inception_4b/3x3_reduce
I0403 19:16:21.105526  9017 net.cpp:91] Creating Layer inception_4b/3x3_reduce
I0403 19:16:21.105543  9017 net.cpp:425] inception_4b/3x3_reduce <- inception_4a/output_inception_4a/output_0_split_2
I0403 19:16:21.105566  9017 net.cpp:399] inception_4b/3x3_reduce -> inception_4b/3x3_reduce
I0403 19:16:21.106940  9017 net.cpp:141] Setting up inception_4b/3x3_reduce
I0403 19:16:21.106966  9017 net.cpp:148] Top shape: 24 112 14 14 (526848)
I0403 19:16:21.106981  9017 net.cpp:156] Memory required for data: 954332448
I0403 19:16:21.106999  9017 layer_factory.hpp:77] Creating layer inception_4b/relu_3x3_reduce
I0403 19:16:21.107018  9017 net.cpp:91] Creating Layer inception_4b/relu_3x3_reduce
I0403 19:16:21.107035  9017 net.cpp:425] inception_4b/relu_3x3_reduce <- inception_4b/3x3_reduce
I0403 19:16:21.107053  9017 net.cpp:386] inception_4b/relu_3x3_reduce -> inception_4b/3x3_reduce (in-place)
I0403 19:16:21.107331  9017 net.cpp:141] Setting up inception_4b/relu_3x3_reduce
I0403 19:16:21.107357  9017 net.cpp:148] Top shape: 24 112 14 14 (526848)
I0403 19:16:21.107372  9017 net.cpp:156] Memory required for data: 956439840
I0403 19:16:21.107385  9017 layer_factory.hpp:77] Creating layer inception_4b/3x3
I0403 19:16:21.107408  9017 net.cpp:91] Creating Layer inception_4b/3x3
I0403 19:16:21.107424  9017 net.cpp:425] inception_4b/3x3 <- inception_4b/3x3_reduce
I0403 19:16:21.107445  9017 net.cpp:399] inception_4b/3x3 -> inception_4b/3x3
I0403 19:16:21.110363  9017 net.cpp:141] Setting up inception_4b/3x3
I0403 19:16:21.110394  9017 net.cpp:148] Top shape: 24 224 14 14 (1053696)
I0403 19:16:21.110410  9017 net.cpp:156] Memory required for data: 960654624
I0403 19:16:21.110429  9017 layer_factory.hpp:77] Creating layer inception_4b/relu_3x3
I0403 19:16:21.110446  9017 net.cpp:91] Creating Layer inception_4b/relu_3x3
I0403 19:16:21.110461  9017 net.cpp:425] inception_4b/relu_3x3 <- inception_4b/3x3
I0403 19:16:21.110491  9017 net.cpp:386] inception_4b/relu_3x3 -> inception_4b/3x3 (in-place)
I0403 19:16:21.110677  9017 net.cpp:141] Setting up inception_4b/relu_3x3
I0403 19:16:21.110702  9017 net.cpp:148] Top shape: 24 224 14 14 (1053696)
I0403 19:16:21.110715  9017 net.cpp:156] Memory required for data: 964869408
I0403 19:16:21.110730  9017 layer_factory.hpp:77] Creating layer inception_4b/5x5_reduce
I0403 19:16:21.110765  9017 net.cpp:91] Creating Layer inception_4b/5x5_reduce
I0403 19:16:21.110782  9017 net.cpp:425] inception_4b/5x5_reduce <- inception_4a/output_inception_4a/output_0_split_3
I0403 19:16:21.110802  9017 net.cpp:399] inception_4b/5x5_reduce -> inception_4b/5x5_reduce
I0403 19:16:21.111853  9017 net.cpp:141] Setting up inception_4b/5x5_reduce
I0403 19:16:21.111881  9017 net.cpp:148] Top shape: 24 24 14 14 (112896)
I0403 19:16:21.111896  9017 net.cpp:156] Memory required for data: 965320992
I0403 19:16:21.111913  9017 layer_factory.hpp:77] Creating layer inception_4b/relu_5x5_reduce
I0403 19:16:21.111932  9017 net.cpp:91] Creating Layer inception_4b/relu_5x5_reduce
I0403 19:16:21.111963  9017 net.cpp:425] inception_4b/relu_5x5_reduce <- inception_4b/5x5_reduce
I0403 19:16:21.111979  9017 net.cpp:386] inception_4b/relu_5x5_reduce -> inception_4b/5x5_reduce (in-place)
I0403 19:16:21.112159  9017 net.cpp:141] Setting up inception_4b/relu_5x5_reduce
I0403 19:16:21.112185  9017 net.cpp:148] Top shape: 24 24 14 14 (112896)
I0403 19:16:21.112197  9017 net.cpp:156] Memory required for data: 965772576
I0403 19:16:21.112224  9017 layer_factory.hpp:77] Creating layer inception_4b/5x5
I0403 19:16:21.112251  9017 net.cpp:91] Creating Layer inception_4b/5x5
I0403 19:16:21.112268  9017 net.cpp:425] inception_4b/5x5 <- inception_4b/5x5_reduce
I0403 19:16:21.112287  9017 net.cpp:399] inception_4b/5x5 -> inception_4b/5x5
I0403 19:16:21.113492  9017 net.cpp:141] Setting up inception_4b/5x5
I0403 19:16:21.113520  9017 net.cpp:148] Top shape: 24 64 14 14 (301056)
I0403 19:16:21.113535  9017 net.cpp:156] Memory required for data: 966976800
I0403 19:16:21.113554  9017 layer_factory.hpp:77] Creating layer inception_4b/relu_5x5
I0403 19:16:21.113571  9017 net.cpp:91] Creating Layer inception_4b/relu_5x5
I0403 19:16:21.113587  9017 net.cpp:425] inception_4b/relu_5x5 <- inception_4b/5x5
I0403 19:16:21.113606  9017 net.cpp:386] inception_4b/relu_5x5 -> inception_4b/5x5 (in-place)
I0403 19:16:21.113896  9017 net.cpp:141] Setting up inception_4b/relu_5x5
I0403 19:16:21.113921  9017 net.cpp:148] Top shape: 24 64 14 14 (301056)
I0403 19:16:21.113935  9017 net.cpp:156] Memory required for data: 968181024
I0403 19:16:21.113950  9017 layer_factory.hpp:77] Creating layer inception_4b/pool
I0403 19:16:21.113967  9017 net.cpp:91] Creating Layer inception_4b/pool
I0403 19:16:21.113982  9017 net.cpp:425] inception_4b/pool <- inception_4a/output_inception_4a/output_0_split_4
I0403 19:16:21.114007  9017 net.cpp:399] inception_4b/pool -> inception_4b/pool
I0403 19:16:21.114070  9017 net.cpp:141] Setting up inception_4b/pool
I0403 19:16:21.114094  9017 net.cpp:148] Top shape: 24 512 14 14 (2408448)
I0403 19:16:21.114107  9017 net.cpp:156] Memory required for data: 977814816
I0403 19:16:21.114121  9017 layer_factory.hpp:77] Creating layer inception_4b/pool_proj
I0403 19:16:21.114145  9017 net.cpp:91] Creating Layer inception_4b/pool_proj
I0403 19:16:21.114161  9017 net.cpp:425] inception_4b/pool_proj <- inception_4b/pool
I0403 19:16:21.114179  9017 net.cpp:399] inception_4b/pool_proj -> inception_4b/pool_proj
I0403 19:16:21.115386  9017 net.cpp:141] Setting up inception_4b/pool_proj
I0403 19:16:21.115412  9017 net.cpp:148] Top shape: 24 64 14 14 (301056)
I0403 19:16:21.115427  9017 net.cpp:156] Memory required for data: 979019040
I0403 19:16:21.115445  9017 layer_factory.hpp:77] Creating layer inception_4b/relu_pool_proj
I0403 19:16:21.115465  9017 net.cpp:91] Creating Layer inception_4b/relu_pool_proj
I0403 19:16:21.115483  9017 net.cpp:425] inception_4b/relu_pool_proj <- inception_4b/pool_proj
I0403 19:16:21.115499  9017 net.cpp:386] inception_4b/relu_pool_proj -> inception_4b/pool_proj (in-place)
I0403 19:16:21.115674  9017 net.cpp:141] Setting up inception_4b/relu_pool_proj
I0403 19:16:21.115700  9017 net.cpp:148] Top shape: 24 64 14 14 (301056)
I0403 19:16:21.115715  9017 net.cpp:156] Memory required for data: 980223264
I0403 19:16:21.115728  9017 layer_factory.hpp:77] Creating layer inception_4b/output
I0403 19:16:21.115746  9017 net.cpp:91] Creating Layer inception_4b/output
I0403 19:16:21.115761  9017 net.cpp:425] inception_4b/output <- inception_4b/1x1
I0403 19:16:21.115775  9017 net.cpp:425] inception_4b/output <- inception_4b/3x3
I0403 19:16:21.115790  9017 net.cpp:425] inception_4b/output <- inception_4b/5x5
I0403 19:16:21.115805  9017 net.cpp:425] inception_4b/output <- inception_4b/pool_proj
I0403 19:16:21.115821  9017 net.cpp:399] inception_4b/output -> inception_4b/output
I0403 19:16:21.115866  9017 net.cpp:141] Setting up inception_4b/output
I0403 19:16:21.115890  9017 net.cpp:148] Top shape: 24 512 14 14 (2408448)
I0403 19:16:21.115903  9017 net.cpp:156] Memory required for data: 989857056
I0403 19:16:21.115931  9017 layer_factory.hpp:77] Creating layer inception_4b/output_inception_4b/output_0_split
I0403 19:16:21.115947  9017 net.cpp:91] Creating Layer inception_4b/output_inception_4b/output_0_split
I0403 19:16:21.115967  9017 net.cpp:425] inception_4b/output_inception_4b/output_0_split <- inception_4b/output
I0403 19:16:21.115983  9017 net.cpp:399] inception_4b/output_inception_4b/output_0_split -> inception_4b/output_inception_4b/output_0_split_0
I0403 19:16:21.116003  9017 net.cpp:399] inception_4b/output_inception_4b/output_0_split -> inception_4b/output_inception_4b/output_0_split_1
I0403 19:16:21.116021  9017 net.cpp:399] inception_4b/output_inception_4b/output_0_split -> inception_4b/output_inception_4b/output_0_split_2
I0403 19:16:21.116040  9017 net.cpp:399] inception_4b/output_inception_4b/output_0_split -> inception_4b/output_inception_4b/output_0_split_3
I0403 19:16:21.116122  9017 net.cpp:141] Setting up inception_4b/output_inception_4b/output_0_split
I0403 19:16:21.116144  9017 net.cpp:148] Top shape: 24 512 14 14 (2408448)
I0403 19:16:21.116160  9017 net.cpp:148] Top shape: 24 512 14 14 (2408448)
I0403 19:16:21.116175  9017 net.cpp:148] Top shape: 24 512 14 14 (2408448)
I0403 19:16:21.116190  9017 net.cpp:148] Top shape: 24 512 14 14 (2408448)
I0403 19:16:21.116204  9017 net.cpp:156] Memory required for data: 1028392224
I0403 19:16:21.116224  9017 layer_factory.hpp:77] Creating layer inception_4c/1x1
I0403 19:16:21.116245  9017 net.cpp:91] Creating Layer inception_4c/1x1
I0403 19:16:21.116263  9017 net.cpp:425] inception_4c/1x1 <- inception_4b/output_inception_4b/output_0_split_0
I0403 19:16:21.116283  9017 net.cpp:399] inception_4c/1x1 -> inception_4c/1x1
I0403 19:16:21.117719  9017 net.cpp:141] Setting up inception_4c/1x1
I0403 19:16:21.117763  9017 net.cpp:148] Top shape: 24 128 14 14 (602112)
I0403 19:16:21.117779  9017 net.cpp:156] Memory required for data: 1030800672
I0403 19:16:21.117799  9017 layer_factory.hpp:77] Creating layer inception_4c/relu_1x1
I0403 19:16:21.117815  9017 net.cpp:91] Creating Layer inception_4c/relu_1x1
I0403 19:16:21.117831  9017 net.cpp:425] inception_4c/relu_1x1 <- inception_4c/1x1
I0403 19:16:21.117848  9017 net.cpp:386] inception_4c/relu_1x1 -> inception_4c/1x1 (in-place)
I0403 19:16:21.118038  9017 net.cpp:141] Setting up inception_4c/relu_1x1
I0403 19:16:21.118062  9017 net.cpp:148] Top shape: 24 128 14 14 (602112)
I0403 19:16:21.118077  9017 net.cpp:156] Memory required for data: 1033209120
I0403 19:16:21.118091  9017 layer_factory.hpp:77] Creating layer inception_4c/3x3_reduce
I0403 19:16:21.118113  9017 net.cpp:91] Creating Layer inception_4c/3x3_reduce
I0403 19:16:21.118129  9017 net.cpp:425] inception_4c/3x3_reduce <- inception_4b/output_inception_4b/output_0_split_1
I0403 19:16:21.118150  9017 net.cpp:399] inception_4c/3x3_reduce -> inception_4c/3x3_reduce
I0403 19:16:21.120077  9017 net.cpp:141] Setting up inception_4c/3x3_reduce
I0403 19:16:21.120106  9017 net.cpp:148] Top shape: 24 128 14 14 (602112)
I0403 19:16:21.120121  9017 net.cpp:156] Memory required for data: 1035617568
I0403 19:16:21.120139  9017 layer_factory.hpp:77] Creating layer inception_4c/relu_3x3_reduce
I0403 19:16:21.120158  9017 net.cpp:91] Creating Layer inception_4c/relu_3x3_reduce
I0403 19:16:21.120174  9017 net.cpp:425] inception_4c/relu_3x3_reduce <- inception_4c/3x3_reduce
I0403 19:16:21.120192  9017 net.cpp:386] inception_4c/relu_3x3_reduce -> inception_4c/3x3_reduce (in-place)
I0403 19:16:21.120494  9017 net.cpp:141] Setting up inception_4c/relu_3x3_reduce
I0403 19:16:21.120520  9017 net.cpp:148] Top shape: 24 128 14 14 (602112)
I0403 19:16:21.120535  9017 net.cpp:156] Memory required for data: 1038026016
I0403 19:16:21.120550  9017 layer_factory.hpp:77] Creating layer inception_4c/3x3
I0403 19:16:21.120573  9017 net.cpp:91] Creating Layer inception_4c/3x3
I0403 19:16:21.120589  9017 net.cpp:425] inception_4c/3x3 <- inception_4c/3x3_reduce
I0403 19:16:21.120611  9017 net.cpp:399] inception_4c/3x3 -> inception_4c/3x3
I0403 19:16:21.124193  9017 net.cpp:141] Setting up inception_4c/3x3
I0403 19:16:21.124239  9017 net.cpp:148] Top shape: 24 256 14 14 (1204224)
I0403 19:16:21.124255  9017 net.cpp:156] Memory required for data: 1042842912
I0403 19:16:21.124285  9017 layer_factory.hpp:77] Creating layer inception_4c/relu_3x3
I0403 19:16:21.124308  9017 net.cpp:91] Creating Layer inception_4c/relu_3x3
I0403 19:16:21.124325  9017 net.cpp:425] inception_4c/relu_3x3 <- inception_4c/3x3
I0403 19:16:21.124341  9017 net.cpp:386] inception_4c/relu_3x3 -> inception_4c/3x3 (in-place)
I0403 19:16:21.124517  9017 net.cpp:141] Setting up inception_4c/relu_3x3
I0403 19:16:21.124541  9017 net.cpp:148] Top shape: 24 256 14 14 (1204224)
I0403 19:16:21.124555  9017 net.cpp:156] Memory required for data: 1047659808
I0403 19:16:21.124569  9017 layer_factory.hpp:77] Creating layer inception_4c/5x5_reduce
I0403 19:16:21.124590  9017 net.cpp:91] Creating Layer inception_4c/5x5_reduce
I0403 19:16:21.124608  9017 net.cpp:425] inception_4c/5x5_reduce <- inception_4b/output_inception_4b/output_0_split_2
I0403 19:16:21.124627  9017 net.cpp:399] inception_4c/5x5_reduce -> inception_4c/5x5_reduce
I0403 19:16:21.125715  9017 net.cpp:141] Setting up inception_4c/5x5_reduce
I0403 19:16:21.125743  9017 net.cpp:148] Top shape: 24 24 14 14 (112896)
I0403 19:16:21.125769  9017 net.cpp:156] Memory required for data: 1048111392
I0403 19:16:21.125787  9017 layer_factory.hpp:77] Creating layer inception_4c/relu_5x5_reduce
I0403 19:16:21.125808  9017 net.cpp:91] Creating Layer inception_4c/relu_5x5_reduce
I0403 19:16:21.125823  9017 net.cpp:425] inception_4c/relu_5x5_reduce <- inception_4c/5x5_reduce
I0403 19:16:21.125839  9017 net.cpp:386] inception_4c/relu_5x5_reduce -> inception_4c/5x5_reduce (in-place)
I0403 19:16:21.126019  9017 net.cpp:141] Setting up inception_4c/relu_5x5_reduce
I0403 19:16:21.126042  9017 net.cpp:148] Top shape: 24 24 14 14 (112896)
I0403 19:16:21.126056  9017 net.cpp:156] Memory required for data: 1048562976
I0403 19:16:21.126070  9017 layer_factory.hpp:77] Creating layer inception_4c/5x5
I0403 19:16:21.126093  9017 net.cpp:91] Creating Layer inception_4c/5x5
I0403 19:16:21.126111  9017 net.cpp:425] inception_4c/5x5 <- inception_4c/5x5_reduce
I0403 19:16:21.126128  9017 net.cpp:399] inception_4c/5x5 -> inception_4c/5x5
I0403 19:16:21.127382  9017 net.cpp:141] Setting up inception_4c/5x5
I0403 19:16:21.127410  9017 net.cpp:148] Top shape: 24 64 14 14 (301056)
I0403 19:16:21.127425  9017 net.cpp:156] Memory required for data: 1049767200
I0403 19:16:21.127444  9017 layer_factory.hpp:77] Creating layer inception_4c/relu_5x5
I0403 19:16:21.127460  9017 net.cpp:91] Creating Layer inception_4c/relu_5x5
I0403 19:16:21.127475  9017 net.cpp:425] inception_4c/relu_5x5 <- inception_4c/5x5
I0403 19:16:21.127491  9017 net.cpp:386] inception_4c/relu_5x5 -> inception_4c/5x5 (in-place)
I0403 19:16:21.127769  9017 net.cpp:141] Setting up inception_4c/relu_5x5
I0403 19:16:21.127797  9017 net.cpp:148] Top shape: 24 64 14 14 (301056)
I0403 19:16:21.127812  9017 net.cpp:156] Memory required for data: 1050971424
I0403 19:16:21.127826  9017 layer_factory.hpp:77] Creating layer inception_4c/pool
I0403 19:16:21.127843  9017 net.cpp:91] Creating Layer inception_4c/pool
I0403 19:16:21.127858  9017 net.cpp:425] inception_4c/pool <- inception_4b/output_inception_4b/output_0_split_3
I0403 19:16:21.127876  9017 net.cpp:399] inception_4c/pool -> inception_4c/pool
I0403 19:16:21.127938  9017 net.cpp:141] Setting up inception_4c/pool
I0403 19:16:21.127961  9017 net.cpp:148] Top shape: 24 512 14 14 (2408448)
I0403 19:16:21.127975  9017 net.cpp:156] Memory required for data: 1060605216
I0403 19:16:21.127988  9017 layer_factory.hpp:77] Creating layer inception_4c/pool_proj
I0403 19:16:21.128010  9017 net.cpp:91] Creating Layer inception_4c/pool_proj
I0403 19:16:21.128027  9017 net.cpp:425] inception_4c/pool_proj <- inception_4c/pool
I0403 19:16:21.128046  9017 net.cpp:399] inception_4c/pool_proj -> inception_4c/pool_proj
I0403 19:16:21.129271  9017 net.cpp:141] Setting up inception_4c/pool_proj
I0403 19:16:21.129297  9017 net.cpp:148] Top shape: 24 64 14 14 (301056)
I0403 19:16:21.129329  9017 net.cpp:156] Memory required for data: 1061809440
I0403 19:16:21.129349  9017 layer_factory.hpp:77] Creating layer inception_4c/relu_pool_proj
I0403 19:16:21.129371  9017 net.cpp:91] Creating Layer inception_4c/relu_pool_proj
I0403 19:16:21.129389  9017 net.cpp:425] inception_4c/relu_pool_proj <- inception_4c/pool_proj
I0403 19:16:21.129405  9017 net.cpp:386] inception_4c/relu_pool_proj -> inception_4c/pool_proj (in-place)
I0403 19:16:21.129597  9017 net.cpp:141] Setting up inception_4c/relu_pool_proj
I0403 19:16:21.129623  9017 net.cpp:148] Top shape: 24 64 14 14 (301056)
I0403 19:16:21.129639  9017 net.cpp:156] Memory required for data: 1063013664
I0403 19:16:21.129654  9017 layer_factory.hpp:77] Creating layer inception_4c/output
I0403 19:16:21.129672  9017 net.cpp:91] Creating Layer inception_4c/output
I0403 19:16:21.129688  9017 net.cpp:425] inception_4c/output <- inception_4c/1x1
I0403 19:16:21.129703  9017 net.cpp:425] inception_4c/output <- inception_4c/3x3
I0403 19:16:21.129719  9017 net.cpp:425] inception_4c/output <- inception_4c/5x5
I0403 19:16:21.129734  9017 net.cpp:425] inception_4c/output <- inception_4c/pool_proj
I0403 19:16:21.129751  9017 net.cpp:399] inception_4c/output -> inception_4c/output
I0403 19:16:21.129809  9017 net.cpp:141] Setting up inception_4c/output
I0403 19:16:21.129832  9017 net.cpp:148] Top shape: 24 512 14 14 (2408448)
I0403 19:16:21.129844  9017 net.cpp:156] Memory required for data: 1072647456
I0403 19:16:21.129859  9017 layer_factory.hpp:77] Creating layer inception_4c/output_inception_4c/output_0_split
I0403 19:16:21.129875  9017 net.cpp:91] Creating Layer inception_4c/output_inception_4c/output_0_split
I0403 19:16:21.129889  9017 net.cpp:425] inception_4c/output_inception_4c/output_0_split <- inception_4c/output
I0403 19:16:21.129909  9017 net.cpp:399] inception_4c/output_inception_4c/output_0_split -> inception_4c/output_inception_4c/output_0_split_0
I0403 19:16:21.129928  9017 net.cpp:399] inception_4c/output_inception_4c/output_0_split -> inception_4c/output_inception_4c/output_0_split_1
I0403 19:16:21.129947  9017 net.cpp:399] inception_4c/output_inception_4c/output_0_split -> inception_4c/output_inception_4c/output_0_split_2
I0403 19:16:21.129966  9017 net.cpp:399] inception_4c/output_inception_4c/output_0_split -> inception_4c/output_inception_4c/output_0_split_3
I0403 19:16:21.130048  9017 net.cpp:141] Setting up inception_4c/output_inception_4c/output_0_split
I0403 19:16:21.130070  9017 net.cpp:148] Top shape: 24 512 14 14 (2408448)
I0403 19:16:21.130086  9017 net.cpp:148] Top shape: 24 512 14 14 (2408448)
I0403 19:16:21.130100  9017 net.cpp:148] Top shape: 24 512 14 14 (2408448)
I0403 19:16:21.130115  9017 net.cpp:148] Top shape: 24 512 14 14 (2408448)
I0403 19:16:21.130130  9017 net.cpp:156] Memory required for data: 1111182624
I0403 19:16:21.130143  9017 layer_factory.hpp:77] Creating layer inception_4d/1x1
I0403 19:16:21.130165  9017 net.cpp:91] Creating Layer inception_4d/1x1
I0403 19:16:21.130182  9017 net.cpp:425] inception_4d/1x1 <- inception_4c/output_inception_4c/output_0_split_0
I0403 19:16:21.130203  9017 net.cpp:399] inception_4d/1x1 -> inception_4d/1x1
I0403 19:16:21.131590  9017 net.cpp:141] Setting up inception_4d/1x1
I0403 19:16:21.131618  9017 net.cpp:148] Top shape: 24 112 14 14 (526848)
I0403 19:16:21.131633  9017 net.cpp:156] Memory required for data: 1113290016
I0403 19:16:21.131651  9017 layer_factory.hpp:77] Creating layer inception_4d/relu_1x1
I0403 19:16:21.131669  9017 net.cpp:91] Creating Layer inception_4d/relu_1x1
I0403 19:16:21.131683  9017 net.cpp:425] inception_4d/relu_1x1 <- inception_4d/1x1
I0403 19:16:21.131701  9017 net.cpp:386] inception_4d/relu_1x1 -> inception_4d/1x1 (in-place)
I0403 19:16:21.131877  9017 net.cpp:141] Setting up inception_4d/relu_1x1
I0403 19:16:21.131903  9017 net.cpp:148] Top shape: 24 112 14 14 (526848)
I0403 19:16:21.131923  9017 net.cpp:156] Memory required for data: 1115397408
I0403 19:16:21.131938  9017 layer_factory.hpp:77] Creating layer inception_4d/3x3_reduce
I0403 19:16:21.131973  9017 net.cpp:91] Creating Layer inception_4d/3x3_reduce
I0403 19:16:21.131991  9017 net.cpp:425] inception_4d/3x3_reduce <- inception_4c/output_inception_4c/output_0_split_1
I0403 19:16:21.132011  9017 net.cpp:399] inception_4d/3x3_reduce -> inception_4d/3x3_reduce
I0403 19:16:21.133517  9017 net.cpp:141] Setting up inception_4d/3x3_reduce
I0403 19:16:21.133548  9017 net.cpp:148] Top shape: 24 144 14 14 (677376)
I0403 19:16:21.133563  9017 net.cpp:156] Memory required for data: 1118106912
I0403 19:16:21.133581  9017 layer_factory.hpp:77] Creating layer inception_4d/relu_3x3_reduce
I0403 19:16:21.133599  9017 net.cpp:91] Creating Layer inception_4d/relu_3x3_reduce
I0403 19:16:21.133615  9017 net.cpp:425] inception_4d/relu_3x3_reduce <- inception_4d/3x3_reduce
I0403 19:16:21.133633  9017 net.cpp:386] inception_4d/relu_3x3_reduce -> inception_4d/3x3_reduce (in-place)
I0403 19:16:21.133932  9017 net.cpp:141] Setting up inception_4d/relu_3x3_reduce
I0403 19:16:21.133960  9017 net.cpp:148] Top shape: 24 144 14 14 (677376)
I0403 19:16:21.133975  9017 net.cpp:156] Memory required for data: 1120816416
I0403 19:16:21.133990  9017 layer_factory.hpp:77] Creating layer inception_4d/3x3
I0403 19:16:21.134011  9017 net.cpp:91] Creating Layer inception_4d/3x3
I0403 19:16:21.134027  9017 net.cpp:425] inception_4d/3x3 <- inception_4d/3x3_reduce
I0403 19:16:21.134047  9017 net.cpp:399] inception_4d/3x3 -> inception_4d/3x3
I0403 19:16:21.138258  9017 net.cpp:141] Setting up inception_4d/3x3
I0403 19:16:21.138286  9017 net.cpp:148] Top shape: 24 288 14 14 (1354752)
I0403 19:16:21.138301  9017 net.cpp:156] Memory required for data: 1126235424
I0403 19:16:21.138319  9017 layer_factory.hpp:77] Creating layer inception_4d/relu_3x3
I0403 19:16:21.138336  9017 net.cpp:91] Creating Layer inception_4d/relu_3x3
I0403 19:16:21.138351  9017 net.cpp:425] inception_4d/relu_3x3 <- inception_4d/3x3
I0403 19:16:21.138370  9017 net.cpp:386] inception_4d/relu_3x3 -> inception_4d/3x3 (in-place)
I0403 19:16:21.138547  9017 net.cpp:141] Setting up inception_4d/relu_3x3
I0403 19:16:21.138572  9017 net.cpp:148] Top shape: 24 288 14 14 (1354752)
I0403 19:16:21.138586  9017 net.cpp:156] Memory required for data: 1131654432
I0403 19:16:21.138600  9017 layer_factory.hpp:77] Creating layer inception_4d/5x5_reduce
I0403 19:16:21.138622  9017 net.cpp:91] Creating Layer inception_4d/5x5_reduce
I0403 19:16:21.138638  9017 net.cpp:425] inception_4d/5x5_reduce <- inception_4c/output_inception_4c/output_0_split_2
I0403 19:16:21.138659  9017 net.cpp:399] inception_4d/5x5_reduce -> inception_4d/5x5_reduce
I0403 19:16:21.139874  9017 net.cpp:141] Setting up inception_4d/5x5_reduce
I0403 19:16:21.139902  9017 net.cpp:148] Top shape: 24 32 14 14 (150528)
I0403 19:16:21.139916  9017 net.cpp:156] Memory required for data: 1132256544
I0403 19:16:21.139935  9017 layer_factory.hpp:77] Creating layer inception_4d/relu_5x5_reduce
I0403 19:16:21.139951  9017 net.cpp:91] Creating Layer inception_4d/relu_5x5_reduce
I0403 19:16:21.139967  9017 net.cpp:425] inception_4d/relu_5x5_reduce <- inception_4d/5x5_reduce
I0403 19:16:21.139986  9017 net.cpp:386] inception_4d/relu_5x5_reduce -> inception_4d/5x5_reduce (in-place)
I0403 19:16:21.140172  9017 net.cpp:141] Setting up inception_4d/relu_5x5_reduce
I0403 19:16:21.140197  9017 net.cpp:148] Top shape: 24 32 14 14 (150528)
I0403 19:16:21.140216  9017 net.cpp:156] Memory required for data: 1132858656
I0403 19:16:21.140233  9017 layer_factory.hpp:77] Creating layer inception_4d/5x5
I0403 19:16:21.140266  9017 net.cpp:91] Creating Layer inception_4d/5x5
I0403 19:16:21.140285  9017 net.cpp:425] inception_4d/5x5 <- inception_4d/5x5_reduce
I0403 19:16:21.140305  9017 net.cpp:399] inception_4d/5x5 -> inception_4d/5x5
I0403 19:16:21.141809  9017 net.cpp:141] Setting up inception_4d/5x5
I0403 19:16:21.141835  9017 net.cpp:148] Top shape: 24 64 14 14 (301056)
I0403 19:16:21.141851  9017 net.cpp:156] Memory required for data: 1134062880
I0403 19:16:21.141870  9017 layer_factory.hpp:77] Creating layer inception_4d/relu_5x5
I0403 19:16:21.141903  9017 net.cpp:91] Creating Layer inception_4d/relu_5x5
I0403 19:16:21.141921  9017 net.cpp:425] inception_4d/relu_5x5 <- inception_4d/5x5
I0403 19:16:21.141937  9017 net.cpp:386] inception_4d/relu_5x5 -> inception_4d/5x5 (in-place)
I0403 19:16:21.142259  9017 net.cpp:141] Setting up inception_4d/relu_5x5
I0403 19:16:21.142287  9017 net.cpp:148] Top shape: 24 64 14 14 (301056)
I0403 19:16:21.142302  9017 net.cpp:156] Memory required for data: 1135267104
I0403 19:16:21.142316  9017 layer_factory.hpp:77] Creating layer inception_4d/pool
I0403 19:16:21.142336  9017 net.cpp:91] Creating Layer inception_4d/pool
I0403 19:16:21.142352  9017 net.cpp:425] inception_4d/pool <- inception_4c/output_inception_4c/output_0_split_3
I0403 19:16:21.142370  9017 net.cpp:399] inception_4d/pool -> inception_4d/pool
I0403 19:16:21.142437  9017 net.cpp:141] Setting up inception_4d/pool
I0403 19:16:21.142462  9017 net.cpp:148] Top shape: 24 512 14 14 (2408448)
I0403 19:16:21.142475  9017 net.cpp:156] Memory required for data: 1144900896
I0403 19:16:21.142489  9017 layer_factory.hpp:77] Creating layer inception_4d/pool_proj
I0403 19:16:21.142511  9017 net.cpp:91] Creating Layer inception_4d/pool_proj
I0403 19:16:21.142529  9017 net.cpp:425] inception_4d/pool_proj <- inception_4d/pool
I0403 19:16:21.142561  9017 net.cpp:399] inception_4d/pool_proj -> inception_4d/pool_proj
I0403 19:16:21.144369  9017 net.cpp:141] Setting up inception_4d/pool_proj
I0403 19:16:21.144400  9017 net.cpp:148] Top shape: 24 64 14 14 (301056)
I0403 19:16:21.144417  9017 net.cpp:156] Memory required for data: 1146105120
I0403 19:16:21.144434  9017 layer_factory.hpp:77] Creating layer inception_4d/relu_pool_proj
I0403 19:16:21.144453  9017 net.cpp:91] Creating Layer inception_4d/relu_pool_proj
I0403 19:16:21.144467  9017 net.cpp:425] inception_4d/relu_pool_proj <- inception_4d/pool_proj
I0403 19:16:21.144487  9017 net.cpp:386] inception_4d/relu_pool_proj -> inception_4d/pool_proj (in-place)
I0403 19:16:21.144682  9017 net.cpp:141] Setting up inception_4d/relu_pool_proj
I0403 19:16:21.144706  9017 net.cpp:148] Top shape: 24 64 14 14 (301056)
I0403 19:16:21.144721  9017 net.cpp:156] Memory required for data: 1147309344
I0403 19:16:21.144736  9017 layer_factory.hpp:77] Creating layer inception_4d/output
I0403 19:16:21.144752  9017 net.cpp:91] Creating Layer inception_4d/output
I0403 19:16:21.144767  9017 net.cpp:425] inception_4d/output <- inception_4d/1x1
I0403 19:16:21.144784  9017 net.cpp:425] inception_4d/output <- inception_4d/3x3
I0403 19:16:21.144800  9017 net.cpp:425] inception_4d/output <- inception_4d/5x5
I0403 19:16:21.144815  9017 net.cpp:425] inception_4d/output <- inception_4d/pool_proj
I0403 19:16:21.144832  9017 net.cpp:399] inception_4d/output -> inception_4d/output
I0403 19:16:21.144879  9017 net.cpp:141] Setting up inception_4d/output
I0403 19:16:21.144901  9017 net.cpp:148] Top shape: 24 528 14 14 (2483712)
I0403 19:16:21.144915  9017 net.cpp:156] Memory required for data: 1157244192
I0403 19:16:21.144929  9017 layer_factory.hpp:77] Creating layer inception_4d/output_inception_4d/output_0_split
I0403 19:16:21.144947  9017 net.cpp:91] Creating Layer inception_4d/output_inception_4d/output_0_split
I0403 19:16:21.144961  9017 net.cpp:425] inception_4d/output_inception_4d/output_0_split <- inception_4d/output
I0403 19:16:21.144980  9017 net.cpp:399] inception_4d/output_inception_4d/output_0_split -> inception_4d/output_inception_4d/output_0_split_0
I0403 19:16:21.145001  9017 net.cpp:399] inception_4d/output_inception_4d/output_0_split -> inception_4d/output_inception_4d/output_0_split_1
I0403 19:16:21.145021  9017 net.cpp:399] inception_4d/output_inception_4d/output_0_split -> inception_4d/output_inception_4d/output_0_split_2
I0403 19:16:21.145040  9017 net.cpp:399] inception_4d/output_inception_4d/output_0_split -> inception_4d/output_inception_4d/output_0_split_3
I0403 19:16:21.145061  9017 net.cpp:399] inception_4d/output_inception_4d/output_0_split -> inception_4d/output_inception_4d/output_0_split_4
I0403 19:16:21.145162  9017 net.cpp:141] Setting up inception_4d/output_inception_4d/output_0_split
I0403 19:16:21.145198  9017 net.cpp:148] Top shape: 24 528 14 14 (2483712)
I0403 19:16:21.145221  9017 net.cpp:148] Top shape: 24 528 14 14 (2483712)
I0403 19:16:21.145238  9017 net.cpp:148] Top shape: 24 528 14 14 (2483712)
I0403 19:16:21.145265  9017 net.cpp:148] Top shape: 24 528 14 14 (2483712)
I0403 19:16:21.145280  9017 net.cpp:148] Top shape: 24 528 14 14 (2483712)
I0403 19:16:21.145294  9017 net.cpp:156] Memory required for data: 1206918432
I0403 19:16:21.145308  9017 layer_factory.hpp:77] Creating layer loss2/ave_pool
I0403 19:16:21.145326  9017 net.cpp:91] Creating Layer loss2/ave_pool
I0403 19:16:21.145341  9017 net.cpp:425] loss2/ave_pool <- inception_4d/output_inception_4d/output_0_split_0
I0403 19:16:21.145361  9017 net.cpp:399] loss2/ave_pool -> loss2/ave_pool
I0403 19:16:21.145704  9017 net.cpp:141] Setting up loss2/ave_pool
I0403 19:16:21.145742  9017 net.cpp:148] Top shape: 24 528 4 4 (202752)
I0403 19:16:21.145757  9017 net.cpp:156] Memory required for data: 1207729440
I0403 19:16:21.145772  9017 layer_factory.hpp:77] Creating layer loss2/conv
I0403 19:16:21.145793  9017 net.cpp:91] Creating Layer loss2/conv
I0403 19:16:21.145810  9017 net.cpp:425] loss2/conv <- loss2/ave_pool
I0403 19:16:21.145831  9017 net.cpp:399] loss2/conv -> loss2/conv
I0403 19:16:21.147753  9017 net.cpp:141] Setting up loss2/conv
I0403 19:16:21.147792  9017 net.cpp:148] Top shape: 24 128 4 4 (49152)
I0403 19:16:21.147809  9017 net.cpp:156] Memory required for data: 1207926048
I0403 19:16:21.147827  9017 layer_factory.hpp:77] Creating layer loss2/relu_conv
I0403 19:16:21.147847  9017 net.cpp:91] Creating Layer loss2/relu_conv
I0403 19:16:21.147863  9017 net.cpp:425] loss2/relu_conv <- loss2/conv
I0403 19:16:21.147881  9017 net.cpp:386] loss2/relu_conv -> loss2/conv (in-place)
I0403 19:16:21.148164  9017 net.cpp:141] Setting up loss2/relu_conv
I0403 19:16:21.148190  9017 net.cpp:148] Top shape: 24 128 4 4 (49152)
I0403 19:16:21.148205  9017 net.cpp:156] Memory required for data: 1208122656
I0403 19:16:21.148227  9017 layer_factory.hpp:77] Creating layer loss2/fc
I0403 19:16:21.148248  9017 net.cpp:91] Creating Layer loss2/fc
I0403 19:16:21.148265  9017 net.cpp:425] loss2/fc <- loss2/conv
I0403 19:16:21.148286  9017 net.cpp:399] loss2/fc -> loss2/fc
I0403 19:16:21.165833  9017 net.cpp:141] Setting up loss2/fc
I0403 19:16:21.165865  9017 net.cpp:148] Top shape: 24 1024 (24576)
I0403 19:16:21.165880  9017 net.cpp:156] Memory required for data: 1208220960
I0403 19:16:21.165899  9017 layer_factory.hpp:77] Creating layer loss2/relu_fc
I0403 19:16:21.165915  9017 net.cpp:91] Creating Layer loss2/relu_fc
I0403 19:16:21.165931  9017 net.cpp:425] loss2/relu_fc <- loss2/fc
I0403 19:16:21.165951  9017 net.cpp:386] loss2/relu_fc -> loss2/fc (in-place)
I0403 19:16:21.166239  9017 net.cpp:141] Setting up loss2/relu_fc
I0403 19:16:21.166265  9017 net.cpp:148] Top shape: 24 1024 (24576)
I0403 19:16:21.166278  9017 net.cpp:156] Memory required for data: 1208319264
I0403 19:16:21.166292  9017 layer_factory.hpp:77] Creating layer loss2/drop_fc
I0403 19:16:21.166309  9017 net.cpp:91] Creating Layer loss2/drop_fc
I0403 19:16:21.166324  9017 net.cpp:425] loss2/drop_fc <- loss2/fc
I0403 19:16:21.166342  9017 net.cpp:386] loss2/drop_fc -> loss2/fc (in-place)
I0403 19:16:21.166388  9017 net.cpp:141] Setting up loss2/drop_fc
I0403 19:16:21.166415  9017 net.cpp:148] Top shape: 24 1024 (24576)
I0403 19:16:21.166429  9017 net.cpp:156] Memory required for data: 1208417568
I0403 19:16:21.166443  9017 layer_factory.hpp:77] Creating layer loss2/classifier_plantvillage
I0403 19:16:21.166461  9017 net.cpp:91] Creating Layer loss2/classifier_plantvillage
I0403 19:16:21.166476  9017 net.cpp:425] loss2/classifier_plantvillage <- loss2/fc
I0403 19:16:21.166496  9017 net.cpp:399] loss2/classifier_plantvillage -> loss2/classifier_plantvillage
I0403 19:16:21.166877  9017 net.cpp:141] Setting up loss2/classifier_plantvillage
I0403 19:16:21.166899  9017 net.cpp:148] Top shape: 24 38 (912)
I0403 19:16:21.166929  9017 net.cpp:156] Memory required for data: 1208421216
I0403 19:16:21.166946  9017 layer_factory.hpp:77] Creating layer loss2/classifier_plantvillage_loss2/classifier_plantvillage_0_split
I0403 19:16:21.166965  9017 net.cpp:91] Creating Layer loss2/classifier_plantvillage_loss2/classifier_plantvillage_0_split
I0403 19:16:21.166981  9017 net.cpp:425] loss2/classifier_plantvillage_loss2/classifier_plantvillage_0_split <- loss2/classifier_plantvillage
I0403 19:16:21.166998  9017 net.cpp:399] loss2/classifier_plantvillage_loss2/classifier_plantvillage_0_split -> loss2/classifier_plantvillage_loss2/classifier_plantvillage_0_split_0
I0403 19:16:21.167019  9017 net.cpp:399] loss2/classifier_plantvillage_loss2/classifier_plantvillage_0_split -> loss2/classifier_plantvillage_loss2/classifier_plantvillage_0_split_1
I0403 19:16:21.167039  9017 net.cpp:399] loss2/classifier_plantvillage_loss2/classifier_plantvillage_0_split -> loss2/classifier_plantvillage_loss2/classifier_plantvillage_0_split_2
I0403 19:16:21.167111  9017 net.cpp:141] Setting up loss2/classifier_plantvillage_loss2/classifier_plantvillage_0_split
I0403 19:16:21.167134  9017 net.cpp:148] Top shape: 24 38 (912)
I0403 19:16:21.167148  9017 net.cpp:148] Top shape: 24 38 (912)
I0403 19:16:21.167163  9017 net.cpp:148] Top shape: 24 38 (912)
I0403 19:16:21.167176  9017 net.cpp:156] Memory required for data: 1208432160
I0403 19:16:21.167189  9017 layer_factory.hpp:77] Creating layer inception_4e/1x1
I0403 19:16:21.167214  9017 net.cpp:91] Creating Layer inception_4e/1x1
I0403 19:16:21.167232  9017 net.cpp:425] inception_4e/1x1 <- inception_4d/output_inception_4d/output_0_split_1
I0403 19:16:21.167250  9017 net.cpp:399] inception_4e/1x1 -> inception_4e/1x1
I0403 19:16:21.169000  9017 net.cpp:141] Setting up inception_4e/1x1
I0403 19:16:21.169028  9017 net.cpp:148] Top shape: 24 256 14 14 (1204224)
I0403 19:16:21.169044  9017 net.cpp:156] Memory required for data: 1213249056
I0403 19:16:21.169061  9017 layer_factory.hpp:77] Creating layer inception_4e/relu_1x1
I0403 19:16:21.169078  9017 net.cpp:91] Creating Layer inception_4e/relu_1x1
I0403 19:16:21.169093  9017 net.cpp:425] inception_4e/relu_1x1 <- inception_4e/1x1
I0403 19:16:21.169109  9017 net.cpp:386] inception_4e/relu_1x1 -> inception_4e/1x1 (in-place)
I0403 19:16:21.169412  9017 net.cpp:141] Setting up inception_4e/relu_1x1
I0403 19:16:21.169451  9017 net.cpp:148] Top shape: 24 256 14 14 (1204224)
I0403 19:16:21.169469  9017 net.cpp:156] Memory required for data: 1218065952
I0403 19:16:21.169483  9017 layer_factory.hpp:77] Creating layer inception_4e/3x3_reduce
I0403 19:16:21.169517  9017 net.cpp:91] Creating Layer inception_4e/3x3_reduce
I0403 19:16:21.169533  9017 net.cpp:425] inception_4e/3x3_reduce <- inception_4d/output_inception_4d/output_0_split_2
I0403 19:16:21.169553  9017 net.cpp:399] inception_4e/3x3_reduce -> inception_4e/3x3_reduce
I0403 19:16:21.171609  9017 net.cpp:141] Setting up inception_4e/3x3_reduce
I0403 19:16:21.171636  9017 net.cpp:148] Top shape: 24 160 14 14 (752640)
I0403 19:16:21.171651  9017 net.cpp:156] Memory required for data: 1221076512
I0403 19:16:21.171669  9017 layer_factory.hpp:77] Creating layer inception_4e/relu_3x3_reduce
I0403 19:16:21.171689  9017 net.cpp:91] Creating Layer inception_4e/relu_3x3_reduce
I0403 19:16:21.171705  9017 net.cpp:425] inception_4e/relu_3x3_reduce <- inception_4e/3x3_reduce
I0403 19:16:21.171733  9017 net.cpp:386] inception_4e/relu_3x3_reduce -> inception_4e/3x3_reduce (in-place)
I0403 19:16:21.171910  9017 net.cpp:141] Setting up inception_4e/relu_3x3_reduce
I0403 19:16:21.171936  9017 net.cpp:148] Top shape: 24 160 14 14 (752640)
I0403 19:16:21.171949  9017 net.cpp:156] Memory required for data: 1224087072
I0403 19:16:21.171964  9017 layer_factory.hpp:77] Creating layer inception_4e/3x3
I0403 19:16:21.171984  9017 net.cpp:91] Creating Layer inception_4e/3x3
I0403 19:16:21.172001  9017 net.cpp:425] inception_4e/3x3 <- inception_4e/3x3_reduce
I0403 19:16:21.172019  9017 net.cpp:399] inception_4e/3x3 -> inception_4e/3x3
I0403 19:16:21.176895  9017 net.cpp:141] Setting up inception_4e/3x3
I0403 19:16:21.176939  9017 net.cpp:148] Top shape: 24 320 14 14 (1505280)
I0403 19:16:21.176954  9017 net.cpp:156] Memory required for data: 1230108192
I0403 19:16:21.176972  9017 layer_factory.hpp:77] Creating layer inception_4e/relu_3x3
I0403 19:16:21.176990  9017 net.cpp:91] Creating Layer inception_4e/relu_3x3
I0403 19:16:21.177006  9017 net.cpp:425] inception_4e/relu_3x3 <- inception_4e/3x3
I0403 19:16:21.177022  9017 net.cpp:386] inception_4e/relu_3x3 -> inception_4e/3x3 (in-place)
I0403 19:16:21.177322  9017 net.cpp:141] Setting up inception_4e/relu_3x3
I0403 19:16:21.177347  9017 net.cpp:148] Top shape: 24 320 14 14 (1505280)
I0403 19:16:21.177373  9017 net.cpp:156] Memory required for data: 1236129312
I0403 19:16:21.177387  9017 layer_factory.hpp:77] Creating layer inception_4e/5x5_reduce
I0403 19:16:21.177409  9017 net.cpp:91] Creating Layer inception_4e/5x5_reduce
I0403 19:16:21.177425  9017 net.cpp:425] inception_4e/5x5_reduce <- inception_4d/output_inception_4d/output_0_split_3
I0403 19:16:21.177446  9017 net.cpp:399] inception_4e/5x5_reduce -> inception_4e/5x5_reduce
I0403 19:16:21.178526  9017 net.cpp:141] Setting up inception_4e/5x5_reduce
I0403 19:16:21.178553  9017 net.cpp:148] Top shape: 24 32 14 14 (150528)
I0403 19:16:21.178567  9017 net.cpp:156] Memory required for data: 1236731424
I0403 19:16:21.178586  9017 layer_factory.hpp:77] Creating layer inception_4e/relu_5x5_reduce
I0403 19:16:21.178606  9017 net.cpp:91] Creating Layer inception_4e/relu_5x5_reduce
I0403 19:16:21.178622  9017 net.cpp:425] inception_4e/relu_5x5_reduce <- inception_4e/5x5_reduce
I0403 19:16:21.178638  9017 net.cpp:386] inception_4e/relu_5x5_reduce -> inception_4e/5x5_reduce (in-place)
I0403 19:16:21.178936  9017 net.cpp:141] Setting up inception_4e/relu_5x5_reduce
I0403 19:16:21.178961  9017 net.cpp:148] Top shape: 24 32 14 14 (150528)
I0403 19:16:21.178975  9017 net.cpp:156] Memory required for data: 1237333536
I0403 19:16:21.178990  9017 layer_factory.hpp:77] Creating layer inception_4e/5x5
I0403 19:16:21.179028  9017 net.cpp:91] Creating Layer inception_4e/5x5
I0403 19:16:21.179045  9017 net.cpp:425] inception_4e/5x5 <- inception_4e/5x5_reduce
I0403 19:16:21.179064  9017 net.cpp:399] inception_4e/5x5 -> inception_4e/5x5
I0403 19:16:21.180949  9017 net.cpp:141] Setting up inception_4e/5x5
I0403 19:16:21.180975  9017 net.cpp:148] Top shape: 24 128 14 14 (602112)
I0403 19:16:21.180989  9017 net.cpp:156] Memory required for data: 1239741984
I0403 19:16:21.181008  9017 layer_factory.hpp:77] Creating layer inception_4e/relu_5x5
I0403 19:16:21.181026  9017 net.cpp:91] Creating Layer inception_4e/relu_5x5
I0403 19:16:21.181042  9017 net.cpp:425] inception_4e/relu_5x5 <- inception_4e/5x5
I0403 19:16:21.181058  9017 net.cpp:386] inception_4e/relu_5x5 -> inception_4e/5x5 (in-place)
I0403 19:16:21.181255  9017 net.cpp:141] Setting up inception_4e/relu_5x5
I0403 19:16:21.181279  9017 net.cpp:148] Top shape: 24 128 14 14 (602112)
I0403 19:16:21.181305  9017 net.cpp:156] Memory required for data: 1242150432
I0403 19:16:21.181318  9017 layer_factory.hpp:77] Creating layer inception_4e/pool
I0403 19:16:21.181339  9017 net.cpp:91] Creating Layer inception_4e/pool
I0403 19:16:21.181354  9017 net.cpp:425] inception_4e/pool <- inception_4d/output_inception_4d/output_0_split_4
I0403 19:16:21.181371  9017 net.cpp:399] inception_4e/pool -> inception_4e/pool
I0403 19:16:21.181439  9017 net.cpp:141] Setting up inception_4e/pool
I0403 19:16:21.181463  9017 net.cpp:148] Top shape: 24 528 14 14 (2483712)
I0403 19:16:21.181488  9017 net.cpp:156] Memory required for data: 1252085280
I0403 19:16:21.181502  9017 layer_factory.hpp:77] Creating layer inception_4e/pool_proj
I0403 19:16:21.181524  9017 net.cpp:91] Creating Layer inception_4e/pool_proj
I0403 19:16:21.181543  9017 net.cpp:425] inception_4e/pool_proj <- inception_4e/pool
I0403 19:16:21.181565  9017 net.cpp:399] inception_4e/pool_proj -> inception_4e/pool_proj
I0403 19:16:21.183128  9017 net.cpp:141] Setting up inception_4e/pool_proj
I0403 19:16:21.183166  9017 net.cpp:148] Top shape: 24 128 14 14 (602112)
I0403 19:16:21.183182  9017 net.cpp:156] Memory required for data: 1254493728
I0403 19:16:21.183198  9017 layer_factory.hpp:77] Creating layer inception_4e/relu_pool_proj
I0403 19:16:21.183221  9017 net.cpp:91] Creating Layer inception_4e/relu_pool_proj
I0403 19:16:21.183241  9017 net.cpp:425] inception_4e/relu_pool_proj <- inception_4e/pool_proj
I0403 19:16:21.183257  9017 net.cpp:386] inception_4e/relu_pool_proj -> inception_4e/pool_proj (in-place)
I0403 19:16:21.183579  9017 net.cpp:141] Setting up inception_4e/relu_pool_proj
I0403 19:16:21.183605  9017 net.cpp:148] Top shape: 24 128 14 14 (602112)
I0403 19:16:21.183619  9017 net.cpp:156] Memory required for data: 1256902176
I0403 19:16:21.183634  9017 layer_factory.hpp:77] Creating layer inception_4e/output
I0403 19:16:21.183650  9017 net.cpp:91] Creating Layer inception_4e/output
I0403 19:16:21.183665  9017 net.cpp:425] inception_4e/output <- inception_4e/1x1
I0403 19:16:21.183681  9017 net.cpp:425] inception_4e/output <- inception_4e/3x3
I0403 19:16:21.183696  9017 net.cpp:425] inception_4e/output <- inception_4e/5x5
I0403 19:16:21.183712  9017 net.cpp:425] inception_4e/output <- inception_4e/pool_proj
I0403 19:16:21.183729  9017 net.cpp:399] inception_4e/output -> inception_4e/output
I0403 19:16:21.183789  9017 net.cpp:141] Setting up inception_4e/output
I0403 19:16:21.183814  9017 net.cpp:148] Top shape: 24 832 14 14 (3913728)
I0403 19:16:21.183827  9017 net.cpp:156] Memory required for data: 1272557088
I0403 19:16:21.183841  9017 layer_factory.hpp:77] Creating layer pool4/3x3_s2
I0403 19:16:21.183857  9017 net.cpp:91] Creating Layer pool4/3x3_s2
I0403 19:16:21.183871  9017 net.cpp:425] pool4/3x3_s2 <- inception_4e/output
I0403 19:16:21.183892  9017 net.cpp:399] pool4/3x3_s2 -> pool4/3x3_s2
I0403 19:16:21.183954  9017 net.cpp:141] Setting up pool4/3x3_s2
I0403 19:16:21.183976  9017 net.cpp:148] Top shape: 24 832 7 7 (978432)
I0403 19:16:21.183990  9017 net.cpp:156] Memory required for data: 1276470816
I0403 19:16:21.184003  9017 layer_factory.hpp:77] Creating layer pool4/3x3_s2_pool4/3x3_s2_0_split
I0403 19:16:21.184026  9017 net.cpp:91] Creating Layer pool4/3x3_s2_pool4/3x3_s2_0_split
I0403 19:16:21.184041  9017 net.cpp:425] pool4/3x3_s2_pool4/3x3_s2_0_split <- pool4/3x3_s2
I0403 19:16:21.184057  9017 net.cpp:399] pool4/3x3_s2_pool4/3x3_s2_0_split -> pool4/3x3_s2_pool4/3x3_s2_0_split_0
I0403 19:16:21.184077  9017 net.cpp:399] pool4/3x3_s2_pool4/3x3_s2_0_split -> pool4/3x3_s2_pool4/3x3_s2_0_split_1
I0403 19:16:21.184095  9017 net.cpp:399] pool4/3x3_s2_pool4/3x3_s2_0_split -> pool4/3x3_s2_pool4/3x3_s2_0_split_2
I0403 19:16:21.184114  9017 net.cpp:399] pool4/3x3_s2_pool4/3x3_s2_0_split -> pool4/3x3_s2_pool4/3x3_s2_0_split_3
I0403 19:16:21.184201  9017 net.cpp:141] Setting up pool4/3x3_s2_pool4/3x3_s2_0_split
I0403 19:16:21.184237  9017 net.cpp:148] Top shape: 24 832 7 7 (978432)
I0403 19:16:21.184252  9017 net.cpp:148] Top shape: 24 832 7 7 (978432)
I0403 19:16:21.184267  9017 net.cpp:148] Top shape: 24 832 7 7 (978432)
I0403 19:16:21.184293  9017 net.cpp:148] Top shape: 24 832 7 7 (978432)
I0403 19:16:21.184306  9017 net.cpp:156] Memory required for data: 1292125728
I0403 19:16:21.184321  9017 layer_factory.hpp:77] Creating layer inception_5a/1x1
I0403 19:16:21.184341  9017 net.cpp:91] Creating Layer inception_5a/1x1
I0403 19:16:21.184360  9017 net.cpp:425] inception_5a/1x1 <- pool4/3x3_s2_pool4/3x3_s2_0_split_0
I0403 19:16:21.184381  9017 net.cpp:399] inception_5a/1x1 -> inception_5a/1x1
I0403 19:16:21.187198  9017 net.cpp:141] Setting up inception_5a/1x1
I0403 19:16:21.187232  9017 net.cpp:148] Top shape: 24 256 7 7 (301056)
I0403 19:16:21.187247  9017 net.cpp:156] Memory required for data: 1293329952
I0403 19:16:21.187264  9017 layer_factory.hpp:77] Creating layer inception_5a/relu_1x1
I0403 19:16:21.187283  9017 net.cpp:91] Creating Layer inception_5a/relu_1x1
I0403 19:16:21.187299  9017 net.cpp:425] inception_5a/relu_1x1 <- inception_5a/1x1
I0403 19:16:21.187316  9017 net.cpp:386] inception_5a/relu_1x1 -> inception_5a/1x1 (in-place)
I0403 19:16:21.187626  9017 net.cpp:141] Setting up inception_5a/relu_1x1
I0403 19:16:21.187652  9017 net.cpp:148] Top shape: 24 256 7 7 (301056)
I0403 19:16:21.187667  9017 net.cpp:156] Memory required for data: 1294534176
I0403 19:16:21.187681  9017 layer_factory.hpp:77] Creating layer inception_5a/3x3_reduce
I0403 19:16:21.187702  9017 net.cpp:91] Creating Layer inception_5a/3x3_reduce
I0403 19:16:21.187719  9017 net.cpp:425] inception_5a/3x3_reduce <- pool4/3x3_s2_pool4/3x3_s2_0_split_1
I0403 19:16:21.187741  9017 net.cpp:399] inception_5a/3x3_reduce -> inception_5a/3x3_reduce
I0403 19:16:21.190121  9017 net.cpp:141] Setting up inception_5a/3x3_reduce
I0403 19:16:21.190150  9017 net.cpp:148] Top shape: 24 160 7 7 (188160)
I0403 19:16:21.190166  9017 net.cpp:156] Memory required for data: 1295286816
I0403 19:16:21.190184  9017 layer_factory.hpp:77] Creating layer inception_5a/relu_3x3_reduce
I0403 19:16:21.190201  9017 net.cpp:91] Creating Layer inception_5a/relu_3x3_reduce
I0403 19:16:21.190224  9017 net.cpp:425] inception_5a/relu_3x3_reduce <- inception_5a/3x3_reduce
I0403 19:16:21.190244  9017 net.cpp:386] inception_5a/relu_3x3_reduce -> inception_5a/3x3_reduce (in-place)
I0403 19:16:21.190423  9017 net.cpp:141] Setting up inception_5a/relu_3x3_reduce
I0403 19:16:21.190446  9017 net.cpp:148] Top shape: 24 160 7 7 (188160)
I0403 19:16:21.190459  9017 net.cpp:156] Memory required for data: 1296039456
I0403 19:16:21.190474  9017 layer_factory.hpp:77] Creating layer inception_5a/3x3
I0403 19:16:21.190495  9017 net.cpp:91] Creating Layer inception_5a/3x3
I0403 19:16:21.190510  9017 net.cpp:425] inception_5a/3x3 <- inception_5a/3x3_reduce
I0403 19:16:21.190531  9017 net.cpp:399] inception_5a/3x3 -> inception_5a/3x3
I0403 19:16:21.195428  9017 net.cpp:141] Setting up inception_5a/3x3
I0403 19:16:21.195459  9017 net.cpp:148] Top shape: 24 320 7 7 (376320)
I0403 19:16:21.195487  9017 net.cpp:156] Memory required for data: 1297544736
I0403 19:16:21.195504  9017 layer_factory.hpp:77] Creating layer inception_5a/relu_3x3
I0403 19:16:21.195524  9017 net.cpp:91] Creating Layer inception_5a/relu_3x3
I0403 19:16:21.195540  9017 net.cpp:425] inception_5a/relu_3x3 <- inception_5a/3x3
I0403 19:16:21.195557  9017 net.cpp:386] inception_5a/relu_3x3 -> inception_5a/3x3 (in-place)
I0403 19:16:21.195853  9017 net.cpp:141] Setting up inception_5a/relu_3x3
I0403 19:16:21.195878  9017 net.cpp:148] Top shape: 24 320 7 7 (376320)
I0403 19:16:21.195891  9017 net.cpp:156] Memory required for data: 1299050016
I0403 19:16:21.195905  9017 layer_factory.hpp:77] Creating layer inception_5a/5x5_reduce
I0403 19:16:21.195926  9017 net.cpp:91] Creating Layer inception_5a/5x5_reduce
I0403 19:16:21.195943  9017 net.cpp:425] inception_5a/5x5_reduce <- pool4/3x3_s2_pool4/3x3_s2_0_split_2
I0403 19:16:21.195963  9017 net.cpp:399] inception_5a/5x5_reduce -> inception_5a/5x5_reduce
I0403 19:16:21.197085  9017 net.cpp:141] Setting up inception_5a/5x5_reduce
I0403 19:16:21.197113  9017 net.cpp:148] Top shape: 24 32 7 7 (37632)
I0403 19:16:21.197127  9017 net.cpp:156] Memory required for data: 1299200544
I0403 19:16:21.197144  9017 layer_factory.hpp:77] Creating layer inception_5a/relu_5x5_reduce
I0403 19:16:21.197163  9017 net.cpp:91] Creating Layer inception_5a/relu_5x5_reduce
I0403 19:16:21.197178  9017 net.cpp:425] inception_5a/relu_5x5_reduce <- inception_5a/5x5_reduce
I0403 19:16:21.197196  9017 net.cpp:386] inception_5a/relu_5x5_reduce -> inception_5a/5x5_reduce (in-place)
I0403 19:16:21.197505  9017 net.cpp:141] Setting up inception_5a/relu_5x5_reduce
I0403 19:16:21.197531  9017 net.cpp:148] Top shape: 24 32 7 7 (37632)
I0403 19:16:21.197546  9017 net.cpp:156] Memory required for data: 1299351072
I0403 19:16:21.197559  9017 layer_factory.hpp:77] Creating layer inception_5a/5x5
I0403 19:16:21.197581  9017 net.cpp:91] Creating Layer inception_5a/5x5
I0403 19:16:21.197599  9017 net.cpp:425] inception_5a/5x5 <- inception_5a/5x5_reduce
I0403 19:16:21.197618  9017 net.cpp:399] inception_5a/5x5 -> inception_5a/5x5
I0403 19:16:21.199311  9017 net.cpp:141] Setting up inception_5a/5x5
I0403 19:16:21.199347  9017 net.cpp:148] Top shape: 24 128 7 7 (150528)
I0403 19:16:21.199362  9017 net.cpp:156] Memory required for data: 1299953184
I0403 19:16:21.199378  9017 layer_factory.hpp:77] Creating layer inception_5a/relu_5x5
I0403 19:16:21.199398  9017 net.cpp:91] Creating Layer inception_5a/relu_5x5
I0403 19:16:21.199414  9017 net.cpp:425] inception_5a/relu_5x5 <- inception_5a/5x5
I0403 19:16:21.199430  9017 net.cpp:386] inception_5a/relu_5x5 -> inception_5a/5x5 (in-place)
I0403 19:16:21.199638  9017 net.cpp:141] Setting up inception_5a/relu_5x5
I0403 19:16:21.199663  9017 net.cpp:148] Top shape: 24 128 7 7 (150528)
I0403 19:16:21.199677  9017 net.cpp:156] Memory required for data: 1300555296
I0403 19:16:21.199692  9017 layer_factory.hpp:77] Creating layer inception_5a/pool
I0403 19:16:21.199712  9017 net.cpp:91] Creating Layer inception_5a/pool
I0403 19:16:21.199728  9017 net.cpp:425] inception_5a/pool <- pool4/3x3_s2_pool4/3x3_s2_0_split_3
I0403 19:16:21.199748  9017 net.cpp:399] inception_5a/pool -> inception_5a/pool
I0403 19:16:21.199829  9017 net.cpp:141] Setting up inception_5a/pool
I0403 19:16:21.199862  9017 net.cpp:148] Top shape: 24 832 7 7 (978432)
I0403 19:16:21.199875  9017 net.cpp:156] Memory required for data: 1304469024
I0403 19:16:21.199889  9017 layer_factory.hpp:77] Creating layer inception_5a/pool_proj
I0403 19:16:21.199910  9017 net.cpp:91] Creating Layer inception_5a/pool_proj
I0403 19:16:21.199928  9017 net.cpp:425] inception_5a/pool_proj <- inception_5a/pool
I0403 19:16:21.199949  9017 net.cpp:399] inception_5a/pool_proj -> inception_5a/pool_proj
I0403 19:16:21.202178  9017 net.cpp:141] Setting up inception_5a/pool_proj
I0403 19:16:21.202205  9017 net.cpp:148] Top shape: 24 128 7 7 (150528)
I0403 19:16:21.202234  9017 net.cpp:156] Memory required for data: 1305071136
I0403 19:16:21.202252  9017 layer_factory.hpp:77] Creating layer inception_5a/relu_pool_proj
I0403 19:16:21.202270  9017 net.cpp:91] Creating Layer inception_5a/relu_pool_proj
I0403 19:16:21.202285  9017 net.cpp:425] inception_5a/relu_pool_proj <- inception_5a/pool_proj
I0403 19:16:21.202302  9017 net.cpp:386] inception_5a/relu_pool_proj -> inception_5a/pool_proj (in-place)
I0403 19:16:21.202589  9017 net.cpp:141] Setting up inception_5a/relu_pool_proj
I0403 19:16:21.202612  9017 net.cpp:148] Top shape: 24 128 7 7 (150528)
I0403 19:16:21.202626  9017 net.cpp:156] Memory required for data: 1305673248
I0403 19:16:21.202641  9017 layer_factory.hpp:77] Creating layer inception_5a/output
I0403 19:16:21.202657  9017 net.cpp:91] Creating Layer inception_5a/output
I0403 19:16:21.202672  9017 net.cpp:425] inception_5a/output <- inception_5a/1x1
I0403 19:16:21.202687  9017 net.cpp:425] inception_5a/output <- inception_5a/3x3
I0403 19:16:21.202702  9017 net.cpp:425] inception_5a/output <- inception_5a/5x5
I0403 19:16:21.202716  9017 net.cpp:425] inception_5a/output <- inception_5a/pool_proj
I0403 19:16:21.202734  9017 net.cpp:399] inception_5a/output -> inception_5a/output
I0403 19:16:21.202782  9017 net.cpp:141] Setting up inception_5a/output
I0403 19:16:21.202806  9017 net.cpp:148] Top shape: 24 832 7 7 (978432)
I0403 19:16:21.202821  9017 net.cpp:156] Memory required for data: 1309586976
I0403 19:16:21.202834  9017 layer_factory.hpp:77] Creating layer inception_5a/output_inception_5a/output_0_split
I0403 19:16:21.202850  9017 net.cpp:91] Creating Layer inception_5a/output_inception_5a/output_0_split
I0403 19:16:21.202865  9017 net.cpp:425] inception_5a/output_inception_5a/output_0_split <- inception_5a/output
I0403 19:16:21.202882  9017 net.cpp:399] inception_5a/output_inception_5a/output_0_split -> inception_5a/output_inception_5a/output_0_split_0
I0403 19:16:21.202900  9017 net.cpp:399] inception_5a/output_inception_5a/output_0_split -> inception_5a/output_inception_5a/output_0_split_1
I0403 19:16:21.202921  9017 net.cpp:399] inception_5a/output_inception_5a/output_0_split -> inception_5a/output_inception_5a/output_0_split_2
I0403 19:16:21.202941  9017 net.cpp:399] inception_5a/output_inception_5a/output_0_split -> inception_5a/output_inception_5a/output_0_split_3
I0403 19:16:21.203048  9017 net.cpp:141] Setting up inception_5a/output_inception_5a/output_0_split
I0403 19:16:21.203070  9017 net.cpp:148] Top shape: 24 832 7 7 (978432)
I0403 19:16:21.203086  9017 net.cpp:148] Top shape: 24 832 7 7 (978432)
I0403 19:16:21.203100  9017 net.cpp:148] Top shape: 24 832 7 7 (978432)
I0403 19:16:21.203115  9017 net.cpp:148] Top shape: 24 832 7 7 (978432)
I0403 19:16:21.203129  9017 net.cpp:156] Memory required for data: 1325241888
I0403 19:16:21.203141  9017 layer_factory.hpp:77] Creating layer inception_5b/1x1
I0403 19:16:21.203162  9017 net.cpp:91] Creating Layer inception_5b/1x1
I0403 19:16:21.203178  9017 net.cpp:425] inception_5b/1x1 <- inception_5a/output_inception_5a/output_0_split_0
I0403 19:16:21.203199  9017 net.cpp:399] inception_5b/1x1 -> inception_5b/1x1
I0403 19:16:21.206835  9017 net.cpp:141] Setting up inception_5b/1x1
I0403 19:16:21.206866  9017 net.cpp:148] Top shape: 24 384 7 7 (451584)
I0403 19:16:21.206881  9017 net.cpp:156] Memory required for data: 1327048224
I0403 19:16:21.206898  9017 layer_factory.hpp:77] Creating layer inception_5b/relu_1x1
I0403 19:16:21.206917  9017 net.cpp:91] Creating Layer inception_5b/relu_1x1
I0403 19:16:21.206931  9017 net.cpp:425] inception_5b/relu_1x1 <- inception_5b/1x1
I0403 19:16:21.206950  9017 net.cpp:386] inception_5b/relu_1x1 -> inception_5b/1x1 (in-place)
I0403 19:16:21.207243  9017 net.cpp:141] Setting up inception_5b/relu_1x1
I0403 19:16:21.207269  9017 net.cpp:148] Top shape: 24 384 7 7 (451584)
I0403 19:16:21.207285  9017 net.cpp:156] Memory required for data: 1328854560
I0403 19:16:21.207299  9017 layer_factory.hpp:77] Creating layer inception_5b/3x3_reduce
I0403 19:16:21.207320  9017 net.cpp:91] Creating Layer inception_5b/3x3_reduce
I0403 19:16:21.207337  9017 net.cpp:425] inception_5b/3x3_reduce <- inception_5a/output_inception_5a/output_0_split_1
I0403 19:16:21.207355  9017 net.cpp:399] inception_5b/3x3_reduce -> inception_5b/3x3_reduce
I0403 19:16:21.209965  9017 net.cpp:141] Setting up inception_5b/3x3_reduce
I0403 19:16:21.209993  9017 net.cpp:148] Top shape: 24 192 7 7 (225792)
I0403 19:16:21.210008  9017 net.cpp:156] Memory required for data: 1329757728
I0403 19:16:21.210026  9017 layer_factory.hpp:77] Creating layer inception_5b/relu_3x3_reduce
I0403 19:16:21.210043  9017 net.cpp:91] Creating Layer inception_5b/relu_3x3_reduce
I0403 19:16:21.210058  9017 net.cpp:425] inception_5b/relu_3x3_reduce <- inception_5b/3x3_reduce
I0403 19:16:21.210077  9017 net.cpp:386] inception_5b/relu_3x3_reduce -> inception_5b/3x3_reduce (in-place)
I0403 19:16:21.210263  9017 net.cpp:141] Setting up inception_5b/relu_3x3_reduce
I0403 19:16:21.210286  9017 net.cpp:148] Top shape: 24 192 7 7 (225792)
I0403 19:16:21.210300  9017 net.cpp:156] Memory required for data: 1330660896
I0403 19:16:21.210314  9017 layer_factory.hpp:77] Creating layer inception_5b/3x3
I0403 19:16:21.210335  9017 net.cpp:91] Creating Layer inception_5b/3x3
I0403 19:16:21.210352  9017 net.cpp:425] inception_5b/3x3 <- inception_5b/3x3_reduce
I0403 19:16:21.210371  9017 net.cpp:399] inception_5b/3x3 -> inception_5b/3x3
I0403 19:16:21.216904  9017 net.cpp:141] Setting up inception_5b/3x3
I0403 19:16:21.216931  9017 net.cpp:148] Top shape: 24 384 7 7 (451584)
I0403 19:16:21.216946  9017 net.cpp:156] Memory required for data: 1332467232
I0403 19:16:21.216964  9017 layer_factory.hpp:77] Creating layer inception_5b/relu_3x3
I0403 19:16:21.216981  9017 net.cpp:91] Creating Layer inception_5b/relu_3x3
I0403 19:16:21.216996  9017 net.cpp:425] inception_5b/relu_3x3 <- inception_5b/3x3
I0403 19:16:21.217015  9017 net.cpp:386] inception_5b/relu_3x3 -> inception_5b/3x3 (in-place)
I0403 19:16:21.217305  9017 net.cpp:141] Setting up inception_5b/relu_3x3
I0403 19:16:21.217330  9017 net.cpp:148] Top shape: 24 384 7 7 (451584)
I0403 19:16:21.217344  9017 net.cpp:156] Memory required for data: 1334273568
I0403 19:16:21.217358  9017 layer_factory.hpp:77] Creating layer inception_5b/5x5_reduce
I0403 19:16:21.217397  9017 net.cpp:91] Creating Layer inception_5b/5x5_reduce
I0403 19:16:21.217416  9017 net.cpp:425] inception_5b/5x5_reduce <- inception_5a/output_inception_5a/output_0_split_2
I0403 19:16:21.217437  9017 net.cpp:399] inception_5b/5x5_reduce -> inception_5b/5x5_reduce
I0403 19:16:21.218716  9017 net.cpp:141] Setting up inception_5b/5x5_reduce
I0403 19:16:21.218742  9017 net.cpp:148] Top shape: 24 48 7 7 (56448)
I0403 19:16:21.218756  9017 net.cpp:156] Memory required for data: 1334499360
I0403 19:16:21.218775  9017 layer_factory.hpp:77] Creating layer inception_5b/relu_5x5_reduce
I0403 19:16:21.218791  9017 net.cpp:91] Creating Layer inception_5b/relu_5x5_reduce
I0403 19:16:21.218808  9017 net.cpp:425] inception_5b/relu_5x5_reduce <- inception_5b/5x5_reduce
I0403 19:16:21.218824  9017 net.cpp:386] inception_5b/relu_5x5_reduce -> inception_5b/5x5_reduce (in-place)
I0403 19:16:21.219179  9017 net.cpp:141] Setting up inception_5b/relu_5x5_reduce
I0403 19:16:21.219204  9017 net.cpp:148] Top shape: 24 48 7 7 (56448)
I0403 19:16:21.219225  9017 net.cpp:156] Memory required for data: 1334725152
I0403 19:16:21.219240  9017 layer_factory.hpp:77] Creating layer inception_5b/5x5
I0403 19:16:21.219259  9017 net.cpp:91] Creating Layer inception_5b/5x5
I0403 19:16:21.219275  9017 net.cpp:425] inception_5b/5x5 <- inception_5b/5x5_reduce
I0403 19:16:21.219292  9017 net.cpp:399] inception_5b/5x5 -> inception_5b/5x5
I0403 19:16:21.221273  9017 net.cpp:141] Setting up inception_5b/5x5
I0403 19:16:21.221299  9017 net.cpp:148] Top shape: 24 128 7 7 (150528)
I0403 19:16:21.221313  9017 net.cpp:156] Memory required for data: 1335327264
I0403 19:16:21.221331  9017 layer_factory.hpp:77] Creating layer inception_5b/relu_5x5
I0403 19:16:21.221350  9017 net.cpp:91] Creating Layer inception_5b/relu_5x5
I0403 19:16:21.221365  9017 net.cpp:425] inception_5b/relu_5x5 <- inception_5b/5x5
I0403 19:16:21.221382  9017 net.cpp:386] inception_5b/relu_5x5 -> inception_5b/5x5 (in-place)
I0403 19:16:21.221581  9017 net.cpp:141] Setting up inception_5b/relu_5x5
I0403 19:16:21.221607  9017 net.cpp:148] Top shape: 24 128 7 7 (150528)
I0403 19:16:21.221621  9017 net.cpp:156] Memory required for data: 1335929376
I0403 19:16:21.221637  9017 layer_factory.hpp:77] Creating layer inception_5b/pool
I0403 19:16:21.221653  9017 net.cpp:91] Creating Layer inception_5b/pool
I0403 19:16:21.221668  9017 net.cpp:425] inception_5b/pool <- inception_5a/output_inception_5a/output_0_split_3
I0403 19:16:21.221685  9017 net.cpp:399] inception_5b/pool -> inception_5b/pool
I0403 19:16:21.221767  9017 net.cpp:141] Setting up inception_5b/pool
I0403 19:16:21.221789  9017 net.cpp:148] Top shape: 24 832 7 7 (978432)
I0403 19:16:21.221803  9017 net.cpp:156] Memory required for data: 1339843104
I0403 19:16:21.221817  9017 layer_factory.hpp:77] Creating layer inception_5b/pool_proj
I0403 19:16:21.221838  9017 net.cpp:91] Creating Layer inception_5b/pool_proj
I0403 19:16:21.221854  9017 net.cpp:425] inception_5b/pool_proj <- inception_5b/pool
I0403 19:16:21.221874  9017 net.cpp:399] inception_5b/pool_proj -> inception_5b/pool_proj
I0403 19:16:21.224088  9017 net.cpp:141] Setting up inception_5b/pool_proj
I0403 19:16:21.224117  9017 net.cpp:148] Top shape: 24 128 7 7 (150528)
I0403 19:16:21.224130  9017 net.cpp:156] Memory required for data: 1340445216
I0403 19:16:21.224148  9017 layer_factory.hpp:77] Creating layer inception_5b/relu_pool_proj
I0403 19:16:21.224167  9017 net.cpp:91] Creating Layer inception_5b/relu_pool_proj
I0403 19:16:21.224184  9017 net.cpp:425] inception_5b/relu_pool_proj <- inception_5b/pool_proj
I0403 19:16:21.224201  9017 net.cpp:386] inception_5b/relu_pool_proj -> inception_5b/pool_proj (in-place)
I0403 19:16:21.224514  9017 net.cpp:141] Setting up inception_5b/relu_pool_proj
I0403 19:16:21.224539  9017 net.cpp:148] Top shape: 24 128 7 7 (150528)
I0403 19:16:21.224553  9017 net.cpp:156] Memory required for data: 1341047328
I0403 19:16:21.224568  9017 layer_factory.hpp:77] Creating layer inception_5b/output
I0403 19:16:21.224586  9017 net.cpp:91] Creating Layer inception_5b/output
I0403 19:16:21.224614  9017 net.cpp:425] inception_5b/output <- inception_5b/1x1
I0403 19:16:21.224630  9017 net.cpp:425] inception_5b/output <- inception_5b/3x3
I0403 19:16:21.224647  9017 net.cpp:425] inception_5b/output <- inception_5b/5x5
I0403 19:16:21.224663  9017 net.cpp:425] inception_5b/output <- inception_5b/pool_proj
I0403 19:16:21.224681  9017 net.cpp:399] inception_5b/output -> inception_5b/output
I0403 19:16:21.224745  9017 net.cpp:141] Setting up inception_5b/output
I0403 19:16:21.224768  9017 net.cpp:148] Top shape: 24 1024 7 7 (1204224)
I0403 19:16:21.224783  9017 net.cpp:156] Memory required for data: 1345864224
I0403 19:16:21.224797  9017 layer_factory.hpp:77] Creating layer pool5/7x7_s1
I0403 19:16:21.224812  9017 net.cpp:91] Creating Layer pool5/7x7_s1
I0403 19:16:21.224828  9017 net.cpp:425] pool5/7x7_s1 <- inception_5b/output
I0403 19:16:21.224848  9017 net.cpp:399] pool5/7x7_s1 -> pool5/7x7_s1
I0403 19:16:21.225049  9017 net.cpp:141] Setting up pool5/7x7_s1
I0403 19:16:21.225074  9017 net.cpp:148] Top shape: 24 1024 1 1 (24576)
I0403 19:16:21.225087  9017 net.cpp:156] Memory required for data: 1345962528
I0403 19:16:21.225101  9017 layer_factory.hpp:77] Creating layer pool5/drop_7x7_s1
I0403 19:16:21.225119  9017 net.cpp:91] Creating Layer pool5/drop_7x7_s1
I0403 19:16:21.225136  9017 net.cpp:425] pool5/drop_7x7_s1 <- pool5/7x7_s1
I0403 19:16:21.225153  9017 net.cpp:386] pool5/drop_7x7_s1 -> pool5/7x7_s1 (in-place)
I0403 19:16:21.225198  9017 net.cpp:141] Setting up pool5/drop_7x7_s1
I0403 19:16:21.225229  9017 net.cpp:148] Top shape: 24 1024 1 1 (24576)
I0403 19:16:21.225244  9017 net.cpp:156] Memory required for data: 1346060832
I0403 19:16:21.225257  9017 layer_factory.hpp:77] Creating layer loss3/classifier_plantvillage
I0403 19:16:21.225275  9017 net.cpp:91] Creating Layer loss3/classifier_plantvillage
I0403 19:16:21.225289  9017 net.cpp:425] loss3/classifier_plantvillage <- pool5/7x7_s1
I0403 19:16:21.225308  9017 net.cpp:399] loss3/classifier_plantvillage -> loss3/classifier_plantvillage
I0403 19:16:21.225745  9017 net.cpp:141] Setting up loss3/classifier_plantvillage
I0403 19:16:21.225769  9017 net.cpp:148] Top shape: 24 38 (912)
I0403 19:16:21.225782  9017 net.cpp:156] Memory required for data: 1346064480
I0403 19:16:21.225798  9017 layer_factory.hpp:77] Creating layer loss3/classifier_plantvillage_loss3/classifier_plantvillage_0_split
I0403 19:16:21.225816  9017 net.cpp:91] Creating Layer loss3/classifier_plantvillage_loss3/classifier_plantvillage_0_split
I0403 19:16:21.225831  9017 net.cpp:425] loss3/classifier_plantvillage_loss3/classifier_plantvillage_0_split <- loss3/classifier_plantvillage
I0403 19:16:21.225847  9017 net.cpp:399] loss3/classifier_plantvillage_loss3/classifier_plantvillage_0_split -> loss3/classifier_plantvillage_loss3/classifier_plantvillage_0_split_0
I0403 19:16:21.225868  9017 net.cpp:399] loss3/classifier_plantvillage_loss3/classifier_plantvillage_0_split -> loss3/classifier_plantvillage_loss3/classifier_plantvillage_0_split_1
I0403 19:16:21.225888  9017 net.cpp:399] loss3/classifier_plantvillage_loss3/classifier_plantvillage_0_split -> loss3/classifier_plantvillage_loss3/classifier_plantvillage_0_split_2
I0403 19:16:21.225908  9017 net.cpp:399] loss3/classifier_plantvillage_loss3/classifier_plantvillage_0_split -> loss3/classifier_plantvillage_loss3/classifier_plantvillage_0_split_3
I0403 19:16:21.226004  9017 net.cpp:141] Setting up loss3/classifier_plantvillage_loss3/classifier_plantvillage_0_split
I0403 19:16:21.226025  9017 net.cpp:148] Top shape: 24 38 (912)
I0403 19:16:21.226040  9017 net.cpp:148] Top shape: 24 38 (912)
I0403 19:16:21.226055  9017 net.cpp:148] Top shape: 24 38 (912)
I0403 19:16:21.226069  9017 net.cpp:148] Top shape: 24 38 (912)
I0403 19:16:21.226081  9017 net.cpp:156] Memory required for data: 1346079072
I0403 19:16:21.226097  9017 layer_factory.hpp:77] Creating layer loss1/loss
I0403 19:16:21.226119  9017 net.cpp:91] Creating Layer loss1/loss
I0403 19:16:21.226136  9017 net.cpp:425] loss1/loss <- loss1/classifier_plantvillage_loss1/classifier_plantvillage_0_split_0
I0403 19:16:21.226164  9017 net.cpp:425] loss1/loss <- label_data_1_split_0
…
