…
I0403 19:26:58.634663  9255 net.cpp:313] The NetState phase (1) differed from the phase (0) specified by a rule in layer data
I0403 19:26:58.635809  9255 net.cpp:49] Initializing net from parameters: 
state {
  phase: TEST
}
layer {
  name: "data"
  type: "Data"
  top: "data"
  top: "label"
  include {
    phase: TEST
  }
  transform_param {
    mirror: false
    crop_size: 224
    mean_file: "/home/mohanty/data/final_dataset/lmdb/grayscale-50-50/mean.binaryproto"
  }
  data_param {
    source: "/home/mohanty/data/final_dataset/lmdb/grayscale-50-50/test_db"
    batch_size: 24
    backend: LMDB
  }
}
layer {
  name: "conv1/7x7_s2"
  type: "Convolution"
  bottom: "data"
  top: "conv1/7x7_s2"
  param {
    lr_mult: 1
    decay_mult: 1
  }
  param {
    lr_mult: 2
    decay_mult: 0
  }
  convolution_param {
    num_output: 64
    pad: 3
    kernel_size: 7
    stride: 2
    weight_filler {
      type: "xavier"
      std: 0.1
    }
    bias_filler {
      type: "constant"
      value: 0.2
    }
  }
}
layer {
  name: "conv1/relu_7x7"
  type: "ReLU"
  bottom: "conv1/7x7_s2"
  top: "conv1/7x7_s2"
}
layer {
  name: "pool1/3x3_s2"
  type: "Pooling"
  bottom: "conv1/7x7_s2"
  top: "pool1/3x3_s2"
  pooling_param {
    pool: MAX
    kernel_size: 3
    stride: 2
  }
}
layer {
  name: "pool1/norm1"
  type: "LRN"
  bottom: "pool1/3x3_s2"
  top: "pool1/norm1"
  lrn_param {
    local_size: 5
    alpha: 0.0001
    beta: 0.75
  }
}
layer {
  name: "conv2/3x3_reduce"
  type: "Convolution"
  bottom: "pool1/norm1"
  top: "conv2/3x3_reduce"
  param {
    lr_mult: 1
    decay_mult: 1
  }
  param {
    lr_mult: 2
    decay_mult: 0
  }
  convolution_param {
    num_output: 64
    kernel_size: 1
    weight_filler {
      type: "xavier"
      std: 0.1
    }
    bias_filler {
      type: "constant"
      value: 0.2
    }
  }
}
layer {
  name: "conv2/relu_3x3_reduce"
  type: "ReLU"
  bottom: "conv2/3x3_reduce"
  top: "conv2/3x3_reduce"
}
layer {
  name: "conv2/3x3"
  type: "Convolution"
  bottom: "conv2/3x3_reduce"
  top: "conv2/3x3"
  param {
    lr_mult: 1
    decay_mult: 1
  }
  param {
    lr_mult: 2
    decay_mult: 0
  }
  convolution_param {
    num_output: 192
    pad: 1
    kernel_size: 3
    weight_filler {
      type: "xavier"
      std: 0.03
    }
    bias_filler {
      type: "constant"
      value: 0.2
    }
  }
}
layer {
  name: "conv2/relu_3x3"
  type: "ReLU"
  bottom: "conv2/3x3"
  top: "conv2/3x3"
}
layer {
  name: "conv2/norm2"
  type: "LRN"
  bottom: "conv2/3x3"
  top: "conv2/norm2"
  lrn_param {
    local_size: 5
    alpha: 0.0001
    beta: 0.75
  }
}
layer {
  name: "pool2/3x3_s2"
  type: "Pooling"
  bottom: "conv2/norm2"
  top: "pool2/3x3_s2"
  pooling_param {
    pool: MAX
    kernel_size: 3
    stride: 2
  }
}
layer {
  name: "inception_3a/1x1"
  type: "Convolution"
  bottom: "pool2/3x3_s2"
  top: "inception_3a/1x1"
  param {
    lr_mult: 1
    decay_mult: 1
  }
  param {
    lr_mult: 2
    decay_mult: 0
  }
  convolution_param {
    num_output: 64
    kernel_size: 1
    weight_filler {
      type: "xavier"
      std: 0.03
    }
    bias_filler {
      type: "constant"
      value: 0.2
    }
  }
}
layer {
  name: "inception_3a/relu_1x1"
  type: "ReLU"
  bottom: "inception_3a/1x1"
  top: "inception_3a/1x1"
}
layer {
  name: "inception_3a/3x3_reduce"
  type: "Convolution"
  bottom: "pool2/3x3_s2"
  top: "inception_3a/3x3_reduce"
  param {
    lr_mult: 1
    decay_mult: 1
  }
  param {
    lr_mult: 2
    decay_mult: 0
  }
  convolution_param {
    num_output: 96
    kernel_size: 1
    weight_filler {
      type: "xavier"
      std: 0.09
    }
    bias_filler {
      type: "constant"
      value: 0.2
    }
  }
}
layer {
  name: "inception_3a/relu_3x3_reduce"
  type: "ReLU"
  bottom: "inception_3a/3x3_reduce"
  top: "inception_3a/3x3_reduce"
}
layer {
  name: "inception_3a/3x3"
  type: "Convolution"
  bottom: "inception_3a/3x3_reduce"
  top: "inception_3a/3x3"
  param {
    lr_mult: 1
    decay_mult: 1
  }
  param {
    lr_mult: 2
    decay_mult: 0
  }
  convolution_param {
    num_output: 128
    pad: 1
    kernel_size: 3
    weight_filler {
      type: "xavier"
      std: 0.03
    }
    bias_filler {
      type: "constant"
      value: 0.2
    }
  }
}
layer {
  name: "inception_3a/relu_3x3"
  type: "ReLU"
  bottom: "inception_3a/3x3"
  top: "inception_3a/3x3"
}
layer {
  name: "inception_3a/5x5_reduce"
  type: "Convolution"
  bottom: "pool2/3x3_s2"
  top: "inception_3a/5x5_reduce"
  param {
    lr_mult: 1
    decay_mult: 1
  }
  param {
    lr_mult: 2
    decay_mult: 0
  }
  convolution_param {
    num_output: 16
    kernel_size: 1
    weight_filler {
      type: "xavier"
      std: 0.2
    }
    bias_filler {
      type: "constant"
      value: 0.2
    }
  }
}
layer {
  name: "inception_3a/relu_5x5_reduce"
  type: "ReLU"
  bottom: "inception_3a/5x5_reduce"
  top: "inception_3a/5x5_reduce"
}
layer {
  name: "inception_3a/5x5"
  type: "Convolution"
  bottom: "inception_3a/5x5_reduce"
  top: "inception_3a/5x5"
  param {
    lr_mult: 1
    decay_mult: 1
  }
  param {
    lr_mult: 2
    decay_mult: 0
  }
  convolution_param {
    num_output: 32
    pad: 2
    kernel_size: 5
    weight_filler {
      type: "xavier"
      std: 0.03
    }
    bias_filler {
      type: "constant"
      value: 0.2
    }
  }
}
layer {
  name: "inception_3a/relu_5x5"
  type: "ReLU"
  bottom: "inception_3a/5x5"
  top: "inception_3a/5x5"
}
layer {
  name: "inception_3a/pool"
  type: "Pooling"
  bottom: "pool2/3x3_s2"
  top: "inception_3a/pool"
  pooling_param {
    pool: MAX
    kernel_size: 3
    stride: 1
    pad: 1
  }
}
layer {
  name: "inception_3a/pool_proj"
  type: "Convolution"
  bottom: "inception_3a/pool"
  top: "inception_3a/pool_proj"
  param {
    lr_mult: 1
    decay_mult: 1
  }
  param {
    lr_mult: 2
    decay_mult: 0
  }
  convolution_param {
    num_output: 32
    kernel_size: 1
    weight_filler {
      type: "xavier"
      std: 0.1
    }
    bias_filler {
      type: "constant"
      value: 0.2
    }
  }
}
layer {
  name: "inception_3a/relu_pool_proj"
  type: "ReLU"
  bottom: "inception_3a/pool_proj"
  top: "inception_3a/pool_proj"
}
layer {
  name: "inception_3a/output"
  type: "Concat"
  bottom: "inception_3a/1x1"
  bottom: "inception_3a/3x3"
  bottom: "inception_3a/5x5"
  bottom: "inception_3a/pool_proj"
  top: "inception_3a/output"
}
layer {
  name: "inception_3b/1x1"
  type: "Convolution"
  bottom: "inception_3a/output"
  top: "inception_3b/1x1"
  param {
    lr_mult: 1
    decay_mult: 1
  }
  param {
    lr_mult: 2
    decay_mult: 0
  }
  convolution_param {
    num_output: 128
    kernel_size: 1
    weight_filler {
      type: "xavier"
      std: 0.03
    }
    bias_filler {
      type: "constant"
      value: 0.2
    }
  }
}
layer {
  name: "inception_3b/relu_1x1"
  type: "ReLU"
  bottom: "inception_3b/1x1"
  top: "inception_3b/1x1"
}
layer {
  name: "inception_3b/3x3_reduce"
  type: "Convolution"
  bottom: "inception_3a/output"
  top: "inception_3b/3x3_reduce"
  param {
    lr_mult: 1
    decay_mult: 1
  }
  param {
    lr_mult: 2
    decay_mult: 0
  }
  convolution_param {
    num_output: 128
    kernel_size: 1
    weight_filler {
      type: "xavier"
      std: 0.09
    }
    bias_filler {
      type: "constant"
      value: 0.2
    }
  }
}
layer {
  name: "inception_3b/relu_3x3_reduce"
  type: "ReLU"
  bottom: "inception_3b/3x3_reduce"
  top: "inception_3b/3x3_reduce"
}
layer {
  name: "inception_3b/3x3"
  type: "Convolution"
  bottom: "inception_3b/3x3_reduce"
  top: "inception_3b/3x3"
  param {
    lr_mult: 1
    decay_mult: 1
  }
  param {
    lr_mult: 2
    decay_mult: 0
  }
  convolution_param {
    num_output: 192
    pad: 1
    kernel_size: 3
    weight_filler {
      type: "xavier"
      std: 0.03
    }
    bias_filler {
      type: "constant"
      value: 0.2
    }
  }
}
layer {
  name: "inception_3b/relu_3x3"
  type: "ReLU"
  bottom: "inception_3b/3x3"
  top: "inception_3b/3x3"
}
layer {
  name: "inception_3b/5x5_reduce"
  type: "Convolution"
  bottom: "inception_3a/output"
  top: "inception_3b/5x5_reduce"
  param {
    lr_mult: 1
    decay_mult: 1
  }
  param {
    lr_mult: 2
    decay_mult: 0
  }
  convolution_param {
    num_output: 32
    kernel_size: 1
    weight_filler {
      type: "xavier"
      std: 0.2
    }
    bias_filler {
      type: "constant"
      value: 0.2
    }
  }
}
layer {
  name: "inception_3b/relu_5x5_reduce"
  type: "ReLU"
  bottom: "inception_3b/5x5_reduce"
  top: "inception_3b/5x5_reduce"
}
layer {
  name: "inception_3b/5x5"
  type: "Convolution"
  bottom: "inception_3b/5x5_reduce"
  top: "inception_3b/5x5"
  param {
    lr_mult: 1
    decay_mult: 1
  }
  param {
    lr_mult: 2
    decay_mult: 0
  }
  convolution_param {
    num_output: 96
    pad: 2
    kernel_size: 5
    weight_filler {
      type: "xavier"
      std: 0.03
    }
    bias_filler {
      type: "constant"
      value: 0.2
    }
  }
}
layer {
  name: "inception_3b/relu_5x5"
  type: "ReLU"
  bottom: "inception_3b/5x5"
  top: "inception_3b/5x5"
}
layer {
  name: "inception_3b/pool"
  type: "Pooling"
  bottom: "inception_3a/output"
  top: "inception_3b/pool"
  pooling_param {
    pool: MAX
    kernel_size: 3
    stride: 1
    pad: 1
  }
}
layer {
  name: "inception_3b/pool_proj"
  type: "Convolution"
  bottom: "inception_3b/pool"
  top: "inception_3b/pool_proj"
  param {
    lr_mult: 1
    decay_mult: 1
  }
  param {
    lr_mult: 2
    decay_mult: 0
  }
  convolution_param {
    num_output: 64
    kernel_size: 1
    weight_filler {
      type: "xavier"
      std: 0.1
    }
    bias_filler {
      type: "constant"
      value: 0.2
    }
  }
}
layer {
  name: "inception_3b/relu_pool_proj"
  type: "ReLU"
  bottom: "inception_3b/pool_proj"
  top: "inception_3b/pool_proj"
}
layer {
  name: "inception_3b/output"
  type: "Concat"
  bottom: "inception_3b/1x1"
  bottom: "inception_3b/3x3"
  bottom: "inception_3b/5x5"
  bottom: "inception_3b/pool_proj"
  top: "inception_3b/output"
}
layer {
  name: "pool3/3x3_s2"
  type: "Pooling"
  bottom: "inception_3b/output"
  top: "pool3/3x3_s2"
  pooling_param {
    pool: MAX
    kernel_size: 3
    stride: 2
  }
}
layer {
  name: "inception_4a/1x1"
  type: "Convolution"
  bottom: "pool3/3x3_s2"
  top: "inception_4a/1x1"
  param {
    lr_mult: 1
    decay_mult: 1
  }
  param {
    lr_mult: 2
    decay_mult: 0
  }
  convolution_param {
    num_output: 192
    kernel_size: 1
    weight_filler {
      type: "xavier"
      std: 0.03
    }
    bias_filler {
      type: "constant"
      value: 0.2
    }
  }
}
layer {
  name: "inception_4a/relu_1x1"
  type: "ReLU"
  bottom: "inception_4a/1x1"
  top: "inception_4a/1x1"
}
layer {
  name: "inception_4a/3x3_reduce"
  type: "Convolution"
  bottom: "pool3/3x3_s2"
  top: "inception_4a/3x3_reduce"
  param {
    lr_mult: 1
    decay_mult: 1
  }
  param {
    lr_mult: 2
    decay_mult: 0
  }
  convolution_param {
    num_output: 96
    kernel_size: 1
    weight_filler {
      type: "xavier"
      std: 0.09
    }
    bias_filler {
      type: "constant"
      value: 0.2
    }
  }
}
layer {
  name: "inception_4a/relu_3x3_reduce"
  type: "ReLU"
  bottom: "inception_4a/3x3_reduce"
  top: "inception_4a/3x3_reduce"
}
layer {
  name: "inception_4a/3x3"
  type: "Convolution"
  bottom: "inception_4a/3x3_reduce"
  top: "inception_4a/3x3"
  param {
    lr_mult: 1
    decay_mult: 1
  }
  param {
    lr_mult: 2
    decay_mult: 0
  }
  convolution_param {
    num_output: 208
    pad: 1
    kernel_size: 3
    weight_filler {
      type: "xavier"
      std: 0.03
    }
    bias_filler {
      type: "constant"
      value: 0.2
    }
  }
}
layer {
  name: "inception_4a/relu_3x3"
  type: "ReLU"
  bottom: "inception_4a/3x3"
  top: "inception_4a/3x3"
}
layer {
  name: "inception_4a/5x5_reduce"
  type: "Convolution"
  bottom: "pool3/3x3_s2"
  top: "inception_4a/5x5_reduce"
  param {
    lr_mult: 1
    decay_mult: 1
  }
  param {
    lr_mult: 2
    decay_mult: 0
  }
  convolution_param {
    num_output: 16
    kernel_size: 1
    weight_filler {
      type: "xavier"
      std: 0.2
    }
    bias_filler {
      type: "constant"
      value: 0.2
    }
  }
}
layer {
  name: "inception_4a/relu_5x5_reduce"
  type: "ReLU"
  bottom: "inception_4a/5x5_reduce"
  top: "inception_4a/5x5_reduce"
}
layer {
  name: "inception_4a/5x5"
  type: "Convolution"
  bottom: "inception_4a/5x5_reduce"
  top: "inception_4a/5x5"
  param {
    lr_mult: 1
    decay_mult: 1
  }
  param {
    lr_mult: 2
    decay_mult: 0
  }
  convolution_param {
    num_output: 48
    pad: 2
    kernel_size: 5
    weight_filler {
      type: "xavier"
      std: 0.03
    }
    bias_filler {
      type: "constant"
      value: 0.2
    }
  }
}
layer {
  name: "inception_4a/relu_5x5"
  type: "ReLU"
  bottom: "inception_4a/5x5"
  top: "inception_4a/5x5"
}
layer {
  name: "inception_4a/pool"
  type: "Pooling"
  bottom: "pool3/3x3_s2"
  top: "inception_4a/pool"
  pooling_param {
    pool: MAX
    kernel_size: 3
    stride: 1
    pad: 1
  }
}
layer {
  name: "inception_4a/pool_proj"
  type: "Convolution"
  bottom: "inception_4a/pool"
  top: "inception_4a/pool_proj"
  param {
    lr_mult: 1
    decay_mult: 1
  }
  param {
    lr_mult: 2
    decay_mult: 0
  }
  convolution_param {
    num_output: 64
    kernel_size: 1
    weight_filler {
      type: "xavier"
      std: 0.1
    }
    bias_filler {
      type: "constant"
      value: 0.2
    }
  }
}
layer {
  name: "inception_4a/relu_pool_proj"
  type: "ReLU"
  bottom: "inception_4a/pool_proj"
  top: "inception_4a/pool_proj"
}
layer {
  name: "inception_4a/output"
  type: "Concat"
  bottom: "inception_4a/1x1"
  bottom: "inception_4a/3x3"
  bottom: "inception_4a/5x5"
  bottom: "inception_4a/pool_proj"
  top: "inception_4a/output"
}
layer {
  name: "loss1/ave_pool"
  type: "Pooling"
  bottom: "inception_4a/output"
  top: "loss1/ave_pool"
  pooling_param {
    pool: AVE
    kernel_size: 5
    stride: 3
  }
}
layer {
  name: "loss1/conv"
  type: "Convolution"
  bottom: "loss1/ave_pool"
  top: "loss1/conv"
  param {
    lr_mult: 1
    decay_mult: 1
  }
  param {
    lr_mult: 2
    decay_mult: 0
  }
  convolution_param {
    num_output: 128
    kernel_size: 1
    weight_filler {
      type: "xavier"
      std: 0.08
    }
    bias_filler {
      type: "constant"
      value: 0.2
    }
  }
}
layer {
  name: "loss1/relu_conv"
  type: "ReLU"
  bottom: "loss1/conv"
  top: "loss1/conv"
}
layer {
  name: "loss1/fc"
  type: "InnerProduct"
  bottom: "loss1/conv"
  top: "loss1/fc"
  param {
    lr_mult: 1
    decay_mult: 1
  }
  param {
    lr_mult: 2
    decay_mult: 0
  }
  inner_product_param {
    num_output: 1024
    weight_filler {
      type: "xavier"
      std: 0.02
    }
    bias_filler {
      type: "constant"
      value: 0.2
    }
  }
}
layer {
  name: "loss1/relu_fc"
  type: "ReLU"
  bottom: "loss1/fc"
  top: "loss1/fc"
}
layer {
  name: "loss1/drop_fc"
  type: "Dropout"
  bottom: "loss1/fc"
  top: "loss1/fc"
  dropout_param {
    dropout_ratio: 0.7
  }
}
layer {
  name: "loss1/classifier_plantvillage"
  type: "InnerProduct"
  bottom: "loss1/fc"
  top: "loss1/classifier_plantvillage"
  param {
    lr_mult: 1
    decay_mult: 1
  }
  param {
    lr_mult: 2
    decay_mult: 0
  }
  inner_product_param {
    num_output: 38
    weight_filler {
      type: "xavier"
      std: 0.0009765625
    }
    bias_filler {
      type: "constant"
      value: 0
    }
  }
}
layer {
  name: "inception_4b/1x1"
  type: "Convolution"
  bottom: "inception_4a/output"
  top: "inception_4b/1x1"
  param {
    lr_mult: 1
    decay_mult: 1
  }
  param {
    lr_mult: 2
    decay_mult: 0
  }
  convolution_param {
    num_output: 160
    kernel_size: 1
    weight_filler {
      type: "xavier"
      std: 0.03
    }
    bias_filler {
      type: "constant"
      value: 0.2
    }
  }
}
layer {
  name: "inception_4b/relu_1x1"
  type: "ReLU"
  bottom: "inception_4b/1x1"
  top: "inception_4b/1x1"
}
layer {
  name: "inception_4b/3x3_reduce"
  type: "Convolution"
  bottom: "inception_4a/output"
  top: "inception_4b/3x3_reduce"
  param {
    lr_mult: 1
    decay_mult: 1
  }
  param {
    lr_mult: 2
    decay_mult: 0
  }
  convolution_param {
    num_output: 112
    kernel_size: 1
    weight_filler {
      type: "xavier"
      std: 0.09
    }
    bias_filler {
      type: "constant"
      value: 0.2
    }
  }
}
layer {
  name: "inception_4b/relu_3x3_reduce"
  type: "ReLU"
  bottom: "inception_4b/3x3_reduce"
  top: "inception_4b/3x3_reduce"
}
layer {
  name: "inception_4b/3x3"
  type: "Convolution"
  bottom: "inception_4b/3x3_reduce"
  top: "inception_4b/3x3"
  param {
    lr_mult: 1
    decay_mult: 1
  }
  param {
    lr_mult: 2
    decay_mult: 0
  }
  convolution_param {
    num_output: 224
    pad: 1
    kernel_size: 3
    weight_filler {
      type: "xavier"
      std: 0.03
    }
    bias_filler {
      type: "constant"
      value: 0.2
    }
  }
}
layer {
  name: "inception_4b/relu_3x3"
  type: "ReLU"
  bottom: "inception_4b/3x3"
  top: "inception_4b/3x3"
}
layer {
  name: "inception_4b/5x5_reduce"
  type: "Convolution"
  bottom: "inception_4a/output"
  top: "inception_4b/5x5_reduce"
  param {
    lr_mult: 1
    decay_mult: 1
  }
  param {
    lr_mult: 2
    decay_mult: 0
  }
  convolution_param {
    num_output: 24
    kernel_size: 1
    weight_filler {
      type: "xavier"
      std: 0.2
    }
    bias_filler {
      type: "constant"
      value: 0.2
    }
  }
}
layer {
  name: "inception_4b/relu_5x5_reduce"
  type: "ReLU"
  bottom: "inception_4b/5x5_reduce"
  top: "inception_4b/5x5_reduce"
}
layer {
  name: "inception_4b/5x5"
  type: "Convolution"
  bottom: "inception_4b/5x5_reduce"
  top: "inception_4b/5x5"
  param {
    lr_mult: 1
    decay_mult: 1
  }
  param {
    lr_mult: 2
    decay_mult: 0
  }
  convolution_param {
    num_output: 64
    pad: 2
    kernel_size: 5
    weight_filler {
      type: "xavier"
      std: 0.03
    }
    bias_filler {
      type: "constant"
      value: 0.2
    }
  }
}
layer {
  name: "inception_4b/relu_5x5"
  type: "ReLU"
  bottom: "inception_4b/5x5"
  top: "inception_4b/5x5"
}
layer {
  name: "inception_4b/pool"
  type: "Pooling"
  bottom: "inception_4a/output"
  top: "inception_4b/pool"
  pooling_param {
    pool: MAX
    kernel_size: 3
    stride: 1
    pad: 1
  }
}
layer {
  name: "inception_4b/pool_proj"
  type: "Convolution"
  bottom: "inception_4b/pool"
  top: "inception_4b/pool_proj"
  param {
    lr_mult: 1
    decay_mult: 1
  }
  param {
    lr_mult: 2
    decay_mult: 0
  }
  convolution_param {
    num_output: 64
    kernel_size: 1
    weight_filler {
      type: "xavier"
      std: 0.1
    }
    bias_filler {
      type: "constant"
      value: 0.2
    }
  }
}
layer {
  name: "inception_4b/relu_pool_proj"
  type: "ReLU"
  bottom: "inception_4b/pool_proj"
  top: "inception_4b/pool_proj"
}
layer {
  name: "inception_4b/output"
  type: "Concat"
  bottom: "inception_4b/1x1"
  bottom: "inception_4b/3x3"
  bottom: "inception_4b/5x5"
  bottom: "inception_4b/pool_proj"
  top: "inception_4b/output"
}
layer {
  name: "inception_4c/1x1"
  type: "Convolution"
  bottom: "inception_4b/output"
  top: "inception_4c/1x1"
  param {
    lr_mult: 1
    decay_mult: 1
  }
  param {
    lr_mult: 2
    decay_mult: 0
  }
  convolution_param {
    num_output: 128
    kernel_size: 1
    weight_filler {
      type: "xavier"
      std: 0.03
    }
    bias_filler {
      type: "constant"
      value: 0.2
    }
  }
}
layer {
  name: "inception_4c/relu_1x1"
  type: "ReLU"
  bottom: "inception_4c/1x1"
  top: "inception_4c/1x1"
}
layer {
  name: "inception_4c/3x3_reduce"
  type: "Convolution"
  bottom: "inception_4b/output"
  top: "inception_4c/3x3_reduce"
  param {
    lr_mult: 1
    decay_mult: 1
  }
  param {
    lr_mult: 2
    decay_mult: 0
  }
  convolution_param {
    num_output: 128
    kernel_size: 1
    weight_filler {
      type: "xavier"
      std: 0.09
    }
    bias_filler {
      type: "constant"
      value: 0.2
    }
  }
}
layer {
  name: "inception_4c/relu_3x3_reduce"
  type: "ReLU"
  bottom: "inception_4c/3x3_reduce"
  top: "inception_4c/3x3_reduce"
}
layer {
  name: "inception_4c/3x3"
  type: "Convolution"
  bottom: "inception_4c/3x3_reduce"
  top: "inception_4c/3x3"
  param {
    lr_mult: 1
    decay_mult: 1
  }
  param {
    lr_mult: 2
    decay_mult: 0
  }
  convolution_param {
    num_output: 256
    pad: 1
    kernel_size: 3
    weight_filler {
      type: "xavier"
      std: 0.03
    }
    bias_filler {
      type: "constant"
      value: 0.2
    }
  }
}
layer {
  name: "inception_4c/relu_3x3"
  type: "ReLU"
  bottom: "inception_4c/3x3"
  top: "inception_4c/3x3"
}
layer {
  name: "inception_4c/5x5_reduce"
  type: "Convolution"
  bottom: "inception_4b/output"
  top: "inception_4c/5x5_reduce"
  param {
    lr_mult: 1
    decay_mult: 1
  }
  param {
    lr_mult: 2
    decay_mult: 0
  }
  convolution_param {
    num_output: 24
    kernel_size: 1
    weight_filler {
      type: "xavier"
      std: 0.2
    }
    bias_filler {
      type: "constant"
      value: 0.2
    }
  }
}
layer {
  name: "inception_4c/relu_5x5_reduce"
  type: "ReLU"
  bottom: "inception_4c/5x5_reduce"
  top: "inception_4c/5x5_reduce"
}
layer {
  name: "inception_4c/5x5"
  type: "Convolution"
  bottom: "inception_4c/5x5_reduce"
  top: "inception_4c/5x5"
  param {
    lr_mult: 1
    decay_mult: 1
  }
  param {
    lr_mult: 2
    decay_mult: 0
  }
  convolution_param {
    num_output: 64
    pad: 2
    kernel_size: 5
    weight_filler {
      type: "xavier"
      std: 0.03
    }
    bias_filler {
      type: "constant"
      value: 0.2
    }
  }
}
layer {
  name: "inception_4c/relu_5x5"
  type: "ReLU"
  bottom: "inception_4c/5x5"
  top: "inception_4c/5x5"
}
layer {
  name: "inception_4c/pool"
  type: "Pooling"
  bottom: "inception_4b/output"
  top: "inception_4c/pool"
  pooling_param {
    pool: MAX
    kernel_size: 3
    stride: 1
    pad: 1
  }
}
layer {
  name: "inception_4c/pool_proj"
  type: "Convolution"
  bottom: "inception_4c/pool"
  top: "inception_4c/pool_proj"
  param {
    lr_mult: 1
    decay_mult: 1
  }
  param {
    lr_mult: 2
    decay_mult: 0
  }
  convolution_param {
    num_output: 64
    kernel_size: 1
    weight_filler {
      type: "xavier"
      std: 0.1
    }
    bias_filler {
      type: "constant"
      value: 0.2
    }
  }
}
layer {
  name: "inception_4c/relu_pool_proj"
  type: "ReLU"
  bottom: "inception_4c/pool_proj"
  top: "inception_4c/pool_proj"
}
layer {
  name: "inception_4c/output"
  type: "Concat"
  bottom: "inception_4c/1x1"
  bottom: "inception_4c/3x3"
  bottom: "inception_4c/5x5"
  bottom: "inception_4c/pool_proj"
  top: "inception_4c/output"
}
layer {
  name: "inception_4d/1x1"
  type: "Convolution"
  bottom: "inception_4c/output"
  top: "inception_4d/1x1"
  param {
    lr_mult: 1
    decay_mult: 1
  }
  param {
    lr_mult: 2
    decay_mult: 0
  }
  convolution_param {
    num_output: 112
    kernel_size: 1
    weight_filler {
      type: "xavier"
      std: 0.03
    }
    bias_filler {
      type: "constant"
      value: 0.2
    }
  }
}
layer {
  name: "inception_4d/relu_1x1"
  type: "ReLU"
  bottom: "inception_4d/1x1"
  top: "inception_4d/1x1"
}
layer {
  name: "inception_4d/3x3_reduce"
  type: "Convolution"
  bottom: "inception_4c/output"
  top: "inception_4d/3x3_reduce"
  param {
    lr_mult: 1
    decay_mult: 1
  }
  param {
    lr_mult: 2
    decay_mult: 0
  }
  convolution_param {
    num_output: 144
    kernel_size: 1
    weight_filler {
      type: "xavier"
      std: 0.09
    }
    bias_filler {
      type: "constant"
      value: 0.2
    }
  }
}
layer {
  name: "inception_4d/relu_3x3_reduce"
  type: "ReLU"
  bottom: "inception_4d/3x3_reduce"
  top: "inception_4d/3x3_reduce"
}
layer {
  name: "inception_4d/3x3"
  type: "Convolution"
  bottom: "inception_4d/3x3_reduce"
  top: "inception_4d/3x3"
  param {
    lr_mult: 1
    decay_mult: 1
  }
  param {
    lr_mult: 2
    decay_mult: 0
  }
  convolution_param {
    num_output: 288
    pad: 1
    kernel_size: 3
    weight_filler {
      type: "xavier"
      std: 0.03
    }
    bias_filler {
      type: "constant"
      value: 0.2
    }
  }
}
layer {
  name: "inception_4d/relu_3x3"
  type: "ReLU"
  bottom: "inception_4d/3x3"
  top: "inception_4d/3x3"
}
layer {
  name: "inception_4d/5x5_reduce"
  type: "Convolution"
  bottom: "inception_4c/output"
  top: "inception_4d/5x5_reduce"
  param {
    lr_mult: 1
    decay_mult: 1
  }
  param {
    lr_mult: 2
    decay_mult: 0
  }
  convolution_param {
    num_output: 32
    kernel_size: 1
    weight_filler {
      type: "xavier"
      std: 0.2
    }
    bias_filler {
      type: "constant"
      value: 0.2
    }
  }
}
layer {
  name: "inception_4d/relu_5x5_reduce"
  type: "ReLU"
  bottom: "inception_4d/5x5_reduce"
  top: "inception_4d/5x5_reduce"
}
layer {
  name: "inception_4d/5x5"
  type: "Convolution"
  bottom: "inception_4d/5x5_reduce"
  top: "inception_4d/5x5"
  param {
    lr_mult: 1
    decay_mult: 1
  }
  param {
    lr_mult: 2
    decay_mult: 0
  }
  convolution_param {
    num_output: 64
    pad: 2
    kernel_size: 5
    weight_filler {
      type: "xavier"
      std: 0.03
    }
    bias_filler {
      type: "constant"
      value: 0.2
    }
  }
}
layer {
  name: "inception_4d/relu_5x5"
  type: "ReLU"
  bottom: "inception_4d/5x5"
  top: "inception_4d/5x5"
}
layer {
  name: "inception_4d/pool"
  type: "Pooling"
  bottom: "inception_4c/output"
  top: "inception_4d/pool"
  pooling_param {
    pool: MAX
    kernel_size: 3
    stride: 1
    pad: 1
  }
}
layer {
  name: "inception_4d/pool_proj"
  type: "Convolution"
  bottom: "inception_4d/pool"
  top: "inception_4d/pool_proj"
  param {
    lr_mult: 1
    decay_mult: 1
  }
  param {
    lr_mult: 2
    decay_mult: 0
  }
  convolution_param {
    num_output: 64
    kernel_size: 1
    weight_filler {
      type: "xavier"
      std: 0.1
    }
    bias_filler {
      type: "constant"
      value: 0.2
    }
  }
}
layer {
  name: "inception_4d/relu_pool_proj"
  type: "ReLU"
  bottom: "inception_4d/pool_proj"
  top: "inception_4d/pool_proj"
}
layer {
  name: "inception_4d/output"
  type: "Concat"
  bottom: "inception_4d/1x1"
  bottom: "inception_4d/3x3"
  bottom: "inception_4d/5x5"
  bottom: "inception_4d/pool_proj"
  top: "inception_4d/output"
}
layer {
  name: "loss2/ave_pool"
  type: "Pooling"
  bottom: "inception_4d/output"
  top: "loss2/ave_pool"
  pooling_param {
    pool: AVE
    kernel_size: 5
    stride: 3
  }
}
layer {
  name: "loss2/conv"
  type: "Convolution"
  bottom: "loss2/ave_pool"
  top: "loss2/conv"
  param {
    lr_mult: 1
    decay_mult: 1
  }
  param {
    lr_mult: 2
    decay_mult: 0
  }
  convolution_param {
    num_output: 128
    kernel_size: 1
    weight_filler {
      type: "xavier"
      std: 0.08
    }
    bias_filler {
      type: "constant"
      value: 0.2
    }
  }
}
layer {
  name: "loss2/relu_conv"
  type: "ReLU"
  bottom: "loss2/conv"
  top: "loss2/conv"
}
layer {
  name: "loss2/fc"
  type: "InnerProduct"
  bottom: "loss2/conv"
  top: "loss2/fc"
  param {
    lr_mult: 1
    decay_mult: 1
  }
  param {
    lr_mult: 2
    decay_mult: 0
  }
  inner_product_param {
    num_output: 1024
    weight_filler {
      type: "xavier"
      std: 0.02
    }
    bias_filler {
      type: "constant"
      value: 0.2
    }
  }
}
layer {
  name: "loss2/relu_fc"
  type: "ReLU"
  bottom: "loss2/fc"
  top: "loss2/fc"
}
layer {
  name: "loss2/drop_fc"
  type: "Dropout"
  bottom: "loss2/fc"
  top: "loss2/fc"
  dropout_param {
    dropout_ratio: 0.7
  }
}
layer {
  name: "loss2/classifier_plantvillage"
  type: "InnerProduct"
  bottom: "loss2/fc"
  top: "loss2/classifier_plantvillage"
  param {
    lr_mult: 1
    decay_mult: 1
  }
  param {
    lr_mult: 2
    decay_mult: 0
  }
  inner_product_param {
    num_output: 38
    weight_filler {
      type: "xavier"
      std: 0.0009765625
    }
    bias_filler {
      type: "constant"
      value: 0
    }
  }
}
layer {
  name: "inception_4e/1x1"
  type: "Convolution"
  bottom: "inception_4d/output"
  top: "inception_4e/1x1"
  param {
    lr_mult: 1
    decay_mult: 1
  }
  param {
    lr_mult: 2
    decay_mult: 0
  }
  convolution_param {
    num_output: 256
    kernel_size: 1
    weight_filler {
      type: "xavier"
      std: 0.03
    }
    bias_filler {
      type: "constant"
      value: 0.2
    }
  }
}
layer {
  name: "inception_4e/relu_1x1"
  type: "ReLU"
  bottom: "inception_4e/1x1"
  top: "inception_4e/1x1"
}
layer {
  name: "inception_4e/3x3_reduce"
  type: "Convolution"
  bottom: "inception_4d/output"
  top: "inception_4e/3x3_reduce"
  param {
    lr_mult: 1
    decay_mult: 1
  }
  param {
    lr_mult: 2
    decay_mult: 0
  }
  convolution_param {
    num_output: 160
    kernel_size: 1
    weight_filler {
      type: "xavier"
      std: 0.09
    }
    bias_filler {
      type: "constant"
      value: 0.2
    }
  }
}
layer {
  name: "inception_4e/relu_3x3_reduce"
  type: "ReLU"
  bottom: "inception_4e/3x3_reduce"
  top: "inception_4e/3x3_reduce"
}
layer {
  name: "inception_4e/3x3"
  type: "Convolution"
  bottom: "inception_4e/3x3_reduce"
  top: "inception_4e/3x3"
  param {
    lr_mult: 1
    decay_mult: 1
  }
  param {
    lr_mult: 2
    decay_mult: 0
  }
  convolution_param {
    num_output: 320
    pad: 1
    kernel_size: 3
    weight_filler {
      type: "xavier"
      std: 0.03
    }
    bias_filler {
      type: "constant"
      value: 0.2
    }
  }
}
layer {
  name: "inception_4e/relu_3x3"
  type: "ReLU"
  bottom: "inception_4e/3x3"
  top: "inception_4e/3x3"
}
layer {
  name: "inception_4e/5x5_reduce"
  type: "Convolution"
  bottom: "inception_4d/output"
  top: "inception_4e/5x5_reduce"
  param {
    lr_mult: 1
    decay_mult: 1
  }
  param {
    lr_mult: 2
    decay_mult: 0
  }
  convolution_param {
    num_output: 32
    kernel_size: 1
    weight_filler {
      type: "xavier"
      std: 0.2
    }
    bias_filler {
      type: "constant"
      value: 0.2
    }
  }
}
layer {
  name: "inception_4e/relu_5x5_reduce"
  type: "ReLU"
  bottom: "inception_4e/5x5_reduce"
  top: "inception_4e/5x5_reduce"
}
layer {
  name: "inception_4e/5x5"
  type: "Convolution"
  bottom: "inception_4e/5x5_reduce"
  top: "inception_4e/
I0403 19:26:58.637433  9255 layer_factory.hpp:77] Creating layer data
I0403 19:26:58.638052  9255 net.cpp:91] Creating Layer data
I0403 19:26:58.638089  9255 net.cpp:399] data -> data
I0403 19:26:58.638151  9255 net.cpp:399] data -> label
I0403 19:26:58.638190  9255 data_transformer.cpp:25] Loading mean file from: /home/mohanty/data/final_dataset/lmdb/grayscale-50-50/mean.binaryproto
I0403 19:26:58.639310  9257 db_lmdb.cpp:38] Opened lmdb /home/mohanty/data/final_dataset/lmdb/grayscale-50-50/test_db
I0403 19:26:58.651455  9255 data_layer.cpp:41] output data size: 24,3,224,224
I0403 19:26:58.678812  9255 net.cpp:141] Setting up data
I0403 19:26:58.678901  9255 net.cpp:148] Top shape: 24 3 224 224 (3612672)
I0403 19:26:58.678923  9255 net.cpp:148] Top shape: 24 (24)
I0403 19:26:58.678938  9255 net.cpp:156] Memory required for data: 14450784
I0403 19:26:58.678964  9255 layer_factory.hpp:77] Creating layer label_data_1_split
I0403 19:26:58.678992  9255 net.cpp:91] Creating Layer label_data_1_split
I0403 19:26:58.679009  9255 net.cpp:425] label_data_1_split <- label
I0403 19:26:58.679039  9255 net.cpp:399] label_data_1_split -> label_data_1_split_0
I0403 19:26:58.679066  9255 net.cpp:399] label_data_1_split -> label_data_1_split_1
I0403 19:26:58.679087  9255 net.cpp:399] label_data_1_split -> label_data_1_split_2
I0403 19:26:58.679108  9255 net.cpp:399] label_data_1_split -> label_data_1_split_3
I0403 19:26:58.679127  9255 net.cpp:399] label_data_1_split -> label_data_1_split_4
I0403 19:26:58.679147  9255 net.cpp:399] label_data_1_split -> label_data_1_split_5
I0403 19:26:58.679165  9255 net.cpp:399] label_data_1_split -> label_data_1_split_6
I0403 19:26:58.679186  9255 net.cpp:399] label_data_1_split -> label_data_1_split_7
I0403 19:26:58.679205  9255 net.cpp:399] label_data_1_split -> label_data_1_split_8
I0403 19:26:58.679256  9255 net.cpp:399] label_data_1_split -> label_data_1_split_9
I0403 19:26:58.679376  9255 net.cpp:141] Setting up label_data_1_split
I0403 19:26:58.679401  9255 net.cpp:148] Top shape: 24 (24)
I0403 19:26:58.679419  9255 net.cpp:148] Top shape: 24 (24)
I0403 19:26:58.679436  9255 net.cpp:148] Top shape: 24 (24)
I0403 19:26:58.679453  9255 net.cpp:148] Top shape: 24 (24)
I0403 19:26:58.679469  9255 net.cpp:148] Top shape: 24 (24)
I0403 19:26:58.679486  9255 net.cpp:148] Top shape: 24 (24)
I0403 19:26:58.679502  9255 net.cpp:148] Top shape: 24 (24)
I0403 19:26:58.679517  9255 net.cpp:148] Top shape: 24 (24)
I0403 19:26:58.679545  9255 net.cpp:148] Top shape: 24 (24)
I0403 19:26:58.679561  9255 net.cpp:148] Top shape: 24 (24)
I0403 19:26:58.679605  9255 net.cpp:156] Memory required for data: 14451744
I0403 19:26:58.679621  9255 layer_factory.hpp:77] Creating layer conv1/7x7_s2
I0403 19:26:58.679652  9255 net.cpp:91] Creating Layer conv1/7x7_s2
I0403 19:26:58.679671  9255 net.cpp:425] conv1/7x7_s2 <- data
I0403 19:26:58.679689  9255 net.cpp:399] conv1/7x7_s2 -> conv1/7x7_s2
I0403 19:26:58.819746  9255 net.cpp:141] Setting up conv1/7x7_s2
I0403 19:26:58.819823  9255 net.cpp:148] Top shape: 24 64 112 112 (19267584)
I0403 19:26:58.819840  9255 net.cpp:156] Memory required for data: 91522080
I0403 19:26:58.819872  9255 layer_factory.hpp:77] Creating layer conv1/relu_7x7
I0403 19:26:58.819900  9255 net.cpp:91] Creating Layer conv1/relu_7x7
I0403 19:26:58.819918  9255 net.cpp:425] conv1/relu_7x7 <- conv1/7x7_s2
I0403 19:26:58.819939  9255 net.cpp:386] conv1/relu_7x7 -> conv1/7x7_s2 (in-place)
I0403 19:26:58.820215  9255 net.cpp:141] Setting up conv1/relu_7x7
I0403 19:26:58.820255  9255 net.cpp:148] Top shape: 24 64 112 112 (19267584)
I0403 19:26:58.820273  9255 net.cpp:156] Memory required for data: 168592416
I0403 19:26:58.820291  9255 layer_factory.hpp:77] Creating layer pool1/3x3_s2
I0403 19:26:58.820323  9255 net.cpp:91] Creating Layer pool1/3x3_s2
I0403 19:26:58.820349  9255 net.cpp:425] pool1/3x3_s2 <- conv1/7x7_s2
I0403 19:26:58.820374  9255 net.cpp:399] pool1/3x3_s2 -> pool1/3x3_s2
I0403 19:26:58.820451  9255 net.cpp:141] Setting up pool1/3x3_s2
I0403 19:26:58.820479  9255 net.cpp:148] Top shape: 24 64 56 56 (4816896)
I0403 19:26:58.820497  9255 net.cpp:156] Memory required for data: 187860000
I0403 19:26:58.820513  9255 layer_factory.hpp:77] Creating layer pool1/norm1
I0403 19:26:58.820538  9255 net.cpp:91] Creating Layer pool1/norm1
I0403 19:26:58.820556  9255 net.cpp:425] pool1/norm1 <- pool1/3x3_s2
I0403 19:26:58.820575  9255 net.cpp:399] pool1/norm1 -> pool1/norm1
I0403 19:26:58.820889  9255 net.cpp:141] Setting up pool1/norm1
I0403 19:26:58.820919  9255 net.cpp:148] Top shape: 24 64 56 56 (4816896)
I0403 19:26:58.820935  9255 net.cpp:156] Memory required for data: 207127584
I0403 19:26:58.820953  9255 layer_factory.hpp:77] Creating layer conv2/3x3_reduce
I0403 19:26:58.820982  9255 net.cpp:91] Creating Layer conv2/3x3_reduce
I0403 19:26:58.820999  9255 net.cpp:425] conv2/3x3_reduce <- pool1/norm1
I0403 19:26:58.821020  9255 net.cpp:399] conv2/3x3_reduce -> conv2/3x3_reduce
I0403 19:26:58.822432  9255 net.cpp:141] Setting up conv2/3x3_reduce
I0403 19:26:58.822463  9255 net.cpp:148] Top shape: 24 64 56 56 (4816896)
I0403 19:26:58.822480  9255 net.cpp:156] Memory required for data: 226395168
I0403 19:26:58.822502  9255 layer_factory.hpp:77] Creating layer conv2/relu_3x3_reduce
I0403 19:26:58.822523  9255 net.cpp:91] Creating Layer conv2/relu_3x3_reduce
I0403 19:26:58.822540  9255 net.cpp:425] conv2/relu_3x3_reduce <- conv2/3x3_reduce
I0403 19:26:58.822558  9255 net.cpp:386] conv2/relu_3x3_reduce -> conv2/3x3_reduce (in-place)
I0403 19:26:58.822825  9255 net.cpp:141] Setting up conv2/relu_3x3_reduce
I0403 19:26:58.822854  9255 net.cpp:148] Top shape: 24 64 56 56 (4816896)
I0403 19:26:58.822870  9255 net.cpp:156] Memory required for data: 245662752
I0403 19:26:58.822886  9255 layer_factory.hpp:77] Creating layer conv2/3x3
I0403 19:26:58.822916  9255 net.cpp:91] Creating Layer conv2/3x3
I0403 19:26:58.822934  9255 net.cpp:425] conv2/3x3 <- conv2/3x3_reduce
I0403 19:26:58.822957  9255 net.cpp:399] conv2/3x3 -> conv2/3x3
I0403 19:26:58.825323  9255 net.cpp:141] Setting up conv2/3x3
I0403 19:26:58.825356  9255 net.cpp:148] Top shape: 24 192 56 56 (14450688)
I0403 19:26:58.825374  9255 net.cpp:156] Memory required for data: 303465504
I0403 19:26:58.825397  9255 layer_factory.hpp:77] Creating layer conv2/relu_3x3
I0403 19:26:58.825418  9255 net.cpp:91] Creating Layer conv2/relu_3x3
I0403 19:26:58.825436  9255 net.cpp:425] conv2/relu_3x3 <- conv2/3x3
I0403 19:26:58.825455  9255 net.cpp:386] conv2/relu_3x3 -> conv2/3x3 (in-place)
I0403 19:26:58.825623  9255 net.cpp:141] Setting up conv2/relu_3x3
I0403 19:26:58.825650  9255 net.cpp:148] Top shape: 24 192 56 56 (14450688)
I0403 19:26:58.825697  9255 net.cpp:156] Memory required for data: 361268256
I0403 19:26:58.825714  9255 layer_factory.hpp:77] Creating layer conv2/norm2
I0403 19:26:58.825734  9255 net.cpp:91] Creating Layer conv2/norm2
I0403 19:26:58.825752  9255 net.cpp:425] conv2/norm2 <- conv2/3x3
I0403 19:26:58.825769  9255 net.cpp:399] conv2/norm2 -> conv2/norm2
I0403 19:26:58.826067  9255 net.cpp:141] Setting up conv2/norm2
I0403 19:26:58.826095  9255 net.cpp:148] Top shape: 24 192 56 56 (14450688)
I0403 19:26:58.826112  9255 net.cpp:156] Memory required for data: 419071008
I0403 19:26:58.826128  9255 layer_factory.hpp:77] Creating layer pool2/3x3_s2
I0403 19:26:58.826146  9255 net.cpp:91] Creating Layer pool2/3x3_s2
I0403 19:26:58.826164  9255 net.cpp:425] pool2/3x3_s2 <- conv2/norm2
I0403 19:26:58.826187  9255 net.cpp:399] pool2/3x3_s2 -> pool2/3x3_s2
I0403 19:26:58.826241  9255 net.cpp:141] Setting up pool2/3x3_s2
I0403 19:26:58.826266  9255 net.cpp:148] Top shape: 24 192 28 28 (3612672)
I0403 19:26:58.826280  9255 net.cpp:156] Memory required for data: 433521696
I0403 19:26:58.826297  9255 layer_factory.hpp:77] Creating layer pool2/3x3_s2_pool2/3x3_s2_0_split
I0403 19:26:58.826314  9255 net.cpp:91] Creating Layer pool2/3x3_s2_pool2/3x3_s2_0_split
I0403 19:26:58.826330  9255 net.cpp:425] pool2/3x3_s2_pool2/3x3_s2_0_split <- pool2/3x3_s2
I0403 19:26:58.826349  9255 net.cpp:399] pool2/3x3_s2_pool2/3x3_s2_0_split -> pool2/3x3_s2_pool2/3x3_s2_0_split_0
I0403 19:26:58.826370  9255 net.cpp:399] pool2/3x3_s2_pool2/3x3_s2_0_split -> pool2/3x3_s2_pool2/3x3_s2_0_split_1
I0403 19:26:58.826390  9255 net.cpp:399] pool2/3x3_s2_pool2/3x3_s2_0_split -> pool2/3x3_s2_pool2/3x3_s2_0_split_2
I0403 19:26:58.826411  9255 net.cpp:399] pool2/3x3_s2_pool2/3x3_s2_0_split -> pool2/3x3_s2_pool2/3x3_s2_0_split_3
I0403 19:26:58.826480  9255 net.cpp:141] Setting up pool2/3x3_s2_pool2/3x3_s2_0_split
I0403 19:26:58.826506  9255 net.cpp:148] Top shape: 24 192 28 28 (3612672)
I0403 19:26:58.826525  9255 net.cpp:148] Top shape: 24 192 28 28 (3612672)
I0403 19:26:58.826542  9255 net.cpp:148] Top shape: 24 192 28 28 (3612672)
I0403 19:26:58.826560  9255 net.cpp:148] Top shape: 24 192 28 28 (3612672)
I0403 19:26:58.826573  9255 net.cpp:156] Memory required for data: 491324448
I0403 19:26:58.826591  9255 layer_factory.hpp:77] Creating layer inception_3a/1x1
I0403 19:26:58.826612  9255 net.cpp:91] Creating Layer inception_3a/1x1
I0403 19:26:58.826629  9255 net.cpp:425] inception_3a/1x1 <- pool2/3x3_s2_pool2/3x3_s2_0_split_0
I0403 19:26:58.826652  9255 net.cpp:399] inception_3a/1x1 -> inception_3a/1x1
I0403 19:26:58.828218  9255 net.cpp:141] Setting up inception_3a/1x1
I0403 19:26:58.828253  9255 net.cpp:148] Top shape: 24 64 28 28 (1204224)
I0403 19:26:58.828270  9255 net.cpp:156] Memory required for data: 496141344
I0403 19:26:58.828290  9255 layer_factory.hpp:77] Creating layer inception_3a/relu_1x1
I0403 19:26:58.828310  9255 net.cpp:91] Creating Layer inception_3a/relu_1x1
I0403 19:26:58.828326  9255 net.cpp:425] inception_3a/relu_1x1 <- inception_3a/1x1
I0403 19:26:58.828344  9255 net.cpp:386] inception_3a/relu_1x1 -> inception_3a/1x1 (in-place)
I0403 19:26:58.828531  9255 net.cpp:141] Setting up inception_3a/relu_1x1
I0403 19:26:58.828557  9255 net.cpp:148] Top shape: 24 64 28 28 (1204224)
I0403 19:26:58.828573  9255 net.cpp:156] Memory required for data: 500958240
I0403 19:26:58.828589  9255 layer_factory.hpp:77] Creating layer inception_3a/3x3_reduce
I0403 19:26:58.828613  9255 net.cpp:91] Creating Layer inception_3a/3x3_reduce
I0403 19:26:58.828631  9255 net.cpp:425] inception_3a/3x3_reduce <- pool2/3x3_s2_pool2/3x3_s2_0_split_1
I0403 19:26:58.828655  9255 net.cpp:399] inception_3a/3x3_reduce -> inception_3a/3x3_reduce
I0403 19:26:58.830442  9255 net.cpp:141] Setting up inception_3a/3x3_reduce
I0403 19:26:58.830476  9255 net.cpp:148] Top shape: 24 96 28 28 (1806336)
I0403 19:26:58.830493  9255 net.cpp:156] Memory required for data: 508183584
I0403 19:26:58.830516  9255 layer_factory.hpp:77] Creating layer inception_3a/relu_3x3_reduce
I0403 19:26:58.830557  9255 net.cpp:91] Creating Layer inception_3a/relu_3x3_reduce
I0403 19:26:58.830579  9255 net.cpp:425] inception_3a/relu_3x3_reduce <- inception_3a/3x3_reduce
I0403 19:26:58.830600  9255 net.cpp:386] inception_3a/relu_3x3_reduce -> inception_3a/3x3_reduce (in-place)
I0403 19:26:58.830788  9255 net.cpp:141] Setting up inception_3a/relu_3x3_reduce
I0403 19:26:58.830816  9255 net.cpp:148] Top shape: 24 96 28 28 (1806336)
I0403 19:26:58.830832  9255 net.cpp:156] Memory required for data: 515408928
I0403 19:26:58.830847  9255 layer_factory.hpp:77] Creating layer inception_3a/3x3
I0403 19:26:58.830874  9255 net.cpp:91] Creating Layer inception_3a/3x3
I0403 19:26:58.830895  9255 net.cpp:425] inception_3a/3x3 <- inception_3a/3x3_reduce
I0403 19:26:58.830917  9255 net.cpp:399] inception_3a/3x3 -> inception_3a/3x3
I0403 19:26:58.832684  9255 net.cpp:141] Setting up inception_3a/3x3
I0403 19:26:58.832716  9255 net.cpp:148] Top shape: 24 128 28 28 (2408448)
I0403 19:26:58.832733  9255 net.cpp:156] Memory required for data: 525042720
I0403 19:26:58.832754  9255 layer_factory.hpp:77] Creating layer inception_3a/relu_3x3
I0403 19:26:58.832774  9255 net.cpp:91] Creating Layer inception_3a/relu_3x3
I0403 19:26:58.832792  9255 net.cpp:425] inception_3a/relu_3x3 <- inception_3a/3x3
I0403 19:26:58.832826  9255 net.cpp:386] inception_3a/relu_3x3 -> inception_3a/3x3 (in-place)
I0403 19:26:58.833112  9255 net.cpp:141] Setting up inception_3a/relu_3x3
I0403 19:26:58.833139  9255 net.cpp:148] Top shape: 24 128 28 28 (2408448)
I0403 19:26:58.833154  9255 net.cpp:156] Memory required for data: 534676512
I0403 19:26:58.833170  9255 layer_factory.hpp:77] Creating layer inception_3a/5x5_reduce
I0403 19:26:58.833206  9255 net.cpp:91] Creating Layer inception_3a/5x5_reduce
I0403 19:26:58.833225  9255 net.cpp:425] inception_3a/5x5_reduce <- pool2/3x3_s2_pool2/3x3_s2_0_split_2
I0403 19:26:58.833248  9255 net.cpp:399] inception_3a/5x5_reduce -> inception_3a/5x5_reduce
I0403 19:26:58.834224  9255 net.cpp:141] Setting up inception_3a/5x5_reduce
I0403 19:26:58.834254  9255 net.cpp:148] Top shape: 24 16 28 28 (301056)
I0403 19:26:58.834270  9255 net.cpp:156] Memory required for data: 535880736
I0403 19:26:58.834290  9255 layer_factory.hpp:77] Creating layer inception_3a/relu_5x5_reduce
I0403 19:26:58.834309  9255 net.cpp:91] Creating Layer inception_3a/relu_5x5_reduce
I0403 19:26:58.834326  9255 net.cpp:425] inception_3a/relu_5x5_reduce <- inception_3a/5x5_reduce
I0403 19:26:58.834347  9255 net.cpp:386] inception_3a/relu_5x5_reduce -> inception_3a/5x5_reduce (in-place)
I0403 19:26:58.834640  9255 net.cpp:141] Setting up inception_3a/relu_5x5_reduce
I0403 19:26:58.834668  9255 net.cpp:148] Top shape: 24 16 28 28 (301056)
I0403 19:26:58.834683  9255 net.cpp:156] Memory required for data: 537084960
I0403 19:26:58.834698  9255 layer_factory.hpp:77] Creating layer inception_3a/5x5
I0403 19:26:58.834722  9255 net.cpp:91] Creating Layer inception_3a/5x5
I0403 19:26:58.834739  9255 net.cpp:425] inception_3a/5x5 <- inception_3a/5x5_reduce
I0403 19:26:58.834761  9255 net.cpp:399] inception_3a/5x5 -> inception_3a/5x5
I0403 19:26:58.835791  9255 net.cpp:141] Setting up inception_3a/5x5
I0403 19:26:58.835824  9255 net.cpp:148] Top shape: 24 32 28 28 (602112)
I0403 19:26:58.835840  9255 net.cpp:156] Memory required for data: 539493408
I0403 19:26:58.835860  9255 layer_factory.hpp:77] Creating layer inception_3a/relu_5x5
I0403 19:26:58.835878  9255 net.cpp:91] Creating Layer inception_3a/relu_5x5
I0403 19:26:58.835894  9255 net.cpp:425] inception_3a/relu_5x5 <- inception_3a/5x5
I0403 19:26:58.835914  9255 net.cpp:386] inception_3a/relu_5x5 -> inception_3a/5x5 (in-place)
I0403 19:26:58.836105  9255 net.cpp:141] Setting up inception_3a/relu_5x5
I0403 19:26:58.836133  9255 net.cpp:148] Top shape: 24 32 28 28 (602112)
I0403 19:26:58.836153  9255 net.cpp:156] Memory required for data: 541901856
I0403 19:26:58.836169  9255 layer_factory.hpp:77] Creating layer inception_3a/pool
I0403 19:26:58.836192  9255 net.cpp:91] Creating Layer inception_3a/pool
I0403 19:26:58.836227  9255 net.cpp:425] inception_3a/pool <- pool2/3x3_s2_pool2/3x3_s2_0_split_3
I0403 19:26:58.836251  9255 net.cpp:399] inception_3a/pool -> inception_3a/pool
I0403 19:26:58.836309  9255 net.cpp:141] Setting up inception_3a/pool
I0403 19:26:58.836333  9255 net.cpp:148] Top shape: 24 192 28 28 (3612672)
I0403 19:26:58.836349  9255 net.cpp:156] Memory required for data: 556352544
I0403 19:26:58.836364  9255 layer_factory.hpp:77] Creating layer inception_3a/pool_proj
I0403 19:26:58.836385  9255 net.cpp:91] Creating Layer inception_3a/pool_proj
I0403 19:26:58.836402  9255 net.cpp:425] inception_3a/pool_proj <- inception_3a/pool
I0403 19:26:58.836426  9255 net.cpp:399] inception_3a/pool_proj -> inception_3a/pool_proj
I0403 19:26:58.837389  9255 net.cpp:141] Setting up inception_3a/pool_proj
I0403 19:26:58.837417  9255 net.cpp:148] Top shape: 24 32 28 28 (602112)
I0403 19:26:58.837435  9255 net.cpp:156] Memory required for data: 558760992
I0403 19:26:58.837460  9255 layer_factory.hpp:77] Creating layer inception_3a/relu_pool_proj
I0403 19:26:58.837481  9255 net.cpp:91] Creating Layer inception_3a/relu_pool_proj
I0403 19:26:58.837496  9255 net.cpp:425] inception_3a/relu_pool_proj <- inception_3a/pool_proj
I0403 19:26:58.837517  9255 net.cpp:386] inception_3a/relu_pool_proj -> inception_3a/pool_proj (in-place)
I0403 19:26:58.837795  9255 net.cpp:141] Setting up inception_3a/relu_pool_proj
I0403 19:26:58.837824  9255 net.cpp:148] Top shape: 24 32 28 28 (602112)
I0403 19:26:58.837841  9255 net.cpp:156] Memory required for data: 561169440
I0403 19:26:58.837855  9255 layer_factory.hpp:77] Creating layer inception_3a/output
I0403 19:26:58.837873  9255 net.cpp:91] Creating Layer inception_3a/output
I0403 19:26:58.837889  9255 net.cpp:425] inception_3a/output <- inception_3a/1x1
I0403 19:26:58.837905  9255 net.cpp:425] inception_3a/output <- inception_3a/3x3
I0403 19:26:58.837921  9255 net.cpp:425] inception_3a/output <- inception_3a/5x5
I0403 19:26:58.837937  9255 net.cpp:425] inception_3a/output <- inception_3a/pool_proj
I0403 19:26:58.837957  9255 net.cpp:399] inception_3a/output -> inception_3a/output
I0403 19:26:58.838003  9255 net.cpp:141] Setting up inception_3a/output
I0403 19:26:58.838028  9255 net.cpp:148] Top shape: 24 256 28 28 (4816896)
I0403 19:26:58.838044  9255 net.cpp:156] Memory required for data: 580437024
I0403 19:26:58.838059  9255 layer_factory.hpp:77] Creating layer inception_3a/output_inception_3a/output_0_split
I0403 19:26:58.838078  9255 net.cpp:91] Creating Layer inception_3a/output_inception_3a/output_0_split
I0403 19:26:58.838093  9255 net.cpp:425] inception_3a/output_inception_3a/output_0_split <- inception_3a/output
I0403 19:26:58.838109  9255 net.cpp:399] inception_3a/output_inception_3a/output_0_split -> inception_3a/output_inception_3a/output_0_split_0
I0403 19:26:58.838129  9255 net.cpp:399] inception_3a/output_inception_3a/output_0_split -> inception_3a/output_inception_3a/output_0_split_1
I0403 19:26:58.838155  9255 net.cpp:399] inception_3a/output_inception_3a/output_0_split -> inception_3a/output_inception_3a/output_0_split_2
I0403 19:26:58.838181  9255 net.cpp:399] inception_3a/output_inception_3a/output_0_split -> inception_3a/output_inception_3a/output_0_split_3
I0403 19:26:58.838255  9255 net.cpp:141] Setting up inception_3a/output_inception_3a/output_0_split
I0403 19:26:58.838281  9255 net.cpp:148] Top shape: 24 256 28 28 (4816896)
I0403 19:26:58.838299  9255 net.cpp:148] Top shape: 24 256 28 28 (4816896)
I0403 19:26:58.838315  9255 net.cpp:148] Top shape: 24 256 28 28 (4816896)
I0403 19:26:58.838331  9255 net.cpp:148] Top shape: 24 256 28 28 (4816896)
I0403 19:26:58.838346  9255 net.cpp:156] Memory required for data: 657507360
I0403 19:26:58.838361  9255 layer_factory.hpp:77] Creating layer inception_3b/1x1
I0403 19:26:58.838382  9255 net.cpp:91] Creating Layer inception_3b/1x1
I0403 19:26:58.838399  9255 net.cpp:425] inception_3b/1x1 <- inception_3a/output_inception_3a/output_0_split_0
I0403 19:26:58.838418  9255 net.cpp:399] inception_3b/1x1 -> inception_3b/1x1
I0403 19:26:58.839556  9255 net.cpp:141] Setting up inception_3b/1x1
I0403 19:26:58.839596  9255 net.cpp:148] Top shape: 24 128 28 28 (2408448)
I0403 19:26:58.839612  9255 net.cpp:156] Memory required for data: 667141152
I0403 19:26:58.839630  9255 layer_factory.hpp:77] Creating layer inception_3b/relu_1x1
I0403 19:26:58.839650  9255 net.cpp:91] Creating Layer inception_3b/relu_1x1
I0403 19:26:58.839668  9255 net.cpp:425] inception_3b/relu_1x1 <- inception_3b/1x1
I0403 19:26:58.839686  9255 net.cpp:386] inception_3b/relu_1x1 -> inception_3b/1x1 (in-place)
I0403 19:26:58.839865  9255 net.cpp:141] Setting up inception_3b/relu_1x1
I0403 19:26:58.839890  9255 net.cpp:148] Top shape: 24 128 28 28 (2408448)
I0403 19:26:58.839905  9255 net.cpp:156] Memory required for data: 676774944
I0403 19:26:58.839920  9255 layer_factory.hpp:77] Creating layer inception_3b/3x3_reduce
I0403 19:26:58.839943  9255 net.cpp:91] Creating Layer inception_3b/3x3_reduce
I0403 19:26:58.839962  9255 net.cpp:425] inception_3b/3x3_reduce <- inception_3a/output_inception_3a/output_0_split_1
I0403 19:26:58.839983  9255 net.cpp:399] inception_3b/3x3_reduce -> inception_3b/3x3_reduce
I0403 19:26:58.841107  9255 net.cpp:141] Setting up inception_3b/3x3_reduce
I0403 19:26:58.841140  9255 net.cpp:148] Top shape: 24 128 28 28 (2408448)
I0403 19:26:58.841156  9255 net.cpp:156] Memory required for data: 686408736
I0403 19:26:58.841174  9255 layer_factory.hpp:77] Creating layer inception_3b/relu_3x3_reduce
I0403 19:26:58.841214  9255 net.cpp:91] Creating Layer inception_3b/relu_3x3_reduce
I0403 19:26:58.841231  9255 net.cpp:425] inception_3b/relu_3x3_reduce <- inception_3b/3x3_reduce
I0403 19:26:58.841251  9255 net.cpp:386] inception_3b/relu_3x3_reduce -> inception_3b/3x3_reduce (in-place)
I0403 19:26:58.841435  9255 net.cpp:141] Setting up inception_3b/relu_3x3_reduce
I0403 19:26:58.841464  9255 net.cpp:148] Top shape: 24 128 28 28 (2408448)
I0403 19:26:58.841480  9255 net.cpp:156] Memory required for data: 696042528
I0403 19:26:58.841495  9255 layer_factory.hpp:77] Creating layer inception_3b/3x3
I0403 19:26:58.841519  9255 net.cpp:91] Creating Layer inception_3b/3x3
I0403 19:26:58.841538  9255 net.cpp:425] inception_3b/3x3 <- inception_3b/3x3_reduce
I0403 19:26:58.841560  9255 net.cpp:399] inception_3b/3x3 -> inception_3b/3x3
I0403 19:26:58.844630  9255 net.cpp:141] Setting up inception_3b/3x3
I0403 19:26:58.844662  9255 net.cpp:148] Top shape: 24 192 28 28 (3612672)
I0403 19:26:58.844678  9255 net.cpp:156] Memory required for data: 710493216
I0403 19:26:58.844697  9255 layer_factory.hpp:77] Creating layer inception_3b/relu_3x3
I0403 19:26:58.844717  9255 net.cpp:91] Creating Layer inception_3b/relu_3x3
I0403 19:26:58.844732  9255 net.cpp:425] inception_3b/relu_3x3 <- inception_3b/3x3
I0403 19:26:58.844753  9255 net.cpp:386] inception_3b/relu_3x3 -> inception_3b/3x3 (in-place)
I0403 19:26:58.845037  9255 net.cpp:141] Setting up inception_3b/relu_3x3
I0403 19:26:58.845064  9255 net.cpp:148] Top shape: 24 192 28 28 (3612672)
I0403 19:26:58.845080  9255 net.cpp:156] Memory required for data: 724943904
I0403 19:26:58.845096  9255 layer_factory.hpp:77] Creating layer inception_3b/5x5_reduce
I0403 19:26:58.845119  9255 net.cpp:91] Creating Layer inception_3b/5x5_reduce
I0403 19:26:58.845137  9255 net.cpp:425] inception_3b/5x5_reduce <- inception_3a/output_inception_3a/output_0_split_2
I0403 19:26:58.845161  9255 net.cpp:399] inception_3b/5x5_reduce -> inception_3b/5x5_reduce
I0403 19:26:58.846168  9255 net.cpp:141] Setting up inception_3b/5x5_reduce
I0403 19:26:58.846202  9255 net.cpp:148] Top shape: 24 32 28 28 (602112)
I0403 19:26:58.846220  9255 net.cpp:156] Memory required for data: 727352352
I0403 19:26:58.846238  9255 layer_factory.hpp:77] Creating layer inception_3b/relu_5x5_reduce
I0403 19:26:58.846257  9255 net.cpp:91] Creating Layer inception_3b/relu_5x5_reduce
I0403 19:26:58.846274  9255 net.cpp:425] inception_3b/relu_5x5_reduce <- inception_3b/5x5_reduce
I0403 19:26:58.846300  9255 net.cpp:386] inception_3b/relu_5x5_reduce -> inception_3b/5x5_reduce (in-place)
I0403 19:26:58.846495  9255 net.cpp:141] Setting up inception_3b/relu_5x5_reduce
I0403 19:26:58.846521  9255 net.cpp:148] Top shape: 24 32 28 28 (602112)
I0403 19:26:58.846536  9255 net.cpp:156] Memory required for data: 729760800
I0403 19:26:58.846552  9255 layer_factory.hpp:77] Creating layer inception_3b/5x5
I0403 19:26:58.846575  9255 net.cpp:91] Creating Layer inception_3b/5x5
I0403 19:26:58.846593  9255 net.cpp:425] inception_3b/5x5 <- inception_3b/5x5_reduce
I0403 19:26:58.846616  9255 net.cpp:399] inception_3b/5x5 -> inception_3b/5x5
I0403 19:26:58.848701  9255 net.cpp:141] Setting up inception_3b/5x5
I0403 19:26:58.848745  9255 net.cpp:148] Top shape: 24 96 28 28 (1806336)
I0403 19:26:58.848762  9255 net.cpp:156] Memory required for data: 736986144
I0403 19:26:58.848794  9255 layer_factory.hpp:77] Creating layer inception_3b/relu_5x5
I0403 19:26:58.848814  9255 net.cpp:91] Creating Layer inception_3b/relu_5x5
I0403 19:26:58.848830  9255 net.cpp:425] inception_3b/relu_5x5 <- inception_3b/5x5
I0403 19:26:58.848850  9255 net.cpp:386] inception_3b/relu_5x5 -> inception_3b/5x5 (in-place)
I0403 19:26:58.849051  9255 net.cpp:141] Setting up inception_3b/relu_5x5
I0403 19:26:58.849078  9255 net.cpp:148] Top shape: 24 96 28 28 (1806336)
I0403 19:26:58.849094  9255 net.cpp:156] Memory required for data: 744211488
I0403 19:26:58.849110  9255 layer_factory.hpp:77] Creating layer inception_3b/pool
I0403 19:26:58.849128  9255 net.cpp:91] Creating Layer inception_3b/pool
I0403 19:26:58.849145  9255 net.cpp:425] inception_3b/pool <- inception_3a/output_inception_3a/output_0_split_3
I0403 19:26:58.849165  9255 net.cpp:399] inception_3b/pool -> inception_3b/pool
I0403 19:26:58.849228  9255 net.cpp:141] Setting up inception_3b/pool
I0403 19:26:58.849256  9255 net.cpp:148] Top shape: 24 256 28 28 (4816896)
I0403 19:26:58.849272  9255 net.cpp:156] Memory required for data: 763479072
I0403 19:26:58.849288  9255 layer_factory.hpp:77] Creating layer inception_3b/pool_proj
I0403 19:26:58.849311  9255 net.cpp:91] Creating Layer inception_3b/pool_proj
I0403 19:26:58.849330  9255 net.cpp:425] inception_3b/pool_proj <- inception_3b/pool
I0403 19:26:58.849362  9255 net.cpp:399] inception_3b/pool_proj -> inception_3b/pool_proj
I0403 19:26:58.850440  9255 net.cpp:141] Setting up inception_3b/pool_proj
I0403 19:26:58.850468  9255 net.cpp:148] Top shape: 24 64 28 28 (1204224)
I0403 19:26:58.850484  9255 net.cpp:156] Memory required for data: 768295968
I0403 19:26:58.850503  9255 layer_factory.hpp:77] Creating layer inception_3b/relu_pool_proj
I0403 19:26:58.850524  9255 net.cpp:91] Creating Layer inception_3b/relu_pool_proj
I0403 19:26:58.850541  9255 net.cpp:425] inception_3b/relu_pool_proj <- inception_3b/pool_proj
I0403 19:26:58.850559  9255 net.cpp:386] inception_3b/relu_pool_proj -> inception_3b/pool_proj (in-place)
I0403 19:26:58.850967  9255 net.cpp:141] Setting up inception_3b/relu_pool_proj
I0403 19:26:58.850994  9255 net.cpp:148] Top shape: 24 64 28 28 (1204224)
I0403 19:26:58.851011  9255 net.cpp:156] Memory required for data: 773112864
I0403 19:26:58.851025  9255 layer_factory.hpp:77] Creating layer inception_3b/output
I0403 19:26:58.851043  9255 net.cpp:91] Creating Layer inception_3b/output
I0403 19:26:58.851060  9255 net.cpp:425] inception_3b/output <- inception_3b/1x1
I0403 19:26:58.851078  9255 net.cpp:425] inception_3b/output <- inception_3b/3x3
I0403 19:26:58.851094  9255 net.cpp:425] inception_3b/output <- inception_3b/5x5
I0403 19:26:58.851110  9255 net.cpp:425] inception_3b/output <- inception_3b/pool_proj
I0403 19:26:58.851130  9255 net.cpp:399] inception_3b/output -> inception_3b/output
I0403 19:26:58.851174  9255 net.cpp:141] Setting up inception_3b/output
I0403 19:26:58.851205  9255 net.cpp:148] Top shape: 24 480 28 28 (9031680)
I0403 19:26:58.851222  9255 net.cpp:156] Memory required for data: 809239584
I0403 19:26:58.851236  9255 layer_factory.hpp:77] Creating layer pool3/3x3_s2
I0403 19:26:58.851255  9255 net.cpp:91] Creating Layer pool3/3x3_s2
I0403 19:26:58.851289  9255 net.cpp:425] pool3/3x3_s2 <- inception_3b/output
I0403 19:26:58.851325  9255 net.cpp:399] pool3/3x3_s2 -> pool3/3x3_s2
I0403 19:26:58.851388  9255 net.cpp:141] Setting up pool3/3x3_s2
I0403 19:26:58.851413  9255 net.cpp:148] Top shape: 24 480 14 14 (2257920)
I0403 19:26:58.851428  9255 net.cpp:156] Memory required for data: 818271264
I0403 19:26:58.851444  9255 layer_factory.hpp:77] Creating layer pool3/3x3_s2_pool3/3x3_s2_0_split
I0403 19:26:58.851464  9255 net.cpp:91] Creating Layer pool3/3x3_s2_pool3/3x3_s2_0_split
I0403 19:26:58.851481  9255 net.cpp:425] pool3/3x3_s2_pool3/3x3_s2_0_split <- pool3/3x3_s2
I0403 19:26:58.851500  9255 net.cpp:399] pool3/3x3_s2_pool3/3x3_s2_0_split -> pool3/3x3_s2_pool3/3x3_s2_0_split_0
I0403 19:26:58.851521  9255 net.cpp:399] pool3/3x3_s2_pool3/3x3_s2_0_split -> pool3/3x3_s2_pool3/3x3_s2_0_split_1
I0403 19:26:58.851544  9255 net.cpp:399] pool3/3x3_s2_pool3/3x3_s2_0_split -> pool3/3x3_s2_pool3/3x3_s2_0_split_2
I0403 19:26:58.851578  9255 net.cpp:399] pool3/3x3_s2_pool3/3x3_s2_0_split -> pool3/3x3_s2_pool3/3x3_s2_0_split_3
I0403 19:26:58.851656  9255 net.cpp:141] Setting up pool3/3x3_s2_pool3/3x3_s2_0_split
I0403 19:26:58.851680  9255 net.cpp:148] Top shape: 24 480 14 14 (2257920)
I0403 19:26:58.851697  9255 net.cpp:148] Top shape: 24 480 14 14 (2257920)
I0403 19:26:58.851713  9255 net.cpp:148] Top shape: 24 480 14 14 (2257920)
I0403 19:26:58.851729  9255 net.cpp:148] Top shape: 24 480 14 14 (2257920)
I0403 19:26:58.851743  9255 net.cpp:156] Memory required for data: 854397984
I0403 19:26:58.851759  9255 layer_factory.hpp:77] Creating layer inception_4a/1x1
I0403 19:26:58.851781  9255 net.cpp:91] Creating Layer inception_4a/1x1
I0403 19:26:58.851799  9255 net.cpp:425] inception_4a/1x1 <- pool3/3x3_s2_pool3/3x3_s2_0_split_0
I0403 19:26:58.851821  9255 net.cpp:399] inception_4a/1x1 -> inception_4a/1x1
I0403 19:26:58.853442  9255 net.cpp:141] Setting up inception_4a/1x1
I0403 19:26:58.853472  9255 net.cpp:148] Top shape: 24 192 14 14 (903168)
I0403 19:26:58.853488  9255 net.cpp:156] Memory required for data: 858010656
I0403 19:26:58.853508  9255 layer_factory.hpp:77] Creating layer inception_4a/relu_1x1
I0403 19:26:58.853529  9255 net.cpp:91] Creating Layer inception_4a/relu_1x1
I0403 19:26:58.853546  9255 net.cpp:425] inception_4a/relu_1x1 <- inception_4a/1x1
I0403 19:26:58.853564  9255 net.cpp:386] inception_4a/relu_1x1 -> inception_4a/1x1 (in-place)
I0403 19:26:58.853744  9255 net.cpp:141] Setting up inception_4a/relu_1x1
I0403 19:26:58.853772  9255 net.cpp:148] Top shape: 24 192 14 14 (903168)
I0403 19:26:58.853788  9255 net.cpp:156] Memory required for data: 861623328
I0403 19:26:58.853804  9255 layer_factory.hpp:77] Creating layer inception_4a/3x3_reduce
I0403 19:26:58.853827  9255 net.cpp:91] Creating Layer inception_4a/3x3_reduce
I0403 19:26:58.853845  9255 net.cpp:425] inception_4a/3x3_reduce <- pool3/3x3_s2_pool3/3x3_s2_0_split_1
I0403 19:26:58.853864  9255 net.cpp:399] inception_4a/3x3_reduce -> inception_4a/3x3_reduce
I0403 19:26:58.855167  9255 net.cpp:141] Setting up inception_4a/3x3_reduce
I0403 19:26:58.855200  9255 net.cpp:148] Top shape: 24 96 14 14 (451584)
I0403 19:26:58.855216  9255 net.cpp:156] Memory required for data: 863429664
I0403 19:26:58.855242  9255 layer_factory.hpp:77] Creating layer inception_4a/relu_3x3_reduce
I0403 19:26:58.855270  9255 net.cpp:91] Creating Layer inception_4a/relu_3x3_reduce
I0403 19:26:58.855300  9255 net.cpp:425] inception_4a/relu_3x3_reduce <- inception_4a/3x3_reduce
I0403 19:26:58.855319  9255 net.cpp:386] inception_4a/relu_3x3_reduce -> inception_4a/3x3_reduce (in-place)
I0403 19:26:58.855504  9255 net.cpp:141] Setting up inception_4a/relu_3x3_reduce
I0403 19:26:58.855530  9255 net.cpp:148] Top shape: 24 96 14 14 (451584)
I0403 19:26:58.855545  9255 net.cpp:156] Memory required for data: 865236000
I0403 19:26:58.855561  9255 layer_factory.hpp:77] Creating layer inception_4a/3x3
I0403 19:26:58.855598  9255 net.cpp:91] Creating Layer inception_4a/3x3
I0403 19:26:58.855617  9255 net.cpp:425] inception_4a/3x3 <- inception_4a/3x3_reduce
I0403 19:26:58.855635  9255 net.cpp:399] inception_4a/3x3 -> inception_4a/3x3
I0403 19:26:58.858417  9255 net.cpp:141] Setting up inception_4a/3x3
I0403 19:26:58.858453  9255 net.cpp:148] Top shape: 24 208 14 14 (978432)
I0403 19:26:58.858470  9255 net.cpp:156] Memory required for data: 869149728
I0403 19:26:58.858490  9255 layer_factory.hpp:77] Creating layer inception_4a/relu_3x3
I0403 19:26:58.858510  9255 net.cpp:91] Creating Layer inception_4a/relu_3x3
I0403 19:26:58.858526  9255 net.cpp:425] inception_4a/relu_3x3 <- inception_4a/3x3
I0403 19:26:58.858544  9255 net.cpp:386] inception_4a/relu_3x3 -> inception_4a/3x3 (in-place)
I0403 19:26:58.858827  9255 net.cpp:141] Setting up inception_4a/relu_3x3
I0403 19:26:58.858861  9255 net.cpp:148] Top shape: 24 208 14 14 (978432)
I0403 19:26:58.858878  9255 net.cpp:156] Memory required for data: 873063456
I0403 19:26:58.858894  9255 layer_factory.hpp:77] Creating layer inception_4a/5x5_reduce
I0403 19:26:58.858917  9255 net.cpp:91] Creating Layer inception_4a/5x5_reduce
I0403 19:26:58.858935  9255 net.cpp:425] inception_4a/5x5_reduce <- pool3/3x3_s2_pool3/3x3_s2_0_split_2
I0403 19:26:58.858955  9255 net.cpp:399] inception_4a/5x5_reduce -> inception_4a/5x5_reduce
I0403 19:26:58.859997  9255 net.cpp:141] Setting up inception_4a/5x5_reduce
I0403 19:26:58.860029  9255 net.cpp:148] Top shape: 24 16 14 14 (75264)
I0403 19:26:58.860045  9255 net.cpp:156] Memory required for data: 873364512
I0403 19:26:58.860065  9255 layer_factory.hpp:77] Creating layer inception_4a/relu_5x5_reduce
I0403 19:26:58.860083  9255 net.cpp:91] Creating Layer inception_4a/relu_5x5_reduce
I0403 19:26:58.860100  9255 net.cpp:425] inception_4a/relu_5x5_reduce <- inception_4a/5x5_reduce
I0403 19:26:58.860121  9255 net.cpp:386] inception_4a/relu_5x5_reduce -> inception_4a/5x5_reduce (in-place)
I0403 19:26:58.860326  9255 net.cpp:141] Setting up inception_4a/relu_5x5_reduce
I0403 19:26:58.860352  9255 net.cpp:148] Top shape: 24 16 14 14 (75264)
I0403 19:26:58.860368  9255 net.cpp:156] Memory required for data: 873665568
I0403 19:26:58.860383  9255 layer_factory.hpp:77] Creating layer inception_4a/5x5
I0403 19:26:58.860409  9255 net.cpp:91] Creating Layer inception_4a/5x5
I0403 19:26:58.860426  9255 net.cpp:425] inception_4a/5x5 <- inception_4a/5x5_reduce
I0403 19:26:58.860448  9255 net.cpp:399] inception_4a/5x5 -> inception_4a/5x5
I0403 19:26:58.861616  9255 net.cpp:141] Setting up inception_4a/5x5
I0403 19:26:58.861644  9255 net.cpp:148] Top shape: 24 48 14 14 (225792)
I0403 19:26:58.861660  9255 net.cpp:156] Memory required for data: 874568736
I0403 19:26:58.861678  9255 layer_factory.hpp:77] Creating layer inception_4a/relu_5x5
I0403 19:26:58.861703  9255 net.cpp:91] Creating Layer inception_4a/relu_5x5
I0403 19:26:58.861719  9255 net.cpp:425] inception_4a/relu_5x5 <- inception_4a/5x5
I0403 19:26:58.861739  9255 net.cpp:386] inception_4a/relu_5x5 -> inception_4a/5x5 (in-place)
I0403 19:26:58.861917  9255 net.cpp:141] Setting up inception_4a/relu_5x5
I0403 19:26:58.861943  9255 net.cpp:148] Top shape: 24 48 14 14 (225792)
I0403 19:26:58.861956  9255 net.cpp:156] Memory required for data: 875471904
I0403 19:26:58.861971  9255 layer_factory.hpp:77] Creating layer inception_4a/pool
I0403 19:26:58.861991  9255 net.cpp:91] Creating Layer inception_4a/pool
I0403 19:26:58.862009  9255 net.cpp:425] inception_4a/pool <- pool3/3x3_s2_pool3/3x3_s2_0_split_3
I0403 19:26:58.862026  9255 net.cpp:399] inception_4a/pool -> inception_4a/pool
I0403 19:26:58.862087  9255 net.cpp:141] Setting up inception_4a/pool
I0403 19:26:58.862112  9255 net.cpp:148] Top shape: 24 480 14 14 (2257920)
I0403 19:26:58.862126  9255 net.cpp:156] Memory required for data: 884503584
I0403 19:26:58.862140  9255 layer_factory.hpp:77] Creating layer inception_4a/pool_proj
I0403 19:26:58.862165  9255 net.cpp:91] Creating Layer inception_4a/pool_proj
I0403 19:26:58.862187  9255 net.cpp:425] inception_4a/pool_proj <- inception_4a/pool
I0403 19:26:58.862210  9255 net.cpp:399] inception_4a/pool_proj -> inception_4a/pool_proj
I0403 19:26:58.863389  9255 net.cpp:141] Setting up inception_4a/pool_proj
I0403 19:26:58.863420  9255 net.cpp:148] Top shape: 24 64 14 14 (301056)
I0403 19:26:58.863451  9255 net.cpp:156] Memory required for data: 885707808
I0403 19:26:58.863469  9255 layer_factory.hpp:77] Creating layer inception_4a/relu_pool_proj
I0403 19:26:58.863492  9255 net.cpp:91] Creating Layer inception_4a/relu_pool_proj
I0403 19:26:58.863508  9255 net.cpp:425] inception_4a/relu_pool_proj <- inception_4a/pool_proj
I0403 19:26:58.863528  9255 net.cpp:386] inception_4a/relu_pool_proj -> inception_4a/pool_proj (in-place)
I0403 19:26:58.863808  9255 net.cpp:141] Setting up inception_4a/relu_pool_proj
I0403 19:26:58.863836  9255 net.cpp:148] Top shape: 24 64 14 14 (301056)
I0403 19:26:58.863850  9255 net.cpp:156] Memory required for data: 886912032
I0403 19:26:58.863865  9255 layer_factory.hpp:77] Creating layer inception_4a/output
I0403 19:26:58.863883  9255 net.cpp:91] Creating Layer inception_4a/output
I0403 19:26:58.863898  9255 net.cpp:425] inception_4a/output <- inception_4a/1x1
I0403 19:26:58.863917  9255 net.cpp:425] inception_4a/output <- inception_4a/3x3
I0403 19:26:58.863935  9255 net.cpp:425] inception_4a/output <- inception_4a/5x5
I0403 19:26:58.863951  9255 net.cpp:425] inception_4a/output <- inception_4a/pool_proj
I0403 19:26:58.863968  9255 net.cpp:399] inception_4a/output -> inception_4a/output
I0403 19:26:58.864015  9255 net.cpp:141] Setting up inception_4a/output
I0403 19:26:58.864038  9255 net.cpp:148] Top shape: 24 512 14 14 (2408448)
I0403 19:26:58.864053  9255 net.cpp:156] Memory required for data: 896545824
I0403 19:26:58.864068  9255 layer_factory.hpp:77] Creating layer inception_4a/output_inception_4a/output_0_split
I0403 19:26:58.864086  9255 net.cpp:91] Creating Layer inception_4a/output_inception_4a/output_0_split
I0403 19:26:58.864102  9255 net.cpp:425] inception_4a/output_inception_4a/output_0_split <- inception_4a/output
I0403 19:26:58.864122  9255 net.cpp:399] inception_4a/output_inception_4a/output_0_split -> inception_4a/output_inception_4a/output_0_split_0
I0403 19:26:58.864145  9255 net.cpp:399] inception_4a/output_inception_4a/output_0_split -> inception_4a/output_inception_4a/output_0_split_1
I0403 19:26:58.864166  9255 net.cpp:399] inception_4a/output_inception_4a/output_0_split -> inception_4a/output_inception_4a/output_0_split_2
I0403 19:26:58.864192  9255 net.cpp:399] inception_4a/output_inception_4a/output_0_split -> inception_4a/output_inception_4a/output_0_split_3
I0403 19:26:58.864214  9255 net.cpp:399] inception_4a/output_inception_4a/output_0_split -> inception_4a/output_inception_4a/output_0_split_4
I0403 19:26:58.864308  9255 net.cpp:141] Setting up inception_4a/output_inception_4a/output_0_split
I0403 19:26:58.864331  9255 net.cpp:148] Top shape: 24 512 14 14 (2408448)
I0403 19:26:58.864349  9255 net.cpp:148] Top shape: 24 512 14 14 (2408448)
I0403 19:26:58.864365  9255 net.cpp:148] Top shape: 24 512 14 14 (2408448)
I0403 19:26:58.864382  9255 net.cpp:148] Top shape: 24 512 14 14 (2408448)
I0403 19:26:58.864397  9255 net.cpp:148] Top shape: 24 512 14 14 (2408448)
I0403 19:26:58.864410  9255 net.cpp:156] Memory required for data: 944714784
I0403 19:26:58.864424  9255 layer_factory.hpp:77] Creating layer loss1/ave_pool
I0403 19:26:58.864442  9255 net.cpp:91] Creating Layer loss1/ave_pool
I0403 19:26:58.864459  9255 net.cpp:425] loss1/ave_pool <- inception_4a/output_inception_4a/output_0_split_0
I0403 19:26:58.864480  9255 net.cpp:399] loss1/ave_pool -> loss1/ave_pool
I0403 19:26:58.864684  9255 net.cpp:141] Setting up loss1/ave_pool
I0403 19:26:58.864711  9255 net.cpp:148] Top shape: 24 512 4 4 (196608)
I0403 19:26:58.864725  9255 net.cpp:156] Memory required for data: 945501216
I0403 19:26:58.864739  9255 layer_factory.hpp:77] Creating layer loss1/conv
I0403 19:26:58.864763  9255 net.cpp:91] Creating Layer loss1/conv
I0403 19:26:58.864780  9255 net.cpp:425] loss1/conv <- loss1/ave_pool
I0403 19:26:58.864801  9255 net.cpp:399] loss1/conv -> loss1/conv
I0403 19:26:58.866248  9255 net.cpp:141] Setting up loss1/conv
I0403 19:26:58.866279  9255 net.cpp:148] Top shape: 24 128 4 4 (49152)
I0403 19:26:58.866309  9255 net.cpp:156] Memory required for data: 945697824
I0403 19:26:58.866329  9255 layer_factory.hpp:77] Creating layer loss1/relu_conv
I0403 19:26:58.866349  9255 net.cpp:91] Creating Layer loss1/relu_conv
I0403 19:26:58.866366  9255 net.cpp:425] loss1/relu_conv <- loss1/conv
I0403 19:26:58.866384  9255 net.cpp:386] loss1/relu_conv -> loss1/conv (in-place)
I0403 19:26:58.866675  9255 net.cpp:141] Setting up loss1/relu_conv
I0403 19:26:58.866704  9255 net.cpp:148] Top shape: 24 128 4 4 (49152)
I0403 19:26:58.866720  9255 net.cpp:156] Memory required for data: 945894432
I0403 19:26:58.866736  9255 layer_factory.hpp:77] Creating layer loss1/fc
I0403 19:26:58.866775  9255 net.cpp:91] Creating Layer loss1/fc
I0403 19:26:58.866793  9255 net.cpp:425] loss1/fc <- loss1/conv
I0403 19:26:58.866818  9255 net.cpp:399] loss1/fc -> loss1/fc
I0403 19:26:58.885918  9255 net.cpp:141] Setting up loss1/fc
I0403 19:26:58.885957  9255 net.cpp:148] Top shape: 24 1024 (24576)
I0403 19:26:58.885975  9255 net.cpp:156] Memory required for data: 945992736
I0403 19:26:58.885999  9255 layer_factory.hpp:77] Creating layer loss1/relu_fc
I0403 19:26:58.886035  9255 net.cpp:91] Creating Layer loss1/relu_fc
I0403 19:26:58.886065  9255 net.cpp:425] loss1/relu_fc <- loss1/fc
I0403 19:26:58.886087  9255 net.cpp:386] loss1/relu_fc -> loss1/fc (in-place)
I0403 19:26:58.886319  9255 net.cpp:141] Setting up loss1/relu_fc
I0403 19:26:58.886348  9255 net.cpp:148] Top shape: 24 1024 (24576)
I0403 19:26:58.886386  9255 net.cpp:156] Memory required for data: 946091040
I0403 19:26:58.886402  9255 layer_factory.hpp:77] Creating layer loss1/drop_fc
I0403 19:26:58.886432  9255 net.cpp:91] Creating Layer loss1/drop_fc
I0403 19:26:58.886453  9255 net.cpp:425] loss1/drop_fc <- loss1/fc
I0403 19:26:58.886476  9255 net.cpp:386] loss1/drop_fc -> loss1/fc (in-place)
I0403 19:26:58.886536  9255 net.cpp:141] Setting up loss1/drop_fc
I0403 19:26:58.886560  9255 net.cpp:148] Top shape: 24 1024 (24576)
I0403 19:26:58.886576  9255 net.cpp:156] Memory required for data: 946189344
I0403 19:26:58.886595  9255 layer_factory.hpp:77] Creating layer loss1/classifier_plantvillage
I0403 19:26:58.886631  9255 net.cpp:91] Creating Layer loss1/classifier_plantvillage
I0403 19:26:58.886649  9255 net.cpp:425] loss1/classifier_plantvillage <- loss1/fc
I0403 19:26:58.886669  9255 net.cpp:399] loss1/classifier_plantvillage -> loss1/classifier_plantvillage
I0403 19:26:58.887706  9255 net.cpp:141] Setting up loss1/classifier_plantvillage
I0403 19:26:58.887737  9255 net.cpp:148] Top shape: 24 38 (912)
I0403 19:26:58.887754  9255 net.cpp:156] Memory required for data: 946192992
I0403 19:26:58.887775  9255 layer_factory.hpp:77] Creating layer loss1/classifier_plantvillage_loss1/classifier_plantvillage_0_split
I0403 19:26:58.887817  9255 net.cpp:91] Creating Layer loss1/classifier_plantvillage_loss1/classifier_plantvillage_0_split
I0403 19:26:58.887835  9255 net.cpp:425] loss1/classifier_plantvillage_loss1/classifier_plantvillage_0_split <- loss1/classifier_plantvillage
I0403 19:26:58.887853  9255 net.cpp:399] loss1/classifier_plantvillage_loss1/classifier_plantvillage_0_split -> loss1/classifier_plantvillage_loss1/classifier_plantvillage_0_split_0
I0403 19:26:58.887876  9255 net.cpp:399] loss1/classifier_plantvillage_loss1/classifier_plantvillage_0_split -> loss1/classifier_plantvillage_loss1/classifier_plantvillage_0_split_1
I0403 19:26:58.887909  9255 net.cpp:399] loss1/classifier_plantvillage_loss1/classifier_plantvillage_0_split -> loss1/classifier_plantvillage_loss1/classifier_plantvillage_0_split_2
I0403 19:26:58.887980  9255 net.cpp:141] Setting up loss1/classifier_plantvillage_loss1/classifier_plantvillage_0_split
I0403 19:26:58.888005  9255 net.cpp:148] Top shape: 24 38 (912)
I0403 19:26:58.888021  9255 net.cpp:148] Top shape: 24 38 (912)
I0403 19:26:58.888038  9255 net.cpp:148] Top shape: 24 38 (912)
I0403 19:26:58.888053  9255 net.cpp:156] Memory required for data: 946203936
I0403 19:26:58.888068  9255 layer_factory.hpp:77] Creating layer inception_4b/1x1
I0403 19:26:58.888092  9255 net.cpp:91] Creating Layer inception_4b/1x1
I0403 19:26:58.888136  9255 net.cpp:425] inception_4b/1x1 <- inception_4a/output_inception_4a/output_0_split_1
I0403 19:26:58.888162  9255 net.cpp:399] inception_4b/1x1 -> inception_4b/1x1
I0403 19:26:58.889966  9255 net.cpp:141] Setting up inception_4b/1x1
I0403 19:26:58.889999  9255 net.cpp:148] Top shape: 24 160 14 14 (752640)
I0403 19:26:58.890022  9255 net.cpp:156] Memory required for data: 949214496
I0403 19:26:58.890043  9255 layer_factory.hpp:77] Creating layer inception_4b/relu_1x1
I0403 19:26:58.890064  9255 net.cpp:91] Creating Layer inception_4b/relu_1x1
I0403 19:26:58.890084  9255 net.cpp:425] inception_4b/relu_1x1 <- inception_4b/1x1
I0403 19:26:58.890102  9255 net.cpp:386] inception_4b/relu_1x1 -> inception_4b/1x1 (in-place)
I0403 19:26:58.890305  9255 net.cpp:141] Setting up inception_4b/relu_1x1
I0403 19:26:58.890332  9255 net.cpp:148] Top shape: 24 160 14 14 (752640)
I0403 19:26:58.890349  9255 net.cpp:156] Memory required for data: 952225056
I0403 19:26:58.890365  9255 layer_factory.hpp:77] Creating layer inception_4b/3x3_reduce
I0403 19:26:58.890389  9255 net.cpp:91] Creating Layer inception_4b/3x3_reduce
I0403 19:26:58.890408  9255 net.cpp:425] inception_4b/3x3_reduce <- inception_4a/output_inception_4a/output_0_split_2
I0403 19:26:58.890434  9255 net.cpp:399] inception_4b/3x3_reduce -> inception_4b/3x3_reduce
I0403 19:26:58.891885  9255 net.cpp:141] Setting up inception_4b/3x3_reduce
I0403 19:26:58.891913  9255 net.cpp:148] Top shape: 24 112 14 14 (526848)
I0403 19:26:58.891929  9255 net.cpp:156] Memory required for data: 954332448
I0403 19:26:58.891950  9255 layer_factory.hpp:77] Creating layer inception_4b/relu_3x3_reduce
I0403 19:26:58.891973  9255 net.cpp:91] Creating Layer inception_4b/relu_3x3_reduce
I0403 19:26:58.892001  9255 net.cpp:425] inception_4b/relu_3x3_reduce <- inception_4b/3x3_reduce
I0403 19:26:58.892021  9255 net.cpp:386] inception_4b/relu_3x3_reduce -> inception_4b/3x3_reduce (in-place)
I0403 19:26:58.892334  9255 net.cpp:141] Setting up inception_4b/relu_3x3_reduce
I0403 19:26:58.892364  9255 net.cpp:148] Top shape: 24 112 14 14 (526848)
I0403 19:26:58.892379  9255 net.cpp:156] Memory required for data: 956439840
I0403 19:26:58.892395  9255 layer_factory.hpp:77] Creating layer inception_4b/3x3
I0403 19:26:58.892419  9255 net.cpp:91] Creating Layer inception_4b/3x3
I0403 19:26:58.892438  9255 net.cpp:425] inception_4b/3x3 <- inception_4b/3x3_reduce
I0403 19:26:58.892462  9255 net.cpp:399] inception_4b/3x3 -> inception_4b/3x3
I0403 19:26:58.895683  9255 net.cpp:141] Setting up inception_4b/3x3
I0403 19:26:58.895716  9255 net.cpp:148] Top shape: 24 224 14 14 (1053696)
I0403 19:26:58.895733  9255 net.cpp:156] Memory required for data: 960654624
I0403 19:26:58.895753  9255 layer_factory.hpp:77] Creating layer inception_4b/relu_3x3
I0403 19:26:58.895781  9255 net.cpp:91] Creating Layer inception_4b/relu_3x3
I0403 19:26:58.895802  9255 net.cpp:425] inception_4b/relu_3x3 <- inception_4b/3x3
I0403 19:26:58.895823  9255 net.cpp:386] inception_4b/relu_3x3 -> inception_4b/3x3 (in-place)
I0403 19:26:58.896018  9255 net.cpp:141] Setting up inception_4b/relu_3x3
I0403 19:26:58.896052  9255 net.cpp:148] Top shape: 24 224 14 14 (1053696)
I0403 19:26:58.896070  9255 net.cpp:156] Memory required for data: 964869408
I0403 19:26:58.896085  9255 layer_factory.hpp:77] Creating layer inception_4b/5x5_reduce
I0403 19:26:58.896108  9255 net.cpp:91] Creating Layer inception_4b/5x5_reduce
I0403 19:26:58.896128  9255 net.cpp:425] inception_4b/5x5_reduce <- inception_4a/output_inception_4a/output_0_split_3
I0403 19:26:58.896149  9255 net.cpp:399] inception_4b/5x5_reduce -> inception_4b/5x5_reduce
I0403 19:26:58.897336  9255 net.cpp:141] Setting up inception_4b/5x5_reduce
I0403 19:26:58.897368  9255 net.cpp:148] Top shape: 24 24 14 14 (112896)
I0403 19:26:58.897387  9255 net.cpp:156] Memory required for data: 965320992
I0403 19:26:58.897406  9255 layer_factory.hpp:77] Creating layer inception_4b/relu_5x5_reduce
I0403 19:26:58.897425  9255 net.cpp:91] Creating Layer inception_4b/relu_5x5_reduce
I0403 19:26:58.897461  9255 net.cpp:425] inception_4b/relu_5x5_reduce <- inception_4b/5x5_reduce
I0403 19:26:58.897485  9255 net.cpp:386] inception_4b/relu_5x5_reduce -> inception_4b/5x5_reduce (in-place)
I0403 19:26:58.897683  9255 net.cpp:141] Setting up inception_4b/relu_5x5_reduce
I0403 19:26:58.897709  9255 net.cpp:148] Top shape: 24 24 14 14 (112896)
I0403 19:26:58.897725  9255 net.cpp:156] Memory required for data: 965772576
I0403 19:26:58.897742  9255 layer_factory.hpp:77] Creating layer inception_4b/5x5
I0403 19:26:58.897765  9255 net.cpp:91] Creating Layer inception_4b/5x5
I0403 19:26:58.897783  9255 net.cpp:425] inception_4b/5x5 <- inception_4b/5x5_reduce
I0403 19:26:58.897806  9255 net.cpp:399] inception_4b/5x5 -> inception_4b/5x5
I0403 19:26:58.899135  9255 net.cpp:141] Setting up inception_4b/5x5
I0403 19:26:58.899171  9255 net.cpp:148] Top shape: 24 64 14 14 (301056)
I0403 19:26:58.899196  9255 net.cpp:156] Memory required for data: 966976800
I0403 19:26:58.899217  9255 layer_factory.hpp:77] Creating layer inception_4b/relu_5x5
I0403 19:26:58.899238  9255 net.cpp:91] Creating Layer inception_4b/relu_5x5
I0403 19:26:58.899258  9255 net.cpp:425] inception_4b/relu_5x5 <- inception_4b/5x5
I0403 19:26:58.899281  9255 net.cpp:386] inception_4b/relu_5x5 -> inception_4b/5x5 (in-place)
I0403 19:26:58.899587  9255 net.cpp:141] Setting up inception_4b/relu_5x5
I0403 19:26:58.899618  9255 net.cpp:148] Top shape: 24 64 14 14 (301056)
I0403 19:26:58.899636  9255 net.cpp:156] Memory required for data: 968181024
I0403 19:26:58.899652  9255 layer_factory.hpp:77] Creating layer inception_4b/pool
I0403 19:26:58.899672  9255 net.cpp:91] Creating Layer inception_4b/pool
I0403 19:26:58.899693  9255 net.cpp:425] inception_4b/pool <- inception_4a/output_inception_4a/output_0_split_4
I0403 19:26:58.899716  9255 net.cpp:399] inception_4b/pool -> inception_4b/pool
I0403 19:26:58.899787  9255 net.cpp:141] Setting up inception_4b/pool
I0403 19:26:58.899812  9255 net.cpp:148] Top shape: 24 512 14 14 (2408448)
I0403 19:26:58.899830  9255 net.cpp:156] Memory required for data: 977814816
I0403 19:26:58.899847  9255 layer_factory.hpp:77] Creating layer inception_4b/pool_proj
I0403 19:26:58.899876  9255 net.cpp:91] Creating Layer inception_4b/pool_proj
I0403 19:26:58.899901  9255 net.cpp:425] inception_4b/pool_proj <- inception_4b/pool
I0403 19:26:58.899925  9255 net.cpp:399] inception_4b/pool_proj -> inception_4b/pool_proj
I0403 19:26:58.901221  9255 net.cpp:141] Setting up inception_4b/pool_proj
I0403 19:26:58.901268  9255 net.cpp:148] Top shape: 24 64 14 14 (301056)
I0403 19:26:58.901286  9255 net.cpp:156] Memory required for data: 979019040
I0403 19:26:58.901306  9255 layer_factory.hpp:77] Creating layer inception_4b/relu_pool_proj
I0403 19:26:58.901325  9255 net.cpp:91] Creating Layer inception_4b/relu_pool_proj
I0403 19:26:58.901342  9255 net.cpp:425] inception_4b/relu_pool_proj <- inception_4b/pool_proj
I0403 19:26:58.901365  9255 net.cpp:386] inception_4b/relu_pool_proj -> inception_4b/pool_proj (in-place)
I0403 19:26:58.901557  9255 net.cpp:141] Setting up inception_4b/relu_pool_proj
I0403 19:26:58.901583  9255 net.cpp:148] Top shape: 24 64 14 14 (301056)
I0403 19:26:58.901599  9255 net.cpp:156] Memory required for data: 980223264
I0403 19:26:58.901615  9255 layer_factory.hpp:77] Creating layer inception_4b/output
I0403 19:26:58.901634  9255 net.cpp:91] Creating Layer inception_4b/output
I0403 19:26:58.901654  9255 net.cpp:425] inception_4b/output <- inception_4b/1x1
I0403 19:26:58.901674  9255 net.cpp:425] inception_4b/output <- inception_4b/3x3
I0403 19:26:58.901691  9255 net.cpp:425] inception_4b/output <- inception_4b/5x5
I0403 19:26:58.901708  9255 net.cpp:425] inception_4b/output <- inception_4b/pool_proj
I0403 19:26:58.901737  9255 net.cpp:399] inception_4b/output -> inception_4b/output
I0403 19:26:58.901788  9255 net.cpp:141] Setting up inception_4b/output
I0403 19:26:58.901816  9255 net.cpp:148] Top shape: 24 512 14 14 (2408448)
I0403 19:26:58.901834  9255 net.cpp:156] Memory required for data: 989857056
I0403 19:26:58.901864  9255 layer_factory.hpp:77] Creating layer inception_4b/output_inception_4b/output_0_split
I0403 19:26:58.901883  9255 net.cpp:91] Creating Layer inception_4b/output_inception_4b/output_0_split
I0403 19:26:58.901901  9255 net.cpp:425] inception_4b/output_inception_4b/output_0_split <- inception_4b/output
I0403 19:26:58.901921  9255 net.cpp:399] inception_4b/output_inception_4b/output_0_split -> inception_4b/output_inception_4b/output_0_split_0
I0403 19:26:58.901947  9255 net.cpp:399] inception_4b/output_inception_4b/output_0_split -> inception_4b/output_inception_4b/output_0_split_1
I0403 19:26:58.901970  9255 net.cpp:399] inception_4b/output_inception_4b/output_0_split -> inception_4b/output_inception_4b/output_0_split_2
I0403 19:26:58.901995  9255 net.cpp:399] inception_4b/output_inception_4b/output_0_split -> inception_4b/output_inception_4b/output_0_split_3
I0403 19:26:58.902084  9255 net.cpp:141] Setting up inception_4b/output_inception_4b/output_0_split
I0403 19:26:58.902112  9255 net.cpp:148] Top shape: 24 512 14 14 (2408448)
I0403 19:26:58.902133  9255 net.cpp:148] Top shape: 24 512 14 14 (2408448)
I0403 19:26:58.902163  9255 net.cpp:148] Top shape: 24 512 14 14 (2408448)
I0403 19:26:58.902192  9255 net.cpp:148] Top shape: 24 512 14 14 (2408448)
I0403 19:26:58.902210  9255 net.cpp:156] Memory required for data: 1028392224
I0403 19:26:58.902225  9255 layer_factory.hpp:77] Creating layer inception_4c/1x1
I0403 19:26:58.902251  9255 net.cpp:91] Creating Layer inception_4c/1x1
I0403 19:26:58.902269  9255 net.cpp:425] inception_4c/1x1 <- inception_4b/output_inception_4b/output_0_split_0
I0403 19:26:58.902298  9255 net.cpp:399] inception_4c/1x1 -> inception_4c/1x1
I0403 19:26:58.903861  9255 net.cpp:141] Setting up inception_4c/1x1
I0403 19:26:58.903892  9255 net.cpp:148] Top shape: 24 128 14 14 (602112)
I0403 19:26:58.903908  9255 net.cpp:156] Memory required for data: 1030800672
I0403 19:26:58.903931  9255 layer_factory.hpp:77] Creating layer inception_4c/relu_1x1
I0403 19:26:58.903954  9255 net.cpp:91] Creating Layer inception_4c/relu_1x1
I0403 19:26:58.903975  9255 net.cpp:425] inception_4c/relu_1x1 <- inception_4c/1x1
I0403 19:26:58.903995  9255 net.cpp:386] inception_4c/relu_1x1 -> inception_4c/1x1 (in-place)
I0403 19:26:58.904202  9255 net.cpp:141] Setting up inception_4c/relu_1x1
I0403 19:26:58.904228  9255 net.cpp:148] Top shape: 24 128 14 14 (602112)
I0403 19:26:58.904244  9255 net.cpp:156] Memory required for data: 1033209120
I0403 19:26:58.904260  9255 layer_factory.hpp:77] Creating layer inception_4c/3x3_reduce
I0403 19:26:58.904294  9255 net.cpp:91] Creating Layer inception_4c/3x3_reduce
I0403 19:26:58.904314  9255 net.cpp:425] inception_4c/3x3_reduce <- inception_4b/output_inception_4b/output_0_split_1
I0403 19:26:58.904335  9255 net.cpp:399] inception_4c/3x3_reduce -> inception_4c/3x3_reduce
I0403 19:26:58.906416  9255 net.cpp:141] Setting up inception_4c/3x3_reduce
I0403 19:26:58.906451  9255 net.cpp:148] Top shape: 24 128 14 14 (602112)
I0403 19:26:58.906471  9255 net.cpp:156] Memory required for data: 1035617568
I0403 19:26:58.906491  9255 layer_factory.hpp:77] Creating layer inception_4c/relu_3x3_reduce
I0403 19:26:58.906510  9255 net.cpp:91] Creating Layer inception_4c/relu_3x3_reduce
I0403 19:26:58.906529  9255 net.cpp:425] inception_4c/relu_3x3_reduce <- inception_4c/3x3_reduce
I0403 19:26:58.906551  9255 net.cpp:386] inception_4c/relu_3x3_reduce -> inception_4c/3x3_reduce (in-place)
I0403 19:26:58.906852  9255 net.cpp:141] Setting up inception_4c/relu_3x3_reduce
I0403 19:26:58.906886  9255 net.cpp:148] Top shape: 24 128 14 14 (602112)
I0403 19:26:58.906904  9255 net.cpp:156] Memory required for data: 1038026016
I0403 19:26:58.906920  9255 layer_factory.hpp:77] Creating layer inception_4c/3x3
I0403 19:26:58.906946  9255 net.cpp:91] Creating Layer inception_4c/3x3
I0403 19:26:58.906968  9255 net.cpp:425] inception_4c/3x3 <- inception_4c/3x3_reduce
I0403 19:26:58.906988  9255 net.cpp:399] inception_4c/3x3 -> inception_4c/3x3
I0403 19:26:58.910850  9255 net.cpp:141] Setting up inception_4c/3x3
I0403 19:26:58.910897  9255 net.cpp:148] Top shape: 24 256 14 14 (1204224)
I0403 19:26:58.910914  9255 net.cpp:156] Memory required for data: 1042842912
I0403 19:26:58.910953  9255 layer_factory.hpp:77] Creating layer inception_4c/relu_3x3
I0403 19:26:58.910984  9255 net.cpp:91] Creating Layer inception_4c/relu_3x3
I0403 19:26:58.911010  9255 net.cpp:425] inception_4c/relu_3x3 <- inception_4c/3x3
I0403 19:26:58.911031  9255 net.cpp:386] inception_4c/relu_3x3 -> inception_4c/3x3 (in-place)
I0403 19:26:58.911245  9255 net.cpp:141] Setting up inception_4c/relu_3x3
I0403 19:26:58.911278  9255 net.cpp:148] Top shape: 24 256 14 14 (1204224)
I0403 19:26:58.911294  9255 net.cpp:156] Memory required for data: 1047659808
I0403 19:26:58.911311  9255 layer_factory.hpp:77] Creating layer inception_4c/5x5_reduce
I0403 19:26:58.911345  9255 net.cpp:91] Creating Layer inception_4c/5x5_reduce
I0403 19:26:58.911370  9255 net.cpp:425] inception_4c/5x5_reduce <- inception_4b/output_inception_4b/output_0_split_2
I0403 19:26:58.911393  9255 net.cpp:399] inception_4c/5x5_reduce -> inception_4c/5x5_reduce
I0403 19:26:58.912580  9255 net.cpp:141] Setting up inception_4c/5x5_reduce
I0403 19:26:58.912612  9255 net.cpp:148] Top shape: 24 24 14 14 (112896)
I0403 19:26:58.912629  9255 net.cpp:156] Memory required for data: 1048111392
I0403 19:26:58.912652  9255 layer_factory.hpp:77] Creating layer inception_4c/relu_5x5_reduce
I0403 19:26:58.912672  9255 net.cpp:91] Creating Layer inception_4c/relu_5x5_reduce
I0403 19:26:58.912689  9255 net.cpp:425] inception_4c/relu_5x5_reduce <- inception_4c/5x5_reduce
I0403 19:26:58.912714  9255 net.cpp:386] inception_4c/relu_5x5_reduce -> inception_4c/5x5_reduce (in-place)
I0403 19:26:58.912914  9255 net.cpp:141] Setting up inception_4c/relu_5x5_reduce
I0403 19:26:58.912943  9255 net.cpp:148] Top shape: 24 24 14 14 (112896)
I0403 19:26:58.912961  9255 net.cpp:156] Memory required for data: 1048562976
I0403 19:26:58.912977  9255 layer_factory.hpp:77] Creating layer inception_4c/5x5
I0403 19:26:58.913005  9255 net.cpp:91] Creating Layer inception_4c/5x5
I0403 19:26:58.913024  9255 net.cpp:425] inception_4c/5x5 <- inception_4c/5x5_reduce
I0403 19:26:58.913048  9255 net.cpp:399] inception_4c/5x5 -> inception_4c/5x5
I0403 19:26:58.914403  9255 net.cpp:141] Setting up inception_4c/5x5
I0403 19:26:58.914433  9255 net.cpp:148] Top shape: 24 64 14 14 (301056)
I0403 19:26:58.914450  9255 net.cpp:156] Memory required for data: 1049767200
I0403 19:26:58.914469  9255 layer_factory.hpp:77] Creating layer inception_4c/relu_5x5
I0403 19:26:58.914492  9255 net.cpp:91] Creating Layer inception_4c/relu_5x5
I0403 19:26:58.914515  9255 net.cpp:425] inception_4c/relu_5x5 <- inception_4c/5x5
I0403 19:26:58.914540  9255 net.cpp:386] inception_4c/relu_5x5 -> inception_4c/5x5 (in-place)
I0403 19:26:58.914857  9255 net.cpp:141] Setting up inception_4c/relu_5x5
I0403 19:26:58.914885  9255 net.cpp:148] Top shape: 24 64 14 14 (301056)
I0403 19:26:58.914903  9255 net.cpp:156] Memory required for data: 1050971424
I0403 19:26:58.914919  9255 layer_factory.hpp:77] Creating layer inception_4c/pool
I0403 19:26:58.914942  9255 net.cpp:91] Creating Layer inception_4c/pool
I0403 19:26:58.914958  9255 net.cpp:425] inception_4c/pool <- inception_4b/output_inception_4b/output_0_split_3
I0403 19:26:58.914980  9255 net.cpp:399] inception_4c/pool -> inception_4c/pool
I0403 19:26:58.915060  9255 net.cpp:141] Setting up inception_4c/pool
I0403 19:26:58.915084  9255 net.cpp:148] Top shape: 24 512 14 14 (2408448)
I0403 19:26:58.915101  9255 net.cpp:156] Memory required for data: 1060605216
I0403 19:26:58.915117  9255 layer_factory.hpp:77] Creating layer inception_4c/pool_proj
I0403 19:26:58.915148  9255 net.cpp:91] Creating Layer inception_4c/pool_proj
I0403 19:26:58.915185  9255 net.cpp:425] inception_4c/pool_proj <- inception_4c/pool
I0403 19:26:58.915210  9255 net.cpp:399] inception_4c/pool_proj -> inception_4c/pool_proj
I0403 19:26:58.916519  9255 net.cpp:141] Setting up inception_4c/pool_proj
I0403 19:26:58.916553  9255 net.cpp:148] Top shape: 24 64 14 14 (301056)
I0403 19:26:58.916584  9255 net.cpp:156] Memory required for data: 1061809440
I0403 19:26:58.916605  9255 layer_factory.hpp:77] Creating layer inception_4c/relu_pool_proj
I0403 19:26:58.916625  9255 net.cpp:91] Creating Layer inception_4c/relu_pool_proj
I0403 19:26:58.916646  9255 net.cpp:425] inception_4c/relu_pool_proj <- inception_4c/pool_proj
I0403 19:26:58.916667  9255 net.cpp:386] inception_4c/relu_pool_proj -> inception_4c/pool_proj (in-place)
I0403 19:26:58.916867  9255 net.cpp:141] Setting up inception_4c/relu_pool_proj
I0403 19:26:58.916894  9255 net.cpp:148] Top shape: 24 64 14 14 (301056)
I0403 19:26:58.916910  9255 net.cpp:156] Memory required for data: 1063013664
I0403 19:26:58.916926  9255 layer_factory.hpp:77] Creating layer inception_4c/output
I0403 19:26:58.916945  9255 net.cpp:91] Creating Layer inception_4c/output
I0403 19:26:58.916961  9255 net.cpp:425] inception_4c/output <- inception_4c/1x1
I0403 19:26:58.916980  9255 net.cpp:425] inception_4c/output <- inception_4c/3x3
I0403 19:26:58.916999  9255 net.cpp:425] inception_4c/output <- inception_4c/5x5
I0403 19:26:58.917017  9255 net.cpp:425] inception_4c/output <- inception_4c/pool_proj
I0403 19:26:58.917035  9255 net.cpp:399] inception_4c/output -> inception_4c/output
I0403 19:26:58.917084  9255 net.cpp:141] Setting up inception_4c/output
I0403 19:26:58.917111  9255 net.cpp:148] Top shape: 24 512 14 14 (2408448)
I0403 19:26:58.917127  9255 net.cpp:156] Memory required for data: 1072647456
I0403 19:26:58.917142  9255 layer_factory.hpp:77] Creating layer inception_4c/output_inception_4c/output_0_split
I0403 19:26:58.917161  9255 net.cpp:91] Creating Layer inception_4c/output_inception_4c/output_0_split
I0403 19:26:58.917183  9255 net.cpp:425] inception_4c/output_inception_4c/output_0_split <- inception_4c/output
I0403 19:26:58.917207  9255 net.cpp:399] inception_4c/output_inception_4c/output_0_split -> inception_4c/output_inception_4c/output_0_split_0
I0403 19:26:58.917230  9255 net.cpp:399] inception_4c/output_inception_4c/output_0_split -> inception_4c/output_inception_4c/output_0_split_1
I0403 19:26:58.917253  9255 net.cpp:399] inception_4c/output_inception_4c/output_0_split -> inception_4c/output_inception_4c/output_0_split_2
I0403 19:26:58.917274  9255 net.cpp:399] inception_4c/output_inception_4c/output_0_split -> inception_4c/output_inception_4c/output_0_split_3
I0403 19:26:58.917366  9255 net.cpp:141] Setting up inception_4c/output_inception_4c/output_0_split
I0403 19:26:58.917392  9255 net.cpp:148] Top shape: 24 512 14 14 (2408448)
I0403 19:26:58.917412  9255 net.cpp:148] Top shape: 24 512 14 14 (2408448)
I0403 19:26:58.917428  9255 net.cpp:148] Top shape: 24 512 14 14 (2408448)
I0403 19:26:58.917444  9255 net.cpp:148] Top shape: 24 512 14 14 (2408448)
I0403 19:26:58.917459  9255 net.cpp:156] Memory required for data: 1111182624
I0403 19:26:58.917474  9255 layer_factory.hpp:77] Creating layer inception_4d/1x1
I0403 19:26:58.917495  9255 net.cpp:91] Creating Layer inception_4d/1x1
I0403 19:26:58.917513  9255 net.cpp:425] inception_4d/1x1 <- inception_4c/output_inception_4c/output_0_split_0
I0403 19:26:58.917536  9255 net.cpp:399] inception_4d/1x1 -> inception_4d/1x1
I0403 19:26:58.919024  9255 net.cpp:141] Setting up inception_4d/1x1
I0403 19:26:58.919056  9255 net.cpp:148] Top shape: 24 112 14 14 (526848)
I0403 19:26:58.919073  9255 net.cpp:156] Memory required for data: 1113290016
I0403 19:26:58.919093  9255 layer_factory.hpp:77] Creating layer inception_4d/relu_1x1
I0403 19:26:58.919116  9255 net.cpp:91] Creating Layer inception_4d/relu_1x1
I0403 19:26:58.919132  9255 net.cpp:425] inception_4d/relu_1x1 <- inception_4d/1x1
I0403 19:26:58.919153  9255 net.cpp:386] inception_4d/relu_1x1 -> inception_4d/1x1 (in-place)
I0403 19:26:58.919358  9255 net.cpp:141] Setting up inception_4d/relu_1x1
I0403 19:26:58.919386  9255 net.cpp:148] Top shape: 24 112 14 14 (526848)
I0403 19:26:58.919404  9255 net.cpp:156] Memory required for data: 1115397408
I0403 19:26:58.919420  9255 layer_factory.hpp:77] Creating layer inception_4d/3x3_reduce
I0403 19:26:58.919457  9255 net.cpp:91] Creating Layer inception_4d/3x3_reduce
I0403 19:26:58.919477  9255 net.cpp:425] inception_4d/3x3_reduce <- inception_4c/output_inception_4c/output_0_split_1
I0403 19:26:58.919502  9255 net.cpp:399] inception_4d/3x3_reduce -> inception_4d/3x3_reduce
I0403 19:26:58.921118  9255 net.cpp:141] Setting up inception_4d/3x3_reduce
I0403 19:26:58.921152  9255 net.cpp:148] Top shape: 24 144 14 14 (677376)
I0403 19:26:58.921170  9255 net.cpp:156] Memory required for data: 1118106912
I0403 19:26:58.921198  9255 layer_factory.hpp:77] Creating layer inception_4d/relu_3x3_reduce
I0403 19:26:58.921224  9255 net.cpp:91] Creating Layer inception_4d/relu_3x3_reduce
I0403 19:26:58.921244  9255 net.cpp:425] inception_4d/relu_3x3_reduce <- inception_4d/3x3_reduce
I0403 19:26:58.921263  9255 net.cpp:386] inception_4d/relu_3x3_reduce -> inception_4d/3x3_reduce (in-place)
I0403 19:26:58.921568  9255 net.cpp:141] Setting up inception_4d/relu_3x3_reduce
I0403 19:26:58.921597  9255 net.cpp:148] Top shape: 24 144 14 14 (677376)
I0403 19:26:58.921612  9255 net.cpp:156] Memory required for data: 1120816416
I0403 19:26:58.921628  9255 layer_factory.hpp:77] Creating layer inception_4d/3x3
I0403 19:26:58.921655  9255 net.cpp:91] Creating Layer inception_4d/3x3
I0403 19:26:58.921679  9255 net.cpp:425] inception_4d/3x3 <- inception_4d/3x3_reduce
I0403 19:26:58.921703  9255 net.cpp:399] inception_4d/3x3 -> inception_4d/3x3
I0403 19:26:58.930775  9255 net.cpp:141] Setting up inception_4d/3x3
I0403 19:26:58.930807  9255 net.cpp:148] Top shape: 24 288 14 14 (1354752)
I0403 19:26:58.930824  9255 net.cpp:156] Memory required for data: 1126235424
I0403 19:26:58.930845  9255 layer_factory.hpp:77] Creating layer inception_4d/relu_3x3
I0403 19:26:58.930866  9255 net.cpp:91] Creating Layer inception_4d/relu_3x3
I0403 19:26:58.930884  9255 net.cpp:425] inception_4d/relu_3x3 <- inception_4d/3x3
I0403 19:26:58.930904  9255 net.cpp:386] inception_4d/relu_3x3 -> inception_4d/3x3 (in-place)
I0403 19:26:58.931100  9255 net.cpp:141] Setting up inception_4d/relu_3x3
I0403 19:26:58.931126  9255 net.cpp:148] Top shape: 24 288 14 14 (1354752)
I0403 19:26:58.931143  9255 net.cpp:156] Memory required for data: 1131654432
I0403 19:26:58.931161  9255 layer_factory.hpp:77] Creating layer inception_4d/5x5_reduce
I0403 19:26:58.931195  9255 net.cpp:91] Creating Layer inception_4d/5x5_reduce
I0403 19:26:58.931217  9255 net.cpp:425] inception_4d/5x5_reduce <- inception_4c/output_inception_4c/output_0_split_2
I0403 19:26:58.931241  9255 net.cpp:399] inception_4d/5x5_reduce -> inception_4d/5x5_reduce
I0403 19:26:58.932469  9255 net.cpp:141] Setting up inception_4d/5x5_reduce
I0403 19:26:58.932504  9255 net.cpp:148] Top shape: 24 32 14 14 (150528)
I0403 19:26:58.932523  9255 net.cpp:156] Memory required for data: 1132256544
I0403 19:26:58.932541  9255 layer_factory.hpp:77] Creating layer inception_4d/relu_5x5_reduce
I0403 19:26:58.932561  9255 net.cpp:91] Creating Layer inception_4d/relu_5x5_reduce
I0403 19:26:58.932579  9255 net.cpp:425] inception_4d/relu_5x5_reduce <- inception_4d/5x5_reduce
I0403 19:26:58.932601  9255 net.cpp:386] inception_4d/relu_5x5_reduce -> inception_4d/5x5_reduce (in-place)
I0403 19:26:58.932803  9255 net.cpp:141] Setting up inception_4d/relu_5x5_reduce
I0403 19:26:58.932833  9255 net.cpp:148] Top shape: 24 32 14 14 (150528)
I0403 19:26:58.932849  9255 net.cpp:156] Memory required for data: 1132858656
I0403 19:26:58.932865  9255 layer_factory.hpp:77] Creating layer inception_4d/5x5
I0403 19:26:58.932893  9255 net.cpp:91] Creating Layer inception_4d/5x5
I0403 19:26:58.932914  9255 net.cpp:425] inception_4d/5x5 <- inception_4d/5x5_reduce
I0403 19:26:58.932934  9255 net.cpp:399] inception_4d/5x5 -> inception_4d/5x5
I0403 19:26:58.934535  9255 net.cpp:141] Setting up inception_4d/5x5
I0403 19:26:58.934564  9255 net.cpp:148] Top shape: 24 64 14 14 (301056)
I0403 19:26:58.934581  9255 net.cpp:156] Memory required for data: 1134062880
I0403 19:26:58.934607  9255 layer_factory.hpp:77] Creating layer inception_4d/relu_5x5
I0403 19:26:58.934644  9255 net.cpp:91] Creating Layer inception_4d/relu_5x5
I0403 19:26:58.934662  9255 net.cpp:425] inception_4d/relu_5x5 <- inception_4d/5x5
I0403 19:26:58.934684  9255 net.cpp:386] inception_4d/relu_5x5 -> inception_4d/5x5 (in-place)
I0403 19:26:58.935004  9255 net.cpp:141] Setting up inception_4d/relu_5x5
I0403 19:26:58.935034  9255 net.cpp:148] Top shape: 24 64 14 14 (301056)
I0403 19:26:58.935050  9255 net.cpp:156] Memory required for data: 1135267104
I0403 19:26:58.935066  9255 layer_factory.hpp:77] Creating layer inception_4d/pool
I0403 19:26:58.935097  9255 net.cpp:91] Creating Layer inception_4d/pool
I0403 19:26:58.935116  9255 net.cpp:425] inception_4d/pool <- inception_4c/output_inception_4c/output_0_split_3
I0403 19:26:58.935137  9255 net.cpp:399] inception_4d/pool -> inception_4d/pool
I0403 19:26:58.935227  9255 net.cpp:141] Setting up inception_4d/pool
I0403 19:26:58.935256  9255 net.cpp:148] Top shape: 24 512 14 14 (2408448)
I0403 19:26:58.935272  9255 net.cpp:156] Memory required for data: 1144900896
I0403 19:26:58.935288  9255 layer_factory.hpp:77] Creating layer inception_4d/pool_proj
I0403 19:26:58.935312  9255 net.cpp:91] Creating Layer inception_4d/pool_proj
I0403 19:26:58.935330  9255 net.cpp:425] inception_4d/pool_proj <- inception_4d/pool
I0403 19:26:58.935351  9255 net.cpp:399] inception_4d/pool_proj -> inception_4d/pool_proj
I0403 19:26:58.937273  9255 net.cpp:141] Setting up inception_4d/pool_proj
I0403 19:26:58.937304  9255 net.cpp:148] Top shape: 24 64 14 14 (301056)
I0403 19:26:58.937322  9255 net.cpp:156] Memory required for data: 1146105120
I0403 19:26:58.937355  9255 layer_factory.hpp:77] Creating layer inception_4d/relu_pool_proj
I0403 19:26:58.937377  9255 net.cpp:91] Creating Layer inception_4d/relu_pool_proj
I0403 19:26:58.937396  9255 net.cpp:425] inception_4d/relu_pool_proj <- inception_4d/pool_proj
I0403 19:26:58.937422  9255 net.cpp:386] inception_4d/relu_pool_proj -> inception_4d/pool_proj (in-place)
I0403 19:26:58.937625  9255 net.cpp:141] Setting up inception_4d/relu_pool_proj
I0403 19:26:58.937654  9255 net.cpp:148] Top shape: 24 64 14 14 (301056)
I0403 19:26:58.937669  9255 net.cpp:156] Memory required for data: 1147309344
I0403 19:26:58.937685  9255 layer_factory.hpp:77] Creating layer inception_4d/output
I0403 19:26:58.937703  9255 net.cpp:91] Creating Layer inception_4d/output
I0403 19:26:58.937721  9255 net.cpp:425] inception_4d/output <- inception_4d/1x1
I0403 19:26:58.937741  9255 net.cpp:425] inception_4d/output <- inception_4d/3x3
I0403 19:26:58.937762  9255 net.cpp:425] inception_4d/output <- inception_4d/5x5
I0403 19:26:58.937783  9255 net.cpp:425] inception_4d/output <- inception_4d/pool_proj
I0403 19:26:58.937804  9255 net.cpp:399] inception_4d/output -> inception_4d/output
I0403 19:26:58.937855  9255 net.cpp:141] Setting up inception_4d/output
I0403 19:26:58.937893  9255 net.cpp:148] Top shape: 24 528 14 14 (2483712)
I0403 19:26:58.937909  9255 net.cpp:156] Memory required for data: 1157244192
I0403 19:26:58.937927  9255 layer_factory.hpp:77] Creating layer inception_4d/output_inception_4d/output_0_split
I0403 19:26:58.937947  9255 net.cpp:91] Creating Layer inception_4d/output_inception_4d/output_0_split
I0403 19:26:58.937969  9255 net.cpp:425] inception_4d/output_inception_4d/output_0_split <- inception_4d/output
I0403 19:26:58.937989  9255 net.cpp:399] inception_4d/output_inception_4d/output_0_split -> inception_4d/output_inception_4d/output_0_split_0
I0403 19:26:58.938011  9255 net.cpp:399] inception_4d/output_inception_4d/output_0_split -> inception_4d/output_inception_4d/output_0_split_1
I0403 19:26:58.938036  9255 net.cpp:399] inception_4d/output_inception_4d/output_0_split -> inception_4d/output_inception_4d/output_0_split_2
I0403 19:26:58.938060  9255 net.cpp:399] inception_4d/output_inception_4d/output_0_split -> inception_4d/output_inception_4d/output_0_split_3
I0403 19:26:58.938082  9255 net.cpp:399] inception_4d/output_inception_4d/output_0_split -> inception_4d/output_inception_4d/output_0_split_4
I0403 19:26:58.938199  9255 net.cpp:141] Setting up inception_4d/output_inception_4d/output_0_split
I0403 19:26:58.938240  9255 net.cpp:148] Top shape: 24 528 14 14 (2483712)
I0403 19:26:58.938258  9255 net.cpp:148] Top shape: 24 528 14 14 (2483712)
I0403 19:26:58.938276  9255 net.cpp:148] Top shape: 24 528 14 14 (2483712)
I0403 19:26:58.938292  9255 net.cpp:148] Top shape: 24 528 14 14 (2483712)
I0403 19:26:58.938310  9255 net.cpp:148] Top shape: 24 528 14 14 (2483712)
I0403 19:26:58.938326  9255 net.cpp:156] Memory required for data: 1206918432
I0403 19:26:58.938343  9255 layer_factory.hpp:77] Creating layer loss2/ave_pool
I0403 19:26:58.938364  9255 net.cpp:91] Creating Layer loss2/ave_pool
I0403 19:26:58.938385  9255 net.cpp:425] loss2/ave_pool <- inception_4d/output_inception_4d/output_0_split_0
I0403 19:26:58.938407  9255 net.cpp:399] loss2/ave_pool -> loss2/ave_pool
I0403 19:26:58.938743  9255 net.cpp:141] Setting up loss2/ave_pool
I0403 19:26:58.938772  9255 net.cpp:148] Top shape: 24 528 4 4 (202752)
I0403 19:26:58.938788  9255 net.cpp:156] Memory required for data: 1207729440
I0403 19:26:58.938803  9255 layer_factory.hpp:77] Creating layer loss2/conv
I0403 19:26:58.938829  9255 net.cpp:91] Creating Layer loss2/conv
I0403 19:26:58.938861  9255 net.cpp:425] loss2/conv <- loss2/ave_pool
I0403 19:26:58.938884  9255 net.cpp:399] loss2/conv -> loss2/conv
I0403 19:26:58.940922  9255 net.cpp:141] Setting up loss2/conv
I0403 19:26:58.940953  9255 net.cpp:148] Top shape: 24 128 4 4 (49152)
I0403 19:26:58.940970  9255 net.cpp:156] Memory required for data: 1207926048
I0403 19:26:58.940991  9255 layer_factory.hpp:77] Creating layer loss2/relu_conv
I0403 19:26:58.941015  9255 net.cpp:91] Creating Layer loss2/relu_conv
I0403 19:26:58.941033  9255 net.cpp:425] loss2/relu_conv <- loss2/conv
I0403 19:26:58.941054  9255 net.cpp:386] loss2/relu_conv -> loss2/conv (in-place)
I0403 19:26:58.941366  9255 net.cpp:141] Setting up loss2/relu_conv
I0403 19:26:58.941401  9255 net.cpp:148] Top shape: 24 128 4 4 (49152)
I0403 19:26:58.941417  9255 net.cpp:156] Memory required for data: 1208122656
I0403 19:26:58.941433  9255 layer_factory.hpp:77] Creating layer loss2/fc
I0403 19:26:58.941455  9255 net.cpp:91] Creating Layer loss2/fc
I0403 19:26:58.941476  9255 net.cpp:425] loss2/fc <- loss2/conv
I0403 19:26:58.941501  9255 net.cpp:399] loss2/fc -> loss2/fc
I0403 19:26:58.960644  9255 net.cpp:141] Setting up loss2/fc
I0403 19:26:58.960687  9255 net.cpp:148] Top shape: 24 1024 (24576)
I0403 19:26:58.960705  9255 net.cpp:156] Memory required for data: 1208220960
I0403 19:26:58.960728  9255 layer_factory.hpp:77] Creating layer loss2/relu_fc
I0403 19:26:58.960752  9255 net.cpp:91] Creating Layer loss2/relu_fc
I0403 19:26:58.960772  9255 net.cpp:425] loss2/relu_fc <- loss2/fc
I0403 19:26:58.960791  9255 net.cpp:386] loss2/relu_fc -> loss2/fc (in-place)
I0403 19:26:58.961123  9255 net.cpp:141] Setting up loss2/relu_fc
I0403 19:26:58.961154  9255 net.cpp:148] Top shape: 24 1024 (24576)
I0403 19:26:58.961172  9255 net.cpp:156] Memory required for data: 1208319264
I0403 19:26:58.961195  9255 layer_factory.hpp:77] Creating layer loss2/drop_fc
I0403 19:26:58.961218  9255 net.cpp:91] Creating Layer loss2/drop_fc
I0403 19:26:58.961236  9255 net.cpp:425] loss2/drop_fc <- loss2/fc
I0403 19:26:58.961256  9255 net.cpp:386] loss2/drop_fc -> loss2/fc (in-place)
I0403 19:26:58.961311  9255 net.cpp:141] Setting up loss2/drop_fc
I0403 19:26:58.961339  9255 net.cpp:148] Top shape: 24 1024 (24576)
I0403 19:26:58.961354  9255 net.cpp:156] Memory required for data: 1208417568
I0403 19:26:58.961370  9255 layer_factory.hpp:77] Creating layer loss2/classifier_plantvillage
I0403 19:26:58.961393  9255 net.cpp:91] Creating Layer loss2/classifier_plantvillage
I0403 19:26:58.961411  9255 net.cpp:425] loss2/classifier_plantvillage <- loss2/fc
I0403 19:26:58.961436  9255 net.cpp:399] loss2/classifier_plantvillage -> loss2/classifier_plantvillage
I0403 19:26:58.961886  9255 net.cpp:141] Setting up loss2/classifier_plantvillage
I0403 19:26:58.961916  9255 net.cpp:148] Top shape: 24 38 (912)
I0403 19:26:58.961954  9255 net.cpp:156] Memory required for data: 1208421216
I0403 19:26:58.961977  9255 layer_factory.hpp:77] Creating layer loss2/classifier_plantvillage_loss2/classifier_plantvillage_0_split
I0403 19:26:58.961995  9255 net.cpp:91] Creating Layer loss2/classifier_plantvillage_loss2/classifier_plantvillage_0_split
I0403 19:26:58.962013  9255 net.cpp:425] loss2/classifier_plantvillage_loss2/classifier_plantvillage_0_split <- loss2/classifier_plantvillage
I0403 19:26:58.962033  9255 net.cpp:399] loss2/classifier_plantvillage_loss2/classifier_plantvillage_0_split -> loss2/classifier_plantvillage_loss2/classifier_plantvillage_0_split_0
I0403 19:26:58.962059  9255 net.cpp:399] loss2/classifier_plantvillage_loss2/classifier_plantvillage_0_split -> loss2/classifier_plantvillage_loss2/classifier_plantvillage_0_split_1
I0403 19:26:58.962093  9255 net.cpp:399] loss2/classifier_plantvillage_loss2/classifier_plantvillage_0_split -> loss2/classifier_plantvillage_loss2/classifier_plantvillage_0_split_2
I0403 19:26:58.962182  9255 net.cpp:141] Setting up loss2/classifier_plantvillage_loss2/classifier_plantvillage_0_split
I0403 19:26:58.962209  9255 net.cpp:148] Top shape: 24 38 (912)
I0403 19:26:58.962226  9255 net.cpp:148] Top shape: 24 38 (912)
I0403 19:26:58.962244  9255 net.cpp:148] Top shape: 24 38 (912)
I0403 19:26:58.962258  9255 net.cpp:156] Memory required for data: 1208432160
I0403 19:26:58.962275  9255 layer_factory.hpp:77] Creating layer inception_4e/1x1
I0403 19:26:58.962298  9255 net.cpp:91] Creating Layer inception_4e/1x1
I0403 19:26:58.962318  9255 net.cpp:425] inception_4e/1x1 <- inception_4d/output_inception_4d/output_0_split_1
I0403 19:26:58.962339  9255 net.cpp:399] inception_4e/1x1 -> inception_4e/1x1
I0403 19:26:58.964313  9255 net.cpp:141] Setting up inception_4e/1x1
I0403 19:26:58.964342  9255 net.cpp:148] Top shape: 24 256 14 14 (1204224)
I0403 19:26:58.964359  9255 net.cpp:156] Memory required for data: 1213249056
I0403 19:26:58.964380  9255 layer_factory.hpp:77] Creating layer inception_4e/relu_1x1
I0403 19:26:58.964402  9255 net.cpp:91] Creating Layer inception_4e/relu_1x1
I0403 19:26:58.964422  9255 net.cpp:425] inception_4e/relu_1x1 <- inception_4e/1x1
I0403 19:26:58.964442  9255 net.cpp:386] inception_4e/relu_1x1 -> inception_4e/1x1 (in-place)
I0403 19:26:58.964756  9255 net.cpp:141] Setting up inception_4e/relu_1x1
I0403 19:26:58.964784  9255 net.cpp:148] Top shape: 24 256 14 14 (1204224)
I0403 19:26:58.964800  9255 net.cpp:156] Memory required for data: 1218065952
I0403 19:26:58.964818  9255 layer_factory.hpp:77] Creating layer inception_4e/3x3_reduce
I0403 19:26:58.964840  9255 net.cpp:91] Creating Layer inception_4e/3x3_reduce
I0403 19:26:58.964872  9255 net.cpp:425] inception_4e/3x3_reduce <- inception_4d/output_inception_4d/output_0_split_2
I0403 19:26:58.964896  9255 net.cpp:399] inception_4e/3x3_reduce -> inception_4e/3x3_reduce
I0403 19:26:58.967140  9255 net.cpp:141] Setting up inception_4e/3x3_reduce
I0403 19:26:58.967170  9255 net.cpp:148] Top shape: 24 160 14 14 (752640)
I0403 19:26:58.967198  9255 net.cpp:156] Memory required for data: 1221076512
I0403 19:26:58.967234  9255 layer_factory.hpp:77] Creating layer inception_4e/relu_3x3_reduce
I0403 19:26:58.967258  9255 net.cpp:91] Creating Layer inception_4e/relu_3x3_reduce
I0403 19:26:58.967275  9255 net.cpp:425] inception_4e/relu_3x3_reduce <- inception_4e/3x3_reduce
I0403 19:26:58.967301  9255 net.cpp:386] inception_4e/relu_3x3_reduce -> inception_4e/3x3_reduce (in-place)
I0403 19:26:58.967502  9255 net.cpp:141] Setting up inception_4e/relu_3x3_reduce
I0403 19:26:58.967530  9255 net.cpp:148] Top shape: 24 160 14 14 (752640)
I0403 19:26:58.967550  9255 net.cpp:156] Memory required for data: 1224087072
I0403 19:26:58.967569  9255 layer_factory.hpp:77] Creating layer inception_4e/3x3
I0403 19:26:58.967595  9255 net.cpp:91] Creating Layer inception_4e/3x3
I0403 19:26:58.967613  9255 net.cpp:425] inception_4e/3x3 <- inception_4e/3x3_reduce
I0403 19:26:58.967636  9255 net.cpp:399] inception_4e/3x3 -> inception_4e/3x3
I0403 19:26:58.972993  9255 net.cpp:141] Setting up inception_4e/3x3
I0403 19:26:58.973040  9255 net.cpp:148] Top shape: 24 320 14 14 (1505280)
I0403 19:26:58.973057  9255 net.cpp:156] Memory required for data: 1230108192
I0403 19:26:58.973080  9255 layer_factory.hpp:77] Creating layer inception_4e/relu_3x3
I0403 19:26:58.973109  9255 net.cpp:91] Creating Layer inception_4e/relu_3x3
I0403 19:26:58.973127  9255 net.cpp:425] inception_4e/relu_3x3 <- inception_4e/3x3
I0403 19:26:58.973147  9255 net.cpp:386] inception_4e/relu_3x3 -> inception_4e/3x3 (in-place)
I0403 19:26:58.973480  9255 net.cpp:141] Setting up inception_4e/relu_3x3
I0403 19:26:58.973512  9255 net.cpp:148] Top shape: 24 320 14 14 (1505280)
I0403 19:26:58.973531  9255 net.cpp:156] Memory required for data: 1236129312
I0403 19:26:58.973549  9255 layer_factory.hpp:77] Creating layer inception_4e/5x5_reduce
I0403 19:26:58.973572  9255 net.cpp:91] Creating Layer inception_4e/5x5_reduce
I0403 19:26:58.973592  9255 net.cpp:425] inception_4e/5x5_reduce <- inception_4d/output_inception_4d/output_0_split_3
I0403 19:26:58.973615  9255 net.cpp:399] inception_4e/5x5_reduce -> inception_4e/5x5_reduce
I0403 19:26:58.974774  9255 net.cpp:141] Setting up inception_4e/5x5_reduce
I0403 19:26:58.974808  9255 net.cpp:148] Top shape: 24 32 14 14 (150528)
I0403 19:26:58.974828  9255 net.cpp:156] Memory required for data: 1236731424
I0403 19:26:58.974848  9255 layer_factory.hpp:77] Creating layer inception_4e/relu_5x5_reduce
I0403 19:26:58.974866  9255 net.cpp:91] Creating Layer inception_4e/relu_5x5_reduce
I0403 19:26:58.974891  9255 net.cpp:425] inception_4e/relu_5x5_reduce <- inception_4e/5x5_reduce
I0403 19:26:58.974920  9255 net.cpp:386] inception_4e/relu_5x5_reduce -> inception_4e/5x5_reduce (in-place)
I0403 19:26:58.975244  9255 net.cpp:141] Setting up inception_4e/relu_5x5_reduce
I0403 19:26:58.975273  9255 net.cpp:148] Top shape: 24 32 14 14 (150528)
I0403 19:26:58.975291  9255 net.cpp:156] Memory required for data: 1237333536
I0403 19:26:58.975308  9255 layer_factory.hpp:77] Creating layer inception_4e/5x5
I0403 19:26:58.975350  9255 net.cpp:91] Creating Layer inception_4e/5x5
I0403 19:26:58.975370  9255 net.cpp:425] inception_4e/5x5 <- inception_4e/5x5_reduce
I0403 19:26:58.975394  9255 net.cpp:399] inception_4e/5x5 -> inception_4e/5x5
I0403 19:26:58.977356  9255 net.cpp:141] Setting up inception_4e/5x5
I0403 19:26:58.977388  9255 net.cpp:148] Top shape: 24 128 14 14 (602112)
I0403 19:26:58.977406  9255 net.cpp:156] Memory required for data: 1239741984
I0403 19:26:58.977427  9255 layer_factory.hpp:77] Creating layer inception_4e/relu_5x5
I0403 19:26:58.977445  9255 net.cpp:91] Creating Layer inception_4e/relu_5x5
I0403 19:26:58.977463  9255 net.cpp:425] inception_4e/relu_5x5 <- inception_4e/5x5
I0403 19:26:58.977488  9255 net.cpp:386] inception_4e/relu_5x5 -> inception_4e/5x5 (in-place)
I0403 19:26:58.977695  9255 net.cpp:141] Setting up inception_4e/relu_5x5
I0403 19:26:58.977721  9255 net.cpp:148] Top shape: 24 128 14 14 (602112)
I0403 19:26:58.977737  9255 net.cpp:156] Memory required for data: 1242150432
I0403 19:26:58.977752  9255 layer_factory.hpp:77] Creating layer inception_4e/pool
I0403 19:26:58.977772  9255 net.cpp:91] Creating Layer inception_4e/pool
I0403 19:26:58.977789  9255 net.cpp:425] inception_4e/pool <- inception_4d/output_inception_4d/output_0_split_4
I0403 19:26:58.977810  9255 net.cpp:399] inception_4e/pool -> inception_4e/pool
I0403 19:26:58.977885  9255 net.cpp:141] Setting up inception_4e/pool
I0403 19:26:58.977911  9255 net.cpp:148] Top shape: 24 528 14 14 (2483712)
I0403 19:26:58.977926  9255 net.cpp:156] Memory required for data: 1252085280
I0403 19:26:58.977942  9255 layer_factory.hpp:77] Creating layer inception_4e/pool_proj
I0403 19:26:58.977967  9255 net.cpp:91] Creating Layer inception_4e/pool_proj
I0403 19:26:58.977985  9255 net.cpp:425] inception_4e/pool_proj <- inception_4e/pool
I0403 19:26:58.978005  9255 net.cpp:399] inception_4e/pool_proj -> inception_4e/pool_proj
I0403 19:26:58.979611  9255 net.cpp:141] Setting up inception_4e/pool_proj
I0403 19:26:58.979655  9255 net.cpp:148] Top shape: 24 128 14 14 (602112)
I0403 19:26:58.979671  9255 net.cpp:156] Memory required for data: 1254493728
I0403 19:26:58.979691  9255 layer_factory.hpp:77] Creating layer inception_4e/relu_pool_proj
I0403 19:26:58.979713  9255 net.cpp:91] Creating Layer inception_4e/relu_pool_proj
I0403 19:26:58.979732  9255 net.cpp:425] inception_4e/relu_pool_proj <- inception_4e/pool_proj
I0403 19:26:58.979751  9255 net.cpp:386] inception_4e/relu_pool_proj -> inception_4e/pool_proj (in-place)
I0403 19:26:58.980062  9255 net.cpp:141] Setting up inception_4e/relu_pool_proj
I0403 19:26:58.980090  9255 net.cpp:148] Top shape: 24 128 14 14 (602112)
I0403 19:26:58.980106  9255 net.cpp:156] Memory required for data: 1256902176
I0403 19:26:58.980123  9255 layer_factory.hpp:77] Creating layer inception_4e/output
I0403 19:26:58.980144  9255 net.cpp:91] Creating Layer inception_4e/output
I0403 19:26:58.980161  9255 net.cpp:425] inception_4e/output <- inception_4e/1x1
I0403 19:26:58.980185  9255 net.cpp:425] inception_4e/output <- inception_4e/3x3
I0403 19:26:58.980203  9255 net.cpp:425] inception_4e/output <- inception_4e/5x5
I0403 19:26:58.980221  9255 net.cpp:425] inception_4e/output <- inception_4e/pool_proj
I0403 19:26:58.980239  9255 net.cpp:399] inception_4e/output -> inception_4e/output
I0403 19:26:58.980294  9255 net.cpp:141] Setting up inception_4e/output
I0403 19:26:58.980319  9255 net.cpp:148] Top shape: 24 832 14 14 (3913728)
I0403 19:26:58.980335  9255 net.cpp:156] Memory required for data: 1272557088
I0403 19:26:58.980351  9255 layer_factory.hpp:77] Creating layer pool4/3x3_s2
I0403 19:26:58.980372  9255 net.cpp:91] Creating Layer pool4/3x3_s2
I0403 19:26:58.980389  9255 net.cpp:425] pool4/3x3_s2 <- inception_4e/output
I0403 19:26:58.980409  9255 net.cpp:399] pool4/3x3_s2 -> pool4/3x3_s2
I0403 19:26:58.980484  9255 net.cpp:141] Setting up pool4/3x3_s2
I0403 19:26:58.980509  9255 net.cpp:148] Top shape: 24 832 7 7 (978432)
I0403 19:26:58.980525  9255 net.cpp:156] Memory required for data: 1276470816
I0403 19:26:58.980540  9255 layer_factory.hpp:77] Creating layer pool4/3x3_s2_pool4/3x3_s2_0_split
I0403 19:26:58.980558  9255 net.cpp:91] Creating Layer pool4/3x3_s2_pool4/3x3_s2_0_split
I0403 19:26:58.980574  9255 net.cpp:425] pool4/3x3_s2_pool4/3x3_s2_0_split <- pool4/3x3_s2
I0403 19:26:58.980597  9255 net.cpp:399] pool4/3x3_s2_pool4/3x3_s2_0_split -> pool4/3x3_s2_pool4/3x3_s2_0_split_0
I0403 19:26:58.980618  9255 net.cpp:399] pool4/3x3_s2_pool4/3x3_s2_0_split -> pool4/3x3_s2_pool4/3x3_s2_0_split_1
I0403 19:26:58.980639  9255 net.cpp:399] pool4/3x3_s2_pool4/3x3_s2_0_split -> pool4/3x3_s2_pool4/3x3_s2_0_split_2
I0403 19:26:58.980660  9255 net.cpp:399] pool4/3x3_s2_pool4/3x3_s2_0_split -> pool4/3x3_s2_pool4/3x3_s2_0_split_3
I0403 19:26:58.980759  9255 net.cpp:141] Setting up pool4/3x3_s2_pool4/3x3_s2_0_split
I0403 19:26:58.980787  9255 net.cpp:148] Top shape: 24 832 7 7 (978432)
I0403 19:26:58.980805  9255 net.cpp:148] Top shape: 24 832 7 7 (978432)
I0403 19:26:58.980823  9255 net.cpp:148] Top shape: 24 832 7 7 (978432)
I0403 19:26:58.980839  9255 net.cpp:148] Top shape: 24 832 7 7 (978432)
I0403 19:26:58.980854  9255 net.cpp:156] Memory required for data: 1292125728
I0403 19:26:58.980868  9255 layer_factory.hpp:77] Creating layer inception_5a/1x1
I0403 19:26:58.980892  9255 net.cpp:91] Creating Layer inception_5a/1x1
I0403 19:26:58.980911  9255 net.cpp:425] inception_5a/1x1 <- pool4/3x3_s2_pool4/3x3_s2_0_split_0
I0403 19:26:58.980931  9255 net.cpp:399] inception_5a/1x1 -> inception_5a/1x1
I0403 19:26:58.983991  9255 net.cpp:141] Setting up inception_5a/1x1
I0403 19:26:58.984021  9255 net.cpp:148] Top shape: 24 256 7 7 (301056)
I0403 19:26:58.984038  9255 net.cpp:156] Memory required for data: 1293329952
I0403 19:26:58.984058  9255 layer_factory.hpp:77] Creating layer inception_5a/relu_1x1
I0403 19:26:58.984078  9255 net.cpp:91] Creating Layer inception_5a/relu_1x1
I0403 19:26:58.984094  9255 net.cpp:425] inception_5a/relu_1x1 <- inception_5a/1x1
I0403 19:26:58.984115  9255 net.cpp:386] inception_5a/relu_1x1 -> inception_5a/1x1 (in-place)
I0403 19:26:58.984452  9255 net.cpp:141] Setting up inception_5a/relu_1x1
I0403 19:26:58.984482  9255 net.cpp:148] Top shape: 24 256 7 7 (301056)
I0403 19:26:58.984498  9255 net.cpp:156] Memory required for data: 1294534176
I0403 19:26:58.984513  9255 layer_factory.hpp:77] Creating layer inception_5a/3x3_reduce
I0403 19:26:58.984536  9255 net.cpp:91] Creating Layer inception_5a/3x3_reduce
I0403 19:26:58.984555  9255 net.cpp:425] inception_5a/3x3_reduce <- pool4/3x3_s2_pool4/3x3_s2_0_split_1
I0403 19:26:58.984580  9255 net.cpp:399] inception_5a/3x3_reduce -> inception_5a/3x3_reduce
I0403 19:26:58.987188  9255 net.cpp:141] Setting up inception_5a/3x3_reduce
I0403 19:26:58.987220  9255 net.cpp:148] Top shape: 24 160 7 7 (188160)
I0403 19:26:58.987236  9255 net.cpp:156] Memory required for data: 1295286816
I0403 19:26:58.987256  9255 layer_factory.hpp:77] Creating layer inception_5a/relu_3x3_reduce
I0403 19:26:58.987278  9255 net.cpp:91] Creating Layer inception_5a/relu_3x3_reduce
I0403 19:26:58.987296  9255 net.cpp:425] inception_5a/relu_3x3_reduce <- inception_5a/3x3_reduce
I0403 19:26:58.987315  9255 net.cpp:386] inception_5a/relu_3x3_reduce -> inception_5a/3x3_reduce (in-place)
I0403 19:26:58.987514  9255 net.cpp:141] Setting up inception_5a/relu_3x3_reduce
I0403 19:26:58.987542  9255 net.cpp:148] Top shape: 24 160 7 7 (188160)
I0403 19:26:58.987558  9255 net.cpp:156] Memory required for data: 1296039456
I0403 19:26:58.987574  9255 layer_factory.hpp:77] Creating layer inception_5a/3x3
I0403 19:26:58.987598  9255 net.cpp:91] Creating Layer inception_5a/3x3
I0403 19:26:58.987617  9255 net.cpp:425] inception_5a/3x3 <- inception_5a/3x3_reduce
I0403 19:26:58.987638  9255 net.cpp:399] inception_5a/3x3 -> inception_5a/3x3
I0403 19:26:58.993002  9255 net.cpp:141] Setting up inception_5a/3x3
I0403 19:26:58.993036  9255 net.cpp:148] Top shape: 24 320 7 7 (376320)
I0403 19:26:58.993053  9255 net.cpp:156] Memory required for data: 1297544736
I0403 19:26:58.993074  9255 layer_factory.hpp:77] Creating layer inception_5a/relu_3x3
I0403 19:26:58.993093  9255 net.cpp:91] Creating Layer inception_5a/relu_3x3
I0403 19:26:58.993111  9255 net.cpp:425] inception_5a/relu_3x3 <- inception_5a/3x3
I0403 19:26:58.993132  9255 net.cpp:386] inception_5a/relu_3x3 -> inception_5a/3x3 (in-place)
I0403 19:26:58.993455  9255 net.cpp:141] Setting up inception_5a/relu_3x3
I0403 19:26:58.993486  9255 net.cpp:148] Top shape: 24 320 7 7 (376320)
I0403 19:26:58.993504  9255 net.cpp:156] Memory required for data: 1299050016
I0403 19:26:58.993520  9255 layer_factory.hpp:77] Creating layer inception_5a/5x5_reduce
I0403 19:26:58.993544  9255 net.cpp:91] Creating Layer inception_5a/5x5_reduce
I0403 19:26:58.993564  9255 net.cpp:425] inception_5a/5x5_reduce <- pool4/3x3_s2_pool4/3x3_s2_0_split_2
I0403 19:26:58.993585  9255 net.cpp:399] inception_5a/5x5_reduce -> inception_5a/5x5_reduce
I0403 19:26:58.994840  9255 net.cpp:141] Setting up inception_5a/5x5_reduce
I0403 19:26:58.994874  9255 net.cpp:148] Top shape: 24 32 7 7 (37632)
I0403 19:26:58.994890  9255 net.cpp:156] Memory required for data: 1299200544
I0403 19:26:58.994910  9255 layer_factory.hpp:77] Creating layer inception_5a/relu_5x5_reduce
I0403 19:26:58.994930  9255 net.cpp:91] Creating Layer inception_5a/relu_5x5_reduce
I0403 19:26:58.994947  9255 net.cpp:425] inception_5a/relu_5x5_reduce <- inception_5a/5x5_reduce
I0403 19:26:58.994969  9255 net.cpp:386] inception_5a/relu_5x5_reduce -> inception_5a/5x5_reduce (in-place)
I0403 19:26:58.995293  9255 net.cpp:141] Setting up inception_5a/relu_5x5_reduce
I0403 19:26:58.995322  9255 net.cpp:148] Top shape: 24 32 7 7 (37632)
I0403 19:26:58.995338  9255 net.cpp:156] Memory required for data: 1299351072
I0403 19:26:58.995354  9255 layer_factory.hpp:77] Creating layer inception_5a/5x5
I0403 19:26:58.995378  9255 net.cpp:91] Creating Layer inception_5a/5x5
I0403 19:26:58.995398  9255 net.cpp:425] inception_5a/5x5 <- inception_5a/5x5_reduce
I0403 19:26:58.995420  9255 net.cpp:399] inception_5a/5x5 -> inception_5a/5x5
I0403 19:26:58.997272  9255 net.cpp:141] Setting up inception_5a/5x5
I0403 19:26:58.997319  9255 net.cpp:148] Top shape: 24 128 7 7 (150528)
I0403 19:26:58.997337  9255 net.cpp:156] Memory required for data: 1299953184
I0403 19:26:58.997357  9255 layer_factory.hpp:77] Creating layer inception_5a/relu_5x5
I0403 19:26:58.997377  9255 net.cpp:91] Creating Layer inception_5a/relu_5x5
I0403 19:26:58.997395  9255 net.cpp:425] inception_5a/relu_5x5 <- inception_5a/5x5
I0403 19:26:58.997416  9255 net.cpp:386] inception_5a/relu_5x5 -> inception_5a/5x5 (in-place)
I0403 19:26:58.997619  9255 net.cpp:141] Setting up inception_5a/relu_5x5
I0403 19:26:58.997647  9255 net.cpp:148] Top shape: 24 128 7 7 (150528)
I0403 19:26:58.997663  9255 net.cpp:156] Memory required for data: 1300555296
I0403 19:26:58.997678  9255 layer_factory.hpp:77] Creating layer inception_5a/pool
I0403 19:26:58.997697  9255 net.cpp:91] Creating Layer inception_5a/pool
I0403 19:26:58.997715  9255 net.cpp:425] inception_5a/pool <- pool4/3x3_s2_pool4/3x3_s2_0_split_3
I0403 19:26:58.997736  9255 net.cpp:399] inception_5a/pool -> inception_5a/pool
I0403 19:26:58.997817  9255 net.cpp:141] Setting up inception_5a/pool
I0403 19:26:58.997841  9255 net.cpp:148] Top shape: 24 832 7 7 (978432)
I0403 19:26:58.997856  9255 net.cpp:156] Memory required for data: 1304469024
I0403 19:26:58.997874  9255 layer_factory.hpp:77] Creating layer inception_5a/pool_proj
I0403 19:26:58.997898  9255 net.cpp:91] Creating Layer inception_5a/pool_proj
I0403 19:26:58.997917  9255 net.cpp:425] inception_5a/pool_proj <- inception_5a/pool
I0403 19:26:58.997937  9255 net.cpp:399] inception_5a/pool_proj -> inception_5a/pool_proj
I0403 19:26:59.000380  9255 net.cpp:141] Setting up inception_5a/pool_proj
I0403 19:26:59.000414  9255 net.cpp:148] Top shape: 24 128 7 7 (150528)
I0403 19:26:59.000432  9255 net.cpp:156] Memory required for data: 1305071136
I0403 19:26:59.000452  9255 layer_factory.hpp:77] Creating layer inception_5a/relu_pool_proj
I0403 19:26:59.000470  9255 net.cpp:91] Creating Layer inception_5a/relu_pool_proj
I0403 19:26:59.000488  9255 net.cpp:425] inception_5a/relu_pool_proj <- inception_5a/pool_proj
I0403 19:26:59.000507  9255 net.cpp:386] inception_5a/relu_pool_proj -> inception_5a/pool_proj (in-place)
I0403 19:26:59.000824  9255 net.cpp:141] Setting up inception_5a/relu_pool_proj
I0403 19:26:59.000856  9255 net.cpp:148] Top shape: 24 128 7 7 (150528)
I0403 19:26:59.000874  9255 net.cpp:156] Memory required for data: 1305673248
I0403 19:26:59.000890  9255 layer_factory.hpp:77] Creating layer inception_5a/output
I0403 19:26:59.000908  9255 net.cpp:91] Creating Layer inception_5a/output
I0403 19:26:59.000926  9255 net.cpp:425] inception_5a/output <- inception_5a/1x1
I0403 19:26:59.000943  9255 net.cpp:425] inception_5a/output <- inception_5a/3x3
I0403 19:26:59.000962  9255 net.cpp:425] inception_5a/output <- inception_5a/5x5
I0403 19:26:59.000978  9255 net.cpp:425] inception_5a/output <- inception_5a/pool_proj
I0403 19:26:59.000996  9255 net.cpp:399] inception_5a/output -> inception_5a/output
I0403 19:26:59.001052  9255 net.cpp:141] Setting up inception_5a/output
I0403 19:26:59.001077  9255 net.cpp:148] Top shape: 24 832 7 7 (978432)
I0403 19:26:59.001093  9255 net.cpp:156] Memory required for data: 1309586976
I0403 19:26:59.001109  9255 layer_factory.hpp:77] Creating layer inception_5a/output_inception_5a/output_0_split
I0403 19:26:59.001132  9255 net.cpp:91] Creating Layer inception_5a/output_inception_5a/output_0_split
I0403 19:26:59.001148  9255 net.cpp:425] inception_5a/output_inception_5a/output_0_split <- inception_5a/output
I0403 19:26:59.001168  9255 net.cpp:399] inception_5a/output_inception_5a/output_0_split -> inception_5a/output_inception_5a/output_0_split_0
I0403 19:26:59.001195  9255 net.cpp:399] inception_5a/output_inception_5a/output_0_split -> inception_5a/output_inception_5a/output_0_split_1
I0403 19:26:59.001219  9255 net.cpp:399] inception_5a/output_inception_5a/output_0_split -> inception_5a/output_inception_5a/output_0_split_2
I0403 19:26:59.001241  9255 net.cpp:399] inception_5a/output_inception_5a/output_0_split -> inception_5a/output_inception_5a/output_0_split_3
I0403 19:26:59.001364  9255 net.cpp:141] Setting up inception_5a/output_inception_5a/output_0_split
I0403 19:26:59.001390  9255 net.cpp:148] Top shape: 24 832 7 7 (978432)
I0403 19:26:59.001408  9255 net.cpp:148] Top shape: 24 832 7 7 (978432)
I0403 19:26:59.001425  9255 net.cpp:148] Top shape: 24 832 7 7 (978432)
I0403 19:26:59.001441  9255 net.cpp:148] Top shape: 24 832 7 7 (978432)
I0403 19:26:59.001456  9255 net.cpp:156] Memory required for data: 1325241888
I0403 19:26:59.001472  9255 layer_factory.hpp:77] Creating layer inception_5b/1x1
I0403 19:26:59.001497  9255 net.cpp:91] Creating Layer inception_5b/1x1
I0403 19:26:59.001515  9255 net.cpp:425] inception_5b/1x1 <- inception_5a/output_inception_5a/output_0_split_0
I0403 19:26:59.001538  9255 net.cpp:399] inception_5b/1x1 -> inception_5b/1x1
I0403 19:26:59.005585  9255 net.cpp:141] Setting up inception_5b/1x1
I0403 19:26:59.005619  9255 net.cpp:148] Top shape: 24 384 7 7 (451584)
I0403 19:26:59.005635  9255 net.cpp:156] Memory required for data: 1327048224
I0403 19:26:59.005655  9255 layer_factory.hpp:77] Creating layer inception_5b/relu_1x1
I0403 19:26:59.005677  9255 net.cpp:91] Creating Layer inception_5b/relu_1x1
I0403 19:26:59.005695  9255 net.cpp:425] inception_5b/relu_1x1 <- inception_5b/1x1
I0403 19:26:59.005714  9255 net.cpp:386] inception_5b/relu_1x1 -> inception_5b/1x1 (in-place)
I0403 19:26:59.006043  9255 net.cpp:141] Setting up inception_5b/relu_1x1
I0403 19:26:59.006072  9255 net.cpp:148] Top shape: 24 384 7 7 (451584)
I0403 19:26:59.006088  9255 net.cpp:156] Memory required for data: 1328854560
I0403 19:26:59.006103  9255 layer_factory.hpp:77] Creating layer inception_5b/3x3_reduce
I0403 19:26:59.006129  9255 net.cpp:91] Creating Layer inception_5b/3x3_reduce
I0403 19:26:59.006150  9255 net.cpp:425] inception_5b/3x3_reduce <- inception_5a/output_inception_5a/output_0_split_1
I0403 19:26:59.006171  9255 net.cpp:399] inception_5b/3x3_reduce -> inception_5b/3x3_reduce
I0403 19:26:59.009022  9255 net.cpp:141] Setting up inception_5b/3x3_reduce
I0403 19:26:59.009057  9255 net.cpp:148] Top shape: 24 192 7 7 (225792)
I0403 19:26:59.009075  9255 net.cpp:156] Memory required for data: 1329757728
I0403 19:26:59.009095  9255 layer_factory.hpp:77] Creating layer inception_5b/relu_3x3_reduce
I0403 19:26:59.009115  9255 net.cpp:91] Creating Layer inception_5b/relu_3x3_reduce
I0403 19:26:59.009132  9255 net.cpp:425] inception_5b/relu_3x3_reduce <- inception_5b/3x3_reduce
I0403 19:26:59.009151  9255 net.cpp:386] inception_5b/relu_3x3_reduce -> inception_5b/3x3_reduce (in-place)
I0403 19:26:59.009362  9255 net.cpp:141] Setting up inception_5b/relu_3x3_reduce
I0403 19:26:59.009392  9255 net.cpp:148] Top shape: 24 192 7 7 (225792)
I0403 19:26:59.009408  9255 net.cpp:156] Memory required for data: 1330660896
I0403 19:26:59.009423  9255 layer_factory.hpp:77] Creating layer inception_5b/3x3
I0403 19:26:59.009448  9255 net.cpp:91] Creating Layer inception_5b/3x3
I0403 19:26:59.009466  9255 net.cpp:425] inception_5b/3x3 <- inception_5b/3x3_reduce
I0403 19:26:59.009487  9255 net.cpp:399] inception_5b/3x3 -> inception_5b/3x3
I0403 19:26:59.016696  9255 net.cpp:141] Setting up inception_5b/3x3
I0403 19:26:59.016731  9255 net.cpp:148] Top shape: 24 384 7 7 (451584)
I0403 19:26:59.016749  9255 net.cpp:156] Memory required for data: 1332467232
I0403 19:26:59.016770  9255 layer_factory.hpp:77] Creating layer inception_5b/relu_3x3
I0403 19:26:59.016789  9255 net.cpp:91] Creating Layer inception_5b/relu_3x3
I0403 19:26:59.016806  9255 net.cpp:425] inception_5b/relu_3x3 <- inception_5b/3x3
I0403 19:26:59.016827  9255 net.cpp:386] inception_5b/relu_3x3 -> inception_5b/3x3 (in-place)
I0403 19:26:59.017149  9255 net.cpp:141] Setting up inception_5b/relu_3x3
I0403 19:26:59.017184  9255 net.cpp:148] Top shape: 24 384 7 7 (451584)
I0403 19:26:59.017204  9255 net.cpp:156] Memory required for data: 1334273568
I0403 19:26:59.017220  9255 layer_factory.hpp:77] Creating layer inception_5b/5x5_reduce
I0403 19:26:59.017262  9255 net.cpp:91] Creating Layer inception_5b/5x5_reduce
I0403 19:26:59.017284  9255 net.cpp:425] inception_5b/5x5_reduce <- inception_5a/output_inception_5a/output_0_split_2
I0403 19:26:59.017314  9255 net.cpp:399] inception_5b/5x5_reduce -> inception_5b/5x5_reduce
I0403 19:26:59.018687  9255 net.cpp:141] Setting up inception_5b/5x5_reduce
I0403 19:26:59.018718  9255 net.cpp:148] Top shape: 24 48 7 7 (56448)
I0403 19:26:59.018735  9255 net.cpp:156] Memory required for data: 1334499360
I0403 19:26:59.018755  9255 layer_factory.hpp:77] Creating layer inception_5b/relu_5x5_reduce
I0403 19:26:59.018785  9255 net.cpp:91] Creating Layer inception_5b/relu_5x5_reduce
I0403 19:26:59.018824  9255 net.cpp:425] inception_5b/relu_5x5_reduce <- inception_5b/5x5_reduce
I0403 19:26:59.018844  9255 net.cpp:386] inception_5b/relu_5x5_reduce -> inception_5b/5x5_reduce (in-place)
I0403 19:26:59.019258  9255 net.cpp:141] Setting up inception_5b/relu_5x5_reduce
I0403 19:26:59.019287  9255 net.cpp:148] Top shape: 24 48 7 7 (56448)
I0403 19:26:59.019304  9255 net.cpp:156] Memory required for data: 1334725152
I0403 19:26:59.019320  9255 layer_factory.hpp:77] Creating layer inception_5b/5x5
I0403 19:26:59.019342  9255 net.cpp:91] Creating Layer inception_5b/5x5
I0403 19:26:59.019361  9255 net.cpp:425] inception_5b/5x5 <- inception_5b/5x5_reduce
I0403 19:26:59.019382  9255 net.cpp:399] inception_5b/5x5 -> inception_5b/5x5
I0403 19:26:59.021620  9255 net.cpp:141] Setting up inception_5b/5x5
I0403 19:26:59.021661  9255 net.cpp:148] Top shape: 24 128 7 7 (150528)
I0403 19:26:59.021680  9255 net.cpp:156] Memory required for data: 1335327264
I0403 19:26:59.021700  9255 layer_factory.hpp:77] Creating layer inception_5b/relu_5x5
I0403 19:26:59.021719  9255 net.cpp:91] Creating Layer inception_5b/relu_5x5
I0403 19:26:59.021736  9255 net.cpp:425] inception_5b/relu_5x5 <- inception_5b/5x5
I0403 19:26:59.021757  9255 net.cpp:386] inception_5b/relu_5x5 -> inception_5b/5x5 (in-place)
I0403 19:26:59.021967  9255 net.cpp:141] Setting up inception_5b/relu_5x5
I0403 19:26:59.021994  9255 net.cpp:148] Top shape: 24 128 7 7 (150528)
I0403 19:26:59.022011  9255 net.cpp:156] Memory required for data: 1335929376
I0403 19:26:59.022025  9255 layer_factory.hpp:77] Creating layer inception_5b/pool
I0403 19:26:59.022047  9255 net.cpp:91] Creating Layer inception_5b/pool
I0403 19:26:59.022068  9255 net.cpp:425] inception_5b/pool <- inception_5a/output_inception_5a/output_0_split_3
I0403 19:26:59.022089  9255 net.cpp:399] inception_5b/pool -> inception_5b/pool
I0403 19:26:59.022169  9255 net.cpp:141] Setting up inception_5b/pool
I0403 19:26:59.022199  9255 net.cpp:148] Top shape: 24 832 7 7 (978432)
I0403 19:26:59.022215  9255 net.cpp:156] Memory required for data: 1339843104
I0403 19:26:59.022231  9255 layer_factory.hpp:77] Creating layer inception_5b/pool_proj
I0403 19:26:59.022258  9255 net.cpp:91] Creating Layer inception_5b/pool_proj
I0403 19:26:59.022277  9255 net.cpp:425] inception_5b/pool_proj <- inception_5b/pool
I0403 19:26:59.022301  9255 net.cpp:399] inception_5b/pool_proj -> inception_5b/pool_proj
I0403 19:26:59.024760  9255 net.cpp:141] Setting up inception_5b/pool_proj
I0403 19:26:59.024793  9255 net.cpp:148] Top shape: 24 128 7 7 (150528)
I0403 19:26:59.024812  9255 net.cpp:156] Memory required for data: 1340445216
I0403 19:26:59.024833  9255 layer_factory.hpp:77] Creating layer inception_5b/relu_pool_proj
I0403 19:26:59.024854  9255 net.cpp:91] Creating Layer inception_5b/relu_pool_proj
I0403 19:26:59.024871  9255 net.cpp:425] inception_5b/relu_pool_proj <- inception_5b/pool_proj
I0403 19:26:59.024893  9255 net.cpp:386] inception_5b/relu_pool_proj -> inception_5b/pool_proj (in-place)
I0403 19:26:59.025218  9255 net.cpp:141] Setting up inception_5b/relu_pool_proj
I0403 19:26:59.025249  9255 net.cpp:148] Top shape: 24 128 7 7 (150528)
I0403 19:26:59.025270  9255 net.cpp:156] Memory required for data: 1341047328
I0403 19:26:59.025288  9255 layer_factory.hpp:77] Creating layer inception_5b/output
I0403 19:26:59.025308  9255 net.cpp:91] Creating Layer inception_5b/output
I0403 19:26:59.025341  9255 net.cpp:425] inception_5b/output <- inception_5b/1x1
I0403 19:26:59.025360  9255 net.cpp:425] inception_5b/output <- inception_5b/3x3
I0403 19:26:59.025380  9255 net.cpp:425] inception_5b/output <- inception_5b/5x5
I0403 19:26:59.025409  9255 net.cpp:425] inception_5b/output <- inception_5b/pool_proj
I0403 19:26:59.025435  9255 net.cpp:399] inception_5b/output -> inception_5b/output
I0403 19:26:59.025495  9255 net.cpp:141] Setting up inception_5b/output
I0403 19:26:59.025521  9255 net.cpp:148] Top shape: 24 1024 7 7 (1204224)
I0403 19:26:59.025535  9255 net.cpp:156] Memory required for data: 1345864224
I0403 19:26:59.025552  9255 layer_factory.hpp:77] Creating layer pool5/7x7_s1
I0403 19:26:59.025573  9255 net.cpp:91] Creating Layer pool5/7x7_s1
I0403 19:26:59.025590  9255 net.cpp:425] pool5/7x7_s1 <- inception_5b/output
I0403 19:26:59.025611  9255 net.cpp:399] pool5/7x7_s1 -> pool5/7x7_s1
I0403 19:26:59.025843  9255 net.cpp:141] Setting up pool5/7x7_s1
I0403 19:26:59.025879  9255 net.cpp:148] Top shape: 24 1024 1 1 (24576)
I0403 19:26:59.025905  9255 net.cpp:156] Memory required for data: 1345962528
I0403 19:26:59.025930  9255 layer_factory.hpp:77] Creating layer pool5/drop_7x7_s1
I0403 19:26:59.025966  9255 net.cpp:91] Creating Layer pool5/drop_7x7_s1
I0403 19:26:59.026010  9255 net.cpp:425] pool5/drop_7x7_s1 <- pool5/7x7_s1
I0403 19:26:59.026043  9255 net.cpp:386] pool5/drop_7x7_s1 -> pool5/7x7_s1 (in-place)
I0403 19:26:59.026110  9255 net.cpp:141] Setting up pool5/drop_7x7_s1
I0403 19:26:59.026135  9255 net.cpp:148] Top shape: 24 1024 1 1 (24576)
I0403 19:26:59.026151  9255 net.cpp:156] Memory required for data: 1346060832
I0403 19:26:59.026166  9255 layer_factory.hpp:77] Creating layer loss3/classifier_plantvillage
I0403 19:26:59.026195  9255 net.cpp:91] Creating Layer loss3/classifier_plantvillage
I0403 19:26:59.026214  9255 net.cpp:425] loss3/classifier_plantvillage <- pool5/7x7_s1
I0403 19:26:59.026237  9255 net.cpp:399] loss3/classifier_plantvillage -> loss3/classifier_plantvillage
I0403 19:26:59.026693  9255 net.cpp:141] Setting up loss3/classifier_plantvillage
I0403 19:26:59.026722  9255 net.cpp:148] Top shape: 24 38 (912)
I0403 19:26:59.026738  9255 net.cpp:156] Memory required for data: 1346064480
I0403 19:26:59.026758  9255 layer_factory.hpp:77] Creating layer loss3/classifier_plantvillage_loss3/classifier_plantvillage_0_split
I0403 19:26:59.026782  9255 net.cpp:91] Creating Layer loss3/classifier_plantvillage_loss3/classifier_plantvillage_0_split
I0403 19:26:59.026830  9255 net.cpp:425] loss3/classifier_plantvillage_loss3/classifier_plantvillage_0_split <- loss3/classifier_plantvillage
I0403 19:26:59.026859  9255 net.cpp:399] loss3/classifier_plantvillage_loss3/classifier_plantvillage_0_split -> loss3/classifier_plantvillage_loss3/classifier_plantvillage_0_split_0
I0403 19:26:59.026881  9255 net.cpp:399] loss3/classifier_plantvillage_loss3/classifier_plantvillage_0_split -> loss3/classifier_plantvillage_loss3/classifier_plantvillage_0_split_1
I0403 19:26:59.026903  9255 net.cpp:399] loss3/classifier_plantvillage_loss3/classifier_plantvillage_0_split -> loss3/classifier_plantvillage_loss3/classifier_plantvillage_0_split_2
I0403 19:26:59.026926  9255 net.cpp:399] loss3/classifier_plantvillage_loss3/classifier_plantvillage_0_split -> loss3/classifier_plantvillage_loss3/classifier_plantvillage_0_split_3
I0403 19:26:59.027034  9255 net.cpp:141] Setting up loss3/classifier_plantvillage_loss3/classifier_plantvillage_0_split
I0403 19:26:59.027065  9255 net.cpp:148] Top shape: 24 38 (912)
I0403 19:26:59.027086  9255 net.cpp:148] Top shape: 24 38 (912)
I0403 19:26:59.027106  9255 net.cpp:148] Top shape: 24 38 (912)
I0403 19:26:59.027122  9255 net.cpp:148] Top shape: 24 38 (912)
I0403 19:26:59.027137  9255 net.cpp:156] Memory required for data: 1346079072
I0403 19:26:59.027153  9255 layer_factory.hpp:77] Creating layer loss1/loss
I0403 19:26:59.027176  9255 net.cpp:91] Creating Layer loss1/loss
I0403 19:26:59.027199  9255 net.cpp:425] loss1/loss <- loss1/classifier_plantvillage_loss1/classifier_plantvillage_0_split_0
I0403 19:26:59.027233  9255 net.cpp:425] loss1/loss <- label_data_1_split_0
…
