…
I0403 19:19:52.823950  9097 net.cpp:313] The NetState phase (1) differed from the phase (0) specified by a rule in layer data
I0403 19:19:52.825078  9097 net.cpp:49] Initializing net from parameters: 
state {
  phase: TEST
}
layer {
  name: "data"
  type: "Data"
  top: "data"
  top: "label"
  include {
    phase: TEST
  }
  transform_param {
    mirror: false
    crop_size: 224
    mean_file: "/home/mohanty/data/final_dataset/lmdb/grayscale-50-50/mean.binaryproto"
  }
  data_param {
    source: "/home/mohanty/data/final_dataset/lmdb/grayscale-50-50/test_db"
    batch_size: 24
    backend: LMDB
  }
}
layer {
  name: "conv1/7x7_s2"
  type: "Convolution"
  bottom: "data"
  top: "conv1/7x7_s2"
  param {
    lr_mult: 1
    decay_mult: 1
  }
  param {
    lr_mult: 2
    decay_mult: 0
  }
  convolution_param {
    num_output: 64
    pad: 3
    kernel_size: 7
    stride: 2
    weight_filler {
      type: "xavier"
      std: 0.1
    }
    bias_filler {
      type: "constant"
      value: 0.2
    }
  }
}
layer {
  name: "conv1/relu_7x7"
  type: "ReLU"
  bottom: "conv1/7x7_s2"
  top: "conv1/7x7_s2"
}
layer {
  name: "pool1/3x3_s2"
  type: "Pooling"
  bottom: "conv1/7x7_s2"
  top: "pool1/3x3_s2"
  pooling_param {
    pool: MAX
    kernel_size: 3
    stride: 2
  }
}
layer {
  name: "pool1/norm1"
  type: "LRN"
  bottom: "pool1/3x3_s2"
  top: "pool1/norm1"
  lrn_param {
    local_size: 5
    alpha: 0.0001
    beta: 0.75
  }
}
layer {
  name: "conv2/3x3_reduce"
  type: "Convolution"
  bottom: "pool1/norm1"
  top: "conv2/3x3_reduce"
  param {
    lr_mult: 1
    decay_mult: 1
  }
  param {
    lr_mult: 2
    decay_mult: 0
  }
  convolution_param {
    num_output: 64
    kernel_size: 1
    weight_filler {
      type: "xavier"
      std: 0.1
    }
    bias_filler {
      type: "constant"
      value: 0.2
    }
  }
}
layer {
  name: "conv2/relu_3x3_reduce"
  type: "ReLU"
  bottom: "conv2/3x3_reduce"
  top: "conv2/3x3_reduce"
}
layer {
  name: "conv2/3x3"
  type: "Convolution"
  bottom: "conv2/3x3_reduce"
  top: "conv2/3x3"
  param {
    lr_mult: 1
    decay_mult: 1
  }
  param {
    lr_mult: 2
    decay_mult: 0
  }
  convolution_param {
    num_output: 192
    pad: 1
    kernel_size: 3
    weight_filler {
      type: "xavier"
      std: 0.03
    }
    bias_filler {
      type: "constant"
      value: 0.2
    }
  }
}
layer {
  name: "conv2/relu_3x3"
  type: "ReLU"
  bottom: "conv2/3x3"
  top: "conv2/3x3"
}
layer {
  name: "conv2/norm2"
  type: "LRN"
  bottom: "conv2/3x3"
  top: "conv2/norm2"
  lrn_param {
    local_size: 5
    alpha: 0.0001
    beta: 0.75
  }
}
layer {
  name: "pool2/3x3_s2"
  type: "Pooling"
  bottom: "conv2/norm2"
  top: "pool2/3x3_s2"
  pooling_param {
    pool: MAX
    kernel_size: 3
    stride: 2
  }
}
layer {
  name: "inception_3a/1x1"
  type: "Convolution"
  bottom: "pool2/3x3_s2"
  top: "inception_3a/1x1"
  param {
    lr_mult: 1
    decay_mult: 1
  }
  param {
    lr_mult: 2
    decay_mult: 0
  }
  convolution_param {
    num_output: 64
    kernel_size: 1
    weight_filler {
      type: "xavier"
      std: 0.03
    }
    bias_filler {
      type: "constant"
      value: 0.2
    }
  }
}
layer {
  name: "inception_3a/relu_1x1"
  type: "ReLU"
  bottom: "inception_3a/1x1"
  top: "inception_3a/1x1"
}
layer {
  name: "inception_3a/3x3_reduce"
  type: "Convolution"
  bottom: "pool2/3x3_s2"
  top: "inception_3a/3x3_reduce"
  param {
    lr_mult: 1
    decay_mult: 1
  }
  param {
    lr_mult: 2
    decay_mult: 0
  }
  convolution_param {
    num_output: 96
    kernel_size: 1
    weight_filler {
      type: "xavier"
      std: 0.09
    }
    bias_filler {
      type: "constant"
      value: 0.2
    }
  }
}
layer {
  name: "inception_3a/relu_3x3_reduce"
  type: "ReLU"
  bottom: "inception_3a/3x3_reduce"
  top: "inception_3a/3x3_reduce"
}
layer {
  name: "inception_3a/3x3"
  type: "Convolution"
  bottom: "inception_3a/3x3_reduce"
  top: "inception_3a/3x3"
  param {
    lr_mult: 1
    decay_mult: 1
  }
  param {
    lr_mult: 2
    decay_mult: 0
  }
  convolution_param {
    num_output: 128
    pad: 1
    kernel_size: 3
    weight_filler {
      type: "xavier"
      std: 0.03
    }
    bias_filler {
      type: "constant"
      value: 0.2
    }
  }
}
layer {
  name: "inception_3a/relu_3x3"
  type: "ReLU"
  bottom: "inception_3a/3x3"
  top: "inception_3a/3x3"
}
layer {
  name: "inception_3a/5x5_reduce"
  type: "Convolution"
  bottom: "pool2/3x3_s2"
  top: "inception_3a/5x5_reduce"
  param {
    lr_mult: 1
    decay_mult: 1
  }
  param {
    lr_mult: 2
    decay_mult: 0
  }
  convolution_param {
    num_output: 16
    kernel_size: 1
    weight_filler {
      type: "xavier"
      std: 0.2
    }
    bias_filler {
      type: "constant"
      value: 0.2
    }
  }
}
layer {
  name: "inception_3a/relu_5x5_reduce"
  type: "ReLU"
  bottom: "inception_3a/5x5_reduce"
  top: "inception_3a/5x5_reduce"
}
layer {
  name: "inception_3a/5x5"
  type: "Convolution"
  bottom: "inception_3a/5x5_reduce"
  top: "inception_3a/5x5"
  param {
    lr_mult: 1
    decay_mult: 1
  }
  param {
    lr_mult: 2
    decay_mult: 0
  }
  convolution_param {
    num_output: 32
    pad: 2
    kernel_size: 5
    weight_filler {
      type: "xavier"
      std: 0.03
    }
    bias_filler {
      type: "constant"
      value: 0.2
    }
  }
}
layer {
  name: "inception_3a/relu_5x5"
  type: "ReLU"
  bottom: "inception_3a/5x5"
  top: "inception_3a/5x5"
}
layer {
  name: "inception_3a/pool"
  type: "Pooling"
  bottom: "pool2/3x3_s2"
  top: "inception_3a/pool"
  pooling_param {
    pool: MAX
    kernel_size: 3
    stride: 1
    pad: 1
  }
}
layer {
  name: "inception_3a/pool_proj"
  type: "Convolution"
  bottom: "inception_3a/pool"
  top: "inception_3a/pool_proj"
  param {
    lr_mult: 1
    decay_mult: 1
  }
  param {
    lr_mult: 2
    decay_mult: 0
  }
  convolution_param {
    num_output: 32
    kernel_size: 1
    weight_filler {
      type: "xavier"
      std: 0.1
    }
    bias_filler {
      type: "constant"
      value: 0.2
    }
  }
}
layer {
  name: "inception_3a/relu_pool_proj"
  type: "ReLU"
  bottom: "inception_3a/pool_proj"
  top: "inception_3a/pool_proj"
}
layer {
  name: "inception_3a/output"
  type: "Concat"
  bottom: "inception_3a/1x1"
  bottom: "inception_3a/3x3"
  bottom: "inception_3a/5x5"
  bottom: "inception_3a/pool_proj"
  top: "inception_3a/output"
}
layer {
  name: "inception_3b/1x1"
  type: "Convolution"
  bottom: "inception_3a/output"
  top: "inception_3b/1x1"
  param {
    lr_mult: 1
    decay_mult: 1
  }
  param {
    lr_mult: 2
    decay_mult: 0
  }
  convolution_param {
    num_output: 128
    kernel_size: 1
    weight_filler {
      type: "xavier"
      std: 0.03
    }
    bias_filler {
      type: "constant"
      value: 0.2
    }
  }
}
layer {
  name: "inception_3b/relu_1x1"
  type: "ReLU"
  bottom: "inception_3b/1x1"
  top: "inception_3b/1x1"
}
layer {
  name: "inception_3b/3x3_reduce"
  type: "Convolution"
  bottom: "inception_3a/output"
  top: "inception_3b/3x3_reduce"
  param {
    lr_mult: 1
    decay_mult: 1
  }
  param {
    lr_mult: 2
    decay_mult: 0
  }
  convolution_param {
    num_output: 128
    kernel_size: 1
    weight_filler {
      type: "xavier"
      std: 0.09
    }
    bias_filler {
      type: "constant"
      value: 0.2
    }
  }
}
layer {
  name: "inception_3b/relu_3x3_reduce"
  type: "ReLU"
  bottom: "inception_3b/3x3_reduce"
  top: "inception_3b/3x3_reduce"
}
layer {
  name: "inception_3b/3x3"
  type: "Convolution"
  bottom: "inception_3b/3x3_reduce"
  top: "inception_3b/3x3"
  param {
    lr_mult: 1
    decay_mult: 1
  }
  param {
    lr_mult: 2
    decay_mult: 0
  }
  convolution_param {
    num_output: 192
    pad: 1
    kernel_size: 3
    weight_filler {
      type: "xavier"
      std: 0.03
    }
    bias_filler {
      type: "constant"
      value: 0.2
    }
  }
}
layer {
  name: "inception_3b/relu_3x3"
  type: "ReLU"
  bottom: "inception_3b/3x3"
  top: "inception_3b/3x3"
}
layer {
  name: "inception_3b/5x5_reduce"
  type: "Convolution"
  bottom: "inception_3a/output"
  top: "inception_3b/5x5_reduce"
  param {
    lr_mult: 1
    decay_mult: 1
  }
  param {
    lr_mult: 2
    decay_mult: 0
  }
  convolution_param {
    num_output: 32
    kernel_size: 1
    weight_filler {
      type: "xavier"
      std: 0.2
    }
    bias_filler {
      type: "constant"
      value: 0.2
    }
  }
}
layer {
  name: "inception_3b/relu_5x5_reduce"
  type: "ReLU"
  bottom: "inception_3b/5x5_reduce"
  top: "inception_3b/5x5_reduce"
}
layer {
  name: "inception_3b/5x5"
  type: "Convolution"
  bottom: "inception_3b/5x5_reduce"
  top: "inception_3b/5x5"
  param {
    lr_mult: 1
    decay_mult: 1
  }
  param {
    lr_mult: 2
    decay_mult: 0
  }
  convolution_param {
    num_output: 96
    pad: 2
    kernel_size: 5
    weight_filler {
      type: "xavier"
      std: 0.03
    }
    bias_filler {
      type: "constant"
      value: 0.2
    }
  }
}
layer {
  name: "inception_3b/relu_5x5"
  type: "ReLU"
  bottom: "inception_3b/5x5"
  top: "inception_3b/5x5"
}
layer {
  name: "inception_3b/pool"
  type: "Pooling"
  bottom: "inception_3a/output"
  top: "inception_3b/pool"
  pooling_param {
    pool: MAX
    kernel_size: 3
    stride: 1
    pad: 1
  }
}
layer {
  name: "inception_3b/pool_proj"
  type: "Convolution"
  bottom: "inception_3b/pool"
  top: "inception_3b/pool_proj"
  param {
    lr_mult: 1
    decay_mult: 1
  }
  param {
    lr_mult: 2
    decay_mult: 0
  }
  convolution_param {
    num_output: 64
    kernel_size: 1
    weight_filler {
      type: "xavier"
      std: 0.1
    }
    bias_filler {
      type: "constant"
      value: 0.2
    }
  }
}
layer {
  name: "inception_3b/relu_pool_proj"
  type: "ReLU"
  bottom: "inception_3b/pool_proj"
  top: "inception_3b/pool_proj"
}
layer {
  name: "inception_3b/output"
  type: "Concat"
  bottom: "inception_3b/1x1"
  bottom: "inception_3b/3x3"
  bottom: "inception_3b/5x5"
  bottom: "inception_3b/pool_proj"
  top: "inception_3b/output"
}
layer {
  name: "pool3/3x3_s2"
  type: "Pooling"
  bottom: "inception_3b/output"
  top: "pool3/3x3_s2"
  pooling_param {
    pool: MAX
    kernel_size: 3
    stride: 2
  }
}
layer {
  name: "inception_4a/1x1"
  type: "Convolution"
  bottom: "pool3/3x3_s2"
  top: "inception_4a/1x1"
  param {
    lr_mult: 1
    decay_mult: 1
  }
  param {
    lr_mult: 2
    decay_mult: 0
  }
  convolution_param {
    num_output: 192
    kernel_size: 1
    weight_filler {
      type: "xavier"
      std: 0.03
    }
    bias_filler {
      type: "constant"
      value: 0.2
    }
  }
}
layer {
  name: "inception_4a/relu_1x1"
  type: "ReLU"
  bottom: "inception_4a/1x1"
  top: "inception_4a/1x1"
}
layer {
  name: "inception_4a/3x3_reduce"
  type: "Convolution"
  bottom: "pool3/3x3_s2"
  top: "inception_4a/3x3_reduce"
  param {
    lr_mult: 1
    decay_mult: 1
  }
  param {
    lr_mult: 2
    decay_mult: 0
  }
  convolution_param {
    num_output: 96
    kernel_size: 1
    weight_filler {
      type: "xavier"
      std: 0.09
    }
    bias_filler {
      type: "constant"
      value: 0.2
    }
  }
}
layer {
  name: "inception_4a/relu_3x3_reduce"
  type: "ReLU"
  bottom: "inception_4a/3x3_reduce"
  top: "inception_4a/3x3_reduce"
}
layer {
  name: "inception_4a/3x3"
  type: "Convolution"
  bottom: "inception_4a/3x3_reduce"
  top: "inception_4a/3x3"
  param {
    lr_mult: 1
    decay_mult: 1
  }
  param {
    lr_mult: 2
    decay_mult: 0
  }
  convolution_param {
    num_output: 208
    pad: 1
    kernel_size: 3
    weight_filler {
      type: "xavier"
      std: 0.03
    }
    bias_filler {
      type: "constant"
      value: 0.2
    }
  }
}
layer {
  name: "inception_4a/relu_3x3"
  type: "ReLU"
  bottom: "inception_4a/3x3"
  top: "inception_4a/3x3"
}
layer {
  name: "inception_4a/5x5_reduce"
  type: "Convolution"
  bottom: "pool3/3x3_s2"
  top: "inception_4a/5x5_reduce"
  param {
    lr_mult: 1
    decay_mult: 1
  }
  param {
    lr_mult: 2
    decay_mult: 0
  }
  convolution_param {
    num_output: 16
    kernel_size: 1
    weight_filler {
      type: "xavier"
      std: 0.2
    }
    bias_filler {
      type: "constant"
      value: 0.2
    }
  }
}
layer {
  name: "inception_4a/relu_5x5_reduce"
  type: "ReLU"
  bottom: "inception_4a/5x5_reduce"
  top: "inception_4a/5x5_reduce"
}
layer {
  name: "inception_4a/5x5"
  type: "Convolution"
  bottom: "inception_4a/5x5_reduce"
  top: "inception_4a/5x5"
  param {
    lr_mult: 1
    decay_mult: 1
  }
  param {
    lr_mult: 2
    decay_mult: 0
  }
  convolution_param {
    num_output: 48
    pad: 2
    kernel_size: 5
    weight_filler {
      type: "xavier"
      std: 0.03
    }
    bias_filler {
      type: "constant"
      value: 0.2
    }
  }
}
layer {
  name: "inception_4a/relu_5x5"
  type: "ReLU"
  bottom: "inception_4a/5x5"
  top: "inception_4a/5x5"
}
layer {
  name: "inception_4a/pool"
  type: "Pooling"
  bottom: "pool3/3x3_s2"
  top: "inception_4a/pool"
  pooling_param {
    pool: MAX
    kernel_size: 3
    stride: 1
    pad: 1
  }
}
layer {
  name: "inception_4a/pool_proj"
  type: "Convolution"
  bottom: "inception_4a/pool"
  top: "inception_4a/pool_proj"
  param {
    lr_mult: 1
    decay_mult: 1
  }
  param {
    lr_mult: 2
    decay_mult: 0
  }
  convolution_param {
    num_output: 64
    kernel_size: 1
    weight_filler {
      type: "xavier"
      std: 0.1
    }
    bias_filler {
      type: "constant"
      value: 0.2
    }
  }
}
layer {
  name: "inception_4a/relu_pool_proj"
  type: "ReLU"
  bottom: "inception_4a/pool_proj"
  top: "inception_4a/pool_proj"
}
layer {
  name: "inception_4a/output"
  type: "Concat"
  bottom: "inception_4a/1x1"
  bottom: "inception_4a/3x3"
  bottom: "inception_4a/5x5"
  bottom: "inception_4a/pool_proj"
  top: "inception_4a/output"
}
layer {
  name: "loss1/ave_pool"
  type: "Pooling"
  bottom: "inception_4a/output"
  top: "loss1/ave_pool"
  pooling_param {
    pool: AVE
    kernel_size: 5
    stride: 3
  }
}
layer {
  name: "loss1/conv"
  type: "Convolution"
  bottom: "loss1/ave_pool"
  top: "loss1/conv"
  param {
    lr_mult: 1
    decay_mult: 1
  }
  param {
    lr_mult: 2
    decay_mult: 0
  }
  convolution_param {
    num_output: 128
    kernel_size: 1
    weight_filler {
      type: "xavier"
      std: 0.08
    }
    bias_filler {
      type: "constant"
      value: 0.2
    }
  }
}
layer {
  name: "loss1/relu_conv"
  type: "ReLU"
  bottom: "loss1/conv"
  top: "loss1/conv"
}
layer {
  name: "loss1/fc"
  type: "InnerProduct"
  bottom: "loss1/conv"
  top: "loss1/fc"
  param {
    lr_mult: 1
    decay_mult: 1
  }
  param {
    lr_mult: 2
    decay_mult: 0
  }
  inner_product_param {
    num_output: 1024
    weight_filler {
      type: "xavier"
      std: 0.02
    }
    bias_filler {
      type: "constant"
      value: 0.2
    }
  }
}
layer {
  name: "loss1/relu_fc"
  type: "ReLU"
  bottom: "loss1/fc"
  top: "loss1/fc"
}
layer {
  name: "loss1/drop_fc"
  type: "Dropout"
  bottom: "loss1/fc"
  top: "loss1/fc"
  dropout_param {
    dropout_ratio: 0.7
  }
}
layer {
  name: "loss1/classifier_plantvillage"
  type: "InnerProduct"
  bottom: "loss1/fc"
  top: "loss1/classifier_plantvillage"
  param {
    lr_mult: 1
    decay_mult: 1
  }
  param {
    lr_mult: 2
    decay_mult: 0
  }
  inner_product_param {
    num_output: 38
    weight_filler {
      type: "xavier"
      std: 0.0009765625
    }
    bias_filler {
      type: "constant"
      value: 0
    }
  }
}
layer {
  name: "inception_4b/1x1"
  type: "Convolution"
  bottom: "inception_4a/output"
  top: "inception_4b/1x1"
  param {
    lr_mult: 1
    decay_mult: 1
  }
  param {
    lr_mult: 2
    decay_mult: 0
  }
  convolution_param {
    num_output: 160
    kernel_size: 1
    weight_filler {
      type: "xavier"
      std: 0.03
    }
    bias_filler {
      type: "constant"
      value: 0.2
    }
  }
}
layer {
  name: "inception_4b/relu_1x1"
  type: "ReLU"
  bottom: "inception_4b/1x1"
  top: "inception_4b/1x1"
}
layer {
  name: "inception_4b/3x3_reduce"
  type: "Convolution"
  bottom: "inception_4a/output"
  top: "inception_4b/3x3_reduce"
  param {
    lr_mult: 1
    decay_mult: 1
  }
  param {
    lr_mult: 2
    decay_mult: 0
  }
  convolution_param {
    num_output: 112
    kernel_size: 1
    weight_filler {
      type: "xavier"
      std: 0.09
    }
    bias_filler {
      type: "constant"
      value: 0.2
    }
  }
}
layer {
  name: "inception_4b/relu_3x3_reduce"
  type: "ReLU"
  bottom: "inception_4b/3x3_reduce"
  top: "inception_4b/3x3_reduce"
}
layer {
  name: "inception_4b/3x3"
  type: "Convolution"
  bottom: "inception_4b/3x3_reduce"
  top: "inception_4b/3x3"
  param {
    lr_mult: 1
    decay_mult: 1
  }
  param {
    lr_mult: 2
    decay_mult: 0
  }
  convolution_param {
    num_output: 224
    pad: 1
    kernel_size: 3
    weight_filler {
      type: "xavier"
      std: 0.03
    }
    bias_filler {
      type: "constant"
      value: 0.2
    }
  }
}
layer {
  name: "inception_4b/relu_3x3"
  type: "ReLU"
  bottom: "inception_4b/3x3"
  top: "inception_4b/3x3"
}
layer {
  name: "inception_4b/5x5_reduce"
  type: "Convolution"
  bottom: "inception_4a/output"
  top: "inception_4b/5x5_reduce"
  param {
    lr_mult: 1
    decay_mult: 1
  }
  param {
    lr_mult: 2
    decay_mult: 0
  }
  convolution_param {
    num_output: 24
    kernel_size: 1
    weight_filler {
      type: "xavier"
      std: 0.2
    }
    bias_filler {
      type: "constant"
      value: 0.2
    }
  }
}
layer {
  name: "inception_4b/relu_5x5_reduce"
  type: "ReLU"
  bottom: "inception_4b/5x5_reduce"
  top: "inception_4b/5x5_reduce"
}
layer {
  name: "inception_4b/5x5"
  type: "Convolution"
  bottom: "inception_4b/5x5_reduce"
  top: "inception_4b/5x5"
  param {
    lr_mult: 1
    decay_mult: 1
  }
  param {
    lr_mult: 2
    decay_mult: 0
  }
  convolution_param {
    num_output: 64
    pad: 2
    kernel_size: 5
    weight_filler {
      type: "xavier"
      std: 0.03
    }
    bias_filler {
      type: "constant"
      value: 0.2
    }
  }
}
layer {
  name: "inception_4b/relu_5x5"
  type: "ReLU"
  bottom: "inception_4b/5x5"
  top: "inception_4b/5x5"
}
layer {
  name: "inception_4b/pool"
  type: "Pooling"
  bottom: "inception_4a/output"
  top: "inception_4b/pool"
  pooling_param {
    pool: MAX
    kernel_size: 3
    stride: 1
    pad: 1
  }
}
layer {
  name: "inception_4b/pool_proj"
  type: "Convolution"
  bottom: "inception_4b/pool"
  top: "inception_4b/pool_proj"
  param {
    lr_mult: 1
    decay_mult: 1
  }
  param {
    lr_mult: 2
    decay_mult: 0
  }
  convolution_param {
    num_output: 64
    kernel_size: 1
    weight_filler {
      type: "xavier"
      std: 0.1
    }
    bias_filler {
      type: "constant"
      value: 0.2
    }
  }
}
layer {
  name: "inception_4b/relu_pool_proj"
  type: "ReLU"
  bottom: "inception_4b/pool_proj"
  top: "inception_4b/pool_proj"
}
layer {
  name: "inception_4b/output"
  type: "Concat"
  bottom: "inception_4b/1x1"
  bottom: "inception_4b/3x3"
  bottom: "inception_4b/5x5"
  bottom: "inception_4b/pool_proj"
  top: "inception_4b/output"
}
layer {
  name: "inception_4c/1x1"
  type: "Convolution"
  bottom: "inception_4b/output"
  top: "inception_4c/1x1"
  param {
    lr_mult: 1
    decay_mult: 1
  }
  param {
    lr_mult: 2
    decay_mult: 0
  }
  convolution_param {
    num_output: 128
    kernel_size: 1
    weight_filler {
      type: "xavier"
      std: 0.03
    }
    bias_filler {
      type: "constant"
      value: 0.2
    }
  }
}
layer {
  name: "inception_4c/relu_1x1"
  type: "ReLU"
  bottom: "inception_4c/1x1"
  top: "inception_4c/1x1"
}
layer {
  name: "inception_4c/3x3_reduce"
  type: "Convolution"
  bottom: "inception_4b/output"
  top: "inception_4c/3x3_reduce"
  param {
    lr_mult: 1
    decay_mult: 1
  }
  param {
    lr_mult: 2
    decay_mult: 0
  }
  convolution_param {
    num_output: 128
    kernel_size: 1
    weight_filler {
      type: "xavier"
      std: 0.09
    }
    bias_filler {
      type: "constant"
      value: 0.2
    }
  }
}
layer {
  name: "inception_4c/relu_3x3_reduce"
  type: "ReLU"
  bottom: "inception_4c/3x3_reduce"
  top: "inception_4c/3x3_reduce"
}
layer {
  name: "inception_4c/3x3"
  type: "Convolution"
  bottom: "inception_4c/3x3_reduce"
  top: "inception_4c/3x3"
  param {
    lr_mult: 1
    decay_mult: 1
  }
  param {
    lr_mult: 2
    decay_mult: 0
  }
  convolution_param {
    num_output: 256
    pad: 1
    kernel_size: 3
    weight_filler {
      type: "xavier"
      std: 0.03
    }
    bias_filler {
      type: "constant"
      value: 0.2
    }
  }
}
layer {
  name: "inception_4c/relu_3x3"
  type: "ReLU"
  bottom: "inception_4c/3x3"
  top: "inception_4c/3x3"
}
layer {
  name: "inception_4c/5x5_reduce"
  type: "Convolution"
  bottom: "inception_4b/output"
  top: "inception_4c/5x5_reduce"
  param {
    lr_mult: 1
    decay_mult: 1
  }
  param {
    lr_mult: 2
    decay_mult: 0
  }
  convolution_param {
    num_output: 24
    kernel_size: 1
    weight_filler {
      type: "xavier"
      std: 0.2
    }
    bias_filler {
      type: "constant"
      value: 0.2
    }
  }
}
layer {
  name: "inception_4c/relu_5x5_reduce"
  type: "ReLU"
  bottom: "inception_4c/5x5_reduce"
  top: "inception_4c/5x5_reduce"
}
layer {
  name: "inception_4c/5x5"
  type: "Convolution"
  bottom: "inception_4c/5x5_reduce"
  top: "inception_4c/5x5"
  param {
    lr_mult: 1
    decay_mult: 1
  }
  param {
    lr_mult: 2
    decay_mult: 0
  }
  convolution_param {
    num_output: 64
    pad: 2
    kernel_size: 5
    weight_filler {
      type: "xavier"
      std: 0.03
    }
    bias_filler {
      type: "constant"
      value: 0.2
    }
  }
}
layer {
  name: "inception_4c/relu_5x5"
  type: "ReLU"
  bottom: "inception_4c/5x5"
  top: "inception_4c/5x5"
}
layer {
  name: "inception_4c/pool"
  type: "Pooling"
  bottom: "inception_4b/output"
  top: "inception_4c/pool"
  pooling_param {
    pool: MAX
    kernel_size: 3
    stride: 1
    pad: 1
  }
}
layer {
  name: "inception_4c/pool_proj"
  type: "Convolution"
  bottom: "inception_4c/pool"
  top: "inception_4c/pool_proj"
  param {
    lr_mult: 1
    decay_mult: 1
  }
  param {
    lr_mult: 2
    decay_mult: 0
  }
  convolution_param {
    num_output: 64
    kernel_size: 1
    weight_filler {
      type: "xavier"
      std: 0.1
    }
    bias_filler {
      type: "constant"
      value: 0.2
    }
  }
}
layer {
  name: "inception_4c/relu_pool_proj"
  type: "ReLU"
  bottom: "inception_4c/pool_proj"
  top: "inception_4c/pool_proj"
}
layer {
  name: "inception_4c/output"
  type: "Concat"
  bottom: "inception_4c/1x1"
  bottom: "inception_4c/3x3"
  bottom: "inception_4c/5x5"
  bottom: "inception_4c/pool_proj"
  top: "inception_4c/output"
}
layer {
  name: "inception_4d/1x1"
  type: "Convolution"
  bottom: "inception_4c/output"
  top: "inception_4d/1x1"
  param {
    lr_mult: 1
    decay_mult: 1
  }
  param {
    lr_mult: 2
    decay_mult: 0
  }
  convolution_param {
    num_output: 112
    kernel_size: 1
    weight_filler {
      type: "xavier"
      std: 0.03
    }
    bias_filler {
      type: "constant"
      value: 0.2
    }
  }
}
layer {
  name: "inception_4d/relu_1x1"
  type: "ReLU"
  bottom: "inception_4d/1x1"
  top: "inception_4d/1x1"
}
layer {
  name: "inception_4d/3x3_reduce"
  type: "Convolution"
  bottom: "inception_4c/output"
  top: "inception_4d/3x3_reduce"
  param {
    lr_mult: 1
    decay_mult: 1
  }
  param {
    lr_mult: 2
    decay_mult: 0
  }
  convolution_param {
    num_output: 144
    kernel_size: 1
    weight_filler {
      type: "xavier"
      std: 0.09
    }
    bias_filler {
      type: "constant"
      value: 0.2
    }
  }
}
layer {
  name: "inception_4d/relu_3x3_reduce"
  type: "ReLU"
  bottom: "inception_4d/3x3_reduce"
  top: "inception_4d/3x3_reduce"
}
layer {
  name: "inception_4d/3x3"
  type: "Convolution"
  bottom: "inception_4d/3x3_reduce"
  top: "inception_4d/3x3"
  param {
    lr_mult: 1
    decay_mult: 1
  }
  param {
    lr_mult: 2
    decay_mult: 0
  }
  convolution_param {
    num_output: 288
    pad: 1
    kernel_size: 3
    weight_filler {
      type: "xavier"
      std: 0.03
    }
    bias_filler {
      type: "constant"
      value: 0.2
    }
  }
}
layer {
  name: "inception_4d/relu_3x3"
  type: "ReLU"
  bottom: "inception_4d/3x3"
  top: "inception_4d/3x3"
}
layer {
  name: "inception_4d/5x5_reduce"
  type: "Convolution"
  bottom: "inception_4c/output"
  top: "inception_4d/5x5_reduce"
  param {
    lr_mult: 1
    decay_mult: 1
  }
  param {
    lr_mult: 2
    decay_mult: 0
  }
  convolution_param {
    num_output: 32
    kernel_size: 1
    weight_filler {
      type: "xavier"
      std: 0.2
    }
    bias_filler {
      type: "constant"
      value: 0.2
    }
  }
}
layer {
  name: "inception_4d/relu_5x5_reduce"
  type: "ReLU"
  bottom: "inception_4d/5x5_reduce"
  top: "inception_4d/5x5_reduce"
}
layer {
  name: "inception_4d/5x5"
  type: "Convolution"
  bottom: "inception_4d/5x5_reduce"
  top: "inception_4d/5x5"
  param {
    lr_mult: 1
    decay_mult: 1
  }
  param {
    lr_mult: 2
    decay_mult: 0
  }
  convolution_param {
    num_output: 64
    pad: 2
    kernel_size: 5
    weight_filler {
      type: "xavier"
      std: 0.03
    }
    bias_filler {
      type: "constant"
      value: 0.2
    }
  }
}
layer {
  name: "inception_4d/relu_5x5"
  type: "ReLU"
  bottom: "inception_4d/5x5"
  top: "inception_4d/5x5"
}
layer {
  name: "inception_4d/pool"
  type: "Pooling"
  bottom: "inception_4c/output"
  top: "inception_4d/pool"
  pooling_param {
    pool: MAX
    kernel_size: 3
    stride: 1
    pad: 1
  }
}
layer {
  name: "inception_4d/pool_proj"
  type: "Convolution"
  bottom: "inception_4d/pool"
  top: "inception_4d/pool_proj"
  param {
    lr_mult: 1
    decay_mult: 1
  }
  param {
    lr_mult: 2
    decay_mult: 0
  }
  convolution_param {
    num_output: 64
    kernel_size: 1
    weight_filler {
      type: "xavier"
      std: 0.1
    }
    bias_filler {
      type: "constant"
      value: 0.2
    }
  }
}
layer {
  name: "inception_4d/relu_pool_proj"
  type: "ReLU"
  bottom: "inception_4d/pool_proj"
  top: "inception_4d/pool_proj"
}
layer {
  name: "inception_4d/output"
  type: "Concat"
  bottom: "inception_4d/1x1"
  bottom: "inception_4d/3x3"
  bottom: "inception_4d/5x5"
  bottom: "inception_4d/pool_proj"
  top: "inception_4d/output"
}
layer {
  name: "loss2/ave_pool"
  type: "Pooling"
  bottom: "inception_4d/output"
  top: "loss2/ave_pool"
  pooling_param {
    pool: AVE
    kernel_size: 5
    stride: 3
  }
}
layer {
  name: "loss2/conv"
  type: "Convolution"
  bottom: "loss2/ave_pool"
  top: "loss2/conv"
  param {
    lr_mult: 1
    decay_mult: 1
  }
  param {
    lr_mult: 2
    decay_mult: 0
  }
  convolution_param {
    num_output: 128
    kernel_size: 1
    weight_filler {
      type: "xavier"
      std: 0.08
    }
    bias_filler {
      type: "constant"
      value: 0.2
    }
  }
}
layer {
  name: "loss2/relu_conv"
  type: "ReLU"
  bottom: "loss2/conv"
  top: "loss2/conv"
}
layer {
  name: "loss2/fc"
  type: "InnerProduct"
  bottom: "loss2/conv"
  top: "loss2/fc"
  param {
    lr_mult: 1
    decay_mult: 1
  }
  param {
    lr_mult: 2
    decay_mult: 0
  }
  inner_product_param {
    num_output: 1024
    weight_filler {
      type: "xavier"
      std: 0.02
    }
    bias_filler {
      type: "constant"
      value: 0.2
    }
  }
}
layer {
  name: "loss2/relu_fc"
  type: "ReLU"
  bottom: "loss2/fc"
  top: "loss2/fc"
}
layer {
  name: "loss2/drop_fc"
  type: "Dropout"
  bottom: "loss2/fc"
  top: "loss2/fc"
  dropout_param {
    dropout_ratio: 0.7
  }
}
layer {
  name: "loss2/classifier_plantvillage"
  type: "InnerProduct"
  bottom: "loss2/fc"
  top: "loss2/classifier_plantvillage"
  param {
    lr_mult: 1
    decay_mult: 1
  }
  param {
    lr_mult: 2
    decay_mult: 0
  }
  inner_product_param {
    num_output: 38
    weight_filler {
      type: "xavier"
      std: 0.0009765625
    }
    bias_filler {
      type: "constant"
      value: 0
    }
  }
}
layer {
  name: "inception_4e/1x1"
  type: "Convolution"
  bottom: "inception_4d/output"
  top: "inception_4e/1x1"
  param {
    lr_mult: 1
    decay_mult: 1
  }
  param {
    lr_mult: 2
    decay_mult: 0
  }
  convolution_param {
    num_output: 256
    kernel_size: 1
    weight_filler {
      type: "xavier"
      std: 0.03
    }
    bias_filler {
      type: "constant"
      value: 0.2
    }
  }
}
layer {
  name: "inception_4e/relu_1x1"
  type: "ReLU"
  bottom: "inception_4e/1x1"
  top: "inception_4e/1x1"
}
layer {
  name: "inception_4e/3x3_reduce"
  type: "Convolution"
  bottom: "inception_4d/output"
  top: "inception_4e/3x3_reduce"
  param {
    lr_mult: 1
    decay_mult: 1
  }
  param {
    lr_mult: 2
    decay_mult: 0
  }
  convolution_param {
    num_output: 160
    kernel_size: 1
    weight_filler {
      type: "xavier"
      std: 0.09
    }
    bias_filler {
      type: "constant"
      value: 0.2
    }
  }
}
layer {
  name: "inception_4e/relu_3x3_reduce"
  type: "ReLU"
  bottom: "inception_4e/3x3_reduce"
  top: "inception_4e/3x3_reduce"
}
layer {
  name: "inception_4e/3x3"
  type: "Convolution"
  bottom: "inception_4e/3x3_reduce"
  top: "inception_4e/3x3"
  param {
    lr_mult: 1
    decay_mult: 1
  }
  param {
    lr_mult: 2
    decay_mult: 0
  }
  convolution_param {
    num_output: 320
    pad: 1
    kernel_size: 3
    weight_filler {
      type: "xavier"
      std: 0.03
    }
    bias_filler {
      type: "constant"
      value: 0.2
    }
  }
}
layer {
  name: "inception_4e/relu_3x3"
  type: "ReLU"
  bottom: "inception_4e/3x3"
  top: "inception_4e/3x3"
}
layer {
  name: "inception_4e/5x5_reduce"
  type: "Convolution"
  bottom: "inception_4d/output"
  top: "inception_4e/5x5_reduce"
  param {
    lr_mult: 1
    decay_mult: 1
  }
  param {
    lr_mult: 2
    decay_mult: 0
  }
  convolution_param {
    num_output: 32
    kernel_size: 1
    weight_filler {
      type: "xavier"
      std: 0.2
    }
    bias_filler {
      type: "constant"
      value: 0.2
    }
  }
}
layer {
  name: "inception_4e/relu_5x5_reduce"
  type: "ReLU"
  bottom: "inception_4e/5x5_reduce"
  top: "inception_4e/5x5_reduce"
}
layer {
  name: "inception_4e/5x5"
  type: "Convolution"
  bottom: "inception_4e/5x5_reduce"
  top: "inception_4e/
I0403 19:19:52.826647  9097 layer_factory.hpp:77] Creating layer data
I0403 19:19:52.827265  9097 net.cpp:91] Creating Layer data
I0403 19:19:52.827299  9097 net.cpp:399] data -> data
I0403 19:19:52.827353  9097 net.cpp:399] data -> label
I0403 19:19:52.827390  9097 data_transformer.cpp:25] Loading mean file from: /home/mohanty/data/final_dataset/lmdb/grayscale-50-50/mean.binaryproto
I0403 19:19:52.828604  9099 db_lmdb.cpp:38] Opened lmdb /home/mohanty/data/final_dataset/lmdb/grayscale-50-50/test_db
I0403 19:19:52.841217  9097 data_layer.cpp:41] output data size: 24,3,224,224
I0403 19:19:52.868927  9097 net.cpp:141] Setting up data
I0403 19:19:52.869010  9097 net.cpp:148] Top shape: 24 3 224 224 (3612672)
I0403 19:19:52.869035  9097 net.cpp:148] Top shape: 24 (24)
I0403 19:19:52.869052  9097 net.cpp:156] Memory required for data: 14450784
I0403 19:19:52.869091  9097 layer_factory.hpp:77] Creating layer label_data_1_split
I0403 19:19:52.869118  9097 net.cpp:91] Creating Layer label_data_1_split
I0403 19:19:52.869138  9097 net.cpp:425] label_data_1_split <- label
I0403 19:19:52.869174  9097 net.cpp:399] label_data_1_split -> label_data_1_split_0
I0403 19:19:52.869202  9097 net.cpp:399] label_data_1_split -> label_data_1_split_1
I0403 19:19:52.869230  9097 net.cpp:399] label_data_1_split -> label_data_1_split_2
I0403 19:19:52.869253  9097 net.cpp:399] label_data_1_split -> label_data_1_split_3
I0403 19:19:52.869273  9097 net.cpp:399] label_data_1_split -> label_data_1_split_4
I0403 19:19:52.869293  9097 net.cpp:399] label_data_1_split -> label_data_1_split_5
I0403 19:19:52.869313  9097 net.cpp:399] label_data_1_split -> label_data_1_split_6
I0403 19:19:52.869333  9097 net.cpp:399] label_data_1_split -> label_data_1_split_7
I0403 19:19:52.869354  9097 net.cpp:399] label_data_1_split -> label_data_1_split_8
I0403 19:19:52.869374  9097 net.cpp:399] label_data_1_split -> label_data_1_split_9
I0403 19:19:52.869491  9097 net.cpp:141] Setting up label_data_1_split
I0403 19:19:52.869515  9097 net.cpp:148] Top shape: 24 (24)
I0403 19:19:52.869532  9097 net.cpp:148] Top shape: 24 (24)
I0403 19:19:52.869549  9097 net.cpp:148] Top shape: 24 (24)
I0403 19:19:52.869565  9097 net.cpp:148] Top shape: 24 (24)
I0403 19:19:52.869580  9097 net.cpp:148] Top shape: 24 (24)
I0403 19:19:52.869596  9097 net.cpp:148] Top shape: 24 (24)
I0403 19:19:52.869612  9097 net.cpp:148] Top shape: 24 (24)
I0403 19:19:52.869628  9097 net.cpp:148] Top shape: 24 (24)
I0403 19:19:52.869644  9097 net.cpp:148] Top shape: 24 (24)
I0403 19:19:52.869662  9097 net.cpp:148] Top shape: 24 (24)
I0403 19:19:52.869707  9097 net.cpp:156] Memory required for data: 14451744
I0403 19:19:52.869724  9097 layer_factory.hpp:77] Creating layer conv1/7x7_s2
I0403 19:19:52.869757  9097 net.cpp:91] Creating Layer conv1/7x7_s2
I0403 19:19:52.869776  9097 net.cpp:425] conv1/7x7_s2 <- data
I0403 19:19:52.869796  9097 net.cpp:399] conv1/7x7_s2 -> conv1/7x7_s2
I0403 19:19:53.020705  9097 net.cpp:141] Setting up conv1/7x7_s2
I0403 19:19:53.020783  9097 net.cpp:148] Top shape: 24 64 112 112 (19267584)
I0403 19:19:53.020802  9097 net.cpp:156] Memory required for data: 91522080
I0403 19:19:53.020834  9097 layer_factory.hpp:77] Creating layer conv1/relu_7x7
I0403 19:19:53.020864  9097 net.cpp:91] Creating Layer conv1/relu_7x7
I0403 19:19:53.020885  9097 net.cpp:425] conv1/relu_7x7 <- conv1/7x7_s2
I0403 19:19:53.020905  9097 net.cpp:386] conv1/relu_7x7 -> conv1/7x7_s2 (in-place)
I0403 19:19:53.021176  9097 net.cpp:141] Setting up conv1/relu_7x7
I0403 19:19:53.021204  9097 net.cpp:148] Top shape: 24 64 112 112 (19267584)
I0403 19:19:53.021225  9097 net.cpp:156] Memory required for data: 168592416
I0403 19:19:53.021242  9097 layer_factory.hpp:77] Creating layer pool1/3x3_s2
I0403 19:19:53.021270  9097 net.cpp:91] Creating Layer pool1/3x3_s2
I0403 19:19:53.021288  9097 net.cpp:425] pool1/3x3_s2 <- conv1/7x7_s2
I0403 19:19:53.021307  9097 net.cpp:399] pool1/3x3_s2 -> pool1/3x3_s2
I0403 19:19:53.021381  9097 net.cpp:141] Setting up pool1/3x3_s2
I0403 19:19:53.021406  9097 net.cpp:148] Top shape: 24 64 56 56 (4816896)
I0403 19:19:53.021421  9097 net.cpp:156] Memory required for data: 187860000
I0403 19:19:53.021437  9097 layer_factory.hpp:77] Creating layer pool1/norm1
I0403 19:19:53.021462  9097 net.cpp:91] Creating Layer pool1/norm1
I0403 19:19:53.021481  9097 net.cpp:425] pool1/norm1 <- pool1/3x3_s2
I0403 19:19:53.021499  9097 net.cpp:399] pool1/norm1 -> pool1/norm1
I0403 19:19:53.021795  9097 net.cpp:141] Setting up pool1/norm1
I0403 19:19:53.021822  9097 net.cpp:148] Top shape: 24 64 56 56 (4816896)
I0403 19:19:53.021838  9097 net.cpp:156] Memory required for data: 207127584
I0403 19:19:53.021854  9097 layer_factory.hpp:77] Creating layer conv2/3x3_reduce
I0403 19:19:53.021879  9097 net.cpp:91] Creating Layer conv2/3x3_reduce
I0403 19:19:53.021896  9097 net.cpp:425] conv2/3x3_reduce <- pool1/norm1
I0403 19:19:53.021916  9097 net.cpp:399] conv2/3x3_reduce -> conv2/3x3_reduce
I0403 19:19:53.023316  9097 net.cpp:141] Setting up conv2/3x3_reduce
I0403 19:19:53.023349  9097 net.cpp:148] Top shape: 24 64 56 56 (4816896)
I0403 19:19:53.023365  9097 net.cpp:156] Memory required for data: 226395168
I0403 19:19:53.023387  9097 layer_factory.hpp:77] Creating layer conv2/relu_3x3_reduce
I0403 19:19:53.023406  9097 net.cpp:91] Creating Layer conv2/relu_3x3_reduce
I0403 19:19:53.023422  9097 net.cpp:425] conv2/relu_3x3_reduce <- conv2/3x3_reduce
I0403 19:19:53.023440  9097 net.cpp:386] conv2/relu_3x3_reduce -> conv2/3x3_reduce (in-place)
I0403 19:19:53.023720  9097 net.cpp:141] Setting up conv2/relu_3x3_reduce
I0403 19:19:53.023748  9097 net.cpp:148] Top shape: 24 64 56 56 (4816896)
I0403 19:19:53.023764  9097 net.cpp:156] Memory required for data: 245662752
I0403 19:19:53.023780  9097 layer_factory.hpp:77] Creating layer conv2/3x3
I0403 19:19:53.023807  9097 net.cpp:91] Creating Layer conv2/3x3
I0403 19:19:53.023825  9097 net.cpp:425] conv2/3x3 <- conv2/3x3_reduce
I0403 19:19:53.023845  9097 net.cpp:399] conv2/3x3 -> conv2/3x3
I0403 19:19:53.026298  9097 net.cpp:141] Setting up conv2/3x3
I0403 19:19:53.026329  9097 net.cpp:148] Top shape: 24 192 56 56 (14450688)
I0403 19:19:53.026346  9097 net.cpp:156] Memory required for data: 303465504
I0403 19:19:53.026368  9097 layer_factory.hpp:77] Creating layer conv2/relu_3x3
I0403 19:19:53.026391  9097 net.cpp:91] Creating Layer conv2/relu_3x3
I0403 19:19:53.026407  9097 net.cpp:425] conv2/relu_3x3 <- conv2/3x3
I0403 19:19:53.026427  9097 net.cpp:386] conv2/relu_3x3 -> conv2/3x3 (in-place)
I0403 19:19:53.026614  9097 net.cpp:141] Setting up conv2/relu_3x3
I0403 19:19:53.026640  9097 net.cpp:148] Top shape: 24 192 56 56 (14450688)
I0403 19:19:53.026687  9097 net.cpp:156] Memory required for data: 361268256
I0403 19:19:53.026705  9097 layer_factory.hpp:77] Creating layer conv2/norm2
I0403 19:19:53.026722  9097 net.cpp:91] Creating Layer conv2/norm2
I0403 19:19:53.026739  9097 net.cpp:425] conv2/norm2 <- conv2/3x3
I0403 19:19:53.026762  9097 net.cpp:399] conv2/norm2 -> conv2/norm2
I0403 19:19:53.027082  9097 net.cpp:141] Setting up conv2/norm2
I0403 19:19:53.027110  9097 net.cpp:148] Top shape: 24 192 56 56 (14450688)
I0403 19:19:53.027127  9097 net.cpp:156] Memory required for data: 419071008
I0403 19:19:53.027143  9097 layer_factory.hpp:77] Creating layer pool2/3x3_s2
I0403 19:19:53.027160  9097 net.cpp:91] Creating Layer pool2/3x3_s2
I0403 19:19:53.027178  9097 net.cpp:425] pool2/3x3_s2 <- conv2/norm2
I0403 19:19:53.027199  9097 net.cpp:399] pool2/3x3_s2 -> pool2/3x3_s2
I0403 19:19:53.027261  9097 net.cpp:141] Setting up pool2/3x3_s2
I0403 19:19:53.027284  9097 net.cpp:148] Top shape: 24 192 28 28 (3612672)
I0403 19:19:53.027300  9097 net.cpp:156] Memory required for data: 433521696
I0403 19:19:53.027315  9097 layer_factory.hpp:77] Creating layer pool2/3x3_s2_pool2/3x3_s2_0_split
I0403 19:19:53.027336  9097 net.cpp:91] Creating Layer pool2/3x3_s2_pool2/3x3_s2_0_split
I0403 19:19:53.027354  9097 net.cpp:425] pool2/3x3_s2_pool2/3x3_s2_0_split <- pool2/3x3_s2
I0403 19:19:53.027374  9097 net.cpp:399] pool2/3x3_s2_pool2/3x3_s2_0_split -> pool2/3x3_s2_pool2/3x3_s2_0_split_0
I0403 19:19:53.027395  9097 net.cpp:399] pool2/3x3_s2_pool2/3x3_s2_0_split -> pool2/3x3_s2_pool2/3x3_s2_0_split_1
I0403 19:19:53.027416  9097 net.cpp:399] pool2/3x3_s2_pool2/3x3_s2_0_split -> pool2/3x3_s2_pool2/3x3_s2_0_split_2
I0403 19:19:53.027436  9097 net.cpp:399] pool2/3x3_s2_pool2/3x3_s2_0_split -> pool2/3x3_s2_pool2/3x3_s2_0_split_3
I0403 19:19:53.027508  9097 net.cpp:141] Setting up pool2/3x3_s2_pool2/3x3_s2_0_split
I0403 19:19:53.027534  9097 net.cpp:148] Top shape: 24 192 28 28 (3612672)
I0403 19:19:53.027552  9097 net.cpp:148] Top shape: 24 192 28 28 (3612672)
I0403 19:19:53.027568  9097 net.cpp:148] Top shape: 24 192 28 28 (3612672)
I0403 19:19:53.027585  9097 net.cpp:148] Top shape: 24 192 28 28 (3612672)
I0403 19:19:53.027598  9097 net.cpp:156] Memory required for data: 491324448
I0403 19:19:53.027614  9097 layer_factory.hpp:77] Creating layer inception_3a/1x1
I0403 19:19:53.027637  9097 net.cpp:91] Creating Layer inception_3a/1x1
I0403 19:19:53.027654  9097 net.cpp:425] inception_3a/1x1 <- pool2/3x3_s2_pool2/3x3_s2_0_split_0
I0403 19:19:53.027674  9097 net.cpp:399] inception_3a/1x1 -> inception_3a/1x1
I0403 19:19:53.029314  9097 net.cpp:141] Setting up inception_3a/1x1
I0403 19:19:53.029345  9097 net.cpp:148] Top shape: 24 64 28 28 (1204224)
I0403 19:19:53.029361  9097 net.cpp:156] Memory required for data: 496141344
I0403 19:19:53.029381  9097 layer_factory.hpp:77] Creating layer inception_3a/relu_1x1
I0403 19:19:53.029402  9097 net.cpp:91] Creating Layer inception_3a/relu_1x1
I0403 19:19:53.029419  9097 net.cpp:425] inception_3a/relu_1x1 <- inception_3a/1x1
I0403 19:19:53.029438  9097 net.cpp:386] inception_3a/relu_1x1 -> inception_3a/1x1 (in-place)
I0403 19:19:53.029621  9097 net.cpp:141] Setting up inception_3a/relu_1x1
I0403 19:19:53.029649  9097 net.cpp:148] Top shape: 24 64 28 28 (1204224)
I0403 19:19:53.029666  9097 net.cpp:156] Memory required for data: 500958240
I0403 19:19:53.029682  9097 layer_factory.hpp:77] Creating layer inception_3a/3x3_reduce
I0403 19:19:53.029721  9097 net.cpp:91] Creating Layer inception_3a/3x3_reduce
I0403 19:19:53.029742  9097 net.cpp:425] inception_3a/3x3_reduce <- pool2/3x3_s2_pool2/3x3_s2_0_split_1
I0403 19:19:53.029764  9097 net.cpp:399] inception_3a/3x3_reduce -> inception_3a/3x3_reduce
I0403 19:19:53.031539  9097 net.cpp:141] Setting up inception_3a/3x3_reduce
I0403 19:19:53.031569  9097 net.cpp:148] Top shape: 24 96 28 28 (1806336)
I0403 19:19:53.031587  9097 net.cpp:156] Memory required for data: 508183584
I0403 19:19:53.031612  9097 layer_factory.hpp:77] Creating layer inception_3a/relu_3x3_reduce
I0403 19:19:53.031654  9097 net.cpp:91] Creating Layer inception_3a/relu_3x3_reduce
I0403 19:19:53.031674  9097 net.cpp:425] inception_3a/relu_3x3_reduce <- inception_3a/3x3_reduce
I0403 19:19:53.031697  9097 net.cpp:386] inception_3a/relu_3x3_reduce -> inception_3a/3x3_reduce (in-place)
I0403 19:19:53.031895  9097 net.cpp:141] Setting up inception_3a/relu_3x3_reduce
I0403 19:19:53.031922  9097 net.cpp:148] Top shape: 24 96 28 28 (1806336)
I0403 19:19:53.031937  9097 net.cpp:156] Memory required for data: 515408928
I0403 19:19:53.031952  9097 layer_factory.hpp:77] Creating layer inception_3a/3x3
I0403 19:19:53.031976  9097 net.cpp:91] Creating Layer inception_3a/3x3
I0403 19:19:53.031996  9097 net.cpp:425] inception_3a/3x3 <- inception_3a/3x3_reduce
I0403 19:19:53.032019  9097 net.cpp:399] inception_3a/3x3 -> inception_3a/3x3
I0403 19:19:53.033759  9097 net.cpp:141] Setting up inception_3a/3x3
I0403 19:19:53.033792  9097 net.cpp:148] Top shape: 24 128 28 28 (2408448)
I0403 19:19:53.033808  9097 net.cpp:156] Memory required for data: 525042720
I0403 19:19:53.033828  9097 layer_factory.hpp:77] Creating layer inception_3a/relu_3x3
I0403 19:19:53.033848  9097 net.cpp:91] Creating Layer inception_3a/relu_3x3
I0403 19:19:53.033864  9097 net.cpp:425] inception_3a/relu_3x3 <- inception_3a/3x3
I0403 19:19:53.033881  9097 net.cpp:386] inception_3a/relu_3x3 -> inception_3a/3x3 (in-place)
I0403 19:19:53.034167  9097 net.cpp:141] Setting up inception_3a/relu_3x3
I0403 19:19:53.034196  9097 net.cpp:148] Top shape: 24 128 28 28 (2408448)
I0403 19:19:53.034219  9097 net.cpp:156] Memory required for data: 534676512
I0403 19:19:53.034235  9097 layer_factory.hpp:77] Creating layer inception_3a/5x5_reduce
I0403 19:19:53.034257  9097 net.cpp:91] Creating Layer inception_3a/5x5_reduce
I0403 19:19:53.034274  9097 net.cpp:425] inception_3a/5x5_reduce <- pool2/3x3_s2_pool2/3x3_s2_0_split_2
I0403 19:19:53.034297  9097 net.cpp:399] inception_3a/5x5_reduce -> inception_3a/5x5_reduce
I0403 19:19:53.035298  9097 net.cpp:141] Setting up inception_3a/5x5_reduce
I0403 19:19:53.035329  9097 net.cpp:148] Top shape: 24 16 28 28 (301056)
I0403 19:19:53.035346  9097 net.cpp:156] Memory required for data: 535880736
I0403 19:19:53.035365  9097 layer_factory.hpp:77] Creating layer inception_3a/relu_5x5_reduce
I0403 19:19:53.035383  9097 net.cpp:91] Creating Layer inception_3a/relu_5x5_reduce
I0403 19:19:53.035399  9097 net.cpp:425] inception_3a/relu_5x5_reduce <- inception_3a/5x5_reduce
I0403 19:19:53.035418  9097 net.cpp:386] inception_3a/relu_5x5_reduce -> inception_3a/5x5_reduce (in-place)
I0403 19:19:53.035727  9097 net.cpp:141] Setting up inception_3a/relu_5x5_reduce
I0403 19:19:53.035754  9097 net.cpp:148] Top shape: 24 16 28 28 (301056)
I0403 19:19:53.035769  9097 net.cpp:156] Memory required for data: 537084960
I0403 19:19:53.035785  9097 layer_factory.hpp:77] Creating layer inception_3a/5x5
I0403 19:19:53.035809  9097 net.cpp:91] Creating Layer inception_3a/5x5
I0403 19:19:53.035827  9097 net.cpp:425] inception_3a/5x5 <- inception_3a/5x5_reduce
I0403 19:19:53.035851  9097 net.cpp:399] inception_3a/5x5 -> inception_3a/5x5
I0403 19:19:53.036900  9097 net.cpp:141] Setting up inception_3a/5x5
I0403 19:19:53.036927  9097 net.cpp:148] Top shape: 24 32 28 28 (602112)
I0403 19:19:53.036943  9097 net.cpp:156] Memory required for data: 539493408
I0403 19:19:53.036963  9097 layer_factory.hpp:77] Creating layer inception_3a/relu_5x5
I0403 19:19:53.036985  9097 net.cpp:91] Creating Layer inception_3a/relu_5x5
I0403 19:19:53.037003  9097 net.cpp:425] inception_3a/relu_5x5 <- inception_3a/5x5
I0403 19:19:53.037021  9097 net.cpp:386] inception_3a/relu_5x5 -> inception_3a/5x5 (in-place)
I0403 19:19:53.037204  9097 net.cpp:141] Setting up inception_3a/relu_5x5
I0403 19:19:53.037235  9097 net.cpp:148] Top shape: 24 32 28 28 (602112)
I0403 19:19:53.037253  9097 net.cpp:156] Memory required for data: 541901856
I0403 19:19:53.037276  9097 layer_factory.hpp:77] Creating layer inception_3a/pool
I0403 19:19:53.037295  9097 net.cpp:91] Creating Layer inception_3a/pool
I0403 19:19:53.037328  9097 net.cpp:425] inception_3a/pool <- pool2/3x3_s2_pool2/3x3_s2_0_split_3
I0403 19:19:53.037349  9097 net.cpp:399] inception_3a/pool -> inception_3a/pool
I0403 19:19:53.037410  9097 net.cpp:141] Setting up inception_3a/pool
I0403 19:19:53.037434  9097 net.cpp:148] Top shape: 24 192 28 28 (3612672)
I0403 19:19:53.037448  9097 net.cpp:156] Memory required for data: 556352544
I0403 19:19:53.037463  9097 layer_factory.hpp:77] Creating layer inception_3a/pool_proj
I0403 19:19:53.037487  9097 net.cpp:91] Creating Layer inception_3a/pool_proj
I0403 19:19:53.037505  9097 net.cpp:425] inception_3a/pool_proj <- inception_3a/pool
I0403 19:19:53.037528  9097 net.cpp:399] inception_3a/pool_proj -> inception_3a/pool_proj
I0403 19:19:53.038537  9097 net.cpp:141] Setting up inception_3a/pool_proj
I0403 19:19:53.038566  9097 net.cpp:148] Top shape: 24 32 28 28 (602112)
I0403 19:19:53.038583  9097 net.cpp:156] Memory required for data: 558760992
I0403 19:19:53.038609  9097 layer_factory.hpp:77] Creating layer inception_3a/relu_pool_proj
I0403 19:19:53.038630  9097 net.cpp:91] Creating Layer inception_3a/relu_pool_proj
I0403 19:19:53.038645  9097 net.cpp:425] inception_3a/relu_pool_proj <- inception_3a/pool_proj
I0403 19:19:53.038663  9097 net.cpp:386] inception_3a/relu_pool_proj -> inception_3a/pool_proj (in-place)
I0403 19:19:53.038954  9097 net.cpp:141] Setting up inception_3a/relu_pool_proj
I0403 19:19:53.038983  9097 net.cpp:148] Top shape: 24 32 28 28 (602112)
I0403 19:19:53.039000  9097 net.cpp:156] Memory required for data: 561169440
I0403 19:19:53.039016  9097 layer_factory.hpp:77] Creating layer inception_3a/output
I0403 19:19:53.039034  9097 net.cpp:91] Creating Layer inception_3a/output
I0403 19:19:53.039050  9097 net.cpp:425] inception_3a/output <- inception_3a/1x1
I0403 19:19:53.039068  9097 net.cpp:425] inception_3a/output <- inception_3a/3x3
I0403 19:19:53.039084  9097 net.cpp:425] inception_3a/output <- inception_3a/5x5
I0403 19:19:53.039101  9097 net.cpp:425] inception_3a/output <- inception_3a/pool_proj
I0403 19:19:53.039119  9097 net.cpp:399] inception_3a/output -> inception_3a/output
I0403 19:19:53.039167  9097 net.cpp:141] Setting up inception_3a/output
I0403 19:19:53.039191  9097 net.cpp:148] Top shape: 24 256 28 28 (4816896)
I0403 19:19:53.039206  9097 net.cpp:156] Memory required for data: 580437024
I0403 19:19:53.039227  9097 layer_factory.hpp:77] Creating layer inception_3a/output_inception_3a/output_0_split
I0403 19:19:53.039247  9097 net.cpp:91] Creating Layer inception_3a/output_inception_3a/output_0_split
I0403 19:19:53.039263  9097 net.cpp:425] inception_3a/output_inception_3a/output_0_split <- inception_3a/output
I0403 19:19:53.039283  9097 net.cpp:399] inception_3a/output_inception_3a/output_0_split -> inception_3a/output_inception_3a/output_0_split_0
I0403 19:19:53.039304  9097 net.cpp:399] inception_3a/output_inception_3a/output_0_split -> inception_3a/output_inception_3a/output_0_split_1
I0403 19:19:53.039330  9097 net.cpp:399] inception_3a/output_inception_3a/output_0_split -> inception_3a/output_inception_3a/output_0_split_2
I0403 19:19:53.039353  9097 net.cpp:399] inception_3a/output_inception_3a/output_0_split -> inception_3a/output_inception_3a/output_0_split_3
I0403 19:19:53.039432  9097 net.cpp:141] Setting up inception_3a/output_inception_3a/output_0_split
I0403 19:19:53.039455  9097 net.cpp:148] Top shape: 24 256 28 28 (4816896)
I0403 19:19:53.039474  9097 net.cpp:148] Top shape: 24 256 28 28 (4816896)
I0403 19:19:53.039489  9097 net.cpp:148] Top shape: 24 256 28 28 (4816896)
I0403 19:19:53.039506  9097 net.cpp:148] Top shape: 24 256 28 28 (4816896)
I0403 19:19:53.039520  9097 net.cpp:156] Memory required for data: 657507360
I0403 19:19:53.039535  9097 layer_factory.hpp:77] Creating layer inception_3b/1x1
I0403 19:19:53.039558  9097 net.cpp:91] Creating Layer inception_3b/1x1
I0403 19:19:53.039577  9097 net.cpp:425] inception_3b/1x1 <- inception_3a/output_inception_3a/output_0_split_0
I0403 19:19:53.039599  9097 net.cpp:399] inception_3b/1x1 -> inception_3b/1x1
I0403 19:19:53.040787  9097 net.cpp:141] Setting up inception_3b/1x1
I0403 19:19:53.040828  9097 net.cpp:148] Top shape: 24 128 28 28 (2408448)
I0403 19:19:53.040844  9097 net.cpp:156] Memory required for data: 667141152
I0403 19:19:53.040863  9097 layer_factory.hpp:77] Creating layer inception_3b/relu_1x1
I0403 19:19:53.040884  9097 net.cpp:91] Creating Layer inception_3b/relu_1x1
I0403 19:19:53.040901  9097 net.cpp:425] inception_3b/relu_1x1 <- inception_3b/1x1
I0403 19:19:53.040920  9097 net.cpp:386] inception_3b/relu_1x1 -> inception_3b/1x1 (in-place)
I0403 19:19:53.041105  9097 net.cpp:141] Setting up inception_3b/relu_1x1
I0403 19:19:53.041132  9097 net.cpp:148] Top shape: 24 128 28 28 (2408448)
I0403 19:19:53.041148  9097 net.cpp:156] Memory required for data: 676774944
I0403 19:19:53.041164  9097 layer_factory.hpp:77] Creating layer inception_3b/3x3_reduce
I0403 19:19:53.041184  9097 net.cpp:91] Creating Layer inception_3b/3x3_reduce
I0403 19:19:53.041203  9097 net.cpp:425] inception_3b/3x3_reduce <- inception_3a/output_inception_3a/output_0_split_1
I0403 19:19:53.041229  9097 net.cpp:399] inception_3b/3x3_reduce -> inception_3b/3x3_reduce
I0403 19:19:53.042420  9097 net.cpp:141] Setting up inception_3b/3x3_reduce
I0403 19:19:53.042449  9097 net.cpp:148] Top shape: 24 128 28 28 (2408448)
I0403 19:19:53.042465  9097 net.cpp:156] Memory required for data: 686408736
I0403 19:19:53.042485  9097 layer_factory.hpp:77] Creating layer inception_3b/relu_3x3_reduce
I0403 19:19:53.042506  9097 net.cpp:91] Creating Layer inception_3b/relu_3x3_reduce
I0403 19:19:53.042525  9097 net.cpp:425] inception_3b/relu_3x3_reduce <- inception_3b/3x3_reduce
I0403 19:19:53.042542  9097 net.cpp:386] inception_3b/relu_3x3_reduce -> inception_3b/3x3_reduce (in-place)
I0403 19:19:53.042726  9097 net.cpp:141] Setting up inception_3b/relu_3x3_reduce
I0403 19:19:53.042752  9097 net.cpp:148] Top shape: 24 128 28 28 (2408448)
I0403 19:19:53.042768  9097 net.cpp:156] Memory required for data: 696042528
I0403 19:19:53.042783  9097 layer_factory.hpp:77] Creating layer inception_3b/3x3
I0403 19:19:53.042809  9097 net.cpp:91] Creating Layer inception_3b/3x3
I0403 19:19:53.042829  9097 net.cpp:425] inception_3b/3x3 <- inception_3b/3x3_reduce
I0403 19:19:53.042850  9097 net.cpp:399] inception_3b/3x3 -> inception_3b/3x3
I0403 19:19:53.045933  9097 net.cpp:141] Setting up inception_3b/3x3
I0403 19:19:53.045964  9097 net.cpp:148] Top shape: 24 192 28 28 (3612672)
I0403 19:19:53.045982  9097 net.cpp:156] Memory required for data: 710493216
I0403 19:19:53.046002  9097 layer_factory.hpp:77] Creating layer inception_3b/relu_3x3
I0403 19:19:53.046021  9097 net.cpp:91] Creating Layer inception_3b/relu_3x3
I0403 19:19:53.046038  9097 net.cpp:425] inception_3b/relu_3x3 <- inception_3b/3x3
I0403 19:19:53.046056  9097 net.cpp:386] inception_3b/relu_3x3 -> inception_3b/3x3 (in-place)
I0403 19:19:53.046353  9097 net.cpp:141] Setting up inception_3b/relu_3x3
I0403 19:19:53.046383  9097 net.cpp:148] Top shape: 24 192 28 28 (3612672)
I0403 19:19:53.046399  9097 net.cpp:156] Memory required for data: 724943904
I0403 19:19:53.046416  9097 layer_factory.hpp:77] Creating layer inception_3b/5x5_reduce
I0403 19:19:53.046438  9097 net.cpp:91] Creating Layer inception_3b/5x5_reduce
I0403 19:19:53.046455  9097 net.cpp:425] inception_3b/5x5_reduce <- inception_3a/output_inception_3a/output_0_split_2
I0403 19:19:53.046481  9097 net.cpp:399] inception_3b/5x5_reduce -> inception_3b/5x5_reduce
I0403 19:19:53.047528  9097 net.cpp:141] Setting up inception_3b/5x5_reduce
I0403 19:19:53.047557  9097 net.cpp:148] Top shape: 24 32 28 28 (602112)
I0403 19:19:53.047574  9097 net.cpp:156] Memory required for data: 727352352
I0403 19:19:53.047593  9097 layer_factory.hpp:77] Creating layer inception_3b/relu_5x5_reduce
I0403 19:19:53.047615  9097 net.cpp:91] Creating Layer inception_3b/relu_5x5_reduce
I0403 19:19:53.047631  9097 net.cpp:425] inception_3b/relu_5x5_reduce <- inception_3b/5x5_reduce
I0403 19:19:53.047649  9097 net.cpp:386] inception_3b/relu_5x5_reduce -> inception_3b/5x5_reduce (in-place)
I0403 19:19:53.047850  9097 net.cpp:141] Setting up inception_3b/relu_5x5_reduce
I0403 19:19:53.047878  9097 net.cpp:148] Top shape: 24 32 28 28 (602112)
I0403 19:19:53.047895  9097 net.cpp:156] Memory required for data: 729760800
I0403 19:19:53.047910  9097 layer_factory.hpp:77] Creating layer inception_3b/5x5
I0403 19:19:53.047935  9097 net.cpp:91] Creating Layer inception_3b/5x5
I0403 19:19:53.047953  9097 net.cpp:425] inception_3b/5x5 <- inception_3b/5x5_reduce
I0403 19:19:53.047972  9097 net.cpp:399] inception_3b/5x5 -> inception_3b/5x5
I0403 19:19:53.050046  9097 net.cpp:141] Setting up inception_3b/5x5
I0403 19:19:53.050076  9097 net.cpp:148] Top shape: 24 96 28 28 (1806336)
I0403 19:19:53.050093  9097 net.cpp:156] Memory required for data: 736986144
I0403 19:19:53.050112  9097 layer_factory.hpp:77] Creating layer inception_3b/relu_5x5
I0403 19:19:53.050133  9097 net.cpp:91] Creating Layer inception_3b/relu_5x5
I0403 19:19:53.050150  9097 net.cpp:425] inception_3b/relu_5x5 <- inception_3b/5x5
I0403 19:19:53.050169  9097 net.cpp:386] inception_3b/relu_5x5 -> inception_3b/5x5 (in-place)
I0403 19:19:53.050380  9097 net.cpp:141] Setting up inception_3b/relu_5x5
I0403 19:19:53.050407  9097 net.cpp:148] Top shape: 24 96 28 28 (1806336)
I0403 19:19:53.050422  9097 net.cpp:156] Memory required for data: 744211488
I0403 19:19:53.050438  9097 layer_factory.hpp:77] Creating layer inception_3b/pool
I0403 19:19:53.050457  9097 net.cpp:91] Creating Layer inception_3b/pool
I0403 19:19:53.050473  9097 net.cpp:425] inception_3b/pool <- inception_3a/output_inception_3a/output_0_split_3
I0403 19:19:53.050493  9097 net.cpp:399] inception_3b/pool -> inception_3b/pool
I0403 19:19:53.050549  9097 net.cpp:141] Setting up inception_3b/pool
I0403 19:19:53.050573  9097 net.cpp:148] Top shape: 24 256 28 28 (4816896)
I0403 19:19:53.050590  9097 net.cpp:156] Memory required for data: 763479072
I0403 19:19:53.050604  9097 layer_factory.hpp:77] Creating layer inception_3b/pool_proj
I0403 19:19:53.050628  9097 net.cpp:91] Creating Layer inception_3b/pool_proj
I0403 19:19:53.050647  9097 net.cpp:425] inception_3b/pool_proj <- inception_3b/pool
I0403 19:19:53.050668  9097 net.cpp:399] inception_3b/pool_proj -> inception_3b/pool_proj
I0403 19:19:53.051770  9097 net.cpp:141] Setting up inception_3b/pool_proj
I0403 19:19:53.051801  9097 net.cpp:148] Top shape: 24 64 28 28 (1204224)
I0403 19:19:53.051818  9097 net.cpp:156] Memory required for data: 768295968
I0403 19:19:53.051837  9097 layer_factory.hpp:77] Creating layer inception_3b/relu_pool_proj
I0403 19:19:53.051856  9097 net.cpp:91] Creating Layer inception_3b/relu_pool_proj
I0403 19:19:53.051873  9097 net.cpp:425] inception_3b/relu_pool_proj <- inception_3b/pool_proj
I0403 19:19:53.051894  9097 net.cpp:386] inception_3b/relu_pool_proj -> inception_3b/pool_proj (in-place)
I0403 19:19:53.052301  9097 net.cpp:141] Setting up inception_3b/relu_pool_proj
I0403 19:19:53.052332  9097 net.cpp:148] Top shape: 24 64 28 28 (1204224)
I0403 19:19:53.052348  9097 net.cpp:156] Memory required for data: 773112864
I0403 19:19:53.052364  9097 layer_factory.hpp:77] Creating layer inception_3b/output
I0403 19:19:53.052382  9097 net.cpp:91] Creating Layer inception_3b/output
I0403 19:19:53.052398  9097 net.cpp:425] inception_3b/output <- inception_3b/1x1
I0403 19:19:53.052417  9097 net.cpp:425] inception_3b/output <- inception_3b/3x3
I0403 19:19:53.052434  9097 net.cpp:425] inception_3b/output <- inception_3b/5x5
I0403 19:19:53.052450  9097 net.cpp:425] inception_3b/output <- inception_3b/pool_proj
I0403 19:19:53.052469  9097 net.cpp:399] inception_3b/output -> inception_3b/output
I0403 19:19:53.052515  9097 net.cpp:141] Setting up inception_3b/output
I0403 19:19:53.052539  9097 net.cpp:148] Top shape: 24 480 28 28 (9031680)
I0403 19:19:53.052554  9097 net.cpp:156] Memory required for data: 809239584
I0403 19:19:53.052569  9097 layer_factory.hpp:77] Creating layer pool3/3x3_s2
I0403 19:19:53.052590  9097 net.cpp:91] Creating Layer pool3/3x3_s2
I0403 19:19:53.052608  9097 net.cpp:425] pool3/3x3_s2 <- inception_3b/output
I0403 19:19:53.052642  9097 net.cpp:399] pool3/3x3_s2 -> pool3/3x3_s2
I0403 19:19:53.052705  9097 net.cpp:141] Setting up pool3/3x3_s2
I0403 19:19:53.052729  9097 net.cpp:148] Top shape: 24 480 14 14 (2257920)
I0403 19:19:53.052744  9097 net.cpp:156] Memory required for data: 818271264
I0403 19:19:53.052760  9097 layer_factory.hpp:77] Creating layer pool3/3x3_s2_pool3/3x3_s2_0_split
I0403 19:19:53.052778  9097 net.cpp:91] Creating Layer pool3/3x3_s2_pool3/3x3_s2_0_split
I0403 19:19:53.052793  9097 net.cpp:425] pool3/3x3_s2_pool3/3x3_s2_0_split <- pool3/3x3_s2
I0403 19:19:53.052816  9097 net.cpp:399] pool3/3x3_s2_pool3/3x3_s2_0_split -> pool3/3x3_s2_pool3/3x3_s2_0_split_0
I0403 19:19:53.052837  9097 net.cpp:399] pool3/3x3_s2_pool3/3x3_s2_0_split -> pool3/3x3_s2_pool3/3x3_s2_0_split_1
I0403 19:19:53.052857  9097 net.cpp:399] pool3/3x3_s2_pool3/3x3_s2_0_split -> pool3/3x3_s2_pool3/3x3_s2_0_split_2
I0403 19:19:53.052877  9097 net.cpp:399] pool3/3x3_s2_pool3/3x3_s2_0_split -> pool3/3x3_s2_pool3/3x3_s2_0_split_3
I0403 19:19:53.052956  9097 net.cpp:141] Setting up pool3/3x3_s2_pool3/3x3_s2_0_split
I0403 19:19:53.052983  9097 net.cpp:148] Top shape: 24 480 14 14 (2257920)
I0403 19:19:53.053000  9097 net.cpp:148] Top shape: 24 480 14 14 (2257920)
I0403 19:19:53.053017  9097 net.cpp:148] Top shape: 24 480 14 14 (2257920)
I0403 19:19:53.053033  9097 net.cpp:148] Top shape: 24 480 14 14 (2257920)
I0403 19:19:53.053047  9097 net.cpp:156] Memory required for data: 854397984
I0403 19:19:53.053062  9097 layer_factory.hpp:77] Creating layer inception_4a/1x1
I0403 19:19:53.053086  9097 net.cpp:91] Creating Layer inception_4a/1x1
I0403 19:19:53.053103  9097 net.cpp:425] inception_4a/1x1 <- pool3/3x3_s2_pool3/3x3_s2_0_split_0
I0403 19:19:53.053123  9097 net.cpp:399] inception_4a/1x1 -> inception_4a/1x1
I0403 19:19:53.054781  9097 net.cpp:141] Setting up inception_4a/1x1
I0403 19:19:53.054810  9097 net.cpp:148] Top shape: 24 192 14 14 (903168)
I0403 19:19:53.054826  9097 net.cpp:156] Memory required for data: 858010656
I0403 19:19:53.054846  9097 layer_factory.hpp:77] Creating layer inception_4a/relu_1x1
I0403 19:19:53.054864  9097 net.cpp:91] Creating Layer inception_4a/relu_1x1
I0403 19:19:53.054882  9097 net.cpp:425] inception_4a/relu_1x1 <- inception_4a/1x1
I0403 19:19:53.054901  9097 net.cpp:386] inception_4a/relu_1x1 -> inception_4a/1x1 (in-place)
I0403 19:19:53.055088  9097 net.cpp:141] Setting up inception_4a/relu_1x1
I0403 19:19:53.055114  9097 net.cpp:148] Top shape: 24 192 14 14 (903168)
I0403 19:19:53.055129  9097 net.cpp:156] Memory required for data: 861623328
I0403 19:19:53.055143  9097 layer_factory.hpp:77] Creating layer inception_4a/3x3_reduce
I0403 19:19:53.055166  9097 net.cpp:91] Creating Layer inception_4a/3x3_reduce
I0403 19:19:53.055186  9097 net.cpp:425] inception_4a/3x3_reduce <- pool3/3x3_s2_pool3/3x3_s2_0_split_1
I0403 19:19:53.055207  9097 net.cpp:399] inception_4a/3x3_reduce -> inception_4a/3x3_reduce
I0403 19:19:53.056545  9097 net.cpp:141] Setting up inception_4a/3x3_reduce
I0403 19:19:53.056573  9097 net.cpp:148] Top shape: 24 96 14 14 (451584)
I0403 19:19:53.056589  9097 net.cpp:156] Memory required for data: 863429664
I0403 19:19:53.056617  9097 layer_factory.hpp:77] Creating layer inception_4a/relu_3x3_reduce
I0403 19:19:53.056637  9097 net.cpp:91] Creating Layer inception_4a/relu_3x3_reduce
I0403 19:19:53.056653  9097 net.cpp:425] inception_4a/relu_3x3_reduce <- inception_4a/3x3_reduce
I0403 19:19:53.056674  9097 net.cpp:386] inception_4a/relu_3x3_reduce -> inception_4a/3x3_reduce (in-place)
I0403 19:19:53.056857  9097 net.cpp:141] Setting up inception_4a/relu_3x3_reduce
I0403 19:19:53.056884  9097 net.cpp:148] Top shape: 24 96 14 14 (451584)
I0403 19:19:53.056898  9097 net.cpp:156] Memory required for data: 865236000
I0403 19:19:53.056913  9097 layer_factory.hpp:77] Creating layer inception_4a/3x3
I0403 19:19:53.056936  9097 net.cpp:91] Creating Layer inception_4a/3x3
I0403 19:19:53.056956  9097 net.cpp:425] inception_4a/3x3 <- inception_4a/3x3_reduce
I0403 19:19:53.056977  9097 net.cpp:399] inception_4a/3x3 -> inception_4a/3x3
I0403 19:19:53.059813  9097 net.cpp:141] Setting up inception_4a/3x3
I0403 19:19:53.059844  9097 net.cpp:148] Top shape: 24 208 14 14 (978432)
I0403 19:19:53.059860  9097 net.cpp:156] Memory required for data: 869149728
I0403 19:19:53.059880  9097 layer_factory.hpp:77] Creating layer inception_4a/relu_3x3
I0403 19:19:53.059900  9097 net.cpp:91] Creating Layer inception_4a/relu_3x3
I0403 19:19:53.059917  9097 net.cpp:425] inception_4a/relu_3x3 <- inception_4a/3x3
I0403 19:19:53.059937  9097 net.cpp:386] inception_4a/relu_3x3 -> inception_4a/3x3 (in-place)
I0403 19:19:53.060238  9097 net.cpp:141] Setting up inception_4a/relu_3x3
I0403 19:19:53.060267  9097 net.cpp:148] Top shape: 24 208 14 14 (978432)
I0403 19:19:53.060283  9097 net.cpp:156] Memory required for data: 873063456
I0403 19:19:53.060299  9097 layer_factory.hpp:77] Creating layer inception_4a/5x5_reduce
I0403 19:19:53.060323  9097 net.cpp:91] Creating Layer inception_4a/5x5_reduce
I0403 19:19:53.060341  9097 net.cpp:425] inception_4a/5x5_reduce <- pool3/3x3_s2_pool3/3x3_s2_0_split_2
I0403 19:19:53.060364  9097 net.cpp:399] inception_4a/5x5_reduce -> inception_4a/5x5_reduce
I0403 19:19:53.061444  9097 net.cpp:141] Setting up inception_4a/5x5_reduce
I0403 19:19:53.061472  9097 net.cpp:148] Top shape: 24 16 14 14 (75264)
I0403 19:19:53.061488  9097 net.cpp:156] Memory required for data: 873364512
I0403 19:19:53.061508  9097 layer_factory.hpp:77] Creating layer inception_4a/relu_5x5_reduce
I0403 19:19:53.061529  9097 net.cpp:91] Creating Layer inception_4a/relu_5x5_reduce
I0403 19:19:53.061547  9097 net.cpp:425] inception_4a/relu_5x5_reduce <- inception_4a/5x5_reduce
I0403 19:19:53.061564  9097 net.cpp:386] inception_4a/relu_5x5_reduce -> inception_4a/5x5_reduce (in-place)
I0403 19:19:53.061759  9097 net.cpp:141] Setting up inception_4a/relu_5x5_reduce
I0403 19:19:53.061787  9097 net.cpp:148] Top shape: 24 16 14 14 (75264)
I0403 19:19:53.061803  9097 net.cpp:156] Memory required for data: 873665568
I0403 19:19:53.061820  9097 layer_factory.hpp:77] Creating layer inception_4a/5x5
I0403 19:19:53.061842  9097 net.cpp:91] Creating Layer inception_4a/5x5
I0403 19:19:53.061861  9097 net.cpp:425] inception_4a/5x5 <- inception_4a/5x5_reduce
I0403 19:19:53.061882  9097 net.cpp:399] inception_4a/5x5 -> inception_4a/5x5
I0403 19:19:53.063024  9097 net.cpp:141] Setting up inception_4a/5x5
I0403 19:19:53.063055  9097 net.cpp:148] Top shape: 24 48 14 14 (225792)
I0403 19:19:53.063072  9097 net.cpp:156] Memory required for data: 874568736
I0403 19:19:53.063091  9097 layer_factory.hpp:77] Creating layer inception_4a/relu_5x5
I0403 19:19:53.063110  9097 net.cpp:91] Creating Layer inception_4a/relu_5x5
I0403 19:19:53.063127  9097 net.cpp:425] inception_4a/relu_5x5 <- inception_4a/5x5
I0403 19:19:53.063148  9097 net.cpp:386] inception_4a/relu_5x5 -> inception_4a/5x5 (in-place)
I0403 19:19:53.063349  9097 net.cpp:141] Setting up inception_4a/relu_5x5
I0403 19:19:53.063376  9097 net.cpp:148] Top shape: 24 48 14 14 (225792)
I0403 19:19:53.063392  9097 net.cpp:156] Memory required for data: 875471904
I0403 19:19:53.063407  9097 layer_factory.hpp:77] Creating layer inception_4a/pool
I0403 19:19:53.063426  9097 net.cpp:91] Creating Layer inception_4a/pool
I0403 19:19:53.063442  9097 net.cpp:425] inception_4a/pool <- pool3/3x3_s2_pool3/3x3_s2_0_split_3
I0403 19:19:53.063463  9097 net.cpp:399] inception_4a/pool -> inception_4a/pool
I0403 19:19:53.063527  9097 net.cpp:141] Setting up inception_4a/pool
I0403 19:19:53.063555  9097 net.cpp:148] Top shape: 24 480 14 14 (2257920)
I0403 19:19:53.063570  9097 net.cpp:156] Memory required for data: 884503584
I0403 19:19:53.063585  9097 layer_factory.hpp:77] Creating layer inception_4a/pool_proj
I0403 19:19:53.063609  9097 net.cpp:91] Creating Layer inception_4a/pool_proj
I0403 19:19:53.063627  9097 net.cpp:425] inception_4a/pool_proj <- inception_4a/pool
I0403 19:19:53.063648  9097 net.cpp:399] inception_4a/pool_proj -> inception_4a/pool_proj
I0403 19:19:53.064880  9097 net.cpp:141] Setting up inception_4a/pool_proj
I0403 19:19:53.064909  9097 net.cpp:148] Top shape: 24 64 14 14 (301056)
I0403 19:19:53.064941  9097 net.cpp:156] Memory required for data: 885707808
I0403 19:19:53.064962  9097 layer_factory.hpp:77] Creating layer inception_4a/relu_pool_proj
I0403 19:19:53.064980  9097 net.cpp:91] Creating Layer inception_4a/relu_pool_proj
I0403 19:19:53.064997  9097 net.cpp:425] inception_4a/relu_pool_proj <- inception_4a/pool_proj
I0403 19:19:53.065018  9097 net.cpp:386] inception_4a/relu_pool_proj -> inception_4a/pool_proj (in-place)
I0403 19:19:53.065333  9097 net.cpp:141] Setting up inception_4a/relu_pool_proj
I0403 19:19:53.065361  9097 net.cpp:148] Top shape: 24 64 14 14 (301056)
I0403 19:19:53.065377  9097 net.cpp:156] Memory required for data: 886912032
I0403 19:19:53.065392  9097 layer_factory.hpp:77] Creating layer inception_4a/output
I0403 19:19:53.065410  9097 net.cpp:91] Creating Layer inception_4a/output
I0403 19:19:53.065426  9097 net.cpp:425] inception_4a/output <- inception_4a/1x1
I0403 19:19:53.065444  9097 net.cpp:425] inception_4a/output <- inception_4a/3x3
I0403 19:19:53.065461  9097 net.cpp:425] inception_4a/output <- inception_4a/5x5
I0403 19:19:53.065480  9097 net.cpp:425] inception_4a/output <- inception_4a/pool_proj
I0403 19:19:53.065501  9097 net.cpp:399] inception_4a/output -> inception_4a/output
I0403 19:19:53.065548  9097 net.cpp:141] Setting up inception_4a/output
I0403 19:19:53.065575  9097 net.cpp:148] Top shape: 24 512 14 14 (2408448)
I0403 19:19:53.065592  9097 net.cpp:156] Memory required for data: 896545824
I0403 19:19:53.065606  9097 layer_factory.hpp:77] Creating layer inception_4a/output_inception_4a/output_0_split
I0403 19:19:53.065624  9097 net.cpp:91] Creating Layer inception_4a/output_inception_4a/output_0_split
I0403 19:19:53.065641  9097 net.cpp:425] inception_4a/output_inception_4a/output_0_split <- inception_4a/output
I0403 19:19:53.065659  9097 net.cpp:399] inception_4a/output_inception_4a/output_0_split -> inception_4a/output_inception_4a/output_0_split_0
I0403 19:19:53.065682  9097 net.cpp:399] inception_4a/output_inception_4a/output_0_split -> inception_4a/output_inception_4a/output_0_split_1
I0403 19:19:53.065704  9097 net.cpp:399] inception_4a/output_inception_4a/output_0_split -> inception_4a/output_inception_4a/output_0_split_2
I0403 19:19:53.065726  9097 net.cpp:399] inception_4a/output_inception_4a/output_0_split -> inception_4a/output_inception_4a/output_0_split_3
I0403 19:19:53.065747  9097 net.cpp:399] inception_4a/output_inception_4a/output_0_split -> inception_4a/output_inception_4a/output_0_split_4
I0403 19:19:53.065841  9097 net.cpp:141] Setting up inception_4a/output_inception_4a/output_0_split
I0403 19:19:53.065865  9097 net.cpp:148] Top shape: 24 512 14 14 (2408448)
I0403 19:19:53.065882  9097 net.cpp:148] Top shape: 24 512 14 14 (2408448)
I0403 19:19:53.065898  9097 net.cpp:148] Top shape: 24 512 14 14 (2408448)
I0403 19:19:53.065914  9097 net.cpp:148] Top shape: 24 512 14 14 (2408448)
I0403 19:19:53.065932  9097 net.cpp:148] Top shape: 24 512 14 14 (2408448)
I0403 19:19:53.065945  9097 net.cpp:156] Memory required for data: 944714784
I0403 19:19:53.065960  9097 layer_factory.hpp:77] Creating layer loss1/ave_pool
I0403 19:19:53.065981  9097 net.cpp:91] Creating Layer loss1/ave_pool
I0403 19:19:53.065999  9097 net.cpp:425] loss1/ave_pool <- inception_4a/output_inception_4a/output_0_split_0
I0403 19:19:53.066017  9097 net.cpp:399] loss1/ave_pool -> loss1/ave_pool
I0403 19:19:53.066246  9097 net.cpp:141] Setting up loss1/ave_pool
I0403 19:19:53.066272  9097 net.cpp:148] Top shape: 24 512 4 4 (196608)
I0403 19:19:53.066288  9097 net.cpp:156] Memory required for data: 945501216
I0403 19:19:53.066304  9097 layer_factory.hpp:77] Creating layer loss1/conv
I0403 19:19:53.066328  9097 net.cpp:91] Creating Layer loss1/conv
I0403 19:19:53.066346  9097 net.cpp:425] loss1/conv <- loss1/ave_pool
I0403 19:19:53.066367  9097 net.cpp:399] loss1/conv -> loss1/conv
I0403 19:19:53.067862  9097 net.cpp:141] Setting up loss1/conv
I0403 19:19:53.067891  9097 net.cpp:148] Top shape: 24 128 4 4 (49152)
I0403 19:19:53.067922  9097 net.cpp:156] Memory required for data: 945697824
I0403 19:19:53.067944  9097 layer_factory.hpp:77] Creating layer loss1/relu_conv
I0403 19:19:53.067965  9097 net.cpp:91] Creating Layer loss1/relu_conv
I0403 19:19:53.067981  9097 net.cpp:425] loss1/relu_conv <- loss1/conv
I0403 19:19:53.067999  9097 net.cpp:386] loss1/relu_conv -> loss1/conv (in-place)
I0403 19:19:53.068303  9097 net.cpp:141] Setting up loss1/relu_conv
I0403 19:19:53.068331  9097 net.cpp:148] Top shape: 24 128 4 4 (49152)
I0403 19:19:53.068347  9097 net.cpp:156] Memory required for data: 945894432
I0403 19:19:53.068363  9097 layer_factory.hpp:77] Creating layer loss1/fc
I0403 19:19:53.068390  9097 net.cpp:91] Creating Layer loss1/fc
I0403 19:19:53.068409  9097 net.cpp:425] loss1/fc <- loss1/conv
I0403 19:19:53.068429  9097 net.cpp:399] loss1/fc -> loss1/fc
I0403 19:19:53.087412  9097 net.cpp:141] Setting up loss1/fc
I0403 19:19:53.087476  9097 net.cpp:148] Top shape: 24 1024 (24576)
I0403 19:19:53.087492  9097 net.cpp:156] Memory required for data: 945992736
I0403 19:19:53.087514  9097 layer_factory.hpp:77] Creating layer loss1/relu_fc
I0403 19:19:53.087535  9097 net.cpp:91] Creating Layer loss1/relu_fc
I0403 19:19:53.087553  9097 net.cpp:425] loss1/relu_fc <- loss1/fc
I0403 19:19:53.087576  9097 net.cpp:386] loss1/relu_fc -> loss1/fc (in-place)
I0403 19:19:53.087815  9097 net.cpp:141] Setting up loss1/relu_fc
I0403 19:19:53.087841  9097 net.cpp:148] Top shape: 24 1024 (24576)
I0403 19:19:53.087857  9097 net.cpp:156] Memory required for data: 946091040
I0403 19:19:53.087872  9097 layer_factory.hpp:77] Creating layer loss1/drop_fc
I0403 19:19:53.087903  9097 net.cpp:91] Creating Layer loss1/drop_fc
I0403 19:19:53.087921  9097 net.cpp:425] loss1/drop_fc <- loss1/fc
I0403 19:19:53.087939  9097 net.cpp:386] loss1/drop_fc -> loss1/fc (in-place)
I0403 19:19:53.087993  9097 net.cpp:141] Setting up loss1/drop_fc
I0403 19:19:53.088022  9097 net.cpp:148] Top shape: 24 1024 (24576)
I0403 19:19:53.088039  9097 net.cpp:156] Memory required for data: 946189344
I0403 19:19:53.088055  9097 layer_factory.hpp:77] Creating layer loss1/classifier_plantvillage
I0403 19:19:53.088076  9097 net.cpp:91] Creating Layer loss1/classifier_plantvillage
I0403 19:19:53.088093  9097 net.cpp:425] loss1/classifier_plantvillage <- loss1/fc
I0403 19:19:53.088114  9097 net.cpp:399] loss1/classifier_plantvillage -> loss1/classifier_plantvillage
I0403 19:19:53.089129  9097 net.cpp:141] Setting up loss1/classifier_plantvillage
I0403 19:19:53.089159  9097 net.cpp:148] Top shape: 24 38 (912)
I0403 19:19:53.089175  9097 net.cpp:156] Memory required for data: 946192992
I0403 19:19:53.089195  9097 layer_factory.hpp:77] Creating layer loss1/classifier_plantvillage_loss1/classifier_plantvillage_0_split
I0403 19:19:53.089221  9097 net.cpp:91] Creating Layer loss1/classifier_plantvillage_loss1/classifier_plantvillage_0_split
I0403 19:19:53.089239  9097 net.cpp:425] loss1/classifier_plantvillage_loss1/classifier_plantvillage_0_split <- loss1/classifier_plantvillage
I0403 19:19:53.089259  9097 net.cpp:399] loss1/classifier_plantvillage_loss1/classifier_plantvillage_0_split -> loss1/classifier_plantvillage_loss1/classifier_plantvillage_0_split_0
I0403 19:19:53.089280  9097 net.cpp:399] loss1/classifier_plantvillage_loss1/classifier_plantvillage_0_split -> loss1/classifier_plantvillage_loss1/classifier_plantvillage_0_split_1
I0403 19:19:53.089301  9097 net.cpp:399] loss1/classifier_plantvillage_loss1/classifier_plantvillage_0_split -> loss1/classifier_plantvillage_loss1/classifier_plantvillage_0_split_2
I0403 19:19:53.089370  9097 net.cpp:141] Setting up loss1/classifier_plantvillage_loss1/classifier_plantvillage_0_split
I0403 19:19:53.089396  9097 net.cpp:148] Top shape: 24 38 (912)
I0403 19:19:53.089413  9097 net.cpp:148] Top shape: 24 38 (912)
I0403 19:19:53.089431  9097 net.cpp:148] Top shape: 24 38 (912)
I0403 19:19:53.089445  9097 net.cpp:156] Memory required for data: 946203936
I0403 19:19:53.089460  9097 layer_factory.hpp:77] Creating layer inception_4b/1x1
I0403 19:19:53.089483  9097 net.cpp:91] Creating Layer inception_4b/1x1
I0403 19:19:53.089521  9097 net.cpp:425] inception_4b/1x1 <- inception_4a/output_inception_4a/output_0_split_1
I0403 19:19:53.089543  9097 net.cpp:399] inception_4b/1x1 -> inception_4b/1x1
I0403 19:19:53.091339  9097 net.cpp:141] Setting up inception_4b/1x1
I0403 19:19:53.091369  9097 net.cpp:148] Top shape: 24 160 14 14 (752640)
I0403 19:19:53.091385  9097 net.cpp:156] Memory required for data: 949214496
I0403 19:19:53.091405  9097 layer_factory.hpp:77] Creating layer inception_4b/relu_1x1
I0403 19:19:53.091426  9097 net.cpp:91] Creating Layer inception_4b/relu_1x1
I0403 19:19:53.091445  9097 net.cpp:425] inception_4b/relu_1x1 <- inception_4b/1x1
I0403 19:19:53.091464  9097 net.cpp:386] inception_4b/relu_1x1 -> inception_4b/1x1 (in-place)
I0403 19:19:53.091656  9097 net.cpp:141] Setting up inception_4b/relu_1x1
I0403 19:19:53.091686  9097 net.cpp:148] Top shape: 24 160 14 14 (752640)
I0403 19:19:53.091701  9097 net.cpp:156] Memory required for data: 952225056
I0403 19:19:53.091717  9097 layer_factory.hpp:77] Creating layer inception_4b/3x3_reduce
I0403 19:19:53.091739  9097 net.cpp:91] Creating Layer inception_4b/3x3_reduce
I0403 19:19:53.091758  9097 net.cpp:425] inception_4b/3x3_reduce <- inception_4a/output_inception_4a/output_0_split_2
I0403 19:19:53.091778  9097 net.cpp:399] inception_4b/3x3_reduce -> inception_4b/3x3_reduce
I0403 19:19:53.093219  9097 net.cpp:141] Setting up inception_4b/3x3_reduce
I0403 19:19:53.093255  9097 net.cpp:148] Top shape: 24 112 14 14 (526848)
I0403 19:19:53.093273  9097 net.cpp:156] Memory required for data: 954332448
I0403 19:19:53.093292  9097 layer_factory.hpp:77] Creating layer inception_4b/relu_3x3_reduce
I0403 19:19:53.093312  9097 net.cpp:91] Creating Layer inception_4b/relu_3x3_reduce
I0403 19:19:53.093328  9097 net.cpp:425] inception_4b/relu_3x3_reduce <- inception_4b/3x3_reduce
I0403 19:19:53.093349  9097 net.cpp:386] inception_4b/relu_3x3_reduce -> inception_4b/3x3_reduce (in-place)
I0403 19:19:53.093652  9097 net.cpp:141] Setting up inception_4b/relu_3x3_reduce
I0403 19:19:53.093682  9097 net.cpp:148] Top shape: 24 112 14 14 (526848)
I0403 19:19:53.093698  9097 net.cpp:156] Memory required for data: 956439840
I0403 19:19:53.093714  9097 layer_factory.hpp:77] Creating layer inception_4b/3x3
I0403 19:19:53.093739  9097 net.cpp:91] Creating Layer inception_4b/3x3
I0403 19:19:53.093756  9097 net.cpp:425] inception_4b/3x3 <- inception_4b/3x3_reduce
I0403 19:19:53.093776  9097 net.cpp:399] inception_4b/3x3 -> inception_4b/3x3
I0403 19:19:53.096956  9097 net.cpp:141] Setting up inception_4b/3x3
I0403 19:19:53.096985  9097 net.cpp:148] Top shape: 24 224 14 14 (1053696)
I0403 19:19:53.097002  9097 net.cpp:156] Memory required for data: 960654624
I0403 19:19:53.097021  9097 layer_factory.hpp:77] Creating layer inception_4b/relu_3x3
I0403 19:19:53.097051  9097 net.cpp:91] Creating Layer inception_4b/relu_3x3
I0403 19:19:53.097069  9097 net.cpp:425] inception_4b/relu_3x3 <- inception_4b/3x3
I0403 19:19:53.097089  9097 net.cpp:386] inception_4b/relu_3x3 -> inception_4b/3x3 (in-place)
I0403 19:19:53.097285  9097 net.cpp:141] Setting up inception_4b/relu_3x3
I0403 19:19:53.097311  9097 net.cpp:148] Top shape: 24 224 14 14 (1053696)
I0403 19:19:53.097326  9097 net.cpp:156] Memory required for data: 964869408
I0403 19:19:53.097342  9097 layer_factory.hpp:77] Creating layer inception_4b/5x5_reduce
I0403 19:19:53.097368  9097 net.cpp:91] Creating Layer inception_4b/5x5_reduce
I0403 19:19:53.097386  9097 net.cpp:425] inception_4b/5x5_reduce <- inception_4a/output_inception_4a/output_0_split_3
I0403 19:19:53.097410  9097 net.cpp:399] inception_4b/5x5_reduce -> inception_4b/5x5_reduce
I0403 19:19:53.098556  9097 net.cpp:141] Setting up inception_4b/5x5_reduce
I0403 19:19:53.098585  9097 net.cpp:148] Top shape: 24 24 14 14 (112896)
I0403 19:19:53.098600  9097 net.cpp:156] Memory required for data: 965320992
I0403 19:19:53.098620  9097 layer_factory.hpp:77] Creating layer inception_4b/relu_5x5_reduce
I0403 19:19:53.098641  9097 net.cpp:91] Creating Layer inception_4b/relu_5x5_reduce
I0403 19:19:53.098672  9097 net.cpp:425] inception_4b/relu_5x5_reduce <- inception_4b/5x5_reduce
I0403 19:19:53.098692  9097 net.cpp:386] inception_4b/relu_5x5_reduce -> inception_4b/5x5_reduce (in-place)
I0403 19:19:53.098891  9097 net.cpp:141] Setting up inception_4b/relu_5x5_reduce
I0403 19:19:53.098917  9097 net.cpp:148] Top shape: 24 24 14 14 (112896)
I0403 19:19:53.098932  9097 net.cpp:156] Memory required for data: 965772576
I0403 19:19:53.098948  9097 layer_factory.hpp:77] Creating layer inception_4b/5x5
I0403 19:19:53.098971  9097 net.cpp:91] Creating Layer inception_4b/5x5
I0403 19:19:53.098989  9097 net.cpp:425] inception_4b/5x5 <- inception_4b/5x5_reduce
I0403 19:19:53.099011  9097 net.cpp:399] inception_4b/5x5 -> inception_4b/5x5
I0403 19:19:53.100312  9097 net.cpp:141] Setting up inception_4b/5x5
I0403 19:19:53.100342  9097 net.cpp:148] Top shape: 24 64 14 14 (301056)
I0403 19:19:53.100358  9097 net.cpp:156] Memory required for data: 966976800
I0403 19:19:53.100378  9097 layer_factory.hpp:77] Creating layer inception_4b/relu_5x5
I0403 19:19:53.100399  9097 net.cpp:91] Creating Layer inception_4b/relu_5x5
I0403 19:19:53.100415  9097 net.cpp:425] inception_4b/relu_5x5 <- inception_4b/5x5
I0403 19:19:53.100433  9097 net.cpp:386] inception_4b/relu_5x5 -> inception_4b/5x5 (in-place)
I0403 19:19:53.100733  9097 net.cpp:141] Setting up inception_4b/relu_5x5
I0403 19:19:53.100761  9097 net.cpp:148] Top shape: 24 64 14 14 (301056)
I0403 19:19:53.100777  9097 net.cpp:156] Memory required for data: 968181024
I0403 19:19:53.100792  9097 layer_factory.hpp:77] Creating layer inception_4b/pool
I0403 19:19:53.100814  9097 net.cpp:91] Creating Layer inception_4b/pool
I0403 19:19:53.100832  9097 net.cpp:425] inception_4b/pool <- inception_4a/output_inception_4a/output_0_split_4
I0403 19:19:53.100852  9097 net.cpp:399] inception_4b/pool -> inception_4b/pool
I0403 19:19:53.100924  9097 net.cpp:141] Setting up inception_4b/pool
I0403 19:19:53.100949  9097 net.cpp:148] Top shape: 24 512 14 14 (2408448)
I0403 19:19:53.100963  9097 net.cpp:156] Memory required for data: 977814816
I0403 19:19:53.100980  9097 layer_factory.hpp:77] Creating layer inception_4b/pool_proj
I0403 19:19:53.101002  9097 net.cpp:91] Creating Layer inception_4b/pool_proj
I0403 19:19:53.101022  9097 net.cpp:425] inception_4b/pool_proj <- inception_4b/pool
I0403 19:19:53.101043  9097 net.cpp:399] inception_4b/pool_proj -> inception_4b/pool_proj
I0403 19:19:53.102329  9097 net.cpp:141] Setting up inception_4b/pool_proj
I0403 19:19:53.102357  9097 net.cpp:148] Top shape: 24 64 14 14 (301056)
I0403 19:19:53.102392  9097 net.cpp:156] Memory required for data: 979019040
I0403 19:19:53.102411  9097 layer_factory.hpp:77] Creating layer inception_4b/relu_pool_proj
I0403 19:19:53.102430  9097 net.cpp:91] Creating Layer inception_4b/relu_pool_proj
I0403 19:19:53.102447  9097 net.cpp:425] inception_4b/relu_pool_proj <- inception_4b/pool_proj
I0403 19:19:53.102466  9097 net.cpp:386] inception_4b/relu_pool_proj -> inception_4b/pool_proj (in-place)
I0403 19:19:53.102663  9097 net.cpp:141] Setting up inception_4b/relu_pool_proj
I0403 19:19:53.102690  9097 net.cpp:148] Top shape: 24 64 14 14 (301056)
I0403 19:19:53.102706  9097 net.cpp:156] Memory required for data: 980223264
I0403 19:19:53.102722  9097 layer_factory.hpp:77] Creating layer inception_4b/output
I0403 19:19:53.102741  9097 net.cpp:91] Creating Layer inception_4b/output
I0403 19:19:53.102757  9097 net.cpp:425] inception_4b/output <- inception_4b/1x1
I0403 19:19:53.102774  9097 net.cpp:425] inception_4b/output <- inception_4b/3x3
I0403 19:19:53.102790  9097 net.cpp:425] inception_4b/output <- inception_4b/5x5
I0403 19:19:53.102807  9097 net.cpp:425] inception_4b/output <- inception_4b/pool_proj
I0403 19:19:53.102828  9097 net.cpp:399] inception_4b/output -> inception_4b/output
I0403 19:19:53.102875  9097 net.cpp:141] Setting up inception_4b/output
I0403 19:19:53.102900  9097 net.cpp:148] Top shape: 24 512 14 14 (2408448)
I0403 19:19:53.102915  9097 net.cpp:156] Memory required for data: 989857056
I0403 19:19:53.102946  9097 layer_factory.hpp:77] Creating layer inception_4b/output_inception_4b/output_0_split
I0403 19:19:53.102967  9097 net.cpp:91] Creating Layer inception_4b/output_inception_4b/output_0_split
I0403 19:19:53.102983  9097 net.cpp:425] inception_4b/output_inception_4b/output_0_split <- inception_4b/output
I0403 19:19:53.103001  9097 net.cpp:399] inception_4b/output_inception_4b/output_0_split -> inception_4b/output_inception_4b/output_0_split_0
I0403 19:19:53.103023  9097 net.cpp:399] inception_4b/output_inception_4b/output_0_split -> inception_4b/output_inception_4b/output_0_split_1
I0403 19:19:53.103046  9097 net.cpp:399] inception_4b/output_inception_4b/output_0_split -> inception_4b/output_inception_4b/output_0_split_2
I0403 19:19:53.103067  9097 net.cpp:399] inception_4b/output_inception_4b/output_0_split -> inception_4b/output_inception_4b/output_0_split_3
I0403 19:19:53.103155  9097 net.cpp:141] Setting up inception_4b/output_inception_4b/output_0_split
I0403 19:19:53.103179  9097 net.cpp:148] Top shape: 24 512 14 14 (2408448)
I0403 19:19:53.103196  9097 net.cpp:148] Top shape: 24 512 14 14 (2408448)
I0403 19:19:53.103224  9097 net.cpp:148] Top shape: 24 512 14 14 (2408448)
I0403 19:19:53.103243  9097 net.cpp:148] Top shape: 24 512 14 14 (2408448)
I0403 19:19:53.103258  9097 net.cpp:156] Memory required for data: 1028392224
I0403 19:19:53.103273  9097 layer_factory.hpp:77] Creating layer inception_4c/1x1
I0403 19:19:53.103297  9097 net.cpp:91] Creating Layer inception_4c/1x1
I0403 19:19:53.103317  9097 net.cpp:425] inception_4c/1x1 <- inception_4b/output_inception_4b/output_0_split_0
I0403 19:19:53.103339  9097 net.cpp:399] inception_4c/1x1 -> inception_4c/1x1
I0403 19:19:53.104864  9097 net.cpp:141] Setting up inception_4c/1x1
I0403 19:19:53.104898  9097 net.cpp:148] Top shape: 24 128 14 14 (602112)
I0403 19:19:53.104915  9097 net.cpp:156] Memory required for data: 1030800672
I0403 19:19:53.104934  9097 layer_factory.hpp:77] Creating layer inception_4c/relu_1x1
I0403 19:19:53.104954  9097 net.cpp:91] Creating Layer inception_4c/relu_1x1
I0403 19:19:53.104970  9097 net.cpp:425] inception_4c/relu_1x1 <- inception_4c/1x1
I0403 19:19:53.104991  9097 net.cpp:386] inception_4c/relu_1x1 -> inception_4c/1x1 (in-place)
I0403 19:19:53.105185  9097 net.cpp:141] Setting up inception_4c/relu_1x1
I0403 19:19:53.105216  9097 net.cpp:148] Top shape: 24 128 14 14 (602112)
I0403 19:19:53.105232  9097 net.cpp:156] Memory required for data: 1033209120
I0403 19:19:53.105250  9097 layer_factory.hpp:77] Creating layer inception_4c/3x3_reduce
I0403 19:19:53.105273  9097 net.cpp:91] Creating Layer inception_4c/3x3_reduce
I0403 19:19:53.105291  9097 net.cpp:425] inception_4c/3x3_reduce <- inception_4b/output_inception_4b/output_0_split_1
I0403 19:19:53.105314  9097 net.cpp:399] inception_4c/3x3_reduce -> inception_4c/3x3_reduce
I0403 19:19:53.107408  9097 net.cpp:141] Setting up inception_4c/3x3_reduce
I0403 19:19:53.107437  9097 net.cpp:148] Top shape: 24 128 14 14 (602112)
I0403 19:19:53.107453  9097 net.cpp:156] Memory required for data: 1035617568
I0403 19:19:53.107473  9097 layer_factory.hpp:77] Creating layer inception_4c/relu_3x3_reduce
I0403 19:19:53.107494  9097 net.cpp:91] Creating Layer inception_4c/relu_3x3_reduce
I0403 19:19:53.107511  9097 net.cpp:425] inception_4c/relu_3x3_reduce <- inception_4c/3x3_reduce
I0403 19:19:53.107530  9097 net.cpp:386] inception_4c/relu_3x3_reduce -> inception_4c/3x3_reduce (in-place)
I0403 19:19:53.107841  9097 net.cpp:141] Setting up inception_4c/relu_3x3_reduce
I0403 19:19:53.107868  9097 net.cpp:148] Top shape: 24 128 14 14 (602112)
I0403 19:19:53.107883  9097 net.cpp:156] Memory required for data: 1038026016
I0403 19:19:53.107899  9097 layer_factory.hpp:77] Creating layer inception_4c/3x3
I0403 19:19:53.107923  9097 net.cpp:91] Creating Layer inception_4c/3x3
I0403 19:19:53.107940  9097 net.cpp:425] inception_4c/3x3 <- inception_4c/3x3_reduce
I0403 19:19:53.107964  9097 net.cpp:399] inception_4c/3x3 -> inception_4c/3x3
I0403 19:19:53.111804  9097 net.cpp:141] Setting up inception_4c/3x3
I0403 19:19:53.111847  9097 net.cpp:148] Top shape: 24 256 14 14 (1204224)
I0403 19:19:53.111865  9097 net.cpp:156] Memory required for data: 1042842912
I0403 19:19:53.111898  9097 layer_factory.hpp:77] Creating layer inception_4c/relu_3x3
I0403 19:19:53.111922  9097 net.cpp:91] Creating Layer inception_4c/relu_3x3
I0403 19:19:53.111938  9097 net.cpp:425] inception_4c/relu_3x3 <- inception_4c/3x3
I0403 19:19:53.111956  9097 net.cpp:386] inception_4c/relu_3x3 -> inception_4c/3x3 (in-place)
I0403 19:19:53.112154  9097 net.cpp:141] Setting up inception_4c/relu_3x3
I0403 19:19:53.112181  9097 net.cpp:148] Top shape: 24 256 14 14 (1204224)
I0403 19:19:53.112196  9097 net.cpp:156] Memory required for data: 1047659808
I0403 19:19:53.112216  9097 layer_factory.hpp:77] Creating layer inception_4c/5x5_reduce
I0403 19:19:53.112244  9097 net.cpp:91] Creating Layer inception_4c/5x5_reduce
I0403 19:19:53.112263  9097 net.cpp:425] inception_4c/5x5_reduce <- inception_4b/output_inception_4b/output_0_split_2
I0403 19:19:53.112283  9097 net.cpp:399] inception_4c/5x5_reduce -> inception_4c/5x5_reduce
I0403 19:19:53.113450  9097 net.cpp:141] Setting up inception_4c/5x5_reduce
I0403 19:19:53.113479  9097 net.cpp:148] Top shape: 24 24 14 14 (112896)
I0403 19:19:53.113495  9097 net.cpp:156] Memory required for data: 1048111392
I0403 19:19:53.113514  9097 layer_factory.hpp:77] Creating layer inception_4c/relu_5x5_reduce
I0403 19:19:53.113535  9097 net.cpp:91] Creating Layer inception_4c/relu_5x5_reduce
I0403 19:19:53.113553  9097 net.cpp:425] inception_4c/relu_5x5_reduce <- inception_4c/5x5_reduce
I0403 19:19:53.113571  9097 net.cpp:386] inception_4c/relu_5x5_reduce -> inception_4c/5x5_reduce (in-place)
I0403 19:19:53.113770  9097 net.cpp:141] Setting up inception_4c/relu_5x5_reduce
I0403 19:19:53.113795  9097 net.cpp:148] Top shape: 24 24 14 14 (112896)
I0403 19:19:53.113811  9097 net.cpp:156] Memory required for data: 1048562976
I0403 19:19:53.113826  9097 layer_factory.hpp:77] Creating layer inception_4c/5x5
I0403 19:19:53.113849  9097 net.cpp:91] Creating Layer inception_4c/5x5
I0403 19:19:53.113868  9097 net.cpp:425] inception_4c/5x5 <- inception_4c/5x5_reduce
I0403 19:19:53.113891  9097 net.cpp:399] inception_4c/5x5 -> inception_4c/5x5
I0403 19:19:53.115219  9097 net.cpp:141] Setting up inception_4c/5x5
I0403 19:19:53.115252  9097 net.cpp:148] Top shape: 24 64 14 14 (301056)
I0403 19:19:53.115270  9097 net.cpp:156] Memory required for data: 1049767200
I0403 19:19:53.115289  9097 layer_factory.hpp:77] Creating layer inception_4c/relu_5x5
I0403 19:19:53.115309  9097 net.cpp:91] Creating Layer inception_4c/relu_5x5
I0403 19:19:53.115324  9097 net.cpp:425] inception_4c/relu_5x5 <- inception_4c/5x5
I0403 19:19:53.115345  9097 net.cpp:386] inception_4c/relu_5x5 -> inception_4c/5x5 (in-place)
I0403 19:19:53.115648  9097 net.cpp:141] Setting up inception_4c/relu_5x5
I0403 19:19:53.115680  9097 net.cpp:148] Top shape: 24 64 14 14 (301056)
I0403 19:19:53.115697  9097 net.cpp:156] Memory required for data: 1050971424
I0403 19:19:53.115713  9097 layer_factory.hpp:77] Creating layer inception_4c/pool
I0403 19:19:53.115731  9097 net.cpp:91] Creating Layer inception_4c/pool
I0403 19:19:53.115748  9097 net.cpp:425] inception_4c/pool <- inception_4b/output_inception_4b/output_0_split_3
I0403 19:19:53.115770  9097 net.cpp:399] inception_4c/pool -> inception_4c/pool
I0403 19:19:53.115839  9097 net.cpp:141] Setting up inception_4c/pool
I0403 19:19:53.115867  9097 net.cpp:148] Top shape: 24 512 14 14 (2408448)
I0403 19:19:53.115883  9097 net.cpp:156] Memory required for data: 1060605216
I0403 19:19:53.115898  9097 layer_factory.hpp:77] Creating layer inception_4c/pool_proj
I0403 19:19:53.115919  9097 net.cpp:91] Creating Layer inception_4c/pool_proj
I0403 19:19:53.115936  9097 net.cpp:425] inception_4c/pool_proj <- inception_4c/pool
I0403 19:19:53.115959  9097 net.cpp:399] inception_4c/pool_proj -> inception_4c/pool_proj
I0403 19:19:53.117261  9097 net.cpp:141] Setting up inception_4c/pool_proj
I0403 19:19:53.117291  9097 net.cpp:148] Top shape: 24 64 14 14 (301056)
I0403 19:19:53.117322  9097 net.cpp:156] Memory required for data: 1061809440
I0403 19:19:53.117342  9097 layer_factory.hpp:77] Creating layer inception_4c/relu_pool_proj
I0403 19:19:53.117367  9097 net.cpp:91] Creating Layer inception_4c/relu_pool_proj
I0403 19:19:53.117384  9097 net.cpp:425] inception_4c/relu_pool_proj <- inception_4c/pool_proj
I0403 19:19:53.117403  9097 net.cpp:386] inception_4c/relu_pool_proj -> inception_4c/pool_proj (in-place)
I0403 19:19:53.117599  9097 net.cpp:141] Setting up inception_4c/relu_pool_proj
I0403 19:19:53.117626  9097 net.cpp:148] Top shape: 24 64 14 14 (301056)
I0403 19:19:53.117643  9097 net.cpp:156] Memory required for data: 1063013664
I0403 19:19:53.117658  9097 layer_factory.hpp:77] Creating layer inception_4c/output
I0403 19:19:53.117676  9097 net.cpp:91] Creating Layer inception_4c/output
I0403 19:19:53.117692  9097 net.cpp:425] inception_4c/output <- inception_4c/1x1
I0403 19:19:53.117710  9097 net.cpp:425] inception_4c/output <- inception_4c/3x3
I0403 19:19:53.117727  9097 net.cpp:425] inception_4c/output <- inception_4c/5x5
I0403 19:19:53.117743  9097 net.cpp:425] inception_4c/output <- inception_4c/pool_proj
I0403 19:19:53.117763  9097 net.cpp:399] inception_4c/output -> inception_4c/output
I0403 19:19:53.117812  9097 net.cpp:141] Setting up inception_4c/output
I0403 19:19:53.117836  9097 net.cpp:148] Top shape: 24 512 14 14 (2408448)
I0403 19:19:53.117852  9097 net.cpp:156] Memory required for data: 1072647456
I0403 19:19:53.117868  9097 layer_factory.hpp:77] Creating layer inception_4c/output_inception_4c/output_0_split
I0403 19:19:53.117888  9097 net.cpp:91] Creating Layer inception_4c/output_inception_4c/output_0_split
I0403 19:19:53.117905  9097 net.cpp:425] inception_4c/output_inception_4c/output_0_split <- inception_4c/output
I0403 19:19:53.117923  9097 net.cpp:399] inception_4c/output_inception_4c/output_0_split -> inception_4c/output_inception_4c/output_0_split_0
I0403 19:19:53.117944  9097 net.cpp:399] inception_4c/output_inception_4c/output_0_split -> inception_4c/output_inception_4c/output_0_split_1
I0403 19:19:53.117971  9097 net.cpp:399] inception_4c/output_inception_4c/output_0_split -> inception_4c/output_inception_4c/output_0_split_2
I0403 19:19:53.117995  9097 net.cpp:399] inception_4c/output_inception_4c/output_0_split -> inception_4c/output_inception_4c/output_0_split_3
I0403 19:19:53.118084  9097 net.cpp:141] Setting up inception_4c/output_inception_4c/output_0_split
I0403 19:19:53.118108  9097 net.cpp:148] Top shape: 24 512 14 14 (2408448)
I0403 19:19:53.118125  9097 net.cpp:148] Top shape: 24 512 14 14 (2408448)
I0403 19:19:53.118141  9097 net.cpp:148] Top shape: 24 512 14 14 (2408448)
I0403 19:19:53.118158  9097 net.cpp:148] Top shape: 24 512 14 14 (2408448)
I0403 19:19:53.118185  9097 net.cpp:156] Memory required for data: 1111182624
I0403 19:19:53.118199  9097 layer_factory.hpp:77] Creating layer inception_4d/1x1
I0403 19:19:53.118228  9097 net.cpp:91] Creating Layer inception_4d/1x1
I0403 19:19:53.118250  9097 net.cpp:425] inception_4d/1x1 <- inception_4c/output_inception_4c/output_0_split_0
I0403 19:19:53.118273  9097 net.cpp:399] inception_4d/1x1 -> inception_4d/1x1
I0403 19:19:53.119746  9097 net.cpp:141] Setting up inception_4d/1x1
I0403 19:19:53.119776  9097 net.cpp:148] Top shape: 24 112 14 14 (526848)
I0403 19:19:53.119801  9097 net.cpp:156] Memory required for data: 1113290016
I0403 19:19:53.119820  9097 layer_factory.hpp:77] Creating layer inception_4d/relu_1x1
I0403 19:19:53.119842  9097 net.cpp:91] Creating Layer inception_4d/relu_1x1
I0403 19:19:53.119859  9097 net.cpp:425] inception_4d/relu_1x1 <- inception_4d/1x1
I0403 19:19:53.119877  9097 net.cpp:386] inception_4d/relu_1x1 -> inception_4d/1x1 (in-place)
I0403 19:19:53.120072  9097 net.cpp:141] Setting up inception_4d/relu_1x1
I0403 19:19:53.120098  9097 net.cpp:148] Top shape: 24 112 14 14 (526848)
I0403 19:19:53.120113  9097 net.cpp:156] Memory required for data: 1115397408
I0403 19:19:53.120129  9097 layer_factory.hpp:77] Creating layer inception_4d/3x3_reduce
I0403 19:19:53.120168  9097 net.cpp:91] Creating Layer inception_4d/3x3_reduce
I0403 19:19:53.120188  9097 net.cpp:425] inception_4d/3x3_reduce <- inception_4c/output_inception_4c/output_0_split_1
I0403 19:19:53.120213  9097 net.cpp:399] inception_4d/3x3_reduce -> inception_4d/3x3_reduce
I0403 19:19:53.121831  9097 net.cpp:141] Setting up inception_4d/3x3_reduce
I0403 19:19:53.121860  9097 net.cpp:148] Top shape: 24 144 14 14 (677376)
I0403 19:19:53.121876  9097 net.cpp:156] Memory required for data: 1118106912
I0403 19:19:53.121896  9097 layer_factory.hpp:77] Creating layer inception_4d/relu_3x3_reduce
I0403 19:19:53.121914  9097 net.cpp:91] Creating Layer inception_4d/relu_3x3_reduce
I0403 19:19:53.121932  9097 net.cpp:425] inception_4d/relu_3x3_reduce <- inception_4d/3x3_reduce
I0403 19:19:53.121953  9097 net.cpp:386] inception_4d/relu_3x3_reduce -> inception_4d/3x3_reduce (in-place)
I0403 19:19:53.122269  9097 net.cpp:141] Setting up inception_4d/relu_3x3_reduce
I0403 19:19:53.122298  9097 net.cpp:148] Top shape: 24 144 14 14 (677376)
I0403 19:19:53.122313  9097 net.cpp:156] Memory required for data: 1120816416
I0403 19:19:53.122330  9097 layer_factory.hpp:77] Creating layer inception_4d/3x3
I0403 19:19:53.122354  9097 net.cpp:91] Creating Layer inception_4d/3x3
I0403 19:19:53.122373  9097 net.cpp:425] inception_4d/3x3 <- inception_4d/3x3_reduce
I0403 19:19:53.122400  9097 net.cpp:399] inception_4d/3x3 -> inception_4d/3x3
I0403 19:19:53.126929  9097 net.cpp:141] Setting up inception_4d/3x3
I0403 19:19:53.126960  9097 net.cpp:148] Top shape: 24 288 14 14 (1354752)
I0403 19:19:53.126976  9097 net.cpp:156] Memory required for data: 1126235424
I0403 19:19:53.126994  9097 layer_factory.hpp:77] Creating layer inception_4d/relu_3x3
I0403 19:19:53.127015  9097 net.cpp:91] Creating Layer inception_4d/relu_3x3
I0403 19:19:53.127034  9097 net.cpp:425] inception_4d/relu_3x3 <- inception_4d/3x3
I0403 19:19:53.127053  9097 net.cpp:386] inception_4d/relu_3x3 -> inception_4d/3x3 (in-place)
I0403 19:19:53.127255  9097 net.cpp:141] Setting up inception_4d/relu_3x3
I0403 19:19:53.127285  9097 net.cpp:148] Top shape: 24 288 14 14 (1354752)
I0403 19:19:53.127301  9097 net.cpp:156] Memory required for data: 1131654432
I0403 19:19:53.127316  9097 layer_factory.hpp:77] Creating layer inception_4d/5x5_reduce
I0403 19:19:53.127339  9097 net.cpp:91] Creating Layer inception_4d/5x5_reduce
I0403 19:19:53.127358  9097 net.cpp:425] inception_4d/5x5_reduce <- inception_4c/output_inception_4c/output_0_split_2
I0403 19:19:53.127378  9097 net.cpp:399] inception_4d/5x5_reduce -> inception_4d/5x5_reduce
I0403 19:19:53.128592  9097 net.cpp:141] Setting up inception_4d/5x5_reduce
I0403 19:19:53.128621  9097 net.cpp:148] Top shape: 24 32 14 14 (150528)
I0403 19:19:53.128636  9097 net.cpp:156] Memory required for data: 1132256544
I0403 19:19:53.128655  9097 layer_factory.hpp:77] Creating layer inception_4d/relu_5x5_reduce
I0403 19:19:53.128677  9097 net.cpp:91] Creating Layer inception_4d/relu_5x5_reduce
I0403 19:19:53.128695  9097 net.cpp:425] inception_4d/relu_5x5_reduce <- inception_4d/5x5_reduce
I0403 19:19:53.128713  9097 net.cpp:386] inception_4d/relu_5x5_reduce -> inception_4d/5x5_reduce (in-place)
I0403 19:19:53.128913  9097 net.cpp:141] Setting up inception_4d/relu_5x5_reduce
I0403 19:19:53.128939  9097 net.cpp:148] Top shape: 24 32 14 14 (150528)
I0403 19:19:53.128954  9097 net.cpp:156] Memory required for data: 1132858656
I0403 19:19:53.128970  9097 layer_factory.hpp:77] Creating layer inception_4d/5x5
I0403 19:19:53.128995  9097 net.cpp:91] Creating Layer inception_4d/5x5
I0403 19:19:53.129014  9097 net.cpp:425] inception_4d/5x5 <- inception_4d/5x5_reduce
I0403 19:19:53.129034  9097 net.cpp:399] inception_4d/5x5 -> inception_4d/5x5
I0403 19:19:53.130600  9097 net.cpp:141] Setting up inception_4d/5x5
I0403 19:19:53.130632  9097 net.cpp:148] Top shape: 24 64 14 14 (301056)
I0403 19:19:53.130650  9097 net.cpp:156] Memory required for data: 1134062880
I0403 19:19:53.130669  9097 layer_factory.hpp:77] Creating layer inception_4d/relu_5x5
I0403 19:19:53.130703  9097 net.cpp:91] Creating Layer inception_4d/relu_5x5
I0403 19:19:53.130722  9097 net.cpp:425] inception_4d/relu_5x5 <- inception_4d/5x5
I0403 19:19:53.130743  9097 net.cpp:386] inception_4d/relu_5x5 -> inception_4d/5x5 (in-place)
I0403 19:19:53.131064  9097 net.cpp:141] Setting up inception_4d/relu_5x5
I0403 19:19:53.131094  9097 net.cpp:148] Top shape: 24 64 14 14 (301056)
I0403 19:19:53.131111  9097 net.cpp:156] Memory required for data: 1135267104
I0403 19:19:53.131127  9097 layer_factory.hpp:77] Creating layer inception_4d/pool
I0403 19:19:53.131145  9097 net.cpp:91] Creating Layer inception_4d/pool
I0403 19:19:53.131163  9097 net.cpp:425] inception_4d/pool <- inception_4c/output_inception_4c/output_0_split_3
I0403 19:19:53.131186  9097 net.cpp:399] inception_4d/pool -> inception_4d/pool
I0403 19:19:53.131259  9097 net.cpp:141] Setting up inception_4d/pool
I0403 19:19:53.131285  9097 net.cpp:148] Top shape: 24 512 14 14 (2408448)
I0403 19:19:53.131300  9097 net.cpp:156] Memory required for data: 1144900896
I0403 19:19:53.131316  9097 layer_factory.hpp:77] Creating layer inception_4d/pool_proj
I0403 19:19:53.131340  9097 net.cpp:91] Creating Layer inception_4d/pool_proj
I0403 19:19:53.131359  9097 net.cpp:425] inception_4d/pool_proj <- inception_4d/pool
I0403 19:19:53.131381  9097 net.cpp:399] inception_4d/pool_proj -> inception_4d/pool_proj
I0403 19:19:53.133270  9097 net.cpp:141] Setting up inception_4d/pool_proj
I0403 19:19:53.133299  9097 net.cpp:148] Top shape: 24 64 14 14 (301056)
I0403 19:19:53.133316  9097 net.cpp:156] Memory required for data: 1146105120
I0403 19:19:53.133335  9097 layer_factory.hpp:77] Creating layer inception_4d/relu_pool_proj
I0403 19:19:53.133357  9097 net.cpp:91] Creating Layer inception_4d/relu_pool_proj
I0403 19:19:53.133374  9097 net.cpp:425] inception_4d/relu_pool_proj <- inception_4d/pool_proj
I0403 19:19:53.133394  9097 net.cpp:386] inception_4d/relu_pool_proj -> inception_4d/pool_proj (in-place)
I0403 19:19:53.133590  9097 net.cpp:141] Setting up inception_4d/relu_pool_proj
I0403 19:19:53.133620  9097 net.cpp:148] Top shape: 24 64 14 14 (301056)
I0403 19:19:53.133635  9097 net.cpp:156] Memory required for data: 1147309344
I0403 19:19:53.133651  9097 layer_factory.hpp:77] Creating layer inception_4d/output
I0403 19:19:53.133669  9097 net.cpp:91] Creating Layer inception_4d/output
I0403 19:19:53.133685  9097 net.cpp:425] inception_4d/output <- inception_4d/1x1
I0403 19:19:53.133703  9097 net.cpp:425] inception_4d/output <- inception_4d/3x3
I0403 19:19:53.133719  9097 net.cpp:425] inception_4d/output <- inception_4d/5x5
I0403 19:19:53.133736  9097 net.cpp:425] inception_4d/output <- inception_4d/pool_proj
I0403 19:19:53.133754  9097 net.cpp:399] inception_4d/output -> inception_4d/output
I0403 19:19:53.133805  9097 net.cpp:141] Setting up inception_4d/output
I0403 19:19:53.133829  9097 net.cpp:148] Top shape: 24 528 14 14 (2483712)
I0403 19:19:53.133846  9097 net.cpp:156] Memory required for data: 1157244192
I0403 19:19:53.133860  9097 layer_factory.hpp:77] Creating layer inception_4d/output_inception_4d/output_0_split
I0403 19:19:53.133882  9097 net.cpp:91] Creating Layer inception_4d/output_inception_4d/output_0_split
I0403 19:19:53.133898  9097 net.cpp:425] inception_4d/output_inception_4d/output_0_split <- inception_4d/output
I0403 19:19:53.133918  9097 net.cpp:399] inception_4d/output_inception_4d/output_0_split -> inception_4d/output_inception_4d/output_0_split_0
I0403 19:19:53.133939  9097 net.cpp:399] inception_4d/output_inception_4d/output_0_split -> inception_4d/output_inception_4d/output_0_split_1
I0403 19:19:53.133960  9097 net.cpp:399] inception_4d/output_inception_4d/output_0_split -> inception_4d/output_inception_4d/output_0_split_2
I0403 19:19:53.133982  9097 net.cpp:399] inception_4d/output_inception_4d/output_0_split -> inception_4d/output_inception_4d/output_0_split_3
I0403 19:19:53.134006  9097 net.cpp:399] inception_4d/output_inception_4d/output_0_split -> inception_4d/output_inception_4d/output_0_split_4
I0403 19:19:53.134119  9097 net.cpp:141] Setting up inception_4d/output_inception_4d/output_0_split
I0403 19:19:53.134156  9097 net.cpp:148] Top shape: 24 528 14 14 (2483712)
I0403 19:19:53.134174  9097 net.cpp:148] Top shape: 24 528 14 14 (2483712)
I0403 19:19:53.134191  9097 net.cpp:148] Top shape: 24 528 14 14 (2483712)
I0403 19:19:53.134207  9097 net.cpp:148] Top shape: 24 528 14 14 (2483712)
I0403 19:19:53.134228  9097 net.cpp:148] Top shape: 24 528 14 14 (2483712)
I0403 19:19:53.134244  9097 net.cpp:156] Memory required for data: 1206918432
I0403 19:19:53.134260  9097 layer_factory.hpp:77] Creating layer loss2/ave_pool
I0403 19:19:53.134279  9097 net.cpp:91] Creating Layer loss2/ave_pool
I0403 19:19:53.134295  9097 net.cpp:425] loss2/ave_pool <- inception_4d/output_inception_4d/output_0_split_0
I0403 19:19:53.134320  9097 net.cpp:399] loss2/ave_pool -> loss2/ave_pool
I0403 19:19:53.134647  9097 net.cpp:141] Setting up loss2/ave_pool
I0403 19:19:53.134675  9097 net.cpp:148] Top shape: 24 528 4 4 (202752)
I0403 19:19:53.134691  9097 net.cpp:156] Memory required for data: 1207729440
I0403 19:19:53.134707  9097 layer_factory.hpp:77] Creating layer loss2/conv
I0403 19:19:53.134732  9097 net.cpp:91] Creating Layer loss2/conv
I0403 19:19:53.134749  9097 net.cpp:425] loss2/conv <- loss2/ave_pool
I0403 19:19:53.134773  9097 net.cpp:399] loss2/conv -> loss2/conv
I0403 19:19:53.136787  9097 net.cpp:141] Setting up loss2/conv
I0403 19:19:53.136819  9097 net.cpp:148] Top shape: 24 128 4 4 (49152)
I0403 19:19:53.136837  9097 net.cpp:156] Memory required for data: 1207926048
I0403 19:19:53.136855  9097 layer_factory.hpp:77] Creating layer loss2/relu_conv
I0403 19:19:53.136874  9097 net.cpp:91] Creating Layer loss2/relu_conv
I0403 19:19:53.136891  9097 net.cpp:425] loss2/relu_conv <- loss2/conv
I0403 19:19:53.136909  9097 net.cpp:386] loss2/relu_conv -> loss2/conv (in-place)
I0403 19:19:53.137225  9097 net.cpp:141] Setting up loss2/relu_conv
I0403 19:19:53.137262  9097 net.cpp:148] Top shape: 24 128 4 4 (49152)
I0403 19:19:53.137279  9097 net.cpp:156] Memory required for data: 1208122656
I0403 19:19:53.137295  9097 layer_factory.hpp:77] Creating layer loss2/fc
I0403 19:19:53.137313  9097 net.cpp:91] Creating Layer loss2/fc
I0403 19:19:53.137331  9097 net.cpp:425] loss2/fc <- loss2/conv
I0403 19:19:53.137352  9097 net.cpp:399] loss2/fc -> loss2/fc
I0403 19:19:53.156309  9097 net.cpp:141] Setting up loss2/fc
I0403 19:19:53.156370  9097 net.cpp:148] Top shape: 24 1024 (24576)
I0403 19:19:53.156388  9097 net.cpp:156] Memory required for data: 1208220960
I0403 19:19:53.156407  9097 layer_factory.hpp:77] Creating layer loss2/relu_fc
I0403 19:19:53.156431  9097 net.cpp:91] Creating Layer loss2/relu_fc
I0403 19:19:53.156450  9097 net.cpp:425] loss2/relu_fc <- loss2/fc
I0403 19:19:53.156471  9097 net.cpp:386] loss2/relu_fc -> loss2/fc (in-place)
I0403 19:19:53.156831  9097 net.cpp:141] Setting up loss2/relu_fc
I0403 19:19:53.156858  9097 net.cpp:148] Top shape: 24 1024 (24576)
I0403 19:19:53.156873  9097 net.cpp:156] Memory required for data: 1208319264
I0403 19:19:53.156888  9097 layer_factory.hpp:77] Creating layer loss2/drop_fc
I0403 19:19:53.156910  9097 net.cpp:91] Creating Layer loss2/drop_fc
I0403 19:19:53.156929  9097 net.cpp:425] loss2/drop_fc <- loss2/fc
I0403 19:19:53.156946  9097 net.cpp:386] loss2/drop_fc -> loss2/fc (in-place)
I0403 19:19:53.157001  9097 net.cpp:141] Setting up loss2/drop_fc
I0403 19:19:53.157026  9097 net.cpp:148] Top shape: 24 1024 (24576)
I0403 19:19:53.157040  9097 net.cpp:156] Memory required for data: 1208417568
I0403 19:19:53.157055  9097 layer_factory.hpp:77] Creating layer loss2/classifier_plantvillage
I0403 19:19:53.157075  9097 net.cpp:91] Creating Layer loss2/classifier_plantvillage
I0403 19:19:53.157095  9097 net.cpp:425] loss2/classifier_plantvillage <- loss2/fc
I0403 19:19:53.157114  9097 net.cpp:399] loss2/classifier_plantvillage -> loss2/classifier_plantvillage
I0403 19:19:53.157562  9097 net.cpp:141] Setting up loss2/classifier_plantvillage
I0403 19:19:53.157588  9097 net.cpp:148] Top shape: 24 38 (912)
I0403 19:19:53.157630  9097 net.cpp:156] Memory required for data: 1208421216
I0403 19:19:53.157651  9097 layer_factory.hpp:77] Creating layer loss2/classifier_plantvillage_loss2/classifier_plantvillage_0_split
I0403 19:19:53.157671  9097 net.cpp:91] Creating Layer loss2/classifier_plantvillage_loss2/classifier_plantvillage_0_split
I0403 19:19:53.157688  9097 net.cpp:425] loss2/classifier_plantvillage_loss2/classifier_plantvillage_0_split <- loss2/classifier_plantvillage
I0403 19:19:53.157709  9097 net.cpp:399] loss2/classifier_plantvillage_loss2/classifier_plantvillage_0_split -> loss2/classifier_plantvillage_loss2/classifier_plantvillage_0_split_0
I0403 19:19:53.157732  9097 net.cpp:399] loss2/classifier_plantvillage_loss2/classifier_plantvillage_0_split -> loss2/classifier_plantvillage_loss2/classifier_plantvillage_0_split_1
I0403 19:19:53.157753  9097 net.cpp:399] loss2/classifier_plantvillage_loss2/classifier_plantvillage_0_split -> loss2/classifier_plantvillage_loss2/classifier_plantvillage_0_split_2
I0403 19:19:53.157835  9097 net.cpp:141] Setting up loss2/classifier_plantvillage_loss2/classifier_plantvillage_0_split
I0403 19:19:53.157862  9097 net.cpp:148] Top shape: 24 38 (912)
I0403 19:19:53.157881  9097 net.cpp:148] Top shape: 24 38 (912)
I0403 19:19:53.157896  9097 net.cpp:148] Top shape: 24 38 (912)
I0403 19:19:53.157910  9097 net.cpp:156] Memory required for data: 1208432160
I0403 19:19:53.157925  9097 layer_factory.hpp:77] Creating layer inception_4e/1x1
I0403 19:19:53.157949  9097 net.cpp:91] Creating Layer inception_4e/1x1
I0403 19:19:53.157968  9097 net.cpp:425] inception_4e/1x1 <- inception_4d/output_inception_4d/output_0_split_1
I0403 19:19:53.157989  9097 net.cpp:399] inception_4e/1x1 -> inception_4e/1x1
I0403 19:19:53.159973  9097 net.cpp:141] Setting up inception_4e/1x1
I0403 19:19:53.160006  9097 net.cpp:148] Top shape: 24 256 14 14 (1204224)
I0403 19:19:53.160022  9097 net.cpp:156] Memory required for data: 1213249056
I0403 19:19:53.160043  9097 layer_factory.hpp:77] Creating layer inception_4e/relu_1x1
I0403 19:19:53.160061  9097 net.cpp:91] Creating Layer inception_4e/relu_1x1
I0403 19:19:53.160078  9097 net.cpp:425] inception_4e/relu_1x1 <- inception_4e/1x1
I0403 19:19:53.160099  9097 net.cpp:386] inception_4e/relu_1x1 -> inception_4e/1x1 (in-place)
I0403 19:19:53.160423  9097 net.cpp:141] Setting up inception_4e/relu_1x1
I0403 19:19:53.160451  9097 net.cpp:148] Top shape: 24 256 14 14 (1204224)
I0403 19:19:53.160468  9097 net.cpp:156] Memory required for data: 1218065952
I0403 19:19:53.160485  9097 layer_factory.hpp:77] Creating layer inception_4e/3x3_reduce
I0403 19:19:53.160507  9097 net.cpp:91] Creating Layer inception_4e/3x3_reduce
I0403 19:19:53.160526  9097 net.cpp:425] inception_4e/3x3_reduce <- inception_4d/output_inception_4d/output_0_split_2
I0403 19:19:53.160547  9097 net.cpp:399] inception_4e/3x3_reduce -> inception_4e/3x3_reduce
I0403 19:19:53.162839  9097 net.cpp:141] Setting up inception_4e/3x3_reduce
I0403 19:19:53.162871  9097 net.cpp:148] Top shape: 24 160 14 14 (752640)
I0403 19:19:53.162889  9097 net.cpp:156] Memory required for data: 1221076512
I0403 19:19:53.162909  9097 layer_factory.hpp:77] Creating layer inception_4e/relu_3x3_reduce
I0403 19:19:53.162927  9097 net.cpp:91] Creating Layer inception_4e/relu_3x3_reduce
I0403 19:19:53.162943  9097 net.cpp:425] inception_4e/relu_3x3_reduce <- inception_4e/3x3_reduce
I0403 19:19:53.162961  9097 net.cpp:386] inception_4e/relu_3x3_reduce -> inception_4e/3x3_reduce (in-place)
I0403 19:19:53.163161  9097 net.cpp:141] Setting up inception_4e/relu_3x3_reduce
I0403 19:19:53.163189  9097 net.cpp:148] Top shape: 24 160 14 14 (752640)
I0403 19:19:53.163205  9097 net.cpp:156] Memory required for data: 1224087072
I0403 19:19:53.163229  9097 layer_factory.hpp:77] Creating layer inception_4e/3x3
I0403 19:19:53.163254  9097 net.cpp:91] Creating Layer inception_4e/3x3
I0403 19:19:53.163272  9097 net.cpp:425] inception_4e/3x3 <- inception_4e/3x3_reduce
I0403 19:19:53.163300  9097 net.cpp:399] inception_4e/3x3 -> inception_4e/3x3
I0403 19:19:53.168653  9097 net.cpp:141] Setting up inception_4e/3x3
I0403 19:19:53.168699  9097 net.cpp:148] Top shape: 24 320 14 14 (1505280)
I0403 19:19:53.168715  9097 net.cpp:156] Memory required for data: 1230108192
I0403 19:19:53.168735  9097 layer_factory.hpp:77] Creating layer inception_4e/relu_3x3
I0403 19:19:53.168754  9097 net.cpp:91] Creating Layer inception_4e/relu_3x3
I0403 19:19:53.168771  9097 net.cpp:425] inception_4e/relu_3x3 <- inception_4e/3x3
I0403 19:19:53.168792  9097 net.cpp:386] inception_4e/relu_3x3 -> inception_4e/3x3 (in-place)
I0403 19:19:53.169111  9097 net.cpp:141] Setting up inception_4e/relu_3x3
I0403 19:19:53.169138  9097 net.cpp:148] Top shape: 24 320 14 14 (1505280)
I0403 19:19:53.169153  9097 net.cpp:156] Memory required for data: 1236129312
I0403 19:19:53.169169  9097 layer_factory.hpp:77] Creating layer inception_4e/5x5_reduce
I0403 19:19:53.169194  9097 net.cpp:91] Creating Layer inception_4e/5x5_reduce
I0403 19:19:53.169220  9097 net.cpp:425] inception_4e/5x5_reduce <- inception_4d/output_inception_4d/output_0_split_3
I0403 19:19:53.169246  9097 net.cpp:399] inception_4e/5x5_reduce -> inception_4e/5x5_reduce
I0403 19:19:53.170389  9097 net.cpp:141] Setting up inception_4e/5x5_reduce
I0403 19:19:53.170421  9097 net.cpp:148] Top shape: 24 32 14 14 (150528)
I0403 19:19:53.170438  9097 net.cpp:156] Memory required for data: 1236731424
I0403 19:19:53.170459  9097 layer_factory.hpp:77] Creating layer inception_4e/relu_5x5_reduce
I0403 19:19:53.170477  9097 net.cpp:91] Creating Layer inception_4e/relu_5x5_reduce
I0403 19:19:53.170495  9097 net.cpp:425] inception_4e/relu_5x5_reduce <- inception_4e/5x5_reduce
I0403 19:19:53.170516  9097 net.cpp:386] inception_4e/relu_5x5_reduce -> inception_4e/5x5_reduce (in-place)
I0403 19:19:53.170830  9097 net.cpp:141] Setting up inception_4e/relu_5x5_reduce
I0403 19:19:53.170860  9097 net.cpp:148] Top shape: 24 32 14 14 (150528)
I0403 19:19:53.170876  9097 net.cpp:156] Memory required for data: 1237333536
I0403 19:19:53.170892  9097 layer_factory.hpp:77] Creating layer inception_4e/5x5
I0403 19:19:53.170933  9097 net.cpp:91] Creating Layer inception_4e/5x5
I0403 19:19:53.170953  9097 net.cpp:425] inception_4e/5x5 <- inception_4e/5x5_reduce
I0403 19:19:53.170974  9097 net.cpp:399] inception_4e/5x5 -> inception_4e/5x5
I0403 19:19:53.172950  9097 net.cpp:141] Setting up inception_4e/5x5
I0403 19:19:53.172981  9097 net.cpp:148] Top shape: 24 128 14 14 (602112)
I0403 19:19:53.172996  9097 net.cpp:156] Memory required for data: 1239741984
I0403 19:19:53.173017  9097 layer_factory.hpp:77] Creating layer inception_4e/relu_5x5
I0403 19:19:53.173043  9097 net.cpp:91] Creating Layer inception_4e/relu_5x5
I0403 19:19:53.173060  9097 net.cpp:425] inception_4e/relu_5x5 <- inception_4e/5x5
I0403 19:19:53.173079  9097 net.cpp:386] inception_4e/relu_5x5 -> inception_4e/5x5 (in-place)
I0403 19:19:53.173297  9097 net.cpp:141] Setting up inception_4e/relu_5x5
I0403 19:19:53.173326  9097 net.cpp:148] Top shape: 24 128 14 14 (602112)
I0403 19:19:53.173342  9097 net.cpp:156] Memory required for data: 1242150432
I0403 19:19:53.173358  9097 layer_factory.hpp:77] Creating layer inception_4e/pool
I0403 19:19:53.173377  9097 net.cpp:91] Creating Layer inception_4e/pool
I0403 19:19:53.173393  9097 net.cpp:425] inception_4e/pool <- inception_4d/output_inception_4d/output_0_split_4
I0403 19:19:53.173415  9097 net.cpp:399] inception_4e/pool -> inception_4e/pool
I0403 19:19:53.173491  9097 net.cpp:141] Setting up inception_4e/pool
I0403 19:19:53.173516  9097 net.cpp:148] Top shape: 24 528 14 14 (2483712)
I0403 19:19:53.173532  9097 net.cpp:156] Memory required for data: 1252085280
I0403 19:19:53.173547  9097 layer_factory.hpp:77] Creating layer inception_4e/pool_proj
I0403 19:19:53.173571  9097 net.cpp:91] Creating Layer inception_4e/pool_proj
I0403 19:19:53.173590  9097 net.cpp:425] inception_4e/pool_proj <- inception_4e/pool
I0403 19:19:53.173612  9097 net.cpp:399] inception_4e/pool_proj -> inception_4e/pool_proj
I0403 19:19:53.175225  9097 net.cpp:141] Setting up inception_4e/pool_proj
I0403 19:19:53.175266  9097 net.cpp:148] Top shape: 24 128 14 14 (602112)
I0403 19:19:53.175283  9097 net.cpp:156] Memory required for data: 1254493728
I0403 19:19:53.175302  9097 layer_factory.hpp:77] Creating layer inception_4e/relu_pool_proj
I0403 19:19:53.175325  9097 net.cpp:91] Creating Layer inception_4e/relu_pool_proj
I0403 19:19:53.175343  9097 net.cpp:425] inception_4e/relu_pool_proj <- inception_4e/pool_proj
I0403 19:19:53.175362  9097 net.cpp:386] inception_4e/relu_pool_proj -> inception_4e/pool_proj (in-place)
I0403 19:19:53.175671  9097 net.cpp:141] Setting up inception_4e/relu_pool_proj
I0403 19:19:53.175699  9097 net.cpp:148] Top shape: 24 128 14 14 (602112)
I0403 19:19:53.175715  9097 net.cpp:156] Memory required for data: 1256902176
I0403 19:19:53.175730  9097 layer_factory.hpp:77] Creating layer inception_4e/output
I0403 19:19:53.175750  9097 net.cpp:91] Creating Layer inception_4e/output
I0403 19:19:53.175765  9097 net.cpp:425] inception_4e/output <- inception_4e/1x1
I0403 19:19:53.175783  9097 net.cpp:425] inception_4e/output <- inception_4e/3x3
I0403 19:19:53.175799  9097 net.cpp:425] inception_4e/output <- inception_4e/5x5
I0403 19:19:53.175817  9097 net.cpp:425] inception_4e/output <- inception_4e/pool_proj
I0403 19:19:53.175837  9097 net.cpp:399] inception_4e/output -> inception_4e/output
I0403 19:19:53.175894  9097 net.cpp:141] Setting up inception_4e/output
I0403 19:19:53.175920  9097 net.cpp:148] Top shape: 24 832 14 14 (3913728)
I0403 19:19:53.175936  9097 net.cpp:156] Memory required for data: 1272557088
I0403 19:19:53.175954  9097 layer_factory.hpp:77] Creating layer pool4/3x3_s2
I0403 19:19:53.175972  9097 net.cpp:91] Creating Layer pool4/3x3_s2
I0403 19:19:53.175989  9097 net.cpp:425] pool4/3x3_s2 <- inception_4e/output
I0403 19:19:53.176012  9097 net.cpp:399] pool4/3x3_s2 -> pool4/3x3_s2
I0403 19:19:53.176082  9097 net.cpp:141] Setting up pool4/3x3_s2
I0403 19:19:53.176107  9097 net.cpp:148] Top shape: 24 832 7 7 (978432)
I0403 19:19:53.176122  9097 net.cpp:156] Memory required for data: 1276470816
I0403 19:19:53.176138  9097 layer_factory.hpp:77] Creating layer pool4/3x3_s2_pool4/3x3_s2_0_split
I0403 19:19:53.176161  9097 net.cpp:91] Creating Layer pool4/3x3_s2_pool4/3x3_s2_0_split
I0403 19:19:53.176177  9097 net.cpp:425] pool4/3x3_s2_pool4/3x3_s2_0_split <- pool4/3x3_s2
I0403 19:19:53.176197  9097 net.cpp:399] pool4/3x3_s2_pool4/3x3_s2_0_split -> pool4/3x3_s2_pool4/3x3_s2_0_split_0
I0403 19:19:53.176226  9097 net.cpp:399] pool4/3x3_s2_pool4/3x3_s2_0_split -> pool4/3x3_s2_pool4/3x3_s2_0_split_1
I0403 19:19:53.176250  9097 net.cpp:399] pool4/3x3_s2_pool4/3x3_s2_0_split -> pool4/3x3_s2_pool4/3x3_s2_0_split_2
I0403 19:19:53.176270  9097 net.cpp:399] pool4/3x3_s2_pool4/3x3_s2_0_split -> pool4/3x3_s2_pool4/3x3_s2_0_split_3
I0403 19:19:53.176367  9097 net.cpp:141] Setting up pool4/3x3_s2_pool4/3x3_s2_0_split
I0403 19:19:53.176390  9097 net.cpp:148] Top shape: 24 832 7 7 (978432)
I0403 19:19:53.176409  9097 net.cpp:148] Top shape: 24 832 7 7 (978432)
I0403 19:19:53.176424  9097 net.cpp:148] Top shape: 24 832 7 7 (978432)
I0403 19:19:53.176440  9097 net.cpp:148] Top shape: 24 832 7 7 (978432)
I0403 19:19:53.176455  9097 net.cpp:156] Memory required for data: 1292125728
I0403 19:19:53.176470  9097 layer_factory.hpp:77] Creating layer inception_5a/1x1
I0403 19:19:53.176494  9097 net.cpp:91] Creating Layer inception_5a/1x1
I0403 19:19:53.176513  9097 net.cpp:425] inception_5a/1x1 <- pool4/3x3_s2_pool4/3x3_s2_0_split_0
I0403 19:19:53.176537  9097 net.cpp:399] inception_5a/1x1 -> inception_5a/1x1
I0403 19:19:53.179582  9097 net.cpp:141] Setting up inception_5a/1x1
I0403 19:19:53.179612  9097 net.cpp:148] Top shape: 24 256 7 7 (301056)
I0403 19:19:53.179635  9097 net.cpp:156] Memory required for data: 1293329952
I0403 19:19:53.179654  9097 layer_factory.hpp:77] Creating layer inception_5a/relu_1x1
I0403 19:19:53.179674  9097 net.cpp:91] Creating Layer inception_5a/relu_1x1
I0403 19:19:53.179692  9097 net.cpp:425] inception_5a/relu_1x1 <- inception_5a/1x1
I0403 19:19:53.179709  9097 net.cpp:386] inception_5a/relu_1x1 -> inception_5a/1x1 (in-place)
I0403 19:19:53.180042  9097 net.cpp:141] Setting up inception_5a/relu_1x1
I0403 19:19:53.180069  9097 net.cpp:148] Top shape: 24 256 7 7 (301056)
I0403 19:19:53.180088  9097 net.cpp:156] Memory required for data: 1294534176
I0403 19:19:53.180104  9097 layer_factory.hpp:77] Creating layer inception_5a/3x3_reduce
I0403 19:19:53.180125  9097 net.cpp:91] Creating Layer inception_5a/3x3_reduce
I0403 19:19:53.180143  9097 net.cpp:425] inception_5a/3x3_reduce <- pool4/3x3_s2_pool4/3x3_s2_0_split_1
I0403 19:19:53.180167  9097 net.cpp:399] inception_5a/3x3_reduce -> inception_5a/3x3_reduce
I0403 19:19:53.182811  9097 net.cpp:141] Setting up inception_5a/3x3_reduce
I0403 19:19:53.182842  9097 net.cpp:148] Top shape: 24 160 7 7 (188160)
I0403 19:19:53.182858  9097 net.cpp:156] Memory required for data: 1295286816
I0403 19:19:53.182878  9097 layer_factory.hpp:77] Creating layer inception_5a/relu_3x3_reduce
I0403 19:19:53.182898  9097 net.cpp:91] Creating Layer inception_5a/relu_3x3_reduce
I0403 19:19:53.182914  9097 net.cpp:425] inception_5a/relu_3x3_reduce <- inception_5a/3x3_reduce
I0403 19:19:53.182935  9097 net.cpp:386] inception_5a/relu_3x3_reduce -> inception_5a/3x3_reduce (in-place)
I0403 19:19:53.183140  9097 net.cpp:141] Setting up inception_5a/relu_3x3_reduce
I0403 19:19:53.183166  9097 net.cpp:148] Top shape: 24 160 7 7 (188160)
I0403 19:19:53.183183  9097 net.cpp:156] Memory required for data: 1296039456
I0403 19:19:53.183199  9097 layer_factory.hpp:77] Creating layer inception_5a/3x3
I0403 19:19:53.183230  9097 net.cpp:91] Creating Layer inception_5a/3x3
I0403 19:19:53.183250  9097 net.cpp:425] inception_5a/3x3 <- inception_5a/3x3_reduce
I0403 19:19:53.183274  9097 net.cpp:399] inception_5a/3x3 -> inception_5a/3x3
I0403 19:19:53.188623  9097 net.cpp:141] Setting up inception_5a/3x3
I0403 19:19:53.188655  9097 net.cpp:148] Top shape: 24 320 7 7 (376320)
I0403 19:19:53.188671  9097 net.cpp:156] Memory required for data: 1297544736
I0403 19:19:53.188691  9097 layer_factory.hpp:77] Creating layer inception_5a/relu_3x3
I0403 19:19:53.188714  9097 net.cpp:91] Creating Layer inception_5a/relu_3x3
I0403 19:19:53.188732  9097 net.cpp:425] inception_5a/relu_3x3 <- inception_5a/3x3
I0403 19:19:53.188750  9097 net.cpp:386] inception_5a/relu_3x3 -> inception_5a/3x3 (in-place)
I0403 19:19:53.189065  9097 net.cpp:141] Setting up inception_5a/relu_3x3
I0403 19:19:53.189093  9097 net.cpp:148] Top shape: 24 320 7 7 (376320)
I0403 19:19:53.189110  9097 net.cpp:156] Memory required for data: 1299050016
I0403 19:19:53.189126  9097 layer_factory.hpp:77] Creating layer inception_5a/5x5_reduce
I0403 19:19:53.189152  9097 net.cpp:91] Creating Layer inception_5a/5x5_reduce
I0403 19:19:53.189172  9097 net.cpp:425] inception_5a/5x5_reduce <- pool4/3x3_s2_pool4/3x3_s2_0_split_2
I0403 19:19:53.189191  9097 net.cpp:399] inception_5a/5x5_reduce -> inception_5a/5x5_reduce
I0403 19:19:53.190451  9097 net.cpp:141] Setting up inception_5a/5x5_reduce
I0403 19:19:53.190484  9097 net.cpp:148] Top shape: 24 32 7 7 (37632)
I0403 19:19:53.190500  9097 net.cpp:156] Memory required for data: 1299200544
I0403 19:19:53.190520  9097 layer_factory.hpp:77] Creating layer inception_5a/relu_5x5_reduce
I0403 19:19:53.190538  9097 net.cpp:91] Creating Layer inception_5a/relu_5x5_reduce
I0403 19:19:53.190557  9097 net.cpp:425] inception_5a/relu_5x5_reduce <- inception_5a/5x5_reduce
I0403 19:19:53.190575  9097 net.cpp:386] inception_5a/relu_5x5_reduce -> inception_5a/5x5_reduce (in-place)
I0403 19:19:53.190893  9097 net.cpp:141] Setting up inception_5a/relu_5x5_reduce
I0403 19:19:53.190922  9097 net.cpp:148] Top shape: 24 32 7 7 (37632)
I0403 19:19:53.190939  9097 net.cpp:156] Memory required for data: 1299351072
I0403 19:19:53.190955  9097 layer_factory.hpp:77] Creating layer inception_5a/5x5
I0403 19:19:53.190979  9097 net.cpp:91] Creating Layer inception_5a/5x5
I0403 19:19:53.190999  9097 net.cpp:425] inception_5a/5x5 <- inception_5a/5x5_reduce
I0403 19:19:53.191020  9097 net.cpp:399] inception_5a/5x5 -> inception_5a/5x5
I0403 19:19:53.192828  9097 net.cpp:141] Setting up inception_5a/5x5
I0403 19:19:53.192868  9097 net.cpp:148] Top shape: 24 128 7 7 (150528)
I0403 19:19:53.192885  9097 net.cpp:156] Memory required for data: 1299953184
I0403 19:19:53.192904  9097 layer_factory.hpp:77] Creating layer inception_5a/relu_5x5
I0403 19:19:53.192924  9097 net.cpp:91] Creating Layer inception_5a/relu_5x5
I0403 19:19:53.192942  9097 net.cpp:425] inception_5a/relu_5x5 <- inception_5a/5x5
I0403 19:19:53.192960  9097 net.cpp:386] inception_5a/relu_5x5 -> inception_5a/5x5 (in-place)
I0403 19:19:53.193157  9097 net.cpp:141] Setting up inception_5a/relu_5x5
I0403 19:19:53.193187  9097 net.cpp:148] Top shape: 24 128 7 7 (150528)
I0403 19:19:53.193203  9097 net.cpp:156] Memory required for data: 1300555296
I0403 19:19:53.193225  9097 layer_factory.hpp:77] Creating layer inception_5a/pool
I0403 19:19:53.193243  9097 net.cpp:91] Creating Layer inception_5a/pool
I0403 19:19:53.193260  9097 net.cpp:425] inception_5a/pool <- pool4/3x3_s2_pool4/3x3_s2_0_split_3
I0403 19:19:53.193282  9097 net.cpp:399] inception_5a/pool -> inception_5a/pool
I0403 19:19:53.193356  9097 net.cpp:141] Setting up inception_5a/pool
I0403 19:19:53.193379  9097 net.cpp:148] Top shape: 24 832 7 7 (978432)
I0403 19:19:53.193394  9097 net.cpp:156] Memory required for data: 1304469024
I0403 19:19:53.193408  9097 layer_factory.hpp:77] Creating layer inception_5a/pool_proj
I0403 19:19:53.193433  9097 net.cpp:91] Creating Layer inception_5a/pool_proj
I0403 19:19:53.193451  9097 net.cpp:425] inception_5a/pool_proj <- inception_5a/pool
I0403 19:19:53.193471  9097 net.cpp:399] inception_5a/pool_proj -> inception_5a/pool_proj
I0403 19:19:53.195827  9097 net.cpp:141] Setting up inception_5a/pool_proj
I0403 19:19:53.195857  9097 net.cpp:148] Top shape: 24 128 7 7 (150528)
I0403 19:19:53.195873  9097 net.cpp:156] Memory required for data: 1305071136
I0403 19:19:53.195891  9097 layer_factory.hpp:77] Creating layer inception_5a/relu_pool_proj
I0403 19:19:53.195912  9097 net.cpp:91] Creating Layer inception_5a/relu_pool_proj
I0403 19:19:53.195930  9097 net.cpp:425] inception_5a/relu_pool_proj <- inception_5a/pool_proj
I0403 19:19:53.195948  9097 net.cpp:386] inception_5a/relu_pool_proj -> inception_5a/pool_proj (in-place)
I0403 19:19:53.196260  9097 net.cpp:141] Setting up inception_5a/relu_pool_proj
I0403 19:19:53.196287  9097 net.cpp:148] Top shape: 24 128 7 7 (150528)
I0403 19:19:53.196302  9097 net.cpp:156] Memory required for data: 1305673248
I0403 19:19:53.196317  9097 layer_factory.hpp:77] Creating layer inception_5a/output
I0403 19:19:53.196337  9097 net.cpp:91] Creating Layer inception_5a/output
I0403 19:19:53.196354  9097 net.cpp:425] inception_5a/output <- inception_5a/1x1
I0403 19:19:53.196372  9097 net.cpp:425] inception_5a/output <- inception_5a/3x3
I0403 19:19:53.196388  9097 net.cpp:425] inception_5a/output <- inception_5a/5x5
I0403 19:19:53.196403  9097 net.cpp:425] inception_5a/output <- inception_5a/pool_proj
I0403 19:19:53.196420  9097 net.cpp:399] inception_5a/output -> inception_5a/output
I0403 19:19:53.196473  9097 net.cpp:141] Setting up inception_5a/output
I0403 19:19:53.196497  9097 net.cpp:148] Top shape: 24 832 7 7 (978432)
I0403 19:19:53.196512  9097 net.cpp:156] Memory required for data: 1309586976
I0403 19:19:53.196527  9097 layer_factory.hpp:77] Creating layer inception_5a/output_inception_5a/output_0_split
I0403 19:19:53.196544  9097 net.cpp:91] Creating Layer inception_5a/output_inception_5a/output_0_split
I0403 19:19:53.196560  9097 net.cpp:425] inception_5a/output_inception_5a/output_0_split <- inception_5a/output
I0403 19:19:53.196580  9097 net.cpp:399] inception_5a/output_inception_5a/output_0_split -> inception_5a/output_inception_5a/output_0_split_0
I0403 19:19:53.196601  9097 net.cpp:399] inception_5a/output_inception_5a/output_0_split -> inception_5a/output_inception_5a/output_0_split_1
I0403 19:19:53.196621  9097 net.cpp:399] inception_5a/output_inception_5a/output_0_split -> inception_5a/output_inception_5a/output_0_split_2
I0403 19:19:53.196641  9097 net.cpp:399] inception_5a/output_inception_5a/output_0_split -> inception_5a/output_inception_5a/output_0_split_3
I0403 19:19:53.196756  9097 net.cpp:141] Setting up inception_5a/output_inception_5a/output_0_split
I0403 19:19:53.196784  9097 net.cpp:148] Top shape: 24 832 7 7 (978432)
I0403 19:19:53.196800  9097 net.cpp:148] Top shape: 24 832 7 7 (978432)
I0403 19:19:53.196816  9097 net.cpp:148] Top shape: 24 832 7 7 (978432)
I0403 19:19:53.196832  9097 net.cpp:148] Top shape: 24 832 7 7 (978432)
I0403 19:19:53.196846  9097 net.cpp:156] Memory required for data: 1325241888
I0403 19:19:53.196861  9097 layer_factory.hpp:77] Creating layer inception_5b/1x1
I0403 19:19:53.196887  9097 net.cpp:91] Creating Layer inception_5b/1x1
I0403 19:19:53.196905  9097 net.cpp:425] inception_5b/1x1 <- inception_5a/output_inception_5a/output_0_split_0
I0403 19:19:53.196925  9097 net.cpp:399] inception_5b/1x1 -> inception_5b/1x1
I0403 19:19:53.200824  9097 net.cpp:141] Setting up inception_5b/1x1
I0403 19:19:53.200856  9097 net.cpp:148] Top shape: 24 384 7 7 (451584)
I0403 19:19:53.200871  9097 net.cpp:156] Memory required for data: 1327048224
I0403 19:19:53.200891  9097 layer_factory.hpp:77] Creating layer inception_5b/relu_1x1
I0403 19:19:53.200909  9097 net.cpp:91] Creating Layer inception_5b/relu_1x1
I0403 19:19:53.200925  9097 net.cpp:425] inception_5b/relu_1x1 <- inception_5b/1x1
I0403 19:19:53.200945  9097 net.cpp:386] inception_5b/relu_1x1 -> inception_5b/1x1 (in-place)
I0403 19:19:53.201267  9097 net.cpp:141] Setting up inception_5b/relu_1x1
I0403 19:19:53.201294  9097 net.cpp:148] Top shape: 24 384 7 7 (451584)
I0403 19:19:53.201309  9097 net.cpp:156] Memory required for data: 1328854560
I0403 19:19:53.201324  9097 layer_factory.hpp:77] Creating layer inception_5b/3x3_reduce
I0403 19:19:53.201347  9097 net.cpp:91] Creating Layer inception_5b/3x3_reduce
I0403 19:19:53.201365  9097 net.cpp:425] inception_5b/3x3_reduce <- inception_5a/output_inception_5a/output_0_split_1
I0403 19:19:53.201390  9097 net.cpp:399] inception_5b/3x3_reduce -> inception_5b/3x3_reduce
I0403 19:19:53.204138  9097 net.cpp:141] Setting up inception_5b/3x3_reduce
I0403 19:19:53.204167  9097 net.cpp:148] Top shape: 24 192 7 7 (225792)
I0403 19:19:53.204183  9097 net.cpp:156] Memory required for data: 1329757728
I0403 19:19:53.204202  9097 layer_factory.hpp:77] Creating layer inception_5b/relu_3x3_reduce
I0403 19:19:53.204231  9097 net.cpp:91] Creating Layer inception_5b/relu_3x3_reduce
I0403 19:19:53.204248  9097 net.cpp:425] inception_5b/relu_3x3_reduce <- inception_5b/3x3_reduce
I0403 19:19:53.204267  9097 net.cpp:386] inception_5b/relu_3x3_reduce -> inception_5b/3x3_reduce (in-place)
I0403 19:19:53.204468  9097 net.cpp:141] Setting up inception_5b/relu_3x3_reduce
I0403 19:19:53.204493  9097 net.cpp:148] Top shape: 24 192 7 7 (225792)
I0403 19:19:53.204509  9097 net.cpp:156] Memory required for data: 1330660896
I0403 19:19:53.204524  9097 layer_factory.hpp:77] Creating layer inception_5b/3x3
I0403 19:19:53.204547  9097 net.cpp:91] Creating Layer inception_5b/3x3
I0403 19:19:53.204566  9097 net.cpp:425] inception_5b/3x3 <- inception_5b/3x3_reduce
I0403 19:19:53.204586  9097 net.cpp:399] inception_5b/3x3 -> inception_5b/3x3
I0403 19:19:53.211527  9097 net.cpp:141] Setting up inception_5b/3x3
I0403 19:19:53.211557  9097 net.cpp:148] Top shape: 24 384 7 7 (451584)
I0403 19:19:53.211575  9097 net.cpp:156] Memory required for data: 1332467232
I0403 19:19:53.211593  9097 layer_factory.hpp:77] Creating layer inception_5b/relu_3x3
I0403 19:19:53.211616  9097 net.cpp:91] Creating Layer inception_5b/relu_3x3
I0403 19:19:53.211633  9097 net.cpp:425] inception_5b/relu_3x3 <- inception_5b/3x3
I0403 19:19:53.211652  9097 net.cpp:386] inception_5b/relu_3x3 -> inception_5b/3x3 (in-place)
I0403 19:19:53.211971  9097 net.cpp:141] Setting up inception_5b/relu_3x3
I0403 19:19:53.211998  9097 net.cpp:148] Top shape: 24 384 7 7 (451584)
I0403 19:19:53.212014  9097 net.cpp:156] Memory required for data: 1334273568
I0403 19:19:53.212029  9097 layer_factory.hpp:77] Creating layer inception_5b/5x5_reduce
I0403 19:19:53.212069  9097 net.cpp:91] Creating Layer inception_5b/5x5_reduce
I0403 19:19:53.212090  9097 net.cpp:425] inception_5b/5x5_reduce <- inception_5a/output_inception_5a/output_0_split_2
I0403 19:19:53.212113  9097 net.cpp:399] inception_5b/5x5_reduce -> inception_5b/5x5_reduce
I0403 19:19:53.213513  9097 net.cpp:141] Setting up inception_5b/5x5_reduce
I0403 19:19:53.213542  9097 net.cpp:148] Top shape: 24 48 7 7 (56448)
I0403 19:19:53.213558  9097 net.cpp:156] Memory required for data: 1334499360
I0403 19:19:53.213577  9097 layer_factory.hpp:77] Creating layer inception_5b/relu_5x5_reduce
I0403 19:19:53.213598  9097 net.cpp:91] Creating Layer inception_5b/relu_5x5_reduce
I0403 19:19:53.213615  9097 net.cpp:425] inception_5b/relu_5x5_reduce <- inception_5b/5x5_reduce
I0403 19:19:53.213634  9097 net.cpp:386] inception_5b/relu_5x5_reduce -> inception_5b/5x5_reduce (in-place)
I0403 19:19:53.214020  9097 net.cpp:141] Setting up inception_5b/relu_5x5_reduce
I0403 19:19:53.214047  9097 net.cpp:148] Top shape: 24 48 7 7 (56448)
I0403 19:19:53.214062  9097 net.cpp:156] Memory required for data: 1334725152
I0403 19:19:53.214078  9097 layer_factory.hpp:77] Creating layer inception_5b/5x5
I0403 19:19:53.214098  9097 net.cpp:91] Creating Layer inception_5b/5x5
I0403 19:19:53.214117  9097 net.cpp:425] inception_5b/5x5 <- inception_5b/5x5_reduce
I0403 19:19:53.214135  9097 net.cpp:399] inception_5b/5x5 -> inception_5b/5x5
I0403 19:19:53.216311  9097 net.cpp:141] Setting up inception_5b/5x5
I0403 19:19:53.216339  9097 net.cpp:148] Top shape: 24 128 7 7 (150528)
I0403 19:19:53.216358  9097 net.cpp:156] Memory required for data: 1335327264
I0403 19:19:53.216377  9097 layer_factory.hpp:77] Creating layer inception_5b/relu_5x5
I0403 19:19:53.216395  9097 net.cpp:91] Creating Layer inception_5b/relu_5x5
I0403 19:19:53.216413  9097 net.cpp:425] inception_5b/relu_5x5 <- inception_5b/5x5
I0403 19:19:53.216430  9097 net.cpp:386] inception_5b/relu_5x5 -> inception_5b/5x5 (in-place)
I0403 19:19:53.216632  9097 net.cpp:141] Setting up inception_5b/relu_5x5
I0403 19:19:53.216661  9097 net.cpp:148] Top shape: 24 128 7 7 (150528)
I0403 19:19:53.216677  9097 net.cpp:156] Memory required for data: 1335929376
I0403 19:19:53.216692  9097 layer_factory.hpp:77] Creating layer inception_5b/pool
I0403 19:19:53.216711  9097 net.cpp:91] Creating Layer inception_5b/pool
I0403 19:19:53.216727  9097 net.cpp:425] inception_5b/pool <- inception_5a/output_inception_5a/output_0_split_3
I0403 19:19:53.216747  9097 net.cpp:399] inception_5b/pool -> inception_5b/pool
I0403 19:19:53.216822  9097 net.cpp:141] Setting up inception_5b/pool
I0403 19:19:53.216850  9097 net.cpp:148] Top shape: 24 832 7 7 (978432)
I0403 19:19:53.216864  9097 net.cpp:156] Memory required for data: 1339843104
I0403 19:19:53.216879  9097 layer_factory.hpp:77] Creating layer inception_5b/pool_proj
I0403 19:19:53.216900  9097 net.cpp:91] Creating Layer inception_5b/pool_proj
I0403 19:19:53.216918  9097 net.cpp:425] inception_5b/pool_proj <- inception_5b/pool
I0403 19:19:53.216939  9097 net.cpp:399] inception_5b/pool_proj -> inception_5b/pool_proj
I0403 19:19:53.219322  9097 net.cpp:141] Setting up inception_5b/pool_proj
I0403 19:19:53.219352  9097 net.cpp:148] Top shape: 24 128 7 7 (150528)
I0403 19:19:53.219368  9097 net.cpp:156] Memory required for data: 1340445216
I0403 19:19:53.219388  9097 layer_factory.hpp:77] Creating layer inception_5b/relu_pool_proj
I0403 19:19:53.219408  9097 net.cpp:91] Creating Layer inception_5b/relu_pool_proj
I0403 19:19:53.219426  9097 net.cpp:425] inception_5b/relu_pool_proj <- inception_5b/pool_proj
I0403 19:19:53.219444  9097 net.cpp:386] inception_5b/relu_pool_proj -> inception_5b/pool_proj (in-place)
I0403 19:19:53.219750  9097 net.cpp:141] Setting up inception_5b/relu_pool_proj
I0403 19:19:53.219777  9097 net.cpp:148] Top shape: 24 128 7 7 (150528)
I0403 19:19:53.219792  9097 net.cpp:156] Memory required for data: 1341047328
I0403 19:19:53.219807  9097 layer_factory.hpp:77] Creating layer inception_5b/output
I0403 19:19:53.219827  9097 net.cpp:91] Creating Layer inception_5b/output
I0403 19:19:53.219858  9097 net.cpp:425] inception_5b/output <- inception_5b/1x1
I0403 19:19:53.219877  9097 net.cpp:425] inception_5b/output <- inception_5b/3x3
I0403 19:19:53.219894  9097 net.cpp:425] inception_5b/output <- inception_5b/5x5
I0403 19:19:53.219910  9097 net.cpp:425] inception_5b/output <- inception_5b/pool_proj
I0403 19:19:53.219928  9097 net.cpp:399] inception_5b/output -> inception_5b/output
I0403 19:19:53.219983  9097 net.cpp:141] Setting up inception_5b/output
I0403 19:19:53.220008  9097 net.cpp:148] Top shape: 24 1024 7 7 (1204224)
I0403 19:19:53.220023  9097 net.cpp:156] Memory required for data: 1345864224
I0403 19:19:53.220038  9097 layer_factory.hpp:77] Creating layer pool5/7x7_s1
I0403 19:19:53.220057  9097 net.cpp:91] Creating Layer pool5/7x7_s1
I0403 19:19:53.220072  9097 net.cpp:425] pool5/7x7_s1 <- inception_5b/output
I0403 19:19:53.220093  9097 net.cpp:399] pool5/7x7_s1 -> pool5/7x7_s1
I0403 19:19:53.220326  9097 net.cpp:141] Setting up pool5/7x7_s1
I0403 19:19:53.220352  9097 net.cpp:148] Top shape: 24 1024 1 1 (24576)
I0403 19:19:53.220368  9097 net.cpp:156] Memory required for data: 1345962528
I0403 19:19:53.220383  9097 layer_factory.hpp:77] Creating layer pool5/drop_7x7_s1
I0403 19:19:53.220404  9097 net.cpp:91] Creating Layer pool5/drop_7x7_s1
I0403 19:19:53.220422  9097 net.cpp:425] pool5/drop_7x7_s1 <- pool5/7x7_s1
I0403 19:19:53.220440  9097 net.cpp:386] pool5/drop_7x7_s1 -> pool5/7x7_s1 (in-place)
I0403 19:19:53.220494  9097 net.cpp:141] Setting up pool5/drop_7x7_s1
I0403 19:19:53.220517  9097 net.cpp:148] Top shape: 24 1024 1 1 (24576)
I0403 19:19:53.220532  9097 net.cpp:156] Memory required for data: 1346060832
I0403 19:19:53.220547  9097 layer_factory.hpp:77] Creating layer loss3/classifier_plantvillage
I0403 19:19:53.220566  9097 net.cpp:91] Creating Layer loss3/classifier_plantvillage
I0403 19:19:53.220582  9097 net.cpp:425] loss3/classifier_plantvillage <- pool5/7x7_s1
I0403 19:19:53.220604  9097 net.cpp:399] loss3/classifier_plantvillage -> loss3/classifier_plantvillage
I0403 19:19:53.221048  9097 net.cpp:141] Setting up loss3/classifier_plantvillage
I0403 19:19:53.221073  9097 net.cpp:148] Top shape: 24 38 (912)
I0403 19:19:53.221088  9097 net.cpp:156] Memory required for data: 1346064480
I0403 19:19:53.221107  9097 layer_factory.hpp:77] Creating layer loss3/classifier_plantvillage_loss3/classifier_plantvillage_0_split
I0403 19:19:53.221125  9097 net.cpp:91] Creating Layer loss3/classifier_plantvillage_loss3/classifier_plantvillage_0_split
I0403 19:19:53.221141  9097 net.cpp:425] loss3/classifier_plantvillage_loss3/classifier_plantvillage_0_split <- loss3/classifier_plantvillage
I0403 19:19:53.221161  9097 net.cpp:399] loss3/classifier_plantvillage_loss3/classifier_plantvillage_0_split -> loss3/classifier_plantvillage_loss3/classifier_plantvillage_0_split_0
I0403 19:19:53.221184  9097 net.cpp:399] loss3/classifier_plantvillage_loss3/classifier_plantvillage_0_split -> loss3/classifier_plantvillage_loss3/classifier_plantvillage_0_split_1
I0403 19:19:53.221204  9097 net.cpp:399] loss3/classifier_plantvillage_loss3/classifier_plantvillage_0_split -> loss3/classifier_plantvillage_loss3/classifier_plantvillage_0_split_2
I0403 19:19:53.221246  9097 net.cpp:399] loss3/classifier_plantvillage_loss3/classifier_plantvillage_0_split -> loss3/classifier_plantvillage_loss3/classifier_plantvillage_0_split_3
I0403 19:19:53.221355  9097 net.cpp:141] Setting up loss3/classifier_plantvillage_loss3/classifier_plantvillage_0_split
I0403 19:19:53.221380  9097 net.cpp:148] Top shape: 24 38 (912)
I0403 19:19:53.221397  9097 net.cpp:148] Top shape: 24 38 (912)
I0403 19:19:53.221415  9097 net.cpp:148] Top shape: 24 38 (912)
I0403 19:19:53.221431  9097 net.cpp:148] Top shape: 24 38 (912)
I0403 19:19:53.221444  9097 net.cpp:156] Memory required for data: 1346079072
I0403 19:19:53.221459  9097 layer_factory.hpp:77] Creating layer loss1/loss
I0403 19:19:53.221482  9097 net.cpp:91] Creating Layer loss1/loss
I0403 19:19:53.221499  9097 net.cpp:425] loss1/loss <- loss1/classifier_plantvillage_loss1/classifier_plantvillage_0_split_0
I0403 19:19:53.221532  9097 net.cpp:425] loss1/loss <- label_data_1_split_0
…
