…
I0403 19:41:12.082083  9552 net.cpp:313] The NetState phase (1) differed from the phase (0) specified by a rule in layer data
I0403 19:41:12.083312  9552 net.cpp:49] Initializing net from parameters: 
state {
  phase: TEST
}
layer {
  name: "data"
  type: "Data"
  top: "data"
  top: "label"
  include {
    phase: TEST
  }
  transform_param {
    mirror: false
    crop_size: 224
    mean_file: "/home/mohanty/data/final_dataset/lmdb/grayscale-50-50/mean.binaryproto"
  }
  data_param {
    source: "/home/mohanty/data/final_dataset/lmdb/grayscale-50-50/test_db"
    batch_size: 24
    backend: LMDB
  }
}
layer {
  name: "conv1/7x7_s2"
  type: "Convolution"
  bottom: "data"
  top: "conv1/7x7_s2"
  param {
    lr_mult: 1
    decay_mult: 1
  }
  param {
    lr_mult: 2
    decay_mult: 0
  }
  convolution_param {
    num_output: 64
    pad: 3
    kernel_size: 7
    stride: 2
    weight_filler {
      type: "xavier"
      std: 0.1
    }
    bias_filler {
      type: "constant"
      value: 0.2
    }
  }
}
layer {
  name: "conv1/relu_7x7"
  type: "ReLU"
  bottom: "conv1/7x7_s2"
  top: "conv1/7x7_s2"
}
layer {
  name: "pool1/3x3_s2"
  type: "Pooling"
  bottom: "conv1/7x7_s2"
  top: "pool1/3x3_s2"
  pooling_param {
    pool: MAX
    kernel_size: 3
    stride: 2
  }
}
layer {
  name: "pool1/norm1"
  type: "LRN"
  bottom: "pool1/3x3_s2"
  top: "pool1/norm1"
  lrn_param {
    local_size: 5
    alpha: 0.0001
    beta: 0.75
  }
}
layer {
  name: "conv2/3x3_reduce"
  type: "Convolution"
  bottom: "pool1/norm1"
  top: "conv2/3x3_reduce"
  param {
    lr_mult: 1
    decay_mult: 1
  }
  param {
    lr_mult: 2
    decay_mult: 0
  }
  convolution_param {
    num_output: 64
    kernel_size: 1
    weight_filler {
      type: "xavier"
      std: 0.1
    }
    bias_filler {
      type: "constant"
      value: 0.2
    }
  }
}
layer {
  name: "conv2/relu_3x3_reduce"
  type: "ReLU"
  bottom: "conv2/3x3_reduce"
  top: "conv2/3x3_reduce"
}
layer {
  name: "conv2/3x3"
  type: "Convolution"
  bottom: "conv2/3x3_reduce"
  top: "conv2/3x3"
  param {
    lr_mult: 1
    decay_mult: 1
  }
  param {
    lr_mult: 2
    decay_mult: 0
  }
  convolution_param {
    num_output: 192
    pad: 1
    kernel_size: 3
    weight_filler {
      type: "xavier"
      std: 0.03
    }
    bias_filler {
      type: "constant"
      value: 0.2
    }
  }
}
layer {
  name: "conv2/relu_3x3"
  type: "ReLU"
  bottom: "conv2/3x3"
  top: "conv2/3x3"
}
layer {
  name: "conv2/norm2"
  type: "LRN"
  bottom: "conv2/3x3"
  top: "conv2/norm2"
  lrn_param {
    local_size: 5
    alpha: 0.0001
    beta: 0.75
  }
}
layer {
  name: "pool2/3x3_s2"
  type: "Pooling"
  bottom: "conv2/norm2"
  top: "pool2/3x3_s2"
  pooling_param {
    pool: MAX
    kernel_size: 3
    stride: 2
  }
}
layer {
  name: "inception_3a/1x1"
  type: "Convolution"
  bottom: "pool2/3x3_s2"
  top: "inception_3a/1x1"
  param {
    lr_mult: 1
    decay_mult: 1
  }
  param {
    lr_mult: 2
    decay_mult: 0
  }
  convolution_param {
    num_output: 64
    kernel_size: 1
    weight_filler {
      type: "xavier"
      std: 0.03
    }
    bias_filler {
      type: "constant"
      value: 0.2
    }
  }
}
layer {
  name: "inception_3a/relu_1x1"
  type: "ReLU"
  bottom: "inception_3a/1x1"
  top: "inception_3a/1x1"
}
layer {
  name: "inception_3a/3x3_reduce"
  type: "Convolution"
  bottom: "pool2/3x3_s2"
  top: "inception_3a/3x3_reduce"
  param {
    lr_mult: 1
    decay_mult: 1
  }
  param {
    lr_mult: 2
    decay_mult: 0
  }
  convolution_param {
    num_output: 96
    kernel_size: 1
    weight_filler {
      type: "xavier"
      std: 0.09
    }
    bias_filler {
      type: "constant"
      value: 0.2
    }
  }
}
layer {
  name: "inception_3a/relu_3x3_reduce"
  type: "ReLU"
  bottom: "inception_3a/3x3_reduce"
  top: "inception_3a/3x3_reduce"
}
layer {
  name: "inception_3a/3x3"
  type: "Convolution"
  bottom: "inception_3a/3x3_reduce"
  top: "inception_3a/3x3"
  param {
    lr_mult: 1
    decay_mult: 1
  }
  param {
    lr_mult: 2
    decay_mult: 0
  }
  convolution_param {
    num_output: 128
    pad: 1
    kernel_size: 3
    weight_filler {
      type: "xavier"
      std: 0.03
    }
    bias_filler {
      type: "constant"
      value: 0.2
    }
  }
}
layer {
  name: "inception_3a/relu_3x3"
  type: "ReLU"
  bottom: "inception_3a/3x3"
  top: "inception_3a/3x3"
}
layer {
  name: "inception_3a/5x5_reduce"
  type: "Convolution"
  bottom: "pool2/3x3_s2"
  top: "inception_3a/5x5_reduce"
  param {
    lr_mult: 1
    decay_mult: 1
  }
  param {
    lr_mult: 2
    decay_mult: 0
  }
  convolution_param {
    num_output: 16
    kernel_size: 1
    weight_filler {
      type: "xavier"
      std: 0.2
    }
    bias_filler {
      type: "constant"
      value: 0.2
    }
  }
}
layer {
  name: "inception_3a/relu_5x5_reduce"
  type: "ReLU"
  bottom: "inception_3a/5x5_reduce"
  top: "inception_3a/5x5_reduce"
}
layer {
  name: "inception_3a/5x5"
  type: "Convolution"
  bottom: "inception_3a/5x5_reduce"
  top: "inception_3a/5x5"
  param {
    lr_mult: 1
    decay_mult: 1
  }
  param {
    lr_mult: 2
    decay_mult: 0
  }
  convolution_param {
    num_output: 32
    pad: 2
    kernel_size: 5
    weight_filler {
      type: "xavier"
      std: 0.03
    }
    bias_filler {
      type: "constant"
      value: 0.2
    }
  }
}
layer {
  name: "inception_3a/relu_5x5"
  type: "ReLU"
  bottom: "inception_3a/5x5"
  top: "inception_3a/5x5"
}
layer {
  name: "inception_3a/pool"
  type: "Pooling"
  bottom: "pool2/3x3_s2"
  top: "inception_3a/pool"
  pooling_param {
    pool: MAX
    kernel_size: 3
    stride: 1
    pad: 1
  }
}
layer {
  name: "inception_3a/pool_proj"
  type: "Convolution"
  bottom: "inception_3a/pool"
  top: "inception_3a/pool_proj"
  param {
    lr_mult: 1
    decay_mult: 1
  }
  param {
    lr_mult: 2
    decay_mult: 0
  }
  convolution_param {
    num_output: 32
    kernel_size: 1
    weight_filler {
      type: "xavier"
      std: 0.1
    }
    bias_filler {
      type: "constant"
      value: 0.2
    }
  }
}
layer {
  name: "inception_3a/relu_pool_proj"
  type: "ReLU"
  bottom: "inception_3a/pool_proj"
  top: "inception_3a/pool_proj"
}
layer {
  name: "inception_3a/output"
  type: "Concat"
  bottom: "inception_3a/1x1"
  bottom: "inception_3a/3x3"
  bottom: "inception_3a/5x5"
  bottom: "inception_3a/pool_proj"
  top: "inception_3a/output"
}
layer {
  name: "inception_3b/1x1"
  type: "Convolution"
  bottom: "inception_3a/output"
  top: "inception_3b/1x1"
  param {
    lr_mult: 1
    decay_mult: 1
  }
  param {
    lr_mult: 2
    decay_mult: 0
  }
  convolution_param {
    num_output: 128
    kernel_size: 1
    weight_filler {
      type: "xavier"
      std: 0.03
    }
    bias_filler {
      type: "constant"
      value: 0.2
    }
  }
}
layer {
  name: "inception_3b/relu_1x1"
  type: "ReLU"
  bottom: "inception_3b/1x1"
  top: "inception_3b/1x1"
}
layer {
  name: "inception_3b/3x3_reduce"
  type: "Convolution"
  bottom: "inception_3a/output"
  top: "inception_3b/3x3_reduce"
  param {
    lr_mult: 1
    decay_mult: 1
  }
  param {
    lr_mult: 2
    decay_mult: 0
  }
  convolution_param {
    num_output: 128
    kernel_size: 1
    weight_filler {
      type: "xavier"
      std: 0.09
    }
    bias_filler {
      type: "constant"
      value: 0.2
    }
  }
}
layer {
  name: "inception_3b/relu_3x3_reduce"
  type: "ReLU"
  bottom: "inception_3b/3x3_reduce"
  top: "inception_3b/3x3_reduce"
}
layer {
  name: "inception_3b/3x3"
  type: "Convolution"
  bottom: "inception_3b/3x3_reduce"
  top: "inception_3b/3x3"
  param {
    lr_mult: 1
    decay_mult: 1
  }
  param {
    lr_mult: 2
    decay_mult: 0
  }
  convolution_param {
    num_output: 192
    pad: 1
    kernel_size: 3
    weight_filler {
      type: "xavier"
      std: 0.03
    }
    bias_filler {
      type: "constant"
      value: 0.2
    }
  }
}
layer {
  name: "inception_3b/relu_3x3"
  type: "ReLU"
  bottom: "inception_3b/3x3"
  top: "inception_3b/3x3"
}
layer {
  name: "inception_3b/5x5_reduce"
  type: "Convolution"
  bottom: "inception_3a/output"
  top: "inception_3b/5x5_reduce"
  param {
    lr_mult: 1
    decay_mult: 1
  }
  param {
    lr_mult: 2
    decay_mult: 0
  }
  convolution_param {
    num_output: 32
    kernel_size: 1
    weight_filler {
      type: "xavier"
      std: 0.2
    }
    bias_filler {
      type: "constant"
      value: 0.2
    }
  }
}
layer {
  name: "inception_3b/relu_5x5_reduce"
  type: "ReLU"
  bottom: "inception_3b/5x5_reduce"
  top: "inception_3b/5x5_reduce"
}
layer {
  name: "inception_3b/5x5"
  type: "Convolution"
  bottom: "inception_3b/5x5_reduce"
  top: "inception_3b/5x5"
  param {
    lr_mult: 1
    decay_mult: 1
  }
  param {
    lr_mult: 2
    decay_mult: 0
  }
  convolution_param {
    num_output: 96
    pad: 2
    kernel_size: 5
    weight_filler {
      type: "xavier"
      std: 0.03
    }
    bias_filler {
      type: "constant"
      value: 0.2
    }
  }
}
layer {
  name: "inception_3b/relu_5x5"
  type: "ReLU"
  bottom: "inception_3b/5x5"
  top: "inception_3b/5x5"
}
layer {
  name: "inception_3b/pool"
  type: "Pooling"
  bottom: "inception_3a/output"
  top: "inception_3b/pool"
  pooling_param {
    pool: MAX
    kernel_size: 3
    stride: 1
    pad: 1
  }
}
layer {
  name: "inception_3b/pool_proj"
  type: "Convolution"
  bottom: "inception_3b/pool"
  top: "inception_3b/pool_proj"
  param {
    lr_mult: 1
    decay_mult: 1
  }
  param {
    lr_mult: 2
    decay_mult: 0
  }
  convolution_param {
    num_output: 64
    kernel_size: 1
    weight_filler {
      type: "xavier"
      std: 0.1
    }
    bias_filler {
      type: "constant"
      value: 0.2
    }
  }
}
layer {
  name: "inception_3b/relu_pool_proj"
  type: "ReLU"
  bottom: "inception_3b/pool_proj"
  top: "inception_3b/pool_proj"
}
layer {
  name: "inception_3b/output"
  type: "Concat"
  bottom: "inception_3b/1x1"
  bottom: "inception_3b/3x3"
  bottom: "inception_3b/5x5"
  bottom: "inception_3b/pool_proj"
  top: "inception_3b/output"
}
layer {
  name: "pool3/3x3_s2"
  type: "Pooling"
  bottom: "inception_3b/output"
  top: "pool3/3x3_s2"
  pooling_param {
    pool: MAX
    kernel_size: 3
    stride: 2
  }
}
layer {
  name: "inception_4a/1x1"
  type: "Convolution"
  bottom: "pool3/3x3_s2"
  top: "inception_4a/1x1"
  param {
    lr_mult: 1
    decay_mult: 1
  }
  param {
    lr_mult: 2
    decay_mult: 0
  }
  convolution_param {
    num_output: 192
    kernel_size: 1
    weight_filler {
      type: "xavier"
      std: 0.03
    }
    bias_filler {
      type: "constant"
      value: 0.2
    }
  }
}
layer {
  name: "inception_4a/relu_1x1"
  type: "ReLU"
  bottom: "inception_4a/1x1"
  top: "inception_4a/1x1"
}
layer {
  name: "inception_4a/3x3_reduce"
  type: "Convolution"
  bottom: "pool3/3x3_s2"
  top: "inception_4a/3x3_reduce"
  param {
    lr_mult: 1
    decay_mult: 1
  }
  param {
    lr_mult: 2
    decay_mult: 0
  }
  convolution_param {
    num_output: 96
    kernel_size: 1
    weight_filler {
      type: "xavier"
      std: 0.09
    }
    bias_filler {
      type: "constant"
      value: 0.2
    }
  }
}
layer {
  name: "inception_4a/relu_3x3_reduce"
  type: "ReLU"
  bottom: "inception_4a/3x3_reduce"
  top: "inception_4a/3x3_reduce"
}
layer {
  name: "inception_4a/3x3"
  type: "Convolution"
  bottom: "inception_4a/3x3_reduce"
  top: "inception_4a/3x3"
  param {
    lr_mult: 1
    decay_mult: 1
  }
  param {
    lr_mult: 2
    decay_mult: 0
  }
  convolution_param {
    num_output: 208
    pad: 1
    kernel_size: 3
    weight_filler {
      type: "xavier"
      std: 0.03
    }
    bias_filler {
      type: "constant"
      value: 0.2
    }
  }
}
layer {
  name: "inception_4a/relu_3x3"
  type: "ReLU"
  bottom: "inception_4a/3x3"
  top: "inception_4a/3x3"
}
layer {
  name: "inception_4a/5x5_reduce"
  type: "Convolution"
  bottom: "pool3/3x3_s2"
  top: "inception_4a/5x5_reduce"
  param {
    lr_mult: 1
    decay_mult: 1
  }
  param {
    lr_mult: 2
    decay_mult: 0
  }
  convolution_param {
    num_output: 16
    kernel_size: 1
    weight_filler {
      type: "xavier"
      std: 0.2
    }
    bias_filler {
      type: "constant"
      value: 0.2
    }
  }
}
layer {
  name: "inception_4a/relu_5x5_reduce"
  type: "ReLU"
  bottom: "inception_4a/5x5_reduce"
  top: "inception_4a/5x5_reduce"
}
layer {
  name: "inception_4a/5x5"
  type: "Convolution"
  bottom: "inception_4a/5x5_reduce"
  top: "inception_4a/5x5"
  param {
    lr_mult: 1
    decay_mult: 1
  }
  param {
    lr_mult: 2
    decay_mult: 0
  }
  convolution_param {
    num_output: 48
    pad: 2
    kernel_size: 5
    weight_filler {
      type: "xavier"
      std: 0.03
    }
    bias_filler {
      type: "constant"
      value: 0.2
    }
  }
}
layer {
  name: "inception_4a/relu_5x5"
  type: "ReLU"
  bottom: "inception_4a/5x5"
  top: "inception_4a/5x5"
}
layer {
  name: "inception_4a/pool"
  type: "Pooling"
  bottom: "pool3/3x3_s2"
  top: "inception_4a/pool"
  pooling_param {
    pool: MAX
    kernel_size: 3
    stride: 1
    pad: 1
  }
}
layer {
  name: "inception_4a/pool_proj"
  type: "Convolution"
  bottom: "inception_4a/pool"
  top: "inception_4a/pool_proj"
  param {
    lr_mult: 1
    decay_mult: 1
  }
  param {
    lr_mult: 2
    decay_mult: 0
  }
  convolution_param {
    num_output: 64
    kernel_size: 1
    weight_filler {
      type: "xavier"
      std: 0.1
    }
    bias_filler {
      type: "constant"
      value: 0.2
    }
  }
}
layer {
  name: "inception_4a/relu_pool_proj"
  type: "ReLU"
  bottom: "inception_4a/pool_proj"
  top: "inception_4a/pool_proj"
}
layer {
  name: "inception_4a/output"
  type: "Concat"
  bottom: "inception_4a/1x1"
  bottom: "inception_4a/3x3"
  bottom: "inception_4a/5x5"
  bottom: "inception_4a/pool_proj"
  top: "inception_4a/output"
}
layer {
  name: "loss1/ave_pool"
  type: "Pooling"
  bottom: "inception_4a/output"
  top: "loss1/ave_pool"
  pooling_param {
    pool: AVE
    kernel_size: 5
    stride: 3
  }
}
layer {
  name: "loss1/conv"
  type: "Convolution"
  bottom: "loss1/ave_pool"
  top: "loss1/conv"
  param {
    lr_mult: 1
    decay_mult: 1
  }
  param {
    lr_mult: 2
    decay_mult: 0
  }
  convolution_param {
    num_output: 128
    kernel_size: 1
    weight_filler {
      type: "xavier"
      std: 0.08
    }
    bias_filler {
      type: "constant"
      value: 0.2
    }
  }
}
layer {
  name: "loss1/relu_conv"
  type: "ReLU"
  bottom: "loss1/conv"
  top: "loss1/conv"
}
layer {
  name: "loss1/fc"
  type: "InnerProduct"
  bottom: "loss1/conv"
  top: "loss1/fc"
  param {
    lr_mult: 1
    decay_mult: 1
  }
  param {
    lr_mult: 2
    decay_mult: 0
  }
  inner_product_param {
    num_output: 1024
    weight_filler {
      type: "xavier"
      std: 0.02
    }
    bias_filler {
      type: "constant"
      value: 0.2
    }
  }
}
layer {
  name: "loss1/relu_fc"
  type: "ReLU"
  bottom: "loss1/fc"
  top: "loss1/fc"
}
layer {
  name: "loss1/drop_fc"
  type: "Dropout"
  bottom: "loss1/fc"
  top: "loss1/fc"
  dropout_param {
    dropout_ratio: 0.7
  }
}
layer {
  name: "loss1/classifier_plantvillage"
  type: "InnerProduct"
  bottom: "loss1/fc"
  top: "loss1/classifier_plantvillage"
  param {
    lr_mult: 1
    decay_mult: 1
  }
  param {
    lr_mult: 2
    decay_mult: 0
  }
  inner_product_param {
    num_output: 38
    weight_filler {
      type: "xavier"
      std: 0.0009765625
    }
    bias_filler {
      type: "constant"
      value: 0
    }
  }
}
layer {
  name: "inception_4b/1x1"
  type: "Convolution"
  bottom: "inception_4a/output"
  top: "inception_4b/1x1"
  param {
    lr_mult: 1
    decay_mult: 1
  }
  param {
    lr_mult: 2
    decay_mult: 0
  }
  convolution_param {
    num_output: 160
    kernel_size: 1
    weight_filler {
      type: "xavier"
      std: 0.03
    }
    bias_filler {
      type: "constant"
      value: 0.2
    }
  }
}
layer {
  name: "inception_4b/relu_1x1"
  type: "ReLU"
  bottom: "inception_4b/1x1"
  top: "inception_4b/1x1"
}
layer {
  name: "inception_4b/3x3_reduce"
  type: "Convolution"
  bottom: "inception_4a/output"
  top: "inception_4b/3x3_reduce"
  param {
    lr_mult: 1
    decay_mult: 1
  }
  param {
    lr_mult: 2
    decay_mult: 0
  }
  convolution_param {
    num_output: 112
    kernel_size: 1
    weight_filler {
      type: "xavier"
      std: 0.09
    }
    bias_filler {
      type: "constant"
      value: 0.2
    }
  }
}
layer {
  name: "inception_4b/relu_3x3_reduce"
  type: "ReLU"
  bottom: "inception_4b/3x3_reduce"
  top: "inception_4b/3x3_reduce"
}
layer {
  name: "inception_4b/3x3"
  type: "Convolution"
  bottom: "inception_4b/3x3_reduce"
  top: "inception_4b/3x3"
  param {
    lr_mult: 1
    decay_mult: 1
  }
  param {
    lr_mult: 2
    decay_mult: 0
  }
  convolution_param {
    num_output: 224
    pad: 1
    kernel_size: 3
    weight_filler {
      type: "xavier"
      std: 0.03
    }
    bias_filler {
      type: "constant"
      value: 0.2
    }
  }
}
layer {
  name: "inception_4b/relu_3x3"
  type: "ReLU"
  bottom: "inception_4b/3x3"
  top: "inception_4b/3x3"
}
layer {
  name: "inception_4b/5x5_reduce"
  type: "Convolution"
  bottom: "inception_4a/output"
  top: "inception_4b/5x5_reduce"
  param {
    lr_mult: 1
    decay_mult: 1
  }
  param {
    lr_mult: 2
    decay_mult: 0
  }
  convolution_param {
    num_output: 24
    kernel_size: 1
    weight_filler {
      type: "xavier"
      std: 0.2
    }
    bias_filler {
      type: "constant"
      value: 0.2
    }
  }
}
layer {
  name: "inception_4b/relu_5x5_reduce"
  type: "ReLU"
  bottom: "inception_4b/5x5_reduce"
  top: "inception_4b/5x5_reduce"
}
layer {
  name: "inception_4b/5x5"
  type: "Convolution"
  bottom: "inception_4b/5x5_reduce"
  top: "inception_4b/5x5"
  param {
    lr_mult: 1
    decay_mult: 1
  }
  param {
    lr_mult: 2
    decay_mult: 0
  }
  convolution_param {
    num_output: 64
    pad: 2
    kernel_size: 5
    weight_filler {
      type: "xavier"
      std: 0.03
    }
    bias_filler {
      type: "constant"
      value: 0.2
    }
  }
}
layer {
  name: "inception_4b/relu_5x5"
  type: "ReLU"
  bottom: "inception_4b/5x5"
  top: "inception_4b/5x5"
}
layer {
  name: "inception_4b/pool"
  type: "Pooling"
  bottom: "inception_4a/output"
  top: "inception_4b/pool"
  pooling_param {
    pool: MAX
    kernel_size: 3
    stride: 1
    pad: 1
  }
}
layer {
  name: "inception_4b/pool_proj"
  type: "Convolution"
  bottom: "inception_4b/pool"
  top: "inception_4b/pool_proj"
  param {
    lr_mult: 1
    decay_mult: 1
  }
  param {
    lr_mult: 2
    decay_mult: 0
  }
  convolution_param {
    num_output: 64
    kernel_size: 1
    weight_filler {
      type: "xavier"
      std: 0.1
    }
    bias_filler {
      type: "constant"
      value: 0.2
    }
  }
}
layer {
  name: "inception_4b/relu_pool_proj"
  type: "ReLU"
  bottom: "inception_4b/pool_proj"
  top: "inception_4b/pool_proj"
}
layer {
  name: "inception_4b/output"
  type: "Concat"
  bottom: "inception_4b/1x1"
  bottom: "inception_4b/3x3"
  bottom: "inception_4b/5x5"
  bottom: "inception_4b/pool_proj"
  top: "inception_4b/output"
}
layer {
  name: "inception_4c/1x1"
  type: "Convolution"
  bottom: "inception_4b/output"
  top: "inception_4c/1x1"
  param {
    lr_mult: 1
    decay_mult: 1
  }
  param {
    lr_mult: 2
    decay_mult: 0
  }
  convolution_param {
    num_output: 128
    kernel_size: 1
    weight_filler {
      type: "xavier"
      std: 0.03
    }
    bias_filler {
      type: "constant"
      value: 0.2
    }
  }
}
layer {
  name: "inception_4c/relu_1x1"
  type: "ReLU"
  bottom: "inception_4c/1x1"
  top: "inception_4c/1x1"
}
layer {
  name: "inception_4c/3x3_reduce"
  type: "Convolution"
  bottom: "inception_4b/output"
  top: "inception_4c/3x3_reduce"
  param {
    lr_mult: 1
    decay_mult: 1
  }
  param {
    lr_mult: 2
    decay_mult: 0
  }
  convolution_param {
    num_output: 128
    kernel_size: 1
    weight_filler {
      type: "xavier"
      std: 0.09
    }
    bias_filler {
      type: "constant"
      value: 0.2
    }
  }
}
layer {
  name: "inception_4c/relu_3x3_reduce"
  type: "ReLU"
  bottom: "inception_4c/3x3_reduce"
  top: "inception_4c/3x3_reduce"
}
layer {
  name: "inception_4c/3x3"
  type: "Convolution"
  bottom: "inception_4c/3x3_reduce"
  top: "inception_4c/3x3"
  param {
    lr_mult: 1
    decay_mult: 1
  }
  param {
    lr_mult: 2
    decay_mult: 0
  }
  convolution_param {
    num_output: 256
    pad: 1
    kernel_size: 3
    weight_filler {
      type: "xavier"
      std: 0.03
    }
    bias_filler {
      type: "constant"
      value: 0.2
    }
  }
}
layer {
  name: "inception_4c/relu_3x3"
  type: "ReLU"
  bottom: "inception_4c/3x3"
  top: "inception_4c/3x3"
}
layer {
  name: "inception_4c/5x5_reduce"
  type: "Convolution"
  bottom: "inception_4b/output"
  top: "inception_4c/5x5_reduce"
  param {
    lr_mult: 1
    decay_mult: 1
  }
  param {
    lr_mult: 2
    decay_mult: 0
  }
  convolution_param {
    num_output: 24
    kernel_size: 1
    weight_filler {
      type: "xavier"
      std: 0.2
    }
    bias_filler {
      type: "constant"
      value: 0.2
    }
  }
}
layer {
  name: "inception_4c/relu_5x5_reduce"
  type: "ReLU"
  bottom: "inception_4c/5x5_reduce"
  top: "inception_4c/5x5_reduce"
}
layer {
  name: "inception_4c/5x5"
  type: "Convolution"
  bottom: "inception_4c/5x5_reduce"
  top: "inception_4c/5x5"
  param {
    lr_mult: 1
    decay_mult: 1
  }
  param {
    lr_mult: 2
    decay_mult: 0
  }
  convolution_param {
    num_output: 64
    pad: 2
    kernel_size: 5
    weight_filler {
      type: "xavier"
      std: 0.03
    }
    bias_filler {
      type: "constant"
      value: 0.2
    }
  }
}
layer {
  name: "inception_4c/relu_5x5"
  type: "ReLU"
  bottom: "inception_4c/5x5"
  top: "inception_4c/5x5"
}
layer {
  name: "inception_4c/pool"
  type: "Pooling"
  bottom: "inception_4b/output"
  top: "inception_4c/pool"
  pooling_param {
    pool: MAX
    kernel_size: 3
    stride: 1
    pad: 1
  }
}
layer {
  name: "inception_4c/pool_proj"
  type: "Convolution"
  bottom: "inception_4c/pool"
  top: "inception_4c/pool_proj"
  param {
    lr_mult: 1
    decay_mult: 1
  }
  param {
    lr_mult: 2
    decay_mult: 0
  }
  convolution_param {
    num_output: 64
    kernel_size: 1
    weight_filler {
      type: "xavier"
      std: 0.1
    }
    bias_filler {
      type: "constant"
      value: 0.2
    }
  }
}
layer {
  name: "inception_4c/relu_pool_proj"
  type: "ReLU"
  bottom: "inception_4c/pool_proj"
  top: "inception_4c/pool_proj"
}
layer {
  name: "inception_4c/output"
  type: "Concat"
  bottom: "inception_4c/1x1"
  bottom: "inception_4c/3x3"
  bottom: "inception_4c/5x5"
  bottom: "inception_4c/pool_proj"
  top: "inception_4c/output"
}
layer {
  name: "inception_4d/1x1"
  type: "Convolution"
  bottom: "inception_4c/output"
  top: "inception_4d/1x1"
  param {
    lr_mult: 1
    decay_mult: 1
  }
  param {
    lr_mult: 2
    decay_mult: 0
  }
  convolution_param {
    num_output: 112
    kernel_size: 1
    weight_filler {
      type: "xavier"
      std: 0.03
    }
    bias_filler {
      type: "constant"
      value: 0.2
    }
  }
}
layer {
  name: "inception_4d/relu_1x1"
  type: "ReLU"
  bottom: "inception_4d/1x1"
  top: "inception_4d/1x1"
}
layer {
  name: "inception_4d/3x3_reduce"
  type: "Convolution"
  bottom: "inception_4c/output"
  top: "inception_4d/3x3_reduce"
  param {
    lr_mult: 1
    decay_mult: 1
  }
  param {
    lr_mult: 2
    decay_mult: 0
  }
  convolution_param {
    num_output: 144
    kernel_size: 1
    weight_filler {
      type: "xavier"
      std: 0.09
    }
    bias_filler {
      type: "constant"
      value: 0.2
    }
  }
}
layer {
  name: "inception_4d/relu_3x3_reduce"
  type: "ReLU"
  bottom: "inception_4d/3x3_reduce"
  top: "inception_4d/3x3_reduce"
}
layer {
  name: "inception_4d/3x3"
  type: "Convolution"
  bottom: "inception_4d/3x3_reduce"
  top: "inception_4d/3x3"
  param {
    lr_mult: 1
    decay_mult: 1
  }
  param {
    lr_mult: 2
    decay_mult: 0
  }
  convolution_param {
    num_output: 288
    pad: 1
    kernel_size: 3
    weight_filler {
      type: "xavier"
      std: 0.03
    }
    bias_filler {
      type: "constant"
      value: 0.2
    }
  }
}
layer {
  name: "inception_4d/relu_3x3"
  type: "ReLU"
  bottom: "inception_4d/3x3"
  top: "inception_4d/3x3"
}
layer {
  name: "inception_4d/5x5_reduce"
  type: "Convolution"
  bottom: "inception_4c/output"
  top: "inception_4d/5x5_reduce"
  param {
    lr_mult: 1
    decay_mult: 1
  }
  param {
    lr_mult: 2
    decay_mult: 0
  }
  convolution_param {
    num_output: 32
    kernel_size: 1
    weight_filler {
      type: "xavier"
      std: 0.2
    }
    bias_filler {
      type: "constant"
      value: 0.2
    }
  }
}
layer {
  name: "inception_4d/relu_5x5_reduce"
  type: "ReLU"
  bottom: "inception_4d/5x5_reduce"
  top: "inception_4d/5x5_reduce"
}
layer {
  name: "inception_4d/5x5"
  type: "Convolution"
  bottom: "inception_4d/5x5_reduce"
  top: "inception_4d/5x5"
  param {
    lr_mult: 1
    decay_mult: 1
  }
  param {
    lr_mult: 2
    decay_mult: 0
  }
  convolution_param {
    num_output: 64
    pad: 2
    kernel_size: 5
    weight_filler {
      type: "xavier"
      std: 0.03
    }
    bias_filler {
      type: "constant"
      value: 0.2
    }
  }
}
layer {
  name: "inception_4d/relu_5x5"
  type: "ReLU"
  bottom: "inception_4d/5x5"
  top: "inception_4d/5x5"
}
layer {
  name: "inception_4d/pool"
  type: "Pooling"
  bottom: "inception_4c/output"
  top: "inception_4d/pool"
  pooling_param {
    pool: MAX
    kernel_size: 3
    stride: 1
    pad: 1
  }
}
layer {
  name: "inception_4d/pool_proj"
  type: "Convolution"
  bottom: "inception_4d/pool"
  top: "inception_4d/pool_proj"
  param {
    lr_mult: 1
    decay_mult: 1
  }
  param {
    lr_mult: 2
    decay_mult: 0
  }
  convolution_param {
    num_output: 64
    kernel_size: 1
    weight_filler {
      type: "xavier"
      std: 0.1
    }
    bias_filler {
      type: "constant"
      value: 0.2
    }
  }
}
layer {
  name: "inception_4d/relu_pool_proj"
  type: "ReLU"
  bottom: "inception_4d/pool_proj"
  top: "inception_4d/pool_proj"
}
layer {
  name: "inception_4d/output"
  type: "Concat"
  bottom: "inception_4d/1x1"
  bottom: "inception_4d/3x3"
  bottom: "inception_4d/5x5"
  bottom: "inception_4d/pool_proj"
  top: "inception_4d/output"
}
layer {
  name: "loss2/ave_pool"
  type: "Pooling"
  bottom: "inception_4d/output"
  top: "loss2/ave_pool"
  pooling_param {
    pool: AVE
    kernel_size: 5
    stride: 3
  }
}
layer {
  name: "loss2/conv"
  type: "Convolution"
  bottom: "loss2/ave_pool"
  top: "loss2/conv"
  param {
    lr_mult: 1
    decay_mult: 1
  }
  param {
    lr_mult: 2
    decay_mult: 0
  }
  convolution_param {
    num_output: 128
    kernel_size: 1
    weight_filler {
      type: "xavier"
      std: 0.08
    }
    bias_filler {
      type: "constant"
      value: 0.2
    }
  }
}
layer {
  name: "loss2/relu_conv"
  type: "ReLU"
  bottom: "loss2/conv"
  top: "loss2/conv"
}
layer {
  name: "loss2/fc"
  type: "InnerProduct"
  bottom: "loss2/conv"
  top: "loss2/fc"
  param {
    lr_mult: 1
    decay_mult: 1
  }
  param {
    lr_mult: 2
    decay_mult: 0
  }
  inner_product_param {
    num_output: 1024
    weight_filler {
      type: "xavier"
      std: 0.02
    }
    bias_filler {
      type: "constant"
      value: 0.2
    }
  }
}
layer {
  name: "loss2/relu_fc"
  type: "ReLU"
  bottom: "loss2/fc"
  top: "loss2/fc"
}
layer {
  name: "loss2/drop_fc"
  type: "Dropout"
  bottom: "loss2/fc"
  top: "loss2/fc"
  dropout_param {
    dropout_ratio: 0.7
  }
}
layer {
  name: "loss2/classifier_plantvillage"
  type: "InnerProduct"
  bottom: "loss2/fc"
  top: "loss2/classifier_plantvillage"
  param {
    lr_mult: 1
    decay_mult: 1
  }
  param {
    lr_mult: 2
    decay_mult: 0
  }
  inner_product_param {
    num_output: 38
    weight_filler {
      type: "xavier"
      std: 0.0009765625
    }
    bias_filler {
      type: "constant"
      value: 0
    }
  }
}
layer {
  name: "inception_4e/1x1"
  type: "Convolution"
  bottom: "inception_4d/output"
  top: "inception_4e/1x1"
  param {
    lr_mult: 1
    decay_mult: 1
  }
  param {
    lr_mult: 2
    decay_mult: 0
  }
  convolution_param {
    num_output: 256
    kernel_size: 1
    weight_filler {
      type: "xavier"
      std: 0.03
    }
    bias_filler {
      type: "constant"
      value: 0.2
    }
  }
}
layer {
  name: "inception_4e/relu_1x1"
  type: "ReLU"
  bottom: "inception_4e/1x1"
  top: "inception_4e/1x1"
}
layer {
  name: "inception_4e/3x3_reduce"
  type: "Convolution"
  bottom: "inception_4d/output"
  top: "inception_4e/3x3_reduce"
  param {
    lr_mult: 1
    decay_mult: 1
  }
  param {
    lr_mult: 2
    decay_mult: 0
  }
  convolution_param {
    num_output: 160
    kernel_size: 1
    weight_filler {
      type: "xavier"
      std: 0.09
    }
    bias_filler {
      type: "constant"
      value: 0.2
    }
  }
}
layer {
  name: "inception_4e/relu_3x3_reduce"
  type: "ReLU"
  bottom: "inception_4e/3x3_reduce"
  top: "inception_4e/3x3_reduce"
}
layer {
  name: "inception_4e/3x3"
  type: "Convolution"
  bottom: "inception_4e/3x3_reduce"
  top: "inception_4e/3x3"
  param {
    lr_mult: 1
    decay_mult: 1
  }
  param {
    lr_mult: 2
    decay_mult: 0
  }
  convolution_param {
    num_output: 320
    pad: 1
    kernel_size: 3
    weight_filler {
      type: "xavier"
      std: 0.03
    }
    bias_filler {
      type: "constant"
      value: 0.2
    }
  }
}
layer {
  name: "inception_4e/relu_3x3"
  type: "ReLU"
  bottom: "inception_4e/3x3"
  top: "inception_4e/3x3"
}
layer {
  name: "inception_4e/5x5_reduce"
  type: "Convolution"
  bottom: "inception_4d/output"
  top: "inception_4e/5x5_reduce"
  param {
    lr_mult: 1
    decay_mult: 1
  }
  param {
    lr_mult: 2
    decay_mult: 0
  }
  convolution_param {
    num_output: 32
    kernel_size: 1
    weight_filler {
      type: "xavier"
      std: 0.2
    }
    bias_filler {
      type: "constant"
      value: 0.2
    }
  }
}
layer {
  name: "inception_4e/relu_5x5_reduce"
  type: "ReLU"
  bottom: "inception_4e/5x5_reduce"
  top: "inception_4e/5x5_reduce"
}
layer {
  name: "inception_4e/5x5"
  type: "Convolution"
  bottom: "inception_4e/5x5_reduce"
  top: "inception_4e/
I0403 19:41:12.084880  9552 layer_factory.hpp:77] Creating layer data
I0403 19:41:12.085508  9552 net.cpp:91] Creating Layer data
I0403 19:41:12.085539  9552 net.cpp:399] data -> data
I0403 19:41:12.085590  9552 net.cpp:399] data -> label
I0403 19:41:12.085626  9552 data_transformer.cpp:25] Loading mean file from: /home/mohanty/data/final_dataset/lmdb/grayscale-50-50/mean.binaryproto
I0403 19:41:12.086843  9556 db_lmdb.cpp:38] Opened lmdb /home/mohanty/data/final_dataset/lmdb/grayscale-50-50/test_db
I0403 19:41:12.099161  9552 data_layer.cpp:41] output data size: 24,3,224,224
I0403 19:41:12.127374  9552 net.cpp:141] Setting up data
I0403 19:41:12.127434  9552 net.cpp:148] Top shape: 24 3 224 224 (3612672)
I0403 19:41:12.127456  9552 net.cpp:148] Top shape: 24 (24)
I0403 19:41:12.127472  9552 net.cpp:156] Memory required for data: 14450784
I0403 19:41:12.127497  9552 layer_factory.hpp:77] Creating layer label_data_1_split
I0403 19:41:12.127522  9552 net.cpp:91] Creating Layer label_data_1_split
I0403 19:41:12.127542  9552 net.cpp:425] label_data_1_split <- label
I0403 19:41:12.127573  9552 net.cpp:399] label_data_1_split -> label_data_1_split_0
I0403 19:41:12.127599  9552 net.cpp:399] label_data_1_split -> label_data_1_split_1
I0403 19:41:12.127620  9552 net.cpp:399] label_data_1_split -> label_data_1_split_2
I0403 19:41:12.127642  9552 net.cpp:399] label_data_1_split -> label_data_1_split_3
I0403 19:41:12.127662  9552 net.cpp:399] label_data_1_split -> label_data_1_split_4
I0403 19:41:12.127683  9552 net.cpp:399] label_data_1_split -> label_data_1_split_5
I0403 19:41:12.127703  9552 net.cpp:399] label_data_1_split -> label_data_1_split_6
I0403 19:41:12.127725  9552 net.cpp:399] label_data_1_split -> label_data_1_split_7
I0403 19:41:12.127745  9552 net.cpp:399] label_data_1_split -> label_data_1_split_8
I0403 19:41:12.127765  9552 net.cpp:399] label_data_1_split -> label_data_1_split_9
I0403 19:41:12.127885  9552 net.cpp:141] Setting up label_data_1_split
I0403 19:41:12.127910  9552 net.cpp:148] Top shape: 24 (24)
I0403 19:41:12.127928  9552 net.cpp:148] Top shape: 24 (24)
I0403 19:41:12.127944  9552 net.cpp:148] Top shape: 24 (24)
I0403 19:41:12.127960  9552 net.cpp:148] Top shape: 24 (24)
I0403 19:41:12.127977  9552 net.cpp:148] Top shape: 24 (24)
I0403 19:41:12.127993  9552 net.cpp:148] Top shape: 24 (24)
I0403 19:41:12.128010  9552 net.cpp:148] Top shape: 24 (24)
I0403 19:41:12.128026  9552 net.cpp:148] Top shape: 24 (24)
I0403 19:41:12.128043  9552 net.cpp:148] Top shape: 24 (24)
I0403 19:41:12.128060  9552 net.cpp:148] Top shape: 24 (24)
I0403 19:41:12.128093  9552 net.cpp:156] Memory required for data: 14451744
I0403 19:41:12.128115  9552 layer_factory.hpp:77] Creating layer conv1/7x7_s2
I0403 19:41:12.128146  9552 net.cpp:91] Creating Layer conv1/7x7_s2
I0403 19:41:12.128167  9552 net.cpp:425] conv1/7x7_s2 <- data
I0403 19:41:12.128202  9552 net.cpp:399] conv1/7x7_s2 -> conv1/7x7_s2
I0403 19:41:12.272366  9552 net.cpp:141] Setting up conv1/7x7_s2
I0403 19:41:12.272440  9552 net.cpp:148] Top shape: 24 64 112 112 (19267584)
I0403 19:41:12.272459  9552 net.cpp:156] Memory required for data: 91522080
I0403 19:41:12.272491  9552 layer_factory.hpp:77] Creating layer conv1/relu_7x7
I0403 19:41:12.272521  9552 net.cpp:91] Creating Layer conv1/relu_7x7
I0403 19:41:12.272539  9552 net.cpp:425] conv1/relu_7x7 <- conv1/7x7_s2
I0403 19:41:12.272560  9552 net.cpp:386] conv1/relu_7x7 -> conv1/7x7_s2 (in-place)
I0403 19:41:12.272835  9552 net.cpp:141] Setting up conv1/relu_7x7
I0403 19:41:12.272866  9552 net.cpp:148] Top shape: 24 64 112 112 (19267584)
I0403 19:41:12.272883  9552 net.cpp:156] Memory required for data: 168592416
I0403 19:41:12.272899  9552 layer_factory.hpp:77] Creating layer pool1/3x3_s2
I0403 19:41:12.272927  9552 net.cpp:91] Creating Layer pool1/3x3_s2
I0403 19:41:12.272945  9552 net.cpp:425] pool1/3x3_s2 <- conv1/7x7_s2
I0403 19:41:12.273006  9552 net.cpp:399] pool1/3x3_s2 -> pool1/3x3_s2
I0403 19:41:12.273090  9552 net.cpp:141] Setting up pool1/3x3_s2
I0403 19:41:12.273118  9552 net.cpp:148] Top shape: 24 64 56 56 (4816896)
I0403 19:41:12.273139  9552 net.cpp:156] Memory required for data: 187860000
I0403 19:41:12.273159  9552 layer_factory.hpp:77] Creating layer pool1/norm1
I0403 19:41:12.273206  9552 net.cpp:91] Creating Layer pool1/norm1
I0403 19:41:12.273227  9552 net.cpp:425] pool1/norm1 <- pool1/3x3_s2
I0403 19:41:12.273252  9552 net.cpp:399] pool1/norm1 -> pool1/norm1
I0403 19:41:12.273589  9552 net.cpp:141] Setting up pool1/norm1
I0403 19:41:12.273622  9552 net.cpp:148] Top shape: 24 64 56 56 (4816896)
I0403 19:41:12.273643  9552 net.cpp:156] Memory required for data: 207127584
I0403 19:41:12.273658  9552 layer_factory.hpp:77] Creating layer conv2/3x3_reduce
I0403 19:41:12.273685  9552 net.cpp:91] Creating Layer conv2/3x3_reduce
I0403 19:41:12.273705  9552 net.cpp:425] conv2/3x3_reduce <- pool1/norm1
I0403 19:41:12.273730  9552 net.cpp:399] conv2/3x3_reduce -> conv2/3x3_reduce
I0403 19:41:12.275362  9552 net.cpp:141] Setting up conv2/3x3_reduce
I0403 19:41:12.275400  9552 net.cpp:148] Top shape: 24 64 56 56 (4816896)
I0403 19:41:12.275430  9552 net.cpp:156] Memory required for data: 226395168
I0403 19:41:12.275460  9552 layer_factory.hpp:77] Creating layer conv2/relu_3x3_reduce
I0403 19:41:12.275486  9552 net.cpp:91] Creating Layer conv2/relu_3x3_reduce
I0403 19:41:12.275507  9552 net.cpp:425] conv2/relu_3x3_reduce <- conv2/3x3_reduce
I0403 19:41:12.275530  9552 net.cpp:386] conv2/relu_3x3_reduce -> conv2/3x3_reduce (in-place)
I0403 19:41:12.275871  9552 net.cpp:141] Setting up conv2/relu_3x3_reduce
I0403 19:41:12.275907  9552 net.cpp:148] Top shape: 24 64 56 56 (4816896)
I0403 19:41:12.275928  9552 net.cpp:156] Memory required for data: 245662752
I0403 19:41:12.275949  9552 layer_factory.hpp:77] Creating layer conv2/3x3
I0403 19:41:12.275981  9552 net.cpp:91] Creating Layer conv2/3x3
I0403 19:41:12.276002  9552 net.cpp:425] conv2/3x3 <- conv2/3x3_reduce
I0403 19:41:12.276032  9552 net.cpp:399] conv2/3x3 -> conv2/3x3
I0403 19:41:12.278866  9552 net.cpp:141] Setting up conv2/3x3
I0403 19:41:12.278908  9552 net.cpp:148] Top shape: 24 192 56 56 (14450688)
I0403 19:41:12.278931  9552 net.cpp:156] Memory required for data: 303465504
I0403 19:41:12.278959  9552 layer_factory.hpp:77] Creating layer conv2/relu_3x3
I0403 19:41:12.278983  9552 net.cpp:91] Creating Layer conv2/relu_3x3
I0403 19:41:12.279006  9552 net.cpp:425] conv2/relu_3x3 <- conv2/3x3
I0403 19:41:12.279026  9552 net.cpp:386] conv2/relu_3x3 -> conv2/3x3 (in-place)
I0403 19:41:12.279247  9552 net.cpp:141] Setting up conv2/relu_3x3
I0403 19:41:12.279278  9552 net.cpp:148] Top shape: 24 192 56 56 (14450688)
I0403 19:41:12.279335  9552 net.cpp:156] Memory required for data: 361268256
I0403 19:41:12.279357  9552 layer_factory.hpp:77] Creating layer conv2/norm2
I0403 19:41:12.279388  9552 net.cpp:91] Creating Layer conv2/norm2
I0403 19:41:12.279407  9552 net.cpp:425] conv2/norm2 <- conv2/3x3
I0403 19:41:12.279430  9552 net.cpp:399] conv2/norm2 -> conv2/norm2
I0403 19:41:12.279758  9552 net.cpp:141] Setting up conv2/norm2
I0403 19:41:12.279788  9552 net.cpp:148] Top shape: 24 192 56 56 (14450688)
I0403 19:41:12.279804  9552 net.cpp:156] Memory required for data: 419071008
I0403 19:41:12.279820  9552 layer_factory.hpp:77] Creating layer pool2/3x3_s2
I0403 19:41:12.279841  9552 net.cpp:91] Creating Layer pool2/3x3_s2
I0403 19:41:12.279860  9552 net.cpp:425] pool2/3x3_s2 <- conv2/norm2
I0403 19:41:12.279878  9552 net.cpp:399] pool2/3x3_s2 -> pool2/3x3_s2
I0403 19:41:12.279937  9552 net.cpp:141] Setting up pool2/3x3_s2
I0403 19:41:12.279961  9552 net.cpp:148] Top shape: 24 192 28 28 (3612672)
I0403 19:41:12.279976  9552 net.cpp:156] Memory required for data: 433521696
I0403 19:41:12.279991  9552 layer_factory.hpp:77] Creating layer pool2/3x3_s2_pool2/3x3_s2_0_split
I0403 19:41:12.280010  9552 net.cpp:91] Creating Layer pool2/3x3_s2_pool2/3x3_s2_0_split
I0403 19:41:12.280026  9552 net.cpp:425] pool2/3x3_s2_pool2/3x3_s2_0_split <- pool2/3x3_s2
I0403 19:41:12.280046  9552 net.cpp:399] pool2/3x3_s2_pool2/3x3_s2_0_split -> pool2/3x3_s2_pool2/3x3_s2_0_split_0
I0403 19:41:12.280068  9552 net.cpp:399] pool2/3x3_s2_pool2/3x3_s2_0_split -> pool2/3x3_s2_pool2/3x3_s2_0_split_1
I0403 19:41:12.280089  9552 net.cpp:399] pool2/3x3_s2_pool2/3x3_s2_0_split -> pool2/3x3_s2_pool2/3x3_s2_0_split_2
I0403 19:41:12.280110  9552 net.cpp:399] pool2/3x3_s2_pool2/3x3_s2_0_split -> pool2/3x3_s2_pool2/3x3_s2_0_split_3
I0403 19:41:12.280194  9552 net.cpp:141] Setting up pool2/3x3_s2_pool2/3x3_s2_0_split
I0403 19:41:12.280220  9552 net.cpp:148] Top shape: 24 192 28 28 (3612672)
I0403 19:41:12.280239  9552 net.cpp:148] Top shape: 24 192 28 28 (3612672)
I0403 19:41:12.280256  9552 net.cpp:148] Top shape: 24 192 28 28 (3612672)
I0403 19:41:12.280272  9552 net.cpp:148] Top shape: 24 192 28 28 (3612672)
I0403 19:41:12.280287  9552 net.cpp:156] Memory required for data: 491324448
I0403 19:41:12.280303  9552 layer_factory.hpp:77] Creating layer inception_3a/1x1
I0403 19:41:12.280328  9552 net.cpp:91] Creating Layer inception_3a/1x1
I0403 19:41:12.280344  9552 net.cpp:425] inception_3a/1x1 <- pool2/3x3_s2_pool2/3x3_s2_0_split_0
I0403 19:41:12.280364  9552 net.cpp:399] inception_3a/1x1 -> inception_3a/1x1
I0403 19:41:12.281997  9552 net.cpp:141] Setting up inception_3a/1x1
I0403 19:41:12.282032  9552 net.cpp:148] Top shape: 24 64 28 28 (1204224)
I0403 19:41:12.282050  9552 net.cpp:156] Memory required for data: 496141344
I0403 19:41:12.282073  9552 layer_factory.hpp:77] Creating layer inception_3a/relu_1x1
I0403 19:41:12.282095  9552 net.cpp:91] Creating Layer inception_3a/relu_1x1
I0403 19:41:12.282114  9552 net.cpp:425] inception_3a/relu_1x1 <- inception_3a/1x1
I0403 19:41:12.282135  9552 net.cpp:386] inception_3a/relu_1x1 -> inception_3a/1x1 (in-place)
I0403 19:41:12.282330  9552 net.cpp:141] Setting up inception_3a/relu_1x1
I0403 19:41:12.282356  9552 net.cpp:148] Top shape: 24 64 28 28 (1204224)
I0403 19:41:12.282376  9552 net.cpp:156] Memory required for data: 500958240
I0403 19:41:12.282394  9552 layer_factory.hpp:77] Creating layer inception_3a/3x3_reduce
I0403 19:41:12.282418  9552 net.cpp:91] Creating Layer inception_3a/3x3_reduce
I0403 19:41:12.282440  9552 net.cpp:425] inception_3a/3x3_reduce <- pool2/3x3_s2_pool2/3x3_s2_0_split_1
I0403 19:41:12.282464  9552 net.cpp:399] inception_3a/3x3_reduce -> inception_3a/3x3_reduce
I0403 19:41:12.284262  9552 net.cpp:141] Setting up inception_3a/3x3_reduce
I0403 19:41:12.284297  9552 net.cpp:148] Top shape: 24 96 28 28 (1806336)
I0403 19:41:12.284317  9552 net.cpp:156] Memory required for data: 508183584
I0403 19:41:12.284342  9552 layer_factory.hpp:77] Creating layer inception_3a/relu_3x3_reduce
I0403 19:41:12.284384  9552 net.cpp:91] Creating Layer inception_3a/relu_3x3_reduce
I0403 19:41:12.284402  9552 net.cpp:425] inception_3a/relu_3x3_reduce <- inception_3a/3x3_reduce
I0403 19:41:12.284423  9552 net.cpp:386] inception_3a/relu_3x3_reduce -> inception_3a/3x3_reduce (in-place)
I0403 19:41:12.284621  9552 net.cpp:141] Setting up inception_3a/relu_3x3_reduce
I0403 19:41:12.284647  9552 net.cpp:148] Top shape: 24 96 28 28 (1806336)
I0403 19:41:12.284665  9552 net.cpp:156] Memory required for data: 515408928
I0403 19:41:12.284682  9552 layer_factory.hpp:77] Creating layer inception_3a/3x3
I0403 19:41:12.284708  9552 net.cpp:91] Creating Layer inception_3a/3x3
I0403 19:41:12.284728  9552 net.cpp:425] inception_3a/3x3 <- inception_3a/3x3_reduce
I0403 19:41:12.284752  9552 net.cpp:399] inception_3a/3x3 -> inception_3a/3x3
I0403 19:41:12.286532  9552 net.cpp:141] Setting up inception_3a/3x3
I0403 19:41:12.286566  9552 net.cpp:148] Top shape: 24 128 28 28 (2408448)
I0403 19:41:12.286583  9552 net.cpp:156] Memory required for data: 525042720
I0403 19:41:12.286604  9552 layer_factory.hpp:77] Creating layer inception_3a/relu_3x3
I0403 19:41:12.286623  9552 net.cpp:91] Creating Layer inception_3a/relu_3x3
I0403 19:41:12.286641  9552 net.cpp:425] inception_3a/relu_3x3 <- inception_3a/3x3
I0403 19:41:12.286664  9552 net.cpp:386] inception_3a/relu_3x3 -> inception_3a/3x3 (in-place)
I0403 19:41:12.286952  9552 net.cpp:141] Setting up inception_3a/relu_3x3
I0403 19:41:12.286985  9552 net.cpp:148] Top shape: 24 128 28 28 (2408448)
I0403 19:41:12.287003  9552 net.cpp:156] Memory required for data: 534676512
I0403 19:41:12.287017  9552 layer_factory.hpp:77] Creating layer inception_3a/5x5_reduce
I0403 19:41:12.287041  9552 net.cpp:91] Creating Layer inception_3a/5x5_reduce
I0403 19:41:12.287061  9552 net.cpp:425] inception_3a/5x5_reduce <- pool2/3x3_s2_pool2/3x3_s2_0_split_2
I0403 19:41:12.287081  9552 net.cpp:399] inception_3a/5x5_reduce -> inception_3a/5x5_reduce
I0403 19:41:12.288105  9552 net.cpp:141] Setting up inception_3a/5x5_reduce
I0403 19:41:12.288138  9552 net.cpp:148] Top shape: 24 16 28 28 (301056)
I0403 19:41:12.288158  9552 net.cpp:156] Memory required for data: 535880736
I0403 19:41:12.288183  9552 layer_factory.hpp:77] Creating layer inception_3a/relu_5x5_reduce
I0403 19:41:12.288206  9552 net.cpp:91] Creating Layer inception_3a/relu_5x5_reduce
I0403 19:41:12.288224  9552 net.cpp:425] inception_3a/relu_5x5_reduce <- inception_3a/5x5_reduce
I0403 19:41:12.288249  9552 net.cpp:386] inception_3a/relu_5x5_reduce -> inception_3a/5x5_reduce (in-place)
I0403 19:41:12.288563  9552 net.cpp:141] Setting up inception_3a/relu_5x5_reduce
I0403 19:41:12.288590  9552 net.cpp:148] Top shape: 24 16 28 28 (301056)
I0403 19:41:12.288609  9552 net.cpp:156] Memory required for data: 537084960
I0403 19:41:12.288625  9552 layer_factory.hpp:77] Creating layer inception_3a/5x5
I0403 19:41:12.288651  9552 net.cpp:91] Creating Layer inception_3a/5x5
I0403 19:41:12.288669  9552 net.cpp:425] inception_3a/5x5 <- inception_3a/5x5_reduce
I0403 19:41:12.288693  9552 net.cpp:399] inception_3a/5x5 -> inception_3a/5x5
I0403 19:41:12.289764  9552 net.cpp:141] Setting up inception_3a/5x5
I0403 19:41:12.289793  9552 net.cpp:148] Top shape: 24 32 28 28 (602112)
I0403 19:41:12.289809  9552 net.cpp:156] Memory required for data: 539493408
I0403 19:41:12.289829  9552 layer_factory.hpp:77] Creating layer inception_3a/relu_5x5
I0403 19:41:12.289851  9552 net.cpp:91] Creating Layer inception_3a/relu_5x5
I0403 19:41:12.289870  9552 net.cpp:425] inception_3a/relu_5x5 <- inception_3a/5x5
I0403 19:41:12.289891  9552 net.cpp:386] inception_3a/relu_5x5 -> inception_3a/5x5 (in-place)
I0403 19:41:12.290077  9552 net.cpp:141] Setting up inception_3a/relu_5x5
I0403 19:41:12.290105  9552 net.cpp:148] Top shape: 24 32 28 28 (602112)
I0403 19:41:12.290120  9552 net.cpp:156] Memory required for data: 541901856
I0403 19:41:12.290137  9552 layer_factory.hpp:77] Creating layer inception_3a/pool
I0403 19:41:12.290158  9552 net.cpp:91] Creating Layer inception_3a/pool
I0403 19:41:12.290196  9552 net.cpp:425] inception_3a/pool <- pool2/3x3_s2_pool2/3x3_s2_0_split_3
I0403 19:41:12.290225  9552 net.cpp:399] inception_3a/pool -> inception_3a/pool
I0403 19:41:12.290289  9552 net.cpp:141] Setting up inception_3a/pool
I0403 19:41:12.290316  9552 net.cpp:148] Top shape: 24 192 28 28 (3612672)
I0403 19:41:12.290331  9552 net.cpp:156] Memory required for data: 556352544
I0403 19:41:12.290346  9552 layer_factory.hpp:77] Creating layer inception_3a/pool_proj
I0403 19:41:12.290372  9552 net.cpp:91] Creating Layer inception_3a/pool_proj
I0403 19:41:12.290390  9552 net.cpp:425] inception_3a/pool_proj <- inception_3a/pool
I0403 19:41:12.290410  9552 net.cpp:399] inception_3a/pool_proj -> inception_3a/pool_proj
I0403 19:41:12.291430  9552 net.cpp:141] Setting up inception_3a/pool_proj
I0403 19:41:12.291461  9552 net.cpp:148] Top shape: 24 32 28 28 (602112)
I0403 19:41:12.291478  9552 net.cpp:156] Memory required for data: 558760992
I0403 19:41:12.291504  9552 layer_factory.hpp:77] Creating layer inception_3a/relu_pool_proj
I0403 19:41:12.291525  9552 net.cpp:91] Creating Layer inception_3a/relu_pool_proj
I0403 19:41:12.291543  9552 net.cpp:425] inception_3a/relu_pool_proj <- inception_3a/pool_proj
I0403 19:41:12.291563  9552 net.cpp:386] inception_3a/relu_pool_proj -> inception_3a/pool_proj (in-place)
I0403 19:41:12.291854  9552 net.cpp:141] Setting up inception_3a/relu_pool_proj
I0403 19:41:12.291884  9552 net.cpp:148] Top shape: 24 32 28 28 (602112)
I0403 19:41:12.291903  9552 net.cpp:156] Memory required for data: 561169440
I0403 19:41:12.291918  9552 layer_factory.hpp:77] Creating layer inception_3a/output
I0403 19:41:12.291937  9552 net.cpp:91] Creating Layer inception_3a/output
I0403 19:41:12.291954  9552 net.cpp:425] inception_3a/output <- inception_3a/1x1
I0403 19:41:12.291971  9552 net.cpp:425] inception_3a/output <- inception_3a/3x3
I0403 19:41:12.291988  9552 net.cpp:425] inception_3a/output <- inception_3a/5x5
I0403 19:41:12.292006  9552 net.cpp:425] inception_3a/output <- inception_3a/pool_proj
I0403 19:41:12.292022  9552 net.cpp:399] inception_3a/output -> inception_3a/output
I0403 19:41:12.292075  9552 net.cpp:141] Setting up inception_3a/output
I0403 19:41:12.292099  9552 net.cpp:148] Top shape: 24 256 28 28 (4816896)
I0403 19:41:12.292114  9552 net.cpp:156] Memory required for data: 580437024
I0403 19:41:12.292134  9552 layer_factory.hpp:77] Creating layer inception_3a/output_inception_3a/output_0_split
I0403 19:41:12.292155  9552 net.cpp:91] Creating Layer inception_3a/output_inception_3a/output_0_split
I0403 19:41:12.292171  9552 net.cpp:425] inception_3a/output_inception_3a/output_0_split <- inception_3a/output
I0403 19:41:12.292198  9552 net.cpp:399] inception_3a/output_inception_3a/output_0_split -> inception_3a/output_inception_3a/output_0_split_0
I0403 19:41:12.292222  9552 net.cpp:399] inception_3a/output_inception_3a/output_0_split -> inception_3a/output_inception_3a/output_0_split_1
I0403 19:41:12.292248  9552 net.cpp:399] inception_3a/output_inception_3a/output_0_split -> inception_3a/output_inception_3a/output_0_split_2
I0403 19:41:12.292271  9552 net.cpp:399] inception_3a/output_inception_3a/output_0_split -> inception_3a/output_inception_3a/output_0_split_3
I0403 19:41:12.292349  9552 net.cpp:141] Setting up inception_3a/output_inception_3a/output_0_split
I0403 19:41:12.292373  9552 net.cpp:148] Top shape: 24 256 28 28 (4816896)
I0403 19:41:12.292393  9552 net.cpp:148] Top shape: 24 256 28 28 (4816896)
I0403 19:41:12.292412  9552 net.cpp:148] Top shape: 24 256 28 28 (4816896)
I0403 19:41:12.292430  9552 net.cpp:148] Top shape: 24 256 28 28 (4816896)
I0403 19:41:12.292446  9552 net.cpp:156] Memory required for data: 657507360
I0403 19:41:12.292465  9552 layer_factory.hpp:77] Creating layer inception_3b/1x1
I0403 19:41:12.292487  9552 net.cpp:91] Creating Layer inception_3b/1x1
I0403 19:41:12.292506  9552 net.cpp:425] inception_3b/1x1 <- inception_3a/output_inception_3a/output_0_split_0
I0403 19:41:12.292529  9552 net.cpp:399] inception_3b/1x1 -> inception_3b/1x1
I0403 19:41:12.293746  9552 net.cpp:141] Setting up inception_3b/1x1
I0403 19:41:12.293789  9552 net.cpp:148] Top shape: 24 128 28 28 (2408448)
I0403 19:41:12.293808  9552 net.cpp:156] Memory required for data: 667141152
I0403 19:41:12.293830  9552 layer_factory.hpp:77] Creating layer inception_3b/relu_1x1
I0403 19:41:12.293853  9552 net.cpp:91] Creating Layer inception_3b/relu_1x1
I0403 19:41:12.293871  9552 net.cpp:425] inception_3b/relu_1x1 <- inception_3b/1x1
I0403 19:41:12.293891  9552 net.cpp:386] inception_3b/relu_1x1 -> inception_3b/1x1 (in-place)
I0403 19:41:12.294085  9552 net.cpp:141] Setting up inception_3b/relu_1x1
I0403 19:41:12.294114  9552 net.cpp:148] Top shape: 24 128 28 28 (2408448)
I0403 19:41:12.294132  9552 net.cpp:156] Memory required for data: 676774944
I0403 19:41:12.294148  9552 layer_factory.hpp:77] Creating layer inception_3b/3x3_reduce
I0403 19:41:12.294173  9552 net.cpp:91] Creating Layer inception_3b/3x3_reduce
I0403 19:41:12.294198  9552 net.cpp:425] inception_3b/3x3_reduce <- inception_3a/output_inception_3a/output_0_split_1
I0403 19:41:12.294219  9552 net.cpp:399] inception_3b/3x3_reduce -> inception_3b/3x3_reduce
I0403 19:41:12.295428  9552 net.cpp:141] Setting up inception_3b/3x3_reduce
I0403 19:41:12.295459  9552 net.cpp:148] Top shape: 24 128 28 28 (2408448)
I0403 19:41:12.295475  9552 net.cpp:156] Memory required for data: 686408736
I0403 19:41:12.295495  9552 layer_factory.hpp:77] Creating layer inception_3b/relu_3x3_reduce
I0403 19:41:12.295516  9552 net.cpp:91] Creating Layer inception_3b/relu_3x3_reduce
I0403 19:41:12.295534  9552 net.cpp:425] inception_3b/relu_3x3_reduce <- inception_3b/3x3_reduce
I0403 19:41:12.295552  9552 net.cpp:386] inception_3b/relu_3x3_reduce -> inception_3b/3x3_reduce (in-place)
I0403 19:41:12.295740  9552 net.cpp:141] Setting up inception_3b/relu_3x3_reduce
I0403 19:41:12.295771  9552 net.cpp:148] Top shape: 24 128 28 28 (2408448)
I0403 19:41:12.295788  9552 net.cpp:156] Memory required for data: 696042528
I0403 19:41:12.295804  9552 layer_factory.hpp:77] Creating layer inception_3b/3x3
I0403 19:41:12.295830  9552 net.cpp:91] Creating Layer inception_3b/3x3
I0403 19:41:12.295848  9552 net.cpp:425] inception_3b/3x3 <- inception_3b/3x3_reduce
I0403 19:41:12.295871  9552 net.cpp:399] inception_3b/3x3 -> inception_3b/3x3
I0403 19:41:12.299020  9552 net.cpp:141] Setting up inception_3b/3x3
I0403 19:41:12.299060  9552 net.cpp:148] Top shape: 24 192 28 28 (3612672)
I0403 19:41:12.299078  9552 net.cpp:156] Memory required for data: 710493216
I0403 19:41:12.299100  9552 layer_factory.hpp:77] Creating layer inception_3b/relu_3x3
I0403 19:41:12.299123  9552 net.cpp:91] Creating Layer inception_3b/relu_3x3
I0403 19:41:12.299140  9552 net.cpp:425] inception_3b/relu_3x3 <- inception_3b/3x3
I0403 19:41:12.299162  9552 net.cpp:386] inception_3b/relu_3x3 -> inception_3b/3x3 (in-place)
I0403 19:41:12.299465  9552 net.cpp:141] Setting up inception_3b/relu_3x3
I0403 19:41:12.299497  9552 net.cpp:148] Top shape: 24 192 28 28 (3612672)
I0403 19:41:12.299516  9552 net.cpp:156] Memory required for data: 724943904
I0403 19:41:12.299532  9552 layer_factory.hpp:77] Creating layer inception_3b/5x5_reduce
I0403 19:41:12.299559  9552 net.cpp:91] Creating Layer inception_3b/5x5_reduce
I0403 19:41:12.299581  9552 net.cpp:425] inception_3b/5x5_reduce <- inception_3a/output_inception_3a/output_0_split_2
I0403 19:41:12.299602  9552 net.cpp:399] inception_3b/5x5_reduce -> inception_3b/5x5_reduce
I0403 19:41:12.300676  9552 net.cpp:141] Setting up inception_3b/5x5_reduce
I0403 19:41:12.300710  9552 net.cpp:148] Top shape: 24 32 28 28 (602112)
I0403 19:41:12.300730  9552 net.cpp:156] Memory required for data: 727352352
I0403 19:41:12.300752  9552 layer_factory.hpp:77] Creating layer inception_3b/relu_5x5_reduce
I0403 19:41:12.300771  9552 net.cpp:91] Creating Layer inception_3b/relu_5x5_reduce
I0403 19:41:12.300789  9552 net.cpp:425] inception_3b/relu_5x5_reduce <- inception_3b/5x5_reduce
I0403 19:41:12.300809  9552 net.cpp:386] inception_3b/relu_5x5_reduce -> inception_3b/5x5_reduce (in-place)
I0403 19:41:12.301023  9552 net.cpp:141] Setting up inception_3b/relu_5x5_reduce
I0403 19:41:12.301049  9552 net.cpp:148] Top shape: 24 32 28 28 (602112)
I0403 19:41:12.301065  9552 net.cpp:156] Memory required for data: 729760800
I0403 19:41:12.301081  9552 layer_factory.hpp:77] Creating layer inception_3b/5x5
I0403 19:41:12.301105  9552 net.cpp:91] Creating Layer inception_3b/5x5
I0403 19:41:12.301122  9552 net.cpp:425] inception_3b/5x5 <- inception_3b/5x5_reduce
I0403 19:41:12.301144  9552 net.cpp:399] inception_3b/5x5 -> inception_3b/5x5
I0403 19:41:12.303282  9552 net.cpp:141] Setting up inception_3b/5x5
I0403 19:41:12.303315  9552 net.cpp:148] Top shape: 24 96 28 28 (1806336)
I0403 19:41:12.303333  9552 net.cpp:156] Memory required for data: 736986144
I0403 19:41:12.303352  9552 layer_factory.hpp:77] Creating layer inception_3b/relu_5x5
I0403 19:41:12.303376  9552 net.cpp:91] Creating Layer inception_3b/relu_5x5
I0403 19:41:12.303393  9552 net.cpp:425] inception_3b/relu_5x5 <- inception_3b/5x5
I0403 19:41:12.303412  9552 net.cpp:386] inception_3b/relu_5x5 -> inception_3b/5x5 (in-place)
I0403 19:41:12.303622  9552 net.cpp:141] Setting up inception_3b/relu_5x5
I0403 19:41:12.303648  9552 net.cpp:148] Top shape: 24 96 28 28 (1806336)
I0403 19:41:12.303664  9552 net.cpp:156] Memory required for data: 744211488
I0403 19:41:12.303679  9552 layer_factory.hpp:77] Creating layer inception_3b/pool
I0403 19:41:12.303699  9552 net.cpp:91] Creating Layer inception_3b/pool
I0403 19:41:12.303715  9552 net.cpp:425] inception_3b/pool <- inception_3a/output_inception_3a/output_0_split_3
I0403 19:41:12.303735  9552 net.cpp:399] inception_3b/pool -> inception_3b/pool
I0403 19:41:12.303796  9552 net.cpp:141] Setting up inception_3b/pool
I0403 19:41:12.303819  9552 net.cpp:148] Top shape: 24 256 28 28 (4816896)
I0403 19:41:12.303834  9552 net.cpp:156] Memory required for data: 763479072
I0403 19:41:12.303849  9552 layer_factory.hpp:77] Creating layer inception_3b/pool_proj
I0403 19:41:12.303872  9552 net.cpp:91] Creating Layer inception_3b/pool_proj
I0403 19:41:12.303891  9552 net.cpp:425] inception_3b/pool_proj <- inception_3b/pool
I0403 19:41:12.303912  9552 net.cpp:399] inception_3b/pool_proj -> inception_3b/pool_proj
I0403 19:41:12.305050  9552 net.cpp:141] Setting up inception_3b/pool_proj
I0403 19:41:12.305081  9552 net.cpp:148] Top shape: 24 64 28 28 (1204224)
I0403 19:41:12.305104  9552 net.cpp:156] Memory required for data: 768295968
I0403 19:41:12.305124  9552 layer_factory.hpp:77] Creating layer inception_3b/relu_pool_proj
I0403 19:41:12.305145  9552 net.cpp:91] Creating Layer inception_3b/relu_pool_proj
I0403 19:41:12.305162  9552 net.cpp:425] inception_3b/relu_pool_proj <- inception_3b/pool_proj
I0403 19:41:12.305191  9552 net.cpp:386] inception_3b/relu_pool_proj -> inception_3b/pool_proj (in-place)
I0403 19:41:12.305619  9552 net.cpp:141] Setting up inception_3b/relu_pool_proj
I0403 19:41:12.305649  9552 net.cpp:148] Top shape: 24 64 28 28 (1204224)
I0403 19:41:12.305668  9552 net.cpp:156] Memory required for data: 773112864
I0403 19:41:12.305685  9552 layer_factory.hpp:77] Creating layer inception_3b/output
I0403 19:41:12.305703  9552 net.cpp:91] Creating Layer inception_3b/output
I0403 19:41:12.305721  9552 net.cpp:425] inception_3b/output <- inception_3b/1x1
I0403 19:41:12.305744  9552 net.cpp:425] inception_3b/output <- inception_3b/3x3
I0403 19:41:12.305763  9552 net.cpp:425] inception_3b/output <- inception_3b/5x5
I0403 19:41:12.305780  9552 net.cpp:425] inception_3b/output <- inception_3b/pool_proj
I0403 19:41:12.305804  9552 net.cpp:399] inception_3b/output -> inception_3b/output
I0403 19:41:12.305850  9552 net.cpp:141] Setting up inception_3b/output
I0403 19:41:12.305876  9552 net.cpp:148] Top shape: 24 480 28 28 (9031680)
I0403 19:41:12.305894  9552 net.cpp:156] Memory required for data: 809239584
I0403 19:41:12.305912  9552 layer_factory.hpp:77] Creating layer pool3/3x3_s2
I0403 19:41:12.305934  9552 net.cpp:91] Creating Layer pool3/3x3_s2
I0403 19:41:12.305953  9552 net.cpp:425] pool3/3x3_s2 <- inception_3b/output
I0403 19:41:12.305992  9552 net.cpp:399] pool3/3x3_s2 -> pool3/3x3_s2
I0403 19:41:12.306058  9552 net.cpp:141] Setting up pool3/3x3_s2
I0403 19:41:12.306083  9552 net.cpp:148] Top shape: 24 480 14 14 (2257920)
I0403 19:41:12.306099  9552 net.cpp:156] Memory required for data: 818271264
I0403 19:41:12.306115  9552 layer_factory.hpp:77] Creating layer pool3/3x3_s2_pool3/3x3_s2_0_split
I0403 19:41:12.306138  9552 net.cpp:91] Creating Layer pool3/3x3_s2_pool3/3x3_s2_0_split
I0403 19:41:12.306156  9552 net.cpp:425] pool3/3x3_s2_pool3/3x3_s2_0_split <- pool3/3x3_s2
I0403 19:41:12.306176  9552 net.cpp:399] pool3/3x3_s2_pool3/3x3_s2_0_split -> pool3/3x3_s2_pool3/3x3_s2_0_split_0
I0403 19:41:12.306206  9552 net.cpp:399] pool3/3x3_s2_pool3/3x3_s2_0_split -> pool3/3x3_s2_pool3/3x3_s2_0_split_1
I0403 19:41:12.306229  9552 net.cpp:399] pool3/3x3_s2_pool3/3x3_s2_0_split -> pool3/3x3_s2_pool3/3x3_s2_0_split_2
I0403 19:41:12.306249  9552 net.cpp:399] pool3/3x3_s2_pool3/3x3_s2_0_split -> pool3/3x3_s2_pool3/3x3_s2_0_split_3
I0403 19:41:12.306334  9552 net.cpp:141] Setting up pool3/3x3_s2_pool3/3x3_s2_0_split
I0403 19:41:12.306360  9552 net.cpp:148] Top shape: 24 480 14 14 (2257920)
I0403 19:41:12.306378  9552 net.cpp:148] Top shape: 24 480 14 14 (2257920)
I0403 19:41:12.306394  9552 net.cpp:148] Top shape: 24 480 14 14 (2257920)
I0403 19:41:12.306411  9552 net.cpp:148] Top shape: 24 480 14 14 (2257920)
I0403 19:41:12.306427  9552 net.cpp:156] Memory required for data: 854397984
I0403 19:41:12.306442  9552 layer_factory.hpp:77] Creating layer inception_4a/1x1
I0403 19:41:12.306466  9552 net.cpp:91] Creating Layer inception_4a/1x1
I0403 19:41:12.306485  9552 net.cpp:425] inception_4a/1x1 <- pool3/3x3_s2_pool3/3x3_s2_0_split_0
I0403 19:41:12.306509  9552 net.cpp:399] inception_4a/1x1 -> inception_4a/1x1
I0403 19:41:12.308316  9552 net.cpp:141] Setting up inception_4a/1x1
I0403 19:41:12.308346  9552 net.cpp:148] Top shape: 24 192 14 14 (903168)
I0403 19:41:12.308365  9552 net.cpp:156] Memory required for data: 858010656
I0403 19:41:12.308387  9552 layer_factory.hpp:77] Creating layer inception_4a/relu_1x1
I0403 19:41:12.308413  9552 net.cpp:91] Creating Layer inception_4a/relu_1x1
I0403 19:41:12.308434  9552 net.cpp:425] inception_4a/relu_1x1 <- inception_4a/1x1
I0403 19:41:12.308451  9552 net.cpp:386] inception_4a/relu_1x1 -> inception_4a/1x1 (in-place)
I0403 19:41:12.308645  9552 net.cpp:141] Setting up inception_4a/relu_1x1
I0403 19:41:12.308675  9552 net.cpp:148] Top shape: 24 192 14 14 (903168)
I0403 19:41:12.308691  9552 net.cpp:156] Memory required for data: 861623328
I0403 19:41:12.308707  9552 layer_factory.hpp:77] Creating layer inception_4a/3x3_reduce
I0403 19:41:12.308730  9552 net.cpp:91] Creating Layer inception_4a/3x3_reduce
I0403 19:41:12.308750  9552 net.cpp:425] inception_4a/3x3_reduce <- pool3/3x3_s2_pool3/3x3_s2_0_split_1
I0403 19:41:12.308773  9552 net.cpp:399] inception_4a/3x3_reduce -> inception_4a/3x3_reduce
I0403 19:41:12.310168  9552 net.cpp:141] Setting up inception_4a/3x3_reduce
I0403 19:41:12.310206  9552 net.cpp:148] Top shape: 24 96 14 14 (451584)
I0403 19:41:12.310223  9552 net.cpp:156] Memory required for data: 863429664
I0403 19:41:12.310253  9552 layer_factory.hpp:77] Creating layer inception_4a/relu_3x3_reduce
I0403 19:41:12.310276  9552 net.cpp:91] Creating Layer inception_4a/relu_3x3_reduce
I0403 19:41:12.310292  9552 net.cpp:425] inception_4a/relu_3x3_reduce <- inception_4a/3x3_reduce
I0403 19:41:12.310317  9552 net.cpp:386] inception_4a/relu_3x3_reduce -> inception_4a/3x3_reduce (in-place)
I0403 19:41:12.310505  9552 net.cpp:141] Setting up inception_4a/relu_3x3_reduce
I0403 19:41:12.310541  9552 net.cpp:148] Top shape: 24 96 14 14 (451584)
I0403 19:41:12.310559  9552 net.cpp:156] Memory required for data: 865236000
I0403 19:41:12.310575  9552 layer_factory.hpp:77] Creating layer inception_4a/3x3
I0403 19:41:12.310600  9552 net.cpp:91] Creating Layer inception_4a/3x3
I0403 19:41:12.310617  9552 net.cpp:425] inception_4a/3x3 <- inception_4a/3x3_reduce
I0403 19:41:12.310642  9552 net.cpp:399] inception_4a/3x3 -> inception_4a/3x3
I0403 19:41:12.313573  9552 net.cpp:141] Setting up inception_4a/3x3
I0403 19:41:12.313613  9552 net.cpp:148] Top shape: 24 208 14 14 (978432)
I0403 19:41:12.313632  9552 net.cpp:156] Memory required for data: 869149728
I0403 19:41:12.313653  9552 layer_factory.hpp:77] Creating layer inception_4a/relu_3x3
I0403 19:41:12.313678  9552 net.cpp:91] Creating Layer inception_4a/relu_3x3
I0403 19:41:12.313697  9552 net.cpp:425] inception_4a/relu_3x3 <- inception_4a/3x3
I0403 19:41:12.313715  9552 net.cpp:386] inception_4a/relu_3x3 -> inception_4a/3x3 (in-place)
I0403 19:41:12.314041  9552 net.cpp:141] Setting up inception_4a/relu_3x3
I0403 19:41:12.314079  9552 net.cpp:148] Top shape: 24 208 14 14 (978432)
I0403 19:41:12.314101  9552 net.cpp:156] Memory required for data: 873063456
I0403 19:41:12.314123  9552 layer_factory.hpp:77] Creating layer inception_4a/5x5_reduce
I0403 19:41:12.314162  9552 net.cpp:91] Creating Layer inception_4a/5x5_reduce
I0403 19:41:12.314195  9552 net.cpp:425] inception_4a/5x5_reduce <- pool3/3x3_s2_pool3/3x3_s2_0_split_2
I0403 19:41:12.314224  9552 net.cpp:399] inception_4a/5x5_reduce -> inception_4a/5x5_reduce
I0403 19:41:12.315466  9552 net.cpp:141] Setting up inception_4a/5x5_reduce
I0403 19:41:12.315497  9552 net.cpp:148] Top shape: 24 16 14 14 (75264)
I0403 19:41:12.315515  9552 net.cpp:156] Memory required for data: 873364512
I0403 19:41:12.315536  9552 layer_factory.hpp:77] Creating layer inception_4a/relu_5x5_reduce
I0403 19:41:12.315559  9552 net.cpp:91] Creating Layer inception_4a/relu_5x5_reduce
I0403 19:41:12.315580  9552 net.cpp:425] inception_4a/relu_5x5_reduce <- inception_4a/5x5_reduce
I0403 19:41:12.315599  9552 net.cpp:386] inception_4a/relu_5x5_reduce -> inception_4a/5x5_reduce (in-place)
I0403 19:41:12.315803  9552 net.cpp:141] Setting up inception_4a/relu_5x5_reduce
I0403 19:41:12.315829  9552 net.cpp:148] Top shape: 24 16 14 14 (75264)
I0403 19:41:12.315845  9552 net.cpp:156] Memory required for data: 873665568
I0403 19:41:12.315862  9552 layer_factory.hpp:77] Creating layer inception_4a/5x5
I0403 19:41:12.315888  9552 net.cpp:91] Creating Layer inception_4a/5x5
I0403 19:41:12.315907  9552 net.cpp:425] inception_4a/5x5 <- inception_4a/5x5_reduce
I0403 19:41:12.315929  9552 net.cpp:399] inception_4a/5x5 -> inception_4a/5x5
I0403 19:41:12.317121  9552 net.cpp:141] Setting up inception_4a/5x5
I0403 19:41:12.317153  9552 net.cpp:148] Top shape: 24 48 14 14 (225792)
I0403 19:41:12.317172  9552 net.cpp:156] Memory required for data: 874568736
I0403 19:41:12.317200  9552 layer_factory.hpp:77] Creating layer inception_4a/relu_5x5
I0403 19:41:12.317222  9552 net.cpp:91] Creating Layer inception_4a/relu_5x5
I0403 19:41:12.317239  9552 net.cpp:425] inception_4a/relu_5x5 <- inception_4a/5x5
I0403 19:41:12.317260  9552 net.cpp:386] inception_4a/relu_5x5 -> inception_4a/5x5 (in-place)
I0403 19:41:12.317457  9552 net.cpp:141] Setting up inception_4a/relu_5x5
I0403 19:41:12.317486  9552 net.cpp:148] Top shape: 24 48 14 14 (225792)
I0403 19:41:12.317502  9552 net.cpp:156] Memory required for data: 875471904
I0403 19:41:12.317517  9552 layer_factory.hpp:77] Creating layer inception_4a/pool
I0403 19:41:12.317538  9552 net.cpp:91] Creating Layer inception_4a/pool
I0403 19:41:12.317559  9552 net.cpp:425] inception_4a/pool <- pool3/3x3_s2_pool3/3x3_s2_0_split_3
I0403 19:41:12.317579  9552 net.cpp:399] inception_4a/pool -> inception_4a/pool
I0403 19:41:12.317648  9552 net.cpp:141] Setting up inception_4a/pool
I0403 19:41:12.317673  9552 net.cpp:148] Top shape: 24 480 14 14 (2257920)
I0403 19:41:12.317690  9552 net.cpp:156] Memory required for data: 884503584
I0403 19:41:12.317708  9552 layer_factory.hpp:77] Creating layer inception_4a/pool_proj
I0403 19:41:12.317735  9552 net.cpp:91] Creating Layer inception_4a/pool_proj
I0403 19:41:12.317755  9552 net.cpp:425] inception_4a/pool_proj <- inception_4a/pool
I0403 19:41:12.317780  9552 net.cpp:399] inception_4a/pool_proj -> inception_4a/pool_proj
I0403 19:41:12.319037  9552 net.cpp:141] Setting up inception_4a/pool_proj
I0403 19:41:12.319067  9552 net.cpp:148] Top shape: 24 64 14 14 (301056)
I0403 19:41:12.319114  9552 net.cpp:156] Memory required for data: 885707808
I0403 19:41:12.319136  9552 layer_factory.hpp:77] Creating layer inception_4a/relu_pool_proj
I0403 19:41:12.319160  9552 net.cpp:91] Creating Layer inception_4a/relu_pool_proj
I0403 19:41:12.319187  9552 net.cpp:425] inception_4a/relu_pool_proj <- inception_4a/pool_proj
I0403 19:41:12.319210  9552 net.cpp:386] inception_4a/relu_pool_proj -> inception_4a/pool_proj (in-place)
I0403 19:41:12.319512  9552 net.cpp:141] Setting up inception_4a/relu_pool_proj
I0403 19:41:12.319540  9552 net.cpp:148] Top shape: 24 64 14 14 (301056)
I0403 19:41:12.319560  9552 net.cpp:156] Memory required for data: 886912032
I0403 19:41:12.319576  9552 layer_factory.hpp:77] Creating layer inception_4a/output
I0403 19:41:12.319593  9552 net.cpp:91] Creating Layer inception_4a/output
I0403 19:41:12.319609  9552 net.cpp:425] inception_4a/output <- inception_4a/1x1
I0403 19:41:12.319628  9552 net.cpp:425] inception_4a/output <- inception_4a/3x3
I0403 19:41:12.319648  9552 net.cpp:425] inception_4a/output <- inception_4a/5x5
I0403 19:41:12.319665  9552 net.cpp:425] inception_4a/output <- inception_4a/pool_proj
I0403 19:41:12.319686  9552 net.cpp:399] inception_4a/output -> inception_4a/output
I0403 19:41:12.319736  9552 net.cpp:141] Setting up inception_4a/output
I0403 19:41:12.319762  9552 net.cpp:148] Top shape: 24 512 14 14 (2408448)
I0403 19:41:12.319782  9552 net.cpp:156] Memory required for data: 896545824
I0403 19:41:12.319798  9552 layer_factory.hpp:77] Creating layer inception_4a/output_inception_4a/output_0_split
I0403 19:41:12.319818  9552 net.cpp:91] Creating Layer inception_4a/output_inception_4a/output_0_split
I0403 19:41:12.319838  9552 net.cpp:425] inception_4a/output_inception_4a/output_0_split <- inception_4a/output
I0403 19:41:12.319859  9552 net.cpp:399] inception_4a/output_inception_4a/output_0_split -> inception_4a/output_inception_4a/output_0_split_0
I0403 19:41:12.319883  9552 net.cpp:399] inception_4a/output_inception_4a/output_0_split -> inception_4a/output_inception_4a/output_0_split_1
I0403 19:41:12.319905  9552 net.cpp:399] inception_4a/output_inception_4a/output_0_split -> inception_4a/output_inception_4a/output_0_split_2
I0403 19:41:12.319926  9552 net.cpp:399] inception_4a/output_inception_4a/output_0_split -> inception_4a/output_inception_4a/output_0_split_3
I0403 19:41:12.319947  9552 net.cpp:399] inception_4a/output_inception_4a/output_0_split -> inception_4a/output_inception_4a/output_0_split_4
I0403 19:41:12.320046  9552 net.cpp:141] Setting up inception_4a/output_inception_4a/output_0_split
I0403 19:41:12.320072  9552 net.cpp:148] Top shape: 24 512 14 14 (2408448)
I0403 19:41:12.320094  9552 net.cpp:148] Top shape: 24 512 14 14 (2408448)
I0403 19:41:12.320113  9552 net.cpp:148] Top shape: 24 512 14 14 (2408448)
I0403 19:41:12.320132  9552 net.cpp:148] Top shape: 24 512 14 14 (2408448)
I0403 19:41:12.320148  9552 net.cpp:148] Top shape: 24 512 14 14 (2408448)
I0403 19:41:12.320164  9552 net.cpp:156] Memory required for data: 944714784
I0403 19:41:12.320188  9552 layer_factory.hpp:77] Creating layer loss1/ave_pool
I0403 19:41:12.320206  9552 net.cpp:91] Creating Layer loss1/ave_pool
I0403 19:41:12.320225  9552 net.cpp:425] loss1/ave_pool <- inception_4a/output_inception_4a/output_0_split_0
I0403 19:41:12.320250  9552 net.cpp:399] loss1/ave_pool -> loss1/ave_pool
I0403 19:41:12.320479  9552 net.cpp:141] Setting up loss1/ave_pool
I0403 19:41:12.320508  9552 net.cpp:148] Top shape: 24 512 4 4 (196608)
I0403 19:41:12.320525  9552 net.cpp:156] Memory required for data: 945501216
I0403 19:41:12.320543  9552 layer_factory.hpp:77] Creating layer loss1/conv
I0403 19:41:12.320566  9552 net.cpp:91] Creating Layer loss1/conv
I0403 19:41:12.320585  9552 net.cpp:425] loss1/conv <- loss1/ave_pool
I0403 19:41:12.320608  9552 net.cpp:399] loss1/conv -> loss1/conv
I0403 19:41:12.322134  9552 net.cpp:141] Setting up loss1/conv
I0403 19:41:12.322165  9552 net.cpp:148] Top shape: 24 128 4 4 (49152)
I0403 19:41:12.322213  9552 net.cpp:156] Memory required for data: 945697824
I0403 19:41:12.322234  9552 layer_factory.hpp:77] Creating layer loss1/relu_conv
I0403 19:41:12.322258  9552 net.cpp:91] Creating Layer loss1/relu_conv
I0403 19:41:12.322278  9552 net.cpp:425] loss1/relu_conv <- loss1/conv
I0403 19:41:12.322295  9552 net.cpp:386] loss1/relu_conv -> loss1/conv (in-place)
I0403 19:41:12.322598  9552 net.cpp:141] Setting up loss1/relu_conv
I0403 19:41:12.322628  9552 net.cpp:148] Top shape: 24 128 4 4 (49152)
I0403 19:41:12.322644  9552 net.cpp:156] Memory required for data: 945894432
I0403 19:41:12.322660  9552 layer_factory.hpp:77] Creating layer loss1/fc
I0403 19:41:12.322690  9552 net.cpp:91] Creating Layer loss1/fc
I0403 19:41:12.322710  9552 net.cpp:425] loss1/fc <- loss1/conv
I0403 19:41:12.322736  9552 net.cpp:399] loss1/fc -> loss1/fc
I0403 19:41:12.341820  9552 net.cpp:141] Setting up loss1/fc
I0403 19:41:12.353782  9552 net.cpp:148] Top shape: 24 1024 (24576)
I0403 19:41:12.353801  9552 net.cpp:156] Memory required for data: 945992736
I0403 19:41:12.353857  9552 layer_factory.hpp:77] Creating layer loss1/relu_fc
I0403 19:41:12.353880  9552 net.cpp:91] Creating Layer loss1/relu_fc
I0403 19:41:12.353901  9552 net.cpp:425] loss1/relu_fc <- loss1/fc
I0403 19:41:12.353924  9552 net.cpp:386] loss1/relu_fc -> loss1/fc (in-place)
I0403 19:41:12.354200  9552 net.cpp:141] Setting up loss1/relu_fc
I0403 19:41:12.354230  9552 net.cpp:148] Top shape: 24 1024 (24576)
I0403 19:41:12.354248  9552 net.cpp:156] Memory required for data: 946091040
I0403 19:41:12.354264  9552 layer_factory.hpp:77] Creating layer loss1/drop_fc
I0403 19:41:12.354295  9552 net.cpp:91] Creating Layer loss1/drop_fc
I0403 19:41:12.354315  9552 net.cpp:425] loss1/drop_fc <- loss1/fc
I0403 19:41:12.354336  9552 net.cpp:386] loss1/drop_fc -> loss1/fc (in-place)
I0403 19:41:12.354398  9552 net.cpp:141] Setting up loss1/drop_fc
I0403 19:41:12.354423  9552 net.cpp:148] Top shape: 24 1024 (24576)
I0403 19:41:12.354439  9552 net.cpp:156] Memory required for data: 946189344
I0403 19:41:12.354454  9552 layer_factory.hpp:77] Creating layer loss1/classifier_plantvillage
I0403 19:41:12.354475  9552 net.cpp:91] Creating Layer loss1/classifier_plantvillage
I0403 19:41:12.354490  9552 net.cpp:425] loss1/classifier_plantvillage <- loss1/fc
I0403 19:41:12.354521  9552 net.cpp:399] loss1/classifier_plantvillage -> loss1/classifier_plantvillage
I0403 19:41:12.355583  9552 net.cpp:141] Setting up loss1/classifier_plantvillage
I0403 19:41:12.355614  9552 net.cpp:148] Top shape: 24 38 (912)
I0403 19:41:12.355631  9552 net.cpp:156] Memory required for data: 946192992
I0403 19:41:12.355650  9552 layer_factory.hpp:77] Creating layer loss1/classifier_plantvillage_loss1/classifier_plantvillage_0_split
I0403 19:41:12.355676  9552 net.cpp:91] Creating Layer loss1/classifier_plantvillage_loss1/classifier_plantvillage_0_split
I0403 19:41:12.355695  9552 net.cpp:425] loss1/classifier_plantvillage_loss1/classifier_plantvillage_0_split <- loss1/classifier_plantvillage
I0403 19:41:12.355715  9552 net.cpp:399] loss1/classifier_plantvillage_loss1/classifier_plantvillage_0_split -> loss1/classifier_plantvillage_loss1/classifier_plantvillage_0_split_0
I0403 19:41:12.355737  9552 net.cpp:399] loss1/classifier_plantvillage_loss1/classifier_plantvillage_0_split -> loss1/classifier_plantvillage_loss1/classifier_plantvillage_0_split_1
I0403 19:41:12.355759  9552 net.cpp:399] loss1/classifier_plantvillage_loss1/classifier_plantvillage_0_split -> loss1/classifier_plantvillage_loss1/classifier_plantvillage_0_split_2
I0403 19:41:12.355834  9552 net.cpp:141] Setting up loss1/classifier_plantvillage_loss1/classifier_plantvillage_0_split
I0403 19:41:12.355859  9552 net.cpp:148] Top shape: 24 38 (912)
I0403 19:41:12.355878  9552 net.cpp:148] Top shape: 24 38 (912)
I0403 19:41:12.355896  9552 net.cpp:148] Top shape: 24 38 (912)
I0403 19:41:12.355912  9552 net.cpp:156] Memory required for data: 946203936
I0403 19:41:12.355931  9552 layer_factory.hpp:77] Creating layer inception_4b/1x1
I0403 19:41:12.355959  9552 net.cpp:91] Creating Layer inception_4b/1x1
I0403 19:41:12.356009  9552 net.cpp:425] inception_4b/1x1 <- inception_4a/output_inception_4a/output_0_split_1
I0403 19:41:12.356034  9552 net.cpp:399] inception_4b/1x1 -> inception_4b/1x1
I0403 19:41:12.357872  9552 net.cpp:141] Setting up inception_4b/1x1
I0403 19:41:12.357903  9552 net.cpp:148] Top shape: 24 160 14 14 (752640)
I0403 19:41:12.357921  9552 net.cpp:156] Memory required for data: 949214496
I0403 19:41:12.357941  9552 layer_factory.hpp:77] Creating layer inception_4b/relu_1x1
I0403 19:41:12.357965  9552 net.cpp:91] Creating Layer inception_4b/relu_1x1
I0403 19:41:12.357985  9552 net.cpp:425] inception_4b/relu_1x1 <- inception_4b/1x1
I0403 19:41:12.358003  9552 net.cpp:386] inception_4b/relu_1x1 -> inception_4b/1x1 (in-place)
I0403 19:41:12.358211  9552 net.cpp:141] Setting up inception_4b/relu_1x1
I0403 19:41:12.358239  9552 net.cpp:148] Top shape: 24 160 14 14 (752640)
I0403 19:41:12.358255  9552 net.cpp:156] Memory required for data: 952225056
I0403 19:41:12.358273  9552 layer_factory.hpp:77] Creating layer inception_4b/3x3_reduce
I0403 19:41:12.358297  9552 net.cpp:91] Creating Layer inception_4b/3x3_reduce
I0403 19:41:12.358316  9552 net.cpp:425] inception_4b/3x3_reduce <- inception_4a/output_inception_4a/output_0_split_2
I0403 19:41:12.358341  9552 net.cpp:399] inception_4b/3x3_reduce -> inception_4b/3x3_reduce
I0403 19:41:12.359807  9552 net.cpp:141] Setting up inception_4b/3x3_reduce
I0403 19:41:12.359840  9552 net.cpp:148] Top shape: 24 112 14 14 (526848)
I0403 19:41:12.359858  9552 net.cpp:156] Memory required for data: 954332448
I0403 19:41:12.359880  9552 layer_factory.hpp:77] Creating layer inception_4b/relu_3x3_reduce
I0403 19:41:12.359901  9552 net.cpp:91] Creating Layer inception_4b/relu_3x3_reduce
I0403 19:41:12.359920  9552 net.cpp:425] inception_4b/relu_3x3_reduce <- inception_4b/3x3_reduce
I0403 19:41:12.359942  9552 net.cpp:386] inception_4b/relu_3x3_reduce -> inception_4b/3x3_reduce (in-place)
I0403 19:41:12.360260  9552 net.cpp:141] Setting up inception_4b/relu_3x3_reduce
I0403 19:41:12.360291  9552 net.cpp:148] Top shape: 24 112 14 14 (526848)
I0403 19:41:12.360307  9552 net.cpp:156] Memory required for data: 956439840
I0403 19:41:12.360323  9552 layer_factory.hpp:77] Creating layer inception_4b/3x3
I0403 19:41:12.360349  9552 net.cpp:91] Creating Layer inception_4b/3x3
I0403 19:41:12.360370  9552 net.cpp:425] inception_4b/3x3 <- inception_4b/3x3_reduce
I0403 19:41:12.360394  9552 net.cpp:399] inception_4b/3x3 -> inception_4b/3x3
I0403 19:41:12.363638  9552 net.cpp:141] Setting up inception_4b/3x3
I0403 19:41:12.363670  9552 net.cpp:148] Top shape: 24 224 14 14 (1053696)
I0403 19:41:12.363687  9552 net.cpp:156] Memory required for data: 960654624
I0403 19:41:12.363706  9552 layer_factory.hpp:77] Creating layer inception_4b/relu_3x3
I0403 19:41:12.363729  9552 net.cpp:91] Creating Layer inception_4b/relu_3x3
I0403 19:41:12.363746  9552 net.cpp:425] inception_4b/relu_3x3 <- inception_4b/3x3
I0403 19:41:12.363765  9552 net.cpp:386] inception_4b/relu_3x3 -> inception_4b/3x3 (in-place)
I0403 19:41:12.363961  9552 net.cpp:141] Setting up inception_4b/relu_3x3
I0403 19:41:12.363991  9552 net.cpp:148] Top shape: 24 224 14 14 (1053696)
I0403 19:41:12.364006  9552 net.cpp:156] Memory required for data: 964869408
I0403 19:41:12.364022  9552 layer_factory.hpp:77] Creating layer inception_4b/5x5_reduce
I0403 19:41:12.364043  9552 net.cpp:91] Creating Layer inception_4b/5x5_reduce
I0403 19:41:12.364063  9552 net.cpp:425] inception_4b/5x5_reduce <- inception_4a/output_inception_4a/output_0_split_3
I0403 19:41:12.364090  9552 net.cpp:399] inception_4b/5x5_reduce -> inception_4b/5x5_reduce
I0403 19:41:12.365267  9552 net.cpp:141] Setting up inception_4b/5x5_reduce
I0403 19:41:12.365301  9552 net.cpp:148] Top shape: 24 24 14 14 (112896)
I0403 19:41:12.365320  9552 net.cpp:156] Memory required for data: 965320992
I0403 19:41:12.365344  9552 layer_factory.hpp:77] Creating layer inception_4b/relu_5x5_reduce
I0403 19:41:12.365365  9552 net.cpp:91] Creating Layer inception_4b/relu_5x5_reduce
I0403 19:41:12.365403  9552 net.cpp:425] inception_4b/relu_5x5_reduce <- inception_4b/5x5_reduce
I0403 19:41:12.365427  9552 net.cpp:386] inception_4b/relu_5x5_reduce -> inception_4b/5x5_reduce (in-place)
I0403 19:41:12.365625  9552 net.cpp:141] Setting up inception_4b/relu_5x5_reduce
I0403 19:41:12.365653  9552 net.cpp:148] Top shape: 24 24 14 14 (112896)
I0403 19:41:12.365671  9552 net.cpp:156] Memory required for data: 965772576
I0403 19:41:12.365689  9552 layer_factory.hpp:77] Creating layer inception_4b/5x5
I0403 19:41:12.365715  9552 net.cpp:91] Creating Layer inception_4b/5x5
I0403 19:41:12.365733  9552 net.cpp:425] inception_4b/5x5 <- inception_4b/5x5_reduce
I0403 19:41:12.365757  9552 net.cpp:399] inception_4b/5x5 -> inception_4b/5x5
I0403 19:41:12.367079  9552 net.cpp:141] Setting up inception_4b/5x5
I0403 19:41:12.367110  9552 net.cpp:148] Top shape: 24 64 14 14 (301056)
I0403 19:41:12.367128  9552 net.cpp:156] Memory required for data: 966976800
I0403 19:41:12.367149  9552 layer_factory.hpp:77] Creating layer inception_4b/relu_5x5
I0403 19:41:12.367173  9552 net.cpp:91] Creating Layer inception_4b/relu_5x5
I0403 19:41:12.367197  9552 net.cpp:425] inception_4b/relu_5x5 <- inception_4b/5x5
I0403 19:41:12.367218  9552 net.cpp:386] inception_4b/relu_5x5 -> inception_4b/5x5 (in-place)
I0403 19:41:12.367522  9552 net.cpp:141] Setting up inception_4b/relu_5x5
I0403 19:41:12.367550  9552 net.cpp:148] Top shape: 24 64 14 14 (301056)
I0403 19:41:12.367566  9552 net.cpp:156] Memory required for data: 968181024
I0403 19:41:12.367583  9552 layer_factory.hpp:77] Creating layer inception_4b/pool
I0403 19:41:12.367606  9552 net.cpp:91] Creating Layer inception_4b/pool
I0403 19:41:12.367624  9552 net.cpp:425] inception_4b/pool <- inception_4a/output_inception_4a/output_0_split_4
I0403 19:41:12.367643  9552 net.cpp:399] inception_4b/pool -> inception_4b/pool
I0403 19:41:12.367713  9552 net.cpp:141] Setting up inception_4b/pool
I0403 19:41:12.367739  9552 net.cpp:148] Top shape: 24 512 14 14 (2408448)
I0403 19:41:12.367755  9552 net.cpp:156] Memory required for data: 977814816
I0403 19:41:12.367770  9552 layer_factory.hpp:77] Creating layer inception_4b/pool_proj
I0403 19:41:12.367796  9552 net.cpp:91] Creating Layer inception_4b/pool_proj
I0403 19:41:12.367815  9552 net.cpp:425] inception_4b/pool_proj <- inception_4b/pool
I0403 19:41:12.367837  9552 net.cpp:399] inception_4b/pool_proj -> inception_4b/pool_proj
I0403 19:41:12.369314  9552 net.cpp:141] Setting up inception_4b/pool_proj
I0403 19:41:12.369369  9552 net.cpp:148] Top shape: 24 64 14 14 (301056)
I0403 19:41:12.369386  9552 net.cpp:156] Memory required for data: 979019040
I0403 19:41:12.369407  9552 layer_factory.hpp:77] Creating layer inception_4b/relu_pool_proj
I0403 19:41:12.369429  9552 net.cpp:91] Creating Layer inception_4b/relu_pool_proj
I0403 19:41:12.369447  9552 net.cpp:425] inception_4b/relu_pool_proj <- inception_4b/pool_proj
I0403 19:41:12.369468  9552 net.cpp:386] inception_4b/relu_pool_proj -> inception_4b/pool_proj (in-place)
I0403 19:41:12.369666  9552 net.cpp:141] Setting up inception_4b/relu_pool_proj
I0403 19:41:12.369693  9552 net.cpp:148] Top shape: 24 64 14 14 (301056)
I0403 19:41:12.369709  9552 net.cpp:156] Memory required for data: 980223264
I0403 19:41:12.369724  9552 layer_factory.hpp:77] Creating layer inception_4b/output
I0403 19:41:12.369743  9552 net.cpp:91] Creating Layer inception_4b/output
I0403 19:41:12.369760  9552 net.cpp:425] inception_4b/output <- inception_4b/1x1
I0403 19:41:12.369777  9552 net.cpp:425] inception_4b/output <- inception_4b/3x3
I0403 19:41:12.369794  9552 net.cpp:425] inception_4b/output <- inception_4b/5x5
I0403 19:41:12.369812  9552 net.cpp:425] inception_4b/output <- inception_4b/pool_proj
I0403 19:41:12.369832  9552 net.cpp:399] inception_4b/output -> inception_4b/output
I0403 19:41:12.369886  9552 net.cpp:141] Setting up inception_4b/output
I0403 19:41:12.369915  9552 net.cpp:148] Top shape: 24 512 14 14 (2408448)
I0403 19:41:12.369930  9552 net.cpp:156] Memory required for data: 989857056
I0403 19:41:12.369977  9552 layer_factory.hpp:77] Creating layer inception_4b/output_inception_4b/output_0_split
I0403 19:41:12.369998  9552 net.cpp:91] Creating Layer inception_4b/output_inception_4b/output_0_split
I0403 19:41:12.370014  9552 net.cpp:425] inception_4b/output_inception_4b/output_0_split <- inception_4b/output
I0403 19:41:12.370033  9552 net.cpp:399] inception_4b/output_inception_4b/output_0_split -> inception_4b/output_inception_4b/output_0_split_0
I0403 19:41:12.370057  9552 net.cpp:399] inception_4b/output_inception_4b/output_0_split -> inception_4b/output_inception_4b/output_0_split_1
I0403 19:41:12.370079  9552 net.cpp:399] inception_4b/output_inception_4b/output_0_split -> inception_4b/output_inception_4b/output_0_split_2
I0403 19:41:12.370101  9552 net.cpp:399] inception_4b/output_inception_4b/output_0_split -> inception_4b/output_inception_4b/output_0_split_3
I0403 19:41:12.370199  9552 net.cpp:141] Setting up inception_4b/output_inception_4b/output_0_split
I0403 19:41:12.370225  9552 net.cpp:148] Top shape: 24 512 14 14 (2408448)
I0403 19:41:12.370242  9552 net.cpp:148] Top shape: 24 512 14 14 (2408448)
I0403 19:41:12.370260  9552 net.cpp:148] Top shape: 24 512 14 14 (2408448)
I0403 19:41:12.370276  9552 net.cpp:148] Top shape: 24 512 14 14 (2408448)
I0403 19:41:12.370290  9552 net.cpp:156] Memory required for data: 1028392224
I0403 19:41:12.370306  9552 layer_factory.hpp:77] Creating layer inception_4c/1x1
I0403 19:41:12.370332  9552 net.cpp:91] Creating Layer inception_4c/1x1
I0403 19:41:12.370352  9552 net.cpp:425] inception_4c/1x1 <- inception_4b/output_inception_4b/output_0_split_0
I0403 19:41:12.370374  9552 net.cpp:399] inception_4c/1x1 -> inception_4c/1x1
I0403 19:41:12.372092  9552 net.cpp:141] Setting up inception_4c/1x1
I0403 19:41:12.372146  9552 net.cpp:148] Top shape: 24 128 14 14 (602112)
I0403 19:41:12.372164  9552 net.cpp:156] Memory required for data: 1030800672
I0403 19:41:12.372189  9552 layer_factory.hpp:77] Creating layer inception_4c/relu_1x1
I0403 19:41:12.372213  9552 net.cpp:91] Creating Layer inception_4c/relu_1x1
I0403 19:41:12.372231  9552 net.cpp:425] inception_4c/relu_1x1 <- inception_4c/1x1
I0403 19:41:12.372253  9552 net.cpp:386] inception_4c/relu_1x1 -> inception_4c/1x1 (in-place)
I0403 19:41:12.372454  9552 net.cpp:141] Setting up inception_4c/relu_1x1
I0403 19:41:12.372485  9552 net.cpp:148] Top shape: 24 128 14 14 (602112)
I0403 19:41:12.372501  9552 net.cpp:156] Memory required for data: 1033209120
I0403 19:41:12.372516  9552 layer_factory.hpp:77] Creating layer inception_4c/3x3_reduce
I0403 19:41:12.372544  9552 net.cpp:91] Creating Layer inception_4c/3x3_reduce
I0403 19:41:12.372562  9552 net.cpp:425] inception_4c/3x3_reduce <- inception_4b/output_inception_4b/output_0_split_1
I0403 19:41:12.372587  9552 net.cpp:399] inception_4c/3x3_reduce -> inception_4c/3x3_reduce
I0403 19:41:12.374903  9552 net.cpp:141] Setting up inception_4c/3x3_reduce
I0403 19:41:12.374965  9552 net.cpp:148] Top shape: 24 128 14 14 (602112)
I0403 19:41:12.374984  9552 net.cpp:156] Memory required for data: 1035617568
I0403 19:41:12.375006  9552 layer_factory.hpp:77] Creating layer inception_4c/relu_3x3_reduce
I0403 19:41:12.375027  9552 net.cpp:91] Creating Layer inception_4c/relu_3x3_reduce
I0403 19:41:12.375046  9552 net.cpp:425] inception_4c/relu_3x3_reduce <- inception_4c/3x3_reduce
I0403 19:41:12.375064  9552 net.cpp:386] inception_4c/relu_3x3_reduce -> inception_4c/3x3_reduce (in-place)
I0403 19:41:12.375386  9552 net.cpp:141] Setting up inception_4c/relu_3x3_reduce
I0403 19:41:12.375414  9552 net.cpp:148] Top shape: 24 128 14 14 (602112)
I0403 19:41:12.375433  9552 net.cpp:156] Memory required for data: 1038026016
I0403 19:41:12.375449  9552 layer_factory.hpp:77] Creating layer inception_4c/3x3
I0403 19:41:12.375473  9552 net.cpp:91] Creating Layer inception_4c/3x3
I0403 19:41:12.375489  9552 net.cpp:425] inception_4c/3x3 <- inception_4c/3x3_reduce
I0403 19:41:12.375514  9552 net.cpp:399] inception_4c/3x3 -> inception_4c/3x3
I0403 19:41:12.379391  9552 net.cpp:141] Setting up inception_4c/3x3
I0403 19:41:12.379452  9552 net.cpp:148] Top shape: 24 256 14 14 (1204224)
I0403 19:41:12.379470  9552 net.cpp:156] Memory required for data: 1042842912
I0403 19:41:12.379505  9552 layer_factory.hpp:77] Creating layer inception_4c/relu_3x3
I0403 19:41:12.379528  9552 net.cpp:91] Creating Layer inception_4c/relu_3x3
I0403 19:41:12.379545  9552 net.cpp:425] inception_4c/relu_3x3 <- inception_4c/3x3
I0403 19:41:12.379565  9552 net.cpp:386] inception_4c/relu_3x3 -> inception_4c/3x3 (in-place)
I0403 19:41:12.379760  9552 net.cpp:141] Setting up inception_4c/relu_3x3
I0403 19:41:12.379788  9552 net.cpp:148] Top shape: 24 256 14 14 (1204224)
I0403 19:41:12.379804  9552 net.cpp:156] Memory required for data: 1047659808
I0403 19:41:12.379820  9552 layer_factory.hpp:77] Creating layer inception_4c/5x5_reduce
I0403 19:41:12.379845  9552 net.cpp:91] Creating Layer inception_4c/5x5_reduce
I0403 19:41:12.379864  9552 net.cpp:425] inception_4c/5x5_reduce <- inception_4b/output_inception_4b/output_0_split_2
I0403 19:41:12.379884  9552 net.cpp:399] inception_4c/5x5_reduce -> inception_4c/5x5_reduce
I0403 19:41:12.381058  9552 net.cpp:141] Setting up inception_4c/5x5_reduce
I0403 19:41:12.381091  9552 net.cpp:148] Top shape: 24 24 14 14 (112896)
I0403 19:41:12.381108  9552 net.cpp:156] Memory required for data: 1048111392
I0403 19:41:12.381129  9552 layer_factory.hpp:77] Creating layer inception_4c/relu_5x5_reduce
I0403 19:41:12.381147  9552 net.cpp:91] Creating Layer inception_4c/relu_5x5_reduce
I0403 19:41:12.381165  9552 net.cpp:425] inception_4c/relu_5x5_reduce <- inception_4c/5x5_reduce
I0403 19:41:12.381188  9552 net.cpp:386] inception_4c/relu_5x5_reduce -> inception_4c/5x5_reduce (in-place)
I0403 19:41:12.381392  9552 net.cpp:141] Setting up inception_4c/relu_5x5_reduce
I0403 19:41:12.381418  9552 net.cpp:148] Top shape: 24 24 14 14 (112896)
I0403 19:41:12.381433  9552 net.cpp:156] Memory required for data: 1048562976
I0403 19:41:12.381448  9552 layer_factory.hpp:77] Creating layer inception_4c/5x5
I0403 19:41:12.381471  9552 net.cpp:91] Creating Layer inception_4c/5x5
I0403 19:41:12.381489  9552 net.cpp:425] inception_4c/5x5 <- inception_4c/5x5_reduce
I0403 19:41:12.381511  9552 net.cpp:399] inception_4c/5x5 -> inception_4c/5x5
I0403 19:41:12.382866  9552 net.cpp:141] Setting up inception_4c/5x5
I0403 19:41:12.382895  9552 net.cpp:148] Top shape: 24 64 14 14 (301056)
I0403 19:41:12.382912  9552 net.cpp:156] Memory required for data: 1049767200
I0403 19:41:12.382932  9552 layer_factory.hpp:77] Creating layer inception_4c/relu_5x5
I0403 19:41:12.382951  9552 net.cpp:91] Creating Layer inception_4c/relu_5x5
I0403 19:41:12.382967  9552 net.cpp:425] inception_4c/relu_5x5 <- inception_4c/5x5
I0403 19:41:12.382987  9552 net.cpp:386] inception_4c/relu_5x5 -> inception_4c/5x5 (in-place)
I0403 19:41:12.383312  9552 net.cpp:141] Setting up inception_4c/relu_5x5
I0403 19:41:12.383342  9552 net.cpp:148] Top shape: 24 64 14 14 (301056)
I0403 19:41:12.383358  9552 net.cpp:156] Memory required for data: 1050971424
I0403 19:41:12.383374  9552 layer_factory.hpp:77] Creating layer inception_4c/pool
I0403 19:41:12.383394  9552 net.cpp:91] Creating Layer inception_4c/pool
I0403 19:41:12.383411  9552 net.cpp:425] inception_4c/pool <- inception_4b/output_inception_4b/output_0_split_3
I0403 19:41:12.383432  9552 net.cpp:399] inception_4c/pool -> inception_4c/pool
I0403 19:41:12.383503  9552 net.cpp:141] Setting up inception_4c/pool
I0403 19:41:12.383528  9552 net.cpp:148] Top shape: 24 512 14 14 (2408448)
I0403 19:41:12.383543  9552 net.cpp:156] Memory required for data: 1060605216
I0403 19:41:12.383558  9552 layer_factory.hpp:77] Creating layer inception_4c/pool_proj
I0403 19:41:12.383582  9552 net.cpp:91] Creating Layer inception_4c/pool_proj
I0403 19:41:12.383601  9552 net.cpp:425] inception_4c/pool_proj <- inception_4c/pool
I0403 19:41:12.383620  9552 net.cpp:399] inception_4c/pool_proj -> inception_4c/pool_proj
I0403 19:41:12.384980  9552 net.cpp:141] Setting up inception_4c/pool_proj
I0403 19:41:12.385013  9552 net.cpp:148] Top shape: 24 64 14 14 (301056)
I0403 19:41:12.385045  9552 net.cpp:156] Memory required for data: 1061809440
I0403 19:41:12.385066  9552 layer_factory.hpp:77] Creating layer inception_4c/relu_pool_proj
I0403 19:41:12.385084  9552 net.cpp:91] Creating Layer inception_4c/relu_pool_proj
I0403 19:41:12.385102  9552 net.cpp:425] inception_4c/relu_pool_proj <- inception_4c/pool_proj
I0403 19:41:12.385121  9552 net.cpp:386] inception_4c/relu_pool_proj -> inception_4c/pool_proj (in-place)
I0403 19:41:12.385326  9552 net.cpp:141] Setting up inception_4c/relu_pool_proj
I0403 19:41:12.385355  9552 net.cpp:148] Top shape: 24 64 14 14 (301056)
I0403 19:41:12.385370  9552 net.cpp:156] Memory required for data: 1063013664
I0403 19:41:12.385386  9552 layer_factory.hpp:77] Creating layer inception_4c/output
I0403 19:41:12.385404  9552 net.cpp:91] Creating Layer inception_4c/output
I0403 19:41:12.385421  9552 net.cpp:425] inception_4c/output <- inception_4c/1x1
I0403 19:41:12.385437  9552 net.cpp:425] inception_4c/output <- inception_4c/3x3
I0403 19:41:12.385454  9552 net.cpp:425] inception_4c/output <- inception_4c/5x5
I0403 19:41:12.385471  9552 net.cpp:425] inception_4c/output <- inception_4c/pool_proj
I0403 19:41:12.385490  9552 net.cpp:399] inception_4c/output -> inception_4c/output
I0403 19:41:12.385540  9552 net.cpp:141] Setting up inception_4c/output
I0403 19:41:12.385567  9552 net.cpp:148] Top shape: 24 512 14 14 (2408448)
I0403 19:41:12.385584  9552 net.cpp:156] Memory required for data: 1072647456
I0403 19:41:12.385599  9552 layer_factory.hpp:77] Creating layer inception_4c/output_inception_4c/output_0_split
I0403 19:41:12.385617  9552 net.cpp:91] Creating Layer inception_4c/output_inception_4c/output_0_split
I0403 19:41:12.385633  9552 net.cpp:425] inception_4c/output_inception_4c/output_0_split <- inception_4c/output
I0403 19:41:12.385651  9552 net.cpp:399] inception_4c/output_inception_4c/output_0_split -> inception_4c/output_inception_4c/output_0_split_0
I0403 19:41:12.385671  9552 net.cpp:399] inception_4c/output_inception_4c/output_0_split -> inception_4c/output_inception_4c/output_0_split_1
I0403 19:41:12.385695  9552 net.cpp:399] inception_4c/output_inception_4c/output_0_split -> inception_4c/output_inception_4c/output_0_split_2
I0403 19:41:12.385718  9552 net.cpp:399] inception_4c/output_inception_4c/output_0_split -> inception_4c/output_inception_4c/output_0_split_3
I0403 19:41:12.385813  9552 net.cpp:141] Setting up inception_4c/output_inception_4c/output_0_split
I0403 19:41:12.385838  9552 net.cpp:148] Top shape: 24 512 14 14 (2408448)
I0403 19:41:12.385855  9552 net.cpp:148] Top shape: 24 512 14 14 (2408448)
I0403 19:41:12.385871  9552 net.cpp:148] Top shape: 24 512 14 14 (2408448)
I0403 19:41:12.385888  9552 net.cpp:148] Top shape: 24 512 14 14 (2408448)
I0403 19:41:12.385902  9552 net.cpp:156] Memory required for data: 1111182624
I0403 19:41:12.385918  9552 layer_factory.hpp:77] Creating layer inception_4d/1x1
I0403 19:41:12.385941  9552 net.cpp:91] Creating Layer inception_4d/1x1
I0403 19:41:12.385960  9552 net.cpp:425] inception_4d/1x1 <- inception_4c/output_inception_4c/output_0_split_0
I0403 19:41:12.385982  9552 net.cpp:399] inception_4d/1x1 -> inception_4d/1x1
I0403 19:41:12.387493  9552 net.cpp:141] Setting up inception_4d/1x1
I0403 19:41:12.387523  9552 net.cpp:148] Top shape: 24 112 14 14 (526848)
I0403 19:41:12.387539  9552 net.cpp:156] Memory required for data: 1113290016
I0403 19:41:12.387559  9552 layer_factory.hpp:77] Creating layer inception_4d/relu_1x1
I0403 19:41:12.387580  9552 net.cpp:91] Creating Layer inception_4d/relu_1x1
I0403 19:41:12.387598  9552 net.cpp:425] inception_4d/relu_1x1 <- inception_4d/1x1
I0403 19:41:12.387616  9552 net.cpp:386] inception_4d/relu_1x1 -> inception_4d/1x1 (in-place)
I0403 19:41:12.387816  9552 net.cpp:141] Setting up inception_4d/relu_1x1
I0403 19:41:12.387845  9552 net.cpp:148] Top shape: 24 112 14 14 (526848)
I0403 19:41:12.387861  9552 net.cpp:156] Memory required for data: 1115397408
I0403 19:41:12.387877  9552 layer_factory.hpp:77] Creating layer inception_4d/3x3_reduce
I0403 19:41:12.387914  9552 net.cpp:91] Creating Layer inception_4d/3x3_reduce
I0403 19:41:12.387934  9552 net.cpp:425] inception_4d/3x3_reduce <- inception_4c/output_inception_4c/output_0_split_1
I0403 19:41:12.387954  9552 net.cpp:399] inception_4d/3x3_reduce -> inception_4d/3x3_reduce
I0403 19:41:12.389699  9552 net.cpp:141] Setting up inception_4d/3x3_reduce
I0403 19:41:12.389729  9552 net.cpp:148] Top shape: 24 144 14 14 (677376)
I0403 19:41:12.389744  9552 net.cpp:156] Memory required for data: 1118106912
I0403 19:41:12.389763  9552 layer_factory.hpp:77] Creating layer inception_4d/relu_3x3_reduce
I0403 19:41:12.389786  9552 net.cpp:91] Creating Layer inception_4d/relu_3x3_reduce
I0403 19:41:12.389804  9552 net.cpp:425] inception_4d/relu_3x3_reduce <- inception_4d/3x3_reduce
I0403 19:41:12.389822  9552 net.cpp:386] inception_4d/relu_3x3_reduce -> inception_4d/3x3_reduce (in-place)
I0403 19:41:12.390138  9552 net.cpp:141] Setting up inception_4d/relu_3x3_reduce
I0403 19:41:12.390167  9552 net.cpp:148] Top shape: 24 144 14 14 (677376)
I0403 19:41:12.390188  9552 net.cpp:156] Memory required for data: 1120816416
I0403 19:41:12.390204  9552 layer_factory.hpp:77] Creating layer inception_4d/3x3
I0403 19:41:12.390228  9552 net.cpp:91] Creating Layer inception_4d/3x3
I0403 19:41:12.390246  9552 net.cpp:425] inception_4d/3x3 <- inception_4d/3x3_reduce
I0403 19:41:12.390269  9552 net.cpp:399] inception_4d/3x3 -> inception_4d/3x3
I0403 19:41:12.395032  9552 net.cpp:141] Setting up inception_4d/3x3
I0403 19:41:12.395066  9552 net.cpp:148] Top shape: 24 288 14 14 (1354752)
I0403 19:41:12.395081  9552 net.cpp:156] Memory required for data: 1126235424
I0403 19:41:12.395102  9552 layer_factory.hpp:77] Creating layer inception_4d/relu_3x3
I0403 19:41:12.395123  9552 net.cpp:91] Creating Layer inception_4d/relu_3x3
I0403 19:41:12.395140  9552 net.cpp:425] inception_4d/relu_3x3 <- inception_4d/3x3
I0403 19:41:12.395159  9552 net.cpp:386] inception_4d/relu_3x3 -> inception_4d/3x3 (in-place)
I0403 19:41:12.395364  9552 net.cpp:141] Setting up inception_4d/relu_3x3
I0403 19:41:12.395393  9552 net.cpp:148] Top shape: 24 288 14 14 (1354752)
I0403 19:41:12.395409  9552 net.cpp:156] Memory required for data: 1131654432
I0403 19:41:12.395424  9552 layer_factory.hpp:77] Creating layer inception_4d/5x5_reduce
I0403 19:41:12.395447  9552 net.cpp:91] Creating Layer inception_4d/5x5_reduce
I0403 19:41:12.395465  9552 net.cpp:425] inception_4d/5x5_reduce <- inception_4c/output_inception_4c/output_0_split_2
I0403 19:41:12.395485  9552 net.cpp:399] inception_4d/5x5_reduce -> inception_4d/5x5_reduce
I0403 19:41:12.396721  9552 net.cpp:141] Setting up inception_4d/5x5_reduce
I0403 19:41:12.396751  9552 net.cpp:148] Top shape: 24 32 14 14 (150528)
I0403 19:41:12.396767  9552 net.cpp:156] Memory required for data: 1132256544
I0403 19:41:12.396787  9552 layer_factory.hpp:77] Creating layer inception_4d/relu_5x5_reduce
I0403 19:41:12.396808  9552 net.cpp:91] Creating Layer inception_4d/relu_5x5_reduce
I0403 19:41:12.396826  9552 net.cpp:425] inception_4d/relu_5x5_reduce <- inception_4d/5x5_reduce
I0403 19:41:12.396844  9552 net.cpp:386] inception_4d/relu_5x5_reduce -> inception_4d/5x5_reduce (in-place)
I0403 19:41:12.397047  9552 net.cpp:141] Setting up inception_4d/relu_5x5_reduce
I0403 19:41:12.397076  9552 net.cpp:148] Top shape: 24 32 14 14 (150528)
I0403 19:41:12.397092  9552 net.cpp:156] Memory required for data: 1132858656
I0403 19:41:12.397109  9552 layer_factory.hpp:77] Creating layer inception_4d/5x5
I0403 19:41:12.397131  9552 net.cpp:91] Creating Layer inception_4d/5x5
I0403 19:41:12.397150  9552 net.cpp:425] inception_4d/5x5 <- inception_4d/5x5_reduce
I0403 19:41:12.397171  9552 net.cpp:399] inception_4d/5x5 -> inception_4d/5x5
I0403 19:41:12.398763  9552 net.cpp:141] Setting up inception_4d/5x5
I0403 19:41:12.398794  9552 net.cpp:148] Top shape: 24 64 14 14 (301056)
I0403 19:41:12.398810  9552 net.cpp:156] Memory required for data: 1134062880
I0403 19:41:12.398830  9552 layer_factory.hpp:77] Creating layer inception_4d/relu_5x5
I0403 19:41:12.398865  9552 net.cpp:91] Creating Layer inception_4d/relu_5x5
I0403 19:41:12.398883  9552 net.cpp:425] inception_4d/relu_5x5 <- inception_4d/5x5
I0403 19:41:12.398903  9552 net.cpp:386] inception_4d/relu_5x5 -> inception_4d/5x5 (in-place)
I0403 19:41:12.399227  9552 net.cpp:141] Setting up inception_4d/relu_5x5
I0403 19:41:12.399258  9552 net.cpp:148] Top shape: 24 64 14 14 (301056)
I0403 19:41:12.399274  9552 net.cpp:156] Memory required for data: 1135267104
I0403 19:41:12.399289  9552 layer_factory.hpp:77] Creating layer inception_4d/pool
I0403 19:41:12.399308  9552 net.cpp:91] Creating Layer inception_4d/pool
I0403 19:41:12.399325  9552 net.cpp:425] inception_4d/pool <- inception_4c/output_inception_4c/output_0_split_3
I0403 19:41:12.399349  9552 net.cpp:399] inception_4d/pool -> inception_4d/pool
I0403 19:41:12.399421  9552 net.cpp:141] Setting up inception_4d/pool
I0403 19:41:12.399446  9552 net.cpp:148] Top shape: 24 512 14 14 (2408448)
I0403 19:41:12.399462  9552 net.cpp:156] Memory required for data: 1144900896
I0403 19:41:12.399477  9552 layer_factory.hpp:77] Creating layer inception_4d/pool_proj
I0403 19:41:12.399502  9552 net.cpp:91] Creating Layer inception_4d/pool_proj
I0403 19:41:12.399520  9552 net.cpp:425] inception_4d/pool_proj <- inception_4d/pool
I0403 19:41:12.399540  9552 net.cpp:399] inception_4d/pool_proj -> inception_4d/pool_proj
I0403 19:41:12.401510  9552 net.cpp:141] Setting up inception_4d/pool_proj
I0403 19:41:12.401543  9552 net.cpp:148] Top shape: 24 64 14 14 (301056)
I0403 19:41:12.401559  9552 net.cpp:156] Memory required for data: 1146105120
I0403 19:41:12.401578  9552 layer_factory.hpp:77] Creating layer inception_4d/relu_pool_proj
I0403 19:41:12.401600  9552 net.cpp:91] Creating Layer inception_4d/relu_pool_proj
I0403 19:41:12.401618  9552 net.cpp:425] inception_4d/relu_pool_proj <- inception_4d/pool_proj
I0403 19:41:12.401635  9552 net.cpp:386] inception_4d/relu_pool_proj -> inception_4d/pool_proj (in-place)
I0403 19:41:12.401839  9552 net.cpp:141] Setting up inception_4d/relu_pool_proj
I0403 19:41:12.401868  9552 net.cpp:148] Top shape: 24 64 14 14 (301056)
I0403 19:41:12.401883  9552 net.cpp:156] Memory required for data: 1147309344
I0403 19:41:12.401900  9552 layer_factory.hpp:77] Creating layer inception_4d/output
I0403 19:41:12.401917  9552 net.cpp:91] Creating Layer inception_4d/output
I0403 19:41:12.401933  9552 net.cpp:425] inception_4d/output <- inception_4d/1x1
I0403 19:41:12.401952  9552 net.cpp:425] inception_4d/output <- inception_4d/3x3
I0403 19:41:12.401968  9552 net.cpp:425] inception_4d/output <- inception_4d/5x5
I0403 19:41:12.401984  9552 net.cpp:425] inception_4d/output <- inception_4d/pool_proj
I0403 19:41:12.402004  9552 net.cpp:399] inception_4d/output -> inception_4d/output
I0403 19:41:12.402055  9552 net.cpp:141] Setting up inception_4d/output
I0403 19:41:12.402079  9552 net.cpp:148] Top shape: 24 528 14 14 (2483712)
I0403 19:41:12.402096  9552 net.cpp:156] Memory required for data: 1157244192
I0403 19:41:12.402110  9552 layer_factory.hpp:77] Creating layer inception_4d/output_inception_4d/output_0_split
I0403 19:41:12.402132  9552 net.cpp:91] Creating Layer inception_4d/output_inception_4d/output_0_split
I0403 19:41:12.402150  9552 net.cpp:425] inception_4d/output_inception_4d/output_0_split <- inception_4d/output
I0403 19:41:12.402168  9552 net.cpp:399] inception_4d/output_inception_4d/output_0_split -> inception_4d/output_inception_4d/output_0_split_0
I0403 19:41:12.402195  9552 net.cpp:399] inception_4d/output_inception_4d/output_0_split -> inception_4d/output_inception_4d/output_0_split_1
I0403 19:41:12.402223  9552 net.cpp:399] inception_4d/output_inception_4d/output_0_split -> inception_4d/output_inception_4d/output_0_split_2
I0403 19:41:12.402245  9552 net.cpp:399] inception_4d/output_inception_4d/output_0_split -> inception_4d/output_inception_4d/output_0_split_3
I0403 19:41:12.402266  9552 net.cpp:399] inception_4d/output_inception_4d/output_0_split -> inception_4d/output_inception_4d/output_0_split_4
I0403 19:41:12.402376  9552 net.cpp:141] Setting up inception_4d/output_inception_4d/output_0_split
I0403 19:41:12.402415  9552 net.cpp:148] Top shape: 24 528 14 14 (2483712)
I0403 19:41:12.402432  9552 net.cpp:148] Top shape: 24 528 14 14 (2483712)
I0403 19:41:12.402451  9552 net.cpp:148] Top shape: 24 528 14 14 (2483712)
I0403 19:41:12.402467  9552 net.cpp:148] Top shape: 24 528 14 14 (2483712)
I0403 19:41:12.402483  9552 net.cpp:148] Top shape: 24 528 14 14 (2483712)
I0403 19:41:12.402498  9552 net.cpp:156] Memory required for data: 1206918432
I0403 19:41:12.402513  9552 layer_factory.hpp:77] Creating layer loss2/ave_pool
I0403 19:41:12.402531  9552 net.cpp:91] Creating Layer loss2/ave_pool
I0403 19:41:12.402547  9552 net.cpp:425] loss2/ave_pool <- inception_4d/output_inception_4d/output_0_split_0
I0403 19:41:12.402570  9552 net.cpp:399] loss2/ave_pool -> loss2/ave_pool
I0403 19:41:12.402912  9552 net.cpp:141] Setting up loss2/ave_pool
I0403 19:41:12.402941  9552 net.cpp:148] Top shape: 24 528 4 4 (202752)
I0403 19:41:12.402957  9552 net.cpp:156] Memory required for data: 1207729440
I0403 19:41:12.402973  9552 layer_factory.hpp:77] Creating layer loss2/conv
I0403 19:41:12.402997  9552 net.cpp:91] Creating Layer loss2/conv
I0403 19:41:12.403014  9552 net.cpp:425] loss2/conv <- loss2/ave_pool
I0403 19:41:12.403036  9552 net.cpp:399] loss2/conv -> loss2/conv
I0403 19:41:12.405103  9552 net.cpp:141] Setting up loss2/conv
I0403 19:41:12.405138  9552 net.cpp:148] Top shape: 24 128 4 4 (49152)
I0403 19:41:12.405154  9552 net.cpp:156] Memory required for data: 1207926048
I0403 19:41:12.405174  9552 layer_factory.hpp:77] Creating layer loss2/relu_conv
I0403 19:41:12.405200  9552 net.cpp:91] Creating Layer loss2/relu_conv
I0403 19:41:12.405216  9552 net.cpp:425] loss2/relu_conv <- loss2/conv
I0403 19:41:12.405237  9552 net.cpp:386] loss2/relu_conv -> loss2/conv (in-place)
I0403 19:41:12.405545  9552 net.cpp:141] Setting up loss2/relu_conv
I0403 19:41:12.405575  9552 net.cpp:148] Top shape: 24 128 4 4 (49152)
I0403 19:41:12.405592  9552 net.cpp:156] Memory required for data: 1208122656
I0403 19:41:12.405608  9552 layer_factory.hpp:77] Creating layer loss2/fc
I0403 19:41:12.405629  9552 net.cpp:91] Creating Layer loss2/fc
I0403 19:41:12.405645  9552 net.cpp:425] loss2/fc <- loss2/conv
I0403 19:41:12.405668  9552 net.cpp:399] loss2/fc -> loss2/fc
I0403 19:41:12.424566  9552 net.cpp:141] Setting up loss2/fc
I0403 19:41:12.424628  9552 net.cpp:148] Top shape: 24 1024 (24576)
I0403 19:41:12.424643  9552 net.cpp:156] Memory required for data: 1208220960
I0403 19:41:12.424664  9552 layer_factory.hpp:77] Creating layer loss2/relu_fc
I0403 19:41:12.424688  9552 net.cpp:91] Creating Layer loss2/relu_fc
I0403 19:41:12.424707  9552 net.cpp:425] loss2/relu_fc <- loss2/fc
I0403 19:41:12.424726  9552 net.cpp:386] loss2/relu_fc -> loss2/fc (in-place)
I0403 19:41:12.425088  9552 net.cpp:141] Setting up loss2/relu_fc
I0403 19:41:12.425117  9552 net.cpp:148] Top shape: 24 1024 (24576)
I0403 19:41:12.425132  9552 net.cpp:156] Memory required for data: 1208319264
I0403 19:41:12.425148  9552 layer_factory.hpp:77] Creating layer loss2/drop_fc
I0403 19:41:12.425170  9552 net.cpp:91] Creating Layer loss2/drop_fc
I0403 19:41:12.425192  9552 net.cpp:425] loss2/drop_fc <- loss2/fc
I0403 19:41:12.425212  9552 net.cpp:386] loss2/drop_fc -> loss2/fc (in-place)
I0403 19:41:12.425268  9552 net.cpp:141] Setting up loss2/drop_fc
I0403 19:41:12.425293  9552 net.cpp:148] Top shape: 24 1024 (24576)
I0403 19:41:12.425308  9552 net.cpp:156] Memory required for data: 1208417568
I0403 19:41:12.425323  9552 layer_factory.hpp:77] Creating layer loss2/classifier_plantvillage
I0403 19:41:12.425348  9552 net.cpp:91] Creating Layer loss2/classifier_plantvillage
I0403 19:41:12.425366  9552 net.cpp:425] loss2/classifier_plantvillage <- loss2/fc
I0403 19:41:12.425386  9552 net.cpp:399] loss2/classifier_plantvillage -> loss2/classifier_plantvillage
I0403 19:41:12.425828  9552 net.cpp:141] Setting up loss2/classifier_plantvillage
I0403 19:41:12.425854  9552 net.cpp:148] Top shape: 24 38 (912)
I0403 19:41:12.425895  9552 net.cpp:156] Memory required for data: 1208421216
I0403 19:41:12.425915  9552 layer_factory.hpp:77] Creating layer loss2/classifier_plantvillage_loss2/classifier_plantvillage_0_split
I0403 19:41:12.425936  9552 net.cpp:91] Creating Layer loss2/classifier_plantvillage_loss2/classifier_plantvillage_0_split
I0403 19:41:12.425952  9552 net.cpp:425] loss2/classifier_plantvillage_loss2/classifier_plantvillage_0_split <- loss2/classifier_plantvillage
I0403 19:41:12.425973  9552 net.cpp:399] loss2/classifier_plantvillage_loss2/classifier_plantvillage_0_split -> loss2/classifier_plantvillage_loss2/classifier_plantvillage_0_split_0
I0403 19:41:12.425995  9552 net.cpp:399] loss2/classifier_plantvillage_loss2/classifier_plantvillage_0_split -> loss2/classifier_plantvillage_loss2/classifier_plantvillage_0_split_1
I0403 19:41:12.426017  9552 net.cpp:399] loss2/classifier_plantvillage_loss2/classifier_plantvillage_0_split -> loss2/classifier_plantvillage_loss2/classifier_plantvillage_0_split_2
I0403 19:41:12.426097  9552 net.cpp:141] Setting up loss2/classifier_plantvillage_loss2/classifier_plantvillage_0_split
I0403 19:41:12.426126  9552 net.cpp:148] Top shape: 24 38 (912)
I0403 19:41:12.426143  9552 net.cpp:148] Top shape: 24 38 (912)
I0403 19:41:12.426159  9552 net.cpp:148] Top shape: 24 38 (912)
I0403 19:41:12.426174  9552 net.cpp:156] Memory required for data: 1208432160
I0403 19:41:12.426194  9552 layer_factory.hpp:77] Creating layer inception_4e/1x1
I0403 19:41:12.426218  9552 net.cpp:91] Creating Layer inception_4e/1x1
I0403 19:41:12.426235  9552 net.cpp:425] inception_4e/1x1 <- inception_4d/output_inception_4d/output_0_split_1
I0403 19:41:12.426256  9552 net.cpp:399] inception_4e/1x1 -> inception_4e/1x1
I0403 19:41:12.428249  9552 net.cpp:141] Setting up inception_4e/1x1
I0403 19:41:12.428278  9552 net.cpp:148] Top shape: 24 256 14 14 (1204224)
I0403 19:41:12.428294  9552 net.cpp:156] Memory required for data: 1213249056
I0403 19:41:12.428313  9552 layer_factory.hpp:77] Creating layer inception_4e/relu_1x1
I0403 19:41:12.428333  9552 net.cpp:91] Creating Layer inception_4e/relu_1x1
I0403 19:41:12.428351  9552 net.cpp:425] inception_4e/relu_1x1 <- inception_4e/1x1
I0403 19:41:12.428372  9552 net.cpp:386] inception_4e/relu_1x1 -> inception_4e/1x1 (in-place)
I0403 19:41:12.428690  9552 net.cpp:141] Setting up inception_4e/relu_1x1
I0403 19:41:12.428719  9552 net.cpp:148] Top shape: 24 256 14 14 (1204224)
I0403 19:41:12.428735  9552 net.cpp:156] Memory required for data: 1218065952
I0403 19:41:12.428750  9552 layer_factory.hpp:77] Creating layer inception_4e/3x3_reduce
I0403 19:41:12.428774  9552 net.cpp:91] Creating Layer inception_4e/3x3_reduce
I0403 19:41:12.428792  9552 net.cpp:425] inception_4e/3x3_reduce <- inception_4d/output_inception_4d/output_0_split_2
I0403 19:41:12.428815  9552 net.cpp:399] inception_4e/3x3_reduce -> inception_4e/3x3_reduce
I0403 19:41:12.431109  9552 net.cpp:141] Setting up inception_4e/3x3_reduce
I0403 19:41:12.431143  9552 net.cpp:148] Top shape: 24 160 14 14 (752640)
I0403 19:41:12.431160  9552 net.cpp:156] Memory required for data: 1221076512
I0403 19:41:12.431187  9552 layer_factory.hpp:77] Creating layer inception_4e/relu_3x3_reduce
I0403 19:41:12.431208  9552 net.cpp:91] Creating Layer inception_4e/relu_3x3_reduce
I0403 19:41:12.431226  9552 net.cpp:425] inception_4e/relu_3x3_reduce <- inception_4e/3x3_reduce
I0403 19:41:12.431249  9552 net.cpp:386] inception_4e/relu_3x3_reduce -> inception_4e/3x3_reduce (in-place)
I0403 19:41:12.431452  9552 net.cpp:141] Setting up inception_4e/relu_3x3_reduce
I0403 19:41:12.431479  9552 net.cpp:148] Top shape: 24 160 14 14 (752640)
I0403 19:41:12.431495  9552 net.cpp:156] Memory required for data: 1224087072
I0403 19:41:12.431511  9552 layer_factory.hpp:77] Creating layer inception_4e/3x3
I0403 19:41:12.431535  9552 net.cpp:91] Creating Layer inception_4e/3x3
I0403 19:41:12.431552  9552 net.cpp:425] inception_4e/3x3 <- inception_4e/3x3_reduce
I0403 19:41:12.431576  9552 net.cpp:399] inception_4e/3x3 -> inception_4e/3x3
I0403 19:41:12.436946  9552 net.cpp:141] Setting up inception_4e/3x3
I0403 19:41:12.436990  9552 net.cpp:148] Top shape: 24 320 14 14 (1505280)
I0403 19:41:12.437007  9552 net.cpp:156] Memory required for data: 1230108192
I0403 19:41:12.437026  9552 layer_factory.hpp:77] Creating layer inception_4e/relu_3x3
I0403 19:41:12.437046  9552 net.cpp:91] Creating Layer inception_4e/relu_3x3
I0403 19:41:12.437062  9552 net.cpp:425] inception_4e/relu_3x3 <- inception_4e/3x3
I0403 19:41:12.437085  9552 net.cpp:386] inception_4e/relu_3x3 -> inception_4e/3x3 (in-place)
I0403 19:41:12.437417  9552 net.cpp:141] Setting up inception_4e/relu_3x3
I0403 19:41:12.437445  9552 net.cpp:148] Top shape: 24 320 14 14 (1505280)
I0403 19:41:12.437460  9552 net.cpp:156] Memory required for data: 1236129312
I0403 19:41:12.437476  9552 layer_factory.hpp:77] Creating layer inception_4e/5x5_reduce
I0403 19:41:12.437502  9552 net.cpp:91] Creating Layer inception_4e/5x5_reduce
I0403 19:41:12.437521  9552 net.cpp:425] inception_4e/5x5_reduce <- inception_4d/output_inception_4d/output_0_split_3
I0403 19:41:12.437544  9552 net.cpp:399] inception_4e/5x5_reduce -> inception_4e/5x5_reduce
I0403 19:41:12.438709  9552 net.cpp:141] Setting up inception_4e/5x5_reduce
I0403 19:41:12.438740  9552 net.cpp:148] Top shape: 24 32 14 14 (150528)
I0403 19:41:12.438756  9552 net.cpp:156] Memory required for data: 1236731424
I0403 19:41:12.438776  9552 layer_factory.hpp:77] Creating layer inception_4e/relu_5x5_reduce
I0403 19:41:12.438794  9552 net.cpp:91] Creating Layer inception_4e/relu_5x5_reduce
I0403 19:41:12.438810  9552 net.cpp:425] inception_4e/relu_5x5_reduce <- inception_4e/5x5_reduce
I0403 19:41:12.438832  9552 net.cpp:386] inception_4e/relu_5x5_reduce -> inception_4e/5x5_reduce (in-place)
I0403 19:41:12.439151  9552 net.cpp:141] Setting up inception_4e/relu_5x5_reduce
I0403 19:41:12.439187  9552 net.cpp:148] Top shape: 24 32 14 14 (150528)
I0403 19:41:12.439204  9552 net.cpp:156] Memory required for data: 1237333536
I0403 19:41:12.439220  9552 layer_factory.hpp:77] Creating layer inception_4e/5x5
I0403 19:41:12.439260  9552 net.cpp:91] Creating Layer inception_4e/5x5
I0403 19:41:12.439280  9552 net.cpp:425] inception_4e/5x5 <- inception_4e/5x5_reduce
I0403 19:41:12.439301  9552 net.cpp:399] inception_4e/5x5 -> inception_4e/5x5
I0403 19:41:12.441282  9552 net.cpp:141] Setting up inception_4e/5x5
I0403 19:41:12.441328  9552 net.cpp:148] Top shape: 24 128 14 14 (602112)
I0403 19:41:12.441345  9552 net.cpp:156] Memory required for data: 1239741984
I0403 19:41:12.441366  9552 layer_factory.hpp:77] Creating layer inception_4e/relu_5x5
I0403 19:41:12.441385  9552 net.cpp:91] Creating Layer inception_4e/relu_5x5
I0403 19:41:12.441402  9552 net.cpp:425] inception_4e/relu_5x5 <- inception_4e/5x5
I0403 19:41:12.441419  9552 net.cpp:386] inception_4e/relu_5x5 -> inception_4e/5x5 (in-place)
I0403 19:41:12.441637  9552 net.cpp:141] Setting up inception_4e/relu_5x5
I0403 19:41:12.441664  9552 net.cpp:148] Top shape: 24 128 14 14 (602112)
I0403 19:41:12.441680  9552 net.cpp:156] Memory required for data: 1242150432
I0403 19:41:12.441696  9552 layer_factory.hpp:77] Creating layer inception_4e/pool
I0403 19:41:12.441716  9552 net.cpp:91] Creating Layer inception_4e/pool
I0403 19:41:12.441733  9552 net.cpp:425] inception_4e/pool <- inception_4d/output_inception_4d/output_0_split_4
I0403 19:41:12.441753  9552 net.cpp:399] inception_4e/pool -> inception_4e/pool
I0403 19:41:12.441829  9552 net.cpp:141] Setting up inception_4e/pool
I0403 19:41:12.441857  9552 net.cpp:148] Top shape: 24 528 14 14 (2483712)
I0403 19:41:12.441874  9552 net.cpp:156] Memory required for data: 1252085280
I0403 19:41:12.441889  9552 layer_factory.hpp:77] Creating layer inception_4e/pool_proj
I0403 19:41:12.441911  9552 net.cpp:91] Creating Layer inception_4e/pool_proj
I0403 19:41:12.441929  9552 net.cpp:425] inception_4e/pool_proj <- inception_4e/pool
I0403 19:41:12.441949  9552 net.cpp:399] inception_4e/pool_proj -> inception_4e/pool_proj
I0403 19:41:12.443625  9552 net.cpp:141] Setting up inception_4e/pool_proj
I0403 19:41:12.443667  9552 net.cpp:148] Top shape: 24 128 14 14 (602112)
I0403 19:41:12.443684  9552 net.cpp:156] Memory required for data: 1254493728
I0403 19:41:12.443703  9552 layer_factory.hpp:77] Creating layer inception_4e/relu_pool_proj
I0403 19:41:12.443725  9552 net.cpp:91] Creating Layer inception_4e/relu_pool_proj
I0403 19:41:12.443743  9552 net.cpp:425] inception_4e/relu_pool_proj <- inception_4e/pool_proj
I0403 19:41:12.443761  9552 net.cpp:386] inception_4e/relu_pool_proj -> inception_4e/pool_proj (in-place)
I0403 19:41:12.444084  9552 net.cpp:141] Setting up inception_4e/relu_pool_proj
I0403 19:41:12.444113  9552 net.cpp:148] Top shape: 24 128 14 14 (602112)
I0403 19:41:12.444129  9552 net.cpp:156] Memory required for data: 1256902176
I0403 19:41:12.444144  9552 layer_factory.hpp:77] Creating layer inception_4e/output
I0403 19:41:12.444165  9552 net.cpp:91] Creating Layer inception_4e/output
I0403 19:41:12.444187  9552 net.cpp:425] inception_4e/output <- inception_4e/1x1
I0403 19:41:12.444205  9552 net.cpp:425] inception_4e/output <- inception_4e/3x3
I0403 19:41:12.444222  9552 net.cpp:425] inception_4e/output <- inception_4e/5x5
I0403 19:41:12.444239  9552 net.cpp:425] inception_4e/output <- inception_4e/pool_proj
I0403 19:41:12.444257  9552 net.cpp:399] inception_4e/output -> inception_4e/output
I0403 19:41:12.444313  9552 net.cpp:141] Setting up inception_4e/output
I0403 19:41:12.444337  9552 net.cpp:148] Top shape: 24 832 14 14 (3913728)
I0403 19:41:12.444352  9552 net.cpp:156] Memory required for data: 1272557088
I0403 19:41:12.444367  9552 layer_factory.hpp:77] Creating layer pool4/3x3_s2
I0403 19:41:12.444386  9552 net.cpp:91] Creating Layer pool4/3x3_s2
I0403 19:41:12.444401  9552 net.cpp:425] pool4/3x3_s2 <- inception_4e/output
I0403 19:41:12.444422  9552 net.cpp:399] pool4/3x3_s2 -> pool4/3x3_s2
I0403 19:41:12.444497  9552 net.cpp:141] Setting up pool4/3x3_s2
I0403 19:41:12.444522  9552 net.cpp:148] Top shape: 24 832 7 7 (978432)
I0403 19:41:12.444537  9552 net.cpp:156] Memory required for data: 1276470816
I0403 19:41:12.444553  9552 layer_factory.hpp:77] Creating layer pool4/3x3_s2_pool4/3x3_s2_0_split
I0403 19:41:12.444571  9552 net.cpp:91] Creating Layer pool4/3x3_s2_pool4/3x3_s2_0_split
I0403 19:41:12.444587  9552 net.cpp:425] pool4/3x3_s2_pool4/3x3_s2_0_split <- pool4/3x3_s2
I0403 19:41:12.444605  9552 net.cpp:399] pool4/3x3_s2_pool4/3x3_s2_0_split -> pool4/3x3_s2_pool4/3x3_s2_0_split_0
I0403 19:41:12.444628  9552 net.cpp:399] pool4/3x3_s2_pool4/3x3_s2_0_split -> pool4/3x3_s2_pool4/3x3_s2_0_split_1
I0403 19:41:12.444650  9552 net.cpp:399] pool4/3x3_s2_pool4/3x3_s2_0_split -> pool4/3x3_s2_pool4/3x3_s2_0_split_2
I0403 19:41:12.444671  9552 net.cpp:399] pool4/3x3_s2_pool4/3x3_s2_0_split -> pool4/3x3_s2_pool4/3x3_s2_0_split_3
I0403 19:41:12.444773  9552 net.cpp:141] Setting up pool4/3x3_s2_pool4/3x3_s2_0_split
I0403 19:41:12.444798  9552 net.cpp:148] Top shape: 24 832 7 7 (978432)
I0403 19:41:12.444815  9552 net.cpp:148] Top shape: 24 832 7 7 (978432)
I0403 19:41:12.444831  9552 net.cpp:148] Top shape: 24 832 7 7 (978432)
I0403 19:41:12.444849  9552 net.cpp:148] Top shape: 24 832 7 7 (978432)
I0403 19:41:12.444862  9552 net.cpp:156] Memory required for data: 1292125728
I0403 19:41:12.444877  9552 layer_factory.hpp:77] Creating layer inception_5a/1x1
I0403 19:41:12.444902  9552 net.cpp:91] Creating Layer inception_5a/1x1
I0403 19:41:12.444921  9552 net.cpp:425] inception_5a/1x1 <- pool4/3x3_s2_pool4/3x3_s2_0_split_0
I0403 19:41:12.444941  9552 net.cpp:399] inception_5a/1x1 -> inception_5a/1x1
I0403 19:41:12.447994  9552 net.cpp:141] Setting up inception_5a/1x1
I0403 19:41:12.448029  9552 net.cpp:148] Top shape: 24 256 7 7 (301056)
I0403 19:41:12.448046  9552 net.cpp:156] Memory required for data: 1293329952
I0403 19:41:12.448066  9552 layer_factory.hpp:77] Creating layer inception_5a/relu_1x1
I0403 19:41:12.448086  9552 net.cpp:91] Creating Layer inception_5a/relu_1x1
I0403 19:41:12.448102  9552 net.cpp:425] inception_5a/relu_1x1 <- inception_5a/1x1
I0403 19:41:12.448123  9552 net.cpp:386] inception_5a/relu_1x1 -> inception_5a/1x1 (in-place)
I0403 19:41:12.448462  9552 net.cpp:141] Setting up inception_5a/relu_1x1
I0403 19:41:12.448492  9552 net.cpp:148] Top shape: 24 256 7 7 (301056)
I0403 19:41:12.448508  9552 net.cpp:156] Memory required for data: 1294534176
I0403 19:41:12.448524  9552 layer_factory.hpp:77] Creating layer inception_5a/3x3_reduce
I0403 19:41:12.448549  9552 net.cpp:91] Creating Layer inception_5a/3x3_reduce
I0403 19:41:12.448567  9552 net.cpp:425] inception_5a/3x3_reduce <- pool4/3x3_s2_pool4/3x3_s2_0_split_1
I0403 19:41:12.448587  9552 net.cpp:399] inception_5a/3x3_reduce -> inception_5a/3x3_reduce
I0403 19:41:12.451323  9552 net.cpp:141] Setting up inception_5a/3x3_reduce
I0403 19:41:12.451354  9552 net.cpp:148] Top shape: 24 160 7 7 (188160)
I0403 19:41:12.451371  9552 net.cpp:156] Memory required for data: 1295286816
I0403 19:41:12.451390  9552 layer_factory.hpp:77] Creating layer inception_5a/relu_3x3_reduce
I0403 19:41:12.451412  9552 net.cpp:91] Creating Layer inception_5a/relu_3x3_reduce
I0403 19:41:12.451429  9552 net.cpp:425] inception_5a/relu_3x3_reduce <- inception_5a/3x3_reduce
I0403 19:41:12.451448  9552 net.cpp:386] inception_5a/relu_3x3_reduce -> inception_5a/3x3_reduce (in-place)
I0403 19:41:12.451663  9552 net.cpp:141] Setting up inception_5a/relu_3x3_reduce
I0403 19:41:12.451689  9552 net.cpp:148] Top shape: 24 160 7 7 (188160)
I0403 19:41:12.451704  9552 net.cpp:156] Memory required for data: 1296039456
I0403 19:41:12.451719  9552 layer_factory.hpp:77] Creating layer inception_5a/3x3
I0403 19:41:12.451746  9552 net.cpp:91] Creating Layer inception_5a/3x3
I0403 19:41:12.451764  9552 net.cpp:425] inception_5a/3x3 <- inception_5a/3x3_reduce
I0403 19:41:12.451784  9552 net.cpp:399] inception_5a/3x3 -> inception_5a/3x3
I0403 19:41:12.457239  9552 net.cpp:141] Setting up inception_5a/3x3
I0403 19:41:12.457273  9552 net.cpp:148] Top shape: 24 320 7 7 (376320)
I0403 19:41:12.457291  9552 net.cpp:156] Memory required for data: 1297544736
I0403 19:41:12.457311  9552 layer_factory.hpp:77] Creating layer inception_5a/relu_3x3
I0403 19:41:12.457330  9552 net.cpp:91] Creating Layer inception_5a/relu_3x3
I0403 19:41:12.457347  9552 net.cpp:425] inception_5a/relu_3x3 <- inception_5a/3x3
I0403 19:41:12.457365  9552 net.cpp:386] inception_5a/relu_3x3 -> inception_5a/3x3 (in-place)
I0403 19:41:12.457682  9552 net.cpp:141] Setting up inception_5a/relu_3x3
I0403 19:41:12.457713  9552 net.cpp:148] Top shape: 24 320 7 7 (376320)
I0403 19:41:12.457729  9552 net.cpp:156] Memory required for data: 1299050016
I0403 19:41:12.457746  9552 layer_factory.hpp:77] Creating layer inception_5a/5x5_reduce
I0403 19:41:12.457770  9552 net.cpp:91] Creating Layer inception_5a/5x5_reduce
I0403 19:41:12.457789  9552 net.cpp:425] inception_5a/5x5_reduce <- pool4/3x3_s2_pool4/3x3_s2_0_split_2
I0403 19:41:12.457809  9552 net.cpp:399] inception_5a/5x5_reduce -> inception_5a/5x5_reduce
I0403 19:41:12.459085  9552 net.cpp:141] Setting up inception_5a/5x5_reduce
I0403 19:41:12.459118  9552 net.cpp:148] Top shape: 24 32 7 7 (37632)
I0403 19:41:12.459136  9552 net.cpp:156] Memory required for data: 1299200544
I0403 19:41:12.459156  9552 layer_factory.hpp:77] Creating layer inception_5a/relu_5x5_reduce
I0403 19:41:12.459174  9552 net.cpp:91] Creating Layer inception_5a/relu_5x5_reduce
I0403 19:41:12.459197  9552 net.cpp:425] inception_5a/relu_5x5_reduce <- inception_5a/5x5_reduce
I0403 19:41:12.459218  9552 net.cpp:386] inception_5a/relu_5x5_reduce -> inception_5a/5x5_reduce (in-place)
I0403 19:41:12.459539  9552 net.cpp:141] Setting up inception_5a/relu_5x5_reduce
I0403 19:41:12.459570  9552 net.cpp:148] Top shape: 24 32 7 7 (37632)
I0403 19:41:12.459586  9552 net.cpp:156] Memory required for data: 1299351072
I0403 19:41:12.459602  9552 layer_factory.hpp:77] Creating layer inception_5a/5x5
I0403 19:41:12.459627  9552 net.cpp:91] Creating Layer inception_5a/5x5
I0403 19:41:12.459645  9552 net.cpp:425] inception_5a/5x5 <- inception_5a/5x5_reduce
I0403 19:41:12.459666  9552 net.cpp:399] inception_5a/5x5 -> inception_5a/5x5
I0403 19:41:12.461529  9552 net.cpp:141] Setting up inception_5a/5x5
I0403 19:41:12.461576  9552 net.cpp:148] Top shape: 24 128 7 7 (150528)
I0403 19:41:12.461594  9552 net.cpp:156] Memory required for data: 1299953184
I0403 19:41:12.461613  9552 layer_factory.hpp:77] Creating layer inception_5a/relu_5x5
I0403 19:41:12.461632  9552 net.cpp:91] Creating Layer inception_5a/relu_5x5
I0403 19:41:12.461649  9552 net.cpp:425] inception_5a/relu_5x5 <- inception_5a/5x5
I0403 19:41:12.461668  9552 net.cpp:386] inception_5a/relu_5x5 -> inception_5a/5x5 (in-place)
I0403 19:41:12.461879  9552 net.cpp:141] Setting up inception_5a/relu_5x5
I0403 19:41:12.461905  9552 net.cpp:148] Top shape: 24 128 7 7 (150528)
I0403 19:41:12.461921  9552 net.cpp:156] Memory required for data: 1300555296
I0403 19:41:12.461936  9552 layer_factory.hpp:77] Creating layer inception_5a/pool
I0403 19:41:12.461954  9552 net.cpp:91] Creating Layer inception_5a/pool
I0403 19:41:12.461971  9552 net.cpp:425] inception_5a/pool <- pool4/3x3_s2_pool4/3x3_s2_0_split_3
I0403 19:41:12.461992  9552 net.cpp:399] inception_5a/pool -> inception_5a/pool
I0403 19:41:12.462069  9552 net.cpp:141] Setting up inception_5a/pool
I0403 19:41:12.462096  9552 net.cpp:148] Top shape: 24 832 7 7 (978432)
I0403 19:41:12.462112  9552 net.cpp:156] Memory required for data: 1304469024
I0403 19:41:12.462127  9552 layer_factory.hpp:77] Creating layer inception_5a/pool_proj
I0403 19:41:12.462151  9552 net.cpp:91] Creating Layer inception_5a/pool_proj
I0403 19:41:12.462168  9552 net.cpp:425] inception_5a/pool_proj <- inception_5a/pool
I0403 19:41:12.462194  9552 net.cpp:399] inception_5a/pool_proj -> inception_5a/pool_proj
I0403 19:41:12.464709  9552 net.cpp:141] Setting up inception_5a/pool_proj
I0403 19:41:12.464740  9552 net.cpp:148] Top shape: 24 128 7 7 (150528)
I0403 19:41:12.464756  9552 net.cpp:156] Memory required for data: 1305071136
I0403 19:41:12.464776  9552 layer_factory.hpp:77] Creating layer inception_5a/relu_pool_proj
I0403 19:41:12.464797  9552 net.cpp:91] Creating Layer inception_5a/relu_pool_proj
I0403 19:41:12.464815  9552 net.cpp:425] inception_5a/relu_pool_proj <- inception_5a/pool_proj
I0403 19:41:12.464833  9552 net.cpp:386] inception_5a/relu_pool_proj -> inception_5a/pool_proj (in-place)
I0403 19:41:12.465157  9552 net.cpp:141] Setting up inception_5a/relu_pool_proj
I0403 19:41:12.465189  9552 net.cpp:148] Top shape: 24 128 7 7 (150528)
I0403 19:41:12.465207  9552 net.cpp:156] Memory required for data: 1305673248
I0403 19:41:12.465224  9552 layer_factory.hpp:77] Creating layer inception_5a/output
I0403 19:41:12.465245  9552 net.cpp:91] Creating Layer inception_5a/output
I0403 19:41:12.465261  9552 net.cpp:425] inception_5a/output <- inception_5a/1x1
I0403 19:41:12.465278  9552 net.cpp:425] inception_5a/output <- inception_5a/3x3
I0403 19:41:12.465296  9552 net.cpp:425] inception_5a/output <- inception_5a/5x5
I0403 19:41:12.465312  9552 net.cpp:425] inception_5a/output <- inception_5a/pool_proj
I0403 19:41:12.465330  9552 net.cpp:399] inception_5a/output -> inception_5a/output
I0403 19:41:12.465385  9552 net.cpp:141] Setting up inception_5a/output
I0403 19:41:12.465410  9552 net.cpp:148] Top shape: 24 832 7 7 (978432)
I0403 19:41:12.465425  9552 net.cpp:156] Memory required for data: 1309586976
I0403 19:41:12.465441  9552 layer_factory.hpp:77] Creating layer inception_5a/output_inception_5a/output_0_split
I0403 19:41:12.465459  9552 net.cpp:91] Creating Layer inception_5a/output_inception_5a/output_0_split
I0403 19:41:12.465476  9552 net.cpp:425] inception_5a/output_inception_5a/output_0_split <- inception_5a/output
I0403 19:41:12.465497  9552 net.cpp:399] inception_5a/output_inception_5a/output_0_split -> inception_5a/output_inception_5a/output_0_split_0
I0403 19:41:12.465519  9552 net.cpp:399] inception_5a/output_inception_5a/output_0_split -> inception_5a/output_inception_5a/output_0_split_1
I0403 19:41:12.465541  9552 net.cpp:399] inception_5a/output_inception_5a/output_0_split -> inception_5a/output_inception_5a/output_0_split_2
I0403 19:41:12.465562  9552 net.cpp:399] inception_5a/output_inception_5a/output_0_split -> inception_5a/output_inception_5a/output_0_split_3
I0403 19:41:12.465687  9552 net.cpp:141] Setting up inception_5a/output_inception_5a/output_0_split
I0403 19:41:12.465714  9552 net.cpp:148] Top shape: 24 832 7 7 (978432)
I0403 19:41:12.465733  9552 net.cpp:148] Top shape: 24 832 7 7 (978432)
I0403 19:41:12.465749  9552 net.cpp:148] Top shape: 24 832 7 7 (978432)
I0403 19:41:12.465765  9552 net.cpp:148] Top shape: 24 832 7 7 (978432)
I0403 19:41:12.465780  9552 net.cpp:156] Memory required for data: 1325241888
I0403 19:41:12.465795  9552 layer_factory.hpp:77] Creating layer inception_5b/1x1
I0403 19:41:12.465818  9552 net.cpp:91] Creating Layer inception_5b/1x1
I0403 19:41:12.465837  9552 net.cpp:425] inception_5b/1x1 <- inception_5a/output_inception_5a/output_0_split_0
I0403 19:41:12.465857  9552 net.cpp:399] inception_5b/1x1 -> inception_5b/1x1
I0403 19:41:12.469938  9552 net.cpp:141] Setting up inception_5b/1x1
I0403 19:41:12.469969  9552 net.cpp:148] Top shape: 24 384 7 7 (451584)
I0403 19:41:12.469986  9552 net.cpp:156] Memory required for data: 1327048224
I0403 19:41:12.470005  9552 layer_factory.hpp:77] Creating layer inception_5b/relu_1x1
I0403 19:41:12.470027  9552 net.cpp:91] Creating Layer inception_5b/relu_1x1
I0403 19:41:12.470044  9552 net.cpp:425] inception_5b/relu_1x1 <- inception_5b/1x1
I0403 19:41:12.470063  9552 net.cpp:386] inception_5b/relu_1x1 -> inception_5b/1x1 (in-place)
I0403 19:41:12.470398  9552 net.cpp:141] Setting up inception_5b/relu_1x1
I0403 19:41:12.470427  9552 net.cpp:148] Top shape: 24 384 7 7 (451584)
I0403 19:41:12.470441  9552 net.cpp:156] Memory required for data: 1328854560
I0403 19:41:12.470458  9552 layer_factory.hpp:77] Creating layer inception_5b/3x3_reduce
I0403 19:41:12.470481  9552 net.cpp:91] Creating Layer inception_5b/3x3_reduce
I0403 19:41:12.470499  9552 net.cpp:425] inception_5b/3x3_reduce <- inception_5a/output_inception_5a/output_0_split_1
I0403 19:41:12.470522  9552 net.cpp:399] inception_5b/3x3_reduce -> inception_5b/3x3_reduce
I0403 19:41:12.473515  9552 net.cpp:141] Setting up inception_5b/3x3_reduce
I0403 19:41:12.473546  9552 net.cpp:148] Top shape: 24 192 7 7 (225792)
I0403 19:41:12.473563  9552 net.cpp:156] Memory required for data: 1329757728
I0403 19:41:12.473582  9552 layer_factory.hpp:77] Creating layer inception_5b/relu_3x3_reduce
I0403 19:41:12.473604  9552 net.cpp:91] Creating Layer inception_5b/relu_3x3_reduce
I0403 19:41:12.473623  9552 net.cpp:425] inception_5b/relu_3x3_reduce <- inception_5b/3x3_reduce
I0403 19:41:12.473640  9552 net.cpp:386] inception_5b/relu_3x3_reduce -> inception_5b/3x3_reduce (in-place)
I0403 19:41:12.473850  9552 net.cpp:141] Setting up inception_5b/relu_3x3_reduce
I0403 19:41:12.473878  9552 net.cpp:148] Top shape: 24 192 7 7 (225792)
I0403 19:41:12.473894  9552 net.cpp:156] Memory required for data: 1330660896
I0403 19:41:12.473911  9552 layer_factory.hpp:77] Creating layer inception_5b/3x3
I0403 19:41:12.473932  9552 net.cpp:91] Creating Layer inception_5b/3x3
I0403 19:41:12.473951  9552 net.cpp:425] inception_5b/3x3 <- inception_5b/3x3_reduce
I0403 19:41:12.473971  9552 net.cpp:399] inception_5b/3x3 -> inception_5b/3x3
I0403 19:41:12.481143  9552 net.cpp:141] Setting up inception_5b/3x3
I0403 19:41:12.481174  9552 net.cpp:148] Top shape: 24 384 7 7 (451584)
I0403 19:41:12.481196  9552 net.cpp:156] Memory required for data: 1332467232
I0403 19:41:12.481216  9552 layer_factory.hpp:77] Creating layer inception_5b/relu_3x3
I0403 19:41:12.481240  9552 net.cpp:91] Creating Layer inception_5b/relu_3x3
I0403 19:41:12.481258  9552 net.cpp:425] inception_5b/relu_3x3 <- inception_5b/3x3
I0403 19:41:12.481276  9552 net.cpp:386] inception_5b/relu_3x3 -> inception_5b/3x3 (in-place)
I0403 19:41:12.481602  9552 net.cpp:141] Setting up inception_5b/relu_3x3
I0403 19:41:12.481631  9552 net.cpp:148] Top shape: 24 384 7 7 (451584)
I0403 19:41:12.481645  9552 net.cpp:156] Memory required for data: 1334273568
I0403 19:41:12.481662  9552 layer_factory.hpp:77] Creating layer inception_5b/5x5_reduce
I0403 19:41:12.481705  9552 net.cpp:91] Creating Layer inception_5b/5x5_reduce
I0403 19:41:12.481725  9552 net.cpp:425] inception_5b/5x5_reduce <- inception_5a/output_inception_5a/output_0_split_2
I0403 19:41:12.481746  9552 net.cpp:399] inception_5b/5x5_reduce -> inception_5b/5x5_reduce
I0403 19:41:12.483163  9552 net.cpp:141] Setting up inception_5b/5x5_reduce
I0403 19:41:12.483204  9552 net.cpp:148] Top shape: 24 48 7 7 (56448)
I0403 19:41:12.483222  9552 net.cpp:156] Memory required for data: 1334499360
I0403 19:41:12.483242  9552 layer_factory.hpp:77] Creating layer inception_5b/relu_5x5_reduce
I0403 19:41:12.483264  9552 net.cpp:91] Creating Layer inception_5b/relu_5x5_reduce
I0403 19:41:12.483283  9552 net.cpp:425] inception_5b/relu_5x5_reduce <- inception_5b/5x5_reduce
I0403 19:41:12.483301  9552 net.cpp:386] inception_5b/relu_5x5_reduce -> inception_5b/5x5_reduce (in-place)
I0403 19:41:12.483705  9552 net.cpp:141] Setting up inception_5b/relu_5x5_reduce
I0403 19:41:12.483733  9552 net.cpp:148] Top shape: 24 48 7 7 (56448)
I0403 19:41:12.483748  9552 net.cpp:156] Memory required for data: 1334725152
I0403 19:41:12.483764  9552 layer_factory.hpp:77] Creating layer inception_5b/5x5
I0403 19:41:12.483785  9552 net.cpp:91] Creating Layer inception_5b/5x5
I0403 19:41:12.483803  9552 net.cpp:425] inception_5b/5x5 <- inception_5b/5x5_reduce
I0403 19:41:12.483824  9552 net.cpp:399] inception_5b/5x5 -> inception_5b/5x5
I0403 19:41:12.486039  9552 net.cpp:141] Setting up inception_5b/5x5
I0403 19:41:12.486088  9552 net.cpp:148] Top shape: 24 128 7 7 (150528)
I0403 19:41:12.486105  9552 net.cpp:156] Memory required for data: 1335327264
I0403 19:41:12.486143  9552 layer_factory.hpp:77] Creating layer inception_5b/relu_5x5
I0403 19:41:12.486167  9552 net.cpp:91] Creating Layer inception_5b/relu_5x5
I0403 19:41:12.486210  9552 net.cpp:425] inception_5b/relu_5x5 <- inception_5b/5x5
I0403 19:41:12.486245  9552 net.cpp:386] inception_5b/relu_5x5 -> inception_5b/5x5 (in-place)
I0403 19:41:12.486461  9552 net.cpp:141] Setting up inception_5b/relu_5x5
I0403 19:41:12.486488  9552 net.cpp:148] Top shape: 24 128 7 7 (150528)
I0403 19:41:12.486503  9552 net.cpp:156] Memory required for data: 1335929376
I0403 19:41:12.486520  9552 layer_factory.hpp:77] Creating layer inception_5b/pool
I0403 19:41:12.486537  9552 net.cpp:91] Creating Layer inception_5b/pool
I0403 19:41:12.486554  9552 net.cpp:425] inception_5b/pool <- inception_5a/output_inception_5a/output_0_split_3
I0403 19:41:12.486577  9552 net.cpp:399] inception_5b/pool -> inception_5b/pool
I0403 19:41:12.486656  9552 net.cpp:141] Setting up inception_5b/pool
I0403 19:41:12.486681  9552 net.cpp:148] Top shape: 24 832 7 7 (978432)
I0403 19:41:12.486696  9552 net.cpp:156] Memory required for data: 1339843104
I0403 19:41:12.486711  9552 layer_factory.hpp:77] Creating layer inception_5b/pool_proj
I0403 19:41:12.486737  9552 net.cpp:91] Creating Layer inception_5b/pool_proj
I0403 19:41:12.486755  9552 net.cpp:425] inception_5b/pool_proj <- inception_5b/pool
I0403 19:41:12.486776  9552 net.cpp:399] inception_5b/pool_proj -> inception_5b/pool_proj
I0403 19:41:12.489261  9552 net.cpp:141] Setting up inception_5b/pool_proj
I0403 19:41:12.489294  9552 net.cpp:148] Top shape: 24 128 7 7 (150528)
I0403 19:41:12.489313  9552 net.cpp:156] Memory required for data: 1340445216
I0403 19:41:12.489333  9552 layer_factory.hpp:77] Creating layer inception_5b/relu_pool_proj
I0403 19:41:12.489352  9552 net.cpp:91] Creating Layer inception_5b/relu_pool_proj
I0403 19:41:12.489369  9552 net.cpp:425] inception_5b/relu_pool_proj <- inception_5b/pool_proj
I0403 19:41:12.489387  9552 net.cpp:386] inception_5b/relu_pool_proj -> inception_5b/pool_proj (in-place)
I0403 19:41:12.489711  9552 net.cpp:141] Setting up inception_5b/relu_pool_proj
I0403 19:41:12.489742  9552 net.cpp:148] Top shape: 24 128 7 7 (150528)
I0403 19:41:12.489766  9552 net.cpp:156] Memory required for data: 1341047328
I0403 19:41:12.489783  9552 layer_factory.hpp:77] Creating layer inception_5b/output
I0403 19:41:12.489801  9552 net.cpp:91] Creating Layer inception_5b/output
I0403 19:41:12.489832  9552 net.cpp:425] inception_5b/output <- inception_5b/1x1
I0403 19:41:12.489851  9552 net.cpp:425] inception_5b/output <- inception_5b/3x3
I0403 19:41:12.489868  9552 net.cpp:425] inception_5b/output <- inception_5b/5x5
I0403 19:41:12.489886  9552 net.cpp:425] inception_5b/output <- inception_5b/pool_proj
I0403 19:41:12.489903  9552 net.cpp:399] inception_5b/output -> inception_5b/output
I0403 19:41:12.489959  9552 net.cpp:141] Setting up inception_5b/output
I0403 19:41:12.489985  9552 net.cpp:148] Top shape: 24 1024 7 7 (1204224)
I0403 19:41:12.490000  9552 net.cpp:156] Memory required for data: 1345864224
I0403 19:41:12.490015  9552 layer_factory.hpp:77] Creating layer pool5/7x7_s1
I0403 19:41:12.490036  9552 net.cpp:91] Creating Layer pool5/7x7_s1
I0403 19:41:12.490052  9552 net.cpp:425] pool5/7x7_s1 <- inception_5b/output
I0403 19:41:12.490072  9552 net.cpp:399] pool5/7x7_s1 -> pool5/7x7_s1
I0403 19:41:12.490313  9552 net.cpp:141] Setting up pool5/7x7_s1
I0403 19:41:12.490344  9552 net.cpp:148] Top shape: 24 1024 1 1 (24576)
I0403 19:41:12.490360  9552 net.cpp:156] Memory required for data: 1345962528
I0403 19:41:12.490375  9552 layer_factory.hpp:77] Creating layer pool5/drop_7x7_s1
I0403 19:41:12.490394  9552 net.cpp:91] Creating Layer pool5/drop_7x7_s1
I0403 19:41:12.490411  9552 net.cpp:425] pool5/drop_7x7_s1 <- pool5/7x7_s1
I0403 19:41:12.490429  9552 net.cpp:386] pool5/drop_7x7_s1 -> pool5/7x7_s1 (in-place)
I0403 19:41:12.490483  9552 net.cpp:141] Setting up pool5/drop_7x7_s1
I0403 19:41:12.490509  9552 net.cpp:148] Top shape: 24 1024 1 1 (24576)
I0403 19:41:12.490523  9552 net.cpp:156] Memory required for data: 1346060832
I0403 19:41:12.490540  9552 layer_factory.hpp:77] Creating layer loss3/classifier_plantvillage
I0403 19:41:12.490561  9552 net.cpp:91] Creating Layer loss3/classifier_plantvillage
I0403 19:41:12.490578  9552 net.cpp:425] loss3/classifier_plantvillage <- pool5/7x7_s1
I0403 19:41:12.490598  9552 net.cpp:399] loss3/classifier_plantvillage -> loss3/classifier_plantvillage
I0403 19:41:12.491055  9552 net.cpp:141] Setting up loss3/classifier_plantvillage
I0403 19:41:12.491082  9552 net.cpp:148] Top shape: 24 38 (912)
I0403 19:41:12.491097  9552 net.cpp:156] Memory required for data: 1346064480
I0403 19:41:12.491117  9552 layer_factory.hpp:77] Creating layer loss3/classifier_plantvillage_loss3/classifier_plantvillage_0_split
I0403 19:41:12.491135  9552 net.cpp:91] Creating Layer loss3/classifier_plantvillage_loss3/classifier_plantvillage_0_split
I0403 19:41:12.491152  9552 net.cpp:425] loss3/classifier_plantvillage_loss3/classifier_plantvillage_0_split <- loss3/classifier_plantvillage
I0403 19:41:12.491173  9552 net.cpp:399] loss3/classifier_plantvillage_loss3/classifier_plantvillage_0_split -> loss3/classifier_plantvillage_loss3/classifier_plantvillage_0_split_0
I0403 19:41:12.491201  9552 net.cpp:399] loss3/classifier_plantvillage_loss3/classifier_plantvillage_0_split -> loss3/classifier_plantvillage_loss3/classifier_plantvillage_0_split_1
I0403 19:41:12.491222  9552 net.cpp:399] loss3/classifier_plantvillage_loss3/classifier_plantvillage_0_split -> loss3/classifier_plantvillage_loss3/classifier_plantvillage_0_split_2
I0403 19:41:12.491243  9552 net.cpp:399] loss3/classifier_plantvillage_loss3/classifier_plantvillage_0_split -> loss3/classifier_plantvillage_loss3/classifier_plantvillage_0_split_3
I0403 19:41:12.491355  9552 net.cpp:141] Setting up loss3/classifier_plantvillage_loss3/classifier_plantvillage_0_split
I0403 19:41:12.491382  9552 net.cpp:148] Top shape: 24 38 (912)
I0403 19:41:12.491400  9552 net.cpp:148] Top shape: 24 38 (912)
I0403 19:41:12.491416  9552 net.cpp:148] Top shape: 24 38 (912)
I0403 19:41:12.491435  9552 net.cpp:148] Top shape: 24 38 (912)
I0403 19:41:12.491449  9552 net.cpp:156] Memory required for data: 1346079072
I0403 19:41:12.491464  9552 layer_factory.hpp:77] Creating layer loss1/loss
I0403 19:41:12.491487  9552 net.cpp:91] Creating Layer loss1/loss
I0403 19:41:12.491504  9552 net.cpp:425] loss1/loss <- loss1/classifier_plantvillage_loss1/classifier_plantvillage_0_split_0
I0403 19:41:12.491536  9552 net.cpp:425] loss1/loss <- label_data_1_split_0
…
