…
I0403 19:05:48.992283  8623 net.cpp:313] The NetState phase (1) differed from the phase (0) specified by a rule in layer data
I0403 19:05:48.993448  8623 net.cpp:49] Initializing net from parameters: 
state {
  phase: TEST
}
layer {
  name: "data"
  type: "Data"
  top: "data"
  top: "label"
  include {
    phase: TEST
  }
  transform_param {
    mirror: false
    crop_size: 224
    mean_file: "/home/mohanty/data/final_dataset/lmdb/grayscale-50-50/mean.binaryproto"
  }
  data_param {
    source: "/home/mohanty/data/final_dataset/lmdb/grayscale-50-50/test_db"
    batch_size: 24
    backend: LMDB
  }
}
layer {
  name: "conv1/7x7_s2"
  type: "Convolution"
  bottom: "data"
  top: "conv1/7x7_s2"
  param {
    lr_mult: 1
    decay_mult: 1
  }
  param {
    lr_mult: 2
    decay_mult: 0
  }
  convolution_param {
    num_output: 64
    pad: 3
    kernel_size: 7
    stride: 2
    weight_filler {
      type: "xavier"
      std: 0.1
    }
    bias_filler {
      type: "constant"
      value: 0.2
    }
  }
}
layer {
  name: "conv1/relu_7x7"
  type: "ReLU"
  bottom: "conv1/7x7_s2"
  top: "conv1/7x7_s2"
}
layer {
  name: "pool1/3x3_s2"
  type: "Pooling"
  bottom: "conv1/7x7_s2"
  top: "pool1/3x3_s2"
  pooling_param {
    pool: MAX
    kernel_size: 3
    stride: 2
  }
}
layer {
  name: "pool1/norm1"
  type: "LRN"
  bottom: "pool1/3x3_s2"
  top: "pool1/norm1"
  lrn_param {
    local_size: 5
    alpha: 0.0001
    beta: 0.75
  }
}
layer {
  name: "conv2/3x3_reduce"
  type: "Convolution"
  bottom: "pool1/norm1"
  top: "conv2/3x3_reduce"
  param {
    lr_mult: 1
    decay_mult: 1
  }
  param {
    lr_mult: 2
    decay_mult: 0
  }
  convolution_param {
    num_output: 64
    kernel_size: 1
    weight_filler {
      type: "xavier"
      std: 0.1
    }
    bias_filler {
      type: "constant"
      value: 0.2
    }
  }
}
layer {
  name: "conv2/relu_3x3_reduce"
  type: "ReLU"
  bottom: "conv2/3x3_reduce"
  top: "conv2/3x3_reduce"
}
layer {
  name: "conv2/3x3"
  type: "Convolution"
  bottom: "conv2/3x3_reduce"
  top: "conv2/3x3"
  param {
    lr_mult: 1
    decay_mult: 1
  }
  param {
    lr_mult: 2
    decay_mult: 0
  }
  convolution_param {
    num_output: 192
    pad: 1
    kernel_size: 3
    weight_filler {
      type: "xavier"
      std: 0.03
    }
    bias_filler {
      type: "constant"
      value: 0.2
    }
  }
}
layer {
  name: "conv2/relu_3x3"
  type: "ReLU"
  bottom: "conv2/3x3"
  top: "conv2/3x3"
}
layer {
  name: "conv2/norm2"
  type: "LRN"
  bottom: "conv2/3x3"
  top: "conv2/norm2"
  lrn_param {
    local_size: 5
    alpha: 0.0001
    beta: 0.75
  }
}
layer {
  name: "pool2/3x3_s2"
  type: "Pooling"
  bottom: "conv2/norm2"
  top: "pool2/3x3_s2"
  pooling_param {
    pool: MAX
    kernel_size: 3
    stride: 2
  }
}
layer {
  name: "inception_3a/1x1"
  type: "Convolution"
  bottom: "pool2/3x3_s2"
  top: "inception_3a/1x1"
  param {
    lr_mult: 1
    decay_mult: 1
  }
  param {
    lr_mult: 2
    decay_mult: 0
  }
  convolution_param {
    num_output: 64
    kernel_size: 1
    weight_filler {
      type: "xavier"
      std: 0.03
    }
    bias_filler {
      type: "constant"
      value: 0.2
    }
  }
}
layer {
  name: "inception_3a/relu_1x1"
  type: "ReLU"
  bottom: "inception_3a/1x1"
  top: "inception_3a/1x1"
}
layer {
  name: "inception_3a/3x3_reduce"
  type: "Convolution"
  bottom: "pool2/3x3_s2"
  top: "inception_3a/3x3_reduce"
  param {
    lr_mult: 1
    decay_mult: 1
  }
  param {
    lr_mult: 2
    decay_mult: 0
  }
  convolution_param {
    num_output: 96
    kernel_size: 1
    weight_filler {
      type: "xavier"
      std: 0.09
    }
    bias_filler {
      type: "constant"
      value: 0.2
    }
  }
}
layer {
  name: "inception_3a/relu_3x3_reduce"
  type: "ReLU"
  bottom: "inception_3a/3x3_reduce"
  top: "inception_3a/3x3_reduce"
}
layer {
  name: "inception_3a/3x3"
  type: "Convolution"
  bottom: "inception_3a/3x3_reduce"
  top: "inception_3a/3x3"
  param {
    lr_mult: 1
    decay_mult: 1
  }
  param {
    lr_mult: 2
    decay_mult: 0
  }
  convolution_param {
    num_output: 128
    pad: 1
    kernel_size: 3
    weight_filler {
      type: "xavier"
      std: 0.03
    }
    bias_filler {
      type: "constant"
      value: 0.2
    }
  }
}
layer {
  name: "inception_3a/relu_3x3"
  type: "ReLU"
  bottom: "inception_3a/3x3"
  top: "inception_3a/3x3"
}
layer {
  name: "inception_3a/5x5_reduce"
  type: "Convolution"
  bottom: "pool2/3x3_s2"
  top: "inception_3a/5x5_reduce"
  param {
    lr_mult: 1
    decay_mult: 1
  }
  param {
    lr_mult: 2
    decay_mult: 0
  }
  convolution_param {
    num_output: 16
    kernel_size: 1
    weight_filler {
      type: "xavier"
      std: 0.2
    }
    bias_filler {
      type: "constant"
      value: 0.2
    }
  }
}
layer {
  name: "inception_3a/relu_5x5_reduce"
  type: "ReLU"
  bottom: "inception_3a/5x5_reduce"
  top: "inception_3a/5x5_reduce"
}
layer {
  name: "inception_3a/5x5"
  type: "Convolution"
  bottom: "inception_3a/5x5_reduce"
  top: "inception_3a/5x5"
  param {
    lr_mult: 1
    decay_mult: 1
  }
  param {
    lr_mult: 2
    decay_mult: 0
  }
  convolution_param {
    num_output: 32
    pad: 2
    kernel_size: 5
    weight_filler {
      type: "xavier"
      std: 0.03
    }
    bias_filler {
      type: "constant"
      value: 0.2
    }
  }
}
layer {
  name: "inception_3a/relu_5x5"
  type: "ReLU"
  bottom: "inception_3a/5x5"
  top: "inception_3a/5x5"
}
layer {
  name: "inception_3a/pool"
  type: "Pooling"
  bottom: "pool2/3x3_s2"
  top: "inception_3a/pool"
  pooling_param {
    pool: MAX
    kernel_size: 3
    stride: 1
    pad: 1
  }
}
layer {
  name: "inception_3a/pool_proj"
  type: "Convolution"
  bottom: "inception_3a/pool"
  top: "inception_3a/pool_proj"
  param {
    lr_mult: 1
    decay_mult: 1
  }
  param {
    lr_mult: 2
    decay_mult: 0
  }
  convolution_param {
    num_output: 32
    kernel_size: 1
    weight_filler {
      type: "xavier"
      std: 0.1
    }
    bias_filler {
      type: "constant"
      value: 0.2
    }
  }
}
layer {
  name: "inception_3a/relu_pool_proj"
  type: "ReLU"
  bottom: "inception_3a/pool_proj"
  top: "inception_3a/pool_proj"
}
layer {
  name: "inception_3a/output"
  type: "Concat"
  bottom: "inception_3a/1x1"
  bottom: "inception_3a/3x3"
  bottom: "inception_3a/5x5"
  bottom: "inception_3a/pool_proj"
  top: "inception_3a/output"
}
layer {
  name: "inception_3b/1x1"
  type: "Convolution"
  bottom: "inception_3a/output"
  top: "inception_3b/1x1"
  param {
    lr_mult: 1
    decay_mult: 1
  }
  param {
    lr_mult: 2
    decay_mult: 0
  }
  convolution_param {
    num_output: 128
    kernel_size: 1
    weight_filler {
      type: "xavier"
      std: 0.03
    }
    bias_filler {
      type: "constant"
      value: 0.2
    }
  }
}
layer {
  name: "inception_3b/relu_1x1"
  type: "ReLU"
  bottom: "inception_3b/1x1"
  top: "inception_3b/1x1"
}
layer {
  name: "inception_3b/3x3_reduce"
  type: "Convolution"
  bottom: "inception_3a/output"
  top: "inception_3b/3x3_reduce"
  param {
    lr_mult: 1
    decay_mult: 1
  }
  param {
    lr_mult: 2
    decay_mult: 0
  }
  convolution_param {
    num_output: 128
    kernel_size: 1
    weight_filler {
      type: "xavier"
      std: 0.09
    }
    bias_filler {
      type: "constant"
      value: 0.2
    }
  }
}
layer {
  name: "inception_3b/relu_3x3_reduce"
  type: "ReLU"
  bottom: "inception_3b/3x3_reduce"
  top: "inception_3b/3x3_reduce"
}
layer {
  name: "inception_3b/3x3"
  type: "Convolution"
  bottom: "inception_3b/3x3_reduce"
  top: "inception_3b/3x3"
  param {
    lr_mult: 1
    decay_mult: 1
  }
  param {
    lr_mult: 2
    decay_mult: 0
  }
  convolution_param {
    num_output: 192
    pad: 1
    kernel_size: 3
    weight_filler {
      type: "xavier"
      std: 0.03
    }
    bias_filler {
      type: "constant"
      value: 0.2
    }
  }
}
layer {
  name: "inception_3b/relu_3x3"
  type: "ReLU"
  bottom: "inception_3b/3x3"
  top: "inception_3b/3x3"
}
layer {
  name: "inception_3b/5x5_reduce"
  type: "Convolution"
  bottom: "inception_3a/output"
  top: "inception_3b/5x5_reduce"
  param {
    lr_mult: 1
    decay_mult: 1
  }
  param {
    lr_mult: 2
    decay_mult: 0
  }
  convolution_param {
    num_output: 32
    kernel_size: 1
    weight_filler {
      type: "xavier"
      std: 0.2
    }
    bias_filler {
      type: "constant"
      value: 0.2
    }
  }
}
layer {
  name: "inception_3b/relu_5x5_reduce"
  type: "ReLU"
  bottom: "inception_3b/5x5_reduce"
  top: "inception_3b/5x5_reduce"
}
layer {
  name: "inception_3b/5x5"
  type: "Convolution"
  bottom: "inception_3b/5x5_reduce"
  top: "inception_3b/5x5"
  param {
    lr_mult: 1
    decay_mult: 1
  }
  param {
    lr_mult: 2
    decay_mult: 0
  }
  convolution_param {
    num_output: 96
    pad: 2
    kernel_size: 5
    weight_filler {
      type: "xavier"
      std: 0.03
    }
    bias_filler {
      type: "constant"
      value: 0.2
    }
  }
}
layer {
  name: "inception_3b/relu_5x5"
  type: "ReLU"
  bottom: "inception_3b/5x5"
  top: "inception_3b/5x5"
}
layer {
  name: "inception_3b/pool"
  type: "Pooling"
  bottom: "inception_3a/output"
  top: "inception_3b/pool"
  pooling_param {
    pool: MAX
    kernel_size: 3
    stride: 1
    pad: 1
  }
}
layer {
  name: "inception_3b/pool_proj"
  type: "Convolution"
  bottom: "inception_3b/pool"
  top: "inception_3b/pool_proj"
  param {
    lr_mult: 1
    decay_mult: 1
  }
  param {
    lr_mult: 2
    decay_mult: 0
  }
  convolution_param {
    num_output: 64
    kernel_size: 1
    weight_filler {
      type: "xavier"
      std: 0.1
    }
    bias_filler {
      type: "constant"
      value: 0.2
    }
  }
}
layer {
  name: "inception_3b/relu_pool_proj"
  type: "ReLU"
  bottom: "inception_3b/pool_proj"
  top: "inception_3b/pool_proj"
}
layer {
  name: "inception_3b/output"
  type: "Concat"
  bottom: "inception_3b/1x1"
  bottom: "inception_3b/3x3"
  bottom: "inception_3b/5x5"
  bottom: "inception_3b/pool_proj"
  top: "inception_3b/output"
}
layer {
  name: "pool3/3x3_s2"
  type: "Pooling"
  bottom: "inception_3b/output"
  top: "pool3/3x3_s2"
  pooling_param {
    pool: MAX
    kernel_size: 3
    stride: 2
  }
}
layer {
  name: "inception_4a/1x1"
  type: "Convolution"
  bottom: "pool3/3x3_s2"
  top: "inception_4a/1x1"
  param {
    lr_mult: 1
    decay_mult: 1
  }
  param {
    lr_mult: 2
    decay_mult: 0
  }
  convolution_param {
    num_output: 192
    kernel_size: 1
    weight_filler {
      type: "xavier"
      std: 0.03
    }
    bias_filler {
      type: "constant"
      value: 0.2
    }
  }
}
layer {
  name: "inception_4a/relu_1x1"
  type: "ReLU"
  bottom: "inception_4a/1x1"
  top: "inception_4a/1x1"
}
layer {
  name: "inception_4a/3x3_reduce"
  type: "Convolution"
  bottom: "pool3/3x3_s2"
  top: "inception_4a/3x3_reduce"
  param {
    lr_mult: 1
    decay_mult: 1
  }
  param {
    lr_mult: 2
    decay_mult: 0
  }
  convolution_param {
    num_output: 96
    kernel_size: 1
    weight_filler {
      type: "xavier"
      std: 0.09
    }
    bias_filler {
      type: "constant"
      value: 0.2
    }
  }
}
layer {
  name: "inception_4a/relu_3x3_reduce"
  type: "ReLU"
  bottom: "inception_4a/3x3_reduce"
  top: "inception_4a/3x3_reduce"
}
layer {
  name: "inception_4a/3x3"
  type: "Convolution"
  bottom: "inception_4a/3x3_reduce"
  top: "inception_4a/3x3"
  param {
    lr_mult: 1
    decay_mult: 1
  }
  param {
    lr_mult: 2
    decay_mult: 0
  }
  convolution_param {
    num_output: 208
    pad: 1
    kernel_size: 3
    weight_filler {
      type: "xavier"
      std: 0.03
    }
    bias_filler {
      type: "constant"
      value: 0.2
    }
  }
}
layer {
  name: "inception_4a/relu_3x3"
  type: "ReLU"
  bottom: "inception_4a/3x3"
  top: "inception_4a/3x3"
}
layer {
  name: "inception_4a/5x5_reduce"
  type: "Convolution"
  bottom: "pool3/3x3_s2"
  top: "inception_4a/5x5_reduce"
  param {
    lr_mult: 1
    decay_mult: 1
  }
  param {
    lr_mult: 2
    decay_mult: 0
  }
  convolution_param {
    num_output: 16
    kernel_size: 1
    weight_filler {
      type: "xavier"
      std: 0.2
    }
    bias_filler {
      type: "constant"
      value: 0.2
    }
  }
}
layer {
  name: "inception_4a/relu_5x5_reduce"
  type: "ReLU"
  bottom: "inception_4a/5x5_reduce"
  top: "inception_4a/5x5_reduce"
}
layer {
  name: "inception_4a/5x5"
  type: "Convolution"
  bottom: "inception_4a/5x5_reduce"
  top: "inception_4a/5x5"
  param {
    lr_mult: 1
    decay_mult: 1
  }
  param {
    lr_mult: 2
    decay_mult: 0
  }
  convolution_param {
    num_output: 48
    pad: 2
    kernel_size: 5
    weight_filler {
      type: "xavier"
      std: 0.03
    }
    bias_filler {
      type: "constant"
      value: 0.2
    }
  }
}
layer {
  name: "inception_4a/relu_5x5"
  type: "ReLU"
  bottom: "inception_4a/5x5"
  top: "inception_4a/5x5"
}
layer {
  name: "inception_4a/pool"
  type: "Pooling"
  bottom: "pool3/3x3_s2"
  top: "inception_4a/pool"
  pooling_param {
    pool: MAX
    kernel_size: 3
    stride: 1
    pad: 1
  }
}
layer {
  name: "inception_4a/pool_proj"
  type: "Convolution"
  bottom: "inception_4a/pool"
  top: "inception_4a/pool_proj"
  param {
    lr_mult: 1
    decay_mult: 1
  }
  param {
    lr_mult: 2
    decay_mult: 0
  }
  convolution_param {
    num_output: 64
    kernel_size: 1
    weight_filler {
      type: "xavier"
      std: 0.1
    }
    bias_filler {
      type: "constant"
      value: 0.2
    }
  }
}
layer {
  name: "inception_4a/relu_pool_proj"
  type: "ReLU"
  bottom: "inception_4a/pool_proj"
  top: "inception_4a/pool_proj"
}
layer {
  name: "inception_4a/output"
  type: "Concat"
  bottom: "inception_4a/1x1"
  bottom: "inception_4a/3x3"
  bottom: "inception_4a/5x5"
  bottom: "inception_4a/pool_proj"
  top: "inception_4a/output"
}
layer {
  name: "loss1/ave_pool"
  type: "Pooling"
  bottom: "inception_4a/output"
  top: "loss1/ave_pool"
  pooling_param {
    pool: AVE
    kernel_size: 5
    stride: 3
  }
}
layer {
  name: "loss1/conv"
  type: "Convolution"
  bottom: "loss1/ave_pool"
  top: "loss1/conv"
  param {
    lr_mult: 1
    decay_mult: 1
  }
  param {
    lr_mult: 2
    decay_mult: 0
  }
  convolution_param {
    num_output: 128
    kernel_size: 1
    weight_filler {
      type: "xavier"
      std: 0.08
    }
    bias_filler {
      type: "constant"
      value: 0.2
    }
  }
}
layer {
  name: "loss1/relu_conv"
  type: "ReLU"
  bottom: "loss1/conv"
  top: "loss1/conv"
}
layer {
  name: "loss1/fc"
  type: "InnerProduct"
  bottom: "loss1/conv"
  top: "loss1/fc"
  param {
    lr_mult: 1
    decay_mult: 1
  }
  param {
    lr_mult: 2
    decay_mult: 0
  }
  inner_product_param {
    num_output: 1024
    weight_filler {
      type: "xavier"
      std: 0.02
    }
    bias_filler {
      type: "constant"
      value: 0.2
    }
  }
}
layer {
  name: "loss1/relu_fc"
  type: "ReLU"
  bottom: "loss1/fc"
  top: "loss1/fc"
}
layer {
  name: "loss1/drop_fc"
  type: "Dropout"
  bottom: "loss1/fc"
  top: "loss1/fc"
  dropout_param {
    dropout_ratio: 0.7
  }
}
layer {
  name: "loss1/classifier_plantvillage"
  type: "InnerProduct"
  bottom: "loss1/fc"
  top: "loss1/classifier_plantvillage"
  param {
    lr_mult: 1
    decay_mult: 1
  }
  param {
    lr_mult: 2
    decay_mult: 0
  }
  inner_product_param {
    num_output: 38
    weight_filler {
      type: "xavier"
      std: 0.0009765625
    }
    bias_filler {
      type: "constant"
      value: 0
    }
  }
}
layer {
  name: "inception_4b/1x1"
  type: "Convolution"
  bottom: "inception_4a/output"
  top: "inception_4b/1x1"
  param {
    lr_mult: 1
    decay_mult: 1
  }
  param {
    lr_mult: 2
    decay_mult: 0
  }
  convolution_param {
    num_output: 160
    kernel_size: 1
    weight_filler {
      type: "xavier"
      std: 0.03
    }
    bias_filler {
      type: "constant"
      value: 0.2
    }
  }
}
layer {
  name: "inception_4b/relu_1x1"
  type: "ReLU"
  bottom: "inception_4b/1x1"
  top: "inception_4b/1x1"
}
layer {
  name: "inception_4b/3x3_reduce"
  type: "Convolution"
  bottom: "inception_4a/output"
  top: "inception_4b/3x3_reduce"
  param {
    lr_mult: 1
    decay_mult: 1
  }
  param {
    lr_mult: 2
    decay_mult: 0
  }
  convolution_param {
    num_output: 112
    kernel_size: 1
    weight_filler {
      type: "xavier"
      std: 0.09
    }
    bias_filler {
      type: "constant"
      value: 0.2
    }
  }
}
layer {
  name: "inception_4b/relu_3x3_reduce"
  type: "ReLU"
  bottom: "inception_4b/3x3_reduce"
  top: "inception_4b/3x3_reduce"
}
layer {
  name: "inception_4b/3x3"
  type: "Convolution"
  bottom: "inception_4b/3x3_reduce"
  top: "inception_4b/3x3"
  param {
    lr_mult: 1
    decay_mult: 1
  }
  param {
    lr_mult: 2
    decay_mult: 0
  }
  convolution_param {
    num_output: 224
    pad: 1
    kernel_size: 3
    weight_filler {
      type: "xavier"
      std: 0.03
    }
    bias_filler {
      type: "constant"
      value: 0.2
    }
  }
}
layer {
  name: "inception_4b/relu_3x3"
  type: "ReLU"
  bottom: "inception_4b/3x3"
  top: "inception_4b/3x3"
}
layer {
  name: "inception_4b/5x5_reduce"
  type: "Convolution"
  bottom: "inception_4a/output"
  top: "inception_4b/5x5_reduce"
  param {
    lr_mult: 1
    decay_mult: 1
  }
  param {
    lr_mult: 2
    decay_mult: 0
  }
  convolution_param {
    num_output: 24
    kernel_size: 1
    weight_filler {
      type: "xavier"
      std: 0.2
    }
    bias_filler {
      type: "constant"
      value: 0.2
    }
  }
}
layer {
  name: "inception_4b/relu_5x5_reduce"
  type: "ReLU"
  bottom: "inception_4b/5x5_reduce"
  top: "inception_4b/5x5_reduce"
}
layer {
  name: "inception_4b/5x5"
  type: "Convolution"
  bottom: "inception_4b/5x5_reduce"
  top: "inception_4b/5x5"
  param {
    lr_mult: 1
    decay_mult: 1
  }
  param {
    lr_mult: 2
    decay_mult: 0
  }
  convolution_param {
    num_output: 64
    pad: 2
    kernel_size: 5
    weight_filler {
      type: "xavier"
      std: 0.03
    }
    bias_filler {
      type: "constant"
      value: 0.2
    }
  }
}
layer {
  name: "inception_4b/relu_5x5"
  type: "ReLU"
  bottom: "inception_4b/5x5"
  top: "inception_4b/5x5"
}
layer {
  name: "inception_4b/pool"
  type: "Pooling"
  bottom: "inception_4a/output"
  top: "inception_4b/pool"
  pooling_param {
    pool: MAX
    kernel_size: 3
    stride: 1
    pad: 1
  }
}
layer {
  name: "inception_4b/pool_proj"
  type: "Convolution"
  bottom: "inception_4b/pool"
  top: "inception_4b/pool_proj"
  param {
    lr_mult: 1
    decay_mult: 1
  }
  param {
    lr_mult: 2
    decay_mult: 0
  }
  convolution_param {
    num_output: 64
    kernel_size: 1
    weight_filler {
      type: "xavier"
      std: 0.1
    }
    bias_filler {
      type: "constant"
      value: 0.2
    }
  }
}
layer {
  name: "inception_4b/relu_pool_proj"
  type: "ReLU"
  bottom: "inception_4b/pool_proj"
  top: "inception_4b/pool_proj"
}
layer {
  name: "inception_4b/output"
  type: "Concat"
  bottom: "inception_4b/1x1"
  bottom: "inception_4b/3x3"
  bottom: "inception_4b/5x5"
  bottom: "inception_4b/pool_proj"
  top: "inception_4b/output"
}
layer {
  name: "inception_4c/1x1"
  type: "Convolution"
  bottom: "inception_4b/output"
  top: "inception_4c/1x1"
  param {
    lr_mult: 1
    decay_mult: 1
  }
  param {
    lr_mult: 2
    decay_mult: 0
  }
  convolution_param {
    num_output: 128
    kernel_size: 1
    weight_filler {
      type: "xavier"
      std: 0.03
    }
    bias_filler {
      type: "constant"
      value: 0.2
    }
  }
}
layer {
  name: "inception_4c/relu_1x1"
  type: "ReLU"
  bottom: "inception_4c/1x1"
  top: "inception_4c/1x1"
}
layer {
  name: "inception_4c/3x3_reduce"
  type: "Convolution"
  bottom: "inception_4b/output"
  top: "inception_4c/3x3_reduce"
  param {
    lr_mult: 1
    decay_mult: 1
  }
  param {
    lr_mult: 2
    decay_mult: 0
  }
  convolution_param {
    num_output: 128
    kernel_size: 1
    weight_filler {
      type: "xavier"
      std: 0.09
    }
    bias_filler {
      type: "constant"
      value: 0.2
    }
  }
}
layer {
  name: "inception_4c/relu_3x3_reduce"
  type: "ReLU"
  bottom: "inception_4c/3x3_reduce"
  top: "inception_4c/3x3_reduce"
}
layer {
  name: "inception_4c/3x3"
  type: "Convolution"
  bottom: "inception_4c/3x3_reduce"
  top: "inception_4c/3x3"
  param {
    lr_mult: 1
    decay_mult: 1
  }
  param {
    lr_mult: 2
    decay_mult: 0
  }
  convolution_param {
    num_output: 256
    pad: 1
    kernel_size: 3
    weight_filler {
      type: "xavier"
      std: 0.03
    }
    bias_filler {
      type: "constant"
      value: 0.2
    }
  }
}
layer {
  name: "inception_4c/relu_3x3"
  type: "ReLU"
  bottom: "inception_4c/3x3"
  top: "inception_4c/3x3"
}
layer {
  name: "inception_4c/5x5_reduce"
  type: "Convolution"
  bottom: "inception_4b/output"
  top: "inception_4c/5x5_reduce"
  param {
    lr_mult: 1
    decay_mult: 1
  }
  param {
    lr_mult: 2
    decay_mult: 0
  }
  convolution_param {
    num_output: 24
    kernel_size: 1
    weight_filler {
      type: "xavier"
      std: 0.2
    }
    bias_filler {
      type: "constant"
      value: 0.2
    }
  }
}
layer {
  name: "inception_4c/relu_5x5_reduce"
  type: "ReLU"
  bottom: "inception_4c/5x5_reduce"
  top: "inception_4c/5x5_reduce"
}
layer {
  name: "inception_4c/5x5"
  type: "Convolution"
  bottom: "inception_4c/5x5_reduce"
  top: "inception_4c/5x5"
  param {
    lr_mult: 1
    decay_mult: 1
  }
  param {
    lr_mult: 2
    decay_mult: 0
  }
  convolution_param {
    num_output: 64
    pad: 2
    kernel_size: 5
    weight_filler {
      type: "xavier"
      std: 0.03
    }
    bias_filler {
      type: "constant"
      value: 0.2
    }
  }
}
layer {
  name: "inception_4c/relu_5x5"
  type: "ReLU"
  bottom: "inception_4c/5x5"
  top: "inception_4c/5x5"
}
layer {
  name: "inception_4c/pool"
  type: "Pooling"
  bottom: "inception_4b/output"
  top: "inception_4c/pool"
  pooling_param {
    pool: MAX
    kernel_size: 3
    stride: 1
    pad: 1
  }
}
layer {
  name: "inception_4c/pool_proj"
  type: "Convolution"
  bottom: "inception_4c/pool"
  top: "inception_4c/pool_proj"
  param {
    lr_mult: 1
    decay_mult: 1
  }
  param {
    lr_mult: 2
    decay_mult: 0
  }
  convolution_param {
    num_output: 64
    kernel_size: 1
    weight_filler {
      type: "xavier"
      std: 0.1
    }
    bias_filler {
      type: "constant"
      value: 0.2
    }
  }
}
layer {
  name: "inception_4c/relu_pool_proj"
  type: "ReLU"
  bottom: "inception_4c/pool_proj"
  top: "inception_4c/pool_proj"
}
layer {
  name: "inception_4c/output"
  type: "Concat"
  bottom: "inception_4c/1x1"
  bottom: "inception_4c/3x3"
  bottom: "inception_4c/5x5"
  bottom: "inception_4c/pool_proj"
  top: "inception_4c/output"
}
layer {
  name: "inception_4d/1x1"
  type: "Convolution"
  bottom: "inception_4c/output"
  top: "inception_4d/1x1"
  param {
    lr_mult: 1
    decay_mult: 1
  }
  param {
    lr_mult: 2
    decay_mult: 0
  }
  convolution_param {
    num_output: 112
    kernel_size: 1
    weight_filler {
      type: "xavier"
      std: 0.03
    }
    bias_filler {
      type: "constant"
      value: 0.2
    }
  }
}
layer {
  name: "inception_4d/relu_1x1"
  type: "ReLU"
  bottom: "inception_4d/1x1"
  top: "inception_4d/1x1"
}
layer {
  name: "inception_4d/3x3_reduce"
  type: "Convolution"
  bottom: "inception_4c/output"
  top: "inception_4d/3x3_reduce"
  param {
    lr_mult: 1
    decay_mult: 1
  }
  param {
    lr_mult: 2
    decay_mult: 0
  }
  convolution_param {
    num_output: 144
    kernel_size: 1
    weight_filler {
      type: "xavier"
      std: 0.09
    }
    bias_filler {
      type: "constant"
      value: 0.2
    }
  }
}
layer {
  name: "inception_4d/relu_3x3_reduce"
  type: "ReLU"
  bottom: "inception_4d/3x3_reduce"
  top: "inception_4d/3x3_reduce"
}
layer {
  name: "inception_4d/3x3"
  type: "Convolution"
  bottom: "inception_4d/3x3_reduce"
  top: "inception_4d/3x3"
  param {
    lr_mult: 1
    decay_mult: 1
  }
  param {
    lr_mult: 2
    decay_mult: 0
  }
  convolution_param {
    num_output: 288
    pad: 1
    kernel_size: 3
    weight_filler {
      type: "xavier"
      std: 0.03
    }
    bias_filler {
      type: "constant"
      value: 0.2
    }
  }
}
layer {
  name: "inception_4d/relu_3x3"
  type: "ReLU"
  bottom: "inception_4d/3x3"
  top: "inception_4d/3x3"
}
layer {
  name: "inception_4d/5x5_reduce"
  type: "Convolution"
  bottom: "inception_4c/output"
  top: "inception_4d/5x5_reduce"
  param {
    lr_mult: 1
    decay_mult: 1
  }
  param {
    lr_mult: 2
    decay_mult: 0
  }
  convolution_param {
    num_output: 32
    kernel_size: 1
    weight_filler {
      type: "xavier"
      std: 0.2
    }
    bias_filler {
      type: "constant"
      value: 0.2
    }
  }
}
layer {
  name: "inception_4d/relu_5x5_reduce"
  type: "ReLU"
  bottom: "inception_4d/5x5_reduce"
  top: "inception_4d/5x5_reduce"
}
layer {
  name: "inception_4d/5x5"
  type: "Convolution"
  bottom: "inception_4d/5x5_reduce"
  top: "inception_4d/5x5"
  param {
    lr_mult: 1
    decay_mult: 1
  }
  param {
    lr_mult: 2
    decay_mult: 0
  }
  convolution_param {
    num_output: 64
    pad: 2
    kernel_size: 5
    weight_filler {
      type: "xavier"
      std: 0.03
    }
    bias_filler {
      type: "constant"
      value: 0.2
    }
  }
}
layer {
  name: "inception_4d/relu_5x5"
  type: "ReLU"
  bottom: "inception_4d/5x5"
  top: "inception_4d/5x5"
}
layer {
  name: "inception_4d/pool"
  type: "Pooling"
  bottom: "inception_4c/output"
  top: "inception_4d/pool"
  pooling_param {
    pool: MAX
    kernel_size: 3
    stride: 1
    pad: 1
  }
}
layer {
  name: "inception_4d/pool_proj"
  type: "Convolution"
  bottom: "inception_4d/pool"
  top: "inception_4d/pool_proj"
  param {
    lr_mult: 1
    decay_mult: 1
  }
  param {
    lr_mult: 2
    decay_mult: 0
  }
  convolution_param {
    num_output: 64
    kernel_size: 1
    weight_filler {
      type: "xavier"
      std: 0.1
    }
    bias_filler {
      type: "constant"
      value: 0.2
    }
  }
}
layer {
  name: "inception_4d/relu_pool_proj"
  type: "ReLU"
  bottom: "inception_4d/pool_proj"
  top: "inception_4d/pool_proj"
}
layer {
  name: "inception_4d/output"
  type: "Concat"
  bottom: "inception_4d/1x1"
  bottom: "inception_4d/3x3"
  bottom: "inception_4d/5x5"
  bottom: "inception_4d/pool_proj"
  top: "inception_4d/output"
}
layer {
  name: "loss2/ave_pool"
  type: "Pooling"
  bottom: "inception_4d/output"
  top: "loss2/ave_pool"
  pooling_param {
    pool: AVE
    kernel_size: 5
    stride: 3
  }
}
layer {
  name: "loss2/conv"
  type: "Convolution"
  bottom: "loss2/ave_pool"
  top: "loss2/conv"
  param {
    lr_mult: 1
    decay_mult: 1
  }
  param {
    lr_mult: 2
    decay_mult: 0
  }
  convolution_param {
    num_output: 128
    kernel_size: 1
    weight_filler {
      type: "xavier"
      std: 0.08
    }
    bias_filler {
      type: "constant"
      value: 0.2
    }
  }
}
layer {
  name: "loss2/relu_conv"
  type: "ReLU"
  bottom: "loss2/conv"
  top: "loss2/conv"
}
layer {
  name: "loss2/fc"
  type: "InnerProduct"
  bottom: "loss2/conv"
  top: "loss2/fc"
  param {
    lr_mult: 1
    decay_mult: 1
  }
  param {
    lr_mult: 2
    decay_mult: 0
  }
  inner_product_param {
    num_output: 1024
    weight_filler {
      type: "xavier"
      std: 0.02
    }
    bias_filler {
      type: "constant"
      value: 0.2
    }
  }
}
layer {
  name: "loss2/relu_fc"
  type: "ReLU"
  bottom: "loss2/fc"
  top: "loss2/fc"
}
layer {
  name: "loss2/drop_fc"
  type: "Dropout"
  bottom: "loss2/fc"
  top: "loss2/fc"
  dropout_param {
    dropout_ratio: 0.7
  }
}
layer {
  name: "loss2/classifier_plantvillage"
  type: "InnerProduct"
  bottom: "loss2/fc"
  top: "loss2/classifier_plantvillage"
  param {
    lr_mult: 1
    decay_mult: 1
  }
  param {
    lr_mult: 2
    decay_mult: 0
  }
  inner_product_param {
    num_output: 38
    weight_filler {
      type: "xavier"
      std: 0.0009765625
    }
    bias_filler {
      type: "constant"
      value: 0
    }
  }
}
layer {
  name: "inception_4e/1x1"
  type: "Convolution"
  bottom: "inception_4d/output"
  top: "inception_4e/1x1"
  param {
    lr_mult: 1
    decay_mult: 1
  }
  param {
    lr_mult: 2
    decay_mult: 0
  }
  convolution_param {
    num_output: 256
    kernel_size: 1
    weight_filler {
      type: "xavier"
      std: 0.03
    }
    bias_filler {
      type: "constant"
      value: 0.2
    }
  }
}
layer {
  name: "inception_4e/relu_1x1"
  type: "ReLU"
  bottom: "inception_4e/1x1"
  top: "inception_4e/1x1"
}
layer {
  name: "inception_4e/3x3_reduce"
  type: "Convolution"
  bottom: "inception_4d/output"
  top: "inception_4e/3x3_reduce"
  param {
    lr_mult: 1
    decay_mult: 1
  }
  param {
    lr_mult: 2
    decay_mult: 0
  }
  convolution_param {
    num_output: 160
    kernel_size: 1
    weight_filler {
      type: "xavier"
      std: 0.09
    }
    bias_filler {
      type: "constant"
      value: 0.2
    }
  }
}
layer {
  name: "inception_4e/relu_3x3_reduce"
  type: "ReLU"
  bottom: "inception_4e/3x3_reduce"
  top: "inception_4e/3x3_reduce"
}
layer {
  name: "inception_4e/3x3"
  type: "Convolution"
  bottom: "inception_4e/3x3_reduce"
  top: "inception_4e/3x3"
  param {
    lr_mult: 1
    decay_mult: 1
  }
  param {
    lr_mult: 2
    decay_mult: 0
  }
  convolution_param {
    num_output: 320
    pad: 1
    kernel_size: 3
    weight_filler {
      type: "xavier"
      std: 0.03
    }
    bias_filler {
      type: "constant"
      value: 0.2
    }
  }
}
layer {
  name: "inception_4e/relu_3x3"
  type: "ReLU"
  bottom: "inception_4e/3x3"
  top: "inception_4e/3x3"
}
layer {
  name: "inception_4e/5x5_reduce"
  type: "Convolution"
  bottom: "inception_4d/output"
  top: "inception_4e/5x5_reduce"
  param {
    lr_mult: 1
    decay_mult: 1
  }
  param {
    lr_mult: 2
    decay_mult: 0
  }
  convolution_param {
    num_output: 32
    kernel_size: 1
    weight_filler {
      type: "xavier"
      std: 0.2
    }
    bias_filler {
      type: "constant"
      value: 0.2
    }
  }
}
layer {
  name: "inception_4e/relu_5x5_reduce"
  type: "ReLU"
  bottom: "inception_4e/5x5_reduce"
  top: "inception_4e/5x5_reduce"
}
layer {
  name: "inception_4e/5x5"
  type: "Convolution"
  bottom: "inception_4e/5x5_reduce"
  top: "inception_4e/
I0403 19:05:48.995219  8623 layer_factory.hpp:77] Creating layer data
I0403 19:05:48.995802  8623 net.cpp:91] Creating Layer data
I0403 19:05:48.995833  8623 net.cpp:399] data -> data
I0403 19:05:48.995882  8623 net.cpp:399] data -> label
I0403 19:05:48.995918  8623 data_transformer.cpp:25] Loading mean file from: /home/mohanty/data/final_dataset/lmdb/grayscale-50-50/mean.binaryproto
I0403 19:05:48.996927  8626 db_lmdb.cpp:38] Opened lmdb /home/mohanty/data/final_dataset/lmdb/grayscale-50-50/test_db
I0403 19:05:49.009021  8623 data_layer.cpp:41] output data size: 24,3,224,224
I0403 19:05:49.035871  8623 net.cpp:141] Setting up data
I0403 19:05:49.035946  8623 net.cpp:148] Top shape: 24 3 224 224 (3612672)
I0403 19:05:49.035969  8623 net.cpp:148] Top shape: 24 (24)
I0403 19:05:49.035984  8623 net.cpp:156] Memory required for data: 14450784
I0403 19:05:49.036010  8623 layer_factory.hpp:77] Creating layer label_data_1_split
I0403 19:05:49.036036  8623 net.cpp:91] Creating Layer label_data_1_split
I0403 19:05:49.036053  8623 net.cpp:425] label_data_1_split <- label
I0403 19:05:49.036082  8623 net.cpp:399] label_data_1_split -> label_data_1_split_0
I0403 19:05:49.036109  8623 net.cpp:399] label_data_1_split -> label_data_1_split_1
I0403 19:05:49.036130  8623 net.cpp:399] label_data_1_split -> label_data_1_split_2
I0403 19:05:49.036151  8623 net.cpp:399] label_data_1_split -> label_data_1_split_3
I0403 19:05:49.036170  8623 net.cpp:399] label_data_1_split -> label_data_1_split_4
I0403 19:05:49.036190  8623 net.cpp:399] label_data_1_split -> label_data_1_split_5
I0403 19:05:49.036211  8623 net.cpp:399] label_data_1_split -> label_data_1_split_6
I0403 19:05:49.036232  8623 net.cpp:399] label_data_1_split -> label_data_1_split_7
I0403 19:05:49.036252  8623 net.cpp:399] label_data_1_split -> label_data_1_split_8
I0403 19:05:49.036272  8623 net.cpp:399] label_data_1_split -> label_data_1_split_9
I0403 19:05:49.036384  8623 net.cpp:141] Setting up label_data_1_split
I0403 19:05:49.036407  8623 net.cpp:148] Top shape: 24 (24)
I0403 19:05:49.036424  8623 net.cpp:148] Top shape: 24 (24)
I0403 19:05:49.036440  8623 net.cpp:148] Top shape: 24 (24)
I0403 19:05:49.036456  8623 net.cpp:148] Top shape: 24 (24)
I0403 19:05:49.036471  8623 net.cpp:148] Top shape: 24 (24)
I0403 19:05:49.036487  8623 net.cpp:148] Top shape: 24 (24)
I0403 19:05:49.036502  8623 net.cpp:148] Top shape: 24 (24)
I0403 19:05:49.036519  8623 net.cpp:148] Top shape: 24 (24)
I0403 19:05:49.036533  8623 net.cpp:148] Top shape: 24 (24)
I0403 19:05:49.036550  8623 net.cpp:148] Top shape: 24 (24)
I0403 19:05:49.036593  8623 net.cpp:156] Memory required for data: 14451744
I0403 19:05:49.036609  8623 layer_factory.hpp:77] Creating layer conv1/7x7_s2
I0403 19:05:49.036640  8623 net.cpp:91] Creating Layer conv1/7x7_s2
I0403 19:05:49.036661  8623 net.cpp:425] conv1/7x7_s2 <- data
I0403 19:05:49.036680  8623 net.cpp:399] conv1/7x7_s2 -> conv1/7x7_s2
I0403 19:05:49.169526  8623 net.cpp:141] Setting up conv1/7x7_s2
I0403 19:05:49.169591  8623 net.cpp:148] Top shape: 24 64 112 112 (19267584)
I0403 19:05:49.169610  8623 net.cpp:156] Memory required for data: 91522080
I0403 19:05:49.169641  8623 layer_factory.hpp:77] Creating layer conv1/relu_7x7
I0403 19:05:49.169667  8623 net.cpp:91] Creating Layer conv1/relu_7x7
I0403 19:05:49.169687  8623 net.cpp:425] conv1/relu_7x7 <- conv1/7x7_s2
I0403 19:05:49.169705  8623 net.cpp:386] conv1/relu_7x7 -> conv1/7x7_s2 (in-place)
I0403 19:05:49.169955  8623 net.cpp:141] Setting up conv1/relu_7x7
I0403 19:05:49.169981  8623 net.cpp:148] Top shape: 24 64 112 112 (19267584)
I0403 19:05:49.169997  8623 net.cpp:156] Memory required for data: 168592416
I0403 19:05:49.170012  8623 layer_factory.hpp:77] Creating layer pool1/3x3_s2
I0403 19:05:49.170037  8623 net.cpp:91] Creating Layer pool1/3x3_s2
I0403 19:05:49.170055  8623 net.cpp:425] pool1/3x3_s2 <- conv1/7x7_s2
I0403 19:05:49.170073  8623 net.cpp:399] pool1/3x3_s2 -> pool1/3x3_s2
I0403 19:05:49.170146  8623 net.cpp:141] Setting up pool1/3x3_s2
I0403 19:05:49.170171  8623 net.cpp:148] Top shape: 24 64 56 56 (4816896)
I0403 19:05:49.170184  8623 net.cpp:156] Memory required for data: 187860000
I0403 19:05:49.170199  8623 layer_factory.hpp:77] Creating layer pool1/norm1
I0403 19:05:49.170228  8623 net.cpp:91] Creating Layer pool1/norm1
I0403 19:05:49.170246  8623 net.cpp:425] pool1/norm1 <- pool1/3x3_s2
I0403 19:05:49.170264  8623 net.cpp:399] pool1/norm1 -> pool1/norm1
I0403 19:05:49.170568  8623 net.cpp:141] Setting up pool1/norm1
I0403 19:05:49.170596  8623 net.cpp:148] Top shape: 24 64 56 56 (4816896)
I0403 19:05:49.170611  8623 net.cpp:156] Memory required for data: 207127584
I0403 19:05:49.170625  8623 layer_factory.hpp:77] Creating layer conv2/3x3_reduce
I0403 19:05:49.170650  8623 net.cpp:91] Creating Layer conv2/3x3_reduce
I0403 19:05:49.170667  8623 net.cpp:425] conv2/3x3_reduce <- pool1/norm1
I0403 19:05:49.170686  8623 net.cpp:399] conv2/3x3_reduce -> conv2/3x3_reduce
I0403 19:05:49.171984  8623 net.cpp:141] Setting up conv2/3x3_reduce
I0403 19:05:49.172020  8623 net.cpp:148] Top shape: 24 64 56 56 (4816896)
I0403 19:05:49.172036  8623 net.cpp:156] Memory required for data: 226395168
I0403 19:05:49.172057  8623 layer_factory.hpp:77] Creating layer conv2/relu_3x3_reduce
I0403 19:05:49.172075  8623 net.cpp:91] Creating Layer conv2/relu_3x3_reduce
I0403 19:05:49.172091  8623 net.cpp:425] conv2/relu_3x3_reduce <- conv2/3x3_reduce
I0403 19:05:49.172108  8623 net.cpp:386] conv2/relu_3x3_reduce -> conv2/3x3_reduce (in-place)
I0403 19:05:49.172389  8623 net.cpp:141] Setting up conv2/relu_3x3_reduce
I0403 19:05:49.172417  8623 net.cpp:148] Top shape: 24 64 56 56 (4816896)
I0403 19:05:49.172433  8623 net.cpp:156] Memory required for data: 245662752
I0403 19:05:49.172448  8623 layer_factory.hpp:77] Creating layer conv2/3x3
I0403 19:05:49.172471  8623 net.cpp:91] Creating Layer conv2/3x3
I0403 19:05:49.172487  8623 net.cpp:425] conv2/3x3 <- conv2/3x3_reduce
I0403 19:05:49.172507  8623 net.cpp:399] conv2/3x3 -> conv2/3x3
I0403 19:05:49.174811  8623 net.cpp:141] Setting up conv2/3x3
I0403 19:05:49.174844  8623 net.cpp:148] Top shape: 24 192 56 56 (14450688)
I0403 19:05:49.174861  8623 net.cpp:156] Memory required for data: 303465504
I0403 19:05:49.174883  8623 layer_factory.hpp:77] Creating layer conv2/relu_3x3
I0403 19:05:49.174904  8623 net.cpp:91] Creating Layer conv2/relu_3x3
I0403 19:05:49.174921  8623 net.cpp:425] conv2/relu_3x3 <- conv2/3x3
I0403 19:05:49.174938  8623 net.cpp:386] conv2/relu_3x3 -> conv2/3x3 (in-place)
I0403 19:05:49.175110  8623 net.cpp:141] Setting up conv2/relu_3x3
I0403 19:05:49.175138  8623 net.cpp:148] Top shape: 24 192 56 56 (14450688)
I0403 19:05:49.175184  8623 net.cpp:156] Memory required for data: 361268256
I0403 19:05:49.175221  8623 layer_factory.hpp:77] Creating layer conv2/norm2
I0403 19:05:49.175242  8623 net.cpp:91] Creating Layer conv2/norm2
I0403 19:05:49.175259  8623 net.cpp:425] conv2/norm2 <- conv2/3x3
I0403 19:05:49.175281  8623 net.cpp:399] conv2/norm2 -> conv2/norm2
I0403 19:05:49.175644  8623 net.cpp:141] Setting up conv2/norm2
I0403 19:05:49.175671  8623 net.cpp:148] Top shape: 24 192 56 56 (14450688)
I0403 19:05:49.175686  8623 net.cpp:156] Memory required for data: 419071008
I0403 19:05:49.175701  8623 layer_factory.hpp:77] Creating layer pool2/3x3_s2
I0403 19:05:49.175719  8623 net.cpp:91] Creating Layer pool2/3x3_s2
I0403 19:05:49.175734  8623 net.cpp:425] pool2/3x3_s2 <- conv2/norm2
I0403 19:05:49.175755  8623 net.cpp:399] pool2/3x3_s2 -> pool2/3x3_s2
I0403 19:05:49.175806  8623 net.cpp:141] Setting up pool2/3x3_s2
I0403 19:05:49.175829  8623 net.cpp:148] Top shape: 24 192 28 28 (3612672)
I0403 19:05:49.175844  8623 net.cpp:156] Memory required for data: 433521696
I0403 19:05:49.175866  8623 layer_factory.hpp:77] Creating layer pool2/3x3_s2_pool2/3x3_s2_0_split
I0403 19:05:49.175886  8623 net.cpp:91] Creating Layer pool2/3x3_s2_pool2/3x3_s2_0_split
I0403 19:05:49.175904  8623 net.cpp:425] pool2/3x3_s2_pool2/3x3_s2_0_split <- pool2/3x3_s2
I0403 19:05:49.175923  8623 net.cpp:399] pool2/3x3_s2_pool2/3x3_s2_0_split -> pool2/3x3_s2_pool2/3x3_s2_0_split_0
I0403 19:05:49.175943  8623 net.cpp:399] pool2/3x3_s2_pool2/3x3_s2_0_split -> pool2/3x3_s2_pool2/3x3_s2_0_split_1
I0403 19:05:49.175963  8623 net.cpp:399] pool2/3x3_s2_pool2/3x3_s2_0_split -> pool2/3x3_s2_pool2/3x3_s2_0_split_2
I0403 19:05:49.175982  8623 net.cpp:399] pool2/3x3_s2_pool2/3x3_s2_0_split -> pool2/3x3_s2_pool2/3x3_s2_0_split_3
I0403 19:05:49.176048  8623 net.cpp:141] Setting up pool2/3x3_s2_pool2/3x3_s2_0_split
I0403 19:05:49.176074  8623 net.cpp:148] Top shape: 24 192 28 28 (3612672)
I0403 19:05:49.176091  8623 net.cpp:148] Top shape: 24 192 28 28 (3612672)
I0403 19:05:49.176115  8623 net.cpp:148] Top shape: 24 192 28 28 (3612672)
I0403 19:05:49.176129  8623 net.cpp:148] Top shape: 24 192 28 28 (3612672)
I0403 19:05:49.176143  8623 net.cpp:156] Memory required for data: 491324448
I0403 19:05:49.176158  8623 layer_factory.hpp:77] Creating layer inception_3a/1x1
I0403 19:05:49.176177  8623 net.cpp:91] Creating Layer inception_3a/1x1
I0403 19:05:49.176194  8623 net.cpp:425] inception_3a/1x1 <- pool2/3x3_s2_pool2/3x3_s2_0_split_0
I0403 19:05:49.176219  8623 net.cpp:399] inception_3a/1x1 -> inception_3a/1x1
I0403 19:05:49.177759  8623 net.cpp:141] Setting up inception_3a/1x1
I0403 19:05:49.177789  8623 net.cpp:148] Top shape: 24 64 28 28 (1204224)
I0403 19:05:49.177805  8623 net.cpp:156] Memory required for data: 496141344
I0403 19:05:49.177824  8623 layer_factory.hpp:77] Creating layer inception_3a/relu_1x1
I0403 19:05:49.177845  8623 net.cpp:91] Creating Layer inception_3a/relu_1x1
I0403 19:05:49.177861  8623 net.cpp:425] inception_3a/relu_1x1 <- inception_3a/1x1
I0403 19:05:49.177880  8623 net.cpp:386] inception_3a/relu_1x1 -> inception_3a/1x1 (in-place)
I0403 19:05:49.178050  8623 net.cpp:141] Setting up inception_3a/relu_1x1
I0403 19:05:49.178076  8623 net.cpp:148] Top shape: 24 64 28 28 (1204224)
I0403 19:05:49.178092  8623 net.cpp:156] Memory required for data: 500958240
I0403 19:05:49.178105  8623 layer_factory.hpp:77] Creating layer inception_3a/3x3_reduce
I0403 19:05:49.178129  8623 net.cpp:91] Creating Layer inception_3a/3x3_reduce
I0403 19:05:49.178148  8623 net.cpp:425] inception_3a/3x3_reduce <- pool2/3x3_s2_pool2/3x3_s2_0_split_1
I0403 19:05:49.178165  8623 net.cpp:399] inception_3a/3x3_reduce -> inception_3a/3x3_reduce
I0403 19:05:49.179849  8623 net.cpp:141] Setting up inception_3a/3x3_reduce
I0403 19:05:49.179879  8623 net.cpp:148] Top shape: 24 96 28 28 (1806336)
I0403 19:05:49.179895  8623 net.cpp:156] Memory required for data: 508183584
I0403 19:05:49.179918  8623 layer_factory.hpp:77] Creating layer inception_3a/relu_3x3_reduce
I0403 19:05:49.179962  8623 net.cpp:91] Creating Layer inception_3a/relu_3x3_reduce
I0403 19:05:49.179980  8623 net.cpp:425] inception_3a/relu_3x3_reduce <- inception_3a/3x3_reduce
I0403 19:05:49.180004  8623 net.cpp:386] inception_3a/relu_3x3_reduce -> inception_3a/3x3_reduce (in-place)
I0403 19:05:49.180182  8623 net.cpp:141] Setting up inception_3a/relu_3x3_reduce
I0403 19:05:49.180227  8623 net.cpp:148] Top shape: 24 96 28 28 (1806336)
I0403 19:05:49.180244  8623 net.cpp:156] Memory required for data: 515408928
I0403 19:05:49.180259  8623 layer_factory.hpp:77] Creating layer inception_3a/3x3
I0403 19:05:49.180282  8623 net.cpp:91] Creating Layer inception_3a/3x3
I0403 19:05:49.180300  8623 net.cpp:425] inception_3a/3x3 <- inception_3a/3x3_reduce
I0403 19:05:49.180323  8623 net.cpp:399] inception_3a/3x3 -> inception_3a/3x3
I0403 19:05:49.181998  8623 net.cpp:141] Setting up inception_3a/3x3
I0403 19:05:49.182029  8623 net.cpp:148] Top shape: 24 128 28 28 (2408448)
I0403 19:05:49.182045  8623 net.cpp:156] Memory required for data: 525042720
I0403 19:05:49.182065  8623 layer_factory.hpp:77] Creating layer inception_3a/relu_3x3
I0403 19:05:49.182134  8623 net.cpp:91] Creating Layer inception_3a/relu_3x3
I0403 19:05:49.182157  8623 net.cpp:425] inception_3a/relu_3x3 <- inception_3a/3x3
I0403 19:05:49.182175  8623 net.cpp:386] inception_3a/relu_3x3 -> inception_3a/3x3 (in-place)
I0403 19:05:49.182457  8623 net.cpp:141] Setting up inception_3a/relu_3x3
I0403 19:05:49.182484  8623 net.cpp:148] Top shape: 24 128 28 28 (2408448)
I0403 19:05:49.182499  8623 net.cpp:156] Memory required for data: 534676512
I0403 19:05:49.182514  8623 layer_factory.hpp:77] Creating layer inception_3a/5x5_reduce
I0403 19:05:49.182538  8623 net.cpp:91] Creating Layer inception_3a/5x5_reduce
I0403 19:05:49.182554  8623 net.cpp:425] inception_3a/5x5_reduce <- pool2/3x3_s2_pool2/3x3_s2_0_split_2
I0403 19:05:49.182575  8623 net.cpp:399] inception_3a/5x5_reduce -> inception_3a/5x5_reduce
I0403 19:05:49.183554  8623 net.cpp:141] Setting up inception_3a/5x5_reduce
I0403 19:05:49.183585  8623 net.cpp:148] Top shape: 24 16 28 28 (301056)
I0403 19:05:49.183604  8623 net.cpp:156] Memory required for data: 535880736
I0403 19:05:49.183622  8623 layer_factory.hpp:77] Creating layer inception_3a/relu_5x5_reduce
I0403 19:05:49.183640  8623 net.cpp:91] Creating Layer inception_3a/relu_5x5_reduce
I0403 19:05:49.183656  8623 net.cpp:425] inception_3a/relu_5x5_reduce <- inception_3a/5x5_reduce
I0403 19:05:49.183673  8623 net.cpp:386] inception_3a/relu_5x5_reduce -> inception_3a/5x5_reduce (in-place)
I0403 19:05:49.184011  8623 net.cpp:141] Setting up inception_3a/relu_5x5_reduce
I0403 19:05:49.184038  8623 net.cpp:148] Top shape: 24 16 28 28 (301056)
I0403 19:05:49.184053  8623 net.cpp:156] Memory required for data: 537084960
I0403 19:05:49.184068  8623 layer_factory.hpp:77] Creating layer inception_3a/5x5
I0403 19:05:49.184092  8623 net.cpp:91] Creating Layer inception_3a/5x5
I0403 19:05:49.184110  8623 net.cpp:425] inception_3a/5x5 <- inception_3a/5x5_reduce
I0403 19:05:49.184133  8623 net.cpp:399] inception_3a/5x5 -> inception_3a/5x5
I0403 19:05:49.185127  8623 net.cpp:141] Setting up inception_3a/5x5
I0403 19:05:49.185158  8623 net.cpp:148] Top shape: 24 32 28 28 (602112)
I0403 19:05:49.185173  8623 net.cpp:156] Memory required for data: 539493408
I0403 19:05:49.185205  8623 layer_factory.hpp:77] Creating layer inception_3a/relu_5x5
I0403 19:05:49.185231  8623 net.cpp:91] Creating Layer inception_3a/relu_5x5
I0403 19:05:49.185251  8623 net.cpp:425] inception_3a/relu_5x5 <- inception_3a/5x5
I0403 19:05:49.185271  8623 net.cpp:386] inception_3a/relu_5x5 -> inception_3a/5x5 (in-place)
I0403 19:05:49.185449  8623 net.cpp:141] Setting up inception_3a/relu_5x5
I0403 19:05:49.185488  8623 net.cpp:148] Top shape: 24 32 28 28 (602112)
I0403 19:05:49.185504  8623 net.cpp:156] Memory required for data: 541901856
I0403 19:05:49.185519  8623 layer_factory.hpp:77] Creating layer inception_3a/pool
I0403 19:05:49.185537  8623 net.cpp:91] Creating Layer inception_3a/pool
I0403 19:05:49.185567  8623 net.cpp:425] inception_3a/pool <- pool2/3x3_s2_pool2/3x3_s2_0_split_3
I0403 19:05:49.185592  8623 net.cpp:399] inception_3a/pool -> inception_3a/pool
I0403 19:05:49.185649  8623 net.cpp:141] Setting up inception_3a/pool
I0403 19:05:49.185673  8623 net.cpp:148] Top shape: 24 192 28 28 (3612672)
I0403 19:05:49.185688  8623 net.cpp:156] Memory required for data: 556352544
I0403 19:05:49.185703  8623 layer_factory.hpp:77] Creating layer inception_3a/pool_proj
I0403 19:05:49.185725  8623 net.cpp:91] Creating Layer inception_3a/pool_proj
I0403 19:05:49.185742  8623 net.cpp:425] inception_3a/pool_proj <- inception_3a/pool
I0403 19:05:49.185763  8623 net.cpp:399] inception_3a/pool_proj -> inception_3a/pool_proj
I0403 19:05:49.186704  8623 net.cpp:141] Setting up inception_3a/pool_proj
I0403 19:05:49.186733  8623 net.cpp:148] Top shape: 24 32 28 28 (602112)
I0403 19:05:49.186748  8623 net.cpp:156] Memory required for data: 558760992
I0403 19:05:49.186772  8623 layer_factory.hpp:77] Creating layer inception_3a/relu_pool_proj
I0403 19:05:49.186792  8623 net.cpp:91] Creating Layer inception_3a/relu_pool_proj
I0403 19:05:49.186808  8623 net.cpp:425] inception_3a/relu_pool_proj <- inception_3a/pool_proj
I0403 19:05:49.186825  8623 net.cpp:386] inception_3a/relu_pool_proj -> inception_3a/pool_proj (in-place)
I0403 19:05:49.187090  8623 net.cpp:141] Setting up inception_3a/relu_pool_proj
I0403 19:05:49.187117  8623 net.cpp:148] Top shape: 24 32 28 28 (602112)
I0403 19:05:49.187132  8623 net.cpp:156] Memory required for data: 561169440
I0403 19:05:49.187147  8623 layer_factory.hpp:77] Creating layer inception_3a/output
I0403 19:05:49.187168  8623 net.cpp:91] Creating Layer inception_3a/output
I0403 19:05:49.187185  8623 net.cpp:425] inception_3a/output <- inception_3a/1x1
I0403 19:05:49.187201  8623 net.cpp:425] inception_3a/output <- inception_3a/3x3
I0403 19:05:49.187222  8623 net.cpp:425] inception_3a/output <- inception_3a/5x5
I0403 19:05:49.187238  8623 net.cpp:425] inception_3a/output <- inception_3a/pool_proj
I0403 19:05:49.187255  8623 net.cpp:399] inception_3a/output -> inception_3a/output
I0403 19:05:49.187302  8623 net.cpp:141] Setting up inception_3a/output
I0403 19:05:49.187325  8623 net.cpp:148] Top shape: 24 256 28 28 (4816896)
I0403 19:05:49.187340  8623 net.cpp:156] Memory required for data: 580437024
I0403 19:05:49.187355  8623 layer_factory.hpp:77] Creating layer inception_3a/output_inception_3a/output_0_split
I0403 19:05:49.187372  8623 net.cpp:91] Creating Layer inception_3a/output_inception_3a/output_0_split
I0403 19:05:49.187387  8623 net.cpp:425] inception_3a/output_inception_3a/output_0_split <- inception_3a/output
I0403 19:05:49.187407  8623 net.cpp:399] inception_3a/output_inception_3a/output_0_split -> inception_3a/output_inception_3a/output_0_split_0
I0403 19:05:49.187436  8623 net.cpp:399] inception_3a/output_inception_3a/output_0_split -> inception_3a/output_inception_3a/output_0_split_1
I0403 19:05:49.187461  8623 net.cpp:399] inception_3a/output_inception_3a/output_0_split -> inception_3a/output_inception_3a/output_0_split_2
I0403 19:05:49.187482  8623 net.cpp:399] inception_3a/output_inception_3a/output_0_split -> inception_3a/output_inception_3a/output_0_split_3
I0403 19:05:49.187557  8623 net.cpp:141] Setting up inception_3a/output_inception_3a/output_0_split
I0403 19:05:49.187579  8623 net.cpp:148] Top shape: 24 256 28 28 (4816896)
I0403 19:05:49.187597  8623 net.cpp:148] Top shape: 24 256 28 28 (4816896)
I0403 19:05:49.187613  8623 net.cpp:148] Top shape: 24 256 28 28 (4816896)
I0403 19:05:49.187628  8623 net.cpp:148] Top shape: 24 256 28 28 (4816896)
I0403 19:05:49.187643  8623 net.cpp:156] Memory required for data: 657507360
I0403 19:05:49.187656  8623 layer_factory.hpp:77] Creating layer inception_3b/1x1
I0403 19:05:49.187682  8623 net.cpp:91] Creating Layer inception_3b/1x1
I0403 19:05:49.187700  8623 net.cpp:425] inception_3b/1x1 <- inception_3a/output_inception_3a/output_0_split_0
I0403 19:05:49.187721  8623 net.cpp:399] inception_3b/1x1 -> inception_3b/1x1
I0403 19:05:49.188864  8623 net.cpp:141] Setting up inception_3b/1x1
I0403 19:05:49.188905  8623 net.cpp:148] Top shape: 24 128 28 28 (2408448)
I0403 19:05:49.188921  8623 net.cpp:156] Memory required for data: 667141152
I0403 19:05:49.188940  8623 layer_factory.hpp:77] Creating layer inception_3b/relu_1x1
I0403 19:05:49.188961  8623 net.cpp:91] Creating Layer inception_3b/relu_1x1
I0403 19:05:49.188977  8623 net.cpp:425] inception_3b/relu_1x1 <- inception_3b/1x1
I0403 19:05:49.188995  8623 net.cpp:386] inception_3b/relu_1x1 -> inception_3b/1x1 (in-place)
I0403 19:05:49.189167  8623 net.cpp:141] Setting up inception_3b/relu_1x1
I0403 19:05:49.189193  8623 net.cpp:148] Top shape: 24 128 28 28 (2408448)
I0403 19:05:49.189214  8623 net.cpp:156] Memory required for data: 676774944
I0403 19:05:49.189230  8623 layer_factory.hpp:77] Creating layer inception_3b/3x3_reduce
I0403 19:05:49.189263  8623 net.cpp:91] Creating Layer inception_3b/3x3_reduce
I0403 19:05:49.189281  8623 net.cpp:425] inception_3b/3x3_reduce <- inception_3a/output_inception_3a/output_0_split_1
I0403 19:05:49.189303  8623 net.cpp:399] inception_3b/3x3_reduce -> inception_3b/3x3_reduce
I0403 19:05:49.190476  8623 net.cpp:141] Setting up inception_3b/3x3_reduce
I0403 19:05:49.190518  8623 net.cpp:148] Top shape: 24 128 28 28 (2408448)
I0403 19:05:49.190534  8623 net.cpp:156] Memory required for data: 686408736
I0403 19:05:49.190552  8623 layer_factory.hpp:77] Creating layer inception_3b/relu_3x3_reduce
I0403 19:05:49.190573  8623 net.cpp:91] Creating Layer inception_3b/relu_3x3_reduce
I0403 19:05:49.190590  8623 net.cpp:425] inception_3b/relu_3x3_reduce <- inception_3b/3x3_reduce
I0403 19:05:49.190608  8623 net.cpp:386] inception_3b/relu_3x3_reduce -> inception_3b/3x3_reduce (in-place)
I0403 19:05:49.190793  8623 net.cpp:141] Setting up inception_3b/relu_3x3_reduce
I0403 19:05:49.190819  8623 net.cpp:148] Top shape: 24 128 28 28 (2408448)
I0403 19:05:49.190834  8623 net.cpp:156] Memory required for data: 696042528
I0403 19:05:49.190848  8623 layer_factory.hpp:77] Creating layer inception_3b/3x3
I0403 19:05:49.190874  8623 net.cpp:91] Creating Layer inception_3b/3x3
I0403 19:05:49.190892  8623 net.cpp:425] inception_3b/3x3 <- inception_3b/3x3_reduce
I0403 19:05:49.190912  8623 net.cpp:399] inception_3b/3x3 -> inception_3b/3x3
I0403 19:05:49.193814  8623 net.cpp:141] Setting up inception_3b/3x3
I0403 19:05:49.193842  8623 net.cpp:148] Top shape: 24 192 28 28 (3612672)
I0403 19:05:49.193858  8623 net.cpp:156] Memory required for data: 710493216
I0403 19:05:49.193876  8623 layer_factory.hpp:77] Creating layer inception_3b/relu_3x3
I0403 19:05:49.193897  8623 net.cpp:91] Creating Layer inception_3b/relu_3x3
I0403 19:05:49.193915  8623 net.cpp:425] inception_3b/relu_3x3 <- inception_3b/3x3
I0403 19:05:49.193933  8623 net.cpp:386] inception_3b/relu_3x3 -> inception_3b/3x3 (in-place)
I0403 19:05:49.194214  8623 net.cpp:141] Setting up inception_3b/relu_3x3
I0403 19:05:49.194242  8623 net.cpp:148] Top shape: 24 192 28 28 (3612672)
I0403 19:05:49.194257  8623 net.cpp:156] Memory required for data: 724943904
I0403 19:05:49.194272  8623 layer_factory.hpp:77] Creating layer inception_3b/5x5_reduce
I0403 19:05:49.194294  8623 net.cpp:91] Creating Layer inception_3b/5x5_reduce
I0403 19:05:49.194313  8623 net.cpp:425] inception_3b/5x5_reduce <- inception_3a/output_inception_3a/output_0_split_2
I0403 19:05:49.194334  8623 net.cpp:399] inception_3b/5x5_reduce -> inception_3b/5x5_reduce
I0403 19:05:49.195328  8623 net.cpp:141] Setting up inception_3b/5x5_reduce
I0403 19:05:49.195358  8623 net.cpp:148] Top shape: 24 32 28 28 (602112)
I0403 19:05:49.195374  8623 net.cpp:156] Memory required for data: 727352352
I0403 19:05:49.195392  8623 layer_factory.hpp:77] Creating layer inception_3b/relu_5x5_reduce
I0403 19:05:49.195413  8623 net.cpp:91] Creating Layer inception_3b/relu_5x5_reduce
I0403 19:05:49.195431  8623 net.cpp:425] inception_3b/relu_5x5_reduce <- inception_3b/5x5_reduce
I0403 19:05:49.195448  8623 net.cpp:386] inception_3b/relu_5x5_reduce -> inception_3b/5x5_reduce (in-place)
I0403 19:05:49.195652  8623 net.cpp:141] Setting up inception_3b/relu_5x5_reduce
I0403 19:05:49.195679  8623 net.cpp:148] Top shape: 24 32 28 28 (602112)
I0403 19:05:49.195694  8623 net.cpp:156] Memory required for data: 729760800
I0403 19:05:49.195709  8623 layer_factory.hpp:77] Creating layer inception_3b/5x5
I0403 19:05:49.195731  8623 net.cpp:91] Creating Layer inception_3b/5x5
I0403 19:05:49.195749  8623 net.cpp:425] inception_3b/5x5 <- inception_3b/5x5_reduce
I0403 19:05:49.195767  8623 net.cpp:399] inception_3b/5x5 -> inception_3b/5x5
I0403 19:05:49.197720  8623 net.cpp:141] Setting up inception_3b/5x5
I0403 19:05:49.197748  8623 net.cpp:148] Top shape: 24 96 28 28 (1806336)
I0403 19:05:49.197764  8623 net.cpp:156] Memory required for data: 736986144
I0403 19:05:49.197783  8623 layer_factory.hpp:77] Creating layer inception_3b/relu_5x5
I0403 19:05:49.197803  8623 net.cpp:91] Creating Layer inception_3b/relu_5x5
I0403 19:05:49.197820  8623 net.cpp:425] inception_3b/relu_5x5 <- inception_3b/5x5
I0403 19:05:49.197839  8623 net.cpp:386] inception_3b/relu_5x5 -> inception_3b/5x5 (in-place)
I0403 19:05:49.198025  8623 net.cpp:141] Setting up inception_3b/relu_5x5
I0403 19:05:49.198050  8623 net.cpp:148] Top shape: 24 96 28 28 (1806336)
I0403 19:05:49.198065  8623 net.cpp:156] Memory required for data: 744211488
I0403 19:05:49.198081  8623 layer_factory.hpp:77] Creating layer inception_3b/pool
I0403 19:05:49.198097  8623 net.cpp:91] Creating Layer inception_3b/pool
I0403 19:05:49.198113  8623 net.cpp:425] inception_3b/pool <- inception_3a/output_inception_3a/output_0_split_3
I0403 19:05:49.198132  8623 net.cpp:399] inception_3b/pool -> inception_3b/pool
I0403 19:05:49.198186  8623 net.cpp:141] Setting up inception_3b/pool
I0403 19:05:49.198215  8623 net.cpp:148] Top shape: 24 256 28 28 (4816896)
I0403 19:05:49.198230  8623 net.cpp:156] Memory required for data: 763479072
I0403 19:05:49.198246  8623 layer_factory.hpp:77] Creating layer inception_3b/pool_proj
I0403 19:05:49.198268  8623 net.cpp:91] Creating Layer inception_3b/pool_proj
I0403 19:05:49.198285  8623 net.cpp:425] inception_3b/pool_proj <- inception_3b/pool
I0403 19:05:49.198307  8623 net.cpp:399] inception_3b/pool_proj -> inception_3b/pool_proj
I0403 19:05:49.199352  8623 net.cpp:141] Setting up inception_3b/pool_proj
I0403 19:05:49.199383  8623 net.cpp:148] Top shape: 24 64 28 28 (1204224)
I0403 19:05:49.199400  8623 net.cpp:156] Memory required for data: 768295968
I0403 19:05:49.199419  8623 layer_factory.hpp:77] Creating layer inception_3b/relu_pool_proj
I0403 19:05:49.199439  8623 net.cpp:91] Creating Layer inception_3b/relu_pool_proj
I0403 19:05:49.199455  8623 net.cpp:425] inception_3b/relu_pool_proj <- inception_3b/pool_proj
I0403 19:05:49.199475  8623 net.cpp:386] inception_3b/relu_pool_proj -> inception_3b/pool_proj (in-place)
I0403 19:05:49.199865  8623 net.cpp:141] Setting up inception_3b/relu_pool_proj
I0403 19:05:49.199894  8623 net.cpp:148] Top shape: 24 64 28 28 (1204224)
I0403 19:05:49.199910  8623 net.cpp:156] Memory required for data: 773112864
I0403 19:05:49.199925  8623 layer_factory.hpp:77] Creating layer inception_3b/output
I0403 19:05:49.199944  8623 net.cpp:91] Creating Layer inception_3b/output
I0403 19:05:49.199959  8623 net.cpp:425] inception_3b/output <- inception_3b/1x1
I0403 19:05:49.199975  8623 net.cpp:425] inception_3b/output <- inception_3b/3x3
I0403 19:05:49.199990  8623 net.cpp:425] inception_3b/output <- inception_3b/5x5
I0403 19:05:49.200006  8623 net.cpp:425] inception_3b/output <- inception_3b/pool_proj
I0403 19:05:49.200022  8623 net.cpp:399] inception_3b/output -> inception_3b/output
I0403 19:05:49.200067  8623 net.cpp:141] Setting up inception_3b/output
I0403 19:05:49.200090  8623 net.cpp:148] Top shape: 24 480 28 28 (9031680)
I0403 19:05:49.200105  8623 net.cpp:156] Memory required for data: 809239584
I0403 19:05:49.200120  8623 layer_factory.hpp:77] Creating layer pool3/3x3_s2
I0403 19:05:49.200140  8623 net.cpp:91] Creating Layer pool3/3x3_s2
I0403 19:05:49.200156  8623 net.cpp:425] pool3/3x3_s2 <- inception_3b/output
I0403 19:05:49.200189  8623 net.cpp:399] pool3/3x3_s2 -> pool3/3x3_s2
I0403 19:05:49.200253  8623 net.cpp:141] Setting up pool3/3x3_s2
I0403 19:05:49.200276  8623 net.cpp:148] Top shape: 24 480 14 14 (2257920)
I0403 19:05:49.200291  8623 net.cpp:156] Memory required for data: 818271264
I0403 19:05:49.200305  8623 layer_factory.hpp:77] Creating layer pool3/3x3_s2_pool3/3x3_s2_0_split
I0403 19:05:49.200322  8623 net.cpp:91] Creating Layer pool3/3x3_s2_pool3/3x3_s2_0_split
I0403 19:05:49.200337  8623 net.cpp:425] pool3/3x3_s2_pool3/3x3_s2_0_split <- pool3/3x3_s2
I0403 19:05:49.200357  8623 net.cpp:399] pool3/3x3_s2_pool3/3x3_s2_0_split -> pool3/3x3_s2_pool3/3x3_s2_0_split_0
I0403 19:05:49.200377  8623 net.cpp:399] pool3/3x3_s2_pool3/3x3_s2_0_split -> pool3/3x3_s2_pool3/3x3_s2_0_split_1
I0403 19:05:49.200397  8623 net.cpp:399] pool3/3x3_s2_pool3/3x3_s2_0_split -> pool3/3x3_s2_pool3/3x3_s2_0_split_2
I0403 19:05:49.200417  8623 net.cpp:399] pool3/3x3_s2_pool3/3x3_s2_0_split -> pool3/3x3_s2_pool3/3x3_s2_0_split_3
I0403 19:05:49.200494  8623 net.cpp:141] Setting up pool3/3x3_s2_pool3/3x3_s2_0_split
I0403 19:05:49.200520  8623 net.cpp:148] Top shape: 24 480 14 14 (2257920)
I0403 19:05:49.200537  8623 net.cpp:148] Top shape: 24 480 14 14 (2257920)
I0403 19:05:49.200553  8623 net.cpp:148] Top shape: 24 480 14 14 (2257920)
I0403 19:05:49.200568  8623 net.cpp:148] Top shape: 24 480 14 14 (2257920)
I0403 19:05:49.200582  8623 net.cpp:156] Memory required for data: 854397984
I0403 19:05:49.200597  8623 layer_factory.hpp:77] Creating layer inception_4a/1x1
I0403 19:05:49.200618  8623 net.cpp:91] Creating Layer inception_4a/1x1
I0403 19:05:49.200636  8623 net.cpp:425] inception_4a/1x1 <- pool3/3x3_s2_pool3/3x3_s2_0_split_0
I0403 19:05:49.200655  8623 net.cpp:399] inception_4a/1x1 -> inception_4a/1x1
I0403 19:05:49.202235  8623 net.cpp:141] Setting up inception_4a/1x1
I0403 19:05:49.202266  8623 net.cpp:148] Top shape: 24 192 14 14 (903168)
I0403 19:05:49.202282  8623 net.cpp:156] Memory required for data: 858010656
I0403 19:05:49.202301  8623 layer_factory.hpp:77] Creating layer inception_4a/relu_1x1
I0403 19:05:49.202319  8623 net.cpp:91] Creating Layer inception_4a/relu_1x1
I0403 19:05:49.202335  8623 net.cpp:425] inception_4a/relu_1x1 <- inception_4a/1x1
I0403 19:05:49.202355  8623 net.cpp:386] inception_4a/relu_1x1 -> inception_4a/1x1 (in-place)
I0403 19:05:49.202527  8623 net.cpp:141] Setting up inception_4a/relu_1x1
I0403 19:05:49.202553  8623 net.cpp:148] Top shape: 24 192 14 14 (903168)
I0403 19:05:49.202567  8623 net.cpp:156] Memory required for data: 861623328
I0403 19:05:49.202582  8623 layer_factory.hpp:77] Creating layer inception_4a/3x3_reduce
I0403 19:05:49.202605  8623 net.cpp:91] Creating Layer inception_4a/3x3_reduce
I0403 19:05:49.202621  8623 net.cpp:425] inception_4a/3x3_reduce <- pool3/3x3_s2_pool3/3x3_s2_0_split_1
I0403 19:05:49.202654  8623 net.cpp:399] inception_4a/3x3_reduce -> inception_4a/3x3_reduce
I0403 19:05:49.203928  8623 net.cpp:141] Setting up inception_4a/3x3_reduce
I0403 19:05:49.203956  8623 net.cpp:148] Top shape: 24 96 14 14 (451584)
I0403 19:05:49.203972  8623 net.cpp:156] Memory required for data: 863429664
I0403 19:05:49.203997  8623 layer_factory.hpp:77] Creating layer inception_4a/relu_3x3_reduce
I0403 19:05:49.204017  8623 net.cpp:91] Creating Layer inception_4a/relu_3x3_reduce
I0403 19:05:49.204033  8623 net.cpp:425] inception_4a/relu_3x3_reduce <- inception_4a/3x3_reduce
I0403 19:05:49.204053  8623 net.cpp:386] inception_4a/relu_3x3_reduce -> inception_4a/3x3_reduce (in-place)
I0403 19:05:49.204248  8623 net.cpp:141] Setting up inception_4a/relu_3x3_reduce
I0403 19:05:49.204274  8623 net.cpp:148] Top shape: 24 96 14 14 (451584)
I0403 19:05:49.204289  8623 net.cpp:156] Memory required for data: 865236000
I0403 19:05:49.204305  8623 layer_factory.hpp:77] Creating layer inception_4a/3x3
I0403 19:05:49.204327  8623 net.cpp:91] Creating Layer inception_4a/3x3
I0403 19:05:49.204345  8623 net.cpp:425] inception_4a/3x3 <- inception_4a/3x3_reduce
I0403 19:05:49.204367  8623 net.cpp:399] inception_4a/3x3 -> inception_4a/3x3
I0403 19:05:49.207041  8623 net.cpp:141] Setting up inception_4a/3x3
I0403 19:05:49.207069  8623 net.cpp:148] Top shape: 24 208 14 14 (978432)
I0403 19:05:49.207084  8623 net.cpp:156] Memory required for data: 869149728
I0403 19:05:49.207103  8623 layer_factory.hpp:77] Creating layer inception_4a/relu_3x3
I0403 19:05:49.207123  8623 net.cpp:91] Creating Layer inception_4a/relu_3x3
I0403 19:05:49.207144  8623 net.cpp:425] inception_4a/relu_3x3 <- inception_4a/3x3
I0403 19:05:49.207161  8623 net.cpp:386] inception_4a/relu_3x3 -> inception_4a/3x3 (in-place)
I0403 19:05:49.207432  8623 net.cpp:141] Setting up inception_4a/relu_3x3
I0403 19:05:49.207459  8623 net.cpp:148] Top shape: 24 208 14 14 (978432)
I0403 19:05:49.207474  8623 net.cpp:156] Memory required for data: 873063456
I0403 19:05:49.207489  8623 layer_factory.hpp:77] Creating layer inception_4a/5x5_reduce
I0403 19:05:49.207510  8623 net.cpp:91] Creating Layer inception_4a/5x5_reduce
I0403 19:05:49.207526  8623 net.cpp:425] inception_4a/5x5_reduce <- pool3/3x3_s2_pool3/3x3_s2_0_split_2
I0403 19:05:49.207551  8623 net.cpp:399] inception_4a/5x5_reduce -> inception_4a/5x5_reduce
I0403 19:05:49.208528  8623 net.cpp:141] Setting up inception_4a/5x5_reduce
I0403 19:05:49.208555  8623 net.cpp:148] Top shape: 24 16 14 14 (75264)
I0403 19:05:49.208570  8623 net.cpp:156] Memory required for data: 873364512
I0403 19:05:49.208588  8623 layer_factory.hpp:77] Creating layer inception_4a/relu_5x5_reduce
I0403 19:05:49.208628  8623 net.cpp:91] Creating Layer inception_4a/relu_5x5_reduce
I0403 19:05:49.208645  8623 net.cpp:425] inception_4a/relu_5x5_reduce <- inception_4a/5x5_reduce
I0403 19:05:49.208663  8623 net.cpp:386] inception_4a/relu_5x5_reduce -> inception_4a/5x5_reduce (in-place)
I0403 19:05:49.208838  8623 net.cpp:141] Setting up inception_4a/relu_5x5_reduce
I0403 19:05:49.208865  8623 net.cpp:148] Top shape: 24 16 14 14 (75264)
I0403 19:05:49.208880  8623 net.cpp:156] Memory required for data: 873665568
I0403 19:05:49.208895  8623 layer_factory.hpp:77] Creating layer inception_4a/5x5
I0403 19:05:49.208917  8623 net.cpp:91] Creating Layer inception_4a/5x5
I0403 19:05:49.208945  8623 net.cpp:425] inception_4a/5x5 <- inception_4a/5x5_reduce
I0403 19:05:49.208964  8623 net.cpp:399] inception_4a/5x5 -> inception_4a/5x5
I0403 19:05:49.210037  8623 net.cpp:141] Setting up inception_4a/5x5
I0403 19:05:49.210067  8623 net.cpp:148] Top shape: 24 48 14 14 (225792)
I0403 19:05:49.210083  8623 net.cpp:156] Memory required for data: 874568736
I0403 19:05:49.210100  8623 layer_factory.hpp:77] Creating layer inception_4a/relu_5x5
I0403 19:05:49.210119  8623 net.cpp:91] Creating Layer inception_4a/relu_5x5
I0403 19:05:49.210134  8623 net.cpp:425] inception_4a/relu_5x5 <- inception_4a/5x5
I0403 19:05:49.210150  8623 net.cpp:386] inception_4a/relu_5x5 -> inception_4a/5x5 (in-place)
I0403 19:05:49.210328  8623 net.cpp:141] Setting up inception_4a/relu_5x5
I0403 19:05:49.210352  8623 net.cpp:148] Top shape: 24 48 14 14 (225792)
I0403 19:05:49.210367  8623 net.cpp:156] Memory required for data: 875471904
I0403 19:05:49.210381  8623 layer_factory.hpp:77] Creating layer inception_4a/pool
I0403 19:05:49.210398  8623 net.cpp:91] Creating Layer inception_4a/pool
I0403 19:05:49.210413  8623 net.cpp:425] inception_4a/pool <- pool3/3x3_s2_pool3/3x3_s2_0_split_3
I0403 19:05:49.210434  8623 net.cpp:399] inception_4a/pool -> inception_4a/pool
I0403 19:05:49.210492  8623 net.cpp:141] Setting up inception_4a/pool
I0403 19:05:49.210517  8623 net.cpp:148] Top shape: 24 480 14 14 (2257920)
I0403 19:05:49.210532  8623 net.cpp:156] Memory required for data: 884503584
I0403 19:05:49.210546  8623 layer_factory.hpp:77] Creating layer inception_4a/pool_proj
I0403 19:05:49.210572  8623 net.cpp:91] Creating Layer inception_4a/pool_proj
I0403 19:05:49.210588  8623 net.cpp:425] inception_4a/pool_proj <- inception_4a/pool
I0403 19:05:49.210607  8623 net.cpp:399] inception_4a/pool_proj -> inception_4a/pool_proj
I0403 19:05:49.211729  8623 net.cpp:141] Setting up inception_4a/pool_proj
I0403 19:05:49.211756  8623 net.cpp:148] Top shape: 24 64 14 14 (301056)
I0403 19:05:49.211786  8623 net.cpp:156] Memory required for data: 885707808
I0403 19:05:49.211803  8623 layer_factory.hpp:77] Creating layer inception_4a/relu_pool_proj
I0403 19:05:49.211822  8623 net.cpp:91] Creating Layer inception_4a/relu_pool_proj
I0403 19:05:49.211836  8623 net.cpp:425] inception_4a/relu_pool_proj <- inception_4a/pool_proj
I0403 19:05:49.211858  8623 net.cpp:386] inception_4a/relu_pool_proj -> inception_4a/pool_proj (in-place)
I0403 19:05:49.212131  8623 net.cpp:141] Setting up inception_4a/relu_pool_proj
I0403 19:05:49.212157  8623 net.cpp:148] Top shape: 24 64 14 14 (301056)
I0403 19:05:49.212172  8623 net.cpp:156] Memory required for data: 886912032
I0403 19:05:49.212187  8623 layer_factory.hpp:77] Creating layer inception_4a/output
I0403 19:05:49.212203  8623 net.cpp:91] Creating Layer inception_4a/output
I0403 19:05:49.212224  8623 net.cpp:425] inception_4a/output <- inception_4a/1x1
I0403 19:05:49.212240  8623 net.cpp:425] inception_4a/output <- inception_4a/3x3
I0403 19:05:49.212256  8623 net.cpp:425] inception_4a/output <- inception_4a/5x5
I0403 19:05:49.212271  8623 net.cpp:425] inception_4a/output <- inception_4a/pool_proj
I0403 19:05:49.212291  8623 net.cpp:399] inception_4a/output -> inception_4a/output
I0403 19:05:49.212332  8623 net.cpp:141] Setting up inception_4a/output
I0403 19:05:49.212358  8623 net.cpp:148] Top shape: 24 512 14 14 (2408448)
I0403 19:05:49.212373  8623 net.cpp:156] Memory required for data: 896545824
I0403 19:05:49.212388  8623 layer_factory.hpp:77] Creating layer inception_4a/output_inception_4a/output_0_split
I0403 19:05:49.212405  8623 net.cpp:91] Creating Layer inception_4a/output_inception_4a/output_0_split
I0403 19:05:49.212421  8623 net.cpp:425] inception_4a/output_inception_4a/output_0_split <- inception_4a/output
I0403 19:05:49.212440  8623 net.cpp:399] inception_4a/output_inception_4a/output_0_split -> inception_4a/output_inception_4a/output_0_split_0
I0403 19:05:49.212460  8623 net.cpp:399] inception_4a/output_inception_4a/output_0_split -> inception_4a/output_inception_4a/output_0_split_1
I0403 19:05:49.212481  8623 net.cpp:399] inception_4a/output_inception_4a/output_0_split -> inception_4a/output_inception_4a/output_0_split_2
I0403 19:05:49.212502  8623 net.cpp:399] inception_4a/output_inception_4a/output_0_split -> inception_4a/output_inception_4a/output_0_split_3
I0403 19:05:49.212522  8623 net.cpp:399] inception_4a/output_inception_4a/output_0_split -> inception_4a/output_inception_4a/output_0_split_4
I0403 19:05:49.212609  8623 net.cpp:141] Setting up inception_4a/output_inception_4a/output_0_split
I0403 19:05:49.212631  8623 net.cpp:148] Top shape: 24 512 14 14 (2408448)
I0403 19:05:49.212647  8623 net.cpp:148] Top shape: 24 512 14 14 (2408448)
I0403 19:05:49.212662  8623 net.cpp:148] Top shape: 24 512 14 14 (2408448)
I0403 19:05:49.212678  8623 net.cpp:148] Top shape: 24 512 14 14 (2408448)
I0403 19:05:49.212693  8623 net.cpp:148] Top shape: 24 512 14 14 (2408448)
I0403 19:05:49.212707  8623 net.cpp:156] Memory required for data: 944714784
I0403 19:05:49.212721  8623 layer_factory.hpp:77] Creating layer loss1/ave_pool
I0403 19:05:49.212741  8623 net.cpp:91] Creating Layer loss1/ave_pool
I0403 19:05:49.212757  8623 net.cpp:425] loss1/ave_pool <- inception_4a/output_inception_4a/output_0_split_0
I0403 19:05:49.212774  8623 net.cpp:399] loss1/ave_pool -> loss1/ave_pool
I0403 19:05:49.212971  8623 net.cpp:141] Setting up loss1/ave_pool
I0403 19:05:49.212996  8623 net.cpp:148] Top shape: 24 512 4 4 (196608)
I0403 19:05:49.213011  8623 net.cpp:156] Memory required for data: 945501216
I0403 19:05:49.213026  8623 layer_factory.hpp:77] Creating layer loss1/conv
I0403 19:05:49.213047  8623 net.cpp:91] Creating Layer loss1/conv
I0403 19:05:49.213063  8623 net.cpp:425] loss1/conv <- loss1/ave_pool
I0403 19:05:49.213084  8623 net.cpp:399] loss1/conv -> loss1/conv
I0403 19:05:49.214462  8623 net.cpp:141] Setting up loss1/conv
I0403 19:05:49.214490  8623 net.cpp:148] Top shape: 24 128 4 4 (49152)
I0403 19:05:49.214535  8623 net.cpp:156] Memory required for data: 945697824
I0403 19:05:49.214555  8623 layer_factory.hpp:77] Creating layer loss1/relu_conv
I0403 19:05:49.214575  8623 net.cpp:91] Creating Layer loss1/relu_conv
I0403 19:05:49.214591  8623 net.cpp:425] loss1/relu_conv <- loss1/conv
I0403 19:05:49.214608  8623 net.cpp:386] loss1/relu_conv -> loss1/conv (in-place)
I0403 19:05:49.214879  8623 net.cpp:141] Setting up loss1/relu_conv
I0403 19:05:49.214905  8623 net.cpp:148] Top shape: 24 128 4 4 (49152)
I0403 19:05:49.214920  8623 net.cpp:156] Memory required for data: 945894432
I0403 19:05:49.214934  8623 layer_factory.hpp:77] Creating layer loss1/fc
I0403 19:05:49.214958  8623 net.cpp:91] Creating Layer loss1/fc
I0403 19:05:49.214977  8623 net.cpp:425] loss1/fc <- loss1/conv
I0403 19:05:49.214995  8623 net.cpp:399] loss1/fc -> loss1/fc
I0403 19:05:49.232455  8623 net.cpp:141] Setting up loss1/fc
I0403 19:05:49.232491  8623 net.cpp:148] Top shape: 24 1024 (24576)
I0403 19:05:49.232507  8623 net.cpp:156] Memory required for data: 945992736
I0403 19:05:49.232538  8623 layer_factory.hpp:77] Creating layer loss1/relu_fc
I0403 19:05:49.232555  8623 net.cpp:91] Creating Layer loss1/relu_fc
I0403 19:05:49.232571  8623 net.cpp:425] loss1/relu_fc <- loss1/fc
I0403 19:05:49.232590  8623 net.cpp:386] loss1/relu_fc -> loss1/fc (in-place)
I0403 19:05:49.232772  8623 net.cpp:141] Setting up loss1/relu_fc
I0403 19:05:49.232796  8623 net.cpp:148] Top shape: 24 1024 (24576)
I0403 19:05:49.232810  8623 net.cpp:156] Memory required for data: 946091040
I0403 19:05:49.232825  8623 layer_factory.hpp:77] Creating layer loss1/drop_fc
I0403 19:05:49.232852  8623 net.cpp:91] Creating Layer loss1/drop_fc
I0403 19:05:49.232869  8623 net.cpp:425] loss1/drop_fc <- loss1/fc
I0403 19:05:49.232887  8623 net.cpp:386] loss1/drop_fc -> loss1/fc (in-place)
I0403 19:05:49.232935  8623 net.cpp:141] Setting up loss1/drop_fc
I0403 19:05:49.232960  8623 net.cpp:148] Top shape: 24 1024 (24576)
I0403 19:05:49.232976  8623 net.cpp:156] Memory required for data: 946189344
I0403 19:05:49.232990  8623 layer_factory.hpp:77] Creating layer loss1/classifier_plantvillage
I0403 19:05:49.233008  8623 net.cpp:91] Creating Layer loss1/classifier_plantvillage
I0403 19:05:49.233023  8623 net.cpp:425] loss1/classifier_plantvillage <- loss1/fc
I0403 19:05:49.233042  8623 net.cpp:399] loss1/classifier_plantvillage -> loss1/classifier_plantvillage
I0403 19:05:49.233921  8623 net.cpp:141] Setting up loss1/classifier_plantvillage
I0403 19:05:49.233948  8623 net.cpp:148] Top shape: 24 38 (912)
I0403 19:05:49.233963  8623 net.cpp:156] Memory required for data: 946192992
I0403 19:05:49.233980  8623 layer_factory.hpp:77] Creating layer loss1/classifier_plantvillage_loss1/classifier_plantvillage_0_split
I0403 19:05:49.233997  8623 net.cpp:91] Creating Layer loss1/classifier_plantvillage_loss1/classifier_plantvillage_0_split
I0403 19:05:49.234017  8623 net.cpp:425] loss1/classifier_plantvillage_loss1/classifier_plantvillage_0_split <- loss1/classifier_plantvillage
I0403 19:05:49.234035  8623 net.cpp:399] loss1/classifier_plantvillage_loss1/classifier_plantvillage_0_split -> loss1/classifier_plantvillage_loss1/classifier_plantvillage_0_split_0
I0403 19:05:49.234055  8623 net.cpp:399] loss1/classifier_plantvillage_loss1/classifier_plantvillage_0_split -> loss1/classifier_plantvillage_loss1/classifier_plantvillage_0_split_1
I0403 19:05:49.234074  8623 net.cpp:399] loss1/classifier_plantvillage_loss1/classifier_plantvillage_0_split -> loss1/classifier_plantvillage_loss1/classifier_plantvillage_0_split_2
I0403 19:05:49.234141  8623 net.cpp:141] Setting up loss1/classifier_plantvillage_loss1/classifier_plantvillage_0_split
I0403 19:05:49.234166  8623 net.cpp:148] Top shape: 24 38 (912)
I0403 19:05:49.234184  8623 net.cpp:148] Top shape: 24 38 (912)
I0403 19:05:49.234200  8623 net.cpp:148] Top shape: 24 38 (912)
I0403 19:05:49.234217  8623 net.cpp:156] Memory required for data: 946203936
I0403 19:05:49.234232  8623 layer_factory.hpp:77] Creating layer inception_4b/1x1
I0403 19:05:49.234251  8623 net.cpp:91] Creating Layer inception_4b/1x1
I0403 19:05:49.234283  8623 net.cpp:425] inception_4b/1x1 <- inception_4a/output_inception_4a/output_0_split_1
I0403 19:05:49.234303  8623 net.cpp:399] inception_4b/1x1 -> inception_4b/1x1
I0403 19:05:49.235890  8623 net.cpp:141] Setting up inception_4b/1x1
I0403 19:05:49.235918  8623 net.cpp:148] Top shape: 24 160 14 14 (752640)
I0403 19:05:49.235934  8623 net.cpp:156] Memory required for data: 949214496
I0403 19:05:49.235951  8623 layer_factory.hpp:77] Creating layer inception_4b/relu_1x1
I0403 19:05:49.235971  8623 net.cpp:91] Creating Layer inception_4b/relu_1x1
I0403 19:05:49.235988  8623 net.cpp:425] inception_4b/relu_1x1 <- inception_4b/1x1
I0403 19:05:49.236006  8623 net.cpp:386] inception_4b/relu_1x1 -> inception_4b/1x1 (in-place)
I0403 19:05:49.236176  8623 net.cpp:141] Setting up inception_4b/relu_1x1
I0403 19:05:49.236203  8623 net.cpp:148] Top shape: 24 160 14 14 (752640)
I0403 19:05:49.236223  8623 net.cpp:156] Memory required for data: 952225056
I0403 19:05:49.236238  8623 layer_factory.hpp:77] Creating layer inception_4b/3x3_reduce
I0403 19:05:49.236260  8623 net.cpp:91] Creating Layer inception_4b/3x3_reduce
I0403 19:05:49.236277  8623 net.cpp:425] inception_4b/3x3_reduce <- inception_4a/output_inception_4a/output_0_split_2
I0403 19:05:49.236295  8623 net.cpp:399] inception_4b/3x3_reduce -> inception_4b/3x3_reduce
I0403 19:05:49.237658  8623 net.cpp:141] Setting up inception_4b/3x3_reduce
I0403 19:05:49.237684  8623 net.cpp:148] Top shape: 24 112 14 14 (526848)
I0403 19:05:49.237699  8623 net.cpp:156] Memory required for data: 954332448
I0403 19:05:49.237716  8623 layer_factory.hpp:77] Creating layer inception_4b/relu_3x3_reduce
I0403 19:05:49.237736  8623 net.cpp:91] Creating Layer inception_4b/relu_3x3_reduce
I0403 19:05:49.237753  8623 net.cpp:425] inception_4b/relu_3x3_reduce <- inception_4b/3x3_reduce
I0403 19:05:49.237771  8623 net.cpp:386] inception_4b/relu_3x3_reduce -> inception_4b/3x3_reduce (in-place)
I0403 19:05:49.238045  8623 net.cpp:141] Setting up inception_4b/relu_3x3_reduce
I0403 19:05:49.238071  8623 net.cpp:148] Top shape: 24 112 14 14 (526848)
I0403 19:05:49.238086  8623 net.cpp:156] Memory required for data: 956439840
I0403 19:05:49.238101  8623 layer_factory.hpp:77] Creating layer inception_4b/3x3
I0403 19:05:49.238124  8623 net.cpp:91] Creating Layer inception_4b/3x3
I0403 19:05:49.238142  8623 net.cpp:425] inception_4b/3x3 <- inception_4b/3x3_reduce
I0403 19:05:49.238159  8623 net.cpp:399] inception_4b/3x3 -> inception_4b/3x3
I0403 19:05:49.241034  8623 net.cpp:141] Setting up inception_4b/3x3
I0403 19:05:49.241063  8623 net.cpp:148] Top shape: 24 224 14 14 (1053696)
I0403 19:05:49.241080  8623 net.cpp:156] Memory required for data: 960654624
I0403 19:05:49.241097  8623 layer_factory.hpp:77] Creating layer inception_4b/relu_3x3
I0403 19:05:49.241114  8623 net.cpp:91] Creating Layer inception_4b/relu_3x3
I0403 19:05:49.241130  8623 net.cpp:425] inception_4b/relu_3x3 <- inception_4b/3x3
I0403 19:05:49.241150  8623 net.cpp:386] inception_4b/relu_3x3 -> inception_4b/3x3 (in-place)
I0403 19:05:49.241329  8623 net.cpp:141] Setting up inception_4b/relu_3x3
I0403 19:05:49.241354  8623 net.cpp:148] Top shape: 24 224 14 14 (1053696)
I0403 19:05:49.241369  8623 net.cpp:156] Memory required for data: 964869408
I0403 19:05:49.241384  8623 layer_factory.hpp:77] Creating layer inception_4b/5x5_reduce
I0403 19:05:49.241405  8623 net.cpp:91] Creating Layer inception_4b/5x5_reduce
I0403 19:05:49.241422  8623 net.cpp:425] inception_4b/5x5_reduce <- inception_4a/output_inception_4a/output_0_split_3
I0403 19:05:49.241449  8623 net.cpp:399] inception_4b/5x5_reduce -> inception_4b/5x5_reduce
I0403 19:05:49.242529  8623 net.cpp:141] Setting up inception_4b/5x5_reduce
I0403 19:05:49.242557  8623 net.cpp:148] Top shape: 24 24 14 14 (112896)
I0403 19:05:49.242573  8623 net.cpp:156] Memory required for data: 965320992
I0403 19:05:49.242589  8623 layer_factory.hpp:77] Creating layer inception_4b/relu_5x5_reduce
I0403 19:05:49.242609  8623 net.cpp:91] Creating Layer inception_4b/relu_5x5_reduce
I0403 19:05:49.242640  8623 net.cpp:425] inception_4b/relu_5x5_reduce <- inception_4b/5x5_reduce
I0403 19:05:49.242657  8623 net.cpp:386] inception_4b/relu_5x5_reduce -> inception_4b/5x5_reduce (in-place)
I0403 19:05:49.242833  8623 net.cpp:141] Setting up inception_4b/relu_5x5_reduce
I0403 19:05:49.242861  8623 net.cpp:148] Top shape: 24 24 14 14 (112896)
I0403 19:05:49.242877  8623 net.cpp:156] Memory required for data: 965772576
I0403 19:05:49.242892  8623 layer_factory.hpp:77] Creating layer inception_4b/5x5
I0403 19:05:49.242913  8623 net.cpp:91] Creating Layer inception_4b/5x5
I0403 19:05:49.242930  8623 net.cpp:425] inception_4b/5x5 <- inception_4b/5x5_reduce
I0403 19:05:49.242950  8623 net.cpp:399] inception_4b/5x5 -> inception_4b/5x5
I0403 19:05:49.244132  8623 net.cpp:141] Setting up inception_4b/5x5
I0403 19:05:49.244158  8623 net.cpp:148] Top shape: 24 64 14 14 (301056)
I0403 19:05:49.244174  8623 net.cpp:156] Memory required for data: 966976800
I0403 19:05:49.244190  8623 layer_factory.hpp:77] Creating layer inception_4b/relu_5x5
I0403 19:05:49.244226  8623 net.cpp:91] Creating Layer inception_4b/relu_5x5
I0403 19:05:49.244246  8623 net.cpp:425] inception_4b/relu_5x5 <- inception_4b/5x5
I0403 19:05:49.244264  8623 net.cpp:386] inception_4b/relu_5x5 -> inception_4b/5x5 (in-place)
I0403 19:05:49.244560  8623 net.cpp:141] Setting up inception_4b/relu_5x5
I0403 19:05:49.244585  8623 net.cpp:148] Top shape: 24 64 14 14 (301056)
I0403 19:05:49.244601  8623 net.cpp:156] Memory required for data: 968181024
I0403 19:05:49.244614  8623 layer_factory.hpp:77] Creating layer inception_4b/pool
I0403 19:05:49.244634  8623 net.cpp:91] Creating Layer inception_4b/pool
I0403 19:05:49.244652  8623 net.cpp:425] inception_4b/pool <- inception_4a/output_inception_4a/output_0_split_4
I0403 19:05:49.244669  8623 net.cpp:399] inception_4b/pool -> inception_4b/pool
I0403 19:05:49.244730  8623 net.cpp:141] Setting up inception_4b/pool
I0403 19:05:49.244753  8623 net.cpp:148] Top shape: 24 512 14 14 (2408448)
I0403 19:05:49.244768  8623 net.cpp:156] Memory required for data: 977814816
I0403 19:05:49.244782  8623 layer_factory.hpp:77] Creating layer inception_4b/pool_proj
I0403 19:05:49.244803  8623 net.cpp:91] Creating Layer inception_4b/pool_proj
I0403 19:05:49.244822  8623 net.cpp:425] inception_4b/pool_proj <- inception_4b/pool
I0403 19:05:49.244845  8623 net.cpp:399] inception_4b/pool_proj -> inception_4b/pool_proj
I0403 19:05:49.245996  8623 net.cpp:141] Setting up inception_4b/pool_proj
I0403 19:05:49.246023  8623 net.cpp:148] Top shape: 24 64 14 14 (301056)
I0403 19:05:49.246038  8623 net.cpp:156] Memory required for data: 979019040
I0403 19:05:49.246057  8623 layer_factory.hpp:77] Creating layer inception_4b/relu_pool_proj
I0403 19:05:49.246078  8623 net.cpp:91] Creating Layer inception_4b/relu_pool_proj
I0403 19:05:49.246098  8623 net.cpp:425] inception_4b/relu_pool_proj <- inception_4b/pool_proj
I0403 19:05:49.246114  8623 net.cpp:386] inception_4b/relu_pool_proj -> inception_4b/pool_proj (in-place)
I0403 19:05:49.246295  8623 net.cpp:141] Setting up inception_4b/relu_pool_proj
I0403 19:05:49.246321  8623 net.cpp:148] Top shape: 24 64 14 14 (301056)
I0403 19:05:49.246337  8623 net.cpp:156] Memory required for data: 980223264
I0403 19:05:49.246351  8623 layer_factory.hpp:77] Creating layer inception_4b/output
I0403 19:05:49.246368  8623 net.cpp:91] Creating Layer inception_4b/output
I0403 19:05:49.246383  8623 net.cpp:425] inception_4b/output <- inception_4b/1x1
I0403 19:05:49.246399  8623 net.cpp:425] inception_4b/output <- inception_4b/3x3
I0403 19:05:49.246417  8623 net.cpp:425] inception_4b/output <- inception_4b/5x5
I0403 19:05:49.246431  8623 net.cpp:425] inception_4b/output <- inception_4b/pool_proj
I0403 19:05:49.246450  8623 net.cpp:399] inception_4b/output -> inception_4b/output
I0403 19:05:49.246495  8623 net.cpp:141] Setting up inception_4b/output
I0403 19:05:49.246517  8623 net.cpp:148] Top shape: 24 512 14 14 (2408448)
I0403 19:05:49.246531  8623 net.cpp:156] Memory required for data: 989857056
I0403 19:05:49.246561  8623 layer_factory.hpp:77] Creating layer inception_4b/output_inception_4b/output_0_split
I0403 19:05:49.246580  8623 net.cpp:91] Creating Layer inception_4b/output_inception_4b/output_0_split
I0403 19:05:49.246597  8623 net.cpp:425] inception_4b/output_inception_4b/output_0_split <- inception_4b/output
I0403 19:05:49.246613  8623 net.cpp:399] inception_4b/output_inception_4b/output_0_split -> inception_4b/output_inception_4b/output_0_split_0
I0403 19:05:49.246634  8623 net.cpp:399] inception_4b/output_inception_4b/output_0_split -> inception_4b/output_inception_4b/output_0_split_1
I0403 19:05:49.246654  8623 net.cpp:399] inception_4b/output_inception_4b/output_0_split -> inception_4b/output_inception_4b/output_0_split_2
I0403 19:05:49.246676  8623 net.cpp:399] inception_4b/output_inception_4b/output_0_split -> inception_4b/output_inception_4b/output_0_split_3
I0403 19:05:49.246758  8623 net.cpp:141] Setting up inception_4b/output_inception_4b/output_0_split
I0403 19:05:49.246781  8623 net.cpp:148] Top shape: 24 512 14 14 (2408448)
I0403 19:05:49.246798  8623 net.cpp:148] Top shape: 24 512 14 14 (2408448)
I0403 19:05:49.246812  8623 net.cpp:148] Top shape: 24 512 14 14 (2408448)
I0403 19:05:49.246827  8623 net.cpp:148] Top shape: 24 512 14 14 (2408448)
I0403 19:05:49.246841  8623 net.cpp:156] Memory required for data: 1028392224
I0403 19:05:49.246856  8623 layer_factory.hpp:77] Creating layer inception_4c/1x1
I0403 19:05:49.246877  8623 net.cpp:91] Creating Layer inception_4c/1x1
I0403 19:05:49.246894  8623 net.cpp:425] inception_4c/1x1 <- inception_4b/output_inception_4b/output_0_split_0
I0403 19:05:49.246914  8623 net.cpp:399] inception_4c/1x1 -> inception_4c/1x1
I0403 19:05:49.248322  8623 net.cpp:141] Setting up inception_4c/1x1
I0403 19:05:49.248354  8623 net.cpp:148] Top shape: 24 128 14 14 (602112)
I0403 19:05:49.248370  8623 net.cpp:156] Memory required for data: 1030800672
I0403 19:05:49.248389  8623 layer_factory.hpp:77] Creating layer inception_4c/relu_1x1
I0403 19:05:49.248406  8623 net.cpp:91] Creating Layer inception_4c/relu_1x1
I0403 19:05:49.248421  8623 net.cpp:425] inception_4c/relu_1x1 <- inception_4c/1x1
I0403 19:05:49.248442  8623 net.cpp:386] inception_4c/relu_1x1 -> inception_4c/1x1 (in-place)
I0403 19:05:49.248620  8623 net.cpp:141] Setting up inception_4c/relu_1x1
I0403 19:05:49.248646  8623 net.cpp:148] Top shape: 24 128 14 14 (602112)
I0403 19:05:49.248661  8623 net.cpp:156] Memory required for data: 1033209120
I0403 19:05:49.248674  8623 layer_factory.hpp:77] Creating layer inception_4c/3x3_reduce
I0403 19:05:49.248697  8623 net.cpp:91] Creating Layer inception_4c/3x3_reduce
I0403 19:05:49.248714  8623 net.cpp:425] inception_4c/3x3_reduce <- inception_4b/output_inception_4b/output_0_split_1
I0403 19:05:49.248734  8623 net.cpp:399] inception_4c/3x3_reduce -> inception_4c/3x3_reduce
I0403 19:05:49.250625  8623 net.cpp:141] Setting up inception_4c/3x3_reduce
I0403 19:05:49.250654  8623 net.cpp:148] Top shape: 24 128 14 14 (602112)
I0403 19:05:49.250669  8623 net.cpp:156] Memory required for data: 1035617568
I0403 19:05:49.250687  8623 layer_factory.hpp:77] Creating layer inception_4c/relu_3x3_reduce
I0403 19:05:49.250707  8623 net.cpp:91] Creating Layer inception_4c/relu_3x3_reduce
I0403 19:05:49.250723  8623 net.cpp:425] inception_4c/relu_3x3_reduce <- inception_4c/3x3_reduce
I0403 19:05:49.250741  8623 net.cpp:386] inception_4c/relu_3x3_reduce -> inception_4c/3x3_reduce (in-place)
I0403 19:05:49.251013  8623 net.cpp:141] Setting up inception_4c/relu_3x3_reduce
I0403 19:05:49.251039  8623 net.cpp:148] Top shape: 24 128 14 14 (602112)
I0403 19:05:49.251055  8623 net.cpp:156] Memory required for data: 1038026016
I0403 19:05:49.251068  8623 layer_factory.hpp:77] Creating layer inception_4c/3x3
I0403 19:05:49.251091  8623 net.cpp:91] Creating Layer inception_4c/3x3
I0403 19:05:49.251107  8623 net.cpp:425] inception_4c/3x3 <- inception_4c/3x3_reduce
I0403 19:05:49.251132  8623 net.cpp:399] inception_4c/3x3 -> inception_4c/3x3
I0403 19:05:49.254652  8623 net.cpp:141] Setting up inception_4c/3x3
I0403 19:05:49.254695  8623 net.cpp:148] Top shape: 24 256 14 14 (1204224)
I0403 19:05:49.254711  8623 net.cpp:156] Memory required for data: 1042842912
I0403 19:05:49.254755  8623 layer_factory.hpp:77] Creating layer inception_4c/relu_3x3
I0403 19:05:49.254778  8623 net.cpp:91] Creating Layer inception_4c/relu_3x3
I0403 19:05:49.254796  8623 net.cpp:425] inception_4c/relu_3x3 <- inception_4c/3x3
I0403 19:05:49.254813  8623 net.cpp:386] inception_4c/relu_3x3 -> inception_4c/3x3 (in-place)
I0403 19:05:49.254995  8623 net.cpp:141] Setting up inception_4c/relu_3x3
I0403 19:05:49.255020  8623 net.cpp:148] Top shape: 24 256 14 14 (1204224)
I0403 19:05:49.255035  8623 net.cpp:156] Memory required for data: 1047659808
I0403 19:05:49.255050  8623 layer_factory.hpp:77] Creating layer inception_4c/5x5_reduce
I0403 19:05:49.255075  8623 net.cpp:91] Creating Layer inception_4c/5x5_reduce
I0403 19:05:49.255094  8623 net.cpp:425] inception_4c/5x5_reduce <- inception_4b/output_inception_4b/output_0_split_2
I0403 19:05:49.255112  8623 net.cpp:399] inception_4c/5x5_reduce -> inception_4c/5x5_reduce
I0403 19:05:49.256191  8623 net.cpp:141] Setting up inception_4c/5x5_reduce
I0403 19:05:49.256237  8623 net.cpp:148] Top shape: 24 24 14 14 (112896)
I0403 19:05:49.256253  8623 net.cpp:156] Memory required for data: 1048111392
I0403 19:05:49.256273  8623 layer_factory.hpp:77] Creating layer inception_4c/relu_5x5_reduce
I0403 19:05:49.256294  8623 net.cpp:91] Creating Layer inception_4c/relu_5x5_reduce
I0403 19:05:49.256311  8623 net.cpp:425] inception_4c/relu_5x5_reduce <- inception_4c/5x5_reduce
I0403 19:05:49.256330  8623 net.cpp:386] inception_4c/relu_5x5_reduce -> inception_4c/5x5_reduce (in-place)
I0403 19:05:49.256520  8623 net.cpp:141] Setting up inception_4c/relu_5x5_reduce
I0403 19:05:49.256559  8623 net.cpp:148] Top shape: 24 24 14 14 (112896)
I0403 19:05:49.256574  8623 net.cpp:156] Memory required for data: 1048562976
I0403 19:05:49.256589  8623 layer_factory.hpp:77] Creating layer inception_4c/5x5
I0403 19:05:49.256611  8623 net.cpp:91] Creating Layer inception_4c/5x5
I0403 19:05:49.256629  8623 net.cpp:425] inception_4c/5x5 <- inception_4c/5x5_reduce
I0403 19:05:49.256647  8623 net.cpp:399] inception_4c/5x5 -> inception_4c/5x5
I0403 19:05:49.257899  8623 net.cpp:141] Setting up inception_4c/5x5
I0403 19:05:49.257931  8623 net.cpp:148] Top shape: 24 64 14 14 (301056)
I0403 19:05:49.257948  8623 net.cpp:156] Memory required for data: 1049767200
I0403 19:05:49.257966  8623 layer_factory.hpp:77] Creating layer inception_4c/relu_5x5
I0403 19:05:49.257983  8623 net.cpp:91] Creating Layer inception_4c/relu_5x5
I0403 19:05:49.257999  8623 net.cpp:425] inception_4c/relu_5x5 <- inception_4c/5x5
I0403 19:05:49.258018  8623 net.cpp:386] inception_4c/relu_5x5 -> inception_4c/5x5 (in-place)
I0403 19:05:49.258299  8623 net.cpp:141] Setting up inception_4c/relu_5x5
I0403 19:05:49.258327  8623 net.cpp:148] Top shape: 24 64 14 14 (301056)
I0403 19:05:49.258343  8623 net.cpp:156] Memory required for data: 1050971424
I0403 19:05:49.258358  8623 layer_factory.hpp:77] Creating layer inception_4c/pool
I0403 19:05:49.258374  8623 net.cpp:91] Creating Layer inception_4c/pool
I0403 19:05:49.258390  8623 net.cpp:425] inception_4c/pool <- inception_4b/output_inception_4b/output_0_split_3
I0403 19:05:49.258411  8623 net.cpp:399] inception_4c/pool -> inception_4c/pool
I0403 19:05:49.258474  8623 net.cpp:141] Setting up inception_4c/pool
I0403 19:05:49.258497  8623 net.cpp:148] Top shape: 24 512 14 14 (2408448)
I0403 19:05:49.258512  8623 net.cpp:156] Memory required for data: 1060605216
I0403 19:05:49.258525  8623 layer_factory.hpp:77] Creating layer inception_4c/pool_proj
I0403 19:05:49.258546  8623 net.cpp:91] Creating Layer inception_4c/pool_proj
I0403 19:05:49.258563  8623 net.cpp:425] inception_4c/pool_proj <- inception_4c/pool
I0403 19:05:49.258584  8623 net.cpp:399] inception_4c/pool_proj -> inception_4c/pool_proj
I0403 19:05:49.259753  8623 net.cpp:141] Setting up inception_4c/pool_proj
I0403 19:05:49.259781  8623 net.cpp:148] Top shape: 24 64 14 14 (301056)
I0403 19:05:49.259809  8623 net.cpp:156] Memory required for data: 1061809440
I0403 19:05:49.259829  8623 layer_factory.hpp:77] Creating layer inception_4c/relu_pool_proj
I0403 19:05:49.259850  8623 net.cpp:91] Creating Layer inception_4c/relu_pool_proj
I0403 19:05:49.259866  8623 net.cpp:425] inception_4c/relu_pool_proj <- inception_4c/pool_proj
I0403 19:05:49.259884  8623 net.cpp:386] inception_4c/relu_pool_proj -> inception_4c/pool_proj (in-place)
I0403 19:05:49.260076  8623 net.cpp:141] Setting up inception_4c/relu_pool_proj
I0403 19:05:49.260102  8623 net.cpp:148] Top shape: 24 64 14 14 (301056)
I0403 19:05:49.260118  8623 net.cpp:156] Memory required for data: 1063013664
I0403 19:05:49.260133  8623 layer_factory.hpp:77] Creating layer inception_4c/output
I0403 19:05:49.260149  8623 net.cpp:91] Creating Layer inception_4c/output
I0403 19:05:49.260165  8623 net.cpp:425] inception_4c/output <- inception_4c/1x1
I0403 19:05:49.260181  8623 net.cpp:425] inception_4c/output <- inception_4c/3x3
I0403 19:05:49.260197  8623 net.cpp:425] inception_4c/output <- inception_4c/5x5
I0403 19:05:49.260218  8623 net.cpp:425] inception_4c/output <- inception_4c/pool_proj
I0403 19:05:49.260237  8623 net.cpp:399] inception_4c/output -> inception_4c/output
I0403 19:05:49.260287  8623 net.cpp:141] Setting up inception_4c/output
I0403 19:05:49.260309  8623 net.cpp:148] Top shape: 24 512 14 14 (2408448)
I0403 19:05:49.260324  8623 net.cpp:156] Memory required for data: 1072647456
I0403 19:05:49.260339  8623 layer_factory.hpp:77] Creating layer inception_4c/output_inception_4c/output_0_split
I0403 19:05:49.260359  8623 net.cpp:91] Creating Layer inception_4c/output_inception_4c/output_0_split
I0403 19:05:49.260387  8623 net.cpp:425] inception_4c/output_inception_4c/output_0_split <- inception_4c/output
I0403 19:05:49.260404  8623 net.cpp:399] inception_4c/output_inception_4c/output_0_split -> inception_4c/output_inception_4c/output_0_split_0
I0403 19:05:49.260423  8623 net.cpp:399] inception_4c/output_inception_4c/output_0_split -> inception_4c/output_inception_4c/output_0_split_1
I0403 19:05:49.260443  8623 net.cpp:399] inception_4c/output_inception_4c/output_0_split -> inception_4c/output_inception_4c/output_0_split_2
I0403 19:05:49.260467  8623 net.cpp:399] inception_4c/output_inception_4c/output_0_split -> inception_4c/output_inception_4c/output_0_split_3
I0403 19:05:49.260548  8623 net.cpp:141] Setting up inception_4c/output_inception_4c/output_0_split
I0403 19:05:49.260571  8623 net.cpp:148] Top shape: 24 512 14 14 (2408448)
I0403 19:05:49.260586  8623 net.cpp:148] Top shape: 24 512 14 14 (2408448)
I0403 19:05:49.260602  8623 net.cpp:148] Top shape: 24 512 14 14 (2408448)
I0403 19:05:49.260617  8623 net.cpp:148] Top shape: 24 512 14 14 (2408448)
I0403 19:05:49.260630  8623 net.cpp:156] Memory required for data: 1111182624
I0403 19:05:49.260644  8623 layer_factory.hpp:77] Creating layer inception_4d/1x1
I0403 19:05:49.260665  8623 net.cpp:91] Creating Layer inception_4d/1x1
I0403 19:05:49.260684  8623 net.cpp:425] inception_4d/1x1 <- inception_4c/output_inception_4c/output_0_split_0
I0403 19:05:49.260704  8623 net.cpp:399] inception_4d/1x1 -> inception_4d/1x1
I0403 19:05:49.262061  8623 net.cpp:141] Setting up inception_4d/1x1
I0403 19:05:49.262089  8623 net.cpp:148] Top shape: 24 112 14 14 (526848)
I0403 19:05:49.262104  8623 net.cpp:156] Memory required for data: 1113290016
I0403 19:05:49.262121  8623 layer_factory.hpp:77] Creating layer inception_4d/relu_1x1
I0403 19:05:49.262140  8623 net.cpp:91] Creating Layer inception_4d/relu_1x1
I0403 19:05:49.262157  8623 net.cpp:425] inception_4d/relu_1x1 <- inception_4d/1x1
I0403 19:05:49.262174  8623 net.cpp:386] inception_4d/relu_1x1 -> inception_4d/1x1 (in-place)
I0403 19:05:49.262356  8623 net.cpp:141] Setting up inception_4d/relu_1x1
I0403 19:05:49.262380  8623 net.cpp:148] Top shape: 24 112 14 14 (526848)
I0403 19:05:49.262394  8623 net.cpp:156] Memory required for data: 1115397408
I0403 19:05:49.262408  8623 layer_factory.hpp:77] Creating layer inception_4d/3x3_reduce
I0403 19:05:49.262445  8623 net.cpp:91] Creating Layer inception_4d/3x3_reduce
I0403 19:05:49.262464  8623 net.cpp:425] inception_4d/3x3_reduce <- inception_4c/output_inception_4c/output_0_split_1
I0403 19:05:49.262485  8623 net.cpp:399] inception_4d/3x3_reduce -> inception_4d/3x3_reduce
I0403 19:05:49.263968  8623 net.cpp:141] Setting up inception_4d/3x3_reduce
I0403 19:05:49.263998  8623 net.cpp:148] Top shape: 24 144 14 14 (677376)
I0403 19:05:49.264026  8623 net.cpp:156] Memory required for data: 1118106912
I0403 19:05:49.264045  8623 layer_factory.hpp:77] Creating layer inception_4d/relu_3x3_reduce
I0403 19:05:49.264061  8623 net.cpp:91] Creating Layer inception_4d/relu_3x3_reduce
I0403 19:05:49.264077  8623 net.cpp:425] inception_4d/relu_3x3_reduce <- inception_4d/3x3_reduce
I0403 19:05:49.264096  8623 net.cpp:386] inception_4d/relu_3x3_reduce -> inception_4d/3x3_reduce (in-place)
I0403 19:05:49.264379  8623 net.cpp:141] Setting up inception_4d/relu_3x3_reduce
I0403 19:05:49.264407  8623 net.cpp:148] Top shape: 24 144 14 14 (677376)
I0403 19:05:49.264422  8623 net.cpp:156] Memory required for data: 1120816416
I0403 19:05:49.264438  8623 layer_factory.hpp:77] Creating layer inception_4d/3x3
I0403 19:05:49.264459  8623 net.cpp:91] Creating Layer inception_4d/3x3
I0403 19:05:49.264477  8623 net.cpp:425] inception_4d/3x3 <- inception_4d/3x3_reduce
I0403 19:05:49.264497  8623 net.cpp:399] inception_4d/3x3 -> inception_4d/3x3
I0403 19:05:49.268712  8623 net.cpp:141] Setting up inception_4d/3x3
I0403 19:05:49.268741  8623 net.cpp:148] Top shape: 24 288 14 14 (1354752)
I0403 19:05:49.268756  8623 net.cpp:156] Memory required for data: 1126235424
I0403 19:05:49.268774  8623 layer_factory.hpp:77] Creating layer inception_4d/relu_3x3
I0403 19:05:49.268791  8623 net.cpp:91] Creating Layer inception_4d/relu_3x3
I0403 19:05:49.268806  8623 net.cpp:425] inception_4d/relu_3x3 <- inception_4d/3x3
I0403 19:05:49.268826  8623 net.cpp:386] inception_4d/relu_3x3 -> inception_4d/3x3 (in-place)
I0403 19:05:49.269002  8623 net.cpp:141] Setting up inception_4d/relu_3x3
I0403 19:05:49.269026  8623 net.cpp:148] Top shape: 24 288 14 14 (1354752)
I0403 19:05:49.269042  8623 net.cpp:156] Memory required for data: 1131654432
I0403 19:05:49.269057  8623 layer_factory.hpp:77] Creating layer inception_4d/5x5_reduce
I0403 19:05:49.269078  8623 net.cpp:91] Creating Layer inception_4d/5x5_reduce
I0403 19:05:49.269094  8623 net.cpp:425] inception_4d/5x5_reduce <- inception_4c/output_inception_4c/output_0_split_2
I0403 19:05:49.269114  8623 net.cpp:399] inception_4d/5x5_reduce -> inception_4d/5x5_reduce
I0403 19:05:49.270243  8623 net.cpp:141] Setting up inception_4d/5x5_reduce
I0403 19:05:49.270272  8623 net.cpp:148] Top shape: 24 32 14 14 (150528)
I0403 19:05:49.270287  8623 net.cpp:156] Memory required for data: 1132256544
I0403 19:05:49.270305  8623 layer_factory.hpp:77] Creating layer inception_4d/relu_5x5_reduce
I0403 19:05:49.270325  8623 net.cpp:91] Creating Layer inception_4d/relu_5x5_reduce
I0403 19:05:49.270342  8623 net.cpp:425] inception_4d/relu_5x5_reduce <- inception_4d/5x5_reduce
I0403 19:05:49.270360  8623 net.cpp:386] inception_4d/relu_5x5_reduce -> inception_4d/5x5_reduce (in-place)
I0403 19:05:49.270556  8623 net.cpp:141] Setting up inception_4d/relu_5x5_reduce
I0403 19:05:49.270581  8623 net.cpp:148] Top shape: 24 32 14 14 (150528)
I0403 19:05:49.270596  8623 net.cpp:156] Memory required for data: 1132858656
I0403 19:05:49.270609  8623 layer_factory.hpp:77] Creating layer inception_4d/5x5
I0403 19:05:49.270632  8623 net.cpp:91] Creating Layer inception_4d/5x5
I0403 19:05:49.270649  8623 net.cpp:425] inception_4d/5x5 <- inception_4d/5x5_reduce
I0403 19:05:49.270668  8623 net.cpp:399] inception_4d/5x5 -> inception_4d/5x5
I0403 19:05:49.272078  8623 net.cpp:141] Setting up inception_4d/5x5
I0403 19:05:49.272105  8623 net.cpp:148] Top shape: 24 64 14 14 (301056)
I0403 19:05:49.272120  8623 net.cpp:156] Memory required for data: 1134062880
I0403 19:05:49.272138  8623 layer_factory.hpp:77] Creating layer inception_4d/relu_5x5
I0403 19:05:49.272172  8623 net.cpp:91] Creating Layer inception_4d/relu_5x5
I0403 19:05:49.272189  8623 net.cpp:425] inception_4d/relu_5x5 <- inception_4d/5x5
I0403 19:05:49.272207  8623 net.cpp:386] inception_4d/relu_5x5 -> inception_4d/5x5 (in-place)
I0403 19:05:49.272505  8623 net.cpp:141] Setting up inception_4d/relu_5x5
I0403 19:05:49.272531  8623 net.cpp:148] Top shape: 24 64 14 14 (301056)
I0403 19:05:49.272546  8623 net.cpp:156] Memory required for data: 1135267104
I0403 19:05:49.272559  8623 layer_factory.hpp:77] Creating layer inception_4d/pool
I0403 19:05:49.272579  8623 net.cpp:91] Creating Layer inception_4d/pool
I0403 19:05:49.272596  8623 net.cpp:425] inception_4d/pool <- inception_4c/output_inception_4c/output_0_split_3
I0403 19:05:49.272614  8623 net.cpp:399] inception_4d/pool -> inception_4d/pool
I0403 19:05:49.272680  8623 net.cpp:141] Setting up inception_4d/pool
I0403 19:05:49.272703  8623 net.cpp:148] Top shape: 24 512 14 14 (2408448)
I0403 19:05:49.272718  8623 net.cpp:156] Memory required for data: 1144900896
I0403 19:05:49.272732  8623 layer_factory.hpp:77] Creating layer inception_4d/pool_proj
I0403 19:05:49.272753  8623 net.cpp:91] Creating Layer inception_4d/pool_proj
I0403 19:05:49.272770  8623 net.cpp:425] inception_4d/pool_proj <- inception_4d/pool
I0403 19:05:49.272790  8623 net.cpp:399] inception_4d/pool_proj -> inception_4d/pool_proj
I0403 19:05:49.274487  8623 net.cpp:141] Setting up inception_4d/pool_proj
I0403 19:05:49.274515  8623 net.cpp:148] Top shape: 24 64 14 14 (301056)
I0403 19:05:49.274530  8623 net.cpp:156] Memory required for data: 1146105120
I0403 19:05:49.274549  8623 layer_factory.hpp:77] Creating layer inception_4d/relu_pool_proj
I0403 19:05:49.274567  8623 net.cpp:91] Creating Layer inception_4d/relu_pool_proj
I0403 19:05:49.274583  8623 net.cpp:425] inception_4d/relu_pool_proj <- inception_4d/pool_proj
I0403 19:05:49.274602  8623 net.cpp:386] inception_4d/relu_pool_proj -> inception_4d/pool_proj (in-place)
I0403 19:05:49.274783  8623 net.cpp:141] Setting up inception_4d/relu_pool_proj
I0403 19:05:49.274807  8623 net.cpp:148] Top shape: 24 64 14 14 (301056)
I0403 19:05:49.274821  8623 net.cpp:156] Memory required for data: 1147309344
I0403 19:05:49.274835  8623 layer_factory.hpp:77] Creating layer inception_4d/output
I0403 19:05:49.274854  8623 net.cpp:91] Creating Layer inception_4d/output
I0403 19:05:49.274870  8623 net.cpp:425] inception_4d/output <- inception_4d/1x1
I0403 19:05:49.274888  8623 net.cpp:425] inception_4d/output <- inception_4d/3x3
I0403 19:05:49.274902  8623 net.cpp:425] inception_4d/output <- inception_4d/5x5
I0403 19:05:49.274919  8623 net.cpp:425] inception_4d/output <- inception_4d/pool_proj
I0403 19:05:49.274935  8623 net.cpp:399] inception_4d/output -> inception_4d/output
I0403 19:05:49.274983  8623 net.cpp:141] Setting up inception_4d/output
I0403 19:05:49.275007  8623 net.cpp:148] Top shape: 24 528 14 14 (2483712)
I0403 19:05:49.275022  8623 net.cpp:156] Memory required for data: 1157244192
I0403 19:05:49.275034  8623 layer_factory.hpp:77] Creating layer inception_4d/output_inception_4d/output_0_split
I0403 19:05:49.275051  8623 net.cpp:91] Creating Layer inception_4d/output_inception_4d/output_0_split
I0403 19:05:49.275066  8623 net.cpp:425] inception_4d/output_inception_4d/output_0_split <- inception_4d/output
I0403 19:05:49.275086  8623 net.cpp:399] inception_4d/output_inception_4d/output_0_split -> inception_4d/output_inception_4d/output_0_split_0
I0403 19:05:49.275106  8623 net.cpp:399] inception_4d/output_inception_4d/output_0_split -> inception_4d/output_inception_4d/output_0_split_1
I0403 19:05:49.275127  8623 net.cpp:399] inception_4d/output_inception_4d/output_0_split -> inception_4d/output_inception_4d/output_0_split_2
I0403 19:05:49.275146  8623 net.cpp:399] inception_4d/output_inception_4d/output_0_split -> inception_4d/output_inception_4d/output_0_split_3
I0403 19:05:49.275166  8623 net.cpp:399] inception_4d/output_inception_4d/output_0_split -> inception_4d/output_inception_4d/output_0_split_4
I0403 19:05:49.275285  8623 net.cpp:141] Setting up inception_4d/output_inception_4d/output_0_split
I0403 19:05:49.275321  8623 net.cpp:148] Top shape: 24 528 14 14 (2483712)
I0403 19:05:49.275338  8623 net.cpp:148] Top shape: 24 528 14 14 (2483712)
I0403 19:05:49.275355  8623 net.cpp:148] Top shape: 24 528 14 14 (2483712)
I0403 19:05:49.275370  8623 net.cpp:148] Top shape: 24 528 14 14 (2483712)
I0403 19:05:49.275387  8623 net.cpp:148] Top shape: 24 528 14 14 (2483712)
I0403 19:05:49.275400  8623 net.cpp:156] Memory required for data: 1206918432
I0403 19:05:49.275415  8623 layer_factory.hpp:77] Creating layer loss2/ave_pool
I0403 19:05:49.275434  8623 net.cpp:91] Creating Layer loss2/ave_pool
I0403 19:05:49.275449  8623 net.cpp:425] loss2/ave_pool <- inception_4d/output_inception_4d/output_0_split_0
I0403 19:05:49.275470  8623 net.cpp:399] loss2/ave_pool -> loss2/ave_pool
I0403 19:05:49.275785  8623 net.cpp:141] Setting up loss2/ave_pool
I0403 19:05:49.275811  8623 net.cpp:148] Top shape: 24 528 4 4 (202752)
I0403 19:05:49.275826  8623 net.cpp:156] Memory required for data: 1207729440
I0403 19:05:49.275840  8623 layer_factory.hpp:77] Creating layer loss2/conv
I0403 19:05:49.275862  8623 net.cpp:91] Creating Layer loss2/conv
I0403 19:05:49.275881  8623 net.cpp:425] loss2/conv <- loss2/ave_pool
I0403 19:05:49.275902  8623 net.cpp:399] loss2/conv -> loss2/conv
I0403 19:05:49.277766  8623 net.cpp:141] Setting up loss2/conv
I0403 19:05:49.277797  8623 net.cpp:148] Top shape: 24 128 4 4 (49152)
I0403 19:05:49.277813  8623 net.cpp:156] Memory required for data: 1207926048
I0403 19:05:49.277832  8623 layer_factory.hpp:77] Creating layer loss2/relu_conv
I0403 19:05:49.277849  8623 net.cpp:91] Creating Layer loss2/relu_conv
I0403 19:05:49.277866  8623 net.cpp:425] loss2/relu_conv <- loss2/conv
I0403 19:05:49.277884  8623 net.cpp:386] loss2/relu_conv -> loss2/conv (in-place)
I0403 19:05:49.278159  8623 net.cpp:141] Setting up loss2/relu_conv
I0403 19:05:49.278187  8623 net.cpp:148] Top shape: 24 128 4 4 (49152)
I0403 19:05:49.278203  8623 net.cpp:156] Memory required for data: 1208122656
I0403 19:05:49.278221  8623 layer_factory.hpp:77] Creating layer loss2/fc
I0403 19:05:49.278241  8623 net.cpp:91] Creating Layer loss2/fc
I0403 19:05:49.278257  8623 net.cpp:425] loss2/fc <- loss2/conv
I0403 19:05:49.278277  8623 net.cpp:399] loss2/fc -> loss2/fc
I0403 19:05:49.295749  8623 net.cpp:141] Setting up loss2/fc
I0403 19:05:49.295783  8623 net.cpp:148] Top shape: 24 1024 (24576)
I0403 19:05:49.295799  8623 net.cpp:156] Memory required for data: 1208220960
I0403 19:05:49.295817  8623 layer_factory.hpp:77] Creating layer loss2/relu_fc
I0403 19:05:49.295837  8623 net.cpp:91] Creating Layer loss2/relu_fc
I0403 19:05:49.295855  8623 net.cpp:425] loss2/relu_fc <- loss2/fc
I0403 19:05:49.295871  8623 net.cpp:386] loss2/relu_fc -> loss2/fc (in-place)
I0403 19:05:49.296159  8623 net.cpp:141] Setting up loss2/relu_fc
I0403 19:05:49.296183  8623 net.cpp:148] Top shape: 24 1024 (24576)
I0403 19:05:49.296198  8623 net.cpp:156] Memory required for data: 1208319264
I0403 19:05:49.296216  8623 layer_factory.hpp:77] Creating layer loss2/drop_fc
I0403 19:05:49.296238  8623 net.cpp:91] Creating Layer loss2/drop_fc
I0403 19:05:49.296254  8623 net.cpp:425] loss2/drop_fc <- loss2/fc
I0403 19:05:49.296272  8623 net.cpp:386] loss2/drop_fc -> loss2/fc (in-place)
I0403 19:05:49.296319  8623 net.cpp:141] Setting up loss2/drop_fc
I0403 19:05:49.296344  8623 net.cpp:148] Top shape: 24 1024 (24576)
I0403 19:05:49.296358  8623 net.cpp:156] Memory required for data: 1208417568
I0403 19:05:49.296372  8623 layer_factory.hpp:77] Creating layer loss2/classifier_plantvillage
I0403 19:05:49.296391  8623 net.cpp:91] Creating Layer loss2/classifier_plantvillage
I0403 19:05:49.296406  8623 net.cpp:425] loss2/classifier_plantvillage <- loss2/fc
I0403 19:05:49.296427  8623 net.cpp:399] loss2/classifier_plantvillage -> loss2/classifier_plantvillage
I0403 19:05:49.296819  8623 net.cpp:141] Setting up loss2/classifier_plantvillage
I0403 19:05:49.296844  8623 net.cpp:148] Top shape: 24 38 (912)
I0403 19:05:49.296871  8623 net.cpp:156] Memory required for data: 1208421216
I0403 19:05:49.296896  8623 layer_factory.hpp:77] Creating layer loss2/classifier_plantvillage_loss2/classifier_plantvillage_0_split
I0403 19:05:49.296913  8623 net.cpp:91] Creating Layer loss2/classifier_plantvillage_loss2/classifier_plantvillage_0_split
I0403 19:05:49.296929  8623 net.cpp:425] loss2/classifier_plantvillage_loss2/classifier_plantvillage_0_split <- loss2/classifier_plantvillage
I0403 19:05:49.296947  8623 net.cpp:399] loss2/classifier_plantvillage_loss2/classifier_plantvillage_0_split -> loss2/classifier_plantvillage_loss2/classifier_plantvillage_0_split_0
I0403 19:05:49.296968  8623 net.cpp:399] loss2/classifier_plantvillage_loss2/classifier_plantvillage_0_split -> loss2/classifier_plantvillage_loss2/classifier_plantvillage_0_split_1
I0403 19:05:49.296990  8623 net.cpp:399] loss2/classifier_plantvillage_loss2/classifier_plantvillage_0_split -> loss2/classifier_plantvillage_loss2/classifier_plantvillage_0_split_2
I0403 19:05:49.297065  8623 net.cpp:141] Setting up loss2/classifier_plantvillage_loss2/classifier_plantvillage_0_split
I0403 19:05:49.297087  8623 net.cpp:148] Top shape: 24 38 (912)
I0403 19:05:49.297103  8623 net.cpp:148] Top shape: 24 38 (912)
I0403 19:05:49.297118  8623 net.cpp:148] Top shape: 24 38 (912)
I0403 19:05:49.297132  8623 net.cpp:156] Memory required for data: 1208432160
I0403 19:05:49.297145  8623 layer_factory.hpp:77] Creating layer inception_4e/1x1
I0403 19:05:49.297168  8623 net.cpp:91] Creating Layer inception_4e/1x1
I0403 19:05:49.297184  8623 net.cpp:425] inception_4e/1x1 <- inception_4d/output_inception_4d/output_0_split_1
I0403 19:05:49.297204  8623 net.cpp:399] inception_4e/1x1 -> inception_4e/1x1
I0403 19:05:49.298995  8623 net.cpp:141] Setting up inception_4e/1x1
I0403 19:05:49.299026  8623 net.cpp:148] Top shape: 24 256 14 14 (1204224)
I0403 19:05:49.299041  8623 net.cpp:156] Memory required for data: 1213249056
I0403 19:05:49.299059  8623 layer_factory.hpp:77] Creating layer inception_4e/relu_1x1
I0403 19:05:49.299077  8623 net.cpp:91] Creating Layer inception_4e/relu_1x1
I0403 19:05:49.299093  8623 net.cpp:425] inception_4e/relu_1x1 <- inception_4e/1x1
I0403 19:05:49.299113  8623 net.cpp:386] inception_4e/relu_1x1 -> inception_4e/1x1 (in-place)
I0403 19:05:49.299407  8623 net.cpp:141] Setting up inception_4e/relu_1x1
I0403 19:05:49.299434  8623 net.cpp:148] Top shape: 24 256 14 14 (1204224)
I0403 19:05:49.299450  8623 net.cpp:156] Memory required for data: 1218065952
I0403 19:05:49.299464  8623 layer_factory.hpp:77] Creating layer inception_4e/3x3_reduce
I0403 19:05:49.299486  8623 net.cpp:91] Creating Layer inception_4e/3x3_reduce
I0403 19:05:49.299504  8623 net.cpp:425] inception_4e/3x3_reduce <- inception_4d/output_inception_4d/output_0_split_2
I0403 19:05:49.299522  8623 net.cpp:399] inception_4e/3x3_reduce -> inception_4e/3x3_reduce
I0403 19:05:49.301612  8623 net.cpp:141] Setting up inception_4e/3x3_reduce
I0403 19:05:49.301640  8623 net.cpp:148] Top shape: 24 160 14 14 (752640)
I0403 19:05:49.301656  8623 net.cpp:156] Memory required for data: 1221076512
I0403 19:05:49.301674  8623 layer_factory.hpp:77] Creating layer inception_4e/relu_3x3_reduce
I0403 19:05:49.301695  8623 net.cpp:91] Creating Layer inception_4e/relu_3x3_reduce
I0403 19:05:49.301712  8623 net.cpp:425] inception_4e/relu_3x3_reduce <- inception_4e/3x3_reduce
I0403 19:05:49.301728  8623 net.cpp:386] inception_4e/relu_3x3_reduce -> inception_4e/3x3_reduce (in-place)
I0403 19:05:49.301913  8623 net.cpp:141] Setting up inception_4e/relu_3x3_reduce
I0403 19:05:49.301939  8623 net.cpp:148] Top shape: 24 160 14 14 (752640)
I0403 19:05:49.301955  8623 net.cpp:156] Memory required for data: 1224087072
I0403 19:05:49.301970  8623 layer_factory.hpp:77] Creating layer inception_4e/3x3
I0403 19:05:49.301991  8623 net.cpp:91] Creating Layer inception_4e/3x3
I0403 19:05:49.302008  8623 net.cpp:425] inception_4e/3x3 <- inception_4e/3x3_reduce
I0403 19:05:49.302026  8623 net.cpp:399] inception_4e/3x3 -> inception_4e/3x3
I0403 19:05:49.306949  8623 net.cpp:141] Setting up inception_4e/3x3
I0403 19:05:49.306993  8623 net.cpp:148] Top shape: 24 320 14 14 (1505280)
I0403 19:05:49.307010  8623 net.cpp:156] Memory required for data: 1230108192
I0403 19:05:49.307027  8623 layer_factory.hpp:77] Creating layer inception_4e/relu_3x3
I0403 19:05:49.307045  8623 net.cpp:91] Creating Layer inception_4e/relu_3x3
I0403 19:05:49.307061  8623 net.cpp:425] inception_4e/relu_3x3 <- inception_4e/3x3
I0403 19:05:49.307085  8623 net.cpp:386] inception_4e/relu_3x3 -> inception_4e/3x3 (in-place)
I0403 19:05:49.307394  8623 net.cpp:141] Setting up inception_4e/relu_3x3
I0403 19:05:49.307421  8623 net.cpp:148] Top shape: 24 320 14 14 (1505280)
I0403 19:05:49.307436  8623 net.cpp:156] Memory required for data: 1236129312
I0403 19:05:49.307451  8623 layer_factory.hpp:77] Creating layer inception_4e/5x5_reduce
I0403 19:05:49.307476  8623 net.cpp:91] Creating Layer inception_4e/5x5_reduce
I0403 19:05:49.307493  8623 net.cpp:425] inception_4e/5x5_reduce <- inception_4d/output_inception_4d/output_0_split_3
I0403 19:05:49.307526  8623 net.cpp:399] inception_4e/5x5_reduce -> inception_4e/5x5_reduce
I0403 19:05:49.308562  8623 net.cpp:141] Setting up inception_4e/5x5_reduce
I0403 19:05:49.308590  8623 net.cpp:148] Top shape: 24 32 14 14 (150528)
I0403 19:05:49.308605  8623 net.cpp:156] Memory required for data: 1236731424
I0403 19:05:49.308624  8623 layer_factory.hpp:77] Creating layer inception_4e/relu_5x5_reduce
I0403 19:05:49.308642  8623 net.cpp:91] Creating Layer inception_4e/relu_5x5_reduce
I0403 19:05:49.308660  8623 net.cpp:425] inception_4e/relu_5x5_reduce <- inception_4e/5x5_reduce
I0403 19:05:49.308676  8623 net.cpp:386] inception_4e/relu_5x5_reduce -> inception_4e/5x5_reduce (in-place)
I0403 19:05:49.308969  8623 net.cpp:141] Setting up inception_4e/relu_5x5_reduce
I0403 19:05:49.308993  8623 net.cpp:148] Top shape: 24 32 14 14 (150528)
I0403 19:05:49.309008  8623 net.cpp:156] Memory required for data: 1237333536
I0403 19:05:49.309022  8623 layer_factory.hpp:77] Creating layer inception_4e/5x5
I0403 19:05:49.309061  8623 net.cpp:91] Creating Layer inception_4e/5x5
I0403 19:05:49.309079  8623 net.cpp:425] inception_4e/5x5 <- inception_4e/5x5_reduce
I0403 19:05:49.309098  8623 net.cpp:399] inception_4e/5x5 -> inception_4e/5x5
I0403 19:05:49.310900  8623 net.cpp:141] Setting up inception_4e/5x5
I0403 19:05:49.310927  8623 net.cpp:148] Top shape: 24 128 14 14 (602112)
I0403 19:05:49.310942  8623 net.cpp:156] Memory required for data: 1239741984
I0403 19:05:49.310961  8623 layer_factory.hpp:77] Creating layer inception_4e/relu_5x5
I0403 19:05:49.310981  8623 net.cpp:91] Creating Layer inception_4e/relu_5x5
I0403 19:05:49.310998  8623 net.cpp:425] inception_4e/relu_5x5 <- inception_4e/5x5
I0403 19:05:49.311015  8623 net.cpp:386] inception_4e/relu_5x5 -> inception_4e/5x5 (in-place)
I0403 19:05:49.311213  8623 net.cpp:141] Setting up inception_4e/relu_5x5
I0403 19:05:49.311239  8623 net.cpp:148] Top shape: 24 128 14 14 (602112)
I0403 19:05:49.311254  8623 net.cpp:156] Memory required for data: 1242150432
I0403 19:05:49.311269  8623 layer_factory.hpp:77] Creating layer inception_4e/pool
I0403 19:05:49.311286  8623 net.cpp:91] Creating Layer inception_4e/pool
I0403 19:05:49.311303  8623 net.cpp:425] inception_4e/pool <- inception_4d/output_inception_4d/output_0_split_4
I0403 19:05:49.311321  8623 net.cpp:399] inception_4e/pool -> inception_4e/pool
I0403 19:05:49.311388  8623 net.cpp:141] Setting up inception_4e/pool
I0403 19:05:49.311413  8623 net.cpp:148] Top shape: 24 528 14 14 (2483712)
I0403 19:05:49.311426  8623 net.cpp:156] Memory required for data: 1252085280
I0403 19:05:49.311440  8623 layer_factory.hpp:77] Creating layer inception_4e/pool_proj
I0403 19:05:49.311461  8623 net.cpp:91] Creating Layer inception_4e/pool_proj
I0403 19:05:49.311478  8623 net.cpp:425] inception_4e/pool_proj <- inception_4e/pool
I0403 19:05:49.311499  8623 net.cpp:399] inception_4e/pool_proj -> inception_4e/pool_proj
I0403 19:05:49.312988  8623 net.cpp:141] Setting up inception_4e/pool_proj
I0403 19:05:49.313025  8623 net.cpp:148] Top shape: 24 128 14 14 (602112)
I0403 19:05:49.313041  8623 net.cpp:156] Memory required for data: 1254493728
I0403 19:05:49.313058  8623 layer_factory.hpp:77] Creating layer inception_4e/relu_pool_proj
I0403 19:05:49.313078  8623 net.cpp:91] Creating Layer inception_4e/relu_pool_proj
I0403 19:05:49.313096  8623 net.cpp:425] inception_4e/relu_pool_proj <- inception_4e/pool_proj
I0403 19:05:49.313112  8623 net.cpp:386] inception_4e/relu_pool_proj -> inception_4e/pool_proj (in-place)
I0403 19:05:49.313408  8623 net.cpp:141] Setting up inception_4e/relu_pool_proj
I0403 19:05:49.313436  8623 net.cpp:148] Top shape: 24 128 14 14 (602112)
I0403 19:05:49.313451  8623 net.cpp:156] Memory required for data: 1256902176
I0403 19:05:49.313464  8623 layer_factory.hpp:77] Creating layer inception_4e/output
I0403 19:05:49.313482  8623 net.cpp:91] Creating Layer inception_4e/output
I0403 19:05:49.313496  8623 net.cpp:425] inception_4e/output <- inception_4e/1x1
I0403 19:05:49.313513  8623 net.cpp:425] inception_4e/output <- inception_4e/3x3
I0403 19:05:49.313529  8623 net.cpp:425] inception_4e/output <- inception_4e/5x5
I0403 19:05:49.313544  8623 net.cpp:425] inception_4e/output <- inception_4e/pool_proj
I0403 19:05:49.313563  8623 net.cpp:399] inception_4e/output -> inception_4e/output
I0403 19:05:49.313613  8623 net.cpp:141] Setting up inception_4e/output
I0403 19:05:49.313637  8623 net.cpp:148] Top shape: 24 832 14 14 (3913728)
I0403 19:05:49.313652  8623 net.cpp:156] Memory required for data: 1272557088
I0403 19:05:49.313665  8623 layer_factory.hpp:77] Creating layer pool4/3x3_s2
I0403 19:05:49.313683  8623 net.cpp:91] Creating Layer pool4/3x3_s2
I0403 19:05:49.313697  8623 net.cpp:425] pool4/3x3_s2 <- inception_4e/output
I0403 19:05:49.313717  8623 net.cpp:399] pool4/3x3_s2 -> pool4/3x3_s2
I0403 19:05:49.313783  8623 net.cpp:141] Setting up pool4/3x3_s2
I0403 19:05:49.313807  8623 net.cpp:148] Top shape: 24 832 7 7 (978432)
I0403 19:05:49.313820  8623 net.cpp:156] Memory required for data: 1276470816
I0403 19:05:49.313835  8623 layer_factory.hpp:77] Creating layer pool4/3x3_s2_pool4/3x3_s2_0_split
I0403 19:05:49.313853  8623 net.cpp:91] Creating Layer pool4/3x3_s2_pool4/3x3_s2_0_split
I0403 19:05:49.313869  8623 net.cpp:425] pool4/3x3_s2_pool4/3x3_s2_0_split <- pool4/3x3_s2
I0403 19:05:49.313886  8623 net.cpp:399] pool4/3x3_s2_pool4/3x3_s2_0_split -> pool4/3x3_s2_pool4/3x3_s2_0_split_0
I0403 19:05:49.313905  8623 net.cpp:399] pool4/3x3_s2_pool4/3x3_s2_0_split -> pool4/3x3_s2_pool4/3x3_s2_0_split_1
I0403 19:05:49.313928  8623 net.cpp:399] pool4/3x3_s2_pool4/3x3_s2_0_split -> pool4/3x3_s2_pool4/3x3_s2_0_split_2
I0403 19:05:49.313947  8623 net.cpp:399] pool4/3x3_s2_pool4/3x3_s2_0_split -> pool4/3x3_s2_pool4/3x3_s2_0_split_3
I0403 19:05:49.314033  8623 net.cpp:141] Setting up pool4/3x3_s2_pool4/3x3_s2_0_split
I0403 19:05:49.314054  8623 net.cpp:148] Top shape: 24 832 7 7 (978432)
I0403 19:05:49.314070  8623 net.cpp:148] Top shape: 24 832 7 7 (978432)
I0403 19:05:49.314085  8623 net.cpp:148] Top shape: 24 832 7 7 (978432)
I0403 19:05:49.314100  8623 net.cpp:148] Top shape: 24 832 7 7 (978432)
I0403 19:05:49.314113  8623 net.cpp:156] Memory required for data: 1292125728
I0403 19:05:49.314128  8623 layer_factory.hpp:77] Creating layer inception_5a/1x1
I0403 19:05:49.314153  8623 net.cpp:91] Creating Layer inception_5a/1x1
I0403 19:05:49.314170  8623 net.cpp:425] inception_5a/1x1 <- pool4/3x3_s2_pool4/3x3_s2_0_split_0
I0403 19:05:49.314191  8623 net.cpp:399] inception_5a/1x1 -> inception_5a/1x1
I0403 19:05:49.317011  8623 net.cpp:141] Setting up inception_5a/1x1
I0403 19:05:49.317040  8623 net.cpp:148] Top shape: 24 256 7 7 (301056)
I0403 19:05:49.317055  8623 net.cpp:156] Memory required for data: 1293329952
I0403 19:05:49.317073  8623 layer_factory.hpp:77] Creating layer inception_5a/relu_1x1
I0403 19:05:49.317093  8623 net.cpp:91] Creating Layer inception_5a/relu_1x1
I0403 19:05:49.317109  8623 net.cpp:425] inception_5a/relu_1x1 <- inception_5a/1x1
I0403 19:05:49.317126  8623 net.cpp:386] inception_5a/relu_1x1 -> inception_5a/1x1 (in-place)
I0403 19:05:49.317457  8623 net.cpp:141] Setting up inception_5a/relu_1x1
I0403 19:05:49.317493  8623 net.cpp:148] Top shape: 24 256 7 7 (301056)
I0403 19:05:49.317520  8623 net.cpp:156] Memory required for data: 1294534176
I0403 19:05:49.317535  8623 layer_factory.hpp:77] Creating layer inception_5a/3x3_reduce
I0403 19:05:49.317558  8623 net.cpp:91] Creating Layer inception_5a/3x3_reduce
I0403 19:05:49.317574  8623 net.cpp:425] inception_5a/3x3_reduce <- pool4/3x3_s2_pool4/3x3_s2_0_split_1
I0403 19:05:49.317595  8623 net.cpp:399] inception_5a/3x3_reduce -> inception_5a/3x3_reduce
I0403 19:05:49.320019  8623 net.cpp:141] Setting up inception_5a/3x3_reduce
I0403 19:05:49.320049  8623 net.cpp:148] Top shape: 24 160 7 7 (188160)
I0403 19:05:49.320065  8623 net.cpp:156] Memory required for data: 1295286816
I0403 19:05:49.320082  8623 layer_factory.hpp:77] Creating layer inception_5a/relu_3x3_reduce
I0403 19:05:49.320099  8623 net.cpp:91] Creating Layer inception_5a/relu_3x3_reduce
I0403 19:05:49.320116  8623 net.cpp:425] inception_5a/relu_3x3_reduce <- inception_5a/3x3_reduce
I0403 19:05:49.320134  8623 net.cpp:386] inception_5a/relu_3x3_reduce -> inception_5a/3x3_reduce (in-place)
I0403 19:05:49.320323  8623 net.cpp:141] Setting up inception_5a/relu_3x3_reduce
I0403 19:05:49.320348  8623 net.cpp:148] Top shape: 24 160 7 7 (188160)
I0403 19:05:49.320363  8623 net.cpp:156] Memory required for data: 1296039456
I0403 19:05:49.320377  8623 layer_factory.hpp:77] Creating layer inception_5a/3x3
I0403 19:05:49.320399  8623 net.cpp:91] Creating Layer inception_5a/3x3
I0403 19:05:49.320416  8623 net.cpp:425] inception_5a/3x3 <- inception_5a/3x3_reduce
I0403 19:05:49.320441  8623 net.cpp:399] inception_5a/3x3 -> inception_5a/3x3
I0403 19:05:49.325484  8623 net.cpp:141] Setting up inception_5a/3x3
I0403 19:05:49.325513  8623 net.cpp:148] Top shape: 24 320 7 7 (376320)
I0403 19:05:49.325530  8623 net.cpp:156] Memory required for data: 1297544736
I0403 19:05:49.325547  8623 layer_factory.hpp:77] Creating layer inception_5a/relu_3x3
I0403 19:05:49.325567  8623 net.cpp:91] Creating Layer inception_5a/relu_3x3
I0403 19:05:49.325583  8623 net.cpp:425] inception_5a/relu_3x3 <- inception_5a/3x3
I0403 19:05:49.325600  8623 net.cpp:386] inception_5a/relu_3x3 -> inception_5a/3x3 (in-place)
I0403 19:05:49.325886  8623 net.cpp:141] Setting up inception_5a/relu_3x3
I0403 19:05:49.325912  8623 net.cpp:148] Top shape: 24 320 7 7 (376320)
I0403 19:05:49.325927  8623 net.cpp:156] Memory required for data: 1299050016
I0403 19:05:49.325942  8623 layer_factory.hpp:77] Creating layer inception_5a/5x5_reduce
I0403 19:05:49.325963  8623 net.cpp:91] Creating Layer inception_5a/5x5_reduce
I0403 19:05:49.325980  8623 net.cpp:425] inception_5a/5x5_reduce <- pool4/3x3_s2_pool4/3x3_s2_0_split_2
I0403 19:05:49.326002  8623 net.cpp:399] inception_5a/5x5_reduce -> inception_5a/5x5_reduce
I0403 19:05:49.327175  8623 net.cpp:141] Setting up inception_5a/5x5_reduce
I0403 19:05:49.327205  8623 net.cpp:148] Top shape: 24 32 7 7 (37632)
I0403 19:05:49.327225  8623 net.cpp:156] Memory required for data: 1299200544
I0403 19:05:49.327244  8623 layer_factory.hpp:77] Creating layer inception_5a/relu_5x5_reduce
I0403 19:05:49.327260  8623 net.cpp:91] Creating Layer inception_5a/relu_5x5_reduce
I0403 19:05:49.327276  8623 net.cpp:425] inception_5a/relu_5x5_reduce <- inception_5a/5x5_reduce
I0403 19:05:49.327294  8623 net.cpp:386] inception_5a/relu_5x5_reduce -> inception_5a/5x5_reduce (in-place)
I0403 19:05:49.327585  8623 net.cpp:141] Setting up inception_5a/relu_5x5_reduce
I0403 19:05:49.327615  8623 net.cpp:148] Top shape: 24 32 7 7 (37632)
I0403 19:05:49.327630  8623 net.cpp:156] Memory required for data: 1299351072
I0403 19:05:49.327647  8623 layer_factory.hpp:77] Creating layer inception_5a/5x5
I0403 19:05:49.327668  8623 net.cpp:91] Creating Layer inception_5a/5x5
I0403 19:05:49.327687  8623 net.cpp:425] inception_5a/5x5 <- inception_5a/5x5_reduce
I0403 19:05:49.327704  8623 net.cpp:399] inception_5a/5x5 -> inception_5a/5x5
I0403 19:05:49.329407  8623 net.cpp:141] Setting up inception_5a/5x5
I0403 19:05:49.329450  8623 net.cpp:148] Top shape: 24 128 7 7 (150528)
I0403 19:05:49.329466  8623 net.cpp:156] Memory required for data: 1299953184
I0403 19:05:49.329484  8623 layer_factory.hpp:77] Creating layer inception_5a/relu_5x5
I0403 19:05:49.329504  8623 net.cpp:91] Creating Layer inception_5a/relu_5x5
I0403 19:05:49.329520  8623 net.cpp:425] inception_5a/relu_5x5 <- inception_5a/5x5
I0403 19:05:49.329537  8623 net.cpp:386] inception_5a/relu_5x5 -> inception_5a/5x5 (in-place)
I0403 19:05:49.329722  8623 net.cpp:141] Setting up inception_5a/relu_5x5
I0403 19:05:49.329749  8623 net.cpp:148] Top shape: 24 128 7 7 (150528)
I0403 19:05:49.329764  8623 net.cpp:156] Memory required for data: 1300555296
I0403 19:05:49.329779  8623 layer_factory.hpp:77] Creating layer inception_5a/pool
I0403 19:05:49.329797  8623 net.cpp:91] Creating Layer inception_5a/pool
I0403 19:05:49.329812  8623 net.cpp:425] inception_5a/pool <- pool4/3x3_s2_pool4/3x3_s2_0_split_3
I0403 19:05:49.329829  8623 net.cpp:399] inception_5a/pool -> inception_5a/pool
I0403 19:05:49.329900  8623 net.cpp:141] Setting up inception_5a/pool
I0403 19:05:49.329922  8623 net.cpp:148] Top shape: 24 832 7 7 (978432)
I0403 19:05:49.329936  8623 net.cpp:156] Memory required for data: 1304469024
I0403 19:05:49.329952  8623 layer_factory.hpp:77] Creating layer inception_5a/pool_proj
I0403 19:05:49.329972  8623 net.cpp:91] Creating Layer inception_5a/pool_proj
I0403 19:05:49.329989  8623 net.cpp:425] inception_5a/pool_proj <- inception_5a/pool
I0403 19:05:49.330009  8623 net.cpp:399] inception_5a/pool_proj -> inception_5a/pool_proj
I0403 19:05:49.332286  8623 net.cpp:141] Setting up inception_5a/pool_proj
I0403 19:05:49.332316  8623 net.cpp:148] Top shape: 24 128 7 7 (150528)
I0403 19:05:49.332334  8623 net.cpp:156] Memory required for data: 1305071136
I0403 19:05:49.332352  8623 layer_factory.hpp:77] Creating layer inception_5a/relu_pool_proj
I0403 19:05:49.332372  8623 net.cpp:91] Creating Layer inception_5a/relu_pool_proj
I0403 19:05:49.332389  8623 net.cpp:425] inception_5a/relu_pool_proj <- inception_5a/pool_proj
I0403 19:05:49.332407  8623 net.cpp:386] inception_5a/relu_pool_proj -> inception_5a/pool_proj (in-place)
I0403 19:05:49.332718  8623 net.cpp:141] Setting up inception_5a/relu_pool_proj
I0403 19:05:49.332744  8623 net.cpp:148] Top shape: 24 128 7 7 (150528)
I0403 19:05:49.332759  8623 net.cpp:156] Memory required for data: 1305673248
I0403 19:05:49.332774  8623 layer_factory.hpp:77] Creating layer inception_5a/output
I0403 19:05:49.332792  8623 net.cpp:91] Creating Layer inception_5a/output
I0403 19:05:49.332806  8623 net.cpp:425] inception_5a/output <- inception_5a/1x1
I0403 19:05:49.332824  8623 net.cpp:425] inception_5a/output <- inception_5a/3x3
I0403 19:05:49.332841  8623 net.cpp:425] inception_5a/output <- inception_5a/5x5
I0403 19:05:49.332857  8623 net.cpp:425] inception_5a/output <- inception_5a/pool_proj
I0403 19:05:49.332873  8623 net.cpp:399] inception_5a/output -> inception_5a/output
I0403 19:05:49.332921  8623 net.cpp:141] Setting up inception_5a/output
I0403 19:05:49.332947  8623 net.cpp:148] Top shape: 24 832 7 7 (978432)
I0403 19:05:49.332962  8623 net.cpp:156] Memory required for data: 1309586976
I0403 19:05:49.332976  8623 layer_factory.hpp:77] Creating layer inception_5a/output_inception_5a/output_0_split
I0403 19:05:49.332993  8623 net.cpp:91] Creating Layer inception_5a/output_inception_5a/output_0_split
I0403 19:05:49.333009  8623 net.cpp:425] inception_5a/output_inception_5a/output_0_split <- inception_5a/output
I0403 19:05:49.333027  8623 net.cpp:399] inception_5a/output_inception_5a/output_0_split -> inception_5a/output_inception_5a/output_0_split_0
I0403 19:05:49.333048  8623 net.cpp:399] inception_5a/output_inception_5a/output_0_split -> inception_5a/output_inception_5a/output_0_split_1
I0403 19:05:49.333067  8623 net.cpp:399] inception_5a/output_inception_5a/output_0_split -> inception_5a/output_inception_5a/output_0_split_2
I0403 19:05:49.333087  8623 net.cpp:399] inception_5a/output_inception_5a/output_0_split -> inception_5a/output_inception_5a/output_0_split_3
I0403 19:05:49.333195  8623 net.cpp:141] Setting up inception_5a/output_inception_5a/output_0_split
I0403 19:05:49.333231  8623 net.cpp:148] Top shape: 24 832 7 7 (978432)
I0403 19:05:49.333250  8623 net.cpp:148] Top shape: 24 832 7 7 (978432)
I0403 19:05:49.333266  8623 net.cpp:148] Top shape: 24 832 7 7 (978432)
I0403 19:05:49.333279  8623 net.cpp:148] Top shape: 24 832 7 7 (978432)
I0403 19:05:49.333293  8623 net.cpp:156] Memory required for data: 1325241888
I0403 19:05:49.333307  8623 layer_factory.hpp:77] Creating layer inception_5b/1x1
I0403 19:05:49.333329  8623 net.cpp:91] Creating Layer inception_5b/1x1
I0403 19:05:49.333346  8623 net.cpp:425] inception_5b/1x1 <- inception_5a/output_inception_5a/output_0_split_0
I0403 19:05:49.333365  8623 net.cpp:399] inception_5b/1x1 -> inception_5b/1x1
I0403 19:05:49.337085  8623 net.cpp:141] Setting up inception_5b/1x1
I0403 19:05:49.337116  8623 net.cpp:148] Top shape: 24 384 7 7 (451584)
I0403 19:05:49.337131  8623 net.cpp:156] Memory required for data: 1327048224
I0403 19:05:49.337149  8623 layer_factory.hpp:77] Creating layer inception_5b/relu_1x1
I0403 19:05:49.337167  8623 net.cpp:91] Creating Layer inception_5b/relu_1x1
I0403 19:05:49.337182  8623 net.cpp:425] inception_5b/relu_1x1 <- inception_5b/1x1
I0403 19:05:49.337203  8623 net.cpp:386] inception_5b/relu_1x1 -> inception_5b/1x1 (in-place)
I0403 19:05:49.337504  8623 net.cpp:141] Setting up inception_5b/relu_1x1
I0403 19:05:49.337530  8623 net.cpp:148] Top shape: 24 384 7 7 (451584)
I0403 19:05:49.337544  8623 net.cpp:156] Memory required for data: 1328854560
I0403 19:05:49.337558  8623 layer_factory.hpp:77] Creating layer inception_5b/3x3_reduce
I0403 19:05:49.337581  8623 net.cpp:91] Creating Layer inception_5b/3x3_reduce
I0403 19:05:49.337599  8623 net.cpp:425] inception_5b/3x3_reduce <- inception_5a/output_inception_5a/output_0_split_1
I0403 19:05:49.337620  8623 net.cpp:399] inception_5b/3x3_reduce -> inception_5b/3x3_reduce
I0403 19:05:49.340229  8623 net.cpp:141] Setting up inception_5b/3x3_reduce
I0403 19:05:49.340260  8623 net.cpp:148] Top shape: 24 192 7 7 (225792)
I0403 19:05:49.340276  8623 net.cpp:156] Memory required for data: 1329757728
I0403 19:05:49.340296  8623 layer_factory.hpp:77] Creating layer inception_5b/relu_3x3_reduce
I0403 19:05:49.340315  8623 net.cpp:91] Creating Layer inception_5b/relu_3x3_reduce
I0403 19:05:49.340332  8623 net.cpp:425] inception_5b/relu_3x3_reduce <- inception_5b/3x3_reduce
I0403 19:05:49.340350  8623 net.cpp:386] inception_5b/relu_3x3_reduce -> inception_5b/3x3_reduce (in-place)
I0403 19:05:49.340553  8623 net.cpp:141] Setting up inception_5b/relu_3x3_reduce
I0403 19:05:49.340576  8623 net.cpp:148] Top shape: 24 192 7 7 (225792)
I0403 19:05:49.340591  8623 net.cpp:156] Memory required for data: 1330660896
I0403 19:05:49.340606  8623 layer_factory.hpp:77] Creating layer inception_5b/3x3
I0403 19:05:49.340627  8623 net.cpp:91] Creating Layer inception_5b/3x3
I0403 19:05:49.340647  8623 net.cpp:425] inception_5b/3x3 <- inception_5b/3x3_reduce
I0403 19:05:49.340667  8623 net.cpp:399] inception_5b/3x3 -> inception_5b/3x3
I0403 19:05:49.347280  8623 net.cpp:141] Setting up inception_5b/3x3
I0403 19:05:49.347311  8623 net.cpp:148] Top shape: 24 384 7 7 (451584)
I0403 19:05:49.347329  8623 net.cpp:156] Memory required for data: 1332467232
I0403 19:05:49.347348  8623 layer_factory.hpp:77] Creating layer inception_5b/relu_3x3
I0403 19:05:49.347369  8623 net.cpp:91] Creating Layer inception_5b/relu_3x3
I0403 19:05:49.347386  8623 net.cpp:425] inception_5b/relu_3x3 <- inception_5b/3x3
I0403 19:05:49.347404  8623 net.cpp:386] inception_5b/relu_3x3 -> inception_5b/3x3 (in-place)
I0403 19:05:49.347713  8623 net.cpp:141] Setting up inception_5b/relu_3x3
I0403 19:05:49.347740  8623 net.cpp:148] Top shape: 24 384 7 7 (451584)
I0403 19:05:49.347755  8623 net.cpp:156] Memory required for data: 1334273568
I0403 19:05:49.347770  8623 layer_factory.hpp:77] Creating layer inception_5b/5x5_reduce
I0403 19:05:49.347807  8623 net.cpp:91] Creating Layer inception_5b/5x5_reduce
I0403 19:05:49.347826  8623 net.cpp:425] inception_5b/5x5_reduce <- inception_5a/output_inception_5a/output_0_split_2
I0403 19:05:49.347848  8623 net.cpp:399] inception_5b/5x5_reduce -> inception_5b/5x5_reduce
I0403 19:05:49.349087  8623 net.cpp:141] Setting up inception_5b/5x5_reduce
I0403 19:05:49.349115  8623 net.cpp:148] Top shape: 24 48 7 7 (56448)
I0403 19:05:49.349131  8623 net.cpp:156] Memory required for data: 1334499360
I0403 19:05:49.349148  8623 layer_factory.hpp:77] Creating layer inception_5b/relu_5x5_reduce
I0403 19:05:49.349169  8623 net.cpp:91] Creating Layer inception_5b/relu_5x5_reduce
I0403 19:05:49.349185  8623 net.cpp:425] inception_5b/relu_5x5_reduce <- inception_5b/5x5_reduce
I0403 19:05:49.349203  8623 net.cpp:386] inception_5b/relu_5x5_reduce -> inception_5b/5x5_reduce (in-place)
I0403 19:05:49.349604  8623 net.cpp:141] Setting up inception_5b/relu_5x5_reduce
I0403 19:05:49.349630  8623 net.cpp:148] Top shape: 24 48 7 7 (56448)
I0403 19:05:49.349645  8623 net.cpp:156] Memory required for data: 1334725152
I0403 19:05:49.349660  8623 layer_factory.hpp:77] Creating layer inception_5b/5x5
I0403 19:05:49.349680  8623 net.cpp:91] Creating Layer inception_5b/5x5
I0403 19:05:49.349697  8623 net.cpp:425] inception_5b/5x5 <- inception_5b/5x5_reduce
I0403 19:05:49.349716  8623 net.cpp:399] inception_5b/5x5 -> inception_5b/5x5
I0403 19:05:49.351737  8623 net.cpp:141] Setting up inception_5b/5x5
I0403 19:05:49.351763  8623 net.cpp:148] Top shape: 24 128 7 7 (150528)
I0403 19:05:49.351779  8623 net.cpp:156] Memory required for data: 1335327264
I0403 19:05:49.351797  8623 layer_factory.hpp:77] Creating layer inception_5b/relu_5x5
I0403 19:05:49.351821  8623 net.cpp:91] Creating Layer inception_5b/relu_5x5
I0403 19:05:49.351840  8623 net.cpp:425] inception_5b/relu_5x5 <- inception_5b/5x5
I0403 19:05:49.351856  8623 net.cpp:386] inception_5b/relu_5x5 -> inception_5b/5x5 (in-place)
I0403 19:05:49.352058  8623 net.cpp:141] Setting up inception_5b/relu_5x5
I0403 19:05:49.352084  8623 net.cpp:148] Top shape: 24 128 7 7 (150528)
I0403 19:05:49.352100  8623 net.cpp:156] Memory required for data: 1335929376
I0403 19:05:49.352115  8623 layer_factory.hpp:77] Creating layer inception_5b/pool
I0403 19:05:49.352133  8623 net.cpp:91] Creating Layer inception_5b/pool
I0403 19:05:49.352147  8623 net.cpp:425] inception_5b/pool <- inception_5a/output_inception_5a/output_0_split_3
I0403 19:05:49.352167  8623 net.cpp:399] inception_5b/pool -> inception_5b/pool
I0403 19:05:49.352244  8623 net.cpp:141] Setting up inception_5b/pool
I0403 19:05:49.352267  8623 net.cpp:148] Top shape: 24 832 7 7 (978432)
I0403 19:05:49.352282  8623 net.cpp:156] Memory required for data: 1339843104
I0403 19:05:49.352295  8623 layer_factory.hpp:77] Creating layer inception_5b/pool_proj
I0403 19:05:49.352318  8623 net.cpp:91] Creating Layer inception_5b/pool_proj
I0403 19:05:49.352334  8623 net.cpp:425] inception_5b/pool_proj <- inception_5b/pool
I0403 19:05:49.352355  8623 net.cpp:399] inception_5b/pool_proj -> inception_5b/pool_proj
I0403 19:05:49.354611  8623 net.cpp:141] Setting up inception_5b/pool_proj
I0403 19:05:49.354640  8623 net.cpp:148] Top shape: 24 128 7 7 (150528)
I0403 19:05:49.354656  8623 net.cpp:156] Memory required for data: 1340445216
I0403 19:05:49.354674  8623 layer_factory.hpp:77] Creating layer inception_5b/relu_pool_proj
I0403 19:05:49.354694  8623 net.cpp:91] Creating Layer inception_5b/relu_pool_proj
I0403 19:05:49.354712  8623 net.cpp:425] inception_5b/relu_pool_proj <- inception_5b/pool_proj
I0403 19:05:49.354729  8623 net.cpp:386] inception_5b/relu_pool_proj -> inception_5b/pool_proj (in-place)
I0403 19:05:49.355029  8623 net.cpp:141] Setting up inception_5b/relu_pool_proj
I0403 19:05:49.355056  8623 net.cpp:148] Top shape: 24 128 7 7 (150528)
I0403 19:05:49.355070  8623 net.cpp:156] Memory required for data: 1341047328
I0403 19:05:49.355084  8623 layer_factory.hpp:77] Creating layer inception_5b/output
I0403 19:05:49.355101  8623 net.cpp:91] Creating Layer inception_5b/output
I0403 19:05:49.355131  8623 net.cpp:425] inception_5b/output <- inception_5b/1x1
I0403 19:05:49.355149  8623 net.cpp:425] inception_5b/output <- inception_5b/3x3
I0403 19:05:49.355165  8623 net.cpp:425] inception_5b/output <- inception_5b/5x5
I0403 19:05:49.355180  8623 net.cpp:425] inception_5b/output <- inception_5b/pool_proj
I0403 19:05:49.355200  8623 net.cpp:399] inception_5b/output -> inception_5b/output
I0403 19:05:49.355257  8623 net.cpp:141] Setting up inception_5b/output
I0403 19:05:49.355281  8623 net.cpp:148] Top shape: 24 1024 7 7 (1204224)
I0403 19:05:49.355295  8623 net.cpp:156] Memory required for data: 1345864224
I0403 19:05:49.355309  8623 layer_factory.hpp:77] Creating layer pool5/7x7_s1
I0403 19:05:49.355327  8623 net.cpp:91] Creating Layer pool5/7x7_s1
I0403 19:05:49.355342  8623 net.cpp:425] pool5/7x7_s1 <- inception_5b/output
I0403 19:05:49.355362  8623 net.cpp:399] pool5/7x7_s1 -> pool5/7x7_s1
I0403 19:05:49.355574  8623 net.cpp:141] Setting up pool5/7x7_s1
I0403 19:05:49.355599  8623 net.cpp:148] Top shape: 24 1024 1 1 (24576)
I0403 19:05:49.355613  8623 net.cpp:156] Memory required for data: 1345962528
I0403 19:05:49.355628  8623 layer_factory.hpp:77] Creating layer pool5/drop_7x7_s1
I0403 19:05:49.355648  8623 net.cpp:91] Creating Layer pool5/drop_7x7_s1
I0403 19:05:49.355664  8623 net.cpp:425] pool5/drop_7x7_s1 <- pool5/7x7_s1
I0403 19:05:49.355681  8623 net.cpp:386] pool5/drop_7x7_s1 -> pool5/7x7_s1 (in-place)
I0403 19:05:49.355731  8623 net.cpp:141] Setting up pool5/drop_7x7_s1
I0403 19:05:49.355753  8623 net.cpp:148] Top shape: 24 1024 1 1 (24576)
I0403 19:05:49.355767  8623 net.cpp:156] Memory required for data: 1346060832
I0403 19:05:49.355782  8623 layer_factory.hpp:77] Creating layer loss3/classifier_plantvillage
I0403 19:05:49.355800  8623 net.cpp:91] Creating Layer loss3/classifier_plantvillage
I0403 19:05:49.355815  8623 net.cpp:425] loss3/classifier_plantvillage <- pool5/7x7_s1
I0403 19:05:49.355836  8623 net.cpp:399] loss3/classifier_plantvillage -> loss3/classifier_plantvillage
I0403 19:05:49.356256  8623 net.cpp:141] Setting up loss3/classifier_plantvillage
I0403 19:05:49.356281  8623 net.cpp:148] Top shape: 24 38 (912)
I0403 19:05:49.356295  8623 net.cpp:156] Memory required for data: 1346064480
I0403 19:05:49.356313  8623 layer_factory.hpp:77] Creating layer loss3/classifier_plantvillage_loss3/classifier_plantvillage_0_split
I0403 19:05:49.356330  8623 net.cpp:91] Creating Layer loss3/classifier_plantvillage_loss3/classifier_plantvillage_0_split
I0403 19:05:49.356345  8623 net.cpp:425] loss3/classifier_plantvillage_loss3/classifier_plantvillage_0_split <- loss3/classifier_plantvillage
I0403 19:05:49.356364  8623 net.cpp:399] loss3/classifier_plantvillage_loss3/classifier_plantvillage_0_split -> loss3/classifier_plantvillage_loss3/classifier_plantvillage_0_split_0
I0403 19:05:49.356385  8623 net.cpp:399] loss3/classifier_plantvillage_loss3/classifier_plantvillage_0_split -> loss3/classifier_plantvillage_loss3/classifier_plantvillage_0_split_1
I0403 19:05:49.356405  8623 net.cpp:399] loss3/classifier_plantvillage_loss3/classifier_plantvillage_0_split -> loss3/classifier_plantvillage_loss3/classifier_plantvillage_0_split_2
I0403 19:05:49.356425  8623 net.cpp:399] loss3/classifier_plantvillage_loss3/classifier_plantvillage_0_split -> loss3/classifier_plantvillage_loss3/classifier_plantvillage_0_split_3
I0403 19:05:49.356523  8623 net.cpp:141] Setting up loss3/classifier_plantvillage_loss3/classifier_plantvillage_0_split
I0403 19:05:49.356545  8623 net.cpp:148] Top shape: 24 38 (912)
I0403 19:05:49.356561  8623 net.cpp:148] Top shape: 24 38 (912)
I0403 19:05:49.356576  8623 net.cpp:148] Top shape: 24 38 (912)
I0403 19:05:49.356591  8623 net.cpp:148] Top shape: 24 38 (912)
I0403 19:05:49.356605  8623 net.cpp:156] Memory required for data: 1346079072
I0403 19:05:49.356619  8623 layer_factory.hpp:77] Creating layer loss1/loss
I0403 19:05:49.356640  8623 net.cpp:91] Creating Layer loss1/loss
I0403 19:05:49.356657  8623 net.cpp:425] loss1/loss <- loss1/classifier_plantvillage_loss1/classifier_plantvillage_0_split_0
I0403 19:05:49.356686  8623 net.cpp:425] loss1/loss <- label_data_1_split_0
…
