…
I0403 19:32:15.802219  9361 net.cpp:313] The NetState phase (1) differed from the phase (0) specified by a rule in layer data
I0403 19:32:15.803458  9361 net.cpp:49] Initializing net from parameters: 
state {
  phase: TEST
}
layer {
  name: "data"
  type: "Data"
  top: "data"
  top: "label"
  include {
    phase: TEST
  }
  transform_param {
    mirror: false
    crop_size: 224
    mean_file: "/home/mohanty/data/final_dataset/lmdb/grayscale-50-50/mean.binaryproto"
  }
  data_param {
    source: "/home/mohanty/data/final_dataset/lmdb/grayscale-50-50/test_db"
    batch_size: 24
    backend: LMDB
  }
}
layer {
  name: "conv1/7x7_s2"
  type: "Convolution"
  bottom: "data"
  top: "conv1/7x7_s2"
  param {
    lr_mult: 1
    decay_mult: 1
  }
  param {
    lr_mult: 2
    decay_mult: 0
  }
  convolution_param {
    num_output: 64
    pad: 3
    kernel_size: 7
    stride: 2
    weight_filler {
      type: "xavier"
      std: 0.1
    }
    bias_filler {
      type: "constant"
      value: 0.2
    }
  }
}
layer {
  name: "conv1/relu_7x7"
  type: "ReLU"
  bottom: "conv1/7x7_s2"
  top: "conv1/7x7_s2"
}
layer {
  name: "pool1/3x3_s2"
  type: "Pooling"
  bottom: "conv1/7x7_s2"
  top: "pool1/3x3_s2"
  pooling_param {
    pool: MAX
    kernel_size: 3
    stride: 2
  }
}
layer {
  name: "pool1/norm1"
  type: "LRN"
  bottom: "pool1/3x3_s2"
  top: "pool1/norm1"
  lrn_param {
    local_size: 5
    alpha: 0.0001
    beta: 0.75
  }
}
layer {
  name: "conv2/3x3_reduce"
  type: "Convolution"
  bottom: "pool1/norm1"
  top: "conv2/3x3_reduce"
  param {
    lr_mult: 1
    decay_mult: 1
  }
  param {
    lr_mult: 2
    decay_mult: 0
  }
  convolution_param {
    num_output: 64
    kernel_size: 1
    weight_filler {
      type: "xavier"
      std: 0.1
    }
    bias_filler {
      type: "constant"
      value: 0.2
    }
  }
}
layer {
  name: "conv2/relu_3x3_reduce"
  type: "ReLU"
  bottom: "conv2/3x3_reduce"
  top: "conv2/3x3_reduce"
}
layer {
  name: "conv2/3x3"
  type: "Convolution"
  bottom: "conv2/3x3_reduce"
  top: "conv2/3x3"
  param {
    lr_mult: 1
    decay_mult: 1
  }
  param {
    lr_mult: 2
    decay_mult: 0
  }
  convolution_param {
    num_output: 192
    pad: 1
    kernel_size: 3
    weight_filler {
      type: "xavier"
      std: 0.03
    }
    bias_filler {
      type: "constant"
      value: 0.2
    }
  }
}
layer {
  name: "conv2/relu_3x3"
  type: "ReLU"
  bottom: "conv2/3x3"
  top: "conv2/3x3"
}
layer {
  name: "conv2/norm2"
  type: "LRN"
  bottom: "conv2/3x3"
  top: "conv2/norm2"
  lrn_param {
    local_size: 5
    alpha: 0.0001
    beta: 0.75
  }
}
layer {
  name: "pool2/3x3_s2"
  type: "Pooling"
  bottom: "conv2/norm2"
  top: "pool2/3x3_s2"
  pooling_param {
    pool: MAX
    kernel_size: 3
    stride: 2
  }
}
layer {
  name: "inception_3a/1x1"
  type: "Convolution"
  bottom: "pool2/3x3_s2"
  top: "inception_3a/1x1"
  param {
    lr_mult: 1
    decay_mult: 1
  }
  param {
    lr_mult: 2
    decay_mult: 0
  }
  convolution_param {
    num_output: 64
    kernel_size: 1
    weight_filler {
      type: "xavier"
      std: 0.03
    }
    bias_filler {
      type: "constant"
      value: 0.2
    }
  }
}
layer {
  name: "inception_3a/relu_1x1"
  type: "ReLU"
  bottom: "inception_3a/1x1"
  top: "inception_3a/1x1"
}
layer {
  name: "inception_3a/3x3_reduce"
  type: "Convolution"
  bottom: "pool2/3x3_s2"
  top: "inception_3a/3x3_reduce"
  param {
    lr_mult: 1
    decay_mult: 1
  }
  param {
    lr_mult: 2
    decay_mult: 0
  }
  convolution_param {
    num_output: 96
    kernel_size: 1
    weight_filler {
      type: "xavier"
      std: 0.09
    }
    bias_filler {
      type: "constant"
      value: 0.2
    }
  }
}
layer {
  name: "inception_3a/relu_3x3_reduce"
  type: "ReLU"
  bottom: "inception_3a/3x3_reduce"
  top: "inception_3a/3x3_reduce"
}
layer {
  name: "inception_3a/3x3"
  type: "Convolution"
  bottom: "inception_3a/3x3_reduce"
  top: "inception_3a/3x3"
  param {
    lr_mult: 1
    decay_mult: 1
  }
  param {
    lr_mult: 2
    decay_mult: 0
  }
  convolution_param {
    num_output: 128
    pad: 1
    kernel_size: 3
    weight_filler {
      type: "xavier"
      std: 0.03
    }
    bias_filler {
      type: "constant"
      value: 0.2
    }
  }
}
layer {
  name: "inception_3a/relu_3x3"
  type: "ReLU"
  bottom: "inception_3a/3x3"
  top: "inception_3a/3x3"
}
layer {
  name: "inception_3a/5x5_reduce"
  type: "Convolution"
  bottom: "pool2/3x3_s2"
  top: "inception_3a/5x5_reduce"
  param {
    lr_mult: 1
    decay_mult: 1
  }
  param {
    lr_mult: 2
    decay_mult: 0
  }
  convolution_param {
    num_output: 16
    kernel_size: 1
    weight_filler {
      type: "xavier"
      std: 0.2
    }
    bias_filler {
      type: "constant"
      value: 0.2
    }
  }
}
layer {
  name: "inception_3a/relu_5x5_reduce"
  type: "ReLU"
  bottom: "inception_3a/5x5_reduce"
  top: "inception_3a/5x5_reduce"
}
layer {
  name: "inception_3a/5x5"
  type: "Convolution"
  bottom: "inception_3a/5x5_reduce"
  top: "inception_3a/5x5"
  param {
    lr_mult: 1
    decay_mult: 1
  }
  param {
    lr_mult: 2
    decay_mult: 0
  }
  convolution_param {
    num_output: 32
    pad: 2
    kernel_size: 5
    weight_filler {
      type: "xavier"
      std: 0.03
    }
    bias_filler {
      type: "constant"
      value: 0.2
    }
  }
}
layer {
  name: "inception_3a/relu_5x5"
  type: "ReLU"
  bottom: "inception_3a/5x5"
  top: "inception_3a/5x5"
}
layer {
  name: "inception_3a/pool"
  type: "Pooling"
  bottom: "pool2/3x3_s2"
  top: "inception_3a/pool"
  pooling_param {
    pool: MAX
    kernel_size: 3
    stride: 1
    pad: 1
  }
}
layer {
  name: "inception_3a/pool_proj"
  type: "Convolution"
  bottom: "inception_3a/pool"
  top: "inception_3a/pool_proj"
  param {
    lr_mult: 1
    decay_mult: 1
  }
  param {
    lr_mult: 2
    decay_mult: 0
  }
  convolution_param {
    num_output: 32
    kernel_size: 1
    weight_filler {
      type: "xavier"
      std: 0.1
    }
    bias_filler {
      type: "constant"
      value: 0.2
    }
  }
}
layer {
  name: "inception_3a/relu_pool_proj"
  type: "ReLU"
  bottom: "inception_3a/pool_proj"
  top: "inception_3a/pool_proj"
}
layer {
  name: "inception_3a/output"
  type: "Concat"
  bottom: "inception_3a/1x1"
  bottom: "inception_3a/3x3"
  bottom: "inception_3a/5x5"
  bottom: "inception_3a/pool_proj"
  top: "inception_3a/output"
}
layer {
  name: "inception_3b/1x1"
  type: "Convolution"
  bottom: "inception_3a/output"
  top: "inception_3b/1x1"
  param {
    lr_mult: 1
    decay_mult: 1
  }
  param {
    lr_mult: 2
    decay_mult: 0
  }
  convolution_param {
    num_output: 128
    kernel_size: 1
    weight_filler {
      type: "xavier"
      std: 0.03
    }
    bias_filler {
      type: "constant"
      value: 0.2
    }
  }
}
layer {
  name: "inception_3b/relu_1x1"
  type: "ReLU"
  bottom: "inception_3b/1x1"
  top: "inception_3b/1x1"
}
layer {
  name: "inception_3b/3x3_reduce"
  type: "Convolution"
  bottom: "inception_3a/output"
  top: "inception_3b/3x3_reduce"
  param {
    lr_mult: 1
    decay_mult: 1
  }
  param {
    lr_mult: 2
    decay_mult: 0
  }
  convolution_param {
    num_output: 128
    kernel_size: 1
    weight_filler {
      type: "xavier"
      std: 0.09
    }
    bias_filler {
      type: "constant"
      value: 0.2
    }
  }
}
layer {
  name: "inception_3b/relu_3x3_reduce"
  type: "ReLU"
  bottom: "inception_3b/3x3_reduce"
  top: "inception_3b/3x3_reduce"
}
layer {
  name: "inception_3b/3x3"
  type: "Convolution"
  bottom: "inception_3b/3x3_reduce"
  top: "inception_3b/3x3"
  param {
    lr_mult: 1
    decay_mult: 1
  }
  param {
    lr_mult: 2
    decay_mult: 0
  }
  convolution_param {
    num_output: 192
    pad: 1
    kernel_size: 3
    weight_filler {
      type: "xavier"
      std: 0.03
    }
    bias_filler {
      type: "constant"
      value: 0.2
    }
  }
}
layer {
  name: "inception_3b/relu_3x3"
  type: "ReLU"
  bottom: "inception_3b/3x3"
  top: "inception_3b/3x3"
}
layer {
  name: "inception_3b/5x5_reduce"
  type: "Convolution"
  bottom: "inception_3a/output"
  top: "inception_3b/5x5_reduce"
  param {
    lr_mult: 1
    decay_mult: 1
  }
  param {
    lr_mult: 2
    decay_mult: 0
  }
  convolution_param {
    num_output: 32
    kernel_size: 1
    weight_filler {
      type: "xavier"
      std: 0.2
    }
    bias_filler {
      type: "constant"
      value: 0.2
    }
  }
}
layer {
  name: "inception_3b/relu_5x5_reduce"
  type: "ReLU"
  bottom: "inception_3b/5x5_reduce"
  top: "inception_3b/5x5_reduce"
}
layer {
  name: "inception_3b/5x5"
  type: "Convolution"
  bottom: "inception_3b/5x5_reduce"
  top: "inception_3b/5x5"
  param {
    lr_mult: 1
    decay_mult: 1
  }
  param {
    lr_mult: 2
    decay_mult: 0
  }
  convolution_param {
    num_output: 96
    pad: 2
    kernel_size: 5
    weight_filler {
      type: "xavier"
      std: 0.03
    }
    bias_filler {
      type: "constant"
      value: 0.2
    }
  }
}
layer {
  name: "inception_3b/relu_5x5"
  type: "ReLU"
  bottom: "inception_3b/5x5"
  top: "inception_3b/5x5"
}
layer {
  name: "inception_3b/pool"
  type: "Pooling"
  bottom: "inception_3a/output"
  top: "inception_3b/pool"
  pooling_param {
    pool: MAX
    kernel_size: 3
    stride: 1
    pad: 1
  }
}
layer {
  name: "inception_3b/pool_proj"
  type: "Convolution"
  bottom: "inception_3b/pool"
  top: "inception_3b/pool_proj"
  param {
    lr_mult: 1
    decay_mult: 1
  }
  param {
    lr_mult: 2
    decay_mult: 0
  }
  convolution_param {
    num_output: 64
    kernel_size: 1
    weight_filler {
      type: "xavier"
      std: 0.1
    }
    bias_filler {
      type: "constant"
      value: 0.2
    }
  }
}
layer {
  name: "inception_3b/relu_pool_proj"
  type: "ReLU"
  bottom: "inception_3b/pool_proj"
  top: "inception_3b/pool_proj"
}
layer {
  name: "inception_3b/output"
  type: "Concat"
  bottom: "inception_3b/1x1"
  bottom: "inception_3b/3x3"
  bottom: "inception_3b/5x5"
  bottom: "inception_3b/pool_proj"
  top: "inception_3b/output"
}
layer {
  name: "pool3/3x3_s2"
  type: "Pooling"
  bottom: "inception_3b/output"
  top: "pool3/3x3_s2"
  pooling_param {
    pool: MAX
    kernel_size: 3
    stride: 2
  }
}
layer {
  name: "inception_4a/1x1"
  type: "Convolution"
  bottom: "pool3/3x3_s2"
  top: "inception_4a/1x1"
  param {
    lr_mult: 1
    decay_mult: 1
  }
  param {
    lr_mult: 2
    decay_mult: 0
  }
  convolution_param {
    num_output: 192
    kernel_size: 1
    weight_filler {
      type: "xavier"
      std: 0.03
    }
    bias_filler {
      type: "constant"
      value: 0.2
    }
  }
}
layer {
  name: "inception_4a/relu_1x1"
  type: "ReLU"
  bottom: "inception_4a/1x1"
  top: "inception_4a/1x1"
}
layer {
  name: "inception_4a/3x3_reduce"
  type: "Convolution"
  bottom: "pool3/3x3_s2"
  top: "inception_4a/3x3_reduce"
  param {
    lr_mult: 1
    decay_mult: 1
  }
  param {
    lr_mult: 2
    decay_mult: 0
  }
  convolution_param {
    num_output: 96
    kernel_size: 1
    weight_filler {
      type: "xavier"
      std: 0.09
    }
    bias_filler {
      type: "constant"
      value: 0.2
    }
  }
}
layer {
  name: "inception_4a/relu_3x3_reduce"
  type: "ReLU"
  bottom: "inception_4a/3x3_reduce"
  top: "inception_4a/3x3_reduce"
}
layer {
  name: "inception_4a/3x3"
  type: "Convolution"
  bottom: "inception_4a/3x3_reduce"
  top: "inception_4a/3x3"
  param {
    lr_mult: 1
    decay_mult: 1
  }
  param {
    lr_mult: 2
    decay_mult: 0
  }
  convolution_param {
    num_output: 208
    pad: 1
    kernel_size: 3
    weight_filler {
      type: "xavier"
      std: 0.03
    }
    bias_filler {
      type: "constant"
      value: 0.2
    }
  }
}
layer {
  name: "inception_4a/relu_3x3"
  type: "ReLU"
  bottom: "inception_4a/3x3"
  top: "inception_4a/3x3"
}
layer {
  name: "inception_4a/5x5_reduce"
  type: "Convolution"
  bottom: "pool3/3x3_s2"
  top: "inception_4a/5x5_reduce"
  param {
    lr_mult: 1
    decay_mult: 1
  }
  param {
    lr_mult: 2
    decay_mult: 0
  }
  convolution_param {
    num_output: 16
    kernel_size: 1
    weight_filler {
      type: "xavier"
      std: 0.2
    }
    bias_filler {
      type: "constant"
      value: 0.2
    }
  }
}
layer {
  name: "inception_4a/relu_5x5_reduce"
  type: "ReLU"
  bottom: "inception_4a/5x5_reduce"
  top: "inception_4a/5x5_reduce"
}
layer {
  name: "inception_4a/5x5"
  type: "Convolution"
  bottom: "inception_4a/5x5_reduce"
  top: "inception_4a/5x5"
  param {
    lr_mult: 1
    decay_mult: 1
  }
  param {
    lr_mult: 2
    decay_mult: 0
  }
  convolution_param {
    num_output: 48
    pad: 2
    kernel_size: 5
    weight_filler {
      type: "xavier"
      std: 0.03
    }
    bias_filler {
      type: "constant"
      value: 0.2
    }
  }
}
layer {
  name: "inception_4a/relu_5x5"
  type: "ReLU"
  bottom: "inception_4a/5x5"
  top: "inception_4a/5x5"
}
layer {
  name: "inception_4a/pool"
  type: "Pooling"
  bottom: "pool3/3x3_s2"
  top: "inception_4a/pool"
  pooling_param {
    pool: MAX
    kernel_size: 3
    stride: 1
    pad: 1
  }
}
layer {
  name: "inception_4a/pool_proj"
  type: "Convolution"
  bottom: "inception_4a/pool"
  top: "inception_4a/pool_proj"
  param {
    lr_mult: 1
    decay_mult: 1
  }
  param {
    lr_mult: 2
    decay_mult: 0
  }
  convolution_param {
    num_output: 64
    kernel_size: 1
    weight_filler {
      type: "xavier"
      std: 0.1
    }
    bias_filler {
      type: "constant"
      value: 0.2
    }
  }
}
layer {
  name: "inception_4a/relu_pool_proj"
  type: "ReLU"
  bottom: "inception_4a/pool_proj"
  top: "inception_4a/pool_proj"
}
layer {
  name: "inception_4a/output"
  type: "Concat"
  bottom: "inception_4a/1x1"
  bottom: "inception_4a/3x3"
  bottom: "inception_4a/5x5"
  bottom: "inception_4a/pool_proj"
  top: "inception_4a/output"
}
layer {
  name: "loss1/ave_pool"
  type: "Pooling"
  bottom: "inception_4a/output"
  top: "loss1/ave_pool"
  pooling_param {
    pool: AVE
    kernel_size: 5
    stride: 3
  }
}
layer {
  name: "loss1/conv"
  type: "Convolution"
  bottom: "loss1/ave_pool"
  top: "loss1/conv"
  param {
    lr_mult: 1
    decay_mult: 1
  }
  param {
    lr_mult: 2
    decay_mult: 0
  }
  convolution_param {
    num_output: 128
    kernel_size: 1
    weight_filler {
      type: "xavier"
      std: 0.08
    }
    bias_filler {
      type: "constant"
      value: 0.2
    }
  }
}
layer {
  name: "loss1/relu_conv"
  type: "ReLU"
  bottom: "loss1/conv"
  top: "loss1/conv"
}
layer {
  name: "loss1/fc"
  type: "InnerProduct"
  bottom: "loss1/conv"
  top: "loss1/fc"
  param {
    lr_mult: 1
    decay_mult: 1
  }
  param {
    lr_mult: 2
    decay_mult: 0
  }
  inner_product_param {
    num_output: 1024
    weight_filler {
      type: "xavier"
      std: 0.02
    }
    bias_filler {
      type: "constant"
      value: 0.2
    }
  }
}
layer {
  name: "loss1/relu_fc"
  type: "ReLU"
  bottom: "loss1/fc"
  top: "loss1/fc"
}
layer {
  name: "loss1/drop_fc"
  type: "Dropout"
  bottom: "loss1/fc"
  top: "loss1/fc"
  dropout_param {
    dropout_ratio: 0.7
  }
}
layer {
  name: "loss1/classifier_plantvillage"
  type: "InnerProduct"
  bottom: "loss1/fc"
  top: "loss1/classifier_plantvillage"
  param {
    lr_mult: 1
    decay_mult: 1
  }
  param {
    lr_mult: 2
    decay_mult: 0
  }
  inner_product_param {
    num_output: 38
    weight_filler {
      type: "xavier"
      std: 0.0009765625
    }
    bias_filler {
      type: "constant"
      value: 0
    }
  }
}
layer {
  name: "inception_4b/1x1"
  type: "Convolution"
  bottom: "inception_4a/output"
  top: "inception_4b/1x1"
  param {
    lr_mult: 1
    decay_mult: 1
  }
  param {
    lr_mult: 2
    decay_mult: 0
  }
  convolution_param {
    num_output: 160
    kernel_size: 1
    weight_filler {
      type: "xavier"
      std: 0.03
    }
    bias_filler {
      type: "constant"
      value: 0.2
    }
  }
}
layer {
  name: "inception_4b/relu_1x1"
  type: "ReLU"
  bottom: "inception_4b/1x1"
  top: "inception_4b/1x1"
}
layer {
  name: "inception_4b/3x3_reduce"
  type: "Convolution"
  bottom: "inception_4a/output"
  top: "inception_4b/3x3_reduce"
  param {
    lr_mult: 1
    decay_mult: 1
  }
  param {
    lr_mult: 2
    decay_mult: 0
  }
  convolution_param {
    num_output: 112
    kernel_size: 1
    weight_filler {
      type: "xavier"
      std: 0.09
    }
    bias_filler {
      type: "constant"
      value: 0.2
    }
  }
}
layer {
  name: "inception_4b/relu_3x3_reduce"
  type: "ReLU"
  bottom: "inception_4b/3x3_reduce"
  top: "inception_4b/3x3_reduce"
}
layer {
  name: "inception_4b/3x3"
  type: "Convolution"
  bottom: "inception_4b/3x3_reduce"
  top: "inception_4b/3x3"
  param {
    lr_mult: 1
    decay_mult: 1
  }
  param {
    lr_mult: 2
    decay_mult: 0
  }
  convolution_param {
    num_output: 224
    pad: 1
    kernel_size: 3
    weight_filler {
      type: "xavier"
      std: 0.03
    }
    bias_filler {
      type: "constant"
      value: 0.2
    }
  }
}
layer {
  name: "inception_4b/relu_3x3"
  type: "ReLU"
  bottom: "inception_4b/3x3"
  top: "inception_4b/3x3"
}
layer {
  name: "inception_4b/5x5_reduce"
  type: "Convolution"
  bottom: "inception_4a/output"
  top: "inception_4b/5x5_reduce"
  param {
    lr_mult: 1
    decay_mult: 1
  }
  param {
    lr_mult: 2
    decay_mult: 0
  }
  convolution_param {
    num_output: 24
    kernel_size: 1
    weight_filler {
      type: "xavier"
      std: 0.2
    }
    bias_filler {
      type: "constant"
      value: 0.2
    }
  }
}
layer {
  name: "inception_4b/relu_5x5_reduce"
  type: "ReLU"
  bottom: "inception_4b/5x5_reduce"
  top: "inception_4b/5x5_reduce"
}
layer {
  name: "inception_4b/5x5"
  type: "Convolution"
  bottom: "inception_4b/5x5_reduce"
  top: "inception_4b/5x5"
  param {
    lr_mult: 1
    decay_mult: 1
  }
  param {
    lr_mult: 2
    decay_mult: 0
  }
  convolution_param {
    num_output: 64
    pad: 2
    kernel_size: 5
    weight_filler {
      type: "xavier"
      std: 0.03
    }
    bias_filler {
      type: "constant"
      value: 0.2
    }
  }
}
layer {
  name: "inception_4b/relu_5x5"
  type: "ReLU"
  bottom: "inception_4b/5x5"
  top: "inception_4b/5x5"
}
layer {
  name: "inception_4b/pool"
  type: "Pooling"
  bottom: "inception_4a/output"
  top: "inception_4b/pool"
  pooling_param {
    pool: MAX
    kernel_size: 3
    stride: 1
    pad: 1
  }
}
layer {
  name: "inception_4b/pool_proj"
  type: "Convolution"
  bottom: "inception_4b/pool"
  top: "inception_4b/pool_proj"
  param {
    lr_mult: 1
    decay_mult: 1
  }
  param {
    lr_mult: 2
    decay_mult: 0
  }
  convolution_param {
    num_output: 64
    kernel_size: 1
    weight_filler {
      type: "xavier"
      std: 0.1
    }
    bias_filler {
      type: "constant"
      value: 0.2
    }
  }
}
layer {
  name: "inception_4b/relu_pool_proj"
  type: "ReLU"
  bottom: "inception_4b/pool_proj"
  top: "inception_4b/pool_proj"
}
layer {
  name: "inception_4b/output"
  type: "Concat"
  bottom: "inception_4b/1x1"
  bottom: "inception_4b/3x3"
  bottom: "inception_4b/5x5"
  bottom: "inception_4b/pool_proj"
  top: "inception_4b/output"
}
layer {
  name: "inception_4c/1x1"
  type: "Convolution"
  bottom: "inception_4b/output"
  top: "inception_4c/1x1"
  param {
    lr_mult: 1
    decay_mult: 1
  }
  param {
    lr_mult: 2
    decay_mult: 0
  }
  convolution_param {
    num_output: 128
    kernel_size: 1
    weight_filler {
      type: "xavier"
      std: 0.03
    }
    bias_filler {
      type: "constant"
      value: 0.2
    }
  }
}
layer {
  name: "inception_4c/relu_1x1"
  type: "ReLU"
  bottom: "inception_4c/1x1"
  top: "inception_4c/1x1"
}
layer {
  name: "inception_4c/3x3_reduce"
  type: "Convolution"
  bottom: "inception_4b/output"
  top: "inception_4c/3x3_reduce"
  param {
    lr_mult: 1
    decay_mult: 1
  }
  param {
    lr_mult: 2
    decay_mult: 0
  }
  convolution_param {
    num_output: 128
    kernel_size: 1
    weight_filler {
      type: "xavier"
      std: 0.09
    }
    bias_filler {
      type: "constant"
      value: 0.2
    }
  }
}
layer {
  name: "inception_4c/relu_3x3_reduce"
  type: "ReLU"
  bottom: "inception_4c/3x3_reduce"
  top: "inception_4c/3x3_reduce"
}
layer {
  name: "inception_4c/3x3"
  type: "Convolution"
  bottom: "inception_4c/3x3_reduce"
  top: "inception_4c/3x3"
  param {
    lr_mult: 1
    decay_mult: 1
  }
  param {
    lr_mult: 2
    decay_mult: 0
  }
  convolution_param {
    num_output: 256
    pad: 1
    kernel_size: 3
    weight_filler {
      type: "xavier"
      std: 0.03
    }
    bias_filler {
      type: "constant"
      value: 0.2
    }
  }
}
layer {
  name: "inception_4c/relu_3x3"
  type: "ReLU"
  bottom: "inception_4c/3x3"
  top: "inception_4c/3x3"
}
layer {
  name: "inception_4c/5x5_reduce"
  type: "Convolution"
  bottom: "inception_4b/output"
  top: "inception_4c/5x5_reduce"
  param {
    lr_mult: 1
    decay_mult: 1
  }
  param {
    lr_mult: 2
    decay_mult: 0
  }
  convolution_param {
    num_output: 24
    kernel_size: 1
    weight_filler {
      type: "xavier"
      std: 0.2
    }
    bias_filler {
      type: "constant"
      value: 0.2
    }
  }
}
layer {
  name: "inception_4c/relu_5x5_reduce"
  type: "ReLU"
  bottom: "inception_4c/5x5_reduce"
  top: "inception_4c/5x5_reduce"
}
layer {
  name: "inception_4c/5x5"
  type: "Convolution"
  bottom: "inception_4c/5x5_reduce"
  top: "inception_4c/5x5"
  param {
    lr_mult: 1
    decay_mult: 1
  }
  param {
    lr_mult: 2
    decay_mult: 0
  }
  convolution_param {
    num_output: 64
    pad: 2
    kernel_size: 5
    weight_filler {
      type: "xavier"
      std: 0.03
    }
    bias_filler {
      type: "constant"
      value: 0.2
    }
  }
}
layer {
  name: "inception_4c/relu_5x5"
  type: "ReLU"
  bottom: "inception_4c/5x5"
  top: "inception_4c/5x5"
}
layer {
  name: "inception_4c/pool"
  type: "Pooling"
  bottom: "inception_4b/output"
  top: "inception_4c/pool"
  pooling_param {
    pool: MAX
    kernel_size: 3
    stride: 1
    pad: 1
  }
}
layer {
  name: "inception_4c/pool_proj"
  type: "Convolution"
  bottom: "inception_4c/pool"
  top: "inception_4c/pool_proj"
  param {
    lr_mult: 1
    decay_mult: 1
  }
  param {
    lr_mult: 2
    decay_mult: 0
  }
  convolution_param {
    num_output: 64
    kernel_size: 1
    weight_filler {
      type: "xavier"
      std: 0.1
    }
    bias_filler {
      type: "constant"
      value: 0.2
    }
  }
}
layer {
  name: "inception_4c/relu_pool_proj"
  type: "ReLU"
  bottom: "inception_4c/pool_proj"
  top: "inception_4c/pool_proj"
}
layer {
  name: "inception_4c/output"
  type: "Concat"
  bottom: "inception_4c/1x1"
  bottom: "inception_4c/3x3"
  bottom: "inception_4c/5x5"
  bottom: "inception_4c/pool_proj"
  top: "inception_4c/output"
}
layer {
  name: "inception_4d/1x1"
  type: "Convolution"
  bottom: "inception_4c/output"
  top: "inception_4d/1x1"
  param {
    lr_mult: 1
    decay_mult: 1
  }
  param {
    lr_mult: 2
    decay_mult: 0
  }
  convolution_param {
    num_output: 112
    kernel_size: 1
    weight_filler {
      type: "xavier"
      std: 0.03
    }
    bias_filler {
      type: "constant"
      value: 0.2
    }
  }
}
layer {
  name: "inception_4d/relu_1x1"
  type: "ReLU"
  bottom: "inception_4d/1x1"
  top: "inception_4d/1x1"
}
layer {
  name: "inception_4d/3x3_reduce"
  type: "Convolution"
  bottom: "inception_4c/output"
  top: "inception_4d/3x3_reduce"
  param {
    lr_mult: 1
    decay_mult: 1
  }
  param {
    lr_mult: 2
    decay_mult: 0
  }
  convolution_param {
    num_output: 144
    kernel_size: 1
    weight_filler {
      type: "xavier"
      std: 0.09
    }
    bias_filler {
      type: "constant"
      value: 0.2
    }
  }
}
layer {
  name: "inception_4d/relu_3x3_reduce"
  type: "ReLU"
  bottom: "inception_4d/3x3_reduce"
  top: "inception_4d/3x3_reduce"
}
layer {
  name: "inception_4d/3x3"
  type: "Convolution"
  bottom: "inception_4d/3x3_reduce"
  top: "inception_4d/3x3"
  param {
    lr_mult: 1
    decay_mult: 1
  }
  param {
    lr_mult: 2
    decay_mult: 0
  }
  convolution_param {
    num_output: 288
    pad: 1
    kernel_size: 3
    weight_filler {
      type: "xavier"
      std: 0.03
    }
    bias_filler {
      type: "constant"
      value: 0.2
    }
  }
}
layer {
  name: "inception_4d/relu_3x3"
  type: "ReLU"
  bottom: "inception_4d/3x3"
  top: "inception_4d/3x3"
}
layer {
  name: "inception_4d/5x5_reduce"
  type: "Convolution"
  bottom: "inception_4c/output"
  top: "inception_4d/5x5_reduce"
  param {
    lr_mult: 1
    decay_mult: 1
  }
  param {
    lr_mult: 2
    decay_mult: 0
  }
  convolution_param {
    num_output: 32
    kernel_size: 1
    weight_filler {
      type: "xavier"
      std: 0.2
    }
    bias_filler {
      type: "constant"
      value: 0.2
    }
  }
}
layer {
  name: "inception_4d/relu_5x5_reduce"
  type: "ReLU"
  bottom: "inception_4d/5x5_reduce"
  top: "inception_4d/5x5_reduce"
}
layer {
  name: "inception_4d/5x5"
  type: "Convolution"
  bottom: "inception_4d/5x5_reduce"
  top: "inception_4d/5x5"
  param {
    lr_mult: 1
    decay_mult: 1
  }
  param {
    lr_mult: 2
    decay_mult: 0
  }
  convolution_param {
    num_output: 64
    pad: 2
    kernel_size: 5
    weight_filler {
      type: "xavier"
      std: 0.03
    }
    bias_filler {
      type: "constant"
      value: 0.2
    }
  }
}
layer {
  name: "inception_4d/relu_5x5"
  type: "ReLU"
  bottom: "inception_4d/5x5"
  top: "inception_4d/5x5"
}
layer {
  name: "inception_4d/pool"
  type: "Pooling"
  bottom: "inception_4c/output"
  top: "inception_4d/pool"
  pooling_param {
    pool: MAX
    kernel_size: 3
    stride: 1
    pad: 1
  }
}
layer {
  name: "inception_4d/pool_proj"
  type: "Convolution"
  bottom: "inception_4d/pool"
  top: "inception_4d/pool_proj"
  param {
    lr_mult: 1
    decay_mult: 1
  }
  param {
    lr_mult: 2
    decay_mult: 0
  }
  convolution_param {
    num_output: 64
    kernel_size: 1
    weight_filler {
      type: "xavier"
      std: 0.1
    }
    bias_filler {
      type: "constant"
      value: 0.2
    }
  }
}
layer {
  name: "inception_4d/relu_pool_proj"
  type: "ReLU"
  bottom: "inception_4d/pool_proj"
  top: "inception_4d/pool_proj"
}
layer {
  name: "inception_4d/output"
  type: "Concat"
  bottom: "inception_4d/1x1"
  bottom: "inception_4d/3x3"
  bottom: "inception_4d/5x5"
  bottom: "inception_4d/pool_proj"
  top: "inception_4d/output"
}
layer {
  name: "loss2/ave_pool"
  type: "Pooling"
  bottom: "inception_4d/output"
  top: "loss2/ave_pool"
  pooling_param {
    pool: AVE
    kernel_size: 5
    stride: 3
  }
}
layer {
  name: "loss2/conv"
  type: "Convolution"
  bottom: "loss2/ave_pool"
  top: "loss2/conv"
  param {
    lr_mult: 1
    decay_mult: 1
  }
  param {
    lr_mult: 2
    decay_mult: 0
  }
  convolution_param {
    num_output: 128
    kernel_size: 1
    weight_filler {
      type: "xavier"
      std: 0.08
    }
    bias_filler {
      type: "constant"
      value: 0.2
    }
  }
}
layer {
  name: "loss2/relu_conv"
  type: "ReLU"
  bottom: "loss2/conv"
  top: "loss2/conv"
}
layer {
  name: "loss2/fc"
  type: "InnerProduct"
  bottom: "loss2/conv"
  top: "loss2/fc"
  param {
    lr_mult: 1
    decay_mult: 1
  }
  param {
    lr_mult: 2
    decay_mult: 0
  }
  inner_product_param {
    num_output: 1024
    weight_filler {
      type: "xavier"
      std: 0.02
    }
    bias_filler {
      type: "constant"
      value: 0.2
    }
  }
}
layer {
  name: "loss2/relu_fc"
  type: "ReLU"
  bottom: "loss2/fc"
  top: "loss2/fc"
}
layer {
  name: "loss2/drop_fc"
  type: "Dropout"
  bottom: "loss2/fc"
  top: "loss2/fc"
  dropout_param {
    dropout_ratio: 0.7
  }
}
layer {
  name: "loss2/classifier_plantvillage"
  type: "InnerProduct"
  bottom: "loss2/fc"
  top: "loss2/classifier_plantvillage"
  param {
    lr_mult: 1
    decay_mult: 1
  }
  param {
    lr_mult: 2
    decay_mult: 0
  }
  inner_product_param {
    num_output: 38
    weight_filler {
      type: "xavier"
      std: 0.0009765625
    }
    bias_filler {
      type: "constant"
      value: 0
    }
  }
}
layer {
  name: "inception_4e/1x1"
  type: "Convolution"
  bottom: "inception_4d/output"
  top: "inception_4e/1x1"
  param {
    lr_mult: 1
    decay_mult: 1
  }
  param {
    lr_mult: 2
    decay_mult: 0
  }
  convolution_param {
    num_output: 256
    kernel_size: 1
    weight_filler {
      type: "xavier"
      std: 0.03
    }
    bias_filler {
      type: "constant"
      value: 0.2
    }
  }
}
layer {
  name: "inception_4e/relu_1x1"
  type: "ReLU"
  bottom: "inception_4e/1x1"
  top: "inception_4e/1x1"
}
layer {
  name: "inception_4e/3x3_reduce"
  type: "Convolution"
  bottom: "inception_4d/output"
  top: "inception_4e/3x3_reduce"
  param {
    lr_mult: 1
    decay_mult: 1
  }
  param {
    lr_mult: 2
    decay_mult: 0
  }
  convolution_param {
    num_output: 160
    kernel_size: 1
    weight_filler {
      type: "xavier"
      std: 0.09
    }
    bias_filler {
      type: "constant"
      value: 0.2
    }
  }
}
layer {
  name: "inception_4e/relu_3x3_reduce"
  type: "ReLU"
  bottom: "inception_4e/3x3_reduce"
  top: "inception_4e/3x3_reduce"
}
layer {
  name: "inception_4e/3x3"
  type: "Convolution"
  bottom: "inception_4e/3x3_reduce"
  top: "inception_4e/3x3"
  param {
    lr_mult: 1
    decay_mult: 1
  }
  param {
    lr_mult: 2
    decay_mult: 0
  }
  convolution_param {
    num_output: 320
    pad: 1
    kernel_size: 3
    weight_filler {
      type: "xavier"
      std: 0.03
    }
    bias_filler {
      type: "constant"
      value: 0.2
    }
  }
}
layer {
  name: "inception_4e/relu_3x3"
  type: "ReLU"
  bottom: "inception_4e/3x3"
  top: "inception_4e/3x3"
}
layer {
  name: "inception_4e/5x5_reduce"
  type: "Convolution"
  bottom: "inception_4d/output"
  top: "inception_4e/5x5_reduce"
  param {
    lr_mult: 1
    decay_mult: 1
  }
  param {
    lr_mult: 2
    decay_mult: 0
  }
  convolution_param {
    num_output: 32
    kernel_size: 1
    weight_filler {
      type: "xavier"
      std: 0.2
    }
    bias_filler {
      type: "constant"
      value: 0.2
    }
  }
}
layer {
  name: "inception_4e/relu_5x5_reduce"
  type: "ReLU"
  bottom: "inception_4e/5x5_reduce"
  top: "inception_4e/5x5_reduce"
}
layer {
  name: "inception_4e/5x5"
  type: "Convolution"
  bottom: "inception_4e/5x5_reduce"
  top: "inception_4e/
I0403 19:32:15.805200  9361 layer_factory.hpp:77] Creating layer data
I0403 19:32:15.805851  9361 net.cpp:91] Creating Layer data
I0403 19:32:15.805888  9361 net.cpp:399] data -> data
I0403 19:32:15.805951  9361 net.cpp:399] data -> label
I0403 19:32:15.805995  9361 data_transformer.cpp:25] Loading mean file from: /home/mohanty/data/final_dataset/lmdb/grayscale-50-50/mean.binaryproto
I0403 19:32:15.807368  9366 db_lmdb.cpp:38] Opened lmdb /home/mohanty/data/final_dataset/lmdb/grayscale-50-50/test_db
I0403 19:32:15.820197  9361 data_layer.cpp:41] output data size: 24,3,224,224
I0403 19:32:15.848923  9361 net.cpp:141] Setting up data
I0403 19:32:15.849022  9361 net.cpp:148] Top shape: 24 3 224 224 (3612672)
I0403 19:32:15.849045  9361 net.cpp:148] Top shape: 24 (24)
I0403 19:32:15.849061  9361 net.cpp:156] Memory required for data: 14450784
I0403 19:32:15.849089  9361 layer_factory.hpp:77] Creating layer label_data_1_split
I0403 19:32:15.849117  9361 net.cpp:91] Creating Layer label_data_1_split
I0403 19:32:15.849136  9361 net.cpp:425] label_data_1_split <- label
I0403 19:32:15.849169  9361 net.cpp:399] label_data_1_split -> label_data_1_split_0
I0403 19:32:15.849196  9361 net.cpp:399] label_data_1_split -> label_data_1_split_1
I0403 19:32:15.849222  9361 net.cpp:399] label_data_1_split -> label_data_1_split_2
I0403 19:32:15.849246  9361 net.cpp:399] label_data_1_split -> label_data_1_split_3
I0403 19:32:15.849267  9361 net.cpp:399] label_data_1_split -> label_data_1_split_4
I0403 19:32:15.849287  9361 net.cpp:399] label_data_1_split -> label_data_1_split_5
I0403 19:32:15.849308  9361 net.cpp:399] label_data_1_split -> label_data_1_split_6
I0403 19:32:15.849334  9361 net.cpp:399] label_data_1_split -> label_data_1_split_7
I0403 19:32:15.849354  9361 net.cpp:399] label_data_1_split -> label_data_1_split_8
I0403 19:32:15.849382  9361 net.cpp:399] label_data_1_split -> label_data_1_split_9
I0403 19:32:15.849512  9361 net.cpp:141] Setting up label_data_1_split
I0403 19:32:15.849545  9361 net.cpp:148] Top shape: 24 (24)
I0403 19:32:15.849563  9361 net.cpp:148] Top shape: 24 (24)
I0403 19:32:15.849581  9361 net.cpp:148] Top shape: 24 (24)
I0403 19:32:15.849598  9361 net.cpp:148] Top shape: 24 (24)
I0403 19:32:15.849616  9361 net.cpp:148] Top shape: 24 (24)
I0403 19:32:15.849632  9361 net.cpp:148] Top shape: 24 (24)
I0403 19:32:15.849649  9361 net.cpp:148] Top shape: 24 (24)
I0403 19:32:15.849666  9361 net.cpp:148] Top shape: 24 (24)
I0403 19:32:15.849684  9361 net.cpp:148] Top shape: 24 (24)
I0403 19:32:15.849701  9361 net.cpp:148] Top shape: 24 (24)
I0403 19:32:15.849753  9361 net.cpp:156] Memory required for data: 14451744
I0403 19:32:15.849771  9361 layer_factory.hpp:77] Creating layer conv1/7x7_s2
I0403 19:32:15.849807  9361 net.cpp:91] Creating Layer conv1/7x7_s2
I0403 19:32:15.849829  9361 net.cpp:425] conv1/7x7_s2 <- data
I0403 19:32:15.849851  9361 net.cpp:399] conv1/7x7_s2 -> conv1/7x7_s2
I0403 19:32:15.992435  9361 net.cpp:141] Setting up conv1/7x7_s2
I0403 19:32:15.992516  9361 net.cpp:148] Top shape: 24 64 112 112 (19267584)
I0403 19:32:15.992533  9361 net.cpp:156] Memory required for data: 91522080
I0403 19:32:15.992578  9361 layer_factory.hpp:77] Creating layer conv1/relu_7x7
I0403 19:32:15.992604  9361 net.cpp:91] Creating Layer conv1/relu_7x7
I0403 19:32:15.992624  9361 net.cpp:425] conv1/relu_7x7 <- conv1/7x7_s2
I0403 19:32:15.992643  9361 net.cpp:386] conv1/relu_7x7 -> conv1/7x7_s2 (in-place)
I0403 19:32:15.992902  9361 net.cpp:141] Setting up conv1/relu_7x7
I0403 19:32:15.992929  9361 net.cpp:148] Top shape: 24 64 112 112 (19267584)
I0403 19:32:15.992945  9361 net.cpp:156] Memory required for data: 168592416
I0403 19:32:15.992961  9361 layer_factory.hpp:77] Creating layer pool1/3x3_s2
I0403 19:32:15.992987  9361 net.cpp:91] Creating Layer pool1/3x3_s2
I0403 19:32:15.993005  9361 net.cpp:425] pool1/3x3_s2 <- conv1/7x7_s2
I0403 19:32:15.993023  9361 net.cpp:399] pool1/3x3_s2 -> pool1/3x3_s2
I0403 19:32:15.993098  9361 net.cpp:141] Setting up pool1/3x3_s2
I0403 19:32:15.993122  9361 net.cpp:148] Top shape: 24 64 56 56 (4816896)
I0403 19:32:15.993137  9361 net.cpp:156] Memory required for data: 187860000
I0403 19:32:15.993154  9361 layer_factory.hpp:77] Creating layer pool1/norm1
I0403 19:32:15.993178  9361 net.cpp:91] Creating Layer pool1/norm1
I0403 19:32:15.993196  9361 net.cpp:425] pool1/norm1 <- pool1/3x3_s2
I0403 19:32:15.993226  9361 net.cpp:399] pool1/norm1 -> pool1/norm1
I0403 19:32:15.993518  9361 net.cpp:141] Setting up pool1/norm1
I0403 19:32:15.993546  9361 net.cpp:148] Top shape: 24 64 56 56 (4816896)
I0403 19:32:15.993561  9361 net.cpp:156] Memory required for data: 207127584
I0403 19:32:15.993577  9361 layer_factory.hpp:77] Creating layer conv2/3x3_reduce
I0403 19:32:15.993603  9361 net.cpp:91] Creating Layer conv2/3x3_reduce
I0403 19:32:15.993619  9361 net.cpp:425] conv2/3x3_reduce <- pool1/norm1
I0403 19:32:15.993638  9361 net.cpp:399] conv2/3x3_reduce -> conv2/3x3_reduce
I0403 19:32:15.995002  9361 net.cpp:141] Setting up conv2/3x3_reduce
I0403 19:32:15.995031  9361 net.cpp:148] Top shape: 24 64 56 56 (4816896)
I0403 19:32:15.995048  9361 net.cpp:156] Memory required for data: 226395168
I0403 19:32:15.995069  9361 layer_factory.hpp:77] Creating layer conv2/relu_3x3_reduce
I0403 19:32:15.995086  9361 net.cpp:91] Creating Layer conv2/relu_3x3_reduce
I0403 19:32:15.995103  9361 net.cpp:425] conv2/relu_3x3_reduce <- conv2/3x3_reduce
I0403 19:32:15.995121  9361 net.cpp:386] conv2/relu_3x3_reduce -> conv2/3x3_reduce (in-place)
I0403 19:32:15.995378  9361 net.cpp:141] Setting up conv2/relu_3x3_reduce
I0403 19:32:15.995404  9361 net.cpp:148] Top shape: 24 64 56 56 (4816896)
I0403 19:32:15.995419  9361 net.cpp:156] Memory required for data: 245662752
I0403 19:32:15.995436  9361 layer_factory.hpp:77] Creating layer conv2/3x3
I0403 19:32:15.995460  9361 net.cpp:91] Creating Layer conv2/3x3
I0403 19:32:15.995477  9361 net.cpp:425] conv2/3x3 <- conv2/3x3_reduce
I0403 19:32:15.995496  9361 net.cpp:399] conv2/3x3 -> conv2/3x3
I0403 19:32:15.997784  9361 net.cpp:141] Setting up conv2/3x3
I0403 19:32:15.997817  9361 net.cpp:148] Top shape: 24 192 56 56 (14450688)
I0403 19:32:15.997834  9361 net.cpp:156] Memory required for data: 303465504
I0403 19:32:15.997858  9361 layer_factory.hpp:77] Creating layer conv2/relu_3x3
I0403 19:32:15.997877  9361 net.cpp:91] Creating Layer conv2/relu_3x3
I0403 19:32:15.997895  9361 net.cpp:425] conv2/relu_3x3 <- conv2/3x3
I0403 19:32:15.997913  9361 net.cpp:386] conv2/relu_3x3 -> conv2/3x3 (in-place)
I0403 19:32:15.998076  9361 net.cpp:141] Setting up conv2/relu_3x3
I0403 19:32:15.998105  9361 net.cpp:148] Top shape: 24 192 56 56 (14450688)
I0403 19:32:15.998150  9361 net.cpp:156] Memory required for data: 361268256
I0403 19:32:15.998167  9361 layer_factory.hpp:77] Creating layer conv2/norm2
I0403 19:32:15.998185  9361 net.cpp:91] Creating Layer conv2/norm2
I0403 19:32:15.998201  9361 net.cpp:425] conv2/norm2 <- conv2/3x3
I0403 19:32:15.998225  9361 net.cpp:399] conv2/norm2 -> conv2/norm2
I0403 19:32:15.998518  9361 net.cpp:141] Setting up conv2/norm2
I0403 19:32:15.998546  9361 net.cpp:148] Top shape: 24 192 56 56 (14450688)
I0403 19:32:15.998563  9361 net.cpp:156] Memory required for data: 419071008
I0403 19:32:15.998577  9361 layer_factory.hpp:77] Creating layer pool2/3x3_s2
I0403 19:32:15.998596  9361 net.cpp:91] Creating Layer pool2/3x3_s2
I0403 19:32:15.998612  9361 net.cpp:425] pool2/3x3_s2 <- conv2/norm2
I0403 19:32:15.998631  9361 net.cpp:399] pool2/3x3_s2 -> pool2/3x3_s2
I0403 19:32:15.998682  9361 net.cpp:141] Setting up pool2/3x3_s2
I0403 19:32:15.998704  9361 net.cpp:148] Top shape: 24 192 28 28 (3612672)
I0403 19:32:15.998719  9361 net.cpp:156] Memory required for data: 433521696
I0403 19:32:15.998734  9361 layer_factory.hpp:77] Creating layer pool2/3x3_s2_pool2/3x3_s2_0_split
I0403 19:32:15.998751  9361 net.cpp:91] Creating Layer pool2/3x3_s2_pool2/3x3_s2_0_split
I0403 19:32:15.998767  9361 net.cpp:425] pool2/3x3_s2_pool2/3x3_s2_0_split <- pool2/3x3_s2
I0403 19:32:15.998785  9361 net.cpp:399] pool2/3x3_s2_pool2/3x3_s2_0_split -> pool2/3x3_s2_pool2/3x3_s2_0_split_0
I0403 19:32:15.998805  9361 net.cpp:399] pool2/3x3_s2_pool2/3x3_s2_0_split -> pool2/3x3_s2_pool2/3x3_s2_0_split_1
I0403 19:32:15.998824  9361 net.cpp:399] pool2/3x3_s2_pool2/3x3_s2_0_split -> pool2/3x3_s2_pool2/3x3_s2_0_split_2
I0403 19:32:15.998844  9361 net.cpp:399] pool2/3x3_s2_pool2/3x3_s2_0_split -> pool2/3x3_s2_pool2/3x3_s2_0_split_3
I0403 19:32:15.998910  9361 net.cpp:141] Setting up pool2/3x3_s2_pool2/3x3_s2_0_split
I0403 19:32:15.998934  9361 net.cpp:148] Top shape: 24 192 28 28 (3612672)
I0403 19:32:15.998951  9361 net.cpp:148] Top shape: 24 192 28 28 (3612672)
I0403 19:32:15.998967  9361 net.cpp:148] Top shape: 24 192 28 28 (3612672)
I0403 19:32:15.998983  9361 net.cpp:148] Top shape: 24 192 28 28 (3612672)
I0403 19:32:15.998996  9361 net.cpp:156] Memory required for data: 491324448
I0403 19:32:15.999024  9361 layer_factory.hpp:77] Creating layer inception_3a/1x1
I0403 19:32:15.999045  9361 net.cpp:91] Creating Layer inception_3a/1x1
I0403 19:32:15.999063  9361 net.cpp:425] inception_3a/1x1 <- pool2/3x3_s2_pool2/3x3_s2_0_split_0
I0403 19:32:15.999083  9361 net.cpp:399] inception_3a/1x1 -> inception_3a/1x1
I0403 19:32:16.000653  9361 net.cpp:141] Setting up inception_3a/1x1
I0403 19:32:16.000686  9361 net.cpp:148] Top shape: 24 64 28 28 (1204224)
I0403 19:32:16.000705  9361 net.cpp:156] Memory required for data: 496141344
I0403 19:32:16.000740  9361 layer_factory.hpp:77] Creating layer inception_3a/relu_1x1
I0403 19:32:16.000757  9361 net.cpp:91] Creating Layer inception_3a/relu_1x1
I0403 19:32:16.000773  9361 net.cpp:425] inception_3a/relu_1x1 <- inception_3a/1x1
I0403 19:32:16.000792  9361 net.cpp:386] inception_3a/relu_1x1 -> inception_3a/1x1 (in-place)
I0403 19:32:16.000954  9361 net.cpp:141] Setting up inception_3a/relu_1x1
I0403 19:32:16.000980  9361 net.cpp:148] Top shape: 24 64 28 28 (1204224)
I0403 19:32:16.000998  9361 net.cpp:156] Memory required for data: 500958240
I0403 19:32:16.001014  9361 layer_factory.hpp:77] Creating layer inception_3a/3x3_reduce
I0403 19:32:16.001035  9361 net.cpp:91] Creating Layer inception_3a/3x3_reduce
I0403 19:32:16.001052  9361 net.cpp:425] inception_3a/3x3_reduce <- pool2/3x3_s2_pool2/3x3_s2_0_split_1
I0403 19:32:16.001071  9361 net.cpp:399] inception_3a/3x3_reduce -> inception_3a/3x3_reduce
I0403 19:32:16.002749  9361 net.cpp:141] Setting up inception_3a/3x3_reduce
I0403 19:32:16.002779  9361 net.cpp:148] Top shape: 24 96 28 28 (1806336)
I0403 19:32:16.002794  9361 net.cpp:156] Memory required for data: 508183584
I0403 19:32:16.002817  9361 layer_factory.hpp:77] Creating layer inception_3a/relu_3x3_reduce
I0403 19:32:16.002853  9361 net.cpp:91] Creating Layer inception_3a/relu_3x3_reduce
I0403 19:32:16.002871  9361 net.cpp:425] inception_3a/relu_3x3_reduce <- inception_3a/3x3_reduce
I0403 19:32:16.002889  9361 net.cpp:386] inception_3a/relu_3x3_reduce -> inception_3a/3x3_reduce (in-place)
I0403 19:32:16.003062  9361 net.cpp:141] Setting up inception_3a/relu_3x3_reduce
I0403 19:32:16.003088  9361 net.cpp:148] Top shape: 24 96 28 28 (1806336)
I0403 19:32:16.003103  9361 net.cpp:156] Memory required for data: 515408928
I0403 19:32:16.003118  9361 layer_factory.hpp:77] Creating layer inception_3a/3x3
I0403 19:32:16.003140  9361 net.cpp:91] Creating Layer inception_3a/3x3
I0403 19:32:16.003157  9361 net.cpp:425] inception_3a/3x3 <- inception_3a/3x3_reduce
I0403 19:32:16.003188  9361 net.cpp:399] inception_3a/3x3 -> inception_3a/3x3
I0403 19:32:16.004930  9361 net.cpp:141] Setting up inception_3a/3x3
I0403 19:32:16.004961  9361 net.cpp:148] Top shape: 24 128 28 28 (2408448)
I0403 19:32:16.004977  9361 net.cpp:156] Memory required for data: 525042720
I0403 19:32:16.004998  9361 layer_factory.hpp:77] Creating layer inception_3a/relu_3x3
I0403 19:32:16.005017  9361 net.cpp:91] Creating Layer inception_3a/relu_3x3
I0403 19:32:16.005035  9361 net.cpp:425] inception_3a/relu_3x3 <- inception_3a/3x3
I0403 19:32:16.005055  9361 net.cpp:386] inception_3a/relu_3x3 -> inception_3a/3x3 (in-place)
I0403 19:32:16.005375  9361 net.cpp:141] Setting up inception_3a/relu_3x3
I0403 19:32:16.005405  9361 net.cpp:148] Top shape: 24 128 28 28 (2408448)
I0403 19:32:16.005422  9361 net.cpp:156] Memory required for data: 534676512
I0403 19:32:16.005439  9361 layer_factory.hpp:77] Creating layer inception_3a/5x5_reduce
I0403 19:32:16.005462  9361 net.cpp:91] Creating Layer inception_3a/5x5_reduce
I0403 19:32:16.005481  9361 net.cpp:425] inception_3a/5x5_reduce <- pool2/3x3_s2_pool2/3x3_s2_0_split_2
I0403 19:32:16.005502  9361 net.cpp:399] inception_3a/5x5_reduce -> inception_3a/5x5_reduce
I0403 19:32:16.006501  9361 net.cpp:141] Setting up inception_3a/5x5_reduce
I0403 19:32:16.006531  9361 net.cpp:148] Top shape: 24 16 28 28 (301056)
I0403 19:32:16.006548  9361 net.cpp:156] Memory required for data: 535880736
I0403 19:32:16.006568  9361 layer_factory.hpp:77] Creating layer inception_3a/relu_5x5_reduce
I0403 19:32:16.006590  9361 net.cpp:91] Creating Layer inception_3a/relu_5x5_reduce
I0403 19:32:16.006609  9361 net.cpp:425] inception_3a/relu_5x5_reduce <- inception_3a/5x5_reduce
I0403 19:32:16.006628  9361 net.cpp:386] inception_3a/relu_5x5_reduce -> inception_3a/5x5_reduce (in-place)
I0403 19:32:16.006921  9361 net.cpp:141] Setting up inception_3a/relu_5x5_reduce
I0403 19:32:16.006947  9361 net.cpp:148] Top shape: 24 16 28 28 (301056)
I0403 19:32:16.006963  9361 net.cpp:156] Memory required for data: 537084960
I0403 19:32:16.006978  9361 layer_factory.hpp:77] Creating layer inception_3a/5x5
I0403 19:32:16.007001  9361 net.cpp:91] Creating Layer inception_3a/5x5
I0403 19:32:16.007019  9361 net.cpp:425] inception_3a/5x5 <- inception_3a/5x5_reduce
I0403 19:32:16.007045  9361 net.cpp:399] inception_3a/5x5 -> inception_3a/5x5
I0403 19:32:16.008080  9361 net.cpp:141] Setting up inception_3a/5x5
I0403 19:32:16.008107  9361 net.cpp:148] Top shape: 24 32 28 28 (602112)
I0403 19:32:16.008122  9361 net.cpp:156] Memory required for data: 539493408
I0403 19:32:16.008141  9361 layer_factory.hpp:77] Creating layer inception_3a/relu_5x5
I0403 19:32:16.008172  9361 net.cpp:91] Creating Layer inception_3a/relu_5x5
I0403 19:32:16.008190  9361 net.cpp:425] inception_3a/relu_5x5 <- inception_3a/5x5
I0403 19:32:16.008215  9361 net.cpp:386] inception_3a/relu_5x5 -> inception_3a/5x5 (in-place)
I0403 19:32:16.008399  9361 net.cpp:141] Setting up inception_3a/relu_5x5
I0403 19:32:16.008425  9361 net.cpp:148] Top shape: 24 32 28 28 (602112)
I0403 19:32:16.008441  9361 net.cpp:156] Memory required for data: 541901856
I0403 19:32:16.008457  9361 layer_factory.hpp:77] Creating layer inception_3a/pool
I0403 19:32:16.008491  9361 net.cpp:91] Creating Layer inception_3a/pool
I0403 19:32:16.008520  9361 net.cpp:425] inception_3a/pool <- pool2/3x3_s2_pool2/3x3_s2_0_split_3
I0403 19:32:16.008540  9361 net.cpp:399] inception_3a/pool -> inception_3a/pool
I0403 19:32:16.008601  9361 net.cpp:141] Setting up inception_3a/pool
I0403 19:32:16.008625  9361 net.cpp:148] Top shape: 24 192 28 28 (3612672)
I0403 19:32:16.008641  9361 net.cpp:156] Memory required for data: 556352544
I0403 19:32:16.008654  9361 layer_factory.hpp:77] Creating layer inception_3a/pool_proj
I0403 19:32:16.008677  9361 net.cpp:91] Creating Layer inception_3a/pool_proj
I0403 19:32:16.008697  9361 net.cpp:425] inception_3a/pool_proj <- inception_3a/pool
I0403 19:32:16.008718  9361 net.cpp:399] inception_3a/pool_proj -> inception_3a/pool_proj
I0403 19:32:16.009706  9361 net.cpp:141] Setting up inception_3a/pool_proj
I0403 19:32:16.009739  9361 net.cpp:148] Top shape: 24 32 28 28 (602112)
I0403 19:32:16.009757  9361 net.cpp:156] Memory required for data: 558760992
I0403 19:32:16.009778  9361 layer_factory.hpp:77] Creating layer inception_3a/relu_pool_proj
I0403 19:32:16.009799  9361 net.cpp:91] Creating Layer inception_3a/relu_pool_proj
I0403 19:32:16.009817  9361 net.cpp:425] inception_3a/relu_pool_proj <- inception_3a/pool_proj
I0403 19:32:16.009835  9361 net.cpp:386] inception_3a/relu_pool_proj -> inception_3a/pool_proj (in-place)
I0403 19:32:16.010115  9361 net.cpp:141] Setting up inception_3a/relu_pool_proj
I0403 19:32:16.010143  9361 net.cpp:148] Top shape: 24 32 28 28 (602112)
I0403 19:32:16.010159  9361 net.cpp:156] Memory required for data: 561169440
I0403 19:32:16.010174  9361 layer_factory.hpp:77] Creating layer inception_3a/output
I0403 19:32:16.010191  9361 net.cpp:91] Creating Layer inception_3a/output
I0403 19:32:16.010207  9361 net.cpp:425] inception_3a/output <- inception_3a/1x1
I0403 19:32:16.010229  9361 net.cpp:425] inception_3a/output <- inception_3a/3x3
I0403 19:32:16.010246  9361 net.cpp:425] inception_3a/output <- inception_3a/5x5
I0403 19:32:16.010262  9361 net.cpp:425] inception_3a/output <- inception_3a/pool_proj
I0403 19:32:16.010282  9361 net.cpp:399] inception_3a/output -> inception_3a/output
I0403 19:32:16.010329  9361 net.cpp:141] Setting up inception_3a/output
I0403 19:32:16.010360  9361 net.cpp:148] Top shape: 24 256 28 28 (4816896)
I0403 19:32:16.010375  9361 net.cpp:156] Memory required for data: 580437024
I0403 19:32:16.010391  9361 layer_factory.hpp:77] Creating layer inception_3a/output_inception_3a/output_0_split
I0403 19:32:16.010409  9361 net.cpp:91] Creating Layer inception_3a/output_inception_3a/output_0_split
I0403 19:32:16.010424  9361 net.cpp:425] inception_3a/output_inception_3a/output_0_split <- inception_3a/output
I0403 19:32:16.010443  9361 net.cpp:399] inception_3a/output_inception_3a/output_0_split -> inception_3a/output_inception_3a/output_0_split_0
I0403 19:32:16.010465  9361 net.cpp:399] inception_3a/output_inception_3a/output_0_split -> inception_3a/output_inception_3a/output_0_split_1
I0403 19:32:16.010489  9361 net.cpp:399] inception_3a/output_inception_3a/output_0_split -> inception_3a/output_inception_3a/output_0_split_2
I0403 19:32:16.010512  9361 net.cpp:399] inception_3a/output_inception_3a/output_0_split -> inception_3a/output_inception_3a/output_0_split_3
I0403 19:32:16.010591  9361 net.cpp:141] Setting up inception_3a/output_inception_3a/output_0_split
I0403 19:32:16.010617  9361 net.cpp:148] Top shape: 24 256 28 28 (4816896)
I0403 19:32:16.010634  9361 net.cpp:148] Top shape: 24 256 28 28 (4816896)
I0403 19:32:16.010651  9361 net.cpp:148] Top shape: 24 256 28 28 (4816896)
I0403 19:32:16.010666  9361 net.cpp:148] Top shape: 24 256 28 28 (4816896)
I0403 19:32:16.010680  9361 net.cpp:156] Memory required for data: 657507360
I0403 19:32:16.010695  9361 layer_factory.hpp:77] Creating layer inception_3b/1x1
I0403 19:32:16.010718  9361 net.cpp:91] Creating Layer inception_3b/1x1
I0403 19:32:16.010735  9361 net.cpp:425] inception_3b/1x1 <- inception_3a/output_inception_3a/output_0_split_0
I0403 19:32:16.010756  9361 net.cpp:399] inception_3b/1x1 -> inception_3b/1x1
I0403 19:32:16.011955  9361 net.cpp:141] Setting up inception_3b/1x1
I0403 19:32:16.011996  9361 net.cpp:148] Top shape: 24 128 28 28 (2408448)
I0403 19:32:16.012014  9361 net.cpp:156] Memory required for data: 667141152
I0403 19:32:16.012033  9361 layer_factory.hpp:77] Creating layer inception_3b/relu_1x1
I0403 19:32:16.012053  9361 net.cpp:91] Creating Layer inception_3b/relu_1x1
I0403 19:32:16.012068  9361 net.cpp:425] inception_3b/relu_1x1 <- inception_3b/1x1
I0403 19:32:16.012089  9361 net.cpp:386] inception_3b/relu_1x1 -> inception_3b/1x1 (in-place)
I0403 19:32:16.012269  9361 net.cpp:141] Setting up inception_3b/relu_1x1
I0403 19:32:16.012295  9361 net.cpp:148] Top shape: 24 128 28 28 (2408448)
I0403 19:32:16.012311  9361 net.cpp:156] Memory required for data: 676774944
I0403 19:32:16.012326  9361 layer_factory.hpp:77] Creating layer inception_3b/3x3_reduce
I0403 19:32:16.012348  9361 net.cpp:91] Creating Layer inception_3b/3x3_reduce
I0403 19:32:16.012367  9361 net.cpp:425] inception_3b/3x3_reduce <- inception_3a/output_inception_3a/output_0_split_1
I0403 19:32:16.012388  9361 net.cpp:399] inception_3b/3x3_reduce -> inception_3b/3x3_reduce
I0403 19:32:16.013568  9361 net.cpp:141] Setting up inception_3b/3x3_reduce
I0403 19:32:16.013599  9361 net.cpp:148] Top shape: 24 128 28 28 (2408448)
I0403 19:32:16.013617  9361 net.cpp:156] Memory required for data: 686408736
I0403 19:32:16.013636  9361 layer_factory.hpp:77] Creating layer inception_3b/relu_3x3_reduce
I0403 19:32:16.013654  9361 net.cpp:91] Creating Layer inception_3b/relu_3x3_reduce
I0403 19:32:16.013670  9361 net.cpp:425] inception_3b/relu_3x3_reduce <- inception_3b/3x3_reduce
I0403 19:32:16.013689  9361 net.cpp:386] inception_3b/relu_3x3_reduce -> inception_3b/3x3_reduce (in-place)
I0403 19:32:16.013865  9361 net.cpp:141] Setting up inception_3b/relu_3x3_reduce
I0403 19:32:16.013891  9361 net.cpp:148] Top shape: 24 128 28 28 (2408448)
I0403 19:32:16.013906  9361 net.cpp:156] Memory required for data: 696042528
I0403 19:32:16.013921  9361 layer_factory.hpp:77] Creating layer inception_3b/3x3
I0403 19:32:16.013952  9361 net.cpp:91] Creating Layer inception_3b/3x3
I0403 19:32:16.013972  9361 net.cpp:425] inception_3b/3x3 <- inception_3b/3x3_reduce
I0403 19:32:16.013990  9361 net.cpp:399] inception_3b/3x3 -> inception_3b/3x3
I0403 19:32:16.017011  9361 net.cpp:141] Setting up inception_3b/3x3
I0403 19:32:16.017042  9361 net.cpp:148] Top shape: 24 192 28 28 (3612672)
I0403 19:32:16.017060  9361 net.cpp:156] Memory required for data: 710493216
I0403 19:32:16.017081  9361 layer_factory.hpp:77] Creating layer inception_3b/relu_3x3
I0403 19:32:16.017101  9361 net.cpp:91] Creating Layer inception_3b/relu_3x3
I0403 19:32:16.017117  9361 net.cpp:425] inception_3b/relu_3x3 <- inception_3b/3x3
I0403 19:32:16.017137  9361 net.cpp:386] inception_3b/relu_3x3 -> inception_3b/3x3 (in-place)
I0403 19:32:16.017422  9361 net.cpp:141] Setting up inception_3b/relu_3x3
I0403 19:32:16.017449  9361 net.cpp:148] Top shape: 24 192 28 28 (3612672)
I0403 19:32:16.017465  9361 net.cpp:156] Memory required for data: 724943904
I0403 19:32:16.017480  9361 layer_factory.hpp:77] Creating layer inception_3b/5x5_reduce
I0403 19:32:16.017504  9361 net.cpp:91] Creating Layer inception_3b/5x5_reduce
I0403 19:32:16.017524  9361 net.cpp:425] inception_3b/5x5_reduce <- inception_3a/output_inception_3a/output_0_split_2
I0403 19:32:16.017546  9361 net.cpp:399] inception_3b/5x5_reduce -> inception_3b/5x5_reduce
I0403 19:32:16.018568  9361 net.cpp:141] Setting up inception_3b/5x5_reduce
I0403 19:32:16.018597  9361 net.cpp:148] Top shape: 24 32 28 28 (602112)
I0403 19:32:16.018613  9361 net.cpp:156] Memory required for data: 727352352
I0403 19:32:16.018633  9361 layer_factory.hpp:77] Creating layer inception_3b/relu_5x5_reduce
I0403 19:32:16.018652  9361 net.cpp:91] Creating Layer inception_3b/relu_5x5_reduce
I0403 19:32:16.018668  9361 net.cpp:425] inception_3b/relu_5x5_reduce <- inception_3b/5x5_reduce
I0403 19:32:16.018688  9361 net.cpp:386] inception_3b/relu_5x5_reduce -> inception_3b/5x5_reduce (in-place)
I0403 19:32:16.018887  9361 net.cpp:141] Setting up inception_3b/relu_5x5_reduce
I0403 19:32:16.018913  9361 net.cpp:148] Top shape: 24 32 28 28 (602112)
I0403 19:32:16.018929  9361 net.cpp:156] Memory required for data: 729760800
I0403 19:32:16.018944  9361 layer_factory.hpp:77] Creating layer inception_3b/5x5
I0403 19:32:16.018967  9361 net.cpp:91] Creating Layer inception_3b/5x5
I0403 19:32:16.018985  9361 net.cpp:425] inception_3b/5x5 <- inception_3b/5x5_reduce
I0403 19:32:16.019006  9361 net.cpp:399] inception_3b/5x5 -> inception_3b/5x5
I0403 19:32:16.021050  9361 net.cpp:141] Setting up inception_3b/5x5
I0403 19:32:16.021083  9361 net.cpp:148] Top shape: 24 96 28 28 (1806336)
I0403 19:32:16.021101  9361 net.cpp:156] Memory required for data: 736986144
I0403 19:32:16.021121  9361 layer_factory.hpp:77] Creating layer inception_3b/relu_5x5
I0403 19:32:16.021139  9361 net.cpp:91] Creating Layer inception_3b/relu_5x5
I0403 19:32:16.021155  9361 net.cpp:425] inception_3b/relu_5x5 <- inception_3b/5x5
I0403 19:32:16.021173  9361 net.cpp:386] inception_3b/relu_5x5 -> inception_3b/5x5 (in-place)
I0403 19:32:16.021371  9361 net.cpp:141] Setting up inception_3b/relu_5x5
I0403 19:32:16.021396  9361 net.cpp:148] Top shape: 24 96 28 28 (1806336)
I0403 19:32:16.021411  9361 net.cpp:156] Memory required for data: 744211488
I0403 19:32:16.021426  9361 layer_factory.hpp:77] Creating layer inception_3b/pool
I0403 19:32:16.021445  9361 net.cpp:91] Creating Layer inception_3b/pool
I0403 19:32:16.021461  9361 net.cpp:425] inception_3b/pool <- inception_3a/output_inception_3a/output_0_split_3
I0403 19:32:16.021481  9361 net.cpp:399] inception_3b/pool -> inception_3b/pool
I0403 19:32:16.021536  9361 net.cpp:141] Setting up inception_3b/pool
I0403 19:32:16.021561  9361 net.cpp:148] Top shape: 24 256 28 28 (4816896)
I0403 19:32:16.021577  9361 net.cpp:156] Memory required for data: 763479072
I0403 19:32:16.021591  9361 layer_factory.hpp:77] Creating layer inception_3b/pool_proj
I0403 19:32:16.021615  9361 net.cpp:91] Creating Layer inception_3b/pool_proj
I0403 19:32:16.021632  9361 net.cpp:425] inception_3b/pool_proj <- inception_3b/pool
I0403 19:32:16.021651  9361 net.cpp:399] inception_3b/pool_proj -> inception_3b/pool_proj
I0403 19:32:16.022711  9361 net.cpp:141] Setting up inception_3b/pool_proj
I0403 19:32:16.022737  9361 net.cpp:148] Top shape: 24 64 28 28 (1204224)
I0403 19:32:16.022753  9361 net.cpp:156] Memory required for data: 768295968
I0403 19:32:16.022771  9361 layer_factory.hpp:77] Creating layer inception_3b/relu_pool_proj
I0403 19:32:16.022791  9361 net.cpp:91] Creating Layer inception_3b/relu_pool_proj
I0403 19:32:16.022807  9361 net.cpp:425] inception_3b/relu_pool_proj <- inception_3b/pool_proj
I0403 19:32:16.022825  9361 net.cpp:386] inception_3b/relu_pool_proj -> inception_3b/pool_proj (in-place)
I0403 19:32:16.023200  9361 net.cpp:141] Setting up inception_3b/relu_pool_proj
I0403 19:32:16.023236  9361 net.cpp:148] Top shape: 24 64 28 28 (1204224)
I0403 19:32:16.023252  9361 net.cpp:156] Memory required for data: 773112864
I0403 19:32:16.023267  9361 layer_factory.hpp:77] Creating layer inception_3b/output
I0403 19:32:16.023284  9361 net.cpp:91] Creating Layer inception_3b/output
I0403 19:32:16.023300  9361 net.cpp:425] inception_3b/output <- inception_3b/1x1
I0403 19:32:16.023316  9361 net.cpp:425] inception_3b/output <- inception_3b/3x3
I0403 19:32:16.023331  9361 net.cpp:425] inception_3b/output <- inception_3b/5x5
I0403 19:32:16.023347  9361 net.cpp:425] inception_3b/output <- inception_3b/pool_proj
I0403 19:32:16.023366  9361 net.cpp:399] inception_3b/output -> inception_3b/output
I0403 19:32:16.023411  9361 net.cpp:141] Setting up inception_3b/output
I0403 19:32:16.023435  9361 net.cpp:148] Top shape: 24 480 28 28 (9031680)
I0403 19:32:16.023449  9361 net.cpp:156] Memory required for data: 809239584
I0403 19:32:16.023464  9361 layer_factory.hpp:77] Creating layer pool3/3x3_s2
I0403 19:32:16.023480  9361 net.cpp:91] Creating Layer pool3/3x3_s2
I0403 19:32:16.023495  9361 net.cpp:425] pool3/3x3_s2 <- inception_3b/output
I0403 19:32:16.023530  9361 net.cpp:399] pool3/3x3_s2 -> pool3/3x3_s2
I0403 19:32:16.023587  9361 net.cpp:141] Setting up pool3/3x3_s2
I0403 19:32:16.023610  9361 net.cpp:148] Top shape: 24 480 14 14 (2257920)
I0403 19:32:16.023624  9361 net.cpp:156] Memory required for data: 818271264
I0403 19:32:16.023638  9361 layer_factory.hpp:77] Creating layer pool3/3x3_s2_pool3/3x3_s2_0_split
I0403 19:32:16.023658  9361 net.cpp:91] Creating Layer pool3/3x3_s2_pool3/3x3_s2_0_split
I0403 19:32:16.023672  9361 net.cpp:425] pool3/3x3_s2_pool3/3x3_s2_0_split <- pool3/3x3_s2
I0403 19:32:16.023689  9361 net.cpp:399] pool3/3x3_s2_pool3/3x3_s2_0_split -> pool3/3x3_s2_pool3/3x3_s2_0_split_0
I0403 19:32:16.023710  9361 net.cpp:399] pool3/3x3_s2_pool3/3x3_s2_0_split -> pool3/3x3_s2_pool3/3x3_s2_0_split_1
I0403 19:32:16.023730  9361 net.cpp:399] pool3/3x3_s2_pool3/3x3_s2_0_split -> pool3/3x3_s2_pool3/3x3_s2_0_split_2
I0403 19:32:16.023749  9361 net.cpp:399] pool3/3x3_s2_pool3/3x3_s2_0_split -> pool3/3x3_s2_pool3/3x3_s2_0_split_3
I0403 19:32:16.023823  9361 net.cpp:141] Setting up pool3/3x3_s2_pool3/3x3_s2_0_split
I0403 19:32:16.023844  9361 net.cpp:148] Top shape: 24 480 14 14 (2257920)
I0403 19:32:16.023860  9361 net.cpp:148] Top shape: 24 480 14 14 (2257920)
I0403 19:32:16.023875  9361 net.cpp:148] Top shape: 24 480 14 14 (2257920)
I0403 19:32:16.023890  9361 net.cpp:148] Top shape: 24 480 14 14 (2257920)
I0403 19:32:16.023905  9361 net.cpp:156] Memory required for data: 854397984
I0403 19:32:16.023918  9361 layer_factory.hpp:77] Creating layer inception_4a/1x1
I0403 19:32:16.023939  9361 net.cpp:91] Creating Layer inception_4a/1x1
I0403 19:32:16.023960  9361 net.cpp:425] inception_4a/1x1 <- pool3/3x3_s2_pool3/3x3_s2_0_split_0
I0403 19:32:16.023985  9361 net.cpp:399] inception_4a/1x1 -> inception_4a/1x1
I0403 19:32:16.025511  9361 net.cpp:141] Setting up inception_4a/1x1
I0403 19:32:16.025538  9361 net.cpp:148] Top shape: 24 192 14 14 (903168)
I0403 19:32:16.025554  9361 net.cpp:156] Memory required for data: 858010656
I0403 19:32:16.025573  9361 layer_factory.hpp:77] Creating layer inception_4a/relu_1x1
I0403 19:32:16.025594  9361 net.cpp:91] Creating Layer inception_4a/relu_1x1
I0403 19:32:16.025611  9361 net.cpp:425] inception_4a/relu_1x1 <- inception_4a/1x1
I0403 19:32:16.025629  9361 net.cpp:386] inception_4a/relu_1x1 -> inception_4a/1x1 (in-place)
I0403 19:32:16.025804  9361 net.cpp:141] Setting up inception_4a/relu_1x1
I0403 19:32:16.025830  9361 net.cpp:148] Top shape: 24 192 14 14 (903168)
I0403 19:32:16.025845  9361 net.cpp:156] Memory required for data: 861623328
I0403 19:32:16.025859  9361 layer_factory.hpp:77] Creating layer inception_4a/3x3_reduce
I0403 19:32:16.025882  9361 net.cpp:91] Creating Layer inception_4a/3x3_reduce
I0403 19:32:16.025897  9361 net.cpp:425] inception_4a/3x3_reduce <- pool3/3x3_s2_pool3/3x3_s2_0_split_1
I0403 19:32:16.025915  9361 net.cpp:399] inception_4a/3x3_reduce -> inception_4a/3x3_reduce
I0403 19:32:16.027150  9361 net.cpp:141] Setting up inception_4a/3x3_reduce
I0403 19:32:16.027178  9361 net.cpp:148] Top shape: 24 96 14 14 (451584)
I0403 19:32:16.027194  9361 net.cpp:156] Memory required for data: 863429664
I0403 19:32:16.027223  9361 layer_factory.hpp:77] Creating layer inception_4a/relu_3x3_reduce
I0403 19:32:16.027245  9361 net.cpp:91] Creating Layer inception_4a/relu_3x3_reduce
I0403 19:32:16.027261  9361 net.cpp:425] inception_4a/relu_3x3_reduce <- inception_4a/3x3_reduce
I0403 19:32:16.027277  9361 net.cpp:386] inception_4a/relu_3x3_reduce -> inception_4a/3x3_reduce (in-place)
I0403 19:32:16.027446  9361 net.cpp:141] Setting up inception_4a/relu_3x3_reduce
I0403 19:32:16.027472  9361 net.cpp:148] Top shape: 24 96 14 14 (451584)
I0403 19:32:16.027487  9361 net.cpp:156] Memory required for data: 865236000
I0403 19:32:16.027503  9361 layer_factory.hpp:77] Creating layer inception_4a/3x3
I0403 19:32:16.027523  9361 net.cpp:91] Creating Layer inception_4a/3x3
I0403 19:32:16.027540  9361 net.cpp:425] inception_4a/3x3 <- inception_4a/3x3_reduce
I0403 19:32:16.027559  9361 net.cpp:399] inception_4a/3x3 -> inception_4a/3x3
I0403 19:32:16.030190  9361 net.cpp:141] Setting up inception_4a/3x3
I0403 19:32:16.030226  9361 net.cpp:148] Top shape: 24 208 14 14 (978432)
I0403 19:32:16.030244  9361 net.cpp:156] Memory required for data: 869149728
I0403 19:32:16.030262  9361 layer_factory.hpp:77] Creating layer inception_4a/relu_3x3
I0403 19:32:16.030282  9361 net.cpp:91] Creating Layer inception_4a/relu_3x3
I0403 19:32:16.030298  9361 net.cpp:425] inception_4a/relu_3x3 <- inception_4a/3x3
I0403 19:32:16.030318  9361 net.cpp:386] inception_4a/relu_3x3 -> inception_4a/3x3 (in-place)
I0403 19:32:16.030585  9361 net.cpp:141] Setting up inception_4a/relu_3x3
I0403 19:32:16.030613  9361 net.cpp:148] Top shape: 24 208 14 14 (978432)
I0403 19:32:16.030628  9361 net.cpp:156] Memory required for data: 873063456
I0403 19:32:16.030643  9361 layer_factory.hpp:77] Creating layer inception_4a/5x5_reduce
I0403 19:32:16.030664  9361 net.cpp:91] Creating Layer inception_4a/5x5_reduce
I0403 19:32:16.030683  9361 net.cpp:425] inception_4a/5x5_reduce <- pool3/3x3_s2_pool3/3x3_s2_0_split_2
I0403 19:32:16.030700  9361 net.cpp:399] inception_4a/5x5_reduce -> inception_4a/5x5_reduce
I0403 19:32:16.031690  9361 net.cpp:141] Setting up inception_4a/5x5_reduce
I0403 19:32:16.031718  9361 net.cpp:148] Top shape: 24 16 14 14 (75264)
I0403 19:32:16.031733  9361 net.cpp:156] Memory required for data: 873364512
I0403 19:32:16.031749  9361 layer_factory.hpp:77] Creating layer inception_4a/relu_5x5_reduce
I0403 19:32:16.031767  9361 net.cpp:91] Creating Layer inception_4a/relu_5x5_reduce
I0403 19:32:16.031783  9361 net.cpp:425] inception_4a/relu_5x5_reduce <- inception_4a/5x5_reduce
I0403 19:32:16.031802  9361 net.cpp:386] inception_4a/relu_5x5_reduce -> inception_4a/5x5_reduce (in-place)
I0403 19:32:16.031975  9361 net.cpp:141] Setting up inception_4a/relu_5x5_reduce
I0403 19:32:16.031999  9361 net.cpp:148] Top shape: 24 16 14 14 (75264)
I0403 19:32:16.032013  9361 net.cpp:156] Memory required for data: 873665568
I0403 19:32:16.032028  9361 layer_factory.hpp:77] Creating layer inception_4a/5x5
I0403 19:32:16.032049  9361 net.cpp:91] Creating Layer inception_4a/5x5
I0403 19:32:16.032066  9361 net.cpp:425] inception_4a/5x5 <- inception_4a/5x5_reduce
I0403 19:32:16.032086  9361 net.cpp:399] inception_4a/5x5 -> inception_4a/5x5
I0403 19:32:16.033146  9361 net.cpp:141] Setting up inception_4a/5x5
I0403 19:32:16.033172  9361 net.cpp:148] Top shape: 24 48 14 14 (225792)
I0403 19:32:16.033187  9361 net.cpp:156] Memory required for data: 874568736
I0403 19:32:16.033205  9361 layer_factory.hpp:77] Creating layer inception_4a/relu_5x5
I0403 19:32:16.033236  9361 net.cpp:91] Creating Layer inception_4a/relu_5x5
I0403 19:32:16.033254  9361 net.cpp:425] inception_4a/relu_5x5 <- inception_4a/5x5
I0403 19:32:16.033272  9361 net.cpp:386] inception_4a/relu_5x5 -> inception_4a/5x5 (in-place)
I0403 19:32:16.033442  9361 net.cpp:141] Setting up inception_4a/relu_5x5
I0403 19:32:16.033468  9361 net.cpp:148] Top shape: 24 48 14 14 (225792)
I0403 19:32:16.033483  9361 net.cpp:156] Memory required for data: 875471904
I0403 19:32:16.033498  9361 layer_factory.hpp:77] Creating layer inception_4a/pool
I0403 19:32:16.033515  9361 net.cpp:91] Creating Layer inception_4a/pool
I0403 19:32:16.033531  9361 net.cpp:425] inception_4a/pool <- pool3/3x3_s2_pool3/3x3_s2_0_split_3
I0403 19:32:16.033550  9361 net.cpp:399] inception_4a/pool -> inception_4a/pool
I0403 19:32:16.033608  9361 net.cpp:141] Setting up inception_4a/pool
I0403 19:32:16.033632  9361 net.cpp:148] Top shape: 24 480 14 14 (2257920)
I0403 19:32:16.033646  9361 net.cpp:156] Memory required for data: 884503584
I0403 19:32:16.033660  9361 layer_factory.hpp:77] Creating layer inception_4a/pool_proj
I0403 19:32:16.033681  9361 net.cpp:91] Creating Layer inception_4a/pool_proj
I0403 19:32:16.033699  9361 net.cpp:425] inception_4a/pool_proj <- inception_4a/pool
I0403 19:32:16.033718  9361 net.cpp:399] inception_4a/pool_proj -> inception_4a/pool_proj
I0403 19:32:16.034842  9361 net.cpp:141] Setting up inception_4a/pool_proj
I0403 19:32:16.034869  9361 net.cpp:148] Top shape: 24 64 14 14 (301056)
I0403 19:32:16.034898  9361 net.cpp:156] Memory required for data: 885707808
I0403 19:32:16.034917  9361 layer_factory.hpp:77] Creating layer inception_4a/relu_pool_proj
I0403 19:32:16.034939  9361 net.cpp:91] Creating Layer inception_4a/relu_pool_proj
I0403 19:32:16.034955  9361 net.cpp:425] inception_4a/relu_pool_proj <- inception_4a/pool_proj
I0403 19:32:16.034970  9361 net.cpp:386] inception_4a/relu_pool_proj -> inception_4a/pool_proj (in-place)
I0403 19:32:16.035245  9361 net.cpp:141] Setting up inception_4a/relu_pool_proj
I0403 19:32:16.035275  9361 net.cpp:148] Top shape: 24 64 14 14 (301056)
I0403 19:32:16.035292  9361 net.cpp:156] Memory required for data: 886912032
I0403 19:32:16.035306  9361 layer_factory.hpp:77] Creating layer inception_4a/output
I0403 19:32:16.035326  9361 net.cpp:91] Creating Layer inception_4a/output
I0403 19:32:16.035346  9361 net.cpp:425] inception_4a/output <- inception_4a/1x1
I0403 19:32:16.035363  9361 net.cpp:425] inception_4a/output <- inception_4a/3x3
I0403 19:32:16.035382  9361 net.cpp:425] inception_4a/output <- inception_4a/5x5
I0403 19:32:16.035398  9361 net.cpp:425] inception_4a/output <- inception_4a/pool_proj
I0403 19:32:16.035413  9361 net.cpp:399] inception_4a/output -> inception_4a/output
I0403 19:32:16.035459  9361 net.cpp:141] Setting up inception_4a/output
I0403 19:32:16.035480  9361 net.cpp:148] Top shape: 24 512 14 14 (2408448)
I0403 19:32:16.035495  9361 net.cpp:156] Memory required for data: 896545824
I0403 19:32:16.035509  9361 layer_factory.hpp:77] Creating layer inception_4a/output_inception_4a/output_0_split
I0403 19:32:16.035527  9361 net.cpp:91] Creating Layer inception_4a/output_inception_4a/output_0_split
I0403 19:32:16.035542  9361 net.cpp:425] inception_4a/output_inception_4a/output_0_split <- inception_4a/output
I0403 19:32:16.035562  9361 net.cpp:399] inception_4a/output_inception_4a/output_0_split -> inception_4a/output_inception_4a/output_0_split_0
I0403 19:32:16.035589  9361 net.cpp:399] inception_4a/output_inception_4a/output_0_split -> inception_4a/output_inception_4a/output_0_split_1
I0403 19:32:16.035616  9361 net.cpp:399] inception_4a/output_inception_4a/output_0_split -> inception_4a/output_inception_4a/output_0_split_2
I0403 19:32:16.035640  9361 net.cpp:399] inception_4a/output_inception_4a/output_0_split -> inception_4a/output_inception_4a/output_0_split_3
I0403 19:32:16.035662  9361 net.cpp:399] inception_4a/output_inception_4a/output_0_split -> inception_4a/output_inception_4a/output_0_split_4
I0403 19:32:16.035761  9361 net.cpp:141] Setting up inception_4a/output_inception_4a/output_0_split
I0403 19:32:16.035784  9361 net.cpp:148] Top shape: 24 512 14 14 (2408448)
I0403 19:32:16.035799  9361 net.cpp:148] Top shape: 24 512 14 14 (2408448)
I0403 19:32:16.035815  9361 net.cpp:148] Top shape: 24 512 14 14 (2408448)
I0403 19:32:16.035830  9361 net.cpp:148] Top shape: 24 512 14 14 (2408448)
I0403 19:32:16.035845  9361 net.cpp:148] Top shape: 24 512 14 14 (2408448)
I0403 19:32:16.035858  9361 net.cpp:156] Memory required for data: 944714784
I0403 19:32:16.035872  9361 layer_factory.hpp:77] Creating layer loss1/ave_pool
I0403 19:32:16.035890  9361 net.cpp:91] Creating Layer loss1/ave_pool
I0403 19:32:16.035905  9361 net.cpp:425] loss1/ave_pool <- inception_4a/output_inception_4a/output_0_split_0
I0403 19:32:16.035923  9361 net.cpp:399] loss1/ave_pool -> loss1/ave_pool
I0403 19:32:16.036137  9361 net.cpp:141] Setting up loss1/ave_pool
I0403 19:32:16.036162  9361 net.cpp:148] Top shape: 24 512 4 4 (196608)
I0403 19:32:16.036177  9361 net.cpp:156] Memory required for data: 945501216
I0403 19:32:16.036192  9361 layer_factory.hpp:77] Creating layer loss1/conv
I0403 19:32:16.036217  9361 net.cpp:91] Creating Layer loss1/conv
I0403 19:32:16.036238  9361 net.cpp:425] loss1/conv <- loss1/ave_pool
I0403 19:32:16.036257  9361 net.cpp:399] loss1/conv -> loss1/conv
I0403 19:32:16.037648  9361 net.cpp:141] Setting up loss1/conv
I0403 19:32:16.037680  9361 net.cpp:148] Top shape: 24 128 4 4 (49152)
I0403 19:32:16.037710  9361 net.cpp:156] Memory required for data: 945697824
I0403 19:32:16.037729  9361 layer_factory.hpp:77] Creating layer loss1/relu_conv
I0403 19:32:16.037747  9361 net.cpp:91] Creating Layer loss1/relu_conv
I0403 19:32:16.037763  9361 net.cpp:425] loss1/relu_conv <- loss1/conv
I0403 19:32:16.037782  9361 net.cpp:386] loss1/relu_conv -> loss1/conv (in-place)
I0403 19:32:16.038058  9361 net.cpp:141] Setting up loss1/relu_conv
I0403 19:32:16.038086  9361 net.cpp:148] Top shape: 24 128 4 4 (49152)
I0403 19:32:16.038102  9361 net.cpp:156] Memory required for data: 945894432
I0403 19:32:16.038117  9361 layer_factory.hpp:77] Creating layer loss1/fc
I0403 19:32:16.038141  9361 net.cpp:91] Creating Layer loss1/fc
I0403 19:32:16.038158  9361 net.cpp:425] loss1/fc <- loss1/conv
I0403 19:32:16.038179  9361 net.cpp:399] loss1/fc -> loss1/fc
I0403 19:32:16.056166  9361 net.cpp:141] Setting up loss1/fc
I0403 19:32:16.056236  9361 net.cpp:148] Top shape: 24 1024 (24576)
I0403 19:32:16.056252  9361 net.cpp:156] Memory required for data: 945992736
I0403 19:32:16.056273  9361 layer_factory.hpp:77] Creating layer loss1/relu_fc
I0403 19:32:16.056293  9361 net.cpp:91] Creating Layer loss1/relu_fc
I0403 19:32:16.056310  9361 net.cpp:425] loss1/relu_fc <- loss1/fc
I0403 19:32:16.056330  9361 net.cpp:386] loss1/relu_fc -> loss1/fc (in-place)
I0403 19:32:16.056540  9361 net.cpp:141] Setting up loss1/relu_fc
I0403 19:32:16.056567  9361 net.cpp:148] Top shape: 24 1024 (24576)
I0403 19:32:16.056582  9361 net.cpp:156] Memory required for data: 946091040
I0403 19:32:16.056597  9361 layer_factory.hpp:77] Creating layer loss1/drop_fc
I0403 19:32:16.056627  9361 net.cpp:91] Creating Layer loss1/drop_fc
I0403 19:32:16.056643  9361 net.cpp:425] loss1/drop_fc <- loss1/fc
I0403 19:32:16.056661  9361 net.cpp:386] loss1/drop_fc -> loss1/fc (in-place)
I0403 19:32:16.056713  9361 net.cpp:141] Setting up loss1/drop_fc
I0403 19:32:16.056736  9361 net.cpp:148] Top shape: 24 1024 (24576)
I0403 19:32:16.056751  9361 net.cpp:156] Memory required for data: 946189344
I0403 19:32:16.056766  9361 layer_factory.hpp:77] Creating layer loss1/classifier_plantvillage
I0403 19:32:16.056789  9361 net.cpp:91] Creating Layer loss1/classifier_plantvillage
I0403 19:32:16.056807  9361 net.cpp:425] loss1/classifier_plantvillage <- loss1/fc
I0403 19:32:16.056824  9361 net.cpp:399] loss1/classifier_plantvillage -> loss1/classifier_plantvillage
I0403 19:32:16.057767  9361 net.cpp:141] Setting up loss1/classifier_plantvillage
I0403 19:32:16.057798  9361 net.cpp:148] Top shape: 24 38 (912)
I0403 19:32:16.057813  9361 net.cpp:156] Memory required for data: 946192992
I0403 19:32:16.057832  9361 layer_factory.hpp:77] Creating layer loss1/classifier_plantvillage_loss1/classifier_plantvillage_0_split
I0403 19:32:16.057850  9361 net.cpp:91] Creating Layer loss1/classifier_plantvillage_loss1/classifier_plantvillage_0_split
I0403 19:32:16.057867  9361 net.cpp:425] loss1/classifier_plantvillage_loss1/classifier_plantvillage_0_split <- loss1/classifier_plantvillage
I0403 19:32:16.057884  9361 net.cpp:399] loss1/classifier_plantvillage_loss1/classifier_plantvillage_0_split -> loss1/classifier_plantvillage_loss1/classifier_plantvillage_0_split_0
I0403 19:32:16.057904  9361 net.cpp:399] loss1/classifier_plantvillage_loss1/classifier_plantvillage_0_split -> loss1/classifier_plantvillage_loss1/classifier_plantvillage_0_split_1
I0403 19:32:16.057929  9361 net.cpp:399] loss1/classifier_plantvillage_loss1/classifier_plantvillage_0_split -> loss1/classifier_plantvillage_loss1/classifier_plantvillage_0_split_2
I0403 19:32:16.057996  9361 net.cpp:141] Setting up loss1/classifier_plantvillage_loss1/classifier_plantvillage_0_split
I0403 19:32:16.058018  9361 net.cpp:148] Top shape: 24 38 (912)
I0403 19:32:16.058035  9361 net.cpp:148] Top shape: 24 38 (912)
I0403 19:32:16.058051  9361 net.cpp:148] Top shape: 24 38 (912)
I0403 19:32:16.058065  9361 net.cpp:156] Memory required for data: 946203936
I0403 19:32:16.058079  9361 layer_factory.hpp:77] Creating layer inception_4b/1x1
I0403 19:32:16.058100  9361 net.cpp:91] Creating Layer inception_4b/1x1
I0403 19:32:16.058142  9361 net.cpp:425] inception_4b/1x1 <- inception_4a/output_inception_4a/output_0_split_1
I0403 19:32:16.058164  9361 net.cpp:399] inception_4b/1x1 -> inception_4b/1x1
I0403 19:32:16.059844  9361 net.cpp:141] Setting up inception_4b/1x1
I0403 19:32:16.059871  9361 net.cpp:148] Top shape: 24 160 14 14 (752640)
I0403 19:32:16.059887  9361 net.cpp:156] Memory required for data: 949214496
I0403 19:32:16.059906  9361 layer_factory.hpp:77] Creating layer inception_4b/relu_1x1
I0403 19:32:16.059923  9361 net.cpp:91] Creating Layer inception_4b/relu_1x1
I0403 19:32:16.059939  9361 net.cpp:425] inception_4b/relu_1x1 <- inception_4b/1x1
I0403 19:32:16.059959  9361 net.cpp:386] inception_4b/relu_1x1 -> inception_4b/1x1 (in-place)
I0403 19:32:16.060139  9361 net.cpp:141] Setting up inception_4b/relu_1x1
I0403 19:32:16.060165  9361 net.cpp:148] Top shape: 24 160 14 14 (752640)
I0403 19:32:16.060179  9361 net.cpp:156] Memory required for data: 952225056
I0403 19:32:16.060194  9361 layer_factory.hpp:77] Creating layer inception_4b/3x3_reduce
I0403 19:32:16.060220  9361 net.cpp:91] Creating Layer inception_4b/3x3_reduce
I0403 19:32:16.060240  9361 net.cpp:425] inception_4b/3x3_reduce <- inception_4a/output_inception_4a/output_0_split_2
I0403 19:32:16.060263  9361 net.cpp:399] inception_4b/3x3_reduce -> inception_4b/3x3_reduce
I0403 19:32:16.061612  9361 net.cpp:141] Setting up inception_4b/3x3_reduce
I0403 19:32:16.061640  9361 net.cpp:148] Top shape: 24 112 14 14 (526848)
I0403 19:32:16.061657  9361 net.cpp:156] Memory required for data: 954332448
I0403 19:32:16.061676  9361 layer_factory.hpp:77] Creating layer inception_4b/relu_3x3_reduce
I0403 19:32:16.061697  9361 net.cpp:91] Creating Layer inception_4b/relu_3x3_reduce
I0403 19:32:16.061715  9361 net.cpp:425] inception_4b/relu_3x3_reduce <- inception_4b/3x3_reduce
I0403 19:32:16.061734  9361 net.cpp:386] inception_4b/relu_3x3_reduce -> inception_4b/3x3_reduce (in-place)
I0403 19:32:16.062011  9361 net.cpp:141] Setting up inception_4b/relu_3x3_reduce
I0403 19:32:16.062038  9361 net.cpp:148] Top shape: 24 112 14 14 (526848)
I0403 19:32:16.062054  9361 net.cpp:156] Memory required for data: 956439840
I0403 19:32:16.062069  9361 layer_factory.hpp:77] Creating layer inception_4b/3x3
I0403 19:32:16.062093  9361 net.cpp:91] Creating Layer inception_4b/3x3
I0403 19:32:16.062111  9361 net.cpp:425] inception_4b/3x3 <- inception_4b/3x3_reduce
I0403 19:32:16.062134  9361 net.cpp:399] inception_4b/3x3 -> inception_4b/3x3
I0403 19:32:16.065135  9361 net.cpp:141] Setting up inception_4b/3x3
I0403 19:32:16.065165  9361 net.cpp:148] Top shape: 24 224 14 14 (1053696)
I0403 19:32:16.065186  9361 net.cpp:156] Memory required for data: 960654624
I0403 19:32:16.065206  9361 layer_factory.hpp:77] Creating layer inception_4b/relu_3x3
I0403 19:32:16.065230  9361 net.cpp:91] Creating Layer inception_4b/relu_3x3
I0403 19:32:16.065248  9361 net.cpp:425] inception_4b/relu_3x3 <- inception_4b/3x3
I0403 19:32:16.065264  9361 net.cpp:386] inception_4b/relu_3x3 -> inception_4b/3x3 (in-place)
I0403 19:32:16.065445  9361 net.cpp:141] Setting up inception_4b/relu_3x3
I0403 19:32:16.065472  9361 net.cpp:148] Top shape: 24 224 14 14 (1053696)
I0403 19:32:16.065487  9361 net.cpp:156] Memory required for data: 964869408
I0403 19:32:16.065502  9361 layer_factory.hpp:77] Creating layer inception_4b/5x5_reduce
I0403 19:32:16.065524  9361 net.cpp:91] Creating Layer inception_4b/5x5_reduce
I0403 19:32:16.065542  9361 net.cpp:425] inception_4b/5x5_reduce <- inception_4a/output_inception_4a/output_0_split_3
I0403 19:32:16.065562  9361 net.cpp:399] inception_4b/5x5_reduce -> inception_4b/5x5_reduce
I0403 19:32:16.066681  9361 net.cpp:141] Setting up inception_4b/5x5_reduce
I0403 19:32:16.066710  9361 net.cpp:148] Top shape: 24 24 14 14 (112896)
I0403 19:32:16.066727  9361 net.cpp:156] Memory required for data: 965320992
I0403 19:32:16.066747  9361 layer_factory.hpp:77] Creating layer inception_4b/relu_5x5_reduce
I0403 19:32:16.066766  9361 net.cpp:91] Creating Layer inception_4b/relu_5x5_reduce
I0403 19:32:16.066798  9361 net.cpp:425] inception_4b/relu_5x5_reduce <- inception_4b/5x5_reduce
I0403 19:32:16.066817  9361 net.cpp:386] inception_4b/relu_5x5_reduce -> inception_4b/5x5_reduce (in-place)
I0403 19:32:16.066998  9361 net.cpp:141] Setting up inception_4b/relu_5x5_reduce
I0403 19:32:16.067023  9361 net.cpp:148] Top shape: 24 24 14 14 (112896)
I0403 19:32:16.067039  9361 net.cpp:156] Memory required for data: 965772576
I0403 19:32:16.067054  9361 layer_factory.hpp:77] Creating layer inception_4b/5x5
I0403 19:32:16.067075  9361 net.cpp:91] Creating Layer inception_4b/5x5
I0403 19:32:16.067116  9361 net.cpp:425] inception_4b/5x5 <- inception_4b/5x5_reduce
I0403 19:32:16.067144  9361 net.cpp:399] inception_4b/5x5 -> inception_4b/5x5
I0403 19:32:16.068383  9361 net.cpp:141] Setting up inception_4b/5x5
I0403 19:32:16.068413  9361 net.cpp:148] Top shape: 24 64 14 14 (301056)
I0403 19:32:16.068429  9361 net.cpp:156] Memory required for data: 966976800
I0403 19:32:16.068449  9361 layer_factory.hpp:77] Creating layer inception_4b/relu_5x5
I0403 19:32:16.068469  9361 net.cpp:91] Creating Layer inception_4b/relu_5x5
I0403 19:32:16.068485  9361 net.cpp:425] inception_4b/relu_5x5 <- inception_4b/5x5
I0403 19:32:16.068505  9361 net.cpp:386] inception_4b/relu_5x5 -> inception_4b/5x5 (in-place)
I0403 19:32:16.068786  9361 net.cpp:141] Setting up inception_4b/relu_5x5
I0403 19:32:16.068814  9361 net.cpp:148] Top shape: 24 64 14 14 (301056)
I0403 19:32:16.068828  9361 net.cpp:156] Memory required for data: 968181024
I0403 19:32:16.068842  9361 layer_factory.hpp:77] Creating layer inception_4b/pool
I0403 19:32:16.068861  9361 net.cpp:91] Creating Layer inception_4b/pool
I0403 19:32:16.068877  9361 net.cpp:425] inception_4b/pool <- inception_4a/output_inception_4a/output_0_split_4
I0403 19:32:16.068897  9361 net.cpp:399] inception_4b/pool -> inception_4b/pool
I0403 19:32:16.068964  9361 net.cpp:141] Setting up inception_4b/pool
I0403 19:32:16.068987  9361 net.cpp:148] Top shape: 24 512 14 14 (2408448)
I0403 19:32:16.069001  9361 net.cpp:156] Memory required for data: 977814816
I0403 19:32:16.069015  9361 layer_factory.hpp:77] Creating layer inception_4b/pool_proj
I0403 19:32:16.069039  9361 net.cpp:91] Creating Layer inception_4b/pool_proj
I0403 19:32:16.069056  9361 net.cpp:425] inception_4b/pool_proj <- inception_4b/pool
I0403 19:32:16.069075  9361 net.cpp:399] inception_4b/pool_proj -> inception_4b/pool_proj
I0403 19:32:16.070287  9361 net.cpp:141] Setting up inception_4b/pool_proj
I0403 19:32:16.070317  9361 net.cpp:148] Top shape: 24 64 14 14 (301056)
I0403 19:32:16.070333  9361 net.cpp:156] Memory required for data: 979019040
I0403 19:32:16.070351  9361 layer_factory.hpp:77] Creating layer inception_4b/relu_pool_proj
I0403 19:32:16.070370  9361 net.cpp:91] Creating Layer inception_4b/relu_pool_proj
I0403 19:32:16.070386  9361 net.cpp:425] inception_4b/relu_pool_proj <- inception_4b/pool_proj
I0403 19:32:16.070407  9361 net.cpp:386] inception_4b/relu_pool_proj -> inception_4b/pool_proj (in-place)
I0403 19:32:16.070590  9361 net.cpp:141] Setting up inception_4b/relu_pool_proj
I0403 19:32:16.070616  9361 net.cpp:148] Top shape: 24 64 14 14 (301056)
I0403 19:32:16.070631  9361 net.cpp:156] Memory required for data: 980223264
I0403 19:32:16.070644  9361 layer_factory.hpp:77] Creating layer inception_4b/output
I0403 19:32:16.070664  9361 net.cpp:91] Creating Layer inception_4b/output
I0403 19:32:16.070682  9361 net.cpp:425] inception_4b/output <- inception_4b/1x1
I0403 19:32:16.070698  9361 net.cpp:425] inception_4b/output <- inception_4b/3x3
I0403 19:32:16.070714  9361 net.cpp:425] inception_4b/output <- inception_4b/5x5
I0403 19:32:16.070729  9361 net.cpp:425] inception_4b/output <- inception_4b/pool_proj
I0403 19:32:16.070746  9361 net.cpp:399] inception_4b/output -> inception_4b/output
I0403 19:32:16.070794  9361 net.cpp:141] Setting up inception_4b/output
I0403 19:32:16.070817  9361 net.cpp:148] Top shape: 24 512 14 14 (2408448)
I0403 19:32:16.070832  9361 net.cpp:156] Memory required for data: 989857056
I0403 19:32:16.070861  9361 layer_factory.hpp:77] Creating layer inception_4b/output_inception_4b/output_0_split
I0403 19:32:16.070879  9361 net.cpp:91] Creating Layer inception_4b/output_inception_4b/output_0_split
I0403 19:32:16.070895  9361 net.cpp:425] inception_4b/output_inception_4b/output_0_split <- inception_4b/output
I0403 19:32:16.070915  9361 net.cpp:399] inception_4b/output_inception_4b/output_0_split -> inception_4b/output_inception_4b/output_0_split_0
I0403 19:32:16.070936  9361 net.cpp:399] inception_4b/output_inception_4b/output_0_split -> inception_4b/output_inception_4b/output_0_split_1
I0403 19:32:16.070957  9361 net.cpp:399] inception_4b/output_inception_4b/output_0_split -> inception_4b/output_inception_4b/output_0_split_2
I0403 19:32:16.070977  9361 net.cpp:399] inception_4b/output_inception_4b/output_0_split -> inception_4b/output_inception_4b/output_0_split_3
I0403 19:32:16.071064  9361 net.cpp:141] Setting up inception_4b/output_inception_4b/output_0_split
I0403 19:32:16.071089  9361 net.cpp:148] Top shape: 24 512 14 14 (2408448)
I0403 19:32:16.071106  9361 net.cpp:148] Top shape: 24 512 14 14 (2408448)
I0403 19:32:16.071122  9361 net.cpp:148] Top shape: 24 512 14 14 (2408448)
I0403 19:32:16.071137  9361 net.cpp:148] Top shape: 24 512 14 14 (2408448)
I0403 19:32:16.071151  9361 net.cpp:156] Memory required for data: 1028392224
I0403 19:32:16.071166  9361 layer_factory.hpp:77] Creating layer inception_4c/1x1
I0403 19:32:16.071189  9361 net.cpp:91] Creating Layer inception_4c/1x1
I0403 19:32:16.071207  9361 net.cpp:425] inception_4c/1x1 <- inception_4b/output_inception_4b/output_0_split_0
I0403 19:32:16.071233  9361 net.cpp:399] inception_4c/1x1 -> inception_4c/1x1
I0403 19:32:16.072690  9361 net.cpp:141] Setting up inception_4c/1x1
I0403 19:32:16.072732  9361 net.cpp:148] Top shape: 24 128 14 14 (602112)
I0403 19:32:16.072748  9361 net.cpp:156] Memory required for data: 1030800672
I0403 19:32:16.072767  9361 layer_factory.hpp:77] Creating layer inception_4c/relu_1x1
I0403 19:32:16.072788  9361 net.cpp:91] Creating Layer inception_4c/relu_1x1
I0403 19:32:16.072806  9361 net.cpp:425] inception_4c/relu_1x1 <- inception_4c/1x1
I0403 19:32:16.072824  9361 net.cpp:386] inception_4c/relu_1x1 -> inception_4c/1x1 (in-place)
I0403 19:32:16.073024  9361 net.cpp:141] Setting up inception_4c/relu_1x1
I0403 19:32:16.073051  9361 net.cpp:148] Top shape: 24 128 14 14 (602112)
I0403 19:32:16.073066  9361 net.cpp:156] Memory required for data: 1033209120
I0403 19:32:16.073082  9361 layer_factory.hpp:77] Creating layer inception_4c/3x3_reduce
I0403 19:32:16.073106  9361 net.cpp:91] Creating Layer inception_4c/3x3_reduce
I0403 19:32:16.073123  9361 net.cpp:425] inception_4c/3x3_reduce <- inception_4b/output_inception_4b/output_0_split_1
I0403 19:32:16.073143  9361 net.cpp:399] inception_4c/3x3_reduce -> inception_4c/3x3_reduce
I0403 19:32:16.075121  9361 net.cpp:141] Setting up inception_4c/3x3_reduce
I0403 19:32:16.075155  9361 net.cpp:148] Top shape: 24 128 14 14 (602112)
I0403 19:32:16.075171  9361 net.cpp:156] Memory required for data: 1035617568
I0403 19:32:16.075192  9361 layer_factory.hpp:77] Creating layer inception_4c/relu_3x3_reduce
I0403 19:32:16.075218  9361 net.cpp:91] Creating Layer inception_4c/relu_3x3_reduce
I0403 19:32:16.075237  9361 net.cpp:425] inception_4c/relu_3x3_reduce <- inception_4c/3x3_reduce
I0403 19:32:16.075258  9361 net.cpp:386] inception_4c/relu_3x3_reduce -> inception_4c/3x3_reduce (in-place)
I0403 19:32:16.075543  9361 net.cpp:141] Setting up inception_4c/relu_3x3_reduce
I0403 19:32:16.075572  9361 net.cpp:148] Top shape: 24 128 14 14 (602112)
I0403 19:32:16.075587  9361 net.cpp:156] Memory required for data: 1038026016
I0403 19:32:16.075603  9361 layer_factory.hpp:77] Creating layer inception_4c/3x3
I0403 19:32:16.075626  9361 net.cpp:91] Creating Layer inception_4c/3x3
I0403 19:32:16.075644  9361 net.cpp:425] inception_4c/3x3 <- inception_4c/3x3_reduce
I0403 19:32:16.075662  9361 net.cpp:399] inception_4c/3x3 -> inception_4c/3x3
I0403 19:32:16.079287  9361 net.cpp:141] Setting up inception_4c/3x3
I0403 19:32:16.079329  9361 net.cpp:148] Top shape: 24 256 14 14 (1204224)
I0403 19:32:16.079345  9361 net.cpp:156] Memory required for data: 1042842912
I0403 19:32:16.079377  9361 layer_factory.hpp:77] Creating layer inception_4c/relu_3x3
I0403 19:32:16.079398  9361 net.cpp:91] Creating Layer inception_4c/relu_3x3
I0403 19:32:16.079413  9361 net.cpp:425] inception_4c/relu_3x3 <- inception_4c/3x3
I0403 19:32:16.079437  9361 net.cpp:386] inception_4c/relu_3x3 -> inception_4c/3x3 (in-place)
I0403 19:32:16.079614  9361 net.cpp:141] Setting up inception_4c/relu_3x3
I0403 19:32:16.079639  9361 net.cpp:148] Top shape: 24 256 14 14 (1204224)
I0403 19:32:16.079653  9361 net.cpp:156] Memory required for data: 1047659808
I0403 19:32:16.079668  9361 layer_factory.hpp:77] Creating layer inception_4c/5x5_reduce
I0403 19:32:16.079690  9361 net.cpp:91] Creating Layer inception_4c/5x5_reduce
I0403 19:32:16.079709  9361 net.cpp:425] inception_4c/5x5_reduce <- inception_4b/output_inception_4b/output_0_split_2
I0403 19:32:16.079730  9361 net.cpp:399] inception_4c/5x5_reduce -> inception_4c/5x5_reduce
I0403 19:32:16.080795  9361 net.cpp:141] Setting up inception_4c/5x5_reduce
I0403 19:32:16.080823  9361 net.cpp:148] Top shape: 24 24 14 14 (112896)
I0403 19:32:16.080839  9361 net.cpp:156] Memory required for data: 1048111392
I0403 19:32:16.080857  9361 layer_factory.hpp:77] Creating layer inception_4c/relu_5x5_reduce
I0403 19:32:16.080875  9361 net.cpp:91] Creating Layer inception_4c/relu_5x5_reduce
I0403 19:32:16.080890  9361 net.cpp:425] inception_4c/relu_5x5_reduce <- inception_4c/5x5_reduce
I0403 19:32:16.080909  9361 net.cpp:386] inception_4c/relu_5x5_reduce -> inception_4c/5x5_reduce (in-place)
I0403 19:32:16.081089  9361 net.cpp:141] Setting up inception_4c/relu_5x5_reduce
I0403 19:32:16.081112  9361 net.cpp:148] Top shape: 24 24 14 14 (112896)
I0403 19:32:16.081126  9361 net.cpp:156] Memory required for data: 1048562976
I0403 19:32:16.081140  9361 layer_factory.hpp:77] Creating layer inception_4c/5x5
I0403 19:32:16.081162  9361 net.cpp:91] Creating Layer inception_4c/5x5
I0403 19:32:16.081181  9361 net.cpp:425] inception_4c/5x5 <- inception_4c/5x5_reduce
I0403 19:32:16.081200  9361 net.cpp:399] inception_4c/5x5 -> inception_4c/5x5
I0403 19:32:16.082468  9361 net.cpp:141] Setting up inception_4c/5x5
I0403 19:32:16.082494  9361 net.cpp:148] Top shape: 24 64 14 14 (301056)
I0403 19:32:16.082509  9361 net.cpp:156] Memory required for data: 1049767200
I0403 19:32:16.082526  9361 layer_factory.hpp:77] Creating layer inception_4c/relu_5x5
I0403 19:32:16.082546  9361 net.cpp:91] Creating Layer inception_4c/relu_5x5
I0403 19:32:16.082563  9361 net.cpp:425] inception_4c/relu_5x5 <- inception_4c/5x5
I0403 19:32:16.082581  9361 net.cpp:386] inception_4c/relu_5x5 -> inception_4c/5x5 (in-place)
I0403 19:32:16.082864  9361 net.cpp:141] Setting up inception_4c/relu_5x5
I0403 19:32:16.082890  9361 net.cpp:148] Top shape: 24 64 14 14 (301056)
I0403 19:32:16.082904  9361 net.cpp:156] Memory required for data: 1050971424
I0403 19:32:16.082918  9361 layer_factory.hpp:77] Creating layer inception_4c/pool
I0403 19:32:16.082937  9361 net.cpp:91] Creating Layer inception_4c/pool
I0403 19:32:16.082954  9361 net.cpp:425] inception_4c/pool <- inception_4b/output_inception_4b/output_0_split_3
I0403 19:32:16.082973  9361 net.cpp:399] inception_4c/pool -> inception_4c/pool
I0403 19:32:16.083036  9361 net.cpp:141] Setting up inception_4c/pool
I0403 19:32:16.083060  9361 net.cpp:148] Top shape: 24 512 14 14 (2408448)
I0403 19:32:16.083075  9361 net.cpp:156] Memory required for data: 1060605216
I0403 19:32:16.083087  9361 layer_factory.hpp:77] Creating layer inception_4c/pool_proj
I0403 19:32:16.083109  9361 net.cpp:91] Creating Layer inception_4c/pool_proj
I0403 19:32:16.083127  9361 net.cpp:425] inception_4c/pool_proj <- inception_4c/pool
I0403 19:32:16.083147  9361 net.cpp:399] inception_4c/pool_proj -> inception_4c/pool_proj
I0403 19:32:16.084347  9361 net.cpp:141] Setting up inception_4c/pool_proj
I0403 19:32:16.084374  9361 net.cpp:148] Top shape: 24 64 14 14 (301056)
I0403 19:32:16.084403  9361 net.cpp:156] Memory required for data: 1061809440
I0403 19:32:16.084422  9361 layer_factory.hpp:77] Creating layer inception_4c/relu_pool_proj
I0403 19:32:16.084440  9361 net.cpp:91] Creating Layer inception_4c/relu_pool_proj
I0403 19:32:16.084460  9361 net.cpp:425] inception_4c/relu_pool_proj <- inception_4c/pool_proj
I0403 19:32:16.084478  9361 net.cpp:386] inception_4c/relu_pool_proj -> inception_4c/pool_proj (in-place)
I0403 19:32:16.084656  9361 net.cpp:141] Setting up inception_4c/relu_pool_proj
I0403 19:32:16.084681  9361 net.cpp:148] Top shape: 24 64 14 14 (301056)
I0403 19:32:16.084695  9361 net.cpp:156] Memory required for data: 1063013664
I0403 19:32:16.084709  9361 layer_factory.hpp:77] Creating layer inception_4c/output
I0403 19:32:16.084728  9361 net.cpp:91] Creating Layer inception_4c/output
I0403 19:32:16.084743  9361 net.cpp:425] inception_4c/output <- inception_4c/1x1
I0403 19:32:16.084759  9361 net.cpp:425] inception_4c/output <- inception_4c/3x3
I0403 19:32:16.084775  9361 net.cpp:425] inception_4c/output <- inception_4c/5x5
I0403 19:32:16.084790  9361 net.cpp:425] inception_4c/output <- inception_4c/pool_proj
I0403 19:32:16.084805  9361 net.cpp:399] inception_4c/output -> inception_4c/output
I0403 19:32:16.084852  9361 net.cpp:141] Setting up inception_4c/output
I0403 19:32:16.084875  9361 net.cpp:148] Top shape: 24 512 14 14 (2408448)
I0403 19:32:16.084889  9361 net.cpp:156] Memory required for data: 1072647456
I0403 19:32:16.084903  9361 layer_factory.hpp:77] Creating layer inception_4c/output_inception_4c/output_0_split
I0403 19:32:16.084920  9361 net.cpp:91] Creating Layer inception_4c/output_inception_4c/output_0_split
I0403 19:32:16.084935  9361 net.cpp:425] inception_4c/output_inception_4c/output_0_split <- inception_4c/output
I0403 19:32:16.084954  9361 net.cpp:399] inception_4c/output_inception_4c/output_0_split -> inception_4c/output_inception_4c/output_0_split_0
I0403 19:32:16.084972  9361 net.cpp:399] inception_4c/output_inception_4c/output_0_split -> inception_4c/output_inception_4c/output_0_split_1
I0403 19:32:16.084992  9361 net.cpp:399] inception_4c/output_inception_4c/output_0_split -> inception_4c/output_inception_4c/output_0_split_2
I0403 19:32:16.085011  9361 net.cpp:399] inception_4c/output_inception_4c/output_0_split -> inception_4c/output_inception_4c/output_0_split_3
I0403 19:32:16.085094  9361 net.cpp:141] Setting up inception_4c/output_inception_4c/output_0_split
I0403 19:32:16.085119  9361 net.cpp:148] Top shape: 24 512 14 14 (2408448)
I0403 19:32:16.085135  9361 net.cpp:148] Top shape: 24 512 14 14 (2408448)
I0403 19:32:16.085150  9361 net.cpp:148] Top shape: 24 512 14 14 (2408448)
I0403 19:32:16.085165  9361 net.cpp:148] Top shape: 24 512 14 14 (2408448)
I0403 19:32:16.085180  9361 net.cpp:156] Memory required for data: 1111182624
I0403 19:32:16.085193  9361 layer_factory.hpp:77] Creating layer inception_4d/1x1
I0403 19:32:16.085219  9361 net.cpp:91] Creating Layer inception_4d/1x1
I0403 19:32:16.085237  9361 net.cpp:425] inception_4d/1x1 <- inception_4c/output_inception_4c/output_0_split_0
I0403 19:32:16.085255  9361 net.cpp:399] inception_4d/1x1 -> inception_4d/1x1
I0403 19:32:16.086603  9361 net.cpp:141] Setting up inception_4d/1x1
I0403 19:32:16.086634  9361 net.cpp:148] Top shape: 24 112 14 14 (526848)
I0403 19:32:16.086650  9361 net.cpp:156] Memory required for data: 1113290016
I0403 19:32:16.086670  9361 layer_factory.hpp:77] Creating layer inception_4d/relu_1x1
I0403 19:32:16.086688  9361 net.cpp:91] Creating Layer inception_4d/relu_1x1
I0403 19:32:16.086704  9361 net.cpp:425] inception_4d/relu_1x1 <- inception_4d/1x1
I0403 19:32:16.086720  9361 net.cpp:386] inception_4d/relu_1x1 -> inception_4d/1x1 (in-place)
I0403 19:32:16.086906  9361 net.cpp:141] Setting up inception_4d/relu_1x1
I0403 19:32:16.086930  9361 net.cpp:148] Top shape: 24 112 14 14 (526848)
I0403 19:32:16.086944  9361 net.cpp:156] Memory required for data: 1115397408
I0403 19:32:16.086959  9361 layer_factory.hpp:77] Creating layer inception_4d/3x3_reduce
I0403 19:32:16.086993  9361 net.cpp:91] Creating Layer inception_4d/3x3_reduce
I0403 19:32:16.087013  9361 net.cpp:425] inception_4d/3x3_reduce <- inception_4c/output_inception_4c/output_0_split_1
I0403 19:32:16.087033  9361 net.cpp:399] inception_4d/3x3_reduce -> inception_4d/3x3_reduce
I0403 19:32:16.088559  9361 net.cpp:141] Setting up inception_4d/3x3_reduce
I0403 19:32:16.088588  9361 net.cpp:148] Top shape: 24 144 14 14 (677376)
I0403 19:32:16.088605  9361 net.cpp:156] Memory required for data: 1118106912
I0403 19:32:16.088624  9361 layer_factory.hpp:77] Creating layer inception_4d/relu_3x3_reduce
I0403 19:32:16.088645  9361 net.cpp:91] Creating Layer inception_4d/relu_3x3_reduce
I0403 19:32:16.088662  9361 net.cpp:425] inception_4d/relu_3x3_reduce <- inception_4d/3x3_reduce
I0403 19:32:16.088680  9361 net.cpp:386] inception_4d/relu_3x3_reduce -> inception_4d/3x3_reduce (in-place)
I0403 19:32:16.088968  9361 net.cpp:141] Setting up inception_4d/relu_3x3_reduce
I0403 19:32:16.088996  9361 net.cpp:148] Top shape: 24 144 14 14 (677376)
I0403 19:32:16.089012  9361 net.cpp:156] Memory required for data: 1120816416
I0403 19:32:16.089028  9361 layer_factory.hpp:77] Creating layer inception_4d/3x3
I0403 19:32:16.089051  9361 net.cpp:91] Creating Layer inception_4d/3x3
I0403 19:32:16.089069  9361 net.cpp:425] inception_4d/3x3 <- inception_4d/3x3_reduce
I0403 19:32:16.089092  9361 net.cpp:399] inception_4d/3x3 -> inception_4d/3x3
I0403 19:32:16.093302  9361 net.cpp:141] Setting up inception_4d/3x3
I0403 19:32:16.093334  9361 net.cpp:148] Top shape: 24 288 14 14 (1354752)
I0403 19:32:16.093351  9361 net.cpp:156] Memory required for data: 1126235424
I0403 19:32:16.093369  9361 layer_factory.hpp:77] Creating layer inception_4d/relu_3x3
I0403 19:32:16.093389  9361 net.cpp:91] Creating Layer inception_4d/relu_3x3
I0403 19:32:16.093403  9361 net.cpp:425] inception_4d/relu_3x3 <- inception_4d/3x3
I0403 19:32:16.093422  9361 net.cpp:386] inception_4d/relu_3x3 -> inception_4d/3x3 (in-place)
I0403 19:32:16.093601  9361 net.cpp:141] Setting up inception_4d/relu_3x3
I0403 19:32:16.093626  9361 net.cpp:148] Top shape: 24 288 14 14 (1354752)
I0403 19:32:16.093641  9361 net.cpp:156] Memory required for data: 1131654432
I0403 19:32:16.093654  9361 layer_factory.hpp:77] Creating layer inception_4d/5x5_reduce
I0403 19:32:16.093675  9361 net.cpp:91] Creating Layer inception_4d/5x5_reduce
I0403 19:32:16.093693  9361 net.cpp:425] inception_4d/5x5_reduce <- inception_4c/output_inception_4c/output_0_split_2
I0403 19:32:16.093713  9361 net.cpp:399] inception_4d/5x5_reduce -> inception_4d/5x5_reduce
I0403 19:32:16.094861  9361 net.cpp:141] Setting up inception_4d/5x5_reduce
I0403 19:32:16.094894  9361 net.cpp:148] Top shape: 24 32 14 14 (150528)
I0403 19:32:16.094910  9361 net.cpp:156] Memory required for data: 1132256544
I0403 19:32:16.094929  9361 layer_factory.hpp:77] Creating layer inception_4d/relu_5x5_reduce
I0403 19:32:16.094947  9361 net.cpp:91] Creating Layer inception_4d/relu_5x5_reduce
I0403 19:32:16.094964  9361 net.cpp:425] inception_4d/relu_5x5_reduce <- inception_4d/5x5_reduce
I0403 19:32:16.094980  9361 net.cpp:386] inception_4d/relu_5x5_reduce -> inception_4d/5x5_reduce (in-place)
I0403 19:32:16.095163  9361 net.cpp:141] Setting up inception_4d/relu_5x5_reduce
I0403 19:32:16.095187  9361 net.cpp:148] Top shape: 24 32 14 14 (150528)
I0403 19:32:16.095201  9361 net.cpp:156] Memory required for data: 1132858656
I0403 19:32:16.095222  9361 layer_factory.hpp:77] Creating layer inception_4d/5x5
I0403 19:32:16.095245  9361 net.cpp:91] Creating Layer inception_4d/5x5
I0403 19:32:16.095263  9361 net.cpp:425] inception_4d/5x5 <- inception_4d/5x5_reduce
I0403 19:32:16.095283  9361 net.cpp:399] inception_4d/5x5 -> inception_4d/5x5
I0403 19:32:16.096711  9361 net.cpp:141] Setting up inception_4d/5x5
I0403 19:32:16.096740  9361 net.cpp:148] Top shape: 24 64 14 14 (301056)
I0403 19:32:16.096755  9361 net.cpp:156] Memory required for data: 1134062880
I0403 19:32:16.096776  9361 layer_factory.hpp:77] Creating layer inception_4d/relu_5x5
I0403 19:32:16.096809  9361 net.cpp:91] Creating Layer inception_4d/relu_5x5
I0403 19:32:16.096827  9361 net.cpp:425] inception_4d/relu_5x5 <- inception_4d/5x5
I0403 19:32:16.096846  9361 net.cpp:386] inception_4d/relu_5x5 -> inception_4d/5x5 (in-place)
I0403 19:32:16.097136  9361 net.cpp:141] Setting up inception_4d/relu_5x5
I0403 19:32:16.097162  9361 net.cpp:148] Top shape: 24 64 14 14 (301056)
I0403 19:32:16.097177  9361 net.cpp:156] Memory required for data: 1135267104
I0403 19:32:16.097192  9361 layer_factory.hpp:77] Creating layer inception_4d/pool
I0403 19:32:16.097213  9361 net.cpp:91] Creating Layer inception_4d/pool
I0403 19:32:16.097234  9361 net.cpp:425] inception_4d/pool <- inception_4c/output_inception_4c/output_0_split_3
I0403 19:32:16.097252  9361 net.cpp:399] inception_4d/pool -> inception_4d/pool
I0403 19:32:16.097318  9361 net.cpp:141] Setting up inception_4d/pool
I0403 19:32:16.097342  9361 net.cpp:148] Top shape: 24 512 14 14 (2408448)
I0403 19:32:16.097355  9361 net.cpp:156] Memory required for data: 1144900896
I0403 19:32:16.097370  9361 layer_factory.hpp:77] Creating layer inception_4d/pool_proj
I0403 19:32:16.097395  9361 net.cpp:91] Creating Layer inception_4d/pool_proj
I0403 19:32:16.097412  9361 net.cpp:425] inception_4d/pool_proj <- inception_4d/pool
I0403 19:32:16.097432  9361 net.cpp:399] inception_4d/pool_proj -> inception_4d/pool_proj
I0403 19:32:16.099189  9361 net.cpp:141] Setting up inception_4d/pool_proj
I0403 19:32:16.099226  9361 net.cpp:148] Top shape: 24 64 14 14 (301056)
I0403 19:32:16.099243  9361 net.cpp:156] Memory required for data: 1146105120
I0403 19:32:16.099261  9361 layer_factory.hpp:77] Creating layer inception_4d/relu_pool_proj
I0403 19:32:16.099278  9361 net.cpp:91] Creating Layer inception_4d/relu_pool_proj
I0403 19:32:16.099294  9361 net.cpp:425] inception_4d/relu_pool_proj <- inception_4d/pool_proj
I0403 19:32:16.099313  9361 net.cpp:386] inception_4d/relu_pool_proj -> inception_4d/pool_proj (in-place)
I0403 19:32:16.099491  9361 net.cpp:141] Setting up inception_4d/relu_pool_proj
I0403 19:32:16.099515  9361 net.cpp:148] Top shape: 24 64 14 14 (301056)
I0403 19:32:16.099529  9361 net.cpp:156] Memory required for data: 1147309344
I0403 19:32:16.099545  9361 layer_factory.hpp:77] Creating layer inception_4d/output
I0403 19:32:16.099561  9361 net.cpp:91] Creating Layer inception_4d/output
I0403 19:32:16.099576  9361 net.cpp:425] inception_4d/output <- inception_4d/1x1
I0403 19:32:16.099591  9361 net.cpp:425] inception_4d/output <- inception_4d/3x3
I0403 19:32:16.099607  9361 net.cpp:425] inception_4d/output <- inception_4d/5x5
I0403 19:32:16.099622  9361 net.cpp:425] inception_4d/output <- inception_4d/pool_proj
I0403 19:32:16.099640  9361 net.cpp:399] inception_4d/output -> inception_4d/output
I0403 19:32:16.099686  9361 net.cpp:141] Setting up inception_4d/output
I0403 19:32:16.099711  9361 net.cpp:148] Top shape: 24 528 14 14 (2483712)
I0403 19:32:16.099726  9361 net.cpp:156] Memory required for data: 1157244192
I0403 19:32:16.099740  9361 layer_factory.hpp:77] Creating layer inception_4d/output_inception_4d/output_0_split
I0403 19:32:16.099757  9361 net.cpp:91] Creating Layer inception_4d/output_inception_4d/output_0_split
I0403 19:32:16.099772  9361 net.cpp:425] inception_4d/output_inception_4d/output_0_split <- inception_4d/output
I0403 19:32:16.099792  9361 net.cpp:399] inception_4d/output_inception_4d/output_0_split -> inception_4d/output_inception_4d/output_0_split_0
I0403 19:32:16.099812  9361 net.cpp:399] inception_4d/output_inception_4d/output_0_split -> inception_4d/output_inception_4d/output_0_split_1
I0403 19:32:16.099831  9361 net.cpp:399] inception_4d/output_inception_4d/output_0_split -> inception_4d/output_inception_4d/output_0_split_2
I0403 19:32:16.099851  9361 net.cpp:399] inception_4d/output_inception_4d/output_0_split -> inception_4d/output_inception_4d/output_0_split_3
I0403 19:32:16.099870  9361 net.cpp:399] inception_4d/output_inception_4d/output_0_split -> inception_4d/output_inception_4d/output_0_split_4
I0403 19:32:16.099972  9361 net.cpp:141] Setting up inception_4d/output_inception_4d/output_0_split
I0403 19:32:16.100009  9361 net.cpp:148] Top shape: 24 528 14 14 (2483712)
I0403 19:32:16.100028  9361 net.cpp:148] Top shape: 24 528 14 14 (2483712)
I0403 19:32:16.100042  9361 net.cpp:148] Top shape: 24 528 14 14 (2483712)
I0403 19:32:16.100057  9361 net.cpp:148] Top shape: 24 528 14 14 (2483712)
I0403 19:32:16.100072  9361 net.cpp:148] Top shape: 24 528 14 14 (2483712)
I0403 19:32:16.100085  9361 net.cpp:156] Memory required for data: 1206918432
I0403 19:32:16.100100  9361 layer_factory.hpp:77] Creating layer loss2/ave_pool
I0403 19:32:16.100116  9361 net.cpp:91] Creating Layer loss2/ave_pool
I0403 19:32:16.100131  9361 net.cpp:425] loss2/ave_pool <- inception_4d/output_inception_4d/output_0_split_0
I0403 19:32:16.100149  9361 net.cpp:399] loss2/ave_pool -> loss2/ave_pool
I0403 19:32:16.100461  9361 net.cpp:141] Setting up loss2/ave_pool
I0403 19:32:16.100488  9361 net.cpp:148] Top shape: 24 528 4 4 (202752)
I0403 19:32:16.100503  9361 net.cpp:156] Memory required for data: 1207729440
I0403 19:32:16.100518  9361 layer_factory.hpp:77] Creating layer loss2/conv
I0403 19:32:16.100539  9361 net.cpp:91] Creating Layer loss2/conv
I0403 19:32:16.100558  9361 net.cpp:425] loss2/conv <- loss2/ave_pool
I0403 19:32:16.100575  9361 net.cpp:399] loss2/conv -> loss2/conv
I0403 19:32:16.102448  9361 net.cpp:141] Setting up loss2/conv
I0403 19:32:16.102478  9361 net.cpp:148] Top shape: 24 128 4 4 (49152)
I0403 19:32:16.102494  9361 net.cpp:156] Memory required for data: 1207926048
I0403 19:32:16.102511  9361 layer_factory.hpp:77] Creating layer loss2/relu_conv
I0403 19:32:16.102531  9361 net.cpp:91] Creating Layer loss2/relu_conv
I0403 19:32:16.102548  9361 net.cpp:425] loss2/relu_conv <- loss2/conv
I0403 19:32:16.102566  9361 net.cpp:386] loss2/relu_conv -> loss2/conv (in-place)
I0403 19:32:16.102849  9361 net.cpp:141] Setting up loss2/relu_conv
I0403 19:32:16.102875  9361 net.cpp:148] Top shape: 24 128 4 4 (49152)
I0403 19:32:16.102890  9361 net.cpp:156] Memory required for data: 1208122656
I0403 19:32:16.102905  9361 layer_factory.hpp:77] Creating layer loss2/fc
I0403 19:32:16.102926  9361 net.cpp:91] Creating Layer loss2/fc
I0403 19:32:16.102944  9361 net.cpp:425] loss2/fc <- loss2/conv
I0403 19:32:16.102962  9361 net.cpp:399] loss2/fc -> loss2/fc
I0403 19:32:16.120302  9361 net.cpp:141] Setting up loss2/fc
I0403 19:32:16.120338  9361 net.cpp:148] Top shape: 24 1024 (24576)
I0403 19:32:16.120354  9361 net.cpp:156] Memory required for data: 1208220960
I0403 19:32:16.120373  9361 layer_factory.hpp:77] Creating layer loss2/relu_fc
I0403 19:32:16.120391  9361 net.cpp:91] Creating Layer loss2/relu_fc
I0403 19:32:16.120407  9361 net.cpp:425] loss2/relu_fc <- loss2/fc
I0403 19:32:16.120427  9361 net.cpp:386] loss2/relu_fc -> loss2/fc (in-place)
I0403 19:32:16.120718  9361 net.cpp:141] Setting up loss2/relu_fc
I0403 19:32:16.120743  9361 net.cpp:148] Top shape: 24 1024 (24576)
I0403 19:32:16.120759  9361 net.cpp:156] Memory required for data: 1208319264
I0403 19:32:16.120774  9361 layer_factory.hpp:77] Creating layer loss2/drop_fc
I0403 19:32:16.120790  9361 net.cpp:91] Creating Layer loss2/drop_fc
I0403 19:32:16.120805  9361 net.cpp:425] loss2/drop_fc <- loss2/fc
I0403 19:32:16.120825  9361 net.cpp:386] loss2/drop_fc -> loss2/fc (in-place)
I0403 19:32:16.120872  9361 net.cpp:141] Setting up loss2/drop_fc
I0403 19:32:16.120894  9361 net.cpp:148] Top shape: 24 1024 (24576)
I0403 19:32:16.120908  9361 net.cpp:156] Memory required for data: 1208417568
I0403 19:32:16.120923  9361 layer_factory.hpp:77] Creating layer loss2/classifier_plantvillage
I0403 19:32:16.120944  9361 net.cpp:91] Creating Layer loss2/classifier_plantvillage
I0403 19:32:16.120959  9361 net.cpp:425] loss2/classifier_plantvillage <- loss2/fc
I0403 19:32:16.120980  9361 net.cpp:399] loss2/classifier_plantvillage -> loss2/classifier_plantvillage
I0403 19:32:16.121382  9361 net.cpp:141] Setting up loss2/classifier_plantvillage
I0403 19:32:16.121407  9361 net.cpp:148] Top shape: 24 38 (912)
I0403 19:32:16.121438  9361 net.cpp:156] Memory required for data: 1208421216
I0403 19:32:16.121456  9361 layer_factory.hpp:77] Creating layer loss2/classifier_plantvillage_loss2/classifier_plantvillage_0_split
I0403 19:32:16.121474  9361 net.cpp:91] Creating Layer loss2/classifier_plantvillage_loss2/classifier_plantvillage_0_split
I0403 19:32:16.121490  9361 net.cpp:425] loss2/classifier_plantvillage_loss2/classifier_plantvillage_0_split <- loss2/classifier_plantvillage
I0403 19:32:16.121508  9361 net.cpp:399] loss2/classifier_plantvillage_loss2/classifier_plantvillage_0_split -> loss2/classifier_plantvillage_loss2/classifier_plantvillage_0_split_0
I0403 19:32:16.121529  9361 net.cpp:399] loss2/classifier_plantvillage_loss2/classifier_plantvillage_0_split -> loss2/classifier_plantvillage_loss2/classifier_plantvillage_0_split_1
I0403 19:32:16.121548  9361 net.cpp:399] loss2/classifier_plantvillage_loss2/classifier_plantvillage_0_split -> loss2/classifier_plantvillage_loss2/classifier_plantvillage_0_split_2
I0403 19:32:16.121626  9361 net.cpp:141] Setting up loss2/classifier_plantvillage_loss2/classifier_plantvillage_0_split
I0403 19:32:16.121649  9361 net.cpp:148] Top shape: 24 38 (912)
I0403 19:32:16.121665  9361 net.cpp:148] Top shape: 24 38 (912)
I0403 19:32:16.121680  9361 net.cpp:148] Top shape: 24 38 (912)
I0403 19:32:16.121692  9361 net.cpp:156] Memory required for data: 1208432160
I0403 19:32:16.121707  9361 layer_factory.hpp:77] Creating layer inception_4e/1x1
I0403 19:32:16.121728  9361 net.cpp:91] Creating Layer inception_4e/1x1
I0403 19:32:16.121745  9361 net.cpp:425] inception_4e/1x1 <- inception_4d/output_inception_4d/output_0_split_1
I0403 19:32:16.121764  9361 net.cpp:399] inception_4e/1x1 -> inception_4e/1x1
I0403 19:32:16.123543  9361 net.cpp:141] Setting up inception_4e/1x1
I0403 19:32:16.123571  9361 net.cpp:148] Top shape: 24 256 14 14 (1204224)
I0403 19:32:16.123586  9361 net.cpp:156] Memory required for data: 1213249056
I0403 19:32:16.123605  9361 layer_factory.hpp:77] Creating layer inception_4e/relu_1x1
I0403 19:32:16.123630  9361 net.cpp:91] Creating Layer inception_4e/relu_1x1
I0403 19:32:16.123646  9361 net.cpp:425] inception_4e/relu_1x1 <- inception_4e/1x1
I0403 19:32:16.123662  9361 net.cpp:386] inception_4e/relu_1x1 -> inception_4e/1x1 (in-place)
I0403 19:32:16.123955  9361 net.cpp:141] Setting up inception_4e/relu_1x1
I0403 19:32:16.123986  9361 net.cpp:148] Top shape: 24 256 14 14 (1204224)
I0403 19:32:16.124003  9361 net.cpp:156] Memory required for data: 1218065952
I0403 19:32:16.124025  9361 layer_factory.hpp:77] Creating layer inception_4e/3x3_reduce
I0403 19:32:16.124055  9361 net.cpp:91] Creating Layer inception_4e/3x3_reduce
I0403 19:32:16.124074  9361 net.cpp:425] inception_4e/3x3_reduce <- inception_4d/output_inception_4d/output_0_split_2
I0403 19:32:16.124099  9361 net.cpp:399] inception_4e/3x3_reduce -> inception_4e/3x3_reduce
I0403 19:32:16.126242  9361 net.cpp:141] Setting up inception_4e/3x3_reduce
I0403 19:32:16.126271  9361 net.cpp:148] Top shape: 24 160 14 14 (752640)
I0403 19:32:16.126287  9361 net.cpp:156] Memory required for data: 1221076512
I0403 19:32:16.126307  9361 layer_factory.hpp:77] Creating layer inception_4e/relu_3x3_reduce
I0403 19:32:16.126324  9361 net.cpp:91] Creating Layer inception_4e/relu_3x3_reduce
I0403 19:32:16.126341  9361 net.cpp:425] inception_4e/relu_3x3_reduce <- inception_4e/3x3_reduce
I0403 19:32:16.126360  9361 net.cpp:386] inception_4e/relu_3x3_reduce -> inception_4e/3x3_reduce (in-place)
I0403 19:32:16.126548  9361 net.cpp:141] Setting up inception_4e/relu_3x3_reduce
I0403 19:32:16.126572  9361 net.cpp:148] Top shape: 24 160 14 14 (752640)
I0403 19:32:16.126587  9361 net.cpp:156] Memory required for data: 1224087072
I0403 19:32:16.126602  9361 layer_factory.hpp:77] Creating layer inception_4e/3x3
I0403 19:32:16.126623  9361 net.cpp:91] Creating Layer inception_4e/3x3
I0403 19:32:16.126641  9361 net.cpp:425] inception_4e/3x3 <- inception_4e/3x3_reduce
I0403 19:32:16.126662  9361 net.cpp:399] inception_4e/3x3 -> inception_4e/3x3
I0403 19:32:16.131747  9361 net.cpp:141] Setting up inception_4e/3x3
I0403 19:32:16.131790  9361 net.cpp:148] Top shape: 24 320 14 14 (1505280)
I0403 19:32:16.131806  9361 net.cpp:156] Memory required for data: 1230108192
I0403 19:32:16.131825  9361 layer_factory.hpp:77] Creating layer inception_4e/relu_3x3
I0403 19:32:16.131846  9361 net.cpp:91] Creating Layer inception_4e/relu_3x3
I0403 19:32:16.131862  9361 net.cpp:425] inception_4e/relu_3x3 <- inception_4e/3x3
I0403 19:32:16.131880  9361 net.cpp:386] inception_4e/relu_3x3 -> inception_4e/3x3 (in-place)
I0403 19:32:16.132181  9361 net.cpp:141] Setting up inception_4e/relu_3x3
I0403 19:32:16.132221  9361 net.cpp:148] Top shape: 24 320 14 14 (1505280)
I0403 19:32:16.132239  9361 net.cpp:156] Memory required for data: 1236129312
I0403 19:32:16.132254  9361 layer_factory.hpp:77] Creating layer inception_4e/5x5_reduce
I0403 19:32:16.132277  9361 net.cpp:91] Creating Layer inception_4e/5x5_reduce
I0403 19:32:16.132295  9361 net.cpp:425] inception_4e/5x5_reduce <- inception_4d/output_inception_4d/output_0_split_3
I0403 19:32:16.132315  9361 net.cpp:399] inception_4e/5x5_reduce -> inception_4e/5x5_reduce
I0403 19:32:16.133422  9361 net.cpp:141] Setting up inception_4e/5x5_reduce
I0403 19:32:16.133450  9361 net.cpp:148] Top shape: 24 32 14 14 (150528)
I0403 19:32:16.133466  9361 net.cpp:156] Memory required for data: 1236731424
I0403 19:32:16.133484  9361 layer_factory.hpp:77] Creating layer inception_4e/relu_5x5_reduce
I0403 19:32:16.133505  9361 net.cpp:91] Creating Layer inception_4e/relu_5x5_reduce
I0403 19:32:16.133523  9361 net.cpp:425] inception_4e/relu_5x5_reduce <- inception_4e/5x5_reduce
I0403 19:32:16.133541  9361 net.cpp:386] inception_4e/relu_5x5_reduce -> inception_4e/5x5_reduce (in-place)
I0403 19:32:16.133855  9361 net.cpp:141] Setting up inception_4e/relu_5x5_reduce
I0403 19:32:16.133882  9361 net.cpp:148] Top shape: 24 32 14 14 (150528)
I0403 19:32:16.133898  9361 net.cpp:156] Memory required for data: 1237333536
I0403 19:32:16.133913  9361 layer_factory.hpp:77] Creating layer inception_4e/5x5
I0403 19:32:16.133955  9361 net.cpp:91] Creating Layer inception_4e/5x5
I0403 19:32:16.133975  9361 net.cpp:425] inception_4e/5x5 <- inception_4e/5x5_reduce
I0403 19:32:16.133996  9361 net.cpp:399] inception_4e/5x5 -> inception_4e/5x5
I0403 19:32:16.135887  9361 net.cpp:141] Setting up inception_4e/5x5
I0403 19:32:16.135918  9361 net.cpp:148] Top shape: 24 128 14 14 (602112)
I0403 19:32:16.135936  9361 net.cpp:156] Memory required for data: 1239741984
I0403 19:32:16.135956  9361 layer_factory.hpp:77] Creating layer inception_4e/relu_5x5
I0403 19:32:16.135974  9361 net.cpp:91] Creating Layer inception_4e/relu_5x5
I0403 19:32:16.135992  9361 net.cpp:425] inception_4e/relu_5x5 <- inception_4e/5x5
I0403 19:32:16.136013  9361 net.cpp:386] inception_4e/relu_5x5 -> inception_4e/5x5 (in-place)
I0403 19:32:16.136217  9361 net.cpp:141] Setting up inception_4e/relu_5x5
I0403 19:32:16.136245  9361 net.cpp:148] Top shape: 24 128 14 14 (602112)
I0403 19:32:16.136260  9361 net.cpp:156] Memory required for data: 1242150432
I0403 19:32:16.136276  9361 layer_factory.hpp:77] Creating layer inception_4e/pool
I0403 19:32:16.136294  9361 net.cpp:91] Creating Layer inception_4e/pool
I0403 19:32:16.136310  9361 net.cpp:425] inception_4e/pool <- inception_4d/output_inception_4d/output_0_split_4
I0403 19:32:16.136330  9361 net.cpp:399] inception_4e/pool -> inception_4e/pool
I0403 19:32:16.136405  9361 net.cpp:141] Setting up inception_4e/pool
I0403 19:32:16.136430  9361 net.cpp:148] Top shape: 24 528 14 14 (2483712)
I0403 19:32:16.136445  9361 net.cpp:156] Memory required for data: 1252085280
I0403 19:32:16.136458  9361 layer_factory.hpp:77] Creating layer inception_4e/pool_proj
I0403 19:32:16.136481  9361 net.cpp:91] Creating Layer inception_4e/pool_proj
I0403 19:32:16.136497  9361 net.cpp:425] inception_4e/pool_proj <- inception_4e/pool
I0403 19:32:16.136518  9361 net.cpp:399] inception_4e/pool_proj -> inception_4e/pool_proj
I0403 19:32:16.138034  9361 net.cpp:141] Setting up inception_4e/pool_proj
I0403 19:32:16.138077  9361 net.cpp:148] Top shape: 24 128 14 14 (602112)
I0403 19:32:16.138095  9361 net.cpp:156] Memory required for data: 1254493728
I0403 19:32:16.138116  9361 layer_factory.hpp:77] Creating layer inception_4e/relu_pool_proj
I0403 19:32:16.138134  9361 net.cpp:91] Creating Layer inception_4e/relu_pool_proj
I0403 19:32:16.138150  9361 net.cpp:425] inception_4e/relu_pool_proj <- inception_4e/pool_proj
I0403 19:32:16.138170  9361 net.cpp:386] inception_4e/relu_pool_proj -> inception_4e/pool_proj (in-place)
I0403 19:32:16.138470  9361 net.cpp:141] Setting up inception_4e/relu_pool_proj
I0403 19:32:16.138499  9361 net.cpp:148] Top shape: 24 128 14 14 (602112)
I0403 19:32:16.138515  9361 net.cpp:156] Memory required for data: 1256902176
I0403 19:32:16.138530  9361 layer_factory.hpp:77] Creating layer inception_4e/output
I0403 19:32:16.138547  9361 net.cpp:91] Creating Layer inception_4e/output
I0403 19:32:16.138562  9361 net.cpp:425] inception_4e/output <- inception_4e/1x1
I0403 19:32:16.138579  9361 net.cpp:425] inception_4e/output <- inception_4e/3x3
I0403 19:32:16.138595  9361 net.cpp:425] inception_4e/output <- inception_4e/5x5
I0403 19:32:16.138612  9361 net.cpp:425] inception_4e/output <- inception_4e/pool_proj
I0403 19:32:16.138631  9361 net.cpp:399] inception_4e/output -> inception_4e/output
I0403 19:32:16.138680  9361 net.cpp:141] Setting up inception_4e/output
I0403 19:32:16.138703  9361 net.cpp:148] Top shape: 24 832 14 14 (3913728)
I0403 19:32:16.138718  9361 net.cpp:156] Memory required for data: 1272557088
I0403 19:32:16.138733  9361 layer_factory.hpp:77] Creating layer pool4/3x3_s2
I0403 19:32:16.138753  9361 net.cpp:91] Creating Layer pool4/3x3_s2
I0403 19:32:16.138770  9361 net.cpp:425] pool4/3x3_s2 <- inception_4e/output
I0403 19:32:16.138788  9361 net.cpp:399] pool4/3x3_s2 -> pool4/3x3_s2
I0403 19:32:16.138859  9361 net.cpp:141] Setting up pool4/3x3_s2
I0403 19:32:16.138881  9361 net.cpp:148] Top shape: 24 832 7 7 (978432)
I0403 19:32:16.138896  9361 net.cpp:156] Memory required for data: 1276470816
I0403 19:32:16.138911  9361 layer_factory.hpp:77] Creating layer pool4/3x3_s2_pool4/3x3_s2_0_split
I0403 19:32:16.138928  9361 net.cpp:91] Creating Layer pool4/3x3_s2_pool4/3x3_s2_0_split
I0403 19:32:16.138944  9361 net.cpp:425] pool4/3x3_s2_pool4/3x3_s2_0_split <- pool4/3x3_s2
I0403 19:32:16.138963  9361 net.cpp:399] pool4/3x3_s2_pool4/3x3_s2_0_split -> pool4/3x3_s2_pool4/3x3_s2_0_split_0
I0403 19:32:16.138984  9361 net.cpp:399] pool4/3x3_s2_pool4/3x3_s2_0_split -> pool4/3x3_s2_pool4/3x3_s2_0_split_1
I0403 19:32:16.139004  9361 net.cpp:399] pool4/3x3_s2_pool4/3x3_s2_0_split -> pool4/3x3_s2_pool4/3x3_s2_0_split_2
I0403 19:32:16.139024  9361 net.cpp:399] pool4/3x3_s2_pool4/3x3_s2_0_split -> pool4/3x3_s2_pool4/3x3_s2_0_split_3
I0403 19:32:16.139117  9361 net.cpp:141] Setting up pool4/3x3_s2_pool4/3x3_s2_0_split
I0403 19:32:16.139140  9361 net.cpp:148] Top shape: 24 832 7 7 (978432)
I0403 19:32:16.139158  9361 net.cpp:148] Top shape: 24 832 7 7 (978432)
I0403 19:32:16.139173  9361 net.cpp:148] Top shape: 24 832 7 7 (978432)
I0403 19:32:16.139189  9361 net.cpp:148] Top shape: 24 832 7 7 (978432)
I0403 19:32:16.139202  9361 net.cpp:156] Memory required for data: 1292125728
I0403 19:32:16.139224  9361 layer_factory.hpp:77] Creating layer inception_5a/1x1
I0403 19:32:16.139246  9361 net.cpp:91] Creating Layer inception_5a/1x1
I0403 19:32:16.139264  9361 net.cpp:425] inception_5a/1x1 <- pool4/3x3_s2_pool4/3x3_s2_0_split_0
I0403 19:32:16.139286  9361 net.cpp:399] inception_5a/1x1 -> inception_5a/1x1
I0403 19:32:16.142186  9361 net.cpp:141] Setting up inception_5a/1x1
I0403 19:32:16.142230  9361 net.cpp:148] Top shape: 24 256 7 7 (301056)
I0403 19:32:16.142251  9361 net.cpp:156] Memory required for data: 1293329952
I0403 19:32:16.142269  9361 layer_factory.hpp:77] Creating layer inception_5a/relu_1x1
I0403 19:32:16.142287  9361 net.cpp:91] Creating Layer inception_5a/relu_1x1
I0403 19:32:16.142303  9361 net.cpp:425] inception_5a/relu_1x1 <- inception_5a/1x1
I0403 19:32:16.142324  9361 net.cpp:386] inception_5a/relu_1x1 -> inception_5a/1x1 (in-place)
I0403 19:32:16.142639  9361 net.cpp:141] Setting up inception_5a/relu_1x1
I0403 19:32:16.142665  9361 net.cpp:148] Top shape: 24 256 7 7 (301056)
I0403 19:32:16.142680  9361 net.cpp:156] Memory required for data: 1294534176
I0403 19:32:16.142696  9361 layer_factory.hpp:77] Creating layer inception_5a/3x3_reduce
I0403 19:32:16.142719  9361 net.cpp:91] Creating Layer inception_5a/3x3_reduce
I0403 19:32:16.142737  9361 net.cpp:425] inception_5a/3x3_reduce <- pool4/3x3_s2_pool4/3x3_s2_0_split_1
I0403 19:32:16.142758  9361 net.cpp:399] inception_5a/3x3_reduce -> inception_5a/3x3_reduce
I0403 19:32:16.145244  9361 net.cpp:141] Setting up inception_5a/3x3_reduce
I0403 19:32:16.145275  9361 net.cpp:148] Top shape: 24 160 7 7 (188160)
I0403 19:32:16.145292  9361 net.cpp:156] Memory required for data: 1295286816
I0403 19:32:16.145311  9361 layer_factory.hpp:77] Creating layer inception_5a/relu_3x3_reduce
I0403 19:32:16.145331  9361 net.cpp:91] Creating Layer inception_5a/relu_3x3_reduce
I0403 19:32:16.145350  9361 net.cpp:425] inception_5a/relu_3x3_reduce <- inception_5a/3x3_reduce
I0403 19:32:16.145370  9361 net.cpp:386] inception_5a/relu_3x3_reduce -> inception_5a/3x3_reduce (in-place)
I0403 19:32:16.145560  9361 net.cpp:141] Setting up inception_5a/relu_3x3_reduce
I0403 19:32:16.145586  9361 net.cpp:148] Top shape: 24 160 7 7 (188160)
I0403 19:32:16.145602  9361 net.cpp:156] Memory required for data: 1296039456
I0403 19:32:16.145617  9361 layer_factory.hpp:77] Creating layer inception_5a/3x3
I0403 19:32:16.145642  9361 net.cpp:91] Creating Layer inception_5a/3x3
I0403 19:32:16.145660  9361 net.cpp:425] inception_5a/3x3 <- inception_5a/3x3_reduce
I0403 19:32:16.145683  9361 net.cpp:399] inception_5a/3x3 -> inception_5a/3x3
I0403 19:32:16.150905  9361 net.cpp:141] Setting up inception_5a/3x3
I0403 19:32:16.150938  9361 net.cpp:148] Top shape: 24 320 7 7 (376320)
I0403 19:32:16.150956  9361 net.cpp:156] Memory required for data: 1297544736
I0403 19:32:16.150976  9361 layer_factory.hpp:77] Creating layer inception_5a/relu_3x3
I0403 19:32:16.150995  9361 net.cpp:91] Creating Layer inception_5a/relu_3x3
I0403 19:32:16.151012  9361 net.cpp:425] inception_5a/relu_3x3 <- inception_5a/3x3
I0403 19:32:16.151032  9361 net.cpp:386] inception_5a/relu_3x3 -> inception_5a/3x3 (in-place)
I0403 19:32:16.151342  9361 net.cpp:141] Setting up inception_5a/relu_3x3
I0403 19:32:16.151371  9361 net.cpp:148] Top shape: 24 320 7 7 (376320)
I0403 19:32:16.151386  9361 net.cpp:156] Memory required for data: 1299050016
I0403 19:32:16.151402  9361 layer_factory.hpp:77] Creating layer inception_5a/5x5_reduce
I0403 19:32:16.151427  9361 net.cpp:91] Creating Layer inception_5a/5x5_reduce
I0403 19:32:16.151444  9361 net.cpp:425] inception_5a/5x5_reduce <- pool4/3x3_s2_pool4/3x3_s2_0_split_2
I0403 19:32:16.151466  9361 net.cpp:399] inception_5a/5x5_reduce -> inception_5a/5x5_reduce
I0403 19:32:16.152669  9361 net.cpp:141] Setting up inception_5a/5x5_reduce
I0403 19:32:16.152699  9361 net.cpp:148] Top shape: 24 32 7 7 (37632)
I0403 19:32:16.152715  9361 net.cpp:156] Memory required for data: 1299200544
I0403 19:32:16.152735  9361 layer_factory.hpp:77] Creating layer inception_5a/relu_5x5_reduce
I0403 19:32:16.152752  9361 net.cpp:91] Creating Layer inception_5a/relu_5x5_reduce
I0403 19:32:16.152770  9361 net.cpp:425] inception_5a/relu_5x5_reduce <- inception_5a/5x5_reduce
I0403 19:32:16.152791  9361 net.cpp:386] inception_5a/relu_5x5_reduce -> inception_5a/5x5_reduce (in-place)
I0403 19:32:16.153093  9361 net.cpp:141] Setting up inception_5a/relu_5x5_reduce
I0403 19:32:16.153120  9361 net.cpp:148] Top shape: 24 32 7 7 (37632)
I0403 19:32:16.153136  9361 net.cpp:156] Memory required for data: 1299351072
I0403 19:32:16.153152  9361 layer_factory.hpp:77] Creating layer inception_5a/5x5
I0403 19:32:16.153175  9361 net.cpp:91] Creating Layer inception_5a/5x5
I0403 19:32:16.153194  9361 net.cpp:425] inception_5a/5x5 <- inception_5a/5x5_reduce
I0403 19:32:16.153221  9361 net.cpp:399] inception_5a/5x5 -> inception_5a/5x5
I0403 19:32:16.154968  9361 net.cpp:141] Setting up inception_5a/5x5
I0403 19:32:16.155048  9361 net.cpp:148] Top shape: 24 128 7 7 (150528)
I0403 19:32:16.155092  9361 net.cpp:156] Memory required for data: 1299953184
I0403 19:32:16.155151  9361 layer_factory.hpp:77] Creating layer inception_5a/relu_5x5
I0403 19:32:16.155216  9361 net.cpp:91] Creating Layer inception_5a/relu_5x5
I0403 19:32:16.155236  9361 net.cpp:425] inception_5a/relu_5x5 <- inception_5a/5x5
I0403 19:32:16.155258  9361 net.cpp:386] inception_5a/relu_5x5 -> inception_5a/5x5 (in-place)
I0403 19:32:16.155453  9361 net.cpp:141] Setting up inception_5a/relu_5x5
I0403 19:32:16.155478  9361 net.cpp:148] Top shape: 24 128 7 7 (150528)
I0403 19:32:16.155493  9361 net.cpp:156] Memory required for data: 1300555296
I0403 19:32:16.155508  9361 layer_factory.hpp:77] Creating layer inception_5a/pool
I0403 19:32:16.155525  9361 net.cpp:91] Creating Layer inception_5a/pool
I0403 19:32:16.155541  9361 net.cpp:425] inception_5a/pool <- pool4/3x3_s2_pool4/3x3_s2_0_split_3
I0403 19:32:16.155562  9361 net.cpp:399] inception_5a/pool -> inception_5a/pool
I0403 19:32:16.155637  9361 net.cpp:141] Setting up inception_5a/pool
I0403 19:32:16.155659  9361 net.cpp:148] Top shape: 24 832 7 7 (978432)
I0403 19:32:16.155674  9361 net.cpp:156] Memory required for data: 1304469024
I0403 19:32:16.155689  9361 layer_factory.hpp:77] Creating layer inception_5a/pool_proj
I0403 19:32:16.155710  9361 net.cpp:91] Creating Layer inception_5a/pool_proj
I0403 19:32:16.155728  9361 net.cpp:425] inception_5a/pool_proj <- inception_5a/pool
I0403 19:32:16.155750  9361 net.cpp:399] inception_5a/pool_proj -> inception_5a/pool_proj
I0403 19:32:16.158061  9361 net.cpp:141] Setting up inception_5a/pool_proj
I0403 19:32:16.158095  9361 net.cpp:148] Top shape: 24 128 7 7 (150528)
I0403 19:32:16.158112  9361 net.cpp:156] Memory required for data: 1305071136
I0403 19:32:16.158131  9361 layer_factory.hpp:77] Creating layer inception_5a/relu_pool_proj
I0403 19:32:16.158150  9361 net.cpp:91] Creating Layer inception_5a/relu_pool_proj
I0403 19:32:16.158165  9361 net.cpp:425] inception_5a/relu_pool_proj <- inception_5a/pool_proj
I0403 19:32:16.158186  9361 net.cpp:386] inception_5a/relu_pool_proj -> inception_5a/pool_proj (in-place)
I0403 19:32:16.158488  9361 net.cpp:141] Setting up inception_5a/relu_pool_proj
I0403 19:32:16.158519  9361 net.cpp:148] Top shape: 24 128 7 7 (150528)
I0403 19:32:16.158535  9361 net.cpp:156] Memory required for data: 1305673248
I0403 19:32:16.158550  9361 layer_factory.hpp:77] Creating layer inception_5a/output
I0403 19:32:16.158566  9361 net.cpp:91] Creating Layer inception_5a/output
I0403 19:32:16.158582  9361 net.cpp:425] inception_5a/output <- inception_5a/1x1
I0403 19:32:16.158601  9361 net.cpp:425] inception_5a/output <- inception_5a/3x3
I0403 19:32:16.158617  9361 net.cpp:425] inception_5a/output <- inception_5a/5x5
I0403 19:32:16.158632  9361 net.cpp:425] inception_5a/output <- inception_5a/pool_proj
I0403 19:32:16.158649  9361 net.cpp:399] inception_5a/output -> inception_5a/output
I0403 19:32:16.158701  9361 net.cpp:141] Setting up inception_5a/output
I0403 19:32:16.158725  9361 net.cpp:148] Top shape: 24 832 7 7 (978432)
I0403 19:32:16.158740  9361 net.cpp:156] Memory required for data: 1309586976
I0403 19:32:16.158754  9361 layer_factory.hpp:77] Creating layer inception_5a/output_inception_5a/output_0_split
I0403 19:32:16.158774  9361 net.cpp:91] Creating Layer inception_5a/output_inception_5a/output_0_split
I0403 19:32:16.158792  9361 net.cpp:425] inception_5a/output_inception_5a/output_0_split <- inception_5a/output
I0403 19:32:16.158810  9361 net.cpp:399] inception_5a/output_inception_5a/output_0_split -> inception_5a/output_inception_5a/output_0_split_0
I0403 19:32:16.158830  9361 net.cpp:399] inception_5a/output_inception_5a/output_0_split -> inception_5a/output_inception_5a/output_0_split_1
I0403 19:32:16.158850  9361 net.cpp:399] inception_5a/output_inception_5a/output_0_split -> inception_5a/output_inception_5a/output_0_split_2
I0403 19:32:16.158879  9361 net.cpp:399] inception_5a/output_inception_5a/output_0_split -> inception_5a/output_inception_5a/output_0_split_3
I0403 19:32:16.158995  9361 net.cpp:141] Setting up inception_5a/output_inception_5a/output_0_split
I0403 19:32:16.159019  9361 net.cpp:148] Top shape: 24 832 7 7 (978432)
I0403 19:32:16.159035  9361 net.cpp:148] Top shape: 24 832 7 7 (978432)
I0403 19:32:16.159051  9361 net.cpp:148] Top shape: 24 832 7 7 (978432)
I0403 19:32:16.159067  9361 net.cpp:148] Top shape: 24 832 7 7 (978432)
I0403 19:32:16.159081  9361 net.cpp:156] Memory required for data: 1325241888
I0403 19:32:16.159096  9361 layer_factory.hpp:77] Creating layer inception_5b/1x1
I0403 19:32:16.159117  9361 net.cpp:91] Creating Layer inception_5b/1x1
I0403 19:32:16.159135  9361 net.cpp:425] inception_5b/1x1 <- inception_5a/output_inception_5a/output_0_split_0
I0403 19:32:16.159157  9361 net.cpp:399] inception_5b/1x1 -> inception_5b/1x1
I0403 19:32:16.162973  9361 net.cpp:141] Setting up inception_5b/1x1
I0403 19:32:16.163005  9361 net.cpp:148] Top shape: 24 384 7 7 (451584)
I0403 19:32:16.163022  9361 net.cpp:156] Memory required for data: 1327048224
I0403 19:32:16.163041  9361 layer_factory.hpp:77] Creating layer inception_5b/relu_1x1
I0403 19:32:16.163063  9361 net.cpp:91] Creating Layer inception_5b/relu_1x1
I0403 19:32:16.163079  9361 net.cpp:425] inception_5b/relu_1x1 <- inception_5b/1x1
I0403 19:32:16.163099  9361 net.cpp:386] inception_5b/relu_1x1 -> inception_5b/1x1 (in-place)
I0403 19:32:16.163419  9361 net.cpp:141] Setting up inception_5b/relu_1x1
I0403 19:32:16.163446  9361 net.cpp:148] Top shape: 24 384 7 7 (451584)
I0403 19:32:16.163461  9361 net.cpp:156] Memory required for data: 1328854560
I0403 19:32:16.163476  9361 layer_factory.hpp:77] Creating layer inception_5b/3x3_reduce
I0403 19:32:16.163501  9361 net.cpp:91] Creating Layer inception_5b/3x3_reduce
I0403 19:32:16.163518  9361 net.cpp:425] inception_5b/3x3_reduce <- inception_5a/output_inception_5a/output_0_split_1
I0403 19:32:16.163537  9361 net.cpp:399] inception_5b/3x3_reduce -> inception_5b/3x3_reduce
I0403 19:32:16.166260  9361 net.cpp:141] Setting up inception_5b/3x3_reduce
I0403 19:32:16.166293  9361 net.cpp:148] Top shape: 24 192 7 7 (225792)
I0403 19:32:16.166311  9361 net.cpp:156] Memory required for data: 1329757728
I0403 19:32:16.166331  9361 layer_factory.hpp:77] Creating layer inception_5b/relu_3x3_reduce
I0403 19:32:16.166348  9361 net.cpp:91] Creating Layer inception_5b/relu_3x3_reduce
I0403 19:32:16.166363  9361 net.cpp:425] inception_5b/relu_3x3_reduce <- inception_5b/3x3_reduce
I0403 19:32:16.166381  9361 net.cpp:386] inception_5b/relu_3x3_reduce -> inception_5b/3x3_reduce (in-place)
I0403 19:32:16.166576  9361 net.cpp:141] Setting up inception_5b/relu_3x3_reduce
I0403 19:32:16.166601  9361 net.cpp:148] Top shape: 24 192 7 7 (225792)
I0403 19:32:16.166615  9361 net.cpp:156] Memory required for data: 1330660896
I0403 19:32:16.166630  9361 layer_factory.hpp:77] Creating layer inception_5b/3x3
I0403 19:32:16.166652  9361 net.cpp:91] Creating Layer inception_5b/3x3
I0403 19:32:16.166671  9361 net.cpp:425] inception_5b/3x3 <- inception_5b/3x3_reduce
I0403 19:32:16.166695  9361 net.cpp:399] inception_5b/3x3 -> inception_5b/3x3
I0403 19:32:16.173319  9361 net.cpp:141] Setting up inception_5b/3x3
I0403 19:32:16.173353  9361 net.cpp:148] Top shape: 24 384 7 7 (451584)
I0403 19:32:16.173372  9361 net.cpp:156] Memory required for data: 1332467232
I0403 19:32:16.173390  9361 layer_factory.hpp:77] Creating layer inception_5b/relu_3x3
I0403 19:32:16.173408  9361 net.cpp:91] Creating Layer inception_5b/relu_3x3
I0403 19:32:16.173424  9361 net.cpp:425] inception_5b/relu_3x3 <- inception_5b/3x3
I0403 19:32:16.173442  9361 net.cpp:386] inception_5b/relu_3x3 -> inception_5b/3x3 (in-place)
I0403 19:32:16.173737  9361 net.cpp:141] Setting up inception_5b/relu_3x3
I0403 19:32:16.173764  9361 net.cpp:148] Top shape: 24 384 7 7 (451584)
I0403 19:32:16.173779  9361 net.cpp:156] Memory required for data: 1334273568
I0403 19:32:16.173794  9361 layer_factory.hpp:77] Creating layer inception_5b/5x5_reduce
I0403 19:32:16.173831  9361 net.cpp:91] Creating Layer inception_5b/5x5_reduce
I0403 19:32:16.173849  9361 net.cpp:425] inception_5b/5x5_reduce <- inception_5a/output_inception_5a/output_0_split_2
I0403 19:32:16.173869  9361 net.cpp:399] inception_5b/5x5_reduce -> inception_5b/5x5_reduce
I0403 19:32:16.175132  9361 net.cpp:141] Setting up inception_5b/5x5_reduce
I0403 19:32:16.175163  9361 net.cpp:148] Top shape: 24 48 7 7 (56448)
I0403 19:32:16.175179  9361 net.cpp:156] Memory required for data: 1334499360
I0403 19:32:16.175197  9361 layer_factory.hpp:77] Creating layer inception_5b/relu_5x5_reduce
I0403 19:32:16.175221  9361 net.cpp:91] Creating Layer inception_5b/relu_5x5_reduce
I0403 19:32:16.175240  9361 net.cpp:425] inception_5b/relu_5x5_reduce <- inception_5b/5x5_reduce
I0403 19:32:16.175259  9361 net.cpp:386] inception_5b/relu_5x5_reduce -> inception_5b/5x5_reduce (in-place)
I0403 19:32:16.175624  9361 net.cpp:141] Setting up inception_5b/relu_5x5_reduce
I0403 19:32:16.175653  9361 net.cpp:148] Top shape: 24 48 7 7 (56448)
I0403 19:32:16.175671  9361 net.cpp:156] Memory required for data: 1334725152
I0403 19:32:16.175686  9361 layer_factory.hpp:77] Creating layer inception_5b/5x5
I0403 19:32:16.175706  9361 net.cpp:91] Creating Layer inception_5b/5x5
I0403 19:32:16.175722  9361 net.cpp:425] inception_5b/5x5 <- inception_5b/5x5_reduce
I0403 19:32:16.175740  9361 net.cpp:399] inception_5b/5x5 -> inception_5b/5x5
I0403 19:32:16.177832  9361 net.cpp:141] Setting up inception_5b/5x5
I0403 19:32:16.177861  9361 net.cpp:148] Top shape: 24 128 7 7 (150528)
I0403 19:32:16.177880  9361 net.cpp:156] Memory required for data: 1335327264
I0403 19:32:16.177899  9361 layer_factory.hpp:77] Creating layer inception_5b/relu_5x5
I0403 19:32:16.177917  9361 net.cpp:91] Creating Layer inception_5b/relu_5x5
I0403 19:32:16.177933  9361 net.cpp:425] inception_5b/relu_5x5 <- inception_5b/5x5
I0403 19:32:16.177953  9361 net.cpp:386] inception_5b/relu_5x5 -> inception_5b/5x5 (in-place)
I0403 19:32:16.178159  9361 net.cpp:141] Setting up inception_5b/relu_5x5
I0403 19:32:16.178184  9361 net.cpp:148] Top shape: 24 128 7 7 (150528)
I0403 19:32:16.178197  9361 net.cpp:156] Memory required for data: 1335929376
I0403 19:32:16.178221  9361 layer_factory.hpp:77] Creating layer inception_5b/pool
I0403 19:32:16.178242  9361 net.cpp:91] Creating Layer inception_5b/pool
I0403 19:32:16.178261  9361 net.cpp:425] inception_5b/pool <- inception_5a/output_inception_5a/output_0_split_3
I0403 19:32:16.178278  9361 net.cpp:399] inception_5b/pool -> inception_5b/pool
I0403 19:32:16.178351  9361 net.cpp:141] Setting up inception_5b/pool
I0403 19:32:16.178375  9361 net.cpp:148] Top shape: 24 832 7 7 (978432)
I0403 19:32:16.178390  9361 net.cpp:156] Memory required for data: 1339843104
I0403 19:32:16.178403  9361 layer_factory.hpp:77] Creating layer inception_5b/pool_proj
I0403 19:32:16.178424  9361 net.cpp:91] Creating Layer inception_5b/pool_proj
I0403 19:32:16.178442  9361 net.cpp:425] inception_5b/pool_proj <- inception_5b/pool
I0403 19:32:16.178463  9361 net.cpp:399] inception_5b/pool_proj -> inception_5b/pool_proj
I0403 19:32:16.180773  9361 net.cpp:141] Setting up inception_5b/pool_proj
I0403 19:32:16.180804  9361 net.cpp:148] Top shape: 24 128 7 7 (150528)
I0403 19:32:16.180820  9361 net.cpp:156] Memory required for data: 1340445216
I0403 19:32:16.180840  9361 layer_factory.hpp:77] Creating layer inception_5b/relu_pool_proj
I0403 19:32:16.180858  9361 net.cpp:91] Creating Layer inception_5b/relu_pool_proj
I0403 19:32:16.180874  9361 net.cpp:425] inception_5b/relu_pool_proj <- inception_5b/pool_proj
I0403 19:32:16.180893  9361 net.cpp:386] inception_5b/relu_pool_proj -> inception_5b/pool_proj (in-place)
I0403 19:32:16.181188  9361 net.cpp:141] Setting up inception_5b/relu_pool_proj
I0403 19:32:16.181224  9361 net.cpp:148] Top shape: 24 128 7 7 (150528)
I0403 19:32:16.181241  9361 net.cpp:156] Memory required for data: 1341047328
I0403 19:32:16.181257  9361 layer_factory.hpp:77] Creating layer inception_5b/output
I0403 19:32:16.181273  9361 net.cpp:91] Creating Layer inception_5b/output
I0403 19:32:16.181303  9361 net.cpp:425] inception_5b/output <- inception_5b/1x1
I0403 19:32:16.181320  9361 net.cpp:425] inception_5b/output <- inception_5b/3x3
I0403 19:32:16.181336  9361 net.cpp:425] inception_5b/output <- inception_5b/5x5
I0403 19:32:16.181355  9361 net.cpp:425] inception_5b/output <- inception_5b/pool_proj
I0403 19:32:16.181375  9361 net.cpp:399] inception_5b/output -> inception_5b/output
I0403 19:32:16.181426  9361 net.cpp:141] Setting up inception_5b/output
I0403 19:32:16.181448  9361 net.cpp:148] Top shape: 24 1024 7 7 (1204224)
I0403 19:32:16.181463  9361 net.cpp:156] Memory required for data: 1345864224
I0403 19:32:16.181478  9361 layer_factory.hpp:77] Creating layer pool5/7x7_s1
I0403 19:32:16.181499  9361 net.cpp:91] Creating Layer pool5/7x7_s1
I0403 19:32:16.181515  9361 net.cpp:425] pool5/7x7_s1 <- inception_5b/output
I0403 19:32:16.181534  9361 net.cpp:399] pool5/7x7_s1 -> pool5/7x7_s1
I0403 19:32:16.181746  9361 net.cpp:141] Setting up pool5/7x7_s1
I0403 19:32:16.181771  9361 net.cpp:148] Top shape: 24 1024 1 1 (24576)
I0403 19:32:16.181785  9361 net.cpp:156] Memory required for data: 1345962528
I0403 19:32:16.181799  9361 layer_factory.hpp:77] Creating layer pool5/drop_7x7_s1
I0403 19:32:16.181816  9361 net.cpp:91] Creating Layer pool5/drop_7x7_s1
I0403 19:32:16.181831  9361 net.cpp:425] pool5/drop_7x7_s1 <- pool5/7x7_s1
I0403 19:32:16.181851  9361 net.cpp:386] pool5/drop_7x7_s1 -> pool5/7x7_s1 (in-place)
I0403 19:32:16.181900  9361 net.cpp:141] Setting up pool5/drop_7x7_s1
I0403 19:32:16.181923  9361 net.cpp:148] Top shape: 24 1024 1 1 (24576)
I0403 19:32:16.181937  9361 net.cpp:156] Memory required for data: 1346060832
I0403 19:32:16.181951  9361 layer_factory.hpp:77] Creating layer loss3/classifier_plantvillage
I0403 19:32:16.181972  9361 net.cpp:91] Creating Layer loss3/classifier_plantvillage
I0403 19:32:16.181989  9361 net.cpp:425] loss3/classifier_plantvillage <- pool5/7x7_s1
I0403 19:32:16.182010  9361 net.cpp:399] loss3/classifier_plantvillage -> loss3/classifier_plantvillage
I0403 19:32:16.182446  9361 net.cpp:141] Setting up loss3/classifier_plantvillage
I0403 19:32:16.182473  9361 net.cpp:148] Top shape: 24 38 (912)
I0403 19:32:16.182488  9361 net.cpp:156] Memory required for data: 1346064480
I0403 19:32:16.182507  9361 layer_factory.hpp:77] Creating layer loss3/classifier_plantvillage_loss3/classifier_plantvillage_0_split
I0403 19:32:16.182524  9361 net.cpp:91] Creating Layer loss3/classifier_plantvillage_loss3/classifier_plantvillage_0_split
I0403 19:32:16.182539  9361 net.cpp:425] loss3/classifier_plantvillage_loss3/classifier_plantvillage_0_split <- loss3/classifier_plantvillage
I0403 19:32:16.182557  9361 net.cpp:399] loss3/classifier_plantvillage_loss3/classifier_plantvillage_0_split -> loss3/classifier_plantvillage_loss3/classifier_plantvillage_0_split_0
I0403 19:32:16.182576  9361 net.cpp:399] loss3/classifier_plantvillage_loss3/classifier_plantvillage_0_split -> loss3/classifier_plantvillage_loss3/classifier_plantvillage_0_split_1
I0403 19:32:16.182596  9361 net.cpp:399] loss3/classifier_plantvillage_loss3/classifier_plantvillage_0_split -> loss3/classifier_plantvillage_loss3/classifier_plantvillage_0_split_2
I0403 19:32:16.182617  9361 net.cpp:399] loss3/classifier_plantvillage_loss3/classifier_plantvillage_0_split -> loss3/classifier_plantvillage_loss3/classifier_plantvillage_0_split_3
I0403 19:32:16.182718  9361 net.cpp:141] Setting up loss3/classifier_plantvillage_loss3/classifier_plantvillage_0_split
I0403 19:32:16.182740  9361 net.cpp:148] Top shape: 24 38 (912)
I0403 19:32:16.182756  9361 net.cpp:148] Top shape: 24 38 (912)
I0403 19:32:16.182771  9361 net.cpp:148] Top shape: 24 38 (912)
I0403 19:32:16.182785  9361 net.cpp:148] Top shape: 24 38 (912)
I0403 19:32:16.182798  9361 net.cpp:156] Memory required for data: 1346079072
I0403 19:32:16.182812  9361 layer_factory.hpp:77] Creating layer loss1/loss
I0403 19:32:16.182834  9361 net.cpp:91] Creating Layer loss1/loss
I0403 19:32:16.182850  9361 net.cpp:425] loss1/loss <- loss1/classifier_plantvillage_loss1/classifier_plantvillage_0_split_0
I0403 19:32:16.182881  9361 net.cpp:425] loss1/loss <- label_data_1_split_0
…
