…
I0403 19:00:33.210867  8426 net.cpp:313] The NetState phase (1) differed from the phase (0) specified by a rule in layer data
I0403 19:00:33.212885  8426 net.cpp:49] Initializing net from parameters: 
state {
  phase: TEST
}
layer {
  name: "data"
  type: "Data"
  top: "data"
  top: "label"
  include {
    phase: TEST
  }
  transform_param {
    mirror: false
    crop_size: 224
    mean_file: "/home/mohanty/data/final_dataset/lmdb/grayscale-50-50/mean.binaryproto"
  }
  data_param {
    source: "/home/mohanty/data/final_dataset/lmdb/grayscale-50-50/test_db"
    batch_size: 24
    backend: LMDB
  }
}
layer {
  name: "conv1/7x7_s2"
  type: "Convolution"
  bottom: "data"
  top: "conv1/7x7_s2"
  param {
    lr_mult: 1
    decay_mult: 1
  }
  param {
    lr_mult: 2
    decay_mult: 0
  }
  convolution_param {
    num_output: 64
    pad: 3
    kernel_size: 7
    stride: 2
    weight_filler {
      type: "xavier"
      std: 0.1
    }
    bias_filler {
      type: "constant"
      value: 0.2
    }
  }
}
layer {
  name: "conv1/relu_7x7"
  type: "ReLU"
  bottom: "conv1/7x7_s2"
  top: "conv1/7x7_s2"
}
layer {
  name: "pool1/3x3_s2"
  type: "Pooling"
  bottom: "conv1/7x7_s2"
  top: "pool1/3x3_s2"
  pooling_param {
    pool: MAX
    kernel_size: 3
    stride: 2
  }
}
layer {
  name: "pool1/norm1"
  type: "LRN"
  bottom: "pool1/3x3_s2"
  top: "pool1/norm1"
  lrn_param {
    local_size: 5
    alpha: 0.0001
    beta: 0.75
  }
}
layer {
  name: "conv2/3x3_reduce"
  type: "Convolution"
  bottom: "pool1/norm1"
  top: "conv2/3x3_reduce"
  param {
    lr_mult: 1
    decay_mult: 1
  }
  param {
    lr_mult: 2
    decay_mult: 0
  }
  convolution_param {
    num_output: 64
    kernel_size: 1
    weight_filler {
      type: "xavier"
      std: 0.1
    }
    bias_filler {
      type: "constant"
      value: 0.2
    }
  }
}
layer {
  name: "conv2/relu_3x3_reduce"
  type: "ReLU"
  bottom: "conv2/3x3_reduce"
  top: "conv2/3x3_reduce"
}
layer {
  name: "conv2/3x3"
  type: "Convolution"
  bottom: "conv2/3x3_reduce"
  top: "conv2/3x3"
  param {
    lr_mult: 1
    decay_mult: 1
  }
  param {
    lr_mult: 2
    decay_mult: 0
  }
  convolution_param {
    num_output: 192
    pad: 1
    kernel_size: 3
    weight_filler {
      type: "xavier"
      std: 0.03
    }
    bias_filler {
      type: "constant"
      value: 0.2
    }
  }
}
layer {
  name: "conv2/relu_3x3"
  type: "ReLU"
  bottom: "conv2/3x3"
  top: "conv2/3x3"
}
layer {
  name: "conv2/norm2"
  type: "LRN"
  bottom: "conv2/3x3"
  top: "conv2/norm2"
  lrn_param {
    local_size: 5
    alpha: 0.0001
    beta: 0.75
  }
}
layer {
  name: "pool2/3x3_s2"
  type: "Pooling"
  bottom: "conv2/norm2"
  top: "pool2/3x3_s2"
  pooling_param {
    pool: MAX
    kernel_size: 3
    stride: 2
  }
}
layer {
  name: "inception_3a/1x1"
  type: "Convolution"
  bottom: "pool2/3x3_s2"
  top: "inception_3a/1x1"
  param {
    lr_mult: 1
    decay_mult: 1
  }
  param {
    lr_mult: 2
    decay_mult: 0
  }
  convolution_param {
    num_output: 64
    kernel_size: 1
    weight_filler {
      type: "xavier"
      std: 0.03
    }
    bias_filler {
      type: "constant"
      value: 0.2
    }
  }
}
layer {
  name: "inception_3a/relu_1x1"
  type: "ReLU"
  bottom: "inception_3a/1x1"
  top: "inception_3a/1x1"
}
layer {
  name: "inception_3a/3x3_reduce"
  type: "Convolution"
  bottom: "pool2/3x3_s2"
  top: "inception_3a/3x3_reduce"
  param {
    lr_mult: 1
    decay_mult: 1
  }
  param {
    lr_mult: 2
    decay_mult: 0
  }
  convolution_param {
    num_output: 96
    kernel_size: 1
    weight_filler {
      type: "xavier"
      std: 0.09
    }
    bias_filler {
      type: "constant"
      value: 0.2
    }
  }
}
layer {
  name: "inception_3a/relu_3x3_reduce"
  type: "ReLU"
  bottom: "inception_3a/3x3_reduce"
  top: "inception_3a/3x3_reduce"
}
layer {
  name: "inception_3a/3x3"
  type: "Convolution"
  bottom: "inception_3a/3x3_reduce"
  top: "inception_3a/3x3"
  param {
    lr_mult: 1
    decay_mult: 1
  }
  param {
    lr_mult: 2
    decay_mult: 0
  }
  convolution_param {
    num_output: 128
    pad: 1
    kernel_size: 3
    weight_filler {
      type: "xavier"
      std: 0.03
    }
    bias_filler {
      type: "constant"
      value: 0.2
    }
  }
}
layer {
  name: "inception_3a/relu_3x3"
  type: "ReLU"
  bottom: "inception_3a/3x3"
  top: "inception_3a/3x3"
}
layer {
  name: "inception_3a/5x5_reduce"
  type: "Convolution"
  bottom: "pool2/3x3_s2"
  top: "inception_3a/5x5_reduce"
  param {
    lr_mult: 1
    decay_mult: 1
  }
  param {
    lr_mult: 2
    decay_mult: 0
  }
  convolution_param {
    num_output: 16
    kernel_size: 1
    weight_filler {
      type: "xavier"
      std: 0.2
    }
    bias_filler {
      type: "constant"
      value: 0.2
    }
  }
}
layer {
  name: "inception_3a/relu_5x5_reduce"
  type: "ReLU"
  bottom: "inception_3a/5x5_reduce"
  top: "inception_3a/5x5_reduce"
}
layer {
  name: "inception_3a/5x5"
  type: "Convolution"
  bottom: "inception_3a/5x5_reduce"
  top: "inception_3a/5x5"
  param {
    lr_mult: 1
    decay_mult: 1
  }
  param {
    lr_mult: 2
    decay_mult: 0
  }
  convolution_param {
    num_output: 32
    pad: 2
    kernel_size: 5
    weight_filler {
      type: "xavier"
      std: 0.03
    }
    bias_filler {
      type: "constant"
      value: 0.2
    }
  }
}
layer {
  name: "inception_3a/relu_5x5"
  type: "ReLU"
  bottom: "inception_3a/5x5"
  top: "inception_3a/5x5"
}
layer {
  name: "inception_3a/pool"
  type: "Pooling"
  bottom: "pool2/3x3_s2"
  top: "inception_3a/pool"
  pooling_param {
    pool: MAX
    kernel_size: 3
    stride: 1
    pad: 1
  }
}
layer {
  name: "inception_3a/pool_proj"
  type: "Convolution"
  bottom: "inception_3a/pool"
  top: "inception_3a/pool_proj"
  param {
    lr_mult: 1
    decay_mult: 1
  }
  param {
    lr_mult: 2
    decay_mult: 0
  }
  convolution_param {
    num_output: 32
    kernel_size: 1
    weight_filler {
      type: "xavier"
      std: 0.1
    }
    bias_filler {
      type: "constant"
      value: 0.2
    }
  }
}
layer {
  name: "inception_3a/relu_pool_proj"
  type: "ReLU"
  bottom: "inception_3a/pool_proj"
  top: "inception_3a/pool_proj"
}
layer {
  name: "inception_3a/output"
  type: "Concat"
  bottom: "inception_3a/1x1"
  bottom: "inception_3a/3x3"
  bottom: "inception_3a/5x5"
  bottom: "inception_3a/pool_proj"
  top: "inception_3a/output"
}
layer {
  name: "inception_3b/1x1"
  type: "Convolution"
  bottom: "inception_3a/output"
  top: "inception_3b/1x1"
  param {
    lr_mult: 1
    decay_mult: 1
  }
  param {
    lr_mult: 2
    decay_mult: 0
  }
  convolution_param {
    num_output: 128
    kernel_size: 1
    weight_filler {
      type: "xavier"
      std: 0.03
    }
    bias_filler {
      type: "constant"
      value: 0.2
    }
  }
}
layer {
  name: "inception_3b/relu_1x1"
  type: "ReLU"
  bottom: "inception_3b/1x1"
  top: "inception_3b/1x1"
}
layer {
  name: "inception_3b/3x3_reduce"
  type: "Convolution"
  bottom: "inception_3a/output"
  top: "inception_3b/3x3_reduce"
  param {
    lr_mult: 1
    decay_mult: 1
  }
  param {
    lr_mult: 2
    decay_mult: 0
  }
  convolution_param {
    num_output: 128
    kernel_size: 1
    weight_filler {
      type: "xavier"
      std: 0.09
    }
    bias_filler {
      type: "constant"
      value: 0.2
    }
  }
}
layer {
  name: "inception_3b/relu_3x3_reduce"
  type: "ReLU"
  bottom: "inception_3b/3x3_reduce"
  top: "inception_3b/3x3_reduce"
}
layer {
  name: "inception_3b/3x3"
  type: "Convolution"
  bottom: "inception_3b/3x3_reduce"
  top: "inception_3b/3x3"
  param {
    lr_mult: 1
    decay_mult: 1
  }
  param {
    lr_mult: 2
    decay_mult: 0
  }
  convolution_param {
    num_output: 192
    pad: 1
    kernel_size: 3
    weight_filler {
      type: "xavier"
      std: 0.03
    }
    bias_filler {
      type: "constant"
      value: 0.2
    }
  }
}
layer {
  name: "inception_3b/relu_3x3"
  type: "ReLU"
  bottom: "inception_3b/3x3"
  top: "inception_3b/3x3"
}
layer {
  name: "inception_3b/5x5_reduce"
  type: "Convolution"
  bottom: "inception_3a/output"
  top: "inception_3b/5x5_reduce"
  param {
    lr_mult: 1
    decay_mult: 1
  }
  param {
    lr_mult: 2
    decay_mult: 0
  }
  convolution_param {
    num_output: 32
    kernel_size: 1
    weight_filler {
      type: "xavier"
      std: 0.2
    }
    bias_filler {
      type: "constant"
      value: 0.2
    }
  }
}
layer {
  name: "inception_3b/relu_5x5_reduce"
  type: "ReLU"
  bottom: "inception_3b/5x5_reduce"
  top: "inception_3b/5x5_reduce"
}
layer {
  name: "inception_3b/5x5"
  type: "Convolution"
  bottom: "inception_3b/5x5_reduce"
  top: "inception_3b/5x5"
  param {
    lr_mult: 1
    decay_mult: 1
  }
  param {
    lr_mult: 2
    decay_mult: 0
  }
  convolution_param {
    num_output: 96
    pad: 2
    kernel_size: 5
    weight_filler {
      type: "xavier"
      std: 0.03
    }
    bias_filler {
      type: "constant"
      value: 0.2
    }
  }
}
layer {
  name: "inception_3b/relu_5x5"
  type: "ReLU"
  bottom: "inception_3b/5x5"
  top: "inception_3b/5x5"
}
layer {
  name: "inception_3b/pool"
  type: "Pooling"
  bottom: "inception_3a/output"
  top: "inception_3b/pool"
  pooling_param {
    pool: MAX
    kernel_size: 3
    stride: 1
    pad: 1
  }
}
layer {
  name: "inception_3b/pool_proj"
  type: "Convolution"
  bottom: "inception_3b/pool"
  top: "inception_3b/pool_proj"
  param {
    lr_mult: 1
    decay_mult: 1
  }
  param {
    lr_mult: 2
    decay_mult: 0
  }
  convolution_param {
    num_output: 64
    kernel_size: 1
    weight_filler {
      type: "xavier"
      std: 0.1
    }
    bias_filler {
      type: "constant"
      value: 0.2
    }
  }
}
layer {
  name: "inception_3b/relu_pool_proj"
  type: "ReLU"
  bottom: "inception_3b/pool_proj"
  top: "inception_3b/pool_proj"
}
layer {
  name: "inception_3b/output"
  type: "Concat"
  bottom: "inception_3b/1x1"
  bottom: "inception_3b/3x3"
  bottom: "inception_3b/5x5"
  bottom: "inception_3b/pool_proj"
  top: "inception_3b/output"
}
layer {
  name: "pool3/3x3_s2"
  type: "Pooling"
  bottom: "inception_3b/output"
  top: "pool3/3x3_s2"
  pooling_param {
    pool: MAX
    kernel_size: 3
    stride: 2
  }
}
layer {
  name: "inception_4a/1x1"
  type: "Convolution"
  bottom: "pool3/3x3_s2"
  top: "inception_4a/1x1"
  param {
    lr_mult: 1
    decay_mult: 1
  }
  param {
    lr_mult: 2
    decay_mult: 0
  }
  convolution_param {
    num_output: 192
    kernel_size: 1
    weight_filler {
      type: "xavier"
      std: 0.03
    }
    bias_filler {
      type: "constant"
      value: 0.2
    }
  }
}
layer {
  name: "inception_4a/relu_1x1"
  type: "ReLU"
  bottom: "inception_4a/1x1"
  top: "inception_4a/1x1"
}
layer {
  name: "inception_4a/3x3_reduce"
  type: "Convolution"
  bottom: "pool3/3x3_s2"
  top: "inception_4a/3x3_reduce"
  param {
    lr_mult: 1
    decay_mult: 1
  }
  param {
    lr_mult: 2
    decay_mult: 0
  }
  convolution_param {
    num_output: 96
    kernel_size: 1
    weight_filler {
      type: "xavier"
      std: 0.09
    }
    bias_filler {
      type: "constant"
      value: 0.2
    }
  }
}
layer {
  name: "inception_4a/relu_3x3_reduce"
  type: "ReLU"
  bottom: "inception_4a/3x3_reduce"
  top: "inception_4a/3x3_reduce"
}
layer {
  name: "inception_4a/3x3"
  type: "Convolution"
  bottom: "inception_4a/3x3_reduce"
  top: "inception_4a/3x3"
  param {
    lr_mult: 1
    decay_mult: 1
  }
  param {
    lr_mult: 2
    decay_mult: 0
  }
  convolution_param {
    num_output: 208
    pad: 1
    kernel_size: 3
    weight_filler {
      type: "xavier"
      std: 0.03
    }
    bias_filler {
      type: "constant"
      value: 0.2
    }
  }
}
layer {
  name: "inception_4a/relu_3x3"
  type: "ReLU"
  bottom: "inception_4a/3x3"
  top: "inception_4a/3x3"
}
layer {
  name: "inception_4a/5x5_reduce"
  type: "Convolution"
  bottom: "pool3/3x3_s2"
  top: "inception_4a/5x5_reduce"
  param {
    lr_mult: 1
    decay_mult: 1
  }
  param {
    lr_mult: 2
    decay_mult: 0
  }
  convolution_param {
    num_output: 16
    kernel_size: 1
    weight_filler {
      type: "xavier"
      std: 0.2
    }
    bias_filler {
      type: "constant"
      value: 0.2
    }
  }
}
layer {
  name: "inception_4a/relu_5x5_reduce"
  type: "ReLU"
  bottom: "inception_4a/5x5_reduce"
  top: "inception_4a/5x5_reduce"
}
layer {
  name: "inception_4a/5x5"
  type: "Convolution"
  bottom: "inception_4a/5x5_reduce"
  top: "inception_4a/5x5"
  param {
    lr_mult: 1
    decay_mult: 1
  }
  param {
    lr_mult: 2
    decay_mult: 0
  }
  convolution_param {
    num_output: 48
    pad: 2
    kernel_size: 5
    weight_filler {
      type: "xavier"
      std: 0.03
    }
    bias_filler {
      type: "constant"
      value: 0.2
    }
  }
}
layer {
  name: "inception_4a/relu_5x5"
  type: "ReLU"
  bottom: "inception_4a/5x5"
  top: "inception_4a/5x5"
}
layer {
  name: "inception_4a/pool"
  type: "Pooling"
  bottom: "pool3/3x3_s2"
  top: "inception_4a/pool"
  pooling_param {
    pool: MAX
    kernel_size: 3
    stride: 1
    pad: 1
  }
}
layer {
  name: "inception_4a/pool_proj"
  type: "Convolution"
  bottom: "inception_4a/pool"
  top: "inception_4a/pool_proj"
  param {
    lr_mult: 1
    decay_mult: 1
  }
  param {
    lr_mult: 2
    decay_mult: 0
  }
  convolution_param {
    num_output: 64
    kernel_size: 1
    weight_filler {
      type: "xavier"
      std: 0.1
    }
    bias_filler {
      type: "constant"
      value: 0.2
    }
  }
}
layer {
  name: "inception_4a/relu_pool_proj"
  type: "ReLU"
  bottom: "inception_4a/pool_proj"
  top: "inception_4a/pool_proj"
}
layer {
  name: "inception_4a/output"
  type: "Concat"
  bottom: "inception_4a/1x1"
  bottom: "inception_4a/3x3"
  bottom: "inception_4a/5x5"
  bottom: "inception_4a/pool_proj"
  top: "inception_4a/output"
}
layer {
  name: "loss1/ave_pool"
  type: "Pooling"
  bottom: "inception_4a/output"
  top: "loss1/ave_pool"
  pooling_param {
    pool: AVE
    kernel_size: 5
    stride: 3
  }
}
layer {
  name: "loss1/conv"
  type: "Convolution"
  bottom: "loss1/ave_pool"
  top: "loss1/conv"
  param {
    lr_mult: 1
    decay_mult: 1
  }
  param {
    lr_mult: 2
    decay_mult: 0
  }
  convolution_param {
    num_output: 128
    kernel_size: 1
    weight_filler {
      type: "xavier"
      std: 0.08
    }
    bias_filler {
      type: "constant"
      value: 0.2
    }
  }
}
layer {
  name: "loss1/relu_conv"
  type: "ReLU"
  bottom: "loss1/conv"
  top: "loss1/conv"
}
layer {
  name: "loss1/fc"
  type: "InnerProduct"
  bottom: "loss1/conv"
  top: "loss1/fc"
  param {
    lr_mult: 1
    decay_mult: 1
  }
  param {
    lr_mult: 2
    decay_mult: 0
  }
  inner_product_param {
    num_output: 1024
    weight_filler {
      type: "xavier"
      std: 0.02
    }
    bias_filler {
      type: "constant"
      value: 0.2
    }
  }
}
layer {
  name: "loss1/relu_fc"
  type: "ReLU"
  bottom: "loss1/fc"
  top: "loss1/fc"
}
layer {
  name: "loss1/drop_fc"
  type: "Dropout"
  bottom: "loss1/fc"
  top: "loss1/fc"
  dropout_param {
    dropout_ratio: 0.7
  }
}
layer {
  name: "loss1/classifier_plantvillage"
  type: "InnerProduct"
  bottom: "loss1/fc"
  top: "loss1/classifier_plantvillage"
  param {
    lr_mult: 1
    decay_mult: 1
  }
  param {
    lr_mult: 2
    decay_mult: 0
  }
  inner_product_param {
    num_output: 38
    weight_filler {
      type: "xavier"
      std: 0.0009765625
    }
    bias_filler {
      type: "constant"
      value: 0
    }
  }
}
layer {
  name: "inception_4b/1x1"
  type: "Convolution"
  bottom: "inception_4a/output"
  top: "inception_4b/1x1"
  param {
    lr_mult: 1
    decay_mult: 1
  }
  param {
    lr_mult: 2
    decay_mult: 0
  }
  convolution_param {
    num_output: 160
    kernel_size: 1
    weight_filler {
      type: "xavier"
      std: 0.03
    }
    bias_filler {
      type: "constant"
      value: 0.2
    }
  }
}
layer {
  name: "inception_4b/relu_1x1"
  type: "ReLU"
  bottom: "inception_4b/1x1"
  top: "inception_4b/1x1"
}
layer {
  name: "inception_4b/3x3_reduce"
  type: "Convolution"
  bottom: "inception_4a/output"
  top: "inception_4b/3x3_reduce"
  param {
    lr_mult: 1
    decay_mult: 1
  }
  param {
    lr_mult: 2
    decay_mult: 0
  }
  convolution_param {
    num_output: 112
    kernel_size: 1
    weight_filler {
      type: "xavier"
      std: 0.09
    }
    bias_filler {
      type: "constant"
      value: 0.2
    }
  }
}
layer {
  name: "inception_4b/relu_3x3_reduce"
  type: "ReLU"
  bottom: "inception_4b/3x3_reduce"
  top: "inception_4b/3x3_reduce"
}
layer {
  name: "inception_4b/3x3"
  type: "Convolution"
  bottom: "inception_4b/3x3_reduce"
  top: "inception_4b/3x3"
  param {
    lr_mult: 1
    decay_mult: 1
  }
  param {
    lr_mult: 2
    decay_mult: 0
  }
  convolution_param {
    num_output: 224
    pad: 1
    kernel_size: 3
    weight_filler {
      type: "xavier"
      std: 0.03
    }
    bias_filler {
      type: "constant"
      value: 0.2
    }
  }
}
layer {
  name: "inception_4b/relu_3x3"
  type: "ReLU"
  bottom: "inception_4b/3x3"
  top: "inception_4b/3x3"
}
layer {
  name: "inception_4b/5x5_reduce"
  type: "Convolution"
  bottom: "inception_4a/output"
  top: "inception_4b/5x5_reduce"
  param {
    lr_mult: 1
    decay_mult: 1
  }
  param {
    lr_mult: 2
    decay_mult: 0
  }
  convolution_param {
    num_output: 24
    kernel_size: 1
    weight_filler {
      type: "xavier"
      std: 0.2
    }
    bias_filler {
      type: "constant"
      value: 0.2
    }
  }
}
layer {
  name: "inception_4b/relu_5x5_reduce"
  type: "ReLU"
  bottom: "inception_4b/5x5_reduce"
  top: "inception_4b/5x5_reduce"
}
layer {
  name: "inception_4b/5x5"
  type: "Convolution"
  bottom: "inception_4b/5x5_reduce"
  top: "inception_4b/5x5"
  param {
    lr_mult: 1
    decay_mult: 1
  }
  param {
    lr_mult: 2
    decay_mult: 0
  }
  convolution_param {
    num_output: 64
    pad: 2
    kernel_size: 5
    weight_filler {
      type: "xavier"
      std: 0.03
    }
    bias_filler {
      type: "constant"
      value: 0.2
    }
  }
}
layer {
  name: "inception_4b/relu_5x5"
  type: "ReLU"
  bottom: "inception_4b/5x5"
  top: "inception_4b/5x5"
}
layer {
  name: "inception_4b/pool"
  type: "Pooling"
  bottom: "inception_4a/output"
  top: "inception_4b/pool"
  pooling_param {
    pool: MAX
    kernel_size: 3
    stride: 1
    pad: 1
  }
}
layer {
  name: "inception_4b/pool_proj"
  type: "Convolution"
  bottom: "inception_4b/pool"
  top: "inception_4b/pool_proj"
  param {
    lr_mult: 1
    decay_mult: 1
  }
  param {
    lr_mult: 2
    decay_mult: 0
  }
  convolution_param {
    num_output: 64
    kernel_size: 1
    weight_filler {
      type: "xavier"
      std: 0.1
    }
    bias_filler {
      type: "constant"
      value: 0.2
    }
  }
}
layer {
  name: "inception_4b/relu_pool_proj"
  type: "ReLU"
  bottom: "inception_4b/pool_proj"
  top: "inception_4b/pool_proj"
}
layer {
  name: "inception_4b/output"
  type: "Concat"
  bottom: "inception_4b/1x1"
  bottom: "inception_4b/3x3"
  bottom: "inception_4b/5x5"
  bottom: "inception_4b/pool_proj"
  top: "inception_4b/output"
}
layer {
  name: "inception_4c/1x1"
  type: "Convolution"
  bottom: "inception_4b/output"
  top: "inception_4c/1x1"
  param {
    lr_mult: 1
    decay_mult: 1
  }
  param {
    lr_mult: 2
    decay_mult: 0
  }
  convolution_param {
    num_output: 128
    kernel_size: 1
    weight_filler {
      type: "xavier"
      std: 0.03
    }
    bias_filler {
      type: "constant"
      value: 0.2
    }
  }
}
layer {
  name: "inception_4c/relu_1x1"
  type: "ReLU"
  bottom: "inception_4c/1x1"
  top: "inception_4c/1x1"
}
layer {
  name: "inception_4c/3x3_reduce"
  type: "Convolution"
  bottom: "inception_4b/output"
  top: "inception_4c/3x3_reduce"
  param {
    lr_mult: 1
    decay_mult: 1
  }
  param {
    lr_mult: 2
    decay_mult: 0
  }
  convolution_param {
    num_output: 128
    kernel_size: 1
    weight_filler {
      type: "xavier"
      std: 0.09
    }
    bias_filler {
      type: "constant"
      value: 0.2
    }
  }
}
layer {
  name: "inception_4c/relu_3x3_reduce"
  type: "ReLU"
  bottom: "inception_4c/3x3_reduce"
  top: "inception_4c/3x3_reduce"
}
layer {
  name: "inception_4c/3x3"
  type: "Convolution"
  bottom: "inception_4c/3x3_reduce"
  top: "inception_4c/3x3"
  param {
    lr_mult: 1
    decay_mult: 1
  }
  param {
    lr_mult: 2
    decay_mult: 0
  }
  convolution_param {
    num_output: 256
    pad: 1
    kernel_size: 3
    weight_filler {
      type: "xavier"
      std: 0.03
    }
    bias_filler {
      type: "constant"
      value: 0.2
    }
  }
}
layer {
  name: "inception_4c/relu_3x3"
  type: "ReLU"
  bottom: "inception_4c/3x3"
  top: "inception_4c/3x3"
}
layer {
  name: "inception_4c/5x5_reduce"
  type: "Convolution"
  bottom: "inception_4b/output"
  top: "inception_4c/5x5_reduce"
  param {
    lr_mult: 1
    decay_mult: 1
  }
  param {
    lr_mult: 2
    decay_mult: 0
  }
  convolution_param {
    num_output: 24
    kernel_size: 1
    weight_filler {
      type: "xavier"
      std: 0.2
    }
    bias_filler {
      type: "constant"
      value: 0.2
    }
  }
}
layer {
  name: "inception_4c/relu_5x5_reduce"
  type: "ReLU"
  bottom: "inception_4c/5x5_reduce"
  top: "inception_4c/5x5_reduce"
}
layer {
  name: "inception_4c/5x5"
  type: "Convolution"
  bottom: "inception_4c/5x5_reduce"
  top: "inception_4c/5x5"
  param {
    lr_mult: 1
    decay_mult: 1
  }
  param {
    lr_mult: 2
    decay_mult: 0
  }
  convolution_param {
    num_output: 64
    pad: 2
    kernel_size: 5
    weight_filler {
      type: "xavier"
      std: 0.03
    }
    bias_filler {
      type: "constant"
      value: 0.2
    }
  }
}
layer {
  name: "inception_4c/relu_5x5"
  type: "ReLU"
  bottom: "inception_4c/5x5"
  top: "inception_4c/5x5"
}
layer {
  name: "inception_4c/pool"
  type: "Pooling"
  bottom: "inception_4b/output"
  top: "inception_4c/pool"
  pooling_param {
    pool: MAX
    kernel_size: 3
    stride: 1
    pad: 1
  }
}
layer {
  name: "inception_4c/pool_proj"
  type: "Convolution"
  bottom: "inception_4c/pool"
  top: "inception_4c/pool_proj"
  param {
    lr_mult: 1
    decay_mult: 1
  }
  param {
    lr_mult: 2
    decay_mult: 0
  }
  convolution_param {
    num_output: 64
    kernel_size: 1
    weight_filler {
      type: "xavier"
      std: 0.1
    }
    bias_filler {
      type: "constant"
      value: 0.2
    }
  }
}
layer {
  name: "inception_4c/relu_pool_proj"
  type: "ReLU"
  bottom: "inception_4c/pool_proj"
  top: "inception_4c/pool_proj"
}
layer {
  name: "inception_4c/output"
  type: "Concat"
  bottom: "inception_4c/1x1"
  bottom: "inception_4c/3x3"
  bottom: "inception_4c/5x5"
  bottom: "inception_4c/pool_proj"
  top: "inception_4c/output"
}
layer {
  name: "inception_4d/1x1"
  type: "Convolution"
  bottom: "inception_4c/output"
  top: "inception_4d/1x1"
  param {
    lr_mult: 1
    decay_mult: 1
  }
  param {
    lr_mult: 2
    decay_mult: 0
  }
  convolution_param {
    num_output: 112
    kernel_size: 1
    weight_filler {
      type: "xavier"
      std: 0.03
    }
    bias_filler {
      type: "constant"
      value: 0.2
    }
  }
}
layer {
  name: "inception_4d/relu_1x1"
  type: "ReLU"
  bottom: "inception_4d/1x1"
  top: "inception_4d/1x1"
}
layer {
  name: "inception_4d/3x3_reduce"
  type: "Convolution"
  bottom: "inception_4c/output"
  top: "inception_4d/3x3_reduce"
  param {
    lr_mult: 1
    decay_mult: 1
  }
  param {
    lr_mult: 2
    decay_mult: 0
  }
  convolution_param {
    num_output: 144
    kernel_size: 1
    weight_filler {
      type: "xavier"
      std: 0.09
    }
    bias_filler {
      type: "constant"
      value: 0.2
    }
  }
}
layer {
  name: "inception_4d/relu_3x3_reduce"
  type: "ReLU"
  bottom: "inception_4d/3x3_reduce"
  top: "inception_4d/3x3_reduce"
}
layer {
  name: "inception_4d/3x3"
  type: "Convolution"
  bottom: "inception_4d/3x3_reduce"
  top: "inception_4d/3x3"
  param {
    lr_mult: 1
    decay_mult: 1
  }
  param {
    lr_mult: 2
    decay_mult: 0
  }
  convolution_param {
    num_output: 288
    pad: 1
    kernel_size: 3
    weight_filler {
      type: "xavier"
      std: 0.03
    }
    bias_filler {
      type: "constant"
      value: 0.2
    }
  }
}
layer {
  name: "inception_4d/relu_3x3"
  type: "ReLU"
  bottom: "inception_4d/3x3"
  top: "inception_4d/3x3"
}
layer {
  name: "inception_4d/5x5_reduce"
  type: "Convolution"
  bottom: "inception_4c/output"
  top: "inception_4d/5x5_reduce"
  param {
    lr_mult: 1
    decay_mult: 1
  }
  param {
    lr_mult: 2
    decay_mult: 0
  }
  convolution_param {
    num_output: 32
    kernel_size: 1
    weight_filler {
      type: "xavier"
      std: 0.2
    }
    bias_filler {
      type: "constant"
      value: 0.2
    }
  }
}
layer {
  name: "inception_4d/relu_5x5_reduce"
  type: "ReLU"
  bottom: "inception_4d/5x5_reduce"
  top: "inception_4d/5x5_reduce"
}
layer {
  name: "inception_4d/5x5"
  type: "Convolution"
  bottom: "inception_4d/5x5_reduce"
  top: "inception_4d/5x5"
  param {
    lr_mult: 1
    decay_mult: 1
  }
  param {
    lr_mult: 2
    decay_mult: 0
  }
  convolution_param {
    num_output: 64
    pad: 2
    kernel_size: 5
    weight_filler {
      type: "xavier"
      std: 0.03
    }
    bias_filler {
      type: "constant"
      value: 0.2
    }
  }
}
layer {
  name: "inception_4d/relu_5x5"
  type: "ReLU"
  bottom: "inception_4d/5x5"
  top: "inception_4d/5x5"
}
layer {
  name: "inception_4d/pool"
  type: "Pooling"
  bottom: "inception_4c/output"
  top: "inception_4d/pool"
  pooling_param {
    pool: MAX
    kernel_size: 3
    stride: 1
    pad: 1
  }
}
layer {
  name: "inception_4d/pool_proj"
  type: "Convolution"
  bottom: "inception_4d/pool"
  top: "inception_4d/pool_proj"
  param {
    lr_mult: 1
    decay_mult: 1
  }
  param {
    lr_mult: 2
    decay_mult: 0
  }
  convolution_param {
    num_output: 64
    kernel_size: 1
    weight_filler {
      type: "xavier"
      std: 0.1
    }
    bias_filler {
      type: "constant"
      value: 0.2
    }
  }
}
layer {
  name: "inception_4d/relu_pool_proj"
  type: "ReLU"
  bottom: "inception_4d/pool_proj"
  top: "inception_4d/pool_proj"
}
layer {
  name: "inception_4d/output"
  type: "Concat"
  bottom: "inception_4d/1x1"
  bottom: "inception_4d/3x3"
  bottom: "inception_4d/5x5"
  bottom: "inception_4d/pool_proj"
  top: "inception_4d/output"
}
layer {
  name: "loss2/ave_pool"
  type: "Pooling"
  bottom: "inception_4d/output"
  top: "loss2/ave_pool"
  pooling_param {
    pool: AVE
    kernel_size: 5
    stride: 3
  }
}
layer {
  name: "loss2/conv"
  type: "Convolution"
  bottom: "loss2/ave_pool"
  top: "loss2/conv"
  param {
    lr_mult: 1
    decay_mult: 1
  }
  param {
    lr_mult: 2
    decay_mult: 0
  }
  convolution_param {
    num_output: 128
    kernel_size: 1
    weight_filler {
      type: "xavier"
      std: 0.08
    }
    bias_filler {
      type: "constant"
      value: 0.2
    }
  }
}
layer {
  name: "loss2/relu_conv"
  type: "ReLU"
  bottom: "loss2/conv"
  top: "loss2/conv"
}
layer {
  name: "loss2/fc"
  type: "InnerProduct"
  bottom: "loss2/conv"
  top: "loss2/fc"
  param {
    lr_mult: 1
    decay_mult: 1
  }
  param {
    lr_mult: 2
    decay_mult: 0
  }
  inner_product_param {
    num_output: 1024
    weight_filler {
      type: "xavier"
      std: 0.02
    }
    bias_filler {
      type: "constant"
      value: 0.2
    }
  }
}
layer {
  name: "loss2/relu_fc"
  type: "ReLU"
  bottom: "loss2/fc"
  top: "loss2/fc"
}
layer {
  name: "loss2/drop_fc"
  type: "Dropout"
  bottom: "loss2/fc"
  top: "loss2/fc"
  dropout_param {
    dropout_ratio: 0.7
  }
}
layer {
  name: "loss2/classifier_plantvillage"
  type: "InnerProduct"
  bottom: "loss2/fc"
  top: "loss2/classifier_plantvillage"
  param {
    lr_mult: 1
    decay_mult: 1
  }
  param {
    lr_mult: 2
    decay_mult: 0
  }
  inner_product_param {
    num_output: 38
    weight_filler {
      type: "xavier"
      std: 0.0009765625
    }
    bias_filler {
      type: "constant"
      value: 0
    }
  }
}
layer {
  name: "inception_4e/1x1"
  type: "Convolution"
  bottom: "inception_4d/output"
  top: "inception_4e/1x1"
  param {
    lr_mult: 1
    decay_mult: 1
  }
  param {
    lr_mult: 2
    decay_mult: 0
  }
  convolution_param {
    num_output: 256
    kernel_size: 1
    weight_filler {
      type: "xavier"
      std: 0.03
    }
    bias_filler {
      type: "constant"
      value: 0.2
    }
  }
}
layer {
  name: "inception_4e/relu_1x1"
  type: "ReLU"
  bottom: "inception_4e/1x1"
  top: "inception_4e/1x1"
}
layer {
  name: "inception_4e/3x3_reduce"
  type: "Convolution"
  bottom: "inception_4d/output"
  top: "inception_4e/3x3_reduce"
  param {
    lr_mult: 1
    decay_mult: 1
  }
  param {
    lr_mult: 2
    decay_mult: 0
  }
  convolution_param {
    num_output: 160
    kernel_size: 1
    weight_filler {
      type: "xavier"
      std: 0.09
    }
    bias_filler {
      type: "constant"
      value: 0.2
    }
  }
}
layer {
  name: "inception_4e/relu_3x3_reduce"
  type: "ReLU"
  bottom: "inception_4e/3x3_reduce"
  top: "inception_4e/3x3_reduce"
}
layer {
  name: "inception_4e/3x3"
  type: "Convolution"
  bottom: "inception_4e/3x3_reduce"
  top: "inception_4e/3x3"
  param {
    lr_mult: 1
    decay_mult: 1
  }
  param {
    lr_mult: 2
    decay_mult: 0
  }
  convolution_param {
    num_output: 320
    pad: 1
    kernel_size: 3
    weight_filler {
      type: "xavier"
      std: 0.03
    }
    bias_filler {
      type: "constant"
      value: 0.2
    }
  }
}
layer {
  name: "inception_4e/relu_3x3"
  type: "ReLU"
  bottom: "inception_4e/3x3"
  top: "inception_4e/3x3"
}
layer {
  name: "inception_4e/5x5_reduce"
  type: "Convolution"
  bottom: "inception_4d/output"
  top: "inception_4e/5x5_reduce"
  param {
    lr_mult: 1
    decay_mult: 1
  }
  param {
    lr_mult: 2
    decay_mult: 0
  }
  convolution_param {
    num_output: 32
    kernel_size: 1
    weight_filler {
      type: "xavier"
      std: 0.2
    }
    bias_filler {
      type: "constant"
      value: 0.2
    }
  }
}
layer {
  name: "inception_4e/relu_5x5_reduce"
  type: "ReLU"
  bottom: "inception_4e/5x5_reduce"
  top: "inception_4e/5x5_reduce"
}
layer {
  name: "inception_4e/5x5"
  type: "Convolution"
  bottom: "inception_4e/5x5_reduce"
  top: "inception_4e/
I0403 19:00:33.216614  8426 layer_factory.hpp:77] Creating layer data
I0403 19:00:33.217197  8426 net.cpp:91] Creating Layer data
I0403 19:00:33.217236  8426 net.cpp:399] data -> data
I0403 19:00:33.217286  8426 net.cpp:399] data -> label
I0403 19:00:33.217322  8426 data_transformer.cpp:25] Loading mean file from: /home/mohanty/data/final_dataset/lmdb/grayscale-50-50/mean.binaryproto
I0403 19:00:33.329946  8430 db_lmdb.cpp:38] Opened lmdb /home/mohanty/data/final_dataset/lmdb/grayscale-50-50/test_db
I0403 19:00:33.359899  8426 data_layer.cpp:41] output data size: 24,3,224,224
I0403 19:00:33.390435  8426 net.cpp:141] Setting up data
I0403 19:00:33.390524  8426 net.cpp:148] Top shape: 24 3 224 224 (3612672)
I0403 19:00:33.390548  8426 net.cpp:148] Top shape: 24 (24)
I0403 19:00:33.390563  8426 net.cpp:156] Memory required for data: 14450784
I0403 19:00:33.390591  8426 layer_factory.hpp:77] Creating layer label_data_1_split
I0403 19:00:33.390619  8426 net.cpp:91] Creating Layer label_data_1_split
I0403 19:00:33.390637  8426 net.cpp:425] label_data_1_split <- label
I0403 19:00:33.390671  8426 net.cpp:399] label_data_1_split -> label_data_1_split_0
I0403 19:00:33.390698  8426 net.cpp:399] label_data_1_split -> label_data_1_split_1
I0403 19:00:33.390720  8426 net.cpp:399] label_data_1_split -> label_data_1_split_2
I0403 19:00:33.390743  8426 net.cpp:399] label_data_1_split -> label_data_1_split_3
I0403 19:00:33.390763  8426 net.cpp:399] label_data_1_split -> label_data_1_split_4
I0403 19:00:33.390784  8426 net.cpp:399] label_data_1_split -> label_data_1_split_5
I0403 19:00:33.390805  8426 net.cpp:399] label_data_1_split -> label_data_1_split_6
I0403 19:00:33.390826  8426 net.cpp:399] label_data_1_split -> label_data_1_split_7
I0403 19:00:33.390846  8426 net.cpp:399] label_data_1_split -> label_data_1_split_8
I0403 19:00:33.390866  8426 net.cpp:399] label_data_1_split -> label_data_1_split_9
I0403 19:00:33.390987  8426 net.cpp:141] Setting up label_data_1_split
I0403 19:00:33.391010  8426 net.cpp:148] Top shape: 24 (24)
I0403 19:00:33.391029  8426 net.cpp:148] Top shape: 24 (24)
I0403 19:00:33.391046  8426 net.cpp:148] Top shape: 24 (24)
I0403 19:00:33.391062  8426 net.cpp:148] Top shape: 24 (24)
I0403 19:00:33.391078  8426 net.cpp:148] Top shape: 24 (24)
I0403 19:00:33.391094  8426 net.cpp:148] Top shape: 24 (24)
I0403 19:00:33.391111  8426 net.cpp:148] Top shape: 24 (24)
I0403 19:00:33.391129  8426 net.cpp:148] Top shape: 24 (24)
I0403 19:00:33.391145  8426 net.cpp:148] Top shape: 24 (24)
I0403 19:00:33.391161  8426 net.cpp:148] Top shape: 24 (24)
I0403 19:00:33.391211  8426 net.cpp:156] Memory required for data: 14451744
I0403 19:00:33.391229  8426 layer_factory.hpp:77] Creating layer conv1/7x7_s2
I0403 19:00:33.391265  8426 net.cpp:91] Creating Layer conv1/7x7_s2
I0403 19:00:33.391284  8426 net.cpp:425] conv1/7x7_s2 <- data
I0403 19:00:33.391305  8426 net.cpp:399] conv1/7x7_s2 -> conv1/7x7_s2
I0403 19:00:33.544132  8426 net.cpp:141] Setting up conv1/7x7_s2
I0403 19:00:33.544225  8426 net.cpp:148] Top shape: 24 64 112 112 (19267584)
I0403 19:00:33.544245  8426 net.cpp:156] Memory required for data: 91522080
I0403 19:00:33.544277  8426 layer_factory.hpp:77] Creating layer conv1/relu_7x7
I0403 19:00:33.544312  8426 net.cpp:91] Creating Layer conv1/relu_7x7
I0403 19:00:33.544333  8426 net.cpp:425] conv1/relu_7x7 <- conv1/7x7_s2
I0403 19:00:33.544353  8426 net.cpp:386] conv1/relu_7x7 -> conv1/7x7_s2 (in-place)
I0403 19:00:33.544648  8426 net.cpp:141] Setting up conv1/relu_7x7
I0403 19:00:33.544682  8426 net.cpp:148] Top shape: 24 64 112 112 (19267584)
I0403 19:00:33.544702  8426 net.cpp:156] Memory required for data: 168592416
I0403 19:00:33.544718  8426 layer_factory.hpp:77] Creating layer pool1/3x3_s2
I0403 19:00:33.544744  8426 net.cpp:91] Creating Layer pool1/3x3_s2
I0403 19:00:33.544765  8426 net.cpp:425] pool1/3x3_s2 <- conv1/7x7_s2
I0403 19:00:33.544788  8426 net.cpp:399] pool1/3x3_s2 -> pool1/3x3_s2
I0403 19:00:33.544875  8426 net.cpp:141] Setting up pool1/3x3_s2
I0403 19:00:33.544903  8426 net.cpp:148] Top shape: 24 64 56 56 (4816896)
I0403 19:00:33.544919  8426 net.cpp:156] Memory required for data: 187860000
I0403 19:00:33.544936  8426 layer_factory.hpp:77] Creating layer pool1/norm1
I0403 19:00:33.544963  8426 net.cpp:91] Creating Layer pool1/norm1
I0403 19:00:33.544984  8426 net.cpp:425] pool1/norm1 <- pool1/3x3_s2
I0403 19:00:33.545003  8426 net.cpp:399] pool1/norm1 -> pool1/norm1
I0403 19:00:33.545327  8426 net.cpp:141] Setting up pool1/norm1
I0403 19:00:33.545361  8426 net.cpp:148] Top shape: 24 64 56 56 (4816896)
I0403 19:00:33.545378  8426 net.cpp:156] Memory required for data: 207127584
I0403 19:00:33.545394  8426 layer_factory.hpp:77] Creating layer conv2/3x3_reduce
I0403 19:00:33.545423  8426 net.cpp:91] Creating Layer conv2/3x3_reduce
I0403 19:00:33.545441  8426 net.cpp:425] conv2/3x3_reduce <- pool1/norm1
I0403 19:00:33.545461  8426 net.cpp:399] conv2/3x3_reduce -> conv2/3x3_reduce
I0403 19:00:33.546968  8426 net.cpp:141] Setting up conv2/3x3_reduce
I0403 19:00:33.547000  8426 net.cpp:148] Top shape: 24 64 56 56 (4816896)
I0403 19:00:33.547019  8426 net.cpp:156] Memory required for data: 226395168
I0403 19:00:33.547040  8426 layer_factory.hpp:77] Creating layer conv2/relu_3x3_reduce
I0403 19:00:33.547063  8426 net.cpp:91] Creating Layer conv2/relu_3x3_reduce
I0403 19:00:33.547081  8426 net.cpp:425] conv2/relu_3x3_reduce <- conv2/3x3_reduce
I0403 19:00:33.547101  8426 net.cpp:386] conv2/relu_3x3_reduce -> conv2/3x3_reduce (in-place)
I0403 19:00:33.547394  8426 net.cpp:141] Setting up conv2/relu_3x3_reduce
I0403 19:00:33.547425  8426 net.cpp:148] Top shape: 24 64 56 56 (4816896)
I0403 19:00:33.547441  8426 net.cpp:156] Memory required for data: 245662752
I0403 19:00:33.547457  8426 layer_factory.hpp:77] Creating layer conv2/3x3
I0403 19:00:33.547484  8426 net.cpp:91] Creating Layer conv2/3x3
I0403 19:00:33.547502  8426 net.cpp:425] conv2/3x3 <- conv2/3x3_reduce
I0403 19:00:33.547528  8426 net.cpp:399] conv2/3x3 -> conv2/3x3
I0403 19:00:33.549952  8426 net.cpp:141] Setting up conv2/3x3
I0403 19:00:33.549986  8426 net.cpp:148] Top shape: 24 192 56 56 (14450688)
I0403 19:00:33.550004  8426 net.cpp:156] Memory required for data: 303465504
I0403 19:00:33.550029  8426 layer_factory.hpp:77] Creating layer conv2/relu_3x3
I0403 19:00:33.550052  8426 net.cpp:91] Creating Layer conv2/relu_3x3
I0403 19:00:33.550072  8426 net.cpp:425] conv2/relu_3x3 <- conv2/3x3
I0403 19:00:33.550091  8426 net.cpp:386] conv2/relu_3x3 -> conv2/3x3 (in-place)
I0403 19:00:33.550283  8426 net.cpp:141] Setting up conv2/relu_3x3
I0403 19:00:33.550313  8426 net.cpp:148] Top shape: 24 192 56 56 (14450688)
I0403 19:00:33.550364  8426 net.cpp:156] Memory required for data: 361268256
I0403 19:00:33.550380  8426 layer_factory.hpp:77] Creating layer conv2/norm2
I0403 19:00:33.550400  8426 net.cpp:91] Creating Layer conv2/norm2
I0403 19:00:33.550417  8426 net.cpp:425] conv2/norm2 <- conv2/3x3
I0403 19:00:33.550439  8426 net.cpp:399] conv2/norm2 -> conv2/norm2
I0403 19:00:33.550766  8426 net.cpp:141] Setting up conv2/norm2
I0403 19:00:33.550796  8426 net.cpp:148] Top shape: 24 192 56 56 (14450688)
I0403 19:00:33.550812  8426 net.cpp:156] Memory required for data: 419071008
I0403 19:00:33.550829  8426 layer_factory.hpp:77] Creating layer pool2/3x3_s2
I0403 19:00:33.550848  8426 net.cpp:91] Creating Layer pool2/3x3_s2
I0403 19:00:33.550864  8426 net.cpp:425] pool2/3x3_s2 <- conv2/norm2
I0403 19:00:33.550885  8426 net.cpp:399] pool2/3x3_s2 -> pool2/3x3_s2
I0403 19:00:33.550943  8426 net.cpp:141] Setting up pool2/3x3_s2
I0403 19:00:33.550968  8426 net.cpp:148] Top shape: 24 192 28 28 (3612672)
I0403 19:00:33.550984  8426 net.cpp:156] Memory required for data: 433521696
I0403 19:00:33.551002  8426 layer_factory.hpp:77] Creating layer pool2/3x3_s2_pool2/3x3_s2_0_split
I0403 19:00:33.551023  8426 net.cpp:91] Creating Layer pool2/3x3_s2_pool2/3x3_s2_0_split
I0403 19:00:33.551040  8426 net.cpp:425] pool2/3x3_s2_pool2/3x3_s2_0_split <- pool2/3x3_s2
I0403 19:00:33.551061  8426 net.cpp:399] pool2/3x3_s2_pool2/3x3_s2_0_split -> pool2/3x3_s2_pool2/3x3_s2_0_split_0
I0403 19:00:33.551084  8426 net.cpp:399] pool2/3x3_s2_pool2/3x3_s2_0_split -> pool2/3x3_s2_pool2/3x3_s2_0_split_1
I0403 19:00:33.551106  8426 net.cpp:399] pool2/3x3_s2_pool2/3x3_s2_0_split -> pool2/3x3_s2_pool2/3x3_s2_0_split_2
I0403 19:00:33.551128  8426 net.cpp:399] pool2/3x3_s2_pool2/3x3_s2_0_split -> pool2/3x3_s2_pool2/3x3_s2_0_split_3
I0403 19:00:33.551210  8426 net.cpp:141] Setting up pool2/3x3_s2_pool2/3x3_s2_0_split
I0403 19:00:33.551235  8426 net.cpp:148] Top shape: 24 192 28 28 (3612672)
I0403 19:00:33.551257  8426 net.cpp:148] Top shape: 24 192 28 28 (3612672)
I0403 19:00:33.551275  8426 net.cpp:148] Top shape: 24 192 28 28 (3612672)
I0403 19:00:33.551291  8426 net.cpp:148] Top shape: 24 192 28 28 (3612672)
I0403 19:00:33.551307  8426 net.cpp:156] Memory required for data: 491324448
I0403 19:00:33.551324  8426 layer_factory.hpp:77] Creating layer inception_3a/1x1
I0403 19:00:33.551345  8426 net.cpp:91] Creating Layer inception_3a/1x1
I0403 19:00:33.551362  8426 net.cpp:425] inception_3a/1x1 <- pool2/3x3_s2_pool2/3x3_s2_0_split_0
I0403 19:00:33.551386  8426 net.cpp:399] inception_3a/1x1 -> inception_3a/1x1
I0403 19:00:33.553011  8426 net.cpp:141] Setting up inception_3a/1x1
I0403 19:00:33.553042  8426 net.cpp:148] Top shape: 24 64 28 28 (1204224)
I0403 19:00:33.553059  8426 net.cpp:156] Memory required for data: 496141344
I0403 19:00:33.553079  8426 layer_factory.hpp:77] Creating layer inception_3a/relu_1x1
I0403 19:00:33.553102  8426 net.cpp:91] Creating Layer inception_3a/relu_1x1
I0403 19:00:33.553119  8426 net.cpp:425] inception_3a/relu_1x1 <- inception_3a/1x1
I0403 19:00:33.553138  8426 net.cpp:386] inception_3a/relu_1x1 -> inception_3a/1x1 (in-place)
I0403 19:00:33.553329  8426 net.cpp:141] Setting up inception_3a/relu_1x1
I0403 19:00:33.553356  8426 net.cpp:148] Top shape: 24 64 28 28 (1204224)
I0403 19:00:33.553372  8426 net.cpp:156] Memory required for data: 500958240
I0403 19:00:33.553388  8426 layer_factory.hpp:77] Creating layer inception_3a/3x3_reduce
I0403 19:00:33.553417  8426 net.cpp:91] Creating Layer inception_3a/3x3_reduce
I0403 19:00:33.553436  8426 net.cpp:425] inception_3a/3x3_reduce <- pool2/3x3_s2_pool2/3x3_s2_0_split_1
I0403 19:00:33.553457  8426 net.cpp:399] inception_3a/3x3_reduce -> inception_3a/3x3_reduce
I0403 19:00:33.555204  8426 net.cpp:141] Setting up inception_3a/3x3_reduce
I0403 19:00:33.555236  8426 net.cpp:148] Top shape: 24 96 28 28 (1806336)
I0403 19:00:33.555253  8426 net.cpp:156] Memory required for data: 508183584
I0403 19:00:33.555277  8426 layer_factory.hpp:77] Creating layer inception_3a/relu_3x3_reduce
I0403 19:00:33.555315  8426 net.cpp:91] Creating Layer inception_3a/relu_3x3_reduce
I0403 19:00:33.555335  8426 net.cpp:425] inception_3a/relu_3x3_reduce <- inception_3a/3x3_reduce
I0403 19:00:33.555354  8426 net.cpp:386] inception_3a/relu_3x3_reduce -> inception_3a/3x3_reduce (in-place)
I0403 19:00:33.555546  8426 net.cpp:141] Setting up inception_3a/relu_3x3_reduce
I0403 19:00:33.555572  8426 net.cpp:148] Top shape: 24 96 28 28 (1806336)
I0403 19:00:33.555588  8426 net.cpp:156] Memory required for data: 515408928
I0403 19:00:33.555604  8426 layer_factory.hpp:77] Creating layer inception_3a/3x3
I0403 19:00:33.555629  8426 net.cpp:91] Creating Layer inception_3a/3x3
I0403 19:00:33.555647  8426 net.cpp:425] inception_3a/3x3 <- inception_3a/3x3_reduce
I0403 19:00:33.555671  8426 net.cpp:399] inception_3a/3x3 -> inception_3a/3x3
I0403 19:00:33.557410  8426 net.cpp:141] Setting up inception_3a/3x3
I0403 19:00:33.557440  8426 net.cpp:148] Top shape: 24 128 28 28 (2408448)
I0403 19:00:33.557458  8426 net.cpp:156] Memory required for data: 525042720
I0403 19:00:33.557477  8426 layer_factory.hpp:77] Creating layer inception_3a/relu_3x3
I0403 19:00:33.557499  8426 net.cpp:91] Creating Layer inception_3a/relu_3x3
I0403 19:00:33.557517  8426 net.cpp:425] inception_3a/relu_3x3 <- inception_3a/3x3
I0403 19:00:33.557535  8426 net.cpp:386] inception_3a/relu_3x3 -> inception_3a/3x3 (in-place)
I0403 19:00:33.557821  8426 net.cpp:141] Setting up inception_3a/relu_3x3
I0403 19:00:33.557849  8426 net.cpp:148] Top shape: 24 128 28 28 (2408448)
I0403 19:00:33.557865  8426 net.cpp:156] Memory required for data: 534676512
I0403 19:00:33.557881  8426 layer_factory.hpp:77] Creating layer inception_3a/5x5_reduce
I0403 19:00:33.557906  8426 net.cpp:91] Creating Layer inception_3a/5x5_reduce
I0403 19:00:33.557924  8426 net.cpp:425] inception_3a/5x5_reduce <- pool2/3x3_s2_pool2/3x3_s2_0_split_2
I0403 19:00:33.557946  8426 net.cpp:399] inception_3a/5x5_reduce -> inception_3a/5x5_reduce
I0403 19:00:33.558959  8426 net.cpp:141] Setting up inception_3a/5x5_reduce
I0403 19:00:33.558991  8426 net.cpp:148] Top shape: 24 16 28 28 (301056)
I0403 19:00:33.559010  8426 net.cpp:156] Memory required for data: 535880736
I0403 19:00:33.559029  8426 layer_factory.hpp:77] Creating layer inception_3a/relu_5x5_reduce
I0403 19:00:33.559048  8426 net.cpp:91] Creating Layer inception_3a/relu_5x5_reduce
I0403 19:00:33.559065  8426 net.cpp:425] inception_3a/relu_5x5_reduce <- inception_3a/5x5_reduce
I0403 19:00:33.559083  8426 net.cpp:386] inception_3a/relu_5x5_reduce -> inception_3a/5x5_reduce (in-place)
I0403 19:00:33.559383  8426 net.cpp:141] Setting up inception_3a/relu_5x5_reduce
I0403 19:00:33.559413  8426 net.cpp:148] Top shape: 24 16 28 28 (301056)
I0403 19:00:33.559430  8426 net.cpp:156] Memory required for data: 537084960
I0403 19:00:33.559447  8426 layer_factory.hpp:77] Creating layer inception_3a/5x5
I0403 19:00:33.559470  8426 net.cpp:91] Creating Layer inception_3a/5x5
I0403 19:00:33.559489  8426 net.cpp:425] inception_3a/5x5 <- inception_3a/5x5_reduce
I0403 19:00:33.559509  8426 net.cpp:399] inception_3a/5x5 -> inception_3a/5x5
I0403 19:00:33.560642  8426 net.cpp:141] Setting up inception_3a/5x5
I0403 19:00:33.560672  8426 net.cpp:148] Top shape: 24 32 28 28 (602112)
I0403 19:00:33.560689  8426 net.cpp:156] Memory required for data: 539493408
I0403 19:00:33.560709  8426 layer_factory.hpp:77] Creating layer inception_3a/relu_5x5
I0403 19:00:33.560731  8426 net.cpp:91] Creating Layer inception_3a/relu_5x5
I0403 19:00:33.560750  8426 net.cpp:425] inception_3a/relu_5x5 <- inception_3a/5x5
I0403 19:00:33.560767  8426 net.cpp:386] inception_3a/relu_5x5 -> inception_3a/5x5 (in-place)
I0403 19:00:33.560951  8426 net.cpp:141] Setting up inception_3a/relu_5x5
I0403 19:00:33.560977  8426 net.cpp:148] Top shape: 24 32 28 28 (602112)
I0403 19:00:33.560993  8426 net.cpp:156] Memory required for data: 541901856
I0403 19:00:33.561009  8426 layer_factory.hpp:77] Creating layer inception_3a/pool
I0403 19:00:33.561031  8426 net.cpp:91] Creating Layer inception_3a/pool
I0403 19:00:33.561063  8426 net.cpp:425] inception_3a/pool <- pool2/3x3_s2_pool2/3x3_s2_0_split_3
I0403 19:00:33.561085  8426 net.cpp:399] inception_3a/pool -> inception_3a/pool
I0403 19:00:33.561146  8426 net.cpp:141] Setting up inception_3a/pool
I0403 19:00:33.561170  8426 net.cpp:148] Top shape: 24 192 28 28 (3612672)
I0403 19:00:33.561192  8426 net.cpp:156] Memory required for data: 556352544
I0403 19:00:33.561209  8426 layer_factory.hpp:77] Creating layer inception_3a/pool_proj
I0403 19:00:33.561233  8426 net.cpp:91] Creating Layer inception_3a/pool_proj
I0403 19:00:33.561251  8426 net.cpp:425] inception_3a/pool_proj <- inception_3a/pool
I0403 19:00:33.561275  8426 net.cpp:399] inception_3a/pool_proj -> inception_3a/pool_proj
I0403 19:00:33.562314  8426 net.cpp:141] Setting up inception_3a/pool_proj
I0403 19:00:33.562343  8426 net.cpp:148] Top shape: 24 32 28 28 (602112)
I0403 19:00:33.562361  8426 net.cpp:156] Memory required for data: 558760992
I0403 19:00:33.562387  8426 layer_factory.hpp:77] Creating layer inception_3a/relu_pool_proj
I0403 19:00:33.562408  8426 net.cpp:91] Creating Layer inception_3a/relu_pool_proj
I0403 19:00:33.562425  8426 net.cpp:425] inception_3a/relu_pool_proj <- inception_3a/pool_proj
I0403 19:00:33.562443  8426 net.cpp:386] inception_3a/relu_pool_proj -> inception_3a/pool_proj (in-place)
I0403 19:00:33.562728  8426 net.cpp:141] Setting up inception_3a/relu_pool_proj
I0403 19:00:33.562757  8426 net.cpp:148] Top shape: 24 32 28 28 (602112)
I0403 19:00:33.562773  8426 net.cpp:156] Memory required for data: 561169440
I0403 19:00:33.562790  8426 layer_factory.hpp:77] Creating layer inception_3a/output
I0403 19:00:33.562811  8426 net.cpp:91] Creating Layer inception_3a/output
I0403 19:00:33.562829  8426 net.cpp:425] inception_3a/output <- inception_3a/1x1
I0403 19:00:33.562847  8426 net.cpp:425] inception_3a/output <- inception_3a/3x3
I0403 19:00:33.562865  8426 net.cpp:425] inception_3a/output <- inception_3a/5x5
I0403 19:00:33.562881  8426 net.cpp:425] inception_3a/output <- inception_3a/pool_proj
I0403 19:00:33.562898  8426 net.cpp:399] inception_3a/output -> inception_3a/output
I0403 19:00:33.562949  8426 net.cpp:141] Setting up inception_3a/output
I0403 19:00:33.562973  8426 net.cpp:148] Top shape: 24 256 28 28 (4816896)
I0403 19:00:33.562988  8426 net.cpp:156] Memory required for data: 580437024
I0403 19:00:33.563004  8426 layer_factory.hpp:77] Creating layer inception_3a/output_inception_3a/output_0_split
I0403 19:00:33.563022  8426 net.cpp:91] Creating Layer inception_3a/output_inception_3a/output_0_split
I0403 19:00:33.563038  8426 net.cpp:425] inception_3a/output_inception_3a/output_0_split <- inception_3a/output
I0403 19:00:33.563060  8426 net.cpp:399] inception_3a/output_inception_3a/output_0_split -> inception_3a/output_inception_3a/output_0_split_0
I0403 19:00:33.563081  8426 net.cpp:399] inception_3a/output_inception_3a/output_0_split -> inception_3a/output_inception_3a/output_0_split_1
I0403 19:00:33.563105  8426 net.cpp:399] inception_3a/output_inception_3a/output_0_split -> inception_3a/output_inception_3a/output_0_split_2
I0403 19:00:33.563129  8426 net.cpp:399] inception_3a/output_inception_3a/output_0_split -> inception_3a/output_inception_3a/output_0_split_3
I0403 19:00:33.563217  8426 net.cpp:141] Setting up inception_3a/output_inception_3a/output_0_split
I0403 19:00:33.563242  8426 net.cpp:148] Top shape: 24 256 28 28 (4816896)
I0403 19:00:33.563261  8426 net.cpp:148] Top shape: 24 256 28 28 (4816896)
I0403 19:00:33.563277  8426 net.cpp:148] Top shape: 24 256 28 28 (4816896)
I0403 19:00:33.563294  8426 net.cpp:148] Top shape: 24 256 28 28 (4816896)
I0403 19:00:33.563308  8426 net.cpp:156] Memory required for data: 657507360
I0403 19:00:33.563324  8426 layer_factory.hpp:77] Creating layer inception_3b/1x1
I0403 19:00:33.563347  8426 net.cpp:91] Creating Layer inception_3b/1x1
I0403 19:00:33.563366  8426 net.cpp:425] inception_3b/1x1 <- inception_3a/output_inception_3a/output_0_split_0
I0403 19:00:33.563392  8426 net.cpp:399] inception_3b/1x1 -> inception_3b/1x1
I0403 19:00:33.564585  8426 net.cpp:141] Setting up inception_3b/1x1
I0403 19:00:33.564627  8426 net.cpp:148] Top shape: 24 128 28 28 (2408448)
I0403 19:00:33.564645  8426 net.cpp:156] Memory required for data: 667141152
I0403 19:00:33.564664  8426 layer_factory.hpp:77] Creating layer inception_3b/relu_1x1
I0403 19:00:33.564683  8426 net.cpp:91] Creating Layer inception_3b/relu_1x1
I0403 19:00:33.564699  8426 net.cpp:425] inception_3b/relu_1x1 <- inception_3b/1x1
I0403 19:00:33.564720  8426 net.cpp:386] inception_3b/relu_1x1 -> inception_3b/1x1 (in-place)
I0403 19:00:33.564908  8426 net.cpp:141] Setting up inception_3b/relu_1x1
I0403 19:00:33.564934  8426 net.cpp:148] Top shape: 24 128 28 28 (2408448)
I0403 19:00:33.564951  8426 net.cpp:156] Memory required for data: 676774944
I0403 19:00:33.564967  8426 layer_factory.hpp:77] Creating layer inception_3b/3x3_reduce
I0403 19:00:33.564991  8426 net.cpp:91] Creating Layer inception_3b/3x3_reduce
I0403 19:00:33.565009  8426 net.cpp:425] inception_3b/3x3_reduce <- inception_3a/output_inception_3a/output_0_split_1
I0403 19:00:33.565032  8426 net.cpp:399] inception_3b/3x3_reduce -> inception_3b/3x3_reduce
I0403 19:00:33.566233  8426 net.cpp:141] Setting up inception_3b/3x3_reduce
I0403 19:00:33.566262  8426 net.cpp:148] Top shape: 24 128 28 28 (2408448)
I0403 19:00:33.566279  8426 net.cpp:156] Memory required for data: 686408736
I0403 19:00:33.566300  8426 layer_factory.hpp:77] Creating layer inception_3b/relu_3x3_reduce
I0403 19:00:33.566323  8426 net.cpp:91] Creating Layer inception_3b/relu_3x3_reduce
I0403 19:00:33.566339  8426 net.cpp:425] inception_3b/relu_3x3_reduce <- inception_3b/3x3_reduce
I0403 19:00:33.566357  8426 net.cpp:386] inception_3b/relu_3x3_reduce -> inception_3b/3x3_reduce (in-place)
I0403 19:00:33.566540  8426 net.cpp:141] Setting up inception_3b/relu_3x3_reduce
I0403 19:00:33.566566  8426 net.cpp:148] Top shape: 24 128 28 28 (2408448)
I0403 19:00:33.566582  8426 net.cpp:156] Memory required for data: 696042528
I0403 19:00:33.566597  8426 layer_factory.hpp:77] Creating layer inception_3b/3x3
I0403 19:00:33.566624  8426 net.cpp:91] Creating Layer inception_3b/3x3
I0403 19:00:33.566644  8426 net.cpp:425] inception_3b/3x3 <- inception_3b/3x3_reduce
I0403 19:00:33.566664  8426 net.cpp:399] inception_3b/3x3 -> inception_3b/3x3
I0403 19:00:33.569731  8426 net.cpp:141] Setting up inception_3b/3x3
I0403 19:00:33.569763  8426 net.cpp:148] Top shape: 24 192 28 28 (3612672)
I0403 19:00:33.569780  8426 net.cpp:156] Memory required for data: 710493216
I0403 19:00:33.569800  8426 layer_factory.hpp:77] Creating layer inception_3b/relu_3x3
I0403 19:00:33.569823  8426 net.cpp:91] Creating Layer inception_3b/relu_3x3
I0403 19:00:33.569840  8426 net.cpp:425] inception_3b/relu_3x3 <- inception_3b/3x3
I0403 19:00:33.569859  8426 net.cpp:386] inception_3b/relu_3x3 -> inception_3b/3x3 (in-place)
I0403 19:00:33.570145  8426 net.cpp:141] Setting up inception_3b/relu_3x3
I0403 19:00:33.570173  8426 net.cpp:148] Top shape: 24 192 28 28 (3612672)
I0403 19:00:33.570195  8426 net.cpp:156] Memory required for data: 724943904
I0403 19:00:33.570211  8426 layer_factory.hpp:77] Creating layer inception_3b/5x5_reduce
I0403 19:00:33.570235  8426 net.cpp:91] Creating Layer inception_3b/5x5_reduce
I0403 19:00:33.570255  8426 net.cpp:425] inception_3b/5x5_reduce <- inception_3a/output_inception_3a/output_0_split_2
I0403 19:00:33.570279  8426 net.cpp:399] inception_3b/5x5_reduce -> inception_3b/5x5_reduce
I0403 19:00:33.571329  8426 net.cpp:141] Setting up inception_3b/5x5_reduce
I0403 19:00:33.571358  8426 net.cpp:148] Top shape: 24 32 28 28 (602112)
I0403 19:00:33.571375  8426 net.cpp:156] Memory required for data: 727352352
I0403 19:00:33.571394  8426 layer_factory.hpp:77] Creating layer inception_3b/relu_5x5_reduce
I0403 19:00:33.571418  8426 net.cpp:91] Creating Layer inception_3b/relu_5x5_reduce
I0403 19:00:33.571435  8426 net.cpp:425] inception_3b/relu_5x5_reduce <- inception_3b/5x5_reduce
I0403 19:00:33.571455  8426 net.cpp:386] inception_3b/relu_5x5_reduce -> inception_3b/5x5_reduce (in-place)
I0403 19:00:33.571658  8426 net.cpp:141] Setting up inception_3b/relu_5x5_reduce
I0403 19:00:33.571691  8426 net.cpp:148] Top shape: 24 32 28 28 (602112)
I0403 19:00:33.571707  8426 net.cpp:156] Memory required for data: 729760800
I0403 19:00:33.571724  8426 layer_factory.hpp:77] Creating layer inception_3b/5x5
I0403 19:00:33.571749  8426 net.cpp:91] Creating Layer inception_3b/5x5
I0403 19:00:33.571768  8426 net.cpp:425] inception_3b/5x5 <- inception_3b/5x5_reduce
I0403 19:00:33.571789  8426 net.cpp:399] inception_3b/5x5 -> inception_3b/5x5
I0403 19:00:33.573858  8426 net.cpp:141] Setting up inception_3b/5x5
I0403 19:00:33.573889  8426 net.cpp:148] Top shape: 24 96 28 28 (1806336)
I0403 19:00:33.573906  8426 net.cpp:156] Memory required for data: 736986144
I0403 19:00:33.573926  8426 layer_factory.hpp:77] Creating layer inception_3b/relu_5x5
I0403 19:00:33.573950  8426 net.cpp:91] Creating Layer inception_3b/relu_5x5
I0403 19:00:33.573967  8426 net.cpp:425] inception_3b/relu_5x5 <- inception_3b/5x5
I0403 19:00:33.573985  8426 net.cpp:386] inception_3b/relu_5x5 -> inception_3b/5x5 (in-place)
I0403 19:00:33.574190  8426 net.cpp:141] Setting up inception_3b/relu_5x5
I0403 19:00:33.574218  8426 net.cpp:148] Top shape: 24 96 28 28 (1806336)
I0403 19:00:33.574234  8426 net.cpp:156] Memory required for data: 744211488
I0403 19:00:33.574251  8426 layer_factory.hpp:77] Creating layer inception_3b/pool
I0403 19:00:33.574270  8426 net.cpp:91] Creating Layer inception_3b/pool
I0403 19:00:33.574287  8426 net.cpp:425] inception_3b/pool <- inception_3a/output_inception_3a/output_0_split_3
I0403 19:00:33.574307  8426 net.cpp:399] inception_3b/pool -> inception_3b/pool
I0403 19:00:33.574369  8426 net.cpp:141] Setting up inception_3b/pool
I0403 19:00:33.574395  8426 net.cpp:148] Top shape: 24 256 28 28 (4816896)
I0403 19:00:33.574410  8426 net.cpp:156] Memory required for data: 763479072
I0403 19:00:33.574426  8426 layer_factory.hpp:77] Creating layer inception_3b/pool_proj
I0403 19:00:33.574450  8426 net.cpp:91] Creating Layer inception_3b/pool_proj
I0403 19:00:33.574470  8426 net.cpp:425] inception_3b/pool_proj <- inception_3b/pool
I0403 19:00:33.574491  8426 net.cpp:399] inception_3b/pool_proj -> inception_3b/pool_proj
I0403 19:00:33.575644  8426 net.cpp:141] Setting up inception_3b/pool_proj
I0403 19:00:33.575676  8426 net.cpp:148] Top shape: 24 64 28 28 (1204224)
I0403 19:00:33.575696  8426 net.cpp:156] Memory required for data: 768295968
I0403 19:00:33.575716  8426 layer_factory.hpp:77] Creating layer inception_3b/relu_pool_proj
I0403 19:00:33.575736  8426 net.cpp:91] Creating Layer inception_3b/relu_pool_proj
I0403 19:00:33.575752  8426 net.cpp:425] inception_3b/relu_pool_proj <- inception_3b/pool_proj
I0403 19:00:33.575773  8426 net.cpp:386] inception_3b/relu_pool_proj -> inception_3b/pool_proj (in-place)
I0403 19:00:33.576174  8426 net.cpp:141] Setting up inception_3b/relu_pool_proj
I0403 19:00:33.576210  8426 net.cpp:148] Top shape: 24 64 28 28 (1204224)
I0403 19:00:33.576228  8426 net.cpp:156] Memory required for data: 773112864
I0403 19:00:33.576246  8426 layer_factory.hpp:77] Creating layer inception_3b/output
I0403 19:00:33.576264  8426 net.cpp:91] Creating Layer inception_3b/output
I0403 19:00:33.576280  8426 net.cpp:425] inception_3b/output <- inception_3b/1x1
I0403 19:00:33.576298  8426 net.cpp:425] inception_3b/output <- inception_3b/3x3
I0403 19:00:33.576318  8426 net.cpp:425] inception_3b/output <- inception_3b/5x5
I0403 19:00:33.576333  8426 net.cpp:425] inception_3b/output <- inception_3b/pool_proj
I0403 19:00:33.576351  8426 net.cpp:399] inception_3b/output -> inception_3b/output
I0403 19:00:33.576400  8426 net.cpp:141] Setting up inception_3b/output
I0403 19:00:33.576424  8426 net.cpp:148] Top shape: 24 480 28 28 (9031680)
I0403 19:00:33.576441  8426 net.cpp:156] Memory required for data: 809239584
I0403 19:00:33.576457  8426 layer_factory.hpp:77] Creating layer pool3/3x3_s2
I0403 19:00:33.576479  8426 net.cpp:91] Creating Layer pool3/3x3_s2
I0403 19:00:33.576498  8426 net.cpp:425] pool3/3x3_s2 <- inception_3b/output
I0403 19:00:33.576534  8426 net.cpp:399] pool3/3x3_s2 -> pool3/3x3_s2
I0403 19:00:33.576597  8426 net.cpp:141] Setting up pool3/3x3_s2
I0403 19:00:33.576622  8426 net.cpp:148] Top shape: 24 480 14 14 (2257920)
I0403 19:00:33.576638  8426 net.cpp:156] Memory required for data: 818271264
I0403 19:00:33.576654  8426 layer_factory.hpp:77] Creating layer pool3/3x3_s2_pool3/3x3_s2_0_split
I0403 19:00:33.576674  8426 net.cpp:91] Creating Layer pool3/3x3_s2_pool3/3x3_s2_0_split
I0403 19:00:33.576690  8426 net.cpp:425] pool3/3x3_s2_pool3/3x3_s2_0_split <- pool3/3x3_s2
I0403 19:00:33.576711  8426 net.cpp:399] pool3/3x3_s2_pool3/3x3_s2_0_split -> pool3/3x3_s2_pool3/3x3_s2_0_split_0
I0403 19:00:33.576733  8426 net.cpp:399] pool3/3x3_s2_pool3/3x3_s2_0_split -> pool3/3x3_s2_pool3/3x3_s2_0_split_1
I0403 19:00:33.576756  8426 net.cpp:399] pool3/3x3_s2_pool3/3x3_s2_0_split -> pool3/3x3_s2_pool3/3x3_s2_0_split_2
I0403 19:00:33.576776  8426 net.cpp:399] pool3/3x3_s2_pool3/3x3_s2_0_split -> pool3/3x3_s2_pool3/3x3_s2_0_split_3
I0403 19:00:33.576860  8426 net.cpp:141] Setting up pool3/3x3_s2_pool3/3x3_s2_0_split
I0403 19:00:33.576886  8426 net.cpp:148] Top shape: 24 480 14 14 (2257920)
I0403 19:00:33.576905  8426 net.cpp:148] Top shape: 24 480 14 14 (2257920)
I0403 19:00:33.576921  8426 net.cpp:148] Top shape: 24 480 14 14 (2257920)
I0403 19:00:33.576939  8426 net.cpp:148] Top shape: 24 480 14 14 (2257920)
I0403 19:00:33.576954  8426 net.cpp:156] Memory required for data: 854397984
I0403 19:00:33.576972  8426 layer_factory.hpp:77] Creating layer inception_4a/1x1
I0403 19:00:33.576994  8426 net.cpp:91] Creating Layer inception_4a/1x1
I0403 19:00:33.577013  8426 net.cpp:425] inception_4a/1x1 <- pool3/3x3_s2_pool3/3x3_s2_0_split_0
I0403 19:00:33.577034  8426 net.cpp:399] inception_4a/1x1 -> inception_4a/1x1
I0403 19:00:33.578697  8426 net.cpp:141] Setting up inception_4a/1x1
I0403 19:00:33.578730  8426 net.cpp:148] Top shape: 24 192 14 14 (903168)
I0403 19:00:33.578749  8426 net.cpp:156] Memory required for data: 858010656
I0403 19:00:33.578769  8426 layer_factory.hpp:77] Creating layer inception_4a/relu_1x1
I0403 19:00:33.578789  8426 net.cpp:91] Creating Layer inception_4a/relu_1x1
I0403 19:00:33.578806  8426 net.cpp:425] inception_4a/relu_1x1 <- inception_4a/1x1
I0403 19:00:33.578827  8426 net.cpp:386] inception_4a/relu_1x1 -> inception_4a/1x1 (in-place)
I0403 19:00:33.579015  8426 net.cpp:141] Setting up inception_4a/relu_1x1
I0403 19:00:33.579041  8426 net.cpp:148] Top shape: 24 192 14 14 (903168)
I0403 19:00:33.579057  8426 net.cpp:156] Memory required for data: 861623328
I0403 19:00:33.579073  8426 layer_factory.hpp:77] Creating layer inception_4a/3x3_reduce
I0403 19:00:33.579102  8426 net.cpp:91] Creating Layer inception_4a/3x3_reduce
I0403 19:00:33.579121  8426 net.cpp:425] inception_4a/3x3_reduce <- pool3/3x3_s2_pool3/3x3_s2_0_split_1
I0403 19:00:33.579145  8426 net.cpp:399] inception_4a/3x3_reduce -> inception_4a/3x3_reduce
I0403 19:00:33.580490  8426 net.cpp:141] Setting up inception_4a/3x3_reduce
I0403 19:00:33.580521  8426 net.cpp:148] Top shape: 24 96 14 14 (451584)
I0403 19:00:33.580538  8426 net.cpp:156] Memory required for data: 863429664
I0403 19:00:33.580560  8426 layer_factory.hpp:77] Creating layer inception_4a/relu_3x3_reduce
I0403 19:00:33.580585  8426 net.cpp:91] Creating Layer inception_4a/relu_3x3_reduce
I0403 19:00:33.580605  8426 net.cpp:425] inception_4a/relu_3x3_reduce <- inception_4a/3x3_reduce
I0403 19:00:33.580624  8426 net.cpp:386] inception_4a/relu_3x3_reduce -> inception_4a/3x3_reduce (in-place)
I0403 19:00:33.580812  8426 net.cpp:141] Setting up inception_4a/relu_3x3_reduce
I0403 19:00:33.580838  8426 net.cpp:148] Top shape: 24 96 14 14 (451584)
I0403 19:00:33.580854  8426 net.cpp:156] Memory required for data: 865236000
I0403 19:00:33.580871  8426 layer_factory.hpp:77] Creating layer inception_4a/3x3
I0403 19:00:33.580894  8426 net.cpp:91] Creating Layer inception_4a/3x3
I0403 19:00:33.580915  8426 net.cpp:425] inception_4a/3x3 <- inception_4a/3x3_reduce
I0403 19:00:33.580940  8426 net.cpp:399] inception_4a/3x3 -> inception_4a/3x3
I0403 19:00:33.583791  8426 net.cpp:141] Setting up inception_4a/3x3
I0403 19:00:33.583822  8426 net.cpp:148] Top shape: 24 208 14 14 (978432)
I0403 19:00:33.583840  8426 net.cpp:156] Memory required for data: 869149728
I0403 19:00:33.583860  8426 layer_factory.hpp:77] Creating layer inception_4a/relu_3x3
I0403 19:00:33.583884  8426 net.cpp:91] Creating Layer inception_4a/relu_3x3
I0403 19:00:33.583901  8426 net.cpp:425] inception_4a/relu_3x3 <- inception_4a/3x3
I0403 19:00:33.583920  8426 net.cpp:386] inception_4a/relu_3x3 -> inception_4a/3x3 (in-place)
I0403 19:00:33.584220  8426 net.cpp:141] Setting up inception_4a/relu_3x3
I0403 19:00:33.584249  8426 net.cpp:148] Top shape: 24 208 14 14 (978432)
I0403 19:00:33.584266  8426 net.cpp:156] Memory required for data: 873063456
I0403 19:00:33.584283  8426 layer_factory.hpp:77] Creating layer inception_4a/5x5_reduce
I0403 19:00:33.584311  8426 net.cpp:91] Creating Layer inception_4a/5x5_reduce
I0403 19:00:33.584331  8426 net.cpp:425] inception_4a/5x5_reduce <- pool3/3x3_s2_pool3/3x3_s2_0_split_2
I0403 19:00:33.584353  8426 net.cpp:399] inception_4a/5x5_reduce -> inception_4a/5x5_reduce
I0403 19:00:33.585436  8426 net.cpp:141] Setting up inception_4a/5x5_reduce
I0403 19:00:33.585466  8426 net.cpp:148] Top shape: 24 16 14 14 (75264)
I0403 19:00:33.585484  8426 net.cpp:156] Memory required for data: 873364512
I0403 19:00:33.585505  8426 layer_factory.hpp:77] Creating layer inception_4a/relu_5x5_reduce
I0403 19:00:33.585528  8426 net.cpp:91] Creating Layer inception_4a/relu_5x5_reduce
I0403 19:00:33.585546  8426 net.cpp:425] inception_4a/relu_5x5_reduce <- inception_4a/5x5_reduce
I0403 19:00:33.585566  8426 net.cpp:386] inception_4a/relu_5x5_reduce -> inception_4a/5x5_reduce (in-place)
I0403 19:00:33.585755  8426 net.cpp:141] Setting up inception_4a/relu_5x5_reduce
I0403 19:00:33.585783  8426 net.cpp:148] Top shape: 24 16 14 14 (75264)
I0403 19:00:33.585798  8426 net.cpp:156] Memory required for data: 873665568
I0403 19:00:33.585814  8426 layer_factory.hpp:77] Creating layer inception_4a/5x5
I0403 19:00:33.585840  8426 net.cpp:91] Creating Layer inception_4a/5x5
I0403 19:00:33.585860  8426 net.cpp:425] inception_4a/5x5 <- inception_4a/5x5_reduce
I0403 19:00:33.585880  8426 net.cpp:399] inception_4a/5x5 -> inception_4a/5x5
I0403 19:00:33.587021  8426 net.cpp:141] Setting up inception_4a/5x5
I0403 19:00:33.587055  8426 net.cpp:148] Top shape: 24 48 14 14 (225792)
I0403 19:00:33.587074  8426 net.cpp:156] Memory required for data: 874568736
I0403 19:00:33.587095  8426 layer_factory.hpp:77] Creating layer inception_4a/relu_5x5
I0403 19:00:33.587113  8426 net.cpp:91] Creating Layer inception_4a/relu_5x5
I0403 19:00:33.587131  8426 net.cpp:425] inception_4a/relu_5x5 <- inception_4a/5x5
I0403 19:00:33.587151  8426 net.cpp:386] inception_4a/relu_5x5 -> inception_4a/5x5 (in-place)
I0403 19:00:33.587347  8426 net.cpp:141] Setting up inception_4a/relu_5x5
I0403 19:00:33.587375  8426 net.cpp:148] Top shape: 24 48 14 14 (225792)
I0403 19:00:33.587393  8426 net.cpp:156] Memory required for data: 875471904
I0403 19:00:33.587409  8426 layer_factory.hpp:77] Creating layer inception_4a/pool
I0403 19:00:33.587429  8426 net.cpp:91] Creating Layer inception_4a/pool
I0403 19:00:33.587445  8426 net.cpp:425] inception_4a/pool <- pool3/3x3_s2_pool3/3x3_s2_0_split_3
I0403 19:00:33.587466  8426 net.cpp:399] inception_4a/pool -> inception_4a/pool
I0403 19:00:33.587532  8426 net.cpp:141] Setting up inception_4a/pool
I0403 19:00:33.587560  8426 net.cpp:148] Top shape: 24 480 14 14 (2257920)
I0403 19:00:33.587577  8426 net.cpp:156] Memory required for data: 884503584
I0403 19:00:33.587594  8426 layer_factory.hpp:77] Creating layer inception_4a/pool_proj
I0403 19:00:33.587618  8426 net.cpp:91] Creating Layer inception_4a/pool_proj
I0403 19:00:33.587638  8426 net.cpp:425] inception_4a/pool_proj <- inception_4a/pool
I0403 19:00:33.587658  8426 net.cpp:399] inception_4a/pool_proj -> inception_4a/pool_proj
I0403 19:00:33.588886  8426 net.cpp:141] Setting up inception_4a/pool_proj
I0403 19:00:33.588919  8426 net.cpp:148] Top shape: 24 64 14 14 (301056)
I0403 19:00:33.588953  8426 net.cpp:156] Memory required for data: 885707808
I0403 19:00:33.588974  8426 layer_factory.hpp:77] Creating layer inception_4a/relu_pool_proj
I0403 19:00:33.588994  8426 net.cpp:91] Creating Layer inception_4a/relu_pool_proj
I0403 19:00:33.589011  8426 net.cpp:425] inception_4a/relu_pool_proj <- inception_4a/pool_proj
I0403 19:00:33.589035  8426 net.cpp:386] inception_4a/relu_pool_proj -> inception_4a/pool_proj (in-place)
I0403 19:00:33.589337  8426 net.cpp:141] Setting up inception_4a/relu_pool_proj
I0403 19:00:33.589368  8426 net.cpp:148] Top shape: 24 64 14 14 (301056)
I0403 19:00:33.589385  8426 net.cpp:156] Memory required for data: 886912032
I0403 19:00:33.589402  8426 layer_factory.hpp:77] Creating layer inception_4a/output
I0403 19:00:33.589422  8426 net.cpp:91] Creating Layer inception_4a/output
I0403 19:00:33.589439  8426 net.cpp:425] inception_4a/output <- inception_4a/1x1
I0403 19:00:33.589458  8426 net.cpp:425] inception_4a/output <- inception_4a/3x3
I0403 19:00:33.589476  8426 net.cpp:425] inception_4a/output <- inception_4a/5x5
I0403 19:00:33.589493  8426 net.cpp:425] inception_4a/output <- inception_4a/pool_proj
I0403 19:00:33.589511  8426 net.cpp:399] inception_4a/output -> inception_4a/output
I0403 19:00:33.589560  8426 net.cpp:141] Setting up inception_4a/output
I0403 19:00:33.589586  8426 net.cpp:148] Top shape: 24 512 14 14 (2408448)
I0403 19:00:33.589602  8426 net.cpp:156] Memory required for data: 896545824
I0403 19:00:33.589618  8426 layer_factory.hpp:77] Creating layer inception_4a/output_inception_4a/output_0_split
I0403 19:00:33.589639  8426 net.cpp:91] Creating Layer inception_4a/output_inception_4a/output_0_split
I0403 19:00:33.589658  8426 net.cpp:425] inception_4a/output_inception_4a/output_0_split <- inception_4a/output
I0403 19:00:33.589678  8426 net.cpp:399] inception_4a/output_inception_4a/output_0_split -> inception_4a/output_inception_4a/output_0_split_0
I0403 19:00:33.589699  8426 net.cpp:399] inception_4a/output_inception_4a/output_0_split -> inception_4a/output_inception_4a/output_0_split_1
I0403 19:00:33.589722  8426 net.cpp:399] inception_4a/output_inception_4a/output_0_split -> inception_4a/output_inception_4a/output_0_split_2
I0403 19:00:33.589747  8426 net.cpp:399] inception_4a/output_inception_4a/output_0_split -> inception_4a/output_inception_4a/output_0_split_3
I0403 19:00:33.589769  8426 net.cpp:399] inception_4a/output_inception_4a/output_0_split -> inception_4a/output_inception_4a/output_0_split_4
I0403 19:00:33.589870  8426 net.cpp:141] Setting up inception_4a/output_inception_4a/output_0_split
I0403 19:00:33.589895  8426 net.cpp:148] Top shape: 24 512 14 14 (2408448)
I0403 19:00:33.589913  8426 net.cpp:148] Top shape: 24 512 14 14 (2408448)
I0403 19:00:33.589931  8426 net.cpp:148] Top shape: 24 512 14 14 (2408448)
I0403 19:00:33.589948  8426 net.cpp:148] Top shape: 24 512 14 14 (2408448)
I0403 19:00:33.589965  8426 net.cpp:148] Top shape: 24 512 14 14 (2408448)
I0403 19:00:33.589980  8426 net.cpp:156] Memory required for data: 944714784
I0403 19:00:33.589997  8426 layer_factory.hpp:77] Creating layer loss1/ave_pool
I0403 19:00:33.590018  8426 net.cpp:91] Creating Layer loss1/ave_pool
I0403 19:00:33.590036  8426 net.cpp:425] loss1/ave_pool <- inception_4a/output_inception_4a/output_0_split_0
I0403 19:00:33.590056  8426 net.cpp:399] loss1/ave_pool -> loss1/ave_pool
I0403 19:00:33.590284  8426 net.cpp:141] Setting up loss1/ave_pool
I0403 19:00:33.590312  8426 net.cpp:148] Top shape: 24 512 4 4 (196608)
I0403 19:00:33.590329  8426 net.cpp:156] Memory required for data: 945501216
I0403 19:00:33.590345  8426 layer_factory.hpp:77] Creating layer loss1/conv
I0403 19:00:33.590369  8426 net.cpp:91] Creating Layer loss1/conv
I0403 19:00:33.590389  8426 net.cpp:425] loss1/conv <- loss1/ave_pool
I0403 19:00:33.590411  8426 net.cpp:399] loss1/conv -> loss1/conv
I0403 19:00:33.591894  8426 net.cpp:141] Setting up loss1/conv
I0403 19:00:33.591927  8426 net.cpp:148] Top shape: 24 128 4 4 (49152)
I0403 19:00:33.591958  8426 net.cpp:156] Memory required for data: 945697824
I0403 19:00:33.591979  8426 layer_factory.hpp:77] Creating layer loss1/relu_conv
I0403 19:00:33.592002  8426 net.cpp:91] Creating Layer loss1/relu_conv
I0403 19:00:33.592021  8426 net.cpp:425] loss1/relu_conv <- loss1/conv
I0403 19:00:33.592041  8426 net.cpp:386] loss1/relu_conv -> loss1/conv (in-place)
I0403 19:00:33.592353  8426 net.cpp:141] Setting up loss1/relu_conv
I0403 19:00:33.592382  8426 net.cpp:148] Top shape: 24 128 4 4 (49152)
I0403 19:00:33.592398  8426 net.cpp:156] Memory required for data: 945894432
I0403 19:00:33.592416  8426 layer_factory.hpp:77] Creating layer loss1/fc
I0403 19:00:33.592443  8426 net.cpp:91] Creating Layer loss1/fc
I0403 19:00:33.592466  8426 net.cpp:425] loss1/fc <- loss1/conv
I0403 19:00:33.592490  8426 net.cpp:399] loss1/fc -> loss1/fc
I0403 19:00:33.611443  8426 net.cpp:141] Setting up loss1/fc
I0403 19:00:33.611480  8426 net.cpp:148] Top shape: 24 1024 (24576)
I0403 19:00:33.611498  8426 net.cpp:156] Memory required for data: 945992736
I0403 19:00:33.611520  8426 layer_factory.hpp:77] Creating layer loss1/relu_fc
I0403 19:00:33.611539  8426 net.cpp:91] Creating Layer loss1/relu_fc
I0403 19:00:33.611557  8426 net.cpp:425] loss1/relu_fc <- loss1/fc
I0403 19:00:33.611578  8426 net.cpp:386] loss1/relu_fc -> loss1/fc (in-place)
I0403 19:00:33.611783  8426 net.cpp:141] Setting up loss1/relu_fc
I0403 19:00:33.611809  8426 net.cpp:148] Top shape: 24 1024 (24576)
I0403 19:00:33.611826  8426 net.cpp:156] Memory required for data: 946091040
I0403 19:00:33.611842  8426 layer_factory.hpp:77] Creating layer loss1/drop_fc
I0403 19:00:33.611872  8426 net.cpp:91] Creating Layer loss1/drop_fc
I0403 19:00:33.611892  8426 net.cpp:425] loss1/drop_fc <- loss1/fc
I0403 19:00:33.611910  8426 net.cpp:386] loss1/drop_fc -> loss1/fc (in-place)
I0403 19:00:33.611963  8426 net.cpp:141] Setting up loss1/drop_fc
I0403 19:00:33.611989  8426 net.cpp:148] Top shape: 24 1024 (24576)
I0403 19:00:33.612004  8426 net.cpp:156] Memory required for data: 946189344
I0403 19:00:33.612021  8426 layer_factory.hpp:77] Creating layer loss1/classifier_plantvillage
I0403 19:00:33.612043  8426 net.cpp:91] Creating Layer loss1/classifier_plantvillage
I0403 19:00:33.612061  8426 net.cpp:425] loss1/classifier_plantvillage <- loss1/fc
I0403 19:00:33.612083  8426 net.cpp:399] loss1/classifier_plantvillage -> loss1/classifier_plantvillage
I0403 19:00:33.613087  8426 net.cpp:141] Setting up loss1/classifier_plantvillage
I0403 19:00:33.613118  8426 net.cpp:148] Top shape: 24 38 (912)
I0403 19:00:33.613136  8426 net.cpp:156] Memory required for data: 946192992
I0403 19:00:33.613155  8426 layer_factory.hpp:77] Creating layer loss1/classifier_plantvillage_loss1/classifier_plantvillage_0_split
I0403 19:00:33.613175  8426 net.cpp:91] Creating Layer loss1/classifier_plantvillage_loss1/classifier_plantvillage_0_split
I0403 19:00:33.613198  8426 net.cpp:425] loss1/classifier_plantvillage_loss1/classifier_plantvillage_0_split <- loss1/classifier_plantvillage
I0403 19:00:33.613222  8426 net.cpp:399] loss1/classifier_plantvillage_loss1/classifier_plantvillage_0_split -> loss1/classifier_plantvillage_loss1/classifier_plantvillage_0_split_0
I0403 19:00:33.613245  8426 net.cpp:399] loss1/classifier_plantvillage_loss1/classifier_plantvillage_0_split -> loss1/classifier_plantvillage_loss1/classifier_plantvillage_0_split_1
I0403 19:00:33.613268  8426 net.cpp:399] loss1/classifier_plantvillage_loss1/classifier_plantvillage_0_split -> loss1/classifier_plantvillage_loss1/classifier_plantvillage_0_split_2
I0403 19:00:33.613340  8426 net.cpp:141] Setting up loss1/classifier_plantvillage_loss1/classifier_plantvillage_0_split
I0403 19:00:33.613368  8426 net.cpp:148] Top shape: 24 38 (912)
I0403 19:00:33.613387  8426 net.cpp:148] Top shape: 24 38 (912)
I0403 19:00:33.613404  8426 net.cpp:148] Top shape: 24 38 (912)
I0403 19:00:33.613420  8426 net.cpp:156] Memory required for data: 946203936
I0403 19:00:33.613435  8426 layer_factory.hpp:77] Creating layer inception_4b/1x1
I0403 19:00:33.613457  8426 net.cpp:91] Creating Layer inception_4b/1x1
I0403 19:00:33.613492  8426 net.cpp:425] inception_4b/1x1 <- inception_4a/output_inception_4a/output_0_split_1
I0403 19:00:33.613513  8426 net.cpp:399] inception_4b/1x1 -> inception_4b/1x1
I0403 19:00:33.615236  8426 net.cpp:141] Setting up inception_4b/1x1
I0403 19:00:33.615265  8426 net.cpp:148] Top shape: 24 160 14 14 (752640)
I0403 19:00:33.615283  8426 net.cpp:156] Memory required for data: 949214496
I0403 19:00:33.615303  8426 layer_factory.hpp:77] Creating layer inception_4b/relu_1x1
I0403 19:00:33.615325  8426 net.cpp:91] Creating Layer inception_4b/relu_1x1
I0403 19:00:33.615342  8426 net.cpp:425] inception_4b/relu_1x1 <- inception_4b/1x1
I0403 19:00:33.615361  8426 net.cpp:386] inception_4b/relu_1x1 -> inception_4b/1x1 (in-place)
I0403 19:00:33.615557  8426 net.cpp:141] Setting up inception_4b/relu_1x1
I0403 19:00:33.615584  8426 net.cpp:148] Top shape: 24 160 14 14 (752640)
I0403 19:00:33.615602  8426 net.cpp:156] Memory required for data: 952225056
I0403 19:00:33.615617  8426 layer_factory.hpp:77] Creating layer inception_4b/3x3_reduce
I0403 19:00:33.615643  8426 net.cpp:91] Creating Layer inception_4b/3x3_reduce
I0403 19:00:33.615663  8426 net.cpp:425] inception_4b/3x3_reduce <- inception_4a/output_inception_4a/output_0_split_2
I0403 19:00:33.615684  8426 net.cpp:399] inception_4b/3x3_reduce -> inception_4b/3x3_reduce
I0403 19:00:33.617115  8426 net.cpp:141] Setting up inception_4b/3x3_reduce
I0403 19:00:33.617146  8426 net.cpp:148] Top shape: 24 112 14 14 (526848)
I0403 19:00:33.617162  8426 net.cpp:156] Memory required for data: 954332448
I0403 19:00:33.617187  8426 layer_factory.hpp:77] Creating layer inception_4b/relu_3x3_reduce
I0403 19:00:33.617211  8426 net.cpp:91] Creating Layer inception_4b/relu_3x3_reduce
I0403 19:00:33.617231  8426 net.cpp:425] inception_4b/relu_3x3_reduce <- inception_4b/3x3_reduce
I0403 19:00:33.617249  8426 net.cpp:386] inception_4b/relu_3x3_reduce -> inception_4b/3x3_reduce (in-place)
I0403 19:00:33.617544  8426 net.cpp:141] Setting up inception_4b/relu_3x3_reduce
I0403 19:00:33.617573  8426 net.cpp:148] Top shape: 24 112 14 14 (526848)
I0403 19:00:33.617589  8426 net.cpp:156] Memory required for data: 956439840
I0403 19:00:33.617606  8426 layer_factory.hpp:77] Creating layer inception_4b/3x3
I0403 19:00:33.617631  8426 net.cpp:91] Creating Layer inception_4b/3x3
I0403 19:00:33.617651  8426 net.cpp:425] inception_4b/3x3 <- inception_4b/3x3_reduce
I0403 19:00:33.617673  8426 net.cpp:399] inception_4b/3x3 -> inception_4b/3x3
I0403 19:00:33.620865  8426 net.cpp:141] Setting up inception_4b/3x3
I0403 19:00:33.620899  8426 net.cpp:148] Top shape: 24 224 14 14 (1053696)
I0403 19:00:33.620918  8426 net.cpp:156] Memory required for data: 960654624
I0403 19:00:33.620939  8426 layer_factory.hpp:77] Creating layer inception_4b/relu_3x3
I0403 19:00:33.620959  8426 net.cpp:91] Creating Layer inception_4b/relu_3x3
I0403 19:00:33.620976  8426 net.cpp:425] inception_4b/relu_3x3 <- inception_4b/3x3
I0403 19:00:33.620998  8426 net.cpp:386] inception_4b/relu_3x3 -> inception_4b/3x3 (in-place)
I0403 19:00:33.621199  8426 net.cpp:141] Setting up inception_4b/relu_3x3
I0403 19:00:33.621227  8426 net.cpp:148] Top shape: 24 224 14 14 (1053696)
I0403 19:00:33.621243  8426 net.cpp:156] Memory required for data: 964869408
I0403 19:00:33.621258  8426 layer_factory.hpp:77] Creating layer inception_4b/5x5_reduce
I0403 19:00:33.621282  8426 net.cpp:91] Creating Layer inception_4b/5x5_reduce
I0403 19:00:33.621302  8426 net.cpp:425] inception_4b/5x5_reduce <- inception_4a/output_inception_4a/output_0_split_3
I0403 19:00:33.621327  8426 net.cpp:399] inception_4b/5x5_reduce -> inception_4b/5x5_reduce
I0403 19:00:33.622489  8426 net.cpp:141] Setting up inception_4b/5x5_reduce
I0403 19:00:33.622519  8426 net.cpp:148] Top shape: 24 24 14 14 (112896)
I0403 19:00:33.622536  8426 net.cpp:156] Memory required for data: 965320992
I0403 19:00:33.622557  8426 layer_factory.hpp:77] Creating layer inception_4b/relu_5x5_reduce
I0403 19:00:33.622581  8426 net.cpp:91] Creating Layer inception_4b/relu_5x5_reduce
I0403 19:00:33.622613  8426 net.cpp:425] inception_4b/relu_5x5_reduce <- inception_4b/5x5_reduce
I0403 19:00:33.622634  8426 net.cpp:386] inception_4b/relu_5x5_reduce -> inception_4b/5x5_reduce (in-place)
I0403 19:00:33.622828  8426 net.cpp:141] Setting up inception_4b/relu_5x5_reduce
I0403 19:00:33.622856  8426 net.cpp:148] Top shape: 24 24 14 14 (112896)
I0403 19:00:33.622874  8426 net.cpp:156] Memory required for data: 965772576
I0403 19:00:33.622889  8426 layer_factory.hpp:77] Creating layer inception_4b/5x5
I0403 19:00:33.622915  8426 net.cpp:91] Creating Layer inception_4b/5x5
I0403 19:00:33.622934  8426 net.cpp:425] inception_4b/5x5 <- inception_4b/5x5_reduce
I0403 19:00:33.622956  8426 net.cpp:399] inception_4b/5x5 -> inception_4b/5x5
I0403 19:00:33.624269  8426 net.cpp:141] Setting up inception_4b/5x5
I0403 19:00:33.624299  8426 net.cpp:148] Top shape: 24 64 14 14 (301056)
I0403 19:00:33.624315  8426 net.cpp:156] Memory required for data: 966976800
I0403 19:00:33.624336  8426 layer_factory.hpp:77] Creating layer inception_4b/relu_5x5
I0403 19:00:33.624357  8426 net.cpp:91] Creating Layer inception_4b/relu_5x5
I0403 19:00:33.624375  8426 net.cpp:425] inception_4b/relu_5x5 <- inception_4b/5x5
I0403 19:00:33.624395  8426 net.cpp:386] inception_4b/relu_5x5 -> inception_4b/5x5 (in-place)
I0403 19:00:33.624707  8426 net.cpp:141] Setting up inception_4b/relu_5x5
I0403 19:00:33.624735  8426 net.cpp:148] Top shape: 24 64 14 14 (301056)
I0403 19:00:33.624752  8426 net.cpp:156] Memory required for data: 968181024
I0403 19:00:33.624769  8426 layer_factory.hpp:77] Creating layer inception_4b/pool
I0403 19:00:33.624791  8426 net.cpp:91] Creating Layer inception_4b/pool
I0403 19:00:33.624809  8426 net.cpp:425] inception_4b/pool <- inception_4a/output_inception_4a/output_0_split_4
I0403 19:00:33.624830  8426 net.cpp:399] inception_4b/pool -> inception_4b/pool
I0403 19:00:33.624898  8426 net.cpp:141] Setting up inception_4b/pool
I0403 19:00:33.624923  8426 net.cpp:148] Top shape: 24 512 14 14 (2408448)
I0403 19:00:33.624939  8426 net.cpp:156] Memory required for data: 977814816
I0403 19:00:33.624955  8426 layer_factory.hpp:77] Creating layer inception_4b/pool_proj
I0403 19:00:33.624979  8426 net.cpp:91] Creating Layer inception_4b/pool_proj
I0403 19:00:33.624999  8426 net.cpp:425] inception_4b/pool_proj <- inception_4b/pool
I0403 19:00:33.625022  8426 net.cpp:399] inception_4b/pool_proj -> inception_4b/pool_proj
I0403 19:00:33.626307  8426 net.cpp:141] Setting up inception_4b/pool_proj
I0403 19:00:33.626337  8426 net.cpp:148] Top shape: 24 64 14 14 (301056)
I0403 19:00:33.626353  8426 net.cpp:156] Memory required for data: 979019040
I0403 19:00:33.626371  8426 layer_factory.hpp:77] Creating layer inception_4b/relu_pool_proj
I0403 19:00:33.626395  8426 net.cpp:91] Creating Layer inception_4b/relu_pool_proj
I0403 19:00:33.626415  8426 net.cpp:425] inception_4b/relu_pool_proj <- inception_4b/pool_proj
I0403 19:00:33.626432  8426 net.cpp:386] inception_4b/relu_pool_proj -> inception_4b/pool_proj (in-place)
I0403 19:00:33.626629  8426 net.cpp:141] Setting up inception_4b/relu_pool_proj
I0403 19:00:33.626658  8426 net.cpp:148] Top shape: 24 64 14 14 (301056)
I0403 19:00:33.626675  8426 net.cpp:156] Memory required for data: 980223264
I0403 19:00:33.626693  8426 layer_factory.hpp:77] Creating layer inception_4b/output
I0403 19:00:33.626711  8426 net.cpp:91] Creating Layer inception_4b/output
I0403 19:00:33.626729  8426 net.cpp:425] inception_4b/output <- inception_4b/1x1
I0403 19:00:33.626747  8426 net.cpp:425] inception_4b/output <- inception_4b/3x3
I0403 19:00:33.626765  8426 net.cpp:425] inception_4b/output <- inception_4b/5x5
I0403 19:00:33.626782  8426 net.cpp:425] inception_4b/output <- inception_4b/pool_proj
I0403 19:00:33.626803  8426 net.cpp:399] inception_4b/output -> inception_4b/output
I0403 19:00:33.626852  8426 net.cpp:141] Setting up inception_4b/output
I0403 19:00:33.626875  8426 net.cpp:148] Top shape: 24 512 14 14 (2408448)
I0403 19:00:33.626893  8426 net.cpp:156] Memory required for data: 989857056
I0403 19:00:33.626922  8426 layer_factory.hpp:77] Creating layer inception_4b/output_inception_4b/output_0_split
I0403 19:00:33.626947  8426 net.cpp:91] Creating Layer inception_4b/output_inception_4b/output_0_split
I0403 19:00:33.626965  8426 net.cpp:425] inception_4b/output_inception_4b/output_0_split <- inception_4b/output
I0403 19:00:33.626984  8426 net.cpp:399] inception_4b/output_inception_4b/output_0_split -> inception_4b/output_inception_4b/output_0_split_0
I0403 19:00:33.627008  8426 net.cpp:399] inception_4b/output_inception_4b/output_0_split -> inception_4b/output_inception_4b/output_0_split_1
I0403 19:00:33.627029  8426 net.cpp:399] inception_4b/output_inception_4b/output_0_split -> inception_4b/output_inception_4b/output_0_split_2
I0403 19:00:33.627056  8426 net.cpp:399] inception_4b/output_inception_4b/output_0_split -> inception_4b/output_inception_4b/output_0_split_3
I0403 19:00:33.627151  8426 net.cpp:141] Setting up inception_4b/output_inception_4b/output_0_split
I0403 19:00:33.627176  8426 net.cpp:148] Top shape: 24 512 14 14 (2408448)
I0403 19:00:33.627200  8426 net.cpp:148] Top shape: 24 512 14 14 (2408448)
I0403 19:00:33.627218  8426 net.cpp:148] Top shape: 24 512 14 14 (2408448)
I0403 19:00:33.627234  8426 net.cpp:148] Top shape: 24 512 14 14 (2408448)
I0403 19:00:33.627249  8426 net.cpp:156] Memory required for data: 1028392224
I0403 19:00:33.627266  8426 layer_factory.hpp:77] Creating layer inception_4c/1x1
I0403 19:00:33.627290  8426 net.cpp:91] Creating Layer inception_4c/1x1
I0403 19:00:33.627310  8426 net.cpp:425] inception_4c/1x1 <- inception_4b/output_inception_4b/output_0_split_0
I0403 19:00:33.627331  8426 net.cpp:399] inception_4c/1x1 -> inception_4c/1x1
I0403 19:00:33.628860  8426 net.cpp:141] Setting up inception_4c/1x1
I0403 19:00:33.628893  8426 net.cpp:148] Top shape: 24 128 14 14 (602112)
I0403 19:00:33.628912  8426 net.cpp:156] Memory required for data: 1030800672
I0403 19:00:33.628933  8426 layer_factory.hpp:77] Creating layer inception_4c/relu_1x1
I0403 19:00:33.628952  8426 net.cpp:91] Creating Layer inception_4c/relu_1x1
I0403 19:00:33.628968  8426 net.cpp:425] inception_4c/relu_1x1 <- inception_4c/1x1
I0403 19:00:33.628990  8426 net.cpp:386] inception_4c/relu_1x1 -> inception_4c/1x1 (in-place)
I0403 19:00:33.629190  8426 net.cpp:141] Setting up inception_4c/relu_1x1
I0403 19:00:33.629217  8426 net.cpp:148] Top shape: 24 128 14 14 (602112)
I0403 19:00:33.629233  8426 net.cpp:156] Memory required for data: 1033209120
I0403 19:00:33.629251  8426 layer_factory.hpp:77] Creating layer inception_4c/3x3_reduce
I0403 19:00:33.629273  8426 net.cpp:91] Creating Layer inception_4c/3x3_reduce
I0403 19:00:33.629292  8426 net.cpp:425] inception_4c/3x3_reduce <- inception_4b/output_inception_4b/output_0_split_1
I0403 19:00:33.629317  8426 net.cpp:399] inception_4c/3x3_reduce -> inception_4c/3x3_reduce
I0403 19:00:33.631407  8426 net.cpp:141] Setting up inception_4c/3x3_reduce
I0403 19:00:33.631439  8426 net.cpp:148] Top shape: 24 128 14 14 (602112)
I0403 19:00:33.631456  8426 net.cpp:156] Memory required for data: 1035617568
I0403 19:00:33.631476  8426 layer_factory.hpp:77] Creating layer inception_4c/relu_3x3_reduce
I0403 19:00:33.631499  8426 net.cpp:91] Creating Layer inception_4c/relu_3x3_reduce
I0403 19:00:33.631517  8426 net.cpp:425] inception_4c/relu_3x3_reduce <- inception_4c/3x3_reduce
I0403 19:00:33.631536  8426 net.cpp:386] inception_4c/relu_3x3_reduce -> inception_4c/3x3_reduce (in-place)
I0403 19:00:33.631842  8426 net.cpp:141] Setting up inception_4c/relu_3x3_reduce
I0403 19:00:33.631870  8426 net.cpp:148] Top shape: 24 128 14 14 (602112)
I0403 19:00:33.631886  8426 net.cpp:156] Memory required for data: 1038026016
I0403 19:00:33.631902  8426 layer_factory.hpp:77] Creating layer inception_4c/3x3
I0403 19:00:33.631927  8426 net.cpp:91] Creating Layer inception_4c/3x3
I0403 19:00:33.631947  8426 net.cpp:425] inception_4c/3x3 <- inception_4c/3x3_reduce
I0403 19:00:33.631971  8426 net.cpp:399] inception_4c/3x3 -> inception_4c/3x3
I0403 19:00:33.635848  8426 net.cpp:141] Setting up inception_4c/3x3
I0403 19:00:33.635893  8426 net.cpp:148] Top shape: 24 256 14 14 (1204224)
I0403 19:00:33.635911  8426 net.cpp:156] Memory required for data: 1042842912
I0403 19:00:33.635946  8426 layer_factory.hpp:77] Creating layer inception_4c/relu_3x3
I0403 19:00:33.635969  8426 net.cpp:91] Creating Layer inception_4c/relu_3x3
I0403 19:00:33.635988  8426 net.cpp:425] inception_4c/relu_3x3 <- inception_4c/3x3
I0403 19:00:33.636008  8426 net.cpp:386] inception_4c/relu_3x3 -> inception_4c/3x3 (in-place)
I0403 19:00:33.636221  8426 net.cpp:141] Setting up inception_4c/relu_3x3
I0403 19:00:33.636250  8426 net.cpp:148] Top shape: 24 256 14 14 (1204224)
I0403 19:00:33.636268  8426 net.cpp:156] Memory required for data: 1047659808
I0403 19:00:33.636284  8426 layer_factory.hpp:77] Creating layer inception_4c/5x5_reduce
I0403 19:00:33.636309  8426 net.cpp:91] Creating Layer inception_4c/5x5_reduce
I0403 19:00:33.636332  8426 net.cpp:425] inception_4c/5x5_reduce <- inception_4b/output_inception_4b/output_0_split_2
I0403 19:00:33.636353  8426 net.cpp:399] inception_4c/5x5_reduce -> inception_4c/5x5_reduce
I0403 19:00:33.637519  8426 net.cpp:141] Setting up inception_4c/5x5_reduce
I0403 19:00:33.637550  8426 net.cpp:148] Top shape: 24 24 14 14 (112896)
I0403 19:00:33.637569  8426 net.cpp:156] Memory required for data: 1048111392
I0403 19:00:33.637590  8426 layer_factory.hpp:77] Creating layer inception_4c/relu_5x5_reduce
I0403 19:00:33.637614  8426 net.cpp:91] Creating Layer inception_4c/relu_5x5_reduce
I0403 19:00:33.637634  8426 net.cpp:425] inception_4c/relu_5x5_reduce <- inception_4c/5x5_reduce
I0403 19:00:33.637653  8426 net.cpp:386] inception_4c/relu_5x5_reduce -> inception_4c/5x5_reduce (in-place)
I0403 19:00:33.637850  8426 net.cpp:141] Setting up inception_4c/relu_5x5_reduce
I0403 19:00:33.637879  8426 net.cpp:148] Top shape: 24 24 14 14 (112896)
I0403 19:00:33.637898  8426 net.cpp:156] Memory required for data: 1048562976
I0403 19:00:33.637917  8426 layer_factory.hpp:77] Creating layer inception_4c/5x5
I0403 19:00:33.637940  8426 net.cpp:91] Creating Layer inception_4c/5x5
I0403 19:00:33.637960  8426 net.cpp:425] inception_4c/5x5 <- inception_4c/5x5_reduce
I0403 19:00:33.637980  8426 net.cpp:399] inception_4c/5x5 -> inception_4c/5x5
I0403 19:00:33.639317  8426 net.cpp:141] Setting up inception_4c/5x5
I0403 19:00:33.639349  8426 net.cpp:148] Top shape: 24 64 14 14 (301056)
I0403 19:00:33.639369  8426 net.cpp:156] Memory required for data: 1049767200
I0403 19:00:33.639389  8426 layer_factory.hpp:77] Creating layer inception_4c/relu_5x5
I0403 19:00:33.639408  8426 net.cpp:91] Creating Layer inception_4c/relu_5x5
I0403 19:00:33.639425  8426 net.cpp:425] inception_4c/relu_5x5 <- inception_4c/5x5
I0403 19:00:33.639447  8426 net.cpp:386] inception_4c/relu_5x5 -> inception_4c/5x5 (in-place)
I0403 19:00:33.639750  8426 net.cpp:141] Setting up inception_4c/relu_5x5
I0403 19:00:33.639781  8426 net.cpp:148] Top shape: 24 64 14 14 (301056)
I0403 19:00:33.639799  8426 net.cpp:156] Memory required for data: 1050971424
I0403 19:00:33.639816  8426 layer_factory.hpp:77] Creating layer inception_4c/pool
I0403 19:00:33.639834  8426 net.cpp:91] Creating Layer inception_4c/pool
I0403 19:00:33.639853  8426 net.cpp:425] inception_4c/pool <- inception_4b/output_inception_4b/output_0_split_3
I0403 19:00:33.639875  8426 net.cpp:399] inception_4c/pool -> inception_4c/pool
I0403 19:00:33.639950  8426 net.cpp:141] Setting up inception_4c/pool
I0403 19:00:33.639977  8426 net.cpp:148] Top shape: 24 512 14 14 (2408448)
I0403 19:00:33.639993  8426 net.cpp:156] Memory required for data: 1060605216
I0403 19:00:33.640010  8426 layer_factory.hpp:77] Creating layer inception_4c/pool_proj
I0403 19:00:33.640033  8426 net.cpp:91] Creating Layer inception_4c/pool_proj
I0403 19:00:33.640053  8426 net.cpp:425] inception_4c/pool_proj <- inception_4c/pool
I0403 19:00:33.640076  8426 net.cpp:399] inception_4c/pool_proj -> inception_4c/pool_proj
I0403 19:00:33.641383  8426 net.cpp:141] Setting up inception_4c/pool_proj
I0403 19:00:33.641414  8426 net.cpp:148] Top shape: 24 64 14 14 (301056)
I0403 19:00:33.641449  8426 net.cpp:156] Memory required for data: 1061809440
I0403 19:00:33.641470  8426 layer_factory.hpp:77] Creating layer inception_4c/relu_pool_proj
I0403 19:00:33.641494  8426 net.cpp:91] Creating Layer inception_4c/relu_pool_proj
I0403 19:00:33.641513  8426 net.cpp:425] inception_4c/relu_pool_proj <- inception_4c/pool_proj
I0403 19:00:33.641533  8426 net.cpp:386] inception_4c/relu_pool_proj -> inception_4c/pool_proj (in-place)
I0403 19:00:33.641729  8426 net.cpp:141] Setting up inception_4c/relu_pool_proj
I0403 19:00:33.641759  8426 net.cpp:148] Top shape: 24 64 14 14 (301056)
I0403 19:00:33.641777  8426 net.cpp:156] Memory required for data: 1063013664
I0403 19:00:33.641794  8426 layer_factory.hpp:77] Creating layer inception_4c/output
I0403 19:00:33.641814  8426 net.cpp:91] Creating Layer inception_4c/output
I0403 19:00:33.641831  8426 net.cpp:425] inception_4c/output <- inception_4c/1x1
I0403 19:00:33.641850  8426 net.cpp:425] inception_4c/output <- inception_4c/3x3
I0403 19:00:33.641867  8426 net.cpp:425] inception_4c/output <- inception_4c/5x5
I0403 19:00:33.641885  8426 net.cpp:425] inception_4c/output <- inception_4c/pool_proj
I0403 19:00:33.641901  8426 net.cpp:399] inception_4c/output -> inception_4c/output
I0403 19:00:33.641954  8426 net.cpp:141] Setting up inception_4c/output
I0403 19:00:33.641980  8426 net.cpp:148] Top shape: 24 512 14 14 (2408448)
I0403 19:00:33.641996  8426 net.cpp:156] Memory required for data: 1072647456
I0403 19:00:33.642014  8426 layer_factory.hpp:77] Creating layer inception_4c/output_inception_4c/output_0_split
I0403 19:00:33.642030  8426 net.cpp:91] Creating Layer inception_4c/output_inception_4c/output_0_split
I0403 19:00:33.642047  8426 net.cpp:425] inception_4c/output_inception_4c/output_0_split <- inception_4c/output
I0403 19:00:33.642069  8426 net.cpp:399] inception_4c/output_inception_4c/output_0_split -> inception_4c/output_inception_4c/output_0_split_0
I0403 19:00:33.642092  8426 net.cpp:399] inception_4c/output_inception_4c/output_0_split -> inception_4c/output_inception_4c/output_0_split_1
I0403 19:00:33.642115  8426 net.cpp:399] inception_4c/output_inception_4c/output_0_split -> inception_4c/output_inception_4c/output_0_split_2
I0403 19:00:33.642141  8426 net.cpp:399] inception_4c/output_inception_4c/output_0_split -> inception_4c/output_inception_4c/output_0_split_3
I0403 19:00:33.642251  8426 net.cpp:141] Setting up inception_4c/output_inception_4c/output_0_split
I0403 19:00:33.642277  8426 net.cpp:148] Top shape: 24 512 14 14 (2408448)
I0403 19:00:33.642297  8426 net.cpp:148] Top shape: 24 512 14 14 (2408448)
I0403 19:00:33.642314  8426 net.cpp:148] Top shape: 24 512 14 14 (2408448)
I0403 19:00:33.642331  8426 net.cpp:148] Top shape: 24 512 14 14 (2408448)
I0403 19:00:33.642346  8426 net.cpp:156] Memory required for data: 1111182624
I0403 19:00:33.642362  8426 layer_factory.hpp:77] Creating layer inception_4d/1x1
I0403 19:00:33.642386  8426 net.cpp:91] Creating Layer inception_4d/1x1
I0403 19:00:33.642405  8426 net.cpp:425] inception_4d/1x1 <- inception_4c/output_inception_4c/output_0_split_0
I0403 19:00:33.642429  8426 net.cpp:399] inception_4d/1x1 -> inception_4d/1x1
I0403 19:00:33.643893  8426 net.cpp:141] Setting up inception_4d/1x1
I0403 19:00:33.643925  8426 net.cpp:148] Top shape: 24 112 14 14 (526848)
I0403 19:00:33.643941  8426 net.cpp:156] Memory required for data: 1113290016
I0403 19:00:33.643960  8426 layer_factory.hpp:77] Creating layer inception_4d/relu_1x1
I0403 19:00:33.643980  8426 net.cpp:91] Creating Layer inception_4d/relu_1x1
I0403 19:00:33.644001  8426 net.cpp:425] inception_4d/relu_1x1 <- inception_4d/1x1
I0403 19:00:33.644019  8426 net.cpp:386] inception_4d/relu_1x1 -> inception_4d/1x1 (in-place)
I0403 19:00:33.644222  8426 net.cpp:141] Setting up inception_4d/relu_1x1
I0403 19:00:33.644248  8426 net.cpp:148] Top shape: 24 112 14 14 (526848)
I0403 19:00:33.644265  8426 net.cpp:156] Memory required for data: 1115397408
I0403 19:00:33.644282  8426 layer_factory.hpp:77] Creating layer inception_4d/3x3_reduce
I0403 19:00:33.644323  8426 net.cpp:91] Creating Layer inception_4d/3x3_reduce
I0403 19:00:33.644343  8426 net.cpp:425] inception_4d/3x3_reduce <- inception_4c/output_inception_4c/output_0_split_1
I0403 19:00:33.644367  8426 net.cpp:399] inception_4d/3x3_reduce -> inception_4d/3x3_reduce
I0403 19:00:33.645969  8426 net.cpp:141] Setting up inception_4d/3x3_reduce
I0403 19:00:33.646001  8426 net.cpp:148] Top shape: 24 144 14 14 (677376)
I0403 19:00:33.646019  8426 net.cpp:156] Memory required for data: 1118106912
I0403 19:00:33.646039  8426 layer_factory.hpp:77] Creating layer inception_4d/relu_3x3_reduce
I0403 19:00:33.646059  8426 net.cpp:91] Creating Layer inception_4d/relu_3x3_reduce
I0403 19:00:33.646075  8426 net.cpp:425] inception_4d/relu_3x3_reduce <- inception_4d/3x3_reduce
I0403 19:00:33.646097  8426 net.cpp:386] inception_4d/relu_3x3_reduce -> inception_4d/3x3_reduce (in-place)
I0403 19:00:33.646409  8426 net.cpp:141] Setting up inception_4d/relu_3x3_reduce
I0403 19:00:33.646440  8426 net.cpp:148] Top shape: 24 144 14 14 (677376)
I0403 19:00:33.646457  8426 net.cpp:156] Memory required for data: 1120816416
I0403 19:00:33.646472  8426 layer_factory.hpp:77] Creating layer inception_4d/3x3
I0403 19:00:33.646497  8426 net.cpp:91] Creating Layer inception_4d/3x3
I0403 19:00:33.646514  8426 net.cpp:425] inception_4d/3x3 <- inception_4d/3x3_reduce
I0403 19:00:33.646538  8426 net.cpp:399] inception_4d/3x3 -> inception_4d/3x3
I0403 19:00:33.651070  8426 net.cpp:141] Setting up inception_4d/3x3
I0403 19:00:33.651103  8426 net.cpp:148] Top shape: 24 288 14 14 (1354752)
I0403 19:00:33.651120  8426 net.cpp:156] Memory required for data: 1126235424
I0403 19:00:33.651140  8426 layer_factory.hpp:77] Creating layer inception_4d/relu_3x3
I0403 19:00:33.651160  8426 net.cpp:91] Creating Layer inception_4d/relu_3x3
I0403 19:00:33.651183  8426 net.cpp:425] inception_4d/relu_3x3 <- inception_4d/3x3
I0403 19:00:33.651206  8426 net.cpp:386] inception_4d/relu_3x3 -> inception_4d/3x3 (in-place)
I0403 19:00:33.651404  8426 net.cpp:141] Setting up inception_4d/relu_3x3
I0403 19:00:33.651430  8426 net.cpp:148] Top shape: 24 288 14 14 (1354752)
I0403 19:00:33.651446  8426 net.cpp:156] Memory required for data: 1131654432
I0403 19:00:33.651463  8426 layer_factory.hpp:77] Creating layer inception_4d/5x5_reduce
I0403 19:00:33.651487  8426 net.cpp:91] Creating Layer inception_4d/5x5_reduce
I0403 19:00:33.651506  8426 net.cpp:425] inception_4d/5x5_reduce <- inception_4c/output_inception_4c/output_0_split_2
I0403 19:00:33.651528  8426 net.cpp:399] inception_4d/5x5_reduce -> inception_4d/5x5_reduce
I0403 19:00:33.652772  8426 net.cpp:141] Setting up inception_4d/5x5_reduce
I0403 19:00:33.652802  8426 net.cpp:148] Top shape: 24 32 14 14 (150528)
I0403 19:00:33.652819  8426 net.cpp:156] Memory required for data: 1132256544
I0403 19:00:33.652839  8426 layer_factory.hpp:77] Creating layer inception_4d/relu_5x5_reduce
I0403 19:00:33.652861  8426 net.cpp:91] Creating Layer inception_4d/relu_5x5_reduce
I0403 19:00:33.652879  8426 net.cpp:425] inception_4d/relu_5x5_reduce <- inception_4d/5x5_reduce
I0403 19:00:33.652897  8426 net.cpp:386] inception_4d/relu_5x5_reduce -> inception_4d/5x5_reduce (in-place)
I0403 19:00:33.653101  8426 net.cpp:141] Setting up inception_4d/relu_5x5_reduce
I0403 19:00:33.653127  8426 net.cpp:148] Top shape: 24 32 14 14 (150528)
I0403 19:00:33.653143  8426 net.cpp:156] Memory required for data: 1132858656
I0403 19:00:33.653159  8426 layer_factory.hpp:77] Creating layer inception_4d/5x5
I0403 19:00:33.653187  8426 net.cpp:91] Creating Layer inception_4d/5x5
I0403 19:00:33.653208  8426 net.cpp:425] inception_4d/5x5 <- inception_4d/5x5_reduce
I0403 19:00:33.653231  8426 net.cpp:399] inception_4d/5x5 -> inception_4d/5x5
I0403 19:00:33.654773  8426 net.cpp:141] Setting up inception_4d/5x5
I0403 19:00:33.654803  8426 net.cpp:148] Top shape: 24 64 14 14 (301056)
I0403 19:00:33.654819  8426 net.cpp:156] Memory required for data: 1134062880
I0403 19:00:33.654841  8426 layer_factory.hpp:77] Creating layer inception_4d/relu_5x5
I0403 19:00:33.654878  8426 net.cpp:91] Creating Layer inception_4d/relu_5x5
I0403 19:00:33.654897  8426 net.cpp:425] inception_4d/relu_5x5 <- inception_4d/5x5
I0403 19:00:33.654917  8426 net.cpp:386] inception_4d/relu_5x5 -> inception_4d/5x5 (in-place)
I0403 19:00:33.655238  8426 net.cpp:141] Setting up inception_4d/relu_5x5
I0403 19:00:33.655267  8426 net.cpp:148] Top shape: 24 64 14 14 (301056)
I0403 19:00:33.655282  8426 net.cpp:156] Memory required for data: 1135267104
I0403 19:00:33.655297  8426 layer_factory.hpp:77] Creating layer inception_4d/pool
I0403 19:00:33.655320  8426 net.cpp:91] Creating Layer inception_4d/pool
I0403 19:00:33.655339  8426 net.cpp:425] inception_4d/pool <- inception_4c/output_inception_4c/output_0_split_3
I0403 19:00:33.655359  8426 net.cpp:399] inception_4d/pool -> inception_4d/pool
I0403 19:00:33.655432  8426 net.cpp:141] Setting up inception_4d/pool
I0403 19:00:33.655457  8426 net.cpp:148] Top shape: 24 512 14 14 (2408448)
I0403 19:00:33.655472  8426 net.cpp:156] Memory required for data: 1144900896
I0403 19:00:33.655488  8426 layer_factory.hpp:77] Creating layer inception_4d/pool_proj
I0403 19:00:33.655511  8426 net.cpp:91] Creating Layer inception_4d/pool_proj
I0403 19:00:33.655529  8426 net.cpp:425] inception_4d/pool_proj <- inception_4d/pool
I0403 19:00:33.655552  8426 net.cpp:399] inception_4d/pool_proj -> inception_4d/pool_proj
I0403 19:00:33.657429  8426 net.cpp:141] Setting up inception_4d/pool_proj
I0403 19:00:33.657461  8426 net.cpp:148] Top shape: 24 64 14 14 (301056)
I0403 19:00:33.657479  8426 net.cpp:156] Memory required for data: 1146105120
I0403 19:00:33.657498  8426 layer_factory.hpp:77] Creating layer inception_4d/relu_pool_proj
I0403 19:00:33.657518  8426 net.cpp:91] Creating Layer inception_4d/relu_pool_proj
I0403 19:00:33.657536  8426 net.cpp:425] inception_4d/relu_pool_proj <- inception_4d/pool_proj
I0403 19:00:33.657557  8426 net.cpp:386] inception_4d/relu_pool_proj -> inception_4d/pool_proj (in-place)
I0403 19:00:33.657755  8426 net.cpp:141] Setting up inception_4d/relu_pool_proj
I0403 19:00:33.657781  8426 net.cpp:148] Top shape: 24 64 14 14 (301056)
I0403 19:00:33.657799  8426 net.cpp:156] Memory required for data: 1147309344
I0403 19:00:33.657814  8426 layer_factory.hpp:77] Creating layer inception_4d/output
I0403 19:00:33.657835  8426 net.cpp:91] Creating Layer inception_4d/output
I0403 19:00:33.657853  8426 net.cpp:425] inception_4d/output <- inception_4d/1x1
I0403 19:00:33.657871  8426 net.cpp:425] inception_4d/output <- inception_4d/3x3
I0403 19:00:33.657889  8426 net.cpp:425] inception_4d/output <- inception_4d/5x5
I0403 19:00:33.657907  8426 net.cpp:425] inception_4d/output <- inception_4d/pool_proj
I0403 19:00:33.657923  8426 net.cpp:399] inception_4d/output -> inception_4d/output
I0403 19:00:33.657975  8426 net.cpp:141] Setting up inception_4d/output
I0403 19:00:33.658001  8426 net.cpp:148] Top shape: 24 528 14 14 (2483712)
I0403 19:00:33.658016  8426 net.cpp:156] Memory required for data: 1157244192
I0403 19:00:33.658033  8426 layer_factory.hpp:77] Creating layer inception_4d/output_inception_4d/output_0_split
I0403 19:00:33.658051  8426 net.cpp:91] Creating Layer inception_4d/output_inception_4d/output_0_split
I0403 19:00:33.658068  8426 net.cpp:425] inception_4d/output_inception_4d/output_0_split <- inception_4d/output
I0403 19:00:33.658089  8426 net.cpp:399] inception_4d/output_inception_4d/output_0_split -> inception_4d/output_inception_4d/output_0_split_0
I0403 19:00:33.658113  8426 net.cpp:399] inception_4d/output_inception_4d/output_0_split -> inception_4d/output_inception_4d/output_0_split_1
I0403 19:00:33.658135  8426 net.cpp:399] inception_4d/output_inception_4d/output_0_split -> inception_4d/output_inception_4d/output_0_split_2
I0403 19:00:33.658157  8426 net.cpp:399] inception_4d/output_inception_4d/output_0_split -> inception_4d/output_inception_4d/output_0_split_3
I0403 19:00:33.658185  8426 net.cpp:399] inception_4d/output_inception_4d/output_0_split -> inception_4d/output_inception_4d/output_0_split_4
I0403 19:00:33.658300  8426 net.cpp:141] Setting up inception_4d/output_inception_4d/output_0_split
I0403 19:00:33.658339  8426 net.cpp:148] Top shape: 24 528 14 14 (2483712)
I0403 19:00:33.658359  8426 net.cpp:148] Top shape: 24 528 14 14 (2483712)
I0403 19:00:33.658375  8426 net.cpp:148] Top shape: 24 528 14 14 (2483712)
I0403 19:00:33.658392  8426 net.cpp:148] Top shape: 24 528 14 14 (2483712)
I0403 19:00:33.658408  8426 net.cpp:148] Top shape: 24 528 14 14 (2483712)
I0403 19:00:33.658423  8426 net.cpp:156] Memory required for data: 1206918432
I0403 19:00:33.658439  8426 layer_factory.hpp:77] Creating layer loss2/ave_pool
I0403 19:00:33.658458  8426 net.cpp:91] Creating Layer loss2/ave_pool
I0403 19:00:33.658476  8426 net.cpp:425] loss2/ave_pool <- inception_4d/output_inception_4d/output_0_split_0
I0403 19:00:33.658499  8426 net.cpp:399] loss2/ave_pool -> loss2/ave_pool
I0403 19:00:33.658831  8426 net.cpp:141] Setting up loss2/ave_pool
I0403 19:00:33.658860  8426 net.cpp:148] Top shape: 24 528 4 4 (202752)
I0403 19:00:33.658876  8426 net.cpp:156] Memory required for data: 1207729440
I0403 19:00:33.658893  8426 layer_factory.hpp:77] Creating layer loss2/conv
I0403 19:00:33.658916  8426 net.cpp:91] Creating Layer loss2/conv
I0403 19:00:33.658936  8426 net.cpp:425] loss2/conv <- loss2/ave_pool
I0403 19:00:33.658958  8426 net.cpp:399] loss2/conv -> loss2/conv
I0403 19:00:33.660977  8426 net.cpp:141] Setting up loss2/conv
I0403 19:00:33.661010  8426 net.cpp:148] Top shape: 24 128 4 4 (49152)
I0403 19:00:33.661028  8426 net.cpp:156] Memory required for data: 1207926048
I0403 19:00:33.661048  8426 layer_factory.hpp:77] Creating layer loss2/relu_conv
I0403 19:00:33.661068  8426 net.cpp:91] Creating Layer loss2/relu_conv
I0403 19:00:33.661087  8426 net.cpp:425] loss2/relu_conv <- loss2/conv
I0403 19:00:33.661104  8426 net.cpp:386] loss2/relu_conv -> loss2/conv (in-place)
I0403 19:00:33.661432  8426 net.cpp:141] Setting up loss2/relu_conv
I0403 19:00:33.661465  8426 net.cpp:148] Top shape: 24 128 4 4 (49152)
I0403 19:00:33.661483  8426 net.cpp:156] Memory required for data: 1208122656
I0403 19:00:33.661499  8426 layer_factory.hpp:77] Creating layer loss2/fc
I0403 19:00:33.661520  8426 net.cpp:91] Creating Layer loss2/fc
I0403 19:00:33.661540  8426 net.cpp:425] loss2/fc <- loss2/conv
I0403 19:00:33.661561  8426 net.cpp:399] loss2/fc -> loss2/fc
I0403 19:00:33.680727  8426 net.cpp:141] Setting up loss2/fc
I0403 19:00:33.680768  8426 net.cpp:148] Top shape: 24 1024 (24576)
I0403 19:00:33.680784  8426 net.cpp:156] Memory required for data: 1208220960
I0403 19:00:33.680804  8426 layer_factory.hpp:77] Creating layer loss2/relu_fc
I0403 19:00:33.680826  8426 net.cpp:91] Creating Layer loss2/relu_fc
I0403 19:00:33.680845  8426 net.cpp:425] loss2/relu_fc <- loss2/fc
I0403 19:00:33.680865  8426 net.cpp:386] loss2/relu_fc -> loss2/fc (in-place)
I0403 19:00:33.681195  8426 net.cpp:141] Setting up loss2/relu_fc
I0403 19:00:33.681222  8426 net.cpp:148] Top shape: 24 1024 (24576)
I0403 19:00:33.681241  8426 net.cpp:156] Memory required for data: 1208319264
I0403 19:00:33.681257  8426 layer_factory.hpp:77] Creating layer loss2/drop_fc
I0403 19:00:33.681278  8426 net.cpp:91] Creating Layer loss2/drop_fc
I0403 19:00:33.681296  8426 net.cpp:425] loss2/drop_fc <- loss2/fc
I0403 19:00:33.681316  8426 net.cpp:386] loss2/drop_fc -> loss2/fc (in-place)
I0403 19:00:33.681368  8426 net.cpp:141] Setting up loss2/drop_fc
I0403 19:00:33.681396  8426 net.cpp:148] Top shape: 24 1024 (24576)
I0403 19:00:33.681413  8426 net.cpp:156] Memory required for data: 1208417568
I0403 19:00:33.681429  8426 layer_factory.hpp:77] Creating layer loss2/classifier_plantvillage
I0403 19:00:33.681449  8426 net.cpp:91] Creating Layer loss2/classifier_plantvillage
I0403 19:00:33.681466  8426 net.cpp:425] loss2/classifier_plantvillage <- loss2/fc
I0403 19:00:33.681489  8426 net.cpp:399] loss2/classifier_plantvillage -> loss2/classifier_plantvillage
I0403 19:00:33.681922  8426 net.cpp:141] Setting up loss2/classifier_plantvillage
I0403 19:00:33.681949  8426 net.cpp:148] Top shape: 24 38 (912)
I0403 19:00:33.681983  8426 net.cpp:156] Memory required for data: 1208421216
I0403 19:00:33.682004  8426 layer_factory.hpp:77] Creating layer loss2/classifier_plantvillage_loss2/classifier_plantvillage_0_split
I0403 19:00:33.682024  8426 net.cpp:91] Creating Layer loss2/classifier_plantvillage_loss2/classifier_plantvillage_0_split
I0403 19:00:33.682041  8426 net.cpp:425] loss2/classifier_plantvillage_loss2/classifier_plantvillage_0_split <- loss2/classifier_plantvillage
I0403 19:00:33.682060  8426 net.cpp:399] loss2/classifier_plantvillage_loss2/classifier_plantvillage_0_split -> loss2/classifier_plantvillage_loss2/classifier_plantvillage_0_split_0
I0403 19:00:33.682085  8426 net.cpp:399] loss2/classifier_plantvillage_loss2/classifier_plantvillage_0_split -> loss2/classifier_plantvillage_loss2/classifier_plantvillage_0_split_1
I0403 19:00:33.682108  8426 net.cpp:399] loss2/classifier_plantvillage_loss2/classifier_plantvillage_0_split -> loss2/classifier_plantvillage_loss2/classifier_plantvillage_0_split_2
I0403 19:00:33.682205  8426 net.cpp:141] Setting up loss2/classifier_plantvillage_loss2/classifier_plantvillage_0_split
I0403 19:00:33.682231  8426 net.cpp:148] Top shape: 24 38 (912)
I0403 19:00:33.682250  8426 net.cpp:148] Top shape: 24 38 (912)
I0403 19:00:33.682266  8426 net.cpp:148] Top shape: 24 38 (912)
I0403 19:00:33.682282  8426 net.cpp:156] Memory required for data: 1208432160
I0403 19:00:33.682297  8426 layer_factory.hpp:77] Creating layer inception_4e/1x1
I0403 19:00:33.682322  8426 net.cpp:91] Creating Layer inception_4e/1x1
I0403 19:00:33.682342  8426 net.cpp:425] inception_4e/1x1 <- inception_4d/output_inception_4d/output_0_split_1
I0403 19:00:33.682365  8426 net.cpp:399] inception_4e/1x1 -> inception_4e/1x1
I0403 19:00:33.684321  8426 net.cpp:141] Setting up inception_4e/1x1
I0403 19:00:33.684355  8426 net.cpp:148] Top shape: 24 256 14 14 (1204224)
I0403 19:00:33.684373  8426 net.cpp:156] Memory required for data: 1213249056
I0403 19:00:33.684394  8426 layer_factory.hpp:77] Creating layer inception_4e/relu_1x1
I0403 19:00:33.684413  8426 net.cpp:91] Creating Layer inception_4e/relu_1x1
I0403 19:00:33.684432  8426 net.cpp:425] inception_4e/relu_1x1 <- inception_4e/1x1
I0403 19:00:33.684453  8426 net.cpp:386] inception_4e/relu_1x1 -> inception_4e/1x1 (in-place)
I0403 19:00:33.684765  8426 net.cpp:141] Setting up inception_4e/relu_1x1
I0403 19:00:33.684795  8426 net.cpp:148] Top shape: 24 256 14 14 (1204224)
I0403 19:00:33.684813  8426 net.cpp:156] Memory required for data: 1218065952
I0403 19:00:33.684831  8426 layer_factory.hpp:77] Creating layer inception_4e/3x3_reduce
I0403 19:00:33.684855  8426 net.cpp:91] Creating Layer inception_4e/3x3_reduce
I0403 19:00:33.684875  8426 net.cpp:425] inception_4e/3x3_reduce <- inception_4d/output_inception_4d/output_0_split_2
I0403 19:00:33.684896  8426 net.cpp:399] inception_4e/3x3_reduce -> inception_4e/3x3_reduce
I0403 19:00:33.687191  8426 net.cpp:141] Setting up inception_4e/3x3_reduce
I0403 19:00:33.687223  8426 net.cpp:148] Top shape: 24 160 14 14 (752640)
I0403 19:00:33.687240  8426 net.cpp:156] Memory required for data: 1221076512
I0403 19:00:33.687260  8426 layer_factory.hpp:77] Creating layer inception_4e/relu_3x3_reduce
I0403 19:00:33.687283  8426 net.cpp:91] Creating Layer inception_4e/relu_3x3_reduce
I0403 19:00:33.687301  8426 net.cpp:425] inception_4e/relu_3x3_reduce <- inception_4e/3x3_reduce
I0403 19:00:33.687321  8426 net.cpp:386] inception_4e/relu_3x3_reduce -> inception_4e/3x3_reduce (in-place)
I0403 19:00:33.687522  8426 net.cpp:141] Setting up inception_4e/relu_3x3_reduce
I0403 19:00:33.687551  8426 net.cpp:148] Top shape: 24 160 14 14 (752640)
I0403 19:00:33.687568  8426 net.cpp:156] Memory required for data: 1224087072
I0403 19:00:33.687585  8426 layer_factory.hpp:77] Creating layer inception_4e/3x3
I0403 19:00:33.687610  8426 net.cpp:91] Creating Layer inception_4e/3x3
I0403 19:00:33.687630  8426 net.cpp:425] inception_4e/3x3 <- inception_4e/3x3_reduce
I0403 19:00:33.687650  8426 net.cpp:399] inception_4e/3x3 -> inception_4e/3x3
I0403 19:00:33.693069  8426 net.cpp:141] Setting up inception_4e/3x3
I0403 19:00:33.693117  8426 net.cpp:148] Top shape: 24 320 14 14 (1505280)
I0403 19:00:33.693136  8426 net.cpp:156] Memory required for data: 1230108192
I0403 19:00:33.693157  8426 layer_factory.hpp:77] Creating layer inception_4e/relu_3x3
I0403 19:00:33.693181  8426 net.cpp:91] Creating Layer inception_4e/relu_3x3
I0403 19:00:33.693202  8426 net.cpp:425] inception_4e/relu_3x3 <- inception_4e/3x3
I0403 19:00:33.693223  8426 net.cpp:386] inception_4e/relu_3x3 -> inception_4e/3x3 (in-place)
I0403 19:00:33.693542  8426 net.cpp:141] Setting up inception_4e/relu_3x3
I0403 19:00:33.693572  8426 net.cpp:148] Top shape: 24 320 14 14 (1505280)
I0403 19:00:33.693588  8426 net.cpp:156] Memory required for data: 1236129312
I0403 19:00:33.693604  8426 layer_factory.hpp:77] Creating layer inception_4e/5x5_reduce
I0403 19:00:33.693629  8426 net.cpp:91] Creating Layer inception_4e/5x5_reduce
I0403 19:00:33.693650  8426 net.cpp:425] inception_4e/5x5_reduce <- inception_4d/output_inception_4d/output_0_split_3
I0403 19:00:33.693672  8426 net.cpp:399] inception_4e/5x5_reduce -> inception_4e/5x5_reduce
I0403 19:00:33.694833  8426 net.cpp:141] Setting up inception_4e/5x5_reduce
I0403 19:00:33.694862  8426 net.cpp:148] Top shape: 24 32 14 14 (150528)
I0403 19:00:33.694880  8426 net.cpp:156] Memory required for data: 1236731424
I0403 19:00:33.694900  8426 layer_factory.hpp:77] Creating layer inception_4e/relu_5x5_reduce
I0403 19:00:33.694923  8426 net.cpp:91] Creating Layer inception_4e/relu_5x5_reduce
I0403 19:00:33.694941  8426 net.cpp:425] inception_4e/relu_5x5_reduce <- inception_4e/5x5_reduce
I0403 19:00:33.694960  8426 net.cpp:386] inception_4e/relu_5x5_reduce -> inception_4e/5x5_reduce (in-place)
I0403 19:00:33.695286  8426 net.cpp:141] Setting up inception_4e/relu_5x5_reduce
I0403 19:00:33.695317  8426 net.cpp:148] Top shape: 24 32 14 14 (150528)
I0403 19:00:33.695333  8426 net.cpp:156] Memory required for data: 1237333536
I0403 19:00:33.695350  8426 layer_factory.hpp:77] Creating layer inception_4e/5x5
I0403 19:00:33.695396  8426 net.cpp:91] Creating Layer inception_4e/5x5
I0403 19:00:33.695417  8426 net.cpp:425] inception_4e/5x5 <- inception_4e/5x5_reduce
I0403 19:00:33.695438  8426 net.cpp:399] inception_4e/5x5 -> inception_4e/5x5
I0403 19:00:33.697417  8426 net.cpp:141] Setting up inception_4e/5x5
I0403 19:00:33.697448  8426 net.cpp:148] Top shape: 24 128 14 14 (602112)
I0403 19:00:33.697465  8426 net.cpp:156] Memory required for data: 1239741984
I0403 19:00:33.697485  8426 layer_factory.hpp:77] Creating layer inception_4e/relu_5x5
I0403 19:00:33.697509  8426 net.cpp:91] Creating Layer inception_4e/relu_5x5
I0403 19:00:33.697527  8426 net.cpp:425] inception_4e/relu_5x5 <- inception_4e/5x5
I0403 19:00:33.697546  8426 net.cpp:386] inception_4e/relu_5x5 -> inception_4e/5x5 (in-place)
I0403 19:00:33.697759  8426 net.cpp:141] Setting up inception_4e/relu_5x5
I0403 19:00:33.697789  8426 net.cpp:148] Top shape: 24 128 14 14 (602112)
I0403 19:00:33.697808  8426 net.cpp:156] Memory required for data: 1242150432
I0403 19:00:33.697824  8426 layer_factory.hpp:77] Creating layer inception_4e/pool
I0403 19:00:33.697844  8426 net.cpp:91] Creating Layer inception_4e/pool
I0403 19:00:33.697861  8426 net.cpp:425] inception_4e/pool <- inception_4d/output_inception_4d/output_0_split_4
I0403 19:00:33.697881  8426 net.cpp:399] inception_4e/pool -> inception_4e/pool
I0403 19:00:33.697957  8426 net.cpp:141] Setting up inception_4e/pool
I0403 19:00:33.697984  8426 net.cpp:148] Top shape: 24 528 14 14 (2483712)
I0403 19:00:33.698001  8426 net.cpp:156] Memory required for data: 1252085280
I0403 19:00:33.698017  8426 layer_factory.hpp:77] Creating layer inception_4e/pool_proj
I0403 19:00:33.698041  8426 net.cpp:91] Creating Layer inception_4e/pool_proj
I0403 19:00:33.698060  8426 net.cpp:425] inception_4e/pool_proj <- inception_4e/pool
I0403 19:00:33.698084  8426 net.cpp:399] inception_4e/pool_proj -> inception_4e/pool_proj
I0403 19:00:33.699703  8426 net.cpp:141] Setting up inception_4e/pool_proj
I0403 19:00:33.699746  8426 net.cpp:148] Top shape: 24 128 14 14 (602112)
I0403 19:00:33.699764  8426 net.cpp:156] Memory required for data: 1254493728
I0403 19:00:33.699784  8426 layer_factory.hpp:77] Creating layer inception_4e/relu_pool_proj
I0403 19:00:33.699806  8426 net.cpp:91] Creating Layer inception_4e/relu_pool_proj
I0403 19:00:33.699826  8426 net.cpp:425] inception_4e/relu_pool_proj <- inception_4e/pool_proj
I0403 19:00:33.699846  8426 net.cpp:386] inception_4e/relu_pool_proj -> inception_4e/pool_proj (in-place)
I0403 19:00:33.700155  8426 net.cpp:141] Setting up inception_4e/relu_pool_proj
I0403 19:00:33.700191  8426 net.cpp:148] Top shape: 24 128 14 14 (602112)
I0403 19:00:33.700208  8426 net.cpp:156] Memory required for data: 1256902176
I0403 19:00:33.700225  8426 layer_factory.hpp:77] Creating layer inception_4e/output
I0403 19:00:33.700244  8426 net.cpp:91] Creating Layer inception_4e/output
I0403 19:00:33.700261  8426 net.cpp:425] inception_4e/output <- inception_4e/1x1
I0403 19:00:33.700280  8426 net.cpp:425] inception_4e/output <- inception_4e/3x3
I0403 19:00:33.700297  8426 net.cpp:425] inception_4e/output <- inception_4e/5x5
I0403 19:00:33.700315  8426 net.cpp:425] inception_4e/output <- inception_4e/pool_proj
I0403 19:00:33.700340  8426 net.cpp:399] inception_4e/output -> inception_4e/output
I0403 19:00:33.700394  8426 net.cpp:141] Setting up inception_4e/output
I0403 19:00:33.700424  8426 net.cpp:148] Top shape: 24 832 14 14 (3913728)
I0403 19:00:33.700439  8426 net.cpp:156] Memory required for data: 1272557088
I0403 19:00:33.700455  8426 layer_factory.hpp:77] Creating layer pool4/3x3_s2
I0403 19:00:33.700474  8426 net.cpp:91] Creating Layer pool4/3x3_s2
I0403 19:00:33.700490  8426 net.cpp:425] pool4/3x3_s2 <- inception_4e/output
I0403 19:00:33.700513  8426 net.cpp:399] pool4/3x3_s2 -> pool4/3x3_s2
I0403 19:00:33.700588  8426 net.cpp:141] Setting up pool4/3x3_s2
I0403 19:00:33.700614  8426 net.cpp:148] Top shape: 24 832 7 7 (978432)
I0403 19:00:33.700631  8426 net.cpp:156] Memory required for data: 1276470816
I0403 19:00:33.700646  8426 layer_factory.hpp:77] Creating layer pool4/3x3_s2_pool4/3x3_s2_0_split
I0403 19:00:33.700669  8426 net.cpp:91] Creating Layer pool4/3x3_s2_pool4/3x3_s2_0_split
I0403 19:00:33.700686  8426 net.cpp:425] pool4/3x3_s2_pool4/3x3_s2_0_split <- pool4/3x3_s2
I0403 19:00:33.700706  8426 net.cpp:399] pool4/3x3_s2_pool4/3x3_s2_0_split -> pool4/3x3_s2_pool4/3x3_s2_0_split_0
I0403 19:00:33.700728  8426 net.cpp:399] pool4/3x3_s2_pool4/3x3_s2_0_split -> pool4/3x3_s2_pool4/3x3_s2_0_split_1
I0403 19:00:33.700753  8426 net.cpp:399] pool4/3x3_s2_pool4/3x3_s2_0_split -> pool4/3x3_s2_pool4/3x3_s2_0_split_2
I0403 19:00:33.700775  8426 net.cpp:399] pool4/3x3_s2_pool4/3x3_s2_0_split -> pool4/3x3_s2_pool4/3x3_s2_0_split_3
I0403 19:00:33.700872  8426 net.cpp:141] Setting up pool4/3x3_s2_pool4/3x3_s2_0_split
I0403 19:00:33.700898  8426 net.cpp:148] Top shape: 24 832 7 7 (978432)
I0403 19:00:33.700917  8426 net.cpp:148] Top shape: 24 832 7 7 (978432)
I0403 19:00:33.700934  8426 net.cpp:148] Top shape: 24 832 7 7 (978432)
I0403 19:00:33.700952  8426 net.cpp:148] Top shape: 24 832 7 7 (978432)
I0403 19:00:33.700965  8426 net.cpp:156] Memory required for data: 1292125728
I0403 19:00:33.700980  8426 layer_factory.hpp:77] Creating layer inception_5a/1x1
I0403 19:00:33.701005  8426 net.cpp:91] Creating Layer inception_5a/1x1
I0403 19:00:33.701025  8426 net.cpp:425] inception_5a/1x1 <- pool4/3x3_s2_pool4/3x3_s2_0_split_0
I0403 19:00:33.701048  8426 net.cpp:399] inception_5a/1x1 -> inception_5a/1x1
I0403 19:00:33.704136  8426 net.cpp:141] Setting up inception_5a/1x1
I0403 19:00:33.704169  8426 net.cpp:148] Top shape: 24 256 7 7 (301056)
I0403 19:00:33.704191  8426 net.cpp:156] Memory required for data: 1293329952
I0403 19:00:33.704212  8426 layer_factory.hpp:77] Creating layer inception_5a/relu_1x1
I0403 19:00:33.704236  8426 net.cpp:91] Creating Layer inception_5a/relu_1x1
I0403 19:00:33.704254  8426 net.cpp:425] inception_5a/relu_1x1 <- inception_5a/1x1
I0403 19:00:33.704273  8426 net.cpp:386] inception_5a/relu_1x1 -> inception_5a/1x1 (in-place)
I0403 19:00:33.704604  8426 net.cpp:141] Setting up inception_5a/relu_1x1
I0403 19:00:33.704632  8426 net.cpp:148] Top shape: 24 256 7 7 (301056)
I0403 19:00:33.704648  8426 net.cpp:156] Memory required for data: 1294534176
I0403 19:00:33.704664  8426 layer_factory.hpp:77] Creating layer inception_5a/3x3_reduce
I0403 19:00:33.704689  8426 net.cpp:91] Creating Layer inception_5a/3x3_reduce
I0403 19:00:33.704707  8426 net.cpp:425] inception_5a/3x3_reduce <- pool4/3x3_s2_pool4/3x3_s2_0_split_1
I0403 19:00:33.704730  8426 net.cpp:399] inception_5a/3x3_reduce -> inception_5a/3x3_reduce
I0403 19:00:33.707350  8426 net.cpp:141] Setting up inception_5a/3x3_reduce
I0403 19:00:33.707382  8426 net.cpp:148] Top shape: 24 160 7 7 (188160)
I0403 19:00:33.707399  8426 net.cpp:156] Memory required for data: 1295286816
I0403 19:00:33.707419  8426 layer_factory.hpp:77] Creating layer inception_5a/relu_3x3_reduce
I0403 19:00:33.707439  8426 net.cpp:91] Creating Layer inception_5a/relu_3x3_reduce
I0403 19:00:33.707456  8426 net.cpp:425] inception_5a/relu_3x3_reduce <- inception_5a/3x3_reduce
I0403 19:00:33.707478  8426 net.cpp:386] inception_5a/relu_3x3_reduce -> inception_5a/3x3_reduce (in-place)
I0403 19:00:33.707677  8426 net.cpp:141] Setting up inception_5a/relu_3x3_reduce
I0403 19:00:33.707705  8426 net.cpp:148] Top shape: 24 160 7 7 (188160)
I0403 19:00:33.707720  8426 net.cpp:156] Memory required for data: 1296039456
I0403 19:00:33.707736  8426 layer_factory.hpp:77] Creating layer inception_5a/3x3
I0403 19:00:33.707761  8426 net.cpp:91] Creating Layer inception_5a/3x3
I0403 19:00:33.707779  8426 net.cpp:425] inception_5a/3x3 <- inception_5a/3x3_reduce
I0403 19:00:33.707803  8426 net.cpp:399] inception_5a/3x3 -> inception_5a/3x3
I0403 19:00:33.713184  8426 net.cpp:141] Setting up inception_5a/3x3
I0403 19:00:33.713217  8426 net.cpp:148] Top shape: 24 320 7 7 (376320)
I0403 19:00:33.713235  8426 net.cpp:156] Memory required for data: 1297544736
I0403 19:00:33.713255  8426 layer_factory.hpp:77] Creating layer inception_5a/relu_3x3
I0403 19:00:33.713277  8426 net.cpp:91] Creating Layer inception_5a/relu_3x3
I0403 19:00:33.713295  8426 net.cpp:425] inception_5a/relu_3x3 <- inception_5a/3x3
I0403 19:00:33.713315  8426 net.cpp:386] inception_5a/relu_3x3 -> inception_5a/3x3 (in-place)
I0403 19:00:33.713634  8426 net.cpp:141] Setting up inception_5a/relu_3x3
I0403 19:00:33.713661  8426 net.cpp:148] Top shape: 24 320 7 7 (376320)
I0403 19:00:33.713677  8426 net.cpp:156] Memory required for data: 1299050016
I0403 19:00:33.713693  8426 layer_factory.hpp:77] Creating layer inception_5a/5x5_reduce
I0403 19:00:33.713717  8426 net.cpp:91] Creating Layer inception_5a/5x5_reduce
I0403 19:00:33.713735  8426 net.cpp:425] inception_5a/5x5_reduce <- pool4/3x3_s2_pool4/3x3_s2_0_split_2
I0403 19:00:33.713760  8426 net.cpp:399] inception_5a/5x5_reduce -> inception_5a/5x5_reduce
I0403 19:00:33.715016  8426 net.cpp:141] Setting up inception_5a/5x5_reduce
I0403 19:00:33.715050  8426 net.cpp:148] Top shape: 24 32 7 7 (37632)
I0403 19:00:33.715067  8426 net.cpp:156] Memory required for data: 1299200544
I0403 19:00:33.715088  8426 layer_factory.hpp:77] Creating layer inception_5a/relu_5x5_reduce
I0403 19:00:33.715107  8426 net.cpp:91] Creating Layer inception_5a/relu_5x5_reduce
I0403 19:00:33.715124  8426 net.cpp:425] inception_5a/relu_5x5_reduce <- inception_5a/5x5_reduce
I0403 19:00:33.715143  8426 net.cpp:386] inception_5a/relu_5x5_reduce -> inception_5a/5x5_reduce (in-place)
I0403 19:00:33.715469  8426 net.cpp:141] Setting up inception_5a/relu_5x5_reduce
I0403 19:00:33.715500  8426 net.cpp:148] Top shape: 24 32 7 7 (37632)
I0403 19:00:33.715517  8426 net.cpp:156] Memory required for data: 1299351072
I0403 19:00:33.715534  8426 layer_factory.hpp:77] Creating layer inception_5a/5x5
I0403 19:00:33.715559  8426 net.cpp:91] Creating Layer inception_5a/5x5
I0403 19:00:33.715579  8426 net.cpp:425] inception_5a/5x5 <- inception_5a/5x5_reduce
I0403 19:00:33.715600  8426 net.cpp:399] inception_5a/5x5 -> inception_5a/5x5
I0403 19:00:33.717445  8426 net.cpp:141] Setting up inception_5a/5x5
I0403 19:00:33.717486  8426 net.cpp:148] Top shape: 24 128 7 7 (150528)
I0403 19:00:33.717504  8426 net.cpp:156] Memory required for data: 1299953184
I0403 19:00:33.717525  8426 layer_factory.hpp:77] Creating layer inception_5a/relu_5x5
I0403 19:00:33.717546  8426 net.cpp:91] Creating Layer inception_5a/relu_5x5
I0403 19:00:33.717566  8426 net.cpp:425] inception_5a/relu_5x5 <- inception_5a/5x5
I0403 19:00:33.717584  8426 net.cpp:386] inception_5a/relu_5x5 -> inception_5a/5x5 (in-place)
I0403 19:00:33.717787  8426 net.cpp:141] Setting up inception_5a/relu_5x5
I0403 19:00:33.717815  8426 net.cpp:148] Top shape: 24 128 7 7 (150528)
I0403 19:00:33.717833  8426 net.cpp:156] Memory required for data: 1300555296
I0403 19:00:33.717849  8426 layer_factory.hpp:77] Creating layer inception_5a/pool
I0403 19:00:33.717867  8426 net.cpp:91] Creating Layer inception_5a/pool
I0403 19:00:33.717885  8426 net.cpp:425] inception_5a/pool <- pool4/3x3_s2_pool4/3x3_s2_0_split_3
I0403 19:00:33.717905  8426 net.cpp:399] inception_5a/pool -> inception_5a/pool
I0403 19:00:33.717983  8426 net.cpp:141] Setting up inception_5a/pool
I0403 19:00:33.718008  8426 net.cpp:148] Top shape: 24 832 7 7 (978432)
I0403 19:00:33.718024  8426 net.cpp:156] Memory required for data: 1304469024
I0403 19:00:33.718039  8426 layer_factory.hpp:77] Creating layer inception_5a/pool_proj
I0403 19:00:33.718063  8426 net.cpp:91] Creating Layer inception_5a/pool_proj
I0403 19:00:33.718082  8426 net.cpp:425] inception_5a/pool_proj <- inception_5a/pool
I0403 19:00:33.718106  8426 net.cpp:399] inception_5a/pool_proj -> inception_5a/pool_proj
I0403 19:00:33.720536  8426 net.cpp:141] Setting up inception_5a/pool_proj
I0403 19:00:33.720568  8426 net.cpp:148] Top shape: 24 128 7 7 (150528)
I0403 19:00:33.720585  8426 net.cpp:156] Memory required for data: 1305071136
I0403 19:00:33.720605  8426 layer_factory.hpp:77] Creating layer inception_5a/relu_pool_proj
I0403 19:00:33.720628  8426 net.cpp:91] Creating Layer inception_5a/relu_pool_proj
I0403 19:00:33.720646  8426 net.cpp:425] inception_5a/relu_pool_proj <- inception_5a/pool_proj
I0403 19:00:33.720665  8426 net.cpp:386] inception_5a/relu_pool_proj -> inception_5a/pool_proj (in-place)
I0403 19:00:33.720988  8426 net.cpp:141] Setting up inception_5a/relu_pool_proj
I0403 19:00:33.721016  8426 net.cpp:148] Top shape: 24 128 7 7 (150528)
I0403 19:00:33.721034  8426 net.cpp:156] Memory required for data: 1305673248
I0403 19:00:33.721060  8426 layer_factory.hpp:77] Creating layer inception_5a/output
I0403 19:00:33.721077  8426 net.cpp:91] Creating Layer inception_5a/output
I0403 19:00:33.721093  8426 net.cpp:425] inception_5a/output <- inception_5a/1x1
I0403 19:00:33.721112  8426 net.cpp:425] inception_5a/output <- inception_5a/3x3
I0403 19:00:33.721132  8426 net.cpp:425] inception_5a/output <- inception_5a/5x5
I0403 19:00:33.721149  8426 net.cpp:425] inception_5a/output <- inception_5a/pool_proj
I0403 19:00:33.721168  8426 net.cpp:399] inception_5a/output -> inception_5a/output
I0403 19:00:33.721227  8426 net.cpp:141] Setting up inception_5a/output
I0403 19:00:33.721256  8426 net.cpp:148] Top shape: 24 832 7 7 (978432)
I0403 19:00:33.721272  8426 net.cpp:156] Memory required for data: 1309586976
I0403 19:00:33.721288  8426 layer_factory.hpp:77] Creating layer inception_5a/output_inception_5a/output_0_split
I0403 19:00:33.721315  8426 net.cpp:91] Creating Layer inception_5a/output_inception_5a/output_0_split
I0403 19:00:33.721333  8426 net.cpp:425] inception_5a/output_inception_5a/output_0_split <- inception_5a/output
I0403 19:00:33.721355  8426 net.cpp:399] inception_5a/output_inception_5a/output_0_split -> inception_5a/output_inception_5a/output_0_split_0
I0403 19:00:33.721379  8426 net.cpp:399] inception_5a/output_inception_5a/output_0_split -> inception_5a/output_inception_5a/output_0_split_1
I0403 19:00:33.721401  8426 net.cpp:399] inception_5a/output_inception_5a/output_0_split -> inception_5a/output_inception_5a/output_0_split_2
I0403 19:00:33.721422  8426 net.cpp:399] inception_5a/output_inception_5a/output_0_split -> inception_5a/output_inception_5a/output_0_split_3
I0403 19:00:33.721542  8426 net.cpp:141] Setting up inception_5a/output_inception_5a/output_0_split
I0403 19:00:33.721570  8426 net.cpp:148] Top shape: 24 832 7 7 (978432)
I0403 19:00:33.721590  8426 net.cpp:148] Top shape: 24 832 7 7 (978432)
I0403 19:00:33.721606  8426 net.cpp:148] Top shape: 24 832 7 7 (978432)
I0403 19:00:33.721623  8426 net.cpp:148] Top shape: 24 832 7 7 (978432)
I0403 19:00:33.721638  8426 net.cpp:156] Memory required for data: 1325241888
I0403 19:00:33.721653  8426 layer_factory.hpp:77] Creating layer inception_5b/1x1
I0403 19:00:33.721674  8426 net.cpp:91] Creating Layer inception_5b/1x1
I0403 19:00:33.721691  8426 net.cpp:425] inception_5b/1x1 <- inception_5a/output_inception_5a/output_0_split_0
I0403 19:00:33.721714  8426 net.cpp:399] inception_5b/1x1 -> inception_5b/1x1
I0403 19:00:33.725771  8426 net.cpp:141] Setting up inception_5b/1x1
I0403 19:00:33.725805  8426 net.cpp:148] Top shape: 24 384 7 7 (451584)
I0403 19:00:33.725821  8426 net.cpp:156] Memory required for data: 1327048224
I0403 19:00:33.725842  8426 layer_factory.hpp:77] Creating layer inception_5b/relu_1x1
I0403 19:00:33.725862  8426 net.cpp:91] Creating Layer inception_5b/relu_1x1
I0403 19:00:33.725879  8426 net.cpp:425] inception_5b/relu_1x1 <- inception_5b/1x1
I0403 19:00:33.725900  8426 net.cpp:386] inception_5b/relu_1x1 -> inception_5b/1x1 (in-place)
I0403 19:00:33.726239  8426 net.cpp:141] Setting up inception_5b/relu_1x1
I0403 19:00:33.726268  8426 net.cpp:148] Top shape: 24 384 7 7 (451584)
I0403 19:00:33.726284  8426 net.cpp:156] Memory required for data: 1328854560
I0403 19:00:33.726300  8426 layer_factory.hpp:77] Creating layer inception_5b/3x3_reduce
I0403 19:00:33.726325  8426 net.cpp:91] Creating Layer inception_5b/3x3_reduce
I0403 19:00:33.726346  8426 net.cpp:425] inception_5b/3x3_reduce <- inception_5a/output_inception_5a/output_0_split_1
I0403 19:00:33.726372  8426 net.cpp:399] inception_5b/3x3_reduce -> inception_5b/3x3_reduce
I0403 19:00:33.729251  8426 net.cpp:141] Setting up inception_5b/3x3_reduce
I0403 19:00:33.729284  8426 net.cpp:148] Top shape: 24 192 7 7 (225792)
I0403 19:00:33.729301  8426 net.cpp:156] Memory required for data: 1329757728
I0403 19:00:33.729322  8426 layer_factory.hpp:77] Creating layer inception_5b/relu_3x3_reduce
I0403 19:00:33.729344  8426 net.cpp:91] Creating Layer inception_5b/relu_3x3_reduce
I0403 19:00:33.729362  8426 net.cpp:425] inception_5b/relu_3x3_reduce <- inception_5b/3x3_reduce
I0403 19:00:33.729382  8426 net.cpp:386] inception_5b/relu_3x3_reduce -> inception_5b/3x3_reduce (in-place)
I0403 19:00:33.729584  8426 net.cpp:141] Setting up inception_5b/relu_3x3_reduce
I0403 19:00:33.729612  8426 net.cpp:148] Top shape: 24 192 7 7 (225792)
I0403 19:00:33.729629  8426 net.cpp:156] Memory required for data: 1330660896
I0403 19:00:33.729645  8426 layer_factory.hpp:77] Creating layer inception_5b/3x3
I0403 19:00:33.729670  8426 net.cpp:91] Creating Layer inception_5b/3x3
I0403 19:00:33.729689  8426 net.cpp:425] inception_5b/3x3 <- inception_5b/3x3_reduce
I0403 19:00:33.729713  8426 net.cpp:399] inception_5b/3x3 -> inception_5b/3x3
I0403 19:00:33.736955  8426 net.cpp:141] Setting up inception_5b/3x3
I0403 19:00:33.736987  8426 net.cpp:148] Top shape: 24 384 7 7 (451584)
I0403 19:00:33.737005  8426 net.cpp:156] Memory required for data: 1332467232
I0403 19:00:33.737025  8426 layer_factory.hpp:77] Creating layer inception_5b/relu_3x3
I0403 19:00:33.737048  8426 net.cpp:91] Creating Layer inception_5b/relu_3x3
I0403 19:00:33.737066  8426 net.cpp:425] inception_5b/relu_3x3 <- inception_5b/3x3
I0403 19:00:33.737085  8426 net.cpp:386] inception_5b/relu_3x3 -> inception_5b/3x3 (in-place)
I0403 19:00:33.737407  8426 net.cpp:141] Setting up inception_5b/relu_3x3
I0403 19:00:33.737437  8426 net.cpp:148] Top shape: 24 384 7 7 (451584)
I0403 19:00:33.737452  8426 net.cpp:156] Memory required for data: 1334273568
I0403 19:00:33.737468  8426 layer_factory.hpp:77] Creating layer inception_5b/5x5_reduce
I0403 19:00:33.737511  8426 net.cpp:91] Creating Layer inception_5b/5x5_reduce
I0403 19:00:33.737531  8426 net.cpp:425] inception_5b/5x5_reduce <- inception_5a/output_inception_5a/output_0_split_2
I0403 19:00:33.737556  8426 net.cpp:399] inception_5b/5x5_reduce -> inception_5b/5x5_reduce
I0403 19:00:33.738927  8426 net.cpp:141] Setting up inception_5b/5x5_reduce
I0403 19:00:33.738957  8426 net.cpp:148] Top shape: 24 48 7 7 (56448)
I0403 19:00:33.738975  8426 net.cpp:156] Memory required for data: 1334499360
I0403 19:00:33.738996  8426 layer_factory.hpp:77] Creating layer inception_5b/relu_5x5_reduce
I0403 19:00:33.739017  8426 net.cpp:91] Creating Layer inception_5b/relu_5x5_reduce
I0403 19:00:33.739037  8426 net.cpp:425] inception_5b/relu_5x5_reduce <- inception_5b/5x5_reduce
I0403 19:00:33.739056  8426 net.cpp:386] inception_5b/relu_5x5_reduce -> inception_5b/5x5_reduce (in-place)
I0403 19:00:33.739462  8426 net.cpp:141] Setting up inception_5b/relu_5x5_reduce
I0403 19:00:33.739490  8426 net.cpp:148] Top shape: 24 48 7 7 (56448)
I0403 19:00:33.739507  8426 net.cpp:156] Memory required for data: 1334725152
I0403 19:00:33.739524  8426 layer_factory.hpp:77] Creating layer inception_5b/5x5
I0403 19:00:33.739547  8426 net.cpp:91] Creating Layer inception_5b/5x5
I0403 19:00:33.739567  8426 net.cpp:425] inception_5b/5x5 <- inception_5b/5x5_reduce
I0403 19:00:33.739586  8426 net.cpp:399] inception_5b/5x5 -> inception_5b/5x5
I0403 19:00:33.741801  8426 net.cpp:141] Setting up inception_5b/5x5
I0403 19:00:33.741830  8426 net.cpp:148] Top shape: 24 128 7 7 (150528)
I0403 19:00:33.741847  8426 net.cpp:156] Memory required for data: 1335327264
I0403 19:00:33.741866  8426 layer_factory.hpp:77] Creating layer inception_5b/relu_5x5
I0403 19:00:33.741890  8426 net.cpp:91] Creating Layer inception_5b/relu_5x5
I0403 19:00:33.741909  8426 net.cpp:425] inception_5b/relu_5x5 <- inception_5b/5x5
I0403 19:00:33.741930  8426 net.cpp:386] inception_5b/relu_5x5 -> inception_5b/5x5 (in-place)
I0403 19:00:33.742139  8426 net.cpp:141] Setting up inception_5b/relu_5x5
I0403 19:00:33.742168  8426 net.cpp:148] Top shape: 24 128 7 7 (150528)
I0403 19:00:33.742198  8426 net.cpp:156] Memory required for data: 1335929376
I0403 19:00:33.742218  8426 layer_factory.hpp:77] Creating layer inception_5b/pool
I0403 19:00:33.742236  8426 net.cpp:91] Creating Layer inception_5b/pool
I0403 19:00:33.742254  8426 net.cpp:425] inception_5b/pool <- inception_5a/output_inception_5a/output_0_split_3
I0403 19:00:33.742277  8426 net.cpp:399] inception_5b/pool -> inception_5b/pool
I0403 19:00:33.742355  8426 net.cpp:141] Setting up inception_5b/pool
I0403 19:00:33.742382  8426 net.cpp:148] Top shape: 24 832 7 7 (978432)
I0403 19:00:33.742398  8426 net.cpp:156] Memory required for data: 1339843104
I0403 19:00:33.742414  8426 layer_factory.hpp:77] Creating layer inception_5b/pool_proj
I0403 19:00:33.742439  8426 net.cpp:91] Creating Layer inception_5b/pool_proj
I0403 19:00:33.742458  8426 net.cpp:425] inception_5b/pool_proj <- inception_5b/pool
I0403 19:00:33.742482  8426 net.cpp:399] inception_5b/pool_proj -> inception_5b/pool_proj
I0403 19:00:33.744978  8426 net.cpp:141] Setting up inception_5b/pool_proj
I0403 19:00:33.745012  8426 net.cpp:148] Top shape: 24 128 7 7 (150528)
I0403 19:00:33.745029  8426 net.cpp:156] Memory required for data: 1340445216
I0403 19:00:33.745049  8426 layer_factory.hpp:77] Creating layer inception_5b/relu_pool_proj
I0403 19:00:33.745074  8426 net.cpp:91] Creating Layer inception_5b/relu_pool_proj
I0403 19:00:33.745091  8426 net.cpp:425] inception_5b/relu_pool_proj <- inception_5b/pool_proj
I0403 19:00:33.745110  8426 net.cpp:386] inception_5b/relu_pool_proj -> inception_5b/pool_proj (in-place)
I0403 19:00:33.745434  8426 net.cpp:141] Setting up inception_5b/relu_pool_proj
I0403 19:00:33.745463  8426 net.cpp:148] Top shape: 24 128 7 7 (150528)
I0403 19:00:33.745481  8426 net.cpp:156] Memory required for data: 1341047328
I0403 19:00:33.745496  8426 layer_factory.hpp:77] Creating layer inception_5b/output
I0403 19:00:33.745515  8426 net.cpp:91] Creating Layer inception_5b/output
I0403 19:00:33.745548  8426 net.cpp:425] inception_5b/output <- inception_5b/1x1
I0403 19:00:33.745568  8426 net.cpp:425] inception_5b/output <- inception_5b/3x3
I0403 19:00:33.745585  8426 net.cpp:425] inception_5b/output <- inception_5b/5x5
I0403 19:00:33.745604  8426 net.cpp:425] inception_5b/output <- inception_5b/pool_proj
I0403 19:00:33.745625  8426 net.cpp:399] inception_5b/output -> inception_5b/output
I0403 19:00:33.745682  8426 net.cpp:141] Setting up inception_5b/output
I0403 19:00:33.745707  8426 net.cpp:148] Top shape: 24 1024 7 7 (1204224)
I0403 19:00:33.745723  8426 net.cpp:156] Memory required for data: 1345864224
I0403 19:00:33.745739  8426 layer_factory.hpp:77] Creating layer pool5/7x7_s1
I0403 19:00:33.745759  8426 net.cpp:91] Creating Layer pool5/7x7_s1
I0403 19:00:33.745776  8426 net.cpp:425] pool5/7x7_s1 <- inception_5b/output
I0403 19:00:33.745800  8426 net.cpp:399] pool5/7x7_s1 -> pool5/7x7_s1
I0403 19:00:33.746032  8426 net.cpp:141] Setting up pool5/7x7_s1
I0403 19:00:33.746060  8426 net.cpp:148] Top shape: 24 1024 1 1 (24576)
I0403 19:00:33.746078  8426 net.cpp:156] Memory required for data: 1345962528
I0403 19:00:33.746093  8426 layer_factory.hpp:77] Creating layer pool5/drop_7x7_s1
I0403 19:00:33.746115  8426 net.cpp:91] Creating Layer pool5/drop_7x7_s1
I0403 19:00:33.746134  8426 net.cpp:425] pool5/drop_7x7_s1 <- pool5/7x7_s1
I0403 19:00:33.746152  8426 net.cpp:386] pool5/drop_7x7_s1 -> pool5/7x7_s1 (in-place)
I0403 19:00:33.746212  8426 net.cpp:141] Setting up pool5/drop_7x7_s1
I0403 19:00:33.746237  8426 net.cpp:148] Top shape: 24 1024 1 1 (24576)
I0403 19:00:33.746253  8426 net.cpp:156] Memory required for data: 1346060832
I0403 19:00:33.746270  8426 layer_factory.hpp:77] Creating layer loss3/classifier_plantvillage
I0403 19:00:33.746290  8426 net.cpp:91] Creating Layer loss3/classifier_plantvillage
I0403 19:00:33.746309  8426 net.cpp:425] loss3/classifier_plantvillage <- pool5/7x7_s1
I0403 19:00:33.746332  8426 net.cpp:399] loss3/classifier_plantvillage -> loss3/classifier_plantvillage
I0403 19:00:33.746793  8426 net.cpp:141] Setting up loss3/classifier_plantvillage
I0403 19:00:33.746820  8426 net.cpp:148] Top shape: 24 38 (912)
I0403 19:00:33.746837  8426 net.cpp:156] Memory required for data: 1346064480
I0403 19:00:33.746857  8426 layer_factory.hpp:77] Creating layer loss3/classifier_plantvillage_loss3/classifier_plantvillage_0_split
I0403 19:00:33.746876  8426 net.cpp:91] Creating Layer loss3/classifier_plantvillage_loss3/classifier_plantvillage_0_split
I0403 19:00:33.746896  8426 net.cpp:425] loss3/classifier_plantvillage_loss3/classifier_plantvillage_0_split <- loss3/classifier_plantvillage
I0403 19:00:33.746917  8426 net.cpp:399] loss3/classifier_plantvillage_loss3/classifier_plantvillage_0_split -> loss3/classifier_plantvillage_loss3/classifier_plantvillage_0_split_0
I0403 19:00:33.746942  8426 net.cpp:399] loss3/classifier_plantvillage_loss3/classifier_plantvillage_0_split -> loss3/classifier_plantvillage_loss3/classifier_plantvillage_0_split_1
I0403 19:00:33.746964  8426 net.cpp:399] loss3/classifier_plantvillage_loss3/classifier_plantvillage_0_split -> loss3/classifier_plantvillage_loss3/classifier_plantvillage_0_split_2
I0403 19:00:33.746985  8426 net.cpp:399] loss3/classifier_plantvillage_loss3/classifier_plantvillage_0_split -> loss3/classifier_plantvillage_loss3/classifier_plantvillage_0_split_3
I0403 19:00:33.747098  8426 net.cpp:141] Setting up loss3/classifier_plantvillage_loss3/classifier_plantvillage_0_split
I0403 19:00:33.747123  8426 net.cpp:148] Top shape: 24 38 (912)
I0403 19:00:33.747141  8426 net.cpp:148] Top shape: 24 38 (912)
I0403 19:00:33.747159  8426 net.cpp:148] Top shape: 24 38 (912)
I0403 19:00:33.747175  8426 net.cpp:148] Top shape: 24 38 (912)
I0403 19:00:33.747200  8426 net.cpp:156] Memory required for data: 1346079072
I0403 19:00:33.747215  8426 layer_factory.hpp:77] Creating layer loss1/loss
I0403 19:00:33.747241  8426 net.cpp:91] Creating Layer loss1/loss
I0403 19:00:33.747269  8426 net.cpp:425] loss1/loss <- loss1/classifier_plantvillage_loss1/classifier_plantvillage_0_split_0
I0403 19:00:33.747303  8426 net.cpp:425] loss1/loss <- label_data_1_split_0
…
