…
I0403 19:30:30.116515  9317 net.cpp:313] The NetState phase (1) differed from the phase (0) specified by a rule in layer data
I0403 19:30:30.117712  9317 net.cpp:49] Initializing net from parameters: 
state {
  phase: TEST
}
layer {
  name: "data"
  type: "Data"
  top: "data"
  top: "label"
  include {
    phase: TEST
  }
  transform_param {
    mirror: false
    crop_size: 224
    mean_file: "/home/mohanty/data/final_dataset/lmdb/grayscale-50-50/mean.binaryproto"
  }
  data_param {
    source: "/home/mohanty/data/final_dataset/lmdb/grayscale-50-50/test_db"
    batch_size: 24
    backend: LMDB
  }
}
layer {
  name: "conv1/7x7_s2"
  type: "Convolution"
  bottom: "data"
  top: "conv1/7x7_s2"
  param {
    lr_mult: 1
    decay_mult: 1
  }
  param {
    lr_mult: 2
    decay_mult: 0
  }
  convolution_param {
    num_output: 64
    pad: 3
    kernel_size: 7
    stride: 2
    weight_filler {
      type: "xavier"
      std: 0.1
    }
    bias_filler {
      type: "constant"
      value: 0.2
    }
  }
}
layer {
  name: "conv1/relu_7x7"
  type: "ReLU"
  bottom: "conv1/7x7_s2"
  top: "conv1/7x7_s2"
}
layer {
  name: "pool1/3x3_s2"
  type: "Pooling"
  bottom: "conv1/7x7_s2"
  top: "pool1/3x3_s2"
  pooling_param {
    pool: MAX
    kernel_size: 3
    stride: 2
  }
}
layer {
  name: "pool1/norm1"
  type: "LRN"
  bottom: "pool1/3x3_s2"
  top: "pool1/norm1"
  lrn_param {
    local_size: 5
    alpha: 0.0001
    beta: 0.75
  }
}
layer {
  name: "conv2/3x3_reduce"
  type: "Convolution"
  bottom: "pool1/norm1"
  top: "conv2/3x3_reduce"
  param {
    lr_mult: 1
    decay_mult: 1
  }
  param {
    lr_mult: 2
    decay_mult: 0
  }
  convolution_param {
    num_output: 64
    kernel_size: 1
    weight_filler {
      type: "xavier"
      std: 0.1
    }
    bias_filler {
      type: "constant"
      value: 0.2
    }
  }
}
layer {
  name: "conv2/relu_3x3_reduce"
  type: "ReLU"
  bottom: "conv2/3x3_reduce"
  top: "conv2/3x3_reduce"
}
layer {
  name: "conv2/3x3"
  type: "Convolution"
  bottom: "conv2/3x3_reduce"
  top: "conv2/3x3"
  param {
    lr_mult: 1
    decay_mult: 1
  }
  param {
    lr_mult: 2
    decay_mult: 0
  }
  convolution_param {
    num_output: 192
    pad: 1
    kernel_size: 3
    weight_filler {
      type: "xavier"
      std: 0.03
    }
    bias_filler {
      type: "constant"
      value: 0.2
    }
  }
}
layer {
  name: "conv2/relu_3x3"
  type: "ReLU"
  bottom: "conv2/3x3"
  top: "conv2/3x3"
}
layer {
  name: "conv2/norm2"
  type: "LRN"
  bottom: "conv2/3x3"
  top: "conv2/norm2"
  lrn_param {
    local_size: 5
    alpha: 0.0001
    beta: 0.75
  }
}
layer {
  name: "pool2/3x3_s2"
  type: "Pooling"
  bottom: "conv2/norm2"
  top: "pool2/3x3_s2"
  pooling_param {
    pool: MAX
    kernel_size: 3
    stride: 2
  }
}
layer {
  name: "inception_3a/1x1"
  type: "Convolution"
  bottom: "pool2/3x3_s2"
  top: "inception_3a/1x1"
  param {
    lr_mult: 1
    decay_mult: 1
  }
  param {
    lr_mult: 2
    decay_mult: 0
  }
  convolution_param {
    num_output: 64
    kernel_size: 1
    weight_filler {
      type: "xavier"
      std: 0.03
    }
    bias_filler {
      type: "constant"
      value: 0.2
    }
  }
}
layer {
  name: "inception_3a/relu_1x1"
  type: "ReLU"
  bottom: "inception_3a/1x1"
  top: "inception_3a/1x1"
}
layer {
  name: "inception_3a/3x3_reduce"
  type: "Convolution"
  bottom: "pool2/3x3_s2"
  top: "inception_3a/3x3_reduce"
  param {
    lr_mult: 1
    decay_mult: 1
  }
  param {
    lr_mult: 2
    decay_mult: 0
  }
  convolution_param {
    num_output: 96
    kernel_size: 1
    weight_filler {
      type: "xavier"
      std: 0.09
    }
    bias_filler {
      type: "constant"
      value: 0.2
    }
  }
}
layer {
  name: "inception_3a/relu_3x3_reduce"
  type: "ReLU"
  bottom: "inception_3a/3x3_reduce"
  top: "inception_3a/3x3_reduce"
}
layer {
  name: "inception_3a/3x3"
  type: "Convolution"
  bottom: "inception_3a/3x3_reduce"
  top: "inception_3a/3x3"
  param {
    lr_mult: 1
    decay_mult: 1
  }
  param {
    lr_mult: 2
    decay_mult: 0
  }
  convolution_param {
    num_output: 128
    pad: 1
    kernel_size: 3
    weight_filler {
      type: "xavier"
      std: 0.03
    }
    bias_filler {
      type: "constant"
      value: 0.2
    }
  }
}
layer {
  name: "inception_3a/relu_3x3"
  type: "ReLU"
  bottom: "inception_3a/3x3"
  top: "inception_3a/3x3"
}
layer {
  name: "inception_3a/5x5_reduce"
  type: "Convolution"
  bottom: "pool2/3x3_s2"
  top: "inception_3a/5x5_reduce"
  param {
    lr_mult: 1
    decay_mult: 1
  }
  param {
    lr_mult: 2
    decay_mult: 0
  }
  convolution_param {
    num_output: 16
    kernel_size: 1
    weight_filler {
      type: "xavier"
      std: 0.2
    }
    bias_filler {
      type: "constant"
      value: 0.2
    }
  }
}
layer {
  name: "inception_3a/relu_5x5_reduce"
  type: "ReLU"
  bottom: "inception_3a/5x5_reduce"
  top: "inception_3a/5x5_reduce"
}
layer {
  name: "inception_3a/5x5"
  type: "Convolution"
  bottom: "inception_3a/5x5_reduce"
  top: "inception_3a/5x5"
  param {
    lr_mult: 1
    decay_mult: 1
  }
  param {
    lr_mult: 2
    decay_mult: 0
  }
  convolution_param {
    num_output: 32
    pad: 2
    kernel_size: 5
    weight_filler {
      type: "xavier"
      std: 0.03
    }
    bias_filler {
      type: "constant"
      value: 0.2
    }
  }
}
layer {
  name: "inception_3a/relu_5x5"
  type: "ReLU"
  bottom: "inception_3a/5x5"
  top: "inception_3a/5x5"
}
layer {
  name: "inception_3a/pool"
  type: "Pooling"
  bottom: "pool2/3x3_s2"
  top: "inception_3a/pool"
  pooling_param {
    pool: MAX
    kernel_size: 3
    stride: 1
    pad: 1
  }
}
layer {
  name: "inception_3a/pool_proj"
  type: "Convolution"
  bottom: "inception_3a/pool"
  top: "inception_3a/pool_proj"
  param {
    lr_mult: 1
    decay_mult: 1
  }
  param {
    lr_mult: 2
    decay_mult: 0
  }
  convolution_param {
    num_output: 32
    kernel_size: 1
    weight_filler {
      type: "xavier"
      std: 0.1
    }
    bias_filler {
      type: "constant"
      value: 0.2
    }
  }
}
layer {
  name: "inception_3a/relu_pool_proj"
  type: "ReLU"
  bottom: "inception_3a/pool_proj"
  top: "inception_3a/pool_proj"
}
layer {
  name: "inception_3a/output"
  type: "Concat"
  bottom: "inception_3a/1x1"
  bottom: "inception_3a/3x3"
  bottom: "inception_3a/5x5"
  bottom: "inception_3a/pool_proj"
  top: "inception_3a/output"
}
layer {
  name: "inception_3b/1x1"
  type: "Convolution"
  bottom: "inception_3a/output"
  top: "inception_3b/1x1"
  param {
    lr_mult: 1
    decay_mult: 1
  }
  param {
    lr_mult: 2
    decay_mult: 0
  }
  convolution_param {
    num_output: 128
    kernel_size: 1
    weight_filler {
      type: "xavier"
      std: 0.03
    }
    bias_filler {
      type: "constant"
      value: 0.2
    }
  }
}
layer {
  name: "inception_3b/relu_1x1"
  type: "ReLU"
  bottom: "inception_3b/1x1"
  top: "inception_3b/1x1"
}
layer {
  name: "inception_3b/3x3_reduce"
  type: "Convolution"
  bottom: "inception_3a/output"
  top: "inception_3b/3x3_reduce"
  param {
    lr_mult: 1
    decay_mult: 1
  }
  param {
    lr_mult: 2
    decay_mult: 0
  }
  convolution_param {
    num_output: 128
    kernel_size: 1
    weight_filler {
      type: "xavier"
      std: 0.09
    }
    bias_filler {
      type: "constant"
      value: 0.2
    }
  }
}
layer {
  name: "inception_3b/relu_3x3_reduce"
  type: "ReLU"
  bottom: "inception_3b/3x3_reduce"
  top: "inception_3b/3x3_reduce"
}
layer {
  name: "inception_3b/3x3"
  type: "Convolution"
  bottom: "inception_3b/3x3_reduce"
  top: "inception_3b/3x3"
  param {
    lr_mult: 1
    decay_mult: 1
  }
  param {
    lr_mult: 2
    decay_mult: 0
  }
  convolution_param {
    num_output: 192
    pad: 1
    kernel_size: 3
    weight_filler {
      type: "xavier"
      std: 0.03
    }
    bias_filler {
      type: "constant"
      value: 0.2
    }
  }
}
layer {
  name: "inception_3b/relu_3x3"
  type: "ReLU"
  bottom: "inception_3b/3x3"
  top: "inception_3b/3x3"
}
layer {
  name: "inception_3b/5x5_reduce"
  type: "Convolution"
  bottom: "inception_3a/output"
  top: "inception_3b/5x5_reduce"
  param {
    lr_mult: 1
    decay_mult: 1
  }
  param {
    lr_mult: 2
    decay_mult: 0
  }
  convolution_param {
    num_output: 32
    kernel_size: 1
    weight_filler {
      type: "xavier"
      std: 0.2
    }
    bias_filler {
      type: "constant"
      value: 0.2
    }
  }
}
layer {
  name: "inception_3b/relu_5x5_reduce"
  type: "ReLU"
  bottom: "inception_3b/5x5_reduce"
  top: "inception_3b/5x5_reduce"
}
layer {
  name: "inception_3b/5x5"
  type: "Convolution"
  bottom: "inception_3b/5x5_reduce"
  top: "inception_3b/5x5"
  param {
    lr_mult: 1
    decay_mult: 1
  }
  param {
    lr_mult: 2
    decay_mult: 0
  }
  convolution_param {
    num_output: 96
    pad: 2
    kernel_size: 5
    weight_filler {
      type: "xavier"
      std: 0.03
    }
    bias_filler {
      type: "constant"
      value: 0.2
    }
  }
}
layer {
  name: "inception_3b/relu_5x5"
  type: "ReLU"
  bottom: "inception_3b/5x5"
  top: "inception_3b/5x5"
}
layer {
  name: "inception_3b/pool"
  type: "Pooling"
  bottom: "inception_3a/output"
  top: "inception_3b/pool"
  pooling_param {
    pool: MAX
    kernel_size: 3
    stride: 1
    pad: 1
  }
}
layer {
  name: "inception_3b/pool_proj"
  type: "Convolution"
  bottom: "inception_3b/pool"
  top: "inception_3b/pool_proj"
  param {
    lr_mult: 1
    decay_mult: 1
  }
  param {
    lr_mult: 2
    decay_mult: 0
  }
  convolution_param {
    num_output: 64
    kernel_size: 1
    weight_filler {
      type: "xavier"
      std: 0.1
    }
    bias_filler {
      type: "constant"
      value: 0.2
    }
  }
}
layer {
  name: "inception_3b/relu_pool_proj"
  type: "ReLU"
  bottom: "inception_3b/pool_proj"
  top: "inception_3b/pool_proj"
}
layer {
  name: "inception_3b/output"
  type: "Concat"
  bottom: "inception_3b/1x1"
  bottom: "inception_3b/3x3"
  bottom: "inception_3b/5x5"
  bottom: "inception_3b/pool_proj"
  top: "inception_3b/output"
}
layer {
  name: "pool3/3x3_s2"
  type: "Pooling"
  bottom: "inception_3b/output"
  top: "pool3/3x3_s2"
  pooling_param {
    pool: MAX
    kernel_size: 3
    stride: 2
  }
}
layer {
  name: "inception_4a/1x1"
  type: "Convolution"
  bottom: "pool3/3x3_s2"
  top: "inception_4a/1x1"
  param {
    lr_mult: 1
    decay_mult: 1
  }
  param {
    lr_mult: 2
    decay_mult: 0
  }
  convolution_param {
    num_output: 192
    kernel_size: 1
    weight_filler {
      type: "xavier"
      std: 0.03
    }
    bias_filler {
      type: "constant"
      value: 0.2
    }
  }
}
layer {
  name: "inception_4a/relu_1x1"
  type: "ReLU"
  bottom: "inception_4a/1x1"
  top: "inception_4a/1x1"
}
layer {
  name: "inception_4a/3x3_reduce"
  type: "Convolution"
  bottom: "pool3/3x3_s2"
  top: "inception_4a/3x3_reduce"
  param {
    lr_mult: 1
    decay_mult: 1
  }
  param {
    lr_mult: 2
    decay_mult: 0
  }
  convolution_param {
    num_output: 96
    kernel_size: 1
    weight_filler {
      type: "xavier"
      std: 0.09
    }
    bias_filler {
      type: "constant"
      value: 0.2
    }
  }
}
layer {
  name: "inception_4a/relu_3x3_reduce"
  type: "ReLU"
  bottom: "inception_4a/3x3_reduce"
  top: "inception_4a/3x3_reduce"
}
layer {
  name: "inception_4a/3x3"
  type: "Convolution"
  bottom: "inception_4a/3x3_reduce"
  top: "inception_4a/3x3"
  param {
    lr_mult: 1
    decay_mult: 1
  }
  param {
    lr_mult: 2
    decay_mult: 0
  }
  convolution_param {
    num_output: 208
    pad: 1
    kernel_size: 3
    weight_filler {
      type: "xavier"
      std: 0.03
    }
    bias_filler {
      type: "constant"
      value: 0.2
    }
  }
}
layer {
  name: "inception_4a/relu_3x3"
  type: "ReLU"
  bottom: "inception_4a/3x3"
  top: "inception_4a/3x3"
}
layer {
  name: "inception_4a/5x5_reduce"
  type: "Convolution"
  bottom: "pool3/3x3_s2"
  top: "inception_4a/5x5_reduce"
  param {
    lr_mult: 1
    decay_mult: 1
  }
  param {
    lr_mult: 2
    decay_mult: 0
  }
  convolution_param {
    num_output: 16
    kernel_size: 1
    weight_filler {
      type: "xavier"
      std: 0.2
    }
    bias_filler {
      type: "constant"
      value: 0.2
    }
  }
}
layer {
  name: "inception_4a/relu_5x5_reduce"
  type: "ReLU"
  bottom: "inception_4a/5x5_reduce"
  top: "inception_4a/5x5_reduce"
}
layer {
  name: "inception_4a/5x5"
  type: "Convolution"
  bottom: "inception_4a/5x5_reduce"
  top: "inception_4a/5x5"
  param {
    lr_mult: 1
    decay_mult: 1
  }
  param {
    lr_mult: 2
    decay_mult: 0
  }
  convolution_param {
    num_output: 48
    pad: 2
    kernel_size: 5
    weight_filler {
      type: "xavier"
      std: 0.03
    }
    bias_filler {
      type: "constant"
      value: 0.2
    }
  }
}
layer {
  name: "inception_4a/relu_5x5"
  type: "ReLU"
  bottom: "inception_4a/5x5"
  top: "inception_4a/5x5"
}
layer {
  name: "inception_4a/pool"
  type: "Pooling"
  bottom: "pool3/3x3_s2"
  top: "inception_4a/pool"
  pooling_param {
    pool: MAX
    kernel_size: 3
    stride: 1
    pad: 1
  }
}
layer {
  name: "inception_4a/pool_proj"
  type: "Convolution"
  bottom: "inception_4a/pool"
  top: "inception_4a/pool_proj"
  param {
    lr_mult: 1
    decay_mult: 1
  }
  param {
    lr_mult: 2
    decay_mult: 0
  }
  convolution_param {
    num_output: 64
    kernel_size: 1
    weight_filler {
      type: "xavier"
      std: 0.1
    }
    bias_filler {
      type: "constant"
      value: 0.2
    }
  }
}
layer {
  name: "inception_4a/relu_pool_proj"
  type: "ReLU"
  bottom: "inception_4a/pool_proj"
  top: "inception_4a/pool_proj"
}
layer {
  name: "inception_4a/output"
  type: "Concat"
  bottom: "inception_4a/1x1"
  bottom: "inception_4a/3x3"
  bottom: "inception_4a/5x5"
  bottom: "inception_4a/pool_proj"
  top: "inception_4a/output"
}
layer {
  name: "loss1/ave_pool"
  type: "Pooling"
  bottom: "inception_4a/output"
  top: "loss1/ave_pool"
  pooling_param {
    pool: AVE
    kernel_size: 5
    stride: 3
  }
}
layer {
  name: "loss1/conv"
  type: "Convolution"
  bottom: "loss1/ave_pool"
  top: "loss1/conv"
  param {
    lr_mult: 1
    decay_mult: 1
  }
  param {
    lr_mult: 2
    decay_mult: 0
  }
  convolution_param {
    num_output: 128
    kernel_size: 1
    weight_filler {
      type: "xavier"
      std: 0.08
    }
    bias_filler {
      type: "constant"
      value: 0.2
    }
  }
}
layer {
  name: "loss1/relu_conv"
  type: "ReLU"
  bottom: "loss1/conv"
  top: "loss1/conv"
}
layer {
  name: "loss1/fc"
  type: "InnerProduct"
  bottom: "loss1/conv"
  top: "loss1/fc"
  param {
    lr_mult: 1
    decay_mult: 1
  }
  param {
    lr_mult: 2
    decay_mult: 0
  }
  inner_product_param {
    num_output: 1024
    weight_filler {
      type: "xavier"
      std: 0.02
    }
    bias_filler {
      type: "constant"
      value: 0.2
    }
  }
}
layer {
  name: "loss1/relu_fc"
  type: "ReLU"
  bottom: "loss1/fc"
  top: "loss1/fc"
}
layer {
  name: "loss1/drop_fc"
  type: "Dropout"
  bottom: "loss1/fc"
  top: "loss1/fc"
  dropout_param {
    dropout_ratio: 0.7
  }
}
layer {
  name: "loss1/classifier_plantvillage"
  type: "InnerProduct"
  bottom: "loss1/fc"
  top: "loss1/classifier_plantvillage"
  param {
    lr_mult: 1
    decay_mult: 1
  }
  param {
    lr_mult: 2
    decay_mult: 0
  }
  inner_product_param {
    num_output: 38
    weight_filler {
      type: "xavier"
      std: 0.0009765625
    }
    bias_filler {
      type: "constant"
      value: 0
    }
  }
}
layer {
  name: "inception_4b/1x1"
  type: "Convolution"
  bottom: "inception_4a/output"
  top: "inception_4b/1x1"
  param {
    lr_mult: 1
    decay_mult: 1
  }
  param {
    lr_mult: 2
    decay_mult: 0
  }
  convolution_param {
    num_output: 160
    kernel_size: 1
    weight_filler {
      type: "xavier"
      std: 0.03
    }
    bias_filler {
      type: "constant"
      value: 0.2
    }
  }
}
layer {
  name: "inception_4b/relu_1x1"
  type: "ReLU"
  bottom: "inception_4b/1x1"
  top: "inception_4b/1x1"
}
layer {
  name: "inception_4b/3x3_reduce"
  type: "Convolution"
  bottom: "inception_4a/output"
  top: "inception_4b/3x3_reduce"
  param {
    lr_mult: 1
    decay_mult: 1
  }
  param {
    lr_mult: 2
    decay_mult: 0
  }
  convolution_param {
    num_output: 112
    kernel_size: 1
    weight_filler {
      type: "xavier"
      std: 0.09
    }
    bias_filler {
      type: "constant"
      value: 0.2
    }
  }
}
layer {
  name: "inception_4b/relu_3x3_reduce"
  type: "ReLU"
  bottom: "inception_4b/3x3_reduce"
  top: "inception_4b/3x3_reduce"
}
layer {
  name: "inception_4b/3x3"
  type: "Convolution"
  bottom: "inception_4b/3x3_reduce"
  top: "inception_4b/3x3"
  param {
    lr_mult: 1
    decay_mult: 1
  }
  param {
    lr_mult: 2
    decay_mult: 0
  }
  convolution_param {
    num_output: 224
    pad: 1
    kernel_size: 3
    weight_filler {
      type: "xavier"
      std: 0.03
    }
    bias_filler {
      type: "constant"
      value: 0.2
    }
  }
}
layer {
  name: "inception_4b/relu_3x3"
  type: "ReLU"
  bottom: "inception_4b/3x3"
  top: "inception_4b/3x3"
}
layer {
  name: "inception_4b/5x5_reduce"
  type: "Convolution"
  bottom: "inception_4a/output"
  top: "inception_4b/5x5_reduce"
  param {
    lr_mult: 1
    decay_mult: 1
  }
  param {
    lr_mult: 2
    decay_mult: 0
  }
  convolution_param {
    num_output: 24
    kernel_size: 1
    weight_filler {
      type: "xavier"
      std: 0.2
    }
    bias_filler {
      type: "constant"
      value: 0.2
    }
  }
}
layer {
  name: "inception_4b/relu_5x5_reduce"
  type: "ReLU"
  bottom: "inception_4b/5x5_reduce"
  top: "inception_4b/5x5_reduce"
}
layer {
  name: "inception_4b/5x5"
  type: "Convolution"
  bottom: "inception_4b/5x5_reduce"
  top: "inception_4b/5x5"
  param {
    lr_mult: 1
    decay_mult: 1
  }
  param {
    lr_mult: 2
    decay_mult: 0
  }
  convolution_param {
    num_output: 64
    pad: 2
    kernel_size: 5
    weight_filler {
      type: "xavier"
      std: 0.03
    }
    bias_filler {
      type: "constant"
      value: 0.2
    }
  }
}
layer {
  name: "inception_4b/relu_5x5"
  type: "ReLU"
  bottom: "inception_4b/5x5"
  top: "inception_4b/5x5"
}
layer {
  name: "inception_4b/pool"
  type: "Pooling"
  bottom: "inception_4a/output"
  top: "inception_4b/pool"
  pooling_param {
    pool: MAX
    kernel_size: 3
    stride: 1
    pad: 1
  }
}
layer {
  name: "inception_4b/pool_proj"
  type: "Convolution"
  bottom: "inception_4b/pool"
  top: "inception_4b/pool_proj"
  param {
    lr_mult: 1
    decay_mult: 1
  }
  param {
    lr_mult: 2
    decay_mult: 0
  }
  convolution_param {
    num_output: 64
    kernel_size: 1
    weight_filler {
      type: "xavier"
      std: 0.1
    }
    bias_filler {
      type: "constant"
      value: 0.2
    }
  }
}
layer {
  name: "inception_4b/relu_pool_proj"
  type: "ReLU"
  bottom: "inception_4b/pool_proj"
  top: "inception_4b/pool_proj"
}
layer {
  name: "inception_4b/output"
  type: "Concat"
  bottom: "inception_4b/1x1"
  bottom: "inception_4b/3x3"
  bottom: "inception_4b/5x5"
  bottom: "inception_4b/pool_proj"
  top: "inception_4b/output"
}
layer {
  name: "inception_4c/1x1"
  type: "Convolution"
  bottom: "inception_4b/output"
  top: "inception_4c/1x1"
  param {
    lr_mult: 1
    decay_mult: 1
  }
  param {
    lr_mult: 2
    decay_mult: 0
  }
  convolution_param {
    num_output: 128
    kernel_size: 1
    weight_filler {
      type: "xavier"
      std: 0.03
    }
    bias_filler {
      type: "constant"
      value: 0.2
    }
  }
}
layer {
  name: "inception_4c/relu_1x1"
  type: "ReLU"
  bottom: "inception_4c/1x1"
  top: "inception_4c/1x1"
}
layer {
  name: "inception_4c/3x3_reduce"
  type: "Convolution"
  bottom: "inception_4b/output"
  top: "inception_4c/3x3_reduce"
  param {
    lr_mult: 1
    decay_mult: 1
  }
  param {
    lr_mult: 2
    decay_mult: 0
  }
  convolution_param {
    num_output: 128
    kernel_size: 1
    weight_filler {
      type: "xavier"
      std: 0.09
    }
    bias_filler {
      type: "constant"
      value: 0.2
    }
  }
}
layer {
  name: "inception_4c/relu_3x3_reduce"
  type: "ReLU"
  bottom: "inception_4c/3x3_reduce"
  top: "inception_4c/3x3_reduce"
}
layer {
  name: "inception_4c/3x3"
  type: "Convolution"
  bottom: "inception_4c/3x3_reduce"
  top: "inception_4c/3x3"
  param {
    lr_mult: 1
    decay_mult: 1
  }
  param {
    lr_mult: 2
    decay_mult: 0
  }
  convolution_param {
    num_output: 256
    pad: 1
    kernel_size: 3
    weight_filler {
      type: "xavier"
      std: 0.03
    }
    bias_filler {
      type: "constant"
      value: 0.2
    }
  }
}
layer {
  name: "inception_4c/relu_3x3"
  type: "ReLU"
  bottom: "inception_4c/3x3"
  top: "inception_4c/3x3"
}
layer {
  name: "inception_4c/5x5_reduce"
  type: "Convolution"
  bottom: "inception_4b/output"
  top: "inception_4c/5x5_reduce"
  param {
    lr_mult: 1
    decay_mult: 1
  }
  param {
    lr_mult: 2
    decay_mult: 0
  }
  convolution_param {
    num_output: 24
    kernel_size: 1
    weight_filler {
      type: "xavier"
      std: 0.2
    }
    bias_filler {
      type: "constant"
      value: 0.2
    }
  }
}
layer {
  name: "inception_4c/relu_5x5_reduce"
  type: "ReLU"
  bottom: "inception_4c/5x5_reduce"
  top: "inception_4c/5x5_reduce"
}
layer {
  name: "inception_4c/5x5"
  type: "Convolution"
  bottom: "inception_4c/5x5_reduce"
  top: "inception_4c/5x5"
  param {
    lr_mult: 1
    decay_mult: 1
  }
  param {
    lr_mult: 2
    decay_mult: 0
  }
  convolution_param {
    num_output: 64
    pad: 2
    kernel_size: 5
    weight_filler {
      type: "xavier"
      std: 0.03
    }
    bias_filler {
      type: "constant"
      value: 0.2
    }
  }
}
layer {
  name: "inception_4c/relu_5x5"
  type: "ReLU"
  bottom: "inception_4c/5x5"
  top: "inception_4c/5x5"
}
layer {
  name: "inception_4c/pool"
  type: "Pooling"
  bottom: "inception_4b/output"
  top: "inception_4c/pool"
  pooling_param {
    pool: MAX
    kernel_size: 3
    stride: 1
    pad: 1
  }
}
layer {
  name: "inception_4c/pool_proj"
  type: "Convolution"
  bottom: "inception_4c/pool"
  top: "inception_4c/pool_proj"
  param {
    lr_mult: 1
    decay_mult: 1
  }
  param {
    lr_mult: 2
    decay_mult: 0
  }
  convolution_param {
    num_output: 64
    kernel_size: 1
    weight_filler {
      type: "xavier"
      std: 0.1
    }
    bias_filler {
      type: "constant"
      value: 0.2
    }
  }
}
layer {
  name: "inception_4c/relu_pool_proj"
  type: "ReLU"
  bottom: "inception_4c/pool_proj"
  top: "inception_4c/pool_proj"
}
layer {
  name: "inception_4c/output"
  type: "Concat"
  bottom: "inception_4c/1x1"
  bottom: "inception_4c/3x3"
  bottom: "inception_4c/5x5"
  bottom: "inception_4c/pool_proj"
  top: "inception_4c/output"
}
layer {
  name: "inception_4d/1x1"
  type: "Convolution"
  bottom: "inception_4c/output"
  top: "inception_4d/1x1"
  param {
    lr_mult: 1
    decay_mult: 1
  }
  param {
    lr_mult: 2
    decay_mult: 0
  }
  convolution_param {
    num_output: 112
    kernel_size: 1
    weight_filler {
      type: "xavier"
      std: 0.03
    }
    bias_filler {
      type: "constant"
      value: 0.2
    }
  }
}
layer {
  name: "inception_4d/relu_1x1"
  type: "ReLU"
  bottom: "inception_4d/1x1"
  top: "inception_4d/1x1"
}
layer {
  name: "inception_4d/3x3_reduce"
  type: "Convolution"
  bottom: "inception_4c/output"
  top: "inception_4d/3x3_reduce"
  param {
    lr_mult: 1
    decay_mult: 1
  }
  param {
    lr_mult: 2
    decay_mult: 0
  }
  convolution_param {
    num_output: 144
    kernel_size: 1
    weight_filler {
      type: "xavier"
      std: 0.09
    }
    bias_filler {
      type: "constant"
      value: 0.2
    }
  }
}
layer {
  name: "inception_4d/relu_3x3_reduce"
  type: "ReLU"
  bottom: "inception_4d/3x3_reduce"
  top: "inception_4d/3x3_reduce"
}
layer {
  name: "inception_4d/3x3"
  type: "Convolution"
  bottom: "inception_4d/3x3_reduce"
  top: "inception_4d/3x3"
  param {
    lr_mult: 1
    decay_mult: 1
  }
  param {
    lr_mult: 2
    decay_mult: 0
  }
  convolution_param {
    num_output: 288
    pad: 1
    kernel_size: 3
    weight_filler {
      type: "xavier"
      std: 0.03
    }
    bias_filler {
      type: "constant"
      value: 0.2
    }
  }
}
layer {
  name: "inception_4d/relu_3x3"
  type: "ReLU"
  bottom: "inception_4d/3x3"
  top: "inception_4d/3x3"
}
layer {
  name: "inception_4d/5x5_reduce"
  type: "Convolution"
  bottom: "inception_4c/output"
  top: "inception_4d/5x5_reduce"
  param {
    lr_mult: 1
    decay_mult: 1
  }
  param {
    lr_mult: 2
    decay_mult: 0
  }
  convolution_param {
    num_output: 32
    kernel_size: 1
    weight_filler {
      type: "xavier"
      std: 0.2
    }
    bias_filler {
      type: "constant"
      value: 0.2
    }
  }
}
layer {
  name: "inception_4d/relu_5x5_reduce"
  type: "ReLU"
  bottom: "inception_4d/5x5_reduce"
  top: "inception_4d/5x5_reduce"
}
layer {
  name: "inception_4d/5x5"
  type: "Convolution"
  bottom: "inception_4d/5x5_reduce"
  top: "inception_4d/5x5"
  param {
    lr_mult: 1
    decay_mult: 1
  }
  param {
    lr_mult: 2
    decay_mult: 0
  }
  convolution_param {
    num_output: 64
    pad: 2
    kernel_size: 5
    weight_filler {
      type: "xavier"
      std: 0.03
    }
    bias_filler {
      type: "constant"
      value: 0.2
    }
  }
}
layer {
  name: "inception_4d/relu_5x5"
  type: "ReLU"
  bottom: "inception_4d/5x5"
  top: "inception_4d/5x5"
}
layer {
  name: "inception_4d/pool"
  type: "Pooling"
  bottom: "inception_4c/output"
  top: "inception_4d/pool"
  pooling_param {
    pool: MAX
    kernel_size: 3
    stride: 1
    pad: 1
  }
}
layer {
  name: "inception_4d/pool_proj"
  type: "Convolution"
  bottom: "inception_4d/pool"
  top: "inception_4d/pool_proj"
  param {
    lr_mult: 1
    decay_mult: 1
  }
  param {
    lr_mult: 2
    decay_mult: 0
  }
  convolution_param {
    num_output: 64
    kernel_size: 1
    weight_filler {
      type: "xavier"
      std: 0.1
    }
    bias_filler {
      type: "constant"
      value: 0.2
    }
  }
}
layer {
  name: "inception_4d/relu_pool_proj"
  type: "ReLU"
  bottom: "inception_4d/pool_proj"
  top: "inception_4d/pool_proj"
}
layer {
  name: "inception_4d/output"
  type: "Concat"
  bottom: "inception_4d/1x1"
  bottom: "inception_4d/3x3"
  bottom: "inception_4d/5x5"
  bottom: "inception_4d/pool_proj"
  top: "inception_4d/output"
}
layer {
  name: "loss2/ave_pool"
  type: "Pooling"
  bottom: "inception_4d/output"
  top: "loss2/ave_pool"
  pooling_param {
    pool: AVE
    kernel_size: 5
    stride: 3
  }
}
layer {
  name: "loss2/conv"
  type: "Convolution"
  bottom: "loss2/ave_pool"
  top: "loss2/conv"
  param {
    lr_mult: 1
    decay_mult: 1
  }
  param {
    lr_mult: 2
    decay_mult: 0
  }
  convolution_param {
    num_output: 128
    kernel_size: 1
    weight_filler {
      type: "xavier"
      std: 0.08
    }
    bias_filler {
      type: "constant"
      value: 0.2
    }
  }
}
layer {
  name: "loss2/relu_conv"
  type: "ReLU"
  bottom: "loss2/conv"
  top: "loss2/conv"
}
layer {
  name: "loss2/fc"
  type: "InnerProduct"
  bottom: "loss2/conv"
  top: "loss2/fc"
  param {
    lr_mult: 1
    decay_mult: 1
  }
  param {
    lr_mult: 2
    decay_mult: 0
  }
  inner_product_param {
    num_output: 1024
    weight_filler {
      type: "xavier"
      std: 0.02
    }
    bias_filler {
      type: "constant"
      value: 0.2
    }
  }
}
layer {
  name: "loss2/relu_fc"
  type: "ReLU"
  bottom: "loss2/fc"
  top: "loss2/fc"
}
layer {
  name: "loss2/drop_fc"
  type: "Dropout"
  bottom: "loss2/fc"
  top: "loss2/fc"
  dropout_param {
    dropout_ratio: 0.7
  }
}
layer {
  name: "loss2/classifier_plantvillage"
  type: "InnerProduct"
  bottom: "loss2/fc"
  top: "loss2/classifier_plantvillage"
  param {
    lr_mult: 1
    decay_mult: 1
  }
  param {
    lr_mult: 2
    decay_mult: 0
  }
  inner_product_param {
    num_output: 38
    weight_filler {
      type: "xavier"
      std: 0.0009765625
    }
    bias_filler {
      type: "constant"
      value: 0
    }
  }
}
layer {
  name: "inception_4e/1x1"
  type: "Convolution"
  bottom: "inception_4d/output"
  top: "inception_4e/1x1"
  param {
    lr_mult: 1
    decay_mult: 1
  }
  param {
    lr_mult: 2
    decay_mult: 0
  }
  convolution_param {
    num_output: 256
    kernel_size: 1
    weight_filler {
      type: "xavier"
      std: 0.03
    }
    bias_filler {
      type: "constant"
      value: 0.2
    }
  }
}
layer {
  name: "inception_4e/relu_1x1"
  type: "ReLU"
  bottom: "inception_4e/1x1"
  top: "inception_4e/1x1"
}
layer {
  name: "inception_4e/3x3_reduce"
  type: "Convolution"
  bottom: "inception_4d/output"
  top: "inception_4e/3x3_reduce"
  param {
    lr_mult: 1
    decay_mult: 1
  }
  param {
    lr_mult: 2
    decay_mult: 0
  }
  convolution_param {
    num_output: 160
    kernel_size: 1
    weight_filler {
      type: "xavier"
      std: 0.09
    }
    bias_filler {
      type: "constant"
      value: 0.2
    }
  }
}
layer {
  name: "inception_4e/relu_3x3_reduce"
  type: "ReLU"
  bottom: "inception_4e/3x3_reduce"
  top: "inception_4e/3x3_reduce"
}
layer {
  name: "inception_4e/3x3"
  type: "Convolution"
  bottom: "inception_4e/3x3_reduce"
  top: "inception_4e/3x3"
  param {
    lr_mult: 1
    decay_mult: 1
  }
  param {
    lr_mult: 2
    decay_mult: 0
  }
  convolution_param {
    num_output: 320
    pad: 1
    kernel_size: 3
    weight_filler {
      type: "xavier"
      std: 0.03
    }
    bias_filler {
      type: "constant"
      value: 0.2
    }
  }
}
layer {
  name: "inception_4e/relu_3x3"
  type: "ReLU"
  bottom: "inception_4e/3x3"
  top: "inception_4e/3x3"
}
layer {
  name: "inception_4e/5x5_reduce"
  type: "Convolution"
  bottom: "inception_4d/output"
  top: "inception_4e/5x5_reduce"
  param {
    lr_mult: 1
    decay_mult: 1
  }
  param {
    lr_mult: 2
    decay_mult: 0
  }
  convolution_param {
    num_output: 32
    kernel_size: 1
    weight_filler {
      type: "xavier"
      std: 0.2
    }
    bias_filler {
      type: "constant"
      value: 0.2
    }
  }
}
layer {
  name: "inception_4e/relu_5x5_reduce"
  type: "ReLU"
  bottom: "inception_4e/5x5_reduce"
  top: "inception_4e/5x5_reduce"
}
layer {
  name: "inception_4e/5x5"
  type: "Convolution"
  bottom: "inception_4e/5x5_reduce"
  top: "inception_4e/
I0403 19:30:30.119240  9317 layer_factory.hpp:77] Creating layer data
I0403 19:30:30.119853  9317 net.cpp:91] Creating Layer data
I0403 19:30:30.119886  9317 net.cpp:399] data -> data
I0403 19:30:30.119940  9317 net.cpp:399] data -> label
I0403 19:30:30.119977  9317 data_transformer.cpp:25] Loading mean file from: /home/mohanty/data/final_dataset/lmdb/grayscale-50-50/mean.binaryproto
I0403 19:30:30.121075  9320 db_lmdb.cpp:38] Opened lmdb /home/mohanty/data/final_dataset/lmdb/grayscale-50-50/test_db
I0403 19:30:30.133453  9317 data_layer.cpp:41] output data size: 24,3,224,224
I0403 19:30:30.162035  9317 net.cpp:141] Setting up data
I0403 19:30:30.162127  9317 net.cpp:148] Top shape: 24 3 224 224 (3612672)
I0403 19:30:30.162152  9317 net.cpp:148] Top shape: 24 (24)
I0403 19:30:30.162166  9317 net.cpp:156] Memory required for data: 14450784
I0403 19:30:30.162200  9317 layer_factory.hpp:77] Creating layer label_data_1_split
I0403 19:30:30.162251  9317 net.cpp:91] Creating Layer label_data_1_split
I0403 19:30:30.162273  9317 net.cpp:425] label_data_1_split <- label
I0403 19:30:30.162307  9317 net.cpp:399] label_data_1_split -> label_data_1_split_0
I0403 19:30:30.162336  9317 net.cpp:399] label_data_1_split -> label_data_1_split_1
I0403 19:30:30.162358  9317 net.cpp:399] label_data_1_split -> label_data_1_split_2
I0403 19:30:30.162380  9317 net.cpp:399] label_data_1_split -> label_data_1_split_3
I0403 19:30:30.162401  9317 net.cpp:399] label_data_1_split -> label_data_1_split_4
I0403 19:30:30.162422  9317 net.cpp:399] label_data_1_split -> label_data_1_split_5
I0403 19:30:30.162442  9317 net.cpp:399] label_data_1_split -> label_data_1_split_6
I0403 19:30:30.162463  9317 net.cpp:399] label_data_1_split -> label_data_1_split_7
I0403 19:30:30.162483  9317 net.cpp:399] label_data_1_split -> label_data_1_split_8
I0403 19:30:30.162504  9317 net.cpp:399] label_data_1_split -> label_data_1_split_9
I0403 19:30:30.162626  9317 net.cpp:141] Setting up label_data_1_split
I0403 19:30:30.162649  9317 net.cpp:148] Top shape: 24 (24)
I0403 19:30:30.162668  9317 net.cpp:148] Top shape: 24 (24)
I0403 19:30:30.162684  9317 net.cpp:148] Top shape: 24 (24)
I0403 19:30:30.162701  9317 net.cpp:148] Top shape: 24 (24)
I0403 19:30:30.162717  9317 net.cpp:148] Top shape: 24 (24)
I0403 19:30:30.162734  9317 net.cpp:148] Top shape: 24 (24)
I0403 19:30:30.162750  9317 net.cpp:148] Top shape: 24 (24)
I0403 19:30:30.162766  9317 net.cpp:148] Top shape: 24 (24)
I0403 19:30:30.162782  9317 net.cpp:148] Top shape: 24 (24)
I0403 19:30:30.162799  9317 net.cpp:148] Top shape: 24 (24)
I0403 19:30:30.162845  9317 net.cpp:156] Memory required for data: 14451744
I0403 19:30:30.162863  9317 layer_factory.hpp:77] Creating layer conv1/7x7_s2
I0403 19:30:30.162895  9317 net.cpp:91] Creating Layer conv1/7x7_s2
I0403 19:30:30.162915  9317 net.cpp:425] conv1/7x7_s2 <- data
I0403 19:30:30.162935  9317 net.cpp:399] conv1/7x7_s2 -> conv1/7x7_s2
I0403 19:30:30.307585  9317 net.cpp:141] Setting up conv1/7x7_s2
I0403 19:30:30.307652  9317 net.cpp:148] Top shape: 24 64 112 112 (19267584)
I0403 19:30:30.307670  9317 net.cpp:156] Memory required for data: 91522080
I0403 19:30:30.307703  9317 layer_factory.hpp:77] Creating layer conv1/relu_7x7
I0403 19:30:30.307731  9317 net.cpp:91] Creating Layer conv1/relu_7x7
I0403 19:30:30.307751  9317 net.cpp:425] conv1/relu_7x7 <- conv1/7x7_s2
I0403 19:30:30.307771  9317 net.cpp:386] conv1/relu_7x7 -> conv1/7x7_s2 (in-place)
I0403 19:30:30.308034  9317 net.cpp:141] Setting up conv1/relu_7x7
I0403 19:30:30.308064  9317 net.cpp:148] Top shape: 24 64 112 112 (19267584)
I0403 19:30:30.308080  9317 net.cpp:156] Memory required for data: 168592416
I0403 19:30:30.308096  9317 layer_factory.hpp:77] Creating layer pool1/3x3_s2
I0403 19:30:30.308122  9317 net.cpp:91] Creating Layer pool1/3x3_s2
I0403 19:30:30.308141  9317 net.cpp:425] pool1/3x3_s2 <- conv1/7x7_s2
I0403 19:30:30.308161  9317 net.cpp:399] pool1/3x3_s2 -> pool1/3x3_s2
I0403 19:30:30.308243  9317 net.cpp:141] Setting up pool1/3x3_s2
I0403 19:30:30.308267  9317 net.cpp:148] Top shape: 24 64 56 56 (4816896)
I0403 19:30:30.308284  9317 net.cpp:156] Memory required for data: 187860000
I0403 19:30:30.308300  9317 layer_factory.hpp:77] Creating layer pool1/norm1
I0403 19:30:30.308325  9317 net.cpp:91] Creating Layer pool1/norm1
I0403 19:30:30.308342  9317 net.cpp:425] pool1/norm1 <- pool1/3x3_s2
I0403 19:30:30.308362  9317 net.cpp:399] pool1/norm1 -> pool1/norm1
I0403 19:30:30.308653  9317 net.cpp:141] Setting up pool1/norm1
I0403 19:30:30.308682  9317 net.cpp:148] Top shape: 24 64 56 56 (4816896)
I0403 19:30:30.308698  9317 net.cpp:156] Memory required for data: 207127584
I0403 19:30:30.308714  9317 layer_factory.hpp:77] Creating layer conv2/3x3_reduce
I0403 19:30:30.308739  9317 net.cpp:91] Creating Layer conv2/3x3_reduce
I0403 19:30:30.308756  9317 net.cpp:425] conv2/3x3_reduce <- pool1/norm1
I0403 19:30:30.308776  9317 net.cpp:399] conv2/3x3_reduce -> conv2/3x3_reduce
I0403 19:30:30.310164  9317 net.cpp:141] Setting up conv2/3x3_reduce
I0403 19:30:30.310199  9317 net.cpp:148] Top shape: 24 64 56 56 (4816896)
I0403 19:30:30.310217  9317 net.cpp:156] Memory required for data: 226395168
I0403 19:30:30.310240  9317 layer_factory.hpp:77] Creating layer conv2/relu_3x3_reduce
I0403 19:30:30.310261  9317 net.cpp:91] Creating Layer conv2/relu_3x3_reduce
I0403 19:30:30.310281  9317 net.cpp:425] conv2/relu_3x3_reduce <- conv2/3x3_reduce
I0403 19:30:30.310299  9317 net.cpp:386] conv2/relu_3x3_reduce -> conv2/3x3_reduce (in-place)
I0403 19:30:30.310581  9317 net.cpp:141] Setting up conv2/relu_3x3_reduce
I0403 19:30:30.310611  9317 net.cpp:148] Top shape: 24 64 56 56 (4816896)
I0403 19:30:30.310626  9317 net.cpp:156] Memory required for data: 245662752
I0403 19:30:30.310642  9317 layer_factory.hpp:77] Creating layer conv2/3x3
I0403 19:30:30.310669  9317 net.cpp:91] Creating Layer conv2/3x3
I0403 19:30:30.310688  9317 net.cpp:425] conv2/3x3 <- conv2/3x3_reduce
I0403 19:30:30.310710  9317 net.cpp:399] conv2/3x3 -> conv2/3x3
I0403 19:30:30.313122  9317 net.cpp:141] Setting up conv2/3x3
I0403 19:30:30.313153  9317 net.cpp:148] Top shape: 24 192 56 56 (14450688)
I0403 19:30:30.313170  9317 net.cpp:156] Memory required for data: 303465504
I0403 19:30:30.313212  9317 layer_factory.hpp:77] Creating layer conv2/relu_3x3
I0403 19:30:30.313238  9317 net.cpp:91] Creating Layer conv2/relu_3x3
I0403 19:30:30.313257  9317 net.cpp:425] conv2/relu_3x3 <- conv2/3x3
I0403 19:30:30.313276  9317 net.cpp:386] conv2/relu_3x3 -> conv2/3x3 (in-place)
I0403 19:30:30.313470  9317 net.cpp:141] Setting up conv2/relu_3x3
I0403 19:30:30.313501  9317 net.cpp:148] Top shape: 24 192 56 56 (14450688)
I0403 19:30:30.313551  9317 net.cpp:156] Memory required for data: 361268256
I0403 19:30:30.313570  9317 layer_factory.hpp:77] Creating layer conv2/norm2
I0403 19:30:30.313591  9317 net.cpp:91] Creating Layer conv2/norm2
I0403 19:30:30.313607  9317 net.cpp:425] conv2/norm2 <- conv2/3x3
I0403 19:30:30.313632  9317 net.cpp:399] conv2/norm2 -> conv2/norm2
I0403 19:30:30.313952  9317 net.cpp:141] Setting up conv2/norm2
I0403 19:30:30.313982  9317 net.cpp:148] Top shape: 24 192 56 56 (14450688)
I0403 19:30:30.313998  9317 net.cpp:156] Memory required for data: 419071008
I0403 19:30:30.314015  9317 layer_factory.hpp:77] Creating layer pool2/3x3_s2
I0403 19:30:30.314034  9317 net.cpp:91] Creating Layer pool2/3x3_s2
I0403 19:30:30.314052  9317 net.cpp:425] pool2/3x3_s2 <- conv2/norm2
I0403 19:30:30.314074  9317 net.cpp:399] pool2/3x3_s2 -> pool2/3x3_s2
I0403 19:30:30.314131  9317 net.cpp:141] Setting up pool2/3x3_s2
I0403 19:30:30.314158  9317 net.cpp:148] Top shape: 24 192 28 28 (3612672)
I0403 19:30:30.314174  9317 net.cpp:156] Memory required for data: 433521696
I0403 19:30:30.314195  9317 layer_factory.hpp:77] Creating layer pool2/3x3_s2_pool2/3x3_s2_0_split
I0403 19:30:30.314215  9317 net.cpp:91] Creating Layer pool2/3x3_s2_pool2/3x3_s2_0_split
I0403 19:30:30.314231  9317 net.cpp:425] pool2/3x3_s2_pool2/3x3_s2_0_split <- pool2/3x3_s2
I0403 19:30:30.314249  9317 net.cpp:399] pool2/3x3_s2_pool2/3x3_s2_0_split -> pool2/3x3_s2_pool2/3x3_s2_0_split_0
I0403 19:30:30.314272  9317 net.cpp:399] pool2/3x3_s2_pool2/3x3_s2_0_split -> pool2/3x3_s2_pool2/3x3_s2_0_split_1
I0403 19:30:30.314294  9317 net.cpp:399] pool2/3x3_s2_pool2/3x3_s2_0_split -> pool2/3x3_s2_pool2/3x3_s2_0_split_2
I0403 19:30:30.314316  9317 net.cpp:399] pool2/3x3_s2_pool2/3x3_s2_0_split -> pool2/3x3_s2_pool2/3x3_s2_0_split_3
I0403 19:30:30.314393  9317 net.cpp:141] Setting up pool2/3x3_s2_pool2/3x3_s2_0_split
I0403 19:30:30.314416  9317 net.cpp:148] Top shape: 24 192 28 28 (3612672)
I0403 19:30:30.314434  9317 net.cpp:148] Top shape: 24 192 28 28 (3612672)
I0403 19:30:30.314450  9317 net.cpp:148] Top shape: 24 192 28 28 (3612672)
I0403 19:30:30.314466  9317 net.cpp:148] Top shape: 24 192 28 28 (3612672)
I0403 19:30:30.314481  9317 net.cpp:156] Memory required for data: 491324448
I0403 19:30:30.314496  9317 layer_factory.hpp:77] Creating layer inception_3a/1x1
I0403 19:30:30.314522  9317 net.cpp:91] Creating Layer inception_3a/1x1
I0403 19:30:30.314539  9317 net.cpp:425] inception_3a/1x1 <- pool2/3x3_s2_pool2/3x3_s2_0_split_0
I0403 19:30:30.314559  9317 net.cpp:399] inception_3a/1x1 -> inception_3a/1x1
I0403 19:30:30.316160  9317 net.cpp:141] Setting up inception_3a/1x1
I0403 19:30:30.316197  9317 net.cpp:148] Top shape: 24 64 28 28 (1204224)
I0403 19:30:30.316215  9317 net.cpp:156] Memory required for data: 496141344
I0403 19:30:30.316237  9317 layer_factory.hpp:77] Creating layer inception_3a/relu_1x1
I0403 19:30:30.316261  9317 net.cpp:91] Creating Layer inception_3a/relu_1x1
I0403 19:30:30.316282  9317 net.cpp:425] inception_3a/relu_1x1 <- inception_3a/1x1
I0403 19:30:30.316300  9317 net.cpp:386] inception_3a/relu_1x1 -> inception_3a/1x1 (in-place)
I0403 19:30:30.316483  9317 net.cpp:141] Setting up inception_3a/relu_1x1
I0403 19:30:30.316510  9317 net.cpp:148] Top shape: 24 64 28 28 (1204224)
I0403 19:30:30.316529  9317 net.cpp:156] Memory required for data: 500958240
I0403 19:30:30.316545  9317 layer_factory.hpp:77] Creating layer inception_3a/3x3_reduce
I0403 19:30:30.316566  9317 net.cpp:91] Creating Layer inception_3a/3x3_reduce
I0403 19:30:30.316584  9317 net.cpp:425] inception_3a/3x3_reduce <- pool2/3x3_s2_pool2/3x3_s2_0_split_1
I0403 19:30:30.316606  9317 net.cpp:399] inception_3a/3x3_reduce -> inception_3a/3x3_reduce
I0403 19:30:30.318380  9317 net.cpp:141] Setting up inception_3a/3x3_reduce
I0403 19:30:30.318411  9317 net.cpp:148] Top shape: 24 96 28 28 (1806336)
I0403 19:30:30.318428  9317 net.cpp:156] Memory required for data: 508183584
I0403 19:30:30.318454  9317 layer_factory.hpp:77] Creating layer inception_3a/relu_3x3_reduce
I0403 19:30:30.318490  9317 net.cpp:91] Creating Layer inception_3a/relu_3x3_reduce
I0403 19:30:30.318509  9317 net.cpp:425] inception_3a/relu_3x3_reduce <- inception_3a/3x3_reduce
I0403 19:30:30.318528  9317 net.cpp:386] inception_3a/relu_3x3_reduce -> inception_3a/3x3_reduce (in-place)
I0403 19:30:30.318727  9317 net.cpp:141] Setting up inception_3a/relu_3x3_reduce
I0403 19:30:30.318753  9317 net.cpp:148] Top shape: 24 96 28 28 (1806336)
I0403 19:30:30.318769  9317 net.cpp:156] Memory required for data: 515408928
I0403 19:30:30.318784  9317 layer_factory.hpp:77] Creating layer inception_3a/3x3
I0403 19:30:30.318810  9317 net.cpp:91] Creating Layer inception_3a/3x3
I0403 19:30:30.318830  9317 net.cpp:425] inception_3a/3x3 <- inception_3a/3x3_reduce
I0403 19:30:30.318851  9317 net.cpp:399] inception_3a/3x3 -> inception_3a/3x3
I0403 19:30:30.320616  9317 net.cpp:141] Setting up inception_3a/3x3
I0403 19:30:30.320647  9317 net.cpp:148] Top shape: 24 128 28 28 (2408448)
I0403 19:30:30.320662  9317 net.cpp:156] Memory required for data: 525042720
I0403 19:30:30.320691  9317 layer_factory.hpp:77] Creating layer inception_3a/relu_3x3
I0403 19:30:30.320713  9317 net.cpp:91] Creating Layer inception_3a/relu_3x3
I0403 19:30:30.320732  9317 net.cpp:425] inception_3a/relu_3x3 <- inception_3a/3x3
I0403 19:30:30.320750  9317 net.cpp:386] inception_3a/relu_3x3 -> inception_3a/3x3 (in-place)
I0403 19:30:30.321040  9317 net.cpp:141] Setting up inception_3a/relu_3x3
I0403 19:30:30.321068  9317 net.cpp:148] Top shape: 24 128 28 28 (2408448)
I0403 19:30:30.321084  9317 net.cpp:156] Memory required for data: 534676512
I0403 19:30:30.321099  9317 layer_factory.hpp:77] Creating layer inception_3a/5x5_reduce
I0403 19:30:30.321123  9317 net.cpp:91] Creating Layer inception_3a/5x5_reduce
I0403 19:30:30.321144  9317 net.cpp:425] inception_3a/5x5_reduce <- pool2/3x3_s2_pool2/3x3_s2_0_split_2
I0403 19:30:30.321167  9317 net.cpp:399] inception_3a/5x5_reduce -> inception_3a/5x5_reduce
I0403 19:30:30.322185  9317 net.cpp:141] Setting up inception_3a/5x5_reduce
I0403 19:30:30.322216  9317 net.cpp:148] Top shape: 24 16 28 28 (301056)
I0403 19:30:30.322234  9317 net.cpp:156] Memory required for data: 535880736
I0403 19:30:30.322254  9317 layer_factory.hpp:77] Creating layer inception_3a/relu_5x5_reduce
I0403 19:30:30.322278  9317 net.cpp:91] Creating Layer inception_3a/relu_5x5_reduce
I0403 19:30:30.322296  9317 net.cpp:425] inception_3a/relu_5x5_reduce <- inception_3a/5x5_reduce
I0403 19:30:30.322314  9317 net.cpp:386] inception_3a/relu_5x5_reduce -> inception_3a/5x5_reduce (in-place)
I0403 19:30:30.322621  9317 net.cpp:141] Setting up inception_3a/relu_5x5_reduce
I0403 19:30:30.322652  9317 net.cpp:148] Top shape: 24 16 28 28 (301056)
I0403 19:30:30.322670  9317 net.cpp:156] Memory required for data: 537084960
I0403 19:30:30.322687  9317 layer_factory.hpp:77] Creating layer inception_3a/5x5
I0403 19:30:30.322711  9317 net.cpp:91] Creating Layer inception_3a/5x5
I0403 19:30:30.322731  9317 net.cpp:425] inception_3a/5x5 <- inception_3a/5x5_reduce
I0403 19:30:30.322752  9317 net.cpp:399] inception_3a/5x5 -> inception_3a/5x5
I0403 19:30:30.323815  9317 net.cpp:141] Setting up inception_3a/5x5
I0403 19:30:30.323846  9317 net.cpp:148] Top shape: 24 32 28 28 (602112)
I0403 19:30:30.323864  9317 net.cpp:156] Memory required for data: 539493408
I0403 19:30:30.323884  9317 layer_factory.hpp:77] Creating layer inception_3a/relu_5x5
I0403 19:30:30.323907  9317 net.cpp:91] Creating Layer inception_3a/relu_5x5
I0403 19:30:30.323925  9317 net.cpp:425] inception_3a/relu_5x5 <- inception_3a/5x5
I0403 19:30:30.323945  9317 net.cpp:386] inception_3a/relu_5x5 -> inception_3a/5x5 (in-place)
I0403 19:30:30.324123  9317 net.cpp:141] Setting up inception_3a/relu_5x5
I0403 19:30:30.324152  9317 net.cpp:148] Top shape: 24 32 28 28 (602112)
I0403 19:30:30.324168  9317 net.cpp:156] Memory required for data: 541901856
I0403 19:30:30.324190  9317 layer_factory.hpp:77] Creating layer inception_3a/pool
I0403 19:30:30.324209  9317 net.cpp:91] Creating Layer inception_3a/pool
I0403 19:30:30.324242  9317 net.cpp:425] inception_3a/pool <- pool2/3x3_s2_pool2/3x3_s2_0_split_3
I0403 19:30:30.324264  9317 net.cpp:399] inception_3a/pool -> inception_3a/pool
I0403 19:30:30.324326  9317 net.cpp:141] Setting up inception_3a/pool
I0403 19:30:30.324352  9317 net.cpp:148] Top shape: 24 192 28 28 (3612672)
I0403 19:30:30.324368  9317 net.cpp:156] Memory required for data: 556352544
I0403 19:30:30.324383  9317 layer_factory.hpp:77] Creating layer inception_3a/pool_proj
I0403 19:30:30.324405  9317 net.cpp:91] Creating Layer inception_3a/pool_proj
I0403 19:30:30.324424  9317 net.cpp:425] inception_3a/pool_proj <- inception_3a/pool
I0403 19:30:30.324448  9317 net.cpp:399] inception_3a/pool_proj -> inception_3a/pool_proj
I0403 19:30:30.325460  9317 net.cpp:141] Setting up inception_3a/pool_proj
I0403 19:30:30.325490  9317 net.cpp:148] Top shape: 24 32 28 28 (602112)
I0403 19:30:30.325506  9317 net.cpp:156] Memory required for data: 558760992
I0403 19:30:30.325528  9317 layer_factory.hpp:77] Creating layer inception_3a/relu_pool_proj
I0403 19:30:30.325551  9317 net.cpp:91] Creating Layer inception_3a/relu_pool_proj
I0403 19:30:30.325568  9317 net.cpp:425] inception_3a/relu_pool_proj <- inception_3a/pool_proj
I0403 19:30:30.325587  9317 net.cpp:386] inception_3a/relu_pool_proj -> inception_3a/pool_proj (in-place)
I0403 19:30:30.325881  9317 net.cpp:141] Setting up inception_3a/relu_pool_proj
I0403 19:30:30.325907  9317 net.cpp:148] Top shape: 24 32 28 28 (602112)
I0403 19:30:30.325923  9317 net.cpp:156] Memory required for data: 561169440
I0403 19:30:30.325939  9317 layer_factory.hpp:77] Creating layer inception_3a/output
I0403 19:30:30.325961  9317 net.cpp:91] Creating Layer inception_3a/output
I0403 19:30:30.325978  9317 net.cpp:425] inception_3a/output <- inception_3a/1x1
I0403 19:30:30.325995  9317 net.cpp:425] inception_3a/output <- inception_3a/3x3
I0403 19:30:30.326012  9317 net.cpp:425] inception_3a/output <- inception_3a/5x5
I0403 19:30:30.326028  9317 net.cpp:425] inception_3a/output <- inception_3a/pool_proj
I0403 19:30:30.326046  9317 net.cpp:399] inception_3a/output -> inception_3a/output
I0403 19:30:30.326097  9317 net.cpp:141] Setting up inception_3a/output
I0403 19:30:30.326122  9317 net.cpp:148] Top shape: 24 256 28 28 (4816896)
I0403 19:30:30.326138  9317 net.cpp:156] Memory required for data: 580437024
I0403 19:30:30.326153  9317 layer_factory.hpp:77] Creating layer inception_3a/output_inception_3a/output_0_split
I0403 19:30:30.326172  9317 net.cpp:91] Creating Layer inception_3a/output_inception_3a/output_0_split
I0403 19:30:30.326194  9317 net.cpp:425] inception_3a/output_inception_3a/output_0_split <- inception_3a/output
I0403 19:30:30.326215  9317 net.cpp:399] inception_3a/output_inception_3a/output_0_split -> inception_3a/output_inception_3a/output_0_split_0
I0403 19:30:30.326238  9317 net.cpp:399] inception_3a/output_inception_3a/output_0_split -> inception_3a/output_inception_3a/output_0_split_1
I0403 19:30:30.326264  9317 net.cpp:399] inception_3a/output_inception_3a/output_0_split -> inception_3a/output_inception_3a/output_0_split_2
I0403 19:30:30.326289  9317 net.cpp:399] inception_3a/output_inception_3a/output_0_split -> inception_3a/output_inception_3a/output_0_split_3
I0403 19:30:30.326370  9317 net.cpp:141] Setting up inception_3a/output_inception_3a/output_0_split
I0403 19:30:30.326392  9317 net.cpp:148] Top shape: 24 256 28 28 (4816896)
I0403 19:30:30.326411  9317 net.cpp:148] Top shape: 24 256 28 28 (4816896)
I0403 19:30:30.326428  9317 net.cpp:148] Top shape: 24 256 28 28 (4816896)
I0403 19:30:30.326444  9317 net.cpp:148] Top shape: 24 256 28 28 (4816896)
I0403 19:30:30.326459  9317 net.cpp:156] Memory required for data: 657507360
I0403 19:30:30.326474  9317 layer_factory.hpp:77] Creating layer inception_3b/1x1
I0403 19:30:30.326498  9317 net.cpp:91] Creating Layer inception_3b/1x1
I0403 19:30:30.326517  9317 net.cpp:425] inception_3b/1x1 <- inception_3a/output_inception_3a/output_0_split_0
I0403 19:30:30.326539  9317 net.cpp:399] inception_3b/1x1 -> inception_3b/1x1
I0403 19:30:30.327731  9317 net.cpp:141] Setting up inception_3b/1x1
I0403 19:30:30.327772  9317 net.cpp:148] Top shape: 24 128 28 28 (2408448)
I0403 19:30:30.327790  9317 net.cpp:156] Memory required for data: 667141152
I0403 19:30:30.327810  9317 layer_factory.hpp:77] Creating layer inception_3b/relu_1x1
I0403 19:30:30.327831  9317 net.cpp:91] Creating Layer inception_3b/relu_1x1
I0403 19:30:30.327849  9317 net.cpp:425] inception_3b/relu_1x1 <- inception_3b/1x1
I0403 19:30:30.327867  9317 net.cpp:386] inception_3b/relu_1x1 -> inception_3b/1x1 (in-place)
I0403 19:30:30.328052  9317 net.cpp:141] Setting up inception_3b/relu_1x1
I0403 19:30:30.328078  9317 net.cpp:148] Top shape: 24 128 28 28 (2408448)
I0403 19:30:30.328093  9317 net.cpp:156] Memory required for data: 676774944
I0403 19:30:30.328109  9317 layer_factory.hpp:77] Creating layer inception_3b/3x3_reduce
I0403 19:30:30.328131  9317 net.cpp:91] Creating Layer inception_3b/3x3_reduce
I0403 19:30:30.328150  9317 net.cpp:425] inception_3b/3x3_reduce <- inception_3a/output_inception_3a/output_0_split_1
I0403 19:30:30.328172  9317 net.cpp:399] inception_3b/3x3_reduce -> inception_3b/3x3_reduce
I0403 19:30:30.329368  9317 net.cpp:141] Setting up inception_3b/3x3_reduce
I0403 19:30:30.329397  9317 net.cpp:148] Top shape: 24 128 28 28 (2408448)
I0403 19:30:30.329413  9317 net.cpp:156] Memory required for data: 686408736
I0403 19:30:30.329433  9317 layer_factory.hpp:77] Creating layer inception_3b/relu_3x3_reduce
I0403 19:30:30.329452  9317 net.cpp:91] Creating Layer inception_3b/relu_3x3_reduce
I0403 19:30:30.329469  9317 net.cpp:425] inception_3b/relu_3x3_reduce <- inception_3b/3x3_reduce
I0403 19:30:30.329490  9317 net.cpp:386] inception_3b/relu_3x3_reduce -> inception_3b/3x3_reduce (in-place)
I0403 19:30:30.329674  9317 net.cpp:141] Setting up inception_3b/relu_3x3_reduce
I0403 19:30:30.329700  9317 net.cpp:148] Top shape: 24 128 28 28 (2408448)
I0403 19:30:30.329716  9317 net.cpp:156] Memory required for data: 696042528
I0403 19:30:30.329732  9317 layer_factory.hpp:77] Creating layer inception_3b/3x3
I0403 19:30:30.329759  9317 net.cpp:91] Creating Layer inception_3b/3x3
I0403 19:30:30.329778  9317 net.cpp:425] inception_3b/3x3 <- inception_3b/3x3_reduce
I0403 19:30:30.329798  9317 net.cpp:399] inception_3b/3x3 -> inception_3b/3x3
I0403 19:30:30.332867  9317 net.cpp:141] Setting up inception_3b/3x3
I0403 19:30:30.332898  9317 net.cpp:148] Top shape: 24 192 28 28 (3612672)
I0403 19:30:30.332914  9317 net.cpp:156] Memory required for data: 710493216
I0403 19:30:30.332933  9317 layer_factory.hpp:77] Creating layer inception_3b/relu_3x3
I0403 19:30:30.332955  9317 net.cpp:91] Creating Layer inception_3b/relu_3x3
I0403 19:30:30.332973  9317 net.cpp:425] inception_3b/relu_3x3 <- inception_3b/3x3
I0403 19:30:30.332993  9317 net.cpp:386] inception_3b/relu_3x3 -> inception_3b/3x3 (in-place)
I0403 19:30:30.333298  9317 net.cpp:141] Setting up inception_3b/relu_3x3
I0403 19:30:30.333326  9317 net.cpp:148] Top shape: 24 192 28 28 (3612672)
I0403 19:30:30.333343  9317 net.cpp:156] Memory required for data: 724943904
I0403 19:30:30.333359  9317 layer_factory.hpp:77] Creating layer inception_3b/5x5_reduce
I0403 19:30:30.333384  9317 net.cpp:91] Creating Layer inception_3b/5x5_reduce
I0403 19:30:30.333402  9317 net.cpp:425] inception_3b/5x5_reduce <- inception_3a/output_inception_3a/output_0_split_2
I0403 19:30:30.333425  9317 net.cpp:399] inception_3b/5x5_reduce -> inception_3b/5x5_reduce
I0403 19:30:30.334481  9317 net.cpp:141] Setting up inception_3b/5x5_reduce
I0403 19:30:30.334509  9317 net.cpp:148] Top shape: 24 32 28 28 (602112)
I0403 19:30:30.334525  9317 net.cpp:156] Memory required for data: 727352352
I0403 19:30:30.334545  9317 layer_factory.hpp:77] Creating layer inception_3b/relu_5x5_reduce
I0403 19:30:30.334566  9317 net.cpp:91] Creating Layer inception_3b/relu_5x5_reduce
I0403 19:30:30.334584  9317 net.cpp:425] inception_3b/relu_5x5_reduce <- inception_3b/5x5_reduce
I0403 19:30:30.334604  9317 net.cpp:386] inception_3b/relu_5x5_reduce -> inception_3b/5x5_reduce (in-place)
I0403 19:30:30.334806  9317 net.cpp:141] Setting up inception_3b/relu_5x5_reduce
I0403 19:30:30.334836  9317 net.cpp:148] Top shape: 24 32 28 28 (602112)
I0403 19:30:30.334853  9317 net.cpp:156] Memory required for data: 729760800
I0403 19:30:30.334868  9317 layer_factory.hpp:77] Creating layer inception_3b/5x5
I0403 19:30:30.334892  9317 net.cpp:91] Creating Layer inception_3b/5x5
I0403 19:30:30.334911  9317 net.cpp:425] inception_3b/5x5 <- inception_3b/5x5_reduce
I0403 19:30:30.334933  9317 net.cpp:399] inception_3b/5x5 -> inception_3b/5x5
I0403 19:30:30.337019  9317 net.cpp:141] Setting up inception_3b/5x5
I0403 19:30:30.337050  9317 net.cpp:148] Top shape: 24 96 28 28 (1806336)
I0403 19:30:30.337066  9317 net.cpp:156] Memory required for data: 736986144
I0403 19:30:30.337085  9317 layer_factory.hpp:77] Creating layer inception_3b/relu_5x5
I0403 19:30:30.337105  9317 net.cpp:91] Creating Layer inception_3b/relu_5x5
I0403 19:30:30.337122  9317 net.cpp:425] inception_3b/relu_5x5 <- inception_3b/5x5
I0403 19:30:30.337142  9317 net.cpp:386] inception_3b/relu_5x5 -> inception_3b/5x5 (in-place)
I0403 19:30:30.337352  9317 net.cpp:141] Setting up inception_3b/relu_5x5
I0403 19:30:30.337379  9317 net.cpp:148] Top shape: 24 96 28 28 (1806336)
I0403 19:30:30.337394  9317 net.cpp:156] Memory required for data: 744211488
I0403 19:30:30.337410  9317 layer_factory.hpp:77] Creating layer inception_3b/pool
I0403 19:30:30.337430  9317 net.cpp:91] Creating Layer inception_3b/pool
I0403 19:30:30.337445  9317 net.cpp:425] inception_3b/pool <- inception_3a/output_inception_3a/output_0_split_3
I0403 19:30:30.337465  9317 net.cpp:399] inception_3b/pool -> inception_3b/pool
I0403 19:30:30.337523  9317 net.cpp:141] Setting up inception_3b/pool
I0403 19:30:30.337548  9317 net.cpp:148] Top shape: 24 256 28 28 (4816896)
I0403 19:30:30.337563  9317 net.cpp:156] Memory required for data: 763479072
I0403 19:30:30.337579  9317 layer_factory.hpp:77] Creating layer inception_3b/pool_proj
I0403 19:30:30.337601  9317 net.cpp:91] Creating Layer inception_3b/pool_proj
I0403 19:30:30.337620  9317 net.cpp:425] inception_3b/pool_proj <- inception_3b/pool
I0403 19:30:30.337643  9317 net.cpp:399] inception_3b/pool_proj -> inception_3b/pool_proj
I0403 19:30:30.338757  9317 net.cpp:141] Setting up inception_3b/pool_proj
I0403 19:30:30.338788  9317 net.cpp:148] Top shape: 24 64 28 28 (1204224)
I0403 19:30:30.338806  9317 net.cpp:156] Memory required for data: 768295968
I0403 19:30:30.338826  9317 layer_factory.hpp:77] Creating layer inception_3b/relu_pool_proj
I0403 19:30:30.338845  9317 net.cpp:91] Creating Layer inception_3b/relu_pool_proj
I0403 19:30:30.338862  9317 net.cpp:425] inception_3b/relu_pool_proj <- inception_3b/pool_proj
I0403 19:30:30.338881  9317 net.cpp:386] inception_3b/relu_pool_proj -> inception_3b/pool_proj (in-place)
I0403 19:30:30.339294  9317 net.cpp:141] Setting up inception_3b/relu_pool_proj
I0403 19:30:30.339323  9317 net.cpp:148] Top shape: 24 64 28 28 (1204224)
I0403 19:30:30.339339  9317 net.cpp:156] Memory required for data: 773112864
I0403 19:30:30.339354  9317 layer_factory.hpp:77] Creating layer inception_3b/output
I0403 19:30:30.339375  9317 net.cpp:91] Creating Layer inception_3b/output
I0403 19:30:30.339393  9317 net.cpp:425] inception_3b/output <- inception_3b/1x1
I0403 19:30:30.339412  9317 net.cpp:425] inception_3b/output <- inception_3b/3x3
I0403 19:30:30.339432  9317 net.cpp:425] inception_3b/output <- inception_3b/5x5
I0403 19:30:30.339448  9317 net.cpp:425] inception_3b/output <- inception_3b/pool_proj
I0403 19:30:30.339467  9317 net.cpp:399] inception_3b/output -> inception_3b/output
I0403 19:30:30.339515  9317 net.cpp:141] Setting up inception_3b/output
I0403 19:30:30.339540  9317 net.cpp:148] Top shape: 24 480 28 28 (9031680)
I0403 19:30:30.339555  9317 net.cpp:156] Memory required for data: 809239584
I0403 19:30:30.339570  9317 layer_factory.hpp:77] Creating layer pool3/3x3_s2
I0403 19:30:30.339588  9317 net.cpp:91] Creating Layer pool3/3x3_s2
I0403 19:30:30.339606  9317 net.cpp:425] pool3/3x3_s2 <- inception_3b/output
I0403 19:30:30.339643  9317 net.cpp:399] pool3/3x3_s2 -> pool3/3x3_s2
I0403 19:30:30.339706  9317 net.cpp:141] Setting up pool3/3x3_s2
I0403 19:30:30.339731  9317 net.cpp:148] Top shape: 24 480 14 14 (2257920)
I0403 19:30:30.339747  9317 net.cpp:156] Memory required for data: 818271264
I0403 19:30:30.339762  9317 layer_factory.hpp:77] Creating layer pool3/3x3_s2_pool3/3x3_s2_0_split
I0403 19:30:30.339781  9317 net.cpp:91] Creating Layer pool3/3x3_s2_pool3/3x3_s2_0_split
I0403 19:30:30.339797  9317 net.cpp:425] pool3/3x3_s2_pool3/3x3_s2_0_split <- pool3/3x3_s2
I0403 19:30:30.339817  9317 net.cpp:399] pool3/3x3_s2_pool3/3x3_s2_0_split -> pool3/3x3_s2_pool3/3x3_s2_0_split_0
I0403 19:30:30.339843  9317 net.cpp:399] pool3/3x3_s2_pool3/3x3_s2_0_split -> pool3/3x3_s2_pool3/3x3_s2_0_split_1
I0403 19:30:30.339864  9317 net.cpp:399] pool3/3x3_s2_pool3/3x3_s2_0_split -> pool3/3x3_s2_pool3/3x3_s2_0_split_2
I0403 19:30:30.339884  9317 net.cpp:399] pool3/3x3_s2_pool3/3x3_s2_0_split -> pool3/3x3_s2_pool3/3x3_s2_0_split_3
I0403 19:30:30.339968  9317 net.cpp:141] Setting up pool3/3x3_s2_pool3/3x3_s2_0_split
I0403 19:30:30.339994  9317 net.cpp:148] Top shape: 24 480 14 14 (2257920)
I0403 19:30:30.340013  9317 net.cpp:148] Top shape: 24 480 14 14 (2257920)
I0403 19:30:30.340029  9317 net.cpp:148] Top shape: 24 480 14 14 (2257920)
I0403 19:30:30.340045  9317 net.cpp:148] Top shape: 24 480 14 14 (2257920)
I0403 19:30:30.340060  9317 net.cpp:156] Memory required for data: 854397984
I0403 19:30:30.340075  9317 layer_factory.hpp:77] Creating layer inception_4a/1x1
I0403 19:30:30.340098  9317 net.cpp:91] Creating Layer inception_4a/1x1
I0403 19:30:30.340116  9317 net.cpp:425] inception_4a/1x1 <- pool3/3x3_s2_pool3/3x3_s2_0_split_0
I0403 19:30:30.340137  9317 net.cpp:399] inception_4a/1x1 -> inception_4a/1x1
I0403 19:30:30.341796  9317 net.cpp:141] Setting up inception_4a/1x1
I0403 19:30:30.341828  9317 net.cpp:148] Top shape: 24 192 14 14 (903168)
I0403 19:30:30.341845  9317 net.cpp:156] Memory required for data: 858010656
I0403 19:30:30.341864  9317 layer_factory.hpp:77] Creating layer inception_4a/relu_1x1
I0403 19:30:30.341886  9317 net.cpp:91] Creating Layer inception_4a/relu_1x1
I0403 19:30:30.341902  9317 net.cpp:425] inception_4a/relu_1x1 <- inception_4a/1x1
I0403 19:30:30.341923  9317 net.cpp:386] inception_4a/relu_1x1 -> inception_4a/1x1 (in-place)
I0403 19:30:30.342108  9317 net.cpp:141] Setting up inception_4a/relu_1x1
I0403 19:30:30.342135  9317 net.cpp:148] Top shape: 24 192 14 14 (903168)
I0403 19:30:30.342150  9317 net.cpp:156] Memory required for data: 861623328
I0403 19:30:30.342166  9317 layer_factory.hpp:77] Creating layer inception_4a/3x3_reduce
I0403 19:30:30.342196  9317 net.cpp:91] Creating Layer inception_4a/3x3_reduce
I0403 19:30:30.342216  9317 net.cpp:425] inception_4a/3x3_reduce <- pool3/3x3_s2_pool3/3x3_s2_0_split_1
I0403 19:30:30.342238  9317 net.cpp:399] inception_4a/3x3_reduce -> inception_4a/3x3_reduce
I0403 19:30:30.343592  9317 net.cpp:141] Setting up inception_4a/3x3_reduce
I0403 19:30:30.343624  9317 net.cpp:148] Top shape: 24 96 14 14 (451584)
I0403 19:30:30.343641  9317 net.cpp:156] Memory required for data: 863429664
I0403 19:30:30.343668  9317 layer_factory.hpp:77] Creating layer inception_4a/relu_3x3_reduce
I0403 19:30:30.343688  9317 net.cpp:91] Creating Layer inception_4a/relu_3x3_reduce
I0403 19:30:30.343706  9317 net.cpp:425] inception_4a/relu_3x3_reduce <- inception_4a/3x3_reduce
I0403 19:30:30.343724  9317 net.cpp:386] inception_4a/relu_3x3_reduce -> inception_4a/3x3_reduce (in-place)
I0403 19:30:30.343910  9317 net.cpp:141] Setting up inception_4a/relu_3x3_reduce
I0403 19:30:30.343936  9317 net.cpp:148] Top shape: 24 96 14 14 (451584)
I0403 19:30:30.343951  9317 net.cpp:156] Memory required for data: 865236000
I0403 19:30:30.343967  9317 layer_factory.hpp:77] Creating layer inception_4a/3x3
I0403 19:30:30.343991  9317 net.cpp:91] Creating Layer inception_4a/3x3
I0403 19:30:30.344009  9317 net.cpp:425] inception_4a/3x3 <- inception_4a/3x3_reduce
I0403 19:30:30.344033  9317 net.cpp:399] inception_4a/3x3 -> inception_4a/3x3
I0403 19:30:30.346870  9317 net.cpp:141] Setting up inception_4a/3x3
I0403 19:30:30.346901  9317 net.cpp:148] Top shape: 24 208 14 14 (978432)
I0403 19:30:30.346917  9317 net.cpp:156] Memory required for data: 869149728
I0403 19:30:30.346937  9317 layer_factory.hpp:77] Creating layer inception_4a/relu_3x3
I0403 19:30:30.346956  9317 net.cpp:91] Creating Layer inception_4a/relu_3x3
I0403 19:30:30.346972  9317 net.cpp:425] inception_4a/relu_3x3 <- inception_4a/3x3
I0403 19:30:30.346992  9317 net.cpp:386] inception_4a/relu_3x3 -> inception_4a/3x3 (in-place)
I0403 19:30:30.347292  9317 net.cpp:141] Setting up inception_4a/relu_3x3
I0403 19:30:30.347321  9317 net.cpp:148] Top shape: 24 208 14 14 (978432)
I0403 19:30:30.347337  9317 net.cpp:156] Memory required for data: 873063456
I0403 19:30:30.347352  9317 layer_factory.hpp:77] Creating layer inception_4a/5x5_reduce
I0403 19:30:30.347376  9317 net.cpp:91] Creating Layer inception_4a/5x5_reduce
I0403 19:30:30.347395  9317 net.cpp:425] inception_4a/5x5_reduce <- pool3/3x3_s2_pool3/3x3_s2_0_split_2
I0403 19:30:30.347419  9317 net.cpp:399] inception_4a/5x5_reduce -> inception_4a/5x5_reduce
I0403 19:30:30.348508  9317 net.cpp:141] Setting up inception_4a/5x5_reduce
I0403 19:30:30.348537  9317 net.cpp:148] Top shape: 24 16 14 14 (75264)
I0403 19:30:30.348554  9317 net.cpp:156] Memory required for data: 873364512
I0403 19:30:30.348573  9317 layer_factory.hpp:77] Creating layer inception_4a/relu_5x5_reduce
I0403 19:30:30.348595  9317 net.cpp:91] Creating Layer inception_4a/relu_5x5_reduce
I0403 19:30:30.348613  9317 net.cpp:425] inception_4a/relu_5x5_reduce <- inception_4a/5x5_reduce
I0403 19:30:30.348631  9317 net.cpp:386] inception_4a/relu_5x5_reduce -> inception_4a/5x5_reduce (in-place)
I0403 19:30:30.348822  9317 net.cpp:141] Setting up inception_4a/relu_5x5_reduce
I0403 19:30:30.348852  9317 net.cpp:148] Top shape: 24 16 14 14 (75264)
I0403 19:30:30.348870  9317 net.cpp:156] Memory required for data: 873665568
I0403 19:30:30.348886  9317 layer_factory.hpp:77] Creating layer inception_4a/5x5
I0403 19:30:30.348909  9317 net.cpp:91] Creating Layer inception_4a/5x5
I0403 19:30:30.348928  9317 net.cpp:425] inception_4a/5x5 <- inception_4a/5x5_reduce
I0403 19:30:30.348948  9317 net.cpp:399] inception_4a/5x5 -> inception_4a/5x5
I0403 19:30:30.350097  9317 net.cpp:141] Setting up inception_4a/5x5
I0403 19:30:30.350126  9317 net.cpp:148] Top shape: 24 48 14 14 (225792)
I0403 19:30:30.350142  9317 net.cpp:156] Memory required for data: 874568736
I0403 19:30:30.350162  9317 layer_factory.hpp:77] Creating layer inception_4a/relu_5x5
I0403 19:30:30.350188  9317 net.cpp:91] Creating Layer inception_4a/relu_5x5
I0403 19:30:30.350208  9317 net.cpp:425] inception_4a/relu_5x5 <- inception_4a/5x5
I0403 19:30:30.350227  9317 net.cpp:386] inception_4a/relu_5x5 -> inception_4a/5x5 (in-place)
I0403 19:30:30.350415  9317 net.cpp:141] Setting up inception_4a/relu_5x5
I0403 19:30:30.350442  9317 net.cpp:148] Top shape: 24 48 14 14 (225792)
I0403 19:30:30.350457  9317 net.cpp:156] Memory required for data: 875471904
I0403 19:30:30.350473  9317 layer_factory.hpp:77] Creating layer inception_4a/pool
I0403 19:30:30.350492  9317 net.cpp:91] Creating Layer inception_4a/pool
I0403 19:30:30.350510  9317 net.cpp:425] inception_4a/pool <- pool3/3x3_s2_pool3/3x3_s2_0_split_3
I0403 19:30:30.350531  9317 net.cpp:399] inception_4a/pool -> inception_4a/pool
I0403 19:30:30.350596  9317 net.cpp:141] Setting up inception_4a/pool
I0403 19:30:30.350621  9317 net.cpp:148] Top shape: 24 480 14 14 (2257920)
I0403 19:30:30.350637  9317 net.cpp:156] Memory required for data: 884503584
I0403 19:30:30.350652  9317 layer_factory.hpp:77] Creating layer inception_4a/pool_proj
I0403 19:30:30.350677  9317 net.cpp:91] Creating Layer inception_4a/pool_proj
I0403 19:30:30.350697  9317 net.cpp:425] inception_4a/pool_proj <- inception_4a/pool
I0403 19:30:30.350716  9317 net.cpp:399] inception_4a/pool_proj -> inception_4a/pool_proj
I0403 19:30:30.351954  9317 net.cpp:141] Setting up inception_4a/pool_proj
I0403 19:30:30.351986  9317 net.cpp:148] Top shape: 24 64 14 14 (301056)
I0403 19:30:30.352018  9317 net.cpp:156] Memory required for data: 885707808
I0403 19:30:30.352038  9317 layer_factory.hpp:77] Creating layer inception_4a/relu_pool_proj
I0403 19:30:30.352057  9317 net.cpp:91] Creating Layer inception_4a/relu_pool_proj
I0403 19:30:30.352074  9317 net.cpp:425] inception_4a/relu_pool_proj <- inception_4a/pool_proj
I0403 19:30:30.352097  9317 net.cpp:386] inception_4a/relu_pool_proj -> inception_4a/pool_proj (in-place)
I0403 19:30:30.352403  9317 net.cpp:141] Setting up inception_4a/relu_pool_proj
I0403 19:30:30.352433  9317 net.cpp:148] Top shape: 24 64 14 14 (301056)
I0403 19:30:30.352450  9317 net.cpp:156] Memory required for data: 886912032
I0403 19:30:30.352466  9317 layer_factory.hpp:77] Creating layer inception_4a/output
I0403 19:30:30.352484  9317 net.cpp:91] Creating Layer inception_4a/output
I0403 19:30:30.352502  9317 net.cpp:425] inception_4a/output <- inception_4a/1x1
I0403 19:30:30.352520  9317 net.cpp:425] inception_4a/output <- inception_4a/3x3
I0403 19:30:30.352537  9317 net.cpp:425] inception_4a/output <- inception_4a/5x5
I0403 19:30:30.352555  9317 net.cpp:425] inception_4a/output <- inception_4a/pool_proj
I0403 19:30:30.352576  9317 net.cpp:399] inception_4a/output -> inception_4a/output
I0403 19:30:30.352622  9317 net.cpp:141] Setting up inception_4a/output
I0403 19:30:30.352646  9317 net.cpp:148] Top shape: 24 512 14 14 (2408448)
I0403 19:30:30.352661  9317 net.cpp:156] Memory required for data: 896545824
I0403 19:30:30.352677  9317 layer_factory.hpp:77] Creating layer inception_4a/output_inception_4a/output_0_split
I0403 19:30:30.352699  9317 net.cpp:91] Creating Layer inception_4a/output_inception_4a/output_0_split
I0403 19:30:30.352715  9317 net.cpp:425] inception_4a/output_inception_4a/output_0_split <- inception_4a/output
I0403 19:30:30.352735  9317 net.cpp:399] inception_4a/output_inception_4a/output_0_split -> inception_4a/output_inception_4a/output_0_split_0
I0403 19:30:30.352756  9317 net.cpp:399] inception_4a/output_inception_4a/output_0_split -> inception_4a/output_inception_4a/output_0_split_1
I0403 19:30:30.352782  9317 net.cpp:399] inception_4a/output_inception_4a/output_0_split -> inception_4a/output_inception_4a/output_0_split_2
I0403 19:30:30.352804  9317 net.cpp:399] inception_4a/output_inception_4a/output_0_split -> inception_4a/output_inception_4a/output_0_split_3
I0403 19:30:30.352826  9317 net.cpp:399] inception_4a/output_inception_4a/output_0_split -> inception_4a/output_inception_4a/output_0_split_4
I0403 19:30:30.352926  9317 net.cpp:141] Setting up inception_4a/output_inception_4a/output_0_split
I0403 19:30:30.352951  9317 net.cpp:148] Top shape: 24 512 14 14 (2408448)
I0403 19:30:30.352967  9317 net.cpp:148] Top shape: 24 512 14 14 (2408448)
I0403 19:30:30.352984  9317 net.cpp:148] Top shape: 24 512 14 14 (2408448)
I0403 19:30:30.353001  9317 net.cpp:148] Top shape: 24 512 14 14 (2408448)
I0403 19:30:30.353018  9317 net.cpp:148] Top shape: 24 512 14 14 (2408448)
I0403 19:30:30.353032  9317 net.cpp:156] Memory required for data: 944714784
I0403 19:30:30.353049  9317 layer_factory.hpp:77] Creating layer loss1/ave_pool
I0403 19:30:30.353070  9317 net.cpp:91] Creating Layer loss1/ave_pool
I0403 19:30:30.353087  9317 net.cpp:425] loss1/ave_pool <- inception_4a/output_inception_4a/output_0_split_0
I0403 19:30:30.353106  9317 net.cpp:399] loss1/ave_pool -> loss1/ave_pool
I0403 19:30:30.353339  9317 net.cpp:141] Setting up loss1/ave_pool
I0403 19:30:30.353369  9317 net.cpp:148] Top shape: 24 512 4 4 (196608)
I0403 19:30:30.353386  9317 net.cpp:156] Memory required for data: 945501216
I0403 19:30:30.353402  9317 layer_factory.hpp:77] Creating layer loss1/conv
I0403 19:30:30.353426  9317 net.cpp:91] Creating Layer loss1/conv
I0403 19:30:30.353445  9317 net.cpp:425] loss1/conv <- loss1/ave_pool
I0403 19:30:30.353464  9317 net.cpp:399] loss1/conv -> loss1/conv
I0403 19:30:30.354961  9317 net.cpp:141] Setting up loss1/conv
I0403 19:30:30.354990  9317 net.cpp:148] Top shape: 24 128 4 4 (49152)
I0403 19:30:30.355021  9317 net.cpp:156] Memory required for data: 945697824
I0403 19:30:30.355041  9317 layer_factory.hpp:77] Creating layer loss1/relu_conv
I0403 19:30:30.355064  9317 net.cpp:91] Creating Layer loss1/relu_conv
I0403 19:30:30.355082  9317 net.cpp:425] loss1/relu_conv <- loss1/conv
I0403 19:30:30.355099  9317 net.cpp:386] loss1/relu_conv -> loss1/conv (in-place)
I0403 19:30:30.355401  9317 net.cpp:141] Setting up loss1/relu_conv
I0403 19:30:30.355428  9317 net.cpp:148] Top shape: 24 128 4 4 (49152)
I0403 19:30:30.355444  9317 net.cpp:156] Memory required for data: 945894432
I0403 19:30:30.355460  9317 layer_factory.hpp:77] Creating layer loss1/fc
I0403 19:30:30.355489  9317 net.cpp:91] Creating Layer loss1/fc
I0403 19:30:30.355507  9317 net.cpp:425] loss1/fc <- loss1/conv
I0403 19:30:30.355527  9317 net.cpp:399] loss1/fc -> loss1/fc
I0403 19:30:30.374080  9317 net.cpp:141] Setting up loss1/fc
I0403 19:30:30.374112  9317 net.cpp:148] Top shape: 24 1024 (24576)
I0403 19:30:30.374128  9317 net.cpp:156] Memory required for data: 945992736
I0403 19:30:30.374148  9317 layer_factory.hpp:77] Creating layer loss1/relu_fc
I0403 19:30:30.374167  9317 net.cpp:91] Creating Layer loss1/relu_fc
I0403 19:30:30.374188  9317 net.cpp:425] loss1/relu_fc <- loss1/fc
I0403 19:30:30.374210  9317 net.cpp:386] loss1/relu_fc -> loss1/fc (in-place)
I0403 19:30:30.374405  9317 net.cpp:141] Setting up loss1/relu_fc
I0403 19:30:30.374431  9317 net.cpp:148] Top shape: 24 1024 (24576)
I0403 19:30:30.374446  9317 net.cpp:156] Memory required for data: 946091040
I0403 19:30:30.374462  9317 layer_factory.hpp:77] Creating layer loss1/drop_fc
I0403 19:30:30.374488  9317 net.cpp:91] Creating Layer loss1/drop_fc
I0403 19:30:30.374506  9317 net.cpp:425] loss1/drop_fc <- loss1/fc
I0403 19:30:30.374526  9317 net.cpp:386] loss1/drop_fc -> loss1/fc (in-place)
I0403 19:30:30.374582  9317 net.cpp:141] Setting up loss1/drop_fc
I0403 19:30:30.374610  9317 net.cpp:148] Top shape: 24 1024 (24576)
I0403 19:30:30.374626  9317 net.cpp:156] Memory required for data: 946189344
I0403 19:30:30.374644  9317 layer_factory.hpp:77] Creating layer loss1/classifier_plantvillage
I0403 19:30:30.374662  9317 net.cpp:91] Creating Layer loss1/classifier_plantvillage
I0403 19:30:30.374680  9317 net.cpp:425] loss1/classifier_plantvillage <- loss1/fc
I0403 19:30:30.374701  9317 net.cpp:399] loss1/classifier_plantvillage -> loss1/classifier_plantvillage
I0403 19:30:30.375653  9317 net.cpp:141] Setting up loss1/classifier_plantvillage
I0403 19:30:30.375682  9317 net.cpp:148] Top shape: 24 38 (912)
I0403 19:30:30.375699  9317 net.cpp:156] Memory required for data: 946192992
I0403 19:30:30.375716  9317 layer_factory.hpp:77] Creating layer loss1/classifier_plantvillage_loss1/classifier_plantvillage_0_split
I0403 19:30:30.375735  9317 net.cpp:91] Creating Layer loss1/classifier_plantvillage_loss1/classifier_plantvillage_0_split
I0403 19:30:30.375751  9317 net.cpp:425] loss1/classifier_plantvillage_loss1/classifier_plantvillage_0_split <- loss1/classifier_plantvillage
I0403 19:30:30.375772  9317 net.cpp:399] loss1/classifier_plantvillage_loss1/classifier_plantvillage_0_split -> loss1/classifier_plantvillage_loss1/classifier_plantvillage_0_split_0
I0403 19:30:30.375795  9317 net.cpp:399] loss1/classifier_plantvillage_loss1/classifier_plantvillage_0_split -> loss1/classifier_plantvillage_loss1/classifier_plantvillage_0_split_1
I0403 19:30:30.375818  9317 net.cpp:399] loss1/classifier_plantvillage_loss1/classifier_plantvillage_0_split -> loss1/classifier_plantvillage_loss1/classifier_plantvillage_0_split_2
I0403 19:30:30.375890  9317 net.cpp:141] Setting up loss1/classifier_plantvillage_loss1/classifier_plantvillage_0_split
I0403 19:30:30.375915  9317 net.cpp:148] Top shape: 24 38 (912)
I0403 19:30:30.375931  9317 net.cpp:148] Top shape: 24 38 (912)
I0403 19:30:30.375947  9317 net.cpp:148] Top shape: 24 38 (912)
I0403 19:30:30.375962  9317 net.cpp:156] Memory required for data: 946203936
I0403 19:30:30.375977  9317 layer_factory.hpp:77] Creating layer inception_4b/1x1
I0403 19:30:30.376000  9317 net.cpp:91] Creating Layer inception_4b/1x1
I0403 19:30:30.376034  9317 net.cpp:425] inception_4b/1x1 <- inception_4a/output_inception_4a/output_0_split_1
I0403 19:30:30.376055  9317 net.cpp:399] inception_4b/1x1 -> inception_4b/1x1
I0403 19:30:30.377779  9317 net.cpp:141] Setting up inception_4b/1x1
I0403 19:30:30.377810  9317 net.cpp:148] Top shape: 24 160 14 14 (752640)
I0403 19:30:30.377825  9317 net.cpp:156] Memory required for data: 949214496
I0403 19:30:30.377845  9317 layer_factory.hpp:77] Creating layer inception_4b/relu_1x1
I0403 19:30:30.377864  9317 net.cpp:91] Creating Layer inception_4b/relu_1x1
I0403 19:30:30.377882  9317 net.cpp:425] inception_4b/relu_1x1 <- inception_4b/1x1
I0403 19:30:30.377900  9317 net.cpp:386] inception_4b/relu_1x1 -> inception_4b/1x1 (in-place)
I0403 19:30:30.378085  9317 net.cpp:141] Setting up inception_4b/relu_1x1
I0403 19:30:30.378113  9317 net.cpp:148] Top shape: 24 160 14 14 (752640)
I0403 19:30:30.378129  9317 net.cpp:156] Memory required for data: 952225056
I0403 19:30:30.378144  9317 layer_factory.hpp:77] Creating layer inception_4b/3x3_reduce
I0403 19:30:30.378165  9317 net.cpp:91] Creating Layer inception_4b/3x3_reduce
I0403 19:30:30.378186  9317 net.cpp:425] inception_4b/3x3_reduce <- inception_4a/output_inception_4a/output_0_split_2
I0403 19:30:30.378211  9317 net.cpp:399] inception_4b/3x3_reduce -> inception_4b/3x3_reduce
I0403 19:30:30.379636  9317 net.cpp:141] Setting up inception_4b/3x3_reduce
I0403 19:30:30.379663  9317 net.cpp:148] Top shape: 24 112 14 14 (526848)
I0403 19:30:30.379683  9317 net.cpp:156] Memory required for data: 954332448
I0403 19:30:30.379703  9317 layer_factory.hpp:77] Creating layer inception_4b/relu_3x3_reduce
I0403 19:30:30.379720  9317 net.cpp:91] Creating Layer inception_4b/relu_3x3_reduce
I0403 19:30:30.379737  9317 net.cpp:425] inception_4b/relu_3x3_reduce <- inception_4b/3x3_reduce
I0403 19:30:30.379755  9317 net.cpp:386] inception_4b/relu_3x3_reduce -> inception_4b/3x3_reduce (in-place)
I0403 19:30:30.380049  9317 net.cpp:141] Setting up inception_4b/relu_3x3_reduce
I0403 19:30:30.380076  9317 net.cpp:148] Top shape: 24 112 14 14 (526848)
I0403 19:30:30.380095  9317 net.cpp:156] Memory required for data: 956439840
I0403 19:30:30.380110  9317 layer_factory.hpp:77] Creating layer inception_4b/3x3
I0403 19:30:30.380131  9317 net.cpp:91] Creating Layer inception_4b/3x3
I0403 19:30:30.380147  9317 net.cpp:425] inception_4b/3x3 <- inception_4b/3x3_reduce
I0403 19:30:30.380169  9317 net.cpp:399] inception_4b/3x3 -> inception_4b/3x3
I0403 19:30:30.383227  9317 net.cpp:141] Setting up inception_4b/3x3
I0403 19:30:30.383260  9317 net.cpp:148] Top shape: 24 224 14 14 (1053696)
I0403 19:30:30.383277  9317 net.cpp:156] Memory required for data: 960654624
I0403 19:30:30.383296  9317 layer_factory.hpp:77] Creating layer inception_4b/relu_3x3
I0403 19:30:30.383314  9317 net.cpp:91] Creating Layer inception_4b/relu_3x3
I0403 19:30:30.383332  9317 net.cpp:425] inception_4b/relu_3x3 <- inception_4b/3x3
I0403 19:30:30.383352  9317 net.cpp:386] inception_4b/relu_3x3 -> inception_4b/3x3 (in-place)
I0403 19:30:30.383532  9317 net.cpp:141] Setting up inception_4b/relu_3x3
I0403 19:30:30.383556  9317 net.cpp:148] Top shape: 24 224 14 14 (1053696)
I0403 19:30:30.383571  9317 net.cpp:156] Memory required for data: 964869408
I0403 19:30:30.383586  9317 layer_factory.hpp:77] Creating layer inception_4b/5x5_reduce
I0403 19:30:30.383608  9317 net.cpp:91] Creating Layer inception_4b/5x5_reduce
I0403 19:30:30.383626  9317 net.cpp:425] inception_4b/5x5_reduce <- inception_4a/output_inception_4a/output_0_split_3
I0403 19:30:30.383649  9317 net.cpp:399] inception_4b/5x5_reduce -> inception_4b/5x5_reduce
I0403 19:30:30.384766  9317 net.cpp:141] Setting up inception_4b/5x5_reduce
I0403 19:30:30.384795  9317 net.cpp:148] Top shape: 24 24 14 14 (112896)
I0403 19:30:30.384810  9317 net.cpp:156] Memory required for data: 965320992
I0403 19:30:30.384829  9317 layer_factory.hpp:77] Creating layer inception_4b/relu_5x5_reduce
I0403 19:30:30.384851  9317 net.cpp:91] Creating Layer inception_4b/relu_5x5_reduce
I0403 19:30:30.384883  9317 net.cpp:425] inception_4b/relu_5x5_reduce <- inception_4b/5x5_reduce
I0403 19:30:30.384902  9317 net.cpp:386] inception_4b/relu_5x5_reduce -> inception_4b/5x5_reduce (in-place)
I0403 19:30:30.385093  9317 net.cpp:141] Setting up inception_4b/relu_5x5_reduce
I0403 19:30:30.385121  9317 net.cpp:148] Top shape: 24 24 14 14 (112896)
I0403 19:30:30.385138  9317 net.cpp:156] Memory required for data: 965772576
I0403 19:30:30.385154  9317 layer_factory.hpp:77] Creating layer inception_4b/5x5
I0403 19:30:30.385182  9317 net.cpp:91] Creating Layer inception_4b/5x5
I0403 19:30:30.385202  9317 net.cpp:425] inception_4b/5x5 <- inception_4b/5x5_reduce
I0403 19:30:30.385222  9317 net.cpp:399] inception_4b/5x5 -> inception_4b/5x5
I0403 19:30:30.386515  9317 net.cpp:141] Setting up inception_4b/5x5
I0403 19:30:30.386544  9317 net.cpp:148] Top shape: 24 64 14 14 (301056)
I0403 19:30:30.386560  9317 net.cpp:156] Memory required for data: 966976800
I0403 19:30:30.386579  9317 layer_factory.hpp:77] Creating layer inception_4b/relu_5x5
I0403 19:30:30.386600  9317 net.cpp:91] Creating Layer inception_4b/relu_5x5
I0403 19:30:30.386616  9317 net.cpp:425] inception_4b/relu_5x5 <- inception_4b/5x5
I0403 19:30:30.386636  9317 net.cpp:386] inception_4b/relu_5x5 -> inception_4b/5x5 (in-place)
I0403 19:30:30.386927  9317 net.cpp:141] Setting up inception_4b/relu_5x5
I0403 19:30:30.386955  9317 net.cpp:148] Top shape: 24 64 14 14 (301056)
I0403 19:30:30.386971  9317 net.cpp:156] Memory required for data: 968181024
I0403 19:30:30.386988  9317 layer_factory.hpp:77] Creating layer inception_4b/pool
I0403 19:30:30.387007  9317 net.cpp:91] Creating Layer inception_4b/pool
I0403 19:30:30.387025  9317 net.cpp:425] inception_4b/pool <- inception_4a/output_inception_4a/output_0_split_4
I0403 19:30:30.387049  9317 net.cpp:399] inception_4b/pool -> inception_4b/pool
I0403 19:30:30.387120  9317 net.cpp:141] Setting up inception_4b/pool
I0403 19:30:30.387145  9317 net.cpp:148] Top shape: 24 512 14 14 (2408448)
I0403 19:30:30.387161  9317 net.cpp:156] Memory required for data: 977814816
I0403 19:30:30.387176  9317 layer_factory.hpp:77] Creating layer inception_4b/pool_proj
I0403 19:30:30.387220  9317 net.cpp:91] Creating Layer inception_4b/pool_proj
I0403 19:30:30.387250  9317 net.cpp:425] inception_4b/pool_proj <- inception_4b/pool
I0403 19:30:30.387272  9317 net.cpp:399] inception_4b/pool_proj -> inception_4b/pool_proj
I0403 19:30:30.388556  9317 net.cpp:141] Setting up inception_4b/pool_proj
I0403 19:30:30.388584  9317 net.cpp:148] Top shape: 24 64 14 14 (301056)
I0403 19:30:30.388600  9317 net.cpp:156] Memory required for data: 979019040
I0403 19:30:30.388620  9317 layer_factory.hpp:77] Creating layer inception_4b/relu_pool_proj
I0403 19:30:30.388641  9317 net.cpp:91] Creating Layer inception_4b/relu_pool_proj
I0403 19:30:30.388660  9317 net.cpp:425] inception_4b/relu_pool_proj <- inception_4b/pool_proj
I0403 19:30:30.388679  9317 net.cpp:386] inception_4b/relu_pool_proj -> inception_4b/pool_proj (in-place)
I0403 19:30:30.388870  9317 net.cpp:141] Setting up inception_4b/relu_pool_proj
I0403 19:30:30.388903  9317 net.cpp:148] Top shape: 24 64 14 14 (301056)
I0403 19:30:30.388921  9317 net.cpp:156] Memory required for data: 980223264
I0403 19:30:30.388937  9317 layer_factory.hpp:77] Creating layer inception_4b/output
I0403 19:30:30.388955  9317 net.cpp:91] Creating Layer inception_4b/output
I0403 19:30:30.388974  9317 net.cpp:425] inception_4b/output <- inception_4b/1x1
I0403 19:30:30.388991  9317 net.cpp:425] inception_4b/output <- inception_4b/3x3
I0403 19:30:30.389008  9317 net.cpp:425] inception_4b/output <- inception_4b/5x5
I0403 19:30:30.389025  9317 net.cpp:425] inception_4b/output <- inception_4b/pool_proj
I0403 19:30:30.389044  9317 net.cpp:399] inception_4b/output -> inception_4b/output
I0403 19:30:30.389094  9317 net.cpp:141] Setting up inception_4b/output
I0403 19:30:30.389122  9317 net.cpp:148] Top shape: 24 512 14 14 (2408448)
I0403 19:30:30.389137  9317 net.cpp:156] Memory required for data: 989857056
I0403 19:30:30.389168  9317 layer_factory.hpp:77] Creating layer inception_4b/output_inception_4b/output_0_split
I0403 19:30:30.389197  9317 net.cpp:91] Creating Layer inception_4b/output_inception_4b/output_0_split
I0403 19:30:30.389216  9317 net.cpp:425] inception_4b/output_inception_4b/output_0_split <- inception_4b/output
I0403 19:30:30.389235  9317 net.cpp:399] inception_4b/output_inception_4b/output_0_split -> inception_4b/output_inception_4b/output_0_split_0
I0403 19:30:30.389257  9317 net.cpp:399] inception_4b/output_inception_4b/output_0_split -> inception_4b/output_inception_4b/output_0_split_1
I0403 19:30:30.389281  9317 net.cpp:399] inception_4b/output_inception_4b/output_0_split -> inception_4b/output_inception_4b/output_0_split_2
I0403 19:30:30.389302  9317 net.cpp:399] inception_4b/output_inception_4b/output_0_split -> inception_4b/output_inception_4b/output_0_split_3
I0403 19:30:30.389392  9317 net.cpp:141] Setting up inception_4b/output_inception_4b/output_0_split
I0403 19:30:30.389417  9317 net.cpp:148] Top shape: 24 512 14 14 (2408448)
I0403 19:30:30.389436  9317 net.cpp:148] Top shape: 24 512 14 14 (2408448)
I0403 19:30:30.389452  9317 net.cpp:148] Top shape: 24 512 14 14 (2408448)
I0403 19:30:30.389469  9317 net.cpp:148] Top shape: 24 512 14 14 (2408448)
I0403 19:30:30.389483  9317 net.cpp:156] Memory required for data: 1028392224
I0403 19:30:30.389498  9317 layer_factory.hpp:77] Creating layer inception_4c/1x1
I0403 19:30:30.389521  9317 net.cpp:91] Creating Layer inception_4c/1x1
I0403 19:30:30.389540  9317 net.cpp:425] inception_4c/1x1 <- inception_4b/output_inception_4b/output_0_split_0
I0403 19:30:30.389564  9317 net.cpp:399] inception_4c/1x1 -> inception_4c/1x1
I0403 19:30:30.391093  9317 net.cpp:141] Setting up inception_4c/1x1
I0403 19:30:30.391126  9317 net.cpp:148] Top shape: 24 128 14 14 (602112)
I0403 19:30:30.391144  9317 net.cpp:156] Memory required for data: 1030800672
I0403 19:30:30.391162  9317 layer_factory.hpp:77] Creating layer inception_4c/relu_1x1
I0403 19:30:30.391188  9317 net.cpp:91] Creating Layer inception_4c/relu_1x1
I0403 19:30:30.391207  9317 net.cpp:425] inception_4c/relu_1x1 <- inception_4c/1x1
I0403 19:30:30.391228  9317 net.cpp:386] inception_4c/relu_1x1 -> inception_4c/1x1 (in-place)
I0403 19:30:30.391423  9317 net.cpp:141] Setting up inception_4c/relu_1x1
I0403 19:30:30.391450  9317 net.cpp:148] Top shape: 24 128 14 14 (602112)
I0403 19:30:30.391465  9317 net.cpp:156] Memory required for data: 1033209120
I0403 19:30:30.391481  9317 layer_factory.hpp:77] Creating layer inception_4c/3x3_reduce
I0403 19:30:30.391505  9317 net.cpp:91] Creating Layer inception_4c/3x3_reduce
I0403 19:30:30.391523  9317 net.cpp:425] inception_4c/3x3_reduce <- inception_4b/output_inception_4b/output_0_split_1
I0403 19:30:30.391548  9317 net.cpp:399] inception_4c/3x3_reduce -> inception_4c/3x3_reduce
I0403 19:30:30.393743  9317 net.cpp:141] Setting up inception_4c/3x3_reduce
I0403 19:30:30.393774  9317 net.cpp:148] Top shape: 24 128 14 14 (602112)
I0403 19:30:30.393791  9317 net.cpp:156] Memory required for data: 1035617568
I0403 19:30:30.393811  9317 layer_factory.hpp:77] Creating layer inception_4c/relu_3x3_reduce
I0403 19:30:30.393833  9317 net.cpp:91] Creating Layer inception_4c/relu_3x3_reduce
I0403 19:30:30.393851  9317 net.cpp:425] inception_4c/relu_3x3_reduce <- inception_4c/3x3_reduce
I0403 19:30:30.393870  9317 net.cpp:386] inception_4c/relu_3x3_reduce -> inception_4c/3x3_reduce (in-place)
I0403 19:30:30.394187  9317 net.cpp:141] Setting up inception_4c/relu_3x3_reduce
I0403 19:30:30.394215  9317 net.cpp:148] Top shape: 24 128 14 14 (602112)
I0403 19:30:30.394232  9317 net.cpp:156] Memory required for data: 1038026016
I0403 19:30:30.394248  9317 layer_factory.hpp:77] Creating layer inception_4c/3x3
I0403 19:30:30.394273  9317 net.cpp:91] Creating Layer inception_4c/3x3
I0403 19:30:30.394291  9317 net.cpp:425] inception_4c/3x3 <- inception_4c/3x3_reduce
I0403 19:30:30.394315  9317 net.cpp:399] inception_4c/3x3 -> inception_4c/3x3
I0403 19:30:30.398169  9317 net.cpp:141] Setting up inception_4c/3x3
I0403 19:30:30.398218  9317 net.cpp:148] Top shape: 24 256 14 14 (1204224)
I0403 19:30:30.398236  9317 net.cpp:156] Memory required for data: 1042842912
I0403 19:30:30.398274  9317 layer_factory.hpp:77] Creating layer inception_4c/relu_3x3
I0403 19:30:30.398298  9317 net.cpp:91] Creating Layer inception_4c/relu_3x3
I0403 19:30:30.398318  9317 net.cpp:425] inception_4c/relu_3x3 <- inception_4c/3x3
I0403 19:30:30.398336  9317 net.cpp:386] inception_4c/relu_3x3 -> inception_4c/3x3 (in-place)
I0403 19:30:30.398530  9317 net.cpp:141] Setting up inception_4c/relu_3x3
I0403 19:30:30.398556  9317 net.cpp:148] Top shape: 24 256 14 14 (1204224)
I0403 19:30:30.398572  9317 net.cpp:156] Memory required for data: 1047659808
I0403 19:30:30.398587  9317 layer_factory.hpp:77] Creating layer inception_4c/5x5_reduce
I0403 19:30:30.398612  9317 net.cpp:91] Creating Layer inception_4c/5x5_reduce
I0403 19:30:30.398632  9317 net.cpp:425] inception_4c/5x5_reduce <- inception_4b/output_inception_4b/output_0_split_2
I0403 19:30:30.398655  9317 net.cpp:399] inception_4c/5x5_reduce -> inception_4c/5x5_reduce
I0403 19:30:30.399830  9317 net.cpp:141] Setting up inception_4c/5x5_reduce
I0403 19:30:30.399860  9317 net.cpp:148] Top shape: 24 24 14 14 (112896)
I0403 19:30:30.399876  9317 net.cpp:156] Memory required for data: 1048111392
I0403 19:30:30.399896  9317 layer_factory.hpp:77] Creating layer inception_4c/relu_5x5_reduce
I0403 19:30:30.399919  9317 net.cpp:91] Creating Layer inception_4c/relu_5x5_reduce
I0403 19:30:30.399935  9317 net.cpp:425] inception_4c/relu_5x5_reduce <- inception_4c/5x5_reduce
I0403 19:30:30.399955  9317 net.cpp:386] inception_4c/relu_5x5_reduce -> inception_4c/5x5_reduce (in-place)
I0403 19:30:30.400154  9317 net.cpp:141] Setting up inception_4c/relu_5x5_reduce
I0403 19:30:30.400190  9317 net.cpp:148] Top shape: 24 24 14 14 (112896)
I0403 19:30:30.400208  9317 net.cpp:156] Memory required for data: 1048562976
I0403 19:30:30.400224  9317 layer_factory.hpp:77] Creating layer inception_4c/5x5
I0403 19:30:30.400249  9317 net.cpp:91] Creating Layer inception_4c/5x5
I0403 19:30:30.400266  9317 net.cpp:425] inception_4c/5x5 <- inception_4c/5x5_reduce
I0403 19:30:30.400287  9317 net.cpp:399] inception_4c/5x5 -> inception_4c/5x5
I0403 19:30:30.401617  9317 net.cpp:141] Setting up inception_4c/5x5
I0403 19:30:30.401654  9317 net.cpp:148] Top shape: 24 64 14 14 (301056)
I0403 19:30:30.401670  9317 net.cpp:156] Memory required for data: 1049767200
I0403 19:30:30.401690  9317 layer_factory.hpp:77] Creating layer inception_4c/relu_5x5
I0403 19:30:30.401708  9317 net.cpp:91] Creating Layer inception_4c/relu_5x5
I0403 19:30:30.401726  9317 net.cpp:425] inception_4c/relu_5x5 <- inception_4c/5x5
I0403 19:30:30.401743  9317 net.cpp:386] inception_4c/relu_5x5 -> inception_4c/5x5 (in-place)
I0403 19:30:30.402048  9317 net.cpp:141] Setting up inception_4c/relu_5x5
I0403 19:30:30.402078  9317 net.cpp:148] Top shape: 24 64 14 14 (301056)
I0403 19:30:30.402094  9317 net.cpp:156] Memory required for data: 1050971424
I0403 19:30:30.402112  9317 layer_factory.hpp:77] Creating layer inception_4c/pool
I0403 19:30:30.402130  9317 net.cpp:91] Creating Layer inception_4c/pool
I0403 19:30:30.402148  9317 net.cpp:425] inception_4c/pool <- inception_4b/output_inception_4b/output_0_split_3
I0403 19:30:30.402166  9317 net.cpp:399] inception_4c/pool -> inception_4c/pool
I0403 19:30:30.402252  9317 net.cpp:141] Setting up inception_4c/pool
I0403 19:30:30.402278  9317 net.cpp:148] Top shape: 24 512 14 14 (2408448)
I0403 19:30:30.402293  9317 net.cpp:156] Memory required for data: 1060605216
I0403 19:30:30.402309  9317 layer_factory.hpp:77] Creating layer inception_4c/pool_proj
I0403 19:30:30.402333  9317 net.cpp:91] Creating Layer inception_4c/pool_proj
I0403 19:30:30.402353  9317 net.cpp:425] inception_4c/pool_proj <- inception_4c/pool
I0403 19:30:30.402374  9317 net.cpp:399] inception_4c/pool_proj -> inception_4c/pool_proj
I0403 19:30:30.403676  9317 net.cpp:141] Setting up inception_4c/pool_proj
I0403 19:30:30.403705  9317 net.cpp:148] Top shape: 24 64 14 14 (301056)
I0403 19:30:30.403736  9317 net.cpp:156] Memory required for data: 1061809440
I0403 19:30:30.403756  9317 layer_factory.hpp:77] Creating layer inception_4c/relu_pool_proj
I0403 19:30:30.403777  9317 net.cpp:91] Creating Layer inception_4c/relu_pool_proj
I0403 19:30:30.403795  9317 net.cpp:425] inception_4c/relu_pool_proj <- inception_4c/pool_proj
I0403 19:30:30.403815  9317 net.cpp:386] inception_4c/relu_pool_proj -> inception_4c/pool_proj (in-place)
I0403 19:30:30.404009  9317 net.cpp:141] Setting up inception_4c/relu_pool_proj
I0403 19:30:30.404037  9317 net.cpp:148] Top shape: 24 64 14 14 (301056)
I0403 19:30:30.404054  9317 net.cpp:156] Memory required for data: 1063013664
I0403 19:30:30.404070  9317 layer_factory.hpp:77] Creating layer inception_4c/output
I0403 19:30:30.404088  9317 net.cpp:91] Creating Layer inception_4c/output
I0403 19:30:30.404104  9317 net.cpp:425] inception_4c/output <- inception_4c/1x1
I0403 19:30:30.404121  9317 net.cpp:425] inception_4c/output <- inception_4c/3x3
I0403 19:30:30.404139  9317 net.cpp:425] inception_4c/output <- inception_4c/5x5
I0403 19:30:30.404155  9317 net.cpp:425] inception_4c/output <- inception_4c/pool_proj
I0403 19:30:30.404173  9317 net.cpp:399] inception_4c/output -> inception_4c/output
I0403 19:30:30.404232  9317 net.cpp:141] Setting up inception_4c/output
I0403 19:30:30.404258  9317 net.cpp:148] Top shape: 24 512 14 14 (2408448)
I0403 19:30:30.404273  9317 net.cpp:156] Memory required for data: 1072647456
I0403 19:30:30.404289  9317 layer_factory.hpp:77] Creating layer inception_4c/output_inception_4c/output_0_split
I0403 19:30:30.404309  9317 net.cpp:91] Creating Layer inception_4c/output_inception_4c/output_0_split
I0403 19:30:30.404325  9317 net.cpp:425] inception_4c/output_inception_4c/output_0_split <- inception_4c/output
I0403 19:30:30.404345  9317 net.cpp:399] inception_4c/output_inception_4c/output_0_split -> inception_4c/output_inception_4c/output_0_split_0
I0403 19:30:30.404366  9317 net.cpp:399] inception_4c/output_inception_4c/output_0_split -> inception_4c/output_inception_4c/output_0_split_1
I0403 19:30:30.404386  9317 net.cpp:399] inception_4c/output_inception_4c/output_0_split -> inception_4c/output_inception_4c/output_0_split_2
I0403 19:30:30.404407  9317 net.cpp:399] inception_4c/output_inception_4c/output_0_split -> inception_4c/output_inception_4c/output_0_split_3
I0403 19:30:30.404500  9317 net.cpp:141] Setting up inception_4c/output_inception_4c/output_0_split
I0403 19:30:30.404525  9317 net.cpp:148] Top shape: 24 512 14 14 (2408448)
I0403 19:30:30.404541  9317 net.cpp:148] Top shape: 24 512 14 14 (2408448)
I0403 19:30:30.404557  9317 net.cpp:148] Top shape: 24 512 14 14 (2408448)
I0403 19:30:30.404573  9317 net.cpp:148] Top shape: 24 512 14 14 (2408448)
I0403 19:30:30.404587  9317 net.cpp:156] Memory required for data: 1111182624
I0403 19:30:30.404603  9317 layer_factory.hpp:77] Creating layer inception_4d/1x1
I0403 19:30:30.404631  9317 net.cpp:91] Creating Layer inception_4d/1x1
I0403 19:30:30.404650  9317 net.cpp:425] inception_4d/1x1 <- inception_4c/output_inception_4c/output_0_split_0
I0403 19:30:30.404675  9317 net.cpp:399] inception_4d/1x1 -> inception_4d/1x1
I0403 19:30:30.406193  9317 net.cpp:141] Setting up inception_4d/1x1
I0403 19:30:30.406222  9317 net.cpp:148] Top shape: 24 112 14 14 (526848)
I0403 19:30:30.406239  9317 net.cpp:156] Memory required for data: 1113290016
I0403 19:30:30.406258  9317 layer_factory.hpp:77] Creating layer inception_4d/relu_1x1
I0403 19:30:30.406277  9317 net.cpp:91] Creating Layer inception_4d/relu_1x1
I0403 19:30:30.406294  9317 net.cpp:425] inception_4d/relu_1x1 <- inception_4d/1x1
I0403 19:30:30.406316  9317 net.cpp:386] inception_4d/relu_1x1 -> inception_4d/1x1 (in-place)
I0403 19:30:30.406512  9317 net.cpp:141] Setting up inception_4d/relu_1x1
I0403 19:30:30.406546  9317 net.cpp:148] Top shape: 24 112 14 14 (526848)
I0403 19:30:30.406563  9317 net.cpp:156] Memory required for data: 1115397408
I0403 19:30:30.406579  9317 layer_factory.hpp:77] Creating layer inception_4d/3x3_reduce
I0403 19:30:30.406616  9317 net.cpp:91] Creating Layer inception_4d/3x3_reduce
I0403 19:30:30.406636  9317 net.cpp:425] inception_4d/3x3_reduce <- inception_4c/output_inception_4c/output_0_split_1
I0403 19:30:30.406659  9317 net.cpp:399] inception_4d/3x3_reduce -> inception_4d/3x3_reduce
I0403 19:30:30.408262  9317 net.cpp:141] Setting up inception_4d/3x3_reduce
I0403 19:30:30.408294  9317 net.cpp:148] Top shape: 24 144 14 14 (677376)
I0403 19:30:30.408310  9317 net.cpp:156] Memory required for data: 1118106912
I0403 19:30:30.408329  9317 layer_factory.hpp:77] Creating layer inception_4d/relu_3x3_reduce
I0403 19:30:30.408347  9317 net.cpp:91] Creating Layer inception_4d/relu_3x3_reduce
I0403 19:30:30.408365  9317 net.cpp:425] inception_4d/relu_3x3_reduce <- inception_4d/3x3_reduce
I0403 19:30:30.408385  9317 net.cpp:386] inception_4d/relu_3x3_reduce -> inception_4d/3x3_reduce (in-place)
I0403 19:30:30.408684  9317 net.cpp:141] Setting up inception_4d/relu_3x3_reduce
I0403 19:30:30.408713  9317 net.cpp:148] Top shape: 24 144 14 14 (677376)
I0403 19:30:30.408730  9317 net.cpp:156] Memory required for data: 1120816416
I0403 19:30:30.408746  9317 layer_factory.hpp:77] Creating layer inception_4d/3x3
I0403 19:30:30.408769  9317 net.cpp:91] Creating Layer inception_4d/3x3
I0403 19:30:30.408788  9317 net.cpp:425] inception_4d/3x3 <- inception_4d/3x3_reduce
I0403 19:30:30.408807  9317 net.cpp:399] inception_4d/3x3 -> inception_4d/3x3
I0403 19:30:30.413326  9317 net.cpp:141] Setting up inception_4d/3x3
I0403 19:30:30.413355  9317 net.cpp:148] Top shape: 24 288 14 14 (1354752)
I0403 19:30:30.413372  9317 net.cpp:156] Memory required for data: 1126235424
I0403 19:30:30.413390  9317 layer_factory.hpp:77] Creating layer inception_4d/relu_3x3
I0403 19:30:30.413411  9317 net.cpp:91] Creating Layer inception_4d/relu_3x3
I0403 19:30:30.413429  9317 net.cpp:425] inception_4d/relu_3x3 <- inception_4d/3x3
I0403 19:30:30.413447  9317 net.cpp:386] inception_4d/relu_3x3 -> inception_4d/3x3 (in-place)
I0403 19:30:30.413658  9317 net.cpp:141] Setting up inception_4d/relu_3x3
I0403 19:30:30.413686  9317 net.cpp:148] Top shape: 24 288 14 14 (1354752)
I0403 19:30:30.413700  9317 net.cpp:156] Memory required for data: 1131654432
I0403 19:30:30.413717  9317 layer_factory.hpp:77] Creating layer inception_4d/5x5_reduce
I0403 19:30:30.413739  9317 net.cpp:91] Creating Layer inception_4d/5x5_reduce
I0403 19:30:30.413770  9317 net.cpp:425] inception_4d/5x5_reduce <- inception_4c/output_inception_4c/output_0_split_2
I0403 19:30:30.413792  9317 net.cpp:399] inception_4d/5x5_reduce -> inception_4d/5x5_reduce
I0403 19:30:30.414979  9317 net.cpp:141] Setting up inception_4d/5x5_reduce
I0403 19:30:30.415007  9317 net.cpp:148] Top shape: 24 32 14 14 (150528)
I0403 19:30:30.415024  9317 net.cpp:156] Memory required for data: 1132256544
I0403 19:30:30.415043  9317 layer_factory.hpp:77] Creating layer inception_4d/relu_5x5_reduce
I0403 19:30:30.415061  9317 net.cpp:91] Creating Layer inception_4d/relu_5x5_reduce
I0403 19:30:30.415078  9317 net.cpp:425] inception_4d/relu_5x5_reduce <- inception_4d/5x5_reduce
I0403 19:30:30.415098  9317 net.cpp:386] inception_4d/relu_5x5_reduce -> inception_4d/5x5_reduce (in-place)
I0403 19:30:30.415300  9317 net.cpp:141] Setting up inception_4d/relu_5x5_reduce
I0403 19:30:30.415326  9317 net.cpp:148] Top shape: 24 32 14 14 (150528)
I0403 19:30:30.415341  9317 net.cpp:156] Memory required for data: 1132858656
I0403 19:30:30.415357  9317 layer_factory.hpp:77] Creating layer inception_4d/5x5
I0403 19:30:30.415380  9317 net.cpp:91] Creating Layer inception_4d/5x5
I0403 19:30:30.415398  9317 net.cpp:425] inception_4d/5x5 <- inception_4d/5x5_reduce
I0403 19:30:30.415421  9317 net.cpp:399] inception_4d/5x5 -> inception_4d/5x5
I0403 19:30:30.416951  9317 net.cpp:141] Setting up inception_4d/5x5
I0403 19:30:30.416980  9317 net.cpp:148] Top shape: 24 64 14 14 (301056)
I0403 19:30:30.416996  9317 net.cpp:156] Memory required for data: 1134062880
I0403 19:30:30.417016  9317 layer_factory.hpp:77] Creating layer inception_4d/relu_5x5
I0403 19:30:30.417052  9317 net.cpp:91] Creating Layer inception_4d/relu_5x5
I0403 19:30:30.417069  9317 net.cpp:425] inception_4d/relu_5x5 <- inception_4d/5x5
I0403 19:30:30.417088  9317 net.cpp:386] inception_4d/relu_5x5 -> inception_4d/5x5 (in-place)
I0403 19:30:30.417410  9317 net.cpp:141] Setting up inception_4d/relu_5x5
I0403 19:30:30.417438  9317 net.cpp:148] Top shape: 24 64 14 14 (301056)
I0403 19:30:30.417456  9317 net.cpp:156] Memory required for data: 1135267104
I0403 19:30:30.417484  9317 layer_factory.hpp:77] Creating layer inception_4d/pool
I0403 19:30:30.417502  9317 net.cpp:91] Creating Layer inception_4d/pool
I0403 19:30:30.417520  9317 net.cpp:425] inception_4d/pool <- inception_4c/output_inception_4c/output_0_split_3
I0403 19:30:30.417539  9317 net.cpp:399] inception_4d/pool -> inception_4d/pool
I0403 19:30:30.417611  9317 net.cpp:141] Setting up inception_4d/pool
I0403 19:30:30.417636  9317 net.cpp:148] Top shape: 24 512 14 14 (2408448)
I0403 19:30:30.417652  9317 net.cpp:156] Memory required for data: 1144900896
I0403 19:30:30.417667  9317 layer_factory.hpp:77] Creating layer inception_4d/pool_proj
I0403 19:30:30.417691  9317 net.cpp:91] Creating Layer inception_4d/pool_proj
I0403 19:30:30.417711  9317 net.cpp:425] inception_4d/pool_proj <- inception_4d/pool
I0403 19:30:30.417732  9317 net.cpp:399] inception_4d/pool_proj -> inception_4d/pool_proj
I0403 19:30:30.419598  9317 net.cpp:141] Setting up inception_4d/pool_proj
I0403 19:30:30.419627  9317 net.cpp:148] Top shape: 24 64 14 14 (301056)
I0403 19:30:30.419643  9317 net.cpp:156] Memory required for data: 1146105120
I0403 19:30:30.419662  9317 layer_factory.hpp:77] Creating layer inception_4d/relu_pool_proj
I0403 19:30:30.419683  9317 net.cpp:91] Creating Layer inception_4d/relu_pool_proj
I0403 19:30:30.419702  9317 net.cpp:425] inception_4d/relu_pool_proj <- inception_4d/pool_proj
I0403 19:30:30.419719  9317 net.cpp:386] inception_4d/relu_pool_proj -> inception_4d/pool_proj (in-place)
I0403 19:30:30.419909  9317 net.cpp:141] Setting up inception_4d/relu_pool_proj
I0403 19:30:30.419934  9317 net.cpp:148] Top shape: 24 64 14 14 (301056)
I0403 19:30:30.419950  9317 net.cpp:156] Memory required for data: 1147309344
I0403 19:30:30.419965  9317 layer_factory.hpp:77] Creating layer inception_4d/output
I0403 19:30:30.419986  9317 net.cpp:91] Creating Layer inception_4d/output
I0403 19:30:30.420003  9317 net.cpp:425] inception_4d/output <- inception_4d/1x1
I0403 19:30:30.420020  9317 net.cpp:425] inception_4d/output <- inception_4d/3x3
I0403 19:30:30.420037  9317 net.cpp:425] inception_4d/output <- inception_4d/5x5
I0403 19:30:30.420053  9317 net.cpp:425] inception_4d/output <- inception_4d/pool_proj
I0403 19:30:30.420071  9317 net.cpp:399] inception_4d/output -> inception_4d/output
I0403 19:30:30.420122  9317 net.cpp:141] Setting up inception_4d/output
I0403 19:30:30.420146  9317 net.cpp:148] Top shape: 24 528 14 14 (2483712)
I0403 19:30:30.420161  9317 net.cpp:156] Memory required for data: 1157244192
I0403 19:30:30.420186  9317 layer_factory.hpp:77] Creating layer inception_4d/output_inception_4d/output_0_split
I0403 19:30:30.420205  9317 net.cpp:91] Creating Layer inception_4d/output_inception_4d/output_0_split
I0403 19:30:30.420222  9317 net.cpp:425] inception_4d/output_inception_4d/output_0_split <- inception_4d/output
I0403 19:30:30.420243  9317 net.cpp:399] inception_4d/output_inception_4d/output_0_split -> inception_4d/output_inception_4d/output_0_split_0
I0403 19:30:30.420265  9317 net.cpp:399] inception_4d/output_inception_4d/output_0_split -> inception_4d/output_inception_4d/output_0_split_1
I0403 19:30:30.420289  9317 net.cpp:399] inception_4d/output_inception_4d/output_0_split -> inception_4d/output_inception_4d/output_0_split_2
I0403 19:30:30.420310  9317 net.cpp:399] inception_4d/output_inception_4d/output_0_split -> inception_4d/output_inception_4d/output_0_split_3
I0403 19:30:30.420331  9317 net.cpp:399] inception_4d/output_inception_4d/output_0_split -> inception_4d/output_inception_4d/output_0_split_4
I0403 19:30:30.420454  9317 net.cpp:141] Setting up inception_4d/output_inception_4d/output_0_split
I0403 19:30:30.420491  9317 net.cpp:148] Top shape: 24 528 14 14 (2483712)
I0403 19:30:30.420508  9317 net.cpp:148] Top shape: 24 528 14 14 (2483712)
I0403 19:30:30.420526  9317 net.cpp:148] Top shape: 24 528 14 14 (2483712)
I0403 19:30:30.420542  9317 net.cpp:148] Top shape: 24 528 14 14 (2483712)
I0403 19:30:30.420557  9317 net.cpp:148] Top shape: 24 528 14 14 (2483712)
I0403 19:30:30.420572  9317 net.cpp:156] Memory required for data: 1206918432
I0403 19:30:30.420586  9317 layer_factory.hpp:77] Creating layer loss2/ave_pool
I0403 19:30:30.420605  9317 net.cpp:91] Creating Layer loss2/ave_pool
I0403 19:30:30.420621  9317 net.cpp:425] loss2/ave_pool <- inception_4d/output_inception_4d/output_0_split_0
I0403 19:30:30.420644  9317 net.cpp:399] loss2/ave_pool -> loss2/ave_pool
I0403 19:30:30.420966  9317 net.cpp:141] Setting up loss2/ave_pool
I0403 19:30:30.420994  9317 net.cpp:148] Top shape: 24 528 4 4 (202752)
I0403 19:30:30.421008  9317 net.cpp:156] Memory required for data: 1207729440
I0403 19:30:30.421023  9317 layer_factory.hpp:77] Creating layer loss2/conv
I0403 19:30:30.421047  9317 net.cpp:91] Creating Layer loss2/conv
I0403 19:30:30.421066  9317 net.cpp:425] loss2/conv <- loss2/ave_pool
I0403 19:30:30.421087  9317 net.cpp:399] loss2/conv -> loss2/conv
I0403 19:30:30.423069  9317 net.cpp:141] Setting up loss2/conv
I0403 19:30:30.423099  9317 net.cpp:148] Top shape: 24 128 4 4 (49152)
I0403 19:30:30.423115  9317 net.cpp:156] Memory required for data: 1207926048
I0403 19:30:30.423133  9317 layer_factory.hpp:77] Creating layer loss2/relu_conv
I0403 19:30:30.423156  9317 net.cpp:91] Creating Layer loss2/relu_conv
I0403 19:30:30.423172  9317 net.cpp:425] loss2/relu_conv <- loss2/conv
I0403 19:30:30.423198  9317 net.cpp:386] loss2/relu_conv -> loss2/conv (in-place)
I0403 19:30:30.423509  9317 net.cpp:141] Setting up loss2/relu_conv
I0403 19:30:30.423537  9317 net.cpp:148] Top shape: 24 128 4 4 (49152)
I0403 19:30:30.423552  9317 net.cpp:156] Memory required for data: 1208122656
I0403 19:30:30.423569  9317 layer_factory.hpp:77] Creating layer loss2/fc
I0403 19:30:30.423599  9317 net.cpp:91] Creating Layer loss2/fc
I0403 19:30:30.423619  9317 net.cpp:425] loss2/fc <- loss2/conv
I0403 19:30:30.423641  9317 net.cpp:399] loss2/fc -> loss2/fc
I0403 19:30:30.442534  9317 net.cpp:141] Setting up loss2/fc
I0403 19:30:30.442579  9317 net.cpp:148] Top shape: 24 1024 (24576)
I0403 19:30:30.442597  9317 net.cpp:156] Memory required for data: 1208220960
I0403 19:30:30.442618  9317 layer_factory.hpp:77] Creating layer loss2/relu_fc
I0403 19:30:30.442637  9317 net.cpp:91] Creating Layer loss2/relu_fc
I0403 19:30:30.442656  9317 net.cpp:425] loss2/relu_fc <- loss2/fc
I0403 19:30:30.442677  9317 net.cpp:386] loss2/relu_fc -> loss2/fc (in-place)
I0403 19:30:30.443039  9317 net.cpp:141] Setting up loss2/relu_fc
I0403 19:30:30.443066  9317 net.cpp:148] Top shape: 24 1024 (24576)
I0403 19:30:30.443081  9317 net.cpp:156] Memory required for data: 1208319264
I0403 19:30:30.443096  9317 layer_factory.hpp:77] Creating layer loss2/drop_fc
I0403 19:30:30.443114  9317 net.cpp:91] Creating Layer loss2/drop_fc
I0403 19:30:30.443130  9317 net.cpp:425] loss2/drop_fc <- loss2/fc
I0403 19:30:30.443150  9317 net.cpp:386] loss2/drop_fc -> loss2/fc (in-place)
I0403 19:30:30.443210  9317 net.cpp:141] Setting up loss2/drop_fc
I0403 19:30:30.443233  9317 net.cpp:148] Top shape: 24 1024 (24576)
I0403 19:30:30.443248  9317 net.cpp:156] Memory required for data: 1208417568
I0403 19:30:30.443262  9317 layer_factory.hpp:77] Creating layer loss2/classifier_plantvillage
I0403 19:30:30.443281  9317 net.cpp:91] Creating Layer loss2/classifier_plantvillage
I0403 19:30:30.443297  9317 net.cpp:425] loss2/classifier_plantvillage <- loss2/fc
I0403 19:30:30.443320  9317 net.cpp:399] loss2/classifier_plantvillage -> loss2/classifier_plantvillage
I0403 19:30:30.443730  9317 net.cpp:141] Setting up loss2/classifier_plantvillage
I0403 19:30:30.443756  9317 net.cpp:148] Top shape: 24 38 (912)
I0403 19:30:30.443791  9317 net.cpp:156] Memory required for data: 1208421216
I0403 19:30:30.443810  9317 layer_factory.hpp:77] Creating layer loss2/classifier_plantvillage_loss2/classifier_plantvillage_0_split
I0403 19:30:30.443830  9317 net.cpp:91] Creating Layer loss2/classifier_plantvillage_loss2/classifier_plantvillage_0_split
I0403 19:30:30.443847  9317 net.cpp:425] loss2/classifier_plantvillage_loss2/classifier_plantvillage_0_split <- loss2/classifier_plantvillage
I0403 19:30:30.443866  9317 net.cpp:399] loss2/classifier_plantvillage_loss2/classifier_plantvillage_0_split -> loss2/classifier_plantvillage_loss2/classifier_plantvillage_0_split_0
I0403 19:30:30.443888  9317 net.cpp:399] loss2/classifier_plantvillage_loss2/classifier_plantvillage_0_split -> loss2/classifier_plantvillage_loss2/classifier_plantvillage_0_split_1
I0403 19:30:30.443909  9317 net.cpp:399] loss2/classifier_plantvillage_loss2/classifier_plantvillage_0_split -> loss2/classifier_plantvillage_loss2/classifier_plantvillage_0_split_2
I0403 19:30:30.443987  9317 net.cpp:141] Setting up loss2/classifier_plantvillage_loss2/classifier_plantvillage_0_split
I0403 19:30:30.444010  9317 net.cpp:148] Top shape: 24 38 (912)
I0403 19:30:30.444026  9317 net.cpp:148] Top shape: 24 38 (912)
I0403 19:30:30.444041  9317 net.cpp:148] Top shape: 24 38 (912)
I0403 19:30:30.444056  9317 net.cpp:156] Memory required for data: 1208432160
I0403 19:30:30.444070  9317 layer_factory.hpp:77] Creating layer inception_4e/1x1
I0403 19:30:30.444092  9317 net.cpp:91] Creating Layer inception_4e/1x1
I0403 19:30:30.444110  9317 net.cpp:425] inception_4e/1x1 <- inception_4d/output_inception_4d/output_0_split_1
I0403 19:30:30.444129  9317 net.cpp:399] inception_4e/1x1 -> inception_4e/1x1
I0403 19:30:30.446009  9317 net.cpp:141] Setting up inception_4e/1x1
I0403 19:30:30.446040  9317 net.cpp:148] Top shape: 24 256 14 14 (1204224)
I0403 19:30:30.446056  9317 net.cpp:156] Memory required for data: 1213249056
I0403 19:30:30.446075  9317 layer_factory.hpp:77] Creating layer inception_4e/relu_1x1
I0403 19:30:30.446094  9317 net.cpp:91] Creating Layer inception_4e/relu_1x1
I0403 19:30:30.446110  9317 net.cpp:425] inception_4e/relu_1x1 <- inception_4e/1x1
I0403 19:30:30.446130  9317 net.cpp:386] inception_4e/relu_1x1 -> inception_4e/1x1 (in-place)
I0403 19:30:30.446434  9317 net.cpp:141] Setting up inception_4e/relu_1x1
I0403 19:30:30.446462  9317 net.cpp:148] Top shape: 24 256 14 14 (1204224)
I0403 19:30:30.446478  9317 net.cpp:156] Memory required for data: 1218065952
I0403 19:30:30.446494  9317 layer_factory.hpp:77] Creating layer inception_4e/3x3_reduce
I0403 19:30:30.446516  9317 net.cpp:91] Creating Layer inception_4e/3x3_reduce
I0403 19:30:30.446534  9317 net.cpp:425] inception_4e/3x3_reduce <- inception_4d/output_inception_4d/output_0_split_2
I0403 19:30:30.446554  9317 net.cpp:399] inception_4e/3x3_reduce -> inception_4e/3x3_reduce
I0403 19:30:30.448707  9317 net.cpp:141] Setting up inception_4e/3x3_reduce
I0403 19:30:30.448735  9317 net.cpp:148] Top shape: 24 160 14 14 (752640)
I0403 19:30:30.448750  9317 net.cpp:156] Memory required for data: 1221076512
I0403 19:30:30.448768  9317 layer_factory.hpp:77] Creating layer inception_4e/relu_3x3_reduce
I0403 19:30:30.448789  9317 net.cpp:91] Creating Layer inception_4e/relu_3x3_reduce
I0403 19:30:30.448807  9317 net.cpp:425] inception_4e/relu_3x3_reduce <- inception_4e/3x3_reduce
I0403 19:30:30.448824  9317 net.cpp:386] inception_4e/relu_3x3_reduce -> inception_4e/3x3_reduce (in-place)
I0403 19:30:30.449012  9317 net.cpp:141] Setting up inception_4e/relu_3x3_reduce
I0403 19:30:30.449040  9317 net.cpp:148] Top shape: 24 160 14 14 (752640)
I0403 19:30:30.449055  9317 net.cpp:156] Memory required for data: 1224087072
I0403 19:30:30.449070  9317 layer_factory.hpp:77] Creating layer inception_4e/3x3
I0403 19:30:30.449092  9317 net.cpp:91] Creating Layer inception_4e/3x3
I0403 19:30:30.449110  9317 net.cpp:425] inception_4e/3x3 <- inception_4e/3x3_reduce
I0403 19:30:30.449128  9317 net.cpp:399] inception_4e/3x3 -> inception_4e/3x3
I0403 19:30:30.454260  9317 net.cpp:141] Setting up inception_4e/3x3
I0403 19:30:30.454305  9317 net.cpp:148] Top shape: 24 320 14 14 (1505280)
I0403 19:30:30.454322  9317 net.cpp:156] Memory required for data: 1230108192
I0403 19:30:30.454342  9317 layer_factory.hpp:77] Creating layer inception_4e/relu_3x3
I0403 19:30:30.454361  9317 net.cpp:91] Creating Layer inception_4e/relu_3x3
I0403 19:30:30.454390  9317 net.cpp:425] inception_4e/relu_3x3 <- inception_4e/3x3
I0403 19:30:30.454409  9317 net.cpp:386] inception_4e/relu_3x3 -> inception_4e/3x3 (in-place)
I0403 19:30:30.454715  9317 net.cpp:141] Setting up inception_4e/relu_3x3
I0403 19:30:30.454741  9317 net.cpp:148] Top shape: 24 320 14 14 (1505280)
I0403 19:30:30.454756  9317 net.cpp:156] Memory required for data: 1236129312
I0403 19:30:30.454771  9317 layer_factory.hpp:77] Creating layer inception_4e/5x5_reduce
I0403 19:30:30.454795  9317 net.cpp:91] Creating Layer inception_4e/5x5_reduce
I0403 19:30:30.454813  9317 net.cpp:425] inception_4e/5x5_reduce <- inception_4d/output_inception_4d/output_0_split_3
I0403 19:30:30.454835  9317 net.cpp:399] inception_4e/5x5_reduce -> inception_4e/5x5_reduce
I0403 19:30:30.455922  9317 net.cpp:141] Setting up inception_4e/5x5_reduce
I0403 19:30:30.455950  9317 net.cpp:148] Top shape: 24 32 14 14 (150528)
I0403 19:30:30.455965  9317 net.cpp:156] Memory required for data: 1236731424
I0403 19:30:30.455984  9317 layer_factory.hpp:77] Creating layer inception_4e/relu_5x5_reduce
I0403 19:30:30.456007  9317 net.cpp:91] Creating Layer inception_4e/relu_5x5_reduce
I0403 19:30:30.456022  9317 net.cpp:425] inception_4e/relu_5x5_reduce <- inception_4e/5x5_reduce
I0403 19:30:30.456040  9317 net.cpp:386] inception_4e/relu_5x5_reduce -> inception_4e/5x5_reduce (in-place)
I0403 19:30:30.456349  9317 net.cpp:141] Setting up inception_4e/relu_5x5_reduce
I0403 19:30:30.456377  9317 net.cpp:148] Top shape: 24 32 14 14 (150528)
I0403 19:30:30.456395  9317 net.cpp:156] Memory required for data: 1237333536
I0403 19:30:30.456421  9317 layer_factory.hpp:77] Creating layer inception_4e/5x5
I0403 19:30:30.456477  9317 net.cpp:91] Creating Layer inception_4e/5x5
I0403 19:30:30.456498  9317 net.cpp:425] inception_4e/5x5 <- inception_4e/5x5_reduce
I0403 19:30:30.456519  9317 net.cpp:399] inception_4e/5x5 -> inception_4e/5x5
I0403 19:30:30.458379  9317 net.cpp:141] Setting up inception_4e/5x5
I0403 19:30:30.458406  9317 net.cpp:148] Top shape: 24 128 14 14 (602112)
I0403 19:30:30.458423  9317 net.cpp:156] Memory required for data: 1239741984
I0403 19:30:30.458442  9317 layer_factory.hpp:77] Creating layer inception_4e/relu_5x5
I0403 19:30:30.458463  9317 net.cpp:91] Creating Layer inception_4e/relu_5x5
I0403 19:30:30.458482  9317 net.cpp:425] inception_4e/relu_5x5 <- inception_4e/5x5
I0403 19:30:30.458500  9317 net.cpp:386] inception_4e/relu_5x5 -> inception_4e/5x5 (in-place)
I0403 19:30:30.458700  9317 net.cpp:141] Setting up inception_4e/relu_5x5
I0403 19:30:30.458726  9317 net.cpp:148] Top shape: 24 128 14 14 (602112)
I0403 19:30:30.458742  9317 net.cpp:156] Memory required for data: 1242150432
I0403 19:30:30.458758  9317 layer_factory.hpp:77] Creating layer inception_4e/pool
I0403 19:30:30.458780  9317 net.cpp:91] Creating Layer inception_4e/pool
I0403 19:30:30.458797  9317 net.cpp:425] inception_4e/pool <- inception_4d/output_inception_4d/output_0_split_4
I0403 19:30:30.458817  9317 net.cpp:399] inception_4e/pool -> inception_4e/pool
I0403 19:30:30.458887  9317 net.cpp:141] Setting up inception_4e/pool
I0403 19:30:30.458912  9317 net.cpp:148] Top shape: 24 528 14 14 (2483712)
I0403 19:30:30.458927  9317 net.cpp:156] Memory required for data: 1252085280
I0403 19:30:30.458942  9317 layer_factory.hpp:77] Creating layer inception_4e/pool_proj
I0403 19:30:30.458964  9317 net.cpp:91] Creating Layer inception_4e/pool_proj
I0403 19:30:30.458982  9317 net.cpp:425] inception_4e/pool_proj <- inception_4e/pool
I0403 19:30:30.459003  9317 net.cpp:399] inception_4e/pool_proj -> inception_4e/pool_proj
I0403 19:30:30.460520  9317 net.cpp:141] Setting up inception_4e/pool_proj
I0403 19:30:30.460559  9317 net.cpp:148] Top shape: 24 128 14 14 (602112)
I0403 19:30:30.460575  9317 net.cpp:156] Memory required for data: 1254493728
I0403 19:30:30.460599  9317 layer_factory.hpp:77] Creating layer inception_4e/relu_pool_proj
I0403 19:30:30.460620  9317 net.cpp:91] Creating Layer inception_4e/relu_pool_proj
I0403 19:30:30.460638  9317 net.cpp:425] inception_4e/relu_pool_proj <- inception_4e/pool_proj
I0403 19:30:30.460654  9317 net.cpp:386] inception_4e/relu_pool_proj -> inception_4e/pool_proj (in-place)
I0403 19:30:30.460948  9317 net.cpp:141] Setting up inception_4e/relu_pool_proj
I0403 19:30:30.460974  9317 net.cpp:148] Top shape: 24 128 14 14 (602112)
I0403 19:30:30.460989  9317 net.cpp:156] Memory required for data: 1256902176
I0403 19:30:30.461004  9317 layer_factory.hpp:77] Creating layer inception_4e/output
I0403 19:30:30.461022  9317 net.cpp:91] Creating Layer inception_4e/output
I0403 19:30:30.461037  9317 net.cpp:425] inception_4e/output <- inception_4e/1x1
I0403 19:30:30.461055  9317 net.cpp:425] inception_4e/output <- inception_4e/3x3
I0403 19:30:30.461069  9317 net.cpp:425] inception_4e/output <- inception_4e/5x5
I0403 19:30:30.461086  9317 net.cpp:425] inception_4e/output <- inception_4e/pool_proj
I0403 19:30:30.461105  9317 net.cpp:399] inception_4e/output -> inception_4e/output
I0403 19:30:30.461155  9317 net.cpp:141] Setting up inception_4e/output
I0403 19:30:30.461187  9317 net.cpp:148] Top shape: 24 832 14 14 (3913728)
I0403 19:30:30.461205  9317 net.cpp:156] Memory required for data: 1272557088
I0403 19:30:30.461220  9317 layer_factory.hpp:77] Creating layer pool4/3x3_s2
I0403 19:30:30.461236  9317 net.cpp:91] Creating Layer pool4/3x3_s2
I0403 19:30:30.461252  9317 net.cpp:425] pool4/3x3_s2 <- inception_4e/output
I0403 19:30:30.461273  9317 net.cpp:399] pool4/3x3_s2 -> pool4/3x3_s2
I0403 19:30:30.461340  9317 net.cpp:141] Setting up pool4/3x3_s2
I0403 19:30:30.461364  9317 net.cpp:148] Top shape: 24 832 7 7 (978432)
I0403 19:30:30.461377  9317 net.cpp:156] Memory required for data: 1276470816
I0403 19:30:30.461392  9317 layer_factory.hpp:77] Creating layer pool4/3x3_s2_pool4/3x3_s2_0_split
I0403 19:30:30.461412  9317 net.cpp:91] Creating Layer pool4/3x3_s2_pool4/3x3_s2_0_split
I0403 19:30:30.461429  9317 net.cpp:425] pool4/3x3_s2_pool4/3x3_s2_0_split <- pool4/3x3_s2
I0403 19:30:30.461447  9317 net.cpp:399] pool4/3x3_s2_pool4/3x3_s2_0_split -> pool4/3x3_s2_pool4/3x3_s2_0_split_0
I0403 19:30:30.461467  9317 net.cpp:399] pool4/3x3_s2_pool4/3x3_s2_0_split -> pool4/3x3_s2_pool4/3x3_s2_0_split_1
I0403 19:30:30.461488  9317 net.cpp:399] pool4/3x3_s2_pool4/3x3_s2_0_split -> pool4/3x3_s2_pool4/3x3_s2_0_split_2
I0403 19:30:30.461509  9317 net.cpp:399] pool4/3x3_s2_pool4/3x3_s2_0_split -> pool4/3x3_s2_pool4/3x3_s2_0_split_3
I0403 19:30:30.461602  9317 net.cpp:141] Setting up pool4/3x3_s2_pool4/3x3_s2_0_split
I0403 19:30:30.461626  9317 net.cpp:148] Top shape: 24 832 7 7 (978432)
I0403 19:30:30.461642  9317 net.cpp:148] Top shape: 24 832 7 7 (978432)
I0403 19:30:30.461658  9317 net.cpp:148] Top shape: 24 832 7 7 (978432)
I0403 19:30:30.461673  9317 net.cpp:148] Top shape: 24 832 7 7 (978432)
I0403 19:30:30.461686  9317 net.cpp:156] Memory required for data: 1292125728
I0403 19:30:30.461700  9317 layer_factory.hpp:77] Creating layer inception_5a/1x1
I0403 19:30:30.461724  9317 net.cpp:91] Creating Layer inception_5a/1x1
I0403 19:30:30.461740  9317 net.cpp:425] inception_5a/1x1 <- pool4/3x3_s2_pool4/3x3_s2_0_split_0
I0403 19:30:30.461761  9317 net.cpp:399] inception_5a/1x1 -> inception_5a/1x1
I0403 19:30:30.464648  9317 net.cpp:141] Setting up inception_5a/1x1
I0403 19:30:30.464679  9317 net.cpp:148] Top shape: 24 256 7 7 (301056)
I0403 19:30:30.464694  9317 net.cpp:156] Memory required for data: 1293329952
I0403 19:30:30.464712  9317 layer_factory.hpp:77] Creating layer inception_5a/relu_1x1
I0403 19:30:30.464732  9317 net.cpp:91] Creating Layer inception_5a/relu_1x1
I0403 19:30:30.464750  9317 net.cpp:425] inception_5a/relu_1x1 <- inception_5a/1x1
I0403 19:30:30.464768  9317 net.cpp:386] inception_5a/relu_1x1 -> inception_5a/1x1 (in-place)
I0403 19:30:30.465085  9317 net.cpp:141] Setting up inception_5a/relu_1x1
I0403 19:30:30.465111  9317 net.cpp:148] Top shape: 24 256 7 7 (301056)
I0403 19:30:30.465126  9317 net.cpp:156] Memory required for data: 1294534176
I0403 19:30:30.465140  9317 layer_factory.hpp:77] Creating layer inception_5a/3x3_reduce
I0403 19:30:30.465163  9317 net.cpp:91] Creating Layer inception_5a/3x3_reduce
I0403 19:30:30.465188  9317 net.cpp:425] inception_5a/3x3_reduce <- pool4/3x3_s2_pool4/3x3_s2_0_split_1
I0403 19:30:30.465212  9317 net.cpp:399] inception_5a/3x3_reduce -> inception_5a/3x3_reduce
I0403 19:30:30.467725  9317 net.cpp:141] Setting up inception_5a/3x3_reduce
I0403 19:30:30.467757  9317 net.cpp:148] Top shape: 24 160 7 7 (188160)
I0403 19:30:30.467773  9317 net.cpp:156] Memory required for data: 1295286816
I0403 19:30:30.467792  9317 layer_factory.hpp:77] Creating layer inception_5a/relu_3x3_reduce
I0403 19:30:30.467811  9317 net.cpp:91] Creating Layer inception_5a/relu_3x3_reduce
I0403 19:30:30.467828  9317 net.cpp:425] inception_5a/relu_3x3_reduce <- inception_5a/3x3_reduce
I0403 19:30:30.467847  9317 net.cpp:386] inception_5a/relu_3x3_reduce -> inception_5a/3x3_reduce (in-place)
I0403 19:30:30.468036  9317 net.cpp:141] Setting up inception_5a/relu_3x3_reduce
I0403 19:30:30.468061  9317 net.cpp:148] Top shape: 24 160 7 7 (188160)
I0403 19:30:30.468075  9317 net.cpp:156] Memory required for data: 1296039456
I0403 19:30:30.468091  9317 layer_factory.hpp:77] Creating layer inception_5a/3x3
I0403 19:30:30.468116  9317 net.cpp:91] Creating Layer inception_5a/3x3
I0403 19:30:30.468133  9317 net.cpp:425] inception_5a/3x3 <- inception_5a/3x3_reduce
I0403 19:30:30.468155  9317 net.cpp:399] inception_5a/3x3 -> inception_5a/3x3
I0403 19:30:30.473321  9317 net.cpp:141] Setting up inception_5a/3x3
I0403 19:30:30.473352  9317 net.cpp:148] Top shape: 24 320 7 7 (376320)
I0403 19:30:30.473369  9317 net.cpp:156] Memory required for data: 1297544736
I0403 19:30:30.473388  9317 layer_factory.hpp:77] Creating layer inception_5a/relu_3x3
I0403 19:30:30.473410  9317 net.cpp:91] Creating Layer inception_5a/relu_3x3
I0403 19:30:30.473428  9317 net.cpp:425] inception_5a/relu_3x3 <- inception_5a/3x3
I0403 19:30:30.473445  9317 net.cpp:386] inception_5a/relu_3x3 -> inception_5a/3x3 (in-place)
I0403 19:30:30.473784  9317 net.cpp:141] Setting up inception_5a/relu_3x3
I0403 19:30:30.473811  9317 net.cpp:148] Top shape: 24 320 7 7 (376320)
I0403 19:30:30.473827  9317 net.cpp:156] Memory required for data: 1299050016
I0403 19:30:30.473842  9317 layer_factory.hpp:77] Creating layer inception_5a/5x5_reduce
I0403 19:30:30.473865  9317 net.cpp:91] Creating Layer inception_5a/5x5_reduce
I0403 19:30:30.473884  9317 net.cpp:425] inception_5a/5x5_reduce <- pool4/3x3_s2_pool4/3x3_s2_0_split_2
I0403 19:30:30.473909  9317 net.cpp:399] inception_5a/5x5_reduce -> inception_5a/5x5_reduce
I0403 19:30:30.475162  9317 net.cpp:141] Setting up inception_5a/5x5_reduce
I0403 19:30:30.475198  9317 net.cpp:148] Top shape: 24 32 7 7 (37632)
I0403 19:30:30.475215  9317 net.cpp:156] Memory required for data: 1299200544
I0403 19:30:30.475234  9317 layer_factory.hpp:77] Creating layer inception_5a/relu_5x5_reduce
I0403 19:30:30.475255  9317 net.cpp:91] Creating Layer inception_5a/relu_5x5_reduce
I0403 19:30:30.475272  9317 net.cpp:425] inception_5a/relu_5x5_reduce <- inception_5a/5x5_reduce
I0403 19:30:30.475291  9317 net.cpp:386] inception_5a/relu_5x5_reduce -> inception_5a/5x5_reduce (in-place)
I0403 19:30:30.475601  9317 net.cpp:141] Setting up inception_5a/relu_5x5_reduce
I0403 19:30:30.475627  9317 net.cpp:148] Top shape: 24 32 7 7 (37632)
I0403 19:30:30.475643  9317 net.cpp:156] Memory required for data: 1299351072
I0403 19:30:30.475659  9317 layer_factory.hpp:77] Creating layer inception_5a/5x5
I0403 19:30:30.475685  9317 net.cpp:91] Creating Layer inception_5a/5x5
I0403 19:30:30.475703  9317 net.cpp:425] inception_5a/5x5 <- inception_5a/5x5_reduce
I0403 19:30:30.475723  9317 net.cpp:399] inception_5a/5x5 -> inception_5a/5x5
I0403 19:30:30.477532  9317 net.cpp:141] Setting up inception_5a/5x5
I0403 19:30:30.477574  9317 net.cpp:148] Top shape: 24 128 7 7 (150528)
I0403 19:30:30.477591  9317 net.cpp:156] Memory required for data: 1299953184
I0403 19:30:30.477612  9317 layer_factory.hpp:77] Creating layer inception_5a/relu_5x5
I0403 19:30:30.477632  9317 net.cpp:91] Creating Layer inception_5a/relu_5x5
I0403 19:30:30.477651  9317 net.cpp:425] inception_5a/relu_5x5 <- inception_5a/5x5
I0403 19:30:30.477670  9317 net.cpp:386] inception_5a/relu_5x5 -> inception_5a/5x5 (in-place)
I0403 19:30:30.477885  9317 net.cpp:141] Setting up inception_5a/relu_5x5
I0403 19:30:30.477911  9317 net.cpp:148] Top shape: 24 128 7 7 (150528)
I0403 19:30:30.477926  9317 net.cpp:156] Memory required for data: 1300555296
I0403 19:30:30.477941  9317 layer_factory.hpp:77] Creating layer inception_5a/pool
I0403 19:30:30.477962  9317 net.cpp:91] Creating Layer inception_5a/pool
I0403 19:30:30.477978  9317 net.cpp:425] inception_5a/pool <- pool4/3x3_s2_pool4/3x3_s2_0_split_3
I0403 19:30:30.478000  9317 net.cpp:399] inception_5a/pool -> inception_5a/pool
I0403 19:30:30.478076  9317 net.cpp:141] Setting up inception_5a/pool
I0403 19:30:30.478101  9317 net.cpp:148] Top shape: 24 832 7 7 (978432)
I0403 19:30:30.478116  9317 net.cpp:156] Memory required for data: 1304469024
I0403 19:30:30.478132  9317 layer_factory.hpp:77] Creating layer inception_5a/pool_proj
I0403 19:30:30.478154  9317 net.cpp:91] Creating Layer inception_5a/pool_proj
I0403 19:30:30.478173  9317 net.cpp:425] inception_5a/pool_proj <- inception_5a/pool
I0403 19:30:30.478202  9317 net.cpp:399] inception_5a/pool_proj -> inception_5a/pool_proj
I0403 19:30:30.480590  9317 net.cpp:141] Setting up inception_5a/pool_proj
I0403 19:30:30.480622  9317 net.cpp:148] Top shape: 24 128 7 7 (150528)
I0403 19:30:30.480638  9317 net.cpp:156] Memory required for data: 1305071136
I0403 19:30:30.480656  9317 layer_factory.hpp:77] Creating layer inception_5a/relu_pool_proj
I0403 19:30:30.480675  9317 net.cpp:91] Creating Layer inception_5a/relu_pool_proj
I0403 19:30:30.480691  9317 net.cpp:425] inception_5a/relu_pool_proj <- inception_5a/pool_proj
I0403 19:30:30.480711  9317 net.cpp:386] inception_5a/relu_pool_proj -> inception_5a/pool_proj (in-place)
I0403 19:30:30.481016  9317 net.cpp:141] Setting up inception_5a/relu_pool_proj
I0403 19:30:30.481043  9317 net.cpp:148] Top shape: 24 128 7 7 (150528)
I0403 19:30:30.481058  9317 net.cpp:156] Memory required for data: 1305673248
I0403 19:30:30.481075  9317 layer_factory.hpp:77] Creating layer inception_5a/output
I0403 19:30:30.481092  9317 net.cpp:91] Creating Layer inception_5a/output
I0403 19:30:30.481108  9317 net.cpp:425] inception_5a/output <- inception_5a/1x1
I0403 19:30:30.481125  9317 net.cpp:425] inception_5a/output <- inception_5a/3x3
I0403 19:30:30.481142  9317 net.cpp:425] inception_5a/output <- inception_5a/5x5
I0403 19:30:30.481158  9317 net.cpp:425] inception_5a/output <- inception_5a/pool_proj
I0403 19:30:30.481185  9317 net.cpp:399] inception_5a/output -> inception_5a/output
I0403 19:30:30.481240  9317 net.cpp:141] Setting up inception_5a/output
I0403 19:30:30.481266  9317 net.cpp:148] Top shape: 24 832 7 7 (978432)
I0403 19:30:30.481282  9317 net.cpp:156] Memory required for data: 1309586976
I0403 19:30:30.481298  9317 layer_factory.hpp:77] Creating layer inception_5a/output_inception_5a/output_0_split
I0403 19:30:30.481315  9317 net.cpp:91] Creating Layer inception_5a/output_inception_5a/output_0_split
I0403 19:30:30.481331  9317 net.cpp:425] inception_5a/output_inception_5a/output_0_split <- inception_5a/output
I0403 19:30:30.481349  9317 net.cpp:399] inception_5a/output_inception_5a/output_0_split -> inception_5a/output_inception_5a/output_0_split_0
I0403 19:30:30.481371  9317 net.cpp:399] inception_5a/output_inception_5a/output_0_split -> inception_5a/output_inception_5a/output_0_split_1
I0403 19:30:30.481394  9317 net.cpp:399] inception_5a/output_inception_5a/output_0_split -> inception_5a/output_inception_5a/output_0_split_2
I0403 19:30:30.481415  9317 net.cpp:399] inception_5a/output_inception_5a/output_0_split -> inception_5a/output_inception_5a/output_0_split_3
I0403 19:30:30.481549  9317 net.cpp:141] Setting up inception_5a/output_inception_5a/output_0_split
I0403 19:30:30.481573  9317 net.cpp:148] Top shape: 24 832 7 7 (978432)
I0403 19:30:30.481591  9317 net.cpp:148] Top shape: 24 832 7 7 (978432)
I0403 19:30:30.481607  9317 net.cpp:148] Top shape: 24 832 7 7 (978432)
I0403 19:30:30.481626  9317 net.cpp:148] Top shape: 24 832 7 7 (978432)
I0403 19:30:30.481640  9317 net.cpp:156] Memory required for data: 1325241888
I0403 19:30:30.481657  9317 layer_factory.hpp:77] Creating layer inception_5b/1x1
I0403 19:30:30.481681  9317 net.cpp:91] Creating Layer inception_5b/1x1
I0403 19:30:30.481700  9317 net.cpp:425] inception_5b/1x1 <- inception_5a/output_inception_5a/output_0_split_0
I0403 19:30:30.481720  9317 net.cpp:399] inception_5b/1x1 -> inception_5b/1x1
I0403 19:30:30.485796  9317 net.cpp:141] Setting up inception_5b/1x1
I0403 19:30:30.485828  9317 net.cpp:148] Top shape: 24 384 7 7 (451584)
I0403 19:30:30.485844  9317 net.cpp:156] Memory required for data: 1327048224
I0403 19:30:30.485864  9317 layer_factory.hpp:77] Creating layer inception_5b/relu_1x1
I0403 19:30:30.485883  9317 net.cpp:91] Creating Layer inception_5b/relu_1x1
I0403 19:30:30.485901  9317 net.cpp:425] inception_5b/relu_1x1 <- inception_5b/1x1
I0403 19:30:30.485923  9317 net.cpp:386] inception_5b/relu_1x1 -> inception_5b/1x1 (in-place)
I0403 19:30:30.486258  9317 net.cpp:141] Setting up inception_5b/relu_1x1
I0403 19:30:30.486286  9317 net.cpp:148] Top shape: 24 384 7 7 (451584)
I0403 19:30:30.486302  9317 net.cpp:156] Memory required for data: 1328854560
I0403 19:30:30.486318  9317 layer_factory.hpp:77] Creating layer inception_5b/3x3_reduce
I0403 19:30:30.486342  9317 net.cpp:91] Creating Layer inception_5b/3x3_reduce
I0403 19:30:30.486362  9317 net.cpp:425] inception_5b/3x3_reduce <- inception_5a/output_inception_5a/output_0_split_1
I0403 19:30:30.486387  9317 net.cpp:399] inception_5b/3x3_reduce -> inception_5b/3x3_reduce
I0403 19:30:30.489238  9317 net.cpp:141] Setting up inception_5b/3x3_reduce
I0403 19:30:30.489270  9317 net.cpp:148] Top shape: 24 192 7 7 (225792)
I0403 19:30:30.489287  9317 net.cpp:156] Memory required for data: 1329757728
I0403 19:30:30.489306  9317 layer_factory.hpp:77] Creating layer inception_5b/relu_3x3_reduce
I0403 19:30:30.489326  9317 net.cpp:91] Creating Layer inception_5b/relu_3x3_reduce
I0403 19:30:30.489343  9317 net.cpp:425] inception_5b/relu_3x3_reduce <- inception_5b/3x3_reduce
I0403 19:30:30.489364  9317 net.cpp:386] inception_5b/relu_3x3_reduce -> inception_5b/3x3_reduce (in-place)
I0403 19:30:30.489570  9317 net.cpp:141] Setting up inception_5b/relu_3x3_reduce
I0403 19:30:30.489598  9317 net.cpp:148] Top shape: 24 192 7 7 (225792)
I0403 19:30:30.489614  9317 net.cpp:156] Memory required for data: 1330660896
I0403 19:30:30.489629  9317 layer_factory.hpp:77] Creating layer inception_5b/3x3
I0403 19:30:30.489652  9317 net.cpp:91] Creating Layer inception_5b/3x3
I0403 19:30:30.489671  9317 net.cpp:425] inception_5b/3x3 <- inception_5b/3x3_reduce
I0403 19:30:30.489694  9317 net.cpp:399] inception_5b/3x3 -> inception_5b/3x3
I0403 19:30:30.496887  9317 net.cpp:141] Setting up inception_5b/3x3
I0403 19:30:30.496918  9317 net.cpp:148] Top shape: 24 384 7 7 (451584)
I0403 19:30:30.496935  9317 net.cpp:156] Memory required for data: 1332467232
I0403 19:30:30.496955  9317 layer_factory.hpp:77] Creating layer inception_5b/relu_3x3
I0403 19:30:30.496975  9317 net.cpp:91] Creating Layer inception_5b/relu_3x3
I0403 19:30:30.496992  9317 net.cpp:425] inception_5b/relu_3x3 <- inception_5b/3x3
I0403 19:30:30.497014  9317 net.cpp:386] inception_5b/relu_3x3 -> inception_5b/3x3 (in-place)
I0403 19:30:30.497339  9317 net.cpp:141] Setting up inception_5b/relu_3x3
I0403 19:30:30.497367  9317 net.cpp:148] Top shape: 24 384 7 7 (451584)
I0403 19:30:30.497382  9317 net.cpp:156] Memory required for data: 1334273568
I0403 19:30:30.497400  9317 layer_factory.hpp:77] Creating layer inception_5b/5x5_reduce
I0403 19:30:30.497442  9317 net.cpp:91] Creating Layer inception_5b/5x5_reduce
I0403 19:30:30.497462  9317 net.cpp:425] inception_5b/5x5_reduce <- inception_5a/output_inception_5a/output_0_split_2
I0403 19:30:30.497486  9317 net.cpp:399] inception_5b/5x5_reduce -> inception_5b/5x5_reduce
I0403 19:30:30.498853  9317 net.cpp:141] Setting up inception_5b/5x5_reduce
I0403 19:30:30.498883  9317 net.cpp:148] Top shape: 24 48 7 7 (56448)
I0403 19:30:30.498898  9317 net.cpp:156] Memory required for data: 1334499360
I0403 19:30:30.498919  9317 layer_factory.hpp:77] Creating layer inception_5b/relu_5x5_reduce
I0403 19:30:30.498939  9317 net.cpp:91] Creating Layer inception_5b/relu_5x5_reduce
I0403 19:30:30.498957  9317 net.cpp:425] inception_5b/relu_5x5_reduce <- inception_5b/5x5_reduce
I0403 19:30:30.498976  9317 net.cpp:386] inception_5b/relu_5x5_reduce -> inception_5b/5x5_reduce (in-place)
I0403 19:30:30.499384  9317 net.cpp:141] Setting up inception_5b/relu_5x5_reduce
I0403 19:30:30.499413  9317 net.cpp:148] Top shape: 24 48 7 7 (56448)
I0403 19:30:30.499428  9317 net.cpp:156] Memory required for data: 1334725152
I0403 19:30:30.499444  9317 layer_factory.hpp:77] Creating layer inception_5b/5x5
I0403 19:30:30.499466  9317 net.cpp:91] Creating Layer inception_5b/5x5
I0403 19:30:30.499485  9317 net.cpp:425] inception_5b/5x5 <- inception_5b/5x5_reduce
I0403 19:30:30.499505  9317 net.cpp:399] inception_5b/5x5 -> inception_5b/5x5
I0403 19:30:30.501770  9317 net.cpp:141] Setting up inception_5b/5x5
I0403 19:30:30.501798  9317 net.cpp:148] Top shape: 24 128 7 7 (150528)
I0403 19:30:30.501814  9317 net.cpp:156] Memory required for data: 1335327264
I0403 19:30:30.501833  9317 layer_factory.hpp:77] Creating layer inception_5b/relu_5x5
I0403 19:30:30.501854  9317 net.cpp:91] Creating Layer inception_5b/relu_5x5
I0403 19:30:30.501873  9317 net.cpp:425] inception_5b/relu_5x5 <- inception_5b/5x5
I0403 19:30:30.501891  9317 net.cpp:386] inception_5b/relu_5x5 -> inception_5b/5x5 (in-place)
I0403 19:30:30.502090  9317 net.cpp:141] Setting up inception_5b/relu_5x5
I0403 19:30:30.502118  9317 net.cpp:148] Top shape: 24 128 7 7 (150528)
I0403 19:30:30.502135  9317 net.cpp:156] Memory required for data: 1335929376
I0403 19:30:30.502151  9317 layer_factory.hpp:77] Creating layer inception_5b/pool
I0403 19:30:30.502168  9317 net.cpp:91] Creating Layer inception_5b/pool
I0403 19:30:30.502199  9317 net.cpp:425] inception_5b/pool <- inception_5a/output_inception_5a/output_0_split_3
I0403 19:30:30.502221  9317 net.cpp:399] inception_5b/pool -> inception_5b/pool
I0403 19:30:30.502300  9317 net.cpp:141] Setting up inception_5b/pool
I0403 19:30:30.502326  9317 net.cpp:148] Top shape: 24 832 7 7 (978432)
I0403 19:30:30.502341  9317 net.cpp:156] Memory required for data: 1339843104
I0403 19:30:30.502354  9317 layer_factory.hpp:77] Creating layer inception_5b/pool_proj
I0403 19:30:30.502380  9317 net.cpp:91] Creating Layer inception_5b/pool_proj
I0403 19:30:30.502399  9317 net.cpp:425] inception_5b/pool_proj <- inception_5b/pool
I0403 19:30:30.502423  9317 net.cpp:399] inception_5b/pool_proj -> inception_5b/pool_proj
I0403 19:30:30.504848  9317 net.cpp:141] Setting up inception_5b/pool_proj
I0403 19:30:30.504878  9317 net.cpp:148] Top shape: 24 128 7 7 (150528)
I0403 19:30:30.504894  9317 net.cpp:156] Memory required for data: 1340445216
I0403 19:30:30.504914  9317 layer_factory.hpp:77] Creating layer inception_5b/relu_pool_proj
I0403 19:30:30.504935  9317 net.cpp:91] Creating Layer inception_5b/relu_pool_proj
I0403 19:30:30.504952  9317 net.cpp:425] inception_5b/relu_pool_proj <- inception_5b/pool_proj
I0403 19:30:30.504971  9317 net.cpp:386] inception_5b/relu_pool_proj -> inception_5b/pool_proj (in-place)
I0403 19:30:30.505283  9317 net.cpp:141] Setting up inception_5b/relu_pool_proj
I0403 19:30:30.505311  9317 net.cpp:148] Top shape: 24 128 7 7 (150528)
I0403 19:30:30.505326  9317 net.cpp:156] Memory required for data: 1341047328
I0403 19:30:30.505342  9317 layer_factory.hpp:77] Creating layer inception_5b/output
I0403 19:30:30.505360  9317 net.cpp:91] Creating Layer inception_5b/output
I0403 19:30:30.505393  9317 net.cpp:425] inception_5b/output <- inception_5b/1x1
I0403 19:30:30.505411  9317 net.cpp:425] inception_5b/output <- inception_5b/3x3
I0403 19:30:30.505431  9317 net.cpp:425] inception_5b/output <- inception_5b/5x5
I0403 19:30:30.505447  9317 net.cpp:425] inception_5b/output <- inception_5b/pool_proj
I0403 19:30:30.505477  9317 net.cpp:399] inception_5b/output -> inception_5b/output
I0403 19:30:30.505533  9317 net.cpp:141] Setting up inception_5b/output
I0403 19:30:30.505561  9317 net.cpp:148] Top shape: 24 1024 7 7 (1204224)
I0403 19:30:30.505578  9317 net.cpp:156] Memory required for data: 1345864224
I0403 19:30:30.505594  9317 layer_factory.hpp:77] Creating layer pool5/7x7_s1
I0403 19:30:30.505612  9317 net.cpp:91] Creating Layer pool5/7x7_s1
I0403 19:30:30.505630  9317 net.cpp:425] pool5/7x7_s1 <- inception_5b/output
I0403 19:30:30.505652  9317 net.cpp:399] pool5/7x7_s1 -> pool5/7x7_s1
I0403 19:30:30.505895  9317 net.cpp:141] Setting up pool5/7x7_s1
I0403 19:30:30.505921  9317 net.cpp:148] Top shape: 24 1024 1 1 (24576)
I0403 19:30:30.505938  9317 net.cpp:156] Memory required for data: 1345962528
I0403 19:30:30.505952  9317 layer_factory.hpp:77] Creating layer pool5/drop_7x7_s1
I0403 19:30:30.505973  9317 net.cpp:91] Creating Layer pool5/drop_7x7_s1
I0403 19:30:30.505990  9317 net.cpp:425] pool5/drop_7x7_s1 <- pool5/7x7_s1
I0403 19:30:30.506008  9317 net.cpp:386] pool5/drop_7x7_s1 -> pool5/7x7_s1 (in-place)
I0403 19:30:30.506062  9317 net.cpp:141] Setting up pool5/drop_7x7_s1
I0403 19:30:30.506086  9317 net.cpp:148] Top shape: 24 1024 1 1 (24576)
I0403 19:30:30.506100  9317 net.cpp:156] Memory required for data: 1346060832
I0403 19:30:30.506115  9317 layer_factory.hpp:77] Creating layer loss3/classifier_plantvillage
I0403 19:30:30.506135  9317 net.cpp:91] Creating Layer loss3/classifier_plantvillage
I0403 19:30:30.506152  9317 net.cpp:425] loss3/classifier_plantvillage <- pool5/7x7_s1
I0403 19:30:30.506173  9317 net.cpp:399] loss3/classifier_plantvillage -> loss3/classifier_plantvillage
I0403 19:30:30.506644  9317 net.cpp:141] Setting up loss3/classifier_plantvillage
I0403 19:30:30.506669  9317 net.cpp:148] Top shape: 24 38 (912)
I0403 19:30:30.506685  9317 net.cpp:156] Memory required for data: 1346064480
I0403 19:30:30.506705  9317 layer_factory.hpp:77] Creating layer loss3/classifier_plantvillage_loss3/classifier_plantvillage_0_split
I0403 19:30:30.506723  9317 net.cpp:91] Creating Layer loss3/classifier_plantvillage_loss3/classifier_plantvillage_0_split
I0403 19:30:30.506741  9317 net.cpp:425] loss3/classifier_plantvillage_loss3/classifier_plantvillage_0_split <- loss3/classifier_plantvillage
I0403 19:30:30.506774  9317 net.cpp:399] loss3/classifier_plantvillage_loss3/classifier_plantvillage_0_split -> loss3/classifier_plantvillage_loss3/classifier_plantvillage_0_split_0
I0403 19:30:30.506796  9317 net.cpp:399] loss3/classifier_plantvillage_loss3/classifier_plantvillage_0_split -> loss3/classifier_plantvillage_loss3/classifier_plantvillage_0_split_1
I0403 19:30:30.506819  9317 net.cpp:399] loss3/classifier_plantvillage_loss3/classifier_plantvillage_0_split -> loss3/classifier_plantvillage_loss3/classifier_plantvillage_0_split_2
I0403 19:30:30.506839  9317 net.cpp:399] loss3/classifier_plantvillage_loss3/classifier_plantvillage_0_split -> loss3/classifier_plantvillage_loss3/classifier_plantvillage_0_split_3
I0403 19:30:30.506947  9317 net.cpp:141] Setting up loss3/classifier_plantvillage_loss3/classifier_plantvillage_0_split
I0403 19:30:30.506970  9317 net.cpp:148] Top shape: 24 38 (912)
I0403 19:30:30.506986  9317 net.cpp:148] Top shape: 24 38 (912)
I0403 19:30:30.507002  9317 net.cpp:148] Top shape: 24 38 (912)
I0403 19:30:30.507019  9317 net.cpp:148] Top shape: 24 38 (912)
I0403 19:30:30.507032  9317 net.cpp:156] Memory required for data: 1346079072
I0403 19:30:30.507046  9317 layer_factory.hpp:77] Creating layer loss1/loss
I0403 19:30:30.507072  9317 net.cpp:91] Creating Layer loss1/loss
I0403 19:30:30.507091  9317 net.cpp:425] loss1/loss <- loss1/classifier_plantvillage_loss1/classifier_plantvillage_0_split_0
I0403 19:30:30.507122  9317 net.cpp:425] loss1/loss <- label_data_1_split_0
…
