…
I0403 19:51:53.276829  9778 net.cpp:313] The NetState phase (1) differed from the phase (0) specified by a rule in layer data
I0403 19:51:53.278033  9778 net.cpp:49] Initializing net from parameters: 
state {
  phase: TEST
}
layer {
  name: "data"
  type: "Data"
  top: "data"
  top: "label"
  include {
    phase: TEST
  }
  transform_param {
    mirror: false
    crop_size: 224
    mean_file: "/home/mohanty/data/final_dataset/lmdb/grayscale-50-50/mean.binaryproto"
  }
  data_param {
    source: "/home/mohanty/data/final_dataset/lmdb/grayscale-50-50/test_db"
    batch_size: 24
    backend: LMDB
  }
}
layer {
  name: "conv1/7x7_s2"
  type: "Convolution"
  bottom: "data"
  top: "conv1/7x7_s2"
  param {
    lr_mult: 1
    decay_mult: 1
  }
  param {
    lr_mult: 2
    decay_mult: 0
  }
  convolution_param {
    num_output: 64
    pad: 3
    kernel_size: 7
    stride: 2
    weight_filler {
      type: "xavier"
      std: 0.1
    }
    bias_filler {
      type: "constant"
      value: 0.2
    }
  }
}
layer {
  name: "conv1/relu_7x7"
  type: "ReLU"
  bottom: "conv1/7x7_s2"
  top: "conv1/7x7_s2"
}
layer {
  name: "pool1/3x3_s2"
  type: "Pooling"
  bottom: "conv1/7x7_s2"
  top: "pool1/3x3_s2"
  pooling_param {
    pool: MAX
    kernel_size: 3
    stride: 2
  }
}
layer {
  name: "pool1/norm1"
  type: "LRN"
  bottom: "pool1/3x3_s2"
  top: "pool1/norm1"
  lrn_param {
    local_size: 5
    alpha: 0.0001
    beta: 0.75
  }
}
layer {
  name: "conv2/3x3_reduce"
  type: "Convolution"
  bottom: "pool1/norm1"
  top: "conv2/3x3_reduce"
  param {
    lr_mult: 1
    decay_mult: 1
  }
  param {
    lr_mult: 2
    decay_mult: 0
  }
  convolution_param {
    num_output: 64
    kernel_size: 1
    weight_filler {
      type: "xavier"
      std: 0.1
    }
    bias_filler {
      type: "constant"
      value: 0.2
    }
  }
}
layer {
  name: "conv2/relu_3x3_reduce"
  type: "ReLU"
  bottom: "conv2/3x3_reduce"
  top: "conv2/3x3_reduce"
}
layer {
  name: "conv2/3x3"
  type: "Convolution"
  bottom: "conv2/3x3_reduce"
  top: "conv2/3x3"
  param {
    lr_mult: 1
    decay_mult: 1
  }
  param {
    lr_mult: 2
    decay_mult: 0
  }
  convolution_param {
    num_output: 192
    pad: 1
    kernel_size: 3
    weight_filler {
      type: "xavier"
      std: 0.03
    }
    bias_filler {
      type: "constant"
      value: 0.2
    }
  }
}
layer {
  name: "conv2/relu_3x3"
  type: "ReLU"
  bottom: "conv2/3x3"
  top: "conv2/3x3"
}
layer {
  name: "conv2/norm2"
  type: "LRN"
  bottom: "conv2/3x3"
  top: "conv2/norm2"
  lrn_param {
    local_size: 5
    alpha: 0.0001
    beta: 0.75
  }
}
layer {
  name: "pool2/3x3_s2"
  type: "Pooling"
  bottom: "conv2/norm2"
  top: "pool2/3x3_s2"
  pooling_param {
    pool: MAX
    kernel_size: 3
    stride: 2
  }
}
layer {
  name: "inception_3a/1x1"
  type: "Convolution"
  bottom: "pool2/3x3_s2"
  top: "inception_3a/1x1"
  param {
    lr_mult: 1
    decay_mult: 1
  }
  param {
    lr_mult: 2
    decay_mult: 0
  }
  convolution_param {
    num_output: 64
    kernel_size: 1
    weight_filler {
      type: "xavier"
      std: 0.03
    }
    bias_filler {
      type: "constant"
      value: 0.2
    }
  }
}
layer {
  name: "inception_3a/relu_1x1"
  type: "ReLU"
  bottom: "inception_3a/1x1"
  top: "inception_3a/1x1"
}
layer {
  name: "inception_3a/3x3_reduce"
  type: "Convolution"
  bottom: "pool2/3x3_s2"
  top: "inception_3a/3x3_reduce"
  param {
    lr_mult: 1
    decay_mult: 1
  }
  param {
    lr_mult: 2
    decay_mult: 0
  }
  convolution_param {
    num_output: 96
    kernel_size: 1
    weight_filler {
      type: "xavier"
      std: 0.09
    }
    bias_filler {
      type: "constant"
      value: 0.2
    }
  }
}
layer {
  name: "inception_3a/relu_3x3_reduce"
  type: "ReLU"
  bottom: "inception_3a/3x3_reduce"
  top: "inception_3a/3x3_reduce"
}
layer {
  name: "inception_3a/3x3"
  type: "Convolution"
  bottom: "inception_3a/3x3_reduce"
  top: "inception_3a/3x3"
  param {
    lr_mult: 1
    decay_mult: 1
  }
  param {
    lr_mult: 2
    decay_mult: 0
  }
  convolution_param {
    num_output: 128
    pad: 1
    kernel_size: 3
    weight_filler {
      type: "xavier"
      std: 0.03
    }
    bias_filler {
      type: "constant"
      value: 0.2
    }
  }
}
layer {
  name: "inception_3a/relu_3x3"
  type: "ReLU"
  bottom: "inception_3a/3x3"
  top: "inception_3a/3x3"
}
layer {
  name: "inception_3a/5x5_reduce"
  type: "Convolution"
  bottom: "pool2/3x3_s2"
  top: "inception_3a/5x5_reduce"
  param {
    lr_mult: 1
    decay_mult: 1
  }
  param {
    lr_mult: 2
    decay_mult: 0
  }
  convolution_param {
    num_output: 16
    kernel_size: 1
    weight_filler {
      type: "xavier"
      std: 0.2
    }
    bias_filler {
      type: "constant"
      value: 0.2
    }
  }
}
layer {
  name: "inception_3a/relu_5x5_reduce"
  type: "ReLU"
  bottom: "inception_3a/5x5_reduce"
  top: "inception_3a/5x5_reduce"
}
layer {
  name: "inception_3a/5x5"
  type: "Convolution"
  bottom: "inception_3a/5x5_reduce"
  top: "inception_3a/5x5"
  param {
    lr_mult: 1
    decay_mult: 1
  }
  param {
    lr_mult: 2
    decay_mult: 0
  }
  convolution_param {
    num_output: 32
    pad: 2
    kernel_size: 5
    weight_filler {
      type: "xavier"
      std: 0.03
    }
    bias_filler {
      type: "constant"
      value: 0.2
    }
  }
}
layer {
  name: "inception_3a/relu_5x5"
  type: "ReLU"
  bottom: "inception_3a/5x5"
  top: "inception_3a/5x5"
}
layer {
  name: "inception_3a/pool"
  type: "Pooling"
  bottom: "pool2/3x3_s2"
  top: "inception_3a/pool"
  pooling_param {
    pool: MAX
    kernel_size: 3
    stride: 1
    pad: 1
  }
}
layer {
  name: "inception_3a/pool_proj"
  type: "Convolution"
  bottom: "inception_3a/pool"
  top: "inception_3a/pool_proj"
  param {
    lr_mult: 1
    decay_mult: 1
  }
  param {
    lr_mult: 2
    decay_mult: 0
  }
  convolution_param {
    num_output: 32
    kernel_size: 1
    weight_filler {
      type: "xavier"
      std: 0.1
    }
    bias_filler {
      type: "constant"
      value: 0.2
    }
  }
}
layer {
  name: "inception_3a/relu_pool_proj"
  type: "ReLU"
  bottom: "inception_3a/pool_proj"
  top: "inception_3a/pool_proj"
}
layer {
  name: "inception_3a/output"
  type: "Concat"
  bottom: "inception_3a/1x1"
  bottom: "inception_3a/3x3"
  bottom: "inception_3a/5x5"
  bottom: "inception_3a/pool_proj"
  top: "inception_3a/output"
}
layer {
  name: "inception_3b/1x1"
  type: "Convolution"
  bottom: "inception_3a/output"
  top: "inception_3b/1x1"
  param {
    lr_mult: 1
    decay_mult: 1
  }
  param {
    lr_mult: 2
    decay_mult: 0
  }
  convolution_param {
    num_output: 128
    kernel_size: 1
    weight_filler {
      type: "xavier"
      std: 0.03
    }
    bias_filler {
      type: "constant"
      value: 0.2
    }
  }
}
layer {
  name: "inception_3b/relu_1x1"
  type: "ReLU"
  bottom: "inception_3b/1x1"
  top: "inception_3b/1x1"
}
layer {
  name: "inception_3b/3x3_reduce"
  type: "Convolution"
  bottom: "inception_3a/output"
  top: "inception_3b/3x3_reduce"
  param {
    lr_mult: 1
    decay_mult: 1
  }
  param {
    lr_mult: 2
    decay_mult: 0
  }
  convolution_param {
    num_output: 128
    kernel_size: 1
    weight_filler {
      type: "xavier"
      std: 0.09
    }
    bias_filler {
      type: "constant"
      value: 0.2
    }
  }
}
layer {
  name: "inception_3b/relu_3x3_reduce"
  type: "ReLU"
  bottom: "inception_3b/3x3_reduce"
  top: "inception_3b/3x3_reduce"
}
layer {
  name: "inception_3b/3x3"
  type: "Convolution"
  bottom: "inception_3b/3x3_reduce"
  top: "inception_3b/3x3"
  param {
    lr_mult: 1
    decay_mult: 1
  }
  param {
    lr_mult: 2
    decay_mult: 0
  }
  convolution_param {
    num_output: 192
    pad: 1
    kernel_size: 3
    weight_filler {
      type: "xavier"
      std: 0.03
    }
    bias_filler {
      type: "constant"
      value: 0.2
    }
  }
}
layer {
  name: "inception_3b/relu_3x3"
  type: "ReLU"
  bottom: "inception_3b/3x3"
  top: "inception_3b/3x3"
}
layer {
  name: "inception_3b/5x5_reduce"
  type: "Convolution"
  bottom: "inception_3a/output"
  top: "inception_3b/5x5_reduce"
  param {
    lr_mult: 1
    decay_mult: 1
  }
  param {
    lr_mult: 2
    decay_mult: 0
  }
  convolution_param {
    num_output: 32
    kernel_size: 1
    weight_filler {
      type: "xavier"
      std: 0.2
    }
    bias_filler {
      type: "constant"
      value: 0.2
    }
  }
}
layer {
  name: "inception_3b/relu_5x5_reduce"
  type: "ReLU"
  bottom: "inception_3b/5x5_reduce"
  top: "inception_3b/5x5_reduce"
}
layer {
  name: "inception_3b/5x5"
  type: "Convolution"
  bottom: "inception_3b/5x5_reduce"
  top: "inception_3b/5x5"
  param {
    lr_mult: 1
    decay_mult: 1
  }
  param {
    lr_mult: 2
    decay_mult: 0
  }
  convolution_param {
    num_output: 96
    pad: 2
    kernel_size: 5
    weight_filler {
      type: "xavier"
      std: 0.03
    }
    bias_filler {
      type: "constant"
      value: 0.2
    }
  }
}
layer {
  name: "inception_3b/relu_5x5"
  type: "ReLU"
  bottom: "inception_3b/5x5"
  top: "inception_3b/5x5"
}
layer {
  name: "inception_3b/pool"
  type: "Pooling"
  bottom: "inception_3a/output"
  top: "inception_3b/pool"
  pooling_param {
    pool: MAX
    kernel_size: 3
    stride: 1
    pad: 1
  }
}
layer {
  name: "inception_3b/pool_proj"
  type: "Convolution"
  bottom: "inception_3b/pool"
  top: "inception_3b/pool_proj"
  param {
    lr_mult: 1
    decay_mult: 1
  }
  param {
    lr_mult: 2
    decay_mult: 0
  }
  convolution_param {
    num_output: 64
    kernel_size: 1
    weight_filler {
      type: "xavier"
      std: 0.1
    }
    bias_filler {
      type: "constant"
      value: 0.2
    }
  }
}
layer {
  name: "inception_3b/relu_pool_proj"
  type: "ReLU"
  bottom: "inception_3b/pool_proj"
  top: "inception_3b/pool_proj"
}
layer {
  name: "inception_3b/output"
  type: "Concat"
  bottom: "inception_3b/1x1"
  bottom: "inception_3b/3x3"
  bottom: "inception_3b/5x5"
  bottom: "inception_3b/pool_proj"
  top: "inception_3b/output"
}
layer {
  name: "pool3/3x3_s2"
  type: "Pooling"
  bottom: "inception_3b/output"
  top: "pool3/3x3_s2"
  pooling_param {
    pool: MAX
    kernel_size: 3
    stride: 2
  }
}
layer {
  name: "inception_4a/1x1"
  type: "Convolution"
  bottom: "pool3/3x3_s2"
  top: "inception_4a/1x1"
  param {
    lr_mult: 1
    decay_mult: 1
  }
  param {
    lr_mult: 2
    decay_mult: 0
  }
  convolution_param {
    num_output: 192
    kernel_size: 1
    weight_filler {
      type: "xavier"
      std: 0.03
    }
    bias_filler {
      type: "constant"
      value: 0.2
    }
  }
}
layer {
  name: "inception_4a/relu_1x1"
  type: "ReLU"
  bottom: "inception_4a/1x1"
  top: "inception_4a/1x1"
}
layer {
  name: "inception_4a/3x3_reduce"
  type: "Convolution"
  bottom: "pool3/3x3_s2"
  top: "inception_4a/3x3_reduce"
  param {
    lr_mult: 1
    decay_mult: 1
  }
  param {
    lr_mult: 2
    decay_mult: 0
  }
  convolution_param {
    num_output: 96
    kernel_size: 1
    weight_filler {
      type: "xavier"
      std: 0.09
    }
    bias_filler {
      type: "constant"
      value: 0.2
    }
  }
}
layer {
  name: "inception_4a/relu_3x3_reduce"
  type: "ReLU"
  bottom: "inception_4a/3x3_reduce"
  top: "inception_4a/3x3_reduce"
}
layer {
  name: "inception_4a/3x3"
  type: "Convolution"
  bottom: "inception_4a/3x3_reduce"
  top: "inception_4a/3x3"
  param {
    lr_mult: 1
    decay_mult: 1
  }
  param {
    lr_mult: 2
    decay_mult: 0
  }
  convolution_param {
    num_output: 208
    pad: 1
    kernel_size: 3
    weight_filler {
      type: "xavier"
      std: 0.03
    }
    bias_filler {
      type: "constant"
      value: 0.2
    }
  }
}
layer {
  name: "inception_4a/relu_3x3"
  type: "ReLU"
  bottom: "inception_4a/3x3"
  top: "inception_4a/3x3"
}
layer {
  name: "inception_4a/5x5_reduce"
  type: "Convolution"
  bottom: "pool3/3x3_s2"
  top: "inception_4a/5x5_reduce"
  param {
    lr_mult: 1
    decay_mult: 1
  }
  param {
    lr_mult: 2
    decay_mult: 0
  }
  convolution_param {
    num_output: 16
    kernel_size: 1
    weight_filler {
      type: "xavier"
      std: 0.2
    }
    bias_filler {
      type: "constant"
      value: 0.2
    }
  }
}
layer {
  name: "inception_4a/relu_5x5_reduce"
  type: "ReLU"
  bottom: "inception_4a/5x5_reduce"
  top: "inception_4a/5x5_reduce"
}
layer {
  name: "inception_4a/5x5"
  type: "Convolution"
  bottom: "inception_4a/5x5_reduce"
  top: "inception_4a/5x5"
  param {
    lr_mult: 1
    decay_mult: 1
  }
  param {
    lr_mult: 2
    decay_mult: 0
  }
  convolution_param {
    num_output: 48
    pad: 2
    kernel_size: 5
    weight_filler {
      type: "xavier"
      std: 0.03
    }
    bias_filler {
      type: "constant"
      value: 0.2
    }
  }
}
layer {
  name: "inception_4a/relu_5x5"
  type: "ReLU"
  bottom: "inception_4a/5x5"
  top: "inception_4a/5x5"
}
layer {
  name: "inception_4a/pool"
  type: "Pooling"
  bottom: "pool3/3x3_s2"
  top: "inception_4a/pool"
  pooling_param {
    pool: MAX
    kernel_size: 3
    stride: 1
    pad: 1
  }
}
layer {
  name: "inception_4a/pool_proj"
  type: "Convolution"
  bottom: "inception_4a/pool"
  top: "inception_4a/pool_proj"
  param {
    lr_mult: 1
    decay_mult: 1
  }
  param {
    lr_mult: 2
    decay_mult: 0
  }
  convolution_param {
    num_output: 64
    kernel_size: 1
    weight_filler {
      type: "xavier"
      std: 0.1
    }
    bias_filler {
      type: "constant"
      value: 0.2
    }
  }
}
layer {
  name: "inception_4a/relu_pool_proj"
  type: "ReLU"
  bottom: "inception_4a/pool_proj"
  top: "inception_4a/pool_proj"
}
layer {
  name: "inception_4a/output"
  type: "Concat"
  bottom: "inception_4a/1x1"
  bottom: "inception_4a/3x3"
  bottom: "inception_4a/5x5"
  bottom: "inception_4a/pool_proj"
  top: "inception_4a/output"
}
layer {
  name: "loss1/ave_pool"
  type: "Pooling"
  bottom: "inception_4a/output"
  top: "loss1/ave_pool"
  pooling_param {
    pool: AVE
    kernel_size: 5
    stride: 3
  }
}
layer {
  name: "loss1/conv"
  type: "Convolution"
  bottom: "loss1/ave_pool"
  top: "loss1/conv"
  param {
    lr_mult: 1
    decay_mult: 1
  }
  param {
    lr_mult: 2
    decay_mult: 0
  }
  convolution_param {
    num_output: 128
    kernel_size: 1
    weight_filler {
      type: "xavier"
      std: 0.08
    }
    bias_filler {
      type: "constant"
      value: 0.2
    }
  }
}
layer {
  name: "loss1/relu_conv"
  type: "ReLU"
  bottom: "loss1/conv"
  top: "loss1/conv"
}
layer {
  name: "loss1/fc"
  type: "InnerProduct"
  bottom: "loss1/conv"
  top: "loss1/fc"
  param {
    lr_mult: 1
    decay_mult: 1
  }
  param {
    lr_mult: 2
    decay_mult: 0
  }
  inner_product_param {
    num_output: 1024
    weight_filler {
      type: "xavier"
      std: 0.02
    }
    bias_filler {
      type: "constant"
      value: 0.2
    }
  }
}
layer {
  name: "loss1/relu_fc"
  type: "ReLU"
  bottom: "loss1/fc"
  top: "loss1/fc"
}
layer {
  name: "loss1/drop_fc"
  type: "Dropout"
  bottom: "loss1/fc"
  top: "loss1/fc"
  dropout_param {
    dropout_ratio: 0.7
  }
}
layer {
  name: "loss1/classifier_plantvillage"
  type: "InnerProduct"
  bottom: "loss1/fc"
  top: "loss1/classifier_plantvillage"
  param {
    lr_mult: 1
    decay_mult: 1
  }
  param {
    lr_mult: 2
    decay_mult: 0
  }
  inner_product_param {
    num_output: 38
    weight_filler {
      type: "xavier"
      std: 0.0009765625
    }
    bias_filler {
      type: "constant"
      value: 0
    }
  }
}
layer {
  name: "inception_4b/1x1"
  type: "Convolution"
  bottom: "inception_4a/output"
  top: "inception_4b/1x1"
  param {
    lr_mult: 1
    decay_mult: 1
  }
  param {
    lr_mult: 2
    decay_mult: 0
  }
  convolution_param {
    num_output: 160
    kernel_size: 1
    weight_filler {
      type: "xavier"
      std: 0.03
    }
    bias_filler {
      type: "constant"
      value: 0.2
    }
  }
}
layer {
  name: "inception_4b/relu_1x1"
  type: "ReLU"
  bottom: "inception_4b/1x1"
  top: "inception_4b/1x1"
}
layer {
  name: "inception_4b/3x3_reduce"
  type: "Convolution"
  bottom: "inception_4a/output"
  top: "inception_4b/3x3_reduce"
  param {
    lr_mult: 1
    decay_mult: 1
  }
  param {
    lr_mult: 2
    decay_mult: 0
  }
  convolution_param {
    num_output: 112
    kernel_size: 1
    weight_filler {
      type: "xavier"
      std: 0.09
    }
    bias_filler {
      type: "constant"
      value: 0.2
    }
  }
}
layer {
  name: "inception_4b/relu_3x3_reduce"
  type: "ReLU"
  bottom: "inception_4b/3x3_reduce"
  top: "inception_4b/3x3_reduce"
}
layer {
  name: "inception_4b/3x3"
  type: "Convolution"
  bottom: "inception_4b/3x3_reduce"
  top: "inception_4b/3x3"
  param {
    lr_mult: 1
    decay_mult: 1
  }
  param {
    lr_mult: 2
    decay_mult: 0
  }
  convolution_param {
    num_output: 224
    pad: 1
    kernel_size: 3
    weight_filler {
      type: "xavier"
      std: 0.03
    }
    bias_filler {
      type: "constant"
      value: 0.2
    }
  }
}
layer {
  name: "inception_4b/relu_3x3"
  type: "ReLU"
  bottom: "inception_4b/3x3"
  top: "inception_4b/3x3"
}
layer {
  name: "inception_4b/5x5_reduce"
  type: "Convolution"
  bottom: "inception_4a/output"
  top: "inception_4b/5x5_reduce"
  param {
    lr_mult: 1
    decay_mult: 1
  }
  param {
    lr_mult: 2
    decay_mult: 0
  }
  convolution_param {
    num_output: 24
    kernel_size: 1
    weight_filler {
      type: "xavier"
      std: 0.2
    }
    bias_filler {
      type: "constant"
      value: 0.2
    }
  }
}
layer {
  name: "inception_4b/relu_5x5_reduce"
  type: "ReLU"
  bottom: "inception_4b/5x5_reduce"
  top: "inception_4b/5x5_reduce"
}
layer {
  name: "inception_4b/5x5"
  type: "Convolution"
  bottom: "inception_4b/5x5_reduce"
  top: "inception_4b/5x5"
  param {
    lr_mult: 1
    decay_mult: 1
  }
  param {
    lr_mult: 2
    decay_mult: 0
  }
  convolution_param {
    num_output: 64
    pad: 2
    kernel_size: 5
    weight_filler {
      type: "xavier"
      std: 0.03
    }
    bias_filler {
      type: "constant"
      value: 0.2
    }
  }
}
layer {
  name: "inception_4b/relu_5x5"
  type: "ReLU"
  bottom: "inception_4b/5x5"
  top: "inception_4b/5x5"
}
layer {
  name: "inception_4b/pool"
  type: "Pooling"
  bottom: "inception_4a/output"
  top: "inception_4b/pool"
  pooling_param {
    pool: MAX
    kernel_size: 3
    stride: 1
    pad: 1
  }
}
layer {
  name: "inception_4b/pool_proj"
  type: "Convolution"
  bottom: "inception_4b/pool"
  top: "inception_4b/pool_proj"
  param {
    lr_mult: 1
    decay_mult: 1
  }
  param {
    lr_mult: 2
    decay_mult: 0
  }
  convolution_param {
    num_output: 64
    kernel_size: 1
    weight_filler {
      type: "xavier"
      std: 0.1
    }
    bias_filler {
      type: "constant"
      value: 0.2
    }
  }
}
layer {
  name: "inception_4b/relu_pool_proj"
  type: "ReLU"
  bottom: "inception_4b/pool_proj"
  top: "inception_4b/pool_proj"
}
layer {
  name: "inception_4b/output"
  type: "Concat"
  bottom: "inception_4b/1x1"
  bottom: "inception_4b/3x3"
  bottom: "inception_4b/5x5"
  bottom: "inception_4b/pool_proj"
  top: "inception_4b/output"
}
layer {
  name: "inception_4c/1x1"
  type: "Convolution"
  bottom: "inception_4b/output"
  top: "inception_4c/1x1"
  param {
    lr_mult: 1
    decay_mult: 1
  }
  param {
    lr_mult: 2
    decay_mult: 0
  }
  convolution_param {
    num_output: 128
    kernel_size: 1
    weight_filler {
      type: "xavier"
      std: 0.03
    }
    bias_filler {
      type: "constant"
      value: 0.2
    }
  }
}
layer {
  name: "inception_4c/relu_1x1"
  type: "ReLU"
  bottom: "inception_4c/1x1"
  top: "inception_4c/1x1"
}
layer {
  name: "inception_4c/3x3_reduce"
  type: "Convolution"
  bottom: "inception_4b/output"
  top: "inception_4c/3x3_reduce"
  param {
    lr_mult: 1
    decay_mult: 1
  }
  param {
    lr_mult: 2
    decay_mult: 0
  }
  convolution_param {
    num_output: 128
    kernel_size: 1
    weight_filler {
      type: "xavier"
      std: 0.09
    }
    bias_filler {
      type: "constant"
      value: 0.2
    }
  }
}
layer {
  name: "inception_4c/relu_3x3_reduce"
  type: "ReLU"
  bottom: "inception_4c/3x3_reduce"
  top: "inception_4c/3x3_reduce"
}
layer {
  name: "inception_4c/3x3"
  type: "Convolution"
  bottom: "inception_4c/3x3_reduce"
  top: "inception_4c/3x3"
  param {
    lr_mult: 1
    decay_mult: 1
  }
  param {
    lr_mult: 2
    decay_mult: 0
  }
  convolution_param {
    num_output: 256
    pad: 1
    kernel_size: 3
    weight_filler {
      type: "xavier"
      std: 0.03
    }
    bias_filler {
      type: "constant"
      value: 0.2
    }
  }
}
layer {
  name: "inception_4c/relu_3x3"
  type: "ReLU"
  bottom: "inception_4c/3x3"
  top: "inception_4c/3x3"
}
layer {
  name: "inception_4c/5x5_reduce"
  type: "Convolution"
  bottom: "inception_4b/output"
  top: "inception_4c/5x5_reduce"
  param {
    lr_mult: 1
    decay_mult: 1
  }
  param {
    lr_mult: 2
    decay_mult: 0
  }
  convolution_param {
    num_output: 24
    kernel_size: 1
    weight_filler {
      type: "xavier"
      std: 0.2
    }
    bias_filler {
      type: "constant"
      value: 0.2
    }
  }
}
layer {
  name: "inception_4c/relu_5x5_reduce"
  type: "ReLU"
  bottom: "inception_4c/5x5_reduce"
  top: "inception_4c/5x5_reduce"
}
layer {
  name: "inception_4c/5x5"
  type: "Convolution"
  bottom: "inception_4c/5x5_reduce"
  top: "inception_4c/5x5"
  param {
    lr_mult: 1
    decay_mult: 1
  }
  param {
    lr_mult: 2
    decay_mult: 0
  }
  convolution_param {
    num_output: 64
    pad: 2
    kernel_size: 5
    weight_filler {
      type: "xavier"
      std: 0.03
    }
    bias_filler {
      type: "constant"
      value: 0.2
    }
  }
}
layer {
  name: "inception_4c/relu_5x5"
  type: "ReLU"
  bottom: "inception_4c/5x5"
  top: "inception_4c/5x5"
}
layer {
  name: "inception_4c/pool"
  type: "Pooling"
  bottom: "inception_4b/output"
  top: "inception_4c/pool"
  pooling_param {
    pool: MAX
    kernel_size: 3
    stride: 1
    pad: 1
  }
}
layer {
  name: "inception_4c/pool_proj"
  type: "Convolution"
  bottom: "inception_4c/pool"
  top: "inception_4c/pool_proj"
  param {
    lr_mult: 1
    decay_mult: 1
  }
  param {
    lr_mult: 2
    decay_mult: 0
  }
  convolution_param {
    num_output: 64
    kernel_size: 1
    weight_filler {
      type: "xavier"
      std: 0.1
    }
    bias_filler {
      type: "constant"
      value: 0.2
    }
  }
}
layer {
  name: "inception_4c/relu_pool_proj"
  type: "ReLU"
  bottom: "inception_4c/pool_proj"
  top: "inception_4c/pool_proj"
}
layer {
  name: "inception_4c/output"
  type: "Concat"
  bottom: "inception_4c/1x1"
  bottom: "inception_4c/3x3"
  bottom: "inception_4c/5x5"
  bottom: "inception_4c/pool_proj"
  top: "inception_4c/output"
}
layer {
  name: "inception_4d/1x1"
  type: "Convolution"
  bottom: "inception_4c/output"
  top: "inception_4d/1x1"
  param {
    lr_mult: 1
    decay_mult: 1
  }
  param {
    lr_mult: 2
    decay_mult: 0
  }
  convolution_param {
    num_output: 112
    kernel_size: 1
    weight_filler {
      type: "xavier"
      std: 0.03
    }
    bias_filler {
      type: "constant"
      value: 0.2
    }
  }
}
layer {
  name: "inception_4d/relu_1x1"
  type: "ReLU"
  bottom: "inception_4d/1x1"
  top: "inception_4d/1x1"
}
layer {
  name: "inception_4d/3x3_reduce"
  type: "Convolution"
  bottom: "inception_4c/output"
  top: "inception_4d/3x3_reduce"
  param {
    lr_mult: 1
    decay_mult: 1
  }
  param {
    lr_mult: 2
    decay_mult: 0
  }
  convolution_param {
    num_output: 144
    kernel_size: 1
    weight_filler {
      type: "xavier"
      std: 0.09
    }
    bias_filler {
      type: "constant"
      value: 0.2
    }
  }
}
layer {
  name: "inception_4d/relu_3x3_reduce"
  type: "ReLU"
  bottom: "inception_4d/3x3_reduce"
  top: "inception_4d/3x3_reduce"
}
layer {
  name: "inception_4d/3x3"
  type: "Convolution"
  bottom: "inception_4d/3x3_reduce"
  top: "inception_4d/3x3"
  param {
    lr_mult: 1
    decay_mult: 1
  }
  param {
    lr_mult: 2
    decay_mult: 0
  }
  convolution_param {
    num_output: 288
    pad: 1
    kernel_size: 3
    weight_filler {
      type: "xavier"
      std: 0.03
    }
    bias_filler {
      type: "constant"
      value: 0.2
    }
  }
}
layer {
  name: "inception_4d/relu_3x3"
  type: "ReLU"
  bottom: "inception_4d/3x3"
  top: "inception_4d/3x3"
}
layer {
  name: "inception_4d/5x5_reduce"
  type: "Convolution"
  bottom: "inception_4c/output"
  top: "inception_4d/5x5_reduce"
  param {
    lr_mult: 1
    decay_mult: 1
  }
  param {
    lr_mult: 2
    decay_mult: 0
  }
  convolution_param {
    num_output: 32
    kernel_size: 1
    weight_filler {
      type: "xavier"
      std: 0.2
    }
    bias_filler {
      type: "constant"
      value: 0.2
    }
  }
}
layer {
  name: "inception_4d/relu_5x5_reduce"
  type: "ReLU"
  bottom: "inception_4d/5x5_reduce"
  top: "inception_4d/5x5_reduce"
}
layer {
  name: "inception_4d/5x5"
  type: "Convolution"
  bottom: "inception_4d/5x5_reduce"
  top: "inception_4d/5x5"
  param {
    lr_mult: 1
    decay_mult: 1
  }
  param {
    lr_mult: 2
    decay_mult: 0
  }
  convolution_param {
    num_output: 64
    pad: 2
    kernel_size: 5
    weight_filler {
      type: "xavier"
      std: 0.03
    }
    bias_filler {
      type: "constant"
      value: 0.2
    }
  }
}
layer {
  name: "inception_4d/relu_5x5"
  type: "ReLU"
  bottom: "inception_4d/5x5"
  top: "inception_4d/5x5"
}
layer {
  name: "inception_4d/pool"
  type: "Pooling"
  bottom: "inception_4c/output"
  top: "inception_4d/pool"
  pooling_param {
    pool: MAX
    kernel_size: 3
    stride: 1
    pad: 1
  }
}
layer {
  name: "inception_4d/pool_proj"
  type: "Convolution"
  bottom: "inception_4d/pool"
  top: "inception_4d/pool_proj"
  param {
    lr_mult: 1
    decay_mult: 1
  }
  param {
    lr_mult: 2
    decay_mult: 0
  }
  convolution_param {
    num_output: 64
    kernel_size: 1
    weight_filler {
      type: "xavier"
      std: 0.1
    }
    bias_filler {
      type: "constant"
      value: 0.2
    }
  }
}
layer {
  name: "inception_4d/relu_pool_proj"
  type: "ReLU"
  bottom: "inception_4d/pool_proj"
  top: "inception_4d/pool_proj"
}
layer {
  name: "inception_4d/output"
  type: "Concat"
  bottom: "inception_4d/1x1"
  bottom: "inception_4d/3x3"
  bottom: "inception_4d/5x5"
  bottom: "inception_4d/pool_proj"
  top: "inception_4d/output"
}
layer {
  name: "loss2/ave_pool"
  type: "Pooling"
  bottom: "inception_4d/output"
  top: "loss2/ave_pool"
  pooling_param {
    pool: AVE
    kernel_size: 5
    stride: 3
  }
}
layer {
  name: "loss2/conv"
  type: "Convolution"
  bottom: "loss2/ave_pool"
  top: "loss2/conv"
  param {
    lr_mult: 1
    decay_mult: 1
  }
  param {
    lr_mult: 2
    decay_mult: 0
  }
  convolution_param {
    num_output: 128
    kernel_size: 1
    weight_filler {
      type: "xavier"
      std: 0.08
    }
    bias_filler {
      type: "constant"
      value: 0.2
    }
  }
}
layer {
  name: "loss2/relu_conv"
  type: "ReLU"
  bottom: "loss2/conv"
  top: "loss2/conv"
}
layer {
  name: "loss2/fc"
  type: "InnerProduct"
  bottom: "loss2/conv"
  top: "loss2/fc"
  param {
    lr_mult: 1
    decay_mult: 1
  }
  param {
    lr_mult: 2
    decay_mult: 0
  }
  inner_product_param {
    num_output: 1024
    weight_filler {
      type: "xavier"
      std: 0.02
    }
    bias_filler {
      type: "constant"
      value: 0.2
    }
  }
}
layer {
  name: "loss2/relu_fc"
  type: "ReLU"
  bottom: "loss2/fc"
  top: "loss2/fc"
}
layer {
  name: "loss2/drop_fc"
  type: "Dropout"
  bottom: "loss2/fc"
  top: "loss2/fc"
  dropout_param {
    dropout_ratio: 0.7
  }
}
layer {
  name: "loss2/classifier_plantvillage"
  type: "InnerProduct"
  bottom: "loss2/fc"
  top: "loss2/classifier_plantvillage"
  param {
    lr_mult: 1
    decay_mult: 1
  }
  param {
    lr_mult: 2
    decay_mult: 0
  }
  inner_product_param {
    num_output: 38
    weight_filler {
      type: "xavier"
      std: 0.0009765625
    }
    bias_filler {
      type: "constant"
      value: 0
    }
  }
}
layer {
  name: "inception_4e/1x1"
  type: "Convolution"
  bottom: "inception_4d/output"
  top: "inception_4e/1x1"
  param {
    lr_mult: 1
    decay_mult: 1
  }
  param {
    lr_mult: 2
    decay_mult: 0
  }
  convolution_param {
    num_output: 256
    kernel_size: 1
    weight_filler {
      type: "xavier"
      std: 0.03
    }
    bias_filler {
      type: "constant"
      value: 0.2
    }
  }
}
layer {
  name: "inception_4e/relu_1x1"
  type: "ReLU"
  bottom: "inception_4e/1x1"
  top: "inception_4e/1x1"
}
layer {
  name: "inception_4e/3x3_reduce"
  type: "Convolution"
  bottom: "inception_4d/output"
  top: "inception_4e/3x3_reduce"
  param {
    lr_mult: 1
    decay_mult: 1
  }
  param {
    lr_mult: 2
    decay_mult: 0
  }
  convolution_param {
    num_output: 160
    kernel_size: 1
    weight_filler {
      type: "xavier"
      std: 0.09
    }
    bias_filler {
      type: "constant"
      value: 0.2
    }
  }
}
layer {
  name: "inception_4e/relu_3x3_reduce"
  type: "ReLU"
  bottom: "inception_4e/3x3_reduce"
  top: "inception_4e/3x3_reduce"
}
layer {
  name: "inception_4e/3x3"
  type: "Convolution"
  bottom: "inception_4e/3x3_reduce"
  top: "inception_4e/3x3"
  param {
    lr_mult: 1
    decay_mult: 1
  }
  param {
    lr_mult: 2
    decay_mult: 0
  }
  convolution_param {
    num_output: 320
    pad: 1
    kernel_size: 3
    weight_filler {
      type: "xavier"
      std: 0.03
    }
    bias_filler {
      type: "constant"
      value: 0.2
    }
  }
}
layer {
  name: "inception_4e/relu_3x3"
  type: "ReLU"
  bottom: "inception_4e/3x3"
  top: "inception_4e/3x3"
}
layer {
  name: "inception_4e/5x5_reduce"
  type: "Convolution"
  bottom: "inception_4d/output"
  top: "inception_4e/5x5_reduce"
  param {
    lr_mult: 1
    decay_mult: 1
  }
  param {
    lr_mult: 2
    decay_mult: 0
  }
  convolution_param {
    num_output: 32
    kernel_size: 1
    weight_filler {
      type: "xavier"
      std: 0.2
    }
    bias_filler {
      type: "constant"
      value: 0.2
    }
  }
}
layer {
  name: "inception_4e/relu_5x5_reduce"
  type: "ReLU"
  bottom: "inception_4e/5x5_reduce"
  top: "inception_4e/5x5_reduce"
}
layer {
  name: "inception_4e/5x5"
  type: "Convolution"
  bottom: "inception_4e/5x5_reduce"
  top: "inception_4e/
I0403 19:51:53.279623  9778 layer_factory.hpp:77] Creating layer data
I0403 19:51:53.280247  9778 net.cpp:91] Creating Layer data
I0403 19:51:53.280282  9778 net.cpp:399] data -> data
I0403 19:51:53.280334  9778 net.cpp:399] data -> label
I0403 19:51:53.280370  9778 data_transformer.cpp:25] Loading mean file from: /home/mohanty/data/final_dataset/lmdb/grayscale-50-50/mean.binaryproto
I0403 19:51:53.281528  9780 db_lmdb.cpp:38] Opened lmdb /home/mohanty/data/final_dataset/lmdb/grayscale-50-50/test_db
I0403 19:51:53.293766  9778 data_layer.cpp:41] output data size: 24,3,224,224
I0403 19:51:53.321060  9778 net.cpp:141] Setting up data
I0403 19:51:53.321141  9778 net.cpp:148] Top shape: 24 3 224 224 (3612672)
I0403 19:51:53.321164  9778 net.cpp:148] Top shape: 24 (24)
I0403 19:51:53.321188  9778 net.cpp:156] Memory required for data: 14450784
I0403 19:51:53.321218  9778 layer_factory.hpp:77] Creating layer label_data_1_split
I0403 19:51:53.321245  9778 net.cpp:91] Creating Layer label_data_1_split
I0403 19:51:53.321264  9778 net.cpp:425] label_data_1_split <- label
I0403 19:51:53.321297  9778 net.cpp:399] label_data_1_split -> label_data_1_split_0
I0403 19:51:53.321326  9778 net.cpp:399] label_data_1_split -> label_data_1_split_1
I0403 19:51:53.321346  9778 net.cpp:399] label_data_1_split -> label_data_1_split_2
I0403 19:51:53.321367  9778 net.cpp:399] label_data_1_split -> label_data_1_split_3
I0403 19:51:53.321388  9778 net.cpp:399] label_data_1_split -> label_data_1_split_4
I0403 19:51:53.321408  9778 net.cpp:399] label_data_1_split -> label_data_1_split_5
I0403 19:51:53.321427  9778 net.cpp:399] label_data_1_split -> label_data_1_split_6
I0403 19:51:53.321447  9778 net.cpp:399] label_data_1_split -> label_data_1_split_7
I0403 19:51:53.321467  9778 net.cpp:399] label_data_1_split -> label_data_1_split_8
I0403 19:51:53.321487  9778 net.cpp:399] label_data_1_split -> label_data_1_split_9
I0403 19:51:53.321607  9778 net.cpp:141] Setting up label_data_1_split
I0403 19:51:53.321631  9778 net.cpp:148] Top shape: 24 (24)
I0403 19:51:53.321650  9778 net.cpp:148] Top shape: 24 (24)
I0403 19:51:53.321672  9778 net.cpp:148] Top shape: 24 (24)
I0403 19:51:53.321689  9778 net.cpp:148] Top shape: 24 (24)
I0403 19:51:53.321705  9778 net.cpp:148] Top shape: 24 (24)
I0403 19:51:53.321722  9778 net.cpp:148] Top shape: 24 (24)
I0403 19:51:53.321738  9778 net.cpp:148] Top shape: 24 (24)
I0403 19:51:53.321753  9778 net.cpp:148] Top shape: 24 (24)
I0403 19:51:53.321770  9778 net.cpp:148] Top shape: 24 (24)
I0403 19:51:53.321786  9778 net.cpp:148] Top shape: 24 (24)
I0403 19:51:53.321826  9778 net.cpp:156] Memory required for data: 14451744
I0403 19:51:53.321843  9778 layer_factory.hpp:77] Creating layer conv1/7x7_s2
I0403 19:51:53.321877  9778 net.cpp:91] Creating Layer conv1/7x7_s2
I0403 19:51:53.321897  9778 net.cpp:425] conv1/7x7_s2 <- data
I0403 19:51:53.321916  9778 net.cpp:399] conv1/7x7_s2 -> conv1/7x7_s2
I0403 19:51:53.462049  9778 net.cpp:141] Setting up conv1/7x7_s2
I0403 19:51:53.462128  9778 net.cpp:148] Top shape: 24 64 112 112 (19267584)
I0403 19:51:53.462146  9778 net.cpp:156] Memory required for data: 91522080
I0403 19:51:53.462177  9778 layer_factory.hpp:77] Creating layer conv1/relu_7x7
I0403 19:51:53.462208  9778 net.cpp:91] Creating Layer conv1/relu_7x7
I0403 19:51:53.462226  9778 net.cpp:425] conv1/relu_7x7 <- conv1/7x7_s2
I0403 19:51:53.462244  9778 net.cpp:386] conv1/relu_7x7 -> conv1/7x7_s2 (in-place)
I0403 19:51:53.462498  9778 net.cpp:141] Setting up conv1/relu_7x7
I0403 19:51:53.462524  9778 net.cpp:148] Top shape: 24 64 112 112 (19267584)
I0403 19:51:53.462540  9778 net.cpp:156] Memory required for data: 168592416
I0403 19:51:53.462554  9778 layer_factory.hpp:77] Creating layer pool1/3x3_s2
I0403 19:51:53.462579  9778 net.cpp:91] Creating Layer pool1/3x3_s2
I0403 19:51:53.462597  9778 net.cpp:425] pool1/3x3_s2 <- conv1/7x7_s2
I0403 19:51:53.462616  9778 net.cpp:399] pool1/3x3_s2 -> pool1/3x3_s2
I0403 19:51:53.462687  9778 net.cpp:141] Setting up pool1/3x3_s2
I0403 19:51:53.462712  9778 net.cpp:148] Top shape: 24 64 56 56 (4816896)
I0403 19:51:53.462726  9778 net.cpp:156] Memory required for data: 187860000
I0403 19:51:53.462740  9778 layer_factory.hpp:77] Creating layer pool1/norm1
I0403 19:51:53.462764  9778 net.cpp:91] Creating Layer pool1/norm1
I0403 19:51:53.462780  9778 net.cpp:425] pool1/norm1 <- pool1/3x3_s2
I0403 19:51:53.462797  9778 net.cpp:399] pool1/norm1 -> pool1/norm1
I0403 19:51:53.463081  9778 net.cpp:141] Setting up pool1/norm1
I0403 19:51:53.463109  9778 net.cpp:148] Top shape: 24 64 56 56 (4816896)
I0403 19:51:53.463124  9778 net.cpp:156] Memory required for data: 207127584
I0403 19:51:53.463138  9778 layer_factory.hpp:77] Creating layer conv2/3x3_reduce
I0403 19:51:53.463162  9778 net.cpp:91] Creating Layer conv2/3x3_reduce
I0403 19:51:53.463189  9778 net.cpp:425] conv2/3x3_reduce <- pool1/norm1
I0403 19:51:53.463212  9778 net.cpp:399] conv2/3x3_reduce -> conv2/3x3_reduce
I0403 19:51:53.464565  9778 net.cpp:141] Setting up conv2/3x3_reduce
I0403 19:51:53.464594  9778 net.cpp:148] Top shape: 24 64 56 56 (4816896)
I0403 19:51:53.464609  9778 net.cpp:156] Memory required for data: 226395168
I0403 19:51:53.464632  9778 layer_factory.hpp:77] Creating layer conv2/relu_3x3_reduce
I0403 19:51:53.464649  9778 net.cpp:91] Creating Layer conv2/relu_3x3_reduce
I0403 19:51:53.464664  9778 net.cpp:425] conv2/relu_3x3_reduce <- conv2/3x3_reduce
I0403 19:51:53.464680  9778 net.cpp:386] conv2/relu_3x3_reduce -> conv2/3x3_reduce (in-place)
I0403 19:51:53.464972  9778 net.cpp:141] Setting up conv2/relu_3x3_reduce
I0403 19:51:53.464998  9778 net.cpp:148] Top shape: 24 64 56 56 (4816896)
I0403 19:51:53.465013  9778 net.cpp:156] Memory required for data: 245662752
I0403 19:51:53.465028  9778 layer_factory.hpp:77] Creating layer conv2/3x3
I0403 19:51:53.465049  9778 net.cpp:91] Creating Layer conv2/3x3
I0403 19:51:53.465066  9778 net.cpp:425] conv2/3x3 <- conv2/3x3_reduce
I0403 19:51:53.465085  9778 net.cpp:399] conv2/3x3 -> conv2/3x3
I0403 19:51:53.467304  9778 net.cpp:141] Setting up conv2/3x3
I0403 19:51:53.467335  9778 net.cpp:148] Top shape: 24 192 56 56 (14450688)
I0403 19:51:53.467351  9778 net.cpp:156] Memory required for data: 303465504
I0403 19:51:53.467372  9778 layer_factory.hpp:77] Creating layer conv2/relu_3x3
I0403 19:51:53.467391  9778 net.cpp:91] Creating Layer conv2/relu_3x3
I0403 19:51:53.467407  9778 net.cpp:425] conv2/relu_3x3 <- conv2/3x3
I0403 19:51:53.467424  9778 net.cpp:386] conv2/relu_3x3 -> conv2/3x3 (in-place)
I0403 19:51:53.467582  9778 net.cpp:141] Setting up conv2/relu_3x3
I0403 19:51:53.467607  9778 net.cpp:148] Top shape: 24 192 56 56 (14450688)
I0403 19:51:53.467654  9778 net.cpp:156] Memory required for data: 361268256
I0403 19:51:53.467671  9778 layer_factory.hpp:77] Creating layer conv2/norm2
I0403 19:51:53.467689  9778 net.cpp:91] Creating Layer conv2/norm2
I0403 19:51:53.467705  9778 net.cpp:425] conv2/norm2 <- conv2/3x3
I0403 19:51:53.467722  9778 net.cpp:399] conv2/norm2 -> conv2/norm2
I0403 19:51:53.467998  9778 net.cpp:141] Setting up conv2/norm2
I0403 19:51:53.468024  9778 net.cpp:148] Top shape: 24 192 56 56 (14450688)
I0403 19:51:53.468040  9778 net.cpp:156] Memory required for data: 419071008
I0403 19:51:53.468055  9778 layer_factory.hpp:77] Creating layer pool2/3x3_s2
I0403 19:51:53.468073  9778 net.cpp:91] Creating Layer pool2/3x3_s2
I0403 19:51:53.468088  9778 net.cpp:425] pool2/3x3_s2 <- conv2/norm2
I0403 19:51:53.468106  9778 net.cpp:399] pool2/3x3_s2 -> pool2/3x3_s2
I0403 19:51:53.468184  9778 net.cpp:141] Setting up pool2/3x3_s2
I0403 19:51:53.468209  9778 net.cpp:148] Top shape: 24 192 28 28 (3612672)
I0403 19:51:53.468224  9778 net.cpp:156] Memory required for data: 433521696
I0403 19:51:53.468237  9778 layer_factory.hpp:77] Creating layer pool2/3x3_s2_pool2/3x3_s2_0_split
I0403 19:51:53.468255  9778 net.cpp:91] Creating Layer pool2/3x3_s2_pool2/3x3_s2_0_split
I0403 19:51:53.468271  9778 net.cpp:425] pool2/3x3_s2_pool2/3x3_s2_0_split <- pool2/3x3_s2
I0403 19:51:53.468287  9778 net.cpp:399] pool2/3x3_s2_pool2/3x3_s2_0_split -> pool2/3x3_s2_pool2/3x3_s2_0_split_0
I0403 19:51:53.468307  9778 net.cpp:399] pool2/3x3_s2_pool2/3x3_s2_0_split -> pool2/3x3_s2_pool2/3x3_s2_0_split_1
I0403 19:51:53.468327  9778 net.cpp:399] pool2/3x3_s2_pool2/3x3_s2_0_split -> pool2/3x3_s2_pool2/3x3_s2_0_split_2
I0403 19:51:53.468345  9778 net.cpp:399] pool2/3x3_s2_pool2/3x3_s2_0_split -> pool2/3x3_s2_pool2/3x3_s2_0_split_3
I0403 19:51:53.468407  9778 net.cpp:141] Setting up pool2/3x3_s2_pool2/3x3_s2_0_split
I0403 19:51:53.468430  9778 net.cpp:148] Top shape: 24 192 28 28 (3612672)
I0403 19:51:53.468446  9778 net.cpp:148] Top shape: 24 192 28 28 (3612672)
I0403 19:51:53.468461  9778 net.cpp:148] Top shape: 24 192 28 28 (3612672)
I0403 19:51:53.468477  9778 net.cpp:148] Top shape: 24 192 28 28 (3612672)
I0403 19:51:53.468492  9778 net.cpp:156] Memory required for data: 491324448
I0403 19:51:53.468505  9778 layer_factory.hpp:77] Creating layer inception_3a/1x1
I0403 19:51:53.468525  9778 net.cpp:91] Creating Layer inception_3a/1x1
I0403 19:51:53.468543  9778 net.cpp:425] inception_3a/1x1 <- pool2/3x3_s2_pool2/3x3_s2_0_split_0
I0403 19:51:53.468560  9778 net.cpp:399] inception_3a/1x1 -> inception_3a/1x1
I0403 19:51:53.470077  9778 net.cpp:141] Setting up inception_3a/1x1
I0403 19:51:53.470106  9778 net.cpp:148] Top shape: 24 64 28 28 (1204224)
I0403 19:51:53.470123  9778 net.cpp:156] Memory required for data: 496141344
I0403 19:51:53.470144  9778 layer_factory.hpp:77] Creating layer inception_3a/relu_1x1
I0403 19:51:53.470165  9778 net.cpp:91] Creating Layer inception_3a/relu_1x1
I0403 19:51:53.470185  9778 net.cpp:425] inception_3a/relu_1x1 <- inception_3a/1x1
I0403 19:51:53.470206  9778 net.cpp:386] inception_3a/relu_1x1 -> inception_3a/1x1 (in-place)
I0403 19:51:53.470383  9778 net.cpp:141] Setting up inception_3a/relu_1x1
I0403 19:51:53.470409  9778 net.cpp:148] Top shape: 24 64 28 28 (1204224)
I0403 19:51:53.470424  9778 net.cpp:156] Memory required for data: 500958240
I0403 19:51:53.470439  9778 layer_factory.hpp:77] Creating layer inception_3a/3x3_reduce
I0403 19:51:53.470463  9778 net.cpp:91] Creating Layer inception_3a/3x3_reduce
I0403 19:51:53.470480  9778 net.cpp:425] inception_3a/3x3_reduce <- pool2/3x3_s2_pool2/3x3_s2_0_split_1
I0403 19:51:53.470504  9778 net.cpp:399] inception_3a/3x3_reduce -> inception_3a/3x3_reduce
I0403 19:51:53.472300  9778 net.cpp:141] Setting up inception_3a/3x3_reduce
I0403 19:51:53.472333  9778 net.cpp:148] Top shape: 24 96 28 28 (1806336)
I0403 19:51:53.472350  9778 net.cpp:156] Memory required for data: 508183584
I0403 19:51:53.472374  9778 layer_factory.hpp:77] Creating layer inception_3a/relu_3x3_reduce
I0403 19:51:53.472410  9778 net.cpp:91] Creating Layer inception_3a/relu_3x3_reduce
I0403 19:51:53.472429  9778 net.cpp:425] inception_3a/relu_3x3_reduce <- inception_3a/3x3_reduce
I0403 19:51:53.472448  9778 net.cpp:386] inception_3a/relu_3x3_reduce -> inception_3a/3x3_reduce (in-place)
I0403 19:51:53.472640  9778 net.cpp:141] Setting up inception_3a/relu_3x3_reduce
I0403 19:51:53.472668  9778 net.cpp:148] Top shape: 24 96 28 28 (1806336)
I0403 19:51:53.472686  9778 net.cpp:156] Memory required for data: 515408928
I0403 19:51:53.472702  9778 layer_factory.hpp:77] Creating layer inception_3a/3x3
I0403 19:51:53.472726  9778 net.cpp:91] Creating Layer inception_3a/3x3
I0403 19:51:53.472743  9778 net.cpp:425] inception_3a/3x3 <- inception_3a/3x3_reduce
I0403 19:51:53.472764  9778 net.cpp:399] inception_3a/3x3 -> inception_3a/3x3
I0403 19:51:53.474447  9778 net.cpp:141] Setting up inception_3a/3x3
I0403 19:51:53.474478  9778 net.cpp:148] Top shape: 24 128 28 28 (2408448)
I0403 19:51:53.474494  9778 net.cpp:156] Memory required for data: 525042720
I0403 19:51:53.474514  9778 layer_factory.hpp:77] Creating layer inception_3a/relu_3x3
I0403 19:51:53.474532  9778 net.cpp:91] Creating Layer inception_3a/relu_3x3
I0403 19:51:53.474548  9778 net.cpp:425] inception_3a/relu_3x3 <- inception_3a/3x3
I0403 19:51:53.474570  9778 net.cpp:386] inception_3a/relu_3x3 -> inception_3a/3x3 (in-place)
I0403 19:51:53.474844  9778 net.cpp:141] Setting up inception_3a/relu_3x3
I0403 19:51:53.474871  9778 net.cpp:148] Top shape: 24 128 28 28 (2408448)
I0403 19:51:53.474886  9778 net.cpp:156] Memory required for data: 534676512
I0403 19:51:53.474901  9778 layer_factory.hpp:77] Creating layer inception_3a/5x5_reduce
I0403 19:51:53.474925  9778 net.cpp:91] Creating Layer inception_3a/5x5_reduce
I0403 19:51:53.474943  9778 net.cpp:425] inception_3a/5x5_reduce <- pool2/3x3_s2_pool2/3x3_s2_0_split_2
I0403 19:51:53.474964  9778 net.cpp:399] inception_3a/5x5_reduce -> inception_3a/5x5_reduce
I0403 19:51:53.475926  9778 net.cpp:141] Setting up inception_3a/5x5_reduce
I0403 19:51:53.475955  9778 net.cpp:148] Top shape: 24 16 28 28 (301056)
I0403 19:51:53.475970  9778 net.cpp:156] Memory required for data: 535880736
I0403 19:51:53.475989  9778 layer_factory.hpp:77] Creating layer inception_3a/relu_5x5_reduce
I0403 19:51:53.476009  9778 net.cpp:91] Creating Layer inception_3a/relu_5x5_reduce
I0403 19:51:53.476027  9778 net.cpp:425] inception_3a/relu_5x5_reduce <- inception_3a/5x5_reduce
I0403 19:51:53.476044  9778 net.cpp:386] inception_3a/relu_5x5_reduce -> inception_3a/5x5_reduce (in-place)
I0403 19:51:53.476339  9778 net.cpp:141] Setting up inception_3a/relu_5x5_reduce
I0403 19:51:53.476366  9778 net.cpp:148] Top shape: 24 16 28 28 (301056)
I0403 19:51:53.476380  9778 net.cpp:156] Memory required for data: 537084960
I0403 19:51:53.476395  9778 layer_factory.hpp:77] Creating layer inception_3a/5x5
I0403 19:51:53.476418  9778 net.cpp:91] Creating Layer inception_3a/5x5
I0403 19:51:53.476436  9778 net.cpp:425] inception_3a/5x5 <- inception_3a/5x5_reduce
I0403 19:51:53.476460  9778 net.cpp:399] inception_3a/5x5 -> inception_3a/5x5
I0403 19:51:53.477481  9778 net.cpp:141] Setting up inception_3a/5x5
I0403 19:51:53.477511  9778 net.cpp:148] Top shape: 24 32 28 28 (602112)
I0403 19:51:53.477529  9778 net.cpp:156] Memory required for data: 539493408
I0403 19:51:53.477547  9778 layer_factory.hpp:77] Creating layer inception_3a/relu_5x5
I0403 19:51:53.477566  9778 net.cpp:91] Creating Layer inception_3a/relu_5x5
I0403 19:51:53.477581  9778 net.cpp:425] inception_3a/relu_5x5 <- inception_3a/5x5
I0403 19:51:53.477602  9778 net.cpp:386] inception_3a/relu_5x5 -> inception_3a/5x5 (in-place)
I0403 19:51:53.477777  9778 net.cpp:141] Setting up inception_3a/relu_5x5
I0403 19:51:53.477802  9778 net.cpp:148] Top shape: 24 32 28 28 (602112)
I0403 19:51:53.477816  9778 net.cpp:156] Memory required for data: 541901856
I0403 19:51:53.477831  9778 layer_factory.hpp:77] Creating layer inception_3a/pool
I0403 19:51:53.477849  9778 net.cpp:91] Creating Layer inception_3a/pool
I0403 19:51:53.477880  9778 net.cpp:425] inception_3a/pool <- pool2/3x3_s2_pool2/3x3_s2_0_split_3
I0403 19:51:53.477902  9778 net.cpp:399] inception_3a/pool -> inception_3a/pool
I0403 19:51:53.477960  9778 net.cpp:141] Setting up inception_3a/pool
I0403 19:51:53.477983  9778 net.cpp:148] Top shape: 24 192 28 28 (3612672)
I0403 19:51:53.477999  9778 net.cpp:156] Memory required for data: 556352544
I0403 19:51:53.478014  9778 layer_factory.hpp:77] Creating layer inception_3a/pool_proj
I0403 19:51:53.478039  9778 net.cpp:91] Creating Layer inception_3a/pool_proj
I0403 19:51:53.478057  9778 net.cpp:425] inception_3a/pool_proj <- inception_3a/pool
I0403 19:51:53.478075  9778 net.cpp:399] inception_3a/pool_proj -> inception_3a/pool_proj
I0403 19:51:53.479079  9778 net.cpp:141] Setting up inception_3a/pool_proj
I0403 19:51:53.479107  9778 net.cpp:148] Top shape: 24 32 28 28 (602112)
I0403 19:51:53.479123  9778 net.cpp:156] Memory required for data: 558760992
I0403 19:51:53.479148  9778 layer_factory.hpp:77] Creating layer inception_3a/relu_pool_proj
I0403 19:51:53.479171  9778 net.cpp:91] Creating Layer inception_3a/relu_pool_proj
I0403 19:51:53.479192  9778 net.cpp:425] inception_3a/relu_pool_proj <- inception_3a/pool_proj
I0403 19:51:53.479213  9778 net.cpp:386] inception_3a/relu_pool_proj -> inception_3a/pool_proj (in-place)
I0403 19:51:53.479492  9778 net.cpp:141] Setting up inception_3a/relu_pool_proj
I0403 19:51:53.479522  9778 net.cpp:148] Top shape: 24 32 28 28 (602112)
I0403 19:51:53.479539  9778 net.cpp:156] Memory required for data: 561169440
I0403 19:51:53.479559  9778 layer_factory.hpp:77] Creating layer inception_3a/output
I0403 19:51:53.479588  9778 net.cpp:91] Creating Layer inception_3a/output
I0403 19:51:53.479610  9778 net.cpp:425] inception_3a/output <- inception_3a/1x1
I0403 19:51:53.479636  9778 net.cpp:425] inception_3a/output <- inception_3a/3x3
I0403 19:51:53.479661  9778 net.cpp:425] inception_3a/output <- inception_3a/5x5
I0403 19:51:53.479687  9778 net.cpp:425] inception_3a/output <- inception_3a/pool_proj
I0403 19:51:53.479720  9778 net.cpp:399] inception_3a/output -> inception_3a/output
I0403 19:51:53.479768  9778 net.cpp:141] Setting up inception_3a/output
I0403 19:51:53.479791  9778 net.cpp:148] Top shape: 24 256 28 28 (4816896)
I0403 19:51:53.479806  9778 net.cpp:156] Memory required for data: 580437024
I0403 19:51:53.479821  9778 layer_factory.hpp:77] Creating layer inception_3a/output_inception_3a/output_0_split
I0403 19:51:53.479842  9778 net.cpp:91] Creating Layer inception_3a/output_inception_3a/output_0_split
I0403 19:51:53.479859  9778 net.cpp:425] inception_3a/output_inception_3a/output_0_split <- inception_3a/output
I0403 19:51:53.479876  9778 net.cpp:399] inception_3a/output_inception_3a/output_0_split -> inception_3a/output_inception_3a/output_0_split_0
I0403 19:51:53.479899  9778 net.cpp:399] inception_3a/output_inception_3a/output_0_split -> inception_3a/output_inception_3a/output_0_split_1
I0403 19:51:53.479933  9778 net.cpp:399] inception_3a/output_inception_3a/output_0_split -> inception_3a/output_inception_3a/output_0_split_2
I0403 19:51:53.479955  9778 net.cpp:399] inception_3a/output_inception_3a/output_0_split -> inception_3a/output_inception_3a/output_0_split_3
I0403 19:51:53.480032  9778 net.cpp:141] Setting up inception_3a/output_inception_3a/output_0_split
I0403 19:51:53.480059  9778 net.cpp:148] Top shape: 24 256 28 28 (4816896)
I0403 19:51:53.480078  9778 net.cpp:148] Top shape: 24 256 28 28 (4816896)
I0403 19:51:53.480095  9778 net.cpp:148] Top shape: 24 256 28 28 (4816896)
I0403 19:51:53.480111  9778 net.cpp:148] Top shape: 24 256 28 28 (4816896)
I0403 19:51:53.480126  9778 net.cpp:156] Memory required for data: 657507360
I0403 19:51:53.480141  9778 layer_factory.hpp:77] Creating layer inception_3b/1x1
I0403 19:51:53.480165  9778 net.cpp:91] Creating Layer inception_3b/1x1
I0403 19:51:53.480187  9778 net.cpp:425] inception_3b/1x1 <- inception_3a/output_inception_3a/output_0_split_0
I0403 19:51:53.480211  9778 net.cpp:399] inception_3b/1x1 -> inception_3b/1x1
I0403 19:51:53.481389  9778 net.cpp:141] Setting up inception_3b/1x1
I0403 19:51:53.481433  9778 net.cpp:148] Top shape: 24 128 28 28 (2408448)
I0403 19:51:53.481451  9778 net.cpp:156] Memory required for data: 667141152
I0403 19:51:53.481472  9778 layer_factory.hpp:77] Creating layer inception_3b/relu_1x1
I0403 19:51:53.481490  9778 net.cpp:91] Creating Layer inception_3b/relu_1x1
I0403 19:51:53.481506  9778 net.cpp:425] inception_3b/relu_1x1 <- inception_3b/1x1
I0403 19:51:53.481524  9778 net.cpp:386] inception_3b/relu_1x1 -> inception_3b/1x1 (in-place)
I0403 19:51:53.481709  9778 net.cpp:141] Setting up inception_3b/relu_1x1
I0403 19:51:53.481734  9778 net.cpp:148] Top shape: 24 128 28 28 (2408448)
I0403 19:51:53.481750  9778 net.cpp:156] Memory required for data: 676774944
I0403 19:51:53.481765  9778 layer_factory.hpp:77] Creating layer inception_3b/3x3_reduce
I0403 19:51:53.481788  9778 net.cpp:91] Creating Layer inception_3b/3x3_reduce
I0403 19:51:53.481807  9778 net.cpp:425] inception_3b/3x3_reduce <- inception_3a/output_inception_3a/output_0_split_1
I0403 19:51:53.481830  9778 net.cpp:399] inception_3b/3x3_reduce -> inception_3b/3x3_reduce
I0403 19:51:53.483005  9778 net.cpp:141] Setting up inception_3b/3x3_reduce
I0403 19:51:53.483036  9778 net.cpp:148] Top shape: 24 128 28 28 (2408448)
I0403 19:51:53.483053  9778 net.cpp:156] Memory required for data: 686408736
I0403 19:51:53.483073  9778 layer_factory.hpp:77] Creating layer inception_3b/relu_3x3_reduce
I0403 19:51:53.483093  9778 net.cpp:91] Creating Layer inception_3b/relu_3x3_reduce
I0403 19:51:53.483108  9778 net.cpp:425] inception_3b/relu_3x3_reduce <- inception_3b/3x3_reduce
I0403 19:51:53.483129  9778 net.cpp:386] inception_3b/relu_3x3_reduce -> inception_3b/3x3_reduce (in-place)
I0403 19:51:53.483321  9778 net.cpp:141] Setting up inception_3b/relu_3x3_reduce
I0403 19:51:53.483347  9778 net.cpp:148] Top shape: 24 128 28 28 (2408448)
I0403 19:51:53.483363  9778 net.cpp:156] Memory required for data: 696042528
I0403 19:51:53.483378  9778 layer_factory.hpp:77] Creating layer inception_3b/3x3
I0403 19:51:53.483409  9778 net.cpp:91] Creating Layer inception_3b/3x3
I0403 19:51:53.483429  9778 net.cpp:425] inception_3b/3x3 <- inception_3b/3x3_reduce
I0403 19:51:53.483449  9778 net.cpp:399] inception_3b/3x3 -> inception_3b/3x3
I0403 19:51:53.486479  9778 net.cpp:141] Setting up inception_3b/3x3
I0403 19:51:53.486510  9778 net.cpp:148] Top shape: 24 192 28 28 (3612672)
I0403 19:51:53.486526  9778 net.cpp:156] Memory required for data: 710493216
I0403 19:51:53.486546  9778 layer_factory.hpp:77] Creating layer inception_3b/relu_3x3
I0403 19:51:53.486564  9778 net.cpp:91] Creating Layer inception_3b/relu_3x3
I0403 19:51:53.486582  9778 net.cpp:425] inception_3b/relu_3x3 <- inception_3b/3x3
I0403 19:51:53.486603  9778 net.cpp:386] inception_3b/relu_3x3 -> inception_3b/3x3 (in-place)
I0403 19:51:53.486887  9778 net.cpp:141] Setting up inception_3b/relu_3x3
I0403 19:51:53.486914  9778 net.cpp:148] Top shape: 24 192 28 28 (3612672)
I0403 19:51:53.486930  9778 net.cpp:156] Memory required for data: 724943904
I0403 19:51:53.486945  9778 layer_factory.hpp:77] Creating layer inception_3b/5x5_reduce
I0403 19:51:53.486970  9778 net.cpp:91] Creating Layer inception_3b/5x5_reduce
I0403 19:51:53.486989  9778 net.cpp:425] inception_3b/5x5_reduce <- inception_3a/output_inception_3a/output_0_split_2
I0403 19:51:53.487011  9778 net.cpp:399] inception_3b/5x5_reduce -> inception_3b/5x5_reduce
I0403 19:51:53.488042  9778 net.cpp:141] Setting up inception_3b/5x5_reduce
I0403 19:51:53.488073  9778 net.cpp:148] Top shape: 24 32 28 28 (602112)
I0403 19:51:53.488096  9778 net.cpp:156] Memory required for data: 727352352
I0403 19:51:53.488116  9778 layer_factory.hpp:77] Creating layer inception_3b/relu_5x5_reduce
I0403 19:51:53.488134  9778 net.cpp:91] Creating Layer inception_3b/relu_5x5_reduce
I0403 19:51:53.488152  9778 net.cpp:425] inception_3b/relu_5x5_reduce <- inception_3b/5x5_reduce
I0403 19:51:53.488171  9778 net.cpp:386] inception_3b/relu_5x5_reduce -> inception_3b/5x5_reduce (in-place)
I0403 19:51:53.488409  9778 net.cpp:141] Setting up inception_3b/relu_5x5_reduce
I0403 19:51:53.488433  9778 net.cpp:148] Top shape: 24 32 28 28 (602112)
I0403 19:51:53.488448  9778 net.cpp:156] Memory required for data: 729760800
I0403 19:51:53.488462  9778 layer_factory.hpp:77] Creating layer inception_3b/5x5
I0403 19:51:53.488484  9778 net.cpp:91] Creating Layer inception_3b/5x5
I0403 19:51:53.488502  9778 net.cpp:425] inception_3b/5x5 <- inception_3b/5x5_reduce
I0403 19:51:53.488524  9778 net.cpp:399] inception_3b/5x5 -> inception_3b/5x5
I0403 19:51:53.490466  9778 net.cpp:141] Setting up inception_3b/5x5
I0403 19:51:53.490494  9778 net.cpp:148] Top shape: 24 96 28 28 (1806336)
I0403 19:51:53.490510  9778 net.cpp:156] Memory required for data: 736986144
I0403 19:51:53.490528  9778 layer_factory.hpp:77] Creating layer inception_3b/relu_5x5
I0403 19:51:53.490548  9778 net.cpp:91] Creating Layer inception_3b/relu_5x5
I0403 19:51:53.490564  9778 net.cpp:425] inception_3b/relu_5x5 <- inception_3b/5x5
I0403 19:51:53.490582  9778 net.cpp:386] inception_3b/relu_5x5 -> inception_3b/5x5 (in-place)
I0403 19:51:53.490773  9778 net.cpp:141] Setting up inception_3b/relu_5x5
I0403 19:51:53.490798  9778 net.cpp:148] Top shape: 24 96 28 28 (1806336)
I0403 19:51:53.490813  9778 net.cpp:156] Memory required for data: 744211488
I0403 19:51:53.490828  9778 layer_factory.hpp:77] Creating layer inception_3b/pool
I0403 19:51:53.490845  9778 net.cpp:91] Creating Layer inception_3b/pool
I0403 19:51:53.490861  9778 net.cpp:425] inception_3b/pool <- inception_3a/output_inception_3a/output_0_split_3
I0403 19:51:53.490878  9778 net.cpp:399] inception_3b/pool -> inception_3b/pool
I0403 19:51:53.490934  9778 net.cpp:141] Setting up inception_3b/pool
I0403 19:51:53.490957  9778 net.cpp:148] Top shape: 24 256 28 28 (4816896)
I0403 19:51:53.490972  9778 net.cpp:156] Memory required for data: 763479072
I0403 19:51:53.490988  9778 layer_factory.hpp:77] Creating layer inception_3b/pool_proj
I0403 19:51:53.491011  9778 net.cpp:91] Creating Layer inception_3b/pool_proj
I0403 19:51:53.491029  9778 net.cpp:425] inception_3b/pool_proj <- inception_3b/pool
I0403 19:51:53.491047  9778 net.cpp:399] inception_3b/pool_proj -> inception_3b/pool_proj
I0403 19:51:53.492076  9778 net.cpp:141] Setting up inception_3b/pool_proj
I0403 19:51:53.492105  9778 net.cpp:148] Top shape: 24 64 28 28 (1204224)
I0403 19:51:53.492120  9778 net.cpp:156] Memory required for data: 768295968
I0403 19:51:53.492138  9778 layer_factory.hpp:77] Creating layer inception_3b/relu_pool_proj
I0403 19:51:53.492157  9778 net.cpp:91] Creating Layer inception_3b/relu_pool_proj
I0403 19:51:53.492175  9778 net.cpp:425] inception_3b/relu_pool_proj <- inception_3b/pool_proj
I0403 19:51:53.492198  9778 net.cpp:386] inception_3b/relu_pool_proj -> inception_3b/pool_proj (in-place)
I0403 19:51:53.492584  9778 net.cpp:141] Setting up inception_3b/relu_pool_proj
I0403 19:51:53.492610  9778 net.cpp:148] Top shape: 24 64 28 28 (1204224)
I0403 19:51:53.492625  9778 net.cpp:156] Memory required for data: 773112864
I0403 19:51:53.492640  9778 layer_factory.hpp:77] Creating layer inception_3b/output
I0403 19:51:53.492657  9778 net.cpp:91] Creating Layer inception_3b/output
I0403 19:51:53.492672  9778 net.cpp:425] inception_3b/output <- inception_3b/1x1
I0403 19:51:53.492688  9778 net.cpp:425] inception_3b/output <- inception_3b/3x3
I0403 19:51:53.492707  9778 net.cpp:425] inception_3b/output <- inception_3b/5x5
I0403 19:51:53.492722  9778 net.cpp:425] inception_3b/output <- inception_3b/pool_proj
I0403 19:51:53.492739  9778 net.cpp:399] inception_3b/output -> inception_3b/output
I0403 19:51:53.492781  9778 net.cpp:141] Setting up inception_3b/output
I0403 19:51:53.492806  9778 net.cpp:148] Top shape: 24 480 28 28 (9031680)
I0403 19:51:53.492821  9778 net.cpp:156] Memory required for data: 809239584
I0403 19:51:53.492835  9778 layer_factory.hpp:77] Creating layer pool3/3x3_s2
I0403 19:51:53.492852  9778 net.cpp:91] Creating Layer pool3/3x3_s2
I0403 19:51:53.492867  9778 net.cpp:425] pool3/3x3_s2 <- inception_3b/output
I0403 19:51:53.492902  9778 net.cpp:399] pool3/3x3_s2 -> pool3/3x3_s2
I0403 19:51:53.492959  9778 net.cpp:141] Setting up pool3/3x3_s2
I0403 19:51:53.492982  9778 net.cpp:148] Top shape: 24 480 14 14 (2257920)
I0403 19:51:53.492996  9778 net.cpp:156] Memory required for data: 818271264
I0403 19:51:53.493010  9778 layer_factory.hpp:77] Creating layer pool3/3x3_s2_pool3/3x3_s2_0_split
I0403 19:51:53.493029  9778 net.cpp:91] Creating Layer pool3/3x3_s2_pool3/3x3_s2_0_split
I0403 19:51:53.493046  9778 net.cpp:425] pool3/3x3_s2_pool3/3x3_s2_0_split <- pool3/3x3_s2
I0403 19:51:53.493062  9778 net.cpp:399] pool3/3x3_s2_pool3/3x3_s2_0_split -> pool3/3x3_s2_pool3/3x3_s2_0_split_0
I0403 19:51:53.493080  9778 net.cpp:399] pool3/3x3_s2_pool3/3x3_s2_0_split -> pool3/3x3_s2_pool3/3x3_s2_0_split_1
I0403 19:51:53.493099  9778 net.cpp:399] pool3/3x3_s2_pool3/3x3_s2_0_split -> pool3/3x3_s2_pool3/3x3_s2_0_split_2
I0403 19:51:53.493120  9778 net.cpp:399] pool3/3x3_s2_pool3/3x3_s2_0_split -> pool3/3x3_s2_pool3/3x3_s2_0_split_3
I0403 19:51:53.493224  9778 net.cpp:141] Setting up pool3/3x3_s2_pool3/3x3_s2_0_split
I0403 19:51:53.493249  9778 net.cpp:148] Top shape: 24 480 14 14 (2257920)
I0403 19:51:53.493266  9778 net.cpp:148] Top shape: 24 480 14 14 (2257920)
I0403 19:51:53.493283  9778 net.cpp:148] Top shape: 24 480 14 14 (2257920)
I0403 19:51:53.493299  9778 net.cpp:148] Top shape: 24 480 14 14 (2257920)
I0403 19:51:53.493314  9778 net.cpp:156] Memory required for data: 854397984
I0403 19:51:53.493329  9778 layer_factory.hpp:77] Creating layer inception_4a/1x1
I0403 19:51:53.493351  9778 net.cpp:91] Creating Layer inception_4a/1x1
I0403 19:51:53.493369  9778 net.cpp:425] inception_4a/1x1 <- pool3/3x3_s2_pool3/3x3_s2_0_split_0
I0403 19:51:53.493391  9778 net.cpp:399] inception_4a/1x1 -> inception_4a/1x1
I0403 19:51:53.494951  9778 net.cpp:141] Setting up inception_4a/1x1
I0403 19:51:53.494978  9778 net.cpp:148] Top shape: 24 192 14 14 (903168)
I0403 19:51:53.494993  9778 net.cpp:156] Memory required for data: 858010656
I0403 19:51:53.495012  9778 layer_factory.hpp:77] Creating layer inception_4a/relu_1x1
I0403 19:51:53.495031  9778 net.cpp:91] Creating Layer inception_4a/relu_1x1
I0403 19:51:53.495048  9778 net.cpp:425] inception_4a/relu_1x1 <- inception_4a/1x1
I0403 19:51:53.495064  9778 net.cpp:386] inception_4a/relu_1x1 -> inception_4a/1x1 (in-place)
I0403 19:51:53.495240  9778 net.cpp:141] Setting up inception_4a/relu_1x1
I0403 19:51:53.495270  9778 net.cpp:148] Top shape: 24 192 14 14 (903168)
I0403 19:51:53.495287  9778 net.cpp:156] Memory required for data: 861623328
I0403 19:51:53.495302  9778 layer_factory.hpp:77] Creating layer inception_4a/3x3_reduce
I0403 19:51:53.495324  9778 net.cpp:91] Creating Layer inception_4a/3x3_reduce
I0403 19:51:53.495342  9778 net.cpp:425] inception_4a/3x3_reduce <- pool3/3x3_s2_pool3/3x3_s2_0_split_1
I0403 19:51:53.495362  9778 net.cpp:399] inception_4a/3x3_reduce -> inception_4a/3x3_reduce
I0403 19:51:53.496620  9778 net.cpp:141] Setting up inception_4a/3x3_reduce
I0403 19:51:53.496649  9778 net.cpp:148] Top shape: 24 96 14 14 (451584)
I0403 19:51:53.496664  9778 net.cpp:156] Memory required for data: 863429664
I0403 19:51:53.496688  9778 layer_factory.hpp:77] Creating layer inception_4a/relu_3x3_reduce
I0403 19:51:53.496708  9778 net.cpp:91] Creating Layer inception_4a/relu_3x3_reduce
I0403 19:51:53.496724  9778 net.cpp:425] inception_4a/relu_3x3_reduce <- inception_4a/3x3_reduce
I0403 19:51:53.496743  9778 net.cpp:386] inception_4a/relu_3x3_reduce -> inception_4a/3x3_reduce (in-place)
I0403 19:51:53.496917  9778 net.cpp:141] Setting up inception_4a/relu_3x3_reduce
I0403 19:51:53.496943  9778 net.cpp:148] Top shape: 24 96 14 14 (451584)
I0403 19:51:53.496958  9778 net.cpp:156] Memory required for data: 865236000
I0403 19:51:53.496973  9778 layer_factory.hpp:77] Creating layer inception_4a/3x3
I0403 19:51:53.496995  9778 net.cpp:91] Creating Layer inception_4a/3x3
I0403 19:51:53.497012  9778 net.cpp:425] inception_4a/3x3 <- inception_4a/3x3_reduce
I0403 19:51:53.497031  9778 net.cpp:399] inception_4a/3x3 -> inception_4a/3x3
I0403 19:51:53.499776  9778 net.cpp:141] Setting up inception_4a/3x3
I0403 19:51:53.499806  9778 net.cpp:148] Top shape: 24 208 14 14 (978432)
I0403 19:51:53.499824  9778 net.cpp:156] Memory required for data: 869149728
I0403 19:51:53.499842  9778 layer_factory.hpp:77] Creating layer inception_4a/relu_3x3
I0403 19:51:53.499861  9778 net.cpp:91] Creating Layer inception_4a/relu_3x3
I0403 19:51:53.499877  9778 net.cpp:425] inception_4a/relu_3x3 <- inception_4a/3x3
I0403 19:51:53.499899  9778 net.cpp:386] inception_4a/relu_3x3 -> inception_4a/3x3 (in-place)
I0403 19:51:53.500180  9778 net.cpp:141] Setting up inception_4a/relu_3x3
I0403 19:51:53.500211  9778 net.cpp:148] Top shape: 24 208 14 14 (978432)
I0403 19:51:53.500226  9778 net.cpp:156] Memory required for data: 873063456
I0403 19:51:53.500241  9778 layer_factory.hpp:77] Creating layer inception_4a/5x5_reduce
I0403 19:51:53.500267  9778 net.cpp:91] Creating Layer inception_4a/5x5_reduce
I0403 19:51:53.500288  9778 net.cpp:425] inception_4a/5x5_reduce <- pool3/3x3_s2_pool3/3x3_s2_0_split_2
I0403 19:51:53.500306  9778 net.cpp:399] inception_4a/5x5_reduce -> inception_4a/5x5_reduce
I0403 19:51:53.501407  9778 net.cpp:141] Setting up inception_4a/5x5_reduce
I0403 19:51:53.501440  9778 net.cpp:148] Top shape: 24 16 14 14 (75264)
I0403 19:51:53.501457  9778 net.cpp:156] Memory required for data: 873364512
I0403 19:51:53.501476  9778 layer_factory.hpp:77] Creating layer inception_4a/relu_5x5_reduce
I0403 19:51:53.501493  9778 net.cpp:91] Creating Layer inception_4a/relu_5x5_reduce
I0403 19:51:53.501510  9778 net.cpp:425] inception_4a/relu_5x5_reduce <- inception_4a/5x5_reduce
I0403 19:51:53.501531  9778 net.cpp:386] inception_4a/relu_5x5_reduce -> inception_4a/5x5_reduce (in-place)
I0403 19:51:53.501711  9778 net.cpp:141] Setting up inception_4a/relu_5x5_reduce
I0403 19:51:53.501737  9778 net.cpp:148] Top shape: 24 16 14 14 (75264)
I0403 19:51:53.501752  9778 net.cpp:156] Memory required for data: 873665568
I0403 19:51:53.501766  9778 layer_factory.hpp:77] Creating layer inception_4a/5x5
I0403 19:51:53.501788  9778 net.cpp:91] Creating Layer inception_4a/5x5
I0403 19:51:53.501806  9778 net.cpp:425] inception_4a/5x5 <- inception_4a/5x5_reduce
I0403 19:51:53.501828  9778 net.cpp:399] inception_4a/5x5 -> inception_4a/5x5
I0403 19:51:53.502935  9778 net.cpp:141] Setting up inception_4a/5x5
I0403 19:51:53.502964  9778 net.cpp:148] Top shape: 24 48 14 14 (225792)
I0403 19:51:53.502979  9778 net.cpp:156] Memory required for data: 874568736
I0403 19:51:53.502998  9778 layer_factory.hpp:77] Creating layer inception_4a/relu_5x5
I0403 19:51:53.503020  9778 net.cpp:91] Creating Layer inception_4a/relu_5x5
I0403 19:51:53.503036  9778 net.cpp:425] inception_4a/relu_5x5 <- inception_4a/5x5
I0403 19:51:53.503054  9778 net.cpp:386] inception_4a/relu_5x5 -> inception_4a/5x5 (in-place)
I0403 19:51:53.503250  9778 net.cpp:141] Setting up inception_4a/relu_5x5
I0403 19:51:53.503278  9778 net.cpp:148] Top shape: 24 48 14 14 (225792)
I0403 19:51:53.503294  9778 net.cpp:156] Memory required for data: 875471904
I0403 19:51:53.503310  9778 layer_factory.hpp:77] Creating layer inception_4a/pool
I0403 19:51:53.503330  9778 net.cpp:91] Creating Layer inception_4a/pool
I0403 19:51:53.503346  9778 net.cpp:425] inception_4a/pool <- pool3/3x3_s2_pool3/3x3_s2_0_split_3
I0403 19:51:53.503365  9778 net.cpp:399] inception_4a/pool -> inception_4a/pool
I0403 19:51:53.503428  9778 net.cpp:141] Setting up inception_4a/pool
I0403 19:51:53.503453  9778 net.cpp:148] Top shape: 24 480 14 14 (2257920)
I0403 19:51:53.503466  9778 net.cpp:156] Memory required for data: 884503584
I0403 19:51:53.503482  9778 layer_factory.hpp:77] Creating layer inception_4a/pool_proj
I0403 19:51:53.503504  9778 net.cpp:91] Creating Layer inception_4a/pool_proj
I0403 19:51:53.503521  9778 net.cpp:425] inception_4a/pool_proj <- inception_4a/pool
I0403 19:51:53.503542  9778 net.cpp:399] inception_4a/pool_proj -> inception_4a/pool_proj
I0403 19:51:53.504736  9778 net.cpp:141] Setting up inception_4a/pool_proj
I0403 19:51:53.504766  9778 net.cpp:148] Top shape: 24 64 14 14 (301056)
I0403 19:51:53.504797  9778 net.cpp:156] Memory required for data: 885707808
I0403 19:51:53.504817  9778 layer_factory.hpp:77] Creating layer inception_4a/relu_pool_proj
I0403 19:51:53.504838  9778 net.cpp:91] Creating Layer inception_4a/relu_pool_proj
I0403 19:51:53.504856  9778 net.cpp:425] inception_4a/relu_pool_proj <- inception_4a/pool_proj
I0403 19:51:53.504875  9778 net.cpp:386] inception_4a/relu_pool_proj -> inception_4a/pool_proj (in-place)
I0403 19:51:53.505162  9778 net.cpp:141] Setting up inception_4a/relu_pool_proj
I0403 19:51:53.505194  9778 net.cpp:148] Top shape: 24 64 14 14 (301056)
I0403 19:51:53.505209  9778 net.cpp:156] Memory required for data: 886912032
I0403 19:51:53.505224  9778 layer_factory.hpp:77] Creating layer inception_4a/output
I0403 19:51:53.505244  9778 net.cpp:91] Creating Layer inception_4a/output
I0403 19:51:53.505262  9778 net.cpp:425] inception_4a/output <- inception_4a/1x1
I0403 19:51:53.505281  9778 net.cpp:425] inception_4a/output <- inception_4a/3x3
I0403 19:51:53.505297  9778 net.cpp:425] inception_4a/output <- inception_4a/5x5
I0403 19:51:53.505313  9778 net.cpp:425] inception_4a/output <- inception_4a/pool_proj
I0403 19:51:53.505331  9778 net.cpp:399] inception_4a/output -> inception_4a/output
I0403 19:51:53.505378  9778 net.cpp:141] Setting up inception_4a/output
I0403 19:51:53.505400  9778 net.cpp:148] Top shape: 24 512 14 14 (2408448)
I0403 19:51:53.505415  9778 net.cpp:156] Memory required for data: 896545824
I0403 19:51:53.505431  9778 layer_factory.hpp:77] Creating layer inception_4a/output_inception_4a/output_0_split
I0403 19:51:53.505450  9778 net.cpp:91] Creating Layer inception_4a/output_inception_4a/output_0_split
I0403 19:51:53.505465  9778 net.cpp:425] inception_4a/output_inception_4a/output_0_split <- inception_4a/output
I0403 19:51:53.505486  9778 net.cpp:399] inception_4a/output_inception_4a/output_0_split -> inception_4a/output_inception_4a/output_0_split_0
I0403 19:51:53.505506  9778 net.cpp:399] inception_4a/output_inception_4a/output_0_split -> inception_4a/output_inception_4a/output_0_split_1
I0403 19:51:53.505527  9778 net.cpp:399] inception_4a/output_inception_4a/output_0_split -> inception_4a/output_inception_4a/output_0_split_2
I0403 19:51:53.505548  9778 net.cpp:399] inception_4a/output_inception_4a/output_0_split -> inception_4a/output_inception_4a/output_0_split_3
I0403 19:51:53.505570  9778 net.cpp:399] inception_4a/output_inception_4a/output_0_split -> inception_4a/output_inception_4a/output_0_split_4
I0403 19:51:53.505666  9778 net.cpp:141] Setting up inception_4a/output_inception_4a/output_0_split
I0403 19:51:53.505689  9778 net.cpp:148] Top shape: 24 512 14 14 (2408448)
I0403 19:51:53.505708  9778 net.cpp:148] Top shape: 24 512 14 14 (2408448)
I0403 19:51:53.505725  9778 net.cpp:148] Top shape: 24 512 14 14 (2408448)
I0403 19:51:53.505741  9778 net.cpp:148] Top shape: 24 512 14 14 (2408448)
I0403 19:51:53.505758  9778 net.cpp:148] Top shape: 24 512 14 14 (2408448)
I0403 19:51:53.505771  9778 net.cpp:156] Memory required for data: 944714784
I0403 19:51:53.505786  9778 layer_factory.hpp:77] Creating layer loss1/ave_pool
I0403 19:51:53.505803  9778 net.cpp:91] Creating Layer loss1/ave_pool
I0403 19:51:53.505820  9778 net.cpp:425] loss1/ave_pool <- inception_4a/output_inception_4a/output_0_split_0
I0403 19:51:53.505841  9778 net.cpp:399] loss1/ave_pool -> loss1/ave_pool
I0403 19:51:53.506068  9778 net.cpp:141] Setting up loss1/ave_pool
I0403 19:51:53.506095  9778 net.cpp:148] Top shape: 24 512 4 4 (196608)
I0403 19:51:53.506110  9778 net.cpp:156] Memory required for data: 945501216
I0403 19:51:53.506126  9778 layer_factory.hpp:77] Creating layer loss1/conv
I0403 19:51:53.506148  9778 net.cpp:91] Creating Layer loss1/conv
I0403 19:51:53.506166  9778 net.cpp:425] loss1/conv <- loss1/ave_pool
I0403 19:51:53.506192  9778 net.cpp:399] loss1/conv -> loss1/conv
I0403 19:51:53.507643  9778 net.cpp:141] Setting up loss1/conv
I0403 19:51:53.507674  9778 net.cpp:148] Top shape: 24 128 4 4 (49152)
I0403 19:51:53.507704  9778 net.cpp:156] Memory required for data: 945697824
I0403 19:51:53.507725  9778 layer_factory.hpp:77] Creating layer loss1/relu_conv
I0403 19:51:53.507743  9778 net.cpp:91] Creating Layer loss1/relu_conv
I0403 19:51:53.507760  9778 net.cpp:425] loss1/relu_conv <- loss1/conv
I0403 19:51:53.507778  9778 net.cpp:386] loss1/relu_conv -> loss1/conv (in-place)
I0403 19:51:53.508067  9778 net.cpp:141] Setting up loss1/relu_conv
I0403 19:51:53.508097  9778 net.cpp:148] Top shape: 24 128 4 4 (49152)
I0403 19:51:53.508114  9778 net.cpp:156] Memory required for data: 945894432
I0403 19:51:53.508129  9778 layer_factory.hpp:77] Creating layer loss1/fc
I0403 19:51:53.508153  9778 net.cpp:91] Creating Layer loss1/fc
I0403 19:51:53.508172  9778 net.cpp:425] loss1/fc <- loss1/conv
I0403 19:51:53.508199  9778 net.cpp:399] loss1/fc -> loss1/fc
I0403 19:51:53.526273  9778 net.cpp:141] Setting up loss1/fc
I0403 19:51:53.526325  9778 net.cpp:148] Top shape: 24 1024 (24576)
I0403 19:51:53.526341  9778 net.cpp:156] Memory required for data: 945992736
I0403 19:51:53.526360  9778 layer_factory.hpp:77] Creating layer loss1/relu_fc
I0403 19:51:53.526381  9778 net.cpp:91] Creating Layer loss1/relu_fc
I0403 19:51:53.526398  9778 net.cpp:425] loss1/relu_fc <- loss1/fc
I0403 19:51:53.526417  9778 net.cpp:386] loss1/relu_fc -> loss1/fc (in-place)
I0403 19:51:53.526619  9778 net.cpp:141] Setting up loss1/relu_fc
I0403 19:51:53.526645  9778 net.cpp:148] Top shape: 24 1024 (24576)
I0403 19:51:53.526660  9778 net.cpp:156] Memory required for data: 946091040
I0403 19:51:53.526676  9778 layer_factory.hpp:77] Creating layer loss1/drop_fc
I0403 19:51:53.526703  9778 net.cpp:91] Creating Layer loss1/drop_fc
I0403 19:51:53.526720  9778 net.cpp:425] loss1/drop_fc <- loss1/fc
I0403 19:51:53.526736  9778 net.cpp:386] loss1/drop_fc -> loss1/fc (in-place)
I0403 19:51:53.526789  9778 net.cpp:141] Setting up loss1/drop_fc
I0403 19:51:53.526813  9778 net.cpp:148] Top shape: 24 1024 (24576)
I0403 19:51:53.526826  9778 net.cpp:156] Memory required for data: 946189344
I0403 19:51:53.526841  9778 layer_factory.hpp:77] Creating layer loss1/classifier_plantvillage
I0403 19:51:53.526864  9778 net.cpp:91] Creating Layer loss1/classifier_plantvillage
I0403 19:51:53.526878  9778 net.cpp:425] loss1/classifier_plantvillage <- loss1/fc
I0403 19:51:53.526895  9778 net.cpp:399] loss1/classifier_plantvillage -> loss1/classifier_plantvillage
I0403 19:51:53.527786  9778 net.cpp:141] Setting up loss1/classifier_plantvillage
I0403 19:51:53.527813  9778 net.cpp:148] Top shape: 24 38 (912)
I0403 19:51:53.527828  9778 net.cpp:156] Memory required for data: 946192992
I0403 19:51:53.527847  9778 layer_factory.hpp:77] Creating layer loss1/classifier_plantvillage_loss1/classifier_plantvillage_0_split
I0403 19:51:53.527866  9778 net.cpp:91] Creating Layer loss1/classifier_plantvillage_loss1/classifier_plantvillage_0_split
I0403 19:51:53.527883  9778 net.cpp:425] loss1/classifier_plantvillage_loss1/classifier_plantvillage_0_split <- loss1/classifier_plantvillage
I0403 19:51:53.527899  9778 net.cpp:399] loss1/classifier_plantvillage_loss1/classifier_plantvillage_0_split -> loss1/classifier_plantvillage_loss1/classifier_plantvillage_0_split_0
I0403 19:51:53.527918  9778 net.cpp:399] loss1/classifier_plantvillage_loss1/classifier_plantvillage_0_split -> loss1/classifier_plantvillage_loss1/classifier_plantvillage_0_split_1
I0403 19:51:53.527941  9778 net.cpp:399] loss1/classifier_plantvillage_loss1/classifier_plantvillage_0_split -> loss1/classifier_plantvillage_loss1/classifier_plantvillage_0_split_2
I0403 19:51:53.528004  9778 net.cpp:141] Setting up loss1/classifier_plantvillage_loss1/classifier_plantvillage_0_split
I0403 19:51:53.528026  9778 net.cpp:148] Top shape: 24 38 (912)
I0403 19:51:53.528041  9778 net.cpp:148] Top shape: 24 38 (912)
I0403 19:51:53.528056  9778 net.cpp:148] Top shape: 24 38 (912)
I0403 19:51:53.528070  9778 net.cpp:156] Memory required for data: 946203936
I0403 19:51:53.528084  9778 layer_factory.hpp:77] Creating layer inception_4b/1x1
I0403 19:51:53.528105  9778 net.cpp:91] Creating Layer inception_4b/1x1
I0403 19:51:53.528146  9778 net.cpp:425] inception_4b/1x1 <- inception_4a/output_inception_4a/output_0_split_1
I0403 19:51:53.528165  9778 net.cpp:399] inception_4b/1x1 -> inception_4b/1x1
I0403 19:51:53.529778  9778 net.cpp:141] Setting up inception_4b/1x1
I0403 19:51:53.529806  9778 net.cpp:148] Top shape: 24 160 14 14 (752640)
I0403 19:51:53.529824  9778 net.cpp:156] Memory required for data: 949214496
I0403 19:51:53.529841  9778 layer_factory.hpp:77] Creating layer inception_4b/relu_1x1
I0403 19:51:53.529858  9778 net.cpp:91] Creating Layer inception_4b/relu_1x1
I0403 19:51:53.529872  9778 net.cpp:425] inception_4b/relu_1x1 <- inception_4b/1x1
I0403 19:51:53.529894  9778 net.cpp:386] inception_4b/relu_1x1 -> inception_4b/1x1 (in-place)
I0403 19:51:53.530066  9778 net.cpp:141] Setting up inception_4b/relu_1x1
I0403 19:51:53.530089  9778 net.cpp:148] Top shape: 24 160 14 14 (752640)
I0403 19:51:53.530104  9778 net.cpp:156] Memory required for data: 952225056
I0403 19:51:53.530118  9778 layer_factory.hpp:77] Creating layer inception_4b/3x3_reduce
I0403 19:51:53.530141  9778 net.cpp:91] Creating Layer inception_4b/3x3_reduce
I0403 19:51:53.530159  9778 net.cpp:425] inception_4b/3x3_reduce <- inception_4a/output_inception_4a/output_0_split_2
I0403 19:51:53.530184  9778 net.cpp:399] inception_4b/3x3_reduce -> inception_4b/3x3_reduce
I0403 19:51:53.531481  9778 net.cpp:141] Setting up inception_4b/3x3_reduce
I0403 19:51:53.531507  9778 net.cpp:148] Top shape: 24 112 14 14 (526848)
I0403 19:51:53.531522  9778 net.cpp:156] Memory required for data: 954332448
I0403 19:51:53.531540  9778 layer_factory.hpp:77] Creating layer inception_4b/relu_3x3_reduce
I0403 19:51:53.531558  9778 net.cpp:91] Creating Layer inception_4b/relu_3x3_reduce
I0403 19:51:53.531574  9778 net.cpp:425] inception_4b/relu_3x3_reduce <- inception_4b/3x3_reduce
I0403 19:51:53.531594  9778 net.cpp:386] inception_4b/relu_3x3_reduce -> inception_4b/3x3_reduce (in-place)
I0403 19:51:53.531883  9778 net.cpp:141] Setting up inception_4b/relu_3x3_reduce
I0403 19:51:53.531908  9778 net.cpp:148] Top shape: 24 112 14 14 (526848)
I0403 19:51:53.531924  9778 net.cpp:156] Memory required for data: 956439840
I0403 19:51:53.531937  9778 layer_factory.hpp:77] Creating layer inception_4b/3x3
I0403 19:51:53.531960  9778 net.cpp:91] Creating Layer inception_4b/3x3
I0403 19:51:53.531978  9778 net.cpp:425] inception_4b/3x3 <- inception_4b/3x3_reduce
I0403 19:51:53.531999  9778 net.cpp:399] inception_4b/3x3 -> inception_4b/3x3
I0403 19:51:53.534921  9778 net.cpp:141] Setting up inception_4b/3x3
I0403 19:51:53.534950  9778 net.cpp:148] Top shape: 24 224 14 14 (1053696)
I0403 19:51:53.534965  9778 net.cpp:156] Memory required for data: 960654624
I0403 19:51:53.534982  9778 layer_factory.hpp:77] Creating layer inception_4b/relu_3x3
I0403 19:51:53.535001  9778 net.cpp:91] Creating Layer inception_4b/relu_3x3
I0403 19:51:53.535017  9778 net.cpp:425] inception_4b/relu_3x3 <- inception_4b/3x3
I0403 19:51:53.535034  9778 net.cpp:386] inception_4b/relu_3x3 -> inception_4b/3x3 (in-place)
I0403 19:51:53.535210  9778 net.cpp:141] Setting up inception_4b/relu_3x3
I0403 19:51:53.535236  9778 net.cpp:148] Top shape: 24 224 14 14 (1053696)
I0403 19:51:53.535250  9778 net.cpp:156] Memory required for data: 964869408
I0403 19:51:53.535264  9778 layer_factory.hpp:77] Creating layer inception_4b/5x5_reduce
I0403 19:51:53.535289  9778 net.cpp:91] Creating Layer inception_4b/5x5_reduce
I0403 19:51:53.535305  9778 net.cpp:425] inception_4b/5x5_reduce <- inception_4a/output_inception_4a/output_0_split_3
I0403 19:51:53.535327  9778 net.cpp:399] inception_4b/5x5_reduce -> inception_4b/5x5_reduce
I0403 19:51:53.536370  9778 net.cpp:141] Setting up inception_4b/5x5_reduce
I0403 19:51:53.536396  9778 net.cpp:148] Top shape: 24 24 14 14 (112896)
I0403 19:51:53.536412  9778 net.cpp:156] Memory required for data: 965320992
I0403 19:51:53.536430  9778 layer_factory.hpp:77] Creating layer inception_4b/relu_5x5_reduce
I0403 19:51:53.536447  9778 net.cpp:91] Creating Layer inception_4b/relu_5x5_reduce
I0403 19:51:53.536476  9778 net.cpp:425] inception_4b/relu_5x5_reduce <- inception_4b/5x5_reduce
I0403 19:51:53.536496  9778 net.cpp:386] inception_4b/relu_5x5_reduce -> inception_4b/5x5_reduce (in-place)
I0403 19:51:53.536671  9778 net.cpp:141] Setting up inception_4b/relu_5x5_reduce
I0403 19:51:53.536695  9778 net.cpp:148] Top shape: 24 24 14 14 (112896)
I0403 19:51:53.536710  9778 net.cpp:156] Memory required for data: 965772576
I0403 19:51:53.536725  9778 layer_factory.hpp:77] Creating layer inception_4b/5x5
I0403 19:51:53.536746  9778 net.cpp:91] Creating Layer inception_4b/5x5
I0403 19:51:53.536764  9778 net.cpp:425] inception_4b/5x5 <- inception_4b/5x5_reduce
I0403 19:51:53.536784  9778 net.cpp:399] inception_4b/5x5 -> inception_4b/5x5
I0403 19:51:53.537981  9778 net.cpp:141] Setting up inception_4b/5x5
I0403 19:51:53.538009  9778 net.cpp:148] Top shape: 24 64 14 14 (301056)
I0403 19:51:53.538024  9778 net.cpp:156] Memory required for data: 966976800
I0403 19:51:53.538043  9778 layer_factory.hpp:77] Creating layer inception_4b/relu_5x5
I0403 19:51:53.538059  9778 net.cpp:91] Creating Layer inception_4b/relu_5x5
I0403 19:51:53.538075  9778 net.cpp:425] inception_4b/relu_5x5 <- inception_4b/5x5
I0403 19:51:53.538094  9778 net.cpp:386] inception_4b/relu_5x5 -> inception_4b/5x5 (in-place)
I0403 19:51:53.538373  9778 net.cpp:141] Setting up inception_4b/relu_5x5
I0403 19:51:53.538401  9778 net.cpp:148] Top shape: 24 64 14 14 (301056)
I0403 19:51:53.538416  9778 net.cpp:156] Memory required for data: 968181024
I0403 19:51:53.538432  9778 layer_factory.hpp:77] Creating layer inception_4b/pool
I0403 19:51:53.538450  9778 net.cpp:91] Creating Layer inception_4b/pool
I0403 19:51:53.538465  9778 net.cpp:425] inception_4b/pool <- inception_4a/output_inception_4a/output_0_split_4
I0403 19:51:53.538485  9778 net.cpp:399] inception_4b/pool -> inception_4b/pool
I0403 19:51:53.538547  9778 net.cpp:141] Setting up inception_4b/pool
I0403 19:51:53.538570  9778 net.cpp:148] Top shape: 24 512 14 14 (2408448)
I0403 19:51:53.538584  9778 net.cpp:156] Memory required for data: 977814816
I0403 19:51:53.538599  9778 layer_factory.hpp:77] Creating layer inception_4b/pool_proj
I0403 19:51:53.538619  9778 net.cpp:91] Creating Layer inception_4b/pool_proj
I0403 19:51:53.538636  9778 net.cpp:425] inception_4b/pool_proj <- inception_4b/pool
I0403 19:51:53.538656  9778 net.cpp:399] inception_4b/pool_proj -> inception_4b/pool_proj
I0403 19:51:53.539826  9778 net.cpp:141] Setting up inception_4b/pool_proj
I0403 19:51:53.539857  9778 net.cpp:148] Top shape: 24 64 14 14 (301056)
I0403 19:51:53.539875  9778 net.cpp:156] Memory required for data: 979019040
I0403 19:51:53.539891  9778 layer_factory.hpp:77] Creating layer inception_4b/relu_pool_proj
I0403 19:51:53.539908  9778 net.cpp:91] Creating Layer inception_4b/relu_pool_proj
I0403 19:51:53.539924  9778 net.cpp:425] inception_4b/relu_pool_proj <- inception_4b/pool_proj
I0403 19:51:53.539942  9778 net.cpp:386] inception_4b/relu_pool_proj -> inception_4b/pool_proj (in-place)
I0403 19:51:53.540114  9778 net.cpp:141] Setting up inception_4b/relu_pool_proj
I0403 19:51:53.540139  9778 net.cpp:148] Top shape: 24 64 14 14 (301056)
I0403 19:51:53.540153  9778 net.cpp:156] Memory required for data: 980223264
I0403 19:51:53.540168  9778 layer_factory.hpp:77] Creating layer inception_4b/output
I0403 19:51:53.540189  9778 net.cpp:91] Creating Layer inception_4b/output
I0403 19:51:53.540205  9778 net.cpp:425] inception_4b/output <- inception_4b/1x1
I0403 19:51:53.540222  9778 net.cpp:425] inception_4b/output <- inception_4b/3x3
I0403 19:51:53.540238  9778 net.cpp:425] inception_4b/output <- inception_4b/5x5
I0403 19:51:53.540253  9778 net.cpp:425] inception_4b/output <- inception_4b/pool_proj
I0403 19:51:53.540271  9778 net.cpp:399] inception_4b/output -> inception_4b/output
I0403 19:51:53.540318  9778 net.cpp:141] Setting up inception_4b/output
I0403 19:51:53.540340  9778 net.cpp:148] Top shape: 24 512 14 14 (2408448)
I0403 19:51:53.540354  9778 net.cpp:156] Memory required for data: 989857056
I0403 19:51:53.540381  9778 layer_factory.hpp:77] Creating layer inception_4b/output_inception_4b/output_0_split
I0403 19:51:53.540400  9778 net.cpp:91] Creating Layer inception_4b/output_inception_4b/output_0_split
I0403 19:51:53.540413  9778 net.cpp:425] inception_4b/output_inception_4b/output_0_split <- inception_4b/output
I0403 19:51:53.540432  9778 net.cpp:399] inception_4b/output_inception_4b/output_0_split -> inception_4b/output_inception_4b/output_0_split_0
I0403 19:51:53.540452  9778 net.cpp:399] inception_4b/output_inception_4b/output_0_split -> inception_4b/output_inception_4b/output_0_split_1
I0403 19:51:53.540472  9778 net.cpp:399] inception_4b/output_inception_4b/output_0_split -> inception_4b/output_inception_4b/output_0_split_2
I0403 19:51:53.540491  9778 net.cpp:399] inception_4b/output_inception_4b/output_0_split -> inception_4b/output_inception_4b/output_0_split_3
I0403 19:51:53.540575  9778 net.cpp:141] Setting up inception_4b/output_inception_4b/output_0_split
I0403 19:51:53.540601  9778 net.cpp:148] Top shape: 24 512 14 14 (2408448)
I0403 19:51:53.540616  9778 net.cpp:148] Top shape: 24 512 14 14 (2408448)
I0403 19:51:53.540632  9778 net.cpp:148] Top shape: 24 512 14 14 (2408448)
I0403 19:51:53.540647  9778 net.cpp:148] Top shape: 24 512 14 14 (2408448)
I0403 19:51:53.540660  9778 net.cpp:156] Memory required for data: 1028392224
I0403 19:51:53.540673  9778 layer_factory.hpp:77] Creating layer inception_4c/1x1
I0403 19:51:53.540695  9778 net.cpp:91] Creating Layer inception_4c/1x1
I0403 19:51:53.540712  9778 net.cpp:425] inception_4c/1x1 <- inception_4b/output_inception_4b/output_0_split_0
I0403 19:51:53.540730  9778 net.cpp:399] inception_4c/1x1 -> inception_4c/1x1
I0403 19:51:53.542111  9778 net.cpp:141] Setting up inception_4c/1x1
I0403 19:51:53.542138  9778 net.cpp:148] Top shape: 24 128 14 14 (602112)
I0403 19:51:53.542155  9778 net.cpp:156] Memory required for data: 1030800672
I0403 19:51:53.542171  9778 layer_factory.hpp:77] Creating layer inception_4c/relu_1x1
I0403 19:51:53.542196  9778 net.cpp:91] Creating Layer inception_4c/relu_1x1
I0403 19:51:53.542213  9778 net.cpp:425] inception_4c/relu_1x1 <- inception_4c/1x1
I0403 19:51:53.542229  9778 net.cpp:386] inception_4c/relu_1x1 -> inception_4c/1x1 (in-place)
I0403 19:51:53.542403  9778 net.cpp:141] Setting up inception_4c/relu_1x1
I0403 19:51:53.542429  9778 net.cpp:148] Top shape: 24 128 14 14 (602112)
I0403 19:51:53.542444  9778 net.cpp:156] Memory required for data: 1033209120
I0403 19:51:53.542459  9778 layer_factory.hpp:77] Creating layer inception_4c/3x3_reduce
I0403 19:51:53.542479  9778 net.cpp:91] Creating Layer inception_4c/3x3_reduce
I0403 19:51:53.542496  9778 net.cpp:425] inception_4c/3x3_reduce <- inception_4b/output_inception_4b/output_0_split_1
I0403 19:51:53.542515  9778 net.cpp:399] inception_4c/3x3_reduce -> inception_4c/3x3_reduce
I0403 19:51:53.544399  9778 net.cpp:141] Setting up inception_4c/3x3_reduce
I0403 19:51:53.544428  9778 net.cpp:148] Top shape: 24 128 14 14 (602112)
I0403 19:51:53.544445  9778 net.cpp:156] Memory required for data: 1035617568
I0403 19:51:53.544462  9778 layer_factory.hpp:77] Creating layer inception_4c/relu_3x3_reduce
I0403 19:51:53.544479  9778 net.cpp:91] Creating Layer inception_4c/relu_3x3_reduce
I0403 19:51:53.544497  9778 net.cpp:425] inception_4c/relu_3x3_reduce <- inception_4c/3x3_reduce
I0403 19:51:53.544515  9778 net.cpp:386] inception_4c/relu_3x3_reduce -> inception_4c/3x3_reduce (in-place)
I0403 19:51:53.544792  9778 net.cpp:141] Setting up inception_4c/relu_3x3_reduce
I0403 19:51:53.544821  9778 net.cpp:148] Top shape: 24 128 14 14 (602112)
I0403 19:51:53.544836  9778 net.cpp:156] Memory required for data: 1038026016
I0403 19:51:53.544850  9778 layer_factory.hpp:77] Creating layer inception_4c/3x3
I0403 19:51:53.544873  9778 net.cpp:91] Creating Layer inception_4c/3x3
I0403 19:51:53.544890  9778 net.cpp:425] inception_4c/3x3 <- inception_4c/3x3_reduce
I0403 19:51:53.544909  9778 net.cpp:399] inception_4c/3x3 -> inception_4c/3x3
I0403 19:51:53.548475  9778 net.cpp:141] Setting up inception_4c/3x3
I0403 19:51:53.548516  9778 net.cpp:148] Top shape: 24 256 14 14 (1204224)
I0403 19:51:53.548532  9778 net.cpp:156] Memory required for data: 1042842912
I0403 19:51:53.548568  9778 layer_factory.hpp:77] Creating layer inception_4c/relu_3x3
I0403 19:51:53.548588  9778 net.cpp:91] Creating Layer inception_4c/relu_3x3
I0403 19:51:53.548604  9778 net.cpp:425] inception_4c/relu_3x3 <- inception_4c/3x3
I0403 19:51:53.548622  9778 net.cpp:386] inception_4c/relu_3x3 -> inception_4c/3x3 (in-place)
I0403 19:51:53.548804  9778 net.cpp:141] Setting up inception_4c/relu_3x3
I0403 19:51:53.548830  9778 net.cpp:148] Top shape: 24 256 14 14 (1204224)
I0403 19:51:53.548845  9778 net.cpp:156] Memory required for data: 1047659808
I0403 19:51:53.548859  9778 layer_factory.hpp:77] Creating layer inception_4c/5x5_reduce
I0403 19:51:53.548882  9778 net.cpp:91] Creating Layer inception_4c/5x5_reduce
I0403 19:51:53.548900  9778 net.cpp:425] inception_4c/5x5_reduce <- inception_4b/output_inception_4b/output_0_split_2
I0403 19:51:53.548921  9778 net.cpp:399] inception_4c/5x5_reduce -> inception_4c/5x5_reduce
I0403 19:51:53.550012  9778 net.cpp:141] Setting up inception_4c/5x5_reduce
I0403 19:51:53.550040  9778 net.cpp:148] Top shape: 24 24 14 14 (112896)
I0403 19:51:53.550056  9778 net.cpp:156] Memory required for data: 1048111392
I0403 19:51:53.550074  9778 layer_factory.hpp:77] Creating layer inception_4c/relu_5x5_reduce
I0403 19:51:53.550092  9778 net.cpp:91] Creating Layer inception_4c/relu_5x5_reduce
I0403 19:51:53.550108  9778 net.cpp:425] inception_4c/relu_5x5_reduce <- inception_4c/5x5_reduce
I0403 19:51:53.550127  9778 net.cpp:386] inception_4c/relu_5x5_reduce -> inception_4c/5x5_reduce (in-place)
I0403 19:51:53.550314  9778 net.cpp:141] Setting up inception_4c/relu_5x5_reduce
I0403 19:51:53.550339  9778 net.cpp:148] Top shape: 24 24 14 14 (112896)
I0403 19:51:53.550355  9778 net.cpp:156] Memory required for data: 1048562976
I0403 19:51:53.550370  9778 layer_factory.hpp:77] Creating layer inception_4c/5x5
I0403 19:51:53.550391  9778 net.cpp:91] Creating Layer inception_4c/5x5
I0403 19:51:53.550410  9778 net.cpp:425] inception_4c/5x5 <- inception_4c/5x5_reduce
I0403 19:51:53.550429  9778 net.cpp:399] inception_4c/5x5 -> inception_4c/5x5
I0403 19:51:53.551663  9778 net.cpp:141] Setting up inception_4c/5x5
I0403 19:51:53.551690  9778 net.cpp:148] Top shape: 24 64 14 14 (301056)
I0403 19:51:53.551705  9778 net.cpp:156] Memory required for data: 1049767200
I0403 19:51:53.551723  9778 layer_factory.hpp:77] Creating layer inception_4c/relu_5x5
I0403 19:51:53.551743  9778 net.cpp:91] Creating Layer inception_4c/relu_5x5
I0403 19:51:53.551759  9778 net.cpp:425] inception_4c/relu_5x5 <- inception_4c/5x5
I0403 19:51:53.551776  9778 net.cpp:386] inception_4c/relu_5x5 -> inception_4c/5x5 (in-place)
I0403 19:51:53.552065  9778 net.cpp:141] Setting up inception_4c/relu_5x5
I0403 19:51:53.552091  9778 net.cpp:148] Top shape: 24 64 14 14 (301056)
I0403 19:51:53.552106  9778 net.cpp:156] Memory required for data: 1050971424
I0403 19:51:53.552121  9778 layer_factory.hpp:77] Creating layer inception_4c/pool
I0403 19:51:53.552139  9778 net.cpp:91] Creating Layer inception_4c/pool
I0403 19:51:53.552155  9778 net.cpp:425] inception_4c/pool <- inception_4b/output_inception_4b/output_0_split_3
I0403 19:51:53.552175  9778 net.cpp:399] inception_4c/pool -> inception_4c/pool
I0403 19:51:53.552248  9778 net.cpp:141] Setting up inception_4c/pool
I0403 19:51:53.552271  9778 net.cpp:148] Top shape: 24 512 14 14 (2408448)
I0403 19:51:53.552285  9778 net.cpp:156] Memory required for data: 1060605216
I0403 19:51:53.552300  9778 layer_factory.hpp:77] Creating layer inception_4c/pool_proj
I0403 19:51:53.552322  9778 net.cpp:91] Creating Layer inception_4c/pool_proj
I0403 19:51:53.552340  9778 net.cpp:425] inception_4c/pool_proj <- inception_4c/pool
I0403 19:51:53.552361  9778 net.cpp:399] inception_4c/pool_proj -> inception_4c/pool_proj
I0403 19:51:53.553591  9778 net.cpp:141] Setting up inception_4c/pool_proj
I0403 19:51:53.553622  9778 net.cpp:148] Top shape: 24 64 14 14 (301056)
I0403 19:51:53.553650  9778 net.cpp:156] Memory required for data: 1061809440
I0403 19:51:53.553669  9778 layer_factory.hpp:77] Creating layer inception_4c/relu_pool_proj
I0403 19:51:53.553688  9778 net.cpp:91] Creating Layer inception_4c/relu_pool_proj
I0403 19:51:53.553702  9778 net.cpp:425] inception_4c/relu_pool_proj <- inception_4c/pool_proj
I0403 19:51:53.553721  9778 net.cpp:386] inception_4c/relu_pool_proj -> inception_4c/pool_proj (in-place)
I0403 19:51:53.553903  9778 net.cpp:141] Setting up inception_4c/relu_pool_proj
I0403 19:51:53.553928  9778 net.cpp:148] Top shape: 24 64 14 14 (301056)
I0403 19:51:53.553942  9778 net.cpp:156] Memory required for data: 1063013664
I0403 19:51:53.553957  9778 layer_factory.hpp:77] Creating layer inception_4c/output
I0403 19:51:53.553974  9778 net.cpp:91] Creating Layer inception_4c/output
I0403 19:51:53.553989  9778 net.cpp:425] inception_4c/output <- inception_4c/1x1
I0403 19:51:53.554005  9778 net.cpp:425] inception_4c/output <- inception_4c/3x3
I0403 19:51:53.554021  9778 net.cpp:425] inception_4c/output <- inception_4c/5x5
I0403 19:51:53.554036  9778 net.cpp:425] inception_4c/output <- inception_4c/pool_proj
I0403 19:51:53.554054  9778 net.cpp:399] inception_4c/output -> inception_4c/output
I0403 19:51:53.554105  9778 net.cpp:141] Setting up inception_4c/output
I0403 19:51:53.554127  9778 net.cpp:148] Top shape: 24 512 14 14 (2408448)
I0403 19:51:53.554141  9778 net.cpp:156] Memory required for data: 1072647456
I0403 19:51:53.554155  9778 layer_factory.hpp:77] Creating layer inception_4c/output_inception_4c/output_0_split
I0403 19:51:53.554172  9778 net.cpp:91] Creating Layer inception_4c/output_inception_4c/output_0_split
I0403 19:51:53.554193  9778 net.cpp:425] inception_4c/output_inception_4c/output_0_split <- inception_4c/output
I0403 19:51:53.554213  9778 net.cpp:399] inception_4c/output_inception_4c/output_0_split -> inception_4c/output_inception_4c/output_0_split_0
I0403 19:51:53.554232  9778 net.cpp:399] inception_4c/output_inception_4c/output_0_split -> inception_4c/output_inception_4c/output_0_split_1
I0403 19:51:53.554252  9778 net.cpp:399] inception_4c/output_inception_4c/output_0_split -> inception_4c/output_inception_4c/output_0_split_2
I0403 19:51:53.554271  9778 net.cpp:399] inception_4c/output_inception_4c/output_0_split -> inception_4c/output_inception_4c/output_0_split_3
I0403 19:51:53.554358  9778 net.cpp:141] Setting up inception_4c/output_inception_4c/output_0_split
I0403 19:51:53.554380  9778 net.cpp:148] Top shape: 24 512 14 14 (2408448)
I0403 19:51:53.554395  9778 net.cpp:148] Top shape: 24 512 14 14 (2408448)
I0403 19:51:53.554411  9778 net.cpp:148] Top shape: 24 512 14 14 (2408448)
I0403 19:51:53.554426  9778 net.cpp:148] Top shape: 24 512 14 14 (2408448)
I0403 19:51:53.554440  9778 net.cpp:156] Memory required for data: 1111182624
I0403 19:51:53.554455  9778 layer_factory.hpp:77] Creating layer inception_4d/1x1
I0403 19:51:53.554477  9778 net.cpp:91] Creating Layer inception_4d/1x1
I0403 19:51:53.554494  9778 net.cpp:425] inception_4d/1x1 <- inception_4c/output_inception_4c/output_0_split_0
I0403 19:51:53.554513  9778 net.cpp:399] inception_4d/1x1 -> inception_4d/1x1
I0403 19:51:53.555893  9778 net.cpp:141] Setting up inception_4d/1x1
I0403 19:51:53.555922  9778 net.cpp:148] Top shape: 24 112 14 14 (526848)
I0403 19:51:53.555937  9778 net.cpp:156] Memory required for data: 1113290016
I0403 19:51:53.555954  9778 layer_factory.hpp:77] Creating layer inception_4d/relu_1x1
I0403 19:51:53.555975  9778 net.cpp:91] Creating Layer inception_4d/relu_1x1
I0403 19:51:53.555992  9778 net.cpp:425] inception_4d/relu_1x1 <- inception_4d/1x1
I0403 19:51:53.556010  9778 net.cpp:386] inception_4d/relu_1x1 -> inception_4d/1x1 (in-place)
I0403 19:51:53.556202  9778 net.cpp:141] Setting up inception_4d/relu_1x1
I0403 19:51:53.556228  9778 net.cpp:148] Top shape: 24 112 14 14 (526848)
I0403 19:51:53.556243  9778 net.cpp:156] Memory required for data: 1115397408
I0403 19:51:53.556258  9778 layer_factory.hpp:77] Creating layer inception_4d/3x3_reduce
I0403 19:51:53.556294  9778 net.cpp:91] Creating Layer inception_4d/3x3_reduce
I0403 19:51:53.556314  9778 net.cpp:425] inception_4d/3x3_reduce <- inception_4c/output_inception_4c/output_0_split_1
I0403 19:51:53.556336  9778 net.cpp:399] inception_4d/3x3_reduce -> inception_4d/3x3_reduce
I0403 19:51:53.557835  9778 net.cpp:141] Setting up inception_4d/3x3_reduce
I0403 19:51:53.557862  9778 net.cpp:148] Top shape: 24 144 14 14 (677376)
I0403 19:51:53.557878  9778 net.cpp:156] Memory required for data: 1118106912
I0403 19:51:53.557895  9778 layer_factory.hpp:77] Creating layer inception_4d/relu_3x3_reduce
I0403 19:51:53.557915  9778 net.cpp:91] Creating Layer inception_4d/relu_3x3_reduce
I0403 19:51:53.557932  9778 net.cpp:425] inception_4d/relu_3x3_reduce <- inception_4d/3x3_reduce
I0403 19:51:53.557950  9778 net.cpp:386] inception_4d/relu_3x3_reduce -> inception_4d/3x3_reduce (in-place)
I0403 19:51:53.558240  9778 net.cpp:141] Setting up inception_4d/relu_3x3_reduce
I0403 19:51:53.558266  9778 net.cpp:148] Top shape: 24 144 14 14 (677376)
I0403 19:51:53.558282  9778 net.cpp:156] Memory required for data: 1120816416
I0403 19:51:53.558297  9778 layer_factory.hpp:77] Creating layer inception_4d/3x3
I0403 19:51:53.558320  9778 net.cpp:91] Creating Layer inception_4d/3x3
I0403 19:51:53.558337  9778 net.cpp:425] inception_4d/3x3 <- inception_4d/3x3_reduce
I0403 19:51:53.558357  9778 net.cpp:399] inception_4d/3x3 -> inception_4d/3x3
I0403 19:51:53.562585  9778 net.cpp:141] Setting up inception_4d/3x3
I0403 19:51:53.562616  9778 net.cpp:148] Top shape: 24 288 14 14 (1354752)
I0403 19:51:53.562631  9778 net.cpp:156] Memory required for data: 1126235424
I0403 19:51:53.562650  9778 layer_factory.hpp:77] Creating layer inception_4d/relu_3x3
I0403 19:51:53.562667  9778 net.cpp:91] Creating Layer inception_4d/relu_3x3
I0403 19:51:53.562683  9778 net.cpp:425] inception_4d/relu_3x3 <- inception_4d/3x3
I0403 19:51:53.562700  9778 net.cpp:386] inception_4d/relu_3x3 -> inception_4d/3x3 (in-place)
I0403 19:51:53.562883  9778 net.cpp:141] Setting up inception_4d/relu_3x3
I0403 19:51:53.562907  9778 net.cpp:148] Top shape: 24 288 14 14 (1354752)
I0403 19:51:53.562922  9778 net.cpp:156] Memory required for data: 1131654432
I0403 19:51:53.562937  9778 layer_factory.hpp:77] Creating layer inception_4d/5x5_reduce
I0403 19:51:53.562959  9778 net.cpp:91] Creating Layer inception_4d/5x5_reduce
I0403 19:51:53.562978  9778 net.cpp:425] inception_4d/5x5_reduce <- inception_4c/output_inception_4c/output_0_split_2
I0403 19:51:53.563001  9778 net.cpp:399] inception_4d/5x5_reduce -> inception_4d/5x5_reduce
I0403 19:51:53.564172  9778 net.cpp:141] Setting up inception_4d/5x5_reduce
I0403 19:51:53.564203  9778 net.cpp:148] Top shape: 24 32 14 14 (150528)
I0403 19:51:53.564218  9778 net.cpp:156] Memory required for data: 1132256544
I0403 19:51:53.564236  9778 layer_factory.hpp:77] Creating layer inception_4d/relu_5x5_reduce
I0403 19:51:53.564255  9778 net.cpp:91] Creating Layer inception_4d/relu_5x5_reduce
I0403 19:51:53.564272  9778 net.cpp:425] inception_4d/relu_5x5_reduce <- inception_4d/5x5_reduce
I0403 19:51:53.564290  9778 net.cpp:386] inception_4d/relu_5x5_reduce -> inception_4d/5x5_reduce (in-place)
I0403 19:51:53.564471  9778 net.cpp:141] Setting up inception_4d/relu_5x5_reduce
I0403 19:51:53.564496  9778 net.cpp:148] Top shape: 24 32 14 14 (150528)
I0403 19:51:53.564510  9778 net.cpp:156] Memory required for data: 1132858656
I0403 19:51:53.564524  9778 layer_factory.hpp:77] Creating layer inception_4d/5x5
I0403 19:51:53.564546  9778 net.cpp:91] Creating Layer inception_4d/5x5
I0403 19:51:53.564564  9778 net.cpp:425] inception_4d/5x5 <- inception_4d/5x5_reduce
I0403 19:51:53.564584  9778 net.cpp:399] inception_4d/5x5 -> inception_4d/5x5
I0403 19:51:53.565996  9778 net.cpp:141] Setting up inception_4d/5x5
I0403 19:51:53.566022  9778 net.cpp:148] Top shape: 24 64 14 14 (301056)
I0403 19:51:53.566036  9778 net.cpp:156] Memory required for data: 1134062880
I0403 19:51:53.566054  9778 layer_factory.hpp:77] Creating layer inception_4d/relu_5x5
I0403 19:51:53.566085  9778 net.cpp:91] Creating Layer inception_4d/relu_5x5
I0403 19:51:53.566102  9778 net.cpp:425] inception_4d/relu_5x5 <- inception_4d/5x5
I0403 19:51:53.566121  9778 net.cpp:386] inception_4d/relu_5x5 -> inception_4d/5x5 (in-place)
I0403 19:51:53.566414  9778 net.cpp:141] Setting up inception_4d/relu_5x5
I0403 19:51:53.566439  9778 net.cpp:148] Top shape: 24 64 14 14 (301056)
I0403 19:51:53.566453  9778 net.cpp:156] Memory required for data: 1135267104
I0403 19:51:53.566468  9778 layer_factory.hpp:77] Creating layer inception_4d/pool
I0403 19:51:53.566484  9778 net.cpp:91] Creating Layer inception_4d/pool
I0403 19:51:53.566500  9778 net.cpp:425] inception_4d/pool <- inception_4c/output_inception_4c/output_0_split_3
I0403 19:51:53.566520  9778 net.cpp:399] inception_4d/pool -> inception_4d/pool
I0403 19:51:53.566584  9778 net.cpp:141] Setting up inception_4d/pool
I0403 19:51:53.566607  9778 net.cpp:148] Top shape: 24 512 14 14 (2408448)
I0403 19:51:53.566622  9778 net.cpp:156] Memory required for data: 1144900896
I0403 19:51:53.566635  9778 layer_factory.hpp:77] Creating layer inception_4d/pool_proj
I0403 19:51:53.566661  9778 net.cpp:91] Creating Layer inception_4d/pool_proj
I0403 19:51:53.566679  9778 net.cpp:425] inception_4d/pool_proj <- inception_4d/pool
I0403 19:51:53.566696  9778 net.cpp:399] inception_4d/pool_proj -> inception_4d/pool_proj
I0403 19:51:53.568399  9778 net.cpp:141] Setting up inception_4d/pool_proj
I0403 19:51:53.568428  9778 net.cpp:148] Top shape: 24 64 14 14 (301056)
I0403 19:51:53.568445  9778 net.cpp:156] Memory required for data: 1146105120
I0403 19:51:53.568464  9778 layer_factory.hpp:77] Creating layer inception_4d/relu_pool_proj
I0403 19:51:53.568480  9778 net.cpp:91] Creating Layer inception_4d/relu_pool_proj
I0403 19:51:53.568495  9778 net.cpp:425] inception_4d/relu_pool_proj <- inception_4d/pool_proj
I0403 19:51:53.568523  9778 net.cpp:386] inception_4d/relu_pool_proj -> inception_4d/pool_proj (in-place)
I0403 19:51:53.568709  9778 net.cpp:141] Setting up inception_4d/relu_pool_proj
I0403 19:51:53.568734  9778 net.cpp:148] Top shape: 24 64 14 14 (301056)
I0403 19:51:53.568749  9778 net.cpp:156] Memory required for data: 1147309344
I0403 19:51:53.568763  9778 layer_factory.hpp:77] Creating layer inception_4d/output
I0403 19:51:53.568780  9778 net.cpp:91] Creating Layer inception_4d/output
I0403 19:51:53.568796  9778 net.cpp:425] inception_4d/output <- inception_4d/1x1
I0403 19:51:53.568812  9778 net.cpp:425] inception_4d/output <- inception_4d/3x3
I0403 19:51:53.568828  9778 net.cpp:425] inception_4d/output <- inception_4d/5x5
I0403 19:51:53.568843  9778 net.cpp:425] inception_4d/output <- inception_4d/pool_proj
I0403 19:51:53.568862  9778 net.cpp:399] inception_4d/output -> inception_4d/output
I0403 19:51:53.568909  9778 net.cpp:141] Setting up inception_4d/output
I0403 19:51:53.568933  9778 net.cpp:148] Top shape: 24 528 14 14 (2483712)
I0403 19:51:53.568948  9778 net.cpp:156] Memory required for data: 1157244192
I0403 19:51:53.568961  9778 layer_factory.hpp:77] Creating layer inception_4d/output_inception_4d/output_0_split
I0403 19:51:53.568981  9778 net.cpp:91] Creating Layer inception_4d/output_inception_4d/output_0_split
I0403 19:51:53.568997  9778 net.cpp:425] inception_4d/output_inception_4d/output_0_split <- inception_4d/output
I0403 19:51:53.569018  9778 net.cpp:399] inception_4d/output_inception_4d/output_0_split -> inception_4d/output_inception_4d/output_0_split_0
I0403 19:51:53.569039  9778 net.cpp:399] inception_4d/output_inception_4d/output_0_split -> inception_4d/output_inception_4d/output_0_split_1
I0403 19:51:53.569059  9778 net.cpp:399] inception_4d/output_inception_4d/output_0_split -> inception_4d/output_inception_4d/output_0_split_2
I0403 19:51:53.569079  9778 net.cpp:399] inception_4d/output_inception_4d/output_0_split -> inception_4d/output_inception_4d/output_0_split_3
I0403 19:51:53.569099  9778 net.cpp:399] inception_4d/output_inception_4d/output_0_split -> inception_4d/output_inception_4d/output_0_split_4
I0403 19:51:53.569207  9778 net.cpp:141] Setting up inception_4d/output_inception_4d/output_0_split
I0403 19:51:53.569242  9778 net.cpp:148] Top shape: 24 528 14 14 (2483712)
I0403 19:51:53.569260  9778 net.cpp:148] Top shape: 24 528 14 14 (2483712)
I0403 19:51:53.569275  9778 net.cpp:148] Top shape: 24 528 14 14 (2483712)
I0403 19:51:53.569291  9778 net.cpp:148] Top shape: 24 528 14 14 (2483712)
I0403 19:51:53.569308  9778 net.cpp:148] Top shape: 24 528 14 14 (2483712)
I0403 19:51:53.569321  9778 net.cpp:156] Memory required for data: 1206918432
I0403 19:51:53.569336  9778 layer_factory.hpp:77] Creating layer loss2/ave_pool
I0403 19:51:53.569355  9778 net.cpp:91] Creating Layer loss2/ave_pool
I0403 19:51:53.569372  9778 net.cpp:425] loss2/ave_pool <- inception_4d/output_inception_4d/output_0_split_0
I0403 19:51:53.569391  9778 net.cpp:399] loss2/ave_pool -> loss2/ave_pool
I0403 19:51:53.569705  9778 net.cpp:141] Setting up loss2/ave_pool
I0403 19:51:53.569733  9778 net.cpp:148] Top shape: 24 528 4 4 (202752)
I0403 19:51:53.569748  9778 net.cpp:156] Memory required for data: 1207729440
I0403 19:51:53.569763  9778 layer_factory.hpp:77] Creating layer loss2/conv
I0403 19:51:53.569785  9778 net.cpp:91] Creating Layer loss2/conv
I0403 19:51:53.569803  9778 net.cpp:425] loss2/conv <- loss2/ave_pool
I0403 19:51:53.569823  9778 net.cpp:399] loss2/conv -> loss2/conv
I0403 19:51:53.571712  9778 net.cpp:141] Setting up loss2/conv
I0403 19:51:53.571741  9778 net.cpp:148] Top shape: 24 128 4 4 (49152)
I0403 19:51:53.571758  9778 net.cpp:156] Memory required for data: 1207926048
I0403 19:51:53.571775  9778 layer_factory.hpp:77] Creating layer loss2/relu_conv
I0403 19:51:53.571795  9778 net.cpp:91] Creating Layer loss2/relu_conv
I0403 19:51:53.571833  9778 net.cpp:425] loss2/relu_conv <- loss2/conv
I0403 19:51:53.571880  9778 net.cpp:386] loss2/relu_conv -> loss2/conv (in-place)
I0403 19:51:53.572201  9778 net.cpp:141] Setting up loss2/relu_conv
I0403 19:51:53.572228  9778 net.cpp:148] Top shape: 24 128 4 4 (49152)
I0403 19:51:53.572252  9778 net.cpp:156] Memory required for data: 1208122656
I0403 19:51:53.572268  9778 layer_factory.hpp:77] Creating layer loss2/fc
I0403 19:51:53.572288  9778 net.cpp:91] Creating Layer loss2/fc
I0403 19:51:53.572305  9778 net.cpp:425] loss2/fc <- loss2/conv
I0403 19:51:53.572324  9778 net.cpp:399] loss2/fc -> loss2/fc
I0403 19:51:53.590032  9778 net.cpp:141] Setting up loss2/fc
I0403 19:51:53.590080  9778 net.cpp:148] Top shape: 24 1024 (24576)
I0403 19:51:53.590095  9778 net.cpp:156] Memory required for data: 1208220960
I0403 19:51:53.590114  9778 layer_factory.hpp:77] Creating layer loss2/relu_fc
I0403 19:51:53.590133  9778 net.cpp:91] Creating Layer loss2/relu_fc
I0403 19:51:53.590150  9778 net.cpp:425] loss2/relu_fc <- loss2/fc
I0403 19:51:53.590170  9778 net.cpp:386] loss2/relu_fc -> loss2/fc (in-place)
I0403 19:51:53.590508  9778 net.cpp:141] Setting up loss2/relu_fc
I0403 19:51:53.590536  9778 net.cpp:148] Top shape: 24 1024 (24576)
I0403 19:51:53.590553  9778 net.cpp:156] Memory required for data: 1208319264
I0403 19:51:53.590566  9778 layer_factory.hpp:77] Creating layer loss2/drop_fc
I0403 19:51:53.590584  9778 net.cpp:91] Creating Layer loss2/drop_fc
I0403 19:51:53.590600  9778 net.cpp:425] loss2/drop_fc <- loss2/fc
I0403 19:51:53.590620  9778 net.cpp:386] loss2/drop_fc -> loss2/fc (in-place)
I0403 19:51:53.590670  9778 net.cpp:141] Setting up loss2/drop_fc
I0403 19:51:53.590693  9778 net.cpp:148] Top shape: 24 1024 (24576)
I0403 19:51:53.590708  9778 net.cpp:156] Memory required for data: 1208417568
I0403 19:51:53.590723  9778 layer_factory.hpp:77] Creating layer loss2/classifier_plantvillage
I0403 19:51:53.590744  9778 net.cpp:91] Creating Layer loss2/classifier_plantvillage
I0403 19:51:53.590761  9778 net.cpp:425] loss2/classifier_plantvillage <- loss2/fc
I0403 19:51:53.590782  9778 net.cpp:399] loss2/classifier_plantvillage -> loss2/classifier_plantvillage
I0403 19:51:53.591199  9778 net.cpp:141] Setting up loss2/classifier_plantvillage
I0403 19:51:53.591224  9778 net.cpp:148] Top shape: 24 38 (912)
I0403 19:51:53.591262  9778 net.cpp:156] Memory required for data: 1208421216
I0403 19:51:53.591282  9778 layer_factory.hpp:77] Creating layer loss2/classifier_plantvillage_loss2/classifier_plantvillage_0_split
I0403 19:51:53.591302  9778 net.cpp:91] Creating Layer loss2/classifier_plantvillage_loss2/classifier_plantvillage_0_split
I0403 19:51:53.591320  9778 net.cpp:425] loss2/classifier_plantvillage_loss2/classifier_plantvillage_0_split <- loss2/classifier_plantvillage
I0403 19:51:53.591336  9778 net.cpp:399] loss2/classifier_plantvillage_loss2/classifier_plantvillage_0_split -> loss2/classifier_plantvillage_loss2/classifier_plantvillage_0_split_0
I0403 19:51:53.591356  9778 net.cpp:399] loss2/classifier_plantvillage_loss2/classifier_plantvillage_0_split -> loss2/classifier_plantvillage_loss2/classifier_plantvillage_0_split_1
I0403 19:51:53.591377  9778 net.cpp:399] loss2/classifier_plantvillage_loss2/classifier_plantvillage_0_split -> loss2/classifier_plantvillage_loss2/classifier_plantvillage_0_split_2
I0403 19:51:53.591454  9778 net.cpp:141] Setting up loss2/classifier_plantvillage_loss2/classifier_plantvillage_0_split
I0403 19:51:53.591477  9778 net.cpp:148] Top shape: 24 38 (912)
I0403 19:51:53.591493  9778 net.cpp:148] Top shape: 24 38 (912)
I0403 19:51:53.591508  9778 net.cpp:148] Top shape: 24 38 (912)
I0403 19:51:53.591522  9778 net.cpp:156] Memory required for data: 1208432160
I0403 19:51:53.591536  9778 layer_factory.hpp:77] Creating layer inception_4e/1x1
I0403 19:51:53.591557  9778 net.cpp:91] Creating Layer inception_4e/1x1
I0403 19:51:53.591574  9778 net.cpp:425] inception_4e/1x1 <- inception_4d/output_inception_4d/output_0_split_1
I0403 19:51:53.591596  9778 net.cpp:399] inception_4e/1x1 -> inception_4e/1x1
I0403 19:51:53.593458  9778 net.cpp:141] Setting up inception_4e/1x1
I0403 19:51:53.593488  9778 net.cpp:148] Top shape: 24 256 14 14 (1204224)
I0403 19:51:53.593504  9778 net.cpp:156] Memory required for data: 1213249056
I0403 19:51:53.593523  9778 layer_factory.hpp:77] Creating layer inception_4e/relu_1x1
I0403 19:51:53.593543  9778 net.cpp:91] Creating Layer inception_4e/relu_1x1
I0403 19:51:53.593559  9778 net.cpp:425] inception_4e/relu_1x1 <- inception_4e/1x1
I0403 19:51:53.593576  9778 net.cpp:386] inception_4e/relu_1x1 -> inception_4e/1x1 (in-place)
I0403 19:51:53.593870  9778 net.cpp:141] Setting up inception_4e/relu_1x1
I0403 19:51:53.593896  9778 net.cpp:148] Top shape: 24 256 14 14 (1204224)
I0403 19:51:53.593911  9778 net.cpp:156] Memory required for data: 1218065952
I0403 19:51:53.593926  9778 layer_factory.hpp:77] Creating layer inception_4e/3x3_reduce
I0403 19:51:53.593951  9778 net.cpp:91] Creating Layer inception_4e/3x3_reduce
I0403 19:51:53.593971  9778 net.cpp:425] inception_4e/3x3_reduce <- inception_4d/output_inception_4d/output_0_split_2
I0403 19:51:53.593991  9778 net.cpp:399] inception_4e/3x3_reduce -> inception_4e/3x3_reduce
I0403 19:51:53.596209  9778 net.cpp:141] Setting up inception_4e/3x3_reduce
I0403 19:51:53.596238  9778 net.cpp:148] Top shape: 24 160 14 14 (752640)
I0403 19:51:53.596254  9778 net.cpp:156] Memory required for data: 1221076512
I0403 19:51:53.596273  9778 layer_factory.hpp:77] Creating layer inception_4e/relu_3x3_reduce
I0403 19:51:53.596292  9778 net.cpp:91] Creating Layer inception_4e/relu_3x3_reduce
I0403 19:51:53.596307  9778 net.cpp:425] inception_4e/relu_3x3_reduce <- inception_4e/3x3_reduce
I0403 19:51:53.596326  9778 net.cpp:386] inception_4e/relu_3x3_reduce -> inception_4e/3x3_reduce (in-place)
I0403 19:51:53.596515  9778 net.cpp:141] Setting up inception_4e/relu_3x3_reduce
I0403 19:51:53.596541  9778 net.cpp:148] Top shape: 24 160 14 14 (752640)
I0403 19:51:53.596556  9778 net.cpp:156] Memory required for data: 1224087072
I0403 19:51:53.596571  9778 layer_factory.hpp:77] Creating layer inception_4e/3x3
I0403 19:51:53.596593  9778 net.cpp:91] Creating Layer inception_4e/3x3
I0403 19:51:53.596611  9778 net.cpp:425] inception_4e/3x3 <- inception_4e/3x3_reduce
I0403 19:51:53.596633  9778 net.cpp:399] inception_4e/3x3 -> inception_4e/3x3
I0403 19:51:53.601799  9778 net.cpp:141] Setting up inception_4e/3x3
I0403 19:51:53.601842  9778 net.cpp:148] Top shape: 24 320 14 14 (1505280)
I0403 19:51:53.601858  9778 net.cpp:156] Memory required for data: 1230108192
I0403 19:51:53.601877  9778 layer_factory.hpp:77] Creating layer inception_4e/relu_3x3
I0403 19:51:53.601898  9778 net.cpp:91] Creating Layer inception_4e/relu_3x3
I0403 19:51:53.601915  9778 net.cpp:425] inception_4e/relu_3x3 <- inception_4e/3x3
I0403 19:51:53.601933  9778 net.cpp:386] inception_4e/relu_3x3 -> inception_4e/3x3 (in-place)
I0403 19:51:53.602257  9778 net.cpp:141] Setting up inception_4e/relu_3x3
I0403 19:51:53.602283  9778 net.cpp:148] Top shape: 24 320 14 14 (1505280)
I0403 19:51:53.602298  9778 net.cpp:156] Memory required for data: 1236129312
I0403 19:51:53.602313  9778 layer_factory.hpp:77] Creating layer inception_4e/5x5_reduce
I0403 19:51:53.602339  9778 net.cpp:91] Creating Layer inception_4e/5x5_reduce
I0403 19:51:53.602358  9778 net.cpp:425] inception_4e/5x5_reduce <- inception_4d/output_inception_4d/output_0_split_3
I0403 19:51:53.602378  9778 net.cpp:399] inception_4e/5x5_reduce -> inception_4e/5x5_reduce
I0403 19:51:53.603483  9778 net.cpp:141] Setting up inception_4e/5x5_reduce
I0403 19:51:53.603512  9778 net.cpp:148] Top shape: 24 32 14 14 (150528)
I0403 19:51:53.603528  9778 net.cpp:156] Memory required for data: 1236731424
I0403 19:51:53.603546  9778 layer_factory.hpp:77] Creating layer inception_4e/relu_5x5_reduce
I0403 19:51:53.603565  9778 net.cpp:91] Creating Layer inception_4e/relu_5x5_reduce
I0403 19:51:53.603582  9778 net.cpp:425] inception_4e/relu_5x5_reduce <- inception_4e/5x5_reduce
I0403 19:51:53.603602  9778 net.cpp:386] inception_4e/relu_5x5_reduce -> inception_4e/5x5_reduce (in-place)
I0403 19:51:53.603909  9778 net.cpp:141] Setting up inception_4e/relu_5x5_reduce
I0403 19:51:53.603935  9778 net.cpp:148] Top shape: 24 32 14 14 (150528)
I0403 19:51:53.603951  9778 net.cpp:156] Memory required for data: 1237333536
I0403 19:51:53.603966  9778 layer_factory.hpp:77] Creating layer inception_4e/5x5
I0403 19:51:53.604007  9778 net.cpp:91] Creating Layer inception_4e/5x5
I0403 19:51:53.604027  9778 net.cpp:425] inception_4e/5x5 <- inception_4e/5x5_reduce
I0403 19:51:53.604048  9778 net.cpp:399] inception_4e/5x5 -> inception_4e/5x5
I0403 19:51:53.605945  9778 net.cpp:141] Setting up inception_4e/5x5
I0403 19:51:53.605978  9778 net.cpp:148] Top shape: 24 128 14 14 (602112)
I0403 19:51:53.605994  9778 net.cpp:156] Memory required for data: 1239741984
I0403 19:51:53.606014  9778 layer_factory.hpp:77] Creating layer inception_4e/relu_5x5
I0403 19:51:53.606032  9778 net.cpp:91] Creating Layer inception_4e/relu_5x5
I0403 19:51:53.606048  9778 net.cpp:425] inception_4e/relu_5x5 <- inception_4e/5x5
I0403 19:51:53.606067  9778 net.cpp:386] inception_4e/relu_5x5 -> inception_4e/5x5 (in-place)
I0403 19:51:53.606277  9778 net.cpp:141] Setting up inception_4e/relu_5x5
I0403 19:51:53.606303  9778 net.cpp:148] Top shape: 24 128 14 14 (602112)
I0403 19:51:53.606318  9778 net.cpp:156] Memory required for data: 1242150432
I0403 19:51:53.606334  9778 layer_factory.hpp:77] Creating layer inception_4e/pool
I0403 19:51:53.606353  9778 net.cpp:91] Creating Layer inception_4e/pool
I0403 19:51:53.606381  9778 net.cpp:425] inception_4e/pool <- inception_4d/output_inception_4d/output_0_split_4
I0403 19:51:53.606400  9778 net.cpp:399] inception_4e/pool -> inception_4e/pool
I0403 19:51:53.606473  9778 net.cpp:141] Setting up inception_4e/pool
I0403 19:51:53.606498  9778 net.cpp:148] Top shape: 24 528 14 14 (2483712)
I0403 19:51:53.606511  9778 net.cpp:156] Memory required for data: 1252085280
I0403 19:51:53.606528  9778 layer_factory.hpp:77] Creating layer inception_4e/pool_proj
I0403 19:51:53.606549  9778 net.cpp:91] Creating Layer inception_4e/pool_proj
I0403 19:51:53.606567  9778 net.cpp:425] inception_4e/pool_proj <- inception_4e/pool
I0403 19:51:53.606588  9778 net.cpp:399] inception_4e/pool_proj -> inception_4e/pool_proj
I0403 19:51:53.608126  9778 net.cpp:141] Setting up inception_4e/pool_proj
I0403 19:51:53.608170  9778 net.cpp:148] Top shape: 24 128 14 14 (602112)
I0403 19:51:53.608192  9778 net.cpp:156] Memory required for data: 1254493728
I0403 19:51:53.608212  9778 layer_factory.hpp:77] Creating layer inception_4e/relu_pool_proj
I0403 19:51:53.608230  9778 net.cpp:91] Creating Layer inception_4e/relu_pool_proj
I0403 19:51:53.608247  9778 net.cpp:425] inception_4e/relu_pool_proj <- inception_4e/pool_proj
I0403 19:51:53.608265  9778 net.cpp:386] inception_4e/relu_pool_proj -> inception_4e/pool_proj (in-place)
I0403 19:51:53.608564  9778 net.cpp:141] Setting up inception_4e/relu_pool_proj
I0403 19:51:53.608594  9778 net.cpp:148] Top shape: 24 128 14 14 (602112)
I0403 19:51:53.608610  9778 net.cpp:156] Memory required for data: 1256902176
I0403 19:51:53.608625  9778 layer_factory.hpp:77] Creating layer inception_4e/output
I0403 19:51:53.608644  9778 net.cpp:91] Creating Layer inception_4e/output
I0403 19:51:53.608660  9778 net.cpp:425] inception_4e/output <- inception_4e/1x1
I0403 19:51:53.608677  9778 net.cpp:425] inception_4e/output <- inception_4e/3x3
I0403 19:51:53.608693  9778 net.cpp:425] inception_4e/output <- inception_4e/5x5
I0403 19:51:53.608711  9778 net.cpp:425] inception_4e/output <- inception_4e/pool_proj
I0403 19:51:53.608727  9778 net.cpp:399] inception_4e/output -> inception_4e/output
I0403 19:51:53.608780  9778 net.cpp:141] Setting up inception_4e/output
I0403 19:51:53.608804  9778 net.cpp:148] Top shape: 24 832 14 14 (3913728)
I0403 19:51:53.608819  9778 net.cpp:156] Memory required for data: 1272557088
I0403 19:51:53.608834  9778 layer_factory.hpp:77] Creating layer pool4/3x3_s2
I0403 19:51:53.608855  9778 net.cpp:91] Creating Layer pool4/3x3_s2
I0403 19:51:53.608871  9778 net.cpp:425] pool4/3x3_s2 <- inception_4e/output
I0403 19:51:53.608891  9778 net.cpp:399] pool4/3x3_s2 -> pool4/3x3_s2
I0403 19:51:53.608961  9778 net.cpp:141] Setting up pool4/3x3_s2
I0403 19:51:53.608985  9778 net.cpp:148] Top shape: 24 832 7 7 (978432)
I0403 19:51:53.609000  9778 net.cpp:156] Memory required for data: 1276470816
I0403 19:51:53.609014  9778 layer_factory.hpp:77] Creating layer pool4/3x3_s2_pool4/3x3_s2_0_split
I0403 19:51:53.609032  9778 net.cpp:91] Creating Layer pool4/3x3_s2_pool4/3x3_s2_0_split
I0403 19:51:53.609048  9778 net.cpp:425] pool4/3x3_s2_pool4/3x3_s2_0_split <- pool4/3x3_s2
I0403 19:51:53.609069  9778 net.cpp:399] pool4/3x3_s2_pool4/3x3_s2_0_split -> pool4/3x3_s2_pool4/3x3_s2_0_split_0
I0403 19:51:53.609091  9778 net.cpp:399] pool4/3x3_s2_pool4/3x3_s2_0_split -> pool4/3x3_s2_pool4/3x3_s2_0_split_1
I0403 19:51:53.609112  9778 net.cpp:399] pool4/3x3_s2_pool4/3x3_s2_0_split -> pool4/3x3_s2_pool4/3x3_s2_0_split_2
I0403 19:51:53.609132  9778 net.cpp:399] pool4/3x3_s2_pool4/3x3_s2_0_split -> pool4/3x3_s2_pool4/3x3_s2_0_split_3
I0403 19:51:53.609235  9778 net.cpp:141] Setting up pool4/3x3_s2_pool4/3x3_s2_0_split
I0403 19:51:53.609261  9778 net.cpp:148] Top shape: 24 832 7 7 (978432)
I0403 19:51:53.609279  9778 net.cpp:148] Top shape: 24 832 7 7 (978432)
I0403 19:51:53.609295  9778 net.cpp:148] Top shape: 24 832 7 7 (978432)
I0403 19:51:53.609311  9778 net.cpp:148] Top shape: 24 832 7 7 (978432)
I0403 19:51:53.609325  9778 net.cpp:156] Memory required for data: 1292125728
I0403 19:51:53.609339  9778 layer_factory.hpp:77] Creating layer inception_5a/1x1
I0403 19:51:53.609362  9778 net.cpp:91] Creating Layer inception_5a/1x1
I0403 19:51:53.609380  9778 net.cpp:425] inception_5a/1x1 <- pool4/3x3_s2_pool4/3x3_s2_0_split_0
I0403 19:51:53.609400  9778 net.cpp:399] inception_5a/1x1 -> inception_5a/1x1
I0403 19:51:53.612336  9778 net.cpp:141] Setting up inception_5a/1x1
I0403 19:51:53.612367  9778 net.cpp:148] Top shape: 24 256 7 7 (301056)
I0403 19:51:53.612385  9778 net.cpp:156] Memory required for data: 1293329952
I0403 19:51:53.612402  9778 layer_factory.hpp:77] Creating layer inception_5a/relu_1x1
I0403 19:51:53.612421  9778 net.cpp:91] Creating Layer inception_5a/relu_1x1
I0403 19:51:53.612437  9778 net.cpp:425] inception_5a/relu_1x1 <- inception_5a/1x1
I0403 19:51:53.612465  9778 net.cpp:386] inception_5a/relu_1x1 -> inception_5a/1x1 (in-place)
I0403 19:51:53.612797  9778 net.cpp:141] Setting up inception_5a/relu_1x1
I0403 19:51:53.612825  9778 net.cpp:148] Top shape: 24 256 7 7 (301056)
I0403 19:51:53.612840  9778 net.cpp:156] Memory required for data: 1294534176
I0403 19:51:53.612854  9778 layer_factory.hpp:77] Creating layer inception_5a/3x3_reduce
I0403 19:51:53.612877  9778 net.cpp:91] Creating Layer inception_5a/3x3_reduce
I0403 19:51:53.612900  9778 net.cpp:425] inception_5a/3x3_reduce <- pool4/3x3_s2_pool4/3x3_s2_0_split_1
I0403 19:51:53.612921  9778 net.cpp:399] inception_5a/3x3_reduce -> inception_5a/3x3_reduce
I0403 19:51:53.615339  9778 net.cpp:141] Setting up inception_5a/3x3_reduce
I0403 19:51:53.615366  9778 net.cpp:148] Top shape: 24 160 7 7 (188160)
I0403 19:51:53.615384  9778 net.cpp:156] Memory required for data: 1295286816
I0403 19:51:53.615402  9778 layer_factory.hpp:77] Creating layer inception_5a/relu_3x3_reduce
I0403 19:51:53.615420  9778 net.cpp:91] Creating Layer inception_5a/relu_3x3_reduce
I0403 19:51:53.615435  9778 net.cpp:425] inception_5a/relu_3x3_reduce <- inception_5a/3x3_reduce
I0403 19:51:53.615453  9778 net.cpp:386] inception_5a/relu_3x3_reduce -> inception_5a/3x3_reduce (in-place)
I0403 19:51:53.615633  9778 net.cpp:141] Setting up inception_5a/relu_3x3_reduce
I0403 19:51:53.615659  9778 net.cpp:148] Top shape: 24 160 7 7 (188160)
I0403 19:51:53.615674  9778 net.cpp:156] Memory required for data: 1296039456
I0403 19:51:53.615689  9778 layer_factory.hpp:77] Creating layer inception_5a/3x3
I0403 19:51:53.615710  9778 net.cpp:91] Creating Layer inception_5a/3x3
I0403 19:51:53.615726  9778 net.cpp:425] inception_5a/3x3 <- inception_5a/3x3_reduce
I0403 19:51:53.615744  9778 net.cpp:399] inception_5a/3x3 -> inception_5a/3x3
I0403 19:51:53.620659  9778 net.cpp:141] Setting up inception_5a/3x3
I0403 19:51:53.620689  9778 net.cpp:148] Top shape: 24 320 7 7 (376320)
I0403 19:51:53.620705  9778 net.cpp:156] Memory required for data: 1297544736
I0403 19:51:53.620723  9778 layer_factory.hpp:77] Creating layer inception_5a/relu_3x3
I0403 19:51:53.620741  9778 net.cpp:91] Creating Layer inception_5a/relu_3x3
I0403 19:51:53.620759  9778 net.cpp:425] inception_5a/relu_3x3 <- inception_5a/3x3
I0403 19:51:53.620779  9778 net.cpp:386] inception_5a/relu_3x3 -> inception_5a/3x3 (in-place)
I0403 19:51:53.621073  9778 net.cpp:141] Setting up inception_5a/relu_3x3
I0403 19:51:53.621099  9778 net.cpp:148] Top shape: 24 320 7 7 (376320)
I0403 19:51:53.621114  9778 net.cpp:156] Memory required for data: 1299050016
I0403 19:51:53.621129  9778 layer_factory.hpp:77] Creating layer inception_5a/5x5_reduce
I0403 19:51:53.621152  9778 net.cpp:91] Creating Layer inception_5a/5x5_reduce
I0403 19:51:53.621170  9778 net.cpp:425] inception_5a/5x5_reduce <- pool4/3x3_s2_pool4/3x3_s2_0_split_2
I0403 19:51:53.621201  9778 net.cpp:399] inception_5a/5x5_reduce -> inception_5a/5x5_reduce
I0403 19:51:53.622372  9778 net.cpp:141] Setting up inception_5a/5x5_reduce
I0403 19:51:53.622405  9778 net.cpp:148] Top shape: 24 32 7 7 (37632)
I0403 19:51:53.622421  9778 net.cpp:156] Memory required for data: 1299200544
I0403 19:51:53.622439  9778 layer_factory.hpp:77] Creating layer inception_5a/relu_5x5_reduce
I0403 19:51:53.622458  9778 net.cpp:91] Creating Layer inception_5a/relu_5x5_reduce
I0403 19:51:53.622473  9778 net.cpp:425] inception_5a/relu_5x5_reduce <- inception_5a/5x5_reduce
I0403 19:51:53.622490  9778 net.cpp:386] inception_5a/relu_5x5_reduce -> inception_5a/5x5_reduce (in-place)
I0403 19:51:53.622776  9778 net.cpp:141] Setting up inception_5a/relu_5x5_reduce
I0403 19:51:53.622802  9778 net.cpp:148] Top shape: 24 32 7 7 (37632)
I0403 19:51:53.622817  9778 net.cpp:156] Memory required for data: 1299351072
I0403 19:51:53.622831  9778 layer_factory.hpp:77] Creating layer inception_5a/5x5
I0403 19:51:53.622853  9778 net.cpp:91] Creating Layer inception_5a/5x5
I0403 19:51:53.622871  9778 net.cpp:425] inception_5a/5x5 <- inception_5a/5x5_reduce
I0403 19:51:53.622892  9778 net.cpp:399] inception_5a/5x5 -> inception_5a/5x5
I0403 19:51:53.624562  9778 net.cpp:141] Setting up inception_5a/5x5
I0403 19:51:53.624600  9778 net.cpp:148] Top shape: 24 128 7 7 (150528)
I0403 19:51:53.624616  9778 net.cpp:156] Memory required for data: 1299953184
I0403 19:51:53.624634  9778 layer_factory.hpp:77] Creating layer inception_5a/relu_5x5
I0403 19:51:53.624651  9778 net.cpp:91] Creating Layer inception_5a/relu_5x5
I0403 19:51:53.624666  9778 net.cpp:425] inception_5a/relu_5x5 <- inception_5a/5x5
I0403 19:51:53.624686  9778 net.cpp:386] inception_5a/relu_5x5 -> inception_5a/5x5 (in-place)
I0403 19:51:53.624871  9778 net.cpp:141] Setting up inception_5a/relu_5x5
I0403 19:51:53.624896  9778 net.cpp:148] Top shape: 24 128 7 7 (150528)
I0403 19:51:53.624909  9778 net.cpp:156] Memory required for data: 1300555296
I0403 19:51:53.624923  9778 layer_factory.hpp:77] Creating layer inception_5a/pool
I0403 19:51:53.624943  9778 net.cpp:91] Creating Layer inception_5a/pool
I0403 19:51:53.624958  9778 net.cpp:425] inception_5a/pool <- pool4/3x3_s2_pool4/3x3_s2_0_split_3
I0403 19:51:53.624975  9778 net.cpp:399] inception_5a/pool -> inception_5a/pool
I0403 19:51:53.625043  9778 net.cpp:141] Setting up inception_5a/pool
I0403 19:51:53.625066  9778 net.cpp:148] Top shape: 24 832 7 7 (978432)
I0403 19:51:53.625080  9778 net.cpp:156] Memory required for data: 1304469024
I0403 19:51:53.625094  9778 layer_factory.hpp:77] Creating layer inception_5a/pool_proj
I0403 19:51:53.625115  9778 net.cpp:91] Creating Layer inception_5a/pool_proj
I0403 19:51:53.625133  9778 net.cpp:425] inception_5a/pool_proj <- inception_5a/pool
I0403 19:51:53.625154  9778 net.cpp:399] inception_5a/pool_proj -> inception_5a/pool_proj
I0403 19:51:53.627373  9778 net.cpp:141] Setting up inception_5a/pool_proj
I0403 19:51:53.627404  9778 net.cpp:148] Top shape: 24 128 7 7 (150528)
I0403 19:51:53.627419  9778 net.cpp:156] Memory required for data: 1305071136
I0403 19:51:53.627437  9778 layer_factory.hpp:77] Creating layer inception_5a/relu_pool_proj
I0403 19:51:53.627455  9778 net.cpp:91] Creating Layer inception_5a/relu_pool_proj
I0403 19:51:53.627470  9778 net.cpp:425] inception_5a/relu_pool_proj <- inception_5a/pool_proj
I0403 19:51:53.627490  9778 net.cpp:386] inception_5a/relu_pool_proj -> inception_5a/pool_proj (in-place)
I0403 19:51:53.627774  9778 net.cpp:141] Setting up inception_5a/relu_pool_proj
I0403 19:51:53.627800  9778 net.cpp:148] Top shape: 24 128 7 7 (150528)
I0403 19:51:53.627816  9778 net.cpp:156] Memory required for data: 1305673248
I0403 19:51:53.627830  9778 layer_factory.hpp:77] Creating layer inception_5a/output
I0403 19:51:53.627847  9778 net.cpp:91] Creating Layer inception_5a/output
I0403 19:51:53.627862  9778 net.cpp:425] inception_5a/output <- inception_5a/1x1
I0403 19:51:53.627878  9778 net.cpp:425] inception_5a/output <- inception_5a/3x3
I0403 19:51:53.627893  9778 net.cpp:425] inception_5a/output <- inception_5a/5x5
I0403 19:51:53.627909  9778 net.cpp:425] inception_5a/output <- inception_5a/pool_proj
I0403 19:51:53.627925  9778 net.cpp:399] inception_5a/output -> inception_5a/output
I0403 19:51:53.627975  9778 net.cpp:141] Setting up inception_5a/output
I0403 19:51:53.627998  9778 net.cpp:148] Top shape: 24 832 7 7 (978432)
I0403 19:51:53.628011  9778 net.cpp:156] Memory required for data: 1309586976
I0403 19:51:53.628026  9778 layer_factory.hpp:77] Creating layer inception_5a/output_inception_5a/output_0_split
I0403 19:51:53.628041  9778 net.cpp:91] Creating Layer inception_5a/output_inception_5a/output_0_split
I0403 19:51:53.628057  9778 net.cpp:425] inception_5a/output_inception_5a/output_0_split <- inception_5a/output
I0403 19:51:53.628077  9778 net.cpp:399] inception_5a/output_inception_5a/output_0_split -> inception_5a/output_inception_5a/output_0_split_0
I0403 19:51:53.628096  9778 net.cpp:399] inception_5a/output_inception_5a/output_0_split -> inception_5a/output_inception_5a/output_0_split_1
I0403 19:51:53.628116  9778 net.cpp:399] inception_5a/output_inception_5a/output_0_split -> inception_5a/output_inception_5a/output_0_split_2
I0403 19:51:53.628139  9778 net.cpp:399] inception_5a/output_inception_5a/output_0_split -> inception_5a/output_inception_5a/output_0_split_3
I0403 19:51:53.628254  9778 net.cpp:141] Setting up inception_5a/output_inception_5a/output_0_split
I0403 19:51:53.628278  9778 net.cpp:148] Top shape: 24 832 7 7 (978432)
I0403 19:51:53.628293  9778 net.cpp:148] Top shape: 24 832 7 7 (978432)
I0403 19:51:53.628309  9778 net.cpp:148] Top shape: 24 832 7 7 (978432)
I0403 19:51:53.628324  9778 net.cpp:148] Top shape: 24 832 7 7 (978432)
I0403 19:51:53.628336  9778 net.cpp:156] Memory required for data: 1325241888
I0403 19:51:53.628350  9778 layer_factory.hpp:77] Creating layer inception_5b/1x1
I0403 19:51:53.628372  9778 net.cpp:91] Creating Layer inception_5b/1x1
I0403 19:51:53.628389  9778 net.cpp:425] inception_5b/1x1 <- inception_5a/output_inception_5a/output_0_split_0
I0403 19:51:53.628409  9778 net.cpp:399] inception_5b/1x1 -> inception_5b/1x1
I0403 19:51:53.632083  9778 net.cpp:141] Setting up inception_5b/1x1
I0403 19:51:53.632112  9778 net.cpp:148] Top shape: 24 384 7 7 (451584)
I0403 19:51:53.632130  9778 net.cpp:156] Memory required for data: 1327048224
I0403 19:51:53.632148  9778 layer_factory.hpp:77] Creating layer inception_5b/relu_1x1
I0403 19:51:53.632164  9778 net.cpp:91] Creating Layer inception_5b/relu_1x1
I0403 19:51:53.632192  9778 net.cpp:425] inception_5b/relu_1x1 <- inception_5b/1x1
I0403 19:51:53.632212  9778 net.cpp:386] inception_5b/relu_1x1 -> inception_5b/1x1 (in-place)
I0403 19:51:53.632511  9778 net.cpp:141] Setting up inception_5b/relu_1x1
I0403 19:51:53.632536  9778 net.cpp:148] Top shape: 24 384 7 7 (451584)
I0403 19:51:53.632553  9778 net.cpp:156] Memory required for data: 1328854560
I0403 19:51:53.632567  9778 layer_factory.hpp:77] Creating layer inception_5b/3x3_reduce
I0403 19:51:53.632587  9778 net.cpp:91] Creating Layer inception_5b/3x3_reduce
I0403 19:51:53.632603  9778 net.cpp:425] inception_5b/3x3_reduce <- inception_5a/output_inception_5a/output_0_split_1
I0403 19:51:53.632623  9778 net.cpp:399] inception_5b/3x3_reduce -> inception_5b/3x3_reduce
I0403 19:51:53.635211  9778 net.cpp:141] Setting up inception_5b/3x3_reduce
I0403 19:51:53.635241  9778 net.cpp:148] Top shape: 24 192 7 7 (225792)
I0403 19:51:53.635256  9778 net.cpp:156] Memory required for data: 1329757728
I0403 19:51:53.635272  9778 layer_factory.hpp:77] Creating layer inception_5b/relu_3x3_reduce
I0403 19:51:53.635293  9778 net.cpp:91] Creating Layer inception_5b/relu_3x3_reduce
I0403 19:51:53.635309  9778 net.cpp:425] inception_5b/relu_3x3_reduce <- inception_5b/3x3_reduce
I0403 19:51:53.635326  9778 net.cpp:386] inception_5b/relu_3x3_reduce -> inception_5b/3x3_reduce (in-place)
I0403 19:51:53.635511  9778 net.cpp:141] Setting up inception_5b/relu_3x3_reduce
I0403 19:51:53.635535  9778 net.cpp:148] Top shape: 24 192 7 7 (225792)
I0403 19:51:53.635550  9778 net.cpp:156] Memory required for data: 1330660896
I0403 19:51:53.635563  9778 layer_factory.hpp:77] Creating layer inception_5b/3x3
I0403 19:51:53.635584  9778 net.cpp:91] Creating Layer inception_5b/3x3
I0403 19:51:53.635601  9778 net.cpp:425] inception_5b/3x3 <- inception_5b/3x3_reduce
I0403 19:51:53.635627  9778 net.cpp:399] inception_5b/3x3 -> inception_5b/3x3
I0403 19:51:53.642158  9778 net.cpp:141] Setting up inception_5b/3x3
I0403 19:51:53.642199  9778 net.cpp:148] Top shape: 24 384 7 7 (451584)
I0403 19:51:53.642216  9778 net.cpp:156] Memory required for data: 1332467232
I0403 19:51:53.642235  9778 layer_factory.hpp:77] Creating layer inception_5b/relu_3x3
I0403 19:51:53.642251  9778 net.cpp:91] Creating Layer inception_5b/relu_3x3
I0403 19:51:53.642267  9778 net.cpp:425] inception_5b/relu_3x3 <- inception_5b/3x3
I0403 19:51:53.642287  9778 net.cpp:386] inception_5b/relu_3x3 -> inception_5b/3x3 (in-place)
I0403 19:51:53.642572  9778 net.cpp:141] Setting up inception_5b/relu_3x3
I0403 19:51:53.642601  9778 net.cpp:148] Top shape: 24 384 7 7 (451584)
I0403 19:51:53.642616  9778 net.cpp:156] Memory required for data: 1334273568
I0403 19:51:53.642629  9778 layer_factory.hpp:77] Creating layer inception_5b/5x5_reduce
I0403 19:51:53.642668  9778 net.cpp:91] Creating Layer inception_5b/5x5_reduce
I0403 19:51:53.642686  9778 net.cpp:425] inception_5b/5x5_reduce <- inception_5a/output_inception_5a/output_0_split_2
I0403 19:51:53.642704  9778 net.cpp:399] inception_5b/5x5_reduce -> inception_5b/5x5_reduce
I0403 19:51:53.643942  9778 net.cpp:141] Setting up inception_5b/5x5_reduce
I0403 19:51:53.643971  9778 net.cpp:148] Top shape: 24 48 7 7 (56448)
I0403 19:51:53.643986  9778 net.cpp:156] Memory required for data: 1334499360
I0403 19:51:53.644006  9778 layer_factory.hpp:77] Creating layer inception_5b/relu_5x5_reduce
I0403 19:51:53.644022  9778 net.cpp:91] Creating Layer inception_5b/relu_5x5_reduce
I0403 19:51:53.644038  9778 net.cpp:425] inception_5b/relu_5x5_reduce <- inception_5b/5x5_reduce
I0403 19:51:53.644054  9778 net.cpp:386] inception_5b/relu_5x5_reduce -> inception_5b/5x5_reduce (in-place)
I0403 19:51:53.644429  9778 net.cpp:141] Setting up inception_5b/relu_5x5_reduce
I0403 19:51:53.644454  9778 net.cpp:148] Top shape: 24 48 7 7 (56448)
I0403 19:51:53.644469  9778 net.cpp:156] Memory required for data: 1334725152
I0403 19:51:53.644484  9778 layer_factory.hpp:77] Creating layer inception_5b/5x5
I0403 19:51:53.644503  9778 net.cpp:91] Creating Layer inception_5b/5x5
I0403 19:51:53.644520  9778 net.cpp:425] inception_5b/5x5 <- inception_5b/5x5_reduce
I0403 19:51:53.644538  9778 net.cpp:399] inception_5b/5x5 -> inception_5b/5x5
I0403 19:51:53.646545  9778 net.cpp:141] Setting up inception_5b/5x5
I0403 19:51:53.646574  9778 net.cpp:148] Top shape: 24 128 7 7 (150528)
I0403 19:51:53.646589  9778 net.cpp:156] Memory required for data: 1335327264
I0403 19:51:53.646607  9778 layer_factory.hpp:77] Creating layer inception_5b/relu_5x5
I0403 19:51:53.646625  9778 net.cpp:91] Creating Layer inception_5b/relu_5x5
I0403 19:51:53.646641  9778 net.cpp:425] inception_5b/relu_5x5 <- inception_5b/5x5
I0403 19:51:53.646659  9778 net.cpp:386] inception_5b/relu_5x5 -> inception_5b/5x5 (in-place)
I0403 19:51:53.646847  9778 net.cpp:141] Setting up inception_5b/relu_5x5
I0403 19:51:53.646872  9778 net.cpp:148] Top shape: 24 128 7 7 (150528)
I0403 19:51:53.646885  9778 net.cpp:156] Memory required for data: 1335929376
I0403 19:51:53.646899  9778 layer_factory.hpp:77] Creating layer inception_5b/pool
I0403 19:51:53.646916  9778 net.cpp:91] Creating Layer inception_5b/pool
I0403 19:51:53.646932  9778 net.cpp:425] inception_5b/pool <- inception_5a/output_inception_5a/output_0_split_3
I0403 19:51:53.646952  9778 net.cpp:399] inception_5b/pool -> inception_5b/pool
I0403 19:51:53.647025  9778 net.cpp:141] Setting up inception_5b/pool
I0403 19:51:53.647048  9778 net.cpp:148] Top shape: 24 832 7 7 (978432)
I0403 19:51:53.647063  9778 net.cpp:156] Memory required for data: 1339843104
I0403 19:51:53.647076  9778 layer_factory.hpp:77] Creating layer inception_5b/pool_proj
I0403 19:51:53.647099  9778 net.cpp:91] Creating Layer inception_5b/pool_proj
I0403 19:51:53.647115  9778 net.cpp:425] inception_5b/pool_proj <- inception_5b/pool
I0403 19:51:53.647135  9778 net.cpp:399] inception_5b/pool_proj -> inception_5b/pool_proj
I0403 19:51:53.649471  9778 net.cpp:141] Setting up inception_5b/pool_proj
I0403 19:51:53.649503  9778 net.cpp:148] Top shape: 24 128 7 7 (150528)
I0403 19:51:53.649519  9778 net.cpp:156] Memory required for data: 1340445216
I0403 19:51:53.649538  9778 layer_factory.hpp:77] Creating layer inception_5b/relu_pool_proj
I0403 19:51:53.649554  9778 net.cpp:91] Creating Layer inception_5b/relu_pool_proj
I0403 19:51:53.649571  9778 net.cpp:425] inception_5b/relu_pool_proj <- inception_5b/pool_proj
I0403 19:51:53.649588  9778 net.cpp:386] inception_5b/relu_pool_proj -> inception_5b/pool_proj (in-place)
I0403 19:51:53.649884  9778 net.cpp:141] Setting up inception_5b/relu_pool_proj
I0403 19:51:53.649912  9778 net.cpp:148] Top shape: 24 128 7 7 (150528)
I0403 19:51:53.649927  9778 net.cpp:156] Memory required for data: 1341047328
I0403 19:51:53.649942  9778 layer_factory.hpp:77] Creating layer inception_5b/output
I0403 19:51:53.649960  9778 net.cpp:91] Creating Layer inception_5b/output
I0403 19:51:53.649991  9778 net.cpp:425] inception_5b/output <- inception_5b/1x1
I0403 19:51:53.650008  9778 net.cpp:425] inception_5b/output <- inception_5b/3x3
I0403 19:51:53.650024  9778 net.cpp:425] inception_5b/output <- inception_5b/5x5
I0403 19:51:53.650040  9778 net.cpp:425] inception_5b/output <- inception_5b/pool_proj
I0403 19:51:53.650058  9778 net.cpp:399] inception_5b/output -> inception_5b/output
I0403 19:51:53.650110  9778 net.cpp:141] Setting up inception_5b/output
I0403 19:51:53.650135  9778 net.cpp:148] Top shape: 24 1024 7 7 (1204224)
I0403 19:51:53.650148  9778 net.cpp:156] Memory required for data: 1345864224
I0403 19:51:53.650162  9778 layer_factory.hpp:77] Creating layer pool5/7x7_s1
I0403 19:51:53.650189  9778 net.cpp:91] Creating Layer pool5/7x7_s1
I0403 19:51:53.650207  9778 net.cpp:425] pool5/7x7_s1 <- inception_5b/output
I0403 19:51:53.650225  9778 net.cpp:399] pool5/7x7_s1 -> pool5/7x7_s1
I0403 19:51:53.650441  9778 net.cpp:141] Setting up pool5/7x7_s1
I0403 19:51:53.650466  9778 net.cpp:148] Top shape: 24 1024 1 1 (24576)
I0403 19:51:53.650481  9778 net.cpp:156] Memory required for data: 1345962528
I0403 19:51:53.650496  9778 layer_factory.hpp:77] Creating layer pool5/drop_7x7_s1
I0403 19:51:53.650514  9778 net.cpp:91] Creating Layer pool5/drop_7x7_s1
I0403 19:51:53.650529  9778 net.cpp:425] pool5/drop_7x7_s1 <- pool5/7x7_s1
I0403 19:51:53.650548  9778 net.cpp:386] pool5/drop_7x7_s1 -> pool5/7x7_s1 (in-place)
I0403 19:51:53.650599  9778 net.cpp:141] Setting up pool5/drop_7x7_s1
I0403 19:51:53.650620  9778 net.cpp:148] Top shape: 24 1024 1 1 (24576)
I0403 19:51:53.650638  9778 net.cpp:156] Memory required for data: 1346060832
I0403 19:51:53.650653  9778 layer_factory.hpp:77] Creating layer loss3/classifier_plantvillage
I0403 19:51:53.650672  9778 net.cpp:91] Creating Layer loss3/classifier_plantvillage
I0403 19:51:53.650688  9778 net.cpp:425] loss3/classifier_plantvillage <- pool5/7x7_s1
I0403 19:51:53.650708  9778 net.cpp:399] loss3/classifier_plantvillage -> loss3/classifier_plantvillage
I0403 19:51:53.651141  9778 net.cpp:141] Setting up loss3/classifier_plantvillage
I0403 19:51:53.651166  9778 net.cpp:148] Top shape: 24 38 (912)
I0403 19:51:53.651187  9778 net.cpp:156] Memory required for data: 1346064480
I0403 19:51:53.651207  9778 layer_factory.hpp:77] Creating layer loss3/classifier_plantvillage_loss3/classifier_plantvillage_0_split
I0403 19:51:53.651228  9778 net.cpp:91] Creating Layer loss3/classifier_plantvillage_loss3/classifier_plantvillage_0_split
I0403 19:51:53.651245  9778 net.cpp:425] loss3/classifier_plantvillage_loss3/classifier_plantvillage_0_split <- loss3/classifier_plantvillage
I0403 19:51:53.651262  9778 net.cpp:399] loss3/classifier_plantvillage_loss3/classifier_plantvillage_0_split -> loss3/classifier_plantvillage_loss3/classifier_plantvillage_0_split_0
I0403 19:51:53.651281  9778 net.cpp:399] loss3/classifier_plantvillage_loss3/classifier_plantvillage_0_split -> loss3/classifier_plantvillage_loss3/classifier_plantvillage_0_split_1
I0403 19:51:53.651301  9778 net.cpp:399] loss3/classifier_plantvillage_loss3/classifier_plantvillage_0_split -> loss3/classifier_plantvillage_loss3/classifier_plantvillage_0_split_2
I0403 19:51:53.651324  9778 net.cpp:399] loss3/classifier_plantvillage_loss3/classifier_plantvillage_0_split -> loss3/classifier_plantvillage_loss3/classifier_plantvillage_0_split_3
I0403 19:51:53.651427  9778 net.cpp:141] Setting up loss3/classifier_plantvillage_loss3/classifier_plantvillage_0_split
I0403 19:51:53.651449  9778 net.cpp:148] Top shape: 24 38 (912)
I0403 19:51:53.651466  9778 net.cpp:148] Top shape: 24 38 (912)
I0403 19:51:53.651481  9778 net.cpp:148] Top shape: 24 38 (912)
I0403 19:51:53.651496  9778 net.cpp:148] Top shape: 24 38 (912)
I0403 19:51:53.651510  9778 net.cpp:156] Memory required for data: 1346079072
I0403 19:51:53.651525  9778 layer_factory.hpp:77] Creating layer loss1/loss
I0403 19:51:53.651546  9778 net.cpp:91] Creating Layer loss1/loss
I0403 19:51:53.651562  9778 net.cpp:425] loss1/loss <- loss1/classifier_plantvillage_loss1/classifier_plantvillage_0_split_0
I0403 19:51:53.651592  9778 net.cpp:425] loss1/loss <- label_data_1_split_0
…
