…
I0403 19:02:18.383010  8470 net.cpp:313] The NetState phase (1) differed from the phase (0) specified by a rule in layer data
I0403 19:02:18.384228  8470 net.cpp:49] Initializing net from parameters: 
state {
  phase: TEST
}
layer {
  name: "data"
  type: "Data"
  top: "data"
  top: "label"
  include {
    phase: TEST
  }
  transform_param {
    mirror: false
    crop_size: 224
    mean_file: "/home/mohanty/data/final_dataset/lmdb/grayscale-50-50/mean.binaryproto"
  }
  data_param {
    source: "/home/mohanty/data/final_dataset/lmdb/grayscale-50-50/test_db"
    batch_size: 24
    backend: LMDB
  }
}
layer {
  name: "conv1/7x7_s2"
  type: "Convolution"
  bottom: "data"
  top: "conv1/7x7_s2"
  param {
    lr_mult: 1
    decay_mult: 1
  }
  param {
    lr_mult: 2
    decay_mult: 0
  }
  convolution_param {
    num_output: 64
    pad: 3
    kernel_size: 7
    stride: 2
    weight_filler {
      type: "xavier"
      std: 0.1
    }
    bias_filler {
      type: "constant"
      value: 0.2
    }
  }
}
layer {
  name: "conv1/relu_7x7"
  type: "ReLU"
  bottom: "conv1/7x7_s2"
  top: "conv1/7x7_s2"
}
layer {
  name: "pool1/3x3_s2"
  type: "Pooling"
  bottom: "conv1/7x7_s2"
  top: "pool1/3x3_s2"
  pooling_param {
    pool: MAX
    kernel_size: 3
    stride: 2
  }
}
layer {
  name: "pool1/norm1"
  type: "LRN"
  bottom: "pool1/3x3_s2"
  top: "pool1/norm1"
  lrn_param {
    local_size: 5
    alpha: 0.0001
    beta: 0.75
  }
}
layer {
  name: "conv2/3x3_reduce"
  type: "Convolution"
  bottom: "pool1/norm1"
  top: "conv2/3x3_reduce"
  param {
    lr_mult: 1
    decay_mult: 1
  }
  param {
    lr_mult: 2
    decay_mult: 0
  }
  convolution_param {
    num_output: 64
    kernel_size: 1
    weight_filler {
      type: "xavier"
      std: 0.1
    }
    bias_filler {
      type: "constant"
      value: 0.2
    }
  }
}
layer {
  name: "conv2/relu_3x3_reduce"
  type: "ReLU"
  bottom: "conv2/3x3_reduce"
  top: "conv2/3x3_reduce"
}
layer {
  name: "conv2/3x3"
  type: "Convolution"
  bottom: "conv2/3x3_reduce"
  top: "conv2/3x3"
  param {
    lr_mult: 1
    decay_mult: 1
  }
  param {
    lr_mult: 2
    decay_mult: 0
  }
  convolution_param {
    num_output: 192
    pad: 1
    kernel_size: 3
    weight_filler {
      type: "xavier"
      std: 0.03
    }
    bias_filler {
      type: "constant"
      value: 0.2
    }
  }
}
layer {
  name: "conv2/relu_3x3"
  type: "ReLU"
  bottom: "conv2/3x3"
  top: "conv2/3x3"
}
layer {
  name: "conv2/norm2"
  type: "LRN"
  bottom: "conv2/3x3"
  top: "conv2/norm2"
  lrn_param {
    local_size: 5
    alpha: 0.0001
    beta: 0.75
  }
}
layer {
  name: "pool2/3x3_s2"
  type: "Pooling"
  bottom: "conv2/norm2"
  top: "pool2/3x3_s2"
  pooling_param {
    pool: MAX
    kernel_size: 3
    stride: 2
  }
}
layer {
  name: "inception_3a/1x1"
  type: "Convolution"
  bottom: "pool2/3x3_s2"
  top: "inception_3a/1x1"
  param {
    lr_mult: 1
    decay_mult: 1
  }
  param {
    lr_mult: 2
    decay_mult: 0
  }
  convolution_param {
    num_output: 64
    kernel_size: 1
    weight_filler {
      type: "xavier"
      std: 0.03
    }
    bias_filler {
      type: "constant"
      value: 0.2
    }
  }
}
layer {
  name: "inception_3a/relu_1x1"
  type: "ReLU"
  bottom: "inception_3a/1x1"
  top: "inception_3a/1x1"
}
layer {
  name: "inception_3a/3x3_reduce"
  type: "Convolution"
  bottom: "pool2/3x3_s2"
  top: "inception_3a/3x3_reduce"
  param {
    lr_mult: 1
    decay_mult: 1
  }
  param {
    lr_mult: 2
    decay_mult: 0
  }
  convolution_param {
    num_output: 96
    kernel_size: 1
    weight_filler {
      type: "xavier"
      std: 0.09
    }
    bias_filler {
      type: "constant"
      value: 0.2
    }
  }
}
layer {
  name: "inception_3a/relu_3x3_reduce"
  type: "ReLU"
  bottom: "inception_3a/3x3_reduce"
  top: "inception_3a/3x3_reduce"
}
layer {
  name: "inception_3a/3x3"
  type: "Convolution"
  bottom: "inception_3a/3x3_reduce"
  top: "inception_3a/3x3"
  param {
    lr_mult: 1
    decay_mult: 1
  }
  param {
    lr_mult: 2
    decay_mult: 0
  }
  convolution_param {
    num_output: 128
    pad: 1
    kernel_size: 3
    weight_filler {
      type: "xavier"
      std: 0.03
    }
    bias_filler {
      type: "constant"
      value: 0.2
    }
  }
}
layer {
  name: "inception_3a/relu_3x3"
  type: "ReLU"
  bottom: "inception_3a/3x3"
  top: "inception_3a/3x3"
}
layer {
  name: "inception_3a/5x5_reduce"
  type: "Convolution"
  bottom: "pool2/3x3_s2"
  top: "inception_3a/5x5_reduce"
  param {
    lr_mult: 1
    decay_mult: 1
  }
  param {
    lr_mult: 2
    decay_mult: 0
  }
  convolution_param {
    num_output: 16
    kernel_size: 1
    weight_filler {
      type: "xavier"
      std: 0.2
    }
    bias_filler {
      type: "constant"
      value: 0.2
    }
  }
}
layer {
  name: "inception_3a/relu_5x5_reduce"
  type: "ReLU"
  bottom: "inception_3a/5x5_reduce"
  top: "inception_3a/5x5_reduce"
}
layer {
  name: "inception_3a/5x5"
  type: "Convolution"
  bottom: "inception_3a/5x5_reduce"
  top: "inception_3a/5x5"
  param {
    lr_mult: 1
    decay_mult: 1
  }
  param {
    lr_mult: 2
    decay_mult: 0
  }
  convolution_param {
    num_output: 32
    pad: 2
    kernel_size: 5
    weight_filler {
      type: "xavier"
      std: 0.03
    }
    bias_filler {
      type: "constant"
      value: 0.2
    }
  }
}
layer {
  name: "inception_3a/relu_5x5"
  type: "ReLU"
  bottom: "inception_3a/5x5"
  top: "inception_3a/5x5"
}
layer {
  name: "inception_3a/pool"
  type: "Pooling"
  bottom: "pool2/3x3_s2"
  top: "inception_3a/pool"
  pooling_param {
    pool: MAX
    kernel_size: 3
    stride: 1
    pad: 1
  }
}
layer {
  name: "inception_3a/pool_proj"
  type: "Convolution"
  bottom: "inception_3a/pool"
  top: "inception_3a/pool_proj"
  param {
    lr_mult: 1
    decay_mult: 1
  }
  param {
    lr_mult: 2
    decay_mult: 0
  }
  convolution_param {
    num_output: 32
    kernel_size: 1
    weight_filler {
      type: "xavier"
      std: 0.1
    }
    bias_filler {
      type: "constant"
      value: 0.2
    }
  }
}
layer {
  name: "inception_3a/relu_pool_proj"
  type: "ReLU"
  bottom: "inception_3a/pool_proj"
  top: "inception_3a/pool_proj"
}
layer {
  name: "inception_3a/output"
  type: "Concat"
  bottom: "inception_3a/1x1"
  bottom: "inception_3a/3x3"
  bottom: "inception_3a/5x5"
  bottom: "inception_3a/pool_proj"
  top: "inception_3a/output"
}
layer {
  name: "inception_3b/1x1"
  type: "Convolution"
  bottom: "inception_3a/output"
  top: "inception_3b/1x1"
  param {
    lr_mult: 1
    decay_mult: 1
  }
  param {
    lr_mult: 2
    decay_mult: 0
  }
  convolution_param {
    num_output: 128
    kernel_size: 1
    weight_filler {
      type: "xavier"
      std: 0.03
    }
    bias_filler {
      type: "constant"
      value: 0.2
    }
  }
}
layer {
  name: "inception_3b/relu_1x1"
  type: "ReLU"
  bottom: "inception_3b/1x1"
  top: "inception_3b/1x1"
}
layer {
  name: "inception_3b/3x3_reduce"
  type: "Convolution"
  bottom: "inception_3a/output"
  top: "inception_3b/3x3_reduce"
  param {
    lr_mult: 1
    decay_mult: 1
  }
  param {
    lr_mult: 2
    decay_mult: 0
  }
  convolution_param {
    num_output: 128
    kernel_size: 1
    weight_filler {
      type: "xavier"
      std: 0.09
    }
    bias_filler {
      type: "constant"
      value: 0.2
    }
  }
}
layer {
  name: "inception_3b/relu_3x3_reduce"
  type: "ReLU"
  bottom: "inception_3b/3x3_reduce"
  top: "inception_3b/3x3_reduce"
}
layer {
  name: "inception_3b/3x3"
  type: "Convolution"
  bottom: "inception_3b/3x3_reduce"
  top: "inception_3b/3x3"
  param {
    lr_mult: 1
    decay_mult: 1
  }
  param {
    lr_mult: 2
    decay_mult: 0
  }
  convolution_param {
    num_output: 192
    pad: 1
    kernel_size: 3
    weight_filler {
      type: "xavier"
      std: 0.03
    }
    bias_filler {
      type: "constant"
      value: 0.2
    }
  }
}
layer {
  name: "inception_3b/relu_3x3"
  type: "ReLU"
  bottom: "inception_3b/3x3"
  top: "inception_3b/3x3"
}
layer {
  name: "inception_3b/5x5_reduce"
  type: "Convolution"
  bottom: "inception_3a/output"
  top: "inception_3b/5x5_reduce"
  param {
    lr_mult: 1
    decay_mult: 1
  }
  param {
    lr_mult: 2
    decay_mult: 0
  }
  convolution_param {
    num_output: 32
    kernel_size: 1
    weight_filler {
      type: "xavier"
      std: 0.2
    }
    bias_filler {
      type: "constant"
      value: 0.2
    }
  }
}
layer {
  name: "inception_3b/relu_5x5_reduce"
  type: "ReLU"
  bottom: "inception_3b/5x5_reduce"
  top: "inception_3b/5x5_reduce"
}
layer {
  name: "inception_3b/5x5"
  type: "Convolution"
  bottom: "inception_3b/5x5_reduce"
  top: "inception_3b/5x5"
  param {
    lr_mult: 1
    decay_mult: 1
  }
  param {
    lr_mult: 2
    decay_mult: 0
  }
  convolution_param {
    num_output: 96
    pad: 2
    kernel_size: 5
    weight_filler {
      type: "xavier"
      std: 0.03
    }
    bias_filler {
      type: "constant"
      value: 0.2
    }
  }
}
layer {
  name: "inception_3b/relu_5x5"
  type: "ReLU"
  bottom: "inception_3b/5x5"
  top: "inception_3b/5x5"
}
layer {
  name: "inception_3b/pool"
  type: "Pooling"
  bottom: "inception_3a/output"
  top: "inception_3b/pool"
  pooling_param {
    pool: MAX
    kernel_size: 3
    stride: 1
    pad: 1
  }
}
layer {
  name: "inception_3b/pool_proj"
  type: "Convolution"
  bottom: "inception_3b/pool"
  top: "inception_3b/pool_proj"
  param {
    lr_mult: 1
    decay_mult: 1
  }
  param {
    lr_mult: 2
    decay_mult: 0
  }
  convolution_param {
    num_output: 64
    kernel_size: 1
    weight_filler {
      type: "xavier"
      std: 0.1
    }
    bias_filler {
      type: "constant"
      value: 0.2
    }
  }
}
layer {
  name: "inception_3b/relu_pool_proj"
  type: "ReLU"
  bottom: "inception_3b/pool_proj"
  top: "inception_3b/pool_proj"
}
layer {
  name: "inception_3b/output"
  type: "Concat"
  bottom: "inception_3b/1x1"
  bottom: "inception_3b/3x3"
  bottom: "inception_3b/5x5"
  bottom: "inception_3b/pool_proj"
  top: "inception_3b/output"
}
layer {
  name: "pool3/3x3_s2"
  type: "Pooling"
  bottom: "inception_3b/output"
  top: "pool3/3x3_s2"
  pooling_param {
    pool: MAX
    kernel_size: 3
    stride: 2
  }
}
layer {
  name: "inception_4a/1x1"
  type: "Convolution"
  bottom: "pool3/3x3_s2"
  top: "inception_4a/1x1"
  param {
    lr_mult: 1
    decay_mult: 1
  }
  param {
    lr_mult: 2
    decay_mult: 0
  }
  convolution_param {
    num_output: 192
    kernel_size: 1
    weight_filler {
      type: "xavier"
      std: 0.03
    }
    bias_filler {
      type: "constant"
      value: 0.2
    }
  }
}
layer {
  name: "inception_4a/relu_1x1"
  type: "ReLU"
  bottom: "inception_4a/1x1"
  top: "inception_4a/1x1"
}
layer {
  name: "inception_4a/3x3_reduce"
  type: "Convolution"
  bottom: "pool3/3x3_s2"
  top: "inception_4a/3x3_reduce"
  param {
    lr_mult: 1
    decay_mult: 1
  }
  param {
    lr_mult: 2
    decay_mult: 0
  }
  convolution_param {
    num_output: 96
    kernel_size: 1
    weight_filler {
      type: "xavier"
      std: 0.09
    }
    bias_filler {
      type: "constant"
      value: 0.2
    }
  }
}
layer {
  name: "inception_4a/relu_3x3_reduce"
  type: "ReLU"
  bottom: "inception_4a/3x3_reduce"
  top: "inception_4a/3x3_reduce"
}
layer {
  name: "inception_4a/3x3"
  type: "Convolution"
  bottom: "inception_4a/3x3_reduce"
  top: "inception_4a/3x3"
  param {
    lr_mult: 1
    decay_mult: 1
  }
  param {
    lr_mult: 2
    decay_mult: 0
  }
  convolution_param {
    num_output: 208
    pad: 1
    kernel_size: 3
    weight_filler {
      type: "xavier"
      std: 0.03
    }
    bias_filler {
      type: "constant"
      value: 0.2
    }
  }
}
layer {
  name: "inception_4a/relu_3x3"
  type: "ReLU"
  bottom: "inception_4a/3x3"
  top: "inception_4a/3x3"
}
layer {
  name: "inception_4a/5x5_reduce"
  type: "Convolution"
  bottom: "pool3/3x3_s2"
  top: "inception_4a/5x5_reduce"
  param {
    lr_mult: 1
    decay_mult: 1
  }
  param {
    lr_mult: 2
    decay_mult: 0
  }
  convolution_param {
    num_output: 16
    kernel_size: 1
    weight_filler {
      type: "xavier"
      std: 0.2
    }
    bias_filler {
      type: "constant"
      value: 0.2
    }
  }
}
layer {
  name: "inception_4a/relu_5x5_reduce"
  type: "ReLU"
  bottom: "inception_4a/5x5_reduce"
  top: "inception_4a/5x5_reduce"
}
layer {
  name: "inception_4a/5x5"
  type: "Convolution"
  bottom: "inception_4a/5x5_reduce"
  top: "inception_4a/5x5"
  param {
    lr_mult: 1
    decay_mult: 1
  }
  param {
    lr_mult: 2
    decay_mult: 0
  }
  convolution_param {
    num_output: 48
    pad: 2
    kernel_size: 5
    weight_filler {
      type: "xavier"
      std: 0.03
    }
    bias_filler {
      type: "constant"
      value: 0.2
    }
  }
}
layer {
  name: "inception_4a/relu_5x5"
  type: "ReLU"
  bottom: "inception_4a/5x5"
  top: "inception_4a/5x5"
}
layer {
  name: "inception_4a/pool"
  type: "Pooling"
  bottom: "pool3/3x3_s2"
  top: "inception_4a/pool"
  pooling_param {
    pool: MAX
    kernel_size: 3
    stride: 1
    pad: 1
  }
}
layer {
  name: "inception_4a/pool_proj"
  type: "Convolution"
  bottom: "inception_4a/pool"
  top: "inception_4a/pool_proj"
  param {
    lr_mult: 1
    decay_mult: 1
  }
  param {
    lr_mult: 2
    decay_mult: 0
  }
  convolution_param {
    num_output: 64
    kernel_size: 1
    weight_filler {
      type: "xavier"
      std: 0.1
    }
    bias_filler {
      type: "constant"
      value: 0.2
    }
  }
}
layer {
  name: "inception_4a/relu_pool_proj"
  type: "ReLU"
  bottom: "inception_4a/pool_proj"
  top: "inception_4a/pool_proj"
}
layer {
  name: "inception_4a/output"
  type: "Concat"
  bottom: "inception_4a/1x1"
  bottom: "inception_4a/3x3"
  bottom: "inception_4a/5x5"
  bottom: "inception_4a/pool_proj"
  top: "inception_4a/output"
}
layer {
  name: "loss1/ave_pool"
  type: "Pooling"
  bottom: "inception_4a/output"
  top: "loss1/ave_pool"
  pooling_param {
    pool: AVE
    kernel_size: 5
    stride: 3
  }
}
layer {
  name: "loss1/conv"
  type: "Convolution"
  bottom: "loss1/ave_pool"
  top: "loss1/conv"
  param {
    lr_mult: 1
    decay_mult: 1
  }
  param {
    lr_mult: 2
    decay_mult: 0
  }
  convolution_param {
    num_output: 128
    kernel_size: 1
    weight_filler {
      type: "xavier"
      std: 0.08
    }
    bias_filler {
      type: "constant"
      value: 0.2
    }
  }
}
layer {
  name: "loss1/relu_conv"
  type: "ReLU"
  bottom: "loss1/conv"
  top: "loss1/conv"
}
layer {
  name: "loss1/fc"
  type: "InnerProduct"
  bottom: "loss1/conv"
  top: "loss1/fc"
  param {
    lr_mult: 1
    decay_mult: 1
  }
  param {
    lr_mult: 2
    decay_mult: 0
  }
  inner_product_param {
    num_output: 1024
    weight_filler {
      type: "xavier"
      std: 0.02
    }
    bias_filler {
      type: "constant"
      value: 0.2
    }
  }
}
layer {
  name: "loss1/relu_fc"
  type: "ReLU"
  bottom: "loss1/fc"
  top: "loss1/fc"
}
layer {
  name: "loss1/drop_fc"
  type: "Dropout"
  bottom: "loss1/fc"
  top: "loss1/fc"
  dropout_param {
    dropout_ratio: 0.7
  }
}
layer {
  name: "loss1/classifier_plantvillage"
  type: "InnerProduct"
  bottom: "loss1/fc"
  top: "loss1/classifier_plantvillage"
  param {
    lr_mult: 1
    decay_mult: 1
  }
  param {
    lr_mult: 2
    decay_mult: 0
  }
  inner_product_param {
    num_output: 38
    weight_filler {
      type: "xavier"
      std: 0.0009765625
    }
    bias_filler {
      type: "constant"
      value: 0
    }
  }
}
layer {
  name: "inception_4b/1x1"
  type: "Convolution"
  bottom: "inception_4a/output"
  top: "inception_4b/1x1"
  param {
    lr_mult: 1
    decay_mult: 1
  }
  param {
    lr_mult: 2
    decay_mult: 0
  }
  convolution_param {
    num_output: 160
    kernel_size: 1
    weight_filler {
      type: "xavier"
      std: 0.03
    }
    bias_filler {
      type: "constant"
      value: 0.2
    }
  }
}
layer {
  name: "inception_4b/relu_1x1"
  type: "ReLU"
  bottom: "inception_4b/1x1"
  top: "inception_4b/1x1"
}
layer {
  name: "inception_4b/3x3_reduce"
  type: "Convolution"
  bottom: "inception_4a/output"
  top: "inception_4b/3x3_reduce"
  param {
    lr_mult: 1
    decay_mult: 1
  }
  param {
    lr_mult: 2
    decay_mult: 0
  }
  convolution_param {
    num_output: 112
    kernel_size: 1
    weight_filler {
      type: "xavier"
      std: 0.09
    }
    bias_filler {
      type: "constant"
      value: 0.2
    }
  }
}
layer {
  name: "inception_4b/relu_3x3_reduce"
  type: "ReLU"
  bottom: "inception_4b/3x3_reduce"
  top: "inception_4b/3x3_reduce"
}
layer {
  name: "inception_4b/3x3"
  type: "Convolution"
  bottom: "inception_4b/3x3_reduce"
  top: "inception_4b/3x3"
  param {
    lr_mult: 1
    decay_mult: 1
  }
  param {
    lr_mult: 2
    decay_mult: 0
  }
  convolution_param {
    num_output: 224
    pad: 1
    kernel_size: 3
    weight_filler {
      type: "xavier"
      std: 0.03
    }
    bias_filler {
      type: "constant"
      value: 0.2
    }
  }
}
layer {
  name: "inception_4b/relu_3x3"
  type: "ReLU"
  bottom: "inception_4b/3x3"
  top: "inception_4b/3x3"
}
layer {
  name: "inception_4b/5x5_reduce"
  type: "Convolution"
  bottom: "inception_4a/output"
  top: "inception_4b/5x5_reduce"
  param {
    lr_mult: 1
    decay_mult: 1
  }
  param {
    lr_mult: 2
    decay_mult: 0
  }
  convolution_param {
    num_output: 24
    kernel_size: 1
    weight_filler {
      type: "xavier"
      std: 0.2
    }
    bias_filler {
      type: "constant"
      value: 0.2
    }
  }
}
layer {
  name: "inception_4b/relu_5x5_reduce"
  type: "ReLU"
  bottom: "inception_4b/5x5_reduce"
  top: "inception_4b/5x5_reduce"
}
layer {
  name: "inception_4b/5x5"
  type: "Convolution"
  bottom: "inception_4b/5x5_reduce"
  top: "inception_4b/5x5"
  param {
    lr_mult: 1
    decay_mult: 1
  }
  param {
    lr_mult: 2
    decay_mult: 0
  }
  convolution_param {
    num_output: 64
    pad: 2
    kernel_size: 5
    weight_filler {
      type: "xavier"
      std: 0.03
    }
    bias_filler {
      type: "constant"
      value: 0.2
    }
  }
}
layer {
  name: "inception_4b/relu_5x5"
  type: "ReLU"
  bottom: "inception_4b/5x5"
  top: "inception_4b/5x5"
}
layer {
  name: "inception_4b/pool"
  type: "Pooling"
  bottom: "inception_4a/output"
  top: "inception_4b/pool"
  pooling_param {
    pool: MAX
    kernel_size: 3
    stride: 1
    pad: 1
  }
}
layer {
  name: "inception_4b/pool_proj"
  type: "Convolution"
  bottom: "inception_4b/pool"
  top: "inception_4b/pool_proj"
  param {
    lr_mult: 1
    decay_mult: 1
  }
  param {
    lr_mult: 2
    decay_mult: 0
  }
  convolution_param {
    num_output: 64
    kernel_size: 1
    weight_filler {
      type: "xavier"
      std: 0.1
    }
    bias_filler {
      type: "constant"
      value: 0.2
    }
  }
}
layer {
  name: "inception_4b/relu_pool_proj"
  type: "ReLU"
  bottom: "inception_4b/pool_proj"
  top: "inception_4b/pool_proj"
}
layer {
  name: "inception_4b/output"
  type: "Concat"
  bottom: "inception_4b/1x1"
  bottom: "inception_4b/3x3"
  bottom: "inception_4b/5x5"
  bottom: "inception_4b/pool_proj"
  top: "inception_4b/output"
}
layer {
  name: "inception_4c/1x1"
  type: "Convolution"
  bottom: "inception_4b/output"
  top: "inception_4c/1x1"
  param {
    lr_mult: 1
    decay_mult: 1
  }
  param {
    lr_mult: 2
    decay_mult: 0
  }
  convolution_param {
    num_output: 128
    kernel_size: 1
    weight_filler {
      type: "xavier"
      std: 0.03
    }
    bias_filler {
      type: "constant"
      value: 0.2
    }
  }
}
layer {
  name: "inception_4c/relu_1x1"
  type: "ReLU"
  bottom: "inception_4c/1x1"
  top: "inception_4c/1x1"
}
layer {
  name: "inception_4c/3x3_reduce"
  type: "Convolution"
  bottom: "inception_4b/output"
  top: "inception_4c/3x3_reduce"
  param {
    lr_mult: 1
    decay_mult: 1
  }
  param {
    lr_mult: 2
    decay_mult: 0
  }
  convolution_param {
    num_output: 128
    kernel_size: 1
    weight_filler {
      type: "xavier"
      std: 0.09
    }
    bias_filler {
      type: "constant"
      value: 0.2
    }
  }
}
layer {
  name: "inception_4c/relu_3x3_reduce"
  type: "ReLU"
  bottom: "inception_4c/3x3_reduce"
  top: "inception_4c/3x3_reduce"
}
layer {
  name: "inception_4c/3x3"
  type: "Convolution"
  bottom: "inception_4c/3x3_reduce"
  top: "inception_4c/3x3"
  param {
    lr_mult: 1
    decay_mult: 1
  }
  param {
    lr_mult: 2
    decay_mult: 0
  }
  convolution_param {
    num_output: 256
    pad: 1
    kernel_size: 3
    weight_filler {
      type: "xavier"
      std: 0.03
    }
    bias_filler {
      type: "constant"
      value: 0.2
    }
  }
}
layer {
  name: "inception_4c/relu_3x3"
  type: "ReLU"
  bottom: "inception_4c/3x3"
  top: "inception_4c/3x3"
}
layer {
  name: "inception_4c/5x5_reduce"
  type: "Convolution"
  bottom: "inception_4b/output"
  top: "inception_4c/5x5_reduce"
  param {
    lr_mult: 1
    decay_mult: 1
  }
  param {
    lr_mult: 2
    decay_mult: 0
  }
  convolution_param {
    num_output: 24
    kernel_size: 1
    weight_filler {
      type: "xavier"
      std: 0.2
    }
    bias_filler {
      type: "constant"
      value: 0.2
    }
  }
}
layer {
  name: "inception_4c/relu_5x5_reduce"
  type: "ReLU"
  bottom: "inception_4c/5x5_reduce"
  top: "inception_4c/5x5_reduce"
}
layer {
  name: "inception_4c/5x5"
  type: "Convolution"
  bottom: "inception_4c/5x5_reduce"
  top: "inception_4c/5x5"
  param {
    lr_mult: 1
    decay_mult: 1
  }
  param {
    lr_mult: 2
    decay_mult: 0
  }
  convolution_param {
    num_output: 64
    pad: 2
    kernel_size: 5
    weight_filler {
      type: "xavier"
      std: 0.03
    }
    bias_filler {
      type: "constant"
      value: 0.2
    }
  }
}
layer {
  name: "inception_4c/relu_5x5"
  type: "ReLU"
  bottom: "inception_4c/5x5"
  top: "inception_4c/5x5"
}
layer {
  name: "inception_4c/pool"
  type: "Pooling"
  bottom: "inception_4b/output"
  top: "inception_4c/pool"
  pooling_param {
    pool: MAX
    kernel_size: 3
    stride: 1
    pad: 1
  }
}
layer {
  name: "inception_4c/pool_proj"
  type: "Convolution"
  bottom: "inception_4c/pool"
  top: "inception_4c/pool_proj"
  param {
    lr_mult: 1
    decay_mult: 1
  }
  param {
    lr_mult: 2
    decay_mult: 0
  }
  convolution_param {
    num_output: 64
    kernel_size: 1
    weight_filler {
      type: "xavier"
      std: 0.1
    }
    bias_filler {
      type: "constant"
      value: 0.2
    }
  }
}
layer {
  name: "inception_4c/relu_pool_proj"
  type: "ReLU"
  bottom: "inception_4c/pool_proj"
  top: "inception_4c/pool_proj"
}
layer {
  name: "inception_4c/output"
  type: "Concat"
  bottom: "inception_4c/1x1"
  bottom: "inception_4c/3x3"
  bottom: "inception_4c/5x5"
  bottom: "inception_4c/pool_proj"
  top: "inception_4c/output"
}
layer {
  name: "inception_4d/1x1"
  type: "Convolution"
  bottom: "inception_4c/output"
  top: "inception_4d/1x1"
  param {
    lr_mult: 1
    decay_mult: 1
  }
  param {
    lr_mult: 2
    decay_mult: 0
  }
  convolution_param {
    num_output: 112
    kernel_size: 1
    weight_filler {
      type: "xavier"
      std: 0.03
    }
    bias_filler {
      type: "constant"
      value: 0.2
    }
  }
}
layer {
  name: "inception_4d/relu_1x1"
  type: "ReLU"
  bottom: "inception_4d/1x1"
  top: "inception_4d/1x1"
}
layer {
  name: "inception_4d/3x3_reduce"
  type: "Convolution"
  bottom: "inception_4c/output"
  top: "inception_4d/3x3_reduce"
  param {
    lr_mult: 1
    decay_mult: 1
  }
  param {
    lr_mult: 2
    decay_mult: 0
  }
  convolution_param {
    num_output: 144
    kernel_size: 1
    weight_filler {
      type: "xavier"
      std: 0.09
    }
    bias_filler {
      type: "constant"
      value: 0.2
    }
  }
}
layer {
  name: "inception_4d/relu_3x3_reduce"
  type: "ReLU"
  bottom: "inception_4d/3x3_reduce"
  top: "inception_4d/3x3_reduce"
}
layer {
  name: "inception_4d/3x3"
  type: "Convolution"
  bottom: "inception_4d/3x3_reduce"
  top: "inception_4d/3x3"
  param {
    lr_mult: 1
    decay_mult: 1
  }
  param {
    lr_mult: 2
    decay_mult: 0
  }
  convolution_param {
    num_output: 288
    pad: 1
    kernel_size: 3
    weight_filler {
      type: "xavier"
      std: 0.03
    }
    bias_filler {
      type: "constant"
      value: 0.2
    }
  }
}
layer {
  name: "inception_4d/relu_3x3"
  type: "ReLU"
  bottom: "inception_4d/3x3"
  top: "inception_4d/3x3"
}
layer {
  name: "inception_4d/5x5_reduce"
  type: "Convolution"
  bottom: "inception_4c/output"
  top: "inception_4d/5x5_reduce"
  param {
    lr_mult: 1
    decay_mult: 1
  }
  param {
    lr_mult: 2
    decay_mult: 0
  }
  convolution_param {
    num_output: 32
    kernel_size: 1
    weight_filler {
      type: "xavier"
      std: 0.2
    }
    bias_filler {
      type: "constant"
      value: 0.2
    }
  }
}
layer {
  name: "inception_4d/relu_5x5_reduce"
  type: "ReLU"
  bottom: "inception_4d/5x5_reduce"
  top: "inception_4d/5x5_reduce"
}
layer {
  name: "inception_4d/5x5"
  type: "Convolution"
  bottom: "inception_4d/5x5_reduce"
  top: "inception_4d/5x5"
  param {
    lr_mult: 1
    decay_mult: 1
  }
  param {
    lr_mult: 2
    decay_mult: 0
  }
  convolution_param {
    num_output: 64
    pad: 2
    kernel_size: 5
    weight_filler {
      type: "xavier"
      std: 0.03
    }
    bias_filler {
      type: "constant"
      value: 0.2
    }
  }
}
layer {
  name: "inception_4d/relu_5x5"
  type: "ReLU"
  bottom: "inception_4d/5x5"
  top: "inception_4d/5x5"
}
layer {
  name: "inception_4d/pool"
  type: "Pooling"
  bottom: "inception_4c/output"
  top: "inception_4d/pool"
  pooling_param {
    pool: MAX
    kernel_size: 3
    stride: 1
    pad: 1
  }
}
layer {
  name: "inception_4d/pool_proj"
  type: "Convolution"
  bottom: "inception_4d/pool"
  top: "inception_4d/pool_proj"
  param {
    lr_mult: 1
    decay_mult: 1
  }
  param {
    lr_mult: 2
    decay_mult: 0
  }
  convolution_param {
    num_output: 64
    kernel_size: 1
    weight_filler {
      type: "xavier"
      std: 0.1
    }
    bias_filler {
      type: "constant"
      value: 0.2
    }
  }
}
layer {
  name: "inception_4d/relu_pool_proj"
  type: "ReLU"
  bottom: "inception_4d/pool_proj"
  top: "inception_4d/pool_proj"
}
layer {
  name: "inception_4d/output"
  type: "Concat"
  bottom: "inception_4d/1x1"
  bottom: "inception_4d/3x3"
  bottom: "inception_4d/5x5"
  bottom: "inception_4d/pool_proj"
  top: "inception_4d/output"
}
layer {
  name: "loss2/ave_pool"
  type: "Pooling"
  bottom: "inception_4d/output"
  top: "loss2/ave_pool"
  pooling_param {
    pool: AVE
    kernel_size: 5
    stride: 3
  }
}
layer {
  name: "loss2/conv"
  type: "Convolution"
  bottom: "loss2/ave_pool"
  top: "loss2/conv"
  param {
    lr_mult: 1
    decay_mult: 1
  }
  param {
    lr_mult: 2
    decay_mult: 0
  }
  convolution_param {
    num_output: 128
    kernel_size: 1
    weight_filler {
      type: "xavier"
      std: 0.08
    }
    bias_filler {
      type: "constant"
      value: 0.2
    }
  }
}
layer {
  name: "loss2/relu_conv"
  type: "ReLU"
  bottom: "loss2/conv"
  top: "loss2/conv"
}
layer {
  name: "loss2/fc"
  type: "InnerProduct"
  bottom: "loss2/conv"
  top: "loss2/fc"
  param {
    lr_mult: 1
    decay_mult: 1
  }
  param {
    lr_mult: 2
    decay_mult: 0
  }
  inner_product_param {
    num_output: 1024
    weight_filler {
      type: "xavier"
      std: 0.02
    }
    bias_filler {
      type: "constant"
      value: 0.2
    }
  }
}
layer {
  name: "loss2/relu_fc"
  type: "ReLU"
  bottom: "loss2/fc"
  top: "loss2/fc"
}
layer {
  name: "loss2/drop_fc"
  type: "Dropout"
  bottom: "loss2/fc"
  top: "loss2/fc"
  dropout_param {
    dropout_ratio: 0.7
  }
}
layer {
  name: "loss2/classifier_plantvillage"
  type: "InnerProduct"
  bottom: "loss2/fc"
  top: "loss2/classifier_plantvillage"
  param {
    lr_mult: 1
    decay_mult: 1
  }
  param {
    lr_mult: 2
    decay_mult: 0
  }
  inner_product_param {
    num_output: 38
    weight_filler {
      type: "xavier"
      std: 0.0009765625
    }
    bias_filler {
      type: "constant"
      value: 0
    }
  }
}
layer {
  name: "inception_4e/1x1"
  type: "Convolution"
  bottom: "inception_4d/output"
  top: "inception_4e/1x1"
  param {
    lr_mult: 1
    decay_mult: 1
  }
  param {
    lr_mult: 2
    decay_mult: 0
  }
  convolution_param {
    num_output: 256
    kernel_size: 1
    weight_filler {
      type: "xavier"
      std: 0.03
    }
    bias_filler {
      type: "constant"
      value: 0.2
    }
  }
}
layer {
  name: "inception_4e/relu_1x1"
  type: "ReLU"
  bottom: "inception_4e/1x1"
  top: "inception_4e/1x1"
}
layer {
  name: "inception_4e/3x3_reduce"
  type: "Convolution"
  bottom: "inception_4d/output"
  top: "inception_4e/3x3_reduce"
  param {
    lr_mult: 1
    decay_mult: 1
  }
  param {
    lr_mult: 2
    decay_mult: 0
  }
  convolution_param {
    num_output: 160
    kernel_size: 1
    weight_filler {
      type: "xavier"
      std: 0.09
    }
    bias_filler {
      type: "constant"
      value: 0.2
    }
  }
}
layer {
  name: "inception_4e/relu_3x3_reduce"
  type: "ReLU"
  bottom: "inception_4e/3x3_reduce"
  top: "inception_4e/3x3_reduce"
}
layer {
  name: "inception_4e/3x3"
  type: "Convolution"
  bottom: "inception_4e/3x3_reduce"
  top: "inception_4e/3x3"
  param {
    lr_mult: 1
    decay_mult: 1
  }
  param {
    lr_mult: 2
    decay_mult: 0
  }
  convolution_param {
    num_output: 320
    pad: 1
    kernel_size: 3
    weight_filler {
      type: "xavier"
      std: 0.03
    }
    bias_filler {
      type: "constant"
      value: 0.2
    }
  }
}
layer {
  name: "inception_4e/relu_3x3"
  type: "ReLU"
  bottom: "inception_4e/3x3"
  top: "inception_4e/3x3"
}
layer {
  name: "inception_4e/5x5_reduce"
  type: "Convolution"
  bottom: "inception_4d/output"
  top: "inception_4e/5x5_reduce"
  param {
    lr_mult: 1
    decay_mult: 1
  }
  param {
    lr_mult: 2
    decay_mult: 0
  }
  convolution_param {
    num_output: 32
    kernel_size: 1
    weight_filler {
      type: "xavier"
      std: 0.2
    }
    bias_filler {
      type: "constant"
      value: 0.2
    }
  }
}
layer {
  name: "inception_4e/relu_5x5_reduce"
  type: "ReLU"
  bottom: "inception_4e/5x5_reduce"
  top: "inception_4e/5x5_reduce"
}
layer {
  name: "inception_4e/5x5"
  type: "Convolution"
  bottom: "inception_4e/5x5_reduce"
  top: "inception_4e/
I0403 19:02:18.386437  8470 layer_factory.hpp:77] Creating layer data
I0403 19:02:18.387073  8470 net.cpp:91] Creating Layer data
I0403 19:02:18.387106  8470 net.cpp:399] data -> data
I0403 19:02:18.387158  8470 net.cpp:399] data -> label
I0403 19:02:18.387195  8470 data_transformer.cpp:25] Loading mean file from: /home/mohanty/data/final_dataset/lmdb/grayscale-50-50/mean.binaryproto
I0403 19:02:18.391299  8472 db_lmdb.cpp:38] Opened lmdb /home/mohanty/data/final_dataset/lmdb/grayscale-50-50/test_db
I0403 19:02:18.402304  8470 data_layer.cpp:41] output data size: 24,3,224,224
I0403 19:02:18.432063  8470 net.cpp:141] Setting up data
I0403 19:02:18.432158  8470 net.cpp:148] Top shape: 24 3 224 224 (3612672)
I0403 19:02:18.432179  8470 net.cpp:148] Top shape: 24 (24)
I0403 19:02:18.432194  8470 net.cpp:156] Memory required for data: 14450784
I0403 19:02:18.432231  8470 layer_factory.hpp:77] Creating layer label_data_1_split
I0403 19:02:18.432260  8470 net.cpp:91] Creating Layer label_data_1_split
I0403 19:02:18.432277  8470 net.cpp:425] label_data_1_split <- label
I0403 19:02:18.432308  8470 net.cpp:399] label_data_1_split -> label_data_1_split_0
I0403 19:02:18.432334  8470 net.cpp:399] label_data_1_split -> label_data_1_split_1
I0403 19:02:18.432355  8470 net.cpp:399] label_data_1_split -> label_data_1_split_2
I0403 19:02:18.432375  8470 net.cpp:399] label_data_1_split -> label_data_1_split_3
I0403 19:02:18.432394  8470 net.cpp:399] label_data_1_split -> label_data_1_split_4
I0403 19:02:18.432413  8470 net.cpp:399] label_data_1_split -> label_data_1_split_5
I0403 19:02:18.432432  8470 net.cpp:399] label_data_1_split -> label_data_1_split_6
I0403 19:02:18.432451  8470 net.cpp:399] label_data_1_split -> label_data_1_split_7
I0403 19:02:18.432471  8470 net.cpp:399] label_data_1_split -> label_data_1_split_8
I0403 19:02:18.432489  8470 net.cpp:399] label_data_1_split -> label_data_1_split_9
I0403 19:02:18.432600  8470 net.cpp:141] Setting up label_data_1_split
I0403 19:02:18.432622  8470 net.cpp:148] Top shape: 24 (24)
I0403 19:02:18.432638  8470 net.cpp:148] Top shape: 24 (24)
I0403 19:02:18.432653  8470 net.cpp:148] Top shape: 24 (24)
I0403 19:02:18.432668  8470 net.cpp:148] Top shape: 24 (24)
I0403 19:02:18.432684  8470 net.cpp:148] Top shape: 24 (24)
I0403 19:02:18.432700  8470 net.cpp:148] Top shape: 24 (24)
I0403 19:02:18.432715  8470 net.cpp:148] Top shape: 24 (24)
I0403 19:02:18.432732  8470 net.cpp:148] Top shape: 24 (24)
I0403 19:02:18.432746  8470 net.cpp:148] Top shape: 24 (24)
I0403 19:02:18.432763  8470 net.cpp:148] Top shape: 24 (24)
I0403 19:02:18.432809  8470 net.cpp:156] Memory required for data: 14451744
I0403 19:02:18.432826  8470 layer_factory.hpp:77] Creating layer conv1/7x7_s2
I0403 19:02:18.432857  8470 net.cpp:91] Creating Layer conv1/7x7_s2
I0403 19:02:18.432876  8470 net.cpp:425] conv1/7x7_s2 <- data
I0403 19:02:18.432896  8470 net.cpp:399] conv1/7x7_s2 -> conv1/7x7_s2
I0403 19:02:18.573830  8470 net.cpp:141] Setting up conv1/7x7_s2
I0403 19:02:18.573937  8470 net.cpp:148] Top shape: 24 64 112 112 (19267584)
I0403 19:02:18.573953  8470 net.cpp:156] Memory required for data: 91522080
I0403 19:02:18.573983  8470 layer_factory.hpp:77] Creating layer conv1/relu_7x7
I0403 19:02:18.574009  8470 net.cpp:91] Creating Layer conv1/relu_7x7
I0403 19:02:18.574026  8470 net.cpp:425] conv1/relu_7x7 <- conv1/7x7_s2
I0403 19:02:18.574044  8470 net.cpp:386] conv1/relu_7x7 -> conv1/7x7_s2 (in-place)
I0403 19:02:18.574297  8470 net.cpp:141] Setting up conv1/relu_7x7
I0403 19:02:18.574323  8470 net.cpp:148] Top shape: 24 64 112 112 (19267584)
I0403 19:02:18.574338  8470 net.cpp:156] Memory required for data: 168592416
I0403 19:02:18.574353  8470 layer_factory.hpp:77] Creating layer pool1/3x3_s2
I0403 19:02:18.574378  8470 net.cpp:91] Creating Layer pool1/3x3_s2
I0403 19:02:18.574396  8470 net.cpp:425] pool1/3x3_s2 <- conv1/7x7_s2
I0403 19:02:18.574414  8470 net.cpp:399] pool1/3x3_s2 -> pool1/3x3_s2
I0403 19:02:18.574484  8470 net.cpp:141] Setting up pool1/3x3_s2
I0403 19:02:18.574507  8470 net.cpp:148] Top shape: 24 64 56 56 (4816896)
I0403 19:02:18.574522  8470 net.cpp:156] Memory required for data: 187860000
I0403 19:02:18.574535  8470 layer_factory.hpp:77] Creating layer pool1/norm1
I0403 19:02:18.574559  8470 net.cpp:91] Creating Layer pool1/norm1
I0403 19:02:18.574578  8470 net.cpp:425] pool1/norm1 <- pool1/3x3_s2
I0403 19:02:18.574595  8470 net.cpp:399] pool1/norm1 -> pool1/norm1
I0403 19:02:18.574867  8470 net.cpp:141] Setting up pool1/norm1
I0403 19:02:18.574893  8470 net.cpp:148] Top shape: 24 64 56 56 (4816896)
I0403 19:02:18.574908  8470 net.cpp:156] Memory required for data: 207127584
I0403 19:02:18.574923  8470 layer_factory.hpp:77] Creating layer conv2/3x3_reduce
I0403 19:02:18.574947  8470 net.cpp:91] Creating Layer conv2/3x3_reduce
I0403 19:02:18.574965  8470 net.cpp:425] conv2/3x3_reduce <- pool1/norm1
I0403 19:02:18.574982  8470 net.cpp:399] conv2/3x3_reduce -> conv2/3x3_reduce
I0403 19:02:18.576351  8470 net.cpp:141] Setting up conv2/3x3_reduce
I0403 19:02:18.576380  8470 net.cpp:148] Top shape: 24 64 56 56 (4816896)
I0403 19:02:18.576395  8470 net.cpp:156] Memory required for data: 226395168
I0403 19:02:18.576416  8470 layer_factory.hpp:77] Creating layer conv2/relu_3x3_reduce
I0403 19:02:18.576433  8470 net.cpp:91] Creating Layer conv2/relu_3x3_reduce
I0403 19:02:18.576448  8470 net.cpp:425] conv2/relu_3x3_reduce <- conv2/3x3_reduce
I0403 19:02:18.576465  8470 net.cpp:386] conv2/relu_3x3_reduce -> conv2/3x3_reduce (in-place)
I0403 19:02:18.576722  8470 net.cpp:141] Setting up conv2/relu_3x3_reduce
I0403 19:02:18.576750  8470 net.cpp:148] Top shape: 24 64 56 56 (4816896)
I0403 19:02:18.576766  8470 net.cpp:156] Memory required for data: 245662752
I0403 19:02:18.576781  8470 layer_factory.hpp:77] Creating layer conv2/3x3
I0403 19:02:18.576804  8470 net.cpp:91] Creating Layer conv2/3x3
I0403 19:02:18.576822  8470 net.cpp:425] conv2/3x3 <- conv2/3x3_reduce
I0403 19:02:18.576841  8470 net.cpp:399] conv2/3x3 -> conv2/3x3
I0403 19:02:18.579061  8470 net.cpp:141] Setting up conv2/3x3
I0403 19:02:18.579092  8470 net.cpp:148] Top shape: 24 192 56 56 (14450688)
I0403 19:02:18.579108  8470 net.cpp:156] Memory required for data: 303465504
I0403 19:02:18.579128  8470 layer_factory.hpp:77] Creating layer conv2/relu_3x3
I0403 19:02:18.579147  8470 net.cpp:91] Creating Layer conv2/relu_3x3
I0403 19:02:18.579162  8470 net.cpp:425] conv2/relu_3x3 <- conv2/3x3
I0403 19:02:18.579182  8470 net.cpp:386] conv2/relu_3x3 -> conv2/3x3 (in-place)
I0403 19:02:18.579358  8470 net.cpp:141] Setting up conv2/relu_3x3
I0403 19:02:18.579383  8470 net.cpp:148] Top shape: 24 192 56 56 (14450688)
I0403 19:02:18.579428  8470 net.cpp:156] Memory required for data: 361268256
I0403 19:02:18.579444  8470 layer_factory.hpp:77] Creating layer conv2/norm2
I0403 19:02:18.579465  8470 net.cpp:91] Creating Layer conv2/norm2
I0403 19:02:18.579481  8470 net.cpp:425] conv2/norm2 <- conv2/3x3
I0403 19:02:18.579499  8470 net.cpp:399] conv2/norm2 -> conv2/norm2
I0403 19:02:18.579792  8470 net.cpp:141] Setting up conv2/norm2
I0403 19:02:18.579819  8470 net.cpp:148] Top shape: 24 192 56 56 (14450688)
I0403 19:02:18.579834  8470 net.cpp:156] Memory required for data: 419071008
I0403 19:02:18.579849  8470 layer_factory.hpp:77] Creating layer pool2/3x3_s2
I0403 19:02:18.579866  8470 net.cpp:91] Creating Layer pool2/3x3_s2
I0403 19:02:18.579881  8470 net.cpp:425] pool2/3x3_s2 <- conv2/norm2
I0403 19:02:18.579900  8470 net.cpp:399] pool2/3x3_s2 -> pool2/3x3_s2
I0403 19:02:18.579951  8470 net.cpp:141] Setting up pool2/3x3_s2
I0403 19:02:18.579972  8470 net.cpp:148] Top shape: 24 192 28 28 (3612672)
I0403 19:02:18.579987  8470 net.cpp:156] Memory required for data: 433521696
I0403 19:02:18.580001  8470 layer_factory.hpp:77] Creating layer pool2/3x3_s2_pool2/3x3_s2_0_split
I0403 19:02:18.580018  8470 net.cpp:91] Creating Layer pool2/3x3_s2_pool2/3x3_s2_0_split
I0403 19:02:18.580034  8470 net.cpp:425] pool2/3x3_s2_pool2/3x3_s2_0_split <- pool2/3x3_s2
I0403 19:02:18.580052  8470 net.cpp:399] pool2/3x3_s2_pool2/3x3_s2_0_split -> pool2/3x3_s2_pool2/3x3_s2_0_split_0
I0403 19:02:18.580072  8470 net.cpp:399] pool2/3x3_s2_pool2/3x3_s2_0_split -> pool2/3x3_s2_pool2/3x3_s2_0_split_1
I0403 19:02:18.580092  8470 net.cpp:399] pool2/3x3_s2_pool2/3x3_s2_0_split -> pool2/3x3_s2_pool2/3x3_s2_0_split_2
I0403 19:02:18.580111  8470 net.cpp:399] pool2/3x3_s2_pool2/3x3_s2_0_split -> pool2/3x3_s2_pool2/3x3_s2_0_split_3
I0403 19:02:18.580188  8470 net.cpp:141] Setting up pool2/3x3_s2_pool2/3x3_s2_0_split
I0403 19:02:18.580214  8470 net.cpp:148] Top shape: 24 192 28 28 (3612672)
I0403 19:02:18.580230  8470 net.cpp:148] Top shape: 24 192 28 28 (3612672)
I0403 19:02:18.580246  8470 net.cpp:148] Top shape: 24 192 28 28 (3612672)
I0403 19:02:18.580261  8470 net.cpp:148] Top shape: 24 192 28 28 (3612672)
I0403 19:02:18.580274  8470 net.cpp:156] Memory required for data: 491324448
I0403 19:02:18.580288  8470 layer_factory.hpp:77] Creating layer inception_3a/1x1
I0403 19:02:18.580312  8470 net.cpp:91] Creating Layer inception_3a/1x1
I0403 19:02:18.580327  8470 net.cpp:425] inception_3a/1x1 <- pool2/3x3_s2_pool2/3x3_s2_0_split_0
I0403 19:02:18.580348  8470 net.cpp:399] inception_3a/1x1 -> inception_3a/1x1
I0403 19:02:18.581882  8470 net.cpp:141] Setting up inception_3a/1x1
I0403 19:02:18.581913  8470 net.cpp:148] Top shape: 24 64 28 28 (1204224)
I0403 19:02:18.581933  8470 net.cpp:156] Memory required for data: 496141344
I0403 19:02:18.581950  8470 layer_factory.hpp:77] Creating layer inception_3a/relu_1x1
I0403 19:02:18.581969  8470 net.cpp:91] Creating Layer inception_3a/relu_1x1
I0403 19:02:18.581984  8470 net.cpp:425] inception_3a/relu_1x1 <- inception_3a/1x1
I0403 19:02:18.582003  8470 net.cpp:386] inception_3a/relu_1x1 -> inception_3a/1x1 (in-place)
I0403 19:02:18.582173  8470 net.cpp:141] Setting up inception_3a/relu_1x1
I0403 19:02:18.582197  8470 net.cpp:148] Top shape: 24 64 28 28 (1204224)
I0403 19:02:18.582222  8470 net.cpp:156] Memory required for data: 500958240
I0403 19:02:18.582240  8470 layer_factory.hpp:77] Creating layer inception_3a/3x3_reduce
I0403 19:02:18.582263  8470 net.cpp:91] Creating Layer inception_3a/3x3_reduce
I0403 19:02:18.582281  8470 net.cpp:425] inception_3a/3x3_reduce <- pool2/3x3_s2_pool2/3x3_s2_0_split_1
I0403 19:02:18.582301  8470 net.cpp:399] inception_3a/3x3_reduce -> inception_3a/3x3_reduce
I0403 19:02:18.583966  8470 net.cpp:141] Setting up inception_3a/3x3_reduce
I0403 19:02:18.583997  8470 net.cpp:148] Top shape: 24 96 28 28 (1806336)
I0403 19:02:18.584014  8470 net.cpp:156] Memory required for data: 508183584
I0403 19:02:18.584035  8470 layer_factory.hpp:77] Creating layer inception_3a/relu_3x3_reduce
I0403 19:02:18.584070  8470 net.cpp:91] Creating Layer inception_3a/relu_3x3_reduce
I0403 19:02:18.584087  8470 net.cpp:425] inception_3a/relu_3x3_reduce <- inception_3a/3x3_reduce
I0403 19:02:18.584107  8470 net.cpp:386] inception_3a/relu_3x3_reduce -> inception_3a/3x3_reduce (in-place)
I0403 19:02:18.584291  8470 net.cpp:141] Setting up inception_3a/relu_3x3_reduce
I0403 19:02:18.584318  8470 net.cpp:148] Top shape: 24 96 28 28 (1806336)
I0403 19:02:18.584334  8470 net.cpp:156] Memory required for data: 515408928
I0403 19:02:18.584349  8470 layer_factory.hpp:77] Creating layer inception_3a/3x3
I0403 19:02:18.584368  8470 net.cpp:91] Creating Layer inception_3a/3x3
I0403 19:02:18.584383  8470 net.cpp:425] inception_3a/3x3 <- inception_3a/3x3_reduce
I0403 19:02:18.584405  8470 net.cpp:399] inception_3a/3x3 -> inception_3a/3x3
I0403 19:02:18.586047  8470 net.cpp:141] Setting up inception_3a/3x3
I0403 19:02:18.586077  8470 net.cpp:148] Top shape: 24 128 28 28 (2408448)
I0403 19:02:18.586093  8470 net.cpp:156] Memory required for data: 525042720
I0403 19:02:18.586112  8470 layer_factory.hpp:77] Creating layer inception_3a/relu_3x3
I0403 19:02:18.586129  8470 net.cpp:91] Creating Layer inception_3a/relu_3x3
I0403 19:02:18.586145  8470 net.cpp:425] inception_3a/relu_3x3 <- inception_3a/3x3
I0403 19:02:18.586165  8470 net.cpp:386] inception_3a/relu_3x3 -> inception_3a/3x3 (in-place)
I0403 19:02:18.586444  8470 net.cpp:141] Setting up inception_3a/relu_3x3
I0403 19:02:18.586473  8470 net.cpp:148] Top shape: 24 128 28 28 (2408448)
I0403 19:02:18.586488  8470 net.cpp:156] Memory required for data: 534676512
I0403 19:02:18.586503  8470 layer_factory.hpp:77] Creating layer inception_3a/5x5_reduce
I0403 19:02:18.586526  8470 net.cpp:91] Creating Layer inception_3a/5x5_reduce
I0403 19:02:18.586544  8470 net.cpp:425] inception_3a/5x5_reduce <- pool2/3x3_s2_pool2/3x3_s2_0_split_2
I0403 19:02:18.586570  8470 net.cpp:399] inception_3a/5x5_reduce -> inception_3a/5x5_reduce
I0403 19:02:18.587535  8470 net.cpp:141] Setting up inception_3a/5x5_reduce
I0403 19:02:18.587563  8470 net.cpp:148] Top shape: 24 16 28 28 (301056)
I0403 19:02:18.587577  8470 net.cpp:156] Memory required for data: 535880736
I0403 19:02:18.587594  8470 layer_factory.hpp:77] Creating layer inception_3a/relu_5x5_reduce
I0403 19:02:18.587616  8470 net.cpp:91] Creating Layer inception_3a/relu_5x5_reduce
I0403 19:02:18.587633  8470 net.cpp:425] inception_3a/relu_5x5_reduce <- inception_3a/5x5_reduce
I0403 19:02:18.587651  8470 net.cpp:386] inception_3a/relu_5x5_reduce -> inception_3a/5x5_reduce (in-place)
I0403 19:02:18.587916  8470 net.cpp:141] Setting up inception_3a/relu_5x5_reduce
I0403 19:02:18.587941  8470 net.cpp:148] Top shape: 24 16 28 28 (301056)
I0403 19:02:18.587956  8470 net.cpp:156] Memory required for data: 537084960
I0403 19:02:18.587971  8470 layer_factory.hpp:77] Creating layer inception_3a/5x5
I0403 19:02:18.587995  8470 net.cpp:91] Creating Layer inception_3a/5x5
I0403 19:02:18.588011  8470 net.cpp:425] inception_3a/5x5 <- inception_3a/5x5_reduce
I0403 19:02:18.588032  8470 net.cpp:399] inception_3a/5x5 -> inception_3a/5x5
I0403 19:02:18.589062  8470 net.cpp:141] Setting up inception_3a/5x5
I0403 19:02:18.589092  8470 net.cpp:148] Top shape: 24 32 28 28 (602112)
I0403 19:02:18.589108  8470 net.cpp:156] Memory required for data: 539493408
I0403 19:02:18.589128  8470 layer_factory.hpp:77] Creating layer inception_3a/relu_5x5
I0403 19:02:18.589145  8470 net.cpp:91] Creating Layer inception_3a/relu_5x5
I0403 19:02:18.589161  8470 net.cpp:425] inception_3a/relu_5x5 <- inception_3a/5x5
I0403 19:02:18.589181  8470 net.cpp:386] inception_3a/relu_5x5 -> inception_3a/5x5 (in-place)
I0403 19:02:18.589359  8470 net.cpp:141] Setting up inception_3a/relu_5x5
I0403 19:02:18.589385  8470 net.cpp:148] Top shape: 24 32 28 28 (602112)
I0403 19:02:18.589400  8470 net.cpp:156] Memory required for data: 541901856
I0403 19:02:18.589416  8470 layer_factory.hpp:77] Creating layer inception_3a/pool
I0403 19:02:18.589433  8470 net.cpp:91] Creating Layer inception_3a/pool
I0403 19:02:18.589463  8470 net.cpp:425] inception_3a/pool <- pool2/3x3_s2_pool2/3x3_s2_0_split_3
I0403 19:02:18.589485  8470 net.cpp:399] inception_3a/pool -> inception_3a/pool
I0403 19:02:18.589543  8470 net.cpp:141] Setting up inception_3a/pool
I0403 19:02:18.589566  8470 net.cpp:148] Top shape: 24 192 28 28 (3612672)
I0403 19:02:18.589581  8470 net.cpp:156] Memory required for data: 556352544
I0403 19:02:18.589596  8470 layer_factory.hpp:77] Creating layer inception_3a/pool_proj
I0403 19:02:18.589627  8470 net.cpp:91] Creating Layer inception_3a/pool_proj
I0403 19:02:18.589644  8470 net.cpp:425] inception_3a/pool_proj <- inception_3a/pool
I0403 19:02:18.589674  8470 net.cpp:399] inception_3a/pool_proj -> inception_3a/pool_proj
I0403 19:02:18.590598  8470 net.cpp:141] Setting up inception_3a/pool_proj
I0403 19:02:18.590626  8470 net.cpp:148] Top shape: 24 32 28 28 (602112)
I0403 19:02:18.590642  8470 net.cpp:156] Memory required for data: 558760992
I0403 19:02:18.590665  8470 layer_factory.hpp:77] Creating layer inception_3a/relu_pool_proj
I0403 19:02:18.590687  8470 net.cpp:91] Creating Layer inception_3a/relu_pool_proj
I0403 19:02:18.590703  8470 net.cpp:425] inception_3a/relu_pool_proj <- inception_3a/pool_proj
I0403 19:02:18.590720  8470 net.cpp:386] inception_3a/relu_pool_proj -> inception_3a/pool_proj (in-place)
I0403 19:02:18.590980  8470 net.cpp:141] Setting up inception_3a/relu_pool_proj
I0403 19:02:18.591006  8470 net.cpp:148] Top shape: 24 32 28 28 (602112)
I0403 19:02:18.591020  8470 net.cpp:156] Memory required for data: 561169440
I0403 19:02:18.591035  8470 layer_factory.hpp:77] Creating layer inception_3a/output
I0403 19:02:18.591053  8470 net.cpp:91] Creating Layer inception_3a/output
I0403 19:02:18.591068  8470 net.cpp:425] inception_3a/output <- inception_3a/1x1
I0403 19:02:18.591084  8470 net.cpp:425] inception_3a/output <- inception_3a/3x3
I0403 19:02:18.591099  8470 net.cpp:425] inception_3a/output <- inception_3a/5x5
I0403 19:02:18.591115  8470 net.cpp:425] inception_3a/output <- inception_3a/pool_proj
I0403 19:02:18.591135  8470 net.cpp:399] inception_3a/output -> inception_3a/output
I0403 19:02:18.591178  8470 net.cpp:141] Setting up inception_3a/output
I0403 19:02:18.591199  8470 net.cpp:148] Top shape: 24 256 28 28 (4816896)
I0403 19:02:18.591219  8470 net.cpp:156] Memory required for data: 580437024
I0403 19:02:18.591235  8470 layer_factory.hpp:77] Creating layer inception_3a/output_inception_3a/output_0_split
I0403 19:02:18.591255  8470 net.cpp:91] Creating Layer inception_3a/output_inception_3a/output_0_split
I0403 19:02:18.591271  8470 net.cpp:425] inception_3a/output_inception_3a/output_0_split <- inception_3a/output
I0403 19:02:18.591287  8470 net.cpp:399] inception_3a/output_inception_3a/output_0_split -> inception_3a/output_inception_3a/output_0_split_0
I0403 19:02:18.591307  8470 net.cpp:399] inception_3a/output_inception_3a/output_0_split -> inception_3a/output_inception_3a/output_0_split_1
I0403 19:02:18.591332  8470 net.cpp:399] inception_3a/output_inception_3a/output_0_split -> inception_3a/output_inception_3a/output_0_split_2
I0403 19:02:18.591353  8470 net.cpp:399] inception_3a/output_inception_3a/output_0_split -> inception_3a/output_inception_3a/output_0_split_3
I0403 19:02:18.591423  8470 net.cpp:141] Setting up inception_3a/output_inception_3a/output_0_split
I0403 19:02:18.591447  8470 net.cpp:148] Top shape: 24 256 28 28 (4816896)
I0403 19:02:18.591464  8470 net.cpp:148] Top shape: 24 256 28 28 (4816896)
I0403 19:02:18.591480  8470 net.cpp:148] Top shape: 24 256 28 28 (4816896)
I0403 19:02:18.591495  8470 net.cpp:148] Top shape: 24 256 28 28 (4816896)
I0403 19:02:18.591507  8470 net.cpp:156] Memory required for data: 657507360
I0403 19:02:18.591522  8470 layer_factory.hpp:77] Creating layer inception_3b/1x1
I0403 19:02:18.591544  8470 net.cpp:91] Creating Layer inception_3b/1x1
I0403 19:02:18.591562  8470 net.cpp:425] inception_3b/1x1 <- inception_3a/output_inception_3a/output_0_split_0
I0403 19:02:18.591579  8470 net.cpp:399] inception_3b/1x1 -> inception_3b/1x1
I0403 19:02:18.592677  8470 net.cpp:141] Setting up inception_3b/1x1
I0403 19:02:18.592718  8470 net.cpp:148] Top shape: 24 128 28 28 (2408448)
I0403 19:02:18.592735  8470 net.cpp:156] Memory required for data: 667141152
I0403 19:02:18.592752  8470 layer_factory.hpp:77] Creating layer inception_3b/relu_1x1
I0403 19:02:18.592770  8470 net.cpp:91] Creating Layer inception_3b/relu_1x1
I0403 19:02:18.592787  8470 net.cpp:425] inception_3b/relu_1x1 <- inception_3b/1x1
I0403 19:02:18.592804  8470 net.cpp:386] inception_3b/relu_1x1 -> inception_3b/1x1 (in-place)
I0403 19:02:18.592978  8470 net.cpp:141] Setting up inception_3b/relu_1x1
I0403 19:02:18.593005  8470 net.cpp:148] Top shape: 24 128 28 28 (2408448)
I0403 19:02:18.593020  8470 net.cpp:156] Memory required for data: 676774944
I0403 19:02:18.593035  8470 layer_factory.hpp:77] Creating layer inception_3b/3x3_reduce
I0403 19:02:18.593056  8470 net.cpp:91] Creating Layer inception_3b/3x3_reduce
I0403 19:02:18.593072  8470 net.cpp:425] inception_3b/3x3_reduce <- inception_3a/output_inception_3a/output_0_split_1
I0403 19:02:18.593093  8470 net.cpp:399] inception_3b/3x3_reduce -> inception_3b/3x3_reduce
I0403 19:02:18.594182  8470 net.cpp:141] Setting up inception_3b/3x3_reduce
I0403 19:02:18.594213  8470 net.cpp:148] Top shape: 24 128 28 28 (2408448)
I0403 19:02:18.594229  8470 net.cpp:156] Memory required for data: 686408736
I0403 19:02:18.594247  8470 layer_factory.hpp:77] Creating layer inception_3b/relu_3x3_reduce
I0403 19:02:18.594267  8470 net.cpp:91] Creating Layer inception_3b/relu_3x3_reduce
I0403 19:02:18.594283  8470 net.cpp:425] inception_3b/relu_3x3_reduce <- inception_3b/3x3_reduce
I0403 19:02:18.594300  8470 net.cpp:386] inception_3b/relu_3x3_reduce -> inception_3b/3x3_reduce (in-place)
I0403 19:02:18.594465  8470 net.cpp:141] Setting up inception_3b/relu_3x3_reduce
I0403 19:02:18.594490  8470 net.cpp:148] Top shape: 24 128 28 28 (2408448)
I0403 19:02:18.594504  8470 net.cpp:156] Memory required for data: 696042528
I0403 19:02:18.594518  8470 layer_factory.hpp:77] Creating layer inception_3b/3x3
I0403 19:02:18.594542  8470 net.cpp:91] Creating Layer inception_3b/3x3
I0403 19:02:18.594558  8470 net.cpp:425] inception_3b/3x3 <- inception_3b/3x3_reduce
I0403 19:02:18.594580  8470 net.cpp:399] inception_3b/3x3 -> inception_3b/3x3
I0403 19:02:18.597403  8470 net.cpp:141] Setting up inception_3b/3x3
I0403 19:02:18.597434  8470 net.cpp:148] Top shape: 24 192 28 28 (3612672)
I0403 19:02:18.597450  8470 net.cpp:156] Memory required for data: 710493216
I0403 19:02:18.597468  8470 layer_factory.hpp:77] Creating layer inception_3b/relu_3x3
I0403 19:02:18.597486  8470 net.cpp:91] Creating Layer inception_3b/relu_3x3
I0403 19:02:18.597501  8470 net.cpp:425] inception_3b/relu_3x3 <- inception_3b/3x3
I0403 19:02:18.597522  8470 net.cpp:386] inception_3b/relu_3x3 -> inception_3b/3x3 (in-place)
I0403 19:02:18.597791  8470 net.cpp:141] Setting up inception_3b/relu_3x3
I0403 19:02:18.597820  8470 net.cpp:148] Top shape: 24 192 28 28 (3612672)
I0403 19:02:18.597834  8470 net.cpp:156] Memory required for data: 724943904
I0403 19:02:18.597849  8470 layer_factory.hpp:77] Creating layer inception_3b/5x5_reduce
I0403 19:02:18.597872  8470 net.cpp:91] Creating Layer inception_3b/5x5_reduce
I0403 19:02:18.597890  8470 net.cpp:425] inception_3b/5x5_reduce <- inception_3a/output_inception_3a/output_0_split_2
I0403 19:02:18.597910  8470 net.cpp:399] inception_3b/5x5_reduce -> inception_3b/5x5_reduce
I0403 19:02:18.598865  8470 net.cpp:141] Setting up inception_3b/5x5_reduce
I0403 19:02:18.598894  8470 net.cpp:148] Top shape: 24 32 28 28 (602112)
I0403 19:02:18.598909  8470 net.cpp:156] Memory required for data: 727352352
I0403 19:02:18.598927  8470 layer_factory.hpp:77] Creating layer inception_3b/relu_5x5_reduce
I0403 19:02:18.598944  8470 net.cpp:91] Creating Layer inception_3b/relu_5x5_reduce
I0403 19:02:18.598959  8470 net.cpp:425] inception_3b/relu_5x5_reduce <- inception_3b/5x5_reduce
I0403 19:02:18.598979  8470 net.cpp:386] inception_3b/relu_5x5_reduce -> inception_3b/5x5_reduce (in-place)
I0403 19:02:18.599174  8470 net.cpp:141] Setting up inception_3b/relu_5x5_reduce
I0403 19:02:18.599200  8470 net.cpp:148] Top shape: 24 32 28 28 (602112)
I0403 19:02:18.599220  8470 net.cpp:156] Memory required for data: 729760800
I0403 19:02:18.599236  8470 layer_factory.hpp:77] Creating layer inception_3b/5x5
I0403 19:02:18.599259  8470 net.cpp:91] Creating Layer inception_3b/5x5
I0403 19:02:18.599277  8470 net.cpp:425] inception_3b/5x5 <- inception_3b/5x5_reduce
I0403 19:02:18.599298  8470 net.cpp:399] inception_3b/5x5 -> inception_3b/5x5
I0403 19:02:18.601244  8470 net.cpp:141] Setting up inception_3b/5x5
I0403 19:02:18.601271  8470 net.cpp:148] Top shape: 24 96 28 28 (1806336)
I0403 19:02:18.601286  8470 net.cpp:156] Memory required for data: 736986144
I0403 19:02:18.601305  8470 layer_factory.hpp:77] Creating layer inception_3b/relu_5x5
I0403 19:02:18.601325  8470 net.cpp:91] Creating Layer inception_3b/relu_5x5
I0403 19:02:18.601341  8470 net.cpp:425] inception_3b/relu_5x5 <- inception_3b/5x5
I0403 19:02:18.601358  8470 net.cpp:386] inception_3b/relu_5x5 -> inception_3b/5x5 (in-place)
I0403 19:02:18.601541  8470 net.cpp:141] Setting up inception_3b/relu_5x5
I0403 19:02:18.601565  8470 net.cpp:148] Top shape: 24 96 28 28 (1806336)
I0403 19:02:18.601579  8470 net.cpp:156] Memory required for data: 744211488
I0403 19:02:18.601594  8470 layer_factory.hpp:77] Creating layer inception_3b/pool
I0403 19:02:18.601613  8470 net.cpp:91] Creating Layer inception_3b/pool
I0403 19:02:18.601629  8470 net.cpp:425] inception_3b/pool <- inception_3a/output_inception_3a/output_0_split_3
I0403 19:02:18.601644  8470 net.cpp:399] inception_3b/pool -> inception_3b/pool
I0403 19:02:18.601698  8470 net.cpp:141] Setting up inception_3b/pool
I0403 19:02:18.601721  8470 net.cpp:148] Top shape: 24 256 28 28 (4816896)
I0403 19:02:18.601734  8470 net.cpp:156] Memory required for data: 763479072
I0403 19:02:18.601748  8470 layer_factory.hpp:77] Creating layer inception_3b/pool_proj
I0403 19:02:18.601773  8470 net.cpp:91] Creating Layer inception_3b/pool_proj
I0403 19:02:18.601789  8470 net.cpp:425] inception_3b/pool_proj <- inception_3b/pool
I0403 19:02:18.601807  8470 net.cpp:399] inception_3b/pool_proj -> inception_3b/pool_proj
I0403 19:02:18.602826  8470 net.cpp:141] Setting up inception_3b/pool_proj
I0403 19:02:18.602854  8470 net.cpp:148] Top shape: 24 64 28 28 (1204224)
I0403 19:02:18.602869  8470 net.cpp:156] Memory required for data: 768295968
I0403 19:02:18.602887  8470 layer_factory.hpp:77] Creating layer inception_3b/relu_pool_proj
I0403 19:02:18.602907  8470 net.cpp:91] Creating Layer inception_3b/relu_pool_proj
I0403 19:02:18.602923  8470 net.cpp:425] inception_3b/relu_pool_proj <- inception_3b/pool_proj
I0403 19:02:18.602941  8470 net.cpp:386] inception_3b/relu_pool_proj -> inception_3b/pool_proj (in-place)
I0403 19:02:18.603327  8470 net.cpp:141] Setting up inception_3b/relu_pool_proj
I0403 19:02:18.603353  8470 net.cpp:148] Top shape: 24 64 28 28 (1204224)
I0403 19:02:18.603368  8470 net.cpp:156] Memory required for data: 773112864
I0403 19:02:18.603382  8470 layer_factory.hpp:77] Creating layer inception_3b/output
I0403 19:02:18.603399  8470 net.cpp:91] Creating Layer inception_3b/output
I0403 19:02:18.603415  8470 net.cpp:425] inception_3b/output <- inception_3b/1x1
I0403 19:02:18.603430  8470 net.cpp:425] inception_3b/output <- inception_3b/3x3
I0403 19:02:18.603447  8470 net.cpp:425] inception_3b/output <- inception_3b/5x5
I0403 19:02:18.603462  8470 net.cpp:425] inception_3b/output <- inception_3b/pool_proj
I0403 19:02:18.603494  8470 net.cpp:399] inception_3b/output -> inception_3b/output
I0403 19:02:18.603535  8470 net.cpp:141] Setting up inception_3b/output
I0403 19:02:18.603559  8470 net.cpp:148] Top shape: 24 480 28 28 (9031680)
I0403 19:02:18.603574  8470 net.cpp:156] Memory required for data: 809239584
I0403 19:02:18.603590  8470 layer_factory.hpp:77] Creating layer pool3/3x3_s2
I0403 19:02:18.603606  8470 net.cpp:91] Creating Layer pool3/3x3_s2
I0403 19:02:18.603621  8470 net.cpp:425] pool3/3x3_s2 <- inception_3b/output
I0403 19:02:18.603655  8470 net.cpp:399] pool3/3x3_s2 -> pool3/3x3_s2
I0403 19:02:18.603710  8470 net.cpp:141] Setting up pool3/3x3_s2
I0403 19:02:18.603732  8470 net.cpp:148] Top shape: 24 480 14 14 (2257920)
I0403 19:02:18.603747  8470 net.cpp:156] Memory required for data: 818271264
I0403 19:02:18.603761  8470 layer_factory.hpp:77] Creating layer pool3/3x3_s2_pool3/3x3_s2_0_split
I0403 19:02:18.603780  8470 net.cpp:91] Creating Layer pool3/3x3_s2_pool3/3x3_s2_0_split
I0403 19:02:18.603796  8470 net.cpp:425] pool3/3x3_s2_pool3/3x3_s2_0_split <- pool3/3x3_s2
I0403 19:02:18.603812  8470 net.cpp:399] pool3/3x3_s2_pool3/3x3_s2_0_split -> pool3/3x3_s2_pool3/3x3_s2_0_split_0
I0403 19:02:18.603831  8470 net.cpp:399] pool3/3x3_s2_pool3/3x3_s2_0_split -> pool3/3x3_s2_pool3/3x3_s2_0_split_1
I0403 19:02:18.603849  8470 net.cpp:399] pool3/3x3_s2_pool3/3x3_s2_0_split -> pool3/3x3_s2_pool3/3x3_s2_0_split_2
I0403 19:02:18.603870  8470 net.cpp:399] pool3/3x3_s2_pool3/3x3_s2_0_split -> pool3/3x3_s2_pool3/3x3_s2_0_split_3
I0403 19:02:18.603943  8470 net.cpp:141] Setting up pool3/3x3_s2_pool3/3x3_s2_0_split
I0403 19:02:18.603965  8470 net.cpp:148] Top shape: 24 480 14 14 (2257920)
I0403 19:02:18.603981  8470 net.cpp:148] Top shape: 24 480 14 14 (2257920)
I0403 19:02:18.603996  8470 net.cpp:148] Top shape: 24 480 14 14 (2257920)
I0403 19:02:18.604012  8470 net.cpp:148] Top shape: 24 480 14 14 (2257920)
I0403 19:02:18.604024  8470 net.cpp:156] Memory required for data: 854397984
I0403 19:02:18.604038  8470 layer_factory.hpp:77] Creating layer inception_4a/1x1
I0403 19:02:18.604059  8470 net.cpp:91] Creating Layer inception_4a/1x1
I0403 19:02:18.604075  8470 net.cpp:425] inception_4a/1x1 <- pool3/3x3_s2_pool3/3x3_s2_0_split_0
I0403 19:02:18.604096  8470 net.cpp:399] inception_4a/1x1 -> inception_4a/1x1
I0403 19:02:18.605572  8470 net.cpp:141] Setting up inception_4a/1x1
I0403 19:02:18.605598  8470 net.cpp:148] Top shape: 24 192 14 14 (903168)
I0403 19:02:18.605612  8470 net.cpp:156] Memory required for data: 858010656
I0403 19:02:18.605630  8470 layer_factory.hpp:77] Creating layer inception_4a/relu_1x1
I0403 19:02:18.605649  8470 net.cpp:91] Creating Layer inception_4a/relu_1x1
I0403 19:02:18.605665  8470 net.cpp:425] inception_4a/relu_1x1 <- inception_4a/1x1
I0403 19:02:18.605681  8470 net.cpp:386] inception_4a/relu_1x1 -> inception_4a/1x1 (in-place)
I0403 19:02:18.605844  8470 net.cpp:141] Setting up inception_4a/relu_1x1
I0403 19:02:18.605871  8470 net.cpp:148] Top shape: 24 192 14 14 (903168)
I0403 19:02:18.605887  8470 net.cpp:156] Memory required for data: 861623328
I0403 19:02:18.605901  8470 layer_factory.hpp:77] Creating layer inception_4a/3x3_reduce
I0403 19:02:18.605923  8470 net.cpp:91] Creating Layer inception_4a/3x3_reduce
I0403 19:02:18.605940  8470 net.cpp:425] inception_4a/3x3_reduce <- pool3/3x3_s2_pool3/3x3_s2_0_split_1
I0403 19:02:18.605959  8470 net.cpp:399] inception_4a/3x3_reduce -> inception_4a/3x3_reduce
I0403 19:02:18.607146  8470 net.cpp:141] Setting up inception_4a/3x3_reduce
I0403 19:02:18.607172  8470 net.cpp:148] Top shape: 24 96 14 14 (451584)
I0403 19:02:18.607187  8470 net.cpp:156] Memory required for data: 863429664
I0403 19:02:18.607213  8470 layer_factory.hpp:77] Creating layer inception_4a/relu_3x3_reduce
I0403 19:02:18.607234  8470 net.cpp:91] Creating Layer inception_4a/relu_3x3_reduce
I0403 19:02:18.607249  8470 net.cpp:425] inception_4a/relu_3x3_reduce <- inception_4a/3x3_reduce
I0403 19:02:18.607269  8470 net.cpp:386] inception_4a/relu_3x3_reduce -> inception_4a/3x3_reduce (in-place)
I0403 19:02:18.607437  8470 net.cpp:141] Setting up inception_4a/relu_3x3_reduce
I0403 19:02:18.607462  8470 net.cpp:148] Top shape: 24 96 14 14 (451584)
I0403 19:02:18.607476  8470 net.cpp:156] Memory required for data: 865236000
I0403 19:02:18.607491  8470 layer_factory.hpp:77] Creating layer inception_4a/3x3
I0403 19:02:18.607509  8470 net.cpp:91] Creating Layer inception_4a/3x3
I0403 19:02:18.607525  8470 net.cpp:425] inception_4a/3x3 <- inception_4a/3x3_reduce
I0403 19:02:18.607545  8470 net.cpp:399] inception_4a/3x3 -> inception_4a/3x3
I0403 19:02:18.610074  8470 net.cpp:141] Setting up inception_4a/3x3
I0403 19:02:18.610100  8470 net.cpp:148] Top shape: 24 208 14 14 (978432)
I0403 19:02:18.610116  8470 net.cpp:156] Memory required for data: 869149728
I0403 19:02:18.610132  8470 layer_factory.hpp:77] Creating layer inception_4a/relu_3x3
I0403 19:02:18.610152  8470 net.cpp:91] Creating Layer inception_4a/relu_3x3
I0403 19:02:18.610167  8470 net.cpp:425] inception_4a/relu_3x3 <- inception_4a/3x3
I0403 19:02:18.610184  8470 net.cpp:386] inception_4a/relu_3x3 -> inception_4a/3x3 (in-place)
I0403 19:02:18.610448  8470 net.cpp:141] Setting up inception_4a/relu_3x3
I0403 19:02:18.610473  8470 net.cpp:148] Top shape: 24 208 14 14 (978432)
I0403 19:02:18.610487  8470 net.cpp:156] Memory required for data: 873063456
I0403 19:02:18.610502  8470 layer_factory.hpp:77] Creating layer inception_4a/5x5_reduce
I0403 19:02:18.610525  8470 net.cpp:91] Creating Layer inception_4a/5x5_reduce
I0403 19:02:18.610543  8470 net.cpp:425] inception_4a/5x5_reduce <- pool3/3x3_s2_pool3/3x3_s2_0_split_2
I0403 19:02:18.610560  8470 net.cpp:399] inception_4a/5x5_reduce -> inception_4a/5x5_reduce
I0403 19:02:18.611562  8470 net.cpp:141] Setting up inception_4a/5x5_reduce
I0403 19:02:18.611591  8470 net.cpp:148] Top shape: 24 16 14 14 (75264)
I0403 19:02:18.611606  8470 net.cpp:156] Memory required for data: 873364512
I0403 19:02:18.611625  8470 layer_factory.hpp:77] Creating layer inception_4a/relu_5x5_reduce
I0403 19:02:18.611655  8470 net.cpp:91] Creating Layer inception_4a/relu_5x5_reduce
I0403 19:02:18.611671  8470 net.cpp:425] inception_4a/relu_5x5_reduce <- inception_4a/5x5_reduce
I0403 19:02:18.611690  8470 net.cpp:386] inception_4a/relu_5x5_reduce -> inception_4a/5x5_reduce (in-place)
I0403 19:02:18.611857  8470 net.cpp:141] Setting up inception_4a/relu_5x5_reduce
I0403 19:02:18.611881  8470 net.cpp:148] Top shape: 24 16 14 14 (75264)
I0403 19:02:18.611894  8470 net.cpp:156] Memory required for data: 873665568
I0403 19:02:18.611908  8470 layer_factory.hpp:77] Creating layer inception_4a/5x5
I0403 19:02:18.611929  8470 net.cpp:91] Creating Layer inception_4a/5x5
I0403 19:02:18.611945  8470 net.cpp:425] inception_4a/5x5 <- inception_4a/5x5_reduce
I0403 19:02:18.611966  8470 net.cpp:399] inception_4a/5x5 -> inception_4a/5x5
I0403 19:02:18.612993  8470 net.cpp:141] Setting up inception_4a/5x5
I0403 19:02:18.613018  8470 net.cpp:148] Top shape: 24 48 14 14 (225792)
I0403 19:02:18.613034  8470 net.cpp:156] Memory required for data: 874568736
I0403 19:02:18.613052  8470 layer_factory.hpp:77] Creating layer inception_4a/relu_5x5
I0403 19:02:18.613071  8470 net.cpp:91] Creating Layer inception_4a/relu_5x5
I0403 19:02:18.613086  8470 net.cpp:425] inception_4a/relu_5x5 <- inception_4a/5x5
I0403 19:02:18.613103  8470 net.cpp:386] inception_4a/relu_5x5 -> inception_4a/5x5 (in-place)
I0403 19:02:18.613273  8470 net.cpp:141] Setting up inception_4a/relu_5x5
I0403 19:02:18.613297  8470 net.cpp:148] Top shape: 24 48 14 14 (225792)
I0403 19:02:18.613312  8470 net.cpp:156] Memory required for data: 875471904
I0403 19:02:18.613325  8470 layer_factory.hpp:77] Creating layer inception_4a/pool
I0403 19:02:18.613344  8470 net.cpp:91] Creating Layer inception_4a/pool
I0403 19:02:18.613360  8470 net.cpp:425] inception_4a/pool <- pool3/3x3_s2_pool3/3x3_s2_0_split_3
I0403 19:02:18.613376  8470 net.cpp:399] inception_4a/pool -> inception_4a/pool
I0403 19:02:18.613435  8470 net.cpp:141] Setting up inception_4a/pool
I0403 19:02:18.613456  8470 net.cpp:148] Top shape: 24 480 14 14 (2257920)
I0403 19:02:18.613471  8470 net.cpp:156] Memory required for data: 884503584
I0403 19:02:18.613483  8470 layer_factory.hpp:77] Creating layer inception_4a/pool_proj
I0403 19:02:18.613504  8470 net.cpp:91] Creating Layer inception_4a/pool_proj
I0403 19:02:18.613522  8470 net.cpp:425] inception_4a/pool_proj <- inception_4a/pool
I0403 19:02:18.613541  8470 net.cpp:399] inception_4a/pool_proj -> inception_4a/pool_proj
I0403 19:02:18.614636  8470 net.cpp:141] Setting up inception_4a/pool_proj
I0403 19:02:18.614666  8470 net.cpp:148] Top shape: 24 64 14 14 (301056)
I0403 19:02:18.614698  8470 net.cpp:156] Memory required for data: 885707808
I0403 19:02:18.614717  8470 layer_factory.hpp:77] Creating layer inception_4a/relu_pool_proj
I0403 19:02:18.614738  8470 net.cpp:91] Creating Layer inception_4a/relu_pool_proj
I0403 19:02:18.614754  8470 net.cpp:425] inception_4a/relu_pool_proj <- inception_4a/pool_proj
I0403 19:02:18.614771  8470 net.cpp:386] inception_4a/relu_pool_proj -> inception_4a/pool_proj (in-place)
I0403 19:02:18.615041  8470 net.cpp:141] Setting up inception_4a/relu_pool_proj
I0403 19:02:18.615067  8470 net.cpp:148] Top shape: 24 64 14 14 (301056)
I0403 19:02:18.615080  8470 net.cpp:156] Memory required for data: 886912032
I0403 19:02:18.615094  8470 layer_factory.hpp:77] Creating layer inception_4a/output
I0403 19:02:18.615114  8470 net.cpp:91] Creating Layer inception_4a/output
I0403 19:02:18.615130  8470 net.cpp:425] inception_4a/output <- inception_4a/1x1
I0403 19:02:18.615147  8470 net.cpp:425] inception_4a/output <- inception_4a/3x3
I0403 19:02:18.615162  8470 net.cpp:425] inception_4a/output <- inception_4a/5x5
I0403 19:02:18.615177  8470 net.cpp:425] inception_4a/output <- inception_4a/pool_proj
I0403 19:02:18.615193  8470 net.cpp:399] inception_4a/output -> inception_4a/output
I0403 19:02:18.615239  8470 net.cpp:141] Setting up inception_4a/output
I0403 19:02:18.615262  8470 net.cpp:148] Top shape: 24 512 14 14 (2408448)
I0403 19:02:18.615278  8470 net.cpp:156] Memory required for data: 896545824
I0403 19:02:18.615293  8470 layer_factory.hpp:77] Creating layer inception_4a/output_inception_4a/output_0_split
I0403 19:02:18.615309  8470 net.cpp:91] Creating Layer inception_4a/output_inception_4a/output_0_split
I0403 19:02:18.615324  8470 net.cpp:425] inception_4a/output_inception_4a/output_0_split <- inception_4a/output
I0403 19:02:18.615344  8470 net.cpp:399] inception_4a/output_inception_4a/output_0_split -> inception_4a/output_inception_4a/output_0_split_0
I0403 19:02:18.615363  8470 net.cpp:399] inception_4a/output_inception_4a/output_0_split -> inception_4a/output_inception_4a/output_0_split_1
I0403 19:02:18.615383  8470 net.cpp:399] inception_4a/output_inception_4a/output_0_split -> inception_4a/output_inception_4a/output_0_split_2
I0403 19:02:18.615403  8470 net.cpp:399] inception_4a/output_inception_4a/output_0_split -> inception_4a/output_inception_4a/output_0_split_3
I0403 19:02:18.615423  8470 net.cpp:399] inception_4a/output_inception_4a/output_0_split -> inception_4a/output_inception_4a/output_0_split_4
I0403 19:02:18.615510  8470 net.cpp:141] Setting up inception_4a/output_inception_4a/output_0_split
I0403 19:02:18.615531  8470 net.cpp:148] Top shape: 24 512 14 14 (2408448)
I0403 19:02:18.615550  8470 net.cpp:148] Top shape: 24 512 14 14 (2408448)
I0403 19:02:18.615566  8470 net.cpp:148] Top shape: 24 512 14 14 (2408448)
I0403 19:02:18.615581  8470 net.cpp:148] Top shape: 24 512 14 14 (2408448)
I0403 19:02:18.615597  8470 net.cpp:148] Top shape: 24 512 14 14 (2408448)
I0403 19:02:18.615609  8470 net.cpp:156] Memory required for data: 944714784
I0403 19:02:18.615622  8470 layer_factory.hpp:77] Creating layer loss1/ave_pool
I0403 19:02:18.615638  8470 net.cpp:91] Creating Layer loss1/ave_pool
I0403 19:02:18.615654  8470 net.cpp:425] loss1/ave_pool <- inception_4a/output_inception_4a/output_0_split_0
I0403 19:02:18.615675  8470 net.cpp:399] loss1/ave_pool -> loss1/ave_pool
I0403 19:02:18.615869  8470 net.cpp:141] Setting up loss1/ave_pool
I0403 19:02:18.615893  8470 net.cpp:148] Top shape: 24 512 4 4 (196608)
I0403 19:02:18.615907  8470 net.cpp:156] Memory required for data: 945501216
I0403 19:02:18.615922  8470 layer_factory.hpp:77] Creating layer loss1/conv
I0403 19:02:18.615943  8470 net.cpp:91] Creating Layer loss1/conv
I0403 19:02:18.615962  8470 net.cpp:425] loss1/conv <- loss1/ave_pool
I0403 19:02:18.615983  8470 net.cpp:399] loss1/conv -> loss1/conv
I0403 19:02:18.617413  8470 net.cpp:141] Setting up loss1/conv
I0403 19:02:18.617444  8470 net.cpp:148] Top shape: 24 128 4 4 (49152)
I0403 19:02:18.617478  8470 net.cpp:156] Memory required for data: 945697824
I0403 19:02:18.617497  8470 layer_factory.hpp:77] Creating layer loss1/relu_conv
I0403 19:02:18.617514  8470 net.cpp:91] Creating Layer loss1/relu_conv
I0403 19:02:18.617532  8470 net.cpp:425] loss1/relu_conv <- loss1/conv
I0403 19:02:18.617550  8470 net.cpp:386] loss1/relu_conv -> loss1/conv (in-place)
I0403 19:02:18.617820  8470 net.cpp:141] Setting up loss1/relu_conv
I0403 19:02:18.617847  8470 net.cpp:148] Top shape: 24 128 4 4 (49152)
I0403 19:02:18.617862  8470 net.cpp:156] Memory required for data: 945894432
I0403 19:02:18.617877  8470 layer_factory.hpp:77] Creating layer loss1/fc
I0403 19:02:18.617900  8470 net.cpp:91] Creating Layer loss1/fc
I0403 19:02:18.617918  8470 net.cpp:425] loss1/fc <- loss1/conv
I0403 19:02:18.617938  8470 net.cpp:399] loss1/fc -> loss1/fc
I0403 19:02:18.635512  8470 net.cpp:141] Setting up loss1/fc
I0403 19:02:18.635547  8470 net.cpp:148] Top shape: 24 1024 (24576)
I0403 19:02:18.635561  8470 net.cpp:156] Memory required for data: 945992736
I0403 19:02:18.635578  8470 layer_factory.hpp:77] Creating layer loss1/relu_fc
I0403 19:02:18.635598  8470 net.cpp:91] Creating Layer loss1/relu_fc
I0403 19:02:18.635614  8470 net.cpp:425] loss1/relu_fc <- loss1/fc
I0403 19:02:18.635630  8470 net.cpp:386] loss1/relu_fc -> loss1/fc (in-place)
I0403 19:02:18.635808  8470 net.cpp:141] Setting up loss1/relu_fc
I0403 19:02:18.635833  8470 net.cpp:148] Top shape: 24 1024 (24576)
I0403 19:02:18.635861  8470 net.cpp:156] Memory required for data: 946091040
I0403 19:02:18.635875  8470 layer_factory.hpp:77] Creating layer loss1/drop_fc
I0403 19:02:18.635901  8470 net.cpp:91] Creating Layer loss1/drop_fc
I0403 19:02:18.635920  8470 net.cpp:425] loss1/drop_fc <- loss1/fc
I0403 19:02:18.635936  8470 net.cpp:386] loss1/drop_fc -> loss1/fc (in-place)
I0403 19:02:18.635990  8470 net.cpp:141] Setting up loss1/drop_fc
I0403 19:02:18.636013  8470 net.cpp:148] Top shape: 24 1024 (24576)
I0403 19:02:18.636028  8470 net.cpp:156] Memory required for data: 946189344
I0403 19:02:18.636044  8470 layer_factory.hpp:77] Creating layer loss1/classifier_plantvillage
I0403 19:02:18.636061  8470 net.cpp:91] Creating Layer loss1/classifier_plantvillage
I0403 19:02:18.636077  8470 net.cpp:425] loss1/classifier_plantvillage <- loss1/fc
I0403 19:02:18.636097  8470 net.cpp:399] loss1/classifier_plantvillage -> loss1/classifier_plantvillage
I0403 19:02:18.637011  8470 net.cpp:141] Setting up loss1/classifier_plantvillage
I0403 19:02:18.637037  8470 net.cpp:148] Top shape: 24 38 (912)
I0403 19:02:18.637051  8470 net.cpp:156] Memory required for data: 946192992
I0403 19:02:18.637068  8470 layer_factory.hpp:77] Creating layer loss1/classifier_plantvillage_loss1/classifier_plantvillage_0_split
I0403 19:02:18.637089  8470 net.cpp:91] Creating Layer loss1/classifier_plantvillage_loss1/classifier_plantvillage_0_split
I0403 19:02:18.637104  8470 net.cpp:425] loss1/classifier_plantvillage_loss1/classifier_plantvillage_0_split <- loss1/classifier_plantvillage
I0403 19:02:18.637120  8470 net.cpp:399] loss1/classifier_plantvillage_loss1/classifier_plantvillage_0_split -> loss1/classifier_plantvillage_loss1/classifier_plantvillage_0_split_0
I0403 19:02:18.637140  8470 net.cpp:399] loss1/classifier_plantvillage_loss1/classifier_plantvillage_0_split -> loss1/classifier_plantvillage_loss1/classifier_plantvillage_0_split_1
I0403 19:02:18.637161  8470 net.cpp:399] loss1/classifier_plantvillage_loss1/classifier_plantvillage_0_split -> loss1/classifier_plantvillage_loss1/classifier_plantvillage_0_split_2
I0403 19:02:18.637229  8470 net.cpp:141] Setting up loss1/classifier_plantvillage_loss1/classifier_plantvillage_0_split
I0403 19:02:18.637250  8470 net.cpp:148] Top shape: 24 38 (912)
I0403 19:02:18.637265  8470 net.cpp:148] Top shape: 24 38 (912)
I0403 19:02:18.637279  8470 net.cpp:148] Top shape: 24 38 (912)
I0403 19:02:18.637293  8470 net.cpp:156] Memory required for data: 946203936
I0403 19:02:18.637306  8470 layer_factory.hpp:77] Creating layer inception_4b/1x1
I0403 19:02:18.637328  8470 net.cpp:91] Creating Layer inception_4b/1x1
I0403 19:02:18.637361  8470 net.cpp:425] inception_4b/1x1 <- inception_4a/output_inception_4a/output_0_split_1
I0403 19:02:18.637380  8470 net.cpp:399] inception_4b/1x1 -> inception_4b/1x1
I0403 19:02:18.638908  8470 net.cpp:141] Setting up inception_4b/1x1
I0403 19:02:18.638937  8470 net.cpp:148] Top shape: 24 160 14 14 (752640)
I0403 19:02:18.638953  8470 net.cpp:156] Memory required for data: 949214496
I0403 19:02:18.638972  8470 layer_factory.hpp:77] Creating layer inception_4b/relu_1x1
I0403 19:02:18.638988  8470 net.cpp:91] Creating Layer inception_4b/relu_1x1
I0403 19:02:18.639003  8470 net.cpp:425] inception_4b/relu_1x1 <- inception_4b/1x1
I0403 19:02:18.639022  8470 net.cpp:386] inception_4b/relu_1x1 -> inception_4b/1x1 (in-place)
I0403 19:02:18.639190  8470 net.cpp:141] Setting up inception_4b/relu_1x1
I0403 19:02:18.639219  8470 net.cpp:148] Top shape: 24 160 14 14 (752640)
I0403 19:02:18.639235  8470 net.cpp:156] Memory required for data: 952225056
I0403 19:02:18.639250  8470 layer_factory.hpp:77] Creating layer inception_4b/3x3_reduce
I0403 19:02:18.639271  8470 net.cpp:91] Creating Layer inception_4b/3x3_reduce
I0403 19:02:18.639286  8470 net.cpp:425] inception_4b/3x3_reduce <- inception_4a/output_inception_4a/output_0_split_2
I0403 19:02:18.639307  8470 net.cpp:399] inception_4b/3x3_reduce -> inception_4b/3x3_reduce
I0403 19:02:18.640580  8470 net.cpp:141] Setting up inception_4b/3x3_reduce
I0403 19:02:18.640606  8470 net.cpp:148] Top shape: 24 112 14 14 (526848)
I0403 19:02:18.640621  8470 net.cpp:156] Memory required for data: 954332448
I0403 19:02:18.640638  8470 layer_factory.hpp:77] Creating layer inception_4b/relu_3x3_reduce
I0403 19:02:18.640656  8470 net.cpp:91] Creating Layer inception_4b/relu_3x3_reduce
I0403 19:02:18.640671  8470 net.cpp:425] inception_4b/relu_3x3_reduce <- inception_4b/3x3_reduce
I0403 19:02:18.640691  8470 net.cpp:386] inception_4b/relu_3x3_reduce -> inception_4b/3x3_reduce (in-place)
I0403 19:02:18.640961  8470 net.cpp:141] Setting up inception_4b/relu_3x3_reduce
I0403 19:02:18.640986  8470 net.cpp:148] Top shape: 24 112 14 14 (526848)
I0403 19:02:18.641000  8470 net.cpp:156] Memory required for data: 956439840
I0403 19:02:18.641016  8470 layer_factory.hpp:77] Creating layer inception_4b/3x3
I0403 19:02:18.641037  8470 net.cpp:91] Creating Layer inception_4b/3x3
I0403 19:02:18.641054  8470 net.cpp:425] inception_4b/3x3 <- inception_4b/3x3_reduce
I0403 19:02:18.641077  8470 net.cpp:399] inception_4b/3x3 -> inception_4b/3x3
I0403 19:02:18.643935  8470 net.cpp:141] Setting up inception_4b/3x3
I0403 19:02:18.643964  8470 net.cpp:148] Top shape: 24 224 14 14 (1053696)
I0403 19:02:18.643977  8470 net.cpp:156] Memory required for data: 960654624
I0403 19:02:18.643996  8470 layer_factory.hpp:77] Creating layer inception_4b/relu_3x3
I0403 19:02:18.644016  8470 net.cpp:91] Creating Layer inception_4b/relu_3x3
I0403 19:02:18.644032  8470 net.cpp:425] inception_4b/relu_3x3 <- inception_4b/3x3
I0403 19:02:18.644049  8470 net.cpp:386] inception_4b/relu_3x3 -> inception_4b/3x3 (in-place)
I0403 19:02:18.644225  8470 net.cpp:141] Setting up inception_4b/relu_3x3
I0403 19:02:18.644251  8470 net.cpp:148] Top shape: 24 224 14 14 (1053696)
I0403 19:02:18.644268  8470 net.cpp:156] Memory required for data: 964869408
I0403 19:02:18.644281  8470 layer_factory.hpp:77] Creating layer inception_4b/5x5_reduce
I0403 19:02:18.644304  8470 net.cpp:91] Creating Layer inception_4b/5x5_reduce
I0403 19:02:18.644322  8470 net.cpp:425] inception_4b/5x5_reduce <- inception_4a/output_inception_4a/output_0_split_3
I0403 19:02:18.644341  8470 net.cpp:399] inception_4b/5x5_reduce -> inception_4b/5x5_reduce
I0403 19:02:18.645380  8470 net.cpp:141] Setting up inception_4b/5x5_reduce
I0403 19:02:18.645406  8470 net.cpp:148] Top shape: 24 24 14 14 (112896)
I0403 19:02:18.645421  8470 net.cpp:156] Memory required for data: 965320992
I0403 19:02:18.645438  8470 layer_factory.hpp:77] Creating layer inception_4b/relu_5x5_reduce
I0403 19:02:18.645455  8470 net.cpp:91] Creating Layer inception_4b/relu_5x5_reduce
I0403 19:02:18.645484  8470 net.cpp:425] inception_4b/relu_5x5_reduce <- inception_4b/5x5_reduce
I0403 19:02:18.645503  8470 net.cpp:386] inception_4b/relu_5x5_reduce -> inception_4b/5x5_reduce (in-place)
I0403 19:02:18.645674  8470 net.cpp:141] Setting up inception_4b/relu_5x5_reduce
I0403 19:02:18.645697  8470 net.cpp:148] Top shape: 24 24 14 14 (112896)
I0403 19:02:18.645710  8470 net.cpp:156] Memory required for data: 965772576
I0403 19:02:18.645725  8470 layer_factory.hpp:77] Creating layer inception_4b/5x5
I0403 19:02:18.645745  8470 net.cpp:91] Creating Layer inception_4b/5x5
I0403 19:02:18.645761  8470 net.cpp:425] inception_4b/5x5 <- inception_4b/5x5_reduce
I0403 19:02:18.645781  8470 net.cpp:399] inception_4b/5x5 -> inception_4b/5x5
I0403 19:02:18.646949  8470 net.cpp:141] Setting up inception_4b/5x5
I0403 19:02:18.646978  8470 net.cpp:148] Top shape: 24 64 14 14 (301056)
I0403 19:02:18.646993  8470 net.cpp:156] Memory required for data: 966976800
I0403 19:02:18.647012  8470 layer_factory.hpp:77] Creating layer inception_4b/relu_5x5
I0403 19:02:18.647029  8470 net.cpp:91] Creating Layer inception_4b/relu_5x5
I0403 19:02:18.647044  8470 net.cpp:425] inception_4b/relu_5x5 <- inception_4b/5x5
I0403 19:02:18.647061  8470 net.cpp:386] inception_4b/relu_5x5 -> inception_4b/5x5 (in-place)
I0403 19:02:18.647333  8470 net.cpp:141] Setting up inception_4b/relu_5x5
I0403 19:02:18.647362  8470 net.cpp:148] Top shape: 24 64 14 14 (301056)
I0403 19:02:18.647377  8470 net.cpp:156] Memory required for data: 968181024
I0403 19:02:18.647392  8470 layer_factory.hpp:77] Creating layer inception_4b/pool
I0403 19:02:18.647408  8470 net.cpp:91] Creating Layer inception_4b/pool
I0403 19:02:18.647423  8470 net.cpp:425] inception_4b/pool <- inception_4a/output_inception_4a/output_0_split_4
I0403 19:02:18.647442  8470 net.cpp:399] inception_4b/pool -> inception_4b/pool
I0403 19:02:18.647502  8470 net.cpp:141] Setting up inception_4b/pool
I0403 19:02:18.647524  8470 net.cpp:148] Top shape: 24 512 14 14 (2408448)
I0403 19:02:18.647538  8470 net.cpp:156] Memory required for data: 977814816
I0403 19:02:18.647552  8470 layer_factory.hpp:77] Creating layer inception_4b/pool_proj
I0403 19:02:18.647574  8470 net.cpp:91] Creating Layer inception_4b/pool_proj
I0403 19:02:18.647589  8470 net.cpp:425] inception_4b/pool_proj <- inception_4b/pool
I0403 19:02:18.647609  8470 net.cpp:399] inception_4b/pool_proj -> inception_4b/pool_proj
I0403 19:02:18.648746  8470 net.cpp:141] Setting up inception_4b/pool_proj
I0403 19:02:18.648775  8470 net.cpp:148] Top shape: 24 64 14 14 (301056)
I0403 19:02:18.648790  8470 net.cpp:156] Memory required for data: 979019040
I0403 19:02:18.648808  8470 layer_factory.hpp:77] Creating layer inception_4b/relu_pool_proj
I0403 19:02:18.648825  8470 net.cpp:91] Creating Layer inception_4b/relu_pool_proj
I0403 19:02:18.648841  8470 net.cpp:425] inception_4b/relu_pool_proj <- inception_4b/pool_proj
I0403 19:02:18.648859  8470 net.cpp:386] inception_4b/relu_pool_proj -> inception_4b/pool_proj (in-place)
I0403 19:02:18.649032  8470 net.cpp:141] Setting up inception_4b/relu_pool_proj
I0403 19:02:18.649055  8470 net.cpp:148] Top shape: 24 64 14 14 (301056)
I0403 19:02:18.649070  8470 net.cpp:156] Memory required for data: 980223264
I0403 19:02:18.649083  8470 layer_factory.hpp:77] Creating layer inception_4b/output
I0403 19:02:18.649099  8470 net.cpp:91] Creating Layer inception_4b/output
I0403 19:02:18.649114  8470 net.cpp:425] inception_4b/output <- inception_4b/1x1
I0403 19:02:18.649129  8470 net.cpp:425] inception_4b/output <- inception_4b/3x3
I0403 19:02:18.649144  8470 net.cpp:425] inception_4b/output <- inception_4b/5x5
I0403 19:02:18.649159  8470 net.cpp:425] inception_4b/output <- inception_4b/pool_proj
I0403 19:02:18.649178  8470 net.cpp:399] inception_4b/output -> inception_4b/output
I0403 19:02:18.649229  8470 net.cpp:141] Setting up inception_4b/output
I0403 19:02:18.649252  8470 net.cpp:148] Top shape: 24 512 14 14 (2408448)
I0403 19:02:18.649267  8470 net.cpp:156] Memory required for data: 989857056
I0403 19:02:18.649294  8470 layer_factory.hpp:77] Creating layer inception_4b/output_inception_4b/output_0_split
I0403 19:02:18.649313  8470 net.cpp:91] Creating Layer inception_4b/output_inception_4b/output_0_split
I0403 19:02:18.649328  8470 net.cpp:425] inception_4b/output_inception_4b/output_0_split <- inception_4b/output
I0403 19:02:18.649348  8470 net.cpp:399] inception_4b/output_inception_4b/output_0_split -> inception_4b/output_inception_4b/output_0_split_0
I0403 19:02:18.649369  8470 net.cpp:399] inception_4b/output_inception_4b/output_0_split -> inception_4b/output_inception_4b/output_0_split_1
I0403 19:02:18.649389  8470 net.cpp:399] inception_4b/output_inception_4b/output_0_split -> inception_4b/output_inception_4b/output_0_split_2
I0403 19:02:18.649408  8470 net.cpp:399] inception_4b/output_inception_4b/output_0_split -> inception_4b/output_inception_4b/output_0_split_3
I0403 19:02:18.649489  8470 net.cpp:141] Setting up inception_4b/output_inception_4b/output_0_split
I0403 19:02:18.649510  8470 net.cpp:148] Top shape: 24 512 14 14 (2408448)
I0403 19:02:18.649525  8470 net.cpp:148] Top shape: 24 512 14 14 (2408448)
I0403 19:02:18.649539  8470 net.cpp:148] Top shape: 24 512 14 14 (2408448)
I0403 19:02:18.649554  8470 net.cpp:148] Top shape: 24 512 14 14 (2408448)
I0403 19:02:18.649567  8470 net.cpp:156] Memory required for data: 1028392224
I0403 19:02:18.649581  8470 layer_factory.hpp:77] Creating layer inception_4c/1x1
I0403 19:02:18.649605  8470 net.cpp:91] Creating Layer inception_4c/1x1
I0403 19:02:18.649621  8470 net.cpp:425] inception_4c/1x1 <- inception_4b/output_inception_4b/output_0_split_0
I0403 19:02:18.649637  8470 net.cpp:399] inception_4c/1x1 -> inception_4c/1x1
I0403 19:02:18.651007  8470 net.cpp:141] Setting up inception_4c/1x1
I0403 19:02:18.651036  8470 net.cpp:148] Top shape: 24 128 14 14 (602112)
I0403 19:02:18.651051  8470 net.cpp:156] Memory required for data: 1030800672
I0403 19:02:18.651068  8470 layer_factory.hpp:77] Creating layer inception_4c/relu_1x1
I0403 19:02:18.651088  8470 net.cpp:91] Creating Layer inception_4c/relu_1x1
I0403 19:02:18.651104  8470 net.cpp:425] inception_4c/relu_1x1 <- inception_4c/1x1
I0403 19:02:18.651121  8470 net.cpp:386] inception_4c/relu_1x1 -> inception_4c/1x1 (in-place)
I0403 19:02:18.651314  8470 net.cpp:141] Setting up inception_4c/relu_1x1
I0403 19:02:18.651340  8470 net.cpp:148] Top shape: 24 128 14 14 (602112)
I0403 19:02:18.651355  8470 net.cpp:156] Memory required for data: 1033209120
I0403 19:02:18.651370  8470 layer_factory.hpp:77] Creating layer inception_4c/3x3_reduce
I0403 19:02:18.651391  8470 net.cpp:91] Creating Layer inception_4c/3x3_reduce
I0403 19:02:18.651409  8470 net.cpp:425] inception_4c/3x3_reduce <- inception_4b/output_inception_4b/output_0_split_1
I0403 19:02:18.651427  8470 net.cpp:399] inception_4c/3x3_reduce -> inception_4c/3x3_reduce
I0403 19:02:18.653298  8470 net.cpp:141] Setting up inception_4c/3x3_reduce
I0403 19:02:18.653328  8470 net.cpp:148] Top shape: 24 128 14 14 (602112)
I0403 19:02:18.653344  8470 net.cpp:156] Memory required for data: 1035617568
I0403 19:02:18.653363  8470 layer_factory.hpp:77] Creating layer inception_4c/relu_3x3_reduce
I0403 19:02:18.653380  8470 net.cpp:91] Creating Layer inception_4c/relu_3x3_reduce
I0403 19:02:18.653396  8470 net.cpp:425] inception_4c/relu_3x3_reduce <- inception_4c/3x3_reduce
I0403 19:02:18.653414  8470 net.cpp:386] inception_4c/relu_3x3_reduce -> inception_4c/3x3_reduce (in-place)
I0403 19:02:18.653682  8470 net.cpp:141] Setting up inception_4c/relu_3x3_reduce
I0403 19:02:18.653709  8470 net.cpp:148] Top shape: 24 128 14 14 (602112)
I0403 19:02:18.653723  8470 net.cpp:156] Memory required for data: 1038026016
I0403 19:02:18.653738  8470 layer_factory.hpp:77] Creating layer inception_4c/3x3
I0403 19:02:18.653760  8470 net.cpp:91] Creating Layer inception_4c/3x3
I0403 19:02:18.653777  8470 net.cpp:425] inception_4c/3x3 <- inception_4c/3x3_reduce
I0403 19:02:18.653795  8470 net.cpp:399] inception_4c/3x3 -> inception_4c/3x3
I0403 19:02:18.657229  8470 net.cpp:141] Setting up inception_4c/3x3
I0403 19:02:18.657270  8470 net.cpp:148] Top shape: 24 256 14 14 (1204224)
I0403 19:02:18.657286  8470 net.cpp:156] Memory required for data: 1042842912
I0403 19:02:18.657317  8470 layer_factory.hpp:77] Creating layer inception_4c/relu_3x3
I0403 19:02:18.657336  8470 net.cpp:91] Creating Layer inception_4c/relu_3x3
I0403 19:02:18.657353  8470 net.cpp:425] inception_4c/relu_3x3 <- inception_4c/3x3
I0403 19:02:18.657371  8470 net.cpp:386] inception_4c/relu_3x3 -> inception_4c/3x3 (in-place)
I0403 19:02:18.657542  8470 net.cpp:141] Setting up inception_4c/relu_3x3
I0403 19:02:18.657567  8470 net.cpp:148] Top shape: 24 256 14 14 (1204224)
I0403 19:02:18.657580  8470 net.cpp:156] Memory required for data: 1047659808
I0403 19:02:18.657595  8470 layer_factory.hpp:77] Creating layer inception_4c/5x5_reduce
I0403 19:02:18.657618  8470 net.cpp:91] Creating Layer inception_4c/5x5_reduce
I0403 19:02:18.657634  8470 net.cpp:425] inception_4c/5x5_reduce <- inception_4b/output_inception_4b/output_0_split_2
I0403 19:02:18.657655  8470 net.cpp:399] inception_4c/5x5_reduce -> inception_4c/5x5_reduce
I0403 19:02:18.658702  8470 net.cpp:141] Setting up inception_4c/5x5_reduce
I0403 19:02:18.658728  8470 net.cpp:148] Top shape: 24 24 14 14 (112896)
I0403 19:02:18.658743  8470 net.cpp:156] Memory required for data: 1048111392
I0403 19:02:18.658761  8470 layer_factory.hpp:77] Creating layer inception_4c/relu_5x5_reduce
I0403 19:02:18.658779  8470 net.cpp:91] Creating Layer inception_4c/relu_5x5_reduce
I0403 19:02:18.658793  8470 net.cpp:425] inception_4c/relu_5x5_reduce <- inception_4c/5x5_reduce
I0403 19:02:18.658812  8470 net.cpp:386] inception_4c/relu_5x5_reduce -> inception_4c/5x5_reduce (in-place)
I0403 19:02:18.658994  8470 net.cpp:141] Setting up inception_4c/relu_5x5_reduce
I0403 19:02:18.659018  8470 net.cpp:148] Top shape: 24 24 14 14 (112896)
I0403 19:02:18.659031  8470 net.cpp:156] Memory required for data: 1048562976
I0403 19:02:18.659046  8470 layer_factory.hpp:77] Creating layer inception_4c/5x5
I0403 19:02:18.659067  8470 net.cpp:91] Creating Layer inception_4c/5x5
I0403 19:02:18.659083  8470 net.cpp:425] inception_4c/5x5 <- inception_4c/5x5_reduce
I0403 19:02:18.659103  8470 net.cpp:399] inception_4c/5x5 -> inception_4c/5x5
I0403 19:02:18.660295  8470 net.cpp:141] Setting up inception_4c/5x5
I0403 19:02:18.660320  8470 net.cpp:148] Top shape: 24 64 14 14 (301056)
I0403 19:02:18.660336  8470 net.cpp:156] Memory required for data: 1049767200
I0403 19:02:18.660353  8470 layer_factory.hpp:77] Creating layer inception_4c/relu_5x5
I0403 19:02:18.660373  8470 net.cpp:91] Creating Layer inception_4c/relu_5x5
I0403 19:02:18.660389  8470 net.cpp:425] inception_4c/relu_5x5 <- inception_4c/5x5
I0403 19:02:18.660405  8470 net.cpp:386] inception_4c/relu_5x5 -> inception_4c/5x5 (in-place)
I0403 19:02:18.660684  8470 net.cpp:141] Setting up inception_4c/relu_5x5
I0403 19:02:18.660711  8470 net.cpp:148] Top shape: 24 64 14 14 (301056)
I0403 19:02:18.660724  8470 net.cpp:156] Memory required for data: 1050971424
I0403 19:02:18.660738  8470 layer_factory.hpp:77] Creating layer inception_4c/pool
I0403 19:02:18.660755  8470 net.cpp:91] Creating Layer inception_4c/pool
I0403 19:02:18.660770  8470 net.cpp:425] inception_4c/pool <- inception_4b/output_inception_4b/output_0_split_3
I0403 19:02:18.660790  8470 net.cpp:399] inception_4c/pool -> inception_4c/pool
I0403 19:02:18.660852  8470 net.cpp:141] Setting up inception_4c/pool
I0403 19:02:18.660874  8470 net.cpp:148] Top shape: 24 512 14 14 (2408448)
I0403 19:02:18.660889  8470 net.cpp:156] Memory required for data: 1060605216
I0403 19:02:18.660902  8470 layer_factory.hpp:77] Creating layer inception_4c/pool_proj
I0403 19:02:18.660925  8470 net.cpp:91] Creating Layer inception_4c/pool_proj
I0403 19:02:18.660943  8470 net.cpp:425] inception_4c/pool_proj <- inception_4c/pool
I0403 19:02:18.660962  8470 net.cpp:399] inception_4c/pool_proj -> inception_4c/pool_proj
I0403 19:02:18.662117  8470 net.cpp:141] Setting up inception_4c/pool_proj
I0403 19:02:18.662147  8470 net.cpp:148] Top shape: 24 64 14 14 (301056)
I0403 19:02:18.662175  8470 net.cpp:156] Memory required for data: 1061809440
I0403 19:02:18.662194  8470 layer_factory.hpp:77] Creating layer inception_4c/relu_pool_proj
I0403 19:02:18.662220  8470 net.cpp:91] Creating Layer inception_4c/relu_pool_proj
I0403 19:02:18.662240  8470 net.cpp:425] inception_4c/relu_pool_proj <- inception_4c/pool_proj
I0403 19:02:18.662259  8470 net.cpp:386] inception_4c/relu_pool_proj -> inception_4c/pool_proj (in-place)
I0403 19:02:18.662436  8470 net.cpp:141] Setting up inception_4c/relu_pool_proj
I0403 19:02:18.662461  8470 net.cpp:148] Top shape: 24 64 14 14 (301056)
I0403 19:02:18.662473  8470 net.cpp:156] Memory required for data: 1063013664
I0403 19:02:18.662488  8470 layer_factory.hpp:77] Creating layer inception_4c/output
I0403 19:02:18.662506  8470 net.cpp:91] Creating Layer inception_4c/output
I0403 19:02:18.662520  8470 net.cpp:425] inception_4c/output <- inception_4c/1x1
I0403 19:02:18.662535  8470 net.cpp:425] inception_4c/output <- inception_4c/3x3
I0403 19:02:18.662550  8470 net.cpp:425] inception_4c/output <- inception_4c/5x5
I0403 19:02:18.662565  8470 net.cpp:425] inception_4c/output <- inception_4c/pool_proj
I0403 19:02:18.662585  8470 net.cpp:399] inception_4c/output -> inception_4c/output
I0403 19:02:18.662628  8470 net.cpp:141] Setting up inception_4c/output
I0403 19:02:18.662654  8470 net.cpp:148] Top shape: 24 512 14 14 (2408448)
I0403 19:02:18.662667  8470 net.cpp:156] Memory required for data: 1072647456
I0403 19:02:18.662683  8470 layer_factory.hpp:77] Creating layer inception_4c/output_inception_4c/output_0_split
I0403 19:02:18.662698  8470 net.cpp:91] Creating Layer inception_4c/output_inception_4c/output_0_split
I0403 19:02:18.662714  8470 net.cpp:425] inception_4c/output_inception_4c/output_0_split <- inception_4c/output
I0403 19:02:18.662734  8470 net.cpp:399] inception_4c/output_inception_4c/output_0_split -> inception_4c/output_inception_4c/output_0_split_0
I0403 19:02:18.662755  8470 net.cpp:399] inception_4c/output_inception_4c/output_0_split -> inception_4c/output_inception_4c/output_0_split_1
I0403 19:02:18.662773  8470 net.cpp:399] inception_4c/output_inception_4c/output_0_split -> inception_4c/output_inception_4c/output_0_split_2
I0403 19:02:18.662793  8470 net.cpp:399] inception_4c/output_inception_4c/output_0_split -> inception_4c/output_inception_4c/output_0_split_3
I0403 19:02:18.662876  8470 net.cpp:141] Setting up inception_4c/output_inception_4c/output_0_split
I0403 19:02:18.662899  8470 net.cpp:148] Top shape: 24 512 14 14 (2408448)
I0403 19:02:18.662914  8470 net.cpp:148] Top shape: 24 512 14 14 (2408448)
I0403 19:02:18.662930  8470 net.cpp:148] Top shape: 24 512 14 14 (2408448)
I0403 19:02:18.662945  8470 net.cpp:148] Top shape: 24 512 14 14 (2408448)
I0403 19:02:18.662958  8470 net.cpp:156] Memory required for data: 1111182624
I0403 19:02:18.662971  8470 layer_factory.hpp:77] Creating layer inception_4d/1x1
I0403 19:02:18.662994  8470 net.cpp:91] Creating Layer inception_4d/1x1
I0403 19:02:18.663012  8470 net.cpp:425] inception_4d/1x1 <- inception_4c/output_inception_4c/output_0_split_0
I0403 19:02:18.663030  8470 net.cpp:399] inception_4d/1x1 -> inception_4d/1x1
I0403 19:02:18.664386  8470 net.cpp:141] Setting up inception_4d/1x1
I0403 19:02:18.664414  8470 net.cpp:148] Top shape: 24 112 14 14 (526848)
I0403 19:02:18.664430  8470 net.cpp:156] Memory required for data: 1113290016
I0403 19:02:18.664448  8470 layer_factory.hpp:77] Creating layer inception_4d/relu_1x1
I0403 19:02:18.664469  8470 net.cpp:91] Creating Layer inception_4d/relu_1x1
I0403 19:02:18.664485  8470 net.cpp:425] inception_4d/relu_1x1 <- inception_4d/1x1
I0403 19:02:18.664502  8470 net.cpp:386] inception_4d/relu_1x1 -> inception_4d/1x1 (in-place)
I0403 19:02:18.664682  8470 net.cpp:141] Setting up inception_4d/relu_1x1
I0403 19:02:18.664710  8470 net.cpp:148] Top shape: 24 112 14 14 (526848)
I0403 19:02:18.664724  8470 net.cpp:156] Memory required for data: 1115397408
I0403 19:02:18.664741  8470 layer_factory.hpp:77] Creating layer inception_4d/3x3_reduce
I0403 19:02:18.664775  8470 net.cpp:91] Creating Layer inception_4d/3x3_reduce
I0403 19:02:18.664794  8470 net.cpp:425] inception_4d/3x3_reduce <- inception_4c/output_inception_4c/output_0_split_1
I0403 19:02:18.664816  8470 net.cpp:399] inception_4d/3x3_reduce -> inception_4d/3x3_reduce
I0403 19:02:18.666292  8470 net.cpp:141] Setting up inception_4d/3x3_reduce
I0403 19:02:18.666319  8470 net.cpp:148] Top shape: 24 144 14 14 (677376)
I0403 19:02:18.666334  8470 net.cpp:156] Memory required for data: 1118106912
I0403 19:02:18.666352  8470 layer_factory.hpp:77] Creating layer inception_4d/relu_3x3_reduce
I0403 19:02:18.666373  8470 net.cpp:91] Creating Layer inception_4d/relu_3x3_reduce
I0403 19:02:18.666389  8470 net.cpp:425] inception_4d/relu_3x3_reduce <- inception_4d/3x3_reduce
I0403 19:02:18.666407  8470 net.cpp:386] inception_4d/relu_3x3_reduce -> inception_4d/3x3_reduce (in-place)
I0403 19:02:18.666690  8470 net.cpp:141] Setting up inception_4d/relu_3x3_reduce
I0403 19:02:18.666717  8470 net.cpp:148] Top shape: 24 144 14 14 (677376)
I0403 19:02:18.666730  8470 net.cpp:156] Memory required for data: 1120816416
I0403 19:02:18.666745  8470 layer_factory.hpp:77] Creating layer inception_4d/3x3
I0403 19:02:18.666767  8470 net.cpp:91] Creating Layer inception_4d/3x3
I0403 19:02:18.666785  8470 net.cpp:425] inception_4d/3x3 <- inception_4d/3x3_reduce
I0403 19:02:18.666805  8470 net.cpp:399] inception_4d/3x3 -> inception_4d/3x3
I0403 19:02:18.671000  8470 net.cpp:141] Setting up inception_4d/3x3
I0403 19:02:18.671030  8470 net.cpp:148] Top shape: 24 288 14 14 (1354752)
I0403 19:02:18.671046  8470 net.cpp:156] Memory required for data: 1126235424
I0403 19:02:18.671064  8470 layer_factory.hpp:77] Creating layer inception_4d/relu_3x3
I0403 19:02:18.671083  8470 net.cpp:91] Creating Layer inception_4d/relu_3x3
I0403 19:02:18.671099  8470 net.cpp:425] inception_4d/relu_3x3 <- inception_4d/3x3
I0403 19:02:18.671116  8470 net.cpp:386] inception_4d/relu_3x3 -> inception_4d/3x3 (in-place)
I0403 19:02:18.671303  8470 net.cpp:141] Setting up inception_4d/relu_3x3
I0403 19:02:18.671329  8470 net.cpp:148] Top shape: 24 288 14 14 (1354752)
I0403 19:02:18.671344  8470 net.cpp:156] Memory required for data: 1131654432
I0403 19:02:18.671360  8470 layer_factory.hpp:77] Creating layer inception_4d/5x5_reduce
I0403 19:02:18.671381  8470 net.cpp:91] Creating Layer inception_4d/5x5_reduce
I0403 19:02:18.671398  8470 net.cpp:425] inception_4d/5x5_reduce <- inception_4c/output_inception_4c/output_0_split_2
I0403 19:02:18.671421  8470 net.cpp:399] inception_4d/5x5_reduce -> inception_4d/5x5_reduce
I0403 19:02:18.672544  8470 net.cpp:141] Setting up inception_4d/5x5_reduce
I0403 19:02:18.672572  8470 net.cpp:148] Top shape: 24 32 14 14 (150528)
I0403 19:02:18.672588  8470 net.cpp:156] Memory required for data: 1132256544
I0403 19:02:18.672606  8470 layer_factory.hpp:77] Creating layer inception_4d/relu_5x5_reduce
I0403 19:02:18.672626  8470 net.cpp:91] Creating Layer inception_4d/relu_5x5_reduce
I0403 19:02:18.672643  8470 net.cpp:425] inception_4d/relu_5x5_reduce <- inception_4d/5x5_reduce
I0403 19:02:18.672660  8470 net.cpp:386] inception_4d/relu_5x5_reduce -> inception_4d/5x5_reduce (in-place)
I0403 19:02:18.672845  8470 net.cpp:141] Setting up inception_4d/relu_5x5_reduce
I0403 19:02:18.672870  8470 net.cpp:148] Top shape: 24 32 14 14 (150528)
I0403 19:02:18.672884  8470 net.cpp:156] Memory required for data: 1132858656
I0403 19:02:18.672899  8470 layer_factory.hpp:77] Creating layer inception_4d/5x5
I0403 19:02:18.672921  8470 net.cpp:91] Creating Layer inception_4d/5x5
I0403 19:02:18.672938  8470 net.cpp:425] inception_4d/5x5 <- inception_4d/5x5_reduce
I0403 19:02:18.672960  8470 net.cpp:399] inception_4d/5x5 -> inception_4d/5x5
I0403 19:02:18.674399  8470 net.cpp:141] Setting up inception_4d/5x5
I0403 19:02:18.674427  8470 net.cpp:148] Top shape: 24 64 14 14 (301056)
I0403 19:02:18.674443  8470 net.cpp:156] Memory required for data: 1134062880
I0403 19:02:18.674464  8470 layer_factory.hpp:77] Creating layer inception_4d/relu_5x5
I0403 19:02:18.674495  8470 net.cpp:91] Creating Layer inception_4d/relu_5x5
I0403 19:02:18.674512  8470 net.cpp:425] inception_4d/relu_5x5 <- inception_4d/5x5
I0403 19:02:18.674532  8470 net.cpp:386] inception_4d/relu_5x5 -> inception_4d/5x5 (in-place)
I0403 19:02:18.674834  8470 net.cpp:141] Setting up inception_4d/relu_5x5
I0403 19:02:18.674860  8470 net.cpp:148] Top shape: 24 64 14 14 (301056)
I0403 19:02:18.674873  8470 net.cpp:156] Memory required for data: 1135267104
I0403 19:02:18.674888  8470 layer_factory.hpp:77] Creating layer inception_4d/pool
I0403 19:02:18.674906  8470 net.cpp:91] Creating Layer inception_4d/pool
I0403 19:02:18.674921  8470 net.cpp:425] inception_4d/pool <- inception_4c/output_inception_4c/output_0_split_3
I0403 19:02:18.674942  8470 net.cpp:399] inception_4d/pool -> inception_4d/pool
I0403 19:02:18.675007  8470 net.cpp:141] Setting up inception_4d/pool
I0403 19:02:18.675030  8470 net.cpp:148] Top shape: 24 512 14 14 (2408448)
I0403 19:02:18.675045  8470 net.cpp:156] Memory required for data: 1144900896
I0403 19:02:18.675060  8470 layer_factory.hpp:77] Creating layer inception_4d/pool_proj
I0403 19:02:18.675084  8470 net.cpp:91] Creating Layer inception_4d/pool_proj
I0403 19:02:18.675102  8470 net.cpp:425] inception_4d/pool_proj <- inception_4d/pool
I0403 19:02:18.675120  8470 net.cpp:399] inception_4d/pool_proj -> inception_4d/pool_proj
I0403 19:02:18.676884  8470 net.cpp:141] Setting up inception_4d/pool_proj
I0403 19:02:18.676914  8470 net.cpp:148] Top shape: 24 64 14 14 (301056)
I0403 19:02:18.676931  8470 net.cpp:156] Memory required for data: 1146105120
I0403 19:02:18.676949  8470 layer_factory.hpp:77] Creating layer inception_4d/relu_pool_proj
I0403 19:02:18.676967  8470 net.cpp:91] Creating Layer inception_4d/relu_pool_proj
I0403 19:02:18.676985  8470 net.cpp:425] inception_4d/relu_pool_proj <- inception_4d/pool_proj
I0403 19:02:18.677001  8470 net.cpp:386] inception_4d/relu_pool_proj -> inception_4d/pool_proj (in-place)
I0403 19:02:18.677184  8470 net.cpp:141] Setting up inception_4d/relu_pool_proj
I0403 19:02:18.677214  8470 net.cpp:148] Top shape: 24 64 14 14 (301056)
I0403 19:02:18.677230  8470 net.cpp:156] Memory required for data: 1147309344
I0403 19:02:18.677245  8470 layer_factory.hpp:77] Creating layer inception_4d/output
I0403 19:02:18.677261  8470 net.cpp:91] Creating Layer inception_4d/output
I0403 19:02:18.677275  8470 net.cpp:425] inception_4d/output <- inception_4d/1x1
I0403 19:02:18.677292  8470 net.cpp:425] inception_4d/output <- inception_4d/3x3
I0403 19:02:18.677307  8470 net.cpp:425] inception_4d/output <- inception_4d/5x5
I0403 19:02:18.677322  8470 net.cpp:425] inception_4d/output <- inception_4d/pool_proj
I0403 19:02:18.677340  8470 net.cpp:399] inception_4d/output -> inception_4d/output
I0403 19:02:18.677388  8470 net.cpp:141] Setting up inception_4d/output
I0403 19:02:18.677410  8470 net.cpp:148] Top shape: 24 528 14 14 (2483712)
I0403 19:02:18.677424  8470 net.cpp:156] Memory required for data: 1157244192
I0403 19:02:18.677439  8470 layer_factory.hpp:77] Creating layer inception_4d/output_inception_4d/output_0_split
I0403 19:02:18.677459  8470 net.cpp:91] Creating Layer inception_4d/output_inception_4d/output_0_split
I0403 19:02:18.677475  8470 net.cpp:425] inception_4d/output_inception_4d/output_0_split <- inception_4d/output
I0403 19:02:18.677492  8470 net.cpp:399] inception_4d/output_inception_4d/output_0_split -> inception_4d/output_inception_4d/output_0_split_0
I0403 19:02:18.677517  8470 net.cpp:399] inception_4d/output_inception_4d/output_0_split -> inception_4d/output_inception_4d/output_0_split_1
I0403 19:02:18.677537  8470 net.cpp:399] inception_4d/output_inception_4d/output_0_split -> inception_4d/output_inception_4d/output_0_split_2
I0403 19:02:18.677557  8470 net.cpp:399] inception_4d/output_inception_4d/output_0_split -> inception_4d/output_inception_4d/output_0_split_3
I0403 19:02:18.677577  8470 net.cpp:399] inception_4d/output_inception_4d/output_0_split -> inception_4d/output_inception_4d/output_0_split_4
I0403 19:02:18.677677  8470 net.cpp:141] Setting up inception_4d/output_inception_4d/output_0_split
I0403 19:02:18.677711  8470 net.cpp:148] Top shape: 24 528 14 14 (2483712)
I0403 19:02:18.677727  8470 net.cpp:148] Top shape: 24 528 14 14 (2483712)
I0403 19:02:18.677743  8470 net.cpp:148] Top shape: 24 528 14 14 (2483712)
I0403 19:02:18.677758  8470 net.cpp:148] Top shape: 24 528 14 14 (2483712)
I0403 19:02:18.677772  8470 net.cpp:148] Top shape: 24 528 14 14 (2483712)
I0403 19:02:18.677786  8470 net.cpp:156] Memory required for data: 1206918432
I0403 19:02:18.677800  8470 layer_factory.hpp:77] Creating layer loss2/ave_pool
I0403 19:02:18.677820  8470 net.cpp:91] Creating Layer loss2/ave_pool
I0403 19:02:18.677836  8470 net.cpp:425] loss2/ave_pool <- inception_4d/output_inception_4d/output_0_split_0
I0403 19:02:18.677855  8470 net.cpp:399] loss2/ave_pool -> loss2/ave_pool
I0403 19:02:18.678154  8470 net.cpp:141] Setting up loss2/ave_pool
I0403 19:02:18.678182  8470 net.cpp:148] Top shape: 24 528 4 4 (202752)
I0403 19:02:18.678199  8470 net.cpp:156] Memory required for data: 1207729440
I0403 19:02:18.678218  8470 layer_factory.hpp:77] Creating layer loss2/conv
I0403 19:02:18.678241  8470 net.cpp:91] Creating Layer loss2/conv
I0403 19:02:18.678261  8470 net.cpp:425] loss2/conv <- loss2/ave_pool
I0403 19:02:18.678277  8470 net.cpp:399] loss2/conv -> loss2/conv
I0403 19:02:18.680186  8470 net.cpp:141] Setting up loss2/conv
I0403 19:02:18.680219  8470 net.cpp:148] Top shape: 24 128 4 4 (49152)
I0403 19:02:18.680235  8470 net.cpp:156] Memory required for data: 1207926048
I0403 19:02:18.680254  8470 layer_factory.hpp:77] Creating layer loss2/relu_conv
I0403 19:02:18.680271  8470 net.cpp:91] Creating Layer loss2/relu_conv
I0403 19:02:18.680290  8470 net.cpp:425] loss2/relu_conv <- loss2/conv
I0403 19:02:18.680308  8470 net.cpp:386] loss2/relu_conv -> loss2/conv (in-place)
I0403 19:02:18.680591  8470 net.cpp:141] Setting up loss2/relu_conv
I0403 19:02:18.680618  8470 net.cpp:148] Top shape: 24 128 4 4 (49152)
I0403 19:02:18.680631  8470 net.cpp:156] Memory required for data: 1208122656
I0403 19:02:18.680646  8470 layer_factory.hpp:77] Creating layer loss2/fc
I0403 19:02:18.680663  8470 net.cpp:91] Creating Layer loss2/fc
I0403 19:02:18.680685  8470 net.cpp:425] loss2/fc <- loss2/conv
I0403 19:02:18.680701  8470 net.cpp:399] loss2/fc -> loss2/fc
I0403 19:02:18.697784  8470 net.cpp:141] Setting up loss2/fc
I0403 19:02:18.697821  8470 net.cpp:148] Top shape: 24 1024 (24576)
I0403 19:02:18.697835  8470 net.cpp:156] Memory required for data: 1208220960
I0403 19:02:18.697854  8470 layer_factory.hpp:77] Creating layer loss2/relu_fc
I0403 19:02:18.697873  8470 net.cpp:91] Creating Layer loss2/relu_fc
I0403 19:02:18.697890  8470 net.cpp:425] loss2/relu_fc <- loss2/fc
I0403 19:02:18.697906  8470 net.cpp:386] loss2/relu_fc -> loss2/fc (in-place)
I0403 19:02:18.698194  8470 net.cpp:141] Setting up loss2/relu_fc
I0403 19:02:18.698225  8470 net.cpp:148] Top shape: 24 1024 (24576)
I0403 19:02:18.698241  8470 net.cpp:156] Memory required for data: 1208319264
I0403 19:02:18.698256  8470 layer_factory.hpp:77] Creating layer loss2/drop_fc
I0403 19:02:18.698272  8470 net.cpp:91] Creating Layer loss2/drop_fc
I0403 19:02:18.698287  8470 net.cpp:425] loss2/drop_fc <- loss2/fc
I0403 19:02:18.698307  8470 net.cpp:386] loss2/drop_fc -> loss2/fc (in-place)
I0403 19:02:18.698353  8470 net.cpp:141] Setting up loss2/drop_fc
I0403 19:02:18.698374  8470 net.cpp:148] Top shape: 24 1024 (24576)
I0403 19:02:18.698387  8470 net.cpp:156] Memory required for data: 1208417568
I0403 19:02:18.698402  8470 layer_factory.hpp:77] Creating layer loss2/classifier_plantvillage
I0403 19:02:18.698422  8470 net.cpp:91] Creating Layer loss2/classifier_plantvillage
I0403 19:02:18.698439  8470 net.cpp:425] loss2/classifier_plantvillage <- loss2/fc
I0403 19:02:18.698460  8470 net.cpp:399] loss2/classifier_plantvillage -> loss2/classifier_plantvillage
I0403 19:02:18.698842  8470 net.cpp:141] Setting up loss2/classifier_plantvillage
I0403 19:02:18.698865  8470 net.cpp:148] Top shape: 24 38 (912)
I0403 19:02:18.698895  8470 net.cpp:156] Memory required for data: 1208421216
I0403 19:02:18.698914  8470 layer_factory.hpp:77] Creating layer loss2/classifier_plantvillage_loss2/classifier_plantvillage_0_split
I0403 19:02:18.698930  8470 net.cpp:91] Creating Layer loss2/classifier_plantvillage_loss2/classifier_plantvillage_0_split
I0403 19:02:18.698950  8470 net.cpp:425] loss2/classifier_plantvillage_loss2/classifier_plantvillage_0_split <- loss2/classifier_plantvillage
I0403 19:02:18.698966  8470 net.cpp:399] loss2/classifier_plantvillage_loss2/classifier_plantvillage_0_split -> loss2/classifier_plantvillage_loss2/classifier_plantvillage_0_split_0
I0403 19:02:18.698985  8470 net.cpp:399] loss2/classifier_plantvillage_loss2/classifier_plantvillage_0_split -> loss2/classifier_plantvillage_loss2/classifier_plantvillage_0_split_1
I0403 19:02:18.699004  8470 net.cpp:399] loss2/classifier_plantvillage_loss2/classifier_plantvillage_0_split -> loss2/classifier_plantvillage_loss2/classifier_plantvillage_0_split_2
I0403 19:02:18.699077  8470 net.cpp:141] Setting up loss2/classifier_plantvillage_loss2/classifier_plantvillage_0_split
I0403 19:02:18.699101  8470 net.cpp:148] Top shape: 24 38 (912)
I0403 19:02:18.699118  8470 net.cpp:148] Top shape: 24 38 (912)
I0403 19:02:18.699133  8470 net.cpp:148] Top shape: 24 38 (912)
I0403 19:02:18.699146  8470 net.cpp:156] Memory required for data: 1208432160
I0403 19:02:18.699159  8470 layer_factory.hpp:77] Creating layer inception_4e/1x1
I0403 19:02:18.699192  8470 net.cpp:91] Creating Layer inception_4e/1x1
I0403 19:02:18.699206  8470 net.cpp:425] inception_4e/1x1 <- inception_4d/output_inception_4d/output_0_split_1
I0403 19:02:18.699232  8470 net.cpp:399] inception_4e/1x1 -> inception_4e/1x1
I0403 19:02:18.700975  8470 net.cpp:141] Setting up inception_4e/1x1
I0403 19:02:18.701002  8470 net.cpp:148] Top shape: 24 256 14 14 (1204224)
I0403 19:02:18.701017  8470 net.cpp:156] Memory required for data: 1213249056
I0403 19:02:18.701035  8470 layer_factory.hpp:77] Creating layer inception_4e/relu_1x1
I0403 19:02:18.701051  8470 net.cpp:91] Creating Layer inception_4e/relu_1x1
I0403 19:02:18.701066  8470 net.cpp:425] inception_4e/relu_1x1 <- inception_4e/1x1
I0403 19:02:18.701086  8470 net.cpp:386] inception_4e/relu_1x1 -> inception_4e/1x1 (in-place)
I0403 19:02:18.701370  8470 net.cpp:141] Setting up inception_4e/relu_1x1
I0403 19:02:18.701395  8470 net.cpp:148] Top shape: 24 256 14 14 (1204224)
I0403 19:02:18.701408  8470 net.cpp:156] Memory required for data: 1218065952
I0403 19:02:18.701422  8470 layer_factory.hpp:77] Creating layer inception_4e/3x3_reduce
I0403 19:02:18.701445  8470 net.cpp:91] Creating Layer inception_4e/3x3_reduce
I0403 19:02:18.701462  8470 net.cpp:425] inception_4e/3x3_reduce <- inception_4d/output_inception_4d/output_0_split_2
I0403 19:02:18.701483  8470 net.cpp:399] inception_4e/3x3_reduce -> inception_4e/3x3_reduce
I0403 19:02:18.703531  8470 net.cpp:141] Setting up inception_4e/3x3_reduce
I0403 19:02:18.703560  8470 net.cpp:148] Top shape: 24 160 14 14 (752640)
I0403 19:02:18.703577  8470 net.cpp:156] Memory required for data: 1221076512
I0403 19:02:18.703593  8470 layer_factory.hpp:77] Creating layer inception_4e/relu_3x3_reduce
I0403 19:02:18.703610  8470 net.cpp:91] Creating Layer inception_4e/relu_3x3_reduce
I0403 19:02:18.703626  8470 net.cpp:425] inception_4e/relu_3x3_reduce <- inception_4e/3x3_reduce
I0403 19:02:18.703645  8470 net.cpp:386] inception_4e/relu_3x3_reduce -> inception_4e/3x3_reduce (in-place)
I0403 19:02:18.703824  8470 net.cpp:141] Setting up inception_4e/relu_3x3_reduce
I0403 19:02:18.703848  8470 net.cpp:148] Top shape: 24 160 14 14 (752640)
I0403 19:02:18.703862  8470 net.cpp:156] Memory required for data: 1224087072
I0403 19:02:18.703877  8470 layer_factory.hpp:77] Creating layer inception_4e/3x3
I0403 19:02:18.703898  8470 net.cpp:91] Creating Layer inception_4e/3x3
I0403 19:02:18.703913  8470 net.cpp:425] inception_4e/3x3 <- inception_4e/3x3_reduce
I0403 19:02:18.703933  8470 net.cpp:399] inception_4e/3x3 -> inception_4e/3x3
I0403 19:02:18.708773  8470 net.cpp:141] Setting up inception_4e/3x3
I0403 19:02:18.708812  8470 net.cpp:148] Top shape: 24 320 14 14 (1505280)
I0403 19:02:18.708827  8470 net.cpp:156] Memory required for data: 1230108192
I0403 19:02:18.708845  8470 layer_factory.hpp:77] Creating layer inception_4e/relu_3x3
I0403 19:02:18.708864  8470 net.cpp:91] Creating Layer inception_4e/relu_3x3
I0403 19:02:18.708880  8470 net.cpp:425] inception_4e/relu_3x3 <- inception_4e/3x3
I0403 19:02:18.708896  8470 net.cpp:386] inception_4e/relu_3x3 -> inception_4e/3x3 (in-place)
I0403 19:02:18.709180  8470 net.cpp:141] Setting up inception_4e/relu_3x3
I0403 19:02:18.709205  8470 net.cpp:148] Top shape: 24 320 14 14 (1505280)
I0403 19:02:18.709225  8470 net.cpp:156] Memory required for data: 1236129312
I0403 19:02:18.709239  8470 layer_factory.hpp:77] Creating layer inception_4e/5x5_reduce
I0403 19:02:18.709264  8470 net.cpp:91] Creating Layer inception_4e/5x5_reduce
I0403 19:02:18.709280  8470 net.cpp:425] inception_4e/5x5_reduce <- inception_4d/output_inception_4d/output_0_split_3
I0403 19:02:18.709297  8470 net.cpp:399] inception_4e/5x5_reduce -> inception_4e/5x5_reduce
I0403 19:02:18.710310  8470 net.cpp:141] Setting up inception_4e/5x5_reduce
I0403 19:02:18.710336  8470 net.cpp:148] Top shape: 24 32 14 14 (150528)
I0403 19:02:18.710350  8470 net.cpp:156] Memory required for data: 1236731424
I0403 19:02:18.710367  8470 layer_factory.hpp:77] Creating layer inception_4e/relu_5x5_reduce
I0403 19:02:18.710384  8470 net.cpp:91] Creating Layer inception_4e/relu_5x5_reduce
I0403 19:02:18.710400  8470 net.cpp:425] inception_4e/relu_5x5_reduce <- inception_4e/5x5_reduce
I0403 19:02:18.710418  8470 net.cpp:386] inception_4e/relu_5x5_reduce -> inception_4e/5x5_reduce (in-place)
I0403 19:02:18.710698  8470 net.cpp:141] Setting up inception_4e/relu_5x5_reduce
I0403 19:02:18.710724  8470 net.cpp:148] Top shape: 24 32 14 14 (150528)
I0403 19:02:18.710738  8470 net.cpp:156] Memory required for data: 1237333536
I0403 19:02:18.710752  8470 layer_factory.hpp:77] Creating layer inception_4e/5x5
I0403 19:02:18.710788  8470 net.cpp:91] Creating Layer inception_4e/5x5
I0403 19:02:18.710804  8470 net.cpp:425] inception_4e/5x5 <- inception_4e/5x5_reduce
I0403 19:02:18.710822  8470 net.cpp:399] inception_4e/5x5 -> inception_4e/5x5
I0403 19:02:18.712564  8470 net.cpp:141] Setting up inception_4e/5x5
I0403 19:02:18.712594  8470 net.cpp:148] Top shape: 24 128 14 14 (602112)
I0403 19:02:18.712609  8470 net.cpp:156] Memory required for data: 1239741984
I0403 19:02:18.712626  8470 layer_factory.hpp:77] Creating layer inception_4e/relu_5x5
I0403 19:02:18.712644  8470 net.cpp:91] Creating Layer inception_4e/relu_5x5
I0403 19:02:18.712659  8470 net.cpp:425] inception_4e/relu_5x5 <- inception_4e/5x5
I0403 19:02:18.712677  8470 net.cpp:386] inception_4e/relu_5x5 -> inception_4e/5x5 (in-place)
I0403 19:02:18.712872  8470 net.cpp:141] Setting up inception_4e/relu_5x5
I0403 19:02:18.712895  8470 net.cpp:148] Top shape: 24 128 14 14 (602112)
I0403 19:02:18.712910  8470 net.cpp:156] Memory required for data: 1242150432
I0403 19:02:18.712924  8470 layer_factory.hpp:77] Creating layer inception_4e/pool
I0403 19:02:18.712940  8470 net.cpp:91] Creating Layer inception_4e/pool
I0403 19:02:18.712956  8470 net.cpp:425] inception_4e/pool <- inception_4d/output_inception_4d/output_0_split_4
I0403 19:02:18.712976  8470 net.cpp:399] inception_4e/pool -> inception_4e/pool
I0403 19:02:18.713042  8470 net.cpp:141] Setting up inception_4e/pool
I0403 19:02:18.713066  8470 net.cpp:148] Top shape: 24 528 14 14 (2483712)
I0403 19:02:18.713080  8470 net.cpp:156] Memory required for data: 1252085280
I0403 19:02:18.713093  8470 layer_factory.hpp:77] Creating layer inception_4e/pool_proj
I0403 19:02:18.713114  8470 net.cpp:91] Creating Layer inception_4e/pool_proj
I0403 19:02:18.713129  8470 net.cpp:425] inception_4e/pool_proj <- inception_4e/pool
I0403 19:02:18.713146  8470 net.cpp:399] inception_4e/pool_proj -> inception_4e/pool_proj
I0403 19:02:18.714572  8470 net.cpp:141] Setting up inception_4e/pool_proj
I0403 19:02:18.714612  8470 net.cpp:148] Top shape: 24 128 14 14 (602112)
I0403 19:02:18.714628  8470 net.cpp:156] Memory required for data: 1254493728
I0403 19:02:18.714646  8470 layer_factory.hpp:77] Creating layer inception_4e/relu_pool_proj
I0403 19:02:18.714664  8470 net.cpp:91] Creating Layer inception_4e/relu_pool_proj
I0403 19:02:18.714679  8470 net.cpp:425] inception_4e/relu_pool_proj <- inception_4e/pool_proj
I0403 19:02:18.714695  8470 net.cpp:386] inception_4e/relu_pool_proj -> inception_4e/pool_proj (in-place)
I0403 19:02:18.714970  8470 net.cpp:141] Setting up inception_4e/relu_pool_proj
I0403 19:02:18.714998  8470 net.cpp:148] Top shape: 24 128 14 14 (602112)
I0403 19:02:18.715013  8470 net.cpp:156] Memory required for data: 1256902176
I0403 19:02:18.715028  8470 layer_factory.hpp:77] Creating layer inception_4e/output
I0403 19:02:18.715044  8470 net.cpp:91] Creating Layer inception_4e/output
I0403 19:02:18.715059  8470 net.cpp:425] inception_4e/output <- inception_4e/1x1
I0403 19:02:18.715075  8470 net.cpp:425] inception_4e/output <- inception_4e/3x3
I0403 19:02:18.715090  8470 net.cpp:425] inception_4e/output <- inception_4e/5x5
I0403 19:02:18.715103  8470 net.cpp:425] inception_4e/output <- inception_4e/pool_proj
I0403 19:02:18.715121  8470 net.cpp:399] inception_4e/output -> inception_4e/output
I0403 19:02:18.715167  8470 net.cpp:141] Setting up inception_4e/output
I0403 19:02:18.715190  8470 net.cpp:148] Top shape: 24 832 14 14 (3913728)
I0403 19:02:18.715204  8470 net.cpp:156] Memory required for data: 1272557088
I0403 19:02:18.715222  8470 layer_factory.hpp:77] Creating layer pool4/3x3_s2
I0403 19:02:18.715241  8470 net.cpp:91] Creating Layer pool4/3x3_s2
I0403 19:02:18.715257  8470 net.cpp:425] pool4/3x3_s2 <- inception_4e/output
I0403 19:02:18.715275  8470 net.cpp:399] pool4/3x3_s2 -> pool4/3x3_s2
I0403 19:02:18.715339  8470 net.cpp:141] Setting up pool4/3x3_s2
I0403 19:02:18.715363  8470 net.cpp:148] Top shape: 24 832 7 7 (978432)
I0403 19:02:18.715375  8470 net.cpp:156] Memory required for data: 1276470816
I0403 19:02:18.715389  8470 layer_factory.hpp:77] Creating layer pool4/3x3_s2_pool4/3x3_s2_0_split
I0403 19:02:18.715405  8470 net.cpp:91] Creating Layer pool4/3x3_s2_pool4/3x3_s2_0_split
I0403 19:02:18.715420  8470 net.cpp:425] pool4/3x3_s2_pool4/3x3_s2_0_split <- pool4/3x3_s2
I0403 19:02:18.715438  8470 net.cpp:399] pool4/3x3_s2_pool4/3x3_s2_0_split -> pool4/3x3_s2_pool4/3x3_s2_0_split_0
I0403 19:02:18.715458  8470 net.cpp:399] pool4/3x3_s2_pool4/3x3_s2_0_split -> pool4/3x3_s2_pool4/3x3_s2_0_split_1
I0403 19:02:18.715476  8470 net.cpp:399] pool4/3x3_s2_pool4/3x3_s2_0_split -> pool4/3x3_s2_pool4/3x3_s2_0_split_2
I0403 19:02:18.715494  8470 net.cpp:399] pool4/3x3_s2_pool4/3x3_s2_0_split -> pool4/3x3_s2_pool4/3x3_s2_0_split_3
I0403 19:02:18.715581  8470 net.cpp:141] Setting up pool4/3x3_s2_pool4/3x3_s2_0_split
I0403 19:02:18.715605  8470 net.cpp:148] Top shape: 24 832 7 7 (978432)
I0403 19:02:18.715621  8470 net.cpp:148] Top shape: 24 832 7 7 (978432)
I0403 19:02:18.715636  8470 net.cpp:148] Top shape: 24 832 7 7 (978432)
I0403 19:02:18.715651  8470 net.cpp:148] Top shape: 24 832 7 7 (978432)
I0403 19:02:18.715663  8470 net.cpp:156] Memory required for data: 1292125728
I0403 19:02:18.715677  8470 layer_factory.hpp:77] Creating layer inception_5a/1x1
I0403 19:02:18.715701  8470 net.cpp:91] Creating Layer inception_5a/1x1
I0403 19:02:18.715718  8470 net.cpp:425] inception_5a/1x1 <- pool4/3x3_s2_pool4/3x3_s2_0_split_0
I0403 19:02:18.715735  8470 net.cpp:399] inception_5a/1x1 -> inception_5a/1x1
I0403 19:02:18.718472  8470 net.cpp:141] Setting up inception_5a/1x1
I0403 19:02:18.718502  8470 net.cpp:148] Top shape: 24 256 7 7 (301056)
I0403 19:02:18.718518  8470 net.cpp:156] Memory required for data: 1293329952
I0403 19:02:18.718538  8470 layer_factory.hpp:77] Creating layer inception_5a/relu_1x1
I0403 19:02:18.718554  8470 net.cpp:91] Creating Layer inception_5a/relu_1x1
I0403 19:02:18.718572  8470 net.cpp:425] inception_5a/relu_1x1 <- inception_5a/1x1
I0403 19:02:18.718592  8470 net.cpp:386] inception_5a/relu_1x1 -> inception_5a/1x1 (in-place)
I0403 19:02:18.718891  8470 net.cpp:141] Setting up inception_5a/relu_1x1
I0403 19:02:18.718919  8470 net.cpp:148] Top shape: 24 256 7 7 (301056)
I0403 19:02:18.718933  8470 net.cpp:156] Memory required for data: 1294534176
I0403 19:02:18.718948  8470 layer_factory.hpp:77] Creating layer inception_5a/3x3_reduce
I0403 19:02:18.718971  8470 net.cpp:91] Creating Layer inception_5a/3x3_reduce
I0403 19:02:18.718986  8470 net.cpp:425] inception_5a/3x3_reduce <- pool4/3x3_s2_pool4/3x3_s2_0_split_1
I0403 19:02:18.719005  8470 net.cpp:399] inception_5a/3x3_reduce -> inception_5a/3x3_reduce
I0403 19:02:18.721462  8470 net.cpp:141] Setting up inception_5a/3x3_reduce
I0403 19:02:18.721490  8470 net.cpp:148] Top shape: 24 160 7 7 (188160)
I0403 19:02:18.721506  8470 net.cpp:156] Memory required for data: 1295286816
I0403 19:02:18.721525  8470 layer_factory.hpp:77] Creating layer inception_5a/relu_3x3_reduce
I0403 19:02:18.721546  8470 net.cpp:91] Creating Layer inception_5a/relu_3x3_reduce
I0403 19:02:18.721561  8470 net.cpp:425] inception_5a/relu_3x3_reduce <- inception_5a/3x3_reduce
I0403 19:02:18.721578  8470 net.cpp:386] inception_5a/relu_3x3_reduce -> inception_5a/3x3_reduce (in-place)
I0403 19:02:18.721761  8470 net.cpp:141] Setting up inception_5a/relu_3x3_reduce
I0403 19:02:18.721787  8470 net.cpp:148] Top shape: 24 160 7 7 (188160)
I0403 19:02:18.721803  8470 net.cpp:156] Memory required for data: 1296039456
I0403 19:02:18.721818  8470 layer_factory.hpp:77] Creating layer inception_5a/3x3
I0403 19:02:18.721842  8470 net.cpp:91] Creating Layer inception_5a/3x3
I0403 19:02:18.721858  8470 net.cpp:425] inception_5a/3x3 <- inception_5a/3x3_reduce
I0403 19:02:18.721875  8470 net.cpp:399] inception_5a/3x3 -> inception_5a/3x3
I0403 19:02:18.726851  8470 net.cpp:141] Setting up inception_5a/3x3
I0403 19:02:18.726886  8470 net.cpp:148] Top shape: 24 320 7 7 (376320)
I0403 19:02:18.726900  8470 net.cpp:156] Memory required for data: 1297544736
I0403 19:02:18.726919  8470 layer_factory.hpp:77] Creating layer inception_5a/relu_3x3
I0403 19:02:18.726935  8470 net.cpp:91] Creating Layer inception_5a/relu_3x3
I0403 19:02:18.726951  8470 net.cpp:425] inception_5a/relu_3x3 <- inception_5a/3x3
I0403 19:02:18.726970  8470 net.cpp:386] inception_5a/relu_3x3 -> inception_5a/3x3 (in-place)
I0403 19:02:18.727259  8470 net.cpp:141] Setting up inception_5a/relu_3x3
I0403 19:02:18.727288  8470 net.cpp:148] Top shape: 24 320 7 7 (376320)
I0403 19:02:18.727303  8470 net.cpp:156] Memory required for data: 1299050016
I0403 19:02:18.727316  8470 layer_factory.hpp:77] Creating layer inception_5a/5x5_reduce
I0403 19:02:18.727339  8470 net.cpp:91] Creating Layer inception_5a/5x5_reduce
I0403 19:02:18.727355  8470 net.cpp:425] inception_5a/5x5_reduce <- pool4/3x3_s2_pool4/3x3_s2_0_split_2
I0403 19:02:18.727377  8470 net.cpp:399] inception_5a/5x5_reduce -> inception_5a/5x5_reduce
I0403 19:02:18.728523  8470 net.cpp:141] Setting up inception_5a/5x5_reduce
I0403 19:02:18.728552  8470 net.cpp:148] Top shape: 24 32 7 7 (37632)
I0403 19:02:18.728581  8470 net.cpp:156] Memory required for data: 1299200544
I0403 19:02:18.728600  8470 layer_factory.hpp:77] Creating layer inception_5a/relu_5x5_reduce
I0403 19:02:18.728618  8470 net.cpp:91] Creating Layer inception_5a/relu_5x5_reduce
I0403 19:02:18.728634  8470 net.cpp:425] inception_5a/relu_5x5_reduce <- inception_5a/5x5_reduce
I0403 19:02:18.728654  8470 net.cpp:386] inception_5a/relu_5x5_reduce -> inception_5a/5x5_reduce (in-place)
I0403 19:02:18.729039  8470 net.cpp:141] Setting up inception_5a/relu_5x5_reduce
I0403 19:02:18.729075  8470 net.cpp:148] Top shape: 24 32 7 7 (37632)
I0403 19:02:18.729092  8470 net.cpp:156] Memory required for data: 1299351072
I0403 19:02:18.729109  8470 layer_factory.hpp:77] Creating layer inception_5a/5x5
I0403 19:02:18.729132  8470 net.cpp:91] Creating Layer inception_5a/5x5
I0403 19:02:18.729152  8470 net.cpp:425] inception_5a/5x5 <- inception_5a/5x5_reduce
I0403 19:02:18.729174  8470 net.cpp:399] inception_5a/5x5 -> inception_5a/5x5
I0403 19:02:18.730959  8470 net.cpp:141] Setting up inception_5a/5x5
I0403 19:02:18.731009  8470 net.cpp:148] Top shape: 24 128 7 7 (150528)
I0403 19:02:18.731025  8470 net.cpp:156] Memory required for data: 1299953184
I0403 19:02:18.731045  8470 layer_factory.hpp:77] Creating layer inception_5a/relu_5x5
I0403 19:02:18.731065  8470 net.cpp:91] Creating Layer inception_5a/relu_5x5
I0403 19:02:18.731082  8470 net.cpp:425] inception_5a/relu_5x5 <- inception_5a/5x5
I0403 19:02:18.731103  8470 net.cpp:386] inception_5a/relu_5x5 -> inception_5a/5x5 (in-place)
I0403 19:02:18.731304  8470 net.cpp:141] Setting up inception_5a/relu_5x5
I0403 19:02:18.731329  8470 net.cpp:148] Top shape: 24 128 7 7 (150528)
I0403 19:02:18.731344  8470 net.cpp:156] Memory required for data: 1300555296
I0403 19:02:18.731359  8470 layer_factory.hpp:77] Creating layer inception_5a/pool
I0403 19:02:18.731377  8470 net.cpp:91] Creating Layer inception_5a/pool
I0403 19:02:18.731401  8470 net.cpp:425] inception_5a/pool <- pool4/3x3_s2_pool4/3x3_s2_0_split_3
I0403 19:02:18.731420  8470 net.cpp:399] inception_5a/pool -> inception_5a/pool
I0403 19:02:18.731492  8470 net.cpp:141] Setting up inception_5a/pool
I0403 19:02:18.731515  8470 net.cpp:148] Top shape: 24 832 7 7 (978432)
I0403 19:02:18.731531  8470 net.cpp:156] Memory required for data: 1304469024
I0403 19:02:18.731546  8470 layer_factory.hpp:77] Creating layer inception_5a/pool_proj
I0403 19:02:18.731570  8470 net.cpp:91] Creating Layer inception_5a/pool_proj
I0403 19:02:18.731588  8470 net.cpp:425] inception_5a/pool_proj <- inception_5a/pool
I0403 19:02:18.731611  8470 net.cpp:399] inception_5a/pool_proj -> inception_5a/pool_proj
I0403 19:02:18.733947  8470 net.cpp:141] Setting up inception_5a/pool_proj
I0403 19:02:18.733976  8470 net.cpp:148] Top shape: 24 128 7 7 (150528)
I0403 19:02:18.733992  8470 net.cpp:156] Memory required for data: 1305071136
I0403 19:02:18.734014  8470 layer_factory.hpp:77] Creating layer inception_5a/relu_pool_proj
I0403 19:02:18.734035  8470 net.cpp:91] Creating Layer inception_5a/relu_pool_proj
I0403 19:02:18.734050  8470 net.cpp:425] inception_5a/relu_pool_proj <- inception_5a/pool_proj
I0403 19:02:18.734067  8470 net.cpp:386] inception_5a/relu_pool_proj -> inception_5a/pool_proj (in-place)
I0403 19:02:18.734375  8470 net.cpp:141] Setting up inception_5a/relu_pool_proj
I0403 19:02:18.734401  8470 net.cpp:148] Top shape: 24 128 7 7 (150528)
I0403 19:02:18.734417  8470 net.cpp:156] Memory required for data: 1305673248
I0403 19:02:18.734431  8470 layer_factory.hpp:77] Creating layer inception_5a/output
I0403 19:02:18.734452  8470 net.cpp:91] Creating Layer inception_5a/output
I0403 19:02:18.734467  8470 net.cpp:425] inception_5a/output <- inception_5a/1x1
I0403 19:02:18.734485  8470 net.cpp:425] inception_5a/output <- inception_5a/3x3
I0403 19:02:18.734503  8470 net.cpp:425] inception_5a/output <- inception_5a/5x5
I0403 19:02:18.734519  8470 net.cpp:425] inception_5a/output <- inception_5a/pool_proj
I0403 19:02:18.734536  8470 net.cpp:399] inception_5a/output -> inception_5a/output
I0403 19:02:18.734589  8470 net.cpp:141] Setting up inception_5a/output
I0403 19:02:18.734612  8470 net.cpp:148] Top shape: 24 832 7 7 (978432)
I0403 19:02:18.734627  8470 net.cpp:156] Memory required for data: 1309586976
I0403 19:02:18.734642  8470 layer_factory.hpp:77] Creating layer inception_5a/output_inception_5a/output_0_split
I0403 19:02:18.734659  8470 net.cpp:91] Creating Layer inception_5a/output_inception_5a/output_0_split
I0403 19:02:18.734675  8470 net.cpp:425] inception_5a/output_inception_5a/output_0_split <- inception_5a/output
I0403 19:02:18.734695  8470 net.cpp:399] inception_5a/output_inception_5a/output_0_split -> inception_5a/output_inception_5a/output_0_split_0
I0403 19:02:18.734716  8470 net.cpp:399] inception_5a/output_inception_5a/output_0_split -> inception_5a/output_inception_5a/output_0_split_1
I0403 19:02:18.734737  8470 net.cpp:399] inception_5a/output_inception_5a/output_0_split -> inception_5a/output_inception_5a/output_0_split_2
I0403 19:02:18.734758  8470 net.cpp:399] inception_5a/output_inception_5a/output_0_split -> inception_5a/output_inception_5a/output_0_split_3
I0403 19:02:18.734874  8470 net.cpp:141] Setting up inception_5a/output_inception_5a/output_0_split
I0403 19:02:18.734897  8470 net.cpp:148] Top shape: 24 832 7 7 (978432)
I0403 19:02:18.734913  8470 net.cpp:148] Top shape: 24 832 7 7 (978432)
I0403 19:02:18.734930  8470 net.cpp:148] Top shape: 24 832 7 7 (978432)
I0403 19:02:18.734946  8470 net.cpp:148] Top shape: 24 832 7 7 (978432)
I0403 19:02:18.734959  8470 net.cpp:156] Memory required for data: 1325241888
I0403 19:02:18.734974  8470 layer_factory.hpp:77] Creating layer inception_5b/1x1
I0403 19:02:18.734998  8470 net.cpp:91] Creating Layer inception_5b/1x1
I0403 19:02:18.735018  8470 net.cpp:425] inception_5b/1x1 <- inception_5a/output_inception_5a/output_0_split_0
I0403 19:02:18.735038  8470 net.cpp:399] inception_5b/1x1 -> inception_5b/1x1
I0403 19:02:18.738775  8470 net.cpp:141] Setting up inception_5b/1x1
I0403 19:02:18.738806  8470 net.cpp:148] Top shape: 24 384 7 7 (451584)
I0403 19:02:18.738821  8470 net.cpp:156] Memory required for data: 1327048224
I0403 19:02:18.738840  8470 layer_factory.hpp:77] Creating layer inception_5b/relu_1x1
I0403 19:02:18.738860  8470 net.cpp:91] Creating Layer inception_5b/relu_1x1
I0403 19:02:18.738878  8470 net.cpp:425] inception_5b/relu_1x1 <- inception_5b/1x1
I0403 19:02:18.738894  8470 net.cpp:386] inception_5b/relu_1x1 -> inception_5b/1x1 (in-place)
I0403 19:02:18.739197  8470 net.cpp:141] Setting up inception_5b/relu_1x1
I0403 19:02:18.739223  8470 net.cpp:148] Top shape: 24 384 7 7 (451584)
I0403 19:02:18.739238  8470 net.cpp:156] Memory required for data: 1328854560
I0403 19:02:18.739253  8470 layer_factory.hpp:77] Creating layer inception_5b/3x3_reduce
I0403 19:02:18.739275  8470 net.cpp:91] Creating Layer inception_5b/3x3_reduce
I0403 19:02:18.739294  8470 net.cpp:425] inception_5b/3x3_reduce <- inception_5a/output_inception_5a/output_0_split_1
I0403 19:02:18.739315  8470 net.cpp:399] inception_5b/3x3_reduce -> inception_5b/3x3_reduce
I0403 19:02:18.741930  8470 net.cpp:141] Setting up inception_5b/3x3_reduce
I0403 19:02:18.741960  8470 net.cpp:148] Top shape: 24 192 7 7 (225792)
I0403 19:02:18.741974  8470 net.cpp:156] Memory required for data: 1329757728
I0403 19:02:18.741992  8470 layer_factory.hpp:77] Creating layer inception_5b/relu_3x3_reduce
I0403 19:02:18.742014  8470 net.cpp:91] Creating Layer inception_5b/relu_3x3_reduce
I0403 19:02:18.742032  8470 net.cpp:425] inception_5b/relu_3x3_reduce <- inception_5b/3x3_reduce
I0403 19:02:18.742048  8470 net.cpp:386] inception_5b/relu_3x3_reduce -> inception_5b/3x3_reduce (in-place)
I0403 19:02:18.742250  8470 net.cpp:141] Setting up inception_5b/relu_3x3_reduce
I0403 19:02:18.742275  8470 net.cpp:148] Top shape: 24 192 7 7 (225792)
I0403 19:02:18.742290  8470 net.cpp:156] Memory required for data: 1330660896
I0403 19:02:18.742305  8470 layer_factory.hpp:77] Creating layer inception_5b/3x3
I0403 19:02:18.742326  8470 net.cpp:91] Creating Layer inception_5b/3x3
I0403 19:02:18.742343  8470 net.cpp:425] inception_5b/3x3 <- inception_5b/3x3_reduce
I0403 19:02:18.742365  8470 net.cpp:399] inception_5b/3x3 -> inception_5b/3x3
I0403 19:02:18.748975  8470 net.cpp:141] Setting up inception_5b/3x3
I0403 19:02:18.749004  8470 net.cpp:148] Top shape: 24 384 7 7 (451584)
I0403 19:02:18.749019  8470 net.cpp:156] Memory required for data: 1332467232
I0403 19:02:18.749039  8470 layer_factory.hpp:77] Creating layer inception_5b/relu_3x3
I0403 19:02:18.749059  8470 net.cpp:91] Creating Layer inception_5b/relu_3x3
I0403 19:02:18.749075  8470 net.cpp:425] inception_5b/relu_3x3 <- inception_5b/3x3
I0403 19:02:18.749094  8470 net.cpp:386] inception_5b/relu_3x3 -> inception_5b/3x3 (in-place)
I0403 19:02:18.749394  8470 net.cpp:141] Setting up inception_5b/relu_3x3
I0403 19:02:18.749423  8470 net.cpp:148] Top shape: 24 384 7 7 (451584)
I0403 19:02:18.749439  8470 net.cpp:156] Memory required for data: 1334273568
I0403 19:02:18.749454  8470 layer_factory.hpp:77] Creating layer inception_5b/5x5_reduce
I0403 19:02:18.749493  8470 net.cpp:91] Creating Layer inception_5b/5x5_reduce
I0403 19:02:18.749511  8470 net.cpp:425] inception_5b/5x5_reduce <- inception_5a/output_inception_5a/output_0_split_2
I0403 19:02:18.749531  8470 net.cpp:399] inception_5b/5x5_reduce -> inception_5b/5x5_reduce
I0403 19:02:18.750777  8470 net.cpp:141] Setting up inception_5b/5x5_reduce
I0403 19:02:18.750805  8470 net.cpp:148] Top shape: 24 48 7 7 (56448)
I0403 19:02:18.750821  8470 net.cpp:156] Memory required for data: 1334499360
I0403 19:02:18.750839  8470 layer_factory.hpp:77] Creating layer inception_5b/relu_5x5_reduce
I0403 19:02:18.750857  8470 net.cpp:91] Creating Layer inception_5b/relu_5x5_reduce
I0403 19:02:18.750874  8470 net.cpp:425] inception_5b/relu_5x5_reduce <- inception_5b/5x5_reduce
I0403 19:02:18.750890  8470 net.cpp:386] inception_5b/relu_5x5_reduce -> inception_5b/5x5_reduce (in-place)
I0403 19:02:18.751266  8470 net.cpp:141] Setting up inception_5b/relu_5x5_reduce
I0403 19:02:18.751293  8470 net.cpp:148] Top shape: 24 48 7 7 (56448)
I0403 19:02:18.751308  8470 net.cpp:156] Memory required for data: 1334725152
I0403 19:02:18.751323  8470 layer_factory.hpp:77] Creating layer inception_5b/5x5
I0403 19:02:18.751343  8470 net.cpp:91] Creating Layer inception_5b/5x5
I0403 19:02:18.751359  8470 net.cpp:425] inception_5b/5x5 <- inception_5b/5x5_reduce
I0403 19:02:18.751377  8470 net.cpp:399] inception_5b/5x5 -> inception_5b/5x5
I0403 19:02:18.753391  8470 net.cpp:141] Setting up inception_5b/5x5
I0403 19:02:18.753422  8470 net.cpp:148] Top shape: 24 128 7 7 (150528)
I0403 19:02:18.753437  8470 net.cpp:156] Memory required for data: 1335327264
I0403 19:02:18.753455  8470 layer_factory.hpp:77] Creating layer inception_5b/relu_5x5
I0403 19:02:18.753473  8470 net.cpp:91] Creating Layer inception_5b/relu_5x5
I0403 19:02:18.753489  8470 net.cpp:425] inception_5b/relu_5x5 <- inception_5b/5x5
I0403 19:02:18.753507  8470 net.cpp:386] inception_5b/relu_5x5 -> inception_5b/5x5 (in-place)
I0403 19:02:18.753697  8470 net.cpp:141] Setting up inception_5b/relu_5x5
I0403 19:02:18.753722  8470 net.cpp:148] Top shape: 24 128 7 7 (150528)
I0403 19:02:18.753736  8470 net.cpp:156] Memory required for data: 1335929376
I0403 19:02:18.753751  8470 layer_factory.hpp:77] Creating layer inception_5b/pool
I0403 19:02:18.753767  8470 net.cpp:91] Creating Layer inception_5b/pool
I0403 19:02:18.753783  8470 net.cpp:425] inception_5b/pool <- inception_5a/output_inception_5a/output_0_split_3
I0403 19:02:18.753803  8470 net.cpp:399] inception_5b/pool -> inception_5b/pool
I0403 19:02:18.753877  8470 net.cpp:141] Setting up inception_5b/pool
I0403 19:02:18.753901  8470 net.cpp:148] Top shape: 24 832 7 7 (978432)
I0403 19:02:18.753914  8470 net.cpp:156] Memory required for data: 1339843104
I0403 19:02:18.753929  8470 layer_factory.hpp:77] Creating layer inception_5b/pool_proj
I0403 19:02:18.753953  8470 net.cpp:91] Creating Layer inception_5b/pool_proj
I0403 19:02:18.753970  8470 net.cpp:425] inception_5b/pool_proj <- inception_5b/pool
I0403 19:02:18.753989  8470 net.cpp:399] inception_5b/pool_proj -> inception_5b/pool_proj
I0403 19:02:18.756258  8470 net.cpp:141] Setting up inception_5b/pool_proj
I0403 19:02:18.756289  8470 net.cpp:148] Top shape: 24 128 7 7 (150528)
I0403 19:02:18.756305  8470 net.cpp:156] Memory required for data: 1340445216
I0403 19:02:18.756324  8470 layer_factory.hpp:77] Creating layer inception_5b/relu_pool_proj
I0403 19:02:18.756341  8470 net.cpp:91] Creating Layer inception_5b/relu_pool_proj
I0403 19:02:18.756356  8470 net.cpp:425] inception_5b/relu_pool_proj <- inception_5b/pool_proj
I0403 19:02:18.756373  8470 net.cpp:386] inception_5b/relu_pool_proj -> inception_5b/pool_proj (in-place)
I0403 19:02:18.756662  8470 net.cpp:141] Setting up inception_5b/relu_pool_proj
I0403 19:02:18.756690  8470 net.cpp:148] Top shape: 24 128 7 7 (150528)
I0403 19:02:18.756706  8470 net.cpp:156] Memory required for data: 1341047328
I0403 19:02:18.756721  8470 layer_factory.hpp:77] Creating layer inception_5b/output
I0403 19:02:18.756739  8470 net.cpp:91] Creating Layer inception_5b/output
I0403 19:02:18.756769  8470 net.cpp:425] inception_5b/output <- inception_5b/1x1
I0403 19:02:18.756786  8470 net.cpp:425] inception_5b/output <- inception_5b/3x3
I0403 19:02:18.756803  8470 net.cpp:425] inception_5b/output <- inception_5b/5x5
I0403 19:02:18.756819  8470 net.cpp:425] inception_5b/output <- inception_5b/pool_proj
I0403 19:02:18.756834  8470 net.cpp:399] inception_5b/output -> inception_5b/output
I0403 19:02:18.756886  8470 net.cpp:141] Setting up inception_5b/output
I0403 19:02:18.756911  8470 net.cpp:148] Top shape: 24 1024 7 7 (1204224)
I0403 19:02:18.756924  8470 net.cpp:156] Memory required for data: 1345864224
I0403 19:02:18.756938  8470 layer_factory.hpp:77] Creating layer pool5/7x7_s1
I0403 19:02:18.756958  8470 net.cpp:91] Creating Layer pool5/7x7_s1
I0403 19:02:18.756974  8470 net.cpp:425] pool5/7x7_s1 <- inception_5b/output
I0403 19:02:18.756992  8470 net.cpp:399] pool5/7x7_s1 -> pool5/7x7_s1
I0403 19:02:18.757212  8470 net.cpp:141] Setting up pool5/7x7_s1
I0403 19:02:18.757238  8470 net.cpp:148] Top shape: 24 1024 1 1 (24576)
I0403 19:02:18.757252  8470 net.cpp:156] Memory required for data: 1345962528
I0403 19:02:18.757266  8470 layer_factory.hpp:77] Creating layer pool5/drop_7x7_s1
I0403 19:02:18.757284  8470 net.cpp:91] Creating Layer pool5/drop_7x7_s1
I0403 19:02:18.757300  8470 net.cpp:425] pool5/drop_7x7_s1 <- pool5/7x7_s1
I0403 19:02:18.757319  8470 net.cpp:386] pool5/drop_7x7_s1 -> pool5/7x7_s1 (in-place)
I0403 19:02:18.757369  8470 net.cpp:141] Setting up pool5/drop_7x7_s1
I0403 19:02:18.757390  8470 net.cpp:148] Top shape: 24 1024 1 1 (24576)
I0403 19:02:18.757405  8470 net.cpp:156] Memory required for data: 1346060832
I0403 19:02:18.757419  8470 layer_factory.hpp:77] Creating layer loss3/classifier_plantvillage
I0403 19:02:18.757439  8470 net.cpp:91] Creating Layer loss3/classifier_plantvillage
I0403 19:02:18.757457  8470 net.cpp:425] loss3/classifier_plantvillage <- pool5/7x7_s1
I0403 19:02:18.757477  8470 net.cpp:399] loss3/classifier_plantvillage -> loss3/classifier_plantvillage
I0403 19:02:18.757892  8470 net.cpp:141] Setting up loss3/classifier_plantvillage
I0403 19:02:18.757916  8470 net.cpp:148] Top shape: 24 38 (912)
I0403 19:02:18.757931  8470 net.cpp:156] Memory required for data: 1346064480
I0403 19:02:18.757949  8470 layer_factory.hpp:77] Creating layer loss3/classifier_plantvillage_loss3/classifier_plantvillage_0_split
I0403 19:02:18.757967  8470 net.cpp:91] Creating Layer loss3/classifier_plantvillage_loss3/classifier_plantvillage_0_split
I0403 19:02:18.757982  8470 net.cpp:425] loss3/classifier_plantvillage_loss3/classifier_plantvillage_0_split <- loss3/classifier_plantvillage
I0403 19:02:18.758002  8470 net.cpp:399] loss3/classifier_plantvillage_loss3/classifier_plantvillage_0_split -> loss3/classifier_plantvillage_loss3/classifier_plantvillage_0_split_0
I0403 19:02:18.758023  8470 net.cpp:399] loss3/classifier_plantvillage_loss3/classifier_plantvillage_0_split -> loss3/classifier_plantvillage_loss3/classifier_plantvillage_0_split_1
I0403 19:02:18.758044  8470 net.cpp:399] loss3/classifier_plantvillage_loss3/classifier_plantvillage_0_split -> loss3/classifier_plantvillage_loss3/classifier_plantvillage_0_split_2
I0403 19:02:18.758065  8470 net.cpp:399] loss3/classifier_plantvillage_loss3/classifier_plantvillage_0_split -> loss3/classifier_plantvillage_loss3/classifier_plantvillage_0_split_3
I0403 19:02:18.758167  8470 net.cpp:141] Setting up loss3/classifier_plantvillage_loss3/classifier_plantvillage_0_split
I0403 19:02:18.758194  8470 net.cpp:148] Top shape: 24 38 (912)
I0403 19:02:18.758210  8470 net.cpp:148] Top shape: 24 38 (912)
I0403 19:02:18.758226  8470 net.cpp:148] Top shape: 24 38 (912)
I0403 19:02:18.758241  8470 net.cpp:148] Top shape: 24 38 (912)
I0403 19:02:18.758255  8470 net.cpp:156] Memory required for data: 1346079072
I0403 19:02:18.758270  8470 layer_factory.hpp:77] Creating layer loss1/loss
I0403 19:02:18.758291  8470 net.cpp:91] Creating Layer loss1/loss
I0403 19:02:18.758308  8470 net.cpp:425] loss1/loss <- loss1/classifier_plantvillage_loss1/classifier_plantvillage_0_split_0
I0403 19:02:18.758338  8470 net.cpp:425] loss1/loss <- label_data_1_split_0
…
