…
I0403 19:39:25.344163  9504 net.cpp:313] The NetState phase (1) differed from the phase (0) specified by a rule in layer data
I0403 19:39:25.345299  9504 net.cpp:49] Initializing net from parameters: 
state {
  phase: TEST
}
layer {
  name: "data"
  type: "Data"
  top: "data"
  top: "label"
  include {
    phase: TEST
  }
  transform_param {
    mirror: false
    crop_size: 224
    mean_file: "/home/mohanty/data/final_dataset/lmdb/grayscale-50-50/mean.binaryproto"
  }
  data_param {
    source: "/home/mohanty/data/final_dataset/lmdb/grayscale-50-50/test_db"
    batch_size: 24
    backend: LMDB
  }
}
layer {
  name: "conv1/7x7_s2"
  type: "Convolution"
  bottom: "data"
  top: "conv1/7x7_s2"
  param {
    lr_mult: 1
    decay_mult: 1
  }
  param {
    lr_mult: 2
    decay_mult: 0
  }
  convolution_param {
    num_output: 64
    pad: 3
    kernel_size: 7
    stride: 2
    weight_filler {
      type: "xavier"
      std: 0.1
    }
    bias_filler {
      type: "constant"
      value: 0.2
    }
  }
}
layer {
  name: "conv1/relu_7x7"
  type: "ReLU"
  bottom: "conv1/7x7_s2"
  top: "conv1/7x7_s2"
}
layer {
  name: "pool1/3x3_s2"
  type: "Pooling"
  bottom: "conv1/7x7_s2"
  top: "pool1/3x3_s2"
  pooling_param {
    pool: MAX
    kernel_size: 3
    stride: 2
  }
}
layer {
  name: "pool1/norm1"
  type: "LRN"
  bottom: "pool1/3x3_s2"
  top: "pool1/norm1"
  lrn_param {
    local_size: 5
    alpha: 0.0001
    beta: 0.75
  }
}
layer {
  name: "conv2/3x3_reduce"
  type: "Convolution"
  bottom: "pool1/norm1"
  top: "conv2/3x3_reduce"
  param {
    lr_mult: 1
    decay_mult: 1
  }
  param {
    lr_mult: 2
    decay_mult: 0
  }
  convolution_param {
    num_output: 64
    kernel_size: 1
    weight_filler {
      type: "xavier"
      std: 0.1
    }
    bias_filler {
      type: "constant"
      value: 0.2
    }
  }
}
layer {
  name: "conv2/relu_3x3_reduce"
  type: "ReLU"
  bottom: "conv2/3x3_reduce"
  top: "conv2/3x3_reduce"
}
layer {
  name: "conv2/3x3"
  type: "Convolution"
  bottom: "conv2/3x3_reduce"
  top: "conv2/3x3"
  param {
    lr_mult: 1
    decay_mult: 1
  }
  param {
    lr_mult: 2
    decay_mult: 0
  }
  convolution_param {
    num_output: 192
    pad: 1
    kernel_size: 3
    weight_filler {
      type: "xavier"
      std: 0.03
    }
    bias_filler {
      type: "constant"
      value: 0.2
    }
  }
}
layer {
  name: "conv2/relu_3x3"
  type: "ReLU"
  bottom: "conv2/3x3"
  top: "conv2/3x3"
}
layer {
  name: "conv2/norm2"
  type: "LRN"
  bottom: "conv2/3x3"
  top: "conv2/norm2"
  lrn_param {
    local_size: 5
    alpha: 0.0001
    beta: 0.75
  }
}
layer {
  name: "pool2/3x3_s2"
  type: "Pooling"
  bottom: "conv2/norm2"
  top: "pool2/3x3_s2"
  pooling_param {
    pool: MAX
    kernel_size: 3
    stride: 2
  }
}
layer {
  name: "inception_3a/1x1"
  type: "Convolution"
  bottom: "pool2/3x3_s2"
  top: "inception_3a/1x1"
  param {
    lr_mult: 1
    decay_mult: 1
  }
  param {
    lr_mult: 2
    decay_mult: 0
  }
  convolution_param {
    num_output: 64
    kernel_size: 1
    weight_filler {
      type: "xavier"
      std: 0.03
    }
    bias_filler {
      type: "constant"
      value: 0.2
    }
  }
}
layer {
  name: "inception_3a/relu_1x1"
  type: "ReLU"
  bottom: "inception_3a/1x1"
  top: "inception_3a/1x1"
}
layer {
  name: "inception_3a/3x3_reduce"
  type: "Convolution"
  bottom: "pool2/3x3_s2"
  top: "inception_3a/3x3_reduce"
  param {
    lr_mult: 1
    decay_mult: 1
  }
  param {
    lr_mult: 2
    decay_mult: 0
  }
  convolution_param {
    num_output: 96
    kernel_size: 1
    weight_filler {
      type: "xavier"
      std: 0.09
    }
    bias_filler {
      type: "constant"
      value: 0.2
    }
  }
}
layer {
  name: "inception_3a/relu_3x3_reduce"
  type: "ReLU"
  bottom: "inception_3a/3x3_reduce"
  top: "inception_3a/3x3_reduce"
}
layer {
  name: "inception_3a/3x3"
  type: "Convolution"
  bottom: "inception_3a/3x3_reduce"
  top: "inception_3a/3x3"
  param {
    lr_mult: 1
    decay_mult: 1
  }
  param {
    lr_mult: 2
    decay_mult: 0
  }
  convolution_param {
    num_output: 128
    pad: 1
    kernel_size: 3
    weight_filler {
      type: "xavier"
      std: 0.03
    }
    bias_filler {
      type: "constant"
      value: 0.2
    }
  }
}
layer {
  name: "inception_3a/relu_3x3"
  type: "ReLU"
  bottom: "inception_3a/3x3"
  top: "inception_3a/3x3"
}
layer {
  name: "inception_3a/5x5_reduce"
  type: "Convolution"
  bottom: "pool2/3x3_s2"
  top: "inception_3a/5x5_reduce"
  param {
    lr_mult: 1
    decay_mult: 1
  }
  param {
    lr_mult: 2
    decay_mult: 0
  }
  convolution_param {
    num_output: 16
    kernel_size: 1
    weight_filler {
      type: "xavier"
      std: 0.2
    }
    bias_filler {
      type: "constant"
      value: 0.2
    }
  }
}
layer {
  name: "inception_3a/relu_5x5_reduce"
  type: "ReLU"
  bottom: "inception_3a/5x5_reduce"
  top: "inception_3a/5x5_reduce"
}
layer {
  name: "inception_3a/5x5"
  type: "Convolution"
  bottom: "inception_3a/5x5_reduce"
  top: "inception_3a/5x5"
  param {
    lr_mult: 1
    decay_mult: 1
  }
  param {
    lr_mult: 2
    decay_mult: 0
  }
  convolution_param {
    num_output: 32
    pad: 2
    kernel_size: 5
    weight_filler {
      type: "xavier"
      std: 0.03
    }
    bias_filler {
      type: "constant"
      value: 0.2
    }
  }
}
layer {
  name: "inception_3a/relu_5x5"
  type: "ReLU"
  bottom: "inception_3a/5x5"
  top: "inception_3a/5x5"
}
layer {
  name: "inception_3a/pool"
  type: "Pooling"
  bottom: "pool2/3x3_s2"
  top: "inception_3a/pool"
  pooling_param {
    pool: MAX
    kernel_size: 3
    stride: 1
    pad: 1
  }
}
layer {
  name: "inception_3a/pool_proj"
  type: "Convolution"
  bottom: "inception_3a/pool"
  top: "inception_3a/pool_proj"
  param {
    lr_mult: 1
    decay_mult: 1
  }
  param {
    lr_mult: 2
    decay_mult: 0
  }
  convolution_param {
    num_output: 32
    kernel_size: 1
    weight_filler {
      type: "xavier"
      std: 0.1
    }
    bias_filler {
      type: "constant"
      value: 0.2
    }
  }
}
layer {
  name: "inception_3a/relu_pool_proj"
  type: "ReLU"
  bottom: "inception_3a/pool_proj"
  top: "inception_3a/pool_proj"
}
layer {
  name: "inception_3a/output"
  type: "Concat"
  bottom: "inception_3a/1x1"
  bottom: "inception_3a/3x3"
  bottom: "inception_3a/5x5"
  bottom: "inception_3a/pool_proj"
  top: "inception_3a/output"
}
layer {
  name: "inception_3b/1x1"
  type: "Convolution"
  bottom: "inception_3a/output"
  top: "inception_3b/1x1"
  param {
    lr_mult: 1
    decay_mult: 1
  }
  param {
    lr_mult: 2
    decay_mult: 0
  }
  convolution_param {
    num_output: 128
    kernel_size: 1
    weight_filler {
      type: "xavier"
      std: 0.03
    }
    bias_filler {
      type: "constant"
      value: 0.2
    }
  }
}
layer {
  name: "inception_3b/relu_1x1"
  type: "ReLU"
  bottom: "inception_3b/1x1"
  top: "inception_3b/1x1"
}
layer {
  name: "inception_3b/3x3_reduce"
  type: "Convolution"
  bottom: "inception_3a/output"
  top: "inception_3b/3x3_reduce"
  param {
    lr_mult: 1
    decay_mult: 1
  }
  param {
    lr_mult: 2
    decay_mult: 0
  }
  convolution_param {
    num_output: 128
    kernel_size: 1
    weight_filler {
      type: "xavier"
      std: 0.09
    }
    bias_filler {
      type: "constant"
      value: 0.2
    }
  }
}
layer {
  name: "inception_3b/relu_3x3_reduce"
  type: "ReLU"
  bottom: "inception_3b/3x3_reduce"
  top: "inception_3b/3x3_reduce"
}
layer {
  name: "inception_3b/3x3"
  type: "Convolution"
  bottom: "inception_3b/3x3_reduce"
  top: "inception_3b/3x3"
  param {
    lr_mult: 1
    decay_mult: 1
  }
  param {
    lr_mult: 2
    decay_mult: 0
  }
  convolution_param {
    num_output: 192
    pad: 1
    kernel_size: 3
    weight_filler {
      type: "xavier"
      std: 0.03
    }
    bias_filler {
      type: "constant"
      value: 0.2
    }
  }
}
layer {
  name: "inception_3b/relu_3x3"
  type: "ReLU"
  bottom: "inception_3b/3x3"
  top: "inception_3b/3x3"
}
layer {
  name: "inception_3b/5x5_reduce"
  type: "Convolution"
  bottom: "inception_3a/output"
  top: "inception_3b/5x5_reduce"
  param {
    lr_mult: 1
    decay_mult: 1
  }
  param {
    lr_mult: 2
    decay_mult: 0
  }
  convolution_param {
    num_output: 32
    kernel_size: 1
    weight_filler {
      type: "xavier"
      std: 0.2
    }
    bias_filler {
      type: "constant"
      value: 0.2
    }
  }
}
layer {
  name: "inception_3b/relu_5x5_reduce"
  type: "ReLU"
  bottom: "inception_3b/5x5_reduce"
  top: "inception_3b/5x5_reduce"
}
layer {
  name: "inception_3b/5x5"
  type: "Convolution"
  bottom: "inception_3b/5x5_reduce"
  top: "inception_3b/5x5"
  param {
    lr_mult: 1
    decay_mult: 1
  }
  param {
    lr_mult: 2
    decay_mult: 0
  }
  convolution_param {
    num_output: 96
    pad: 2
    kernel_size: 5
    weight_filler {
      type: "xavier"
      std: 0.03
    }
    bias_filler {
      type: "constant"
      value: 0.2
    }
  }
}
layer {
  name: "inception_3b/relu_5x5"
  type: "ReLU"
  bottom: "inception_3b/5x5"
  top: "inception_3b/5x5"
}
layer {
  name: "inception_3b/pool"
  type: "Pooling"
  bottom: "inception_3a/output"
  top: "inception_3b/pool"
  pooling_param {
    pool: MAX
    kernel_size: 3
    stride: 1
    pad: 1
  }
}
layer {
  name: "inception_3b/pool_proj"
  type: "Convolution"
  bottom: "inception_3b/pool"
  top: "inception_3b/pool_proj"
  param {
    lr_mult: 1
    decay_mult: 1
  }
  param {
    lr_mult: 2
    decay_mult: 0
  }
  convolution_param {
    num_output: 64
    kernel_size: 1
    weight_filler {
      type: "xavier"
      std: 0.1
    }
    bias_filler {
      type: "constant"
      value: 0.2
    }
  }
}
layer {
  name: "inception_3b/relu_pool_proj"
  type: "ReLU"
  bottom: "inception_3b/pool_proj"
  top: "inception_3b/pool_proj"
}
layer {
  name: "inception_3b/output"
  type: "Concat"
  bottom: "inception_3b/1x1"
  bottom: "inception_3b/3x3"
  bottom: "inception_3b/5x5"
  bottom: "inception_3b/pool_proj"
  top: "inception_3b/output"
}
layer {
  name: "pool3/3x3_s2"
  type: "Pooling"
  bottom: "inception_3b/output"
  top: "pool3/3x3_s2"
  pooling_param {
    pool: MAX
    kernel_size: 3
    stride: 2
  }
}
layer {
  name: "inception_4a/1x1"
  type: "Convolution"
  bottom: "pool3/3x3_s2"
  top: "inception_4a/1x1"
  param {
    lr_mult: 1
    decay_mult: 1
  }
  param {
    lr_mult: 2
    decay_mult: 0
  }
  convolution_param {
    num_output: 192
    kernel_size: 1
    weight_filler {
      type: "xavier"
      std: 0.03
    }
    bias_filler {
      type: "constant"
      value: 0.2
    }
  }
}
layer {
  name: "inception_4a/relu_1x1"
  type: "ReLU"
  bottom: "inception_4a/1x1"
  top: "inception_4a/1x1"
}
layer {
  name: "inception_4a/3x3_reduce"
  type: "Convolution"
  bottom: "pool3/3x3_s2"
  top: "inception_4a/3x3_reduce"
  param {
    lr_mult: 1
    decay_mult: 1
  }
  param {
    lr_mult: 2
    decay_mult: 0
  }
  convolution_param {
    num_output: 96
    kernel_size: 1
    weight_filler {
      type: "xavier"
      std: 0.09
    }
    bias_filler {
      type: "constant"
      value: 0.2
    }
  }
}
layer {
  name: "inception_4a/relu_3x3_reduce"
  type: "ReLU"
  bottom: "inception_4a/3x3_reduce"
  top: "inception_4a/3x3_reduce"
}
layer {
  name: "inception_4a/3x3"
  type: "Convolution"
  bottom: "inception_4a/3x3_reduce"
  top: "inception_4a/3x3"
  param {
    lr_mult: 1
    decay_mult: 1
  }
  param {
    lr_mult: 2
    decay_mult: 0
  }
  convolution_param {
    num_output: 208
    pad: 1
    kernel_size: 3
    weight_filler {
      type: "xavier"
      std: 0.03
    }
    bias_filler {
      type: "constant"
      value: 0.2
    }
  }
}
layer {
  name: "inception_4a/relu_3x3"
  type: "ReLU"
  bottom: "inception_4a/3x3"
  top: "inception_4a/3x3"
}
layer {
  name: "inception_4a/5x5_reduce"
  type: "Convolution"
  bottom: "pool3/3x3_s2"
  top: "inception_4a/5x5_reduce"
  param {
    lr_mult: 1
    decay_mult: 1
  }
  param {
    lr_mult: 2
    decay_mult: 0
  }
  convolution_param {
    num_output: 16
    kernel_size: 1
    weight_filler {
      type: "xavier"
      std: 0.2
    }
    bias_filler {
      type: "constant"
      value: 0.2
    }
  }
}
layer {
  name: "inception_4a/relu_5x5_reduce"
  type: "ReLU"
  bottom: "inception_4a/5x5_reduce"
  top: "inception_4a/5x5_reduce"
}
layer {
  name: "inception_4a/5x5"
  type: "Convolution"
  bottom: "inception_4a/5x5_reduce"
  top: "inception_4a/5x5"
  param {
    lr_mult: 1
    decay_mult: 1
  }
  param {
    lr_mult: 2
    decay_mult: 0
  }
  convolution_param {
    num_output: 48
    pad: 2
    kernel_size: 5
    weight_filler {
      type: "xavier"
      std: 0.03
    }
    bias_filler {
      type: "constant"
      value: 0.2
    }
  }
}
layer {
  name: "inception_4a/relu_5x5"
  type: "ReLU"
  bottom: "inception_4a/5x5"
  top: "inception_4a/5x5"
}
layer {
  name: "inception_4a/pool"
  type: "Pooling"
  bottom: "pool3/3x3_s2"
  top: "inception_4a/pool"
  pooling_param {
    pool: MAX
    kernel_size: 3
    stride: 1
    pad: 1
  }
}
layer {
  name: "inception_4a/pool_proj"
  type: "Convolution"
  bottom: "inception_4a/pool"
  top: "inception_4a/pool_proj"
  param {
    lr_mult: 1
    decay_mult: 1
  }
  param {
    lr_mult: 2
    decay_mult: 0
  }
  convolution_param {
    num_output: 64
    kernel_size: 1
    weight_filler {
      type: "xavier"
      std: 0.1
    }
    bias_filler {
      type: "constant"
      value: 0.2
    }
  }
}
layer {
  name: "inception_4a/relu_pool_proj"
  type: "ReLU"
  bottom: "inception_4a/pool_proj"
  top: "inception_4a/pool_proj"
}
layer {
  name: "inception_4a/output"
  type: "Concat"
  bottom: "inception_4a/1x1"
  bottom: "inception_4a/3x3"
  bottom: "inception_4a/5x5"
  bottom: "inception_4a/pool_proj"
  top: "inception_4a/output"
}
layer {
  name: "loss1/ave_pool"
  type: "Pooling"
  bottom: "inception_4a/output"
  top: "loss1/ave_pool"
  pooling_param {
    pool: AVE
    kernel_size: 5
    stride: 3
  }
}
layer {
  name: "loss1/conv"
  type: "Convolution"
  bottom: "loss1/ave_pool"
  top: "loss1/conv"
  param {
    lr_mult: 1
    decay_mult: 1
  }
  param {
    lr_mult: 2
    decay_mult: 0
  }
  convolution_param {
    num_output: 128
    kernel_size: 1
    weight_filler {
      type: "xavier"
      std: 0.08
    }
    bias_filler {
      type: "constant"
      value: 0.2
    }
  }
}
layer {
  name: "loss1/relu_conv"
  type: "ReLU"
  bottom: "loss1/conv"
  top: "loss1/conv"
}
layer {
  name: "loss1/fc"
  type: "InnerProduct"
  bottom: "loss1/conv"
  top: "loss1/fc"
  param {
    lr_mult: 1
    decay_mult: 1
  }
  param {
    lr_mult: 2
    decay_mult: 0
  }
  inner_product_param {
    num_output: 1024
    weight_filler {
      type: "xavier"
      std: 0.02
    }
    bias_filler {
      type: "constant"
      value: 0.2
    }
  }
}
layer {
  name: "loss1/relu_fc"
  type: "ReLU"
  bottom: "loss1/fc"
  top: "loss1/fc"
}
layer {
  name: "loss1/drop_fc"
  type: "Dropout"
  bottom: "loss1/fc"
  top: "loss1/fc"
  dropout_param {
    dropout_ratio: 0.7
  }
}
layer {
  name: "loss1/classifier_plantvillage"
  type: "InnerProduct"
  bottom: "loss1/fc"
  top: "loss1/classifier_plantvillage"
  param {
    lr_mult: 1
    decay_mult: 1
  }
  param {
    lr_mult: 2
    decay_mult: 0
  }
  inner_product_param {
    num_output: 38
    weight_filler {
      type: "xavier"
      std: 0.0009765625
    }
    bias_filler {
      type: "constant"
      value: 0
    }
  }
}
layer {
  name: "inception_4b/1x1"
  type: "Convolution"
  bottom: "inception_4a/output"
  top: "inception_4b/1x1"
  param {
    lr_mult: 1
    decay_mult: 1
  }
  param {
    lr_mult: 2
    decay_mult: 0
  }
  convolution_param {
    num_output: 160
    kernel_size: 1
    weight_filler {
      type: "xavier"
      std: 0.03
    }
    bias_filler {
      type: "constant"
      value: 0.2
    }
  }
}
layer {
  name: "inception_4b/relu_1x1"
  type: "ReLU"
  bottom: "inception_4b/1x1"
  top: "inception_4b/1x1"
}
layer {
  name: "inception_4b/3x3_reduce"
  type: "Convolution"
  bottom: "inception_4a/output"
  top: "inception_4b/3x3_reduce"
  param {
    lr_mult: 1
    decay_mult: 1
  }
  param {
    lr_mult: 2
    decay_mult: 0
  }
  convolution_param {
    num_output: 112
    kernel_size: 1
    weight_filler {
      type: "xavier"
      std: 0.09
    }
    bias_filler {
      type: "constant"
      value: 0.2
    }
  }
}
layer {
  name: "inception_4b/relu_3x3_reduce"
  type: "ReLU"
  bottom: "inception_4b/3x3_reduce"
  top: "inception_4b/3x3_reduce"
}
layer {
  name: "inception_4b/3x3"
  type: "Convolution"
  bottom: "inception_4b/3x3_reduce"
  top: "inception_4b/3x3"
  param {
    lr_mult: 1
    decay_mult: 1
  }
  param {
    lr_mult: 2
    decay_mult: 0
  }
  convolution_param {
    num_output: 224
    pad: 1
    kernel_size: 3
    weight_filler {
      type: "xavier"
      std: 0.03
    }
    bias_filler {
      type: "constant"
      value: 0.2
    }
  }
}
layer {
  name: "inception_4b/relu_3x3"
  type: "ReLU"
  bottom: "inception_4b/3x3"
  top: "inception_4b/3x3"
}
layer {
  name: "inception_4b/5x5_reduce"
  type: "Convolution"
  bottom: "inception_4a/output"
  top: "inception_4b/5x5_reduce"
  param {
    lr_mult: 1
    decay_mult: 1
  }
  param {
    lr_mult: 2
    decay_mult: 0
  }
  convolution_param {
    num_output: 24
    kernel_size: 1
    weight_filler {
      type: "xavier"
      std: 0.2
    }
    bias_filler {
      type: "constant"
      value: 0.2
    }
  }
}
layer {
  name: "inception_4b/relu_5x5_reduce"
  type: "ReLU"
  bottom: "inception_4b/5x5_reduce"
  top: "inception_4b/5x5_reduce"
}
layer {
  name: "inception_4b/5x5"
  type: "Convolution"
  bottom: "inception_4b/5x5_reduce"
  top: "inception_4b/5x5"
  param {
    lr_mult: 1
    decay_mult: 1
  }
  param {
    lr_mult: 2
    decay_mult: 0
  }
  convolution_param {
    num_output: 64
    pad: 2
    kernel_size: 5
    weight_filler {
      type: "xavier"
      std: 0.03
    }
    bias_filler {
      type: "constant"
      value: 0.2
    }
  }
}
layer {
  name: "inception_4b/relu_5x5"
  type: "ReLU"
  bottom: "inception_4b/5x5"
  top: "inception_4b/5x5"
}
layer {
  name: "inception_4b/pool"
  type: "Pooling"
  bottom: "inception_4a/output"
  top: "inception_4b/pool"
  pooling_param {
    pool: MAX
    kernel_size: 3
    stride: 1
    pad: 1
  }
}
layer {
  name: "inception_4b/pool_proj"
  type: "Convolution"
  bottom: "inception_4b/pool"
  top: "inception_4b/pool_proj"
  param {
    lr_mult: 1
    decay_mult: 1
  }
  param {
    lr_mult: 2
    decay_mult: 0
  }
  convolution_param {
    num_output: 64
    kernel_size: 1
    weight_filler {
      type: "xavier"
      std: 0.1
    }
    bias_filler {
      type: "constant"
      value: 0.2
    }
  }
}
layer {
  name: "inception_4b/relu_pool_proj"
  type: "ReLU"
  bottom: "inception_4b/pool_proj"
  top: "inception_4b/pool_proj"
}
layer {
  name: "inception_4b/output"
  type: "Concat"
  bottom: "inception_4b/1x1"
  bottom: "inception_4b/3x3"
  bottom: "inception_4b/5x5"
  bottom: "inception_4b/pool_proj"
  top: "inception_4b/output"
}
layer {
  name: "inception_4c/1x1"
  type: "Convolution"
  bottom: "inception_4b/output"
  top: "inception_4c/1x1"
  param {
    lr_mult: 1
    decay_mult: 1
  }
  param {
    lr_mult: 2
    decay_mult: 0
  }
  convolution_param {
    num_output: 128
    kernel_size: 1
    weight_filler {
      type: "xavier"
      std: 0.03
    }
    bias_filler {
      type: "constant"
      value: 0.2
    }
  }
}
layer {
  name: "inception_4c/relu_1x1"
  type: "ReLU"
  bottom: "inception_4c/1x1"
  top: "inception_4c/1x1"
}
layer {
  name: "inception_4c/3x3_reduce"
  type: "Convolution"
  bottom: "inception_4b/output"
  top: "inception_4c/3x3_reduce"
  param {
    lr_mult: 1
    decay_mult: 1
  }
  param {
    lr_mult: 2
    decay_mult: 0
  }
  convolution_param {
    num_output: 128
    kernel_size: 1
    weight_filler {
      type: "xavier"
      std: 0.09
    }
    bias_filler {
      type: "constant"
      value: 0.2
    }
  }
}
layer {
  name: "inception_4c/relu_3x3_reduce"
  type: "ReLU"
  bottom: "inception_4c/3x3_reduce"
  top: "inception_4c/3x3_reduce"
}
layer {
  name: "inception_4c/3x3"
  type: "Convolution"
  bottom: "inception_4c/3x3_reduce"
  top: "inception_4c/3x3"
  param {
    lr_mult: 1
    decay_mult: 1
  }
  param {
    lr_mult: 2
    decay_mult: 0
  }
  convolution_param {
    num_output: 256
    pad: 1
    kernel_size: 3
    weight_filler {
      type: "xavier"
      std: 0.03
    }
    bias_filler {
      type: "constant"
      value: 0.2
    }
  }
}
layer {
  name: "inception_4c/relu_3x3"
  type: "ReLU"
  bottom: "inception_4c/3x3"
  top: "inception_4c/3x3"
}
layer {
  name: "inception_4c/5x5_reduce"
  type: "Convolution"
  bottom: "inception_4b/output"
  top: "inception_4c/5x5_reduce"
  param {
    lr_mult: 1
    decay_mult: 1
  }
  param {
    lr_mult: 2
    decay_mult: 0
  }
  convolution_param {
    num_output: 24
    kernel_size: 1
    weight_filler {
      type: "xavier"
      std: 0.2
    }
    bias_filler {
      type: "constant"
      value: 0.2
    }
  }
}
layer {
  name: "inception_4c/relu_5x5_reduce"
  type: "ReLU"
  bottom: "inception_4c/5x5_reduce"
  top: "inception_4c/5x5_reduce"
}
layer {
  name: "inception_4c/5x5"
  type: "Convolution"
  bottom: "inception_4c/5x5_reduce"
  top: "inception_4c/5x5"
  param {
    lr_mult: 1
    decay_mult: 1
  }
  param {
    lr_mult: 2
    decay_mult: 0
  }
  convolution_param {
    num_output: 64
    pad: 2
    kernel_size: 5
    weight_filler {
      type: "xavier"
      std: 0.03
    }
    bias_filler {
      type: "constant"
      value: 0.2
    }
  }
}
layer {
  name: "inception_4c/relu_5x5"
  type: "ReLU"
  bottom: "inception_4c/5x5"
  top: "inception_4c/5x5"
}
layer {
  name: "inception_4c/pool"
  type: "Pooling"
  bottom: "inception_4b/output"
  top: "inception_4c/pool"
  pooling_param {
    pool: MAX
    kernel_size: 3
    stride: 1
    pad: 1
  }
}
layer {
  name: "inception_4c/pool_proj"
  type: "Convolution"
  bottom: "inception_4c/pool"
  top: "inception_4c/pool_proj"
  param {
    lr_mult: 1
    decay_mult: 1
  }
  param {
    lr_mult: 2
    decay_mult: 0
  }
  convolution_param {
    num_output: 64
    kernel_size: 1
    weight_filler {
      type: "xavier"
      std: 0.1
    }
    bias_filler {
      type: "constant"
      value: 0.2
    }
  }
}
layer {
  name: "inception_4c/relu_pool_proj"
  type: "ReLU"
  bottom: "inception_4c/pool_proj"
  top: "inception_4c/pool_proj"
}
layer {
  name: "inception_4c/output"
  type: "Concat"
  bottom: "inception_4c/1x1"
  bottom: "inception_4c/3x3"
  bottom: "inception_4c/5x5"
  bottom: "inception_4c/pool_proj"
  top: "inception_4c/output"
}
layer {
  name: "inception_4d/1x1"
  type: "Convolution"
  bottom: "inception_4c/output"
  top: "inception_4d/1x1"
  param {
    lr_mult: 1
    decay_mult: 1
  }
  param {
    lr_mult: 2
    decay_mult: 0
  }
  convolution_param {
    num_output: 112
    kernel_size: 1
    weight_filler {
      type: "xavier"
      std: 0.03
    }
    bias_filler {
      type: "constant"
      value: 0.2
    }
  }
}
layer {
  name: "inception_4d/relu_1x1"
  type: "ReLU"
  bottom: "inception_4d/1x1"
  top: "inception_4d/1x1"
}
layer {
  name: "inception_4d/3x3_reduce"
  type: "Convolution"
  bottom: "inception_4c/output"
  top: "inception_4d/3x3_reduce"
  param {
    lr_mult: 1
    decay_mult: 1
  }
  param {
    lr_mult: 2
    decay_mult: 0
  }
  convolution_param {
    num_output: 144
    kernel_size: 1
    weight_filler {
      type: "xavier"
      std: 0.09
    }
    bias_filler {
      type: "constant"
      value: 0.2
    }
  }
}
layer {
  name: "inception_4d/relu_3x3_reduce"
  type: "ReLU"
  bottom: "inception_4d/3x3_reduce"
  top: "inception_4d/3x3_reduce"
}
layer {
  name: "inception_4d/3x3"
  type: "Convolution"
  bottom: "inception_4d/3x3_reduce"
  top: "inception_4d/3x3"
  param {
    lr_mult: 1
    decay_mult: 1
  }
  param {
    lr_mult: 2
    decay_mult: 0
  }
  convolution_param {
    num_output: 288
    pad: 1
    kernel_size: 3
    weight_filler {
      type: "xavier"
      std: 0.03
    }
    bias_filler {
      type: "constant"
      value: 0.2
    }
  }
}
layer {
  name: "inception_4d/relu_3x3"
  type: "ReLU"
  bottom: "inception_4d/3x3"
  top: "inception_4d/3x3"
}
layer {
  name: "inception_4d/5x5_reduce"
  type: "Convolution"
  bottom: "inception_4c/output"
  top: "inception_4d/5x5_reduce"
  param {
    lr_mult: 1
    decay_mult: 1
  }
  param {
    lr_mult: 2
    decay_mult: 0
  }
  convolution_param {
    num_output: 32
    kernel_size: 1
    weight_filler {
      type: "xavier"
      std: 0.2
    }
    bias_filler {
      type: "constant"
      value: 0.2
    }
  }
}
layer {
  name: "inception_4d/relu_5x5_reduce"
  type: "ReLU"
  bottom: "inception_4d/5x5_reduce"
  top: "inception_4d/5x5_reduce"
}
layer {
  name: "inception_4d/5x5"
  type: "Convolution"
  bottom: "inception_4d/5x5_reduce"
  top: "inception_4d/5x5"
  param {
    lr_mult: 1
    decay_mult: 1
  }
  param {
    lr_mult: 2
    decay_mult: 0
  }
  convolution_param {
    num_output: 64
    pad: 2
    kernel_size: 5
    weight_filler {
      type: "xavier"
      std: 0.03
    }
    bias_filler {
      type: "constant"
      value: 0.2
    }
  }
}
layer {
  name: "inception_4d/relu_5x5"
  type: "ReLU"
  bottom: "inception_4d/5x5"
  top: "inception_4d/5x5"
}
layer {
  name: "inception_4d/pool"
  type: "Pooling"
  bottom: "inception_4c/output"
  top: "inception_4d/pool"
  pooling_param {
    pool: MAX
    kernel_size: 3
    stride: 1
    pad: 1
  }
}
layer {
  name: "inception_4d/pool_proj"
  type: "Convolution"
  bottom: "inception_4d/pool"
  top: "inception_4d/pool_proj"
  param {
    lr_mult: 1
    decay_mult: 1
  }
  param {
    lr_mult: 2
    decay_mult: 0
  }
  convolution_param {
    num_output: 64
    kernel_size: 1
    weight_filler {
      type: "xavier"
      std: 0.1
    }
    bias_filler {
      type: "constant"
      value: 0.2
    }
  }
}
layer {
  name: "inception_4d/relu_pool_proj"
  type: "ReLU"
  bottom: "inception_4d/pool_proj"
  top: "inception_4d/pool_proj"
}
layer {
  name: "inception_4d/output"
  type: "Concat"
  bottom: "inception_4d/1x1"
  bottom: "inception_4d/3x3"
  bottom: "inception_4d/5x5"
  bottom: "inception_4d/pool_proj"
  top: "inception_4d/output"
}
layer {
  name: "loss2/ave_pool"
  type: "Pooling"
  bottom: "inception_4d/output"
  top: "loss2/ave_pool"
  pooling_param {
    pool: AVE
    kernel_size: 5
    stride: 3
  }
}
layer {
  name: "loss2/conv"
  type: "Convolution"
  bottom: "loss2/ave_pool"
  top: "loss2/conv"
  param {
    lr_mult: 1
    decay_mult: 1
  }
  param {
    lr_mult: 2
    decay_mult: 0
  }
  convolution_param {
    num_output: 128
    kernel_size: 1
    weight_filler {
      type: "xavier"
      std: 0.08
    }
    bias_filler {
      type: "constant"
      value: 0.2
    }
  }
}
layer {
  name: "loss2/relu_conv"
  type: "ReLU"
  bottom: "loss2/conv"
  top: "loss2/conv"
}
layer {
  name: "loss2/fc"
  type: "InnerProduct"
  bottom: "loss2/conv"
  top: "loss2/fc"
  param {
    lr_mult: 1
    decay_mult: 1
  }
  param {
    lr_mult: 2
    decay_mult: 0
  }
  inner_product_param {
    num_output: 1024
    weight_filler {
      type: "xavier"
      std: 0.02
    }
    bias_filler {
      type: "constant"
      value: 0.2
    }
  }
}
layer {
  name: "loss2/relu_fc"
  type: "ReLU"
  bottom: "loss2/fc"
  top: "loss2/fc"
}
layer {
  name: "loss2/drop_fc"
  type: "Dropout"
  bottom: "loss2/fc"
  top: "loss2/fc"
  dropout_param {
    dropout_ratio: 0.7
  }
}
layer {
  name: "loss2/classifier_plantvillage"
  type: "InnerProduct"
  bottom: "loss2/fc"
  top: "loss2/classifier_plantvillage"
  param {
    lr_mult: 1
    decay_mult: 1
  }
  param {
    lr_mult: 2
    decay_mult: 0
  }
  inner_product_param {
    num_output: 38
    weight_filler {
      type: "xavier"
      std: 0.0009765625
    }
    bias_filler {
      type: "constant"
      value: 0
    }
  }
}
layer {
  name: "inception_4e/1x1"
  type: "Convolution"
  bottom: "inception_4d/output"
  top: "inception_4e/1x1"
  param {
    lr_mult: 1
    decay_mult: 1
  }
  param {
    lr_mult: 2
    decay_mult: 0
  }
  convolution_param {
    num_output: 256
    kernel_size: 1
    weight_filler {
      type: "xavier"
      std: 0.03
    }
    bias_filler {
      type: "constant"
      value: 0.2
    }
  }
}
layer {
  name: "inception_4e/relu_1x1"
  type: "ReLU"
  bottom: "inception_4e/1x1"
  top: "inception_4e/1x1"
}
layer {
  name: "inception_4e/3x3_reduce"
  type: "Convolution"
  bottom: "inception_4d/output"
  top: "inception_4e/3x3_reduce"
  param {
    lr_mult: 1
    decay_mult: 1
  }
  param {
    lr_mult: 2
    decay_mult: 0
  }
  convolution_param {
    num_output: 160
    kernel_size: 1
    weight_filler {
      type: "xavier"
      std: 0.09
    }
    bias_filler {
      type: "constant"
      value: 0.2
    }
  }
}
layer {
  name: "inception_4e/relu_3x3_reduce"
  type: "ReLU"
  bottom: "inception_4e/3x3_reduce"
  top: "inception_4e/3x3_reduce"
}
layer {
  name: "inception_4e/3x3"
  type: "Convolution"
  bottom: "inception_4e/3x3_reduce"
  top: "inception_4e/3x3"
  param {
    lr_mult: 1
    decay_mult: 1
  }
  param {
    lr_mult: 2
    decay_mult: 0
  }
  convolution_param {
    num_output: 320
    pad: 1
    kernel_size: 3
    weight_filler {
      type: "xavier"
      std: 0.03
    }
    bias_filler {
      type: "constant"
      value: 0.2
    }
  }
}
layer {
  name: "inception_4e/relu_3x3"
  type: "ReLU"
  bottom: "inception_4e/3x3"
  top: "inception_4e/3x3"
}
layer {
  name: "inception_4e/5x5_reduce"
  type: "Convolution"
  bottom: "inception_4d/output"
  top: "inception_4e/5x5_reduce"
  param {
    lr_mult: 1
    decay_mult: 1
  }
  param {
    lr_mult: 2
    decay_mult: 0
  }
  convolution_param {
    num_output: 32
    kernel_size: 1
    weight_filler {
      type: "xavier"
      std: 0.2
    }
    bias_filler {
      type: "constant"
      value: 0.2
    }
  }
}
layer {
  name: "inception_4e/relu_5x5_reduce"
  type: "ReLU"
  bottom: "inception_4e/5x5_reduce"
  top: "inception_4e/5x5_reduce"
}
layer {
  name: "inception_4e/5x5"
  type: "Convolution"
  bottom: "inception_4e/5x5_reduce"
  top: "inception_4e/
I0403 19:39:25.346710  9504 layer_factory.hpp:77] Creating layer data
I0403 19:39:25.347297  9504 net.cpp:91] Creating Layer data
I0403 19:39:25.347332  9504 net.cpp:399] data -> data
I0403 19:39:25.347378  9504 net.cpp:399] data -> label
I0403 19:39:25.347415  9504 data_transformer.cpp:25] Loading mean file from: /home/mohanty/data/final_dataset/lmdb/grayscale-50-50/mean.binaryproto
I0403 19:39:25.348620  9509 db_lmdb.cpp:38] Opened lmdb /home/mohanty/data/final_dataset/lmdb/grayscale-50-50/test_db
I0403 19:39:25.360559  9504 data_layer.cpp:41] output data size: 24,3,224,224
I0403 19:39:25.387498  9504 net.cpp:141] Setting up data
I0403 19:39:25.387554  9504 net.cpp:148] Top shape: 24 3 224 224 (3612672)
I0403 19:39:25.387576  9504 net.cpp:148] Top shape: 24 (24)
I0403 19:39:25.387591  9504 net.cpp:156] Memory required for data: 14450784
I0403 19:39:25.387616  9504 layer_factory.hpp:77] Creating layer label_data_1_split
I0403 19:39:25.387640  9504 net.cpp:91] Creating Layer label_data_1_split
I0403 19:39:25.387657  9504 net.cpp:425] label_data_1_split <- label
I0403 19:39:25.387687  9504 net.cpp:399] label_data_1_split -> label_data_1_split_0
I0403 19:39:25.387712  9504 net.cpp:399] label_data_1_split -> label_data_1_split_1
I0403 19:39:25.387732  9504 net.cpp:399] label_data_1_split -> label_data_1_split_2
I0403 19:39:25.387753  9504 net.cpp:399] label_data_1_split -> label_data_1_split_3
I0403 19:39:25.387773  9504 net.cpp:399] label_data_1_split -> label_data_1_split_4
I0403 19:39:25.387792  9504 net.cpp:399] label_data_1_split -> label_data_1_split_5
I0403 19:39:25.387811  9504 net.cpp:399] label_data_1_split -> label_data_1_split_6
I0403 19:39:25.387831  9504 net.cpp:399] label_data_1_split -> label_data_1_split_7
I0403 19:39:25.387850  9504 net.cpp:399] label_data_1_split -> label_data_1_split_8
I0403 19:39:25.387871  9504 net.cpp:399] label_data_1_split -> label_data_1_split_9
I0403 19:39:25.387982  9504 net.cpp:141] Setting up label_data_1_split
I0403 19:39:25.388005  9504 net.cpp:148] Top shape: 24 (24)
I0403 19:39:25.388022  9504 net.cpp:148] Top shape: 24 (24)
I0403 19:39:25.388038  9504 net.cpp:148] Top shape: 24 (24)
I0403 19:39:25.388054  9504 net.cpp:148] Top shape: 24 (24)
I0403 19:39:25.388070  9504 net.cpp:148] Top shape: 24 (24)
I0403 19:39:25.388085  9504 net.cpp:148] Top shape: 24 (24)
I0403 19:39:25.388101  9504 net.cpp:148] Top shape: 24 (24)
I0403 19:39:25.388116  9504 net.cpp:148] Top shape: 24 (24)
I0403 19:39:25.388133  9504 net.cpp:148] Top shape: 24 (24)
I0403 19:39:25.388149  9504 net.cpp:148] Top shape: 24 (24)
I0403 19:39:25.388185  9504 net.cpp:156] Memory required for data: 14451744
I0403 19:39:25.388201  9504 layer_factory.hpp:77] Creating layer conv1/7x7_s2
I0403 19:39:25.388231  9504 net.cpp:91] Creating Layer conv1/7x7_s2
I0403 19:39:25.388249  9504 net.cpp:425] conv1/7x7_s2 <- data
I0403 19:39:25.388268  9504 net.cpp:399] conv1/7x7_s2 -> conv1/7x7_s2
I0403 19:39:25.526202  9504 net.cpp:141] Setting up conv1/7x7_s2
I0403 19:39:25.526271  9504 net.cpp:148] Top shape: 24 64 112 112 (19267584)
I0403 19:39:25.526289  9504 net.cpp:156] Memory required for data: 91522080
I0403 19:39:25.526324  9504 layer_factory.hpp:77] Creating layer conv1/relu_7x7
I0403 19:39:25.526365  9504 net.cpp:91] Creating Layer conv1/relu_7x7
I0403 19:39:25.526389  9504 net.cpp:425] conv1/relu_7x7 <- conv1/7x7_s2
I0403 19:39:25.526412  9504 net.cpp:386] conv1/relu_7x7 -> conv1/7x7_s2 (in-place)
I0403 19:39:25.526680  9504 net.cpp:141] Setting up conv1/relu_7x7
I0403 19:39:25.526710  9504 net.cpp:148] Top shape: 24 64 112 112 (19267584)
I0403 19:39:25.526726  9504 net.cpp:156] Memory required for data: 168592416
I0403 19:39:25.526742  9504 layer_factory.hpp:77] Creating layer pool1/3x3_s2
I0403 19:39:25.526769  9504 net.cpp:91] Creating Layer pool1/3x3_s2
I0403 19:39:25.526788  9504 net.cpp:425] pool1/3x3_s2 <- conv1/7x7_s2
I0403 19:39:25.526808  9504 net.cpp:399] pool1/3x3_s2 -> pool1/3x3_s2
I0403 19:39:25.526885  9504 net.cpp:141] Setting up pool1/3x3_s2
I0403 19:39:25.526909  9504 net.cpp:148] Top shape: 24 64 56 56 (4816896)
I0403 19:39:25.526926  9504 net.cpp:156] Memory required for data: 187860000
I0403 19:39:25.526942  9504 layer_factory.hpp:77] Creating layer pool1/norm1
I0403 19:39:25.526968  9504 net.cpp:91] Creating Layer pool1/norm1
I0403 19:39:25.526986  9504 net.cpp:425] pool1/norm1 <- pool1/3x3_s2
I0403 19:39:25.527006  9504 net.cpp:399] pool1/norm1 -> pool1/norm1
I0403 19:39:25.527307  9504 net.cpp:141] Setting up pool1/norm1
I0403 19:39:25.527338  9504 net.cpp:148] Top shape: 24 64 56 56 (4816896)
I0403 19:39:25.527354  9504 net.cpp:156] Memory required for data: 207127584
I0403 19:39:25.527371  9504 layer_factory.hpp:77] Creating layer conv2/3x3_reduce
I0403 19:39:25.527397  9504 net.cpp:91] Creating Layer conv2/3x3_reduce
I0403 19:39:25.527415  9504 net.cpp:425] conv2/3x3_reduce <- pool1/norm1
I0403 19:39:25.527436  9504 net.cpp:399] conv2/3x3_reduce -> conv2/3x3_reduce
I0403 19:39:25.528861  9504 net.cpp:141] Setting up conv2/3x3_reduce
I0403 19:39:25.528893  9504 net.cpp:148] Top shape: 24 64 56 56 (4816896)
I0403 19:39:25.528910  9504 net.cpp:156] Memory required for data: 226395168
I0403 19:39:25.528934  9504 layer_factory.hpp:77] Creating layer conv2/relu_3x3_reduce
I0403 19:39:25.528954  9504 net.cpp:91] Creating Layer conv2/relu_3x3_reduce
I0403 19:39:25.528970  9504 net.cpp:425] conv2/relu_3x3_reduce <- conv2/3x3_reduce
I0403 19:39:25.528988  9504 net.cpp:386] conv2/relu_3x3_reduce -> conv2/3x3_reduce (in-place)
I0403 19:39:25.529263  9504 net.cpp:141] Setting up conv2/relu_3x3_reduce
I0403 19:39:25.529290  9504 net.cpp:148] Top shape: 24 64 56 56 (4816896)
I0403 19:39:25.529307  9504 net.cpp:156] Memory required for data: 245662752
I0403 19:39:25.529323  9504 layer_factory.hpp:77] Creating layer conv2/3x3
I0403 19:39:25.529348  9504 net.cpp:91] Creating Layer conv2/3x3
I0403 19:39:25.529377  9504 net.cpp:425] conv2/3x3 <- conv2/3x3_reduce
I0403 19:39:25.529400  9504 net.cpp:399] conv2/3x3 -> conv2/3x3
I0403 19:39:25.531741  9504 net.cpp:141] Setting up conv2/3x3
I0403 19:39:25.531776  9504 net.cpp:148] Top shape: 24 192 56 56 (14450688)
I0403 19:39:25.531795  9504 net.cpp:156] Memory required for data: 303465504
I0403 19:39:25.531821  9504 layer_factory.hpp:77] Creating layer conv2/relu_3x3
I0403 19:39:25.531841  9504 net.cpp:91] Creating Layer conv2/relu_3x3
I0403 19:39:25.531860  9504 net.cpp:425] conv2/relu_3x3 <- conv2/3x3
I0403 19:39:25.531880  9504 net.cpp:386] conv2/relu_3x3 -> conv2/3x3 (in-place)
I0403 19:39:25.532073  9504 net.cpp:141] Setting up conv2/relu_3x3
I0403 19:39:25.532104  9504 net.cpp:148] Top shape: 24 192 56 56 (14450688)
I0403 19:39:25.532150  9504 net.cpp:156] Memory required for data: 361268256
I0403 19:39:25.532169  9504 layer_factory.hpp:77] Creating layer conv2/norm2
I0403 19:39:25.532198  9504 net.cpp:91] Creating Layer conv2/norm2
I0403 19:39:25.532219  9504 net.cpp:425] conv2/norm2 <- conv2/3x3
I0403 19:39:25.532240  9504 net.cpp:399] conv2/norm2 -> conv2/norm2
I0403 19:39:25.532567  9504 net.cpp:141] Setting up conv2/norm2
I0403 19:39:25.532615  9504 net.cpp:148] Top shape: 24 192 56 56 (14450688)
I0403 19:39:25.532644  9504 net.cpp:156] Memory required for data: 419071008
I0403 19:39:25.532661  9504 layer_factory.hpp:77] Creating layer pool2/3x3_s2
I0403 19:39:25.532685  9504 net.cpp:91] Creating Layer pool2/3x3_s2
I0403 19:39:25.532704  9504 net.cpp:425] pool2/3x3_s2 <- conv2/norm2
I0403 19:39:25.532724  9504 net.cpp:399] pool2/3x3_s2 -> pool2/3x3_s2
I0403 19:39:25.532781  9504 net.cpp:141] Setting up pool2/3x3_s2
I0403 19:39:25.532807  9504 net.cpp:148] Top shape: 24 192 28 28 (3612672)
I0403 19:39:25.532825  9504 net.cpp:156] Memory required for data: 433521696
I0403 19:39:25.532843  9504 layer_factory.hpp:77] Creating layer pool2/3x3_s2_pool2/3x3_s2_0_split
I0403 19:39:25.532866  9504 net.cpp:91] Creating Layer pool2/3x3_s2_pool2/3x3_s2_0_split
I0403 19:39:25.532886  9504 net.cpp:425] pool2/3x3_s2_pool2/3x3_s2_0_split <- pool2/3x3_s2
I0403 19:39:25.532907  9504 net.cpp:399] pool2/3x3_s2_pool2/3x3_s2_0_split -> pool2/3x3_s2_pool2/3x3_s2_0_split_0
I0403 19:39:25.532937  9504 net.cpp:399] pool2/3x3_s2_pool2/3x3_s2_0_split -> pool2/3x3_s2_pool2/3x3_s2_0_split_1
I0403 19:39:25.532959  9504 net.cpp:399] pool2/3x3_s2_pool2/3x3_s2_0_split -> pool2/3x3_s2_pool2/3x3_s2_0_split_2
I0403 19:39:25.532980  9504 net.cpp:399] pool2/3x3_s2_pool2/3x3_s2_0_split -> pool2/3x3_s2_pool2/3x3_s2_0_split_3
I0403 19:39:25.533056  9504 net.cpp:141] Setting up pool2/3x3_s2_pool2/3x3_s2_0_split
I0403 19:39:25.533079  9504 net.cpp:148] Top shape: 24 192 28 28 (3612672)
I0403 19:39:25.533097  9504 net.cpp:148] Top shape: 24 192 28 28 (3612672)
I0403 19:39:25.533115  9504 net.cpp:148] Top shape: 24 192 28 28 (3612672)
I0403 19:39:25.533133  9504 net.cpp:148] Top shape: 24 192 28 28 (3612672)
I0403 19:39:25.533149  9504 net.cpp:156] Memory required for data: 491324448
I0403 19:39:25.533166  9504 layer_factory.hpp:77] Creating layer inception_3a/1x1
I0403 19:39:25.533205  9504 net.cpp:91] Creating Layer inception_3a/1x1
I0403 19:39:25.533226  9504 net.cpp:425] inception_3a/1x1 <- pool2/3x3_s2_pool2/3x3_s2_0_split_0
I0403 19:39:25.533249  9504 net.cpp:399] inception_3a/1x1 -> inception_3a/1x1
I0403 19:39:25.534881  9504 net.cpp:141] Setting up inception_3a/1x1
I0403 19:39:25.534917  9504 net.cpp:148] Top shape: 24 64 28 28 (1204224)
I0403 19:39:25.534936  9504 net.cpp:156] Memory required for data: 496141344
I0403 19:39:25.534960  9504 layer_factory.hpp:77] Creating layer inception_3a/relu_1x1
I0403 19:39:25.534981  9504 net.cpp:91] Creating Layer inception_3a/relu_1x1
I0403 19:39:25.535001  9504 net.cpp:425] inception_3a/relu_1x1 <- inception_3a/1x1
I0403 19:39:25.535022  9504 net.cpp:386] inception_3a/relu_1x1 -> inception_3a/1x1 (in-place)
I0403 19:39:25.535212  9504 net.cpp:141] Setting up inception_3a/relu_1x1
I0403 19:39:25.535238  9504 net.cpp:148] Top shape: 24 64 28 28 (1204224)
I0403 19:39:25.535254  9504 net.cpp:156] Memory required for data: 500958240
I0403 19:39:25.535271  9504 layer_factory.hpp:77] Creating layer inception_3a/3x3_reduce
I0403 19:39:25.535295  9504 net.cpp:91] Creating Layer inception_3a/3x3_reduce
I0403 19:39:25.535313  9504 net.cpp:425] inception_3a/3x3_reduce <- pool2/3x3_s2_pool2/3x3_s2_0_split_1
I0403 19:39:25.535336  9504 net.cpp:399] inception_3a/3x3_reduce -> inception_3a/3x3_reduce
I0403 19:39:25.537106  9504 net.cpp:141] Setting up inception_3a/3x3_reduce
I0403 19:39:25.537142  9504 net.cpp:148] Top shape: 24 96 28 28 (1806336)
I0403 19:39:25.537188  9504 net.cpp:156] Memory required for data: 508183584
I0403 19:39:25.537215  9504 layer_factory.hpp:77] Creating layer inception_3a/relu_3x3_reduce
I0403 19:39:25.537288  9504 net.cpp:91] Creating Layer inception_3a/relu_3x3_reduce
I0403 19:39:25.537335  9504 net.cpp:425] inception_3a/relu_3x3_reduce <- inception_3a/3x3_reduce
I0403 19:39:25.537356  9504 net.cpp:386] inception_3a/relu_3x3_reduce -> inception_3a/3x3_reduce (in-place)
I0403 19:39:25.537547  9504 net.cpp:141] Setting up inception_3a/relu_3x3_reduce
I0403 19:39:25.537587  9504 net.cpp:148] Top shape: 24 96 28 28 (1806336)
I0403 19:39:25.537627  9504 net.cpp:156] Memory required for data: 515408928
I0403 19:39:25.537662  9504 layer_factory.hpp:77] Creating layer inception_3a/3x3
I0403 19:39:25.537724  9504 net.cpp:91] Creating Layer inception_3a/3x3
I0403 19:39:25.537765  9504 net.cpp:425] inception_3a/3x3 <- inception_3a/3x3_reduce
I0403 19:39:25.537816  9504 net.cpp:399] inception_3a/3x3 -> inception_3a/3x3
I0403 19:39:25.539621  9504 net.cpp:141] Setting up inception_3a/3x3
I0403 19:39:25.539652  9504 net.cpp:148] Top shape: 24 128 28 28 (2408448)
I0403 19:39:25.539670  9504 net.cpp:156] Memory required for data: 525042720
I0403 19:39:25.539692  9504 layer_factory.hpp:77] Creating layer inception_3a/relu_3x3
I0403 19:39:25.539716  9504 net.cpp:91] Creating Layer inception_3a/relu_3x3
I0403 19:39:25.539736  9504 net.cpp:425] inception_3a/relu_3x3 <- inception_3a/3x3
I0403 19:39:25.539757  9504 net.cpp:386] inception_3a/relu_3x3 -> inception_3a/3x3 (in-place)
I0403 19:39:25.540042  9504 net.cpp:141] Setting up inception_3a/relu_3x3
I0403 19:39:25.540071  9504 net.cpp:148] Top shape: 24 128 28 28 (2408448)
I0403 19:39:25.540091  9504 net.cpp:156] Memory required for data: 534676512
I0403 19:39:25.540107  9504 layer_factory.hpp:77] Creating layer inception_3a/5x5_reduce
I0403 19:39:25.540134  9504 net.cpp:91] Creating Layer inception_3a/5x5_reduce
I0403 19:39:25.540155  9504 net.cpp:425] inception_3a/5x5_reduce <- pool2/3x3_s2_pool2/3x3_s2_0_split_2
I0403 19:39:25.540182  9504 net.cpp:399] inception_3a/5x5_reduce -> inception_3a/5x5_reduce
I0403 19:39:25.541189  9504 net.cpp:141] Setting up inception_3a/5x5_reduce
I0403 19:39:25.541234  9504 net.cpp:148] Top shape: 24 16 28 28 (301056)
I0403 19:39:25.541254  9504 net.cpp:156] Memory required for data: 535880736
I0403 19:39:25.541278  9504 layer_factory.hpp:77] Creating layer inception_3a/relu_5x5_reduce
I0403 19:39:25.541299  9504 net.cpp:91] Creating Layer inception_3a/relu_5x5_reduce
I0403 19:39:25.541319  9504 net.cpp:425] inception_3a/relu_5x5_reduce <- inception_3a/5x5_reduce
I0403 19:39:25.541342  9504 net.cpp:386] inception_3a/relu_5x5_reduce -> inception_3a/5x5_reduce (in-place)
I0403 19:39:25.541646  9504 net.cpp:141] Setting up inception_3a/relu_5x5_reduce
I0403 19:39:25.541674  9504 net.cpp:148] Top shape: 24 16 28 28 (301056)
I0403 19:39:25.541693  9504 net.cpp:156] Memory required for data: 537084960
I0403 19:39:25.541710  9504 layer_factory.hpp:77] Creating layer inception_3a/5x5
I0403 19:39:25.541735  9504 net.cpp:91] Creating Layer inception_3a/5x5
I0403 19:39:25.541756  9504 net.cpp:425] inception_3a/5x5 <- inception_3a/5x5_reduce
I0403 19:39:25.541782  9504 net.cpp:399] inception_3a/5x5 -> inception_3a/5x5
I0403 19:39:25.542843  9504 net.cpp:141] Setting up inception_3a/5x5
I0403 19:39:25.542878  9504 net.cpp:148] Top shape: 24 32 28 28 (602112)
I0403 19:39:25.542897  9504 net.cpp:156] Memory required for data: 539493408
I0403 19:39:25.542918  9504 layer_factory.hpp:77] Creating layer inception_3a/relu_5x5
I0403 19:39:25.542940  9504 net.cpp:91] Creating Layer inception_3a/relu_5x5
I0403 19:39:25.542963  9504 net.cpp:425] inception_3a/relu_5x5 <- inception_3a/5x5
I0403 19:39:25.542984  9504 net.cpp:386] inception_3a/relu_5x5 -> inception_3a/5x5 (in-place)
I0403 19:39:25.543174  9504 net.cpp:141] Setting up inception_3a/relu_5x5
I0403 19:39:25.543215  9504 net.cpp:148] Top shape: 24 32 28 28 (602112)
I0403 19:39:25.543233  9504 net.cpp:156] Memory required for data: 541901856
I0403 19:39:25.543251  9504 layer_factory.hpp:77] Creating layer inception_3a/pool
I0403 19:39:25.543273  9504 net.cpp:91] Creating Layer inception_3a/pool
I0403 19:39:25.543316  9504 net.cpp:425] inception_3a/pool <- pool2/3x3_s2_pool2/3x3_s2_0_split_3
I0403 19:39:25.543339  9504 net.cpp:399] inception_3a/pool -> inception_3a/pool
I0403 19:39:25.543402  9504 net.cpp:141] Setting up inception_3a/pool
I0403 19:39:25.543429  9504 net.cpp:148] Top shape: 24 192 28 28 (3612672)
I0403 19:39:25.543445  9504 net.cpp:156] Memory required for data: 556352544
I0403 19:39:25.543462  9504 layer_factory.hpp:77] Creating layer inception_3a/pool_proj
I0403 19:39:25.543486  9504 net.cpp:91] Creating Layer inception_3a/pool_proj
I0403 19:39:25.543506  9504 net.cpp:425] inception_3a/pool_proj <- inception_3a/pool
I0403 19:39:25.543531  9504 net.cpp:399] inception_3a/pool_proj -> inception_3a/pool_proj
I0403 19:39:25.544546  9504 net.cpp:141] Setting up inception_3a/pool_proj
I0403 19:39:25.544586  9504 net.cpp:148] Top shape: 24 32 28 28 (602112)
I0403 19:39:25.544605  9504 net.cpp:156] Memory required for data: 558760992
I0403 19:39:25.544634  9504 layer_factory.hpp:77] Creating layer inception_3a/relu_pool_proj
I0403 19:39:25.544657  9504 net.cpp:91] Creating Layer inception_3a/relu_pool_proj
I0403 19:39:25.544675  9504 net.cpp:425] inception_3a/relu_pool_proj <- inception_3a/pool_proj
I0403 19:39:25.544697  9504 net.cpp:386] inception_3a/relu_pool_proj -> inception_3a/pool_proj (in-place)
I0403 19:39:25.545033  9504 net.cpp:141] Setting up inception_3a/relu_pool_proj
I0403 19:39:25.545094  9504 net.cpp:148] Top shape: 24 32 28 28 (602112)
I0403 19:39:25.545126  9504 net.cpp:156] Memory required for data: 561169440
I0403 19:39:25.545193  9504 layer_factory.hpp:77] Creating layer inception_3a/output
I0403 19:39:25.545253  9504 net.cpp:91] Creating Layer inception_3a/output
I0403 19:39:25.545296  9504 net.cpp:425] inception_3a/output <- inception_3a/1x1
I0403 19:39:25.545346  9504 net.cpp:425] inception_3a/output <- inception_3a/3x3
I0403 19:39:25.545366  9504 net.cpp:425] inception_3a/output <- inception_3a/5x5
I0403 19:39:25.545384  9504 net.cpp:425] inception_3a/output <- inception_3a/pool_proj
I0403 19:39:25.545408  9504 net.cpp:399] inception_3a/output -> inception_3a/output
I0403 19:39:25.545460  9504 net.cpp:141] Setting up inception_3a/output
I0403 19:39:25.545492  9504 net.cpp:148] Top shape: 24 256 28 28 (4816896)
I0403 19:39:25.545511  9504 net.cpp:156] Memory required for data: 580437024
I0403 19:39:25.545528  9504 layer_factory.hpp:77] Creating layer inception_3a/output_inception_3a/output_0_split
I0403 19:39:25.545549  9504 net.cpp:91] Creating Layer inception_3a/output_inception_3a/output_0_split
I0403 19:39:25.545567  9504 net.cpp:425] inception_3a/output_inception_3a/output_0_split <- inception_3a/output
I0403 19:39:25.545589  9504 net.cpp:399] inception_3a/output_inception_3a/output_0_split -> inception_3a/output_inception_3a/output_0_split_0
I0403 19:39:25.545613  9504 net.cpp:399] inception_3a/output_inception_3a/output_0_split -> inception_3a/output_inception_3a/output_0_split_1
I0403 19:39:25.545649  9504 net.cpp:399] inception_3a/output_inception_3a/output_0_split -> inception_3a/output_inception_3a/output_0_split_2
I0403 19:39:25.545676  9504 net.cpp:399] inception_3a/output_inception_3a/output_0_split -> inception_3a/output_inception_3a/output_0_split_3
I0403 19:39:25.545754  9504 net.cpp:141] Setting up inception_3a/output_inception_3a/output_0_split
I0403 19:39:25.545781  9504 net.cpp:148] Top shape: 24 256 28 28 (4816896)
I0403 19:39:25.545800  9504 net.cpp:148] Top shape: 24 256 28 28 (4816896)
I0403 19:39:25.545819  9504 net.cpp:148] Top shape: 24 256 28 28 (4816896)
I0403 19:39:25.545838  9504 net.cpp:148] Top shape: 24 256 28 28 (4816896)
I0403 19:39:25.545855  9504 net.cpp:156] Memory required for data: 657507360
I0403 19:39:25.545872  9504 layer_factory.hpp:77] Creating layer inception_3b/1x1
I0403 19:39:25.545897  9504 net.cpp:91] Creating Layer inception_3b/1x1
I0403 19:39:25.545917  9504 net.cpp:425] inception_3b/1x1 <- inception_3a/output_inception_3a/output_0_split_0
I0403 19:39:25.545939  9504 net.cpp:399] inception_3b/1x1 -> inception_3b/1x1
I0403 19:39:25.547152  9504 net.cpp:141] Setting up inception_3b/1x1
I0403 19:39:25.547201  9504 net.cpp:148] Top shape: 24 128 28 28 (2408448)
I0403 19:39:25.547219  9504 net.cpp:156] Memory required for data: 667141152
I0403 19:39:25.547240  9504 layer_factory.hpp:77] Creating layer inception_3b/relu_1x1
I0403 19:39:25.547262  9504 net.cpp:91] Creating Layer inception_3b/relu_1x1
I0403 19:39:25.547281  9504 net.cpp:425] inception_3b/relu_1x1 <- inception_3b/1x1
I0403 19:39:25.547299  9504 net.cpp:386] inception_3b/relu_1x1 -> inception_3b/1x1 (in-place)
I0403 19:39:25.547484  9504 net.cpp:141] Setting up inception_3b/relu_1x1
I0403 19:39:25.547511  9504 net.cpp:148] Top shape: 24 128 28 28 (2408448)
I0403 19:39:25.547529  9504 net.cpp:156] Memory required for data: 676774944
I0403 19:39:25.547546  9504 layer_factory.hpp:77] Creating layer inception_3b/3x3_reduce
I0403 19:39:25.547572  9504 net.cpp:91] Creating Layer inception_3b/3x3_reduce
I0403 19:39:25.547593  9504 net.cpp:425] inception_3b/3x3_reduce <- inception_3a/output_inception_3a/output_0_split_1
I0403 19:39:25.547619  9504 net.cpp:399] inception_3b/3x3_reduce -> inception_3b/3x3_reduce
I0403 19:39:25.548816  9504 net.cpp:141] Setting up inception_3b/3x3_reduce
I0403 19:39:25.548851  9504 net.cpp:148] Top shape: 24 128 28 28 (2408448)
I0403 19:39:25.548871  9504 net.cpp:156] Memory required for data: 686408736
I0403 19:39:25.548893  9504 layer_factory.hpp:77] Creating layer inception_3b/relu_3x3_reduce
I0403 19:39:25.548914  9504 net.cpp:91] Creating Layer inception_3b/relu_3x3_reduce
I0403 19:39:25.548931  9504 net.cpp:425] inception_3b/relu_3x3_reduce <- inception_3b/3x3_reduce
I0403 19:39:25.548950  9504 net.cpp:386] inception_3b/relu_3x3_reduce -> inception_3b/3x3_reduce (in-place)
I0403 19:39:25.549137  9504 net.cpp:141] Setting up inception_3b/relu_3x3_reduce
I0403 19:39:25.549167  9504 net.cpp:148] Top shape: 24 128 28 28 (2408448)
I0403 19:39:25.549192  9504 net.cpp:156] Memory required for data: 696042528
I0403 19:39:25.549211  9504 layer_factory.hpp:77] Creating layer inception_3b/3x3
I0403 19:39:25.549242  9504 net.cpp:91] Creating Layer inception_3b/3x3
I0403 19:39:25.549263  9504 net.cpp:425] inception_3b/3x3 <- inception_3b/3x3_reduce
I0403 19:39:25.549286  9504 net.cpp:399] inception_3b/3x3 -> inception_3b/3x3
I0403 19:39:25.552392  9504 net.cpp:141] Setting up inception_3b/3x3
I0403 19:39:25.552429  9504 net.cpp:148] Top shape: 24 192 28 28 (3612672)
I0403 19:39:25.552448  9504 net.cpp:156] Memory required for data: 710493216
I0403 19:39:25.552469  9504 layer_factory.hpp:77] Creating layer inception_3b/relu_3x3
I0403 19:39:25.552490  9504 net.cpp:91] Creating Layer inception_3b/relu_3x3
I0403 19:39:25.552510  9504 net.cpp:425] inception_3b/relu_3x3 <- inception_3b/3x3
I0403 19:39:25.552531  9504 net.cpp:386] inception_3b/relu_3x3 -> inception_3b/3x3 (in-place)
I0403 19:39:25.552822  9504 net.cpp:141] Setting up inception_3b/relu_3x3
I0403 19:39:25.552877  9504 net.cpp:148] Top shape: 24 192 28 28 (3612672)
I0403 19:39:25.552896  9504 net.cpp:156] Memory required for data: 724943904
I0403 19:39:25.552912  9504 layer_factory.hpp:77] Creating layer inception_3b/5x5_reduce
I0403 19:39:25.552937  9504 net.cpp:91] Creating Layer inception_3b/5x5_reduce
I0403 19:39:25.552956  9504 net.cpp:425] inception_3b/5x5_reduce <- inception_3a/output_inception_3a/output_0_split_2
I0403 19:39:25.552983  9504 net.cpp:399] inception_3b/5x5_reduce -> inception_3b/5x5_reduce
I0403 19:39:25.554038  9504 net.cpp:141] Setting up inception_3b/5x5_reduce
I0403 19:39:25.554069  9504 net.cpp:148] Top shape: 24 32 28 28 (602112)
I0403 19:39:25.554088  9504 net.cpp:156] Memory required for data: 727352352
I0403 19:39:25.554116  9504 layer_factory.hpp:77] Creating layer inception_3b/relu_5x5_reduce
I0403 19:39:25.554149  9504 net.cpp:91] Creating Layer inception_3b/relu_5x5_reduce
I0403 19:39:25.554247  9504 net.cpp:425] inception_3b/relu_5x5_reduce <- inception_3b/5x5_reduce
I0403 19:39:25.554281  9504 net.cpp:386] inception_3b/relu_5x5_reduce -> inception_3b/5x5_reduce (in-place)
I0403 19:39:25.554502  9504 net.cpp:141] Setting up inception_3b/relu_5x5_reduce
I0403 19:39:25.554530  9504 net.cpp:148] Top shape: 24 32 28 28 (602112)
I0403 19:39:25.554548  9504 net.cpp:156] Memory required for data: 729760800
I0403 19:39:25.554565  9504 layer_factory.hpp:77] Creating layer inception_3b/5x5
I0403 19:39:25.554591  9504 net.cpp:91] Creating Layer inception_3b/5x5
I0403 19:39:25.554610  9504 net.cpp:425] inception_3b/5x5 <- inception_3b/5x5_reduce
I0403 19:39:25.554636  9504 net.cpp:399] inception_3b/5x5 -> inception_3b/5x5
I0403 19:39:25.556749  9504 net.cpp:141] Setting up inception_3b/5x5
I0403 19:39:25.556787  9504 net.cpp:148] Top shape: 24 96 28 28 (1806336)
I0403 19:39:25.556804  9504 net.cpp:156] Memory required for data: 736986144
I0403 19:39:25.556825  9504 layer_factory.hpp:77] Creating layer inception_3b/relu_5x5
I0403 19:39:25.556846  9504 net.cpp:91] Creating Layer inception_3b/relu_5x5
I0403 19:39:25.556864  9504 net.cpp:425] inception_3b/relu_5x5 <- inception_3b/5x5
I0403 19:39:25.556882  9504 net.cpp:386] inception_3b/relu_5x5 -> inception_3b/5x5 (in-place)
I0403 19:39:25.557096  9504 net.cpp:141] Setting up inception_3b/relu_5x5
I0403 19:39:25.557124  9504 net.cpp:148] Top shape: 24 96 28 28 (1806336)
I0403 19:39:25.557142  9504 net.cpp:156] Memory required for data: 744211488
I0403 19:39:25.557163  9504 layer_factory.hpp:77] Creating layer inception_3b/pool
I0403 19:39:25.557186  9504 net.cpp:91] Creating Layer inception_3b/pool
I0403 19:39:25.557206  9504 net.cpp:425] inception_3b/pool <- inception_3a/output_inception_3a/output_0_split_3
I0403 19:39:25.557226  9504 net.cpp:399] inception_3b/pool -> inception_3b/pool
I0403 19:39:25.557296  9504 net.cpp:141] Setting up inception_3b/pool
I0403 19:39:25.557325  9504 net.cpp:148] Top shape: 24 256 28 28 (4816896)
I0403 19:39:25.557343  9504 net.cpp:156] Memory required for data: 763479072
I0403 19:39:25.557359  9504 layer_factory.hpp:77] Creating layer inception_3b/pool_proj
I0403 19:39:25.557385  9504 net.cpp:91] Creating Layer inception_3b/pool_proj
I0403 19:39:25.557406  9504 net.cpp:425] inception_3b/pool_proj <- inception_3b/pool
I0403 19:39:25.557428  9504 net.cpp:399] inception_3b/pool_proj -> inception_3b/pool_proj
I0403 19:39:25.558537  9504 net.cpp:141] Setting up inception_3b/pool_proj
I0403 19:39:25.558568  9504 net.cpp:148] Top shape: 24 64 28 28 (1204224)
I0403 19:39:25.558588  9504 net.cpp:156] Memory required for data: 768295968
I0403 19:39:25.558609  9504 layer_factory.hpp:77] Creating layer inception_3b/relu_pool_proj
I0403 19:39:25.558632  9504 net.cpp:91] Creating Layer inception_3b/relu_pool_proj
I0403 19:39:25.558652  9504 net.cpp:425] inception_3b/relu_pool_proj <- inception_3b/pool_proj
I0403 19:39:25.558671  9504 net.cpp:386] inception_3b/relu_pool_proj -> inception_3b/pool_proj (in-place)
I0403 19:39:25.559084  9504 net.cpp:141] Setting up inception_3b/relu_pool_proj
I0403 19:39:25.559114  9504 net.cpp:148] Top shape: 24 64 28 28 (1204224)
I0403 19:39:25.559133  9504 net.cpp:156] Memory required for data: 773112864
I0403 19:39:25.559149  9504 layer_factory.hpp:77] Creating layer inception_3b/output
I0403 19:39:25.559171  9504 net.cpp:91] Creating Layer inception_3b/output
I0403 19:39:25.559195  9504 net.cpp:425] inception_3b/output <- inception_3b/1x1
I0403 19:39:25.559214  9504 net.cpp:425] inception_3b/output <- inception_3b/3x3
I0403 19:39:25.559232  9504 net.cpp:425] inception_3b/output <- inception_3b/5x5
I0403 19:39:25.559250  9504 net.cpp:425] inception_3b/output <- inception_3b/pool_proj
I0403 19:39:25.559275  9504 net.cpp:399] inception_3b/output -> inception_3b/output
I0403 19:39:25.559325  9504 net.cpp:141] Setting up inception_3b/output
I0403 19:39:25.559353  9504 net.cpp:148] Top shape: 24 480 28 28 (9031680)
I0403 19:39:25.559372  9504 net.cpp:156] Memory required for data: 809239584
I0403 19:39:25.559389  9504 layer_factory.hpp:77] Creating layer pool3/3x3_s2
I0403 19:39:25.559411  9504 net.cpp:91] Creating Layer pool3/3x3_s2
I0403 19:39:25.559428  9504 net.cpp:425] pool3/3x3_s2 <- inception_3b/output
I0403 19:39:25.559476  9504 net.cpp:399] pool3/3x3_s2 -> pool3/3x3_s2
I0403 19:39:25.559538  9504 net.cpp:141] Setting up pool3/3x3_s2
I0403 19:39:25.559566  9504 net.cpp:148] Top shape: 24 480 14 14 (2257920)
I0403 19:39:25.559582  9504 net.cpp:156] Memory required for data: 818271264
I0403 19:39:25.559608  9504 layer_factory.hpp:77] Creating layer pool3/3x3_s2_pool3/3x3_s2_0_split
I0403 19:39:25.559639  9504 net.cpp:91] Creating Layer pool3/3x3_s2_pool3/3x3_s2_0_split
I0403 19:39:25.559659  9504 net.cpp:425] pool3/3x3_s2_pool3/3x3_s2_0_split <- pool3/3x3_s2
I0403 19:39:25.559679  9504 net.cpp:399] pool3/3x3_s2_pool3/3x3_s2_0_split -> pool3/3x3_s2_pool3/3x3_s2_0_split_0
I0403 19:39:25.559701  9504 net.cpp:399] pool3/3x3_s2_pool3/3x3_s2_0_split -> pool3/3x3_s2_pool3/3x3_s2_0_split_1
I0403 19:39:25.559725  9504 net.cpp:399] pool3/3x3_s2_pool3/3x3_s2_0_split -> pool3/3x3_s2_pool3/3x3_s2_0_split_2
I0403 19:39:25.559748  9504 net.cpp:399] pool3/3x3_s2_pool3/3x3_s2_0_split -> pool3/3x3_s2_pool3/3x3_s2_0_split_3
I0403 19:39:25.559830  9504 net.cpp:141] Setting up pool3/3x3_s2_pool3/3x3_s2_0_split
I0403 19:39:25.559856  9504 net.cpp:148] Top shape: 24 480 14 14 (2257920)
I0403 19:39:25.559875  9504 net.cpp:148] Top shape: 24 480 14 14 (2257920)
I0403 19:39:25.559895  9504 net.cpp:148] Top shape: 24 480 14 14 (2257920)
I0403 19:39:25.559914  9504 net.cpp:148] Top shape: 24 480 14 14 (2257920)
I0403 19:39:25.559931  9504 net.cpp:156] Memory required for data: 854397984
I0403 19:39:25.559947  9504 layer_factory.hpp:77] Creating layer inception_4a/1x1
I0403 19:39:25.559972  9504 net.cpp:91] Creating Layer inception_4a/1x1
I0403 19:39:25.559991  9504 net.cpp:425] inception_4a/1x1 <- pool3/3x3_s2_pool3/3x3_s2_0_split_0
I0403 19:39:25.560016  9504 net.cpp:399] inception_4a/1x1 -> inception_4a/1x1
I0403 19:39:25.561702  9504 net.cpp:141] Setting up inception_4a/1x1
I0403 19:39:25.561733  9504 net.cpp:148] Top shape: 24 192 14 14 (903168)
I0403 19:39:25.561749  9504 net.cpp:156] Memory required for data: 858010656
I0403 19:39:25.561769  9504 layer_factory.hpp:77] Creating layer inception_4a/relu_1x1
I0403 19:39:25.561791  9504 net.cpp:91] Creating Layer inception_4a/relu_1x1
I0403 19:39:25.561808  9504 net.cpp:425] inception_4a/relu_1x1 <- inception_4a/1x1
I0403 19:39:25.561827  9504 net.cpp:386] inception_4a/relu_1x1 -> inception_4a/1x1 (in-place)
I0403 19:39:25.562017  9504 net.cpp:141] Setting up inception_4a/relu_1x1
I0403 19:39:25.562047  9504 net.cpp:148] Top shape: 24 192 14 14 (903168)
I0403 19:39:25.562063  9504 net.cpp:156] Memory required for data: 861623328
I0403 19:39:25.562079  9504 layer_factory.hpp:77] Creating layer inception_4a/3x3_reduce
I0403 19:39:25.562103  9504 net.cpp:91] Creating Layer inception_4a/3x3_reduce
I0403 19:39:25.562120  9504 net.cpp:425] inception_4a/3x3_reduce <- pool3/3x3_s2_pool3/3x3_s2_0_split_1
I0403 19:39:25.562140  9504 net.cpp:399] inception_4a/3x3_reduce -> inception_4a/3x3_reduce
I0403 19:39:25.563500  9504 net.cpp:141] Setting up inception_4a/3x3_reduce
I0403 19:39:25.563531  9504 net.cpp:148] Top shape: 24 96 14 14 (451584)
I0403 19:39:25.563550  9504 net.cpp:156] Memory required for data: 863429664
I0403 19:39:25.563580  9504 layer_factory.hpp:77] Creating layer inception_4a/relu_3x3_reduce
I0403 19:39:25.563604  9504 net.cpp:91] Creating Layer inception_4a/relu_3x3_reduce
I0403 19:39:25.563624  9504 net.cpp:425] inception_4a/relu_3x3_reduce <- inception_4a/3x3_reduce
I0403 19:39:25.563644  9504 net.cpp:386] inception_4a/relu_3x3_reduce -> inception_4a/3x3_reduce (in-place)
I0403 19:39:25.563829  9504 net.cpp:141] Setting up inception_4a/relu_3x3_reduce
I0403 19:39:25.563856  9504 net.cpp:148] Top shape: 24 96 14 14 (451584)
I0403 19:39:25.563873  9504 net.cpp:156] Memory required for data: 865236000
I0403 19:39:25.563891  9504 layer_factory.hpp:77] Creating layer inception_4a/3x3
I0403 19:39:25.563918  9504 net.cpp:91] Creating Layer inception_4a/3x3
I0403 19:39:25.563940  9504 net.cpp:425] inception_4a/3x3 <- inception_4a/3x3_reduce
I0403 19:39:25.563962  9504 net.cpp:399] inception_4a/3x3 -> inception_4a/3x3
I0403 19:39:25.566917  9504 net.cpp:141] Setting up inception_4a/3x3
I0403 19:39:25.566953  9504 net.cpp:148] Top shape: 24 208 14 14 (978432)
I0403 19:39:25.566973  9504 net.cpp:156] Memory required for data: 869149728
I0403 19:39:25.566997  9504 layer_factory.hpp:77] Creating layer inception_4a/relu_3x3
I0403 19:39:25.567018  9504 net.cpp:91] Creating Layer inception_4a/relu_3x3
I0403 19:39:25.567034  9504 net.cpp:425] inception_4a/relu_3x3 <- inception_4a/3x3
I0403 19:39:25.567054  9504 net.cpp:386] inception_4a/relu_3x3 -> inception_4a/3x3 (in-place)
I0403 19:39:25.567353  9504 net.cpp:141] Setting up inception_4a/relu_3x3
I0403 19:39:25.567385  9504 net.cpp:148] Top shape: 24 208 14 14 (978432)
I0403 19:39:25.567405  9504 net.cpp:156] Memory required for data: 873063456
I0403 19:39:25.567422  9504 layer_factory.hpp:77] Creating layer inception_4a/5x5_reduce
I0403 19:39:25.567448  9504 net.cpp:91] Creating Layer inception_4a/5x5_reduce
I0403 19:39:25.567469  9504 net.cpp:425] inception_4a/5x5_reduce <- pool3/3x3_s2_pool3/3x3_s2_0_split_2
I0403 19:39:25.567490  9504 net.cpp:399] inception_4a/5x5_reduce -> inception_4a/5x5_reduce
I0403 19:39:25.568578  9504 net.cpp:141] Setting up inception_4a/5x5_reduce
I0403 19:39:25.568611  9504 net.cpp:148] Top shape: 24 16 14 14 (75264)
I0403 19:39:25.568631  9504 net.cpp:156] Memory required for data: 873364512
I0403 19:39:25.568653  9504 layer_factory.hpp:77] Creating layer inception_4a/relu_5x5_reduce
I0403 19:39:25.568675  9504 net.cpp:91] Creating Layer inception_4a/relu_5x5_reduce
I0403 19:39:25.568693  9504 net.cpp:425] inception_4a/relu_5x5_reduce <- inception_4a/5x5_reduce
I0403 19:39:25.568734  9504 net.cpp:386] inception_4a/relu_5x5_reduce -> inception_4a/5x5_reduce (in-place)
I0403 19:39:25.568928  9504 net.cpp:141] Setting up inception_4a/relu_5x5_reduce
I0403 19:39:25.568955  9504 net.cpp:148] Top shape: 24 16 14 14 (75264)
I0403 19:39:25.568974  9504 net.cpp:156] Memory required for data: 873665568
I0403 19:39:25.568992  9504 layer_factory.hpp:77] Creating layer inception_4a/5x5
I0403 19:39:25.569017  9504 net.cpp:91] Creating Layer inception_4a/5x5
I0403 19:39:25.569039  9504 net.cpp:425] inception_4a/5x5 <- inception_4a/5x5_reduce
I0403 19:39:25.569064  9504 net.cpp:399] inception_4a/5x5 -> inception_4a/5x5
I0403 19:39:25.570230  9504 net.cpp:141] Setting up inception_4a/5x5
I0403 19:39:25.570262  9504 net.cpp:148] Top shape: 24 48 14 14 (225792)
I0403 19:39:25.570281  9504 net.cpp:156] Memory required for data: 874568736
I0403 19:39:25.570303  9504 layer_factory.hpp:77] Creating layer inception_4a/relu_5x5
I0403 19:39:25.570327  9504 net.cpp:91] Creating Layer inception_4a/relu_5x5
I0403 19:39:25.570346  9504 net.cpp:425] inception_4a/relu_5x5 <- inception_4a/5x5
I0403 19:39:25.570366  9504 net.cpp:386] inception_4a/relu_5x5 -> inception_4a/5x5 (in-place)
I0403 19:39:25.570559  9504 net.cpp:141] Setting up inception_4a/relu_5x5
I0403 19:39:25.570600  9504 net.cpp:148] Top shape: 24 48 14 14 (225792)
I0403 19:39:25.570619  9504 net.cpp:156] Memory required for data: 875471904
I0403 19:39:25.570638  9504 layer_factory.hpp:77] Creating layer inception_4a/pool
I0403 19:39:25.570664  9504 net.cpp:91] Creating Layer inception_4a/pool
I0403 19:39:25.570684  9504 net.cpp:425] inception_4a/pool <- pool3/3x3_s2_pool3/3x3_s2_0_split_3
I0403 19:39:25.570706  9504 net.cpp:399] inception_4a/pool -> inception_4a/pool
I0403 19:39:25.570777  9504 net.cpp:141] Setting up inception_4a/pool
I0403 19:39:25.570803  9504 net.cpp:148] Top shape: 24 480 14 14 (2257920)
I0403 19:39:25.570822  9504 net.cpp:156] Memory required for data: 884503584
I0403 19:39:25.570838  9504 layer_factory.hpp:77] Creating layer inception_4a/pool_proj
I0403 19:39:25.570863  9504 net.cpp:91] Creating Layer inception_4a/pool_proj
I0403 19:39:25.570884  9504 net.cpp:425] inception_4a/pool_proj <- inception_4a/pool
I0403 19:39:25.570907  9504 net.cpp:399] inception_4a/pool_proj -> inception_4a/pool_proj
I0403 19:39:25.572152  9504 net.cpp:141] Setting up inception_4a/pool_proj
I0403 19:39:25.572190  9504 net.cpp:148] Top shape: 24 64 14 14 (301056)
I0403 19:39:25.572237  9504 net.cpp:156] Memory required for data: 885707808
I0403 19:39:25.572259  9504 layer_factory.hpp:77] Creating layer inception_4a/relu_pool_proj
I0403 19:39:25.572283  9504 net.cpp:91] Creating Layer inception_4a/relu_pool_proj
I0403 19:39:25.572304  9504 net.cpp:425] inception_4a/relu_pool_proj <- inception_4a/pool_proj
I0403 19:39:25.572325  9504 net.cpp:386] inception_4a/relu_pool_proj -> inception_4a/pool_proj (in-place)
I0403 19:39:25.572623  9504 net.cpp:141] Setting up inception_4a/relu_pool_proj
I0403 19:39:25.572664  9504 net.cpp:148] Top shape: 24 64 14 14 (301056)
I0403 19:39:25.572685  9504 net.cpp:156] Memory required for data: 886912032
I0403 19:39:25.572718  9504 layer_factory.hpp:77] Creating layer inception_4a/output
I0403 19:39:25.572739  9504 net.cpp:91] Creating Layer inception_4a/output
I0403 19:39:25.572757  9504 net.cpp:425] inception_4a/output <- inception_4a/1x1
I0403 19:39:25.572779  9504 net.cpp:425] inception_4a/output <- inception_4a/3x3
I0403 19:39:25.572799  9504 net.cpp:425] inception_4a/output <- inception_4a/5x5
I0403 19:39:25.572818  9504 net.cpp:425] inception_4a/output <- inception_4a/pool_proj
I0403 19:39:25.572836  9504 net.cpp:399] inception_4a/output -> inception_4a/output
I0403 19:39:25.572887  9504 net.cpp:141] Setting up inception_4a/output
I0403 19:39:25.572911  9504 net.cpp:148] Top shape: 24 512 14 14 (2408448)
I0403 19:39:25.572927  9504 net.cpp:156] Memory required for data: 896545824
I0403 19:39:25.572944  9504 layer_factory.hpp:77] Creating layer inception_4a/output_inception_4a/output_0_split
I0403 19:39:25.572964  9504 net.cpp:91] Creating Layer inception_4a/output_inception_4a/output_0_split
I0403 19:39:25.572983  9504 net.cpp:425] inception_4a/output_inception_4a/output_0_split <- inception_4a/output
I0403 19:39:25.573011  9504 net.cpp:399] inception_4a/output_inception_4a/output_0_split -> inception_4a/output_inception_4a/output_0_split_0
I0403 19:39:25.573035  9504 net.cpp:399] inception_4a/output_inception_4a/output_0_split -> inception_4a/output_inception_4a/output_0_split_1
I0403 19:39:25.573060  9504 net.cpp:399] inception_4a/output_inception_4a/output_0_split -> inception_4a/output_inception_4a/output_0_split_2
I0403 19:39:25.573081  9504 net.cpp:399] inception_4a/output_inception_4a/output_0_split -> inception_4a/output_inception_4a/output_0_split_3
I0403 19:39:25.573104  9504 net.cpp:399] inception_4a/output_inception_4a/output_0_split -> inception_4a/output_inception_4a/output_0_split_4
I0403 19:39:25.573220  9504 net.cpp:141] Setting up inception_4a/output_inception_4a/output_0_split
I0403 19:39:25.573246  9504 net.cpp:148] Top shape: 24 512 14 14 (2408448)
I0403 19:39:25.573264  9504 net.cpp:148] Top shape: 24 512 14 14 (2408448)
I0403 19:39:25.573283  9504 net.cpp:148] Top shape: 24 512 14 14 (2408448)
I0403 19:39:25.573302  9504 net.cpp:148] Top shape: 24 512 14 14 (2408448)
I0403 19:39:25.573321  9504 net.cpp:148] Top shape: 24 512 14 14 (2408448)
I0403 19:39:25.573338  9504 net.cpp:156] Memory required for data: 944714784
I0403 19:39:25.573354  9504 layer_factory.hpp:77] Creating layer loss1/ave_pool
I0403 19:39:25.573375  9504 net.cpp:91] Creating Layer loss1/ave_pool
I0403 19:39:25.573395  9504 net.cpp:425] loss1/ave_pool <- inception_4a/output_inception_4a/output_0_split_0
I0403 19:39:25.573418  9504 net.cpp:399] loss1/ave_pool -> loss1/ave_pool
I0403 19:39:25.573644  9504 net.cpp:141] Setting up loss1/ave_pool
I0403 19:39:25.573673  9504 net.cpp:148] Top shape: 24 512 4 4 (196608)
I0403 19:39:25.573690  9504 net.cpp:156] Memory required for data: 945501216
I0403 19:39:25.573707  9504 layer_factory.hpp:77] Creating layer loss1/conv
I0403 19:39:25.573732  9504 net.cpp:91] Creating Layer loss1/conv
I0403 19:39:25.573751  9504 net.cpp:425] loss1/conv <- loss1/ave_pool
I0403 19:39:25.573773  9504 net.cpp:399] loss1/conv -> loss1/conv
I0403 19:39:25.575287  9504 net.cpp:141] Setting up loss1/conv
I0403 19:39:25.575321  9504 net.cpp:148] Top shape: 24 128 4 4 (49152)
I0403 19:39:25.575355  9504 net.cpp:156] Memory required for data: 945697824
I0403 19:39:25.575377  9504 layer_factory.hpp:77] Creating layer loss1/relu_conv
I0403 19:39:25.575398  9504 net.cpp:91] Creating Layer loss1/relu_conv
I0403 19:39:25.575417  9504 net.cpp:425] loss1/relu_conv <- loss1/conv
I0403 19:39:25.575435  9504 net.cpp:386] loss1/relu_conv -> loss1/conv (in-place)
I0403 19:39:25.575767  9504 net.cpp:141] Setting up loss1/relu_conv
I0403 19:39:25.575798  9504 net.cpp:148] Top shape: 24 128 4 4 (49152)
I0403 19:39:25.575815  9504 net.cpp:156] Memory required for data: 945894432
I0403 19:39:25.575832  9504 layer_factory.hpp:77] Creating layer loss1/fc
I0403 19:39:25.575860  9504 net.cpp:91] Creating Layer loss1/fc
I0403 19:39:25.575878  9504 net.cpp:425] loss1/fc <- loss1/conv
I0403 19:39:25.575901  9504 net.cpp:399] loss1/fc -> loss1/fc
I0403 19:39:25.594935  9504 net.cpp:141] Setting up loss1/fc
I0403 19:39:25.594998  9504 net.cpp:148] Top shape: 24 1024 (24576)
I0403 19:39:25.595017  9504 net.cpp:156] Memory required for data: 945992736
I0403 19:39:25.595042  9504 layer_factory.hpp:77] Creating layer loss1/relu_fc
I0403 19:39:25.595068  9504 net.cpp:91] Creating Layer loss1/relu_fc
I0403 19:39:25.595089  9504 net.cpp:425] loss1/relu_fc <- loss1/fc
I0403 19:39:25.595113  9504 net.cpp:386] loss1/relu_fc -> loss1/fc (in-place)
I0403 19:39:25.595377  9504 net.cpp:141] Setting up loss1/relu_fc
I0403 19:39:25.595408  9504 net.cpp:148] Top shape: 24 1024 (24576)
I0403 19:39:25.595428  9504 net.cpp:156] Memory required for data: 946091040
I0403 19:39:25.595444  9504 layer_factory.hpp:77] Creating layer loss1/drop_fc
I0403 19:39:25.595476  9504 net.cpp:91] Creating Layer loss1/drop_fc
I0403 19:39:25.595494  9504 net.cpp:425] loss1/drop_fc <- loss1/fc
I0403 19:39:25.595515  9504 net.cpp:386] loss1/drop_fc -> loss1/fc (in-place)
I0403 19:39:25.595577  9504 net.cpp:141] Setting up loss1/drop_fc
I0403 19:39:25.595602  9504 net.cpp:148] Top shape: 24 1024 (24576)
I0403 19:39:25.617477  9504 net.cpp:156] Memory required for data: 946189344
I0403 19:39:25.617497  9504 layer_factory.hpp:77] Creating layer loss1/classifier_plantvillage
I0403 19:39:25.617527  9504 net.cpp:91] Creating Layer loss1/classifier_plantvillage
I0403 19:39:25.617547  9504 net.cpp:425] loss1/classifier_plantvillage <- loss1/fc
I0403 19:39:25.617568  9504 net.cpp:399] loss1/classifier_plantvillage -> loss1/classifier_plantvillage
I0403 19:39:25.618644  9504 net.cpp:141] Setting up loss1/classifier_plantvillage
I0403 19:39:25.618680  9504 net.cpp:148] Top shape: 24 38 (912)
I0403 19:39:25.618697  9504 net.cpp:156] Memory required for data: 946192992
I0403 19:39:25.618717  9504 layer_factory.hpp:77] Creating layer loss1/classifier_plantvillage_loss1/classifier_plantvillage_0_split
I0403 19:39:25.618738  9504 net.cpp:91] Creating Layer loss1/classifier_plantvillage_loss1/classifier_plantvillage_0_split
I0403 19:39:25.618755  9504 net.cpp:425] loss1/classifier_plantvillage_loss1/classifier_plantvillage_0_split <- loss1/classifier_plantvillage
I0403 19:39:25.618773  9504 net.cpp:399] loss1/classifier_plantvillage_loss1/classifier_plantvillage_0_split -> loss1/classifier_plantvillage_loss1/classifier_plantvillage_0_split_0
I0403 19:39:25.618795  9504 net.cpp:399] loss1/classifier_plantvillage_loss1/classifier_plantvillage_0_split -> loss1/classifier_plantvillage_loss1/classifier_plantvillage_0_split_1
I0403 19:39:25.618818  9504 net.cpp:399] loss1/classifier_plantvillage_loss1/classifier_plantvillage_0_split -> loss1/classifier_plantvillage_loss1/classifier_plantvillage_0_split_2
I0403 19:39:25.618891  9504 net.cpp:141] Setting up loss1/classifier_plantvillage_loss1/classifier_plantvillage_0_split
I0403 19:39:25.618916  9504 net.cpp:148] Top shape: 24 38 (912)
I0403 19:39:25.618933  9504 net.cpp:148] Top shape: 24 38 (912)
I0403 19:39:25.618950  9504 net.cpp:148] Top shape: 24 38 (912)
I0403 19:39:25.618965  9504 net.cpp:156] Memory required for data: 946203936
I0403 19:39:25.618981  9504 layer_factory.hpp:77] Creating layer inception_4b/1x1
I0403 19:39:25.619005  9504 net.cpp:91] Creating Layer inception_4b/1x1
I0403 19:39:25.619047  9504 net.cpp:425] inception_4b/1x1 <- inception_4a/output_inception_4a/output_0_split_1
I0403 19:39:25.619073  9504 net.cpp:399] inception_4b/1x1 -> inception_4b/1x1
I0403 19:39:25.621045  9504 net.cpp:141] Setting up inception_4b/1x1
I0403 19:39:25.621114  9504 net.cpp:148] Top shape: 24 160 14 14 (752640)
I0403 19:39:25.621132  9504 net.cpp:156] Memory required for data: 949214496
I0403 19:39:25.621155  9504 layer_factory.hpp:77] Creating layer inception_4b/relu_1x1
I0403 19:39:25.621183  9504 net.cpp:91] Creating Layer inception_4b/relu_1x1
I0403 19:39:25.621204  9504 net.cpp:425] inception_4b/relu_1x1 <- inception_4b/1x1
I0403 19:39:25.621227  9504 net.cpp:386] inception_4b/relu_1x1 -> inception_4b/1x1 (in-place)
I0403 19:39:25.621430  9504 net.cpp:141] Setting up inception_4b/relu_1x1
I0403 19:39:25.621460  9504 net.cpp:148] Top shape: 24 160 14 14 (752640)
I0403 19:39:25.621476  9504 net.cpp:156] Memory required for data: 952225056
I0403 19:39:25.621493  9504 layer_factory.hpp:77] Creating layer inception_4b/3x3_reduce
I0403 19:39:25.621520  9504 net.cpp:91] Creating Layer inception_4b/3x3_reduce
I0403 19:39:25.621539  9504 net.cpp:425] inception_4b/3x3_reduce <- inception_4a/output_inception_4a/output_0_split_2
I0403 19:39:25.621564  9504 net.cpp:399] inception_4b/3x3_reduce -> inception_4b/3x3_reduce
I0403 19:39:25.623116  9504 net.cpp:141] Setting up inception_4b/3x3_reduce
I0403 19:39:25.623163  9504 net.cpp:148] Top shape: 24 112 14 14 (526848)
I0403 19:39:25.623198  9504 net.cpp:156] Memory required for data: 954332448
I0403 19:39:25.623224  9504 layer_factory.hpp:77] Creating layer inception_4b/relu_3x3_reduce
I0403 19:39:25.623245  9504 net.cpp:91] Creating Layer inception_4b/relu_3x3_reduce
I0403 19:39:25.623266  9504 net.cpp:425] inception_4b/relu_3x3_reduce <- inception_4b/3x3_reduce
I0403 19:39:25.623286  9504 net.cpp:386] inception_4b/relu_3x3_reduce -> inception_4b/3x3_reduce (in-place)
I0403 19:39:25.623594  9504 net.cpp:141] Setting up inception_4b/relu_3x3_reduce
I0403 19:39:25.623622  9504 net.cpp:148] Top shape: 24 112 14 14 (526848)
I0403 19:39:25.623639  9504 net.cpp:156] Memory required for data: 956439840
I0403 19:39:25.623656  9504 layer_factory.hpp:77] Creating layer inception_4b/3x3
I0403 19:39:25.623683  9504 net.cpp:91] Creating Layer inception_4b/3x3
I0403 19:39:25.623703  9504 net.cpp:425] inception_4b/3x3 <- inception_4b/3x3_reduce
I0403 19:39:25.623725  9504 net.cpp:399] inception_4b/3x3 -> inception_4b/3x3
I0403 19:39:25.627110  9504 net.cpp:141] Setting up inception_4b/3x3
I0403 19:39:25.627172  9504 net.cpp:148] Top shape: 24 224 14 14 (1053696)
I0403 19:39:25.627194  9504 net.cpp:156] Memory required for data: 960654624
I0403 19:39:25.627216  9504 layer_factory.hpp:77] Creating layer inception_4b/relu_3x3
I0403 19:39:25.627241  9504 net.cpp:91] Creating Layer inception_4b/relu_3x3
I0403 19:39:25.627260  9504 net.cpp:425] inception_4b/relu_3x3 <- inception_4b/3x3
I0403 19:39:25.627280  9504 net.cpp:386] inception_4b/relu_3x3 -> inception_4b/3x3 (in-place)
I0403 19:39:25.627476  9504 net.cpp:141] Setting up inception_4b/relu_3x3
I0403 19:39:25.627506  9504 net.cpp:148] Top shape: 24 224 14 14 (1053696)
I0403 19:39:25.627522  9504 net.cpp:156] Memory required for data: 964869408
I0403 19:39:25.627538  9504 layer_factory.hpp:77] Creating layer inception_4b/5x5_reduce
I0403 19:39:25.627565  9504 net.cpp:91] Creating Layer inception_4b/5x5_reduce
I0403 19:39:25.627584  9504 net.cpp:425] inception_4b/5x5_reduce <- inception_4a/output_inception_4a/output_0_split_3
I0403 19:39:25.627605  9504 net.cpp:399] inception_4b/5x5_reduce -> inception_4b/5x5_reduce
I0403 19:39:25.628837  9504 net.cpp:141] Setting up inception_4b/5x5_reduce
I0403 19:39:25.628870  9504 net.cpp:148] Top shape: 24 24 14 14 (112896)
I0403 19:39:25.628886  9504 net.cpp:156] Memory required for data: 965320992
I0403 19:39:25.628907  9504 layer_factory.hpp:77] Creating layer inception_4b/relu_5x5_reduce
I0403 19:39:25.628927  9504 net.cpp:91] Creating Layer inception_4b/relu_5x5_reduce
I0403 19:39:25.628975  9504 net.cpp:425] inception_4b/relu_5x5_reduce <- inception_4b/5x5_reduce
I0403 19:39:25.628998  9504 net.cpp:386] inception_4b/relu_5x5_reduce -> inception_4b/5x5_reduce (in-place)
I0403 19:39:25.629196  9504 net.cpp:141] Setting up inception_4b/relu_5x5_reduce
I0403 19:39:25.629223  9504 net.cpp:148] Top shape: 24 24 14 14 (112896)
I0403 19:39:25.629240  9504 net.cpp:156] Memory required for data: 965772576
I0403 19:39:25.629256  9504 layer_factory.hpp:77] Creating layer inception_4b/5x5
I0403 19:39:25.629279  9504 net.cpp:91] Creating Layer inception_4b/5x5
I0403 19:39:25.629299  9504 net.cpp:425] inception_4b/5x5 <- inception_4b/5x5_reduce
I0403 19:39:25.629323  9504 net.cpp:399] inception_4b/5x5 -> inception_4b/5x5
I0403 19:39:25.630637  9504 net.cpp:141] Setting up inception_4b/5x5
I0403 19:39:25.630671  9504 net.cpp:148] Top shape: 24 64 14 14 (301056)
I0403 19:39:25.630687  9504 net.cpp:156] Memory required for data: 966976800
I0403 19:39:25.630707  9504 layer_factory.hpp:77] Creating layer inception_4b/relu_5x5
I0403 19:39:25.630728  9504 net.cpp:91] Creating Layer inception_4b/relu_5x5
I0403 19:39:25.630744  9504 net.cpp:425] inception_4b/relu_5x5 <- inception_4b/5x5
I0403 19:39:25.630765  9504 net.cpp:386] inception_4b/relu_5x5 -> inception_4b/5x5 (in-place)
I0403 19:39:25.631063  9504 net.cpp:141] Setting up inception_4b/relu_5x5
I0403 19:39:25.631093  9504 net.cpp:148] Top shape: 24 64 14 14 (301056)
I0403 19:39:25.631111  9504 net.cpp:156] Memory required for data: 968181024
I0403 19:39:25.631127  9504 layer_factory.hpp:77] Creating layer inception_4b/pool
I0403 19:39:25.631147  9504 net.cpp:91] Creating Layer inception_4b/pool
I0403 19:39:25.631165  9504 net.cpp:425] inception_4b/pool <- inception_4a/output_inception_4a/output_0_split_4
I0403 19:39:25.631191  9504 net.cpp:399] inception_4b/pool -> inception_4b/pool
I0403 19:39:25.631261  9504 net.cpp:141] Setting up inception_4b/pool
I0403 19:39:25.631288  9504 net.cpp:148] Top shape: 24 512 14 14 (2408448)
I0403 19:39:25.631304  9504 net.cpp:156] Memory required for data: 977814816
I0403 19:39:25.631319  9504 layer_factory.hpp:77] Creating layer inception_4b/pool_proj
I0403 19:39:25.631343  9504 net.cpp:91] Creating Layer inception_4b/pool_proj
I0403 19:39:25.631364  9504 net.cpp:425] inception_4b/pool_proj <- inception_4b/pool
I0403 19:39:25.631384  9504 net.cpp:399] inception_4b/pool_proj -> inception_4b/pool_proj
I0403 19:39:25.632668  9504 net.cpp:141] Setting up inception_4b/pool_proj
I0403 19:39:25.632699  9504 net.cpp:148] Top shape: 24 64 14 14 (301056)
I0403 19:39:25.632715  9504 net.cpp:156] Memory required for data: 979019040
I0403 19:39:25.632735  9504 layer_factory.hpp:77] Creating layer inception_4b/relu_pool_proj
I0403 19:39:25.632753  9504 net.cpp:91] Creating Layer inception_4b/relu_pool_proj
I0403 19:39:25.632771  9504 net.cpp:425] inception_4b/relu_pool_proj <- inception_4b/pool_proj
I0403 19:39:25.632792  9504 net.cpp:386] inception_4b/relu_pool_proj -> inception_4b/pool_proj (in-place)
I0403 19:39:25.632992  9504 net.cpp:141] Setting up inception_4b/relu_pool_proj
I0403 19:39:25.633018  9504 net.cpp:148] Top shape: 24 64 14 14 (301056)
I0403 19:39:25.633034  9504 net.cpp:156] Memory required for data: 980223264
I0403 19:39:25.633050  9504 layer_factory.hpp:77] Creating layer inception_4b/output
I0403 19:39:25.633069  9504 net.cpp:91] Creating Layer inception_4b/output
I0403 19:39:25.633090  9504 net.cpp:425] inception_4b/output <- inception_4b/1x1
I0403 19:39:25.633106  9504 net.cpp:425] inception_4b/output <- inception_4b/3x3
I0403 19:39:25.633123  9504 net.cpp:425] inception_4b/output <- inception_4b/5x5
I0403 19:39:25.633141  9504 net.cpp:425] inception_4b/output <- inception_4b/pool_proj
I0403 19:39:25.633158  9504 net.cpp:399] inception_4b/output -> inception_4b/output
I0403 19:39:25.633219  9504 net.cpp:141] Setting up inception_4b/output
I0403 19:39:25.633246  9504 net.cpp:148] Top shape: 24 512 14 14 (2408448)
I0403 19:39:25.633263  9504 net.cpp:156] Memory required for data: 989857056
I0403 19:39:25.633293  9504 layer_factory.hpp:77] Creating layer inception_4b/output_inception_4b/output_0_split
I0403 19:39:25.633314  9504 net.cpp:91] Creating Layer inception_4b/output_inception_4b/output_0_split
I0403 19:39:25.633332  9504 net.cpp:425] inception_4b/output_inception_4b/output_0_split <- inception_4b/output
I0403 19:39:25.633352  9504 net.cpp:399] inception_4b/output_inception_4b/output_0_split -> inception_4b/output_inception_4b/output_0_split_0
I0403 19:39:25.633375  9504 net.cpp:399] inception_4b/output_inception_4b/output_0_split -> inception_4b/output_inception_4b/output_0_split_1
I0403 19:39:25.633397  9504 net.cpp:399] inception_4b/output_inception_4b/output_0_split -> inception_4b/output_inception_4b/output_0_split_2
I0403 19:39:25.633419  9504 net.cpp:399] inception_4b/output_inception_4b/output_0_split -> inception_4b/output_inception_4b/output_0_split_3
I0403 19:39:25.633507  9504 net.cpp:141] Setting up inception_4b/output_inception_4b/output_0_split
I0403 19:39:25.633534  9504 net.cpp:148] Top shape: 24 512 14 14 (2408448)
I0403 19:39:25.633554  9504 net.cpp:148] Top shape: 24 512 14 14 (2408448)
I0403 19:39:25.633571  9504 net.cpp:148] Top shape: 24 512 14 14 (2408448)
I0403 19:39:25.633589  9504 net.cpp:148] Top shape: 24 512 14 14 (2408448)
I0403 19:39:25.633604  9504 net.cpp:156] Memory required for data: 1028392224
I0403 19:39:25.633620  9504 layer_factory.hpp:77] Creating layer inception_4c/1x1
I0403 19:39:25.633644  9504 net.cpp:91] Creating Layer inception_4c/1x1
I0403 19:39:25.633663  9504 net.cpp:425] inception_4c/1x1 <- inception_4b/output_inception_4b/output_0_split_0
I0403 19:39:25.633683  9504 net.cpp:399] inception_4c/1x1 -> inception_4c/1x1
I0403 19:39:25.635241  9504 net.cpp:141] Setting up inception_4c/1x1
I0403 19:39:25.635269  9504 net.cpp:148] Top shape: 24 128 14 14 (602112)
I0403 19:39:25.635288  9504 net.cpp:156] Memory required for data: 1030800672
I0403 19:39:25.635308  9504 layer_factory.hpp:77] Creating layer inception_4c/relu_1x1
I0403 19:39:25.635329  9504 net.cpp:91] Creating Layer inception_4c/relu_1x1
I0403 19:39:25.635347  9504 net.cpp:425] inception_4c/relu_1x1 <- inception_4c/1x1
I0403 19:39:25.635365  9504 net.cpp:386] inception_4c/relu_1x1 -> inception_4c/1x1 (in-place)
I0403 19:39:25.635784  9504 net.cpp:141] Setting up inception_4c/relu_1x1
I0403 19:39:25.635813  9504 net.cpp:148] Top shape: 24 128 14 14 (602112)
I0403 19:39:25.635829  9504 net.cpp:156] Memory required for data: 1033209120
I0403 19:39:25.635845  9504 layer_factory.hpp:77] Creating layer inception_4c/3x3_reduce
I0403 19:39:25.635871  9504 net.cpp:91] Creating Layer inception_4c/3x3_reduce
I0403 19:39:25.635890  9504 net.cpp:425] inception_4c/3x3_reduce <- inception_4b/output_inception_4b/output_0_split_1
I0403 19:39:25.635911  9504 net.cpp:399] inception_4c/3x3_reduce -> inception_4c/3x3_reduce
I0403 19:39:25.638018  9504 net.cpp:141] Setting up inception_4c/3x3_reduce
I0403 19:39:25.638058  9504 net.cpp:148] Top shape: 24 128 14 14 (602112)
I0403 19:39:25.638077  9504 net.cpp:156] Memory required for data: 1035617568
I0403 19:39:25.638098  9504 layer_factory.hpp:77] Creating layer inception_4c/relu_3x3_reduce
I0403 19:39:25.638118  9504 net.cpp:91] Creating Layer inception_4c/relu_3x3_reduce
I0403 19:39:25.638135  9504 net.cpp:425] inception_4c/relu_3x3_reduce <- inception_4c/3x3_reduce
I0403 19:39:25.638156  9504 net.cpp:386] inception_4c/relu_3x3_reduce -> inception_4c/3x3_reduce (in-place)
I0403 19:39:25.638499  9504 net.cpp:141] Setting up inception_4c/relu_3x3_reduce
I0403 19:39:25.638530  9504 net.cpp:148] Top shape: 24 128 14 14 (602112)
I0403 19:39:25.638546  9504 net.cpp:156] Memory required for data: 1038026016
I0403 19:39:25.638563  9504 layer_factory.hpp:77] Creating layer inception_4c/3x3
I0403 19:39:25.638588  9504 net.cpp:91] Creating Layer inception_4c/3x3
I0403 19:39:25.638607  9504 net.cpp:425] inception_4c/3x3 <- inception_4c/3x3_reduce
I0403 19:39:25.638628  9504 net.cpp:399] inception_4c/3x3 -> inception_4c/3x3
I0403 19:39:25.642438  9504 net.cpp:141] Setting up inception_4c/3x3
I0403 19:39:25.642484  9504 net.cpp:148] Top shape: 24 256 14 14 (1204224)
I0403 19:39:25.642501  9504 net.cpp:156] Memory required for data: 1042842912
I0403 19:39:25.642537  9504 layer_factory.hpp:77] Creating layer inception_4c/relu_3x3
I0403 19:39:25.642560  9504 net.cpp:91] Creating Layer inception_4c/relu_3x3
I0403 19:39:25.642577  9504 net.cpp:425] inception_4c/relu_3x3 <- inception_4c/3x3
I0403 19:39:25.642601  9504 net.cpp:386] inception_4c/relu_3x3 -> inception_4c/3x3 (in-place)
I0403 19:39:25.642798  9504 net.cpp:141] Setting up inception_4c/relu_3x3
I0403 19:39:25.642827  9504 net.cpp:148] Top shape: 24 256 14 14 (1204224)
I0403 19:39:25.642844  9504 net.cpp:156] Memory required for data: 1047659808
I0403 19:39:25.642861  9504 layer_factory.hpp:77] Creating layer inception_4c/5x5_reduce
I0403 19:39:25.642885  9504 net.cpp:91] Creating Layer inception_4c/5x5_reduce
I0403 19:39:25.642904  9504 net.cpp:425] inception_4c/5x5_reduce <- inception_4b/output_inception_4b/output_0_split_2
I0403 19:39:25.642926  9504 net.cpp:399] inception_4c/5x5_reduce -> inception_4c/5x5_reduce
I0403 19:39:25.644093  9504 net.cpp:141] Setting up inception_4c/5x5_reduce
I0403 19:39:25.644124  9504 net.cpp:148] Top shape: 24 24 14 14 (112896)
I0403 19:39:25.644141  9504 net.cpp:156] Memory required for data: 1048111392
I0403 19:39:25.644161  9504 layer_factory.hpp:77] Creating layer inception_4c/relu_5x5_reduce
I0403 19:39:25.644186  9504 net.cpp:91] Creating Layer inception_4c/relu_5x5_reduce
I0403 19:39:25.644204  9504 net.cpp:425] inception_4c/relu_5x5_reduce <- inception_4c/5x5_reduce
I0403 19:39:25.644227  9504 net.cpp:386] inception_4c/relu_5x5_reduce -> inception_4c/5x5_reduce (in-place)
I0403 19:39:25.644421  9504 net.cpp:141] Setting up inception_4c/relu_5x5_reduce
I0403 19:39:25.644448  9504 net.cpp:148] Top shape: 24 24 14 14 (112896)
I0403 19:39:25.644464  9504 net.cpp:156] Memory required for data: 1048562976
I0403 19:39:25.644480  9504 layer_factory.hpp:77] Creating layer inception_4c/5x5
I0403 19:39:25.644505  9504 net.cpp:91] Creating Layer inception_4c/5x5
I0403 19:39:25.644523  9504 net.cpp:425] inception_4c/5x5 <- inception_4c/5x5_reduce
I0403 19:39:25.644546  9504 net.cpp:399] inception_4c/5x5 -> inception_4c/5x5
I0403 19:39:25.645865  9504 net.cpp:141] Setting up inception_4c/5x5
I0403 19:39:25.645895  9504 net.cpp:148] Top shape: 24 64 14 14 (301056)
I0403 19:39:25.645911  9504 net.cpp:156] Memory required for data: 1049767200
I0403 19:39:25.645931  9504 layer_factory.hpp:77] Creating layer inception_4c/relu_5x5
I0403 19:39:25.645953  9504 net.cpp:91] Creating Layer inception_4c/relu_5x5
I0403 19:39:25.645972  9504 net.cpp:425] inception_4c/relu_5x5 <- inception_4c/5x5
I0403 19:39:25.645990  9504 net.cpp:386] inception_4c/relu_5x5 -> inception_4c/5x5 (in-place)
I0403 19:39:25.646301  9504 net.cpp:141] Setting up inception_4c/relu_5x5
I0403 19:39:25.646330  9504 net.cpp:148] Top shape: 24 64 14 14 (301056)
I0403 19:39:25.646347  9504 net.cpp:156] Memory required for data: 1050971424
I0403 19:39:25.646363  9504 layer_factory.hpp:77] Creating layer inception_4c/pool
I0403 19:39:25.646384  9504 net.cpp:91] Creating Layer inception_4c/pool
I0403 19:39:25.646404  9504 net.cpp:425] inception_4c/pool <- inception_4b/output_inception_4b/output_0_split_3
I0403 19:39:25.646422  9504 net.cpp:399] inception_4c/pool -> inception_4c/pool
I0403 19:39:25.646493  9504 net.cpp:141] Setting up inception_4c/pool
I0403 19:39:25.646518  9504 net.cpp:148] Top shape: 24 512 14 14 (2408448)
I0403 19:39:25.646534  9504 net.cpp:156] Memory required for data: 1060605216
I0403 19:39:25.646549  9504 layer_factory.hpp:77] Creating layer inception_4c/pool_proj
I0403 19:39:25.646574  9504 net.cpp:91] Creating Layer inception_4c/pool_proj
I0403 19:39:25.646591  9504 net.cpp:425] inception_4c/pool_proj <- inception_4c/pool
I0403 19:39:25.646613  9504 net.cpp:399] inception_4c/pool_proj -> inception_4c/pool_proj
I0403 19:39:25.647914  9504 net.cpp:141] Setting up inception_4c/pool_proj
I0403 19:39:25.647948  9504 net.cpp:148] Top shape: 24 64 14 14 (301056)
I0403 19:39:25.647979  9504 net.cpp:156] Memory required for data: 1061809440
I0403 19:39:25.648000  9504 layer_factory.hpp:77] Creating layer inception_4c/relu_pool_proj
I0403 19:39:25.648020  9504 net.cpp:91] Creating Layer inception_4c/relu_pool_proj
I0403 19:39:25.648037  9504 net.cpp:425] inception_4c/relu_pool_proj <- inception_4c/pool_proj
I0403 19:39:25.648058  9504 net.cpp:386] inception_4c/relu_pool_proj -> inception_4c/pool_proj (in-place)
I0403 19:39:25.648262  9504 net.cpp:141] Setting up inception_4c/relu_pool_proj
I0403 19:39:25.648288  9504 net.cpp:148] Top shape: 24 64 14 14 (301056)
I0403 19:39:25.648304  9504 net.cpp:156] Memory required for data: 1063013664
I0403 19:39:25.648320  9504 layer_factory.hpp:77] Creating layer inception_4c/output
I0403 19:39:25.648339  9504 net.cpp:91] Creating Layer inception_4c/output
I0403 19:39:25.648355  9504 net.cpp:425] inception_4c/output <- inception_4c/1x1
I0403 19:39:25.648373  9504 net.cpp:425] inception_4c/output <- inception_4c/3x3
I0403 19:39:25.648393  9504 net.cpp:425] inception_4c/output <- inception_4c/5x5
I0403 19:39:25.648411  9504 net.cpp:425] inception_4c/output <- inception_4c/pool_proj
I0403 19:39:25.648429  9504 net.cpp:399] inception_4c/output -> inception_4c/output
I0403 19:39:25.648478  9504 net.cpp:141] Setting up inception_4c/output
I0403 19:39:25.648506  9504 net.cpp:148] Top shape: 24 512 14 14 (2408448)
I0403 19:39:25.648522  9504 net.cpp:156] Memory required for data: 1072647456
I0403 19:39:25.648538  9504 layer_factory.hpp:77] Creating layer inception_4c/output_inception_4c/output_0_split
I0403 19:39:25.648556  9504 net.cpp:91] Creating Layer inception_4c/output_inception_4c/output_0_split
I0403 19:39:25.648573  9504 net.cpp:425] inception_4c/output_inception_4c/output_0_split <- inception_4c/output
I0403 19:39:25.648594  9504 net.cpp:399] inception_4c/output_inception_4c/output_0_split -> inception_4c/output_inception_4c/output_0_split_0
I0403 19:39:25.648625  9504 net.cpp:399] inception_4c/output_inception_4c/output_0_split -> inception_4c/output_inception_4c/output_0_split_1
I0403 19:39:25.648646  9504 net.cpp:399] inception_4c/output_inception_4c/output_0_split -> inception_4c/output_inception_4c/output_0_split_2
I0403 19:39:25.648669  9504 net.cpp:399] inception_4c/output_inception_4c/output_0_split -> inception_4c/output_inception_4c/output_0_split_3
I0403 19:39:25.648757  9504 net.cpp:141] Setting up inception_4c/output_inception_4c/output_0_split
I0403 19:39:25.648785  9504 net.cpp:148] Top shape: 24 512 14 14 (2408448)
I0403 19:39:25.648804  9504 net.cpp:148] Top shape: 24 512 14 14 (2408448)
I0403 19:39:25.648821  9504 net.cpp:148] Top shape: 24 512 14 14 (2408448)
I0403 19:39:25.648838  9504 net.cpp:148] Top shape: 24 512 14 14 (2408448)
I0403 19:39:25.648852  9504 net.cpp:156] Memory required for data: 1111182624
I0403 19:39:25.648869  9504 layer_factory.hpp:77] Creating layer inception_4d/1x1
I0403 19:39:25.648888  9504 net.cpp:91] Creating Layer inception_4d/1x1
I0403 19:39:25.648906  9504 net.cpp:425] inception_4d/1x1 <- inception_4c/output_inception_4c/output_0_split_0
I0403 19:39:25.648928  9504 net.cpp:399] inception_4d/1x1 -> inception_4d/1x1
I0403 19:39:25.650416  9504 net.cpp:141] Setting up inception_4d/1x1
I0403 19:39:25.650451  9504 net.cpp:148] Top shape: 24 112 14 14 (526848)
I0403 19:39:25.650470  9504 net.cpp:156] Memory required for data: 1113290016
I0403 19:39:25.650490  9504 layer_factory.hpp:77] Creating layer inception_4d/relu_1x1
I0403 19:39:25.650512  9504 net.cpp:91] Creating Layer inception_4d/relu_1x1
I0403 19:39:25.650530  9504 net.cpp:425] inception_4d/relu_1x1 <- inception_4d/1x1
I0403 19:39:25.650548  9504 net.cpp:386] inception_4d/relu_1x1 -> inception_4d/1x1 (in-place)
I0403 19:39:25.650748  9504 net.cpp:141] Setting up inception_4d/relu_1x1
I0403 19:39:25.650776  9504 net.cpp:148] Top shape: 24 112 14 14 (526848)
I0403 19:39:25.650794  9504 net.cpp:156] Memory required for data: 1115397408
I0403 19:39:25.650810  9504 layer_factory.hpp:77] Creating layer inception_4d/3x3_reduce
I0403 19:39:25.650848  9504 net.cpp:91] Creating Layer inception_4d/3x3_reduce
I0403 19:39:25.650867  9504 net.cpp:425] inception_4d/3x3_reduce <- inception_4c/output_inception_4c/output_0_split_1
I0403 19:39:25.650889  9504 net.cpp:399] inception_4d/3x3_reduce -> inception_4d/3x3_reduce
I0403 19:39:25.652529  9504 net.cpp:141] Setting up inception_4d/3x3_reduce
I0403 19:39:25.652559  9504 net.cpp:148] Top shape: 24 144 14 14 (677376)
I0403 19:39:25.652576  9504 net.cpp:156] Memory required for data: 1118106912
I0403 19:39:25.652596  9504 layer_factory.hpp:77] Creating layer inception_4d/relu_3x3_reduce
I0403 19:39:25.652619  9504 net.cpp:91] Creating Layer inception_4d/relu_3x3_reduce
I0403 19:39:25.652638  9504 net.cpp:425] inception_4d/relu_3x3_reduce <- inception_4d/3x3_reduce
I0403 19:39:25.652657  9504 net.cpp:386] inception_4d/relu_3x3_reduce -> inception_4d/3x3_reduce (in-place)
I0403 19:39:25.652984  9504 net.cpp:141] Setting up inception_4d/relu_3x3_reduce
I0403 19:39:25.653012  9504 net.cpp:148] Top shape: 24 144 14 14 (677376)
I0403 19:39:25.653029  9504 net.cpp:156] Memory required for data: 1120816416
I0403 19:39:25.653045  9504 layer_factory.hpp:77] Creating layer inception_4d/3x3
I0403 19:39:25.653069  9504 net.cpp:91] Creating Layer inception_4d/3x3
I0403 19:39:25.653089  9504 net.cpp:425] inception_4d/3x3 <- inception_4d/3x3_reduce
I0403 19:39:25.653111  9504 net.cpp:399] inception_4d/3x3 -> inception_4d/3x3
I0403 19:39:25.657641  9504 net.cpp:141] Setting up inception_4d/3x3
I0403 19:39:25.657672  9504 net.cpp:148] Top shape: 24 288 14 14 (1354752)
I0403 19:39:25.657690  9504 net.cpp:156] Memory required for data: 1126235424
I0403 19:39:25.657709  9504 layer_factory.hpp:77] Creating layer inception_4d/relu_3x3
I0403 19:39:25.657732  9504 net.cpp:91] Creating Layer inception_4d/relu_3x3
I0403 19:39:25.657749  9504 net.cpp:425] inception_4d/relu_3x3 <- inception_4d/3x3
I0403 19:39:25.657768  9504 net.cpp:386] inception_4d/relu_3x3 -> inception_4d/3x3 (in-place)
I0403 19:39:25.657966  9504 net.cpp:141] Setting up inception_4d/relu_3x3
I0403 19:39:25.657994  9504 net.cpp:148] Top shape: 24 288 14 14 (1354752)
I0403 19:39:25.658010  9504 net.cpp:156] Memory required for data: 1131654432
I0403 19:39:25.658025  9504 layer_factory.hpp:77] Creating layer inception_4d/5x5_reduce
I0403 19:39:25.658048  9504 net.cpp:91] Creating Layer inception_4d/5x5_reduce
I0403 19:39:25.658067  9504 net.cpp:425] inception_4d/5x5_reduce <- inception_4c/output_inception_4c/output_0_split_2
I0403 19:39:25.658090  9504 net.cpp:399] inception_4d/5x5_reduce -> inception_4d/5x5_reduce
I0403 19:39:25.659324  9504 net.cpp:141] Setting up inception_4d/5x5_reduce
I0403 19:39:25.659356  9504 net.cpp:148] Top shape: 24 32 14 14 (150528)
I0403 19:39:25.659373  9504 net.cpp:156] Memory required for data: 1132256544
I0403 19:39:25.659394  9504 layer_factory.hpp:77] Creating layer inception_4d/relu_5x5_reduce
I0403 19:39:25.659412  9504 net.cpp:91] Creating Layer inception_4d/relu_5x5_reduce
I0403 19:39:25.659430  9504 net.cpp:425] inception_4d/relu_5x5_reduce <- inception_4d/5x5_reduce
I0403 19:39:25.659448  9504 net.cpp:386] inception_4d/relu_5x5_reduce -> inception_4d/5x5_reduce (in-place)
I0403 19:39:25.659651  9504 net.cpp:141] Setting up inception_4d/relu_5x5_reduce
I0403 19:39:25.659679  9504 net.cpp:148] Top shape: 24 32 14 14 (150528)
I0403 19:39:25.659696  9504 net.cpp:156] Memory required for data: 1132858656
I0403 19:39:25.659713  9504 layer_factory.hpp:77] Creating layer inception_4d/5x5
I0403 19:39:25.659736  9504 net.cpp:91] Creating Layer inception_4d/5x5
I0403 19:39:25.659754  9504 net.cpp:425] inception_4d/5x5 <- inception_4d/5x5_reduce
I0403 19:39:25.659777  9504 net.cpp:399] inception_4d/5x5 -> inception_4d/5x5
I0403 19:39:25.661422  9504 net.cpp:141] Setting up inception_4d/5x5
I0403 19:39:25.661453  9504 net.cpp:148] Top shape: 24 64 14 14 (301056)
I0403 19:39:25.661469  9504 net.cpp:156] Memory required for data: 1134062880
I0403 19:39:25.661489  9504 layer_factory.hpp:77] Creating layer inception_4d/relu_5x5
I0403 19:39:25.661525  9504 net.cpp:91] Creating Layer inception_4d/relu_5x5
I0403 19:39:25.661546  9504 net.cpp:425] inception_4d/relu_5x5 <- inception_4d/5x5
I0403 19:39:25.661566  9504 net.cpp:386] inception_4d/relu_5x5 -> inception_4d/5x5 (in-place)
I0403 19:39:25.661881  9504 net.cpp:141] Setting up inception_4d/relu_5x5
I0403 19:39:25.661911  9504 net.cpp:148] Top shape: 24 64 14 14 (301056)
I0403 19:39:25.661926  9504 net.cpp:156] Memory required for data: 1135267104
I0403 19:39:25.661943  9504 layer_factory.hpp:77] Creating layer inception_4d/pool
I0403 19:39:25.661962  9504 net.cpp:91] Creating Layer inception_4d/pool
I0403 19:39:25.661979  9504 net.cpp:425] inception_4d/pool <- inception_4c/output_inception_4c/output_0_split_3
I0403 19:39:25.662001  9504 net.cpp:399] inception_4d/pool -> inception_4d/pool
I0403 19:39:25.662072  9504 net.cpp:141] Setting up inception_4d/pool
I0403 19:39:25.662101  9504 net.cpp:148] Top shape: 24 512 14 14 (2408448)
I0403 19:39:25.662117  9504 net.cpp:156] Memory required for data: 1144900896
I0403 19:39:25.662133  9504 layer_factory.hpp:77] Creating layer inception_4d/pool_proj
I0403 19:39:25.662158  9504 net.cpp:91] Creating Layer inception_4d/pool_proj
I0403 19:39:25.662181  9504 net.cpp:425] inception_4d/pool_proj <- inception_4d/pool
I0403 19:39:25.662212  9504 net.cpp:399] inception_4d/pool_proj -> inception_4d/pool_proj
I0403 19:39:25.664120  9504 net.cpp:141] Setting up inception_4d/pool_proj
I0403 19:39:25.664154  9504 net.cpp:148] Top shape: 24 64 14 14 (301056)
I0403 19:39:25.664170  9504 net.cpp:156] Memory required for data: 1146105120
I0403 19:39:25.664196  9504 layer_factory.hpp:77] Creating layer inception_4d/relu_pool_proj
I0403 19:39:25.664218  9504 net.cpp:91] Creating Layer inception_4d/relu_pool_proj
I0403 19:39:25.664237  9504 net.cpp:425] inception_4d/relu_pool_proj <- inception_4d/pool_proj
I0403 19:39:25.664255  9504 net.cpp:386] inception_4d/relu_pool_proj -> inception_4d/pool_proj (in-place)
I0403 19:39:25.664454  9504 net.cpp:141] Setting up inception_4d/relu_pool_proj
I0403 19:39:25.664481  9504 net.cpp:148] Top shape: 24 64 14 14 (301056)
I0403 19:39:25.664497  9504 net.cpp:156] Memory required for data: 1147309344
I0403 19:39:25.664513  9504 layer_factory.hpp:77] Creating layer inception_4d/output
I0403 19:39:25.664531  9504 net.cpp:91] Creating Layer inception_4d/output
I0403 19:39:25.664548  9504 net.cpp:425] inception_4d/output <- inception_4d/1x1
I0403 19:39:25.664566  9504 net.cpp:425] inception_4d/output <- inception_4d/3x3
I0403 19:39:25.664582  9504 net.cpp:425] inception_4d/output <- inception_4d/5x5
I0403 19:39:25.664599  9504 net.cpp:425] inception_4d/output <- inception_4d/pool_proj
I0403 19:39:25.664619  9504 net.cpp:399] inception_4d/output -> inception_4d/output
I0403 19:39:25.664669  9504 net.cpp:141] Setting up inception_4d/output
I0403 19:39:25.664697  9504 net.cpp:148] Top shape: 24 528 14 14 (2483712)
I0403 19:39:25.664715  9504 net.cpp:156] Memory required for data: 1157244192
I0403 19:39:25.664731  9504 layer_factory.hpp:77] Creating layer inception_4d/output_inception_4d/output_0_split
I0403 19:39:25.664751  9504 net.cpp:91] Creating Layer inception_4d/output_inception_4d/output_0_split
I0403 19:39:25.664767  9504 net.cpp:425] inception_4d/output_inception_4d/output_0_split <- inception_4d/output
I0403 19:39:25.664785  9504 net.cpp:399] inception_4d/output_inception_4d/output_0_split -> inception_4d/output_inception_4d/output_0_split_0
I0403 19:39:25.664809  9504 net.cpp:399] inception_4d/output_inception_4d/output_0_split -> inception_4d/output_inception_4d/output_0_split_1
I0403 19:39:25.664832  9504 net.cpp:399] inception_4d/output_inception_4d/output_0_split -> inception_4d/output_inception_4d/output_0_split_2
I0403 19:39:25.664855  9504 net.cpp:399] inception_4d/output_inception_4d/output_0_split -> inception_4d/output_inception_4d/output_0_split_3
I0403 19:39:25.664875  9504 net.cpp:399] inception_4d/output_inception_4d/output_0_split -> inception_4d/output_inception_4d/output_0_split_4
I0403 19:39:25.664985  9504 net.cpp:141] Setting up inception_4d/output_inception_4d/output_0_split
I0403 19:39:25.665024  9504 net.cpp:148] Top shape: 24 528 14 14 (2483712)
I0403 19:39:25.665042  9504 net.cpp:148] Top shape: 24 528 14 14 (2483712)
I0403 19:39:25.665058  9504 net.cpp:148] Top shape: 24 528 14 14 (2483712)
I0403 19:39:25.665076  9504 net.cpp:148] Top shape: 24 528 14 14 (2483712)
I0403 19:39:25.665092  9504 net.cpp:148] Top shape: 24 528 14 14 (2483712)
I0403 19:39:25.665107  9504 net.cpp:156] Memory required for data: 1206918432
I0403 19:39:25.665124  9504 layer_factory.hpp:77] Creating layer loss2/ave_pool
I0403 19:39:25.665145  9504 net.cpp:91] Creating Layer loss2/ave_pool
I0403 19:39:25.665163  9504 net.cpp:425] loss2/ave_pool <- inception_4d/output_inception_4d/output_0_split_0
I0403 19:39:25.665187  9504 net.cpp:399] loss2/ave_pool -> loss2/ave_pool
I0403 19:39:25.665524  9504 net.cpp:141] Setting up loss2/ave_pool
I0403 19:39:25.665552  9504 net.cpp:148] Top shape: 24 528 4 4 (202752)
I0403 19:39:25.665570  9504 net.cpp:156] Memory required for data: 1207729440
I0403 19:39:25.665585  9504 layer_factory.hpp:77] Creating layer loss2/conv
I0403 19:39:25.665611  9504 net.cpp:91] Creating Layer loss2/conv
I0403 19:39:25.665629  9504 net.cpp:425] loss2/conv <- loss2/ave_pool
I0403 19:39:25.665649  9504 net.cpp:399] loss2/conv -> loss2/conv
I0403 19:39:25.667700  9504 net.cpp:141] Setting up loss2/conv
I0403 19:39:25.667731  9504 net.cpp:148] Top shape: 24 128 4 4 (49152)
I0403 19:39:25.667747  9504 net.cpp:156] Memory required for data: 1207926048
I0403 19:39:25.667768  9504 layer_factory.hpp:77] Creating layer loss2/relu_conv
I0403 19:39:25.667786  9504 net.cpp:91] Creating Layer loss2/relu_conv
I0403 19:39:25.667804  9504 net.cpp:425] loss2/relu_conv <- loss2/conv
I0403 19:39:25.667825  9504 net.cpp:386] loss2/relu_conv -> loss2/conv (in-place)
I0403 19:39:25.668133  9504 net.cpp:141] Setting up loss2/relu_conv
I0403 19:39:25.668160  9504 net.cpp:148] Top shape: 24 128 4 4 (49152)
I0403 19:39:25.668180  9504 net.cpp:156] Memory required for data: 1208122656
I0403 19:39:25.668197  9504 layer_factory.hpp:77] Creating layer loss2/fc
I0403 19:39:25.668218  9504 net.cpp:91] Creating Layer loss2/fc
I0403 19:39:25.668236  9504 net.cpp:425] loss2/fc <- loss2/conv
I0403 19:39:25.668258  9504 net.cpp:399] loss2/fc -> loss2/fc
I0403 19:39:25.687067  9504 net.cpp:141] Setting up loss2/fc
I0403 19:39:25.687111  9504 net.cpp:148] Top shape: 24 1024 (24576)
I0403 19:39:25.687127  9504 net.cpp:156] Memory required for data: 1208220960
I0403 19:39:25.687149  9504 layer_factory.hpp:77] Creating layer loss2/relu_fc
I0403 19:39:25.687168  9504 net.cpp:91] Creating Layer loss2/relu_fc
I0403 19:39:25.687191  9504 net.cpp:425] loss2/relu_fc <- loss2/fc
I0403 19:39:25.687211  9504 net.cpp:386] loss2/relu_fc -> loss2/fc (in-place)
I0403 19:39:25.687538  9504 net.cpp:141] Setting up loss2/relu_fc
I0403 19:39:25.687568  9504 net.cpp:148] Top shape: 24 1024 (24576)
I0403 19:39:25.687585  9504 net.cpp:156] Memory required for data: 1208319264
I0403 19:39:25.687602  9504 layer_factory.hpp:77] Creating layer loss2/drop_fc
I0403 19:39:25.687621  9504 net.cpp:91] Creating Layer loss2/drop_fc
I0403 19:39:25.687638  9504 net.cpp:425] loss2/drop_fc <- loss2/fc
I0403 19:39:25.687657  9504 net.cpp:386] loss2/drop_fc -> loss2/fc (in-place)
I0403 19:39:25.687712  9504 net.cpp:141] Setting up loss2/drop_fc
I0403 19:39:25.687737  9504 net.cpp:148] Top shape: 24 1024 (24576)
I0403 19:39:25.687752  9504 net.cpp:156] Memory required for data: 1208417568
I0403 19:39:25.687768  9504 layer_factory.hpp:77] Creating layer loss2/classifier_plantvillage
I0403 19:39:25.687791  9504 net.cpp:91] Creating Layer loss2/classifier_plantvillage
I0403 19:39:25.687809  9504 net.cpp:425] loss2/classifier_plantvillage <- loss2/fc
I0403 19:39:25.687830  9504 net.cpp:399] loss2/classifier_plantvillage -> loss2/classifier_plantvillage
I0403 19:39:25.688277  9504 net.cpp:141] Setting up loss2/classifier_plantvillage
I0403 19:39:25.688303  9504 net.cpp:148] Top shape: 24 38 (912)
I0403 19:39:25.688338  9504 net.cpp:156] Memory required for data: 1208421216
I0403 19:39:25.688359  9504 layer_factory.hpp:77] Creating layer loss2/classifier_plantvillage_loss2/classifier_plantvillage_0_split
I0403 19:39:25.688379  9504 net.cpp:91] Creating Layer loss2/classifier_plantvillage_loss2/classifier_plantvillage_0_split
I0403 19:39:25.688395  9504 net.cpp:425] loss2/classifier_plantvillage_loss2/classifier_plantvillage_0_split <- loss2/classifier_plantvillage
I0403 19:39:25.688416  9504 net.cpp:399] loss2/classifier_plantvillage_loss2/classifier_plantvillage_0_split -> loss2/classifier_plantvillage_loss2/classifier_plantvillage_0_split_0
I0403 19:39:25.688439  9504 net.cpp:399] loss2/classifier_plantvillage_loss2/classifier_plantvillage_0_split -> loss2/classifier_plantvillage_loss2/classifier_plantvillage_0_split_1
I0403 19:39:25.688462  9504 net.cpp:399] loss2/classifier_plantvillage_loss2/classifier_plantvillage_0_split -> loss2/classifier_plantvillage_loss2/classifier_plantvillage_0_split_2
I0403 19:39:25.688546  9504 net.cpp:141] Setting up loss2/classifier_plantvillage_loss2/classifier_plantvillage_0_split
I0403 19:39:25.688571  9504 net.cpp:148] Top shape: 24 38 (912)
I0403 19:39:25.688590  9504 net.cpp:148] Top shape: 24 38 (912)
I0403 19:39:25.688606  9504 net.cpp:148] Top shape: 24 38 (912)
I0403 19:39:25.688621  9504 net.cpp:156] Memory required for data: 1208432160
I0403 19:39:25.688637  9504 layer_factory.hpp:77] Creating layer inception_4e/1x1
I0403 19:39:25.688659  9504 net.cpp:91] Creating Layer inception_4e/1x1
I0403 19:39:25.688678  9504 net.cpp:425] inception_4e/1x1 <- inception_4d/output_inception_4d/output_0_split_1
I0403 19:39:25.688699  9504 net.cpp:399] inception_4e/1x1 -> inception_4e/1x1
I0403 19:39:25.690702  9504 net.cpp:141] Setting up inception_4e/1x1
I0403 19:39:25.690732  9504 net.cpp:148] Top shape: 24 256 14 14 (1204224)
I0403 19:39:25.690748  9504 net.cpp:156] Memory required for data: 1213249056
I0403 19:39:25.690768  9504 layer_factory.hpp:77] Creating layer inception_4e/relu_1x1
I0403 19:39:25.690790  9504 net.cpp:91] Creating Layer inception_4e/relu_1x1
I0403 19:39:25.690809  9504 net.cpp:425] inception_4e/relu_1x1 <- inception_4e/1x1
I0403 19:39:25.690827  9504 net.cpp:386] inception_4e/relu_1x1 -> inception_4e/1x1 (in-place)
I0403 19:39:25.691141  9504 net.cpp:141] Setting up inception_4e/relu_1x1
I0403 19:39:25.691169  9504 net.cpp:148] Top shape: 24 256 14 14 (1204224)
I0403 19:39:25.691190  9504 net.cpp:156] Memory required for data: 1218065952
I0403 19:39:25.691208  9504 layer_factory.hpp:77] Creating layer inception_4e/3x3_reduce
I0403 19:39:25.691234  9504 net.cpp:91] Creating Layer inception_4e/3x3_reduce
I0403 19:39:25.691256  9504 net.cpp:425] inception_4e/3x3_reduce <- inception_4d/output_inception_4d/output_0_split_2
I0403 19:39:25.691278  9504 net.cpp:399] inception_4e/3x3_reduce -> inception_4e/3x3_reduce
I0403 19:39:25.693526  9504 net.cpp:141] Setting up inception_4e/3x3_reduce
I0403 19:39:25.693557  9504 net.cpp:148] Top shape: 24 160 14 14 (752640)
I0403 19:39:25.693574  9504 net.cpp:156] Memory required for data: 1221076512
I0403 19:39:25.693594  9504 layer_factory.hpp:77] Creating layer inception_4e/relu_3x3_reduce
I0403 19:39:25.693614  9504 net.cpp:91] Creating Layer inception_4e/relu_3x3_reduce
I0403 19:39:25.693631  9504 net.cpp:425] inception_4e/relu_3x3_reduce <- inception_4e/3x3_reduce
I0403 19:39:25.693652  9504 net.cpp:386] inception_4e/relu_3x3_reduce -> inception_4e/3x3_reduce (in-place)
I0403 19:39:25.693850  9504 net.cpp:141] Setting up inception_4e/relu_3x3_reduce
I0403 19:39:25.693877  9504 net.cpp:148] Top shape: 24 160 14 14 (752640)
I0403 19:39:25.693893  9504 net.cpp:156] Memory required for data: 1224087072
I0403 19:39:25.693910  9504 layer_factory.hpp:77] Creating layer inception_4e/3x3
I0403 19:39:25.693933  9504 net.cpp:91] Creating Layer inception_4e/3x3
I0403 19:39:25.693953  9504 net.cpp:425] inception_4e/3x3 <- inception_4e/3x3_reduce
I0403 19:39:25.693974  9504 net.cpp:399] inception_4e/3x3 -> inception_4e/3x3
I0403 19:39:25.699384  9504 net.cpp:141] Setting up inception_4e/3x3
I0403 19:39:25.699427  9504 net.cpp:148] Top shape: 24 320 14 14 (1505280)
I0403 19:39:25.699445  9504 net.cpp:156] Memory required for data: 1230108192
I0403 19:39:25.699465  9504 layer_factory.hpp:77] Creating layer inception_4e/relu_3x3
I0403 19:39:25.699487  9504 net.cpp:91] Creating Layer inception_4e/relu_3x3
I0403 19:39:25.699506  9504 net.cpp:425] inception_4e/relu_3x3 <- inception_4e/3x3
I0403 19:39:25.699524  9504 net.cpp:386] inception_4e/relu_3x3 -> inception_4e/3x3 (in-place)
I0403 19:39:25.699843  9504 net.cpp:141] Setting up inception_4e/relu_3x3
I0403 19:39:25.699872  9504 net.cpp:148] Top shape: 24 320 14 14 (1505280)
I0403 19:39:25.699890  9504 net.cpp:156] Memory required for data: 1236129312
I0403 19:39:25.699906  9504 layer_factory.hpp:77] Creating layer inception_4e/5x5_reduce
I0403 19:39:25.699928  9504 net.cpp:91] Creating Layer inception_4e/5x5_reduce
I0403 19:39:25.699946  9504 net.cpp:425] inception_4e/5x5_reduce <- inception_4d/output_inception_4d/output_0_split_3
I0403 19:39:25.699970  9504 net.cpp:399] inception_4e/5x5_reduce -> inception_4e/5x5_reduce
I0403 19:39:25.701120  9504 net.cpp:141] Setting up inception_4e/5x5_reduce
I0403 19:39:25.701150  9504 net.cpp:148] Top shape: 24 32 14 14 (150528)
I0403 19:39:25.701167  9504 net.cpp:156] Memory required for data: 1236731424
I0403 19:39:25.701195  9504 layer_factory.hpp:77] Creating layer inception_4e/relu_5x5_reduce
I0403 19:39:25.701215  9504 net.cpp:91] Creating Layer inception_4e/relu_5x5_reduce
I0403 19:39:25.701236  9504 net.cpp:425] inception_4e/relu_5x5_reduce <- inception_4e/5x5_reduce
I0403 19:39:25.701254  9504 net.cpp:386] inception_4e/relu_5x5_reduce -> inception_4e/5x5_reduce (in-place)
I0403 19:39:25.701571  9504 net.cpp:141] Setting up inception_4e/relu_5x5_reduce
I0403 19:39:25.701598  9504 net.cpp:148] Top shape: 24 32 14 14 (150528)
I0403 19:39:25.701614  9504 net.cpp:156] Memory required for data: 1237333536
I0403 19:39:25.701632  9504 layer_factory.hpp:77] Creating layer inception_4e/5x5
I0403 19:39:25.701673  9504 net.cpp:91] Creating Layer inception_4e/5x5
I0403 19:39:25.701694  9504 net.cpp:425] inception_4e/5x5 <- inception_4e/5x5_reduce
I0403 19:39:25.701714  9504 net.cpp:399] inception_4e/5x5 -> inception_4e/5x5
I0403 19:39:25.703761  9504 net.cpp:141] Setting up inception_4e/5x5
I0403 19:39:25.703794  9504 net.cpp:148] Top shape: 24 128 14 14 (602112)
I0403 19:39:25.703810  9504 net.cpp:156] Memory required for data: 1239741984
I0403 19:39:25.703831  9504 layer_factory.hpp:77] Creating layer inception_4e/relu_5x5
I0403 19:39:25.703850  9504 net.cpp:91] Creating Layer inception_4e/relu_5x5
I0403 19:39:25.703867  9504 net.cpp:425] inception_4e/relu_5x5 <- inception_4e/5x5
I0403 19:39:25.703888  9504 net.cpp:386] inception_4e/relu_5x5 -> inception_4e/5x5 (in-place)
I0403 19:39:25.704097  9504 net.cpp:141] Setting up inception_4e/relu_5x5
I0403 19:39:25.704124  9504 net.cpp:148] Top shape: 24 128 14 14 (602112)
I0403 19:39:25.704140  9504 net.cpp:156] Memory required for data: 1242150432
I0403 19:39:25.704156  9504 layer_factory.hpp:77] Creating layer inception_4e/pool
I0403 19:39:25.704175  9504 net.cpp:91] Creating Layer inception_4e/pool
I0403 19:39:25.704200  9504 net.cpp:425] inception_4e/pool <- inception_4d/output_inception_4d/output_0_split_4
I0403 19:39:25.704222  9504 net.cpp:399] inception_4e/pool -> inception_4e/pool
I0403 19:39:25.704299  9504 net.cpp:141] Setting up inception_4e/pool
I0403 19:39:25.704325  9504 net.cpp:148] Top shape: 24 528 14 14 (2483712)
I0403 19:39:25.704340  9504 net.cpp:156] Memory required for data: 1252085280
I0403 19:39:25.704356  9504 layer_factory.hpp:77] Creating layer inception_4e/pool_proj
I0403 19:39:25.704381  9504 net.cpp:91] Creating Layer inception_4e/pool_proj
I0403 19:39:25.704401  9504 net.cpp:425] inception_4e/pool_proj <- inception_4e/pool
I0403 19:39:25.704421  9504 net.cpp:399] inception_4e/pool_proj -> inception_4e/pool_proj
I0403 19:39:25.706022  9504 net.cpp:141] Setting up inception_4e/pool_proj
I0403 19:39:25.706063  9504 net.cpp:148] Top shape: 24 128 14 14 (602112)
I0403 19:39:25.706081  9504 net.cpp:156] Memory required for data: 1254493728
I0403 19:39:25.706104  9504 layer_factory.hpp:77] Creating layer inception_4e/relu_pool_proj
I0403 19:39:25.706125  9504 net.cpp:91] Creating Layer inception_4e/relu_pool_proj
I0403 19:39:25.706141  9504 net.cpp:425] inception_4e/relu_pool_proj <- inception_4e/pool_proj
I0403 19:39:25.706159  9504 net.cpp:386] inception_4e/relu_pool_proj -> inception_4e/pool_proj (in-place)
I0403 19:39:25.706480  9504 net.cpp:141] Setting up inception_4e/relu_pool_proj
I0403 19:39:25.706509  9504 net.cpp:148] Top shape: 24 128 14 14 (602112)
I0403 19:39:25.706527  9504 net.cpp:156] Memory required for data: 1256902176
I0403 19:39:25.706543  9504 layer_factory.hpp:77] Creating layer inception_4e/output
I0403 19:39:25.706562  9504 net.cpp:91] Creating Layer inception_4e/output
I0403 19:39:25.706579  9504 net.cpp:425] inception_4e/output <- inception_4e/1x1
I0403 19:39:25.706598  9504 net.cpp:425] inception_4e/output <- inception_4e/3x3
I0403 19:39:25.706615  9504 net.cpp:425] inception_4e/output <- inception_4e/5x5
I0403 19:39:25.706632  9504 net.cpp:425] inception_4e/output <- inception_4e/pool_proj
I0403 19:39:25.706650  9504 net.cpp:399] inception_4e/output -> inception_4e/output
I0403 19:39:25.706703  9504 net.cpp:141] Setting up inception_4e/output
I0403 19:39:25.706729  9504 net.cpp:148] Top shape: 24 832 14 14 (3913728)
I0403 19:39:25.706745  9504 net.cpp:156] Memory required for data: 1272557088
I0403 19:39:25.706761  9504 layer_factory.hpp:77] Creating layer pool4/3x3_s2
I0403 19:39:25.706782  9504 net.cpp:91] Creating Layer pool4/3x3_s2
I0403 19:39:25.706799  9504 net.cpp:425] pool4/3x3_s2 <- inception_4e/output
I0403 19:39:25.706818  9504 net.cpp:399] pool4/3x3_s2 -> pool4/3x3_s2
I0403 19:39:25.706892  9504 net.cpp:141] Setting up pool4/3x3_s2
I0403 19:39:25.706918  9504 net.cpp:148] Top shape: 24 832 7 7 (978432)
I0403 19:39:25.706933  9504 net.cpp:156] Memory required for data: 1276470816
I0403 19:39:25.706949  9504 layer_factory.hpp:77] Creating layer pool4/3x3_s2_pool4/3x3_s2_0_split
I0403 19:39:25.706967  9504 net.cpp:91] Creating Layer pool4/3x3_s2_pool4/3x3_s2_0_split
I0403 19:39:25.706984  9504 net.cpp:425] pool4/3x3_s2_pool4/3x3_s2_0_split <- pool4/3x3_s2
I0403 19:39:25.707005  9504 net.cpp:399] pool4/3x3_s2_pool4/3x3_s2_0_split -> pool4/3x3_s2_pool4/3x3_s2_0_split_0
I0403 19:39:25.707027  9504 net.cpp:399] pool4/3x3_s2_pool4/3x3_s2_0_split -> pool4/3x3_s2_pool4/3x3_s2_0_split_1
I0403 19:39:25.707049  9504 net.cpp:399] pool4/3x3_s2_pool4/3x3_s2_0_split -> pool4/3x3_s2_pool4/3x3_s2_0_split_2
I0403 19:39:25.707070  9504 net.cpp:399] pool4/3x3_s2_pool4/3x3_s2_0_split -> pool4/3x3_s2_pool4/3x3_s2_0_split_3
I0403 19:39:25.707166  9504 net.cpp:141] Setting up pool4/3x3_s2_pool4/3x3_s2_0_split
I0403 19:39:25.707201  9504 net.cpp:148] Top shape: 24 832 7 7 (978432)
I0403 19:39:25.707219  9504 net.cpp:148] Top shape: 24 832 7 7 (978432)
I0403 19:39:25.707237  9504 net.cpp:148] Top shape: 24 832 7 7 (978432)
I0403 19:39:25.707253  9504 net.cpp:148] Top shape: 24 832 7 7 (978432)
I0403 19:39:25.707268  9504 net.cpp:156] Memory required for data: 1292125728
I0403 19:39:25.707283  9504 layer_factory.hpp:77] Creating layer inception_5a/1x1
I0403 19:39:25.707307  9504 net.cpp:91] Creating Layer inception_5a/1x1
I0403 19:39:25.707326  9504 net.cpp:425] inception_5a/1x1 <- pool4/3x3_s2_pool4/3x3_s2_0_split_0
I0403 19:39:25.707346  9504 net.cpp:399] inception_5a/1x1 -> inception_5a/1x1
I0403 19:39:25.710448  9504 net.cpp:141] Setting up inception_5a/1x1
I0403 19:39:25.710479  9504 net.cpp:148] Top shape: 24 256 7 7 (301056)
I0403 19:39:25.710496  9504 net.cpp:156] Memory required for data: 1293329952
I0403 19:39:25.710516  9504 layer_factory.hpp:77] Creating layer inception_5a/relu_1x1
I0403 19:39:25.710536  9504 net.cpp:91] Creating Layer inception_5a/relu_1x1
I0403 19:39:25.710552  9504 net.cpp:425] inception_5a/relu_1x1 <- inception_5a/1x1
I0403 19:39:25.710572  9504 net.cpp:386] inception_5a/relu_1x1 -> inception_5a/1x1 (in-place)
I0403 19:39:25.710929  9504 net.cpp:141] Setting up inception_5a/relu_1x1
I0403 19:39:25.710959  9504 net.cpp:148] Top shape: 24 256 7 7 (301056)
I0403 19:39:25.710975  9504 net.cpp:156] Memory required for data: 1294534176
I0403 19:39:25.710991  9504 layer_factory.hpp:77] Creating layer inception_5a/3x3_reduce
I0403 19:39:25.711015  9504 net.cpp:91] Creating Layer inception_5a/3x3_reduce
I0403 19:39:25.711035  9504 net.cpp:425] inception_5a/3x3_reduce <- pool4/3x3_s2_pool4/3x3_s2_0_split_1
I0403 19:39:25.711058  9504 net.cpp:399] inception_5a/3x3_reduce -> inception_5a/3x3_reduce
I0403 19:39:25.713706  9504 net.cpp:141] Setting up inception_5a/3x3_reduce
I0403 19:39:25.713750  9504 net.cpp:148] Top shape: 24 160 7 7 (188160)
I0403 19:39:25.713786  9504 net.cpp:156] Memory required for data: 1295286816
I0403 19:39:25.713827  9504 layer_factory.hpp:77] Creating layer inception_5a/relu_3x3_reduce
I0403 19:39:25.713855  9504 net.cpp:91] Creating Layer inception_5a/relu_3x3_reduce
I0403 19:39:25.713892  9504 net.cpp:425] inception_5a/relu_3x3_reduce <- inception_5a/3x3_reduce
I0403 19:39:25.713912  9504 net.cpp:386] inception_5a/relu_3x3_reduce -> inception_5a/3x3_reduce (in-place)
I0403 19:39:25.714112  9504 net.cpp:141] Setting up inception_5a/relu_3x3_reduce
I0403 19:39:25.714140  9504 net.cpp:148] Top shape: 24 160 7 7 (188160)
I0403 19:39:25.714156  9504 net.cpp:156] Memory required for data: 1296039456
I0403 19:39:25.714172  9504 layer_factory.hpp:77] Creating layer inception_5a/3x3
I0403 19:39:25.714203  9504 net.cpp:91] Creating Layer inception_5a/3x3
I0403 19:39:25.714223  9504 net.cpp:425] inception_5a/3x3 <- inception_5a/3x3_reduce
I0403 19:39:25.714246  9504 net.cpp:399] inception_5a/3x3 -> inception_5a/3x3
I0403 19:39:25.719594  9504 net.cpp:141] Setting up inception_5a/3x3
I0403 19:39:25.719629  9504 net.cpp:148] Top shape: 24 320 7 7 (376320)
I0403 19:39:25.719646  9504 net.cpp:156] Memory required for data: 1297544736
I0403 19:39:25.719666  9504 layer_factory.hpp:77] Creating layer inception_5a/relu_3x3
I0403 19:39:25.719686  9504 net.cpp:91] Creating Layer inception_5a/relu_3x3
I0403 19:39:25.719702  9504 net.cpp:425] inception_5a/relu_3x3 <- inception_5a/3x3
I0403 19:39:25.719723  9504 net.cpp:386] inception_5a/relu_3x3 -> inception_5a/3x3 (in-place)
I0403 19:39:25.720033  9504 net.cpp:141] Setting up inception_5a/relu_3x3
I0403 19:39:25.720063  9504 net.cpp:148] Top shape: 24 320 7 7 (376320)
I0403 19:39:25.720080  9504 net.cpp:156] Memory required for data: 1299050016
I0403 19:39:25.720096  9504 layer_factory.hpp:77] Creating layer inception_5a/5x5_reduce
I0403 19:39:25.720121  9504 net.cpp:91] Creating Layer inception_5a/5x5_reduce
I0403 19:39:25.720140  9504 net.cpp:425] inception_5a/5x5_reduce <- pool4/3x3_s2_pool4/3x3_s2_0_split_2
I0403 19:39:25.720161  9504 net.cpp:399] inception_5a/5x5_reduce -> inception_5a/5x5_reduce
I0403 19:39:25.721421  9504 net.cpp:141] Setting up inception_5a/5x5_reduce
I0403 19:39:25.721453  9504 net.cpp:148] Top shape: 24 32 7 7 (37632)
I0403 19:39:25.721469  9504 net.cpp:156] Memory required for data: 1299200544
I0403 19:39:25.721490  9504 layer_factory.hpp:77] Creating layer inception_5a/relu_5x5_reduce
I0403 19:39:25.721509  9504 net.cpp:91] Creating Layer inception_5a/relu_5x5_reduce
I0403 19:39:25.721526  9504 net.cpp:425] inception_5a/relu_5x5_reduce <- inception_5a/5x5_reduce
I0403 19:39:25.721551  9504 net.cpp:386] inception_5a/relu_5x5_reduce -> inception_5a/5x5_reduce (in-place)
I0403 19:39:25.721868  9504 net.cpp:141] Setting up inception_5a/relu_5x5_reduce
I0403 19:39:25.721895  9504 net.cpp:148] Top shape: 24 32 7 7 (37632)
I0403 19:39:25.721911  9504 net.cpp:156] Memory required for data: 1299351072
I0403 19:39:25.721927  9504 layer_factory.hpp:77] Creating layer inception_5a/5x5
I0403 19:39:25.721951  9504 net.cpp:91] Creating Layer inception_5a/5x5
I0403 19:39:25.721971  9504 net.cpp:425] inception_5a/5x5 <- inception_5a/5x5_reduce
I0403 19:39:25.721992  9504 net.cpp:399] inception_5a/5x5 -> inception_5a/5x5
I0403 19:39:25.723891  9504 net.cpp:141] Setting up inception_5a/5x5
I0403 19:39:25.723935  9504 net.cpp:148] Top shape: 24 128 7 7 (150528)
I0403 19:39:25.723954  9504 net.cpp:156] Memory required for data: 1299953184
I0403 19:39:25.723974  9504 layer_factory.hpp:77] Creating layer inception_5a/relu_5x5
I0403 19:39:25.723994  9504 net.cpp:91] Creating Layer inception_5a/relu_5x5
I0403 19:39:25.724010  9504 net.cpp:425] inception_5a/relu_5x5 <- inception_5a/5x5
I0403 19:39:25.724031  9504 net.cpp:386] inception_5a/relu_5x5 -> inception_5a/5x5 (in-place)
I0403 19:39:25.724242  9504 net.cpp:141] Setting up inception_5a/relu_5x5
I0403 19:39:25.724269  9504 net.cpp:148] Top shape: 24 128 7 7 (150528)
I0403 19:39:25.724284  9504 net.cpp:156] Memory required for data: 1300555296
I0403 19:39:25.724300  9504 layer_factory.hpp:77] Creating layer inception_5a/pool
I0403 19:39:25.724319  9504 net.cpp:91] Creating Layer inception_5a/pool
I0403 19:39:25.724337  9504 net.cpp:425] inception_5a/pool <- pool4/3x3_s2_pool4/3x3_s2_0_split_3
I0403 19:39:25.724359  9504 net.cpp:399] inception_5a/pool -> inception_5a/pool
I0403 19:39:25.724434  9504 net.cpp:141] Setting up inception_5a/pool
I0403 19:39:25.724459  9504 net.cpp:148] Top shape: 24 832 7 7 (978432)
I0403 19:39:25.724475  9504 net.cpp:156] Memory required for data: 1304469024
I0403 19:39:25.724493  9504 layer_factory.hpp:77] Creating layer inception_5a/pool_proj
I0403 19:39:25.724519  9504 net.cpp:91] Creating Layer inception_5a/pool_proj
I0403 19:39:25.724537  9504 net.cpp:425] inception_5a/pool_proj <- inception_5a/pool
I0403 19:39:25.724557  9504 net.cpp:399] inception_5a/pool_proj -> inception_5a/pool_proj
I0403 19:39:25.727066  9504 net.cpp:141] Setting up inception_5a/pool_proj
I0403 19:39:25.727100  9504 net.cpp:148] Top shape: 24 128 7 7 (150528)
I0403 19:39:25.727121  9504 net.cpp:156] Memory required for data: 1305071136
I0403 19:39:25.727141  9504 layer_factory.hpp:77] Creating layer inception_5a/relu_pool_proj
I0403 19:39:25.727160  9504 net.cpp:91] Creating Layer inception_5a/relu_pool_proj
I0403 19:39:25.727182  9504 net.cpp:425] inception_5a/relu_pool_proj <- inception_5a/pool_proj
I0403 19:39:25.727202  9504 net.cpp:386] inception_5a/relu_pool_proj -> inception_5a/pool_proj (in-place)
I0403 19:39:25.727520  9504 net.cpp:141] Setting up inception_5a/relu_pool_proj
I0403 19:39:25.727551  9504 net.cpp:148] Top shape: 24 128 7 7 (150528)
I0403 19:39:25.727568  9504 net.cpp:156] Memory required for data: 1305673248
I0403 19:39:25.727584  9504 layer_factory.hpp:77] Creating layer inception_5a/output
I0403 19:39:25.727603  9504 net.cpp:91] Creating Layer inception_5a/output
I0403 19:39:25.727620  9504 net.cpp:425] inception_5a/output <- inception_5a/1x1
I0403 19:39:25.727638  9504 net.cpp:425] inception_5a/output <- inception_5a/3x3
I0403 19:39:25.727655  9504 net.cpp:425] inception_5a/output <- inception_5a/5x5
I0403 19:39:25.727674  9504 net.cpp:425] inception_5a/output <- inception_5a/pool_proj
I0403 19:39:25.727691  9504 net.cpp:399] inception_5a/output -> inception_5a/output
I0403 19:39:25.727746  9504 net.cpp:141] Setting up inception_5a/output
I0403 19:39:25.727771  9504 net.cpp:148] Top shape: 24 832 7 7 (978432)
I0403 19:39:25.727787  9504 net.cpp:156] Memory required for data: 1309586976
I0403 19:39:25.727802  9504 layer_factory.hpp:77] Creating layer inception_5a/output_inception_5a/output_0_split
I0403 19:39:25.727823  9504 net.cpp:91] Creating Layer inception_5a/output_inception_5a/output_0_split
I0403 19:39:25.727840  9504 net.cpp:425] inception_5a/output_inception_5a/output_0_split <- inception_5a/output
I0403 19:39:25.727859  9504 net.cpp:399] inception_5a/output_inception_5a/output_0_split -> inception_5a/output_inception_5a/output_0_split_0
I0403 19:39:25.727881  9504 net.cpp:399] inception_5a/output_inception_5a/output_0_split -> inception_5a/output_inception_5a/output_0_split_1
I0403 19:39:25.727903  9504 net.cpp:399] inception_5a/output_inception_5a/output_0_split -> inception_5a/output_inception_5a/output_0_split_2
I0403 19:39:25.727924  9504 net.cpp:399] inception_5a/output_inception_5a/output_0_split -> inception_5a/output_inception_5a/output_0_split_3
I0403 19:39:25.728044  9504 net.cpp:141] Setting up inception_5a/output_inception_5a/output_0_split
I0403 19:39:25.728070  9504 net.cpp:148] Top shape: 24 832 7 7 (978432)
I0403 19:39:25.728088  9504 net.cpp:148] Top shape: 24 832 7 7 (978432)
I0403 19:39:25.728106  9504 net.cpp:148] Top shape: 24 832 7 7 (978432)
I0403 19:39:25.728121  9504 net.cpp:148] Top shape: 24 832 7 7 (978432)
I0403 19:39:25.728137  9504 net.cpp:156] Memory required for data: 1325241888
I0403 19:39:25.728152  9504 layer_factory.hpp:77] Creating layer inception_5b/1x1
I0403 19:39:25.728181  9504 net.cpp:91] Creating Layer inception_5b/1x1
I0403 19:39:25.728204  9504 net.cpp:425] inception_5b/1x1 <- inception_5a/output_inception_5a/output_0_split_0
I0403 19:39:25.728227  9504 net.cpp:399] inception_5b/1x1 -> inception_5b/1x1
I0403 19:39:25.732198  9504 net.cpp:141] Setting up inception_5b/1x1
I0403 19:39:25.732229  9504 net.cpp:148] Top shape: 24 384 7 7 (451584)
I0403 19:39:25.732245  9504 net.cpp:156] Memory required for data: 1327048224
I0403 19:39:25.732264  9504 layer_factory.hpp:77] Creating layer inception_5b/relu_1x1
I0403 19:39:25.732285  9504 net.cpp:91] Creating Layer inception_5b/relu_1x1
I0403 19:39:25.732302  9504 net.cpp:425] inception_5b/relu_1x1 <- inception_5b/1x1
I0403 19:39:25.732321  9504 net.cpp:386] inception_5b/relu_1x1 -> inception_5b/1x1 (in-place)
I0403 19:39:25.732626  9504 net.cpp:141] Setting up inception_5b/relu_1x1
I0403 19:39:25.732652  9504 net.cpp:148] Top shape: 24 384 7 7 (451584)
I0403 19:39:25.732668  9504 net.cpp:156] Memory required for data: 1328854560
I0403 19:39:25.732683  9504 layer_factory.hpp:77] Creating layer inception_5b/3x3_reduce
I0403 19:39:25.732708  9504 net.cpp:91] Creating Layer inception_5b/3x3_reduce
I0403 19:39:25.732728  9504 net.cpp:425] inception_5b/3x3_reduce <- inception_5a/output_inception_5a/output_0_split_1
I0403 19:39:25.732748  9504 net.cpp:399] inception_5b/3x3_reduce -> inception_5b/3x3_reduce
I0403 19:39:25.735424  9504 net.cpp:141] Setting up inception_5b/3x3_reduce
I0403 19:39:25.735460  9504 net.cpp:148] Top shape: 24 192 7 7 (225792)
I0403 19:39:25.735477  9504 net.cpp:156] Memory required for data: 1329757728
I0403 19:39:25.735496  9504 layer_factory.hpp:77] Creating layer inception_5b/relu_3x3_reduce
I0403 19:39:25.735514  9504 net.cpp:91] Creating Layer inception_5b/relu_3x3_reduce
I0403 19:39:25.735530  9504 net.cpp:425] inception_5b/relu_3x3_reduce <- inception_5b/3x3_reduce
I0403 19:39:25.735548  9504 net.cpp:386] inception_5b/relu_3x3_reduce -> inception_5b/3x3_reduce (in-place)
I0403 19:39:25.735741  9504 net.cpp:141] Setting up inception_5b/relu_3x3_reduce
I0403 19:39:25.735769  9504 net.cpp:148] Top shape: 24 192 7 7 (225792)
I0403 19:39:25.735785  9504 net.cpp:156] Memory required for data: 1330660896
I0403 19:39:25.735800  9504 layer_factory.hpp:77] Creating layer inception_5b/3x3
I0403 19:39:25.735822  9504 net.cpp:91] Creating Layer inception_5b/3x3
I0403 19:39:25.735841  9504 net.cpp:425] inception_5b/3x3 <- inception_5b/3x3_reduce
I0403 19:39:25.735865  9504 net.cpp:399] inception_5b/3x3 -> inception_5b/3x3
I0403 19:39:25.742837  9504 net.cpp:141] Setting up inception_5b/3x3
I0403 19:39:25.742873  9504 net.cpp:148] Top shape: 24 384 7 7 (451584)
I0403 19:39:25.742890  9504 net.cpp:156] Memory required for data: 1332467232
I0403 19:39:25.742910  9504 layer_factory.hpp:77] Creating layer inception_5b/relu_3x3
I0403 19:39:25.742929  9504 net.cpp:91] Creating Layer inception_5b/relu_3x3
I0403 19:39:25.742946  9504 net.cpp:425] inception_5b/relu_3x3 <- inception_5b/3x3
I0403 19:39:25.742964  9504 net.cpp:386] inception_5b/relu_3x3 -> inception_5b/3x3 (in-place)
I0403 19:39:25.743279  9504 net.cpp:141] Setting up inception_5b/relu_3x3
I0403 19:39:25.743309  9504 net.cpp:148] Top shape: 24 384 7 7 (451584)
I0403 19:39:25.743325  9504 net.cpp:156] Memory required for data: 1334273568
I0403 19:39:25.743341  9504 layer_factory.hpp:77] Creating layer inception_5b/5x5_reduce
I0403 19:39:25.743379  9504 net.cpp:91] Creating Layer inception_5b/5x5_reduce
I0403 19:39:25.743399  9504 net.cpp:425] inception_5b/5x5_reduce <- inception_5a/output_inception_5a/output_0_split_2
I0403 19:39:25.743419  9504 net.cpp:399] inception_5b/5x5_reduce -> inception_5b/5x5_reduce
I0403 19:39:25.744794  9504 net.cpp:141] Setting up inception_5b/5x5_reduce
I0403 19:39:25.744823  9504 net.cpp:148] Top shape: 24 48 7 7 (56448)
I0403 19:39:25.744845  9504 net.cpp:156] Memory required for data: 1334499360
I0403 19:39:25.744866  9504 layer_factory.hpp:77] Creating layer inception_5b/relu_5x5_reduce
I0403 19:39:25.744886  9504 net.cpp:91] Creating Layer inception_5b/relu_5x5_reduce
I0403 19:39:25.744904  9504 net.cpp:425] inception_5b/relu_5x5_reduce <- inception_5b/5x5_reduce
I0403 19:39:25.744920  9504 net.cpp:386] inception_5b/relu_5x5_reduce -> inception_5b/5x5_reduce (in-place)
I0403 19:39:25.745314  9504 net.cpp:141] Setting up inception_5b/relu_5x5_reduce
I0403 19:39:25.745342  9504 net.cpp:148] Top shape: 24 48 7 7 (56448)
I0403 19:39:25.745358  9504 net.cpp:156] Memory required for data: 1334725152
I0403 19:39:25.745373  9504 layer_factory.hpp:77] Creating layer inception_5b/5x5
I0403 19:39:25.745395  9504 net.cpp:91] Creating Layer inception_5b/5x5
I0403 19:39:25.745412  9504 net.cpp:425] inception_5b/5x5 <- inception_5b/5x5_reduce
I0403 19:39:25.745432  9504 net.cpp:399] inception_5b/5x5 -> inception_5b/5x5
I0403 19:39:25.747593  9504 net.cpp:141] Setting up inception_5b/5x5
I0403 19:39:25.747622  9504 net.cpp:148] Top shape: 24 128 7 7 (150528)
I0403 19:39:25.747638  9504 net.cpp:156] Memory required for data: 1335327264
I0403 19:39:25.747658  9504 layer_factory.hpp:77] Creating layer inception_5b/relu_5x5
I0403 19:39:25.747676  9504 net.cpp:91] Creating Layer inception_5b/relu_5x5
I0403 19:39:25.747694  9504 net.cpp:425] inception_5b/relu_5x5 <- inception_5b/5x5
I0403 19:39:25.747714  9504 net.cpp:386] inception_5b/relu_5x5 -> inception_5b/5x5 (in-place)
I0403 19:39:25.747921  9504 net.cpp:141] Setting up inception_5b/relu_5x5
I0403 19:39:25.747946  9504 net.cpp:148] Top shape: 24 128 7 7 (150528)
I0403 19:39:25.747961  9504 net.cpp:156] Memory required for data: 1335929376
I0403 19:39:25.747977  9504 layer_factory.hpp:77] Creating layer inception_5b/pool
I0403 19:39:25.747998  9504 net.cpp:91] Creating Layer inception_5b/pool
I0403 19:39:25.748018  9504 net.cpp:425] inception_5b/pool <- inception_5a/output_inception_5a/output_0_split_3
I0403 19:39:25.748036  9504 net.cpp:399] inception_5b/pool -> inception_5b/pool
I0403 19:39:25.748111  9504 net.cpp:141] Setting up inception_5b/pool
I0403 19:39:25.748136  9504 net.cpp:148] Top shape: 24 832 7 7 (978432)
I0403 19:39:25.748150  9504 net.cpp:156] Memory required for data: 1339843104
I0403 19:39:25.748165  9504 layer_factory.hpp:77] Creating layer inception_5b/pool_proj
I0403 19:39:25.748195  9504 net.cpp:91] Creating Layer inception_5b/pool_proj
I0403 19:39:25.748215  9504 net.cpp:425] inception_5b/pool_proj <- inception_5b/pool
I0403 19:39:25.748237  9504 net.cpp:399] inception_5b/pool_proj -> inception_5b/pool_proj
I0403 19:39:25.750668  9504 net.cpp:141] Setting up inception_5b/pool_proj
I0403 19:39:25.750700  9504 net.cpp:148] Top shape: 24 128 7 7 (150528)
I0403 19:39:25.750717  9504 net.cpp:156] Memory required for data: 1340445216
I0403 19:39:25.750736  9504 layer_factory.hpp:77] Creating layer inception_5b/relu_pool_proj
I0403 19:39:25.750756  9504 net.cpp:91] Creating Layer inception_5b/relu_pool_proj
I0403 19:39:25.750772  9504 net.cpp:425] inception_5b/relu_pool_proj <- inception_5b/pool_proj
I0403 19:39:25.750792  9504 net.cpp:386] inception_5b/relu_pool_proj -> inception_5b/pool_proj (in-place)
I0403 19:39:25.751098  9504 net.cpp:141] Setting up inception_5b/relu_pool_proj
I0403 19:39:25.751128  9504 net.cpp:148] Top shape: 24 128 7 7 (150528)
I0403 19:39:25.751145  9504 net.cpp:156] Memory required for data: 1341047328
I0403 19:39:25.751162  9504 layer_factory.hpp:77] Creating layer inception_5b/output
I0403 19:39:25.751186  9504 net.cpp:91] Creating Layer inception_5b/output
I0403 19:39:25.751219  9504 net.cpp:425] inception_5b/output <- inception_5b/1x1
I0403 19:39:25.751237  9504 net.cpp:425] inception_5b/output <- inception_5b/3x3
I0403 19:39:25.751255  9504 net.cpp:425] inception_5b/output <- inception_5b/5x5
I0403 19:39:25.751271  9504 net.cpp:425] inception_5b/output <- inception_5b/pool_proj
I0403 19:39:25.751291  9504 net.cpp:399] inception_5b/output -> inception_5b/output
I0403 19:39:25.751346  9504 net.cpp:141] Setting up inception_5b/output
I0403 19:39:25.751371  9504 net.cpp:148] Top shape: 24 1024 7 7 (1204224)
I0403 19:39:25.751386  9504 net.cpp:156] Memory required for data: 1345864224
I0403 19:39:25.751401  9504 layer_factory.hpp:77] Creating layer pool5/7x7_s1
I0403 19:39:25.751423  9504 net.cpp:91] Creating Layer pool5/7x7_s1
I0403 19:39:25.751441  9504 net.cpp:425] pool5/7x7_s1 <- inception_5b/output
I0403 19:39:25.751459  9504 net.cpp:399] pool5/7x7_s1 -> pool5/7x7_s1
I0403 19:39:25.751682  9504 net.cpp:141] Setting up pool5/7x7_s1
I0403 19:39:25.751710  9504 net.cpp:148] Top shape: 24 1024 1 1 (24576)
I0403 19:39:25.751726  9504 net.cpp:156] Memory required for data: 1345962528
I0403 19:39:25.751742  9504 layer_factory.hpp:77] Creating layer pool5/drop_7x7_s1
I0403 19:39:25.751760  9504 net.cpp:91] Creating Layer pool5/drop_7x7_s1
I0403 19:39:25.751777  9504 net.cpp:425] pool5/drop_7x7_s1 <- pool5/7x7_s1
I0403 19:39:25.751796  9504 net.cpp:386] pool5/drop_7x7_s1 -> pool5/7x7_s1 (in-place)
I0403 19:39:25.751847  9504 net.cpp:141] Setting up pool5/drop_7x7_s1
I0403 19:39:25.751873  9504 net.cpp:148] Top shape: 24 1024 1 1 (24576)
I0403 19:39:25.751888  9504 net.cpp:156] Memory required for data: 1346060832
I0403 19:39:25.751904  9504 layer_factory.hpp:77] Creating layer loss3/classifier_plantvillage
I0403 19:39:25.751926  9504 net.cpp:91] Creating Layer loss3/classifier_plantvillage
I0403 19:39:25.751945  9504 net.cpp:425] loss3/classifier_plantvillage <- pool5/7x7_s1
I0403 19:39:25.751966  9504 net.cpp:399] loss3/classifier_plantvillage -> loss3/classifier_plantvillage
I0403 19:39:25.752427  9504 net.cpp:141] Setting up loss3/classifier_plantvillage
I0403 19:39:25.752454  9504 net.cpp:148] Top shape: 24 38 (912)
I0403 19:39:25.752470  9504 net.cpp:156] Memory required for data: 1346064480
I0403 19:39:25.752488  9504 layer_factory.hpp:77] Creating layer loss3/classifier_plantvillage_loss3/classifier_plantvillage_0_split
I0403 19:39:25.752509  9504 net.cpp:91] Creating Layer loss3/classifier_plantvillage_loss3/classifier_plantvillage_0_split
I0403 19:39:25.752526  9504 net.cpp:425] loss3/classifier_plantvillage_loss3/classifier_plantvillage_0_split <- loss3/classifier_plantvillage
I0403 19:39:25.752545  9504 net.cpp:399] loss3/classifier_plantvillage_loss3/classifier_plantvillage_0_split -> loss3/classifier_plantvillage_loss3/classifier_plantvillage_0_split_0
I0403 19:39:25.752567  9504 net.cpp:399] loss3/classifier_plantvillage_loss3/classifier_plantvillage_0_split -> loss3/classifier_plantvillage_loss3/classifier_plantvillage_0_split_1
I0403 19:39:25.752588  9504 net.cpp:399] loss3/classifier_plantvillage_loss3/classifier_plantvillage_0_split -> loss3/classifier_plantvillage_loss3/classifier_plantvillage_0_split_2
I0403 19:39:25.752609  9504 net.cpp:399] loss3/classifier_plantvillage_loss3/classifier_plantvillage_0_split -> loss3/classifier_plantvillage_loss3/classifier_plantvillage_0_split_3
I0403 19:39:25.752714  9504 net.cpp:141] Setting up loss3/classifier_plantvillage_loss3/classifier_plantvillage_0_split
I0403 19:39:25.752738  9504 net.cpp:148] Top shape: 24 38 (912)
I0403 19:39:25.752756  9504 net.cpp:148] Top shape: 24 38 (912)
I0403 19:39:25.752774  9504 net.cpp:148] Top shape: 24 38 (912)
I0403 19:39:25.752790  9504 net.cpp:148] Top shape: 24 38 (912)
I0403 19:39:25.752804  9504 net.cpp:156] Memory required for data: 1346079072
I0403 19:39:25.752820  9504 layer_factory.hpp:77] Creating layer loss1/loss
I0403 19:39:25.752841  9504 net.cpp:91] Creating Layer loss1/loss
I0403 19:39:25.752859  9504 net.cpp:425] loss1/loss <- loss1/classifier_plantvillage_loss1/classifier_plantvillage_0_split_0
I0403 19:39:25.752890  9504 net.cpp:425] loss1/loss <- label_data_1_split_0
…
