…
I0403 19:48:21.810025  9695 net.cpp:313] The NetState phase (1) differed from the phase (0) specified by a rule in layer data
I0403 19:48:21.811256  9695 net.cpp:49] Initializing net from parameters: 
state {
  phase: TEST
}
layer {
  name: "data"
  type: "Data"
  top: "data"
  top: "label"
  include {
    phase: TEST
  }
  transform_param {
    mirror: false
    crop_size: 224
    mean_file: "/home/mohanty/data/final_dataset/lmdb/grayscale-50-50/mean.binaryproto"
  }
  data_param {
    source: "/home/mohanty/data/final_dataset/lmdb/grayscale-50-50/test_db"
    batch_size: 24
    backend: LMDB
  }
}
layer {
  name: "conv1/7x7_s2"
  type: "Convolution"
  bottom: "data"
  top: "conv1/7x7_s2"
  param {
    lr_mult: 1
    decay_mult: 1
  }
  param {
    lr_mult: 2
    decay_mult: 0
  }
  convolution_param {
    num_output: 64
    pad: 3
    kernel_size: 7
    stride: 2
    weight_filler {
      type: "xavier"
      std: 0.1
    }
    bias_filler {
      type: "constant"
      value: 0.2
    }
  }
}
layer {
  name: "conv1/relu_7x7"
  type: "ReLU"
  bottom: "conv1/7x7_s2"
  top: "conv1/7x7_s2"
}
layer {
  name: "pool1/3x3_s2"
  type: "Pooling"
  bottom: "conv1/7x7_s2"
  top: "pool1/3x3_s2"
  pooling_param {
    pool: MAX
    kernel_size: 3
    stride: 2
  }
}
layer {
  name: "pool1/norm1"
  type: "LRN"
  bottom: "pool1/3x3_s2"
  top: "pool1/norm1"
  lrn_param {
    local_size: 5
    alpha: 0.0001
    beta: 0.75
  }
}
layer {
  name: "conv2/3x3_reduce"
  type: "Convolution"
  bottom: "pool1/norm1"
  top: "conv2/3x3_reduce"
  param {
    lr_mult: 1
    decay_mult: 1
  }
  param {
    lr_mult: 2
    decay_mult: 0
  }
  convolution_param {
    num_output: 64
    kernel_size: 1
    weight_filler {
      type: "xavier"
      std: 0.1
    }
    bias_filler {
      type: "constant"
      value: 0.2
    }
  }
}
layer {
  name: "conv2/relu_3x3_reduce"
  type: "ReLU"
  bottom: "conv2/3x3_reduce"
  top: "conv2/3x3_reduce"
}
layer {
  name: "conv2/3x3"
  type: "Convolution"
  bottom: "conv2/3x3_reduce"
  top: "conv2/3x3"
  param {
    lr_mult: 1
    decay_mult: 1
  }
  param {
    lr_mult: 2
    decay_mult: 0
  }
  convolution_param {
    num_output: 192
    pad: 1
    kernel_size: 3
    weight_filler {
      type: "xavier"
      std: 0.03
    }
    bias_filler {
      type: "constant"
      value: 0.2
    }
  }
}
layer {
  name: "conv2/relu_3x3"
  type: "ReLU"
  bottom: "conv2/3x3"
  top: "conv2/3x3"
}
layer {
  name: "conv2/norm2"
  type: "LRN"
  bottom: "conv2/3x3"
  top: "conv2/norm2"
  lrn_param {
    local_size: 5
    alpha: 0.0001
    beta: 0.75
  }
}
layer {
  name: "pool2/3x3_s2"
  type: "Pooling"
  bottom: "conv2/norm2"
  top: "pool2/3x3_s2"
  pooling_param {
    pool: MAX
    kernel_size: 3
    stride: 2
  }
}
layer {
  name: "inception_3a/1x1"
  type: "Convolution"
  bottom: "pool2/3x3_s2"
  top: "inception_3a/1x1"
  param {
    lr_mult: 1
    decay_mult: 1
  }
  param {
    lr_mult: 2
    decay_mult: 0
  }
  convolution_param {
    num_output: 64
    kernel_size: 1
    weight_filler {
      type: "xavier"
      std: 0.03
    }
    bias_filler {
      type: "constant"
      value: 0.2
    }
  }
}
layer {
  name: "inception_3a/relu_1x1"
  type: "ReLU"
  bottom: "inception_3a/1x1"
  top: "inception_3a/1x1"
}
layer {
  name: "inception_3a/3x3_reduce"
  type: "Convolution"
  bottom: "pool2/3x3_s2"
  top: "inception_3a/3x3_reduce"
  param {
    lr_mult: 1
    decay_mult: 1
  }
  param {
    lr_mult: 2
    decay_mult: 0
  }
  convolution_param {
    num_output: 96
    kernel_size: 1
    weight_filler {
      type: "xavier"
      std: 0.09
    }
    bias_filler {
      type: "constant"
      value: 0.2
    }
  }
}
layer {
  name: "inception_3a/relu_3x3_reduce"
  type: "ReLU"
  bottom: "inception_3a/3x3_reduce"
  top: "inception_3a/3x3_reduce"
}
layer {
  name: "inception_3a/3x3"
  type: "Convolution"
  bottom: "inception_3a/3x3_reduce"
  top: "inception_3a/3x3"
  param {
    lr_mult: 1
    decay_mult: 1
  }
  param {
    lr_mult: 2
    decay_mult: 0
  }
  convolution_param {
    num_output: 128
    pad: 1
    kernel_size: 3
    weight_filler {
      type: "xavier"
      std: 0.03
    }
    bias_filler {
      type: "constant"
      value: 0.2
    }
  }
}
layer {
  name: "inception_3a/relu_3x3"
  type: "ReLU"
  bottom: "inception_3a/3x3"
  top: "inception_3a/3x3"
}
layer {
  name: "inception_3a/5x5_reduce"
  type: "Convolution"
  bottom: "pool2/3x3_s2"
  top: "inception_3a/5x5_reduce"
  param {
    lr_mult: 1
    decay_mult: 1
  }
  param {
    lr_mult: 2
    decay_mult: 0
  }
  convolution_param {
    num_output: 16
    kernel_size: 1
    weight_filler {
      type: "xavier"
      std: 0.2
    }
    bias_filler {
      type: "constant"
      value: 0.2
    }
  }
}
layer {
  name: "inception_3a/relu_5x5_reduce"
  type: "ReLU"
  bottom: "inception_3a/5x5_reduce"
  top: "inception_3a/5x5_reduce"
}
layer {
  name: "inception_3a/5x5"
  type: "Convolution"
  bottom: "inception_3a/5x5_reduce"
  top: "inception_3a/5x5"
  param {
    lr_mult: 1
    decay_mult: 1
  }
  param {
    lr_mult: 2
    decay_mult: 0
  }
  convolution_param {
    num_output: 32
    pad: 2
    kernel_size: 5
    weight_filler {
      type: "xavier"
      std: 0.03
    }
    bias_filler {
      type: "constant"
      value: 0.2
    }
  }
}
layer {
  name: "inception_3a/relu_5x5"
  type: "ReLU"
  bottom: "inception_3a/5x5"
  top: "inception_3a/5x5"
}
layer {
  name: "inception_3a/pool"
  type: "Pooling"
  bottom: "pool2/3x3_s2"
  top: "inception_3a/pool"
  pooling_param {
    pool: MAX
    kernel_size: 3
    stride: 1
    pad: 1
  }
}
layer {
  name: "inception_3a/pool_proj"
  type: "Convolution"
  bottom: "inception_3a/pool"
  top: "inception_3a/pool_proj"
  param {
    lr_mult: 1
    decay_mult: 1
  }
  param {
    lr_mult: 2
    decay_mult: 0
  }
  convolution_param {
    num_output: 32
    kernel_size: 1
    weight_filler {
      type: "xavier"
      std: 0.1
    }
    bias_filler {
      type: "constant"
      value: 0.2
    }
  }
}
layer {
  name: "inception_3a/relu_pool_proj"
  type: "ReLU"
  bottom: "inception_3a/pool_proj"
  top: "inception_3a/pool_proj"
}
layer {
  name: "inception_3a/output"
  type: "Concat"
  bottom: "inception_3a/1x1"
  bottom: "inception_3a/3x3"
  bottom: "inception_3a/5x5"
  bottom: "inception_3a/pool_proj"
  top: "inception_3a/output"
}
layer {
  name: "inception_3b/1x1"
  type: "Convolution"
  bottom: "inception_3a/output"
  top: "inception_3b/1x1"
  param {
    lr_mult: 1
    decay_mult: 1
  }
  param {
    lr_mult: 2
    decay_mult: 0
  }
  convolution_param {
    num_output: 128
    kernel_size: 1
    weight_filler {
      type: "xavier"
      std: 0.03
    }
    bias_filler {
      type: "constant"
      value: 0.2
    }
  }
}
layer {
  name: "inception_3b/relu_1x1"
  type: "ReLU"
  bottom: "inception_3b/1x1"
  top: "inception_3b/1x1"
}
layer {
  name: "inception_3b/3x3_reduce"
  type: "Convolution"
  bottom: "inception_3a/output"
  top: "inception_3b/3x3_reduce"
  param {
    lr_mult: 1
    decay_mult: 1
  }
  param {
    lr_mult: 2
    decay_mult: 0
  }
  convolution_param {
    num_output: 128
    kernel_size: 1
    weight_filler {
      type: "xavier"
      std: 0.09
    }
    bias_filler {
      type: "constant"
      value: 0.2
    }
  }
}
layer {
  name: "inception_3b/relu_3x3_reduce"
  type: "ReLU"
  bottom: "inception_3b/3x3_reduce"
  top: "inception_3b/3x3_reduce"
}
layer {
  name: "inception_3b/3x3"
  type: "Convolution"
  bottom: "inception_3b/3x3_reduce"
  top: "inception_3b/3x3"
  param {
    lr_mult: 1
    decay_mult: 1
  }
  param {
    lr_mult: 2
    decay_mult: 0
  }
  convolution_param {
    num_output: 192
    pad: 1
    kernel_size: 3
    weight_filler {
      type: "xavier"
      std: 0.03
    }
    bias_filler {
      type: "constant"
      value: 0.2
    }
  }
}
layer {
  name: "inception_3b/relu_3x3"
  type: "ReLU"
  bottom: "inception_3b/3x3"
  top: "inception_3b/3x3"
}
layer {
  name: "inception_3b/5x5_reduce"
  type: "Convolution"
  bottom: "inception_3a/output"
  top: "inception_3b/5x5_reduce"
  param {
    lr_mult: 1
    decay_mult: 1
  }
  param {
    lr_mult: 2
    decay_mult: 0
  }
  convolution_param {
    num_output: 32
    kernel_size: 1
    weight_filler {
      type: "xavier"
      std: 0.2
    }
    bias_filler {
      type: "constant"
      value: 0.2
    }
  }
}
layer {
  name: "inception_3b/relu_5x5_reduce"
  type: "ReLU"
  bottom: "inception_3b/5x5_reduce"
  top: "inception_3b/5x5_reduce"
}
layer {
  name: "inception_3b/5x5"
  type: "Convolution"
  bottom: "inception_3b/5x5_reduce"
  top: "inception_3b/5x5"
  param {
    lr_mult: 1
    decay_mult: 1
  }
  param {
    lr_mult: 2
    decay_mult: 0
  }
  convolution_param {
    num_output: 96
    pad: 2
    kernel_size: 5
    weight_filler {
      type: "xavier"
      std: 0.03
    }
    bias_filler {
      type: "constant"
      value: 0.2
    }
  }
}
layer {
  name: "inception_3b/relu_5x5"
  type: "ReLU"
  bottom: "inception_3b/5x5"
  top: "inception_3b/5x5"
}
layer {
  name: "inception_3b/pool"
  type: "Pooling"
  bottom: "inception_3a/output"
  top: "inception_3b/pool"
  pooling_param {
    pool: MAX
    kernel_size: 3
    stride: 1
    pad: 1
  }
}
layer {
  name: "inception_3b/pool_proj"
  type: "Convolution"
  bottom: "inception_3b/pool"
  top: "inception_3b/pool_proj"
  param {
    lr_mult: 1
    decay_mult: 1
  }
  param {
    lr_mult: 2
    decay_mult: 0
  }
  convolution_param {
    num_output: 64
    kernel_size: 1
    weight_filler {
      type: "xavier"
      std: 0.1
    }
    bias_filler {
      type: "constant"
      value: 0.2
    }
  }
}
layer {
  name: "inception_3b/relu_pool_proj"
  type: "ReLU"
  bottom: "inception_3b/pool_proj"
  top: "inception_3b/pool_proj"
}
layer {
  name: "inception_3b/output"
  type: "Concat"
  bottom: "inception_3b/1x1"
  bottom: "inception_3b/3x3"
  bottom: "inception_3b/5x5"
  bottom: "inception_3b/pool_proj"
  top: "inception_3b/output"
}
layer {
  name: "pool3/3x3_s2"
  type: "Pooling"
  bottom: "inception_3b/output"
  top: "pool3/3x3_s2"
  pooling_param {
    pool: MAX
    kernel_size: 3
    stride: 2
  }
}
layer {
  name: "inception_4a/1x1"
  type: "Convolution"
  bottom: "pool3/3x3_s2"
  top: "inception_4a/1x1"
  param {
    lr_mult: 1
    decay_mult: 1
  }
  param {
    lr_mult: 2
    decay_mult: 0
  }
  convolution_param {
    num_output: 192
    kernel_size: 1
    weight_filler {
      type: "xavier"
      std: 0.03
    }
    bias_filler {
      type: "constant"
      value: 0.2
    }
  }
}
layer {
  name: "inception_4a/relu_1x1"
  type: "ReLU"
  bottom: "inception_4a/1x1"
  top: "inception_4a/1x1"
}
layer {
  name: "inception_4a/3x3_reduce"
  type: "Convolution"
  bottom: "pool3/3x3_s2"
  top: "inception_4a/3x3_reduce"
  param {
    lr_mult: 1
    decay_mult: 1
  }
  param {
    lr_mult: 2
    decay_mult: 0
  }
  convolution_param {
    num_output: 96
    kernel_size: 1
    weight_filler {
      type: "xavier"
      std: 0.09
    }
    bias_filler {
      type: "constant"
      value: 0.2
    }
  }
}
layer {
  name: "inception_4a/relu_3x3_reduce"
  type: "ReLU"
  bottom: "inception_4a/3x3_reduce"
  top: "inception_4a/3x3_reduce"
}
layer {
  name: "inception_4a/3x3"
  type: "Convolution"
  bottom: "inception_4a/3x3_reduce"
  top: "inception_4a/3x3"
  param {
    lr_mult: 1
    decay_mult: 1
  }
  param {
    lr_mult: 2
    decay_mult: 0
  }
  convolution_param {
    num_output: 208
    pad: 1
    kernel_size: 3
    weight_filler {
      type: "xavier"
      std: 0.03
    }
    bias_filler {
      type: "constant"
      value: 0.2
    }
  }
}
layer {
  name: "inception_4a/relu_3x3"
  type: "ReLU"
  bottom: "inception_4a/3x3"
  top: "inception_4a/3x3"
}
layer {
  name: "inception_4a/5x5_reduce"
  type: "Convolution"
  bottom: "pool3/3x3_s2"
  top: "inception_4a/5x5_reduce"
  param {
    lr_mult: 1
    decay_mult: 1
  }
  param {
    lr_mult: 2
    decay_mult: 0
  }
  convolution_param {
    num_output: 16
    kernel_size: 1
    weight_filler {
      type: "xavier"
      std: 0.2
    }
    bias_filler {
      type: "constant"
      value: 0.2
    }
  }
}
layer {
  name: "inception_4a/relu_5x5_reduce"
  type: "ReLU"
  bottom: "inception_4a/5x5_reduce"
  top: "inception_4a/5x5_reduce"
}
layer {
  name: "inception_4a/5x5"
  type: "Convolution"
  bottom: "inception_4a/5x5_reduce"
  top: "inception_4a/5x5"
  param {
    lr_mult: 1
    decay_mult: 1
  }
  param {
    lr_mult: 2
    decay_mult: 0
  }
  convolution_param {
    num_output: 48
    pad: 2
    kernel_size: 5
    weight_filler {
      type: "xavier"
      std: 0.03
    }
    bias_filler {
      type: "constant"
      value: 0.2
    }
  }
}
layer {
  name: "inception_4a/relu_5x5"
  type: "ReLU"
  bottom: "inception_4a/5x5"
  top: "inception_4a/5x5"
}
layer {
  name: "inception_4a/pool"
  type: "Pooling"
  bottom: "pool3/3x3_s2"
  top: "inception_4a/pool"
  pooling_param {
    pool: MAX
    kernel_size: 3
    stride: 1
    pad: 1
  }
}
layer {
  name: "inception_4a/pool_proj"
  type: "Convolution"
  bottom: "inception_4a/pool"
  top: "inception_4a/pool_proj"
  param {
    lr_mult: 1
    decay_mult: 1
  }
  param {
    lr_mult: 2
    decay_mult: 0
  }
  convolution_param {
    num_output: 64
    kernel_size: 1
    weight_filler {
      type: "xavier"
      std: 0.1
    }
    bias_filler {
      type: "constant"
      value: 0.2
    }
  }
}
layer {
  name: "inception_4a/relu_pool_proj"
  type: "ReLU"
  bottom: "inception_4a/pool_proj"
  top: "inception_4a/pool_proj"
}
layer {
  name: "inception_4a/output"
  type: "Concat"
  bottom: "inception_4a/1x1"
  bottom: "inception_4a/3x3"
  bottom: "inception_4a/5x5"
  bottom: "inception_4a/pool_proj"
  top: "inception_4a/output"
}
layer {
  name: "loss1/ave_pool"
  type: "Pooling"
  bottom: "inception_4a/output"
  top: "loss1/ave_pool"
  pooling_param {
    pool: AVE
    kernel_size: 5
    stride: 3
  }
}
layer {
  name: "loss1/conv"
  type: "Convolution"
  bottom: "loss1/ave_pool"
  top: "loss1/conv"
  param {
    lr_mult: 1
    decay_mult: 1
  }
  param {
    lr_mult: 2
    decay_mult: 0
  }
  convolution_param {
    num_output: 128
    kernel_size: 1
    weight_filler {
      type: "xavier"
      std: 0.08
    }
    bias_filler {
      type: "constant"
      value: 0.2
    }
  }
}
layer {
  name: "loss1/relu_conv"
  type: "ReLU"
  bottom: "loss1/conv"
  top: "loss1/conv"
}
layer {
  name: "loss1/fc"
  type: "InnerProduct"
  bottom: "loss1/conv"
  top: "loss1/fc"
  param {
    lr_mult: 1
    decay_mult: 1
  }
  param {
    lr_mult: 2
    decay_mult: 0
  }
  inner_product_param {
    num_output: 1024
    weight_filler {
      type: "xavier"
      std: 0.02
    }
    bias_filler {
      type: "constant"
      value: 0.2
    }
  }
}
layer {
  name: "loss1/relu_fc"
  type: "ReLU"
  bottom: "loss1/fc"
  top: "loss1/fc"
}
layer {
  name: "loss1/drop_fc"
  type: "Dropout"
  bottom: "loss1/fc"
  top: "loss1/fc"
  dropout_param {
    dropout_ratio: 0.7
  }
}
layer {
  name: "loss1/classifier_plantvillage"
  type: "InnerProduct"
  bottom: "loss1/fc"
  top: "loss1/classifier_plantvillage"
  param {
    lr_mult: 1
    decay_mult: 1
  }
  param {
    lr_mult: 2
    decay_mult: 0
  }
  inner_product_param {
    num_output: 38
    weight_filler {
      type: "xavier"
      std: 0.0009765625
    }
    bias_filler {
      type: "constant"
      value: 0
    }
  }
}
layer {
  name: "inception_4b/1x1"
  type: "Convolution"
  bottom: "inception_4a/output"
  top: "inception_4b/1x1"
  param {
    lr_mult: 1
    decay_mult: 1
  }
  param {
    lr_mult: 2
    decay_mult: 0
  }
  convolution_param {
    num_output: 160
    kernel_size: 1
    weight_filler {
      type: "xavier"
      std: 0.03
    }
    bias_filler {
      type: "constant"
      value: 0.2
    }
  }
}
layer {
  name: "inception_4b/relu_1x1"
  type: "ReLU"
  bottom: "inception_4b/1x1"
  top: "inception_4b/1x1"
}
layer {
  name: "inception_4b/3x3_reduce"
  type: "Convolution"
  bottom: "inception_4a/output"
  top: "inception_4b/3x3_reduce"
  param {
    lr_mult: 1
    decay_mult: 1
  }
  param {
    lr_mult: 2
    decay_mult: 0
  }
  convolution_param {
    num_output: 112
    kernel_size: 1
    weight_filler {
      type: "xavier"
      std: 0.09
    }
    bias_filler {
      type: "constant"
      value: 0.2
    }
  }
}
layer {
  name: "inception_4b/relu_3x3_reduce"
  type: "ReLU"
  bottom: "inception_4b/3x3_reduce"
  top: "inception_4b/3x3_reduce"
}
layer {
  name: "inception_4b/3x3"
  type: "Convolution"
  bottom: "inception_4b/3x3_reduce"
  top: "inception_4b/3x3"
  param {
    lr_mult: 1
    decay_mult: 1
  }
  param {
    lr_mult: 2
    decay_mult: 0
  }
  convolution_param {
    num_output: 224
    pad: 1
    kernel_size: 3
    weight_filler {
      type: "xavier"
      std: 0.03
    }
    bias_filler {
      type: "constant"
      value: 0.2
    }
  }
}
layer {
  name: "inception_4b/relu_3x3"
  type: "ReLU"
  bottom: "inception_4b/3x3"
  top: "inception_4b/3x3"
}
layer {
  name: "inception_4b/5x5_reduce"
  type: "Convolution"
  bottom: "inception_4a/output"
  top: "inception_4b/5x5_reduce"
  param {
    lr_mult: 1
    decay_mult: 1
  }
  param {
    lr_mult: 2
    decay_mult: 0
  }
  convolution_param {
    num_output: 24
    kernel_size: 1
    weight_filler {
      type: "xavier"
      std: 0.2
    }
    bias_filler {
      type: "constant"
      value: 0.2
    }
  }
}
layer {
  name: "inception_4b/relu_5x5_reduce"
  type: "ReLU"
  bottom: "inception_4b/5x5_reduce"
  top: "inception_4b/5x5_reduce"
}
layer {
  name: "inception_4b/5x5"
  type: "Convolution"
  bottom: "inception_4b/5x5_reduce"
  top: "inception_4b/5x5"
  param {
    lr_mult: 1
    decay_mult: 1
  }
  param {
    lr_mult: 2
    decay_mult: 0
  }
  convolution_param {
    num_output: 64
    pad: 2
    kernel_size: 5
    weight_filler {
      type: "xavier"
      std: 0.03
    }
    bias_filler {
      type: "constant"
      value: 0.2
    }
  }
}
layer {
  name: "inception_4b/relu_5x5"
  type: "ReLU"
  bottom: "inception_4b/5x5"
  top: "inception_4b/5x5"
}
layer {
  name: "inception_4b/pool"
  type: "Pooling"
  bottom: "inception_4a/output"
  top: "inception_4b/pool"
  pooling_param {
    pool: MAX
    kernel_size: 3
    stride: 1
    pad: 1
  }
}
layer {
  name: "inception_4b/pool_proj"
  type: "Convolution"
  bottom: "inception_4b/pool"
  top: "inception_4b/pool_proj"
  param {
    lr_mult: 1
    decay_mult: 1
  }
  param {
    lr_mult: 2
    decay_mult: 0
  }
  convolution_param {
    num_output: 64
    kernel_size: 1
    weight_filler {
      type: "xavier"
      std: 0.1
    }
    bias_filler {
      type: "constant"
      value: 0.2
    }
  }
}
layer {
  name: "inception_4b/relu_pool_proj"
  type: "ReLU"
  bottom: "inception_4b/pool_proj"
  top: "inception_4b/pool_proj"
}
layer {
  name: "inception_4b/output"
  type: "Concat"
  bottom: "inception_4b/1x1"
  bottom: "inception_4b/3x3"
  bottom: "inception_4b/5x5"
  bottom: "inception_4b/pool_proj"
  top: "inception_4b/output"
}
layer {
  name: "inception_4c/1x1"
  type: "Convolution"
  bottom: "inception_4b/output"
  top: "inception_4c/1x1"
  param {
    lr_mult: 1
    decay_mult: 1
  }
  param {
    lr_mult: 2
    decay_mult: 0
  }
  convolution_param {
    num_output: 128
    kernel_size: 1
    weight_filler {
      type: "xavier"
      std: 0.03
    }
    bias_filler {
      type: "constant"
      value: 0.2
    }
  }
}
layer {
  name: "inception_4c/relu_1x1"
  type: "ReLU"
  bottom: "inception_4c/1x1"
  top: "inception_4c/1x1"
}
layer {
  name: "inception_4c/3x3_reduce"
  type: "Convolution"
  bottom: "inception_4b/output"
  top: "inception_4c/3x3_reduce"
  param {
    lr_mult: 1
    decay_mult: 1
  }
  param {
    lr_mult: 2
    decay_mult: 0
  }
  convolution_param {
    num_output: 128
    kernel_size: 1
    weight_filler {
      type: "xavier"
      std: 0.09
    }
    bias_filler {
      type: "constant"
      value: 0.2
    }
  }
}
layer {
  name: "inception_4c/relu_3x3_reduce"
  type: "ReLU"
  bottom: "inception_4c/3x3_reduce"
  top: "inception_4c/3x3_reduce"
}
layer {
  name: "inception_4c/3x3"
  type: "Convolution"
  bottom: "inception_4c/3x3_reduce"
  top: "inception_4c/3x3"
  param {
    lr_mult: 1
    decay_mult: 1
  }
  param {
    lr_mult: 2
    decay_mult: 0
  }
  convolution_param {
    num_output: 256
    pad: 1
    kernel_size: 3
    weight_filler {
      type: "xavier"
      std: 0.03
    }
    bias_filler {
      type: "constant"
      value: 0.2
    }
  }
}
layer {
  name: "inception_4c/relu_3x3"
  type: "ReLU"
  bottom: "inception_4c/3x3"
  top: "inception_4c/3x3"
}
layer {
  name: "inception_4c/5x5_reduce"
  type: "Convolution"
  bottom: "inception_4b/output"
  top: "inception_4c/5x5_reduce"
  param {
    lr_mult: 1
    decay_mult: 1
  }
  param {
    lr_mult: 2
    decay_mult: 0
  }
  convolution_param {
    num_output: 24
    kernel_size: 1
    weight_filler {
      type: "xavier"
      std: 0.2
    }
    bias_filler {
      type: "constant"
      value: 0.2
    }
  }
}
layer {
  name: "inception_4c/relu_5x5_reduce"
  type: "ReLU"
  bottom: "inception_4c/5x5_reduce"
  top: "inception_4c/5x5_reduce"
}
layer {
  name: "inception_4c/5x5"
  type: "Convolution"
  bottom: "inception_4c/5x5_reduce"
  top: "inception_4c/5x5"
  param {
    lr_mult: 1
    decay_mult: 1
  }
  param {
    lr_mult: 2
    decay_mult: 0
  }
  convolution_param {
    num_output: 64
    pad: 2
    kernel_size: 5
    weight_filler {
      type: "xavier"
      std: 0.03
    }
    bias_filler {
      type: "constant"
      value: 0.2
    }
  }
}
layer {
  name: "inception_4c/relu_5x5"
  type: "ReLU"
  bottom: "inception_4c/5x5"
  top: "inception_4c/5x5"
}
layer {
  name: "inception_4c/pool"
  type: "Pooling"
  bottom: "inception_4b/output"
  top: "inception_4c/pool"
  pooling_param {
    pool: MAX
    kernel_size: 3
    stride: 1
    pad: 1
  }
}
layer {
  name: "inception_4c/pool_proj"
  type: "Convolution"
  bottom: "inception_4c/pool"
  top: "inception_4c/pool_proj"
  param {
    lr_mult: 1
    decay_mult: 1
  }
  param {
    lr_mult: 2
    decay_mult: 0
  }
  convolution_param {
    num_output: 64
    kernel_size: 1
    weight_filler {
      type: "xavier"
      std: 0.1
    }
    bias_filler {
      type: "constant"
      value: 0.2
    }
  }
}
layer {
  name: "inception_4c/relu_pool_proj"
  type: "ReLU"
  bottom: "inception_4c/pool_proj"
  top: "inception_4c/pool_proj"
}
layer {
  name: "inception_4c/output"
  type: "Concat"
  bottom: "inception_4c/1x1"
  bottom: "inception_4c/3x3"
  bottom: "inception_4c/5x5"
  bottom: "inception_4c/pool_proj"
  top: "inception_4c/output"
}
layer {
  name: "inception_4d/1x1"
  type: "Convolution"
  bottom: "inception_4c/output"
  top: "inception_4d/1x1"
  param {
    lr_mult: 1
    decay_mult: 1
  }
  param {
    lr_mult: 2
    decay_mult: 0
  }
  convolution_param {
    num_output: 112
    kernel_size: 1
    weight_filler {
      type: "xavier"
      std: 0.03
    }
    bias_filler {
      type: "constant"
      value: 0.2
    }
  }
}
layer {
  name: "inception_4d/relu_1x1"
  type: "ReLU"
  bottom: "inception_4d/1x1"
  top: "inception_4d/1x1"
}
layer {
  name: "inception_4d/3x3_reduce"
  type: "Convolution"
  bottom: "inception_4c/output"
  top: "inception_4d/3x3_reduce"
  param {
    lr_mult: 1
    decay_mult: 1
  }
  param {
    lr_mult: 2
    decay_mult: 0
  }
  convolution_param {
    num_output: 144
    kernel_size: 1
    weight_filler {
      type: "xavier"
      std: 0.09
    }
    bias_filler {
      type: "constant"
      value: 0.2
    }
  }
}
layer {
  name: "inception_4d/relu_3x3_reduce"
  type: "ReLU"
  bottom: "inception_4d/3x3_reduce"
  top: "inception_4d/3x3_reduce"
}
layer {
  name: "inception_4d/3x3"
  type: "Convolution"
  bottom: "inception_4d/3x3_reduce"
  top: "inception_4d/3x3"
  param {
    lr_mult: 1
    decay_mult: 1
  }
  param {
    lr_mult: 2
    decay_mult: 0
  }
  convolution_param {
    num_output: 288
    pad: 1
    kernel_size: 3
    weight_filler {
      type: "xavier"
      std: 0.03
    }
    bias_filler {
      type: "constant"
      value: 0.2
    }
  }
}
layer {
  name: "inception_4d/relu_3x3"
  type: "ReLU"
  bottom: "inception_4d/3x3"
  top: "inception_4d/3x3"
}
layer {
  name: "inception_4d/5x5_reduce"
  type: "Convolution"
  bottom: "inception_4c/output"
  top: "inception_4d/5x5_reduce"
  param {
    lr_mult: 1
    decay_mult: 1
  }
  param {
    lr_mult: 2
    decay_mult: 0
  }
  convolution_param {
    num_output: 32
    kernel_size: 1
    weight_filler {
      type: "xavier"
      std: 0.2
    }
    bias_filler {
      type: "constant"
      value: 0.2
    }
  }
}
layer {
  name: "inception_4d/relu_5x5_reduce"
  type: "ReLU"
  bottom: "inception_4d/5x5_reduce"
  top: "inception_4d/5x5_reduce"
}
layer {
  name: "inception_4d/5x5"
  type: "Convolution"
  bottom: "inception_4d/5x5_reduce"
  top: "inception_4d/5x5"
  param {
    lr_mult: 1
    decay_mult: 1
  }
  param {
    lr_mult: 2
    decay_mult: 0
  }
  convolution_param {
    num_output: 64
    pad: 2
    kernel_size: 5
    weight_filler {
      type: "xavier"
      std: 0.03
    }
    bias_filler {
      type: "constant"
      value: 0.2
    }
  }
}
layer {
  name: "inception_4d/relu_5x5"
  type: "ReLU"
  bottom: "inception_4d/5x5"
  top: "inception_4d/5x5"
}
layer {
  name: "inception_4d/pool"
  type: "Pooling"
  bottom: "inception_4c/output"
  top: "inception_4d/pool"
  pooling_param {
    pool: MAX
    kernel_size: 3
    stride: 1
    pad: 1
  }
}
layer {
  name: "inception_4d/pool_proj"
  type: "Convolution"
  bottom: "inception_4d/pool"
  top: "inception_4d/pool_proj"
  param {
    lr_mult: 1
    decay_mult: 1
  }
  param {
    lr_mult: 2
    decay_mult: 0
  }
  convolution_param {
    num_output: 64
    kernel_size: 1
    weight_filler {
      type: "xavier"
      std: 0.1
    }
    bias_filler {
      type: "constant"
      value: 0.2
    }
  }
}
layer {
  name: "inception_4d/relu_pool_proj"
  type: "ReLU"
  bottom: "inception_4d/pool_proj"
  top: "inception_4d/pool_proj"
}
layer {
  name: "inception_4d/output"
  type: "Concat"
  bottom: "inception_4d/1x1"
  bottom: "inception_4d/3x3"
  bottom: "inception_4d/5x5"
  bottom: "inception_4d/pool_proj"
  top: "inception_4d/output"
}
layer {
  name: "loss2/ave_pool"
  type: "Pooling"
  bottom: "inception_4d/output"
  top: "loss2/ave_pool"
  pooling_param {
    pool: AVE
    kernel_size: 5
    stride: 3
  }
}
layer {
  name: "loss2/conv"
  type: "Convolution"
  bottom: "loss2/ave_pool"
  top: "loss2/conv"
  param {
    lr_mult: 1
    decay_mult: 1
  }
  param {
    lr_mult: 2
    decay_mult: 0
  }
  convolution_param {
    num_output: 128
    kernel_size: 1
    weight_filler {
      type: "xavier"
      std: 0.08
    }
    bias_filler {
      type: "constant"
      value: 0.2
    }
  }
}
layer {
  name: "loss2/relu_conv"
  type: "ReLU"
  bottom: "loss2/conv"
  top: "loss2/conv"
}
layer {
  name: "loss2/fc"
  type: "InnerProduct"
  bottom: "loss2/conv"
  top: "loss2/fc"
  param {
    lr_mult: 1
    decay_mult: 1
  }
  param {
    lr_mult: 2
    decay_mult: 0
  }
  inner_product_param {
    num_output: 1024
    weight_filler {
      type: "xavier"
      std: 0.02
    }
    bias_filler {
      type: "constant"
      value: 0.2
    }
  }
}
layer {
  name: "loss2/relu_fc"
  type: "ReLU"
  bottom: "loss2/fc"
  top: "loss2/fc"
}
layer {
  name: "loss2/drop_fc"
  type: "Dropout"
  bottom: "loss2/fc"
  top: "loss2/fc"
  dropout_param {
    dropout_ratio: 0.7
  }
}
layer {
  name: "loss2/classifier_plantvillage"
  type: "InnerProduct"
  bottom: "loss2/fc"
  top: "loss2/classifier_plantvillage"
  param {
    lr_mult: 1
    decay_mult: 1
  }
  param {
    lr_mult: 2
    decay_mult: 0
  }
  inner_product_param {
    num_output: 38
    weight_filler {
      type: "xavier"
      std: 0.0009765625
    }
    bias_filler {
      type: "constant"
      value: 0
    }
  }
}
layer {
  name: "inception_4e/1x1"
  type: "Convolution"
  bottom: "inception_4d/output"
  top: "inception_4e/1x1"
  param {
    lr_mult: 1
    decay_mult: 1
  }
  param {
    lr_mult: 2
    decay_mult: 0
  }
  convolution_param {
    num_output: 256
    kernel_size: 1
    weight_filler {
      type: "xavier"
      std: 0.03
    }
    bias_filler {
      type: "constant"
      value: 0.2
    }
  }
}
layer {
  name: "inception_4e/relu_1x1"
  type: "ReLU"
  bottom: "inception_4e/1x1"
  top: "inception_4e/1x1"
}
layer {
  name: "inception_4e/3x3_reduce"
  type: "Convolution"
  bottom: "inception_4d/output"
  top: "inception_4e/3x3_reduce"
  param {
    lr_mult: 1
    decay_mult: 1
  }
  param {
    lr_mult: 2
    decay_mult: 0
  }
  convolution_param {
    num_output: 160
    kernel_size: 1
    weight_filler {
      type: "xavier"
      std: 0.09
    }
    bias_filler {
      type: "constant"
      value: 0.2
    }
  }
}
layer {
  name: "inception_4e/relu_3x3_reduce"
  type: "ReLU"
  bottom: "inception_4e/3x3_reduce"
  top: "inception_4e/3x3_reduce"
}
layer {
  name: "inception_4e/3x3"
  type: "Convolution"
  bottom: "inception_4e/3x3_reduce"
  top: "inception_4e/3x3"
  param {
    lr_mult: 1
    decay_mult: 1
  }
  param {
    lr_mult: 2
    decay_mult: 0
  }
  convolution_param {
    num_output: 320
    pad: 1
    kernel_size: 3
    weight_filler {
      type: "xavier"
      std: 0.03
    }
    bias_filler {
      type: "constant"
      value: 0.2
    }
  }
}
layer {
  name: "inception_4e/relu_3x3"
  type: "ReLU"
  bottom: "inception_4e/3x3"
  top: "inception_4e/3x3"
}
layer {
  name: "inception_4e/5x5_reduce"
  type: "Convolution"
  bottom: "inception_4d/output"
  top: "inception_4e/5x5_reduce"
  param {
    lr_mult: 1
    decay_mult: 1
  }
  param {
    lr_mult: 2
    decay_mult: 0
  }
  convolution_param {
    num_output: 32
    kernel_size: 1
    weight_filler {
      type: "xavier"
      std: 0.2
    }
    bias_filler {
      type: "constant"
      value: 0.2
    }
  }
}
layer {
  name: "inception_4e/relu_5x5_reduce"
  type: "ReLU"
  bottom: "inception_4e/5x5_reduce"
  top: "inception_4e/5x5_reduce"
}
layer {
  name: "inception_4e/5x5"
  type: "Convolution"
  bottom: "inception_4e/5x5_reduce"
  top: "inception_4e/
I0403 19:48:21.812803  9695 layer_factory.hpp:77] Creating layer data
I0403 19:48:21.813426  9695 net.cpp:91] Creating Layer data
I0403 19:48:21.813459  9695 net.cpp:399] data -> data
I0403 19:48:21.813510  9695 net.cpp:399] data -> label
I0403 19:48:21.813546  9695 data_transformer.cpp:25] Loading mean file from: /home/mohanty/data/final_dataset/lmdb/grayscale-50-50/mean.binaryproto
I0403 19:48:21.814698  9697 db_lmdb.cpp:38] Opened lmdb /home/mohanty/data/final_dataset/lmdb/grayscale-50-50/test_db
I0403 19:48:21.826607  9695 data_layer.cpp:41] output data size: 24,3,224,224
I0403 19:48:21.852597  9695 net.cpp:141] Setting up data
I0403 19:48:21.852677  9695 net.cpp:148] Top shape: 24 3 224 224 (3612672)
I0403 19:48:21.852700  9695 net.cpp:148] Top shape: 24 (24)
I0403 19:48:21.852716  9695 net.cpp:156] Memory required for data: 14450784
I0403 19:48:21.852746  9695 layer_factory.hpp:77] Creating layer label_data_1_split
I0403 19:48:21.852771  9695 net.cpp:91] Creating Layer label_data_1_split
I0403 19:48:21.852790  9695 net.cpp:425] label_data_1_split <- label
I0403 19:48:21.852821  9695 net.cpp:399] label_data_1_split -> label_data_1_split_0
I0403 19:48:21.852849  9695 net.cpp:399] label_data_1_split -> label_data_1_split_1
I0403 19:48:21.852869  9695 net.cpp:399] label_data_1_split -> label_data_1_split_2
I0403 19:48:21.852890  9695 net.cpp:399] label_data_1_split -> label_data_1_split_3
I0403 19:48:21.852910  9695 net.cpp:399] label_data_1_split -> label_data_1_split_4
I0403 19:48:21.852931  9695 net.cpp:399] label_data_1_split -> label_data_1_split_5
I0403 19:48:21.852949  9695 net.cpp:399] label_data_1_split -> label_data_1_split_6
I0403 19:48:21.852969  9695 net.cpp:399] label_data_1_split -> label_data_1_split_7
I0403 19:48:21.852989  9695 net.cpp:399] label_data_1_split -> label_data_1_split_8
I0403 19:48:21.853009  9695 net.cpp:399] label_data_1_split -> label_data_1_split_9
I0403 19:48:21.853123  9695 net.cpp:141] Setting up label_data_1_split
I0403 19:48:21.853147  9695 net.cpp:148] Top shape: 24 (24)
I0403 19:48:21.853163  9695 net.cpp:148] Top shape: 24 (24)
I0403 19:48:21.853179  9695 net.cpp:148] Top shape: 24 (24)
I0403 19:48:21.853194  9695 net.cpp:148] Top shape: 24 (24)
I0403 19:48:21.853220  9695 net.cpp:148] Top shape: 24 (24)
I0403 19:48:21.853240  9695 net.cpp:148] Top shape: 24 (24)
I0403 19:48:21.853256  9695 net.cpp:148] Top shape: 24 (24)
I0403 19:48:21.853272  9695 net.cpp:148] Top shape: 24 (24)
I0403 19:48:21.853287  9695 net.cpp:148] Top shape: 24 (24)
I0403 19:48:21.853303  9695 net.cpp:148] Top shape: 24 (24)
I0403 19:48:21.853348  9695 net.cpp:156] Memory required for data: 14451744
I0403 19:48:21.853363  9695 layer_factory.hpp:77] Creating layer conv1/7x7_s2
I0403 19:48:21.853394  9695 net.cpp:91] Creating Layer conv1/7x7_s2
I0403 19:48:21.853412  9695 net.cpp:425] conv1/7x7_s2 <- data
I0403 19:48:21.853431  9695 net.cpp:399] conv1/7x7_s2 -> conv1/7x7_s2
I0403 19:48:21.992024  9695 net.cpp:141] Setting up conv1/7x7_s2
I0403 19:48:21.992099  9695 net.cpp:148] Top shape: 24 64 112 112 (19267584)
I0403 19:48:21.992116  9695 net.cpp:156] Memory required for data: 91522080
I0403 19:48:21.992148  9695 layer_factory.hpp:77] Creating layer conv1/relu_7x7
I0403 19:48:21.992199  9695 net.cpp:91] Creating Layer conv1/relu_7x7
I0403 19:48:21.992221  9695 net.cpp:425] conv1/relu_7x7 <- conv1/7x7_s2
I0403 19:48:21.992241  9695 net.cpp:386] conv1/relu_7x7 -> conv1/7x7_s2 (in-place)
I0403 19:48:21.992509  9695 net.cpp:141] Setting up conv1/relu_7x7
I0403 19:48:21.992537  9695 net.cpp:148] Top shape: 24 64 112 112 (19267584)
I0403 19:48:21.992553  9695 net.cpp:156] Memory required for data: 168592416
I0403 19:48:21.992568  9695 layer_factory.hpp:77] Creating layer pool1/3x3_s2
I0403 19:48:21.992594  9695 net.cpp:91] Creating Layer pool1/3x3_s2
I0403 19:48:21.992612  9695 net.cpp:425] pool1/3x3_s2 <- conv1/7x7_s2
I0403 19:48:21.992668  9695 net.cpp:399] pool1/3x3_s2 -> pool1/3x3_s2
I0403 19:48:21.992750  9695 net.cpp:141] Setting up pool1/3x3_s2
I0403 19:48:21.992780  9695 net.cpp:148] Top shape: 24 64 56 56 (4816896)
I0403 19:48:21.992795  9695 net.cpp:156] Memory required for data: 187860000
I0403 19:48:21.992810  9695 layer_factory.hpp:77] Creating layer pool1/norm1
I0403 19:48:21.992835  9695 net.cpp:91] Creating Layer pool1/norm1
I0403 19:48:21.992853  9695 net.cpp:425] pool1/norm1 <- pool1/3x3_s2
I0403 19:48:21.992871  9695 net.cpp:399] pool1/norm1 -> pool1/norm1
I0403 19:48:21.993167  9695 net.cpp:141] Setting up pool1/norm1
I0403 19:48:21.993202  9695 net.cpp:148] Top shape: 24 64 56 56 (4816896)
I0403 19:48:21.993219  9695 net.cpp:156] Memory required for data: 207127584
I0403 19:48:21.993235  9695 layer_factory.hpp:77] Creating layer conv2/3x3_reduce
I0403 19:48:21.993260  9695 net.cpp:91] Creating Layer conv2/3x3_reduce
I0403 19:48:21.993278  9695 net.cpp:425] conv2/3x3_reduce <- pool1/norm1
I0403 19:48:21.993296  9695 net.cpp:399] conv2/3x3_reduce -> conv2/3x3_reduce
I0403 19:48:21.994719  9695 net.cpp:141] Setting up conv2/3x3_reduce
I0403 19:48:21.994751  9695 net.cpp:148] Top shape: 24 64 56 56 (4816896)
I0403 19:48:21.994768  9695 net.cpp:156] Memory required for data: 226395168
I0403 19:48:21.994791  9695 layer_factory.hpp:77] Creating layer conv2/relu_3x3_reduce
I0403 19:48:21.994812  9695 net.cpp:91] Creating Layer conv2/relu_3x3_reduce
I0403 19:48:21.994829  9695 net.cpp:425] conv2/relu_3x3_reduce <- conv2/3x3_reduce
I0403 19:48:21.994848  9695 net.cpp:386] conv2/relu_3x3_reduce -> conv2/3x3_reduce (in-place)
I0403 19:48:21.995105  9695 net.cpp:141] Setting up conv2/relu_3x3_reduce
I0403 19:48:21.995132  9695 net.cpp:148] Top shape: 24 64 56 56 (4816896)
I0403 19:48:21.995149  9695 net.cpp:156] Memory required for data: 245662752
I0403 19:48:21.995165  9695 layer_factory.hpp:77] Creating layer conv2/3x3
I0403 19:48:21.995194  9695 net.cpp:91] Creating Layer conv2/3x3
I0403 19:48:21.995214  9695 net.cpp:425] conv2/3x3 <- conv2/3x3_reduce
I0403 19:48:21.995234  9695 net.cpp:399] conv2/3x3 -> conv2/3x3
I0403 19:48:21.997524  9695 net.cpp:141] Setting up conv2/3x3
I0403 19:48:21.997557  9695 net.cpp:148] Top shape: 24 192 56 56 (14450688)
I0403 19:48:21.997575  9695 net.cpp:156] Memory required for data: 303465504
I0403 19:48:21.997601  9695 layer_factory.hpp:77] Creating layer conv2/relu_3x3
I0403 19:48:21.997623  9695 net.cpp:91] Creating Layer conv2/relu_3x3
I0403 19:48:21.997642  9695 net.cpp:425] conv2/relu_3x3 <- conv2/3x3
I0403 19:48:21.997660  9695 net.cpp:386] conv2/relu_3x3 -> conv2/3x3 (in-place)
I0403 19:48:21.997874  9695 net.cpp:141] Setting up conv2/relu_3x3
I0403 19:48:21.997902  9695 net.cpp:148] Top shape: 24 192 56 56 (14450688)
I0403 19:48:21.997948  9695 net.cpp:156] Memory required for data: 361268256
I0403 19:48:21.997964  9695 layer_factory.hpp:77] Creating layer conv2/norm2
I0403 19:48:21.997984  9695 net.cpp:91] Creating Layer conv2/norm2
I0403 19:48:21.998000  9695 net.cpp:425] conv2/norm2 <- conv2/3x3
I0403 19:48:21.998019  9695 net.cpp:399] conv2/norm2 -> conv2/norm2
I0403 19:48:21.998327  9695 net.cpp:141] Setting up conv2/norm2
I0403 19:48:21.998358  9695 net.cpp:148] Top shape: 24 192 56 56 (14450688)
I0403 19:48:21.998374  9695 net.cpp:156] Memory required for data: 419071008
I0403 19:48:21.998390  9695 layer_factory.hpp:77] Creating layer pool2/3x3_s2
I0403 19:48:21.998409  9695 net.cpp:91] Creating Layer pool2/3x3_s2
I0403 19:48:21.998425  9695 net.cpp:425] pool2/3x3_s2 <- conv2/norm2
I0403 19:48:21.998446  9695 net.cpp:399] pool2/3x3_s2 -> pool2/3x3_s2
I0403 19:48:21.998499  9695 net.cpp:141] Setting up pool2/3x3_s2
I0403 19:48:21.998525  9695 net.cpp:148] Top shape: 24 192 28 28 (3612672)
I0403 19:48:21.998541  9695 net.cpp:156] Memory required for data: 433521696
I0403 19:48:21.998556  9695 layer_factory.hpp:77] Creating layer pool2/3x3_s2_pool2/3x3_s2_0_split
I0403 19:48:21.998574  9695 net.cpp:91] Creating Layer pool2/3x3_s2_pool2/3x3_s2_0_split
I0403 19:48:21.998590  9695 net.cpp:425] pool2/3x3_s2_pool2/3x3_s2_0_split <- pool2/3x3_s2
I0403 19:48:21.998608  9695 net.cpp:399] pool2/3x3_s2_pool2/3x3_s2_0_split -> pool2/3x3_s2_pool2/3x3_s2_0_split_0
I0403 19:48:21.998628  9695 net.cpp:399] pool2/3x3_s2_pool2/3x3_s2_0_split -> pool2/3x3_s2_pool2/3x3_s2_0_split_1
I0403 19:48:21.998651  9695 net.cpp:399] pool2/3x3_s2_pool2/3x3_s2_0_split -> pool2/3x3_s2_pool2/3x3_s2_0_split_2
I0403 19:48:21.998672  9695 net.cpp:399] pool2/3x3_s2_pool2/3x3_s2_0_split -> pool2/3x3_s2_pool2/3x3_s2_0_split_3
I0403 19:48:21.998739  9695 net.cpp:141] Setting up pool2/3x3_s2_pool2/3x3_s2_0_split
I0403 19:48:21.998762  9695 net.cpp:148] Top shape: 24 192 28 28 (3612672)
I0403 19:48:21.998780  9695 net.cpp:148] Top shape: 24 192 28 28 (3612672)
I0403 19:48:21.998795  9695 net.cpp:148] Top shape: 24 192 28 28 (3612672)
I0403 19:48:21.998811  9695 net.cpp:148] Top shape: 24 192 28 28 (3612672)
I0403 19:48:21.998826  9695 net.cpp:156] Memory required for data: 491324448
I0403 19:48:21.998841  9695 layer_factory.hpp:77] Creating layer inception_3a/1x1
I0403 19:48:21.998863  9695 net.cpp:91] Creating Layer inception_3a/1x1
I0403 19:48:21.998883  9695 net.cpp:425] inception_3a/1x1 <- pool2/3x3_s2_pool2/3x3_s2_0_split_0
I0403 19:48:21.998903  9695 net.cpp:399] inception_3a/1x1 -> inception_3a/1x1
I0403 19:48:22.000529  9695 net.cpp:141] Setting up inception_3a/1x1
I0403 19:48:22.000560  9695 net.cpp:148] Top shape: 24 64 28 28 (1204224)
I0403 19:48:22.000578  9695 net.cpp:156] Memory required for data: 496141344
I0403 19:48:22.000598  9695 layer_factory.hpp:77] Creating layer inception_3a/relu_1x1
I0403 19:48:22.000618  9695 net.cpp:91] Creating Layer inception_3a/relu_1x1
I0403 19:48:22.000635  9695 net.cpp:425] inception_3a/relu_1x1 <- inception_3a/1x1
I0403 19:48:22.000656  9695 net.cpp:386] inception_3a/relu_1x1 -> inception_3a/1x1 (in-place)
I0403 19:48:22.000836  9695 net.cpp:141] Setting up inception_3a/relu_1x1
I0403 19:48:22.000864  9695 net.cpp:148] Top shape: 24 64 28 28 (1204224)
I0403 19:48:22.000880  9695 net.cpp:156] Memory required for data: 500958240
I0403 19:48:22.000896  9695 layer_factory.hpp:77] Creating layer inception_3a/3x3_reduce
I0403 19:48:22.000921  9695 net.cpp:91] Creating Layer inception_3a/3x3_reduce
I0403 19:48:22.000939  9695 net.cpp:425] inception_3a/3x3_reduce <- pool2/3x3_s2_pool2/3x3_s2_0_split_1
I0403 19:48:22.000962  9695 net.cpp:399] inception_3a/3x3_reduce -> inception_3a/3x3_reduce
I0403 19:48:22.002810  9695 net.cpp:141] Setting up inception_3a/3x3_reduce
I0403 19:48:22.002841  9695 net.cpp:148] Top shape: 24 96 28 28 (1806336)
I0403 19:48:22.002857  9695 net.cpp:156] Memory required for data: 508183584
I0403 19:48:22.002879  9695 layer_factory.hpp:77] Creating layer inception_3a/relu_3x3_reduce
I0403 19:48:22.002918  9695 net.cpp:91] Creating Layer inception_3a/relu_3x3_reduce
I0403 19:48:22.002938  9695 net.cpp:425] inception_3a/relu_3x3_reduce <- inception_3a/3x3_reduce
I0403 19:48:22.002956  9695 net.cpp:386] inception_3a/relu_3x3_reduce -> inception_3a/3x3_reduce (in-place)
I0403 19:48:22.003139  9695 net.cpp:141] Setting up inception_3a/relu_3x3_reduce
I0403 19:48:22.003167  9695 net.cpp:148] Top shape: 24 96 28 28 (1806336)
I0403 19:48:22.003198  9695 net.cpp:156] Memory required for data: 515408928
I0403 19:48:22.003216  9695 layer_factory.hpp:77] Creating layer inception_3a/3x3
I0403 19:48:22.003239  9695 net.cpp:91] Creating Layer inception_3a/3x3
I0403 19:48:22.003258  9695 net.cpp:425] inception_3a/3x3 <- inception_3a/3x3_reduce
I0403 19:48:22.003280  9695 net.cpp:399] inception_3a/3x3 -> inception_3a/3x3
I0403 19:48:22.005014  9695 net.cpp:141] Setting up inception_3a/3x3
I0403 19:48:22.005043  9695 net.cpp:148] Top shape: 24 128 28 28 (2408448)
I0403 19:48:22.005060  9695 net.cpp:156] Memory required for data: 525042720
I0403 19:48:22.005080  9695 layer_factory.hpp:77] Creating layer inception_3a/relu_3x3
I0403 19:48:22.005101  9695 net.cpp:91] Creating Layer inception_3a/relu_3x3
I0403 19:48:22.005118  9695 net.cpp:425] inception_3a/relu_3x3 <- inception_3a/3x3
I0403 19:48:22.005136  9695 net.cpp:386] inception_3a/relu_3x3 -> inception_3a/3x3 (in-place)
I0403 19:48:22.005411  9695 net.cpp:141] Setting up inception_3a/relu_3x3
I0403 19:48:22.005441  9695 net.cpp:148] Top shape: 24 128 28 28 (2408448)
I0403 19:48:22.005458  9695 net.cpp:156] Memory required for data: 534676512
I0403 19:48:22.005475  9695 layer_factory.hpp:77] Creating layer inception_3a/5x5_reduce
I0403 19:48:22.005497  9695 net.cpp:91] Creating Layer inception_3a/5x5_reduce
I0403 19:48:22.005517  9695 net.cpp:425] inception_3a/5x5_reduce <- pool2/3x3_s2_pool2/3x3_s2_0_split_2
I0403 19:48:22.005538  9695 net.cpp:399] inception_3a/5x5_reduce -> inception_3a/5x5_reduce
I0403 19:48:22.006490  9695 net.cpp:141] Setting up inception_3a/5x5_reduce
I0403 19:48:22.006520  9695 net.cpp:148] Top shape: 24 16 28 28 (301056)
I0403 19:48:22.006536  9695 net.cpp:156] Memory required for data: 535880736
I0403 19:48:22.006556  9695 layer_factory.hpp:77] Creating layer inception_3a/relu_5x5_reduce
I0403 19:48:22.006577  9695 net.cpp:91] Creating Layer inception_3a/relu_5x5_reduce
I0403 19:48:22.006592  9695 net.cpp:425] inception_3a/relu_5x5_reduce <- inception_3a/5x5_reduce
I0403 19:48:22.006610  9695 net.cpp:386] inception_3a/relu_5x5_reduce -> inception_3a/5x5_reduce (in-place)
I0403 19:48:22.006893  9695 net.cpp:141] Setting up inception_3a/relu_5x5_reduce
I0403 19:48:22.006921  9695 net.cpp:148] Top shape: 24 16 28 28 (301056)
I0403 19:48:22.006935  9695 net.cpp:156] Memory required for data: 537084960
I0403 19:48:22.006950  9695 layer_factory.hpp:77] Creating layer inception_3a/5x5
I0403 19:48:22.006974  9695 net.cpp:91] Creating Layer inception_3a/5x5
I0403 19:48:22.006992  9695 net.cpp:425] inception_3a/5x5 <- inception_3a/5x5_reduce
I0403 19:48:22.007011  9695 net.cpp:399] inception_3a/5x5 -> inception_3a/5x5
I0403 19:48:22.008039  9695 net.cpp:141] Setting up inception_3a/5x5
I0403 19:48:22.008069  9695 net.cpp:148] Top shape: 24 32 28 28 (602112)
I0403 19:48:22.008085  9695 net.cpp:156] Memory required for data: 539493408
I0403 19:48:22.008105  9695 layer_factory.hpp:77] Creating layer inception_3a/relu_5x5
I0403 19:48:22.008122  9695 net.cpp:91] Creating Layer inception_3a/relu_5x5
I0403 19:48:22.008138  9695 net.cpp:425] inception_3a/relu_5x5 <- inception_3a/5x5
I0403 19:48:22.008157  9695 net.cpp:386] inception_3a/relu_5x5 -> inception_3a/5x5 (in-place)
I0403 19:48:22.008332  9695 net.cpp:141] Setting up inception_3a/relu_5x5
I0403 19:48:22.008357  9695 net.cpp:148] Top shape: 24 32 28 28 (602112)
I0403 19:48:22.008371  9695 net.cpp:156] Memory required for data: 541901856
I0403 19:48:22.008386  9695 layer_factory.hpp:77] Creating layer inception_3a/pool
I0403 19:48:22.008407  9695 net.cpp:91] Creating Layer inception_3a/pool
I0403 19:48:22.008438  9695 net.cpp:425] inception_3a/pool <- pool2/3x3_s2_pool2/3x3_s2_0_split_3
I0403 19:48:22.008457  9695 net.cpp:399] inception_3a/pool -> inception_3a/pool
I0403 19:48:22.008517  9695 net.cpp:141] Setting up inception_3a/pool
I0403 19:48:22.008538  9695 net.cpp:148] Top shape: 24 192 28 28 (3612672)
I0403 19:48:22.008553  9695 net.cpp:156] Memory required for data: 556352544
I0403 19:48:22.008569  9695 layer_factory.hpp:77] Creating layer inception_3a/pool_proj
I0403 19:48:22.008590  9695 net.cpp:91] Creating Layer inception_3a/pool_proj
I0403 19:48:22.008608  9695 net.cpp:425] inception_3a/pool_proj <- inception_3a/pool
I0403 19:48:22.008631  9695 net.cpp:399] inception_3a/pool_proj -> inception_3a/pool_proj
I0403 19:48:22.009600  9695 net.cpp:141] Setting up inception_3a/pool_proj
I0403 19:48:22.009634  9695 net.cpp:148] Top shape: 24 32 28 28 (602112)
I0403 19:48:22.009650  9695 net.cpp:156] Memory required for data: 558760992
I0403 19:48:22.009673  9695 layer_factory.hpp:77] Creating layer inception_3a/relu_pool_proj
I0403 19:48:22.009696  9695 net.cpp:91] Creating Layer inception_3a/relu_pool_proj
I0403 19:48:22.009713  9695 net.cpp:425] inception_3a/relu_pool_proj <- inception_3a/pool_proj
I0403 19:48:22.009732  9695 net.cpp:386] inception_3a/relu_pool_proj -> inception_3a/pool_proj (in-place)
I0403 19:48:22.010007  9695 net.cpp:141] Setting up inception_3a/relu_pool_proj
I0403 19:48:22.010036  9695 net.cpp:148] Top shape: 24 32 28 28 (602112)
I0403 19:48:22.010052  9695 net.cpp:156] Memory required for data: 561169440
I0403 19:48:22.010069  9695 layer_factory.hpp:77] Creating layer inception_3a/output
I0403 19:48:22.010088  9695 net.cpp:91] Creating Layer inception_3a/output
I0403 19:48:22.010107  9695 net.cpp:425] inception_3a/output <- inception_3a/1x1
I0403 19:48:22.010123  9695 net.cpp:425] inception_3a/output <- inception_3a/3x3
I0403 19:48:22.010140  9695 net.cpp:425] inception_3a/output <- inception_3a/5x5
I0403 19:48:22.010156  9695 net.cpp:425] inception_3a/output <- inception_3a/pool_proj
I0403 19:48:22.010181  9695 net.cpp:399] inception_3a/output -> inception_3a/output
I0403 19:48:22.010236  9695 net.cpp:141] Setting up inception_3a/output
I0403 19:48:22.010262  9695 net.cpp:148] Top shape: 24 256 28 28 (4816896)
I0403 19:48:22.010277  9695 net.cpp:156] Memory required for data: 580437024
I0403 19:48:22.010293  9695 layer_factory.hpp:77] Creating layer inception_3a/output_inception_3a/output_0_split
I0403 19:48:22.010309  9695 net.cpp:91] Creating Layer inception_3a/output_inception_3a/output_0_split
I0403 19:48:22.010326  9695 net.cpp:425] inception_3a/output_inception_3a/output_0_split <- inception_3a/output
I0403 19:48:22.010347  9695 net.cpp:399] inception_3a/output_inception_3a/output_0_split -> inception_3a/output_inception_3a/output_0_split_0
I0403 19:48:22.010370  9695 net.cpp:399] inception_3a/output_inception_3a/output_0_split -> inception_3a/output_inception_3a/output_0_split_1
I0403 19:48:22.010393  9695 net.cpp:399] inception_3a/output_inception_3a/output_0_split -> inception_3a/output_inception_3a/output_0_split_2
I0403 19:48:22.010416  9695 net.cpp:399] inception_3a/output_inception_3a/output_0_split -> inception_3a/output_inception_3a/output_0_split_3
I0403 19:48:22.010499  9695 net.cpp:141] Setting up inception_3a/output_inception_3a/output_0_split
I0403 19:48:22.010522  9695 net.cpp:148] Top shape: 24 256 28 28 (4816896)
I0403 19:48:22.010540  9695 net.cpp:148] Top shape: 24 256 28 28 (4816896)
I0403 19:48:22.010556  9695 net.cpp:148] Top shape: 24 256 28 28 (4816896)
I0403 19:48:22.010572  9695 net.cpp:148] Top shape: 24 256 28 28 (4816896)
I0403 19:48:22.010586  9695 net.cpp:156] Memory required for data: 657507360
I0403 19:48:22.010601  9695 layer_factory.hpp:77] Creating layer inception_3b/1x1
I0403 19:48:22.010623  9695 net.cpp:91] Creating Layer inception_3b/1x1
I0403 19:48:22.010642  9695 net.cpp:425] inception_3b/1x1 <- inception_3a/output_inception_3a/output_0_split_0
I0403 19:48:22.010663  9695 net.cpp:399] inception_3b/1x1 -> inception_3b/1x1
I0403 19:48:22.011795  9695 net.cpp:141] Setting up inception_3b/1x1
I0403 19:48:22.011833  9695 net.cpp:148] Top shape: 24 128 28 28 (2408448)
I0403 19:48:22.011849  9695 net.cpp:156] Memory required for data: 667141152
I0403 19:48:22.011868  9695 layer_factory.hpp:77] Creating layer inception_3b/relu_1x1
I0403 19:48:22.011886  9695 net.cpp:91] Creating Layer inception_3b/relu_1x1
I0403 19:48:22.011904  9695 net.cpp:425] inception_3b/relu_1x1 <- inception_3b/1x1
I0403 19:48:22.011924  9695 net.cpp:386] inception_3b/relu_1x1 -> inception_3b/1x1 (in-place)
I0403 19:48:22.012094  9695 net.cpp:141] Setting up inception_3b/relu_1x1
I0403 19:48:22.012118  9695 net.cpp:148] Top shape: 24 128 28 28 (2408448)
I0403 19:48:22.012133  9695 net.cpp:156] Memory required for data: 676774944
I0403 19:48:22.012148  9695 layer_factory.hpp:77] Creating layer inception_3b/3x3_reduce
I0403 19:48:22.012173  9695 net.cpp:91] Creating Layer inception_3b/3x3_reduce
I0403 19:48:22.012195  9695 net.cpp:425] inception_3b/3x3_reduce <- inception_3a/output_inception_3a/output_0_split_1
I0403 19:48:22.012217  9695 net.cpp:399] inception_3b/3x3_reduce -> inception_3b/3x3_reduce
I0403 19:48:22.013345  9695 net.cpp:141] Setting up inception_3b/3x3_reduce
I0403 19:48:22.013375  9695 net.cpp:148] Top shape: 24 128 28 28 (2408448)
I0403 19:48:22.013391  9695 net.cpp:156] Memory required for data: 686408736
I0403 19:48:22.013409  9695 layer_factory.hpp:77] Creating layer inception_3b/relu_3x3_reduce
I0403 19:48:22.013428  9695 net.cpp:91] Creating Layer inception_3b/relu_3x3_reduce
I0403 19:48:22.013445  9695 net.cpp:425] inception_3b/relu_3x3_reduce <- inception_3b/3x3_reduce
I0403 19:48:22.013465  9695 net.cpp:386] inception_3b/relu_3x3_reduce -> inception_3b/3x3_reduce (in-place)
I0403 19:48:22.013640  9695 net.cpp:141] Setting up inception_3b/relu_3x3_reduce
I0403 19:48:22.013665  9695 net.cpp:148] Top shape: 24 128 28 28 (2408448)
I0403 19:48:22.013679  9695 net.cpp:156] Memory required for data: 696042528
I0403 19:48:22.013695  9695 layer_factory.hpp:77] Creating layer inception_3b/3x3
I0403 19:48:22.013720  9695 net.cpp:91] Creating Layer inception_3b/3x3
I0403 19:48:22.013738  9695 net.cpp:425] inception_3b/3x3 <- inception_3b/3x3_reduce
I0403 19:48:22.013757  9695 net.cpp:399] inception_3b/3x3 -> inception_3b/3x3
I0403 19:48:22.016644  9695 net.cpp:141] Setting up inception_3b/3x3
I0403 19:48:22.016674  9695 net.cpp:148] Top shape: 24 192 28 28 (3612672)
I0403 19:48:22.016690  9695 net.cpp:156] Memory required for data: 710493216
I0403 19:48:22.016708  9695 layer_factory.hpp:77] Creating layer inception_3b/relu_3x3
I0403 19:48:22.016729  9695 net.cpp:91] Creating Layer inception_3b/relu_3x3
I0403 19:48:22.016747  9695 net.cpp:425] inception_3b/relu_3x3 <- inception_3b/3x3
I0403 19:48:22.016767  9695 net.cpp:386] inception_3b/relu_3x3 -> inception_3b/3x3 (in-place)
I0403 19:48:22.017043  9695 net.cpp:141] Setting up inception_3b/relu_3x3
I0403 19:48:22.017069  9695 net.cpp:148] Top shape: 24 192 28 28 (3612672)
I0403 19:48:22.017084  9695 net.cpp:156] Memory required for data: 724943904
I0403 19:48:22.017099  9695 layer_factory.hpp:77] Creating layer inception_3b/5x5_reduce
I0403 19:48:22.017122  9695 net.cpp:91] Creating Layer inception_3b/5x5_reduce
I0403 19:48:22.017140  9695 net.cpp:425] inception_3b/5x5_reduce <- inception_3a/output_inception_3a/output_0_split_2
I0403 19:48:22.017161  9695 net.cpp:399] inception_3b/5x5_reduce -> inception_3b/5x5_reduce
I0403 19:48:22.018141  9695 net.cpp:141] Setting up inception_3b/5x5_reduce
I0403 19:48:22.018170  9695 net.cpp:148] Top shape: 24 32 28 28 (602112)
I0403 19:48:22.018193  9695 net.cpp:156] Memory required for data: 727352352
I0403 19:48:22.018213  9695 layer_factory.hpp:77] Creating layer inception_3b/relu_5x5_reduce
I0403 19:48:22.018232  9695 net.cpp:91] Creating Layer inception_3b/relu_5x5_reduce
I0403 19:48:22.018249  9695 net.cpp:425] inception_3b/relu_5x5_reduce <- inception_3b/5x5_reduce
I0403 19:48:22.018267  9695 net.cpp:386] inception_3b/relu_5x5_reduce -> inception_3b/5x5_reduce (in-place)
I0403 19:48:22.018453  9695 net.cpp:141] Setting up inception_3b/relu_5x5_reduce
I0403 19:48:22.018481  9695 net.cpp:148] Top shape: 24 32 28 28 (602112)
I0403 19:48:22.018497  9695 net.cpp:156] Memory required for data: 729760800
I0403 19:48:22.018512  9695 layer_factory.hpp:77] Creating layer inception_3b/5x5
I0403 19:48:22.018532  9695 net.cpp:91] Creating Layer inception_3b/5x5
I0403 19:48:22.018549  9695 net.cpp:425] inception_3b/5x5 <- inception_3b/5x5_reduce
I0403 19:48:22.018570  9695 net.cpp:399] inception_3b/5x5 -> inception_3b/5x5
I0403 19:48:22.020522  9695 net.cpp:141] Setting up inception_3b/5x5
I0403 19:48:22.020552  9695 net.cpp:148] Top shape: 24 96 28 28 (1806336)
I0403 19:48:22.020568  9695 net.cpp:156] Memory required for data: 736986144
I0403 19:48:22.020586  9695 layer_factory.hpp:77] Creating layer inception_3b/relu_5x5
I0403 19:48:22.020604  9695 net.cpp:91] Creating Layer inception_3b/relu_5x5
I0403 19:48:22.020622  9695 net.cpp:425] inception_3b/relu_5x5 <- inception_3b/5x5
I0403 19:48:22.020642  9695 net.cpp:386] inception_3b/relu_5x5 -> inception_3b/5x5 (in-place)
I0403 19:48:22.020830  9695 net.cpp:141] Setting up inception_3b/relu_5x5
I0403 19:48:22.020855  9695 net.cpp:148] Top shape: 24 96 28 28 (1806336)
I0403 19:48:22.020870  9695 net.cpp:156] Memory required for data: 744211488
I0403 19:48:22.020884  9695 layer_factory.hpp:77] Creating layer inception_3b/pool
I0403 19:48:22.020902  9695 net.cpp:91] Creating Layer inception_3b/pool
I0403 19:48:22.020918  9695 net.cpp:425] inception_3b/pool <- inception_3a/output_inception_3a/output_0_split_3
I0403 19:48:22.020936  9695 net.cpp:399] inception_3b/pool -> inception_3b/pool
I0403 19:48:22.020994  9695 net.cpp:141] Setting up inception_3b/pool
I0403 19:48:22.021018  9695 net.cpp:148] Top shape: 24 256 28 28 (4816896)
I0403 19:48:22.021033  9695 net.cpp:156] Memory required for data: 763479072
I0403 19:48:22.021047  9695 layer_factory.hpp:77] Creating layer inception_3b/pool_proj
I0403 19:48:22.021069  9695 net.cpp:91] Creating Layer inception_3b/pool_proj
I0403 19:48:22.021086  9695 net.cpp:425] inception_3b/pool_proj <- inception_3b/pool
I0403 19:48:22.021107  9695 net.cpp:399] inception_3b/pool_proj -> inception_3b/pool_proj
I0403 19:48:22.022153  9695 net.cpp:141] Setting up inception_3b/pool_proj
I0403 19:48:22.022188  9695 net.cpp:148] Top shape: 24 64 28 28 (1204224)
I0403 19:48:22.022207  9695 net.cpp:156] Memory required for data: 768295968
I0403 19:48:22.022227  9695 layer_factory.hpp:77] Creating layer inception_3b/relu_pool_proj
I0403 19:48:22.022244  9695 net.cpp:91] Creating Layer inception_3b/relu_pool_proj
I0403 19:48:22.022260  9695 net.cpp:425] inception_3b/relu_pool_proj <- inception_3b/pool_proj
I0403 19:48:22.022279  9695 net.cpp:386] inception_3b/relu_pool_proj -> inception_3b/pool_proj (in-place)
I0403 19:48:22.022660  9695 net.cpp:141] Setting up inception_3b/relu_pool_proj
I0403 19:48:22.022686  9695 net.cpp:148] Top shape: 24 64 28 28 (1204224)
I0403 19:48:22.022701  9695 net.cpp:156] Memory required for data: 773112864
I0403 19:48:22.022717  9695 layer_factory.hpp:77] Creating layer inception_3b/output
I0403 19:48:22.022737  9695 net.cpp:91] Creating Layer inception_3b/output
I0403 19:48:22.022753  9695 net.cpp:425] inception_3b/output <- inception_3b/1x1
I0403 19:48:22.022770  9695 net.cpp:425] inception_3b/output <- inception_3b/3x3
I0403 19:48:22.022788  9695 net.cpp:425] inception_3b/output <- inception_3b/5x5
I0403 19:48:22.022804  9695 net.cpp:425] inception_3b/output <- inception_3b/pool_proj
I0403 19:48:22.022821  9695 net.cpp:399] inception_3b/output -> inception_3b/output
I0403 19:48:22.022866  9695 net.cpp:141] Setting up inception_3b/output
I0403 19:48:22.022889  9695 net.cpp:148] Top shape: 24 480 28 28 (9031680)
I0403 19:48:22.022904  9695 net.cpp:156] Memory required for data: 809239584
I0403 19:48:22.022919  9695 layer_factory.hpp:77] Creating layer pool3/3x3_s2
I0403 19:48:22.022936  9695 net.cpp:91] Creating Layer pool3/3x3_s2
I0403 19:48:22.022953  9695 net.cpp:425] pool3/3x3_s2 <- inception_3b/output
I0403 19:48:22.022987  9695 net.cpp:399] pool3/3x3_s2 -> pool3/3x3_s2
I0403 19:48:22.023046  9695 net.cpp:141] Setting up pool3/3x3_s2
I0403 19:48:22.023069  9695 net.cpp:148] Top shape: 24 480 14 14 (2257920)
I0403 19:48:22.023084  9695 net.cpp:156] Memory required for data: 818271264
I0403 19:48:22.023099  9695 layer_factory.hpp:77] Creating layer pool3/3x3_s2_pool3/3x3_s2_0_split
I0403 19:48:22.023118  9695 net.cpp:91] Creating Layer pool3/3x3_s2_pool3/3x3_s2_0_split
I0403 19:48:22.023134  9695 net.cpp:425] pool3/3x3_s2_pool3/3x3_s2_0_split <- pool3/3x3_s2
I0403 19:48:22.023154  9695 net.cpp:399] pool3/3x3_s2_pool3/3x3_s2_0_split -> pool3/3x3_s2_pool3/3x3_s2_0_split_0
I0403 19:48:22.023175  9695 net.cpp:399] pool3/3x3_s2_pool3/3x3_s2_0_split -> pool3/3x3_s2_pool3/3x3_s2_0_split_1
I0403 19:48:22.023207  9695 net.cpp:399] pool3/3x3_s2_pool3/3x3_s2_0_split -> pool3/3x3_s2_pool3/3x3_s2_0_split_2
I0403 19:48:22.023228  9695 net.cpp:399] pool3/3x3_s2_pool3/3x3_s2_0_split -> pool3/3x3_s2_pool3/3x3_s2_0_split_3
I0403 19:48:22.023303  9695 net.cpp:141] Setting up pool3/3x3_s2_pool3/3x3_s2_0_split
I0403 19:48:22.023329  9695 net.cpp:148] Top shape: 24 480 14 14 (2257920)
I0403 19:48:22.023346  9695 net.cpp:148] Top shape: 24 480 14 14 (2257920)
I0403 19:48:22.023361  9695 net.cpp:148] Top shape: 24 480 14 14 (2257920)
I0403 19:48:22.023377  9695 net.cpp:148] Top shape: 24 480 14 14 (2257920)
I0403 19:48:22.023392  9695 net.cpp:156] Memory required for data: 854397984
I0403 19:48:22.023406  9695 layer_factory.hpp:77] Creating layer inception_4a/1x1
I0403 19:48:22.023427  9695 net.cpp:91] Creating Layer inception_4a/1x1
I0403 19:48:22.023444  9695 net.cpp:425] inception_4a/1x1 <- pool3/3x3_s2_pool3/3x3_s2_0_split_0
I0403 19:48:22.023466  9695 net.cpp:399] inception_4a/1x1 -> inception_4a/1x1
I0403 19:48:22.025017  9695 net.cpp:141] Setting up inception_4a/1x1
I0403 19:48:22.025048  9695 net.cpp:148] Top shape: 24 192 14 14 (903168)
I0403 19:48:22.025064  9695 net.cpp:156] Memory required for data: 858010656
I0403 19:48:22.025084  9695 layer_factory.hpp:77] Creating layer inception_4a/relu_1x1
I0403 19:48:22.025102  9695 net.cpp:91] Creating Layer inception_4a/relu_1x1
I0403 19:48:22.025118  9695 net.cpp:425] inception_4a/relu_1x1 <- inception_4a/1x1
I0403 19:48:22.025135  9695 net.cpp:386] inception_4a/relu_1x1 -> inception_4a/1x1 (in-place)
I0403 19:48:22.025315  9695 net.cpp:141] Setting up inception_4a/relu_1x1
I0403 19:48:22.025341  9695 net.cpp:148] Top shape: 24 192 14 14 (903168)
I0403 19:48:22.025355  9695 net.cpp:156] Memory required for data: 861623328
I0403 19:48:22.025370  9695 layer_factory.hpp:77] Creating layer inception_4a/3x3_reduce
I0403 19:48:22.025393  9695 net.cpp:91] Creating Layer inception_4a/3x3_reduce
I0403 19:48:22.025409  9695 net.cpp:425] inception_4a/3x3_reduce <- pool3/3x3_s2_pool3/3x3_s2_0_split_1
I0403 19:48:22.025431  9695 net.cpp:399] inception_4a/3x3_reduce -> inception_4a/3x3_reduce
I0403 19:48:22.026692  9695 net.cpp:141] Setting up inception_4a/3x3_reduce
I0403 19:48:22.026724  9695 net.cpp:148] Top shape: 24 96 14 14 (451584)
I0403 19:48:22.026741  9695 net.cpp:156] Memory required for data: 863429664
I0403 19:48:22.026767  9695 layer_factory.hpp:77] Creating layer inception_4a/relu_3x3_reduce
I0403 19:48:22.026787  9695 net.cpp:91] Creating Layer inception_4a/relu_3x3_reduce
I0403 19:48:22.026803  9695 net.cpp:425] inception_4a/relu_3x3_reduce <- inception_4a/3x3_reduce
I0403 19:48:22.026821  9695 net.cpp:386] inception_4a/relu_3x3_reduce -> inception_4a/3x3_reduce (in-place)
I0403 19:48:22.026999  9695 net.cpp:141] Setting up inception_4a/relu_3x3_reduce
I0403 19:48:22.027027  9695 net.cpp:148] Top shape: 24 96 14 14 (451584)
I0403 19:48:22.027045  9695 net.cpp:156] Memory required for data: 865236000
I0403 19:48:22.027060  9695 layer_factory.hpp:77] Creating layer inception_4a/3x3
I0403 19:48:22.027083  9695 net.cpp:91] Creating Layer inception_4a/3x3
I0403 19:48:22.027102  9695 net.cpp:425] inception_4a/3x3 <- inception_4a/3x3_reduce
I0403 19:48:22.027124  9695 net.cpp:399] inception_4a/3x3 -> inception_4a/3x3
I0403 19:48:22.029839  9695 net.cpp:141] Setting up inception_4a/3x3
I0403 19:48:22.029867  9695 net.cpp:148] Top shape: 24 208 14 14 (978432)
I0403 19:48:22.029882  9695 net.cpp:156] Memory required for data: 869149728
I0403 19:48:22.029901  9695 layer_factory.hpp:77] Creating layer inception_4a/relu_3x3
I0403 19:48:22.029918  9695 net.cpp:91] Creating Layer inception_4a/relu_3x3
I0403 19:48:22.029935  9695 net.cpp:425] inception_4a/relu_3x3 <- inception_4a/3x3
I0403 19:48:22.029955  9695 net.cpp:386] inception_4a/relu_3x3 -> inception_4a/3x3 (in-place)
I0403 19:48:22.030238  9695 net.cpp:141] Setting up inception_4a/relu_3x3
I0403 19:48:22.030266  9695 net.cpp:148] Top shape: 24 208 14 14 (978432)
I0403 19:48:22.030280  9695 net.cpp:156] Memory required for data: 873063456
I0403 19:48:22.030295  9695 layer_factory.hpp:77] Creating layer inception_4a/5x5_reduce
I0403 19:48:22.030318  9695 net.cpp:91] Creating Layer inception_4a/5x5_reduce
I0403 19:48:22.030335  9695 net.cpp:425] inception_4a/5x5_reduce <- pool3/3x3_s2_pool3/3x3_s2_0_split_2
I0403 19:48:22.030356  9695 net.cpp:399] inception_4a/5x5_reduce -> inception_4a/5x5_reduce
I0403 19:48:22.031373  9695 net.cpp:141] Setting up inception_4a/5x5_reduce
I0403 19:48:22.031404  9695 net.cpp:148] Top shape: 24 16 14 14 (75264)
I0403 19:48:22.031421  9695 net.cpp:156] Memory required for data: 873364512
I0403 19:48:22.031440  9695 layer_factory.hpp:77] Creating layer inception_4a/relu_5x5_reduce
I0403 19:48:22.031458  9695 net.cpp:91] Creating Layer inception_4a/relu_5x5_reduce
I0403 19:48:22.031474  9695 net.cpp:425] inception_4a/relu_5x5_reduce <- inception_4a/5x5_reduce
I0403 19:48:22.031493  9695 net.cpp:386] inception_4a/relu_5x5_reduce -> inception_4a/5x5_reduce (in-place)
I0403 19:48:22.031687  9695 net.cpp:141] Setting up inception_4a/relu_5x5_reduce
I0403 19:48:22.031713  9695 net.cpp:148] Top shape: 24 16 14 14 (75264)
I0403 19:48:22.031728  9695 net.cpp:156] Memory required for data: 873665568
I0403 19:48:22.031743  9695 layer_factory.hpp:77] Creating layer inception_4a/5x5
I0403 19:48:22.031765  9695 net.cpp:91] Creating Layer inception_4a/5x5
I0403 19:48:22.031783  9695 net.cpp:425] inception_4a/5x5 <- inception_4a/5x5_reduce
I0403 19:48:22.031805  9695 net.cpp:399] inception_4a/5x5 -> inception_4a/5x5
I0403 19:48:22.032884  9695 net.cpp:141] Setting up inception_4a/5x5
I0403 19:48:22.032912  9695 net.cpp:148] Top shape: 24 48 14 14 (225792)
I0403 19:48:22.032929  9695 net.cpp:156] Memory required for data: 874568736
I0403 19:48:22.032949  9695 layer_factory.hpp:77] Creating layer inception_4a/relu_5x5
I0403 19:48:22.032969  9695 net.cpp:91] Creating Layer inception_4a/relu_5x5
I0403 19:48:22.032985  9695 net.cpp:425] inception_4a/relu_5x5 <- inception_4a/5x5
I0403 19:48:22.033004  9695 net.cpp:386] inception_4a/relu_5x5 -> inception_4a/5x5 (in-place)
I0403 19:48:22.033188  9695 net.cpp:141] Setting up inception_4a/relu_5x5
I0403 19:48:22.033218  9695 net.cpp:148] Top shape: 24 48 14 14 (225792)
I0403 19:48:22.033234  9695 net.cpp:156] Memory required for data: 875471904
I0403 19:48:22.033249  9695 layer_factory.hpp:77] Creating layer inception_4a/pool
I0403 19:48:22.033267  9695 net.cpp:91] Creating Layer inception_4a/pool
I0403 19:48:22.033283  9695 net.cpp:425] inception_4a/pool <- pool3/3x3_s2_pool3/3x3_s2_0_split_3
I0403 19:48:22.033303  9695 net.cpp:399] inception_4a/pool -> inception_4a/pool
I0403 19:48:22.033365  9695 net.cpp:141] Setting up inception_4a/pool
I0403 19:48:22.033388  9695 net.cpp:148] Top shape: 24 480 14 14 (2257920)
I0403 19:48:22.033402  9695 net.cpp:156] Memory required for data: 884503584
I0403 19:48:22.033417  9695 layer_factory.hpp:77] Creating layer inception_4a/pool_proj
I0403 19:48:22.033440  9695 net.cpp:91] Creating Layer inception_4a/pool_proj
I0403 19:48:22.033458  9695 net.cpp:425] inception_4a/pool_proj <- inception_4a/pool
I0403 19:48:22.033478  9695 net.cpp:399] inception_4a/pool_proj -> inception_4a/pool_proj
I0403 19:48:22.034622  9695 net.cpp:141] Setting up inception_4a/pool_proj
I0403 19:48:22.034656  9695 net.cpp:148] Top shape: 24 64 14 14 (301056)
I0403 19:48:22.034687  9695 net.cpp:156] Memory required for data: 885707808
I0403 19:48:22.034706  9695 layer_factory.hpp:77] Creating layer inception_4a/relu_pool_proj
I0403 19:48:22.034725  9695 net.cpp:91] Creating Layer inception_4a/relu_pool_proj
I0403 19:48:22.034742  9695 net.cpp:425] inception_4a/relu_pool_proj <- inception_4a/pool_proj
I0403 19:48:22.034765  9695 net.cpp:386] inception_4a/relu_pool_proj -> inception_4a/pool_proj (in-place)
I0403 19:48:22.035040  9695 net.cpp:141] Setting up inception_4a/relu_pool_proj
I0403 19:48:22.035070  9695 net.cpp:148] Top shape: 24 64 14 14 (301056)
I0403 19:48:22.035086  9695 net.cpp:156] Memory required for data: 886912032
I0403 19:48:22.035104  9695 layer_factory.hpp:77] Creating layer inception_4a/output
I0403 19:48:22.035121  9695 net.cpp:91] Creating Layer inception_4a/output
I0403 19:48:22.035137  9695 net.cpp:425] inception_4a/output <- inception_4a/1x1
I0403 19:48:22.035156  9695 net.cpp:425] inception_4a/output <- inception_4a/3x3
I0403 19:48:22.035172  9695 net.cpp:425] inception_4a/output <- inception_4a/5x5
I0403 19:48:22.035194  9695 net.cpp:425] inception_4a/output <- inception_4a/pool_proj
I0403 19:48:22.035213  9695 net.cpp:399] inception_4a/output -> inception_4a/output
I0403 19:48:22.035272  9695 net.cpp:141] Setting up inception_4a/output
I0403 19:48:22.035296  9695 net.cpp:148] Top shape: 24 512 14 14 (2408448)
I0403 19:48:22.035312  9695 net.cpp:156] Memory required for data: 896545824
I0403 19:48:22.035327  9695 layer_factory.hpp:77] Creating layer inception_4a/output_inception_4a/output_0_split
I0403 19:48:22.035346  9695 net.cpp:91] Creating Layer inception_4a/output_inception_4a/output_0_split
I0403 19:48:22.035362  9695 net.cpp:425] inception_4a/output_inception_4a/output_0_split <- inception_4a/output
I0403 19:48:22.035382  9695 net.cpp:399] inception_4a/output_inception_4a/output_0_split -> inception_4a/output_inception_4a/output_0_split_0
I0403 19:48:22.035405  9695 net.cpp:399] inception_4a/output_inception_4a/output_0_split -> inception_4a/output_inception_4a/output_0_split_1
I0403 19:48:22.035428  9695 net.cpp:399] inception_4a/output_inception_4a/output_0_split -> inception_4a/output_inception_4a/output_0_split_2
I0403 19:48:22.035452  9695 net.cpp:399] inception_4a/output_inception_4a/output_0_split -> inception_4a/output_inception_4a/output_0_split_3
I0403 19:48:22.035473  9695 net.cpp:399] inception_4a/output_inception_4a/output_0_split -> inception_4a/output_inception_4a/output_0_split_4
I0403 19:48:22.035578  9695 net.cpp:141] Setting up inception_4a/output_inception_4a/output_0_split
I0403 19:48:22.035601  9695 net.cpp:148] Top shape: 24 512 14 14 (2408448)
I0403 19:48:22.035619  9695 net.cpp:148] Top shape: 24 512 14 14 (2408448)
I0403 19:48:22.035634  9695 net.cpp:148] Top shape: 24 512 14 14 (2408448)
I0403 19:48:22.035650  9695 net.cpp:148] Top shape: 24 512 14 14 (2408448)
I0403 19:48:22.035665  9695 net.cpp:148] Top shape: 24 512 14 14 (2408448)
I0403 19:48:22.035678  9695 net.cpp:156] Memory required for data: 944714784
I0403 19:48:22.035693  9695 layer_factory.hpp:77] Creating layer loss1/ave_pool
I0403 19:48:22.035712  9695 net.cpp:91] Creating Layer loss1/ave_pool
I0403 19:48:22.035727  9695 net.cpp:425] loss1/ave_pool <- inception_4a/output_inception_4a/output_0_split_0
I0403 19:48:22.035748  9695 net.cpp:399] loss1/ave_pool -> loss1/ave_pool
I0403 19:48:22.035948  9695 net.cpp:141] Setting up loss1/ave_pool
I0403 19:48:22.035976  9695 net.cpp:148] Top shape: 24 512 4 4 (196608)
I0403 19:48:22.035991  9695 net.cpp:156] Memory required for data: 945501216
I0403 19:48:22.036007  9695 layer_factory.hpp:77] Creating layer loss1/conv
I0403 19:48:22.036029  9695 net.cpp:91] Creating Layer loss1/conv
I0403 19:48:22.036047  9695 net.cpp:425] loss1/conv <- loss1/ave_pool
I0403 19:48:22.036067  9695 net.cpp:399] loss1/conv -> loss1/conv
I0403 19:48:22.037456  9695 net.cpp:141] Setting up loss1/conv
I0403 19:48:22.037485  9695 net.cpp:148] Top shape: 24 128 4 4 (49152)
I0403 19:48:22.037515  9695 net.cpp:156] Memory required for data: 945697824
I0403 19:48:22.037535  9695 layer_factory.hpp:77] Creating layer loss1/relu_conv
I0403 19:48:22.037555  9695 net.cpp:91] Creating Layer loss1/relu_conv
I0403 19:48:22.037572  9695 net.cpp:425] loss1/relu_conv <- loss1/conv
I0403 19:48:22.037593  9695 net.cpp:386] loss1/relu_conv -> loss1/conv (in-place)
I0403 19:48:22.037875  9695 net.cpp:141] Setting up loss1/relu_conv
I0403 19:48:22.037901  9695 net.cpp:148] Top shape: 24 128 4 4 (49152)
I0403 19:48:22.037916  9695 net.cpp:156] Memory required for data: 945894432
I0403 19:48:22.037931  9695 layer_factory.hpp:77] Creating layer loss1/fc
I0403 19:48:22.037955  9695 net.cpp:91] Creating Layer loss1/fc
I0403 19:48:22.037973  9695 net.cpp:425] loss1/fc <- loss1/conv
I0403 19:48:22.037994  9695 net.cpp:399] loss1/fc -> loss1/fc
I0403 19:48:22.056140  9695 net.cpp:141] Setting up loss1/fc
I0403 19:48:22.056181  9695 net.cpp:148] Top shape: 24 1024 (24576)
I0403 19:48:22.056200  9695 net.cpp:156] Memory required for data: 945992736
I0403 19:48:22.056222  9695 layer_factory.hpp:77] Creating layer loss1/relu_fc
I0403 19:48:22.056243  9695 net.cpp:91] Creating Layer loss1/relu_fc
I0403 19:48:22.056260  9695 net.cpp:425] loss1/relu_fc <- loss1/fc
I0403 19:48:22.056280  9695 net.cpp:386] loss1/relu_fc -> loss1/fc (in-place)
I0403 19:48:22.056501  9695 net.cpp:141] Setting up loss1/relu_fc
I0403 19:48:22.056527  9695 net.cpp:148] Top shape: 24 1024 (24576)
I0403 19:48:22.056542  9695 net.cpp:156] Memory required for data: 946091040
I0403 19:48:22.056558  9695 layer_factory.hpp:77] Creating layer loss1/drop_fc
I0403 19:48:22.056587  9695 net.cpp:91] Creating Layer loss1/drop_fc
I0403 19:48:22.056605  9695 net.cpp:425] loss1/drop_fc <- loss1/fc
I0403 19:48:22.056625  9695 net.cpp:386] loss1/drop_fc -> loss1/fc (in-place)
I0403 19:48:22.056679  9695 net.cpp:141] Setting up loss1/drop_fc
I0403 19:48:22.056702  9695 net.cpp:148] Top shape: 24 1024 (24576)
I0403 19:48:22.056717  9695 net.cpp:156] Memory required for data: 946189344
I0403 19:48:22.056732  9695 layer_factory.hpp:77] Creating layer loss1/classifier_plantvillage
I0403 19:48:22.056756  9695 net.cpp:91] Creating Layer loss1/classifier_plantvillage
I0403 19:48:22.056773  9695 net.cpp:425] loss1/classifier_plantvillage <- loss1/fc
I0403 19:48:22.056792  9695 net.cpp:399] loss1/classifier_plantvillage -> loss1/classifier_plantvillage
I0403 19:48:22.057724  9695 net.cpp:141] Setting up loss1/classifier_plantvillage
I0403 19:48:22.057754  9695 net.cpp:148] Top shape: 24 38 (912)
I0403 19:48:22.057770  9695 net.cpp:156] Memory required for data: 946192992
I0403 19:48:22.057788  9695 layer_factory.hpp:77] Creating layer loss1/classifier_plantvillage_loss1/classifier_plantvillage_0_split
I0403 19:48:22.057806  9695 net.cpp:91] Creating Layer loss1/classifier_plantvillage_loss1/classifier_plantvillage_0_split
I0403 19:48:22.057823  9695 net.cpp:425] loss1/classifier_plantvillage_loss1/classifier_plantvillage_0_split <- loss1/classifier_plantvillage
I0403 19:48:22.057844  9695 net.cpp:399] loss1/classifier_plantvillage_loss1/classifier_plantvillage_0_split -> loss1/classifier_plantvillage_loss1/classifier_plantvillage_0_split_0
I0403 19:48:22.057867  9695 net.cpp:399] loss1/classifier_plantvillage_loss1/classifier_plantvillage_0_split -> loss1/classifier_plantvillage_loss1/classifier_plantvillage_0_split_1
I0403 19:48:22.057888  9695 net.cpp:399] loss1/classifier_plantvillage_loss1/classifier_plantvillage_0_split -> loss1/classifier_plantvillage_loss1/classifier_plantvillage_0_split_2
I0403 19:48:22.057955  9695 net.cpp:141] Setting up loss1/classifier_plantvillage_loss1/classifier_plantvillage_0_split
I0403 19:48:22.057978  9695 net.cpp:148] Top shape: 24 38 (912)
I0403 19:48:22.057996  9695 net.cpp:148] Top shape: 24 38 (912)
I0403 19:48:22.058012  9695 net.cpp:148] Top shape: 24 38 (912)
I0403 19:48:22.058027  9695 net.cpp:156] Memory required for data: 946203936
I0403 19:48:22.058042  9695 layer_factory.hpp:77] Creating layer inception_4b/1x1
I0403 19:48:22.058063  9695 net.cpp:91] Creating Layer inception_4b/1x1
I0403 19:48:22.058101  9695 net.cpp:425] inception_4b/1x1 <- inception_4a/output_inception_4a/output_0_split_1
I0403 19:48:22.058125  9695 net.cpp:399] inception_4b/1x1 -> inception_4b/1x1
I0403 19:48:22.059857  9695 net.cpp:141] Setting up inception_4b/1x1
I0403 19:48:22.059888  9695 net.cpp:148] Top shape: 24 160 14 14 (752640)
I0403 19:48:22.059906  9695 net.cpp:156] Memory required for data: 949214496
I0403 19:48:22.059926  9695 layer_factory.hpp:77] Creating layer inception_4b/relu_1x1
I0403 19:48:22.059944  9695 net.cpp:91] Creating Layer inception_4b/relu_1x1
I0403 19:48:22.059962  9695 net.cpp:425] inception_4b/relu_1x1 <- inception_4b/1x1
I0403 19:48:22.059981  9695 net.cpp:386] inception_4b/relu_1x1 -> inception_4b/1x1 (in-place)
I0403 19:48:22.060166  9695 net.cpp:141] Setting up inception_4b/relu_1x1
I0403 19:48:22.060210  9695 net.cpp:148] Top shape: 24 160 14 14 (752640)
I0403 19:48:22.060228  9695 net.cpp:156] Memory required for data: 952225056
I0403 19:48:22.060245  9695 layer_factory.hpp:77] Creating layer inception_4b/3x3_reduce
I0403 19:48:22.060271  9695 net.cpp:91] Creating Layer inception_4b/3x3_reduce
I0403 19:48:22.060289  9695 net.cpp:425] inception_4b/3x3_reduce <- inception_4a/output_inception_4a/output_0_split_2
I0403 19:48:22.060315  9695 net.cpp:399] inception_4b/3x3_reduce -> inception_4b/3x3_reduce
I0403 19:48:22.061719  9695 net.cpp:141] Setting up inception_4b/3x3_reduce
I0403 19:48:22.061749  9695 net.cpp:148] Top shape: 24 112 14 14 (526848)
I0403 19:48:22.061765  9695 net.cpp:156] Memory required for data: 954332448
I0403 19:48:22.061785  9695 layer_factory.hpp:77] Creating layer inception_4b/relu_3x3_reduce
I0403 19:48:22.061807  9695 net.cpp:91] Creating Layer inception_4b/relu_3x3_reduce
I0403 19:48:22.061827  9695 net.cpp:425] inception_4b/relu_3x3_reduce <- inception_4b/3x3_reduce
I0403 19:48:22.061846  9695 net.cpp:386] inception_4b/relu_3x3_reduce -> inception_4b/3x3_reduce (in-place)
I0403 19:48:22.062140  9695 net.cpp:141] Setting up inception_4b/relu_3x3_reduce
I0403 19:48:22.062167  9695 net.cpp:148] Top shape: 24 112 14 14 (526848)
I0403 19:48:22.062201  9695 net.cpp:156] Memory required for data: 956439840
I0403 19:48:22.062219  9695 layer_factory.hpp:77] Creating layer inception_4b/3x3
I0403 19:48:22.062243  9695 net.cpp:91] Creating Layer inception_4b/3x3
I0403 19:48:22.062263  9695 net.cpp:425] inception_4b/3x3 <- inception_4b/3x3_reduce
I0403 19:48:22.062285  9695 net.cpp:399] inception_4b/3x3 -> inception_4b/3x3
I0403 19:48:22.065397  9695 net.cpp:141] Setting up inception_4b/3x3
I0403 19:48:22.065431  9695 net.cpp:148] Top shape: 24 224 14 14 (1053696)
I0403 19:48:22.065451  9695 net.cpp:156] Memory required for data: 960654624
I0403 19:48:22.065471  9695 layer_factory.hpp:77] Creating layer inception_4b/relu_3x3
I0403 19:48:22.065490  9695 net.cpp:91] Creating Layer inception_4b/relu_3x3
I0403 19:48:22.065507  9695 net.cpp:425] inception_4b/relu_3x3 <- inception_4b/3x3
I0403 19:48:22.065526  9695 net.cpp:386] inception_4b/relu_3x3 -> inception_4b/3x3 (in-place)
I0403 19:48:22.065722  9695 net.cpp:141] Setting up inception_4b/relu_3x3
I0403 19:48:22.065747  9695 net.cpp:148] Top shape: 24 224 14 14 (1053696)
I0403 19:48:22.065763  9695 net.cpp:156] Memory required for data: 964869408
I0403 19:48:22.065779  9695 layer_factory.hpp:77] Creating layer inception_4b/5x5_reduce
I0403 19:48:22.065803  9695 net.cpp:91] Creating Layer inception_4b/5x5_reduce
I0403 19:48:22.065822  9695 net.cpp:425] inception_4b/5x5_reduce <- inception_4a/output_inception_4a/output_0_split_3
I0403 19:48:22.065845  9695 net.cpp:399] inception_4b/5x5_reduce -> inception_4b/5x5_reduce
I0403 19:48:22.066925  9695 net.cpp:141] Setting up inception_4b/5x5_reduce
I0403 19:48:22.066953  9695 net.cpp:148] Top shape: 24 24 14 14 (112896)
I0403 19:48:22.066970  9695 net.cpp:156] Memory required for data: 965320992
I0403 19:48:22.066990  9695 layer_factory.hpp:77] Creating layer inception_4b/relu_5x5_reduce
I0403 19:48:22.067011  9695 net.cpp:91] Creating Layer inception_4b/relu_5x5_reduce
I0403 19:48:22.067045  9695 net.cpp:425] inception_4b/relu_5x5_reduce <- inception_4b/5x5_reduce
I0403 19:48:22.067064  9695 net.cpp:386] inception_4b/relu_5x5_reduce -> inception_4b/5x5_reduce (in-place)
I0403 19:48:22.067267  9695 net.cpp:141] Setting up inception_4b/relu_5x5_reduce
I0403 19:48:22.067293  9695 net.cpp:148] Top shape: 24 24 14 14 (112896)
I0403 19:48:22.067309  9695 net.cpp:156] Memory required for data: 965772576
I0403 19:48:22.067327  9695 layer_factory.hpp:77] Creating layer inception_4b/5x5
I0403 19:48:22.067351  9695 net.cpp:91] Creating Layer inception_4b/5x5
I0403 19:48:22.067373  9695 net.cpp:425] inception_4b/5x5 <- inception_4b/5x5_reduce
I0403 19:48:22.067394  9695 net.cpp:399] inception_4b/5x5 -> inception_4b/5x5
I0403 19:48:22.068641  9695 net.cpp:141] Setting up inception_4b/5x5
I0403 19:48:22.068670  9695 net.cpp:148] Top shape: 24 64 14 14 (301056)
I0403 19:48:22.068684  9695 net.cpp:156] Memory required for data: 966976800
I0403 19:48:22.068703  9695 layer_factory.hpp:77] Creating layer inception_4b/relu_5x5
I0403 19:48:22.068722  9695 net.cpp:91] Creating Layer inception_4b/relu_5x5
I0403 19:48:22.068738  9695 net.cpp:425] inception_4b/relu_5x5 <- inception_4b/5x5
I0403 19:48:22.068758  9695 net.cpp:386] inception_4b/relu_5x5 -> inception_4b/5x5 (in-place)
I0403 19:48:22.069042  9695 net.cpp:141] Setting up inception_4b/relu_5x5
I0403 19:48:22.069069  9695 net.cpp:148] Top shape: 24 64 14 14 (301056)
I0403 19:48:22.069085  9695 net.cpp:156] Memory required for data: 968181024
I0403 19:48:22.069102  9695 layer_factory.hpp:77] Creating layer inception_4b/pool
I0403 19:48:22.069121  9695 net.cpp:91] Creating Layer inception_4b/pool
I0403 19:48:22.069138  9695 net.cpp:425] inception_4b/pool <- inception_4a/output_inception_4a/output_0_split_4
I0403 19:48:22.069159  9695 net.cpp:399] inception_4b/pool -> inception_4b/pool
I0403 19:48:22.069241  9695 net.cpp:141] Setting up inception_4b/pool
I0403 19:48:22.069265  9695 net.cpp:148] Top shape: 24 512 14 14 (2408448)
I0403 19:48:22.069280  9695 net.cpp:156] Memory required for data: 977814816
I0403 19:48:22.069295  9695 layer_factory.hpp:77] Creating layer inception_4b/pool_proj
I0403 19:48:22.069320  9695 net.cpp:91] Creating Layer inception_4b/pool_proj
I0403 19:48:22.069339  9695 net.cpp:425] inception_4b/pool_proj <- inception_4b/pool
I0403 19:48:22.069357  9695 net.cpp:399] inception_4b/pool_proj -> inception_4b/pool_proj
I0403 19:48:22.070577  9695 net.cpp:141] Setting up inception_4b/pool_proj
I0403 19:48:22.070606  9695 net.cpp:148] Top shape: 24 64 14 14 (301056)
I0403 19:48:22.070622  9695 net.cpp:156] Memory required for data: 979019040
I0403 19:48:22.070641  9695 layer_factory.hpp:77] Creating layer inception_4b/relu_pool_proj
I0403 19:48:22.070662  9695 net.cpp:91] Creating Layer inception_4b/relu_pool_proj
I0403 19:48:22.070682  9695 net.cpp:425] inception_4b/relu_pool_proj <- inception_4b/pool_proj
I0403 19:48:22.070699  9695 net.cpp:386] inception_4b/relu_pool_proj -> inception_4b/pool_proj (in-place)
I0403 19:48:22.070879  9695 net.cpp:141] Setting up inception_4b/relu_pool_proj
I0403 19:48:22.070909  9695 net.cpp:148] Top shape: 24 64 14 14 (301056)
I0403 19:48:22.070927  9695 net.cpp:156] Memory required for data: 980223264
I0403 19:48:22.070942  9695 layer_factory.hpp:77] Creating layer inception_4b/output
I0403 19:48:22.070961  9695 net.cpp:91] Creating Layer inception_4b/output
I0403 19:48:22.070977  9695 net.cpp:425] inception_4b/output <- inception_4b/1x1
I0403 19:48:22.070994  9695 net.cpp:425] inception_4b/output <- inception_4b/3x3
I0403 19:48:22.071012  9695 net.cpp:425] inception_4b/output <- inception_4b/5x5
I0403 19:48:22.071027  9695 net.cpp:425] inception_4b/output <- inception_4b/pool_proj
I0403 19:48:22.071043  9695 net.cpp:399] inception_4b/output -> inception_4b/output
I0403 19:48:22.071090  9695 net.cpp:141] Setting up inception_4b/output
I0403 19:48:22.071115  9695 net.cpp:148] Top shape: 24 512 14 14 (2408448)
I0403 19:48:22.071130  9695 net.cpp:156] Memory required for data: 989857056
I0403 19:48:22.071158  9695 layer_factory.hpp:77] Creating layer inception_4b/output_inception_4b/output_0_split
I0403 19:48:22.071180  9695 net.cpp:91] Creating Layer inception_4b/output_inception_4b/output_0_split
I0403 19:48:22.071197  9695 net.cpp:425] inception_4b/output_inception_4b/output_0_split <- inception_4b/output
I0403 19:48:22.071219  9695 net.cpp:399] inception_4b/output_inception_4b/output_0_split -> inception_4b/output_inception_4b/output_0_split_0
I0403 19:48:22.071239  9695 net.cpp:399] inception_4b/output_inception_4b/output_0_split -> inception_4b/output_inception_4b/output_0_split_1
I0403 19:48:22.071260  9695 net.cpp:399] inception_4b/output_inception_4b/output_0_split -> inception_4b/output_inception_4b/output_0_split_2
I0403 19:48:22.071281  9695 net.cpp:399] inception_4b/output_inception_4b/output_0_split -> inception_4b/output_inception_4b/output_0_split_3
I0403 19:48:22.071365  9695 net.cpp:141] Setting up inception_4b/output_inception_4b/output_0_split
I0403 19:48:22.071389  9695 net.cpp:148] Top shape: 24 512 14 14 (2408448)
I0403 19:48:22.071405  9695 net.cpp:148] Top shape: 24 512 14 14 (2408448)
I0403 19:48:22.071420  9695 net.cpp:148] Top shape: 24 512 14 14 (2408448)
I0403 19:48:22.071436  9695 net.cpp:148] Top shape: 24 512 14 14 (2408448)
I0403 19:48:22.071450  9695 net.cpp:156] Memory required for data: 1028392224
I0403 19:48:22.071466  9695 layer_factory.hpp:77] Creating layer inception_4c/1x1
I0403 19:48:22.071490  9695 net.cpp:91] Creating Layer inception_4c/1x1
I0403 19:48:22.071506  9695 net.cpp:425] inception_4c/1x1 <- inception_4b/output_inception_4b/output_0_split_0
I0403 19:48:22.071527  9695 net.cpp:399] inception_4c/1x1 -> inception_4c/1x1
I0403 19:48:22.072955  9695 net.cpp:141] Setting up inception_4c/1x1
I0403 19:48:22.072988  9695 net.cpp:148] Top shape: 24 128 14 14 (602112)
I0403 19:48:22.073006  9695 net.cpp:156] Memory required for data: 1030800672
I0403 19:48:22.073026  9695 layer_factory.hpp:77] Creating layer inception_4c/relu_1x1
I0403 19:48:22.073045  9695 net.cpp:91] Creating Layer inception_4c/relu_1x1
I0403 19:48:22.073060  9695 net.cpp:425] inception_4c/relu_1x1 <- inception_4c/1x1
I0403 19:48:22.073077  9695 net.cpp:386] inception_4c/relu_1x1 -> inception_4c/1x1 (in-place)
I0403 19:48:22.073289  9695 net.cpp:141] Setting up inception_4c/relu_1x1
I0403 19:48:22.073319  9695 net.cpp:148] Top shape: 24 128 14 14 (602112)
I0403 19:48:22.073335  9695 net.cpp:156] Memory required for data: 1033209120
I0403 19:48:22.073353  9695 layer_factory.hpp:77] Creating layer inception_4c/3x3_reduce
I0403 19:48:22.073375  9695 net.cpp:91] Creating Layer inception_4c/3x3_reduce
I0403 19:48:22.073393  9695 net.cpp:425] inception_4c/3x3_reduce <- inception_4b/output_inception_4b/output_0_split_1
I0403 19:48:22.073415  9695 net.cpp:399] inception_4c/3x3_reduce -> inception_4c/3x3_reduce
I0403 19:48:22.075371  9695 net.cpp:141] Setting up inception_4c/3x3_reduce
I0403 19:48:22.075402  9695 net.cpp:148] Top shape: 24 128 14 14 (602112)
I0403 19:48:22.075418  9695 net.cpp:156] Memory required for data: 1035617568
I0403 19:48:22.075438  9695 layer_factory.hpp:77] Creating layer inception_4c/relu_3x3_reduce
I0403 19:48:22.075455  9695 net.cpp:91] Creating Layer inception_4c/relu_3x3_reduce
I0403 19:48:22.075474  9695 net.cpp:425] inception_4c/relu_3x3_reduce <- inception_4c/3x3_reduce
I0403 19:48:22.075491  9695 net.cpp:386] inception_4c/relu_3x3_reduce -> inception_4c/3x3_reduce (in-place)
I0403 19:48:22.075779  9695 net.cpp:141] Setting up inception_4c/relu_3x3_reduce
I0403 19:48:22.075808  9695 net.cpp:148] Top shape: 24 128 14 14 (602112)
I0403 19:48:22.075822  9695 net.cpp:156] Memory required for data: 1038026016
I0403 19:48:22.075837  9695 layer_factory.hpp:77] Creating layer inception_4c/3x3
I0403 19:48:22.075860  9695 net.cpp:91] Creating Layer inception_4c/3x3
I0403 19:48:22.075878  9695 net.cpp:425] inception_4c/3x3 <- inception_4c/3x3_reduce
I0403 19:48:22.075901  9695 net.cpp:399] inception_4c/3x3 -> inception_4c/3x3
I0403 19:48:22.079550  9695 net.cpp:141] Setting up inception_4c/3x3
I0403 19:48:22.079592  9695 net.cpp:148] Top shape: 24 256 14 14 (1204224)
I0403 19:48:22.079609  9695 net.cpp:156] Memory required for data: 1042842912
I0403 19:48:22.079643  9695 layer_factory.hpp:77] Creating layer inception_4c/relu_3x3
I0403 19:48:22.079666  9695 net.cpp:91] Creating Layer inception_4c/relu_3x3
I0403 19:48:22.079685  9695 net.cpp:425] inception_4c/relu_3x3 <- inception_4c/3x3
I0403 19:48:22.079704  9695 net.cpp:386] inception_4c/relu_3x3 -> inception_4c/3x3 (in-place)
I0403 19:48:22.079885  9695 net.cpp:141] Setting up inception_4c/relu_3x3
I0403 19:48:22.079911  9695 net.cpp:148] Top shape: 24 256 14 14 (1204224)
I0403 19:48:22.079926  9695 net.cpp:156] Memory required for data: 1047659808
I0403 19:48:22.079948  9695 layer_factory.hpp:77] Creating layer inception_4c/5x5_reduce
I0403 19:48:22.079972  9695 net.cpp:91] Creating Layer inception_4c/5x5_reduce
I0403 19:48:22.079989  9695 net.cpp:425] inception_4c/5x5_reduce <- inception_4b/output_inception_4b/output_0_split_2
I0403 19:48:22.080011  9695 net.cpp:399] inception_4c/5x5_reduce -> inception_4c/5x5_reduce
I0403 19:48:22.081104  9695 net.cpp:141] Setting up inception_4c/5x5_reduce
I0403 19:48:22.081133  9695 net.cpp:148] Top shape: 24 24 14 14 (112896)
I0403 19:48:22.081149  9695 net.cpp:156] Memory required for data: 1048111392
I0403 19:48:22.081168  9695 layer_factory.hpp:77] Creating layer inception_4c/relu_5x5_reduce
I0403 19:48:22.081197  9695 net.cpp:91] Creating Layer inception_4c/relu_5x5_reduce
I0403 19:48:22.081218  9695 net.cpp:425] inception_4c/relu_5x5_reduce <- inception_4c/5x5_reduce
I0403 19:48:22.081236  9695 net.cpp:386] inception_4c/relu_5x5_reduce -> inception_4c/5x5_reduce (in-place)
I0403 19:48:22.081421  9695 net.cpp:141] Setting up inception_4c/relu_5x5_reduce
I0403 19:48:22.081449  9695 net.cpp:148] Top shape: 24 24 14 14 (112896)
I0403 19:48:22.081465  9695 net.cpp:156] Memory required for data: 1048562976
I0403 19:48:22.081480  9695 layer_factory.hpp:77] Creating layer inception_4c/5x5
I0403 19:48:22.081504  9695 net.cpp:91] Creating Layer inception_4c/5x5
I0403 19:48:22.081522  9695 net.cpp:425] inception_4c/5x5 <- inception_4c/5x5_reduce
I0403 19:48:22.081542  9695 net.cpp:399] inception_4c/5x5 -> inception_4c/5x5
I0403 19:48:22.082797  9695 net.cpp:141] Setting up inception_4c/5x5
I0403 19:48:22.082826  9695 net.cpp:148] Top shape: 24 64 14 14 (301056)
I0403 19:48:22.082845  9695 net.cpp:156] Memory required for data: 1049767200
I0403 19:48:22.082865  9695 layer_factory.hpp:77] Creating layer inception_4c/relu_5x5
I0403 19:48:22.082885  9695 net.cpp:91] Creating Layer inception_4c/relu_5x5
I0403 19:48:22.082902  9695 net.cpp:425] inception_4c/relu_5x5 <- inception_4c/5x5
I0403 19:48:22.082921  9695 net.cpp:386] inception_4c/relu_5x5 -> inception_4c/5x5 (in-place)
I0403 19:48:22.083214  9695 net.cpp:141] Setting up inception_4c/relu_5x5
I0403 19:48:22.083245  9695 net.cpp:148] Top shape: 24 64 14 14 (301056)
I0403 19:48:22.083261  9695 net.cpp:156] Memory required for data: 1050971424
I0403 19:48:22.083277  9695 layer_factory.hpp:77] Creating layer inception_4c/pool
I0403 19:48:22.083297  9695 net.cpp:91] Creating Layer inception_4c/pool
I0403 19:48:22.083314  9695 net.cpp:425] inception_4c/pool <- inception_4b/output_inception_4b/output_0_split_3
I0403 19:48:22.083333  9695 net.cpp:399] inception_4c/pool -> inception_4c/pool
I0403 19:48:22.083400  9695 net.cpp:141] Setting up inception_4c/pool
I0403 19:48:22.083425  9695 net.cpp:148] Top shape: 24 512 14 14 (2408448)
I0403 19:48:22.083438  9695 net.cpp:156] Memory required for data: 1060605216
I0403 19:48:22.083453  9695 layer_factory.hpp:77] Creating layer inception_4c/pool_proj
I0403 19:48:22.083475  9695 net.cpp:91] Creating Layer inception_4c/pool_proj
I0403 19:48:22.083493  9695 net.cpp:425] inception_4c/pool_proj <- inception_4c/pool
I0403 19:48:22.083514  9695 net.cpp:399] inception_4c/pool_proj -> inception_4c/pool_proj
I0403 19:48:22.084738  9695 net.cpp:141] Setting up inception_4c/pool_proj
I0403 19:48:22.084767  9695 net.cpp:148] Top shape: 24 64 14 14 (301056)
I0403 19:48:22.084797  9695 net.cpp:156] Memory required for data: 1061809440
I0403 19:48:22.084818  9695 layer_factory.hpp:77] Creating layer inception_4c/relu_pool_proj
I0403 19:48:22.084841  9695 net.cpp:91] Creating Layer inception_4c/relu_pool_proj
I0403 19:48:22.084859  9695 net.cpp:425] inception_4c/relu_pool_proj <- inception_4c/pool_proj
I0403 19:48:22.084887  9695 net.cpp:386] inception_4c/relu_pool_proj -> inception_4c/pool_proj (in-place)
I0403 19:48:22.085077  9695 net.cpp:141] Setting up inception_4c/relu_pool_proj
I0403 19:48:22.085104  9695 net.cpp:148] Top shape: 24 64 14 14 (301056)
I0403 19:48:22.085122  9695 net.cpp:156] Memory required for data: 1063013664
I0403 19:48:22.085137  9695 layer_factory.hpp:77] Creating layer inception_4c/output
I0403 19:48:22.085155  9695 net.cpp:91] Creating Layer inception_4c/output
I0403 19:48:22.085171  9695 net.cpp:425] inception_4c/output <- inception_4c/1x1
I0403 19:48:22.085196  9695 net.cpp:425] inception_4c/output <- inception_4c/3x3
I0403 19:48:22.085212  9695 net.cpp:425] inception_4c/output <- inception_4c/5x5
I0403 19:48:22.085228  9695 net.cpp:425] inception_4c/output <- inception_4c/pool_proj
I0403 19:48:22.085245  9695 net.cpp:399] inception_4c/output -> inception_4c/output
I0403 19:48:22.085294  9695 net.cpp:141] Setting up inception_4c/output
I0403 19:48:22.085317  9695 net.cpp:148] Top shape: 24 512 14 14 (2408448)
I0403 19:48:22.085332  9695 net.cpp:156] Memory required for data: 1072647456
I0403 19:48:22.085347  9695 layer_factory.hpp:77] Creating layer inception_4c/output_inception_4c/output_0_split
I0403 19:48:22.085364  9695 net.cpp:91] Creating Layer inception_4c/output_inception_4c/output_0_split
I0403 19:48:22.085379  9695 net.cpp:425] inception_4c/output_inception_4c/output_0_split <- inception_4c/output
I0403 19:48:22.085399  9695 net.cpp:399] inception_4c/output_inception_4c/output_0_split -> inception_4c/output_inception_4c/output_0_split_0
I0403 19:48:22.085420  9695 net.cpp:399] inception_4c/output_inception_4c/output_0_split -> inception_4c/output_inception_4c/output_0_split_1
I0403 19:48:22.085440  9695 net.cpp:399] inception_4c/output_inception_4c/output_0_split -> inception_4c/output_inception_4c/output_0_split_2
I0403 19:48:22.085461  9695 net.cpp:399] inception_4c/output_inception_4c/output_0_split -> inception_4c/output_inception_4c/output_0_split_3
I0403 19:48:22.085547  9695 net.cpp:141] Setting up inception_4c/output_inception_4c/output_0_split
I0403 19:48:22.085571  9695 net.cpp:148] Top shape: 24 512 14 14 (2408448)
I0403 19:48:22.085587  9695 net.cpp:148] Top shape: 24 512 14 14 (2408448)
I0403 19:48:22.085602  9695 net.cpp:148] Top shape: 24 512 14 14 (2408448)
I0403 19:48:22.085618  9695 net.cpp:148] Top shape: 24 512 14 14 (2408448)
I0403 19:48:22.085633  9695 net.cpp:156] Memory required for data: 1111182624
I0403 19:48:22.085647  9695 layer_factory.hpp:77] Creating layer inception_4d/1x1
I0403 19:48:22.085669  9695 net.cpp:91] Creating Layer inception_4d/1x1
I0403 19:48:22.085687  9695 net.cpp:425] inception_4d/1x1 <- inception_4c/output_inception_4c/output_0_split_0
I0403 19:48:22.085708  9695 net.cpp:399] inception_4d/1x1 -> inception_4d/1x1
I0403 19:48:22.087091  9695 net.cpp:141] Setting up inception_4d/1x1
I0403 19:48:22.087122  9695 net.cpp:148] Top shape: 24 112 14 14 (526848)
I0403 19:48:22.087138  9695 net.cpp:156] Memory required for data: 1113290016
I0403 19:48:22.087157  9695 layer_factory.hpp:77] Creating layer inception_4d/relu_1x1
I0403 19:48:22.087175  9695 net.cpp:91] Creating Layer inception_4d/relu_1x1
I0403 19:48:22.087201  9695 net.cpp:425] inception_4d/relu_1x1 <- inception_4d/1x1
I0403 19:48:22.087223  9695 net.cpp:386] inception_4d/relu_1x1 -> inception_4d/1x1 (in-place)
I0403 19:48:22.087407  9695 net.cpp:141] Setting up inception_4d/relu_1x1
I0403 19:48:22.087432  9695 net.cpp:148] Top shape: 24 112 14 14 (526848)
I0403 19:48:22.087447  9695 net.cpp:156] Memory required for data: 1115397408
I0403 19:48:22.087462  9695 layer_factory.hpp:77] Creating layer inception_4d/3x3_reduce
I0403 19:48:22.087497  9695 net.cpp:91] Creating Layer inception_4d/3x3_reduce
I0403 19:48:22.087517  9695 net.cpp:425] inception_4d/3x3_reduce <- inception_4c/output_inception_4c/output_0_split_1
I0403 19:48:22.087538  9695 net.cpp:399] inception_4d/3x3_reduce -> inception_4d/3x3_reduce
I0403 19:48:22.089160  9695 net.cpp:141] Setting up inception_4d/3x3_reduce
I0403 19:48:22.089196  9695 net.cpp:148] Top shape: 24 144 14 14 (677376)
I0403 19:48:22.089215  9695 net.cpp:156] Memory required for data: 1118106912
I0403 19:48:22.089233  9695 layer_factory.hpp:77] Creating layer inception_4d/relu_3x3_reduce
I0403 19:48:22.089254  9695 net.cpp:91] Creating Layer inception_4d/relu_3x3_reduce
I0403 19:48:22.089272  9695 net.cpp:425] inception_4d/relu_3x3_reduce <- inception_4d/3x3_reduce
I0403 19:48:22.089292  9695 net.cpp:386] inception_4d/relu_3x3_reduce -> inception_4d/3x3_reduce (in-place)
I0403 19:48:22.089584  9695 net.cpp:141] Setting up inception_4d/relu_3x3_reduce
I0403 19:48:22.089612  9695 net.cpp:148] Top shape: 24 144 14 14 (677376)
I0403 19:48:22.089628  9695 net.cpp:156] Memory required for data: 1120816416
I0403 19:48:22.089644  9695 layer_factory.hpp:77] Creating layer inception_4d/3x3
I0403 19:48:22.089669  9695 net.cpp:91] Creating Layer inception_4d/3x3
I0403 19:48:22.089689  9695 net.cpp:425] inception_4d/3x3 <- inception_4d/3x3_reduce
I0403 19:48:22.089709  9695 net.cpp:399] inception_4d/3x3 -> inception_4d/3x3
I0403 19:48:22.093914  9695 net.cpp:141] Setting up inception_4d/3x3
I0403 19:48:22.093946  9695 net.cpp:148] Top shape: 24 288 14 14 (1354752)
I0403 19:48:22.093963  9695 net.cpp:156] Memory required for data: 1126235424
I0403 19:48:22.093982  9695 layer_factory.hpp:77] Creating layer inception_4d/relu_3x3
I0403 19:48:22.094000  9695 net.cpp:91] Creating Layer inception_4d/relu_3x3
I0403 19:48:22.094017  9695 net.cpp:425] inception_4d/relu_3x3 <- inception_4d/3x3
I0403 19:48:22.094035  9695 net.cpp:386] inception_4d/relu_3x3 -> inception_4d/3x3 (in-place)
I0403 19:48:22.094220  9695 net.cpp:141] Setting up inception_4d/relu_3x3
I0403 19:48:22.094245  9695 net.cpp:148] Top shape: 24 288 14 14 (1354752)
I0403 19:48:22.094259  9695 net.cpp:156] Memory required for data: 1131654432
I0403 19:48:22.094274  9695 layer_factory.hpp:77] Creating layer inception_4d/5x5_reduce
I0403 19:48:22.094295  9695 net.cpp:91] Creating Layer inception_4d/5x5_reduce
I0403 19:48:22.094312  9695 net.cpp:425] inception_4d/5x5_reduce <- inception_4c/output_inception_4c/output_0_split_2
I0403 19:48:22.094333  9695 net.cpp:399] inception_4d/5x5_reduce -> inception_4d/5x5_reduce
I0403 19:48:22.095453  9695 net.cpp:141] Setting up inception_4d/5x5_reduce
I0403 19:48:22.095482  9695 net.cpp:148] Top shape: 24 32 14 14 (150528)
I0403 19:48:22.095499  9695 net.cpp:156] Memory required for data: 1132256544
I0403 19:48:22.095517  9695 layer_factory.hpp:77] Creating layer inception_4d/relu_5x5_reduce
I0403 19:48:22.095535  9695 net.cpp:91] Creating Layer inception_4d/relu_5x5_reduce
I0403 19:48:22.095552  9695 net.cpp:425] inception_4d/relu_5x5_reduce <- inception_4d/5x5_reduce
I0403 19:48:22.095573  9695 net.cpp:386] inception_4d/relu_5x5_reduce -> inception_4d/5x5_reduce (in-place)
I0403 19:48:22.095755  9695 net.cpp:141] Setting up inception_4d/relu_5x5_reduce
I0403 19:48:22.095780  9695 net.cpp:148] Top shape: 24 32 14 14 (150528)
I0403 19:48:22.095796  9695 net.cpp:156] Memory required for data: 1132858656
I0403 19:48:22.095810  9695 layer_factory.hpp:77] Creating layer inception_4d/5x5
I0403 19:48:22.095832  9695 net.cpp:91] Creating Layer inception_4d/5x5
I0403 19:48:22.095850  9695 net.cpp:425] inception_4d/5x5 <- inception_4d/5x5_reduce
I0403 19:48:22.095871  9695 net.cpp:399] inception_4d/5x5 -> inception_4d/5x5
I0403 19:48:22.097321  9695 net.cpp:141] Setting up inception_4d/5x5
I0403 19:48:22.097350  9695 net.cpp:148] Top shape: 24 64 14 14 (301056)
I0403 19:48:22.097368  9695 net.cpp:156] Memory required for data: 1134062880
I0403 19:48:22.097386  9695 layer_factory.hpp:77] Creating layer inception_4d/relu_5x5
I0403 19:48:22.097436  9695 net.cpp:91] Creating Layer inception_4d/relu_5x5
I0403 19:48:22.097457  9695 net.cpp:425] inception_4d/relu_5x5 <- inception_4d/5x5
I0403 19:48:22.097476  9695 net.cpp:386] inception_4d/relu_5x5 -> inception_4d/5x5 (in-place)
I0403 19:48:22.097777  9695 net.cpp:141] Setting up inception_4d/relu_5x5
I0403 19:48:22.097805  9695 net.cpp:148] Top shape: 24 64 14 14 (301056)
I0403 19:48:22.097820  9695 net.cpp:156] Memory required for data: 1135267104
I0403 19:48:22.097836  9695 layer_factory.hpp:77] Creating layer inception_4d/pool
I0403 19:48:22.097857  9695 net.cpp:91] Creating Layer inception_4d/pool
I0403 19:48:22.097877  9695 net.cpp:425] inception_4d/pool <- inception_4c/output_inception_4c/output_0_split_3
I0403 19:48:22.097895  9695 net.cpp:399] inception_4d/pool -> inception_4d/pool
I0403 19:48:22.097965  9695 net.cpp:141] Setting up inception_4d/pool
I0403 19:48:22.097990  9695 net.cpp:148] Top shape: 24 512 14 14 (2408448)
I0403 19:48:22.098006  9695 net.cpp:156] Memory required for data: 1144900896
I0403 19:48:22.098031  9695 layer_factory.hpp:77] Creating layer inception_4d/pool_proj
I0403 19:48:22.098053  9695 net.cpp:91] Creating Layer inception_4d/pool_proj
I0403 19:48:22.098073  9695 net.cpp:425] inception_4d/pool_proj <- inception_4d/pool
I0403 19:48:22.098095  9695 net.cpp:399] inception_4d/pool_proj -> inception_4d/pool_proj
I0403 19:48:22.099913  9695 net.cpp:141] Setting up inception_4d/pool_proj
I0403 19:48:22.099944  9695 net.cpp:148] Top shape: 24 64 14 14 (301056)
I0403 19:48:22.099961  9695 net.cpp:156] Memory required for data: 1146105120
I0403 19:48:22.099979  9695 layer_factory.hpp:77] Creating layer inception_4d/relu_pool_proj
I0403 19:48:22.099997  9695 net.cpp:91] Creating Layer inception_4d/relu_pool_proj
I0403 19:48:22.100014  9695 net.cpp:425] inception_4d/relu_pool_proj <- inception_4d/pool_proj
I0403 19:48:22.100034  9695 net.cpp:386] inception_4d/relu_pool_proj -> inception_4d/pool_proj (in-place)
I0403 19:48:22.100224  9695 net.cpp:141] Setting up inception_4d/relu_pool_proj
I0403 19:48:22.100249  9695 net.cpp:148] Top shape: 24 64 14 14 (301056)
I0403 19:48:22.100262  9695 net.cpp:156] Memory required for data: 1147309344
I0403 19:48:22.100277  9695 layer_factory.hpp:77] Creating layer inception_4d/output
I0403 19:48:22.100294  9695 net.cpp:91] Creating Layer inception_4d/output
I0403 19:48:22.100309  9695 net.cpp:425] inception_4d/output <- inception_4d/1x1
I0403 19:48:22.100325  9695 net.cpp:425] inception_4d/output <- inception_4d/3x3
I0403 19:48:22.100340  9695 net.cpp:425] inception_4d/output <- inception_4d/5x5
I0403 19:48:22.100356  9695 net.cpp:425] inception_4d/output <- inception_4d/pool_proj
I0403 19:48:22.100374  9695 net.cpp:399] inception_4d/output -> inception_4d/output
I0403 19:48:22.100424  9695 net.cpp:141] Setting up inception_4d/output
I0403 19:48:22.100446  9695 net.cpp:148] Top shape: 24 528 14 14 (2483712)
I0403 19:48:22.100461  9695 net.cpp:156] Memory required for data: 1157244192
I0403 19:48:22.100482  9695 layer_factory.hpp:77] Creating layer inception_4d/output_inception_4d/output_0_split
I0403 19:48:22.100499  9695 net.cpp:91] Creating Layer inception_4d/output_inception_4d/output_0_split
I0403 19:48:22.100514  9695 net.cpp:425] inception_4d/output_inception_4d/output_0_split <- inception_4d/output
I0403 19:48:22.100534  9695 net.cpp:399] inception_4d/output_inception_4d/output_0_split -> inception_4d/output_inception_4d/output_0_split_0
I0403 19:48:22.100556  9695 net.cpp:399] inception_4d/output_inception_4d/output_0_split -> inception_4d/output_inception_4d/output_0_split_1
I0403 19:48:22.100576  9695 net.cpp:399] inception_4d/output_inception_4d/output_0_split -> inception_4d/output_inception_4d/output_0_split_2
I0403 19:48:22.100596  9695 net.cpp:399] inception_4d/output_inception_4d/output_0_split -> inception_4d/output_inception_4d/output_0_split_3
I0403 19:48:22.100615  9695 net.cpp:399] inception_4d/output_inception_4d/output_0_split -> inception_4d/output_inception_4d/output_0_split_4
I0403 19:48:22.100715  9695 net.cpp:141] Setting up inception_4d/output_inception_4d/output_0_split
I0403 19:48:22.100752  9695 net.cpp:148] Top shape: 24 528 14 14 (2483712)
I0403 19:48:22.100770  9695 net.cpp:148] Top shape: 24 528 14 14 (2483712)
I0403 19:48:22.100785  9695 net.cpp:148] Top shape: 24 528 14 14 (2483712)
I0403 19:48:22.100800  9695 net.cpp:148] Top shape: 24 528 14 14 (2483712)
I0403 19:48:22.100816  9695 net.cpp:148] Top shape: 24 528 14 14 (2483712)
I0403 19:48:22.100829  9695 net.cpp:156] Memory required for data: 1206918432
I0403 19:48:22.100843  9695 layer_factory.hpp:77] Creating layer loss2/ave_pool
I0403 19:48:22.100862  9695 net.cpp:91] Creating Layer loss2/ave_pool
I0403 19:48:22.100877  9695 net.cpp:425] loss2/ave_pool <- inception_4d/output_inception_4d/output_0_split_0
I0403 19:48:22.100896  9695 net.cpp:399] loss2/ave_pool -> loss2/ave_pool
I0403 19:48:22.101207  9695 net.cpp:141] Setting up loss2/ave_pool
I0403 19:48:22.101233  9695 net.cpp:148] Top shape: 24 528 4 4 (202752)
I0403 19:48:22.101248  9695 net.cpp:156] Memory required for data: 1207729440
I0403 19:48:22.101263  9695 layer_factory.hpp:77] Creating layer loss2/conv
I0403 19:48:22.101285  9695 net.cpp:91] Creating Layer loss2/conv
I0403 19:48:22.101303  9695 net.cpp:425] loss2/conv <- loss2/ave_pool
I0403 19:48:22.101323  9695 net.cpp:399] loss2/conv -> loss2/conv
I0403 19:48:22.103235  9695 net.cpp:141] Setting up loss2/conv
I0403 19:48:22.103265  9695 net.cpp:148] Top shape: 24 128 4 4 (49152)
I0403 19:48:22.103281  9695 net.cpp:156] Memory required for data: 1207926048
I0403 19:48:22.103298  9695 layer_factory.hpp:77] Creating layer loss2/relu_conv
I0403 19:48:22.103320  9695 net.cpp:91] Creating Layer loss2/relu_conv
I0403 19:48:22.103338  9695 net.cpp:425] loss2/relu_conv <- loss2/conv
I0403 19:48:22.103356  9695 net.cpp:386] loss2/relu_conv -> loss2/conv (in-place)
I0403 19:48:22.103636  9695 net.cpp:141] Setting up loss2/relu_conv
I0403 19:48:22.103662  9695 net.cpp:148] Top shape: 24 128 4 4 (49152)
I0403 19:48:22.103678  9695 net.cpp:156] Memory required for data: 1208122656
I0403 19:48:22.103693  9695 layer_factory.hpp:77] Creating layer loss2/fc
I0403 19:48:22.103714  9695 net.cpp:91] Creating Layer loss2/fc
I0403 19:48:22.103732  9695 net.cpp:425] loss2/fc <- loss2/conv
I0403 19:48:22.103754  9695 net.cpp:399] loss2/fc -> loss2/fc
I0403 19:48:22.120990  9695 net.cpp:141] Setting up loss2/fc
I0403 19:48:22.121024  9695 net.cpp:148] Top shape: 24 1024 (24576)
I0403 19:48:22.121040  9695 net.cpp:156] Memory required for data: 1208220960
I0403 19:48:22.121058  9695 layer_factory.hpp:77] Creating layer loss2/relu_fc
I0403 19:48:22.121076  9695 net.cpp:91] Creating Layer loss2/relu_fc
I0403 19:48:22.121093  9695 net.cpp:425] loss2/relu_fc <- loss2/fc
I0403 19:48:22.121114  9695 net.cpp:386] loss2/relu_fc -> loss2/fc (in-place)
I0403 19:48:22.121413  9695 net.cpp:141] Setting up loss2/relu_fc
I0403 19:48:22.121440  9695 net.cpp:148] Top shape: 24 1024 (24576)
I0403 19:48:22.121455  9695 net.cpp:156] Memory required for data: 1208319264
I0403 19:48:22.121469  9695 layer_factory.hpp:77] Creating layer loss2/drop_fc
I0403 19:48:22.121489  9695 net.cpp:91] Creating Layer loss2/drop_fc
I0403 19:48:22.121505  9695 net.cpp:425] loss2/drop_fc <- loss2/fc
I0403 19:48:22.121525  9695 net.cpp:386] loss2/drop_fc -> loss2/fc (in-place)
I0403 19:48:22.121572  9695 net.cpp:141] Setting up loss2/drop_fc
I0403 19:48:22.121598  9695 net.cpp:148] Top shape: 24 1024 (24576)
I0403 19:48:22.121613  9695 net.cpp:156] Memory required for data: 1208417568
I0403 19:48:22.121628  9695 layer_factory.hpp:77] Creating layer loss2/classifier_plantvillage
I0403 19:48:22.121645  9695 net.cpp:91] Creating Layer loss2/classifier_plantvillage
I0403 19:48:22.121661  9695 net.cpp:425] loss2/classifier_plantvillage <- loss2/fc
I0403 19:48:22.121683  9695 net.cpp:399] loss2/classifier_plantvillage -> loss2/classifier_plantvillage
I0403 19:48:22.122076  9695 net.cpp:141] Setting up loss2/classifier_plantvillage
I0403 19:48:22.122100  9695 net.cpp:148] Top shape: 24 38 (912)
I0403 19:48:22.122133  9695 net.cpp:156] Memory required for data: 1208421216
I0403 19:48:22.122153  9695 layer_factory.hpp:77] Creating layer loss2/classifier_plantvillage_loss2/classifier_plantvillage_0_split
I0403 19:48:22.122172  9695 net.cpp:91] Creating Layer loss2/classifier_plantvillage_loss2/classifier_plantvillage_0_split
I0403 19:48:22.122201  9695 net.cpp:425] loss2/classifier_plantvillage_loss2/classifier_plantvillage_0_split <- loss2/classifier_plantvillage
I0403 19:48:22.122221  9695 net.cpp:399] loss2/classifier_plantvillage_loss2/classifier_plantvillage_0_split -> loss2/classifier_plantvillage_loss2/classifier_plantvillage_0_split_0
I0403 19:48:22.122241  9695 net.cpp:399] loss2/classifier_plantvillage_loss2/classifier_plantvillage_0_split -> loss2/classifier_plantvillage_loss2/classifier_plantvillage_0_split_1
I0403 19:48:22.122264  9695 net.cpp:399] loss2/classifier_plantvillage_loss2/classifier_plantvillage_0_split -> loss2/classifier_plantvillage_loss2/classifier_plantvillage_0_split_2
I0403 19:48:22.122339  9695 net.cpp:141] Setting up loss2/classifier_plantvillage_loss2/classifier_plantvillage_0_split
I0403 19:48:22.122364  9695 net.cpp:148] Top shape: 24 38 (912)
I0403 19:48:22.122380  9695 net.cpp:148] Top shape: 24 38 (912)
I0403 19:48:22.122395  9695 net.cpp:148] Top shape: 24 38 (912)
I0403 19:48:22.122407  9695 net.cpp:156] Memory required for data: 1208432160
I0403 19:48:22.122421  9695 layer_factory.hpp:77] Creating layer inception_4e/1x1
I0403 19:48:22.122443  9695 net.cpp:91] Creating Layer inception_4e/1x1
I0403 19:48:22.122462  9695 net.cpp:425] inception_4e/1x1 <- inception_4d/output_inception_4d/output_0_split_1
I0403 19:48:22.122479  9695 net.cpp:399] inception_4e/1x1 -> inception_4e/1x1
I0403 19:48:22.124259  9695 net.cpp:141] Setting up inception_4e/1x1
I0403 19:48:22.124287  9695 net.cpp:148] Top shape: 24 256 14 14 (1204224)
I0403 19:48:22.124303  9695 net.cpp:156] Memory required for data: 1213249056
I0403 19:48:22.124321  9695 layer_factory.hpp:77] Creating layer inception_4e/relu_1x1
I0403 19:48:22.124341  9695 net.cpp:91] Creating Layer inception_4e/relu_1x1
I0403 19:48:22.124357  9695 net.cpp:425] inception_4e/relu_1x1 <- inception_4e/1x1
I0403 19:48:22.124374  9695 net.cpp:386] inception_4e/relu_1x1 -> inception_4e/1x1 (in-place)
I0403 19:48:22.124662  9695 net.cpp:141] Setting up inception_4e/relu_1x1
I0403 19:48:22.124687  9695 net.cpp:148] Top shape: 24 256 14 14 (1204224)
I0403 19:48:22.124701  9695 net.cpp:156] Memory required for data: 1218065952
I0403 19:48:22.124716  9695 layer_factory.hpp:77] Creating layer inception_4e/3x3_reduce
I0403 19:48:22.124738  9695 net.cpp:91] Creating Layer inception_4e/3x3_reduce
I0403 19:48:22.124755  9695 net.cpp:425] inception_4e/3x3_reduce <- inception_4d/output_inception_4d/output_0_split_2
I0403 19:48:22.124776  9695 net.cpp:399] inception_4e/3x3_reduce -> inception_4e/3x3_reduce
I0403 19:48:22.126840  9695 net.cpp:141] Setting up inception_4e/3x3_reduce
I0403 19:48:22.126869  9695 net.cpp:148] Top shape: 24 160 14 14 (752640)
I0403 19:48:22.126885  9695 net.cpp:156] Memory required for data: 1221076512
I0403 19:48:22.126904  9695 layer_factory.hpp:77] Creating layer inception_4e/relu_3x3_reduce
I0403 19:48:22.126924  9695 net.cpp:91] Creating Layer inception_4e/relu_3x3_reduce
I0403 19:48:22.126940  9695 net.cpp:425] inception_4e/relu_3x3_reduce <- inception_4e/3x3_reduce
I0403 19:48:22.126956  9695 net.cpp:386] inception_4e/relu_3x3_reduce -> inception_4e/3x3_reduce (in-place)
I0403 19:48:22.127138  9695 net.cpp:141] Setting up inception_4e/relu_3x3_reduce
I0403 19:48:22.127166  9695 net.cpp:148] Top shape: 24 160 14 14 (752640)
I0403 19:48:22.127187  9695 net.cpp:156] Memory required for data: 1224087072
I0403 19:48:22.127202  9695 layer_factory.hpp:77] Creating layer inception_4e/3x3
I0403 19:48:22.127224  9695 net.cpp:91] Creating Layer inception_4e/3x3
I0403 19:48:22.127241  9695 net.cpp:425] inception_4e/3x3 <- inception_4e/3x3_reduce
I0403 19:48:22.127260  9695 net.cpp:399] inception_4e/3x3 -> inception_4e/3x3
I0403 19:48:22.132233  9695 net.cpp:141] Setting up inception_4e/3x3
I0403 19:48:22.132277  9695 net.cpp:148] Top shape: 24 320 14 14 (1505280)
I0403 19:48:22.132295  9695 net.cpp:156] Memory required for data: 1230108192
I0403 19:48:22.132313  9695 layer_factory.hpp:77] Creating layer inception_4e/relu_3x3
I0403 19:48:22.132331  9695 net.cpp:91] Creating Layer inception_4e/relu_3x3
I0403 19:48:22.132347  9695 net.cpp:425] inception_4e/relu_3x3 <- inception_4e/3x3
I0403 19:48:22.132364  9695 net.cpp:386] inception_4e/relu_3x3 -> inception_4e/3x3 (in-place)
I0403 19:48:22.132660  9695 net.cpp:141] Setting up inception_4e/relu_3x3
I0403 19:48:22.132686  9695 net.cpp:148] Top shape: 24 320 14 14 (1505280)
I0403 19:48:22.132701  9695 net.cpp:156] Memory required for data: 1236129312
I0403 19:48:22.132716  9695 layer_factory.hpp:77] Creating layer inception_4e/5x5_reduce
I0403 19:48:22.132738  9695 net.cpp:91] Creating Layer inception_4e/5x5_reduce
I0403 19:48:22.132756  9695 net.cpp:425] inception_4e/5x5_reduce <- inception_4d/output_inception_4d/output_0_split_3
I0403 19:48:22.132777  9695 net.cpp:399] inception_4e/5x5_reduce -> inception_4e/5x5_reduce
I0403 19:48:22.133831  9695 net.cpp:141] Setting up inception_4e/5x5_reduce
I0403 19:48:22.133867  9695 net.cpp:148] Top shape: 24 32 14 14 (150528)
I0403 19:48:22.133888  9695 net.cpp:156] Memory required for data: 1236731424
I0403 19:48:22.133914  9695 layer_factory.hpp:77] Creating layer inception_4e/relu_5x5_reduce
I0403 19:48:22.133940  9695 net.cpp:91] Creating Layer inception_4e/relu_5x5_reduce
I0403 19:48:22.133958  9695 net.cpp:425] inception_4e/relu_5x5_reduce <- inception_4e/5x5_reduce
I0403 19:48:22.133976  9695 net.cpp:386] inception_4e/relu_5x5_reduce -> inception_4e/5x5_reduce (in-place)
I0403 19:48:22.134287  9695 net.cpp:141] Setting up inception_4e/relu_5x5_reduce
I0403 19:48:22.134313  9695 net.cpp:148] Top shape: 24 32 14 14 (150528)
I0403 19:48:22.134328  9695 net.cpp:156] Memory required for data: 1237333536
I0403 19:48:22.134343  9695 layer_factory.hpp:77] Creating layer inception_4e/5x5
I0403 19:48:22.134385  9695 net.cpp:91] Creating Layer inception_4e/5x5
I0403 19:48:22.134405  9695 net.cpp:425] inception_4e/5x5 <- inception_4e/5x5_reduce
I0403 19:48:22.134424  9695 net.cpp:399] inception_4e/5x5 -> inception_4e/5x5
I0403 19:48:22.136320  9695 net.cpp:141] Setting up inception_4e/5x5
I0403 19:48:22.136348  9695 net.cpp:148] Top shape: 24 128 14 14 (602112)
I0403 19:48:22.136364  9695 net.cpp:156] Memory required for data: 1239741984
I0403 19:48:22.136384  9695 layer_factory.hpp:77] Creating layer inception_4e/relu_5x5
I0403 19:48:22.136404  9695 net.cpp:91] Creating Layer inception_4e/relu_5x5
I0403 19:48:22.136421  9695 net.cpp:425] inception_4e/relu_5x5 <- inception_4e/5x5
I0403 19:48:22.136438  9695 net.cpp:386] inception_4e/relu_5x5 -> inception_4e/5x5 (in-place)
I0403 19:48:22.136638  9695 net.cpp:141] Setting up inception_4e/relu_5x5
I0403 19:48:22.136663  9695 net.cpp:148] Top shape: 24 128 14 14 (602112)
I0403 19:48:22.136678  9695 net.cpp:156] Memory required for data: 1242150432
I0403 19:48:22.136693  9695 layer_factory.hpp:77] Creating layer inception_4e/pool
I0403 19:48:22.136713  9695 net.cpp:91] Creating Layer inception_4e/pool
I0403 19:48:22.136731  9695 net.cpp:425] inception_4e/pool <- inception_4d/output_inception_4d/output_0_split_4
I0403 19:48:22.136749  9695 net.cpp:399] inception_4e/pool -> inception_4e/pool
I0403 19:48:22.136821  9695 net.cpp:141] Setting up inception_4e/pool
I0403 19:48:22.136844  9695 net.cpp:148] Top shape: 24 528 14 14 (2483712)
I0403 19:48:22.136859  9695 net.cpp:156] Memory required for data: 1252085280
I0403 19:48:22.136873  9695 layer_factory.hpp:77] Creating layer inception_4e/pool_proj
I0403 19:48:22.136896  9695 net.cpp:91] Creating Layer inception_4e/pool_proj
I0403 19:48:22.136914  9695 net.cpp:425] inception_4e/pool_proj <- inception_4e/pool
I0403 19:48:22.136934  9695 net.cpp:399] inception_4e/pool_proj -> inception_4e/pool_proj
I0403 19:48:22.138499  9695 net.cpp:141] Setting up inception_4e/pool_proj
I0403 19:48:22.138538  9695 net.cpp:148] Top shape: 24 128 14 14 (602112)
I0403 19:48:22.138556  9695 net.cpp:156] Memory required for data: 1254493728
I0403 19:48:22.138574  9695 layer_factory.hpp:77] Creating layer inception_4e/relu_pool_proj
I0403 19:48:22.138592  9695 net.cpp:91] Creating Layer inception_4e/relu_pool_proj
I0403 19:48:22.138608  9695 net.cpp:425] inception_4e/relu_pool_proj <- inception_4e/pool_proj
I0403 19:48:22.138628  9695 net.cpp:386] inception_4e/relu_pool_proj -> inception_4e/pool_proj (in-place)
I0403 19:48:22.138923  9695 net.cpp:141] Setting up inception_4e/relu_pool_proj
I0403 19:48:22.138950  9695 net.cpp:148] Top shape: 24 128 14 14 (602112)
I0403 19:48:22.138965  9695 net.cpp:156] Memory required for data: 1256902176
I0403 19:48:22.138980  9695 layer_factory.hpp:77] Creating layer inception_4e/output
I0403 19:48:22.138998  9695 net.cpp:91] Creating Layer inception_4e/output
I0403 19:48:22.139014  9695 net.cpp:425] inception_4e/output <- inception_4e/1x1
I0403 19:48:22.139030  9695 net.cpp:425] inception_4e/output <- inception_4e/3x3
I0403 19:48:22.139046  9695 net.cpp:425] inception_4e/output <- inception_4e/5x5
I0403 19:48:22.139063  9695 net.cpp:425] inception_4e/output <- inception_4e/pool_proj
I0403 19:48:22.139082  9695 net.cpp:399] inception_4e/output -> inception_4e/output
I0403 19:48:22.139132  9695 net.cpp:141] Setting up inception_4e/output
I0403 19:48:22.139154  9695 net.cpp:148] Top shape: 24 832 14 14 (3913728)
I0403 19:48:22.139169  9695 net.cpp:156] Memory required for data: 1272557088
I0403 19:48:22.139194  9695 layer_factory.hpp:77] Creating layer pool4/3x3_s2
I0403 19:48:22.139214  9695 net.cpp:91] Creating Layer pool4/3x3_s2
I0403 19:48:22.139232  9695 net.cpp:425] pool4/3x3_s2 <- inception_4e/output
I0403 19:48:22.139266  9695 net.cpp:399] pool4/3x3_s2 -> pool4/3x3_s2
I0403 19:48:22.139334  9695 net.cpp:141] Setting up pool4/3x3_s2
I0403 19:48:22.139359  9695 net.cpp:148] Top shape: 24 832 7 7 (978432)
I0403 19:48:22.139374  9695 net.cpp:156] Memory required for data: 1276470816
I0403 19:48:22.139389  9695 layer_factory.hpp:77] Creating layer pool4/3x3_s2_pool4/3x3_s2_0_split
I0403 19:48:22.139410  9695 net.cpp:91] Creating Layer pool4/3x3_s2_pool4/3x3_s2_0_split
I0403 19:48:22.139426  9695 net.cpp:425] pool4/3x3_s2_pool4/3x3_s2_0_split <- pool4/3x3_s2
I0403 19:48:22.139444  9695 net.cpp:399] pool4/3x3_s2_pool4/3x3_s2_0_split -> pool4/3x3_s2_pool4/3x3_s2_0_split_0
I0403 19:48:22.139464  9695 net.cpp:399] pool4/3x3_s2_pool4/3x3_s2_0_split -> pool4/3x3_s2_pool4/3x3_s2_0_split_1
I0403 19:48:22.139485  9695 net.cpp:399] pool4/3x3_s2_pool4/3x3_s2_0_split -> pool4/3x3_s2_pool4/3x3_s2_0_split_2
I0403 19:48:22.139505  9695 net.cpp:399] pool4/3x3_s2_pool4/3x3_s2_0_split -> pool4/3x3_s2_pool4/3x3_s2_0_split_3
I0403 19:48:22.139610  9695 net.cpp:141] Setting up pool4/3x3_s2_pool4/3x3_s2_0_split
I0403 19:48:22.139632  9695 net.cpp:148] Top shape: 24 832 7 7 (978432)
I0403 19:48:22.139648  9695 net.cpp:148] Top shape: 24 832 7 7 (978432)
I0403 19:48:22.139664  9695 net.cpp:148] Top shape: 24 832 7 7 (978432)
I0403 19:48:22.139680  9695 net.cpp:148] Top shape: 24 832 7 7 (978432)
I0403 19:48:22.139693  9695 net.cpp:156] Memory required for data: 1292125728
I0403 19:48:22.139708  9695 layer_factory.hpp:77] Creating layer inception_5a/1x1
I0403 19:48:22.139730  9695 net.cpp:91] Creating Layer inception_5a/1x1
I0403 19:48:22.139749  9695 net.cpp:425] inception_5a/1x1 <- pool4/3x3_s2_pool4/3x3_s2_0_split_0
I0403 19:48:22.139770  9695 net.cpp:399] inception_5a/1x1 -> inception_5a/1x1
I0403 19:48:22.142642  9695 net.cpp:141] Setting up inception_5a/1x1
I0403 19:48:22.142673  9695 net.cpp:148] Top shape: 24 256 7 7 (301056)
I0403 19:48:22.142690  9695 net.cpp:156] Memory required for data: 1293329952
I0403 19:48:22.142710  9695 layer_factory.hpp:77] Creating layer inception_5a/relu_1x1
I0403 19:48:22.142730  9695 net.cpp:91] Creating Layer inception_5a/relu_1x1
I0403 19:48:22.142750  9695 net.cpp:425] inception_5a/relu_1x1 <- inception_5a/1x1
I0403 19:48:22.142768  9695 net.cpp:386] inception_5a/relu_1x1 -> inception_5a/1x1 (in-place)
I0403 19:48:22.143082  9695 net.cpp:141] Setting up inception_5a/relu_1x1
I0403 19:48:22.143110  9695 net.cpp:148] Top shape: 24 256 7 7 (301056)
I0403 19:48:22.143126  9695 net.cpp:156] Memory required for data: 1294534176
I0403 19:48:22.143141  9695 layer_factory.hpp:77] Creating layer inception_5a/3x3_reduce
I0403 19:48:22.143163  9695 net.cpp:91] Creating Layer inception_5a/3x3_reduce
I0403 19:48:22.143187  9695 net.cpp:425] inception_5a/3x3_reduce <- pool4/3x3_s2_pool4/3x3_s2_0_split_1
I0403 19:48:22.143213  9695 net.cpp:399] inception_5a/3x3_reduce -> inception_5a/3x3_reduce
I0403 19:48:22.145707  9695 net.cpp:141] Setting up inception_5a/3x3_reduce
I0403 19:48:22.145742  9695 net.cpp:148] Top shape: 24 160 7 7 (188160)
I0403 19:48:22.145761  9695 net.cpp:156] Memory required for data: 1295286816
I0403 19:48:22.145781  9695 layer_factory.hpp:77] Creating layer inception_5a/relu_3x3_reduce
I0403 19:48:22.145799  9695 net.cpp:91] Creating Layer inception_5a/relu_3x3_reduce
I0403 19:48:22.145815  9695 net.cpp:425] inception_5a/relu_3x3_reduce <- inception_5a/3x3_reduce
I0403 19:48:22.145836  9695 net.cpp:386] inception_5a/relu_3x3_reduce -> inception_5a/3x3_reduce (in-place)
I0403 19:48:22.146026  9695 net.cpp:141] Setting up inception_5a/relu_3x3_reduce
I0403 19:48:22.146052  9695 net.cpp:148] Top shape: 24 160 7 7 (188160)
I0403 19:48:22.146069  9695 net.cpp:156] Memory required for data: 1296039456
I0403 19:48:22.146083  9695 layer_factory.hpp:77] Creating layer inception_5a/3x3
I0403 19:48:22.146106  9695 net.cpp:91] Creating Layer inception_5a/3x3
I0403 19:48:22.146126  9695 net.cpp:425] inception_5a/3x3 <- inception_5a/3x3_reduce
I0403 19:48:22.146149  9695 net.cpp:399] inception_5a/3x3 -> inception_5a/3x3
I0403 19:48:22.151242  9695 net.cpp:141] Setting up inception_5a/3x3
I0403 19:48:22.151288  9695 net.cpp:148] Top shape: 24 320 7 7 (376320)
I0403 19:48:22.151305  9695 net.cpp:156] Memory required for data: 1297544736
I0403 19:48:22.151324  9695 layer_factory.hpp:77] Creating layer inception_5a/relu_3x3
I0403 19:48:22.151348  9695 net.cpp:91] Creating Layer inception_5a/relu_3x3
I0403 19:48:22.151368  9695 net.cpp:425] inception_5a/relu_3x3 <- inception_5a/3x3
I0403 19:48:22.151387  9695 net.cpp:386] inception_5a/relu_3x3 -> inception_5a/3x3 (in-place)
I0403 19:48:22.151701  9695 net.cpp:141] Setting up inception_5a/relu_3x3
I0403 19:48:22.151728  9695 net.cpp:148] Top shape: 24 320 7 7 (376320)
I0403 19:48:22.151743  9695 net.cpp:156] Memory required for data: 1299050016
I0403 19:48:22.151759  9695 layer_factory.hpp:77] Creating layer inception_5a/5x5_reduce
I0403 19:48:22.151783  9695 net.cpp:91] Creating Layer inception_5a/5x5_reduce
I0403 19:48:22.151801  9695 net.cpp:425] inception_5a/5x5_reduce <- pool4/3x3_s2_pool4/3x3_s2_0_split_2
I0403 19:48:22.151824  9695 net.cpp:399] inception_5a/5x5_reduce -> inception_5a/5x5_reduce
I0403 19:48:22.153024  9695 net.cpp:141] Setting up inception_5a/5x5_reduce
I0403 19:48:22.153054  9695 net.cpp:148] Top shape: 24 32 7 7 (37632)
I0403 19:48:22.153074  9695 net.cpp:156] Memory required for data: 1299200544
I0403 19:48:22.153093  9695 layer_factory.hpp:77] Creating layer inception_5a/relu_5x5_reduce
I0403 19:48:22.153115  9695 net.cpp:91] Creating Layer inception_5a/relu_5x5_reduce
I0403 19:48:22.153133  9695 net.cpp:425] inception_5a/relu_5x5_reduce <- inception_5a/5x5_reduce
I0403 19:48:22.153151  9695 net.cpp:386] inception_5a/relu_5x5_reduce -> inception_5a/5x5_reduce (in-place)
I0403 19:48:22.153462  9695 net.cpp:141] Setting up inception_5a/relu_5x5_reduce
I0403 19:48:22.153489  9695 net.cpp:148] Top shape: 24 32 7 7 (37632)
I0403 19:48:22.153504  9695 net.cpp:156] Memory required for data: 1299351072
I0403 19:48:22.153520  9695 layer_factory.hpp:77] Creating layer inception_5a/5x5
I0403 19:48:22.153543  9695 net.cpp:91] Creating Layer inception_5a/5x5
I0403 19:48:22.153563  9695 net.cpp:425] inception_5a/5x5 <- inception_5a/5x5_reduce
I0403 19:48:22.153584  9695 net.cpp:399] inception_5a/5x5 -> inception_5a/5x5
I0403 19:48:22.155333  9695 net.cpp:141] Setting up inception_5a/5x5
I0403 19:48:22.155375  9695 net.cpp:148] Top shape: 24 128 7 7 (150528)
I0403 19:48:22.155392  9695 net.cpp:156] Memory required for data: 1299953184
I0403 19:48:22.155412  9695 layer_factory.hpp:77] Creating layer inception_5a/relu_5x5
I0403 19:48:22.155436  9695 net.cpp:91] Creating Layer inception_5a/relu_5x5
I0403 19:48:22.155454  9695 net.cpp:425] inception_5a/relu_5x5 <- inception_5a/5x5
I0403 19:48:22.155473  9695 net.cpp:386] inception_5a/relu_5x5 -> inception_5a/5x5 (in-place)
I0403 19:48:22.155679  9695 net.cpp:141] Setting up inception_5a/relu_5x5
I0403 19:48:22.155704  9695 net.cpp:148] Top shape: 24 128 7 7 (150528)
I0403 19:48:22.155719  9695 net.cpp:156] Memory required for data: 1300555296
I0403 19:48:22.155735  9695 layer_factory.hpp:77] Creating layer inception_5a/pool
I0403 19:48:22.155755  9695 net.cpp:91] Creating Layer inception_5a/pool
I0403 19:48:22.155772  9695 net.cpp:425] inception_5a/pool <- pool4/3x3_s2_pool4/3x3_s2_0_split_3
I0403 19:48:22.155791  9695 net.cpp:399] inception_5a/pool -> inception_5a/pool
I0403 19:48:22.155864  9695 net.cpp:141] Setting up inception_5a/pool
I0403 19:48:22.155887  9695 net.cpp:148] Top shape: 24 832 7 7 (978432)
I0403 19:48:22.155902  9695 net.cpp:156] Memory required for data: 1304469024
I0403 19:48:22.155916  9695 layer_factory.hpp:77] Creating layer inception_5a/pool_proj
I0403 19:48:22.155939  9695 net.cpp:91] Creating Layer inception_5a/pool_proj
I0403 19:48:22.155957  9695 net.cpp:425] inception_5a/pool_proj <- inception_5a/pool
I0403 19:48:22.155978  9695 net.cpp:399] inception_5a/pool_proj -> inception_5a/pool_proj
I0403 19:48:22.158274  9695 net.cpp:141] Setting up inception_5a/pool_proj
I0403 19:48:22.158305  9695 net.cpp:148] Top shape: 24 128 7 7 (150528)
I0403 19:48:22.158323  9695 net.cpp:156] Memory required for data: 1305071136
I0403 19:48:22.158342  9695 layer_factory.hpp:77] Creating layer inception_5a/relu_pool_proj
I0403 19:48:22.158360  9695 net.cpp:91] Creating Layer inception_5a/relu_pool_proj
I0403 19:48:22.158378  9695 net.cpp:425] inception_5a/relu_pool_proj <- inception_5a/pool_proj
I0403 19:48:22.158399  9695 net.cpp:386] inception_5a/relu_pool_proj -> inception_5a/pool_proj (in-place)
I0403 19:48:22.158696  9695 net.cpp:141] Setting up inception_5a/relu_pool_proj
I0403 19:48:22.158725  9695 net.cpp:148] Top shape: 24 128 7 7 (150528)
I0403 19:48:22.158740  9695 net.cpp:156] Memory required for data: 1305673248
I0403 19:48:22.158754  9695 layer_factory.hpp:77] Creating layer inception_5a/output
I0403 19:48:22.158773  9695 net.cpp:91] Creating Layer inception_5a/output
I0403 19:48:22.158790  9695 net.cpp:425] inception_5a/output <- inception_5a/1x1
I0403 19:48:22.158807  9695 net.cpp:425] inception_5a/output <- inception_5a/3x3
I0403 19:48:22.158823  9695 net.cpp:425] inception_5a/output <- inception_5a/5x5
I0403 19:48:22.158839  9695 net.cpp:425] inception_5a/output <- inception_5a/pool_proj
I0403 19:48:22.158862  9695 net.cpp:399] inception_5a/output -> inception_5a/output
I0403 19:48:22.158912  9695 net.cpp:141] Setting up inception_5a/output
I0403 19:48:22.158938  9695 net.cpp:148] Top shape: 24 832 7 7 (978432)
I0403 19:48:22.158953  9695 net.cpp:156] Memory required for data: 1309586976
I0403 19:48:22.158968  9695 layer_factory.hpp:77] Creating layer inception_5a/output_inception_5a/output_0_split
I0403 19:48:22.158985  9695 net.cpp:91] Creating Layer inception_5a/output_inception_5a/output_0_split
I0403 19:48:22.159001  9695 net.cpp:425] inception_5a/output_inception_5a/output_0_split <- inception_5a/output
I0403 19:48:22.159018  9695 net.cpp:399] inception_5a/output_inception_5a/output_0_split -> inception_5a/output_inception_5a/output_0_split_0
I0403 19:48:22.159039  9695 net.cpp:399] inception_5a/output_inception_5a/output_0_split -> inception_5a/output_inception_5a/output_0_split_1
I0403 19:48:22.159061  9695 net.cpp:399] inception_5a/output_inception_5a/output_0_split -> inception_5a/output_inception_5a/output_0_split_2
I0403 19:48:22.159083  9695 net.cpp:399] inception_5a/output_inception_5a/output_0_split -> inception_5a/output_inception_5a/output_0_split_3
I0403 19:48:22.159206  9695 net.cpp:141] Setting up inception_5a/output_inception_5a/output_0_split
I0403 19:48:22.159231  9695 net.cpp:148] Top shape: 24 832 7 7 (978432)
I0403 19:48:22.159260  9695 net.cpp:148] Top shape: 24 832 7 7 (978432)
I0403 19:48:22.159276  9695 net.cpp:148] Top shape: 24 832 7 7 (978432)
I0403 19:48:22.159292  9695 net.cpp:148] Top shape: 24 832 7 7 (978432)
I0403 19:48:22.159307  9695 net.cpp:156] Memory required for data: 1325241888
I0403 19:48:22.159320  9695 layer_factory.hpp:77] Creating layer inception_5b/1x1
I0403 19:48:22.159343  9695 net.cpp:91] Creating Layer inception_5b/1x1
I0403 19:48:22.159363  9695 net.cpp:425] inception_5b/1x1 <- inception_5a/output_inception_5a/output_0_split_0
I0403 19:48:22.159384  9695 net.cpp:399] inception_5b/1x1 -> inception_5b/1x1
I0403 19:48:22.163182  9695 net.cpp:141] Setting up inception_5b/1x1
I0403 19:48:22.163215  9695 net.cpp:148] Top shape: 24 384 7 7 (451584)
I0403 19:48:22.163234  9695 net.cpp:156] Memory required for data: 1327048224
I0403 19:48:22.163267  9695 layer_factory.hpp:77] Creating layer inception_5b/relu_1x1
I0403 19:48:22.163286  9695 net.cpp:91] Creating Layer inception_5b/relu_1x1
I0403 19:48:22.163305  9695 net.cpp:425] inception_5b/relu_1x1 <- inception_5b/1x1
I0403 19:48:22.163326  9695 net.cpp:386] inception_5b/relu_1x1 -> inception_5b/1x1 (in-place)
I0403 19:48:22.163647  9695 net.cpp:141] Setting up inception_5b/relu_1x1
I0403 19:48:22.163677  9695 net.cpp:148] Top shape: 24 384 7 7 (451584)
I0403 19:48:22.163694  9695 net.cpp:156] Memory required for data: 1328854560
I0403 19:48:22.163710  9695 layer_factory.hpp:77] Creating layer inception_5b/3x3_reduce
I0403 19:48:22.163733  9695 net.cpp:91] Creating Layer inception_5b/3x3_reduce
I0403 19:48:22.163753  9695 net.cpp:425] inception_5b/3x3_reduce <- inception_5a/output_inception_5a/output_0_split_1
I0403 19:48:22.163774  9695 net.cpp:399] inception_5b/3x3_reduce -> inception_5b/3x3_reduce
I0403 19:48:22.166507  9695 net.cpp:141] Setting up inception_5b/3x3_reduce
I0403 19:48:22.166537  9695 net.cpp:148] Top shape: 24 192 7 7 (225792)
I0403 19:48:22.166553  9695 net.cpp:156] Memory required for data: 1329757728
I0403 19:48:22.166574  9695 layer_factory.hpp:77] Creating layer inception_5b/relu_3x3_reduce
I0403 19:48:22.166592  9695 net.cpp:91] Creating Layer inception_5b/relu_3x3_reduce
I0403 19:48:22.166610  9695 net.cpp:425] inception_5b/relu_3x3_reduce <- inception_5b/3x3_reduce
I0403 19:48:22.166628  9695 net.cpp:386] inception_5b/relu_3x3_reduce -> inception_5b/3x3_reduce (in-place)
I0403 19:48:22.166821  9695 net.cpp:141] Setting up inception_5b/relu_3x3_reduce
I0403 19:48:22.166848  9695 net.cpp:148] Top shape: 24 192 7 7 (225792)
I0403 19:48:22.166864  9695 net.cpp:156] Memory required for data: 1330660896
I0403 19:48:22.166880  9695 layer_factory.hpp:77] Creating layer inception_5b/3x3
I0403 19:48:22.166903  9695 net.cpp:91] Creating Layer inception_5b/3x3
I0403 19:48:22.166920  9695 net.cpp:425] inception_5b/3x3 <- inception_5b/3x3_reduce
I0403 19:48:22.166942  9695 net.cpp:399] inception_5b/3x3 -> inception_5b/3x3
I0403 19:48:22.173806  9695 net.cpp:141] Setting up inception_5b/3x3
I0403 19:48:22.173838  9695 net.cpp:148] Top shape: 24 384 7 7 (451584)
I0403 19:48:22.173854  9695 net.cpp:156] Memory required for data: 1332467232
I0403 19:48:22.173873  9695 layer_factory.hpp:77] Creating layer inception_5b/relu_3x3
I0403 19:48:22.173892  9695 net.cpp:91] Creating Layer inception_5b/relu_3x3
I0403 19:48:22.173909  9695 net.cpp:425] inception_5b/relu_3x3 <- inception_5b/3x3
I0403 19:48:22.173929  9695 net.cpp:386] inception_5b/relu_3x3 -> inception_5b/3x3 (in-place)
I0403 19:48:22.174237  9695 net.cpp:141] Setting up inception_5b/relu_3x3
I0403 19:48:22.174264  9695 net.cpp:148] Top shape: 24 384 7 7 (451584)
I0403 19:48:22.174279  9695 net.cpp:156] Memory required for data: 1334273568
I0403 19:48:22.174294  9695 layer_factory.hpp:77] Creating layer inception_5b/5x5_reduce
I0403 19:48:22.174335  9695 net.cpp:91] Creating Layer inception_5b/5x5_reduce
I0403 19:48:22.174355  9695 net.cpp:425] inception_5b/5x5_reduce <- inception_5a/output_inception_5a/output_0_split_2
I0403 19:48:22.174377  9695 net.cpp:399] inception_5b/5x5_reduce -> inception_5b/5x5_reduce
I0403 19:48:22.175657  9695 net.cpp:141] Setting up inception_5b/5x5_reduce
I0403 19:48:22.175685  9695 net.cpp:148] Top shape: 24 48 7 7 (56448)
I0403 19:48:22.175701  9695 net.cpp:156] Memory required for data: 1334499360
I0403 19:48:22.175740  9695 layer_factory.hpp:77] Creating layer inception_5b/relu_5x5_reduce
I0403 19:48:22.175757  9695 net.cpp:91] Creating Layer inception_5b/relu_5x5_reduce
I0403 19:48:22.175776  9695 net.cpp:425] inception_5b/relu_5x5_reduce <- inception_5b/5x5_reduce
I0403 19:48:22.175797  9695 net.cpp:386] inception_5b/relu_5x5_reduce -> inception_5b/5x5_reduce (in-place)
I0403 19:48:22.176172  9695 net.cpp:141] Setting up inception_5b/relu_5x5_reduce
I0403 19:48:22.176204  9695 net.cpp:148] Top shape: 24 48 7 7 (56448)
I0403 19:48:22.176219  9695 net.cpp:156] Memory required for data: 1334725152
I0403 19:48:22.176234  9695 layer_factory.hpp:77] Creating layer inception_5b/5x5
I0403 19:48:22.176255  9695 net.cpp:91] Creating Layer inception_5b/5x5
I0403 19:48:22.176273  9695 net.cpp:425] inception_5b/5x5 <- inception_5b/5x5_reduce
I0403 19:48:22.176292  9695 net.cpp:399] inception_5b/5x5 -> inception_5b/5x5
I0403 19:48:22.178369  9695 net.cpp:141] Setting up inception_5b/5x5
I0403 19:48:22.178398  9695 net.cpp:148] Top shape: 24 128 7 7 (150528)
I0403 19:48:22.178414  9695 net.cpp:156] Memory required for data: 1335327264
I0403 19:48:22.178433  9695 layer_factory.hpp:77] Creating layer inception_5b/relu_5x5
I0403 19:48:22.178453  9695 net.cpp:91] Creating Layer inception_5b/relu_5x5
I0403 19:48:22.178472  9695 net.cpp:425] inception_5b/relu_5x5 <- inception_5b/5x5
I0403 19:48:22.178489  9695 net.cpp:386] inception_5b/relu_5x5 -> inception_5b/5x5 (in-place)
I0403 19:48:22.178681  9695 net.cpp:141] Setting up inception_5b/relu_5x5
I0403 19:48:22.178705  9695 net.cpp:148] Top shape: 24 128 7 7 (150528)
I0403 19:48:22.178722  9695 net.cpp:156] Memory required for data: 1335929376
I0403 19:48:22.178736  9695 layer_factory.hpp:77] Creating layer inception_5b/pool
I0403 19:48:22.178753  9695 net.cpp:91] Creating Layer inception_5b/pool
I0403 19:48:22.178769  9695 net.cpp:425] inception_5b/pool <- inception_5a/output_inception_5a/output_0_split_3
I0403 19:48:22.178788  9695 net.cpp:399] inception_5b/pool -> inception_5b/pool
I0403 19:48:22.178863  9695 net.cpp:141] Setting up inception_5b/pool
I0403 19:48:22.178885  9695 net.cpp:148] Top shape: 24 832 7 7 (978432)
I0403 19:48:22.178900  9695 net.cpp:156] Memory required for data: 1339843104
I0403 19:48:22.178913  9695 layer_factory.hpp:77] Creating layer inception_5b/pool_proj
I0403 19:48:22.178938  9695 net.cpp:91] Creating Layer inception_5b/pool_proj
I0403 19:48:22.178956  9695 net.cpp:425] inception_5b/pool_proj <- inception_5b/pool
I0403 19:48:22.178977  9695 net.cpp:399] inception_5b/pool_proj -> inception_5b/pool_proj
I0403 19:48:22.181241  9695 net.cpp:141] Setting up inception_5b/pool_proj
I0403 19:48:22.181270  9695 net.cpp:148] Top shape: 24 128 7 7 (150528)
I0403 19:48:22.181287  9695 net.cpp:156] Memory required for data: 1340445216
I0403 19:48:22.181306  9695 layer_factory.hpp:77] Creating layer inception_5b/relu_pool_proj
I0403 19:48:22.181324  9695 net.cpp:91] Creating Layer inception_5b/relu_pool_proj
I0403 19:48:22.181344  9695 net.cpp:425] inception_5b/relu_pool_proj <- inception_5b/pool_proj
I0403 19:48:22.181361  9695 net.cpp:386] inception_5b/relu_pool_proj -> inception_5b/pool_proj (in-place)
I0403 19:48:22.181653  9695 net.cpp:141] Setting up inception_5b/relu_pool_proj
I0403 19:48:22.181679  9695 net.cpp:148] Top shape: 24 128 7 7 (150528)
I0403 19:48:22.181694  9695 net.cpp:156] Memory required for data: 1341047328
I0403 19:48:22.181709  9695 layer_factory.hpp:77] Creating layer inception_5b/output
I0403 19:48:22.181725  9695 net.cpp:91] Creating Layer inception_5b/output
I0403 19:48:22.181757  9695 net.cpp:425] inception_5b/output <- inception_5b/1x1
I0403 19:48:22.181774  9695 net.cpp:425] inception_5b/output <- inception_5b/3x3
I0403 19:48:22.181792  9695 net.cpp:425] inception_5b/output <- inception_5b/5x5
I0403 19:48:22.181807  9695 net.cpp:425] inception_5b/output <- inception_5b/pool_proj
I0403 19:48:22.181828  9695 net.cpp:399] inception_5b/output -> inception_5b/output
I0403 19:48:22.181879  9695 net.cpp:141] Setting up inception_5b/output
I0403 19:48:22.181903  9695 net.cpp:148] Top shape: 24 1024 7 7 (1204224)
I0403 19:48:22.181918  9695 net.cpp:156] Memory required for data: 1345864224
I0403 19:48:22.181933  9695 layer_factory.hpp:77] Creating layer pool5/7x7_s1
I0403 19:48:22.181951  9695 net.cpp:91] Creating Layer pool5/7x7_s1
I0403 19:48:22.181967  9695 net.cpp:425] pool5/7x7_s1 <- inception_5b/output
I0403 19:48:22.181988  9695 net.cpp:399] pool5/7x7_s1 -> pool5/7x7_s1
I0403 19:48:22.182210  9695 net.cpp:141] Setting up pool5/7x7_s1
I0403 19:48:22.182237  9695 net.cpp:148] Top shape: 24 1024 1 1 (24576)
I0403 19:48:22.182252  9695 net.cpp:156] Memory required for data: 1345962528
I0403 19:48:22.182266  9695 layer_factory.hpp:77] Creating layer pool5/drop_7x7_s1
I0403 19:48:22.182284  9695 net.cpp:91] Creating Layer pool5/drop_7x7_s1
I0403 19:48:22.182301  9695 net.cpp:425] pool5/drop_7x7_s1 <- pool5/7x7_s1
I0403 19:48:22.182319  9695 net.cpp:386] pool5/drop_7x7_s1 -> pool5/7x7_s1 (in-place)
I0403 19:48:22.182368  9695 net.cpp:141] Setting up pool5/drop_7x7_s1
I0403 19:48:22.182394  9695 net.cpp:148] Top shape: 24 1024 1 1 (24576)
I0403 19:48:22.182409  9695 net.cpp:156] Memory required for data: 1346060832
I0403 19:48:22.182422  9695 layer_factory.hpp:77] Creating layer loss3/classifier_plantvillage
I0403 19:48:22.182441  9695 net.cpp:91] Creating Layer loss3/classifier_plantvillage
I0403 19:48:22.182457  9695 net.cpp:425] loss3/classifier_plantvillage <- pool5/7x7_s1
I0403 19:48:22.182477  9695 net.cpp:399] loss3/classifier_plantvillage -> loss3/classifier_plantvillage
I0403 19:48:22.182890  9695 net.cpp:141] Setting up loss3/classifier_plantvillage
I0403 19:48:22.182916  9695 net.cpp:148] Top shape: 24 38 (912)
I0403 19:48:22.182930  9695 net.cpp:156] Memory required for data: 1346064480
I0403 19:48:22.182948  9695 layer_factory.hpp:77] Creating layer loss3/classifier_plantvillage_loss3/classifier_plantvillage_0_split
I0403 19:48:22.182966  9695 net.cpp:91] Creating Layer loss3/classifier_plantvillage_loss3/classifier_plantvillage_0_split
I0403 19:48:22.182982  9695 net.cpp:425] loss3/classifier_plantvillage_loss3/classifier_plantvillage_0_split <- loss3/classifier_plantvillage
I0403 19:48:22.182999  9695 net.cpp:399] loss3/classifier_plantvillage_loss3/classifier_plantvillage_0_split -> loss3/classifier_plantvillage_loss3/classifier_plantvillage_0_split_0
I0403 19:48:22.183018  9695 net.cpp:399] loss3/classifier_plantvillage_loss3/classifier_plantvillage_0_split -> loss3/classifier_plantvillage_loss3/classifier_plantvillage_0_split_1
I0403 19:48:22.183040  9695 net.cpp:399] loss3/classifier_plantvillage_loss3/classifier_plantvillage_0_split -> loss3/classifier_plantvillage_loss3/classifier_plantvillage_0_split_2
I0403 19:48:22.183061  9695 net.cpp:399] loss3/classifier_plantvillage_loss3/classifier_plantvillage_0_split -> loss3/classifier_plantvillage_loss3/classifier_plantvillage_0_split_3
I0403 19:48:22.183163  9695 net.cpp:141] Setting up loss3/classifier_plantvillage_loss3/classifier_plantvillage_0_split
I0403 19:48:22.183204  9695 net.cpp:148] Top shape: 24 38 (912)
I0403 19:48:22.183221  9695 net.cpp:148] Top shape: 24 38 (912)
I0403 19:48:22.183238  9695 net.cpp:148] Top shape: 24 38 (912)
I0403 19:48:22.183253  9695 net.cpp:148] Top shape: 24 38 (912)
I0403 19:48:22.183266  9695 net.cpp:156] Memory required for data: 1346079072
I0403 19:48:22.183281  9695 layer_factory.hpp:77] Creating layer loss1/loss
I0403 19:48:22.183305  9695 net.cpp:91] Creating Layer loss1/loss
I0403 19:48:22.183323  9695 net.cpp:425] loss1/loss <- loss1/classifier_plantvillage_loss1/classifier_plantvillage_0_split_0
I0403 19:48:22.183354  9695 net.cpp:425] loss1/loss <- label_data_1_split_0
…
