…
I0403 19:42:58.963027  9581 net.cpp:313] The NetState phase (1) differed from the phase (0) specified by a rule in layer data
I0403 19:42:58.964342  9581 net.cpp:49] Initializing net from parameters: 
state {
  phase: TEST
}
layer {
  name: "data"
  type: "Data"
  top: "data"
  top: "label"
  include {
    phase: TEST
  }
  transform_param {
    mirror: false
    crop_size: 224
    mean_file: "/home/mohanty/data/final_dataset/lmdb/grayscale-50-50/mean.binaryproto"
  }
  data_param {
    source: "/home/mohanty/data/final_dataset/lmdb/grayscale-50-50/test_db"
    batch_size: 24
    backend: LMDB
  }
}
layer {
  name: "conv1/7x7_s2"
  type: "Convolution"
  bottom: "data"
  top: "conv1/7x7_s2"
  param {
    lr_mult: 1
    decay_mult: 1
  }
  param {
    lr_mult: 2
    decay_mult: 0
  }
  convolution_param {
    num_output: 64
    pad: 3
    kernel_size: 7
    stride: 2
    weight_filler {
      type: "xavier"
      std: 0.1
    }
    bias_filler {
      type: "constant"
      value: 0.2
    }
  }
}
layer {
  name: "conv1/relu_7x7"
  type: "ReLU"
  bottom: "conv1/7x7_s2"
  top: "conv1/7x7_s2"
}
layer {
  name: "pool1/3x3_s2"
  type: "Pooling"
  bottom: "conv1/7x7_s2"
  top: "pool1/3x3_s2"
  pooling_param {
    pool: MAX
    kernel_size: 3
    stride: 2
  }
}
layer {
  name: "pool1/norm1"
  type: "LRN"
  bottom: "pool1/3x3_s2"
  top: "pool1/norm1"
  lrn_param {
    local_size: 5
    alpha: 0.0001
    beta: 0.75
  }
}
layer {
  name: "conv2/3x3_reduce"
  type: "Convolution"
  bottom: "pool1/norm1"
  top: "conv2/3x3_reduce"
  param {
    lr_mult: 1
    decay_mult: 1
  }
  param {
    lr_mult: 2
    decay_mult: 0
  }
  convolution_param {
    num_output: 64
    kernel_size: 1
    weight_filler {
      type: "xavier"
      std: 0.1
    }
    bias_filler {
      type: "constant"
      value: 0.2
    }
  }
}
layer {
  name: "conv2/relu_3x3_reduce"
  type: "ReLU"
  bottom: "conv2/3x3_reduce"
  top: "conv2/3x3_reduce"
}
layer {
  name: "conv2/3x3"
  type: "Convolution"
  bottom: "conv2/3x3_reduce"
  top: "conv2/3x3"
  param {
    lr_mult: 1
    decay_mult: 1
  }
  param {
    lr_mult: 2
    decay_mult: 0
  }
  convolution_param {
    num_output: 192
    pad: 1
    kernel_size: 3
    weight_filler {
      type: "xavier"
      std: 0.03
    }
    bias_filler {
      type: "constant"
      value: 0.2
    }
  }
}
layer {
  name: "conv2/relu_3x3"
  type: "ReLU"
  bottom: "conv2/3x3"
  top: "conv2/3x3"
}
layer {
  name: "conv2/norm2"
  type: "LRN"
  bottom: "conv2/3x3"
  top: "conv2/norm2"
  lrn_param {
    local_size: 5
    alpha: 0.0001
    beta: 0.75
  }
}
layer {
  name: "pool2/3x3_s2"
  type: "Pooling"
  bottom: "conv2/norm2"
  top: "pool2/3x3_s2"
  pooling_param {
    pool: MAX
    kernel_size: 3
    stride: 2
  }
}
layer {
  name: "inception_3a/1x1"
  type: "Convolution"
  bottom: "pool2/3x3_s2"
  top: "inception_3a/1x1"
  param {
    lr_mult: 1
    decay_mult: 1
  }
  param {
    lr_mult: 2
    decay_mult: 0
  }
  convolution_param {
    num_output: 64
    kernel_size: 1
    weight_filler {
      type: "xavier"
      std: 0.03
    }
    bias_filler {
      type: "constant"
      value: 0.2
    }
  }
}
layer {
  name: "inception_3a/relu_1x1"
  type: "ReLU"
  bottom: "inception_3a/1x1"
  top: "inception_3a/1x1"
}
layer {
  name: "inception_3a/3x3_reduce"
  type: "Convolution"
  bottom: "pool2/3x3_s2"
  top: "inception_3a/3x3_reduce"
  param {
    lr_mult: 1
    decay_mult: 1
  }
  param {
    lr_mult: 2
    decay_mult: 0
  }
  convolution_param {
    num_output: 96
    kernel_size: 1
    weight_filler {
      type: "xavier"
      std: 0.09
    }
    bias_filler {
      type: "constant"
      value: 0.2
    }
  }
}
layer {
  name: "inception_3a/relu_3x3_reduce"
  type: "ReLU"
  bottom: "inception_3a/3x3_reduce"
  top: "inception_3a/3x3_reduce"
}
layer {
  name: "inception_3a/3x3"
  type: "Convolution"
  bottom: "inception_3a/3x3_reduce"
  top: "inception_3a/3x3"
  param {
    lr_mult: 1
    decay_mult: 1
  }
  param {
    lr_mult: 2
    decay_mult: 0
  }
  convolution_param {
    num_output: 128
    pad: 1
    kernel_size: 3
    weight_filler {
      type: "xavier"
      std: 0.03
    }
    bias_filler {
      type: "constant"
      value: 0.2
    }
  }
}
layer {
  name: "inception_3a/relu_3x3"
  type: "ReLU"
  bottom: "inception_3a/3x3"
  top: "inception_3a/3x3"
}
layer {
  name: "inception_3a/5x5_reduce"
  type: "Convolution"
  bottom: "pool2/3x3_s2"
  top: "inception_3a/5x5_reduce"
  param {
    lr_mult: 1
    decay_mult: 1
  }
  param {
    lr_mult: 2
    decay_mult: 0
  }
  convolution_param {
    num_output: 16
    kernel_size: 1
    weight_filler {
      type: "xavier"
      std: 0.2
    }
    bias_filler {
      type: "constant"
      value: 0.2
    }
  }
}
layer {
  name: "inception_3a/relu_5x5_reduce"
  type: "ReLU"
  bottom: "inception_3a/5x5_reduce"
  top: "inception_3a/5x5_reduce"
}
layer {
  name: "inception_3a/5x5"
  type: "Convolution"
  bottom: "inception_3a/5x5_reduce"
  top: "inception_3a/5x5"
  param {
    lr_mult: 1
    decay_mult: 1
  }
  param {
    lr_mult: 2
    decay_mult: 0
  }
  convolution_param {
    num_output: 32
    pad: 2
    kernel_size: 5
    weight_filler {
      type: "xavier"
      std: 0.03
    }
    bias_filler {
      type: "constant"
      value: 0.2
    }
  }
}
layer {
  name: "inception_3a/relu_5x5"
  type: "ReLU"
  bottom: "inception_3a/5x5"
  top: "inception_3a/5x5"
}
layer {
  name: "inception_3a/pool"
  type: "Pooling"
  bottom: "pool2/3x3_s2"
  top: "inception_3a/pool"
  pooling_param {
    pool: MAX
    kernel_size: 3
    stride: 1
    pad: 1
  }
}
layer {
  name: "inception_3a/pool_proj"
  type: "Convolution"
  bottom: "inception_3a/pool"
  top: "inception_3a/pool_proj"
  param {
    lr_mult: 1
    decay_mult: 1
  }
  param {
    lr_mult: 2
    decay_mult: 0
  }
  convolution_param {
    num_output: 32
    kernel_size: 1
    weight_filler {
      type: "xavier"
      std: 0.1
    }
    bias_filler {
      type: "constant"
      value: 0.2
    }
  }
}
layer {
  name: "inception_3a/relu_pool_proj"
  type: "ReLU"
  bottom: "inception_3a/pool_proj"
  top: "inception_3a/pool_proj"
}
layer {
  name: "inception_3a/output"
  type: "Concat"
  bottom: "inception_3a/1x1"
  bottom: "inception_3a/3x3"
  bottom: "inception_3a/5x5"
  bottom: "inception_3a/pool_proj"
  top: "inception_3a/output"
}
layer {
  name: "inception_3b/1x1"
  type: "Convolution"
  bottom: "inception_3a/output"
  top: "inception_3b/1x1"
  param {
    lr_mult: 1
    decay_mult: 1
  }
  param {
    lr_mult: 2
    decay_mult: 0
  }
  convolution_param {
    num_output: 128
    kernel_size: 1
    weight_filler {
      type: "xavier"
      std: 0.03
    }
    bias_filler {
      type: "constant"
      value: 0.2
    }
  }
}
layer {
  name: "inception_3b/relu_1x1"
  type: "ReLU"
  bottom: "inception_3b/1x1"
  top: "inception_3b/1x1"
}
layer {
  name: "inception_3b/3x3_reduce"
  type: "Convolution"
  bottom: "inception_3a/output"
  top: "inception_3b/3x3_reduce"
  param {
    lr_mult: 1
    decay_mult: 1
  }
  param {
    lr_mult: 2
    decay_mult: 0
  }
  convolution_param {
    num_output: 128
    kernel_size: 1
    weight_filler {
      type: "xavier"
      std: 0.09
    }
    bias_filler {
      type: "constant"
      value: 0.2
    }
  }
}
layer {
  name: "inception_3b/relu_3x3_reduce"
  type: "ReLU"
  bottom: "inception_3b/3x3_reduce"
  top: "inception_3b/3x3_reduce"
}
layer {
  name: "inception_3b/3x3"
  type: "Convolution"
  bottom: "inception_3b/3x3_reduce"
  top: "inception_3b/3x3"
  param {
    lr_mult: 1
    decay_mult: 1
  }
  param {
    lr_mult: 2
    decay_mult: 0
  }
  convolution_param {
    num_output: 192
    pad: 1
    kernel_size: 3
    weight_filler {
      type: "xavier"
      std: 0.03
    }
    bias_filler {
      type: "constant"
      value: 0.2
    }
  }
}
layer {
  name: "inception_3b/relu_3x3"
  type: "ReLU"
  bottom: "inception_3b/3x3"
  top: "inception_3b/3x3"
}
layer {
  name: "inception_3b/5x5_reduce"
  type: "Convolution"
  bottom: "inception_3a/output"
  top: "inception_3b/5x5_reduce"
  param {
    lr_mult: 1
    decay_mult: 1
  }
  param {
    lr_mult: 2
    decay_mult: 0
  }
  convolution_param {
    num_output: 32
    kernel_size: 1
    weight_filler {
      type: "xavier"
      std: 0.2
    }
    bias_filler {
      type: "constant"
      value: 0.2
    }
  }
}
layer {
  name: "inception_3b/relu_5x5_reduce"
  type: "ReLU"
  bottom: "inception_3b/5x5_reduce"
  top: "inception_3b/5x5_reduce"
}
layer {
  name: "inception_3b/5x5"
  type: "Convolution"
  bottom: "inception_3b/5x5_reduce"
  top: "inception_3b/5x5"
  param {
    lr_mult: 1
    decay_mult: 1
  }
  param {
    lr_mult: 2
    decay_mult: 0
  }
  convolution_param {
    num_output: 96
    pad: 2
    kernel_size: 5
    weight_filler {
      type: "xavier"
      std: 0.03
    }
    bias_filler {
      type: "constant"
      value: 0.2
    }
  }
}
layer {
  name: "inception_3b/relu_5x5"
  type: "ReLU"
  bottom: "inception_3b/5x5"
  top: "inception_3b/5x5"
}
layer {
  name: "inception_3b/pool"
  type: "Pooling"
  bottom: "inception_3a/output"
  top: "inception_3b/pool"
  pooling_param {
    pool: MAX
    kernel_size: 3
    stride: 1
    pad: 1
  }
}
layer {
  name: "inception_3b/pool_proj"
  type: "Convolution"
  bottom: "inception_3b/pool"
  top: "inception_3b/pool_proj"
  param {
    lr_mult: 1
    decay_mult: 1
  }
  param {
    lr_mult: 2
    decay_mult: 0
  }
  convolution_param {
    num_output: 64
    kernel_size: 1
    weight_filler {
      type: "xavier"
      std: 0.1
    }
    bias_filler {
      type: "constant"
      value: 0.2
    }
  }
}
layer {
  name: "inception_3b/relu_pool_proj"
  type: "ReLU"
  bottom: "inception_3b/pool_proj"
  top: "inception_3b/pool_proj"
}
layer {
  name: "inception_3b/output"
  type: "Concat"
  bottom: "inception_3b/1x1"
  bottom: "inception_3b/3x3"
  bottom: "inception_3b/5x5"
  bottom: "inception_3b/pool_proj"
  top: "inception_3b/output"
}
layer {
  name: "pool3/3x3_s2"
  type: "Pooling"
  bottom: "inception_3b/output"
  top: "pool3/3x3_s2"
  pooling_param {
    pool: MAX
    kernel_size: 3
    stride: 2
  }
}
layer {
  name: "inception_4a/1x1"
  type: "Convolution"
  bottom: "pool3/3x3_s2"
  top: "inception_4a/1x1"
  param {
    lr_mult: 1
    decay_mult: 1
  }
  param {
    lr_mult: 2
    decay_mult: 0
  }
  convolution_param {
    num_output: 192
    kernel_size: 1
    weight_filler {
      type: "xavier"
      std: 0.03
    }
    bias_filler {
      type: "constant"
      value: 0.2
    }
  }
}
layer {
  name: "inception_4a/relu_1x1"
  type: "ReLU"
  bottom: "inception_4a/1x1"
  top: "inception_4a/1x1"
}
layer {
  name: "inception_4a/3x3_reduce"
  type: "Convolution"
  bottom: "pool3/3x3_s2"
  top: "inception_4a/3x3_reduce"
  param {
    lr_mult: 1
    decay_mult: 1
  }
  param {
    lr_mult: 2
    decay_mult: 0
  }
  convolution_param {
    num_output: 96
    kernel_size: 1
    weight_filler {
      type: "xavier"
      std: 0.09
    }
    bias_filler {
      type: "constant"
      value: 0.2
    }
  }
}
layer {
  name: "inception_4a/relu_3x3_reduce"
  type: "ReLU"
  bottom: "inception_4a/3x3_reduce"
  top: "inception_4a/3x3_reduce"
}
layer {
  name: "inception_4a/3x3"
  type: "Convolution"
  bottom: "inception_4a/3x3_reduce"
  top: "inception_4a/3x3"
  param {
    lr_mult: 1
    decay_mult: 1
  }
  param {
    lr_mult: 2
    decay_mult: 0
  }
  convolution_param {
    num_output: 208
    pad: 1
    kernel_size: 3
    weight_filler {
      type: "xavier"
      std: 0.03
    }
    bias_filler {
      type: "constant"
      value: 0.2
    }
  }
}
layer {
  name: "inception_4a/relu_3x3"
  type: "ReLU"
  bottom: "inception_4a/3x3"
  top: "inception_4a/3x3"
}
layer {
  name: "inception_4a/5x5_reduce"
  type: "Convolution"
  bottom: "pool3/3x3_s2"
  top: "inception_4a/5x5_reduce"
  param {
    lr_mult: 1
    decay_mult: 1
  }
  param {
    lr_mult: 2
    decay_mult: 0
  }
  convolution_param {
    num_output: 16
    kernel_size: 1
    weight_filler {
      type: "xavier"
      std: 0.2
    }
    bias_filler {
      type: "constant"
      value: 0.2
    }
  }
}
layer {
  name: "inception_4a/relu_5x5_reduce"
  type: "ReLU"
  bottom: "inception_4a/5x5_reduce"
  top: "inception_4a/5x5_reduce"
}
layer {
  name: "inception_4a/5x5"
  type: "Convolution"
  bottom: "inception_4a/5x5_reduce"
  top: "inception_4a/5x5"
  param {
    lr_mult: 1
    decay_mult: 1
  }
  param {
    lr_mult: 2
    decay_mult: 0
  }
  convolution_param {
    num_output: 48
    pad: 2
    kernel_size: 5
    weight_filler {
      type: "xavier"
      std: 0.03
    }
    bias_filler {
      type: "constant"
      value: 0.2
    }
  }
}
layer {
  name: "inception_4a/relu_5x5"
  type: "ReLU"
  bottom: "inception_4a/5x5"
  top: "inception_4a/5x5"
}
layer {
  name: "inception_4a/pool"
  type: "Pooling"
  bottom: "pool3/3x3_s2"
  top: "inception_4a/pool"
  pooling_param {
    pool: MAX
    kernel_size: 3
    stride: 1
    pad: 1
  }
}
layer {
  name: "inception_4a/pool_proj"
  type: "Convolution"
  bottom: "inception_4a/pool"
  top: "inception_4a/pool_proj"
  param {
    lr_mult: 1
    decay_mult: 1
  }
  param {
    lr_mult: 2
    decay_mult: 0
  }
  convolution_param {
    num_output: 64
    kernel_size: 1
    weight_filler {
      type: "xavier"
      std: 0.1
    }
    bias_filler {
      type: "constant"
      value: 0.2
    }
  }
}
layer {
  name: "inception_4a/relu_pool_proj"
  type: "ReLU"
  bottom: "inception_4a/pool_proj"
  top: "inception_4a/pool_proj"
}
layer {
  name: "inception_4a/output"
  type: "Concat"
  bottom: "inception_4a/1x1"
  bottom: "inception_4a/3x3"
  bottom: "inception_4a/5x5"
  bottom: "inception_4a/pool_proj"
  top: "inception_4a/output"
}
layer {
  name: "loss1/ave_pool"
  type: "Pooling"
  bottom: "inception_4a/output"
  top: "loss1/ave_pool"
  pooling_param {
    pool: AVE
    kernel_size: 5
    stride: 3
  }
}
layer {
  name: "loss1/conv"
  type: "Convolution"
  bottom: "loss1/ave_pool"
  top: "loss1/conv"
  param {
    lr_mult: 1
    decay_mult: 1
  }
  param {
    lr_mult: 2
    decay_mult: 0
  }
  convolution_param {
    num_output: 128
    kernel_size: 1
    weight_filler {
      type: "xavier"
      std: 0.08
    }
    bias_filler {
      type: "constant"
      value: 0.2
    }
  }
}
layer {
  name: "loss1/relu_conv"
  type: "ReLU"
  bottom: "loss1/conv"
  top: "loss1/conv"
}
layer {
  name: "loss1/fc"
  type: "InnerProduct"
  bottom: "loss1/conv"
  top: "loss1/fc"
  param {
    lr_mult: 1
    decay_mult: 1
  }
  param {
    lr_mult: 2
    decay_mult: 0
  }
  inner_product_param {
    num_output: 1024
    weight_filler {
      type: "xavier"
      std: 0.02
    }
    bias_filler {
      type: "constant"
      value: 0.2
    }
  }
}
layer {
  name: "loss1/relu_fc"
  type: "ReLU"
  bottom: "loss1/fc"
  top: "loss1/fc"
}
layer {
  name: "loss1/drop_fc"
  type: "Dropout"
  bottom: "loss1/fc"
  top: "loss1/fc"
  dropout_param {
    dropout_ratio: 0.7
  }
}
layer {
  name: "loss1/classifier_plantvillage"
  type: "InnerProduct"
  bottom: "loss1/fc"
  top: "loss1/classifier_plantvillage"
  param {
    lr_mult: 1
    decay_mult: 1
  }
  param {
    lr_mult: 2
    decay_mult: 0
  }
  inner_product_param {
    num_output: 38
    weight_filler {
      type: "xavier"
      std: 0.0009765625
    }
    bias_filler {
      type: "constant"
      value: 0
    }
  }
}
layer {
  name: "inception_4b/1x1"
  type: "Convolution"
  bottom: "inception_4a/output"
  top: "inception_4b/1x1"
  param {
    lr_mult: 1
    decay_mult: 1
  }
  param {
    lr_mult: 2
    decay_mult: 0
  }
  convolution_param {
    num_output: 160
    kernel_size: 1
    weight_filler {
      type: "xavier"
      std: 0.03
    }
    bias_filler {
      type: "constant"
      value: 0.2
    }
  }
}
layer {
  name: "inception_4b/relu_1x1"
  type: "ReLU"
  bottom: "inception_4b/1x1"
  top: "inception_4b/1x1"
}
layer {
  name: "inception_4b/3x3_reduce"
  type: "Convolution"
  bottom: "inception_4a/output"
  top: "inception_4b/3x3_reduce"
  param {
    lr_mult: 1
    decay_mult: 1
  }
  param {
    lr_mult: 2
    decay_mult: 0
  }
  convolution_param {
    num_output: 112
    kernel_size: 1
    weight_filler {
      type: "xavier"
      std: 0.09
    }
    bias_filler {
      type: "constant"
      value: 0.2
    }
  }
}
layer {
  name: "inception_4b/relu_3x3_reduce"
  type: "ReLU"
  bottom: "inception_4b/3x3_reduce"
  top: "inception_4b/3x3_reduce"
}
layer {
  name: "inception_4b/3x3"
  type: "Convolution"
  bottom: "inception_4b/3x3_reduce"
  top: "inception_4b/3x3"
  param {
    lr_mult: 1
    decay_mult: 1
  }
  param {
    lr_mult: 2
    decay_mult: 0
  }
  convolution_param {
    num_output: 224
    pad: 1
    kernel_size: 3
    weight_filler {
      type: "xavier"
      std: 0.03
    }
    bias_filler {
      type: "constant"
      value: 0.2
    }
  }
}
layer {
  name: "inception_4b/relu_3x3"
  type: "ReLU"
  bottom: "inception_4b/3x3"
  top: "inception_4b/3x3"
}
layer {
  name: "inception_4b/5x5_reduce"
  type: "Convolution"
  bottom: "inception_4a/output"
  top: "inception_4b/5x5_reduce"
  param {
    lr_mult: 1
    decay_mult: 1
  }
  param {
    lr_mult: 2
    decay_mult: 0
  }
  convolution_param {
    num_output: 24
    kernel_size: 1
    weight_filler {
      type: "xavier"
      std: 0.2
    }
    bias_filler {
      type: "constant"
      value: 0.2
    }
  }
}
layer {
  name: "inception_4b/relu_5x5_reduce"
  type: "ReLU"
  bottom: "inception_4b/5x5_reduce"
  top: "inception_4b/5x5_reduce"
}
layer {
  name: "inception_4b/5x5"
  type: "Convolution"
  bottom: "inception_4b/5x5_reduce"
  top: "inception_4b/5x5"
  param {
    lr_mult: 1
    decay_mult: 1
  }
  param {
    lr_mult: 2
    decay_mult: 0
  }
  convolution_param {
    num_output: 64
    pad: 2
    kernel_size: 5
    weight_filler {
      type: "xavier"
      std: 0.03
    }
    bias_filler {
      type: "constant"
      value: 0.2
    }
  }
}
layer {
  name: "inception_4b/relu_5x5"
  type: "ReLU"
  bottom: "inception_4b/5x5"
  top: "inception_4b/5x5"
}
layer {
  name: "inception_4b/pool"
  type: "Pooling"
  bottom: "inception_4a/output"
  top: "inception_4b/pool"
  pooling_param {
    pool: MAX
    kernel_size: 3
    stride: 1
    pad: 1
  }
}
layer {
  name: "inception_4b/pool_proj"
  type: "Convolution"
  bottom: "inception_4b/pool"
  top: "inception_4b/pool_proj"
  param {
    lr_mult: 1
    decay_mult: 1
  }
  param {
    lr_mult: 2
    decay_mult: 0
  }
  convolution_param {
    num_output: 64
    kernel_size: 1
    weight_filler {
      type: "xavier"
      std: 0.1
    }
    bias_filler {
      type: "constant"
      value: 0.2
    }
  }
}
layer {
  name: "inception_4b/relu_pool_proj"
  type: "ReLU"
  bottom: "inception_4b/pool_proj"
  top: "inception_4b/pool_proj"
}
layer {
  name: "inception_4b/output"
  type: "Concat"
  bottom: "inception_4b/1x1"
  bottom: "inception_4b/3x3"
  bottom: "inception_4b/5x5"
  bottom: "inception_4b/pool_proj"
  top: "inception_4b/output"
}
layer {
  name: "inception_4c/1x1"
  type: "Convolution"
  bottom: "inception_4b/output"
  top: "inception_4c/1x1"
  param {
    lr_mult: 1
    decay_mult: 1
  }
  param {
    lr_mult: 2
    decay_mult: 0
  }
  convolution_param {
    num_output: 128
    kernel_size: 1
    weight_filler {
      type: "xavier"
      std: 0.03
    }
    bias_filler {
      type: "constant"
      value: 0.2
    }
  }
}
layer {
  name: "inception_4c/relu_1x1"
  type: "ReLU"
  bottom: "inception_4c/1x1"
  top: "inception_4c/1x1"
}
layer {
  name: "inception_4c/3x3_reduce"
  type: "Convolution"
  bottom: "inception_4b/output"
  top: "inception_4c/3x3_reduce"
  param {
    lr_mult: 1
    decay_mult: 1
  }
  param {
    lr_mult: 2
    decay_mult: 0
  }
  convolution_param {
    num_output: 128
    kernel_size: 1
    weight_filler {
      type: "xavier"
      std: 0.09
    }
    bias_filler {
      type: "constant"
      value: 0.2
    }
  }
}
layer {
  name: "inception_4c/relu_3x3_reduce"
  type: "ReLU"
  bottom: "inception_4c/3x3_reduce"
  top: "inception_4c/3x3_reduce"
}
layer {
  name: "inception_4c/3x3"
  type: "Convolution"
  bottom: "inception_4c/3x3_reduce"
  top: "inception_4c/3x3"
  param {
    lr_mult: 1
    decay_mult: 1
  }
  param {
    lr_mult: 2
    decay_mult: 0
  }
  convolution_param {
    num_output: 256
    pad: 1
    kernel_size: 3
    weight_filler {
      type: "xavier"
      std: 0.03
    }
    bias_filler {
      type: "constant"
      value: 0.2
    }
  }
}
layer {
  name: "inception_4c/relu_3x3"
  type: "ReLU"
  bottom: "inception_4c/3x3"
  top: "inception_4c/3x3"
}
layer {
  name: "inception_4c/5x5_reduce"
  type: "Convolution"
  bottom: "inception_4b/output"
  top: "inception_4c/5x5_reduce"
  param {
    lr_mult: 1
    decay_mult: 1
  }
  param {
    lr_mult: 2
    decay_mult: 0
  }
  convolution_param {
    num_output: 24
    kernel_size: 1
    weight_filler {
      type: "xavier"
      std: 0.2
    }
    bias_filler {
      type: "constant"
      value: 0.2
    }
  }
}
layer {
  name: "inception_4c/relu_5x5_reduce"
  type: "ReLU"
  bottom: "inception_4c/5x5_reduce"
  top: "inception_4c/5x5_reduce"
}
layer {
  name: "inception_4c/5x5"
  type: "Convolution"
  bottom: "inception_4c/5x5_reduce"
  top: "inception_4c/5x5"
  param {
    lr_mult: 1
    decay_mult: 1
  }
  param {
    lr_mult: 2
    decay_mult: 0
  }
  convolution_param {
    num_output: 64
    pad: 2
    kernel_size: 5
    weight_filler {
      type: "xavier"
      std: 0.03
    }
    bias_filler {
      type: "constant"
      value: 0.2
    }
  }
}
layer {
  name: "inception_4c/relu_5x5"
  type: "ReLU"
  bottom: "inception_4c/5x5"
  top: "inception_4c/5x5"
}
layer {
  name: "inception_4c/pool"
  type: "Pooling"
  bottom: "inception_4b/output"
  top: "inception_4c/pool"
  pooling_param {
    pool: MAX
    kernel_size: 3
    stride: 1
    pad: 1
  }
}
layer {
  name: "inception_4c/pool_proj"
  type: "Convolution"
  bottom: "inception_4c/pool"
  top: "inception_4c/pool_proj"
  param {
    lr_mult: 1
    decay_mult: 1
  }
  param {
    lr_mult: 2
    decay_mult: 0
  }
  convolution_param {
    num_output: 64
    kernel_size: 1
    weight_filler {
      type: "xavier"
      std: 0.1
    }
    bias_filler {
      type: "constant"
      value: 0.2
    }
  }
}
layer {
  name: "inception_4c/relu_pool_proj"
  type: "ReLU"
  bottom: "inception_4c/pool_proj"
  top: "inception_4c/pool_proj"
}
layer {
  name: "inception_4c/output"
  type: "Concat"
  bottom: "inception_4c/1x1"
  bottom: "inception_4c/3x3"
  bottom: "inception_4c/5x5"
  bottom: "inception_4c/pool_proj"
  top: "inception_4c/output"
}
layer {
  name: "inception_4d/1x1"
  type: "Convolution"
  bottom: "inception_4c/output"
  top: "inception_4d/1x1"
  param {
    lr_mult: 1
    decay_mult: 1
  }
  param {
    lr_mult: 2
    decay_mult: 0
  }
  convolution_param {
    num_output: 112
    kernel_size: 1
    weight_filler {
      type: "xavier"
      std: 0.03
    }
    bias_filler {
      type: "constant"
      value: 0.2
    }
  }
}
layer {
  name: "inception_4d/relu_1x1"
  type: "ReLU"
  bottom: "inception_4d/1x1"
  top: "inception_4d/1x1"
}
layer {
  name: "inception_4d/3x3_reduce"
  type: "Convolution"
  bottom: "inception_4c/output"
  top: "inception_4d/3x3_reduce"
  param {
    lr_mult: 1
    decay_mult: 1
  }
  param {
    lr_mult: 2
    decay_mult: 0
  }
  convolution_param {
    num_output: 144
    kernel_size: 1
    weight_filler {
      type: "xavier"
      std: 0.09
    }
    bias_filler {
      type: "constant"
      value: 0.2
    }
  }
}
layer {
  name: "inception_4d/relu_3x3_reduce"
  type: "ReLU"
  bottom: "inception_4d/3x3_reduce"
  top: "inception_4d/3x3_reduce"
}
layer {
  name: "inception_4d/3x3"
  type: "Convolution"
  bottom: "inception_4d/3x3_reduce"
  top: "inception_4d/3x3"
  param {
    lr_mult: 1
    decay_mult: 1
  }
  param {
    lr_mult: 2
    decay_mult: 0
  }
  convolution_param {
    num_output: 288
    pad: 1
    kernel_size: 3
    weight_filler {
      type: "xavier"
      std: 0.03
    }
    bias_filler {
      type: "constant"
      value: 0.2
    }
  }
}
layer {
  name: "inception_4d/relu_3x3"
  type: "ReLU"
  bottom: "inception_4d/3x3"
  top: "inception_4d/3x3"
}
layer {
  name: "inception_4d/5x5_reduce"
  type: "Convolution"
  bottom: "inception_4c/output"
  top: "inception_4d/5x5_reduce"
  param {
    lr_mult: 1
    decay_mult: 1
  }
  param {
    lr_mult: 2
    decay_mult: 0
  }
  convolution_param {
    num_output: 32
    kernel_size: 1
    weight_filler {
      type: "xavier"
      std: 0.2
    }
    bias_filler {
      type: "constant"
      value: 0.2
    }
  }
}
layer {
  name: "inception_4d/relu_5x5_reduce"
  type: "ReLU"
  bottom: "inception_4d/5x5_reduce"
  top: "inception_4d/5x5_reduce"
}
layer {
  name: "inception_4d/5x5"
  type: "Convolution"
  bottom: "inception_4d/5x5_reduce"
  top: "inception_4d/5x5"
  param {
    lr_mult: 1
    decay_mult: 1
  }
  param {
    lr_mult: 2
    decay_mult: 0
  }
  convolution_param {
    num_output: 64
    pad: 2
    kernel_size: 5
    weight_filler {
      type: "xavier"
      std: 0.03
    }
    bias_filler {
      type: "constant"
      value: 0.2
    }
  }
}
layer {
  name: "inception_4d/relu_5x5"
  type: "ReLU"
  bottom: "inception_4d/5x5"
  top: "inception_4d/5x5"
}
layer {
  name: "inception_4d/pool"
  type: "Pooling"
  bottom: "inception_4c/output"
  top: "inception_4d/pool"
  pooling_param {
    pool: MAX
    kernel_size: 3
    stride: 1
    pad: 1
  }
}
layer {
  name: "inception_4d/pool_proj"
  type: "Convolution"
  bottom: "inception_4d/pool"
  top: "inception_4d/pool_proj"
  param {
    lr_mult: 1
    decay_mult: 1
  }
  param {
    lr_mult: 2
    decay_mult: 0
  }
  convolution_param {
    num_output: 64
    kernel_size: 1
    weight_filler {
      type: "xavier"
      std: 0.1
    }
    bias_filler {
      type: "constant"
      value: 0.2
    }
  }
}
layer {
  name: "inception_4d/relu_pool_proj"
  type: "ReLU"
  bottom: "inception_4d/pool_proj"
  top: "inception_4d/pool_proj"
}
layer {
  name: "inception_4d/output"
  type: "Concat"
  bottom: "inception_4d/1x1"
  bottom: "inception_4d/3x3"
  bottom: "inception_4d/5x5"
  bottom: "inception_4d/pool_proj"
  top: "inception_4d/output"
}
layer {
  name: "loss2/ave_pool"
  type: "Pooling"
  bottom: "inception_4d/output"
  top: "loss2/ave_pool"
  pooling_param {
    pool: AVE
    kernel_size: 5
    stride: 3
  }
}
layer {
  name: "loss2/conv"
  type: "Convolution"
  bottom: "loss2/ave_pool"
  top: "loss2/conv"
  param {
    lr_mult: 1
    decay_mult: 1
  }
  param {
    lr_mult: 2
    decay_mult: 0
  }
  convolution_param {
    num_output: 128
    kernel_size: 1
    weight_filler {
      type: "xavier"
      std: 0.08
    }
    bias_filler {
      type: "constant"
      value: 0.2
    }
  }
}
layer {
  name: "loss2/relu_conv"
  type: "ReLU"
  bottom: "loss2/conv"
  top: "loss2/conv"
}
layer {
  name: "loss2/fc"
  type: "InnerProduct"
  bottom: "loss2/conv"
  top: "loss2/fc"
  param {
    lr_mult: 1
    decay_mult: 1
  }
  param {
    lr_mult: 2
    decay_mult: 0
  }
  inner_product_param {
    num_output: 1024
    weight_filler {
      type: "xavier"
      std: 0.02
    }
    bias_filler {
      type: "constant"
      value: 0.2
    }
  }
}
layer {
  name: "loss2/relu_fc"
  type: "ReLU"
  bottom: "loss2/fc"
  top: "loss2/fc"
}
layer {
  name: "loss2/drop_fc"
  type: "Dropout"
  bottom: "loss2/fc"
  top: "loss2/fc"
  dropout_param {
    dropout_ratio: 0.7
  }
}
layer {
  name: "loss2/classifier_plantvillage"
  type: "InnerProduct"
  bottom: "loss2/fc"
  top: "loss2/classifier_plantvillage"
  param {
    lr_mult: 1
    decay_mult: 1
  }
  param {
    lr_mult: 2
    decay_mult: 0
  }
  inner_product_param {
    num_output: 38
    weight_filler {
      type: "xavier"
      std: 0.0009765625
    }
    bias_filler {
      type: "constant"
      value: 0
    }
  }
}
layer {
  name: "inception_4e/1x1"
  type: "Convolution"
  bottom: "inception_4d/output"
  top: "inception_4e/1x1"
  param {
    lr_mult: 1
    decay_mult: 1
  }
  param {
    lr_mult: 2
    decay_mult: 0
  }
  convolution_param {
    num_output: 256
    kernel_size: 1
    weight_filler {
      type: "xavier"
      std: 0.03
    }
    bias_filler {
      type: "constant"
      value: 0.2
    }
  }
}
layer {
  name: "inception_4e/relu_1x1"
  type: "ReLU"
  bottom: "inception_4e/1x1"
  top: "inception_4e/1x1"
}
layer {
  name: "inception_4e/3x3_reduce"
  type: "Convolution"
  bottom: "inception_4d/output"
  top: "inception_4e/3x3_reduce"
  param {
    lr_mult: 1
    decay_mult: 1
  }
  param {
    lr_mult: 2
    decay_mult: 0
  }
  convolution_param {
    num_output: 160
    kernel_size: 1
    weight_filler {
      type: "xavier"
      std: 0.09
    }
    bias_filler {
      type: "constant"
      value: 0.2
    }
  }
}
layer {
  name: "inception_4e/relu_3x3_reduce"
  type: "ReLU"
  bottom: "inception_4e/3x3_reduce"
  top: "inception_4e/3x3_reduce"
}
layer {
  name: "inception_4e/3x3"
  type: "Convolution"
  bottom: "inception_4e/3x3_reduce"
  top: "inception_4e/3x3"
  param {
    lr_mult: 1
    decay_mult: 1
  }
  param {
    lr_mult: 2
    decay_mult: 0
  }
  convolution_param {
    num_output: 320
    pad: 1
    kernel_size: 3
    weight_filler {
      type: "xavier"
      std: 0.03
    }
    bias_filler {
      type: "constant"
      value: 0.2
    }
  }
}
layer {
  name: "inception_4e/relu_3x3"
  type: "ReLU"
  bottom: "inception_4e/3x3"
  top: "inception_4e/3x3"
}
layer {
  name: "inception_4e/5x5_reduce"
  type: "Convolution"
  bottom: "inception_4d/output"
  top: "inception_4e/5x5_reduce"
  param {
    lr_mult: 1
    decay_mult: 1
  }
  param {
    lr_mult: 2
    decay_mult: 0
  }
  convolution_param {
    num_output: 32
    kernel_size: 1
    weight_filler {
      type: "xavier"
      std: 0.2
    }
    bias_filler {
      type: "constant"
      value: 0.2
    }
  }
}
layer {
  name: "inception_4e/relu_5x5_reduce"
  type: "ReLU"
  bottom: "inception_4e/5x5_reduce"
  top: "inception_4e/5x5_reduce"
}
layer {
  name: "inception_4e/5x5"
  type: "Convolution"
  bottom: "inception_4e/5x5_reduce"
  top: "inception_4e/
I0403 19:42:58.965878  9581 layer_factory.hpp:77] Creating layer data
I0403 19:42:58.966526  9581 net.cpp:91] Creating Layer data
I0403 19:42:58.966560  9581 net.cpp:399] data -> data
I0403 19:42:58.966611  9581 net.cpp:399] data -> label
I0403 19:42:58.966648  9581 data_transformer.cpp:25] Loading mean file from: /home/mohanty/data/final_dataset/lmdb/grayscale-50-50/mean.binaryproto
I0403 19:42:58.967836  9587 db_lmdb.cpp:38] Opened lmdb /home/mohanty/data/final_dataset/lmdb/grayscale-50-50/test_db
I0403 19:42:58.981235  9581 data_layer.cpp:41] output data size: 24,3,224,224
I0403 19:42:59.010560  9581 net.cpp:141] Setting up data
I0403 19:42:59.010632  9581 net.cpp:148] Top shape: 24 3 224 224 (3612672)
I0403 19:42:59.010658  9581 net.cpp:148] Top shape: 24 (24)
I0403 19:42:59.010680  9581 net.cpp:156] Memory required for data: 14450784
I0403 19:42:59.010718  9581 layer_factory.hpp:77] Creating layer label_data_1_split
I0403 19:42:59.010752  9581 net.cpp:91] Creating Layer label_data_1_split
I0403 19:42:59.010795  9581 net.cpp:425] label_data_1_split <- label
I0403 19:42:59.010841  9581 net.cpp:399] label_data_1_split -> label_data_1_split_0
I0403 19:42:59.010874  9581 net.cpp:399] label_data_1_split -> label_data_1_split_1
I0403 19:42:59.010903  9581 net.cpp:399] label_data_1_split -> label_data_1_split_2
I0403 19:42:59.010934  9581 net.cpp:399] label_data_1_split -> label_data_1_split_3
I0403 19:42:59.010956  9581 net.cpp:399] label_data_1_split -> label_data_1_split_4
I0403 19:42:59.010983  9581 net.cpp:399] label_data_1_split -> label_data_1_split_5
I0403 19:42:59.011004  9581 net.cpp:399] label_data_1_split -> label_data_1_split_6
I0403 19:42:59.011025  9581 net.cpp:399] label_data_1_split -> label_data_1_split_7
I0403 19:42:59.011067  9581 net.cpp:399] label_data_1_split -> label_data_1_split_8
I0403 19:42:59.011090  9581 net.cpp:399] label_data_1_split -> label_data_1_split_9
I0403 19:42:59.011226  9581 net.cpp:141] Setting up label_data_1_split
I0403 19:42:59.011255  9581 net.cpp:148] Top shape: 24 (24)
I0403 19:42:59.011272  9581 net.cpp:148] Top shape: 24 (24)
I0403 19:42:59.011289  9581 net.cpp:148] Top shape: 24 (24)
I0403 19:42:59.011306  9581 net.cpp:148] Top shape: 24 (24)
I0403 19:42:59.011322  9581 net.cpp:148] Top shape: 24 (24)
I0403 19:42:59.011338  9581 net.cpp:148] Top shape: 24 (24)
I0403 19:42:59.011354  9581 net.cpp:148] Top shape: 24 (24)
I0403 19:42:59.011370  9581 net.cpp:148] Top shape: 24 (24)
I0403 19:42:59.011401  9581 net.cpp:148] Top shape: 24 (24)
I0403 19:42:59.011423  9581 net.cpp:148] Top shape: 24 (24)
I0403 19:42:59.011457  9581 net.cpp:156] Memory required for data: 14451744
I0403 19:42:59.011476  9581 layer_factory.hpp:77] Creating layer conv1/7x7_s2
I0403 19:42:59.011507  9581 net.cpp:91] Creating Layer conv1/7x7_s2
I0403 19:42:59.011526  9581 net.cpp:425] conv1/7x7_s2 <- data
I0403 19:42:59.011556  9581 net.cpp:399] conv1/7x7_s2 -> conv1/7x7_s2
I0403 19:42:59.159281  9581 net.cpp:141] Setting up conv1/7x7_s2
I0403 19:42:59.159346  9581 net.cpp:148] Top shape: 24 64 112 112 (19267584)
I0403 19:42:59.159364  9581 net.cpp:156] Memory required for data: 91522080
I0403 19:42:59.159396  9581 layer_factory.hpp:77] Creating layer conv1/relu_7x7
I0403 19:42:59.159423  9581 net.cpp:91] Creating Layer conv1/relu_7x7
I0403 19:42:59.159442  9581 net.cpp:425] conv1/relu_7x7 <- conv1/7x7_s2
I0403 19:42:59.159461  9581 net.cpp:386] conv1/relu_7x7 -> conv1/7x7_s2 (in-place)
I0403 19:42:59.159734  9581 net.cpp:141] Setting up conv1/relu_7x7
I0403 19:42:59.159762  9581 net.cpp:148] Top shape: 24 64 112 112 (19267584)
I0403 19:42:59.159778  9581 net.cpp:156] Memory required for data: 168592416
I0403 19:42:59.159795  9581 layer_factory.hpp:77] Creating layer pool1/3x3_s2
I0403 19:42:59.159819  9581 net.cpp:91] Creating Layer pool1/3x3_s2
I0403 19:42:59.159838  9581 net.cpp:425] pool1/3x3_s2 <- conv1/7x7_s2
I0403 19:42:59.159857  9581 net.cpp:399] pool1/3x3_s2 -> pool1/3x3_s2
I0403 19:42:59.159932  9581 net.cpp:141] Setting up pool1/3x3_s2
I0403 19:42:59.159957  9581 net.cpp:148] Top shape: 24 64 56 56 (4816896)
I0403 19:42:59.159972  9581 net.cpp:156] Memory required for data: 187860000
I0403 19:42:59.159988  9581 layer_factory.hpp:77] Creating layer pool1/norm1
I0403 19:42:59.160013  9581 net.cpp:91] Creating Layer pool1/norm1
I0403 19:42:59.160032  9581 net.cpp:425] pool1/norm1 <- pool1/3x3_s2
I0403 19:42:59.160049  9581 net.cpp:399] pool1/norm1 -> pool1/norm1
I0403 19:42:59.160403  9581 net.cpp:141] Setting up pool1/norm1
I0403 19:42:59.160431  9581 net.cpp:148] Top shape: 24 64 56 56 (4816896)
I0403 19:42:59.160447  9581 net.cpp:156] Memory required for data: 207127584
I0403 19:42:59.160465  9581 layer_factory.hpp:77] Creating layer conv2/3x3_reduce
I0403 19:42:59.160490  9581 net.cpp:91] Creating Layer conv2/3x3_reduce
I0403 19:42:59.160506  9581 net.cpp:425] conv2/3x3_reduce <- pool1/norm1
I0403 19:42:59.160526  9581 net.cpp:399] conv2/3x3_reduce -> conv2/3x3_reduce
I0403 19:42:59.161882  9581 net.cpp:141] Setting up conv2/3x3_reduce
I0403 19:42:59.161913  9581 net.cpp:148] Top shape: 24 64 56 56 (4816896)
I0403 19:42:59.161931  9581 net.cpp:156] Memory required for data: 226395168
I0403 19:42:59.161952  9581 layer_factory.hpp:77] Creating layer conv2/relu_3x3_reduce
I0403 19:42:59.161972  9581 net.cpp:91] Creating Layer conv2/relu_3x3_reduce
I0403 19:42:59.161988  9581 net.cpp:425] conv2/relu_3x3_reduce <- conv2/3x3_reduce
I0403 19:42:59.162006  9581 net.cpp:386] conv2/relu_3x3_reduce -> conv2/3x3_reduce (in-place)
I0403 19:42:59.162358  9581 net.cpp:141] Setting up conv2/relu_3x3_reduce
I0403 19:42:59.162386  9581 net.cpp:148] Top shape: 24 64 56 56 (4816896)
I0403 19:42:59.162403  9581 net.cpp:156] Memory required for data: 245662752
I0403 19:42:59.162420  9581 layer_factory.hpp:77] Creating layer conv2/3x3
I0403 19:42:59.162441  9581 net.cpp:91] Creating Layer conv2/3x3
I0403 19:42:59.162461  9581 net.cpp:425] conv2/3x3 <- conv2/3x3_reduce
I0403 19:42:59.162480  9581 net.cpp:399] conv2/3x3 -> conv2/3x3
I0403 19:42:59.164804  9581 net.cpp:141] Setting up conv2/3x3
I0403 19:42:59.164839  9581 net.cpp:148] Top shape: 24 192 56 56 (14450688)
I0403 19:42:59.164862  9581 net.cpp:156] Memory required for data: 303465504
I0403 19:42:59.164885  9581 layer_factory.hpp:77] Creating layer conv2/relu_3x3
I0403 19:42:59.164906  9581 net.cpp:91] Creating Layer conv2/relu_3x3
I0403 19:42:59.164923  9581 net.cpp:425] conv2/relu_3x3 <- conv2/3x3
I0403 19:42:59.164943  9581 net.cpp:386] conv2/relu_3x3 -> conv2/3x3 (in-place)
I0403 19:42:59.165113  9581 net.cpp:141] Setting up conv2/relu_3x3
I0403 19:42:59.165140  9581 net.cpp:148] Top shape: 24 192 56 56 (14450688)
I0403 19:42:59.165186  9581 net.cpp:156] Memory required for data: 361268256
I0403 19:42:59.165204  9581 layer_factory.hpp:77] Creating layer conv2/norm2
I0403 19:42:59.165227  9581 net.cpp:91] Creating Layer conv2/norm2
I0403 19:42:59.165244  9581 net.cpp:425] conv2/norm2 <- conv2/3x3
I0403 19:42:59.165266  9581 net.cpp:399] conv2/norm2 -> conv2/norm2
I0403 19:42:59.165567  9581 net.cpp:141] Setting up conv2/norm2
I0403 19:42:59.165596  9581 net.cpp:148] Top shape: 24 192 56 56 (14450688)
I0403 19:42:59.165612  9581 net.cpp:156] Memory required for data: 419071008
I0403 19:42:59.165628  9581 layer_factory.hpp:77] Creating layer pool2/3x3_s2
I0403 19:42:59.165647  9581 net.cpp:91] Creating Layer pool2/3x3_s2
I0403 19:42:59.165663  9581 net.cpp:425] pool2/3x3_s2 <- conv2/norm2
I0403 19:42:59.165683  9581 net.cpp:399] pool2/3x3_s2 -> pool2/3x3_s2
I0403 19:42:59.165735  9581 net.cpp:141] Setting up pool2/3x3_s2
I0403 19:42:59.165760  9581 net.cpp:148] Top shape: 24 192 28 28 (3612672)
I0403 19:42:59.165776  9581 net.cpp:156] Memory required for data: 433521696
I0403 19:42:59.165791  9581 layer_factory.hpp:77] Creating layer pool2/3x3_s2_pool2/3x3_s2_0_split
I0403 19:42:59.165808  9581 net.cpp:91] Creating Layer pool2/3x3_s2_pool2/3x3_s2_0_split
I0403 19:42:59.165824  9581 net.cpp:425] pool2/3x3_s2_pool2/3x3_s2_0_split <- pool2/3x3_s2
I0403 19:42:59.165843  9581 net.cpp:399] pool2/3x3_s2_pool2/3x3_s2_0_split -> pool2/3x3_s2_pool2/3x3_s2_0_split_0
I0403 19:42:59.165861  9581 net.cpp:399] pool2/3x3_s2_pool2/3x3_s2_0_split -> pool2/3x3_s2_pool2/3x3_s2_0_split_1
I0403 19:42:59.165881  9581 net.cpp:399] pool2/3x3_s2_pool2/3x3_s2_0_split -> pool2/3x3_s2_pool2/3x3_s2_0_split_2
I0403 19:42:59.165902  9581 net.cpp:399] pool2/3x3_s2_pool2/3x3_s2_0_split -> pool2/3x3_s2_pool2/3x3_s2_0_split_3
I0403 19:42:59.165971  9581 net.cpp:141] Setting up pool2/3x3_s2_pool2/3x3_s2_0_split
I0403 19:42:59.165993  9581 net.cpp:148] Top shape: 24 192 28 28 (3612672)
I0403 19:42:59.166012  9581 net.cpp:148] Top shape: 24 192 28 28 (3612672)
I0403 19:42:59.166028  9581 net.cpp:148] Top shape: 24 192 28 28 (3612672)
I0403 19:42:59.166044  9581 net.cpp:148] Top shape: 24 192 28 28 (3612672)
I0403 19:42:59.166059  9581 net.cpp:156] Memory required for data: 491324448
I0403 19:42:59.166075  9581 layer_factory.hpp:77] Creating layer inception_3a/1x1
I0403 19:42:59.166097  9581 net.cpp:91] Creating Layer inception_3a/1x1
I0403 19:42:59.166115  9581 net.cpp:425] inception_3a/1x1 <- pool2/3x3_s2_pool2/3x3_s2_0_split_0
I0403 19:42:59.166134  9581 net.cpp:399] inception_3a/1x1 -> inception_3a/1x1
I0403 19:42:59.167734  9581 net.cpp:141] Setting up inception_3a/1x1
I0403 19:42:59.167768  9581 net.cpp:148] Top shape: 24 64 28 28 (1204224)
I0403 19:42:59.167785  9581 net.cpp:156] Memory required for data: 496141344
I0403 19:42:59.167807  9581 layer_factory.hpp:77] Creating layer inception_3a/relu_1x1
I0403 19:42:59.167830  9581 net.cpp:91] Creating Layer inception_3a/relu_1x1
I0403 19:42:59.167848  9581 net.cpp:425] inception_3a/relu_1x1 <- inception_3a/1x1
I0403 19:42:59.167870  9581 net.cpp:386] inception_3a/relu_1x1 -> inception_3a/1x1 (in-place)
I0403 19:42:59.168054  9581 net.cpp:141] Setting up inception_3a/relu_1x1
I0403 19:42:59.168082  9581 net.cpp:148] Top shape: 24 64 28 28 (1204224)
I0403 19:42:59.168099  9581 net.cpp:156] Memory required for data: 500958240
I0403 19:42:59.168117  9581 layer_factory.hpp:77] Creating layer inception_3a/3x3_reduce
I0403 19:42:59.168143  9581 net.cpp:91] Creating Layer inception_3a/3x3_reduce
I0403 19:42:59.168162  9581 net.cpp:425] inception_3a/3x3_reduce <- pool2/3x3_s2_pool2/3x3_s2_0_split_1
I0403 19:42:59.168186  9581 net.cpp:399] inception_3a/3x3_reduce -> inception_3a/3x3_reduce
I0403 19:42:59.169939  9581 net.cpp:141] Setting up inception_3a/3x3_reduce
I0403 19:42:59.169981  9581 net.cpp:148] Top shape: 24 96 28 28 (1806336)
I0403 19:42:59.170006  9581 net.cpp:156] Memory required for data: 508183584
I0403 19:42:59.170037  9581 layer_factory.hpp:77] Creating layer inception_3a/relu_3x3_reduce
I0403 19:42:59.170078  9581 net.cpp:91] Creating Layer inception_3a/relu_3x3_reduce
I0403 19:42:59.170099  9581 net.cpp:425] inception_3a/relu_3x3_reduce <- inception_3a/3x3_reduce
I0403 19:42:59.170121  9581 net.cpp:386] inception_3a/relu_3x3_reduce -> inception_3a/3x3_reduce (in-place)
I0403 19:42:59.170321  9581 net.cpp:141] Setting up inception_3a/relu_3x3_reduce
I0403 19:42:59.170351  9581 net.cpp:148] Top shape: 24 96 28 28 (1806336)
I0403 19:42:59.170368  9581 net.cpp:156] Memory required for data: 515408928
I0403 19:42:59.170384  9581 layer_factory.hpp:77] Creating layer inception_3a/3x3
I0403 19:42:59.170409  9581 net.cpp:91] Creating Layer inception_3a/3x3
I0403 19:42:59.170429  9581 net.cpp:425] inception_3a/3x3 <- inception_3a/3x3_reduce
I0403 19:42:59.170454  9581 net.cpp:399] inception_3a/3x3 -> inception_3a/3x3
I0403 19:42:59.172235  9581 net.cpp:141] Setting up inception_3a/3x3
I0403 19:42:59.172267  9581 net.cpp:148] Top shape: 24 128 28 28 (2408448)
I0403 19:42:59.172286  9581 net.cpp:156] Memory required for data: 525042720
I0403 19:42:59.172307  9581 layer_factory.hpp:77] Creating layer inception_3a/relu_3x3
I0403 19:42:59.172325  9581 net.cpp:91] Creating Layer inception_3a/relu_3x3
I0403 19:42:59.172343  9581 net.cpp:425] inception_3a/relu_3x3 <- inception_3a/3x3
I0403 19:42:59.172369  9581 net.cpp:386] inception_3a/relu_3x3 -> inception_3a/3x3 (in-place)
I0403 19:42:59.172667  9581 net.cpp:141] Setting up inception_3a/relu_3x3
I0403 19:42:59.172698  9581 net.cpp:148] Top shape: 24 128 28 28 (2408448)
I0403 19:42:59.172718  9581 net.cpp:156] Memory required for data: 534676512
I0403 19:42:59.172735  9581 layer_factory.hpp:77] Creating layer inception_3a/5x5_reduce
I0403 19:42:59.172761  9581 net.cpp:91] Creating Layer inception_3a/5x5_reduce
I0403 19:42:59.172782  9581 net.cpp:425] inception_3a/5x5_reduce <- pool2/3x3_s2_pool2/3x3_s2_0_split_2
I0403 19:42:59.172802  9581 net.cpp:399] inception_3a/5x5_reduce -> inception_3a/5x5_reduce
I0403 19:42:59.173813  9581 net.cpp:141] Setting up inception_3a/5x5_reduce
I0403 19:42:59.173849  9581 net.cpp:148] Top shape: 24 16 28 28 (301056)
I0403 19:42:59.173866  9581 net.cpp:156] Memory required for data: 535880736
I0403 19:42:59.173887  9581 layer_factory.hpp:77] Creating layer inception_3a/relu_5x5_reduce
I0403 19:42:59.173907  9581 net.cpp:91] Creating Layer inception_3a/relu_5x5_reduce
I0403 19:42:59.173924  9581 net.cpp:425] inception_3a/relu_5x5_reduce <- inception_3a/5x5_reduce
I0403 19:42:59.173948  9581 net.cpp:386] inception_3a/relu_5x5_reduce -> inception_3a/5x5_reduce (in-place)
I0403 19:42:59.174263  9581 net.cpp:141] Setting up inception_3a/relu_5x5_reduce
I0403 19:42:59.174295  9581 net.cpp:148] Top shape: 24 16 28 28 (301056)
I0403 19:42:59.174314  9581 net.cpp:156] Memory required for data: 537084960
I0403 19:42:59.174338  9581 layer_factory.hpp:77] Creating layer inception_3a/5x5
I0403 19:42:59.174371  9581 net.cpp:91] Creating Layer inception_3a/5x5
I0403 19:42:59.174392  9581 net.cpp:425] inception_3a/5x5 <- inception_3a/5x5_reduce
I0403 19:42:59.174414  9581 net.cpp:399] inception_3a/5x5 -> inception_3a/5x5
I0403 19:42:59.175487  9581 net.cpp:141] Setting up inception_3a/5x5
I0403 19:42:59.175518  9581 net.cpp:148] Top shape: 24 32 28 28 (602112)
I0403 19:42:59.175539  9581 net.cpp:156] Memory required for data: 539493408
I0403 19:42:59.175564  9581 layer_factory.hpp:77] Creating layer inception_3a/relu_5x5
I0403 19:42:59.175585  9581 net.cpp:91] Creating Layer inception_3a/relu_5x5
I0403 19:42:59.175606  9581 net.cpp:425] inception_3a/relu_5x5 <- inception_3a/5x5
I0403 19:42:59.175627  9581 net.cpp:386] inception_3a/relu_5x5 -> inception_3a/5x5 (in-place)
I0403 19:42:59.175814  9581 net.cpp:141] Setting up inception_3a/relu_5x5
I0403 19:42:59.175843  9581 net.cpp:148] Top shape: 24 32 28 28 (602112)
I0403 19:42:59.175861  9581 net.cpp:156] Memory required for data: 541901856
I0403 19:42:59.175879  9581 layer_factory.hpp:77] Creating layer inception_3a/pool
I0403 19:42:59.175899  9581 net.cpp:91] Creating Layer inception_3a/pool
I0403 19:42:59.175973  9581 net.cpp:425] inception_3a/pool <- pool2/3x3_s2_pool2/3x3_s2_0_split_3
I0403 19:42:59.176028  9581 net.cpp:399] inception_3a/pool -> inception_3a/pool
I0403 19:42:59.176182  9581 net.cpp:141] Setting up inception_3a/pool
I0403 19:42:59.176259  9581 net.cpp:148] Top shape: 24 192 28 28 (3612672)
I0403 19:42:59.176329  9581 net.cpp:156] Memory required for data: 556352544
I0403 19:42:59.176373  9581 layer_factory.hpp:77] Creating layer inception_3a/pool_proj
I0403 19:42:59.176409  9581 net.cpp:91] Creating Layer inception_3a/pool_proj
I0403 19:42:59.176429  9581 net.cpp:425] inception_3a/pool_proj <- inception_3a/pool
I0403 19:42:59.176450  9581 net.cpp:399] inception_3a/pool_proj -> inception_3a/pool_proj
I0403 19:42:59.177462  9581 net.cpp:141] Setting up inception_3a/pool_proj
I0403 19:42:59.177496  9581 net.cpp:148] Top shape: 24 32 28 28 (602112)
I0403 19:42:59.177515  9581 net.cpp:156] Memory required for data: 558760992
I0403 19:42:59.177547  9581 layer_factory.hpp:77] Creating layer inception_3a/relu_pool_proj
I0403 19:42:59.177573  9581 net.cpp:91] Creating Layer inception_3a/relu_pool_proj
I0403 19:42:59.177590  9581 net.cpp:425] inception_3a/relu_pool_proj <- inception_3a/pool_proj
I0403 19:42:59.177611  9581 net.cpp:386] inception_3a/relu_pool_proj -> inception_3a/pool_proj (in-place)
I0403 19:42:59.177902  9581 net.cpp:141] Setting up inception_3a/relu_pool_proj
I0403 19:42:59.177933  9581 net.cpp:148] Top shape: 24 32 28 28 (602112)
I0403 19:42:59.177950  9581 net.cpp:156] Memory required for data: 561169440
I0403 19:42:59.177966  9581 layer_factory.hpp:77] Creating layer inception_3a/output
I0403 19:42:59.177985  9581 net.cpp:91] Creating Layer inception_3a/output
I0403 19:42:59.178001  9581 net.cpp:425] inception_3a/output <- inception_3a/1x1
I0403 19:42:59.178019  9581 net.cpp:425] inception_3a/output <- inception_3a/3x3
I0403 19:42:59.178035  9581 net.cpp:425] inception_3a/output <- inception_3a/5x5
I0403 19:42:59.178051  9581 net.cpp:425] inception_3a/output <- inception_3a/pool_proj
I0403 19:42:59.178072  9581 net.cpp:399] inception_3a/output -> inception_3a/output
I0403 19:42:59.178123  9581 net.cpp:141] Setting up inception_3a/output
I0403 19:42:59.178148  9581 net.cpp:148] Top shape: 24 256 28 28 (4816896)
I0403 19:42:59.178164  9581 net.cpp:156] Memory required for data: 580437024
I0403 19:42:59.178179  9581 layer_factory.hpp:77] Creating layer inception_3a/output_inception_3a/output_0_split
I0403 19:42:59.178200  9581 net.cpp:91] Creating Layer inception_3a/output_inception_3a/output_0_split
I0403 19:42:59.178223  9581 net.cpp:425] inception_3a/output_inception_3a/output_0_split <- inception_3a/output
I0403 19:42:59.178242  9581 net.cpp:399] inception_3a/output_inception_3a/output_0_split -> inception_3a/output_inception_3a/output_0_split_0
I0403 19:42:59.178266  9581 net.cpp:399] inception_3a/output_inception_3a/output_0_split -> inception_3a/output_inception_3a/output_0_split_1
I0403 19:42:59.178292  9581 net.cpp:399] inception_3a/output_inception_3a/output_0_split -> inception_3a/output_inception_3a/output_0_split_2
I0403 19:42:59.178314  9581 net.cpp:399] inception_3a/output_inception_3a/output_0_split -> inception_3a/output_inception_3a/output_0_split_3
I0403 19:42:59.178392  9581 net.cpp:141] Setting up inception_3a/output_inception_3a/output_0_split
I0403 19:42:59.178417  9581 net.cpp:148] Top shape: 24 256 28 28 (4816896)
I0403 19:42:59.178442  9581 net.cpp:148] Top shape: 24 256 28 28 (4816896)
I0403 19:42:59.178459  9581 net.cpp:148] Top shape: 24 256 28 28 (4816896)
I0403 19:42:59.178475  9581 net.cpp:148] Top shape: 24 256 28 28 (4816896)
I0403 19:42:59.178490  9581 net.cpp:156] Memory required for data: 657507360
I0403 19:42:59.178508  9581 layer_factory.hpp:77] Creating layer inception_3b/1x1
I0403 19:42:59.178531  9581 net.cpp:91] Creating Layer inception_3b/1x1
I0403 19:42:59.178553  9581 net.cpp:425] inception_3b/1x1 <- inception_3a/output_inception_3a/output_0_split_0
I0403 19:42:59.178573  9581 net.cpp:399] inception_3b/1x1 -> inception_3b/1x1
I0403 19:42:59.179776  9581 net.cpp:141] Setting up inception_3b/1x1
I0403 19:42:59.179821  9581 net.cpp:148] Top shape: 24 128 28 28 (2408448)
I0403 19:42:59.179837  9581 net.cpp:156] Memory required for data: 667141152
I0403 19:42:59.179857  9581 layer_factory.hpp:77] Creating layer inception_3b/relu_1x1
I0403 19:42:59.179879  9581 net.cpp:91] Creating Layer inception_3b/relu_1x1
I0403 19:42:59.179898  9581 net.cpp:425] inception_3b/relu_1x1 <- inception_3b/1x1
I0403 19:42:59.179916  9581 net.cpp:386] inception_3b/relu_1x1 -> inception_3b/1x1 (in-place)
I0403 19:42:59.180102  9581 net.cpp:141] Setting up inception_3b/relu_1x1
I0403 19:42:59.180152  9581 net.cpp:148] Top shape: 24 128 28 28 (2408448)
I0403 19:42:59.180177  9581 net.cpp:156] Memory required for data: 676774944
I0403 19:42:59.180212  9581 layer_factory.hpp:77] Creating layer inception_3b/3x3_reduce
I0403 19:42:59.180238  9581 net.cpp:91] Creating Layer inception_3b/3x3_reduce
I0403 19:42:59.180258  9581 net.cpp:425] inception_3b/3x3_reduce <- inception_3a/output_inception_3a/output_0_split_1
I0403 19:42:59.180279  9581 net.cpp:399] inception_3b/3x3_reduce -> inception_3b/3x3_reduce
I0403 19:42:59.181475  9581 net.cpp:141] Setting up inception_3b/3x3_reduce
I0403 19:42:59.181507  9581 net.cpp:148] Top shape: 24 128 28 28 (2408448)
I0403 19:42:59.181524  9581 net.cpp:156] Memory required for data: 686408736
I0403 19:42:59.181543  9581 layer_factory.hpp:77] Creating layer inception_3b/relu_3x3_reduce
I0403 19:42:59.181565  9581 net.cpp:91] Creating Layer inception_3b/relu_3x3_reduce
I0403 19:42:59.181582  9581 net.cpp:425] inception_3b/relu_3x3_reduce <- inception_3b/3x3_reduce
I0403 19:42:59.181601  9581 net.cpp:386] inception_3b/relu_3x3_reduce -> inception_3b/3x3_reduce (in-place)
I0403 19:42:59.181782  9581 net.cpp:141] Setting up inception_3b/relu_3x3_reduce
I0403 19:42:59.181812  9581 net.cpp:148] Top shape: 24 128 28 28 (2408448)
I0403 19:42:59.181828  9581 net.cpp:156] Memory required for data: 696042528
I0403 19:42:59.181843  9581 layer_factory.hpp:77] Creating layer inception_3b/3x3
I0403 19:42:59.181870  9581 net.cpp:91] Creating Layer inception_3b/3x3
I0403 19:42:59.181890  9581 net.cpp:425] inception_3b/3x3 <- inception_3b/3x3_reduce
I0403 19:42:59.181913  9581 net.cpp:399] inception_3b/3x3 -> inception_3b/3x3
I0403 19:42:59.185020  9581 net.cpp:141] Setting up inception_3b/3x3
I0403 19:42:59.185055  9581 net.cpp:148] Top shape: 24 192 28 28 (3612672)
I0403 19:42:59.185073  9581 net.cpp:156] Memory required for data: 710493216
I0403 19:42:59.185093  9581 layer_factory.hpp:77] Creating layer inception_3b/relu_3x3
I0403 19:42:59.185114  9581 net.cpp:91] Creating Layer inception_3b/relu_3x3
I0403 19:42:59.185134  9581 net.cpp:425] inception_3b/relu_3x3 <- inception_3b/3x3
I0403 19:42:59.185158  9581 net.cpp:386] inception_3b/relu_3x3 -> inception_3b/3x3 (in-place)
I0403 19:42:59.185451  9581 net.cpp:141] Setting up inception_3b/relu_3x3
I0403 19:42:59.185482  9581 net.cpp:148] Top shape: 24 192 28 28 (3612672)
I0403 19:42:59.185503  9581 net.cpp:156] Memory required for data: 724943904
I0403 19:42:59.185518  9581 layer_factory.hpp:77] Creating layer inception_3b/5x5_reduce
I0403 19:42:59.185547  9581 net.cpp:91] Creating Layer inception_3b/5x5_reduce
I0403 19:42:59.185567  9581 net.cpp:425] inception_3b/5x5_reduce <- inception_3a/output_inception_3a/output_0_split_2
I0403 19:42:59.185588  9581 net.cpp:399] inception_3b/5x5_reduce -> inception_3b/5x5_reduce
I0403 19:42:59.186631  9581 net.cpp:141] Setting up inception_3b/5x5_reduce
I0403 19:42:59.186664  9581 net.cpp:148] Top shape: 24 32 28 28 (602112)
I0403 19:42:59.186681  9581 net.cpp:156] Memory required for data: 727352352
I0403 19:42:59.186702  9581 layer_factory.hpp:77] Creating layer inception_3b/relu_5x5_reduce
I0403 19:42:59.186723  9581 net.cpp:91] Creating Layer inception_3b/relu_5x5_reduce
I0403 19:42:59.186741  9581 net.cpp:425] inception_3b/relu_5x5_reduce <- inception_3b/5x5_reduce
I0403 19:42:59.186763  9581 net.cpp:386] inception_3b/relu_5x5_reduce -> inception_3b/5x5_reduce (in-place)
I0403 19:42:59.186964  9581 net.cpp:141] Setting up inception_3b/relu_5x5_reduce
I0403 19:42:59.186992  9581 net.cpp:148] Top shape: 24 32 28 28 (602112)
I0403 19:42:59.187012  9581 net.cpp:156] Memory required for data: 729760800
I0403 19:42:59.187031  9581 layer_factory.hpp:77] Creating layer inception_3b/5x5
I0403 19:42:59.187057  9581 net.cpp:91] Creating Layer inception_3b/5x5
I0403 19:42:59.187077  9581 net.cpp:425] inception_3b/5x5 <- inception_3b/5x5_reduce
I0403 19:42:59.187103  9581 net.cpp:399] inception_3b/5x5 -> inception_3b/5x5
I0403 19:42:59.189193  9581 net.cpp:141] Setting up inception_3b/5x5
I0403 19:42:59.189229  9581 net.cpp:148] Top shape: 24 96 28 28 (1806336)
I0403 19:42:59.189246  9581 net.cpp:156] Memory required for data: 736986144
I0403 19:42:59.189266  9581 layer_factory.hpp:77] Creating layer inception_3b/relu_5x5
I0403 19:42:59.189288  9581 net.cpp:91] Creating Layer inception_3b/relu_5x5
I0403 19:42:59.189306  9581 net.cpp:425] inception_3b/relu_5x5 <- inception_3b/5x5
I0403 19:42:59.189323  9581 net.cpp:386] inception_3b/relu_5x5 -> inception_3b/5x5 (in-place)
I0403 19:42:59.189527  9581 net.cpp:141] Setting up inception_3b/relu_5x5
I0403 19:42:59.189554  9581 net.cpp:148] Top shape: 24 96 28 28 (1806336)
I0403 19:42:59.189570  9581 net.cpp:156] Memory required for data: 744211488
I0403 19:42:59.189586  9581 layer_factory.hpp:77] Creating layer inception_3b/pool
I0403 19:42:59.189605  9581 net.cpp:91] Creating Layer inception_3b/pool
I0403 19:42:59.189625  9581 net.cpp:425] inception_3b/pool <- inception_3a/output_inception_3a/output_0_split_3
I0403 19:42:59.189645  9581 net.cpp:399] inception_3b/pool -> inception_3b/pool
I0403 19:42:59.189707  9581 net.cpp:141] Setting up inception_3b/pool
I0403 19:42:59.189733  9581 net.cpp:148] Top shape: 24 256 28 28 (4816896)
I0403 19:42:59.189750  9581 net.cpp:156] Memory required for data: 763479072
I0403 19:42:59.189767  9581 layer_factory.hpp:77] Creating layer inception_3b/pool_proj
I0403 19:42:59.189791  9581 net.cpp:91] Creating Layer inception_3b/pool_proj
I0403 19:42:59.189813  9581 net.cpp:425] inception_3b/pool_proj <- inception_3b/pool
I0403 19:42:59.189836  9581 net.cpp:399] inception_3b/pool_proj -> inception_3b/pool_proj
I0403 19:42:59.190944  9581 net.cpp:141] Setting up inception_3b/pool_proj
I0403 19:42:59.190975  9581 net.cpp:148] Top shape: 24 64 28 28 (1204224)
I0403 19:42:59.190992  9581 net.cpp:156] Memory required for data: 768295968
I0403 19:42:59.191012  9581 layer_factory.hpp:77] Creating layer inception_3b/relu_pool_proj
I0403 19:42:59.191031  9581 net.cpp:91] Creating Layer inception_3b/relu_pool_proj
I0403 19:42:59.191051  9581 net.cpp:425] inception_3b/relu_pool_proj <- inception_3b/pool_proj
I0403 19:42:59.191074  9581 net.cpp:386] inception_3b/relu_pool_proj -> inception_3b/pool_proj (in-place)
I0403 19:42:59.191494  9581 net.cpp:141] Setting up inception_3b/relu_pool_proj
I0403 19:42:59.191522  9581 net.cpp:148] Top shape: 24 64 28 28 (1204224)
I0403 19:42:59.191540  9581 net.cpp:156] Memory required for data: 773112864
I0403 19:42:59.191558  9581 layer_factory.hpp:77] Creating layer inception_3b/output
I0403 19:42:59.191577  9581 net.cpp:91] Creating Layer inception_3b/output
I0403 19:42:59.191594  9581 net.cpp:425] inception_3b/output <- inception_3b/1x1
I0403 19:42:59.191612  9581 net.cpp:425] inception_3b/output <- inception_3b/3x3
I0403 19:42:59.191629  9581 net.cpp:425] inception_3b/output <- inception_3b/5x5
I0403 19:42:59.191649  9581 net.cpp:425] inception_3b/output <- inception_3b/pool_proj
I0403 19:42:59.191702  9581 net.cpp:399] inception_3b/output -> inception_3b/output
I0403 19:42:59.191782  9581 net.cpp:141] Setting up inception_3b/output
I0403 19:42:59.191828  9581 net.cpp:148] Top shape: 24 480 28 28 (9031680)
I0403 19:42:59.191880  9581 net.cpp:156] Memory required for data: 809239584
I0403 19:42:59.191927  9581 layer_factory.hpp:77] Creating layer pool3/3x3_s2
I0403 19:42:59.191983  9581 net.cpp:91] Creating Layer pool3/3x3_s2
I0403 19:42:59.192010  9581 net.cpp:425] pool3/3x3_s2 <- inception_3b/output
I0403 19:42:59.192050  9581 net.cpp:399] pool3/3x3_s2 -> pool3/3x3_s2
I0403 19:42:59.192118  9581 net.cpp:141] Setting up pool3/3x3_s2
I0403 19:42:59.192144  9581 net.cpp:148] Top shape: 24 480 14 14 (2257920)
I0403 19:42:59.192162  9581 net.cpp:156] Memory required for data: 818271264
I0403 19:42:59.192179  9581 layer_factory.hpp:77] Creating layer pool3/3x3_s2_pool3/3x3_s2_0_split
I0403 19:42:59.192208  9581 net.cpp:91] Creating Layer pool3/3x3_s2_pool3/3x3_s2_0_split
I0403 19:42:59.192234  9581 net.cpp:425] pool3/3x3_s2_pool3/3x3_s2_0_split <- pool3/3x3_s2
I0403 19:42:59.192255  9581 net.cpp:399] pool3/3x3_s2_pool3/3x3_s2_0_split -> pool3/3x3_s2_pool3/3x3_s2_0_split_0
I0403 19:42:59.192276  9581 net.cpp:399] pool3/3x3_s2_pool3/3x3_s2_0_split -> pool3/3x3_s2_pool3/3x3_s2_0_split_1
I0403 19:42:59.192299  9581 net.cpp:399] pool3/3x3_s2_pool3/3x3_s2_0_split -> pool3/3x3_s2_pool3/3x3_s2_0_split_2
I0403 19:42:59.192320  9581 net.cpp:399] pool3/3x3_s2_pool3/3x3_s2_0_split -> pool3/3x3_s2_pool3/3x3_s2_0_split_3
I0403 19:42:59.192407  9581 net.cpp:141] Setting up pool3/3x3_s2_pool3/3x3_s2_0_split
I0403 19:42:59.192432  9581 net.cpp:148] Top shape: 24 480 14 14 (2257920)
I0403 19:42:59.192452  9581 net.cpp:148] Top shape: 24 480 14 14 (2257920)
I0403 19:42:59.192473  9581 net.cpp:148] Top shape: 24 480 14 14 (2257920)
I0403 19:42:59.192489  9581 net.cpp:148] Top shape: 24 480 14 14 (2257920)
I0403 19:42:59.192507  9581 net.cpp:156] Memory required for data: 854397984
I0403 19:42:59.192523  9581 layer_factory.hpp:77] Creating layer inception_4a/1x1
I0403 19:42:59.192549  9581 net.cpp:91] Creating Layer inception_4a/1x1
I0403 19:42:59.192569  9581 net.cpp:425] inception_4a/1x1 <- pool3/3x3_s2_pool3/3x3_s2_0_split_0
I0403 19:42:59.192592  9581 net.cpp:399] inception_4a/1x1 -> inception_4a/1x1
I0403 19:42:59.194272  9581 net.cpp:141] Setting up inception_4a/1x1
I0403 19:42:59.194303  9581 net.cpp:148] Top shape: 24 192 14 14 (903168)
I0403 19:42:59.194319  9581 net.cpp:156] Memory required for data: 858010656
I0403 19:42:59.194340  9581 layer_factory.hpp:77] Creating layer inception_4a/relu_1x1
I0403 19:42:59.194363  9581 net.cpp:91] Creating Layer inception_4a/relu_1x1
I0403 19:42:59.194381  9581 net.cpp:425] inception_4a/relu_1x1 <- inception_4a/1x1
I0403 19:42:59.194401  9581 net.cpp:386] inception_4a/relu_1x1 -> inception_4a/1x1 (in-place)
I0403 19:42:59.194584  9581 net.cpp:141] Setting up inception_4a/relu_1x1
I0403 19:42:59.194615  9581 net.cpp:148] Top shape: 24 192 14 14 (903168)
I0403 19:42:59.194633  9581 net.cpp:156] Memory required for data: 861623328
I0403 19:42:59.194649  9581 layer_factory.hpp:77] Creating layer inception_4a/3x3_reduce
I0403 19:42:59.194672  9581 net.cpp:91] Creating Layer inception_4a/3x3_reduce
I0403 19:42:59.194691  9581 net.cpp:425] inception_4a/3x3_reduce <- pool3/3x3_s2_pool3/3x3_s2_0_split_1
I0403 19:42:59.194716  9581 net.cpp:399] inception_4a/3x3_reduce -> inception_4a/3x3_reduce
I0403 19:42:59.196079  9581 net.cpp:141] Setting up inception_4a/3x3_reduce
I0403 19:42:59.196110  9581 net.cpp:148] Top shape: 24 96 14 14 (451584)
I0403 19:42:59.196127  9581 net.cpp:156] Memory required for data: 863429664
I0403 19:42:59.196158  9581 layer_factory.hpp:77] Creating layer inception_4a/relu_3x3_reduce
I0403 19:42:59.196180  9581 net.cpp:91] Creating Layer inception_4a/relu_3x3_reduce
I0403 19:42:59.196200  9581 net.cpp:425] inception_4a/relu_3x3_reduce <- inception_4a/3x3_reduce
I0403 19:42:59.196228  9581 net.cpp:386] inception_4a/relu_3x3_reduce -> inception_4a/3x3_reduce (in-place)
I0403 19:42:59.196413  9581 net.cpp:141] Setting up inception_4a/relu_3x3_reduce
I0403 19:42:59.196444  9581 net.cpp:148] Top shape: 24 96 14 14 (451584)
I0403 19:42:59.196461  9581 net.cpp:156] Memory required for data: 865236000
I0403 19:42:59.196477  9581 layer_factory.hpp:77] Creating layer inception_4a/3x3
I0403 19:42:59.196504  9581 net.cpp:91] Creating Layer inception_4a/3x3
I0403 19:42:59.196523  9581 net.cpp:425] inception_4a/3x3 <- inception_4a/3x3_reduce
I0403 19:42:59.196548  9581 net.cpp:399] inception_4a/3x3 -> inception_4a/3x3
I0403 19:42:59.199412  9581 net.cpp:141] Setting up inception_4a/3x3
I0403 19:42:59.199448  9581 net.cpp:148] Top shape: 24 208 14 14 (978432)
I0403 19:42:59.199465  9581 net.cpp:156] Memory required for data: 869149728
I0403 19:42:59.199486  9581 layer_factory.hpp:77] Creating layer inception_4a/relu_3x3
I0403 19:42:59.199509  9581 net.cpp:91] Creating Layer inception_4a/relu_3x3
I0403 19:42:59.199529  9581 net.cpp:425] inception_4a/relu_3x3 <- inception_4a/3x3
I0403 19:42:59.199548  9581 net.cpp:386] inception_4a/relu_3x3 -> inception_4a/3x3 (in-place)
I0403 19:42:59.199841  9581 net.cpp:141] Setting up inception_4a/relu_3x3
I0403 19:42:59.199869  9581 net.cpp:148] Top shape: 24 208 14 14 (978432)
I0403 19:42:59.199885  9581 net.cpp:156] Memory required for data: 873063456
I0403 19:42:59.199901  9581 layer_factory.hpp:77] Creating layer inception_4a/5x5_reduce
I0403 19:42:59.199930  9581 net.cpp:91] Creating Layer inception_4a/5x5_reduce
I0403 19:42:59.199949  9581 net.cpp:425] inception_4a/5x5_reduce <- pool3/3x3_s2_pool3/3x3_s2_0_split_2
I0403 19:42:59.199971  9581 net.cpp:399] inception_4a/5x5_reduce -> inception_4a/5x5_reduce
I0403 19:42:59.201055  9581 net.cpp:141] Setting up inception_4a/5x5_reduce
I0403 19:42:59.201084  9581 net.cpp:148] Top shape: 24 16 14 14 (75264)
I0403 19:42:59.201102  9581 net.cpp:156] Memory required for data: 873364512
I0403 19:42:59.201123  9581 layer_factory.hpp:77] Creating layer inception_4a/relu_5x5_reduce
I0403 19:42:59.201143  9581 net.cpp:91] Creating Layer inception_4a/relu_5x5_reduce
I0403 19:42:59.201161  9581 net.cpp:425] inception_4a/relu_5x5_reduce <- inception_4a/5x5_reduce
I0403 19:42:59.201179  9581 net.cpp:386] inception_4a/relu_5x5_reduce -> inception_4a/5x5_reduce (in-place)
I0403 19:42:59.201376  9581 net.cpp:141] Setting up inception_4a/relu_5x5_reduce
I0403 19:42:59.201405  9581 net.cpp:148] Top shape: 24 16 14 14 (75264)
I0403 19:42:59.201421  9581 net.cpp:156] Memory required for data: 873665568
I0403 19:42:59.201438  9581 layer_factory.hpp:77] Creating layer inception_4a/5x5
I0403 19:42:59.201462  9581 net.cpp:91] Creating Layer inception_4a/5x5
I0403 19:42:59.201483  9581 net.cpp:425] inception_4a/5x5 <- inception_4a/5x5_reduce
I0403 19:42:59.201508  9581 net.cpp:399] inception_4a/5x5 -> inception_4a/5x5
I0403 19:42:59.202671  9581 net.cpp:141] Setting up inception_4a/5x5
I0403 19:42:59.202699  9581 net.cpp:148] Top shape: 24 48 14 14 (225792)
I0403 19:42:59.202716  9581 net.cpp:156] Memory required for data: 874568736
I0403 19:42:59.202735  9581 layer_factory.hpp:77] Creating layer inception_4a/relu_5x5
I0403 19:42:59.202755  9581 net.cpp:91] Creating Layer inception_4a/relu_5x5
I0403 19:42:59.202772  9581 net.cpp:425] inception_4a/relu_5x5 <- inception_4a/5x5
I0403 19:42:59.202793  9581 net.cpp:386] inception_4a/relu_5x5 -> inception_4a/5x5 (in-place)
I0403 19:42:59.202982  9581 net.cpp:141] Setting up inception_4a/relu_5x5
I0403 19:42:59.203009  9581 net.cpp:148] Top shape: 24 48 14 14 (225792)
I0403 19:42:59.203027  9581 net.cpp:156] Memory required for data: 875471904
I0403 19:42:59.203042  9581 layer_factory.hpp:77] Creating layer inception_4a/pool
I0403 19:42:59.203068  9581 net.cpp:91] Creating Layer inception_4a/pool
I0403 19:42:59.203088  9581 net.cpp:425] inception_4a/pool <- pool3/3x3_s2_pool3/3x3_s2_0_split_3
I0403 19:42:59.203110  9581 net.cpp:399] inception_4a/pool -> inception_4a/pool
I0403 19:42:59.203181  9581 net.cpp:141] Setting up inception_4a/pool
I0403 19:42:59.203225  9581 net.cpp:148] Top shape: 24 480 14 14 (2257920)
I0403 19:42:59.203250  9581 net.cpp:156] Memory required for data: 884503584
I0403 19:42:59.203269  9581 layer_factory.hpp:77] Creating layer inception_4a/pool_proj
I0403 19:42:59.203294  9581 net.cpp:91] Creating Layer inception_4a/pool_proj
I0403 19:42:59.203315  9581 net.cpp:425] inception_4a/pool_proj <- inception_4a/pool
I0403 19:42:59.203337  9581 net.cpp:399] inception_4a/pool_proj -> inception_4a/pool_proj
I0403 19:42:59.204589  9581 net.cpp:141] Setting up inception_4a/pool_proj
I0403 19:42:59.204620  9581 net.cpp:148] Top shape: 24 64 14 14 (301056)
I0403 19:42:59.204671  9581 net.cpp:156] Memory required for data: 885707808
I0403 19:42:59.204694  9581 layer_factory.hpp:77] Creating layer inception_4a/relu_pool_proj
I0403 19:42:59.204725  9581 net.cpp:91] Creating Layer inception_4a/relu_pool_proj
I0403 19:42:59.204744  9581 net.cpp:425] inception_4a/relu_pool_proj <- inception_4a/pool_proj
I0403 19:42:59.204792  9581 net.cpp:386] inception_4a/relu_pool_proj -> inception_4a/pool_proj (in-place)
I0403 19:42:59.205101  9581 net.cpp:141] Setting up inception_4a/relu_pool_proj
I0403 19:42:59.205130  9581 net.cpp:148] Top shape: 24 64 14 14 (301056)
I0403 19:42:59.205147  9581 net.cpp:156] Memory required for data: 886912032
I0403 19:42:59.205164  9581 layer_factory.hpp:77] Creating layer inception_4a/output
I0403 19:42:59.205189  9581 net.cpp:91] Creating Layer inception_4a/output
I0403 19:42:59.205214  9581 net.cpp:425] inception_4a/output <- inception_4a/1x1
I0403 19:42:59.205234  9581 net.cpp:425] inception_4a/output <- inception_4a/3x3
I0403 19:42:59.205255  9581 net.cpp:425] inception_4a/output <- inception_4a/5x5
I0403 19:42:59.205272  9581 net.cpp:425] inception_4a/output <- inception_4a/pool_proj
I0403 19:42:59.205289  9581 net.cpp:399] inception_4a/output -> inception_4a/output
I0403 19:42:59.205343  9581 net.cpp:141] Setting up inception_4a/output
I0403 19:42:59.205369  9581 net.cpp:148] Top shape: 24 512 14 14 (2408448)
I0403 19:42:59.205386  9581 net.cpp:156] Memory required for data: 896545824
I0403 19:42:59.205402  9581 layer_factory.hpp:77] Creating layer inception_4a/output_inception_4a/output_0_split
I0403 19:42:59.205426  9581 net.cpp:91] Creating Layer inception_4a/output_inception_4a/output_0_split
I0403 19:42:59.205446  9581 net.cpp:425] inception_4a/output_inception_4a/output_0_split <- inception_4a/output
I0403 19:42:59.205469  9581 net.cpp:399] inception_4a/output_inception_4a/output_0_split -> inception_4a/output_inception_4a/output_0_split_0
I0403 19:42:59.205493  9581 net.cpp:399] inception_4a/output_inception_4a/output_0_split -> inception_4a/output_inception_4a/output_0_split_1
I0403 19:42:59.205516  9581 net.cpp:399] inception_4a/output_inception_4a/output_0_split -> inception_4a/output_inception_4a/output_0_split_2
I0403 19:42:59.205539  9581 net.cpp:399] inception_4a/output_inception_4a/output_0_split -> inception_4a/output_inception_4a/output_0_split_3
I0403 19:42:59.205562  9581 net.cpp:399] inception_4a/output_inception_4a/output_0_split -> inception_4a/output_inception_4a/output_0_split_4
I0403 19:42:59.205660  9581 net.cpp:141] Setting up inception_4a/output_inception_4a/output_0_split
I0403 19:42:59.205685  9581 net.cpp:148] Top shape: 24 512 14 14 (2408448)
I0403 19:42:59.205705  9581 net.cpp:148] Top shape: 24 512 14 14 (2408448)
I0403 19:42:59.205724  9581 net.cpp:148] Top shape: 24 512 14 14 (2408448)
I0403 19:42:59.205741  9581 net.cpp:148] Top shape: 24 512 14 14 (2408448)
I0403 19:42:59.205760  9581 net.cpp:148] Top shape: 24 512 14 14 (2408448)
I0403 19:42:59.205776  9581 net.cpp:156] Memory required for data: 944714784
I0403 19:42:59.205793  9581 layer_factory.hpp:77] Creating layer loss1/ave_pool
I0403 19:42:59.205813  9581 net.cpp:91] Creating Layer loss1/ave_pool
I0403 19:42:59.205832  9581 net.cpp:425] loss1/ave_pool <- inception_4a/output_inception_4a/output_0_split_0
I0403 19:42:59.205853  9581 net.cpp:399] loss1/ave_pool -> loss1/ave_pool
I0403 19:42:59.206075  9581 net.cpp:141] Setting up loss1/ave_pool
I0403 19:42:59.206104  9581 net.cpp:148] Top shape: 24 512 4 4 (196608)
I0403 19:42:59.206120  9581 net.cpp:156] Memory required for data: 945501216
I0403 19:42:59.206137  9581 layer_factory.hpp:77] Creating layer loss1/conv
I0403 19:42:59.206163  9581 net.cpp:91] Creating Layer loss1/conv
I0403 19:42:59.206182  9581 net.cpp:425] loss1/conv <- loss1/ave_pool
I0403 19:42:59.206207  9581 net.cpp:399] loss1/conv -> loss1/conv
I0403 19:42:59.207713  9581 net.cpp:141] Setting up loss1/conv
I0403 19:42:59.207746  9581 net.cpp:148] Top shape: 24 128 4 4 (49152)
I0403 19:42:59.207777  9581 net.cpp:156] Memory required for data: 945697824
I0403 19:42:59.207798  9581 layer_factory.hpp:77] Creating layer loss1/relu_conv
I0403 19:42:59.207826  9581 net.cpp:91] Creating Layer loss1/relu_conv
I0403 19:42:59.207844  9581 net.cpp:425] loss1/relu_conv <- loss1/conv
I0403 19:42:59.207864  9581 net.cpp:386] loss1/relu_conv -> loss1/conv (in-place)
I0403 19:42:59.208168  9581 net.cpp:141] Setting up loss1/relu_conv
I0403 19:42:59.208195  9581 net.cpp:148] Top shape: 24 128 4 4 (49152)
I0403 19:42:59.208216  9581 net.cpp:156] Memory required for data: 945894432
I0403 19:42:59.208238  9581 layer_factory.hpp:77] Creating layer loss1/fc
I0403 19:42:59.208269  9581 net.cpp:91] Creating Layer loss1/fc
I0403 19:42:59.208289  9581 net.cpp:425] loss1/fc <- loss1/conv
I0403 19:42:59.208312  9581 net.cpp:399] loss1/fc -> loss1/fc
I0403 19:42:59.227378  9581 net.cpp:141] Setting up loss1/fc
I0403 19:42:59.227444  9581 net.cpp:148] Top shape: 24 1024 (24576)
I0403 19:42:59.227461  9581 net.cpp:156] Memory required for data: 945992736
I0403 19:42:59.227483  9581 layer_factory.hpp:77] Creating layer loss1/relu_fc
I0403 19:42:59.227509  9581 net.cpp:91] Creating Layer loss1/relu_fc
I0403 19:42:59.227527  9581 net.cpp:425] loss1/relu_fc <- loss1/fc
I0403 19:42:59.227550  9581 net.cpp:386] loss1/relu_fc -> loss1/fc (in-place)
I0403 19:42:59.227804  9581 net.cpp:141] Setting up loss1/relu_fc
I0403 19:42:59.227835  9581 net.cpp:148] Top shape: 24 1024 (24576)
I0403 19:42:59.227852  9581 net.cpp:156] Memory required for data: 946091040
I0403 19:42:59.227869  9581 layer_factory.hpp:77] Creating layer loss1/drop_fc
I0403 19:42:59.227900  9581 net.cpp:91] Creating Layer loss1/drop_fc
I0403 19:42:59.227921  9581 net.cpp:425] loss1/drop_fc <- loss1/fc
I0403 19:42:59.227942  9581 net.cpp:386] loss1/drop_fc -> loss1/fc (in-place)
I0403 19:42:59.228005  9581 net.cpp:141] Setting up loss1/drop_fc
I0403 19:42:59.228031  9581 net.cpp:148] Top shape: 24 1024 (24576)
I0403 19:42:59.228049  9581 net.cpp:156] Memory required for data: 946189344
I0403 19:42:59.228065  9581 layer_factory.hpp:77] Creating layer loss1/classifier_plantvillage
I0403 19:42:59.228086  9581 net.cpp:91] Creating Layer loss1/classifier_plantvillage
I0403 19:42:59.228104  9581 net.cpp:425] loss1/classifier_plantvillage <- loss1/fc
I0403 19:42:59.228128  9581 net.cpp:399] loss1/classifier_plantvillage -> loss1/classifier_plantvillage
I0403 19:42:59.229203  9581 net.cpp:141] Setting up loss1/classifier_plantvillage
I0403 19:42:59.229238  9581 net.cpp:148] Top shape: 24 38 (912)
I0403 19:42:59.229256  9581 net.cpp:156] Memory required for data: 946192992
I0403 19:42:59.229277  9581 layer_factory.hpp:77] Creating layer loss1/classifier_plantvillage_loss1/classifier_plantvillage_0_split
I0403 19:42:59.229301  9581 net.cpp:91] Creating Layer loss1/classifier_plantvillage_loss1/classifier_plantvillage_0_split
I0403 19:42:59.229321  9581 net.cpp:425] loss1/classifier_plantvillage_loss1/classifier_plantvillage_0_split <- loss1/classifier_plantvillage
I0403 19:42:59.229341  9581 net.cpp:399] loss1/classifier_plantvillage_loss1/classifier_plantvillage_0_split -> loss1/classifier_plantvillage_loss1/classifier_plantvillage_0_split_0
I0403 19:42:59.229364  9581 net.cpp:399] loss1/classifier_plantvillage_loss1/classifier_plantvillage_0_split -> loss1/classifier_plantvillage_loss1/classifier_plantvillage_0_split_1
I0403 19:42:59.229387  9581 net.cpp:399] loss1/classifier_plantvillage_loss1/classifier_plantvillage_0_split -> loss1/classifier_plantvillage_loss1/classifier_plantvillage_0_split_2
I0403 19:42:59.229460  9581 net.cpp:141] Setting up loss1/classifier_plantvillage_loss1/classifier_plantvillage_0_split
I0403 19:42:59.229485  9581 net.cpp:148] Top shape: 24 38 (912)
I0403 19:42:59.229506  9581 net.cpp:148] Top shape: 24 38 (912)
I0403 19:42:59.229523  9581 net.cpp:148] Top shape: 24 38 (912)
I0403 19:42:59.229540  9581 net.cpp:156] Memory required for data: 946203936
I0403 19:42:59.229555  9581 layer_factory.hpp:77] Creating layer inception_4b/1x1
I0403 19:42:59.229583  9581 net.cpp:91] Creating Layer inception_4b/1x1
I0403 19:42:59.229629  9581 net.cpp:425] inception_4b/1x1 <- inception_4a/output_inception_4a/output_0_split_1
I0403 19:42:59.229653  9581 net.cpp:399] inception_4b/1x1 -> inception_4b/1x1
I0403 19:42:59.231458  9581 net.cpp:141] Setting up inception_4b/1x1
I0403 19:42:59.231488  9581 net.cpp:148] Top shape: 24 160 14 14 (752640)
I0403 19:42:59.231505  9581 net.cpp:156] Memory required for data: 949214496
I0403 19:42:59.231525  9581 layer_factory.hpp:77] Creating layer inception_4b/relu_1x1
I0403 19:42:59.231546  9581 net.cpp:91] Creating Layer inception_4b/relu_1x1
I0403 19:42:59.231565  9581 net.cpp:425] inception_4b/relu_1x1 <- inception_4b/1x1
I0403 19:42:59.231585  9581 net.cpp:386] inception_4b/relu_1x1 -> inception_4b/1x1 (in-place)
I0403 19:42:59.231777  9581 net.cpp:141] Setting up inception_4b/relu_1x1
I0403 19:42:59.231806  9581 net.cpp:148] Top shape: 24 160 14 14 (752640)
I0403 19:42:59.231823  9581 net.cpp:156] Memory required for data: 952225056
I0403 19:42:59.231839  9581 layer_factory.hpp:77] Creating layer inception_4b/3x3_reduce
I0403 19:42:59.231865  9581 net.cpp:91] Creating Layer inception_4b/3x3_reduce
I0403 19:42:59.231886  9581 net.cpp:425] inception_4b/3x3_reduce <- inception_4a/output_inception_4a/output_0_split_2
I0403 19:42:59.231910  9581 net.cpp:399] inception_4b/3x3_reduce -> inception_4b/3x3_reduce
I0403 19:42:59.233369  9581 net.cpp:141] Setting up inception_4b/3x3_reduce
I0403 19:42:59.233400  9581 net.cpp:148] Top shape: 24 112 14 14 (526848)
I0403 19:42:59.233419  9581 net.cpp:156] Memory required for data: 954332448
I0403 19:42:59.233441  9581 layer_factory.hpp:77] Creating layer inception_4b/relu_3x3_reduce
I0403 19:42:59.233460  9581 net.cpp:91] Creating Layer inception_4b/relu_3x3_reduce
I0403 19:42:59.233479  9581 net.cpp:425] inception_4b/relu_3x3_reduce <- inception_4b/3x3_reduce
I0403 19:42:59.233505  9581 net.cpp:386] inception_4b/relu_3x3_reduce -> inception_4b/3x3_reduce (in-place)
I0403 19:42:59.233808  9581 net.cpp:141] Setting up inception_4b/relu_3x3_reduce
I0403 19:42:59.233835  9581 net.cpp:148] Top shape: 24 112 14 14 (526848)
I0403 19:42:59.233851  9581 net.cpp:156] Memory required for data: 956439840
I0403 19:42:59.233867  9581 layer_factory.hpp:77] Creating layer inception_4b/3x3
I0403 19:42:59.233891  9581 net.cpp:91] Creating Layer inception_4b/3x3
I0403 19:42:59.233909  9581 net.cpp:425] inception_4b/3x3 <- inception_4b/3x3_reduce
I0403 19:42:59.233932  9581 net.cpp:399] inception_4b/3x3 -> inception_4b/3x3
I0403 19:42:59.237102  9581 net.cpp:141] Setting up inception_4b/3x3
I0403 19:42:59.237133  9581 net.cpp:148] Top shape: 24 224 14 14 (1053696)
I0403 19:42:59.237151  9581 net.cpp:156] Memory required for data: 960654624
I0403 19:42:59.237174  9581 layer_factory.hpp:77] Creating layer inception_4b/relu_3x3
I0403 19:42:59.237198  9581 net.cpp:91] Creating Layer inception_4b/relu_3x3
I0403 19:42:59.237224  9581 net.cpp:425] inception_4b/relu_3x3 <- inception_4b/3x3
I0403 19:42:59.237244  9581 net.cpp:386] inception_4b/relu_3x3 -> inception_4b/3x3 (in-place)
I0403 19:42:59.237437  9581 net.cpp:141] Setting up inception_4b/relu_3x3
I0403 19:42:59.237468  9581 net.cpp:148] Top shape: 24 224 14 14 (1053696)
I0403 19:42:59.237485  9581 net.cpp:156] Memory required for data: 964869408
I0403 19:42:59.237504  9581 layer_factory.hpp:77] Creating layer inception_4b/5x5_reduce
I0403 19:42:59.237529  9581 net.cpp:91] Creating Layer inception_4b/5x5_reduce
I0403 19:42:59.237550  9581 net.cpp:425] inception_4b/5x5_reduce <- inception_4a/output_inception_4a/output_0_split_3
I0403 19:42:59.237572  9581 net.cpp:399] inception_4b/5x5_reduce -> inception_4b/5x5_reduce
I0403 19:42:59.238739  9581 net.cpp:141] Setting up inception_4b/5x5_reduce
I0403 19:42:59.238775  9581 net.cpp:148] Top shape: 24 24 14 14 (112896)
I0403 19:42:59.238793  9581 net.cpp:156] Memory required for data: 965320992
I0403 19:42:59.238814  9581 layer_factory.hpp:77] Creating layer inception_4b/relu_5x5_reduce
I0403 19:42:59.238834  9581 net.cpp:91] Creating Layer inception_4b/relu_5x5_reduce
I0403 19:42:59.238881  9581 net.cpp:425] inception_4b/relu_5x5_reduce <- inception_4b/5x5_reduce
I0403 19:42:59.238903  9581 net.cpp:386] inception_4b/relu_5x5_reduce -> inception_4b/5x5_reduce (in-place)
I0403 19:42:59.239104  9581 net.cpp:141] Setting up inception_4b/relu_5x5_reduce
I0403 19:42:59.239133  9581 net.cpp:148] Top shape: 24 24 14 14 (112896)
I0403 19:42:59.239151  9581 net.cpp:156] Memory required for data: 965772576
I0403 19:42:59.239167  9581 layer_factory.hpp:77] Creating layer inception_4b/5x5
I0403 19:42:59.239192  9581 net.cpp:91] Creating Layer inception_4b/5x5
I0403 19:42:59.239217  9581 net.cpp:425] inception_4b/5x5 <- inception_4b/5x5_reduce
I0403 19:42:59.239241  9581 net.cpp:399] inception_4b/5x5 -> inception_4b/5x5
I0403 19:42:59.240597  9581 net.cpp:141] Setting up inception_4b/5x5
I0403 19:42:59.240639  9581 net.cpp:148] Top shape: 24 64 14 14 (301056)
I0403 19:42:59.240656  9581 net.cpp:156] Memory required for data: 966976800
I0403 19:42:59.240675  9581 layer_factory.hpp:77] Creating layer inception_4b/relu_5x5
I0403 19:42:59.240697  9581 net.cpp:91] Creating Layer inception_4b/relu_5x5
I0403 19:42:59.240716  9581 net.cpp:425] inception_4b/relu_5x5 <- inception_4b/5x5
I0403 19:42:59.240736  9581 net.cpp:386] inception_4b/relu_5x5 -> inception_4b/5x5 (in-place)
I0403 19:42:59.241044  9581 net.cpp:141] Setting up inception_4b/relu_5x5
I0403 19:42:59.261240  9581 net.cpp:148] Top shape: 24 64 14 14 (301056)
I0403 19:42:59.261313  9581 net.cpp:156] Memory required for data: 968181024
I0403 19:42:59.261358  9581 layer_factory.hpp:77] Creating layer inception_4b/pool
I0403 19:42:59.261422  9581 net.cpp:91] Creating Layer inception_4b/pool
I0403 19:42:59.261471  9581 net.cpp:425] inception_4b/pool <- inception_4a/output_inception_4a/output_0_split_4
I0403 19:42:59.261524  9581 net.cpp:399] inception_4b/pool -> inception_4b/pool
I0403 19:42:59.261771  9581 net.cpp:141] Setting up inception_4b/pool
I0403 19:42:59.261833  9581 net.cpp:148] Top shape: 24 512 14 14 (2408448)
I0403 19:42:59.261870  9581 net.cpp:156] Memory required for data: 977814816
I0403 19:42:59.261909  9581 layer_factory.hpp:77] Creating layer inception_4b/pool_proj
I0403 19:42:59.261970  9581 net.cpp:91] Creating Layer inception_4b/pool_proj
I0403 19:42:59.262015  9581 net.cpp:425] inception_4b/pool_proj <- inception_4b/pool
I0403 19:42:59.262068  9581 net.cpp:399] inception_4b/pool_proj -> inception_4b/pool_proj
I0403 19:42:59.264199  9581 net.cpp:141] Setting up inception_4b/pool_proj
I0403 19:42:59.264236  9581 net.cpp:148] Top shape: 24 64 14 14 (301056)
I0403 19:42:59.264255  9581 net.cpp:156] Memory required for data: 979019040
I0403 19:42:59.264276  9581 layer_factory.hpp:77] Creating layer inception_4b/relu_pool_proj
I0403 19:42:59.264294  9581 net.cpp:91] Creating Layer inception_4b/relu_pool_proj
I0403 19:42:59.264310  9581 net.cpp:425] inception_4b/relu_pool_proj <- inception_4b/pool_proj
I0403 19:42:59.264331  9581 net.cpp:386] inception_4b/relu_pool_proj -> inception_4b/pool_proj (in-place)
I0403 19:42:59.264526  9581 net.cpp:141] Setting up inception_4b/relu_pool_proj
I0403 19:42:59.264554  9581 net.cpp:148] Top shape: 24 64 14 14 (301056)
I0403 19:42:59.264569  9581 net.cpp:156] Memory required for data: 980223264
I0403 19:42:59.264585  9581 layer_factory.hpp:77] Creating layer inception_4b/output
I0403 19:42:59.264603  9581 net.cpp:91] Creating Layer inception_4b/output
I0403 19:42:59.264619  9581 net.cpp:425] inception_4b/output <- inception_4b/1x1
I0403 19:42:59.264638  9581 net.cpp:425] inception_4b/output <- inception_4b/3x3
I0403 19:42:59.264657  9581 net.cpp:425] inception_4b/output <- inception_4b/5x5
I0403 19:42:59.264673  9581 net.cpp:425] inception_4b/output <- inception_4b/pool_proj
I0403 19:42:59.264693  9581 net.cpp:399] inception_4b/output -> inception_4b/output
I0403 19:42:59.264742  9581 net.cpp:141] Setting up inception_4b/output
I0403 19:42:59.264770  9581 net.cpp:148] Top shape: 24 512 14 14 (2408448)
I0403 19:42:59.264786  9581 net.cpp:156] Memory required for data: 989857056
I0403 19:42:59.264823  9581 layer_factory.hpp:77] Creating layer inception_4b/output_inception_4b/output_0_split
I0403 19:42:59.264844  9581 net.cpp:91] Creating Layer inception_4b/output_inception_4b/output_0_split
I0403 19:42:59.264860  9581 net.cpp:425] inception_4b/output_inception_4b/output_0_split <- inception_4b/output
I0403 19:42:59.264879  9581 net.cpp:399] inception_4b/output_inception_4b/output_0_split -> inception_4b/output_inception_4b/output_0_split_0
I0403 19:42:59.264902  9581 net.cpp:399] inception_4b/output_inception_4b/output_0_split -> inception_4b/output_inception_4b/output_0_split_1
I0403 19:42:59.264925  9581 net.cpp:399] inception_4b/output_inception_4b/output_0_split -> inception_4b/output_inception_4b/output_0_split_2
I0403 19:42:59.264946  9581 net.cpp:399] inception_4b/output_inception_4b/output_0_split -> inception_4b/output_inception_4b/output_0_split_3
I0403 19:42:59.265038  9581 net.cpp:141] Setting up inception_4b/output_inception_4b/output_0_split
I0403 19:42:59.265063  9581 net.cpp:148] Top shape: 24 512 14 14 (2408448)
I0403 19:42:59.265079  9581 net.cpp:148] Top shape: 24 512 14 14 (2408448)
I0403 19:42:59.265095  9581 net.cpp:148] Top shape: 24 512 14 14 (2408448)
I0403 19:42:59.265112  9581 net.cpp:148] Top shape: 24 512 14 14 (2408448)
I0403 19:42:59.265126  9581 net.cpp:156] Memory required for data: 1028392224
I0403 19:42:59.265142  9581 layer_factory.hpp:77] Creating layer inception_4c/1x1
I0403 19:42:59.265166  9581 net.cpp:91] Creating Layer inception_4c/1x1
I0403 19:42:59.265185  9581 net.cpp:425] inception_4c/1x1 <- inception_4b/output_inception_4b/output_0_split_0
I0403 19:42:59.265205  9581 net.cpp:399] inception_4c/1x1 -> inception_4c/1x1
I0403 19:42:59.266763  9581 net.cpp:141] Setting up inception_4c/1x1
I0403 19:42:59.266794  9581 net.cpp:148] Top shape: 24 128 14 14 (602112)
I0403 19:42:59.266810  9581 net.cpp:156] Memory required for data: 1030800672
I0403 19:42:59.266830  9581 layer_factory.hpp:77] Creating layer inception_4c/relu_1x1
I0403 19:42:59.266849  9581 net.cpp:91] Creating Layer inception_4c/relu_1x1
I0403 19:42:59.266865  9581 net.cpp:425] inception_4c/relu_1x1 <- inception_4c/1x1
I0403 19:42:59.266885  9581 net.cpp:386] inception_4c/relu_1x1 -> inception_4c/1x1 (in-place)
I0403 19:42:59.267081  9581 net.cpp:141] Setting up inception_4c/relu_1x1
I0403 19:42:59.267108  9581 net.cpp:148] Top shape: 24 128 14 14 (602112)
I0403 19:42:59.267123  9581 net.cpp:156] Memory required for data: 1033209120
I0403 19:42:59.267139  9581 layer_factory.hpp:77] Creating layer inception_4c/3x3_reduce
I0403 19:42:59.267163  9581 net.cpp:91] Creating Layer inception_4c/3x3_reduce
I0403 19:42:59.267181  9581 net.cpp:425] inception_4c/3x3_reduce <- inception_4b/output_inception_4b/output_0_split_1
I0403 19:42:59.267204  9581 net.cpp:399] inception_4c/3x3_reduce -> inception_4c/3x3_reduce
I0403 19:42:59.269268  9581 net.cpp:141] Setting up inception_4c/3x3_reduce
I0403 19:42:59.269302  9581 net.cpp:148] Top shape: 24 128 14 14 (602112)
I0403 19:42:59.269320  9581 net.cpp:156] Memory required for data: 1035617568
I0403 19:42:59.269340  9581 layer_factory.hpp:77] Creating layer inception_4c/relu_3x3_reduce
I0403 19:42:59.269357  9581 net.cpp:91] Creating Layer inception_4c/relu_3x3_reduce
I0403 19:42:59.269374  9581 net.cpp:425] inception_4c/relu_3x3_reduce <- inception_4c/3x3_reduce
I0403 19:42:59.269393  9581 net.cpp:386] inception_4c/relu_3x3_reduce -> inception_4c/3x3_reduce (in-place)
I0403 19:42:59.269794  9581 net.cpp:141] Setting up inception_4c/relu_3x3_reduce
I0403 19:42:59.269825  9581 net.cpp:148] Top shape: 24 128 14 14 (602112)
I0403 19:42:59.269842  9581 net.cpp:156] Memory required for data: 1038026016
I0403 19:42:59.269858  9581 layer_factory.hpp:77] Creating layer inception_4c/3x3
I0403 19:42:59.269881  9581 net.cpp:91] Creating Layer inception_4c/3x3
I0403 19:42:59.269899  9581 net.cpp:425] inception_4c/3x3 <- inception_4c/3x3_reduce
I0403 19:42:59.269923  9581 net.cpp:399] inception_4c/3x3 -> inception_4c/3x3
I0403 19:42:59.273787  9581 net.cpp:141] Setting up inception_4c/3x3
I0403 19:42:59.273835  9581 net.cpp:148] Top shape: 24 256 14 14 (1204224)
I0403 19:42:59.273854  9581 net.cpp:156] Memory required for data: 1042842912
I0403 19:42:59.273890  9581 layer_factory.hpp:77] Creating layer inception_4c/relu_3x3
I0403 19:42:59.273911  9581 net.cpp:91] Creating Layer inception_4c/relu_3x3
I0403 19:42:59.273928  9581 net.cpp:425] inception_4c/relu_3x3 <- inception_4c/3x3
I0403 19:42:59.273948  9581 net.cpp:386] inception_4c/relu_3x3 -> inception_4c/3x3 (in-place)
I0403 19:42:59.274140  9581 net.cpp:141] Setting up inception_4c/relu_3x3
I0403 19:42:59.274170  9581 net.cpp:148] Top shape: 24 256 14 14 (1204224)
I0403 19:42:59.274186  9581 net.cpp:156] Memory required for data: 1047659808
I0403 19:42:59.274201  9581 layer_factory.hpp:77] Creating layer inception_4c/5x5_reduce
I0403 19:42:59.274230  9581 net.cpp:91] Creating Layer inception_4c/5x5_reduce
I0403 19:42:59.274250  9581 net.cpp:425] inception_4c/5x5_reduce <- inception_4b/output_inception_4b/output_0_split_2
I0403 19:42:59.274271  9581 net.cpp:399] inception_4c/5x5_reduce -> inception_4c/5x5_reduce
I0403 19:42:59.275431  9581 net.cpp:141] Setting up inception_4c/5x5_reduce
I0403 19:42:59.275463  9581 net.cpp:148] Top shape: 24 24 14 14 (112896)
I0403 19:42:59.275481  9581 net.cpp:156] Memory required for data: 1048111392
I0403 19:42:59.275502  9581 layer_factory.hpp:77] Creating layer inception_4c/relu_5x5_reduce
I0403 19:42:59.275522  9581 net.cpp:91] Creating Layer inception_4c/relu_5x5_reduce
I0403 19:42:59.275539  9581 net.cpp:425] inception_4c/relu_5x5_reduce <- inception_4c/5x5_reduce
I0403 19:42:59.275557  9581 net.cpp:386] inception_4c/relu_5x5_reduce -> inception_4c/5x5_reduce (in-place)
I0403 19:42:59.275754  9581 net.cpp:141] Setting up inception_4c/relu_5x5_reduce
I0403 19:42:59.275781  9581 net.cpp:148] Top shape: 24 24 14 14 (112896)
I0403 19:42:59.275797  9581 net.cpp:156] Memory required for data: 1048562976
I0403 19:42:59.275813  9581 layer_factory.hpp:77] Creating layer inception_4c/5x5
I0403 19:42:59.275837  9581 net.cpp:91] Creating Layer inception_4c/5x5
I0403 19:42:59.275856  9581 net.cpp:425] inception_4c/5x5 <- inception_4c/5x5_reduce
I0403 19:42:59.275878  9581 net.cpp:399] inception_4c/5x5 -> inception_4c/5x5
I0403 19:42:59.277199  9581 net.cpp:141] Setting up inception_4c/5x5
I0403 19:42:59.277232  9581 net.cpp:148] Top shape: 24 64 14 14 (301056)
I0403 19:42:59.277248  9581 net.cpp:156] Memory required for data: 1049767200
I0403 19:42:59.277268  9581 layer_factory.hpp:77] Creating layer inception_4c/relu_5x5
I0403 19:42:59.277287  9581 net.cpp:91] Creating Layer inception_4c/relu_5x5
I0403 19:42:59.277304  9581 net.cpp:425] inception_4c/relu_5x5 <- inception_4c/5x5
I0403 19:42:59.277325  9581 net.cpp:386] inception_4c/relu_5x5 -> inception_4c/5x5 (in-place)
I0403 19:42:59.277631  9581 net.cpp:141] Setting up inception_4c/relu_5x5
I0403 19:42:59.277660  9581 net.cpp:148] Top shape: 24 64 14 14 (301056)
I0403 19:42:59.277676  9581 net.cpp:156] Memory required for data: 1050971424
I0403 19:42:59.277693  9581 layer_factory.hpp:77] Creating layer inception_4c/pool
I0403 19:42:59.277711  9581 net.cpp:91] Creating Layer inception_4c/pool
I0403 19:42:59.277729  9581 net.cpp:425] inception_4c/pool <- inception_4b/output_inception_4b/output_0_split_3
I0403 19:42:59.277750  9581 net.cpp:399] inception_4c/pool -> inception_4c/pool
I0403 19:42:59.277819  9581 net.cpp:141] Setting up inception_4c/pool
I0403 19:42:59.277844  9581 net.cpp:148] Top shape: 24 512 14 14 (2408448)
I0403 19:42:59.277860  9581 net.cpp:156] Memory required for data: 1060605216
I0403 19:42:59.277875  9581 layer_factory.hpp:77] Creating layer inception_4c/pool_proj
I0403 19:42:59.277900  9581 net.cpp:91] Creating Layer inception_4c/pool_proj
I0403 19:42:59.277920  9581 net.cpp:425] inception_4c/pool_proj <- inception_4c/pool
I0403 19:42:59.277940  9581 net.cpp:399] inception_4c/pool_proj -> inception_4c/pool_proj
I0403 19:42:59.279249  9581 net.cpp:141] Setting up inception_4c/pool_proj
I0403 19:42:59.279281  9581 net.cpp:148] Top shape: 24 64 14 14 (301056)
I0403 19:42:59.279314  9581 net.cpp:156] Memory required for data: 1061809440
I0403 19:42:59.279333  9581 layer_factory.hpp:77] Creating layer inception_4c/relu_pool_proj
I0403 19:42:59.279353  9581 net.cpp:91] Creating Layer inception_4c/relu_pool_proj
I0403 19:42:59.279371  9581 net.cpp:425] inception_4c/relu_pool_proj <- inception_4c/pool_proj
I0403 19:42:59.279392  9581 net.cpp:386] inception_4c/relu_pool_proj -> inception_4c/pool_proj (in-place)
I0403 19:42:59.279587  9581 net.cpp:141] Setting up inception_4c/relu_pool_proj
I0403 19:42:59.279613  9581 net.cpp:148] Top shape: 24 64 14 14 (301056)
I0403 19:42:59.279629  9581 net.cpp:156] Memory required for data: 1063013664
I0403 19:42:59.279644  9581 layer_factory.hpp:77] Creating layer inception_4c/output
I0403 19:42:59.279664  9581 net.cpp:91] Creating Layer inception_4c/output
I0403 19:42:59.279680  9581 net.cpp:425] inception_4c/output <- inception_4c/1x1
I0403 19:42:59.279697  9581 net.cpp:425] inception_4c/output <- inception_4c/3x3
I0403 19:42:59.279713  9581 net.cpp:425] inception_4c/output <- inception_4c/5x5
I0403 19:42:59.279731  9581 net.cpp:425] inception_4c/output <- inception_4c/pool_proj
I0403 19:42:59.279750  9581 net.cpp:399] inception_4c/output -> inception_4c/output
I0403 19:42:59.279799  9581 net.cpp:141] Setting up inception_4c/output
I0403 19:42:59.279826  9581 net.cpp:148] Top shape: 24 512 14 14 (2408448)
I0403 19:42:59.279844  9581 net.cpp:156] Memory required for data: 1072647456
I0403 19:42:59.279858  9581 layer_factory.hpp:77] Creating layer inception_4c/output_inception_4c/output_0_split
I0403 19:42:59.279876  9581 net.cpp:91] Creating Layer inception_4c/output_inception_4c/output_0_split
I0403 19:42:59.279892  9581 net.cpp:425] inception_4c/output_inception_4c/output_0_split <- inception_4c/output
I0403 19:42:59.279911  9581 net.cpp:399] inception_4c/output_inception_4c/output_0_split -> inception_4c/output_inception_4c/output_0_split_0
I0403 19:42:59.279932  9581 net.cpp:399] inception_4c/output_inception_4c/output_0_split -> inception_4c/output_inception_4c/output_0_split_1
I0403 19:42:59.279955  9581 net.cpp:399] inception_4c/output_inception_4c/output_0_split -> inception_4c/output_inception_4c/output_0_split_2
I0403 19:42:59.279978  9581 net.cpp:399] inception_4c/output_inception_4c/output_0_split -> inception_4c/output_inception_4c/output_0_split_3
I0403 19:42:59.280074  9581 net.cpp:141] Setting up inception_4c/output_inception_4c/output_0_split
I0403 19:42:59.280099  9581 net.cpp:148] Top shape: 24 512 14 14 (2408448)
I0403 19:42:59.280117  9581 net.cpp:148] Top shape: 24 512 14 14 (2408448)
I0403 19:42:59.280134  9581 net.cpp:148] Top shape: 24 512 14 14 (2408448)
I0403 19:42:59.280150  9581 net.cpp:148] Top shape: 24 512 14 14 (2408448)
I0403 19:42:59.280165  9581 net.cpp:156] Memory required for data: 1111182624
I0403 19:42:59.280180  9581 layer_factory.hpp:77] Creating layer inception_4d/1x1
I0403 19:42:59.280203  9581 net.cpp:91] Creating Layer inception_4d/1x1
I0403 19:42:59.280227  9581 net.cpp:425] inception_4d/1x1 <- inception_4c/output_inception_4c/output_0_split_0
I0403 19:42:59.280251  9581 net.cpp:399] inception_4d/1x1 -> inception_4d/1x1
I0403 19:42:59.281731  9581 net.cpp:141] Setting up inception_4d/1x1
I0403 19:42:59.281761  9581 net.cpp:148] Top shape: 24 112 14 14 (526848)
I0403 19:42:59.281777  9581 net.cpp:156] Memory required for data: 1113290016
I0403 19:42:59.281797  9581 layer_factory.hpp:77] Creating layer inception_4d/relu_1x1
I0403 19:42:59.281819  9581 net.cpp:91] Creating Layer inception_4d/relu_1x1
I0403 19:42:59.281837  9581 net.cpp:425] inception_4d/relu_1x1 <- inception_4d/1x1
I0403 19:42:59.281855  9581 net.cpp:386] inception_4d/relu_1x1 -> inception_4d/1x1 (in-place)
I0403 19:42:59.282054  9581 net.cpp:141] Setting up inception_4d/relu_1x1
I0403 19:42:59.282083  9581 net.cpp:148] Top shape: 24 112 14 14 (526848)
I0403 19:42:59.282100  9581 net.cpp:156] Memory required for data: 1115397408
I0403 19:42:59.282116  9581 layer_factory.hpp:77] Creating layer inception_4d/3x3_reduce
I0403 19:42:59.282155  9581 net.cpp:91] Creating Layer inception_4d/3x3_reduce
I0403 19:42:59.282174  9581 net.cpp:425] inception_4d/3x3_reduce <- inception_4c/output_inception_4c/output_0_split_1
I0403 19:42:59.282194  9581 net.cpp:399] inception_4d/3x3_reduce -> inception_4d/3x3_reduce
I0403 19:42:59.283825  9581 net.cpp:141] Setting up inception_4d/3x3_reduce
I0403 19:42:59.283856  9581 net.cpp:148] Top shape: 24 144 14 14 (677376)
I0403 19:42:59.283874  9581 net.cpp:156] Memory required for data: 1118106912
I0403 19:42:59.283895  9581 layer_factory.hpp:77] Creating layer inception_4d/relu_3x3_reduce
I0403 19:42:59.283917  9581 net.cpp:91] Creating Layer inception_4d/relu_3x3_reduce
I0403 19:42:59.283936  9581 net.cpp:425] inception_4d/relu_3x3_reduce <- inception_4d/3x3_reduce
I0403 19:42:59.283954  9581 net.cpp:386] inception_4d/relu_3x3_reduce -> inception_4d/3x3_reduce (in-place)
I0403 19:42:59.284266  9581 net.cpp:141] Setting up inception_4d/relu_3x3_reduce
I0403 19:42:59.284296  9581 net.cpp:148] Top shape: 24 144 14 14 (677376)
I0403 19:42:59.284312  9581 net.cpp:156] Memory required for data: 1120816416
I0403 19:42:59.284327  9581 layer_factory.hpp:77] Creating layer inception_4d/3x3
I0403 19:42:59.284350  9581 net.cpp:91] Creating Layer inception_4d/3x3
I0403 19:42:59.284370  9581 net.cpp:425] inception_4d/3x3 <- inception_4d/3x3_reduce
I0403 19:42:59.284395  9581 net.cpp:399] inception_4d/3x3 -> inception_4d/3x3
I0403 19:42:59.288904  9581 net.cpp:141] Setting up inception_4d/3x3
I0403 19:42:59.288936  9581 net.cpp:148] Top shape: 24 288 14 14 (1354752)
I0403 19:42:59.288952  9581 net.cpp:156] Memory required for data: 1126235424
I0403 19:42:59.288971  9581 layer_factory.hpp:77] Creating layer inception_4d/relu_3x3
I0403 19:42:59.288993  9581 net.cpp:91] Creating Layer inception_4d/relu_3x3
I0403 19:42:59.289012  9581 net.cpp:425] inception_4d/relu_3x3 <- inception_4d/3x3
I0403 19:42:59.289031  9581 net.cpp:386] inception_4d/relu_3x3 -> inception_4d/3x3 (in-place)
I0403 19:42:59.289235  9581 net.cpp:141] Setting up inception_4d/relu_3x3
I0403 19:42:59.289265  9581 net.cpp:148] Top shape: 24 288 14 14 (1354752)
I0403 19:42:59.289281  9581 net.cpp:156] Memory required for data: 1131654432
I0403 19:42:59.289297  9581 layer_factory.hpp:77] Creating layer inception_4d/5x5_reduce
I0403 19:42:59.289321  9581 net.cpp:91] Creating Layer inception_4d/5x5_reduce
I0403 19:42:59.289340  9581 net.cpp:425] inception_4d/5x5_reduce <- inception_4c/output_inception_4c/output_0_split_2
I0403 19:42:59.289361  9581 net.cpp:399] inception_4d/5x5_reduce -> inception_4d/5x5_reduce
I0403 19:42:59.290580  9581 net.cpp:141] Setting up inception_4d/5x5_reduce
I0403 19:42:59.290609  9581 net.cpp:148] Top shape: 24 32 14 14 (150528)
I0403 19:42:59.290627  9581 net.cpp:156] Memory required for data: 1132256544
I0403 19:42:59.290647  9581 layer_factory.hpp:77] Creating layer inception_4d/relu_5x5_reduce
I0403 19:42:59.290668  9581 net.cpp:91] Creating Layer inception_4d/relu_5x5_reduce
I0403 19:42:59.290686  9581 net.cpp:425] inception_4d/relu_5x5_reduce <- inception_4d/5x5_reduce
I0403 19:42:59.290704  9581 net.cpp:386] inception_4d/relu_5x5_reduce -> inception_4d/5x5_reduce (in-place)
I0403 19:42:59.290900  9581 net.cpp:141] Setting up inception_4d/relu_5x5_reduce
I0403 19:42:59.290930  9581 net.cpp:148] Top shape: 24 32 14 14 (150528)
I0403 19:42:59.290946  9581 net.cpp:156] Memory required for data: 1132858656
I0403 19:42:59.290962  9581 layer_factory.hpp:77] Creating layer inception_4d/5x5
I0403 19:42:59.290987  9581 net.cpp:91] Creating Layer inception_4d/5x5
I0403 19:42:59.291005  9581 net.cpp:425] inception_4d/5x5 <- inception_4d/5x5_reduce
I0403 19:42:59.291025  9581 net.cpp:399] inception_4d/5x5 -> inception_4d/5x5
I0403 19:42:59.292603  9581 net.cpp:141] Setting up inception_4d/5x5
I0403 19:42:59.292635  9581 net.cpp:148] Top shape: 24 64 14 14 (301056)
I0403 19:42:59.292652  9581 net.cpp:156] Memory required for data: 1134062880
I0403 19:42:59.292672  9581 layer_factory.hpp:77] Creating layer inception_4d/relu_5x5
I0403 19:42:59.292707  9581 net.cpp:91] Creating Layer inception_4d/relu_5x5
I0403 19:42:59.292727  9581 net.cpp:425] inception_4d/relu_5x5 <- inception_4d/5x5
I0403 19:42:59.292748  9581 net.cpp:386] inception_4d/relu_5x5 -> inception_4d/5x5 (in-place)
I0403 19:42:59.293074  9581 net.cpp:141] Setting up inception_4d/relu_5x5
I0403 19:42:59.293104  9581 net.cpp:148] Top shape: 24 64 14 14 (301056)
I0403 19:42:59.293120  9581 net.cpp:156] Memory required for data: 1135267104
I0403 19:42:59.293136  9581 layer_factory.hpp:77] Creating layer inception_4d/pool
I0403 19:42:59.293155  9581 net.cpp:91] Creating Layer inception_4d/pool
I0403 19:42:59.293172  9581 net.cpp:425] inception_4d/pool <- inception_4c/output_inception_4c/output_0_split_3
I0403 19:42:59.293193  9581 net.cpp:399] inception_4d/pool -> inception_4d/pool
I0403 19:42:59.293277  9581 net.cpp:141] Setting up inception_4d/pool
I0403 19:42:59.293303  9581 net.cpp:148] Top shape: 24 512 14 14 (2408448)
I0403 19:42:59.293319  9581 net.cpp:156] Memory required for data: 1144900896
I0403 19:42:59.293335  9581 layer_factory.hpp:77] Creating layer inception_4d/pool_proj
I0403 19:42:59.293361  9581 net.cpp:91] Creating Layer inception_4d/pool_proj
I0403 19:42:59.293380  9581 net.cpp:425] inception_4d/pool_proj <- inception_4d/pool
I0403 19:42:59.293400  9581 net.cpp:399] inception_4d/pool_proj -> inception_4d/pool_proj
I0403 19:42:59.295337  9581 net.cpp:141] Setting up inception_4d/pool_proj
I0403 19:42:59.295368  9581 net.cpp:148] Top shape: 24 64 14 14 (301056)
I0403 19:42:59.295385  9581 net.cpp:156] Memory required for data: 1146105120
I0403 19:42:59.295404  9581 layer_factory.hpp:77] Creating layer inception_4d/relu_pool_proj
I0403 19:42:59.295426  9581 net.cpp:91] Creating Layer inception_4d/relu_pool_proj
I0403 19:42:59.295444  9581 net.cpp:425] inception_4d/relu_pool_proj <- inception_4d/pool_proj
I0403 19:42:59.295462  9581 net.cpp:386] inception_4d/relu_pool_proj -> inception_4d/pool_proj (in-place)
I0403 19:42:59.295658  9581 net.cpp:141] Setting up inception_4d/relu_pool_proj
I0403 19:42:59.295688  9581 net.cpp:148] Top shape: 24 64 14 14 (301056)
I0403 19:42:59.295704  9581 net.cpp:156] Memory required for data: 1147309344
I0403 19:42:59.295720  9581 layer_factory.hpp:77] Creating layer inception_4d/output
I0403 19:42:59.295738  9581 net.cpp:91] Creating Layer inception_4d/output
I0403 19:42:59.295755  9581 net.cpp:425] inception_4d/output <- inception_4d/1x1
I0403 19:42:59.295773  9581 net.cpp:425] inception_4d/output <- inception_4d/3x3
I0403 19:42:59.295789  9581 net.cpp:425] inception_4d/output <- inception_4d/5x5
I0403 19:42:59.295806  9581 net.cpp:425] inception_4d/output <- inception_4d/pool_proj
I0403 19:42:59.295826  9581 net.cpp:399] inception_4d/output -> inception_4d/output
I0403 19:42:59.295876  9581 net.cpp:141] Setting up inception_4d/output
I0403 19:42:59.295900  9581 net.cpp:148] Top shape: 24 528 14 14 (2483712)
I0403 19:42:59.295915  9581 net.cpp:156] Memory required for data: 1157244192
I0403 19:42:59.295931  9581 layer_factory.hpp:77] Creating layer inception_4d/output_inception_4d/output_0_split
I0403 19:42:59.295953  9581 net.cpp:91] Creating Layer inception_4d/output_inception_4d/output_0_split
I0403 19:42:59.295969  9581 net.cpp:425] inception_4d/output_inception_4d/output_0_split <- inception_4d/output
I0403 19:42:59.295989  9581 net.cpp:399] inception_4d/output_inception_4d/output_0_split -> inception_4d/output_inception_4d/output_0_split_0
I0403 19:42:59.296008  9581 net.cpp:399] inception_4d/output_inception_4d/output_0_split -> inception_4d/output_inception_4d/output_0_split_1
I0403 19:42:59.296036  9581 net.cpp:399] inception_4d/output_inception_4d/output_0_split -> inception_4d/output_inception_4d/output_0_split_2
I0403 19:42:59.296057  9581 net.cpp:399] inception_4d/output_inception_4d/output_0_split -> inception_4d/output_inception_4d/output_0_split_3
I0403 19:42:59.296078  9581 net.cpp:399] inception_4d/output_inception_4d/output_0_split -> inception_4d/output_inception_4d/output_0_split_4
I0403 19:42:59.296190  9581 net.cpp:141] Setting up inception_4d/output_inception_4d/output_0_split
I0403 19:42:59.296236  9581 net.cpp:148] Top shape: 24 528 14 14 (2483712)
I0403 19:42:59.296253  9581 net.cpp:148] Top shape: 24 528 14 14 (2483712)
I0403 19:42:59.296270  9581 net.cpp:148] Top shape: 24 528 14 14 (2483712)
I0403 19:42:59.296286  9581 net.cpp:148] Top shape: 24 528 14 14 (2483712)
I0403 19:42:59.296303  9581 net.cpp:148] Top shape: 24 528 14 14 (2483712)
I0403 19:42:59.296317  9581 net.cpp:156] Memory required for data: 1206918432
I0403 19:42:59.296332  9581 layer_factory.hpp:77] Creating layer loss2/ave_pool
I0403 19:42:59.296353  9581 net.cpp:91] Creating Layer loss2/ave_pool
I0403 19:42:59.296371  9581 net.cpp:425] loss2/ave_pool <- inception_4d/output_inception_4d/output_0_split_0
I0403 19:42:59.296391  9581 net.cpp:399] loss2/ave_pool -> loss2/ave_pool
I0403 19:42:59.296727  9581 net.cpp:141] Setting up loss2/ave_pool
I0403 19:42:59.296756  9581 net.cpp:148] Top shape: 24 528 4 4 (202752)
I0403 19:42:59.296772  9581 net.cpp:156] Memory required for data: 1207729440
I0403 19:42:59.296787  9581 layer_factory.hpp:77] Creating layer loss2/conv
I0403 19:42:59.296810  9581 net.cpp:91] Creating Layer loss2/conv
I0403 19:42:59.296830  9581 net.cpp:425] loss2/conv <- loss2/ave_pool
I0403 19:42:59.296852  9581 net.cpp:399] loss2/conv -> loss2/conv
I0403 19:42:59.298882  9581 net.cpp:141] Setting up loss2/conv
I0403 19:42:59.298916  9581 net.cpp:148] Top shape: 24 128 4 4 (49152)
I0403 19:42:59.298934  9581 net.cpp:156] Memory required for data: 1207926048
I0403 19:42:59.298954  9581 layer_factory.hpp:77] Creating layer loss2/relu_conv
I0403 19:42:59.298974  9581 net.cpp:91] Creating Layer loss2/relu_conv
I0403 19:42:59.298991  9581 net.cpp:425] loss2/relu_conv <- loss2/conv
I0403 19:42:59.299012  9581 net.cpp:386] loss2/relu_conv -> loss2/conv (in-place)
I0403 19:42:59.299324  9581 net.cpp:141] Setting up loss2/relu_conv
I0403 19:42:59.299353  9581 net.cpp:148] Top shape: 24 128 4 4 (49152)
I0403 19:42:59.299371  9581 net.cpp:156] Memory required for data: 1208122656
I0403 19:42:59.299386  9581 layer_factory.hpp:77] Creating layer loss2/fc
I0403 19:42:59.299407  9581 net.cpp:91] Creating Layer loss2/fc
I0403 19:42:59.299425  9581 net.cpp:425] loss2/fc <- loss2/conv
I0403 19:42:59.299448  9581 net.cpp:399] loss2/fc -> loss2/fc
I0403 19:42:59.318279  9581 net.cpp:141] Setting up loss2/fc
I0403 19:42:59.318325  9581 net.cpp:148] Top shape: 24 1024 (24576)
I0403 19:42:59.318341  9581 net.cpp:156] Memory required for data: 1208220960
I0403 19:42:59.318361  9581 layer_factory.hpp:77] Creating layer loss2/relu_fc
I0403 19:42:59.318385  9581 net.cpp:91] Creating Layer loss2/relu_fc
I0403 19:42:59.318404  9581 net.cpp:425] loss2/relu_fc <- loss2/fc
I0403 19:42:59.318423  9581 net.cpp:386] loss2/relu_fc -> loss2/fc (in-place)
I0403 19:42:59.318755  9581 net.cpp:141] Setting up loss2/relu_fc
I0403 19:42:59.318783  9581 net.cpp:148] Top shape: 24 1024 (24576)
I0403 19:42:59.318799  9581 net.cpp:156] Memory required for data: 1208319264
I0403 19:42:59.318815  9581 layer_factory.hpp:77] Creating layer loss2/drop_fc
I0403 19:42:59.318836  9581 net.cpp:91] Creating Layer loss2/drop_fc
I0403 19:42:59.318855  9581 net.cpp:425] loss2/drop_fc <- loss2/fc
I0403 19:42:59.318873  9581 net.cpp:386] loss2/drop_fc -> loss2/fc (in-place)
I0403 19:42:59.318929  9581 net.cpp:141] Setting up loss2/drop_fc
I0403 19:42:59.318953  9581 net.cpp:148] Top shape: 24 1024 (24576)
I0403 19:42:59.318969  9581 net.cpp:156] Memory required for data: 1208417568
I0403 19:42:59.318984  9581 layer_factory.hpp:77] Creating layer loss2/classifier_plantvillage
I0403 19:42:59.319008  9581 net.cpp:91] Creating Layer loss2/classifier_plantvillage
I0403 19:42:59.319026  9581 net.cpp:425] loss2/classifier_plantvillage <- loss2/fc
I0403 19:42:59.319046  9581 net.cpp:399] loss2/classifier_plantvillage -> loss2/classifier_plantvillage
I0403 19:42:59.319492  9581 net.cpp:141] Setting up loss2/classifier_plantvillage
I0403 19:42:59.319519  9581 net.cpp:148] Top shape: 24 38 (912)
I0403 19:42:59.319553  9581 net.cpp:156] Memory required for data: 1208421216
I0403 19:42:59.319573  9581 layer_factory.hpp:77] Creating layer loss2/classifier_plantvillage_loss2/classifier_plantvillage_0_split
I0403 19:42:59.319593  9581 net.cpp:91] Creating Layer loss2/classifier_plantvillage_loss2/classifier_plantvillage_0_split
I0403 19:42:59.319612  9581 net.cpp:425] loss2/classifier_plantvillage_loss2/classifier_plantvillage_0_split <- loss2/classifier_plantvillage
I0403 19:42:59.319633  9581 net.cpp:399] loss2/classifier_plantvillage_loss2/classifier_plantvillage_0_split -> loss2/classifier_plantvillage_loss2/classifier_plantvillage_0_split_0
I0403 19:42:59.319654  9581 net.cpp:399] loss2/classifier_plantvillage_loss2/classifier_plantvillage_0_split -> loss2/classifier_plantvillage_loss2/classifier_plantvillage_0_split_1
I0403 19:42:59.319676  9581 net.cpp:399] loss2/classifier_plantvillage_loss2/classifier_plantvillage_0_split -> loss2/classifier_plantvillage_loss2/classifier_plantvillage_0_split_2
I0403 19:42:59.319759  9581 net.cpp:141] Setting up loss2/classifier_plantvillage_loss2/classifier_plantvillage_0_split
I0403 19:42:59.319787  9581 net.cpp:148] Top shape: 24 38 (912)
I0403 19:42:59.319804  9581 net.cpp:148] Top shape: 24 38 (912)
I0403 19:42:59.319821  9581 net.cpp:148] Top shape: 24 38 (912)
I0403 19:42:59.319835  9581 net.cpp:156] Memory required for data: 1208432160
I0403 19:42:59.319850  9581 layer_factory.hpp:77] Creating layer inception_4e/1x1
I0403 19:42:59.319872  9581 net.cpp:91] Creating Layer inception_4e/1x1
I0403 19:42:59.319890  9581 net.cpp:425] inception_4e/1x1 <- inception_4d/output_inception_4d/output_0_split_1
I0403 19:42:59.319911  9581 net.cpp:399] inception_4e/1x1 -> inception_4e/1x1
I0403 19:42:59.321929  9581 net.cpp:141] Setting up inception_4e/1x1
I0403 19:42:59.321961  9581 net.cpp:148] Top shape: 24 256 14 14 (1204224)
I0403 19:42:59.321977  9581 net.cpp:156] Memory required for data: 1213249056
I0403 19:42:59.322000  9581 layer_factory.hpp:77] Creating layer inception_4e/relu_1x1
I0403 19:42:59.322018  9581 net.cpp:91] Creating Layer inception_4e/relu_1x1
I0403 19:42:59.322036  9581 net.cpp:425] inception_4e/relu_1x1 <- inception_4e/1x1
I0403 19:42:59.322058  9581 net.cpp:386] inception_4e/relu_1x1 -> inception_4e/1x1 (in-place)
I0403 19:42:59.322396  9581 net.cpp:141] Setting up inception_4e/relu_1x1
I0403 19:42:59.322427  9581 net.cpp:148] Top shape: 24 256 14 14 (1204224)
I0403 19:42:59.322443  9581 net.cpp:156] Memory required for data: 1218065952
I0403 19:42:59.322460  9581 layer_factory.hpp:77] Creating layer inception_4e/3x3_reduce
I0403 19:42:59.322484  9581 net.cpp:91] Creating Layer inception_4e/3x3_reduce
I0403 19:42:59.322504  9581 net.cpp:425] inception_4e/3x3_reduce <- inception_4d/output_inception_4d/output_0_split_2
I0403 19:42:59.322526  9581 net.cpp:399] inception_4e/3x3_reduce -> inception_4e/3x3_reduce
I0403 19:42:59.324834  9581 net.cpp:141] Setting up inception_4e/3x3_reduce
I0403 19:42:59.324869  9581 net.cpp:148] Top shape: 24 160 14 14 (752640)
I0403 19:42:59.324887  9581 net.cpp:156] Memory required for data: 1221076512
I0403 19:42:59.324908  9581 layer_factory.hpp:77] Creating layer inception_4e/relu_3x3_reduce
I0403 19:42:59.324928  9581 net.cpp:91] Creating Layer inception_4e/relu_3x3_reduce
I0403 19:42:59.324944  9581 net.cpp:425] inception_4e/relu_3x3_reduce <- inception_4e/3x3_reduce
I0403 19:42:59.324965  9581 net.cpp:386] inception_4e/relu_3x3_reduce -> inception_4e/3x3_reduce (in-place)
I0403 19:42:59.325166  9581 net.cpp:141] Setting up inception_4e/relu_3x3_reduce
I0403 19:42:59.325194  9581 net.cpp:148] Top shape: 24 160 14 14 (752640)
I0403 19:42:59.325219  9581 net.cpp:156] Memory required for data: 1224087072
I0403 19:42:59.325237  9581 layer_factory.hpp:77] Creating layer inception_4e/3x3
I0403 19:42:59.325260  9581 net.cpp:91] Creating Layer inception_4e/3x3
I0403 19:42:59.325278  9581 net.cpp:425] inception_4e/3x3 <- inception_4e/3x3_reduce
I0403 19:42:59.325302  9581 net.cpp:399] inception_4e/3x3 -> inception_4e/3x3
I0403 19:42:59.330646  9581 net.cpp:141] Setting up inception_4e/3x3
I0403 19:42:59.330693  9581 net.cpp:148] Top shape: 24 320 14 14 (1505280)
I0403 19:42:59.330710  9581 net.cpp:156] Memory required for data: 1230108192
I0403 19:42:59.330730  9581 layer_factory.hpp:77] Creating layer inception_4e/relu_3x3
I0403 19:42:59.330752  9581 net.cpp:91] Creating Layer inception_4e/relu_3x3
I0403 19:42:59.330771  9581 net.cpp:425] inception_4e/relu_3x3 <- inception_4e/3x3
I0403 19:42:59.330790  9581 net.cpp:386] inception_4e/relu_3x3 -> inception_4e/3x3 (in-place)
I0403 19:42:59.331111  9581 net.cpp:141] Setting up inception_4e/relu_3x3
I0403 19:42:59.331140  9581 net.cpp:148] Top shape: 24 320 14 14 (1505280)
I0403 19:42:59.331156  9581 net.cpp:156] Memory required for data: 1236129312
I0403 19:42:59.331171  9581 layer_factory.hpp:77] Creating layer inception_4e/5x5_reduce
I0403 19:42:59.331197  9581 net.cpp:91] Creating Layer inception_4e/5x5_reduce
I0403 19:42:59.331223  9581 net.cpp:425] inception_4e/5x5_reduce <- inception_4d/output_inception_4d/output_0_split_3
I0403 19:42:59.331250  9581 net.cpp:399] inception_4e/5x5_reduce -> inception_4e/5x5_reduce
I0403 19:42:59.332419  9581 net.cpp:141] Setting up inception_4e/5x5_reduce
I0403 19:42:59.332449  9581 net.cpp:148] Top shape: 24 32 14 14 (150528)
I0403 19:42:59.332465  9581 net.cpp:156] Memory required for data: 1236731424
I0403 19:42:59.332484  9581 layer_factory.hpp:77] Creating layer inception_4e/relu_5x5_reduce
I0403 19:42:59.332504  9581 net.cpp:91] Creating Layer inception_4e/relu_5x5_reduce
I0403 19:42:59.332520  9581 net.cpp:425] inception_4e/relu_5x5_reduce <- inception_4e/5x5_reduce
I0403 19:42:59.332541  9581 net.cpp:386] inception_4e/relu_5x5_reduce -> inception_4e/5x5_reduce (in-place)
I0403 19:42:59.332859  9581 net.cpp:141] Setting up inception_4e/relu_5x5_reduce
I0403 19:42:59.332887  9581 net.cpp:148] Top shape: 24 32 14 14 (150528)
I0403 19:42:59.332903  9581 net.cpp:156] Memory required for data: 1237333536
I0403 19:42:59.332919  9581 layer_factory.hpp:77] Creating layer inception_4e/5x5
I0403 19:42:59.332960  9581 net.cpp:91] Creating Layer inception_4e/5x5
I0403 19:42:59.332980  9581 net.cpp:425] inception_4e/5x5 <- inception_4e/5x5_reduce
I0403 19:42:59.333000  9581 net.cpp:399] inception_4e/5x5 -> inception_4e/5x5
I0403 19:42:59.335049  9581 net.cpp:141] Setting up inception_4e/5x5
I0403 19:42:59.335083  9581 net.cpp:148] Top shape: 24 128 14 14 (602112)
I0403 19:42:59.335099  9581 net.cpp:156] Memory required for data: 1239741984
I0403 19:42:59.335119  9581 layer_factory.hpp:77] Creating layer inception_4e/relu_5x5
I0403 19:42:59.335137  9581 net.cpp:91] Creating Layer inception_4e/relu_5x5
I0403 19:42:59.335155  9581 net.cpp:425] inception_4e/relu_5x5 <- inception_4e/5x5
I0403 19:42:59.335173  9581 net.cpp:386] inception_4e/relu_5x5 -> inception_4e/5x5 (in-place)
I0403 19:42:59.335392  9581 net.cpp:141] Setting up inception_4e/relu_5x5
I0403 19:42:59.335422  9581 net.cpp:148] Top shape: 24 128 14 14 (602112)
I0403 19:42:59.335438  9581 net.cpp:156] Memory required for data: 1242150432
I0403 19:42:59.335454  9581 layer_factory.hpp:77] Creating layer inception_4e/pool
I0403 19:42:59.335474  9581 net.cpp:91] Creating Layer inception_4e/pool
I0403 19:42:59.335490  9581 net.cpp:425] inception_4e/pool <- inception_4d/output_inception_4d/output_0_split_4
I0403 19:42:59.335511  9581 net.cpp:399] inception_4e/pool -> inception_4e/pool
I0403 19:42:59.335587  9581 net.cpp:141] Setting up inception_4e/pool
I0403 19:42:59.335616  9581 net.cpp:148] Top shape: 24 528 14 14 (2483712)
I0403 19:42:59.335633  9581 net.cpp:156] Memory required for data: 1252085280
I0403 19:42:59.335649  9581 layer_factory.hpp:77] Creating layer inception_4e/pool_proj
I0403 19:42:59.335671  9581 net.cpp:91] Creating Layer inception_4e/pool_proj
I0403 19:42:59.335690  9581 net.cpp:425] inception_4e/pool_proj <- inception_4e/pool
I0403 19:42:59.335711  9581 net.cpp:399] inception_4e/pool_proj -> inception_4e/pool_proj
I0403 19:42:59.337323  9581 net.cpp:141] Setting up inception_4e/pool_proj
I0403 19:42:59.337365  9581 net.cpp:148] Top shape: 24 128 14 14 (602112)
I0403 19:42:59.337383  9581 net.cpp:156] Memory required for data: 1254493728
I0403 19:42:59.337402  9581 layer_factory.hpp:77] Creating layer inception_4e/relu_pool_proj
I0403 19:42:59.337425  9581 net.cpp:91] Creating Layer inception_4e/relu_pool_proj
I0403 19:42:59.337442  9581 net.cpp:425] inception_4e/relu_pool_proj <- inception_4e/pool_proj
I0403 19:42:59.337461  9581 net.cpp:386] inception_4e/relu_pool_proj -> inception_4e/pool_proj (in-place)
I0403 19:42:59.337831  9581 net.cpp:141] Setting up inception_4e/relu_pool_proj
I0403 19:42:59.337859  9581 net.cpp:148] Top shape: 24 128 14 14 (602112)
I0403 19:42:59.337877  9581 net.cpp:156] Memory required for data: 1256902176
I0403 19:42:59.337893  9581 layer_factory.hpp:77] Creating layer inception_4e/output
I0403 19:42:59.337913  9581 net.cpp:91] Creating Layer inception_4e/output
I0403 19:42:59.337930  9581 net.cpp:425] inception_4e/output <- inception_4e/1x1
I0403 19:42:59.337949  9581 net.cpp:425] inception_4e/output <- inception_4e/3x3
I0403 19:42:59.337965  9581 net.cpp:425] inception_4e/output <- inception_4e/5x5
I0403 19:42:59.337982  9581 net.cpp:425] inception_4e/output <- inception_4e/pool_proj
I0403 19:42:59.338001  9581 net.cpp:399] inception_4e/output -> inception_4e/output
I0403 19:42:59.338055  9581 net.cpp:141] Setting up inception_4e/output
I0403 19:42:59.338079  9581 net.cpp:148] Top shape: 24 832 14 14 (3913728)
I0403 19:42:59.338095  9581 net.cpp:156] Memory required for data: 1272557088
I0403 19:42:59.338110  9581 layer_factory.hpp:77] Creating layer pool4/3x3_s2
I0403 19:42:59.338129  9581 net.cpp:91] Creating Layer pool4/3x3_s2
I0403 19:42:59.338148  9581 net.cpp:425] pool4/3x3_s2 <- inception_4e/output
I0403 19:42:59.338168  9581 net.cpp:399] pool4/3x3_s2 -> pool4/3x3_s2
I0403 19:42:59.338248  9581 net.cpp:141] Setting up pool4/3x3_s2
I0403 19:42:59.338275  9581 net.cpp:148] Top shape: 24 832 7 7 (978432)
I0403 19:42:59.338290  9581 net.cpp:156] Memory required for data: 1276470816
I0403 19:42:59.338306  9581 layer_factory.hpp:77] Creating layer pool4/3x3_s2_pool4/3x3_s2_0_split
I0403 19:42:59.338325  9581 net.cpp:91] Creating Layer pool4/3x3_s2_pool4/3x3_s2_0_split
I0403 19:42:59.338341  9581 net.cpp:425] pool4/3x3_s2_pool4/3x3_s2_0_split <- pool4/3x3_s2
I0403 19:42:59.338361  9581 net.cpp:399] pool4/3x3_s2_pool4/3x3_s2_0_split -> pool4/3x3_s2_pool4/3x3_s2_0_split_0
I0403 19:42:59.338383  9581 net.cpp:399] pool4/3x3_s2_pool4/3x3_s2_0_split -> pool4/3x3_s2_pool4/3x3_s2_0_split_1
I0403 19:42:59.338404  9581 net.cpp:399] pool4/3x3_s2_pool4/3x3_s2_0_split -> pool4/3x3_s2_pool4/3x3_s2_0_split_2
I0403 19:42:59.338425  9581 net.cpp:399] pool4/3x3_s2_pool4/3x3_s2_0_split -> pool4/3x3_s2_pool4/3x3_s2_0_split_3
I0403 19:42:59.338526  9581 net.cpp:141] Setting up pool4/3x3_s2_pool4/3x3_s2_0_split
I0403 19:42:59.338549  9581 net.cpp:148] Top shape: 24 832 7 7 (978432)
I0403 19:42:59.338567  9581 net.cpp:148] Top shape: 24 832 7 7 (978432)
I0403 19:42:59.338583  9581 net.cpp:148] Top shape: 24 832 7 7 (978432)
I0403 19:42:59.338599  9581 net.cpp:148] Top shape: 24 832 7 7 (978432)
I0403 19:42:59.338614  9581 net.cpp:156] Memory required for data: 1292125728
I0403 19:42:59.338630  9581 layer_factory.hpp:77] Creating layer inception_5a/1x1
I0403 19:42:59.338654  9581 net.cpp:91] Creating Layer inception_5a/1x1
I0403 19:42:59.338673  9581 net.cpp:425] inception_5a/1x1 <- pool4/3x3_s2_pool4/3x3_s2_0_split_0
I0403 19:42:59.338693  9581 net.cpp:399] inception_5a/1x1 -> inception_5a/1x1
I0403 19:42:59.341737  9581 net.cpp:141] Setting up inception_5a/1x1
I0403 19:42:59.341773  9581 net.cpp:148] Top shape: 24 256 7 7 (301056)
I0403 19:42:59.341791  9581 net.cpp:156] Memory required for data: 1293329952
I0403 19:42:59.341811  9581 layer_factory.hpp:77] Creating layer inception_5a/relu_1x1
I0403 19:42:59.341830  9581 net.cpp:91] Creating Layer inception_5a/relu_1x1
I0403 19:42:59.341848  9581 net.cpp:425] inception_5a/relu_1x1 <- inception_5a/1x1
I0403 19:42:59.341869  9581 net.cpp:386] inception_5a/relu_1x1 -> inception_5a/1x1 (in-place)
I0403 19:42:59.342200  9581 net.cpp:141] Setting up inception_5a/relu_1x1
I0403 19:42:59.342243  9581 net.cpp:148] Top shape: 24 256 7 7 (301056)
I0403 19:42:59.342262  9581 net.cpp:156] Memory required for data: 1294534176
I0403 19:42:59.342278  9581 layer_factory.hpp:77] Creating layer inception_5a/3x3_reduce
I0403 19:42:59.342303  9581 net.cpp:91] Creating Layer inception_5a/3x3_reduce
I0403 19:42:59.342321  9581 net.cpp:425] inception_5a/3x3_reduce <- pool4/3x3_s2_pool4/3x3_s2_0_split_1
I0403 19:42:59.342341  9581 net.cpp:399] inception_5a/3x3_reduce -> inception_5a/3x3_reduce
I0403 19:42:59.345007  9581 net.cpp:141] Setting up inception_5a/3x3_reduce
I0403 19:42:59.345039  9581 net.cpp:148] Top shape: 24 160 7 7 (188160)
I0403 19:42:59.345057  9581 net.cpp:156] Memory required for data: 1295286816
I0403 19:42:59.345075  9581 layer_factory.hpp:77] Creating layer inception_5a/relu_3x3_reduce
I0403 19:42:59.345096  9581 net.cpp:91] Creating Layer inception_5a/relu_3x3_reduce
I0403 19:42:59.345114  9581 net.cpp:425] inception_5a/relu_3x3_reduce <- inception_5a/3x3_reduce
I0403 19:42:59.345134  9581 net.cpp:386] inception_5a/relu_3x3_reduce -> inception_5a/3x3_reduce (in-place)
I0403 19:42:59.345342  9581 net.cpp:141] Setting up inception_5a/relu_3x3_reduce
I0403 19:42:59.345371  9581 net.cpp:148] Top shape: 24 160 7 7 (188160)
I0403 19:42:59.345387  9581 net.cpp:156] Memory required for data: 1296039456
I0403 19:42:59.345402  9581 layer_factory.hpp:77] Creating layer inception_5a/3x3
I0403 19:42:59.345427  9581 net.cpp:91] Creating Layer inception_5a/3x3
I0403 19:42:59.345446  9581 net.cpp:425] inception_5a/3x3 <- inception_5a/3x3_reduce
I0403 19:42:59.345469  9581 net.cpp:399] inception_5a/3x3 -> inception_5a/3x3
I0403 19:42:59.350821  9581 net.cpp:141] Setting up inception_5a/3x3
I0403 19:42:59.350855  9581 net.cpp:148] Top shape: 24 320 7 7 (376320)
I0403 19:42:59.350873  9581 net.cpp:156] Memory required for data: 1297544736
I0403 19:42:59.350893  9581 layer_factory.hpp:77] Creating layer inception_5a/relu_3x3
I0403 19:42:59.350913  9581 net.cpp:91] Creating Layer inception_5a/relu_3x3
I0403 19:42:59.350929  9581 net.cpp:425] inception_5a/relu_3x3 <- inception_5a/3x3
I0403 19:42:59.350949  9581 net.cpp:386] inception_5a/relu_3x3 -> inception_5a/3x3 (in-place)
I0403 19:42:59.351270  9581 net.cpp:141] Setting up inception_5a/relu_3x3
I0403 19:42:59.351301  9581 net.cpp:148] Top shape: 24 320 7 7 (376320)
I0403 19:42:59.351318  9581 net.cpp:156] Memory required for data: 1299050016
I0403 19:42:59.351335  9581 layer_factory.hpp:77] Creating layer inception_5a/5x5_reduce
I0403 19:42:59.351358  9581 net.cpp:91] Creating Layer inception_5a/5x5_reduce
I0403 19:42:59.351377  9581 net.cpp:425] inception_5a/5x5_reduce <- pool4/3x3_s2_pool4/3x3_s2_0_split_2
I0403 19:42:59.351398  9581 net.cpp:399] inception_5a/5x5_reduce -> inception_5a/5x5_reduce
I0403 19:42:59.352650  9581 net.cpp:141] Setting up inception_5a/5x5_reduce
I0403 19:42:59.352682  9581 net.cpp:148] Top shape: 24 32 7 7 (37632)
I0403 19:42:59.352700  9581 net.cpp:156] Memory required for data: 1299200544
I0403 19:42:59.352720  9581 layer_factory.hpp:77] Creating layer inception_5a/relu_5x5_reduce
I0403 19:42:59.352740  9581 net.cpp:91] Creating Layer inception_5a/relu_5x5_reduce
I0403 19:42:59.352756  9581 net.cpp:425] inception_5a/relu_5x5_reduce <- inception_5a/5x5_reduce
I0403 19:42:59.352777  9581 net.cpp:386] inception_5a/relu_5x5_reduce -> inception_5a/5x5_reduce (in-place)
I0403 19:42:59.353097  9581 net.cpp:141] Setting up inception_5a/relu_5x5_reduce
I0403 19:42:59.353127  9581 net.cpp:148] Top shape: 24 32 7 7 (37632)
I0403 19:42:59.353144  9581 net.cpp:156] Memory required for data: 1299351072
I0403 19:42:59.353160  9581 layer_factory.hpp:77] Creating layer inception_5a/5x5
I0403 19:42:59.353183  9581 net.cpp:91] Creating Layer inception_5a/5x5
I0403 19:42:59.353202  9581 net.cpp:425] inception_5a/5x5 <- inception_5a/5x5_reduce
I0403 19:42:59.353238  9581 net.cpp:399] inception_5a/5x5 -> inception_5a/5x5
I0403 19:42:59.355161  9581 net.cpp:141] Setting up inception_5a/5x5
I0403 19:42:59.355206  9581 net.cpp:148] Top shape: 24 128 7 7 (150528)
I0403 19:42:59.355229  9581 net.cpp:156] Memory required for data: 1299953184
I0403 19:42:59.355248  9581 layer_factory.hpp:77] Creating layer inception_5a/relu_5x5
I0403 19:42:59.355268  9581 net.cpp:91] Creating Layer inception_5a/relu_5x5
I0403 19:42:59.355283  9581 net.cpp:425] inception_5a/relu_5x5 <- inception_5a/5x5
I0403 19:42:59.355301  9581 net.cpp:386] inception_5a/relu_5x5 -> inception_5a/5x5 (in-place)
I0403 19:42:59.355514  9581 net.cpp:141] Setting up inception_5a/relu_5x5
I0403 19:42:59.355540  9581 net.cpp:148] Top shape: 24 128 7 7 (150528)
I0403 19:42:59.355556  9581 net.cpp:156] Memory required for data: 1300555296
I0403 19:42:59.355571  9581 layer_factory.hpp:77] Creating layer inception_5a/pool
I0403 19:42:59.355589  9581 net.cpp:91] Creating Layer inception_5a/pool
I0403 19:42:59.355607  9581 net.cpp:425] inception_5a/pool <- pool4/3x3_s2_pool4/3x3_s2_0_split_3
I0403 19:42:59.355628  9581 net.cpp:399] inception_5a/pool -> inception_5a/pool
I0403 19:42:59.355703  9581 net.cpp:141] Setting up inception_5a/pool
I0403 19:42:59.355731  9581 net.cpp:148] Top shape: 24 832 7 7 (978432)
I0403 19:42:59.355747  9581 net.cpp:156] Memory required for data: 1304469024
I0403 19:42:59.355762  9581 layer_factory.hpp:77] Creating layer inception_5a/pool_proj
I0403 19:42:59.355785  9581 net.cpp:91] Creating Layer inception_5a/pool_proj
I0403 19:42:59.355805  9581 net.cpp:425] inception_5a/pool_proj <- inception_5a/pool
I0403 19:42:59.355825  9581 net.cpp:399] inception_5a/pool_proj -> inception_5a/pool_proj
I0403 19:42:59.358307  9581 net.cpp:141] Setting up inception_5a/pool_proj
I0403 19:42:59.358341  9581 net.cpp:148] Top shape: 24 128 7 7 (150528)
I0403 19:42:59.358358  9581 net.cpp:156] Memory required for data: 1305071136
I0403 19:42:59.358377  9581 layer_factory.hpp:77] Creating layer inception_5a/relu_pool_proj
I0403 19:42:59.358400  9581 net.cpp:91] Creating Layer inception_5a/relu_pool_proj
I0403 19:42:59.358419  9581 net.cpp:425] inception_5a/relu_pool_proj <- inception_5a/pool_proj
I0403 19:42:59.358439  9581 net.cpp:386] inception_5a/relu_pool_proj -> inception_5a/pool_proj (in-place)
I0403 19:42:59.358755  9581 net.cpp:141] Setting up inception_5a/relu_pool_proj
I0403 19:42:59.358785  9581 net.cpp:148] Top shape: 24 128 7 7 (150528)
I0403 19:42:59.358801  9581 net.cpp:156] Memory required for data: 1305673248
I0403 19:42:59.358816  9581 layer_factory.hpp:77] Creating layer inception_5a/output
I0403 19:42:59.358837  9581 net.cpp:91] Creating Layer inception_5a/output
I0403 19:42:59.358855  9581 net.cpp:425] inception_5a/output <- inception_5a/1x1
I0403 19:42:59.358872  9581 net.cpp:425] inception_5a/output <- inception_5a/3x3
I0403 19:42:59.358889  9581 net.cpp:425] inception_5a/output <- inception_5a/5x5
I0403 19:42:59.358906  9581 net.cpp:425] inception_5a/output <- inception_5a/pool_proj
I0403 19:42:59.358923  9581 net.cpp:399] inception_5a/output -> inception_5a/output
I0403 19:42:59.358979  9581 net.cpp:141] Setting up inception_5a/output
I0403 19:42:59.359004  9581 net.cpp:148] Top shape: 24 832 7 7 (978432)
I0403 19:42:59.359019  9581 net.cpp:156] Memory required for data: 1309586976
I0403 19:42:59.359035  9581 layer_factory.hpp:77] Creating layer inception_5a/output_inception_5a/output_0_split
I0403 19:42:59.359053  9581 net.cpp:91] Creating Layer inception_5a/output_inception_5a/output_0_split
I0403 19:42:59.359071  9581 net.cpp:425] inception_5a/output_inception_5a/output_0_split <- inception_5a/output
I0403 19:42:59.359091  9581 net.cpp:399] inception_5a/output_inception_5a/output_0_split -> inception_5a/output_inception_5a/output_0_split_0
I0403 19:42:59.359113  9581 net.cpp:399] inception_5a/output_inception_5a/output_0_split -> inception_5a/output_inception_5a/output_0_split_1
I0403 19:42:59.359135  9581 net.cpp:399] inception_5a/output_inception_5a/output_0_split -> inception_5a/output_inception_5a/output_0_split_2
I0403 19:42:59.359156  9581 net.cpp:399] inception_5a/output_inception_5a/output_0_split -> inception_5a/output_inception_5a/output_0_split_3
I0403 19:42:59.359292  9581 net.cpp:141] Setting up inception_5a/output_inception_5a/output_0_split
I0403 19:42:59.359323  9581 net.cpp:148] Top shape: 24 832 7 7 (978432)
I0403 19:42:59.359341  9581 net.cpp:148] Top shape: 24 832 7 7 (978432)
I0403 19:42:59.359359  9581 net.cpp:148] Top shape: 24 832 7 7 (978432)
I0403 19:42:59.359375  9581 net.cpp:148] Top shape: 24 832 7 7 (978432)
I0403 19:42:59.359390  9581 net.cpp:156] Memory required for data: 1325241888
I0403 19:42:59.359405  9581 layer_factory.hpp:77] Creating layer inception_5b/1x1
I0403 19:42:59.359428  9581 net.cpp:91] Creating Layer inception_5b/1x1
I0403 19:42:59.359447  9581 net.cpp:425] inception_5b/1x1 <- inception_5a/output_inception_5a/output_0_split_0
I0403 19:42:59.359467  9581 net.cpp:399] inception_5b/1x1 -> inception_5b/1x1
I0403 19:42:59.363494  9581 net.cpp:141] Setting up inception_5b/1x1
I0403 19:42:59.363528  9581 net.cpp:148] Top shape: 24 384 7 7 (451584)
I0403 19:42:59.363546  9581 net.cpp:156] Memory required for data: 1327048224
I0403 19:42:59.363566  9581 layer_factory.hpp:77] Creating layer inception_5b/relu_1x1
I0403 19:42:59.363590  9581 net.cpp:91] Creating Layer inception_5b/relu_1x1
I0403 19:42:59.363610  9581 net.cpp:425] inception_5b/relu_1x1 <- inception_5b/1x1
I0403 19:42:59.363628  9581 net.cpp:386] inception_5b/relu_1x1 -> inception_5b/1x1 (in-place)
I0403 19:42:59.363953  9581 net.cpp:141] Setting up inception_5b/relu_1x1
I0403 19:42:59.363982  9581 net.cpp:148] Top shape: 24 384 7 7 (451584)
I0403 19:42:59.363998  9581 net.cpp:156] Memory required for data: 1328854560
I0403 19:42:59.364014  9581 layer_factory.hpp:77] Creating layer inception_5b/3x3_reduce
I0403 19:42:59.364039  9581 net.cpp:91] Creating Layer inception_5b/3x3_reduce
I0403 19:42:59.364059  9581 net.cpp:425] inception_5b/3x3_reduce <- inception_5a/output_inception_5a/output_0_split_1
I0403 19:42:59.364084  9581 net.cpp:399] inception_5b/3x3_reduce -> inception_5b/3x3_reduce
I0403 19:42:59.366933  9581 net.cpp:141] Setting up inception_5b/3x3_reduce
I0403 19:42:59.366966  9581 net.cpp:148] Top shape: 24 192 7 7 (225792)
I0403 19:42:59.366982  9581 net.cpp:156] Memory required for data: 1329757728
I0403 19:42:59.367002  9581 layer_factory.hpp:77] Creating layer inception_5b/relu_3x3_reduce
I0403 19:42:59.367023  9581 net.cpp:91] Creating Layer inception_5b/relu_3x3_reduce
I0403 19:42:59.367041  9581 net.cpp:425] inception_5b/relu_3x3_reduce <- inception_5b/3x3_reduce
I0403 19:42:59.367060  9581 net.cpp:386] inception_5b/relu_3x3_reduce -> inception_5b/3x3_reduce (in-place)
I0403 19:42:59.367274  9581 net.cpp:141] Setting up inception_5b/relu_3x3_reduce
I0403 19:42:59.367303  9581 net.cpp:148] Top shape: 24 192 7 7 (225792)
I0403 19:42:59.367321  9581 net.cpp:156] Memory required for data: 1330660896
I0403 19:42:59.367336  9581 layer_factory.hpp:77] Creating layer inception_5b/3x3
I0403 19:42:59.367359  9581 net.cpp:91] Creating Layer inception_5b/3x3
I0403 19:42:59.367378  9581 net.cpp:425] inception_5b/3x3 <- inception_5b/3x3_reduce
I0403 19:42:59.367398  9581 net.cpp:399] inception_5b/3x3 -> inception_5b/3x3
I0403 19:42:59.374595  9581 net.cpp:141] Setting up inception_5b/3x3
I0403 19:42:59.374626  9581 net.cpp:148] Top shape: 24 384 7 7 (451584)
I0403 19:42:59.374644  9581 net.cpp:156] Memory required for data: 1332467232
I0403 19:42:59.374663  9581 layer_factory.hpp:77] Creating layer inception_5b/relu_3x3
I0403 19:42:59.374686  9581 net.cpp:91] Creating Layer inception_5b/relu_3x3
I0403 19:42:59.374704  9581 net.cpp:425] inception_5b/relu_3x3 <- inception_5b/3x3
I0403 19:42:59.374722  9581 net.cpp:386] inception_5b/relu_3x3 -> inception_5b/3x3 (in-place)
I0403 19:42:59.375041  9581 net.cpp:141] Setting up inception_5b/relu_3x3
I0403 19:42:59.375068  9581 net.cpp:148] Top shape: 24 384 7 7 (451584)
I0403 19:42:59.375084  9581 net.cpp:156] Memory required for data: 1334273568
I0403 19:42:59.375100  9581 layer_factory.hpp:77] Creating layer inception_5b/5x5_reduce
I0403 19:42:59.375141  9581 net.cpp:91] Creating Layer inception_5b/5x5_reduce
I0403 19:42:59.375162  9581 net.cpp:425] inception_5b/5x5_reduce <- inception_5a/output_inception_5a/output_0_split_2
I0403 19:42:59.375182  9581 net.cpp:399] inception_5b/5x5_reduce -> inception_5b/5x5_reduce
I0403 19:42:59.376586  9581 net.cpp:141] Setting up inception_5b/5x5_reduce
I0403 19:42:59.376616  9581 net.cpp:148] Top shape: 24 48 7 7 (56448)
I0403 19:42:59.376644  9581 net.cpp:156] Memory required for data: 1334499360
I0403 19:42:59.376662  9581 layer_factory.hpp:77] Creating layer inception_5b/relu_5x5_reduce
I0403 19:42:59.376684  9581 net.cpp:91] Creating Layer inception_5b/relu_5x5_reduce
I0403 19:42:59.376701  9581 net.cpp:425] inception_5b/relu_5x5_reduce <- inception_5b/5x5_reduce
I0403 19:42:59.376719  9581 net.cpp:386] inception_5b/relu_5x5_reduce -> inception_5b/5x5_reduce (in-place)
I0403 19:42:59.377109  9581 net.cpp:141] Setting up inception_5b/relu_5x5_reduce
I0403 19:42:59.377136  9581 net.cpp:148] Top shape: 24 48 7 7 (56448)
I0403 19:42:59.377151  9581 net.cpp:156] Memory required for data: 1334725152
I0403 19:42:59.377167  9581 layer_factory.hpp:77] Creating layer inception_5b/5x5
I0403 19:42:59.377202  9581 net.cpp:91] Creating Layer inception_5b/5x5
I0403 19:42:59.377226  9581 net.cpp:425] inception_5b/5x5 <- inception_5b/5x5_reduce
I0403 19:42:59.377248  9581 net.cpp:399] inception_5b/5x5 -> inception_5b/5x5
I0403 19:42:59.379438  9581 net.cpp:141] Setting up inception_5b/5x5
I0403 19:42:59.379472  9581 net.cpp:148] Top shape: 24 128 7 7 (150528)
I0403 19:42:59.379489  9581 net.cpp:156] Memory required for data: 1335327264
I0403 19:42:59.379510  9581 layer_factory.hpp:77] Creating layer inception_5b/relu_5x5
I0403 19:42:59.379529  9581 net.cpp:91] Creating Layer inception_5b/relu_5x5
I0403 19:42:59.379547  9581 net.cpp:425] inception_5b/relu_5x5 <- inception_5b/5x5
I0403 19:42:59.379568  9581 net.cpp:386] inception_5b/relu_5x5 -> inception_5b/5x5 (in-place)
I0403 19:42:59.379773  9581 net.cpp:141] Setting up inception_5b/relu_5x5
I0403 19:42:59.379801  9581 net.cpp:148] Top shape: 24 128 7 7 (150528)
I0403 19:42:59.379815  9581 net.cpp:156] Memory required for data: 1335929376
I0403 19:42:59.379832  9581 layer_factory.hpp:77] Creating layer inception_5b/pool
I0403 19:42:59.379849  9581 net.cpp:91] Creating Layer inception_5b/pool
I0403 19:42:59.379865  9581 net.cpp:425] inception_5b/pool <- inception_5a/output_inception_5a/output_0_split_3
I0403 19:42:59.379889  9581 net.cpp:399] inception_5b/pool -> inception_5b/pool
I0403 19:42:59.379966  9581 net.cpp:141] Setting up inception_5b/pool
I0403 19:42:59.379990  9581 net.cpp:148] Top shape: 24 832 7 7 (978432)
I0403 19:42:59.380005  9581 net.cpp:156] Memory required for data: 1339843104
I0403 19:42:59.380020  9581 layer_factory.hpp:77] Creating layer inception_5b/pool_proj
I0403 19:42:59.380044  9581 net.cpp:91] Creating Layer inception_5b/pool_proj
I0403 19:42:59.380062  9581 net.cpp:425] inception_5b/pool_proj <- inception_5b/pool
I0403 19:42:59.380081  9581 net.cpp:399] inception_5b/pool_proj -> inception_5b/pool_proj
I0403 19:42:59.382494  9581 net.cpp:141] Setting up inception_5b/pool_proj
I0403 19:42:59.382529  9581 net.cpp:148] Top shape: 24 128 7 7 (150528)
I0403 19:42:59.382545  9581 net.cpp:156] Memory required for data: 1340445216
I0403 19:42:59.382565  9581 layer_factory.hpp:77] Creating layer inception_5b/relu_pool_proj
I0403 19:42:59.382583  9581 net.cpp:91] Creating Layer inception_5b/relu_pool_proj
I0403 19:42:59.382601  9581 net.cpp:425] inception_5b/relu_pool_proj <- inception_5b/pool_proj
I0403 19:42:59.382618  9581 net.cpp:386] inception_5b/relu_pool_proj -> inception_5b/pool_proj (in-place)
I0403 19:42:59.382936  9581 net.cpp:141] Setting up inception_5b/relu_pool_proj
I0403 19:42:59.382966  9581 net.cpp:148] Top shape: 24 128 7 7 (150528)
I0403 19:42:59.382983  9581 net.cpp:156] Memory required for data: 1341047328
I0403 19:42:59.382999  9581 layer_factory.hpp:77] Creating layer inception_5b/output
I0403 19:42:59.383018  9581 net.cpp:91] Creating Layer inception_5b/output
I0403 19:42:59.383049  9581 net.cpp:425] inception_5b/output <- inception_5b/1x1
I0403 19:42:59.383069  9581 net.cpp:425] inception_5b/output <- inception_5b/3x3
I0403 19:42:59.383085  9581 net.cpp:425] inception_5b/output <- inception_5b/5x5
I0403 19:42:59.383101  9581 net.cpp:425] inception_5b/output <- inception_5b/pool_proj
I0403 19:42:59.383119  9581 net.cpp:399] inception_5b/output -> inception_5b/output
I0403 19:42:59.383177  9581 net.cpp:141] Setting up inception_5b/output
I0403 19:42:59.383203  9581 net.cpp:148] Top shape: 24 1024 7 7 (1204224)
I0403 19:42:59.383224  9581 net.cpp:156] Memory required for data: 1345864224
I0403 19:42:59.383240  9581 layer_factory.hpp:77] Creating layer pool5/7x7_s1
I0403 19:42:59.383261  9581 net.cpp:91] Creating Layer pool5/7x7_s1
I0403 19:42:59.383280  9581 net.cpp:425] pool5/7x7_s1 <- inception_5b/output
I0403 19:42:59.383297  9581 net.cpp:399] pool5/7x7_s1 -> pool5/7x7_s1
I0403 19:42:59.383524  9581 net.cpp:141] Setting up pool5/7x7_s1
I0403 19:42:59.383553  9581 net.cpp:148] Top shape: 24 1024 1 1 (24576)
I0403 19:42:59.383570  9581 net.cpp:156] Memory required for data: 1345962528
I0403 19:42:59.383585  9581 layer_factory.hpp:77] Creating layer pool5/drop_7x7_s1
I0403 19:42:59.383604  9581 net.cpp:91] Creating Layer pool5/drop_7x7_s1
I0403 19:42:59.383620  9581 net.cpp:425] pool5/drop_7x7_s1 <- pool5/7x7_s1
I0403 19:42:59.383637  9581 net.cpp:386] pool5/drop_7x7_s1 -> pool5/7x7_s1 (in-place)
I0403 19:42:59.383692  9581 net.cpp:141] Setting up pool5/drop_7x7_s1
I0403 19:42:59.383714  9581 net.cpp:148] Top shape: 24 1024 1 1 (24576)
I0403 19:42:59.383729  9581 net.cpp:156] Memory required for data: 1346060832
I0403 19:42:59.383744  9581 layer_factory.hpp:77] Creating layer loss3/classifier_plantvillage
I0403 19:42:59.383766  9581 net.cpp:91] Creating Layer loss3/classifier_plantvillage
I0403 19:42:59.383783  9581 net.cpp:425] loss3/classifier_plantvillage <- pool5/7x7_s1
I0403 19:42:59.383802  9581 net.cpp:399] loss3/classifier_plantvillage -> loss3/classifier_plantvillage
I0403 19:42:59.384268  9581 net.cpp:141] Setting up loss3/classifier_plantvillage
I0403 19:42:59.384294  9581 net.cpp:148] Top shape: 24 38 (912)
I0403 19:42:59.384310  9581 net.cpp:156] Memory required for data: 1346064480
I0403 19:42:59.384328  9581 layer_factory.hpp:77] Creating layer loss3/classifier_plantvillage_loss3/classifier_plantvillage_0_split
I0403 19:42:59.384347  9581 net.cpp:91] Creating Layer loss3/classifier_plantvillage_loss3/classifier_plantvillage_0_split
I0403 19:42:59.384364  9581 net.cpp:425] loss3/classifier_plantvillage_loss3/classifier_plantvillage_0_split <- loss3/classifier_plantvillage
I0403 19:42:59.384387  9581 net.cpp:399] loss3/classifier_plantvillage_loss3/classifier_plantvillage_0_split -> loss3/classifier_plantvillage_loss3/classifier_plantvillage_0_split_0
I0403 19:42:59.384408  9581 net.cpp:399] loss3/classifier_plantvillage_loss3/classifier_plantvillage_0_split -> loss3/classifier_plantvillage_loss3/classifier_plantvillage_0_split_1
I0403 19:42:59.384430  9581 net.cpp:399] loss3/classifier_plantvillage_loss3/classifier_plantvillage_0_split -> loss3/classifier_plantvillage_loss3/classifier_plantvillage_0_split_2
I0403 19:42:59.384452  9581 net.cpp:399] loss3/classifier_plantvillage_loss3/classifier_plantvillage_0_split -> loss3/classifier_plantvillage_loss3/classifier_plantvillage_0_split_3
I0403 19:42:59.384572  9581 net.cpp:141] Setting up loss3/classifier_plantvillage_loss3/classifier_plantvillage_0_split
I0403 19:42:59.384598  9581 net.cpp:148] Top shape: 24 38 (912)
I0403 19:42:59.384615  9581 net.cpp:148] Top shape: 24 38 (912)
I0403 19:42:59.384631  9581 net.cpp:148] Top shape: 24 38 (912)
I0403 19:42:59.384647  9581 net.cpp:148] Top shape: 24 38 (912)
I0403 19:42:59.384662  9581 net.cpp:156] Memory required for data: 1346079072
I0403 19:42:59.384677  9581 layer_factory.hpp:77] Creating layer loss1/loss
I0403 19:42:59.384698  9581 net.cpp:91] Creating Layer loss1/loss
I0403 19:42:59.384717  9581 net.cpp:425] loss1/loss <- loss1/classifier_plantvillage_loss1/classifier_plantvillage_0_split_0
I0403 19:42:59.384748  9581 net.cpp:425] loss1/loss <- label_data_1_split_0
…
