…
I0403 19:07:34.403162  8657 net.cpp:313] The NetState phase (1) differed from the phase (0) specified by a rule in layer data
I0403 19:07:34.404348  8657 net.cpp:49] Initializing net from parameters: 
state {
  phase: TEST
}
layer {
  name: "data"
  type: "Data"
  top: "data"
  top: "label"
  include {
    phase: TEST
  }
  transform_param {
    mirror: false
    crop_size: 224
    mean_file: "/home/mohanty/data/final_dataset/lmdb/grayscale-50-50/mean.binaryproto"
  }
  data_param {
    source: "/home/mohanty/data/final_dataset/lmdb/grayscale-50-50/test_db"
    batch_size: 24
    backend: LMDB
  }
}
layer {
  name: "conv1/7x7_s2"
  type: "Convolution"
  bottom: "data"
  top: "conv1/7x7_s2"
  param {
    lr_mult: 1
    decay_mult: 1
  }
  param {
    lr_mult: 2
    decay_mult: 0
  }
  convolution_param {
    num_output: 64
    pad: 3
    kernel_size: 7
    stride: 2
    weight_filler {
      type: "xavier"
      std: 0.1
    }
    bias_filler {
      type: "constant"
      value: 0.2
    }
  }
}
layer {
  name: "conv1/relu_7x7"
  type: "ReLU"
  bottom: "conv1/7x7_s2"
  top: "conv1/7x7_s2"
}
layer {
  name: "pool1/3x3_s2"
  type: "Pooling"
  bottom: "conv1/7x7_s2"
  top: "pool1/3x3_s2"
  pooling_param {
    pool: MAX
    kernel_size: 3
    stride: 2
  }
}
layer {
  name: "pool1/norm1"
  type: "LRN"
  bottom: "pool1/3x3_s2"
  top: "pool1/norm1"
  lrn_param {
    local_size: 5
    alpha: 0.0001
    beta: 0.75
  }
}
layer {
  name: "conv2/3x3_reduce"
  type: "Convolution"
  bottom: "pool1/norm1"
  top: "conv2/3x3_reduce"
  param {
    lr_mult: 1
    decay_mult: 1
  }
  param {
    lr_mult: 2
    decay_mult: 0
  }
  convolution_param {
    num_output: 64
    kernel_size: 1
    weight_filler {
      type: "xavier"
      std: 0.1
    }
    bias_filler {
      type: "constant"
      value: 0.2
    }
  }
}
layer {
  name: "conv2/relu_3x3_reduce"
  type: "ReLU"
  bottom: "conv2/3x3_reduce"
  top: "conv2/3x3_reduce"
}
layer {
  name: "conv2/3x3"
  type: "Convolution"
  bottom: "conv2/3x3_reduce"
  top: "conv2/3x3"
  param {
    lr_mult: 1
    decay_mult: 1
  }
  param {
    lr_mult: 2
    decay_mult: 0
  }
  convolution_param {
    num_output: 192
    pad: 1
    kernel_size: 3
    weight_filler {
      type: "xavier"
      std: 0.03
    }
    bias_filler {
      type: "constant"
      value: 0.2
    }
  }
}
layer {
  name: "conv2/relu_3x3"
  type: "ReLU"
  bottom: "conv2/3x3"
  top: "conv2/3x3"
}
layer {
  name: "conv2/norm2"
  type: "LRN"
  bottom: "conv2/3x3"
  top: "conv2/norm2"
  lrn_param {
    local_size: 5
    alpha: 0.0001
    beta: 0.75
  }
}
layer {
  name: "pool2/3x3_s2"
  type: "Pooling"
  bottom: "conv2/norm2"
  top: "pool2/3x3_s2"
  pooling_param {
    pool: MAX
    kernel_size: 3
    stride: 2
  }
}
layer {
  name: "inception_3a/1x1"
  type: "Convolution"
  bottom: "pool2/3x3_s2"
  top: "inception_3a/1x1"
  param {
    lr_mult: 1
    decay_mult: 1
  }
  param {
    lr_mult: 2
    decay_mult: 0
  }
  convolution_param {
    num_output: 64
    kernel_size: 1
    weight_filler {
      type: "xavier"
      std: 0.03
    }
    bias_filler {
      type: "constant"
      value: 0.2
    }
  }
}
layer {
  name: "inception_3a/relu_1x1"
  type: "ReLU"
  bottom: "inception_3a/1x1"
  top: "inception_3a/1x1"
}
layer {
  name: "inception_3a/3x3_reduce"
  type: "Convolution"
  bottom: "pool2/3x3_s2"
  top: "inception_3a/3x3_reduce"
  param {
    lr_mult: 1
    decay_mult: 1
  }
  param {
    lr_mult: 2
    decay_mult: 0
  }
  convolution_param {
    num_output: 96
    kernel_size: 1
    weight_filler {
      type: "xavier"
      std: 0.09
    }
    bias_filler {
      type: "constant"
      value: 0.2
    }
  }
}
layer {
  name: "inception_3a/relu_3x3_reduce"
  type: "ReLU"
  bottom: "inception_3a/3x3_reduce"
  top: "inception_3a/3x3_reduce"
}
layer {
  name: "inception_3a/3x3"
  type: "Convolution"
  bottom: "inception_3a/3x3_reduce"
  top: "inception_3a/3x3"
  param {
    lr_mult: 1
    decay_mult: 1
  }
  param {
    lr_mult: 2
    decay_mult: 0
  }
  convolution_param {
    num_output: 128
    pad: 1
    kernel_size: 3
    weight_filler {
      type: "xavier"
      std: 0.03
    }
    bias_filler {
      type: "constant"
      value: 0.2
    }
  }
}
layer {
  name: "inception_3a/relu_3x3"
  type: "ReLU"
  bottom: "inception_3a/3x3"
  top: "inception_3a/3x3"
}
layer {
  name: "inception_3a/5x5_reduce"
  type: "Convolution"
  bottom: "pool2/3x3_s2"
  top: "inception_3a/5x5_reduce"
  param {
    lr_mult: 1
    decay_mult: 1
  }
  param {
    lr_mult: 2
    decay_mult: 0
  }
  convolution_param {
    num_output: 16
    kernel_size: 1
    weight_filler {
      type: "xavier"
      std: 0.2
    }
    bias_filler {
      type: "constant"
      value: 0.2
    }
  }
}
layer {
  name: "inception_3a/relu_5x5_reduce"
  type: "ReLU"
  bottom: "inception_3a/5x5_reduce"
  top: "inception_3a/5x5_reduce"
}
layer {
  name: "inception_3a/5x5"
  type: "Convolution"
  bottom: "inception_3a/5x5_reduce"
  top: "inception_3a/5x5"
  param {
    lr_mult: 1
    decay_mult: 1
  }
  param {
    lr_mult: 2
    decay_mult: 0
  }
  convolution_param {
    num_output: 32
    pad: 2
    kernel_size: 5
    weight_filler {
      type: "xavier"
      std: 0.03
    }
    bias_filler {
      type: "constant"
      value: 0.2
    }
  }
}
layer {
  name: "inception_3a/relu_5x5"
  type: "ReLU"
  bottom: "inception_3a/5x5"
  top: "inception_3a/5x5"
}
layer {
  name: "inception_3a/pool"
  type: "Pooling"
  bottom: "pool2/3x3_s2"
  top: "inception_3a/pool"
  pooling_param {
    pool: MAX
    kernel_size: 3
    stride: 1
    pad: 1
  }
}
layer {
  name: "inception_3a/pool_proj"
  type: "Convolution"
  bottom: "inception_3a/pool"
  top: "inception_3a/pool_proj"
  param {
    lr_mult: 1
    decay_mult: 1
  }
  param {
    lr_mult: 2
    decay_mult: 0
  }
  convolution_param {
    num_output: 32
    kernel_size: 1
    weight_filler {
      type: "xavier"
      std: 0.1
    }
    bias_filler {
      type: "constant"
      value: 0.2
    }
  }
}
layer {
  name: "inception_3a/relu_pool_proj"
  type: "ReLU"
  bottom: "inception_3a/pool_proj"
  top: "inception_3a/pool_proj"
}
layer {
  name: "inception_3a/output"
  type: "Concat"
  bottom: "inception_3a/1x1"
  bottom: "inception_3a/3x3"
  bottom: "inception_3a/5x5"
  bottom: "inception_3a/pool_proj"
  top: "inception_3a/output"
}
layer {
  name: "inception_3b/1x1"
  type: "Convolution"
  bottom: "inception_3a/output"
  top: "inception_3b/1x1"
  param {
    lr_mult: 1
    decay_mult: 1
  }
  param {
    lr_mult: 2
    decay_mult: 0
  }
  convolution_param {
    num_output: 128
    kernel_size: 1
    weight_filler {
      type: "xavier"
      std: 0.03
    }
    bias_filler {
      type: "constant"
      value: 0.2
    }
  }
}
layer {
  name: "inception_3b/relu_1x1"
  type: "ReLU"
  bottom: "inception_3b/1x1"
  top: "inception_3b/1x1"
}
layer {
  name: "inception_3b/3x3_reduce"
  type: "Convolution"
  bottom: "inception_3a/output"
  top: "inception_3b/3x3_reduce"
  param {
    lr_mult: 1
    decay_mult: 1
  }
  param {
    lr_mult: 2
    decay_mult: 0
  }
  convolution_param {
    num_output: 128
    kernel_size: 1
    weight_filler {
      type: "xavier"
      std: 0.09
    }
    bias_filler {
      type: "constant"
      value: 0.2
    }
  }
}
layer {
  name: "inception_3b/relu_3x3_reduce"
  type: "ReLU"
  bottom: "inception_3b/3x3_reduce"
  top: "inception_3b/3x3_reduce"
}
layer {
  name: "inception_3b/3x3"
  type: "Convolution"
  bottom: "inception_3b/3x3_reduce"
  top: "inception_3b/3x3"
  param {
    lr_mult: 1
    decay_mult: 1
  }
  param {
    lr_mult: 2
    decay_mult: 0
  }
  convolution_param {
    num_output: 192
    pad: 1
    kernel_size: 3
    weight_filler {
      type: "xavier"
      std: 0.03
    }
    bias_filler {
      type: "constant"
      value: 0.2
    }
  }
}
layer {
  name: "inception_3b/relu_3x3"
  type: "ReLU"
  bottom: "inception_3b/3x3"
  top: "inception_3b/3x3"
}
layer {
  name: "inception_3b/5x5_reduce"
  type: "Convolution"
  bottom: "inception_3a/output"
  top: "inception_3b/5x5_reduce"
  param {
    lr_mult: 1
    decay_mult: 1
  }
  param {
    lr_mult: 2
    decay_mult: 0
  }
  convolution_param {
    num_output: 32
    kernel_size: 1
    weight_filler {
      type: "xavier"
      std: 0.2
    }
    bias_filler {
      type: "constant"
      value: 0.2
    }
  }
}
layer {
  name: "inception_3b/relu_5x5_reduce"
  type: "ReLU"
  bottom: "inception_3b/5x5_reduce"
  top: "inception_3b/5x5_reduce"
}
layer {
  name: "inception_3b/5x5"
  type: "Convolution"
  bottom: "inception_3b/5x5_reduce"
  top: "inception_3b/5x5"
  param {
    lr_mult: 1
    decay_mult: 1
  }
  param {
    lr_mult: 2
    decay_mult: 0
  }
  convolution_param {
    num_output: 96
    pad: 2
    kernel_size: 5
    weight_filler {
      type: "xavier"
      std: 0.03
    }
    bias_filler {
      type: "constant"
      value: 0.2
    }
  }
}
layer {
  name: "inception_3b/relu_5x5"
  type: "ReLU"
  bottom: "inception_3b/5x5"
  top: "inception_3b/5x5"
}
layer {
  name: "inception_3b/pool"
  type: "Pooling"
  bottom: "inception_3a/output"
  top: "inception_3b/pool"
  pooling_param {
    pool: MAX
    kernel_size: 3
    stride: 1
    pad: 1
  }
}
layer {
  name: "inception_3b/pool_proj"
  type: "Convolution"
  bottom: "inception_3b/pool"
  top: "inception_3b/pool_proj"
  param {
    lr_mult: 1
    decay_mult: 1
  }
  param {
    lr_mult: 2
    decay_mult: 0
  }
  convolution_param {
    num_output: 64
    kernel_size: 1
    weight_filler {
      type: "xavier"
      std: 0.1
    }
    bias_filler {
      type: "constant"
      value: 0.2
    }
  }
}
layer {
  name: "inception_3b/relu_pool_proj"
  type: "ReLU"
  bottom: "inception_3b/pool_proj"
  top: "inception_3b/pool_proj"
}
layer {
  name: "inception_3b/output"
  type: "Concat"
  bottom: "inception_3b/1x1"
  bottom: "inception_3b/3x3"
  bottom: "inception_3b/5x5"
  bottom: "inception_3b/pool_proj"
  top: "inception_3b/output"
}
layer {
  name: "pool3/3x3_s2"
  type: "Pooling"
  bottom: "inception_3b/output"
  top: "pool3/3x3_s2"
  pooling_param {
    pool: MAX
    kernel_size: 3
    stride: 2
  }
}
layer {
  name: "inception_4a/1x1"
  type: "Convolution"
  bottom: "pool3/3x3_s2"
  top: "inception_4a/1x1"
  param {
    lr_mult: 1
    decay_mult: 1
  }
  param {
    lr_mult: 2
    decay_mult: 0
  }
  convolution_param {
    num_output: 192
    kernel_size: 1
    weight_filler {
      type: "xavier"
      std: 0.03
    }
    bias_filler {
      type: "constant"
      value: 0.2
    }
  }
}
layer {
  name: "inception_4a/relu_1x1"
  type: "ReLU"
  bottom: "inception_4a/1x1"
  top: "inception_4a/1x1"
}
layer {
  name: "inception_4a/3x3_reduce"
  type: "Convolution"
  bottom: "pool3/3x3_s2"
  top: "inception_4a/3x3_reduce"
  param {
    lr_mult: 1
    decay_mult: 1
  }
  param {
    lr_mult: 2
    decay_mult: 0
  }
  convolution_param {
    num_output: 96
    kernel_size: 1
    weight_filler {
      type: "xavier"
      std: 0.09
    }
    bias_filler {
      type: "constant"
      value: 0.2
    }
  }
}
layer {
  name: "inception_4a/relu_3x3_reduce"
  type: "ReLU"
  bottom: "inception_4a/3x3_reduce"
  top: "inception_4a/3x3_reduce"
}
layer {
  name: "inception_4a/3x3"
  type: "Convolution"
  bottom: "inception_4a/3x3_reduce"
  top: "inception_4a/3x3"
  param {
    lr_mult: 1
    decay_mult: 1
  }
  param {
    lr_mult: 2
    decay_mult: 0
  }
  convolution_param {
    num_output: 208
    pad: 1
    kernel_size: 3
    weight_filler {
      type: "xavier"
      std: 0.03
    }
    bias_filler {
      type: "constant"
      value: 0.2
    }
  }
}
layer {
  name: "inception_4a/relu_3x3"
  type: "ReLU"
  bottom: "inception_4a/3x3"
  top: "inception_4a/3x3"
}
layer {
  name: "inception_4a/5x5_reduce"
  type: "Convolution"
  bottom: "pool3/3x3_s2"
  top: "inception_4a/5x5_reduce"
  param {
    lr_mult: 1
    decay_mult: 1
  }
  param {
    lr_mult: 2
    decay_mult: 0
  }
  convolution_param {
    num_output: 16
    kernel_size: 1
    weight_filler {
      type: "xavier"
      std: 0.2
    }
    bias_filler {
      type: "constant"
      value: 0.2
    }
  }
}
layer {
  name: "inception_4a/relu_5x5_reduce"
  type: "ReLU"
  bottom: "inception_4a/5x5_reduce"
  top: "inception_4a/5x5_reduce"
}
layer {
  name: "inception_4a/5x5"
  type: "Convolution"
  bottom: "inception_4a/5x5_reduce"
  top: "inception_4a/5x5"
  param {
    lr_mult: 1
    decay_mult: 1
  }
  param {
    lr_mult: 2
    decay_mult: 0
  }
  convolution_param {
    num_output: 48
    pad: 2
    kernel_size: 5
    weight_filler {
      type: "xavier"
      std: 0.03
    }
    bias_filler {
      type: "constant"
      value: 0.2
    }
  }
}
layer {
  name: "inception_4a/relu_5x5"
  type: "ReLU"
  bottom: "inception_4a/5x5"
  top: "inception_4a/5x5"
}
layer {
  name: "inception_4a/pool"
  type: "Pooling"
  bottom: "pool3/3x3_s2"
  top: "inception_4a/pool"
  pooling_param {
    pool: MAX
    kernel_size: 3
    stride: 1
    pad: 1
  }
}
layer {
  name: "inception_4a/pool_proj"
  type: "Convolution"
  bottom: "inception_4a/pool"
  top: "inception_4a/pool_proj"
  param {
    lr_mult: 1
    decay_mult: 1
  }
  param {
    lr_mult: 2
    decay_mult: 0
  }
  convolution_param {
    num_output: 64
    kernel_size: 1
    weight_filler {
      type: "xavier"
      std: 0.1
    }
    bias_filler {
      type: "constant"
      value: 0.2
    }
  }
}
layer {
  name: "inception_4a/relu_pool_proj"
  type: "ReLU"
  bottom: "inception_4a/pool_proj"
  top: "inception_4a/pool_proj"
}
layer {
  name: "inception_4a/output"
  type: "Concat"
  bottom: "inception_4a/1x1"
  bottom: "inception_4a/3x3"
  bottom: "inception_4a/5x5"
  bottom: "inception_4a/pool_proj"
  top: "inception_4a/output"
}
layer {
  name: "loss1/ave_pool"
  type: "Pooling"
  bottom: "inception_4a/output"
  top: "loss1/ave_pool"
  pooling_param {
    pool: AVE
    kernel_size: 5
    stride: 3
  }
}
layer {
  name: "loss1/conv"
  type: "Convolution"
  bottom: "loss1/ave_pool"
  top: "loss1/conv"
  param {
    lr_mult: 1
    decay_mult: 1
  }
  param {
    lr_mult: 2
    decay_mult: 0
  }
  convolution_param {
    num_output: 128
    kernel_size: 1
    weight_filler {
      type: "xavier"
      std: 0.08
    }
    bias_filler {
      type: "constant"
      value: 0.2
    }
  }
}
layer {
  name: "loss1/relu_conv"
  type: "ReLU"
  bottom: "loss1/conv"
  top: "loss1/conv"
}
layer {
  name: "loss1/fc"
  type: "InnerProduct"
  bottom: "loss1/conv"
  top: "loss1/fc"
  param {
    lr_mult: 1
    decay_mult: 1
  }
  param {
    lr_mult: 2
    decay_mult: 0
  }
  inner_product_param {
    num_output: 1024
    weight_filler {
      type: "xavier"
      std: 0.02
    }
    bias_filler {
      type: "constant"
      value: 0.2
    }
  }
}
layer {
  name: "loss1/relu_fc"
  type: "ReLU"
  bottom: "loss1/fc"
  top: "loss1/fc"
}
layer {
  name: "loss1/drop_fc"
  type: "Dropout"
  bottom: "loss1/fc"
  top: "loss1/fc"
  dropout_param {
    dropout_ratio: 0.7
  }
}
layer {
  name: "loss1/classifier_plantvillage"
  type: "InnerProduct"
  bottom: "loss1/fc"
  top: "loss1/classifier_plantvillage"
  param {
    lr_mult: 1
    decay_mult: 1
  }
  param {
    lr_mult: 2
    decay_mult: 0
  }
  inner_product_param {
    num_output: 38
    weight_filler {
      type: "xavier"
      std: 0.0009765625
    }
    bias_filler {
      type: "constant"
      value: 0
    }
  }
}
layer {
  name: "inception_4b/1x1"
  type: "Convolution"
  bottom: "inception_4a/output"
  top: "inception_4b/1x1"
  param {
    lr_mult: 1
    decay_mult: 1
  }
  param {
    lr_mult: 2
    decay_mult: 0
  }
  convolution_param {
    num_output: 160
    kernel_size: 1
    weight_filler {
      type: "xavier"
      std: 0.03
    }
    bias_filler {
      type: "constant"
      value: 0.2
    }
  }
}
layer {
  name: "inception_4b/relu_1x1"
  type: "ReLU"
  bottom: "inception_4b/1x1"
  top: "inception_4b/1x1"
}
layer {
  name: "inception_4b/3x3_reduce"
  type: "Convolution"
  bottom: "inception_4a/output"
  top: "inception_4b/3x3_reduce"
  param {
    lr_mult: 1
    decay_mult: 1
  }
  param {
    lr_mult: 2
    decay_mult: 0
  }
  convolution_param {
    num_output: 112
    kernel_size: 1
    weight_filler {
      type: "xavier"
      std: 0.09
    }
    bias_filler {
      type: "constant"
      value: 0.2
    }
  }
}
layer {
  name: "inception_4b/relu_3x3_reduce"
  type: "ReLU"
  bottom: "inception_4b/3x3_reduce"
  top: "inception_4b/3x3_reduce"
}
layer {
  name: "inception_4b/3x3"
  type: "Convolution"
  bottom: "inception_4b/3x3_reduce"
  top: "inception_4b/3x3"
  param {
    lr_mult: 1
    decay_mult: 1
  }
  param {
    lr_mult: 2
    decay_mult: 0
  }
  convolution_param {
    num_output: 224
    pad: 1
    kernel_size: 3
    weight_filler {
      type: "xavier"
      std: 0.03
    }
    bias_filler {
      type: "constant"
      value: 0.2
    }
  }
}
layer {
  name: "inception_4b/relu_3x3"
  type: "ReLU"
  bottom: "inception_4b/3x3"
  top: "inception_4b/3x3"
}
layer {
  name: "inception_4b/5x5_reduce"
  type: "Convolution"
  bottom: "inception_4a/output"
  top: "inception_4b/5x5_reduce"
  param {
    lr_mult: 1
    decay_mult: 1
  }
  param {
    lr_mult: 2
    decay_mult: 0
  }
  convolution_param {
    num_output: 24
    kernel_size: 1
    weight_filler {
      type: "xavier"
      std: 0.2
    }
    bias_filler {
      type: "constant"
      value: 0.2
    }
  }
}
layer {
  name: "inception_4b/relu_5x5_reduce"
  type: "ReLU"
  bottom: "inception_4b/5x5_reduce"
  top: "inception_4b/5x5_reduce"
}
layer {
  name: "inception_4b/5x5"
  type: "Convolution"
  bottom: "inception_4b/5x5_reduce"
  top: "inception_4b/5x5"
  param {
    lr_mult: 1
    decay_mult: 1
  }
  param {
    lr_mult: 2
    decay_mult: 0
  }
  convolution_param {
    num_output: 64
    pad: 2
    kernel_size: 5
    weight_filler {
      type: "xavier"
      std: 0.03
    }
    bias_filler {
      type: "constant"
      value: 0.2
    }
  }
}
layer {
  name: "inception_4b/relu_5x5"
  type: "ReLU"
  bottom: "inception_4b/5x5"
  top: "inception_4b/5x5"
}
layer {
  name: "inception_4b/pool"
  type: "Pooling"
  bottom: "inception_4a/output"
  top: "inception_4b/pool"
  pooling_param {
    pool: MAX
    kernel_size: 3
    stride: 1
    pad: 1
  }
}
layer {
  name: "inception_4b/pool_proj"
  type: "Convolution"
  bottom: "inception_4b/pool"
  top: "inception_4b/pool_proj"
  param {
    lr_mult: 1
    decay_mult: 1
  }
  param {
    lr_mult: 2
    decay_mult: 0
  }
  convolution_param {
    num_output: 64
    kernel_size: 1
    weight_filler {
      type: "xavier"
      std: 0.1
    }
    bias_filler {
      type: "constant"
      value: 0.2
    }
  }
}
layer {
  name: "inception_4b/relu_pool_proj"
  type: "ReLU"
  bottom: "inception_4b/pool_proj"
  top: "inception_4b/pool_proj"
}
layer {
  name: "inception_4b/output"
  type: "Concat"
  bottom: "inception_4b/1x1"
  bottom: "inception_4b/3x3"
  bottom: "inception_4b/5x5"
  bottom: "inception_4b/pool_proj"
  top: "inception_4b/output"
}
layer {
  name: "inception_4c/1x1"
  type: "Convolution"
  bottom: "inception_4b/output"
  top: "inception_4c/1x1"
  param {
    lr_mult: 1
    decay_mult: 1
  }
  param {
    lr_mult: 2
    decay_mult: 0
  }
  convolution_param {
    num_output: 128
    kernel_size: 1
    weight_filler {
      type: "xavier"
      std: 0.03
    }
    bias_filler {
      type: "constant"
      value: 0.2
    }
  }
}
layer {
  name: "inception_4c/relu_1x1"
  type: "ReLU"
  bottom: "inception_4c/1x1"
  top: "inception_4c/1x1"
}
layer {
  name: "inception_4c/3x3_reduce"
  type: "Convolution"
  bottom: "inception_4b/output"
  top: "inception_4c/3x3_reduce"
  param {
    lr_mult: 1
    decay_mult: 1
  }
  param {
    lr_mult: 2
    decay_mult: 0
  }
  convolution_param {
    num_output: 128
    kernel_size: 1
    weight_filler {
      type: "xavier"
      std: 0.09
    }
    bias_filler {
      type: "constant"
      value: 0.2
    }
  }
}
layer {
  name: "inception_4c/relu_3x3_reduce"
  type: "ReLU"
  bottom: "inception_4c/3x3_reduce"
  top: "inception_4c/3x3_reduce"
}
layer {
  name: "inception_4c/3x3"
  type: "Convolution"
  bottom: "inception_4c/3x3_reduce"
  top: "inception_4c/3x3"
  param {
    lr_mult: 1
    decay_mult: 1
  }
  param {
    lr_mult: 2
    decay_mult: 0
  }
  convolution_param {
    num_output: 256
    pad: 1
    kernel_size: 3
    weight_filler {
      type: "xavier"
      std: 0.03
    }
    bias_filler {
      type: "constant"
      value: 0.2
    }
  }
}
layer {
  name: "inception_4c/relu_3x3"
  type: "ReLU"
  bottom: "inception_4c/3x3"
  top: "inception_4c/3x3"
}
layer {
  name: "inception_4c/5x5_reduce"
  type: "Convolution"
  bottom: "inception_4b/output"
  top: "inception_4c/5x5_reduce"
  param {
    lr_mult: 1
    decay_mult: 1
  }
  param {
    lr_mult: 2
    decay_mult: 0
  }
  convolution_param {
    num_output: 24
    kernel_size: 1
    weight_filler {
      type: "xavier"
      std: 0.2
    }
    bias_filler {
      type: "constant"
      value: 0.2
    }
  }
}
layer {
  name: "inception_4c/relu_5x5_reduce"
  type: "ReLU"
  bottom: "inception_4c/5x5_reduce"
  top: "inception_4c/5x5_reduce"
}
layer {
  name: "inception_4c/5x5"
  type: "Convolution"
  bottom: "inception_4c/5x5_reduce"
  top: "inception_4c/5x5"
  param {
    lr_mult: 1
    decay_mult: 1
  }
  param {
    lr_mult: 2
    decay_mult: 0
  }
  convolution_param {
    num_output: 64
    pad: 2
    kernel_size: 5
    weight_filler {
      type: "xavier"
      std: 0.03
    }
    bias_filler {
      type: "constant"
      value: 0.2
    }
  }
}
layer {
  name: "inception_4c/relu_5x5"
  type: "ReLU"
  bottom: "inception_4c/5x5"
  top: "inception_4c/5x5"
}
layer {
  name: "inception_4c/pool"
  type: "Pooling"
  bottom: "inception_4b/output"
  top: "inception_4c/pool"
  pooling_param {
    pool: MAX
    kernel_size: 3
    stride: 1
    pad: 1
  }
}
layer {
  name: "inception_4c/pool_proj"
  type: "Convolution"
  bottom: "inception_4c/pool"
  top: "inception_4c/pool_proj"
  param {
    lr_mult: 1
    decay_mult: 1
  }
  param {
    lr_mult: 2
    decay_mult: 0
  }
  convolution_param {
    num_output: 64
    kernel_size: 1
    weight_filler {
      type: "xavier"
      std: 0.1
    }
    bias_filler {
      type: "constant"
      value: 0.2
    }
  }
}
layer {
  name: "inception_4c/relu_pool_proj"
  type: "ReLU"
  bottom: "inception_4c/pool_proj"
  top: "inception_4c/pool_proj"
}
layer {
  name: "inception_4c/output"
  type: "Concat"
  bottom: "inception_4c/1x1"
  bottom: "inception_4c/3x3"
  bottom: "inception_4c/5x5"
  bottom: "inception_4c/pool_proj"
  top: "inception_4c/output"
}
layer {
  name: "inception_4d/1x1"
  type: "Convolution"
  bottom: "inception_4c/output"
  top: "inception_4d/1x1"
  param {
    lr_mult: 1
    decay_mult: 1
  }
  param {
    lr_mult: 2
    decay_mult: 0
  }
  convolution_param {
    num_output: 112
    kernel_size: 1
    weight_filler {
      type: "xavier"
      std: 0.03
    }
    bias_filler {
      type: "constant"
      value: 0.2
    }
  }
}
layer {
  name: "inception_4d/relu_1x1"
  type: "ReLU"
  bottom: "inception_4d/1x1"
  top: "inception_4d/1x1"
}
layer {
  name: "inception_4d/3x3_reduce"
  type: "Convolution"
  bottom: "inception_4c/output"
  top: "inception_4d/3x3_reduce"
  param {
    lr_mult: 1
    decay_mult: 1
  }
  param {
    lr_mult: 2
    decay_mult: 0
  }
  convolution_param {
    num_output: 144
    kernel_size: 1
    weight_filler {
      type: "xavier"
      std: 0.09
    }
    bias_filler {
      type: "constant"
      value: 0.2
    }
  }
}
layer {
  name: "inception_4d/relu_3x3_reduce"
  type: "ReLU"
  bottom: "inception_4d/3x3_reduce"
  top: "inception_4d/3x3_reduce"
}
layer {
  name: "inception_4d/3x3"
  type: "Convolution"
  bottom: "inception_4d/3x3_reduce"
  top: "inception_4d/3x3"
  param {
    lr_mult: 1
    decay_mult: 1
  }
  param {
    lr_mult: 2
    decay_mult: 0
  }
  convolution_param {
    num_output: 288
    pad: 1
    kernel_size: 3
    weight_filler {
      type: "xavier"
      std: 0.03
    }
    bias_filler {
      type: "constant"
      value: 0.2
    }
  }
}
layer {
  name: "inception_4d/relu_3x3"
  type: "ReLU"
  bottom: "inception_4d/3x3"
  top: "inception_4d/3x3"
}
layer {
  name: "inception_4d/5x5_reduce"
  type: "Convolution"
  bottom: "inception_4c/output"
  top: "inception_4d/5x5_reduce"
  param {
    lr_mult: 1
    decay_mult: 1
  }
  param {
    lr_mult: 2
    decay_mult: 0
  }
  convolution_param {
    num_output: 32
    kernel_size: 1
    weight_filler {
      type: "xavier"
      std: 0.2
    }
    bias_filler {
      type: "constant"
      value: 0.2
    }
  }
}
layer {
  name: "inception_4d/relu_5x5_reduce"
  type: "ReLU"
  bottom: "inception_4d/5x5_reduce"
  top: "inception_4d/5x5_reduce"
}
layer {
  name: "inception_4d/5x5"
  type: "Convolution"
  bottom: "inception_4d/5x5_reduce"
  top: "inception_4d/5x5"
  param {
    lr_mult: 1
    decay_mult: 1
  }
  param {
    lr_mult: 2
    decay_mult: 0
  }
  convolution_param {
    num_output: 64
    pad: 2
    kernel_size: 5
    weight_filler {
      type: "xavier"
      std: 0.03
    }
    bias_filler {
      type: "constant"
      value: 0.2
    }
  }
}
layer {
  name: "inception_4d/relu_5x5"
  type: "ReLU"
  bottom: "inception_4d/5x5"
  top: "inception_4d/5x5"
}
layer {
  name: "inception_4d/pool"
  type: "Pooling"
  bottom: "inception_4c/output"
  top: "inception_4d/pool"
  pooling_param {
    pool: MAX
    kernel_size: 3
    stride: 1
    pad: 1
  }
}
layer {
  name: "inception_4d/pool_proj"
  type: "Convolution"
  bottom: "inception_4d/pool"
  top: "inception_4d/pool_proj"
  param {
    lr_mult: 1
    decay_mult: 1
  }
  param {
    lr_mult: 2
    decay_mult: 0
  }
  convolution_param {
    num_output: 64
    kernel_size: 1
    weight_filler {
      type: "xavier"
      std: 0.1
    }
    bias_filler {
      type: "constant"
      value: 0.2
    }
  }
}
layer {
  name: "inception_4d/relu_pool_proj"
  type: "ReLU"
  bottom: "inception_4d/pool_proj"
  top: "inception_4d/pool_proj"
}
layer {
  name: "inception_4d/output"
  type: "Concat"
  bottom: "inception_4d/1x1"
  bottom: "inception_4d/3x3"
  bottom: "inception_4d/5x5"
  bottom: "inception_4d/pool_proj"
  top: "inception_4d/output"
}
layer {
  name: "loss2/ave_pool"
  type: "Pooling"
  bottom: "inception_4d/output"
  top: "loss2/ave_pool"
  pooling_param {
    pool: AVE
    kernel_size: 5
    stride: 3
  }
}
layer {
  name: "loss2/conv"
  type: "Convolution"
  bottom: "loss2/ave_pool"
  top: "loss2/conv"
  param {
    lr_mult: 1
    decay_mult: 1
  }
  param {
    lr_mult: 2
    decay_mult: 0
  }
  convolution_param {
    num_output: 128
    kernel_size: 1
    weight_filler {
      type: "xavier"
      std: 0.08
    }
    bias_filler {
      type: "constant"
      value: 0.2
    }
  }
}
layer {
  name: "loss2/relu_conv"
  type: "ReLU"
  bottom: "loss2/conv"
  top: "loss2/conv"
}
layer {
  name: "loss2/fc"
  type: "InnerProduct"
  bottom: "loss2/conv"
  top: "loss2/fc"
  param {
    lr_mult: 1
    decay_mult: 1
  }
  param {
    lr_mult: 2
    decay_mult: 0
  }
  inner_product_param {
    num_output: 1024
    weight_filler {
      type: "xavier"
      std: 0.02
    }
    bias_filler {
      type: "constant"
      value: 0.2
    }
  }
}
layer {
  name: "loss2/relu_fc"
  type: "ReLU"
  bottom: "loss2/fc"
  top: "loss2/fc"
}
layer {
  name: "loss2/drop_fc"
  type: "Dropout"
  bottom: "loss2/fc"
  top: "loss2/fc"
  dropout_param {
    dropout_ratio: 0.7
  }
}
layer {
  name: "loss2/classifier_plantvillage"
  type: "InnerProduct"
  bottom: "loss2/fc"
  top: "loss2/classifier_plantvillage"
  param {
    lr_mult: 1
    decay_mult: 1
  }
  param {
    lr_mult: 2
    decay_mult: 0
  }
  inner_product_param {
    num_output: 38
    weight_filler {
      type: "xavier"
      std: 0.0009765625
    }
    bias_filler {
      type: "constant"
      value: 0
    }
  }
}
layer {
  name: "inception_4e/1x1"
  type: "Convolution"
  bottom: "inception_4d/output"
  top: "inception_4e/1x1"
  param {
    lr_mult: 1
    decay_mult: 1
  }
  param {
    lr_mult: 2
    decay_mult: 0
  }
  convolution_param {
    num_output: 256
    kernel_size: 1
    weight_filler {
      type: "xavier"
      std: 0.03
    }
    bias_filler {
      type: "constant"
      value: 0.2
    }
  }
}
layer {
  name: "inception_4e/relu_1x1"
  type: "ReLU"
  bottom: "inception_4e/1x1"
  top: "inception_4e/1x1"
}
layer {
  name: "inception_4e/3x3_reduce"
  type: "Convolution"
  bottom: "inception_4d/output"
  top: "inception_4e/3x3_reduce"
  param {
    lr_mult: 1
    decay_mult: 1
  }
  param {
    lr_mult: 2
    decay_mult: 0
  }
  convolution_param {
    num_output: 160
    kernel_size: 1
    weight_filler {
      type: "xavier"
      std: 0.09
    }
    bias_filler {
      type: "constant"
      value: 0.2
    }
  }
}
layer {
  name: "inception_4e/relu_3x3_reduce"
  type: "ReLU"
  bottom: "inception_4e/3x3_reduce"
  top: "inception_4e/3x3_reduce"
}
layer {
  name: "inception_4e/3x3"
  type: "Convolution"
  bottom: "inception_4e/3x3_reduce"
  top: "inception_4e/3x3"
  param {
    lr_mult: 1
    decay_mult: 1
  }
  param {
    lr_mult: 2
    decay_mult: 0
  }
  convolution_param {
    num_output: 320
    pad: 1
    kernel_size: 3
    weight_filler {
      type: "xavier"
      std: 0.03
    }
    bias_filler {
      type: "constant"
      value: 0.2
    }
  }
}
layer {
  name: "inception_4e/relu_3x3"
  type: "ReLU"
  bottom: "inception_4e/3x3"
  top: "inception_4e/3x3"
}
layer {
  name: "inception_4e/5x5_reduce"
  type: "Convolution"
  bottom: "inception_4d/output"
  top: "inception_4e/5x5_reduce"
  param {
    lr_mult: 1
    decay_mult: 1
  }
  param {
    lr_mult: 2
    decay_mult: 0
  }
  convolution_param {
    num_output: 32
    kernel_size: 1
    weight_filler {
      type: "xavier"
      std: 0.2
    }
    bias_filler {
      type: "constant"
      value: 0.2
    }
  }
}
layer {
  name: "inception_4e/relu_5x5_reduce"
  type: "ReLU"
  bottom: "inception_4e/5x5_reduce"
  top: "inception_4e/5x5_reduce"
}
layer {
  name: "inception_4e/5x5"
  type: "Convolution"
  bottom: "inception_4e/5x5_reduce"
  top: "inception_4e/
I0403 19:07:34.405822  8657 layer_factory.hpp:77] Creating layer data
I0403 19:07:34.406399  8657 net.cpp:91] Creating Layer data
I0403 19:07:34.406430  8657 net.cpp:399] data -> data
I0403 19:07:34.406481  8657 net.cpp:399] data -> label
I0403 19:07:34.406517  8657 data_transformer.cpp:25] Loading mean file from: /home/mohanty/data/final_dataset/lmdb/grayscale-50-50/mean.binaryproto
I0403 19:07:34.407572  8661 db_lmdb.cpp:38] Opened lmdb /home/mohanty/data/final_dataset/lmdb/grayscale-50-50/test_db
I0403 19:07:34.419534  8657 data_layer.cpp:41] output data size: 24,3,224,224
I0403 19:07:34.446077  8657 net.cpp:141] Setting up data
I0403 19:07:34.446156  8657 net.cpp:148] Top shape: 24 3 224 224 (3612672)
I0403 19:07:34.446177  8657 net.cpp:148] Top shape: 24 (24)
I0403 19:07:34.446192  8657 net.cpp:156] Memory required for data: 14450784
I0403 19:07:34.446223  8657 layer_factory.hpp:77] Creating layer label_data_1_split
I0403 19:07:34.446250  8657 net.cpp:91] Creating Layer label_data_1_split
I0403 19:07:34.446269  8657 net.cpp:425] label_data_1_split <- label
I0403 19:07:34.446298  8657 net.cpp:399] label_data_1_split -> label_data_1_split_0
I0403 19:07:34.446326  8657 net.cpp:399] label_data_1_split -> label_data_1_split_1
I0403 19:07:34.446346  8657 net.cpp:399] label_data_1_split -> label_data_1_split_2
I0403 19:07:34.446365  8657 net.cpp:399] label_data_1_split -> label_data_1_split_3
I0403 19:07:34.446384  8657 net.cpp:399] label_data_1_split -> label_data_1_split_4
I0403 19:07:34.446404  8657 net.cpp:399] label_data_1_split -> label_data_1_split_5
I0403 19:07:34.446424  8657 net.cpp:399] label_data_1_split -> label_data_1_split_6
I0403 19:07:34.446442  8657 net.cpp:399] label_data_1_split -> label_data_1_split_7
I0403 19:07:34.446461  8657 net.cpp:399] label_data_1_split -> label_data_1_split_8
I0403 19:07:34.446480  8657 net.cpp:399] label_data_1_split -> label_data_1_split_9
I0403 19:07:34.446593  8657 net.cpp:141] Setting up label_data_1_split
I0403 19:07:34.446616  8657 net.cpp:148] Top shape: 24 (24)
I0403 19:07:34.446633  8657 net.cpp:148] Top shape: 24 (24)
I0403 19:07:34.446650  8657 net.cpp:148] Top shape: 24 (24)
I0403 19:07:34.446665  8657 net.cpp:148] Top shape: 24 (24)
I0403 19:07:34.446679  8657 net.cpp:148] Top shape: 24 (24)
I0403 19:07:34.446696  8657 net.cpp:148] Top shape: 24 (24)
I0403 19:07:34.446710  8657 net.cpp:148] Top shape: 24 (24)
I0403 19:07:34.446727  8657 net.cpp:148] Top shape: 24 (24)
I0403 19:07:34.446741  8657 net.cpp:148] Top shape: 24 (24)
I0403 19:07:34.446758  8657 net.cpp:148] Top shape: 24 (24)
I0403 19:07:34.446800  8657 net.cpp:156] Memory required for data: 14451744
I0403 19:07:34.446816  8657 layer_factory.hpp:77] Creating layer conv1/7x7_s2
I0403 19:07:34.446847  8657 net.cpp:91] Creating Layer conv1/7x7_s2
I0403 19:07:34.446867  8657 net.cpp:425] conv1/7x7_s2 <- data
I0403 19:07:34.446887  8657 net.cpp:399] conv1/7x7_s2 -> conv1/7x7_s2
I0403 19:07:34.584678  8657 net.cpp:141] Setting up conv1/7x7_s2
I0403 19:07:34.584753  8657 net.cpp:148] Top shape: 24 64 112 112 (19267584)
I0403 19:07:34.584770  8657 net.cpp:156] Memory required for data: 91522080
I0403 19:07:34.584801  8657 layer_factory.hpp:77] Creating layer conv1/relu_7x7
I0403 19:07:34.584827  8657 net.cpp:91] Creating Layer conv1/relu_7x7
I0403 19:07:34.584846  8657 net.cpp:425] conv1/relu_7x7 <- conv1/7x7_s2
I0403 19:07:34.584864  8657 net.cpp:386] conv1/relu_7x7 -> conv1/7x7_s2 (in-place)
I0403 19:07:34.585185  8657 net.cpp:141] Setting up conv1/relu_7x7
I0403 19:07:34.585214  8657 net.cpp:148] Top shape: 24 64 112 112 (19267584)
I0403 19:07:34.585232  8657 net.cpp:156] Memory required for data: 168592416
I0403 19:07:34.585247  8657 layer_factory.hpp:77] Creating layer pool1/3x3_s2
I0403 19:07:34.585273  8657 net.cpp:91] Creating Layer pool1/3x3_s2
I0403 19:07:34.585289  8657 net.cpp:425] pool1/3x3_s2 <- conv1/7x7_s2
I0403 19:07:34.585307  8657 net.cpp:399] pool1/3x3_s2 -> pool1/3x3_s2
I0403 19:07:34.585381  8657 net.cpp:141] Setting up pool1/3x3_s2
I0403 19:07:34.585405  8657 net.cpp:148] Top shape: 24 64 56 56 (4816896)
I0403 19:07:34.585419  8657 net.cpp:156] Memory required for data: 187860000
I0403 19:07:34.585433  8657 layer_factory.hpp:77] Creating layer pool1/norm1
I0403 19:07:34.585456  8657 net.cpp:91] Creating Layer pool1/norm1
I0403 19:07:34.585474  8657 net.cpp:425] pool1/norm1 <- pool1/3x3_s2
I0403 19:07:34.585492  8657 net.cpp:399] pool1/norm1 -> pool1/norm1
I0403 19:07:34.585786  8657 net.cpp:141] Setting up pool1/norm1
I0403 19:07:34.585813  8657 net.cpp:148] Top shape: 24 64 56 56 (4816896)
I0403 19:07:34.585827  8657 net.cpp:156] Memory required for data: 207127584
I0403 19:07:34.585842  8657 layer_factory.hpp:77] Creating layer conv2/3x3_reduce
I0403 19:07:34.585868  8657 net.cpp:91] Creating Layer conv2/3x3_reduce
I0403 19:07:34.585886  8657 net.cpp:425] conv2/3x3_reduce <- pool1/norm1
I0403 19:07:34.585906  8657 net.cpp:399] conv2/3x3_reduce -> conv2/3x3_reduce
I0403 19:07:34.587287  8657 net.cpp:141] Setting up conv2/3x3_reduce
I0403 19:07:34.587317  8657 net.cpp:148] Top shape: 24 64 56 56 (4816896)
I0403 19:07:34.587334  8657 net.cpp:156] Memory required for data: 226395168
I0403 19:07:34.587354  8657 layer_factory.hpp:77] Creating layer conv2/relu_3x3_reduce
I0403 19:07:34.587373  8657 net.cpp:91] Creating Layer conv2/relu_3x3_reduce
I0403 19:07:34.587388  8657 net.cpp:425] conv2/relu_3x3_reduce <- conv2/3x3_reduce
I0403 19:07:34.587407  8657 net.cpp:386] conv2/relu_3x3_reduce -> conv2/3x3_reduce (in-place)
I0403 19:07:34.587659  8657 net.cpp:141] Setting up conv2/relu_3x3_reduce
I0403 19:07:34.587687  8657 net.cpp:148] Top shape: 24 64 56 56 (4816896)
I0403 19:07:34.587702  8657 net.cpp:156] Memory required for data: 245662752
I0403 19:07:34.587718  8657 layer_factory.hpp:77] Creating layer conv2/3x3
I0403 19:07:34.587740  8657 net.cpp:91] Creating Layer conv2/3x3
I0403 19:07:34.587757  8657 net.cpp:425] conv2/3x3 <- conv2/3x3_reduce
I0403 19:07:34.587775  8657 net.cpp:399] conv2/3x3 -> conv2/3x3
I0403 19:07:34.590040  8657 net.cpp:141] Setting up conv2/3x3
I0403 19:07:34.590072  8657 net.cpp:148] Top shape: 24 192 56 56 (14450688)
I0403 19:07:34.590090  8657 net.cpp:156] Memory required for data: 303465504
I0403 19:07:34.590111  8657 layer_factory.hpp:77] Creating layer conv2/relu_3x3
I0403 19:07:34.590129  8657 net.cpp:91] Creating Layer conv2/relu_3x3
I0403 19:07:34.590144  8657 net.cpp:425] conv2/relu_3x3 <- conv2/3x3
I0403 19:07:34.590167  8657 net.cpp:386] conv2/relu_3x3 -> conv2/3x3 (in-place)
I0403 19:07:34.590339  8657 net.cpp:141] Setting up conv2/relu_3x3
I0403 19:07:34.590364  8657 net.cpp:148] Top shape: 24 192 56 56 (14450688)
I0403 19:07:34.590409  8657 net.cpp:156] Memory required for data: 361268256
I0403 19:07:34.590425  8657 layer_factory.hpp:77] Creating layer conv2/norm2
I0403 19:07:34.590445  8657 net.cpp:91] Creating Layer conv2/norm2
I0403 19:07:34.590462  8657 net.cpp:425] conv2/norm2 <- conv2/3x3
I0403 19:07:34.590479  8657 net.cpp:399] conv2/norm2 -> conv2/norm2
I0403 19:07:34.590767  8657 net.cpp:141] Setting up conv2/norm2
I0403 19:07:34.590793  8657 net.cpp:148] Top shape: 24 192 56 56 (14450688)
I0403 19:07:34.590808  8657 net.cpp:156] Memory required for data: 419071008
I0403 19:07:34.590823  8657 layer_factory.hpp:77] Creating layer pool2/3x3_s2
I0403 19:07:34.590844  8657 net.cpp:91] Creating Layer pool2/3x3_s2
I0403 19:07:34.590862  8657 net.cpp:425] pool2/3x3_s2 <- conv2/norm2
I0403 19:07:34.590878  8657 net.cpp:399] pool2/3x3_s2 -> pool2/3x3_s2
I0403 19:07:34.590929  8657 net.cpp:141] Setting up pool2/3x3_s2
I0403 19:07:34.590951  8657 net.cpp:148] Top shape: 24 192 28 28 (3612672)
I0403 19:07:34.590966  8657 net.cpp:156] Memory required for data: 433521696
I0403 19:07:34.590981  8657 layer_factory.hpp:77] Creating layer pool2/3x3_s2_pool2/3x3_s2_0_split
I0403 19:07:34.590999  8657 net.cpp:91] Creating Layer pool2/3x3_s2_pool2/3x3_s2_0_split
I0403 19:07:34.591015  8657 net.cpp:425] pool2/3x3_s2_pool2/3x3_s2_0_split <- pool2/3x3_s2
I0403 19:07:34.591032  8657 net.cpp:399] pool2/3x3_s2_pool2/3x3_s2_0_split -> pool2/3x3_s2_pool2/3x3_s2_0_split_0
I0403 19:07:34.591051  8657 net.cpp:399] pool2/3x3_s2_pool2/3x3_s2_0_split -> pool2/3x3_s2_pool2/3x3_s2_0_split_1
I0403 19:07:34.591070  8657 net.cpp:399] pool2/3x3_s2_pool2/3x3_s2_0_split -> pool2/3x3_s2_pool2/3x3_s2_0_split_2
I0403 19:07:34.591090  8657 net.cpp:399] pool2/3x3_s2_pool2/3x3_s2_0_split -> pool2/3x3_s2_pool2/3x3_s2_0_split_3
I0403 19:07:34.591158  8657 net.cpp:141] Setting up pool2/3x3_s2_pool2/3x3_s2_0_split
I0403 19:07:34.591181  8657 net.cpp:148] Top shape: 24 192 28 28 (3612672)
I0403 19:07:34.591197  8657 net.cpp:148] Top shape: 24 192 28 28 (3612672)
I0403 19:07:34.591215  8657 net.cpp:148] Top shape: 24 192 28 28 (3612672)
I0403 19:07:34.591233  8657 net.cpp:148] Top shape: 24 192 28 28 (3612672)
I0403 19:07:34.591246  8657 net.cpp:156] Memory required for data: 491324448
I0403 19:07:34.591260  8657 layer_factory.hpp:77] Creating layer inception_3a/1x1
I0403 19:07:34.591282  8657 net.cpp:91] Creating Layer inception_3a/1x1
I0403 19:07:34.591300  8657 net.cpp:425] inception_3a/1x1 <- pool2/3x3_s2_pool2/3x3_s2_0_split_0
I0403 19:07:34.591320  8657 net.cpp:399] inception_3a/1x1 -> inception_3a/1x1
I0403 19:07:34.592826  8657 net.cpp:141] Setting up inception_3a/1x1
I0403 19:07:34.592859  8657 net.cpp:148] Top shape: 24 64 28 28 (1204224)
I0403 19:07:34.592875  8657 net.cpp:156] Memory required for data: 496141344
I0403 19:07:34.592893  8657 layer_factory.hpp:77] Creating layer inception_3a/relu_1x1
I0403 19:07:34.592911  8657 net.cpp:91] Creating Layer inception_3a/relu_1x1
I0403 19:07:34.592926  8657 net.cpp:425] inception_3a/relu_1x1 <- inception_3a/1x1
I0403 19:07:34.592943  8657 net.cpp:386] inception_3a/relu_1x1 -> inception_3a/1x1 (in-place)
I0403 19:07:34.593165  8657 net.cpp:141] Setting up inception_3a/relu_1x1
I0403 19:07:34.593191  8657 net.cpp:148] Top shape: 24 64 28 28 (1204224)
I0403 19:07:34.593205  8657 net.cpp:156] Memory required for data: 500958240
I0403 19:07:34.593225  8657 layer_factory.hpp:77] Creating layer inception_3a/3x3_reduce
I0403 19:07:34.593246  8657 net.cpp:91] Creating Layer inception_3a/3x3_reduce
I0403 19:07:34.593263  8657 net.cpp:425] inception_3a/3x3_reduce <- pool2/3x3_s2_pool2/3x3_s2_0_split_1
I0403 19:07:34.593283  8657 net.cpp:399] inception_3a/3x3_reduce -> inception_3a/3x3_reduce
I0403 19:07:34.594944  8657 net.cpp:141] Setting up inception_3a/3x3_reduce
I0403 19:07:34.594976  8657 net.cpp:148] Top shape: 24 96 28 28 (1806336)
I0403 19:07:34.594993  8657 net.cpp:156] Memory required for data: 508183584
I0403 19:07:34.595016  8657 layer_factory.hpp:77] Creating layer inception_3a/relu_3x3_reduce
I0403 19:07:34.595053  8657 net.cpp:91] Creating Layer inception_3a/relu_3x3_reduce
I0403 19:07:34.595072  8657 net.cpp:425] inception_3a/relu_3x3_reduce <- inception_3a/3x3_reduce
I0403 19:07:34.595090  8657 net.cpp:386] inception_3a/relu_3x3_reduce -> inception_3a/3x3_reduce (in-place)
I0403 19:07:34.595268  8657 net.cpp:141] Setting up inception_3a/relu_3x3_reduce
I0403 19:07:34.595293  8657 net.cpp:148] Top shape: 24 96 28 28 (1806336)
I0403 19:07:34.595309  8657 net.cpp:156] Memory required for data: 515408928
I0403 19:07:34.595324  8657 layer_factory.hpp:77] Creating layer inception_3a/3x3
I0403 19:07:34.595350  8657 net.cpp:91] Creating Layer inception_3a/3x3
I0403 19:07:34.595368  8657 net.cpp:425] inception_3a/3x3 <- inception_3a/3x3_reduce
I0403 19:07:34.595387  8657 net.cpp:399] inception_3a/3x3 -> inception_3a/3x3
I0403 19:07:34.596954  8657 net.cpp:141] Setting up inception_3a/3x3
I0403 19:07:34.596982  8657 net.cpp:148] Top shape: 24 128 28 28 (2408448)
I0403 19:07:34.596997  8657 net.cpp:156] Memory required for data: 525042720
I0403 19:07:34.597014  8657 layer_factory.hpp:77] Creating layer inception_3a/relu_3x3
I0403 19:07:34.597031  8657 net.cpp:91] Creating Layer inception_3a/relu_3x3
I0403 19:07:34.597046  8657 net.cpp:425] inception_3a/relu_3x3 <- inception_3a/3x3
I0403 19:07:34.597065  8657 net.cpp:386] inception_3a/relu_3x3 -> inception_3a/3x3 (in-place)
I0403 19:07:34.597321  8657 net.cpp:141] Setting up inception_3a/relu_3x3
I0403 19:07:34.597347  8657 net.cpp:148] Top shape: 24 128 28 28 (2408448)
I0403 19:07:34.597362  8657 net.cpp:156] Memory required for data: 534676512
I0403 19:07:34.597375  8657 layer_factory.hpp:77] Creating layer inception_3a/5x5_reduce
I0403 19:07:34.597400  8657 net.cpp:91] Creating Layer inception_3a/5x5_reduce
I0403 19:07:34.597419  8657 net.cpp:425] inception_3a/5x5_reduce <- pool2/3x3_s2_pool2/3x3_s2_0_split_2
I0403 19:07:34.597439  8657 net.cpp:399] inception_3a/5x5_reduce -> inception_3a/5x5_reduce
I0403 19:07:34.598326  8657 net.cpp:141] Setting up inception_3a/5x5_reduce
I0403 19:07:34.598352  8657 net.cpp:148] Top shape: 24 16 28 28 (301056)
I0403 19:07:34.598367  8657 net.cpp:156] Memory required for data: 535880736
I0403 19:07:34.598384  8657 layer_factory.hpp:77] Creating layer inception_3a/relu_5x5_reduce
I0403 19:07:34.598402  8657 net.cpp:91] Creating Layer inception_3a/relu_5x5_reduce
I0403 19:07:34.598417  8657 net.cpp:425] inception_3a/relu_5x5_reduce <- inception_3a/5x5_reduce
I0403 19:07:34.598435  8657 net.cpp:386] inception_3a/relu_5x5_reduce -> inception_3a/5x5_reduce (in-place)
I0403 19:07:34.598698  8657 net.cpp:141] Setting up inception_3a/relu_5x5_reduce
I0403 19:07:34.598722  8657 net.cpp:148] Top shape: 24 16 28 28 (301056)
I0403 19:07:34.598737  8657 net.cpp:156] Memory required for data: 537084960
I0403 19:07:34.598750  8657 layer_factory.hpp:77] Creating layer inception_3a/5x5
I0403 19:07:34.598772  8657 net.cpp:91] Creating Layer inception_3a/5x5
I0403 19:07:34.598788  8657 net.cpp:425] inception_3a/5x5 <- inception_3a/5x5_reduce
I0403 19:07:34.598808  8657 net.cpp:399] inception_3a/5x5 -> inception_3a/5x5
I0403 19:07:34.599795  8657 net.cpp:141] Setting up inception_3a/5x5
I0403 19:07:34.599823  8657 net.cpp:148] Top shape: 24 32 28 28 (602112)
I0403 19:07:34.599838  8657 net.cpp:156] Memory required for data: 539493408
I0403 19:07:34.599854  8657 layer_factory.hpp:77] Creating layer inception_3a/relu_5x5
I0403 19:07:34.599872  8657 net.cpp:91] Creating Layer inception_3a/relu_5x5
I0403 19:07:34.599887  8657 net.cpp:425] inception_3a/relu_5x5 <- inception_3a/5x5
I0403 19:07:34.599906  8657 net.cpp:386] inception_3a/relu_5x5 -> inception_3a/5x5 (in-place)
I0403 19:07:34.600069  8657 net.cpp:141] Setting up inception_3a/relu_5x5
I0403 19:07:34.600092  8657 net.cpp:148] Top shape: 24 32 28 28 (602112)
I0403 19:07:34.600106  8657 net.cpp:156] Memory required for data: 541901856
I0403 19:07:34.600121  8657 layer_factory.hpp:77] Creating layer inception_3a/pool
I0403 19:07:34.600136  8657 net.cpp:91] Creating Layer inception_3a/pool
I0403 19:07:34.600170  8657 net.cpp:425] inception_3a/pool <- pool2/3x3_s2_pool2/3x3_s2_0_split_3
I0403 19:07:34.600201  8657 net.cpp:399] inception_3a/pool -> inception_3a/pool
I0403 19:07:34.600270  8657 net.cpp:141] Setting up inception_3a/pool
I0403 19:07:34.600291  8657 net.cpp:148] Top shape: 24 192 28 28 (3612672)
I0403 19:07:34.600306  8657 net.cpp:156] Memory required for data: 556352544
I0403 19:07:34.600320  8657 layer_factory.hpp:77] Creating layer inception_3a/pool_proj
I0403 19:07:34.600342  8657 net.cpp:91] Creating Layer inception_3a/pool_proj
I0403 19:07:34.600358  8657 net.cpp:425] inception_3a/pool_proj <- inception_3a/pool
I0403 19:07:34.600378  8657 net.cpp:399] inception_3a/pool_proj -> inception_3a/pool_proj
I0403 19:07:34.601333  8657 net.cpp:141] Setting up inception_3a/pool_proj
I0403 19:07:34.601361  8657 net.cpp:148] Top shape: 24 32 28 28 (602112)
I0403 19:07:34.601375  8657 net.cpp:156] Memory required for data: 558760992
I0403 19:07:34.601409  8657 layer_factory.hpp:77] Creating layer inception_3a/relu_pool_proj
I0403 19:07:34.601428  8657 net.cpp:91] Creating Layer inception_3a/relu_pool_proj
I0403 19:07:34.601444  8657 net.cpp:425] inception_3a/relu_pool_proj <- inception_3a/pool_proj
I0403 19:07:34.601470  8657 net.cpp:386] inception_3a/relu_pool_proj -> inception_3a/pool_proj (in-place)
I0403 19:07:34.601732  8657 net.cpp:141] Setting up inception_3a/relu_pool_proj
I0403 19:07:34.601757  8657 net.cpp:148] Top shape: 24 32 28 28 (602112)
I0403 19:07:34.601770  8657 net.cpp:156] Memory required for data: 561169440
I0403 19:07:34.601783  8657 layer_factory.hpp:77] Creating layer inception_3a/output
I0403 19:07:34.601800  8657 net.cpp:91] Creating Layer inception_3a/output
I0403 19:07:34.601815  8657 net.cpp:425] inception_3a/output <- inception_3a/1x1
I0403 19:07:34.601830  8657 net.cpp:425] inception_3a/output <- inception_3a/3x3
I0403 19:07:34.601845  8657 net.cpp:425] inception_3a/output <- inception_3a/5x5
I0403 19:07:34.601861  8657 net.cpp:425] inception_3a/output <- inception_3a/pool_proj
I0403 19:07:34.601878  8657 net.cpp:399] inception_3a/output -> inception_3a/output
I0403 19:07:34.601922  8657 net.cpp:141] Setting up inception_3a/output
I0403 19:07:34.601945  8657 net.cpp:148] Top shape: 24 256 28 28 (4816896)
I0403 19:07:34.601960  8657 net.cpp:156] Memory required for data: 580437024
I0403 19:07:34.601974  8657 layer_factory.hpp:77] Creating layer inception_3a/output_inception_3a/output_0_split
I0403 19:07:34.601990  8657 net.cpp:91] Creating Layer inception_3a/output_inception_3a/output_0_split
I0403 19:07:34.602005  8657 net.cpp:425] inception_3a/output_inception_3a/output_0_split <- inception_3a/output
I0403 19:07:34.602020  8657 net.cpp:399] inception_3a/output_inception_3a/output_0_split -> inception_3a/output_inception_3a/output_0_split_0
I0403 19:07:34.602038  8657 net.cpp:399] inception_3a/output_inception_3a/output_0_split -> inception_3a/output_inception_3a/output_0_split_1
I0403 19:07:34.602061  8657 net.cpp:399] inception_3a/output_inception_3a/output_0_split -> inception_3a/output_inception_3a/output_0_split_2
I0403 19:07:34.602082  8657 net.cpp:399] inception_3a/output_inception_3a/output_0_split -> inception_3a/output_inception_3a/output_0_split_3
I0403 19:07:34.602154  8657 net.cpp:141] Setting up inception_3a/output_inception_3a/output_0_split
I0403 19:07:34.602176  8657 net.cpp:148] Top shape: 24 256 28 28 (4816896)
I0403 19:07:34.602192  8657 net.cpp:148] Top shape: 24 256 28 28 (4816896)
I0403 19:07:34.602211  8657 net.cpp:148] Top shape: 24 256 28 28 (4816896)
I0403 19:07:34.602227  8657 net.cpp:148] Top shape: 24 256 28 28 (4816896)
I0403 19:07:34.602241  8657 net.cpp:156] Memory required for data: 657507360
I0403 19:07:34.602255  8657 layer_factory.hpp:77] Creating layer inception_3b/1x1
I0403 19:07:34.602277  8657 net.cpp:91] Creating Layer inception_3b/1x1
I0403 19:07:34.602293  8657 net.cpp:425] inception_3b/1x1 <- inception_3a/output_inception_3a/output_0_split_0
I0403 19:07:34.602310  8657 net.cpp:399] inception_3b/1x1 -> inception_3b/1x1
I0403 19:07:34.603363  8657 net.cpp:141] Setting up inception_3b/1x1
I0403 19:07:34.603400  8657 net.cpp:148] Top shape: 24 128 28 28 (2408448)
I0403 19:07:34.603416  8657 net.cpp:156] Memory required for data: 667141152
I0403 19:07:34.603433  8657 layer_factory.hpp:77] Creating layer inception_3b/relu_1x1
I0403 19:07:34.603452  8657 net.cpp:91] Creating Layer inception_3b/relu_1x1
I0403 19:07:34.603471  8657 net.cpp:425] inception_3b/relu_1x1 <- inception_3b/1x1
I0403 19:07:34.603487  8657 net.cpp:386] inception_3b/relu_1x1 -> inception_3b/1x1 (in-place)
I0403 19:07:34.603649  8657 net.cpp:141] Setting up inception_3b/relu_1x1
I0403 19:07:34.603673  8657 net.cpp:148] Top shape: 24 128 28 28 (2408448)
I0403 19:07:34.603688  8657 net.cpp:156] Memory required for data: 676774944
I0403 19:07:34.603700  8657 layer_factory.hpp:77] Creating layer inception_3b/3x3_reduce
I0403 19:07:34.603723  8657 net.cpp:91] Creating Layer inception_3b/3x3_reduce
I0403 19:07:34.603739  8657 net.cpp:425] inception_3b/3x3_reduce <- inception_3a/output_inception_3a/output_0_split_1
I0403 19:07:34.603760  8657 net.cpp:399] inception_3b/3x3_reduce -> inception_3b/3x3_reduce
I0403 19:07:34.604814  8657 net.cpp:141] Setting up inception_3b/3x3_reduce
I0403 19:07:34.604841  8657 net.cpp:148] Top shape: 24 128 28 28 (2408448)
I0403 19:07:34.604857  8657 net.cpp:156] Memory required for data: 686408736
I0403 19:07:34.604874  8657 layer_factory.hpp:77] Creating layer inception_3b/relu_3x3_reduce
I0403 19:07:34.604892  8657 net.cpp:91] Creating Layer inception_3b/relu_3x3_reduce
I0403 19:07:34.604907  8657 net.cpp:425] inception_3b/relu_3x3_reduce <- inception_3b/3x3_reduce
I0403 19:07:34.604923  8657 net.cpp:386] inception_3b/relu_3x3_reduce -> inception_3b/3x3_reduce (in-place)
I0403 19:07:34.605087  8657 net.cpp:141] Setting up inception_3b/relu_3x3_reduce
I0403 19:07:34.605110  8657 net.cpp:148] Top shape: 24 128 28 28 (2408448)
I0403 19:07:34.605124  8657 net.cpp:156] Memory required for data: 696042528
I0403 19:07:34.605137  8657 layer_factory.hpp:77] Creating layer inception_3b/3x3
I0403 19:07:34.605173  8657 net.cpp:91] Creating Layer inception_3b/3x3
I0403 19:07:34.605191  8657 net.cpp:425] inception_3b/3x3 <- inception_3b/3x3_reduce
I0403 19:07:34.605216  8657 net.cpp:399] inception_3b/3x3 -> inception_3b/3x3
I0403 19:07:34.607972  8657 net.cpp:141] Setting up inception_3b/3x3
I0403 19:07:34.608000  8657 net.cpp:148] Top shape: 24 192 28 28 (3612672)
I0403 19:07:34.608014  8657 net.cpp:156] Memory required for data: 710493216
I0403 19:07:34.608031  8657 layer_factory.hpp:77] Creating layer inception_3b/relu_3x3
I0403 19:07:34.608048  8657 net.cpp:91] Creating Layer inception_3b/relu_3x3
I0403 19:07:34.608063  8657 net.cpp:425] inception_3b/relu_3x3 <- inception_3b/3x3
I0403 19:07:34.608085  8657 net.cpp:386] inception_3b/relu_3x3 -> inception_3b/3x3 (in-place)
I0403 19:07:34.608348  8657 net.cpp:141] Setting up inception_3b/relu_3x3
I0403 19:07:34.608373  8657 net.cpp:148] Top shape: 24 192 28 28 (3612672)
I0403 19:07:34.608388  8657 net.cpp:156] Memory required for data: 724943904
I0403 19:07:34.608402  8657 layer_factory.hpp:77] Creating layer inception_3b/5x5_reduce
I0403 19:07:34.608423  8657 net.cpp:91] Creating Layer inception_3b/5x5_reduce
I0403 19:07:34.608440  8657 net.cpp:425] inception_3b/5x5_reduce <- inception_3a/output_inception_3a/output_0_split_2
I0403 19:07:34.608463  8657 net.cpp:399] inception_3b/5x5_reduce -> inception_3b/5x5_reduce
I0403 19:07:34.609390  8657 net.cpp:141] Setting up inception_3b/5x5_reduce
I0403 19:07:34.609416  8657 net.cpp:148] Top shape: 24 32 28 28 (602112)
I0403 19:07:34.609431  8657 net.cpp:156] Memory required for data: 727352352
I0403 19:07:34.609448  8657 layer_factory.hpp:77] Creating layer inception_3b/relu_5x5_reduce
I0403 19:07:34.609465  8657 net.cpp:91] Creating Layer inception_3b/relu_5x5_reduce
I0403 19:07:34.609480  8657 net.cpp:425] inception_3b/relu_5x5_reduce <- inception_3b/5x5_reduce
I0403 19:07:34.609498  8657 net.cpp:386] inception_3b/relu_5x5_reduce -> inception_3b/5x5_reduce (in-place)
I0403 19:07:34.609680  8657 net.cpp:141] Setting up inception_3b/relu_5x5_reduce
I0403 19:07:34.609704  8657 net.cpp:148] Top shape: 24 32 28 28 (602112)
I0403 19:07:34.609719  8657 net.cpp:156] Memory required for data: 729760800
I0403 19:07:34.609732  8657 layer_factory.hpp:77] Creating layer inception_3b/5x5
I0403 19:07:34.609755  8657 net.cpp:91] Creating Layer inception_3b/5x5
I0403 19:07:34.609771  8657 net.cpp:425] inception_3b/5x5 <- inception_3b/5x5_reduce
I0403 19:07:34.609791  8657 net.cpp:399] inception_3b/5x5 -> inception_3b/5x5
I0403 19:07:34.611627  8657 net.cpp:141] Setting up inception_3b/5x5
I0403 19:07:34.611656  8657 net.cpp:148] Top shape: 24 96 28 28 (1806336)
I0403 19:07:34.611672  8657 net.cpp:156] Memory required for data: 736986144
I0403 19:07:34.611690  8657 layer_factory.hpp:77] Creating layer inception_3b/relu_5x5
I0403 19:07:34.611706  8657 net.cpp:91] Creating Layer inception_3b/relu_5x5
I0403 19:07:34.611721  8657 net.cpp:425] inception_3b/relu_5x5 <- inception_3b/5x5
I0403 19:07:34.611737  8657 net.cpp:386] inception_3b/relu_5x5 -> inception_3b/5x5 (in-place)
I0403 19:07:34.611917  8657 net.cpp:141] Setting up inception_3b/relu_5x5
I0403 19:07:34.611940  8657 net.cpp:148] Top shape: 24 96 28 28 (1806336)
I0403 19:07:34.611954  8657 net.cpp:156] Memory required for data: 744211488
I0403 19:07:34.611968  8657 layer_factory.hpp:77] Creating layer inception_3b/pool
I0403 19:07:34.611984  8657 net.cpp:91] Creating Layer inception_3b/pool
I0403 19:07:34.611999  8657 net.cpp:425] inception_3b/pool <- inception_3a/output_inception_3a/output_0_split_3
I0403 19:07:34.612016  8657 net.cpp:399] inception_3b/pool -> inception_3b/pool
I0403 19:07:34.612068  8657 net.cpp:141] Setting up inception_3b/pool
I0403 19:07:34.612092  8657 net.cpp:148] Top shape: 24 256 28 28 (4816896)
I0403 19:07:34.612107  8657 net.cpp:156] Memory required for data: 763479072
I0403 19:07:34.612121  8657 layer_factory.hpp:77] Creating layer inception_3b/pool_proj
I0403 19:07:34.612143  8657 net.cpp:91] Creating Layer inception_3b/pool_proj
I0403 19:07:34.612159  8657 net.cpp:425] inception_3b/pool_proj <- inception_3b/pool
I0403 19:07:34.612176  8657 net.cpp:399] inception_3b/pool_proj -> inception_3b/pool_proj
I0403 19:07:34.613162  8657 net.cpp:141] Setting up inception_3b/pool_proj
I0403 19:07:34.613188  8657 net.cpp:148] Top shape: 24 64 28 28 (1204224)
I0403 19:07:34.613204  8657 net.cpp:156] Memory required for data: 768295968
I0403 19:07:34.613232  8657 layer_factory.hpp:77] Creating layer inception_3b/relu_pool_proj
I0403 19:07:34.613255  8657 net.cpp:91] Creating Layer inception_3b/relu_pool_proj
I0403 19:07:34.613270  8657 net.cpp:425] inception_3b/relu_pool_proj <- inception_3b/pool_proj
I0403 19:07:34.613286  8657 net.cpp:386] inception_3b/relu_pool_proj -> inception_3b/pool_proj (in-place)
I0403 19:07:34.613649  8657 net.cpp:141] Setting up inception_3b/relu_pool_proj
I0403 19:07:34.613673  8657 net.cpp:148] Top shape: 24 64 28 28 (1204224)
I0403 19:07:34.613688  8657 net.cpp:156] Memory required for data: 773112864
I0403 19:07:34.613703  8657 layer_factory.hpp:77] Creating layer inception_3b/output
I0403 19:07:34.613719  8657 net.cpp:91] Creating Layer inception_3b/output
I0403 19:07:34.613734  8657 net.cpp:425] inception_3b/output <- inception_3b/1x1
I0403 19:07:34.613750  8657 net.cpp:425] inception_3b/output <- inception_3b/3x3
I0403 19:07:34.613765  8657 net.cpp:425] inception_3b/output <- inception_3b/5x5
I0403 19:07:34.613780  8657 net.cpp:425] inception_3b/output <- inception_3b/pool_proj
I0403 19:07:34.613798  8657 net.cpp:399] inception_3b/output -> inception_3b/output
I0403 19:07:34.613838  8657 net.cpp:141] Setting up inception_3b/output
I0403 19:07:34.613862  8657 net.cpp:148] Top shape: 24 480 28 28 (9031680)
I0403 19:07:34.613878  8657 net.cpp:156] Memory required for data: 809239584
I0403 19:07:34.613891  8657 layer_factory.hpp:77] Creating layer pool3/3x3_s2
I0403 19:07:34.613908  8657 net.cpp:91] Creating Layer pool3/3x3_s2
I0403 19:07:34.613922  8657 net.cpp:425] pool3/3x3_s2 <- inception_3b/output
I0403 19:07:34.613955  8657 net.cpp:399] pool3/3x3_s2 -> pool3/3x3_s2
I0403 19:07:34.614011  8657 net.cpp:141] Setting up pool3/3x3_s2
I0403 19:07:34.614032  8657 net.cpp:148] Top shape: 24 480 14 14 (2257920)
I0403 19:07:34.614045  8657 net.cpp:156] Memory required for data: 818271264
I0403 19:07:34.614058  8657 layer_factory.hpp:77] Creating layer pool3/3x3_s2_pool3/3x3_s2_0_split
I0403 19:07:34.614078  8657 net.cpp:91] Creating Layer pool3/3x3_s2_pool3/3x3_s2_0_split
I0403 19:07:34.614092  8657 net.cpp:425] pool3/3x3_s2_pool3/3x3_s2_0_split <- pool3/3x3_s2
I0403 19:07:34.614109  8657 net.cpp:399] pool3/3x3_s2_pool3/3x3_s2_0_split -> pool3/3x3_s2_pool3/3x3_s2_0_split_0
I0403 19:07:34.614127  8657 net.cpp:399] pool3/3x3_s2_pool3/3x3_s2_0_split -> pool3/3x3_s2_pool3/3x3_s2_0_split_1
I0403 19:07:34.614147  8657 net.cpp:399] pool3/3x3_s2_pool3/3x3_s2_0_split -> pool3/3x3_s2_pool3/3x3_s2_0_split_2
I0403 19:07:34.614166  8657 net.cpp:399] pool3/3x3_s2_pool3/3x3_s2_0_split -> pool3/3x3_s2_pool3/3x3_s2_0_split_3
I0403 19:07:34.614246  8657 net.cpp:141] Setting up pool3/3x3_s2_pool3/3x3_s2_0_split
I0403 19:07:34.614269  8657 net.cpp:148] Top shape: 24 480 14 14 (2257920)
I0403 19:07:34.614284  8657 net.cpp:148] Top shape: 24 480 14 14 (2257920)
I0403 19:07:34.614300  8657 net.cpp:148] Top shape: 24 480 14 14 (2257920)
I0403 19:07:34.614315  8657 net.cpp:148] Top shape: 24 480 14 14 (2257920)
I0403 19:07:34.614328  8657 net.cpp:156] Memory required for data: 854397984
I0403 19:07:34.614341  8657 layer_factory.hpp:77] Creating layer inception_4a/1x1
I0403 19:07:34.614362  8657 net.cpp:91] Creating Layer inception_4a/1x1
I0403 19:07:34.614379  8657 net.cpp:425] inception_4a/1x1 <- pool3/3x3_s2_pool3/3x3_s2_0_split_0
I0403 19:07:34.614399  8657 net.cpp:399] inception_4a/1x1 -> inception_4a/1x1
I0403 19:07:34.615876  8657 net.cpp:141] Setting up inception_4a/1x1
I0403 19:07:34.615902  8657 net.cpp:148] Top shape: 24 192 14 14 (903168)
I0403 19:07:34.615917  8657 net.cpp:156] Memory required for data: 858010656
I0403 19:07:34.615934  8657 layer_factory.hpp:77] Creating layer inception_4a/relu_1x1
I0403 19:07:34.615953  8657 net.cpp:91] Creating Layer inception_4a/relu_1x1
I0403 19:07:34.615969  8657 net.cpp:425] inception_4a/relu_1x1 <- inception_4a/1x1
I0403 19:07:34.615986  8657 net.cpp:386] inception_4a/relu_1x1 -> inception_4a/1x1 (in-place)
I0403 19:07:34.616153  8657 net.cpp:141] Setting up inception_4a/relu_1x1
I0403 19:07:34.616178  8657 net.cpp:148] Top shape: 24 192 14 14 (903168)
I0403 19:07:34.616192  8657 net.cpp:156] Memory required for data: 861623328
I0403 19:07:34.616206  8657 layer_factory.hpp:77] Creating layer inception_4a/3x3_reduce
I0403 19:07:34.616232  8657 net.cpp:91] Creating Layer inception_4a/3x3_reduce
I0403 19:07:34.616250  8657 net.cpp:425] inception_4a/3x3_reduce <- pool3/3x3_s2_pool3/3x3_s2_0_split_1
I0403 19:07:34.616267  8657 net.cpp:399] inception_4a/3x3_reduce -> inception_4a/3x3_reduce
I0403 19:07:34.617507  8657 net.cpp:141] Setting up inception_4a/3x3_reduce
I0403 19:07:34.617533  8657 net.cpp:148] Top shape: 24 96 14 14 (451584)
I0403 19:07:34.617547  8657 net.cpp:156] Memory required for data: 863429664
I0403 19:07:34.617570  8657 layer_factory.hpp:77] Creating layer inception_4a/relu_3x3_reduce
I0403 19:07:34.617591  8657 net.cpp:91] Creating Layer inception_4a/relu_3x3_reduce
I0403 19:07:34.617607  8657 net.cpp:425] inception_4a/relu_3x3_reduce <- inception_4a/3x3_reduce
I0403 19:07:34.617624  8657 net.cpp:386] inception_4a/relu_3x3_reduce -> inception_4a/3x3_reduce (in-place)
I0403 19:07:34.617794  8657 net.cpp:141] Setting up inception_4a/relu_3x3_reduce
I0403 19:07:34.617817  8657 net.cpp:148] Top shape: 24 96 14 14 (451584)
I0403 19:07:34.617831  8657 net.cpp:156] Memory required for data: 865236000
I0403 19:07:34.617846  8657 layer_factory.hpp:77] Creating layer inception_4a/3x3
I0403 19:07:34.617868  8657 net.cpp:91] Creating Layer inception_4a/3x3
I0403 19:07:34.617884  8657 net.cpp:425] inception_4a/3x3 <- inception_4a/3x3_reduce
I0403 19:07:34.617903  8657 net.cpp:399] inception_4a/3x3 -> inception_4a/3x3
I0403 19:07:34.620416  8657 net.cpp:141] Setting up inception_4a/3x3
I0403 19:07:34.620446  8657 net.cpp:148] Top shape: 24 208 14 14 (978432)
I0403 19:07:34.620465  8657 net.cpp:156] Memory required for data: 869149728
I0403 19:07:34.620481  8657 layer_factory.hpp:77] Creating layer inception_4a/relu_3x3
I0403 19:07:34.620499  8657 net.cpp:91] Creating Layer inception_4a/relu_3x3
I0403 19:07:34.620515  8657 net.cpp:425] inception_4a/relu_3x3 <- inception_4a/3x3
I0403 19:07:34.620532  8657 net.cpp:386] inception_4a/relu_3x3 -> inception_4a/3x3 (in-place)
I0403 19:07:34.620792  8657 net.cpp:141] Setting up inception_4a/relu_3x3
I0403 19:07:34.620820  8657 net.cpp:148] Top shape: 24 208 14 14 (978432)
I0403 19:07:34.620836  8657 net.cpp:156] Memory required for data: 873063456
I0403 19:07:34.620851  8657 layer_factory.hpp:77] Creating layer inception_4a/5x5_reduce
I0403 19:07:34.620875  8657 net.cpp:91] Creating Layer inception_4a/5x5_reduce
I0403 19:07:34.620893  8657 net.cpp:425] inception_4a/5x5_reduce <- pool3/3x3_s2_pool3/3x3_s2_0_split_2
I0403 19:07:34.620910  8657 net.cpp:399] inception_4a/5x5_reduce -> inception_4a/5x5_reduce
I0403 19:07:34.621873  8657 net.cpp:141] Setting up inception_4a/5x5_reduce
I0403 19:07:34.621901  8657 net.cpp:148] Top shape: 24 16 14 14 (75264)
I0403 19:07:34.621918  8657 net.cpp:156] Memory required for data: 873364512
I0403 19:07:34.621935  8657 layer_factory.hpp:77] Creating layer inception_4a/relu_5x5_reduce
I0403 19:07:34.621953  8657 net.cpp:91] Creating Layer inception_4a/relu_5x5_reduce
I0403 19:07:34.621968  8657 net.cpp:425] inception_4a/relu_5x5_reduce <- inception_4a/5x5_reduce
I0403 19:07:34.621987  8657 net.cpp:386] inception_4a/relu_5x5_reduce -> inception_4a/5x5_reduce (in-place)
I0403 19:07:34.622156  8657 net.cpp:141] Setting up inception_4a/relu_5x5_reduce
I0403 19:07:34.622180  8657 net.cpp:148] Top shape: 24 16 14 14 (75264)
I0403 19:07:34.622194  8657 net.cpp:156] Memory required for data: 873665568
I0403 19:07:34.622210  8657 layer_factory.hpp:77] Creating layer inception_4a/5x5
I0403 19:07:34.622233  8657 net.cpp:91] Creating Layer inception_4a/5x5
I0403 19:07:34.622249  8657 net.cpp:425] inception_4a/5x5 <- inception_4a/5x5_reduce
I0403 19:07:34.622269  8657 net.cpp:399] inception_4a/5x5 -> inception_4a/5x5
I0403 19:07:34.623299  8657 net.cpp:141] Setting up inception_4a/5x5
I0403 19:07:34.623327  8657 net.cpp:148] Top shape: 24 48 14 14 (225792)
I0403 19:07:34.623340  8657 net.cpp:156] Memory required for data: 874568736
I0403 19:07:34.623358  8657 layer_factory.hpp:77] Creating layer inception_4a/relu_5x5
I0403 19:07:34.623378  8657 net.cpp:91] Creating Layer inception_4a/relu_5x5
I0403 19:07:34.623394  8657 net.cpp:425] inception_4a/relu_5x5 <- inception_4a/5x5
I0403 19:07:34.623410  8657 net.cpp:386] inception_4a/relu_5x5 -> inception_4a/5x5 (in-place)
I0403 19:07:34.623577  8657 net.cpp:141] Setting up inception_4a/relu_5x5
I0403 19:07:34.623600  8657 net.cpp:148] Top shape: 24 48 14 14 (225792)
I0403 19:07:34.623615  8657 net.cpp:156] Memory required for data: 875471904
I0403 19:07:34.623628  8657 layer_factory.hpp:77] Creating layer inception_4a/pool
I0403 19:07:34.623647  8657 net.cpp:91] Creating Layer inception_4a/pool
I0403 19:07:34.623663  8657 net.cpp:425] inception_4a/pool <- pool3/3x3_s2_pool3/3x3_s2_0_split_3
I0403 19:07:34.623682  8657 net.cpp:399] inception_4a/pool -> inception_4a/pool
I0403 19:07:34.623739  8657 net.cpp:141] Setting up inception_4a/pool
I0403 19:07:34.623760  8657 net.cpp:148] Top shape: 24 480 14 14 (2257920)
I0403 19:07:34.623775  8657 net.cpp:156] Memory required for data: 884503584
I0403 19:07:34.623788  8657 layer_factory.hpp:77] Creating layer inception_4a/pool_proj
I0403 19:07:34.623808  8657 net.cpp:91] Creating Layer inception_4a/pool_proj
I0403 19:07:34.623826  8657 net.cpp:425] inception_4a/pool_proj <- inception_4a/pool
I0403 19:07:34.623848  8657 net.cpp:399] inception_4a/pool_proj -> inception_4a/pool_proj
I0403 19:07:34.624948  8657 net.cpp:141] Setting up inception_4a/pool_proj
I0403 19:07:34.624975  8657 net.cpp:148] Top shape: 24 64 14 14 (301056)
I0403 19:07:34.625004  8657 net.cpp:156] Memory required for data: 885707808
I0403 19:07:34.625021  8657 layer_factory.hpp:77] Creating layer inception_4a/relu_pool_proj
I0403 19:07:34.625041  8657 net.cpp:91] Creating Layer inception_4a/relu_pool_proj
I0403 19:07:34.625058  8657 net.cpp:425] inception_4a/relu_pool_proj <- inception_4a/pool_proj
I0403 19:07:34.625074  8657 net.cpp:386] inception_4a/relu_pool_proj -> inception_4a/pool_proj (in-place)
I0403 19:07:34.625357  8657 net.cpp:141] Setting up inception_4a/relu_pool_proj
I0403 19:07:34.625382  8657 net.cpp:148] Top shape: 24 64 14 14 (301056)
I0403 19:07:34.625397  8657 net.cpp:156] Memory required for data: 886912032
I0403 19:07:34.625411  8657 layer_factory.hpp:77] Creating layer inception_4a/output
I0403 19:07:34.625428  8657 net.cpp:91] Creating Layer inception_4a/output
I0403 19:07:34.625443  8657 net.cpp:425] inception_4a/output <- inception_4a/1x1
I0403 19:07:34.625463  8657 net.cpp:425] inception_4a/output <- inception_4a/3x3
I0403 19:07:34.625479  8657 net.cpp:425] inception_4a/output <- inception_4a/5x5
I0403 19:07:34.625495  8657 net.cpp:425] inception_4a/output <- inception_4a/pool_proj
I0403 19:07:34.625519  8657 net.cpp:399] inception_4a/output -> inception_4a/output
I0403 19:07:34.625577  8657 net.cpp:141] Setting up inception_4a/output
I0403 19:07:34.625600  8657 net.cpp:148] Top shape: 24 512 14 14 (2408448)
I0403 19:07:34.625627  8657 net.cpp:156] Memory required for data: 896545824
I0403 19:07:34.625643  8657 layer_factory.hpp:77] Creating layer inception_4a/output_inception_4a/output_0_split
I0403 19:07:34.625658  8657 net.cpp:91] Creating Layer inception_4a/output_inception_4a/output_0_split
I0403 19:07:34.625674  8657 net.cpp:425] inception_4a/output_inception_4a/output_0_split <- inception_4a/output
I0403 19:07:34.625692  8657 net.cpp:399] inception_4a/output_inception_4a/output_0_split -> inception_4a/output_inception_4a/output_0_split_0
I0403 19:07:34.625712  8657 net.cpp:399] inception_4a/output_inception_4a/output_0_split -> inception_4a/output_inception_4a/output_0_split_1
I0403 19:07:34.625733  8657 net.cpp:399] inception_4a/output_inception_4a/output_0_split -> inception_4a/output_inception_4a/output_0_split_2
I0403 19:07:34.625753  8657 net.cpp:399] inception_4a/output_inception_4a/output_0_split -> inception_4a/output_inception_4a/output_0_split_3
I0403 19:07:34.625772  8657 net.cpp:399] inception_4a/output_inception_4a/output_0_split -> inception_4a/output_inception_4a/output_0_split_4
I0403 19:07:34.625862  8657 net.cpp:141] Setting up inception_4a/output_inception_4a/output_0_split
I0403 19:07:34.625895  8657 net.cpp:148] Top shape: 24 512 14 14 (2408448)
I0403 19:07:34.625911  8657 net.cpp:148] Top shape: 24 512 14 14 (2408448)
I0403 19:07:34.625926  8657 net.cpp:148] Top shape: 24 512 14 14 (2408448)
I0403 19:07:34.625941  8657 net.cpp:148] Top shape: 24 512 14 14 (2408448)
I0403 19:07:34.625955  8657 net.cpp:148] Top shape: 24 512 14 14 (2408448)
I0403 19:07:34.625968  8657 net.cpp:156] Memory required for data: 944714784
I0403 19:07:34.625982  8657 layer_factory.hpp:77] Creating layer loss1/ave_pool
I0403 19:07:34.625998  8657 net.cpp:91] Creating Layer loss1/ave_pool
I0403 19:07:34.626013  8657 net.cpp:425] loss1/ave_pool <- inception_4a/output_inception_4a/output_0_split_0
I0403 19:07:34.626032  8657 net.cpp:399] loss1/ave_pool -> loss1/ave_pool
I0403 19:07:34.626227  8657 net.cpp:141] Setting up loss1/ave_pool
I0403 19:07:34.626251  8657 net.cpp:148] Top shape: 24 512 4 4 (196608)
I0403 19:07:34.626266  8657 net.cpp:156] Memory required for data: 945501216
I0403 19:07:34.626279  8657 layer_factory.hpp:77] Creating layer loss1/conv
I0403 19:07:34.626301  8657 net.cpp:91] Creating Layer loss1/conv
I0403 19:07:34.626317  8657 net.cpp:425] loss1/conv <- loss1/ave_pool
I0403 19:07:34.626337  8657 net.cpp:399] loss1/conv -> loss1/conv
I0403 19:07:34.627655  8657 net.cpp:141] Setting up loss1/conv
I0403 19:07:34.627686  8657 net.cpp:148] Top shape: 24 128 4 4 (49152)
I0403 19:07:34.627715  8657 net.cpp:156] Memory required for data: 945697824
I0403 19:07:34.627734  8657 layer_factory.hpp:77] Creating layer loss1/relu_conv
I0403 19:07:34.627751  8657 net.cpp:91] Creating Layer loss1/relu_conv
I0403 19:07:34.627768  8657 net.cpp:425] loss1/relu_conv <- loss1/conv
I0403 19:07:34.627784  8657 net.cpp:386] loss1/relu_conv -> loss1/conv (in-place)
I0403 19:07:34.628049  8657 net.cpp:141] Setting up loss1/relu_conv
I0403 19:07:34.628077  8657 net.cpp:148] Top shape: 24 128 4 4 (49152)
I0403 19:07:34.628093  8657 net.cpp:156] Memory required for data: 945894432
I0403 19:07:34.628106  8657 layer_factory.hpp:77] Creating layer loss1/fc
I0403 19:07:34.628129  8657 net.cpp:91] Creating Layer loss1/fc
I0403 19:07:34.628146  8657 net.cpp:425] loss1/fc <- loss1/conv
I0403 19:07:34.628166  8657 net.cpp:399] loss1/fc -> loss1/fc
I0403 19:07:34.644937  8657 net.cpp:141] Setting up loss1/fc
I0403 19:07:34.644969  8657 net.cpp:148] Top shape: 24 1024 (24576)
I0403 19:07:34.644985  8657 net.cpp:156] Memory required for data: 945992736
I0403 19:07:34.645004  8657 layer_factory.hpp:77] Creating layer loss1/relu_fc
I0403 19:07:34.645025  8657 net.cpp:91] Creating Layer loss1/relu_fc
I0403 19:07:34.645040  8657 net.cpp:425] loss1/relu_fc <- loss1/fc
I0403 19:07:34.645057  8657 net.cpp:386] loss1/relu_fc -> loss1/fc (in-place)
I0403 19:07:34.645234  8657 net.cpp:141] Setting up loss1/relu_fc
I0403 19:07:34.645261  8657 net.cpp:148] Top shape: 24 1024 (24576)
I0403 19:07:34.645274  8657 net.cpp:156] Memory required for data: 946091040
I0403 19:07:34.645289  8657 layer_factory.hpp:77] Creating layer loss1/drop_fc
I0403 19:07:34.645313  8657 net.cpp:91] Creating Layer loss1/drop_fc
I0403 19:07:34.645329  8657 net.cpp:425] loss1/drop_fc <- loss1/fc
I0403 19:07:34.645345  8657 net.cpp:386] loss1/drop_fc -> loss1/fc (in-place)
I0403 19:07:34.645395  8657 net.cpp:141] Setting up loss1/drop_fc
I0403 19:07:34.645417  8657 net.cpp:148] Top shape: 24 1024 (24576)
I0403 19:07:34.645431  8657 net.cpp:156] Memory required for data: 946189344
I0403 19:07:34.645445  8657 layer_factory.hpp:77] Creating layer loss1/classifier_plantvillage
I0403 19:07:34.645465  8657 net.cpp:91] Creating Layer loss1/classifier_plantvillage
I0403 19:07:34.645481  8657 net.cpp:425] loss1/classifier_plantvillage <- loss1/fc
I0403 19:07:34.645499  8657 net.cpp:399] loss1/classifier_plantvillage -> loss1/classifier_plantvillage
I0403 19:07:34.646354  8657 net.cpp:141] Setting up loss1/classifier_plantvillage
I0403 19:07:34.646383  8657 net.cpp:148] Top shape: 24 38 (912)
I0403 19:07:34.646399  8657 net.cpp:156] Memory required for data: 946192992
I0403 19:07:34.646415  8657 layer_factory.hpp:77] Creating layer loss1/classifier_plantvillage_loss1/classifier_plantvillage_0_split
I0403 19:07:34.646431  8657 net.cpp:91] Creating Layer loss1/classifier_plantvillage_loss1/classifier_plantvillage_0_split
I0403 19:07:34.646446  8657 net.cpp:425] loss1/classifier_plantvillage_loss1/classifier_plantvillage_0_split <- loss1/classifier_plantvillage
I0403 19:07:34.646463  8657 net.cpp:399] loss1/classifier_plantvillage_loss1/classifier_plantvillage_0_split -> loss1/classifier_plantvillage_loss1/classifier_plantvillage_0_split_0
I0403 19:07:34.646482  8657 net.cpp:399] loss1/classifier_plantvillage_loss1/classifier_plantvillage_0_split -> loss1/classifier_plantvillage_loss1/classifier_plantvillage_0_split_1
I0403 19:07:34.646502  8657 net.cpp:399] loss1/classifier_plantvillage_loss1/classifier_plantvillage_0_split -> loss1/classifier_plantvillage_loss1/classifier_plantvillage_0_split_2
I0403 19:07:34.646564  8657 net.cpp:141] Setting up loss1/classifier_plantvillage_loss1/classifier_plantvillage_0_split
I0403 19:07:34.646585  8657 net.cpp:148] Top shape: 24 38 (912)
I0403 19:07:34.646600  8657 net.cpp:148] Top shape: 24 38 (912)
I0403 19:07:34.646615  8657 net.cpp:148] Top shape: 24 38 (912)
I0403 19:07:34.646628  8657 net.cpp:156] Memory required for data: 946203936
I0403 19:07:34.646642  8657 layer_factory.hpp:77] Creating layer inception_4b/1x1
I0403 19:07:34.646661  8657 net.cpp:91] Creating Layer inception_4b/1x1
I0403 19:07:34.646692  8657 net.cpp:425] inception_4b/1x1 <- inception_4a/output_inception_4a/output_0_split_1
I0403 19:07:34.646713  8657 net.cpp:399] inception_4b/1x1 -> inception_4b/1x1
I0403 19:07:34.648254  8657 net.cpp:141] Setting up inception_4b/1x1
I0403 19:07:34.648284  8657 net.cpp:148] Top shape: 24 160 14 14 (752640)
I0403 19:07:34.648300  8657 net.cpp:156] Memory required for data: 949214496
I0403 19:07:34.648318  8657 layer_factory.hpp:77] Creating layer inception_4b/relu_1x1
I0403 19:07:34.648335  8657 net.cpp:91] Creating Layer inception_4b/relu_1x1
I0403 19:07:34.648350  8657 net.cpp:425] inception_4b/relu_1x1 <- inception_4b/1x1
I0403 19:07:34.648370  8657 net.cpp:386] inception_4b/relu_1x1 -> inception_4b/1x1 (in-place)
I0403 19:07:34.648540  8657 net.cpp:141] Setting up inception_4b/relu_1x1
I0403 19:07:34.648562  8657 net.cpp:148] Top shape: 24 160 14 14 (752640)
I0403 19:07:34.648576  8657 net.cpp:156] Memory required for data: 952225056
I0403 19:07:34.648591  8657 layer_factory.hpp:77] Creating layer inception_4b/3x3_reduce
I0403 19:07:34.648612  8657 net.cpp:91] Creating Layer inception_4b/3x3_reduce
I0403 19:07:34.648628  8657 net.cpp:425] inception_4b/3x3_reduce <- inception_4a/output_inception_4a/output_0_split_2
I0403 19:07:34.648649  8657 net.cpp:399] inception_4b/3x3_reduce -> inception_4b/3x3_reduce
I0403 19:07:34.649919  8657 net.cpp:141] Setting up inception_4b/3x3_reduce
I0403 19:07:34.649945  8657 net.cpp:148] Top shape: 24 112 14 14 (526848)
I0403 19:07:34.649958  8657 net.cpp:156] Memory required for data: 954332448
I0403 19:07:34.649976  8657 layer_factory.hpp:77] Creating layer inception_4b/relu_3x3_reduce
I0403 19:07:34.649996  8657 net.cpp:91] Creating Layer inception_4b/relu_3x3_reduce
I0403 19:07:34.650012  8657 net.cpp:425] inception_4b/relu_3x3_reduce <- inception_4b/3x3_reduce
I0403 19:07:34.650027  8657 net.cpp:386] inception_4b/relu_3x3_reduce -> inception_4b/3x3_reduce (in-place)
I0403 19:07:34.650298  8657 net.cpp:141] Setting up inception_4b/relu_3x3_reduce
I0403 19:07:34.650323  8657 net.cpp:148] Top shape: 24 112 14 14 (526848)
I0403 19:07:34.650337  8657 net.cpp:156] Memory required for data: 956439840
I0403 19:07:34.650352  8657 layer_factory.hpp:77] Creating layer inception_4b/3x3
I0403 19:07:34.650373  8657 net.cpp:91] Creating Layer inception_4b/3x3
I0403 19:07:34.650389  8657 net.cpp:425] inception_4b/3x3 <- inception_4b/3x3_reduce
I0403 19:07:34.650409  8657 net.cpp:399] inception_4b/3x3 -> inception_4b/3x3
I0403 19:07:34.653252  8657 net.cpp:141] Setting up inception_4b/3x3
I0403 19:07:34.653280  8657 net.cpp:148] Top shape: 24 224 14 14 (1053696)
I0403 19:07:34.653295  8657 net.cpp:156] Memory required for data: 960654624
I0403 19:07:34.653313  8657 layer_factory.hpp:77] Creating layer inception_4b/relu_3x3
I0403 19:07:34.653332  8657 net.cpp:91] Creating Layer inception_4b/relu_3x3
I0403 19:07:34.653349  8657 net.cpp:425] inception_4b/relu_3x3 <- inception_4b/3x3
I0403 19:07:34.653365  8657 net.cpp:386] inception_4b/relu_3x3 -> inception_4b/3x3 (in-place)
I0403 19:07:34.653537  8657 net.cpp:141] Setting up inception_4b/relu_3x3
I0403 19:07:34.653563  8657 net.cpp:148] Top shape: 24 224 14 14 (1053696)
I0403 19:07:34.653578  8657 net.cpp:156] Memory required for data: 964869408
I0403 19:07:34.653591  8657 layer_factory.hpp:77] Creating layer inception_4b/5x5_reduce
I0403 19:07:34.653615  8657 net.cpp:91] Creating Layer inception_4b/5x5_reduce
I0403 19:07:34.653632  8657 net.cpp:425] inception_4b/5x5_reduce <- inception_4a/output_inception_4a/output_0_split_3
I0403 19:07:34.653650  8657 net.cpp:399] inception_4b/5x5_reduce -> inception_4b/5x5_reduce
I0403 19:07:34.654673  8657 net.cpp:141] Setting up inception_4b/5x5_reduce
I0403 19:07:34.654702  8657 net.cpp:148] Top shape: 24 24 14 14 (112896)
I0403 19:07:34.654718  8657 net.cpp:156] Memory required for data: 965320992
I0403 19:07:34.654736  8657 layer_factory.hpp:77] Creating layer inception_4b/relu_5x5_reduce
I0403 19:07:34.654753  8657 net.cpp:91] Creating Layer inception_4b/relu_5x5_reduce
I0403 19:07:34.654783  8657 net.cpp:425] inception_4b/relu_5x5_reduce <- inception_4b/5x5_reduce
I0403 19:07:34.654803  8657 net.cpp:386] inception_4b/relu_5x5_reduce -> inception_4b/5x5_reduce (in-place)
I0403 19:07:34.654975  8657 net.cpp:141] Setting up inception_4b/relu_5x5_reduce
I0403 19:07:34.655000  8657 net.cpp:148] Top shape: 24 24 14 14 (112896)
I0403 19:07:34.655014  8657 net.cpp:156] Memory required for data: 965772576
I0403 19:07:34.655028  8657 layer_factory.hpp:77] Creating layer inception_4b/5x5
I0403 19:07:34.655050  8657 net.cpp:91] Creating Layer inception_4b/5x5
I0403 19:07:34.655066  8657 net.cpp:425] inception_4b/5x5 <- inception_4b/5x5_reduce
I0403 19:07:34.655087  8657 net.cpp:399] inception_4b/5x5 -> inception_4b/5x5
I0403 19:07:34.656249  8657 net.cpp:141] Setting up inception_4b/5x5
I0403 19:07:34.656276  8657 net.cpp:148] Top shape: 24 64 14 14 (301056)
I0403 19:07:34.656292  8657 net.cpp:156] Memory required for data: 966976800
I0403 19:07:34.656309  8657 layer_factory.hpp:77] Creating layer inception_4b/relu_5x5
I0403 19:07:34.656327  8657 net.cpp:91] Creating Layer inception_4b/relu_5x5
I0403 19:07:34.656342  8657 net.cpp:425] inception_4b/relu_5x5 <- inception_4b/5x5
I0403 19:07:34.656361  8657 net.cpp:386] inception_4b/relu_5x5 -> inception_4b/5x5 (in-place)
I0403 19:07:34.656628  8657 net.cpp:141] Setting up inception_4b/relu_5x5
I0403 19:07:34.656656  8657 net.cpp:148] Top shape: 24 64 14 14 (301056)
I0403 19:07:34.656671  8657 net.cpp:156] Memory required for data: 968181024
I0403 19:07:34.656685  8657 layer_factory.hpp:77] Creating layer inception_4b/pool
I0403 19:07:34.656702  8657 net.cpp:91] Creating Layer inception_4b/pool
I0403 19:07:34.656718  8657 net.cpp:425] inception_4b/pool <- inception_4a/output_inception_4a/output_0_split_4
I0403 19:07:34.656738  8657 net.cpp:399] inception_4b/pool -> inception_4b/pool
I0403 19:07:34.656798  8657 net.cpp:141] Setting up inception_4b/pool
I0403 19:07:34.656821  8657 net.cpp:148] Top shape: 24 512 14 14 (2408448)
I0403 19:07:34.656834  8657 net.cpp:156] Memory required for data: 977814816
I0403 19:07:34.656848  8657 layer_factory.hpp:77] Creating layer inception_4b/pool_proj
I0403 19:07:34.656868  8657 net.cpp:91] Creating Layer inception_4b/pool_proj
I0403 19:07:34.656891  8657 net.cpp:425] inception_4b/pool_proj <- inception_4b/pool
I0403 19:07:34.656908  8657 net.cpp:399] inception_4b/pool_proj -> inception_4b/pool_proj
I0403 19:07:34.658041  8657 net.cpp:141] Setting up inception_4b/pool_proj
I0403 19:07:34.658066  8657 net.cpp:148] Top shape: 24 64 14 14 (301056)
I0403 19:07:34.658082  8657 net.cpp:156] Memory required for data: 979019040
I0403 19:07:34.658098  8657 layer_factory.hpp:77] Creating layer inception_4b/relu_pool_proj
I0403 19:07:34.658115  8657 net.cpp:91] Creating Layer inception_4b/relu_pool_proj
I0403 19:07:34.658131  8657 net.cpp:425] inception_4b/relu_pool_proj <- inception_4b/pool_proj
I0403 19:07:34.658150  8657 net.cpp:386] inception_4b/relu_pool_proj -> inception_4b/pool_proj (in-place)
I0403 19:07:34.658326  8657 net.cpp:141] Setting up inception_4b/relu_pool_proj
I0403 19:07:34.658349  8657 net.cpp:148] Top shape: 24 64 14 14 (301056)
I0403 19:07:34.658363  8657 net.cpp:156] Memory required for data: 980223264
I0403 19:07:34.658377  8657 layer_factory.hpp:77] Creating layer inception_4b/output
I0403 19:07:34.658395  8657 net.cpp:91] Creating Layer inception_4b/output
I0403 19:07:34.658413  8657 net.cpp:425] inception_4b/output <- inception_4b/1x1
I0403 19:07:34.658429  8657 net.cpp:425] inception_4b/output <- inception_4b/3x3
I0403 19:07:34.658444  8657 net.cpp:425] inception_4b/output <- inception_4b/5x5
I0403 19:07:34.658460  8657 net.cpp:425] inception_4b/output <- inception_4b/pool_proj
I0403 19:07:34.658476  8657 net.cpp:399] inception_4b/output -> inception_4b/output
I0403 19:07:34.658517  8657 net.cpp:141] Setting up inception_4b/output
I0403 19:07:34.658541  8657 net.cpp:148] Top shape: 24 512 14 14 (2408448)
I0403 19:07:34.658556  8657 net.cpp:156] Memory required for data: 989857056
I0403 19:07:34.658582  8657 layer_factory.hpp:77] Creating layer inception_4b/output_inception_4b/output_0_split
I0403 19:07:34.658601  8657 net.cpp:91] Creating Layer inception_4b/output_inception_4b/output_0_split
I0403 19:07:34.658614  8657 net.cpp:425] inception_4b/output_inception_4b/output_0_split <- inception_4b/output
I0403 19:07:34.658633  8657 net.cpp:399] inception_4b/output_inception_4b/output_0_split -> inception_4b/output_inception_4b/output_0_split_0
I0403 19:07:34.658653  8657 net.cpp:399] inception_4b/output_inception_4b/output_0_split -> inception_4b/output_inception_4b/output_0_split_1
I0403 19:07:34.658673  8657 net.cpp:399] inception_4b/output_inception_4b/output_0_split -> inception_4b/output_inception_4b/output_0_split_2
I0403 19:07:34.658690  8657 net.cpp:399] inception_4b/output_inception_4b/output_0_split -> inception_4b/output_inception_4b/output_0_split_3
I0403 19:07:34.658767  8657 net.cpp:141] Setting up inception_4b/output_inception_4b/output_0_split
I0403 19:07:34.658792  8657 net.cpp:148] Top shape: 24 512 14 14 (2408448)
I0403 19:07:34.658808  8657 net.cpp:148] Top shape: 24 512 14 14 (2408448)
I0403 19:07:34.658823  8657 net.cpp:148] Top shape: 24 512 14 14 (2408448)
I0403 19:07:34.658838  8657 net.cpp:148] Top shape: 24 512 14 14 (2408448)
I0403 19:07:34.658851  8657 net.cpp:156] Memory required for data: 1028392224
I0403 19:07:34.658865  8657 layer_factory.hpp:77] Creating layer inception_4c/1x1
I0403 19:07:34.658892  8657 net.cpp:91] Creating Layer inception_4c/1x1
I0403 19:07:34.658910  8657 net.cpp:425] inception_4c/1x1 <- inception_4b/output_inception_4b/output_0_split_0
I0403 19:07:34.658928  8657 net.cpp:399] inception_4c/1x1 -> inception_4c/1x1
I0403 19:07:34.660290  8657 net.cpp:141] Setting up inception_4c/1x1
I0403 19:07:34.660316  8657 net.cpp:148] Top shape: 24 128 14 14 (602112)
I0403 19:07:34.660331  8657 net.cpp:156] Memory required for data: 1030800672
I0403 19:07:34.660349  8657 layer_factory.hpp:77] Creating layer inception_4c/relu_1x1
I0403 19:07:34.660368  8657 net.cpp:91] Creating Layer inception_4c/relu_1x1
I0403 19:07:34.660384  8657 net.cpp:425] inception_4c/relu_1x1 <- inception_4c/1x1
I0403 19:07:34.660400  8657 net.cpp:386] inception_4c/relu_1x1 -> inception_4c/1x1 (in-place)
I0403 19:07:34.660578  8657 net.cpp:141] Setting up inception_4c/relu_1x1
I0403 19:07:34.660603  8657 net.cpp:148] Top shape: 24 128 14 14 (602112)
I0403 19:07:34.660616  8657 net.cpp:156] Memory required for data: 1033209120
I0403 19:07:34.660629  8657 layer_factory.hpp:77] Creating layer inception_4c/3x3_reduce
I0403 19:07:34.660652  8657 net.cpp:91] Creating Layer inception_4c/3x3_reduce
I0403 19:07:34.660670  8657 net.cpp:425] inception_4c/3x3_reduce <- inception_4b/output_inception_4b/output_0_split_1
I0403 19:07:34.660687  8657 net.cpp:399] inception_4c/3x3_reduce -> inception_4c/3x3_reduce
I0403 19:07:34.662549  8657 net.cpp:141] Setting up inception_4c/3x3_reduce
I0403 19:07:34.662578  8657 net.cpp:148] Top shape: 24 128 14 14 (602112)
I0403 19:07:34.662595  8657 net.cpp:156] Memory required for data: 1035617568
I0403 19:07:34.662612  8657 layer_factory.hpp:77] Creating layer inception_4c/relu_3x3_reduce
I0403 19:07:34.662629  8657 net.cpp:91] Creating Layer inception_4c/relu_3x3_reduce
I0403 19:07:34.662645  8657 net.cpp:425] inception_4c/relu_3x3_reduce <- inception_4c/3x3_reduce
I0403 19:07:34.662664  8657 net.cpp:386] inception_4c/relu_3x3_reduce -> inception_4c/3x3_reduce (in-place)
I0403 19:07:34.662936  8657 net.cpp:141] Setting up inception_4c/relu_3x3_reduce
I0403 19:07:34.662963  8657 net.cpp:148] Top shape: 24 128 14 14 (602112)
I0403 19:07:34.662978  8657 net.cpp:156] Memory required for data: 1038026016
I0403 19:07:34.662993  8657 layer_factory.hpp:77] Creating layer inception_4c/3x3
I0403 19:07:34.663018  8657 net.cpp:91] Creating Layer inception_4c/3x3
I0403 19:07:34.663036  8657 net.cpp:425] inception_4c/3x3 <- inception_4c/3x3_reduce
I0403 19:07:34.663063  8657 net.cpp:399] inception_4c/3x3 -> inception_4c/3x3
I0403 19:07:34.666446  8657 net.cpp:141] Setting up inception_4c/3x3
I0403 19:07:34.666486  8657 net.cpp:148] Top shape: 24 256 14 14 (1204224)
I0403 19:07:34.666501  8657 net.cpp:156] Memory required for data: 1042842912
I0403 19:07:34.666532  8657 layer_factory.hpp:77] Creating layer inception_4c/relu_3x3
I0403 19:07:34.666551  8657 net.cpp:91] Creating Layer inception_4c/relu_3x3
I0403 19:07:34.666566  8657 net.cpp:425] inception_4c/relu_3x3 <- inception_4c/3x3
I0403 19:07:34.666585  8657 net.cpp:386] inception_4c/relu_3x3 -> inception_4c/3x3 (in-place)
I0403 19:07:34.666756  8657 net.cpp:141] Setting up inception_4c/relu_3x3
I0403 19:07:34.666782  8657 net.cpp:148] Top shape: 24 256 14 14 (1204224)
I0403 19:07:34.666797  8657 net.cpp:156] Memory required for data: 1047659808
I0403 19:07:34.666812  8657 layer_factory.hpp:77] Creating layer inception_4c/5x5_reduce
I0403 19:07:34.666834  8657 net.cpp:91] Creating Layer inception_4c/5x5_reduce
I0403 19:07:34.666851  8657 net.cpp:425] inception_4c/5x5_reduce <- inception_4b/output_inception_4b/output_0_split_2
I0403 19:07:34.666872  8657 net.cpp:399] inception_4c/5x5_reduce -> inception_4c/5x5_reduce
I0403 19:07:34.667903  8657 net.cpp:141] Setting up inception_4c/5x5_reduce
I0403 19:07:34.667932  8657 net.cpp:148] Top shape: 24 24 14 14 (112896)
I0403 19:07:34.667948  8657 net.cpp:156] Memory required for data: 1048111392
I0403 19:07:34.667965  8657 layer_factory.hpp:77] Creating layer inception_4c/relu_5x5_reduce
I0403 19:07:34.667982  8657 net.cpp:91] Creating Layer inception_4c/relu_5x5_reduce
I0403 19:07:34.667997  8657 net.cpp:425] inception_4c/relu_5x5_reduce <- inception_4c/5x5_reduce
I0403 19:07:34.668015  8657 net.cpp:386] inception_4c/relu_5x5_reduce -> inception_4c/5x5_reduce (in-place)
I0403 19:07:34.668195  8657 net.cpp:141] Setting up inception_4c/relu_5x5_reduce
I0403 19:07:34.668221  8657 net.cpp:148] Top shape: 24 24 14 14 (112896)
I0403 19:07:34.668236  8657 net.cpp:156] Memory required for data: 1048562976
I0403 19:07:34.668251  8657 layer_factory.hpp:77] Creating layer inception_4c/5x5
I0403 19:07:34.668272  8657 net.cpp:91] Creating Layer inception_4c/5x5
I0403 19:07:34.668289  8657 net.cpp:425] inception_4c/5x5 <- inception_4c/5x5_reduce
I0403 19:07:34.668309  8657 net.cpp:399] inception_4c/5x5 -> inception_4c/5x5
I0403 19:07:34.669523  8657 net.cpp:141] Setting up inception_4c/5x5
I0403 19:07:34.669549  8657 net.cpp:148] Top shape: 24 64 14 14 (301056)
I0403 19:07:34.669564  8657 net.cpp:156] Memory required for data: 1049767200
I0403 19:07:34.669581  8657 layer_factory.hpp:77] Creating layer inception_4c/relu_5x5
I0403 19:07:34.669600  8657 net.cpp:91] Creating Layer inception_4c/relu_5x5
I0403 19:07:34.669616  8657 net.cpp:425] inception_4c/relu_5x5 <- inception_4c/5x5
I0403 19:07:34.669633  8657 net.cpp:386] inception_4c/relu_5x5 -> inception_4c/5x5 (in-place)
I0403 19:07:34.669904  8657 net.cpp:141] Setting up inception_4c/relu_5x5
I0403 19:07:34.669929  8657 net.cpp:148] Top shape: 24 64 14 14 (301056)
I0403 19:07:34.669944  8657 net.cpp:156] Memory required for data: 1050971424
I0403 19:07:34.669957  8657 layer_factory.hpp:77] Creating layer inception_4c/pool
I0403 19:07:34.669976  8657 net.cpp:91] Creating Layer inception_4c/pool
I0403 19:07:34.669991  8657 net.cpp:425] inception_4c/pool <- inception_4b/output_inception_4b/output_0_split_3
I0403 19:07:34.670008  8657 net.cpp:399] inception_4c/pool -> inception_4c/pool
I0403 19:07:34.670071  8657 net.cpp:141] Setting up inception_4c/pool
I0403 19:07:34.670094  8657 net.cpp:148] Top shape: 24 512 14 14 (2408448)
I0403 19:07:34.670106  8657 net.cpp:156] Memory required for data: 1060605216
I0403 19:07:34.670120  8657 layer_factory.hpp:77] Creating layer inception_4c/pool_proj
I0403 19:07:34.670140  8657 net.cpp:91] Creating Layer inception_4c/pool_proj
I0403 19:07:34.670156  8657 net.cpp:425] inception_4c/pool_proj <- inception_4c/pool
I0403 19:07:34.670176  8657 net.cpp:399] inception_4c/pool_proj -> inception_4c/pool_proj
I0403 19:07:34.671363  8657 net.cpp:141] Setting up inception_4c/pool_proj
I0403 19:07:34.671391  8657 net.cpp:148] Top shape: 24 64 14 14 (301056)
I0403 19:07:34.671417  8657 net.cpp:156] Memory required for data: 1061809440
I0403 19:07:34.671437  8657 layer_factory.hpp:77] Creating layer inception_4c/relu_pool_proj
I0403 19:07:34.671454  8657 net.cpp:91] Creating Layer inception_4c/relu_pool_proj
I0403 19:07:34.671470  8657 net.cpp:425] inception_4c/relu_pool_proj <- inception_4c/pool_proj
I0403 19:07:34.671489  8657 net.cpp:386] inception_4c/relu_pool_proj -> inception_4c/pool_proj (in-place)
I0403 19:07:34.671665  8657 net.cpp:141] Setting up inception_4c/relu_pool_proj
I0403 19:07:34.671689  8657 net.cpp:148] Top shape: 24 64 14 14 (301056)
I0403 19:07:34.671702  8657 net.cpp:156] Memory required for data: 1063013664
I0403 19:07:34.671717  8657 layer_factory.hpp:77] Creating layer inception_4c/output
I0403 19:07:34.671733  8657 net.cpp:91] Creating Layer inception_4c/output
I0403 19:07:34.671747  8657 net.cpp:425] inception_4c/output <- inception_4c/1x1
I0403 19:07:34.671762  8657 net.cpp:425] inception_4c/output <- inception_4c/3x3
I0403 19:07:34.671782  8657 net.cpp:425] inception_4c/output <- inception_4c/5x5
I0403 19:07:34.671797  8657 net.cpp:425] inception_4c/output <- inception_4c/pool_proj
I0403 19:07:34.671813  8657 net.cpp:399] inception_4c/output -> inception_4c/output
I0403 19:07:34.671854  8657 net.cpp:141] Setting up inception_4c/output
I0403 19:07:34.671879  8657 net.cpp:148] Top shape: 24 512 14 14 (2408448)
I0403 19:07:34.671893  8657 net.cpp:156] Memory required for data: 1072647456
I0403 19:07:34.671906  8657 layer_factory.hpp:77] Creating layer inception_4c/output_inception_4c/output_0_split
I0403 19:07:34.671923  8657 net.cpp:91] Creating Layer inception_4c/output_inception_4c/output_0_split
I0403 19:07:34.671937  8657 net.cpp:425] inception_4c/output_inception_4c/output_0_split <- inception_4c/output
I0403 19:07:34.671957  8657 net.cpp:399] inception_4c/output_inception_4c/output_0_split -> inception_4c/output_inception_4c/output_0_split_0
I0403 19:07:34.671975  8657 net.cpp:399] inception_4c/output_inception_4c/output_0_split -> inception_4c/output_inception_4c/output_0_split_1
I0403 19:07:34.671994  8657 net.cpp:399] inception_4c/output_inception_4c/output_0_split -> inception_4c/output_inception_4c/output_0_split_2
I0403 19:07:34.672013  8657 net.cpp:399] inception_4c/output_inception_4c/output_0_split -> inception_4c/output_inception_4c/output_0_split_3
I0403 19:07:34.672092  8657 net.cpp:141] Setting up inception_4c/output_inception_4c/output_0_split
I0403 19:07:34.672116  8657 net.cpp:148] Top shape: 24 512 14 14 (2408448)
I0403 19:07:34.672132  8657 net.cpp:148] Top shape: 24 512 14 14 (2408448)
I0403 19:07:34.672147  8657 net.cpp:148] Top shape: 24 512 14 14 (2408448)
I0403 19:07:34.672163  8657 net.cpp:148] Top shape: 24 512 14 14 (2408448)
I0403 19:07:34.672175  8657 net.cpp:156] Memory required for data: 1111182624
I0403 19:07:34.672188  8657 layer_factory.hpp:77] Creating layer inception_4d/1x1
I0403 19:07:34.672207  8657 net.cpp:91] Creating Layer inception_4d/1x1
I0403 19:07:34.672236  8657 net.cpp:425] inception_4d/1x1 <- inception_4c/output_inception_4c/output_0_split_0
I0403 19:07:34.672257  8657 net.cpp:399] inception_4d/1x1 -> inception_4d/1x1
I0403 19:07:34.673564  8657 net.cpp:141] Setting up inception_4d/1x1
I0403 19:07:34.673590  8657 net.cpp:148] Top shape: 24 112 14 14 (526848)
I0403 19:07:34.673609  8657 net.cpp:156] Memory required for data: 1113290016
I0403 19:07:34.673625  8657 layer_factory.hpp:77] Creating layer inception_4d/relu_1x1
I0403 19:07:34.673642  8657 net.cpp:91] Creating Layer inception_4d/relu_1x1
I0403 19:07:34.673657  8657 net.cpp:425] inception_4d/relu_1x1 <- inception_4d/1x1
I0403 19:07:34.673673  8657 net.cpp:386] inception_4d/relu_1x1 -> inception_4d/1x1 (in-place)
I0403 19:07:34.673847  8657 net.cpp:141] Setting up inception_4d/relu_1x1
I0403 19:07:34.673872  8657 net.cpp:148] Top shape: 24 112 14 14 (526848)
I0403 19:07:34.673887  8657 net.cpp:156] Memory required for data: 1115397408
I0403 19:07:34.673900  8657 layer_factory.hpp:77] Creating layer inception_4d/3x3_reduce
I0403 19:07:34.673934  8657 net.cpp:91] Creating Layer inception_4d/3x3_reduce
I0403 19:07:34.673952  8657 net.cpp:425] inception_4d/3x3_reduce <- inception_4c/output_inception_4c/output_0_split_1
I0403 19:07:34.673970  8657 net.cpp:399] inception_4d/3x3_reduce -> inception_4d/3x3_reduce
I0403 19:07:34.675402  8657 net.cpp:141] Setting up inception_4d/3x3_reduce
I0403 19:07:34.675428  8657 net.cpp:148] Top shape: 24 144 14 14 (677376)
I0403 19:07:34.675443  8657 net.cpp:156] Memory required for data: 1118106912
I0403 19:07:34.675460  8657 layer_factory.hpp:77] Creating layer inception_4d/relu_3x3_reduce
I0403 19:07:34.675479  8657 net.cpp:91] Creating Layer inception_4d/relu_3x3_reduce
I0403 19:07:34.675495  8657 net.cpp:425] inception_4d/relu_3x3_reduce <- inception_4d/3x3_reduce
I0403 19:07:34.675513  8657 net.cpp:386] inception_4d/relu_3x3_reduce -> inception_4d/3x3_reduce (in-place)
I0403 19:07:34.675788  8657 net.cpp:141] Setting up inception_4d/relu_3x3_reduce
I0403 19:07:34.675812  8657 net.cpp:148] Top shape: 24 144 14 14 (677376)
I0403 19:07:34.675827  8657 net.cpp:156] Memory required for data: 1120816416
I0403 19:07:34.675840  8657 layer_factory.hpp:77] Creating layer inception_4d/3x3
I0403 19:07:34.675863  8657 net.cpp:91] Creating Layer inception_4d/3x3
I0403 19:07:34.675879  8657 net.cpp:425] inception_4d/3x3 <- inception_4d/3x3_reduce
I0403 19:07:34.675899  8657 net.cpp:399] inception_4d/3x3 -> inception_4d/3x3
I0403 19:07:34.679970  8657 net.cpp:141] Setting up inception_4d/3x3
I0403 19:07:34.679996  8657 net.cpp:148] Top shape: 24 288 14 14 (1354752)
I0403 19:07:34.680011  8657 net.cpp:156] Memory required for data: 1126235424
I0403 19:07:34.680029  8657 layer_factory.hpp:77] Creating layer inception_4d/relu_3x3
I0403 19:07:34.680048  8657 net.cpp:91] Creating Layer inception_4d/relu_3x3
I0403 19:07:34.680064  8657 net.cpp:425] inception_4d/relu_3x3 <- inception_4d/3x3
I0403 19:07:34.680080  8657 net.cpp:386] inception_4d/relu_3x3 -> inception_4d/3x3 (in-place)
I0403 19:07:34.680258  8657 net.cpp:141] Setting up inception_4d/relu_3x3
I0403 19:07:34.680281  8657 net.cpp:148] Top shape: 24 288 14 14 (1354752)
I0403 19:07:34.680295  8657 net.cpp:156] Memory required for data: 1131654432
I0403 19:07:34.680310  8657 layer_factory.hpp:77] Creating layer inception_4d/5x5_reduce
I0403 19:07:34.680330  8657 net.cpp:91] Creating Layer inception_4d/5x5_reduce
I0403 19:07:34.680347  8657 net.cpp:425] inception_4d/5x5_reduce <- inception_4c/output_inception_4c/output_0_split_2
I0403 19:07:34.680367  8657 net.cpp:399] inception_4d/5x5_reduce -> inception_4d/5x5_reduce
I0403 19:07:34.681454  8657 net.cpp:141] Setting up inception_4d/5x5_reduce
I0403 19:07:34.681483  8657 net.cpp:148] Top shape: 24 32 14 14 (150528)
I0403 19:07:34.681498  8657 net.cpp:156] Memory required for data: 1132256544
I0403 19:07:34.681524  8657 layer_factory.hpp:77] Creating layer inception_4d/relu_5x5_reduce
I0403 19:07:34.681541  8657 net.cpp:91] Creating Layer inception_4d/relu_5x5_reduce
I0403 19:07:34.681556  8657 net.cpp:425] inception_4d/relu_5x5_reduce <- inception_4d/5x5_reduce
I0403 19:07:34.681572  8657 net.cpp:386] inception_4d/relu_5x5_reduce -> inception_4d/5x5_reduce (in-place)
I0403 19:07:34.681752  8657 net.cpp:141] Setting up inception_4d/relu_5x5_reduce
I0403 19:07:34.681777  8657 net.cpp:148] Top shape: 24 32 14 14 (150528)
I0403 19:07:34.681792  8657 net.cpp:156] Memory required for data: 1132858656
I0403 19:07:34.681807  8657 layer_factory.hpp:77] Creating layer inception_4d/5x5
I0403 19:07:34.681826  8657 net.cpp:91] Creating Layer inception_4d/5x5
I0403 19:07:34.681843  8657 net.cpp:425] inception_4d/5x5 <- inception_4d/5x5_reduce
I0403 19:07:34.681866  8657 net.cpp:399] inception_4d/5x5 -> inception_4d/5x5
I0403 19:07:34.683246  8657 net.cpp:141] Setting up inception_4d/5x5
I0403 19:07:34.683274  8657 net.cpp:148] Top shape: 24 64 14 14 (301056)
I0403 19:07:34.683289  8657 net.cpp:156] Memory required for data: 1134062880
I0403 19:07:34.683306  8657 layer_factory.hpp:77] Creating layer inception_4d/relu_5x5
I0403 19:07:34.683336  8657 net.cpp:91] Creating Layer inception_4d/relu_5x5
I0403 19:07:34.683356  8657 net.cpp:425] inception_4d/relu_5x5 <- inception_4d/5x5
I0403 19:07:34.683372  8657 net.cpp:386] inception_4d/relu_5x5 -> inception_4d/5x5 (in-place)
I0403 19:07:34.683653  8657 net.cpp:141] Setting up inception_4d/relu_5x5
I0403 19:07:34.683677  8657 net.cpp:148] Top shape: 24 64 14 14 (301056)
I0403 19:07:34.683691  8657 net.cpp:156] Memory required for data: 1135267104
I0403 19:07:34.683706  8657 layer_factory.hpp:77] Creating layer inception_4d/pool
I0403 19:07:34.683722  8657 net.cpp:91] Creating Layer inception_4d/pool
I0403 19:07:34.683737  8657 net.cpp:425] inception_4d/pool <- inception_4c/output_inception_4c/output_0_split_3
I0403 19:07:34.683758  8657 net.cpp:399] inception_4d/pool -> inception_4d/pool
I0403 19:07:34.683820  8657 net.cpp:141] Setting up inception_4d/pool
I0403 19:07:34.683845  8657 net.cpp:148] Top shape: 24 512 14 14 (2408448)
I0403 19:07:34.683858  8657 net.cpp:156] Memory required for data: 1144900896
I0403 19:07:34.683872  8657 layer_factory.hpp:77] Creating layer inception_4d/pool_proj
I0403 19:07:34.683893  8657 net.cpp:91] Creating Layer inception_4d/pool_proj
I0403 19:07:34.683909  8657 net.cpp:425] inception_4d/pool_proj <- inception_4d/pool
I0403 19:07:34.683928  8657 net.cpp:399] inception_4d/pool_proj -> inception_4d/pool_proj
I0403 19:07:34.685595  8657 net.cpp:141] Setting up inception_4d/pool_proj
I0403 19:07:34.685622  8657 net.cpp:148] Top shape: 24 64 14 14 (301056)
I0403 19:07:34.685637  8657 net.cpp:156] Memory required for data: 1146105120
I0403 19:07:34.685654  8657 layer_factory.hpp:77] Creating layer inception_4d/relu_pool_proj
I0403 19:07:34.685673  8657 net.cpp:91] Creating Layer inception_4d/relu_pool_proj
I0403 19:07:34.685689  8657 net.cpp:425] inception_4d/relu_pool_proj <- inception_4d/pool_proj
I0403 19:07:34.685706  8657 net.cpp:386] inception_4d/relu_pool_proj -> inception_4d/pool_proj (in-place)
I0403 19:07:34.685886  8657 net.cpp:141] Setting up inception_4d/relu_pool_proj
I0403 19:07:34.685911  8657 net.cpp:148] Top shape: 24 64 14 14 (301056)
I0403 19:07:34.685925  8657 net.cpp:156] Memory required for data: 1147309344
I0403 19:07:34.685940  8657 layer_factory.hpp:77] Creating layer inception_4d/output
I0403 19:07:34.685956  8657 net.cpp:91] Creating Layer inception_4d/output
I0403 19:07:34.685971  8657 net.cpp:425] inception_4d/output <- inception_4d/1x1
I0403 19:07:34.685986  8657 net.cpp:425] inception_4d/output <- inception_4d/3x3
I0403 19:07:34.686002  8657 net.cpp:425] inception_4d/output <- inception_4d/5x5
I0403 19:07:34.686017  8657 net.cpp:425] inception_4d/output <- inception_4d/pool_proj
I0403 19:07:34.686034  8657 net.cpp:399] inception_4d/output -> inception_4d/output
I0403 19:07:34.686082  8657 net.cpp:141] Setting up inception_4d/output
I0403 19:07:34.686106  8657 net.cpp:148] Top shape: 24 528 14 14 (2483712)
I0403 19:07:34.686121  8657 net.cpp:156] Memory required for data: 1157244192
I0403 19:07:34.686134  8657 layer_factory.hpp:77] Creating layer inception_4d/output_inception_4d/output_0_split
I0403 19:07:34.686152  8657 net.cpp:91] Creating Layer inception_4d/output_inception_4d/output_0_split
I0403 19:07:34.686168  8657 net.cpp:425] inception_4d/output_inception_4d/output_0_split <- inception_4d/output
I0403 19:07:34.686185  8657 net.cpp:399] inception_4d/output_inception_4d/output_0_split -> inception_4d/output_inception_4d/output_0_split_0
I0403 19:07:34.686206  8657 net.cpp:399] inception_4d/output_inception_4d/output_0_split -> inception_4d/output_inception_4d/output_0_split_1
I0403 19:07:34.686241  8657 net.cpp:399] inception_4d/output_inception_4d/output_0_split -> inception_4d/output_inception_4d/output_0_split_2
I0403 19:07:34.686261  8657 net.cpp:399] inception_4d/output_inception_4d/output_0_split -> inception_4d/output_inception_4d/output_0_split_3
I0403 19:07:34.686280  8657 net.cpp:399] inception_4d/output_inception_4d/output_0_split -> inception_4d/output_inception_4d/output_0_split_4
I0403 19:07:34.686378  8657 net.cpp:141] Setting up inception_4d/output_inception_4d/output_0_split
I0403 19:07:34.686411  8657 net.cpp:148] Top shape: 24 528 14 14 (2483712)
I0403 19:07:34.686427  8657 net.cpp:148] Top shape: 24 528 14 14 (2483712)
I0403 19:07:34.686441  8657 net.cpp:148] Top shape: 24 528 14 14 (2483712)
I0403 19:07:34.686456  8657 net.cpp:148] Top shape: 24 528 14 14 (2483712)
I0403 19:07:34.686470  8657 net.cpp:148] Top shape: 24 528 14 14 (2483712)
I0403 19:07:34.686485  8657 net.cpp:156] Memory required for data: 1206918432
I0403 19:07:34.686497  8657 layer_factory.hpp:77] Creating layer loss2/ave_pool
I0403 19:07:34.686527  8657 net.cpp:91] Creating Layer loss2/ave_pool
I0403 19:07:34.686542  8657 net.cpp:425] loss2/ave_pool <- inception_4d/output_inception_4d/output_0_split_0
I0403 19:07:34.686560  8657 net.cpp:399] loss2/ave_pool -> loss2/ave_pool
I0403 19:07:34.686857  8657 net.cpp:141] Setting up loss2/ave_pool
I0403 19:07:34.686882  8657 net.cpp:148] Top shape: 24 528 4 4 (202752)
I0403 19:07:34.686897  8657 net.cpp:156] Memory required for data: 1207729440
I0403 19:07:34.686910  8657 layer_factory.hpp:77] Creating layer loss2/conv
I0403 19:07:34.686933  8657 net.cpp:91] Creating Layer loss2/conv
I0403 19:07:34.686949  8657 net.cpp:425] loss2/conv <- loss2/ave_pool
I0403 19:07:34.686967  8657 net.cpp:399] loss2/conv -> loss2/conv
I0403 19:07:34.688772  8657 net.cpp:141] Setting up loss2/conv
I0403 19:07:34.688799  8657 net.cpp:148] Top shape: 24 128 4 4 (49152)
I0403 19:07:34.688814  8657 net.cpp:156] Memory required for data: 1207926048
I0403 19:07:34.688832  8657 layer_factory.hpp:77] Creating layer loss2/relu_conv
I0403 19:07:34.688848  8657 net.cpp:91] Creating Layer loss2/relu_conv
I0403 19:07:34.688863  8657 net.cpp:425] loss2/relu_conv <- loss2/conv
I0403 19:07:34.688882  8657 net.cpp:386] loss2/relu_conv -> loss2/conv (in-place)
I0403 19:07:34.689152  8657 net.cpp:141] Setting up loss2/relu_conv
I0403 19:07:34.689177  8657 net.cpp:148] Top shape: 24 128 4 4 (49152)
I0403 19:07:34.689190  8657 net.cpp:156] Memory required for data: 1208122656
I0403 19:07:34.689204  8657 layer_factory.hpp:77] Creating layer loss2/fc
I0403 19:07:34.689227  8657 net.cpp:91] Creating Layer loss2/fc
I0403 19:07:34.689244  8657 net.cpp:425] loss2/fc <- loss2/conv
I0403 19:07:34.689263  8657 net.cpp:399] loss2/fc -> loss2/fc
I0403 19:07:34.706097  8657 net.cpp:141] Setting up loss2/fc
I0403 19:07:34.706130  8657 net.cpp:148] Top shape: 24 1024 (24576)
I0403 19:07:34.706145  8657 net.cpp:156] Memory required for data: 1208220960
I0403 19:07:34.706162  8657 layer_factory.hpp:77] Creating layer loss2/relu_fc
I0403 19:07:34.706181  8657 net.cpp:91] Creating Layer loss2/relu_fc
I0403 19:07:34.706197  8657 net.cpp:425] loss2/relu_fc <- loss2/fc
I0403 19:07:34.706218  8657 net.cpp:386] loss2/relu_fc -> loss2/fc (in-place)
I0403 19:07:34.706496  8657 net.cpp:141] Setting up loss2/relu_fc
I0403 19:07:34.706522  8657 net.cpp:148] Top shape: 24 1024 (24576)
I0403 19:07:34.706537  8657 net.cpp:156] Memory required for data: 1208319264
I0403 19:07:34.706552  8657 layer_factory.hpp:77] Creating layer loss2/drop_fc
I0403 19:07:34.706568  8657 net.cpp:91] Creating Layer loss2/drop_fc
I0403 19:07:34.706583  8657 net.cpp:425] loss2/drop_fc <- loss2/fc
I0403 19:07:34.706599  8657 net.cpp:386] loss2/drop_fc -> loss2/fc (in-place)
I0403 19:07:34.706646  8657 net.cpp:141] Setting up loss2/drop_fc
I0403 19:07:34.706668  8657 net.cpp:148] Top shape: 24 1024 (24576)
I0403 19:07:34.706681  8657 net.cpp:156] Memory required for data: 1208417568
I0403 19:07:34.706696  8657 layer_factory.hpp:77] Creating layer loss2/classifier_plantvillage
I0403 19:07:34.706714  8657 net.cpp:91] Creating Layer loss2/classifier_plantvillage
I0403 19:07:34.706730  8657 net.cpp:425] loss2/classifier_plantvillage <- loss2/fc
I0403 19:07:34.706748  8657 net.cpp:399] loss2/classifier_plantvillage -> loss2/classifier_plantvillage
I0403 19:07:34.707129  8657 net.cpp:141] Setting up loss2/classifier_plantvillage
I0403 19:07:34.707152  8657 net.cpp:148] Top shape: 24 38 (912)
I0403 19:07:34.707180  8657 net.cpp:156] Memory required for data: 1208421216
I0403 19:07:34.707197  8657 layer_factory.hpp:77] Creating layer loss2/classifier_plantvillage_loss2/classifier_plantvillage_0_split
I0403 19:07:34.707218  8657 net.cpp:91] Creating Layer loss2/classifier_plantvillage_loss2/classifier_plantvillage_0_split
I0403 19:07:34.707238  8657 net.cpp:425] loss2/classifier_plantvillage_loss2/classifier_plantvillage_0_split <- loss2/classifier_plantvillage
I0403 19:07:34.707257  8657 net.cpp:399] loss2/classifier_plantvillage_loss2/classifier_plantvillage_0_split -> loss2/classifier_plantvillage_loss2/classifier_plantvillage_0_split_0
I0403 19:07:34.707278  8657 net.cpp:399] loss2/classifier_plantvillage_loss2/classifier_plantvillage_0_split -> loss2/classifier_plantvillage_loss2/classifier_plantvillage_0_split_1
I0403 19:07:34.707298  8657 net.cpp:399] loss2/classifier_plantvillage_loss2/classifier_plantvillage_0_split -> loss2/classifier_plantvillage_loss2/classifier_plantvillage_0_split_2
I0403 19:07:34.707371  8657 net.cpp:141] Setting up loss2/classifier_plantvillage_loss2/classifier_plantvillage_0_split
I0403 19:07:34.707393  8657 net.cpp:148] Top shape: 24 38 (912)
I0403 19:07:34.707408  8657 net.cpp:148] Top shape: 24 38 (912)
I0403 19:07:34.707423  8657 net.cpp:148] Top shape: 24 38 (912)
I0403 19:07:34.707435  8657 net.cpp:156] Memory required for data: 1208432160
I0403 19:07:34.707449  8657 layer_factory.hpp:77] Creating layer inception_4e/1x1
I0403 19:07:34.707470  8657 net.cpp:91] Creating Layer inception_4e/1x1
I0403 19:07:34.707487  8657 net.cpp:425] inception_4e/1x1 <- inception_4d/output_inception_4d/output_0_split_1
I0403 19:07:34.707504  8657 net.cpp:399] inception_4e/1x1 -> inception_4e/1x1
I0403 19:07:34.709223  8657 net.cpp:141] Setting up inception_4e/1x1
I0403 19:07:34.709249  8657 net.cpp:148] Top shape: 24 256 14 14 (1204224)
I0403 19:07:34.709262  8657 net.cpp:156] Memory required for data: 1213249056
I0403 19:07:34.709280  8657 layer_factory.hpp:77] Creating layer inception_4e/relu_1x1
I0403 19:07:34.709300  8657 net.cpp:91] Creating Layer inception_4e/relu_1x1
I0403 19:07:34.709316  8657 net.cpp:425] inception_4e/relu_1x1 <- inception_4e/1x1
I0403 19:07:34.709332  8657 net.cpp:386] inception_4e/relu_1x1 -> inception_4e/1x1 (in-place)
I0403 19:07:34.709611  8657 net.cpp:141] Setting up inception_4e/relu_1x1
I0403 19:07:34.709635  8657 net.cpp:148] Top shape: 24 256 14 14 (1204224)
I0403 19:07:34.709650  8657 net.cpp:156] Memory required for data: 1218065952
I0403 19:07:34.709663  8657 layer_factory.hpp:77] Creating layer inception_4e/3x3_reduce
I0403 19:07:34.709683  8657 net.cpp:91] Creating Layer inception_4e/3x3_reduce
I0403 19:07:34.709700  8657 net.cpp:425] inception_4e/3x3_reduce <- inception_4d/output_inception_4d/output_0_split_2
I0403 19:07:34.709720  8657 net.cpp:399] inception_4e/3x3_reduce -> inception_4e/3x3_reduce
I0403 19:07:34.711730  8657 net.cpp:141] Setting up inception_4e/3x3_reduce
I0403 19:07:34.711755  8657 net.cpp:148] Top shape: 24 160 14 14 (752640)
I0403 19:07:34.711771  8657 net.cpp:156] Memory required for data: 1221076512
I0403 19:07:34.711787  8657 layer_factory.hpp:77] Creating layer inception_4e/relu_3x3_reduce
I0403 19:07:34.711804  8657 net.cpp:91] Creating Layer inception_4e/relu_3x3_reduce
I0403 19:07:34.711819  8657 net.cpp:425] inception_4e/relu_3x3_reduce <- inception_4e/3x3_reduce
I0403 19:07:34.711838  8657 net.cpp:386] inception_4e/relu_3x3_reduce -> inception_4e/3x3_reduce (in-place)
I0403 19:07:34.712016  8657 net.cpp:141] Setting up inception_4e/relu_3x3_reduce
I0403 19:07:34.712040  8657 net.cpp:148] Top shape: 24 160 14 14 (752640)
I0403 19:07:34.712054  8657 net.cpp:156] Memory required for data: 1224087072
I0403 19:07:34.712069  8657 layer_factory.hpp:77] Creating layer inception_4e/3x3
I0403 19:07:34.712090  8657 net.cpp:91] Creating Layer inception_4e/3x3
I0403 19:07:34.712105  8657 net.cpp:425] inception_4e/3x3 <- inception_4e/3x3_reduce
I0403 19:07:34.712126  8657 net.cpp:399] inception_4e/3x3 -> inception_4e/3x3
I0403 19:07:34.716871  8657 net.cpp:141] Setting up inception_4e/3x3
I0403 19:07:34.716912  8657 net.cpp:148] Top shape: 24 320 14 14 (1505280)
I0403 19:07:34.716928  8657 net.cpp:156] Memory required for data: 1230108192
I0403 19:07:34.716945  8657 layer_factory.hpp:77] Creating layer inception_4e/relu_3x3
I0403 19:07:34.716965  8657 net.cpp:91] Creating Layer inception_4e/relu_3x3
I0403 19:07:34.716982  8657 net.cpp:425] inception_4e/relu_3x3 <- inception_4e/3x3
I0403 19:07:34.716998  8657 net.cpp:386] inception_4e/relu_3x3 -> inception_4e/3x3 (in-place)
I0403 19:07:34.717288  8657 net.cpp:141] Setting up inception_4e/relu_3x3
I0403 19:07:34.717315  8657 net.cpp:148] Top shape: 24 320 14 14 (1505280)
I0403 19:07:34.717330  8657 net.cpp:156] Memory required for data: 1236129312
I0403 19:07:34.717344  8657 layer_factory.hpp:77] Creating layer inception_4e/5x5_reduce
I0403 19:07:34.717363  8657 net.cpp:91] Creating Layer inception_4e/5x5_reduce
I0403 19:07:34.717380  8657 net.cpp:425] inception_4e/5x5_reduce <- inception_4d/output_inception_4d/output_0_split_3
I0403 19:07:34.717401  8657 net.cpp:399] inception_4e/5x5_reduce -> inception_4e/5x5_reduce
I0403 19:07:34.718416  8657 net.cpp:141] Setting up inception_4e/5x5_reduce
I0403 19:07:34.718442  8657 net.cpp:148] Top shape: 24 32 14 14 (150528)
I0403 19:07:34.718457  8657 net.cpp:156] Memory required for data: 1236731424
I0403 19:07:34.718475  8657 layer_factory.hpp:77] Creating layer inception_4e/relu_5x5_reduce
I0403 19:07:34.718492  8657 net.cpp:91] Creating Layer inception_4e/relu_5x5_reduce
I0403 19:07:34.718509  8657 net.cpp:425] inception_4e/relu_5x5_reduce <- inception_4e/5x5_reduce
I0403 19:07:34.718525  8657 net.cpp:386] inception_4e/relu_5x5_reduce -> inception_4e/5x5_reduce (in-place)
I0403 19:07:34.718806  8657 net.cpp:141] Setting up inception_4e/relu_5x5_reduce
I0403 19:07:34.718832  8657 net.cpp:148] Top shape: 24 32 14 14 (150528)
I0403 19:07:34.718845  8657 net.cpp:156] Memory required for data: 1237333536
I0403 19:07:34.718859  8657 layer_factory.hpp:77] Creating layer inception_4e/5x5
I0403 19:07:34.718895  8657 net.cpp:91] Creating Layer inception_4e/5x5
I0403 19:07:34.718914  8657 net.cpp:425] inception_4e/5x5 <- inception_4e/5x5_reduce
I0403 19:07:34.718931  8657 net.cpp:399] inception_4e/5x5 -> inception_4e/5x5
I0403 19:07:34.720671  8657 net.cpp:141] Setting up inception_4e/5x5
I0403 19:07:34.720705  8657 net.cpp:148] Top shape: 24 128 14 14 (602112)
I0403 19:07:34.720721  8657 net.cpp:156] Memory required for data: 1239741984
I0403 19:07:34.720739  8657 layer_factory.hpp:77] Creating layer inception_4e/relu_5x5
I0403 19:07:34.720757  8657 net.cpp:91] Creating Layer inception_4e/relu_5x5
I0403 19:07:34.720772  8657 net.cpp:425] inception_4e/relu_5x5 <- inception_4e/5x5
I0403 19:07:34.720789  8657 net.cpp:386] inception_4e/relu_5x5 -> inception_4e/5x5 (in-place)
I0403 19:07:34.720978  8657 net.cpp:141] Setting up inception_4e/relu_5x5
I0403 19:07:34.721002  8657 net.cpp:148] Top shape: 24 128 14 14 (602112)
I0403 19:07:34.721016  8657 net.cpp:156] Memory required for data: 1242150432
I0403 19:07:34.721030  8657 layer_factory.hpp:77] Creating layer inception_4e/pool
I0403 19:07:34.721046  8657 net.cpp:91] Creating Layer inception_4e/pool
I0403 19:07:34.721061  8657 net.cpp:425] inception_4e/pool <- inception_4d/output_inception_4d/output_0_split_4
I0403 19:07:34.721079  8657 net.cpp:399] inception_4e/pool -> inception_4e/pool
I0403 19:07:34.721144  8657 net.cpp:141] Setting up inception_4e/pool
I0403 19:07:34.721166  8657 net.cpp:148] Top shape: 24 528 14 14 (2483712)
I0403 19:07:34.721180  8657 net.cpp:156] Memory required for data: 1252085280
I0403 19:07:34.721194  8657 layer_factory.hpp:77] Creating layer inception_4e/pool_proj
I0403 19:07:34.721220  8657 net.cpp:91] Creating Layer inception_4e/pool_proj
I0403 19:07:34.721237  8657 net.cpp:425] inception_4e/pool_proj <- inception_4e/pool
I0403 19:07:34.721256  8657 net.cpp:399] inception_4e/pool_proj -> inception_4e/pool_proj
I0403 19:07:34.722679  8657 net.cpp:141] Setting up inception_4e/pool_proj
I0403 19:07:34.722718  8657 net.cpp:148] Top shape: 24 128 14 14 (602112)
I0403 19:07:34.722734  8657 net.cpp:156] Memory required for data: 1254493728
I0403 19:07:34.722751  8657 layer_factory.hpp:77] Creating layer inception_4e/relu_pool_proj
I0403 19:07:34.722769  8657 net.cpp:91] Creating Layer inception_4e/relu_pool_proj
I0403 19:07:34.722784  8657 net.cpp:425] inception_4e/relu_pool_proj <- inception_4e/pool_proj
I0403 19:07:34.722801  8657 net.cpp:386] inception_4e/relu_pool_proj -> inception_4e/pool_proj (in-place)
I0403 19:07:34.723074  8657 net.cpp:141] Setting up inception_4e/relu_pool_proj
I0403 19:07:34.723101  8657 net.cpp:148] Top shape: 24 128 14 14 (602112)
I0403 19:07:34.723116  8657 net.cpp:156] Memory required for data: 1256902176
I0403 19:07:34.723130  8657 layer_factory.hpp:77] Creating layer inception_4e/output
I0403 19:07:34.723146  8657 net.cpp:91] Creating Layer inception_4e/output
I0403 19:07:34.723161  8657 net.cpp:425] inception_4e/output <- inception_4e/1x1
I0403 19:07:34.723177  8657 net.cpp:425] inception_4e/output <- inception_4e/3x3
I0403 19:07:34.723192  8657 net.cpp:425] inception_4e/output <- inception_4e/5x5
I0403 19:07:34.723207  8657 net.cpp:425] inception_4e/output <- inception_4e/pool_proj
I0403 19:07:34.723238  8657 net.cpp:399] inception_4e/output -> inception_4e/output
I0403 19:07:34.723287  8657 net.cpp:141] Setting up inception_4e/output
I0403 19:07:34.723309  8657 net.cpp:148] Top shape: 24 832 14 14 (3913728)
I0403 19:07:34.723323  8657 net.cpp:156] Memory required for data: 1272557088
I0403 19:07:34.723336  8657 layer_factory.hpp:77] Creating layer pool4/3x3_s2
I0403 19:07:34.723356  8657 net.cpp:91] Creating Layer pool4/3x3_s2
I0403 19:07:34.723371  8657 net.cpp:425] pool4/3x3_s2 <- inception_4e/output
I0403 19:07:34.723387  8657 net.cpp:399] pool4/3x3_s2 -> pool4/3x3_s2
I0403 19:07:34.723453  8657 net.cpp:141] Setting up pool4/3x3_s2
I0403 19:07:34.723474  8657 net.cpp:148] Top shape: 24 832 7 7 (978432)
I0403 19:07:34.723487  8657 net.cpp:156] Memory required for data: 1276470816
I0403 19:07:34.723501  8657 layer_factory.hpp:77] Creating layer pool4/3x3_s2_pool4/3x3_s2_0_split
I0403 19:07:34.723526  8657 net.cpp:91] Creating Layer pool4/3x3_s2_pool4/3x3_s2_0_split
I0403 19:07:34.723541  8657 net.cpp:425] pool4/3x3_s2_pool4/3x3_s2_0_split <- pool4/3x3_s2
I0403 19:07:34.723559  8657 net.cpp:399] pool4/3x3_s2_pool4/3x3_s2_0_split -> pool4/3x3_s2_pool4/3x3_s2_0_split_0
I0403 19:07:34.723578  8657 net.cpp:399] pool4/3x3_s2_pool4/3x3_s2_0_split -> pool4/3x3_s2_pool4/3x3_s2_0_split_1
I0403 19:07:34.723598  8657 net.cpp:399] pool4/3x3_s2_pool4/3x3_s2_0_split -> pool4/3x3_s2_pool4/3x3_s2_0_split_2
I0403 19:07:34.723616  8657 net.cpp:399] pool4/3x3_s2_pool4/3x3_s2_0_split -> pool4/3x3_s2_pool4/3x3_s2_0_split_3
I0403 19:07:34.723701  8657 net.cpp:141] Setting up pool4/3x3_s2_pool4/3x3_s2_0_split
I0403 19:07:34.723728  8657 net.cpp:148] Top shape: 24 832 7 7 (978432)
I0403 19:07:34.723744  8657 net.cpp:148] Top shape: 24 832 7 7 (978432)
I0403 19:07:34.723759  8657 net.cpp:148] Top shape: 24 832 7 7 (978432)
I0403 19:07:34.723774  8657 net.cpp:148] Top shape: 24 832 7 7 (978432)
I0403 19:07:34.723788  8657 net.cpp:156] Memory required for data: 1292125728
I0403 19:07:34.723801  8657 layer_factory.hpp:77] Creating layer inception_5a/1x1
I0403 19:07:34.723822  8657 net.cpp:91] Creating Layer inception_5a/1x1
I0403 19:07:34.723839  8657 net.cpp:425] inception_5a/1x1 <- pool4/3x3_s2_pool4/3x3_s2_0_split_0
I0403 19:07:34.723856  8657 net.cpp:399] inception_5a/1x1 -> inception_5a/1x1
I0403 19:07:34.726552  8657 net.cpp:141] Setting up inception_5a/1x1
I0403 19:07:34.726578  8657 net.cpp:148] Top shape: 24 256 7 7 (301056)
I0403 19:07:34.726593  8657 net.cpp:156] Memory required for data: 1293329952
I0403 19:07:34.726610  8657 layer_factory.hpp:77] Creating layer inception_5a/relu_1x1
I0403 19:07:34.726627  8657 net.cpp:91] Creating Layer inception_5a/relu_1x1
I0403 19:07:34.726642  8657 net.cpp:425] inception_5a/relu_1x1 <- inception_5a/1x1
I0403 19:07:34.726660  8657 net.cpp:386] inception_5a/relu_1x1 -> inception_5a/1x1 (in-place)
I0403 19:07:34.726954  8657 net.cpp:141] Setting up inception_5a/relu_1x1
I0403 19:07:34.726979  8657 net.cpp:148] Top shape: 24 256 7 7 (301056)
I0403 19:07:34.726994  8657 net.cpp:156] Memory required for data: 1294534176
I0403 19:07:34.727007  8657 layer_factory.hpp:77] Creating layer inception_5a/3x3_reduce
I0403 19:07:34.727028  8657 net.cpp:91] Creating Layer inception_5a/3x3_reduce
I0403 19:07:34.727046  8657 net.cpp:425] inception_5a/3x3_reduce <- pool4/3x3_s2_pool4/3x3_s2_0_split_1
I0403 19:07:34.727066  8657 net.cpp:399] inception_5a/3x3_reduce -> inception_5a/3x3_reduce
I0403 19:07:34.729394  8657 net.cpp:141] Setting up inception_5a/3x3_reduce
I0403 19:07:34.729423  8657 net.cpp:148] Top shape: 24 160 7 7 (188160)
I0403 19:07:34.729436  8657 net.cpp:156] Memory required for data: 1295286816
I0403 19:07:34.729454  8657 layer_factory.hpp:77] Creating layer inception_5a/relu_3x3_reduce
I0403 19:07:34.729475  8657 net.cpp:91] Creating Layer inception_5a/relu_3x3_reduce
I0403 19:07:34.729490  8657 net.cpp:425] inception_5a/relu_3x3_reduce <- inception_5a/3x3_reduce
I0403 19:07:34.729506  8657 net.cpp:386] inception_5a/relu_3x3_reduce -> inception_5a/3x3_reduce (in-place)
I0403 19:07:34.729686  8657 net.cpp:141] Setting up inception_5a/relu_3x3_reduce
I0403 19:07:34.729710  8657 net.cpp:148] Top shape: 24 160 7 7 (188160)
I0403 19:07:34.729724  8657 net.cpp:156] Memory required for data: 1296039456
I0403 19:07:34.729737  8657 layer_factory.hpp:77] Creating layer inception_5a/3x3
I0403 19:07:34.729760  8657 net.cpp:91] Creating Layer inception_5a/3x3
I0403 19:07:34.729776  8657 net.cpp:425] inception_5a/3x3 <- inception_5a/3x3_reduce
I0403 19:07:34.729796  8657 net.cpp:399] inception_5a/3x3 -> inception_5a/3x3
I0403 19:07:34.734598  8657 net.cpp:141] Setting up inception_5a/3x3
I0403 19:07:34.734629  8657 net.cpp:148] Top shape: 24 320 7 7 (376320)
I0403 19:07:34.734644  8657 net.cpp:156] Memory required for data: 1297544736
I0403 19:07:34.734663  8657 layer_factory.hpp:77] Creating layer inception_5a/relu_3x3
I0403 19:07:34.734679  8657 net.cpp:91] Creating Layer inception_5a/relu_3x3
I0403 19:07:34.734694  8657 net.cpp:425] inception_5a/relu_3x3 <- inception_5a/3x3
I0403 19:07:34.734714  8657 net.cpp:386] inception_5a/relu_3x3 -> inception_5a/3x3 (in-place)
I0403 19:07:34.734987  8657 net.cpp:141] Setting up inception_5a/relu_3x3
I0403 19:07:34.735014  8657 net.cpp:148] Top shape: 24 320 7 7 (376320)
I0403 19:07:34.735029  8657 net.cpp:156] Memory required for data: 1299050016
I0403 19:07:34.735044  8657 layer_factory.hpp:77] Creating layer inception_5a/5x5_reduce
I0403 19:07:34.735066  8657 net.cpp:91] Creating Layer inception_5a/5x5_reduce
I0403 19:07:34.735082  8657 net.cpp:425] inception_5a/5x5_reduce <- pool4/3x3_s2_pool4/3x3_s2_0_split_2
I0403 19:07:34.735101  8657 net.cpp:399] inception_5a/5x5_reduce -> inception_5a/5x5_reduce
I0403 19:07:34.736256  8657 net.cpp:141] Setting up inception_5a/5x5_reduce
I0403 19:07:34.736285  8657 net.cpp:148] Top shape: 24 32 7 7 (37632)
I0403 19:07:34.736300  8657 net.cpp:156] Memory required for data: 1299200544
I0403 19:07:34.736317  8657 layer_factory.hpp:77] Creating layer inception_5a/relu_5x5_reduce
I0403 19:07:34.736335  8657 net.cpp:91] Creating Layer inception_5a/relu_5x5_reduce
I0403 19:07:34.736351  8657 net.cpp:425] inception_5a/relu_5x5_reduce <- inception_5a/5x5_reduce
I0403 19:07:34.736368  8657 net.cpp:386] inception_5a/relu_5x5_reduce -> inception_5a/5x5_reduce (in-place)
I0403 19:07:34.736660  8657 net.cpp:141] Setting up inception_5a/relu_5x5_reduce
I0403 19:07:34.736683  8657 net.cpp:148] Top shape: 24 32 7 7 (37632)
I0403 19:07:34.736698  8657 net.cpp:156] Memory required for data: 1299351072
I0403 19:07:34.736712  8657 layer_factory.hpp:77] Creating layer inception_5a/5x5
I0403 19:07:34.736734  8657 net.cpp:91] Creating Layer inception_5a/5x5
I0403 19:07:34.736750  8657 net.cpp:425] inception_5a/5x5 <- inception_5a/5x5_reduce
I0403 19:07:34.736771  8657 net.cpp:399] inception_5a/5x5 -> inception_5a/5x5
I0403 19:07:34.738420  8657 net.cpp:141] Setting up inception_5a/5x5
I0403 19:07:34.738461  8657 net.cpp:148] Top shape: 24 128 7 7 (150528)
I0403 19:07:34.738478  8657 net.cpp:156] Memory required for data: 1299953184
I0403 19:07:34.738495  8657 layer_factory.hpp:77] Creating layer inception_5a/relu_5x5
I0403 19:07:34.738519  8657 net.cpp:91] Creating Layer inception_5a/relu_5x5
I0403 19:07:34.738535  8657 net.cpp:425] inception_5a/relu_5x5 <- inception_5a/5x5
I0403 19:07:34.738554  8657 net.cpp:386] inception_5a/relu_5x5 -> inception_5a/5x5 (in-place)
I0403 19:07:34.738734  8657 net.cpp:141] Setting up inception_5a/relu_5x5
I0403 19:07:34.738759  8657 net.cpp:148] Top shape: 24 128 7 7 (150528)
I0403 19:07:34.738772  8657 net.cpp:156] Memory required for data: 1300555296
I0403 19:07:34.738786  8657 layer_factory.hpp:77] Creating layer inception_5a/pool
I0403 19:07:34.738803  8657 net.cpp:91] Creating Layer inception_5a/pool
I0403 19:07:34.738818  8657 net.cpp:425] inception_5a/pool <- pool4/3x3_s2_pool4/3x3_s2_0_split_3
I0403 19:07:34.738837  8657 net.cpp:399] inception_5a/pool -> inception_5a/pool
I0403 19:07:34.738903  8657 net.cpp:141] Setting up inception_5a/pool
I0403 19:07:34.738926  8657 net.cpp:148] Top shape: 24 832 7 7 (978432)
I0403 19:07:34.738940  8657 net.cpp:156] Memory required for data: 1304469024
I0403 19:07:34.738953  8657 layer_factory.hpp:77] Creating layer inception_5a/pool_proj
I0403 19:07:34.738976  8657 net.cpp:91] Creating Layer inception_5a/pool_proj
I0403 19:07:34.738993  8657 net.cpp:425] inception_5a/pool_proj <- inception_5a/pool
I0403 19:07:34.739011  8657 net.cpp:399] inception_5a/pool_proj -> inception_5a/pool_proj
I0403 19:07:34.741176  8657 net.cpp:141] Setting up inception_5a/pool_proj
I0403 19:07:34.741206  8657 net.cpp:148] Top shape: 24 128 7 7 (150528)
I0403 19:07:34.741226  8657 net.cpp:156] Memory required for data: 1305071136
I0403 19:07:34.741245  8657 layer_factory.hpp:77] Creating layer inception_5a/relu_pool_proj
I0403 19:07:34.741262  8657 net.cpp:91] Creating Layer inception_5a/relu_pool_proj
I0403 19:07:34.741277  8657 net.cpp:425] inception_5a/relu_pool_proj <- inception_5a/pool_proj
I0403 19:07:34.741294  8657 net.cpp:386] inception_5a/relu_pool_proj -> inception_5a/pool_proj (in-place)
I0403 19:07:34.741576  8657 net.cpp:141] Setting up inception_5a/relu_pool_proj
I0403 19:07:34.741603  8657 net.cpp:148] Top shape: 24 128 7 7 (150528)
I0403 19:07:34.741618  8657 net.cpp:156] Memory required for data: 1305673248
I0403 19:07:34.741632  8657 layer_factory.hpp:77] Creating layer inception_5a/output
I0403 19:07:34.741649  8657 net.cpp:91] Creating Layer inception_5a/output
I0403 19:07:34.741664  8657 net.cpp:425] inception_5a/output <- inception_5a/1x1
I0403 19:07:34.741679  8657 net.cpp:425] inception_5a/output <- inception_5a/3x3
I0403 19:07:34.741694  8657 net.cpp:425] inception_5a/output <- inception_5a/5x5
I0403 19:07:34.741709  8657 net.cpp:425] inception_5a/output <- inception_5a/pool_proj
I0403 19:07:34.741725  8657 net.cpp:399] inception_5a/output -> inception_5a/output
I0403 19:07:34.741773  8657 net.cpp:141] Setting up inception_5a/output
I0403 19:07:34.741796  8657 net.cpp:148] Top shape: 24 832 7 7 (978432)
I0403 19:07:34.741811  8657 net.cpp:156] Memory required for data: 1309586976
I0403 19:07:34.741825  8657 layer_factory.hpp:77] Creating layer inception_5a/output_inception_5a/output_0_split
I0403 19:07:34.741843  8657 net.cpp:91] Creating Layer inception_5a/output_inception_5a/output_0_split
I0403 19:07:34.741859  8657 net.cpp:425] inception_5a/output_inception_5a/output_0_split <- inception_5a/output
I0403 19:07:34.741875  8657 net.cpp:399] inception_5a/output_inception_5a/output_0_split -> inception_5a/output_inception_5a/output_0_split_0
I0403 19:07:34.741894  8657 net.cpp:399] inception_5a/output_inception_5a/output_0_split -> inception_5a/output_inception_5a/output_0_split_1
I0403 19:07:34.741914  8657 net.cpp:399] inception_5a/output_inception_5a/output_0_split -> inception_5a/output_inception_5a/output_0_split_2
I0403 19:07:34.741932  8657 net.cpp:399] inception_5a/output_inception_5a/output_0_split -> inception_5a/output_inception_5a/output_0_split_3
I0403 19:07:34.742038  8657 net.cpp:141] Setting up inception_5a/output_inception_5a/output_0_split
I0403 19:07:34.742060  8657 net.cpp:148] Top shape: 24 832 7 7 (978432)
I0403 19:07:34.742076  8657 net.cpp:148] Top shape: 24 832 7 7 (978432)
I0403 19:07:34.742091  8657 net.cpp:148] Top shape: 24 832 7 7 (978432)
I0403 19:07:34.742106  8657 net.cpp:148] Top shape: 24 832 7 7 (978432)
I0403 19:07:34.742120  8657 net.cpp:156] Memory required for data: 1325241888
I0403 19:07:34.742133  8657 layer_factory.hpp:77] Creating layer inception_5b/1x1
I0403 19:07:34.742153  8657 net.cpp:91] Creating Layer inception_5b/1x1
I0403 19:07:34.742171  8657 net.cpp:425] inception_5b/1x1 <- inception_5a/output_inception_5a/output_0_split_0
I0403 19:07:34.742190  8657 net.cpp:399] inception_5b/1x1 -> inception_5b/1x1
I0403 19:07:34.745780  8657 net.cpp:141] Setting up inception_5b/1x1
I0403 19:07:34.745810  8657 net.cpp:148] Top shape: 24 384 7 7 (451584)
I0403 19:07:34.745826  8657 net.cpp:156] Memory required for data: 1327048224
I0403 19:07:34.745843  8657 layer_factory.hpp:77] Creating layer inception_5b/relu_1x1
I0403 19:07:34.745863  8657 net.cpp:91] Creating Layer inception_5b/relu_1x1
I0403 19:07:34.745880  8657 net.cpp:425] inception_5b/relu_1x1 <- inception_5b/1x1
I0403 19:07:34.745898  8657 net.cpp:386] inception_5b/relu_1x1 -> inception_5b/1x1 (in-place)
I0403 19:07:34.746182  8657 net.cpp:141] Setting up inception_5b/relu_1x1
I0403 19:07:34.746207  8657 net.cpp:148] Top shape: 24 384 7 7 (451584)
I0403 19:07:34.746227  8657 net.cpp:156] Memory required for data: 1328854560
I0403 19:07:34.746242  8657 layer_factory.hpp:77] Creating layer inception_5b/3x3_reduce
I0403 19:07:34.746264  8657 net.cpp:91] Creating Layer inception_5b/3x3_reduce
I0403 19:07:34.746282  8657 net.cpp:425] inception_5b/3x3_reduce <- inception_5a/output_inception_5a/output_0_split_1
I0403 19:07:34.746300  8657 net.cpp:399] inception_5b/3x3_reduce -> inception_5b/3x3_reduce
I0403 19:07:34.748829  8657 net.cpp:141] Setting up inception_5b/3x3_reduce
I0403 19:07:34.748859  8657 net.cpp:148] Top shape: 24 192 7 7 (225792)
I0403 19:07:34.748875  8657 net.cpp:156] Memory required for data: 1329757728
I0403 19:07:34.748893  8657 layer_factory.hpp:77] Creating layer inception_5b/relu_3x3_reduce
I0403 19:07:34.748910  8657 net.cpp:91] Creating Layer inception_5b/relu_3x3_reduce
I0403 19:07:34.748926  8657 net.cpp:425] inception_5b/relu_3x3_reduce <- inception_5b/3x3_reduce
I0403 19:07:34.748944  8657 net.cpp:386] inception_5b/relu_3x3_reduce -> inception_5b/3x3_reduce (in-place)
I0403 19:07:34.749124  8657 net.cpp:141] Setting up inception_5b/relu_3x3_reduce
I0403 19:07:34.749148  8657 net.cpp:148] Top shape: 24 192 7 7 (225792)
I0403 19:07:34.749163  8657 net.cpp:156] Memory required for data: 1330660896
I0403 19:07:34.749177  8657 layer_factory.hpp:77] Creating layer inception_5b/3x3
I0403 19:07:34.749197  8657 net.cpp:91] Creating Layer inception_5b/3x3
I0403 19:07:34.749218  8657 net.cpp:425] inception_5b/3x3 <- inception_5b/3x3_reduce
I0403 19:07:34.749240  8657 net.cpp:399] inception_5b/3x3 -> inception_5b/3x3
I0403 19:07:34.755609  8657 net.cpp:141] Setting up inception_5b/3x3
I0403 19:07:34.755638  8657 net.cpp:148] Top shape: 24 384 7 7 (451584)
I0403 19:07:34.755655  8657 net.cpp:156] Memory required for data: 1332467232
I0403 19:07:34.755672  8657 layer_factory.hpp:77] Creating layer inception_5b/relu_3x3
I0403 19:07:34.755689  8657 net.cpp:91] Creating Layer inception_5b/relu_3x3
I0403 19:07:34.755705  8657 net.cpp:425] inception_5b/relu_3x3 <- inception_5b/3x3
I0403 19:07:34.755722  8657 net.cpp:386] inception_5b/relu_3x3 -> inception_5b/3x3 (in-place)
I0403 19:07:34.756001  8657 net.cpp:141] Setting up inception_5b/relu_3x3
I0403 19:07:34.756028  8657 net.cpp:148] Top shape: 24 384 7 7 (451584)
I0403 19:07:34.756043  8657 net.cpp:156] Memory required for data: 1334273568
I0403 19:07:34.756057  8657 layer_factory.hpp:77] Creating layer inception_5b/5x5_reduce
I0403 19:07:34.756093  8657 net.cpp:91] Creating Layer inception_5b/5x5_reduce
I0403 19:07:34.756111  8657 net.cpp:425] inception_5b/5x5_reduce <- inception_5a/output_inception_5a/output_0_split_2
I0403 19:07:34.756129  8657 net.cpp:399] inception_5b/5x5_reduce -> inception_5b/5x5_reduce
I0403 19:07:34.757341  8657 net.cpp:141] Setting up inception_5b/5x5_reduce
I0403 19:07:34.757369  8657 net.cpp:148] Top shape: 24 48 7 7 (56448)
I0403 19:07:34.757383  8657 net.cpp:156] Memory required for data: 1334499360
I0403 19:07:34.757403  8657 layer_factory.hpp:77] Creating layer inception_5b/relu_5x5_reduce
I0403 19:07:34.757421  8657 net.cpp:91] Creating Layer inception_5b/relu_5x5_reduce
I0403 19:07:34.757436  8657 net.cpp:425] inception_5b/relu_5x5_reduce <- inception_5b/5x5_reduce
I0403 19:07:34.757452  8657 net.cpp:386] inception_5b/relu_5x5_reduce -> inception_5b/5x5_reduce (in-place)
I0403 19:07:34.757810  8657 net.cpp:141] Setting up inception_5b/relu_5x5_reduce
I0403 19:07:34.757835  8657 net.cpp:148] Top shape: 24 48 7 7 (56448)
I0403 19:07:34.757850  8657 net.cpp:156] Memory required for data: 1334725152
I0403 19:07:34.757864  8657 layer_factory.hpp:77] Creating layer inception_5b/5x5
I0403 19:07:34.757884  8657 net.cpp:91] Creating Layer inception_5b/5x5
I0403 19:07:34.757899  8657 net.cpp:425] inception_5b/5x5 <- inception_5b/5x5_reduce
I0403 19:07:34.757917  8657 net.cpp:399] inception_5b/5x5 -> inception_5b/5x5
I0403 19:07:34.759853  8657 net.cpp:141] Setting up inception_5b/5x5
I0403 19:07:34.759879  8657 net.cpp:148] Top shape: 24 128 7 7 (150528)
I0403 19:07:34.759894  8657 net.cpp:156] Memory required for data: 1335327264
I0403 19:07:34.759912  8657 layer_factory.hpp:77] Creating layer inception_5b/relu_5x5
I0403 19:07:34.759929  8657 net.cpp:91] Creating Layer inception_5b/relu_5x5
I0403 19:07:34.759944  8657 net.cpp:425] inception_5b/relu_5x5 <- inception_5b/5x5
I0403 19:07:34.759963  8657 net.cpp:386] inception_5b/relu_5x5 -> inception_5b/5x5 (in-place)
I0403 19:07:34.760146  8657 net.cpp:141] Setting up inception_5b/relu_5x5
I0403 19:07:34.760170  8657 net.cpp:148] Top shape: 24 128 7 7 (150528)
I0403 19:07:34.760184  8657 net.cpp:156] Memory required for data: 1335929376
I0403 19:07:34.760198  8657 layer_factory.hpp:77] Creating layer inception_5b/pool
I0403 19:07:34.760222  8657 net.cpp:91] Creating Layer inception_5b/pool
I0403 19:07:34.760239  8657 net.cpp:425] inception_5b/pool <- inception_5a/output_inception_5a/output_0_split_3
I0403 19:07:34.760268  8657 net.cpp:399] inception_5b/pool -> inception_5b/pool
I0403 19:07:34.760340  8657 net.cpp:141] Setting up inception_5b/pool
I0403 19:07:34.760363  8657 net.cpp:148] Top shape: 24 832 7 7 (978432)
I0403 19:07:34.760378  8657 net.cpp:156] Memory required for data: 1339843104
I0403 19:07:34.760392  8657 layer_factory.hpp:77] Creating layer inception_5b/pool_proj
I0403 19:07:34.760413  8657 net.cpp:91] Creating Layer inception_5b/pool_proj
I0403 19:07:34.760432  8657 net.cpp:425] inception_5b/pool_proj <- inception_5b/pool
I0403 19:07:34.760452  8657 net.cpp:399] inception_5b/pool_proj -> inception_5b/pool_proj
I0403 19:07:34.762694  8657 net.cpp:141] Setting up inception_5b/pool_proj
I0403 19:07:34.762724  8657 net.cpp:148] Top shape: 24 128 7 7 (150528)
I0403 19:07:34.762739  8657 net.cpp:156] Memory required for data: 1340445216
I0403 19:07:34.762758  8657 layer_factory.hpp:77] Creating layer inception_5b/relu_pool_proj
I0403 19:07:34.762774  8657 net.cpp:91] Creating Layer inception_5b/relu_pool_proj
I0403 19:07:34.762789  8657 net.cpp:425] inception_5b/relu_pool_proj <- inception_5b/pool_proj
I0403 19:07:34.762809  8657 net.cpp:386] inception_5b/relu_pool_proj -> inception_5b/pool_proj (in-place)
I0403 19:07:34.763092  8657 net.cpp:141] Setting up inception_5b/relu_pool_proj
I0403 19:07:34.763118  8657 net.cpp:148] Top shape: 24 128 7 7 (150528)
I0403 19:07:34.763134  8657 net.cpp:156] Memory required for data: 1341047328
I0403 19:07:34.763147  8657 layer_factory.hpp:77] Creating layer inception_5b/output
I0403 19:07:34.763164  8657 net.cpp:91] Creating Layer inception_5b/output
I0403 19:07:34.763192  8657 net.cpp:425] inception_5b/output <- inception_5b/1x1
I0403 19:07:34.763217  8657 net.cpp:425] inception_5b/output <- inception_5b/3x3
I0403 19:07:34.763236  8657 net.cpp:425] inception_5b/output <- inception_5b/5x5
I0403 19:07:34.763253  8657 net.cpp:425] inception_5b/output <- inception_5b/pool_proj
I0403 19:07:34.763269  8657 net.cpp:399] inception_5b/output -> inception_5b/output
I0403 19:07:34.763319  8657 net.cpp:141] Setting up inception_5b/output
I0403 19:07:34.763342  8657 net.cpp:148] Top shape: 24 1024 7 7 (1204224)
I0403 19:07:34.763356  8657 net.cpp:156] Memory required for data: 1345864224
I0403 19:07:34.763370  8657 layer_factory.hpp:77] Creating layer pool5/7x7_s1
I0403 19:07:34.763389  8657 net.cpp:91] Creating Layer pool5/7x7_s1
I0403 19:07:34.763406  8657 net.cpp:425] pool5/7x7_s1 <- inception_5b/output
I0403 19:07:34.763422  8657 net.cpp:399] pool5/7x7_s1 -> pool5/7x7_s1
I0403 19:07:34.763629  8657 net.cpp:141] Setting up pool5/7x7_s1
I0403 19:07:34.763655  8657 net.cpp:148] Top shape: 24 1024 1 1 (24576)
I0403 19:07:34.763669  8657 net.cpp:156] Memory required for data: 1345962528
I0403 19:07:34.763684  8657 layer_factory.hpp:77] Creating layer pool5/drop_7x7_s1
I0403 19:07:34.763700  8657 net.cpp:91] Creating Layer pool5/drop_7x7_s1
I0403 19:07:34.763715  8657 net.cpp:425] pool5/drop_7x7_s1 <- pool5/7x7_s1
I0403 19:07:34.763734  8657 net.cpp:386] pool5/drop_7x7_s1 -> pool5/7x7_s1 (in-place)
I0403 19:07:34.763780  8657 net.cpp:141] Setting up pool5/drop_7x7_s1
I0403 19:07:34.763802  8657 net.cpp:148] Top shape: 24 1024 1 1 (24576)
I0403 19:07:34.763815  8657 net.cpp:156] Memory required for data: 1346060832
I0403 19:07:34.763829  8657 layer_factory.hpp:77] Creating layer loss3/classifier_plantvillage
I0403 19:07:34.763849  8657 net.cpp:91] Creating Layer loss3/classifier_plantvillage
I0403 19:07:34.763865  8657 net.cpp:425] loss3/classifier_plantvillage <- pool5/7x7_s1
I0403 19:07:34.763885  8657 net.cpp:399] loss3/classifier_plantvillage -> loss3/classifier_plantvillage
I0403 19:07:34.764292  8657 net.cpp:141] Setting up loss3/classifier_plantvillage
I0403 19:07:34.764315  8657 net.cpp:148] Top shape: 24 38 (912)
I0403 19:07:34.764329  8657 net.cpp:156] Memory required for data: 1346064480
I0403 19:07:34.764346  8657 layer_factory.hpp:77] Creating layer loss3/classifier_plantvillage_loss3/classifier_plantvillage_0_split
I0403 19:07:34.764365  8657 net.cpp:91] Creating Layer loss3/classifier_plantvillage_loss3/classifier_plantvillage_0_split
I0403 19:07:34.764381  8657 net.cpp:425] loss3/classifier_plantvillage_loss3/classifier_plantvillage_0_split <- loss3/classifier_plantvillage
I0403 19:07:34.764399  8657 net.cpp:399] loss3/classifier_plantvillage_loss3/classifier_plantvillage_0_split -> loss3/classifier_plantvillage_loss3/classifier_plantvillage_0_split_0
I0403 19:07:34.764416  8657 net.cpp:399] loss3/classifier_plantvillage_loss3/classifier_plantvillage_0_split -> loss3/classifier_plantvillage_loss3/classifier_plantvillage_0_split_1
I0403 19:07:34.764435  8657 net.cpp:399] loss3/classifier_plantvillage_loss3/classifier_plantvillage_0_split -> loss3/classifier_plantvillage_loss3/classifier_plantvillage_0_split_2
I0403 19:07:34.764454  8657 net.cpp:399] loss3/classifier_plantvillage_loss3/classifier_plantvillage_0_split -> loss3/classifier_plantvillage_loss3/classifier_plantvillage_0_split_3
I0403 19:07:34.764549  8657 net.cpp:141] Setting up loss3/classifier_plantvillage_loss3/classifier_plantvillage_0_split
I0403 19:07:34.764571  8657 net.cpp:148] Top shape: 24 38 (912)
I0403 19:07:34.764586  8657 net.cpp:148] Top shape: 24 38 (912)
I0403 19:07:34.764601  8657 net.cpp:148] Top shape: 24 38 (912)
I0403 19:07:34.764616  8657 net.cpp:148] Top shape: 24 38 (912)
I0403 19:07:34.764629  8657 net.cpp:156] Memory required for data: 1346079072
I0403 19:07:34.764642  8657 layer_factory.hpp:77] Creating layer loss1/loss
I0403 19:07:34.764663  8657 net.cpp:91] Creating Layer loss1/loss
I0403 19:07:34.764679  8657 net.cpp:425] loss1/loss <- loss1/classifier_plantvillage_loss1/classifier_plantvillage_0_split_0
I0403 19:07:34.764708  8657 net.cpp:425] loss1/loss <- label_data_1_split_0
…
