…
I0403 19:53:39.030381  9807 net.cpp:313] The NetState phase (1) differed from the phase (0) specified by a rule in layer data
I0403 19:53:39.031548  9807 net.cpp:49] Initializing net from parameters: 
state {
  phase: TEST
}
layer {
  name: "data"
  type: "Data"
  top: "data"
  top: "label"
  include {
    phase: TEST
  }
  transform_param {
    mirror: false
    crop_size: 224
    mean_file: "/home/mohanty/data/final_dataset/lmdb/grayscale-50-50/mean.binaryproto"
  }
  data_param {
    source: "/home/mohanty/data/final_dataset/lmdb/grayscale-50-50/test_db"
    batch_size: 24
    backend: LMDB
  }
}
layer {
  name: "conv1/7x7_s2"
  type: "Convolution"
  bottom: "data"
  top: "conv1/7x7_s2"
  param {
    lr_mult: 1
    decay_mult: 1
  }
  param {
    lr_mult: 2
    decay_mult: 0
  }
  convolution_param {
    num_output: 64
    pad: 3
    kernel_size: 7
    stride: 2
    weight_filler {
      type: "xavier"
      std: 0.1
    }
    bias_filler {
      type: "constant"
      value: 0.2
    }
  }
}
layer {
  name: "conv1/relu_7x7"
  type: "ReLU"
  bottom: "conv1/7x7_s2"
  top: "conv1/7x7_s2"
}
layer {
  name: "pool1/3x3_s2"
  type: "Pooling"
  bottom: "conv1/7x7_s2"
  top: "pool1/3x3_s2"
  pooling_param {
    pool: MAX
    kernel_size: 3
    stride: 2
  }
}
layer {
  name: "pool1/norm1"
  type: "LRN"
  bottom: "pool1/3x3_s2"
  top: "pool1/norm1"
  lrn_param {
    local_size: 5
    alpha: 0.0001
    beta: 0.75
  }
}
layer {
  name: "conv2/3x3_reduce"
  type: "Convolution"
  bottom: "pool1/norm1"
  top: "conv2/3x3_reduce"
  param {
    lr_mult: 1
    decay_mult: 1
  }
  param {
    lr_mult: 2
    decay_mult: 0
  }
  convolution_param {
    num_output: 64
    kernel_size: 1
    weight_filler {
      type: "xavier"
      std: 0.1
    }
    bias_filler {
      type: "constant"
      value: 0.2
    }
  }
}
layer {
  name: "conv2/relu_3x3_reduce"
  type: "ReLU"
  bottom: "conv2/3x3_reduce"
  top: "conv2/3x3_reduce"
}
layer {
  name: "conv2/3x3"
  type: "Convolution"
  bottom: "conv2/3x3_reduce"
  top: "conv2/3x3"
  param {
    lr_mult: 1
    decay_mult: 1
  }
  param {
    lr_mult: 2
    decay_mult: 0
  }
  convolution_param {
    num_output: 192
    pad: 1
    kernel_size: 3
    weight_filler {
      type: "xavier"
      std: 0.03
    }
    bias_filler {
      type: "constant"
      value: 0.2
    }
  }
}
layer {
  name: "conv2/relu_3x3"
  type: "ReLU"
  bottom: "conv2/3x3"
  top: "conv2/3x3"
}
layer {
  name: "conv2/norm2"
  type: "LRN"
  bottom: "conv2/3x3"
  top: "conv2/norm2"
  lrn_param {
    local_size: 5
    alpha: 0.0001
    beta: 0.75
  }
}
layer {
  name: "pool2/3x3_s2"
  type: "Pooling"
  bottom: "conv2/norm2"
  top: "pool2/3x3_s2"
  pooling_param {
    pool: MAX
    kernel_size: 3
    stride: 2
  }
}
layer {
  name: "inception_3a/1x1"
  type: "Convolution"
  bottom: "pool2/3x3_s2"
  top: "inception_3a/1x1"
  param {
    lr_mult: 1
    decay_mult: 1
  }
  param {
    lr_mult: 2
    decay_mult: 0
  }
  convolution_param {
    num_output: 64
    kernel_size: 1
    weight_filler {
      type: "xavier"
      std: 0.03
    }
    bias_filler {
      type: "constant"
      value: 0.2
    }
  }
}
layer {
  name: "inception_3a/relu_1x1"
  type: "ReLU"
  bottom: "inception_3a/1x1"
  top: "inception_3a/1x1"
}
layer {
  name: "inception_3a/3x3_reduce"
  type: "Convolution"
  bottom: "pool2/3x3_s2"
  top: "inception_3a/3x3_reduce"
  param {
    lr_mult: 1
    decay_mult: 1
  }
  param {
    lr_mult: 2
    decay_mult: 0
  }
  convolution_param {
    num_output: 96
    kernel_size: 1
    weight_filler {
      type: "xavier"
      std: 0.09
    }
    bias_filler {
      type: "constant"
      value: 0.2
    }
  }
}
layer {
  name: "inception_3a/relu_3x3_reduce"
  type: "ReLU"
  bottom: "inception_3a/3x3_reduce"
  top: "inception_3a/3x3_reduce"
}
layer {
  name: "inception_3a/3x3"
  type: "Convolution"
  bottom: "inception_3a/3x3_reduce"
  top: "inception_3a/3x3"
  param {
    lr_mult: 1
    decay_mult: 1
  }
  param {
    lr_mult: 2
    decay_mult: 0
  }
  convolution_param {
    num_output: 128
    pad: 1
    kernel_size: 3
    weight_filler {
      type: "xavier"
      std: 0.03
    }
    bias_filler {
      type: "constant"
      value: 0.2
    }
  }
}
layer {
  name: "inception_3a/relu_3x3"
  type: "ReLU"
  bottom: "inception_3a/3x3"
  top: "inception_3a/3x3"
}
layer {
  name: "inception_3a/5x5_reduce"
  type: "Convolution"
  bottom: "pool2/3x3_s2"
  top: "inception_3a/5x5_reduce"
  param {
    lr_mult: 1
    decay_mult: 1
  }
  param {
    lr_mult: 2
    decay_mult: 0
  }
  convolution_param {
    num_output: 16
    kernel_size: 1
    weight_filler {
      type: "xavier"
      std: 0.2
    }
    bias_filler {
      type: "constant"
      value: 0.2
    }
  }
}
layer {
  name: "inception_3a/relu_5x5_reduce"
  type: "ReLU"
  bottom: "inception_3a/5x5_reduce"
  top: "inception_3a/5x5_reduce"
}
layer {
  name: "inception_3a/5x5"
  type: "Convolution"
  bottom: "inception_3a/5x5_reduce"
  top: "inception_3a/5x5"
  param {
    lr_mult: 1
    decay_mult: 1
  }
  param {
    lr_mult: 2
    decay_mult: 0
  }
  convolution_param {
    num_output: 32
    pad: 2
    kernel_size: 5
    weight_filler {
      type: "xavier"
      std: 0.03
    }
    bias_filler {
      type: "constant"
      value: 0.2
    }
  }
}
layer {
  name: "inception_3a/relu_5x5"
  type: "ReLU"
  bottom: "inception_3a/5x5"
  top: "inception_3a/5x5"
}
layer {
  name: "inception_3a/pool"
  type: "Pooling"
  bottom: "pool2/3x3_s2"
  top: "inception_3a/pool"
  pooling_param {
    pool: MAX
    kernel_size: 3
    stride: 1
    pad: 1
  }
}
layer {
  name: "inception_3a/pool_proj"
  type: "Convolution"
  bottom: "inception_3a/pool"
  top: "inception_3a/pool_proj"
  param {
    lr_mult: 1
    decay_mult: 1
  }
  param {
    lr_mult: 2
    decay_mult: 0
  }
  convolution_param {
    num_output: 32
    kernel_size: 1
    weight_filler {
      type: "xavier"
      std: 0.1
    }
    bias_filler {
      type: "constant"
      value: 0.2
    }
  }
}
layer {
  name: "inception_3a/relu_pool_proj"
  type: "ReLU"
  bottom: "inception_3a/pool_proj"
  top: "inception_3a/pool_proj"
}
layer {
  name: "inception_3a/output"
  type: "Concat"
  bottom: "inception_3a/1x1"
  bottom: "inception_3a/3x3"
  bottom: "inception_3a/5x5"
  bottom: "inception_3a/pool_proj"
  top: "inception_3a/output"
}
layer {
  name: "inception_3b/1x1"
  type: "Convolution"
  bottom: "inception_3a/output"
  top: "inception_3b/1x1"
  param {
    lr_mult: 1
    decay_mult: 1
  }
  param {
    lr_mult: 2
    decay_mult: 0
  }
  convolution_param {
    num_output: 128
    kernel_size: 1
    weight_filler {
      type: "xavier"
      std: 0.03
    }
    bias_filler {
      type: "constant"
      value: 0.2
    }
  }
}
layer {
  name: "inception_3b/relu_1x1"
  type: "ReLU"
  bottom: "inception_3b/1x1"
  top: "inception_3b/1x1"
}
layer {
  name: "inception_3b/3x3_reduce"
  type: "Convolution"
  bottom: "inception_3a/output"
  top: "inception_3b/3x3_reduce"
  param {
    lr_mult: 1
    decay_mult: 1
  }
  param {
    lr_mult: 2
    decay_mult: 0
  }
  convolution_param {
    num_output: 128
    kernel_size: 1
    weight_filler {
      type: "xavier"
      std: 0.09
    }
    bias_filler {
      type: "constant"
      value: 0.2
    }
  }
}
layer {
  name: "inception_3b/relu_3x3_reduce"
  type: "ReLU"
  bottom: "inception_3b/3x3_reduce"
  top: "inception_3b/3x3_reduce"
}
layer {
  name: "inception_3b/3x3"
  type: "Convolution"
  bottom: "inception_3b/3x3_reduce"
  top: "inception_3b/3x3"
  param {
    lr_mult: 1
    decay_mult: 1
  }
  param {
    lr_mult: 2
    decay_mult: 0
  }
  convolution_param {
    num_output: 192
    pad: 1
    kernel_size: 3
    weight_filler {
      type: "xavier"
      std: 0.03
    }
    bias_filler {
      type: "constant"
      value: 0.2
    }
  }
}
layer {
  name: "inception_3b/relu_3x3"
  type: "ReLU"
  bottom: "inception_3b/3x3"
  top: "inception_3b/3x3"
}
layer {
  name: "inception_3b/5x5_reduce"
  type: "Convolution"
  bottom: "inception_3a/output"
  top: "inception_3b/5x5_reduce"
  param {
    lr_mult: 1
    decay_mult: 1
  }
  param {
    lr_mult: 2
    decay_mult: 0
  }
  convolution_param {
    num_output: 32
    kernel_size: 1
    weight_filler {
      type: "xavier"
      std: 0.2
    }
    bias_filler {
      type: "constant"
      value: 0.2
    }
  }
}
layer {
  name: "inception_3b/relu_5x5_reduce"
  type: "ReLU"
  bottom: "inception_3b/5x5_reduce"
  top: "inception_3b/5x5_reduce"
}
layer {
  name: "inception_3b/5x5"
  type: "Convolution"
  bottom: "inception_3b/5x5_reduce"
  top: "inception_3b/5x5"
  param {
    lr_mult: 1
    decay_mult: 1
  }
  param {
    lr_mult: 2
    decay_mult: 0
  }
  convolution_param {
    num_output: 96
    pad: 2
    kernel_size: 5
    weight_filler {
      type: "xavier"
      std: 0.03
    }
    bias_filler {
      type: "constant"
      value: 0.2
    }
  }
}
layer {
  name: "inception_3b/relu_5x5"
  type: "ReLU"
  bottom: "inception_3b/5x5"
  top: "inception_3b/5x5"
}
layer {
  name: "inception_3b/pool"
  type: "Pooling"
  bottom: "inception_3a/output"
  top: "inception_3b/pool"
  pooling_param {
    pool: MAX
    kernel_size: 3
    stride: 1
    pad: 1
  }
}
layer {
  name: "inception_3b/pool_proj"
  type: "Convolution"
  bottom: "inception_3b/pool"
  top: "inception_3b/pool_proj"
  param {
    lr_mult: 1
    decay_mult: 1
  }
  param {
    lr_mult: 2
    decay_mult: 0
  }
  convolution_param {
    num_output: 64
    kernel_size: 1
    weight_filler {
      type: "xavier"
      std: 0.1
    }
    bias_filler {
      type: "constant"
      value: 0.2
    }
  }
}
layer {
  name: "inception_3b/relu_pool_proj"
  type: "ReLU"
  bottom: "inception_3b/pool_proj"
  top: "inception_3b/pool_proj"
}
layer {
  name: "inception_3b/output"
  type: "Concat"
  bottom: "inception_3b/1x1"
  bottom: "inception_3b/3x3"
  bottom: "inception_3b/5x5"
  bottom: "inception_3b/pool_proj"
  top: "inception_3b/output"
}
layer {
  name: "pool3/3x3_s2"
  type: "Pooling"
  bottom: "inception_3b/output"
  top: "pool3/3x3_s2"
  pooling_param {
    pool: MAX
    kernel_size: 3
    stride: 2
  }
}
layer {
  name: "inception_4a/1x1"
  type: "Convolution"
  bottom: "pool3/3x3_s2"
  top: "inception_4a/1x1"
  param {
    lr_mult: 1
    decay_mult: 1
  }
  param {
    lr_mult: 2
    decay_mult: 0
  }
  convolution_param {
    num_output: 192
    kernel_size: 1
    weight_filler {
      type: "xavier"
      std: 0.03
    }
    bias_filler {
      type: "constant"
      value: 0.2
    }
  }
}
layer {
  name: "inception_4a/relu_1x1"
  type: "ReLU"
  bottom: "inception_4a/1x1"
  top: "inception_4a/1x1"
}
layer {
  name: "inception_4a/3x3_reduce"
  type: "Convolution"
  bottom: "pool3/3x3_s2"
  top: "inception_4a/3x3_reduce"
  param {
    lr_mult: 1
    decay_mult: 1
  }
  param {
    lr_mult: 2
    decay_mult: 0
  }
  convolution_param {
    num_output: 96
    kernel_size: 1
    weight_filler {
      type: "xavier"
      std: 0.09
    }
    bias_filler {
      type: "constant"
      value: 0.2
    }
  }
}
layer {
  name: "inception_4a/relu_3x3_reduce"
  type: "ReLU"
  bottom: "inception_4a/3x3_reduce"
  top: "inception_4a/3x3_reduce"
}
layer {
  name: "inception_4a/3x3"
  type: "Convolution"
  bottom: "inception_4a/3x3_reduce"
  top: "inception_4a/3x3"
  param {
    lr_mult: 1
    decay_mult: 1
  }
  param {
    lr_mult: 2
    decay_mult: 0
  }
  convolution_param {
    num_output: 208
    pad: 1
    kernel_size: 3
    weight_filler {
      type: "xavier"
      std: 0.03
    }
    bias_filler {
      type: "constant"
      value: 0.2
    }
  }
}
layer {
  name: "inception_4a/relu_3x3"
  type: "ReLU"
  bottom: "inception_4a/3x3"
  top: "inception_4a/3x3"
}
layer {
  name: "inception_4a/5x5_reduce"
  type: "Convolution"
  bottom: "pool3/3x3_s2"
  top: "inception_4a/5x5_reduce"
  param {
    lr_mult: 1
    decay_mult: 1
  }
  param {
    lr_mult: 2
    decay_mult: 0
  }
  convolution_param {
    num_output: 16
    kernel_size: 1
    weight_filler {
      type: "xavier"
      std: 0.2
    }
    bias_filler {
      type: "constant"
      value: 0.2
    }
  }
}
layer {
  name: "inception_4a/relu_5x5_reduce"
  type: "ReLU"
  bottom: "inception_4a/5x5_reduce"
  top: "inception_4a/5x5_reduce"
}
layer {
  name: "inception_4a/5x5"
  type: "Convolution"
  bottom: "inception_4a/5x5_reduce"
  top: "inception_4a/5x5"
  param {
    lr_mult: 1
    decay_mult: 1
  }
  param {
    lr_mult: 2
    decay_mult: 0
  }
  convolution_param {
    num_output: 48
    pad: 2
    kernel_size: 5
    weight_filler {
      type: "xavier"
      std: 0.03
    }
    bias_filler {
      type: "constant"
      value: 0.2
    }
  }
}
layer {
  name: "inception_4a/relu_5x5"
  type: "ReLU"
  bottom: "inception_4a/5x5"
  top: "inception_4a/5x5"
}
layer {
  name: "inception_4a/pool"
  type: "Pooling"
  bottom: "pool3/3x3_s2"
  top: "inception_4a/pool"
  pooling_param {
    pool: MAX
    kernel_size: 3
    stride: 1
    pad: 1
  }
}
layer {
  name: "inception_4a/pool_proj"
  type: "Convolution"
  bottom: "inception_4a/pool"
  top: "inception_4a/pool_proj"
  param {
    lr_mult: 1
    decay_mult: 1
  }
  param {
    lr_mult: 2
    decay_mult: 0
  }
  convolution_param {
    num_output: 64
    kernel_size: 1
    weight_filler {
      type: "xavier"
      std: 0.1
    }
    bias_filler {
      type: "constant"
      value: 0.2
    }
  }
}
layer {
  name: "inception_4a/relu_pool_proj"
  type: "ReLU"
  bottom: "inception_4a/pool_proj"
  top: "inception_4a/pool_proj"
}
layer {
  name: "inception_4a/output"
  type: "Concat"
  bottom: "inception_4a/1x1"
  bottom: "inception_4a/3x3"
  bottom: "inception_4a/5x5"
  bottom: "inception_4a/pool_proj"
  top: "inception_4a/output"
}
layer {
  name: "loss1/ave_pool"
  type: "Pooling"
  bottom: "inception_4a/output"
  top: "loss1/ave_pool"
  pooling_param {
    pool: AVE
    kernel_size: 5
    stride: 3
  }
}
layer {
  name: "loss1/conv"
  type: "Convolution"
  bottom: "loss1/ave_pool"
  top: "loss1/conv"
  param {
    lr_mult: 1
    decay_mult: 1
  }
  param {
    lr_mult: 2
    decay_mult: 0
  }
  convolution_param {
    num_output: 128
    kernel_size: 1
    weight_filler {
      type: "xavier"
      std: 0.08
    }
    bias_filler {
      type: "constant"
      value: 0.2
    }
  }
}
layer {
  name: "loss1/relu_conv"
  type: "ReLU"
  bottom: "loss1/conv"
  top: "loss1/conv"
}
layer {
  name: "loss1/fc"
  type: "InnerProduct"
  bottom: "loss1/conv"
  top: "loss1/fc"
  param {
    lr_mult: 1
    decay_mult: 1
  }
  param {
    lr_mult: 2
    decay_mult: 0
  }
  inner_product_param {
    num_output: 1024
    weight_filler {
      type: "xavier"
      std: 0.02
    }
    bias_filler {
      type: "constant"
      value: 0.2
    }
  }
}
layer {
  name: "loss1/relu_fc"
  type: "ReLU"
  bottom: "loss1/fc"
  top: "loss1/fc"
}
layer {
  name: "loss1/drop_fc"
  type: "Dropout"
  bottom: "loss1/fc"
  top: "loss1/fc"
  dropout_param {
    dropout_ratio: 0.7
  }
}
layer {
  name: "loss1/classifier_plantvillage"
  type: "InnerProduct"
  bottom: "loss1/fc"
  top: "loss1/classifier_plantvillage"
  param {
    lr_mult: 1
    decay_mult: 1
  }
  param {
    lr_mult: 2
    decay_mult: 0
  }
  inner_product_param {
    num_output: 38
    weight_filler {
      type: "xavier"
      std: 0.0009765625
    }
    bias_filler {
      type: "constant"
      value: 0
    }
  }
}
layer {
  name: "inception_4b/1x1"
  type: "Convolution"
  bottom: "inception_4a/output"
  top: "inception_4b/1x1"
  param {
    lr_mult: 1
    decay_mult: 1
  }
  param {
    lr_mult: 2
    decay_mult: 0
  }
  convolution_param {
    num_output: 160
    kernel_size: 1
    weight_filler {
      type: "xavier"
      std: 0.03
    }
    bias_filler {
      type: "constant"
      value: 0.2
    }
  }
}
layer {
  name: "inception_4b/relu_1x1"
  type: "ReLU"
  bottom: "inception_4b/1x1"
  top: "inception_4b/1x1"
}
layer {
  name: "inception_4b/3x3_reduce"
  type: "Convolution"
  bottom: "inception_4a/output"
  top: "inception_4b/3x3_reduce"
  param {
    lr_mult: 1
    decay_mult: 1
  }
  param {
    lr_mult: 2
    decay_mult: 0
  }
  convolution_param {
    num_output: 112
    kernel_size: 1
    weight_filler {
      type: "xavier"
      std: 0.09
    }
    bias_filler {
      type: "constant"
      value: 0.2
    }
  }
}
layer {
  name: "inception_4b/relu_3x3_reduce"
  type: "ReLU"
  bottom: "inception_4b/3x3_reduce"
  top: "inception_4b/3x3_reduce"
}
layer {
  name: "inception_4b/3x3"
  type: "Convolution"
  bottom: "inception_4b/3x3_reduce"
  top: "inception_4b/3x3"
  param {
    lr_mult: 1
    decay_mult: 1
  }
  param {
    lr_mult: 2
    decay_mult: 0
  }
  convolution_param {
    num_output: 224
    pad: 1
    kernel_size: 3
    weight_filler {
      type: "xavier"
      std: 0.03
    }
    bias_filler {
      type: "constant"
      value: 0.2
    }
  }
}
layer {
  name: "inception_4b/relu_3x3"
  type: "ReLU"
  bottom: "inception_4b/3x3"
  top: "inception_4b/3x3"
}
layer {
  name: "inception_4b/5x5_reduce"
  type: "Convolution"
  bottom: "inception_4a/output"
  top: "inception_4b/5x5_reduce"
  param {
    lr_mult: 1
    decay_mult: 1
  }
  param {
    lr_mult: 2
    decay_mult: 0
  }
  convolution_param {
    num_output: 24
    kernel_size: 1
    weight_filler {
      type: "xavier"
      std: 0.2
    }
    bias_filler {
      type: "constant"
      value: 0.2
    }
  }
}
layer {
  name: "inception_4b/relu_5x5_reduce"
  type: "ReLU"
  bottom: "inception_4b/5x5_reduce"
  top: "inception_4b/5x5_reduce"
}
layer {
  name: "inception_4b/5x5"
  type: "Convolution"
  bottom: "inception_4b/5x5_reduce"
  top: "inception_4b/5x5"
  param {
    lr_mult: 1
    decay_mult: 1
  }
  param {
    lr_mult: 2
    decay_mult: 0
  }
  convolution_param {
    num_output: 64
    pad: 2
    kernel_size: 5
    weight_filler {
      type: "xavier"
      std: 0.03
    }
    bias_filler {
      type: "constant"
      value: 0.2
    }
  }
}
layer {
  name: "inception_4b/relu_5x5"
  type: "ReLU"
  bottom: "inception_4b/5x5"
  top: "inception_4b/5x5"
}
layer {
  name: "inception_4b/pool"
  type: "Pooling"
  bottom: "inception_4a/output"
  top: "inception_4b/pool"
  pooling_param {
    pool: MAX
    kernel_size: 3
    stride: 1
    pad: 1
  }
}
layer {
  name: "inception_4b/pool_proj"
  type: "Convolution"
  bottom: "inception_4b/pool"
  top: "inception_4b/pool_proj"
  param {
    lr_mult: 1
    decay_mult: 1
  }
  param {
    lr_mult: 2
    decay_mult: 0
  }
  convolution_param {
    num_output: 64
    kernel_size: 1
    weight_filler {
      type: "xavier"
      std: 0.1
    }
    bias_filler {
      type: "constant"
      value: 0.2
    }
  }
}
layer {
  name: "inception_4b/relu_pool_proj"
  type: "ReLU"
  bottom: "inception_4b/pool_proj"
  top: "inception_4b/pool_proj"
}
layer {
  name: "inception_4b/output"
  type: "Concat"
  bottom: "inception_4b/1x1"
  bottom: "inception_4b/3x3"
  bottom: "inception_4b/5x5"
  bottom: "inception_4b/pool_proj"
  top: "inception_4b/output"
}
layer {
  name: "inception_4c/1x1"
  type: "Convolution"
  bottom: "inception_4b/output"
  top: "inception_4c/1x1"
  param {
    lr_mult: 1
    decay_mult: 1
  }
  param {
    lr_mult: 2
    decay_mult: 0
  }
  convolution_param {
    num_output: 128
    kernel_size: 1
    weight_filler {
      type: "xavier"
      std: 0.03
    }
    bias_filler {
      type: "constant"
      value: 0.2
    }
  }
}
layer {
  name: "inception_4c/relu_1x1"
  type: "ReLU"
  bottom: "inception_4c/1x1"
  top: "inception_4c/1x1"
}
layer {
  name: "inception_4c/3x3_reduce"
  type: "Convolution"
  bottom: "inception_4b/output"
  top: "inception_4c/3x3_reduce"
  param {
    lr_mult: 1
    decay_mult: 1
  }
  param {
    lr_mult: 2
    decay_mult: 0
  }
  convolution_param {
    num_output: 128
    kernel_size: 1
    weight_filler {
      type: "xavier"
      std: 0.09
    }
    bias_filler {
      type: "constant"
      value: 0.2
    }
  }
}
layer {
  name: "inception_4c/relu_3x3_reduce"
  type: "ReLU"
  bottom: "inception_4c/3x3_reduce"
  top: "inception_4c/3x3_reduce"
}
layer {
  name: "inception_4c/3x3"
  type: "Convolution"
  bottom: "inception_4c/3x3_reduce"
  top: "inception_4c/3x3"
  param {
    lr_mult: 1
    decay_mult: 1
  }
  param {
    lr_mult: 2
    decay_mult: 0
  }
  convolution_param {
    num_output: 256
    pad: 1
    kernel_size: 3
    weight_filler {
      type: "xavier"
      std: 0.03
    }
    bias_filler {
      type: "constant"
      value: 0.2
    }
  }
}
layer {
  name: "inception_4c/relu_3x3"
  type: "ReLU"
  bottom: "inception_4c/3x3"
  top: "inception_4c/3x3"
}
layer {
  name: "inception_4c/5x5_reduce"
  type: "Convolution"
  bottom: "inception_4b/output"
  top: "inception_4c/5x5_reduce"
  param {
    lr_mult: 1
    decay_mult: 1
  }
  param {
    lr_mult: 2
    decay_mult: 0
  }
  convolution_param {
    num_output: 24
    kernel_size: 1
    weight_filler {
      type: "xavier"
      std: 0.2
    }
    bias_filler {
      type: "constant"
      value: 0.2
    }
  }
}
layer {
  name: "inception_4c/relu_5x5_reduce"
  type: "ReLU"
  bottom: "inception_4c/5x5_reduce"
  top: "inception_4c/5x5_reduce"
}
layer {
  name: "inception_4c/5x5"
  type: "Convolution"
  bottom: "inception_4c/5x5_reduce"
  top: "inception_4c/5x5"
  param {
    lr_mult: 1
    decay_mult: 1
  }
  param {
    lr_mult: 2
    decay_mult: 0
  }
  convolution_param {
    num_output: 64
    pad: 2
    kernel_size: 5
    weight_filler {
      type: "xavier"
      std: 0.03
    }
    bias_filler {
      type: "constant"
      value: 0.2
    }
  }
}
layer {
  name: "inception_4c/relu_5x5"
  type: "ReLU"
  bottom: "inception_4c/5x5"
  top: "inception_4c/5x5"
}
layer {
  name: "inception_4c/pool"
  type: "Pooling"
  bottom: "inception_4b/output"
  top: "inception_4c/pool"
  pooling_param {
    pool: MAX
    kernel_size: 3
    stride: 1
    pad: 1
  }
}
layer {
  name: "inception_4c/pool_proj"
  type: "Convolution"
  bottom: "inception_4c/pool"
  top: "inception_4c/pool_proj"
  param {
    lr_mult: 1
    decay_mult: 1
  }
  param {
    lr_mult: 2
    decay_mult: 0
  }
  convolution_param {
    num_output: 64
    kernel_size: 1
    weight_filler {
      type: "xavier"
      std: 0.1
    }
    bias_filler {
      type: "constant"
      value: 0.2
    }
  }
}
layer {
  name: "inception_4c/relu_pool_proj"
  type: "ReLU"
  bottom: "inception_4c/pool_proj"
  top: "inception_4c/pool_proj"
}
layer {
  name: "inception_4c/output"
  type: "Concat"
  bottom: "inception_4c/1x1"
  bottom: "inception_4c/3x3"
  bottom: "inception_4c/5x5"
  bottom: "inception_4c/pool_proj"
  top: "inception_4c/output"
}
layer {
  name: "inception_4d/1x1"
  type: "Convolution"
  bottom: "inception_4c/output"
  top: "inception_4d/1x1"
  param {
    lr_mult: 1
    decay_mult: 1
  }
  param {
    lr_mult: 2
    decay_mult: 0
  }
  convolution_param {
    num_output: 112
    kernel_size: 1
    weight_filler {
      type: "xavier"
      std: 0.03
    }
    bias_filler {
      type: "constant"
      value: 0.2
    }
  }
}
layer {
  name: "inception_4d/relu_1x1"
  type: "ReLU"
  bottom: "inception_4d/1x1"
  top: "inception_4d/1x1"
}
layer {
  name: "inception_4d/3x3_reduce"
  type: "Convolution"
  bottom: "inception_4c/output"
  top: "inception_4d/3x3_reduce"
  param {
    lr_mult: 1
    decay_mult: 1
  }
  param {
    lr_mult: 2
    decay_mult: 0
  }
  convolution_param {
    num_output: 144
    kernel_size: 1
    weight_filler {
      type: "xavier"
      std: 0.09
    }
    bias_filler {
      type: "constant"
      value: 0.2
    }
  }
}
layer {
  name: "inception_4d/relu_3x3_reduce"
  type: "ReLU"
  bottom: "inception_4d/3x3_reduce"
  top: "inception_4d/3x3_reduce"
}
layer {
  name: "inception_4d/3x3"
  type: "Convolution"
  bottom: "inception_4d/3x3_reduce"
  top: "inception_4d/3x3"
  param {
    lr_mult: 1
    decay_mult: 1
  }
  param {
    lr_mult: 2
    decay_mult: 0
  }
  convolution_param {
    num_output: 288
    pad: 1
    kernel_size: 3
    weight_filler {
      type: "xavier"
      std: 0.03
    }
    bias_filler {
      type: "constant"
      value: 0.2
    }
  }
}
layer {
  name: "inception_4d/relu_3x3"
  type: "ReLU"
  bottom: "inception_4d/3x3"
  top: "inception_4d/3x3"
}
layer {
  name: "inception_4d/5x5_reduce"
  type: "Convolution"
  bottom: "inception_4c/output"
  top: "inception_4d/5x5_reduce"
  param {
    lr_mult: 1
    decay_mult: 1
  }
  param {
    lr_mult: 2
    decay_mult: 0
  }
  convolution_param {
    num_output: 32
    kernel_size: 1
    weight_filler {
      type: "xavier"
      std: 0.2
    }
    bias_filler {
      type: "constant"
      value: 0.2
    }
  }
}
layer {
  name: "inception_4d/relu_5x5_reduce"
  type: "ReLU"
  bottom: "inception_4d/5x5_reduce"
  top: "inception_4d/5x5_reduce"
}
layer {
  name: "inception_4d/5x5"
  type: "Convolution"
  bottom: "inception_4d/5x5_reduce"
  top: "inception_4d/5x5"
  param {
    lr_mult: 1
    decay_mult: 1
  }
  param {
    lr_mult: 2
    decay_mult: 0
  }
  convolution_param {
    num_output: 64
    pad: 2
    kernel_size: 5
    weight_filler {
      type: "xavier"
      std: 0.03
    }
    bias_filler {
      type: "constant"
      value: 0.2
    }
  }
}
layer {
  name: "inception_4d/relu_5x5"
  type: "ReLU"
  bottom: "inception_4d/5x5"
  top: "inception_4d/5x5"
}
layer {
  name: "inception_4d/pool"
  type: "Pooling"
  bottom: "inception_4c/output"
  top: "inception_4d/pool"
  pooling_param {
    pool: MAX
    kernel_size: 3
    stride: 1
    pad: 1
  }
}
layer {
  name: "inception_4d/pool_proj"
  type: "Convolution"
  bottom: "inception_4d/pool"
  top: "inception_4d/pool_proj"
  param {
    lr_mult: 1
    decay_mult: 1
  }
  param {
    lr_mult: 2
    decay_mult: 0
  }
  convolution_param {
    num_output: 64
    kernel_size: 1
    weight_filler {
      type: "xavier"
      std: 0.1
    }
    bias_filler {
      type: "constant"
      value: 0.2
    }
  }
}
layer {
  name: "inception_4d/relu_pool_proj"
  type: "ReLU"
  bottom: "inception_4d/pool_proj"
  top: "inception_4d/pool_proj"
}
layer {
  name: "inception_4d/output"
  type: "Concat"
  bottom: "inception_4d/1x1"
  bottom: "inception_4d/3x3"
  bottom: "inception_4d/5x5"
  bottom: "inception_4d/pool_proj"
  top: "inception_4d/output"
}
layer {
  name: "loss2/ave_pool"
  type: "Pooling"
  bottom: "inception_4d/output"
  top: "loss2/ave_pool"
  pooling_param {
    pool: AVE
    kernel_size: 5
    stride: 3
  }
}
layer {
  name: "loss2/conv"
  type: "Convolution"
  bottom: "loss2/ave_pool"
  top: "loss2/conv"
  param {
    lr_mult: 1
    decay_mult: 1
  }
  param {
    lr_mult: 2
    decay_mult: 0
  }
  convolution_param {
    num_output: 128
    kernel_size: 1
    weight_filler {
      type: "xavier"
      std: 0.08
    }
    bias_filler {
      type: "constant"
      value: 0.2
    }
  }
}
layer {
  name: "loss2/relu_conv"
  type: "ReLU"
  bottom: "loss2/conv"
  top: "loss2/conv"
}
layer {
  name: "loss2/fc"
  type: "InnerProduct"
  bottom: "loss2/conv"
  top: "loss2/fc"
  param {
    lr_mult: 1
    decay_mult: 1
  }
  param {
    lr_mult: 2
    decay_mult: 0
  }
  inner_product_param {
    num_output: 1024
    weight_filler {
      type: "xavier"
      std: 0.02
    }
    bias_filler {
      type: "constant"
      value: 0.2
    }
  }
}
layer {
  name: "loss2/relu_fc"
  type: "ReLU"
  bottom: "loss2/fc"
  top: "loss2/fc"
}
layer {
  name: "loss2/drop_fc"
  type: "Dropout"
  bottom: "loss2/fc"
  top: "loss2/fc"
  dropout_param {
    dropout_ratio: 0.7
  }
}
layer {
  name: "loss2/classifier_plantvillage"
  type: "InnerProduct"
  bottom: "loss2/fc"
  top: "loss2/classifier_plantvillage"
  param {
    lr_mult: 1
    decay_mult: 1
  }
  param {
    lr_mult: 2
    decay_mult: 0
  }
  inner_product_param {
    num_output: 38
    weight_filler {
      type: "xavier"
      std: 0.0009765625
    }
    bias_filler {
      type: "constant"
      value: 0
    }
  }
}
layer {
  name: "inception_4e/1x1"
  type: "Convolution"
  bottom: "inception_4d/output"
  top: "inception_4e/1x1"
  param {
    lr_mult: 1
    decay_mult: 1
  }
  param {
    lr_mult: 2
    decay_mult: 0
  }
  convolution_param {
    num_output: 256
    kernel_size: 1
    weight_filler {
      type: "xavier"
      std: 0.03
    }
    bias_filler {
      type: "constant"
      value: 0.2
    }
  }
}
layer {
  name: "inception_4e/relu_1x1"
  type: "ReLU"
  bottom: "inception_4e/1x1"
  top: "inception_4e/1x1"
}
layer {
  name: "inception_4e/3x3_reduce"
  type: "Convolution"
  bottom: "inception_4d/output"
  top: "inception_4e/3x3_reduce"
  param {
    lr_mult: 1
    decay_mult: 1
  }
  param {
    lr_mult: 2
    decay_mult: 0
  }
  convolution_param {
    num_output: 160
    kernel_size: 1
    weight_filler {
      type: "xavier"
      std: 0.09
    }
    bias_filler {
      type: "constant"
      value: 0.2
    }
  }
}
layer {
  name: "inception_4e/relu_3x3_reduce"
  type: "ReLU"
  bottom: "inception_4e/3x3_reduce"
  top: "inception_4e/3x3_reduce"
}
layer {
  name: "inception_4e/3x3"
  type: "Convolution"
  bottom: "inception_4e/3x3_reduce"
  top: "inception_4e/3x3"
  param {
    lr_mult: 1
    decay_mult: 1
  }
  param {
    lr_mult: 2
    decay_mult: 0
  }
  convolution_param {
    num_output: 320
    pad: 1
    kernel_size: 3
    weight_filler {
      type: "xavier"
      std: 0.03
    }
    bias_filler {
      type: "constant"
      value: 0.2
    }
  }
}
layer {
  name: "inception_4e/relu_3x3"
  type: "ReLU"
  bottom: "inception_4e/3x3"
  top: "inception_4e/3x3"
}
layer {
  name: "inception_4e/5x5_reduce"
  type: "Convolution"
  bottom: "inception_4d/output"
  top: "inception_4e/5x5_reduce"
  param {
    lr_mult: 1
    decay_mult: 1
  }
  param {
    lr_mult: 2
    decay_mult: 0
  }
  convolution_param {
    num_output: 32
    kernel_size: 1
    weight_filler {
      type: "xavier"
      std: 0.2
    }
    bias_filler {
      type: "constant"
      value: 0.2
    }
  }
}
layer {
  name: "inception_4e/relu_5x5_reduce"
  type: "ReLU"
  bottom: "inception_4e/5x5_reduce"
  top: "inception_4e/5x5_reduce"
}
layer {
  name: "inception_4e/5x5"
  type: "Convolution"
  bottom: "inception_4e/5x5_reduce"
  top: "inception_4e/
I0403 19:53:39.033005  9807 layer_factory.hpp:77] Creating layer data
I0403 19:53:39.033604  9807 net.cpp:91] Creating Layer data
I0403 19:53:39.033638  9807 net.cpp:399] data -> data
I0403 19:53:39.033686  9807 net.cpp:399] data -> label
I0403 19:53:39.033720  9807 data_transformer.cpp:25] Loading mean file from: /home/mohanty/data/final_dataset/lmdb/grayscale-50-50/mean.binaryproto
I0403 19:53:39.034764  9809 db_lmdb.cpp:38] Opened lmdb /home/mohanty/data/final_dataset/lmdb/grayscale-50-50/test_db
I0403 19:53:39.046815  9807 data_layer.cpp:41] output data size: 24,3,224,224
I0403 19:53:39.074041  9807 net.cpp:141] Setting up data
I0403 19:53:39.074098  9807 net.cpp:148] Top shape: 24 3 224 224 (3612672)
I0403 19:53:39.074121  9807 net.cpp:148] Top shape: 24 (24)
I0403 19:53:39.074136  9807 net.cpp:156] Memory required for data: 14450784
I0403 19:53:39.074163  9807 layer_factory.hpp:77] Creating layer label_data_1_split
I0403 19:53:39.074193  9807 net.cpp:91] Creating Layer label_data_1_split
I0403 19:53:39.074213  9807 net.cpp:425] label_data_1_split <- label
I0403 19:53:39.074244  9807 net.cpp:399] label_data_1_split -> label_data_1_split_0
I0403 19:53:39.074271  9807 net.cpp:399] label_data_1_split -> label_data_1_split_1
I0403 19:53:39.074292  9807 net.cpp:399] label_data_1_split -> label_data_1_split_2
I0403 19:53:39.074313  9807 net.cpp:399] label_data_1_split -> label_data_1_split_3
I0403 19:53:39.074332  9807 net.cpp:399] label_data_1_split -> label_data_1_split_4
I0403 19:53:39.074352  9807 net.cpp:399] label_data_1_split -> label_data_1_split_5
I0403 19:53:39.074372  9807 net.cpp:399] label_data_1_split -> label_data_1_split_6
I0403 19:53:39.074391  9807 net.cpp:399] label_data_1_split -> label_data_1_split_7
I0403 19:53:39.074410  9807 net.cpp:399] label_data_1_split -> label_data_1_split_8
I0403 19:53:39.074429  9807 net.cpp:399] label_data_1_split -> label_data_1_split_9
I0403 19:53:39.074547  9807 net.cpp:141] Setting up label_data_1_split
I0403 19:53:39.074569  9807 net.cpp:148] Top shape: 24 (24)
I0403 19:53:39.074586  9807 net.cpp:148] Top shape: 24 (24)
I0403 19:53:39.074602  9807 net.cpp:148] Top shape: 24 (24)
I0403 19:53:39.074617  9807 net.cpp:148] Top shape: 24 (24)
I0403 19:53:39.074633  9807 net.cpp:148] Top shape: 24 (24)
I0403 19:53:39.074648  9807 net.cpp:148] Top shape: 24 (24)
I0403 19:53:39.074664  9807 net.cpp:148] Top shape: 24 (24)
I0403 19:53:39.074681  9807 net.cpp:148] Top shape: 24 (24)
I0403 19:53:39.074697  9807 net.cpp:148] Top shape: 24 (24)
I0403 19:53:39.074712  9807 net.cpp:148] Top shape: 24 (24)
I0403 19:53:39.074754  9807 net.cpp:156] Memory required for data: 14451744
I0403 19:53:39.074770  9807 layer_factory.hpp:77] Creating layer conv1/7x7_s2
I0403 19:53:39.074803  9807 net.cpp:91] Creating Layer conv1/7x7_s2
I0403 19:53:39.074822  9807 net.cpp:425] conv1/7x7_s2 <- data
I0403 19:53:39.074841  9807 net.cpp:399] conv1/7x7_s2 -> conv1/7x7_s2
I0403 19:53:39.210031  9807 net.cpp:141] Setting up conv1/7x7_s2
I0403 19:53:39.210113  9807 net.cpp:148] Top shape: 24 64 112 112 (19267584)
I0403 19:53:39.210129  9807 net.cpp:156] Memory required for data: 91522080
I0403 19:53:39.210160  9807 layer_factory.hpp:77] Creating layer conv1/relu_7x7
I0403 19:53:39.210191  9807 net.cpp:91] Creating Layer conv1/relu_7x7
I0403 19:53:39.210209  9807 net.cpp:425] conv1/relu_7x7 <- conv1/7x7_s2
I0403 19:53:39.210228  9807 net.cpp:386] conv1/relu_7x7 -> conv1/7x7_s2 (in-place)
I0403 19:53:39.210484  9807 net.cpp:141] Setting up conv1/relu_7x7
I0403 19:53:39.210511  9807 net.cpp:148] Top shape: 24 64 112 112 (19267584)
I0403 19:53:39.210526  9807 net.cpp:156] Memory required for data: 168592416
I0403 19:53:39.210541  9807 layer_factory.hpp:77] Creating layer pool1/3x3_s2
I0403 19:53:39.210566  9807 net.cpp:91] Creating Layer pool1/3x3_s2
I0403 19:53:39.210582  9807 net.cpp:425] pool1/3x3_s2 <- conv1/7x7_s2
I0403 19:53:39.210599  9807 net.cpp:399] pool1/3x3_s2 -> pool1/3x3_s2
I0403 19:53:39.210672  9807 net.cpp:141] Setting up pool1/3x3_s2
I0403 19:53:39.210695  9807 net.cpp:148] Top shape: 24 64 56 56 (4816896)
I0403 19:53:39.210710  9807 net.cpp:156] Memory required for data: 187860000
I0403 19:53:39.210724  9807 layer_factory.hpp:77] Creating layer pool1/norm1
I0403 19:53:39.210757  9807 net.cpp:91] Creating Layer pool1/norm1
I0403 19:53:39.210774  9807 net.cpp:425] pool1/norm1 <- pool1/3x3_s2
I0403 19:53:39.210791  9807 net.cpp:399] pool1/norm1 -> pool1/norm1
I0403 19:53:39.211138  9807 net.cpp:141] Setting up pool1/norm1
I0403 19:53:39.211165  9807 net.cpp:148] Top shape: 24 64 56 56 (4816896)
I0403 19:53:39.211185  9807 net.cpp:156] Memory required for data: 207127584
I0403 19:53:39.211200  9807 layer_factory.hpp:77] Creating layer conv2/3x3_reduce
I0403 19:53:39.211225  9807 net.cpp:91] Creating Layer conv2/3x3_reduce
I0403 19:53:39.211241  9807 net.cpp:425] conv2/3x3_reduce <- pool1/norm1
I0403 19:53:39.211258  9807 net.cpp:399] conv2/3x3_reduce -> conv2/3x3_reduce
I0403 19:53:39.212610  9807 net.cpp:141] Setting up conv2/3x3_reduce
I0403 19:53:39.212638  9807 net.cpp:148] Top shape: 24 64 56 56 (4816896)
I0403 19:53:39.212654  9807 net.cpp:156] Memory required for data: 226395168
I0403 19:53:39.212674  9807 layer_factory.hpp:77] Creating layer conv2/relu_3x3_reduce
I0403 19:53:39.212692  9807 net.cpp:91] Creating Layer conv2/relu_3x3_reduce
I0403 19:53:39.212708  9807 net.cpp:425] conv2/relu_3x3_reduce <- conv2/3x3_reduce
I0403 19:53:39.212726  9807 net.cpp:386] conv2/relu_3x3_reduce -> conv2/3x3_reduce (in-place)
I0403 19:53:39.212970  9807 net.cpp:141] Setting up conv2/relu_3x3_reduce
I0403 19:53:39.212996  9807 net.cpp:148] Top shape: 24 64 56 56 (4816896)
I0403 19:53:39.213011  9807 net.cpp:156] Memory required for data: 245662752
I0403 19:53:39.213026  9807 layer_factory.hpp:77] Creating layer conv2/3x3
I0403 19:53:39.213047  9807 net.cpp:91] Creating Layer conv2/3x3
I0403 19:53:39.213063  9807 net.cpp:425] conv2/3x3 <- conv2/3x3_reduce
I0403 19:53:39.213081  9807 net.cpp:399] conv2/3x3 -> conv2/3x3
I0403 19:53:39.215430  9807 net.cpp:141] Setting up conv2/3x3
I0403 19:53:39.215461  9807 net.cpp:148] Top shape: 24 192 56 56 (14450688)
I0403 19:53:39.215481  9807 net.cpp:156] Memory required for data: 303465504
I0403 19:53:39.215502  9807 layer_factory.hpp:77] Creating layer conv2/relu_3x3
I0403 19:53:39.215523  9807 net.cpp:91] Creating Layer conv2/relu_3x3
I0403 19:53:39.215540  9807 net.cpp:425] conv2/relu_3x3 <- conv2/3x3
I0403 19:53:39.215559  9807 net.cpp:386] conv2/relu_3x3 -> conv2/3x3 (in-place)
I0403 19:53:39.215785  9807 net.cpp:141] Setting up conv2/relu_3x3
I0403 19:53:39.215812  9807 net.cpp:148] Top shape: 24 192 56 56 (14450688)
I0403 19:53:39.215860  9807 net.cpp:156] Memory required for data: 361268256
I0403 19:53:39.215876  9807 layer_factory.hpp:77] Creating layer conv2/norm2
I0403 19:53:39.215898  9807 net.cpp:91] Creating Layer conv2/norm2
I0403 19:53:39.215915  9807 net.cpp:425] conv2/norm2 <- conv2/3x3
I0403 19:53:39.215934  9807 net.cpp:399] conv2/norm2 -> conv2/norm2
I0403 19:53:39.216253  9807 net.cpp:141] Setting up conv2/norm2
I0403 19:53:39.216280  9807 net.cpp:148] Top shape: 24 192 56 56 (14450688)
I0403 19:53:39.216296  9807 net.cpp:156] Memory required for data: 419071008
I0403 19:53:39.216311  9807 layer_factory.hpp:77] Creating layer pool2/3x3_s2
I0403 19:53:39.216333  9807 net.cpp:91] Creating Layer pool2/3x3_s2
I0403 19:53:39.216351  9807 net.cpp:425] pool2/3x3_s2 <- conv2/norm2
I0403 19:53:39.216369  9807 net.cpp:399] pool2/3x3_s2 -> pool2/3x3_s2
I0403 19:53:39.216425  9807 net.cpp:141] Setting up pool2/3x3_s2
I0403 19:53:39.216449  9807 net.cpp:148] Top shape: 24 192 28 28 (3612672)
I0403 19:53:39.216464  9807 net.cpp:156] Memory required for data: 433521696
I0403 19:53:39.216480  9807 layer_factory.hpp:77] Creating layer pool2/3x3_s2_pool2/3x3_s2_0_split
I0403 19:53:39.216497  9807 net.cpp:91] Creating Layer pool2/3x3_s2_pool2/3x3_s2_0_split
I0403 19:53:39.216513  9807 net.cpp:425] pool2/3x3_s2_pool2/3x3_s2_0_split <- pool2/3x3_s2
I0403 19:53:39.216534  9807 net.cpp:399] pool2/3x3_s2_pool2/3x3_s2_0_split -> pool2/3x3_s2_pool2/3x3_s2_0_split_0
I0403 19:53:39.216554  9807 net.cpp:399] pool2/3x3_s2_pool2/3x3_s2_0_split -> pool2/3x3_s2_pool2/3x3_s2_0_split_1
I0403 19:53:39.216574  9807 net.cpp:399] pool2/3x3_s2_pool2/3x3_s2_0_split -> pool2/3x3_s2_pool2/3x3_s2_0_split_2
I0403 19:53:39.216594  9807 net.cpp:399] pool2/3x3_s2_pool2/3x3_s2_0_split -> pool2/3x3_s2_pool2/3x3_s2_0_split_3
I0403 19:53:39.216666  9807 net.cpp:141] Setting up pool2/3x3_s2_pool2/3x3_s2_0_split
I0403 19:53:39.216692  9807 net.cpp:148] Top shape: 24 192 28 28 (3612672)
I0403 19:53:39.216711  9807 net.cpp:148] Top shape: 24 192 28 28 (3612672)
I0403 19:53:39.216727  9807 net.cpp:148] Top shape: 24 192 28 28 (3612672)
I0403 19:53:39.216743  9807 net.cpp:148] Top shape: 24 192 28 28 (3612672)
I0403 19:53:39.216758  9807 net.cpp:156] Memory required for data: 491324448
I0403 19:53:39.216773  9807 layer_factory.hpp:77] Creating layer inception_3a/1x1
I0403 19:53:39.216796  9807 net.cpp:91] Creating Layer inception_3a/1x1
I0403 19:53:39.216814  9807 net.cpp:425] inception_3a/1x1 <- pool2/3x3_s2_pool2/3x3_s2_0_split_0
I0403 19:53:39.216835  9807 net.cpp:399] inception_3a/1x1 -> inception_3a/1x1
I0403 19:53:39.218492  9807 net.cpp:141] Setting up inception_3a/1x1
I0403 19:53:39.218523  9807 net.cpp:148] Top shape: 24 64 28 28 (1204224)
I0403 19:53:39.218539  9807 net.cpp:156] Memory required for data: 496141344
I0403 19:53:39.218559  9807 layer_factory.hpp:77] Creating layer inception_3a/relu_1x1
I0403 19:53:39.218580  9807 net.cpp:91] Creating Layer inception_3a/relu_1x1
I0403 19:53:39.218597  9807 net.cpp:425] inception_3a/relu_1x1 <- inception_3a/1x1
I0403 19:53:39.218616  9807 net.cpp:386] inception_3a/relu_1x1 -> inception_3a/1x1 (in-place)
I0403 19:53:39.218798  9807 net.cpp:141] Setting up inception_3a/relu_1x1
I0403 19:53:39.218824  9807 net.cpp:148] Top shape: 24 64 28 28 (1204224)
I0403 19:53:39.218842  9807 net.cpp:156] Memory required for data: 500958240
I0403 19:53:39.218858  9807 layer_factory.hpp:77] Creating layer inception_3a/3x3_reduce
I0403 19:53:39.218883  9807 net.cpp:91] Creating Layer inception_3a/3x3_reduce
I0403 19:53:39.218901  9807 net.cpp:425] inception_3a/3x3_reduce <- pool2/3x3_s2_pool2/3x3_s2_0_split_1
I0403 19:53:39.218924  9807 net.cpp:399] inception_3a/3x3_reduce -> inception_3a/3x3_reduce
I0403 19:53:39.220721  9807 net.cpp:141] Setting up inception_3a/3x3_reduce
I0403 19:53:39.220755  9807 net.cpp:148] Top shape: 24 96 28 28 (1806336)
I0403 19:53:39.220773  9807 net.cpp:156] Memory required for data: 508183584
I0403 19:53:39.220798  9807 layer_factory.hpp:77] Creating layer inception_3a/relu_3x3_reduce
I0403 19:53:39.220839  9807 net.cpp:91] Creating Layer inception_3a/relu_3x3_reduce
I0403 19:53:39.220859  9807 net.cpp:425] inception_3a/relu_3x3_reduce <- inception_3a/3x3_reduce
I0403 19:53:39.220880  9807 net.cpp:386] inception_3a/relu_3x3_reduce -> inception_3a/3x3_reduce (in-place)
I0403 19:53:39.221073  9807 net.cpp:141] Setting up inception_3a/relu_3x3_reduce
I0403 19:53:39.221101  9807 net.cpp:148] Top shape: 24 96 28 28 (1806336)
I0403 19:53:39.221117  9807 net.cpp:156] Memory required for data: 515408928
I0403 19:53:39.221132  9807 layer_factory.hpp:77] Creating layer inception_3a/3x3
I0403 19:53:39.221155  9807 net.cpp:91] Creating Layer inception_3a/3x3
I0403 19:53:39.221174  9807 net.cpp:425] inception_3a/3x3 <- inception_3a/3x3_reduce
I0403 19:53:39.221202  9807 net.cpp:399] inception_3a/3x3 -> inception_3a/3x3
I0403 19:53:39.223009  9807 net.cpp:141] Setting up inception_3a/3x3
I0403 19:53:39.223043  9807 net.cpp:148] Top shape: 24 128 28 28 (2408448)
I0403 19:53:39.223062  9807 net.cpp:156] Memory required for data: 525042720
I0403 19:53:39.223081  9807 layer_factory.hpp:77] Creating layer inception_3a/relu_3x3
I0403 19:53:39.223100  9807 net.cpp:91] Creating Layer inception_3a/relu_3x3
I0403 19:53:39.223116  9807 net.cpp:425] inception_3a/relu_3x3 <- inception_3a/3x3
I0403 19:53:39.223136  9807 net.cpp:386] inception_3a/relu_3x3 -> inception_3a/3x3 (in-place)
I0403 19:53:39.223429  9807 net.cpp:141] Setting up inception_3a/relu_3x3
I0403 19:53:39.223459  9807 net.cpp:148] Top shape: 24 128 28 28 (2408448)
I0403 19:53:39.223476  9807 net.cpp:156] Memory required for data: 534676512
I0403 19:53:39.223491  9807 layer_factory.hpp:77] Creating layer inception_3a/5x5_reduce
I0403 19:53:39.223517  9807 net.cpp:91] Creating Layer inception_3a/5x5_reduce
I0403 19:53:39.223536  9807 net.cpp:425] inception_3a/5x5_reduce <- pool2/3x3_s2_pool2/3x3_s2_0_split_2
I0403 19:53:39.223556  9807 net.cpp:399] inception_3a/5x5_reduce -> inception_3a/5x5_reduce
I0403 19:53:39.224570  9807 net.cpp:141] Setting up inception_3a/5x5_reduce
I0403 19:53:39.224601  9807 net.cpp:148] Top shape: 24 16 28 28 (301056)
I0403 19:53:39.224618  9807 net.cpp:156] Memory required for data: 535880736
I0403 19:53:39.224637  9807 layer_factory.hpp:77] Creating layer inception_3a/relu_5x5_reduce
I0403 19:53:39.224654  9807 net.cpp:91] Creating Layer inception_3a/relu_5x5_reduce
I0403 19:53:39.224671  9807 net.cpp:425] inception_3a/relu_5x5_reduce <- inception_3a/5x5_reduce
I0403 19:53:39.224691  9807 net.cpp:386] inception_3a/relu_5x5_reduce -> inception_3a/5x5_reduce (in-place)
I0403 19:53:39.224998  9807 net.cpp:141] Setting up inception_3a/relu_5x5_reduce
I0403 19:53:39.225026  9807 net.cpp:148] Top shape: 24 16 28 28 (301056)
I0403 19:53:39.225044  9807 net.cpp:156] Memory required for data: 537084960
I0403 19:53:39.225059  9807 layer_factory.hpp:77] Creating layer inception_3a/5x5
I0403 19:53:39.225085  9807 net.cpp:91] Creating Layer inception_3a/5x5
I0403 19:53:39.225103  9807 net.cpp:425] inception_3a/5x5 <- inception_3a/5x5_reduce
I0403 19:53:39.225126  9807 net.cpp:399] inception_3a/5x5 -> inception_3a/5x5
I0403 19:53:39.226198  9807 net.cpp:141] Setting up inception_3a/5x5
I0403 19:53:39.226229  9807 net.cpp:148] Top shape: 24 32 28 28 (602112)
I0403 19:53:39.226246  9807 net.cpp:156] Memory required for data: 539493408
I0403 19:53:39.226266  9807 layer_factory.hpp:77] Creating layer inception_3a/relu_5x5
I0403 19:53:39.226287  9807 net.cpp:91] Creating Layer inception_3a/relu_5x5
I0403 19:53:39.226305  9807 net.cpp:425] inception_3a/relu_5x5 <- inception_3a/5x5
I0403 19:53:39.226325  9807 net.cpp:386] inception_3a/relu_5x5 -> inception_3a/5x5 (in-place)
I0403 19:53:39.226506  9807 net.cpp:141] Setting up inception_3a/relu_5x5
I0403 19:53:39.226533  9807 net.cpp:148] Top shape: 24 32 28 28 (602112)
I0403 19:53:39.226548  9807 net.cpp:156] Memory required for data: 541901856
I0403 19:53:39.226564  9807 layer_factory.hpp:77] Creating layer inception_3a/pool
I0403 19:53:39.226583  9807 net.cpp:91] Creating Layer inception_3a/pool
I0403 19:53:39.226614  9807 net.cpp:425] inception_3a/pool <- pool2/3x3_s2_pool2/3x3_s2_0_split_3
I0403 19:53:39.226637  9807 net.cpp:399] inception_3a/pool -> inception_3a/pool
I0403 19:53:39.226702  9807 net.cpp:141] Setting up inception_3a/pool
I0403 19:53:39.226727  9807 net.cpp:148] Top shape: 24 192 28 28 (3612672)
I0403 19:53:39.226742  9807 net.cpp:156] Memory required for data: 556352544
I0403 19:53:39.226758  9807 layer_factory.hpp:77] Creating layer inception_3a/pool_proj
I0403 19:53:39.226783  9807 net.cpp:91] Creating Layer inception_3a/pool_proj
I0403 19:53:39.226801  9807 net.cpp:425] inception_3a/pool_proj <- inception_3a/pool
I0403 19:53:39.226821  9807 net.cpp:399] inception_3a/pool_proj -> inception_3a/pool_proj
I0403 19:53:39.227841  9807 net.cpp:141] Setting up inception_3a/pool_proj
I0403 19:53:39.227870  9807 net.cpp:148] Top shape: 24 32 28 28 (602112)
I0403 19:53:39.227887  9807 net.cpp:156] Memory required for data: 558760992
I0403 19:53:39.227912  9807 layer_factory.hpp:77] Creating layer inception_3a/relu_pool_proj
I0403 19:53:39.227932  9807 net.cpp:91] Creating Layer inception_3a/relu_pool_proj
I0403 19:53:39.227949  9807 net.cpp:425] inception_3a/relu_pool_proj <- inception_3a/pool_proj
I0403 19:53:39.227969  9807 net.cpp:386] inception_3a/relu_pool_proj -> inception_3a/pool_proj (in-place)
I0403 19:53:39.228255  9807 net.cpp:141] Setting up inception_3a/relu_pool_proj
I0403 19:53:39.228286  9807 net.cpp:148] Top shape: 24 32 28 28 (602112)
I0403 19:53:39.228302  9807 net.cpp:156] Memory required for data: 561169440
I0403 19:53:39.228318  9807 layer_factory.hpp:77] Creating layer inception_3a/output
I0403 19:53:39.228338  9807 net.cpp:91] Creating Layer inception_3a/output
I0403 19:53:39.228354  9807 net.cpp:425] inception_3a/output <- inception_3a/1x1
I0403 19:53:39.228371  9807 net.cpp:425] inception_3a/output <- inception_3a/3x3
I0403 19:53:39.228389  9807 net.cpp:425] inception_3a/output <- inception_3a/5x5
I0403 19:53:39.228404  9807 net.cpp:425] inception_3a/output <- inception_3a/pool_proj
I0403 19:53:39.228421  9807 net.cpp:399] inception_3a/output -> inception_3a/output
I0403 19:53:39.228472  9807 net.cpp:141] Setting up inception_3a/output
I0403 19:53:39.228497  9807 net.cpp:148] Top shape: 24 256 28 28 (4816896)
I0403 19:53:39.228512  9807 net.cpp:156] Memory required for data: 580437024
I0403 19:53:39.228526  9807 layer_factory.hpp:77] Creating layer inception_3a/output_inception_3a/output_0_split
I0403 19:53:39.228548  9807 net.cpp:91] Creating Layer inception_3a/output_inception_3a/output_0_split
I0403 19:53:39.228564  9807 net.cpp:425] inception_3a/output_inception_3a/output_0_split <- inception_3a/output
I0403 19:53:39.228584  9807 net.cpp:399] inception_3a/output_inception_3a/output_0_split -> inception_3a/output_inception_3a/output_0_split_0
I0403 19:53:39.228603  9807 net.cpp:399] inception_3a/output_inception_3a/output_0_split -> inception_3a/output_inception_3a/output_0_split_1
I0403 19:53:39.228627  9807 net.cpp:399] inception_3a/output_inception_3a/output_0_split -> inception_3a/output_inception_3a/output_0_split_2
I0403 19:53:39.228649  9807 net.cpp:399] inception_3a/output_inception_3a/output_0_split -> inception_3a/output_inception_3a/output_0_split_3
I0403 19:53:39.228729  9807 net.cpp:141] Setting up inception_3a/output_inception_3a/output_0_split
I0403 19:53:39.228752  9807 net.cpp:148] Top shape: 24 256 28 28 (4816896)
I0403 19:53:39.228771  9807 net.cpp:148] Top shape: 24 256 28 28 (4816896)
I0403 19:53:39.228788  9807 net.cpp:148] Top shape: 24 256 28 28 (4816896)
I0403 19:53:39.228806  9807 net.cpp:148] Top shape: 24 256 28 28 (4816896)
I0403 19:53:39.228819  9807 net.cpp:156] Memory required for data: 657507360
I0403 19:53:39.228834  9807 layer_factory.hpp:77] Creating layer inception_3b/1x1
I0403 19:53:39.228855  9807 net.cpp:91] Creating Layer inception_3b/1x1
I0403 19:53:39.228873  9807 net.cpp:425] inception_3b/1x1 <- inception_3a/output_inception_3a/output_0_split_0
I0403 19:53:39.228894  9807 net.cpp:399] inception_3b/1x1 -> inception_3b/1x1
I0403 19:53:39.230092  9807 net.cpp:141] Setting up inception_3b/1x1
I0403 19:53:39.230132  9807 net.cpp:148] Top shape: 24 128 28 28 (2408448)
I0403 19:53:39.230149  9807 net.cpp:156] Memory required for data: 667141152
I0403 19:53:39.230168  9807 layer_factory.hpp:77] Creating layer inception_3b/relu_1x1
I0403 19:53:39.230195  9807 net.cpp:91] Creating Layer inception_3b/relu_1x1
I0403 19:53:39.230213  9807 net.cpp:425] inception_3b/relu_1x1 <- inception_3b/1x1
I0403 19:53:39.230232  9807 net.cpp:386] inception_3b/relu_1x1 -> inception_3b/1x1 (in-place)
I0403 19:53:39.230419  9807 net.cpp:141] Setting up inception_3b/relu_1x1
I0403 19:53:39.230449  9807 net.cpp:148] Top shape: 24 128 28 28 (2408448)
I0403 19:53:39.230465  9807 net.cpp:156] Memory required for data: 676774944
I0403 19:53:39.230480  9807 layer_factory.hpp:77] Creating layer inception_3b/3x3_reduce
I0403 19:53:39.230504  9807 net.cpp:91] Creating Layer inception_3b/3x3_reduce
I0403 19:53:39.230523  9807 net.cpp:425] inception_3b/3x3_reduce <- inception_3a/output_inception_3a/output_0_split_1
I0403 19:53:39.230543  9807 net.cpp:399] inception_3b/3x3_reduce -> inception_3b/3x3_reduce
I0403 19:53:39.231735  9807 net.cpp:141] Setting up inception_3b/3x3_reduce
I0403 19:53:39.231765  9807 net.cpp:148] Top shape: 24 128 28 28 (2408448)
I0403 19:53:39.231782  9807 net.cpp:156] Memory required for data: 686408736
I0403 19:53:39.231801  9807 layer_factory.hpp:77] Creating layer inception_3b/relu_3x3_reduce
I0403 19:53:39.231823  9807 net.cpp:91] Creating Layer inception_3b/relu_3x3_reduce
I0403 19:53:39.231842  9807 net.cpp:425] inception_3b/relu_3x3_reduce <- inception_3b/3x3_reduce
I0403 19:53:39.231860  9807 net.cpp:386] inception_3b/relu_3x3_reduce -> inception_3b/3x3_reduce (in-place)
I0403 19:53:39.232043  9807 net.cpp:141] Setting up inception_3b/relu_3x3_reduce
I0403 19:53:39.232074  9807 net.cpp:148] Top shape: 24 128 28 28 (2408448)
I0403 19:53:39.232090  9807 net.cpp:156] Memory required for data: 696042528
I0403 19:53:39.232106  9807 layer_factory.hpp:77] Creating layer inception_3b/3x3
I0403 19:53:39.232133  9807 net.cpp:91] Creating Layer inception_3b/3x3
I0403 19:53:39.232151  9807 net.cpp:425] inception_3b/3x3 <- inception_3b/3x3_reduce
I0403 19:53:39.232173  9807 net.cpp:399] inception_3b/3x3 -> inception_3b/3x3
I0403 19:53:39.235240  9807 net.cpp:141] Setting up inception_3b/3x3
I0403 19:53:39.235272  9807 net.cpp:148] Top shape: 24 192 28 28 (3612672)
I0403 19:53:39.235291  9807 net.cpp:156] Memory required for data: 710493216
I0403 19:53:39.235309  9807 layer_factory.hpp:77] Creating layer inception_3b/relu_3x3
I0403 19:53:39.235327  9807 net.cpp:91] Creating Layer inception_3b/relu_3x3
I0403 19:53:39.235343  9807 net.cpp:425] inception_3b/relu_3x3 <- inception_3b/3x3
I0403 19:53:39.235365  9807 net.cpp:386] inception_3b/relu_3x3 -> inception_3b/3x3 (in-place)
I0403 19:53:39.235647  9807 net.cpp:141] Setting up inception_3b/relu_3x3
I0403 19:53:39.235677  9807 net.cpp:148] Top shape: 24 192 28 28 (3612672)
I0403 19:53:39.235692  9807 net.cpp:156] Memory required for data: 724943904
I0403 19:53:39.235707  9807 layer_factory.hpp:77] Creating layer inception_3b/5x5_reduce
I0403 19:53:39.235730  9807 net.cpp:91] Creating Layer inception_3b/5x5_reduce
I0403 19:53:39.235748  9807 net.cpp:425] inception_3b/5x5_reduce <- inception_3a/output_inception_3a/output_0_split_2
I0403 19:53:39.235766  9807 net.cpp:399] inception_3b/5x5_reduce -> inception_3b/5x5_reduce
I0403 19:53:39.236801  9807 net.cpp:141] Setting up inception_3b/5x5_reduce
I0403 19:53:39.236831  9807 net.cpp:148] Top shape: 24 32 28 28 (602112)
I0403 19:53:39.236848  9807 net.cpp:156] Memory required for data: 727352352
I0403 19:53:39.236866  9807 layer_factory.hpp:77] Creating layer inception_3b/relu_5x5_reduce
I0403 19:53:39.236884  9807 net.cpp:91] Creating Layer inception_3b/relu_5x5_reduce
I0403 19:53:39.236901  9807 net.cpp:425] inception_3b/relu_5x5_reduce <- inception_3b/5x5_reduce
I0403 19:53:39.236920  9807 net.cpp:386] inception_3b/relu_5x5_reduce -> inception_3b/5x5_reduce (in-place)
I0403 19:53:39.237117  9807 net.cpp:141] Setting up inception_3b/relu_5x5_reduce
I0403 19:53:39.237143  9807 net.cpp:148] Top shape: 24 32 28 28 (602112)
I0403 19:53:39.237159  9807 net.cpp:156] Memory required for data: 729760800
I0403 19:53:39.237180  9807 layer_factory.hpp:77] Creating layer inception_3b/5x5
I0403 19:53:39.237206  9807 net.cpp:91] Creating Layer inception_3b/5x5
I0403 19:53:39.237224  9807 net.cpp:425] inception_3b/5x5 <- inception_3b/5x5_reduce
I0403 19:53:39.237246  9807 net.cpp:399] inception_3b/5x5 -> inception_3b/5x5
I0403 19:53:39.239259  9807 net.cpp:141] Setting up inception_3b/5x5
I0403 19:53:39.239289  9807 net.cpp:148] Top shape: 24 96 28 28 (1806336)
I0403 19:53:39.239305  9807 net.cpp:156] Memory required for data: 736986144
I0403 19:53:39.239325  9807 layer_factory.hpp:77] Creating layer inception_3b/relu_5x5
I0403 19:53:39.239346  9807 net.cpp:91] Creating Layer inception_3b/relu_5x5
I0403 19:53:39.239362  9807 net.cpp:425] inception_3b/relu_5x5 <- inception_3b/5x5
I0403 19:53:39.239379  9807 net.cpp:386] inception_3b/relu_5x5 -> inception_3b/5x5 (in-place)
I0403 19:53:39.239583  9807 net.cpp:141] Setting up inception_3b/relu_5x5
I0403 19:53:39.239609  9807 net.cpp:148] Top shape: 24 96 28 28 (1806336)
I0403 19:53:39.239624  9807 net.cpp:156] Memory required for data: 744211488
I0403 19:53:39.239639  9807 layer_factory.hpp:77] Creating layer inception_3b/pool
I0403 19:53:39.239657  9807 net.cpp:91] Creating Layer inception_3b/pool
I0403 19:53:39.239675  9807 net.cpp:425] inception_3b/pool <- inception_3a/output_inception_3a/output_0_split_3
I0403 19:53:39.239692  9807 net.cpp:399] inception_3b/pool -> inception_3b/pool
I0403 19:53:39.239749  9807 net.cpp:141] Setting up inception_3b/pool
I0403 19:53:39.239775  9807 net.cpp:148] Top shape: 24 256 28 28 (4816896)
I0403 19:53:39.239789  9807 net.cpp:156] Memory required for data: 763479072
I0403 19:53:39.239804  9807 layer_factory.hpp:77] Creating layer inception_3b/pool_proj
I0403 19:53:39.239826  9807 net.cpp:91] Creating Layer inception_3b/pool_proj
I0403 19:53:39.239843  9807 net.cpp:425] inception_3b/pool_proj <- inception_3b/pool
I0403 19:53:39.239864  9807 net.cpp:399] inception_3b/pool_proj -> inception_3b/pool_proj
I0403 19:53:39.240986  9807 net.cpp:141] Setting up inception_3b/pool_proj
I0403 19:53:39.241014  9807 net.cpp:148] Top shape: 24 64 28 28 (1204224)
I0403 19:53:39.241029  9807 net.cpp:156] Memory required for data: 768295968
I0403 19:53:39.241049  9807 layer_factory.hpp:77] Creating layer inception_3b/relu_pool_proj
I0403 19:53:39.241066  9807 net.cpp:91] Creating Layer inception_3b/relu_pool_proj
I0403 19:53:39.241081  9807 net.cpp:425] inception_3b/relu_pool_proj <- inception_3b/pool_proj
I0403 19:53:39.241102  9807 net.cpp:386] inception_3b/relu_pool_proj -> inception_3b/pool_proj (in-place)
I0403 19:53:39.241513  9807 net.cpp:141] Setting up inception_3b/relu_pool_proj
I0403 19:53:39.241544  9807 net.cpp:148] Top shape: 24 64 28 28 (1204224)
I0403 19:53:39.241559  9807 net.cpp:156] Memory required for data: 773112864
I0403 19:53:39.241575  9807 layer_factory.hpp:77] Creating layer inception_3b/output
I0403 19:53:39.241595  9807 net.cpp:91] Creating Layer inception_3b/output
I0403 19:53:39.241611  9807 net.cpp:425] inception_3b/output <- inception_3b/1x1
I0403 19:53:39.241626  9807 net.cpp:425] inception_3b/output <- inception_3b/3x3
I0403 19:53:39.241642  9807 net.cpp:425] inception_3b/output <- inception_3b/5x5
I0403 19:53:39.241658  9807 net.cpp:425] inception_3b/output <- inception_3b/pool_proj
I0403 19:53:39.241677  9807 net.cpp:399] inception_3b/output -> inception_3b/output
I0403 19:53:39.241722  9807 net.cpp:141] Setting up inception_3b/output
I0403 19:53:39.241745  9807 net.cpp:148] Top shape: 24 480 28 28 (9031680)
I0403 19:53:39.241760  9807 net.cpp:156] Memory required for data: 809239584
I0403 19:53:39.241775  9807 layer_factory.hpp:77] Creating layer pool3/3x3_s2
I0403 19:53:39.241796  9807 net.cpp:91] Creating Layer pool3/3x3_s2
I0403 19:53:39.241811  9807 net.cpp:425] pool3/3x3_s2 <- inception_3b/output
I0403 19:53:39.241844  9807 net.cpp:399] pool3/3x3_s2 -> pool3/3x3_s2
I0403 19:53:39.241906  9807 net.cpp:141] Setting up pool3/3x3_s2
I0403 19:53:39.241930  9807 net.cpp:148] Top shape: 24 480 14 14 (2257920)
I0403 19:53:39.241945  9807 net.cpp:156] Memory required for data: 818271264
I0403 19:53:39.241960  9807 layer_factory.hpp:77] Creating layer pool3/3x3_s2_pool3/3x3_s2_0_split
I0403 19:53:39.241978  9807 net.cpp:91] Creating Layer pool3/3x3_s2_pool3/3x3_s2_0_split
I0403 19:53:39.241994  9807 net.cpp:425] pool3/3x3_s2_pool3/3x3_s2_0_split <- pool3/3x3_s2
I0403 19:53:39.242012  9807 net.cpp:399] pool3/3x3_s2_pool3/3x3_s2_0_split -> pool3/3x3_s2_pool3/3x3_s2_0_split_0
I0403 19:53:39.242032  9807 net.cpp:399] pool3/3x3_s2_pool3/3x3_s2_0_split -> pool3/3x3_s2_pool3/3x3_s2_0_split_1
I0403 19:53:39.242051  9807 net.cpp:399] pool3/3x3_s2_pool3/3x3_s2_0_split -> pool3/3x3_s2_pool3/3x3_s2_0_split_2
I0403 19:53:39.242070  9807 net.cpp:399] pool3/3x3_s2_pool3/3x3_s2_0_split -> pool3/3x3_s2_pool3/3x3_s2_0_split_3
I0403 19:53:39.242149  9807 net.cpp:141] Setting up pool3/3x3_s2_pool3/3x3_s2_0_split
I0403 19:53:39.242172  9807 net.cpp:148] Top shape: 24 480 14 14 (2257920)
I0403 19:53:39.242193  9807 net.cpp:148] Top shape: 24 480 14 14 (2257920)
I0403 19:53:39.242210  9807 net.cpp:148] Top shape: 24 480 14 14 (2257920)
I0403 19:53:39.242225  9807 net.cpp:148] Top shape: 24 480 14 14 (2257920)
I0403 19:53:39.242239  9807 net.cpp:156] Memory required for data: 854397984
I0403 19:53:39.242256  9807 layer_factory.hpp:77] Creating layer inception_4a/1x1
I0403 19:53:39.242279  9807 net.cpp:91] Creating Layer inception_4a/1x1
I0403 19:53:39.242295  9807 net.cpp:425] inception_4a/1x1 <- pool3/3x3_s2_pool3/3x3_s2_0_split_0
I0403 19:53:39.242316  9807 net.cpp:399] inception_4a/1x1 -> inception_4a/1x1
I0403 19:53:39.243993  9807 net.cpp:141] Setting up inception_4a/1x1
I0403 19:53:39.244021  9807 net.cpp:148] Top shape: 24 192 14 14 (903168)
I0403 19:53:39.244037  9807 net.cpp:156] Memory required for data: 858010656
I0403 19:53:39.244056  9807 layer_factory.hpp:77] Creating layer inception_4a/relu_1x1
I0403 19:53:39.244077  9807 net.cpp:91] Creating Layer inception_4a/relu_1x1
I0403 19:53:39.244096  9807 net.cpp:425] inception_4a/relu_1x1 <- inception_4a/1x1
I0403 19:53:39.244113  9807 net.cpp:386] inception_4a/relu_1x1 -> inception_4a/1x1 (in-place)
I0403 19:53:39.244303  9807 net.cpp:141] Setting up inception_4a/relu_1x1
I0403 19:53:39.244331  9807 net.cpp:148] Top shape: 24 192 14 14 (903168)
I0403 19:53:39.244349  9807 net.cpp:156] Memory required for data: 861623328
I0403 19:53:39.244366  9807 layer_factory.hpp:77] Creating layer inception_4a/3x3_reduce
I0403 19:53:39.244388  9807 net.cpp:91] Creating Layer inception_4a/3x3_reduce
I0403 19:53:39.244406  9807 net.cpp:425] inception_4a/3x3_reduce <- pool3/3x3_s2_pool3/3x3_s2_0_split_1
I0403 19:53:39.244428  9807 net.cpp:399] inception_4a/3x3_reduce -> inception_4a/3x3_reduce
I0403 19:53:39.245775  9807 net.cpp:141] Setting up inception_4a/3x3_reduce
I0403 19:53:39.245805  9807 net.cpp:148] Top shape: 24 96 14 14 (451584)
I0403 19:53:39.245833  9807 net.cpp:156] Memory required for data: 863429664
I0403 19:53:39.245860  9807 layer_factory.hpp:77] Creating layer inception_4a/relu_3x3_reduce
I0403 19:53:39.245894  9807 net.cpp:91] Creating Layer inception_4a/relu_3x3_reduce
I0403 19:53:39.245911  9807 net.cpp:425] inception_4a/relu_3x3_reduce <- inception_4a/3x3_reduce
I0403 19:53:39.245932  9807 net.cpp:386] inception_4a/relu_3x3_reduce -> inception_4a/3x3_reduce (in-place)
I0403 19:53:39.246119  9807 net.cpp:141] Setting up inception_4a/relu_3x3_reduce
I0403 19:53:39.246145  9807 net.cpp:148] Top shape: 24 96 14 14 (451584)
I0403 19:53:39.246161  9807 net.cpp:156] Memory required for data: 865236000
I0403 19:53:39.246181  9807 layer_factory.hpp:77] Creating layer inception_4a/3x3
I0403 19:53:39.246206  9807 net.cpp:91] Creating Layer inception_4a/3x3
I0403 19:53:39.246223  9807 net.cpp:425] inception_4a/3x3 <- inception_4a/3x3_reduce
I0403 19:53:39.246245  9807 net.cpp:399] inception_4a/3x3 -> inception_4a/3x3
I0403 19:53:39.248992  9807 net.cpp:141] Setting up inception_4a/3x3
I0403 19:53:39.249022  9807 net.cpp:148] Top shape: 24 208 14 14 (978432)
I0403 19:53:39.249037  9807 net.cpp:156] Memory required for data: 869149728
I0403 19:53:39.249056  9807 layer_factory.hpp:77] Creating layer inception_4a/relu_3x3
I0403 19:53:39.249076  9807 net.cpp:91] Creating Layer inception_4a/relu_3x3
I0403 19:53:39.249094  9807 net.cpp:425] inception_4a/relu_3x3 <- inception_4a/3x3
I0403 19:53:39.249110  9807 net.cpp:386] inception_4a/relu_3x3 -> inception_4a/3x3 (in-place)
I0403 19:53:39.249398  9807 net.cpp:141] Setting up inception_4a/relu_3x3
I0403 19:53:39.249425  9807 net.cpp:148] Top shape: 24 208 14 14 (978432)
I0403 19:53:39.249440  9807 net.cpp:156] Memory required for data: 873063456
I0403 19:53:39.249454  9807 layer_factory.hpp:77] Creating layer inception_4a/5x5_reduce
I0403 19:53:39.249476  9807 net.cpp:91] Creating Layer inception_4a/5x5_reduce
I0403 19:53:39.249500  9807 net.cpp:425] inception_4a/5x5_reduce <- pool3/3x3_s2_pool3/3x3_s2_0_split_2
I0403 19:53:39.249518  9807 net.cpp:399] inception_4a/5x5_reduce -> inception_4a/5x5_reduce
I0403 19:53:39.250562  9807 net.cpp:141] Setting up inception_4a/5x5_reduce
I0403 19:53:39.250597  9807 net.cpp:148] Top shape: 24 16 14 14 (75264)
I0403 19:53:39.250619  9807 net.cpp:156] Memory required for data: 873364512
I0403 19:53:39.250648  9807 layer_factory.hpp:77] Creating layer inception_4a/relu_5x5_reduce
I0403 19:53:39.250675  9807 net.cpp:91] Creating Layer inception_4a/relu_5x5_reduce
I0403 19:53:39.250696  9807 net.cpp:425] inception_4a/relu_5x5_reduce <- inception_4a/5x5_reduce
I0403 19:53:39.250720  9807 net.cpp:386] inception_4a/relu_5x5_reduce -> inception_4a/5x5_reduce (in-place)
I0403 19:53:39.250901  9807 net.cpp:141] Setting up inception_4a/relu_5x5_reduce
I0403 19:53:39.250927  9807 net.cpp:148] Top shape: 24 16 14 14 (75264)
I0403 19:53:39.250941  9807 net.cpp:156] Memory required for data: 873665568
I0403 19:53:39.250957  9807 layer_factory.hpp:77] Creating layer inception_4a/5x5
I0403 19:53:39.250979  9807 net.cpp:91] Creating Layer inception_4a/5x5
I0403 19:53:39.250996  9807 net.cpp:425] inception_4a/5x5 <- inception_4a/5x5_reduce
I0403 19:53:39.251016  9807 net.cpp:399] inception_4a/5x5 -> inception_4a/5x5
I0403 19:53:39.252125  9807 net.cpp:141] Setting up inception_4a/5x5
I0403 19:53:39.252153  9807 net.cpp:148] Top shape: 24 48 14 14 (225792)
I0403 19:53:39.252169  9807 net.cpp:156] Memory required for data: 874568736
I0403 19:53:39.252193  9807 layer_factory.hpp:77] Creating layer inception_4a/relu_5x5
I0403 19:53:39.252213  9807 net.cpp:91] Creating Layer inception_4a/relu_5x5
I0403 19:53:39.252228  9807 net.cpp:425] inception_4a/relu_5x5 <- inception_4a/5x5
I0403 19:53:39.252249  9807 net.cpp:386] inception_4a/relu_5x5 -> inception_4a/5x5 (in-place)
I0403 19:53:39.252429  9807 net.cpp:141] Setting up inception_4a/relu_5x5
I0403 19:53:39.252454  9807 net.cpp:148] Top shape: 24 48 14 14 (225792)
I0403 19:53:39.252468  9807 net.cpp:156] Memory required for data: 875471904
I0403 19:53:39.252485  9807 layer_factory.hpp:77] Creating layer inception_4a/pool
I0403 19:53:39.252504  9807 net.cpp:91] Creating Layer inception_4a/pool
I0403 19:53:39.252521  9807 net.cpp:425] inception_4a/pool <- pool3/3x3_s2_pool3/3x3_s2_0_split_3
I0403 19:53:39.252538  9807 net.cpp:399] inception_4a/pool -> inception_4a/pool
I0403 19:53:39.252602  9807 net.cpp:141] Setting up inception_4a/pool
I0403 19:53:39.252626  9807 net.cpp:148] Top shape: 24 480 14 14 (2257920)
I0403 19:53:39.252641  9807 net.cpp:156] Memory required for data: 884503584
I0403 19:53:39.252656  9807 layer_factory.hpp:77] Creating layer inception_4a/pool_proj
I0403 19:53:39.252678  9807 net.cpp:91] Creating Layer inception_4a/pool_proj
I0403 19:53:39.252696  9807 net.cpp:425] inception_4a/pool_proj <- inception_4a/pool
I0403 19:53:39.252717  9807 net.cpp:399] inception_4a/pool_proj -> inception_4a/pool_proj
I0403 19:53:39.253914  9807 net.cpp:141] Setting up inception_4a/pool_proj
I0403 19:53:39.253945  9807 net.cpp:148] Top shape: 24 64 14 14 (301056)
I0403 19:53:39.253976  9807 net.cpp:156] Memory required for data: 885707808
I0403 19:53:39.253998  9807 layer_factory.hpp:77] Creating layer inception_4a/relu_pool_proj
I0403 19:53:39.254019  9807 net.cpp:91] Creating Layer inception_4a/relu_pool_proj
I0403 19:53:39.254034  9807 net.cpp:425] inception_4a/relu_pool_proj <- inception_4a/pool_proj
I0403 19:53:39.254051  9807 net.cpp:386] inception_4a/relu_pool_proj -> inception_4a/pool_proj (in-place)
I0403 19:53:39.254353  9807 net.cpp:141] Setting up inception_4a/relu_pool_proj
I0403 19:53:39.254379  9807 net.cpp:148] Top shape: 24 64 14 14 (301056)
I0403 19:53:39.254395  9807 net.cpp:156] Memory required for data: 886912032
I0403 19:53:39.254410  9807 layer_factory.hpp:77] Creating layer inception_4a/output
I0403 19:53:39.254428  9807 net.cpp:91] Creating Layer inception_4a/output
I0403 19:53:39.254444  9807 net.cpp:425] inception_4a/output <- inception_4a/1x1
I0403 19:53:39.254462  9807 net.cpp:425] inception_4a/output <- inception_4a/3x3
I0403 19:53:39.254477  9807 net.cpp:425] inception_4a/output <- inception_4a/5x5
I0403 19:53:39.254492  9807 net.cpp:425] inception_4a/output <- inception_4a/pool_proj
I0403 19:53:39.254513  9807 net.cpp:399] inception_4a/output -> inception_4a/output
I0403 19:53:39.254556  9807 net.cpp:141] Setting up inception_4a/output
I0403 19:53:39.254582  9807 net.cpp:148] Top shape: 24 512 14 14 (2408448)
I0403 19:53:39.254597  9807 net.cpp:156] Memory required for data: 896545824
I0403 19:53:39.254612  9807 layer_factory.hpp:77] Creating layer inception_4a/output_inception_4a/output_0_split
I0403 19:53:39.254631  9807 net.cpp:91] Creating Layer inception_4a/output_inception_4a/output_0_split
I0403 19:53:39.254647  9807 net.cpp:425] inception_4a/output_inception_4a/output_0_split <- inception_4a/output
I0403 19:53:39.254667  9807 net.cpp:399] inception_4a/output_inception_4a/output_0_split -> inception_4a/output_inception_4a/output_0_split_0
I0403 19:53:39.254688  9807 net.cpp:399] inception_4a/output_inception_4a/output_0_split -> inception_4a/output_inception_4a/output_0_split_1
I0403 19:53:39.254708  9807 net.cpp:399] inception_4a/output_inception_4a/output_0_split -> inception_4a/output_inception_4a/output_0_split_2
I0403 19:53:39.254727  9807 net.cpp:399] inception_4a/output_inception_4a/output_0_split -> inception_4a/output_inception_4a/output_0_split_3
I0403 19:53:39.254747  9807 net.cpp:399] inception_4a/output_inception_4a/output_0_split -> inception_4a/output_inception_4a/output_0_split_4
I0403 19:53:39.254842  9807 net.cpp:141] Setting up inception_4a/output_inception_4a/output_0_split
I0403 19:53:39.254864  9807 net.cpp:148] Top shape: 24 512 14 14 (2408448)
I0403 19:53:39.254884  9807 net.cpp:148] Top shape: 24 512 14 14 (2408448)
I0403 19:53:39.254899  9807 net.cpp:148] Top shape: 24 512 14 14 (2408448)
I0403 19:53:39.254915  9807 net.cpp:148] Top shape: 24 512 14 14 (2408448)
I0403 19:53:39.254930  9807 net.cpp:148] Top shape: 24 512 14 14 (2408448)
I0403 19:53:39.254945  9807 net.cpp:156] Memory required for data: 944714784
I0403 19:53:39.254959  9807 layer_factory.hpp:77] Creating layer loss1/ave_pool
I0403 19:53:39.254977  9807 net.cpp:91] Creating Layer loss1/ave_pool
I0403 19:53:39.254993  9807 net.cpp:425] loss1/ave_pool <- inception_4a/output_inception_4a/output_0_split_0
I0403 19:53:39.255014  9807 net.cpp:399] loss1/ave_pool -> loss1/ave_pool
I0403 19:53:39.255233  9807 net.cpp:141] Setting up loss1/ave_pool
I0403 19:53:39.255259  9807 net.cpp:148] Top shape: 24 512 4 4 (196608)
I0403 19:53:39.255273  9807 net.cpp:156] Memory required for data: 945501216
I0403 19:53:39.255288  9807 layer_factory.hpp:77] Creating layer loss1/conv
I0403 19:53:39.255311  9807 net.cpp:91] Creating Layer loss1/conv
I0403 19:53:39.255328  9807 net.cpp:425] loss1/conv <- loss1/ave_pool
I0403 19:53:39.255349  9807 net.cpp:399] loss1/conv -> loss1/conv
I0403 19:53:39.256798  9807 net.cpp:141] Setting up loss1/conv
I0403 19:53:39.256829  9807 net.cpp:148] Top shape: 24 128 4 4 (49152)
I0403 19:53:39.256861  9807 net.cpp:156] Memory required for data: 945697824
I0403 19:53:39.256882  9807 layer_factory.hpp:77] Creating layer loss1/relu_conv
I0403 19:53:39.256903  9807 net.cpp:91] Creating Layer loss1/relu_conv
I0403 19:53:39.256919  9807 net.cpp:425] loss1/relu_conv <- loss1/conv
I0403 19:53:39.256937  9807 net.cpp:386] loss1/relu_conv -> loss1/conv (in-place)
I0403 19:53:39.257233  9807 net.cpp:141] Setting up loss1/relu_conv
I0403 19:53:39.257261  9807 net.cpp:148] Top shape: 24 128 4 4 (49152)
I0403 19:53:39.257275  9807 net.cpp:156] Memory required for data: 945894432
I0403 19:53:39.257292  9807 layer_factory.hpp:77] Creating layer loss1/fc
I0403 19:53:39.257318  9807 net.cpp:91] Creating Layer loss1/fc
I0403 19:53:39.257336  9807 net.cpp:425] loss1/fc <- loss1/conv
I0403 19:53:39.257357  9807 net.cpp:399] loss1/fc -> loss1/fc
I0403 19:53:39.274857  9807 net.cpp:141] Setting up loss1/fc
I0403 19:53:39.274890  9807 net.cpp:148] Top shape: 24 1024 (24576)
I0403 19:53:39.274904  9807 net.cpp:156] Memory required for data: 945992736
I0403 19:53:39.274922  9807 layer_factory.hpp:77] Creating layer loss1/relu_fc
I0403 19:53:39.274940  9807 net.cpp:91] Creating Layer loss1/relu_fc
I0403 19:53:39.274953  9807 net.cpp:425] loss1/relu_fc <- loss1/fc
I0403 19:53:39.274972  9807 net.cpp:386] loss1/relu_fc -> loss1/fc (in-place)
I0403 19:53:39.275152  9807 net.cpp:141] Setting up loss1/relu_fc
I0403 19:53:39.275183  9807 net.cpp:148] Top shape: 24 1024 (24576)
I0403 19:53:39.275199  9807 net.cpp:156] Memory required for data: 946091040
I0403 19:53:39.275213  9807 layer_factory.hpp:77] Creating layer loss1/drop_fc
I0403 19:53:39.275239  9807 net.cpp:91] Creating Layer loss1/drop_fc
I0403 19:53:39.275257  9807 net.cpp:425] loss1/drop_fc <- loss1/fc
I0403 19:53:39.275275  9807 net.cpp:386] loss1/drop_fc -> loss1/fc (in-place)
I0403 19:53:39.275327  9807 net.cpp:141] Setting up loss1/drop_fc
I0403 19:53:39.275351  9807 net.cpp:148] Top shape: 24 1024 (24576)
I0403 19:53:39.275363  9807 net.cpp:156] Memory required for data: 946189344
I0403 19:53:39.275378  9807 layer_factory.hpp:77] Creating layer loss1/classifier_plantvillage
I0403 19:53:39.275398  9807 net.cpp:91] Creating Layer loss1/classifier_plantvillage
I0403 19:53:39.275411  9807 net.cpp:425] loss1/classifier_plantvillage <- loss1/fc
I0403 19:53:39.275432  9807 net.cpp:399] loss1/classifier_plantvillage -> loss1/classifier_plantvillage
I0403 19:53:39.276312  9807 net.cpp:141] Setting up loss1/classifier_plantvillage
I0403 19:53:39.276341  9807 net.cpp:148] Top shape: 24 38 (912)
I0403 19:53:39.276356  9807 net.cpp:156] Memory required for data: 946192992
I0403 19:53:39.276374  9807 layer_factory.hpp:77] Creating layer loss1/classifier_plantvillage_loss1/classifier_plantvillage_0_split
I0403 19:53:39.276394  9807 net.cpp:91] Creating Layer loss1/classifier_plantvillage_loss1/classifier_plantvillage_0_split
I0403 19:53:39.276410  9807 net.cpp:425] loss1/classifier_plantvillage_loss1/classifier_plantvillage_0_split <- loss1/classifier_plantvillage
I0403 19:53:39.276427  9807 net.cpp:399] loss1/classifier_plantvillage_loss1/classifier_plantvillage_0_split -> loss1/classifier_plantvillage_loss1/classifier_plantvillage_0_split_0
I0403 19:53:39.276446  9807 net.cpp:399] loss1/classifier_plantvillage_loss1/classifier_plantvillage_0_split -> loss1/classifier_plantvillage_loss1/classifier_plantvillage_0_split_1
I0403 19:53:39.276464  9807 net.cpp:399] loss1/classifier_plantvillage_loss1/classifier_plantvillage_0_split -> loss1/classifier_plantvillage_loss1/classifier_plantvillage_0_split_2
I0403 19:53:39.276530  9807 net.cpp:141] Setting up loss1/classifier_plantvillage_loss1/classifier_plantvillage_0_split
I0403 19:53:39.276552  9807 net.cpp:148] Top shape: 24 38 (912)
I0403 19:53:39.276567  9807 net.cpp:148] Top shape: 24 38 (912)
I0403 19:53:39.276582  9807 net.cpp:148] Top shape: 24 38 (912)
I0403 19:53:39.276595  9807 net.cpp:156] Memory required for data: 946203936
I0403 19:53:39.276610  9807 layer_factory.hpp:77] Creating layer inception_4b/1x1
I0403 19:53:39.276633  9807 net.cpp:91] Creating Layer inception_4b/1x1
I0403 19:53:39.276664  9807 net.cpp:425] inception_4b/1x1 <- inception_4a/output_inception_4a/output_0_split_1
I0403 19:53:39.276684  9807 net.cpp:399] inception_4b/1x1 -> inception_4b/1x1
I0403 19:53:39.278282  9807 net.cpp:141] Setting up inception_4b/1x1
I0403 19:53:39.278309  9807 net.cpp:148] Top shape: 24 160 14 14 (752640)
I0403 19:53:39.278324  9807 net.cpp:156] Memory required for data: 949214496
I0403 19:53:39.278342  9807 layer_factory.hpp:77] Creating layer inception_4b/relu_1x1
I0403 19:53:39.278362  9807 net.cpp:91] Creating Layer inception_4b/relu_1x1
I0403 19:53:39.278378  9807 net.cpp:425] inception_4b/relu_1x1 <- inception_4b/1x1
I0403 19:53:39.278393  9807 net.cpp:386] inception_4b/relu_1x1 -> inception_4b/1x1 (in-place)
I0403 19:53:39.278568  9807 net.cpp:141] Setting up inception_4b/relu_1x1
I0403 19:53:39.278590  9807 net.cpp:148] Top shape: 24 160 14 14 (752640)
I0403 19:53:39.278604  9807 net.cpp:156] Memory required for data: 952225056
I0403 19:53:39.278619  9807 layer_factory.hpp:77] Creating layer inception_4b/3x3_reduce
I0403 19:53:39.278640  9807 net.cpp:91] Creating Layer inception_4b/3x3_reduce
I0403 19:53:39.278656  9807 net.cpp:425] inception_4b/3x3_reduce <- inception_4a/output_inception_4a/output_0_split_2
I0403 19:53:39.278677  9807 net.cpp:399] inception_4b/3x3_reduce -> inception_4b/3x3_reduce
I0403 19:53:39.279985  9807 net.cpp:141] Setting up inception_4b/3x3_reduce
I0403 19:53:39.280012  9807 net.cpp:148] Top shape: 24 112 14 14 (526848)
I0403 19:53:39.280030  9807 net.cpp:156] Memory required for data: 954332448
I0403 19:53:39.280047  9807 layer_factory.hpp:77] Creating layer inception_4b/relu_3x3_reduce
I0403 19:53:39.280064  9807 net.cpp:91] Creating Layer inception_4b/relu_3x3_reduce
I0403 19:53:39.280079  9807 net.cpp:425] inception_4b/relu_3x3_reduce <- inception_4b/3x3_reduce
I0403 19:53:39.280098  9807 net.cpp:386] inception_4b/relu_3x3_reduce -> inception_4b/3x3_reduce (in-place)
I0403 19:53:39.280376  9807 net.cpp:141] Setting up inception_4b/relu_3x3_reduce
I0403 19:53:39.280401  9807 net.cpp:148] Top shape: 24 112 14 14 (526848)
I0403 19:53:39.280416  9807 net.cpp:156] Memory required for data: 956439840
I0403 19:53:39.280431  9807 layer_factory.hpp:77] Creating layer inception_4b/3x3
I0403 19:53:39.280452  9807 net.cpp:91] Creating Layer inception_4b/3x3
I0403 19:53:39.280468  9807 net.cpp:425] inception_4b/3x3 <- inception_4b/3x3_reduce
I0403 19:53:39.280489  9807 net.cpp:399] inception_4b/3x3 -> inception_4b/3x3
I0403 19:53:39.283409  9807 net.cpp:141] Setting up inception_4b/3x3
I0403 19:53:39.283438  9807 net.cpp:148] Top shape: 24 224 14 14 (1053696)
I0403 19:53:39.283454  9807 net.cpp:156] Memory required for data: 960654624
I0403 19:53:39.283471  9807 layer_factory.hpp:77] Creating layer inception_4b/relu_3x3
I0403 19:53:39.283491  9807 net.cpp:91] Creating Layer inception_4b/relu_3x3
I0403 19:53:39.283507  9807 net.cpp:425] inception_4b/relu_3x3 <- inception_4b/3x3
I0403 19:53:39.283525  9807 net.cpp:386] inception_4b/relu_3x3 -> inception_4b/3x3 (in-place)
I0403 19:53:39.283699  9807 net.cpp:141] Setting up inception_4b/relu_3x3
I0403 19:53:39.283725  9807 net.cpp:148] Top shape: 24 224 14 14 (1053696)
I0403 19:53:39.283738  9807 net.cpp:156] Memory required for data: 964869408
I0403 19:53:39.283752  9807 layer_factory.hpp:77] Creating layer inception_4b/5x5_reduce
I0403 19:53:39.283771  9807 net.cpp:91] Creating Layer inception_4b/5x5_reduce
I0403 19:53:39.283787  9807 net.cpp:425] inception_4b/5x5_reduce <- inception_4a/output_inception_4a/output_0_split_3
I0403 19:53:39.283808  9807 net.cpp:399] inception_4b/5x5_reduce -> inception_4b/5x5_reduce
I0403 19:53:39.284868  9807 net.cpp:141] Setting up inception_4b/5x5_reduce
I0403 19:53:39.284896  9807 net.cpp:148] Top shape: 24 24 14 14 (112896)
I0403 19:53:39.284911  9807 net.cpp:156] Memory required for data: 965320992
I0403 19:53:39.284929  9807 layer_factory.hpp:77] Creating layer inception_4b/relu_5x5_reduce
I0403 19:53:39.284945  9807 net.cpp:91] Creating Layer inception_4b/relu_5x5_reduce
I0403 19:53:39.284975  9807 net.cpp:425] inception_4b/relu_5x5_reduce <- inception_4b/5x5_reduce
I0403 19:53:39.284992  9807 net.cpp:386] inception_4b/relu_5x5_reduce -> inception_4b/5x5_reduce (in-place)
I0403 19:53:39.285169  9807 net.cpp:141] Setting up inception_4b/relu_5x5_reduce
I0403 19:53:39.285199  9807 net.cpp:148] Top shape: 24 24 14 14 (112896)
I0403 19:53:39.285214  9807 net.cpp:156] Memory required for data: 965772576
I0403 19:53:39.285228  9807 layer_factory.hpp:77] Creating layer inception_4b/5x5
I0403 19:53:39.285249  9807 net.cpp:91] Creating Layer inception_4b/5x5
I0403 19:53:39.285266  9807 net.cpp:425] inception_4b/5x5 <- inception_4b/5x5_reduce
I0403 19:53:39.285287  9807 net.cpp:399] inception_4b/5x5 -> inception_4b/5x5
I0403 19:53:39.286479  9807 net.cpp:141] Setting up inception_4b/5x5
I0403 19:53:39.286507  9807 net.cpp:148] Top shape: 24 64 14 14 (301056)
I0403 19:53:39.286522  9807 net.cpp:156] Memory required for data: 966976800
I0403 19:53:39.286541  9807 layer_factory.hpp:77] Creating layer inception_4b/relu_5x5
I0403 19:53:39.286561  9807 net.cpp:91] Creating Layer inception_4b/relu_5x5
I0403 19:53:39.286576  9807 net.cpp:425] inception_4b/relu_5x5 <- inception_4b/5x5
I0403 19:53:39.286592  9807 net.cpp:386] inception_4b/relu_5x5 -> inception_4b/5x5 (in-place)
I0403 19:53:39.286870  9807 net.cpp:141] Setting up inception_4b/relu_5x5
I0403 19:53:39.286895  9807 net.cpp:148] Top shape: 24 64 14 14 (301056)
I0403 19:53:39.286908  9807 net.cpp:156] Memory required for data: 968181024
I0403 19:53:39.286923  9807 layer_factory.hpp:77] Creating layer inception_4b/pool
I0403 19:53:39.286944  9807 net.cpp:91] Creating Layer inception_4b/pool
I0403 19:53:39.286960  9807 net.cpp:425] inception_4b/pool <- inception_4a/output_inception_4a/output_0_split_4
I0403 19:53:39.286978  9807 net.cpp:399] inception_4b/pool -> inception_4b/pool
I0403 19:53:39.287041  9807 net.cpp:141] Setting up inception_4b/pool
I0403 19:53:39.287065  9807 net.cpp:148] Top shape: 24 512 14 14 (2408448)
I0403 19:53:39.287078  9807 net.cpp:156] Memory required for data: 977814816
I0403 19:53:39.287092  9807 layer_factory.hpp:77] Creating layer inception_4b/pool_proj
I0403 19:53:39.287113  9807 net.cpp:91] Creating Layer inception_4b/pool_proj
I0403 19:53:39.287129  9807 net.cpp:425] inception_4b/pool_proj <- inception_4b/pool
I0403 19:53:39.287152  9807 net.cpp:399] inception_4b/pool_proj -> inception_4b/pool_proj
I0403 19:53:39.288327  9807 net.cpp:141] Setting up inception_4b/pool_proj
I0403 19:53:39.288357  9807 net.cpp:148] Top shape: 24 64 14 14 (301056)
I0403 19:53:39.288374  9807 net.cpp:156] Memory required for data: 979019040
I0403 19:53:39.288393  9807 layer_factory.hpp:77] Creating layer inception_4b/relu_pool_proj
I0403 19:53:39.288410  9807 net.cpp:91] Creating Layer inception_4b/relu_pool_proj
I0403 19:53:39.288424  9807 net.cpp:425] inception_4b/relu_pool_proj <- inception_4b/pool_proj
I0403 19:53:39.288444  9807 net.cpp:386] inception_4b/relu_pool_proj -> inception_4b/pool_proj (in-place)
I0403 19:53:39.288617  9807 net.cpp:141] Setting up inception_4b/relu_pool_proj
I0403 19:53:39.288640  9807 net.cpp:148] Top shape: 24 64 14 14 (301056)
I0403 19:53:39.288655  9807 net.cpp:156] Memory required for data: 980223264
I0403 19:53:39.288668  9807 layer_factory.hpp:77] Creating layer inception_4b/output
I0403 19:53:39.288686  9807 net.cpp:91] Creating Layer inception_4b/output
I0403 19:53:39.288699  9807 net.cpp:425] inception_4b/output <- inception_4b/1x1
I0403 19:53:39.288715  9807 net.cpp:425] inception_4b/output <- inception_4b/3x3
I0403 19:53:39.288730  9807 net.cpp:425] inception_4b/output <- inception_4b/5x5
I0403 19:53:39.288744  9807 net.cpp:425] inception_4b/output <- inception_4b/pool_proj
I0403 19:53:39.288763  9807 net.cpp:399] inception_4b/output -> inception_4b/output
I0403 19:53:39.288806  9807 net.cpp:141] Setting up inception_4b/output
I0403 19:53:39.288831  9807 net.cpp:148] Top shape: 24 512 14 14 (2408448)
I0403 19:53:39.288846  9807 net.cpp:156] Memory required for data: 989857056
I0403 19:53:39.288872  9807 layer_factory.hpp:77] Creating layer inception_4b/output_inception_4b/output_0_split
I0403 19:53:39.288890  9807 net.cpp:91] Creating Layer inception_4b/output_inception_4b/output_0_split
I0403 19:53:39.288905  9807 net.cpp:425] inception_4b/output_inception_4b/output_0_split <- inception_4b/output
I0403 19:53:39.288923  9807 net.cpp:399] inception_4b/output_inception_4b/output_0_split -> inception_4b/output_inception_4b/output_0_split_0
I0403 19:53:39.288944  9807 net.cpp:399] inception_4b/output_inception_4b/output_0_split -> inception_4b/output_inception_4b/output_0_split_1
I0403 19:53:39.288964  9807 net.cpp:399] inception_4b/output_inception_4b/output_0_split -> inception_4b/output_inception_4b/output_0_split_2
I0403 19:53:39.288982  9807 net.cpp:399] inception_4b/output_inception_4b/output_0_split -> inception_4b/output_inception_4b/output_0_split_3
I0403 19:53:39.289065  9807 net.cpp:141] Setting up inception_4b/output_inception_4b/output_0_split
I0403 19:53:39.289088  9807 net.cpp:148] Top shape: 24 512 14 14 (2408448)
I0403 19:53:39.289103  9807 net.cpp:148] Top shape: 24 512 14 14 (2408448)
I0403 19:53:39.289118  9807 net.cpp:148] Top shape: 24 512 14 14 (2408448)
I0403 19:53:39.289132  9807 net.cpp:148] Top shape: 24 512 14 14 (2408448)
I0403 19:53:39.289146  9807 net.cpp:156] Memory required for data: 1028392224
I0403 19:53:39.289161  9807 layer_factory.hpp:77] Creating layer inception_4c/1x1
I0403 19:53:39.289201  9807 net.cpp:91] Creating Layer inception_4c/1x1
I0403 19:53:39.289219  9807 net.cpp:425] inception_4c/1x1 <- inception_4b/output_inception_4b/output_0_split_0
I0403 19:53:39.289248  9807 net.cpp:399] inception_4c/1x1 -> inception_4c/1x1
I0403 19:53:39.290750  9807 net.cpp:141] Setting up inception_4c/1x1
I0403 19:53:39.290779  9807 net.cpp:148] Top shape: 24 128 14 14 (602112)
I0403 19:53:39.290794  9807 net.cpp:156] Memory required for data: 1030800672
I0403 19:53:39.290812  9807 layer_factory.hpp:77] Creating layer inception_4c/relu_1x1
I0403 19:53:39.290830  9807 net.cpp:91] Creating Layer inception_4c/relu_1x1
I0403 19:53:39.290845  9807 net.cpp:425] inception_4c/relu_1x1 <- inception_4c/1x1
I0403 19:53:39.290865  9807 net.cpp:386] inception_4c/relu_1x1 -> inception_4c/1x1 (in-place)
I0403 19:53:39.291046  9807 net.cpp:141] Setting up inception_4c/relu_1x1
I0403 19:53:39.291071  9807 net.cpp:148] Top shape: 24 128 14 14 (602112)
I0403 19:53:39.291085  9807 net.cpp:156] Memory required for data: 1033209120
I0403 19:53:39.291100  9807 layer_factory.hpp:77] Creating layer inception_4c/3x3_reduce
I0403 19:53:39.291121  9807 net.cpp:91] Creating Layer inception_4c/3x3_reduce
I0403 19:53:39.291137  9807 net.cpp:425] inception_4c/3x3_reduce <- inception_4b/output_inception_4b/output_0_split_1
I0403 19:53:39.291160  9807 net.cpp:399] inception_4c/3x3_reduce -> inception_4c/3x3_reduce
I0403 19:53:39.293105  9807 net.cpp:141] Setting up inception_4c/3x3_reduce
I0403 19:53:39.293134  9807 net.cpp:148] Top shape: 24 128 14 14 (602112)
I0403 19:53:39.293154  9807 net.cpp:156] Memory required for data: 1035617568
I0403 19:53:39.293171  9807 layer_factory.hpp:77] Creating layer inception_4c/relu_3x3_reduce
I0403 19:53:39.293196  9807 net.cpp:91] Creating Layer inception_4c/relu_3x3_reduce
I0403 19:53:39.293212  9807 net.cpp:425] inception_4c/relu_3x3_reduce <- inception_4c/3x3_reduce
I0403 19:53:39.293231  9807 net.cpp:386] inception_4c/relu_3x3_reduce -> inception_4c/3x3_reduce (in-place)
I0403 19:53:39.293514  9807 net.cpp:141] Setting up inception_4c/relu_3x3_reduce
I0403 19:53:39.293542  9807 net.cpp:148] Top shape: 24 128 14 14 (602112)
I0403 19:53:39.293557  9807 net.cpp:156] Memory required for data: 1038026016
I0403 19:53:39.293572  9807 layer_factory.hpp:77] Creating layer inception_4c/3x3
I0403 19:53:39.293592  9807 net.cpp:91] Creating Layer inception_4c/3x3
I0403 19:53:39.293608  9807 net.cpp:425] inception_4c/3x3 <- inception_4c/3x3_reduce
I0403 19:53:39.293630  9807 net.cpp:399] inception_4c/3x3 -> inception_4c/3x3
I0403 19:53:39.297235  9807 net.cpp:141] Setting up inception_4c/3x3
I0403 19:53:39.297278  9807 net.cpp:148] Top shape: 24 256 14 14 (1204224)
I0403 19:53:39.297296  9807 net.cpp:156] Memory required for data: 1042842912
I0403 19:53:39.297327  9807 layer_factory.hpp:77] Creating layer inception_4c/relu_3x3
I0403 19:53:39.297348  9807 net.cpp:91] Creating Layer inception_4c/relu_3x3
I0403 19:53:39.297363  9807 net.cpp:425] inception_4c/relu_3x3 <- inception_4c/3x3
I0403 19:53:39.297382  9807 net.cpp:386] inception_4c/relu_3x3 -> inception_4c/3x3 (in-place)
I0403 19:53:39.297561  9807 net.cpp:141] Setting up inception_4c/relu_3x3
I0403 19:53:39.297587  9807 net.cpp:148] Top shape: 24 256 14 14 (1204224)
I0403 19:53:39.297602  9807 net.cpp:156] Memory required for data: 1047659808
I0403 19:53:39.297618  9807 layer_factory.hpp:77] Creating layer inception_4c/5x5_reduce
I0403 19:53:39.297641  9807 net.cpp:91] Creating Layer inception_4c/5x5_reduce
I0403 19:53:39.297657  9807 net.cpp:425] inception_4c/5x5_reduce <- inception_4b/output_inception_4b/output_0_split_2
I0403 19:53:39.297677  9807 net.cpp:399] inception_4c/5x5_reduce -> inception_4c/5x5_reduce
I0403 19:53:39.298765  9807 net.cpp:141] Setting up inception_4c/5x5_reduce
I0403 19:53:39.298795  9807 net.cpp:148] Top shape: 24 24 14 14 (112896)
I0403 19:53:39.298811  9807 net.cpp:156] Memory required for data: 1048111392
I0403 19:53:39.298830  9807 layer_factory.hpp:77] Creating layer inception_4c/relu_5x5_reduce
I0403 19:53:39.298847  9807 net.cpp:91] Creating Layer inception_4c/relu_5x5_reduce
I0403 19:53:39.298862  9807 net.cpp:425] inception_4c/relu_5x5_reduce <- inception_4c/5x5_reduce
I0403 19:53:39.298879  9807 net.cpp:386] inception_4c/relu_5x5_reduce -> inception_4c/5x5_reduce (in-place)
I0403 19:53:39.299070  9807 net.cpp:141] Setting up inception_4c/relu_5x5_reduce
I0403 19:53:39.299094  9807 net.cpp:148] Top shape: 24 24 14 14 (112896)
I0403 19:53:39.299109  9807 net.cpp:156] Memory required for data: 1048562976
I0403 19:53:39.299124  9807 layer_factory.hpp:77] Creating layer inception_4c/5x5
I0403 19:53:39.299145  9807 net.cpp:91] Creating Layer inception_4c/5x5
I0403 19:53:39.299163  9807 net.cpp:425] inception_4c/5x5 <- inception_4c/5x5_reduce
I0403 19:53:39.299190  9807 net.cpp:399] inception_4c/5x5 -> inception_4c/5x5
I0403 19:53:39.300442  9807 net.cpp:141] Setting up inception_4c/5x5
I0403 19:53:39.300469  9807 net.cpp:148] Top shape: 24 64 14 14 (301056)
I0403 19:53:39.300485  9807 net.cpp:156] Memory required for data: 1049767200
I0403 19:53:39.300506  9807 layer_factory.hpp:77] Creating layer inception_4c/relu_5x5
I0403 19:53:39.300524  9807 net.cpp:91] Creating Layer inception_4c/relu_5x5
I0403 19:53:39.300539  9807 net.cpp:425] inception_4c/relu_5x5 <- inception_4c/5x5
I0403 19:53:39.300559  9807 net.cpp:386] inception_4c/relu_5x5 -> inception_4c/5x5 (in-place)
I0403 19:53:39.300853  9807 net.cpp:141] Setting up inception_4c/relu_5x5
I0403 19:53:39.300879  9807 net.cpp:148] Top shape: 24 64 14 14 (301056)
I0403 19:53:39.300894  9807 net.cpp:156] Memory required for data: 1050971424
I0403 19:53:39.300909  9807 layer_factory.hpp:77] Creating layer inception_4c/pool
I0403 19:53:39.300926  9807 net.cpp:91] Creating Layer inception_4c/pool
I0403 19:53:39.300942  9807 net.cpp:425] inception_4c/pool <- inception_4b/output_inception_4b/output_0_split_3
I0403 19:53:39.300962  9807 net.cpp:399] inception_4c/pool -> inception_4c/pool
I0403 19:53:39.301028  9807 net.cpp:141] Setting up inception_4c/pool
I0403 19:53:39.301053  9807 net.cpp:148] Top shape: 24 512 14 14 (2408448)
I0403 19:53:39.301066  9807 net.cpp:156] Memory required for data: 1060605216
I0403 19:53:39.301080  9807 layer_factory.hpp:77] Creating layer inception_4c/pool_proj
I0403 19:53:39.301103  9807 net.cpp:91] Creating Layer inception_4c/pool_proj
I0403 19:53:39.301120  9807 net.cpp:425] inception_4c/pool_proj <- inception_4c/pool
I0403 19:53:39.301139  9807 net.cpp:399] inception_4c/pool_proj -> inception_4c/pool_proj
I0403 19:53:39.302379  9807 net.cpp:141] Setting up inception_4c/pool_proj
I0403 19:53:39.302409  9807 net.cpp:148] Top shape: 24 64 14 14 (301056)
I0403 19:53:39.302439  9807 net.cpp:156] Memory required for data: 1061809440
I0403 19:53:39.302459  9807 layer_factory.hpp:77] Creating layer inception_4c/relu_pool_proj
I0403 19:53:39.302475  9807 net.cpp:91] Creating Layer inception_4c/relu_pool_proj
I0403 19:53:39.302491  9807 net.cpp:425] inception_4c/relu_pool_proj <- inception_4c/pool_proj
I0403 19:53:39.302525  9807 net.cpp:386] inception_4c/relu_pool_proj -> inception_4c/pool_proj (in-place)
I0403 19:53:39.302718  9807 net.cpp:141] Setting up inception_4c/relu_pool_proj
I0403 19:53:39.302747  9807 net.cpp:148] Top shape: 24 64 14 14 (301056)
I0403 19:53:39.302762  9807 net.cpp:156] Memory required for data: 1063013664
I0403 19:53:39.302777  9807 layer_factory.hpp:77] Creating layer inception_4c/output
I0403 19:53:39.302793  9807 net.cpp:91] Creating Layer inception_4c/output
I0403 19:53:39.302810  9807 net.cpp:425] inception_4c/output <- inception_4c/1x1
I0403 19:53:39.302829  9807 net.cpp:425] inception_4c/output <- inception_4c/3x3
I0403 19:53:39.302845  9807 net.cpp:425] inception_4c/output <- inception_4c/5x5
I0403 19:53:39.302860  9807 net.cpp:425] inception_4c/output <- inception_4c/pool_proj
I0403 19:53:39.302878  9807 net.cpp:399] inception_4c/output -> inception_4c/output
I0403 19:53:39.302925  9807 net.cpp:141] Setting up inception_4c/output
I0403 19:53:39.302952  9807 net.cpp:148] Top shape: 24 512 14 14 (2408448)
I0403 19:53:39.302968  9807 net.cpp:156] Memory required for data: 1072647456
I0403 19:53:39.302983  9807 layer_factory.hpp:77] Creating layer inception_4c/output_inception_4c/output_0_split
I0403 19:53:39.303000  9807 net.cpp:91] Creating Layer inception_4c/output_inception_4c/output_0_split
I0403 19:53:39.303015  9807 net.cpp:425] inception_4c/output_inception_4c/output_0_split <- inception_4c/output
I0403 19:53:39.303033  9807 net.cpp:399] inception_4c/output_inception_4c/output_0_split -> inception_4c/output_inception_4c/output_0_split_0
I0403 19:53:39.303052  9807 net.cpp:399] inception_4c/output_inception_4c/output_0_split -> inception_4c/output_inception_4c/output_0_split_1
I0403 19:53:39.303076  9807 net.cpp:399] inception_4c/output_inception_4c/output_0_split -> inception_4c/output_inception_4c/output_0_split_2
I0403 19:53:39.303097  9807 net.cpp:399] inception_4c/output_inception_4c/output_0_split -> inception_4c/output_inception_4c/output_0_split_3
I0403 19:53:39.303192  9807 net.cpp:141] Setting up inception_4c/output_inception_4c/output_0_split
I0403 19:53:39.303216  9807 net.cpp:148] Top shape: 24 512 14 14 (2408448)
I0403 19:53:39.303232  9807 net.cpp:148] Top shape: 24 512 14 14 (2408448)
I0403 19:53:39.303248  9807 net.cpp:148] Top shape: 24 512 14 14 (2408448)
I0403 19:53:39.303264  9807 net.cpp:148] Top shape: 24 512 14 14 (2408448)
I0403 19:53:39.303278  9807 net.cpp:156] Memory required for data: 1111182624
I0403 19:53:39.303293  9807 layer_factory.hpp:77] Creating layer inception_4d/1x1
I0403 19:53:39.303316  9807 net.cpp:91] Creating Layer inception_4d/1x1
I0403 19:53:39.303334  9807 net.cpp:425] inception_4d/1x1 <- inception_4c/output_inception_4c/output_0_split_0
I0403 19:53:39.303355  9807 net.cpp:399] inception_4d/1x1 -> inception_4d/1x1
I0403 19:53:39.304774  9807 net.cpp:141] Setting up inception_4d/1x1
I0403 19:53:39.304803  9807 net.cpp:148] Top shape: 24 112 14 14 (526848)
I0403 19:53:39.304818  9807 net.cpp:156] Memory required for data: 1113290016
I0403 19:53:39.304837  9807 layer_factory.hpp:77] Creating layer inception_4d/relu_1x1
I0403 19:53:39.304857  9807 net.cpp:91] Creating Layer inception_4d/relu_1x1
I0403 19:53:39.304874  9807 net.cpp:425] inception_4d/relu_1x1 <- inception_4d/1x1
I0403 19:53:39.304893  9807 net.cpp:386] inception_4d/relu_1x1 -> inception_4d/1x1 (in-place)
I0403 19:53:39.305081  9807 net.cpp:141] Setting up inception_4d/relu_1x1
I0403 19:53:39.305109  9807 net.cpp:148] Top shape: 24 112 14 14 (526848)
I0403 19:53:39.305124  9807 net.cpp:156] Memory required for data: 1115397408
I0403 19:53:39.305138  9807 layer_factory.hpp:77] Creating layer inception_4d/3x3_reduce
I0403 19:53:39.305176  9807 net.cpp:91] Creating Layer inception_4d/3x3_reduce
I0403 19:53:39.305200  9807 net.cpp:425] inception_4d/3x3_reduce <- inception_4c/output_inception_4c/output_0_split_1
I0403 19:53:39.305220  9807 net.cpp:399] inception_4d/3x3_reduce -> inception_4d/3x3_reduce
I0403 19:53:39.306777  9807 net.cpp:141] Setting up inception_4d/3x3_reduce
I0403 19:53:39.306805  9807 net.cpp:148] Top shape: 24 144 14 14 (677376)
I0403 19:53:39.306823  9807 net.cpp:156] Memory required for data: 1118106912
I0403 19:53:39.306841  9807 layer_factory.hpp:77] Creating layer inception_4d/relu_3x3_reduce
I0403 19:53:39.306862  9807 net.cpp:91] Creating Layer inception_4d/relu_3x3_reduce
I0403 19:53:39.306879  9807 net.cpp:425] inception_4d/relu_3x3_reduce <- inception_4d/3x3_reduce
I0403 19:53:39.306895  9807 net.cpp:386] inception_4d/relu_3x3_reduce -> inception_4d/3x3_reduce (in-place)
I0403 19:53:39.307204  9807 net.cpp:141] Setting up inception_4d/relu_3x3_reduce
I0403 19:53:39.307231  9807 net.cpp:148] Top shape: 24 144 14 14 (677376)
I0403 19:53:39.307246  9807 net.cpp:156] Memory required for data: 1120816416
I0403 19:53:39.307261  9807 layer_factory.hpp:77] Creating layer inception_4d/3x3
I0403 19:53:39.307283  9807 net.cpp:91] Creating Layer inception_4d/3x3
I0403 19:53:39.307301  9807 net.cpp:425] inception_4d/3x3 <- inception_4d/3x3_reduce
I0403 19:53:39.307322  9807 net.cpp:399] inception_4d/3x3 -> inception_4d/3x3
I0403 19:53:39.311601  9807 net.cpp:141] Setting up inception_4d/3x3
I0403 19:53:39.311631  9807 net.cpp:148] Top shape: 24 288 14 14 (1354752)
I0403 19:53:39.311646  9807 net.cpp:156] Memory required for data: 1126235424
I0403 19:53:39.311664  9807 layer_factory.hpp:77] Creating layer inception_4d/relu_3x3
I0403 19:53:39.311686  9807 net.cpp:91] Creating Layer inception_4d/relu_3x3
I0403 19:53:39.311702  9807 net.cpp:425] inception_4d/relu_3x3 <- inception_4d/3x3
I0403 19:53:39.311719  9807 net.cpp:386] inception_4d/relu_3x3 -> inception_4d/3x3 (in-place)
I0403 19:53:39.311902  9807 net.cpp:141] Setting up inception_4d/relu_3x3
I0403 19:53:39.311928  9807 net.cpp:148] Top shape: 24 288 14 14 (1354752)
I0403 19:53:39.311945  9807 net.cpp:156] Memory required for data: 1131654432
I0403 19:53:39.311960  9807 layer_factory.hpp:77] Creating layer inception_4d/5x5_reduce
I0403 19:53:39.311982  9807 net.cpp:91] Creating Layer inception_4d/5x5_reduce
I0403 19:53:39.312000  9807 net.cpp:425] inception_4d/5x5_reduce <- inception_4c/output_inception_4c/output_0_split_2
I0403 19:53:39.312018  9807 net.cpp:399] inception_4d/5x5_reduce -> inception_4d/5x5_reduce
I0403 19:53:39.313163  9807 net.cpp:141] Setting up inception_4d/5x5_reduce
I0403 19:53:39.313196  9807 net.cpp:148] Top shape: 24 32 14 14 (150528)
I0403 19:53:39.313212  9807 net.cpp:156] Memory required for data: 1132256544
I0403 19:53:39.313230  9807 layer_factory.hpp:77] Creating layer inception_4d/relu_5x5_reduce
I0403 19:53:39.313251  9807 net.cpp:91] Creating Layer inception_4d/relu_5x5_reduce
I0403 19:53:39.313267  9807 net.cpp:425] inception_4d/relu_5x5_reduce <- inception_4d/5x5_reduce
I0403 19:53:39.313285  9807 net.cpp:386] inception_4d/relu_5x5_reduce -> inception_4d/5x5_reduce (in-place)
I0403 19:53:39.313469  9807 net.cpp:141] Setting up inception_4d/relu_5x5_reduce
I0403 19:53:39.313498  9807 net.cpp:148] Top shape: 24 32 14 14 (150528)
I0403 19:53:39.313511  9807 net.cpp:156] Memory required for data: 1132858656
I0403 19:53:39.313526  9807 layer_factory.hpp:77] Creating layer inception_4d/5x5
I0403 19:53:39.313549  9807 net.cpp:91] Creating Layer inception_4d/5x5
I0403 19:53:39.313565  9807 net.cpp:425] inception_4d/5x5 <- inception_4d/5x5_reduce
I0403 19:53:39.313585  9807 net.cpp:399] inception_4d/5x5 -> inception_4d/5x5
I0403 19:53:39.315064  9807 net.cpp:141] Setting up inception_4d/5x5
I0403 19:53:39.315094  9807 net.cpp:148] Top shape: 24 64 14 14 (301056)
I0403 19:53:39.315109  9807 net.cpp:156] Memory required for data: 1134062880
I0403 19:53:39.315127  9807 layer_factory.hpp:77] Creating layer inception_4d/relu_5x5
I0403 19:53:39.315160  9807 net.cpp:91] Creating Layer inception_4d/relu_5x5
I0403 19:53:39.315183  9807 net.cpp:425] inception_4d/relu_5x5 <- inception_4d/5x5
I0403 19:53:39.315206  9807 net.cpp:386] inception_4d/relu_5x5 -> inception_4d/5x5 (in-place)
I0403 19:53:39.315508  9807 net.cpp:141] Setting up inception_4d/relu_5x5
I0403 19:53:39.315534  9807 net.cpp:148] Top shape: 24 64 14 14 (301056)
I0403 19:53:39.315549  9807 net.cpp:156] Memory required for data: 1135267104
I0403 19:53:39.315563  9807 layer_factory.hpp:77] Creating layer inception_4d/pool
I0403 19:53:39.315582  9807 net.cpp:91] Creating Layer inception_4d/pool
I0403 19:53:39.315598  9807 net.cpp:425] inception_4d/pool <- inception_4c/output_inception_4c/output_0_split_3
I0403 19:53:39.315618  9807 net.cpp:399] inception_4d/pool -> inception_4d/pool
I0403 19:53:39.315683  9807 net.cpp:141] Setting up inception_4d/pool
I0403 19:53:39.315707  9807 net.cpp:148] Top shape: 24 512 14 14 (2408448)
I0403 19:53:39.315721  9807 net.cpp:156] Memory required for data: 1144900896
I0403 19:53:39.315735  9807 layer_factory.hpp:77] Creating layer inception_4d/pool_proj
I0403 19:53:39.315758  9807 net.cpp:91] Creating Layer inception_4d/pool_proj
I0403 19:53:39.315775  9807 net.cpp:425] inception_4d/pool_proj <- inception_4d/pool
I0403 19:53:39.315793  9807 net.cpp:399] inception_4d/pool_proj -> inception_4d/pool_proj
I0403 19:53:39.317564  9807 net.cpp:141] Setting up inception_4d/pool_proj
I0403 19:53:39.317594  9807 net.cpp:148] Top shape: 24 64 14 14 (301056)
I0403 19:53:39.317608  9807 net.cpp:156] Memory required for data: 1146105120
I0403 19:53:39.317627  9807 layer_factory.hpp:77] Creating layer inception_4d/relu_pool_proj
I0403 19:53:39.317646  9807 net.cpp:91] Creating Layer inception_4d/relu_pool_proj
I0403 19:53:39.317662  9807 net.cpp:425] inception_4d/relu_pool_proj <- inception_4d/pool_proj
I0403 19:53:39.317679  9807 net.cpp:386] inception_4d/relu_pool_proj -> inception_4d/pool_proj (in-place)
I0403 19:53:39.317867  9807 net.cpp:141] Setting up inception_4d/relu_pool_proj
I0403 19:53:39.317894  9807 net.cpp:148] Top shape: 24 64 14 14 (301056)
I0403 19:53:39.317909  9807 net.cpp:156] Memory required for data: 1147309344
I0403 19:53:39.317924  9807 layer_factory.hpp:77] Creating layer inception_4d/output
I0403 19:53:39.317942  9807 net.cpp:91] Creating Layer inception_4d/output
I0403 19:53:39.317957  9807 net.cpp:425] inception_4d/output <- inception_4d/1x1
I0403 19:53:39.317975  9807 net.cpp:425] inception_4d/output <- inception_4d/3x3
I0403 19:53:39.317991  9807 net.cpp:425] inception_4d/output <- inception_4d/5x5
I0403 19:53:39.318006  9807 net.cpp:425] inception_4d/output <- inception_4d/pool_proj
I0403 19:53:39.318024  9807 net.cpp:399] inception_4d/output -> inception_4d/output
I0403 19:53:39.318071  9807 net.cpp:141] Setting up inception_4d/output
I0403 19:53:39.318094  9807 net.cpp:148] Top shape: 24 528 14 14 (2483712)
I0403 19:53:39.318109  9807 net.cpp:156] Memory required for data: 1157244192
I0403 19:53:39.318122  9807 layer_factory.hpp:77] Creating layer inception_4d/output_inception_4d/output_0_split
I0403 19:53:39.318147  9807 net.cpp:91] Creating Layer inception_4d/output_inception_4d/output_0_split
I0403 19:53:39.318163  9807 net.cpp:425] inception_4d/output_inception_4d/output_0_split <- inception_4d/output
I0403 19:53:39.318188  9807 net.cpp:399] inception_4d/output_inception_4d/output_0_split -> inception_4d/output_inception_4d/output_0_split_0
I0403 19:53:39.318209  9807 net.cpp:399] inception_4d/output_inception_4d/output_0_split -> inception_4d/output_inception_4d/output_0_split_1
I0403 19:53:39.318234  9807 net.cpp:399] inception_4d/output_inception_4d/output_0_split -> inception_4d/output_inception_4d/output_0_split_2
I0403 19:53:39.318254  9807 net.cpp:399] inception_4d/output_inception_4d/output_0_split -> inception_4d/output_inception_4d/output_0_split_3
I0403 19:53:39.318274  9807 net.cpp:399] inception_4d/output_inception_4d/output_0_split -> inception_4d/output_inception_4d/output_0_split_4
I0403 19:53:39.318375  9807 net.cpp:141] Setting up inception_4d/output_inception_4d/output_0_split
I0403 19:53:39.318411  9807 net.cpp:148] Top shape: 24 528 14 14 (2483712)
I0403 19:53:39.318428  9807 net.cpp:148] Top shape: 24 528 14 14 (2483712)
I0403 19:53:39.318450  9807 net.cpp:148] Top shape: 24 528 14 14 (2483712)
I0403 19:53:39.318465  9807 net.cpp:148] Top shape: 24 528 14 14 (2483712)
I0403 19:53:39.318481  9807 net.cpp:148] Top shape: 24 528 14 14 (2483712)
I0403 19:53:39.318495  9807 net.cpp:156] Memory required for data: 1206918432
I0403 19:53:39.318509  9807 layer_factory.hpp:77] Creating layer loss2/ave_pool
I0403 19:53:39.318529  9807 net.cpp:91] Creating Layer loss2/ave_pool
I0403 19:53:39.318545  9807 net.cpp:425] loss2/ave_pool <- inception_4d/output_inception_4d/output_0_split_0
I0403 19:53:39.318563  9807 net.cpp:399] loss2/ave_pool -> loss2/ave_pool
I0403 19:53:39.318881  9807 net.cpp:141] Setting up loss2/ave_pool
I0403 19:53:39.318907  9807 net.cpp:148] Top shape: 24 528 4 4 (202752)
I0403 19:53:39.318922  9807 net.cpp:156] Memory required for data: 1207729440
I0403 19:53:39.318936  9807 layer_factory.hpp:77] Creating layer loss2/conv
I0403 19:53:39.318958  9807 net.cpp:91] Creating Layer loss2/conv
I0403 19:53:39.318975  9807 net.cpp:425] loss2/conv <- loss2/ave_pool
I0403 19:53:39.318995  9807 net.cpp:399] loss2/conv -> loss2/conv
I0403 19:53:39.320893  9807 net.cpp:141] Setting up loss2/conv
I0403 19:53:39.320924  9807 net.cpp:148] Top shape: 24 128 4 4 (49152)
I0403 19:53:39.320940  9807 net.cpp:156] Memory required for data: 1207926048
I0403 19:53:39.320957  9807 layer_factory.hpp:77] Creating layer loss2/relu_conv
I0403 19:53:39.320976  9807 net.cpp:91] Creating Layer loss2/relu_conv
I0403 19:53:39.320991  9807 net.cpp:425] loss2/relu_conv <- loss2/conv
I0403 19:53:39.321010  9807 net.cpp:386] loss2/relu_conv -> loss2/conv (in-place)
I0403 19:53:39.321305  9807 net.cpp:141] Setting up loss2/relu_conv
I0403 19:53:39.321333  9807 net.cpp:148] Top shape: 24 128 4 4 (49152)
I0403 19:53:39.321349  9807 net.cpp:156] Memory required for data: 1208122656
I0403 19:53:39.321363  9807 layer_factory.hpp:77] Creating layer loss2/fc
I0403 19:53:39.321382  9807 net.cpp:91] Creating Layer loss2/fc
I0403 19:53:39.321398  9807 net.cpp:425] loss2/fc <- loss2/conv
I0403 19:53:39.321420  9807 net.cpp:399] loss2/fc -> loss2/fc
I0403 19:53:39.339190  9807 net.cpp:141] Setting up loss2/fc
I0403 19:53:39.339222  9807 net.cpp:148] Top shape: 24 1024 (24576)
I0403 19:53:39.339237  9807 net.cpp:156] Memory required for data: 1208220960
I0403 19:53:39.339267  9807 layer_factory.hpp:77] Creating layer loss2/relu_fc
I0403 19:53:39.339289  9807 net.cpp:91] Creating Layer loss2/relu_fc
I0403 19:53:39.339308  9807 net.cpp:425] loss2/relu_fc <- loss2/fc
I0403 19:53:39.339326  9807 net.cpp:386] loss2/relu_fc -> loss2/fc (in-place)
I0403 19:53:39.339670  9807 net.cpp:141] Setting up loss2/relu_fc
I0403 19:53:39.339696  9807 net.cpp:148] Top shape: 24 1024 (24576)
I0403 19:53:39.339710  9807 net.cpp:156] Memory required for data: 1208319264
I0403 19:53:39.339726  9807 layer_factory.hpp:77] Creating layer loss2/drop_fc
I0403 19:53:39.339747  9807 net.cpp:91] Creating Layer loss2/drop_fc
I0403 19:53:39.339764  9807 net.cpp:425] loss2/drop_fc <- loss2/fc
I0403 19:53:39.339781  9807 net.cpp:386] loss2/drop_fc -> loss2/fc (in-place)
I0403 19:53:39.339833  9807 net.cpp:141] Setting up loss2/drop_fc
I0403 19:53:39.339856  9807 net.cpp:148] Top shape: 24 1024 (24576)
I0403 19:53:39.339870  9807 net.cpp:156] Memory required for data: 1208417568
I0403 19:53:39.339884  9807 layer_factory.hpp:77] Creating layer loss2/classifier_plantvillage
I0403 19:53:39.339906  9807 net.cpp:91] Creating Layer loss2/classifier_plantvillage
I0403 19:53:39.339923  9807 net.cpp:425] loss2/classifier_plantvillage <- loss2/fc
I0403 19:53:39.339941  9807 net.cpp:399] loss2/classifier_plantvillage -> loss2/classifier_plantvillage
I0403 19:53:39.340391  9807 net.cpp:141] Setting up loss2/classifier_plantvillage
I0403 19:53:39.340417  9807 net.cpp:148] Top shape: 24 38 (912)
I0403 19:53:39.340457  9807 net.cpp:156] Memory required for data: 1208421216
I0403 19:53:39.340476  9807 layer_factory.hpp:77] Creating layer loss2/classifier_plantvillage_loss2/classifier_plantvillage_0_split
I0403 19:53:39.340494  9807 net.cpp:91] Creating Layer loss2/classifier_plantvillage_loss2/classifier_plantvillage_0_split
I0403 19:53:39.340510  9807 net.cpp:425] loss2/classifier_plantvillage_loss2/classifier_plantvillage_0_split <- loss2/classifier_plantvillage
I0403 19:53:39.340540  9807 net.cpp:399] loss2/classifier_plantvillage_loss2/classifier_plantvillage_0_split -> loss2/classifier_plantvillage_loss2/classifier_plantvillage_0_split_0
I0403 19:53:39.340561  9807 net.cpp:399] loss2/classifier_plantvillage_loss2/classifier_plantvillage_0_split -> loss2/classifier_plantvillage_loss2/classifier_plantvillage_0_split_1
I0403 19:53:39.340581  9807 net.cpp:399] loss2/classifier_plantvillage_loss2/classifier_plantvillage_0_split -> loss2/classifier_plantvillage_loss2/classifier_plantvillage_0_split_2
I0403 19:53:39.340661  9807 net.cpp:141] Setting up loss2/classifier_plantvillage_loss2/classifier_plantvillage_0_split
I0403 19:53:39.340687  9807 net.cpp:148] Top shape: 24 38 (912)
I0403 19:53:39.340703  9807 net.cpp:148] Top shape: 24 38 (912)
I0403 19:53:39.340719  9807 net.cpp:148] Top shape: 24 38 (912)
I0403 19:53:39.340734  9807 net.cpp:156] Memory required for data: 1208432160
I0403 19:53:39.340749  9807 layer_factory.hpp:77] Creating layer inception_4e/1x1
I0403 19:53:39.340769  9807 net.cpp:91] Creating Layer inception_4e/1x1
I0403 19:53:39.340786  9807 net.cpp:425] inception_4e/1x1 <- inception_4d/output_inception_4d/output_0_split_1
I0403 19:53:39.340806  9807 net.cpp:399] inception_4e/1x1 -> inception_4e/1x1
I0403 19:53:39.342790  9807 net.cpp:141] Setting up inception_4e/1x1
I0403 19:53:39.342820  9807 net.cpp:148] Top shape: 24 256 14 14 (1204224)
I0403 19:53:39.342835  9807 net.cpp:156] Memory required for data: 1213249056
I0403 19:53:39.342854  9807 layer_factory.hpp:77] Creating layer inception_4e/relu_1x1
I0403 19:53:39.342872  9807 net.cpp:91] Creating Layer inception_4e/relu_1x1
I0403 19:53:39.342888  9807 net.cpp:425] inception_4e/relu_1x1 <- inception_4e/1x1
I0403 19:53:39.342908  9807 net.cpp:386] inception_4e/relu_1x1 -> inception_4e/1x1 (in-place)
I0403 19:53:39.343219  9807 net.cpp:141] Setting up inception_4e/relu_1x1
I0403 19:53:39.343246  9807 net.cpp:148] Top shape: 24 256 14 14 (1204224)
I0403 19:53:39.343261  9807 net.cpp:156] Memory required for data: 1218065952
I0403 19:53:39.343276  9807 layer_factory.hpp:77] Creating layer inception_4e/3x3_reduce
I0403 19:53:39.343298  9807 net.cpp:91] Creating Layer inception_4e/3x3_reduce
I0403 19:53:39.343315  9807 net.cpp:425] inception_4e/3x3_reduce <- inception_4d/output_inception_4d/output_0_split_2
I0403 19:53:39.343338  9807 net.cpp:399] inception_4e/3x3_reduce -> inception_4e/3x3_reduce
I0403 19:53:39.345541  9807 net.cpp:141] Setting up inception_4e/3x3_reduce
I0403 19:53:39.345572  9807 net.cpp:148] Top shape: 24 160 14 14 (752640)
I0403 19:53:39.345589  9807 net.cpp:156] Memory required for data: 1221076512
I0403 19:53:39.345608  9807 layer_factory.hpp:77] Creating layer inception_4e/relu_3x3_reduce
I0403 19:53:39.345626  9807 net.cpp:91] Creating Layer inception_4e/relu_3x3_reduce
I0403 19:53:39.345643  9807 net.cpp:425] inception_4e/relu_3x3_reduce <- inception_4e/3x3_reduce
I0403 19:53:39.345662  9807 net.cpp:386] inception_4e/relu_3x3_reduce -> inception_4e/3x3_reduce (in-place)
I0403 19:53:39.345856  9807 net.cpp:141] Setting up inception_4e/relu_3x3_reduce
I0403 19:53:39.345883  9807 net.cpp:148] Top shape: 24 160 14 14 (752640)
I0403 19:53:39.345897  9807 net.cpp:156] Memory required for data: 1224087072
I0403 19:53:39.345912  9807 layer_factory.hpp:77] Creating layer inception_4e/3x3
I0403 19:53:39.345934  9807 net.cpp:91] Creating Layer inception_4e/3x3
I0403 19:53:39.345952  9807 net.cpp:425] inception_4e/3x3 <- inception_4e/3x3_reduce
I0403 19:53:39.345974  9807 net.cpp:399] inception_4e/3x3 -> inception_4e/3x3
I0403 19:53:39.351017  9807 net.cpp:141] Setting up inception_4e/3x3
I0403 19:53:39.351059  9807 net.cpp:148] Top shape: 24 320 14 14 (1505280)
I0403 19:53:39.351075  9807 net.cpp:156] Memory required for data: 1230108192
I0403 19:53:39.351094  9807 layer_factory.hpp:77] Creating layer inception_4e/relu_3x3
I0403 19:53:39.351111  9807 net.cpp:91] Creating Layer inception_4e/relu_3x3
I0403 19:53:39.351126  9807 net.cpp:425] inception_4e/relu_3x3 <- inception_4e/3x3
I0403 19:53:39.351146  9807 net.cpp:386] inception_4e/relu_3x3 -> inception_4e/3x3 (in-place)
I0403 19:53:39.351454  9807 net.cpp:141] Setting up inception_4e/relu_3x3
I0403 19:53:39.351480  9807 net.cpp:148] Top shape: 24 320 14 14 (1505280)
I0403 19:53:39.351495  9807 net.cpp:156] Memory required for data: 1236129312
I0403 19:53:39.351510  9807 layer_factory.hpp:77] Creating layer inception_4e/5x5_reduce
I0403 19:53:39.351534  9807 net.cpp:91] Creating Layer inception_4e/5x5_reduce
I0403 19:53:39.351552  9807 net.cpp:425] inception_4e/5x5_reduce <- inception_4d/output_inception_4d/output_0_split_3
I0403 19:53:39.351574  9807 net.cpp:399] inception_4e/5x5_reduce -> inception_4e/5x5_reduce
I0403 19:53:39.352654  9807 net.cpp:141] Setting up inception_4e/5x5_reduce
I0403 19:53:39.352684  9807 net.cpp:148] Top shape: 24 32 14 14 (150528)
I0403 19:53:39.352699  9807 net.cpp:156] Memory required for data: 1236731424
I0403 19:53:39.352716  9807 layer_factory.hpp:77] Creating layer inception_4e/relu_5x5_reduce
I0403 19:53:39.352735  9807 net.cpp:91] Creating Layer inception_4e/relu_5x5_reduce
I0403 19:53:39.352749  9807 net.cpp:425] inception_4e/relu_5x5_reduce <- inception_4e/5x5_reduce
I0403 19:53:39.352769  9807 net.cpp:386] inception_4e/relu_5x5_reduce -> inception_4e/5x5_reduce (in-place)
I0403 19:53:39.353062  9807 net.cpp:141] Setting up inception_4e/relu_5x5_reduce
I0403 19:53:39.353091  9807 net.cpp:148] Top shape: 24 32 14 14 (150528)
I0403 19:53:39.353106  9807 net.cpp:156] Memory required for data: 1237333536
I0403 19:53:39.353121  9807 layer_factory.hpp:77] Creating layer inception_4e/5x5
I0403 19:53:39.353157  9807 net.cpp:91] Creating Layer inception_4e/5x5
I0403 19:53:39.353183  9807 net.cpp:425] inception_4e/5x5 <- inception_4e/5x5_reduce
I0403 19:53:39.353204  9807 net.cpp:399] inception_4e/5x5 -> inception_4e/5x5
I0403 19:53:39.355041  9807 net.cpp:141] Setting up inception_4e/5x5
I0403 19:53:39.355070  9807 net.cpp:148] Top shape: 24 128 14 14 (602112)
I0403 19:53:39.355087  9807 net.cpp:156] Memory required for data: 1239741984
I0403 19:53:39.355105  9807 layer_factory.hpp:77] Creating layer inception_4e/relu_5x5
I0403 19:53:39.355123  9807 net.cpp:91] Creating Layer inception_4e/relu_5x5
I0403 19:53:39.355139  9807 net.cpp:425] inception_4e/relu_5x5 <- inception_4e/5x5
I0403 19:53:39.355155  9807 net.cpp:386] inception_4e/relu_5x5 -> inception_4e/5x5 (in-place)
I0403 19:53:39.355379  9807 net.cpp:141] Setting up inception_4e/relu_5x5
I0403 19:53:39.355407  9807 net.cpp:148] Top shape: 24 128 14 14 (602112)
I0403 19:53:39.355422  9807 net.cpp:156] Memory required for data: 1242150432
I0403 19:53:39.355437  9807 layer_factory.hpp:77] Creating layer inception_4e/pool
I0403 19:53:39.355455  9807 net.cpp:91] Creating Layer inception_4e/pool
I0403 19:53:39.355473  9807 net.cpp:425] inception_4e/pool <- inception_4d/output_inception_4d/output_0_split_4
I0403 19:53:39.355492  9807 net.cpp:399] inception_4e/pool -> inception_4e/pool
I0403 19:53:39.355578  9807 net.cpp:141] Setting up inception_4e/pool
I0403 19:53:39.355604  9807 net.cpp:148] Top shape: 24 528 14 14 (2483712)
I0403 19:53:39.355618  9807 net.cpp:156] Memory required for data: 1252085280
I0403 19:53:39.355633  9807 layer_factory.hpp:77] Creating layer inception_4e/pool_proj
I0403 19:53:39.355654  9807 net.cpp:91] Creating Layer inception_4e/pool_proj
I0403 19:53:39.355671  9807 net.cpp:425] inception_4e/pool_proj <- inception_4e/pool
I0403 19:53:39.355690  9807 net.cpp:399] inception_4e/pool_proj -> inception_4e/pool_proj
I0403 19:53:39.357198  9807 net.cpp:141] Setting up inception_4e/pool_proj
I0403 19:53:39.357237  9807 net.cpp:148] Top shape: 24 128 14 14 (602112)
I0403 19:53:39.357254  9807 net.cpp:156] Memory required for data: 1254493728
I0403 19:53:39.357271  9807 layer_factory.hpp:77] Creating layer inception_4e/relu_pool_proj
I0403 19:53:39.357291  9807 net.cpp:91] Creating Layer inception_4e/relu_pool_proj
I0403 19:53:39.357308  9807 net.cpp:425] inception_4e/relu_pool_proj <- inception_4e/pool_proj
I0403 19:53:39.357326  9807 net.cpp:386] inception_4e/relu_pool_proj -> inception_4e/pool_proj (in-place)
I0403 19:53:39.357619  9807 net.cpp:141] Setting up inception_4e/relu_pool_proj
I0403 19:53:39.357645  9807 net.cpp:148] Top shape: 24 128 14 14 (602112)
I0403 19:53:39.357658  9807 net.cpp:156] Memory required for data: 1256902176
I0403 19:53:39.357673  9807 layer_factory.hpp:77] Creating layer inception_4e/output
I0403 19:53:39.357692  9807 net.cpp:91] Creating Layer inception_4e/output
I0403 19:53:39.357708  9807 net.cpp:425] inception_4e/output <- inception_4e/1x1
I0403 19:53:39.357724  9807 net.cpp:425] inception_4e/output <- inception_4e/3x3
I0403 19:53:39.357740  9807 net.cpp:425] inception_4e/output <- inception_4e/5x5
I0403 19:53:39.357755  9807 net.cpp:425] inception_4e/output <- inception_4e/pool_proj
I0403 19:53:39.357772  9807 net.cpp:399] inception_4e/output -> inception_4e/output
I0403 19:53:39.357823  9807 net.cpp:141] Setting up inception_4e/output
I0403 19:53:39.357846  9807 net.cpp:148] Top shape: 24 832 14 14 (3913728)
I0403 19:53:39.357861  9807 net.cpp:156] Memory required for data: 1272557088
I0403 19:53:39.357874  9807 layer_factory.hpp:77] Creating layer pool4/3x3_s2
I0403 19:53:39.357892  9807 net.cpp:91] Creating Layer pool4/3x3_s2
I0403 19:53:39.357908  9807 net.cpp:425] pool4/3x3_s2 <- inception_4e/output
I0403 19:53:39.357928  9807 net.cpp:399] pool4/3x3_s2 -> pool4/3x3_s2
I0403 19:53:39.357995  9807 net.cpp:141] Setting up pool4/3x3_s2
I0403 19:53:39.358019  9807 net.cpp:148] Top shape: 24 832 7 7 (978432)
I0403 19:53:39.358033  9807 net.cpp:156] Memory required for data: 1276470816
I0403 19:53:39.358047  9807 layer_factory.hpp:77] Creating layer pool4/3x3_s2_pool4/3x3_s2_0_split
I0403 19:53:39.358064  9807 net.cpp:91] Creating Layer pool4/3x3_s2_pool4/3x3_s2_0_split
I0403 19:53:39.358079  9807 net.cpp:425] pool4/3x3_s2_pool4/3x3_s2_0_split <- pool4/3x3_s2
I0403 19:53:39.358096  9807 net.cpp:399] pool4/3x3_s2_pool4/3x3_s2_0_split -> pool4/3x3_s2_pool4/3x3_s2_0_split_0
I0403 19:53:39.358117  9807 net.cpp:399] pool4/3x3_s2_pool4/3x3_s2_0_split -> pool4/3x3_s2_pool4/3x3_s2_0_split_1
I0403 19:53:39.358137  9807 net.cpp:399] pool4/3x3_s2_pool4/3x3_s2_0_split -> pool4/3x3_s2_pool4/3x3_s2_0_split_2
I0403 19:53:39.358156  9807 net.cpp:399] pool4/3x3_s2_pool4/3x3_s2_0_split -> pool4/3x3_s2_pool4/3x3_s2_0_split_3
I0403 19:53:39.358261  9807 net.cpp:141] Setting up pool4/3x3_s2_pool4/3x3_s2_0_split
I0403 19:53:39.358341  9807 net.cpp:148] Top shape: 24 832 7 7 (978432)
I0403 19:53:39.358360  9807 net.cpp:148] Top shape: 24 832 7 7 (978432)
I0403 19:53:39.358374  9807 net.cpp:148] Top shape: 24 832 7 7 (978432)
I0403 19:53:39.358391  9807 net.cpp:148] Top shape: 24 832 7 7 (978432)
I0403 19:53:39.358403  9807 net.cpp:156] Memory required for data: 1292125728
I0403 19:53:39.358417  9807 layer_factory.hpp:77] Creating layer inception_5a/1x1
I0403 19:53:39.358465  9807 net.cpp:91] Creating Layer inception_5a/1x1
I0403 19:53:39.358484  9807 net.cpp:425] inception_5a/1x1 <- pool4/3x3_s2_pool4/3x3_s2_0_split_0
I0403 19:53:39.358502  9807 net.cpp:399] inception_5a/1x1 -> inception_5a/1x1
I0403 19:53:39.361361  9807 net.cpp:141] Setting up inception_5a/1x1
I0403 19:53:39.361390  9807 net.cpp:148] Top shape: 24 256 7 7 (301056)
I0403 19:53:39.361405  9807 net.cpp:156] Memory required for data: 1293329952
I0403 19:53:39.361423  9807 layer_factory.hpp:77] Creating layer inception_5a/relu_1x1
I0403 19:53:39.361440  9807 net.cpp:91] Creating Layer inception_5a/relu_1x1
I0403 19:53:39.361455  9807 net.cpp:425] inception_5a/relu_1x1 <- inception_5a/1x1
I0403 19:53:39.361474  9807 net.cpp:386] inception_5a/relu_1x1 -> inception_5a/1x1 (in-place)
I0403 19:53:39.361780  9807 net.cpp:141] Setting up inception_5a/relu_1x1
I0403 19:53:39.361807  9807 net.cpp:148] Top shape: 24 256 7 7 (301056)
I0403 19:53:39.361824  9807 net.cpp:156] Memory required for data: 1294534176
I0403 19:53:39.361837  9807 layer_factory.hpp:77] Creating layer inception_5a/3x3_reduce
I0403 19:53:39.361860  9807 net.cpp:91] Creating Layer inception_5a/3x3_reduce
I0403 19:53:39.361876  9807 net.cpp:425] inception_5a/3x3_reduce <- pool4/3x3_s2_pool4/3x3_s2_0_split_1
I0403 19:53:39.361894  9807 net.cpp:399] inception_5a/3x3_reduce -> inception_5a/3x3_reduce
I0403 19:53:39.364317  9807 net.cpp:141] Setting up inception_5a/3x3_reduce
I0403 19:53:39.364346  9807 net.cpp:148] Top shape: 24 160 7 7 (188160)
I0403 19:53:39.364362  9807 net.cpp:156] Memory required for data: 1295286816
I0403 19:53:39.364379  9807 layer_factory.hpp:77] Creating layer inception_5a/relu_3x3_reduce
I0403 19:53:39.364398  9807 net.cpp:91] Creating Layer inception_5a/relu_3x3_reduce
I0403 19:53:39.364415  9807 net.cpp:425] inception_5a/relu_3x3_reduce <- inception_5a/3x3_reduce
I0403 19:53:39.364431  9807 net.cpp:386] inception_5a/relu_3x3_reduce -> inception_5a/3x3_reduce (in-place)
I0403 19:53:39.364612  9807 net.cpp:141] Setting up inception_5a/relu_3x3_reduce
I0403 19:53:39.364635  9807 net.cpp:148] Top shape: 24 160 7 7 (188160)
I0403 19:53:39.364650  9807 net.cpp:156] Memory required for data: 1296039456
I0403 19:53:39.364665  9807 layer_factory.hpp:77] Creating layer inception_5a/3x3
I0403 19:53:39.364687  9807 net.cpp:91] Creating Layer inception_5a/3x3
I0403 19:53:39.364704  9807 net.cpp:425] inception_5a/3x3 <- inception_5a/3x3_reduce
I0403 19:53:39.364722  9807 net.cpp:399] inception_5a/3x3 -> inception_5a/3x3
I0403 19:53:39.369669  9807 net.cpp:141] Setting up inception_5a/3x3
I0403 19:53:39.369700  9807 net.cpp:148] Top shape: 24 320 7 7 (376320)
I0403 19:53:39.369715  9807 net.cpp:156] Memory required for data: 1297544736
I0403 19:53:39.369734  9807 layer_factory.hpp:77] Creating layer inception_5a/relu_3x3
I0403 19:53:39.369751  9807 net.cpp:91] Creating Layer inception_5a/relu_3x3
I0403 19:53:39.369766  9807 net.cpp:425] inception_5a/relu_3x3 <- inception_5a/3x3
I0403 19:53:39.369782  9807 net.cpp:386] inception_5a/relu_3x3 -> inception_5a/3x3 (in-place)
I0403 19:53:39.370069  9807 net.cpp:141] Setting up inception_5a/relu_3x3
I0403 19:53:39.370096  9807 net.cpp:148] Top shape: 24 320 7 7 (376320)
I0403 19:53:39.370112  9807 net.cpp:156] Memory required for data: 1299050016
I0403 19:53:39.370126  9807 layer_factory.hpp:77] Creating layer inception_5a/5x5_reduce
I0403 19:53:39.370148  9807 net.cpp:91] Creating Layer inception_5a/5x5_reduce
I0403 19:53:39.370165  9807 net.cpp:425] inception_5a/5x5_reduce <- pool4/3x3_s2_pool4/3x3_s2_0_split_2
I0403 19:53:39.370190  9807 net.cpp:399] inception_5a/5x5_reduce -> inception_5a/5x5_reduce
I0403 19:53:39.371323  9807 net.cpp:141] Setting up inception_5a/5x5_reduce
I0403 19:53:39.371352  9807 net.cpp:148] Top shape: 24 32 7 7 (37632)
I0403 19:53:39.371368  9807 net.cpp:156] Memory required for data: 1299200544
I0403 19:53:39.371387  9807 layer_factory.hpp:77] Creating layer inception_5a/relu_5x5_reduce
I0403 19:53:39.371403  9807 net.cpp:91] Creating Layer inception_5a/relu_5x5_reduce
I0403 19:53:39.371418  9807 net.cpp:425] inception_5a/relu_5x5_reduce <- inception_5a/5x5_reduce
I0403 19:53:39.371438  9807 net.cpp:386] inception_5a/relu_5x5_reduce -> inception_5a/5x5_reduce (in-place)
I0403 19:53:39.371724  9807 net.cpp:141] Setting up inception_5a/relu_5x5_reduce
I0403 19:53:39.371752  9807 net.cpp:148] Top shape: 24 32 7 7 (37632)
I0403 19:53:39.371774  9807 net.cpp:156] Memory required for data: 1299351072
I0403 19:53:39.371789  9807 layer_factory.hpp:77] Creating layer inception_5a/5x5
I0403 19:53:39.371811  9807 net.cpp:91] Creating Layer inception_5a/5x5
I0403 19:53:39.371827  9807 net.cpp:425] inception_5a/5x5 <- inception_5a/5x5_reduce
I0403 19:53:39.371846  9807 net.cpp:399] inception_5a/5x5 -> inception_5a/5x5
I0403 19:53:39.373529  9807 net.cpp:141] Setting up inception_5a/5x5
I0403 19:53:39.373574  9807 net.cpp:148] Top shape: 24 128 7 7 (150528)
I0403 19:53:39.373589  9807 net.cpp:156] Memory required for data: 1299953184
I0403 19:53:39.373607  9807 layer_factory.hpp:77] Creating layer inception_5a/relu_5x5
I0403 19:53:39.373625  9807 net.cpp:91] Creating Layer inception_5a/relu_5x5
I0403 19:53:39.373639  9807 net.cpp:425] inception_5a/relu_5x5 <- inception_5a/5x5
I0403 19:53:39.373656  9807 net.cpp:386] inception_5a/relu_5x5 -> inception_5a/5x5 (in-place)
I0403 19:53:39.373843  9807 net.cpp:141] Setting up inception_5a/relu_5x5
I0403 19:53:39.373867  9807 net.cpp:148] Top shape: 24 128 7 7 (150528)
I0403 19:53:39.373880  9807 net.cpp:156] Memory required for data: 1300555296
I0403 19:53:39.373895  9807 layer_factory.hpp:77] Creating layer inception_5a/pool
I0403 19:53:39.373913  9807 net.cpp:91] Creating Layer inception_5a/pool
I0403 19:53:39.373927  9807 net.cpp:425] inception_5a/pool <- pool4/3x3_s2_pool4/3x3_s2_0_split_3
I0403 19:53:39.373947  9807 net.cpp:399] inception_5a/pool -> inception_5a/pool
I0403 19:53:39.374014  9807 net.cpp:141] Setting up inception_5a/pool
I0403 19:53:39.374039  9807 net.cpp:148] Top shape: 24 832 7 7 (978432)
I0403 19:53:39.374053  9807 net.cpp:156] Memory required for data: 1304469024
I0403 19:53:39.374068  9807 layer_factory.hpp:77] Creating layer inception_5a/pool_proj
I0403 19:53:39.374089  9807 net.cpp:91] Creating Layer inception_5a/pool_proj
I0403 19:53:39.374104  9807 net.cpp:425] inception_5a/pool_proj <- inception_5a/pool
I0403 19:53:39.374122  9807 net.cpp:399] inception_5a/pool_proj -> inception_5a/pool_proj
I0403 19:53:39.376353  9807 net.cpp:141] Setting up inception_5a/pool_proj
I0403 19:53:39.376380  9807 net.cpp:148] Top shape: 24 128 7 7 (150528)
I0403 19:53:39.376395  9807 net.cpp:156] Memory required for data: 1305071136
I0403 19:53:39.376412  9807 layer_factory.hpp:77] Creating layer inception_5a/relu_pool_proj
I0403 19:53:39.376431  9807 net.cpp:91] Creating Layer inception_5a/relu_pool_proj
I0403 19:53:39.376447  9807 net.cpp:425] inception_5a/relu_pool_proj <- inception_5a/pool_proj
I0403 19:53:39.376464  9807 net.cpp:386] inception_5a/relu_pool_proj -> inception_5a/pool_proj (in-place)
I0403 19:53:39.376759  9807 net.cpp:141] Setting up inception_5a/relu_pool_proj
I0403 19:53:39.376785  9807 net.cpp:148] Top shape: 24 128 7 7 (150528)
I0403 19:53:39.376802  9807 net.cpp:156] Memory required for data: 1305673248
I0403 19:53:39.376817  9807 layer_factory.hpp:77] Creating layer inception_5a/output
I0403 19:53:39.376837  9807 net.cpp:91] Creating Layer inception_5a/output
I0403 19:53:39.376852  9807 net.cpp:425] inception_5a/output <- inception_5a/1x1
I0403 19:53:39.376868  9807 net.cpp:425] inception_5a/output <- inception_5a/3x3
I0403 19:53:39.376883  9807 net.cpp:425] inception_5a/output <- inception_5a/5x5
I0403 19:53:39.376899  9807 net.cpp:425] inception_5a/output <- inception_5a/pool_proj
I0403 19:53:39.376915  9807 net.cpp:399] inception_5a/output -> inception_5a/output
I0403 19:53:39.376966  9807 net.cpp:141] Setting up inception_5a/output
I0403 19:53:39.376988  9807 net.cpp:148] Top shape: 24 832 7 7 (978432)
I0403 19:53:39.377002  9807 net.cpp:156] Memory required for data: 1309586976
I0403 19:53:39.377017  9807 layer_factory.hpp:77] Creating layer inception_5a/output_inception_5a/output_0_split
I0403 19:53:39.377032  9807 net.cpp:91] Creating Layer inception_5a/output_inception_5a/output_0_split
I0403 19:53:39.377048  9807 net.cpp:425] inception_5a/output_inception_5a/output_0_split <- inception_5a/output
I0403 19:53:39.377066  9807 net.cpp:399] inception_5a/output_inception_5a/output_0_split -> inception_5a/output_inception_5a/output_0_split_0
I0403 19:53:39.377086  9807 net.cpp:399] inception_5a/output_inception_5a/output_0_split -> inception_5a/output_inception_5a/output_0_split_1
I0403 19:53:39.377105  9807 net.cpp:399] inception_5a/output_inception_5a/output_0_split -> inception_5a/output_inception_5a/output_0_split_2
I0403 19:53:39.377123  9807 net.cpp:399] inception_5a/output_inception_5a/output_0_split -> inception_5a/output_inception_5a/output_0_split_3
I0403 19:53:39.377240  9807 net.cpp:141] Setting up inception_5a/output_inception_5a/output_0_split
I0403 19:53:39.377265  9807 net.cpp:148] Top shape: 24 832 7 7 (978432)
I0403 19:53:39.377281  9807 net.cpp:148] Top shape: 24 832 7 7 (978432)
I0403 19:53:39.377296  9807 net.cpp:148] Top shape: 24 832 7 7 (978432)
I0403 19:53:39.377311  9807 net.cpp:148] Top shape: 24 832 7 7 (978432)
I0403 19:53:39.377324  9807 net.cpp:156] Memory required for data: 1325241888
I0403 19:53:39.377338  9807 layer_factory.hpp:77] Creating layer inception_5b/1x1
I0403 19:53:39.377359  9807 net.cpp:91] Creating Layer inception_5b/1x1
I0403 19:53:39.377375  9807 net.cpp:425] inception_5b/1x1 <- inception_5a/output_inception_5a/output_0_split_0
I0403 19:53:39.377394  9807 net.cpp:399] inception_5b/1x1 -> inception_5b/1x1
I0403 19:53:39.381085  9807 net.cpp:141] Setting up inception_5b/1x1
I0403 19:53:39.381114  9807 net.cpp:148] Top shape: 24 384 7 7 (451584)
I0403 19:53:39.381129  9807 net.cpp:156] Memory required for data: 1327048224
I0403 19:53:39.381146  9807 layer_factory.hpp:77] Creating layer inception_5b/relu_1x1
I0403 19:53:39.381166  9807 net.cpp:91] Creating Layer inception_5b/relu_1x1
I0403 19:53:39.381189  9807 net.cpp:425] inception_5b/relu_1x1 <- inception_5b/1x1
I0403 19:53:39.381207  9807 net.cpp:386] inception_5b/relu_1x1 -> inception_5b/1x1 (in-place)
I0403 19:53:39.381517  9807 net.cpp:141] Setting up inception_5b/relu_1x1
I0403 19:53:39.381543  9807 net.cpp:148] Top shape: 24 384 7 7 (451584)
I0403 19:53:39.381557  9807 net.cpp:156] Memory required for data: 1328854560
I0403 19:53:39.381572  9807 layer_factory.hpp:77] Creating layer inception_5b/3x3_reduce
I0403 19:53:39.381593  9807 net.cpp:91] Creating Layer inception_5b/3x3_reduce
I0403 19:53:39.381610  9807 net.cpp:425] inception_5b/3x3_reduce <- inception_5a/output_inception_5a/output_0_split_1
I0403 19:53:39.381631  9807 net.cpp:399] inception_5b/3x3_reduce -> inception_5b/3x3_reduce
I0403 19:53:39.384259  9807 net.cpp:141] Setting up inception_5b/3x3_reduce
I0403 19:53:39.384289  9807 net.cpp:148] Top shape: 24 192 7 7 (225792)
I0403 19:53:39.384304  9807 net.cpp:156] Memory required for data: 1329757728
I0403 19:53:39.384320  9807 layer_factory.hpp:77] Creating layer inception_5b/relu_3x3_reduce
I0403 19:53:39.384341  9807 net.cpp:91] Creating Layer inception_5b/relu_3x3_reduce
I0403 19:53:39.384356  9807 net.cpp:425] inception_5b/relu_3x3_reduce <- inception_5b/3x3_reduce
I0403 19:53:39.384372  9807 net.cpp:386] inception_5b/relu_3x3_reduce -> inception_5b/3x3_reduce (in-place)
I0403 19:53:39.384555  9807 net.cpp:141] Setting up inception_5b/relu_3x3_reduce
I0403 19:53:39.384580  9807 net.cpp:148] Top shape: 24 192 7 7 (225792)
I0403 19:53:39.384594  9807 net.cpp:156] Memory required for data: 1330660896
I0403 19:53:39.384608  9807 layer_factory.hpp:77] Creating layer inception_5b/3x3
I0403 19:53:39.384629  9807 net.cpp:91] Creating Layer inception_5b/3x3
I0403 19:53:39.384645  9807 net.cpp:425] inception_5b/3x3 <- inception_5b/3x3_reduce
I0403 19:53:39.384665  9807 net.cpp:399] inception_5b/3x3 -> inception_5b/3x3
I0403 19:53:39.391216  9807 net.cpp:141] Setting up inception_5b/3x3
I0403 19:53:39.391244  9807 net.cpp:148] Top shape: 24 384 7 7 (451584)
I0403 19:53:39.391259  9807 net.cpp:156] Memory required for data: 1332467232
I0403 19:53:39.391278  9807 layer_factory.hpp:77] Creating layer inception_5b/relu_3x3
I0403 19:53:39.391296  9807 net.cpp:91] Creating Layer inception_5b/relu_3x3
I0403 19:53:39.391314  9807 net.cpp:425] inception_5b/relu_3x3 <- inception_5b/3x3
I0403 19:53:39.391330  9807 net.cpp:386] inception_5b/relu_3x3 -> inception_5b/3x3 (in-place)
I0403 19:53:39.391633  9807 net.cpp:141] Setting up inception_5b/relu_3x3
I0403 19:53:39.391659  9807 net.cpp:148] Top shape: 24 384 7 7 (451584)
I0403 19:53:39.391674  9807 net.cpp:156] Memory required for data: 1334273568
I0403 19:53:39.391688  9807 layer_factory.hpp:77] Creating layer inception_5b/5x5_reduce
I0403 19:53:39.391729  9807 net.cpp:91] Creating Layer inception_5b/5x5_reduce
I0403 19:53:39.391747  9807 net.cpp:425] inception_5b/5x5_reduce <- inception_5a/output_inception_5a/output_0_split_2
I0403 19:53:39.391767  9807 net.cpp:399] inception_5b/5x5_reduce -> inception_5b/5x5_reduce
I0403 19:53:39.393105  9807 net.cpp:141] Setting up inception_5b/5x5_reduce
I0403 19:53:39.393134  9807 net.cpp:148] Top shape: 24 48 7 7 (56448)
I0403 19:53:39.393149  9807 net.cpp:156] Memory required for data: 1334499360
I0403 19:53:39.393168  9807 layer_factory.hpp:77] Creating layer inception_5b/relu_5x5_reduce
I0403 19:53:39.393196  9807 net.cpp:91] Creating Layer inception_5b/relu_5x5_reduce
I0403 19:53:39.393214  9807 net.cpp:425] inception_5b/relu_5x5_reduce <- inception_5b/5x5_reduce
I0403 19:53:39.393234  9807 net.cpp:386] inception_5b/relu_5x5_reduce -> inception_5b/5x5_reduce (in-place)
I0403 19:53:39.393620  9807 net.cpp:141] Setting up inception_5b/relu_5x5_reduce
I0403 19:53:39.393647  9807 net.cpp:148] Top shape: 24 48 7 7 (56448)
I0403 19:53:39.393663  9807 net.cpp:156] Memory required for data: 1334725152
I0403 19:53:39.393678  9807 layer_factory.hpp:77] Creating layer inception_5b/5x5
I0403 19:53:39.393699  9807 net.cpp:91] Creating Layer inception_5b/5x5
I0403 19:53:39.393717  9807 net.cpp:425] inception_5b/5x5 <- inception_5b/5x5_reduce
I0403 19:53:39.393735  9807 net.cpp:399] inception_5b/5x5 -> inception_5b/5x5
I0403 19:53:39.395849  9807 net.cpp:141] Setting up inception_5b/5x5
I0403 19:53:39.395884  9807 net.cpp:148] Top shape: 24 128 7 7 (150528)
I0403 19:53:39.395900  9807 net.cpp:156] Memory required for data: 1335327264
I0403 19:53:39.395920  9807 layer_factory.hpp:77] Creating layer inception_5b/relu_5x5
I0403 19:53:39.395936  9807 net.cpp:91] Creating Layer inception_5b/relu_5x5
I0403 19:53:39.395952  9807 net.cpp:425] inception_5b/relu_5x5 <- inception_5b/5x5
I0403 19:53:39.395972  9807 net.cpp:386] inception_5b/relu_5x5 -> inception_5b/5x5 (in-place)
I0403 19:53:39.396169  9807 net.cpp:141] Setting up inception_5b/relu_5x5
I0403 19:53:39.396201  9807 net.cpp:148] Top shape: 24 128 7 7 (150528)
I0403 19:53:39.396216  9807 net.cpp:156] Memory required for data: 1335929376
I0403 19:53:39.396231  9807 layer_factory.hpp:77] Creating layer inception_5b/pool
I0403 19:53:39.396250  9807 net.cpp:91] Creating Layer inception_5b/pool
I0403 19:53:39.396266  9807 net.cpp:425] inception_5b/pool <- inception_5a/output_inception_5a/output_0_split_3
I0403 19:53:39.396287  9807 net.cpp:399] inception_5b/pool -> inception_5b/pool
I0403 19:53:39.396364  9807 net.cpp:141] Setting up inception_5b/pool
I0403 19:53:39.396389  9807 net.cpp:148] Top shape: 24 832 7 7 (978432)
I0403 19:53:39.396404  9807 net.cpp:156] Memory required for data: 1339843104
I0403 19:53:39.396419  9807 layer_factory.hpp:77] Creating layer inception_5b/pool_proj
I0403 19:53:39.396441  9807 net.cpp:91] Creating Layer inception_5b/pool_proj
I0403 19:53:39.396459  9807 net.cpp:425] inception_5b/pool_proj <- inception_5b/pool
I0403 19:53:39.396478  9807 net.cpp:399] inception_5b/pool_proj -> inception_5b/pool_proj
I0403 19:53:39.398861  9807 net.cpp:141] Setting up inception_5b/pool_proj
I0403 19:53:39.398893  9807 net.cpp:148] Top shape: 24 128 7 7 (150528)
I0403 19:53:39.398910  9807 net.cpp:156] Memory required for data: 1340445216
I0403 19:53:39.398929  9807 layer_factory.hpp:77] Creating layer inception_5b/relu_pool_proj
I0403 19:53:39.398947  9807 net.cpp:91] Creating Layer inception_5b/relu_pool_proj
I0403 19:53:39.398964  9807 net.cpp:425] inception_5b/relu_pool_proj <- inception_5b/pool_proj
I0403 19:53:39.398982  9807 net.cpp:386] inception_5b/relu_pool_proj -> inception_5b/pool_proj (in-place)
I0403 19:53:39.399296  9807 net.cpp:141] Setting up inception_5b/relu_pool_proj
I0403 19:53:39.399324  9807 net.cpp:148] Top shape: 24 128 7 7 (150528)
I0403 19:53:39.399340  9807 net.cpp:156] Memory required for data: 1341047328
I0403 19:53:39.399355  9807 layer_factory.hpp:77] Creating layer inception_5b/output
I0403 19:53:39.399374  9807 net.cpp:91] Creating Layer inception_5b/output
I0403 19:53:39.399412  9807 net.cpp:425] inception_5b/output <- inception_5b/1x1
I0403 19:53:39.399430  9807 net.cpp:425] inception_5b/output <- inception_5b/3x3
I0403 19:53:39.399446  9807 net.cpp:425] inception_5b/output <- inception_5b/5x5
I0403 19:53:39.399462  9807 net.cpp:425] inception_5b/output <- inception_5b/pool_proj
I0403 19:53:39.399479  9807 net.cpp:399] inception_5b/output -> inception_5b/output
I0403 19:53:39.399533  9807 net.cpp:141] Setting up inception_5b/output
I0403 19:53:39.399557  9807 net.cpp:148] Top shape: 24 1024 7 7 (1204224)
I0403 19:53:39.399572  9807 net.cpp:156] Memory required for data: 1345864224
I0403 19:53:39.399587  9807 layer_factory.hpp:77] Creating layer pool5/7x7_s1
I0403 19:53:39.399607  9807 net.cpp:91] Creating Layer pool5/7x7_s1
I0403 19:53:39.399624  9807 net.cpp:425] pool5/7x7_s1 <- inception_5b/output
I0403 19:53:39.399642  9807 net.cpp:399] pool5/7x7_s1 -> pool5/7x7_s1
I0403 19:53:39.399863  9807 net.cpp:141] Setting up pool5/7x7_s1
I0403 19:53:39.399893  9807 net.cpp:148] Top shape: 24 1024 1 1 (24576)
I0403 19:53:39.399909  9807 net.cpp:156] Memory required for data: 1345962528
I0403 19:53:39.399924  9807 layer_factory.hpp:77] Creating layer pool5/drop_7x7_s1
I0403 19:53:39.399941  9807 net.cpp:91] Creating Layer pool5/drop_7x7_s1
I0403 19:53:39.399957  9807 net.cpp:425] pool5/drop_7x7_s1 <- pool5/7x7_s1
I0403 19:53:39.399974  9807 net.cpp:386] pool5/drop_7x7_s1 -> pool5/7x7_s1 (in-place)
I0403 19:53:39.400027  9807 net.cpp:141] Setting up pool5/drop_7x7_s1
I0403 19:53:39.400050  9807 net.cpp:148] Top shape: 24 1024 1 1 (24576)
I0403 19:53:39.400065  9807 net.cpp:156] Memory required for data: 1346060832
I0403 19:53:39.400079  9807 layer_factory.hpp:77] Creating layer loss3/classifier_plantvillage
I0403 19:53:39.400101  9807 net.cpp:91] Creating Layer loss3/classifier_plantvillage
I0403 19:53:39.400120  9807 net.cpp:425] loss3/classifier_plantvillage <- pool5/7x7_s1
I0403 19:53:39.400138  9807 net.cpp:399] loss3/classifier_plantvillage -> loss3/classifier_plantvillage
I0403 19:53:39.400586  9807 net.cpp:141] Setting up loss3/classifier_plantvillage
I0403 19:53:39.400611  9807 net.cpp:148] Top shape: 24 38 (912)
I0403 19:53:39.400626  9807 net.cpp:156] Memory required for data: 1346064480
I0403 19:53:39.400645  9807 layer_factory.hpp:77] Creating layer loss3/classifier_plantvillage_loss3/classifier_plantvillage_0_split
I0403 19:53:39.400662  9807 net.cpp:91] Creating Layer loss3/classifier_plantvillage_loss3/classifier_plantvillage_0_split
I0403 19:53:39.400678  9807 net.cpp:425] loss3/classifier_plantvillage_loss3/classifier_plantvillage_0_split <- loss3/classifier_plantvillage
I0403 19:53:39.400699  9807 net.cpp:399] loss3/classifier_plantvillage_loss3/classifier_plantvillage_0_split -> loss3/classifier_plantvillage_loss3/classifier_plantvillage_0_split_0
I0403 19:53:39.400720  9807 net.cpp:399] loss3/classifier_plantvillage_loss3/classifier_plantvillage_0_split -> loss3/classifier_plantvillage_loss3/classifier_plantvillage_0_split_1
I0403 19:53:39.400740  9807 net.cpp:399] loss3/classifier_plantvillage_loss3/classifier_plantvillage_0_split -> loss3/classifier_plantvillage_loss3/classifier_plantvillage_0_split_2
I0403 19:53:39.400760  9807 net.cpp:399] loss3/classifier_plantvillage_loss3/classifier_plantvillage_0_split -> loss3/classifier_plantvillage_loss3/classifier_plantvillage_0_split_3
I0403 19:53:39.400866  9807 net.cpp:141] Setting up loss3/classifier_plantvillage_loss3/classifier_plantvillage_0_split
I0403 19:53:39.400892  9807 net.cpp:148] Top shape: 24 38 (912)
I0403 19:53:39.400908  9807 net.cpp:148] Top shape: 24 38 (912)
I0403 19:53:39.400924  9807 net.cpp:148] Top shape: 24 38 (912)
I0403 19:53:39.400939  9807 net.cpp:148] Top shape: 24 38 (912)
I0403 19:53:39.400954  9807 net.cpp:156] Memory required for data: 1346079072
I0403 19:53:39.400967  9807 layer_factory.hpp:77] Creating layer loss1/loss
I0403 19:53:39.400990  9807 net.cpp:91] Creating Layer loss1/loss
I0403 19:53:39.401006  9807 net.cpp:425] loss1/loss <- loss1/classifier_plantvillage_loss1/classifier_plantvillage_0_split_0
I0403 19:53:39.401037  9807 net.cpp:425] loss1/loss <- label_data_1_split_0
…
