…
I0403 19:50:07.388073  9728 net.cpp:313] The NetState phase (1) differed from the phase (0) specified by a rule in layer data
I0403 19:50:07.389194  9728 net.cpp:49] Initializing net from parameters: 
state {
  phase: TEST
}
layer {
  name: "data"
  type: "Data"
  top: "data"
  top: "label"
  include {
    phase: TEST
  }
  transform_param {
    mirror: false
    crop_size: 224
    mean_file: "/home/mohanty/data/final_dataset/lmdb/grayscale-50-50/mean.binaryproto"
  }
  data_param {
    source: "/home/mohanty/data/final_dataset/lmdb/grayscale-50-50/test_db"
    batch_size: 24
    backend: LMDB
  }
}
layer {
  name: "conv1/7x7_s2"
  type: "Convolution"
  bottom: "data"
  top: "conv1/7x7_s2"
  param {
    lr_mult: 1
    decay_mult: 1
  }
  param {
    lr_mult: 2
    decay_mult: 0
  }
  convolution_param {
    num_output: 64
    pad: 3
    kernel_size: 7
    stride: 2
    weight_filler {
      type: "xavier"
      std: 0.1
    }
    bias_filler {
      type: "constant"
      value: 0.2
    }
  }
}
layer {
  name: "conv1/relu_7x7"
  type: "ReLU"
  bottom: "conv1/7x7_s2"
  top: "conv1/7x7_s2"
}
layer {
  name: "pool1/3x3_s2"
  type: "Pooling"
  bottom: "conv1/7x7_s2"
  top: "pool1/3x3_s2"
  pooling_param {
    pool: MAX
    kernel_size: 3
    stride: 2
  }
}
layer {
  name: "pool1/norm1"
  type: "LRN"
  bottom: "pool1/3x3_s2"
  top: "pool1/norm1"
  lrn_param {
    local_size: 5
    alpha: 0.0001
    beta: 0.75
  }
}
layer {
  name: "conv2/3x3_reduce"
  type: "Convolution"
  bottom: "pool1/norm1"
  top: "conv2/3x3_reduce"
  param {
    lr_mult: 1
    decay_mult: 1
  }
  param {
    lr_mult: 2
    decay_mult: 0
  }
  convolution_param {
    num_output: 64
    kernel_size: 1
    weight_filler {
      type: "xavier"
      std: 0.1
    }
    bias_filler {
      type: "constant"
      value: 0.2
    }
  }
}
layer {
  name: "conv2/relu_3x3_reduce"
  type: "ReLU"
  bottom: "conv2/3x3_reduce"
  top: "conv2/3x3_reduce"
}
layer {
  name: "conv2/3x3"
  type: "Convolution"
  bottom: "conv2/3x3_reduce"
  top: "conv2/3x3"
  param {
    lr_mult: 1
    decay_mult: 1
  }
  param {
    lr_mult: 2
    decay_mult: 0
  }
  convolution_param {
    num_output: 192
    pad: 1
    kernel_size: 3
    weight_filler {
      type: "xavier"
      std: 0.03
    }
    bias_filler {
      type: "constant"
      value: 0.2
    }
  }
}
layer {
  name: "conv2/relu_3x3"
  type: "ReLU"
  bottom: "conv2/3x3"
  top: "conv2/3x3"
}
layer {
  name: "conv2/norm2"
  type: "LRN"
  bottom: "conv2/3x3"
  top: "conv2/norm2"
  lrn_param {
    local_size: 5
    alpha: 0.0001
    beta: 0.75
  }
}
layer {
  name: "pool2/3x3_s2"
  type: "Pooling"
  bottom: "conv2/norm2"
  top: "pool2/3x3_s2"
  pooling_param {
    pool: MAX
    kernel_size: 3
    stride: 2
  }
}
layer {
  name: "inception_3a/1x1"
  type: "Convolution"
  bottom: "pool2/3x3_s2"
  top: "inception_3a/1x1"
  param {
    lr_mult: 1
    decay_mult: 1
  }
  param {
    lr_mult: 2
    decay_mult: 0
  }
  convolution_param {
    num_output: 64
    kernel_size: 1
    weight_filler {
      type: "xavier"
      std: 0.03
    }
    bias_filler {
      type: "constant"
      value: 0.2
    }
  }
}
layer {
  name: "inception_3a/relu_1x1"
  type: "ReLU"
  bottom: "inception_3a/1x1"
  top: "inception_3a/1x1"
}
layer {
  name: "inception_3a/3x3_reduce"
  type: "Convolution"
  bottom: "pool2/3x3_s2"
  top: "inception_3a/3x3_reduce"
  param {
    lr_mult: 1
    decay_mult: 1
  }
  param {
    lr_mult: 2
    decay_mult: 0
  }
  convolution_param {
    num_output: 96
    kernel_size: 1
    weight_filler {
      type: "xavier"
      std: 0.09
    }
    bias_filler {
      type: "constant"
      value: 0.2
    }
  }
}
layer {
  name: "inception_3a/relu_3x3_reduce"
  type: "ReLU"
  bottom: "inception_3a/3x3_reduce"
  top: "inception_3a/3x3_reduce"
}
layer {
  name: "inception_3a/3x3"
  type: "Convolution"
  bottom: "inception_3a/3x3_reduce"
  top: "inception_3a/3x3"
  param {
    lr_mult: 1
    decay_mult: 1
  }
  param {
    lr_mult: 2
    decay_mult: 0
  }
  convolution_param {
    num_output: 128
    pad: 1
    kernel_size: 3
    weight_filler {
      type: "xavier"
      std: 0.03
    }
    bias_filler {
      type: "constant"
      value: 0.2
    }
  }
}
layer {
  name: "inception_3a/relu_3x3"
  type: "ReLU"
  bottom: "inception_3a/3x3"
  top: "inception_3a/3x3"
}
layer {
  name: "inception_3a/5x5_reduce"
  type: "Convolution"
  bottom: "pool2/3x3_s2"
  top: "inception_3a/5x5_reduce"
  param {
    lr_mult: 1
    decay_mult: 1
  }
  param {
    lr_mult: 2
    decay_mult: 0
  }
  convolution_param {
    num_output: 16
    kernel_size: 1
    weight_filler {
      type: "xavier"
      std: 0.2
    }
    bias_filler {
      type: "constant"
      value: 0.2
    }
  }
}
layer {
  name: "inception_3a/relu_5x5_reduce"
  type: "ReLU"
  bottom: "inception_3a/5x5_reduce"
  top: "inception_3a/5x5_reduce"
}
layer {
  name: "inception_3a/5x5"
  type: "Convolution"
  bottom: "inception_3a/5x5_reduce"
  top: "inception_3a/5x5"
  param {
    lr_mult: 1
    decay_mult: 1
  }
  param {
    lr_mult: 2
    decay_mult: 0
  }
  convolution_param {
    num_output: 32
    pad: 2
    kernel_size: 5
    weight_filler {
      type: "xavier"
      std: 0.03
    }
    bias_filler {
      type: "constant"
      value: 0.2
    }
  }
}
layer {
  name: "inception_3a/relu_5x5"
  type: "ReLU"
  bottom: "inception_3a/5x5"
  top: "inception_3a/5x5"
}
layer {
  name: "inception_3a/pool"
  type: "Pooling"
  bottom: "pool2/3x3_s2"
  top: "inception_3a/pool"
  pooling_param {
    pool: MAX
    kernel_size: 3
    stride: 1
    pad: 1
  }
}
layer {
  name: "inception_3a/pool_proj"
  type: "Convolution"
  bottom: "inception_3a/pool"
  top: "inception_3a/pool_proj"
  param {
    lr_mult: 1
    decay_mult: 1
  }
  param {
    lr_mult: 2
    decay_mult: 0
  }
  convolution_param {
    num_output: 32
    kernel_size: 1
    weight_filler {
      type: "xavier"
      std: 0.1
    }
    bias_filler {
      type: "constant"
      value: 0.2
    }
  }
}
layer {
  name: "inception_3a/relu_pool_proj"
  type: "ReLU"
  bottom: "inception_3a/pool_proj"
  top: "inception_3a/pool_proj"
}
layer {
  name: "inception_3a/output"
  type: "Concat"
  bottom: "inception_3a/1x1"
  bottom: "inception_3a/3x3"
  bottom: "inception_3a/5x5"
  bottom: "inception_3a/pool_proj"
  top: "inception_3a/output"
}
layer {
  name: "inception_3b/1x1"
  type: "Convolution"
  bottom: "inception_3a/output"
  top: "inception_3b/1x1"
  param {
    lr_mult: 1
    decay_mult: 1
  }
  param {
    lr_mult: 2
    decay_mult: 0
  }
  convolution_param {
    num_output: 128
    kernel_size: 1
    weight_filler {
      type: "xavier"
      std: 0.03
    }
    bias_filler {
      type: "constant"
      value: 0.2
    }
  }
}
layer {
  name: "inception_3b/relu_1x1"
  type: "ReLU"
  bottom: "inception_3b/1x1"
  top: "inception_3b/1x1"
}
layer {
  name: "inception_3b/3x3_reduce"
  type: "Convolution"
  bottom: "inception_3a/output"
  top: "inception_3b/3x3_reduce"
  param {
    lr_mult: 1
    decay_mult: 1
  }
  param {
    lr_mult: 2
    decay_mult: 0
  }
  convolution_param {
    num_output: 128
    kernel_size: 1
    weight_filler {
      type: "xavier"
      std: 0.09
    }
    bias_filler {
      type: "constant"
      value: 0.2
    }
  }
}
layer {
  name: "inception_3b/relu_3x3_reduce"
  type: "ReLU"
  bottom: "inception_3b/3x3_reduce"
  top: "inception_3b/3x3_reduce"
}
layer {
  name: "inception_3b/3x3"
  type: "Convolution"
  bottom: "inception_3b/3x3_reduce"
  top: "inception_3b/3x3"
  param {
    lr_mult: 1
    decay_mult: 1
  }
  param {
    lr_mult: 2
    decay_mult: 0
  }
  convolution_param {
    num_output: 192
    pad: 1
    kernel_size: 3
    weight_filler {
      type: "xavier"
      std: 0.03
    }
    bias_filler {
      type: "constant"
      value: 0.2
    }
  }
}
layer {
  name: "inception_3b/relu_3x3"
  type: "ReLU"
  bottom: "inception_3b/3x3"
  top: "inception_3b/3x3"
}
layer {
  name: "inception_3b/5x5_reduce"
  type: "Convolution"
  bottom: "inception_3a/output"
  top: "inception_3b/5x5_reduce"
  param {
    lr_mult: 1
    decay_mult: 1
  }
  param {
    lr_mult: 2
    decay_mult: 0
  }
  convolution_param {
    num_output: 32
    kernel_size: 1
    weight_filler {
      type: "xavier"
      std: 0.2
    }
    bias_filler {
      type: "constant"
      value: 0.2
    }
  }
}
layer {
  name: "inception_3b/relu_5x5_reduce"
  type: "ReLU"
  bottom: "inception_3b/5x5_reduce"
  top: "inception_3b/5x5_reduce"
}
layer {
  name: "inception_3b/5x5"
  type: "Convolution"
  bottom: "inception_3b/5x5_reduce"
  top: "inception_3b/5x5"
  param {
    lr_mult: 1
    decay_mult: 1
  }
  param {
    lr_mult: 2
    decay_mult: 0
  }
  convolution_param {
    num_output: 96
    pad: 2
    kernel_size: 5
    weight_filler {
      type: "xavier"
      std: 0.03
    }
    bias_filler {
      type: "constant"
      value: 0.2
    }
  }
}
layer {
  name: "inception_3b/relu_5x5"
  type: "ReLU"
  bottom: "inception_3b/5x5"
  top: "inception_3b/5x5"
}
layer {
  name: "inception_3b/pool"
  type: "Pooling"
  bottom: "inception_3a/output"
  top: "inception_3b/pool"
  pooling_param {
    pool: MAX
    kernel_size: 3
    stride: 1
    pad: 1
  }
}
layer {
  name: "inception_3b/pool_proj"
  type: "Convolution"
  bottom: "inception_3b/pool"
  top: "inception_3b/pool_proj"
  param {
    lr_mult: 1
    decay_mult: 1
  }
  param {
    lr_mult: 2
    decay_mult: 0
  }
  convolution_param {
    num_output: 64
    kernel_size: 1
    weight_filler {
      type: "xavier"
      std: 0.1
    }
    bias_filler {
      type: "constant"
      value: 0.2
    }
  }
}
layer {
  name: "inception_3b/relu_pool_proj"
  type: "ReLU"
  bottom: "inception_3b/pool_proj"
  top: "inception_3b/pool_proj"
}
layer {
  name: "inception_3b/output"
  type: "Concat"
  bottom: "inception_3b/1x1"
  bottom: "inception_3b/3x3"
  bottom: "inception_3b/5x5"
  bottom: "inception_3b/pool_proj"
  top: "inception_3b/output"
}
layer {
  name: "pool3/3x3_s2"
  type: "Pooling"
  bottom: "inception_3b/output"
  top: "pool3/3x3_s2"
  pooling_param {
    pool: MAX
    kernel_size: 3
    stride: 2
  }
}
layer {
  name: "inception_4a/1x1"
  type: "Convolution"
  bottom: "pool3/3x3_s2"
  top: "inception_4a/1x1"
  param {
    lr_mult: 1
    decay_mult: 1
  }
  param {
    lr_mult: 2
    decay_mult: 0
  }
  convolution_param {
    num_output: 192
    kernel_size: 1
    weight_filler {
      type: "xavier"
      std: 0.03
    }
    bias_filler {
      type: "constant"
      value: 0.2
    }
  }
}
layer {
  name: "inception_4a/relu_1x1"
  type: "ReLU"
  bottom: "inception_4a/1x1"
  top: "inception_4a/1x1"
}
layer {
  name: "inception_4a/3x3_reduce"
  type: "Convolution"
  bottom: "pool3/3x3_s2"
  top: "inception_4a/3x3_reduce"
  param {
    lr_mult: 1
    decay_mult: 1
  }
  param {
    lr_mult: 2
    decay_mult: 0
  }
  convolution_param {
    num_output: 96
    kernel_size: 1
    weight_filler {
      type: "xavier"
      std: 0.09
    }
    bias_filler {
      type: "constant"
      value: 0.2
    }
  }
}
layer {
  name: "inception_4a/relu_3x3_reduce"
  type: "ReLU"
  bottom: "inception_4a/3x3_reduce"
  top: "inception_4a/3x3_reduce"
}
layer {
  name: "inception_4a/3x3"
  type: "Convolution"
  bottom: "inception_4a/3x3_reduce"
  top: "inception_4a/3x3"
  param {
    lr_mult: 1
    decay_mult: 1
  }
  param {
    lr_mult: 2
    decay_mult: 0
  }
  convolution_param {
    num_output: 208
    pad: 1
    kernel_size: 3
    weight_filler {
      type: "xavier"
      std: 0.03
    }
    bias_filler {
      type: "constant"
      value: 0.2
    }
  }
}
layer {
  name: "inception_4a/relu_3x3"
  type: "ReLU"
  bottom: "inception_4a/3x3"
  top: "inception_4a/3x3"
}
layer {
  name: "inception_4a/5x5_reduce"
  type: "Convolution"
  bottom: "pool3/3x3_s2"
  top: "inception_4a/5x5_reduce"
  param {
    lr_mult: 1
    decay_mult: 1
  }
  param {
    lr_mult: 2
    decay_mult: 0
  }
  convolution_param {
    num_output: 16
    kernel_size: 1
    weight_filler {
      type: "xavier"
      std: 0.2
    }
    bias_filler {
      type: "constant"
      value: 0.2
    }
  }
}
layer {
  name: "inception_4a/relu_5x5_reduce"
  type: "ReLU"
  bottom: "inception_4a/5x5_reduce"
  top: "inception_4a/5x5_reduce"
}
layer {
  name: "inception_4a/5x5"
  type: "Convolution"
  bottom: "inception_4a/5x5_reduce"
  top: "inception_4a/5x5"
  param {
    lr_mult: 1
    decay_mult: 1
  }
  param {
    lr_mult: 2
    decay_mult: 0
  }
  convolution_param {
    num_output: 48
    pad: 2
    kernel_size: 5
    weight_filler {
      type: "xavier"
      std: 0.03
    }
    bias_filler {
      type: "constant"
      value: 0.2
    }
  }
}
layer {
  name: "inception_4a/relu_5x5"
  type: "ReLU"
  bottom: "inception_4a/5x5"
  top: "inception_4a/5x5"
}
layer {
  name: "inception_4a/pool"
  type: "Pooling"
  bottom: "pool3/3x3_s2"
  top: "inception_4a/pool"
  pooling_param {
    pool: MAX
    kernel_size: 3
    stride: 1
    pad: 1
  }
}
layer {
  name: "inception_4a/pool_proj"
  type: "Convolution"
  bottom: "inception_4a/pool"
  top: "inception_4a/pool_proj"
  param {
    lr_mult: 1
    decay_mult: 1
  }
  param {
    lr_mult: 2
    decay_mult: 0
  }
  convolution_param {
    num_output: 64
    kernel_size: 1
    weight_filler {
      type: "xavier"
      std: 0.1
    }
    bias_filler {
      type: "constant"
      value: 0.2
    }
  }
}
layer {
  name: "inception_4a/relu_pool_proj"
  type: "ReLU"
  bottom: "inception_4a/pool_proj"
  top: "inception_4a/pool_proj"
}
layer {
  name: "inception_4a/output"
  type: "Concat"
  bottom: "inception_4a/1x1"
  bottom: "inception_4a/3x3"
  bottom: "inception_4a/5x5"
  bottom: "inception_4a/pool_proj"
  top: "inception_4a/output"
}
layer {
  name: "loss1/ave_pool"
  type: "Pooling"
  bottom: "inception_4a/output"
  top: "loss1/ave_pool"
  pooling_param {
    pool: AVE
    kernel_size: 5
    stride: 3
  }
}
layer {
  name: "loss1/conv"
  type: "Convolution"
  bottom: "loss1/ave_pool"
  top: "loss1/conv"
  param {
    lr_mult: 1
    decay_mult: 1
  }
  param {
    lr_mult: 2
    decay_mult: 0
  }
  convolution_param {
    num_output: 128
    kernel_size: 1
    weight_filler {
      type: "xavier"
      std: 0.08
    }
    bias_filler {
      type: "constant"
      value: 0.2
    }
  }
}
layer {
  name: "loss1/relu_conv"
  type: "ReLU"
  bottom: "loss1/conv"
  top: "loss1/conv"
}
layer {
  name: "loss1/fc"
  type: "InnerProduct"
  bottom: "loss1/conv"
  top: "loss1/fc"
  param {
    lr_mult: 1
    decay_mult: 1
  }
  param {
    lr_mult: 2
    decay_mult: 0
  }
  inner_product_param {
    num_output: 1024
    weight_filler {
      type: "xavier"
      std: 0.02
    }
    bias_filler {
      type: "constant"
      value: 0.2
    }
  }
}
layer {
  name: "loss1/relu_fc"
  type: "ReLU"
  bottom: "loss1/fc"
  top: "loss1/fc"
}
layer {
  name: "loss1/drop_fc"
  type: "Dropout"
  bottom: "loss1/fc"
  top: "loss1/fc"
  dropout_param {
    dropout_ratio: 0.7
  }
}
layer {
  name: "loss1/classifier_plantvillage"
  type: "InnerProduct"
  bottom: "loss1/fc"
  top: "loss1/classifier_plantvillage"
  param {
    lr_mult: 1
    decay_mult: 1
  }
  param {
    lr_mult: 2
    decay_mult: 0
  }
  inner_product_param {
    num_output: 38
    weight_filler {
      type: "xavier"
      std: 0.0009765625
    }
    bias_filler {
      type: "constant"
      value: 0
    }
  }
}
layer {
  name: "inception_4b/1x1"
  type: "Convolution"
  bottom: "inception_4a/output"
  top: "inception_4b/1x1"
  param {
    lr_mult: 1
    decay_mult: 1
  }
  param {
    lr_mult: 2
    decay_mult: 0
  }
  convolution_param {
    num_output: 160
    kernel_size: 1
    weight_filler {
      type: "xavier"
      std: 0.03
    }
    bias_filler {
      type: "constant"
      value: 0.2
    }
  }
}
layer {
  name: "inception_4b/relu_1x1"
  type: "ReLU"
  bottom: "inception_4b/1x1"
  top: "inception_4b/1x1"
}
layer {
  name: "inception_4b/3x3_reduce"
  type: "Convolution"
  bottom: "inception_4a/output"
  top: "inception_4b/3x3_reduce"
  param {
    lr_mult: 1
    decay_mult: 1
  }
  param {
    lr_mult: 2
    decay_mult: 0
  }
  convolution_param {
    num_output: 112
    kernel_size: 1
    weight_filler {
      type: "xavier"
      std: 0.09
    }
    bias_filler {
      type: "constant"
      value: 0.2
    }
  }
}
layer {
  name: "inception_4b/relu_3x3_reduce"
  type: "ReLU"
  bottom: "inception_4b/3x3_reduce"
  top: "inception_4b/3x3_reduce"
}
layer {
  name: "inception_4b/3x3"
  type: "Convolution"
  bottom: "inception_4b/3x3_reduce"
  top: "inception_4b/3x3"
  param {
    lr_mult: 1
    decay_mult: 1
  }
  param {
    lr_mult: 2
    decay_mult: 0
  }
  convolution_param {
    num_output: 224
    pad: 1
    kernel_size: 3
    weight_filler {
      type: "xavier"
      std: 0.03
    }
    bias_filler {
      type: "constant"
      value: 0.2
    }
  }
}
layer {
  name: "inception_4b/relu_3x3"
  type: "ReLU"
  bottom: "inception_4b/3x3"
  top: "inception_4b/3x3"
}
layer {
  name: "inception_4b/5x5_reduce"
  type: "Convolution"
  bottom: "inception_4a/output"
  top: "inception_4b/5x5_reduce"
  param {
    lr_mult: 1
    decay_mult: 1
  }
  param {
    lr_mult: 2
    decay_mult: 0
  }
  convolution_param {
    num_output: 24
    kernel_size: 1
    weight_filler {
      type: "xavier"
      std: 0.2
    }
    bias_filler {
      type: "constant"
      value: 0.2
    }
  }
}
layer {
  name: "inception_4b/relu_5x5_reduce"
  type: "ReLU"
  bottom: "inception_4b/5x5_reduce"
  top: "inception_4b/5x5_reduce"
}
layer {
  name: "inception_4b/5x5"
  type: "Convolution"
  bottom: "inception_4b/5x5_reduce"
  top: "inception_4b/5x5"
  param {
    lr_mult: 1
    decay_mult: 1
  }
  param {
    lr_mult: 2
    decay_mult: 0
  }
  convolution_param {
    num_output: 64
    pad: 2
    kernel_size: 5
    weight_filler {
      type: "xavier"
      std: 0.03
    }
    bias_filler {
      type: "constant"
      value: 0.2
    }
  }
}
layer {
  name: "inception_4b/relu_5x5"
  type: "ReLU"
  bottom: "inception_4b/5x5"
  top: "inception_4b/5x5"
}
layer {
  name: "inception_4b/pool"
  type: "Pooling"
  bottom: "inception_4a/output"
  top: "inception_4b/pool"
  pooling_param {
    pool: MAX
    kernel_size: 3
    stride: 1
    pad: 1
  }
}
layer {
  name: "inception_4b/pool_proj"
  type: "Convolution"
  bottom: "inception_4b/pool"
  top: "inception_4b/pool_proj"
  param {
    lr_mult: 1
    decay_mult: 1
  }
  param {
    lr_mult: 2
    decay_mult: 0
  }
  convolution_param {
    num_output: 64
    kernel_size: 1
    weight_filler {
      type: "xavier"
      std: 0.1
    }
    bias_filler {
      type: "constant"
      value: 0.2
    }
  }
}
layer {
  name: "inception_4b/relu_pool_proj"
  type: "ReLU"
  bottom: "inception_4b/pool_proj"
  top: "inception_4b/pool_proj"
}
layer {
  name: "inception_4b/output"
  type: "Concat"
  bottom: "inception_4b/1x1"
  bottom: "inception_4b/3x3"
  bottom: "inception_4b/5x5"
  bottom: "inception_4b/pool_proj"
  top: "inception_4b/output"
}
layer {
  name: "inception_4c/1x1"
  type: "Convolution"
  bottom: "inception_4b/output"
  top: "inception_4c/1x1"
  param {
    lr_mult: 1
    decay_mult: 1
  }
  param {
    lr_mult: 2
    decay_mult: 0
  }
  convolution_param {
    num_output: 128
    kernel_size: 1
    weight_filler {
      type: "xavier"
      std: 0.03
    }
    bias_filler {
      type: "constant"
      value: 0.2
    }
  }
}
layer {
  name: "inception_4c/relu_1x1"
  type: "ReLU"
  bottom: "inception_4c/1x1"
  top: "inception_4c/1x1"
}
layer {
  name: "inception_4c/3x3_reduce"
  type: "Convolution"
  bottom: "inception_4b/output"
  top: "inception_4c/3x3_reduce"
  param {
    lr_mult: 1
    decay_mult: 1
  }
  param {
    lr_mult: 2
    decay_mult: 0
  }
  convolution_param {
    num_output: 128
    kernel_size: 1
    weight_filler {
      type: "xavier"
      std: 0.09
    }
    bias_filler {
      type: "constant"
      value: 0.2
    }
  }
}
layer {
  name: "inception_4c/relu_3x3_reduce"
  type: "ReLU"
  bottom: "inception_4c/3x3_reduce"
  top: "inception_4c/3x3_reduce"
}
layer {
  name: "inception_4c/3x3"
  type: "Convolution"
  bottom: "inception_4c/3x3_reduce"
  top: "inception_4c/3x3"
  param {
    lr_mult: 1
    decay_mult: 1
  }
  param {
    lr_mult: 2
    decay_mult: 0
  }
  convolution_param {
    num_output: 256
    pad: 1
    kernel_size: 3
    weight_filler {
      type: "xavier"
      std: 0.03
    }
    bias_filler {
      type: "constant"
      value: 0.2
    }
  }
}
layer {
  name: "inception_4c/relu_3x3"
  type: "ReLU"
  bottom: "inception_4c/3x3"
  top: "inception_4c/3x3"
}
layer {
  name: "inception_4c/5x5_reduce"
  type: "Convolution"
  bottom: "inception_4b/output"
  top: "inception_4c/5x5_reduce"
  param {
    lr_mult: 1
    decay_mult: 1
  }
  param {
    lr_mult: 2
    decay_mult: 0
  }
  convolution_param {
    num_output: 24
    kernel_size: 1
    weight_filler {
      type: "xavier"
      std: 0.2
    }
    bias_filler {
      type: "constant"
      value: 0.2
    }
  }
}
layer {
  name: "inception_4c/relu_5x5_reduce"
  type: "ReLU"
  bottom: "inception_4c/5x5_reduce"
  top: "inception_4c/5x5_reduce"
}
layer {
  name: "inception_4c/5x5"
  type: "Convolution"
  bottom: "inception_4c/5x5_reduce"
  top: "inception_4c/5x5"
  param {
    lr_mult: 1
    decay_mult: 1
  }
  param {
    lr_mult: 2
    decay_mult: 0
  }
  convolution_param {
    num_output: 64
    pad: 2
    kernel_size: 5
    weight_filler {
      type: "xavier"
      std: 0.03
    }
    bias_filler {
      type: "constant"
      value: 0.2
    }
  }
}
layer {
  name: "inception_4c/relu_5x5"
  type: "ReLU"
  bottom: "inception_4c/5x5"
  top: "inception_4c/5x5"
}
layer {
  name: "inception_4c/pool"
  type: "Pooling"
  bottom: "inception_4b/output"
  top: "inception_4c/pool"
  pooling_param {
    pool: MAX
    kernel_size: 3
    stride: 1
    pad: 1
  }
}
layer {
  name: "inception_4c/pool_proj"
  type: "Convolution"
  bottom: "inception_4c/pool"
  top: "inception_4c/pool_proj"
  param {
    lr_mult: 1
    decay_mult: 1
  }
  param {
    lr_mult: 2
    decay_mult: 0
  }
  convolution_param {
    num_output: 64
    kernel_size: 1
    weight_filler {
      type: "xavier"
      std: 0.1
    }
    bias_filler {
      type: "constant"
      value: 0.2
    }
  }
}
layer {
  name: "inception_4c/relu_pool_proj"
  type: "ReLU"
  bottom: "inception_4c/pool_proj"
  top: "inception_4c/pool_proj"
}
layer {
  name: "inception_4c/output"
  type: "Concat"
  bottom: "inception_4c/1x1"
  bottom: "inception_4c/3x3"
  bottom: "inception_4c/5x5"
  bottom: "inception_4c/pool_proj"
  top: "inception_4c/output"
}
layer {
  name: "inception_4d/1x1"
  type: "Convolution"
  bottom: "inception_4c/output"
  top: "inception_4d/1x1"
  param {
    lr_mult: 1
    decay_mult: 1
  }
  param {
    lr_mult: 2
    decay_mult: 0
  }
  convolution_param {
    num_output: 112
    kernel_size: 1
    weight_filler {
      type: "xavier"
      std: 0.03
    }
    bias_filler {
      type: "constant"
      value: 0.2
    }
  }
}
layer {
  name: "inception_4d/relu_1x1"
  type: "ReLU"
  bottom: "inception_4d/1x1"
  top: "inception_4d/1x1"
}
layer {
  name: "inception_4d/3x3_reduce"
  type: "Convolution"
  bottom: "inception_4c/output"
  top: "inception_4d/3x3_reduce"
  param {
    lr_mult: 1
    decay_mult: 1
  }
  param {
    lr_mult: 2
    decay_mult: 0
  }
  convolution_param {
    num_output: 144
    kernel_size: 1
    weight_filler {
      type: "xavier"
      std: 0.09
    }
    bias_filler {
      type: "constant"
      value: 0.2
    }
  }
}
layer {
  name: "inception_4d/relu_3x3_reduce"
  type: "ReLU"
  bottom: "inception_4d/3x3_reduce"
  top: "inception_4d/3x3_reduce"
}
layer {
  name: "inception_4d/3x3"
  type: "Convolution"
  bottom: "inception_4d/3x3_reduce"
  top: "inception_4d/3x3"
  param {
    lr_mult: 1
    decay_mult: 1
  }
  param {
    lr_mult: 2
    decay_mult: 0
  }
  convolution_param {
    num_output: 288
    pad: 1
    kernel_size: 3
    weight_filler {
      type: "xavier"
      std: 0.03
    }
    bias_filler {
      type: "constant"
      value: 0.2
    }
  }
}
layer {
  name: "inception_4d/relu_3x3"
  type: "ReLU"
  bottom: "inception_4d/3x3"
  top: "inception_4d/3x3"
}
layer {
  name: "inception_4d/5x5_reduce"
  type: "Convolution"
  bottom: "inception_4c/output"
  top: "inception_4d/5x5_reduce"
  param {
    lr_mult: 1
    decay_mult: 1
  }
  param {
    lr_mult: 2
    decay_mult: 0
  }
  convolution_param {
    num_output: 32
    kernel_size: 1
    weight_filler {
      type: "xavier"
      std: 0.2
    }
    bias_filler {
      type: "constant"
      value: 0.2
    }
  }
}
layer {
  name: "inception_4d/relu_5x5_reduce"
  type: "ReLU"
  bottom: "inception_4d/5x5_reduce"
  top: "inception_4d/5x5_reduce"
}
layer {
  name: "inception_4d/5x5"
  type: "Convolution"
  bottom: "inception_4d/5x5_reduce"
  top: "inception_4d/5x5"
  param {
    lr_mult: 1
    decay_mult: 1
  }
  param {
    lr_mult: 2
    decay_mult: 0
  }
  convolution_param {
    num_output: 64
    pad: 2
    kernel_size: 5
    weight_filler {
      type: "xavier"
      std: 0.03
    }
    bias_filler {
      type: "constant"
      value: 0.2
    }
  }
}
layer {
  name: "inception_4d/relu_5x5"
  type: "ReLU"
  bottom: "inception_4d/5x5"
  top: "inception_4d/5x5"
}
layer {
  name: "inception_4d/pool"
  type: "Pooling"
  bottom: "inception_4c/output"
  top: "inception_4d/pool"
  pooling_param {
    pool: MAX
    kernel_size: 3
    stride: 1
    pad: 1
  }
}
layer {
  name: "inception_4d/pool_proj"
  type: "Convolution"
  bottom: "inception_4d/pool"
  top: "inception_4d/pool_proj"
  param {
    lr_mult: 1
    decay_mult: 1
  }
  param {
    lr_mult: 2
    decay_mult: 0
  }
  convolution_param {
    num_output: 64
    kernel_size: 1
    weight_filler {
      type: "xavier"
      std: 0.1
    }
    bias_filler {
      type: "constant"
      value: 0.2
    }
  }
}
layer {
  name: "inception_4d/relu_pool_proj"
  type: "ReLU"
  bottom: "inception_4d/pool_proj"
  top: "inception_4d/pool_proj"
}
layer {
  name: "inception_4d/output"
  type: "Concat"
  bottom: "inception_4d/1x1"
  bottom: "inception_4d/3x3"
  bottom: "inception_4d/5x5"
  bottom: "inception_4d/pool_proj"
  top: "inception_4d/output"
}
layer {
  name: "loss2/ave_pool"
  type: "Pooling"
  bottom: "inception_4d/output"
  top: "loss2/ave_pool"
  pooling_param {
    pool: AVE
    kernel_size: 5
    stride: 3
  }
}
layer {
  name: "loss2/conv"
  type: "Convolution"
  bottom: "loss2/ave_pool"
  top: "loss2/conv"
  param {
    lr_mult: 1
    decay_mult: 1
  }
  param {
    lr_mult: 2
    decay_mult: 0
  }
  convolution_param {
    num_output: 128
    kernel_size: 1
    weight_filler {
      type: "xavier"
      std: 0.08
    }
    bias_filler {
      type: "constant"
      value: 0.2
    }
  }
}
layer {
  name: "loss2/relu_conv"
  type: "ReLU"
  bottom: "loss2/conv"
  top: "loss2/conv"
}
layer {
  name: "loss2/fc"
  type: "InnerProduct"
  bottom: "loss2/conv"
  top: "loss2/fc"
  param {
    lr_mult: 1
    decay_mult: 1
  }
  param {
    lr_mult: 2
    decay_mult: 0
  }
  inner_product_param {
    num_output: 1024
    weight_filler {
      type: "xavier"
      std: 0.02
    }
    bias_filler {
      type: "constant"
      value: 0.2
    }
  }
}
layer {
  name: "loss2/relu_fc"
  type: "ReLU"
  bottom: "loss2/fc"
  top: "loss2/fc"
}
layer {
  name: "loss2/drop_fc"
  type: "Dropout"
  bottom: "loss2/fc"
  top: "loss2/fc"
  dropout_param {
    dropout_ratio: 0.7
  }
}
layer {
  name: "loss2/classifier_plantvillage"
  type: "InnerProduct"
  bottom: "loss2/fc"
  top: "loss2/classifier_plantvillage"
  param {
    lr_mult: 1
    decay_mult: 1
  }
  param {
    lr_mult: 2
    decay_mult: 0
  }
  inner_product_param {
    num_output: 38
    weight_filler {
      type: "xavier"
      std: 0.0009765625
    }
    bias_filler {
      type: "constant"
      value: 0
    }
  }
}
layer {
  name: "inception_4e/1x1"
  type: "Convolution"
  bottom: "inception_4d/output"
  top: "inception_4e/1x1"
  param {
    lr_mult: 1
    decay_mult: 1
  }
  param {
    lr_mult: 2
    decay_mult: 0
  }
  convolution_param {
    num_output: 256
    kernel_size: 1
    weight_filler {
      type: "xavier"
      std: 0.03
    }
    bias_filler {
      type: "constant"
      value: 0.2
    }
  }
}
layer {
  name: "inception_4e/relu_1x1"
  type: "ReLU"
  bottom: "inception_4e/1x1"
  top: "inception_4e/1x1"
}
layer {
  name: "inception_4e/3x3_reduce"
  type: "Convolution"
  bottom: "inception_4d/output"
  top: "inception_4e/3x3_reduce"
  param {
    lr_mult: 1
    decay_mult: 1
  }
  param {
    lr_mult: 2
    decay_mult: 0
  }
  convolution_param {
    num_output: 160
    kernel_size: 1
    weight_filler {
      type: "xavier"
      std: 0.09
    }
    bias_filler {
      type: "constant"
      value: 0.2
    }
  }
}
layer {
  name: "inception_4e/relu_3x3_reduce"
  type: "ReLU"
  bottom: "inception_4e/3x3_reduce"
  top: "inception_4e/3x3_reduce"
}
layer {
  name: "inception_4e/3x3"
  type: "Convolution"
  bottom: "inception_4e/3x3_reduce"
  top: "inception_4e/3x3"
  param {
    lr_mult: 1
    decay_mult: 1
  }
  param {
    lr_mult: 2
    decay_mult: 0
  }
  convolution_param {
    num_output: 320
    pad: 1
    kernel_size: 3
    weight_filler {
      type: "xavier"
      std: 0.03
    }
    bias_filler {
      type: "constant"
      value: 0.2
    }
  }
}
layer {
  name: "inception_4e/relu_3x3"
  type: "ReLU"
  bottom: "inception_4e/3x3"
  top: "inception_4e/3x3"
}
layer {
  name: "inception_4e/5x5_reduce"
  type: "Convolution"
  bottom: "inception_4d/output"
  top: "inception_4e/5x5_reduce"
  param {
    lr_mult: 1
    decay_mult: 1
  }
  param {
    lr_mult: 2
    decay_mult: 0
  }
  convolution_param {
    num_output: 32
    kernel_size: 1
    weight_filler {
      type: "xavier"
      std: 0.2
    }
    bias_filler {
      type: "constant"
      value: 0.2
    }
  }
}
layer {
  name: "inception_4e/relu_5x5_reduce"
  type: "ReLU"
  bottom: "inception_4e/5x5_reduce"
  top: "inception_4e/5x5_reduce"
}
layer {
  name: "inception_4e/5x5"
  type: "Convolution"
  bottom: "inception_4e/5x5_reduce"
  top: "inception_4e/
I0403 19:50:07.390681  9728 layer_factory.hpp:77] Creating layer data
I0403 19:50:07.391288  9728 net.cpp:91] Creating Layer data
I0403 19:50:07.391319  9728 net.cpp:399] data -> data
I0403 19:50:07.391373  9728 net.cpp:399] data -> label
I0403 19:50:07.391409  9728 data_transformer.cpp:25] Loading mean file from: /home/mohanty/data/final_dataset/lmdb/grayscale-50-50/mean.binaryproto
I0403 19:50:07.392537  9730 db_lmdb.cpp:38] Opened lmdb /home/mohanty/data/final_dataset/lmdb/grayscale-50-50/test_db
I0403 19:50:07.404340  9728 data_layer.cpp:41] output data size: 24,3,224,224
I0403 19:50:07.430560  9728 net.cpp:141] Setting up data
I0403 19:50:07.430618  9728 net.cpp:148] Top shape: 24 3 224 224 (3612672)
I0403 19:50:07.430642  9728 net.cpp:148] Top shape: 24 (24)
I0403 19:50:07.430657  9728 net.cpp:156] Memory required for data: 14450784
I0403 19:50:07.430685  9728 layer_factory.hpp:77] Creating layer label_data_1_split
I0403 19:50:07.430712  9728 net.cpp:91] Creating Layer label_data_1_split
I0403 19:50:07.430732  9728 net.cpp:425] label_data_1_split <- label
I0403 19:50:07.430763  9728 net.cpp:399] label_data_1_split -> label_data_1_split_0
I0403 19:50:07.430790  9728 net.cpp:399] label_data_1_split -> label_data_1_split_1
I0403 19:50:07.430811  9728 net.cpp:399] label_data_1_split -> label_data_1_split_2
I0403 19:50:07.430833  9728 net.cpp:399] label_data_1_split -> label_data_1_split_3
I0403 19:50:07.430853  9728 net.cpp:399] label_data_1_split -> label_data_1_split_4
I0403 19:50:07.430874  9728 net.cpp:399] label_data_1_split -> label_data_1_split_5
I0403 19:50:07.430894  9728 net.cpp:399] label_data_1_split -> label_data_1_split_6
I0403 19:50:07.430915  9728 net.cpp:399] label_data_1_split -> label_data_1_split_7
I0403 19:50:07.430937  9728 net.cpp:399] label_data_1_split -> label_data_1_split_8
I0403 19:50:07.430958  9728 net.cpp:399] label_data_1_split -> label_data_1_split_9
I0403 19:50:07.431073  9728 net.cpp:141] Setting up label_data_1_split
I0403 19:50:07.431097  9728 net.cpp:148] Top shape: 24 (24)
I0403 19:50:07.431116  9728 net.cpp:148] Top shape: 24 (24)
I0403 19:50:07.431133  9728 net.cpp:148] Top shape: 24 (24)
I0403 19:50:07.431149  9728 net.cpp:148] Top shape: 24 (24)
I0403 19:50:07.431166  9728 net.cpp:148] Top shape: 24 (24)
I0403 19:50:07.431182  9728 net.cpp:148] Top shape: 24 (24)
I0403 19:50:07.431200  9728 net.cpp:148] Top shape: 24 (24)
I0403 19:50:07.431219  9728 net.cpp:148] Top shape: 24 (24)
I0403 19:50:07.431237  9728 net.cpp:148] Top shape: 24 (24)
I0403 19:50:07.431253  9728 net.cpp:148] Top shape: 24 (24)
I0403 19:50:07.431298  9728 net.cpp:156] Memory required for data: 14451744
I0403 19:50:07.431314  9728 layer_factory.hpp:77] Creating layer conv1/7x7_s2
I0403 19:50:07.431347  9728 net.cpp:91] Creating Layer conv1/7x7_s2
I0403 19:50:07.431365  9728 net.cpp:425] conv1/7x7_s2 <- data
I0403 19:50:07.431385  9728 net.cpp:399] conv1/7x7_s2 -> conv1/7x7_s2
I0403 19:50:07.567937  9728 net.cpp:141] Setting up conv1/7x7_s2
I0403 19:50:07.568016  9728 net.cpp:148] Top shape: 24 64 112 112 (19267584)
I0403 19:50:07.568035  9728 net.cpp:156] Memory required for data: 91522080
I0403 19:50:07.568068  9728 layer_factory.hpp:77] Creating layer conv1/relu_7x7
I0403 19:50:07.568099  9728 net.cpp:91] Creating Layer conv1/relu_7x7
I0403 19:50:07.568120  9728 net.cpp:425] conv1/relu_7x7 <- conv1/7x7_s2
I0403 19:50:07.568140  9728 net.cpp:386] conv1/relu_7x7 -> conv1/7x7_s2 (in-place)
I0403 19:50:07.568452  9728 net.cpp:141] Setting up conv1/relu_7x7
I0403 19:50:07.568483  9728 net.cpp:148] Top shape: 24 64 112 112 (19267584)
I0403 19:50:07.568500  9728 net.cpp:156] Memory required for data: 168592416
I0403 19:50:07.568516  9728 layer_factory.hpp:77] Creating layer pool1/3x3_s2
I0403 19:50:07.568541  9728 net.cpp:91] Creating Layer pool1/3x3_s2
I0403 19:50:07.568560  9728 net.cpp:425] pool1/3x3_s2 <- conv1/7x7_s2
I0403 19:50:07.568581  9728 net.cpp:399] pool1/3x3_s2 -> pool1/3x3_s2
I0403 19:50:07.568657  9728 net.cpp:141] Setting up pool1/3x3_s2
I0403 19:50:07.568684  9728 net.cpp:148] Top shape: 24 64 56 56 (4816896)
I0403 19:50:07.568701  9728 net.cpp:156] Memory required for data: 187860000
I0403 19:50:07.568717  9728 layer_factory.hpp:77] Creating layer pool1/norm1
I0403 19:50:07.568742  9728 net.cpp:91] Creating Layer pool1/norm1
I0403 19:50:07.568760  9728 net.cpp:425] pool1/norm1 <- pool1/3x3_s2
I0403 19:50:07.568780  9728 net.cpp:399] pool1/norm1 -> pool1/norm1
I0403 19:50:07.569106  9728 net.cpp:141] Setting up pool1/norm1
I0403 19:50:07.569134  9728 net.cpp:148] Top shape: 24 64 56 56 (4816896)
I0403 19:50:07.569150  9728 net.cpp:156] Memory required for data: 207127584
I0403 19:50:07.569165  9728 layer_factory.hpp:77] Creating layer conv2/3x3_reduce
I0403 19:50:07.569193  9728 net.cpp:91] Creating Layer conv2/3x3_reduce
I0403 19:50:07.569214  9728 net.cpp:425] conv2/3x3_reduce <- pool1/norm1
I0403 19:50:07.569238  9728 net.cpp:399] conv2/3x3_reduce -> conv2/3x3_reduce
I0403 19:50:07.570642  9728 net.cpp:141] Setting up conv2/3x3_reduce
I0403 19:50:07.570675  9728 net.cpp:148] Top shape: 24 64 56 56 (4816896)
I0403 19:50:07.570691  9728 net.cpp:156] Memory required for data: 226395168
I0403 19:50:07.570713  9728 layer_factory.hpp:77] Creating layer conv2/relu_3x3_reduce
I0403 19:50:07.570731  9728 net.cpp:91] Creating Layer conv2/relu_3x3_reduce
I0403 19:50:07.570747  9728 net.cpp:425] conv2/relu_3x3_reduce <- conv2/3x3_reduce
I0403 19:50:07.570767  9728 net.cpp:386] conv2/relu_3x3_reduce -> conv2/3x3_reduce (in-place)
I0403 19:50:07.571030  9728 net.cpp:141] Setting up conv2/relu_3x3_reduce
I0403 19:50:07.571058  9728 net.cpp:148] Top shape: 24 64 56 56 (4816896)
I0403 19:50:07.571075  9728 net.cpp:156] Memory required for data: 245662752
I0403 19:50:07.571090  9728 layer_factory.hpp:77] Creating layer conv2/3x3
I0403 19:50:07.571115  9728 net.cpp:91] Creating Layer conv2/3x3
I0403 19:50:07.571132  9728 net.cpp:425] conv2/3x3 <- conv2/3x3_reduce
I0403 19:50:07.571151  9728 net.cpp:399] conv2/3x3 -> conv2/3x3
I0403 19:50:07.573498  9728 net.cpp:141] Setting up conv2/3x3
I0403 19:50:07.573571  9728 net.cpp:148] Top shape: 24 192 56 56 (14450688)
I0403 19:50:07.573596  9728 net.cpp:156] Memory required for data: 303465504
I0403 19:50:07.573618  9728 layer_factory.hpp:77] Creating layer conv2/relu_3x3
I0403 19:50:07.573637  9728 net.cpp:91] Creating Layer conv2/relu_3x3
I0403 19:50:07.573654  9728 net.cpp:425] conv2/relu_3x3 <- conv2/3x3
I0403 19:50:07.573676  9728 net.cpp:386] conv2/relu_3x3 -> conv2/3x3 (in-place)
I0403 19:50:07.573868  9728 net.cpp:141] Setting up conv2/relu_3x3
I0403 19:50:07.573894  9728 net.cpp:148] Top shape: 24 192 56 56 (14450688)
I0403 19:50:07.573940  9728 net.cpp:156] Memory required for data: 361268256
I0403 19:50:07.573956  9728 layer_factory.hpp:77] Creating layer conv2/norm2
I0403 19:50:07.573976  9728 net.cpp:91] Creating Layer conv2/norm2
I0403 19:50:07.573993  9728 net.cpp:425] conv2/norm2 <- conv2/3x3
I0403 19:50:07.574012  9728 net.cpp:399] conv2/norm2 -> conv2/norm2
I0403 19:50:07.574316  9728 net.cpp:141] Setting up conv2/norm2
I0403 19:50:07.574342  9728 net.cpp:148] Top shape: 24 192 56 56 (14450688)
I0403 19:50:07.574358  9728 net.cpp:156] Memory required for data: 419071008
I0403 19:50:07.574373  9728 layer_factory.hpp:77] Creating layer pool2/3x3_s2
I0403 19:50:07.574393  9728 net.cpp:91] Creating Layer pool2/3x3_s2
I0403 19:50:07.574410  9728 net.cpp:425] pool2/3x3_s2 <- conv2/norm2
I0403 19:50:07.574429  9728 net.cpp:399] pool2/3x3_s2 -> pool2/3x3_s2
I0403 19:50:07.574481  9728 net.cpp:141] Setting up pool2/3x3_s2
I0403 19:50:07.574506  9728 net.cpp:148] Top shape: 24 192 28 28 (3612672)
I0403 19:50:07.574520  9728 net.cpp:156] Memory required for data: 433521696
I0403 19:50:07.574534  9728 layer_factory.hpp:77] Creating layer pool2/3x3_s2_pool2/3x3_s2_0_split
I0403 19:50:07.574553  9728 net.cpp:91] Creating Layer pool2/3x3_s2_pool2/3x3_s2_0_split
I0403 19:50:07.574571  9728 net.cpp:425] pool2/3x3_s2_pool2/3x3_s2_0_split <- pool2/3x3_s2
I0403 19:50:07.574589  9728 net.cpp:399] pool2/3x3_s2_pool2/3x3_s2_0_split -> pool2/3x3_s2_pool2/3x3_s2_0_split_0
I0403 19:50:07.574609  9728 net.cpp:399] pool2/3x3_s2_pool2/3x3_s2_0_split -> pool2/3x3_s2_pool2/3x3_s2_0_split_1
I0403 19:50:07.574628  9728 net.cpp:399] pool2/3x3_s2_pool2/3x3_s2_0_split -> pool2/3x3_s2_pool2/3x3_s2_0_split_2
I0403 19:50:07.574647  9728 net.cpp:399] pool2/3x3_s2_pool2/3x3_s2_0_split -> pool2/3x3_s2_pool2/3x3_s2_0_split_3
I0403 19:50:07.574717  9728 net.cpp:141] Setting up pool2/3x3_s2_pool2/3x3_s2_0_split
I0403 19:50:07.574740  9728 net.cpp:148] Top shape: 24 192 28 28 (3612672)
I0403 19:50:07.574758  9728 net.cpp:148] Top shape: 24 192 28 28 (3612672)
I0403 19:50:07.574774  9728 net.cpp:148] Top shape: 24 192 28 28 (3612672)
I0403 19:50:07.574790  9728 net.cpp:148] Top shape: 24 192 28 28 (3612672)
I0403 19:50:07.574802  9728 net.cpp:156] Memory required for data: 491324448
I0403 19:50:07.574817  9728 layer_factory.hpp:77] Creating layer inception_3a/1x1
I0403 19:50:07.574841  9728 net.cpp:91] Creating Layer inception_3a/1x1
I0403 19:50:07.574857  9728 net.cpp:425] inception_3a/1x1 <- pool2/3x3_s2_pool2/3x3_s2_0_split_0
I0403 19:50:07.574878  9728 net.cpp:399] inception_3a/1x1 -> inception_3a/1x1
I0403 19:50:07.576437  9728 net.cpp:141] Setting up inception_3a/1x1
I0403 19:50:07.576470  9728 net.cpp:148] Top shape: 24 64 28 28 (1204224)
I0403 19:50:07.576491  9728 net.cpp:156] Memory required for data: 496141344
I0403 19:50:07.576510  9728 layer_factory.hpp:77] Creating layer inception_3a/relu_1x1
I0403 19:50:07.576529  9728 net.cpp:91] Creating Layer inception_3a/relu_1x1
I0403 19:50:07.576545  9728 net.cpp:425] inception_3a/relu_1x1 <- inception_3a/1x1
I0403 19:50:07.576562  9728 net.cpp:386] inception_3a/relu_1x1 -> inception_3a/1x1 (in-place)
I0403 19:50:07.576737  9728 net.cpp:141] Setting up inception_3a/relu_1x1
I0403 19:50:07.576762  9728 net.cpp:148] Top shape: 24 64 28 28 (1204224)
I0403 19:50:07.576777  9728 net.cpp:156] Memory required for data: 500958240
I0403 19:50:07.576792  9728 layer_factory.hpp:77] Creating layer inception_3a/3x3_reduce
I0403 19:50:07.576815  9728 net.cpp:91] Creating Layer inception_3a/3x3_reduce
I0403 19:50:07.576833  9728 net.cpp:425] inception_3a/3x3_reduce <- pool2/3x3_s2_pool2/3x3_s2_0_split_1
I0403 19:50:07.576853  9728 net.cpp:399] inception_3a/3x3_reduce -> inception_3a/3x3_reduce
I0403 19:50:07.578613  9728 net.cpp:141] Setting up inception_3a/3x3_reduce
I0403 19:50:07.578646  9728 net.cpp:148] Top shape: 24 96 28 28 (1806336)
I0403 19:50:07.578665  9728 net.cpp:156] Memory required for data: 508183584
I0403 19:50:07.578687  9728 layer_factory.hpp:77] Creating layer inception_3a/relu_3x3_reduce
I0403 19:50:07.578723  9728 net.cpp:91] Creating Layer inception_3a/relu_3x3_reduce
I0403 19:50:07.578747  9728 net.cpp:425] inception_3a/relu_3x3_reduce <- inception_3a/3x3_reduce
I0403 19:50:07.578765  9728 net.cpp:386] inception_3a/relu_3x3_reduce -> inception_3a/3x3_reduce (in-place)
I0403 19:50:07.578959  9728 net.cpp:141] Setting up inception_3a/relu_3x3_reduce
I0403 19:50:07.578985  9728 net.cpp:148] Top shape: 24 96 28 28 (1806336)
I0403 19:50:07.579000  9728 net.cpp:156] Memory required for data: 515408928
I0403 19:50:07.579015  9728 layer_factory.hpp:77] Creating layer inception_3a/3x3
I0403 19:50:07.579041  9728 net.cpp:91] Creating Layer inception_3a/3x3
I0403 19:50:07.579058  9728 net.cpp:425] inception_3a/3x3 <- inception_3a/3x3_reduce
I0403 19:50:07.579078  9728 net.cpp:399] inception_3a/3x3 -> inception_3a/3x3
I0403 19:50:07.580729  9728 net.cpp:141] Setting up inception_3a/3x3
I0403 19:50:07.580760  9728 net.cpp:148] Top shape: 24 128 28 28 (2408448)
I0403 19:50:07.580776  9728 net.cpp:156] Memory required for data: 525042720
I0403 19:50:07.580796  9728 layer_factory.hpp:77] Creating layer inception_3a/relu_3x3
I0403 19:50:07.580814  9728 net.cpp:91] Creating Layer inception_3a/relu_3x3
I0403 19:50:07.580832  9728 net.cpp:425] inception_3a/relu_3x3 <- inception_3a/3x3
I0403 19:50:07.580852  9728 net.cpp:386] inception_3a/relu_3x3 -> inception_3a/3x3 (in-place)
I0403 19:50:07.581131  9728 net.cpp:141] Setting up inception_3a/relu_3x3
I0403 19:50:07.581157  9728 net.cpp:148] Top shape: 24 128 28 28 (2408448)
I0403 19:50:07.581172  9728 net.cpp:156] Memory required for data: 534676512
I0403 19:50:07.581187  9728 layer_factory.hpp:77] Creating layer inception_3a/5x5_reduce
I0403 19:50:07.581213  9728 net.cpp:91] Creating Layer inception_3a/5x5_reduce
I0403 19:50:07.581233  9728 net.cpp:425] inception_3a/5x5_reduce <- pool2/3x3_s2_pool2/3x3_s2_0_split_2
I0403 19:50:07.581256  9728 net.cpp:399] inception_3a/5x5_reduce -> inception_3a/5x5_reduce
I0403 19:50:07.582242  9728 net.cpp:141] Setting up inception_3a/5x5_reduce
I0403 19:50:07.582270  9728 net.cpp:148] Top shape: 24 16 28 28 (301056)
I0403 19:50:07.582286  9728 net.cpp:156] Memory required for data: 535880736
I0403 19:50:07.582305  9728 layer_factory.hpp:77] Creating layer inception_3a/relu_5x5_reduce
I0403 19:50:07.582324  9728 net.cpp:91] Creating Layer inception_3a/relu_5x5_reduce
I0403 19:50:07.582340  9728 net.cpp:425] inception_3a/relu_5x5_reduce <- inception_3a/5x5_reduce
I0403 19:50:07.582360  9728 net.cpp:386] inception_3a/relu_5x5_reduce -> inception_3a/5x5_reduce (in-place)
I0403 19:50:07.582645  9728 net.cpp:141] Setting up inception_3a/relu_5x5_reduce
I0403 19:50:07.582671  9728 net.cpp:148] Top shape: 24 16 28 28 (301056)
I0403 19:50:07.582686  9728 net.cpp:156] Memory required for data: 537084960
I0403 19:50:07.582701  9728 layer_factory.hpp:77] Creating layer inception_3a/5x5
I0403 19:50:07.582723  9728 net.cpp:91] Creating Layer inception_3a/5x5
I0403 19:50:07.582741  9728 net.cpp:425] inception_3a/5x5 <- inception_3a/5x5_reduce
I0403 19:50:07.582762  9728 net.cpp:399] inception_3a/5x5 -> inception_3a/5x5
I0403 19:50:07.583770  9728 net.cpp:141] Setting up inception_3a/5x5
I0403 19:50:07.583801  9728 net.cpp:148] Top shape: 24 32 28 28 (602112)
I0403 19:50:07.583820  9728 net.cpp:156] Memory required for data: 539493408
I0403 19:50:07.583838  9728 layer_factory.hpp:77] Creating layer inception_3a/relu_5x5
I0403 19:50:07.583858  9728 net.cpp:91] Creating Layer inception_3a/relu_5x5
I0403 19:50:07.583873  9728 net.cpp:425] inception_3a/relu_5x5 <- inception_3a/5x5
I0403 19:50:07.583892  9728 net.cpp:386] inception_3a/relu_5x5 -> inception_3a/5x5 (in-place)
I0403 19:50:07.584066  9728 net.cpp:141] Setting up inception_3a/relu_5x5
I0403 19:50:07.584091  9728 net.cpp:148] Top shape: 24 32 28 28 (602112)
I0403 19:50:07.584106  9728 net.cpp:156] Memory required for data: 541901856
I0403 19:50:07.584121  9728 layer_factory.hpp:77] Creating layer inception_3a/pool
I0403 19:50:07.584139  9728 net.cpp:91] Creating Layer inception_3a/pool
I0403 19:50:07.584172  9728 net.cpp:425] inception_3a/pool <- pool2/3x3_s2_pool2/3x3_s2_0_split_3
I0403 19:50:07.584192  9728 net.cpp:399] inception_3a/pool -> inception_3a/pool
I0403 19:50:07.584255  9728 net.cpp:141] Setting up inception_3a/pool
I0403 19:50:07.584280  9728 net.cpp:148] Top shape: 24 192 28 28 (3612672)
I0403 19:50:07.584295  9728 net.cpp:156] Memory required for data: 556352544
I0403 19:50:07.584309  9728 layer_factory.hpp:77] Creating layer inception_3a/pool_proj
I0403 19:50:07.584331  9728 net.cpp:91] Creating Layer inception_3a/pool_proj
I0403 19:50:07.584348  9728 net.cpp:425] inception_3a/pool_proj <- inception_3a/pool
I0403 19:50:07.584370  9728 net.cpp:399] inception_3a/pool_proj -> inception_3a/pool_proj
I0403 19:50:07.585327  9728 net.cpp:141] Setting up inception_3a/pool_proj
I0403 19:50:07.585356  9728 net.cpp:148] Top shape: 24 32 28 28 (602112)
I0403 19:50:07.585373  9728 net.cpp:156] Memory required for data: 558760992
I0403 19:50:07.585397  9728 layer_factory.hpp:77] Creating layer inception_3a/relu_pool_proj
I0403 19:50:07.585418  9728 net.cpp:91] Creating Layer inception_3a/relu_pool_proj
I0403 19:50:07.585434  9728 net.cpp:425] inception_3a/relu_pool_proj <- inception_3a/pool_proj
I0403 19:50:07.585453  9728 net.cpp:386] inception_3a/relu_pool_proj -> inception_3a/pool_proj (in-place)
I0403 19:50:07.585726  9728 net.cpp:141] Setting up inception_3a/relu_pool_proj
I0403 19:50:07.585752  9728 net.cpp:148] Top shape: 24 32 28 28 (602112)
I0403 19:50:07.585767  9728 net.cpp:156] Memory required for data: 561169440
I0403 19:50:07.585783  9728 layer_factory.hpp:77] Creating layer inception_3a/output
I0403 19:50:07.585800  9728 net.cpp:91] Creating Layer inception_3a/output
I0403 19:50:07.585814  9728 net.cpp:425] inception_3a/output <- inception_3a/1x1
I0403 19:50:07.585831  9728 net.cpp:425] inception_3a/output <- inception_3a/3x3
I0403 19:50:07.585846  9728 net.cpp:425] inception_3a/output <- inception_3a/5x5
I0403 19:50:07.585862  9728 net.cpp:425] inception_3a/output <- inception_3a/pool_proj
I0403 19:50:07.585881  9728 net.cpp:399] inception_3a/output -> inception_3a/output
I0403 19:50:07.585927  9728 net.cpp:141] Setting up inception_3a/output
I0403 19:50:07.585953  9728 net.cpp:148] Top shape: 24 256 28 28 (4816896)
I0403 19:50:07.585969  9728 net.cpp:156] Memory required for data: 580437024
I0403 19:50:07.585984  9728 layer_factory.hpp:77] Creating layer inception_3a/output_inception_3a/output_0_split
I0403 19:50:07.586001  9728 net.cpp:91] Creating Layer inception_3a/output_inception_3a/output_0_split
I0403 19:50:07.586015  9728 net.cpp:425] inception_3a/output_inception_3a/output_0_split <- inception_3a/output
I0403 19:50:07.586032  9728 net.cpp:399] inception_3a/output_inception_3a/output_0_split -> inception_3a/output_inception_3a/output_0_split_0
I0403 19:50:07.586051  9728 net.cpp:399] inception_3a/output_inception_3a/output_0_split -> inception_3a/output_inception_3a/output_0_split_1
I0403 19:50:07.586076  9728 net.cpp:399] inception_3a/output_inception_3a/output_0_split -> inception_3a/output_inception_3a/output_0_split_2
I0403 19:50:07.586097  9728 net.cpp:399] inception_3a/output_inception_3a/output_0_split -> inception_3a/output_inception_3a/output_0_split_3
I0403 19:50:07.586171  9728 net.cpp:141] Setting up inception_3a/output_inception_3a/output_0_split
I0403 19:50:07.586197  9728 net.cpp:148] Top shape: 24 256 28 28 (4816896)
I0403 19:50:07.586220  9728 net.cpp:148] Top shape: 24 256 28 28 (4816896)
I0403 19:50:07.586236  9728 net.cpp:148] Top shape: 24 256 28 28 (4816896)
I0403 19:50:07.586252  9728 net.cpp:148] Top shape: 24 256 28 28 (4816896)
I0403 19:50:07.586266  9728 net.cpp:156] Memory required for data: 657507360
I0403 19:50:07.586280  9728 layer_factory.hpp:77] Creating layer inception_3b/1x1
I0403 19:50:07.586302  9728 net.cpp:91] Creating Layer inception_3b/1x1
I0403 19:50:07.586320  9728 net.cpp:425] inception_3b/1x1 <- inception_3a/output_inception_3a/output_0_split_0
I0403 19:50:07.586339  9728 net.cpp:399] inception_3b/1x1 -> inception_3b/1x1
I0403 19:50:07.587466  9728 net.cpp:141] Setting up inception_3b/1x1
I0403 19:50:07.587507  9728 net.cpp:148] Top shape: 24 128 28 28 (2408448)
I0403 19:50:07.587522  9728 net.cpp:156] Memory required for data: 667141152
I0403 19:50:07.587540  9728 layer_factory.hpp:77] Creating layer inception_3b/relu_1x1
I0403 19:50:07.587561  9728 net.cpp:91] Creating Layer inception_3b/relu_1x1
I0403 19:50:07.587579  9728 net.cpp:425] inception_3b/relu_1x1 <- inception_3b/1x1
I0403 19:50:07.587596  9728 net.cpp:386] inception_3b/relu_1x1 -> inception_3b/1x1 (in-place)
I0403 19:50:07.587774  9728 net.cpp:141] Setting up inception_3b/relu_1x1
I0403 19:50:07.587797  9728 net.cpp:148] Top shape: 24 128 28 28 (2408448)
I0403 19:50:07.587812  9728 net.cpp:156] Memory required for data: 676774944
I0403 19:50:07.587827  9728 layer_factory.hpp:77] Creating layer inception_3b/3x3_reduce
I0403 19:50:07.587851  9728 net.cpp:91] Creating Layer inception_3b/3x3_reduce
I0403 19:50:07.587868  9728 net.cpp:425] inception_3b/3x3_reduce <- inception_3a/output_inception_3a/output_0_split_1
I0403 19:50:07.587889  9728 net.cpp:399] inception_3b/3x3_reduce -> inception_3b/3x3_reduce
I0403 19:50:07.589004  9728 net.cpp:141] Setting up inception_3b/3x3_reduce
I0403 19:50:07.589036  9728 net.cpp:148] Top shape: 24 128 28 28 (2408448)
I0403 19:50:07.589056  9728 net.cpp:156] Memory required for data: 686408736
I0403 19:50:07.589074  9728 layer_factory.hpp:77] Creating layer inception_3b/relu_3x3_reduce
I0403 19:50:07.589093  9728 net.cpp:91] Creating Layer inception_3b/relu_3x3_reduce
I0403 19:50:07.589110  9728 net.cpp:425] inception_3b/relu_3x3_reduce <- inception_3b/3x3_reduce
I0403 19:50:07.589128  9728 net.cpp:386] inception_3b/relu_3x3_reduce -> inception_3b/3x3_reduce (in-place)
I0403 19:50:07.589308  9728 net.cpp:141] Setting up inception_3b/relu_3x3_reduce
I0403 19:50:07.589335  9728 net.cpp:148] Top shape: 24 128 28 28 (2408448)
I0403 19:50:07.589351  9728 net.cpp:156] Memory required for data: 696042528
I0403 19:50:07.589367  9728 layer_factory.hpp:77] Creating layer inception_3b/3x3
I0403 19:50:07.589391  9728 net.cpp:91] Creating Layer inception_3b/3x3
I0403 19:50:07.589409  9728 net.cpp:425] inception_3b/3x3 <- inception_3b/3x3_reduce
I0403 19:50:07.589431  9728 net.cpp:399] inception_3b/3x3 -> inception_3b/3x3
I0403 19:50:07.592350  9728 net.cpp:141] Setting up inception_3b/3x3
I0403 19:50:07.592381  9728 net.cpp:148] Top shape: 24 192 28 28 (3612672)
I0403 19:50:07.592397  9728 net.cpp:156] Memory required for data: 710493216
I0403 19:50:07.592418  9728 layer_factory.hpp:77] Creating layer inception_3b/relu_3x3
I0403 19:50:07.592438  9728 net.cpp:91] Creating Layer inception_3b/relu_3x3
I0403 19:50:07.592455  9728 net.cpp:425] inception_3b/relu_3x3 <- inception_3b/3x3
I0403 19:50:07.592476  9728 net.cpp:386] inception_3b/relu_3x3 -> inception_3b/3x3 (in-place)
I0403 19:50:07.592749  9728 net.cpp:141] Setting up inception_3b/relu_3x3
I0403 19:50:07.592777  9728 net.cpp:148] Top shape: 24 192 28 28 (3612672)
I0403 19:50:07.592792  9728 net.cpp:156] Memory required for data: 724943904
I0403 19:50:07.592808  9728 layer_factory.hpp:77] Creating layer inception_3b/5x5_reduce
I0403 19:50:07.592830  9728 net.cpp:91] Creating Layer inception_3b/5x5_reduce
I0403 19:50:07.592849  9728 net.cpp:425] inception_3b/5x5_reduce <- inception_3a/output_inception_3a/output_0_split_2
I0403 19:50:07.592871  9728 net.cpp:399] inception_3b/5x5_reduce -> inception_3b/5x5_reduce
I0403 19:50:07.593863  9728 net.cpp:141] Setting up inception_3b/5x5_reduce
I0403 19:50:07.593896  9728 net.cpp:148] Top shape: 24 32 28 28 (602112)
I0403 19:50:07.593914  9728 net.cpp:156] Memory required for data: 727352352
I0403 19:50:07.593932  9728 layer_factory.hpp:77] Creating layer inception_3b/relu_5x5_reduce
I0403 19:50:07.593950  9728 net.cpp:91] Creating Layer inception_3b/relu_5x5_reduce
I0403 19:50:07.593967  9728 net.cpp:425] inception_3b/relu_5x5_reduce <- inception_3b/5x5_reduce
I0403 19:50:07.593987  9728 net.cpp:386] inception_3b/relu_5x5_reduce -> inception_3b/5x5_reduce (in-place)
I0403 19:50:07.594179  9728 net.cpp:141] Setting up inception_3b/relu_5x5_reduce
I0403 19:50:07.594204  9728 net.cpp:148] Top shape: 24 32 28 28 (602112)
I0403 19:50:07.594224  9728 net.cpp:156] Memory required for data: 729760800
I0403 19:50:07.594241  9728 layer_factory.hpp:77] Creating layer inception_3b/5x5
I0403 19:50:07.594264  9728 net.cpp:91] Creating Layer inception_3b/5x5
I0403 19:50:07.594282  9728 net.cpp:425] inception_3b/5x5 <- inception_3b/5x5_reduce
I0403 19:50:07.594303  9728 net.cpp:399] inception_3b/5x5 -> inception_3b/5x5
I0403 19:50:07.596323  9728 net.cpp:141] Setting up inception_3b/5x5
I0403 19:50:07.596354  9728 net.cpp:148] Top shape: 24 96 28 28 (1806336)
I0403 19:50:07.596375  9728 net.cpp:156] Memory required for data: 736986144
I0403 19:50:07.596400  9728 layer_factory.hpp:77] Creating layer inception_3b/relu_5x5
I0403 19:50:07.596420  9728 net.cpp:91] Creating Layer inception_3b/relu_5x5
I0403 19:50:07.596436  9728 net.cpp:425] inception_3b/relu_5x5 <- inception_3b/5x5
I0403 19:50:07.596452  9728 net.cpp:386] inception_3b/relu_5x5 -> inception_3b/5x5 (in-place)
I0403 19:50:07.596654  9728 net.cpp:141] Setting up inception_3b/relu_5x5
I0403 19:50:07.596679  9728 net.cpp:148] Top shape: 24 96 28 28 (1806336)
I0403 19:50:07.596694  9728 net.cpp:156] Memory required for data: 744211488
I0403 19:50:07.596709  9728 layer_factory.hpp:77] Creating layer inception_3b/pool
I0403 19:50:07.596727  9728 net.cpp:91] Creating Layer inception_3b/pool
I0403 19:50:07.596743  9728 net.cpp:425] inception_3b/pool <- inception_3a/output_inception_3a/output_0_split_3
I0403 19:50:07.596761  9728 net.cpp:399] inception_3b/pool -> inception_3b/pool
I0403 19:50:07.596817  9728 net.cpp:141] Setting up inception_3b/pool
I0403 19:50:07.596843  9728 net.cpp:148] Top shape: 24 256 28 28 (4816896)
I0403 19:50:07.596858  9728 net.cpp:156] Memory required for data: 763479072
I0403 19:50:07.596873  9728 layer_factory.hpp:77] Creating layer inception_3b/pool_proj
I0403 19:50:07.596892  9728 net.cpp:91] Creating Layer inception_3b/pool_proj
I0403 19:50:07.596909  9728 net.cpp:425] inception_3b/pool_proj <- inception_3b/pool
I0403 19:50:07.596931  9728 net.cpp:399] inception_3b/pool_proj -> inception_3b/pool_proj
I0403 19:50:07.597976  9728 net.cpp:141] Setting up inception_3b/pool_proj
I0403 19:50:07.598004  9728 net.cpp:148] Top shape: 24 64 28 28 (1204224)
I0403 19:50:07.598021  9728 net.cpp:156] Memory required for data: 768295968
I0403 19:50:07.598045  9728 layer_factory.hpp:77] Creating layer inception_3b/relu_pool_proj
I0403 19:50:07.598070  9728 net.cpp:91] Creating Layer inception_3b/relu_pool_proj
I0403 19:50:07.598088  9728 net.cpp:425] inception_3b/relu_pool_proj <- inception_3b/pool_proj
I0403 19:50:07.598105  9728 net.cpp:386] inception_3b/relu_pool_proj -> inception_3b/pool_proj (in-place)
I0403 19:50:07.598498  9728 net.cpp:141] Setting up inception_3b/relu_pool_proj
I0403 19:50:07.598525  9728 net.cpp:148] Top shape: 24 64 28 28 (1204224)
I0403 19:50:07.598539  9728 net.cpp:156] Memory required for data: 773112864
I0403 19:50:07.598554  9728 layer_factory.hpp:77] Creating layer inception_3b/output
I0403 19:50:07.598572  9728 net.cpp:91] Creating Layer inception_3b/output
I0403 19:50:07.598587  9728 net.cpp:425] inception_3b/output <- inception_3b/1x1
I0403 19:50:07.598603  9728 net.cpp:425] inception_3b/output <- inception_3b/3x3
I0403 19:50:07.598619  9728 net.cpp:425] inception_3b/output <- inception_3b/5x5
I0403 19:50:07.598634  9728 net.cpp:425] inception_3b/output <- inception_3b/pool_proj
I0403 19:50:07.598654  9728 net.cpp:399] inception_3b/output -> inception_3b/output
I0403 19:50:07.598697  9728 net.cpp:141] Setting up inception_3b/output
I0403 19:50:07.598722  9728 net.cpp:148] Top shape: 24 480 28 28 (9031680)
I0403 19:50:07.598738  9728 net.cpp:156] Memory required for data: 809239584
I0403 19:50:07.598753  9728 layer_factory.hpp:77] Creating layer pool3/3x3_s2
I0403 19:50:07.598770  9728 net.cpp:91] Creating Layer pool3/3x3_s2
I0403 19:50:07.598786  9728 net.cpp:425] pool3/3x3_s2 <- inception_3b/output
I0403 19:50:07.598820  9728 net.cpp:399] pool3/3x3_s2 -> pool3/3x3_s2
I0403 19:50:07.598881  9728 net.cpp:141] Setting up pool3/3x3_s2
I0403 19:50:07.598904  9728 net.cpp:148] Top shape: 24 480 14 14 (2257920)
I0403 19:50:07.598919  9728 net.cpp:156] Memory required for data: 818271264
I0403 19:50:07.598933  9728 layer_factory.hpp:77] Creating layer pool3/3x3_s2_pool3/3x3_s2_0_split
I0403 19:50:07.598953  9728 net.cpp:91] Creating Layer pool3/3x3_s2_pool3/3x3_s2_0_split
I0403 19:50:07.598968  9728 net.cpp:425] pool3/3x3_s2_pool3/3x3_s2_0_split <- pool3/3x3_s2
I0403 19:50:07.598984  9728 net.cpp:399] pool3/3x3_s2_pool3/3x3_s2_0_split -> pool3/3x3_s2_pool3/3x3_s2_0_split_0
I0403 19:50:07.599004  9728 net.cpp:399] pool3/3x3_s2_pool3/3x3_s2_0_split -> pool3/3x3_s2_pool3/3x3_s2_0_split_1
I0403 19:50:07.599025  9728 net.cpp:399] pool3/3x3_s2_pool3/3x3_s2_0_split -> pool3/3x3_s2_pool3/3x3_s2_0_split_2
I0403 19:50:07.599046  9728 net.cpp:399] pool3/3x3_s2_pool3/3x3_s2_0_split -> pool3/3x3_s2_pool3/3x3_s2_0_split_3
I0403 19:50:07.599123  9728 net.cpp:141] Setting up pool3/3x3_s2_pool3/3x3_s2_0_split
I0403 19:50:07.599146  9728 net.cpp:148] Top shape: 24 480 14 14 (2257920)
I0403 19:50:07.599162  9728 net.cpp:148] Top shape: 24 480 14 14 (2257920)
I0403 19:50:07.599177  9728 net.cpp:148] Top shape: 24 480 14 14 (2257920)
I0403 19:50:07.599192  9728 net.cpp:148] Top shape: 24 480 14 14 (2257920)
I0403 19:50:07.599207  9728 net.cpp:156] Memory required for data: 854397984
I0403 19:50:07.599226  9728 layer_factory.hpp:77] Creating layer inception_4a/1x1
I0403 19:50:07.599249  9728 net.cpp:91] Creating Layer inception_4a/1x1
I0403 19:50:07.599267  9728 net.cpp:425] inception_4a/1x1 <- pool3/3x3_s2_pool3/3x3_s2_0_split_0
I0403 19:50:07.599287  9728 net.cpp:399] inception_4a/1x1 -> inception_4a/1x1
I0403 19:50:07.600837  9728 net.cpp:141] Setting up inception_4a/1x1
I0403 19:50:07.600867  9728 net.cpp:148] Top shape: 24 192 14 14 (903168)
I0403 19:50:07.600883  9728 net.cpp:156] Memory required for data: 858010656
I0403 19:50:07.600901  9728 layer_factory.hpp:77] Creating layer inception_4a/relu_1x1
I0403 19:50:07.600921  9728 net.cpp:91] Creating Layer inception_4a/relu_1x1
I0403 19:50:07.600939  9728 net.cpp:425] inception_4a/relu_1x1 <- inception_4a/1x1
I0403 19:50:07.600955  9728 net.cpp:386] inception_4a/relu_1x1 -> inception_4a/1x1 (in-place)
I0403 19:50:07.601130  9728 net.cpp:141] Setting up inception_4a/relu_1x1
I0403 19:50:07.601158  9728 net.cpp:148] Top shape: 24 192 14 14 (903168)
I0403 19:50:07.601173  9728 net.cpp:156] Memory required for data: 861623328
I0403 19:50:07.601189  9728 layer_factory.hpp:77] Creating layer inception_4a/3x3_reduce
I0403 19:50:07.601217  9728 net.cpp:91] Creating Layer inception_4a/3x3_reduce
I0403 19:50:07.601235  9728 net.cpp:425] inception_4a/3x3_reduce <- pool3/3x3_s2_pool3/3x3_s2_0_split_1
I0403 19:50:07.601256  9728 net.cpp:399] inception_4a/3x3_reduce -> inception_4a/3x3_reduce
I0403 19:50:07.602517  9728 net.cpp:141] Setting up inception_4a/3x3_reduce
I0403 19:50:07.602545  9728 net.cpp:148] Top shape: 24 96 14 14 (451584)
I0403 19:50:07.602561  9728 net.cpp:156] Memory required for data: 863429664
I0403 19:50:07.602586  9728 layer_factory.hpp:77] Creating layer inception_4a/relu_3x3_reduce
I0403 19:50:07.602610  9728 net.cpp:91] Creating Layer inception_4a/relu_3x3_reduce
I0403 19:50:07.602629  9728 net.cpp:425] inception_4a/relu_3x3_reduce <- inception_4a/3x3_reduce
I0403 19:50:07.602646  9728 net.cpp:386] inception_4a/relu_3x3_reduce -> inception_4a/3x3_reduce (in-place)
I0403 19:50:07.602820  9728 net.cpp:141] Setting up inception_4a/relu_3x3_reduce
I0403 19:50:07.602845  9728 net.cpp:148] Top shape: 24 96 14 14 (451584)
I0403 19:50:07.602860  9728 net.cpp:156] Memory required for data: 865236000
I0403 19:50:07.602876  9728 layer_factory.hpp:77] Creating layer inception_4a/3x3
I0403 19:50:07.602900  9728 net.cpp:91] Creating Layer inception_4a/3x3
I0403 19:50:07.602917  9728 net.cpp:425] inception_4a/3x3 <- inception_4a/3x3_reduce
I0403 19:50:07.602936  9728 net.cpp:399] inception_4a/3x3 -> inception_4a/3x3
I0403 19:50:07.605644  9728 net.cpp:141] Setting up inception_4a/3x3
I0403 19:50:07.605677  9728 net.cpp:148] Top shape: 24 208 14 14 (978432)
I0403 19:50:07.605695  9728 net.cpp:156] Memory required for data: 869149728
I0403 19:50:07.605713  9728 layer_factory.hpp:77] Creating layer inception_4a/relu_3x3
I0403 19:50:07.605733  9728 net.cpp:91] Creating Layer inception_4a/relu_3x3
I0403 19:50:07.605751  9728 net.cpp:425] inception_4a/relu_3x3 <- inception_4a/3x3
I0403 19:50:07.605767  9728 net.cpp:386] inception_4a/relu_3x3 -> inception_4a/3x3 (in-place)
I0403 19:50:07.606043  9728 net.cpp:141] Setting up inception_4a/relu_3x3
I0403 19:50:07.606075  9728 net.cpp:148] Top shape: 24 208 14 14 (978432)
I0403 19:50:07.606089  9728 net.cpp:156] Memory required for data: 873063456
I0403 19:50:07.606106  9728 layer_factory.hpp:77] Creating layer inception_4a/5x5_reduce
I0403 19:50:07.606128  9728 net.cpp:91] Creating Layer inception_4a/5x5_reduce
I0403 19:50:07.606147  9728 net.cpp:425] inception_4a/5x5_reduce <- pool3/3x3_s2_pool3/3x3_s2_0_split_2
I0403 19:50:07.606165  9728 net.cpp:399] inception_4a/5x5_reduce -> inception_4a/5x5_reduce
I0403 19:50:07.607173  9728 net.cpp:141] Setting up inception_4a/5x5_reduce
I0403 19:50:07.607203  9728 net.cpp:148] Top shape: 24 16 14 14 (75264)
I0403 19:50:07.607226  9728 net.cpp:156] Memory required for data: 873364512
I0403 19:50:07.607246  9728 layer_factory.hpp:77] Creating layer inception_4a/relu_5x5_reduce
I0403 19:50:07.607265  9728 net.cpp:91] Creating Layer inception_4a/relu_5x5_reduce
I0403 19:50:07.607281  9728 net.cpp:425] inception_4a/relu_5x5_reduce <- inception_4a/5x5_reduce
I0403 19:50:07.607302  9728 net.cpp:386] inception_4a/relu_5x5_reduce -> inception_4a/5x5_reduce (in-place)
I0403 19:50:07.607481  9728 net.cpp:141] Setting up inception_4a/relu_5x5_reduce
I0403 19:50:07.607506  9728 net.cpp:148] Top shape: 24 16 14 14 (75264)
I0403 19:50:07.607522  9728 net.cpp:156] Memory required for data: 873665568
I0403 19:50:07.607537  9728 layer_factory.hpp:77] Creating layer inception_4a/5x5
I0403 19:50:07.607560  9728 net.cpp:91] Creating Layer inception_4a/5x5
I0403 19:50:07.607578  9728 net.cpp:425] inception_4a/5x5 <- inception_4a/5x5_reduce
I0403 19:50:07.607599  9728 net.cpp:399] inception_4a/5x5 -> inception_4a/5x5
I0403 19:50:07.608682  9728 net.cpp:141] Setting up inception_4a/5x5
I0403 19:50:07.608711  9728 net.cpp:148] Top shape: 24 48 14 14 (225792)
I0403 19:50:07.608728  9728 net.cpp:156] Memory required for data: 874568736
I0403 19:50:07.608747  9728 layer_factory.hpp:77] Creating layer inception_4a/relu_5x5
I0403 19:50:07.608764  9728 net.cpp:91] Creating Layer inception_4a/relu_5x5
I0403 19:50:07.608780  9728 net.cpp:425] inception_4a/relu_5x5 <- inception_4a/5x5
I0403 19:50:07.608800  9728 net.cpp:386] inception_4a/relu_5x5 -> inception_4a/5x5 (in-place)
I0403 19:50:07.608975  9728 net.cpp:141] Setting up inception_4a/relu_5x5
I0403 19:50:07.609000  9728 net.cpp:148] Top shape: 24 48 14 14 (225792)
I0403 19:50:07.609015  9728 net.cpp:156] Memory required for data: 875471904
I0403 19:50:07.609030  9728 layer_factory.hpp:77] Creating layer inception_4a/pool
I0403 19:50:07.609051  9728 net.cpp:91] Creating Layer inception_4a/pool
I0403 19:50:07.609068  9728 net.cpp:425] inception_4a/pool <- pool3/3x3_s2_pool3/3x3_s2_0_split_3
I0403 19:50:07.609086  9728 net.cpp:399] inception_4a/pool -> inception_4a/pool
I0403 19:50:07.609148  9728 net.cpp:141] Setting up inception_4a/pool
I0403 19:50:07.609172  9728 net.cpp:148] Top shape: 24 480 14 14 (2257920)
I0403 19:50:07.609187  9728 net.cpp:156] Memory required for data: 884503584
I0403 19:50:07.609202  9728 layer_factory.hpp:77] Creating layer inception_4a/pool_proj
I0403 19:50:07.609235  9728 net.cpp:91] Creating Layer inception_4a/pool_proj
I0403 19:50:07.609253  9728 net.cpp:425] inception_4a/pool_proj <- inception_4a/pool
I0403 19:50:07.609274  9728 net.cpp:399] inception_4a/pool_proj -> inception_4a/pool_proj
I0403 19:50:07.610443  9728 net.cpp:141] Setting up inception_4a/pool_proj
I0403 19:50:07.610473  9728 net.cpp:148] Top shape: 24 64 14 14 (301056)
I0403 19:50:07.610503  9728 net.cpp:156] Memory required for data: 885707808
I0403 19:50:07.610523  9728 layer_factory.hpp:77] Creating layer inception_4a/relu_pool_proj
I0403 19:50:07.610544  9728 net.cpp:91] Creating Layer inception_4a/relu_pool_proj
I0403 19:50:07.610563  9728 net.cpp:425] inception_4a/relu_pool_proj <- inception_4a/pool_proj
I0403 19:50:07.610580  9728 net.cpp:386] inception_4a/relu_pool_proj -> inception_4a/pool_proj (in-place)
I0403 19:50:07.610864  9728 net.cpp:141] Setting up inception_4a/relu_pool_proj
I0403 19:50:07.610890  9728 net.cpp:148] Top shape: 24 64 14 14 (301056)
I0403 19:50:07.610905  9728 net.cpp:156] Memory required for data: 886912032
I0403 19:50:07.610920  9728 layer_factory.hpp:77] Creating layer inception_4a/output
I0403 19:50:07.610937  9728 net.cpp:91] Creating Layer inception_4a/output
I0403 19:50:07.610954  9728 net.cpp:425] inception_4a/output <- inception_4a/1x1
I0403 19:50:07.610970  9728 net.cpp:425] inception_4a/output <- inception_4a/3x3
I0403 19:50:07.610985  9728 net.cpp:425] inception_4a/output <- inception_4a/5x5
I0403 19:50:07.611001  9728 net.cpp:425] inception_4a/output <- inception_4a/pool_proj
I0403 19:50:07.611021  9728 net.cpp:399] inception_4a/output -> inception_4a/output
I0403 19:50:07.611070  9728 net.cpp:141] Setting up inception_4a/output
I0403 19:50:07.611094  9728 net.cpp:148] Top shape: 24 512 14 14 (2408448)
I0403 19:50:07.611109  9728 net.cpp:156] Memory required for data: 896545824
I0403 19:50:07.611124  9728 layer_factory.hpp:77] Creating layer inception_4a/output_inception_4a/output_0_split
I0403 19:50:07.611141  9728 net.cpp:91] Creating Layer inception_4a/output_inception_4a/output_0_split
I0403 19:50:07.611157  9728 net.cpp:425] inception_4a/output_inception_4a/output_0_split <- inception_4a/output
I0403 19:50:07.611176  9728 net.cpp:399] inception_4a/output_inception_4a/output_0_split -> inception_4a/output_inception_4a/output_0_split_0
I0403 19:50:07.611198  9728 net.cpp:399] inception_4a/output_inception_4a/output_0_split -> inception_4a/output_inception_4a/output_0_split_1
I0403 19:50:07.611239  9728 net.cpp:399] inception_4a/output_inception_4a/output_0_split -> inception_4a/output_inception_4a/output_0_split_2
I0403 19:50:07.611274  9728 net.cpp:399] inception_4a/output_inception_4a/output_0_split -> inception_4a/output_inception_4a/output_0_split_3
I0403 19:50:07.611294  9728 net.cpp:399] inception_4a/output_inception_4a/output_0_split -> inception_4a/output_inception_4a/output_0_split_4
I0403 19:50:07.611389  9728 net.cpp:141] Setting up inception_4a/output_inception_4a/output_0_split
I0403 19:50:07.611416  9728 net.cpp:148] Top shape: 24 512 14 14 (2408448)
I0403 19:50:07.611433  9728 net.cpp:148] Top shape: 24 512 14 14 (2408448)
I0403 19:50:07.611450  9728 net.cpp:148] Top shape: 24 512 14 14 (2408448)
I0403 19:50:07.611466  9728 net.cpp:148] Top shape: 24 512 14 14 (2408448)
I0403 19:50:07.611482  9728 net.cpp:148] Top shape: 24 512 14 14 (2408448)
I0403 19:50:07.611497  9728 net.cpp:156] Memory required for data: 944714784
I0403 19:50:07.611512  9728 layer_factory.hpp:77] Creating layer loss1/ave_pool
I0403 19:50:07.611531  9728 net.cpp:91] Creating Layer loss1/ave_pool
I0403 19:50:07.611558  9728 net.cpp:425] loss1/ave_pool <- inception_4a/output_inception_4a/output_0_split_0
I0403 19:50:07.611578  9728 net.cpp:399] loss1/ave_pool -> loss1/ave_pool
I0403 19:50:07.611781  9728 net.cpp:141] Setting up loss1/ave_pool
I0403 19:50:07.611807  9728 net.cpp:148] Top shape: 24 512 4 4 (196608)
I0403 19:50:07.611822  9728 net.cpp:156] Memory required for data: 945501216
I0403 19:50:07.611836  9728 layer_factory.hpp:77] Creating layer loss1/conv
I0403 19:50:07.611860  9728 net.cpp:91] Creating Layer loss1/conv
I0403 19:50:07.611877  9728 net.cpp:425] loss1/conv <- loss1/ave_pool
I0403 19:50:07.611898  9728 net.cpp:399] loss1/conv -> loss1/conv
I0403 19:50:07.613304  9728 net.cpp:141] Setting up loss1/conv
I0403 19:50:07.613337  9728 net.cpp:148] Top shape: 24 128 4 4 (49152)
I0403 19:50:07.613368  9728 net.cpp:156] Memory required for data: 945697824
I0403 19:50:07.613389  9728 layer_factory.hpp:77] Creating layer loss1/relu_conv
I0403 19:50:07.613406  9728 net.cpp:91] Creating Layer loss1/relu_conv
I0403 19:50:07.613423  9728 net.cpp:425] loss1/relu_conv <- loss1/conv
I0403 19:50:07.613440  9728 net.cpp:386] loss1/relu_conv -> loss1/conv (in-place)
I0403 19:50:07.613716  9728 net.cpp:141] Setting up loss1/relu_conv
I0403 19:50:07.613747  9728 net.cpp:148] Top shape: 24 128 4 4 (49152)
I0403 19:50:07.613765  9728 net.cpp:156] Memory required for data: 945894432
I0403 19:50:07.613782  9728 layer_factory.hpp:77] Creating layer loss1/fc
I0403 19:50:07.613806  9728 net.cpp:91] Creating Layer loss1/fc
I0403 19:50:07.613824  9728 net.cpp:425] loss1/fc <- loss1/conv
I0403 19:50:07.613845  9728 net.cpp:399] loss1/fc -> loss1/fc
I0403 19:50:07.631889  9728 net.cpp:141] Setting up loss1/fc
I0403 19:50:07.631944  9728 net.cpp:148] Top shape: 24 1024 (24576)
I0403 19:50:07.631961  9728 net.cpp:156] Memory required for data: 945992736
I0403 19:50:07.631983  9728 layer_factory.hpp:77] Creating layer loss1/relu_fc
I0403 19:50:07.632006  9728 net.cpp:91] Creating Layer loss1/relu_fc
I0403 19:50:07.632026  9728 net.cpp:425] loss1/relu_fc <- loss1/fc
I0403 19:50:07.632045  9728 net.cpp:386] loss1/relu_fc -> loss1/fc (in-place)
I0403 19:50:07.632269  9728 net.cpp:141] Setting up loss1/relu_fc
I0403 19:50:07.632297  9728 net.cpp:148] Top shape: 24 1024 (24576)
I0403 19:50:07.632314  9728 net.cpp:156] Memory required for data: 946091040
I0403 19:50:07.632330  9728 layer_factory.hpp:77] Creating layer loss1/drop_fc
I0403 19:50:07.632359  9728 net.cpp:91] Creating Layer loss1/drop_fc
I0403 19:50:07.632378  9728 net.cpp:425] loss1/drop_fc <- loss1/fc
I0403 19:50:07.632395  9728 net.cpp:386] loss1/drop_fc -> loss1/fc (in-place)
I0403 19:50:07.632450  9728 net.cpp:141] Setting up loss1/drop_fc
I0403 19:50:07.632473  9728 net.cpp:148] Top shape: 24 1024 (24576)
I0403 19:50:07.632488  9728 net.cpp:156] Memory required for data: 946189344
I0403 19:50:07.632504  9728 layer_factory.hpp:77] Creating layer loss1/classifier_plantvillage
I0403 19:50:07.632527  9728 net.cpp:91] Creating Layer loss1/classifier_plantvillage
I0403 19:50:07.632544  9728 net.cpp:425] loss1/classifier_plantvillage <- loss1/fc
I0403 19:50:07.632562  9728 net.cpp:399] loss1/classifier_plantvillage -> loss1/classifier_plantvillage
I0403 19:50:07.633484  9728 net.cpp:141] Setting up loss1/classifier_plantvillage
I0403 19:50:07.633515  9728 net.cpp:148] Top shape: 24 38 (912)
I0403 19:50:07.633532  9728 net.cpp:156] Memory required for data: 946192992
I0403 19:50:07.633549  9728 layer_factory.hpp:77] Creating layer loss1/classifier_plantvillage_loss1/classifier_plantvillage_0_split
I0403 19:50:07.633569  9728 net.cpp:91] Creating Layer loss1/classifier_plantvillage_loss1/classifier_plantvillage_0_split
I0403 19:50:07.633584  9728 net.cpp:425] loss1/classifier_plantvillage_loss1/classifier_plantvillage_0_split <- loss1/classifier_plantvillage
I0403 19:50:07.633601  9728 net.cpp:399] loss1/classifier_plantvillage_loss1/classifier_plantvillage_0_split -> loss1/classifier_plantvillage_loss1/classifier_plantvillage_0_split_0
I0403 19:50:07.633621  9728 net.cpp:399] loss1/classifier_plantvillage_loss1/classifier_plantvillage_0_split -> loss1/classifier_plantvillage_loss1/classifier_plantvillage_0_split_1
I0403 19:50:07.633642  9728 net.cpp:399] loss1/classifier_plantvillage_loss1/classifier_plantvillage_0_split -> loss1/classifier_plantvillage_loss1/classifier_plantvillage_0_split_2
I0403 19:50:07.633708  9728 net.cpp:141] Setting up loss1/classifier_plantvillage_loss1/classifier_plantvillage_0_split
I0403 19:50:07.633733  9728 net.cpp:148] Top shape: 24 38 (912)
I0403 19:50:07.633749  9728 net.cpp:148] Top shape: 24 38 (912)
I0403 19:50:07.633764  9728 net.cpp:148] Top shape: 24 38 (912)
I0403 19:50:07.633780  9728 net.cpp:156] Memory required for data: 946203936
I0403 19:50:07.633793  9728 layer_factory.hpp:77] Creating layer inception_4b/1x1
I0403 19:50:07.633816  9728 net.cpp:91] Creating Layer inception_4b/1x1
I0403 19:50:07.633852  9728 net.cpp:425] inception_4b/1x1 <- inception_4a/output_inception_4a/output_0_split_1
I0403 19:50:07.633873  9728 net.cpp:399] inception_4b/1x1 -> inception_4b/1x1
I0403 19:50:07.635588  9728 net.cpp:141] Setting up inception_4b/1x1
I0403 19:50:07.635620  9728 net.cpp:148] Top shape: 24 160 14 14 (752640)
I0403 19:50:07.635637  9728 net.cpp:156] Memory required for data: 949214496
I0403 19:50:07.635656  9728 layer_factory.hpp:77] Creating layer inception_4b/relu_1x1
I0403 19:50:07.635674  9728 net.cpp:91] Creating Layer inception_4b/relu_1x1
I0403 19:50:07.635690  9728 net.cpp:425] inception_4b/relu_1x1 <- inception_4b/1x1
I0403 19:50:07.635709  9728 net.cpp:386] inception_4b/relu_1x1 -> inception_4b/1x1 (in-place)
I0403 19:50:07.635890  9728 net.cpp:141] Setting up inception_4b/relu_1x1
I0403 19:50:07.635915  9728 net.cpp:148] Top shape: 24 160 14 14 (752640)
I0403 19:50:07.635929  9728 net.cpp:156] Memory required for data: 952225056
I0403 19:50:07.635943  9728 layer_factory.hpp:77] Creating layer inception_4b/3x3_reduce
I0403 19:50:07.635977  9728 net.cpp:91] Creating Layer inception_4b/3x3_reduce
I0403 19:50:07.635996  9728 net.cpp:425] inception_4b/3x3_reduce <- inception_4a/output_inception_4a/output_0_split_2
I0403 19:50:07.636018  9728 net.cpp:399] inception_4b/3x3_reduce -> inception_4b/3x3_reduce
I0403 19:50:07.637369  9728 net.cpp:141] Setting up inception_4b/3x3_reduce
I0403 19:50:07.637398  9728 net.cpp:148] Top shape: 24 112 14 14 (526848)
I0403 19:50:07.637415  9728 net.cpp:156] Memory required for data: 954332448
I0403 19:50:07.637435  9728 layer_factory.hpp:77] Creating layer inception_4b/relu_3x3_reduce
I0403 19:50:07.637454  9728 net.cpp:91] Creating Layer inception_4b/relu_3x3_reduce
I0403 19:50:07.637488  9728 net.cpp:425] inception_4b/relu_3x3_reduce <- inception_4b/3x3_reduce
I0403 19:50:07.637507  9728 net.cpp:386] inception_4b/relu_3x3_reduce -> inception_4b/3x3_reduce (in-place)
I0403 19:50:07.637804  9728 net.cpp:141] Setting up inception_4b/relu_3x3_reduce
I0403 19:50:07.637831  9728 net.cpp:148] Top shape: 24 112 14 14 (526848)
I0403 19:50:07.637846  9728 net.cpp:156] Memory required for data: 956439840
I0403 19:50:07.637861  9728 layer_factory.hpp:77] Creating layer inception_4b/3x3
I0403 19:50:07.637884  9728 net.cpp:91] Creating Layer inception_4b/3x3
I0403 19:50:07.637902  9728 net.cpp:425] inception_4b/3x3 <- inception_4b/3x3_reduce
I0403 19:50:07.637926  9728 net.cpp:399] inception_4b/3x3 -> inception_4b/3x3
I0403 19:50:07.640899  9728 net.cpp:141] Setting up inception_4b/3x3
I0403 19:50:07.640930  9728 net.cpp:148] Top shape: 24 224 14 14 (1053696)
I0403 19:50:07.640946  9728 net.cpp:156] Memory required for data: 960654624
I0403 19:50:07.640967  9728 layer_factory.hpp:77] Creating layer inception_4b/relu_3x3
I0403 19:50:07.640988  9728 net.cpp:91] Creating Layer inception_4b/relu_3x3
I0403 19:50:07.641006  9728 net.cpp:425] inception_4b/relu_3x3 <- inception_4b/3x3
I0403 19:50:07.641024  9728 net.cpp:386] inception_4b/relu_3x3 -> inception_4b/3x3 (in-place)
I0403 19:50:07.641204  9728 net.cpp:141] Setting up inception_4b/relu_3x3
I0403 19:50:07.641242  9728 net.cpp:148] Top shape: 24 224 14 14 (1053696)
I0403 19:50:07.641260  9728 net.cpp:156] Memory required for data: 964869408
I0403 19:50:07.641276  9728 layer_factory.hpp:77] Creating layer inception_4b/5x5_reduce
I0403 19:50:07.641299  9728 net.cpp:91] Creating Layer inception_4b/5x5_reduce
I0403 19:50:07.641319  9728 net.cpp:425] inception_4b/5x5_reduce <- inception_4a/output_inception_4a/output_0_split_3
I0403 19:50:07.641338  9728 net.cpp:399] inception_4b/5x5_reduce -> inception_4b/5x5_reduce
I0403 19:50:07.642467  9728 net.cpp:141] Setting up inception_4b/5x5_reduce
I0403 19:50:07.642501  9728 net.cpp:148] Top shape: 24 24 14 14 (112896)
I0403 19:50:07.642519  9728 net.cpp:156] Memory required for data: 965320992
I0403 19:50:07.642539  9728 layer_factory.hpp:77] Creating layer inception_4b/relu_5x5_reduce
I0403 19:50:07.642560  9728 net.cpp:91] Creating Layer inception_4b/relu_5x5_reduce
I0403 19:50:07.642592  9728 net.cpp:425] inception_4b/relu_5x5_reduce <- inception_4b/5x5_reduce
I0403 19:50:07.642614  9728 net.cpp:386] inception_4b/relu_5x5_reduce -> inception_4b/5x5_reduce (in-place)
I0403 19:50:07.642799  9728 net.cpp:141] Setting up inception_4b/relu_5x5_reduce
I0403 19:50:07.642827  9728 net.cpp:148] Top shape: 24 24 14 14 (112896)
I0403 19:50:07.642843  9728 net.cpp:156] Memory required for data: 965772576
I0403 19:50:07.642859  9728 layer_factory.hpp:77] Creating layer inception_4b/5x5
I0403 19:50:07.642884  9728 net.cpp:91] Creating Layer inception_4b/5x5
I0403 19:50:07.642902  9728 net.cpp:425] inception_4b/5x5 <- inception_4b/5x5_reduce
I0403 19:50:07.642925  9728 net.cpp:399] inception_4b/5x5 -> inception_4b/5x5
I0403 19:50:07.644188  9728 net.cpp:141] Setting up inception_4b/5x5
I0403 19:50:07.644227  9728 net.cpp:148] Top shape: 24 64 14 14 (301056)
I0403 19:50:07.644246  9728 net.cpp:156] Memory required for data: 966976800
I0403 19:50:07.644266  9728 layer_factory.hpp:77] Creating layer inception_4b/relu_5x5
I0403 19:50:07.644286  9728 net.cpp:91] Creating Layer inception_4b/relu_5x5
I0403 19:50:07.644304  9728 net.cpp:425] inception_4b/relu_5x5 <- inception_4b/5x5
I0403 19:50:07.644321  9728 net.cpp:386] inception_4b/relu_5x5 -> inception_4b/5x5 (in-place)
I0403 19:50:07.644613  9728 net.cpp:141] Setting up inception_4b/relu_5x5
I0403 19:50:07.644642  9728 net.cpp:148] Top shape: 24 64 14 14 (301056)
I0403 19:50:07.644659  9728 net.cpp:156] Memory required for data: 968181024
I0403 19:50:07.644675  9728 layer_factory.hpp:77] Creating layer inception_4b/pool
I0403 19:50:07.644693  9728 net.cpp:91] Creating Layer inception_4b/pool
I0403 19:50:07.644709  9728 net.cpp:425] inception_4b/pool <- inception_4a/output_inception_4a/output_0_split_4
I0403 19:50:07.644732  9728 net.cpp:399] inception_4b/pool -> inception_4b/pool
I0403 19:50:07.644799  9728 net.cpp:141] Setting up inception_4b/pool
I0403 19:50:07.644824  9728 net.cpp:148] Top shape: 24 512 14 14 (2408448)
I0403 19:50:07.644840  9728 net.cpp:156] Memory required for data: 977814816
I0403 19:50:07.644855  9728 layer_factory.hpp:77] Creating layer inception_4b/pool_proj
I0403 19:50:07.644881  9728 net.cpp:91] Creating Layer inception_4b/pool_proj
I0403 19:50:07.644898  9728 net.cpp:425] inception_4b/pool_proj <- inception_4b/pool
I0403 19:50:07.644920  9728 net.cpp:399] inception_4b/pool_proj -> inception_4b/pool_proj
I0403 19:50:07.646179  9728 net.cpp:141] Setting up inception_4b/pool_proj
I0403 19:50:07.646215  9728 net.cpp:148] Top shape: 24 64 14 14 (301056)
I0403 19:50:07.646234  9728 net.cpp:156] Memory required for data: 979019040
I0403 19:50:07.646255  9728 layer_factory.hpp:77] Creating layer inception_4b/relu_pool_proj
I0403 19:50:07.646275  9728 net.cpp:91] Creating Layer inception_4b/relu_pool_proj
I0403 19:50:07.646291  9728 net.cpp:425] inception_4b/relu_pool_proj <- inception_4b/pool_proj
I0403 19:50:07.646313  9728 net.cpp:386] inception_4b/relu_pool_proj -> inception_4b/pool_proj (in-place)
I0403 19:50:07.646500  9728 net.cpp:141] Setting up inception_4b/relu_pool_proj
I0403 19:50:07.646528  9728 net.cpp:148] Top shape: 24 64 14 14 (301056)
I0403 19:50:07.646544  9728 net.cpp:156] Memory required for data: 980223264
I0403 19:50:07.646561  9728 layer_factory.hpp:77] Creating layer inception_4b/output
I0403 19:50:07.646579  9728 net.cpp:91] Creating Layer inception_4b/output
I0403 19:50:07.646595  9728 net.cpp:425] inception_4b/output <- inception_4b/1x1
I0403 19:50:07.646615  9728 net.cpp:425] inception_4b/output <- inception_4b/3x3
I0403 19:50:07.646632  9728 net.cpp:425] inception_4b/output <- inception_4b/5x5
I0403 19:50:07.646649  9728 net.cpp:425] inception_4b/output <- inception_4b/pool_proj
I0403 19:50:07.646667  9728 net.cpp:399] inception_4b/output -> inception_4b/output
I0403 19:50:07.646713  9728 net.cpp:141] Setting up inception_4b/output
I0403 19:50:07.646739  9728 net.cpp:148] Top shape: 24 512 14 14 (2408448)
I0403 19:50:07.646756  9728 net.cpp:156] Memory required for data: 989857056
I0403 19:50:07.646785  9728 layer_factory.hpp:77] Creating layer inception_4b/output_inception_4b/output_0_split
I0403 19:50:07.646805  9728 net.cpp:91] Creating Layer inception_4b/output_inception_4b/output_0_split
I0403 19:50:07.646821  9728 net.cpp:425] inception_4b/output_inception_4b/output_0_split <- inception_4b/output
I0403 19:50:07.646842  9728 net.cpp:399] inception_4b/output_inception_4b/output_0_split -> inception_4b/output_inception_4b/output_0_split_0
I0403 19:50:07.646864  9728 net.cpp:399] inception_4b/output_inception_4b/output_0_split -> inception_4b/output_inception_4b/output_0_split_1
I0403 19:50:07.646886  9728 net.cpp:399] inception_4b/output_inception_4b/output_0_split -> inception_4b/output_inception_4b/output_0_split_2
I0403 19:50:07.646906  9728 net.cpp:399] inception_4b/output_inception_4b/output_0_split -> inception_4b/output_inception_4b/output_0_split_3
I0403 19:50:07.646991  9728 net.cpp:141] Setting up inception_4b/output_inception_4b/output_0_split
I0403 19:50:07.647017  9728 net.cpp:148] Top shape: 24 512 14 14 (2408448)
I0403 19:50:07.647035  9728 net.cpp:148] Top shape: 24 512 14 14 (2408448)
I0403 19:50:07.647053  9728 net.cpp:148] Top shape: 24 512 14 14 (2408448)
I0403 19:50:07.647068  9728 net.cpp:148] Top shape: 24 512 14 14 (2408448)
I0403 19:50:07.647083  9728 net.cpp:156] Memory required for data: 1028392224
I0403 19:50:07.647099  9728 layer_factory.hpp:77] Creating layer inception_4c/1x1
I0403 19:50:07.647122  9728 net.cpp:91] Creating Layer inception_4c/1x1
I0403 19:50:07.647141  9728 net.cpp:425] inception_4c/1x1 <- inception_4b/output_inception_4b/output_0_split_0
I0403 19:50:07.647161  9728 net.cpp:399] inception_4c/1x1 -> inception_4c/1x1
I0403 19:50:07.648639  9728 net.cpp:141] Setting up inception_4c/1x1
I0403 19:50:07.648669  9728 net.cpp:148] Top shape: 24 128 14 14 (602112)
I0403 19:50:07.648685  9728 net.cpp:156] Memory required for data: 1030800672
I0403 19:50:07.648705  9728 layer_factory.hpp:77] Creating layer inception_4c/relu_1x1
I0403 19:50:07.648725  9728 net.cpp:91] Creating Layer inception_4c/relu_1x1
I0403 19:50:07.648743  9728 net.cpp:425] inception_4c/relu_1x1 <- inception_4c/1x1
I0403 19:50:07.648761  9728 net.cpp:386] inception_4c/relu_1x1 -> inception_4c/1x1 (in-place)
I0403 19:50:07.648944  9728 net.cpp:141] Setting up inception_4c/relu_1x1
I0403 19:50:07.648970  9728 net.cpp:148] Top shape: 24 128 14 14 (602112)
I0403 19:50:07.648984  9728 net.cpp:156] Memory required for data: 1033209120
I0403 19:50:07.649000  9728 layer_factory.hpp:77] Creating layer inception_4c/3x3_reduce
I0403 19:50:07.649024  9728 net.cpp:91] Creating Layer inception_4c/3x3_reduce
I0403 19:50:07.649042  9728 net.cpp:425] inception_4c/3x3_reduce <- inception_4b/output_inception_4b/output_0_split_1
I0403 19:50:07.649062  9728 net.cpp:399] inception_4c/3x3_reduce -> inception_4c/3x3_reduce
I0403 19:50:07.650998  9728 net.cpp:141] Setting up inception_4c/3x3_reduce
I0403 19:50:07.651031  9728 net.cpp:148] Top shape: 24 128 14 14 (602112)
I0403 19:50:07.651049  9728 net.cpp:156] Memory required for data: 1035617568
I0403 19:50:07.651068  9728 layer_factory.hpp:77] Creating layer inception_4c/relu_3x3_reduce
I0403 19:50:07.651087  9728 net.cpp:91] Creating Layer inception_4c/relu_3x3_reduce
I0403 19:50:07.651101  9728 net.cpp:425] inception_4c/relu_3x3_reduce <- inception_4c/3x3_reduce
I0403 19:50:07.651121  9728 net.cpp:386] inception_4c/relu_3x3_reduce -> inception_4c/3x3_reduce (in-place)
I0403 19:50:07.651417  9728 net.cpp:141] Setting up inception_4c/relu_3x3_reduce
I0403 19:50:07.651448  9728 net.cpp:148] Top shape: 24 128 14 14 (602112)
I0403 19:50:07.651465  9728 net.cpp:156] Memory required for data: 1038026016
I0403 19:50:07.651480  9728 layer_factory.hpp:77] Creating layer inception_4c/3x3
I0403 19:50:07.651504  9728 net.cpp:91] Creating Layer inception_4c/3x3
I0403 19:50:07.651522  9728 net.cpp:425] inception_4c/3x3 <- inception_4c/3x3_reduce
I0403 19:50:07.651541  9728 net.cpp:399] inception_4c/3x3 -> inception_4c/3x3
I0403 19:50:07.655182  9728 net.cpp:141] Setting up inception_4c/3x3
I0403 19:50:07.655236  9728 net.cpp:148] Top shape: 24 256 14 14 (1204224)
I0403 19:50:07.655253  9728 net.cpp:156] Memory required for data: 1042842912
I0403 19:50:07.655287  9728 layer_factory.hpp:77] Creating layer inception_4c/relu_3x3
I0403 19:50:07.655308  9728 net.cpp:91] Creating Layer inception_4c/relu_3x3
I0403 19:50:07.655324  9728 net.cpp:425] inception_4c/relu_3x3 <- inception_4c/3x3
I0403 19:50:07.655344  9728 net.cpp:386] inception_4c/relu_3x3 -> inception_4c/3x3 (in-place)
I0403 19:50:07.655527  9728 net.cpp:141] Setting up inception_4c/relu_3x3
I0403 19:50:07.655567  9728 net.cpp:148] Top shape: 24 256 14 14 (1204224)
I0403 19:50:07.655585  9728 net.cpp:156] Memory required for data: 1047659808
I0403 19:50:07.655599  9728 layer_factory.hpp:77] Creating layer inception_4c/5x5_reduce
I0403 19:50:07.655624  9728 net.cpp:91] Creating Layer inception_4c/5x5_reduce
I0403 19:50:07.655643  9728 net.cpp:425] inception_4c/5x5_reduce <- inception_4b/output_inception_4b/output_0_split_2
I0403 19:50:07.655664  9728 net.cpp:399] inception_4c/5x5_reduce -> inception_4c/5x5_reduce
I0403 19:50:07.656796  9728 net.cpp:141] Setting up inception_4c/5x5_reduce
I0403 19:50:07.656831  9728 net.cpp:148] Top shape: 24 24 14 14 (112896)
I0403 19:50:07.656848  9728 net.cpp:156] Memory required for data: 1048111392
I0403 19:50:07.656868  9728 layer_factory.hpp:77] Creating layer inception_4c/relu_5x5_reduce
I0403 19:50:07.656888  9728 net.cpp:91] Creating Layer inception_4c/relu_5x5_reduce
I0403 19:50:07.656908  9728 net.cpp:425] inception_4c/relu_5x5_reduce <- inception_4c/5x5_reduce
I0403 19:50:07.656931  9728 net.cpp:386] inception_4c/relu_5x5_reduce -> inception_4c/5x5_reduce (in-place)
I0403 19:50:07.657122  9728 net.cpp:141] Setting up inception_4c/relu_5x5_reduce
I0403 19:50:07.657150  9728 net.cpp:148] Top shape: 24 24 14 14 (112896)
I0403 19:50:07.657166  9728 net.cpp:156] Memory required for data: 1048562976
I0403 19:50:07.657182  9728 layer_factory.hpp:77] Creating layer inception_4c/5x5
I0403 19:50:07.657207  9728 net.cpp:91] Creating Layer inception_4c/5x5
I0403 19:50:07.657232  9728 net.cpp:425] inception_4c/5x5 <- inception_4c/5x5_reduce
I0403 19:50:07.657255  9728 net.cpp:399] inception_4c/5x5 -> inception_4c/5x5
I0403 19:50:07.658506  9728 net.cpp:141] Setting up inception_4c/5x5
I0403 19:50:07.658534  9728 net.cpp:148] Top shape: 24 64 14 14 (301056)
I0403 19:50:07.658550  9728 net.cpp:156] Memory required for data: 1049767200
I0403 19:50:07.658570  9728 layer_factory.hpp:77] Creating layer inception_4c/relu_5x5
I0403 19:50:07.658589  9728 net.cpp:91] Creating Layer inception_4c/relu_5x5
I0403 19:50:07.658614  9728 net.cpp:425] inception_4c/relu_5x5 <- inception_4c/5x5
I0403 19:50:07.658632  9728 net.cpp:386] inception_4c/relu_5x5 -> inception_4c/5x5 (in-place)
I0403 19:50:07.658917  9728 net.cpp:141] Setting up inception_4c/relu_5x5
I0403 19:50:07.658943  9728 net.cpp:148] Top shape: 24 64 14 14 (301056)
I0403 19:50:07.658958  9728 net.cpp:156] Memory required for data: 1050971424
I0403 19:50:07.658974  9728 layer_factory.hpp:77] Creating layer inception_4c/pool
I0403 19:50:07.658994  9728 net.cpp:91] Creating Layer inception_4c/pool
I0403 19:50:07.659011  9728 net.cpp:425] inception_4c/pool <- inception_4b/output_inception_4b/output_0_split_3
I0403 19:50:07.659029  9728 net.cpp:399] inception_4c/pool -> inception_4c/pool
I0403 19:50:07.659096  9728 net.cpp:141] Setting up inception_4c/pool
I0403 19:50:07.659119  9728 net.cpp:148] Top shape: 24 512 14 14 (2408448)
I0403 19:50:07.659134  9728 net.cpp:156] Memory required for data: 1060605216
I0403 19:50:07.659149  9728 layer_factory.hpp:77] Creating layer inception_4c/pool_proj
I0403 19:50:07.659171  9728 net.cpp:91] Creating Layer inception_4c/pool_proj
I0403 19:50:07.659189  9728 net.cpp:425] inception_4c/pool_proj <- inception_4c/pool
I0403 19:50:07.659216  9728 net.cpp:399] inception_4c/pool_proj -> inception_4c/pool_proj
I0403 19:50:07.660476  9728 net.cpp:141] Setting up inception_4c/pool_proj
I0403 19:50:07.660508  9728 net.cpp:148] Top shape: 24 64 14 14 (301056)
I0403 19:50:07.660540  9728 net.cpp:156] Memory required for data: 1061809440
I0403 19:50:07.660560  9728 layer_factory.hpp:77] Creating layer inception_4c/relu_pool_proj
I0403 19:50:07.660579  9728 net.cpp:91] Creating Layer inception_4c/relu_pool_proj
I0403 19:50:07.660596  9728 net.cpp:425] inception_4c/relu_pool_proj <- inception_4c/pool_proj
I0403 19:50:07.660615  9728 net.cpp:386] inception_4c/relu_pool_proj -> inception_4c/pool_proj (in-place)
I0403 19:50:07.660804  9728 net.cpp:141] Setting up inception_4c/relu_pool_proj
I0403 19:50:07.660830  9728 net.cpp:148] Top shape: 24 64 14 14 (301056)
I0403 19:50:07.660845  9728 net.cpp:156] Memory required for data: 1063013664
I0403 19:50:07.660861  9728 layer_factory.hpp:77] Creating layer inception_4c/output
I0403 19:50:07.660876  9728 net.cpp:91] Creating Layer inception_4c/output
I0403 19:50:07.660892  9728 net.cpp:425] inception_4c/output <- inception_4c/1x1
I0403 19:50:07.660908  9728 net.cpp:425] inception_4c/output <- inception_4c/3x3
I0403 19:50:07.660928  9728 net.cpp:425] inception_4c/output <- inception_4c/5x5
I0403 19:50:07.660943  9728 net.cpp:425] inception_4c/output <- inception_4c/pool_proj
I0403 19:50:07.660960  9728 net.cpp:399] inception_4c/output -> inception_4c/output
I0403 19:50:07.661006  9728 net.cpp:141] Setting up inception_4c/output
I0403 19:50:07.661032  9728 net.cpp:148] Top shape: 24 512 14 14 (2408448)
I0403 19:50:07.661047  9728 net.cpp:156] Memory required for data: 1072647456
I0403 19:50:07.661062  9728 layer_factory.hpp:77] Creating layer inception_4c/output_inception_4c/output_0_split
I0403 19:50:07.661079  9728 net.cpp:91] Creating Layer inception_4c/output_inception_4c/output_0_split
I0403 19:50:07.661095  9728 net.cpp:425] inception_4c/output_inception_4c/output_0_split <- inception_4c/output
I0403 19:50:07.661115  9728 net.cpp:399] inception_4c/output_inception_4c/output_0_split -> inception_4c/output_inception_4c/output_0_split_0
I0403 19:50:07.661135  9728 net.cpp:399] inception_4c/output_inception_4c/output_0_split -> inception_4c/output_inception_4c/output_0_split_1
I0403 19:50:07.661156  9728 net.cpp:399] inception_4c/output_inception_4c/output_0_split -> inception_4c/output_inception_4c/output_0_split_2
I0403 19:50:07.661175  9728 net.cpp:399] inception_4c/output_inception_4c/output_0_split -> inception_4c/output_inception_4c/output_0_split_3
I0403 19:50:07.661280  9728 net.cpp:141] Setting up inception_4c/output_inception_4c/output_0_split
I0403 19:50:07.661308  9728 net.cpp:148] Top shape: 24 512 14 14 (2408448)
I0403 19:50:07.661327  9728 net.cpp:148] Top shape: 24 512 14 14 (2408448)
I0403 19:50:07.661344  9728 net.cpp:148] Top shape: 24 512 14 14 (2408448)
I0403 19:50:07.661360  9728 net.cpp:148] Top shape: 24 512 14 14 (2408448)
I0403 19:50:07.661386  9728 net.cpp:156] Memory required for data: 1111182624
I0403 19:50:07.661401  9728 layer_factory.hpp:77] Creating layer inception_4d/1x1
I0403 19:50:07.661420  9728 net.cpp:91] Creating Layer inception_4d/1x1
I0403 19:50:07.661437  9728 net.cpp:425] inception_4d/1x1 <- inception_4c/output_inception_4c/output_0_split_0
I0403 19:50:07.661458  9728 net.cpp:399] inception_4d/1x1 -> inception_4d/1x1
I0403 19:50:07.662829  9728 net.cpp:141] Setting up inception_4d/1x1
I0403 19:50:07.662858  9728 net.cpp:148] Top shape: 24 112 14 14 (526848)
I0403 19:50:07.662873  9728 net.cpp:156] Memory required for data: 1113290016
I0403 19:50:07.662891  9728 layer_factory.hpp:77] Creating layer inception_4d/relu_1x1
I0403 19:50:07.662912  9728 net.cpp:91] Creating Layer inception_4d/relu_1x1
I0403 19:50:07.662928  9728 net.cpp:425] inception_4d/relu_1x1 <- inception_4d/1x1
I0403 19:50:07.662945  9728 net.cpp:386] inception_4d/relu_1x1 -> inception_4d/1x1 (in-place)
I0403 19:50:07.663125  9728 net.cpp:141] Setting up inception_4d/relu_1x1
I0403 19:50:07.663152  9728 net.cpp:148] Top shape: 24 112 14 14 (526848)
I0403 19:50:07.663167  9728 net.cpp:156] Memory required for data: 1115397408
I0403 19:50:07.663182  9728 layer_factory.hpp:77] Creating layer inception_4d/3x3_reduce
I0403 19:50:07.663223  9728 net.cpp:91] Creating Layer inception_4d/3x3_reduce
I0403 19:50:07.663244  9728 net.cpp:425] inception_4d/3x3_reduce <- inception_4c/output_inception_4c/output_0_split_1
I0403 19:50:07.663262  9728 net.cpp:399] inception_4d/3x3_reduce -> inception_4d/3x3_reduce
I0403 19:50:07.664732  9728 net.cpp:141] Setting up inception_4d/3x3_reduce
I0403 19:50:07.664760  9728 net.cpp:148] Top shape: 24 144 14 14 (677376)
I0403 19:50:07.664777  9728 net.cpp:156] Memory required for data: 1118106912
I0403 19:50:07.664795  9728 layer_factory.hpp:77] Creating layer inception_4d/relu_3x3_reduce
I0403 19:50:07.664818  9728 net.cpp:91] Creating Layer inception_4d/relu_3x3_reduce
I0403 19:50:07.664835  9728 net.cpp:425] inception_4d/relu_3x3_reduce <- inception_4d/3x3_reduce
I0403 19:50:07.664854  9728 net.cpp:386] inception_4d/relu_3x3_reduce -> inception_4d/3x3_reduce (in-place)
I0403 19:50:07.665134  9728 net.cpp:141] Setting up inception_4d/relu_3x3_reduce
I0403 19:50:07.665163  9728 net.cpp:148] Top shape: 24 144 14 14 (677376)
I0403 19:50:07.665179  9728 net.cpp:156] Memory required for data: 1120816416
I0403 19:50:07.665194  9728 layer_factory.hpp:77] Creating layer inception_4d/3x3
I0403 19:50:07.665222  9728 net.cpp:91] Creating Layer inception_4d/3x3
I0403 19:50:07.665243  9728 net.cpp:425] inception_4d/3x3 <- inception_4d/3x3_reduce
I0403 19:50:07.665266  9728 net.cpp:399] inception_4d/3x3 -> inception_4d/3x3
I0403 19:50:07.669446  9728 net.cpp:141] Setting up inception_4d/3x3
I0403 19:50:07.669476  9728 net.cpp:148] Top shape: 24 288 14 14 (1354752)
I0403 19:50:07.669492  9728 net.cpp:156] Memory required for data: 1126235424
I0403 19:50:07.669510  9728 layer_factory.hpp:77] Creating layer inception_4d/relu_3x3
I0403 19:50:07.669530  9728 net.cpp:91] Creating Layer inception_4d/relu_3x3
I0403 19:50:07.669546  9728 net.cpp:425] inception_4d/relu_3x3 <- inception_4d/3x3
I0403 19:50:07.669564  9728 net.cpp:386] inception_4d/relu_3x3 -> inception_4d/3x3 (in-place)
I0403 19:50:07.669744  9728 net.cpp:141] Setting up inception_4d/relu_3x3
I0403 19:50:07.669767  9728 net.cpp:148] Top shape: 24 288 14 14 (1354752)
I0403 19:50:07.669782  9728 net.cpp:156] Memory required for data: 1131654432
I0403 19:50:07.669797  9728 layer_factory.hpp:77] Creating layer inception_4d/5x5_reduce
I0403 19:50:07.669818  9728 net.cpp:91] Creating Layer inception_4d/5x5_reduce
I0403 19:50:07.669836  9728 net.cpp:425] inception_4d/5x5_reduce <- inception_4c/output_inception_4c/output_0_split_2
I0403 19:50:07.669857  9728 net.cpp:399] inception_4d/5x5_reduce -> inception_4d/5x5_reduce
I0403 19:50:07.670985  9728 net.cpp:141] Setting up inception_4d/5x5_reduce
I0403 19:50:07.671016  9728 net.cpp:148] Top shape: 24 32 14 14 (150528)
I0403 19:50:07.671033  9728 net.cpp:156] Memory required for data: 1132256544
I0403 19:50:07.671051  9728 layer_factory.hpp:77] Creating layer inception_4d/relu_5x5_reduce
I0403 19:50:07.671069  9728 net.cpp:91] Creating Layer inception_4d/relu_5x5_reduce
I0403 19:50:07.671087  9728 net.cpp:425] inception_4d/relu_5x5_reduce <- inception_4d/5x5_reduce
I0403 19:50:07.671104  9728 net.cpp:386] inception_4d/relu_5x5_reduce -> inception_4d/5x5_reduce (in-place)
I0403 19:50:07.671293  9728 net.cpp:141] Setting up inception_4d/relu_5x5_reduce
I0403 19:50:07.671320  9728 net.cpp:148] Top shape: 24 32 14 14 (150528)
I0403 19:50:07.671335  9728 net.cpp:156] Memory required for data: 1132858656
I0403 19:50:07.671350  9728 layer_factory.hpp:77] Creating layer inception_4d/5x5
I0403 19:50:07.671375  9728 net.cpp:91] Creating Layer inception_4d/5x5
I0403 19:50:07.671392  9728 net.cpp:425] inception_4d/5x5 <- inception_4d/5x5_reduce
I0403 19:50:07.671411  9728 net.cpp:399] inception_4d/5x5 -> inception_4d/5x5
I0403 19:50:07.672854  9728 net.cpp:141] Setting up inception_4d/5x5
I0403 19:50:07.672883  9728 net.cpp:148] Top shape: 24 64 14 14 (301056)
I0403 19:50:07.672899  9728 net.cpp:156] Memory required for data: 1134062880
I0403 19:50:07.672919  9728 layer_factory.hpp:77] Creating layer inception_4d/relu_5x5
I0403 19:50:07.672952  9728 net.cpp:91] Creating Layer inception_4d/relu_5x5
I0403 19:50:07.673004  9728 net.cpp:425] inception_4d/relu_5x5 <- inception_4d/5x5
I0403 19:50:07.673023  9728 net.cpp:386] inception_4d/relu_5x5 -> inception_4d/5x5 (in-place)
I0403 19:50:07.673339  9728 net.cpp:141] Setting up inception_4d/relu_5x5
I0403 19:50:07.673365  9728 net.cpp:148] Top shape: 24 64 14 14 (301056)
I0403 19:50:07.673380  9728 net.cpp:156] Memory required for data: 1135267104
I0403 19:50:07.673394  9728 layer_factory.hpp:77] Creating layer inception_4d/pool
I0403 19:50:07.673411  9728 net.cpp:91] Creating Layer inception_4d/pool
I0403 19:50:07.673427  9728 net.cpp:425] inception_4d/pool <- inception_4c/output_inception_4c/output_0_split_3
I0403 19:50:07.673447  9728 net.cpp:399] inception_4d/pool -> inception_4d/pool
I0403 19:50:07.673512  9728 net.cpp:141] Setting up inception_4d/pool
I0403 19:50:07.673537  9728 net.cpp:148] Top shape: 24 512 14 14 (2408448)
I0403 19:50:07.673553  9728 net.cpp:156] Memory required for data: 1144900896
I0403 19:50:07.673568  9728 layer_factory.hpp:77] Creating layer inception_4d/pool_proj
I0403 19:50:07.673589  9728 net.cpp:91] Creating Layer inception_4d/pool_proj
I0403 19:50:07.673606  9728 net.cpp:425] inception_4d/pool_proj <- inception_4d/pool
I0403 19:50:07.673624  9728 net.cpp:399] inception_4d/pool_proj -> inception_4d/pool_proj
I0403 19:50:07.675333  9728 net.cpp:141] Setting up inception_4d/pool_proj
I0403 19:50:07.675360  9728 net.cpp:148] Top shape: 24 64 14 14 (301056)
I0403 19:50:07.675376  9728 net.cpp:156] Memory required for data: 1146105120
I0403 19:50:07.675395  9728 layer_factory.hpp:77] Creating layer inception_4d/relu_pool_proj
I0403 19:50:07.675415  9728 net.cpp:91] Creating Layer inception_4d/relu_pool_proj
I0403 19:50:07.675431  9728 net.cpp:425] inception_4d/relu_pool_proj <- inception_4d/pool_proj
I0403 19:50:07.675448  9728 net.cpp:386] inception_4d/relu_pool_proj -> inception_4d/pool_proj (in-place)
I0403 19:50:07.675633  9728 net.cpp:141] Setting up inception_4d/relu_pool_proj
I0403 19:50:07.675657  9728 net.cpp:148] Top shape: 24 64 14 14 (301056)
I0403 19:50:07.675673  9728 net.cpp:156] Memory required for data: 1147309344
I0403 19:50:07.675686  9728 layer_factory.hpp:77] Creating layer inception_4d/output
I0403 19:50:07.675704  9728 net.cpp:91] Creating Layer inception_4d/output
I0403 19:50:07.675722  9728 net.cpp:425] inception_4d/output <- inception_4d/1x1
I0403 19:50:07.675740  9728 net.cpp:425] inception_4d/output <- inception_4d/3x3
I0403 19:50:07.675755  9728 net.cpp:425] inception_4d/output <- inception_4d/5x5
I0403 19:50:07.675770  9728 net.cpp:425] inception_4d/output <- inception_4d/pool_proj
I0403 19:50:07.675789  9728 net.cpp:399] inception_4d/output -> inception_4d/output
I0403 19:50:07.675837  9728 net.cpp:141] Setting up inception_4d/output
I0403 19:50:07.675861  9728 net.cpp:148] Top shape: 24 528 14 14 (2483712)
I0403 19:50:07.675878  9728 net.cpp:156] Memory required for data: 1157244192
I0403 19:50:07.675892  9728 layer_factory.hpp:77] Creating layer inception_4d/output_inception_4d/output_0_split
I0403 19:50:07.675909  9728 net.cpp:91] Creating Layer inception_4d/output_inception_4d/output_0_split
I0403 19:50:07.675925  9728 net.cpp:425] inception_4d/output_inception_4d/output_0_split <- inception_4d/output
I0403 19:50:07.675942  9728 net.cpp:399] inception_4d/output_inception_4d/output_0_split -> inception_4d/output_inception_4d/output_0_split_0
I0403 19:50:07.675964  9728 net.cpp:399] inception_4d/output_inception_4d/output_0_split -> inception_4d/output_inception_4d/output_0_split_1
I0403 19:50:07.675987  9728 net.cpp:399] inception_4d/output_inception_4d/output_0_split -> inception_4d/output_inception_4d/output_0_split_2
I0403 19:50:07.676007  9728 net.cpp:399] inception_4d/output_inception_4d/output_0_split -> inception_4d/output_inception_4d/output_0_split_3
I0403 19:50:07.676026  9728 net.cpp:399] inception_4d/output_inception_4d/output_0_split -> inception_4d/output_inception_4d/output_0_split_4
I0403 19:50:07.676126  9728 net.cpp:141] Setting up inception_4d/output_inception_4d/output_0_split
I0403 19:50:07.676172  9728 net.cpp:148] Top shape: 24 528 14 14 (2483712)
I0403 19:50:07.676192  9728 net.cpp:148] Top shape: 24 528 14 14 (2483712)
I0403 19:50:07.676211  9728 net.cpp:148] Top shape: 24 528 14 14 (2483712)
I0403 19:50:07.676229  9728 net.cpp:148] Top shape: 24 528 14 14 (2483712)
I0403 19:50:07.676245  9728 net.cpp:148] Top shape: 24 528 14 14 (2483712)
I0403 19:50:07.676259  9728 net.cpp:156] Memory required for data: 1206918432
I0403 19:50:07.676275  9728 layer_factory.hpp:77] Creating layer loss2/ave_pool
I0403 19:50:07.676295  9728 net.cpp:91] Creating Layer loss2/ave_pool
I0403 19:50:07.676312  9728 net.cpp:425] loss2/ave_pool <- inception_4d/output_inception_4d/output_0_split_0
I0403 19:50:07.676331  9728 net.cpp:399] loss2/ave_pool -> loss2/ave_pool
I0403 19:50:07.676656  9728 net.cpp:141] Setting up loss2/ave_pool
I0403 19:50:07.676681  9728 net.cpp:148] Top shape: 24 528 4 4 (202752)
I0403 19:50:07.676697  9728 net.cpp:156] Memory required for data: 1207729440
I0403 19:50:07.676712  9728 layer_factory.hpp:77] Creating layer loss2/conv
I0403 19:50:07.676735  9728 net.cpp:91] Creating Layer loss2/conv
I0403 19:50:07.676753  9728 net.cpp:425] loss2/conv <- loss2/ave_pool
I0403 19:50:07.676772  9728 net.cpp:399] loss2/conv -> loss2/conv
I0403 19:50:07.678655  9728 net.cpp:141] Setting up loss2/conv
I0403 19:50:07.678684  9728 net.cpp:148] Top shape: 24 128 4 4 (49152)
I0403 19:50:07.678702  9728 net.cpp:156] Memory required for data: 1207926048
I0403 19:50:07.678722  9728 layer_factory.hpp:77] Creating layer loss2/relu_conv
I0403 19:50:07.678740  9728 net.cpp:91] Creating Layer loss2/relu_conv
I0403 19:50:07.678757  9728 net.cpp:425] loss2/relu_conv <- loss2/conv
I0403 19:50:07.678777  9728 net.cpp:386] loss2/relu_conv -> loss2/conv (in-place)
I0403 19:50:07.679056  9728 net.cpp:141] Setting up loss2/relu_conv
I0403 19:50:07.679108  9728 net.cpp:148] Top shape: 24 128 4 4 (49152)
I0403 19:50:07.679124  9728 net.cpp:156] Memory required for data: 1208122656
I0403 19:50:07.679157  9728 layer_factory.hpp:77] Creating layer loss2/fc
I0403 19:50:07.679177  9728 net.cpp:91] Creating Layer loss2/fc
I0403 19:50:07.679193  9728 net.cpp:425] loss2/fc <- loss2/conv
I0403 19:50:07.679219  9728 net.cpp:399] loss2/fc -> loss2/fc
I0403 19:50:07.696739  9728 net.cpp:141] Setting up loss2/fc
I0403 19:50:07.696770  9728 net.cpp:148] Top shape: 24 1024 (24576)
I0403 19:50:07.696787  9728 net.cpp:156] Memory required for data: 1208220960
I0403 19:50:07.696808  9728 layer_factory.hpp:77] Creating layer loss2/relu_fc
I0403 19:50:07.696826  9728 net.cpp:91] Creating Layer loss2/relu_fc
I0403 19:50:07.696844  9728 net.cpp:425] loss2/relu_fc <- loss2/fc
I0403 19:50:07.696863  9728 net.cpp:386] loss2/relu_fc -> loss2/fc (in-place)
I0403 19:50:07.697175  9728 net.cpp:141] Setting up loss2/relu_fc
I0403 19:50:07.697204  9728 net.cpp:148] Top shape: 24 1024 (24576)
I0403 19:50:07.697230  9728 net.cpp:156] Memory required for data: 1208319264
I0403 19:50:07.697247  9728 layer_factory.hpp:77] Creating layer loss2/drop_fc
I0403 19:50:07.697266  9728 net.cpp:91] Creating Layer loss2/drop_fc
I0403 19:50:07.697283  9728 net.cpp:425] loss2/drop_fc <- loss2/fc
I0403 19:50:07.697300  9728 net.cpp:386] loss2/drop_fc -> loss2/fc (in-place)
I0403 19:50:07.697351  9728 net.cpp:141] Setting up loss2/drop_fc
I0403 19:50:07.697376  9728 net.cpp:148] Top shape: 24 1024 (24576)
I0403 19:50:07.697391  9728 net.cpp:156] Memory required for data: 1208417568
I0403 19:50:07.697407  9728 layer_factory.hpp:77] Creating layer loss2/classifier_plantvillage
I0403 19:50:07.697428  9728 net.cpp:91] Creating Layer loss2/classifier_plantvillage
I0403 19:50:07.697446  9728 net.cpp:425] loss2/classifier_plantvillage <- loss2/fc
I0403 19:50:07.697464  9728 net.cpp:399] loss2/classifier_plantvillage -> loss2/classifier_plantvillage
I0403 19:50:07.697878  9728 net.cpp:141] Setting up loss2/classifier_plantvillage
I0403 19:50:07.697903  9728 net.cpp:148] Top shape: 24 38 (912)
I0403 19:50:07.697938  9728 net.cpp:156] Memory required for data: 1208421216
I0403 19:50:07.697958  9728 layer_factory.hpp:77] Creating layer loss2/classifier_plantvillage_loss2/classifier_plantvillage_0_split
I0403 19:50:07.697975  9728 net.cpp:91] Creating Layer loss2/classifier_plantvillage_loss2/classifier_plantvillage_0_split
I0403 19:50:07.697991  9728 net.cpp:425] loss2/classifier_plantvillage_loss2/classifier_plantvillage_0_split <- loss2/classifier_plantvillage
I0403 19:50:07.698011  9728 net.cpp:399] loss2/classifier_plantvillage_loss2/classifier_plantvillage_0_split -> loss2/classifier_plantvillage_loss2/classifier_plantvillage_0_split_0
I0403 19:50:07.698034  9728 net.cpp:399] loss2/classifier_plantvillage_loss2/classifier_plantvillage_0_split -> loss2/classifier_plantvillage_loss2/classifier_plantvillage_0_split_1
I0403 19:50:07.698053  9728 net.cpp:399] loss2/classifier_plantvillage_loss2/classifier_plantvillage_0_split -> loss2/classifier_plantvillage_loss2/classifier_plantvillage_0_split_2
I0403 19:50:07.698133  9728 net.cpp:141] Setting up loss2/classifier_plantvillage_loss2/classifier_plantvillage_0_split
I0403 19:50:07.698158  9728 net.cpp:148] Top shape: 24 38 (912)
I0403 19:50:07.698173  9728 net.cpp:148] Top shape: 24 38 (912)
I0403 19:50:07.698189  9728 net.cpp:148] Top shape: 24 38 (912)
I0403 19:50:07.698204  9728 net.cpp:156] Memory required for data: 1208432160
I0403 19:50:07.698225  9728 layer_factory.hpp:77] Creating layer inception_4e/1x1
I0403 19:50:07.698249  9728 net.cpp:91] Creating Layer inception_4e/1x1
I0403 19:50:07.698267  9728 net.cpp:425] inception_4e/1x1 <- inception_4d/output_inception_4d/output_0_split_1
I0403 19:50:07.698287  9728 net.cpp:399] inception_4e/1x1 -> inception_4e/1x1
I0403 19:50:07.700157  9728 net.cpp:141] Setting up inception_4e/1x1
I0403 19:50:07.700187  9728 net.cpp:148] Top shape: 24 256 14 14 (1204224)
I0403 19:50:07.700203  9728 net.cpp:156] Memory required for data: 1213249056
I0403 19:50:07.700230  9728 layer_factory.hpp:77] Creating layer inception_4e/relu_1x1
I0403 19:50:07.700253  9728 net.cpp:91] Creating Layer inception_4e/relu_1x1
I0403 19:50:07.700273  9728 net.cpp:425] inception_4e/relu_1x1 <- inception_4e/1x1
I0403 19:50:07.700289  9728 net.cpp:386] inception_4e/relu_1x1 -> inception_4e/1x1 (in-place)
I0403 19:50:07.700589  9728 net.cpp:141] Setting up inception_4e/relu_1x1
I0403 19:50:07.700615  9728 net.cpp:148] Top shape: 24 256 14 14 (1204224)
I0403 19:50:07.700631  9728 net.cpp:156] Memory required for data: 1218065952
I0403 19:50:07.700646  9728 layer_factory.hpp:77] Creating layer inception_4e/3x3_reduce
I0403 19:50:07.700669  9728 net.cpp:91] Creating Layer inception_4e/3x3_reduce
I0403 19:50:07.700686  9728 net.cpp:425] inception_4e/3x3_reduce <- inception_4d/output_inception_4d/output_0_split_2
I0403 19:50:07.700707  9728 net.cpp:399] inception_4e/3x3_reduce -> inception_4e/3x3_reduce
I0403 19:50:07.702842  9728 net.cpp:141] Setting up inception_4e/3x3_reduce
I0403 19:50:07.702872  9728 net.cpp:148] Top shape: 24 160 14 14 (752640)
I0403 19:50:07.702888  9728 net.cpp:156] Memory required for data: 1221076512
I0403 19:50:07.702908  9728 layer_factory.hpp:77] Creating layer inception_4e/relu_3x3_reduce
I0403 19:50:07.702926  9728 net.cpp:91] Creating Layer inception_4e/relu_3x3_reduce
I0403 19:50:07.702942  9728 net.cpp:425] inception_4e/relu_3x3_reduce <- inception_4e/3x3_reduce
I0403 19:50:07.702965  9728 net.cpp:386] inception_4e/relu_3x3_reduce -> inception_4e/3x3_reduce (in-place)
I0403 19:50:07.703151  9728 net.cpp:141] Setting up inception_4e/relu_3x3_reduce
I0403 19:50:07.703177  9728 net.cpp:148] Top shape: 24 160 14 14 (752640)
I0403 19:50:07.703192  9728 net.cpp:156] Memory required for data: 1224087072
I0403 19:50:07.703207  9728 layer_factory.hpp:77] Creating layer inception_4e/3x3
I0403 19:50:07.703236  9728 net.cpp:91] Creating Layer inception_4e/3x3
I0403 19:50:07.703254  9728 net.cpp:425] inception_4e/3x3 <- inception_4e/3x3_reduce
I0403 19:50:07.703275  9728 net.cpp:399] inception_4e/3x3 -> inception_4e/3x3
I0403 19:50:07.708322  9728 net.cpp:141] Setting up inception_4e/3x3
I0403 19:50:07.708365  9728 net.cpp:148] Top shape: 24 320 14 14 (1505280)
I0403 19:50:07.708382  9728 net.cpp:156] Memory required for data: 1230108192
I0403 19:50:07.708402  9728 layer_factory.hpp:77] Creating layer inception_4e/relu_3x3
I0403 19:50:07.708428  9728 net.cpp:91] Creating Layer inception_4e/relu_3x3
I0403 19:50:07.708446  9728 net.cpp:425] inception_4e/relu_3x3 <- inception_4e/3x3
I0403 19:50:07.708464  9728 net.cpp:386] inception_4e/relu_3x3 -> inception_4e/3x3 (in-place)
I0403 19:50:07.708791  9728 net.cpp:141] Setting up inception_4e/relu_3x3
I0403 19:50:07.708819  9728 net.cpp:148] Top shape: 24 320 14 14 (1505280)
I0403 19:50:07.708838  9728 net.cpp:156] Memory required for data: 1236129312
I0403 19:50:07.708854  9728 layer_factory.hpp:77] Creating layer inception_4e/5x5_reduce
I0403 19:50:07.708875  9728 net.cpp:91] Creating Layer inception_4e/5x5_reduce
I0403 19:50:07.708894  9728 net.cpp:425] inception_4e/5x5_reduce <- inception_4d/output_inception_4d/output_0_split_3
I0403 19:50:07.708916  9728 net.cpp:399] inception_4e/5x5_reduce -> inception_4e/5x5_reduce
I0403 19:50:07.710033  9728 net.cpp:141] Setting up inception_4e/5x5_reduce
I0403 19:50:07.710062  9728 net.cpp:148] Top shape: 24 32 14 14 (150528)
I0403 19:50:07.710078  9728 net.cpp:156] Memory required for data: 1236731424
I0403 19:50:07.710098  9728 layer_factory.hpp:77] Creating layer inception_4e/relu_5x5_reduce
I0403 19:50:07.710116  9728 net.cpp:91] Creating Layer inception_4e/relu_5x5_reduce
I0403 19:50:07.710134  9728 net.cpp:425] inception_4e/relu_5x5_reduce <- inception_4e/5x5_reduce
I0403 19:50:07.710155  9728 net.cpp:386] inception_4e/relu_5x5_reduce -> inception_4e/5x5_reduce (in-place)
I0403 19:50:07.710460  9728 net.cpp:141] Setting up inception_4e/relu_5x5_reduce
I0403 19:50:07.710487  9728 net.cpp:148] Top shape: 24 32 14 14 (150528)
I0403 19:50:07.710502  9728 net.cpp:156] Memory required for data: 1237333536
I0403 19:50:07.710518  9728 layer_factory.hpp:77] Creating layer inception_4e/5x5
I0403 19:50:07.710559  9728 net.cpp:91] Creating Layer inception_4e/5x5
I0403 19:50:07.710579  9728 net.cpp:425] inception_4e/5x5 <- inception_4e/5x5_reduce
I0403 19:50:07.710599  9728 net.cpp:399] inception_4e/5x5 -> inception_4e/5x5
I0403 19:50:07.712462  9728 net.cpp:141] Setting up inception_4e/5x5
I0403 19:50:07.712494  9728 net.cpp:148] Top shape: 24 128 14 14 (602112)
I0403 19:50:07.712513  9728 net.cpp:156] Memory required for data: 1239741984
I0403 19:50:07.712533  9728 layer_factory.hpp:77] Creating layer inception_4e/relu_5x5
I0403 19:50:07.712553  9728 net.cpp:91] Creating Layer inception_4e/relu_5x5
I0403 19:50:07.712571  9728 net.cpp:425] inception_4e/relu_5x5 <- inception_4e/5x5
I0403 19:50:07.712594  9728 net.cpp:386] inception_4e/relu_5x5 -> inception_4e/5x5 (in-place)
I0403 19:50:07.712791  9728 net.cpp:141] Setting up inception_4e/relu_5x5
I0403 19:50:07.712818  9728 net.cpp:148] Top shape: 24 128 14 14 (602112)
I0403 19:50:07.712834  9728 net.cpp:156] Memory required for data: 1242150432
I0403 19:50:07.712851  9728 layer_factory.hpp:77] Creating layer inception_4e/pool
I0403 19:50:07.712869  9728 net.cpp:91] Creating Layer inception_4e/pool
I0403 19:50:07.712885  9728 net.cpp:425] inception_4e/pool <- inception_4d/output_inception_4d/output_0_split_4
I0403 19:50:07.712908  9728 net.cpp:399] inception_4e/pool -> inception_4e/pool
I0403 19:50:07.712980  9728 net.cpp:141] Setting up inception_4e/pool
I0403 19:50:07.713004  9728 net.cpp:148] Top shape: 24 528 14 14 (2483712)
I0403 19:50:07.713021  9728 net.cpp:156] Memory required for data: 1252085280
I0403 19:50:07.713035  9728 layer_factory.hpp:77] Creating layer inception_4e/pool_proj
I0403 19:50:07.713062  9728 net.cpp:91] Creating Layer inception_4e/pool_proj
I0403 19:50:07.713079  9728 net.cpp:425] inception_4e/pool_proj <- inception_4e/pool
I0403 19:50:07.713099  9728 net.cpp:399] inception_4e/pool_proj -> inception_4e/pool_proj
I0403 19:50:07.714622  9728 net.cpp:141] Setting up inception_4e/pool_proj
I0403 19:50:07.714663  9728 net.cpp:148] Top shape: 24 128 14 14 (602112)
I0403 19:50:07.714679  9728 net.cpp:156] Memory required for data: 1254493728
I0403 19:50:07.714700  9728 layer_factory.hpp:77] Creating layer inception_4e/relu_pool_proj
I0403 19:50:07.714720  9728 net.cpp:91] Creating Layer inception_4e/relu_pool_proj
I0403 19:50:07.714737  9728 net.cpp:425] inception_4e/relu_pool_proj <- inception_4e/pool_proj
I0403 19:50:07.714754  9728 net.cpp:386] inception_4e/relu_pool_proj -> inception_4e/pool_proj (in-place)
I0403 19:50:07.715052  9728 net.cpp:141] Setting up inception_4e/relu_pool_proj
I0403 19:50:07.715080  9728 net.cpp:148] Top shape: 24 128 14 14 (602112)
I0403 19:50:07.715095  9728 net.cpp:156] Memory required for data: 1256902176
I0403 19:50:07.715111  9728 layer_factory.hpp:77] Creating layer inception_4e/output
I0403 19:50:07.715131  9728 net.cpp:91] Creating Layer inception_4e/output
I0403 19:50:07.715148  9728 net.cpp:425] inception_4e/output <- inception_4e/1x1
I0403 19:50:07.715164  9728 net.cpp:425] inception_4e/output <- inception_4e/3x3
I0403 19:50:07.715180  9728 net.cpp:425] inception_4e/output <- inception_4e/5x5
I0403 19:50:07.715196  9728 net.cpp:425] inception_4e/output <- inception_4e/pool_proj
I0403 19:50:07.715224  9728 net.cpp:399] inception_4e/output -> inception_4e/output
I0403 19:50:07.715298  9728 net.cpp:141] Setting up inception_4e/output
I0403 19:50:07.715334  9728 net.cpp:148] Top shape: 24 832 14 14 (3913728)
I0403 19:50:07.715350  9728 net.cpp:156] Memory required for data: 1272557088
I0403 19:50:07.715365  9728 layer_factory.hpp:77] Creating layer pool4/3x3_s2
I0403 19:50:07.715387  9728 net.cpp:91] Creating Layer pool4/3x3_s2
I0403 19:50:07.715405  9728 net.cpp:425] pool4/3x3_s2 <- inception_4e/output
I0403 19:50:07.715425  9728 net.cpp:399] pool4/3x3_s2 -> pool4/3x3_s2
I0403 19:50:07.715500  9728 net.cpp:141] Setting up pool4/3x3_s2
I0403 19:50:07.715526  9728 net.cpp:148] Top shape: 24 832 7 7 (978432)
I0403 19:50:07.715555  9728 net.cpp:156] Memory required for data: 1276470816
I0403 19:50:07.715570  9728 layer_factory.hpp:77] Creating layer pool4/3x3_s2_pool4/3x3_s2_0_split
I0403 19:50:07.715587  9728 net.cpp:91] Creating Layer pool4/3x3_s2_pool4/3x3_s2_0_split
I0403 19:50:07.715615  9728 net.cpp:425] pool4/3x3_s2_pool4/3x3_s2_0_split <- pool4/3x3_s2
I0403 19:50:07.715636  9728 net.cpp:399] pool4/3x3_s2_pool4/3x3_s2_0_split -> pool4/3x3_s2_pool4/3x3_s2_0_split_0
I0403 19:50:07.715656  9728 net.cpp:399] pool4/3x3_s2_pool4/3x3_s2_0_split -> pool4/3x3_s2_pool4/3x3_s2_0_split_1
I0403 19:50:07.715677  9728 net.cpp:399] pool4/3x3_s2_pool4/3x3_s2_0_split -> pool4/3x3_s2_pool4/3x3_s2_0_split_2
I0403 19:50:07.715698  9728 net.cpp:399] pool4/3x3_s2_pool4/3x3_s2_0_split -> pool4/3x3_s2_pool4/3x3_s2_0_split_3
I0403 19:50:07.715790  9728 net.cpp:141] Setting up pool4/3x3_s2_pool4/3x3_s2_0_split
I0403 19:50:07.715816  9728 net.cpp:148] Top shape: 24 832 7 7 (978432)
I0403 19:50:07.715833  9728 net.cpp:148] Top shape: 24 832 7 7 (978432)
I0403 19:50:07.715849  9728 net.cpp:148] Top shape: 24 832 7 7 (978432)
I0403 19:50:07.715865  9728 net.cpp:148] Top shape: 24 832 7 7 (978432)
I0403 19:50:07.715878  9728 net.cpp:156] Memory required for data: 1292125728
I0403 19:50:07.715893  9728 layer_factory.hpp:77] Creating layer inception_5a/1x1
I0403 19:50:07.715916  9728 net.cpp:91] Creating Layer inception_5a/1x1
I0403 19:50:07.715934  9728 net.cpp:425] inception_5a/1x1 <- pool4/3x3_s2_pool4/3x3_s2_0_split_0
I0403 19:50:07.715955  9728 net.cpp:399] inception_5a/1x1 -> inception_5a/1x1
I0403 19:50:07.718832  9728 net.cpp:141] Setting up inception_5a/1x1
I0403 19:50:07.718861  9728 net.cpp:148] Top shape: 24 256 7 7 (301056)
I0403 19:50:07.718878  9728 net.cpp:156] Memory required for data: 1293329952
I0403 19:50:07.718897  9728 layer_factory.hpp:77] Creating layer inception_5a/relu_1x1
I0403 19:50:07.718916  9728 net.cpp:91] Creating Layer inception_5a/relu_1x1
I0403 19:50:07.718932  9728 net.cpp:425] inception_5a/relu_1x1 <- inception_5a/1x1
I0403 19:50:07.718951  9728 net.cpp:386] inception_5a/relu_1x1 -> inception_5a/1x1 (in-place)
I0403 19:50:07.719271  9728 net.cpp:141] Setting up inception_5a/relu_1x1
I0403 19:50:07.719300  9728 net.cpp:148] Top shape: 24 256 7 7 (301056)
I0403 19:50:07.719316  9728 net.cpp:156] Memory required for data: 1294534176
I0403 19:50:07.719331  9728 layer_factory.hpp:77] Creating layer inception_5a/3x3_reduce
I0403 19:50:07.719354  9728 net.cpp:91] Creating Layer inception_5a/3x3_reduce
I0403 19:50:07.719372  9728 net.cpp:425] inception_5a/3x3_reduce <- pool4/3x3_s2_pool4/3x3_s2_0_split_1
I0403 19:50:07.719394  9728 net.cpp:399] inception_5a/3x3_reduce -> inception_5a/3x3_reduce
I0403 19:50:07.721853  9728 net.cpp:141] Setting up inception_5a/3x3_reduce
I0403 19:50:07.721882  9728 net.cpp:148] Top shape: 24 160 7 7 (188160)
I0403 19:50:07.721899  9728 net.cpp:156] Memory required for data: 1295286816
I0403 19:50:07.721920  9728 layer_factory.hpp:77] Creating layer inception_5a/relu_3x3_reduce
I0403 19:50:07.721940  9728 net.cpp:91] Creating Layer inception_5a/relu_3x3_reduce
I0403 19:50:07.721959  9728 net.cpp:425] inception_5a/relu_3x3_reduce <- inception_5a/3x3_reduce
I0403 19:50:07.721977  9728 net.cpp:386] inception_5a/relu_3x3_reduce -> inception_5a/3x3_reduce (in-place)
I0403 19:50:07.722165  9728 net.cpp:141] Setting up inception_5a/relu_3x3_reduce
I0403 19:50:07.722194  9728 net.cpp:148] Top shape: 24 160 7 7 (188160)
I0403 19:50:07.722224  9728 net.cpp:156] Memory required for data: 1296039456
I0403 19:50:07.722244  9728 layer_factory.hpp:77] Creating layer inception_5a/3x3
I0403 19:50:07.722270  9728 net.cpp:91] Creating Layer inception_5a/3x3
I0403 19:50:07.722288  9728 net.cpp:425] inception_5a/3x3 <- inception_5a/3x3_reduce
I0403 19:50:07.722311  9728 net.cpp:399] inception_5a/3x3 -> inception_5a/3x3
I0403 19:50:07.727386  9728 net.cpp:141] Setting up inception_5a/3x3
I0403 19:50:07.727419  9728 net.cpp:148] Top shape: 24 320 7 7 (376320)
I0403 19:50:07.727438  9728 net.cpp:156] Memory required for data: 1297544736
I0403 19:50:07.727458  9728 layer_factory.hpp:77] Creating layer inception_5a/relu_3x3
I0403 19:50:07.727478  9728 net.cpp:91] Creating Layer inception_5a/relu_3x3
I0403 19:50:07.727495  9728 net.cpp:425] inception_5a/relu_3x3 <- inception_5a/3x3
I0403 19:50:07.727516  9728 net.cpp:386] inception_5a/relu_3x3 -> inception_5a/3x3 (in-place)
I0403 19:50:07.727810  9728 net.cpp:141] Setting up inception_5a/relu_3x3
I0403 19:50:07.727840  9728 net.cpp:148] Top shape: 24 320 7 7 (376320)
I0403 19:50:07.727857  9728 net.cpp:156] Memory required for data: 1299050016
I0403 19:50:07.727874  9728 layer_factory.hpp:77] Creating layer inception_5a/5x5_reduce
I0403 19:50:07.727896  9728 net.cpp:91] Creating Layer inception_5a/5x5_reduce
I0403 19:50:07.727916  9728 net.cpp:425] inception_5a/5x5_reduce <- pool4/3x3_s2_pool4/3x3_s2_0_split_2
I0403 19:50:07.727934  9728 net.cpp:399] inception_5a/5x5_reduce -> inception_5a/5x5_reduce
I0403 19:50:07.729116  9728 net.cpp:141] Setting up inception_5a/5x5_reduce
I0403 19:50:07.729148  9728 net.cpp:148] Top shape: 24 32 7 7 (37632)
I0403 19:50:07.729166  9728 net.cpp:156] Memory required for data: 1299200544
I0403 19:50:07.729190  9728 layer_factory.hpp:77] Creating layer inception_5a/relu_5x5_reduce
I0403 19:50:07.729212  9728 net.cpp:91] Creating Layer inception_5a/relu_5x5_reduce
I0403 19:50:07.729231  9728 net.cpp:425] inception_5a/relu_5x5_reduce <- inception_5a/5x5_reduce
I0403 19:50:07.729250  9728 net.cpp:386] inception_5a/relu_5x5_reduce -> inception_5a/5x5_reduce (in-place)
I0403 19:50:07.729563  9728 net.cpp:141] Setting up inception_5a/relu_5x5_reduce
I0403 19:50:07.729590  9728 net.cpp:148] Top shape: 24 32 7 7 (37632)
I0403 19:50:07.729605  9728 net.cpp:156] Memory required for data: 1299351072
I0403 19:50:07.729620  9728 layer_factory.hpp:77] Creating layer inception_5a/5x5
I0403 19:50:07.729642  9728 net.cpp:91] Creating Layer inception_5a/5x5
I0403 19:50:07.729661  9728 net.cpp:425] inception_5a/5x5 <- inception_5a/5x5_reduce
I0403 19:50:07.729682  9728 net.cpp:399] inception_5a/5x5 -> inception_5a/5x5
I0403 19:50:07.731444  9728 net.cpp:141] Setting up inception_5a/5x5
I0403 19:50:07.731492  9728 net.cpp:148] Top shape: 24 128 7 7 (150528)
I0403 19:50:07.731511  9728 net.cpp:156] Memory required for data: 1299953184
I0403 19:50:07.731531  9728 layer_factory.hpp:77] Creating layer inception_5a/relu_5x5
I0403 19:50:07.731562  9728 net.cpp:91] Creating Layer inception_5a/relu_5x5
I0403 19:50:07.731578  9728 net.cpp:425] inception_5a/relu_5x5 <- inception_5a/5x5
I0403 19:50:07.731600  9728 net.cpp:386] inception_5a/relu_5x5 -> inception_5a/5x5 (in-place)
I0403 19:50:07.731791  9728 net.cpp:141] Setting up inception_5a/relu_5x5
I0403 19:50:07.731817  9728 net.cpp:148] Top shape: 24 128 7 7 (150528)
I0403 19:50:07.731832  9728 net.cpp:156] Memory required for data: 1300555296
I0403 19:50:07.731847  9728 layer_factory.hpp:77] Creating layer inception_5a/pool
I0403 19:50:07.731864  9728 net.cpp:91] Creating Layer inception_5a/pool
I0403 19:50:07.731880  9728 net.cpp:425] inception_5a/pool <- pool4/3x3_s2_pool4/3x3_s2_0_split_3
I0403 19:50:07.731901  9728 net.cpp:399] inception_5a/pool -> inception_5a/pool
I0403 19:50:07.731973  9728 net.cpp:141] Setting up inception_5a/pool
I0403 19:50:07.731997  9728 net.cpp:148] Top shape: 24 832 7 7 (978432)
I0403 19:50:07.732012  9728 net.cpp:156] Memory required for data: 1304469024
I0403 19:50:07.732028  9728 layer_factory.hpp:77] Creating layer inception_5a/pool_proj
I0403 19:50:07.732051  9728 net.cpp:91] Creating Layer inception_5a/pool_proj
I0403 19:50:07.732069  9728 net.cpp:425] inception_5a/pool_proj <- inception_5a/pool
I0403 19:50:07.732089  9728 net.cpp:399] inception_5a/pool_proj -> inception_5a/pool_proj
I0403 19:50:07.734444  9728 net.cpp:141] Setting up inception_5a/pool_proj
I0403 19:50:07.734477  9728 net.cpp:148] Top shape: 24 128 7 7 (150528)
I0403 19:50:07.734494  9728 net.cpp:156] Memory required for data: 1305071136
I0403 19:50:07.734513  9728 layer_factory.hpp:77] Creating layer inception_5a/relu_pool_proj
I0403 19:50:07.734531  9728 net.cpp:91] Creating Layer inception_5a/relu_pool_proj
I0403 19:50:07.734547  9728 net.cpp:425] inception_5a/relu_pool_proj <- inception_5a/pool_proj
I0403 19:50:07.734565  9728 net.cpp:386] inception_5a/relu_pool_proj -> inception_5a/pool_proj (in-place)
I0403 19:50:07.734864  9728 net.cpp:141] Setting up inception_5a/relu_pool_proj
I0403 19:50:07.734894  9728 net.cpp:148] Top shape: 24 128 7 7 (150528)
I0403 19:50:07.734910  9728 net.cpp:156] Memory required for data: 1305673248
I0403 19:50:07.734925  9728 layer_factory.hpp:77] Creating layer inception_5a/output
I0403 19:50:07.734943  9728 net.cpp:91] Creating Layer inception_5a/output
I0403 19:50:07.734959  9728 net.cpp:425] inception_5a/output <- inception_5a/1x1
I0403 19:50:07.734977  9728 net.cpp:425] inception_5a/output <- inception_5a/3x3
I0403 19:50:07.734992  9728 net.cpp:425] inception_5a/output <- inception_5a/5x5
I0403 19:50:07.735009  9728 net.cpp:425] inception_5a/output <- inception_5a/pool_proj
I0403 19:50:07.735028  9728 net.cpp:399] inception_5a/output -> inception_5a/output
I0403 19:50:07.735079  9728 net.cpp:141] Setting up inception_5a/output
I0403 19:50:07.735102  9728 net.cpp:148] Top shape: 24 832 7 7 (978432)
I0403 19:50:07.735117  9728 net.cpp:156] Memory required for data: 1309586976
I0403 19:50:07.735132  9728 layer_factory.hpp:77] Creating layer inception_5a/output_inception_5a/output_0_split
I0403 19:50:07.735152  9728 net.cpp:91] Creating Layer inception_5a/output_inception_5a/output_0_split
I0403 19:50:07.735169  9728 net.cpp:425] inception_5a/output_inception_5a/output_0_split <- inception_5a/output
I0403 19:50:07.735188  9728 net.cpp:399] inception_5a/output_inception_5a/output_0_split -> inception_5a/output_inception_5a/output_0_split_0
I0403 19:50:07.735208  9728 net.cpp:399] inception_5a/output_inception_5a/output_0_split -> inception_5a/output_inception_5a/output_0_split_1
I0403 19:50:07.735235  9728 net.cpp:399] inception_5a/output_inception_5a/output_0_split -> inception_5a/output_inception_5a/output_0_split_2
I0403 19:50:07.735256  9728 net.cpp:399] inception_5a/output_inception_5a/output_0_split -> inception_5a/output_inception_5a/output_0_split_3
I0403 19:50:07.735369  9728 net.cpp:141] Setting up inception_5a/output_inception_5a/output_0_split
I0403 19:50:07.735394  9728 net.cpp:148] Top shape: 24 832 7 7 (978432)
I0403 19:50:07.735410  9728 net.cpp:148] Top shape: 24 832 7 7 (978432)
I0403 19:50:07.735426  9728 net.cpp:148] Top shape: 24 832 7 7 (978432)
I0403 19:50:07.735441  9728 net.cpp:148] Top shape: 24 832 7 7 (978432)
I0403 19:50:07.735455  9728 net.cpp:156] Memory required for data: 1325241888
I0403 19:50:07.735471  9728 layer_factory.hpp:77] Creating layer inception_5b/1x1
I0403 19:50:07.735502  9728 net.cpp:91] Creating Layer inception_5b/1x1
I0403 19:50:07.735523  9728 net.cpp:425] inception_5b/1x1 <- inception_5a/output_inception_5a/output_0_split_0
I0403 19:50:07.735544  9728 net.cpp:399] inception_5b/1x1 -> inception_5b/1x1
I0403 19:50:07.739274  9728 net.cpp:141] Setting up inception_5b/1x1
I0403 19:50:07.739305  9728 net.cpp:148] Top shape: 24 384 7 7 (451584)
I0403 19:50:07.739321  9728 net.cpp:156] Memory required for data: 1327048224
I0403 19:50:07.739341  9728 layer_factory.hpp:77] Creating layer inception_5b/relu_1x1
I0403 19:50:07.739364  9728 net.cpp:91] Creating Layer inception_5b/relu_1x1
I0403 19:50:07.739383  9728 net.cpp:425] inception_5b/relu_1x1 <- inception_5b/1x1
I0403 19:50:07.739403  9728 net.cpp:386] inception_5b/relu_1x1 -> inception_5b/1x1 (in-place)
I0403 19:50:07.739714  9728 net.cpp:141] Setting up inception_5b/relu_1x1
I0403 19:50:07.739740  9728 net.cpp:148] Top shape: 24 384 7 7 (451584)
I0403 19:50:07.739754  9728 net.cpp:156] Memory required for data: 1328854560
I0403 19:50:07.739769  9728 layer_factory.hpp:77] Creating layer inception_5b/3x3_reduce
I0403 19:50:07.739794  9728 net.cpp:91] Creating Layer inception_5b/3x3_reduce
I0403 19:50:07.739812  9728 net.cpp:425] inception_5b/3x3_reduce <- inception_5a/output_inception_5a/output_0_split_1
I0403 19:50:07.739831  9728 net.cpp:399] inception_5b/3x3_reduce -> inception_5b/3x3_reduce
I0403 19:50:07.742501  9728 net.cpp:141] Setting up inception_5b/3x3_reduce
I0403 19:50:07.742533  9728 net.cpp:148] Top shape: 24 192 7 7 (225792)
I0403 19:50:07.742552  9728 net.cpp:156] Memory required for data: 1329757728
I0403 19:50:07.742570  9728 layer_factory.hpp:77] Creating layer inception_5b/relu_3x3_reduce
I0403 19:50:07.742588  9728 net.cpp:91] Creating Layer inception_5b/relu_3x3_reduce
I0403 19:50:07.742606  9728 net.cpp:425] inception_5b/relu_3x3_reduce <- inception_5b/3x3_reduce
I0403 19:50:07.742622  9728 net.cpp:386] inception_5b/relu_3x3_reduce -> inception_5b/3x3_reduce (in-place)
I0403 19:50:07.742810  9728 net.cpp:141] Setting up inception_5b/relu_3x3_reduce
I0403 19:50:07.742836  9728 net.cpp:148] Top shape: 24 192 7 7 (225792)
I0403 19:50:07.742852  9728 net.cpp:156] Memory required for data: 1330660896
I0403 19:50:07.742866  9728 layer_factory.hpp:77] Creating layer inception_5b/3x3
I0403 19:50:07.742889  9728 net.cpp:91] Creating Layer inception_5b/3x3
I0403 19:50:07.742908  9728 net.cpp:425] inception_5b/3x3 <- inception_5b/3x3_reduce
I0403 19:50:07.742929  9728 net.cpp:399] inception_5b/3x3 -> inception_5b/3x3
I0403 19:50:07.749593  9728 net.cpp:141] Setting up inception_5b/3x3
I0403 19:50:07.749625  9728 net.cpp:148] Top shape: 24 384 7 7 (451584)
I0403 19:50:07.749644  9728 net.cpp:156] Memory required for data: 1332467232
I0403 19:50:07.749663  9728 layer_factory.hpp:77] Creating layer inception_5b/relu_3x3
I0403 19:50:07.749681  9728 net.cpp:91] Creating Layer inception_5b/relu_3x3
I0403 19:50:07.749699  9728 net.cpp:425] inception_5b/relu_3x3 <- inception_5b/3x3
I0403 19:50:07.749716  9728 net.cpp:386] inception_5b/relu_3x3 -> inception_5b/3x3 (in-place)
I0403 19:50:07.750006  9728 net.cpp:141] Setting up inception_5b/relu_3x3
I0403 19:50:07.750036  9728 net.cpp:148] Top shape: 24 384 7 7 (451584)
I0403 19:50:07.750051  9728 net.cpp:156] Memory required for data: 1334273568
I0403 19:50:07.750066  9728 layer_factory.hpp:77] Creating layer inception_5b/5x5_reduce
I0403 19:50:07.750103  9728 net.cpp:91] Creating Layer inception_5b/5x5_reduce
I0403 19:50:07.750123  9728 net.cpp:425] inception_5b/5x5_reduce <- inception_5a/output_inception_5a/output_0_split_2
I0403 19:50:07.750143  9728 net.cpp:399] inception_5b/5x5_reduce -> inception_5b/5x5_reduce
I0403 19:50:07.751397  9728 net.cpp:141] Setting up inception_5b/5x5_reduce
I0403 19:50:07.751425  9728 net.cpp:148] Top shape: 24 48 7 7 (56448)
I0403 19:50:07.751442  9728 net.cpp:156] Memory required for data: 1334499360
I0403 19:50:07.751462  9728 layer_factory.hpp:77] Creating layer inception_5b/relu_5x5_reduce
I0403 19:50:07.751483  9728 net.cpp:91] Creating Layer inception_5b/relu_5x5_reduce
I0403 19:50:07.751502  9728 net.cpp:425] inception_5b/relu_5x5_reduce <- inception_5b/5x5_reduce
I0403 19:50:07.751519  9728 net.cpp:386] inception_5b/relu_5x5_reduce -> inception_5b/5x5_reduce (in-place)
I0403 19:50:07.751886  9728 net.cpp:141] Setting up inception_5b/relu_5x5_reduce
I0403 19:50:07.751912  9728 net.cpp:148] Top shape: 24 48 7 7 (56448)
I0403 19:50:07.751927  9728 net.cpp:156] Memory required for data: 1334725152
I0403 19:50:07.751943  9728 layer_factory.hpp:77] Creating layer inception_5b/5x5
I0403 19:50:07.751963  9728 net.cpp:91] Creating Layer inception_5b/5x5
I0403 19:50:07.751981  9728 net.cpp:425] inception_5b/5x5 <- inception_5b/5x5_reduce
I0403 19:50:07.751999  9728 net.cpp:399] inception_5b/5x5 -> inception_5b/5x5
I0403 19:50:07.754004  9728 net.cpp:141] Setting up inception_5b/5x5
I0403 19:50:07.754034  9728 net.cpp:148] Top shape: 24 128 7 7 (150528)
I0403 19:50:07.754050  9728 net.cpp:156] Memory required for data: 1335327264
I0403 19:50:07.754068  9728 layer_factory.hpp:77] Creating layer inception_5b/relu_5x5
I0403 19:50:07.754086  9728 net.cpp:91] Creating Layer inception_5b/relu_5x5
I0403 19:50:07.754104  9728 net.cpp:425] inception_5b/relu_5x5 <- inception_5b/5x5
I0403 19:50:07.754123  9728 net.cpp:386] inception_5b/relu_5x5 -> inception_5b/5x5 (in-place)
I0403 19:50:07.754317  9728 net.cpp:141] Setting up inception_5b/relu_5x5
I0403 19:50:07.754343  9728 net.cpp:148] Top shape: 24 128 7 7 (150528)
I0403 19:50:07.754356  9728 net.cpp:156] Memory required for data: 1335929376
I0403 19:50:07.754371  9728 layer_factory.hpp:77] Creating layer inception_5b/pool
I0403 19:50:07.754391  9728 net.cpp:91] Creating Layer inception_5b/pool
I0403 19:50:07.754410  9728 net.cpp:425] inception_5b/pool <- inception_5a/output_inception_5a/output_0_split_3
I0403 19:50:07.754426  9728 net.cpp:399] inception_5b/pool -> inception_5b/pool
I0403 19:50:07.754498  9728 net.cpp:141] Setting up inception_5b/pool
I0403 19:50:07.754521  9728 net.cpp:148] Top shape: 24 832 7 7 (978432)
I0403 19:50:07.754536  9728 net.cpp:156] Memory required for data: 1339843104
I0403 19:50:07.754550  9728 layer_factory.hpp:77] Creating layer inception_5b/pool_proj
I0403 19:50:07.754572  9728 net.cpp:91] Creating Layer inception_5b/pool_proj
I0403 19:50:07.754590  9728 net.cpp:425] inception_5b/pool_proj <- inception_5b/pool
I0403 19:50:07.754611  9728 net.cpp:399] inception_5b/pool_proj -> inception_5b/pool_proj
I0403 19:50:07.756892  9728 net.cpp:141] Setting up inception_5b/pool_proj
I0403 19:50:07.756924  9728 net.cpp:148] Top shape: 24 128 7 7 (150528)
I0403 19:50:07.756942  9728 net.cpp:156] Memory required for data: 1340445216
I0403 19:50:07.756963  9728 layer_factory.hpp:77] Creating layer inception_5b/relu_pool_proj
I0403 19:50:07.756980  9728 net.cpp:91] Creating Layer inception_5b/relu_pool_proj
I0403 19:50:07.756997  9728 net.cpp:425] inception_5b/relu_pool_proj <- inception_5b/pool_proj
I0403 19:50:07.757016  9728 net.cpp:386] inception_5b/relu_pool_proj -> inception_5b/pool_proj (in-place)
I0403 19:50:07.757328  9728 net.cpp:141] Setting up inception_5b/relu_pool_proj
I0403 19:50:07.757356  9728 net.cpp:148] Top shape: 24 128 7 7 (150528)
I0403 19:50:07.757374  9728 net.cpp:156] Memory required for data: 1341047328
I0403 19:50:07.757388  9728 layer_factory.hpp:77] Creating layer inception_5b/output
I0403 19:50:07.757406  9728 net.cpp:91] Creating Layer inception_5b/output
I0403 19:50:07.757438  9728 net.cpp:425] inception_5b/output <- inception_5b/1x1
I0403 19:50:07.757457  9728 net.cpp:425] inception_5b/output <- inception_5b/3x3
I0403 19:50:07.757473  9728 net.cpp:425] inception_5b/output <- inception_5b/5x5
I0403 19:50:07.757490  9728 net.cpp:425] inception_5b/output <- inception_5b/pool_proj
I0403 19:50:07.757508  9728 net.cpp:399] inception_5b/output -> inception_5b/output
I0403 19:50:07.757573  9728 net.cpp:141] Setting up inception_5b/output
I0403 19:50:07.757597  9728 net.cpp:148] Top shape: 24 1024 7 7 (1204224)
I0403 19:50:07.757611  9728 net.cpp:156] Memory required for data: 1345864224
I0403 19:50:07.757625  9728 layer_factory.hpp:77] Creating layer pool5/7x7_s1
I0403 19:50:07.757645  9728 net.cpp:91] Creating Layer pool5/7x7_s1
I0403 19:50:07.757661  9728 net.cpp:425] pool5/7x7_s1 <- inception_5b/output
I0403 19:50:07.757679  9728 net.cpp:399] pool5/7x7_s1 -> pool5/7x7_s1
I0403 19:50:07.757887  9728 net.cpp:141] Setting up pool5/7x7_s1
I0403 19:50:07.757915  9728 net.cpp:148] Top shape: 24 1024 1 1 (24576)
I0403 19:50:07.757930  9728 net.cpp:156] Memory required for data: 1345962528
I0403 19:50:07.757946  9728 layer_factory.hpp:77] Creating layer pool5/drop_7x7_s1
I0403 19:50:07.757963  9728 net.cpp:91] Creating Layer pool5/drop_7x7_s1
I0403 19:50:07.757979  9728 net.cpp:425] pool5/drop_7x7_s1 <- pool5/7x7_s1
I0403 19:50:07.757999  9728 net.cpp:386] pool5/drop_7x7_s1 -> pool5/7x7_s1 (in-place)
I0403 19:50:07.758047  9728 net.cpp:141] Setting up pool5/drop_7x7_s1
I0403 19:50:07.758070  9728 net.cpp:148] Top shape: 24 1024 1 1 (24576)
I0403 19:50:07.758085  9728 net.cpp:156] Memory required for data: 1346060832
I0403 19:50:07.758100  9728 layer_factory.hpp:77] Creating layer loss3/classifier_plantvillage
I0403 19:50:07.758121  9728 net.cpp:91] Creating Layer loss3/classifier_plantvillage
I0403 19:50:07.758137  9728 net.cpp:425] loss3/classifier_plantvillage <- pool5/7x7_s1
I0403 19:50:07.758157  9728 net.cpp:399] loss3/classifier_plantvillage -> loss3/classifier_plantvillage
I0403 19:50:07.758617  9728 net.cpp:141] Setting up loss3/classifier_plantvillage
I0403 19:50:07.758642  9728 net.cpp:148] Top shape: 24 38 (912)
I0403 19:50:07.758657  9728 net.cpp:156] Memory required for data: 1346064480
I0403 19:50:07.758676  9728 layer_factory.hpp:77] Creating layer loss3/classifier_plantvillage_loss3/classifier_plantvillage_0_split
I0403 19:50:07.758697  9728 net.cpp:91] Creating Layer loss3/classifier_plantvillage_loss3/classifier_plantvillage_0_split
I0403 19:50:07.758713  9728 net.cpp:425] loss3/classifier_plantvillage_loss3/classifier_plantvillage_0_split <- loss3/classifier_plantvillage
I0403 19:50:07.758730  9728 net.cpp:399] loss3/classifier_plantvillage_loss3/classifier_plantvillage_0_split -> loss3/classifier_plantvillage_loss3/classifier_plantvillage_0_split_0
I0403 19:50:07.758750  9728 net.cpp:399] loss3/classifier_plantvillage_loss3/classifier_plantvillage_0_split -> loss3/classifier_plantvillage_loss3/classifier_plantvillage_0_split_1
I0403 19:50:07.758769  9728 net.cpp:399] loss3/classifier_plantvillage_loss3/classifier_plantvillage_0_split -> loss3/classifier_plantvillage_loss3/classifier_plantvillage_0_split_2
I0403 19:50:07.758790  9728 net.cpp:399] loss3/classifier_plantvillage_loss3/classifier_plantvillage_0_split -> loss3/classifier_plantvillage_loss3/classifier_plantvillage_0_split_3
I0403 19:50:07.758888  9728 net.cpp:141] Setting up loss3/classifier_plantvillage_loss3/classifier_plantvillage_0_split
I0403 19:50:07.758911  9728 net.cpp:148] Top shape: 24 38 (912)
I0403 19:50:07.758929  9728 net.cpp:148] Top shape: 24 38 (912)
I0403 19:50:07.758944  9728 net.cpp:148] Top shape: 24 38 (912)
I0403 19:50:07.758958  9728 net.cpp:148] Top shape: 24 38 (912)
I0403 19:50:07.758972  9728 net.cpp:156] Memory required for data: 1346079072
I0403 19:50:07.758986  9728 layer_factory.hpp:77] Creating layer loss1/loss
I0403 19:50:07.759007  9728 net.cpp:91] Creating Layer loss1/loss
I0403 19:50:07.759024  9728 net.cpp:425] loss1/loss <- loss1/classifier_plantvillage_loss1/classifier_plantvillage_0_split_0
I0403 19:50:07.759054  9728 net.cpp:425] loss1/loss <- label_data_1_split_0
…
