…
I0403 10:43:25.404449 13560 net.cpp:313] The NetState phase (0) differed from the phase (1) specified by a rule in layer loss3/top-5
I0403 10:43:25.409271 13560 net.cpp:49] Initializing net from parameters: 
state {
  phase: TRAIN
}
layer {
  name: "data"
  type: "Data"
  top: "data"
  top: "label"
  include {
    phase: TRAIN
  }
  transform_param {
    mirror: true
    crop_size: 224
    mean_file: "/home/mohanty/data/final_dataset/lmdb/segmented-60-40/mean.binaryproto"
  }
  data_param {
    source: "/home/mohanty/data/final_dataset/lmdb/segmented-60-40/train_db"
    batch_size: 24
    backend: LMDB
  }
}
layer {
  name: "conv1/7x7_s2"
  type: "Convolution"
  bottom: "data"
  top: "conv1/7x7_s2"
  param {
    lr_mult: 1
    decay_mult: 1
  }
  param {
    lr_mult: 2
    decay_mult: 0
  }
  convolution_param {
    num_output: 64
    pad: 3
    kernel_size: 7
    stride: 2
    weight_filler {
      type: "xavier"
      std: 0.1
    }
    bias_filler {
      type: "constant"
      value: 0.2
    }
  }
}
layer {
  name: "conv1/relu_7x7"
  type: "ReLU"
  bottom: "conv1/7x7_s2"
  top: "conv1/7x7_s2"
}
layer {
  name: "pool1/3x3_s2"
  type: "Pooling"
  bottom: "conv1/7x7_s2"
  top: "pool1/3x3_s2"
  pooling_param {
    pool: MAX
    kernel_size: 3
    stride: 2
  }
}
layer {
  name: "pool1/norm1"
  type: "LRN"
  bottom: "pool1/3x3_s2"
  top: "pool1/norm1"
  lrn_param {
    local_size: 5
    alpha: 0.0001
    beta: 0.75
  }
}
layer {
  name: "conv2/3x3_reduce"
  type: "Convolution"
  bottom: "pool1/norm1"
  top: "conv2/3x3_reduce"
  param {
    lr_mult: 1
    decay_mult: 1
  }
  param {
    lr_mult: 2
    decay_mult: 0
  }
  convolution_param {
    num_output: 64
    kernel_size: 1
    weight_filler {
      type: "xavier"
      std: 0.1
    }
    bias_filler {
      type: "constant"
      value: 0.2
    }
  }
}
layer {
  name: "conv2/relu_3x3_reduce"
  type: "ReLU"
  bottom: "conv2/3x3_reduce"
  top: "conv2/3x3_reduce"
}
layer {
  name: "conv2/3x3"
  type: "Convolution"
  bottom: "conv2/3x3_reduce"
  top: "conv2/3x3"
  param {
    lr_mult: 1
    decay_mult: 1
  }
  param {
    lr_mult: 2
    decay_mult: 0
  }
  convolution_param {
    num_output: 192
    pad: 1
    kernel_size: 3
    weight_filler {
      type: "xavier"
      std: 0.03
    }
    bias_filler {
      type: "constant"
      value: 0.2
    }
  }
}
layer {
  name: "conv2/relu_3x3"
  type: "ReLU"
  bottom: "conv2/3x3"
  top: "conv2/3x3"
}
layer {
  name: "conv2/norm2"
  type: "LRN"
  bottom: "conv2/3x3"
  top: "conv2/norm2"
  lrn_param {
    local_size: 5
    alpha: 0.0001
    beta: 0.75
  }
}
layer {
  name: "pool2/3x3_s2"
  type: "Pooling"
  bottom: "conv2/norm2"
  top: "pool2/3x3_s2"
  pooling_param {
    pool: MAX
    kernel_size: 3
    stride: 2
  }
}
layer {
  name: "inception_3a/1x1"
  type: "Convolution"
  bottom: "pool2/3x3_s2"
  top: "inception_3a/1x1"
  param {
    lr_mult: 1
    decay_mult: 1
  }
  param {
    lr_mult: 2
    decay_mult: 0
  }
  convolution_param {
    num_output: 64
    kernel_size: 1
    weight_filler {
      type: "xavier"
      std: 0.03
    }
    bias_filler {
      type: "constant"
      value: 0.2
    }
  }
}
layer {
  name: "inception_3a/relu_1x1"
  type: "ReLU"
  bottom: "inception_3a/1x1"
  top: "inception_3a/1x1"
}
layer {
  name: "inception_3a/3x3_reduce"
  type: "Convolution"
  bottom: "pool2/3x3_s2"
  top: "inception_3a/3x3_reduce"
  param {
    lr_mult: 1
    decay_mult: 1
  }
  param {
    lr_mult: 2
    decay_mult: 0
  }
  convolution_param {
    num_output: 96
    kernel_size: 1
    weight_filler {
      type: "xavier"
      std: 0.09
    }
    bias_filler {
      type: "constant"
      value: 0.2
    }
  }
}
layer {
  name: "inception_3a/relu_3x3_reduce"
  type: "ReLU"
  bottom: "inception_3a/3x3_reduce"
  top: "inception_3a/3x3_reduce"
}
layer {
  name: "inception_3a/3x3"
  type: "Convolution"
  bottom: "inception_3a/3x3_reduce"
  top: "inception_3a/3x3"
  param {
    lr_mult: 1
    decay_mult: 1
  }
  param {
    lr_mult: 2
    decay_mult: 0
  }
  convolution_param {
    num_output: 128
    pad: 1
    kernel_size: 3
    weight_filler {
      type: "xavier"
      std: 0.03
    }
    bias_filler {
      type: "constant"
      value: 0.2
    }
  }
}
layer {
  name: "inception_3a/relu_3x3"
  type: "ReLU"
  bottom: "inception_3a/3x3"
  top: "inception_3a/3x3"
}
layer {
  name: "inception_3a/5x5_reduce"
  type: "Convolution"
  bottom: "pool2/3x3_s2"
  top: "inception_3a/5x5_reduce"
  param {
    lr_mult: 1
    decay_mult: 1
  }
  param {
    lr_mult: 2
    decay_mult: 0
  }
  convolution_param {
    num_output: 16
    kernel_size: 1
    weight_filler {
      type: "xavier"
      std: 0.2
    }
    bias_filler {
      type: "constant"
      value: 0.2
    }
  }
}
layer {
  name: "inception_3a/relu_5x5_reduce"
  type: "ReLU"
  bottom: "inception_3a/5x5_reduce"
  top: "inception_3a/5x5_reduce"
}
layer {
  name: "inception_3a/5x5"
  type: "Convolution"
  bottom: "inception_3a/5x5_reduce"
  top: "inception_3a/5x5"
  param {
    lr_mult: 1
    decay_mult: 1
  }
  param {
    lr_mult: 2
    decay_mult: 0
  }
  convolution_param {
    num_output: 32
    pad: 2
    kernel_size: 5
    weight_filler {
      type: "xavier"
      std: 0.03
    }
    bias_filler {
      type: "constant"
      value: 0.2
    }
  }
}
layer {
  name: "inception_3a/relu_5x5"
  type: "ReLU"
  bottom: "inception_3a/5x5"
  top: "inception_3a/5x5"
}
layer {
  name: "inception_3a/pool"
  type: "Pooling"
  bottom: "pool2/3x3_s2"
  top: "inception_3a/pool"
  pooling_param {
    pool: MAX
    kernel_size: 3
    stride: 1
    pad: 1
  }
}
layer {
  name: "inception_3a/pool_proj"
  type: "Convolution"
  bottom: "inception_3a/pool"
  top: "inception_3a/pool_proj"
  param {
    lr_mult: 1
    decay_mult: 1
  }
  param {
    lr_mult: 2
    decay_mult: 0
  }
  convolution_param {
    num_output: 32
    kernel_size: 1
    weight_filler {
      type: "xavier"
      std: 0.1
    }
    bias_filler {
      type: "constant"
      value: 0.2
    }
  }
}
layer {
  name: "inception_3a/relu_pool_proj"
  type: "ReLU"
  bottom: "inception_3a/pool_proj"
  top: "inception_3a/pool_proj"
}
layer {
  name: "inception_3a/output"
  type: "Concat"
  bottom: "inception_3a/1x1"
  bottom: "inception_3a/3x3"
  bottom: "inception_3a/5x5"
  bottom: "inception_3a/pool_proj"
  top: "inception_3a/output"
}
layer {
  name: "inception_3b/1x1"
  type: "Convolution"
  bottom: "inception_3a/output"
  top: "inception_3b/1x1"
  param {
    lr_mult: 1
    decay_mult: 1
  }
  param {
    lr_mult: 2
    decay_mult: 0
  }
  convolution_param {
    num_output: 128
    kernel_size: 1
    weight_filler {
      type: "xavier"
      std: 0.03
    }
    bias_filler {
      type: "constant"
      value: 0.2
    }
  }
}
layer {
  name: "inception_3b/relu_1x1"
  type: "ReLU"
  bottom: "inception_3b/1x1"
  top: "inception_3b/1x1"
}
layer {
  name: "inception_3b/3x3_reduce"
  type: "Convolution"
  bottom: "inception_3a/output"
  top: "inception_3b/3x3_reduce"
  param {
    lr_mult: 1
    decay_mult: 1
  }
  param {
    lr_mult: 2
    decay_mult: 0
  }
  convolution_param {
    num_output: 128
    kernel_size: 1
    weight_filler {
      type: "xavier"
      std: 0.09
    }
    bias_filler {
      type: "constant"
      value: 0.2
    }
  }
}
layer {
  name: "inception_3b/relu_3x3_reduce"
  type: "ReLU"
  bottom: "inception_3b/3x3_reduce"
  top: "inception_3b/3x3_reduce"
}
layer {
  name: "inception_3b/3x3"
  type: "Convolution"
  bottom: "inception_3b/3x3_reduce"
  top: "inception_3b/3x3"
  param {
    lr_mult: 1
    decay_mult: 1
  }
  param {
    lr_mult: 2
    decay_mult: 0
  }
  convolution_param {
    num_output: 192
    pad: 1
    kernel_size: 3
    weight_filler {
      type: "xavier"
      std: 0.03
    }
    bias_filler {
      type: "constant"
      value: 0.2
    }
  }
}
layer {
  name: "inception_3b/relu_3x3"
  type: "ReLU"
  bottom: "inception_3b/3x3"
  top: "inception_3b/3x3"
}
layer {
  name: "inception_3b/5x5_reduce"
  type: "Convolution"
  bottom: "inception_3a/output"
  top: "inception_3b/5x5_reduce"
  param {
    lr_mult: 1
    decay_mult: 1
  }
  param {
    lr_mult: 2
    decay_mult: 0
  }
  convolution_param {
    num_output: 32
    kernel_size: 1
    weight_filler {
      type: "xavier"
      std: 0.2
    }
    bias_filler {
      type: "constant"
      value: 0.2
    }
  }
}
layer {
  name: "inception_3b/relu_5x5_reduce"
  type: "ReLU"
  bottom: "inception_3b/5x5_reduce"
  top: "inception_3b/5x5_reduce"
}
layer {
  name: "inception_3b/5x5"
  type: "Convolution"
  bottom: "inception_3b/5x5_reduce"
  top: "inception_3b/5x5"
  param {
    lr_mult: 1
    decay_mult: 1
  }
  param {
    lr_mult: 2
    decay_mult: 0
  }
  convolution_param {
    num_output: 96
    pad: 2
    kernel_size: 5
    weight_filler {
      type: "xavier"
      std: 0.03
    }
    bias_filler {
      type: "constant"
      value: 0.2
    }
  }
}
layer {
  name: "inception_3b/relu_5x5"
  type: "ReLU"
  bottom: "inception_3b/5x5"
  top: "inception_3b/5x5"
}
layer {
  name: "inception_3b/pool"
  type: "Pooling"
  bottom: "inception_3a/output"
  top: "inception_3b/pool"
  pooling_param {
    pool: MAX
    kernel_size: 3
    stride: 1
    pad: 1
  }
}
layer {
  name: "inception_3b/pool_proj"
  type: "Convolution"
  bottom: "inception_3b/pool"
  top: "inception_3b/pool_proj"
  param {
    lr_mult: 1
    decay_mult: 1
  }
  param {
    lr_mult: 2
    decay_mult: 0
  }
  convolution_param {
    num_output: 64
    kernel_size: 1
    weight_filler {
      type: "xavier"
      std: 0.1
    }
    bias_filler {
      type: "constant"
      value: 0.2
    }
  }
}
layer {
  name: "inception_3b/relu_pool_proj"
  type: "ReLU"
  bottom: "inception_3b/pool_proj"
  top: "inception_3b/pool_proj"
}
layer {
  name: "inception_3b/output"
  type: "Concat"
  bottom: "inception_3b/1x1"
  bottom: "inception_3b/3x3"
  bottom: "inception_3b/5x5"
  bottom: "inception_3b/pool_proj"
  top: "inception_3b/output"
}
layer {
  name: "pool3/3x3_s2"
  type: "Pooling"
  bottom: "inception_3b/output"
  top: "pool3/3x3_s2"
  pooling_param {
    pool: MAX
    kernel_size: 3
    stride: 2
  }
}
layer {
  name: "inception_4a/1x1"
  type: "Convolution"
  bottom: "pool3/3x3_s2"
  top: "inception_4a/1x1"
  param {
    lr_mult: 1
    decay_mult: 1
  }
  param {
    lr_mult: 2
    decay_mult: 0
  }
  convolution_param {
    num_output: 192
    kernel_size: 1
    weight_filler {
      type: "xavier"
      std: 0.03
    }
    bias_filler {
      type: "constant"
      value: 0.2
    }
  }
}
layer {
  name: "inception_4a/relu_1x1"
  type: "ReLU"
  bottom: "inception_4a/1x1"
  top: "inception_4a/1x1"
}
layer {
  name: "inception_4a/3x3_reduce"
  type: "Convolution"
  bottom: "pool3/3x3_s2"
  top: "inception_4a/3x3_reduce"
  param {
    lr_mult: 1
    decay_mult: 1
  }
  param {
    lr_mult: 2
    decay_mult: 0
  }
  convolution_param {
    num_output: 96
    kernel_size: 1
    weight_filler {
      type: "xavier"
      std: 0.09
    }
    bias_filler {
      type: "constant"
      value: 0.2
    }
  }
}
layer {
  name: "inception_4a/relu_3x3_reduce"
  type: "ReLU"
  bottom: "inception_4a/3x3_reduce"
  top: "inception_4a/3x3_reduce"
}
layer {
  name: "inception_4a/3x3"
  type: "Convolution"
  bottom: "inception_4a/3x3_reduce"
  top: "inception_4a/3x3"
  param {
    lr_mult: 1
    decay_mult: 1
  }
  param {
    lr_mult: 2
    decay_mult: 0
  }
  convolution_param {
    num_output: 208
    pad: 1
    kernel_size: 3
    weight_filler {
      type: "xavier"
      std: 0.03
    }
    bias_filler {
      type: "constant"
      value: 0.2
    }
  }
}
layer {
  name: "inception_4a/relu_3x3"
  type: "ReLU"
  bottom: "inception_4a/3x3"
  top: "inception_4a/3x3"
}
layer {
  name: "inception_4a/5x5_reduce"
  type: "Convolution"
  bottom: "pool3/3x3_s2"
  top: "inception_4a/5x5_reduce"
  param {
    lr_mult: 1
    decay_mult: 1
  }
  param {
    lr_mult: 2
    decay_mult: 0
  }
  convolution_param {
    num_output: 16
    kernel_size: 1
    weight_filler {
      type: "xavier"
      std: 0.2
    }
    bias_filler {
      type: "constant"
      value: 0.2
    }
  }
}
layer {
  name: "inception_4a/relu_5x5_reduce"
  type: "ReLU"
  bottom: "inception_4a/5x5_reduce"
  top: "inception_4a/5x5_reduce"
}
layer {
  name: "inception_4a/5x5"
  type: "Convolution"
  bottom: "inception_4a/5x5_reduce"
  top: "inception_4a/5x5"
  param {
    lr_mult: 1
    decay_mult: 1
  }
  param {
    lr_mult: 2
    decay_mult: 0
  }
  convolution_param {
    num_output: 48
    pad: 2
    kernel_size: 5
    weight_filler {
      type: "xavier"
      std: 0.03
    }
    bias_filler {
      type: "constant"
      value: 0.2
    }
  }
}
layer {
  name: "inception_4a/relu_5x5"
  type: "ReLU"
  bottom: "inception_4a/5x5"
  top: "inception_4a/5x5"
}
layer {
  name: "inception_4a/pool"
  type: "Pooling"
  bottom: "pool3/3x3_s2"
  top: "inception_4a/pool"
  pooling_param {
    pool: MAX
    kernel_size: 3
    stride: 1
    pad: 1
  }
}
layer {
  name: "inception_4a/pool_proj"
  type: "Convolution"
  bottom: "inception_4a/pool"
  top: "inception_4a/pool_proj"
  param {
    lr_mult: 1
    decay_mult: 1
  }
  param {
    lr_mult: 2
    decay_mult: 0
  }
  convolution_param {
    num_output: 64
    kernel_size: 1
    weight_filler {
      type: "xavier"
      std: 0.1
    }
    bias_filler {
      type: "constant"
      value: 0.2
    }
  }
}
layer {
  name: "inception_4a/relu_pool_proj"
  type: "ReLU"
  bottom: "inception_4a/pool_proj"
  top: "inception_4a/pool_proj"
}
layer {
  name: "inception_4a/output"
  type: "Concat"
  bottom: "inception_4a/1x1"
  bottom: "inception_4a/3x3"
  bottom: "inception_4a/5x5"
  bottom: "inception_4a/pool_proj"
  top: "inception_4a/output"
}
layer {
  name: "loss1/ave_pool"
  type: "Pooling"
  bottom: "inception_4a/output"
  top: "loss1/ave_pool"
  pooling_param {
    pool: AVE
    kernel_size: 5
    stride: 3
  }
}
layer {
  name: "loss1/conv"
  type: "Convolution"
  bottom: "loss1/ave_pool"
  top: "loss1/conv"
  param {
    lr_mult: 1
    decay_mult: 1
  }
  param {
    lr_mult: 2
    decay_mult: 0
  }
  convolution_param {
    num_output: 128
    kernel_size: 1
    weight_filler {
      type: "xavier"
      std: 0.08
    }
    bias_filler {
      type: "constant"
      value: 0.2
    }
  }
}
layer {
  name: "loss1/relu_conv"
  type: "ReLU"
  bottom: "loss1/conv"
  top: "loss1/conv"
}
layer {
  name: "loss1/fc"
  type: "InnerProduct"
  bottom: "loss1/conv"
  top: "loss1/fc"
  param {
    lr_mult: 1
    decay_mult: 1
  }
  param {
    lr_mult: 2
    decay_mult: 0
  }
  inner_product_param {
    num_output: 1024
    weight_filler {
      type: "xavier"
      std: 0.02
    }
    bias_filler {
      type: "constant"
      value: 0.2
    }
  }
}
layer {
  name: "loss1/relu_fc"
  type: "ReLU"
  bottom: "loss1/fc"
  top: "loss1/fc"
}
layer {
  name: "loss1/drop_fc"
  type: "Dropout"
  bottom: "loss1/fc"
  top: "loss1/fc"
  dropout_param {
    dropout_ratio: 0.7
  }
}
layer {
  name: "loss1/classifier_plantvillage"
  type: "InnerProduct"
  bottom: "loss1/fc"
  top: "loss1/classifier_plantvillage"
  param {
    lr_mult: 1
    decay_mult: 1
  }
  param {
    lr_mult: 2
    decay_mult: 0
  }
  inner_product_param {
    num_output: 38
    weight_filler {
      type: "xavier"
      std: 0.0009765625
    }
    bias_filler {
      type: "constant"
      value: 0
    }
  }
}
layer {
  name: "inception_4b/1x1"
  type: "Convolution"
  bottom: "inception_4a/output"
  top: "inception_4b/1x1"
  param {
    lr_mult: 1
    decay_mult: 1
  }
  param {
    lr_mult: 2
    decay_mult: 0
  }
  convolution_param {
    num_output: 160
    kernel_size: 1
    weight_filler {
      type: "xavier"
      std: 0.03
    }
    bias_filler {
      type: "constant"
      value: 0.2
    }
  }
}
layer {
  name: "inception_4b/relu_1x1"
  type: "ReLU"
  bottom: "inception_4b/1x1"
  top: "inception_4b/1x1"
}
layer {
  name: "inception_4b/3x3_reduce"
  type: "Convolution"
  bottom: "inception_4a/output"
  top: "inception_4b/3x3_reduce"
  param {
    lr_mult: 1
    decay_mult: 1
  }
  param {
    lr_mult: 2
    decay_mult: 0
  }
  convolution_param {
    num_output: 112
    kernel_size: 1
    weight_filler {
      type: "xavier"
      std: 0.09
    }
    bias_filler {
      type: "constant"
      value: 0.2
    }
  }
}
layer {
  name: "inception_4b/relu_3x3_reduce"
  type: "ReLU"
  bottom: "inception_4b/3x3_reduce"
  top: "inception_4b/3x3_reduce"
}
layer {
  name: "inception_4b/3x3"
  type: "Convolution"
  bottom: "inception_4b/3x3_reduce"
  top: "inception_4b/3x3"
  param {
    lr_mult: 1
    decay_mult: 1
  }
  param {
    lr_mult: 2
    decay_mult: 0
  }
  convolution_param {
    num_output: 224
    pad: 1
    kernel_size: 3
    weight_filler {
      type: "xavier"
      std: 0.03
    }
    bias_filler {
      type: "constant"
      value: 0.2
    }
  }
}
layer {
  name: "inception_4b/relu_3x3"
  type: "ReLU"
  bottom: "inception_4b/3x3"
  top: "inception_4b/3x3"
}
layer {
  name: "inception_4b/5x5_reduce"
  type: "Convolution"
  bottom: "inception_4a/output"
  top: "inception_4b/5x5_reduce"
  param {
    lr_mult: 1
    decay_mult: 1
  }
  param {
    lr_mult: 2
    decay_mult: 0
  }
  convolution_param {
    num_output: 24
    kernel_size: 1
    weight_filler {
      type: "xavier"
      std: 0.2
    }
    bias_filler {
      type: "constant"
      value: 0.2
    }
  }
}
layer {
  name: "inception_4b/relu_5x5_reduce"
  type: "ReLU"
  bottom: "inception_4b/5x5_reduce"
  top: "inception_4b/5x5_reduce"
}
layer {
  name: "inception_4b/5x5"
  type: "Convolution"
  bottom: "inception_4b/5x5_reduce"
  top: "inception_4b/5x5"
  param {
    lr_mult: 1
    decay_mult: 1
  }
  param {
    lr_mult: 2
    decay_mult: 0
  }
  convolution_param {
    num_output: 64
    pad: 2
    kernel_size: 5
    weight_filler {
      type: "xavier"
      std: 0.03
    }
    bias_filler {
      type: "constant"
      value: 0.2
    }
  }
}
layer {
  name: "inception_4b/relu_5x5"
  type: "ReLU"
  bottom: "inception_4b/5x5"
  top: "inception_4b/5x5"
}
layer {
  name: "inception_4b/pool"
  type: "Pooling"
  bottom: "inception_4a/output"
  top: "inception_4b/pool"
  pooling_param {
    pool: MAX
    kernel_size: 3
    stride: 1
    pad: 1
  }
}
layer {
  name: "inception_4b/pool_proj"
  type: "Convolution"
  bottom: "inception_4b/pool"
  top: "inception_4b/pool_proj"
  param {
    lr_mult: 1
    decay_mult: 1
  }
  param {
    lr_mult: 2
    decay_mult: 0
  }
  convolution_param {
    num_output: 64
    kernel_size: 1
    weight_filler {
      type: "xavier"
      std: 0.1
    }
    bias_filler {
      type: "constant"
      value: 0.2
    }
  }
}
layer {
  name: "inception_4b/relu_pool_proj"
  type: "ReLU"
  bottom: "inception_4b/pool_proj"
  top: "inception_4b/pool_proj"
}
layer {
  name: "inception_4b/output"
  type: "Concat"
  bottom: "inception_4b/1x1"
  bottom: "inception_4b/3x3"
  bottom: "inception_4b/5x5"
  bottom: "inception_4b/pool_proj"
  top: "inception_4b/output"
}
layer {
  name: "inception_4c/1x1"
  type: "Convolution"
  bottom: "inception_4b/output"
  top: "inception_4c/1x1"
  param {
    lr_mult: 1
    decay_mult: 1
  }
  param {
    lr_mult: 2
    decay_mult: 0
  }
  convolution_param {
    num_output: 128
    kernel_size: 1
    weight_filler {
      type: "xavier"
      std: 0.03
    }
    bias_filler {
      type: "constant"
      value: 0.2
    }
  }
}
layer {
  name: "inception_4c/relu_1x1"
  type: "ReLU"
  bottom: "inception_4c/1x1"
  top: "inception_4c/1x1"
}
layer {
  name: "inception_4c/3x3_reduce"
  type: "Convolution"
  bottom: "inception_4b/output"
  top: "inception_4c/3x3_reduce"
  param {
    lr_mult: 1
    decay_mult: 1
  }
  param {
    lr_mult: 2
    decay_mult: 0
  }
  convolution_param {
    num_output: 128
    kernel_size: 1
    weight_filler {
      type: "xavier"
      std: 0.09
    }
    bias_filler {
      type: "constant"
      value: 0.2
    }
  }
}
layer {
  name: "inception_4c/relu_3x3_reduce"
  type: "ReLU"
  bottom: "inception_4c/3x3_reduce"
  top: "inception_4c/3x3_reduce"
}
layer {
  name: "inception_4c/3x3"
  type: "Convolution"
  bottom: "inception_4c/3x3_reduce"
  top: "inception_4c/3x3"
  param {
    lr_mult: 1
    decay_mult: 1
  }
  param {
    lr_mult: 2
    decay_mult: 0
  }
  convolution_param {
    num_output: 256
    pad: 1
    kernel_size: 3
    weight_filler {
      type: "xavier"
      std: 0.03
    }
    bias_filler {
      type: "constant"
      value: 0.2
    }
  }
}
layer {
  name: "inception_4c/relu_3x3"
  type: "ReLU"
  bottom: "inception_4c/3x3"
  top: "inception_4c/3x3"
}
layer {
  name: "inception_4c/5x5_reduce"
  type: "Convolution"
  bottom: "inception_4b/output"
  top: "inception_4c/5x5_reduce"
  param {
    lr_mult: 1
    decay_mult: 1
  }
  param {
    lr_mult: 2
    decay_mult: 0
  }
  convolution_param {
    num_output: 24
    kernel_size: 1
    weight_filler {
      type: "xavier"
      std: 0.2
    }
    bias_filler {
      type: "constant"
      value: 0.2
    }
  }
}
layer {
  name: "inception_4c/relu_5x5_reduce"
  type: "ReLU"
  bottom: "inception_4c/5x5_reduce"
  top: "inception_4c/5x5_reduce"
}
layer {
  name: "inception_4c/5x5"
  type: "Convolution"
  bottom: "inception_4c/5x5_reduce"
  top: "inception_4c/5x5"
  param {
    lr_mult: 1
    decay_mult: 1
  }
  param {
    lr_mult: 2
    decay_mult: 0
  }
  convolution_param {
    num_output: 64
    pad: 2
    kernel_size: 5
    weight_filler {
      type: "xavier"
      std: 0.03
    }
    bias_filler {
      type: "constant"
      value: 0.2
    }
  }
}
layer {
  name: "inception_4c/relu_5x5"
  type: "ReLU"
  bottom: "inception_4c/5x5"
  top: "inception_4c/5x5"
}
layer {
  name: "inception_4c/pool"
  type: "Pooling"
  bottom: "inception_4b/output"
  top: "inception_4c/pool"
  pooling_param {
    pool: MAX
    kernel_size: 3
    stride: 1
    pad: 1
  }
}
layer {
  name: "inception_4c/pool_proj"
  type: "Convolution"
  bottom: "inception_4c/pool"
  top: "inception_4c/pool_proj"
  param {
    lr_mult: 1
    decay_mult: 1
  }
  param {
    lr_mult: 2
    decay_mult: 0
  }
  convolution_param {
    num_output: 64
    kernel_size: 1
    weight_filler {
      type: "xavier"
      std: 0.1
    }
    bias_filler {
      type: "constant"
      value: 0.2
    }
  }
}
layer {
  name: "inception_4c/relu_pool_proj"
  type: "ReLU"
  bottom: "inception_4c/pool_proj"
  top: "inception_4c/pool_proj"
}
layer {
  name: "inception_4c/output"
  type: "Concat"
  bottom: "inception_4c/1x1"
  bottom: "inception_4c/3x3"
  bottom: "inception_4c/5x5"
  bottom: "inception_4c/pool_proj"
  top: "inception_4c/output"
}
layer {
  name: "inception_4d/1x1"
  type: "Convolution"
  bottom: "inception_4c/output"
  top: "inception_4d/1x1"
  param {
    lr_mult: 1
    decay_mult: 1
  }
  param {
    lr_mult: 2
    decay_mult: 0
  }
  convolution_param {
    num_output: 112
    kernel_size: 1
    weight_filler {
      type: "xavier"
      std: 0.03
    }
    bias_filler {
      type: "constant"
      value: 0.2
    }
  }
}
layer {
  name: "inception_4d/relu_1x1"
  type: "ReLU"
  bottom: "inception_4d/1x1"
  top: "inception_4d/1x1"
}
layer {
  name: "inception_4d/3x3_reduce"
  type: "Convolution"
  bottom: "inception_4c/output"
  top: "inception_4d/3x3_reduce"
  param {
    lr_mult: 1
    decay_mult: 1
  }
  param {
    lr_mult: 2
    decay_mult: 0
  }
  convolution_param {
    num_output: 144
    kernel_size: 1
    weight_filler {
      type: "xavier"
      std: 0.09
    }
    bias_filler {
      type: "constant"
      value: 0.2
    }
  }
}
layer {
  name: "inception_4d/relu_3x3_reduce"
  type: "ReLU"
  bottom: "inception_4d/3x3_reduce"
  top: "inception_4d/3x3_reduce"
}
layer {
  name: "inception_4d/3x3"
  type: "Convolution"
  bottom: "inception_4d/3x3_reduce"
  top: "inception_4d/3x3"
  param {
    lr_mult: 1
    decay_mult: 1
  }
  param {
    lr_mult: 2
    decay_mult: 0
  }
  convolution_param {
    num_output: 288
    pad: 1
    kernel_size: 3
    weight_filler {
      type: "xavier"
      std: 0.03
    }
    bias_filler {
      type: "constant"
      value: 0.2
    }
  }
}
layer {
  name: "inception_4d/relu_3x3"
  type: "ReLU"
  bottom: "inception_4d/3x3"
  top: "inception_4d/3x3"
}
layer {
  name: "inception_4d/5x5_reduce"
  type: "Convolution"
  bottom: "inception_4c/output"
  top: "inception_4d/5x5_reduce"
  param {
    lr_mult: 1
    decay_mult: 1
  }
  param {
    lr_mult: 2
    decay_mult: 0
  }
  convolution_param {
    num_output: 32
    kernel_size: 1
    weight_filler {
      type: "xavier"
      std: 0.2
    }
    bias_filler {
      type: "constant"
      value: 0.2
    }
  }
}
layer {
  name: "inception_4d/relu_5x5_reduce"
  type: "ReLU"
  bottom: "inception_4d/5x5_reduce"
  top: "inception_4d/5x5_reduce"
}
layer {
  name: "inception_4d/5x5"
  type: "Convolution"
  bottom: "inception_4d/5x5_reduce"
  top: "inception_4d/5x5"
  param {
    lr_mult: 1
    decay_mult: 1
  }
  param {
    lr_mult: 2
    decay_mult: 0
  }
  convolution_param {
    num_output: 64
    pad: 2
    kernel_size: 5
    weight_filler {
      type: "xavier"
      std: 0.03
    }
    bias_filler {
      type: "constant"
      value: 0.2
    }
  }
}
layer {
  name: "inception_4d/relu_5x5"
  type: "ReLU"
  bottom: "inception_4d/5x5"
  top: "inception_4d/5x5"
}
layer {
  name: "inception_4d/pool"
  type: "Pooling"
  bottom: "inception_4c/output"
  top: "inception_4d/pool"
  pooling_param {
    pool: MAX
    kernel_size: 3
    stride: 1
    pad: 1
  }
}
layer {
  name: "inception_4d/pool_proj"
  type: "Convolution"
  bottom: "inception_4d/pool"
  top: "inception_4d/pool_proj"
  param {
    lr_mult: 1
    decay_mult: 1
  }
  param {
    lr_mult: 2
    decay_mult: 0
  }
  convolution_param {
    num_output: 64
    kernel_size: 1
    weight_filler {
      type: "xavier"
      std: 0.1
    }
    bias_filler {
      type: "constant"
      value: 0.2
    }
  }
}
layer {
  name: "inception_4d/relu_pool_proj"
  type: "ReLU"
  bottom: "inception_4d/pool_proj"
  top: "inception_4d/pool_proj"
}
layer {
  name: "inception_4d/output"
  type: "Concat"
  bottom: "inception_4d/1x1"
  bottom: "inception_4d/3x3"
  bottom: "inception_4d/5x5"
  bottom: "inception_4d/pool_proj"
  top: "inception_4d/output"
}
layer {
  name: "loss2/ave_pool"
  type: "Pooling"
  bottom: "inception_4d/output"
  top: "loss2/ave_pool"
  pooling_param {
    pool: AVE
    kernel_size: 5
    stride: 3
  }
}
layer {
  name: "loss2/conv"
  type: "Convolution"
  bottom: "loss2/ave_pool"
  top: "loss2/conv"
  param {
    lr_mult: 1
    decay_mult: 1
  }
  param {
    lr_mult: 2
    decay_mult: 0
  }
  convolution_param {
    num_output: 128
    kernel_size: 1
    weight_filler {
      type: "xavier"
      std: 0.08
    }
    bias_filler {
      type: "constant"
      value: 0.2
    }
  }
}
layer {
  name: "loss2/relu_conv"
  type: "ReLU"
  bottom: "loss2/conv"
  top: "loss2/conv"
}
layer {
  name: "loss2/fc"
  type: "InnerProduct"
  bottom: "loss2/conv"
  top: "loss2/fc"
  param {
    lr_mult: 1
    decay_mult: 1
  }
  param {
    lr_mult: 2
    decay_mult: 0
  }
  inner_product_param {
    num_output: 1024
    weight_filler {
      type: "xavier"
      std: 0.02
    }
    bias_filler {
      type: "constant"
      value: 0.2
    }
  }
}
layer {
  name: "loss2/relu_fc"
  type: "ReLU"
  bottom: "loss2/fc"
  top: "loss2/fc"
}
layer {
  name: "loss2/drop_fc"
  type: "Dropout"
  bottom: "loss2/fc"
  top: "loss2/fc"
  dropout_param {
    dropout_ratio: 0.7
  }
}
layer {
  name: "loss2/classifier_plantvillage"
  type: "InnerProduct"
  bottom: "loss2/fc"
  top: "loss2/classifier_plantvillage"
  param {
    lr_mult: 1
    decay_mult: 1
  }
  param {
    lr_mult: 2
    decay_mult: 0
  }
  inner_product_param {
    num_output: 38
    weight_filler {
      type: "xavier"
      std: 0.0009765625
    }
    bias_filler {
      type: "constant"
      value: 0
    }
  }
}
layer {
  name: "inception_4e/1x1"
  type: "Convolution"
  bottom: "inception_4d/output"
  top: "inception_4e/1x1"
  param {
    lr_mult: 1
    decay_mult: 1
  }
  param {
    lr_mult: 2
    decay_mult: 0
  }
  convolution_param {
    num_output: 256
    kernel_size: 1
    weight_filler {
      type: "xavier"
      std: 0.03
    }
    bias_filler {
      type: "constant"
      value: 0.2
    }
  }
}
layer {
  name: "inception_4e/relu_1x1"
  type: "ReLU"
  bottom: "inception_4e/1x1"
  top: "inception_4e/1x1"
}
layer {
  name: "inception_4e/3x3_reduce"
  type: "Convolution"
  bottom: "inception_4d/output"
  top: "inception_4e/3x3_reduce"
  param {
    lr_mult: 1
    decay_mult: 1
  }
  param {
    lr_mult: 2
    decay_mult: 0
  }
  convolution_param {
    num_output: 160
    kernel_size: 1
    weight_filler {
      type: "xavier"
      std: 0.09
    }
    bias_filler {
      type: "constant"
      value: 0.2
    }
  }
}
layer {
  name: "inception_4e/relu_3x3_reduce"
  type: "ReLU"
  bottom: "inception_4e/3x3_reduce"
  top: "inception_4e/3x3_reduce"
}
layer {
  name: "inception_4e/3x3"
  type: "Convolution"
  bottom: "inception_4e/3x3_reduce"
  top: "inception_4e/3x3"
  param {
    lr_mult: 1
    decay_mult: 1
  }
  param {
    lr_mult: 2
    decay_mult: 0
  }
  convolution_param {
    num_output: 320
    pad: 1
    kernel_size: 3
    weight_filler {
      type: "xavier"
      std: 0.03
    }
    bias_filler {
      type: "constant"
      value: 0.2
    }
  }
}
layer {
  name: "inception_4e/relu_3x3"
  type: "ReLU"
  bottom: "inception_4e/3x3"
  top: "inception_4e/3x3"
}
layer {
  name: "inception_4e/5x5_reduce"
  type: "Convolution"
  bottom: "inception_4d/output"
  top: "inception_4e/5x5_reduce"
  param {
    lr_mult: 1
    decay_mult: 1
  }
  param {
    lr_mult: 2
    decay_mult: 0
  }
  convolution_param {
    num_output: 32
    kernel_size: 1
    weight_filler {
      type: "xavier"
      std: 0.2
    }
    bias_filler {
      type: "constant"
      value: 0.2
    }
  }
}
layer {
  name: "inception_4e/relu_5x5_reduce"
  type: "ReLU"
  bottom: "inception_4e/5x5_reduce"
  top: "inception_4e/5x5_reduce"
}
layer {
  name: "inception_4e/5x5"
  type: "Convolution"
  bottom: "inception_4e/5x5_reduce"
  top: "inception_4
I0403 10:43:25.414888 13560 layer_factory.hpp:77] Creating layer data
I0403 10:43:25.415658 13560 net.cpp:91] Creating Layer data
I0403 10:43:25.415702 13560 net.cpp:399] data -> data
I0403 10:43:25.415767 13560 net.cpp:399] data -> label
I0403 10:43:25.415809 13560 data_transformer.cpp:25] Loading mean file from: /home/mohanty/data/final_dataset/lmdb/segmented-60-40/mean.binaryproto
I0403 10:43:25.482856 13563 db_lmdb.cpp:38] Opened lmdb /home/mohanty/data/final_dataset/lmdb/segmented-60-40/train_db
I0403 10:43:25.497697 13560 data_layer.cpp:41] output data size: 24,3,224,224
I0403 10:43:25.529762 13560 net.cpp:141] Setting up data
I0403 10:43:25.529844 13560 net.cpp:148] Top shape: 24 3 224 224 (3612672)
I0403 10:43:25.529871 13560 net.cpp:148] Top shape: 24 (24)
I0403 10:43:25.529891 13560 net.cpp:156] Memory required for data: 14450784
I0403 10:43:25.529964 13560 layer_factory.hpp:77] Creating layer label_data_1_split
I0403 10:43:25.530001 13560 net.cpp:91] Creating Layer label_data_1_split
I0403 10:43:25.530026 13560 net.cpp:425] label_data_1_split <- label
I0403 10:43:25.530061 13560 net.cpp:399] label_data_1_split -> label_data_1_split_0
I0403 10:43:25.530094 13560 net.cpp:399] label_data_1_split -> label_data_1_split_1
I0403 10:43:25.530122 13560 net.cpp:399] label_data_1_split -> label_data_1_split_2
I0403 10:43:25.530200 13560 net.cpp:141] Setting up label_data_1_split
I0403 10:43:25.530230 13560 net.cpp:148] Top shape: 24 (24)
I0403 10:43:25.530259 13560 net.cpp:148] Top shape: 24 (24)
I0403 10:43:25.530280 13560 net.cpp:148] Top shape: 24 (24)
I0403 10:43:25.530297 13560 net.cpp:156] Memory required for data: 14451072
I0403 10:43:25.530316 13560 layer_factory.hpp:77] Creating layer conv1/7x7_s2
I0403 10:43:25.530356 13560 net.cpp:91] Creating Layer conv1/7x7_s2
I0403 10:43:25.530380 13560 net.cpp:425] conv1/7x7_s2 <- data
I0403 10:43:25.530405 13560 net.cpp:399] conv1/7x7_s2 -> conv1/7x7_s2
I0403 10:43:25.531513 13560 net.cpp:141] Setting up conv1/7x7_s2
I0403 10:43:25.531549 13560 net.cpp:148] Top shape: 24 64 112 112 (19267584)
I0403 10:43:25.531570 13560 net.cpp:156] Memory required for data: 91521408
I0403 10:43:25.531611 13560 layer_factory.hpp:77] Creating layer conv1/relu_7x7
I0403 10:43:25.531644 13560 net.cpp:91] Creating Layer conv1/relu_7x7
I0403 10:43:25.531666 13560 net.cpp:425] conv1/relu_7x7 <- conv1/7x7_s2
I0403 10:43:25.531689 13560 net.cpp:386] conv1/relu_7x7 -> conv1/7x7_s2 (in-place)
I0403 10:43:25.531716 13560 net.cpp:141] Setting up conv1/relu_7x7
I0403 10:43:25.531738 13560 net.cpp:148] Top shape: 24 64 112 112 (19267584)
I0403 10:43:25.531757 13560 net.cpp:156] Memory required for data: 168591744
I0403 10:43:25.531776 13560 layer_factory.hpp:77] Creating layer pool1/3x3_s2
I0403 10:43:25.531802 13560 net.cpp:91] Creating Layer pool1/3x3_s2
I0403 10:43:25.531822 13560 net.cpp:425] pool1/3x3_s2 <- conv1/7x7_s2
I0403 10:43:25.531847 13560 net.cpp:399] pool1/3x3_s2 -> pool1/3x3_s2
I0403 10:43:25.531924 13560 net.cpp:141] Setting up pool1/3x3_s2
I0403 10:43:25.531954 13560 net.cpp:148] Top shape: 24 64 56 56 (4816896)
I0403 10:43:25.531973 13560 net.cpp:156] Memory required for data: 187859328
I0403 10:43:25.531992 13560 layer_factory.hpp:77] Creating layer pool1/norm1
I0403 10:43:25.532016 13560 net.cpp:91] Creating Layer pool1/norm1
I0403 10:43:25.532035 13560 net.cpp:425] pool1/norm1 <- pool1/3x3_s2
I0403 10:43:25.532058 13560 net.cpp:399] pool1/norm1 -> pool1/norm1
I0403 10:43:25.532121 13560 net.cpp:141] Setting up pool1/norm1
I0403 10:43:25.532150 13560 net.cpp:148] Top shape: 24 64 56 56 (4816896)
I0403 10:43:25.532168 13560 net.cpp:156] Memory required for data: 207126912
I0403 10:43:25.532187 13560 layer_factory.hpp:77] Creating layer conv2/3x3_reduce
I0403 10:43:25.532214 13560 net.cpp:91] Creating Layer conv2/3x3_reduce
I0403 10:43:25.532239 13560 net.cpp:425] conv2/3x3_reduce <- pool1/norm1
I0403 10:43:25.532268 13560 net.cpp:399] conv2/3x3_reduce -> conv2/3x3_reduce
I0403 10:43:25.534615 13560 net.cpp:141] Setting up conv2/3x3_reduce
I0403 10:43:25.534663 13560 net.cpp:148] Top shape: 24 64 56 56 (4816896)
I0403 10:43:25.534685 13560 net.cpp:156] Memory required for data: 226394496
I0403 10:43:25.534713 13560 layer_factory.hpp:77] Creating layer conv2/relu_3x3_reduce
I0403 10:43:25.534739 13560 net.cpp:91] Creating Layer conv2/relu_3x3_reduce
I0403 10:43:25.534759 13560 net.cpp:425] conv2/relu_3x3_reduce <- conv2/3x3_reduce
I0403 10:43:25.534780 13560 net.cpp:386] conv2/relu_3x3_reduce -> conv2/3x3_reduce (in-place)
I0403 10:43:25.534806 13560 net.cpp:141] Setting up conv2/relu_3x3_reduce
I0403 10:43:25.534827 13560 net.cpp:148] Top shape: 24 64 56 56 (4816896)
I0403 10:43:25.534847 13560 net.cpp:156] Memory required for data: 245662080
I0403 10:43:25.534867 13560 layer_factory.hpp:77] Creating layer conv2/3x3
I0403 10:43:25.534896 13560 net.cpp:91] Creating Layer conv2/3x3
I0403 10:43:25.534919 13560 net.cpp:425] conv2/3x3 <- conv2/3x3_reduce
I0403 10:43:25.534965 13560 net.cpp:399] conv2/3x3 -> conv2/3x3
I0403 10:43:25.536311 13565 blocking_queue.cpp:50] Waiting for data
I0403 10:43:25.536599 13560 net.cpp:141] Setting up conv2/3x3
I0403 10:43:25.536635 13560 net.cpp:148] Top shape: 24 192 56 56 (14450688)
I0403 10:43:25.536656 13560 net.cpp:156] Memory required for data: 303464832
I0403 10:43:25.536682 13560 layer_factory.hpp:77] Creating layer conv2/relu_3x3
I0403 10:43:25.536707 13560 net.cpp:91] Creating Layer conv2/relu_3x3
I0403 10:43:25.536727 13560 net.cpp:425] conv2/relu_3x3 <- conv2/3x3
I0403 10:43:25.536751 13560 net.cpp:386] conv2/relu_3x3 -> conv2/3x3 (in-place)
I0403 10:43:25.536774 13560 net.cpp:141] Setting up conv2/relu_3x3
I0403 10:43:25.536795 13560 net.cpp:148] Top shape: 24 192 56 56 (14450688)
I0403 10:43:25.536813 13560 net.cpp:156] Memory required for data: 361267584
I0403 10:43:25.536831 13560 layer_factory.hpp:77] Creating layer conv2/norm2
I0403 10:43:25.536854 13560 net.cpp:91] Creating Layer conv2/norm2
I0403 10:43:25.536875 13560 net.cpp:425] conv2/norm2 <- conv2/3x3
I0403 10:43:25.536896 13560 net.cpp:399] conv2/norm2 -> conv2/norm2
I0403 10:43:25.536954 13560 net.cpp:141] Setting up conv2/norm2
I0403 10:43:25.536983 13560 net.cpp:148] Top shape: 24 192 56 56 (14450688)
I0403 10:43:25.537003 13560 net.cpp:156] Memory required for data: 419070336
I0403 10:43:25.537021 13560 layer_factory.hpp:77] Creating layer pool2/3x3_s2
I0403 10:43:25.537045 13560 net.cpp:91] Creating Layer pool2/3x3_s2
I0403 10:43:25.537065 13560 net.cpp:425] pool2/3x3_s2 <- conv2/norm2
I0403 10:43:25.537088 13560 net.cpp:399] pool2/3x3_s2 -> pool2/3x3_s2
I0403 10:43:25.537143 13560 net.cpp:141] Setting up pool2/3x3_s2
I0403 10:43:25.537170 13560 net.cpp:148] Top shape: 24 192 28 28 (3612672)
I0403 10:43:25.537189 13560 net.cpp:156] Memory required for data: 433521024
I0403 10:43:25.537207 13560 layer_factory.hpp:77] Creating layer pool2/3x3_s2_pool2/3x3_s2_0_split
I0403 10:43:25.537230 13560 net.cpp:91] Creating Layer pool2/3x3_s2_pool2/3x3_s2_0_split
I0403 10:43:25.537256 13560 net.cpp:425] pool2/3x3_s2_pool2/3x3_s2_0_split <- pool2/3x3_s2
I0403 10:43:25.537281 13560 net.cpp:399] pool2/3x3_s2_pool2/3x3_s2_0_split -> pool2/3x3_s2_pool2/3x3_s2_0_split_0
I0403 10:43:25.537307 13560 net.cpp:399] pool2/3x3_s2_pool2/3x3_s2_0_split -> pool2/3x3_s2_pool2/3x3_s2_0_split_1
I0403 10:43:25.537331 13560 net.cpp:399] pool2/3x3_s2_pool2/3x3_s2_0_split -> pool2/3x3_s2_pool2/3x3_s2_0_split_2
I0403 10:43:25.537356 13560 net.cpp:399] pool2/3x3_s2_pool2/3x3_s2_0_split -> pool2/3x3_s2_pool2/3x3_s2_0_split_3
I0403 10:43:25.537431 13560 net.cpp:141] Setting up pool2/3x3_s2_pool2/3x3_s2_0_split
I0403 10:43:25.537461 13560 net.cpp:148] Top shape: 24 192 28 28 (3612672)
I0403 10:43:25.537482 13560 net.cpp:148] Top shape: 24 192 28 28 (3612672)
I0403 10:43:25.537502 13560 net.cpp:148] Top shape: 24 192 28 28 (3612672)
I0403 10:43:25.537521 13560 net.cpp:148] Top shape: 24 192 28 28 (3612672)
I0403 10:43:25.537539 13560 net.cpp:156] Memory required for data: 491323776
I0403 10:43:25.537557 13560 layer_factory.hpp:77] Creating layer inception_3a/1x1
I0403 10:43:25.537585 13560 net.cpp:91] Creating Layer inception_3a/1x1
I0403 10:43:25.537605 13560 net.cpp:425] inception_3a/1x1 <- pool2/3x3_s2_pool2/3x3_s2_0_split_0
I0403 10:43:25.537629 13560 net.cpp:399] inception_3a/1x1 -> inception_3a/1x1
I0403 10:43:25.538607 13560 net.cpp:141] Setting up inception_3a/1x1
I0403 10:43:25.538645 13560 net.cpp:148] Top shape: 24 64 28 28 (1204224)
I0403 10:43:25.538667 13560 net.cpp:156] Memory required for data: 496140672
I0403 10:43:25.538692 13560 layer_factory.hpp:77] Creating layer inception_3a/relu_1x1
I0403 10:43:25.538722 13560 net.cpp:91] Creating Layer inception_3a/relu_1x1
I0403 10:43:25.538744 13560 net.cpp:425] inception_3a/relu_1x1 <- inception_3a/1x1
I0403 10:43:25.538769 13560 net.cpp:386] inception_3a/relu_1x1 -> inception_3a/1x1 (in-place)
I0403 10:43:25.538795 13560 net.cpp:141] Setting up inception_3a/relu_1x1
I0403 10:43:25.538821 13560 net.cpp:148] Top shape: 24 64 28 28 (1204224)
I0403 10:43:25.538861 13560 net.cpp:156] Memory required for data: 500957568
I0403 10:43:25.538883 13560 layer_factory.hpp:77] Creating layer inception_3a/3x3_reduce
I0403 10:43:25.538913 13560 net.cpp:91] Creating Layer inception_3a/3x3_reduce
I0403 10:43:25.538935 13560 net.cpp:425] inception_3a/3x3_reduce <- pool2/3x3_s2_pool2/3x3_s2_0_split_1
I0403 10:43:25.538961 13560 net.cpp:399] inception_3a/3x3_reduce -> inception_3a/3x3_reduce
I0403 10:43:25.539983 13560 net.cpp:141] Setting up inception_3a/3x3_reduce
I0403 10:43:25.540017 13560 net.cpp:148] Top shape: 24 96 28 28 (1806336)
I0403 10:43:25.540037 13560 net.cpp:156] Memory required for data: 508182912
I0403 10:43:25.540063 13560 layer_factory.hpp:77] Creating layer inception_3a/relu_3x3_reduce
I0403 10:43:25.540092 13560 net.cpp:91] Creating Layer inception_3a/relu_3x3_reduce
I0403 10:43:25.540115 13560 net.cpp:425] inception_3a/relu_3x3_reduce <- inception_3a/3x3_reduce
I0403 10:43:25.540138 13560 net.cpp:386] inception_3a/relu_3x3_reduce -> inception_3a/3x3_reduce (in-place)
I0403 10:43:25.540161 13560 net.cpp:141] Setting up inception_3a/relu_3x3_reduce
I0403 10:43:25.540184 13560 net.cpp:148] Top shape: 24 96 28 28 (1806336)
I0403 10:43:25.540204 13560 net.cpp:156] Memory required for data: 515408256
I0403 10:43:25.540221 13560 layer_factory.hpp:77] Creating layer inception_3a/3x3
I0403 10:43:25.540256 13560 net.cpp:91] Creating Layer inception_3a/3x3
I0403 10:43:25.540279 13560 net.cpp:425] inception_3a/3x3 <- inception_3a/3x3_reduce
I0403 10:43:25.540307 13560 net.cpp:399] inception_3a/3x3 -> inception_3a/3x3
I0403 10:43:25.541286 13560 net.cpp:141] Setting up inception_3a/3x3
I0403 10:43:25.541318 13560 net.cpp:148] Top shape: 24 128 28 28 (2408448)
I0403 10:43:25.541338 13560 net.cpp:156] Memory required for data: 525042048
I0403 10:43:25.541360 13560 layer_factory.hpp:77] Creating layer inception_3a/relu_3x3
I0403 10:43:25.541383 13560 net.cpp:91] Creating Layer inception_3a/relu_3x3
I0403 10:43:25.541402 13560 net.cpp:425] inception_3a/relu_3x3 <- inception_3a/3x3
I0403 10:43:25.541424 13560 net.cpp:386] inception_3a/relu_3x3 -> inception_3a/3x3 (in-place)
I0403 10:43:25.541450 13560 net.cpp:141] Setting up inception_3a/relu_3x3
I0403 10:43:25.541471 13560 net.cpp:148] Top shape: 24 128 28 28 (2408448)
I0403 10:43:25.541491 13560 net.cpp:156] Memory required for data: 534675840
I0403 10:43:25.541509 13560 layer_factory.hpp:77] Creating layer inception_3a/5x5_reduce
I0403 10:43:25.541538 13560 net.cpp:91] Creating Layer inception_3a/5x5_reduce
I0403 10:43:25.541560 13560 net.cpp:425] inception_3a/5x5_reduce <- pool2/3x3_s2_pool2/3x3_s2_0_split_2
I0403 10:43:25.541589 13560 net.cpp:399] inception_3a/5x5_reduce -> inception_3a/5x5_reduce
I0403 10:43:25.541864 13560 net.cpp:141] Setting up inception_3a/5x5_reduce
I0403 10:43:25.541895 13560 net.cpp:148] Top shape: 24 16 28 28 (301056)
I0403 10:43:25.541914 13560 net.cpp:156] Memory required for data: 535880064
I0403 10:43:25.541936 13560 layer_factory.hpp:77] Creating layer inception_3a/relu_5x5_reduce
I0403 10:43:25.541962 13560 net.cpp:91] Creating Layer inception_3a/relu_5x5_reduce
I0403 10:43:25.541985 13560 net.cpp:425] inception_3a/relu_5x5_reduce <- inception_3a/5x5_reduce
I0403 10:43:25.542008 13560 net.cpp:386] inception_3a/relu_5x5_reduce -> inception_3a/5x5_reduce (in-place)
I0403 10:43:25.542032 13560 net.cpp:141] Setting up inception_3a/relu_5x5_reduce
I0403 10:43:25.542052 13560 net.cpp:148] Top shape: 24 16 28 28 (301056)
I0403 10:43:25.542070 13560 net.cpp:156] Memory required for data: 537084288
I0403 10:43:25.542088 13560 layer_factory.hpp:77] Creating layer inception_3a/5x5
I0403 10:43:25.542119 13560 net.cpp:91] Creating Layer inception_3a/5x5
I0403 10:43:25.542140 13560 net.cpp:425] inception_3a/5x5 <- inception_3a/5x5_reduce
I0403 10:43:25.542167 13560 net.cpp:399] inception_3a/5x5 -> inception_3a/5x5
I0403 10:43:25.542502 13560 net.cpp:141] Setting up inception_3a/5x5
I0403 10:43:25.542533 13560 net.cpp:148] Top shape: 24 32 28 28 (602112)
I0403 10:43:25.542572 13560 net.cpp:156] Memory required for data: 539492736
I0403 10:43:25.542595 13560 layer_factory.hpp:77] Creating layer inception_3a/relu_5x5
I0403 10:43:25.542620 13560 net.cpp:91] Creating Layer inception_3a/relu_5x5
I0403 10:43:25.542640 13560 net.cpp:425] inception_3a/relu_5x5 <- inception_3a/5x5
I0403 10:43:25.542662 13560 net.cpp:386] inception_3a/relu_5x5 -> inception_3a/5x5 (in-place)
I0403 10:43:25.542686 13560 net.cpp:141] Setting up inception_3a/relu_5x5
I0403 10:43:25.542707 13560 net.cpp:148] Top shape: 24 32 28 28 (602112)
I0403 10:43:25.542726 13560 net.cpp:156] Memory required for data: 541901184
I0403 10:43:25.542745 13560 layer_factory.hpp:77] Creating layer inception_3a/pool
I0403 10:43:25.542770 13560 net.cpp:91] Creating Layer inception_3a/pool
I0403 10:43:25.542793 13560 net.cpp:425] inception_3a/pool <- pool2/3x3_s2_pool2/3x3_s2_0_split_3
I0403 10:43:25.542815 13560 net.cpp:399] inception_3a/pool -> inception_3a/pool
I0403 10:43:25.542877 13560 net.cpp:141] Setting up inception_3a/pool
I0403 10:43:25.542906 13560 net.cpp:148] Top shape: 24 192 28 28 (3612672)
I0403 10:43:25.542925 13560 net.cpp:156] Memory required for data: 556351872
I0403 10:43:25.542945 13560 layer_factory.hpp:77] Creating layer inception_3a/pool_proj
I0403 10:43:25.542979 13560 net.cpp:91] Creating Layer inception_3a/pool_proj
I0403 10:43:25.543000 13560 net.cpp:425] inception_3a/pool_proj <- inception_3a/pool
I0403 10:43:25.543025 13560 net.cpp:399] inception_3a/pool_proj -> inception_3a/pool_proj
I0403 10:43:25.543309 13560 net.cpp:141] Setting up inception_3a/pool_proj
I0403 10:43:25.543344 13560 net.cpp:148] Top shape: 24 32 28 28 (602112)
I0403 10:43:25.543362 13560 net.cpp:156] Memory required for data: 558760320
I0403 10:43:25.543390 13560 layer_factory.hpp:77] Creating layer inception_3a/relu_pool_proj
I0403 10:43:25.543414 13560 net.cpp:91] Creating Layer inception_3a/relu_pool_proj
I0403 10:43:25.543436 13560 net.cpp:425] inception_3a/relu_pool_proj <- inception_3a/pool_proj
I0403 10:43:25.543457 13560 net.cpp:386] inception_3a/relu_pool_proj -> inception_3a/pool_proj (in-place)
I0403 10:43:25.543483 13560 net.cpp:141] Setting up inception_3a/relu_pool_proj
I0403 10:43:25.543505 13560 net.cpp:148] Top shape: 24 32 28 28 (602112)
I0403 10:43:25.543524 13560 net.cpp:156] Memory required for data: 561168768
I0403 10:43:25.543542 13560 layer_factory.hpp:77] Creating layer inception_3a/output
I0403 10:43:25.543563 13560 net.cpp:91] Creating Layer inception_3a/output
I0403 10:43:25.543583 13560 net.cpp:425] inception_3a/output <- inception_3a/1x1
I0403 10:43:25.543607 13560 net.cpp:425] inception_3a/output <- inception_3a/3x3
I0403 10:43:25.543629 13560 net.cpp:425] inception_3a/output <- inception_3a/5x5
I0403 10:43:25.543650 13560 net.cpp:425] inception_3a/output <- inception_3a/pool_proj
I0403 10:43:25.543671 13560 net.cpp:399] inception_3a/output -> inception_3a/output
I0403 10:43:25.543726 13560 net.cpp:141] Setting up inception_3a/output
I0403 10:43:25.543756 13560 net.cpp:148] Top shape: 24 256 28 28 (4816896)
I0403 10:43:25.543774 13560 net.cpp:156] Memory required for data: 580436352
I0403 10:43:25.543792 13560 layer_factory.hpp:77] Creating layer inception_3a/output_inception_3a/output_0_split
I0403 10:43:25.543815 13560 net.cpp:91] Creating Layer inception_3a/output_inception_3a/output_0_split
I0403 10:43:25.543835 13560 net.cpp:425] inception_3a/output_inception_3a/output_0_split <- inception_3a/output
I0403 10:43:25.543860 13560 net.cpp:399] inception_3a/output_inception_3a/output_0_split -> inception_3a/output_inception_3a/output_0_split_0
I0403 10:43:25.543887 13560 net.cpp:399] inception_3a/output_inception_3a/output_0_split -> inception_3a/output_inception_3a/output_0_split_1
I0403 10:43:25.543913 13560 net.cpp:399] inception_3a/output_inception_3a/output_0_split -> inception_3a/output_inception_3a/output_0_split_2
I0403 10:43:25.543941 13560 net.cpp:399] inception_3a/output_inception_3a/output_0_split -> inception_3a/output_inception_3a/output_0_split_3
I0403 10:43:25.544024 13560 net.cpp:141] Setting up inception_3a/output_inception_3a/output_0_split
I0403 10:43:25.544070 13560 net.cpp:148] Top shape: 24 256 28 28 (4816896)
I0403 10:43:25.544092 13560 net.cpp:148] Top shape: 24 256 28 28 (4816896)
I0403 10:43:25.544112 13560 net.cpp:148] Top shape: 24 256 28 28 (4816896)
I0403 10:43:25.544131 13560 net.cpp:148] Top shape: 24 256 28 28 (4816896)
I0403 10:43:25.544149 13560 net.cpp:156] Memory required for data: 657506688
I0403 10:43:25.544168 13560 layer_factory.hpp:77] Creating layer inception_3b/1x1
I0403 10:43:25.544198 13560 net.cpp:91] Creating Layer inception_3b/1x1
I0403 10:43:25.544220 13560 net.cpp:425] inception_3b/1x1 <- inception_3a/output_inception_3a/output_0_split_0
I0403 10:43:25.544250 13560 net.cpp:399] inception_3b/1x1 -> inception_3b/1x1
I0403 10:43:25.544708 13560 net.cpp:141] Setting up inception_3b/1x1
I0403 10:43:25.544739 13560 net.cpp:148] Top shape: 24 128 28 28 (2408448)
I0403 10:43:25.544759 13560 net.cpp:156] Memory required for data: 667140480
I0403 10:43:25.544781 13560 layer_factory.hpp:77] Creating layer inception_3b/relu_1x1
I0403 10:43:25.544803 13560 net.cpp:91] Creating Layer inception_3b/relu_1x1
I0403 10:43:25.544823 13560 net.cpp:425] inception_3b/relu_1x1 <- inception_3b/1x1
I0403 10:43:25.544845 13560 net.cpp:386] inception_3b/relu_1x1 -> inception_3b/1x1 (in-place)
I0403 10:43:25.544870 13560 net.cpp:141] Setting up inception_3b/relu_1x1
I0403 10:43:25.544893 13560 net.cpp:148] Top shape: 24 128 28 28 (2408448)
I0403 10:43:25.544911 13560 net.cpp:156] Memory required for data: 676774272
I0403 10:43:25.544929 13560 layer_factory.hpp:77] Creating layer inception_3b/3x3_reduce
I0403 10:43:25.544958 13560 net.cpp:91] Creating Layer inception_3b/3x3_reduce
I0403 10:43:25.544980 13560 net.cpp:425] inception_3b/3x3_reduce <- inception_3a/output_inception_3a/output_0_split_1
I0403 10:43:25.545007 13560 net.cpp:399] inception_3b/3x3_reduce -> inception_3b/3x3_reduce
I0403 10:43:25.545478 13560 net.cpp:141] Setting up inception_3b/3x3_reduce
I0403 10:43:25.545509 13560 net.cpp:148] Top shape: 24 128 28 28 (2408448)
I0403 10:43:25.545528 13560 net.cpp:156] Memory required for data: 686408064
I0403 10:43:25.545552 13560 layer_factory.hpp:77] Creating layer inception_3b/relu_3x3_reduce
I0403 10:43:25.545574 13560 net.cpp:91] Creating Layer inception_3b/relu_3x3_reduce
I0403 10:43:25.545593 13560 net.cpp:425] inception_3b/relu_3x3_reduce <- inception_3b/3x3_reduce
I0403 10:43:25.545616 13560 net.cpp:386] inception_3b/relu_3x3_reduce -> inception_3b/3x3_reduce (in-place)
I0403 10:43:25.545640 13560 net.cpp:141] Setting up inception_3b/relu_3x3_reduce
I0403 10:43:25.545662 13560 net.cpp:148] Top shape: 24 128 28 28 (2408448)
I0403 10:43:25.545681 13560 net.cpp:156] Memory required for data: 696041856
I0403 10:43:25.545698 13560 layer_factory.hpp:77] Creating layer inception_3b/3x3
I0403 10:43:25.545730 13560 net.cpp:91] Creating Layer inception_3b/3x3
I0403 10:43:25.545755 13560 net.cpp:425] inception_3b/3x3 <- inception_3b/3x3_reduce
I0403 10:43:25.545780 13560 net.cpp:399] inception_3b/3x3 -> inception_3b/3x3
I0403 10:43:25.548143 13560 net.cpp:141] Setting up inception_3b/3x3
I0403 10:43:25.548179 13560 net.cpp:148] Top shape: 24 192 28 28 (3612672)
I0403 10:43:25.548198 13560 net.cpp:156] Memory required for data: 710492544
I0403 10:43:25.548221 13560 layer_factory.hpp:77] Creating layer inception_3b/relu_3x3
I0403 10:43:25.548260 13560 net.cpp:91] Creating Layer inception_3b/relu_3x3
I0403 10:43:25.548285 13560 net.cpp:425] inception_3b/relu_3x3 <- inception_3b/3x3
I0403 10:43:25.548308 13560 net.cpp:386] inception_3b/relu_3x3 -> inception_3b/3x3 (in-place)
I0403 10:43:25.548333 13560 net.cpp:141] Setting up inception_3b/relu_3x3
I0403 10:43:25.548354 13560 net.cpp:148] Top shape: 24 192 28 28 (3612672)
I0403 10:43:25.548373 13560 net.cpp:156] Memory required for data: 724943232
I0403 10:43:25.548391 13560 layer_factory.hpp:77] Creating layer inception_3b/5x5_reduce
I0403 10:43:25.548420 13560 net.cpp:91] Creating Layer inception_3b/5x5_reduce
I0403 10:43:25.548460 13560 net.cpp:425] inception_3b/5x5_reduce <- inception_3a/output_inception_3a/output_0_split_2
I0403 10:43:25.548488 13560 net.cpp:399] inception_3b/5x5_reduce -> inception_3b/5x5_reduce
I0403 10:43:25.548796 13560 net.cpp:141] Setting up inception_3b/5x5_reduce
I0403 10:43:25.548827 13560 net.cpp:148] Top shape: 24 32 28 28 (602112)
I0403 10:43:25.548846 13560 net.cpp:156] Memory required for data: 727351680
I0403 10:43:25.548869 13560 layer_factory.hpp:77] Creating layer inception_3b/relu_5x5_reduce
I0403 10:43:25.548892 13560 net.cpp:91] Creating Layer inception_3b/relu_5x5_reduce
I0403 10:43:25.548913 13560 net.cpp:425] inception_3b/relu_5x5_reduce <- inception_3b/5x5_reduce
I0403 10:43:25.548936 13560 net.cpp:386] inception_3b/relu_5x5_reduce -> inception_3b/5x5_reduce (in-place)
I0403 10:43:25.548959 13560 net.cpp:141] Setting up inception_3b/relu_5x5_reduce
I0403 10:43:25.548981 13560 net.cpp:148] Top shape: 24 32 28 28 (602112)
I0403 10:43:25.549000 13560 net.cpp:156] Memory required for data: 729760128
I0403 10:43:25.549018 13560 layer_factory.hpp:77] Creating layer inception_3b/5x5
I0403 10:43:25.549048 13560 net.cpp:91] Creating Layer inception_3b/5x5
I0403 10:43:25.549070 13560 net.cpp:425] inception_3b/5x5 <- inception_3b/5x5_reduce
I0403 10:43:25.549098 13560 net.cpp:399] inception_3b/5x5 -> inception_3b/5x5
I0403 10:43:25.550498 13560 net.cpp:141] Setting up inception_3b/5x5
I0403 10:43:25.550534 13560 net.cpp:148] Top shape: 24 96 28 28 (1806336)
I0403 10:43:25.550554 13560 net.cpp:156] Memory required for data: 736985472
I0403 10:43:25.550576 13560 layer_factory.hpp:77] Creating layer inception_3b/relu_5x5
I0403 10:43:25.550600 13560 net.cpp:91] Creating Layer inception_3b/relu_5x5
I0403 10:43:25.550619 13560 net.cpp:425] inception_3b/relu_5x5 <- inception_3b/5x5
I0403 10:43:25.550644 13560 net.cpp:386] inception_3b/relu_5x5 -> inception_3b/5x5 (in-place)
I0403 10:43:25.550670 13560 net.cpp:141] Setting up inception_3b/relu_5x5
I0403 10:43:25.550693 13560 net.cpp:148] Top shape: 24 96 28 28 (1806336)
I0403 10:43:25.550711 13560 net.cpp:156] Memory required for data: 744210816
I0403 10:43:25.550730 13560 layer_factory.hpp:77] Creating layer inception_3b/pool
I0403 10:43:25.550753 13560 net.cpp:91] Creating Layer inception_3b/pool
I0403 10:43:25.550773 13560 net.cpp:425] inception_3b/pool <- inception_3a/output_inception_3a/output_0_split_3
I0403 10:43:25.550796 13560 net.cpp:399] inception_3b/pool -> inception_3b/pool
I0403 10:43:25.550860 13560 net.cpp:141] Setting up inception_3b/pool
I0403 10:43:25.550889 13560 net.cpp:148] Top shape: 24 256 28 28 (4816896)
I0403 10:43:25.550909 13560 net.cpp:156] Memory required for data: 763478400
I0403 10:43:25.550926 13560 layer_factory.hpp:77] Creating layer inception_3b/pool_proj
I0403 10:43:25.550954 13560 net.cpp:91] Creating Layer inception_3b/pool_proj
I0403 10:43:25.550977 13560 net.cpp:425] inception_3b/pool_proj <- inception_3b/pool
I0403 10:43:25.551004 13560 net.cpp:399] inception_3b/pool_proj -> inception_3b/pool_proj
I0403 10:43:25.551372 13560 net.cpp:141] Setting up inception_3b/pool_proj
I0403 10:43:25.551403 13560 net.cpp:148] Top shape: 24 64 28 28 (1204224)
I0403 10:43:25.551422 13560 net.cpp:156] Memory required for data: 768295296
I0403 10:43:25.551445 13560 layer_factory.hpp:77] Creating layer inception_3b/relu_pool_proj
I0403 10:43:25.551467 13560 net.cpp:91] Creating Layer inception_3b/relu_pool_proj
I0403 10:43:25.551487 13560 net.cpp:425] inception_3b/relu_pool_proj <- inception_3b/pool_proj
I0403 10:43:25.551511 13560 net.cpp:386] inception_3b/relu_pool_proj -> inception_3b/pool_proj (in-place)
I0403 10:43:25.551534 13560 net.cpp:141] Setting up inception_3b/relu_pool_proj
I0403 10:43:25.551556 13560 net.cpp:148] Top shape: 24 64 28 28 (1204224)
I0403 10:43:25.551575 13560 net.cpp:156] Memory required for data: 773112192
I0403 10:43:25.551594 13560 layer_factory.hpp:77] Creating layer inception_3b/output
I0403 10:43:25.551620 13560 net.cpp:91] Creating Layer inception_3b/output
I0403 10:43:25.551641 13560 net.cpp:425] inception_3b/output <- inception_3b/1x1
I0403 10:43:25.551682 13560 net.cpp:425] inception_3b/output <- inception_3b/3x3
I0403 10:43:25.551704 13560 net.cpp:425] inception_3b/output <- inception_3b/5x5
I0403 10:43:25.551724 13560 net.cpp:425] inception_3b/output <- inception_3b/pool_proj
I0403 10:43:25.551746 13560 net.cpp:399] inception_3b/output -> inception_3b/output
I0403 10:43:25.551796 13560 net.cpp:141] Setting up inception_3b/output
I0403 10:43:25.551826 13560 net.cpp:148] Top shape: 24 480 28 28 (9031680)
I0403 10:43:25.551844 13560 net.cpp:156] Memory required for data: 809238912
I0403 10:43:25.551864 13560 layer_factory.hpp:77] Creating layer pool3/3x3_s2
I0403 10:43:25.551887 13560 net.cpp:91] Creating Layer pool3/3x3_s2
I0403 10:43:25.551906 13560 net.cpp:425] pool3/3x3_s2 <- inception_3b/output
I0403 10:43:25.551931 13560 net.cpp:399] pool3/3x3_s2 -> pool3/3x3_s2
I0403 10:43:25.551991 13560 net.cpp:141] Setting up pool3/3x3_s2
I0403 10:43:25.552023 13560 net.cpp:148] Top shape: 24 480 14 14 (2257920)
I0403 10:43:25.552043 13560 net.cpp:156] Memory required for data: 818270592
I0403 10:43:25.552062 13560 layer_factory.hpp:77] Creating layer pool3/3x3_s2_pool3/3x3_s2_0_split
I0403 10:43:25.552083 13560 net.cpp:91] Creating Layer pool3/3x3_s2_pool3/3x3_s2_0_split
I0403 10:43:25.552104 13560 net.cpp:425] pool3/3x3_s2_pool3/3x3_s2_0_split <- pool3/3x3_s2
I0403 10:43:25.552126 13560 net.cpp:399] pool3/3x3_s2_pool3/3x3_s2_0_split -> pool3/3x3_s2_pool3/3x3_s2_0_split_0
I0403 10:43:25.552151 13560 net.cpp:399] pool3/3x3_s2_pool3/3x3_s2_0_split -> pool3/3x3_s2_pool3/3x3_s2_0_split_1
I0403 10:43:25.552178 13560 net.cpp:399] pool3/3x3_s2_pool3/3x3_s2_0_split -> pool3/3x3_s2_pool3/3x3_s2_0_split_2
I0403 10:43:25.552206 13560 net.cpp:399] pool3/3x3_s2_pool3/3x3_s2_0_split -> pool3/3x3_s2_pool3/3x3_s2_0_split_3
I0403 10:43:25.552292 13560 net.cpp:141] Setting up pool3/3x3_s2_pool3/3x3_s2_0_split
I0403 10:43:25.552322 13560 net.cpp:148] Top shape: 24 480 14 14 (2257920)
I0403 10:43:25.552343 13560 net.cpp:148] Top shape: 24 480 14 14 (2257920)
I0403 10:43:25.552363 13560 net.cpp:148] Top shape: 24 480 14 14 (2257920)
I0403 10:43:25.552383 13560 net.cpp:148] Top shape: 24 480 14 14 (2257920)
I0403 10:43:25.552402 13560 net.cpp:156] Memory required for data: 854397312
I0403 10:43:25.552420 13560 layer_factory.hpp:77] Creating layer inception_4a/1x1
I0403 10:43:25.552449 13560 net.cpp:91] Creating Layer inception_4a/1x1
I0403 10:43:25.552472 13560 net.cpp:425] inception_4a/1x1 <- pool3/3x3_s2_pool3/3x3_s2_0_split_0
I0403 10:43:25.552505 13560 net.cpp:399] inception_4a/1x1 -> inception_4a/1x1
I0403 10:43:25.553361 13560 net.cpp:141] Setting up inception_4a/1x1
I0403 10:43:25.553393 13560 net.cpp:148] Top shape: 24 192 14 14 (903168)
I0403 10:43:25.553412 13560 net.cpp:156] Memory required for data: 858009984
I0403 10:43:25.553434 13560 layer_factory.hpp:77] Creating layer inception_4a/relu_1x1
I0403 10:43:25.553459 13560 net.cpp:91] Creating Layer inception_4a/relu_1x1
I0403 10:43:25.553480 13560 net.cpp:425] inception_4a/relu_1x1 <- inception_4a/1x1
I0403 10:43:25.553503 13560 net.cpp:386] inception_4a/relu_1x1 -> inception_4a/1x1 (in-place)
I0403 10:43:25.553527 13560 net.cpp:141] Setting up inception_4a/relu_1x1
I0403 10:43:25.553550 13560 net.cpp:148] Top shape: 24 192 14 14 (903168)
I0403 10:43:25.553566 13560 net.cpp:156] Memory required for data: 861622656
I0403 10:43:25.553585 13560 layer_factory.hpp:77] Creating layer inception_4a/3x3_reduce
I0403 10:43:25.553612 13560 net.cpp:91] Creating Layer inception_4a/3x3_reduce
I0403 10:43:25.553634 13560 net.cpp:425] inception_4a/3x3_reduce <- pool3/3x3_s2_pool3/3x3_s2_0_split_1
I0403 10:43:25.553663 13560 net.cpp:399] inception_4a/3x3_reduce -> inception_4a/3x3_reduce
I0403 10:43:25.554227 13560 net.cpp:141] Setting up inception_4a/3x3_reduce
I0403 10:43:25.554263 13560 net.cpp:148] Top shape: 24 96 14 14 (451584)
I0403 10:43:25.554282 13560 net.cpp:156] Memory required for data: 863428992
I0403 10:43:25.554312 13560 layer_factory.hpp:77] Creating layer inception_4a/relu_3x3_reduce
I0403 10:43:25.554352 13560 net.cpp:91] Creating Layer inception_4a/relu_3x3_reduce
I0403 10:43:25.554374 13560 net.cpp:425] inception_4a/relu_3x3_reduce <- inception_4a/3x3_reduce
I0403 10:43:25.554397 13560 net.cpp:386] inception_4a/relu_3x3_reduce -> inception_4a/3x3_reduce (in-place)
I0403 10:43:25.554421 13560 net.cpp:141] Setting up inception_4a/relu_3x3_reduce
I0403 10:43:25.554443 13560 net.cpp:148] Top shape: 24 96 14 14 (451584)
I0403 10:43:25.554461 13560 net.cpp:156] Memory required for data: 865235328
I0403 10:43:25.554479 13560 layer_factory.hpp:77] Creating layer inception_4a/3x3
I0403 10:43:25.554508 13560 net.cpp:91] Creating Layer inception_4a/3x3
I0403 10:43:25.554532 13560 net.cpp:425] inception_4a/3x3 <- inception_4a/3x3_reduce
I0403 10:43:25.554558 13560 net.cpp:399] inception_4a/3x3 -> inception_4a/3x3
I0403 10:43:25.556635 13560 net.cpp:141] Setting up inception_4a/3x3
I0403 10:43:25.556671 13560 net.cpp:148] Top shape: 24 208 14 14 (978432)
I0403 10:43:25.556690 13560 net.cpp:156] Memory required for data: 869149056
I0403 10:43:25.556713 13560 layer_factory.hpp:77] Creating layer inception_4a/relu_3x3
I0403 10:43:25.556740 13560 net.cpp:91] Creating Layer inception_4a/relu_3x3
I0403 10:43:25.556761 13560 net.cpp:425] inception_4a/relu_3x3 <- inception_4a/3x3
I0403 10:43:25.556783 13560 net.cpp:386] inception_4a/relu_3x3 -> inception_4a/3x3 (in-place)
I0403 10:43:25.556807 13560 net.cpp:141] Setting up inception_4a/relu_3x3
I0403 10:43:25.556828 13560 net.cpp:148] Top shape: 24 208 14 14 (978432)
I0403 10:43:25.556848 13560 net.cpp:156] Memory required for data: 873062784
I0403 10:43:25.556866 13560 layer_factory.hpp:77] Creating layer inception_4a/5x5_reduce
I0403 10:43:25.556895 13560 net.cpp:91] Creating Layer inception_4a/5x5_reduce
I0403 10:43:25.556916 13560 net.cpp:425] inception_4a/5x5_reduce <- pool3/3x3_s2_pool3/3x3_s2_0_split_2
I0403 10:43:25.556941 13560 net.cpp:399] inception_4a/5x5_reduce -> inception_4a/5x5_reduce
I0403 10:43:25.557255 13560 net.cpp:141] Setting up inception_4a/5x5_reduce
I0403 10:43:25.557289 13560 net.cpp:148] Top shape: 24 16 14 14 (75264)
I0403 10:43:25.557309 13560 net.cpp:156] Memory required for data: 873363840
I0403 10:43:25.557333 13560 layer_factory.hpp:77] Creating layer inception_4a/relu_5x5_reduce
I0403 10:43:25.557355 13560 net.cpp:91] Creating Layer inception_4a/relu_5x5_reduce
I0403 10:43:25.557375 13560 net.cpp:425] inception_4a/relu_5x5_reduce <- inception_4a/5x5_reduce
I0403 10:43:25.557397 13560 net.cpp:386] inception_4a/relu_5x5_reduce -> inception_4a/5x5_reduce (in-place)
I0403 10:43:25.557421 13560 net.cpp:141] Setting up inception_4a/relu_5x5_reduce
I0403 10:43:25.557443 13560 net.cpp:148] Top shape: 24 16 14 14 (75264)
I0403 10:43:25.557463 13560 net.cpp:156] Memory required for data: 873664896
I0403 10:43:25.557482 13560 layer_factory.hpp:77] Creating layer inception_4a/5x5
I0403 10:43:25.557509 13560 net.cpp:91] Creating Layer inception_4a/5x5
I0403 10:43:25.557533 13560 net.cpp:425] inception_4a/5x5 <- inception_4a/5x5_reduce
I0403 10:43:25.557559 13560 net.cpp:399] inception_4a/5x5 -> inception_4a/5x5
I0403 10:43:25.557943 13560 net.cpp:141] Setting up inception_4a/5x5
I0403 10:43:25.557976 13560 net.cpp:148] Top shape: 24 48 14 14 (225792)
I0403 10:43:25.557996 13560 net.cpp:156] Memory required for data: 874568064
I0403 10:43:25.558017 13560 layer_factory.hpp:77] Creating layer inception_4a/relu_5x5
I0403 10:43:25.558043 13560 net.cpp:91] Creating Layer inception_4a/relu_5x5
I0403 10:43:25.558063 13560 net.cpp:425] inception_4a/relu_5x5 <- inception_4a/5x5
I0403 10:43:25.558085 13560 net.cpp:386] inception_4a/relu_5x5 -> inception_4a/5x5 (in-place)
I0403 10:43:25.558109 13560 net.cpp:141] Setting up inception_4a/relu_5x5
I0403 10:43:25.558131 13560 net.cpp:148] Top shape: 24 48 14 14 (225792)
I0403 10:43:25.558150 13560 net.cpp:156] Memory required for data: 875471232
I0403 10:43:25.558167 13560 layer_factory.hpp:77] Creating layer inception_4a/pool
I0403 10:43:25.558192 13560 net.cpp:91] Creating Layer inception_4a/pool
I0403 10:43:25.558213 13560 net.cpp:425] inception_4a/pool <- pool3/3x3_s2_pool3/3x3_s2_0_split_3
I0403 10:43:25.558269 13560 net.cpp:399] inception_4a/pool -> inception_4a/pool
I0403 10:43:25.558336 13560 net.cpp:141] Setting up inception_4a/pool
I0403 10:43:25.558368 13560 net.cpp:148] Top shape: 24 480 14 14 (2257920)
I0403 10:43:25.558387 13560 net.cpp:156] Memory required for data: 884502912
I0403 10:43:25.558406 13560 layer_factory.hpp:77] Creating layer inception_4a/pool_proj
I0403 10:43:25.558432 13560 net.cpp:91] Creating Layer inception_4a/pool_proj
I0403 10:43:25.558454 13560 net.cpp:425] inception_4a/pool_proj <- inception_4a/pool
I0403 10:43:25.558481 13560 net.cpp:399] inception_4a/pool_proj -> inception_4a/pool_proj
I0403 10:43:25.558935 13560 net.cpp:141] Setting up inception_4a/pool_proj
I0403 10:43:25.558967 13560 net.cpp:148] Top shape: 24 64 14 14 (301056)
I0403 10:43:25.558986 13560 net.cpp:156] Memory required for data: 885707136
I0403 10:43:25.559008 13560 layer_factory.hpp:77] Creating layer inception_4a/relu_pool_proj
I0403 10:43:25.559032 13560 net.cpp:91] Creating Layer inception_4a/relu_pool_proj
I0403 10:43:25.559053 13560 net.cpp:425] inception_4a/relu_pool_proj <- inception_4a/pool_proj
I0403 10:43:25.559079 13560 net.cpp:386] inception_4a/relu_pool_proj -> inception_4a/pool_proj (in-place)
I0403 10:43:25.559105 13560 net.cpp:141] Setting up inception_4a/relu_pool_proj
I0403 10:43:25.559128 13560 net.cpp:148] Top shape: 24 64 14 14 (301056)
I0403 10:43:25.559145 13560 net.cpp:156] Memory required for data: 886911360
I0403 10:43:25.559164 13560 layer_factory.hpp:77] Creating layer inception_4a/output
I0403 10:43:25.559185 13560 net.cpp:91] Creating Layer inception_4a/output
I0403 10:43:25.559206 13560 net.cpp:425] inception_4a/output <- inception_4a/1x1
I0403 10:43:25.559226 13560 net.cpp:425] inception_4a/output <- inception_4a/3x3
I0403 10:43:25.559252 13560 net.cpp:425] inception_4a/output <- inception_4a/5x5
I0403 10:43:25.559274 13560 net.cpp:425] inception_4a/output <- inception_4a/pool_proj
I0403 10:43:25.559298 13560 net.cpp:399] inception_4a/output -> inception_4a/output
I0403 10:43:25.559346 13560 net.cpp:141] Setting up inception_4a/output
I0403 10:43:25.559376 13560 net.cpp:148] Top shape: 24 512 14 14 (2408448)
I0403 10:43:25.559394 13560 net.cpp:156] Memory required for data: 896545152
I0403 10:43:25.559412 13560 layer_factory.hpp:77] Creating layer inception_4a/output_inception_4a/output_0_split
I0403 10:43:25.559435 13560 net.cpp:91] Creating Layer inception_4a/output_inception_4a/output_0_split
I0403 10:43:25.559455 13560 net.cpp:425] inception_4a/output_inception_4a/output_0_split <- inception_4a/output
I0403 10:43:25.559481 13560 net.cpp:399] inception_4a/output_inception_4a/output_0_split -> inception_4a/output_inception_4a/output_0_split_0
I0403 10:43:25.559509 13560 net.cpp:399] inception_4a/output_inception_4a/output_0_split -> inception_4a/output_inception_4a/output_0_split_1
I0403 10:43:25.559535 13560 net.cpp:399] inception_4a/output_inception_4a/output_0_split -> inception_4a/output_inception_4a/output_0_split_2
I0403 10:43:25.559561 13560 net.cpp:399] inception_4a/output_inception_4a/output_0_split -> inception_4a/output_inception_4a/output_0_split_3
I0403 10:43:25.559587 13560 net.cpp:399] inception_4a/output_inception_4a/output_0_split -> inception_4a/output_inception_4a/output_0_split_4
I0403 10:43:25.559686 13560 net.cpp:141] Setting up inception_4a/output_inception_4a/output_0_split
I0403 10:43:25.559715 13560 net.cpp:148] Top shape: 24 512 14 14 (2408448)
I0403 10:43:25.559736 13560 net.cpp:148] Top shape: 24 512 14 14 (2408448)
I0403 10:43:25.559756 13560 net.cpp:148] Top shape: 24 512 14 14 (2408448)
I0403 10:43:25.559775 13560 net.cpp:148] Top shape: 24 512 14 14 (2408448)
I0403 10:43:25.559794 13560 net.cpp:148] Top shape: 24 512 14 14 (2408448)
I0403 10:43:25.559813 13560 net.cpp:156] Memory required for data: 944714112
I0403 10:43:25.559831 13560 layer_factory.hpp:77] Creating layer loss1/ave_pool
I0403 10:43:25.559855 13560 net.cpp:91] Creating Layer loss1/ave_pool
I0403 10:43:25.559891 13560 net.cpp:425] loss1/ave_pool <- inception_4a/output_inception_4a/output_0_split_0
I0403 10:43:25.559917 13560 net.cpp:399] loss1/ave_pool -> loss1/ave_pool
I0403 10:43:25.559964 13560 net.cpp:141] Setting up loss1/ave_pool
I0403 10:43:25.559996 13560 net.cpp:148] Top shape: 24 512 4 4 (196608)
I0403 10:43:25.560016 13560 net.cpp:156] Memory required for data: 945500544
I0403 10:43:25.560035 13560 layer_factory.hpp:77] Creating layer loss1/conv
I0403 10:43:25.560060 13560 net.cpp:91] Creating Layer loss1/conv
I0403 10:43:25.560081 13560 net.cpp:425] loss1/conv <- loss1/ave_pool
I0403 10:43:25.560107 13560 net.cpp:399] loss1/conv -> loss1/conv
I0403 10:43:25.560794 13560 net.cpp:141] Setting up loss1/conv
I0403 10:43:25.560825 13560 net.cpp:148] Top shape: 24 128 4 4 (49152)
I0403 10:43:25.560845 13560 net.cpp:156] Memory required for data: 945697152
I0403 10:43:25.560868 13560 layer_factory.hpp:77] Creating layer loss1/relu_conv
I0403 10:43:25.560890 13560 net.cpp:91] Creating Layer loss1/relu_conv
I0403 10:43:25.560910 13560 net.cpp:425] loss1/relu_conv <- loss1/conv
I0403 10:43:25.560931 13560 net.cpp:386] loss1/relu_conv -> loss1/conv (in-place)
I0403 10:43:25.560955 13560 net.cpp:141] Setting up loss1/relu_conv
I0403 10:43:25.560977 13560 net.cpp:148] Top shape: 24 128 4 4 (49152)
I0403 10:43:25.560995 13560 net.cpp:156] Memory required for data: 945893760
I0403 10:43:25.561013 13560 layer_factory.hpp:77] Creating layer loss1/fc
I0403 10:43:25.561044 13560 net.cpp:91] Creating Layer loss1/fc
I0403 10:43:25.561067 13560 net.cpp:425] loss1/fc <- loss1/conv
I0403 10:43:25.561090 13560 net.cpp:399] loss1/fc -> loss1/fc
I0403 10:43:25.580803 13560 net.cpp:141] Setting up loss1/fc
I0403 10:43:25.580853 13560 net.cpp:148] Top shape: 24 1024 (24576)
I0403 10:43:25.580873 13560 net.cpp:156] Memory required for data: 945992064
I0403 10:43:25.580898 13560 layer_factory.hpp:77] Creating layer loss1/relu_fc
I0403 10:43:25.580922 13560 net.cpp:91] Creating Layer loss1/relu_fc
I0403 10:43:25.580942 13560 net.cpp:425] loss1/relu_fc <- loss1/fc
I0403 10:43:25.580968 13560 net.cpp:386] loss1/relu_fc -> loss1/fc (in-place)
I0403 10:43:25.580994 13560 net.cpp:141] Setting up loss1/relu_fc
I0403 10:43:25.581022 13560 net.cpp:148] Top shape: 24 1024 (24576)
I0403 10:43:25.581039 13560 net.cpp:156] Memory required for data: 946090368
I0403 10:43:25.581058 13560 layer_factory.hpp:77] Creating layer loss1/drop_fc
I0403 10:43:25.581094 13560 net.cpp:91] Creating Layer loss1/drop_fc
I0403 10:43:25.581117 13560 net.cpp:425] loss1/drop_fc <- loss1/fc
I0403 10:43:25.581140 13560 net.cpp:386] loss1/drop_fc -> loss1/fc (in-place)
I0403 10:43:25.581198 13560 net.cpp:141] Setting up loss1/drop_fc
I0403 10:43:25.581228 13560 net.cpp:148] Top shape: 24 1024 (24576)
I0403 10:43:25.581254 13560 net.cpp:156] Memory required for data: 946188672
I0403 10:43:25.581274 13560 layer_factory.hpp:77] Creating layer loss1/classifier_plantvillage
I0403 10:43:25.581302 13560 net.cpp:91] Creating Layer loss1/classifier_plantvillage
I0403 10:43:25.581323 13560 net.cpp:425] loss1/classifier_plantvillage <- loss1/fc
I0403 10:43:25.581349 13560 net.cpp:399] loss1/classifier_plantvillage -> loss1/classifier_plantvillage
I0403 10:43:25.582381 13560 net.cpp:141] Setting up loss1/classifier_plantvillage
I0403 10:43:25.582415 13560 net.cpp:148] Top shape: 24 38 (912)
I0403 10:43:25.582434 13560 net.cpp:156] Memory required for data: 946192320
I0403 10:43:25.582458 13560 layer_factory.hpp:77] Creating layer inception_4b/1x1
I0403 10:43:25.582492 13560 net.cpp:91] Creating Layer inception_4b/1x1
I0403 10:43:25.582515 13560 net.cpp:425] inception_4b/1x1 <- inception_4a/output_inception_4a/output_0_split_1
I0403 10:43:25.582543 13560 net.cpp:399] inception_4b/1x1 -> inception_4b/1x1
I0403 10:43:25.583359 13560 net.cpp:141] Setting up inception_4b/1x1
I0403 10:43:25.583391 13560 net.cpp:148] Top shape: 24 160 14 14 (752640)
I0403 10:43:25.583410 13560 net.cpp:156] Memory required for data: 949202880
I0403 10:43:25.583433 13560 layer_factory.hpp:77] Creating layer inception_4b/relu_1x1
I0403 10:43:25.583477 13560 net.cpp:91] Creating Layer inception_4b/relu_1x1
I0403 10:43:25.583499 13560 net.cpp:425] inception_4b/relu_1x1 <- inception_4b/1x1
I0403 10:43:25.583523 13560 net.cpp:386] inception_4b/relu_1x1 -> inception_4b/1x1 (in-place)
I0403 10:43:25.583546 13560 net.cpp:141] Setting up inception_4b/relu_1x1
I0403 10:43:25.583569 13560 net.cpp:148] Top shape: 24 160 14 14 (752640)
I0403 10:43:25.583586 13560 net.cpp:156] Memory required for data: 952213440
I0403 10:43:25.583605 13560 layer_factory.hpp:77] Creating layer inception_4b/3x3_reduce
I0403 10:43:25.583633 13560 net.cpp:91] Creating Layer inception_4b/3x3_reduce
I0403 10:43:25.583655 13560 net.cpp:425] inception_4b/3x3_reduce <- inception_4a/output_inception_4a/output_0_split_2
I0403 10:43:25.583683 13560 net.cpp:399] inception_4b/3x3_reduce -> inception_4b/3x3_reduce
I0403 10:43:25.584331 13560 net.cpp:141] Setting up inception_4b/3x3_reduce
I0403 10:43:25.584362 13560 net.cpp:148] Top shape: 24 112 14 14 (526848)
I0403 10:43:25.584380 13560 net.cpp:156] Memory required for data: 954320832
I0403 10:43:25.584403 13560 layer_factory.hpp:77] Creating layer inception_4b/relu_3x3_reduce
I0403 10:43:25.584426 13560 net.cpp:91] Creating Layer inception_4b/relu_3x3_reduce
I0403 10:43:25.584446 13560 net.cpp:425] inception_4b/relu_3x3_reduce <- inception_4b/3x3_reduce
I0403 10:43:25.584468 13560 net.cpp:386] inception_4b/relu_3x3_reduce -> inception_4b/3x3_reduce (in-place)
I0403 10:43:25.584492 13560 net.cpp:141] Setting up inception_4b/relu_3x3_reduce
I0403 10:43:25.584514 13560 net.cpp:148] Top shape: 24 112 14 14 (526848)
I0403 10:43:25.584532 13560 net.cpp:156] Memory required for data: 956428224
I0403 10:43:25.584550 13560 layer_factory.hpp:77] Creating layer inception_4b/3x3
I0403 10:43:25.584580 13560 net.cpp:91] Creating Layer inception_4b/3x3
I0403 10:43:25.584601 13560 net.cpp:425] inception_4b/3x3 <- inception_4b/3x3_reduce
I0403 10:43:25.584628 13560 net.cpp:399] inception_4b/3x3 -> inception_4b/3x3
I0403 10:43:25.587029 13560 net.cpp:141] Setting up inception_4b/3x3
I0403 10:43:25.587064 13560 net.cpp:148] Top shape: 24 224 14 14 (1053696)
I0403 10:43:25.587085 13560 net.cpp:156] Memory required for data: 960643008
I0403 10:43:25.587108 13560 layer_factory.hpp:77] Creating layer inception_4b/relu_3x3
I0403 10:43:25.587133 13560 net.cpp:91] Creating Layer inception_4b/relu_3x3
I0403 10:43:25.587154 13560 net.cpp:425] inception_4b/relu_3x3 <- inception_4b/3x3
I0403 10:43:25.587177 13560 net.cpp:386] inception_4b/relu_3x3 -> inception_4b/3x3 (in-place)
I0403 10:43:25.587200 13560 net.cpp:141] Setting up inception_4b/relu_3x3
I0403 10:43:25.587223 13560 net.cpp:148] Top shape: 24 224 14 14 (1053696)
I0403 10:43:25.587247 13560 net.cpp:156] Memory required for data: 964857792
I0403 10:43:25.587268 13560 layer_factory.hpp:77] Creating layer inception_4b/5x5_reduce
I0403 10:43:25.587297 13560 net.cpp:91] Creating Layer inception_4b/5x5_reduce
I0403 10:43:25.587319 13560 net.cpp:425] inception_4b/5x5_reduce <- inception_4a/output_inception_4a/output_0_split_3
I0403 10:43:25.587347 13560 net.cpp:399] inception_4b/5x5_reduce -> inception_4b/5x5_reduce
I0403 10:43:25.587692 13560 net.cpp:141] Setting up inception_4b/5x5_reduce
I0403 10:43:25.587723 13560 net.cpp:148] Top shape: 24 24 14 14 (112896)
I0403 10:43:25.587743 13560 net.cpp:156] Memory required for data: 965309376
I0403 10:43:25.587764 13560 layer_factory.hpp:77] Creating layer inception_4b/relu_5x5_reduce
I0403 10:43:25.587790 13560 net.cpp:91] Creating Layer inception_4b/relu_5x5_reduce
I0403 10:43:25.587810 13560 net.cpp:425] inception_4b/relu_5x5_reduce <- inception_4b/5x5_reduce
I0403 10:43:25.587833 13560 net.cpp:386] inception_4b/relu_5x5_reduce -> inception_4b/5x5_reduce (in-place)
I0403 10:43:25.587859 13560 net.cpp:141] Setting up inception_4b/relu_5x5_reduce
I0403 10:43:25.587882 13560 net.cpp:148] Top shape: 24 24 14 14 (112896)
I0403 10:43:25.587899 13560 net.cpp:156] Memory required for data: 965760960
I0403 10:43:25.587916 13560 layer_factory.hpp:77] Creating layer inception_4b/5x5
I0403 10:43:25.587965 13560 net.cpp:91] Creating Layer inception_4b/5x5
I0403 10:43:25.587987 13560 net.cpp:425] inception_4b/5x5 <- inception_4b/5x5_reduce
I0403 10:43:25.588016 13560 net.cpp:399] inception_4b/5x5 -> inception_4b/5x5
I0403 10:43:25.588551 13560 net.cpp:141] Setting up inception_4b/5x5
I0403 10:43:25.588582 13560 net.cpp:148] Top shape: 24 64 14 14 (301056)
I0403 10:43:25.588601 13560 net.cpp:156] Memory required for data: 966965184
I0403 10:43:25.588624 13560 layer_factory.hpp:77] Creating layer inception_4b/relu_5x5
I0403 10:43:25.588647 13560 net.cpp:91] Creating Layer inception_4b/relu_5x5
I0403 10:43:25.588668 13560 net.cpp:425] inception_4b/relu_5x5 <- inception_4b/5x5
I0403 10:43:25.588691 13560 net.cpp:386] inception_4b/relu_5x5 -> inception_4b/5x5 (in-place)
I0403 10:43:25.588716 13560 net.cpp:141] Setting up inception_4b/relu_5x5
I0403 10:43:25.588737 13560 net.cpp:148] Top shape: 24 64 14 14 (301056)
I0403 10:43:25.588754 13560 net.cpp:156] Memory required for data: 968169408
I0403 10:43:25.588773 13560 layer_factory.hpp:77] Creating layer inception_4b/pool
I0403 10:43:25.588799 13560 net.cpp:91] Creating Layer inception_4b/pool
I0403 10:43:25.588820 13560 net.cpp:425] inception_4b/pool <- inception_4a/output_inception_4a/output_0_split_4
I0403 10:43:25.588845 13560 net.cpp:399] inception_4b/pool -> inception_4b/pool
I0403 10:43:25.588910 13560 net.cpp:141] Setting up inception_4b/pool
I0403 10:43:25.588938 13560 net.cpp:148] Top shape: 24 512 14 14 (2408448)
I0403 10:43:25.588959 13560 net.cpp:156] Memory required for data: 977803200
I0403 10:43:25.588979 13560 layer_factory.hpp:77] Creating layer inception_4b/pool_proj
I0403 10:43:25.589007 13560 net.cpp:91] Creating Layer inception_4b/pool_proj
I0403 10:43:25.589030 13560 net.cpp:425] inception_4b/pool_proj <- inception_4b/pool
I0403 10:43:25.589054 13560 net.cpp:399] inception_4b/pool_proj -> inception_4b/pool_proj
I0403 10:43:25.589541 13560 net.cpp:141] Setting up inception_4b/pool_proj
I0403 10:43:25.589575 13560 net.cpp:148] Top shape: 24 64 14 14 (301056)
I0403 10:43:25.589593 13560 net.cpp:156] Memory required for data: 979007424
I0403 10:43:25.589617 13560 layer_factory.hpp:77] Creating layer inception_4b/relu_pool_proj
I0403 10:43:25.589642 13560 net.cpp:91] Creating Layer inception_4b/relu_pool_proj
I0403 10:43:25.589663 13560 net.cpp:425] inception_4b/relu_pool_proj <- inception_4b/pool_proj
I0403 10:43:25.589685 13560 net.cpp:386] inception_4b/relu_pool_proj -> inception_4b/pool_proj (in-place)
I0403 10:43:25.589709 13560 net.cpp:141] Setting up inception_4b/relu_pool_proj
I0403 10:43:25.589731 13560 net.cpp:148] Top shape: 24 64 14 14 (301056)
I0403 10:43:25.589751 13560 net.cpp:156] Memory required for data: 980211648
I0403 10:43:25.589769 13560 layer_factory.hpp:77] Creating layer inception_4b/output
I0403 10:43:25.589792 13560 net.cpp:91] Creating Layer inception_4b/output
I0403 10:43:25.589810 13560 net.cpp:425] inception_4b/output <- inception_4b/1x1
I0403 10:43:25.589830 13560 net.cpp:425] inception_4b/output <- inception_4b/3x3
I0403 10:43:25.589850 13560 net.cpp:425] inception_4b/output <- inception_4b/5x5
I0403 10:43:25.589870 13560 net.cpp:425] inception_4b/output <- inception_4b/pool_proj
I0403 10:43:25.589893 13560 net.cpp:399] inception_4b/output -> inception_4b/output
I0403 10:43:25.589943 13560 net.cpp:141] Setting up inception_4b/output
I0403 10:43:25.589973 13560 net.cpp:148] Top shape: 24 512 14 14 (2408448)
I0403 10:43:25.589993 13560 net.cpp:156] Memory required for data: 989845440
I0403 10:43:25.590010 13560 layer_factory.hpp:77] Creating layer inception_4b/output_inception_4b/output_0_split
I0403 10:43:25.590034 13560 net.cpp:91] Creating Layer inception_4b/output_inception_4b/output_0_split
I0403 10:43:25.590054 13560 net.cpp:425] inception_4b/output_inception_4b/output_0_split <- inception_4b/output
I0403 10:43:25.590083 13560 net.cpp:399] inception_4b/output_inception_4b/output_0_split -> inception_4b/output_inception_4b/output_0_split_0
I0403 10:43:25.590111 13560 net.cpp:399] inception_4b/output_inception_4b/output_0_split -> inception_4b/output_inception_4b/output_0_split_1
I0403 10:43:25.590154 13560 net.cpp:399] inception_4b/output_inception_4b/output_0_split -> inception_4b/output_inception_4b/output_0_split_2
I0403 10:43:25.590183 13560 net.cpp:399] inception_4b/output_inception_4b/output_0_split -> inception_4b/output_inception_4b/output_0_split_3
I0403 10:43:25.590276 13560 net.cpp:141] Setting up inception_4b/output_inception_4b/output_0_split
I0403 10:43:25.590306 13560 net.cpp:148] Top shape: 24 512 14 14 (2408448)
I0403 10:43:25.590327 13560 net.cpp:148] Top shape: 24 512 14 14 (2408448)
I0403 10:43:25.590347 13560 net.cpp:148] Top shape: 24 512 14 14 (2408448)
I0403 10:43:25.590365 13560 net.cpp:148] Top shape: 24 512 14 14 (2408448)
I0403 10:43:25.590384 13560 net.cpp:156] Memory required for data: 1028380608
I0403 10:43:25.590401 13560 layer_factory.hpp:77] Creating layer inception_4c/1x1
I0403 10:43:25.590431 13560 net.cpp:91] Creating Layer inception_4c/1x1
I0403 10:43:25.590453 13560 net.cpp:425] inception_4c/1x1 <- inception_4b/output_inception_4b/output_0_split_0
I0403 10:43:25.590478 13560 net.cpp:399] inception_4c/1x1 -> inception_4c/1x1
I0403 10:43:25.591163 13560 net.cpp:141] Setting up inception_4c/1x1
I0403 10:43:25.591194 13560 net.cpp:148] Top shape: 24 128 14 14 (602112)
I0403 10:43:25.591213 13560 net.cpp:156] Memory required for data: 1030789056
I0403 10:43:25.591240 13560 layer_factory.hpp:77] Creating layer inception_4c/relu_1x1
I0403 10:43:25.591265 13560 net.cpp:91] Creating Layer inception_4c/relu_1x1
I0403 10:43:25.591285 13560 net.cpp:425] inception_4c/relu_1x1 <- inception_4c/1x1
I0403 10:43:25.591311 13560 net.cpp:386] inception_4c/relu_1x1 -> inception_4c/1x1 (in-place)
I0403 10:43:25.591337 13560 net.cpp:141] Setting up inception_4c/relu_1x1
I0403 10:43:25.591361 13560 net.cpp:148] Top shape: 24 128 14 14 (602112)
I0403 10:43:25.591378 13560 net.cpp:156] Memory required for data: 1033197504
I0403 10:43:25.591398 13560 layer_factory.hpp:77] Creating layer inception_4c/3x3_reduce
I0403 10:43:25.591425 13560 net.cpp:91] Creating Layer inception_4c/3x3_reduce
I0403 10:43:25.591449 13560 net.cpp:425] inception_4c/3x3_reduce <- inception_4b/output_inception_4b/output_0_split_1
I0403 10:43:25.591472 13560 net.cpp:399] inception_4c/3x3_reduce -> inception_4c/3x3_reduce
I0403 10:43:25.592806 13560 net.cpp:141] Setting up inception_4c/3x3_reduce
I0403 10:43:25.592841 13560 net.cpp:148] Top shape: 24 128 14 14 (602112)
I0403 10:43:25.592861 13560 net.cpp:156] Memory required for data: 1035605952
I0403 10:43:25.592885 13560 layer_factory.hpp:77] Creating layer inception_4c/relu_3x3_reduce
I0403 10:43:25.592907 13560 net.cpp:91] Creating Layer inception_4c/relu_3x3_reduce
I0403 10:43:25.592928 13560 net.cpp:425] inception_4c/relu_3x3_reduce <- inception_4c/3x3_reduce
I0403 10:43:25.592950 13560 net.cpp:386] inception_4c/relu_3x3_reduce -> inception_4c/3x3_reduce (in-place)
I0403 10:43:25.592978 13560 net.cpp:141] Setting up inception_4c/relu_3x3_reduce
I0403 10:43:25.593003 13560 net.cpp:148] Top shape: 24 128 14 14 (602112)
I0403 10:43:25.593022 13560 net.cpp:156] Memory required for data: 1038014400
I0403 10:43:25.593040 13560 layer_factory.hpp:77] Creating layer inception_4c/3x3
I0403 10:43:25.593066 13560 net.cpp:91] Creating Layer inception_4c/3x3
I0403 10:43:25.593087 13560 net.cpp:425] inception_4c/3x3 <- inception_4c/3x3_reduce
I0403 10:43:25.593114 13560 net.cpp:399] inception_4c/3x3 -> inception_4c/3x3
I0403 10:43:25.596047 13560 net.cpp:141] Setting up inception_4c/3x3
I0403 10:43:25.596083 13560 net.cpp:148] Top shape: 24 256 14 14 (1204224)
I0403 10:43:25.596103 13560 net.cpp:156] Memory required for data: 1042831296
I0403 10:43:25.596141 13560 layer_factory.hpp:77] Creating layer inception_4c/relu_3x3
I0403 10:43:25.596170 13560 net.cpp:91] Creating Layer inception_4c/relu_3x3
I0403 10:43:25.596194 13560 net.cpp:425] inception_4c/relu_3x3 <- inception_4c/3x3
I0403 10:43:25.596215 13560 net.cpp:386] inception_4c/relu_3x3 -> inception_4c/3x3 (in-place)
I0403 10:43:25.596264 13560 net.cpp:141] Setting up inception_4c/relu_3x3
I0403 10:43:25.596288 13560 net.cpp:148] Top shape: 24 256 14 14 (1204224)
I0403 10:43:25.596307 13560 net.cpp:156] Memory required for data: 1047648192
I0403 10:43:25.596324 13560 layer_factory.hpp:77] Creating layer inception_4c/5x5_reduce
I0403 10:43:25.596354 13560 net.cpp:91] Creating Layer inception_4c/5x5_reduce
I0403 10:43:25.596376 13560 net.cpp:425] inception_4c/5x5_reduce <- inception_4b/output_inception_4b/output_0_split_2
I0403 10:43:25.596401 13560 net.cpp:399] inception_4c/5x5_reduce -> inception_4c/5x5_reduce
I0403 10:43:25.596746 13560 net.cpp:141] Setting up inception_4c/5x5_reduce
I0403 10:43:25.596778 13560 net.cpp:148] Top shape: 24 24 14 14 (112896)
I0403 10:43:25.596798 13560 net.cpp:156] Memory required for data: 1048099776
I0403 10:43:25.596820 13560 layer_factory.hpp:77] Creating layer inception_4c/relu_5x5_reduce
I0403 10:43:25.596844 13560 net.cpp:91] Creating Layer inception_4c/relu_5x5_reduce
I0403 10:43:25.596866 13560 net.cpp:425] inception_4c/relu_5x5_reduce <- inception_4c/5x5_reduce
I0403 10:43:25.596891 13560 net.cpp:386] inception_4c/relu_5x5_reduce -> inception_4c/5x5_reduce (in-place)
I0403 10:43:25.596916 13560 net.cpp:141] Setting up inception_4c/relu_5x5_reduce
I0403 10:43:25.596938 13560 net.cpp:148] Top shape: 24 24 14 14 (112896)
I0403 10:43:25.596956 13560 net.cpp:156] Memory required for data: 1048551360
I0403 10:43:25.596974 13560 layer_factory.hpp:77] Creating layer inception_4c/5x5
I0403 10:43:25.597003 13560 net.cpp:91] Creating Layer inception_4c/5x5
I0403 10:43:25.597026 13560 net.cpp:425] inception_4c/5x5 <- inception_4c/5x5_reduce
I0403 10:43:25.597051 13560 net.cpp:399] inception_4c/5x5 -> inception_4c/5x5
I0403 10:43:25.597582 13560 net.cpp:141] Setting up inception_4c/5x5
I0403 10:43:25.597614 13560 net.cpp:148] Top shape: 24 64 14 14 (301056)
I0403 10:43:25.597632 13560 net.cpp:156] Memory required for data: 1049755584
I0403 10:43:25.597656 13560 layer_factory.hpp:77] Creating layer inception_4c/relu_5x5
I0403 10:43:25.597678 13560 net.cpp:91] Creating Layer inception_4c/relu_5x5
I0403 10:43:25.597698 13560 net.cpp:425] inception_4c/relu_5x5 <- inception_4c/5x5
I0403 10:43:25.597723 13560 net.cpp:386] inception_4c/relu_5x5 -> inception_4c/5x5 (in-place)
I0403 10:43:25.597748 13560 net.cpp:141] Setting up inception_4c/relu_5x5
I0403 10:43:25.597769 13560 net.cpp:148] Top shape: 24 64 14 14 (301056)
I0403 10:43:25.597786 13560 net.cpp:156] Memory required for data: 1050959808
I0403 10:43:25.597805 13560 layer_factory.hpp:77] Creating layer inception_4c/pool
I0403 10:43:25.597827 13560 net.cpp:91] Creating Layer inception_4c/pool
I0403 10:43:25.597847 13560 net.cpp:425] inception_4c/pool <- inception_4b/output_inception_4b/output_0_split_3
I0403 10:43:25.597872 13560 net.cpp:399] inception_4c/pool -> inception_4c/pool
I0403 10:43:25.597937 13560 net.cpp:141] Setting up inception_4c/pool
I0403 10:43:25.597970 13560 net.cpp:148] Top shape: 24 512 14 14 (2408448)
I0403 10:43:25.597988 13560 net.cpp:156] Memory required for data: 1060593600
I0403 10:43:25.598007 13560 layer_factory.hpp:77] Creating layer inception_4c/pool_proj
I0403 10:43:25.598034 13560 net.cpp:91] Creating Layer inception_4c/pool_proj
I0403 10:43:25.598057 13560 net.cpp:425] inception_4c/pool_proj <- inception_4c/pool
I0403 10:43:25.598083 13560 net.cpp:399] inception_4c/pool_proj -> inception_4c/pool_proj
I0403 10:43:25.598580 13560 net.cpp:141] Setting up inception_4c/pool_proj
I0403 10:43:25.598613 13560 net.cpp:148] Top shape: 24 64 14 14 (301056)
I0403 10:43:25.598631 13560 net.cpp:156] Memory required for data: 1061797824
I0403 10:43:25.598655 13560 layer_factory.hpp:77] Creating layer inception_4c/relu_pool_proj
I0403 10:43:25.598680 13560 net.cpp:91] Creating Layer inception_4c/relu_pool_proj
I0403 10:43:25.598700 13560 net.cpp:425] inception_4c/relu_pool_proj <- inception_4c/pool_proj
I0403 10:43:25.598722 13560 net.cpp:386] inception_4c/relu_pool_proj -> inception_4c/pool_proj (in-place)
I0403 10:43:25.598747 13560 net.cpp:141] Setting up inception_4c/relu_pool_proj
I0403 10:43:25.598786 13560 net.cpp:148] Top shape: 24 64 14 14 (301056)
I0403 10:43:25.598806 13560 net.cpp:156] Memory required for data: 1063002048
I0403 10:43:25.598824 13560 layer_factory.hpp:77] Creating layer inception_4c/output
I0403 10:43:25.598850 13560 net.cpp:91] Creating Layer inception_4c/output
I0403 10:43:25.598870 13560 net.cpp:425] inception_4c/output <- inception_4c/1x1
I0403 10:43:25.598892 13560 net.cpp:425] inception_4c/output <- inception_4c/3x3
I0403 10:43:25.598912 13560 net.cpp:425] inception_4c/output <- inception_4c/5x5
I0403 10:43:25.598932 13560 net.cpp:425] inception_4c/output <- inception_4c/pool_proj
I0403 10:43:25.598953 13560 net.cpp:399] inception_4c/output -> inception_4c/output
I0403 10:43:25.599004 13560 net.cpp:141] Setting up inception_4c/output
I0403 10:43:25.599033 13560 net.cpp:148] Top shape: 24 512 14 14 (2408448)
I0403 10:43:25.599053 13560 net.cpp:156] Memory required for data: 1072635840
I0403 10:43:25.599071 13560 layer_factory.hpp:77] Creating layer inception_4c/output_inception_4c/output_0_split
I0403 10:43:25.599094 13560 net.cpp:91] Creating Layer inception_4c/output_inception_4c/output_0_split
I0403 10:43:25.599114 13560 net.cpp:425] inception_4c/output_inception_4c/output_0_split <- inception_4c/output
I0403 10:43:25.599139 13560 net.cpp:399] inception_4c/output_inception_4c/output_0_split -> inception_4c/output_inception_4c/output_0_split_0
I0403 10:43:25.599167 13560 net.cpp:399] inception_4c/output_inception_4c/output_0_split -> inception_4c/output_inception_4c/output_0_split_1
I0403 10:43:25.599195 13560 net.cpp:399] inception_4c/output_inception_4c/output_0_split -> inception_4c/output_inception_4c/output_0_split_2
I0403 10:43:25.599222 13560 net.cpp:399] inception_4c/output_inception_4c/output_0_split -> inception_4c/output_inception_4c/output_0_split_3
I0403 10:43:25.599313 13560 net.cpp:141] Setting up inception_4c/output_inception_4c/output_0_split
I0403 10:43:25.599345 13560 net.cpp:148] Top shape: 24 512 14 14 (2408448)
I0403 10:43:25.599366 13560 net.cpp:148] Top shape: 24 512 14 14 (2408448)
I0403 10:43:25.599387 13560 net.cpp:148] Top shape: 24 512 14 14 (2408448)
I0403 10:43:25.599407 13560 net.cpp:148] Top shape: 24 512 14 14 (2408448)
I0403 10:43:25.599426 13560 net.cpp:156] Memory required for data: 1111171008
I0403 10:43:25.599445 13560 layer_factory.hpp:77] Creating layer inception_4d/1x1
I0403 10:43:25.599475 13560 net.cpp:91] Creating Layer inception_4d/1x1
I0403 10:43:25.599498 13560 net.cpp:425] inception_4d/1x1 <- inception_4c/output_inception_4c/output_0_split_0
I0403 10:43:25.599522 13560 net.cpp:399] inception_4d/1x1 -> inception_4d/1x1
I0403 10:43:25.600159 13560 net.cpp:141] Setting up inception_4d/1x1
I0403 10:43:25.600191 13560 net.cpp:148] Top shape: 24 112 14 14 (526848)
I0403 10:43:25.600210 13560 net.cpp:156] Memory required for data: 1113278400
I0403 10:43:25.600234 13560 layer_factory.hpp:77] Creating layer inception_4d/relu_1x1
I0403 10:43:25.600265 13560 net.cpp:91] Creating Layer inception_4d/relu_1x1
I0403 10:43:25.600286 13560 net.cpp:425] inception_4d/relu_1x1 <- inception_4d/1x1
I0403 10:43:25.600312 13560 net.cpp:386] inception_4d/relu_1x1 -> inception_4d/1x1 (in-place)
I0403 10:43:25.600338 13560 net.cpp:141] Setting up inception_4d/relu_1x1
I0403 10:43:25.600361 13560 net.cpp:148] Top shape: 24 112 14 14 (526848)
I0403 10:43:25.600380 13560 net.cpp:156] Memory required for data: 1115385792
I0403 10:43:25.600399 13560 layer_factory.hpp:77] Creating layer inception_4d/3x3_reduce
I0403 10:43:25.600425 13560 net.cpp:91] Creating Layer inception_4d/3x3_reduce
I0403 10:43:25.600445 13560 net.cpp:425] inception_4d/3x3_reduce <- inception_4c/output_inception_4c/output_0_split_1
I0403 10:43:25.600472 13560 net.cpp:399] inception_4d/3x3_reduce -> inception_4d/3x3_reduce
I0403 10:43:25.601256 13560 net.cpp:141] Setting up inception_4d/3x3_reduce
I0403 10:43:25.601289 13560 net.cpp:148] Top shape: 24 144 14 14 (677376)
I0403 10:43:25.601306 13560 net.cpp:156] Memory required for data: 1118095296
I0403 10:43:25.601346 13560 layer_factory.hpp:77] Creating layer inception_4d/relu_3x3_reduce
I0403 10:43:25.601371 13560 net.cpp:91] Creating Layer inception_4d/relu_3x3_reduce
I0403 10:43:25.601392 13560 net.cpp:425] inception_4d/relu_3x3_reduce <- inception_4d/3x3_reduce
I0403 10:43:25.601415 13560 net.cpp:386] inception_4d/relu_3x3_reduce -> inception_4d/3x3_reduce (in-place)
I0403 10:43:25.601441 13560 net.cpp:141] Setting up inception_4d/relu_3x3_reduce
I0403 10:43:25.601464 13560 net.cpp:148] Top shape: 24 144 14 14 (677376)
I0403 10:43:25.601481 13560 net.cpp:156] Memory required for data: 1120804800
I0403 10:43:25.601500 13560 layer_factory.hpp:77] Creating layer inception_4d/3x3
I0403 10:43:25.601528 13560 net.cpp:91] Creating Layer inception_4d/3x3
I0403 10:43:25.601550 13560 net.cpp:425] inception_4d/3x3 <- inception_4d/3x3_reduce
I0403 10:43:25.601575 13560 net.cpp:399] inception_4d/3x3 -> inception_4d/3x3
I0403 10:43:25.605500 13560 net.cpp:141] Setting up inception_4d/3x3
I0403 10:43:25.605540 13560 net.cpp:148] Top shape: 24 288 14 14 (1354752)
I0403 10:43:25.605559 13560 net.cpp:156] Memory required for data: 1126223808
I0403 10:43:25.605583 13560 layer_factory.hpp:77] Creating layer inception_4d/relu_3x3
I0403 10:43:25.605607 13560 net.cpp:91] Creating Layer inception_4d/relu_3x3
I0403 10:43:25.605626 13560 net.cpp:425] inception_4d/relu_3x3 <- inception_4d/3x3
I0403 10:43:25.605649 13560 net.cpp:386] inception_4d/relu_3x3 -> inception_4d/3x3 (in-place)
I0403 10:43:25.605674 13560 net.cpp:141] Setting up inception_4d/relu_3x3
I0403 10:43:25.605696 13560 net.cpp:148] Top shape: 24 288 14 14 (1354752)
I0403 10:43:25.605715 13560 net.cpp:156] Memory required for data: 1131642816
I0403 10:43:25.605732 13560 layer_factory.hpp:77] Creating layer inception_4d/5x5_reduce
I0403 10:43:25.605762 13560 net.cpp:91] Creating Layer inception_4d/5x5_reduce
I0403 10:43:25.605783 13560 net.cpp:425] inception_4d/5x5_reduce <- inception_4c/output_inception_4c/output_0_split_2
I0403 10:43:25.605811 13560 net.cpp:399] inception_4d/5x5_reduce -> inception_4d/5x5_reduce
I0403 10:43:25.606187 13560 net.cpp:141] Setting up inception_4d/5x5_reduce
I0403 10:43:25.606218 13560 net.cpp:148] Top shape: 24 32 14 14 (150528)
I0403 10:43:25.606243 13560 net.cpp:156] Memory required for data: 1132244928
I0403 10:43:25.606267 13560 layer_factory.hpp:77] Creating layer inception_4d/relu_5x5_reduce
I0403 10:43:25.606295 13560 net.cpp:91] Creating Layer inception_4d/relu_5x5_reduce
I0403 10:43:25.606317 13560 net.cpp:425] inception_4d/relu_5x5_reduce <- inception_4d/5x5_reduce
I0403 10:43:25.606340 13560 net.cpp:386] inception_4d/relu_5x5_reduce -> inception_4d/5x5_reduce (in-place)
I0403 10:43:25.606364 13560 net.cpp:141] Setting up inception_4d/relu_5x5_reduce
I0403 10:43:25.606386 13560 net.cpp:148] Top shape: 24 32 14 14 (150528)
I0403 10:43:25.606405 13560 net.cpp:156] Memory required for data: 1132847040
I0403 10:43:25.606423 13560 layer_factory.hpp:77] Creating layer inception_4d/5x5
I0403 10:43:25.606452 13560 net.cpp:91] Creating Layer inception_4d/5x5
I0403 10:43:25.606475 13560 net.cpp:425] inception_4d/5x5 <- inception_4d/5x5_reduce
I0403 10:43:25.606500 13560 net.cpp:399] inception_4d/5x5 -> inception_4d/5x5
I0403 10:43:25.607105 13560 net.cpp:141] Setting up inception_4d/5x5
I0403 10:43:25.607138 13560 net.cpp:148] Top shape: 24 64 14 14 (301056)
I0403 10:43:25.607158 13560 net.cpp:156] Memory required for data: 1134051264
I0403 10:43:25.607182 13560 layer_factory.hpp:77] Creating layer inception_4d/relu_5x5
I0403 10:43:25.607203 13560 net.cpp:91] Creating Layer inception_4d/relu_5x5
I0403 10:43:25.607223 13560 net.cpp:425] inception_4d/relu_5x5 <- inception_4d/5x5
I0403 10:43:25.607251 13560 net.cpp:386] inception_4d/relu_5x5 -> inception_4d/5x5 (in-place)
I0403 10:43:25.607277 13560 net.cpp:141] Setting up inception_4d/relu_5x5
I0403 10:43:25.607300 13560 net.cpp:148] Top shape: 24 64 14 14 (301056)
I0403 10:43:25.607319 13560 net.cpp:156] Memory required for data: 1135255488
I0403 10:43:25.607339 13560 layer_factory.hpp:77] Creating layer inception_4d/pool
I0403 10:43:25.607380 13560 net.cpp:91] Creating Layer inception_4d/pool
I0403 10:43:25.607403 13560 net.cpp:425] inception_4d/pool <- inception_4c/output_inception_4c/output_0_split_3
I0403 10:43:25.607429 13560 net.cpp:399] inception_4d/pool -> inception_4d/pool
I0403 10:43:25.607492 13560 net.cpp:141] Setting up inception_4d/pool
I0403 10:43:25.607522 13560 net.cpp:148] Top shape: 24 512 14 14 (2408448)
I0403 10:43:25.607542 13560 net.cpp:156] Memory required for data: 1144889280
I0403 10:43:25.607560 13560 layer_factory.hpp:77] Creating layer inception_4d/pool_proj
I0403 10:43:25.607590 13560 net.cpp:91] Creating Layer inception_4d/pool_proj
I0403 10:43:25.607614 13560 net.cpp:425] inception_4d/pool_proj <- inception_4d/pool
I0403 10:43:25.607638 13560 net.cpp:399] inception_4d/pool_proj -> inception_4d/pool_proj
I0403 10:43:25.608767 13560 net.cpp:141] Setting up inception_4d/pool_proj
I0403 10:43:25.608803 13560 net.cpp:148] Top shape: 24 64 14 14 (301056)
I0403 10:43:25.608824 13560 net.cpp:156] Memory required for data: 1146093504
I0403 10:43:25.608845 13560 layer_factory.hpp:77] Creating layer inception_4d/relu_pool_proj
I0403 10:43:25.608868 13560 net.cpp:91] Creating Layer inception_4d/relu_pool_proj
I0403 10:43:25.608889 13560 net.cpp:425] inception_4d/relu_pool_proj <- inception_4d/pool_proj
I0403 10:43:25.608916 13560 net.cpp:386] inception_4d/relu_pool_proj -> inception_4d/pool_proj (in-place)
I0403 10:43:25.608944 13560 net.cpp:141] Setting up inception_4d/relu_pool_proj
I0403 10:43:25.608968 13560 net.cpp:148] Top shape: 24 64 14 14 (301056)
I0403 10:43:25.608986 13560 net.cpp:156] Memory required for data: 1147297728
I0403 10:43:25.609004 13560 layer_factory.hpp:77] Creating layer inception_4d/output
I0403 10:43:25.609026 13560 net.cpp:91] Creating Layer inception_4d/output
I0403 10:43:25.609046 13560 net.cpp:425] inception_4d/output <- inception_4d/1x1
I0403 10:43:25.609068 13560 net.cpp:425] inception_4d/output <- inception_4d/3x3
I0403 10:43:25.609088 13560 net.cpp:425] inception_4d/output <- inception_4d/5x5
I0403 10:43:25.609108 13560 net.cpp:425] inception_4d/output <- inception_4d/pool_proj
I0403 10:43:25.609130 13560 net.cpp:399] inception_4d/output -> inception_4d/output
I0403 10:43:25.609180 13560 net.cpp:141] Setting up inception_4d/output
I0403 10:43:25.609210 13560 net.cpp:148] Top shape: 24 528 14 14 (2483712)
I0403 10:43:25.609228 13560 net.cpp:156] Memory required for data: 1157232576
I0403 10:43:25.609253 13560 layer_factory.hpp:77] Creating layer inception_4d/output_inception_4d/output_0_split
I0403 10:43:25.609278 13560 net.cpp:91] Creating Layer inception_4d/output_inception_4d/output_0_split
I0403 10:43:25.609298 13560 net.cpp:425] inception_4d/output_inception_4d/output_0_split <- inception_4d/output
I0403 10:43:25.609324 13560 net.cpp:399] inception_4d/output_inception_4d/output_0_split -> inception_4d/output_inception_4d/output_0_split_0
I0403 10:43:25.609352 13560 net.cpp:399] inception_4d/output_inception_4d/output_0_split -> inception_4d/output_inception_4d/output_0_split_1
I0403 10:43:25.609380 13560 net.cpp:399] inception_4d/output_inception_4d/output_0_split -> inception_4d/output_inception_4d/output_0_split_2
I0403 10:43:25.609405 13560 net.cpp:399] inception_4d/output_inception_4d/output_0_split -> inception_4d/output_inception_4d/output_0_split_3
I0403 10:43:25.609431 13560 net.cpp:399] inception_4d/output_inception_4d/output_0_split -> inception_4d/output_inception_4d/output_0_split_4
I0403 10:43:25.609530 13560 net.cpp:141] Setting up inception_4d/output_inception_4d/output_0_split
I0403 10:43:25.609560 13560 net.cpp:148] Top shape: 24 528 14 14 (2483712)
I0403 10:43:25.609581 13560 net.cpp:148] Top shape: 24 528 14 14 (2483712)
I0403 10:43:25.609601 13560 net.cpp:148] Top shape: 24 528 14 14 (2483712)
I0403 10:43:25.609622 13560 net.cpp:148] Top shape: 24 528 14 14 (2483712)
I0403 10:43:25.609642 13560 net.cpp:148] Top shape: 24 528 14 14 (2483712)
I0403 10:43:25.609659 13560 net.cpp:156] Memory required for data: 1206906816
I0403 10:43:25.609695 13560 layer_factory.hpp:77] Creating layer loss2/ave_pool
I0403 10:43:25.609719 13560 net.cpp:91] Creating Layer loss2/ave_pool
I0403 10:43:25.609740 13560 net.cpp:425] loss2/ave_pool <- inception_4d/output_inception_4d/output_0_split_0
I0403 10:43:25.609766 13560 net.cpp:399] loss2/ave_pool -> loss2/ave_pool
I0403 10:43:25.609815 13560 net.cpp:141] Setting up loss2/ave_pool
I0403 10:43:25.609846 13560 net.cpp:148] Top shape: 24 528 4 4 (202752)
I0403 10:43:25.609868 13560 net.cpp:156] Memory required for data: 1207717824
I0403 10:43:25.609885 13560 layer_factory.hpp:77] Creating layer loss2/conv
I0403 10:43:25.609912 13560 net.cpp:91] Creating Layer loss2/conv
I0403 10:43:25.609935 13560 net.cpp:425] loss2/conv <- loss2/ave_pool
I0403 10:43:25.609962 13560 net.cpp:399] loss2/conv -> loss2/conv
I0403 10:43:25.611316 13560 net.cpp:141] Setting up loss2/conv
I0403 10:43:25.611353 13560 net.cpp:148] Top shape: 24 128 4 4 (49152)
I0403 10:43:25.611373 13560 net.cpp:156] Memory required for data: 1207914432
I0403 10:43:25.611397 13560 layer_factory.hpp:77] Creating layer loss2/relu_conv
I0403 10:43:25.611420 13560 net.cpp:91] Creating Layer loss2/relu_conv
I0403 10:43:25.611441 13560 net.cpp:425] loss2/relu_conv <- loss2/conv
I0403 10:43:25.611464 13560 net.cpp:386] loss2/relu_conv -> loss2/conv (in-place)
I0403 10:43:25.611487 13560 net.cpp:141] Setting up loss2/relu_conv
I0403 10:43:25.611510 13560 net.cpp:148] Top shape: 24 128 4 4 (49152)
I0403 10:43:25.611527 13560 net.cpp:156] Memory required for data: 1208111040
I0403 10:43:25.611546 13560 layer_factory.hpp:77] Creating layer loss2/fc
I0403 10:43:25.611573 13560 net.cpp:91] Creating Layer loss2/fc
I0403 10:43:25.611595 13560 net.cpp:425] loss2/fc <- loss2/conv
I0403 10:43:25.611618 13560 net.cpp:399] loss2/fc -> loss2/fc
I0403 10:43:25.632251 13560 net.cpp:141] Setting up loss2/fc
I0403 10:43:25.632297 13560 net.cpp:148] Top shape: 24 1024 (24576)
I0403 10:43:25.632316 13560 net.cpp:156] Memory required for data: 1208209344
I0403 10:43:25.632340 13560 layer_factory.hpp:77] Creating layer loss2/relu_fc
I0403 10:43:25.632365 13560 net.cpp:91] Creating Layer loss2/relu_fc
I0403 10:43:25.632385 13560 net.cpp:425] loss2/relu_fc <- loss2/fc
I0403 10:43:25.632411 13560 net.cpp:386] loss2/relu_fc -> loss2/fc (in-place)
I0403 10:43:25.632437 13560 net.cpp:141] Setting up loss2/relu_fc
I0403 10:43:25.632459 13560 net.cpp:148] Top shape: 24 1024 (24576)
I0403 10:43:25.632478 13560 net.cpp:156] Memory required for data: 1208307648
I0403 10:43:25.632498 13560 layer_factory.hpp:77] Creating layer loss2/drop_fc
I0403 10:43:25.632520 13560 net.cpp:91] Creating Layer loss2/drop_fc
I0403 10:43:25.632540 13560 net.cpp:425] loss2/drop_fc <- loss2/fc
I0403 10:43:25.632561 13560 net.cpp:386] loss2/drop_fc -> loss2/fc (in-place)
I0403 10:43:25.632613 13560 net.cpp:141] Setting up loss2/drop_fc
I0403 10:43:25.632642 13560 net.cpp:148] Top shape: 24 1024 (24576)
I0403 10:43:25.632660 13560 net.cpp:156] Memory required for data: 1208405952
I0403 10:43:25.632679 13560 layer_factory.hpp:77] Creating layer loss2/classifier_plantvillage
I0403 10:43:25.632706 13560 net.cpp:91] Creating Layer loss2/classifier_plantvillage
I0403 10:43:25.632727 13560 net.cpp:425] loss2/classifier_plantvillage <- loss2/fc
I0403 10:43:25.632752 13560 net.cpp:399] loss2/classifier_plantvillage -> loss2/classifier_plantvillage
I0403 10:43:25.633152 13560 net.cpp:141] Setting up loss2/classifier_plantvillage
I0403 10:43:25.633183 13560 net.cpp:148] Top shape: 24 38 (912)
I0403 10:43:25.633203 13560 net.cpp:156] Memory required for data: 1208409600
I0403 10:43:25.633224 13560 layer_factory.hpp:77] Creating layer inception_4e/1x1
I0403 10:43:25.633260 13560 net.cpp:91] Creating Layer inception_4e/1x1
I0403 10:43:25.633285 13560 net.cpp:425] inception_4e/1x1 <- inception_4d/output_inception_4d/output_0_split_1
I0403 10:43:25.633309 13560 net.cpp:399] inception_4e/1x1 -> inception_4e/1x1
I0403 10:43:25.634482 13560 net.cpp:141] Setting up inception_4e/1x1
I0403 10:43:25.634513 13560 net.cpp:148] Top shape: 24 256 14 14 (1204224)
I0403 10:43:25.634551 13560 net.cpp:156] Memory required for data: 1213226496
I0403 10:43:25.634574 13560 layer_factory.hpp:77] Creating layer inception_4e/relu_1x1
I0403 10:43:25.634598 13560 net.cpp:91] Creating Layer inception_4e/relu_1x1
I0403 10:43:25.634619 13560 net.cpp:425] inception_4e/relu_1x1 <- inception_4e/1x1
I0403 10:43:25.634642 13560 net.cpp:386] inception_4e/relu_1x1 -> inception_4e/1x1 (in-place)
I0403 10:43:25.634670 13560 net.cpp:141] Setting up inception_4e/relu_1x1
I0403 10:43:25.634695 13560 net.cpp:148] Top shape: 24 256 14 14 (1204224)
I0403 10:43:25.634713 13560 net.cpp:156] Memory required for data: 1218043392
I0403 10:43:25.634732 13560 layer_factory.hpp:77] Creating layer inception_4e/3x3_reduce
I0403 10:43:25.634760 13560 net.cpp:91] Creating Layer inception_4e/3x3_reduce
I0403 10:43:25.634783 13560 net.cpp:425] inception_4e/3x3_reduce <- inception_4d/output_inception_4d/output_0_split_2
I0403 10:43:25.634809 13560 net.cpp:399] inception_4e/3x3_reduce -> inception_4e/3x3_reduce
I0403 10:43:25.636278 13560 net.cpp:141] Setting up inception_4e/3x3_reduce
I0403 10:43:25.636313 13560 net.cpp:148] Top shape: 24 160 14 14 (752640)
I0403 10:43:25.636333 13560 net.cpp:156] Memory required for data: 1221053952
I0403 10:43:25.636358 13560 layer_factory.hpp:77] Creating layer inception_4e/relu_3x3_reduce
I0403 10:43:25.636381 13560 net.cpp:91] Creating Layer inception_4e/relu_3x3_reduce
I0403 10:43:25.636404 13560 net.cpp:425] inception_4e/relu_3x3_reduce <- inception_4e/3x3_reduce
I0403 10:43:25.636425 13560 net.cpp:386] inception_4e/relu_3x3_reduce -> inception_4e/3x3_reduce (in-place)
I0403 10:43:25.636450 13560 net.cpp:141] Setting up inception_4e/relu_3x3_reduce
I0403 10:43:25.636471 13560 net.cpp:148] Top shape: 24 160 14 14 (752640)
I0403 10:43:25.636489 13560 net.cpp:156] Memory required for data: 1224064512
I0403 10:43:25.636507 13560 layer_factory.hpp:77] Creating layer inception_4e/3x3
I0403 10:43:25.636536 13560 net.cpp:91] Creating Layer inception_4e/3x3
I0403 10:43:25.636559 13560 net.cpp:425] inception_4e/3x3 <- inception_4e/3x3_reduce
I0403 10:43:25.636586 13560 net.cpp:399] inception_4e/3x3 -> inception_4e/3x3
I0403 10:43:25.641580 13560 net.cpp:141] Setting up inception_4e/3x3
I0403 10:43:25.641616 13560 net.cpp:148] Top shape: 24 320 14 14 (1505280)
I0403 10:43:25.641635 13560 net.cpp:156] Memory required for data: 1230085632
I0403 10:43:25.641659 13560 layer_factory.hpp:77] Creating layer inception_4e/relu_3x3
I0403 10:43:25.641683 13560 net.cpp:91] Creating Layer inception_4e/relu_3x3
I0403 10:43:25.641710 13560 net.cpp:425] inception_4e/relu_3x3 <- inception_4e/3x3
I0403 10:43:25.641738 13560 net.cpp:386] inception_4e/relu_3x3 -> inception_4e/3x3 (in-place)
I0403 10:43:25.641764 13560 net.cpp:141] Setting up inception_4e/relu_3x3
I0403 10:43:25.641788 13560 net.cpp:148] Top shape: 24 320 14 14 (1505280)
I0403 10:43:25.641805 13560 net.cpp:156] Memory required for data: 1236106752
I0403 10:43:25.641824 13560 layer_factory.hpp:77] Creating layer inception_4e/5x5_reduce
I0403 10:43:25.641855 13560 net.cpp:91] Creating Layer inception_4e/5x5_reduce
I0403 10:43:25.641876 13560 net.cpp:425] inception_4e/5x5_reduce <- inception_4d/output_inception_4d/output_0_split_3
I0403 10:43:25.641901 13560 net.cpp:399] inception_4e/5x5_reduce -> inception_4e/5x5_reduce
I0403 10:43:25.642294 13560 net.cpp:141] Setting up inception_4e/5x5_reduce
I0403 10:43:25.642326 13560 net.cpp:148] Top shape: 24 32 14 14 (150528)
I0403 10:43:25.642346 13560 net.cpp:156] Memory required for data: 1236708864
I0403 10:43:25.642369 13560 layer_factory.hpp:77] Creating layer inception_4e/relu_5x5_reduce
I0403 10:43:25.642392 13560 net.cpp:91] Creating Layer inception_4e/relu_5x5_reduce
I0403 10:43:25.642415 13560 net.cpp:425] inception_4e/relu_5x5_reduce <- inception_4e/5x5_reduce
I0403 10:43:25.642439 13560 net.cpp:386] inception_4e/relu_5x5_reduce -> inception_4e/5x5_reduce (in-place)
I0403 10:43:25.642467 13560 net.cpp:141] Setting up inception_4e/relu_5x5_reduce
I0403 10:43:25.642506 13560 net.cpp:148] Top shape: 24 32 14 14 (150528)
I0403 10:43:25.642526 13560 net.cpp:156] Memory required for data: 1237310976
I0403 10:43:25.642544 13560 layer_factory.hpp:77] Creating layer inception_4e/5x5
I0403 10:43:25.642573 13560 net.cpp:91] Creating Layer inception_4e/5x5
I0403 10:43:25.642597 13560 net.cpp:425] inception_4e/5x5 <- inception_4e/5x5_reduce
I0403 10:43:25.642621 13560 net.cpp:399] inception_4e/5x5 -> inception_4e/5x5
I0403 10:43:25.643585 13560 net.cpp:141] Setting up inception_4e/5x5
I0403 10:43:25.643617 13560 net.cpp:148] Top shape: 24 128 14 14 (602112)
I0403 10:43:25.643636 13560 net.cpp:156] Memory required for data: 1239719424
I0403 10:43:25.643658 13560 layer_factory.hpp:77] Creating layer inception_4e/relu_5x5
I0403 10:43:25.643682 13560 net.cpp:91] Creating Layer inception_4e/relu_5x5
I0403 10:43:25.643702 13560 net.cpp:425] inception_4e/relu_5x5 <- inception_4e/5x5
I0403 10:43:25.643728 13560 net.cpp:386] inception_4e/relu_5x5 -> inception_4e/5x5 (in-place)
I0403 10:43:25.643754 13560 net.cpp:141] Setting up inception_4e/relu_5x5
I0403 10:43:25.643776 13560 net.cpp:148] Top shape: 24 128 14 14 (602112)
I0403 10:43:25.643795 13560 net.cpp:156] Memory required for data: 1242127872
I0403 10:43:25.643813 13560 layer_factory.hpp:77] Creating layer inception_4e/pool
I0403 10:43:25.643856 13560 net.cpp:91] Creating Layer inception_4e/pool
I0403 10:43:25.643879 13560 net.cpp:425] inception_4e/pool <- inception_4d/output_inception_4d/output_0_split_4
I0403 10:43:25.643903 13560 net.cpp:399] inception_4e/pool -> inception_4e/pool
I0403 10:43:25.643970 13560 net.cpp:141] Setting up inception_4e/pool
I0403 10:43:25.644001 13560 net.cpp:148] Top shape: 24 528 14 14 (2483712)
I0403 10:43:25.644021 13560 net.cpp:156] Memory required for data: 1252062720
I0403 10:43:25.644042 13560 layer_factory.hpp:77] Creating layer inception_4e/pool_proj
I0403 10:43:25.644068 13560 net.cpp:91] Creating Layer inception_4e/pool_proj
I0403 10:43:25.644088 13560 net.cpp:425] inception_4e/pool_proj <- inception_4e/pool
I0403 10:43:25.644116 13560 net.cpp:399] inception_4e/pool_proj -> inception_4e/pool_proj
I0403 10:43:25.644832 13560 net.cpp:141] Setting up inception_4e/pool_proj
I0403 10:43:25.644865 13560 net.cpp:148] Top shape: 24 128 14 14 (602112)
I0403 10:43:25.644882 13560 net.cpp:156] Memory required for data: 1254471168
I0403 10:43:25.644906 13560 layer_factory.hpp:77] Creating layer inception_4e/relu_pool_proj
I0403 10:43:25.644928 13560 net.cpp:91] Creating Layer inception_4e/relu_pool_proj
I0403 10:43:25.644949 13560 net.cpp:425] inception_4e/relu_pool_proj <- inception_4e/pool_proj
I0403 10:43:25.644973 13560 net.cpp:386] inception_4e/relu_pool_proj -> inception_4e/pool_proj (in-place)
I0403 10:43:25.644996 13560 net.cpp:141] Setting up inception_4e/relu_pool_proj
I0403 10:43:25.645020 13560 net.cpp:148] Top shape: 24 128 14 14 (602112)
I0403 10:43:25.645040 13560 net.cpp:156] Memory required for data: 1256879616
I0403 10:43:25.645058 13560 layer_factory.hpp:77] Creating layer inception_4e/output
I0403 10:43:25.645084 13560 net.cpp:91] Creating Layer inception_4e/output
I0403 10:43:25.645105 13560 net.cpp:425] inception_4e/output <- inception_4e/1x1
I0403 10:43:25.645126 13560 net.cpp:425] inception_4e/output <- inception_4e/3x3
I0403 10:43:25.645148 13560 net.cpp:425] inception_4e/output <- inception_4e/5x5
I0403 10:43:25.645169 13560 net.cpp:425] inception_4e/output <- inception_4e/pool_proj
I0403 10:43:25.645191 13560 net.cpp:399] inception_4e/output -> inception_4e/output
I0403 10:43:25.645246 13560 net.cpp:141] Setting up inception_4e/output
I0403 10:43:25.645275 13560 net.cpp:148] Top shape: 24 832 14 14 (3913728)
I0403 10:43:25.645301 13560 net.cpp:156] Memory required for data: 1272534528
I0403 10:43:25.645319 13560 layer_factory.hpp:77] Creating layer pool4/3x3_s2
I0403 10:43:25.645342 13560 net.cpp:91] Creating Layer pool4/3x3_s2
I0403 10:43:25.645364 13560 net.cpp:425] pool4/3x3_s2 <- inception_4e/output
I0403 10:43:25.645395 13560 net.cpp:399] pool4/3x3_s2 -> pool4/3x3_s2
I0403 10:43:25.645473 13560 net.cpp:141] Setting up pool4/3x3_s2
I0403 10:43:25.645503 13560 net.cpp:148] Top shape: 24 832 7 7 (978432)
I0403 10:43:25.645521 13560 net.cpp:156] Memory required for data: 1276448256
I0403 10:43:25.645539 13560 layer_factory.hpp:77] Creating layer pool4/3x3_s2_pool4/3x3_s2_0_split
I0403 10:43:25.645565 13560 net.cpp:91] Creating Layer pool4/3x3_s2_pool4/3x3_s2_0_split
I0403 10:43:25.645586 13560 net.cpp:425] pool4/3x3_s2_pool4/3x3_s2_0_split <- pool4/3x3_s2
I0403 10:43:25.645609 13560 net.cpp:399] pool4/3x3_s2_pool4/3x3_s2_0_split -> pool4/3x3_s2_pool4/3x3_s2_0_split_0
I0403 10:43:25.645633 13560 net.cpp:399] pool4/3x3_s2_pool4/3x3_s2_0_split -> pool4/3x3_s2_pool4/3x3_s2_0_split_1
I0403 10:43:25.645663 13560 net.cpp:399] pool4/3x3_s2_pool4/3x3_s2_0_split -> pool4/3x3_s2_pool4/3x3_s2_0_split_2
I0403 10:43:25.645689 13560 net.cpp:399] pool4/3x3_s2_pool4/3x3_s2_0_split -> pool4/3x3_s2_pool4/3x3_s2_0_split_3
I0403 10:43:25.645772 13560 net.cpp:141] Setting up pool4/3x3_s2_pool4/3x3_s2_0_split
I0403 10:43:25.645802 13560 net.cpp:148] Top shape: 24 832 7 7 (978432)
I0403 10:43:25.645823 13560 net.cpp:148] Top shape: 24 832 7 7 (978432)
I0403 10:43:25.645843 13560 net.cpp:148] Top shape: 24 832 7 7 (978432)
I0403 10:43:25.645862 13560 net.cpp:148] Top shape: 24 832 7 7 (978432)
I0403 10:43:25.645880 13560 net.cpp:156] Memory required for data: 1292103168
I0403 10:43:25.645900 13560 layer_factory.hpp:77] Creating layer inception_5a/1x1
I0403 10:43:25.645928 13560 net.cpp:91] Creating Layer inception_5a/1x1
I0403 10:43:25.645951 13560 net.cpp:425] inception_5a/1x1 <- pool4/3x3_s2_pool4/3x3_s2_0_split_0
I0403 10:43:25.645982 13560 net.cpp:399] inception_5a/1x1 -> inception_5a/1x1
I0403 10:43:25.648318 13560 net.cpp:141] Setting up inception_5a/1x1
I0403 10:43:25.648352 13560 net.cpp:148] Top shape: 24 256 7 7 (301056)
I0403 10:43:25.648372 13560 net.cpp:156] Memory required for data: 1293307392
I0403 10:43:25.648396 13560 layer_factory.hpp:77] Creating layer inception_5a/relu_1x1
I0403 10:43:25.648421 13560 net.cpp:91] Creating Layer inception_5a/relu_1x1
I0403 10:43:25.648440 13560 net.cpp:425] inception_5a/relu_1x1 <- inception_5a/1x1
I0403 10:43:25.648465 13560 net.cpp:386] inception_5a/relu_1x1 -> inception_5a/1x1 (in-place)
I0403 10:43:25.648490 13560 net.cpp:141] Setting up inception_5a/relu_1x1
I0403 10:43:25.648514 13560 net.cpp:148] Top shape: 24 256 7 7 (301056)
I0403 10:43:25.648533 13560 net.cpp:156] Memory required for data: 1294511616
I0403 10:43:25.648552 13560 layer_factory.hpp:77] Creating layer inception_5a/3x3_reduce
I0403 10:43:25.648581 13560 net.cpp:91] Creating Layer inception_5a/3x3_reduce
I0403 10:43:25.648603 13560 net.cpp:425] inception_5a/3x3_reduce <- pool4/3x3_s2_pool4/3x3_s2_0_split_1
I0403 10:43:25.648628 13560 net.cpp:399] inception_5a/3x3_reduce -> inception_5a/3x3_reduce
I0403 10:43:25.650436 13560 net.cpp:141] Setting up inception_5a/3x3_reduce
I0403 10:43:25.650470 13560 net.cpp:148] Top shape: 24 160 7 7 (188160)
I0403 10:43:25.650490 13560 net.cpp:156] Memory required for data: 1295264256
I0403 10:43:25.650513 13560 layer_factory.hpp:77] Creating layer inception_5a/relu_3x3_reduce
I0403 10:43:25.650537 13560 net.cpp:91] Creating Layer inception_5a/relu_3x3_reduce
I0403 10:43:25.650557 13560 net.cpp:425] inception_5a/relu_3x3_reduce <- inception_5a/3x3_reduce
I0403 10:43:25.650583 13560 net.cpp:386] inception_5a/relu_3x3_reduce -> inception_5a/3x3_reduce (in-place)
I0403 10:43:25.650610 13560 net.cpp:141] Setting up inception_5a/relu_3x3_reduce
I0403 10:43:25.650634 13560 net.cpp:148] Top shape: 24 160 7 7 (188160)
I0403 10:43:25.650652 13560 net.cpp:156] Memory required for data: 1296016896
I0403 10:43:25.650671 13560 layer_factory.hpp:77] Creating layer inception_5a/3x3
I0403 10:43:25.650699 13560 net.cpp:91] Creating Layer inception_5a/3x3
I0403 10:43:25.650722 13560 net.cpp:425] inception_5a/3x3 <- inception_5a/3x3_reduce
I0403 10:43:25.650748 13560 net.cpp:399] inception_5a/3x3 -> inception_5a/3x3
I0403 10:43:25.655437 13560 net.cpp:141] Setting up inception_5a/3x3
I0403 10:43:25.655491 13560 net.cpp:148] Top shape: 24 320 7 7 (376320)
I0403 10:43:25.655514 13560 net.cpp:156] Memory required for data: 1297522176
I0403 10:43:25.655537 13560 layer_factory.hpp:77] Creating layer inception_5a/relu_3x3
I0403 10:43:25.655561 13560 net.cpp:91] Creating Layer inception_5a/relu_3x3
I0403 10:43:25.655581 13560 net.cpp:425] inception_5a/relu_3x3 <- inception_5a/3x3
I0403 10:43:25.655608 13560 net.cpp:386] inception_5a/relu_3x3 -> inception_5a/3x3 (in-place)
I0403 10:43:25.655634 13560 net.cpp:141] Setting up inception_5a/relu_3x3
I0403 10:43:25.655657 13560 net.cpp:148] Top shape: 24 320 7 7 (376320)
I0403 10:43:25.655674 13560 net.cpp:156] Memory required for data: 1299027456
I0403 10:43:25.655692 13560 layer_factory.hpp:77] Creating layer inception_5a/5x5_reduce
I0403 10:43:25.655720 13560 net.cpp:91] Creating Layer inception_5a/5x5_reduce
I0403 10:43:25.655743 13560 net.cpp:425] inception_5a/5x5_reduce <- pool4/3x3_s2_pool4/3x3_s2_0_split_2
I0403 10:43:25.655768 13560 net.cpp:399] inception_5a/5x5_reduce -> inception_5a/5x5_reduce
I0403 10:43:25.656231 13560 net.cpp:141] Setting up inception_5a/5x5_reduce
I0403 10:43:25.656267 13560 net.cpp:148] Top shape: 24 32 7 7 (37632)
I0403 10:43:25.656288 13560 net.cpp:156] Memory required for data: 1299177984
I0403 10:43:25.656311 13560 layer_factory.hpp:77] Creating layer inception_5a/relu_5x5_reduce
I0403 10:43:25.656334 13560 net.cpp:91] Creating Layer inception_5a/relu_5x5_reduce
I0403 10:43:25.656357 13560 net.cpp:425] inception_5a/relu_5x5_reduce <- inception_5a/5x5_reduce
I0403 10:43:25.656383 13560 net.cpp:386] inception_5a/relu_5x5_reduce -> inception_5a/5x5_reduce (in-place)
I0403 10:43:25.656409 13560 net.cpp:141] Setting up inception_5a/relu_5x5_reduce
I0403 10:43:25.656432 13560 net.cpp:148] Top shape: 24 32 7 7 (37632)
I0403 10:43:25.656451 13560 net.cpp:156] Memory required for data: 1299328512
I0403 10:43:25.656469 13560 layer_factory.hpp:77] Creating layer inception_5a/5x5
I0403 10:43:25.656497 13560 net.cpp:91] Creating Layer inception_5a/5x5
I0403 10:43:25.656520 13560 net.cpp:425] inception_5a/5x5 <- inception_5a/5x5_reduce
I0403 10:43:25.656544 13560 net.cpp:399] inception_5a/5x5 -> inception_5a/5x5
I0403 10:43:25.657502 13560 net.cpp:141] Setting up inception_5a/5x5
I0403 10:43:25.657533 13560 net.cpp:148] Top shape: 24 128 7 7 (150528)
I0403 10:43:25.657553 13560 net.cpp:156] Memory required for data: 1299930624
I0403 10:43:25.657577 13560 layer_factory.hpp:77] Creating layer inception_5a/relu_5x5
I0403 10:43:25.657599 13560 net.cpp:91] Creating Layer inception_5a/relu_5x5
I0403 10:43:25.657620 13560 net.cpp:425] inception_5a/relu_5x5 <- inception_5a/5x5
I0403 10:43:25.657642 13560 net.cpp:386] inception_5a/relu_5x5 -> inception_5a/5x5 (in-place)
I0403 10:43:25.657666 13560 net.cpp:141] Setting up inception_5a/relu_5x5
I0403 10:43:25.657688 13560 net.cpp:148] Top shape: 24 128 7 7 (150528)
I0403 10:43:25.657706 13560 net.cpp:156] Memory required for data: 1300532736
I0403 10:43:25.657726 13560 layer_factory.hpp:77] Creating layer inception_5a/pool
I0403 10:43:25.657750 13560 net.cpp:91] Creating Layer inception_5a/pool
I0403 10:43:25.657773 13560 net.cpp:425] inception_5a/pool <- pool4/3x3_s2_pool4/3x3_s2_0_split_3
I0403 10:43:25.657796 13560 net.cpp:399] inception_5a/pool -> inception_5a/pool
I0403 10:43:25.657863 13560 net.cpp:141] Setting up inception_5a/pool
I0403 10:43:25.657892 13560 net.cpp:148] Top shape: 24 832 7 7 (978432)
I0403 10:43:25.657912 13560 net.cpp:156] Memory required for data: 1304446464
I0403 10:43:25.657930 13560 layer_factory.hpp:77] Creating layer inception_5a/pool_proj
I0403 10:43:25.657958 13560 net.cpp:91] Creating Layer inception_5a/pool_proj
I0403 10:43:25.657980 13560 net.cpp:425] inception_5a/pool_proj <- inception_5a/pool
I0403 10:43:25.658005 13560 net.cpp:399] inception_5a/pool_proj -> inception_5a/pool_proj
I0403 10:43:25.659636 13560 net.cpp:141] Setting up inception_5a/pool_proj
I0403 10:43:25.659672 13560 net.cpp:148] Top shape: 24 128 7 7 (150528)
I0403 10:43:25.659693 13560 net.cpp:156] Memory required for data: 1305048576
I0403 10:43:25.659732 13560 layer_factory.hpp:77] Creating layer inception_5a/relu_pool_proj
I0403 10:43:25.659759 13560 net.cpp:91] Creating Layer inception_5a/relu_pool_proj
I0403 10:43:25.659780 13560 net.cpp:425] inception_5a/relu_pool_proj <- inception_5a/pool_proj
I0403 10:43:25.659806 13560 net.cpp:386] inception_5a/relu_pool_proj -> inception_5a/pool_proj (in-place)
I0403 10:43:25.659832 13560 net.cpp:141] Setting up inception_5a/relu_pool_proj
I0403 10:43:25.659854 13560 net.cpp:148] Top shape: 24 128 7 7 (150528)
I0403 10:43:25.659873 13560 net.cpp:156] Memory required for data: 1305650688
I0403 10:43:25.659891 13560 layer_factory.hpp:77] Creating layer inception_5a/output
I0403 10:43:25.659914 13560 net.cpp:91] Creating Layer inception_5a/output
I0403 10:43:25.659934 13560 net.cpp:425] inception_5a/output <- inception_5a/1x1
I0403 10:43:25.659955 13560 net.cpp:425] inception_5a/output <- inception_5a/3x3
I0403 10:43:25.659976 13560 net.cpp:425] inception_5a/output <- inception_5a/5x5
I0403 10:43:25.659996 13560 net.cpp:425] inception_5a/output <- inception_5a/pool_proj
I0403 10:43:25.660017 13560 net.cpp:399] inception_5a/output -> inception_5a/output
I0403 10:43:25.660068 13560 net.cpp:141] Setting up inception_5a/output
I0403 10:43:25.660097 13560 net.cpp:148] Top shape: 24 832 7 7 (978432)
I0403 10:43:25.660116 13560 net.cpp:156] Memory required for data: 1309564416
I0403 10:43:25.660135 13560 layer_factory.hpp:77] Creating layer inception_5a/output_inception_5a/output_0_split
I0403 10:43:25.660158 13560 net.cpp:91] Creating Layer inception_5a/output_inception_5a/output_0_split
I0403 10:43:25.660177 13560 net.cpp:425] inception_5a/output_inception_5a/output_0_split <- inception_5a/output
I0403 10:43:25.660202 13560 net.cpp:399] inception_5a/output_inception_5a/output_0_split -> inception_5a/output_inception_5a/output_0_split_0
I0403 10:43:25.660230 13560 net.cpp:399] inception_5a/output_inception_5a/output_0_split -> inception_5a/output_inception_5a/output_0_split_1
I0403 10:43:25.660264 13560 net.cpp:399] inception_5a/output_inception_5a/output_0_split -> inception_5a/output_inception_5a/output_0_split_2
I0403 10:43:25.660291 13560 net.cpp:399] inception_5a/output_inception_5a/output_0_split -> inception_5a/output_inception_5a/output_0_split_3
I0403 10:43:25.660382 13560 net.cpp:141] Setting up inception_5a/output_inception_5a/output_0_split
I0403 10:43:25.660411 13560 net.cpp:148] Top shape: 24 832 7 7 (978432)
I0403 10:43:25.660434 13560 net.cpp:148] Top shape: 24 832 7 7 (978432)
I0403 10:43:25.660454 13560 net.cpp:148] Top shape: 24 832 7 7 (978432)
I0403 10:43:25.660472 13560 net.cpp:148] Top shape: 24 832 7 7 (978432)
I0403 10:43:25.660490 13560 net.cpp:156] Memory required for data: 1325219328
I0403 10:43:25.660508 13560 layer_factory.hpp:77] Creating layer inception_5b/1x1
I0403 10:43:25.660537 13560 net.cpp:91] Creating Layer inception_5b/1x1
I0403 10:43:25.660559 13560 net.cpp:425] inception_5b/1x1 <- inception_5a/output_inception_5a/output_0_split_0
I0403 10:43:25.660584 13560 net.cpp:399] inception_5b/1x1 -> inception_5b/1x1
I0403 10:43:25.663722 13560 net.cpp:141] Setting up inception_5b/1x1
I0403 10:43:25.663758 13560 net.cpp:148] Top shape: 24 384 7 7 (451584)
I0403 10:43:25.663779 13560 net.cpp:156] Memory required for data: 1327025664
I0403 10:43:25.663803 13560 layer_factory.hpp:77] Creating layer inception_5b/relu_1x1
I0403 10:43:25.663826 13560 net.cpp:91] Creating Layer inception_5b/relu_1x1
I0403 10:43:25.663846 13560 net.cpp:425] inception_5b/relu_1x1 <- inception_5b/1x1
I0403 10:43:25.663872 13560 net.cpp:386] inception_5b/relu_1x1 -> inception_5b/1x1 (in-place)
I0403 10:43:25.663897 13560 net.cpp:141] Setting up inception_5b/relu_1x1
I0403 10:43:25.663920 13560 net.cpp:148] Top shape: 24 384 7 7 (451584)
I0403 10:43:25.663938 13560 net.cpp:156] Memory required for data: 1328832000
I0403 10:43:25.663956 13560 layer_factory.hpp:77] Creating layer inception_5b/3x3_reduce
I0403 10:43:25.663985 13560 net.cpp:91] Creating Layer inception_5b/3x3_reduce
I0403 10:43:25.664023 13560 net.cpp:425] inception_5b/3x3_reduce <- inception_5a/output_inception_5a/output_0_split_1
I0403 10:43:25.664050 13560 net.cpp:399] inception_5b/3x3_reduce -> inception_5b/3x3_reduce
I0403 10:43:25.666033 13560 net.cpp:141] Setting up inception_5b/3x3_reduce
I0403 10:43:25.666069 13560 net.cpp:148] Top shape: 24 192 7 7 (225792)
I0403 10:43:25.666088 13560 net.cpp:156] Memory required for data: 1329735168
I0403 10:43:25.666110 13560 layer_factory.hpp:77] Creating layer inception_5b/relu_3x3_reduce
I0403 10:43:25.666133 13560 net.cpp:91] Creating Layer inception_5b/relu_3x3_reduce
I0403 10:43:25.666153 13560 net.cpp:425] inception_5b/relu_3x3_reduce <- inception_5b/3x3_reduce
I0403 10:43:25.666179 13560 net.cpp:386] inception_5b/relu_3x3_reduce -> inception_5b/3x3_reduce (in-place)
I0403 10:43:25.666205 13560 net.cpp:141] Setting up inception_5b/relu_3x3_reduce
I0403 10:43:25.666227 13560 net.cpp:148] Top shape: 24 192 7 7 (225792)
I0403 10:43:25.666250 13560 net.cpp:156] Memory required for data: 1330638336
I0403 10:43:25.666270 13560 layer_factory.hpp:77] Creating layer inception_5b/3x3
I0403 10:43:25.666298 13560 net.cpp:91] Creating Layer inception_5b/3x3
I0403 10:43:25.666321 13560 net.cpp:425] inception_5b/3x3 <- inception_5b/3x3_reduce
I0403 10:43:25.666347 13560 net.cpp:399] inception_5b/3x3 -> inception_5b/3x3
I0403 10:43:25.672901 13560 net.cpp:141] Setting up inception_5b/3x3
I0403 10:43:25.672937 13560 net.cpp:148] Top shape: 24 384 7 7 (451584)
I0403 10:43:25.672957 13560 net.cpp:156] Memory required for data: 1332444672
I0403 10:43:25.672981 13560 layer_factory.hpp:77] Creating layer inception_5b/relu_3x3
I0403 10:43:25.673004 13560 net.cpp:91] Creating Layer inception_5b/relu_3x3
I0403 10:43:25.673027 13560 net.cpp:425] inception_5b/relu_3x3 <- inception_5b/3x3
I0403 10:43:25.673049 13560 net.cpp:386] inception_5b/relu_3x3 -> inception_5b/3x3 (in-place)
I0403 10:43:25.673074 13560 net.cpp:141] Setting up inception_5b/relu_3x3
I0403 10:43:25.673096 13560 net.cpp:148] Top shape: 24 384 7 7 (451584)
I0403 10:43:25.673115 13560 net.cpp:156] Memory required for data: 1334251008
I0403 10:43:25.673133 13560 layer_factory.hpp:77] Creating layer inception_5b/5x5_reduce
I0403 10:43:25.673161 13560 net.cpp:91] Creating Layer inception_5b/5x5_reduce
I0403 10:43:25.673184 13560 net.cpp:425] inception_5b/5x5_reduce <- inception_5a/output_inception_5a/output_0_split_2
I0403 10:43:25.673213 13560 net.cpp:399] inception_5b/5x5_reduce -> inception_5b/5x5_reduce
I0403 10:43:25.673781 13560 net.cpp:141] Setting up inception_5b/5x5_reduce
I0403 10:43:25.673812 13560 net.cpp:148] Top shape: 24 48 7 7 (56448)
I0403 10:43:25.673831 13560 net.cpp:156] Memory required for data: 1334476800
I0403 10:43:25.673854 13560 layer_factory.hpp:77] Creating layer inception_5b/relu_5x5_reduce
I0403 10:43:25.673878 13560 net.cpp:91] Creating Layer inception_5b/relu_5x5_reduce
I0403 10:43:25.673899 13560 net.cpp:425] inception_5b/relu_5x5_reduce <- inception_5b/5x5_reduce
I0403 10:43:25.673923 13560 net.cpp:386] inception_5b/relu_5x5_reduce -> inception_5b/5x5_reduce (in-place)
I0403 10:43:25.673946 13560 net.cpp:141] Setting up inception_5b/relu_5x5_reduce
I0403 10:43:25.673970 13560 net.cpp:148] Top shape: 24 48 7 7 (56448)
I0403 10:43:25.673990 13560 net.cpp:156] Memory required for data: 1334702592
I0403 10:43:25.674007 13560 layer_factory.hpp:77] Creating layer inception_5b/5x5
I0403 10:43:25.674036 13560 net.cpp:91] Creating Layer inception_5b/5x5
I0403 10:43:25.674059 13560 net.cpp:425] inception_5b/5x5 <- inception_5b/5x5_reduce
I0403 10:43:25.674088 13560 net.cpp:399] inception_5b/5x5 -> inception_5b/5x5
I0403 10:43:25.675412 13560 net.cpp:141] Setting up inception_5b/5x5
I0403 10:43:25.675448 13560 net.cpp:148] Top shape: 24 128 7 7 (150528)
I0403 10:43:25.675469 13560 net.cpp:156] Memory required for data: 1335304704
I0403 10:43:25.675493 13560 layer_factory.hpp:77] Creating layer inception_5b/relu_5x5
I0403 10:43:25.675516 13560 net.cpp:91] Creating Layer inception_5b/relu_5x5
I0403 10:43:25.675537 13560 net.cpp:425] inception_5b/relu_5x5 <- inception_5b/5x5
I0403 10:43:25.675582 13560 net.cpp:386] inception_5b/relu_5x5 -> inception_5b/5x5 (in-place)
I0403 10:43:25.675608 13560 net.cpp:141] Setting up inception_5b/relu_5x5
I0403 10:43:25.675631 13560 net.cpp:148] Top shape: 24 128 7 7 (150528)
I0403 10:43:25.675649 13560 net.cpp:156] Memory required for data: 1335906816
I0403 10:43:25.675668 13560 layer_factory.hpp:77] Creating layer inception_5b/pool
I0403 10:43:25.675690 13560 net.cpp:91] Creating Layer inception_5b/pool
I0403 10:43:25.675711 13560 net.cpp:425] inception_5b/pool <- inception_5a/output_inception_5a/output_0_split_3
I0403 10:43:25.675737 13560 net.cpp:399] inception_5b/pool -> inception_5b/pool
I0403 10:43:25.675806 13560 net.cpp:141] Setting up inception_5b/pool
I0403 10:43:25.675837 13560 net.cpp:148] Top shape: 24 832 7 7 (978432)
I0403 10:43:25.675854 13560 net.cpp:156] Memory required for data: 1339820544
I0403 10:43:25.675871 13560 layer_factory.hpp:77] Creating layer inception_5b/pool_proj
I0403 10:43:25.675899 13560 net.cpp:91] Creating Layer inception_5b/pool_proj
I0403 10:43:25.675922 13560 net.cpp:425] inception_5b/pool_proj <- inception_5b/pool
I0403 10:43:25.675951 13560 net.cpp:399] inception_5b/pool_proj -> inception_5b/pool_proj
I0403 10:43:25.677567 13560 net.cpp:141] Setting up inception_5b/pool_proj
I0403 10:43:25.677604 13560 net.cpp:148] Top shape: 24 128 7 7 (150528)
I0403 10:43:25.677624 13560 net.cpp:156] Memory required for data: 1340422656
I0403 10:43:25.677649 13560 layer_factory.hpp:77] Creating layer inception_5b/relu_pool_proj
I0403 10:43:25.677672 13560 net.cpp:91] Creating Layer inception_5b/relu_pool_proj
I0403 10:43:25.677693 13560 net.cpp:425] inception_5b/relu_pool_proj <- inception_5b/pool_proj
I0403 10:43:25.677717 13560 net.cpp:386] inception_5b/relu_pool_proj -> inception_5b/pool_proj (in-place)
I0403 10:43:25.677742 13560 net.cpp:141] Setting up inception_5b/relu_pool_proj
I0403 10:43:25.677764 13560 net.cpp:148] Top shape: 24 128 7 7 (150528)
I0403 10:43:25.677783 13560 net.cpp:156] Memory required for data: 1341024768
I0403 10:43:25.677800 13560 layer_factory.hpp:77] Creating layer inception_5b/output
I0403 10:43:25.677822 13560 net.cpp:91] Creating Layer inception_5b/output
I0403 10:43:25.677844 13560 net.cpp:425] inception_5b/output <- inception_5b/1x1
I0403 10:43:25.677865 13560 net.cpp:425] inception_5b/output <- inception_5b/3x3
I0403 10:43:25.677884 13560 net.cpp:425] inception_5b/output <- inception_5b/5x5
I0403 10:43:25.677904 13560 net.cpp:425] inception_5b/output <- inception_5b/pool_proj
I0403 10:43:25.677930 13560 net.cpp:399] inception_5b/output -> inception_5b/output
I0403 10:43:25.677980 13560 net.cpp:141] Setting up inception_5b/output
I0403 10:43:25.678012 13560 net.cpp:148] Top shape: 24 1024 7 7 (1204224)
I0403 10:43:25.678033 13560 net.cpp:156] Memory required for data: 1345841664
I0403 10:43:25.678052 13560 layer_factory.hpp:77] Creating layer pool5/7x7_s1
I0403 10:43:25.678074 13560 net.cpp:91] Creating Layer pool5/7x7_s1
I0403 10:43:25.678094 13560 net.cpp:425] pool5/7x7_s1 <- inception_5b/output
I0403 10:43:25.678117 13560 net.cpp:399] pool5/7x7_s1 -> pool5/7x7_s1
I0403 10:43:25.678169 13560 net.cpp:141] Setting up pool5/7x7_s1
I0403 10:43:25.678199 13560 net.cpp:148] Top shape: 24 1024 1 1 (24576)
I0403 10:43:25.678216 13560 net.cpp:156] Memory required for data: 1345939968
I0403 10:43:25.678246 13560 layer_factory.hpp:77] Creating layer pool5/drop_7x7_s1
I0403 10:43:25.678277 13560 net.cpp:91] Creating Layer pool5/drop_7x7_s1
I0403 10:43:25.678298 13560 net.cpp:425] pool5/drop_7x7_s1 <- pool5/7x7_s1
I0403 10:43:25.678321 13560 net.cpp:386] pool5/drop_7x7_s1 -> pool5/7x7_s1 (in-place)
I0403 10:43:25.678371 13560 net.cpp:141] Setting up pool5/drop_7x7_s1
I0403 10:43:25.678400 13560 net.cpp:148] Top shape: 24 1024 1 1 (24576)
I0403 10:43:25.678419 13560 net.cpp:156] Memory required for data: 1346038272
I0403 10:43:25.678437 13560 layer_factory.hpp:77] Creating layer loss3/classifier_plantvillage
I0403 10:43:25.678462 13560 net.cpp:91] Creating Layer loss3/classifier_plantvillage
I0403 10:43:25.678500 13560 net.cpp:425] loss3/classifier_plantvillage <- pool5/7x7_s1
I0403 10:43:25.678529 13560 net.cpp:399] loss3/classifier_plantvillage -> loss3/classifier_plantvillage
I0403 10:43:25.678951 13560 net.cpp:141] Setting up loss3/classifier_plantvillage
I0403 10:43:25.678982 13560 net.cpp:148] Top shape: 24 38 (912)
I0403 10:43:25.679009 13560 net.cpp:156] Memory required for data: 1346041920
I0403 10:43:25.679033 13560 layer_factory.hpp:77] Creating layer loss1/loss
I0403 10:43:25.679062 13560 net.cpp:91] Creating Layer loss1/loss
I0403 10:43:25.679085 13560 net.cpp:425] loss1/loss <- loss1/classifier_plantvillage
I0403 10:43:25.679108 13560 net.cpp:425] loss1/loss <- label_data_1_split_0
I0403 10:43:25.679131 13560 net.cpp:399] loss1/loss -> loss1/loss
…
I0403 10:43:25.691401 13560 net.cpp:313] The NetState phase (1) differed from the phase (0) specified by a rule in layer data
I0403 10:43:25.696351 13560 net.cpp:49] Initializing net from parameters: 
state {
  phase: TEST
}
layer {
  name: "data"
  type: "Data"
  top: "data"
  top: "label"
  include {
    phase: TEST
  }
  transform_param {
    mirror: false
    crop_size: 224
    mean_file: "/home/mohanty/data/final_dataset/lmdb/segmented-60-40/mean.binaryproto"
  }
  data_param {
    source: "/home/mohanty/data/final_dataset/lmdb/segmented-60-40/test_db"
    batch_size: 24
    backend: LMDB
  }
}
layer {
  name: "conv1/7x7_s2"
  type: "Convolution"
  bottom: "data"
  top: "conv1/7x7_s2"
  param {
    lr_mult: 1
    decay_mult: 1
  }
  param {
    lr_mult: 2
    decay_mult: 0
  }
  convolution_param {
    num_output: 64
    pad: 3
    kernel_size: 7
    stride: 2
    weight_filler {
      type: "xavier"
      std: 0.1
    }
    bias_filler {
      type: "constant"
      value: 0.2
    }
  }
}
layer {
  name: "conv1/relu_7x7"
  type: "ReLU"
  bottom: "conv1/7x7_s2"
  top: "conv1/7x7_s2"
}
layer {
  name: "pool1/3x3_s2"
  type: "Pooling"
  bottom: "conv1/7x7_s2"
  top: "pool1/3x3_s2"
  pooling_param {
    pool: MAX
    kernel_size: 3
    stride: 2
  }
}
layer {
  name: "pool1/norm1"
  type: "LRN"
  bottom: "pool1/3x3_s2"
  top: "pool1/norm1"
  lrn_param {
    local_size: 5
    alpha: 0.0001
    beta: 0.75
  }
}
layer {
  name: "conv2/3x3_reduce"
  type: "Convolution"
  bottom: "pool1/norm1"
  top: "conv2/3x3_reduce"
  param {
    lr_mult: 1
    decay_mult: 1
  }
  param {
    lr_mult: 2
    decay_mult: 0
  }
  convolution_param {
    num_output: 64
    kernel_size: 1
    weight_filler {
      type: "xavier"
      std: 0.1
    }
    bias_filler {
      type: "constant"
      value: 0.2
    }
  }
}
layer {
  name: "conv2/relu_3x3_reduce"
  type: "ReLU"
  bottom: "conv2/3x3_reduce"
  top: "conv2/3x3_reduce"
}
layer {
  name: "conv2/3x3"
  type: "Convolution"
  bottom: "conv2/3x3_reduce"
  top: "conv2/3x3"
  param {
    lr_mult: 1
    decay_mult: 1
  }
  param {
    lr_mult: 2
    decay_mult: 0
  }
  convolution_param {
    num_output: 192
    pad: 1
    kernel_size: 3
    weight_filler {
      type: "xavier"
      std: 0.03
    }
    bias_filler {
      type: "constant"
      value: 0.2
    }
  }
}
layer {
  name: "conv2/relu_3x3"
  type: "ReLU"
  bottom: "conv2/3x3"
  top: "conv2/3x3"
}
layer {
  name: "conv2/norm2"
  type: "LRN"
  bottom: "conv2/3x3"
  top: "conv2/norm2"
  lrn_param {
    local_size: 5
    alpha: 0.0001
    beta: 0.75
  }
}
layer {
  name: "pool2/3x3_s2"
  type: "Pooling"
  bottom: "conv2/norm2"
  top: "pool2/3x3_s2"
  pooling_param {
    pool: MAX
    kernel_size: 3
    stride: 2
  }
}
layer {
  name: "inception_3a/1x1"
  type: "Convolution"
  bottom: "pool2/3x3_s2"
  top: "inception_3a/1x1"
  param {
    lr_mult: 1
    decay_mult: 1
  }
  param {
    lr_mult: 2
    decay_mult: 0
  }
  convolution_param {
    num_output: 64
    kernel_size: 1
    weight_filler {
      type: "xavier"
      std: 0.03
    }
    bias_filler {
      type: "constant"
      value: 0.2
    }
  }
}
layer {
  name: "inception_3a/relu_1x1"
  type: "ReLU"
  bottom: "inception_3a/1x1"
  top: "inception_3a/1x1"
}
layer {
  name: "inception_3a/3x3_reduce"
  type: "Convolution"
  bottom: "pool2/3x3_s2"
  top: "inception_3a/3x3_reduce"
  param {
    lr_mult: 1
    decay_mult: 1
  }
  param {
    lr_mult: 2
    decay_mult: 0
  }
  convolution_param {
    num_output: 96
    kernel_size: 1
    weight_filler {
      type: "xavier"
      std: 0.09
    }
    bias_filler {
      type: "constant"
      value: 0.2
    }
  }
}
layer {
  name: "inception_3a/relu_3x3_reduce"
  type: "ReLU"
  bottom: "inception_3a/3x3_reduce"
  top: "inception_3a/3x3_reduce"
}
layer {
  name: "inception_3a/3x3"
  type: "Convolution"
  bottom: "inception_3a/3x3_reduce"
  top: "inception_3a/3x3"
  param {
    lr_mult: 1
    decay_mult: 1
  }
  param {
    lr_mult: 2
    decay_mult: 0
  }
  convolution_param {
    num_output: 128
    pad: 1
    kernel_size: 3
    weight_filler {
      type: "xavier"
      std: 0.03
    }
    bias_filler {
      type: "constant"
      value: 0.2
    }
  }
}
layer {
  name: "inception_3a/relu_3x3"
  type: "ReLU"
  bottom: "inception_3a/3x3"
  top: "inception_3a/3x3"
}
layer {
  name: "inception_3a/5x5_reduce"
  type: "Convolution"
  bottom: "pool2/3x3_s2"
  top: "inception_3a/5x5_reduce"
  param {
    lr_mult: 1
    decay_mult: 1
  }
  param {
    lr_mult: 2
    decay_mult: 0
  }
  convolution_param {
    num_output: 16
    kernel_size: 1
    weight_filler {
      type: "xavier"
      std: 0.2
    }
    bias_filler {
      type: "constant"
      value: 0.2
    }
  }
}
layer {
  name: "inception_3a/relu_5x5_reduce"
  type: "ReLU"
  bottom: "inception_3a/5x5_reduce"
  top: "inception_3a/5x5_reduce"
}
layer {
  name: "inception_3a/5x5"
  type: "Convolution"
  bottom: "inception_3a/5x5_reduce"
  top: "inception_3a/5x5"
  param {
    lr_mult: 1
    decay_mult: 1
  }
  param {
    lr_mult: 2
    decay_mult: 0
  }
  convolution_param {
    num_output: 32
    pad: 2
    kernel_size: 5
    weight_filler {
      type: "xavier"
      std: 0.03
    }
    bias_filler {
      type: "constant"
      value: 0.2
    }
  }
}
layer {
  name: "inception_3a/relu_5x5"
  type: "ReLU"
  bottom: "inception_3a/5x5"
  top: "inception_3a/5x5"
}
layer {
  name: "inception_3a/pool"
  type: "Pooling"
  bottom: "pool2/3x3_s2"
  top: "inception_3a/pool"
  pooling_param {
    pool: MAX
    kernel_size: 3
    stride: 1
    pad: 1
  }
}
layer {
  name: "inception_3a/pool_proj"
  type: "Convolution"
  bottom: "inception_3a/pool"
  top: "inception_3a/pool_proj"
  param {
    lr_mult: 1
    decay_mult: 1
  }
  param {
    lr_mult: 2
    decay_mult: 0
  }
  convolution_param {
    num_output: 32
    kernel_size: 1
    weight_filler {
      type: "xavier"
      std: 0.1
    }
    bias_filler {
      type: "constant"
      value: 0.2
    }
  }
}
layer {
  name: "inception_3a/relu_pool_proj"
  type: "ReLU"
  bottom: "inception_3a/pool_proj"
  top: "inception_3a/pool_proj"
}
layer {
  name: "inception_3a/output"
  type: "Concat"
  bottom: "inception_3a/1x1"
  bottom: "inception_3a/3x3"
  bottom: "inception_3a/5x5"
  bottom: "inception_3a/pool_proj"
  top: "inception_3a/output"
}
layer {
  name: "inception_3b/1x1"
  type: "Convolution"
  bottom: "inception_3a/output"
  top: "inception_3b/1x1"
  param {
    lr_mult: 1
    decay_mult: 1
  }
  param {
    lr_mult: 2
    decay_mult: 0
  }
  convolution_param {
    num_output: 128
    kernel_size: 1
    weight_filler {
      type: "xavier"
      std: 0.03
    }
    bias_filler {
      type: "constant"
      value: 0.2
    }
  }
}
layer {
  name: "inception_3b/relu_1x1"
  type: "ReLU"
  bottom: "inception_3b/1x1"
  top: "inception_3b/1x1"
}
layer {
  name: "inception_3b/3x3_reduce"
  type: "Convolution"
  bottom: "inception_3a/output"
  top: "inception_3b/3x3_reduce"
  param {
    lr_mult: 1
    decay_mult: 1
  }
  param {
    lr_mult: 2
    decay_mult: 0
  }
  convolution_param {
    num_output: 128
    kernel_size: 1
    weight_filler {
      type: "xavier"
      std: 0.09
    }
    bias_filler {
      type: "constant"
      value: 0.2
    }
  }
}
layer {
  name: "inception_3b/relu_3x3_reduce"
  type: "ReLU"
  bottom: "inception_3b/3x3_reduce"
  top: "inception_3b/3x3_reduce"
}
layer {
  name: "inception_3b/3x3"
  type: "Convolution"
  bottom: "inception_3b/3x3_reduce"
  top: "inception_3b/3x3"
  param {
    lr_mult: 1
    decay_mult: 1
  }
  param {
    lr_mult: 2
    decay_mult: 0
  }
  convolution_param {
    num_output: 192
    pad: 1
    kernel_size: 3
    weight_filler {
      type: "xavier"
      std: 0.03
    }
    bias_filler {
      type: "constant"
      value: 0.2
    }
  }
}
layer {
  name: "inception_3b/relu_3x3"
  type: "ReLU"
  bottom: "inception_3b/3x3"
  top: "inception_3b/3x3"
}
layer {
  name: "inception_3b/5x5_reduce"
  type: "Convolution"
  bottom: "inception_3a/output"
  top: "inception_3b/5x5_reduce"
  param {
    lr_mult: 1
    decay_mult: 1
  }
  param {
    lr_mult: 2
    decay_mult: 0
  }
  convolution_param {
    num_output: 32
    kernel_size: 1
    weight_filler {
      type: "xavier"
      std: 0.2
    }
    bias_filler {
      type: "constant"
      value: 0.2
    }
  }
}
layer {
  name: "inception_3b/relu_5x5_reduce"
  type: "ReLU"
  bottom: "inception_3b/5x5_reduce"
  top: "inception_3b/5x5_reduce"
}
layer {
  name: "inception_3b/5x5"
  type: "Convolution"
  bottom: "inception_3b/5x5_reduce"
  top: "inception_3b/5x5"
  param {
    lr_mult: 1
    decay_mult: 1
  }
  param {
    lr_mult: 2
    decay_mult: 0
  }
  convolution_param {
    num_output: 96
    pad: 2
    kernel_size: 5
    weight_filler {
      type: "xavier"
      std: 0.03
    }
    bias_filler {
      type: "constant"
      value: 0.2
    }
  }
}
layer {
  name: "inception_3b/relu_5x5"
  type: "ReLU"
  bottom: "inception_3b/5x5"
  top: "inception_3b/5x5"
}
layer {
  name: "inception_3b/pool"
  type: "Pooling"
  bottom: "inception_3a/output"
  top: "inception_3b/pool"
  pooling_param {
    pool: MAX
    kernel_size: 3
    stride: 1
    pad: 1
  }
}
layer {
  name: "inception_3b/pool_proj"
  type: "Convolution"
  bottom: "inception_3b/pool"
  top: "inception_3b/pool_proj"
  param {
    lr_mult: 1
    decay_mult: 1
  }
  param {
    lr_mult: 2
    decay_mult: 0
  }
  convolution_param {
    num_output: 64
    kernel_size: 1
    weight_filler {
      type: "xavier"
      std: 0.1
    }
    bias_filler {
      type: "constant"
      value: 0.2
    }
  }
}
layer {
  name: "inception_3b/relu_pool_proj"
  type: "ReLU"
  bottom: "inception_3b/pool_proj"
  top: "inception_3b/pool_proj"
}
layer {
  name: "inception_3b/output"
  type: "Concat"
  bottom: "inception_3b/1x1"
  bottom: "inception_3b/3x3"
  bottom: "inception_3b/5x5"
  bottom: "inception_3b/pool_proj"
  top: "inception_3b/output"
}
layer {
  name: "pool3/3x3_s2"
  type: "Pooling"
  bottom: "inception_3b/output"
  top: "pool3/3x3_s2"
  pooling_param {
    pool: MAX
    kernel_size: 3
    stride: 2
  }
}
layer {
  name: "inception_4a/1x1"
  type: "Convolution"
  bottom: "pool3/3x3_s2"
  top: "inception_4a/1x1"
  param {
    lr_mult: 1
    decay_mult: 1
  }
  param {
    lr_mult: 2
    decay_mult: 0
  }
  convolution_param {
    num_output: 192
    kernel_size: 1
    weight_filler {
      type: "xavier"
      std: 0.03
    }
    bias_filler {
      type: "constant"
      value: 0.2
    }
  }
}
layer {
  name: "inception_4a/relu_1x1"
  type: "ReLU"
  bottom: "inception_4a/1x1"
  top: "inception_4a/1x1"
}
layer {
  name: "inception_4a/3x3_reduce"
  type: "Convolution"
  bottom: "pool3/3x3_s2"
  top: "inception_4a/3x3_reduce"
  param {
    lr_mult: 1
    decay_mult: 1
  }
  param {
    lr_mult: 2
    decay_mult: 0
  }
  convolution_param {
    num_output: 96
    kernel_size: 1
    weight_filler {
      type: "xavier"
      std: 0.09
    }
    bias_filler {
      type: "constant"
      value: 0.2
    }
  }
}
layer {
  name: "inception_4a/relu_3x3_reduce"
  type: "ReLU"
  bottom: "inception_4a/3x3_reduce"
  top: "inception_4a/3x3_reduce"
}
layer {
  name: "inception_4a/3x3"
  type: "Convolution"
  bottom: "inception_4a/3x3_reduce"
  top: "inception_4a/3x3"
  param {
    lr_mult: 1
    decay_mult: 1
  }
  param {
    lr_mult: 2
    decay_mult: 0
  }
  convolution_param {
    num_output: 208
    pad: 1
    kernel_size: 3
    weight_filler {
      type: "xavier"
      std: 0.03
    }
    bias_filler {
      type: "constant"
      value: 0.2
    }
  }
}
layer {
  name: "inception_4a/relu_3x3"
  type: "ReLU"
  bottom: "inception_4a/3x3"
  top: "inception_4a/3x3"
}
layer {
  name: "inception_4a/5x5_reduce"
  type: "Convolution"
  bottom: "pool3/3x3_s2"
  top: "inception_4a/5x5_reduce"
  param {
    lr_mult: 1
    decay_mult: 1
  }
  param {
    lr_mult: 2
    decay_mult: 0
  }
  convolution_param {
    num_output: 16
    kernel_size: 1
    weight_filler {
      type: "xavier"
      std: 0.2
    }
    bias_filler {
      type: "constant"
      value: 0.2
    }
  }
}
layer {
  name: "inception_4a/relu_5x5_reduce"
  type: "ReLU"
  bottom: "inception_4a/5x5_reduce"
  top: "inception_4a/5x5_reduce"
}
layer {
  name: "inception_4a/5x5"
  type: "Convolution"
  bottom: "inception_4a/5x5_reduce"
  top: "inception_4a/5x5"
  param {
    lr_mult: 1
    decay_mult: 1
  }
  param {
    lr_mult: 2
    decay_mult: 0
  }
  convolution_param {
    num_output: 48
    pad: 2
    kernel_size: 5
    weight_filler {
      type: "xavier"
      std: 0.03
    }
    bias_filler {
      type: "constant"
      value: 0.2
    }
  }
}
layer {
  name: "inception_4a/relu_5x5"
  type: "ReLU"
  bottom: "inception_4a/5x5"
  top: "inception_4a/5x5"
}
layer {
  name: "inception_4a/pool"
  type: "Pooling"
  bottom: "pool3/3x3_s2"
  top: "inception_4a/pool"
  pooling_param {
    pool: MAX
    kernel_size: 3
    stride: 1
    pad: 1
  }
}
layer {
  name: "inception_4a/pool_proj"
  type: "Convolution"
  bottom: "inception_4a/pool"
  top: "inception_4a/pool_proj"
  param {
    lr_mult: 1
    decay_mult: 1
  }
  param {
    lr_mult: 2
    decay_mult: 0
  }
  convolution_param {
    num_output: 64
    kernel_size: 1
    weight_filler {
      type: "xavier"
      std: 0.1
    }
    bias_filler {
      type: "constant"
      value: 0.2
    }
  }
}
layer {
  name: "inception_4a/relu_pool_proj"
  type: "ReLU"
  bottom: "inception_4a/pool_proj"
  top: "inception_4a/pool_proj"
}
layer {
  name: "inception_4a/output"
  type: "Concat"
  bottom: "inception_4a/1x1"
  bottom: "inception_4a/3x3"
  bottom: "inception_4a/5x5"
  bottom: "inception_4a/pool_proj"
  top: "inception_4a/output"
}
layer {
  name: "loss1/ave_pool"
  type: "Pooling"
  bottom: "inception_4a/output"
  top: "loss1/ave_pool"
  pooling_param {
    pool: AVE
    kernel_size: 5
    stride: 3
  }
}
layer {
  name: "loss1/conv"
  type: "Convolution"
  bottom: "loss1/ave_pool"
  top: "loss1/conv"
  param {
    lr_mult: 1
    decay_mult: 1
  }
  param {
    lr_mult: 2
    decay_mult: 0
  }
  convolution_param {
    num_output: 128
    kernel_size: 1
    weight_filler {
      type: "xavier"
      std: 0.08
    }
    bias_filler {
      type: "constant"
      value: 0.2
    }
  }
}
layer {
  name: "loss1/relu_conv"
  type: "ReLU"
  bottom: "loss1/conv"
  top: "loss1/conv"
}
layer {
  name: "loss1/fc"
  type: "InnerProduct"
  bottom: "loss1/conv"
  top: "loss1/fc"
  param {
    lr_mult: 1
    decay_mult: 1
  }
  param {
    lr_mult: 2
    decay_mult: 0
  }
  inner_product_param {
    num_output: 1024
    weight_filler {
      type: "xavier"
      std: 0.02
    }
    bias_filler {
      type: "constant"
      value: 0.2
    }
  }
}
layer {
  name: "loss1/relu_fc"
  type: "ReLU"
  bottom: "loss1/fc"
  top: "loss1/fc"
}
layer {
  name: "loss1/drop_fc"
  type: "Dropout"
  bottom: "loss1/fc"
  top: "loss1/fc"
  dropout_param {
    dropout_ratio: 0.7
  }
}
layer {
  name: "loss1/classifier_plantvillage"
  type: "InnerProduct"
  bottom: "loss1/fc"
  top: "loss1/classifier_plantvillage"
  param {
    lr_mult: 1
    decay_mult: 1
  }
  param {
    lr_mult: 2
    decay_mult: 0
  }
  inner_product_param {
    num_output: 38
    weight_filler {
      type: "xavier"
      std: 0.0009765625
    }
    bias_filler {
      type: "constant"
      value: 0
    }
  }
}
layer {
  name: "inception_4b/1x1"
  type: "Convolution"
  bottom: "inception_4a/output"
  top: "inception_4b/1x1"
  param {
    lr_mult: 1
    decay_mult: 1
  }
  param {
    lr_mult: 2
    decay_mult: 0
  }
  convolution_param {
    num_output: 160
    kernel_size: 1
    weight_filler {
      type: "xavier"
      std: 0.03
    }
    bias_filler {
      type: "constant"
      value: 0.2
    }
  }
}
layer {
…
I0403 10:43:25.848723 13560 layer_factory.hpp:77] Creating layer inception_4c/pool
I0403 10:43:25.848745 13560 net.cpp:91] Creating Layer inception_4c/pool
I0403 10:43:25.848765 13560 net.cpp:425] inception_4c/pool <- inception_4b/output_inception_4b/output_0_split_3
I0403 10:43:25.848788 13560 net.cpp:399] inception_4c/pool -> inception_4c/pool
I0403 10:43:25.848861 13560 net.cpp:141] Setting up inception_4c/pool
I0403 10:43:25.848891 13560 net.cpp:148] Top shape: 24 512 14 14 (2408448)
I0403 10:43:25.848908 13560 net.cpp:156] Memory required for data: 1060605120
I0403 10:43:25.848927 13560 layer_factory.hpp:77] Creating layer inception_4c/pool_proj
I0403 10:43:25.848955 13560 net.cpp:91] Creating Layer inception_4c/pool_proj
I0403 10:43:25.848978 13560 net.cpp:425] inception_4c/pool_proj <- inception_4c/pool
I0403 10:43:25.849005 13560 net.cpp:399] inception_4c/pool_proj -> inception_4c/pool_proj
I0403 10:43:25.849531 13560 net.cpp:141] Setting up inception_4c/pool_proj
I0403 10:43:25.849562 13560 net.cpp:148] Top shape: 24 64 14 14 (301056)
I0403 10:43:25.849582 13560 net.cpp:156] Memory required for data: 1061809344
I0403 10:43:25.849606 13560 layer_factory.hpp:77] Creating layer inception_4c/relu_pool_proj
I0403 10:43:25.849632 13560 net.cpp:91] Creating Layer inception_4c/relu_pool_proj
I0403 10:43:25.849653 13560 net.cpp:425] inception_4c/relu_pool_proj <- inception_4c/pool_proj
I0403 10:43:25.849675 13560 net.cpp:386] inception_4c/relu_pool_proj -> inception_4c/pool_proj (in-place)
I0403 10:43:25.849699 13560 net.cpp:141] Setting up inception_4c/relu_pool_proj
I0403 10:43:25.849722 13560 net.cpp:148] Top shape: 24 64 14 14 (301056)
I0403 10:43:25.849740 13560 net.cpp:156] Memory required for data: 1063013568
I0403 10:43:25.849759 13560 layer_factory.hpp:77] Creating layer inception_4c/output
I0403 10:43:25.849784 13560 net.cpp:91] Creating Layer inception_4c/output
I0403 10:43:25.849804 13560 net.cpp:425] inception_4c/output <- inception_4c/1x1
I0403 10:43:25.849825 13560 net.cpp:425] inception_4c/output <- inception_4c/3x3
I0403 10:43:25.849845 13560 net.cpp:425] inception_4c/output <- inception_4c/5x5
I0403 10:43:25.849866 13560 net.cpp:425] inception_4c/output <- inception_4c/pool_proj
I0403 10:43:25.849889 13560 net.cpp:399] inception_4c/output -> inception_4c/output
I0403 10:43:25.849938 13560 net.cpp:141] Setting up inception_4c/output
I0403 10:43:25.849970 13560 net.cpp:148] Top shape: 24 512 14 14 (2408448)
I0403 10:43:25.849992 13560 net.cpp:156] Memory required for data: 1072647360
I0403 10:43:25.850009 13560 layer_factory.hpp:77] Creating layer inception_4c/output_inception_4c/output_0_split
I0403 10:43:25.850033 13560 net.cpp:91] Creating Layer inception_4c/output_inception_4c/output_0_split
I0403 10:43:25.850052 13560 net.cpp:425] inception_4c/output_inception_4c/output_0_split <- inception_4c/output
I0403 10:43:25.850075 13560 net.cpp:399] inception_4c/output_inception_4c/output_0_split -> inception_4c/output_inception_4c/output_0_split_0
I0403 10:43:25.850102 13560 net.cpp:399] inception_4c/output_inception_4c/output_0_split -> inception_4c/output_inception_4c/output_0_split_1
I0403 10:43:25.850129 13560 net.cpp:399] inception_4c/output_inception_4c/output_0_split -> inception_4c/output_inception_4c/output_0_split_2
I0403 10:43:25.850155 13560 net.cpp:399] inception_4c/output_inception_4c/output_0_split -> inception_4c/output_inception_4c/output_0_split_3
I0403 10:43:25.850270 13560 net.cpp:141] Setting up inception_4c/output_inception_4c/output_0_split
I0403 10:43:25.850301 13560 net.cpp:148] Top shape: 24 512 14 14 (2408448)
I0403 10:43:25.850322 13560 net.cpp:148] Top shape: 24 512 14 14 (2408448)
I0403 10:43:25.850340 13560 net.cpp:148] Top shape: 24 512 14 14 (2408448)
I0403 10:43:25.850360 13560 net.cpp:148] Top shape: 24 512 14 14 (2408448)
I0403 10:43:25.850378 13560 net.cpp:156] Memory required for data: 1111182528
I0403 10:43:25.850396 13560 layer_factory.hpp:77] Creating layer inception_4d/1x1
I0403 10:43:25.850425 13560 net.cpp:91] Creating Layer inception_4d/1x1
I0403 10:43:25.850447 13560 net.cpp:425] inception_4d/1x1 <- inception_4c/output_inception_4c/output_0_split_0
I0403 10:43:25.850474 13560 net.cpp:399] inception_4d/1x1 -> inception_4d/1x1
I0403 10:43:25.851156 13560 net.cpp:141] Setting up inception_4d/1x1
I0403 10:43:25.851187 13560 net.cpp:148] Top shape: 24 112 14 14 (526848)
I0403 10:43:25.851210 13560 net.cpp:156] Memory required for data: 1113289920
I0403 10:43:25.851235 13560 layer_factory.hpp:77] Creating layer inception_4d/relu_1x1
I0403 10:43:25.851258 13560 net.cpp:91] Creating Layer inception_4d/relu_1x1
I0403 10:43:25.851279 13560 net.cpp:425] inception_4d/relu_1x1 <- inception_4d/1x1
I0403 10:43:25.851302 13560 net.cpp:386] inception_4d/relu_1x1 -> inception_4d/1x1 (in-place)
I0403 10:43:25.851325 13560 net.cpp:141] Setting up inception_4d/relu_1x1
I0403 10:43:25.851347 13560 net.cpp:148] Top shape: 24 112 14 14 (526848)
I0403 10:43:25.851364 13560 net.cpp:156] Memory required for data: 1115397312
I0403 10:43:25.851382 13560 layer_factory.hpp:77] Creating layer inception_4d/3x3_reduce
I0403 10:43:25.851411 13560 net.cpp:91] Creating Layer inception_4d/3x3_reduce
I0403 10:43:25.851433 13560 net.cpp:425] inception_4d/3x3_reduce <- inception_4c/output_inception_4c/output_0_split_1
I0403 10:43:25.851460 13560 net.cpp:399] inception_4d/3x3_reduce -> inception_4d/3x3_reduce
I0403 10:43:25.852283 13560 net.cpp:141] Setting up inception_4d/3x3_reduce
I0403 10:43:25.852314 13560 net.cpp:148] Top shape: 24 144 14 14 (677376)
I0403 10:43:25.852334 13560 net.cpp:156] Memory required for data: 1118106816
I0403 10:43:25.852355 13560 layer_factory.hpp:77] Creating layer inception_4d/relu_3x3_reduce
I0403 10:43:25.852378 13560 net.cpp:91] Creating Layer inception_4d/relu_3x3_reduce
I0403 10:43:25.852399 13560 net.cpp:425] inception_4d/relu_3x3_reduce <- inception_4d/3x3_reduce
I0403 10:43:25.852421 13560 net.cpp:386] inception_4d/relu_3x3_reduce -> inception_4d/3x3_reduce (in-place)
I0403 10:43:25.852445 13560 net.cpp:141] Setting up inception_4d/relu_3x3_reduce
I0403 10:43:25.852473 13560 net.cpp:148] Top shape: 24 144 14 14 (677376)
I0403 10:43:25.852502 13560 net.cpp:156] Memory required for data: 1120816320
I0403 10:43:25.852535 13560 layer_factory.hpp:77] Creating layer inception_4d/3x3
I0403 10:43:25.852574 13560 net.cpp:91] Creating Layer inception_4d/3x3
I0403 10:43:25.852596 13560 net.cpp:425] inception_4d/3x3 <- inception_4d/3x3_reduce
I0403 10:43:25.852623 13560 net.cpp:399] inception_4d/3x3 -> inception_4d/3x3
I0403 10:43:25.856544 13560 net.cpp:141] Setting up inception_4d/3x3
I0403 10:43:25.856578 13560 net.cpp:148] Top shape: 24 288 14 14 (1354752)
I0403 10:43:25.856597 13560 net.cpp:156] Memory required for data: 1126235328
I0403 10:43:25.856621 13560 layer_factory.hpp:77] Creating layer inception_4d/relu_3x3
I0403 10:43:25.856647 13560 net.cpp:91] Creating Layer inception_4d/relu_3x3
I0403 10:43:25.856668 13560 net.cpp:425] inception_4d/relu_3x3 <- inception_4d/3x3
I0403 10:43:25.856690 13560 net.cpp:386] inception_4d/relu_3x3 -> inception_4d/3x3 (in-place)
I0403 10:43:25.856714 13560 net.cpp:141] Setting up inception_4d/relu_3x3
I0403 10:43:25.856736 13560 net.cpp:148] Top shape: 24 288 14 14 (1354752)
I0403 10:43:25.856755 13560 net.cpp:156] Memory required for data: 1131654336
I0403 10:43:25.856773 13560 layer_factory.hpp:77] Creating layer inception_4d/5x5_reduce
I0403 10:43:25.856822 13560 net.cpp:91] Creating Layer inception_4d/5x5_reduce
I0403 10:43:25.856844 13560 net.cpp:425] inception_4d/5x5_reduce <- inception_4c/output_inception_4c/output_0_split_2
I0403 10:43:25.856868 13560 net.cpp:399] inception_4d/5x5_reduce -> inception_4d/5x5_reduce
I0403 10:43:25.857324 13560 net.cpp:141] Setting up inception_4d/5x5_reduce
I0403 10:43:25.857359 13560 net.cpp:148] Top shape: 24 32 14 14 (150528)
I0403 10:43:25.857378 13560 net.cpp:156] Memory required for data: 1132256448
I0403 10:43:25.857401 13560 layer_factory.hpp:77] Creating layer inception_4d/relu_5x5_reduce
I0403 10:43:25.857424 13560 net.cpp:91] Creating Layer inception_4d/relu_5x5_reduce
I0403 10:43:25.857455 13560 net.cpp:425] inception_4d/relu_5x5_reduce <- inception_4d/5x5_reduce
I0403 10:43:25.857477 13560 net.cpp:386] inception_4d/relu_5x5_reduce -> inception_4d/5x5_reduce (in-place)
I0403 10:43:25.857501 13560 net.cpp:141] Setting up inception_4d/relu_5x5_reduce
I0403 10:43:25.857523 13560 net.cpp:148] Top shape: 24 32 14 14 (150528)
I0403 10:43:25.857542 13560 net.cpp:156] Memory required for data: 1132858560
I0403 10:43:25.857561 13560 layer_factory.hpp:77] Creating layer inception_4d/5x5
I0403 10:43:25.857589 13560 net.cpp:91] Creating Layer inception_4d/5x5
I0403 10:43:25.857611 13560 net.cpp:425] inception_4d/5x5 <- inception_4d/5x5_reduce
I0403 10:43:25.857640 13560 net.cpp:399] inception_4d/5x5 -> inception_4d/5x5
I0403 10:43:25.858307 13560 net.cpp:141] Setting up inception_4d/5x5
I0403 10:43:25.858338 13560 net.cpp:148] Top shape: 24 64 14 14 (301056)
I0403 10:43:25.858357 13560 net.cpp:156] Memory required for data: 1134062784
I0403 10:43:25.858381 13560 layer_factory.hpp:77] Creating layer inception_4d/relu_5x5
I0403 10:43:25.858405 13560 net.cpp:91] Creating Layer inception_4d/relu_5x5
I0403 10:43:25.858428 13560 net.cpp:425] inception_4d/relu_5x5 <- inception_4d/5x5
I0403 10:43:25.858449 13560 net.cpp:386] inception_4d/relu_5x5 -> inception_4d/5x5 (in-place)
I0403 10:43:25.858474 13560 net.cpp:141] Setting up inception_4d/relu_5x5
I0403 10:43:25.858494 13560 net.cpp:148] Top shape: 24 64 14 14 (301056)
I0403 10:43:25.858512 13560 net.cpp:156] Memory required for data: 1135267008
I0403 10:43:25.858530 13560 layer_factory.hpp:77] Creating layer inception_4d/pool
I0403 10:43:25.858556 13560 net.cpp:91] Creating Layer inception_4d/pool
I0403 10:43:25.858578 13560 net.cpp:425] inception_4d/pool <- inception_4c/output_inception_4c/output_0_split_3
I0403 10:43:25.858602 13560 net.cpp:399] inception_4d/pool -> inception_4d/pool
I0403 10:43:25.858669 13560 net.cpp:141] Setting up inception_4d/pool
I0403 10:43:25.858701 13560 net.cpp:148] Top shape: 24 512 14 14 (2408448)
I0403 10:43:25.858721 13560 net.cpp:156] Memory required for data: 1144900800
I0403 10:43:25.858739 13560 layer_factory.hpp:77] Creating layer inception_4d/pool_proj
I0403 10:43:25.858763 13560 net.cpp:91] Creating Layer inception_4d/pool_proj
I0403 10:43:25.858784 13560 net.cpp:425] inception_4d/pool_proj <- inception_4d/pool
I0403 10:43:25.858811 13560 net.cpp:399] inception_4d/pool_proj -> inception_4d/pool_proj
I0403 10:43:25.859341 13560 net.cpp:141] Setting up inception_4d/pool_proj
I0403 10:43:25.859372 13560 net.cpp:148] Top shape: 24 64 14 14 (301056)
I0403 10:43:25.859391 13560 net.cpp:156] Memory required for data: 1146105024
I0403 10:43:25.859413 13560 layer_factory.hpp:77] Creating layer inception_4d/relu_pool_proj
I0403 10:43:25.859436 13560 net.cpp:91] Creating Layer inception_4d/relu_pool_proj
I0403 10:43:25.859457 13560 net.cpp:425] inception_4d/relu_pool_proj <- inception_4d/pool_proj
I0403 10:43:25.859485 13560 net.cpp:386] inception_4d/relu_pool_proj -> inception_4d/pool_proj (in-place)
I0403 10:43:25.859510 13560 net.cpp:141] Setting up inception_4d/relu_pool_proj
I0403 10:43:25.859532 13560 net.cpp:148] Top shape: 24 64 14 14 (301056)
I0403 10:43:25.859550 13560 net.cpp:156] Memory required for data: 1147309248
I0403 10:43:25.859568 13560 layer_factory.hpp:77] Creating layer inception_4d/output
I0403 10:43:25.859617 13560 net.cpp:91] Creating Layer inception_4d/output
I0403 10:43:25.859637 13560 net.cpp:425] inception_4d/output <- inception_4d/1x1
I0403 10:43:25.859658 13560 net.cpp:425] inception_4d/output <- inception_4d/3x3
I0403 10:43:25.859679 13560 net.cpp:425] inception_4d/output <- inception_4d/5x5
I0403 10:43:25.859700 13560 net.cpp:425] inception_4d/output <- inception_4d/pool_proj
I0403 10:43:25.859721 13560 net.cpp:399] inception_4d/output -> inception_4d/output
I0403 10:43:25.859776 13560 net.cpp:141] Setting up inception_4d/output
I0403 10:43:25.859804 13560 net.cpp:148] Top shape: 24 528 14 14 (2483712)
I0403 10:43:25.859822 13560 net.cpp:156] Memory required for data: 1157244096
I0403 10:43:25.859840 13560 layer_factory.hpp:77] Creating layer inception_4d/output_inception_4d/output_0_split
I0403 10:43:25.859863 13560 net.cpp:91] Creating Layer inception_4d/output_inception_4d/output_0_split
I0403 10:43:25.859901 13560 net.cpp:425] inception_4d/output_inception_4d/output_0_split <- inception_4d/output
I0403 10:43:25.859938 13560 net.cpp:399] inception_4d/output_inception_4d/output_0_split -> inception_4d/output_inception_4d/output_0_split_0
I0403 10:43:25.859966 13560 net.cpp:399] inception_4d/output_inception_4d/output_0_split -> inception_4d/output_inception_4d/output_0_split_1
I0403 10:43:25.859992 13560 net.cpp:399] inception_4d/output_inception_4d/output_0_split -> inception_4d/output_inception_4d/output_0_split_2
I0403 10:43:25.860028 13560 net.cpp:399] inception_4d/output_inception_4d/output_0_split -> inception_4d/output_inception_4d/output_0_split_3
I0403 10:43:25.860055 13560 net.cpp:399] inception_4d/output_inception_4d/output_0_split -> inception_4d/output_inception_4d/output_0_split_4
I0403 10:43:25.860163 13560 net.cpp:141] Setting up inception_4d/output_inception_4d/output_0_split
I0403 10:43:25.860193 13560 net.cpp:148] Top shape: 24 528 14 14 (2483712)
I0403 10:43:25.860219 13560 net.cpp:148] Top shape: 24 528 14 14 (2483712)
I0403 10:43:25.860240 13560 net.cpp:148] Top shape: 24 528 14 14 (2483712)
I0403 10:43:25.860260 13560 net.cpp:148] Top shape: 24 528 14 14 (2483712)
I0403 10:43:25.860280 13560 net.cpp:148] Top shape: 24 528 14 14 (2483712)
I0403 10:43:25.860303 13560 net.cpp:156] Memory required for data: 1206918336
I0403 10:43:25.860321 13560 layer_factory.hpp:77] Creating layer loss2/ave_pool
I0403 10:43:25.860343 13560 net.cpp:91] Creating Layer loss2/ave_pool
I0403 10:43:25.860363 13560 net.cpp:425] loss2/ave_pool <- inception_4d/output_inception_4d/output_0_split_0
I0403 10:43:25.860391 13560 net.cpp:399] loss2/ave_pool -> loss2/ave_pool
I0403 10:43:25.860443 13560 net.cpp:141] Setting up loss2/ave_pool
I0403 10:43:25.860476 13560 net.cpp:148] Top shape: 24 528 4 4 (202752)
I0403 10:43:25.860496 13560 net.cpp:156] Memory required for data: 1207729344
I0403 10:43:25.860514 13560 layer_factory.hpp:77] Creating layer loss2/conv
I0403 10:43:25.860545 13560 net.cpp:91] Creating Layer loss2/conv
I0403 10:43:25.860568 13560 net.cpp:425] loss2/conv <- loss2/ave_pool
I0403 10:43:25.860592 13560 net.cpp:399] loss2/conv -> loss2/conv
I0403 10:43:25.861968 13560 net.cpp:141] Setting up loss2/conv
I0403 10:43:25.862005 13560 net.cpp:148] Top shape: 24 128 4 4 (49152)
I0403 10:43:25.862025 13560 net.cpp:156] Memory required for data: 1207925952
I0403 10:43:25.862047 13560 layer_factory.hpp:77] Creating layer loss2/relu_conv
I0403 10:43:25.862071 13560 net.cpp:91] Creating Layer loss2/relu_conv
I0403 10:43:25.862092 13560 net.cpp:425] loss2/relu_conv <- loss2/conv
I0403 10:43:25.862115 13560 net.cpp:386] loss2/relu_conv -> loss2/conv (in-place)
I0403 10:43:25.862139 13560 net.cpp:141] Setting up loss2/relu_conv
I0403 10:43:25.862160 13560 net.cpp:148] Top shape: 24 128 4 4 (49152)
I0403 10:43:25.862179 13560 net.cpp:156] Memory required for data: 1208122560
I0403 10:43:25.862210 13560 layer_factory.hpp:77] Creating layer loss2/fc
I0403 10:43:25.862241 13560 net.cpp:91] Creating Layer loss2/fc
I0403 10:43:25.862273 13560 net.cpp:425] loss2/fc <- loss2/conv
I0403 10:43:25.862296 13560 net.cpp:399] loss2/fc -> loss2/fc
I0403 10:43:25.882483 13560 net.cpp:141] Setting up loss2/fc
I0403 10:43:25.882537 13560 net.cpp:148] Top shape: 24 1024 (24576)
I0403 10:43:25.882560 13560 net.cpp:156] Memory required for data: 1208220864
I0403 10:43:25.882585 13560 layer_factory.hpp:77] Creating layer loss2/relu_fc
I0403 10:43:25.882611 13560 net.cpp:91] Creating Layer loss2/relu_fc
I0403 10:43:25.882632 13560 net.cpp:425] loss2/relu_fc <- loss2/fc
I0403 10:43:25.882658 13560 net.cpp:386] loss2/relu_fc -> loss2/fc (in-place)
I0403 10:43:25.882685 13560 net.cpp:141] Setting up loss2/relu_fc
I0403 10:43:25.882709 13560 net.cpp:148] Top shape: 24 1024 (24576)
I0403 10:43:25.882727 13560 net.cpp:156] Memory required for data: 1208319168
I0403 10:43:25.882745 13560 layer_factory.hpp:77] Creating layer loss2/drop_fc
I0403 10:43:25.882768 13560 net.cpp:91] Creating Layer loss2/drop_fc
I0403 10:43:25.882789 13560 net.cpp:425] loss2/drop_fc <- loss2/fc
I0403 10:43:25.882812 13560 net.cpp:386] loss2/drop_fc -> loss2/fc (in-place)
I0403 10:43:25.882869 13560 net.cpp:141] Setting up loss2/drop_fc
I0403 10:43:25.882897 13560 net.cpp:148] Top shape: 24 1024 (24576)
I0403 10:43:25.882916 13560 net.cpp:156] Memory required for data: 1208417472
I0403 10:43:25.882935 13560 layer_factory.hpp:77] Creating layer loss2/classifier_plantvillage
I0403 10:43:25.882961 13560 net.cpp:91] Creating Layer loss2/classifier_plantvillage
I0403 10:43:25.882982 13560 net.cpp:425] loss2/classifier_plantvillage <- loss2/fc
I0403 10:43:25.883008 13560 net.cpp:399] loss2/classifier_plantvillage -> loss2/classifier_plantvillage
I0403 10:43:25.883450 13560 net.cpp:141] Setting up loss2/classifier_plantvillage
I0403 10:43:25.883481 13560 net.cpp:148] Top shape: 24 38 (912)
I0403 10:43:25.883502 13560 net.cpp:156] Memory required for data: 1208421120
I0403 10:43:25.883524 13560 layer_factory.hpp:77] Creating layer loss2/classifier_plantvillage_loss2/classifier_plantvillage_0_split
I0403 10:43:25.883548 13560 net.cpp:91] Creating Layer loss2/classifier_plantvillage_loss2/classifier_plantvillage_0_split
I0403 10:43:25.883569 13560 net.cpp:425] loss2/classifier_plantvillage_loss2/classifier_plantvillage_0_split <- loss2/classifier_plantvillage
I0403 10:43:25.883595 13560 net.cpp:399] loss2/classifier_plantvillage_loss2/classifier_plantvillage_0_split -> loss2/classifier_plantvillage_loss2/classifier_plantvillage_0_split_0
I0403 10:43:25.883622 13560 net.cpp:399] loss2/classifier_plantvillage_loss2/classifier_plantvillage_0_split -> loss2/classifier_plantvillage_loss2/classifier_plantvillage_0_split_1
I0403 10:43:25.883649 13560 net.cpp:399] loss2/classifier_plantvillage_loss2/classifier_plantvillage_0_split -> loss2/classifier_plantvillage_loss2/classifier_plantvillage_0_split_2
I0403 10:43:25.883734 13560 net.cpp:141] Setting up loss2/classifier_plantvillage_loss2/classifier_plantvillage_0_split
I0403 10:43:25.883770 13560 net.cpp:148] Top shape: 24 38 (912)
I0403 10:43:25.883792 13560 net.cpp:148] Top shape: 24 38 (912)
I0403 10:43:25.883815 13560 net.cpp:148] Top shape: 24 38 (912)
I0403 10:43:25.883832 13560 net.cpp:156] Memory required for data: 1208432064
I0403 10:43:25.883851 13560 layer_factory.hpp:77] Creating layer inception_4e/1x1
I0403 10:43:25.883877 13560 net.cpp:91] Creating Layer inception_4e/1x1
I0403 10:43:25.883899 13560 net.cpp:425] inception_4e/1x1 <- inception_4d/output_inception_4d/output_0_split_1
I0403 10:43:25.883926 13560 net.cpp:399] inception_4e/1x1 -> inception_4e/1x1
I0403 10:43:25.885169 13560 net.cpp:141] Setting up inception_4e/1x1
I0403 10:43:25.885200 13560 net.cpp:148] Top shape: 24 256 14 14 (1204224)
I0403 10:43:25.885226 13560 net.cpp:156] Memory required for data: 1213248960
I0403 10:43:25.885248 13560 layer_factory.hpp:77] Creating layer inception_4e/relu_1x1
I0403 10:43:25.885272 13560 net.cpp:91] Creating Layer inception_4e/relu_1x1
I0403 10:43:25.885293 13560 net.cpp:425] inception_4e/relu_1x1 <- inception_4e/1x1
I0403 10:43:25.885315 13560 net.cpp:386] inception_4e/relu_1x1 -> inception_4e/1x1 (in-place)
I0403 10:43:25.885363 13560 net.cpp:141] Setting up inception_4e/relu_1x1
I0403 10:43:25.885388 13560 net.cpp:148] Top shape: 24 256 14 14 (1204224)
I0403 10:43:25.885406 13560 net.cpp:156] Memory required for data: 1218065856
I0403 10:43:25.885426 13560 layer_factory.hpp:77] Creating layer inception_4e/3x3_reduce
I0403 10:43:25.885454 13560 net.cpp:91] Creating Layer inception_4e/3x3_reduce
I0403 10:43:25.885478 13560 net.cpp:425] inception_4e/3x3_reduce <- inception_4d/output_inception_4d/output_0_split_2
I0403 10:43:25.885505 13560 net.cpp:399] inception_4e/3x3_reduce -> inception_4e/3x3_reduce
I0403 10:43:25.887120 13560 net.cpp:141] Setting up inception_4e/3x3_reduce
I0403 10:43:25.887159 13560 net.cpp:148] Top shape: 24 160 14 14 (752640)
I0403 10:43:25.887181 13560 net.cpp:156] Memory required for data: 1221076416
I0403 10:43:25.887209 13560 layer_factory.hpp:77] Creating layer inception_4e/relu_3x3_reduce
I0403 10:43:25.887236 13560 net.cpp:91] Creating Layer inception_4e/relu_3x3_reduce
I0403 10:43:25.887259 13560 net.cpp:425] inception_4e/relu_3x3_reduce <- inception_4e/3x3_reduce
I0403 10:43:25.887281 13560 net.cpp:386] inception_4e/relu_3x3_reduce -> inception_4e/3x3_reduce (in-place)
I0403 10:43:25.887307 13560 net.cpp:141] Setting up inception_4e/relu_3x3_reduce
I0403 10:43:25.887329 13560 net.cpp:148] Top shape: 24 160 14 14 (752640)
I0403 10:43:25.887347 13560 net.cpp:156] Memory required for data: 1224086976
I0403 10:43:25.887365 13560 layer_factory.hpp:77] Creating layer inception_4e/3x3
I0403 10:43:25.887395 13560 net.cpp:91] Creating Layer inception_4e/3x3
I0403 10:43:25.887418 13560 net.cpp:425] inception_4e/3x3 <- inception_4e/3x3_reduce
I0403 10:43:25.887444 13560 net.cpp:399] inception_4e/3x3 -> inception_4e/3x3
I0403 10:43:25.892134 13560 net.cpp:141] Setting up inception_4e/3x3
I0403 10:43:25.892171 13560 net.cpp:148] Top shape: 24 320 14 14 (1505280)
I0403 10:43:25.892192 13560 net.cpp:156] Memory required for data: 1230108096
I0403 10:43:25.892222 13560 layer_factory.hpp:77] Creating layer inception_4e/relu_3x3
I0403 10:43:25.892247 13560 net.cpp:91] Creating Layer inception_4e/relu_3x3
I0403 10:43:25.892268 13560 net.cpp:425] inception_4e/relu_3x3 <- inception_4e/3x3
I0403 10:43:25.892293 13560 net.cpp:386] inception_4e/relu_3x3 -> inception_4e/3x3 (in-place)
I0403 10:43:25.892319 13560 net.cpp:141] Setting up inception_4e/relu_3x3
I0403 10:43:25.892343 13560 net.cpp:148] Top shape: 24 320 14 14 (1505280)
I0403 10:43:25.892362 13560 net.cpp:156] Memory required for data: 1236129216
I0403 10:43:25.892380 13560 layer_factory.hpp:77] Creating layer inception_4e/5x5_reduce
I0403 10:43:25.892406 13560 net.cpp:91] Creating Layer inception_4e/5x5_reduce
I0403 10:43:25.892428 13560 net.cpp:425] inception_4e/5x5_reduce <- inception_4d/output_inception_4d/output_0_split_3
I0403 10:43:25.892457 13560 net.cpp:399] inception_4e/5x5_reduce -> inception_4e/5x5_reduce
I0403 10:43:25.893471 13560 net.cpp:141] Setting up inception_4e/5x5_reduce
I0403 10:43:25.893513 13560 net.cpp:148] Top shape: 24 32 14 14 (150528)
I0403 10:43:25.893534 13560 net.cpp:156] Memory required for data: 1236731328
I0403 10:43:25.893558 13560 layer_factory.hpp:77] Creating layer inception_4e/relu_5x5_reduce
I0403 10:43:25.893585 13560 net.cpp:91] Creating Layer inception_4e/relu_5x5_reduce
I0403 10:43:25.893609 13560 net.cpp:425] inception_4e/relu_5x5_reduce <- inception_4e/5x5_reduce
I0403 10:43:25.893630 13560 net.cpp:386] inception_4e/relu_5x5_reduce -> inception_4e/5x5_reduce (in-place)
I0403 10:43:25.893656 13560 net.cpp:141] Setting up inception_4e/relu_5x5_reduce
I0403 10:43:25.893681 13560 net.cpp:148] Top shape: 24 32 14 14 (150528)
I0403 10:43:25.893698 13560 net.cpp:156] Memory required for data: 1237333440
I0403 10:43:25.893717 13560 layer_factory.hpp:77] Creating layer inception_4e/5x5
I0403 10:43:25.893765 13560 net.cpp:91] Creating Layer inception_4e/5x5
I0403 10:43:25.893791 13560 net.cpp:425] inception_4e/5x5 <- inception_4e/5x5_reduce
I0403 10:43:25.893816 13560 net.cpp:399] inception_4e/5x5 -> inception_4e/5x5
I0403 10:43:25.894795 13560 net.cpp:141] Setting up inception_4e/5x5
I0403 10:43:25.894829 13560 net.cpp:148] Top shape: 24 128 14 14 (602112)
I0403 10:43:25.894847 13560 net.cpp:156] Memory required for data: 1239741888
I0403 10:43:25.894870 13560 layer_factory.hpp:77] Creating layer inception_4e/relu_5x5
I0403 10:43:25.894894 13560 net.cpp:91] Creating Layer inception_4e/relu_5x5
I0403 10:43:25.894915 13560 net.cpp:425] inception_4e/relu_5x5 <- inception_4e/5x5
I0403 10:43:25.894938 13560 net.cpp:386] inception_4e/relu_5x5 -> inception_4e/5x5 (in-place)
I0403 10:43:25.894963 13560 net.cpp:141] Setting up inception_4e/relu_5x5
I0403 10:43:25.894984 13560 net.cpp:148] Top shape: 24 128 14 14 (602112)
I0403 10:43:25.895002 13560 net.cpp:156] Memory required for data: 1242150336
I0403 10:43:25.895020 13560 layer_factory.hpp:77] Creating layer inception_4e/pool
I0403 10:43:25.895046 13560 net.cpp:91] Creating Layer inception_4e/pool
I0403 10:43:25.895068 13560 net.cpp:425] inception_4e/pool <- inception_4d/output_inception_4d/output_0_split_4
I0403 10:43:25.895092 13560 net.cpp:399] inception_4e/pool -> inception_4e/pool
I0403 10:43:25.895160 13560 net.cpp:141] Setting up inception_4e/pool
I0403 10:43:25.895190 13560 net.cpp:148] Top shape: 24 528 14 14 (2483712)
I0403 10:43:25.895215 13560 net.cpp:156] Memory required for data: 1252085184
I0403 10:43:25.895234 13560 layer_factory.hpp:77] Creating layer inception_4e/pool_proj
I0403 10:43:25.895263 13560 net.cpp:91] Creating Layer inception_4e/pool_proj
I0403 10:43:25.895298 13560 net.cpp:425] inception_4e/pool_proj <- inception_4e/pool
I0403 10:43:25.895328 13560 net.cpp:399] inception_4e/pool_proj -> inception_4e/pool_proj
I0403 10:43:25.896044 13560 net.cpp:141] Setting up inception_4e/pool_proj
I0403 10:43:25.896075 13560 net.cpp:148] Top shape: 24 128 14 14 (602112)
I0403 10:43:25.896093 13560 net.cpp:156] Memory required for data: 1254493632
I0403 10:43:25.896116 13560 layer_factory.hpp:77] Creating layer inception_4e/relu_pool_proj
I0403 10:43:25.896139 13560 net.cpp:91] Creating Layer inception_4e/relu_pool_proj
I0403 10:43:25.896160 13560 net.cpp:425] inception_4e/relu_pool_proj <- inception_4e/pool_proj
I0403 10:43:25.896185 13560 net.cpp:386] inception_4e/relu_pool_proj -> inception_4e/pool_proj (in-place)
I0403 10:43:25.896215 13560 net.cpp:141] Setting up inception_4e/relu_pool_proj
I0403 10:43:25.896240 13560 net.cpp:148] Top shape: 24 128 14 14 (602112)
I0403 10:43:25.896260 13560 net.cpp:156] Memory required for data: 1256902080
I0403 10:43:25.896277 13560 layer_factory.hpp:77] Creating layer inception_4e/output
I0403 10:43:25.896301 13560 net.cpp:91] Creating Layer inception_4e/output
I0403 10:43:25.896322 13560 net.cpp:425] inception_4e/output <- inception_4e/1x1
I0403 10:43:25.896343 13560 net.cpp:425] inception_4e/output <- inception_4e/3x3
I0403 10:43:25.896363 13560 net.cpp:425] inception_4e/output <- inception_4e/5x5
I0403 10:43:25.896384 13560 net.cpp:425] inception_4e/output <- inception_4e/pool_proj
I0403 10:43:25.896406 13560 net.cpp:399] inception_4e/output -> inception_4e/output
I0403 10:43:25.896459 13560 net.cpp:141] Setting up inception_4e/output
I0403 10:43:25.896488 13560 net.cpp:148] Top shape: 24 832 14 14 (3913728)
I0403 10:43:25.896508 13560 net.cpp:156] Memory required for data: 1272556992
I0403 10:43:25.896528 13560 layer_factory.hpp:77] Creating layer pool4/3x3_s2
I0403 10:43:25.896550 13560 net.cpp:91] Creating Layer pool4/3x3_s2
I0403 10:43:25.896570 13560 net.cpp:425] pool4/3x3_s2 <- inception_4e/output
I0403 10:43:25.896597 13560 net.cpp:399] pool4/3x3_s2 -> pool4/3x3_s2
I0403 10:43:25.896661 13560 net.cpp:141] Setting up pool4/3x3_s2
I0403 10:43:25.896692 13560 net.cpp:148] Top shape: 24 832 7 7 (978432)
I0403 10:43:25.896709 13560 net.cpp:156] Memory required for data: 1276470720
I0403 10:43:25.896728 13560 layer_factory.hpp:77] Creating layer pool4/3x3_s2_pool4/3x3_s2_0_split
I0403 10:43:25.896754 13560 net.cpp:91] Creating Layer pool4/3x3_s2_pool4/3x3_s2_0_split
I0403 10:43:25.896775 13560 net.cpp:425] pool4/3x3_s2_pool4/3x3_s2_0_split <- pool4/3x3_s2
I0403 10:43:25.896816 13560 net.cpp:399] pool4/3x3_s2_pool4/3x3_s2_0_split -> pool4/3x3_s2_pool4/3x3_s2_0_split_0
I0403 10:43:25.896845 13560 net.cpp:399] pool4/3x3_s2_pool4/3x3_s2_0_split -> pool4/3x3_s2_pool4/3x3_s2_0_split_1
I0403 10:43:25.896873 13560 net.cpp:399] pool4/3x3_s2_pool4/3x3_s2_0_split -> pool4/3x3_s2_pool4/3x3_s2_0_split_2
I0403 10:43:25.896899 13560 net.cpp:399] pool4/3x3_s2_pool4/3x3_s2_0_split -> pool4/3x3_s2_pool4/3x3_s2_0_split_3
I0403 10:43:25.896982 13560 net.cpp:141] Setting up pool4/3x3_s2_pool4/3x3_s2_0_split
I0403 10:43:25.897017 13560 net.cpp:148] Top shape: 24 832 7 7 (978432)
I0403 10:43:25.897038 13560 net.cpp:148] Top shape: 24 832 7 7 (978432)
I0403 10:43:25.897060 13560 net.cpp:148] Top shape: 24 832 7 7 (978432)
I0403 10:43:25.897080 13560 net.cpp:148] Top shape: 24 832 7 7 (978432)
I0403 10:43:25.897099 13560 net.cpp:156] Memory required for data: 1292125632
I0403 10:43:25.897116 13560 layer_factory.hpp:77] Creating layer inception_5a/1x1
I0403 10:43:25.897142 13560 net.cpp:91] Creating Layer inception_5a/1x1
I0403 10:43:25.897164 13560 net.cpp:425] inception_5a/1x1 <- pool4/3x3_s2_pool4/3x3_s2_0_split_0
I0403 10:43:25.897192 13560 net.cpp:399] inception_5a/1x1 -> inception_5a/1x1
I0403 10:43:25.899687 13560 net.cpp:141] Setting up inception_5a/1x1
I0403 10:43:25.899746 13560 net.cpp:148] Top shape: 24 256 7 7 (301056)
I0403 10:43:25.899768 13560 net.cpp:156] Memory required for data: 1293329856
I0403 10:43:25.899792 13560 layer_factory.hpp:77] Creating layer inception_5a/relu_1x1
I0403 10:43:25.899821 13560 net.cpp:91] Creating Layer inception_5a/relu_1x1
I0403 10:43:25.899842 13560 net.cpp:425] inception_5a/relu_1x1 <- inception_5a/1x1
I0403 10:43:25.899864 13560 net.cpp:386] inception_5a/relu_1x1 -> inception_5a/1x1 (in-place)
I0403 10:43:25.899888 13560 net.cpp:141] Setting up inception_5a/relu_1x1
I0403 10:43:25.899911 13560 net.cpp:148] Top shape: 24 256 7 7 (301056)
I0403 10:43:25.899930 13560 net.cpp:156] Memory required for data: 1294534080
I0403 10:43:25.899950 13560 layer_factory.hpp:77] Creating layer inception_5a/3x3_reduce
I0403 10:43:25.899978 13560 net.cpp:91] Creating Layer inception_5a/3x3_reduce
I0403 10:43:25.900003 13560 net.cpp:425] inception_5a/3x3_reduce <- pool4/3x3_s2_pool4/3x3_s2_0_split_1
I0403 10:43:25.900032 13560 net.cpp:399] inception_5a/3x3_reduce -> inception_5a/3x3_reduce
I0403 10:43:25.901825 13560 net.cpp:141] Setting up inception_5a/3x3_reduce
I0403 10:43:25.901861 13560 net.cpp:148] Top shape: 24 160 7 7 (188160)
I0403 10:43:25.901882 13560 net.cpp:156] Memory required for data: 1295286720
I0403 10:43:25.901906 13560 layer_factory.hpp:77] Creating layer inception_5a/relu_3x3_reduce
I0403 10:43:25.901932 13560 net.cpp:91] Creating Layer inception_5a/relu_3x3_reduce
I0403 10:43:25.901955 13560 net.cpp:425] inception_5a/relu_3x3_reduce <- inception_5a/3x3_reduce
I0403 10:43:25.901978 13560 net.cpp:386] inception_5a/relu_3x3_reduce -> inception_5a/3x3_reduce (in-place)
I0403 10:43:25.902004 13560 net.cpp:141] Setting up inception_5a/relu_3x3_reduce
I0403 10:43:25.902024 13560 net.cpp:148] Top shape: 24 160 7 7 (188160)
I0403 10:43:25.902043 13560 net.cpp:156] Memory required for data: 1296039360
I0403 10:43:25.902062 13560 layer_factory.hpp:77] Creating layer inception_5a/3x3
I0403 10:43:25.902096 13560 net.cpp:91] Creating Layer inception_5a/3x3
I0403 10:43:25.902118 13560 net.cpp:425] inception_5a/3x3 <- inception_5a/3x3_reduce
I0403 10:43:25.902145 13560 net.cpp:399] inception_5a/3x3 -> inception_5a/3x3
I0403 10:43:25.906823 13560 net.cpp:141] Setting up inception_5a/3x3
I0403 10:43:25.906860 13560 net.cpp:148] Top shape: 24 320 7 7 (376320)
I0403 10:43:25.906880 13560 net.cpp:156] Memory required for data: 1297544640
I0403 10:43:25.906904 13560 layer_factory.hpp:77] Creating layer inception_5a/relu_3x3
I0403 10:43:25.906929 13560 net.cpp:91] Creating Layer inception_5a/relu_3x3
I0403 10:43:25.906952 13560 net.cpp:425] inception_5a/relu_3x3 <- inception_5a/3x3
I0403 10:43:25.906975 13560 net.cpp:386] inception_5a/relu_3x3 -> inception_5a/3x3 (in-place)
I0403 10:43:25.907021 13560 net.cpp:141] Setting up inception_5a/relu_3x3
I0403 10:43:25.907045 13560 net.cpp:148] Top shape: 24 320 7 7 (376320)
I0403 10:43:25.907064 13560 net.cpp:156] Memory required for data: 1299049920
I0403 10:43:25.907083 13560 layer_factory.hpp:77] Creating layer inception_5a/5x5_reduce
I0403 10:43:25.907112 13560 net.cpp:91] Creating Layer inception_5a/5x5_reduce
I0403 10:43:25.907135 13560 net.cpp:425] inception_5a/5x5_reduce <- pool4/3x3_s2_pool4/3x3_s2_0_split_2
I0403 10:43:25.907160 13560 net.cpp:399] inception_5a/5x5_reduce -> inception_5a/5x5_reduce
I0403 10:43:25.907634 13560 net.cpp:141] Setting up inception_5a/5x5_reduce
I0403 10:43:25.907670 13560 net.cpp:148] Top shape: 24 32 7 7 (37632)
I0403 10:43:25.907690 13560 net.cpp:156] Memory required for data: 1299200448
I0403 10:43:25.907713 13560 layer_factory.hpp:77] Creating layer inception_5a/relu_5x5_reduce
I0403 10:43:25.907737 13560 net.cpp:91] Creating Layer inception_5a/relu_5x5_reduce
I0403 10:43:25.907758 13560 net.cpp:425] inception_5a/relu_5x5_reduce <- inception_5a/5x5_reduce
I0403 10:43:25.907781 13560 net.cpp:386] inception_5a/relu_5x5_reduce -> inception_5a/5x5_reduce (in-place)
I0403 10:43:25.907805 13560 net.cpp:141] Setting up inception_5a/relu_5x5_reduce
I0403 10:43:25.907826 13560 net.cpp:148] Top shape: 24 32 7 7 (37632)
I0403 10:43:25.907845 13560 net.cpp:156] Memory required for data: 1299350976
I0403 10:43:25.907863 13560 layer_factory.hpp:77] Creating layer inception_5a/5x5
I0403 10:43:25.907893 13560 net.cpp:91] Creating Layer inception_5a/5x5
I0403 10:43:25.907917 13560 net.cpp:425] inception_5a/5x5 <- inception_5a/5x5_reduce
I0403 10:43:25.907943 13560 net.cpp:399] inception_5a/5x5 -> inception_5a/5x5
I0403 10:43:25.909003 13560 net.cpp:141] Setting up inception_5a/5x5
I0403 10:43:25.909039 13560 net.cpp:148] Top shape: 24 128 7 7 (150528)
I0403 10:43:25.909060 13560 net.cpp:156] Memory required for data: 1299953088
I0403 10:43:25.909083 13560 layer_factory.hpp:77] Creating layer inception_5a/relu_5x5
I0403 10:43:25.909107 13560 net.cpp:91] Creating Layer inception_5a/relu_5x5
I0403 10:43:25.909128 13560 net.cpp:425] inception_5a/relu_5x5 <- inception_5a/5x5
I0403 10:43:25.909152 13560 net.cpp:386] inception_5a/relu_5x5 -> inception_5a/5x5 (in-place)
I0403 10:43:25.909178 13560 net.cpp:141] Setting up inception_5a/relu_5x5
I0403 10:43:25.909200 13560 net.cpp:148] Top shape: 24 128 7 7 (150528)
I0403 10:43:25.909224 13560 net.cpp:156] Memory required for data: 1300555200
I0403 10:43:25.909243 13560 layer_factory.hpp:77] Creating layer inception_5a/pool
I0403 10:43:25.909266 13560 net.cpp:91] Creating Layer inception_5a/pool
I0403 10:43:25.909288 13560 net.cpp:425] inception_5a/pool <- pool4/3x3_s2_pool4/3x3_s2_0_split_3
I0403 10:43:25.909314 13560 net.cpp:399] inception_5a/pool -> inception_5a/pool
I0403 10:43:25.909381 13560 net.cpp:141] Setting up inception_5a/pool
I0403 10:43:25.909411 13560 net.cpp:148] Top shape: 24 832 7 7 (978432)
I0403 10:43:25.909431 13560 net.cpp:156] Memory required for data: 1304468928
I0403 10:43:25.909451 13560 layer_factory.hpp:77] Creating layer inception_5a/pool_proj
I0403 10:43:25.909482 13560 net.cpp:91] Creating Layer inception_5a/pool_proj
I0403 10:43:25.909504 13560 net.cpp:425] inception_5a/pool_proj <- inception_5a/pool
I0403 10:43:25.909528 13560 net.cpp:399] inception_5a/pool_proj -> inception_5a/pool_proj
I0403 10:43:25.911123 13560 net.cpp:141] Setting up inception_5a/pool_proj
I0403 10:43:25.911157 13560 net.cpp:148] Top shape: 24 128 7 7 (150528)
I0403 10:43:25.911177 13560 net.cpp:156] Memory required for data: 1305071040
I0403 10:43:25.911201 13560 layer_factory.hpp:77] Creating layer inception_5a/relu_pool_proj
I0403 10:43:25.911231 13560 net.cpp:91] Creating Layer inception_5a/relu_pool_proj
I0403 10:43:25.911252 13560 net.cpp:425] inception_5a/relu_pool_proj <- inception_5a/pool_proj
I0403 10:43:25.911276 13560 net.cpp:386] inception_5a/relu_pool_proj -> inception_5a/pool_proj (in-place)
I0403 10:43:25.911303 13560 net.cpp:141] Setting up inception_5a/relu_pool_proj
I0403 10:43:25.911344 13560 net.cpp:148] Top shape: 24 128 7 7 (150528)
I0403 10:43:25.911362 13560 net.cpp:156] Memory required for data: 1305673152
I0403 10:43:25.911381 13560 layer_factory.hpp:77] Creating layer inception_5a/output
I0403 10:43:25.911411 13560 net.cpp:91] Creating Layer inception_5a/output
I0403 10:43:25.911433 13560 net.cpp:425] inception_5a/output <- inception_5a/1x1
I0403 10:43:25.911455 13560 net.cpp:425] inception_5a/output <- inception_5a/3x3
I0403 10:43:25.911476 13560 net.cpp:425] inception_5a/output <- inception_5a/5x5
I0403 10:43:25.911496 13560 net.cpp:425] inception_5a/output <- inception_5a/pool_proj
I0403 10:43:25.911519 13560 net.cpp:399] inception_5a/output -> inception_5a/output
I0403 10:43:25.911569 13560 net.cpp:141] Setting up inception_5a/output
I0403 10:43:25.911599 13560 net.cpp:148] Top shape: 24 832 7 7 (978432)
I0403 10:43:25.911619 13560 net.cpp:156] Memory required for data: 1309586880
I0403 10:43:25.911638 13560 layer_factory.hpp:77] Creating layer inception_5a/output_inception_5a/output_0_split
I0403 10:43:25.911659 13560 net.cpp:91] Creating Layer inception_5a/output_inception_5a/output_0_split
I0403 10:43:25.911679 13560 net.cpp:425] inception_5a/output_inception_5a/output_0_split <- inception_5a/output
I0403 10:43:25.911705 13560 net.cpp:399] inception_5a/output_inception_5a/output_0_split -> inception_5a/output_inception_5a/output_0_split_0
I0403 10:43:25.911733 13560 net.cpp:399] inception_5a/output_inception_5a/output_0_split -> inception_5a/output_inception_5a/output_0_split_1
I0403 10:43:25.911761 13560 net.cpp:399] inception_5a/output_inception_5a/output_0_split -> inception_5a/output_inception_5a/output_0_split_2
I0403 10:43:25.911787 13560 net.cpp:399] inception_5a/output_inception_5a/output_0_split -> inception_5a/output_inception_5a/output_0_split_3
I0403 10:43:25.911875 13560 net.cpp:141] Setting up inception_5a/output_inception_5a/output_0_split
I0403 10:43:25.911906 13560 net.cpp:148] Top shape: 24 832 7 7 (978432)
I0403 10:43:25.911928 13560 net.cpp:148] Top shape: 24 832 7 7 (978432)
I0403 10:43:25.911949 13560 net.cpp:148] Top shape: 24 832 7 7 (978432)
I0403 10:43:25.911969 13560 net.cpp:148] Top shape: 24 832 7 7 (978432)
I0403 10:43:25.911988 13560 net.cpp:156] Memory required for data: 1325241792
I0403 10:43:25.912006 13560 layer_factory.hpp:77] Creating layer inception_5b/1x1
I0403 10:43:25.912034 13560 net.cpp:91] Creating Layer inception_5b/1x1
I0403 10:43:25.912057 13560 net.cpp:425] inception_5b/1x1 <- inception_5a/output_inception_5a/output_0_split_0
I0403 10:43:25.912082 13560 net.cpp:399] inception_5b/1x1 -> inception_5b/1x1
I0403 10:43:25.915241 13560 net.cpp:141] Setting up inception_5b/1x1
I0403 10:43:25.915277 13560 net.cpp:148] Top shape: 24 384 7 7 (451584)
I0403 10:43:25.915297 13560 net.cpp:156] Memory required for data: 1327048128
I0403 10:43:25.915320 13560 layer_factory.hpp:77] Creating layer inception_5b/relu_1x1
I0403 10:43:25.915344 13560 net.cpp:91] Creating Layer inception_5b/relu_1x1
I0403 10:43:25.915365 13560 net.cpp:425] inception_5b/relu_1x1 <- inception_5b/1x1
I0403 10:43:25.915390 13560 net.cpp:386] inception_5b/relu_1x1 -> inception_5b/1x1 (in-place)
I0403 10:43:25.915417 13560 net.cpp:141] Setting up inception_5b/relu_1x1
I0403 10:43:25.915439 13560 net.cpp:148] Top shape: 24 384 7 7 (451584)
I0403 10:43:25.915458 13560 net.cpp:156] Memory required for data: 1328854464
I0403 10:43:25.915477 13560 layer_factory.hpp:77] Creating layer inception_5b/3x3_reduce
I0403 10:43:25.915505 13560 net.cpp:91] Creating Layer inception_5b/3x3_reduce
I0403 10:43:25.915527 13560 net.cpp:425] inception_5b/3x3_reduce <- inception_5a/output_inception_5a/output_0_split_1
I0403 10:43:25.915554 13560 net.cpp:399] inception_5b/3x3_reduce -> inception_5b/3x3_reduce
I0403 10:43:25.917523 13560 net.cpp:141] Setting up inception_5b/3x3_reduce
I0403 10:43:25.917559 13560 net.cpp:148] Top shape: 24 192 7 7 (225792)
I0403 10:43:25.917579 13560 net.cpp:156] Memory required for data: 1329757632
I0403 10:43:25.917604 13560 layer_factory.hpp:77] Creating layer inception_5b/relu_3x3_reduce
I0403 10:43:25.917649 13560 net.cpp:91] Creating Layer inception_5b/relu_3x3_reduce
I0403 10:43:25.917671 13560 net.cpp:425] inception_5b/relu_3x3_reduce <- inception_5b/3x3_reduce
I0403 10:43:25.917695 13560 net.cpp:386] inception_5b/relu_3x3_reduce -> inception_5b/3x3_reduce (in-place)
I0403 10:43:25.917722 13560 net.cpp:141] Setting up inception_5b/relu_3x3_reduce
I0403 10:43:25.917747 13560 net.cpp:148] Top shape: 24 192 7 7 (225792)
I0403 10:43:25.917767 13560 net.cpp:156] Memory required for data: 1330660800
I0403 10:43:25.917785 13560 layer_factory.hpp:77] Creating layer inception_5b/3x3
I0403 10:43:25.917814 13560 net.cpp:91] Creating Layer inception_5b/3x3
I0403 10:43:25.917837 13560 net.cpp:425] inception_5b/3x3 <- inception_5b/3x3_reduce
I0403 10:43:25.917862 13560 net.cpp:399] inception_5b/3x3 -> inception_5b/3x3
I0403 10:43:25.924373 13560 net.cpp:141] Setting up inception_5b/3x3
I0403 10:43:25.924412 13560 net.cpp:148] Top shape: 24 384 7 7 (451584)
I0403 10:43:25.924435 13560 net.cpp:156] Memory required for data: 1332467136
I0403 10:43:25.924459 13560 layer_factory.hpp:77] Creating layer inception_5b/relu_3x3
I0403 10:43:25.924484 13560 net.cpp:91] Creating Layer inception_5b/relu_3x3
I0403 10:43:25.924504 13560 net.cpp:425] inception_5b/relu_3x3 <- inception_5b/3x3
I0403 10:43:25.924527 13560 net.cpp:386] inception_5b/relu_3x3 -> inception_5b/3x3 (in-place)
I0403 10:43:25.924552 13560 net.cpp:141] Setting up inception_5b/relu_3x3
I0403 10:43:25.924576 13560 net.cpp:148] Top shape: 24 384 7 7 (451584)
I0403 10:43:25.924595 13560 net.cpp:156] Memory required for data: 1334273472
I0403 10:43:25.924613 13560 layer_factory.hpp:77] Creating layer inception_5b/5x5_reduce
I0403 10:43:25.924643 13560 net.cpp:91] Creating Layer inception_5b/5x5_reduce
I0403 10:43:25.924665 13560 net.cpp:425] inception_5b/5x5_reduce <- inception_5a/output_inception_5a/output_0_split_2
I0403 10:43:25.924695 13560 net.cpp:399] inception_5b/5x5_reduce -> inception_5b/5x5_reduce
I0403 10:43:25.925997 13560 net.cpp:141] Setting up inception_5b/5x5_reduce
I0403 10:43:25.926035 13560 net.cpp:148] Top shape: 24 48 7 7 (56448)
I0403 10:43:25.926056 13560 net.cpp:156] Memory required for data: 1334499264
I0403 10:43:25.926080 13560 layer_factory.hpp:77] Creating layer inception_5b/relu_5x5_reduce
I0403 10:43:25.926103 13560 net.cpp:91] Creating Layer inception_5b/relu_5x5_reduce
I0403 10:43:25.926126 13560 net.cpp:425] inception_5b/relu_5x5_reduce <- inception_5b/5x5_reduce
I0403 10:43:25.926148 13560 net.cpp:386] inception_5b/relu_5x5_reduce -> inception_5b/5x5_reduce (in-place)
I0403 10:43:25.926174 13560 net.cpp:141] Setting up inception_5b/relu_5x5_reduce
I0403 10:43:25.926198 13560 net.cpp:148] Top shape: 24 48 7 7 (56448)
I0403 10:43:25.926223 13560 net.cpp:156] Memory required for data: 1334725056
I0403 10:43:25.926241 13560 layer_factory.hpp:77] Creating layer inception_5b/5x5
I0403 10:43:25.926270 13560 net.cpp:91] Creating Layer inception_5b/5x5
I0403 10:43:25.926295 13560 net.cpp:425] inception_5b/5x5 <- inception_5b/5x5_reduce
I0403 10:43:25.926322 13560 net.cpp:399] inception_5b/5x5 -> inception_5b/5x5
I0403 10:43:25.927646 13560 net.cpp:141] Setting up inception_5b/5x5
I0403 10:43:25.927678 13560 net.cpp:148] Top shape: 24 128 7 7 (150528)
I0403 10:43:25.927697 13560 net.cpp:156] Memory required for data: 1335327168
I0403 10:43:25.927721 13560 layer_factory.hpp:77] Creating layer inception_5b/relu_5x5
I0403 10:43:25.927745 13560 net.cpp:91] Creating Layer inception_5b/relu_5x5
I0403 10:43:25.927767 13560 net.cpp:425] inception_5b/relu_5x5 <- inception_5b/5x5
I0403 10:43:25.927793 13560 net.cpp:386] inception_5b/relu_5x5 -> inception_5b/5x5 (in-place)
I0403 10:43:25.927819 13560 net.cpp:141] Setting up inception_5b/relu_5x5
I0403 10:43:25.927841 13560 net.cpp:148] Top shape: 24 128 7 7 (150528)
I0403 10:43:25.927860 13560 net.cpp:156] Memory required for data: 1335929280
I0403 10:43:25.927878 13560 layer_factory.hpp:77] Creating layer inception_5b/pool
I0403 10:43:25.927920 13560 net.cpp:91] Creating Layer inception_5b/pool
I0403 10:43:25.927944 13560 net.cpp:425] inception_5b/pool <- inception_5a/output_inception_5a/output_0_split_3
I0403 10:43:25.927971 13560 net.cpp:399] inception_5b/pool -> inception_5b/pool
I0403 10:43:25.928043 13560 net.cpp:141] Setting up inception_5b/pool
I0403 10:43:25.928073 13560 net.cpp:148] Top shape: 24 832 7 7 (978432)
I0403 10:43:25.928092 13560 net.cpp:156] Memory required for data: 1339843008
I0403 10:43:25.928110 13560 layer_factory.hpp:77] Creating layer inception_5b/pool_proj
I0403 10:43:25.928140 13560 net.cpp:91] Creating Layer inception_5b/pool_proj
I0403 10:43:25.928163 13560 net.cpp:425] inception_5b/pool_proj <- inception_5b/pool
I0403 10:43:25.928189 13560 net.cpp:399] inception_5b/pool_proj -> inception_5b/pool_proj
I0403 10:43:25.929810 13560 net.cpp:141] Setting up inception_5b/pool_proj
I0403 10:43:25.929846 13560 net.cpp:148] Top shape: 24 128 7 7 (150528)
I0403 10:43:25.929865 13560 net.cpp:156] Memory required for data: 1340445120
I0403 10:43:25.929889 13560 layer_factory.hpp:77] Creating layer inception_5b/relu_pool_proj
I0403 10:43:25.929916 13560 net.cpp:91] Creating Layer inception_5b/relu_pool_proj
I0403 10:43:25.929939 13560 net.cpp:425] inception_5b/relu_pool_proj <- inception_5b/pool_proj
I0403 10:43:25.929962 13560 net.cpp:386] inception_5b/relu_pool_proj -> inception_5b/pool_proj (in-place)
I0403 10:43:25.929988 13560 net.cpp:141] Setting up inception_5b/relu_pool_proj
I0403 10:43:25.930011 13560 net.cpp:148] Top shape: 24 128 7 7 (150528)
I0403 10:43:25.930029 13560 net.cpp:156] Memory required for data: 1341047232
I0403 10:43:25.930048 13560 layer_factory.hpp:77] Creating layer inception_5b/output
I0403 10:43:25.930073 13560 net.cpp:91] Creating Layer inception_5b/output
I0403 10:43:25.930094 13560 net.cpp:425] inception_5b/output <- inception_5b/1x1
I0403 10:43:25.930116 13560 net.cpp:425] inception_5b/output <- inception_5b/3x3
I0403 10:43:25.930138 13560 net.cpp:425] inception_5b/output <- inception_5b/5x5
I0403 10:43:25.930160 13560 net.cpp:425] inception_5b/output <- inception_5b/pool_proj
I0403 10:43:25.930182 13560 net.cpp:399] inception_5b/output -> inception_5b/output
I0403 10:43:25.930235 13560 net.cpp:141] Setting up inception_5b/output
I0403 10:43:25.930269 13560 net.cpp:148] Top shape: 24 1024 7 7 (1204224)
I0403 10:43:25.930289 13560 net.cpp:156] Memory required for data: 1345864128
I0403 10:43:25.930307 13560 layer_factory.hpp:77] Creating layer pool5/7x7_s1
I0403 10:43:25.930330 13560 net.cpp:91] Creating Layer pool5/7x7_s1
I0403 10:43:25.930351 13560 net.cpp:425] pool5/7x7_s1 <- inception_5b/output
I0403 10:43:25.930374 13560 net.cpp:399] pool5/7x7_s1 -> pool5/7x7_s1
I0403 10:43:25.930424 13560 net.cpp:141] Setting up pool5/7x7_s1
I0403 10:43:25.930454 13560 net.cpp:148] Top shape: 24 1024 1 1 (24576)
I0403 10:43:25.930472 13560 net.cpp:156] Memory required for data: 1345962432
I0403 10:43:25.930491 13560 layer_factory.hpp:77] Creating layer pool5/drop_7x7_s1
I0403 10:43:25.930518 13560 net.cpp:91] Creating Layer pool5/drop_7x7_s1
I0403 10:43:25.930541 13560 net.cpp:425] pool5/drop_7x7_s1 <- pool5/7x7_s1
I0403 10:43:25.930562 13560 net.cpp:386] pool5/drop_7x7_s1 -> pool5/7x7_s1 (in-place)
I0403 10:43:25.930610 13560 net.cpp:141] Setting up pool5/drop_7x7_s1
I0403 10:43:25.930639 13560 net.cpp:148] Top shape: 24 1024 1 1 (24576)
I0403 10:43:25.930656 13560 net.cpp:156] Memory required for data: 1346060736
I0403 10:43:25.930675 13560 layer_factory.hpp:77] Creating layer loss3/classifier_plantvillage
I0403 10:43:25.930701 13560 net.cpp:91] Creating Layer loss3/classifier_plantvillage
I0403 10:43:25.930723 13560 net.cpp:425] loss3/classifier_plantvillage <- pool5/7x7_s1
I0403 10:43:25.930749 13560 net.cpp:399] loss3/classifier_plantvillage -> loss3/classifier_plantvillage
I0403 10:43:25.931161 13560 net.cpp:141] Setting up loss3/classifier_plantvillage
I0403 10:43:25.931192 13560 net.cpp:148] Top shape: 24 38 (912)
I0403 10:43:25.931218 13560 net.cpp:156] Memory required for data: 1346064384
I0403 10:43:25.931263 13560 layer_factory.hpp:77] Creating layer loss3/classifier_plantvillage_loss3/classifier_plantvillage_0_split
I0403 10:43:25.931293 13560 net.cpp:91] Creating Layer loss3/classifier_plantvillage_loss3/classifier_plantvillage_0_split
I0403 10:43:25.931316 13560 net.cpp:425] loss3/classifier_plantvillage_loss3/classifier_plantvillage_0_split <- loss3/classifier_plantvillage
I0403 10:43:25.931340 13560 net.cpp:399] loss3/classifier_plantvillage_loss3/classifier_plantvillage_0_split -> loss3/classifier_plantvillage_loss3/classifier_plantvillage_0_split_0
I0403 10:43:25.931366 13560 net.cpp:399] loss3/classifier_plantvillage_loss3/classifier_plantvillage_0_split -> loss3/classifier_plantvillage_loss3/classifier_plantvillage_0_split_1
I0403 10:43:25.931393 13560 net.cpp:399] loss3/classifier_plantvillage_loss3/classifier_plantvillage_0_split -> loss3/classifier_plantvillage_loss3/classifier_plantvillage_0_split_2
I0403 10:43:25.931475 13560 net.cpp:141] Setting up loss3/classifier_plantvillage_loss3/classifier_plantvillage_0_split
I0403 10:43:25.931504 13560 net.cpp:148] Top shape: 24 38 (912)
I0403 10:43:25.931525 13560 net.cpp:148] Top shape: 24 38 (912)
I0403 10:43:25.931545 13560 net.cpp:148] Top shape: 24 38 (912)
I0403 10:43:25.931563 13560 net.cpp:156] Memory required for data: 1346075328
I0403 10:43:25.931581 13560 layer_factory.hpp:77] Creating layer loss1/loss
I0403 10:43:25.931607 13560 net.cpp:91] Creating Layer loss1/loss
I0403 10:43:25.931630 13560 net.cpp:425] loss1/loss <- loss1/classifier_plantvillage_loss1/classifier_plantvillage_0_split_0
I0403 10:43:25.931654 13560 net.cpp:425] loss1/loss <- label_data_1_split_0
…
