…
I0403 12:22:46.112488 26165 net.cpp:313] The NetState phase (1) differed from the phase (0) specified by a rule in layer data
I0403 12:22:46.112859 26165 net.cpp:49] Initializing net from parameters: 
state {
  phase: TEST
}
layer {
  name: "data"
  type: "Data"
  top: "data"
  top: "label"
  include {
    phase: TEST
  }
  transform_param {
    crop_size: 227
    mean_file: "/home/mohanty/data/final_dataset/lmdb/color-20-80/mean.binaryproto"
  }
  data_param {
    source: "/home/mohanty/data/final_dataset/lmdb/color-20-80/test_db"
    batch_size: 100
    backend: LMDB
  }
}
layer {
  name: "conv1"
  type: "Convolution"
  bottom: "data"
  top: "conv1"
  param {
    lr_mult: 1
    decay_mult: 1
  }
  param {
    lr_mult: 2
    decay_mult: 0
  }
  convolution_param {
    num_output: 96
    kernel_size: 11
    stride: 4
    weight_filler {
      type: "gaussian"
      std: 0.01
    }
    bias_filler {
      type: "constant"
      value: 0
    }
  }
}
layer {
  name: "relu1"
  type: "ReLU"
  bottom: "conv1"
  top: "conv1"
}
layer {
  name: "norm1"
  type: "LRN"
  bottom: "conv1"
  top: "norm1"
  lrn_param {
    local_size: 5
    alpha: 0.0001
    beta: 0.75
  }
}
layer {
  name: "pool1"
  type: "Pooling"
  bottom: "norm1"
  top: "pool1"
  pooling_param {
    pool: MAX
    kernel_size: 3
    stride: 2
  }
}
layer {
  name: "conv2"
  type: "Convolution"
  bottom: "pool1"
  top: "conv2"
  param {
    lr_mult: 1
    decay_mult: 1
  }
  param {
    lr_mult: 2
    decay_mult: 0
  }
  convolution_param {
    num_output: 256
    pad: 2
    kernel_size: 5
    group: 2
    weight_filler {
      type: "gaussian"
      std: 0.01
    }
    bias_filler {
      type: "constant"
      value: 0.1
    }
  }
}
layer {
  name: "relu2"
  type: "ReLU"
  bottom: "conv2"
  top: "conv2"
}
layer {
  name: "norm2"
  type: "LRN"
  bottom: "conv2"
  top: "norm2"
  lrn_param {
    local_size: 5
    alpha: 0.0001
    beta: 0.75
  }
}
layer {
  name: "pool2"
  type: "Pooling"
  bottom: "norm2"
  top: "pool2"
  pooling_param {
    pool: MAX
    kernel_size: 3
    stride: 2
  }
}
layer {
  name: "conv3"
  type: "Convolution"
  bottom: "pool2"
  top: "conv3"
  param {
    lr_mult: 1
    decay_mult: 1
  }
  param {
    lr_mult: 2
    decay_mult: 0
  }
  convolution_param {
    num_output: 384
    pad: 1
    kernel_size: 3
    weight_filler {
      type: "gaussian"
      std: 0.01
    }
    bias_filler {
      type: "constant"
      value: 0
    }
  }
}
layer {
  name: "relu3"
  type: "ReLU"
  bottom: "conv3"
  top: "conv3"
}
layer {
  name: "conv4"
  type: "Convolution"
  bottom: "conv3"
  top: "conv4"
  param {
    lr_mult: 1
    decay_mult: 1
  }
  param {
    lr_mult: 2
    decay_mult: 0
  }
  convolution_param {
    num_output: 384
    pad: 1
    kernel_size: 3
    group: 2
    weight_filler {
      type: "gaussian"
      std: 0.01
    }
    bias_filler {
      type: "constant"
      value: 0.1
    }
  }
}
layer {
  name: "relu4"
  type: "ReLU"
  bottom: "conv4"
  top: "conv4"
}
layer {
  name: "conv5"
  type: "Convolution"
  bottom: "conv4"
  top: "conv5"
  param {
    lr_mult: 1
    decay_mult: 1
  }
  param {
    lr_mult: 2
    decay_mult: 0
  }
  convolution_param {
    num_output: 256
    pad: 1
    kernel_size: 3
    group: 2
    weight_filler {
      type: "gaussian"
      std: 0.01
    }
    bias_filler {
      type: "constant"
      value: 0.1
    }
  }
}
layer {
  name: "relu5"
  type: "ReLU"
  bottom: "conv5"
  top: "conv5"
}
layer {
  name: "pool5"
  type: "Pooling"
  bottom: "conv5"
  top: "pool5"
  pooling_param {
    pool: MAX
    kernel_size: 3
    stride: 2
  }
}
layer {
  name: "fc6"
  type: "InnerProduct"
  bottom: "pool5"
  top: "fc6"
  param {
    lr_mult: 1
    decay_mult: 1
  }
  param {
    lr_mult: 2
    decay_mult: 0
  }
  inner_product_param {
    num_output: 4096
    weight_filler {
      type: "gaussian"
      std: 0.005
    }
    bias_filler {
      type: "constant"
      value: 0.1
    }
  }
}
layer {
  name: "relu6"
  type: "ReLU"
  bottom: "fc6"
  top: "fc6"
}
layer {
  name: "drop6"
  type: "Dropout"
  bottom: "fc6"
  top: "fc6"
  dropout_param {
    dropout_ratio: 0.5
  }
}
layer {
  name: "fc7"
  type: "InnerProduct"
  bottom: "fc6"
  top: "fc7"
  param {
    lr_mult: 1
    decay_mult: 1
  }
  param {
    lr_mult: 2
    decay_mult: 0
  }
  inner_product_param {
    num_output: 4096
    weight_filler {
      type: "gaussian"
      std: 0.005
    }
    bias_filler {
      type: "constant"
      value: 0.1
    }
  }
}
layer {
  name: "relu7"
  type: "ReLU"
  bottom: "fc7"
  top: "fc7"
}
layer {
  name: "drop7"
  type: "Dropout"
  bottom: "fc7"
  top: "fc7"
  dropout_param {
    dropout_ratio: 0.5
  }
}
layer {
  name: "fc8_plantvillage"
  type: "InnerProduct"
  bottom: "fc7"
  top: "fc8_plantvillage"
  param {
    lr_mult: 1
    decay_mult: 1
  }
  param {
    lr_mult: 2
    decay_mult: 0
  }
  inner_product_param {
    num_output: 38
    weight_filler {
      type: "gaussian"
      std: 0.01
    }
    bias_filler {
      type: "constant"
      value: 0
    }
  }
}
layer {
  name: "prob"
  type: "Softmax"
  bottom: "fc8_plantvillage"
  top: "prob"
  include {
    phase: TEST
  }
}
layer {
  name: "hdf5out"
  type: "HDF5Output"
  bottom: "prob"
  bottom: "label"
  include {
    phase: TEST
  }
  hdf5_output_param {
    file_name: "hdf5_dumps/iter_432.h5"
  }
}
layer {
  name: "loss"
  type: "SoftmaxWithLoss"
  bottom: "fc8_plantvillage"
  bottom: "label"
  top: "loss"
}
layer {
  name: "accuracy"
  type: "Accuracy"
  bottom: "fc8_plantvillage"
  bottom: "label"
  top: "accuracy"
  include {
    phase: TEST
  }
}
I0403 12:22:46.113438 26165 layer_factory.hpp:77] Creating layer data
I0403 12:22:46.114192 26165 net.cpp:91] Creating Layer data
I0403 12:22:46.114228 26165 net.cpp:399] data -> data
I0403 12:22:46.114306 26165 net.cpp:399] data -> label
I0403 12:22:46.114353 26165 data_transformer.cpp:25] Loading mean file from: /home/mohanty/data/final_dataset/lmdb/color-20-80/mean.binaryproto
I0403 12:22:46.117477 26167 db_lmdb.cpp:38] Opened lmdb /home/mohanty/data/final_dataset/lmdb/color-20-80/test_db
I0403 12:22:46.131191 26165 data_layer.cpp:41] output data size: 100,3,227,227
I0403 12:22:46.279424 26165 net.cpp:141] Setting up data
I0403 12:22:46.279532 26165 net.cpp:148] Top shape: 100 3 227 227 (15458700)
I0403 12:22:46.279559 26165 net.cpp:148] Top shape: 100 (100)
I0403 12:22:46.279577 26165 net.cpp:156] Memory required for data: 61835200
I0403 12:22:46.279611 26165 layer_factory.hpp:77] Creating layer label_data_1_split
I0403 12:22:46.279642 26165 net.cpp:91] Creating Layer label_data_1_split
I0403 12:22:46.279664 26165 net.cpp:425] label_data_1_split <- label
I0403 12:22:46.279700 26165 net.cpp:399] label_data_1_split -> label_data_1_split_0
I0403 12:22:46.279732 26165 net.cpp:399] label_data_1_split -> label_data_1_split_1
I0403 12:22:46.279757 26165 net.cpp:399] label_data_1_split -> label_data_1_split_2
I0403 12:22:46.279832 26165 net.cpp:141] Setting up label_data_1_split
I0403 12:22:46.279860 26165 net.cpp:148] Top shape: 100 (100)
I0403 12:22:46.279881 26165 net.cpp:148] Top shape: 100 (100)
I0403 12:22:46.279901 26165 net.cpp:148] Top shape: 100 (100)
I0403 12:22:46.279917 26165 net.cpp:156] Memory required for data: 61836400
I0403 12:22:46.279934 26165 layer_factory.hpp:77] Creating layer conv1
I0403 12:22:46.279973 26165 net.cpp:91] Creating Layer conv1
I0403 12:22:46.279994 26165 net.cpp:425] conv1 <- data
I0403 12:22:46.280017 26165 net.cpp:399] conv1 -> conv1
I0403 12:22:46.446202 26165 net.cpp:141] Setting up conv1
I0403 12:22:46.446292 26165 net.cpp:148] Top shape: 100 96 55 55 (29040000)
I0403 12:22:46.446316 26165 net.cpp:156] Memory required for data: 177996400
I0403 12:22:46.446353 26165 layer_factory.hpp:77] Creating layer relu1
I0403 12:22:46.446387 26165 net.cpp:91] Creating Layer relu1
I0403 12:22:46.446409 26165 net.cpp:425] relu1 <- conv1
I0403 12:22:46.446432 26165 net.cpp:386] relu1 -> conv1 (in-place)
I0403 12:22:46.446735 26165 net.cpp:141] Setting up relu1
I0403 12:22:46.446768 26165 net.cpp:148] Top shape: 100 96 55 55 (29040000)
I0403 12:22:46.446787 26165 net.cpp:156] Memory required for data: 294156400
I0403 12:22:46.446844 26165 layer_factory.hpp:77] Creating layer norm1
I0403 12:22:46.446878 26165 net.cpp:91] Creating Layer norm1
I0403 12:22:46.446900 26165 net.cpp:425] norm1 <- conv1
I0403 12:22:46.446923 26165 net.cpp:399] norm1 -> norm1
I0403 12:22:46.447291 26165 net.cpp:141] Setting up norm1
I0403 12:22:46.447326 26165 net.cpp:148] Top shape: 100 96 55 55 (29040000)
I0403 12:22:46.447345 26165 net.cpp:156] Memory required for data: 410316400
I0403 12:22:46.447365 26165 layer_factory.hpp:77] Creating layer pool1
I0403 12:22:46.447391 26165 net.cpp:91] Creating Layer pool1
I0403 12:22:46.447412 26165 net.cpp:425] pool1 <- norm1
I0403 12:22:46.447434 26165 net.cpp:399] pool1 -> pool1
I0403 12:22:46.447515 26165 net.cpp:141] Setting up pool1
I0403 12:22:46.447545 26165 net.cpp:148] Top shape: 100 96 27 27 (6998400)
I0403 12:22:46.447563 26165 net.cpp:156] Memory required for data: 438310000
I0403 12:22:46.447582 26165 layer_factory.hpp:77] Creating layer conv2
I0403 12:22:46.447613 26165 net.cpp:91] Creating Layer conv2
I0403 12:22:46.447631 26165 net.cpp:425] conv2 <- pool1
I0403 12:22:46.447652 26165 net.cpp:399] conv2 -> conv2
I0403 12:22:46.465488 26165 net.cpp:141] Setting up conv2
I0403 12:22:46.465535 26165 net.cpp:148] Top shape: 100 256 27 27 (18662400)
I0403 12:22:46.465556 26165 net.cpp:156] Memory required for data: 512959600
I0403 12:22:46.465586 26165 layer_factory.hpp:77] Creating layer relu2
I0403 12:22:46.465613 26165 net.cpp:91] Creating Layer relu2
I0403 12:22:46.465634 26165 net.cpp:425] relu2 <- conv2
I0403 12:22:46.465658 26165 net.cpp:386] relu2 -> conv2 (in-place)
I0403 12:22:46.465993 26165 net.cpp:141] Setting up relu2
I0403 12:22:46.466029 26165 net.cpp:148] Top shape: 100 256 27 27 (18662400)
I0403 12:22:46.466048 26165 net.cpp:156] Memory required for data: 587609200
I0403 12:22:46.466068 26165 layer_factory.hpp:77] Creating layer norm2
I0403 12:22:46.466092 26165 net.cpp:91] Creating Layer norm2
I0403 12:22:46.466111 26165 net.cpp:425] norm2 <- conv2
I0403 12:22:46.466137 26165 net.cpp:399] norm2 -> norm2
I0403 12:22:46.466392 26165 net.cpp:141] Setting up norm2
I0403 12:22:46.466426 26165 net.cpp:148] Top shape: 100 256 27 27 (18662400)
I0403 12:22:46.466446 26165 net.cpp:156] Memory required for data: 662258800
I0403 12:22:46.466465 26165 layer_factory.hpp:77] Creating layer pool2
I0403 12:22:46.466487 26165 net.cpp:91] Creating Layer pool2
I0403 12:22:46.466506 26165 net.cpp:425] pool2 <- norm2
I0403 12:22:46.466527 26165 net.cpp:399] pool2 -> pool2
I0403 12:22:46.466593 26165 net.cpp:141] Setting up pool2
I0403 12:22:46.466620 26165 net.cpp:148] Top shape: 100 256 13 13 (4326400)
I0403 12:22:46.466639 26165 net.cpp:156] Memory required for data: 679564400
I0403 12:22:46.466657 26165 layer_factory.hpp:77] Creating layer conv3
I0403 12:22:46.466688 26165 net.cpp:91] Creating Layer conv3
I0403 12:22:46.466711 26165 net.cpp:425] conv3 <- pool2
I0403 12:22:46.466734 26165 net.cpp:399] conv3 -> conv3
I0403 12:22:46.512708 26165 net.cpp:141] Setting up conv3
I0403 12:22:46.512775 26165 net.cpp:148] Top shape: 100 384 13 13 (6489600)
I0403 12:22:46.512797 26165 net.cpp:156] Memory required for data: 705522800
I0403 12:22:46.512826 26165 layer_factory.hpp:77] Creating layer relu3
I0403 12:22:46.512856 26165 net.cpp:91] Creating Layer relu3
I0403 12:22:46.512877 26165 net.cpp:425] relu3 <- conv3
I0403 12:22:46.512900 26165 net.cpp:386] relu3 -> conv3 (in-place)
I0403 12:22:46.513231 26165 net.cpp:141] Setting up relu3
I0403 12:22:46.513270 26165 net.cpp:148] Top shape: 100 384 13 13 (6489600)
I0403 12:22:46.513316 26165 net.cpp:156] Memory required for data: 731481200
I0403 12:22:46.513339 26165 layer_factory.hpp:77] Creating layer conv4
I0403 12:22:46.513371 26165 net.cpp:91] Creating Layer conv4
I0403 12:22:46.513392 26165 net.cpp:425] conv4 <- conv3
I0403 12:22:46.513416 26165 net.cpp:399] conv4 -> conv4
I0403 12:22:46.548894 26165 net.cpp:141] Setting up conv4
I0403 12:22:46.548944 26165 net.cpp:148] Top shape: 100 384 13 13 (6489600)
I0403 12:22:46.548990 26165 net.cpp:156] Memory required for data: 757439600
I0403 12:22:46.549016 26165 layer_factory.hpp:77] Creating layer relu4
I0403 12:22:46.549043 26165 net.cpp:91] Creating Layer relu4
I0403 12:22:46.549064 26165 net.cpp:425] relu4 <- conv4
I0403 12:22:46.549087 26165 net.cpp:386] relu4 -> conv4 (in-place)
I0403 12:22:46.549423 26165 net.cpp:141] Setting up relu4
I0403 12:22:46.549455 26165 net.cpp:148] Top shape: 100 384 13 13 (6489600)
I0403 12:22:46.549474 26165 net.cpp:156] Memory required for data: 783398000
I0403 12:22:46.549494 26165 layer_factory.hpp:77] Creating layer conv5
I0403 12:22:46.549525 26165 net.cpp:91] Creating Layer conv5
I0403 12:22:46.549545 26165 net.cpp:425] conv5 <- conv4
I0403 12:22:46.549569 26165 net.cpp:399] conv5 -> conv5
I0403 12:22:46.573989 26165 net.cpp:141] Setting up conv5
I0403 12:22:46.574031 26165 net.cpp:148] Top shape: 100 256 13 13 (4326400)
I0403 12:22:46.574051 26165 net.cpp:156] Memory required for data: 800703600
I0403 12:22:46.574084 26165 layer_factory.hpp:77] Creating layer relu5
I0403 12:22:46.574110 26165 net.cpp:91] Creating Layer relu5
I0403 12:22:46.574136 26165 net.cpp:425] relu5 <- conv5
I0403 12:22:46.574158 26165 net.cpp:386] relu5 -> conv5 (in-place)
I0403 12:22:46.574506 26165 net.cpp:141] Setting up relu5
I0403 12:22:46.574542 26165 net.cpp:148] Top shape: 100 256 13 13 (4326400)
I0403 12:22:46.574563 26165 net.cpp:156] Memory required for data: 818009200
I0403 12:22:46.574584 26165 layer_factory.hpp:77] Creating layer pool5
I0403 12:22:46.574609 26165 net.cpp:91] Creating Layer pool5
I0403 12:22:46.574630 26165 net.cpp:425] pool5 <- conv5
I0403 12:22:46.574661 26165 net.cpp:399] pool5 -> pool5
I0403 12:22:46.574734 26165 net.cpp:141] Setting up pool5
I0403 12:22:46.574764 26165 net.cpp:148] Top shape: 100 256 6 6 (921600)
I0403 12:22:46.574782 26165 net.cpp:156] Memory required for data: 821695600
I0403 12:22:46.574800 26165 layer_factory.hpp:77] Creating layer fc6
I0403 12:22:46.574834 26165 net.cpp:91] Creating Layer fc6
I0403 12:22:46.574858 26165 net.cpp:425] fc6 <- pool5
I0403 12:22:46.574883 26165 net.cpp:399] fc6 -> fc6
I0403 12:22:48.220501 26165 net.cpp:141] Setting up fc6
I0403 12:22:48.220546 26165 net.cpp:148] Top shape: 100 4096 (409600)
I0403 12:22:48.220563 26165 net.cpp:156] Memory required for data: 823334000
I0403 12:22:48.220587 26165 layer_factory.hpp:77] Creating layer relu6
I0403 12:22:48.220609 26165 net.cpp:91] Creating Layer relu6
I0403 12:22:48.220628 26165 net.cpp:425] relu6 <- fc6
I0403 12:22:48.220651 26165 net.cpp:386] relu6 -> fc6 (in-place)
I0403 12:22:48.220880 26165 net.cpp:141] Setting up relu6
I0403 12:22:48.220909 26165 net.cpp:148] Top shape: 100 4096 (409600)
I0403 12:22:48.220926 26165 net.cpp:156] Memory required for data: 824972400
I0403 12:22:48.220942 26165 layer_factory.hpp:77] Creating layer drop6
I0403 12:22:48.220962 26165 net.cpp:91] Creating Layer drop6
I0403 12:22:48.220976 26165 net.cpp:425] drop6 <- fc6
I0403 12:22:48.220994 26165 net.cpp:386] drop6 -> fc6 (in-place)
I0403 12:22:48.221047 26165 net.cpp:141] Setting up drop6
I0403 12:22:48.221072 26165 net.cpp:148] Top shape: 100 4096 (409600)
I0403 12:22:48.221088 26165 net.cpp:156] Memory required for data: 826610800
I0403 12:22:48.221104 26165 layer_factory.hpp:77] Creating layer fc7
I0403 12:22:48.221127 26165 net.cpp:91] Creating Layer fc7
I0403 12:22:48.221144 26165 net.cpp:425] fc7 <- fc6
I0403 12:22:48.221163 26165 net.cpp:399] fc7 -> fc7
I0403 12:22:48.921952 26165 net.cpp:141] Setting up fc7
I0403 12:22:48.922029 26165 net.cpp:148] Top shape: 100 4096 (409600)
I0403 12:22:48.922046 26165 net.cpp:156] Memory required for data: 828249200
I0403 12:22:48.922070 26165 layer_factory.hpp:77] Creating layer relu7
I0403 12:22:48.922096 26165 net.cpp:91] Creating Layer relu7
I0403 12:22:48.922116 26165 net.cpp:425] relu7 <- fc7
I0403 12:22:48.922137 26165 net.cpp:386] relu7 -> fc7 (in-place)
I0403 12:22:48.922571 26165 net.cpp:141] Setting up relu7
I0403 12:22:48.922600 26165 net.cpp:148] Top shape: 100 4096 (409600)
I0403 12:22:48.922662 26165 net.cpp:156] Memory required for data: 829887600
I0403 12:22:48.922678 26165 layer_factory.hpp:77] Creating layer drop7
I0403 12:22:48.922701 26165 net.cpp:91] Creating Layer drop7
I0403 12:22:48.922719 26165 net.cpp:425] drop7 <- fc7
I0403 12:22:48.922736 26165 net.cpp:386] drop7 -> fc7 (in-place)
I0403 12:22:48.922780 26165 net.cpp:141] Setting up drop7
I0403 12:22:48.922802 26165 net.cpp:148] Top shape: 100 4096 (409600)
I0403 12:22:48.922818 26165 net.cpp:156] Memory required for data: 831526000
I0403 12:22:48.922833 26165 layer_factory.hpp:77] Creating layer fc8_plantvillage
I0403 12:22:48.922857 26165 net.cpp:91] Creating Layer fc8_plantvillage
I0403 12:22:48.922873 26165 net.cpp:425] fc8_plantvillage <- fc7
I0403 12:22:48.922891 26165 net.cpp:399] fc8_plantvillage -> fc8_plantvillage
I0403 12:22:48.929761 26165 net.cpp:141] Setting up fc8_plantvillage
I0403 12:22:48.929792 26165 net.cpp:148] Top shape: 100 38 (3800)
I0403 12:22:48.929808 26165 net.cpp:156] Memory required for data: 831541200
I0403 12:22:48.929827 26165 layer_factory.hpp:77] Creating layer fc8_plantvillage_fc8_plantvillage_0_split
I0403 12:22:48.929847 26165 net.cpp:91] Creating Layer fc8_plantvillage_fc8_plantvillage_0_split
I0403 12:22:48.929862 26165 net.cpp:425] fc8_plantvillage_fc8_plantvillage_0_split <- fc8_plantvillage
I0403 12:22:48.929878 26165 net.cpp:399] fc8_plantvillage_fc8_plantvillage_0_split -> fc8_plantvillage_fc8_plantvillage_0_split_0
I0403 12:22:48.929901 26165 net.cpp:399] fc8_plantvillage_fc8_plantvillage_0_split -> fc8_plantvillage_fc8_plantvillage_0_split_1
I0403 12:22:48.929922 26165 net.cpp:399] fc8_plantvillage_fc8_plantvillage_0_split -> fc8_plantvillage_fc8_plantvillage_0_split_2
I0403 12:22:48.930001 26165 net.cpp:141] Setting up fc8_plantvillage_fc8_plantvillage_0_split
I0403 12:22:48.930024 26165 net.cpp:148] Top shape: 100 38 (3800)
I0403 12:22:48.930040 26165 net.cpp:148] Top shape: 100 38 (3800)
I0403 12:22:48.930057 26165 net.cpp:148] Top shape: 100 38 (3800)
I0403 12:22:48.930070 26165 net.cpp:156] Memory required for data: 831586800
I0403 12:22:48.930085 26165 layer_factory.hpp:77] Creating layer prob
I0403 12:22:48.930104 26165 net.cpp:91] Creating Layer prob
I0403 12:22:48.930119 26165 net.cpp:425] prob <- fc8_plantvillage_fc8_plantvillage_0_split_0
I0403 12:22:48.930136 26165 net.cpp:399] prob -> prob
I0403 12:22:48.930382 26165 net.cpp:141] Setting up prob
I0403 12:22:48.930410 26165 net.cpp:148] Top shape: 100 38 (3800)
I0403 12:22:48.930425 26165 net.cpp:156] Memory required for data: 831602000
I0403 12:22:48.930443 26165 layer_factory.hpp:77] Creating layer hdf5out
I0403 12:22:48.930466 26165 net.cpp:91] Creating Layer hdf5out
I0403 12:22:48.930482 26165 net.cpp:425] hdf5out <- prob
I0403 12:22:48.930500 26165 net.cpp:425] hdf5out <- label_data_1_split_0
I0403 12:22:48.934486 26165 net.cpp:141] Setting up hdf5out
…
