…
I0403 12:40:34.833770 26580 net.cpp:313] The NetState phase (1) differed from the phase (0) specified by a rule in layer data
I0403 12:40:34.834087 26580 net.cpp:49] Initializing net from parameters: 
state {
  phase: TEST
}
layer {
  name: "data"
  type: "Data"
  top: "data"
  top: "label"
  include {
    phase: TEST
  }
  transform_param {
    crop_size: 227
    mean_file: "/home/mohanty/data/final_dataset/lmdb/color-20-80/mean.binaryproto"
  }
  data_param {
    source: "/home/mohanty/data/final_dataset/lmdb/color-20-80/test_db"
    batch_size: 100
    backend: LMDB
  }
}
layer {
  name: "conv1"
  type: "Convolution"
  bottom: "data"
  top: "conv1"
  param {
    lr_mult: 1
    decay_mult: 1
  }
  param {
    lr_mult: 2
    decay_mult: 0
  }
  convolution_param {
    num_output: 96
    kernel_size: 11
    stride: 4
    weight_filler {
      type: "gaussian"
      std: 0.01
    }
    bias_filler {
      type: "constant"
      value: 0
    }
  }
}
layer {
  name: "relu1"
  type: "ReLU"
  bottom: "conv1"
  top: "conv1"
}
layer {
  name: "norm1"
  type: "LRN"
  bottom: "conv1"
  top: "norm1"
  lrn_param {
    local_size: 5
    alpha: 0.0001
    beta: 0.75
  }
}
layer {
  name: "pool1"
  type: "Pooling"
  bottom: "norm1"
  top: "pool1"
  pooling_param {
    pool: MAX
    kernel_size: 3
    stride: 2
  }
}
layer {
  name: "conv2"
  type: "Convolution"
  bottom: "pool1"
  top: "conv2"
  param {
    lr_mult: 1
    decay_mult: 1
  }
  param {
    lr_mult: 2
    decay_mult: 0
  }
  convolution_param {
    num_output: 256
    pad: 2
    kernel_size: 5
    group: 2
    weight_filler {
      type: "gaussian"
      std: 0.01
    }
    bias_filler {
      type: "constant"
      value: 0.1
    }
  }
}
layer {
  name: "relu2"
  type: "ReLU"
  bottom: "conv2"
  top: "conv2"
}
layer {
  name: "norm2"
  type: "LRN"
  bottom: "conv2"
  top: "norm2"
  lrn_param {
    local_size: 5
    alpha: 0.0001
    beta: 0.75
  }
}
layer {
  name: "pool2"
  type: "Pooling"
  bottom: "norm2"
  top: "pool2"
  pooling_param {
    pool: MAX
    kernel_size: 3
    stride: 2
  }
}
layer {
  name: "conv3"
  type: "Convolution"
  bottom: "pool2"
  top: "conv3"
  param {
    lr_mult: 1
    decay_mult: 1
  }
  param {
    lr_mult: 2
    decay_mult: 0
  }
  convolution_param {
    num_output: 384
    pad: 1
    kernel_size: 3
    weight_filler {
      type: "gaussian"
      std: 0.01
    }
    bias_filler {
      type: "constant"
      value: 0
    }
  }
}
layer {
  name: "relu3"
  type: "ReLU"
  bottom: "conv3"
  top: "conv3"
}
layer {
  name: "conv4"
  type: "Convolution"
  bottom: "conv3"
  top: "conv4"
  param {
    lr_mult: 1
    decay_mult: 1
  }
  param {
    lr_mult: 2
    decay_mult: 0
  }
  convolution_param {
    num_output: 384
    pad: 1
    kernel_size: 3
    group: 2
    weight_filler {
      type: "gaussian"
      std: 0.01
    }
    bias_filler {
      type: "constant"
      value: 0.1
    }
  }
}
layer {
  name: "relu4"
  type: "ReLU"
  bottom: "conv4"
  top: "conv4"
}
layer {
  name: "conv5"
  type: "Convolution"
  bottom: "conv4"
  top: "conv5"
  param {
    lr_mult: 1
    decay_mult: 1
  }
  param {
    lr_mult: 2
    decay_mult: 0
  }
  convolution_param {
    num_output: 256
    pad: 1
    kernel_size: 3
    group: 2
    weight_filler {
      type: "gaussian"
      std: 0.01
    }
    bias_filler {
      type: "constant"
      value: 0.1
    }
  }
}
layer {
  name: "relu5"
  type: "ReLU"
  bottom: "conv5"
  top: "conv5"
}
layer {
  name: "pool5"
  type: "Pooling"
  bottom: "conv5"
  top: "pool5"
  pooling_param {
    pool: MAX
    kernel_size: 3
    stride: 2
  }
}
layer {
  name: "fc6"
  type: "InnerProduct"
  bottom: "pool5"
  top: "fc6"
  param {
    lr_mult: 1
    decay_mult: 1
  }
  param {
    lr_mult: 2
    decay_mult: 0
  }
  inner_product_param {
    num_output: 4096
    weight_filler {
      type: "gaussian"
      std: 0.005
    }
    bias_filler {
      type: "constant"
      value: 0.1
    }
  }
}
layer {
  name: "relu6"
  type: "ReLU"
  bottom: "fc6"
  top: "fc6"
}
layer {
  name: "drop6"
  type: "Dropout"
  bottom: "fc6"
  top: "fc6"
  dropout_param {
    dropout_ratio: 0.5
  }
}
layer {
  name: "fc7"
  type: "InnerProduct"
  bottom: "fc6"
  top: "fc7"
  param {
    lr_mult: 1
    decay_mult: 1
  }
  param {
    lr_mult: 2
    decay_mult: 0
  }
  inner_product_param {
    num_output: 4096
    weight_filler {
      type: "gaussian"
      std: 0.005
    }
    bias_filler {
      type: "constant"
      value: 0.1
    }
  }
}
layer {
  name: "relu7"
  type: "ReLU"
  bottom: "fc7"
  top: "fc7"
}
layer {
  name: "drop7"
  type: "Dropout"
  bottom: "fc7"
  top: "fc7"
  dropout_param {
    dropout_ratio: 0.5
  }
}
layer {
  name: "fc8_plantvillage"
  type: "InnerProduct"
  bottom: "fc7"
  top: "fc8_plantvillage"
  param {
    lr_mult: 1
    decay_mult: 1
  }
  param {
    lr_mult: 2
    decay_mult: 0
  }
  inner_product_param {
    num_output: 38
    weight_filler {
      type: "gaussian"
      std: 0.01
    }
    bias_filler {
      type: "constant"
      value: 0
    }
  }
}
layer {
  name: "prob"
  type: "Softmax"
  bottom: "fc8_plantvillage"
  top: "prob"
  include {
    phase: TEST
  }
}
layer {
  name: "hdf5out"
  type: "HDF5Output"
  bottom: "prob"
  bottom: "label"
  include {
    phase: TEST
  }
  hdf5_output_param {
    file_name: "hdf5_dumps/iter_1728.h5"
  }
}
layer {
  name: "loss"
  type: "SoftmaxWithLoss"
  bottom: "fc8_plantvillage"
  bottom: "label"
  top: "loss"
}
layer {
  name: "accuracy"
  type: "Accuracy"
  bottom: "fc8_plantvillage"
  bottom: "label"
  top: "accuracy"
  include {
    phase: TEST
  }
}
I0403 12:40:34.834662 26580 layer_factory.hpp:77] Creating layer data
I0403 12:40:34.835345 26580 net.cpp:91] Creating Layer data
I0403 12:40:34.835381 26580 net.cpp:399] data -> data
I0403 12:40:34.835435 26580 net.cpp:399] data -> label
I0403 12:40:34.835474 26580 data_transformer.cpp:25] Loading mean file from: /home/mohanty/data/final_dataset/lmdb/color-20-80/mean.binaryproto
I0403 12:40:34.838416 26585 db_lmdb.cpp:38] Opened lmdb /home/mohanty/data/final_dataset/lmdb/color-20-80/test_db
I0403 12:40:34.849809 26580 data_layer.cpp:41] output data size: 100,3,227,227
I0403 12:40:34.981808 26580 net.cpp:141] Setting up data
I0403 12:40:34.981870 26580 net.cpp:148] Top shape: 100 3 227 227 (15458700)
I0403 12:40:34.981894 26580 net.cpp:148] Top shape: 100 (100)
I0403 12:40:34.981911 26580 net.cpp:156] Memory required for data: 61835200
I0403 12:40:34.981941 26580 layer_factory.hpp:77] Creating layer label_data_1_split
I0403 12:40:34.981968 26580 net.cpp:91] Creating Layer label_data_1_split
I0403 12:40:34.981988 26580 net.cpp:425] label_data_1_split <- label
I0403 12:40:34.982023 26580 net.cpp:399] label_data_1_split -> label_data_1_split_0
I0403 12:40:34.982050 26580 net.cpp:399] label_data_1_split -> label_data_1_split_1
I0403 12:40:34.982072 26580 net.cpp:399] label_data_1_split -> label_data_1_split_2
I0403 12:40:34.982139 26580 net.cpp:141] Setting up label_data_1_split
I0403 12:40:34.982164 26580 net.cpp:148] Top shape: 100 (100)
I0403 12:40:34.982182 26580 net.cpp:148] Top shape: 100 (100)
I0403 12:40:34.982199 26580 net.cpp:148] Top shape: 100 (100)
I0403 12:40:34.982214 26580 net.cpp:156] Memory required for data: 61836400
I0403 12:40:34.982230 26580 layer_factory.hpp:77] Creating layer conv1
I0403 12:40:34.982269 26580 net.cpp:91] Creating Layer conv1
I0403 12:40:34.982290 26580 net.cpp:425] conv1 <- data
I0403 12:40:34.982309 26580 net.cpp:399] conv1 -> conv1
I0403 12:40:35.130681 26580 net.cpp:141] Setting up conv1
I0403 12:40:35.130759 26580 net.cpp:148] Top shape: 100 96 55 55 (29040000)
I0403 12:40:35.130779 26580 net.cpp:156] Memory required for data: 177996400
I0403 12:40:35.130810 26580 layer_factory.hpp:77] Creating layer relu1
I0403 12:40:35.130839 26580 net.cpp:91] Creating Layer relu1
I0403 12:40:35.130858 26580 net.cpp:425] relu1 <- conv1
I0403 12:40:35.130879 26580 net.cpp:386] relu1 -> conv1 (in-place)
I0403 12:40:35.131157 26580 net.cpp:141] Setting up relu1
I0403 12:40:35.131187 26580 net.cpp:148] Top shape: 100 96 55 55 (29040000)
I0403 12:40:35.131203 26580 net.cpp:156] Memory required for data: 294156400
I0403 12:40:35.131250 26580 layer_factory.hpp:77] Creating layer norm1
I0403 12:40:35.131280 26580 net.cpp:91] Creating Layer norm1
I0403 12:40:35.131306 26580 net.cpp:425] norm1 <- conv1
I0403 12:40:35.131325 26580 net.cpp:399] norm1 -> norm1
I0403 12:40:35.131644 26580 net.cpp:141] Setting up norm1
I0403 12:40:35.131674 26580 net.cpp:148] Top shape: 100 96 55 55 (29040000)
I0403 12:40:35.131690 26580 net.cpp:156] Memory required for data: 410316400
I0403 12:40:35.131706 26580 layer_factory.hpp:77] Creating layer pool1
I0403 12:40:35.131731 26580 net.cpp:91] Creating Layer pool1
I0403 12:40:35.131750 26580 net.cpp:425] pool1 <- norm1
I0403 12:40:35.131769 26580 net.cpp:399] pool1 -> pool1
I0403 12:40:35.131839 26580 net.cpp:141] Setting up pool1
I0403 12:40:35.131865 26580 net.cpp:148] Top shape: 100 96 27 27 (6998400)
I0403 12:40:35.131882 26580 net.cpp:156] Memory required for data: 438310000
I0403 12:40:35.131899 26580 layer_factory.hpp:77] Creating layer conv2
I0403 12:40:35.131925 26580 net.cpp:91] Creating Layer conv2
I0403 12:40:35.131944 26580 net.cpp:425] conv2 <- pool1
I0403 12:40:35.131964 26580 net.cpp:399] conv2 -> conv2
I0403 12:40:35.147426 26580 net.cpp:141] Setting up conv2
I0403 12:40:35.147483 26580 net.cpp:148] Top shape: 100 256 27 27 (18662400)
I0403 12:40:35.147503 26580 net.cpp:156] Memory required for data: 512959600
I0403 12:40:35.147528 26580 layer_factory.hpp:77] Creating layer relu2
I0403 12:40:35.147550 26580 net.cpp:91] Creating Layer relu2
I0403 12:40:35.147567 26580 net.cpp:425] relu2 <- conv2
I0403 12:40:35.147589 26580 net.cpp:386] relu2 -> conv2 (in-place)
I0403 12:40:35.147882 26580 net.cpp:141] Setting up relu2
I0403 12:40:35.147912 26580 net.cpp:148] Top shape: 100 256 27 27 (18662400)
I0403 12:40:35.147928 26580 net.cpp:156] Memory required for data: 587609200
I0403 12:40:35.147945 26580 layer_factory.hpp:77] Creating layer norm2
I0403 12:40:35.147971 26580 net.cpp:91] Creating Layer norm2
I0403 12:40:35.147990 26580 net.cpp:425] norm2 <- conv2
I0403 12:40:35.148010 26580 net.cpp:399] norm2 -> norm2
I0403 12:40:35.148219 26580 net.cpp:141] Setting up norm2
I0403 12:40:35.148247 26580 net.cpp:148] Top shape: 100 256 27 27 (18662400)
I0403 12:40:35.148265 26580 net.cpp:156] Memory required for data: 662258800
I0403 12:40:35.148282 26580 layer_factory.hpp:77] Creating layer pool2
I0403 12:40:35.148306 26580 net.cpp:91] Creating Layer pool2
I0403 12:40:35.148324 26580 net.cpp:425] pool2 <- norm2
I0403 12:40:35.148345 26580 net.cpp:399] pool2 -> pool2
I0403 12:40:35.148402 26580 net.cpp:141] Setting up pool2
I0403 12:40:35.148430 26580 net.cpp:148] Top shape: 100 256 13 13 (4326400)
I0403 12:40:35.148447 26580 net.cpp:156] Memory required for data: 679564400
I0403 12:40:35.148463 26580 layer_factory.hpp:77] Creating layer conv3
I0403 12:40:35.148488 26580 net.cpp:91] Creating Layer conv3
I0403 12:40:35.148507 26580 net.cpp:425] conv3 <- pool2
I0403 12:40:35.148526 26580 net.cpp:399] conv3 -> conv3
I0403 12:40:35.188313 26580 net.cpp:141] Setting up conv3
I0403 12:40:35.188383 26580 net.cpp:148] Top shape: 100 384 13 13 (6489600)
I0403 12:40:35.188401 26580 net.cpp:156] Memory required for data: 705522800
I0403 12:40:35.188428 26580 layer_factory.hpp:77] Creating layer relu3
I0403 12:40:35.188454 26580 net.cpp:91] Creating Layer relu3
I0403 12:40:35.188473 26580 net.cpp:425] relu3 <- conv3
I0403 12:40:35.188495 26580 net.cpp:386] relu3 -> conv3 (in-place)
I0403 12:40:35.188791 26580 net.cpp:141] Setting up relu3
I0403 12:40:35.188820 26580 net.cpp:148] Top shape: 100 384 13 13 (6489600)
I0403 12:40:35.188835 26580 net.cpp:156] Memory required for data: 731481200
I0403 12:40:35.188851 26580 layer_factory.hpp:77] Creating layer conv4
I0403 12:40:35.188880 26580 net.cpp:91] Creating Layer conv4
I0403 12:40:35.188899 26580 net.cpp:425] conv4 <- conv3
I0403 12:40:35.188925 26580 net.cpp:399] conv4 -> conv4
I0403 12:40:35.219666 26580 net.cpp:141] Setting up conv4
I0403 12:40:35.219730 26580 net.cpp:148] Top shape: 100 384 13 13 (6489600)
I0403 12:40:35.219780 26580 net.cpp:156] Memory required for data: 757439600
I0403 12:40:35.219805 26580 layer_factory.hpp:77] Creating layer relu4
I0403 12:40:35.219828 26580 net.cpp:91] Creating Layer relu4
I0403 12:40:35.219846 26580 net.cpp:425] relu4 <- conv4
I0403 12:40:35.219868 26580 net.cpp:386] relu4 -> conv4 (in-place)
I0403 12:40:35.220156 26580 net.cpp:141] Setting up relu4
I0403 12:40:35.220187 26580 net.cpp:148] Top shape: 100 384 13 13 (6489600)
I0403 12:40:35.220206 26580 net.cpp:156] Memory required for data: 783398000
I0403 12:40:35.220222 26580 layer_factory.hpp:77] Creating layer conv5
I0403 12:40:35.220249 26580 net.cpp:91] Creating Layer conv5
I0403 12:40:35.220268 26580 net.cpp:425] conv5 <- conv4
I0403 12:40:35.220293 26580 net.cpp:399] conv5 -> conv5
I0403 12:40:35.241439 26580 net.cpp:141] Setting up conv5
I0403 12:40:35.241489 26580 net.cpp:148] Top shape: 100 256 13 13 (4326400)
I0403 12:40:35.241508 26580 net.cpp:156] Memory required for data: 800703600
I0403 12:40:35.241534 26580 layer_factory.hpp:77] Creating layer relu5
I0403 12:40:35.241557 26580 net.cpp:91] Creating Layer relu5
I0403 12:40:35.241575 26580 net.cpp:425] relu5 <- conv5
I0403 12:40:35.241597 26580 net.cpp:386] relu5 -> conv5 (in-place)
I0403 12:40:35.241883 26580 net.cpp:141] Setting up relu5
I0403 12:40:35.241912 26580 net.cpp:148] Top shape: 100 256 13 13 (4326400)
I0403 12:40:35.241930 26580 net.cpp:156] Memory required for data: 818009200
I0403 12:40:35.241945 26580 layer_factory.hpp:77] Creating layer pool5
I0403 12:40:35.241971 26580 net.cpp:91] Creating Layer pool5
I0403 12:40:35.241989 26580 net.cpp:425] pool5 <- conv5
I0403 12:40:35.242009 26580 net.cpp:399] pool5 -> pool5
I0403 12:40:35.242074 26580 net.cpp:141] Setting up pool5
I0403 12:40:35.242100 26580 net.cpp:148] Top shape: 100 256 6 6 (921600)
I0403 12:40:35.242115 26580 net.cpp:156] Memory required for data: 821695600
I0403 12:40:35.242132 26580 layer_factory.hpp:77] Creating layer fc6
I0403 12:40:35.242161 26580 net.cpp:91] Creating Layer fc6
I0403 12:40:35.242180 26580 net.cpp:425] fc6 <- pool5
I0403 12:40:35.242202 26580 net.cpp:399] fc6 -> fc6
I0403 12:40:36.824012 26580 net.cpp:141] Setting up fc6
I0403 12:40:36.824054 26580 net.cpp:148] Top shape: 100 4096 (409600)
I0403 12:40:36.824070 26580 net.cpp:156] Memory required for data: 823334000
I0403 12:40:36.824093 26580 layer_factory.hpp:77] Creating layer relu6
I0403 12:40:36.824127 26580 net.cpp:91] Creating Layer relu6
I0403 12:40:36.824147 26580 net.cpp:425] relu6 <- fc6
I0403 12:40:36.824168 26580 net.cpp:386] relu6 -> fc6 (in-place)
I0403 12:40:36.824398 26580 net.cpp:141] Setting up relu6
I0403 12:40:36.824424 26580 net.cpp:148] Top shape: 100 4096 (409600)
I0403 12:40:36.824440 26580 net.cpp:156] Memory required for data: 824972400
I0403 12:40:36.824456 26580 layer_factory.hpp:77] Creating layer drop6
I0403 12:40:36.824487 26580 net.cpp:91] Creating Layer drop6
I0403 12:40:36.824503 26580 net.cpp:425] drop6 <- fc6
I0403 12:40:36.824522 26580 net.cpp:386] drop6 -> fc6 (in-place)
I0403 12:40:36.824574 26580 net.cpp:141] Setting up drop6
I0403 12:40:36.824597 26580 net.cpp:148] Top shape: 100 4096 (409600)
I0403 12:40:36.824614 26580 net.cpp:156] Memory required for data: 826610800
I0403 12:40:36.824630 26580 layer_factory.hpp:77] Creating layer fc7
I0403 12:40:36.824652 26580 net.cpp:91] Creating Layer fc7
I0403 12:40:36.824671 26580 net.cpp:425] fc7 <- fc6
I0403 12:40:36.824690 26580 net.cpp:399] fc7 -> fc7
I0403 12:40:37.513005 26580 net.cpp:141] Setting up fc7
I0403 12:40:37.513083 26580 net.cpp:148] Top shape: 100 4096 (409600)
I0403 12:40:37.513100 26580 net.cpp:156] Memory required for data: 828249200
I0403 12:40:37.513123 26580 layer_factory.hpp:77] Creating layer relu7
I0403 12:40:37.513145 26580 net.cpp:91] Creating Layer relu7
I0403 12:40:37.513162 26580 net.cpp:425] relu7 <- fc7
I0403 12:40:37.513185 26580 net.cpp:386] relu7 -> fc7 (in-place)
I0403 12:40:37.513597 26580 net.cpp:141] Setting up relu7
I0403 12:40:37.513624 26580 net.cpp:148] Top shape: 100 4096 (409600)
I0403 12:40:37.513674 26580 net.cpp:156] Memory required for data: 829887600
I0403 12:40:37.513689 26580 layer_factory.hpp:77] Creating layer drop7
I0403 12:40:37.513708 26580 net.cpp:91] Creating Layer drop7
I0403 12:40:37.513725 26580 net.cpp:425] drop7 <- fc7
I0403 12:40:37.513744 26580 net.cpp:386] drop7 -> fc7 (in-place)
I0403 12:40:37.513789 26580 net.cpp:141] Setting up drop7
I0403 12:40:37.513815 26580 net.cpp:148] Top shape: 100 4096 (409600)
I0403 12:40:37.513829 26580 net.cpp:156] Memory required for data: 831526000
I0403 12:40:37.513844 26580 layer_factory.hpp:77] Creating layer fc8_plantvillage
I0403 12:40:37.513864 26580 net.cpp:91] Creating Layer fc8_plantvillage
I0403 12:40:37.513881 26580 net.cpp:425] fc8_plantvillage <- fc7
I0403 12:40:37.513901 26580 net.cpp:399] fc8_plantvillage -> fc8_plantvillage
I0403 12:40:37.520761 26580 net.cpp:141] Setting up fc8_plantvillage
I0403 12:40:37.520790 26580 net.cpp:148] Top shape: 100 38 (3800)
I0403 12:40:37.520807 26580 net.cpp:156] Memory required for data: 831541200
I0403 12:40:37.520825 26580 layer_factory.hpp:77] Creating layer fc8_plantvillage_fc8_plantvillage_0_split
I0403 12:40:37.520846 26580 net.cpp:91] Creating Layer fc8_plantvillage_fc8_plantvillage_0_split
I0403 12:40:37.520862 26580 net.cpp:425] fc8_plantvillage_fc8_plantvillage_0_split <- fc8_plantvillage
I0403 12:40:37.520884 26580 net.cpp:399] fc8_plantvillage_fc8_plantvillage_0_split -> fc8_plantvillage_fc8_plantvillage_0_split_0
I0403 12:40:37.520905 26580 net.cpp:399] fc8_plantvillage_fc8_plantvillage_0_split -> fc8_plantvillage_fc8_plantvillage_0_split_1
I0403 12:40:37.520925 26580 net.cpp:399] fc8_plantvillage_fc8_plantvillage_0_split -> fc8_plantvillage_fc8_plantvillage_0_split_2
I0403 12:40:37.521000 26580 net.cpp:141] Setting up fc8_plantvillage_fc8_plantvillage_0_split
I0403 12:40:37.521028 26580 net.cpp:148] Top shape: 100 38 (3800)
I0403 12:40:37.521045 26580 net.cpp:148] Top shape: 100 38 (3800)
I0403 12:40:37.521061 26580 net.cpp:148] Top shape: 100 38 (3800)
I0403 12:40:37.521076 26580 net.cpp:156] Memory required for data: 831586800
I0403 12:40:37.521091 26580 layer_factory.hpp:77] Creating layer prob
I0403 12:40:37.521111 26580 net.cpp:91] Creating Layer prob
I0403 12:40:37.521126 26580 net.cpp:425] prob <- fc8_plantvillage_fc8_plantvillage_0_split_0
I0403 12:40:37.521145 26580 net.cpp:399] prob -> prob
I0403 12:40:37.521392 26580 net.cpp:141] Setting up prob
I0403 12:40:37.521420 26580 net.cpp:148] Top shape: 100 38 (3800)
I0403 12:40:37.521435 26580 net.cpp:156] Memory required for data: 831602000
I0403 12:40:37.521450 26580 layer_factory.hpp:77] Creating layer hdf5out
I0403 12:40:37.521471 26580 net.cpp:91] Creating Layer hdf5out
I0403 12:40:37.521487 26580 net.cpp:425] hdf5out <- prob
I0403 12:40:37.521504 26580 net.cpp:425] hdf5out <- label_data_1_split_0
I0403 12:40:37.525408 26580 net.cpp:141] Setting up hdf5out
…
