…
I0403 12:45:01.518327 26683 net.cpp:313] The NetState phase (1) differed from the phase (0) specified by a rule in layer data
I0403 12:45:01.518627 26683 net.cpp:49] Initializing net from parameters: 
state {
  phase: TEST
}
layer {
  name: "data"
  type: "Data"
  top: "data"
  top: "label"
  include {
    phase: TEST
  }
  transform_param {
    crop_size: 227
    mean_file: "/home/mohanty/data/final_dataset/lmdb/color-20-80/mean.binaryproto"
  }
  data_param {
    source: "/home/mohanty/data/final_dataset/lmdb/color-20-80/test_db"
    batch_size: 100
    backend: LMDB
  }
}
layer {
  name: "conv1"
  type: "Convolution"
  bottom: "data"
  top: "conv1"
  param {
    lr_mult: 1
    decay_mult: 1
  }
  param {
    lr_mult: 2
    decay_mult: 0
  }
  convolution_param {
    num_output: 96
    kernel_size: 11
    stride: 4
    weight_filler {
      type: "gaussian"
      std: 0.01
    }
    bias_filler {
      type: "constant"
      value: 0
    }
  }
}
layer {
  name: "relu1"
  type: "ReLU"
  bottom: "conv1"
  top: "conv1"
}
layer {
  name: "norm1"
  type: "LRN"
  bottom: "conv1"
  top: "norm1"
  lrn_param {
    local_size: 5
    alpha: 0.0001
    beta: 0.75
  }
}
layer {
  name: "pool1"
  type: "Pooling"
  bottom: "norm1"
  top: "pool1"
  pooling_param {
    pool: MAX
    kernel_size: 3
    stride: 2
  }
}
layer {
  name: "conv2"
  type: "Convolution"
  bottom: "pool1"
  top: "conv2"
  param {
    lr_mult: 1
    decay_mult: 1
  }
  param {
    lr_mult: 2
    decay_mult: 0
  }
  convolution_param {
    num_output: 256
    pad: 2
    kernel_size: 5
    group: 2
    weight_filler {
      type: "gaussian"
      std: 0.01
    }
    bias_filler {
      type: "constant"
      value: 0.1
    }
  }
}
layer {
  name: "relu2"
  type: "ReLU"
  bottom: "conv2"
  top: "conv2"
}
layer {
  name: "norm2"
  type: "LRN"
  bottom: "conv2"
  top: "norm2"
  lrn_param {
    local_size: 5
    alpha: 0.0001
    beta: 0.75
  }
}
layer {
  name: "pool2"
  type: "Pooling"
  bottom: "norm2"
  top: "pool2"
  pooling_param {
    pool: MAX
    kernel_size: 3
    stride: 2
  }
}
layer {
  name: "conv3"
  type: "Convolution"
  bottom: "pool2"
  top: "conv3"
  param {
    lr_mult: 1
    decay_mult: 1
  }
  param {
    lr_mult: 2
    decay_mult: 0
  }
  convolution_param {
    num_output: 384
    pad: 1
    kernel_size: 3
    weight_filler {
      type: "gaussian"
      std: 0.01
    }
    bias_filler {
      type: "constant"
      value: 0
    }
  }
}
layer {
  name: "relu3"
  type: "ReLU"
  bottom: "conv3"
  top: "conv3"
}
layer {
  name: "conv4"
  type: "Convolution"
  bottom: "conv3"
  top: "conv4"
  param {
    lr_mult: 1
    decay_mult: 1
  }
  param {
    lr_mult: 2
    decay_mult: 0
  }
  convolution_param {
    num_output: 384
    pad: 1
    kernel_size: 3
    group: 2
    weight_filler {
      type: "gaussian"
      std: 0.01
    }
    bias_filler {
      type: "constant"
      value: 0.1
    }
  }
}
layer {
  name: "relu4"
  type: "ReLU"
  bottom: "conv4"
  top: "conv4"
}
layer {
  name: "conv5"
  type: "Convolution"
  bottom: "conv4"
  top: "conv5"
  param {
    lr_mult: 1
    decay_mult: 1
  }
  param {
    lr_mult: 2
    decay_mult: 0
  }
  convolution_param {
    num_output: 256
    pad: 1
    kernel_size: 3
    group: 2
    weight_filler {
      type: "gaussian"
      std: 0.01
    }
    bias_filler {
      type: "constant"
      value: 0.1
    }
  }
}
layer {
  name: "relu5"
  type: "ReLU"
  bottom: "conv5"
  top: "conv5"
}
layer {
  name: "pool5"
  type: "Pooling"
  bottom: "conv5"
  top: "pool5"
  pooling_param {
    pool: MAX
    kernel_size: 3
    stride: 2
  }
}
layer {
  name: "fc6"
  type: "InnerProduct"
  bottom: "pool5"
  top: "fc6"
  param {
    lr_mult: 1
    decay_mult: 1
  }
  param {
    lr_mult: 2
    decay_mult: 0
  }
  inner_product_param {
    num_output: 4096
    weight_filler {
      type: "gaussian"
      std: 0.005
    }
    bias_filler {
      type: "constant"
      value: 0.1
    }
  }
}
layer {
  name: "relu6"
  type: "ReLU"
  bottom: "fc6"
  top: "fc6"
}
layer {
  name: "drop6"
  type: "Dropout"
  bottom: "fc6"
  top: "fc6"
  dropout_param {
    dropout_ratio: 0.5
  }
}
layer {
  name: "fc7"
  type: "InnerProduct"
  bottom: "fc6"
  top: "fc7"
  param {
    lr_mult: 1
    decay_mult: 1
  }
  param {
    lr_mult: 2
    decay_mult: 0
  }
  inner_product_param {
    num_output: 4096
    weight_filler {
      type: "gaussian"
      std: 0.005
    }
    bias_filler {
      type: "constant"
      value: 0.1
    }
  }
}
layer {
  name: "relu7"
  type: "ReLU"
  bottom: "fc7"
  top: "fc7"
}
layer {
  name: "drop7"
  type: "Dropout"
  bottom: "fc7"
  top: "fc7"
  dropout_param {
    dropout_ratio: 0.5
  }
}
layer {
  name: "fc8_plantvillage"
  type: "InnerProduct"
  bottom: "fc7"
  top: "fc8_plantvillage"
  param {
    lr_mult: 1
    decay_mult: 1
  }
  param {
    lr_mult: 2
    decay_mult: 0
  }
  inner_product_param {
    num_output: 38
    weight_filler {
      type: "gaussian"
      std: 0.01
    }
    bias_filler {
      type: "constant"
      value: 0
    }
  }
}
layer {
  name: "prob"
  type: "Softmax"
  bottom: "fc8_plantvillage"
  top: "prob"
  include {
    phase: TEST
  }
}
layer {
  name: "hdf5out"
  type: "HDF5Output"
  bottom: "prob"
  bottom: "label"
  include {
    phase: TEST
  }
  hdf5_output_param {
    file_name: "hdf5_dumps/iter_2052.h5"
  }
}
layer {
  name: "loss"
  type: "SoftmaxWithLoss"
  bottom: "fc8_plantvillage"
  bottom: "label"
  top: "loss"
}
layer {
  name: "accuracy"
  type: "Accuracy"
  bottom: "fc8_plantvillage"
  bottom: "label"
  top: "accuracy"
  include {
    phase: TEST
  }
}
I0403 12:45:01.519166 26683 layer_factory.hpp:77] Creating layer data
I0403 12:45:01.519803 26683 net.cpp:91] Creating Layer data
I0403 12:45:01.519834 26683 net.cpp:399] data -> data
I0403 12:45:01.519886 26683 net.cpp:399] data -> label
I0403 12:45:01.519925 26683 data_transformer.cpp:25] Loading mean file from: /home/mohanty/data/final_dataset/lmdb/color-20-80/mean.binaryproto
I0403 12:45:01.522846 26688 db_lmdb.cpp:38] Opened lmdb /home/mohanty/data/final_dataset/lmdb/color-20-80/test_db
I0403 12:45:01.534235 26683 data_layer.cpp:41] output data size: 100,3,227,227
I0403 12:45:01.664715 26683 net.cpp:141] Setting up data
I0403 12:45:01.664808 26683 net.cpp:148] Top shape: 100 3 227 227 (15458700)
I0403 12:45:01.664832 26683 net.cpp:148] Top shape: 100 (100)
I0403 12:45:01.664849 26683 net.cpp:156] Memory required for data: 61835200
I0403 12:45:01.664878 26683 layer_factory.hpp:77] Creating layer label_data_1_split
I0403 12:45:01.664904 26683 net.cpp:91] Creating Layer label_data_1_split
I0403 12:45:01.664922 26683 net.cpp:425] label_data_1_split <- label
I0403 12:45:01.664953 26683 net.cpp:399] label_data_1_split -> label_data_1_split_0
I0403 12:45:01.664981 26683 net.cpp:399] label_data_1_split -> label_data_1_split_1
I0403 12:45:01.665002 26683 net.cpp:399] label_data_1_split -> label_data_1_split_2
I0403 12:45:01.665068 26683 net.cpp:141] Setting up label_data_1_split
I0403 12:45:01.665093 26683 net.cpp:148] Top shape: 100 (100)
I0403 12:45:01.665112 26683 net.cpp:148] Top shape: 100 (100)
I0403 12:45:01.665127 26683 net.cpp:148] Top shape: 100 (100)
I0403 12:45:01.665143 26683 net.cpp:156] Memory required for data: 61836400
I0403 12:45:01.665158 26683 layer_factory.hpp:77] Creating layer conv1
I0403 12:45:01.665189 26683 net.cpp:91] Creating Layer conv1
I0403 12:45:01.665208 26683 net.cpp:425] conv1 <- data
I0403 12:45:01.665228 26683 net.cpp:399] conv1 -> conv1
I0403 12:45:01.812031 26683 net.cpp:141] Setting up conv1
I0403 12:45:01.812108 26683 net.cpp:148] Top shape: 100 96 55 55 (29040000)
I0403 12:45:01.812125 26683 net.cpp:156] Memory required for data: 177996400
I0403 12:45:01.812160 26683 layer_factory.hpp:77] Creating layer relu1
I0403 12:45:01.812191 26683 net.cpp:91] Creating Layer relu1
I0403 12:45:01.812211 26683 net.cpp:425] relu1 <- conv1
I0403 12:45:01.812232 26683 net.cpp:386] relu1 -> conv1 (in-place)
I0403 12:45:01.812489 26683 net.cpp:141] Setting up relu1
I0403 12:45:01.812515 26683 net.cpp:148] Top shape: 100 96 55 55 (29040000)
I0403 12:45:01.812531 26683 net.cpp:156] Memory required for data: 294156400
I0403 12:45:01.812582 26683 layer_factory.hpp:77] Creating layer norm1
I0403 12:45:01.812610 26683 net.cpp:91] Creating Layer norm1
I0403 12:45:01.812629 26683 net.cpp:425] norm1 <- conv1
I0403 12:45:01.812647 26683 net.cpp:399] norm1 -> norm1
I0403 12:45:01.812947 26683 net.cpp:141] Setting up norm1
I0403 12:45:01.812975 26683 net.cpp:148] Top shape: 100 96 55 55 (29040000)
I0403 12:45:01.812991 26683 net.cpp:156] Memory required for data: 410316400
I0403 12:45:01.813006 26683 layer_factory.hpp:77] Creating layer pool1
I0403 12:45:01.813030 26683 net.cpp:91] Creating Layer pool1
I0403 12:45:01.813046 26683 net.cpp:425] pool1 <- norm1
I0403 12:45:01.813065 26683 net.cpp:399] pool1 -> pool1
I0403 12:45:01.813133 26683 net.cpp:141] Setting up pool1
I0403 12:45:01.813158 26683 net.cpp:148] Top shape: 100 96 27 27 (6998400)
I0403 12:45:01.813174 26683 net.cpp:156] Memory required for data: 438310000
I0403 12:45:01.813189 26683 layer_factory.hpp:77] Creating layer conv2
I0403 12:45:01.813213 26683 net.cpp:91] Creating Layer conv2
I0403 12:45:01.813230 26683 net.cpp:425] conv2 <- pool1
I0403 12:45:01.813248 26683 net.cpp:399] conv2 -> conv2
I0403 12:45:01.828372 26683 net.cpp:141] Setting up conv2
I0403 12:45:01.828416 26683 net.cpp:148] Top shape: 100 256 27 27 (18662400)
I0403 12:45:01.828433 26683 net.cpp:156] Memory required for data: 512959600
I0403 12:45:01.828457 26683 layer_factory.hpp:77] Creating layer relu2
I0403 12:45:01.828482 26683 net.cpp:91] Creating Layer relu2
I0403 12:45:01.828500 26683 net.cpp:425] relu2 <- conv2
I0403 12:45:01.828518 26683 net.cpp:386] relu2 -> conv2 (in-place)
I0403 12:45:01.828800 26683 net.cpp:141] Setting up relu2
I0403 12:45:01.828830 26683 net.cpp:148] Top shape: 100 256 27 27 (18662400)
I0403 12:45:01.828848 26683 net.cpp:156] Memory required for data: 587609200
I0403 12:45:01.828866 26683 layer_factory.hpp:77] Creating layer norm2
I0403 12:45:01.828889 26683 net.cpp:91] Creating Layer norm2
I0403 12:45:01.828909 26683 net.cpp:425] norm2 <- conv2
I0403 12:45:01.828928 26683 net.cpp:399] norm2 -> norm2
I0403 12:45:01.829129 26683 net.cpp:141] Setting up norm2
I0403 12:45:01.829157 26683 net.cpp:148] Top shape: 100 256 27 27 (18662400)
I0403 12:45:01.829172 26683 net.cpp:156] Memory required for data: 662258800
I0403 12:45:01.829190 26683 layer_factory.hpp:77] Creating layer pool2
I0403 12:45:01.829210 26683 net.cpp:91] Creating Layer pool2
I0403 12:45:01.829227 26683 net.cpp:425] pool2 <- norm2
I0403 12:45:01.829244 26683 net.cpp:399] pool2 -> pool2
I0403 12:45:01.829319 26683 net.cpp:141] Setting up pool2
I0403 12:45:01.829345 26683 net.cpp:148] Top shape: 100 256 13 13 (4326400)
I0403 12:45:01.829361 26683 net.cpp:156] Memory required for data: 679564400
I0403 12:45:01.829378 26683 layer_factory.hpp:77] Creating layer conv3
I0403 12:45:01.829402 26683 net.cpp:91] Creating Layer conv3
I0403 12:45:01.829421 26683 net.cpp:425] conv3 <- pool2
I0403 12:45:01.829442 26683 net.cpp:399] conv3 -> conv3
I0403 12:45:01.868571 26683 net.cpp:141] Setting up conv3
I0403 12:45:01.868649 26683 net.cpp:148] Top shape: 100 384 13 13 (6489600)
I0403 12:45:01.868667 26683 net.cpp:156] Memory required for data: 705522800
I0403 12:45:01.868695 26683 layer_factory.hpp:77] Creating layer relu3
I0403 12:45:01.868719 26683 net.cpp:91] Creating Layer relu3
I0403 12:45:01.868738 26683 net.cpp:425] relu3 <- conv3
I0403 12:45:01.868758 26683 net.cpp:386] relu3 -> conv3 (in-place)
I0403 12:45:01.869050 26683 net.cpp:141] Setting up relu3
I0403 12:45:01.869081 26683 net.cpp:148] Top shape: 100 384 13 13 (6489600)
I0403 12:45:01.869097 26683 net.cpp:156] Memory required for data: 731481200
I0403 12:45:01.869113 26683 layer_factory.hpp:77] Creating layer conv4
I0403 12:45:01.869140 26683 net.cpp:91] Creating Layer conv4
I0403 12:45:01.869159 26683 net.cpp:425] conv4 <- conv3
I0403 12:45:01.869179 26683 net.cpp:399] conv4 -> conv4
I0403 12:45:01.899061 26683 net.cpp:141] Setting up conv4
I0403 12:45:01.899129 26683 net.cpp:148] Top shape: 100 384 13 13 (6489600)
I0403 12:45:01.899179 26683 net.cpp:156] Memory required for data: 757439600
I0403 12:45:01.899202 26683 layer_factory.hpp:77] Creating layer relu4
I0403 12:45:01.899226 26683 net.cpp:91] Creating Layer relu4
I0403 12:45:01.899245 26683 net.cpp:425] relu4 <- conv4
I0403 12:45:01.899271 26683 net.cpp:386] relu4 -> conv4 (in-place)
I0403 12:45:01.899564 26683 net.cpp:141] Setting up relu4
I0403 12:45:01.899591 26683 net.cpp:148] Top shape: 100 384 13 13 (6489600)
I0403 12:45:01.899607 26683 net.cpp:156] Memory required for data: 783398000
I0403 12:45:01.899623 26683 layer_factory.hpp:77] Creating layer conv5
I0403 12:45:01.899648 26683 net.cpp:91] Creating Layer conv5
I0403 12:45:01.899667 26683 net.cpp:425] conv5 <- conv4
I0403 12:45:01.899689 26683 net.cpp:399] conv5 -> conv5
I0403 12:45:01.920356 26683 net.cpp:141] Setting up conv5
I0403 12:45:01.920410 26683 net.cpp:148] Top shape: 100 256 13 13 (4326400)
I0403 12:45:01.920428 26683 net.cpp:156] Memory required for data: 800703600
I0403 12:45:01.920454 26683 layer_factory.hpp:77] Creating layer relu5
I0403 12:45:01.920480 26683 net.cpp:91] Creating Layer relu5
I0403 12:45:01.920500 26683 net.cpp:425] relu5 <- conv5
I0403 12:45:01.920521 26683 net.cpp:386] relu5 -> conv5 (in-place)
I0403 12:45:01.920806 26683 net.cpp:141] Setting up relu5
I0403 12:45:01.920840 26683 net.cpp:148] Top shape: 100 256 13 13 (4326400)
I0403 12:45:01.920857 26683 net.cpp:156] Memory required for data: 818009200
I0403 12:45:01.920873 26683 layer_factory.hpp:77] Creating layer pool5
I0403 12:45:01.920897 26683 net.cpp:91] Creating Layer pool5
I0403 12:45:01.920914 26683 net.cpp:425] pool5 <- conv5
I0403 12:45:01.920936 26683 net.cpp:399] pool5 -> pool5
I0403 12:45:01.920999 26683 net.cpp:141] Setting up pool5
I0403 12:45:01.921027 26683 net.cpp:148] Top shape: 100 256 6 6 (921600)
I0403 12:45:01.921043 26683 net.cpp:156] Memory required for data: 821695600
I0403 12:45:01.921059 26683 layer_factory.hpp:77] Creating layer fc6
I0403 12:45:01.921087 26683 net.cpp:91] Creating Layer fc6
I0403 12:45:01.921104 26683 net.cpp:425] fc6 <- pool5
I0403 12:45:01.921126 26683 net.cpp:399] fc6 -> fc6
I0403 12:45:03.482393 26683 net.cpp:141] Setting up fc6
I0403 12:45:03.482470 26683 net.cpp:148] Top shape: 100 4096 (409600)
I0403 12:45:03.482487 26683 net.cpp:156] Memory required for data: 823334000
I0403 12:45:03.482509 26683 layer_factory.hpp:77] Creating layer relu6
I0403 12:45:03.482535 26683 net.cpp:91] Creating Layer relu6
I0403 12:45:03.482554 26683 net.cpp:425] relu6 <- fc6
I0403 12:45:03.482574 26683 net.cpp:386] relu6 -> fc6 (in-place)
I0403 12:45:03.482796 26683 net.cpp:141] Setting up relu6
I0403 12:45:03.482822 26683 net.cpp:148] Top shape: 100 4096 (409600)
I0403 12:45:03.482837 26683 net.cpp:156] Memory required for data: 824972400
I0403 12:45:03.482852 26683 layer_factory.hpp:77] Creating layer drop6
I0403 12:45:03.482873 26683 net.cpp:91] Creating Layer drop6
I0403 12:45:03.482889 26683 net.cpp:425] drop6 <- fc6
I0403 12:45:03.482908 26683 net.cpp:386] drop6 -> fc6 (in-place)
I0403 12:45:03.482962 26683 net.cpp:141] Setting up drop6
I0403 12:45:03.482985 26683 net.cpp:148] Top shape: 100 4096 (409600)
I0403 12:45:03.483000 26683 net.cpp:156] Memory required for data: 826610800
I0403 12:45:03.483014 26683 layer_factory.hpp:77] Creating layer fc7
I0403 12:45:03.483037 26683 net.cpp:91] Creating Layer fc7
I0403 12:45:03.483054 26683 net.cpp:425] fc7 <- fc6
I0403 12:45:03.483072 26683 net.cpp:399] fc7 -> fc7
I0403 12:45:04.169291 26683 net.cpp:141] Setting up fc7
I0403 12:45:04.169370 26683 net.cpp:148] Top shape: 100 4096 (409600)
I0403 12:45:04.169389 26683 net.cpp:156] Memory required for data: 828249200
I0403 12:45:04.169410 26683 layer_factory.hpp:77] Creating layer relu7
I0403 12:45:04.169433 26683 net.cpp:91] Creating Layer relu7
I0403 12:45:04.169452 26683 net.cpp:425] relu7 <- fc7
I0403 12:45:04.169472 26683 net.cpp:386] relu7 -> fc7 (in-place)
I0403 12:45:04.169863 26683 net.cpp:141] Setting up relu7
I0403 12:45:04.169893 26683 net.cpp:148] Top shape: 100 4096 (409600)
I0403 12:45:04.169945 26683 net.cpp:156] Memory required for data: 829887600
I0403 12:45:04.169962 26683 layer_factory.hpp:77] Creating layer drop7
I0403 12:45:04.169983 26683 net.cpp:91] Creating Layer drop7
I0403 12:45:04.169999 26683 net.cpp:425] drop7 <- fc7
I0403 12:45:04.170017 26683 net.cpp:386] drop7 -> fc7 (in-place)
I0403 12:45:04.170063 26683 net.cpp:141] Setting up drop7
I0403 12:45:04.170086 26683 net.cpp:148] Top shape: 100 4096 (409600)
I0403 12:45:04.170101 26683 net.cpp:156] Memory required for data: 831526000
I0403 12:45:04.170117 26683 layer_factory.hpp:77] Creating layer fc8_plantvillage
I0403 12:45:04.170140 26683 net.cpp:91] Creating Layer fc8_plantvillage
I0403 12:45:04.170156 26683 net.cpp:425] fc8_plantvillage <- fc7
I0403 12:45:04.170174 26683 net.cpp:399] fc8_plantvillage -> fc8_plantvillage
I0403 12:45:04.176889 26683 net.cpp:141] Setting up fc8_plantvillage
I0403 12:45:04.176919 26683 net.cpp:148] Top shape: 100 38 (3800)
I0403 12:45:04.176936 26683 net.cpp:156] Memory required for data: 831541200
I0403 12:45:04.176955 26683 layer_factory.hpp:77] Creating layer fc8_plantvillage_fc8_plantvillage_0_split
I0403 12:45:04.176977 26683 net.cpp:91] Creating Layer fc8_plantvillage_fc8_plantvillage_0_split
I0403 12:45:04.176993 26683 net.cpp:425] fc8_plantvillage_fc8_plantvillage_0_split <- fc8_plantvillage
I0403 12:45:04.177012 26683 net.cpp:399] fc8_plantvillage_fc8_plantvillage_0_split -> fc8_plantvillage_fc8_plantvillage_0_split_0
I0403 12:45:04.177037 26683 net.cpp:399] fc8_plantvillage_fc8_plantvillage_0_split -> fc8_plantvillage_fc8_plantvillage_0_split_1
I0403 12:45:04.177057 26683 net.cpp:399] fc8_plantvillage_fc8_plantvillage_0_split -> fc8_plantvillage_fc8_plantvillage_0_split_2
I0403 12:45:04.177137 26683 net.cpp:141] Setting up fc8_plantvillage_fc8_plantvillage_0_split
I0403 12:45:04.177162 26683 net.cpp:148] Top shape: 100 38 (3800)
I0403 12:45:04.177180 26683 net.cpp:148] Top shape: 100 38 (3800)
I0403 12:45:04.177196 26683 net.cpp:148] Top shape: 100 38 (3800)
I0403 12:45:04.177211 26683 net.cpp:156] Memory required for data: 831586800
I0403 12:45:04.177225 26683 layer_factory.hpp:77] Creating layer prob
I0403 12:45:04.177248 26683 net.cpp:91] Creating Layer prob
I0403 12:45:04.177270 26683 net.cpp:425] prob <- fc8_plantvillage_fc8_plantvillage_0_split_0
I0403 12:45:04.177289 26683 net.cpp:399] prob -> prob
I0403 12:45:04.177513 26683 net.cpp:141] Setting up prob
I0403 12:45:04.177541 26683 net.cpp:148] Top shape: 100 38 (3800)
I0403 12:45:04.177559 26683 net.cpp:156] Memory required for data: 831602000
I0403 12:45:04.177575 26683 layer_factory.hpp:77] Creating layer hdf5out
I0403 12:45:04.177595 26683 net.cpp:91] Creating Layer hdf5out
I0403 12:45:04.177613 26683 net.cpp:425] hdf5out <- prob
I0403 12:45:04.177628 26683 net.cpp:425] hdf5out <- label_data_1_split_0
I0403 12:45:04.190070 26683 net.cpp:141] Setting up hdf5out
…
