…
I0403 12:19:47.708314 26097 net.cpp:313] The NetState phase (1) differed from the phase (0) specified by a rule in layer data
I0403 12:19:47.708628 26097 net.cpp:49] Initializing net from parameters: 
state {
  phase: TEST
}
layer {
  name: "data"
  type: "Data"
  top: "data"
  top: "label"
  include {
    phase: TEST
  }
  transform_param {
    crop_size: 227
    mean_file: "/home/mohanty/data/final_dataset/lmdb/color-20-80/mean.binaryproto"
  }
  data_param {
    source: "/home/mohanty/data/final_dataset/lmdb/color-20-80/test_db"
    batch_size: 100
    backend: LMDB
  }
}
layer {
  name: "conv1"
  type: "Convolution"
  bottom: "data"
  top: "conv1"
  param {
    lr_mult: 1
    decay_mult: 1
  }
  param {
    lr_mult: 2
    decay_mult: 0
  }
  convolution_param {
    num_output: 96
    kernel_size: 11
    stride: 4
    weight_filler {
      type: "gaussian"
      std: 0.01
    }
    bias_filler {
      type: "constant"
      value: 0
    }
  }
}
layer {
  name: "relu1"
  type: "ReLU"
  bottom: "conv1"
  top: "conv1"
}
layer {
  name: "norm1"
  type: "LRN"
  bottom: "conv1"
  top: "norm1"
  lrn_param {
    local_size: 5
    alpha: 0.0001
    beta: 0.75
  }
}
layer {
  name: "pool1"
  type: "Pooling"
  bottom: "norm1"
  top: "pool1"
  pooling_param {
    pool: MAX
    kernel_size: 3
    stride: 2
  }
}
layer {
  name: "conv2"
  type: "Convolution"
  bottom: "pool1"
  top: "conv2"
  param {
    lr_mult: 1
    decay_mult: 1
  }
  param {
    lr_mult: 2
    decay_mult: 0
  }
  convolution_param {
    num_output: 256
    pad: 2
    kernel_size: 5
    group: 2
    weight_filler {
      type: "gaussian"
      std: 0.01
    }
    bias_filler {
      type: "constant"
      value: 0.1
    }
  }
}
layer {
  name: "relu2"
  type: "ReLU"
  bottom: "conv2"
  top: "conv2"
}
layer {
  name: "norm2"
  type: "LRN"
  bottom: "conv2"
  top: "norm2"
  lrn_param {
    local_size: 5
    alpha: 0.0001
    beta: 0.75
  }
}
layer {
  name: "pool2"
  type: "Pooling"
  bottom: "norm2"
  top: "pool2"
  pooling_param {
    pool: MAX
    kernel_size: 3
    stride: 2
  }
}
layer {
  name: "conv3"
  type: "Convolution"
  bottom: "pool2"
  top: "conv3"
  param {
    lr_mult: 1
    decay_mult: 1
  }
  param {
    lr_mult: 2
    decay_mult: 0
  }
  convolution_param {
    num_output: 384
    pad: 1
    kernel_size: 3
    weight_filler {
      type: "gaussian"
      std: 0.01
    }
    bias_filler {
      type: "constant"
      value: 0
    }
  }
}
layer {
  name: "relu3"
  type: "ReLU"
  bottom: "conv3"
  top: "conv3"
}
layer {
  name: "conv4"
  type: "Convolution"
  bottom: "conv3"
  top: "conv4"
  param {
    lr_mult: 1
    decay_mult: 1
  }
  param {
    lr_mult: 2
    decay_mult: 0
  }
  convolution_param {
    num_output: 384
    pad: 1
    kernel_size: 3
    group: 2
    weight_filler {
      type: "gaussian"
      std: 0.01
    }
    bias_filler {
      type: "constant"
      value: 0.1
    }
  }
}
layer {
  name: "relu4"
  type: "ReLU"
  bottom: "conv4"
  top: "conv4"
}
layer {
  name: "conv5"
  type: "Convolution"
  bottom: "conv4"
  top: "conv5"
  param {
    lr_mult: 1
    decay_mult: 1
  }
  param {
    lr_mult: 2
    decay_mult: 0
  }
  convolution_param {
    num_output: 256
    pad: 1
    kernel_size: 3
    group: 2
    weight_filler {
      type: "gaussian"
      std: 0.01
    }
    bias_filler {
      type: "constant"
      value: 0.1
    }
  }
}
layer {
  name: "relu5"
  type: "ReLU"
  bottom: "conv5"
  top: "conv5"
}
layer {
  name: "pool5"
  type: "Pooling"
  bottom: "conv5"
  top: "pool5"
  pooling_param {
    pool: MAX
    kernel_size: 3
    stride: 2
  }
}
layer {
  name: "fc6"
  type: "InnerProduct"
  bottom: "pool5"
  top: "fc6"
  param {
    lr_mult: 1
    decay_mult: 1
  }
  param {
    lr_mult: 2
    decay_mult: 0
  }
  inner_product_param {
    num_output: 4096
    weight_filler {
      type: "gaussian"
      std: 0.005
    }
    bias_filler {
      type: "constant"
      value: 0.1
    }
  }
}
layer {
  name: "relu6"
  type: "ReLU"
  bottom: "fc6"
  top: "fc6"
}
layer {
  name: "drop6"
  type: "Dropout"
  bottom: "fc6"
  top: "fc6"
  dropout_param {
    dropout_ratio: 0.5
  }
}
layer {
  name: "fc7"
  type: "InnerProduct"
  bottom: "fc6"
  top: "fc7"
  param {
    lr_mult: 1
    decay_mult: 1
  }
  param {
    lr_mult: 2
    decay_mult: 0
  }
  inner_product_param {
    num_output: 4096
    weight_filler {
      type: "gaussian"
      std: 0.005
    }
    bias_filler {
      type: "constant"
      value: 0.1
    }
  }
}
layer {
  name: "relu7"
  type: "ReLU"
  bottom: "fc7"
  top: "fc7"
}
layer {
  name: "drop7"
  type: "Dropout"
  bottom: "fc7"
  top: "fc7"
  dropout_param {
    dropout_ratio: 0.5
  }
}
layer {
  name: "fc8_plantvillage"
  type: "InnerProduct"
  bottom: "fc7"
  top: "fc8_plantvillage"
  param {
    lr_mult: 1
    decay_mult: 1
  }
  param {
    lr_mult: 2
    decay_mult: 0
  }
  inner_product_param {
    num_output: 38
    weight_filler {
      type: "gaussian"
      std: 0.01
    }
    bias_filler {
      type: "constant"
      value: 0
    }
  }
}
layer {
  name: "prob"
  type: "Softmax"
  bottom: "fc8_plantvillage"
  top: "prob"
  include {
    phase: TEST
  }
}
layer {
  name: "hdf5out"
  type: "HDF5Output"
  bottom: "prob"
  bottom: "label"
  include {
    phase: TEST
  }
  hdf5_output_param {
    file_name: "hdf5_dumps/iter_216.h5"
  }
}
layer {
  name: "loss"
  type: "SoftmaxWithLoss"
  bottom: "fc8_plantvillage"
  bottom: "label"
  top: "loss"
}
layer {
  name: "accuracy"
  type: "Accuracy"
  bottom: "fc8_plantvillage"
  bottom: "label"
  top: "accuracy"
  include {
    phase: TEST
  }
}
I0403 12:19:47.709234 26097 layer_factory.hpp:77] Creating layer data
I0403 12:19:47.709908 26097 net.cpp:91] Creating Layer data
I0403 12:19:47.709939 26097 net.cpp:399] data -> data
I0403 12:19:47.709995 26097 net.cpp:399] data -> label
I0403 12:19:47.710034 26097 data_transformer.cpp:25] Loading mean file from: /home/mohanty/data/final_dataset/lmdb/color-20-80/mean.binaryproto
I0403 12:19:47.712426 26102 db_lmdb.cpp:38] Opened lmdb /home/mohanty/data/final_dataset/lmdb/color-20-80/test_db
I0403 12:19:47.724835 26097 data_layer.cpp:41] output data size: 100,3,227,227
I0403 12:19:47.861516 26097 net.cpp:141] Setting up data
I0403 12:19:47.861614 26097 net.cpp:148] Top shape: 100 3 227 227 (15458700)
I0403 12:19:47.861639 26097 net.cpp:148] Top shape: 100 (100)
I0403 12:19:47.861655 26097 net.cpp:156] Memory required for data: 61835200
I0403 12:19:47.861685 26097 layer_factory.hpp:77] Creating layer label_data_1_split
I0403 12:19:47.861712 26097 net.cpp:91] Creating Layer label_data_1_split
I0403 12:19:47.861732 26097 net.cpp:425] label_data_1_split <- label
I0403 12:19:47.861765 26097 net.cpp:399] label_data_1_split -> label_data_1_split_0
I0403 12:19:47.861793 26097 net.cpp:399] label_data_1_split -> label_data_1_split_1
I0403 12:19:47.861815 26097 net.cpp:399] label_data_1_split -> label_data_1_split_2
I0403 12:19:47.861883 26097 net.cpp:141] Setting up label_data_1_split
I0403 12:19:47.861909 26097 net.cpp:148] Top shape: 100 (100)
I0403 12:19:47.861927 26097 net.cpp:148] Top shape: 100 (100)
I0403 12:19:47.861946 26097 net.cpp:148] Top shape: 100 (100)
I0403 12:19:47.861961 26097 net.cpp:156] Memory required for data: 61836400
I0403 12:19:47.861977 26097 layer_factory.hpp:77] Creating layer conv1
I0403 12:19:47.862010 26097 net.cpp:91] Creating Layer conv1
I0403 12:19:47.862031 26097 net.cpp:425] conv1 <- data
I0403 12:19:47.862051 26097 net.cpp:399] conv1 -> conv1
I0403 12:19:48.013785 26097 net.cpp:141] Setting up conv1
I0403 12:19:48.013865 26097 net.cpp:148] Top shape: 100 96 55 55 (29040000)
I0403 12:19:48.013885 26097 net.cpp:156] Memory required for data: 177996400
I0403 12:19:48.013918 26097 layer_factory.hpp:77] Creating layer relu1
I0403 12:19:48.013948 26097 net.cpp:91] Creating Layer relu1
I0403 12:19:48.013968 26097 net.cpp:425] relu1 <- conv1
I0403 12:19:48.013989 26097 net.cpp:386] relu1 -> conv1 (in-place)
I0403 12:19:48.014274 26097 net.cpp:141] Setting up relu1
I0403 12:19:48.014304 26097 net.cpp:148] Top shape: 100 96 55 55 (29040000)
I0403 12:19:48.014320 26097 net.cpp:156] Memory required for data: 294156400
I0403 12:19:48.014370 26097 layer_factory.hpp:77] Creating layer norm1
I0403 12:19:48.014401 26097 net.cpp:91] Creating Layer norm1
I0403 12:19:48.014421 26097 net.cpp:425] norm1 <- conv1
I0403 12:19:48.014441 26097 net.cpp:399] norm1 -> norm1
I0403 12:19:48.014835 26097 net.cpp:141] Setting up norm1
I0403 12:19:48.014866 26097 net.cpp:148] Top shape: 100 96 55 55 (29040000)
I0403 12:19:48.014883 26097 net.cpp:156] Memory required for data: 410316400
I0403 12:19:48.014899 26097 layer_factory.hpp:77] Creating layer pool1
I0403 12:19:48.014924 26097 net.cpp:91] Creating Layer pool1
I0403 12:19:48.014942 26097 net.cpp:425] pool1 <- norm1
I0403 12:19:48.014963 26097 net.cpp:399] pool1 -> pool1
I0403 12:19:48.015033 26097 net.cpp:141] Setting up pool1
I0403 12:19:48.015059 26097 net.cpp:148] Top shape: 100 96 27 27 (6998400)
I0403 12:19:48.015075 26097 net.cpp:156] Memory required for data: 438310000
I0403 12:19:48.015091 26097 layer_factory.hpp:77] Creating layer conv2
I0403 12:19:48.015118 26097 net.cpp:91] Creating Layer conv2
I0403 12:19:48.015136 26097 net.cpp:425] conv2 <- pool1
I0403 12:19:48.015156 26097 net.cpp:399] conv2 -> conv2
I0403 12:19:48.030836 26097 net.cpp:141] Setting up conv2
I0403 12:19:48.030957 26097 net.cpp:148] Top shape: 100 256 27 27 (18662400)
I0403 12:19:48.030982 26097 net.cpp:156] Memory required for data: 512959600
I0403 12:19:48.031007 26097 layer_factory.hpp:77] Creating layer relu2
I0403 12:19:48.031028 26097 net.cpp:91] Creating Layer relu2
I0403 12:19:48.031045 26097 net.cpp:425] relu2 <- conv2
I0403 12:19:48.031066 26097 net.cpp:386] relu2 -> conv2 (in-place)
I0403 12:19:48.031373 26097 net.cpp:141] Setting up relu2
I0403 12:19:48.031401 26097 net.cpp:148] Top shape: 100 256 27 27 (18662400)
I0403 12:19:48.031417 26097 net.cpp:156] Memory required for data: 587609200
I0403 12:19:48.031435 26097 layer_factory.hpp:77] Creating layer norm2
I0403 12:19:48.031461 26097 net.cpp:91] Creating Layer norm2
I0403 12:19:48.031478 26097 net.cpp:425] norm2 <- conv2
I0403 12:19:48.031497 26097 net.cpp:399] norm2 -> norm2
I0403 12:19:48.031718 26097 net.cpp:141] Setting up norm2
I0403 12:19:48.031747 26097 net.cpp:148] Top shape: 100 256 27 27 (18662400)
I0403 12:19:48.031765 26097 net.cpp:156] Memory required for data: 662258800
I0403 12:19:48.031782 26097 layer_factory.hpp:77] Creating layer pool2
I0403 12:19:48.031801 26097 net.cpp:91] Creating Layer pool2
I0403 12:19:48.031817 26097 net.cpp:425] pool2 <- norm2
I0403 12:19:48.031837 26097 net.cpp:399] pool2 -> pool2
I0403 12:19:48.031896 26097 net.cpp:141] Setting up pool2
I0403 12:19:48.031924 26097 net.cpp:148] Top shape: 100 256 13 13 (4326400)
I0403 12:19:48.031941 26097 net.cpp:156] Memory required for data: 679564400
I0403 12:19:48.031960 26097 layer_factory.hpp:77] Creating layer conv3
I0403 12:19:48.031985 26097 net.cpp:91] Creating Layer conv3
I0403 12:19:48.032002 26097 net.cpp:425] conv3 <- pool2
I0403 12:19:48.032026 26097 net.cpp:399] conv3 -> conv3
I0403 12:19:48.080606 26097 net.cpp:141] Setting up conv3
I0403 12:19:48.080687 26097 net.cpp:148] Top shape: 100 384 13 13 (6489600)
I0403 12:19:48.080704 26097 net.cpp:156] Memory required for data: 705522800
I0403 12:19:48.080732 26097 layer_factory.hpp:77] Creating layer relu3
I0403 12:19:48.080757 26097 net.cpp:91] Creating Layer relu3
I0403 12:19:48.080775 26097 net.cpp:425] relu3 <- conv3
I0403 12:19:48.080797 26097 net.cpp:386] relu3 -> conv3 (in-place)
I0403 12:19:48.081081 26097 net.cpp:141] Setting up relu3
I0403 12:19:48.081111 26097 net.cpp:148] Top shape: 100 384 13 13 (6489600)
I0403 12:19:48.081127 26097 net.cpp:156] Memory required for data: 731481200
I0403 12:19:48.081143 26097 layer_factory.hpp:77] Creating layer conv4
I0403 12:19:48.081171 26097 net.cpp:91] Creating Layer conv4
I0403 12:19:48.081190 26097 net.cpp:425] conv4 <- conv3
I0403 12:19:48.081212 26097 net.cpp:399] conv4 -> conv4
I0403 12:19:48.111845 26097 net.cpp:141] Setting up conv4
I0403 12:19:48.111903 26097 net.cpp:148] Top shape: 100 384 13 13 (6489600)
I0403 12:19:48.111953 26097 net.cpp:156] Memory required for data: 757439600
I0403 12:19:48.111976 26097 layer_factory.hpp:77] Creating layer relu4
I0403 12:19:48.111999 26097 net.cpp:91] Creating Layer relu4
I0403 12:19:48.112018 26097 net.cpp:425] relu4 <- conv4
I0403 12:19:48.112038 26097 net.cpp:386] relu4 -> conv4 (in-place)
I0403 12:19:48.112344 26097 net.cpp:141] Setting up relu4
I0403 12:19:48.112376 26097 net.cpp:148] Top shape: 100 384 13 13 (6489600)
I0403 12:19:48.112395 26097 net.cpp:156] Memory required for data: 783398000
I0403 12:19:48.112411 26097 layer_factory.hpp:77] Creating layer conv5
I0403 12:19:48.112438 26097 net.cpp:91] Creating Layer conv5
I0403 12:19:48.112457 26097 net.cpp:425] conv5 <- conv4
I0403 12:19:48.112478 26097 net.cpp:399] conv5 -> conv5
I0403 12:19:48.133256 26097 net.cpp:141] Setting up conv5
I0403 12:19:48.133313 26097 net.cpp:148] Top shape: 100 256 13 13 (4326400)
I0403 12:19:48.133332 26097 net.cpp:156] Memory required for data: 800703600
I0403 12:19:48.133358 26097 layer_factory.hpp:77] Creating layer relu5
I0403 12:19:48.133380 26097 net.cpp:91] Creating Layer relu5
I0403 12:19:48.133399 26097 net.cpp:425] relu5 <- conv5
I0403 12:19:48.133420 26097 net.cpp:386] relu5 -> conv5 (in-place)
I0403 12:19:48.133708 26097 net.cpp:141] Setting up relu5
I0403 12:19:48.133738 26097 net.cpp:148] Top shape: 100 256 13 13 (4326400)
I0403 12:19:48.133754 26097 net.cpp:156] Memory required for data: 818009200
I0403 12:19:48.133770 26097 layer_factory.hpp:77] Creating layer pool5
I0403 12:19:48.133796 26097 net.cpp:91] Creating Layer pool5
I0403 12:19:48.133813 26097 net.cpp:425] pool5 <- conv5
I0403 12:19:48.133832 26097 net.cpp:399] pool5 -> pool5
I0403 12:19:48.133894 26097 net.cpp:141] Setting up pool5
I0403 12:19:48.133919 26097 net.cpp:148] Top shape: 100 256 6 6 (921600)
I0403 12:19:48.133934 26097 net.cpp:156] Memory required for data: 821695600
I0403 12:19:48.133950 26097 layer_factory.hpp:77] Creating layer fc6
I0403 12:19:48.133978 26097 net.cpp:91] Creating Layer fc6
I0403 12:19:48.133996 26097 net.cpp:425] fc6 <- pool5
I0403 12:19:48.134017 26097 net.cpp:399] fc6 -> fc6
I0403 12:19:49.747520 26097 net.cpp:141] Setting up fc6
I0403 12:19:49.747565 26097 net.cpp:148] Top shape: 100 4096 (409600)
I0403 12:19:49.747586 26097 net.cpp:156] Memory required for data: 823334000
I0403 12:19:49.747607 26097 layer_factory.hpp:77] Creating layer relu6
I0403 12:19:49.747632 26097 net.cpp:91] Creating Layer relu6
I0403 12:19:49.747648 26097 net.cpp:425] relu6 <- fc6
I0403 12:19:49.747668 26097 net.cpp:386] relu6 -> fc6 (in-place)
I0403 12:19:49.747885 26097 net.cpp:141] Setting up relu6
I0403 12:19:49.747913 26097 net.cpp:148] Top shape: 100 4096 (409600)
I0403 12:19:49.747930 26097 net.cpp:156] Memory required for data: 824972400
I0403 12:19:49.747946 26097 layer_factory.hpp:77] Creating layer drop6
I0403 12:19:49.747966 26097 net.cpp:91] Creating Layer drop6
I0403 12:19:49.747982 26097 net.cpp:425] drop6 <- fc6
I0403 12:19:49.748002 26097 net.cpp:386] drop6 -> fc6 (in-place)
I0403 12:19:49.748052 26097 net.cpp:141] Setting up drop6
I0403 12:19:49.748078 26097 net.cpp:148] Top shape: 100 4096 (409600)
I0403 12:19:49.748093 26097 net.cpp:156] Memory required for data: 826610800
I0403 12:19:49.748108 26097 layer_factory.hpp:77] Creating layer fc7
I0403 12:19:49.748131 26097 net.cpp:91] Creating Layer fc7
I0403 12:19:49.748148 26097 net.cpp:425] fc7 <- fc6
I0403 12:19:49.748169 26097 net.cpp:399] fc7 -> fc7
I0403 12:19:50.461323 26097 net.cpp:141] Setting up fc7
I0403 12:19:50.461365 26097 net.cpp:148] Top shape: 100 4096 (409600)
I0403 12:19:50.461382 26097 net.cpp:156] Memory required for data: 828249200
I0403 12:19:50.461405 26097 layer_factory.hpp:77] Creating layer relu7
I0403 12:19:50.461427 26097 net.cpp:91] Creating Layer relu7
I0403 12:19:50.461444 26097 net.cpp:425] relu7 <- fc7
I0403 12:19:50.461464 26097 net.cpp:386] relu7 -> fc7 (in-place)
I0403 12:19:50.461853 26097 net.cpp:141] Setting up relu7
I0403 12:19:50.461881 26097 net.cpp:148] Top shape: 100 4096 (409600)
I0403 12:19:50.461928 26097 net.cpp:156] Memory required for data: 829887600
I0403 12:19:50.461946 26097 layer_factory.hpp:77] Creating layer drop7
I0403 12:19:50.461966 26097 net.cpp:91] Creating Layer drop7
I0403 12:19:50.461982 26097 net.cpp:425] drop7 <- fc7
I0403 12:19:50.461999 26097 net.cpp:386] drop7 -> fc7 (in-place)
I0403 12:19:50.462044 26097 net.cpp:141] Setting up drop7
I0403 12:19:50.462069 26097 net.cpp:148] Top shape: 100 4096 (409600)
I0403 12:19:50.462085 26097 net.cpp:156] Memory required for data: 831526000
I0403 12:19:50.462100 26097 layer_factory.hpp:77] Creating layer fc8_plantvillage
I0403 12:19:50.462122 26097 net.cpp:91] Creating Layer fc8_plantvillage
I0403 12:19:50.462139 26097 net.cpp:425] fc8_plantvillage <- fc7
I0403 12:19:50.462158 26097 net.cpp:399] fc8_plantvillage -> fc8_plantvillage
I0403 12:19:50.469070 26097 net.cpp:141] Setting up fc8_plantvillage
I0403 12:19:50.469099 26097 net.cpp:148] Top shape: 100 38 (3800)
I0403 12:19:50.469115 26097 net.cpp:156] Memory required for data: 831541200
I0403 12:19:50.469133 26097 layer_factory.hpp:77] Creating layer fc8_plantvillage_fc8_plantvillage_0_split
I0403 12:19:50.469152 26097 net.cpp:91] Creating Layer fc8_plantvillage_fc8_plantvillage_0_split
I0403 12:19:50.469168 26097 net.cpp:425] fc8_plantvillage_fc8_plantvillage_0_split <- fc8_plantvillage
I0403 12:19:50.469188 26097 net.cpp:399] fc8_plantvillage_fc8_plantvillage_0_split -> fc8_plantvillage_fc8_plantvillage_0_split_0
I0403 12:19:50.469208 26097 net.cpp:399] fc8_plantvillage_fc8_plantvillage_0_split -> fc8_plantvillage_fc8_plantvillage_0_split_1
I0403 12:19:50.469228 26097 net.cpp:399] fc8_plantvillage_fc8_plantvillage_0_split -> fc8_plantvillage_fc8_plantvillage_0_split_2
I0403 12:19:50.469308 26097 net.cpp:141] Setting up fc8_plantvillage_fc8_plantvillage_0_split
I0403 12:19:50.469334 26097 net.cpp:148] Top shape: 100 38 (3800)
I0403 12:19:50.469352 26097 net.cpp:148] Top shape: 100 38 (3800)
I0403 12:19:50.469367 26097 net.cpp:148] Top shape: 100 38 (3800)
I0403 12:19:50.469382 26097 net.cpp:156] Memory required for data: 831586800
I0403 12:19:50.469396 26097 layer_factory.hpp:77] Creating layer prob
I0403 12:19:50.469414 26097 net.cpp:91] Creating Layer prob
I0403 12:19:50.469429 26097 net.cpp:425] prob <- fc8_plantvillage_fc8_plantvillage_0_split_0
I0403 12:19:50.469447 26097 net.cpp:399] prob -> prob
I0403 12:19:50.469665 26097 net.cpp:141] Setting up prob
I0403 12:19:50.469707 26097 net.cpp:148] Top shape: 100 38 (3800)
I0403 12:19:50.469725 26097 net.cpp:156] Memory required for data: 831602000
I0403 12:19:50.469740 26097 layer_factory.hpp:77] Creating layer hdf5out
I0403 12:19:50.469759 26097 net.cpp:91] Creating Layer hdf5out
I0403 12:19:50.469775 26097 net.cpp:425] hdf5out <- prob
I0403 12:19:50.469792 26097 net.cpp:425] hdf5out <- label_data_1_split_0
I0403 12:19:50.491720 26097 net.cpp:141] Setting up hdf5out
…
