…
I0403 12:53:54.460191 27006 net.cpp:313] The NetState phase (1) differed from the phase (0) specified by a rule in layer data
I0403 12:53:54.460521 27006 net.cpp:49] Initializing net from parameters: 
state {
  phase: TEST
}
layer {
  name: "data"
  type: "Data"
  top: "data"
  top: "label"
  include {
    phase: TEST
  }
  transform_param {
    crop_size: 227
    mean_file: "/home/mohanty/data/final_dataset/lmdb/color-20-80/mean.binaryproto"
  }
  data_param {
    source: "/home/mohanty/data/final_dataset/lmdb/color-20-80/test_db"
    batch_size: 100
    backend: LMDB
  }
}
layer {
  name: "conv1"
  type: "Convolution"
  bottom: "data"
  top: "conv1"
  param {
    lr_mult: 1
    decay_mult: 1
  }
  param {
    lr_mult: 2
    decay_mult: 0
  }
  convolution_param {
    num_output: 96
    kernel_size: 11
    stride: 4
    weight_filler {
      type: "gaussian"
      std: 0.01
    }
    bias_filler {
      type: "constant"
      value: 0
    }
  }
}
layer {
  name: "relu1"
  type: "ReLU"
  bottom: "conv1"
  top: "conv1"
}
layer {
  name: "norm1"
  type: "LRN"
  bottom: "conv1"
  top: "norm1"
  lrn_param {
    local_size: 5
    alpha: 0.0001
    beta: 0.75
  }
}
layer {
  name: "pool1"
  type: "Pooling"
  bottom: "norm1"
  top: "pool1"
  pooling_param {
    pool: MAX
    kernel_size: 3
    stride: 2
  }
}
layer {
  name: "conv2"
  type: "Convolution"
  bottom: "pool1"
  top: "conv2"
  param {
    lr_mult: 1
    decay_mult: 1
  }
  param {
    lr_mult: 2
    decay_mult: 0
  }
  convolution_param {
    num_output: 256
    pad: 2
    kernel_size: 5
    group: 2
    weight_filler {
      type: "gaussian"
      std: 0.01
    }
    bias_filler {
      type: "constant"
      value: 0.1
    }
  }
}
layer {
  name: "relu2"
  type: "ReLU"
  bottom: "conv2"
  top: "conv2"
}
layer {
  name: "norm2"
  type: "LRN"
  bottom: "conv2"
  top: "norm2"
  lrn_param {
    local_size: 5
    alpha: 0.0001
    beta: 0.75
  }
}
layer {
  name: "pool2"
  type: "Pooling"
  bottom: "norm2"
  top: "pool2"
  pooling_param {
    pool: MAX
    kernel_size: 3
    stride: 2
  }
}
layer {
  name: "conv3"
  type: "Convolution"
  bottom: "pool2"
  top: "conv3"
  param {
    lr_mult: 1
    decay_mult: 1
  }
  param {
    lr_mult: 2
    decay_mult: 0
  }
  convolution_param {
    num_output: 384
    pad: 1
    kernel_size: 3
    weight_filler {
      type: "gaussian"
      std: 0.01
    }
    bias_filler {
      type: "constant"
      value: 0
    }
  }
}
layer {
  name: "relu3"
  type: "ReLU"
  bottom: "conv3"
  top: "conv3"
}
layer {
  name: "conv4"
  type: "Convolution"
  bottom: "conv3"
  top: "conv4"
  param {
    lr_mult: 1
    decay_mult: 1
  }
  param {
    lr_mult: 2
    decay_mult: 0
  }
  convolution_param {
    num_output: 384
    pad: 1
    kernel_size: 3
    group: 2
    weight_filler {
      type: "gaussian"
      std: 0.01
    }
    bias_filler {
      type: "constant"
      value: 0.1
    }
  }
}
layer {
  name: "relu4"
  type: "ReLU"
  bottom: "conv4"
  top: "conv4"
}
layer {
  name: "conv5"
  type: "Convolution"
  bottom: "conv4"
  top: "conv5"
  param {
    lr_mult: 1
    decay_mult: 1
  }
  param {
    lr_mult: 2
    decay_mult: 0
  }
  convolution_param {
    num_output: 256
    pad: 1
    kernel_size: 3
    group: 2
    weight_filler {
      type: "gaussian"
      std: 0.01
    }
    bias_filler {
      type: "constant"
      value: 0.1
    }
  }
}
layer {
  name: "relu5"
  type: "ReLU"
  bottom: "conv5"
  top: "conv5"
}
layer {
  name: "pool5"
  type: "Pooling"
  bottom: "conv5"
  top: "pool5"
  pooling_param {
    pool: MAX
    kernel_size: 3
    stride: 2
  }
}
layer {
  name: "fc6"
  type: "InnerProduct"
  bottom: "pool5"
  top: "fc6"
  param {
    lr_mult: 1
    decay_mult: 1
  }
  param {
    lr_mult: 2
    decay_mult: 0
  }
  inner_product_param {
    num_output: 4096
    weight_filler {
      type: "gaussian"
      std: 0.005
    }
    bias_filler {
      type: "constant"
      value: 0.1
    }
  }
}
layer {
  name: "relu6"
  type: "ReLU"
  bottom: "fc6"
  top: "fc6"
}
layer {
  name: "drop6"
  type: "Dropout"
  bottom: "fc6"
  top: "fc6"
  dropout_param {
    dropout_ratio: 0.5
  }
}
layer {
  name: "fc7"
  type: "InnerProduct"
  bottom: "fc6"
  top: "fc7"
  param {
    lr_mult: 1
    decay_mult: 1
  }
  param {
    lr_mult: 2
    decay_mult: 0
  }
  inner_product_param {
    num_output: 4096
    weight_filler {
      type: "gaussian"
      std: 0.005
    }
    bias_filler {
      type: "constant"
      value: 0.1
    }
  }
}
layer {
  name: "relu7"
  type: "ReLU"
  bottom: "fc7"
  top: "fc7"
}
layer {
  name: "drop7"
  type: "Dropout"
  bottom: "fc7"
  top: "fc7"
  dropout_param {
    dropout_ratio: 0.5
  }
}
layer {
  name: "fc8_plantvillage"
  type: "InnerProduct"
  bottom: "fc7"
  top: "fc8_plantvillage"
  param {
    lr_mult: 1
    decay_mult: 1
  }
  param {
    lr_mult: 2
    decay_mult: 0
  }
  inner_product_param {
    num_output: 38
    weight_filler {
      type: "gaussian"
      std: 0.01
    }
    bias_filler {
      type: "constant"
      value: 0
    }
  }
}
layer {
  name: "prob"
  type: "Softmax"
  bottom: "fc8_plantvillage"
  top: "prob"
  include {
    phase: TEST
  }
}
layer {
  name: "hdf5out"
  type: "HDF5Output"
  bottom: "prob"
  bottom: "label"
  include {
    phase: TEST
  }
  hdf5_output_param {
    file_name: "hdf5_dumps/iter_2700.h5"
  }
}
layer {
  name: "loss"
  type: "SoftmaxWithLoss"
  bottom: "fc8_plantvillage"
  bottom: "label"
  top: "loss"
}
layer {
  name: "accuracy"
  type: "Accuracy"
  bottom: "fc8_plantvillage"
  bottom: "label"
  top: "accuracy"
  include {
    phase: TEST
  }
}
I0403 12:53:54.461110 27006 layer_factory.hpp:77] Creating layer data
I0403 12:53:54.461774 27006 net.cpp:91] Creating Layer data
I0403 12:53:54.461810 27006 net.cpp:399] data -> data
I0403 12:53:54.461863 27006 net.cpp:399] data -> label
I0403 12:53:54.461902 27006 data_transformer.cpp:25] Loading mean file from: /home/mohanty/data/final_dataset/lmdb/color-20-80/mean.binaryproto
I0403 12:53:54.465572 27008 db_lmdb.cpp:38] Opened lmdb /home/mohanty/data/final_dataset/lmdb/color-20-80/test_db
I0403 12:53:54.476464 27006 data_layer.cpp:41] output data size: 100,3,227,227
I0403 12:53:54.612865 27006 net.cpp:141] Setting up data
I0403 12:53:54.612943 27006 net.cpp:148] Top shape: 100 3 227 227 (15458700)
I0403 12:53:54.612968 27006 net.cpp:148] Top shape: 100 (100)
I0403 12:53:54.612985 27006 net.cpp:156] Memory required for data: 61835200
I0403 12:53:54.613013 27006 layer_factory.hpp:77] Creating layer label_data_1_split
I0403 12:53:54.613041 27006 net.cpp:91] Creating Layer label_data_1_split
I0403 12:53:54.613060 27006 net.cpp:425] label_data_1_split <- label
I0403 12:53:54.613092 27006 net.cpp:399] label_data_1_split -> label_data_1_split_0
I0403 12:53:54.613121 27006 net.cpp:399] label_data_1_split -> label_data_1_split_1
I0403 12:53:54.613143 27006 net.cpp:399] label_data_1_split -> label_data_1_split_2
I0403 12:53:54.613209 27006 net.cpp:141] Setting up label_data_1_split
I0403 12:53:54.613234 27006 net.cpp:148] Top shape: 100 (100)
I0403 12:53:54.613251 27006 net.cpp:148] Top shape: 100 (100)
I0403 12:53:54.613270 27006 net.cpp:148] Top shape: 100 (100)
I0403 12:53:54.613288 27006 net.cpp:156] Memory required for data: 61836400
I0403 12:53:54.613306 27006 layer_factory.hpp:77] Creating layer conv1
I0403 12:53:54.613338 27006 net.cpp:91] Creating Layer conv1
I0403 12:53:54.613358 27006 net.cpp:425] conv1 <- data
I0403 12:53:54.613379 27006 net.cpp:399] conv1 -> conv1
I0403 12:53:54.763731 27006 net.cpp:141] Setting up conv1
I0403 12:53:54.763803 27006 net.cpp:148] Top shape: 100 96 55 55 (29040000)
I0403 12:53:54.763821 27006 net.cpp:156] Memory required for data: 177996400
I0403 12:53:54.763854 27006 layer_factory.hpp:77] Creating layer relu1
I0403 12:53:54.763883 27006 net.cpp:91] Creating Layer relu1
I0403 12:53:54.763903 27006 net.cpp:425] relu1 <- conv1
I0403 12:53:54.763923 27006 net.cpp:386] relu1 -> conv1 (in-place)
I0403 12:53:54.764186 27006 net.cpp:141] Setting up relu1
I0403 12:53:54.764216 27006 net.cpp:148] Top shape: 100 96 55 55 (29040000)
I0403 12:53:54.764232 27006 net.cpp:156] Memory required for data: 294156400
I0403 12:53:54.764281 27006 layer_factory.hpp:77] Creating layer norm1
I0403 12:53:54.764327 27006 net.cpp:91] Creating Layer norm1
I0403 12:53:54.764346 27006 net.cpp:425] norm1 <- conv1
I0403 12:53:54.764365 27006 net.cpp:399] norm1 -> norm1
I0403 12:53:54.764680 27006 net.cpp:141] Setting up norm1
I0403 12:53:54.764710 27006 net.cpp:148] Top shape: 100 96 55 55 (29040000)
I0403 12:53:54.764729 27006 net.cpp:156] Memory required for data: 410316400
I0403 12:53:54.764744 27006 layer_factory.hpp:77] Creating layer pool1
I0403 12:53:54.764768 27006 net.cpp:91] Creating Layer pool1
I0403 12:53:54.764787 27006 net.cpp:425] pool1 <- norm1
I0403 12:53:54.764806 27006 net.cpp:399] pool1 -> pool1
I0403 12:53:54.764876 27006 net.cpp:141] Setting up pool1
I0403 12:53:54.764900 27006 net.cpp:148] Top shape: 100 96 27 27 (6998400)
I0403 12:53:54.764916 27006 net.cpp:156] Memory required for data: 438310000
I0403 12:53:54.764931 27006 layer_factory.hpp:77] Creating layer conv2
I0403 12:53:54.764957 27006 net.cpp:91] Creating Layer conv2
I0403 12:53:54.764976 27006 net.cpp:425] conv2 <- pool1
I0403 12:53:54.764994 27006 net.cpp:399] conv2 -> conv2
I0403 12:53:54.780462 27006 net.cpp:141] Setting up conv2
I0403 12:53:54.780506 27006 net.cpp:148] Top shape: 100 256 27 27 (18662400)
I0403 12:53:54.780524 27006 net.cpp:156] Memory required for data: 512959600
I0403 12:53:54.780550 27006 layer_factory.hpp:77] Creating layer relu2
I0403 12:53:54.780570 27006 net.cpp:91] Creating Layer relu2
I0403 12:53:54.780587 27006 net.cpp:425] relu2 <- conv2
I0403 12:53:54.780609 27006 net.cpp:386] relu2 -> conv2 (in-place)
I0403 12:53:54.780908 27006 net.cpp:141] Setting up relu2
I0403 12:53:54.780937 27006 net.cpp:148] Top shape: 100 256 27 27 (18662400)
I0403 12:53:54.780953 27006 net.cpp:156] Memory required for data: 587609200
I0403 12:53:54.780969 27006 layer_factory.hpp:77] Creating layer norm2
I0403 12:53:54.780993 27006 net.cpp:91] Creating Layer norm2
I0403 12:53:54.781013 27006 net.cpp:425] norm2 <- conv2
I0403 12:53:54.781033 27006 net.cpp:399] norm2 -> norm2
I0403 12:53:54.781244 27006 net.cpp:141] Setting up norm2
I0403 12:53:54.781271 27006 net.cpp:148] Top shape: 100 256 27 27 (18662400)
I0403 12:53:54.781292 27006 net.cpp:156] Memory required for data: 662258800
I0403 12:53:54.781308 27006 layer_factory.hpp:77] Creating layer pool2
I0403 12:53:54.781327 27006 net.cpp:91] Creating Layer pool2
I0403 12:53:54.781345 27006 net.cpp:425] pool2 <- norm2
I0403 12:53:54.781368 27006 net.cpp:399] pool2 -> pool2
I0403 12:53:54.781422 27006 net.cpp:141] Setting up pool2
I0403 12:53:54.781447 27006 net.cpp:148] Top shape: 100 256 13 13 (4326400)
I0403 12:53:54.781463 27006 net.cpp:156] Memory required for data: 679564400
I0403 12:53:54.781478 27006 layer_factory.hpp:77] Creating layer conv3
I0403 12:53:54.781507 27006 net.cpp:91] Creating Layer conv3
I0403 12:53:54.781524 27006 net.cpp:425] conv3 <- pool2
I0403 12:53:54.781545 27006 net.cpp:399] conv3 -> conv3
I0403 12:53:54.821204 27006 net.cpp:141] Setting up conv3
I0403 12:53:54.821270 27006 net.cpp:148] Top shape: 100 384 13 13 (6489600)
I0403 12:53:54.821295 27006 net.cpp:156] Memory required for data: 705522800
I0403 12:53:54.821321 27006 layer_factory.hpp:77] Creating layer relu3
I0403 12:53:54.821344 27006 net.cpp:91] Creating Layer relu3
I0403 12:53:54.821363 27006 net.cpp:425] relu3 <- conv3
I0403 12:53:54.821387 27006 net.cpp:386] relu3 -> conv3 (in-place)
I0403 12:53:54.821681 27006 net.cpp:141] Setting up relu3
I0403 12:53:54.821708 27006 net.cpp:148] Top shape: 100 384 13 13 (6489600)
I0403 12:53:54.821725 27006 net.cpp:156] Memory required for data: 731481200
I0403 12:53:54.821740 27006 layer_factory.hpp:77] Creating layer conv4
I0403 12:53:54.821769 27006 net.cpp:91] Creating Layer conv4
I0403 12:53:54.821789 27006 net.cpp:425] conv4 <- conv3
I0403 12:53:54.821811 27006 net.cpp:399] conv4 -> conv4
I0403 12:53:54.851981 27006 net.cpp:141] Setting up conv4
I0403 12:53:54.852020 27006 net.cpp:148] Top shape: 100 384 13 13 (6489600)
I0403 12:53:54.852062 27006 net.cpp:156] Memory required for data: 757439600
I0403 12:53:54.852083 27006 layer_factory.hpp:77] Creating layer relu4
I0403 12:53:54.852103 27006 net.cpp:91] Creating Layer relu4
I0403 12:53:54.852120 27006 net.cpp:425] relu4 <- conv4
I0403 12:53:54.852143 27006 net.cpp:386] relu4 -> conv4 (in-place)
I0403 12:53:54.852424 27006 net.cpp:141] Setting up relu4
I0403 12:53:54.852457 27006 net.cpp:148] Top shape: 100 384 13 13 (6489600)
I0403 12:53:54.852473 27006 net.cpp:156] Memory required for data: 783398000
I0403 12:53:54.852489 27006 layer_factory.hpp:77] Creating layer conv5
I0403 12:53:54.852512 27006 net.cpp:91] Creating Layer conv5
I0403 12:53:54.852530 27006 net.cpp:425] conv5 <- conv4
I0403 12:53:54.852550 27006 net.cpp:399] conv5 -> conv5
I0403 12:53:54.873116 27006 net.cpp:141] Setting up conv5
I0403 12:53:54.873157 27006 net.cpp:148] Top shape: 100 256 13 13 (4326400)
I0403 12:53:54.873174 27006 net.cpp:156] Memory required for data: 800703600
I0403 12:53:54.873200 27006 layer_factory.hpp:77] Creating layer relu5
I0403 12:53:54.873220 27006 net.cpp:91] Creating Layer relu5
I0403 12:53:54.873239 27006 net.cpp:425] relu5 <- conv5
I0403 12:53:54.873260 27006 net.cpp:386] relu5 -> conv5 (in-place)
I0403 12:53:54.873550 27006 net.cpp:141] Setting up relu5
I0403 12:53:54.873585 27006 net.cpp:148] Top shape: 100 256 13 13 (4326400)
I0403 12:53:54.873602 27006 net.cpp:156] Memory required for data: 818009200
I0403 12:53:54.873620 27006 layer_factory.hpp:77] Creating layer pool5
I0403 12:53:54.873646 27006 net.cpp:91] Creating Layer pool5
I0403 12:53:54.873666 27006 net.cpp:425] pool5 <- conv5
I0403 12:53:54.873684 27006 net.cpp:399] pool5 -> pool5
I0403 12:53:54.873746 27006 net.cpp:141] Setting up pool5
I0403 12:53:54.873770 27006 net.cpp:148] Top shape: 100 256 6 6 (921600)
I0403 12:53:54.873785 27006 net.cpp:156] Memory required for data: 821695600
I0403 12:53:54.873801 27006 layer_factory.hpp:77] Creating layer fc6
I0403 12:53:54.873827 27006 net.cpp:91] Creating Layer fc6
I0403 12:53:54.873845 27006 net.cpp:425] fc6 <- pool5
I0403 12:53:54.873868 27006 net.cpp:399] fc6 -> fc6
I0403 12:53:56.507894 27006 net.cpp:141] Setting up fc6
I0403 12:53:56.507958 27006 net.cpp:148] Top shape: 100 4096 (409600)
I0403 12:53:56.507975 27006 net.cpp:156] Memory required for data: 823334000
I0403 12:53:56.507997 27006 layer_factory.hpp:77] Creating layer relu6
I0403 12:53:56.508023 27006 net.cpp:91] Creating Layer relu6
I0403 12:53:56.508043 27006 net.cpp:425] relu6 <- fc6
I0403 12:53:56.508064 27006 net.cpp:386] relu6 -> fc6 (in-place)
I0403 12:53:56.508298 27006 net.cpp:141] Setting up relu6
I0403 12:53:56.508324 27006 net.cpp:148] Top shape: 100 4096 (409600)
I0403 12:53:56.508340 27006 net.cpp:156] Memory required for data: 824972400
I0403 12:53:56.508355 27006 layer_factory.hpp:77] Creating layer drop6
I0403 12:53:56.508374 27006 net.cpp:91] Creating Layer drop6
I0403 12:53:56.508390 27006 net.cpp:425] drop6 <- fc6
I0403 12:53:56.508410 27006 net.cpp:386] drop6 -> fc6 (in-place)
I0403 12:53:56.508462 27006 net.cpp:141] Setting up drop6
I0403 12:53:56.508491 27006 net.cpp:148] Top shape: 100 4096 (409600)
I0403 12:53:56.508507 27006 net.cpp:156] Memory required for data: 826610800
I0403 12:53:56.508523 27006 layer_factory.hpp:77] Creating layer fc7
I0403 12:53:56.508543 27006 net.cpp:91] Creating Layer fc7
I0403 12:53:56.508560 27006 net.cpp:425] fc7 <- fc6
I0403 12:53:56.508580 27006 net.cpp:399] fc7 -> fc7
I0403 12:53:57.216791 27006 net.cpp:141] Setting up fc7
I0403 12:53:57.216858 27006 net.cpp:148] Top shape: 100 4096 (409600)
I0403 12:53:57.216877 27006 net.cpp:156] Memory required for data: 828249200
I0403 12:53:57.216899 27006 layer_factory.hpp:77] Creating layer relu7
I0403 12:53:57.216924 27006 net.cpp:91] Creating Layer relu7
I0403 12:53:57.216943 27006 net.cpp:425] relu7 <- fc7
I0403 12:53:57.216966 27006 net.cpp:386] relu7 -> fc7 (in-place)
I0403 12:53:57.217375 27006 net.cpp:141] Setting up relu7
I0403 12:53:57.217406 27006 net.cpp:148] Top shape: 100 4096 (409600)
I0403 12:53:57.217453 27006 net.cpp:156] Memory required for data: 829887600
I0403 12:53:57.217470 27006 layer_factory.hpp:77] Creating layer drop7
I0403 12:53:57.217490 27006 net.cpp:91] Creating Layer drop7
I0403 12:53:57.217506 27006 net.cpp:425] drop7 <- fc7
I0403 12:53:57.217526 27006 net.cpp:386] drop7 -> fc7 (in-place)
I0403 12:53:57.217571 27006 net.cpp:141] Setting up drop7
I0403 12:53:57.217593 27006 net.cpp:148] Top shape: 100 4096 (409600)
I0403 12:53:57.217608 27006 net.cpp:156] Memory required for data: 831526000
I0403 12:53:57.217624 27006 layer_factory.hpp:77] Creating layer fc8_plantvillage
I0403 12:53:57.217649 27006 net.cpp:91] Creating Layer fc8_plantvillage
I0403 12:53:57.217666 27006 net.cpp:425] fc8_plantvillage <- fc7
I0403 12:53:57.217687 27006 net.cpp:399] fc8_plantvillage -> fc8_plantvillage
I0403 12:53:57.224665 27006 net.cpp:141] Setting up fc8_plantvillage
I0403 12:53:57.224694 27006 net.cpp:148] Top shape: 100 38 (3800)
I0403 12:53:57.224709 27006 net.cpp:156] Memory required for data: 831541200
I0403 12:53:57.224728 27006 layer_factory.hpp:77] Creating layer fc8_plantvillage_fc8_plantvillage_0_split
I0403 12:53:57.224747 27006 net.cpp:91] Creating Layer fc8_plantvillage_fc8_plantvillage_0_split
I0403 12:53:57.224763 27006 net.cpp:425] fc8_plantvillage_fc8_plantvillage_0_split <- fc8_plantvillage
I0403 12:53:57.224782 27006 net.cpp:399] fc8_plantvillage_fc8_plantvillage_0_split -> fc8_plantvillage_fc8_plantvillage_0_split_0
I0403 12:53:57.224804 27006 net.cpp:399] fc8_plantvillage_fc8_plantvillage_0_split -> fc8_plantvillage_fc8_plantvillage_0_split_1
I0403 12:53:57.224825 27006 net.cpp:399] fc8_plantvillage_fc8_plantvillage_0_split -> fc8_plantvillage_fc8_plantvillage_0_split_2
I0403 12:53:57.224901 27006 net.cpp:141] Setting up fc8_plantvillage_fc8_plantvillage_0_split
I0403 12:53:57.224926 27006 net.cpp:148] Top shape: 100 38 (3800)
I0403 12:53:57.224943 27006 net.cpp:148] Top shape: 100 38 (3800)
I0403 12:53:57.224957 27006 net.cpp:148] Top shape: 100 38 (3800)
I0403 12:53:57.224972 27006 net.cpp:156] Memory required for data: 831586800
I0403 12:53:57.224987 27006 layer_factory.hpp:77] Creating layer prob
I0403 12:53:57.225004 27006 net.cpp:91] Creating Layer prob
I0403 12:53:57.225020 27006 net.cpp:425] prob <- fc8_plantvillage_fc8_plantvillage_0_split_0
I0403 12:53:57.225040 27006 net.cpp:399] prob -> prob
I0403 12:53:57.225265 27006 net.cpp:141] Setting up prob
I0403 12:53:57.225301 27006 net.cpp:148] Top shape: 100 38 (3800)
I0403 12:53:57.225319 27006 net.cpp:156] Memory required for data: 831602000
I0403 12:53:57.225335 27006 layer_factory.hpp:77] Creating layer hdf5out
I0403 12:53:57.225354 27006 net.cpp:91] Creating Layer hdf5out
I0403 12:53:57.225369 27006 net.cpp:425] hdf5out <- prob
I0403 12:53:57.225386 27006 net.cpp:425] hdf5out <- label_data_1_split_0
I0403 12:53:57.229423 27006 net.cpp:141] Setting up hdf5out
…
