…
I0403 12:25:44.533668 26233 net.cpp:313] The NetState phase (1) differed from the phase (0) specified by a rule in layer data
I0403 12:25:44.533987 26233 net.cpp:49] Initializing net from parameters: 
state {
  phase: TEST
}
layer {
  name: "data"
  type: "Data"
  top: "data"
  top: "label"
  include {
    phase: TEST
  }
  transform_param {
    crop_size: 227
    mean_file: "/home/mohanty/data/final_dataset/lmdb/color-20-80/mean.binaryproto"
  }
  data_param {
    source: "/home/mohanty/data/final_dataset/lmdb/color-20-80/test_db"
    batch_size: 100
    backend: LMDB
  }
}
layer {
  name: "conv1"
  type: "Convolution"
  bottom: "data"
  top: "conv1"
  param {
    lr_mult: 1
    decay_mult: 1
  }
  param {
    lr_mult: 2
    decay_mult: 0
  }
  convolution_param {
    num_output: 96
    kernel_size: 11
    stride: 4
    weight_filler {
      type: "gaussian"
      std: 0.01
    }
    bias_filler {
      type: "constant"
      value: 0
    }
  }
}
layer {
  name: "relu1"
  type: "ReLU"
  bottom: "conv1"
  top: "conv1"
}
layer {
  name: "norm1"
  type: "LRN"
  bottom: "conv1"
  top: "norm1"
  lrn_param {
    local_size: 5
    alpha: 0.0001
    beta: 0.75
  }
}
layer {
  name: "pool1"
  type: "Pooling"
  bottom: "norm1"
  top: "pool1"
  pooling_param {
    pool: MAX
    kernel_size: 3
    stride: 2
  }
}
layer {
  name: "conv2"
  type: "Convolution"
  bottom: "pool1"
  top: "conv2"
  param {
    lr_mult: 1
    decay_mult: 1
  }
  param {
    lr_mult: 2
    decay_mult: 0
  }
  convolution_param {
    num_output: 256
    pad: 2
    kernel_size: 5
    group: 2
    weight_filler {
      type: "gaussian"
      std: 0.01
    }
    bias_filler {
      type: "constant"
      value: 0.1
    }
  }
}
layer {
  name: "relu2"
  type: "ReLU"
  bottom: "conv2"
  top: "conv2"
}
layer {
  name: "norm2"
  type: "LRN"
  bottom: "conv2"
  top: "norm2"
  lrn_param {
    local_size: 5
    alpha: 0.0001
    beta: 0.75
  }
}
layer {
  name: "pool2"
  type: "Pooling"
  bottom: "norm2"
  top: "pool2"
  pooling_param {
    pool: MAX
    kernel_size: 3
    stride: 2
  }
}
layer {
  name: "conv3"
  type: "Convolution"
  bottom: "pool2"
  top: "conv3"
  param {
    lr_mult: 1
    decay_mult: 1
  }
  param {
    lr_mult: 2
    decay_mult: 0
  }
  convolution_param {
    num_output: 384
    pad: 1
    kernel_size: 3
    weight_filler {
      type: "gaussian"
      std: 0.01
    }
    bias_filler {
      type: "constant"
      value: 0
    }
  }
}
layer {
  name: "relu3"
  type: "ReLU"
  bottom: "conv3"
  top: "conv3"
}
layer {
  name: "conv4"
  type: "Convolution"
  bottom: "conv3"
  top: "conv4"
  param {
    lr_mult: 1
    decay_mult: 1
  }
  param {
    lr_mult: 2
    decay_mult: 0
  }
  convolution_param {
    num_output: 384
    pad: 1
    kernel_size: 3
    group: 2
    weight_filler {
      type: "gaussian"
      std: 0.01
    }
    bias_filler {
      type: "constant"
      value: 0.1
    }
  }
}
layer {
  name: "relu4"
  type: "ReLU"
  bottom: "conv4"
  top: "conv4"
}
layer {
  name: "conv5"
  type: "Convolution"
  bottom: "conv4"
  top: "conv5"
  param {
    lr_mult: 1
    decay_mult: 1
  }
  param {
    lr_mult: 2
    decay_mult: 0
  }
  convolution_param {
    num_output: 256
    pad: 1
    kernel_size: 3
    group: 2
    weight_filler {
      type: "gaussian"
      std: 0.01
    }
    bias_filler {
      type: "constant"
      value: 0.1
    }
  }
}
layer {
  name: "relu5"
  type: "ReLU"
  bottom: "conv5"
  top: "conv5"
}
layer {
  name: "pool5"
  type: "Pooling"
  bottom: "conv5"
  top: "pool5"
  pooling_param {
    pool: MAX
    kernel_size: 3
    stride: 2
  }
}
layer {
  name: "fc6"
  type: "InnerProduct"
  bottom: "pool5"
  top: "fc6"
  param {
    lr_mult: 1
    decay_mult: 1
  }
  param {
    lr_mult: 2
    decay_mult: 0
  }
  inner_product_param {
    num_output: 4096
    weight_filler {
      type: "gaussian"
      std: 0.005
    }
    bias_filler {
      type: "constant"
      value: 0.1
    }
  }
}
layer {
  name: "relu6"
  type: "ReLU"
  bottom: "fc6"
  top: "fc6"
}
layer {
  name: "drop6"
  type: "Dropout"
  bottom: "fc6"
  top: "fc6"
  dropout_param {
    dropout_ratio: 0.5
  }
}
layer {
  name: "fc7"
  type: "InnerProduct"
  bottom: "fc6"
  top: "fc7"
  param {
    lr_mult: 1
    decay_mult: 1
  }
  param {
    lr_mult: 2
    decay_mult: 0
  }
  inner_product_param {
    num_output: 4096
    weight_filler {
      type: "gaussian"
      std: 0.005
    }
    bias_filler {
      type: "constant"
      value: 0.1
    }
  }
}
layer {
  name: "relu7"
  type: "ReLU"
  bottom: "fc7"
  top: "fc7"
}
layer {
  name: "drop7"
  type: "Dropout"
  bottom: "fc7"
  top: "fc7"
  dropout_param {
    dropout_ratio: 0.5
  }
}
layer {
  name: "fc8_plantvillage"
  type: "InnerProduct"
  bottom: "fc7"
  top: "fc8_plantvillage"
  param {
    lr_mult: 1
    decay_mult: 1
  }
  param {
    lr_mult: 2
    decay_mult: 0
  }
  inner_product_param {
    num_output: 38
    weight_filler {
      type: "gaussian"
      std: 0.01
    }
    bias_filler {
      type: "constant"
      value: 0
    }
  }
}
layer {
  name: "prob"
  type: "Softmax"
  bottom: "fc8_plantvillage"
  top: "prob"
  include {
    phase: TEST
  }
}
layer {
  name: "hdf5out"
  type: "HDF5Output"
  bottom: "prob"
  bottom: "label"
  include {
    phase: TEST
  }
  hdf5_output_param {
    file_name: "hdf5_dumps/iter_648.h5"
  }
}
layer {
  name: "loss"
  type: "SoftmaxWithLoss"
  bottom: "fc8_plantvillage"
  bottom: "label"
  top: "loss"
}
layer {
  name: "accuracy"
  type: "Accuracy"
  bottom: "fc8_plantvillage"
  bottom: "label"
  top: "accuracy"
  include {
    phase: TEST
  }
}
I0403 12:25:44.534513 26233 layer_factory.hpp:77] Creating layer data
I0403 12:25:44.535163 26233 net.cpp:91] Creating Layer data
I0403 12:25:44.535194 26233 net.cpp:399] data -> data
I0403 12:25:44.535250 26233 net.cpp:399] data -> label
I0403 12:25:44.535293 26233 data_transformer.cpp:25] Loading mean file from: /home/mohanty/data/final_dataset/lmdb/color-20-80/mean.binaryproto
I0403 12:25:44.538414 26236 db_lmdb.cpp:38] Opened lmdb /home/mohanty/data/final_dataset/lmdb/color-20-80/test_db
I0403 12:25:44.549870 26233 data_layer.cpp:41] output data size: 100,3,227,227
I0403 12:25:44.683240 26233 net.cpp:141] Setting up data
I0403 12:25:44.683346 26233 net.cpp:148] Top shape: 100 3 227 227 (15458700)
I0403 12:25:44.683373 26233 net.cpp:148] Top shape: 100 (100)
I0403 12:25:44.683390 26233 net.cpp:156] Memory required for data: 61835200
I0403 12:25:44.683419 26233 layer_factory.hpp:77] Creating layer label_data_1_split
I0403 12:25:44.683447 26233 net.cpp:91] Creating Layer label_data_1_split
I0403 12:25:44.683468 26233 net.cpp:425] label_data_1_split <- label
I0403 12:25:44.683504 26233 net.cpp:399] label_data_1_split -> label_data_1_split_0
I0403 12:25:44.683534 26233 net.cpp:399] label_data_1_split -> label_data_1_split_1
I0403 12:25:44.683558 26233 net.cpp:399] label_data_1_split -> label_data_1_split_2
I0403 12:25:44.683626 26233 net.cpp:141] Setting up label_data_1_split
I0403 12:25:44.683650 26233 net.cpp:148] Top shape: 100 (100)
I0403 12:25:44.683670 26233 net.cpp:148] Top shape: 100 (100)
I0403 12:25:44.683687 26233 net.cpp:148] Top shape: 100 (100)
I0403 12:25:44.683703 26233 net.cpp:156] Memory required for data: 61836400
I0403 12:25:44.683722 26233 layer_factory.hpp:77] Creating layer conv1
I0403 12:25:44.683755 26233 net.cpp:91] Creating Layer conv1
I0403 12:25:44.683776 26233 net.cpp:425] conv1 <- data
I0403 12:25:44.683799 26233 net.cpp:399] conv1 -> conv1
I0403 12:25:44.835057 26233 net.cpp:141] Setting up conv1
I0403 12:25:44.835116 26233 net.cpp:148] Top shape: 100 96 55 55 (29040000)
I0403 12:25:44.835135 26233 net.cpp:156] Memory required for data: 177996400
I0403 12:25:44.835170 26233 layer_factory.hpp:77] Creating layer relu1
I0403 12:25:44.835198 26233 net.cpp:91] Creating Layer relu1
I0403 12:25:44.835218 26233 net.cpp:425] relu1 <- conv1
I0403 12:25:44.835239 26233 net.cpp:386] relu1 -> conv1 (in-place)
I0403 12:25:44.835515 26233 net.cpp:141] Setting up relu1
I0403 12:25:44.835546 26233 net.cpp:148] Top shape: 100 96 55 55 (29040000)
I0403 12:25:44.835563 26233 net.cpp:156] Memory required for data: 294156400
I0403 12:25:44.835615 26233 layer_factory.hpp:77] Creating layer norm1
I0403 12:25:44.835646 26233 net.cpp:91] Creating Layer norm1
I0403 12:25:44.835667 26233 net.cpp:425] norm1 <- conv1
I0403 12:25:44.835688 26233 net.cpp:399] norm1 -> norm1
I0403 12:25:44.836017 26233 net.cpp:141] Setting up norm1
I0403 12:25:44.836047 26233 net.cpp:148] Top shape: 100 96 55 55 (29040000)
I0403 12:25:44.836066 26233 net.cpp:156] Memory required for data: 410316400
I0403 12:25:44.836083 26233 layer_factory.hpp:77] Creating layer pool1
I0403 12:25:44.836109 26233 net.cpp:91] Creating Layer pool1
I0403 12:25:44.836127 26233 net.cpp:425] pool1 <- norm1
I0403 12:25:44.836148 26233 net.cpp:399] pool1 -> pool1
I0403 12:25:44.836218 26233 net.cpp:141] Setting up pool1
I0403 12:25:44.836244 26233 net.cpp:148] Top shape: 100 96 27 27 (6998400)
I0403 12:25:44.836266 26233 net.cpp:156] Memory required for data: 438310000
I0403 12:25:44.836285 26233 layer_factory.hpp:77] Creating layer conv2
I0403 12:25:44.836313 26233 net.cpp:91] Creating Layer conv2
I0403 12:25:44.836333 26233 net.cpp:425] conv2 <- pool1
I0403 12:25:44.836354 26233 net.cpp:399] conv2 -> conv2
I0403 12:25:44.851771 26233 net.cpp:141] Setting up conv2
I0403 12:25:44.851821 26233 net.cpp:148] Top shape: 100 256 27 27 (18662400)
I0403 12:25:44.851840 26233 net.cpp:156] Memory required for data: 512959600
I0403 12:25:44.851864 26233 layer_factory.hpp:77] Creating layer relu2
I0403 12:25:44.851889 26233 net.cpp:91] Creating Layer relu2
I0403 12:25:44.851909 26233 net.cpp:425] relu2 <- conv2
I0403 12:25:44.851929 26233 net.cpp:386] relu2 -> conv2 (in-place)
I0403 12:25:44.852301 26233 net.cpp:141] Setting up relu2
I0403 12:25:44.852332 26233 net.cpp:148] Top shape: 100 256 27 27 (18662400)
I0403 12:25:44.852350 26233 net.cpp:156] Memory required for data: 587609200
I0403 12:25:44.852368 26233 layer_factory.hpp:77] Creating layer norm2
I0403 12:25:44.852391 26233 net.cpp:91] Creating Layer norm2
I0403 12:25:44.852411 26233 net.cpp:425] norm2 <- conv2
I0403 12:25:44.852432 26233 net.cpp:399] norm2 -> norm2
I0403 12:25:44.852635 26233 net.cpp:141] Setting up norm2
I0403 12:25:44.852663 26233 net.cpp:148] Top shape: 100 256 27 27 (18662400)
I0403 12:25:44.852680 26233 net.cpp:156] Memory required for data: 662258800
I0403 12:25:44.852697 26233 layer_factory.hpp:77] Creating layer pool2
I0403 12:25:44.852720 26233 net.cpp:91] Creating Layer pool2
I0403 12:25:44.852738 26233 net.cpp:425] pool2 <- norm2
I0403 12:25:44.852758 26233 net.cpp:399] pool2 -> pool2
I0403 12:25:44.852814 26233 net.cpp:141] Setting up pool2
I0403 12:25:44.852839 26233 net.cpp:148] Top shape: 100 256 13 13 (4326400)
I0403 12:25:44.852855 26233 net.cpp:156] Memory required for data: 679564400
I0403 12:25:44.852872 26233 layer_factory.hpp:77] Creating layer conv3
I0403 12:25:44.852897 26233 net.cpp:91] Creating Layer conv3
I0403 12:25:44.852917 26233 net.cpp:425] conv3 <- pool2
I0403 12:25:44.852941 26233 net.cpp:399] conv3 -> conv3
I0403 12:25:44.900897 26233 net.cpp:141] Setting up conv3
I0403 12:25:44.900945 26233 net.cpp:148] Top shape: 100 384 13 13 (6489600)
I0403 12:25:44.900964 26233 net.cpp:156] Memory required for data: 705522800
I0403 12:25:44.900995 26233 layer_factory.hpp:77] Creating layer relu3
I0403 12:25:44.901020 26233 net.cpp:91] Creating Layer relu3
I0403 12:25:44.901037 26233 net.cpp:425] relu3 <- conv3
I0403 12:25:44.901057 26233 net.cpp:386] relu3 -> conv3 (in-place)
I0403 12:25:44.901373 26233 net.cpp:141] Setting up relu3
I0403 12:25:44.901406 26233 net.cpp:148] Top shape: 100 384 13 13 (6489600)
I0403 12:25:44.901423 26233 net.cpp:156] Memory required for data: 731481200
I0403 12:25:44.901442 26233 layer_factory.hpp:77] Creating layer conv4
I0403 12:25:44.901469 26233 net.cpp:91] Creating Layer conv4
I0403 12:25:44.901489 26233 net.cpp:425] conv4 <- conv3
I0403 12:25:44.901510 26233 net.cpp:399] conv4 -> conv4
I0403 12:25:44.932059 26233 net.cpp:141] Setting up conv4
I0403 12:25:44.932126 26233 net.cpp:148] Top shape: 100 384 13 13 (6489600)
I0403 12:25:44.932174 26233 net.cpp:156] Memory required for data: 757439600
I0403 12:25:44.932198 26233 layer_factory.hpp:77] Creating layer relu4
I0403 12:25:44.932224 26233 net.cpp:91] Creating Layer relu4
I0403 12:25:44.932242 26233 net.cpp:425] relu4 <- conv4
I0403 12:25:44.932271 26233 net.cpp:386] relu4 -> conv4 (in-place)
I0403 12:25:44.932548 26233 net.cpp:141] Setting up relu4
I0403 12:25:44.932574 26233 net.cpp:148] Top shape: 100 384 13 13 (6489600)
I0403 12:25:44.932591 26233 net.cpp:156] Memory required for data: 783398000
I0403 12:25:44.932607 26233 layer_factory.hpp:77] Creating layer conv5
I0403 12:25:44.932634 26233 net.cpp:91] Creating Layer conv5
I0403 12:25:44.932653 26233 net.cpp:425] conv5 <- conv4
I0403 12:25:44.932677 26233 net.cpp:399] conv5 -> conv5
I0403 12:25:44.953511 26233 net.cpp:141] Setting up conv5
I0403 12:25:44.953567 26233 net.cpp:148] Top shape: 100 256 13 13 (4326400)
I0403 12:25:44.953598 26233 net.cpp:156] Memory required for data: 800703600
I0403 12:25:44.953625 26233 layer_factory.hpp:77] Creating layer relu5
I0403 12:25:44.953651 26233 net.cpp:91] Creating Layer relu5
I0403 12:25:44.953671 26233 net.cpp:425] relu5 <- conv5
I0403 12:25:44.953691 26233 net.cpp:386] relu5 -> conv5 (in-place)
I0403 12:25:44.953966 26233 net.cpp:141] Setting up relu5
I0403 12:25:44.953994 26233 net.cpp:148] Top shape: 100 256 13 13 (4326400)
I0403 12:25:44.954011 26233 net.cpp:156] Memory required for data: 818009200
I0403 12:25:44.954028 26233 layer_factory.hpp:77] Creating layer pool5
I0403 12:25:44.954064 26233 net.cpp:91] Creating Layer pool5
I0403 12:25:44.954083 26233 net.cpp:425] pool5 <- conv5
I0403 12:25:44.954109 26233 net.cpp:399] pool5 -> pool5
I0403 12:25:44.954172 26233 net.cpp:141] Setting up pool5
I0403 12:25:44.954198 26233 net.cpp:148] Top shape: 100 256 6 6 (921600)
I0403 12:25:44.954215 26233 net.cpp:156] Memory required for data: 821695600
I0403 12:25:44.954232 26233 layer_factory.hpp:77] Creating layer fc6
I0403 12:25:44.954267 26233 net.cpp:91] Creating Layer fc6
I0403 12:25:44.954288 26233 net.cpp:425] fc6 <- pool5
I0403 12:25:44.954311 26233 net.cpp:399] fc6 -> fc6
I0403 12:25:46.521242 26233 net.cpp:141] Setting up fc6
I0403 12:25:46.521338 26233 net.cpp:148] Top shape: 100 4096 (409600)
I0403 12:25:46.521358 26233 net.cpp:156] Memory required for data: 823334000
I0403 12:25:46.521379 26233 layer_factory.hpp:77] Creating layer relu6
I0403 12:25:46.521406 26233 net.cpp:91] Creating Layer relu6
I0403 12:25:46.521426 26233 net.cpp:425] relu6 <- fc6
I0403 12:25:46.521448 26233 net.cpp:386] relu6 -> fc6 (in-place)
I0403 12:25:46.521692 26233 net.cpp:141] Setting up relu6
I0403 12:25:46.521718 26233 net.cpp:148] Top shape: 100 4096 (409600)
I0403 12:25:46.521733 26233 net.cpp:156] Memory required for data: 824972400
I0403 12:25:46.521749 26233 layer_factory.hpp:77] Creating layer drop6
I0403 12:25:46.521772 26233 net.cpp:91] Creating Layer drop6
I0403 12:25:46.521790 26233 net.cpp:425] drop6 <- fc6
I0403 12:25:46.521808 26233 net.cpp:386] drop6 -> fc6 (in-place)
I0403 12:25:46.521863 26233 net.cpp:141] Setting up drop6
I0403 12:25:46.521888 26233 net.cpp:148] Top shape: 100 4096 (409600)
I0403 12:25:46.521903 26233 net.cpp:156] Memory required for data: 826610800
I0403 12:25:46.521919 26233 layer_factory.hpp:77] Creating layer fc7
I0403 12:25:46.521939 26233 net.cpp:91] Creating Layer fc7
I0403 12:25:46.521956 26233 net.cpp:425] fc7 <- fc6
I0403 12:25:46.521978 26233 net.cpp:399] fc7 -> fc7
I0403 12:25:47.228694 26233 net.cpp:141] Setting up fc7
I0403 12:25:47.228776 26233 net.cpp:148] Top shape: 100 4096 (409600)
I0403 12:25:47.228796 26233 net.cpp:156] Memory required for data: 828249200
I0403 12:25:47.228818 26233 layer_factory.hpp:77] Creating layer relu7
I0403 12:25:47.228843 26233 net.cpp:91] Creating Layer relu7
I0403 12:25:47.228864 26233 net.cpp:425] relu7 <- fc7
I0403 12:25:47.228886 26233 net.cpp:386] relu7 -> fc7 (in-place)
I0403 12:25:47.229315 26233 net.cpp:141] Setting up relu7
I0403 12:25:47.229342 26233 net.cpp:148] Top shape: 100 4096 (409600)
I0403 12:25:47.229384 26233 net.cpp:156] Memory required for data: 829887600
I0403 12:25:47.229403 26233 layer_factory.hpp:77] Creating layer drop7
I0403 12:25:47.229425 26233 net.cpp:91] Creating Layer drop7
I0403 12:25:47.229445 26233 net.cpp:425] drop7 <- fc7
I0403 12:25:47.229465 26233 net.cpp:386] drop7 -> fc7 (in-place)
I0403 12:25:47.229512 26233 net.cpp:141] Setting up drop7
I0403 12:25:47.229538 26233 net.cpp:148] Top shape: 100 4096 (409600)
I0403 12:25:47.229554 26233 net.cpp:156] Memory required for data: 831526000
I0403 12:25:47.229570 26233 layer_factory.hpp:77] Creating layer fc8_plantvillage
I0403 12:25:47.229595 26233 net.cpp:91] Creating Layer fc8_plantvillage
I0403 12:25:47.229614 26233 net.cpp:425] fc8_plantvillage <- fc7
I0403 12:25:47.229634 26233 net.cpp:399] fc8_plantvillage -> fc8_plantvillage
I0403 12:25:47.236654 26233 net.cpp:141] Setting up fc8_plantvillage
I0403 12:25:47.236683 26233 net.cpp:148] Top shape: 100 38 (3800)
I0403 12:25:47.236701 26233 net.cpp:156] Memory required for data: 831541200
I0403 12:25:47.236721 26233 layer_factory.hpp:77] Creating layer fc8_plantvillage_fc8_plantvillage_0_split
I0403 12:25:47.236744 26233 net.cpp:91] Creating Layer fc8_plantvillage_fc8_plantvillage_0_split
I0403 12:25:47.236770 26233 net.cpp:425] fc8_plantvillage_fc8_plantvillage_0_split <- fc8_plantvillage
I0403 12:25:47.236791 26233 net.cpp:399] fc8_plantvillage_fc8_plantvillage_0_split -> fc8_plantvillage_fc8_plantvillage_0_split_0
I0403 12:25:47.236815 26233 net.cpp:399] fc8_plantvillage_fc8_plantvillage_0_split -> fc8_plantvillage_fc8_plantvillage_0_split_1
I0403 12:25:47.236840 26233 net.cpp:399] fc8_plantvillage_fc8_plantvillage_0_split -> fc8_plantvillage_fc8_plantvillage_0_split_2
I0403 12:25:47.236920 26233 net.cpp:141] Setting up fc8_plantvillage_fc8_plantvillage_0_split
I0403 12:25:47.236945 26233 net.cpp:148] Top shape: 100 38 (3800)
I0403 12:25:47.236963 26233 net.cpp:148] Top shape: 100 38 (3800)
I0403 12:25:47.236980 26233 net.cpp:148] Top shape: 100 38 (3800)
I0403 12:25:47.236996 26233 net.cpp:156] Memory required for data: 831586800
I0403 12:25:47.237013 26233 layer_factory.hpp:77] Creating layer prob
I0403 12:25:47.237035 26233 net.cpp:91] Creating Layer prob
I0403 12:25:47.237053 26233 net.cpp:425] prob <- fc8_plantvillage_fc8_plantvillage_0_split_0
I0403 12:25:47.237073 26233 net.cpp:399] prob -> prob
I0403 12:25:47.237313 26233 net.cpp:141] Setting up prob
I0403 12:25:47.237339 26233 net.cpp:148] Top shape: 100 38 (3800)
I0403 12:25:47.237355 26233 net.cpp:156] Memory required for data: 831602000
I0403 12:25:47.237372 26233 layer_factory.hpp:77] Creating layer hdf5out
I0403 12:25:47.237396 26233 net.cpp:91] Creating Layer hdf5out
I0403 12:25:47.237413 26233 net.cpp:425] hdf5out <- prob
I0403 12:25:47.237432 26233 net.cpp:425] hdf5out <- label_data_1_split_0
I0403 12:25:47.252131 26233 net.cpp:141] Setting up hdf5out
…
