…
I0403 12:52:26.749470 26846 net.cpp:313] The NetState phase (1) differed from the phase (0) specified by a rule in layer data
I0403 12:52:26.750079 26846 net.cpp:49] Initializing net from parameters: 
state {
  phase: TEST
}
layer {
  name: "data"
  type: "Data"
  top: "data"
  top: "label"
  include {
    phase: TEST
  }
  transform_param {
    crop_size: 227
    mean_file: "/home/mohanty/data/final_dataset/lmdb/color-20-80/mean.binaryproto"
  }
  data_param {
    source: "/home/mohanty/data/final_dataset/lmdb/color-20-80/test_db"
    batch_size: 100
    backend: LMDB
  }
}
layer {
  name: "conv1"
  type: "Convolution"
  bottom: "data"
  top: "conv1"
  param {
    lr_mult: 1
    decay_mult: 1
  }
  param {
    lr_mult: 2
    decay_mult: 0
  }
  convolution_param {
    num_output: 96
    kernel_size: 11
    stride: 4
    weight_filler {
      type: "gaussian"
      std: 0.01
    }
    bias_filler {
      type: "constant"
      value: 0
    }
  }
}
layer {
  name: "relu1"
  type: "ReLU"
  bottom: "conv1"
  top: "conv1"
}
layer {
  name: "norm1"
  type: "LRN"
  bottom: "conv1"
  top: "norm1"
  lrn_param {
    local_size: 5
    alpha: 0.0001
    beta: 0.75
  }
}
layer {
  name: "pool1"
  type: "Pooling"
  bottom: "norm1"
  top: "pool1"
  pooling_param {
    pool: MAX
    kernel_size: 3
    stride: 2
  }
}
layer {
  name: "conv2"
  type: "Convolution"
  bottom: "pool1"
  top: "conv2"
  param {
    lr_mult: 1
    decay_mult: 1
  }
  param {
    lr_mult: 2
    decay_mult: 0
  }
  convolution_param {
    num_output: 256
    pad: 2
    kernel_size: 5
    group: 2
    weight_filler {
      type: "gaussian"
      std: 0.01
    }
    bias_filler {
      type: "constant"
      value: 0.1
    }
  }
}
layer {
  name: "relu2"
  type: "ReLU"
  bottom: "conv2"
  top: "conv2"
}
layer {
  name: "norm2"
  type: "LRN"
  bottom: "conv2"
  top: "norm2"
  lrn_param {
    local_size: 5
    alpha: 0.0001
    beta: 0.75
  }
}
layer {
  name: "pool2"
  type: "Pooling"
  bottom: "norm2"
  top: "pool2"
  pooling_param {
    pool: MAX
    kernel_size: 3
    stride: 2
  }
}
layer {
  name: "conv3"
  type: "Convolution"
  bottom: "pool2"
  top: "conv3"
  param {
    lr_mult: 1
    decay_mult: 1
  }
  param {
    lr_mult: 2
    decay_mult: 0
  }
  convolution_param {
    num_output: 384
    pad: 1
    kernel_size: 3
    weight_filler {
      type: "gaussian"
      std: 0.01
    }
    bias_filler {
      type: "constant"
      value: 0
    }
  }
}
layer {
  name: "relu3"
  type: "ReLU"
  bottom: "conv3"
  top: "conv3"
}
layer {
  name: "conv4"
  type: "Convolution"
  bottom: "conv3"
  top: "conv4"
  param {
    lr_mult: 1
    decay_mult: 1
  }
  param {
    lr_mult: 2
    decay_mult: 0
  }
  convolution_param {
    num_output: 384
    pad: 1
    kernel_size: 3
    group: 2
    weight_filler {
      type: "gaussian"
      std: 0.01
    }
    bias_filler {
      type: "constant"
      value: 0.1
    }
  }
}
layer {
  name: "relu4"
  type: "ReLU"
  bottom: "conv4"
  top: "conv4"
}
layer {
  name: "conv5"
  type: "Convolution"
  bottom: "conv4"
  top: "conv5"
  param {
    lr_mult: 1
    decay_mult: 1
  }
  param {
    lr_mult: 2
    decay_mult: 0
  }
  convolution_param {
    num_output: 256
    pad: 1
    kernel_size: 3
    group: 2
    weight_filler {
      type: "gaussian"
      std: 0.01
    }
    bias_filler {
      type: "constant"
      value: 0.1
    }
  }
}
layer {
  name: "relu5"
  type: "ReLU"
  bottom: "conv5"
  top: "conv5"
}
layer {
  name: "pool5"
  type: "Pooling"
  bottom: "conv5"
  top: "pool5"
  pooling_param {
    pool: MAX
    kernel_size: 3
    stride: 2
  }
}
layer {
  name: "fc6"
  type: "InnerProduct"
  bottom: "pool5"
  top: "fc6"
  param {
    lr_mult: 1
    decay_mult: 1
  }
  param {
    lr_mult: 2
    decay_mult: 0
  }
  inner_product_param {
    num_output: 4096
    weight_filler {
      type: "gaussian"
      std: 0.005
    }
    bias_filler {
      type: "constant"
      value: 0.1
    }
  }
}
layer {
  name: "relu6"
  type: "ReLU"
  bottom: "fc6"
  top: "fc6"
}
layer {
  name: "drop6"
  type: "Dropout"
  bottom: "fc6"
  top: "fc6"
  dropout_param {
    dropout_ratio: 0.5
  }
}
layer {
  name: "fc7"
  type: "InnerProduct"
  bottom: "fc6"
  top: "fc7"
  param {
    lr_mult: 1
    decay_mult: 1
  }
  param {
    lr_mult: 2
    decay_mult: 0
  }
  inner_product_param {
    num_output: 4096
    weight_filler {
      type: "gaussian"
      std: 0.005
    }
    bias_filler {
      type: "constant"
      value: 0.1
    }
  }
}
layer {
  name: "relu7"
  type: "ReLU"
  bottom: "fc7"
  top: "fc7"
}
layer {
  name: "drop7"
  type: "Dropout"
  bottom: "fc7"
  top: "fc7"
  dropout_param {
    dropout_ratio: 0.5
  }
}
layer {
  name: "fc8_plantvillage"
  type: "InnerProduct"
  bottom: "fc7"
  top: "fc8_plantvillage"
  param {
    lr_mult: 1
    decay_mult: 1
  }
  param {
    lr_mult: 2
    decay_mult: 0
  }
  inner_product_param {
    num_output: 38
    weight_filler {
      type: "gaussian"
      std: 0.01
    }
    bias_filler {
      type: "constant"
      value: 0
    }
  }
}
layer {
  name: "prob"
  type: "Softmax"
  bottom: "fc8_plantvillage"
  top: "prob"
  include {
    phase: TEST
  }
}
layer {
  name: "hdf5out"
  type: "HDF5Output"
  bottom: "prob"
  bottom: "label"
  include {
    phase: TEST
  }
  hdf5_output_param {
    file_name: "hdf5_dumps/iter_2592.h5"
  }
}
layer {
  name: "loss"
  type: "SoftmaxWithLoss"
  bottom: "fc8_plantvillage"
  bottom: "label"
  top: "loss"
}
layer {
  name: "accuracy"
  type: "Accuracy"
  bottom: "fc8_plantvillage"
  bottom: "label"
  top: "accuracy"
  include {
    phase: TEST
  }
}
I0403 12:52:26.751391 26846 layer_factory.hpp:77] Creating layer data
I0403 12:52:26.752535 26846 net.cpp:91] Creating Layer data
I0403 12:52:26.752569 26846 net.cpp:399] data -> data
I0403 12:52:26.752662 26846 net.cpp:399] data -> label
I0403 12:52:26.752749 26846 data_transformer.cpp:25] Loading mean file from: /home/mohanty/data/final_dataset/lmdb/color-20-80/mean.binaryproto
I0403 12:52:26.756289 26849 db_lmdb.cpp:38] Opened lmdb /home/mohanty/data/final_dataset/lmdb/color-20-80/test_db
I0403 12:52:26.770134 26846 data_layer.cpp:41] output data size: 100,3,227,227
I0403 12:52:27.018563 26846 net.cpp:141] Setting up data
I0403 12:52:27.018630 26846 net.cpp:148] Top shape: 100 3 227 227 (15458700)
I0403 12:52:27.018654 26846 net.cpp:148] Top shape: 100 (100)
I0403 12:52:27.018669 26846 net.cpp:156] Memory required for data: 61835200
I0403 12:52:27.018695 26846 layer_factory.hpp:77] Creating layer label_data_1_split
I0403 12:52:27.018721 26846 net.cpp:91] Creating Layer label_data_1_split
I0403 12:52:27.018739 26846 net.cpp:425] label_data_1_split <- label
I0403 12:52:27.018769 26846 net.cpp:399] label_data_1_split -> label_data_1_split_0
I0403 12:52:27.018795 26846 net.cpp:399] label_data_1_split -> label_data_1_split_1
I0403 12:52:27.018816 26846 net.cpp:399] label_data_1_split -> label_data_1_split_2
I0403 12:52:27.018882 26846 net.cpp:141] Setting up label_data_1_split
I0403 12:52:27.018905 26846 net.cpp:148] Top shape: 100 (100)
I0403 12:52:27.018923 26846 net.cpp:148] Top shape: 100 (100)
I0403 12:52:27.018939 26846 net.cpp:148] Top shape: 100 (100)
I0403 12:52:27.018954 26846 net.cpp:156] Memory required for data: 61836400
I0403 12:52:27.018968 26846 layer_factory.hpp:77] Creating layer conv1
I0403 12:52:27.018999 26846 net.cpp:91] Creating Layer conv1
I0403 12:52:27.019018 26846 net.cpp:425] conv1 <- data
I0403 12:52:27.019037 26846 net.cpp:399] conv1 -> conv1
I0403 12:52:27.165211 26846 net.cpp:141] Setting up conv1
I0403 12:52:27.165288 26846 net.cpp:148] Top shape: 100 96 55 55 (29040000)
I0403 12:52:27.165308 26846 net.cpp:156] Memory required for data: 177996400
I0403 12:52:27.165339 26846 layer_factory.hpp:77] Creating layer relu1
I0403 12:52:27.165369 26846 net.cpp:91] Creating Layer relu1
I0403 12:52:27.165388 26846 net.cpp:425] relu1 <- conv1
I0403 12:52:27.165411 26846 net.cpp:386] relu1 -> conv1 (in-place)
I0403 12:52:27.165688 26846 net.cpp:141] Setting up relu1
I0403 12:52:27.165716 26846 net.cpp:148] Top shape: 100 96 55 55 (29040000)
I0403 12:52:27.165734 26846 net.cpp:156] Memory required for data: 294156400
I0403 12:52:27.165781 26846 layer_factory.hpp:77] Creating layer norm1
I0403 12:52:27.165810 26846 net.cpp:91] Creating Layer norm1
I0403 12:52:27.165829 26846 net.cpp:425] norm1 <- conv1
I0403 12:52:27.165848 26846 net.cpp:399] norm1 -> norm1
I0403 12:52:27.166175 26846 net.cpp:141] Setting up norm1
I0403 12:52:27.166204 26846 net.cpp:148] Top shape: 100 96 55 55 (29040000)
I0403 12:52:27.166220 26846 net.cpp:156] Memory required for data: 410316400
I0403 12:52:27.166237 26846 layer_factory.hpp:77] Creating layer pool1
I0403 12:52:27.166262 26846 net.cpp:91] Creating Layer pool1
I0403 12:52:27.166280 26846 net.cpp:425] pool1 <- norm1
I0403 12:52:27.166307 26846 net.cpp:399] pool1 -> pool1
I0403 12:52:27.166378 26846 net.cpp:141] Setting up pool1
I0403 12:52:27.166404 26846 net.cpp:148] Top shape: 100 96 27 27 (6998400)
I0403 12:52:27.166419 26846 net.cpp:156] Memory required for data: 438310000
I0403 12:52:27.166435 26846 layer_factory.hpp:77] Creating layer conv2
I0403 12:52:27.166462 26846 net.cpp:91] Creating Layer conv2
I0403 12:52:27.166481 26846 net.cpp:425] conv2 <- pool1
I0403 12:52:27.166501 26846 net.cpp:399] conv2 -> conv2
I0403 12:52:27.181625 26846 net.cpp:141] Setting up conv2
I0403 12:52:27.181663 26846 net.cpp:148] Top shape: 100 256 27 27 (18662400)
I0403 12:52:27.181680 26846 net.cpp:156] Memory required for data: 512959600
I0403 12:52:27.181704 26846 layer_factory.hpp:77] Creating layer relu2
I0403 12:52:27.181723 26846 net.cpp:91] Creating Layer relu2
I0403 12:52:27.181740 26846 net.cpp:425] relu2 <- conv2
I0403 12:52:27.181757 26846 net.cpp:386] relu2 -> conv2 (in-place)
I0403 12:52:27.182034 26846 net.cpp:141] Setting up relu2
I0403 12:52:27.182062 26846 net.cpp:148] Top shape: 100 256 27 27 (18662400)
I0403 12:52:27.182078 26846 net.cpp:156] Memory required for data: 587609200
I0403 12:52:27.182095 26846 layer_factory.hpp:77] Creating layer norm2
I0403 12:52:27.182114 26846 net.cpp:91] Creating Layer norm2
I0403 12:52:27.182132 26846 net.cpp:425] norm2 <- conv2
I0403 12:52:27.182152 26846 net.cpp:399] norm2 -> norm2
I0403 12:52:27.182392 26846 net.cpp:141] Setting up norm2
I0403 12:52:27.182422 26846 net.cpp:148] Top shape: 100 256 27 27 (18662400)
I0403 12:52:27.182440 26846 net.cpp:156] Memory required for data: 662258800
I0403 12:52:27.182454 26846 layer_factory.hpp:77] Creating layer pool2
I0403 12:52:27.182472 26846 net.cpp:91] Creating Layer pool2
I0403 12:52:27.182487 26846 net.cpp:425] pool2 <- norm2
I0403 12:52:27.182505 26846 net.cpp:399] pool2 -> pool2
I0403 12:52:27.182559 26846 net.cpp:141] Setting up pool2
I0403 12:52:27.182584 26846 net.cpp:148] Top shape: 100 256 13 13 (4326400)
I0403 12:52:27.182598 26846 net.cpp:156] Memory required for data: 679564400
I0403 12:52:27.182615 26846 layer_factory.hpp:77] Creating layer conv3
I0403 12:52:27.182639 26846 net.cpp:91] Creating Layer conv3
I0403 12:52:27.182657 26846 net.cpp:425] conv3 <- pool2
I0403 12:52:27.182677 26846 net.cpp:399] conv3 -> conv3
I0403 12:52:27.227977 26846 net.cpp:141] Setting up conv3
I0403 12:52:27.228023 26846 net.cpp:148] Top shape: 100 384 13 13 (6489600)
I0403 12:52:27.228039 26846 net.cpp:156] Memory required for data: 705522800
I0403 12:52:27.228063 26846 layer_factory.hpp:77] Creating layer relu3
I0403 12:52:27.228085 26846 net.cpp:91] Creating Layer relu3
I0403 12:52:27.228104 26846 net.cpp:425] relu3 <- conv3
I0403 12:52:27.228124 26846 net.cpp:386] relu3 -> conv3 (in-place)
I0403 12:52:27.228396 26846 net.cpp:141] Setting up relu3
I0403 12:52:27.228426 26846 net.cpp:148] Top shape: 100 384 13 13 (6489600)
I0403 12:52:27.228443 26846 net.cpp:156] Memory required for data: 731481200
I0403 12:52:27.228459 26846 layer_factory.hpp:77] Creating layer conv4
I0403 12:52:27.228483 26846 net.cpp:91] Creating Layer conv4
I0403 12:52:27.228502 26846 net.cpp:425] conv4 <- conv3
I0403 12:52:27.228520 26846 net.cpp:399] conv4 -> conv4
I0403 12:52:27.258698 26846 net.cpp:141] Setting up conv4
I0403 12:52:27.258740 26846 net.cpp:148] Top shape: 100 384 13 13 (6489600)
I0403 12:52:27.258786 26846 net.cpp:156] Memory required for data: 757439600
I0403 12:52:27.258808 26846 layer_factory.hpp:77] Creating layer relu4
I0403 12:52:27.258831 26846 net.cpp:91] Creating Layer relu4
I0403 12:52:27.258849 26846 net.cpp:425] relu4 <- conv4
I0403 12:52:27.258867 26846 net.cpp:386] relu4 -> conv4 (in-place)
I0403 12:52:27.259138 26846 net.cpp:141] Setting up relu4
I0403 12:52:27.259166 26846 net.cpp:148] Top shape: 100 384 13 13 (6489600)
I0403 12:52:27.259181 26846 net.cpp:156] Memory required for data: 783398000
I0403 12:52:27.259197 26846 layer_factory.hpp:77] Creating layer conv5
I0403 12:52:27.259225 26846 net.cpp:91] Creating Layer conv5
I0403 12:52:27.259244 26846 net.cpp:425] conv5 <- conv4
I0403 12:52:27.259266 26846 net.cpp:399] conv5 -> conv5
I0403 12:52:27.279402 26846 net.cpp:141] Setting up conv5
I0403 12:52:27.279435 26846 net.cpp:148] Top shape: 100 256 13 13 (4326400)
I0403 12:52:27.279453 26846 net.cpp:156] Memory required for data: 800703600
I0403 12:52:27.279479 26846 layer_factory.hpp:77] Creating layer relu5
I0403 12:52:27.279500 26846 net.cpp:91] Creating Layer relu5
I0403 12:52:27.279517 26846 net.cpp:425] relu5 <- conv5
I0403 12:52:27.279534 26846 net.cpp:386] relu5 -> conv5 (in-place)
I0403 12:52:27.279806 26846 net.cpp:141] Setting up relu5
I0403 12:52:27.279835 26846 net.cpp:148] Top shape: 100 256 13 13 (4326400)
I0403 12:52:27.279853 26846 net.cpp:156] Memory required for data: 818009200
I0403 12:52:27.279868 26846 layer_factory.hpp:77] Creating layer pool5
I0403 12:52:27.279891 26846 net.cpp:91] Creating Layer pool5
I0403 12:52:27.279906 26846 net.cpp:425] pool5 <- conv5
I0403 12:52:27.279928 26846 net.cpp:399] pool5 -> pool5
I0403 12:52:27.279989 26846 net.cpp:141] Setting up pool5
I0403 12:52:27.280012 26846 net.cpp:148] Top shape: 100 256 6 6 (921600)
I0403 12:52:27.280028 26846 net.cpp:156] Memory required for data: 821695600
I0403 12:52:27.280043 26846 layer_factory.hpp:77] Creating layer fc6
I0403 12:52:27.280072 26846 net.cpp:91] Creating Layer fc6
I0403 12:52:27.280092 26846 net.cpp:425] fc6 <- pool5
I0403 12:52:27.280112 26846 net.cpp:399] fc6 -> fc6
I0403 12:52:28.812398 26846 net.cpp:141] Setting up fc6
I0403 12:52:28.812476 26846 net.cpp:148] Top shape: 100 4096 (409600)
I0403 12:52:28.812494 26846 net.cpp:156] Memory required for data: 823334000
I0403 12:52:28.812526 26846 layer_factory.hpp:77] Creating layer relu6
I0403 12:52:28.812552 26846 net.cpp:91] Creating Layer relu6
I0403 12:52:28.812572 26846 net.cpp:425] relu6 <- fc6
I0403 12:52:28.812592 26846 net.cpp:386] relu6 -> fc6 (in-place)
I0403 12:52:28.812820 26846 net.cpp:141] Setting up relu6
I0403 12:52:28.812849 26846 net.cpp:148] Top shape: 100 4096 (409600)
I0403 12:52:28.812865 26846 net.cpp:156] Memory required for data: 824972400
I0403 12:52:28.812881 26846 layer_factory.hpp:77] Creating layer drop6
I0403 12:52:28.812899 26846 net.cpp:91] Creating Layer drop6
I0403 12:52:28.812916 26846 net.cpp:425] drop6 <- fc6
I0403 12:52:28.812933 26846 net.cpp:386] drop6 -> fc6 (in-place)
I0403 12:52:28.812988 26846 net.cpp:141] Setting up drop6
I0403 12:52:28.813011 26846 net.cpp:148] Top shape: 100 4096 (409600)
I0403 12:52:28.813029 26846 net.cpp:156] Memory required for data: 826610800
I0403 12:52:28.813043 26846 layer_factory.hpp:77] Creating layer fc7
I0403 12:52:28.813066 26846 net.cpp:91] Creating Layer fc7
I0403 12:52:28.813082 26846 net.cpp:425] fc7 <- fc6
I0403 12:52:28.813102 26846 net.cpp:399] fc7 -> fc7
I0403 12:52:29.493971 26846 net.cpp:141] Setting up fc7
I0403 12:52:29.494048 26846 net.cpp:148] Top shape: 100 4096 (409600)
I0403 12:52:29.494065 26846 net.cpp:156] Memory required for data: 828249200
I0403 12:52:29.494086 26846 layer_factory.hpp:77] Creating layer relu7
I0403 12:52:29.494113 26846 net.cpp:91] Creating Layer relu7
I0403 12:52:29.494132 26846 net.cpp:425] relu7 <- fc7
I0403 12:52:29.494153 26846 net.cpp:386] relu7 -> fc7 (in-place)
I0403 12:52:29.494532 26846 net.cpp:141] Setting up relu7
I0403 12:52:29.494560 26846 net.cpp:148] Top shape: 100 4096 (409600)
I0403 12:52:29.494622 26846 net.cpp:156] Memory required for data: 829887600
I0403 12:52:29.494638 26846 layer_factory.hpp:77] Creating layer drop7
I0403 12:52:29.494660 26846 net.cpp:91] Creating Layer drop7
I0403 12:52:29.494678 26846 net.cpp:425] drop7 <- fc7
I0403 12:52:29.494694 26846 net.cpp:386] drop7 -> fc7 (in-place)
I0403 12:52:29.494740 26846 net.cpp:141] Setting up drop7
I0403 12:52:29.494761 26846 net.cpp:148] Top shape: 100 4096 (409600)
I0403 12:52:29.494776 26846 net.cpp:156] Memory required for data: 831526000
I0403 12:52:29.494791 26846 layer_factory.hpp:77] Creating layer fc8_plantvillage
I0403 12:52:29.494812 26846 net.cpp:91] Creating Layer fc8_plantvillage
I0403 12:52:29.494829 26846 net.cpp:425] fc8_plantvillage <- fc7
I0403 12:52:29.494846 26846 net.cpp:399] fc8_plantvillage -> fc8_plantvillage
I0403 12:52:29.501293 26846 net.cpp:141] Setting up fc8_plantvillage
I0403 12:52:29.501322 26846 net.cpp:148] Top shape: 100 38 (3800)
I0403 12:52:29.501338 26846 net.cpp:156] Memory required for data: 831541200
I0403 12:52:29.501358 26846 layer_factory.hpp:77] Creating layer fc8_plantvillage_fc8_plantvillage_0_split
I0403 12:52:29.501376 26846 net.cpp:91] Creating Layer fc8_plantvillage_fc8_plantvillage_0_split
I0403 12:52:29.501394 26846 net.cpp:425] fc8_plantvillage_fc8_plantvillage_0_split <- fc8_plantvillage
I0403 12:52:29.501411 26846 net.cpp:399] fc8_plantvillage_fc8_plantvillage_0_split -> fc8_plantvillage_fc8_plantvillage_0_split_0
I0403 12:52:29.501435 26846 net.cpp:399] fc8_plantvillage_fc8_plantvillage_0_split -> fc8_plantvillage_fc8_plantvillage_0_split_1
I0403 12:52:29.501456 26846 net.cpp:399] fc8_plantvillage_fc8_plantvillage_0_split -> fc8_plantvillage_fc8_plantvillage_0_split_2
I0403 12:52:29.501530 26846 net.cpp:141] Setting up fc8_plantvillage_fc8_plantvillage_0_split
I0403 12:52:29.501555 26846 net.cpp:148] Top shape: 100 38 (3800)
I0403 12:52:29.501572 26846 net.cpp:148] Top shape: 100 38 (3800)
I0403 12:52:29.501588 26846 net.cpp:148] Top shape: 100 38 (3800)
I0403 12:52:29.501602 26846 net.cpp:156] Memory required for data: 831586800
I0403 12:52:29.501616 26846 layer_factory.hpp:77] Creating layer prob
I0403 12:52:29.501633 26846 net.cpp:91] Creating Layer prob
I0403 12:52:29.501651 26846 net.cpp:425] prob <- fc8_plantvillage_fc8_plantvillage_0_split_0
I0403 12:52:29.501668 26846 net.cpp:399] prob -> prob
I0403 12:52:29.501880 26846 net.cpp:141] Setting up prob
I0403 12:52:29.501905 26846 net.cpp:148] Top shape: 100 38 (3800)
I0403 12:52:29.501920 26846 net.cpp:156] Memory required for data: 831602000
I0403 12:52:29.501935 26846 layer_factory.hpp:77] Creating layer hdf5out
I0403 12:52:29.501957 26846 net.cpp:91] Creating Layer hdf5out
I0403 12:52:29.501974 26846 net.cpp:425] hdf5out <- prob
I0403 12:52:29.501991 26846 net.cpp:425] hdf5out <- label_data_1_split_0
I0403 12:52:29.506897 26846 net.cpp:141] Setting up hdf5out
…
