…
I0403 12:30:11.355780 26342 net.cpp:313] The NetState phase (1) differed from the phase (0) specified by a rule in layer data
I0403 12:30:11.356066 26342 net.cpp:49] Initializing net from parameters: 
state {
  phase: TEST
}
layer {
  name: "data"
  type: "Data"
  top: "data"
  top: "label"
  include {
    phase: TEST
  }
  transform_param {
    crop_size: 227
    mean_file: "/home/mohanty/data/final_dataset/lmdb/color-20-80/mean.binaryproto"
  }
  data_param {
    source: "/home/mohanty/data/final_dataset/lmdb/color-20-80/test_db"
    batch_size: 100
    backend: LMDB
  }
}
layer {
  name: "conv1"
  type: "Convolution"
  bottom: "data"
  top: "conv1"
  param {
    lr_mult: 1
    decay_mult: 1
  }
  param {
    lr_mult: 2
    decay_mult: 0
  }
  convolution_param {
    num_output: 96
    kernel_size: 11
    stride: 4
    weight_filler {
      type: "gaussian"
      std: 0.01
    }
    bias_filler {
      type: "constant"
      value: 0
    }
  }
}
layer {
  name: "relu1"
  type: "ReLU"
  bottom: "conv1"
  top: "conv1"
}
layer {
  name: "norm1"
  type: "LRN"
  bottom: "conv1"
  top: "norm1"
  lrn_param {
    local_size: 5
    alpha: 0.0001
    beta: 0.75
  }
}
layer {
  name: "pool1"
  type: "Pooling"
  bottom: "norm1"
  top: "pool1"
  pooling_param {
    pool: MAX
    kernel_size: 3
    stride: 2
  }
}
layer {
  name: "conv2"
  type: "Convolution"
  bottom: "pool1"
  top: "conv2"
  param {
    lr_mult: 1
    decay_mult: 1
  }
  param {
    lr_mult: 2
    decay_mult: 0
  }
  convolution_param {
    num_output: 256
    pad: 2
    kernel_size: 5
    group: 2
    weight_filler {
      type: "gaussian"
      std: 0.01
    }
    bias_filler {
      type: "constant"
      value: 0.1
    }
  }
}
layer {
  name: "relu2"
  type: "ReLU"
  bottom: "conv2"
  top: "conv2"
}
layer {
  name: "norm2"
  type: "LRN"
  bottom: "conv2"
  top: "norm2"
  lrn_param {
    local_size: 5
    alpha: 0.0001
    beta: 0.75
  }
}
layer {
  name: "pool2"
  type: "Pooling"
  bottom: "norm2"
  top: "pool2"
  pooling_param {
    pool: MAX
    kernel_size: 3
    stride: 2
  }
}
layer {
  name: "conv3"
  type: "Convolution"
  bottom: "pool2"
  top: "conv3"
  param {
    lr_mult: 1
    decay_mult: 1
  }
  param {
    lr_mult: 2
    decay_mult: 0
  }
  convolution_param {
    num_output: 384
    pad: 1
    kernel_size: 3
    weight_filler {
      type: "gaussian"
      std: 0.01
    }
    bias_filler {
      type: "constant"
      value: 0
    }
  }
}
layer {
  name: "relu3"
  type: "ReLU"
  bottom: "conv3"
  top: "conv3"
}
layer {
  name: "conv4"
  type: "Convolution"
  bottom: "conv3"
  top: "conv4"
  param {
    lr_mult: 1
    decay_mult: 1
  }
  param {
    lr_mult: 2
    decay_mult: 0
  }
  convolution_param {
    num_output: 384
    pad: 1
    kernel_size: 3
    group: 2
    weight_filler {
      type: "gaussian"
      std: 0.01
    }
    bias_filler {
      type: "constant"
      value: 0.1
    }
  }
}
layer {
  name: "relu4"
  type: "ReLU"
  bottom: "conv4"
  top: "conv4"
}
layer {
  name: "conv5"
  type: "Convolution"
  bottom: "conv4"
  top: "conv5"
  param {
    lr_mult: 1
    decay_mult: 1
  }
  param {
    lr_mult: 2
    decay_mult: 0
  }
  convolution_param {
    num_output: 256
    pad: 1
    kernel_size: 3
    group: 2
    weight_filler {
      type: "gaussian"
      std: 0.01
    }
    bias_filler {
      type: "constant"
      value: 0.1
    }
  }
}
layer {
  name: "relu5"
  type: "ReLU"
  bottom: "conv5"
  top: "conv5"
}
layer {
  name: "pool5"
  type: "Pooling"
  bottom: "conv5"
  top: "pool5"
  pooling_param {
    pool: MAX
    kernel_size: 3
    stride: 2
  }
}
layer {
  name: "fc6"
  type: "InnerProduct"
  bottom: "pool5"
  top: "fc6"
  param {
    lr_mult: 1
    decay_mult: 1
  }
  param {
    lr_mult: 2
    decay_mult: 0
  }
  inner_product_param {
    num_output: 4096
    weight_filler {
      type: "gaussian"
      std: 0.005
    }
    bias_filler {
      type: "constant"
      value: 0.1
    }
  }
}
layer {
  name: "relu6"
  type: "ReLU"
  bottom: "fc6"
  top: "fc6"
}
layer {
  name: "drop6"
  type: "Dropout"
  bottom: "fc6"
  top: "fc6"
  dropout_param {
    dropout_ratio: 0.5
  }
}
layer {
  name: "fc7"
  type: "InnerProduct"
  bottom: "fc6"
  top: "fc7"
  param {
    lr_mult: 1
    decay_mult: 1
  }
  param {
    lr_mult: 2
    decay_mult: 0
  }
  inner_product_param {
    num_output: 4096
    weight_filler {
      type: "gaussian"
      std: 0.005
    }
    bias_filler {
      type: "constant"
      value: 0.1
    }
  }
}
layer {
  name: "relu7"
  type: "ReLU"
  bottom: "fc7"
  top: "fc7"
}
layer {
  name: "drop7"
  type: "Dropout"
  bottom: "fc7"
  top: "fc7"
  dropout_param {
    dropout_ratio: 0.5
  }
}
layer {
  name: "fc8_plantvillage"
  type: "InnerProduct"
  bottom: "fc7"
  top: "fc8_plantvillage"
  param {
    lr_mult: 1
    decay_mult: 1
  }
  param {
    lr_mult: 2
    decay_mult: 0
  }
  inner_product_param {
    num_output: 38
    weight_filler {
      type: "gaussian"
      std: 0.01
    }
    bias_filler {
      type: "constant"
      value: 0
    }
  }
}
layer {
  name: "prob"
  type: "Softmax"
  bottom: "fc8_plantvillage"
  top: "prob"
  include {
    phase: TEST
  }
}
layer {
  name: "hdf5out"
  type: "HDF5Output"
  bottom: "prob"
  bottom: "label"
  include {
    phase: TEST
  }
  hdf5_output_param {
    file_name: "hdf5_dumps/iter_972.h5"
  }
}
layer {
  name: "loss"
  type: "SoftmaxWithLoss"
  bottom: "fc8_plantvillage"
  bottom: "label"
  top: "loss"
}
layer {
  name: "accuracy"
  type: "Accuracy"
  bottom: "fc8_plantvillage"
  bottom: "label"
  top: "accuracy"
  include {
    phase: TEST
  }
}
I0403 12:30:11.356660 26342 layer_factory.hpp:77] Creating layer data
I0403 12:30:11.357326 26342 net.cpp:91] Creating Layer data
I0403 12:30:11.357360 26342 net.cpp:399] data -> data
I0403 12:30:11.357412 26342 net.cpp:399] data -> label
I0403 12:30:11.357450 26342 data_transformer.cpp:25] Loading mean file from: /home/mohanty/data/final_dataset/lmdb/color-20-80/mean.binaryproto
I0403 12:30:11.360366 26345 db_lmdb.cpp:38] Opened lmdb /home/mohanty/data/final_dataset/lmdb/color-20-80/test_db
I0403 12:30:11.372040 26342 data_layer.cpp:41] output data size: 100,3,227,227
I0403 12:30:11.505617 26342 net.cpp:141] Setting up data
I0403 12:30:11.505681 26342 net.cpp:148] Top shape: 100 3 227 227 (15458700)
I0403 12:30:11.505705 26342 net.cpp:148] Top shape: 100 (100)
I0403 12:30:11.505722 26342 net.cpp:156] Memory required for data: 61835200
I0403 12:30:11.505753 26342 layer_factory.hpp:77] Creating layer label_data_1_split
I0403 12:30:11.505779 26342 net.cpp:91] Creating Layer label_data_1_split
I0403 12:30:11.505798 26342 net.cpp:425] label_data_1_split <- label
I0403 12:30:11.505832 26342 net.cpp:399] label_data_1_split -> label_data_1_split_0
I0403 12:30:11.505862 26342 net.cpp:399] label_data_1_split -> label_data_1_split_1
I0403 12:30:11.505883 26342 net.cpp:399] label_data_1_split -> label_data_1_split_2
I0403 12:30:11.505950 26342 net.cpp:141] Setting up label_data_1_split
I0403 12:30:11.505976 26342 net.cpp:148] Top shape: 100 (100)
I0403 12:30:11.505995 26342 net.cpp:148] Top shape: 100 (100)
I0403 12:30:11.506012 26342 net.cpp:148] Top shape: 100 (100)
I0403 12:30:11.506027 26342 net.cpp:156] Memory required for data: 61836400
I0403 12:30:11.506042 26342 layer_factory.hpp:77] Creating layer conv1
I0403 12:30:11.506075 26342 net.cpp:91] Creating Layer conv1
I0403 12:30:11.506096 26342 net.cpp:425] conv1 <- data
I0403 12:30:11.506117 26342 net.cpp:399] conv1 -> conv1
I0403 12:30:11.655109 26342 net.cpp:141] Setting up conv1
I0403 12:30:11.655187 26342 net.cpp:148] Top shape: 100 96 55 55 (29040000)
I0403 12:30:11.655206 26342 net.cpp:156] Memory required for data: 177996400
I0403 12:30:11.655238 26342 layer_factory.hpp:77] Creating layer relu1
I0403 12:30:11.655268 26342 net.cpp:91] Creating Layer relu1
I0403 12:30:11.655292 26342 net.cpp:425] relu1 <- conv1
I0403 12:30:11.655313 26342 net.cpp:386] relu1 -> conv1 (in-place)
I0403 12:30:11.655575 26342 net.cpp:141] Setting up relu1
I0403 12:30:11.655601 26342 net.cpp:148] Top shape: 100 96 55 55 (29040000)
I0403 12:30:11.655618 26342 net.cpp:156] Memory required for data: 294156400
I0403 12:30:11.655668 26342 layer_factory.hpp:77] Creating layer norm1
I0403 12:30:11.655699 26342 net.cpp:91] Creating Layer norm1
I0403 12:30:11.655717 26342 net.cpp:425] norm1 <- conv1
I0403 12:30:11.655737 26342 net.cpp:399] norm1 -> norm1
I0403 12:30:11.656050 26342 net.cpp:141] Setting up norm1
I0403 12:30:11.656080 26342 net.cpp:148] Top shape: 100 96 55 55 (29040000)
I0403 12:30:11.656096 26342 net.cpp:156] Memory required for data: 410316400
I0403 12:30:11.656112 26342 layer_factory.hpp:77] Creating layer pool1
I0403 12:30:11.656137 26342 net.cpp:91] Creating Layer pool1
I0403 12:30:11.656155 26342 net.cpp:425] pool1 <- norm1
I0403 12:30:11.656174 26342 net.cpp:399] pool1 -> pool1
I0403 12:30:11.656244 26342 net.cpp:141] Setting up pool1
I0403 12:30:11.656270 26342 net.cpp:148] Top shape: 100 96 27 27 (6998400)
I0403 12:30:11.656289 26342 net.cpp:156] Memory required for data: 438310000
I0403 12:30:11.656307 26342 layer_factory.hpp:77] Creating layer conv2
I0403 12:30:11.656333 26342 net.cpp:91] Creating Layer conv2
I0403 12:30:11.656350 26342 net.cpp:425] conv2 <- pool1
I0403 12:30:11.656379 26342 net.cpp:399] conv2 -> conv2
I0403 12:30:11.671669 26342 net.cpp:141] Setting up conv2
I0403 12:30:11.671715 26342 net.cpp:148] Top shape: 100 256 27 27 (18662400)
I0403 12:30:11.671733 26342 net.cpp:156] Memory required for data: 512959600
I0403 12:30:11.671756 26342 layer_factory.hpp:77] Creating layer relu2
I0403 12:30:11.671780 26342 net.cpp:91] Creating Layer relu2
I0403 12:30:11.671798 26342 net.cpp:425] relu2 <- conv2
I0403 12:30:11.671818 26342 net.cpp:386] relu2 -> conv2 (in-place)
I0403 12:30:11.672101 26342 net.cpp:141] Setting up relu2
I0403 12:30:11.672128 26342 net.cpp:148] Top shape: 100 256 27 27 (18662400)
I0403 12:30:11.672145 26342 net.cpp:156] Memory required for data: 587609200
I0403 12:30:11.672161 26342 layer_factory.hpp:77] Creating layer norm2
I0403 12:30:11.672186 26342 net.cpp:91] Creating Layer norm2
I0403 12:30:11.672204 26342 net.cpp:425] norm2 <- conv2
I0403 12:30:11.672230 26342 net.cpp:399] norm2 -> norm2
I0403 12:30:11.672446 26342 net.cpp:141] Setting up norm2
I0403 12:30:11.672473 26342 net.cpp:148] Top shape: 100 256 27 27 (18662400)
I0403 12:30:11.672489 26342 net.cpp:156] Memory required for data: 662258800
I0403 12:30:11.672505 26342 layer_factory.hpp:77] Creating layer pool2
I0403 12:30:11.672528 26342 net.cpp:91] Creating Layer pool2
I0403 12:30:11.672546 26342 net.cpp:425] pool2 <- norm2
I0403 12:30:11.672566 26342 net.cpp:399] pool2 -> pool2
I0403 12:30:11.672621 26342 net.cpp:141] Setting up pool2
I0403 12:30:11.672655 26342 net.cpp:148] Top shape: 100 256 13 13 (4326400)
I0403 12:30:11.672729 26342 net.cpp:156] Memory required for data: 679564400
I0403 12:30:11.672749 26342 layer_factory.hpp:77] Creating layer conv3
I0403 12:30:11.672775 26342 net.cpp:91] Creating Layer conv3
I0403 12:30:11.672794 26342 net.cpp:425] conv3 <- pool2
I0403 12:30:11.672816 26342 net.cpp:399] conv3 -> conv3
I0403 12:30:11.721631 26342 net.cpp:141] Setting up conv3
I0403 12:30:11.721706 26342 net.cpp:148] Top shape: 100 384 13 13 (6489600)
I0403 12:30:11.721725 26342 net.cpp:156] Memory required for data: 705522800
I0403 12:30:11.721752 26342 layer_factory.hpp:77] Creating layer relu3
I0403 12:30:11.721778 26342 net.cpp:91] Creating Layer relu3
I0403 12:30:11.721797 26342 net.cpp:425] relu3 <- conv3
I0403 12:30:11.721817 26342 net.cpp:386] relu3 -> conv3 (in-place)
I0403 12:30:11.722092 26342 net.cpp:141] Setting up relu3
I0403 12:30:11.722120 26342 net.cpp:148] Top shape: 100 384 13 13 (6489600)
I0403 12:30:11.722136 26342 net.cpp:156] Memory required for data: 731481200
I0403 12:30:11.722152 26342 layer_factory.hpp:77] Creating layer conv4
I0403 12:30:11.722180 26342 net.cpp:91] Creating Layer conv4
I0403 12:30:11.722199 26342 net.cpp:425] conv4 <- conv3
I0403 12:30:11.722221 26342 net.cpp:399] conv4 -> conv4
I0403 12:30:11.751627 26342 net.cpp:141] Setting up conv4
I0403 12:30:11.751690 26342 net.cpp:148] Top shape: 100 384 13 13 (6489600)
I0403 12:30:11.751742 26342 net.cpp:156] Memory required for data: 757439600
I0403 12:30:11.751767 26342 layer_factory.hpp:77] Creating layer relu4
I0403 12:30:11.751792 26342 net.cpp:91] Creating Layer relu4
I0403 12:30:11.751812 26342 net.cpp:425] relu4 <- conv4
I0403 12:30:11.751848 26342 net.cpp:386] relu4 -> conv4 (in-place)
I0403 12:30:11.752132 26342 net.cpp:141] Setting up relu4
I0403 12:30:11.752159 26342 net.cpp:148] Top shape: 100 384 13 13 (6489600)
I0403 12:30:11.752177 26342 net.cpp:156] Memory required for data: 783398000
I0403 12:30:11.752193 26342 layer_factory.hpp:77] Creating layer conv5
I0403 12:30:11.752219 26342 net.cpp:91] Creating Layer conv5
I0403 12:30:11.752238 26342 net.cpp:425] conv5 <- conv4
I0403 12:30:11.752260 26342 net.cpp:399] conv5 -> conv5
I0403 12:30:11.772734 26342 net.cpp:141] Setting up conv5
I0403 12:30:11.772788 26342 net.cpp:148] Top shape: 100 256 13 13 (4326400)
I0403 12:30:11.772805 26342 net.cpp:156] Memory required for data: 800703600
I0403 12:30:11.772831 26342 layer_factory.hpp:77] Creating layer relu5
I0403 12:30:11.772856 26342 net.cpp:91] Creating Layer relu5
I0403 12:30:11.772876 26342 net.cpp:425] relu5 <- conv5
I0403 12:30:11.772896 26342 net.cpp:386] relu5 -> conv5 (in-place)
I0403 12:30:11.773171 26342 net.cpp:141] Setting up relu5
I0403 12:30:11.773200 26342 net.cpp:148] Top shape: 100 256 13 13 (4326400)
I0403 12:30:11.773216 26342 net.cpp:156] Memory required for data: 818009200
I0403 12:30:11.773233 26342 layer_factory.hpp:77] Creating layer pool5
I0403 12:30:11.773260 26342 net.cpp:91] Creating Layer pool5
I0403 12:30:11.773277 26342 net.cpp:425] pool5 <- conv5
I0403 12:30:11.773303 26342 net.cpp:399] pool5 -> pool5
I0403 12:30:11.773366 26342 net.cpp:141] Setting up pool5
I0403 12:30:11.773392 26342 net.cpp:148] Top shape: 100 256 6 6 (921600)
I0403 12:30:11.773408 26342 net.cpp:156] Memory required for data: 821695600
I0403 12:30:11.773424 26342 layer_factory.hpp:77] Creating layer fc6
I0403 12:30:11.773455 26342 net.cpp:91] Creating Layer fc6
I0403 12:30:11.773476 26342 net.cpp:425] fc6 <- pool5
I0403 12:30:11.773501 26342 net.cpp:399] fc6 -> fc6
I0403 12:30:13.328482 26342 net.cpp:141] Setting up fc6
I0403 12:30:13.328529 26342 net.cpp:148] Top shape: 100 4096 (409600)
I0403 12:30:13.328547 26342 net.cpp:156] Memory required for data: 823334000
I0403 12:30:13.328570 26342 layer_factory.hpp:77] Creating layer relu6
I0403 12:30:13.328594 26342 net.cpp:91] Creating Layer relu6
I0403 12:30:13.328613 26342 net.cpp:425] relu6 <- fc6
I0403 12:30:13.328637 26342 net.cpp:386] relu6 -> fc6 (in-place)
I0403 12:30:13.328857 26342 net.cpp:141] Setting up relu6
I0403 12:30:13.328883 26342 net.cpp:148] Top shape: 100 4096 (409600)
I0403 12:30:13.328898 26342 net.cpp:156] Memory required for data: 824972400
I0403 12:30:13.328914 26342 layer_factory.hpp:77] Creating layer drop6
I0403 12:30:13.328936 26342 net.cpp:91] Creating Layer drop6
I0403 12:30:13.328954 26342 net.cpp:425] drop6 <- fc6
I0403 12:30:13.328972 26342 net.cpp:386] drop6 -> fc6 (in-place)
I0403 12:30:13.329020 26342 net.cpp:141] Setting up drop6
I0403 12:30:13.329048 26342 net.cpp:148] Top shape: 100 4096 (409600)
I0403 12:30:13.329064 26342 net.cpp:156] Memory required for data: 826610800
I0403 12:30:13.329080 26342 layer_factory.hpp:77] Creating layer fc7
I0403 12:30:13.329102 26342 net.cpp:91] Creating Layer fc7
I0403 12:30:13.329118 26342 net.cpp:425] fc7 <- fc6
I0403 12:30:13.329140 26342 net.cpp:399] fc7 -> fc7
I0403 12:30:14.014153 26342 net.cpp:141] Setting up fc7
I0403 12:30:14.014230 26342 net.cpp:148] Top shape: 100 4096 (409600)
I0403 12:30:14.014247 26342 net.cpp:156] Memory required for data: 828249200
I0403 12:30:14.014269 26342 layer_factory.hpp:77] Creating layer relu7
I0403 12:30:14.014298 26342 net.cpp:91] Creating Layer relu7
I0403 12:30:14.014319 26342 net.cpp:425] relu7 <- fc7
I0403 12:30:14.014354 26342 net.cpp:386] relu7 -> fc7 (in-place)
I0403 12:30:14.014760 26342 net.cpp:141] Setting up relu7
I0403 12:30:14.014787 26342 net.cpp:148] Top shape: 100 4096 (409600)
I0403 12:30:14.014835 26342 net.cpp:156] Memory required for data: 829887600
I0403 12:30:14.014853 26342 layer_factory.hpp:77] Creating layer drop7
I0403 12:30:14.014873 26342 net.cpp:91] Creating Layer drop7
I0403 12:30:14.014889 26342 net.cpp:425] drop7 <- fc7
I0403 12:30:14.014909 26342 net.cpp:386] drop7 -> fc7 (in-place)
I0403 12:30:14.014955 26342 net.cpp:141] Setting up drop7
I0403 12:30:14.014978 26342 net.cpp:148] Top shape: 100 4096 (409600)
I0403 12:30:14.014993 26342 net.cpp:156] Memory required for data: 831526000
I0403 12:30:14.015009 26342 layer_factory.hpp:77] Creating layer fc8_plantvillage
I0403 12:30:14.015028 26342 net.cpp:91] Creating Layer fc8_plantvillage
I0403 12:30:14.015044 26342 net.cpp:425] fc8_plantvillage <- fc7
I0403 12:30:14.015066 26342 net.cpp:399] fc8_plantvillage -> fc8_plantvillage
I0403 12:30:14.021778 26342 net.cpp:141] Setting up fc8_plantvillage
I0403 12:30:14.021819 26342 net.cpp:148] Top shape: 100 38 (3800)
I0403 12:30:14.021836 26342 net.cpp:156] Memory required for data: 831541200
I0403 12:30:14.021854 26342 layer_factory.hpp:77] Creating layer fc8_plantvillage_fc8_plantvillage_0_split
I0403 12:30:14.021888 26342 net.cpp:91] Creating Layer fc8_plantvillage_fc8_plantvillage_0_split
I0403 12:30:14.021904 26342 net.cpp:425] fc8_plantvillage_fc8_plantvillage_0_split <- fc8_plantvillage
I0403 12:30:14.021924 26342 net.cpp:399] fc8_plantvillage_fc8_plantvillage_0_split -> fc8_plantvillage_fc8_plantvillage_0_split_0
I0403 12:30:14.021945 26342 net.cpp:399] fc8_plantvillage_fc8_plantvillage_0_split -> fc8_plantvillage_fc8_plantvillage_0_split_1
I0403 12:30:14.021966 26342 net.cpp:399] fc8_plantvillage_fc8_plantvillage_0_split -> fc8_plantvillage_fc8_plantvillage_0_split_2
I0403 12:30:14.022045 26342 net.cpp:141] Setting up fc8_plantvillage_fc8_plantvillage_0_split
I0403 12:30:14.022068 26342 net.cpp:148] Top shape: 100 38 (3800)
I0403 12:30:14.022085 26342 net.cpp:148] Top shape: 100 38 (3800)
I0403 12:30:14.022101 26342 net.cpp:148] Top shape: 100 38 (3800)
I0403 12:30:14.022116 26342 net.cpp:156] Memory required for data: 831586800
I0403 12:30:14.022132 26342 layer_factory.hpp:77] Creating layer prob
I0403 12:30:14.022163 26342 net.cpp:91] Creating Layer prob
I0403 12:30:14.022181 26342 net.cpp:425] prob <- fc8_plantvillage_fc8_plantvillage_0_split_0
I0403 12:30:14.022213 26342 net.cpp:399] prob -> prob
I0403 12:30:14.022449 26342 net.cpp:141] Setting up prob
I0403 12:30:14.022475 26342 net.cpp:148] Top shape: 100 38 (3800)
I0403 12:30:14.022503 26342 net.cpp:156] Memory required for data: 831602000
I0403 12:30:14.022519 26342 layer_factory.hpp:77] Creating layer hdf5out
I0403 12:30:14.022538 26342 net.cpp:91] Creating Layer hdf5out
I0403 12:30:14.022553 26342 net.cpp:425] hdf5out <- prob
I0403 12:30:14.022572 26342 net.cpp:425] hdf5out <- label_data_1_split_0
I0403 12:30:14.202004 26342 net.cpp:141] Setting up hdf5out
…
