…
I0403 13:01:21.924347 27192 net.cpp:313] The NetState phase (1) differed from the phase (0) specified by a rule in layer data
I0403 13:01:21.924638 27192 net.cpp:49] Initializing net from parameters: 
state {
  phase: TEST
}
layer {
  name: "data"
  type: "Data"
  top: "data"
  top: "label"
  include {
    phase: TEST
  }
  transform_param {
    crop_size: 227
    mean_file: "/home/mohanty/data/final_dataset/lmdb/color-20-80/mean.binaryproto"
  }
  data_param {
    source: "/home/mohanty/data/final_dataset/lmdb/color-20-80/test_db"
    batch_size: 100
    backend: LMDB
  }
}
layer {
  name: "conv1"
  type: "Convolution"
  bottom: "data"
  top: "conv1"
  param {
    lr_mult: 1
    decay_mult: 1
  }
  param {
    lr_mult: 2
    decay_mult: 0
  }
  convolution_param {
    num_output: 96
    kernel_size: 11
    stride: 4
    weight_filler {
      type: "gaussian"
      std: 0.01
    }
    bias_filler {
      type: "constant"
      value: 0
    }
  }
}
layer {
  name: "relu1"
  type: "ReLU"
  bottom: "conv1"
  top: "conv1"
}
layer {
  name: "norm1"
  type: "LRN"
  bottom: "conv1"
  top: "norm1"
  lrn_param {
    local_size: 5
    alpha: 0.0001
    beta: 0.75
  }
}
layer {
  name: "pool1"
  type: "Pooling"
  bottom: "norm1"
  top: "pool1"
  pooling_param {
    pool: MAX
    kernel_size: 3
    stride: 2
  }
}
layer {
  name: "conv2"
  type: "Convolution"
  bottom: "pool1"
  top: "conv2"
  param {
    lr_mult: 1
    decay_mult: 1
  }
  param {
    lr_mult: 2
    decay_mult: 0
  }
  convolution_param {
    num_output: 256
    pad: 2
    kernel_size: 5
    group: 2
    weight_filler {
      type: "gaussian"
      std: 0.01
    }
    bias_filler {
      type: "constant"
      value: 0.1
    }
  }
}
layer {
  name: "relu2"
  type: "ReLU"
  bottom: "conv2"
  top: "conv2"
}
layer {
  name: "norm2"
  type: "LRN"
  bottom: "conv2"
  top: "norm2"
  lrn_param {
    local_size: 5
    alpha: 0.0001
    beta: 0.75
  }
}
layer {
  name: "pool2"
  type: "Pooling"
  bottom: "norm2"
  top: "pool2"
  pooling_param {
    pool: MAX
    kernel_size: 3
    stride: 2
  }
}
layer {
  name: "conv3"
  type: "Convolution"
  bottom: "pool2"
  top: "conv3"
  param {
    lr_mult: 1
    decay_mult: 1
  }
  param {
    lr_mult: 2
    decay_mult: 0
  }
  convolution_param {
    num_output: 384
    pad: 1
    kernel_size: 3
    weight_filler {
      type: "gaussian"
      std: 0.01
    }
    bias_filler {
      type: "constant"
      value: 0
    }
  }
}
layer {
  name: "relu3"
  type: "ReLU"
  bottom: "conv3"
  top: "conv3"
}
layer {
  name: "conv4"
  type: "Convolution"
  bottom: "conv3"
  top: "conv4"
  param {
    lr_mult: 1
    decay_mult: 1
  }
  param {
    lr_mult: 2
    decay_mult: 0
  }
  convolution_param {
    num_output: 384
    pad: 1
    kernel_size: 3
    group: 2
    weight_filler {
      type: "gaussian"
      std: 0.01
    }
    bias_filler {
      type: "constant"
      value: 0.1
    }
  }
}
layer {
  name: "relu4"
  type: "ReLU"
  bottom: "conv4"
  top: "conv4"
}
layer {
  name: "conv5"
  type: "Convolution"
  bottom: "conv4"
  top: "conv5"
  param {
    lr_mult: 1
    decay_mult: 1
  }
  param {
    lr_mult: 2
    decay_mult: 0
  }
  convolution_param {
    num_output: 256
    pad: 1
    kernel_size: 3
    group: 2
    weight_filler {
      type: "gaussian"
      std: 0.01
    }
    bias_filler {
      type: "constant"
      value: 0.1
    }
  }
}
layer {
  name: "relu5"
  type: "ReLU"
  bottom: "conv5"
  top: "conv5"
}
layer {
  name: "pool5"
  type: "Pooling"
  bottom: "conv5"
  top: "pool5"
  pooling_param {
    pool: MAX
    kernel_size: 3
    stride: 2
  }
}
layer {
  name: "fc6"
  type: "InnerProduct"
  bottom: "pool5"
  top: "fc6"
  param {
    lr_mult: 1
    decay_mult: 1
  }
  param {
    lr_mult: 2
    decay_mult: 0
  }
  inner_product_param {
    num_output: 4096
    weight_filler {
      type: "gaussian"
      std: 0.005
    }
    bias_filler {
      type: "constant"
      value: 0.1
    }
  }
}
layer {
  name: "relu6"
  type: "ReLU"
  bottom: "fc6"
  top: "fc6"
}
layer {
  name: "drop6"
  type: "Dropout"
  bottom: "fc6"
  top: "fc6"
  dropout_param {
    dropout_ratio: 0.5
  }
}
layer {
  name: "fc7"
  type: "InnerProduct"
  bottom: "fc6"
  top: "fc7"
  param {
    lr_mult: 1
    decay_mult: 1
  }
  param {
    lr_mult: 2
    decay_mult: 0
  }
  inner_product_param {
    num_output: 4096
    weight_filler {
      type: "gaussian"
      std: 0.005
    }
    bias_filler {
      type: "constant"
      value: 0.1
    }
  }
}
layer {
  name: "relu7"
  type: "ReLU"
  bottom: "fc7"
  top: "fc7"
}
layer {
  name: "drop7"
  type: "Dropout"
  bottom: "fc7"
  top: "fc7"
  dropout_param {
    dropout_ratio: 0.5
  }
}
layer {
  name: "fc8_plantvillage"
  type: "InnerProduct"
  bottom: "fc7"
  top: "fc8_plantvillage"
  param {
    lr_mult: 1
    decay_mult: 1
  }
  param {
    lr_mult: 2
    decay_mult: 0
  }
  inner_product_param {
    num_output: 38
    weight_filler {
      type: "gaussian"
      std: 0.01
    }
    bias_filler {
      type: "constant"
      value: 0
    }
  }
}
layer {
  name: "prob"
  type: "Softmax"
  bottom: "fc8_plantvillage"
  top: "prob"
  include {
    phase: TEST
  }
}
layer {
  name: "hdf5out"
  type: "HDF5Output"
  bottom: "prob"
  bottom: "label"
  include {
    phase: TEST
  }
  hdf5_output_param {
    file_name: "hdf5_dumps/iter_3240.h5"
  }
}
layer {
  name: "loss"
  type: "SoftmaxWithLoss"
  bottom: "fc8_plantvillage"
  bottom: "label"
  top: "loss"
}
layer {
  name: "accuracy"
  type: "Accuracy"
  bottom: "fc8_plantvillage"
  bottom: "label"
  top: "accuracy"
  include {
    phase: TEST
  }
}
I0403 13:01:21.925215 27192 layer_factory.hpp:77] Creating layer data
I0403 13:01:21.925845 27192 net.cpp:91] Creating Layer data
I0403 13:01:21.925879 27192 net.cpp:399] data -> data
I0403 13:01:21.925928 27192 net.cpp:399] data -> label
I0403 13:01:21.925964 27192 data_transformer.cpp:25] Loading mean file from: /home/mohanty/data/final_dataset/lmdb/color-20-80/mean.binaryproto
I0403 13:01:21.928506 27195 db_lmdb.cpp:38] Opened lmdb /home/mohanty/data/final_dataset/lmdb/color-20-80/test_db
I0403 13:01:21.950544 27192 data_layer.cpp:41] output data size: 100,3,227,227
I0403 13:01:22.079988 27192 net.cpp:141] Setting up data
I0403 13:01:22.080083 27192 net.cpp:148] Top shape: 100 3 227 227 (15458700)
I0403 13:01:22.080106 27192 net.cpp:148] Top shape: 100 (100)
I0403 13:01:22.080122 27192 net.cpp:156] Memory required for data: 61835200
I0403 13:01:22.080150 27192 layer_factory.hpp:77] Creating layer label_data_1_split
I0403 13:01:22.080180 27192 net.cpp:91] Creating Layer label_data_1_split
I0403 13:01:22.080199 27192 net.cpp:425] label_data_1_split <- label
I0403 13:01:22.080230 27192 net.cpp:399] label_data_1_split -> label_data_1_split_0
I0403 13:01:22.080262 27192 net.cpp:399] label_data_1_split -> label_data_1_split_1
I0403 13:01:22.080286 27192 net.cpp:399] label_data_1_split -> label_data_1_split_2
I0403 13:01:22.080349 27192 net.cpp:141] Setting up label_data_1_split
I0403 13:01:22.080374 27192 net.cpp:148] Top shape: 100 (100)
I0403 13:01:22.080390 27192 net.cpp:148] Top shape: 100 (100)
I0403 13:01:22.080406 27192 net.cpp:148] Top shape: 100 (100)
I0403 13:01:22.080420 27192 net.cpp:156] Memory required for data: 61836400
I0403 13:01:22.080436 27192 layer_factory.hpp:77] Creating layer conv1
I0403 13:01:22.080468 27192 net.cpp:91] Creating Layer conv1
I0403 13:01:22.080488 27192 net.cpp:425] conv1 <- data
I0403 13:01:22.080507 27192 net.cpp:399] conv1 -> conv1
I0403 13:01:22.229442 27192 net.cpp:141] Setting up conv1
I0403 13:01:22.229519 27192 net.cpp:148] Top shape: 100 96 55 55 (29040000)
I0403 13:01:22.229537 27192 net.cpp:156] Memory required for data: 177996400
I0403 13:01:22.229570 27192 layer_factory.hpp:77] Creating layer relu1
I0403 13:01:22.229600 27192 net.cpp:91] Creating Layer relu1
I0403 13:01:22.229621 27192 net.cpp:425] relu1 <- conv1
I0403 13:01:22.229641 27192 net.cpp:386] relu1 -> conv1 (in-place)
I0403 13:01:22.229918 27192 net.cpp:141] Setting up relu1
I0403 13:01:22.229948 27192 net.cpp:148] Top shape: 100 96 55 55 (29040000)
I0403 13:01:22.229964 27192 net.cpp:156] Memory required for data: 294156400
I0403 13:01:22.230016 27192 layer_factory.hpp:77] Creating layer norm1
I0403 13:01:22.230049 27192 net.cpp:91] Creating Layer norm1
I0403 13:01:22.230069 27192 net.cpp:425] norm1 <- conv1
I0403 13:01:22.230093 27192 net.cpp:399] norm1 -> norm1
I0403 13:01:22.230533 27192 net.cpp:141] Setting up norm1
I0403 13:01:22.230576 27192 net.cpp:148] Top shape: 100 96 55 55 (29040000)
I0403 13:01:22.230593 27192 net.cpp:156] Memory required for data: 410316400
I0403 13:01:22.230612 27192 layer_factory.hpp:77] Creating layer pool1
I0403 13:01:22.230635 27192 net.cpp:91] Creating Layer pool1
I0403 13:01:22.230654 27192 net.cpp:425] pool1 <- norm1
I0403 13:01:22.230675 27192 net.cpp:399] pool1 -> pool1
I0403 13:01:22.230748 27192 net.cpp:141] Setting up pool1
I0403 13:01:22.230774 27192 net.cpp:148] Top shape: 100 96 27 27 (6998400)
I0403 13:01:22.230790 27192 net.cpp:156] Memory required for data: 438310000
I0403 13:01:22.230806 27192 layer_factory.hpp:77] Creating layer conv2
I0403 13:01:22.230834 27192 net.cpp:91] Creating Layer conv2
I0403 13:01:22.230852 27192 net.cpp:425] conv2 <- pool1
I0403 13:01:22.230875 27192 net.cpp:399] conv2 -> conv2
I0403 13:01:22.247134 27192 net.cpp:141] Setting up conv2
I0403 13:01:22.247187 27192 net.cpp:148] Top shape: 100 256 27 27 (18662400)
I0403 13:01:22.247207 27192 net.cpp:156] Memory required for data: 512959600
I0403 13:01:22.247231 27192 layer_factory.hpp:77] Creating layer relu2
I0403 13:01:22.247256 27192 net.cpp:91] Creating Layer relu2
I0403 13:01:22.247273 27192 net.cpp:425] relu2 <- conv2
I0403 13:01:22.247297 27192 net.cpp:386] relu2 -> conv2 (in-place)
I0403 13:01:22.247598 27192 net.cpp:141] Setting up relu2
I0403 13:01:22.247637 27192 net.cpp:148] Top shape: 100 256 27 27 (18662400)
I0403 13:01:22.247656 27192 net.cpp:156] Memory required for data: 587609200
I0403 13:01:22.247673 27192 layer_factory.hpp:77] Creating layer norm2
I0403 13:01:22.247699 27192 net.cpp:91] Creating Layer norm2
I0403 13:01:22.247717 27192 net.cpp:425] norm2 <- conv2
I0403 13:01:22.247737 27192 net.cpp:399] norm2 -> norm2
I0403 13:01:22.247964 27192 net.cpp:141] Setting up norm2
I0403 13:01:22.247994 27192 net.cpp:148] Top shape: 100 256 27 27 (18662400)
I0403 13:01:22.248011 27192 net.cpp:156] Memory required for data: 662258800
I0403 13:01:22.248028 27192 layer_factory.hpp:77] Creating layer pool2
I0403 13:01:22.248049 27192 net.cpp:91] Creating Layer pool2
I0403 13:01:22.248066 27192 net.cpp:425] pool2 <- norm2
I0403 13:01:22.248087 27192 net.cpp:399] pool2 -> pool2
I0403 13:01:22.248186 27192 net.cpp:141] Setting up pool2
I0403 13:01:22.248214 27192 net.cpp:148] Top shape: 100 256 13 13 (4326400)
I0403 13:01:22.248229 27192 net.cpp:156] Memory required for data: 679564400
I0403 13:01:22.248245 27192 layer_factory.hpp:77] Creating layer conv3
I0403 13:01:22.248276 27192 net.cpp:91] Creating Layer conv3
I0403 13:01:22.248296 27192 net.cpp:425] conv3 <- pool2
I0403 13:01:22.248317 27192 net.cpp:399] conv3 -> conv3
I0403 13:01:22.295243 27192 net.cpp:141] Setting up conv3
I0403 13:01:22.295295 27192 net.cpp:148] Top shape: 100 384 13 13 (6489600)
I0403 13:01:22.295315 27192 net.cpp:156] Memory required for data: 705522800
I0403 13:01:22.295342 27192 layer_factory.hpp:77] Creating layer relu3
I0403 13:01:22.295366 27192 net.cpp:91] Creating Layer relu3
I0403 13:01:22.295382 27192 net.cpp:425] relu3 <- conv3
I0403 13:01:22.295405 27192 net.cpp:386] relu3 -> conv3 (in-place)
I0403 13:01:22.295701 27192 net.cpp:141] Setting up relu3
I0403 13:01:22.295732 27192 net.cpp:148] Top shape: 100 384 13 13 (6489600)
I0403 13:01:22.295749 27192 net.cpp:156] Memory required for data: 731481200
I0403 13:01:22.295766 27192 layer_factory.hpp:77] Creating layer conv4
I0403 13:01:22.295795 27192 net.cpp:91] Creating Layer conv4
I0403 13:01:22.295814 27192 net.cpp:425] conv4 <- conv3
I0403 13:01:22.295833 27192 net.cpp:399] conv4 -> conv4
I0403 13:01:22.330031 27192 net.cpp:141] Setting up conv4
I0403 13:01:22.330107 27192 net.cpp:148] Top shape: 100 384 13 13 (6489600)
I0403 13:01:22.330159 27192 net.cpp:156] Memory required for data: 757439600
I0403 13:01:22.330183 27192 layer_factory.hpp:77] Creating layer relu4
I0403 13:01:22.330210 27192 net.cpp:91] Creating Layer relu4
I0403 13:01:22.330231 27192 net.cpp:425] relu4 <- conv4
I0403 13:01:22.330260 27192 net.cpp:386] relu4 -> conv4 (in-place)
I0403 13:01:22.330552 27192 net.cpp:141] Setting up relu4
I0403 13:01:22.330581 27192 net.cpp:148] Top shape: 100 384 13 13 (6489600)
I0403 13:01:22.330610 27192 net.cpp:156] Memory required for data: 783398000
I0403 13:01:22.330627 27192 layer_factory.hpp:77] Creating layer conv5
I0403 13:01:22.330657 27192 net.cpp:91] Creating Layer conv5
I0403 13:01:22.330677 27192 net.cpp:425] conv5 <- conv4
I0403 13:01:22.330700 27192 net.cpp:399] conv5 -> conv5
I0403 13:01:22.352630 27192 net.cpp:141] Setting up conv5
I0403 13:01:22.352689 27192 net.cpp:148] Top shape: 100 256 13 13 (4326400)
I0403 13:01:22.352706 27192 net.cpp:156] Memory required for data: 800703600
I0403 13:01:22.352733 27192 layer_factory.hpp:77] Creating layer relu5
I0403 13:01:22.352756 27192 net.cpp:91] Creating Layer relu5
I0403 13:01:22.352773 27192 net.cpp:425] relu5 <- conv5
I0403 13:01:22.352794 27192 net.cpp:386] relu5 -> conv5 (in-place)
I0403 13:01:22.353130 27192 net.cpp:141] Setting up relu5
I0403 13:01:22.353159 27192 net.cpp:148] Top shape: 100 256 13 13 (4326400)
I0403 13:01:22.353176 27192 net.cpp:156] Memory required for data: 818009200
I0403 13:01:22.353193 27192 layer_factory.hpp:77] Creating layer pool5
I0403 13:01:22.353216 27192 net.cpp:91] Creating Layer pool5
I0403 13:01:22.353234 27192 net.cpp:425] pool5 <- conv5
I0403 13:01:22.353268 27192 net.cpp:399] pool5 -> pool5
I0403 13:01:22.353337 27192 net.cpp:141] Setting up pool5
I0403 13:01:22.353363 27192 net.cpp:148] Top shape: 100 256 6 6 (921600)
I0403 13:01:22.353389 27192 net.cpp:156] Memory required for data: 821695600
I0403 13:01:22.353404 27192 layer_factory.hpp:77] Creating layer fc6
I0403 13:01:22.353435 27192 net.cpp:91] Creating Layer fc6
I0403 13:01:22.353453 27192 net.cpp:425] fc6 <- pool5
I0403 13:01:22.353474 27192 net.cpp:399] fc6 -> fc6
I0403 13:01:23.943330 27192 net.cpp:141] Setting up fc6
I0403 13:01:23.943408 27192 net.cpp:148] Top shape: 100 4096 (409600)
I0403 13:01:23.943425 27192 net.cpp:156] Memory required for data: 823334000
I0403 13:01:23.943447 27192 layer_factory.hpp:77] Creating layer relu6
I0403 13:01:23.943471 27192 net.cpp:91] Creating Layer relu6
I0403 13:01:23.943490 27192 net.cpp:425] relu6 <- fc6
I0403 13:01:23.943511 27192 net.cpp:386] relu6 -> fc6 (in-place)
I0403 13:01:23.943728 27192 net.cpp:141] Setting up relu6
I0403 13:01:23.943756 27192 net.cpp:148] Top shape: 100 4096 (409600)
I0403 13:01:23.943773 27192 net.cpp:156] Memory required for data: 824972400
I0403 13:01:23.943788 27192 layer_factory.hpp:77] Creating layer drop6
I0403 13:01:23.943806 27192 net.cpp:91] Creating Layer drop6
I0403 13:01:23.943824 27192 net.cpp:425] drop6 <- fc6
I0403 13:01:23.943840 27192 net.cpp:386] drop6 -> fc6 (in-place)
I0403 13:01:23.943894 27192 net.cpp:141] Setting up drop6
I0403 13:01:23.943919 27192 net.cpp:148] Top shape: 100 4096 (409600)
I0403 13:01:23.943935 27192 net.cpp:156] Memory required for data: 826610800
I0403 13:01:23.943951 27192 layer_factory.hpp:77] Creating layer fc7
I0403 13:01:23.943974 27192 net.cpp:91] Creating Layer fc7
I0403 13:01:23.943991 27192 net.cpp:425] fc7 <- fc6
I0403 13:01:23.944010 27192 net.cpp:399] fc7 -> fc7
I0403 13:01:24.629166 27192 net.cpp:141] Setting up fc7
I0403 13:01:24.629245 27192 net.cpp:148] Top shape: 100 4096 (409600)
I0403 13:01:24.629268 27192 net.cpp:156] Memory required for data: 828249200
I0403 13:01:24.629292 27192 layer_factory.hpp:77] Creating layer relu7
I0403 13:01:24.629314 27192 net.cpp:91] Creating Layer relu7
I0403 13:01:24.629334 27192 net.cpp:425] relu7 <- fc7
I0403 13:01:24.629359 27192 net.cpp:386] relu7 -> fc7 (in-place)
I0403 13:01:24.629770 27192 net.cpp:141] Setting up relu7
I0403 13:01:24.629801 27192 net.cpp:148] Top shape: 100 4096 (409600)
I0403 13:01:24.629848 27192 net.cpp:156] Memory required for data: 829887600
I0403 13:01:24.629864 27192 layer_factory.hpp:77] Creating layer drop7
I0403 13:01:24.629884 27192 net.cpp:91] Creating Layer drop7
I0403 13:01:24.629900 27192 net.cpp:425] drop7 <- fc7
I0403 13:01:24.629921 27192 net.cpp:386] drop7 -> fc7 (in-place)
I0403 13:01:24.629966 27192 net.cpp:141] Setting up drop7
I0403 13:01:24.629990 27192 net.cpp:148] Top shape: 100 4096 (409600)
I0403 13:01:24.630004 27192 net.cpp:156] Memory required for data: 831526000
I0403 13:01:24.630019 27192 layer_factory.hpp:77] Creating layer fc8_plantvillage
I0403 13:01:24.630043 27192 net.cpp:91] Creating Layer fc8_plantvillage
I0403 13:01:24.630059 27192 net.cpp:425] fc8_plantvillage <- fc7
I0403 13:01:24.630080 27192 net.cpp:399] fc8_plantvillage -> fc8_plantvillage
I0403 13:01:24.636791 27192 net.cpp:141] Setting up fc8_plantvillage
I0403 13:01:24.636821 27192 net.cpp:148] Top shape: 100 38 (3800)
I0403 13:01:24.636837 27192 net.cpp:156] Memory required for data: 831541200
I0403 13:01:24.636857 27192 layer_factory.hpp:77] Creating layer fc8_plantvillage_fc8_plantvillage_0_split
I0403 13:01:24.636875 27192 net.cpp:91] Creating Layer fc8_plantvillage_fc8_plantvillage_0_split
I0403 13:01:24.636890 27192 net.cpp:425] fc8_plantvillage_fc8_plantvillage_0_split <- fc8_plantvillage
I0403 13:01:24.636910 27192 net.cpp:399] fc8_plantvillage_fc8_plantvillage_0_split -> fc8_plantvillage_fc8_plantvillage_0_split_0
I0403 13:01:24.636934 27192 net.cpp:399] fc8_plantvillage_fc8_plantvillage_0_split -> fc8_plantvillage_fc8_plantvillage_0_split_1
I0403 13:01:24.636952 27192 net.cpp:399] fc8_plantvillage_fc8_plantvillage_0_split -> fc8_plantvillage_fc8_plantvillage_0_split_2
I0403 13:01:24.637032 27192 net.cpp:141] Setting up fc8_plantvillage_fc8_plantvillage_0_split
I0403 13:01:24.637055 27192 net.cpp:148] Top shape: 100 38 (3800)
I0403 13:01:24.637071 27192 net.cpp:148] Top shape: 100 38 (3800)
I0403 13:01:24.637087 27192 net.cpp:148] Top shape: 100 38 (3800)
I0403 13:01:24.637100 27192 net.cpp:156] Memory required for data: 831586800
I0403 13:01:24.637115 27192 layer_factory.hpp:77] Creating layer prob
I0403 13:01:24.637135 27192 net.cpp:91] Creating Layer prob
I0403 13:01:24.637151 27192 net.cpp:425] prob <- fc8_plantvillage_fc8_plantvillage_0_split_0
I0403 13:01:24.637169 27192 net.cpp:399] prob -> prob
I0403 13:01:24.637399 27192 net.cpp:141] Setting up prob
I0403 13:01:24.637429 27192 net.cpp:148] Top shape: 100 38 (3800)
I0403 13:01:24.637445 27192 net.cpp:156] Memory required for data: 831602000
I0403 13:01:24.637461 27192 layer_factory.hpp:77] Creating layer hdf5out
I0403 13:01:24.637480 27192 net.cpp:91] Creating Layer hdf5out
I0403 13:01:24.637495 27192 net.cpp:425] hdf5out <- prob
I0403 13:01:24.637512 27192 net.cpp:425] hdf5out <- label_data_1_split_0
I0403 13:01:24.641333 27192 net.cpp:141] Setting up hdf5out
…
