…
I0403 12:47:58.582828 26743 net.cpp:313] The NetState phase (1) differed from the phase (0) specified by a rule in layer data
I0403 12:47:58.583129 26743 net.cpp:49] Initializing net from parameters: 
state {
  phase: TEST
}
layer {
  name: "data"
  type: "Data"
  top: "data"
  top: "label"
  include {
    phase: TEST
  }
  transform_param {
    crop_size: 227
    mean_file: "/home/mohanty/data/final_dataset/lmdb/color-20-80/mean.binaryproto"
  }
  data_param {
    source: "/home/mohanty/data/final_dataset/lmdb/color-20-80/test_db"
    batch_size: 100
    backend: LMDB
  }
}
layer {
  name: "conv1"
  type: "Convolution"
  bottom: "data"
  top: "conv1"
  param {
    lr_mult: 1
    decay_mult: 1
  }
  param {
    lr_mult: 2
    decay_mult: 0
  }
  convolution_param {
    num_output: 96
    kernel_size: 11
    stride: 4
    weight_filler {
      type: "gaussian"
      std: 0.01
    }
    bias_filler {
      type: "constant"
      value: 0
    }
  }
}
layer {
  name: "relu1"
  type: "ReLU"
  bottom: "conv1"
  top: "conv1"
}
layer {
  name: "norm1"
  type: "LRN"
  bottom: "conv1"
  top: "norm1"
  lrn_param {
    local_size: 5
    alpha: 0.0001
    beta: 0.75
  }
}
layer {
  name: "pool1"
  type: "Pooling"
  bottom: "norm1"
  top: "pool1"
  pooling_param {
    pool: MAX
    kernel_size: 3
    stride: 2
  }
}
layer {
  name: "conv2"
  type: "Convolution"
  bottom: "pool1"
  top: "conv2"
  param {
    lr_mult: 1
    decay_mult: 1
  }
  param {
    lr_mult: 2
    decay_mult: 0
  }
  convolution_param {
    num_output: 256
    pad: 2
    kernel_size: 5
    group: 2
    weight_filler {
      type: "gaussian"
      std: 0.01
    }
    bias_filler {
      type: "constant"
      value: 0.1
    }
  }
}
layer {
  name: "relu2"
  type: "ReLU"
  bottom: "conv2"
  top: "conv2"
}
layer {
  name: "norm2"
  type: "LRN"
  bottom: "conv2"
  top: "norm2"
  lrn_param {
    local_size: 5
    alpha: 0.0001
    beta: 0.75
  }
}
layer {
  name: "pool2"
  type: "Pooling"
  bottom: "norm2"
  top: "pool2"
  pooling_param {
    pool: MAX
    kernel_size: 3
    stride: 2
  }
}
layer {
  name: "conv3"
  type: "Convolution"
  bottom: "pool2"
  top: "conv3"
  param {
    lr_mult: 1
    decay_mult: 1
  }
  param {
    lr_mult: 2
    decay_mult: 0
  }
  convolution_param {
    num_output: 384
    pad: 1
    kernel_size: 3
    weight_filler {
      type: "gaussian"
      std: 0.01
    }
    bias_filler {
      type: "constant"
      value: 0
    }
  }
}
layer {
  name: "relu3"
  type: "ReLU"
  bottom: "conv3"
  top: "conv3"
}
layer {
  name: "conv4"
  type: "Convolution"
  bottom: "conv3"
  top: "conv4"
  param {
    lr_mult: 1
    decay_mult: 1
  }
  param {
    lr_mult: 2
    decay_mult: 0
  }
  convolution_param {
    num_output: 384
    pad: 1
    kernel_size: 3
    group: 2
    weight_filler {
      type: "gaussian"
      std: 0.01
    }
    bias_filler {
      type: "constant"
      value: 0.1
    }
  }
}
layer {
  name: "relu4"
  type: "ReLU"
  bottom: "conv4"
  top: "conv4"
}
layer {
  name: "conv5"
  type: "Convolution"
  bottom: "conv4"
  top: "conv5"
  param {
    lr_mult: 1
    decay_mult: 1
  }
  param {
    lr_mult: 2
    decay_mult: 0
  }
  convolution_param {
    num_output: 256
    pad: 1
    kernel_size: 3
    group: 2
    weight_filler {
      type: "gaussian"
      std: 0.01
    }
    bias_filler {
      type: "constant"
      value: 0.1
    }
  }
}
layer {
  name: "relu5"
  type: "ReLU"
  bottom: "conv5"
  top: "conv5"
}
layer {
  name: "pool5"
  type: "Pooling"
  bottom: "conv5"
  top: "pool5"
  pooling_param {
    pool: MAX
    kernel_size: 3
    stride: 2
  }
}
layer {
  name: "fc6"
  type: "InnerProduct"
  bottom: "pool5"
  top: "fc6"
  param {
    lr_mult: 1
    decay_mult: 1
  }
  param {
    lr_mult: 2
    decay_mult: 0
  }
  inner_product_param {
    num_output: 4096
    weight_filler {
      type: "gaussian"
      std: 0.005
    }
    bias_filler {
      type: "constant"
      value: 0.1
    }
  }
}
layer {
  name: "relu6"
  type: "ReLU"
  bottom: "fc6"
  top: "fc6"
}
layer {
  name: "drop6"
  type: "Dropout"
  bottom: "fc6"
  top: "fc6"
  dropout_param {
    dropout_ratio: 0.5
  }
}
layer {
  name: "fc7"
  type: "InnerProduct"
  bottom: "fc6"
  top: "fc7"
  param {
    lr_mult: 1
    decay_mult: 1
  }
  param {
    lr_mult: 2
    decay_mult: 0
  }
  inner_product_param {
    num_output: 4096
    weight_filler {
      type: "gaussian"
      std: 0.005
    }
    bias_filler {
      type: "constant"
      value: 0.1
    }
  }
}
layer {
  name: "relu7"
  type: "ReLU"
  bottom: "fc7"
  top: "fc7"
}
layer {
  name: "drop7"
  type: "Dropout"
  bottom: "fc7"
  top: "fc7"
  dropout_param {
    dropout_ratio: 0.5
  }
}
layer {
  name: "fc8_plantvillage"
  type: "InnerProduct"
  bottom: "fc7"
  top: "fc8_plantvillage"
  param {
    lr_mult: 1
    decay_mult: 1
  }
  param {
    lr_mult: 2
    decay_mult: 0
  }
  inner_product_param {
    num_output: 38
    weight_filler {
      type: "gaussian"
      std: 0.01
    }
    bias_filler {
      type: "constant"
      value: 0
    }
  }
}
layer {
  name: "prob"
  type: "Softmax"
  bottom: "fc8_plantvillage"
  top: "prob"
  include {
    phase: TEST
  }
}
layer {
  name: "hdf5out"
  type: "HDF5Output"
  bottom: "prob"
  bottom: "label"
  include {
    phase: TEST
  }
  hdf5_output_param {
    file_name: "hdf5_dumps/iter_2268.h5"
  }
}
layer {
  name: "loss"
  type: "SoftmaxWithLoss"
  bottom: "fc8_plantvillage"
  bottom: "label"
  top: "loss"
}
layer {
  name: "accuracy"
  type: "Accuracy"
  bottom: "fc8_plantvillage"
  bottom: "label"
  top: "accuracy"
  include {
    phase: TEST
  }
}
I0403 12:47:58.583768 26743 layer_factory.hpp:77] Creating layer data
I0403 12:47:58.584434 26743 net.cpp:91] Creating Layer data
I0403 12:47:58.584467 26743 net.cpp:399] data -> data
I0403 12:47:58.584519 26743 net.cpp:399] data -> label
I0403 12:47:58.584558 26743 data_transformer.cpp:25] Loading mean file from: /home/mohanty/data/final_dataset/lmdb/color-20-80/mean.binaryproto
I0403 12:47:58.587077 26747 db_lmdb.cpp:38] Opened lmdb /home/mohanty/data/final_dataset/lmdb/color-20-80/test_db
I0403 12:47:58.598965 26743 data_layer.cpp:41] output data size: 100,3,227,227
I0403 12:47:58.732729 26743 net.cpp:141] Setting up data
I0403 12:47:58.732825 26743 net.cpp:148] Top shape: 100 3 227 227 (15458700)
I0403 12:47:58.732851 26743 net.cpp:148] Top shape: 100 (100)
I0403 12:47:58.732867 26743 net.cpp:156] Memory required for data: 61835200
I0403 12:47:58.732895 26743 layer_factory.hpp:77] Creating layer label_data_1_split
I0403 12:47:58.732923 26743 net.cpp:91] Creating Layer label_data_1_split
I0403 12:47:58.732941 26743 net.cpp:425] label_data_1_split <- label
I0403 12:47:58.732975 26743 net.cpp:399] label_data_1_split -> label_data_1_split_0
I0403 12:47:58.733002 26743 net.cpp:399] label_data_1_split -> label_data_1_split_1
I0403 12:47:58.733024 26743 net.cpp:399] label_data_1_split -> label_data_1_split_2
I0403 12:47:58.733090 26743 net.cpp:141] Setting up label_data_1_split
I0403 12:47:58.733116 26743 net.cpp:148] Top shape: 100 (100)
I0403 12:47:58.733134 26743 net.cpp:148] Top shape: 100 (100)
I0403 12:47:58.733150 26743 net.cpp:148] Top shape: 100 (100)
I0403 12:47:58.733166 26743 net.cpp:156] Memory required for data: 61836400
I0403 12:47:58.733182 26743 layer_factory.hpp:77] Creating layer conv1
I0403 12:47:58.733217 26743 net.cpp:91] Creating Layer conv1
I0403 12:47:58.733237 26743 net.cpp:425] conv1 <- data
I0403 12:47:58.733258 26743 net.cpp:399] conv1 -> conv1
I0403 12:47:58.883622 26743 net.cpp:141] Setting up conv1
I0403 12:47:58.883702 26743 net.cpp:148] Top shape: 100 96 55 55 (29040000)
I0403 12:47:58.883721 26743 net.cpp:156] Memory required for data: 177996400
I0403 12:47:58.883755 26743 layer_factory.hpp:77] Creating layer relu1
I0403 12:47:58.883783 26743 net.cpp:91] Creating Layer relu1
I0403 12:47:58.883805 26743 net.cpp:425] relu1 <- conv1
I0403 12:47:58.883827 26743 net.cpp:386] relu1 -> conv1 (in-place)
I0403 12:47:58.884121 26743 net.cpp:141] Setting up relu1
I0403 12:47:58.884151 26743 net.cpp:148] Top shape: 100 96 55 55 (29040000)
I0403 12:47:58.884168 26743 net.cpp:156] Memory required for data: 294156400
I0403 12:47:58.884218 26743 layer_factory.hpp:77] Creating layer norm1
I0403 12:47:58.884251 26743 net.cpp:91] Creating Layer norm1
I0403 12:47:58.884271 26743 net.cpp:425] norm1 <- conv1
I0403 12:47:58.884306 26743 net.cpp:399] norm1 -> norm1
I0403 12:47:58.884692 26743 net.cpp:141] Setting up norm1
I0403 12:47:58.884722 26743 net.cpp:148] Top shape: 100 96 55 55 (29040000)
I0403 12:47:58.884738 26743 net.cpp:156] Memory required for data: 410316400
I0403 12:47:58.884754 26743 layer_factory.hpp:77] Creating layer pool1
I0403 12:47:58.884781 26743 net.cpp:91] Creating Layer pool1
I0403 12:47:58.884801 26743 net.cpp:425] pool1 <- norm1
I0403 12:47:58.884820 26743 net.cpp:399] pool1 -> pool1
I0403 12:47:58.884892 26743 net.cpp:141] Setting up pool1
I0403 12:47:58.884919 26743 net.cpp:148] Top shape: 100 96 27 27 (6998400)
I0403 12:47:58.884935 26743 net.cpp:156] Memory required for data: 438310000
I0403 12:47:58.884953 26743 layer_factory.hpp:77] Creating layer conv2
I0403 12:47:58.884980 26743 net.cpp:91] Creating Layer conv2
I0403 12:47:58.884999 26743 net.cpp:425] conv2 <- pool1
I0403 12:47:58.885021 26743 net.cpp:399] conv2 -> conv2
I0403 12:47:58.900905 26743 net.cpp:141] Setting up conv2
I0403 12:47:58.900955 26743 net.cpp:148] Top shape: 100 256 27 27 (18662400)
I0403 12:47:58.900974 26743 net.cpp:156] Memory required for data: 512959600
I0403 12:47:58.901000 26743 layer_factory.hpp:77] Creating layer relu2
I0403 12:47:58.901022 26743 net.cpp:91] Creating Layer relu2
I0403 12:47:58.901039 26743 net.cpp:425] relu2 <- conv2
I0403 12:47:58.901059 26743 net.cpp:386] relu2 -> conv2 (in-place)
I0403 12:47:58.901357 26743 net.cpp:141] Setting up relu2
I0403 12:47:58.901387 26743 net.cpp:148] Top shape: 100 256 27 27 (18662400)
I0403 12:47:58.901406 26743 net.cpp:156] Memory required for data: 587609200
I0403 12:47:58.901422 26743 layer_factory.hpp:77] Creating layer norm2
I0403 12:47:58.901444 26743 net.cpp:91] Creating Layer norm2
I0403 12:47:58.901461 26743 net.cpp:425] norm2 <- conv2
I0403 12:47:58.901484 26743 net.cpp:399] norm2 -> norm2
I0403 12:47:58.901690 26743 net.cpp:141] Setting up norm2
I0403 12:47:58.901717 26743 net.cpp:148] Top shape: 100 256 27 27 (18662400)
I0403 12:47:58.901733 26743 net.cpp:156] Memory required for data: 662258800
I0403 12:47:58.901751 26743 layer_factory.hpp:77] Creating layer pool2
I0403 12:47:58.901773 26743 net.cpp:91] Creating Layer pool2
I0403 12:47:58.901790 26743 net.cpp:425] pool2 <- norm2
I0403 12:47:58.901809 26743 net.cpp:399] pool2 -> pool2
I0403 12:47:58.901865 26743 net.cpp:141] Setting up pool2
I0403 12:47:58.901890 26743 net.cpp:148] Top shape: 100 256 13 13 (4326400)
I0403 12:47:58.901906 26743 net.cpp:156] Memory required for data: 679564400
I0403 12:47:58.901923 26743 layer_factory.hpp:77] Creating layer conv3
I0403 12:47:58.901949 26743 net.cpp:91] Creating Layer conv3
I0403 12:47:58.901967 26743 net.cpp:425] conv3 <- pool2
I0403 12:47:58.901989 26743 net.cpp:399] conv3 -> conv3
I0403 12:47:58.942301 26743 net.cpp:141] Setting up conv3
I0403 12:47:58.942376 26743 net.cpp:148] Top shape: 100 384 13 13 (6489600)
I0403 12:47:58.942394 26743 net.cpp:156] Memory required for data: 705522800
I0403 12:47:58.942421 26743 layer_factory.hpp:77] Creating layer relu3
I0403 12:47:58.942446 26743 net.cpp:91] Creating Layer relu3
I0403 12:47:58.942467 26743 net.cpp:425] relu3 <- conv3
I0403 12:47:58.942488 26743 net.cpp:386] relu3 -> conv3 (in-place)
I0403 12:47:58.942786 26743 net.cpp:141] Setting up relu3
I0403 12:47:58.942816 26743 net.cpp:148] Top shape: 100 384 13 13 (6489600)
I0403 12:47:58.942831 26743 net.cpp:156] Memory required for data: 731481200
I0403 12:47:58.942848 26743 layer_factory.hpp:77] Creating layer conv4
I0403 12:47:58.942875 26743 net.cpp:91] Creating Layer conv4
I0403 12:47:58.942893 26743 net.cpp:425] conv4 <- conv3
I0403 12:47:58.942916 26743 net.cpp:399] conv4 -> conv4
I0403 12:47:58.974028 26743 net.cpp:141] Setting up conv4
I0403 12:47:58.974082 26743 net.cpp:148] Top shape: 100 384 13 13 (6489600)
I0403 12:47:58.974131 26743 net.cpp:156] Memory required for data: 757439600
I0403 12:47:58.974155 26743 layer_factory.hpp:77] Creating layer relu4
I0403 12:47:58.974179 26743 net.cpp:91] Creating Layer relu4
I0403 12:47:58.974197 26743 net.cpp:425] relu4 <- conv4
I0403 12:47:58.974220 26743 net.cpp:386] relu4 -> conv4 (in-place)
I0403 12:47:58.974524 26743 net.cpp:141] Setting up relu4
I0403 12:47:58.974555 26743 net.cpp:148] Top shape: 100 384 13 13 (6489600)
I0403 12:47:58.974572 26743 net.cpp:156] Memory required for data: 783398000
I0403 12:47:58.974589 26743 layer_factory.hpp:77] Creating layer conv5
I0403 12:47:58.974618 26743 net.cpp:91] Creating Layer conv5
I0403 12:47:58.974638 26743 net.cpp:425] conv5 <- conv4
I0403 12:47:58.974661 26743 net.cpp:399] conv5 -> conv5
I0403 12:47:58.996191 26743 net.cpp:141] Setting up conv5
I0403 12:47:58.996248 26743 net.cpp:148] Top shape: 100 256 13 13 (4326400)
I0403 12:47:58.996268 26743 net.cpp:156] Memory required for data: 800703600
I0403 12:47:58.996296 26743 layer_factory.hpp:77] Creating layer relu5
I0403 12:47:58.996325 26743 net.cpp:91] Creating Layer relu5
I0403 12:47:58.996343 26743 net.cpp:425] relu5 <- conv5
I0403 12:47:58.996363 26743 net.cpp:386] relu5 -> conv5 (in-place)
I0403 12:47:58.996667 26743 net.cpp:141] Setting up relu5
I0403 12:47:58.996696 26743 net.cpp:148] Top shape: 100 256 13 13 (4326400)
I0403 12:47:58.996712 26743 net.cpp:156] Memory required for data: 818009200
I0403 12:47:58.996728 26743 layer_factory.hpp:77] Creating layer pool5
I0403 12:47:58.996753 26743 net.cpp:91] Creating Layer pool5
I0403 12:47:58.996773 26743 net.cpp:425] pool5 <- conv5
I0403 12:47:58.996791 26743 net.cpp:399] pool5 -> pool5
I0403 12:47:58.996861 26743 net.cpp:141] Setting up pool5
I0403 12:47:58.996888 26743 net.cpp:148] Top shape: 100 256 6 6 (921600)
I0403 12:47:58.996904 26743 net.cpp:156] Memory required for data: 821695600
I0403 12:47:58.996922 26743 layer_factory.hpp:77] Creating layer fc6
I0403 12:47:58.996951 26743 net.cpp:91] Creating Layer fc6
I0403 12:47:58.996971 26743 net.cpp:425] fc6 <- pool5
I0403 12:47:58.996992 26743 net.cpp:399] fc6 -> fc6
I0403 12:48:00.566167 26743 net.cpp:141] Setting up fc6
I0403 12:48:00.566248 26743 net.cpp:148] Top shape: 100 4096 (409600)
I0403 12:48:00.566265 26743 net.cpp:156] Memory required for data: 823334000
I0403 12:48:00.566293 26743 layer_factory.hpp:77] Creating layer relu6
I0403 12:48:00.566318 26743 net.cpp:91] Creating Layer relu6
I0403 12:48:00.566335 26743 net.cpp:425] relu6 <- fc6
I0403 12:48:00.566359 26743 net.cpp:386] relu6 -> fc6 (in-place)
I0403 12:48:00.566588 26743 net.cpp:141] Setting up relu6
I0403 12:48:00.566614 26743 net.cpp:148] Top shape: 100 4096 (409600)
I0403 12:48:00.566629 26743 net.cpp:156] Memory required for data: 824972400
I0403 12:48:00.566645 26743 layer_factory.hpp:77] Creating layer drop6
I0403 12:48:00.566668 26743 net.cpp:91] Creating Layer drop6
I0403 12:48:00.566684 26743 net.cpp:425] drop6 <- fc6
I0403 12:48:00.566701 26743 net.cpp:386] drop6 -> fc6 (in-place)
I0403 12:48:00.566756 26743 net.cpp:141] Setting up drop6
I0403 12:48:00.566779 26743 net.cpp:148] Top shape: 100 4096 (409600)
I0403 12:48:00.566794 26743 net.cpp:156] Memory required for data: 826610800
I0403 12:48:00.566808 26743 layer_factory.hpp:77] Creating layer fc7
I0403 12:48:00.566829 26743 net.cpp:91] Creating Layer fc7
I0403 12:48:00.566845 26743 net.cpp:425] fc7 <- fc6
I0403 12:48:00.566865 26743 net.cpp:399] fc7 -> fc7
I0403 12:48:01.254596 26743 net.cpp:141] Setting up fc7
I0403 12:48:01.254675 26743 net.cpp:148] Top shape: 100 4096 (409600)
I0403 12:48:01.254693 26743 net.cpp:156] Memory required for data: 828249200
I0403 12:48:01.254715 26743 layer_factory.hpp:77] Creating layer relu7
I0403 12:48:01.254740 26743 net.cpp:91] Creating Layer relu7
I0403 12:48:01.254758 26743 net.cpp:425] relu7 <- fc7
I0403 12:48:01.254777 26743 net.cpp:386] relu7 -> fc7 (in-place)
I0403 12:48:01.255192 26743 net.cpp:141] Setting up relu7
I0403 12:48:01.255219 26743 net.cpp:148] Top shape: 100 4096 (409600)
I0403 12:48:01.255271 26743 net.cpp:156] Memory required for data: 829887600
I0403 12:48:01.255295 26743 layer_factory.hpp:77] Creating layer drop7
I0403 12:48:01.255316 26743 net.cpp:91] Creating Layer drop7
I0403 12:48:01.255331 26743 net.cpp:425] drop7 <- fc7
I0403 12:48:01.255350 26743 net.cpp:386] drop7 -> fc7 (in-place)
I0403 12:48:01.255398 26743 net.cpp:141] Setting up drop7
I0403 12:48:01.255421 26743 net.cpp:148] Top shape: 100 4096 (409600)
I0403 12:48:01.255436 26743 net.cpp:156] Memory required for data: 831526000
I0403 12:48:01.255451 26743 layer_factory.hpp:77] Creating layer fc8_plantvillage
I0403 12:48:01.255471 26743 net.cpp:91] Creating Layer fc8_plantvillage
I0403 12:48:01.255487 26743 net.cpp:425] fc8_plantvillage <- fc7
I0403 12:48:01.255508 26743 net.cpp:399] fc8_plantvillage -> fc8_plantvillage
I0403 12:48:01.262220 26743 net.cpp:141] Setting up fc8_plantvillage
I0403 12:48:01.262253 26743 net.cpp:148] Top shape: 100 38 (3800)
I0403 12:48:01.262269 26743 net.cpp:156] Memory required for data: 831541200
I0403 12:48:01.262310 26743 layer_factory.hpp:77] Creating layer fc8_plantvillage_fc8_plantvillage_0_split
I0403 12:48:01.262331 26743 net.cpp:91] Creating Layer fc8_plantvillage_fc8_plantvillage_0_split
I0403 12:48:01.262347 26743 net.cpp:425] fc8_plantvillage_fc8_plantvillage_0_split <- fc8_plantvillage
I0403 12:48:01.262365 26743 net.cpp:399] fc8_plantvillage_fc8_plantvillage_0_split -> fc8_plantvillage_fc8_plantvillage_0_split_0
I0403 12:48:01.262388 26743 net.cpp:399] fc8_plantvillage_fc8_plantvillage_0_split -> fc8_plantvillage_fc8_plantvillage_0_split_1
I0403 12:48:01.262410 26743 net.cpp:399] fc8_plantvillage_fc8_plantvillage_0_split -> fc8_plantvillage_fc8_plantvillage_0_split_2
I0403 12:48:01.262492 26743 net.cpp:141] Setting up fc8_plantvillage_fc8_plantvillage_0_split
I0403 12:48:01.262517 26743 net.cpp:148] Top shape: 100 38 (3800)
I0403 12:48:01.262536 26743 net.cpp:148] Top shape: 100 38 (3800)
I0403 12:48:01.262562 26743 net.cpp:148] Top shape: 100 38 (3800)
I0403 12:48:01.262578 26743 net.cpp:156] Memory required for data: 831586800
I0403 12:48:01.262593 26743 layer_factory.hpp:77] Creating layer prob
I0403 12:48:01.262612 26743 net.cpp:91] Creating Layer prob
I0403 12:48:01.262629 26743 net.cpp:425] prob <- fc8_plantvillage_fc8_plantvillage_0_split_0
I0403 12:48:01.262646 26743 net.cpp:399] prob -> prob
I0403 12:48:01.262881 26743 net.cpp:141] Setting up prob
I0403 12:48:01.262907 26743 net.cpp:148] Top shape: 100 38 (3800)
I0403 12:48:01.262924 26743 net.cpp:156] Memory required for data: 831602000
I0403 12:48:01.262939 26743 layer_factory.hpp:77] Creating layer hdf5out
I0403 12:48:01.262962 26743 net.cpp:91] Creating Layer hdf5out
I0403 12:48:01.262979 26743 net.cpp:425] hdf5out <- prob
I0403 12:48:01.262997 26743 net.cpp:425] hdf5out <- label_data_1_split_0
I0403 12:48:01.271473 26743 net.cpp:141] Setting up hdf5out
…
