…
I0403 12:37:36.610363 26507 net.cpp:313] The NetState phase (1) differed from the phase (0) specified by a rule in layer data
I0403 12:37:36.610666 26507 net.cpp:49] Initializing net from parameters: 
state {
  phase: TEST
}
layer {
  name: "data"
  type: "Data"
  top: "data"
  top: "label"
  include {
    phase: TEST
  }
  transform_param {
    crop_size: 227
    mean_file: "/home/mohanty/data/final_dataset/lmdb/color-20-80/mean.binaryproto"
  }
  data_param {
    source: "/home/mohanty/data/final_dataset/lmdb/color-20-80/test_db"
    batch_size: 100
    backend: LMDB
  }
}
layer {
  name: "conv1"
  type: "Convolution"
  bottom: "data"
  top: "conv1"
  param {
    lr_mult: 1
    decay_mult: 1
  }
  param {
    lr_mult: 2
    decay_mult: 0
  }
  convolution_param {
    num_output: 96
    kernel_size: 11
    stride: 4
    weight_filler {
      type: "gaussian"
      std: 0.01
    }
    bias_filler {
      type: "constant"
      value: 0
    }
  }
}
layer {
  name: "relu1"
  type: "ReLU"
  bottom: "conv1"
  top: "conv1"
}
layer {
  name: "norm1"
  type: "LRN"
  bottom: "conv1"
  top: "norm1"
  lrn_param {
    local_size: 5
    alpha: 0.0001
    beta: 0.75
  }
}
layer {
  name: "pool1"
  type: "Pooling"
  bottom: "norm1"
  top: "pool1"
  pooling_param {
    pool: MAX
    kernel_size: 3
    stride: 2
  }
}
layer {
  name: "conv2"
  type: "Convolution"
  bottom: "pool1"
  top: "conv2"
  param {
    lr_mult: 1
    decay_mult: 1
  }
  param {
    lr_mult: 2
    decay_mult: 0
  }
  convolution_param {
    num_output: 256
    pad: 2
    kernel_size: 5
    group: 2
    weight_filler {
      type: "gaussian"
      std: 0.01
    }
    bias_filler {
      type: "constant"
      value: 0.1
    }
  }
}
layer {
  name: "relu2"
  type: "ReLU"
  bottom: "conv2"
  top: "conv2"
}
layer {
  name: "norm2"
  type: "LRN"
  bottom: "conv2"
  top: "norm2"
  lrn_param {
    local_size: 5
    alpha: 0.0001
    beta: 0.75
  }
}
layer {
  name: "pool2"
  type: "Pooling"
  bottom: "norm2"
  top: "pool2"
  pooling_param {
    pool: MAX
    kernel_size: 3
    stride: 2
  }
}
layer {
  name: "conv3"
  type: "Convolution"
  bottom: "pool2"
  top: "conv3"
  param {
    lr_mult: 1
    decay_mult: 1
  }
  param {
    lr_mult: 2
    decay_mult: 0
  }
  convolution_param {
    num_output: 384
    pad: 1
    kernel_size: 3
    weight_filler {
      type: "gaussian"
      std: 0.01
    }
    bias_filler {
      type: "constant"
      value: 0
    }
  }
}
layer {
  name: "relu3"
  type: "ReLU"
  bottom: "conv3"
  top: "conv3"
}
layer {
  name: "conv4"
  type: "Convolution"
  bottom: "conv3"
  top: "conv4"
  param {
    lr_mult: 1
    decay_mult: 1
  }
  param {
    lr_mult: 2
    decay_mult: 0
  }
  convolution_param {
    num_output: 384
    pad: 1
    kernel_size: 3
    group: 2
    weight_filler {
      type: "gaussian"
      std: 0.01
    }
    bias_filler {
      type: "constant"
      value: 0.1
    }
  }
}
layer {
  name: "relu4"
  type: "ReLU"
  bottom: "conv4"
  top: "conv4"
}
layer {
  name: "conv5"
  type: "Convolution"
  bottom: "conv4"
  top: "conv5"
  param {
    lr_mult: 1
    decay_mult: 1
  }
  param {
    lr_mult: 2
    decay_mult: 0
  }
  convolution_param {
    num_output: 256
    pad: 1
    kernel_size: 3
    group: 2
    weight_filler {
      type: "gaussian"
      std: 0.01
    }
    bias_filler {
      type: "constant"
      value: 0.1
    }
  }
}
layer {
  name: "relu5"
  type: "ReLU"
  bottom: "conv5"
  top: "conv5"
}
layer {
  name: "pool5"
  type: "Pooling"
  bottom: "conv5"
  top: "pool5"
  pooling_param {
    pool: MAX
    kernel_size: 3
    stride: 2
  }
}
layer {
  name: "fc6"
  type: "InnerProduct"
  bottom: "pool5"
  top: "fc6"
  param {
    lr_mult: 1
    decay_mult: 1
  }
  param {
    lr_mult: 2
    decay_mult: 0
  }
  inner_product_param {
    num_output: 4096
    weight_filler {
      type: "gaussian"
      std: 0.005
    }
    bias_filler {
      type: "constant"
      value: 0.1
    }
  }
}
layer {
  name: "relu6"
  type: "ReLU"
  bottom: "fc6"
  top: "fc6"
}
layer {
  name: "drop6"
  type: "Dropout"
  bottom: "fc6"
  top: "fc6"
  dropout_param {
    dropout_ratio: 0.5
  }
}
layer {
  name: "fc7"
  type: "InnerProduct"
  bottom: "fc6"
  top: "fc7"
  param {
    lr_mult: 1
    decay_mult: 1
  }
  param {
    lr_mult: 2
    decay_mult: 0
  }
  inner_product_param {
    num_output: 4096
    weight_filler {
      type: "gaussian"
      std: 0.005
    }
    bias_filler {
      type: "constant"
      value: 0.1
    }
  }
}
layer {
  name: "relu7"
  type: "ReLU"
  bottom: "fc7"
  top: "fc7"
}
layer {
  name: "drop7"
  type: "Dropout"
  bottom: "fc7"
  top: "fc7"
  dropout_param {
    dropout_ratio: 0.5
  }
}
layer {
  name: "fc8_plantvillage"
  type: "InnerProduct"
  bottom: "fc7"
  top: "fc8_plantvillage"
  param {
    lr_mult: 1
    decay_mult: 1
  }
  param {
    lr_mult: 2
    decay_mult: 0
  }
  inner_product_param {
    num_output: 38
    weight_filler {
      type: "gaussian"
      std: 0.01
    }
    bias_filler {
      type: "constant"
      value: 0
    }
  }
}
layer {
  name: "prob"
  type: "Softmax"
  bottom: "fc8_plantvillage"
  top: "prob"
  include {
    phase: TEST
  }
}
layer {
  name: "hdf5out"
  type: "HDF5Output"
  bottom: "prob"
  bottom: "label"
  include {
    phase: TEST
  }
  hdf5_output_param {
    file_name: "hdf5_dumps/iter_1512.h5"
  }
}
layer {
  name: "loss"
  type: "SoftmaxWithLoss"
  bottom: "fc8_plantvillage"
  bottom: "label"
  top: "loss"
}
layer {
  name: "accuracy"
  type: "Accuracy"
  bottom: "fc8_plantvillage"
  bottom: "label"
  top: "accuracy"
  include {
    phase: TEST
  }
}
I0403 12:37:36.611174 26507 layer_factory.hpp:77] Creating layer data
I0403 12:37:36.611841 26507 net.cpp:91] Creating Layer data
I0403 12:37:36.611876 26507 net.cpp:399] data -> data
I0403 12:37:36.611927 26507 net.cpp:399] data -> label
I0403 12:37:36.611963 26507 data_transformer.cpp:25] Loading mean file from: /home/mohanty/data/final_dataset/lmdb/color-20-80/mean.binaryproto
I0403 12:37:36.615046 26511 db_lmdb.cpp:38] Opened lmdb /home/mohanty/data/final_dataset/lmdb/color-20-80/test_db
I0403 12:37:36.626549 26507 data_layer.cpp:41] output data size: 100,3,227,227
I0403 12:37:36.760188 26507 net.cpp:141] Setting up data
I0403 12:37:36.760248 26507 net.cpp:148] Top shape: 100 3 227 227 (15458700)
I0403 12:37:36.760277 26507 net.cpp:148] Top shape: 100 (100)
I0403 12:37:36.760305 26507 net.cpp:156] Memory required for data: 61835200
I0403 12:37:36.760335 26507 layer_factory.hpp:77] Creating layer label_data_1_split
I0403 12:37:36.760365 26507 net.cpp:91] Creating Layer label_data_1_split
I0403 12:37:36.760382 26507 net.cpp:425] label_data_1_split <- label
I0403 12:37:36.760414 26507 net.cpp:399] label_data_1_split -> label_data_1_split_0
I0403 12:37:36.760443 26507 net.cpp:399] label_data_1_split -> label_data_1_split_1
I0403 12:37:36.760465 26507 net.cpp:399] label_data_1_split -> label_data_1_split_2
I0403 12:37:36.760534 26507 net.cpp:141] Setting up label_data_1_split
I0403 12:37:36.760557 26507 net.cpp:148] Top shape: 100 (100)
I0403 12:37:36.760576 26507 net.cpp:148] Top shape: 100 (100)
I0403 12:37:36.760603 26507 net.cpp:148] Top shape: 100 (100)
I0403 12:37:36.760617 26507 net.cpp:156] Memory required for data: 61836400
I0403 12:37:36.760632 26507 layer_factory.hpp:77] Creating layer conv1
I0403 12:37:36.760665 26507 net.cpp:91] Creating Layer conv1
I0403 12:37:36.760684 26507 net.cpp:425] conv1 <- data
I0403 12:37:36.760704 26507 net.cpp:399] conv1 -> conv1
I0403 12:37:36.911406 26507 net.cpp:141] Setting up conv1
I0403 12:37:36.911483 26507 net.cpp:148] Top shape: 100 96 55 55 (29040000)
I0403 12:37:36.911500 26507 net.cpp:156] Memory required for data: 177996400
I0403 12:37:36.911533 26507 layer_factory.hpp:77] Creating layer relu1
I0403 12:37:36.911562 26507 net.cpp:91] Creating Layer relu1
I0403 12:37:36.911581 26507 net.cpp:425] relu1 <- conv1
I0403 12:37:36.911600 26507 net.cpp:386] relu1 -> conv1 (in-place)
I0403 12:37:36.911877 26507 net.cpp:141] Setting up relu1
I0403 12:37:36.911909 26507 net.cpp:148] Top shape: 100 96 55 55 (29040000)
I0403 12:37:36.911926 26507 net.cpp:156] Memory required for data: 294156400
I0403 12:37:36.911974 26507 layer_factory.hpp:77] Creating layer norm1
I0403 12:37:36.912005 26507 net.cpp:91] Creating Layer norm1
I0403 12:37:36.912024 26507 net.cpp:425] norm1 <- conv1
I0403 12:37:36.912044 26507 net.cpp:399] norm1 -> norm1
I0403 12:37:36.912390 26507 net.cpp:141] Setting up norm1
I0403 12:37:36.912421 26507 net.cpp:148] Top shape: 100 96 55 55 (29040000)
I0403 12:37:36.912438 26507 net.cpp:156] Memory required for data: 410316400
I0403 12:37:36.912454 26507 layer_factory.hpp:77] Creating layer pool1
I0403 12:37:36.912482 26507 net.cpp:91] Creating Layer pool1
I0403 12:37:36.912499 26507 net.cpp:425] pool1 <- norm1
I0403 12:37:36.912519 26507 net.cpp:399] pool1 -> pool1
I0403 12:37:36.912606 26507 net.cpp:141] Setting up pool1
I0403 12:37:36.912632 26507 net.cpp:148] Top shape: 100 96 27 27 (6998400)
I0403 12:37:36.912647 26507 net.cpp:156] Memory required for data: 438310000
I0403 12:37:36.912662 26507 layer_factory.hpp:77] Creating layer conv2
I0403 12:37:36.912689 26507 net.cpp:91] Creating Layer conv2
I0403 12:37:36.912708 26507 net.cpp:425] conv2 <- pool1
I0403 12:37:36.912730 26507 net.cpp:399] conv2 -> conv2
I0403 12:37:36.928566 26507 net.cpp:141] Setting up conv2
I0403 12:37:36.928619 26507 net.cpp:148] Top shape: 100 256 27 27 (18662400)
I0403 12:37:36.928637 26507 net.cpp:156] Memory required for data: 512959600
I0403 12:37:36.928661 26507 layer_factory.hpp:77] Creating layer relu2
I0403 12:37:36.928685 26507 net.cpp:91] Creating Layer relu2
I0403 12:37:36.928704 26507 net.cpp:425] relu2 <- conv2
I0403 12:37:36.928724 26507 net.cpp:386] relu2 -> conv2 (in-place)
I0403 12:37:36.929087 26507 net.cpp:141] Setting up relu2
I0403 12:37:36.929116 26507 net.cpp:148] Top shape: 100 256 27 27 (18662400)
I0403 12:37:36.929132 26507 net.cpp:156] Memory required for data: 587609200
I0403 12:37:36.929148 26507 layer_factory.hpp:77] Creating layer norm2
I0403 12:37:36.929172 26507 net.cpp:91] Creating Layer norm2
I0403 12:37:36.929189 26507 net.cpp:425] norm2 <- conv2
I0403 12:37:36.929211 26507 net.cpp:399] norm2 -> norm2
I0403 12:37:36.929419 26507 net.cpp:141] Setting up norm2
I0403 12:37:36.929446 26507 net.cpp:148] Top shape: 100 256 27 27 (18662400)
I0403 12:37:36.929462 26507 net.cpp:156] Memory required for data: 662258800
I0403 12:37:36.929478 26507 layer_factory.hpp:77] Creating layer pool2
I0403 12:37:36.929497 26507 net.cpp:91] Creating Layer pool2
I0403 12:37:36.929513 26507 net.cpp:425] pool2 <- norm2
I0403 12:37:36.929533 26507 net.cpp:399] pool2 -> pool2
I0403 12:37:36.929590 26507 net.cpp:141] Setting up pool2
I0403 12:37:36.929615 26507 net.cpp:148] Top shape: 100 256 13 13 (4326400)
I0403 12:37:36.929630 26507 net.cpp:156] Memory required for data: 679564400
I0403 12:37:36.929646 26507 layer_factory.hpp:77] Creating layer conv3
I0403 12:37:36.929682 26507 net.cpp:91] Creating Layer conv3
I0403 12:37:36.929700 26507 net.cpp:425] conv3 <- pool2
I0403 12:37:36.929721 26507 net.cpp:399] conv3 -> conv3
I0403 12:37:36.978490 26507 net.cpp:141] Setting up conv3
I0403 12:37:36.978549 26507 net.cpp:148] Top shape: 100 384 13 13 (6489600)
I0403 12:37:36.978567 26507 net.cpp:156] Memory required for data: 705522800
I0403 12:37:36.978595 26507 layer_factory.hpp:77] Creating layer relu3
I0403 12:37:36.978623 26507 net.cpp:91] Creating Layer relu3
I0403 12:37:36.978643 26507 net.cpp:425] relu3 <- conv3
I0403 12:37:36.978662 26507 net.cpp:386] relu3 -> conv3 (in-place)
I0403 12:37:36.978951 26507 net.cpp:141] Setting up relu3
I0403 12:37:36.978979 26507 net.cpp:148] Top shape: 100 384 13 13 (6489600)
I0403 12:37:36.978996 26507 net.cpp:156] Memory required for data: 731481200
I0403 12:37:36.979012 26507 layer_factory.hpp:77] Creating layer conv4
I0403 12:37:36.979039 26507 net.cpp:91] Creating Layer conv4
I0403 12:37:36.979058 26507 net.cpp:425] conv4 <- conv3
I0403 12:37:36.979079 26507 net.cpp:399] conv4 -> conv4
I0403 12:37:37.010398 26507 net.cpp:141] Setting up conv4
I0403 12:37:37.010491 26507 net.cpp:148] Top shape: 100 384 13 13 (6489600)
I0403 12:37:37.010542 26507 net.cpp:156] Memory required for data: 757439600
I0403 12:37:37.010566 26507 layer_factory.hpp:77] Creating layer relu4
I0403 12:37:37.010597 26507 net.cpp:91] Creating Layer relu4
I0403 12:37:37.010618 26507 net.cpp:425] relu4 <- conv4
I0403 12:37:37.010648 26507 net.cpp:386] relu4 -> conv4 (in-place)
I0403 12:37:37.010937 26507 net.cpp:141] Setting up relu4
I0403 12:37:37.010964 26507 net.cpp:148] Top shape: 100 384 13 13 (6489600)
I0403 12:37:37.010980 26507 net.cpp:156] Memory required for data: 783398000
I0403 12:37:37.010995 26507 layer_factory.hpp:77] Creating layer conv5
I0403 12:37:37.011023 26507 net.cpp:91] Creating Layer conv5
I0403 12:37:37.011041 26507 net.cpp:425] conv5 <- conv4
I0403 12:37:37.011065 26507 net.cpp:399] conv5 -> conv5
I0403 12:37:37.032876 26507 net.cpp:141] Setting up conv5
I0403 12:37:37.032932 26507 net.cpp:148] Top shape: 100 256 13 13 (4326400)
I0403 12:37:37.032948 26507 net.cpp:156] Memory required for data: 800703600
I0403 12:37:37.032974 26507 layer_factory.hpp:77] Creating layer relu5
I0403 12:37:37.032999 26507 net.cpp:91] Creating Layer relu5
I0403 12:37:37.033020 26507 net.cpp:425] relu5 <- conv5
I0403 12:37:37.033038 26507 net.cpp:386] relu5 -> conv5 (in-place)
I0403 12:37:37.033335 26507 net.cpp:141] Setting up relu5
I0403 12:37:37.033363 26507 net.cpp:148] Top shape: 100 256 13 13 (4326400)
I0403 12:37:37.033380 26507 net.cpp:156] Memory required for data: 818009200
I0403 12:37:37.033396 26507 layer_factory.hpp:77] Creating layer pool5
I0403 12:37:37.033421 26507 net.cpp:91] Creating Layer pool5
I0403 12:37:37.033440 26507 net.cpp:425] pool5 <- conv5
I0403 12:37:37.033459 26507 net.cpp:399] pool5 -> pool5
I0403 12:37:37.033519 26507 net.cpp:141] Setting up pool5
I0403 12:37:37.033545 26507 net.cpp:148] Top shape: 100 256 6 6 (921600)
I0403 12:37:37.033561 26507 net.cpp:156] Memory required for data: 821695600
I0403 12:37:37.033576 26507 layer_factory.hpp:77] Creating layer fc6
I0403 12:37:37.033607 26507 net.cpp:91] Creating Layer fc6
I0403 12:37:37.033624 26507 net.cpp:425] fc6 <- pool5
I0403 12:37:37.033643 26507 net.cpp:399] fc6 -> fc6
I0403 12:37:38.600867 26507 net.cpp:141] Setting up fc6
I0403 12:37:38.600911 26507 net.cpp:148] Top shape: 100 4096 (409600)
I0403 12:37:38.600926 26507 net.cpp:156] Memory required for data: 823334000
I0403 12:37:38.600949 26507 layer_factory.hpp:77] Creating layer relu6
I0403 12:37:38.600972 26507 net.cpp:91] Creating Layer relu6
I0403 12:37:38.600989 26507 net.cpp:425] relu6 <- fc6
I0403 12:37:38.601011 26507 net.cpp:386] relu6 -> fc6 (in-place)
I0403 12:37:38.601225 26507 net.cpp:141] Setting up relu6
I0403 12:37:38.601251 26507 net.cpp:148] Top shape: 100 4096 (409600)
I0403 12:37:38.601272 26507 net.cpp:156] Memory required for data: 824972400
I0403 12:37:38.601287 26507 layer_factory.hpp:77] Creating layer drop6
I0403 12:37:38.601306 26507 net.cpp:91] Creating Layer drop6
I0403 12:37:38.601321 26507 net.cpp:425] drop6 <- fc6
I0403 12:37:38.601341 26507 net.cpp:386] drop6 -> fc6 (in-place)
I0403 12:37:38.601405 26507 net.cpp:141] Setting up drop6
I0403 12:37:38.601429 26507 net.cpp:148] Top shape: 100 4096 (409600)
I0403 12:37:38.601445 26507 net.cpp:156] Memory required for data: 826610800
I0403 12:37:38.601462 26507 layer_factory.hpp:77] Creating layer fc7
I0403 12:37:38.601482 26507 net.cpp:91] Creating Layer fc7
I0403 12:37:38.601497 26507 net.cpp:425] fc7 <- fc6
I0403 12:37:38.601517 26507 net.cpp:399] fc7 -> fc7
I0403 12:37:39.292793 26507 net.cpp:141] Setting up fc7
I0403 12:37:39.292871 26507 net.cpp:148] Top shape: 100 4096 (409600)
I0403 12:37:39.292887 26507 net.cpp:156] Memory required for data: 828249200
I0403 12:37:39.292909 26507 layer_factory.hpp:77] Creating layer relu7
I0403 12:37:39.292935 26507 net.cpp:91] Creating Layer relu7
I0403 12:37:39.292954 26507 net.cpp:425] relu7 <- fc7
I0403 12:37:39.292975 26507 net.cpp:386] relu7 -> fc7 (in-place)
I0403 12:37:39.293398 26507 net.cpp:141] Setting up relu7
I0403 12:37:39.293426 26507 net.cpp:148] Top shape: 100 4096 (409600)
I0403 12:37:39.293476 26507 net.cpp:156] Memory required for data: 829887600
I0403 12:37:39.293493 26507 layer_factory.hpp:77] Creating layer drop7
I0403 12:37:39.293514 26507 net.cpp:91] Creating Layer drop7
I0403 12:37:39.293534 26507 net.cpp:425] drop7 <- fc7
I0403 12:37:39.293551 26507 net.cpp:386] drop7 -> fc7 (in-place)
I0403 12:37:39.293593 26507 net.cpp:141] Setting up drop7
I0403 12:37:39.293619 26507 net.cpp:148] Top shape: 100 4096 (409600)
I0403 12:37:39.293635 26507 net.cpp:156] Memory required for data: 831526000
I0403 12:37:39.293649 26507 layer_factory.hpp:77] Creating layer fc8_plantvillage
I0403 12:37:39.293670 26507 net.cpp:91] Creating Layer fc8_plantvillage
I0403 12:37:39.293686 26507 net.cpp:425] fc8_plantvillage <- fc7
I0403 12:37:39.293709 26507 net.cpp:399] fc8_plantvillage -> fc8_plantvillage
I0403 12:37:39.300421 26507 net.cpp:141] Setting up fc8_plantvillage
I0403 12:37:39.300451 26507 net.cpp:148] Top shape: 100 38 (3800)
I0403 12:37:39.300467 26507 net.cpp:156] Memory required for data: 831541200
I0403 12:37:39.300485 26507 layer_factory.hpp:77] Creating layer fc8_plantvillage_fc8_plantvillage_0_split
I0403 12:37:39.300508 26507 net.cpp:91] Creating Layer fc8_plantvillage_fc8_plantvillage_0_split
I0403 12:37:39.300525 26507 net.cpp:425] fc8_plantvillage_fc8_plantvillage_0_split <- fc8_plantvillage
I0403 12:37:39.300544 26507 net.cpp:399] fc8_plantvillage_fc8_plantvillage_0_split -> fc8_plantvillage_fc8_plantvillage_0_split_0
I0403 12:37:39.300564 26507 net.cpp:399] fc8_plantvillage_fc8_plantvillage_0_split -> fc8_plantvillage_fc8_plantvillage_0_split_1
I0403 12:37:39.300581 26507 net.cpp:399] fc8_plantvillage_fc8_plantvillage_0_split -> fc8_plantvillage_fc8_plantvillage_0_split_2
I0403 12:37:39.300658 26507 net.cpp:141] Setting up fc8_plantvillage_fc8_plantvillage_0_split
I0403 12:37:39.300683 26507 net.cpp:148] Top shape: 100 38 (3800)
I0403 12:37:39.300700 26507 net.cpp:148] Top shape: 100 38 (3800)
I0403 12:37:39.300716 26507 net.cpp:148] Top shape: 100 38 (3800)
I0403 12:37:39.300731 26507 net.cpp:156] Memory required for data: 831586800
I0403 12:37:39.300745 26507 layer_factory.hpp:77] Creating layer prob
I0403 12:37:39.300765 26507 net.cpp:91] Creating Layer prob
I0403 12:37:39.300781 26507 net.cpp:425] prob <- fc8_plantvillage_fc8_plantvillage_0_split_0
I0403 12:37:39.300803 26507 net.cpp:399] prob -> prob
I0403 12:37:39.301030 26507 net.cpp:141] Setting up prob
I0403 12:37:39.301056 26507 net.cpp:148] Top shape: 100 38 (3800)
I0403 12:37:39.301072 26507 net.cpp:156] Memory required for data: 831602000
I0403 12:37:39.301087 26507 layer_factory.hpp:77] Creating layer hdf5out
I0403 12:37:39.301108 26507 net.cpp:91] Creating Layer hdf5out
I0403 12:37:39.301126 26507 net.cpp:425] hdf5out <- prob
I0403 12:37:39.301143 26507 net.cpp:425] hdf5out <- label_data_1_split_0
I0403 12:37:39.305181 26507 net.cpp:141] Setting up hdf5out
…
