…
I0403 12:59:51.620487 27142 net.cpp:313] The NetState phase (1) differed from the phase (0) specified by a rule in layer data
I0403 12:59:51.620815 27142 net.cpp:49] Initializing net from parameters: 
state {
  phase: TEST
}
layer {
  name: "data"
  type: "Data"
  top: "data"
  top: "label"
  include {
    phase: TEST
  }
  transform_param {
    crop_size: 227
    mean_file: "/home/mohanty/data/final_dataset/lmdb/color-20-80/mean.binaryproto"
  }
  data_param {
    source: "/home/mohanty/data/final_dataset/lmdb/color-20-80/test_db"
    batch_size: 100
    backend: LMDB
  }
}
layer {
  name: "conv1"
  type: "Convolution"
  bottom: "data"
  top: "conv1"
  param {
    lr_mult: 1
    decay_mult: 1
  }
  param {
    lr_mult: 2
    decay_mult: 0
  }
  convolution_param {
    num_output: 96
    kernel_size: 11
    stride: 4
    weight_filler {
      type: "gaussian"
      std: 0.01
    }
    bias_filler {
      type: "constant"
      value: 0
    }
  }
}
layer {
  name: "relu1"
  type: "ReLU"
  bottom: "conv1"
  top: "conv1"
}
layer {
  name: "norm1"
  type: "LRN"
  bottom: "conv1"
  top: "norm1"
  lrn_param {
    local_size: 5
    alpha: 0.0001
    beta: 0.75
  }
}
layer {
  name: "pool1"
  type: "Pooling"
  bottom: "norm1"
  top: "pool1"
  pooling_param {
    pool: MAX
    kernel_size: 3
    stride: 2
  }
}
layer {
  name: "conv2"
  type: "Convolution"
  bottom: "pool1"
  top: "conv2"
  param {
    lr_mult: 1
    decay_mult: 1
  }
  param {
    lr_mult: 2
    decay_mult: 0
  }
  convolution_param {
    num_output: 256
    pad: 2
    kernel_size: 5
    group: 2
    weight_filler {
      type: "gaussian"
      std: 0.01
    }
    bias_filler {
      type: "constant"
      value: 0.1
    }
  }
}
layer {
  name: "relu2"
  type: "ReLU"
  bottom: "conv2"
  top: "conv2"
}
layer {
  name: "norm2"
  type: "LRN"
  bottom: "conv2"
  top: "norm2"
  lrn_param {
    local_size: 5
    alpha: 0.0001
    beta: 0.75
  }
}
layer {
  name: "pool2"
  type: "Pooling"
  bottom: "norm2"
  top: "pool2"
  pooling_param {
    pool: MAX
    kernel_size: 3
    stride: 2
  }
}
layer {
  name: "conv3"
  type: "Convolution"
  bottom: "pool2"
  top: "conv3"
  param {
    lr_mult: 1
    decay_mult: 1
  }
  param {
    lr_mult: 2
    decay_mult: 0
  }
  convolution_param {
    num_output: 384
    pad: 1
    kernel_size: 3
    weight_filler {
      type: "gaussian"
      std: 0.01
    }
    bias_filler {
      type: "constant"
      value: 0
    }
  }
}
layer {
  name: "relu3"
  type: "ReLU"
  bottom: "conv3"
  top: "conv3"
}
layer {
  name: "conv4"
  type: "Convolution"
  bottom: "conv3"
  top: "conv4"
  param {
    lr_mult: 1
    decay_mult: 1
  }
  param {
    lr_mult: 2
    decay_mult: 0
  }
  convolution_param {
    num_output: 384
    pad: 1
    kernel_size: 3
    group: 2
    weight_filler {
      type: "gaussian"
      std: 0.01
    }
    bias_filler {
      type: "constant"
      value: 0.1
    }
  }
}
layer {
  name: "relu4"
  type: "ReLU"
  bottom: "conv4"
  top: "conv4"
}
layer {
  name: "conv5"
  type: "Convolution"
  bottom: "conv4"
  top: "conv5"
  param {
    lr_mult: 1
    decay_mult: 1
  }
  param {
    lr_mult: 2
    decay_mult: 0
  }
  convolution_param {
    num_output: 256
    pad: 1
    kernel_size: 3
    group: 2
    weight_filler {
      type: "gaussian"
      std: 0.01
    }
    bias_filler {
      type: "constant"
      value: 0.1
    }
  }
}
layer {
  name: "relu5"
  type: "ReLU"
  bottom: "conv5"
  top: "conv5"
}
layer {
  name: "pool5"
  type: "Pooling"
  bottom: "conv5"
  top: "pool5"
  pooling_param {
    pool: MAX
    kernel_size: 3
    stride: 2
  }
}
layer {
  name: "fc6"
  type: "InnerProduct"
  bottom: "pool5"
  top: "fc6"
  param {
    lr_mult: 1
    decay_mult: 1
  }
  param {
    lr_mult: 2
    decay_mult: 0
  }
  inner_product_param {
    num_output: 4096
    weight_filler {
      type: "gaussian"
      std: 0.005
    }
    bias_filler {
      type: "constant"
      value: 0.1
    }
  }
}
layer {
  name: "relu6"
  type: "ReLU"
  bottom: "fc6"
  top: "fc6"
}
layer {
  name: "drop6"
  type: "Dropout"
  bottom: "fc6"
  top: "fc6"
  dropout_param {
    dropout_ratio: 0.5
  }
}
layer {
  name: "fc7"
  type: "InnerProduct"
  bottom: "fc6"
  top: "fc7"
  param {
    lr_mult: 1
    decay_mult: 1
  }
  param {
    lr_mult: 2
    decay_mult: 0
  }
  inner_product_param {
    num_output: 4096
    weight_filler {
      type: "gaussian"
      std: 0.005
    }
    bias_filler {
      type: "constant"
      value: 0.1
    }
  }
}
layer {
  name: "relu7"
  type: "ReLU"
  bottom: "fc7"
  top: "fc7"
}
layer {
  name: "drop7"
  type: "Dropout"
  bottom: "fc7"
  top: "fc7"
  dropout_param {
    dropout_ratio: 0.5
  }
}
layer {
  name: "fc8_plantvillage"
  type: "InnerProduct"
  bottom: "fc7"
  top: "fc8_plantvillage"
  param {
    lr_mult: 1
    decay_mult: 1
  }
  param {
    lr_mult: 2
    decay_mult: 0
  }
  inner_product_param {
    num_output: 38
    weight_filler {
      type: "gaussian"
      std: 0.01
    }
    bias_filler {
      type: "constant"
      value: 0
    }
  }
}
layer {
  name: "prob"
  type: "Softmax"
  bottom: "fc8_plantvillage"
  top: "prob"
  include {
    phase: TEST
  }
}
layer {
  name: "hdf5out"
  type: "HDF5Output"
  bottom: "prob"
  bottom: "label"
  include {
    phase: TEST
  }
  hdf5_output_param {
    file_name: "hdf5_dumps/iter_3132.h5"
  }
}
layer {
  name: "loss"
  type: "SoftmaxWithLoss"
  bottom: "fc8_plantvillage"
  bottom: "label"
  top: "loss"
}
layer {
  name: "accuracy"
  type: "Accuracy"
  bottom: "fc8_plantvillage"
  bottom: "label"
  top: "accuracy"
  include {
    phase: TEST
  }
}
I0403 12:59:51.621551 27142 layer_factory.hpp:77] Creating layer data
I0403 12:59:51.622233 27142 net.cpp:91] Creating Layer data
I0403 12:59:51.622267 27142 net.cpp:399] data -> data
I0403 12:59:51.622323 27142 net.cpp:399] data -> label
I0403 12:59:51.622361 27142 data_transformer.cpp:25] Loading mean file from: /home/mohanty/data/final_dataset/lmdb/color-20-80/mean.binaryproto
I0403 12:59:51.625248 27146 db_lmdb.cpp:38] Opened lmdb /home/mohanty/data/final_dataset/lmdb/color-20-80/test_db
I0403 12:59:51.636869 27142 data_layer.cpp:41] output data size: 100,3,227,227
I0403 12:59:51.773001 27142 net.cpp:141] Setting up data
I0403 12:59:51.773066 27142 net.cpp:148] Top shape: 100 3 227 227 (15458700)
I0403 12:59:51.773090 27142 net.cpp:148] Top shape: 100 (100)
I0403 12:59:51.773107 27142 net.cpp:156] Memory required for data: 61835200
I0403 12:59:51.773135 27142 layer_factory.hpp:77] Creating layer label_data_1_split
I0403 12:59:51.773164 27142 net.cpp:91] Creating Layer label_data_1_split
I0403 12:59:51.773182 27142 net.cpp:425] label_data_1_split <- label
I0403 12:59:51.773214 27142 net.cpp:399] label_data_1_split -> label_data_1_split_0
I0403 12:59:51.773242 27142 net.cpp:399] label_data_1_split -> label_data_1_split_1
I0403 12:59:51.773264 27142 net.cpp:399] label_data_1_split -> label_data_1_split_2
I0403 12:59:51.773342 27142 net.cpp:141] Setting up label_data_1_split
I0403 12:59:51.773370 27142 net.cpp:148] Top shape: 100 (100)
I0403 12:59:51.773388 27142 net.cpp:148] Top shape: 100 (100)
I0403 12:59:51.773406 27142 net.cpp:148] Top shape: 100 (100)
I0403 12:59:51.773422 27142 net.cpp:156] Memory required for data: 61836400
I0403 12:59:51.773437 27142 layer_factory.hpp:77] Creating layer conv1
I0403 12:59:51.773470 27142 net.cpp:91] Creating Layer conv1
I0403 12:59:51.773490 27142 net.cpp:425] conv1 <- data
I0403 12:59:51.773511 27142 net.cpp:399] conv1 -> conv1
I0403 12:59:51.924231 27142 net.cpp:141] Setting up conv1
I0403 12:59:51.924322 27142 net.cpp:148] Top shape: 100 96 55 55 (29040000)
I0403 12:59:51.924352 27142 net.cpp:156] Memory required for data: 177996400
I0403 12:59:51.924386 27142 layer_factory.hpp:77] Creating layer relu1
I0403 12:59:51.924414 27142 net.cpp:91] Creating Layer relu1
I0403 12:59:51.924433 27142 net.cpp:425] relu1 <- conv1
I0403 12:59:51.924453 27142 net.cpp:386] relu1 -> conv1 (in-place)
I0403 12:59:51.924793 27142 net.cpp:141] Setting up relu1
I0403 12:59:51.924821 27142 net.cpp:148] Top shape: 100 96 55 55 (29040000)
I0403 12:59:51.924839 27142 net.cpp:156] Memory required for data: 294156400
I0403 12:59:51.924886 27142 layer_factory.hpp:77] Creating layer norm1
I0403 12:59:51.924916 27142 net.cpp:91] Creating Layer norm1
I0403 12:59:51.924934 27142 net.cpp:425] norm1 <- conv1
I0403 12:59:51.924952 27142 net.cpp:399] norm1 -> norm1
I0403 12:59:51.925268 27142 net.cpp:141] Setting up norm1
I0403 12:59:51.925297 27142 net.cpp:148] Top shape: 100 96 55 55 (29040000)
I0403 12:59:51.925314 27142 net.cpp:156] Memory required for data: 410316400
I0403 12:59:51.925329 27142 layer_factory.hpp:77] Creating layer pool1
I0403 12:59:51.925354 27142 net.cpp:91] Creating Layer pool1
I0403 12:59:51.925371 27142 net.cpp:425] pool1 <- norm1
I0403 12:59:51.925390 27142 net.cpp:399] pool1 -> pool1
I0403 12:59:51.925457 27142 net.cpp:141] Setting up pool1
I0403 12:59:51.925482 27142 net.cpp:148] Top shape: 100 96 27 27 (6998400)
I0403 12:59:51.925498 27142 net.cpp:156] Memory required for data: 438310000
I0403 12:59:51.925514 27142 layer_factory.hpp:77] Creating layer conv2
I0403 12:59:51.925540 27142 net.cpp:91] Creating Layer conv2
I0403 12:59:51.925557 27142 net.cpp:425] conv2 <- pool1
I0403 12:59:51.925575 27142 net.cpp:399] conv2 -> conv2
I0403 12:59:51.940857 27142 net.cpp:141] Setting up conv2
I0403 12:59:51.940907 27142 net.cpp:148] Top shape: 100 256 27 27 (18662400)
I0403 12:59:51.940925 27142 net.cpp:156] Memory required for data: 512959600
I0403 12:59:51.940948 27142 layer_factory.hpp:77] Creating layer relu2
I0403 12:59:51.940971 27142 net.cpp:91] Creating Layer relu2
I0403 12:59:51.940990 27142 net.cpp:425] relu2 <- conv2
I0403 12:59:51.941009 27142 net.cpp:386] relu2 -> conv2 (in-place)
I0403 12:59:51.941295 27142 net.cpp:141] Setting up relu2
I0403 12:59:51.941323 27142 net.cpp:148] Top shape: 100 256 27 27 (18662400)
I0403 12:59:51.941346 27142 net.cpp:156] Memory required for data: 587609200
I0403 12:59:51.941362 27142 layer_factory.hpp:77] Creating layer norm2
I0403 12:59:51.941385 27142 net.cpp:91] Creating Layer norm2
I0403 12:59:51.941402 27142 net.cpp:425] norm2 <- conv2
I0403 12:59:51.941426 27142 net.cpp:399] norm2 -> norm2
I0403 12:59:51.941640 27142 net.cpp:141] Setting up norm2
I0403 12:59:51.941668 27142 net.cpp:148] Top shape: 100 256 27 27 (18662400)
I0403 12:59:51.941684 27142 net.cpp:156] Memory required for data: 662258800
I0403 12:59:51.941699 27142 layer_factory.hpp:77] Creating layer pool2
I0403 12:59:51.941718 27142 net.cpp:91] Creating Layer pool2
I0403 12:59:51.941735 27142 net.cpp:425] pool2 <- norm2
I0403 12:59:51.941753 27142 net.cpp:399] pool2 -> pool2
I0403 12:59:51.941808 27142 net.cpp:141] Setting up pool2
I0403 12:59:51.941833 27142 net.cpp:148] Top shape: 100 256 13 13 (4326400)
I0403 12:59:51.941848 27142 net.cpp:156] Memory required for data: 679564400
I0403 12:59:51.941864 27142 layer_factory.hpp:77] Creating layer conv3
I0403 12:59:51.941890 27142 net.cpp:91] Creating Layer conv3
I0403 12:59:51.941908 27142 net.cpp:425] conv3 <- pool2
I0403 12:59:51.941927 27142 net.cpp:399] conv3 -> conv3
I0403 12:59:51.990358 27142 net.cpp:141] Setting up conv3
I0403 12:59:51.990428 27142 net.cpp:148] Top shape: 100 384 13 13 (6489600)
I0403 12:59:51.990447 27142 net.cpp:156] Memory required for data: 705522800
I0403 12:59:51.990473 27142 layer_factory.hpp:77] Creating layer relu3
I0403 12:59:51.990499 27142 net.cpp:91] Creating Layer relu3
I0403 12:59:51.990519 27142 net.cpp:425] relu3 <- conv3
I0403 12:59:51.990537 27142 net.cpp:386] relu3 -> conv3 (in-place)
I0403 12:59:51.990834 27142 net.cpp:141] Setting up relu3
I0403 12:59:51.990864 27142 net.cpp:148] Top shape: 100 384 13 13 (6489600)
I0403 12:59:51.990880 27142 net.cpp:156] Memory required for data: 731481200
I0403 12:59:51.990896 27142 layer_factory.hpp:77] Creating layer conv4
I0403 12:59:51.990922 27142 net.cpp:91] Creating Layer conv4
I0403 12:59:51.990941 27142 net.cpp:425] conv4 <- conv3
I0403 12:59:51.990962 27142 net.cpp:399] conv4 -> conv4
I0403 12:59:52.021097 27142 net.cpp:141] Setting up conv4
I0403 12:59:52.021164 27142 net.cpp:148] Top shape: 100 384 13 13 (6489600)
I0403 12:59:52.021214 27142 net.cpp:156] Memory required for data: 757439600
I0403 12:59:52.021237 27142 layer_factory.hpp:77] Creating layer relu4
I0403 12:59:52.021280 27142 net.cpp:91] Creating Layer relu4
I0403 12:59:52.021298 27142 net.cpp:425] relu4 <- conv4
I0403 12:59:52.021320 27142 net.cpp:386] relu4 -> conv4 (in-place)
I0403 12:59:52.021610 27142 net.cpp:141] Setting up relu4
I0403 12:59:52.021638 27142 net.cpp:148] Top shape: 100 384 13 13 (6489600)
I0403 12:59:52.021654 27142 net.cpp:156] Memory required for data: 783398000
I0403 12:59:52.021670 27142 layer_factory.hpp:77] Creating layer conv5
I0403 12:59:52.021697 27142 net.cpp:91] Creating Layer conv5
I0403 12:59:52.021716 27142 net.cpp:425] conv5 <- conv4
I0403 12:59:52.021739 27142 net.cpp:399] conv5 -> conv5
I0403 12:59:52.042969 27142 net.cpp:141] Setting up conv5
I0403 12:59:52.043020 27142 net.cpp:148] Top shape: 100 256 13 13 (4326400)
I0403 12:59:52.043037 27142 net.cpp:156] Memory required for data: 800703600
I0403 12:59:52.043062 27142 layer_factory.hpp:77] Creating layer relu5
I0403 12:59:52.043083 27142 net.cpp:91] Creating Layer relu5
I0403 12:59:52.043102 27142 net.cpp:425] relu5 <- conv5
I0403 12:59:52.043125 27142 net.cpp:386] relu5 -> conv5 (in-place)
I0403 12:59:52.043417 27142 net.cpp:141] Setting up relu5
I0403 12:59:52.043445 27142 net.cpp:148] Top shape: 100 256 13 13 (4326400)
I0403 12:59:52.043460 27142 net.cpp:156] Memory required for data: 818009200
I0403 12:59:52.043476 27142 layer_factory.hpp:77] Creating layer pool5
I0403 12:59:52.043503 27142 net.cpp:91] Creating Layer pool5
I0403 12:59:52.043520 27142 net.cpp:425] pool5 <- conv5
I0403 12:59:52.043540 27142 net.cpp:399] pool5 -> pool5
I0403 12:59:52.043602 27142 net.cpp:141] Setting up pool5
I0403 12:59:52.043628 27142 net.cpp:148] Top shape: 100 256 6 6 (921600)
I0403 12:59:52.043643 27142 net.cpp:156] Memory required for data: 821695600
I0403 12:59:52.043659 27142 layer_factory.hpp:77] Creating layer fc6
I0403 12:59:52.043689 27142 net.cpp:91] Creating Layer fc6
I0403 12:59:52.043707 27142 net.cpp:425] fc6 <- pool5
I0403 12:59:52.043727 27142 net.cpp:399] fc6 -> fc6
I0403 12:59:53.776226 27142 net.cpp:141] Setting up fc6
I0403 12:59:53.776315 27142 net.cpp:148] Top shape: 100 4096 (409600)
I0403 12:59:53.776332 27142 net.cpp:156] Memory required for data: 823334000
I0403 12:59:53.776355 27142 layer_factory.hpp:77] Creating layer relu6
I0403 12:59:53.776377 27142 net.cpp:91] Creating Layer relu6
I0403 12:59:53.776394 27142 net.cpp:425] relu6 <- fc6
I0403 12:59:53.776417 27142 net.cpp:386] relu6 -> fc6 (in-place)
I0403 12:59:53.776643 27142 net.cpp:141] Setting up relu6
I0403 12:59:53.776669 27142 net.cpp:148] Top shape: 100 4096 (409600)
I0403 12:59:53.776682 27142 net.cpp:156] Memory required for data: 824972400
I0403 12:59:53.776696 27142 layer_factory.hpp:77] Creating layer drop6
I0403 12:59:53.776715 27142 net.cpp:91] Creating Layer drop6
I0403 12:59:53.776729 27142 net.cpp:425] drop6 <- fc6
I0403 12:59:53.776748 27142 net.cpp:386] drop6 -> fc6 (in-place)
I0403 12:59:53.776804 27142 net.cpp:141] Setting up drop6
I0403 12:59:53.776828 27142 net.cpp:148] Top shape: 100 4096 (409600)
I0403 12:59:53.776844 27142 net.cpp:156] Memory required for data: 826610800
I0403 12:59:53.776859 27142 layer_factory.hpp:77] Creating layer fc7
I0403 12:59:53.776877 27142 net.cpp:91] Creating Layer fc7
I0403 12:59:53.776892 27142 net.cpp:425] fc7 <- fc6
I0403 12:59:53.776912 27142 net.cpp:399] fc7 -> fc7
I0403 12:59:55.687719 27142 net.cpp:141] Setting up fc7
I0403 12:59:55.687803 27142 net.cpp:148] Top shape: 100 4096 (409600)
I0403 12:59:55.687820 27142 net.cpp:156] Memory required for data: 828249200
I0403 12:59:55.687842 27142 layer_factory.hpp:77] Creating layer relu7
I0403 12:59:55.687868 27142 net.cpp:91] Creating Layer relu7
I0403 12:59:55.687888 27142 net.cpp:425] relu7 <- fc7
I0403 12:59:55.687908 27142 net.cpp:386] relu7 -> fc7 (in-place)
I0403 12:59:55.688294 27142 net.cpp:141] Setting up relu7
I0403 12:59:55.688321 27142 net.cpp:148] Top shape: 100 4096 (409600)
I0403 12:59:55.688370 27142 net.cpp:156] Memory required for data: 829887600
I0403 12:59:55.688387 27142 layer_factory.hpp:77] Creating layer drop7
I0403 12:59:55.688407 27142 net.cpp:91] Creating Layer drop7
I0403 12:59:55.688453 27142 net.cpp:425] drop7 <- fc7
I0403 12:59:55.688472 27142 net.cpp:386] drop7 -> fc7 (in-place)
I0403 12:59:55.688516 27142 net.cpp:141] Setting up drop7
I0403 12:59:55.688542 27142 net.cpp:148] Top shape: 100 4096 (409600)
I0403 12:59:55.688557 27142 net.cpp:156] Memory required for data: 831526000
I0403 12:59:55.688573 27142 layer_factory.hpp:77] Creating layer fc8_plantvillage
I0403 12:59:55.688594 27142 net.cpp:91] Creating Layer fc8_plantvillage
I0403 12:59:55.688611 27142 net.cpp:425] fc8_plantvillage <- fc7
I0403 12:59:55.688630 27142 net.cpp:399] fc8_plantvillage -> fc8_plantvillage
I0403 12:59:55.695387 27142 net.cpp:141] Setting up fc8_plantvillage
I0403 12:59:55.695420 27142 net.cpp:148] Top shape: 100 38 (3800)
I0403 12:59:55.695436 27142 net.cpp:156] Memory required for data: 831541200
I0403 12:59:55.695456 27142 layer_factory.hpp:77] Creating layer fc8_plantvillage_fc8_plantvillage_0_split
I0403 12:59:55.695477 27142 net.cpp:91] Creating Layer fc8_plantvillage_fc8_plantvillage_0_split
I0403 12:59:55.695497 27142 net.cpp:425] fc8_plantvillage_fc8_plantvillage_0_split <- fc8_plantvillage
I0403 12:59:55.695513 27142 net.cpp:399] fc8_plantvillage_fc8_plantvillage_0_split -> fc8_plantvillage_fc8_plantvillage_0_split_0
I0403 12:59:55.695533 27142 net.cpp:399] fc8_plantvillage_fc8_plantvillage_0_split -> fc8_plantvillage_fc8_plantvillage_0_split_1
I0403 12:59:55.695554 27142 net.cpp:399] fc8_plantvillage_fc8_plantvillage_0_split -> fc8_plantvillage_fc8_plantvillage_0_split_2
I0403 12:59:55.695634 27142 net.cpp:141] Setting up fc8_plantvillage_fc8_plantvillage_0_split
I0403 12:59:55.695658 27142 net.cpp:148] Top shape: 100 38 (3800)
I0403 12:59:55.695675 27142 net.cpp:148] Top shape: 100 38 (3800)
I0403 12:59:55.695691 27142 net.cpp:148] Top shape: 100 38 (3800)
I0403 12:59:55.695705 27142 net.cpp:156] Memory required for data: 831586800
I0403 12:59:55.695720 27142 layer_factory.hpp:77] Creating layer prob
I0403 12:59:55.695739 27142 net.cpp:91] Creating Layer prob
I0403 12:59:55.695755 27142 net.cpp:425] prob <- fc8_plantvillage_fc8_plantvillage_0_split_0
I0403 12:59:55.695775 27142 net.cpp:399] prob -> prob
I0403 12:59:55.696005 27142 net.cpp:141] Setting up prob
I0403 12:59:55.696032 27142 net.cpp:148] Top shape: 100 38 (3800)
I0403 12:59:55.696046 27142 net.cpp:156] Memory required for data: 831602000
I0403 12:59:55.696063 27142 layer_factory.hpp:77] Creating layer hdf5out
I0403 12:59:55.696084 27142 net.cpp:91] Creating Layer hdf5out
I0403 12:59:55.696101 27142 net.cpp:425] hdf5out <- prob
I0403 12:59:55.696120 27142 net.cpp:425] hdf5out <- label_data_1_split_0
I0403 12:59:55.700408 27142 net.cpp:141] Setting up hdf5out
…
