…
I0403 12:18:17.957242 26055 net.cpp:313] The NetState phase (1) differed from the phase (0) specified by a rule in layer data
I0403 12:18:17.958266 26055 net.cpp:49] Initializing net from parameters: 
state {
  phase: TEST
}
layer {
  name: "data"
  type: "Data"
  top: "data"
  top: "label"
  include {
    phase: TEST
  }
  transform_param {
    crop_size: 227
    mean_file: "/home/mohanty/data/final_dataset/lmdb/color-20-80/mean.binaryproto"
  }
  data_param {
    source: "/home/mohanty/data/final_dataset/lmdb/color-20-80/test_db"
    batch_size: 100
    backend: LMDB
  }
}
layer {
  name: "conv1"
  type: "Convolution"
  bottom: "data"
  top: "conv1"
  param {
    lr_mult: 1
    decay_mult: 1
  }
  param {
    lr_mult: 2
    decay_mult: 0
  }
  convolution_param {
    num_output: 96
    kernel_size: 11
    stride: 4
    weight_filler {
      type: "gaussian"
      std: 0.01
    }
    bias_filler {
      type: "constant"
      value: 0
    }
  }
}
layer {
  name: "relu1"
  type: "ReLU"
  bottom: "conv1"
  top: "conv1"
}
layer {
  name: "norm1"
  type: "LRN"
  bottom: "conv1"
  top: "norm1"
  lrn_param {
    local_size: 5
    alpha: 0.0001
    beta: 0.75
  }
}
layer {
  name: "pool1"
  type: "Pooling"
  bottom: "norm1"
  top: "pool1"
  pooling_param {
    pool: MAX
    kernel_size: 3
    stride: 2
  }
}
layer {
  name: "conv2"
  type: "Convolution"
  bottom: "pool1"
  top: "conv2"
  param {
    lr_mult: 1
    decay_mult: 1
  }
  param {
    lr_mult: 2
    decay_mult: 0
  }
  convolution_param {
    num_output: 256
    pad: 2
    kernel_size: 5
    group: 2
    weight_filler {
      type: "gaussian"
      std: 0.01
    }
    bias_filler {
      type: "constant"
      value: 0.1
    }
  }
}
layer {
  name: "relu2"
  type: "ReLU"
  bottom: "conv2"
  top: "conv2"
}
layer {
  name: "norm2"
  type: "LRN"
  bottom: "conv2"
  top: "norm2"
  lrn_param {
    local_size: 5
    alpha: 0.0001
    beta: 0.75
  }
}
layer {
  name: "pool2"
  type: "Pooling"
  bottom: "norm2"
  top: "pool2"
  pooling_param {
    pool: MAX
    kernel_size: 3
    stride: 2
  }
}
layer {
  name: "conv3"
  type: "Convolution"
  bottom: "pool2"
  top: "conv3"
  param {
    lr_mult: 1
    decay_mult: 1
  }
  param {
    lr_mult: 2
    decay_mult: 0
  }
  convolution_param {
    num_output: 384
    pad: 1
    kernel_size: 3
    weight_filler {
      type: "gaussian"
      std: 0.01
    }
    bias_filler {
      type: "constant"
      value: 0
    }
  }
}
layer {
  name: "relu3"
  type: "ReLU"
  bottom: "conv3"
  top: "conv3"
}
layer {
  name: "conv4"
  type: "Convolution"
  bottom: "conv3"
  top: "conv4"
  param {
    lr_mult: 1
    decay_mult: 1
  }
  param {
    lr_mult: 2
    decay_mult: 0
  }
  convolution_param {
    num_output: 384
    pad: 1
    kernel_size: 3
    group: 2
    weight_filler {
      type: "gaussian"
      std: 0.01
    }
    bias_filler {
      type: "constant"
      value: 0.1
    }
  }
}
layer {
  name: "relu4"
  type: "ReLU"
  bottom: "conv4"
  top: "conv4"
}
layer {
  name: "conv5"
  type: "Convolution"
  bottom: "conv4"
  top: "conv5"
  param {
    lr_mult: 1
    decay_mult: 1
  }
  param {
    lr_mult: 2
    decay_mult: 0
  }
  convolution_param {
    num_output: 256
    pad: 1
    kernel_size: 3
    group: 2
    weight_filler {
      type: "gaussian"
      std: 0.01
    }
    bias_filler {
      type: "constant"
      value: 0.1
    }
  }
}
layer {
  name: "relu5"
  type: "ReLU"
  bottom: "conv5"
  top: "conv5"
}
layer {
  name: "pool5"
  type: "Pooling"
  bottom: "conv5"
  top: "pool5"
  pooling_param {
    pool: MAX
    kernel_size: 3
    stride: 2
  }
}
layer {
  name: "fc6"
  type: "InnerProduct"
  bottom: "pool5"
  top: "fc6"
  param {
    lr_mult: 1
    decay_mult: 1
  }
  param {
    lr_mult: 2
    decay_mult: 0
  }
  inner_product_param {
    num_output: 4096
    weight_filler {
      type: "gaussian"
      std: 0.005
    }
    bias_filler {
      type: "constant"
      value: 0.1
    }
  }
}
layer {
  name: "relu6"
  type: "ReLU"
  bottom: "fc6"
  top: "fc6"
}
layer {
  name: "drop6"
  type: "Dropout"
  bottom: "fc6"
  top: "fc6"
  dropout_param {
    dropout_ratio: 0.5
  }
}
layer {
  name: "fc7"
  type: "InnerProduct"
  bottom: "fc6"
  top: "fc7"
  param {
    lr_mult: 1
    decay_mult: 1
  }
  param {
    lr_mult: 2
    decay_mult: 0
  }
  inner_product_param {
    num_output: 4096
    weight_filler {
      type: "gaussian"
      std: 0.005
    }
    bias_filler {
      type: "constant"
      value: 0.1
    }
  }
}
layer {
  name: "relu7"
  type: "ReLU"
  bottom: "fc7"
  top: "fc7"
}
layer {
  name: "drop7"
  type: "Dropout"
  bottom: "fc7"
  top: "fc7"
  dropout_param {
    dropout_ratio: 0.5
  }
}
layer {
  name: "fc8_plantvillage"
  type: "InnerProduct"
  bottom: "fc7"
  top: "fc8_plantvillage"
  param {
    lr_mult: 1
    decay_mult: 1
  }
  param {
    lr_mult: 2
    decay_mult: 0
  }
  inner_product_param {
    num_output: 38
    weight_filler {
      type: "gaussian"
      std: 0.01
    }
    bias_filler {
      type: "constant"
      value: 0
    }
  }
}
layer {
  name: "prob"
  type: "Softmax"
  bottom: "fc8_plantvillage"
  top: "prob"
  include {
    phase: TEST
  }
}
layer {
  name: "hdf5out"
  type: "HDF5Output"
  bottom: "prob"
  bottom: "label"
  include {
    phase: TEST
  }
  hdf5_output_param {
    file_name: "hdf5_dumps/iter_108.h5"
  }
}
layer {
  name: "loss"
  type: "SoftmaxWithLoss"
  bottom: "fc8_plantvillage"
  bottom: "label"
  top: "loss"
}
layer {
  name: "accuracy"
  type: "Accuracy"
  bottom: "fc8_plantvillage"
  bottom: "label"
  top: "accuracy"
  include {
    phase: TEST
  }
}
I0403 12:18:17.959835 26055 layer_factory.hpp:77] Creating layer data
I0403 12:18:17.962028 26055 net.cpp:91] Creating Layer data
I0403 12:18:17.962110 26055 net.cpp:399] data -> data
I0403 12:18:17.962350 26055 net.cpp:399] data -> label
I0403 12:18:17.962527 26055 data_transformer.cpp:25] Loading mean file from: /home/mohanty/data/final_dataset/lmdb/color-20-80/mean.binaryproto
I0403 12:18:18.036882 26061 db_lmdb.cpp:38] Opened lmdb /home/mohanty/data/final_dataset/lmdb/color-20-80/test_db
I0403 12:18:18.041496 26055 data_layer.cpp:41] output data size: 100,3,227,227
I0403 12:18:18.194325 26055 net.cpp:141] Setting up data
I0403 12:18:18.194469 26055 net.cpp:148] Top shape: 100 3 227 227 (15458700)
I0403 12:18:18.194507 26055 net.cpp:148] Top shape: 100 (100)
I0403 12:18:18.194527 26055 net.cpp:156] Memory required for data: 61835200
I0403 12:18:18.194561 26055 layer_factory.hpp:77] Creating layer label_data_1_split
I0403 12:18:18.194592 26055 net.cpp:91] Creating Layer label_data_1_split
I0403 12:18:18.194615 26055 net.cpp:425] label_data_1_split <- label
I0403 12:18:18.194653 26055 net.cpp:399] label_data_1_split -> label_data_1_split_0
I0403 12:18:18.194686 26055 net.cpp:399] label_data_1_split -> label_data_1_split_1
I0403 12:18:18.194712 26055 net.cpp:399] label_data_1_split -> label_data_1_split_2
I0403 12:18:18.194792 26055 net.cpp:141] Setting up label_data_1_split
I0403 12:18:18.194829 26055 net.cpp:148] Top shape: 100 (100)
I0403 12:18:18.194851 26055 net.cpp:148] Top shape: 100 (100)
I0403 12:18:18.194871 26055 net.cpp:148] Top shape: 100 (100)
I0403 12:18:18.194888 26055 net.cpp:156] Memory required for data: 61836400
I0403 12:18:18.194907 26055 layer_factory.hpp:77] Creating layer conv1
I0403 12:18:18.194962 26055 net.cpp:91] Creating Layer conv1
I0403 12:18:18.194986 26055 net.cpp:425] conv1 <- data
I0403 12:18:18.195010 26055 net.cpp:399] conv1 -> conv1
I0403 12:18:18.647882 26055 net.cpp:141] Setting up conv1
I0403 12:18:18.647934 26055 net.cpp:148] Top shape: 100 96 55 55 (29040000)
I0403 12:18:18.647956 26055 net.cpp:156] Memory required for data: 177996400
I0403 12:18:18.647989 26055 layer_factory.hpp:77] Creating layer relu1
I0403 12:18:18.648020 26055 net.cpp:91] Creating Layer relu1
I0403 12:18:18.648043 26055 net.cpp:425] relu1 <- conv1
I0403 12:18:18.648066 26055 net.cpp:386] relu1 -> conv1 (in-place)
I0403 12:18:18.648368 26055 net.cpp:141] Setting up relu1
I0403 12:18:18.648402 26055 net.cpp:148] Top shape: 100 96 55 55 (29040000)
I0403 12:18:18.648422 26055 net.cpp:156] Memory required for data: 294156400
I0403 12:18:18.648465 26055 layer_factory.hpp:77] Creating layer norm1
I0403 12:18:18.648499 26055 net.cpp:91] Creating Layer norm1
I0403 12:18:18.648521 26055 net.cpp:425] norm1 <- conv1
I0403 12:18:18.648546 26055 net.cpp:399] norm1 -> norm1
I0403 12:18:18.648905 26055 net.cpp:141] Setting up norm1
I0403 12:18:18.648942 26055 net.cpp:148] Top shape: 100 96 55 55 (29040000)
I0403 12:18:18.648964 26055 net.cpp:156] Memory required for data: 410316400
I0403 12:18:18.648985 26055 layer_factory.hpp:77] Creating layer pool1
I0403 12:18:18.649014 26055 net.cpp:91] Creating Layer pool1
I0403 12:18:18.649037 26055 net.cpp:425] pool1 <- norm1
I0403 12:18:18.649060 26055 net.cpp:399] pool1 -> pool1
I0403 12:18:18.649134 26055 net.cpp:141] Setting up pool1
I0403 12:18:18.649163 26055 net.cpp:148] Top shape: 100 96 27 27 (6998400)
I0403 12:18:18.649183 26055 net.cpp:156] Memory required for data: 438310000
I0403 12:18:18.649202 26055 layer_factory.hpp:77] Creating layer conv2
I0403 12:18:18.649231 26055 net.cpp:91] Creating Layer conv2
I0403 12:18:18.649256 26055 net.cpp:425] conv2 <- pool1
I0403 12:18:18.649282 26055 net.cpp:399] conv2 -> conv2
I0403 12:18:18.666977 26055 net.cpp:141] Setting up conv2
I0403 12:18:18.667021 26055 net.cpp:148] Top shape: 100 256 27 27 (18662400)
I0403 12:18:18.667042 26055 net.cpp:156] Memory required for data: 512959600
I0403 12:18:18.667070 26055 layer_factory.hpp:77] Creating layer relu2
I0403 12:18:18.667095 26055 net.cpp:91] Creating Layer relu2
I0403 12:18:18.667116 26055 net.cpp:425] relu2 <- conv2
I0403 12:18:18.667138 26055 net.cpp:386] relu2 -> conv2 (in-place)
I0403 12:18:18.667462 26055 net.cpp:141] Setting up relu2
I0403 12:18:18.667496 26055 net.cpp:148] Top shape: 100 256 27 27 (18662400)
I0403 12:18:18.667515 26055 net.cpp:156] Memory required for data: 587609200
I0403 12:18:18.667536 26055 layer_factory.hpp:77] Creating layer norm2
I0403 12:18:18.667563 26055 net.cpp:91] Creating Layer norm2
I0403 12:18:18.667584 26055 net.cpp:425] norm2 <- conv2
I0403 12:18:18.667608 26055 net.cpp:399] norm2 -> norm2
I0403 12:18:18.667832 26055 net.cpp:141] Setting up norm2
I0403 12:18:18.667863 26055 net.cpp:148] Top shape: 100 256 27 27 (18662400)
I0403 12:18:18.667883 26055 net.cpp:156] Memory required for data: 662258800
I0403 12:18:18.667903 26055 layer_factory.hpp:77] Creating layer pool2
I0403 12:18:18.667927 26055 net.cpp:91] Creating Layer pool2
I0403 12:18:18.667948 26055 net.cpp:425] pool2 <- norm2
I0403 12:18:18.667969 26055 net.cpp:399] pool2 -> pool2
I0403 12:18:18.668030 26055 net.cpp:141] Setting up pool2
I0403 12:18:18.668059 26055 net.cpp:148] Top shape: 100 256 13 13 (4326400)
I0403 12:18:18.668078 26055 net.cpp:156] Memory required for data: 679564400
I0403 12:18:18.668097 26055 layer_factory.hpp:77] Creating layer conv3
I0403 12:18:18.668123 26055 net.cpp:91] Creating Layer conv3
I0403 12:18:18.668144 26055 net.cpp:425] conv3 <- pool2
I0403 12:18:18.668167 26055 net.cpp:399] conv3 -> conv3
I0403 12:18:18.714012 26055 net.cpp:141] Setting up conv3
I0403 12:18:18.714059 26055 net.cpp:148] Top shape: 100 384 13 13 (6489600)
I0403 12:18:18.714079 26055 net.cpp:156] Memory required for data: 705522800
I0403 12:18:18.714110 26055 layer_factory.hpp:77] Creating layer relu3
I0403 12:18:18.714148 26055 net.cpp:91] Creating Layer relu3
I0403 12:18:18.714169 26055 net.cpp:425] relu3 <- conv3
I0403 12:18:18.714192 26055 net.cpp:386] relu3 -> conv3 (in-place)
I0403 12:18:18.714534 26055 net.cpp:141] Setting up relu3
I0403 12:18:18.714567 26055 net.cpp:148] Top shape: 100 384 13 13 (6489600)
I0403 12:18:18.714586 26055 net.cpp:156] Memory required for data: 731481200
I0403 12:18:18.714606 26055 layer_factory.hpp:77] Creating layer conv4
I0403 12:18:18.714637 26055 net.cpp:91] Creating Layer conv4
I0403 12:18:18.714660 26055 net.cpp:425] conv4 <- conv3
I0403 12:18:18.714684 26055 net.cpp:399] conv4 -> conv4
I0403 12:18:18.749974 26055 net.cpp:141] Setting up conv4
I0403 12:18:18.750020 26055 net.cpp:148] Top shape: 100 384 13 13 (6489600)
I0403 12:18:18.750061 26055 net.cpp:156] Memory required for data: 757439600
I0403 12:18:18.750089 26055 layer_factory.hpp:77] Creating layer relu4
I0403 12:18:18.750118 26055 net.cpp:91] Creating Layer relu4
I0403 12:18:18.750140 26055 net.cpp:425] relu4 <- conv4
I0403 12:18:18.750162 26055 net.cpp:386] relu4 -> conv4 (in-place)
I0403 12:18:18.750496 26055 net.cpp:141] Setting up relu4
I0403 12:18:18.750530 26055 net.cpp:148] Top shape: 100 384 13 13 (6489600)
I0403 12:18:18.750548 26055 net.cpp:156] Memory required for data: 783398000
I0403 12:18:18.750568 26055 layer_factory.hpp:77] Creating layer conv5
I0403 12:18:18.750598 26055 net.cpp:91] Creating Layer conv5
I0403 12:18:18.750620 26055 net.cpp:425] conv5 <- conv4
I0403 12:18:18.750658 26055 net.cpp:399] conv5 -> conv5
I0403 12:18:18.775032 26055 net.cpp:141] Setting up conv5
I0403 12:18:18.775084 26055 net.cpp:148] Top shape: 100 256 13 13 (4326400)
I0403 12:18:18.775105 26055 net.cpp:156] Memory required for data: 800703600
I0403 12:18:18.775138 26055 layer_factory.hpp:77] Creating layer relu5
I0403 12:18:18.775166 26055 net.cpp:91] Creating Layer relu5
I0403 12:18:18.775187 26055 net.cpp:425] relu5 <- conv5
I0403 12:18:18.775208 26055 net.cpp:386] relu5 -> conv5 (in-place)
I0403 12:18:18.775538 26055 net.cpp:141] Setting up relu5
I0403 12:18:18.775571 26055 net.cpp:148] Top shape: 100 256 13 13 (4326400)
I0403 12:18:18.775591 26055 net.cpp:156] Memory required for data: 818009200
I0403 12:18:18.775611 26055 layer_factory.hpp:77] Creating layer pool5
I0403 12:18:18.775640 26055 net.cpp:91] Creating Layer pool5
I0403 12:18:18.775660 26055 net.cpp:425] pool5 <- conv5
I0403 12:18:18.775684 26055 net.cpp:399] pool5 -> pool5
I0403 12:18:18.775776 26055 net.cpp:141] Setting up pool5
I0403 12:18:18.775810 26055 net.cpp:148] Top shape: 100 256 6 6 (921600)
I0403 12:18:18.775830 26055 net.cpp:156] Memory required for data: 821695600
I0403 12:18:18.775851 26055 layer_factory.hpp:77] Creating layer fc6
I0403 12:18:18.775882 26055 net.cpp:91] Creating Layer fc6
I0403 12:18:18.775904 26055 net.cpp:425] fc6 <- pool5
I0403 12:18:18.775930 26055 net.cpp:399] fc6 -> fc6
I0403 12:18:20.407030 26055 net.cpp:141] Setting up fc6
I0403 12:18:20.407097 26055 net.cpp:148] Top shape: 100 4096 (409600)
I0403 12:18:20.407114 26055 net.cpp:156] Memory required for data: 823334000
I0403 12:18:20.407136 26055 layer_factory.hpp:77] Creating layer relu6
I0403 12:18:20.407158 26055 net.cpp:91] Creating Layer relu6
I0403 12:18:20.407176 26055 net.cpp:425] relu6 <- fc6
I0403 12:18:20.407198 26055 net.cpp:386] relu6 -> fc6 (in-place)
I0403 12:18:20.407425 26055 net.cpp:141] Setting up relu6
I0403 12:18:20.407451 26055 net.cpp:148] Top shape: 100 4096 (409600)
I0403 12:18:20.407466 26055 net.cpp:156] Memory required for data: 824972400
I0403 12:18:20.407482 26055 layer_factory.hpp:77] Creating layer drop6
I0403 12:18:20.407503 26055 net.cpp:91] Creating Layer drop6
I0403 12:18:20.407521 26055 net.cpp:425] drop6 <- fc6
I0403 12:18:20.407541 26055 net.cpp:386] drop6 -> fc6 (in-place)
I0403 12:18:20.407594 26055 net.cpp:141] Setting up drop6
I0403 12:18:20.407618 26055 net.cpp:148] Top shape: 100 4096 (409600)
I0403 12:18:20.407632 26055 net.cpp:156] Memory required for data: 826610800
I0403 12:18:20.407647 26055 layer_factory.hpp:77] Creating layer fc7
I0403 12:18:20.407667 26055 net.cpp:91] Creating Layer fc7
I0403 12:18:20.407682 26055 net.cpp:425] fc7 <- fc6
I0403 12:18:20.407703 26055 net.cpp:399] fc7 -> fc7
I0403 12:18:21.082654 26055 net.cpp:141] Setting up fc7
I0403 12:18:21.082710 26055 net.cpp:148] Top shape: 100 4096 (409600)
I0403 12:18:21.082728 26055 net.cpp:156] Memory required for data: 828249200
I0403 12:18:21.082761 26055 layer_factory.hpp:77] Creating layer relu7
I0403 12:18:21.082783 26055 net.cpp:91] Creating Layer relu7
I0403 12:18:21.082803 26055 net.cpp:425] relu7 <- fc7
I0403 12:18:21.082821 26055 net.cpp:386] relu7 -> fc7 (in-place)
I0403 12:18:21.083181 26055 net.cpp:141] Setting up relu7
I0403 12:18:21.083222 26055 net.cpp:148] Top shape: 100 4096 (409600)
I0403 12:18:21.083273 26055 net.cpp:156] Memory required for data: 829887600
I0403 12:18:21.083294 26055 layer_factory.hpp:77] Creating layer drop7
I0403 12:18:21.083318 26055 net.cpp:91] Creating Layer drop7
I0403 12:18:21.083336 26055 net.cpp:425] drop7 <- fc7
I0403 12:18:21.083358 26055 net.cpp:386] drop7 -> fc7 (in-place)
I0403 12:18:21.083407 26055 net.cpp:141] Setting up drop7
I0403 12:18:21.083432 26055 net.cpp:148] Top shape: 100 4096 (409600)
I0403 12:18:21.083448 26055 net.cpp:156] Memory required for data: 831526000
I0403 12:18:21.083464 26055 layer_factory.hpp:77] Creating layer fc8_plantvillage
I0403 12:18:21.083485 26055 net.cpp:91] Creating Layer fc8_plantvillage
I0403 12:18:21.083503 26055 net.cpp:425] fc8_plantvillage <- fc7
I0403 12:18:21.083544 26055 net.cpp:399] fc8_plantvillage -> fc8_plantvillage
I0403 12:18:21.090831 26055 net.cpp:141] Setting up fc8_plantvillage
I0403 12:18:21.090867 26055 net.cpp:148] Top shape: 100 38 (3800)
I0403 12:18:21.090884 26055 net.cpp:156] Memory required for data: 831541200
I0403 12:18:21.090904 26055 layer_factory.hpp:77] Creating layer fc8_plantvillage_fc8_plantvillage_0_split
I0403 12:18:21.090924 26055 net.cpp:91] Creating Layer fc8_plantvillage_fc8_plantvillage_0_split
I0403 12:18:21.090942 26055 net.cpp:425] fc8_plantvillage_fc8_plantvillage_0_split <- fc8_plantvillage
I0403 12:18:21.090961 26055 net.cpp:399] fc8_plantvillage_fc8_plantvillage_0_split -> fc8_plantvillage_fc8_plantvillage_0_split_0
I0403 12:18:21.090983 26055 net.cpp:399] fc8_plantvillage_fc8_plantvillage_0_split -> fc8_plantvillage_fc8_plantvillage_0_split_1
I0403 12:18:21.091004 26055 net.cpp:399] fc8_plantvillage_fc8_plantvillage_0_split -> fc8_plantvillage_fc8_plantvillage_0_split_2
I0403 12:18:21.091083 26055 net.cpp:141] Setting up fc8_plantvillage_fc8_plantvillage_0_split
I0403 12:18:21.091109 26055 net.cpp:148] Top shape: 100 38 (3800)
I0403 12:18:21.091125 26055 net.cpp:148] Top shape: 100 38 (3800)
I0403 12:18:21.091143 26055 net.cpp:148] Top shape: 100 38 (3800)
I0403 12:18:21.091161 26055 net.cpp:156] Memory required for data: 831586800
I0403 12:18:21.091190 26055 layer_factory.hpp:77] Creating layer prob
I0403 12:18:21.091215 26055 net.cpp:91] Creating Layer prob
I0403 12:18:21.091233 26055 net.cpp:425] prob <- fc8_plantvillage_fc8_plantvillage_0_split_0
I0403 12:18:21.091259 26055 net.cpp:399] prob -> prob
I0403 12:18:21.091521 26055 net.cpp:141] Setting up prob
I0403 12:18:21.091559 26055 net.cpp:148] Top shape: 100 38 (3800)
I0403 12:18:21.091578 26055 net.cpp:156] Memory required for data: 831602000
I0403 12:18:21.091594 26055 layer_factory.hpp:77] Creating layer hdf5out
I0403 12:18:21.091619 26055 net.cpp:91] Creating Layer hdf5out
I0403 12:18:21.091639 26055 net.cpp:425] hdf5out <- prob
I0403 12:18:21.091656 26055 net.cpp:425] hdf5out <- label_data_1_split_0
I0403 12:18:21.132181 26055 net.cpp:141] Setting up hdf5out
…
