…
I0403 12:24:15.290815 26202 net.cpp:313] The NetState phase (1) differed from the phase (0) specified by a rule in layer data
I0403 12:24:15.291111 26202 net.cpp:49] Initializing net from parameters: 
state {
  phase: TEST
}
layer {
  name: "data"
  type: "Data"
  top: "data"
  top: "label"
  include {
    phase: TEST
  }
  transform_param {
    crop_size: 227
    mean_file: "/home/mohanty/data/final_dataset/lmdb/color-20-80/mean.binaryproto"
  }
  data_param {
    source: "/home/mohanty/data/final_dataset/lmdb/color-20-80/test_db"
    batch_size: 100
    backend: LMDB
  }
}
layer {
  name: "conv1"
  type: "Convolution"
  bottom: "data"
  top: "conv1"
  param {
    lr_mult: 1
    decay_mult: 1
  }
  param {
    lr_mult: 2
    decay_mult: 0
  }
  convolution_param {
    num_output: 96
    kernel_size: 11
    stride: 4
    weight_filler {
      type: "gaussian"
      std: 0.01
    }
    bias_filler {
      type: "constant"
      value: 0
    }
  }
}
layer {
  name: "relu1"
  type: "ReLU"
  bottom: "conv1"
  top: "conv1"
}
layer {
  name: "norm1"
  type: "LRN"
  bottom: "conv1"
  top: "norm1"
  lrn_param {
    local_size: 5
    alpha: 0.0001
    beta: 0.75
  }
}
layer {
  name: "pool1"
  type: "Pooling"
  bottom: "norm1"
  top: "pool1"
  pooling_param {
    pool: MAX
    kernel_size: 3
    stride: 2
  }
}
layer {
  name: "conv2"
  type: "Convolution"
  bottom: "pool1"
  top: "conv2"
  param {
    lr_mult: 1
    decay_mult: 1
  }
  param {
    lr_mult: 2
    decay_mult: 0
  }
  convolution_param {
    num_output: 256
    pad: 2
    kernel_size: 5
    group: 2
    weight_filler {
      type: "gaussian"
      std: 0.01
    }
    bias_filler {
      type: "constant"
      value: 0.1
    }
  }
}
layer {
  name: "relu2"
  type: "ReLU"
  bottom: "conv2"
  top: "conv2"
}
layer {
  name: "norm2"
  type: "LRN"
  bottom: "conv2"
  top: "norm2"
  lrn_param {
    local_size: 5
    alpha: 0.0001
    beta: 0.75
  }
}
layer {
  name: "pool2"
  type: "Pooling"
  bottom: "norm2"
  top: "pool2"
  pooling_param {
    pool: MAX
    kernel_size: 3
    stride: 2
  }
}
layer {
  name: "conv3"
  type: "Convolution"
  bottom: "pool2"
  top: "conv3"
  param {
    lr_mult: 1
    decay_mult: 1
  }
  param {
    lr_mult: 2
    decay_mult: 0
  }
  convolution_param {
    num_output: 384
    pad: 1
    kernel_size: 3
    weight_filler {
      type: "gaussian"
      std: 0.01
    }
    bias_filler {
      type: "constant"
      value: 0
    }
  }
}
layer {
  name: "relu3"
  type: "ReLU"
  bottom: "conv3"
  top: "conv3"
}
layer {
  name: "conv4"
  type: "Convolution"
  bottom: "conv3"
  top: "conv4"
  param {
    lr_mult: 1
    decay_mult: 1
  }
  param {
    lr_mult: 2
    decay_mult: 0
  }
  convolution_param {
    num_output: 384
    pad: 1
    kernel_size: 3
    group: 2
    weight_filler {
      type: "gaussian"
      std: 0.01
    }
    bias_filler {
      type: "constant"
      value: 0.1
    }
  }
}
layer {
  name: "relu4"
  type: "ReLU"
  bottom: "conv4"
  top: "conv4"
}
layer {
  name: "conv5"
  type: "Convolution"
  bottom: "conv4"
  top: "conv5"
  param {
    lr_mult: 1
    decay_mult: 1
  }
  param {
    lr_mult: 2
    decay_mult: 0
  }
  convolution_param {
    num_output: 256
    pad: 1
    kernel_size: 3
    group: 2
    weight_filler {
      type: "gaussian"
      std: 0.01
    }
    bias_filler {
      type: "constant"
      value: 0.1
    }
  }
}
layer {
  name: "relu5"
  type: "ReLU"
  bottom: "conv5"
  top: "conv5"
}
layer {
  name: "pool5"
  type: "Pooling"
  bottom: "conv5"
  top: "pool5"
  pooling_param {
    pool: MAX
    kernel_size: 3
    stride: 2
  }
}
layer {
  name: "fc6"
  type: "InnerProduct"
  bottom: "pool5"
  top: "fc6"
  param {
    lr_mult: 1
    decay_mult: 1
  }
  param {
    lr_mult: 2
    decay_mult: 0
  }
  inner_product_param {
    num_output: 4096
    weight_filler {
      type: "gaussian"
      std: 0.005
    }
    bias_filler {
      type: "constant"
      value: 0.1
    }
  }
}
layer {
  name: "relu6"
  type: "ReLU"
  bottom: "fc6"
  top: "fc6"
}
layer {
  name: "drop6"
  type: "Dropout"
  bottom: "fc6"
  top: "fc6"
  dropout_param {
    dropout_ratio: 0.5
  }
}
layer {
  name: "fc7"
  type: "InnerProduct"
  bottom: "fc6"
  top: "fc7"
  param {
    lr_mult: 1
    decay_mult: 1
  }
  param {
    lr_mult: 2
    decay_mult: 0
  }
  inner_product_param {
    num_output: 4096
    weight_filler {
      type: "gaussian"
      std: 0.005
    }
    bias_filler {
      type: "constant"
      value: 0.1
    }
  }
}
layer {
  name: "relu7"
  type: "ReLU"
  bottom: "fc7"
  top: "fc7"
}
layer {
  name: "drop7"
  type: "Dropout"
  bottom: "fc7"
  top: "fc7"
  dropout_param {
    dropout_ratio: 0.5
  }
}
layer {
  name: "fc8_plantvillage"
  type: "InnerProduct"
  bottom: "fc7"
  top: "fc8_plantvillage"
  param {
    lr_mult: 1
    decay_mult: 1
  }
  param {
    lr_mult: 2
    decay_mult: 0
  }
  inner_product_param {
    num_output: 38
    weight_filler {
      type: "gaussian"
      std: 0.01
    }
    bias_filler {
      type: "constant"
      value: 0
    }
  }
}
layer {
  name: "prob"
  type: "Softmax"
  bottom: "fc8_plantvillage"
  top: "prob"
  include {
    phase: TEST
  }
}
layer {
  name: "hdf5out"
  type: "HDF5Output"
  bottom: "prob"
  bottom: "label"
  include {
    phase: TEST
  }
  hdf5_output_param {
    file_name: "hdf5_dumps/iter_540.h5"
  }
}
layer {
  name: "loss"
  type: "SoftmaxWithLoss"
  bottom: "fc8_plantvillage"
  bottom: "label"
  top: "loss"
}
layer {
  name: "accuracy"
  type: "Accuracy"
  bottom: "fc8_plantvillage"
  bottom: "label"
  top: "accuracy"
  include {
    phase: TEST
  }
}
I0403 12:24:15.291792 26202 layer_factory.hpp:77] Creating layer data
I0403 12:24:15.292438 26202 net.cpp:91] Creating Layer data
I0403 12:24:15.292469 26202 net.cpp:399] data -> data
I0403 12:24:15.292517 26202 net.cpp:399] data -> label
I0403 12:24:15.292557 26202 data_transformer.cpp:25] Loading mean file from: /home/mohanty/data/final_dataset/lmdb/color-20-80/mean.binaryproto
I0403 12:24:15.306902 26206 db_lmdb.cpp:38] Opened lmdb /home/mohanty/data/final_dataset/lmdb/color-20-80/test_db
I0403 12:24:15.309306 26202 data_layer.cpp:41] output data size: 100,3,227,227
I0403 12:24:15.442442 26202 net.cpp:141] Setting up data
I0403 12:24:15.442507 26202 net.cpp:148] Top shape: 100 3 227 227 (15458700)
I0403 12:24:15.442531 26202 net.cpp:148] Top shape: 100 (100)
I0403 12:24:15.442549 26202 net.cpp:156] Memory required for data: 61835200
I0403 12:24:15.442579 26202 layer_factory.hpp:77] Creating layer label_data_1_split
I0403 12:24:15.442605 26202 net.cpp:91] Creating Layer label_data_1_split
I0403 12:24:15.442636 26202 net.cpp:425] label_data_1_split <- label
I0403 12:24:15.442668 26202 net.cpp:399] label_data_1_split -> label_data_1_split_0
I0403 12:24:15.442698 26202 net.cpp:399] label_data_1_split -> label_data_1_split_1
I0403 12:24:15.442719 26202 net.cpp:399] label_data_1_split -> label_data_1_split_2
I0403 12:24:15.442785 26202 net.cpp:141] Setting up label_data_1_split
I0403 12:24:15.442811 26202 net.cpp:148] Top shape: 100 (100)
I0403 12:24:15.442828 26202 net.cpp:148] Top shape: 100 (100)
I0403 12:24:15.442847 26202 net.cpp:148] Top shape: 100 (100)
I0403 12:24:15.442862 26202 net.cpp:156] Memory required for data: 61836400
I0403 12:24:15.442878 26202 layer_factory.hpp:77] Creating layer conv1
I0403 12:24:15.442910 26202 net.cpp:91] Creating Layer conv1
I0403 12:24:15.442930 26202 net.cpp:425] conv1 <- data
I0403 12:24:15.442950 26202 net.cpp:399] conv1 -> conv1
I0403 12:24:15.609108 26202 net.cpp:141] Setting up conv1
I0403 12:24:15.609158 26202 net.cpp:148] Top shape: 100 96 55 55 (29040000)
I0403 12:24:15.609175 26202 net.cpp:156] Memory required for data: 177996400
I0403 12:24:15.609207 26202 layer_factory.hpp:77] Creating layer relu1
I0403 12:24:15.609237 26202 net.cpp:91] Creating Layer relu1
I0403 12:24:15.609256 26202 net.cpp:425] relu1 <- conv1
I0403 12:24:15.609275 26202 net.cpp:386] relu1 -> conv1 (in-place)
I0403 12:24:15.609565 26202 net.cpp:141] Setting up relu1
I0403 12:24:15.609604 26202 net.cpp:148] Top shape: 100 96 55 55 (29040000)
I0403 12:24:15.609622 26202 net.cpp:156] Memory required for data: 294156400
I0403 12:24:15.609670 26202 layer_factory.hpp:77] Creating layer norm1
I0403 12:24:15.609700 26202 net.cpp:91] Creating Layer norm1
I0403 12:24:15.609720 26202 net.cpp:425] norm1 <- conv1
I0403 12:24:15.609740 26202 net.cpp:399] norm1 -> norm1
I0403 12:24:15.610044 26202 net.cpp:141] Setting up norm1
I0403 12:24:15.610071 26202 net.cpp:148] Top shape: 100 96 55 55 (29040000)
I0403 12:24:15.610087 26202 net.cpp:156] Memory required for data: 410316400
I0403 12:24:15.610103 26202 layer_factory.hpp:77] Creating layer pool1
I0403 12:24:15.610127 26202 net.cpp:91] Creating Layer pool1
I0403 12:24:15.610146 26202 net.cpp:425] pool1 <- norm1
I0403 12:24:15.610177 26202 net.cpp:399] pool1 -> pool1
I0403 12:24:15.610246 26202 net.cpp:141] Setting up pool1
I0403 12:24:15.610272 26202 net.cpp:148] Top shape: 100 96 27 27 (6998400)
I0403 12:24:15.610302 26202 net.cpp:156] Memory required for data: 438310000
I0403 12:24:15.610321 26202 layer_factory.hpp:77] Creating layer conv2
I0403 12:24:15.610347 26202 net.cpp:91] Creating Layer conv2
I0403 12:24:15.610364 26202 net.cpp:425] conv2 <- pool1
I0403 12:24:15.610384 26202 net.cpp:399] conv2 -> conv2
I0403 12:24:15.625391 26202 net.cpp:141] Setting up conv2
I0403 12:24:15.625440 26202 net.cpp:148] Top shape: 100 256 27 27 (18662400)
I0403 12:24:15.625458 26202 net.cpp:156] Memory required for data: 512959600
I0403 12:24:15.625486 26202 layer_factory.hpp:77] Creating layer relu2
I0403 12:24:15.625509 26202 net.cpp:91] Creating Layer relu2
I0403 12:24:15.625529 26202 net.cpp:425] relu2 <- conv2
I0403 12:24:15.625547 26202 net.cpp:386] relu2 -> conv2 (in-place)
I0403 12:24:15.625838 26202 net.cpp:141] Setting up relu2
I0403 12:24:15.625869 26202 net.cpp:148] Top shape: 100 256 27 27 (18662400)
I0403 12:24:15.625885 26202 net.cpp:156] Memory required for data: 587609200
I0403 12:24:15.625902 26202 layer_factory.hpp:77] Creating layer norm2
I0403 12:24:15.625924 26202 net.cpp:91] Creating Layer norm2
I0403 12:24:15.625943 26202 net.cpp:425] norm2 <- conv2
I0403 12:24:15.625964 26202 net.cpp:399] norm2 -> norm2
I0403 12:24:15.626163 26202 net.cpp:141] Setting up norm2
I0403 12:24:15.626189 26202 net.cpp:148] Top shape: 100 256 27 27 (18662400)
I0403 12:24:15.626204 26202 net.cpp:156] Memory required for data: 662258800
I0403 12:24:15.626233 26202 layer_factory.hpp:77] Creating layer pool2
I0403 12:24:15.626255 26202 net.cpp:91] Creating Layer pool2
I0403 12:24:15.626276 26202 net.cpp:425] pool2 <- norm2
I0403 12:24:15.626301 26202 net.cpp:399] pool2 -> pool2
I0403 12:24:15.626356 26202 net.cpp:141] Setting up pool2
I0403 12:24:15.626382 26202 net.cpp:148] Top shape: 100 256 13 13 (4326400)
I0403 12:24:15.626397 26202 net.cpp:156] Memory required for data: 679564400
I0403 12:24:15.626415 26202 layer_factory.hpp:77] Creating layer conv3
I0403 12:24:15.626438 26202 net.cpp:91] Creating Layer conv3
I0403 12:24:15.626456 26202 net.cpp:425] conv3 <- pool2
I0403 12:24:15.626478 26202 net.cpp:399] conv3 -> conv3
I0403 12:24:15.664893 26202 net.cpp:141] Setting up conv3
I0403 12:24:15.664968 26202 net.cpp:148] Top shape: 100 384 13 13 (6489600)
I0403 12:24:15.664986 26202 net.cpp:156] Memory required for data: 705522800
I0403 12:24:15.665014 26202 layer_factory.hpp:77] Creating layer relu3
I0403 12:24:15.665040 26202 net.cpp:91] Creating Layer relu3
I0403 12:24:15.665060 26202 net.cpp:425] relu3 <- conv3
I0403 12:24:15.665081 26202 net.cpp:386] relu3 -> conv3 (in-place)
I0403 12:24:15.665383 26202 net.cpp:141] Setting up relu3
I0403 12:24:15.665412 26202 net.cpp:148] Top shape: 100 384 13 13 (6489600)
I0403 12:24:15.665428 26202 net.cpp:156] Memory required for data: 731481200
I0403 12:24:15.665457 26202 layer_factory.hpp:77] Creating layer conv4
I0403 12:24:15.665484 26202 net.cpp:91] Creating Layer conv4
I0403 12:24:15.665503 26202 net.cpp:425] conv4 <- conv3
I0403 12:24:15.665524 26202 net.cpp:399] conv4 -> conv4
I0403 12:24:15.695269 26202 net.cpp:141] Setting up conv4
I0403 12:24:15.695330 26202 net.cpp:148] Top shape: 100 384 13 13 (6489600)
I0403 12:24:15.695381 26202 net.cpp:156] Memory required for data: 757439600
I0403 12:24:15.695405 26202 layer_factory.hpp:77] Creating layer relu4
I0403 12:24:15.695427 26202 net.cpp:91] Creating Layer relu4
I0403 12:24:15.695446 26202 net.cpp:425] relu4 <- conv4
I0403 12:24:15.695468 26202 net.cpp:386] relu4 -> conv4 (in-place)
I0403 12:24:15.695763 26202 net.cpp:141] Setting up relu4
I0403 12:24:15.695791 26202 net.cpp:148] Top shape: 100 384 13 13 (6489600)
I0403 12:24:15.695808 26202 net.cpp:156] Memory required for data: 783398000
I0403 12:24:15.695824 26202 layer_factory.hpp:77] Creating layer conv5
I0403 12:24:15.695854 26202 net.cpp:91] Creating Layer conv5
I0403 12:24:15.695874 26202 net.cpp:425] conv5 <- conv4
I0403 12:24:15.695897 26202 net.cpp:399] conv5 -> conv5
I0403 12:24:15.716652 26202 net.cpp:141] Setting up conv5
I0403 12:24:15.716704 26202 net.cpp:148] Top shape: 100 256 13 13 (4326400)
I0403 12:24:15.716723 26202 net.cpp:156] Memory required for data: 800703600
I0403 12:24:15.716753 26202 layer_factory.hpp:77] Creating layer relu5
I0403 12:24:15.716776 26202 net.cpp:91] Creating Layer relu5
I0403 12:24:15.716795 26202 net.cpp:425] relu5 <- conv5
I0403 12:24:15.716814 26202 net.cpp:386] relu5 -> conv5 (in-place)
I0403 12:24:15.717097 26202 net.cpp:141] Setting up relu5
I0403 12:24:15.717126 26202 net.cpp:148] Top shape: 100 256 13 13 (4326400)
I0403 12:24:15.717142 26202 net.cpp:156] Memory required for data: 818009200
I0403 12:24:15.717160 26202 layer_factory.hpp:77] Creating layer pool5
I0403 12:24:15.717186 26202 net.cpp:91] Creating Layer pool5
I0403 12:24:15.717206 26202 net.cpp:425] pool5 <- conv5
I0403 12:24:15.717223 26202 net.cpp:399] pool5 -> pool5
I0403 12:24:15.717293 26202 net.cpp:141] Setting up pool5
I0403 12:24:15.717319 26202 net.cpp:148] Top shape: 100 256 6 6 (921600)
I0403 12:24:15.717335 26202 net.cpp:156] Memory required for data: 821695600
I0403 12:24:15.717351 26202 layer_factory.hpp:77] Creating layer fc6
I0403 12:24:15.717384 26202 net.cpp:91] Creating Layer fc6
I0403 12:24:15.717406 26202 net.cpp:425] fc6 <- pool5
I0403 12:24:15.717427 26202 net.cpp:399] fc6 -> fc6
I0403 12:24:17.317198 26202 net.cpp:141] Setting up fc6
I0403 12:24:17.317266 26202 net.cpp:148] Top shape: 100 4096 (409600)
I0403 12:24:17.317289 26202 net.cpp:156] Memory required for data: 823334000
I0403 12:24:17.317314 26202 layer_factory.hpp:77] Creating layer relu6
I0403 12:24:17.317337 26202 net.cpp:91] Creating Layer relu6
I0403 12:24:17.317356 26202 net.cpp:425] relu6 <- fc6
I0403 12:24:17.317379 26202 net.cpp:386] relu6 -> fc6 (in-place)
I0403 12:24:17.317607 26202 net.cpp:141] Setting up relu6
I0403 12:24:17.317633 26202 net.cpp:148] Top shape: 100 4096 (409600)
I0403 12:24:17.317649 26202 net.cpp:156] Memory required for data: 824972400
I0403 12:24:17.317665 26202 layer_factory.hpp:77] Creating layer drop6
I0403 12:24:17.317687 26202 net.cpp:91] Creating Layer drop6
I0403 12:24:17.317705 26202 net.cpp:425] drop6 <- fc6
I0403 12:24:17.317725 26202 net.cpp:386] drop6 -> fc6 (in-place)
I0403 12:24:17.317778 26202 net.cpp:141] Setting up drop6
I0403 12:24:17.317803 26202 net.cpp:148] Top shape: 100 4096 (409600)
I0403 12:24:17.317819 26202 net.cpp:156] Memory required for data: 826610800
I0403 12:24:17.317836 26202 layer_factory.hpp:77] Creating layer fc7
I0403 12:24:17.317857 26202 net.cpp:91] Creating Layer fc7
I0403 12:24:17.317873 26202 net.cpp:425] fc7 <- fc6
I0403 12:24:17.317894 26202 net.cpp:399] fc7 -> fc7
I0403 12:24:18.022655 26202 net.cpp:141] Setting up fc7
I0403 12:24:18.022704 26202 net.cpp:148] Top shape: 100 4096 (409600)
I0403 12:24:18.022722 26202 net.cpp:156] Memory required for data: 828249200
I0403 12:24:18.022744 26202 layer_factory.hpp:77] Creating layer relu7
I0403 12:24:18.022771 26202 net.cpp:91] Creating Layer relu7
I0403 12:24:18.022790 26202 net.cpp:425] relu7 <- fc7
I0403 12:24:18.022810 26202 net.cpp:386] relu7 -> fc7 (in-place)
I0403 12:24:18.023211 26202 net.cpp:141] Setting up relu7
I0403 12:24:18.023238 26202 net.cpp:148] Top shape: 100 4096 (409600)
I0403 12:24:18.023300 26202 net.cpp:156] Memory required for data: 829887600
I0403 12:24:18.023321 26202 layer_factory.hpp:77] Creating layer drop7
I0403 12:24:18.023342 26202 net.cpp:91] Creating Layer drop7
I0403 12:24:18.023358 26202 net.cpp:425] drop7 <- fc7
I0403 12:24:18.023380 26202 net.cpp:386] drop7 -> fc7 (in-place)
I0403 12:24:18.023427 26202 net.cpp:141] Setting up drop7
I0403 12:24:18.023452 26202 net.cpp:148] Top shape: 100 4096 (409600)
I0403 12:24:18.023466 26202 net.cpp:156] Memory required for data: 831526000
I0403 12:24:18.023481 26202 layer_factory.hpp:77] Creating layer fc8_plantvillage
I0403 12:24:18.023502 26202 net.cpp:91] Creating Layer fc8_plantvillage
I0403 12:24:18.023519 26202 net.cpp:425] fc8_plantvillage <- fc7
I0403 12:24:18.023541 26202 net.cpp:399] fc8_plantvillage -> fc8_plantvillage
I0403 12:24:18.030261 26202 net.cpp:141] Setting up fc8_plantvillage
I0403 12:24:18.030297 26202 net.cpp:148] Top shape: 100 38 (3800)
I0403 12:24:18.030315 26202 net.cpp:156] Memory required for data: 831541200
I0403 12:24:18.030334 26202 layer_factory.hpp:77] Creating layer fc8_plantvillage_fc8_plantvillage_0_split
I0403 12:24:18.030352 26202 net.cpp:91] Creating Layer fc8_plantvillage_fc8_plantvillage_0_split
I0403 12:24:18.030369 26202 net.cpp:425] fc8_plantvillage_fc8_plantvillage_0_split <- fc8_plantvillage
I0403 12:24:18.030387 26202 net.cpp:399] fc8_plantvillage_fc8_plantvillage_0_split -> fc8_plantvillage_fc8_plantvillage_0_split_0
I0403 12:24:18.030408 26202 net.cpp:399] fc8_plantvillage_fc8_plantvillage_0_split -> fc8_plantvillage_fc8_plantvillage_0_split_1
I0403 12:24:18.030428 26202 net.cpp:399] fc8_plantvillage_fc8_plantvillage_0_split -> fc8_plantvillage_fc8_plantvillage_0_split_2
I0403 12:24:18.030504 26202 net.cpp:141] Setting up fc8_plantvillage_fc8_plantvillage_0_split
I0403 12:24:18.030529 26202 net.cpp:148] Top shape: 100 38 (3800)
I0403 12:24:18.030544 26202 net.cpp:148] Top shape: 100 38 (3800)
I0403 12:24:18.030560 26202 net.cpp:148] Top shape: 100 38 (3800)
I0403 12:24:18.030575 26202 net.cpp:156] Memory required for data: 831586800
I0403 12:24:18.030591 26202 layer_factory.hpp:77] Creating layer prob
I0403 12:24:18.030608 26202 net.cpp:91] Creating Layer prob
I0403 12:24:18.030624 26202 net.cpp:425] prob <- fc8_plantvillage_fc8_plantvillage_0_split_0
I0403 12:24:18.030642 26202 net.cpp:399] prob -> prob
I0403 12:24:18.030865 26202 net.cpp:141] Setting up prob
I0403 12:24:18.030891 26202 net.cpp:148] Top shape: 100 38 (3800)
I0403 12:24:18.030907 26202 net.cpp:156] Memory required for data: 831602000
I0403 12:24:18.030923 26202 layer_factory.hpp:77] Creating layer hdf5out
I0403 12:24:18.030946 26202 net.cpp:91] Creating Layer hdf5out
I0403 12:24:18.030964 26202 net.cpp:425] hdf5out <- prob
I0403 12:24:18.030982 26202 net.cpp:425] hdf5out <- label_data_1_split_0
I0403 12:24:18.047402 26202 net.cpp:141] Setting up hdf5out
…
