…
I0403 12:55:24.388351 27039 net.cpp:313] The NetState phase (1) differed from the phase (0) specified by a rule in layer data
I0403 12:55:24.388669 27039 net.cpp:49] Initializing net from parameters: 
state {
  phase: TEST
}
layer {
  name: "data"
  type: "Data"
  top: "data"
  top: "label"
  include {
    phase: TEST
  }
  transform_param {
    crop_size: 227
    mean_file: "/home/mohanty/data/final_dataset/lmdb/color-20-80/mean.binaryproto"
  }
  data_param {
    source: "/home/mohanty/data/final_dataset/lmdb/color-20-80/test_db"
    batch_size: 100
    backend: LMDB
  }
}
layer {
  name: "conv1"
  type: "Convolution"
  bottom: "data"
  top: "conv1"
  param {
    lr_mult: 1
    decay_mult: 1
  }
  param {
    lr_mult: 2
    decay_mult: 0
  }
  convolution_param {
    num_output: 96
    kernel_size: 11
    stride: 4
    weight_filler {
      type: "gaussian"
      std: 0.01
    }
    bias_filler {
      type: "constant"
      value: 0
    }
  }
}
layer {
  name: "relu1"
  type: "ReLU"
  bottom: "conv1"
  top: "conv1"
}
layer {
  name: "norm1"
  type: "LRN"
  bottom: "conv1"
  top: "norm1"
  lrn_param {
    local_size: 5
    alpha: 0.0001
    beta: 0.75
  }
}
layer {
  name: "pool1"
  type: "Pooling"
  bottom: "norm1"
  top: "pool1"
  pooling_param {
    pool: MAX
    kernel_size: 3
    stride: 2
  }
}
layer {
  name: "conv2"
  type: "Convolution"
  bottom: "pool1"
  top: "conv2"
  param {
    lr_mult: 1
    decay_mult: 1
  }
  param {
    lr_mult: 2
    decay_mult: 0
  }
  convolution_param {
    num_output: 256
    pad: 2
    kernel_size: 5
    group: 2
    weight_filler {
      type: "gaussian"
      std: 0.01
    }
    bias_filler {
      type: "constant"
      value: 0.1
    }
  }
}
layer {
  name: "relu2"
  type: "ReLU"
  bottom: "conv2"
  top: "conv2"
}
layer {
  name: "norm2"
  type: "LRN"
  bottom: "conv2"
  top: "norm2"
  lrn_param {
    local_size: 5
    alpha: 0.0001
    beta: 0.75
  }
}
layer {
  name: "pool2"
  type: "Pooling"
  bottom: "norm2"
  top: "pool2"
  pooling_param {
    pool: MAX
    kernel_size: 3
    stride: 2
  }
}
layer {
  name: "conv3"
  type: "Convolution"
  bottom: "pool2"
  top: "conv3"
  param {
    lr_mult: 1
    decay_mult: 1
  }
  param {
    lr_mult: 2
    decay_mult: 0
  }
  convolution_param {
    num_output: 384
    pad: 1
    kernel_size: 3
    weight_filler {
      type: "gaussian"
      std: 0.01
    }
    bias_filler {
      type: "constant"
      value: 0
    }
  }
}
layer {
  name: "relu3"
  type: "ReLU"
  bottom: "conv3"
  top: "conv3"
}
layer {
  name: "conv4"
  type: "Convolution"
  bottom: "conv3"
  top: "conv4"
  param {
    lr_mult: 1
    decay_mult: 1
  }
  param {
    lr_mult: 2
    decay_mult: 0
  }
  convolution_param {
    num_output: 384
    pad: 1
    kernel_size: 3
    group: 2
    weight_filler {
      type: "gaussian"
      std: 0.01
    }
    bias_filler {
      type: "constant"
      value: 0.1
    }
  }
}
layer {
  name: "relu4"
  type: "ReLU"
  bottom: "conv4"
  top: "conv4"
}
layer {
  name: "conv5"
  type: "Convolution"
  bottom: "conv4"
  top: "conv5"
  param {
    lr_mult: 1
    decay_mult: 1
  }
  param {
    lr_mult: 2
    decay_mult: 0
  }
  convolution_param {
    num_output: 256
    pad: 1
    kernel_size: 3
    group: 2
    weight_filler {
      type: "gaussian"
      std: 0.01
    }
    bias_filler {
      type: "constant"
      value: 0.1
    }
  }
}
layer {
  name: "relu5"
  type: "ReLU"
  bottom: "conv5"
  top: "conv5"
}
layer {
  name: "pool5"
  type: "Pooling"
  bottom: "conv5"
  top: "pool5"
  pooling_param {
    pool: MAX
    kernel_size: 3
    stride: 2
  }
}
layer {
  name: "fc6"
  type: "InnerProduct"
  bottom: "pool5"
  top: "fc6"
  param {
    lr_mult: 1
    decay_mult: 1
  }
  param {
    lr_mult: 2
    decay_mult: 0
  }
  inner_product_param {
    num_output: 4096
    weight_filler {
      type: "gaussian"
      std: 0.005
    }
    bias_filler {
      type: "constant"
      value: 0.1
    }
  }
}
layer {
  name: "relu6"
  type: "ReLU"
  bottom: "fc6"
  top: "fc6"
}
layer {
  name: "drop6"
  type: "Dropout"
  bottom: "fc6"
  top: "fc6"
  dropout_param {
    dropout_ratio: 0.5
  }
}
layer {
  name: "fc7"
  type: "InnerProduct"
  bottom: "fc6"
  top: "fc7"
  param {
    lr_mult: 1
    decay_mult: 1
  }
  param {
    lr_mult: 2
    decay_mult: 0
  }
  inner_product_param {
    num_output: 4096
    weight_filler {
      type: "gaussian"
      std: 0.005
    }
    bias_filler {
      type: "constant"
      value: 0.1
    }
  }
}
layer {
  name: "relu7"
  type: "ReLU"
  bottom: "fc7"
  top: "fc7"
}
layer {
  name: "drop7"
  type: "Dropout"
  bottom: "fc7"
  top: "fc7"
  dropout_param {
    dropout_ratio: 0.5
  }
}
layer {
  name: "fc8_plantvillage"
  type: "InnerProduct"
  bottom: "fc7"
  top: "fc8_plantvillage"
  param {
    lr_mult: 1
    decay_mult: 1
  }
  param {
    lr_mult: 2
    decay_mult: 0
  }
  inner_product_param {
    num_output: 38
    weight_filler {
      type: "gaussian"
      std: 0.01
    }
    bias_filler {
      type: "constant"
      value: 0
    }
  }
}
layer {
  name: "prob"
  type: "Softmax"
  bottom: "fc8_plantvillage"
  top: "prob"
  include {
    phase: TEST
  }
}
layer {
  name: "hdf5out"
  type: "HDF5Output"
  bottom: "prob"
  bottom: "label"
  include {
    phase: TEST
  }
  hdf5_output_param {
    file_name: "hdf5_dumps/iter_2808.h5"
  }
}
layer {
  name: "loss"
  type: "SoftmaxWithLoss"
  bottom: "fc8_plantvillage"
  bottom: "label"
  top: "loss"
}
layer {
  name: "accuracy"
  type: "Accuracy"
  bottom: "fc8_plantvillage"
  bottom: "label"
  top: "accuracy"
  include {
    phase: TEST
  }
}
I0403 12:55:24.389276 27039 layer_factory.hpp:77] Creating layer data
I0403 12:55:24.389937 27039 net.cpp:91] Creating Layer data
I0403 12:55:24.389968 27039 net.cpp:399] data -> data
I0403 12:55:24.390022 27039 net.cpp:399] data -> label
I0403 12:55:24.390061 27039 data_transformer.cpp:25] Loading mean file from: /home/mohanty/data/final_dataset/lmdb/color-20-80/mean.binaryproto
I0403 12:55:24.392691 27041 db_lmdb.cpp:38] Opened lmdb /home/mohanty/data/final_dataset/lmdb/color-20-80/test_db
I0403 12:55:24.404817 27039 data_layer.cpp:41] output data size: 100,3,227,227
I0403 12:55:24.540316 27039 net.cpp:141] Setting up data
I0403 12:55:24.540412 27039 net.cpp:148] Top shape: 100 3 227 227 (15458700)
I0403 12:55:24.540437 27039 net.cpp:148] Top shape: 100 (100)
I0403 12:55:24.540453 27039 net.cpp:156] Memory required for data: 61835200
I0403 12:55:24.540482 27039 layer_factory.hpp:77] Creating layer label_data_1_split
I0403 12:55:24.540508 27039 net.cpp:91] Creating Layer label_data_1_split
I0403 12:55:24.540529 27039 net.cpp:425] label_data_1_split <- label
I0403 12:55:24.540562 27039 net.cpp:399] label_data_1_split -> label_data_1_split_0
I0403 12:55:24.540591 27039 net.cpp:399] label_data_1_split -> label_data_1_split_1
I0403 12:55:24.540613 27039 net.cpp:399] label_data_1_split -> label_data_1_split_2
I0403 12:55:24.540680 27039 net.cpp:141] Setting up label_data_1_split
I0403 12:55:24.540705 27039 net.cpp:148] Top shape: 100 (100)
I0403 12:55:24.540726 27039 net.cpp:148] Top shape: 100 (100)
I0403 12:55:24.540743 27039 net.cpp:148] Top shape: 100 (100)
I0403 12:55:24.540758 27039 net.cpp:156] Memory required for data: 61836400
I0403 12:55:24.540774 27039 layer_factory.hpp:77] Creating layer conv1
I0403 12:55:24.540807 27039 net.cpp:91] Creating Layer conv1
I0403 12:55:24.540827 27039 net.cpp:425] conv1 <- data
I0403 12:55:24.540849 27039 net.cpp:399] conv1 -> conv1
I0403 12:55:24.688810 27039 net.cpp:141] Setting up conv1
I0403 12:55:24.688889 27039 net.cpp:148] Top shape: 100 96 55 55 (29040000)
I0403 12:55:24.688908 27039 net.cpp:156] Memory required for data: 177996400
I0403 12:55:24.688942 27039 layer_factory.hpp:77] Creating layer relu1
I0403 12:55:24.688971 27039 net.cpp:91] Creating Layer relu1
I0403 12:55:24.688989 27039 net.cpp:425] relu1 <- conv1
I0403 12:55:24.689009 27039 net.cpp:386] relu1 -> conv1 (in-place)
I0403 12:55:24.689288 27039 net.cpp:141] Setting up relu1
I0403 12:55:24.689317 27039 net.cpp:148] Top shape: 100 96 55 55 (29040000)
I0403 12:55:24.689334 27039 net.cpp:156] Memory required for data: 294156400
I0403 12:55:24.689383 27039 layer_factory.hpp:77] Creating layer norm1
I0403 12:55:24.689410 27039 net.cpp:91] Creating Layer norm1
I0403 12:55:24.689429 27039 net.cpp:425] norm1 <- conv1
I0403 12:55:24.689448 27039 net.cpp:399] norm1 -> norm1
I0403 12:55:24.689761 27039 net.cpp:141] Setting up norm1
I0403 12:55:24.689790 27039 net.cpp:148] Top shape: 100 96 55 55 (29040000)
I0403 12:55:24.689807 27039 net.cpp:156] Memory required for data: 410316400
I0403 12:55:24.689823 27039 layer_factory.hpp:77] Creating layer pool1
I0403 12:55:24.689847 27039 net.cpp:91] Creating Layer pool1
I0403 12:55:24.689865 27039 net.cpp:425] pool1 <- norm1
I0403 12:55:24.689883 27039 net.cpp:399] pool1 -> pool1
I0403 12:55:24.689950 27039 net.cpp:141] Setting up pool1
I0403 12:55:24.689975 27039 net.cpp:148] Top shape: 100 96 27 27 (6998400)
I0403 12:55:24.689990 27039 net.cpp:156] Memory required for data: 438310000
I0403 12:55:24.690006 27039 layer_factory.hpp:77] Creating layer conv2
I0403 12:55:24.690032 27039 net.cpp:91] Creating Layer conv2
I0403 12:55:24.690048 27039 net.cpp:425] conv2 <- pool1
I0403 12:55:24.690068 27039 net.cpp:399] conv2 -> conv2
I0403 12:55:24.705683 27039 net.cpp:141] Setting up conv2
I0403 12:55:24.705732 27039 net.cpp:148] Top shape: 100 256 27 27 (18662400)
I0403 12:55:24.705750 27039 net.cpp:156] Memory required for data: 512959600
I0403 12:55:24.705773 27039 layer_factory.hpp:77] Creating layer relu2
I0403 12:55:24.705793 27039 net.cpp:91] Creating Layer relu2
I0403 12:55:24.705811 27039 net.cpp:425] relu2 <- conv2
I0403 12:55:24.705832 27039 net.cpp:386] relu2 -> conv2 (in-place)
I0403 12:55:24.706195 27039 net.cpp:141] Setting up relu2
I0403 12:55:24.706223 27039 net.cpp:148] Top shape: 100 256 27 27 (18662400)
I0403 12:55:24.706239 27039 net.cpp:156] Memory required for data: 587609200
I0403 12:55:24.706259 27039 layer_factory.hpp:77] Creating layer norm2
I0403 12:55:24.706284 27039 net.cpp:91] Creating Layer norm2
I0403 12:55:24.706302 27039 net.cpp:425] norm2 <- conv2
I0403 12:55:24.706324 27039 net.cpp:399] norm2 -> norm2
I0403 12:55:24.706523 27039 net.cpp:141] Setting up norm2
I0403 12:55:24.706552 27039 net.cpp:148] Top shape: 100 256 27 27 (18662400)
I0403 12:55:24.706568 27039 net.cpp:156] Memory required for data: 662258800
I0403 12:55:24.706583 27039 layer_factory.hpp:77] Creating layer pool2
I0403 12:55:24.706604 27039 net.cpp:91] Creating Layer pool2
I0403 12:55:24.706622 27039 net.cpp:425] pool2 <- norm2
I0403 12:55:24.706640 27039 net.cpp:399] pool2 -> pool2
I0403 12:55:24.706697 27039 net.cpp:141] Setting up pool2
I0403 12:55:24.706722 27039 net.cpp:148] Top shape: 100 256 13 13 (4326400)
I0403 12:55:24.706737 27039 net.cpp:156] Memory required for data: 679564400
I0403 12:55:24.706753 27039 layer_factory.hpp:77] Creating layer conv3
I0403 12:55:24.706778 27039 net.cpp:91] Creating Layer conv3
I0403 12:55:24.706797 27039 net.cpp:425] conv3 <- pool2
I0403 12:55:24.706818 27039 net.cpp:399] conv3 -> conv3
I0403 12:55:24.747086 27039 net.cpp:141] Setting up conv3
I0403 12:55:24.747160 27039 net.cpp:148] Top shape: 100 384 13 13 (6489600)
I0403 12:55:24.747179 27039 net.cpp:156] Memory required for data: 705522800
I0403 12:55:24.747213 27039 layer_factory.hpp:77] Creating layer relu3
I0403 12:55:24.747241 27039 net.cpp:91] Creating Layer relu3
I0403 12:55:24.747265 27039 net.cpp:425] relu3 <- conv3
I0403 12:55:24.747287 27039 net.cpp:386] relu3 -> conv3 (in-place)
I0403 12:55:24.747581 27039 net.cpp:141] Setting up relu3
I0403 12:55:24.747609 27039 net.cpp:148] Top shape: 100 384 13 13 (6489600)
I0403 12:55:24.747627 27039 net.cpp:156] Memory required for data: 731481200
I0403 12:55:24.747642 27039 layer_factory.hpp:77] Creating layer conv4
I0403 12:55:24.747669 27039 net.cpp:91] Creating Layer conv4
I0403 12:55:24.747687 27039 net.cpp:425] conv4 <- conv3
I0403 12:55:24.747710 27039 net.cpp:399] conv4 -> conv4
I0403 12:55:24.778805 27039 net.cpp:141] Setting up conv4
I0403 12:55:24.778869 27039 net.cpp:148] Top shape: 100 384 13 13 (6489600)
I0403 12:55:24.778920 27039 net.cpp:156] Memory required for data: 757439600
I0403 12:55:24.778944 27039 layer_factory.hpp:77] Creating layer relu4
I0403 12:55:24.778967 27039 net.cpp:91] Creating Layer relu4
I0403 12:55:24.778985 27039 net.cpp:425] relu4 <- conv4
I0403 12:55:24.779009 27039 net.cpp:386] relu4 -> conv4 (in-place)
I0403 12:55:24.779307 27039 net.cpp:141] Setting up relu4
I0403 12:55:24.779337 27039 net.cpp:148] Top shape: 100 384 13 13 (6489600)
I0403 12:55:24.779353 27039 net.cpp:156] Memory required for data: 783398000
I0403 12:55:24.779369 27039 layer_factory.hpp:77] Creating layer conv5
I0403 12:55:24.779395 27039 net.cpp:91] Creating Layer conv5
I0403 12:55:24.779414 27039 net.cpp:425] conv5 <- conv4
I0403 12:55:24.779436 27039 net.cpp:399] conv5 -> conv5
I0403 12:55:24.800984 27039 net.cpp:141] Setting up conv5
I0403 12:55:24.801040 27039 net.cpp:148] Top shape: 100 256 13 13 (4326400)
I0403 12:55:24.801059 27039 net.cpp:156] Memory required for data: 800703600
I0403 12:55:24.801085 27039 layer_factory.hpp:77] Creating layer relu5
I0403 12:55:24.801110 27039 net.cpp:91] Creating Layer relu5
I0403 12:55:24.801128 27039 net.cpp:425] relu5 <- conv5
I0403 12:55:24.801147 27039 net.cpp:386] relu5 -> conv5 (in-place)
I0403 12:55:24.801443 27039 net.cpp:141] Setting up relu5
I0403 12:55:24.801472 27039 net.cpp:148] Top shape: 100 256 13 13 (4326400)
I0403 12:55:24.801488 27039 net.cpp:156] Memory required for data: 818009200
I0403 12:55:24.801504 27039 layer_factory.hpp:77] Creating layer pool5
I0403 12:55:24.801529 27039 net.cpp:91] Creating Layer pool5
I0403 12:55:24.801548 27039 net.cpp:425] pool5 <- conv5
I0403 12:55:24.801568 27039 net.cpp:399] pool5 -> pool5
I0403 12:55:24.801635 27039 net.cpp:141] Setting up pool5
I0403 12:55:24.801661 27039 net.cpp:148] Top shape: 100 256 6 6 (921600)
I0403 12:55:24.801676 27039 net.cpp:156] Memory required for data: 821695600
I0403 12:55:24.801692 27039 layer_factory.hpp:77] Creating layer fc6
I0403 12:55:24.801723 27039 net.cpp:91] Creating Layer fc6
I0403 12:55:24.801743 27039 net.cpp:425] fc6 <- pool5
I0403 12:55:24.801762 27039 net.cpp:399] fc6 -> fc6
I0403 12:55:26.363564 27039 net.cpp:141] Setting up fc6
I0403 12:55:26.363641 27039 net.cpp:148] Top shape: 100 4096 (409600)
I0403 12:55:26.363657 27039 net.cpp:156] Memory required for data: 823334000
I0403 12:55:26.363678 27039 layer_factory.hpp:77] Creating layer relu6
I0403 12:55:26.363701 27039 net.cpp:91] Creating Layer relu6
I0403 12:55:26.363719 27039 net.cpp:425] relu6 <- fc6
I0403 12:55:26.363741 27039 net.cpp:386] relu6 -> fc6 (in-place)
I0403 12:55:26.363961 27039 net.cpp:141] Setting up relu6
I0403 12:55:26.363987 27039 net.cpp:148] Top shape: 100 4096 (409600)
I0403 12:55:26.364003 27039 net.cpp:156] Memory required for data: 824972400
I0403 12:55:26.364018 27039 layer_factory.hpp:77] Creating layer drop6
I0403 12:55:26.364040 27039 net.cpp:91] Creating Layer drop6
I0403 12:55:26.364056 27039 net.cpp:425] drop6 <- fc6
I0403 12:55:26.364074 27039 net.cpp:386] drop6 -> fc6 (in-place)
I0403 12:55:26.364125 27039 net.cpp:141] Setting up drop6
I0403 12:55:26.364151 27039 net.cpp:148] Top shape: 100 4096 (409600)
I0403 12:55:26.364167 27039 net.cpp:156] Memory required for data: 826610800
I0403 12:55:26.364182 27039 layer_factory.hpp:77] Creating layer fc7
I0403 12:55:26.364202 27039 net.cpp:91] Creating Layer fc7
I0403 12:55:26.364217 27039 net.cpp:425] fc7 <- fc6
I0403 12:55:26.364238 27039 net.cpp:399] fc7 -> fc7
I0403 12:55:27.054327 27039 net.cpp:141] Setting up fc7
I0403 12:55:27.054404 27039 net.cpp:148] Top shape: 100 4096 (409600)
I0403 12:55:27.054421 27039 net.cpp:156] Memory required for data: 828249200
I0403 12:55:27.054442 27039 layer_factory.hpp:77] Creating layer relu7
I0403 12:55:27.054466 27039 net.cpp:91] Creating Layer relu7
I0403 12:55:27.054486 27039 net.cpp:425] relu7 <- fc7
I0403 12:55:27.054507 27039 net.cpp:386] relu7 -> fc7 (in-place)
I0403 12:55:27.054899 27039 net.cpp:141] Setting up relu7
I0403 12:55:27.054926 27039 net.cpp:148] Top shape: 100 4096 (409600)
I0403 12:55:27.054976 27039 net.cpp:156] Memory required for data: 829887600
I0403 12:55:27.054992 27039 layer_factory.hpp:77] Creating layer drop7
I0403 12:55:27.055011 27039 net.cpp:91] Creating Layer drop7
I0403 12:55:27.055027 27039 net.cpp:425] drop7 <- fc7
I0403 12:55:27.055047 27039 net.cpp:386] drop7 -> fc7 (in-place)
I0403 12:55:27.055094 27039 net.cpp:141] Setting up drop7
I0403 12:55:27.055117 27039 net.cpp:148] Top shape: 100 4096 (409600)
I0403 12:55:27.055132 27039 net.cpp:156] Memory required for data: 831526000
I0403 12:55:27.055147 27039 layer_factory.hpp:77] Creating layer fc8_plantvillage
I0403 12:55:27.055166 27039 net.cpp:91] Creating Layer fc8_plantvillage
I0403 12:55:27.055182 27039 net.cpp:425] fc8_plantvillage <- fc7
I0403 12:55:27.055202 27039 net.cpp:399] fc8_plantvillage -> fc8_plantvillage
I0403 12:55:27.062217 27039 net.cpp:141] Setting up fc8_plantvillage
I0403 12:55:27.062247 27039 net.cpp:148] Top shape: 100 38 (3800)
I0403 12:55:27.062269 27039 net.cpp:156] Memory required for data: 831541200
I0403 12:55:27.062288 27039 layer_factory.hpp:77] Creating layer fc8_plantvillage_fc8_plantvillage_0_split
I0403 12:55:27.062309 27039 net.cpp:91] Creating Layer fc8_plantvillage_fc8_plantvillage_0_split
I0403 12:55:27.062325 27039 net.cpp:425] fc8_plantvillage_fc8_plantvillage_0_split <- fc8_plantvillage
I0403 12:55:27.062343 27039 net.cpp:399] fc8_plantvillage_fc8_plantvillage_0_split -> fc8_plantvillage_fc8_plantvillage_0_split_0
I0403 12:55:27.062364 27039 net.cpp:399] fc8_plantvillage_fc8_plantvillage_0_split -> fc8_plantvillage_fc8_plantvillage_0_split_1
I0403 12:55:27.062386 27039 net.cpp:399] fc8_plantvillage_fc8_plantvillage_0_split -> fc8_plantvillage_fc8_plantvillage_0_split_2
I0403 12:55:27.062464 27039 net.cpp:141] Setting up fc8_plantvillage_fc8_plantvillage_0_split
I0403 12:55:27.062489 27039 net.cpp:148] Top shape: 100 38 (3800)
I0403 12:55:27.062505 27039 net.cpp:148] Top shape: 100 38 (3800)
I0403 12:55:27.062520 27039 net.cpp:148] Top shape: 100 38 (3800)
I0403 12:55:27.062536 27039 net.cpp:156] Memory required for data: 831586800
I0403 12:55:27.062551 27039 layer_factory.hpp:77] Creating layer prob
I0403 12:55:27.062569 27039 net.cpp:91] Creating Layer prob
I0403 12:55:27.062585 27039 net.cpp:425] prob <- fc8_plantvillage_fc8_plantvillage_0_split_0
I0403 12:55:27.062602 27039 net.cpp:399] prob -> prob
I0403 12:55:27.062850 27039 net.cpp:141] Setting up prob
I0403 12:55:27.062877 27039 net.cpp:148] Top shape: 100 38 (3800)
I0403 12:55:27.062893 27039 net.cpp:156] Memory required for data: 831602000
I0403 12:55:27.062908 27039 layer_factory.hpp:77] Creating layer hdf5out
I0403 12:55:27.062927 27039 net.cpp:91] Creating Layer hdf5out
I0403 12:55:27.062942 27039 net.cpp:425] hdf5out <- prob
I0403 12:55:27.062959 27039 net.cpp:425] hdf5out <- label_data_1_split_0
I0403 12:55:27.084235 27039 net.cpp:141] Setting up hdf5out
…
