…
I0403 12:21:16.658825 26129 net.cpp:313] The NetState phase (1) differed from the phase (0) specified by a rule in layer data
I0403 12:21:16.659123 26129 net.cpp:49] Initializing net from parameters: 
state {
  phase: TEST
}
layer {
  name: "data"
  type: "Data"
  top: "data"
  top: "label"
  include {
    phase: TEST
  }
  transform_param {
    crop_size: 227
    mean_file: "/home/mohanty/data/final_dataset/lmdb/color-20-80/mean.binaryproto"
  }
  data_param {
    source: "/home/mohanty/data/final_dataset/lmdb/color-20-80/test_db"
    batch_size: 100
    backend: LMDB
  }
}
layer {
  name: "conv1"
  type: "Convolution"
  bottom: "data"
  top: "conv1"
  param {
    lr_mult: 1
    decay_mult: 1
  }
  param {
    lr_mult: 2
    decay_mult: 0
  }
  convolution_param {
    num_output: 96
    kernel_size: 11
    stride: 4
    weight_filler {
      type: "gaussian"
      std: 0.01
    }
    bias_filler {
      type: "constant"
      value: 0
    }
  }
}
layer {
  name: "relu1"
  type: "ReLU"
  bottom: "conv1"
  top: "conv1"
}
layer {
  name: "norm1"
  type: "LRN"
  bottom: "conv1"
  top: "norm1"
  lrn_param {
    local_size: 5
    alpha: 0.0001
    beta: 0.75
  }
}
layer {
  name: "pool1"
  type: "Pooling"
  bottom: "norm1"
  top: "pool1"
  pooling_param {
    pool: MAX
    kernel_size: 3
    stride: 2
  }
}
layer {
  name: "conv2"
  type: "Convolution"
  bottom: "pool1"
  top: "conv2"
  param {
    lr_mult: 1
    decay_mult: 1
  }
  param {
    lr_mult: 2
    decay_mult: 0
  }
  convolution_param {
    num_output: 256
    pad: 2
    kernel_size: 5
    group: 2
    weight_filler {
      type: "gaussian"
      std: 0.01
    }
    bias_filler {
      type: "constant"
      value: 0.1
    }
  }
}
layer {
  name: "relu2"
  type: "ReLU"
  bottom: "conv2"
  top: "conv2"
}
layer {
  name: "norm2"
  type: "LRN"
  bottom: "conv2"
  top: "norm2"
  lrn_param {
    local_size: 5
    alpha: 0.0001
    beta: 0.75
  }
}
layer {
  name: "pool2"
  type: "Pooling"
  bottom: "norm2"
  top: "pool2"
  pooling_param {
    pool: MAX
    kernel_size: 3
    stride: 2
  }
}
layer {
  name: "conv3"
  type: "Convolution"
  bottom: "pool2"
  top: "conv3"
  param {
    lr_mult: 1
    decay_mult: 1
  }
  param {
    lr_mult: 2
    decay_mult: 0
  }
  convolution_param {
    num_output: 384
    pad: 1
    kernel_size: 3
    weight_filler {
      type: "gaussian"
      std: 0.01
    }
    bias_filler {
      type: "constant"
      value: 0
    }
  }
}
layer {
  name: "relu3"
  type: "ReLU"
  bottom: "conv3"
  top: "conv3"
}
layer {
  name: "conv4"
  type: "Convolution"
  bottom: "conv3"
  top: "conv4"
  param {
    lr_mult: 1
    decay_mult: 1
  }
  param {
    lr_mult: 2
    decay_mult: 0
  }
  convolution_param {
    num_output: 384
    pad: 1
    kernel_size: 3
    group: 2
    weight_filler {
      type: "gaussian"
      std: 0.01
    }
    bias_filler {
      type: "constant"
      value: 0.1
    }
  }
}
layer {
  name: "relu4"
  type: "ReLU"
  bottom: "conv4"
  top: "conv4"
}
layer {
  name: "conv5"
  type: "Convolution"
  bottom: "conv4"
  top: "conv5"
  param {
    lr_mult: 1
    decay_mult: 1
  }
  param {
    lr_mult: 2
    decay_mult: 0
  }
  convolution_param {
    num_output: 256
    pad: 1
    kernel_size: 3
    group: 2
    weight_filler {
      type: "gaussian"
      std: 0.01
    }
    bias_filler {
      type: "constant"
      value: 0.1
    }
  }
}
layer {
  name: "relu5"
  type: "ReLU"
  bottom: "conv5"
  top: "conv5"
}
layer {
  name: "pool5"
  type: "Pooling"
  bottom: "conv5"
  top: "pool5"
  pooling_param {
    pool: MAX
    kernel_size: 3
    stride: 2
  }
}
layer {
  name: "fc6"
  type: "InnerProduct"
  bottom: "pool5"
  top: "fc6"
  param {
    lr_mult: 1
    decay_mult: 1
  }
  param {
    lr_mult: 2
    decay_mult: 0
  }
  inner_product_param {
    num_output: 4096
    weight_filler {
      type: "gaussian"
      std: 0.005
    }
    bias_filler {
      type: "constant"
      value: 0.1
    }
  }
}
layer {
  name: "relu6"
  type: "ReLU"
  bottom: "fc6"
  top: "fc6"
}
layer {
  name: "drop6"
  type: "Dropout"
  bottom: "fc6"
  top: "fc6"
  dropout_param {
    dropout_ratio: 0.5
  }
}
layer {
  name: "fc7"
  type: "InnerProduct"
  bottom: "fc6"
  top: "fc7"
  param {
    lr_mult: 1
    decay_mult: 1
  }
  param {
    lr_mult: 2
    decay_mult: 0
  }
  inner_product_param {
    num_output: 4096
    weight_filler {
      type: "gaussian"
      std: 0.005
    }
    bias_filler {
      type: "constant"
      value: 0.1
    }
  }
}
layer {
  name: "relu7"
  type: "ReLU"
  bottom: "fc7"
  top: "fc7"
}
layer {
  name: "drop7"
  type: "Dropout"
  bottom: "fc7"
  top: "fc7"
  dropout_param {
    dropout_ratio: 0.5
  }
}
layer {
  name: "fc8_plantvillage"
  type: "InnerProduct"
  bottom: "fc7"
  top: "fc8_plantvillage"
  param {
    lr_mult: 1
    decay_mult: 1
  }
  param {
    lr_mult: 2
    decay_mult: 0
  }
  inner_product_param {
    num_output: 38
    weight_filler {
      type: "gaussian"
      std: 0.01
    }
    bias_filler {
      type: "constant"
      value: 0
    }
  }
}
layer {
  name: "prob"
  type: "Softmax"
  bottom: "fc8_plantvillage"
  top: "prob"
  include {
    phase: TEST
  }
}
layer {
  name: "hdf5out"
  type: "HDF5Output"
  bottom: "prob"
  bottom: "label"
  include {
    phase: TEST
  }
  hdf5_output_param {
    file_name: "hdf5_dumps/iter_324.h5"
  }
}
layer {
  name: "loss"
  type: "SoftmaxWithLoss"
  bottom: "fc8_plantvillage"
  bottom: "label"
  top: "loss"
}
layer {
  name: "accuracy"
  type: "Accuracy"
  bottom: "fc8_plantvillage"
  bottom: "label"
  top: "accuracy"
  include {
    phase: TEST
  }
}
I0403 12:21:16.660879 26129 layer_factory.hpp:77] Creating layer data
I0403 12:21:16.661525 26129 net.cpp:91] Creating Layer data
I0403 12:21:16.661556 26129 net.cpp:399] data -> data
I0403 12:21:16.661624 26129 net.cpp:399] data -> label
I0403 12:21:16.661662 26129 data_transformer.cpp:25] Loading mean file from: /home/mohanty/data/final_dataset/lmdb/color-20-80/mean.binaryproto
I0403 12:21:16.664515 26135 db_lmdb.cpp:38] Opened lmdb /home/mohanty/data/final_dataset/lmdb/color-20-80/test_db
I0403 12:21:16.676340 26129 data_layer.cpp:41] output data size: 100,3,227,227
I0403 12:21:16.809968 26129 net.cpp:141] Setting up data
I0403 12:21:16.810063 26129 net.cpp:148] Top shape: 100 3 227 227 (15458700)
I0403 12:21:16.810086 26129 net.cpp:148] Top shape: 100 (100)
I0403 12:21:16.810103 26129 net.cpp:156] Memory required for data: 61835200
I0403 12:21:16.810132 26129 layer_factory.hpp:77] Creating layer label_data_1_split
I0403 12:21:16.810158 26129 net.cpp:91] Creating Layer label_data_1_split
I0403 12:21:16.810176 26129 net.cpp:425] label_data_1_split <- label
I0403 12:21:16.810210 26129 net.cpp:399] label_data_1_split -> label_data_1_split_0
I0403 12:21:16.810238 26129 net.cpp:399] label_data_1_split -> label_data_1_split_1
I0403 12:21:16.810259 26129 net.cpp:399] label_data_1_split -> label_data_1_split_2
I0403 12:21:16.810328 26129 net.cpp:141] Setting up label_data_1_split
I0403 12:21:16.810353 26129 net.cpp:148] Top shape: 100 (100)
I0403 12:21:16.810369 26129 net.cpp:148] Top shape: 100 (100)
I0403 12:21:16.810385 26129 net.cpp:148] Top shape: 100 (100)
I0403 12:21:16.810400 26129 net.cpp:156] Memory required for data: 61836400
I0403 12:21:16.810415 26129 layer_factory.hpp:77] Creating layer conv1
I0403 12:21:16.810447 26129 net.cpp:91] Creating Layer conv1
I0403 12:21:16.810467 26129 net.cpp:425] conv1 <- data
I0403 12:21:16.810487 26129 net.cpp:399] conv1 -> conv1
I0403 12:21:16.962136 26129 net.cpp:141] Setting up conv1
I0403 12:21:16.962213 26129 net.cpp:148] Top shape: 100 96 55 55 (29040000)
I0403 12:21:16.962232 26129 net.cpp:156] Memory required for data: 177996400
I0403 12:21:16.962265 26129 layer_factory.hpp:77] Creating layer relu1
I0403 12:21:16.962299 26129 net.cpp:91] Creating Layer relu1
I0403 12:21:16.962321 26129 net.cpp:425] relu1 <- conv1
I0403 12:21:16.962342 26129 net.cpp:386] relu1 -> conv1 (in-place)
I0403 12:21:16.962610 26129 net.cpp:141] Setting up relu1
I0403 12:21:16.962638 26129 net.cpp:148] Top shape: 100 96 55 55 (29040000)
I0403 12:21:16.962656 26129 net.cpp:156] Memory required for data: 294156400
I0403 12:21:16.962724 26129 layer_factory.hpp:77] Creating layer norm1
I0403 12:21:16.962755 26129 net.cpp:91] Creating Layer norm1
I0403 12:21:16.962775 26129 net.cpp:425] norm1 <- conv1
I0403 12:21:16.962795 26129 net.cpp:399] norm1 -> norm1
I0403 12:21:16.963112 26129 net.cpp:141] Setting up norm1
I0403 12:21:16.963142 26129 net.cpp:148] Top shape: 100 96 55 55 (29040000)
I0403 12:21:16.963160 26129 net.cpp:156] Memory required for data: 410316400
I0403 12:21:16.963177 26129 layer_factory.hpp:77] Creating layer pool1
I0403 12:21:16.963202 26129 net.cpp:91] Creating Layer pool1
I0403 12:21:16.963222 26129 net.cpp:425] pool1 <- norm1
I0403 12:21:16.963240 26129 net.cpp:399] pool1 -> pool1
I0403 12:21:16.963315 26129 net.cpp:141] Setting up pool1
I0403 12:21:16.963341 26129 net.cpp:148] Top shape: 100 96 27 27 (6998400)
I0403 12:21:16.963357 26129 net.cpp:156] Memory required for data: 438310000
I0403 12:21:16.963373 26129 layer_factory.hpp:77] Creating layer conv2
I0403 12:21:16.963399 26129 net.cpp:91] Creating Layer conv2
I0403 12:21:16.963416 26129 net.cpp:425] conv2 <- pool1
I0403 12:21:16.963435 26129 net.cpp:399] conv2 -> conv2
I0403 12:21:16.979207 26129 net.cpp:141] Setting up conv2
I0403 12:21:16.979257 26129 net.cpp:148] Top shape: 100 256 27 27 (18662400)
I0403 12:21:16.979275 26129 net.cpp:156] Memory required for data: 512959600
I0403 12:21:16.979305 26129 layer_factory.hpp:77] Creating layer relu2
I0403 12:21:16.979331 26129 net.cpp:91] Creating Layer relu2
I0403 12:21:16.979348 26129 net.cpp:425] relu2 <- conv2
I0403 12:21:16.979368 26129 net.cpp:386] relu2 -> conv2 (in-place)
I0403 12:21:16.979645 26129 net.cpp:141] Setting up relu2
I0403 12:21:16.979673 26129 net.cpp:148] Top shape: 100 256 27 27 (18662400)
I0403 12:21:16.979691 26129 net.cpp:156] Memory required for data: 587609200
I0403 12:21:16.979708 26129 layer_factory.hpp:77] Creating layer norm2
I0403 12:21:16.979732 26129 net.cpp:91] Creating Layer norm2
I0403 12:21:16.979750 26129 net.cpp:425] norm2 <- conv2
I0403 12:21:16.979769 26129 net.cpp:399] norm2 -> norm2
I0403 12:21:16.979960 26129 net.cpp:141] Setting up norm2
I0403 12:21:16.979989 26129 net.cpp:148] Top shape: 100 256 27 27 (18662400)
I0403 12:21:16.980005 26129 net.cpp:156] Memory required for data: 662258800
I0403 12:21:16.980021 26129 layer_factory.hpp:77] Creating layer pool2
I0403 12:21:16.980041 26129 net.cpp:91] Creating Layer pool2
I0403 12:21:16.980099 26129 net.cpp:425] pool2 <- norm2
I0403 12:21:16.980126 26129 net.cpp:399] pool2 -> pool2
I0403 12:21:16.980182 26129 net.cpp:141] Setting up pool2
I0403 12:21:16.980207 26129 net.cpp:148] Top shape: 100 256 13 13 (4326400)
I0403 12:21:16.980224 26129 net.cpp:156] Memory required for data: 679564400
I0403 12:21:16.980240 26129 layer_factory.hpp:77] Creating layer conv3
I0403 12:21:16.980263 26129 net.cpp:91] Creating Layer conv3
I0403 12:21:16.980283 26129 net.cpp:425] conv3 <- pool2
I0403 12:21:16.980309 26129 net.cpp:399] conv3 -> conv3
I0403 12:21:17.027184 26129 net.cpp:141] Setting up conv3
I0403 12:21:17.027237 26129 net.cpp:148] Top shape: 100 384 13 13 (6489600)
I0403 12:21:17.027257 26129 net.cpp:156] Memory required for data: 705522800
I0403 12:21:17.027292 26129 layer_factory.hpp:77] Creating layer relu3
I0403 12:21:17.027318 26129 net.cpp:91] Creating Layer relu3
I0403 12:21:17.027338 26129 net.cpp:425] relu3 <- conv3
I0403 12:21:17.027359 26129 net.cpp:386] relu3 -> conv3 (in-place)
I0403 12:21:17.027657 26129 net.cpp:141] Setting up relu3
I0403 12:21:17.027688 26129 net.cpp:148] Top shape: 100 384 13 13 (6489600)
I0403 12:21:17.027704 26129 net.cpp:156] Memory required for data: 731481200
I0403 12:21:17.027722 26129 layer_factory.hpp:77] Creating layer conv4
I0403 12:21:17.027752 26129 net.cpp:91] Creating Layer conv4
I0403 12:21:17.027772 26129 net.cpp:425] conv4 <- conv3
I0403 12:21:17.027792 26129 net.cpp:399] conv4 -> conv4
I0403 12:21:17.059372 26129 net.cpp:141] Setting up conv4
I0403 12:21:17.059432 26129 net.cpp:148] Top shape: 100 384 13 13 (6489600)
I0403 12:21:17.059484 26129 net.cpp:156] Memory required for data: 757439600
I0403 12:21:17.059509 26129 layer_factory.hpp:77] Creating layer relu4
I0403 12:21:17.059537 26129 net.cpp:91] Creating Layer relu4
I0403 12:21:17.059558 26129 net.cpp:425] relu4 <- conv4
I0403 12:21:17.059579 26129 net.cpp:386] relu4 -> conv4 (in-place)
I0403 12:21:17.059872 26129 net.cpp:141] Setting up relu4
I0403 12:21:17.059901 26129 net.cpp:148] Top shape: 100 384 13 13 (6489600)
I0403 12:21:17.059918 26129 net.cpp:156] Memory required for data: 783398000
I0403 12:21:17.059934 26129 layer_factory.hpp:77] Creating layer conv5
I0403 12:21:17.059962 26129 net.cpp:91] Creating Layer conv5
I0403 12:21:17.059983 26129 net.cpp:425] conv5 <- conv4
I0403 12:21:17.060005 26129 net.cpp:399] conv5 -> conv5
I0403 12:21:17.081871 26129 net.cpp:141] Setting up conv5
I0403 12:21:17.081926 26129 net.cpp:148] Top shape: 100 256 13 13 (4326400)
I0403 12:21:17.081944 26129 net.cpp:156] Memory required for data: 800703600
I0403 12:21:17.081975 26129 layer_factory.hpp:77] Creating layer relu5
I0403 12:21:17.082000 26129 net.cpp:91] Creating Layer relu5
I0403 12:21:17.082018 26129 net.cpp:425] relu5 <- conv5
I0403 12:21:17.082037 26129 net.cpp:386] relu5 -> conv5 (in-place)
I0403 12:21:17.082336 26129 net.cpp:141] Setting up relu5
I0403 12:21:17.082368 26129 net.cpp:148] Top shape: 100 256 13 13 (4326400)
I0403 12:21:17.082387 26129 net.cpp:156] Memory required for data: 818009200
I0403 12:21:17.082404 26129 layer_factory.hpp:77] Creating layer pool5
I0403 12:21:17.082429 26129 net.cpp:91] Creating Layer pool5
I0403 12:21:17.082447 26129 net.cpp:425] pool5 <- conv5
I0403 12:21:17.082469 26129 net.cpp:399] pool5 -> pool5
I0403 12:21:17.082533 26129 net.cpp:141] Setting up pool5
I0403 12:21:17.082559 26129 net.cpp:148] Top shape: 100 256 6 6 (921600)
I0403 12:21:17.082576 26129 net.cpp:156] Memory required for data: 821695600
I0403 12:21:17.082592 26129 layer_factory.hpp:77] Creating layer fc6
I0403 12:21:17.082625 26129 net.cpp:91] Creating Layer fc6
I0403 12:21:17.082644 26129 net.cpp:425] fc6 <- pool5
I0403 12:21:17.082669 26129 net.cpp:399] fc6 -> fc6
I0403 12:21:18.668083 26129 net.cpp:141] Setting up fc6
I0403 12:21:18.668126 26129 net.cpp:148] Top shape: 100 4096 (409600)
I0403 12:21:18.668143 26129 net.cpp:156] Memory required for data: 823334000
I0403 12:21:18.668164 26129 layer_factory.hpp:77] Creating layer relu6
I0403 12:21:18.668187 26129 net.cpp:91] Creating Layer relu6
I0403 12:21:18.668205 26129 net.cpp:425] relu6 <- fc6
I0403 12:21:18.668227 26129 net.cpp:386] relu6 -> fc6 (in-place)
I0403 12:21:18.668449 26129 net.cpp:141] Setting up relu6
I0403 12:21:18.668489 26129 net.cpp:148] Top shape: 100 4096 (409600)
I0403 12:21:18.668506 26129 net.cpp:156] Memory required for data: 824972400
I0403 12:21:18.668524 26129 layer_factory.hpp:77] Creating layer drop6
I0403 12:21:18.668543 26129 net.cpp:91] Creating Layer drop6
I0403 12:21:18.668560 26129 net.cpp:425] drop6 <- fc6
I0403 12:21:18.668576 26129 net.cpp:386] drop6 -> fc6 (in-place)
I0403 12:21:18.668632 26129 net.cpp:141] Setting up drop6
I0403 12:21:18.668655 26129 net.cpp:148] Top shape: 100 4096 (409600)
I0403 12:21:18.668670 26129 net.cpp:156] Memory required for data: 826610800
I0403 12:21:18.668684 26129 layer_factory.hpp:77] Creating layer fc7
I0403 12:21:18.668707 26129 net.cpp:91] Creating Layer fc7
I0403 12:21:18.668725 26129 net.cpp:425] fc7 <- fc6
I0403 12:21:18.668743 26129 net.cpp:399] fc7 -> fc7
I0403 12:21:19.368563 26129 net.cpp:141] Setting up fc7
I0403 12:21:19.368640 26129 net.cpp:148] Top shape: 100 4096 (409600)
I0403 12:21:19.368657 26129 net.cpp:156] Memory required for data: 828249200
I0403 12:21:19.368680 26129 layer_factory.hpp:77] Creating layer relu7
I0403 12:21:19.368705 26129 net.cpp:91] Creating Layer relu7
I0403 12:21:19.368724 26129 net.cpp:425] relu7 <- fc7
I0403 12:21:19.368746 26129 net.cpp:386] relu7 -> fc7 (in-place)
I0403 12:21:19.369146 26129 net.cpp:141] Setting up relu7
I0403 12:21:19.369174 26129 net.cpp:148] Top shape: 100 4096 (409600)
I0403 12:21:19.369222 26129 net.cpp:156] Memory required for data: 829887600
I0403 12:21:19.369240 26129 layer_factory.hpp:77] Creating layer drop7
I0403 12:21:19.369261 26129 net.cpp:91] Creating Layer drop7
I0403 12:21:19.369278 26129 net.cpp:425] drop7 <- fc7
I0403 12:21:19.369303 26129 net.cpp:386] drop7 -> fc7 (in-place)
I0403 12:21:19.369350 26129 net.cpp:141] Setting up drop7
I0403 12:21:19.369374 26129 net.cpp:148] Top shape: 100 4096 (409600)
I0403 12:21:19.369390 26129 net.cpp:156] Memory required for data: 831526000
I0403 12:21:19.369405 26129 layer_factory.hpp:77] Creating layer fc8_plantvillage
I0403 12:21:19.369428 26129 net.cpp:91] Creating Layer fc8_plantvillage
I0403 12:21:19.369448 26129 net.cpp:425] fc8_plantvillage <- fc7
I0403 12:21:19.369467 26129 net.cpp:399] fc8_plantvillage -> fc8_plantvillage
I0403 12:21:19.376179 26129 net.cpp:141] Setting up fc8_plantvillage
I0403 12:21:19.376210 26129 net.cpp:148] Top shape: 100 38 (3800)
I0403 12:21:19.376225 26129 net.cpp:156] Memory required for data: 831541200
I0403 12:21:19.376246 26129 layer_factory.hpp:77] Creating layer fc8_plantvillage_fc8_plantvillage_0_split
I0403 12:21:19.376266 26129 net.cpp:91] Creating Layer fc8_plantvillage_fc8_plantvillage_0_split
I0403 12:21:19.376282 26129 net.cpp:425] fc8_plantvillage_fc8_plantvillage_0_split <- fc8_plantvillage
I0403 12:21:19.376305 26129 net.cpp:399] fc8_plantvillage_fc8_plantvillage_0_split -> fc8_plantvillage_fc8_plantvillage_0_split_0
I0403 12:21:19.376327 26129 net.cpp:399] fc8_plantvillage_fc8_plantvillage_0_split -> fc8_plantvillage_fc8_plantvillage_0_split_1
I0403 12:21:19.376349 26129 net.cpp:399] fc8_plantvillage_fc8_plantvillage_0_split -> fc8_plantvillage_fc8_plantvillage_0_split_2
I0403 12:21:19.376426 26129 net.cpp:141] Setting up fc8_plantvillage_fc8_plantvillage_0_split
I0403 12:21:19.376451 26129 net.cpp:148] Top shape: 100 38 (3800)
I0403 12:21:19.376469 26129 net.cpp:148] Top shape: 100 38 (3800)
I0403 12:21:19.376484 26129 net.cpp:148] Top shape: 100 38 (3800)
I0403 12:21:19.376499 26129 net.cpp:156] Memory required for data: 831586800
I0403 12:21:19.376515 26129 layer_factory.hpp:77] Creating layer prob
I0403 12:21:19.376533 26129 net.cpp:91] Creating Layer prob
I0403 12:21:19.376550 26129 net.cpp:425] prob <- fc8_plantvillage_fc8_plantvillage_0_split_0
I0403 12:21:19.376569 26129 net.cpp:399] prob -> prob
I0403 12:21:19.376791 26129 net.cpp:141] Setting up prob
I0403 12:21:19.376816 26129 net.cpp:148] Top shape: 100 38 (3800)
I0403 12:21:19.376832 26129 net.cpp:156] Memory required for data: 831602000
I0403 12:21:19.376847 26129 layer_factory.hpp:77] Creating layer hdf5out
I0403 12:21:19.376870 26129 net.cpp:91] Creating Layer hdf5out
I0403 12:21:19.376888 26129 net.cpp:425] hdf5out <- prob
I0403 12:21:19.376904 26129 net.cpp:425] hdf5out <- label_data_1_split_0
I0403 12:21:19.381599 26129 net.cpp:141] Setting up hdf5out
…
