…
I0403 12:39:05.605067 26545 net.cpp:313] The NetState phase (1) differed from the phase (0) specified by a rule in layer data
I0403 12:39:05.605392 26545 net.cpp:49] Initializing net from parameters: 
state {
  phase: TEST
}
layer {
  name: "data"
  type: "Data"
  top: "data"
  top: "label"
  include {
    phase: TEST
  }
  transform_param {
    crop_size: 227
    mean_file: "/home/mohanty/data/final_dataset/lmdb/color-20-80/mean.binaryproto"
  }
  data_param {
    source: "/home/mohanty/data/final_dataset/lmdb/color-20-80/test_db"
    batch_size: 100
    backend: LMDB
  }
}
layer {
  name: "conv1"
  type: "Convolution"
  bottom: "data"
  top: "conv1"
  param {
    lr_mult: 1
    decay_mult: 1
  }
  param {
    lr_mult: 2
    decay_mult: 0
  }
  convolution_param {
    num_output: 96
    kernel_size: 11
    stride: 4
    weight_filler {
      type: "gaussian"
      std: 0.01
    }
    bias_filler {
      type: "constant"
      value: 0
    }
  }
}
layer {
  name: "relu1"
  type: "ReLU"
  bottom: "conv1"
  top: "conv1"
}
layer {
  name: "norm1"
  type: "LRN"
  bottom: "conv1"
  top: "norm1"
  lrn_param {
    local_size: 5
    alpha: 0.0001
    beta: 0.75
  }
}
layer {
  name: "pool1"
  type: "Pooling"
  bottom: "norm1"
  top: "pool1"
  pooling_param {
    pool: MAX
    kernel_size: 3
    stride: 2
  }
}
layer {
  name: "conv2"
  type: "Convolution"
  bottom: "pool1"
  top: "conv2"
  param {
    lr_mult: 1
    decay_mult: 1
  }
  param {
    lr_mult: 2
    decay_mult: 0
  }
  convolution_param {
    num_output: 256
    pad: 2
    kernel_size: 5
    group: 2
    weight_filler {
      type: "gaussian"
      std: 0.01
    }
    bias_filler {
      type: "constant"
      value: 0.1
    }
  }
}
layer {
  name: "relu2"
  type: "ReLU"
  bottom: "conv2"
  top: "conv2"
}
layer {
  name: "norm2"
  type: "LRN"
  bottom: "conv2"
  top: "norm2"
  lrn_param {
    local_size: 5
    alpha: 0.0001
    beta: 0.75
  }
}
layer {
  name: "pool2"
  type: "Pooling"
  bottom: "norm2"
  top: "pool2"
  pooling_param {
    pool: MAX
    kernel_size: 3
    stride: 2
  }
}
layer {
  name: "conv3"
  type: "Convolution"
  bottom: "pool2"
  top: "conv3"
  param {
    lr_mult: 1
    decay_mult: 1
  }
  param {
    lr_mult: 2
    decay_mult: 0
  }
  convolution_param {
    num_output: 384
    pad: 1
    kernel_size: 3
    weight_filler {
      type: "gaussian"
      std: 0.01
    }
    bias_filler {
      type: "constant"
      value: 0
    }
  }
}
layer {
  name: "relu3"
  type: "ReLU"
  bottom: "conv3"
  top: "conv3"
}
layer {
  name: "conv4"
  type: "Convolution"
  bottom: "conv3"
  top: "conv4"
  param {
    lr_mult: 1
    decay_mult: 1
  }
  param {
    lr_mult: 2
    decay_mult: 0
  }
  convolution_param {
    num_output: 384
    pad: 1
    kernel_size: 3
    group: 2
    weight_filler {
      type: "gaussian"
      std: 0.01
    }
    bias_filler {
      type: "constant"
      value: 0.1
    }
  }
}
layer {
  name: "relu4"
  type: "ReLU"
  bottom: "conv4"
  top: "conv4"
}
layer {
  name: "conv5"
  type: "Convolution"
  bottom: "conv4"
  top: "conv5"
  param {
    lr_mult: 1
    decay_mult: 1
  }
  param {
    lr_mult: 2
    decay_mult: 0
  }
  convolution_param {
    num_output: 256
    pad: 1
    kernel_size: 3
    group: 2
    weight_filler {
      type: "gaussian"
      std: 0.01
    }
    bias_filler {
      type: "constant"
      value: 0.1
    }
  }
}
layer {
  name: "relu5"
  type: "ReLU"
  bottom: "conv5"
  top: "conv5"
}
layer {
  name: "pool5"
  type: "Pooling"
  bottom: "conv5"
  top: "pool5"
  pooling_param {
    pool: MAX
    kernel_size: 3
    stride: 2
  }
}
layer {
  name: "fc6"
  type: "InnerProduct"
  bottom: "pool5"
  top: "fc6"
  param {
    lr_mult: 1
    decay_mult: 1
  }
  param {
    lr_mult: 2
    decay_mult: 0
  }
  inner_product_param {
    num_output: 4096
    weight_filler {
      type: "gaussian"
      std: 0.005
    }
    bias_filler {
      type: "constant"
      value: 0.1
    }
  }
}
layer {
  name: "relu6"
  type: "ReLU"
  bottom: "fc6"
  top: "fc6"
}
layer {
  name: "drop6"
  type: "Dropout"
  bottom: "fc6"
  top: "fc6"
  dropout_param {
    dropout_ratio: 0.5
  }
}
layer {
  name: "fc7"
  type: "InnerProduct"
  bottom: "fc6"
  top: "fc7"
  param {
    lr_mult: 1
    decay_mult: 1
  }
  param {
    lr_mult: 2
    decay_mult: 0
  }
  inner_product_param {
    num_output: 4096
    weight_filler {
      type: "gaussian"
      std: 0.005
    }
    bias_filler {
      type: "constant"
      value: 0.1
    }
  }
}
layer {
  name: "relu7"
  type: "ReLU"
  bottom: "fc7"
  top: "fc7"
}
layer {
  name: "drop7"
  type: "Dropout"
  bottom: "fc7"
  top: "fc7"
  dropout_param {
    dropout_ratio: 0.5
  }
}
layer {
  name: "fc8_plantvillage"
  type: "InnerProduct"
  bottom: "fc7"
  top: "fc8_plantvillage"
  param {
    lr_mult: 1
    decay_mult: 1
  }
  param {
    lr_mult: 2
    decay_mult: 0
  }
  inner_product_param {
    num_output: 38
    weight_filler {
      type: "gaussian"
      std: 0.01
    }
    bias_filler {
      type: "constant"
      value: 0
    }
  }
}
layer {
  name: "prob"
  type: "Softmax"
  bottom: "fc8_plantvillage"
  top: "prob"
  include {
    phase: TEST
  }
}
layer {
  name: "hdf5out"
  type: "HDF5Output"
  bottom: "prob"
  bottom: "label"
  include {
    phase: TEST
  }
  hdf5_output_param {
    file_name: "hdf5_dumps/iter_1620.h5"
  }
}
layer {
  name: "loss"
  type: "SoftmaxWithLoss"
  bottom: "fc8_plantvillage"
  bottom: "label"
  top: "loss"
}
layer {
  name: "accuracy"
  type: "Accuracy"
  bottom: "fc8_plantvillage"
  bottom: "label"
  top: "accuracy"
  include {
    phase: TEST
  }
}
I0403 12:39:05.605958 26545 layer_factory.hpp:77] Creating layer data
I0403 12:39:05.606612 26545 net.cpp:91] Creating Layer data
I0403 12:39:05.606647 26545 net.cpp:399] data -> data
I0403 12:39:05.606700 26545 net.cpp:399] data -> label
I0403 12:39:05.606739 26545 data_transformer.cpp:25] Loading mean file from: /home/mohanty/data/final_dataset/lmdb/color-20-80/mean.binaryproto
I0403 12:39:05.609272 26548 db_lmdb.cpp:38] Opened lmdb /home/mohanty/data/final_dataset/lmdb/color-20-80/test_db
I0403 12:39:05.621289 26545 data_layer.cpp:41] output data size: 100,3,227,227
I0403 12:39:05.756988 26545 net.cpp:141] Setting up data
I0403 12:39:05.757082 26545 net.cpp:148] Top shape: 100 3 227 227 (15458700)
I0403 12:39:05.757107 26545 net.cpp:148] Top shape: 100 (100)
I0403 12:39:05.757123 26545 net.cpp:156] Memory required for data: 61835200
I0403 12:39:05.757153 26545 layer_factory.hpp:77] Creating layer label_data_1_split
I0403 12:39:05.757181 26545 net.cpp:91] Creating Layer label_data_1_split
I0403 12:39:05.757200 26545 net.cpp:425] label_data_1_split <- label
I0403 12:39:05.757232 26545 net.cpp:399] label_data_1_split -> label_data_1_split_0
I0403 12:39:05.757268 26545 net.cpp:399] label_data_1_split -> label_data_1_split_1
I0403 12:39:05.757292 26545 net.cpp:399] label_data_1_split -> label_data_1_split_2
I0403 12:39:05.757357 26545 net.cpp:141] Setting up label_data_1_split
I0403 12:39:05.757383 26545 net.cpp:148] Top shape: 100 (100)
I0403 12:39:05.757401 26545 net.cpp:148] Top shape: 100 (100)
I0403 12:39:05.757418 26545 net.cpp:148] Top shape: 100 (100)
I0403 12:39:05.757434 26545 net.cpp:156] Memory required for data: 61836400
I0403 12:39:05.757449 26545 layer_factory.hpp:77] Creating layer conv1
I0403 12:39:05.757483 26545 net.cpp:91] Creating Layer conv1
I0403 12:39:05.757504 26545 net.cpp:425] conv1 <- data
I0403 12:39:05.757525 26545 net.cpp:399] conv1 -> conv1
I0403 12:39:05.906733 26545 net.cpp:141] Setting up conv1
I0403 12:39:05.906808 26545 net.cpp:148] Top shape: 100 96 55 55 (29040000)
I0403 12:39:05.906826 26545 net.cpp:156] Memory required for data: 177996400
I0403 12:39:05.906858 26545 layer_factory.hpp:77] Creating layer relu1
I0403 12:39:05.906888 26545 net.cpp:91] Creating Layer relu1
I0403 12:39:05.906908 26545 net.cpp:425] relu1 <- conv1
I0403 12:39:05.906927 26545 net.cpp:386] relu1 -> conv1 (in-place)
I0403 12:39:05.907186 26545 net.cpp:141] Setting up relu1
I0403 12:39:05.907213 26545 net.cpp:148] Top shape: 100 96 55 55 (29040000)
I0403 12:39:05.907229 26545 net.cpp:156] Memory required for data: 294156400
I0403 12:39:05.907279 26545 layer_factory.hpp:77] Creating layer norm1
I0403 12:39:05.907315 26545 net.cpp:91] Creating Layer norm1
I0403 12:39:05.907335 26545 net.cpp:425] norm1 <- conv1
I0403 12:39:05.907354 26545 net.cpp:399] norm1 -> norm1
I0403 12:39:05.907663 26545 net.cpp:141] Setting up norm1
I0403 12:39:05.907692 26545 net.cpp:148] Top shape: 100 96 55 55 (29040000)
I0403 12:39:05.907709 26545 net.cpp:156] Memory required for data: 410316400
I0403 12:39:05.907727 26545 layer_factory.hpp:77] Creating layer pool1
I0403 12:39:05.907750 26545 net.cpp:91] Creating Layer pool1
I0403 12:39:05.907768 26545 net.cpp:425] pool1 <- norm1
I0403 12:39:05.907788 26545 net.cpp:399] pool1 -> pool1
I0403 12:39:05.907853 26545 net.cpp:141] Setting up pool1
I0403 12:39:05.907879 26545 net.cpp:148] Top shape: 100 96 27 27 (6998400)
I0403 12:39:05.907896 26545 net.cpp:156] Memory required for data: 438310000
I0403 12:39:05.907912 26545 layer_factory.hpp:77] Creating layer conv2
I0403 12:39:05.907937 26545 net.cpp:91] Creating Layer conv2
I0403 12:39:05.907954 26545 net.cpp:425] conv2 <- pool1
I0403 12:39:05.907973 26545 net.cpp:399] conv2 -> conv2
I0403 12:39:05.922855 26545 net.cpp:141] Setting up conv2
I0403 12:39:05.922906 26545 net.cpp:148] Top shape: 100 256 27 27 (18662400)
I0403 12:39:05.922926 26545 net.cpp:156] Memory required for data: 512959600
I0403 12:39:05.922950 26545 layer_factory.hpp:77] Creating layer relu2
I0403 12:39:05.922971 26545 net.cpp:91] Creating Layer relu2
I0403 12:39:05.922988 26545 net.cpp:425] relu2 <- conv2
I0403 12:39:05.923007 26545 net.cpp:386] relu2 -> conv2 (in-place)
I0403 12:39:05.923287 26545 net.cpp:141] Setting up relu2
I0403 12:39:05.923316 26545 net.cpp:148] Top shape: 100 256 27 27 (18662400)
I0403 12:39:05.923333 26545 net.cpp:156] Memory required for data: 587609200
I0403 12:39:05.923351 26545 layer_factory.hpp:77] Creating layer norm2
I0403 12:39:05.923372 26545 net.cpp:91] Creating Layer norm2
I0403 12:39:05.923389 26545 net.cpp:425] norm2 <- conv2
I0403 12:39:05.923408 26545 net.cpp:399] norm2 -> norm2
I0403 12:39:05.923606 26545 net.cpp:141] Setting up norm2
I0403 12:39:05.923632 26545 net.cpp:148] Top shape: 100 256 27 27 (18662400)
I0403 12:39:05.923648 26545 net.cpp:156] Memory required for data: 662258800
I0403 12:39:05.923662 26545 layer_factory.hpp:77] Creating layer pool2
I0403 12:39:05.923682 26545 net.cpp:91] Creating Layer pool2
I0403 12:39:05.923698 26545 net.cpp:425] pool2 <- norm2
I0403 12:39:05.923719 26545 net.cpp:399] pool2 -> pool2
I0403 12:39:05.923774 26545 net.cpp:141] Setting up pool2
I0403 12:39:05.923799 26545 net.cpp:148] Top shape: 100 256 13 13 (4326400)
I0403 12:39:05.923815 26545 net.cpp:156] Memory required for data: 679564400
I0403 12:39:05.923830 26545 layer_factory.hpp:77] Creating layer conv3
I0403 12:39:05.923856 26545 net.cpp:91] Creating Layer conv3
I0403 12:39:05.923874 26545 net.cpp:425] conv3 <- pool2
I0403 12:39:05.923894 26545 net.cpp:399] conv3 -> conv3
I0403 12:39:05.962359 26545 net.cpp:141] Setting up conv3
I0403 12:39:05.962437 26545 net.cpp:148] Top shape: 100 384 13 13 (6489600)
I0403 12:39:05.962455 26545 net.cpp:156] Memory required for data: 705522800
I0403 12:39:05.962482 26545 layer_factory.hpp:77] Creating layer relu3
I0403 12:39:05.962507 26545 net.cpp:91] Creating Layer relu3
I0403 12:39:05.962525 26545 net.cpp:425] relu3 <- conv3
I0403 12:39:05.962550 26545 net.cpp:386] relu3 -> conv3 (in-place)
I0403 12:39:05.962836 26545 net.cpp:141] Setting up relu3
I0403 12:39:05.962864 26545 net.cpp:148] Top shape: 100 384 13 13 (6489600)
I0403 12:39:05.962880 26545 net.cpp:156] Memory required for data: 731481200
I0403 12:39:05.962896 26545 layer_factory.hpp:77] Creating layer conv4
I0403 12:39:05.962924 26545 net.cpp:91] Creating Layer conv4
I0403 12:39:05.962942 26545 net.cpp:425] conv4 <- conv3
I0403 12:39:05.962965 26545 net.cpp:399] conv4 -> conv4
I0403 12:39:05.992627 26545 net.cpp:141] Setting up conv4
I0403 12:39:05.992693 26545 net.cpp:148] Top shape: 100 384 13 13 (6489600)
I0403 12:39:05.992746 26545 net.cpp:156] Memory required for data: 757439600
I0403 12:39:05.992769 26545 layer_factory.hpp:77] Creating layer relu4
I0403 12:39:05.992792 26545 net.cpp:91] Creating Layer relu4
I0403 12:39:05.992810 26545 net.cpp:425] relu4 <- conv4
I0403 12:39:05.992833 26545 net.cpp:386] relu4 -> conv4 (in-place)
I0403 12:39:05.993118 26545 net.cpp:141] Setting up relu4
I0403 12:39:05.993146 26545 net.cpp:148] Top shape: 100 384 13 13 (6489600)
I0403 12:39:05.993163 26545 net.cpp:156] Memory required for data: 783398000
I0403 12:39:05.993180 26545 layer_factory.hpp:77] Creating layer conv5
I0403 12:39:05.993204 26545 net.cpp:91] Creating Layer conv5
I0403 12:39:05.993222 26545 net.cpp:425] conv5 <- conv4
I0403 12:39:05.993240 26545 net.cpp:399] conv5 -> conv5
I0403 12:39:06.013691 26545 net.cpp:141] Setting up conv5
I0403 12:39:06.013734 26545 net.cpp:148] Top shape: 100 256 13 13 (4326400)
I0403 12:39:06.013753 26545 net.cpp:156] Memory required for data: 800703600
I0403 12:39:06.013779 26545 layer_factory.hpp:77] Creating layer relu5
I0403 12:39:06.013803 26545 net.cpp:91] Creating Layer relu5
I0403 12:39:06.013820 26545 net.cpp:425] relu5 <- conv5
I0403 12:39:06.013841 26545 net.cpp:386] relu5 -> conv5 (in-place)
I0403 12:39:06.014122 26545 net.cpp:141] Setting up relu5
I0403 12:39:06.014149 26545 net.cpp:148] Top shape: 100 256 13 13 (4326400)
I0403 12:39:06.014166 26545 net.cpp:156] Memory required for data: 818009200
I0403 12:39:06.014181 26545 layer_factory.hpp:77] Creating layer pool5
I0403 12:39:06.014207 26545 net.cpp:91] Creating Layer pool5
I0403 12:39:06.014225 26545 net.cpp:425] pool5 <- conv5
I0403 12:39:06.014245 26545 net.cpp:399] pool5 -> pool5
I0403 12:39:06.014334 26545 net.cpp:141] Setting up pool5
I0403 12:39:06.014361 26545 net.cpp:148] Top shape: 100 256 6 6 (921600)
I0403 12:39:06.014377 26545 net.cpp:156] Memory required for data: 821695600
I0403 12:39:06.014394 26545 layer_factory.hpp:77] Creating layer fc6
I0403 12:39:06.014423 26545 net.cpp:91] Creating Layer fc6
I0403 12:39:06.014442 26545 net.cpp:425] fc6 <- pool5
I0403 12:39:06.014467 26545 net.cpp:399] fc6 -> fc6
I0403 12:39:07.585678 26545 net.cpp:141] Setting up fc6
I0403 12:39:07.585755 26545 net.cpp:148] Top shape: 100 4096 (409600)
I0403 12:39:07.585773 26545 net.cpp:156] Memory required for data: 823334000
I0403 12:39:07.585796 26545 layer_factory.hpp:77] Creating layer relu6
I0403 12:39:07.585821 26545 net.cpp:91] Creating Layer relu6
I0403 12:39:07.585839 26545 net.cpp:425] relu6 <- fc6
I0403 12:39:07.585860 26545 net.cpp:386] relu6 -> fc6 (in-place)
I0403 12:39:07.586086 26545 net.cpp:141] Setting up relu6
I0403 12:39:07.586110 26545 net.cpp:148] Top shape: 100 4096 (409600)
I0403 12:39:07.586127 26545 net.cpp:156] Memory required for data: 824972400
I0403 12:39:07.586143 26545 layer_factory.hpp:77] Creating layer drop6
I0403 12:39:07.586161 26545 net.cpp:91] Creating Layer drop6
I0403 12:39:07.586176 26545 net.cpp:425] drop6 <- fc6
I0403 12:39:07.586195 26545 net.cpp:386] drop6 -> fc6 (in-place)
I0403 12:39:07.586259 26545 net.cpp:141] Setting up drop6
I0403 12:39:07.586292 26545 net.cpp:148] Top shape: 100 4096 (409600)
I0403 12:39:07.586310 26545 net.cpp:156] Memory required for data: 826610800
I0403 12:39:07.586336 26545 layer_factory.hpp:77] Creating layer fc7
I0403 12:39:07.586356 26545 net.cpp:91] Creating Layer fc7
I0403 12:39:07.586372 26545 net.cpp:425] fc7 <- fc6
I0403 12:39:07.586392 26545 net.cpp:399] fc7 -> fc7
I0403 12:39:08.273983 26545 net.cpp:141] Setting up fc7
I0403 12:39:08.274060 26545 net.cpp:148] Top shape: 100 4096 (409600)
I0403 12:39:08.274077 26545 net.cpp:156] Memory required for data: 828249200
I0403 12:39:08.274099 26545 layer_factory.hpp:77] Creating layer relu7
I0403 12:39:08.274122 26545 net.cpp:91] Creating Layer relu7
I0403 12:39:08.274142 26545 net.cpp:425] relu7 <- fc7
I0403 12:39:08.274163 26545 net.cpp:386] relu7 -> fc7 (in-place)
I0403 12:39:08.274562 26545 net.cpp:141] Setting up relu7
I0403 12:39:08.274592 26545 net.cpp:148] Top shape: 100 4096 (409600)
I0403 12:39:08.274641 26545 net.cpp:156] Memory required for data: 829887600
I0403 12:39:08.274658 26545 layer_factory.hpp:77] Creating layer drop7
I0403 12:39:08.274678 26545 net.cpp:91] Creating Layer drop7
I0403 12:39:08.274694 26545 net.cpp:425] drop7 <- fc7
I0403 12:39:08.274714 26545 net.cpp:386] drop7 -> fc7 (in-place)
I0403 12:39:08.274758 26545 net.cpp:141] Setting up drop7
I0403 12:39:08.274781 26545 net.cpp:148] Top shape: 100 4096 (409600)
I0403 12:39:08.274797 26545 net.cpp:156] Memory required for data: 831526000
I0403 12:39:08.274811 26545 layer_factory.hpp:77] Creating layer fc8_plantvillage
I0403 12:39:08.274834 26545 net.cpp:91] Creating Layer fc8_plantvillage
I0403 12:39:08.274852 26545 net.cpp:425] fc8_plantvillage <- fc7
I0403 12:39:08.274874 26545 net.cpp:399] fc8_plantvillage -> fc8_plantvillage
I0403 12:39:08.281713 26545 net.cpp:141] Setting up fc8_plantvillage
I0403 12:39:08.281744 26545 net.cpp:148] Top shape: 100 38 (3800)
I0403 12:39:08.281761 26545 net.cpp:156] Memory required for data: 831541200
I0403 12:39:08.281792 26545 layer_factory.hpp:77] Creating layer fc8_plantvillage_fc8_plantvillage_0_split
I0403 12:39:08.281812 26545 net.cpp:91] Creating Layer fc8_plantvillage_fc8_plantvillage_0_split
I0403 12:39:08.281829 26545 net.cpp:425] fc8_plantvillage_fc8_plantvillage_0_split <- fc8_plantvillage
I0403 12:39:08.281853 26545 net.cpp:399] fc8_plantvillage_fc8_plantvillage_0_split -> fc8_plantvillage_fc8_plantvillage_0_split_0
I0403 12:39:08.281888 26545 net.cpp:399] fc8_plantvillage_fc8_plantvillage_0_split -> fc8_plantvillage_fc8_plantvillage_0_split_1
I0403 12:39:08.281908 26545 net.cpp:399] fc8_plantvillage_fc8_plantvillage_0_split -> fc8_plantvillage_fc8_plantvillage_0_split_2
I0403 12:39:08.281985 26545 net.cpp:141] Setting up fc8_plantvillage_fc8_plantvillage_0_split
I0403 12:39:08.282008 26545 net.cpp:148] Top shape: 100 38 (3800)
I0403 12:39:08.282027 26545 net.cpp:148] Top shape: 100 38 (3800)
I0403 12:39:08.282042 26545 net.cpp:148] Top shape: 100 38 (3800)
I0403 12:39:08.282057 26545 net.cpp:156] Memory required for data: 831586800
I0403 12:39:08.282071 26545 layer_factory.hpp:77] Creating layer prob
I0403 12:39:08.282089 26545 net.cpp:91] Creating Layer prob
I0403 12:39:08.282106 26545 net.cpp:425] prob <- fc8_plantvillage_fc8_plantvillage_0_split_0
I0403 12:39:08.282127 26545 net.cpp:399] prob -> prob
I0403 12:39:08.282367 26545 net.cpp:141] Setting up prob
I0403 12:39:08.282397 26545 net.cpp:148] Top shape: 100 38 (3800)
I0403 12:39:08.282414 26545 net.cpp:156] Memory required for data: 831602000
I0403 12:39:08.282429 26545 layer_factory.hpp:77] Creating layer hdf5out
I0403 12:39:08.282449 26545 net.cpp:91] Creating Layer hdf5out
I0403 12:39:08.282464 26545 net.cpp:425] hdf5out <- prob
I0403 12:39:08.282481 26545 net.cpp:425] hdf5out <- label_data_1_split_0
I0403 12:39:08.286615 26545 net.cpp:141] Setting up hdf5out
…
