…
I0403 12:27:13.378378 26267 net.cpp:313] The NetState phase (1) differed from the phase (0) specified by a rule in layer data
I0403 12:27:13.378677 26267 net.cpp:49] Initializing net from parameters: 
state {
  phase: TEST
}
layer {
  name: "data"
  type: "Data"
  top: "data"
  top: "label"
  include {
    phase: TEST
  }
  transform_param {
    crop_size: 227
    mean_file: "/home/mohanty/data/final_dataset/lmdb/color-20-80/mean.binaryproto"
  }
  data_param {
    source: "/home/mohanty/data/final_dataset/lmdb/color-20-80/test_db"
    batch_size: 100
    backend: LMDB
  }
}
layer {
  name: "conv1"
  type: "Convolution"
  bottom: "data"
  top: "conv1"
  param {
    lr_mult: 1
    decay_mult: 1
  }
  param {
    lr_mult: 2
    decay_mult: 0
  }
  convolution_param {
    num_output: 96
    kernel_size: 11
    stride: 4
    weight_filler {
      type: "gaussian"
      std: 0.01
    }
    bias_filler {
      type: "constant"
      value: 0
    }
  }
}
layer {
  name: "relu1"
  type: "ReLU"
  bottom: "conv1"
  top: "conv1"
}
layer {
  name: "norm1"
  type: "LRN"
  bottom: "conv1"
  top: "norm1"
  lrn_param {
    local_size: 5
    alpha: 0.0001
    beta: 0.75
  }
}
layer {
  name: "pool1"
  type: "Pooling"
  bottom: "norm1"
  top: "pool1"
  pooling_param {
    pool: MAX
    kernel_size: 3
    stride: 2
  }
}
layer {
  name: "conv2"
  type: "Convolution"
  bottom: "pool1"
  top: "conv2"
  param {
    lr_mult: 1
    decay_mult: 1
  }
  param {
    lr_mult: 2
    decay_mult: 0
  }
  convolution_param {
    num_output: 256
    pad: 2
    kernel_size: 5
    group: 2
    weight_filler {
      type: "gaussian"
      std: 0.01
    }
    bias_filler {
      type: "constant"
      value: 0.1
    }
  }
}
layer {
  name: "relu2"
  type: "ReLU"
  bottom: "conv2"
  top: "conv2"
}
layer {
  name: "norm2"
  type: "LRN"
  bottom: "conv2"
  top: "norm2"
  lrn_param {
    local_size: 5
    alpha: 0.0001
    beta: 0.75
  }
}
layer {
  name: "pool2"
  type: "Pooling"
  bottom: "norm2"
  top: "pool2"
  pooling_param {
    pool: MAX
    kernel_size: 3
    stride: 2
  }
}
layer {
  name: "conv3"
  type: "Convolution"
  bottom: "pool2"
  top: "conv3"
  param {
    lr_mult: 1
    decay_mult: 1
  }
  param {
    lr_mult: 2
    decay_mult: 0
  }
  convolution_param {
    num_output: 384
    pad: 1
    kernel_size: 3
    weight_filler {
      type: "gaussian"
      std: 0.01
    }
    bias_filler {
      type: "constant"
      value: 0
    }
  }
}
layer {
  name: "relu3"
  type: "ReLU"
  bottom: "conv3"
  top: "conv3"
}
layer {
  name: "conv4"
  type: "Convolution"
  bottom: "conv3"
  top: "conv4"
  param {
    lr_mult: 1
    decay_mult: 1
  }
  param {
    lr_mult: 2
    decay_mult: 0
  }
  convolution_param {
    num_output: 384
    pad: 1
    kernel_size: 3
    group: 2
    weight_filler {
      type: "gaussian"
      std: 0.01
    }
    bias_filler {
      type: "constant"
      value: 0.1
    }
  }
}
layer {
  name: "relu4"
  type: "ReLU"
  bottom: "conv4"
  top: "conv4"
}
layer {
  name: "conv5"
  type: "Convolution"
  bottom: "conv4"
  top: "conv5"
  param {
    lr_mult: 1
    decay_mult: 1
  }
  param {
    lr_mult: 2
    decay_mult: 0
  }
  convolution_param {
    num_output: 256
    pad: 1
    kernel_size: 3
    group: 2
    weight_filler {
      type: "gaussian"
      std: 0.01
    }
    bias_filler {
      type: "constant"
      value: 0.1
    }
  }
}
layer {
  name: "relu5"
  type: "ReLU"
  bottom: "conv5"
  top: "conv5"
}
layer {
  name: "pool5"
  type: "Pooling"
  bottom: "conv5"
  top: "pool5"
  pooling_param {
    pool: MAX
    kernel_size: 3
    stride: 2
  }
}
layer {
  name: "fc6"
  type: "InnerProduct"
  bottom: "pool5"
  top: "fc6"
  param {
    lr_mult: 1
    decay_mult: 1
  }
  param {
    lr_mult: 2
    decay_mult: 0
  }
  inner_product_param {
    num_output: 4096
    weight_filler {
      type: "gaussian"
      std: 0.005
    }
    bias_filler {
      type: "constant"
      value: 0.1
    }
  }
}
layer {
  name: "relu6"
  type: "ReLU"
  bottom: "fc6"
  top: "fc6"
}
layer {
  name: "drop6"
  type: "Dropout"
  bottom: "fc6"
  top: "fc6"
  dropout_param {
    dropout_ratio: 0.5
  }
}
layer {
  name: "fc7"
  type: "InnerProduct"
  bottom: "fc6"
  top: "fc7"
  param {
    lr_mult: 1
    decay_mult: 1
  }
  param {
    lr_mult: 2
    decay_mult: 0
  }
  inner_product_param {
    num_output: 4096
    weight_filler {
      type: "gaussian"
      std: 0.005
    }
    bias_filler {
      type: "constant"
      value: 0.1
    }
  }
}
layer {
  name: "relu7"
  type: "ReLU"
  bottom: "fc7"
  top: "fc7"
}
layer {
  name: "drop7"
  type: "Dropout"
  bottom: "fc7"
  top: "fc7"
  dropout_param {
    dropout_ratio: 0.5
  }
}
layer {
  name: "fc8_plantvillage"
  type: "InnerProduct"
  bottom: "fc7"
  top: "fc8_plantvillage"
  param {
    lr_mult: 1
    decay_mult: 1
  }
  param {
    lr_mult: 2
    decay_mult: 0
  }
  inner_product_param {
    num_output: 38
    weight_filler {
      type: "gaussian"
      std: 0.01
    }
    bias_filler {
      type: "constant"
      value: 0
    }
  }
}
layer {
  name: "prob"
  type: "Softmax"
  bottom: "fc8_plantvillage"
  top: "prob"
  include {
    phase: TEST
  }
}
layer {
  name: "hdf5out"
  type: "HDF5Output"
  bottom: "prob"
  bottom: "label"
  include {
    phase: TEST
  }
  hdf5_output_param {
    file_name: "hdf5_dumps/iter_756.h5"
  }
}
layer {
  name: "loss"
  type: "SoftmaxWithLoss"
  bottom: "fc8_plantvillage"
  bottom: "label"
  top: "loss"
}
layer {
  name: "accuracy"
  type: "Accuracy"
  bottom: "fc8_plantvillage"
  bottom: "label"
  top: "accuracy"
  include {
    phase: TEST
  }
}
I0403 12:27:13.379199 26267 layer_factory.hpp:77] Creating layer data
I0403 12:27:13.379861 26267 net.cpp:91] Creating Layer data
I0403 12:27:13.379894 26267 net.cpp:399] data -> data
I0403 12:27:13.379950 26267 net.cpp:399] data -> label
I0403 12:27:13.379988 26267 data_transformer.cpp:25] Loading mean file from: /home/mohanty/data/final_dataset/lmdb/color-20-80/mean.binaryproto
I0403 12:27:13.382295 26270 db_lmdb.cpp:38] Opened lmdb /home/mohanty/data/final_dataset/lmdb/color-20-80/test_db
I0403 12:27:13.394667 26267 data_layer.cpp:41] output data size: 100,3,227,227
I0403 12:27:13.529737 26267 net.cpp:141] Setting up data
I0403 12:27:13.529825 26267 net.cpp:148] Top shape: 100 3 227 227 (15458700)
I0403 12:27:13.529850 26267 net.cpp:148] Top shape: 100 (100)
I0403 12:27:13.529867 26267 net.cpp:156] Memory required for data: 61835200
I0403 12:27:13.529897 26267 layer_factory.hpp:77] Creating layer label_data_1_split
I0403 12:27:13.529925 26267 net.cpp:91] Creating Layer label_data_1_split
I0403 12:27:13.529945 26267 net.cpp:425] label_data_1_split <- label
I0403 12:27:13.529978 26267 net.cpp:399] label_data_1_split -> label_data_1_split_0
I0403 12:27:13.530009 26267 net.cpp:399] label_data_1_split -> label_data_1_split_1
I0403 12:27:13.530030 26267 net.cpp:399] label_data_1_split -> label_data_1_split_2
I0403 12:27:13.530097 26267 net.cpp:141] Setting up label_data_1_split
I0403 12:27:13.530123 26267 net.cpp:148] Top shape: 100 (100)
I0403 12:27:13.530141 26267 net.cpp:148] Top shape: 100 (100)
I0403 12:27:13.530158 26267 net.cpp:148] Top shape: 100 (100)
I0403 12:27:13.530174 26267 net.cpp:156] Memory required for data: 61836400
I0403 12:27:13.530190 26267 layer_factory.hpp:77] Creating layer conv1
I0403 12:27:13.530225 26267 net.cpp:91] Creating Layer conv1
I0403 12:27:13.530244 26267 net.cpp:425] conv1 <- data
I0403 12:27:13.530272 26267 net.cpp:399] conv1 -> conv1
I0403 12:27:13.677342 26267 net.cpp:141] Setting up conv1
I0403 12:27:13.677420 26267 net.cpp:148] Top shape: 100 96 55 55 (29040000)
I0403 12:27:13.677439 26267 net.cpp:156] Memory required for data: 177996400
I0403 12:27:13.677471 26267 layer_factory.hpp:77] Creating layer relu1
I0403 12:27:13.677500 26267 net.cpp:91] Creating Layer relu1
I0403 12:27:13.677520 26267 net.cpp:425] relu1 <- conv1
I0403 12:27:13.677541 26267 net.cpp:386] relu1 -> conv1 (in-place)
I0403 12:27:13.677806 26267 net.cpp:141] Setting up relu1
I0403 12:27:13.677835 26267 net.cpp:148] Top shape: 100 96 55 55 (29040000)
I0403 12:27:13.677852 26267 net.cpp:156] Memory required for data: 294156400
I0403 12:27:13.677901 26267 layer_factory.hpp:77] Creating layer norm1
I0403 12:27:13.677932 26267 net.cpp:91] Creating Layer norm1
I0403 12:27:13.677953 26267 net.cpp:425] norm1 <- conv1
I0403 12:27:13.677971 26267 net.cpp:399] norm1 -> norm1
I0403 12:27:13.678374 26267 net.cpp:141] Setting up norm1
I0403 12:27:13.678402 26267 net.cpp:148] Top shape: 100 96 55 55 (29040000)
I0403 12:27:13.678419 26267 net.cpp:156] Memory required for data: 410316400
I0403 12:27:13.678436 26267 layer_factory.hpp:77] Creating layer pool1
I0403 12:27:13.678459 26267 net.cpp:91] Creating Layer pool1
I0403 12:27:13.678478 26267 net.cpp:425] pool1 <- norm1
I0403 12:27:13.678498 26267 net.cpp:399] pool1 -> pool1
I0403 12:27:13.678575 26267 net.cpp:141] Setting up pool1
I0403 12:27:13.678599 26267 net.cpp:148] Top shape: 100 96 27 27 (6998400)
I0403 12:27:13.678616 26267 net.cpp:156] Memory required for data: 438310000
I0403 12:27:13.678632 26267 layer_factory.hpp:77] Creating layer conv2
I0403 12:27:13.678656 26267 net.cpp:91] Creating Layer conv2
I0403 12:27:13.678674 26267 net.cpp:425] conv2 <- pool1
I0403 12:27:13.678694 26267 net.cpp:399] conv2 -> conv2
I0403 12:27:13.693997 26267 net.cpp:141] Setting up conv2
I0403 12:27:13.694046 26267 net.cpp:148] Top shape: 100 256 27 27 (18662400)
I0403 12:27:13.694064 26267 net.cpp:156] Memory required for data: 512959600
I0403 12:27:13.694089 26267 layer_factory.hpp:77] Creating layer relu2
I0403 12:27:13.694111 26267 net.cpp:91] Creating Layer relu2
I0403 12:27:13.694128 26267 net.cpp:425] relu2 <- conv2
I0403 12:27:13.694147 26267 net.cpp:386] relu2 -> conv2 (in-place)
I0403 12:27:13.694437 26267 net.cpp:141] Setting up relu2
I0403 12:27:13.694465 26267 net.cpp:148] Top shape: 100 256 27 27 (18662400)
I0403 12:27:13.694481 26267 net.cpp:156] Memory required for data: 587609200
I0403 12:27:13.694499 26267 layer_factory.hpp:77] Creating layer norm2
I0403 12:27:13.694520 26267 net.cpp:91] Creating Layer norm2
I0403 12:27:13.694540 26267 net.cpp:425] norm2 <- conv2
I0403 12:27:13.694558 26267 net.cpp:399] norm2 -> norm2
I0403 12:27:13.694751 26267 net.cpp:141] Setting up norm2
I0403 12:27:13.694778 26267 net.cpp:148] Top shape: 100 256 27 27 (18662400)
I0403 12:27:13.694795 26267 net.cpp:156] Memory required for data: 662258800
I0403 12:27:13.694811 26267 layer_factory.hpp:77] Creating layer pool2
I0403 12:27:13.694831 26267 net.cpp:91] Creating Layer pool2
I0403 12:27:13.694849 26267 net.cpp:425] pool2 <- norm2
I0403 12:27:13.694867 26267 net.cpp:399] pool2 -> pool2
I0403 12:27:13.694919 26267 net.cpp:141] Setting up pool2
I0403 12:27:13.694944 26267 net.cpp:148] Top shape: 100 256 13 13 (4326400)
I0403 12:27:13.694962 26267 net.cpp:156] Memory required for data: 679564400
I0403 12:27:13.694977 26267 layer_factory.hpp:77] Creating layer conv3
I0403 12:27:13.695000 26267 net.cpp:91] Creating Layer conv3
I0403 12:27:13.695019 26267 net.cpp:425] conv3 <- pool2
I0403 12:27:13.695039 26267 net.cpp:399] conv3 -> conv3
I0403 12:27:13.734393 26267 net.cpp:141] Setting up conv3
I0403 12:27:13.734467 26267 net.cpp:148] Top shape: 100 384 13 13 (6489600)
I0403 12:27:13.734486 26267 net.cpp:156] Memory required for data: 705522800
I0403 12:27:13.734513 26267 layer_factory.hpp:77] Creating layer relu3
I0403 12:27:13.734537 26267 net.cpp:91] Creating Layer relu3
I0403 12:27:13.734556 26267 net.cpp:425] relu3 <- conv3
I0403 12:27:13.734580 26267 net.cpp:386] relu3 -> conv3 (in-place)
I0403 12:27:13.744192 26267 net.cpp:141] Setting up relu3
I0403 12:27:13.744236 26267 net.cpp:148] Top shape: 100 384 13 13 (6489600)
I0403 12:27:13.744271 26267 net.cpp:156] Memory required for data: 731481200
I0403 12:27:13.744294 26267 layer_factory.hpp:77] Creating layer conv4
I0403 12:27:13.744325 26267 net.cpp:91] Creating Layer conv4
I0403 12:27:13.744346 26267 net.cpp:425] conv4 <- conv3
I0403 12:27:13.744366 26267 net.cpp:399] conv4 -> conv4
I0403 12:27:13.774689 26267 net.cpp:141] Setting up conv4
I0403 12:27:13.774758 26267 net.cpp:148] Top shape: 100 384 13 13 (6489600)
I0403 12:27:13.774807 26267 net.cpp:156] Memory required for data: 757439600
I0403 12:27:13.774832 26267 layer_factory.hpp:77] Creating layer relu4
I0403 12:27:13.774857 26267 net.cpp:91] Creating Layer relu4
I0403 12:27:13.774876 26267 net.cpp:425] relu4 <- conv4
I0403 12:27:13.774899 26267 net.cpp:386] relu4 -> conv4 (in-place)
I0403 12:27:13.775178 26267 net.cpp:141] Setting up relu4
I0403 12:27:13.775205 26267 net.cpp:148] Top shape: 100 384 13 13 (6489600)
I0403 12:27:13.775221 26267 net.cpp:156] Memory required for data: 783398000
I0403 12:27:13.775238 26267 layer_factory.hpp:77] Creating layer conv5
I0403 12:27:13.775271 26267 net.cpp:91] Creating Layer conv5
I0403 12:27:13.775292 26267 net.cpp:425] conv5 <- conv4
I0403 12:27:13.775312 26267 net.cpp:399] conv5 -> conv5
I0403 12:27:13.796212 26267 net.cpp:141] Setting up conv5
I0403 12:27:13.796274 26267 net.cpp:148] Top shape: 100 256 13 13 (4326400)
I0403 12:27:13.796294 26267 net.cpp:156] Memory required for data: 800703600
I0403 12:27:13.796321 26267 layer_factory.hpp:77] Creating layer relu5
I0403 12:27:13.796345 26267 net.cpp:91] Creating Layer relu5
I0403 12:27:13.796363 26267 net.cpp:425] relu5 <- conv5
I0403 12:27:13.796386 26267 net.cpp:386] relu5 -> conv5 (in-place)
I0403 12:27:13.796741 26267 net.cpp:141] Setting up relu5
I0403 12:27:13.796769 26267 net.cpp:148] Top shape: 100 256 13 13 (4326400)
I0403 12:27:13.796785 26267 net.cpp:156] Memory required for data: 818009200
I0403 12:27:13.796802 26267 layer_factory.hpp:77] Creating layer pool5
I0403 12:27:13.796825 26267 net.cpp:91] Creating Layer pool5
I0403 12:27:13.796843 26267 net.cpp:425] pool5 <- conv5
I0403 12:27:13.796864 26267 net.cpp:399] pool5 -> pool5
I0403 12:27:13.796926 26267 net.cpp:141] Setting up pool5
I0403 12:27:13.796952 26267 net.cpp:148] Top shape: 100 256 6 6 (921600)
I0403 12:27:13.796967 26267 net.cpp:156] Memory required for data: 821695600
I0403 12:27:13.796983 26267 layer_factory.hpp:77] Creating layer fc6
I0403 12:27:13.797014 26267 net.cpp:91] Creating Layer fc6
I0403 12:27:13.797034 26267 net.cpp:425] fc6 <- pool5
I0403 12:27:13.797055 26267 net.cpp:399] fc6 -> fc6
I0403 12:27:15.372506 26267 net.cpp:141] Setting up fc6
I0403 12:27:15.372563 26267 net.cpp:148] Top shape: 100 4096 (409600)
I0403 12:27:15.372580 26267 net.cpp:156] Memory required for data: 823334000
I0403 12:27:15.372601 26267 layer_factory.hpp:77] Creating layer relu6
I0403 12:27:15.372627 26267 net.cpp:91] Creating Layer relu6
I0403 12:27:15.372645 26267 net.cpp:425] relu6 <- fc6
I0403 12:27:15.372666 26267 net.cpp:386] relu6 -> fc6 (in-place)
I0403 12:27:15.372886 26267 net.cpp:141] Setting up relu6
I0403 12:27:15.372913 26267 net.cpp:148] Top shape: 100 4096 (409600)
I0403 12:27:15.372930 26267 net.cpp:156] Memory required for data: 824972400
I0403 12:27:15.372944 26267 layer_factory.hpp:77] Creating layer drop6
I0403 12:27:15.372963 26267 net.cpp:91] Creating Layer drop6
I0403 12:27:15.372979 26267 net.cpp:425] drop6 <- fc6
I0403 12:27:15.372999 26267 net.cpp:386] drop6 -> fc6 (in-place)
I0403 12:27:15.373049 26267 net.cpp:141] Setting up drop6
I0403 12:27:15.373072 26267 net.cpp:148] Top shape: 100 4096 (409600)
I0403 12:27:15.373087 26267 net.cpp:156] Memory required for data: 826610800
I0403 12:27:15.373102 26267 layer_factory.hpp:77] Creating layer fc7
I0403 12:27:15.373128 26267 net.cpp:91] Creating Layer fc7
I0403 12:27:15.373144 26267 net.cpp:425] fc7 <- fc6
I0403 12:27:15.373165 26267 net.cpp:399] fc7 -> fc7
I0403 12:27:16.061625 26267 net.cpp:141] Setting up fc7
I0403 12:27:16.061668 26267 net.cpp:148] Top shape: 100 4096 (409600)
I0403 12:27:16.061686 26267 net.cpp:156] Memory required for data: 828249200
I0403 12:27:16.061710 26267 layer_factory.hpp:77] Creating layer relu7
I0403 12:27:16.061734 26267 net.cpp:91] Creating Layer relu7
I0403 12:27:16.061753 26267 net.cpp:425] relu7 <- fc7
I0403 12:27:16.061775 26267 net.cpp:386] relu7 -> fc7 (in-place)
I0403 12:27:16.062178 26267 net.cpp:141] Setting up relu7
I0403 12:27:16.062208 26267 net.cpp:148] Top shape: 100 4096 (409600)
I0403 12:27:16.062264 26267 net.cpp:156] Memory required for data: 829887600
I0403 12:27:16.062283 26267 layer_factory.hpp:77] Creating layer drop7
I0403 12:27:16.062302 26267 net.cpp:91] Creating Layer drop7
I0403 12:27:16.062319 26267 net.cpp:425] drop7 <- fc7
I0403 12:27:16.062352 26267 net.cpp:386] drop7 -> fc7 (in-place)
I0403 12:27:16.062400 26267 net.cpp:141] Setting up drop7
I0403 12:27:16.062427 26267 net.cpp:148] Top shape: 100 4096 (409600)
I0403 12:27:16.062443 26267 net.cpp:156] Memory required for data: 831526000
I0403 12:27:16.062458 26267 layer_factory.hpp:77] Creating layer fc8_plantvillage
I0403 12:27:16.062485 26267 net.cpp:91] Creating Layer fc8_plantvillage
I0403 12:27:16.062505 26267 net.cpp:425] fc8_plantvillage <- fc7
I0403 12:27:16.062528 26267 net.cpp:399] fc8_plantvillage -> fc8_plantvillage
I0403 12:27:16.069725 26267 net.cpp:141] Setting up fc8_plantvillage
I0403 12:27:16.069756 26267 net.cpp:148] Top shape: 100 38 (3800)
I0403 12:27:16.069773 26267 net.cpp:156] Memory required for data: 831541200
I0403 12:27:16.069792 26267 layer_factory.hpp:77] Creating layer fc8_plantvillage_fc8_plantvillage_0_split
I0403 12:27:16.069813 26267 net.cpp:91] Creating Layer fc8_plantvillage_fc8_plantvillage_0_split
I0403 12:27:16.069830 26267 net.cpp:425] fc8_plantvillage_fc8_plantvillage_0_split <- fc8_plantvillage
I0403 12:27:16.069854 26267 net.cpp:399] fc8_plantvillage_fc8_plantvillage_0_split -> fc8_plantvillage_fc8_plantvillage_0_split_0
I0403 12:27:16.069877 26267 net.cpp:399] fc8_plantvillage_fc8_plantvillage_0_split -> fc8_plantvillage_fc8_plantvillage_0_split_1
I0403 12:27:16.069901 26267 net.cpp:399] fc8_plantvillage_fc8_plantvillage_0_split -> fc8_plantvillage_fc8_plantvillage_0_split_2
I0403 12:27:16.069984 26267 net.cpp:141] Setting up fc8_plantvillage_fc8_plantvillage_0_split
I0403 12:27:16.070010 26267 net.cpp:148] Top shape: 100 38 (3800)
I0403 12:27:16.070029 26267 net.cpp:148] Top shape: 100 38 (3800)
I0403 12:27:16.070045 26267 net.cpp:148] Top shape: 100 38 (3800)
I0403 12:27:16.070061 26267 net.cpp:156] Memory required for data: 831586800
I0403 12:27:16.070078 26267 layer_factory.hpp:77] Creating layer prob
I0403 12:27:16.070097 26267 net.cpp:91] Creating Layer prob
I0403 12:27:16.070114 26267 net.cpp:425] prob <- fc8_plantvillage_fc8_plantvillage_0_split_0
I0403 12:27:16.070137 26267 net.cpp:399] prob -> prob
I0403 12:27:16.070387 26267 net.cpp:141] Setting up prob
I0403 12:27:16.070420 26267 net.cpp:148] Top shape: 100 38 (3800)
I0403 12:27:16.070437 26267 net.cpp:156] Memory required for data: 831602000
I0403 12:27:16.070453 26267 layer_factory.hpp:77] Creating layer hdf5out
I0403 12:27:16.070474 26267 net.cpp:91] Creating Layer hdf5out
I0403 12:27:16.070492 26267 net.cpp:425] hdf5out <- prob
I0403 12:27:16.070509 26267 net.cpp:425] hdf5out <- label_data_1_split_0
I0403 12:27:16.087291 26267 net.cpp:141] Setting up hdf5out
…
