…
I0403 12:50:58.045444 26818 net.cpp:313] The NetState phase (1) differed from the phase (0) specified by a rule in layer data
I0403 12:50:58.045749 26818 net.cpp:49] Initializing net from parameters: 
state {
  phase: TEST
}
layer {
  name: "data"
  type: "Data"
  top: "data"
  top: "label"
  include {
    phase: TEST
  }
  transform_param {
    crop_size: 227
    mean_file: "/home/mohanty/data/final_dataset/lmdb/color-20-80/mean.binaryproto"
  }
  data_param {
    source: "/home/mohanty/data/final_dataset/lmdb/color-20-80/test_db"
    batch_size: 100
    backend: LMDB
  }
}
layer {
  name: "conv1"
  type: "Convolution"
  bottom: "data"
  top: "conv1"
  param {
    lr_mult: 1
    decay_mult: 1
  }
  param {
    lr_mult: 2
    decay_mult: 0
  }
  convolution_param {
    num_output: 96
    kernel_size: 11
    stride: 4
    weight_filler {
      type: "gaussian"
      std: 0.01
    }
    bias_filler {
      type: "constant"
      value: 0
    }
  }
}
layer {
  name: "relu1"
  type: "ReLU"
  bottom: "conv1"
  top: "conv1"
}
layer {
  name: "norm1"
  type: "LRN"
  bottom: "conv1"
  top: "norm1"
  lrn_param {
    local_size: 5
    alpha: 0.0001
    beta: 0.75
  }
}
layer {
  name: "pool1"
  type: "Pooling"
  bottom: "norm1"
  top: "pool1"
  pooling_param {
    pool: MAX
    kernel_size: 3
    stride: 2
  }
}
layer {
  name: "conv2"
  type: "Convolution"
  bottom: "pool1"
  top: "conv2"
  param {
    lr_mult: 1
    decay_mult: 1
  }
  param {
    lr_mult: 2
    decay_mult: 0
  }
  convolution_param {
    num_output: 256
    pad: 2
    kernel_size: 5
    group: 2
    weight_filler {
      type: "gaussian"
      std: 0.01
    }
    bias_filler {
      type: "constant"
      value: 0.1
    }
  }
}
layer {
  name: "relu2"
  type: "ReLU"
  bottom: "conv2"
  top: "conv2"
}
layer {
  name: "norm2"
  type: "LRN"
  bottom: "conv2"
  top: "norm2"
  lrn_param {
    local_size: 5
    alpha: 0.0001
    beta: 0.75
  }
}
layer {
  name: "pool2"
  type: "Pooling"
  bottom: "norm2"
  top: "pool2"
  pooling_param {
    pool: MAX
    kernel_size: 3
    stride: 2
  }
}
layer {
  name: "conv3"
  type: "Convolution"
  bottom: "pool2"
  top: "conv3"
  param {
    lr_mult: 1
    decay_mult: 1
  }
  param {
    lr_mult: 2
    decay_mult: 0
  }
  convolution_param {
    num_output: 384
    pad: 1
    kernel_size: 3
    weight_filler {
      type: "gaussian"
      std: 0.01
    }
    bias_filler {
      type: "constant"
      value: 0
    }
  }
}
layer {
  name: "relu3"
  type: "ReLU"
  bottom: "conv3"
  top: "conv3"
}
layer {
  name: "conv4"
  type: "Convolution"
  bottom: "conv3"
  top: "conv4"
  param {
    lr_mult: 1
    decay_mult: 1
  }
  param {
    lr_mult: 2
    decay_mult: 0
  }
  convolution_param {
    num_output: 384
    pad: 1
    kernel_size: 3
    group: 2
    weight_filler {
      type: "gaussian"
      std: 0.01
    }
    bias_filler {
      type: "constant"
      value: 0.1
    }
  }
}
layer {
  name: "relu4"
  type: "ReLU"
  bottom: "conv4"
  top: "conv4"
}
layer {
  name: "conv5"
  type: "Convolution"
  bottom: "conv4"
  top: "conv5"
  param {
    lr_mult: 1
    decay_mult: 1
  }
  param {
    lr_mult: 2
    decay_mult: 0
  }
  convolution_param {
    num_output: 256
    pad: 1
    kernel_size: 3
    group: 2
    weight_filler {
      type: "gaussian"
      std: 0.01
    }
    bias_filler {
      type: "constant"
      value: 0.1
    }
  }
}
layer {
  name: "relu5"
  type: "ReLU"
  bottom: "conv5"
  top: "conv5"
}
layer {
  name: "pool5"
  type: "Pooling"
  bottom: "conv5"
  top: "pool5"
  pooling_param {
    pool: MAX
    kernel_size: 3
    stride: 2
  }
}
layer {
  name: "fc6"
  type: "InnerProduct"
  bottom: "pool5"
  top: "fc6"
  param {
    lr_mult: 1
    decay_mult: 1
  }
  param {
    lr_mult: 2
    decay_mult: 0
  }
  inner_product_param {
    num_output: 4096
    weight_filler {
      type: "gaussian"
      std: 0.005
    }
    bias_filler {
      type: "constant"
      value: 0.1
    }
  }
}
layer {
  name: "relu6"
  type: "ReLU"
  bottom: "fc6"
  top: "fc6"
}
layer {
  name: "drop6"
  type: "Dropout"
  bottom: "fc6"
  top: "fc6"
  dropout_param {
    dropout_ratio: 0.5
  }
}
layer {
  name: "fc7"
  type: "InnerProduct"
  bottom: "fc6"
  top: "fc7"
  param {
    lr_mult: 1
    decay_mult: 1
  }
  param {
    lr_mult: 2
    decay_mult: 0
  }
  inner_product_param {
    num_output: 4096
    weight_filler {
      type: "gaussian"
      std: 0.005
    }
    bias_filler {
      type: "constant"
      value: 0.1
    }
  }
}
layer {
  name: "relu7"
  type: "ReLU"
  bottom: "fc7"
  top: "fc7"
}
layer {
  name: "drop7"
  type: "Dropout"
  bottom: "fc7"
  top: "fc7"
  dropout_param {
    dropout_ratio: 0.5
  }
}
layer {
  name: "fc8_plantvillage"
  type: "InnerProduct"
  bottom: "fc7"
  top: "fc8_plantvillage"
  param {
    lr_mult: 1
    decay_mult: 1
  }
  param {
    lr_mult: 2
    decay_mult: 0
  }
  inner_product_param {
    num_output: 38
    weight_filler {
      type: "gaussian"
      std: 0.01
    }
    bias_filler {
      type: "constant"
      value: 0
    }
  }
}
layer {
  name: "prob"
  type: "Softmax"
  bottom: "fc8_plantvillage"
  top: "prob"
  include {
    phase: TEST
  }
}
layer {
  name: "hdf5out"
  type: "HDF5Output"
  bottom: "prob"
  bottom: "label"
  include {
    phase: TEST
  }
  hdf5_output_param {
    file_name: "hdf5_dumps/iter_2484.h5"
  }
}
layer {
  name: "loss"
  type: "SoftmaxWithLoss"
  bottom: "fc8_plantvillage"
  bottom: "label"
  top: "loss"
}
layer {
  name: "accuracy"
  type: "Accuracy"
  bottom: "fc8_plantvillage"
  bottom: "label"
  top: "accuracy"
  include {
    phase: TEST
  }
}
I0403 12:50:58.046314 26818 layer_factory.hpp:77] Creating layer data
I0403 12:50:58.046958 26818 net.cpp:91] Creating Layer data
I0403 12:50:58.046990 26818 net.cpp:399] data -> data
I0403 12:50:58.047047 26818 net.cpp:399] data -> label
I0403 12:50:58.047086 26818 data_transformer.cpp:25] Loading mean file from: /home/mohanty/data/final_dataset/lmdb/color-20-80/mean.binaryproto
I0403 12:50:58.050134 26821 db_lmdb.cpp:38] Opened lmdb /home/mohanty/data/final_dataset/lmdb/color-20-80/test_db
I0403 12:50:58.061609 26818 data_layer.cpp:41] output data size: 100,3,227,227
I0403 12:50:58.192010 26818 net.cpp:141] Setting up data
I0403 12:50:58.192073 26818 net.cpp:148] Top shape: 100 3 227 227 (15458700)
I0403 12:50:58.192100 26818 net.cpp:148] Top shape: 100 (100)
I0403 12:50:58.192116 26818 net.cpp:156] Memory required for data: 61835200
I0403 12:50:58.192147 26818 layer_factory.hpp:77] Creating layer label_data_1_split
I0403 12:50:58.192176 26818 net.cpp:91] Creating Layer label_data_1_split
I0403 12:50:58.192195 26818 net.cpp:425] label_data_1_split <- label
I0403 12:50:58.192229 26818 net.cpp:399] label_data_1_split -> label_data_1_split_0
I0403 12:50:58.192263 26818 net.cpp:399] label_data_1_split -> label_data_1_split_1
I0403 12:50:58.192287 26818 net.cpp:399] label_data_1_split -> label_data_1_split_2
I0403 12:50:58.192355 26818 net.cpp:141] Setting up label_data_1_split
I0403 12:50:58.192384 26818 net.cpp:148] Top shape: 100 (100)
I0403 12:50:58.192404 26818 net.cpp:148] Top shape: 100 (100)
I0403 12:50:58.192421 26818 net.cpp:148] Top shape: 100 (100)
I0403 12:50:58.192436 26818 net.cpp:156] Memory required for data: 61836400
I0403 12:50:58.192452 26818 layer_factory.hpp:77] Creating layer conv1
I0403 12:50:58.192486 26818 net.cpp:91] Creating Layer conv1
I0403 12:50:58.192507 26818 net.cpp:425] conv1 <- data
I0403 12:50:58.192529 26818 net.cpp:399] conv1 -> conv1
I0403 12:50:58.340039 26818 net.cpp:141] Setting up conv1
I0403 12:50:58.340116 26818 net.cpp:148] Top shape: 100 96 55 55 (29040000)
I0403 12:50:58.340134 26818 net.cpp:156] Memory required for data: 177996400
I0403 12:50:58.340167 26818 layer_factory.hpp:77] Creating layer relu1
I0403 12:50:58.340198 26818 net.cpp:91] Creating Layer relu1
I0403 12:50:58.340217 26818 net.cpp:425] relu1 <- conv1
I0403 12:50:58.340239 26818 net.cpp:386] relu1 -> conv1 (in-place)
I0403 12:50:58.340499 26818 net.cpp:141] Setting up relu1
I0403 12:50:58.340528 26818 net.cpp:148] Top shape: 100 96 55 55 (29040000)
I0403 12:50:58.340545 26818 net.cpp:156] Memory required for data: 294156400
I0403 12:50:58.340595 26818 layer_factory.hpp:77] Creating layer norm1
I0403 12:50:58.340623 26818 net.cpp:91] Creating Layer norm1
I0403 12:50:58.340642 26818 net.cpp:425] norm1 <- conv1
I0403 12:50:58.340663 26818 net.cpp:399] norm1 -> norm1
I0403 12:50:58.340980 26818 net.cpp:141] Setting up norm1
I0403 12:50:58.341008 26818 net.cpp:148] Top shape: 100 96 55 55 (29040000)
I0403 12:50:58.341024 26818 net.cpp:156] Memory required for data: 410316400
I0403 12:50:58.341040 26818 layer_factory.hpp:77] Creating layer pool1
I0403 12:50:58.341064 26818 net.cpp:91] Creating Layer pool1
I0403 12:50:58.341084 26818 net.cpp:425] pool1 <- norm1
I0403 12:50:58.341102 26818 net.cpp:399] pool1 -> pool1
I0403 12:50:58.341171 26818 net.cpp:141] Setting up pool1
I0403 12:50:58.341197 26818 net.cpp:148] Top shape: 100 96 27 27 (6998400)
I0403 12:50:58.341213 26818 net.cpp:156] Memory required for data: 438310000
I0403 12:50:58.341228 26818 layer_factory.hpp:77] Creating layer conv2
I0403 12:50:58.341253 26818 net.cpp:91] Creating Layer conv2
I0403 12:50:58.341270 26818 net.cpp:425] conv2 <- pool1
I0403 12:50:58.341295 26818 net.cpp:399] conv2 -> conv2
I0403 12:50:58.356166 26818 net.cpp:141] Setting up conv2
I0403 12:50:58.356201 26818 net.cpp:148] Top shape: 100 256 27 27 (18662400)
I0403 12:50:58.356220 26818 net.cpp:156] Memory required for data: 512959600
I0403 12:50:58.356243 26818 layer_factory.hpp:77] Creating layer relu2
I0403 12:50:58.356263 26818 net.cpp:91] Creating Layer relu2
I0403 12:50:58.356278 26818 net.cpp:425] relu2 <- conv2
I0403 12:50:58.356302 26818 net.cpp:386] relu2 -> conv2 (in-place)
I0403 12:50:58.356565 26818 net.cpp:141] Setting up relu2
I0403 12:50:58.356593 26818 net.cpp:148] Top shape: 100 256 27 27 (18662400)
I0403 12:50:58.356609 26818 net.cpp:156] Memory required for data: 587609200
I0403 12:50:58.356626 26818 layer_factory.hpp:77] Creating layer norm2
I0403 12:50:58.356647 26818 net.cpp:91] Creating Layer norm2
I0403 12:50:58.356664 26818 net.cpp:425] norm2 <- conv2
I0403 12:50:58.356684 26818 net.cpp:399] norm2 -> norm2
I0403 12:50:58.356871 26818 net.cpp:141] Setting up norm2
I0403 12:50:58.356899 26818 net.cpp:148] Top shape: 100 256 27 27 (18662400)
I0403 12:50:58.356914 26818 net.cpp:156] Memory required for data: 662258800
I0403 12:50:58.356930 26818 layer_factory.hpp:77] Creating layer pool2
I0403 12:50:58.356950 26818 net.cpp:91] Creating Layer pool2
I0403 12:50:58.356966 26818 net.cpp:425] pool2 <- norm2
I0403 12:50:58.356984 26818 net.cpp:399] pool2 -> pool2
I0403 12:50:58.357033 26818 net.cpp:141] Setting up pool2
I0403 12:50:58.357059 26818 net.cpp:148] Top shape: 100 256 13 13 (4326400)
I0403 12:50:58.357074 26818 net.cpp:156] Memory required for data: 679564400
I0403 12:50:58.357089 26818 layer_factory.hpp:77] Creating layer conv3
I0403 12:50:58.357112 26818 net.cpp:91] Creating Layer conv3
I0403 12:50:58.357141 26818 net.cpp:425] conv3 <- pool2
I0403 12:50:58.357162 26818 net.cpp:399] conv3 -> conv3
I0403 12:50:58.395375 26818 net.cpp:141] Setting up conv3
I0403 12:50:58.395449 26818 net.cpp:148] Top shape: 100 384 13 13 (6489600)
I0403 12:50:58.395467 26818 net.cpp:156] Memory required for data: 705522800
I0403 12:50:58.395494 26818 layer_factory.hpp:77] Creating layer relu3
I0403 12:50:58.395519 26818 net.cpp:91] Creating Layer relu3
I0403 12:50:58.395539 26818 net.cpp:425] relu3 <- conv3
I0403 12:50:58.395560 26818 net.cpp:386] relu3 -> conv3 (in-place)
I0403 12:50:58.395839 26818 net.cpp:141] Setting up relu3
I0403 12:50:58.395869 26818 net.cpp:148] Top shape: 100 384 13 13 (6489600)
I0403 12:50:58.395887 26818 net.cpp:156] Memory required for data: 731481200
I0403 12:50:58.395903 26818 layer_factory.hpp:77] Creating layer conv4
I0403 12:50:58.395931 26818 net.cpp:91] Creating Layer conv4
I0403 12:50:58.395948 26818 net.cpp:425] conv4 <- conv3
I0403 12:50:58.395972 26818 net.cpp:399] conv4 -> conv4
I0403 12:50:58.425536 26818 net.cpp:141] Setting up conv4
I0403 12:50:58.425598 26818 net.cpp:148] Top shape: 100 384 13 13 (6489600)
I0403 12:50:58.425648 26818 net.cpp:156] Memory required for data: 757439600
I0403 12:50:58.425671 26818 layer_factory.hpp:77] Creating layer relu4
I0403 12:50:58.425695 26818 net.cpp:91] Creating Layer relu4
I0403 12:50:58.425714 26818 net.cpp:425] relu4 <- conv4
I0403 12:50:58.425734 26818 net.cpp:386] relu4 -> conv4 (in-place)
I0403 12:50:58.426008 26818 net.cpp:141] Setting up relu4
I0403 12:50:58.426035 26818 net.cpp:148] Top shape: 100 384 13 13 (6489600)
I0403 12:50:58.426051 26818 net.cpp:156] Memory required for data: 783398000
I0403 12:50:58.426067 26818 layer_factory.hpp:77] Creating layer conv5
I0403 12:50:58.426095 26818 net.cpp:91] Creating Layer conv5
I0403 12:50:58.426112 26818 net.cpp:425] conv5 <- conv4
I0403 12:50:58.426132 26818 net.cpp:399] conv5 -> conv5
I0403 12:50:58.446452 26818 net.cpp:141] Setting up conv5
I0403 12:50:58.446501 26818 net.cpp:148] Top shape: 100 256 13 13 (4326400)
I0403 12:50:58.446521 26818 net.cpp:156] Memory required for data: 800703600
I0403 12:50:58.446547 26818 layer_factory.hpp:77] Creating layer relu5
I0403 12:50:58.446569 26818 net.cpp:91] Creating Layer relu5
I0403 12:50:58.446588 26818 net.cpp:425] relu5 <- conv5
I0403 12:50:58.446610 26818 net.cpp:386] relu5 -> conv5 (in-place)
I0403 12:50:58.446902 26818 net.cpp:141] Setting up relu5
I0403 12:50:58.446931 26818 net.cpp:148] Top shape: 100 256 13 13 (4326400)
I0403 12:50:58.446949 26818 net.cpp:156] Memory required for data: 818009200
I0403 12:50:58.446964 26818 layer_factory.hpp:77] Creating layer pool5
I0403 12:50:58.446987 26818 net.cpp:91] Creating Layer pool5
I0403 12:50:58.447005 26818 net.cpp:425] pool5 <- conv5
I0403 12:50:58.447027 26818 net.cpp:399] pool5 -> pool5
I0403 12:50:58.447091 26818 net.cpp:141] Setting up pool5
I0403 12:50:58.447118 26818 net.cpp:148] Top shape: 100 256 6 6 (921600)
I0403 12:50:58.447134 26818 net.cpp:156] Memory required for data: 821695600
I0403 12:50:58.447149 26818 layer_factory.hpp:77] Creating layer fc6
I0403 12:50:58.447177 26818 net.cpp:91] Creating Layer fc6
I0403 12:50:58.447198 26818 net.cpp:425] fc6 <- pool5
I0403 12:50:58.447219 26818 net.cpp:399] fc6 -> fc6
I0403 12:51:00.028136 26818 net.cpp:141] Setting up fc6
I0403 12:51:00.028183 26818 net.cpp:148] Top shape: 100 4096 (409600)
I0403 12:51:00.028200 26818 net.cpp:156] Memory required for data: 823334000
I0403 12:51:00.028223 26818 layer_factory.hpp:77] Creating layer relu6
I0403 12:51:00.028249 26818 net.cpp:91] Creating Layer relu6
I0403 12:51:00.028269 26818 net.cpp:425] relu6 <- fc6
I0403 12:51:00.028295 26818 net.cpp:386] relu6 -> fc6 (in-place)
I0403 12:51:00.028534 26818 net.cpp:141] Setting up relu6
I0403 12:51:00.028561 26818 net.cpp:148] Top shape: 100 4096 (409600)
I0403 12:51:00.028576 26818 net.cpp:156] Memory required for data: 824972400
I0403 12:51:00.028592 26818 layer_factory.hpp:77] Creating layer drop6
I0403 12:51:00.028612 26818 net.cpp:91] Creating Layer drop6
I0403 12:51:00.028630 26818 net.cpp:425] drop6 <- fc6
I0403 12:51:00.028653 26818 net.cpp:386] drop6 -> fc6 (in-place)
I0403 12:51:00.028707 26818 net.cpp:141] Setting up drop6
I0403 12:51:00.028733 26818 net.cpp:148] Top shape: 100 4096 (409600)
I0403 12:51:00.028748 26818 net.cpp:156] Memory required for data: 826610800
I0403 12:51:00.028764 26818 layer_factory.hpp:77] Creating layer fc7
I0403 12:51:00.028798 26818 net.cpp:91] Creating Layer fc7
I0403 12:51:00.028815 26818 net.cpp:425] fc7 <- fc6
I0403 12:51:00.028837 26818 net.cpp:399] fc7 -> fc7
I0403 12:51:00.714928 26818 net.cpp:141] Setting up fc7
I0403 12:51:00.714969 26818 net.cpp:148] Top shape: 100 4096 (409600)
I0403 12:51:00.714999 26818 net.cpp:156] Memory required for data: 828249200
I0403 12:51:00.715023 26818 layer_factory.hpp:77] Creating layer relu7
I0403 12:51:00.715046 26818 net.cpp:91] Creating Layer relu7
I0403 12:51:00.715066 26818 net.cpp:425] relu7 <- fc7
I0403 12:51:00.715090 26818 net.cpp:386] relu7 -> fc7 (in-place)
I0403 12:51:00.715488 26818 net.cpp:141] Setting up relu7
I0403 12:51:00.715517 26818 net.cpp:148] Top shape: 100 4096 (409600)
I0403 12:51:00.715579 26818 net.cpp:156] Memory required for data: 829887600
I0403 12:51:00.715596 26818 layer_factory.hpp:77] Creating layer drop7
I0403 12:51:00.715616 26818 net.cpp:91] Creating Layer drop7
I0403 12:51:00.715633 26818 net.cpp:425] drop7 <- fc7
I0403 12:51:00.715654 26818 net.cpp:386] drop7 -> fc7 (in-place)
I0403 12:51:00.715698 26818 net.cpp:141] Setting up drop7
I0403 12:51:00.715721 26818 net.cpp:148] Top shape: 100 4096 (409600)
I0403 12:51:00.715736 26818 net.cpp:156] Memory required for data: 831526000
I0403 12:51:00.715752 26818 layer_factory.hpp:77] Creating layer fc8_plantvillage
I0403 12:51:00.715775 26818 net.cpp:91] Creating Layer fc8_plantvillage
I0403 12:51:00.715790 26818 net.cpp:425] fc8_plantvillage <- fc7
I0403 12:51:00.715812 26818 net.cpp:399] fc8_plantvillage -> fc8_plantvillage
I0403 12:51:00.722621 26818 net.cpp:141] Setting up fc8_plantvillage
I0403 12:51:00.722651 26818 net.cpp:148] Top shape: 100 38 (3800)
I0403 12:51:00.722666 26818 net.cpp:156] Memory required for data: 831541200
I0403 12:51:00.722684 26818 layer_factory.hpp:77] Creating layer fc8_plantvillage_fc8_plantvillage_0_split
I0403 12:51:00.722703 26818 net.cpp:91] Creating Layer fc8_plantvillage_fc8_plantvillage_0_split
I0403 12:51:00.722720 26818 net.cpp:425] fc8_plantvillage_fc8_plantvillage_0_split <- fc8_plantvillage
I0403 12:51:00.722740 26818 net.cpp:399] fc8_plantvillage_fc8_plantvillage_0_split -> fc8_plantvillage_fc8_plantvillage_0_split_0
I0403 12:51:00.722760 26818 net.cpp:399] fc8_plantvillage_fc8_plantvillage_0_split -> fc8_plantvillage_fc8_plantvillage_0_split_1
I0403 12:51:00.722780 26818 net.cpp:399] fc8_plantvillage_fc8_plantvillage_0_split -> fc8_plantvillage_fc8_plantvillage_0_split_2
I0403 12:51:00.722853 26818 net.cpp:141] Setting up fc8_plantvillage_fc8_plantvillage_0_split
I0403 12:51:00.722877 26818 net.cpp:148] Top shape: 100 38 (3800)
I0403 12:51:00.722894 26818 net.cpp:148] Top shape: 100 38 (3800)
I0403 12:51:00.722909 26818 net.cpp:148] Top shape: 100 38 (3800)
I0403 12:51:00.722923 26818 net.cpp:156] Memory required for data: 831586800
I0403 12:51:00.722937 26818 layer_factory.hpp:77] Creating layer prob
I0403 12:51:00.722955 26818 net.cpp:91] Creating Layer prob
I0403 12:51:00.722971 26818 net.cpp:425] prob <- fc8_plantvillage_fc8_plantvillage_0_split_0
I0403 12:51:00.722992 26818 net.cpp:399] prob -> prob
I0403 12:51:00.723212 26818 net.cpp:141] Setting up prob
I0403 12:51:00.723239 26818 net.cpp:148] Top shape: 100 38 (3800)
I0403 12:51:00.723255 26818 net.cpp:156] Memory required for data: 831602000
I0403 12:51:00.723270 26818 layer_factory.hpp:77] Creating layer hdf5out
I0403 12:51:00.723300 26818 net.cpp:91] Creating Layer hdf5out
I0403 12:51:00.723320 26818 net.cpp:425] hdf5out <- prob
I0403 12:51:00.723335 26818 net.cpp:425] hdf5out <- label_data_1_split_0
I0403 12:51:00.726431 26818 net.cpp:141] Setting up hdf5out
…
