…
I0403 12:36:07.482303 26478 net.cpp:313] The NetState phase (1) differed from the phase (0) specified by a rule in layer data
I0403 12:36:07.482620 26478 net.cpp:49] Initializing net from parameters: 
state {
  phase: TEST
}
layer {
  name: "data"
  type: "Data"
  top: "data"
  top: "label"
  include {
    phase: TEST
  }
  transform_param {
    crop_size: 227
    mean_file: "/home/mohanty/data/final_dataset/lmdb/color-20-80/mean.binaryproto"
  }
  data_param {
    source: "/home/mohanty/data/final_dataset/lmdb/color-20-80/test_db"
    batch_size: 100
    backend: LMDB
  }
}
layer {
  name: "conv1"
  type: "Convolution"
  bottom: "data"
  top: "conv1"
  param {
    lr_mult: 1
    decay_mult: 1
  }
  param {
    lr_mult: 2
    decay_mult: 0
  }
  convolution_param {
    num_output: 96
    kernel_size: 11
    stride: 4
    weight_filler {
      type: "gaussian"
      std: 0.01
    }
    bias_filler {
      type: "constant"
      value: 0
    }
  }
}
layer {
  name: "relu1"
  type: "ReLU"
  bottom: "conv1"
  top: "conv1"
}
layer {
  name: "norm1"
  type: "LRN"
  bottom: "conv1"
  top: "norm1"
  lrn_param {
    local_size: 5
    alpha: 0.0001
    beta: 0.75
  }
}
layer {
  name: "pool1"
  type: "Pooling"
  bottom: "norm1"
  top: "pool1"
  pooling_param {
    pool: MAX
    kernel_size: 3
    stride: 2
  }
}
layer {
  name: "conv2"
  type: "Convolution"
  bottom: "pool1"
  top: "conv2"
  param {
    lr_mult: 1
    decay_mult: 1
  }
  param {
    lr_mult: 2
    decay_mult: 0
  }
  convolution_param {
    num_output: 256
    pad: 2
    kernel_size: 5
    group: 2
    weight_filler {
      type: "gaussian"
      std: 0.01
    }
    bias_filler {
      type: "constant"
      value: 0.1
    }
  }
}
layer {
  name: "relu2"
  type: "ReLU"
  bottom: "conv2"
  top: "conv2"
}
layer {
  name: "norm2"
  type: "LRN"
  bottom: "conv2"
  top: "norm2"
  lrn_param {
    local_size: 5
    alpha: 0.0001
    beta: 0.75
  }
}
layer {
  name: "pool2"
  type: "Pooling"
  bottom: "norm2"
  top: "pool2"
  pooling_param {
    pool: MAX
    kernel_size: 3
    stride: 2
  }
}
layer {
  name: "conv3"
  type: "Convolution"
  bottom: "pool2"
  top: "conv3"
  param {
    lr_mult: 1
    decay_mult: 1
  }
  param {
    lr_mult: 2
    decay_mult: 0
  }
  convolution_param {
    num_output: 384
    pad: 1
    kernel_size: 3
    weight_filler {
      type: "gaussian"
      std: 0.01
    }
    bias_filler {
      type: "constant"
      value: 0
    }
  }
}
layer {
  name: "relu3"
  type: "ReLU"
  bottom: "conv3"
  top: "conv3"
}
layer {
  name: "conv4"
  type: "Convolution"
  bottom: "conv3"
  top: "conv4"
  param {
    lr_mult: 1
    decay_mult: 1
  }
  param {
    lr_mult: 2
    decay_mult: 0
  }
  convolution_param {
    num_output: 384
    pad: 1
    kernel_size: 3
    group: 2
    weight_filler {
      type: "gaussian"
      std: 0.01
    }
    bias_filler {
      type: "constant"
      value: 0.1
    }
  }
}
layer {
  name: "relu4"
  type: "ReLU"
  bottom: "conv4"
  top: "conv4"
}
layer {
  name: "conv5"
  type: "Convolution"
  bottom: "conv4"
  top: "conv5"
  param {
    lr_mult: 1
    decay_mult: 1
  }
  param {
    lr_mult: 2
    decay_mult: 0
  }
  convolution_param {
    num_output: 256
    pad: 1
    kernel_size: 3
    group: 2
    weight_filler {
      type: "gaussian"
      std: 0.01
    }
    bias_filler {
      type: "constant"
      value: 0.1
    }
  }
}
layer {
  name: "relu5"
  type: "ReLU"
  bottom: "conv5"
  top: "conv5"
}
layer {
  name: "pool5"
  type: "Pooling"
  bottom: "conv5"
  top: "pool5"
  pooling_param {
    pool: MAX
    kernel_size: 3
    stride: 2
  }
}
layer {
  name: "fc6"
  type: "InnerProduct"
  bottom: "pool5"
  top: "fc6"
  param {
    lr_mult: 1
    decay_mult: 1
  }
  param {
    lr_mult: 2
    decay_mult: 0
  }
  inner_product_param {
    num_output: 4096
    weight_filler {
      type: "gaussian"
      std: 0.005
    }
    bias_filler {
      type: "constant"
      value: 0.1
    }
  }
}
layer {
  name: "relu6"
  type: "ReLU"
  bottom: "fc6"
  top: "fc6"
}
layer {
  name: "drop6"
  type: "Dropout"
  bottom: "fc6"
  top: "fc6"
  dropout_param {
    dropout_ratio: 0.5
  }
}
layer {
  name: "fc7"
  type: "InnerProduct"
  bottom: "fc6"
  top: "fc7"
  param {
    lr_mult: 1
    decay_mult: 1
  }
  param {
    lr_mult: 2
    decay_mult: 0
  }
  inner_product_param {
    num_output: 4096
    weight_filler {
      type: "gaussian"
      std: 0.005
    }
    bias_filler {
      type: "constant"
      value: 0.1
    }
  }
}
layer {
  name: "relu7"
  type: "ReLU"
  bottom: "fc7"
  top: "fc7"
}
layer {
  name: "drop7"
  type: "Dropout"
  bottom: "fc7"
  top: "fc7"
  dropout_param {
    dropout_ratio: 0.5
  }
}
layer {
  name: "fc8_plantvillage"
  type: "InnerProduct"
  bottom: "fc7"
  top: "fc8_plantvillage"
  param {
    lr_mult: 1
    decay_mult: 1
  }
  param {
    lr_mult: 2
    decay_mult: 0
  }
  inner_product_param {
    num_output: 38
    weight_filler {
      type: "gaussian"
      std: 0.01
    }
    bias_filler {
      type: "constant"
      value: 0
    }
  }
}
layer {
  name: "prob"
  type: "Softmax"
  bottom: "fc8_plantvillage"
  top: "prob"
  include {
    phase: TEST
  }
}
layer {
  name: "hdf5out"
  type: "HDF5Output"
  bottom: "prob"
  bottom: "label"
  include {
    phase: TEST
  }
  hdf5_output_param {
    file_name: "hdf5_dumps/iter_1404.h5"
  }
}
layer {
  name: "loss"
  type: "SoftmaxWithLoss"
  bottom: "fc8_plantvillage"
  bottom: "label"
  top: "loss"
}
layer {
  name: "accuracy"
  type: "Accuracy"
  bottom: "fc8_plantvillage"
  bottom: "label"
  top: "accuracy"
  include {
    phase: TEST
  }
}
I0403 12:36:07.483243 26478 layer_factory.hpp:77] Creating layer data
I0403 12:36:07.483923 26478 net.cpp:91] Creating Layer data
I0403 12:36:07.483958 26478 net.cpp:399] data -> data
I0403 12:36:07.484014 26478 net.cpp:399] data -> label
I0403 12:36:07.484052 26478 data_transformer.cpp:25] Loading mean file from: /home/mohanty/data/final_dataset/lmdb/color-20-80/mean.binaryproto
I0403 12:36:07.486623 26481 db_lmdb.cpp:38] Opened lmdb /home/mohanty/data/final_dataset/lmdb/color-20-80/test_db
I0403 12:36:07.498471 26478 data_layer.cpp:41] output data size: 100,3,227,227
I0403 12:36:07.630647 26478 net.cpp:141] Setting up data
I0403 12:36:07.630756 26478 net.cpp:148] Top shape: 100 3 227 227 (15458700)
I0403 12:36:07.630779 26478 net.cpp:148] Top shape: 100 (100)
I0403 12:36:07.630794 26478 net.cpp:156] Memory required for data: 61835200
I0403 12:36:07.630821 26478 layer_factory.hpp:77] Creating layer label_data_1_split
I0403 12:36:07.630847 26478 net.cpp:91] Creating Layer label_data_1_split
I0403 12:36:07.630866 26478 net.cpp:425] label_data_1_split <- label
I0403 12:36:07.630897 26478 net.cpp:399] label_data_1_split -> label_data_1_split_0
I0403 12:36:07.630924 26478 net.cpp:399] label_data_1_split -> label_data_1_split_1
I0403 12:36:07.630944 26478 net.cpp:399] label_data_1_split -> label_data_1_split_2
I0403 12:36:07.631007 26478 net.cpp:141] Setting up label_data_1_split
I0403 12:36:07.631031 26478 net.cpp:148] Top shape: 100 (100)
I0403 12:36:07.631048 26478 net.cpp:148] Top shape: 100 (100)
I0403 12:36:07.631064 26478 net.cpp:148] Top shape: 100 (100)
I0403 12:36:07.631078 26478 net.cpp:156] Memory required for data: 61836400
I0403 12:36:07.631093 26478 layer_factory.hpp:77] Creating layer conv1
I0403 12:36:07.631124 26478 net.cpp:91] Creating Layer conv1
I0403 12:36:07.631144 26478 net.cpp:425] conv1 <- data
I0403 12:36:07.631162 26478 net.cpp:399] conv1 -> conv1
I0403 12:36:07.779166 26478 net.cpp:141] Setting up conv1
I0403 12:36:07.779244 26478 net.cpp:148] Top shape: 100 96 55 55 (29040000)
I0403 12:36:07.779265 26478 net.cpp:156] Memory required for data: 177996400
I0403 12:36:07.779301 26478 layer_factory.hpp:77] Creating layer relu1
I0403 12:36:07.779378 26478 net.cpp:91] Creating Layer relu1
I0403 12:36:07.779399 26478 net.cpp:425] relu1 <- conv1
I0403 12:36:07.779419 26478 net.cpp:386] relu1 -> conv1 (in-place)
I0403 12:36:07.779698 26478 net.cpp:141] Setting up relu1
I0403 12:36:07.779728 26478 net.cpp:148] Top shape: 100 96 55 55 (29040000)
I0403 12:36:07.779744 26478 net.cpp:156] Memory required for data: 294156400
I0403 12:36:07.779804 26478 layer_factory.hpp:77] Creating layer norm1
I0403 12:36:07.779834 26478 net.cpp:91] Creating Layer norm1
I0403 12:36:07.779852 26478 net.cpp:425] norm1 <- conv1
I0403 12:36:07.779871 26478 net.cpp:399] norm1 -> norm1
I0403 12:36:07.780181 26478 net.cpp:141] Setting up norm1
I0403 12:36:07.780210 26478 net.cpp:148] Top shape: 100 96 55 55 (29040000)
I0403 12:36:07.780225 26478 net.cpp:156] Memory required for data: 410316400
I0403 12:36:07.780242 26478 layer_factory.hpp:77] Creating layer pool1
I0403 12:36:07.780266 26478 net.cpp:91] Creating Layer pool1
I0403 12:36:07.780287 26478 net.cpp:425] pool1 <- norm1
I0403 12:36:07.780308 26478 net.cpp:399] pool1 -> pool1
I0403 12:36:07.780375 26478 net.cpp:141] Setting up pool1
I0403 12:36:07.780400 26478 net.cpp:148] Top shape: 100 96 27 27 (6998400)
I0403 12:36:07.780416 26478 net.cpp:156] Memory required for data: 438310000
I0403 12:36:07.780431 26478 layer_factory.hpp:77] Creating layer conv2
I0403 12:36:07.780455 26478 net.cpp:91] Creating Layer conv2
I0403 12:36:07.780472 26478 net.cpp:425] conv2 <- pool1
I0403 12:36:07.780490 26478 net.cpp:399] conv2 -> conv2
I0403 12:36:07.796289 26478 net.cpp:141] Setting up conv2
I0403 12:36:07.796344 26478 net.cpp:148] Top shape: 100 256 27 27 (18662400)
I0403 12:36:07.796362 26478 net.cpp:156] Memory required for data: 512959600
I0403 12:36:07.796387 26478 layer_factory.hpp:77] Creating layer relu2
I0403 12:36:07.796411 26478 net.cpp:91] Creating Layer relu2
I0403 12:36:07.796428 26478 net.cpp:425] relu2 <- conv2
I0403 12:36:07.796449 26478 net.cpp:386] relu2 -> conv2 (in-place)
I0403 12:36:07.796737 26478 net.cpp:141] Setting up relu2
I0403 12:36:07.796766 26478 net.cpp:148] Top shape: 100 256 27 27 (18662400)
I0403 12:36:07.796783 26478 net.cpp:156] Memory required for data: 587609200
I0403 12:36:07.796800 26478 layer_factory.hpp:77] Creating layer norm2
I0403 12:36:07.796824 26478 net.cpp:91] Creating Layer norm2
I0403 12:36:07.796844 26478 net.cpp:425] norm2 <- conv2
I0403 12:36:07.796865 26478 net.cpp:399] norm2 -> norm2
I0403 12:36:07.797071 26478 net.cpp:141] Setting up norm2
I0403 12:36:07.797099 26478 net.cpp:148] Top shape: 100 256 27 27 (18662400)
I0403 12:36:07.797114 26478 net.cpp:156] Memory required for data: 662258800
I0403 12:36:07.797130 26478 layer_factory.hpp:77] Creating layer pool2
I0403 12:36:07.797149 26478 net.cpp:91] Creating Layer pool2
I0403 12:36:07.797165 26478 net.cpp:425] pool2 <- norm2
I0403 12:36:07.797188 26478 net.cpp:399] pool2 -> pool2
I0403 12:36:07.797245 26478 net.cpp:141] Setting up pool2
I0403 12:36:07.797268 26478 net.cpp:148] Top shape: 100 256 13 13 (4326400)
I0403 12:36:07.797287 26478 net.cpp:156] Memory required for data: 679564400
I0403 12:36:07.797303 26478 layer_factory.hpp:77] Creating layer conv3
I0403 12:36:07.797330 26478 net.cpp:91] Creating Layer conv3
I0403 12:36:07.797349 26478 net.cpp:425] conv3 <- pool2
I0403 12:36:07.797410 26478 net.cpp:399] conv3 -> conv3
I0403 12:36:07.846951 26478 net.cpp:141] Setting up conv3
I0403 12:36:07.847024 26478 net.cpp:148] Top shape: 100 384 13 13 (6489600)
I0403 12:36:07.847041 26478 net.cpp:156] Memory required for data: 705522800
I0403 12:36:07.847069 26478 layer_factory.hpp:77] Creating layer relu3
I0403 12:36:07.847096 26478 net.cpp:91] Creating Layer relu3
I0403 12:36:07.847116 26478 net.cpp:425] relu3 <- conv3
I0403 12:36:07.847136 26478 net.cpp:386] relu3 -> conv3 (in-place)
I0403 12:36:07.847448 26478 net.cpp:141] Setting up relu3
I0403 12:36:07.847477 26478 net.cpp:148] Top shape: 100 384 13 13 (6489600)
I0403 12:36:07.847496 26478 net.cpp:156] Memory required for data: 731481200
I0403 12:36:07.847512 26478 layer_factory.hpp:77] Creating layer conv4
I0403 12:36:07.847540 26478 net.cpp:91] Creating Layer conv4
I0403 12:36:07.847559 26478 net.cpp:425] conv4 <- conv3
I0403 12:36:07.847582 26478 net.cpp:399] conv4 -> conv4
I0403 12:36:07.878994 26478 net.cpp:141] Setting up conv4
I0403 12:36:07.879066 26478 net.cpp:148] Top shape: 100 384 13 13 (6489600)
I0403 12:36:07.879115 26478 net.cpp:156] Memory required for data: 757439600
I0403 12:36:07.879139 26478 layer_factory.hpp:77] Creating layer relu4
I0403 12:36:07.879163 26478 net.cpp:91] Creating Layer relu4
I0403 12:36:07.879189 26478 net.cpp:425] relu4 <- conv4
I0403 12:36:07.879209 26478 net.cpp:386] relu4 -> conv4 (in-place)
I0403 12:36:07.879503 26478 net.cpp:141] Setting up relu4
I0403 12:36:07.879533 26478 net.cpp:148] Top shape: 100 384 13 13 (6489600)
I0403 12:36:07.879549 26478 net.cpp:156] Memory required for data: 783398000
I0403 12:36:07.879565 26478 layer_factory.hpp:77] Creating layer conv5
I0403 12:36:07.879592 26478 net.cpp:91] Creating Layer conv5
I0403 12:36:07.879611 26478 net.cpp:425] conv5 <- conv4
I0403 12:36:07.879634 26478 net.cpp:399] conv5 -> conv5
I0403 12:36:07.901137 26478 net.cpp:141] Setting up conv5
I0403 12:36:07.901193 26478 net.cpp:148] Top shape: 100 256 13 13 (4326400)
I0403 12:36:07.901211 26478 net.cpp:156] Memory required for data: 800703600
I0403 12:36:07.901237 26478 layer_factory.hpp:77] Creating layer relu5
I0403 12:36:07.901262 26478 net.cpp:91] Creating Layer relu5
I0403 12:36:07.901280 26478 net.cpp:425] relu5 <- conv5
I0403 12:36:07.901304 26478 net.cpp:386] relu5 -> conv5 (in-place)
I0403 12:36:07.901594 26478 net.cpp:141] Setting up relu5
I0403 12:36:07.901623 26478 net.cpp:148] Top shape: 100 256 13 13 (4326400)
I0403 12:36:07.901639 26478 net.cpp:156] Memory required for data: 818009200
I0403 12:36:07.901655 26478 layer_factory.hpp:77] Creating layer pool5
I0403 12:36:07.901684 26478 net.cpp:91] Creating Layer pool5
I0403 12:36:07.901701 26478 net.cpp:425] pool5 <- conv5
I0403 12:36:07.901721 26478 net.cpp:399] pool5 -> pool5
I0403 12:36:07.901787 26478 net.cpp:141] Setting up pool5
I0403 12:36:07.901813 26478 net.cpp:148] Top shape: 100 256 6 6 (921600)
I0403 12:36:07.901829 26478 net.cpp:156] Memory required for data: 821695600
I0403 12:36:07.901844 26478 layer_factory.hpp:77] Creating layer fc6
I0403 12:36:07.901873 26478 net.cpp:91] Creating Layer fc6
I0403 12:36:07.901892 26478 net.cpp:425] fc6 <- pool5
I0403 12:36:07.901912 26478 net.cpp:399] fc6 -> fc6
I0403 12:36:09.543586 26478 net.cpp:141] Setting up fc6
I0403 12:36:09.543668 26478 net.cpp:148] Top shape: 100 4096 (409600)
I0403 12:36:09.543685 26478 net.cpp:156] Memory required for data: 823334000
I0403 12:36:09.543707 26478 layer_factory.hpp:77] Creating layer relu6
I0403 12:36:09.543730 26478 net.cpp:91] Creating Layer relu6
I0403 12:36:09.543748 26478 net.cpp:425] relu6 <- fc6
I0403 12:36:09.543771 26478 net.cpp:386] relu6 -> fc6 (in-place)
I0403 12:36:09.544001 26478 net.cpp:141] Setting up relu6
I0403 12:36:09.544028 26478 net.cpp:148] Top shape: 100 4096 (409600)
I0403 12:36:09.544042 26478 net.cpp:156] Memory required for data: 824972400
I0403 12:36:09.544059 26478 layer_factory.hpp:77] Creating layer drop6
I0403 12:36:09.544077 26478 net.cpp:91] Creating Layer drop6
I0403 12:36:09.544093 26478 net.cpp:425] drop6 <- fc6
I0403 12:36:09.544112 26478 net.cpp:386] drop6 -> fc6 (in-place)
I0403 12:36:09.544169 26478 net.cpp:141] Setting up drop6
I0403 12:36:09.544193 26478 net.cpp:148] Top shape: 100 4096 (409600)
I0403 12:36:09.544209 26478 net.cpp:156] Memory required for data: 826610800
I0403 12:36:09.544224 26478 layer_factory.hpp:77] Creating layer fc7
I0403 12:36:09.544244 26478 net.cpp:91] Creating Layer fc7
I0403 12:36:09.544266 26478 net.cpp:425] fc7 <- fc6
I0403 12:36:09.544291 26478 net.cpp:399] fc7 -> fc7
I0403 12:36:10.265632 26478 net.cpp:141] Setting up fc7
I0403 12:36:10.265710 26478 net.cpp:148] Top shape: 100 4096 (409600)
I0403 12:36:10.265727 26478 net.cpp:156] Memory required for data: 828249200
I0403 12:36:10.265748 26478 layer_factory.hpp:77] Creating layer relu7
I0403 12:36:10.265774 26478 net.cpp:91] Creating Layer relu7
I0403 12:36:10.265792 26478 net.cpp:425] relu7 <- fc7
I0403 12:36:10.265812 26478 net.cpp:386] relu7 -> fc7 (in-place)
I0403 12:36:10.266211 26478 net.cpp:141] Setting up relu7
I0403 12:36:10.266238 26478 net.cpp:148] Top shape: 100 4096 (409600)
I0403 12:36:10.266299 26478 net.cpp:156] Memory required for data: 829887600
I0403 12:36:10.266317 26478 layer_factory.hpp:77] Creating layer drop7
I0403 12:36:10.266338 26478 net.cpp:91] Creating Layer drop7
I0403 12:36:10.266355 26478 net.cpp:425] drop7 <- fc7
I0403 12:36:10.266373 26478 net.cpp:386] drop7 -> fc7 (in-place)
I0403 12:36:10.266417 26478 net.cpp:141] Setting up drop7
I0403 12:36:10.266443 26478 net.cpp:148] Top shape: 100 4096 (409600)
I0403 12:36:10.266459 26478 net.cpp:156] Memory required for data: 831526000
I0403 12:36:10.266474 26478 layer_factory.hpp:77] Creating layer fc8_plantvillage
I0403 12:36:10.266494 26478 net.cpp:91] Creating Layer fc8_plantvillage
I0403 12:36:10.266510 26478 net.cpp:425] fc8_plantvillage <- fc7
I0403 12:36:10.266530 26478 net.cpp:399] fc8_plantvillage -> fc8_plantvillage
I0403 12:36:10.273550 26478 net.cpp:141] Setting up fc8_plantvillage
I0403 12:36:10.273581 26478 net.cpp:148] Top shape: 100 38 (3800)
I0403 12:36:10.273597 26478 net.cpp:156] Memory required for data: 831541200
I0403 12:36:10.273615 26478 layer_factory.hpp:77] Creating layer fc8_plantvillage_fc8_plantvillage_0_split
I0403 12:36:10.273636 26478 net.cpp:91] Creating Layer fc8_plantvillage_fc8_plantvillage_0_split
I0403 12:36:10.273653 26478 net.cpp:425] fc8_plantvillage_fc8_plantvillage_0_split <- fc8_plantvillage
I0403 12:36:10.273671 26478 net.cpp:399] fc8_plantvillage_fc8_plantvillage_0_split -> fc8_plantvillage_fc8_plantvillage_0_split_0
I0403 12:36:10.273691 26478 net.cpp:399] fc8_plantvillage_fc8_plantvillage_0_split -> fc8_plantvillage_fc8_plantvillage_0_split_1
I0403 12:36:10.273711 26478 net.cpp:399] fc8_plantvillage_fc8_plantvillage_0_split -> fc8_plantvillage_fc8_plantvillage_0_split_2
I0403 12:36:10.273792 26478 net.cpp:141] Setting up fc8_plantvillage_fc8_plantvillage_0_split
I0403 12:36:10.273814 26478 net.cpp:148] Top shape: 100 38 (3800)
I0403 12:36:10.273831 26478 net.cpp:148] Top shape: 100 38 (3800)
I0403 12:36:10.273847 26478 net.cpp:148] Top shape: 100 38 (3800)
I0403 12:36:10.273861 26478 net.cpp:156] Memory required for data: 831586800
I0403 12:36:10.273877 26478 layer_factory.hpp:77] Creating layer prob
I0403 12:36:10.273895 26478 net.cpp:91] Creating Layer prob
I0403 12:36:10.273910 26478 net.cpp:425] prob <- fc8_plantvillage_fc8_plantvillage_0_split_0
I0403 12:36:10.273929 26478 net.cpp:399] prob -> prob
I0403 12:36:10.274158 26478 net.cpp:141] Setting up prob
I0403 12:36:10.274183 26478 net.cpp:148] Top shape: 100 38 (3800)
I0403 12:36:10.274199 26478 net.cpp:156] Memory required for data: 831602000
I0403 12:36:10.274214 26478 layer_factory.hpp:77] Creating layer hdf5out
I0403 12:36:10.274235 26478 net.cpp:91] Creating Layer hdf5out
I0403 12:36:10.274260 26478 net.cpp:425] hdf5out <- prob
I0403 12:36:10.274276 26478 net.cpp:425] hdf5out <- label_data_1_split_0
I0403 12:36:10.287374 26478 net.cpp:141] Setting up hdf5out
…
