…
I0403 12:33:09.278690 26404 net.cpp:313] The NetState phase (1) differed from the phase (0) specified by a rule in layer data
I0403 12:33:09.279000 26404 net.cpp:49] Initializing net from parameters: 
state {
  phase: TEST
}
layer {
  name: "data"
  type: "Data"
  top: "data"
  top: "label"
  include {
    phase: TEST
  }
  transform_param {
    crop_size: 227
    mean_file: "/home/mohanty/data/final_dataset/lmdb/color-20-80/mean.binaryproto"
  }
  data_param {
    source: "/home/mohanty/data/final_dataset/lmdb/color-20-80/test_db"
    batch_size: 100
    backend: LMDB
  }
}
layer {
  name: "conv1"
  type: "Convolution"
  bottom: "data"
  top: "conv1"
  param {
    lr_mult: 1
    decay_mult: 1
  }
  param {
    lr_mult: 2
    decay_mult: 0
  }
  convolution_param {
    num_output: 96
    kernel_size: 11
    stride: 4
    weight_filler {
      type: "gaussian"
      std: 0.01
    }
    bias_filler {
      type: "constant"
      value: 0
    }
  }
}
layer {
  name: "relu1"
  type: "ReLU"
  bottom: "conv1"
  top: "conv1"
}
layer {
  name: "norm1"
  type: "LRN"
  bottom: "conv1"
  top: "norm1"
  lrn_param {
    local_size: 5
    alpha: 0.0001
    beta: 0.75
  }
}
layer {
  name: "pool1"
  type: "Pooling"
  bottom: "norm1"
  top: "pool1"
  pooling_param {
    pool: MAX
    kernel_size: 3
    stride: 2
  }
}
layer {
  name: "conv2"
  type: "Convolution"
  bottom: "pool1"
  top: "conv2"
  param {
    lr_mult: 1
    decay_mult: 1
  }
  param {
    lr_mult: 2
    decay_mult: 0
  }
  convolution_param {
    num_output: 256
    pad: 2
    kernel_size: 5
    group: 2
    weight_filler {
      type: "gaussian"
      std: 0.01
    }
    bias_filler {
      type: "constant"
      value: 0.1
    }
  }
}
layer {
  name: "relu2"
  type: "ReLU"
  bottom: "conv2"
  top: "conv2"
}
layer {
  name: "norm2"
  type: "LRN"
  bottom: "conv2"
  top: "norm2"
  lrn_param {
    local_size: 5
    alpha: 0.0001
    beta: 0.75
  }
}
layer {
  name: "pool2"
  type: "Pooling"
  bottom: "norm2"
  top: "pool2"
  pooling_param {
    pool: MAX
    kernel_size: 3
    stride: 2
  }
}
layer {
  name: "conv3"
  type: "Convolution"
  bottom: "pool2"
  top: "conv3"
  param {
    lr_mult: 1
    decay_mult: 1
  }
  param {
    lr_mult: 2
    decay_mult: 0
  }
  convolution_param {
    num_output: 384
    pad: 1
    kernel_size: 3
    weight_filler {
      type: "gaussian"
      std: 0.01
    }
    bias_filler {
      type: "constant"
      value: 0
    }
  }
}
layer {
  name: "relu3"
  type: "ReLU"
  bottom: "conv3"
  top: "conv3"
}
layer {
  name: "conv4"
  type: "Convolution"
  bottom: "conv3"
  top: "conv4"
  param {
    lr_mult: 1
    decay_mult: 1
  }
  param {
    lr_mult: 2
    decay_mult: 0
  }
  convolution_param {
    num_output: 384
    pad: 1
    kernel_size: 3
    group: 2
    weight_filler {
      type: "gaussian"
      std: 0.01
    }
    bias_filler {
      type: "constant"
      value: 0.1
    }
  }
}
layer {
  name: "relu4"
  type: "ReLU"
  bottom: "conv4"
  top: "conv4"
}
layer {
  name: "conv5"
  type: "Convolution"
  bottom: "conv4"
  top: "conv5"
  param {
    lr_mult: 1
    decay_mult: 1
  }
  param {
    lr_mult: 2
    decay_mult: 0
  }
  convolution_param {
    num_output: 256
    pad: 1
    kernel_size: 3
    group: 2
    weight_filler {
      type: "gaussian"
      std: 0.01
    }
    bias_filler {
      type: "constant"
      value: 0.1
    }
  }
}
layer {
  name: "relu5"
  type: "ReLU"
  bottom: "conv5"
  top: "conv5"
}
layer {
  name: "pool5"
  type: "Pooling"
  bottom: "conv5"
  top: "pool5"
  pooling_param {
    pool: MAX
    kernel_size: 3
    stride: 2
  }
}
layer {
  name: "fc6"
  type: "InnerProduct"
  bottom: "pool5"
  top: "fc6"
  param {
    lr_mult: 1
    decay_mult: 1
  }
  param {
    lr_mult: 2
    decay_mult: 0
  }
  inner_product_param {
    num_output: 4096
    weight_filler {
      type: "gaussian"
      std: 0.005
    }
    bias_filler {
      type: "constant"
      value: 0.1
    }
  }
}
layer {
  name: "relu6"
  type: "ReLU"
  bottom: "fc6"
  top: "fc6"
}
layer {
  name: "drop6"
  type: "Dropout"
  bottom: "fc6"
  top: "fc6"
  dropout_param {
    dropout_ratio: 0.5
  }
}
layer {
  name: "fc7"
  type: "InnerProduct"
  bottom: "fc6"
  top: "fc7"
  param {
    lr_mult: 1
    decay_mult: 1
  }
  param {
    lr_mult: 2
    decay_mult: 0
  }
  inner_product_param {
    num_output: 4096
    weight_filler {
      type: "gaussian"
      std: 0.005
    }
    bias_filler {
      type: "constant"
      value: 0.1
    }
  }
}
layer {
  name: "relu7"
  type: "ReLU"
  bottom: "fc7"
  top: "fc7"
}
layer {
  name: "drop7"
  type: "Dropout"
  bottom: "fc7"
  top: "fc7"
  dropout_param {
    dropout_ratio: 0.5
  }
}
layer {
  name: "fc8_plantvillage"
  type: "InnerProduct"
  bottom: "fc7"
  top: "fc8_plantvillage"
  param {
    lr_mult: 1
    decay_mult: 1
  }
  param {
    lr_mult: 2
    decay_mult: 0
  }
  inner_product_param {
    num_output: 38
    weight_filler {
      type: "gaussian"
      std: 0.01
    }
    bias_filler {
      type: "constant"
      value: 0
    }
  }
}
layer {
  name: "prob"
  type: "Softmax"
  bottom: "fc8_plantvillage"
  top: "prob"
  include {
    phase: TEST
  }
}
layer {
  name: "hdf5out"
  type: "HDF5Output"
  bottom: "prob"
  bottom: "label"
  include {
    phase: TEST
  }
  hdf5_output_param {
    file_name: "hdf5_dumps/iter_1188.h5"
  }
}
layer {
  name: "loss"
  type: "SoftmaxWithLoss"
  bottom: "fc8_plantvillage"
  bottom: "label"
  top: "loss"
}
layer {
  name: "accuracy"
  type: "Accuracy"
  bottom: "fc8_plantvillage"
  bottom: "label"
  top: "accuracy"
  include {
    phase: TEST
  }
}
I0403 12:33:09.279580 26404 layer_factory.hpp:77] Creating layer data
I0403 12:33:09.280244 26404 net.cpp:91] Creating Layer data
I0403 12:33:09.280283 26404 net.cpp:399] data -> data
I0403 12:33:09.280336 26404 net.cpp:399] data -> label
I0403 12:33:09.280375 26404 data_transformer.cpp:25] Loading mean file from: /home/mohanty/data/final_dataset/lmdb/color-20-80/mean.binaryproto
I0403 12:33:09.282948 26407 db_lmdb.cpp:38] Opened lmdb /home/mohanty/data/final_dataset/lmdb/color-20-80/test_db
I0403 12:33:09.294934 26404 data_layer.cpp:41] output data size: 100,3,227,227
I0403 12:33:09.430557 26404 net.cpp:141] Setting up data
I0403 12:33:09.430649 26404 net.cpp:148] Top shape: 100 3 227 227 (15458700)
I0403 12:33:09.430672 26404 net.cpp:148] Top shape: 100 (100)
I0403 12:33:09.430690 26404 net.cpp:156] Memory required for data: 61835200
I0403 12:33:09.430719 26404 layer_factory.hpp:77] Creating layer label_data_1_split
I0403 12:33:09.430747 26404 net.cpp:91] Creating Layer label_data_1_split
I0403 12:33:09.430765 26404 net.cpp:425] label_data_1_split <- label
I0403 12:33:09.430799 26404 net.cpp:399] label_data_1_split -> label_data_1_split_0
I0403 12:33:09.430829 26404 net.cpp:399] label_data_1_split -> label_data_1_split_1
I0403 12:33:09.430850 26404 net.cpp:399] label_data_1_split -> label_data_1_split_2
I0403 12:33:09.430915 26404 net.cpp:141] Setting up label_data_1_split
I0403 12:33:09.430940 26404 net.cpp:148] Top shape: 100 (100)
I0403 12:33:09.430958 26404 net.cpp:148] Top shape: 100 (100)
I0403 12:33:09.430975 26404 net.cpp:148] Top shape: 100 (100)
I0403 12:33:09.430990 26404 net.cpp:156] Memory required for data: 61836400
I0403 12:33:09.431006 26404 layer_factory.hpp:77] Creating layer conv1
I0403 12:33:09.431040 26404 net.cpp:91] Creating Layer conv1
I0403 12:33:09.431058 26404 net.cpp:425] conv1 <- data
I0403 12:33:09.431079 26404 net.cpp:399] conv1 -> conv1
I0403 12:33:09.580430 26404 net.cpp:141] Setting up conv1
I0403 12:33:09.580513 26404 net.cpp:148] Top shape: 100 96 55 55 (29040000)
I0403 12:33:09.580533 26404 net.cpp:156] Memory required for data: 177996400
I0403 12:33:09.580576 26404 layer_factory.hpp:77] Creating layer relu1
I0403 12:33:09.580605 26404 net.cpp:91] Creating Layer relu1
I0403 12:33:09.580623 26404 net.cpp:425] relu1 <- conv1
I0403 12:33:09.580647 26404 net.cpp:386] relu1 -> conv1 (in-place)
I0403 12:33:09.580927 26404 net.cpp:141] Setting up relu1
I0403 12:33:09.580955 26404 net.cpp:148] Top shape: 100 96 55 55 (29040000)
I0403 12:33:09.580971 26404 net.cpp:156] Memory required for data: 294156400
I0403 12:33:09.581018 26404 layer_factory.hpp:77] Creating layer norm1
I0403 12:33:09.581048 26404 net.cpp:91] Creating Layer norm1
I0403 12:33:09.581068 26404 net.cpp:425] norm1 <- conv1
I0403 12:33:09.581085 26404 net.cpp:399] norm1 -> norm1
I0403 12:33:09.581409 26404 net.cpp:141] Setting up norm1
I0403 12:33:09.581437 26404 net.cpp:148] Top shape: 100 96 55 55 (29040000)
I0403 12:33:09.581452 26404 net.cpp:156] Memory required for data: 410316400
I0403 12:33:09.581468 26404 layer_factory.hpp:77] Creating layer pool1
I0403 12:33:09.581493 26404 net.cpp:91] Creating Layer pool1
I0403 12:33:09.581512 26404 net.cpp:425] pool1 <- norm1
I0403 12:33:09.581531 26404 net.cpp:399] pool1 -> pool1
I0403 12:33:09.581599 26404 net.cpp:141] Setting up pool1
I0403 12:33:09.581624 26404 net.cpp:148] Top shape: 100 96 27 27 (6998400)
I0403 12:33:09.581640 26404 net.cpp:156] Memory required for data: 438310000
I0403 12:33:09.581655 26404 layer_factory.hpp:77] Creating layer conv2
I0403 12:33:09.581683 26404 net.cpp:91] Creating Layer conv2
I0403 12:33:09.581701 26404 net.cpp:425] conv2 <- pool1
I0403 12:33:09.581722 26404 net.cpp:399] conv2 -> conv2
I0403 12:33:09.596917 26404 net.cpp:141] Setting up conv2
I0403 12:33:09.596964 26404 net.cpp:148] Top shape: 100 256 27 27 (18662400)
I0403 12:33:09.596983 26404 net.cpp:156] Memory required for data: 512959600
I0403 12:33:09.597009 26404 layer_factory.hpp:77] Creating layer relu2
I0403 12:33:09.597031 26404 net.cpp:91] Creating Layer relu2
I0403 12:33:09.597048 26404 net.cpp:425] relu2 <- conv2
I0403 12:33:09.597066 26404 net.cpp:386] relu2 -> conv2 (in-place)
I0403 12:33:09.597342 26404 net.cpp:141] Setting up relu2
I0403 12:33:09.597373 26404 net.cpp:148] Top shape: 100 256 27 27 (18662400)
I0403 12:33:09.597388 26404 net.cpp:156] Memory required for data: 587609200
I0403 12:33:09.597405 26404 layer_factory.hpp:77] Creating layer norm2
I0403 12:33:09.597426 26404 net.cpp:91] Creating Layer norm2
I0403 12:33:09.597443 26404 net.cpp:425] norm2 <- conv2
I0403 12:33:09.597466 26404 net.cpp:399] norm2 -> norm2
I0403 12:33:09.597663 26404 net.cpp:141] Setting up norm2
I0403 12:33:09.597689 26404 net.cpp:148] Top shape: 100 256 27 27 (18662400)
I0403 12:33:09.597705 26404 net.cpp:156] Memory required for data: 662258800
I0403 12:33:09.597720 26404 layer_factory.hpp:77] Creating layer pool2
I0403 12:33:09.597740 26404 net.cpp:91] Creating Layer pool2
I0403 12:33:09.597756 26404 net.cpp:425] pool2 <- norm2
I0403 12:33:09.597775 26404 net.cpp:399] pool2 -> pool2
I0403 12:33:09.597827 26404 net.cpp:141] Setting up pool2
I0403 12:33:09.597851 26404 net.cpp:148] Top shape: 100 256 13 13 (4326400)
I0403 12:33:09.597865 26404 net.cpp:156] Memory required for data: 679564400
I0403 12:33:09.597882 26404 layer_factory.hpp:77] Creating layer conv3
I0403 12:33:09.597906 26404 net.cpp:91] Creating Layer conv3
I0403 12:33:09.597924 26404 net.cpp:425] conv3 <- pool2
I0403 12:33:09.597944 26404 net.cpp:399] conv3 -> conv3
I0403 12:33:09.646431 26404 net.cpp:141] Setting up conv3
I0403 12:33:09.646504 26404 net.cpp:148] Top shape: 100 384 13 13 (6489600)
I0403 12:33:09.646522 26404 net.cpp:156] Memory required for data: 705522800
I0403 12:33:09.646550 26404 layer_factory.hpp:77] Creating layer relu3
I0403 12:33:09.646576 26404 net.cpp:91] Creating Layer relu3
I0403 12:33:09.646595 26404 net.cpp:425] relu3 <- conv3
I0403 12:33:09.646615 26404 net.cpp:386] relu3 -> conv3 (in-place)
I0403 12:33:09.646893 26404 net.cpp:141] Setting up relu3
I0403 12:33:09.646921 26404 net.cpp:148] Top shape: 100 384 13 13 (6489600)
I0403 12:33:09.646937 26404 net.cpp:156] Memory required for data: 731481200
I0403 12:33:09.646955 26404 layer_factory.hpp:77] Creating layer conv4
I0403 12:33:09.646982 26404 net.cpp:91] Creating Layer conv4
I0403 12:33:09.647006 26404 net.cpp:425] conv4 <- conv3
I0403 12:33:09.647027 26404 net.cpp:399] conv4 -> conv4
I0403 12:33:09.677624 26404 net.cpp:141] Setting up conv4
I0403 12:33:09.677695 26404 net.cpp:148] Top shape: 100 384 13 13 (6489600)
I0403 12:33:09.677748 26404 net.cpp:156] Memory required for data: 757439600
I0403 12:33:09.677772 26404 layer_factory.hpp:77] Creating layer relu4
I0403 12:33:09.677796 26404 net.cpp:91] Creating Layer relu4
I0403 12:33:09.677814 26404 net.cpp:425] relu4 <- conv4
I0403 12:33:09.677852 26404 net.cpp:386] relu4 -> conv4 (in-place)
I0403 12:33:09.678145 26404 net.cpp:141] Setting up relu4
I0403 12:33:09.678174 26404 net.cpp:148] Top shape: 100 384 13 13 (6489600)
I0403 12:33:09.678190 26404 net.cpp:156] Memory required for data: 783398000
I0403 12:33:09.678206 26404 layer_factory.hpp:77] Creating layer conv5
I0403 12:33:09.678233 26404 net.cpp:91] Creating Layer conv5
I0403 12:33:09.678252 26404 net.cpp:425] conv5 <- conv4
I0403 12:33:09.678277 26404 net.cpp:399] conv5 -> conv5
I0403 12:33:09.699302 26404 net.cpp:141] Setting up conv5
I0403 12:33:09.699354 26404 net.cpp:148] Top shape: 100 256 13 13 (4326400)
I0403 12:33:09.699373 26404 net.cpp:156] Memory required for data: 800703600
I0403 12:33:09.699400 26404 layer_factory.hpp:77] Creating layer relu5
I0403 12:33:09.699425 26404 net.cpp:91] Creating Layer relu5
I0403 12:33:09.699442 26404 net.cpp:425] relu5 <- conv5
I0403 12:33:09.699462 26404 net.cpp:386] relu5 -> conv5 (in-place)
I0403 12:33:09.699761 26404 net.cpp:141] Setting up relu5
I0403 12:33:09.699792 26404 net.cpp:148] Top shape: 100 256 13 13 (4326400)
I0403 12:33:09.699810 26404 net.cpp:156] Memory required for data: 818009200
I0403 12:33:09.699827 26404 layer_factory.hpp:77] Creating layer pool5
I0403 12:33:09.699852 26404 net.cpp:91] Creating Layer pool5
I0403 12:33:09.699869 26404 net.cpp:425] pool5 <- conv5
I0403 12:33:09.699888 26404 net.cpp:399] pool5 -> pool5
I0403 12:33:09.699952 26404 net.cpp:141] Setting up pool5
I0403 12:33:09.699977 26404 net.cpp:148] Top shape: 100 256 6 6 (921600)
I0403 12:33:09.699995 26404 net.cpp:156] Memory required for data: 821695600
I0403 12:33:09.700011 26404 layer_factory.hpp:77] Creating layer fc6
I0403 12:33:09.700039 26404 net.cpp:91] Creating Layer fc6
I0403 12:33:09.700059 26404 net.cpp:425] fc6 <- pool5
I0403 12:33:09.700081 26404 net.cpp:399] fc6 -> fc6
I0403 12:33:11.285389 26404 net.cpp:141] Setting up fc6
I0403 12:33:11.285467 26404 net.cpp:148] Top shape: 100 4096 (409600)
I0403 12:33:11.285485 26404 net.cpp:156] Memory required for data: 823334000
I0403 12:33:11.285507 26404 layer_factory.hpp:77] Creating layer relu6
I0403 12:33:11.285531 26404 net.cpp:91] Creating Layer relu6
I0403 12:33:11.285550 26404 net.cpp:425] relu6 <- fc6
I0403 12:33:11.285573 26404 net.cpp:386] relu6 -> fc6 (in-place)
I0403 12:33:11.285804 26404 net.cpp:141] Setting up relu6
I0403 12:33:11.285831 26404 net.cpp:148] Top shape: 100 4096 (409600)
I0403 12:33:11.285847 26404 net.cpp:156] Memory required for data: 824972400
I0403 12:33:11.285863 26404 layer_factory.hpp:77] Creating layer drop6
I0403 12:33:11.285886 26404 net.cpp:91] Creating Layer drop6
I0403 12:33:11.285903 26404 net.cpp:425] drop6 <- fc6
I0403 12:33:11.285922 26404 net.cpp:386] drop6 -> fc6 (in-place)
I0403 12:33:11.285979 26404 net.cpp:141] Setting up drop6
I0403 12:33:11.286005 26404 net.cpp:148] Top shape: 100 4096 (409600)
I0403 12:33:11.286020 26404 net.cpp:156] Memory required for data: 826610800
I0403 12:33:11.286036 26404 layer_factory.hpp:77] Creating layer fc7
I0403 12:33:11.286056 26404 net.cpp:91] Creating Layer fc7
I0403 12:33:11.286072 26404 net.cpp:425] fc7 <- fc6
I0403 12:33:11.286093 26404 net.cpp:399] fc7 -> fc7
I0403 12:33:11.993520 26404 net.cpp:141] Setting up fc7
I0403 12:33:11.993595 26404 net.cpp:148] Top shape: 100 4096 (409600)
I0403 12:33:11.993613 26404 net.cpp:156] Memory required for data: 828249200
I0403 12:33:11.993636 26404 layer_factory.hpp:77] Creating layer relu7
I0403 12:33:11.993661 26404 net.cpp:91] Creating Layer relu7
I0403 12:33:11.993681 26404 net.cpp:425] relu7 <- fc7
I0403 12:33:11.993700 26404 net.cpp:386] relu7 -> fc7 (in-place)
I0403 12:33:11.994104 26404 net.cpp:141] Setting up relu7
I0403 12:33:11.994132 26404 net.cpp:148] Top shape: 100 4096 (409600)
I0403 12:33:11.994182 26404 net.cpp:156] Memory required for data: 829887600
I0403 12:33:11.994200 26404 layer_factory.hpp:77] Creating layer drop7
I0403 12:33:11.994222 26404 net.cpp:91] Creating Layer drop7
I0403 12:33:11.994240 26404 net.cpp:425] drop7 <- fc7
I0403 12:33:11.994258 26404 net.cpp:386] drop7 -> fc7 (in-place)
I0403 12:33:11.994314 26404 net.cpp:141] Setting up drop7
I0403 12:33:11.994339 26404 net.cpp:148] Top shape: 100 4096 (409600)
I0403 12:33:11.994356 26404 net.cpp:156] Memory required for data: 831526000
I0403 12:33:11.994372 26404 layer_factory.hpp:77] Creating layer fc8_plantvillage
I0403 12:33:11.994392 26404 net.cpp:91] Creating Layer fc8_plantvillage
I0403 12:33:11.994408 26404 net.cpp:425] fc8_plantvillage <- fc7
I0403 12:33:11.994431 26404 net.cpp:399] fc8_plantvillage -> fc8_plantvillage
I0403 12:33:12.001417 26404 net.cpp:141] Setting up fc8_plantvillage
I0403 12:33:12.001451 26404 net.cpp:148] Top shape: 100 38 (3800)
I0403 12:33:12.001467 26404 net.cpp:156] Memory required for data: 831541200
I0403 12:33:12.001487 26404 layer_factory.hpp:77] Creating layer fc8_plantvillage_fc8_plantvillage_0_split
I0403 12:33:12.001507 26404 net.cpp:91] Creating Layer fc8_plantvillage_fc8_plantvillage_0_split
I0403 12:33:12.001523 26404 net.cpp:425] fc8_plantvillage_fc8_plantvillage_0_split <- fc8_plantvillage
I0403 12:33:12.001543 26404 net.cpp:399] fc8_plantvillage_fc8_plantvillage_0_split -> fc8_plantvillage_fc8_plantvillage_0_split_0
I0403 12:33:12.001562 26404 net.cpp:399] fc8_plantvillage_fc8_plantvillage_0_split -> fc8_plantvillage_fc8_plantvillage_0_split_1
I0403 12:33:12.001582 26404 net.cpp:399] fc8_plantvillage_fc8_plantvillage_0_split -> fc8_plantvillage_fc8_plantvillage_0_split_2
I0403 12:33:12.001660 26404 net.cpp:141] Setting up fc8_plantvillage_fc8_plantvillage_0_split
I0403 12:33:12.001687 26404 net.cpp:148] Top shape: 100 38 (3800)
I0403 12:33:12.001704 26404 net.cpp:148] Top shape: 100 38 (3800)
I0403 12:33:12.001721 26404 net.cpp:148] Top shape: 100 38 (3800)
I0403 12:33:12.001735 26404 net.cpp:156] Memory required for data: 831586800
I0403 12:33:12.001751 26404 layer_factory.hpp:77] Creating layer prob
I0403 12:33:12.001771 26404 net.cpp:91] Creating Layer prob
I0403 12:33:12.001787 26404 net.cpp:425] prob <- fc8_plantvillage_fc8_plantvillage_0_split_0
I0403 12:33:12.001807 26404 net.cpp:399] prob -> prob
I0403 12:33:12.002041 26404 net.cpp:141] Setting up prob
I0403 12:33:12.002068 26404 net.cpp:148] Top shape: 100 38 (3800)
I0403 12:33:12.002084 26404 net.cpp:156] Memory required for data: 831602000
I0403 12:33:12.002099 26404 layer_factory.hpp:77] Creating layer hdf5out
I0403 12:33:12.002123 26404 net.cpp:91] Creating Layer hdf5out
I0403 12:33:12.002140 26404 net.cpp:425] hdf5out <- prob
I0403 12:33:12.002158 26404 net.cpp:425] hdf5out <- label_data_1_split_0
I0403 12:33:12.005408 26404 net.cpp:141] Setting up hdf5out
…
