…
I0403 12:49:29.486156 26786 net.cpp:313] The NetState phase (1) differed from the phase (0) specified by a rule in layer data
I0403 12:49:29.486485 26786 net.cpp:49] Initializing net from parameters: 
state {
  phase: TEST
}
layer {
  name: "data"
  type: "Data"
  top: "data"
  top: "label"
  include {
    phase: TEST
  }
  transform_param {
    crop_size: 227
    mean_file: "/home/mohanty/data/final_dataset/lmdb/color-20-80/mean.binaryproto"
  }
  data_param {
    source: "/home/mohanty/data/final_dataset/lmdb/color-20-80/test_db"
    batch_size: 100
    backend: LMDB
  }
}
layer {
  name: "conv1"
  type: "Convolution"
  bottom: "data"
  top: "conv1"
  param {
    lr_mult: 1
    decay_mult: 1
  }
  param {
    lr_mult: 2
    decay_mult: 0
  }
  convolution_param {
    num_output: 96
    kernel_size: 11
    stride: 4
    weight_filler {
      type: "gaussian"
      std: 0.01
    }
    bias_filler {
      type: "constant"
      value: 0
    }
  }
}
layer {
  name: "relu1"
  type: "ReLU"
  bottom: "conv1"
  top: "conv1"
}
layer {
  name: "norm1"
  type: "LRN"
  bottom: "conv1"
  top: "norm1"
  lrn_param {
    local_size: 5
    alpha: 0.0001
    beta: 0.75
  }
}
layer {
  name: "pool1"
  type: "Pooling"
  bottom: "norm1"
  top: "pool1"
  pooling_param {
    pool: MAX
    kernel_size: 3
    stride: 2
  }
}
layer {
  name: "conv2"
  type: "Convolution"
  bottom: "pool1"
  top: "conv2"
  param {
    lr_mult: 1
    decay_mult: 1
  }
  param {
    lr_mult: 2
    decay_mult: 0
  }
  convolution_param {
    num_output: 256
    pad: 2
    kernel_size: 5
    group: 2
    weight_filler {
      type: "gaussian"
      std: 0.01
    }
    bias_filler {
      type: "constant"
      value: 0.1
    }
  }
}
layer {
  name: "relu2"
  type: "ReLU"
  bottom: "conv2"
  top: "conv2"
}
layer {
  name: "norm2"
  type: "LRN"
  bottom: "conv2"
  top: "norm2"
  lrn_param {
    local_size: 5
    alpha: 0.0001
    beta: 0.75
  }
}
layer {
  name: "pool2"
  type: "Pooling"
  bottom: "norm2"
  top: "pool2"
  pooling_param {
    pool: MAX
    kernel_size: 3
    stride: 2
  }
}
layer {
  name: "conv3"
  type: "Convolution"
  bottom: "pool2"
  top: "conv3"
  param {
    lr_mult: 1
    decay_mult: 1
  }
  param {
    lr_mult: 2
    decay_mult: 0
  }
  convolution_param {
    num_output: 384
    pad: 1
    kernel_size: 3
    weight_filler {
      type: "gaussian"
      std: 0.01
    }
    bias_filler {
      type: "constant"
      value: 0
    }
  }
}
layer {
  name: "relu3"
  type: "ReLU"
  bottom: "conv3"
  top: "conv3"
}
layer {
  name: "conv4"
  type: "Convolution"
  bottom: "conv3"
  top: "conv4"
  param {
    lr_mult: 1
    decay_mult: 1
  }
  param {
    lr_mult: 2
    decay_mult: 0
  }
  convolution_param {
    num_output: 384
    pad: 1
    kernel_size: 3
    group: 2
    weight_filler {
      type: "gaussian"
      std: 0.01
    }
    bias_filler {
      type: "constant"
      value: 0.1
    }
  }
}
layer {
  name: "relu4"
  type: "ReLU"
  bottom: "conv4"
  top: "conv4"
}
layer {
  name: "conv5"
  type: "Convolution"
  bottom: "conv4"
  top: "conv5"
  param {
    lr_mult: 1
    decay_mult: 1
  }
  param {
    lr_mult: 2
    decay_mult: 0
  }
  convolution_param {
    num_output: 256
    pad: 1
    kernel_size: 3
    group: 2
    weight_filler {
      type: "gaussian"
      std: 0.01
    }
    bias_filler {
      type: "constant"
      value: 0.1
    }
  }
}
layer {
  name: "relu5"
  type: "ReLU"
  bottom: "conv5"
  top: "conv5"
}
layer {
  name: "pool5"
  type: "Pooling"
  bottom: "conv5"
  top: "pool5"
  pooling_param {
    pool: MAX
    kernel_size: 3
    stride: 2
  }
}
layer {
  name: "fc6"
  type: "InnerProduct"
  bottom: "pool5"
  top: "fc6"
  param {
    lr_mult: 1
    decay_mult: 1
  }
  param {
    lr_mult: 2
    decay_mult: 0
  }
  inner_product_param {
    num_output: 4096
    weight_filler {
      type: "gaussian"
      std: 0.005
    }
    bias_filler {
      type: "constant"
      value: 0.1
    }
  }
}
layer {
  name: "relu6"
  type: "ReLU"
  bottom: "fc6"
  top: "fc6"
}
layer {
  name: "drop6"
  type: "Dropout"
  bottom: "fc6"
  top: "fc6"
  dropout_param {
    dropout_ratio: 0.5
  }
}
layer {
  name: "fc7"
  type: "InnerProduct"
  bottom: "fc6"
  top: "fc7"
  param {
    lr_mult: 1
    decay_mult: 1
  }
  param {
    lr_mult: 2
    decay_mult: 0
  }
  inner_product_param {
    num_output: 4096
    weight_filler {
      type: "gaussian"
      std: 0.005
    }
    bias_filler {
      type: "constant"
      value: 0.1
    }
  }
}
layer {
  name: "relu7"
  type: "ReLU"
  bottom: "fc7"
  top: "fc7"
}
layer {
  name: "drop7"
  type: "Dropout"
  bottom: "fc7"
  top: "fc7"
  dropout_param {
    dropout_ratio: 0.5
  }
}
layer {
  name: "fc8_plantvillage"
  type: "InnerProduct"
  bottom: "fc7"
  top: "fc8_plantvillage"
  param {
    lr_mult: 1
    decay_mult: 1
  }
  param {
    lr_mult: 2
    decay_mult: 0
  }
  inner_product_param {
    num_output: 38
    weight_filler {
      type: "gaussian"
      std: 0.01
    }
    bias_filler {
      type: "constant"
      value: 0
    }
  }
}
layer {
  name: "prob"
  type: "Softmax"
  bottom: "fc8_plantvillage"
  top: "prob"
  include {
    phase: TEST
  }
}
layer {
  name: "hdf5out"
  type: "HDF5Output"
  bottom: "prob"
  bottom: "label"
  include {
    phase: TEST
  }
  hdf5_output_param {
    file_name: "hdf5_dumps/iter_2376.h5"
  }
}
layer {
  name: "loss"
  type: "SoftmaxWithLoss"
  bottom: "fc8_plantvillage"
  bottom: "label"
  top: "loss"
}
layer {
  name: "accuracy"
  type: "Accuracy"
  bottom: "fc8_plantvillage"
  bottom: "label"
  top: "accuracy"
  include {
    phase: TEST
  }
}
I0403 12:49:29.487089 26786 layer_factory.hpp:77] Creating layer data
I0403 12:49:29.487761 26786 net.cpp:91] Creating Layer data
I0403 12:49:29.487792 26786 net.cpp:399] data -> data
I0403 12:49:29.487843 26786 net.cpp:399] data -> label
I0403 12:49:29.487884 26786 data_transformer.cpp:25] Loading mean file from: /home/mohanty/data/final_dataset/lmdb/color-20-80/mean.binaryproto
I0403 12:49:29.491170 26789 db_lmdb.cpp:38] Opened lmdb /home/mohanty/data/final_dataset/lmdb/color-20-80/test_db
I0403 12:49:29.508450 26786 data_layer.cpp:41] output data size: 100,3,227,227
I0403 12:49:29.641350 26786 net.cpp:141] Setting up data
I0403 12:49:29.641443 26786 net.cpp:148] Top shape: 100 3 227 227 (15458700)
I0403 12:49:29.641466 26786 net.cpp:148] Top shape: 100 (100)
I0403 12:49:29.641482 26786 net.cpp:156] Memory required for data: 61835200
I0403 12:49:29.641510 26786 layer_factory.hpp:77] Creating layer label_data_1_split
I0403 12:49:29.641535 26786 net.cpp:91] Creating Layer label_data_1_split
I0403 12:49:29.641554 26786 net.cpp:425] label_data_1_split <- label
I0403 12:49:29.641587 26786 net.cpp:399] label_data_1_split -> label_data_1_split_0
I0403 12:49:29.641613 26786 net.cpp:399] label_data_1_split -> label_data_1_split_1
I0403 12:49:29.641633 26786 net.cpp:399] label_data_1_split -> label_data_1_split_2
I0403 12:49:29.641696 26786 net.cpp:141] Setting up label_data_1_split
I0403 12:49:29.641719 26786 net.cpp:148] Top shape: 100 (100)
I0403 12:49:29.641736 26786 net.cpp:148] Top shape: 100 (100)
I0403 12:49:29.641752 26786 net.cpp:148] Top shape: 100 (100)
I0403 12:49:29.641765 26786 net.cpp:156] Memory required for data: 61836400
I0403 12:49:29.641780 26786 layer_factory.hpp:77] Creating layer conv1
I0403 12:49:29.641813 26786 net.cpp:91] Creating Layer conv1
I0403 12:49:29.641831 26786 net.cpp:425] conv1 <- data
I0403 12:49:29.641850 26786 net.cpp:399] conv1 -> conv1
I0403 12:49:29.784773 26786 net.cpp:141] Setting up conv1
I0403 12:49:29.784849 26786 net.cpp:148] Top shape: 100 96 55 55 (29040000)
I0403 12:49:29.784868 26786 net.cpp:156] Memory required for data: 177996400
I0403 12:49:29.784898 26786 layer_factory.hpp:77] Creating layer relu1
I0403 12:49:29.784927 26786 net.cpp:91] Creating Layer relu1
I0403 12:49:29.784947 26786 net.cpp:425] relu1 <- conv1
I0403 12:49:29.784970 26786 net.cpp:386] relu1 -> conv1 (in-place)
I0403 12:49:29.785244 26786 net.cpp:141] Setting up relu1
I0403 12:49:29.785277 26786 net.cpp:148] Top shape: 100 96 55 55 (29040000)
I0403 12:49:29.785295 26786 net.cpp:156] Memory required for data: 294156400
I0403 12:49:29.785374 26786 layer_factory.hpp:77] Creating layer norm1
I0403 12:49:29.785410 26786 net.cpp:91] Creating Layer norm1
I0403 12:49:29.785430 26786 net.cpp:425] norm1 <- conv1
I0403 12:49:29.785449 26786 net.cpp:399] norm1 -> norm1
I0403 12:49:29.785778 26786 net.cpp:141] Setting up norm1
I0403 12:49:29.785809 26786 net.cpp:148] Top shape: 100 96 55 55 (29040000)
I0403 12:49:29.785823 26786 net.cpp:156] Memory required for data: 410316400
I0403 12:49:29.785840 26786 layer_factory.hpp:77] Creating layer pool1
I0403 12:49:29.785866 26786 net.cpp:91] Creating Layer pool1
I0403 12:49:29.785886 26786 net.cpp:425] pool1 <- norm1
I0403 12:49:29.785904 26786 net.cpp:399] pool1 -> pool1
I0403 12:49:29.785977 26786 net.cpp:141] Setting up pool1
I0403 12:49:29.786003 26786 net.cpp:148] Top shape: 100 96 27 27 (6998400)
I0403 12:49:29.786018 26786 net.cpp:156] Memory required for data: 438310000
I0403 12:49:29.786034 26786 layer_factory.hpp:77] Creating layer conv2
I0403 12:49:29.786062 26786 net.cpp:91] Creating Layer conv2
I0403 12:49:29.786078 26786 net.cpp:425] conv2 <- pool1
I0403 12:49:29.786099 26786 net.cpp:399] conv2 -> conv2
I0403 12:49:29.801453 26786 net.cpp:141] Setting up conv2
I0403 12:49:29.801503 26786 net.cpp:148] Top shape: 100 256 27 27 (18662400)
I0403 12:49:29.801522 26786 net.cpp:156] Memory required for data: 512959600
I0403 12:49:29.801549 26786 layer_factory.hpp:77] Creating layer relu2
I0403 12:49:29.801570 26786 net.cpp:91] Creating Layer relu2
I0403 12:49:29.801586 26786 net.cpp:425] relu2 <- conv2
I0403 12:49:29.801605 26786 net.cpp:386] relu2 -> conv2 (in-place)
I0403 12:49:29.801884 26786 net.cpp:141] Setting up relu2
I0403 12:49:29.801915 26786 net.cpp:148] Top shape: 100 256 27 27 (18662400)
I0403 12:49:29.801933 26786 net.cpp:156] Memory required for data: 587609200
I0403 12:49:29.801949 26786 layer_factory.hpp:77] Creating layer norm2
I0403 12:49:29.801970 26786 net.cpp:91] Creating Layer norm2
I0403 12:49:29.801987 26786 net.cpp:425] norm2 <- conv2
I0403 12:49:29.802008 26786 net.cpp:399] norm2 -> norm2
I0403 12:49:29.802212 26786 net.cpp:141] Setting up norm2
I0403 12:49:29.802239 26786 net.cpp:148] Top shape: 100 256 27 27 (18662400)
I0403 12:49:29.802261 26786 net.cpp:156] Memory required for data: 662258800
I0403 12:49:29.802278 26786 layer_factory.hpp:77] Creating layer pool2
I0403 12:49:29.802299 26786 net.cpp:91] Creating Layer pool2
I0403 12:49:29.802316 26786 net.cpp:425] pool2 <- norm2
I0403 12:49:29.802335 26786 net.cpp:399] pool2 -> pool2
I0403 12:49:29.802389 26786 net.cpp:141] Setting up pool2
I0403 12:49:29.802413 26786 net.cpp:148] Top shape: 100 256 13 13 (4326400)
I0403 12:49:29.802429 26786 net.cpp:156] Memory required for data: 679564400
I0403 12:49:29.802444 26786 layer_factory.hpp:77] Creating layer conv3
I0403 12:49:29.802469 26786 net.cpp:91] Creating Layer conv3
I0403 12:49:29.802489 26786 net.cpp:425] conv3 <- pool2
I0403 12:49:29.802508 26786 net.cpp:399] conv3 -> conv3
I0403 12:49:29.841575 26786 net.cpp:141] Setting up conv3
I0403 12:49:29.841651 26786 net.cpp:148] Top shape: 100 384 13 13 (6489600)
I0403 12:49:29.841667 26786 net.cpp:156] Memory required for data: 705522800
I0403 12:49:29.841693 26786 layer_factory.hpp:77] Creating layer relu3
I0403 12:49:29.841718 26786 net.cpp:91] Creating Layer relu3
I0403 12:49:29.841737 26786 net.cpp:425] relu3 <- conv3
I0403 12:49:29.841755 26786 net.cpp:386] relu3 -> conv3 (in-place)
I0403 12:49:29.842032 26786 net.cpp:141] Setting up relu3
I0403 12:49:29.842059 26786 net.cpp:148] Top shape: 100 384 13 13 (6489600)
I0403 12:49:29.842075 26786 net.cpp:156] Memory required for data: 731481200
I0403 12:49:29.842092 26786 layer_factory.hpp:77] Creating layer conv4
I0403 12:49:29.842118 26786 net.cpp:91] Creating Layer conv4
I0403 12:49:29.842138 26786 net.cpp:425] conv4 <- conv3
I0403 12:49:29.842156 26786 net.cpp:399] conv4 -> conv4
I0403 12:49:29.872390 26786 net.cpp:141] Setting up conv4
I0403 12:49:29.872452 26786 net.cpp:148] Top shape: 100 384 13 13 (6489600)
I0403 12:49:29.872501 26786 net.cpp:156] Memory required for data: 757439600
I0403 12:49:29.872524 26786 layer_factory.hpp:77] Creating layer relu4
I0403 12:49:29.872548 26786 net.cpp:91] Creating Layer relu4
I0403 12:49:29.872565 26786 net.cpp:425] relu4 <- conv4
I0403 12:49:29.872596 26786 net.cpp:386] relu4 -> conv4 (in-place)
I0403 12:49:29.872877 26786 net.cpp:141] Setting up relu4
I0403 12:49:29.872905 26786 net.cpp:148] Top shape: 100 384 13 13 (6489600)
I0403 12:49:29.872921 26786 net.cpp:156] Memory required for data: 783398000
I0403 12:49:29.872937 26786 layer_factory.hpp:77] Creating layer conv5
I0403 12:49:29.872972 26786 net.cpp:91] Creating Layer conv5
I0403 12:49:29.872992 26786 net.cpp:425] conv5 <- conv4
I0403 12:49:29.873013 26786 net.cpp:399] conv5 -> conv5
I0403 12:49:29.893995 26786 net.cpp:141] Setting up conv5
I0403 12:49:29.894052 26786 net.cpp:148] Top shape: 100 256 13 13 (4326400)
I0403 12:49:29.894070 26786 net.cpp:156] Memory required for data: 800703600
I0403 12:49:29.894099 26786 layer_factory.hpp:77] Creating layer relu5
I0403 12:49:29.894124 26786 net.cpp:91] Creating Layer relu5
I0403 12:49:29.894140 26786 net.cpp:425] relu5 <- conv5
I0403 12:49:29.894160 26786 net.cpp:386] relu5 -> conv5 (in-place)
I0403 12:49:29.894446 26786 net.cpp:141] Setting up relu5
I0403 12:49:29.894474 26786 net.cpp:148] Top shape: 100 256 13 13 (4326400)
I0403 12:49:29.894495 26786 net.cpp:156] Memory required for data: 818009200
I0403 12:49:29.894510 26786 layer_factory.hpp:77] Creating layer pool5
I0403 12:49:29.894533 26786 net.cpp:91] Creating Layer pool5
I0403 12:49:29.894551 26786 net.cpp:425] pool5 <- conv5
I0403 12:49:29.894569 26786 net.cpp:399] pool5 -> pool5
I0403 12:49:29.894634 26786 net.cpp:141] Setting up pool5
I0403 12:49:29.894657 26786 net.cpp:148] Top shape: 100 256 6 6 (921600)
I0403 12:49:29.894672 26786 net.cpp:156] Memory required for data: 821695600
I0403 12:49:29.894688 26786 layer_factory.hpp:77] Creating layer fc6
I0403 12:49:29.894717 26786 net.cpp:91] Creating Layer fc6
I0403 12:49:29.894736 26786 net.cpp:425] fc6 <- pool5
I0403 12:49:29.894757 26786 net.cpp:399] fc6 -> fc6
I0403 12:49:31.455639 26786 net.cpp:141] Setting up fc6
I0403 12:49:31.455705 26786 net.cpp:148] Top shape: 100 4096 (409600)
I0403 12:49:31.455721 26786 net.cpp:156] Memory required for data: 823334000
I0403 12:49:31.455744 26786 layer_factory.hpp:77] Creating layer relu6
I0403 12:49:31.455777 26786 net.cpp:91] Creating Layer relu6
I0403 12:49:31.455796 26786 net.cpp:425] relu6 <- fc6
I0403 12:49:31.455818 26786 net.cpp:386] relu6 -> fc6 (in-place)
I0403 12:49:31.456039 26786 net.cpp:141] Setting up relu6
I0403 12:49:31.456064 26786 net.cpp:148] Top shape: 100 4096 (409600)
I0403 12:49:31.456079 26786 net.cpp:156] Memory required for data: 824972400
I0403 12:49:31.456094 26786 layer_factory.hpp:77] Creating layer drop6
I0403 12:49:31.456115 26786 net.cpp:91] Creating Layer drop6
I0403 12:49:31.456130 26786 net.cpp:425] drop6 <- fc6
I0403 12:49:31.456147 26786 net.cpp:386] drop6 -> fc6 (in-place)
I0403 12:49:31.456202 26786 net.cpp:141] Setting up drop6
I0403 12:49:31.456224 26786 net.cpp:148] Top shape: 100 4096 (409600)
I0403 12:49:31.456239 26786 net.cpp:156] Memory required for data: 826610800
I0403 12:49:31.456259 26786 layer_factory.hpp:77] Creating layer fc7
I0403 12:49:31.456282 26786 net.cpp:91] Creating Layer fc7
I0403 12:49:31.456300 26786 net.cpp:425] fc7 <- fc6
I0403 12:49:31.456316 26786 net.cpp:399] fc7 -> fc7
I0403 12:49:32.142256 26786 net.cpp:141] Setting up fc7
I0403 12:49:32.142302 26786 net.cpp:148] Top shape: 100 4096 (409600)
I0403 12:49:32.142318 26786 net.cpp:156] Memory required for data: 828249200
I0403 12:49:32.142340 26786 layer_factory.hpp:77] Creating layer relu7
I0403 12:49:32.142365 26786 net.cpp:91] Creating Layer relu7
I0403 12:49:32.142384 26786 net.cpp:425] relu7 <- fc7
I0403 12:49:32.142402 26786 net.cpp:386] relu7 -> fc7 (in-place)
I0403 12:49:32.142781 26786 net.cpp:141] Setting up relu7
I0403 12:49:32.142808 26786 net.cpp:148] Top shape: 100 4096 (409600)
I0403 12:49:32.142853 26786 net.cpp:156] Memory required for data: 829887600
I0403 12:49:32.142870 26786 layer_factory.hpp:77] Creating layer drop7
I0403 12:49:32.142890 26786 net.cpp:91] Creating Layer drop7
I0403 12:49:32.142906 26786 net.cpp:425] drop7 <- fc7
I0403 12:49:32.142925 26786 net.cpp:386] drop7 -> fc7 (in-place)
I0403 12:49:32.142971 26786 net.cpp:141] Setting up drop7
I0403 12:49:32.142993 26786 net.cpp:148] Top shape: 100 4096 (409600)
I0403 12:49:32.143008 26786 net.cpp:156] Memory required for data: 831526000
I0403 12:49:32.143023 26786 layer_factory.hpp:77] Creating layer fc8_plantvillage
I0403 12:49:32.143043 26786 net.cpp:91] Creating Layer fc8_plantvillage
I0403 12:49:32.143059 26786 net.cpp:425] fc8_plantvillage <- fc7
I0403 12:49:32.143079 26786 net.cpp:399] fc8_plantvillage -> fc8_plantvillage
I0403 12:49:32.149724 26786 net.cpp:141] Setting up fc8_plantvillage
I0403 12:49:32.149754 26786 net.cpp:148] Top shape: 100 38 (3800)
I0403 12:49:32.149770 26786 net.cpp:156] Memory required for data: 831541200
I0403 12:49:32.149788 26786 layer_factory.hpp:77] Creating layer fc8_plantvillage_fc8_plantvillage_0_split
I0403 12:49:32.149807 26786 net.cpp:91] Creating Layer fc8_plantvillage_fc8_plantvillage_0_split
I0403 12:49:32.149823 26786 net.cpp:425] fc8_plantvillage_fc8_plantvillage_0_split <- fc8_plantvillage
I0403 12:49:32.149840 26786 net.cpp:399] fc8_plantvillage_fc8_plantvillage_0_split -> fc8_plantvillage_fc8_plantvillage_0_split_0
I0403 12:49:32.149860 26786 net.cpp:399] fc8_plantvillage_fc8_plantvillage_0_split -> fc8_plantvillage_fc8_plantvillage_0_split_1
I0403 12:49:32.149880 26786 net.cpp:399] fc8_plantvillage_fc8_plantvillage_0_split -> fc8_plantvillage_fc8_plantvillage_0_split_2
I0403 12:49:32.149955 26786 net.cpp:141] Setting up fc8_plantvillage_fc8_plantvillage_0_split
I0403 12:49:32.149979 26786 net.cpp:148] Top shape: 100 38 (3800)
I0403 12:49:32.149996 26786 net.cpp:148] Top shape: 100 38 (3800)
I0403 12:49:32.150010 26786 net.cpp:148] Top shape: 100 38 (3800)
I0403 12:49:32.150024 26786 net.cpp:156] Memory required for data: 831586800
I0403 12:49:32.150039 26786 layer_factory.hpp:77] Creating layer prob
I0403 12:49:32.150058 26786 net.cpp:91] Creating Layer prob
I0403 12:49:32.150074 26786 net.cpp:425] prob <- fc8_plantvillage_fc8_plantvillage_0_split_0
I0403 12:49:32.150091 26786 net.cpp:399] prob -> prob
I0403 12:49:32.150317 26786 net.cpp:141] Setting up prob
I0403 12:49:32.150342 26786 net.cpp:148] Top shape: 100 38 (3800)
I0403 12:49:32.150358 26786 net.cpp:156] Memory required for data: 831602000
I0403 12:49:32.150372 26786 layer_factory.hpp:77] Creating layer hdf5out
I0403 12:49:32.150393 26786 net.cpp:91] Creating Layer hdf5out
I0403 12:49:32.150410 26786 net.cpp:425] hdf5out <- prob
I0403 12:49:32.150426 26786 net.cpp:425] hdf5out <- label_data_1_split_0
I0403 12:49:32.167186 26786 net.cpp:141] Setting up hdf5out
…
