…
I0403 12:43:31.740505 26638 net.cpp:313] The NetState phase (1) differed from the phase (0) specified by a rule in layer data
I0403 12:43:31.740813 26638 net.cpp:49] Initializing net from parameters: 
state {
  phase: TEST
}
layer {
  name: "data"
  type: "Data"
  top: "data"
  top: "label"
  include {
    phase: TEST
  }
  transform_param {
    crop_size: 227
    mean_file: "/home/mohanty/data/final_dataset/lmdb/color-20-80/mean.binaryproto"
  }
  data_param {
    source: "/home/mohanty/data/final_dataset/lmdb/color-20-80/test_db"
    batch_size: 100
    backend: LMDB
  }
}
layer {
  name: "conv1"
  type: "Convolution"
  bottom: "data"
  top: "conv1"
  param {
    lr_mult: 1
    decay_mult: 1
  }
  param {
    lr_mult: 2
    decay_mult: 0
  }
  convolution_param {
    num_output: 96
    kernel_size: 11
    stride: 4
    weight_filler {
      type: "gaussian"
      std: 0.01
    }
    bias_filler {
      type: "constant"
      value: 0
    }
  }
}
layer {
  name: "relu1"
  type: "ReLU"
  bottom: "conv1"
  top: "conv1"
}
layer {
  name: "norm1"
  type: "LRN"
  bottom: "conv1"
  top: "norm1"
  lrn_param {
    local_size: 5
    alpha: 0.0001
    beta: 0.75
  }
}
layer {
  name: "pool1"
  type: "Pooling"
  bottom: "norm1"
  top: "pool1"
  pooling_param {
    pool: MAX
    kernel_size: 3
    stride: 2
  }
}
layer {
  name: "conv2"
  type: "Convolution"
  bottom: "pool1"
  top: "conv2"
  param {
    lr_mult: 1
    decay_mult: 1
  }
  param {
    lr_mult: 2
    decay_mult: 0
  }
  convolution_param {
    num_output: 256
    pad: 2
    kernel_size: 5
    group: 2
    weight_filler {
      type: "gaussian"
      std: 0.01
    }
    bias_filler {
      type: "constant"
      value: 0.1
    }
  }
}
layer {
  name: "relu2"
  type: "ReLU"
  bottom: "conv2"
  top: "conv2"
}
layer {
  name: "norm2"
  type: "LRN"
  bottom: "conv2"
  top: "norm2"
  lrn_param {
    local_size: 5
    alpha: 0.0001
    beta: 0.75
  }
}
layer {
  name: "pool2"
  type: "Pooling"
  bottom: "norm2"
  top: "pool2"
  pooling_param {
    pool: MAX
    kernel_size: 3
    stride: 2
  }
}
layer {
  name: "conv3"
  type: "Convolution"
  bottom: "pool2"
  top: "conv3"
  param {
    lr_mult: 1
    decay_mult: 1
  }
  param {
    lr_mult: 2
    decay_mult: 0
  }
  convolution_param {
    num_output: 384
    pad: 1
    kernel_size: 3
    weight_filler {
      type: "gaussian"
      std: 0.01
    }
    bias_filler {
      type: "constant"
      value: 0
    }
  }
}
layer {
  name: "relu3"
  type: "ReLU"
  bottom: "conv3"
  top: "conv3"
}
layer {
  name: "conv4"
  type: "Convolution"
  bottom: "conv3"
  top: "conv4"
  param {
    lr_mult: 1
    decay_mult: 1
  }
  param {
    lr_mult: 2
    decay_mult: 0
  }
  convolution_param {
    num_output: 384
    pad: 1
    kernel_size: 3
    group: 2
    weight_filler {
      type: "gaussian"
      std: 0.01
    }
    bias_filler {
      type: "constant"
      value: 0.1
    }
  }
}
layer {
  name: "relu4"
  type: "ReLU"
  bottom: "conv4"
  top: "conv4"
}
layer {
  name: "conv5"
  type: "Convolution"
  bottom: "conv4"
  top: "conv5"
  param {
    lr_mult: 1
    decay_mult: 1
  }
  param {
    lr_mult: 2
    decay_mult: 0
  }
  convolution_param {
    num_output: 256
    pad: 1
    kernel_size: 3
    group: 2
    weight_filler {
      type: "gaussian"
      std: 0.01
    }
    bias_filler {
      type: "constant"
      value: 0.1
    }
  }
}
layer {
  name: "relu5"
  type: "ReLU"
  bottom: "conv5"
  top: "conv5"
}
layer {
  name: "pool5"
  type: "Pooling"
  bottom: "conv5"
  top: "pool5"
  pooling_param {
    pool: MAX
    kernel_size: 3
    stride: 2
  }
}
layer {
  name: "fc6"
  type: "InnerProduct"
  bottom: "pool5"
  top: "fc6"
  param {
    lr_mult: 1
    decay_mult: 1
  }
  param {
    lr_mult: 2
    decay_mult: 0
  }
  inner_product_param {
    num_output: 4096
    weight_filler {
      type: "gaussian"
      std: 0.005
    }
    bias_filler {
      type: "constant"
      value: 0.1
    }
  }
}
layer {
  name: "relu6"
  type: "ReLU"
  bottom: "fc6"
  top: "fc6"
}
layer {
  name: "drop6"
  type: "Dropout"
  bottom: "fc6"
  top: "fc6"
  dropout_param {
    dropout_ratio: 0.5
  }
}
layer {
  name: "fc7"
  type: "InnerProduct"
  bottom: "fc6"
  top: "fc7"
  param {
    lr_mult: 1
    decay_mult: 1
  }
  param {
    lr_mult: 2
    decay_mult: 0
  }
  inner_product_param {
    num_output: 4096
    weight_filler {
      type: "gaussian"
      std: 0.005
    }
    bias_filler {
      type: "constant"
      value: 0.1
    }
  }
}
layer {
  name: "relu7"
  type: "ReLU"
  bottom: "fc7"
  top: "fc7"
}
layer {
  name: "drop7"
  type: "Dropout"
  bottom: "fc7"
  top: "fc7"
  dropout_param {
    dropout_ratio: 0.5
  }
}
layer {
  name: "fc8_plantvillage"
  type: "InnerProduct"
  bottom: "fc7"
  top: "fc8_plantvillage"
  param {
    lr_mult: 1
    decay_mult: 1
  }
  param {
    lr_mult: 2
    decay_mult: 0
  }
  inner_product_param {
    num_output: 38
    weight_filler {
      type: "gaussian"
      std: 0.01
    }
    bias_filler {
      type: "constant"
      value: 0
    }
  }
}
layer {
  name: "prob"
  type: "Softmax"
  bottom: "fc8_plantvillage"
  top: "prob"
  include {
    phase: TEST
  }
}
layer {
  name: "hdf5out"
  type: "HDF5Output"
  bottom: "prob"
  bottom: "label"
  include {
    phase: TEST
  }
  hdf5_output_param {
    file_name: "hdf5_dumps/iter_1944.h5"
  }
}
layer {
  name: "loss"
  type: "SoftmaxWithLoss"
  bottom: "fc8_plantvillage"
  bottom: "label"
  top: "loss"
}
layer {
  name: "accuracy"
  type: "Accuracy"
  bottom: "fc8_plantvillage"
  bottom: "label"
  top: "accuracy"
  include {
    phase: TEST
  }
}
I0403 12:43:31.741426 26638 layer_factory.hpp:77] Creating layer data
I0403 12:43:31.742072 26638 net.cpp:91] Creating Layer data
I0403 12:43:31.742105 26638 net.cpp:399] data -> data
I0403 12:43:31.742157 26638 net.cpp:399] data -> label
I0403 12:43:31.742194 26638 data_transformer.cpp:25] Loading mean file from: /home/mohanty/data/final_dataset/lmdb/color-20-80/mean.binaryproto
I0403 12:43:31.745853 26642 db_lmdb.cpp:38] Opened lmdb /home/mohanty/data/final_dataset/lmdb/color-20-80/test_db
I0403 12:43:31.759704 26638 data_layer.cpp:41] output data size: 100,3,227,227
I0403 12:43:31.890727 26638 net.cpp:141] Setting up data
I0403 12:43:31.890821 26638 net.cpp:148] Top shape: 100 3 227 227 (15458700)
I0403 12:43:31.890846 26638 net.cpp:148] Top shape: 100 (100)
I0403 12:43:31.890861 26638 net.cpp:156] Memory required for data: 61835200
I0403 12:43:31.890889 26638 layer_factory.hpp:77] Creating layer label_data_1_split
I0403 12:43:31.890915 26638 net.cpp:91] Creating Layer label_data_1_split
I0403 12:43:31.890933 26638 net.cpp:425] label_data_1_split <- label
I0403 12:43:31.890965 26638 net.cpp:399] label_data_1_split -> label_data_1_split_0
I0403 12:43:31.890993 26638 net.cpp:399] label_data_1_split -> label_data_1_split_1
I0403 12:43:31.891015 26638 net.cpp:399] label_data_1_split -> label_data_1_split_2
I0403 12:43:31.891080 26638 net.cpp:141] Setting up label_data_1_split
I0403 12:43:31.891105 26638 net.cpp:148] Top shape: 100 (100)
I0403 12:43:31.891122 26638 net.cpp:148] Top shape: 100 (100)
I0403 12:43:31.891139 26638 net.cpp:148] Top shape: 100 (100)
I0403 12:43:31.891154 26638 net.cpp:156] Memory required for data: 61836400
I0403 12:43:31.891170 26638 layer_factory.hpp:77] Creating layer conv1
I0403 12:43:31.891201 26638 net.cpp:91] Creating Layer conv1
I0403 12:43:31.891222 26638 net.cpp:425] conv1 <- data
I0403 12:43:31.891242 26638 net.cpp:399] conv1 -> conv1
I0403 12:43:32.041478 26638 net.cpp:141] Setting up conv1
I0403 12:43:32.041558 26638 net.cpp:148] Top shape: 100 96 55 55 (29040000)
I0403 12:43:32.041577 26638 net.cpp:156] Memory required for data: 177996400
I0403 12:43:32.041610 26638 layer_factory.hpp:77] Creating layer relu1
I0403 12:43:32.041640 26638 net.cpp:91] Creating Layer relu1
I0403 12:43:32.041659 26638 net.cpp:425] relu1 <- conv1
I0403 12:43:32.041682 26638 net.cpp:386] relu1 -> conv1 (in-place)
I0403 12:43:32.041945 26638 net.cpp:141] Setting up relu1
I0403 12:43:32.041975 26638 net.cpp:148] Top shape: 100 96 55 55 (29040000)
I0403 12:43:32.041991 26638 net.cpp:156] Memory required for data: 294156400
I0403 12:43:32.042057 26638 layer_factory.hpp:77] Creating layer norm1
I0403 12:43:32.042088 26638 net.cpp:91] Creating Layer norm1
I0403 12:43:32.042109 26638 net.cpp:425] norm1 <- conv1
I0403 12:43:32.042129 26638 net.cpp:399] norm1 -> norm1
I0403 12:43:32.042464 26638 net.cpp:141] Setting up norm1
I0403 12:43:32.042497 26638 net.cpp:148] Top shape: 100 96 55 55 (29040000)
I0403 12:43:32.042515 26638 net.cpp:156] Memory required for data: 410316400
I0403 12:43:32.042532 26638 layer_factory.hpp:77] Creating layer pool1
I0403 12:43:32.042557 26638 net.cpp:91] Creating Layer pool1
I0403 12:43:32.042577 26638 net.cpp:425] pool1 <- norm1
I0403 12:43:32.042598 26638 net.cpp:399] pool1 -> pool1
I0403 12:43:32.042675 26638 net.cpp:141] Setting up pool1
I0403 12:43:32.042701 26638 net.cpp:148] Top shape: 100 96 27 27 (6998400)
I0403 12:43:32.042717 26638 net.cpp:156] Memory required for data: 438310000
I0403 12:43:32.042734 26638 layer_factory.hpp:77] Creating layer conv2
I0403 12:43:32.042764 26638 net.cpp:91] Creating Layer conv2
I0403 12:43:32.042783 26638 net.cpp:425] conv2 <- pool1
I0403 12:43:32.042804 26638 net.cpp:399] conv2 -> conv2
I0403 12:43:32.058501 26638 net.cpp:141] Setting up conv2
I0403 12:43:32.058549 26638 net.cpp:148] Top shape: 100 256 27 27 (18662400)
I0403 12:43:32.058568 26638 net.cpp:156] Memory required for data: 512959600
I0403 12:43:32.058591 26638 layer_factory.hpp:77] Creating layer relu2
I0403 12:43:32.058615 26638 net.cpp:91] Creating Layer relu2
I0403 12:43:32.058632 26638 net.cpp:425] relu2 <- conv2
I0403 12:43:32.058652 26638 net.cpp:386] relu2 -> conv2 (in-place)
I0403 12:43:32.058956 26638 net.cpp:141] Setting up relu2
I0403 12:43:32.058985 26638 net.cpp:148] Top shape: 100 256 27 27 (18662400)
I0403 12:43:32.059002 26638 net.cpp:156] Memory required for data: 587609200
I0403 12:43:32.059018 26638 layer_factory.hpp:77] Creating layer norm2
I0403 12:43:32.059044 26638 net.cpp:91] Creating Layer norm2
I0403 12:43:32.059062 26638 net.cpp:425] norm2 <- conv2
I0403 12:43:32.059082 26638 net.cpp:399] norm2 -> norm2
I0403 12:43:32.059298 26638 net.cpp:141] Setting up norm2
I0403 12:43:32.059325 26638 net.cpp:148] Top shape: 100 256 27 27 (18662400)
I0403 12:43:32.059342 26638 net.cpp:156] Memory required for data: 662258800
I0403 12:43:32.059360 26638 layer_factory.hpp:77] Creating layer pool2
I0403 12:43:32.059378 26638 net.cpp:91] Creating Layer pool2
I0403 12:43:32.059394 26638 net.cpp:425] pool2 <- norm2
I0403 12:43:32.059415 26638 net.cpp:399] pool2 -> pool2
I0403 12:43:32.059473 26638 net.cpp:141] Setting up pool2
I0403 12:43:32.059501 26638 net.cpp:148] Top shape: 100 256 13 13 (4326400)
I0403 12:43:32.059520 26638 net.cpp:156] Memory required for data: 679564400
I0403 12:43:32.059536 26638 layer_factory.hpp:77] Creating layer conv3
I0403 12:43:32.059562 26638 net.cpp:91] Creating Layer conv3
I0403 12:43:32.059581 26638 net.cpp:425] conv3 <- pool2
I0403 12:43:32.059602 26638 net.cpp:399] conv3 -> conv3
I0403 12:43:32.109856 26638 net.cpp:141] Setting up conv3
I0403 12:43:32.109933 26638 net.cpp:148] Top shape: 100 384 13 13 (6489600)
I0403 12:43:32.109951 26638 net.cpp:156] Memory required for data: 705522800
I0403 12:43:32.109977 26638 layer_factory.hpp:77] Creating layer relu3
I0403 12:43:32.110002 26638 net.cpp:91] Creating Layer relu3
I0403 12:43:32.110021 26638 net.cpp:425] relu3 <- conv3
I0403 12:43:32.110044 26638 net.cpp:386] relu3 -> conv3 (in-place)
I0403 12:43:32.110337 26638 net.cpp:141] Setting up relu3
I0403 12:43:32.110365 26638 net.cpp:148] Top shape: 100 384 13 13 (6489600)
I0403 12:43:32.110383 26638 net.cpp:156] Memory required for data: 731481200
I0403 12:43:32.110399 26638 layer_factory.hpp:77] Creating layer conv4
I0403 12:43:32.110426 26638 net.cpp:91] Creating Layer conv4
I0403 12:43:32.110446 26638 net.cpp:425] conv4 <- conv3
I0403 12:43:32.110471 26638 net.cpp:399] conv4 -> conv4
I0403 12:43:32.142071 26638 net.cpp:141] Setting up conv4
I0403 12:43:32.142140 26638 net.cpp:148] Top shape: 100 384 13 13 (6489600)
I0403 12:43:32.142190 26638 net.cpp:156] Memory required for data: 757439600
I0403 12:43:32.142215 26638 layer_factory.hpp:77] Creating layer relu4
I0403 12:43:32.142238 26638 net.cpp:91] Creating Layer relu4
I0403 12:43:32.142257 26638 net.cpp:425] relu4 <- conv4
I0403 12:43:32.142282 26638 net.cpp:386] relu4 -> conv4 (in-place)
I0403 12:43:32.142577 26638 net.cpp:141] Setting up relu4
I0403 12:43:32.142606 26638 net.cpp:148] Top shape: 100 384 13 13 (6489600)
I0403 12:43:32.142623 26638 net.cpp:156] Memory required for data: 783398000
I0403 12:43:32.142640 26638 layer_factory.hpp:77] Creating layer conv5
I0403 12:43:32.142668 26638 net.cpp:91] Creating Layer conv5
I0403 12:43:32.142688 26638 net.cpp:425] conv5 <- conv4
I0403 12:43:32.142709 26638 net.cpp:399] conv5 -> conv5
I0403 12:43:32.164407 26638 net.cpp:141] Setting up conv5
I0403 12:43:32.164466 26638 net.cpp:148] Top shape: 100 256 13 13 (4326400)
I0403 12:43:32.164484 26638 net.cpp:156] Memory required for data: 800703600
I0403 12:43:32.164510 26638 layer_factory.hpp:77] Creating layer relu5
I0403 12:43:32.164535 26638 net.cpp:91] Creating Layer relu5
I0403 12:43:32.164568 26638 net.cpp:425] relu5 <- conv5
I0403 12:43:32.164590 26638 net.cpp:386] relu5 -> conv5 (in-place)
I0403 12:43:32.164881 26638 net.cpp:141] Setting up relu5
I0403 12:43:32.164911 26638 net.cpp:148] Top shape: 100 256 13 13 (4326400)
I0403 12:43:32.164927 26638 net.cpp:156] Memory required for data: 818009200
I0403 12:43:32.164944 26638 layer_factory.hpp:77] Creating layer pool5
I0403 12:43:32.164973 26638 net.cpp:91] Creating Layer pool5
I0403 12:43:32.164990 26638 net.cpp:425] pool5 <- conv5
I0403 12:43:32.165010 26638 net.cpp:399] pool5 -> pool5
I0403 12:43:32.165074 26638 net.cpp:141] Setting up pool5
I0403 12:43:32.165101 26638 net.cpp:148] Top shape: 100 256 6 6 (921600)
I0403 12:43:32.165118 26638 net.cpp:156] Memory required for data: 821695600
I0403 12:43:32.165134 26638 layer_factory.hpp:77] Creating layer fc6
I0403 12:43:32.165163 26638 net.cpp:91] Creating Layer fc6
I0403 12:43:32.165181 26638 net.cpp:425] fc6 <- pool5
I0403 12:43:32.165205 26638 net.cpp:399] fc6 -> fc6
I0403 12:43:33.727152 26638 net.cpp:141] Setting up fc6
I0403 12:43:33.727228 26638 net.cpp:148] Top shape: 100 4096 (409600)
I0403 12:43:33.727246 26638 net.cpp:156] Memory required for data: 823334000
I0403 12:43:33.727267 26638 layer_factory.hpp:77] Creating layer relu6
I0403 12:43:33.727295 26638 net.cpp:91] Creating Layer relu6
I0403 12:43:33.727314 26638 net.cpp:425] relu6 <- fc6
I0403 12:43:33.727334 26638 net.cpp:386] relu6 -> fc6 (in-place)
I0403 12:43:33.727560 26638 net.cpp:141] Setting up relu6
I0403 12:43:33.727586 26638 net.cpp:148] Top shape: 100 4096 (409600)
I0403 12:43:33.727601 26638 net.cpp:156] Memory required for data: 824972400
I0403 12:43:33.727615 26638 layer_factory.hpp:77] Creating layer drop6
I0403 12:43:33.727633 26638 net.cpp:91] Creating Layer drop6
I0403 12:43:33.727649 26638 net.cpp:425] drop6 <- fc6
I0403 12:43:33.727670 26638 net.cpp:386] drop6 -> fc6 (in-place)
I0403 12:43:33.727721 26638 net.cpp:141] Setting up drop6
I0403 12:43:33.727748 26638 net.cpp:148] Top shape: 100 4096 (409600)
I0403 12:43:33.727763 26638 net.cpp:156] Memory required for data: 826610800
I0403 12:43:33.727778 26638 layer_factory.hpp:77] Creating layer fc7
I0403 12:43:33.727798 26638 net.cpp:91] Creating Layer fc7
I0403 12:43:33.727814 26638 net.cpp:425] fc7 <- fc6
I0403 12:43:33.727834 26638 net.cpp:399] fc7 -> fc7
I0403 12:43:34.413743 26638 net.cpp:141] Setting up fc7
I0403 12:43:34.413794 26638 net.cpp:148] Top shape: 100 4096 (409600)
I0403 12:43:34.413810 26638 net.cpp:156] Memory required for data: 828249200
I0403 12:43:34.413831 26638 layer_factory.hpp:77] Creating layer relu7
I0403 12:43:34.413853 26638 net.cpp:91] Creating Layer relu7
I0403 12:43:34.413871 26638 net.cpp:425] relu7 <- fc7
I0403 12:43:34.413892 26638 net.cpp:386] relu7 -> fc7 (in-place)
I0403 12:43:34.414280 26638 net.cpp:141] Setting up relu7
I0403 12:43:34.414311 26638 net.cpp:148] Top shape: 100 4096 (409600)
I0403 12:43:34.414361 26638 net.cpp:156] Memory required for data: 829887600
I0403 12:43:34.414376 26638 layer_factory.hpp:77] Creating layer drop7
I0403 12:43:34.414396 26638 net.cpp:91] Creating Layer drop7
I0403 12:43:34.414412 26638 net.cpp:425] drop7 <- fc7
I0403 12:43:34.414430 26638 net.cpp:386] drop7 -> fc7 (in-place)
I0403 12:43:34.414472 26638 net.cpp:141] Setting up drop7
I0403 12:43:34.414499 26638 net.cpp:148] Top shape: 100 4096 (409600)
I0403 12:43:34.414513 26638 net.cpp:156] Memory required for data: 831526000
I0403 12:43:34.414528 26638 layer_factory.hpp:77] Creating layer fc8_plantvillage
I0403 12:43:34.414547 26638 net.cpp:91] Creating Layer fc8_plantvillage
I0403 12:43:34.414562 26638 net.cpp:425] fc8_plantvillage <- fc7
I0403 12:43:34.414582 26638 net.cpp:399] fc8_plantvillage -> fc8_plantvillage
I0403 12:43:34.421314 26638 net.cpp:141] Setting up fc8_plantvillage
I0403 12:43:34.421342 26638 net.cpp:148] Top shape: 100 38 (3800)
I0403 12:43:34.421360 26638 net.cpp:156] Memory required for data: 831541200
I0403 12:43:34.421378 26638 layer_factory.hpp:77] Creating layer fc8_plantvillage_fc8_plantvillage_0_split
I0403 12:43:34.421401 26638 net.cpp:91] Creating Layer fc8_plantvillage_fc8_plantvillage_0_split
I0403 12:43:34.421416 26638 net.cpp:425] fc8_plantvillage_fc8_plantvillage_0_split <- fc8_plantvillage
I0403 12:43:34.421434 26638 net.cpp:399] fc8_plantvillage_fc8_plantvillage_0_split -> fc8_plantvillage_fc8_plantvillage_0_split_0
I0403 12:43:34.421454 26638 net.cpp:399] fc8_plantvillage_fc8_plantvillage_0_split -> fc8_plantvillage_fc8_plantvillage_0_split_1
I0403 12:43:34.421475 26638 net.cpp:399] fc8_plantvillage_fc8_plantvillage_0_split -> fc8_plantvillage_fc8_plantvillage_0_split_2
I0403 12:43:34.421556 26638 net.cpp:141] Setting up fc8_plantvillage_fc8_plantvillage_0_split
I0403 12:43:34.421583 26638 net.cpp:148] Top shape: 100 38 (3800)
I0403 12:43:34.421602 26638 net.cpp:148] Top shape: 100 38 (3800)
I0403 12:43:34.421617 26638 net.cpp:148] Top shape: 100 38 (3800)
I0403 12:43:34.421632 26638 net.cpp:156] Memory required for data: 831586800
I0403 12:43:34.421645 26638 layer_factory.hpp:77] Creating layer prob
I0403 12:43:34.421664 26638 net.cpp:91] Creating Layer prob
I0403 12:43:34.421680 26638 net.cpp:425] prob <- fc8_plantvillage_fc8_plantvillage_0_split_0
I0403 12:43:34.421699 26638 net.cpp:399] prob -> prob
I0403 12:43:34.421922 26638 net.cpp:141] Setting up prob
I0403 12:43:34.421948 26638 net.cpp:148] Top shape: 100 38 (3800)
I0403 12:43:34.421964 26638 net.cpp:156] Memory required for data: 831602000
I0403 12:43:34.421979 26638 layer_factory.hpp:77] Creating layer hdf5out
I0403 12:43:34.421998 26638 net.cpp:91] Creating Layer hdf5out
I0403 12:43:34.422015 26638 net.cpp:425] hdf5out <- prob
I0403 12:43:34.422032 26638 net.cpp:425] hdf5out <- label_data_1_split_0
I0403 12:43:34.435466 26638 net.cpp:141] Setting up hdf5out
…
