…
I0403 12:46:30.313180 26714 net.cpp:313] The NetState phase (1) differed from the phase (0) specified by a rule in layer data
I0403 12:46:30.313500 26714 net.cpp:49] Initializing net from parameters: 
state {
  phase: TEST
}
layer {
  name: "data"
  type: "Data"
  top: "data"
  top: "label"
  include {
    phase: TEST
  }
  transform_param {
    crop_size: 227
    mean_file: "/home/mohanty/data/final_dataset/lmdb/color-20-80/mean.binaryproto"
  }
  data_param {
    source: "/home/mohanty/data/final_dataset/lmdb/color-20-80/test_db"
    batch_size: 100
    backend: LMDB
  }
}
layer {
  name: "conv1"
  type: "Convolution"
  bottom: "data"
  top: "conv1"
  param {
    lr_mult: 1
    decay_mult: 1
  }
  param {
    lr_mult: 2
    decay_mult: 0
  }
  convolution_param {
    num_output: 96
    kernel_size: 11
    stride: 4
    weight_filler {
      type: "gaussian"
      std: 0.01
    }
    bias_filler {
      type: "constant"
      value: 0
    }
  }
}
layer {
  name: "relu1"
  type: "ReLU"
  bottom: "conv1"
  top: "conv1"
}
layer {
  name: "norm1"
  type: "LRN"
  bottom: "conv1"
  top: "norm1"
  lrn_param {
    local_size: 5
    alpha: 0.0001
    beta: 0.75
  }
}
layer {
  name: "pool1"
  type: "Pooling"
  bottom: "norm1"
  top: "pool1"
  pooling_param {
    pool: MAX
    kernel_size: 3
    stride: 2
  }
}
layer {
  name: "conv2"
  type: "Convolution"
  bottom: "pool1"
  top: "conv2"
  param {
    lr_mult: 1
    decay_mult: 1
  }
  param {
    lr_mult: 2
    decay_mult: 0
  }
  convolution_param {
    num_output: 256
    pad: 2
    kernel_size: 5
    group: 2
    weight_filler {
      type: "gaussian"
      std: 0.01
    }
    bias_filler {
      type: "constant"
      value: 0.1
    }
  }
}
layer {
  name: "relu2"
  type: "ReLU"
  bottom: "conv2"
  top: "conv2"
}
layer {
  name: "norm2"
  type: "LRN"
  bottom: "conv2"
  top: "norm2"
  lrn_param {
    local_size: 5
    alpha: 0.0001
    beta: 0.75
  }
}
layer {
  name: "pool2"
  type: "Pooling"
  bottom: "norm2"
  top: "pool2"
  pooling_param {
    pool: MAX
    kernel_size: 3
    stride: 2
  }
}
layer {
  name: "conv3"
  type: "Convolution"
  bottom: "pool2"
  top: "conv3"
  param {
    lr_mult: 1
    decay_mult: 1
  }
  param {
    lr_mult: 2
    decay_mult: 0
  }
  convolution_param {
    num_output: 384
    pad: 1
    kernel_size: 3
    weight_filler {
      type: "gaussian"
      std: 0.01
    }
    bias_filler {
      type: "constant"
      value: 0
    }
  }
}
layer {
  name: "relu3"
  type: "ReLU"
  bottom: "conv3"
  top: "conv3"
}
layer {
  name: "conv4"
  type: "Convolution"
  bottom: "conv3"
  top: "conv4"
  param {
    lr_mult: 1
    decay_mult: 1
  }
  param {
    lr_mult: 2
    decay_mult: 0
  }
  convolution_param {
    num_output: 384
    pad: 1
    kernel_size: 3
    group: 2
    weight_filler {
      type: "gaussian"
      std: 0.01
    }
    bias_filler {
      type: "constant"
      value: 0.1
    }
  }
}
layer {
  name: "relu4"
  type: "ReLU"
  bottom: "conv4"
  top: "conv4"
}
layer {
  name: "conv5"
  type: "Convolution"
  bottom: "conv4"
  top: "conv5"
  param {
    lr_mult: 1
    decay_mult: 1
  }
  param {
    lr_mult: 2
    decay_mult: 0
  }
  convolution_param {
    num_output: 256
    pad: 1
    kernel_size: 3
    group: 2
    weight_filler {
      type: "gaussian"
      std: 0.01
    }
    bias_filler {
      type: "constant"
      value: 0.1
    }
  }
}
layer {
  name: "relu5"
  type: "ReLU"
  bottom: "conv5"
  top: "conv5"
}
layer {
  name: "pool5"
  type: "Pooling"
  bottom: "conv5"
  top: "pool5"
  pooling_param {
    pool: MAX
    kernel_size: 3
    stride: 2
  }
}
layer {
  name: "fc6"
  type: "InnerProduct"
  bottom: "pool5"
  top: "fc6"
  param {
    lr_mult: 1
    decay_mult: 1
  }
  param {
    lr_mult: 2
    decay_mult: 0
  }
  inner_product_param {
    num_output: 4096
    weight_filler {
      type: "gaussian"
      std: 0.005
    }
    bias_filler {
      type: "constant"
      value: 0.1
    }
  }
}
layer {
  name: "relu6"
  type: "ReLU"
  bottom: "fc6"
  top: "fc6"
}
layer {
  name: "drop6"
  type: "Dropout"
  bottom: "fc6"
  top: "fc6"
  dropout_param {
    dropout_ratio: 0.5
  }
}
layer {
  name: "fc7"
  type: "InnerProduct"
  bottom: "fc6"
  top: "fc7"
  param {
    lr_mult: 1
    decay_mult: 1
  }
  param {
    lr_mult: 2
    decay_mult: 0
  }
  inner_product_param {
    num_output: 4096
    weight_filler {
      type: "gaussian"
      std: 0.005
    }
    bias_filler {
      type: "constant"
      value: 0.1
    }
  }
}
layer {
  name: "relu7"
  type: "ReLU"
  bottom: "fc7"
  top: "fc7"
}
layer {
  name: "drop7"
  type: "Dropout"
  bottom: "fc7"
  top: "fc7"
  dropout_param {
    dropout_ratio: 0.5
  }
}
layer {
  name: "fc8_plantvillage"
  type: "InnerProduct"
  bottom: "fc7"
  top: "fc8_plantvillage"
  param {
    lr_mult: 1
    decay_mult: 1
  }
  param {
    lr_mult: 2
    decay_mult: 0
  }
  inner_product_param {
    num_output: 38
    weight_filler {
      type: "gaussian"
      std: 0.01
    }
    bias_filler {
      type: "constant"
      value: 0
    }
  }
}
layer {
  name: "prob"
  type: "Softmax"
  bottom: "fc8_plantvillage"
  top: "prob"
  include {
    phase: TEST
  }
}
layer {
  name: "hdf5out"
  type: "HDF5Output"
  bottom: "prob"
  bottom: "label"
  include {
    phase: TEST
  }
  hdf5_output_param {
    file_name: "hdf5_dumps/iter_2160.h5"
  }
}
layer {
  name: "loss"
  type: "SoftmaxWithLoss"
  bottom: "fc8_plantvillage"
  bottom: "label"
  top: "loss"
}
layer {
  name: "accuracy"
  type: "Accuracy"
  bottom: "fc8_plantvillage"
  bottom: "label"
  top: "accuracy"
  include {
    phase: TEST
  }
}
I0403 12:46:30.314076 26714 layer_factory.hpp:77] Creating layer data
I0403 12:46:30.314754 26714 net.cpp:91] Creating Layer data
I0403 12:46:30.314785 26714 net.cpp:399] data -> data
I0403 12:46:30.314839 26714 net.cpp:399] data -> label
I0403 12:46:30.314878 26714 data_transformer.cpp:25] Loading mean file from: /home/mohanty/data/final_dataset/lmdb/color-20-80/mean.binaryproto
I0403 12:46:30.317576 26716 db_lmdb.cpp:38] Opened lmdb /home/mohanty/data/final_dataset/lmdb/color-20-80/test_db
I0403 12:46:30.329474 26714 data_layer.cpp:41] output data size: 100,3,227,227
I0403 12:46:30.464229 26714 net.cpp:141] Setting up data
I0403 12:46:30.464296 26714 net.cpp:148] Top shape: 100 3 227 227 (15458700)
I0403 12:46:30.464320 26714 net.cpp:148] Top shape: 100 (100)
I0403 12:46:30.464337 26714 net.cpp:156] Memory required for data: 61835200
I0403 12:46:30.464366 26714 layer_factory.hpp:77] Creating layer label_data_1_split
I0403 12:46:30.464392 26714 net.cpp:91] Creating Layer label_data_1_split
I0403 12:46:30.464411 26714 net.cpp:425] label_data_1_split <- label
I0403 12:46:30.464443 26714 net.cpp:399] label_data_1_split -> label_data_1_split_0
I0403 12:46:30.464471 26714 net.cpp:399] label_data_1_split -> label_data_1_split_1
I0403 12:46:30.464494 26714 net.cpp:399] label_data_1_split -> label_data_1_split_2
I0403 12:46:30.464560 26714 net.cpp:141] Setting up label_data_1_split
I0403 12:46:30.464586 26714 net.cpp:148] Top shape: 100 (100)
I0403 12:46:30.464603 26714 net.cpp:148] Top shape: 100 (100)
I0403 12:46:30.464619 26714 net.cpp:148] Top shape: 100 (100)
I0403 12:46:30.464634 26714 net.cpp:156] Memory required for data: 61836400
I0403 12:46:30.464650 26714 layer_factory.hpp:77] Creating layer conv1
I0403 12:46:30.464684 26714 net.cpp:91] Creating Layer conv1
I0403 12:46:30.464704 26714 net.cpp:425] conv1 <- data
I0403 12:46:30.464725 26714 net.cpp:399] conv1 -> conv1
I0403 12:46:30.614444 26714 net.cpp:141] Setting up conv1
I0403 12:46:30.614524 26714 net.cpp:148] Top shape: 100 96 55 55 (29040000)
I0403 12:46:30.614544 26714 net.cpp:156] Memory required for data: 177996400
I0403 12:46:30.614580 26714 layer_factory.hpp:77] Creating layer relu1
I0403 12:46:30.614611 26714 net.cpp:91] Creating Layer relu1
I0403 12:46:30.614631 26714 net.cpp:425] relu1 <- conv1
I0403 12:46:30.614655 26714 net.cpp:386] relu1 -> conv1 (in-place)
I0403 12:46:30.614945 26714 net.cpp:141] Setting up relu1
I0403 12:46:30.614974 26714 net.cpp:148] Top shape: 100 96 55 55 (29040000)
I0403 12:46:30.614991 26714 net.cpp:156] Memory required for data: 294156400
I0403 12:46:30.615039 26714 layer_factory.hpp:77] Creating layer norm1
I0403 12:46:30.615068 26714 net.cpp:91] Creating Layer norm1
I0403 12:46:30.615088 26714 net.cpp:425] norm1 <- conv1
I0403 12:46:30.615110 26714 net.cpp:399] norm1 -> norm1
I0403 12:46:30.615459 26714 net.cpp:141] Setting up norm1
I0403 12:46:30.615490 26714 net.cpp:148] Top shape: 100 96 55 55 (29040000)
I0403 12:46:30.615507 26714 net.cpp:156] Memory required for data: 410316400
I0403 12:46:30.615523 26714 layer_factory.hpp:77] Creating layer pool1
I0403 12:46:30.615548 26714 net.cpp:91] Creating Layer pool1
I0403 12:46:30.615567 26714 net.cpp:425] pool1 <- norm1
I0403 12:46:30.615588 26714 net.cpp:399] pool1 -> pool1
I0403 12:46:30.615661 26714 net.cpp:141] Setting up pool1
I0403 12:46:30.615686 26714 net.cpp:148] Top shape: 100 96 27 27 (6998400)
I0403 12:46:30.615702 26714 net.cpp:156] Memory required for data: 438310000
I0403 12:46:30.615717 26714 layer_factory.hpp:77] Creating layer conv2
I0403 12:46:30.615747 26714 net.cpp:91] Creating Layer conv2
I0403 12:46:30.615767 26714 net.cpp:425] conv2 <- pool1
I0403 12:46:30.615785 26714 net.cpp:399] conv2 -> conv2
I0403 12:46:30.631268 26714 net.cpp:141] Setting up conv2
I0403 12:46:30.631319 26714 net.cpp:148] Top shape: 100 256 27 27 (18662400)
I0403 12:46:30.631338 26714 net.cpp:156] Memory required for data: 512959600
I0403 12:46:30.631363 26714 layer_factory.hpp:77] Creating layer relu2
I0403 12:46:30.631384 26714 net.cpp:91] Creating Layer relu2
I0403 12:46:30.631402 26714 net.cpp:425] relu2 <- conv2
I0403 12:46:30.631423 26714 net.cpp:386] relu2 -> conv2 (in-place)
I0403 12:46:30.631721 26714 net.cpp:141] Setting up relu2
I0403 12:46:30.631748 26714 net.cpp:148] Top shape: 100 256 27 27 (18662400)
I0403 12:46:30.631765 26714 net.cpp:156] Memory required for data: 587609200
I0403 12:46:30.631781 26714 layer_factory.hpp:77] Creating layer norm2
I0403 12:46:30.631806 26714 net.cpp:91] Creating Layer norm2
I0403 12:46:30.631826 26714 net.cpp:425] norm2 <- conv2
I0403 12:46:30.631845 26714 net.cpp:399] norm2 -> norm2
I0403 12:46:30.632055 26714 net.cpp:141] Setting up norm2
I0403 12:46:30.632084 26714 net.cpp:148] Top shape: 100 256 27 27 (18662400)
I0403 12:46:30.632102 26714 net.cpp:156] Memory required for data: 662258800
I0403 12:46:30.632117 26714 layer_factory.hpp:77] Creating layer pool2
I0403 12:46:30.632138 26714 net.cpp:91] Creating Layer pool2
I0403 12:46:30.632156 26714 net.cpp:425] pool2 <- norm2
I0403 12:46:30.632177 26714 net.cpp:399] pool2 -> pool2
I0403 12:46:30.632231 26714 net.cpp:141] Setting up pool2
I0403 12:46:30.632262 26714 net.cpp:148] Top shape: 100 256 13 13 (4326400)
I0403 12:46:30.632283 26714 net.cpp:156] Memory required for data: 679564400
I0403 12:46:30.632298 26714 layer_factory.hpp:77] Creating layer conv3
I0403 12:46:30.632323 26714 net.cpp:91] Creating Layer conv3
I0403 12:46:30.632344 26714 net.cpp:425] conv3 <- pool2
I0403 12:46:30.632362 26714 net.cpp:399] conv3 -> conv3
I0403 12:46:30.672036 26714 net.cpp:141] Setting up conv3
I0403 12:46:30.672096 26714 net.cpp:148] Top shape: 100 384 13 13 (6489600)
I0403 12:46:30.672113 26714 net.cpp:156] Memory required for data: 705522800
I0403 12:46:30.672142 26714 layer_factory.hpp:77] Creating layer relu3
I0403 12:46:30.672166 26714 net.cpp:91] Creating Layer relu3
I0403 12:46:30.672184 26714 net.cpp:425] relu3 <- conv3
I0403 12:46:30.672207 26714 net.cpp:386] relu3 -> conv3 (in-place)
I0403 12:46:30.672505 26714 net.cpp:141] Setting up relu3
I0403 12:46:30.672533 26714 net.cpp:148] Top shape: 100 384 13 13 (6489600)
I0403 12:46:30.672550 26714 net.cpp:156] Memory required for data: 731481200
I0403 12:46:30.672566 26714 layer_factory.hpp:77] Creating layer conv4
I0403 12:46:30.672595 26714 net.cpp:91] Creating Layer conv4
I0403 12:46:30.672613 26714 net.cpp:425] conv4 <- conv3
I0403 12:46:30.672637 26714 net.cpp:399] conv4 -> conv4
I0403 12:46:30.703306 26714 net.cpp:141] Setting up conv4
I0403 12:46:30.703371 26714 net.cpp:148] Top shape: 100 384 13 13 (6489600)
I0403 12:46:30.703419 26714 net.cpp:156] Memory required for data: 757439600
I0403 12:46:30.703444 26714 layer_factory.hpp:77] Creating layer relu4
I0403 12:46:30.703467 26714 net.cpp:91] Creating Layer relu4
I0403 12:46:30.703485 26714 net.cpp:425] relu4 <- conv4
I0403 12:46:30.703505 26714 net.cpp:386] relu4 -> conv4 (in-place)
I0403 12:46:30.703799 26714 net.cpp:141] Setting up relu4
I0403 12:46:30.703830 26714 net.cpp:148] Top shape: 100 384 13 13 (6489600)
I0403 12:46:30.703848 26714 net.cpp:156] Memory required for data: 783398000
I0403 12:46:30.703866 26714 layer_factory.hpp:77] Creating layer conv5
I0403 12:46:30.703891 26714 net.cpp:91] Creating Layer conv5
I0403 12:46:30.703909 26714 net.cpp:425] conv5 <- conv4
I0403 12:46:30.703930 26714 net.cpp:399] conv5 -> conv5
I0403 12:46:30.725042 26714 net.cpp:141] Setting up conv5
I0403 12:46:30.725098 26714 net.cpp:148] Top shape: 100 256 13 13 (4326400)
I0403 12:46:30.725117 26714 net.cpp:156] Memory required for data: 800703600
I0403 12:46:30.725220 26714 layer_factory.hpp:77] Creating layer relu5
I0403 12:46:30.725250 26714 net.cpp:91] Creating Layer relu5
I0403 12:46:30.725272 26714 net.cpp:425] relu5 <- conv5
I0403 12:46:30.725296 26714 net.cpp:386] relu5 -> conv5 (in-place)
I0403 12:46:30.725592 26714 net.cpp:141] Setting up relu5
I0403 12:46:30.725621 26714 net.cpp:148] Top shape: 100 256 13 13 (4326400)
I0403 12:46:30.725637 26714 net.cpp:156] Memory required for data: 818009200
I0403 12:46:30.725653 26714 layer_factory.hpp:77] Creating layer pool5
I0403 12:46:30.725679 26714 net.cpp:91] Creating Layer pool5
I0403 12:46:30.725697 26714 net.cpp:425] pool5 <- conv5
I0403 12:46:30.725718 26714 net.cpp:399] pool5 -> pool5
I0403 12:46:30.725785 26714 net.cpp:141] Setting up pool5
I0403 12:46:30.725811 26714 net.cpp:148] Top shape: 100 256 6 6 (921600)
I0403 12:46:30.725827 26714 net.cpp:156] Memory required for data: 821695600
I0403 12:46:30.725842 26714 layer_factory.hpp:77] Creating layer fc6
I0403 12:46:30.725869 26714 net.cpp:91] Creating Layer fc6
I0403 12:46:30.725888 26714 net.cpp:425] fc6 <- pool5
I0403 12:46:30.725910 26714 net.cpp:399] fc6 -> fc6
I0403 12:46:32.295950 26714 net.cpp:141] Setting up fc6
I0403 12:46:32.295997 26714 net.cpp:148] Top shape: 100 4096 (409600)
I0403 12:46:32.296015 26714 net.cpp:156] Memory required for data: 823334000
I0403 12:46:32.296037 26714 layer_factory.hpp:77] Creating layer relu6
I0403 12:46:32.296062 26714 net.cpp:91] Creating Layer relu6
I0403 12:46:32.296080 26714 net.cpp:425] relu6 <- fc6
I0403 12:46:32.296102 26714 net.cpp:386] relu6 -> fc6 (in-place)
I0403 12:46:32.296329 26714 net.cpp:141] Setting up relu6
I0403 12:46:32.296356 26714 net.cpp:148] Top shape: 100 4096 (409600)
I0403 12:46:32.296372 26714 net.cpp:156] Memory required for data: 824972400
I0403 12:46:32.296387 26714 layer_factory.hpp:77] Creating layer drop6
I0403 12:46:32.296406 26714 net.cpp:91] Creating Layer drop6
I0403 12:46:32.296422 26714 net.cpp:425] drop6 <- fc6
I0403 12:46:32.296442 26714 net.cpp:386] drop6 -> fc6 (in-place)
I0403 12:46:32.296492 26714 net.cpp:141] Setting up drop6
I0403 12:46:32.296515 26714 net.cpp:148] Top shape: 100 4096 (409600)
I0403 12:46:32.296530 26714 net.cpp:156] Memory required for data: 826610800
I0403 12:46:32.296546 26714 layer_factory.hpp:77] Creating layer fc7
I0403 12:46:32.296576 26714 net.cpp:91] Creating Layer fc7
I0403 12:46:32.296597 26714 net.cpp:425] fc7 <- fc6
I0403 12:46:32.296618 26714 net.cpp:399] fc7 -> fc7
I0403 12:46:32.986894 26714 net.cpp:141] Setting up fc7
I0403 12:46:32.986974 26714 net.cpp:148] Top shape: 100 4096 (409600)
I0403 12:46:32.986990 26714 net.cpp:156] Memory required for data: 828249200
I0403 12:46:32.987012 26714 layer_factory.hpp:77] Creating layer relu7
I0403 12:46:32.987036 26714 net.cpp:91] Creating Layer relu7
I0403 12:46:32.987054 26714 net.cpp:425] relu7 <- fc7
I0403 12:46:32.987077 26714 net.cpp:386] relu7 -> fc7 (in-place)
I0403 12:46:32.987501 26714 net.cpp:141] Setting up relu7
I0403 12:46:32.987530 26714 net.cpp:148] Top shape: 100 4096 (409600)
I0403 12:46:32.987581 26714 net.cpp:156] Memory required for data: 829887600
I0403 12:46:32.987598 26714 layer_factory.hpp:77] Creating layer drop7
I0403 12:46:32.987630 26714 net.cpp:91] Creating Layer drop7
I0403 12:46:32.987646 26714 net.cpp:425] drop7 <- fc7
I0403 12:46:32.987668 26714 net.cpp:386] drop7 -> fc7 (in-place)
I0403 12:46:32.987710 26714 net.cpp:141] Setting up drop7
I0403 12:46:32.987735 26714 net.cpp:148] Top shape: 100 4096 (409600)
I0403 12:46:32.987751 26714 net.cpp:156] Memory required for data: 831526000
I0403 12:46:32.987766 26714 layer_factory.hpp:77] Creating layer fc8_plantvillage
I0403 12:46:32.987787 26714 net.cpp:91] Creating Layer fc8_plantvillage
I0403 12:46:32.987803 26714 net.cpp:425] fc8_plantvillage <- fc7
I0403 12:46:32.987823 26714 net.cpp:399] fc8_plantvillage -> fc8_plantvillage
I0403 12:46:32.994575 26714 net.cpp:141] Setting up fc8_plantvillage
I0403 12:46:32.994603 26714 net.cpp:148] Top shape: 100 38 (3800)
I0403 12:46:32.994619 26714 net.cpp:156] Memory required for data: 831541200
I0403 12:46:32.994638 26714 layer_factory.hpp:77] Creating layer fc8_plantvillage_fc8_plantvillage_0_split
I0403 12:46:32.994657 26714 net.cpp:91] Creating Layer fc8_plantvillage_fc8_plantvillage_0_split
I0403 12:46:32.994675 26714 net.cpp:425] fc8_plantvillage_fc8_plantvillage_0_split <- fc8_plantvillage
I0403 12:46:32.994695 26714 net.cpp:399] fc8_plantvillage_fc8_plantvillage_0_split -> fc8_plantvillage_fc8_plantvillage_0_split_0
I0403 12:46:32.994715 26714 net.cpp:399] fc8_plantvillage_fc8_plantvillage_0_split -> fc8_plantvillage_fc8_plantvillage_0_split_1
I0403 12:46:32.994735 26714 net.cpp:399] fc8_plantvillage_fc8_plantvillage_0_split -> fc8_plantvillage_fc8_plantvillage_0_split_2
I0403 12:46:32.994813 26714 net.cpp:141] Setting up fc8_plantvillage_fc8_plantvillage_0_split
I0403 12:46:32.994843 26714 net.cpp:148] Top shape: 100 38 (3800)
I0403 12:46:32.994861 26714 net.cpp:148] Top shape: 100 38 (3800)
I0403 12:46:32.994879 26714 net.cpp:148] Top shape: 100 38 (3800)
I0403 12:46:32.994892 26714 net.cpp:156] Memory required for data: 831586800
I0403 12:46:32.994907 26714 layer_factory.hpp:77] Creating layer prob
I0403 12:46:32.994925 26714 net.cpp:91] Creating Layer prob
I0403 12:46:32.994941 26714 net.cpp:425] prob <- fc8_plantvillage_fc8_plantvillage_0_split_0
I0403 12:46:32.994959 26714 net.cpp:399] prob -> prob
I0403 12:46:32.995180 26714 net.cpp:141] Setting up prob
I0403 12:46:32.995206 26714 net.cpp:148] Top shape: 100 38 (3800)
I0403 12:46:32.995221 26714 net.cpp:156] Memory required for data: 831602000
I0403 12:46:32.995236 26714 layer_factory.hpp:77] Creating layer hdf5out
I0403 12:46:32.995265 26714 net.cpp:91] Creating Layer hdf5out
I0403 12:46:32.995287 26714 net.cpp:425] hdf5out <- prob
I0403 12:46:32.995304 26714 net.cpp:425] hdf5out <- label_data_1_split_0
I0403 12:46:32.999107 26714 net.cpp:141] Setting up hdf5out
…
