…
I0403 12:56:53.154181 27068 net.cpp:313] The NetState phase (1) differed from the phase (0) specified by a rule in layer data
I0403 12:56:53.154512 27068 net.cpp:49] Initializing net from parameters: 
state {
  phase: TEST
}
layer {
  name: "data"
  type: "Data"
  top: "data"
  top: "label"
  include {
    phase: TEST
  }
  transform_param {
    crop_size: 227
    mean_file: "/home/mohanty/data/final_dataset/lmdb/color-20-80/mean.binaryproto"
  }
  data_param {
    source: "/home/mohanty/data/final_dataset/lmdb/color-20-80/test_db"
    batch_size: 100
    backend: LMDB
  }
}
layer {
  name: "conv1"
  type: "Convolution"
  bottom: "data"
  top: "conv1"
  param {
    lr_mult: 1
    decay_mult: 1
  }
  param {
    lr_mult: 2
    decay_mult: 0
  }
  convolution_param {
    num_output: 96
    kernel_size: 11
    stride: 4
    weight_filler {
      type: "gaussian"
      std: 0.01
    }
    bias_filler {
      type: "constant"
      value: 0
    }
  }
}
layer {
  name: "relu1"
  type: "ReLU"
  bottom: "conv1"
  top: "conv1"
}
layer {
  name: "norm1"
  type: "LRN"
  bottom: "conv1"
  top: "norm1"
  lrn_param {
    local_size: 5
    alpha: 0.0001
    beta: 0.75
  }
}
layer {
  name: "pool1"
  type: "Pooling"
  bottom: "norm1"
  top: "pool1"
  pooling_param {
    pool: MAX
    kernel_size: 3
    stride: 2
  }
}
layer {
  name: "conv2"
  type: "Convolution"
  bottom: "pool1"
  top: "conv2"
  param {
    lr_mult: 1
    decay_mult: 1
  }
  param {
    lr_mult: 2
    decay_mult: 0
  }
  convolution_param {
    num_output: 256
    pad: 2
    kernel_size: 5
    group: 2
    weight_filler {
      type: "gaussian"
      std: 0.01
    }
    bias_filler {
      type: "constant"
      value: 0.1
    }
  }
}
layer {
  name: "relu2"
  type: "ReLU"
  bottom: "conv2"
  top: "conv2"
}
layer {
  name: "norm2"
  type: "LRN"
  bottom: "conv2"
  top: "norm2"
  lrn_param {
    local_size: 5
    alpha: 0.0001
    beta: 0.75
  }
}
layer {
  name: "pool2"
  type: "Pooling"
  bottom: "norm2"
  top: "pool2"
  pooling_param {
    pool: MAX
    kernel_size: 3
    stride: 2
  }
}
layer {
  name: "conv3"
  type: "Convolution"
  bottom: "pool2"
  top: "conv3"
  param {
    lr_mult: 1
    decay_mult: 1
  }
  param {
    lr_mult: 2
    decay_mult: 0
  }
  convolution_param {
    num_output: 384
    pad: 1
    kernel_size: 3
    weight_filler {
      type: "gaussian"
      std: 0.01
    }
    bias_filler {
      type: "constant"
      value: 0
    }
  }
}
layer {
  name: "relu3"
  type: "ReLU"
  bottom: "conv3"
  top: "conv3"
}
layer {
  name: "conv4"
  type: "Convolution"
  bottom: "conv3"
  top: "conv4"
  param {
    lr_mult: 1
    decay_mult: 1
  }
  param {
    lr_mult: 2
    decay_mult: 0
  }
  convolution_param {
    num_output: 384
    pad: 1
    kernel_size: 3
    group: 2
    weight_filler {
      type: "gaussian"
      std: 0.01
    }
    bias_filler {
      type: "constant"
      value: 0.1
    }
  }
}
layer {
  name: "relu4"
  type: "ReLU"
  bottom: "conv4"
  top: "conv4"
}
layer {
  name: "conv5"
  type: "Convolution"
  bottom: "conv4"
  top: "conv5"
  param {
    lr_mult: 1
    decay_mult: 1
  }
  param {
    lr_mult: 2
    decay_mult: 0
  }
  convolution_param {
    num_output: 256
    pad: 1
    kernel_size: 3
    group: 2
    weight_filler {
      type: "gaussian"
      std: 0.01
    }
    bias_filler {
      type: "constant"
      value: 0.1
    }
  }
}
layer {
  name: "relu5"
  type: "ReLU"
  bottom: "conv5"
  top: "conv5"
}
layer {
  name: "pool5"
  type: "Pooling"
  bottom: "conv5"
  top: "pool5"
  pooling_param {
    pool: MAX
    kernel_size: 3
    stride: 2
  }
}
layer {
  name: "fc6"
  type: "InnerProduct"
  bottom: "pool5"
  top: "fc6"
  param {
    lr_mult: 1
    decay_mult: 1
  }
  param {
    lr_mult: 2
    decay_mult: 0
  }
  inner_product_param {
    num_output: 4096
    weight_filler {
      type: "gaussian"
      std: 0.005
    }
    bias_filler {
      type: "constant"
      value: 0.1
    }
  }
}
layer {
  name: "relu6"
  type: "ReLU"
  bottom: "fc6"
  top: "fc6"
}
layer {
  name: "drop6"
  type: "Dropout"
  bottom: "fc6"
  top: "fc6"
  dropout_param {
    dropout_ratio: 0.5
  }
}
layer {
  name: "fc7"
  type: "InnerProduct"
  bottom: "fc6"
  top: "fc7"
  param {
    lr_mult: 1
    decay_mult: 1
  }
  param {
    lr_mult: 2
    decay_mult: 0
  }
  inner_product_param {
    num_output: 4096
    weight_filler {
      type: "gaussian"
      std: 0.005
    }
    bias_filler {
      type: "constant"
      value: 0.1
    }
  }
}
layer {
  name: "relu7"
  type: "ReLU"
  bottom: "fc7"
  top: "fc7"
}
layer {
  name: "drop7"
  type: "Dropout"
  bottom: "fc7"
  top: "fc7"
  dropout_param {
    dropout_ratio: 0.5
  }
}
layer {
  name: "fc8_plantvillage"
  type: "InnerProduct"
  bottom: "fc7"
  top: "fc8_plantvillage"
  param {
    lr_mult: 1
    decay_mult: 1
  }
  param {
    lr_mult: 2
    decay_mult: 0
  }
  inner_product_param {
    num_output: 38
    weight_filler {
      type: "gaussian"
      std: 0.01
    }
    bias_filler {
      type: "constant"
      value: 0
    }
  }
}
layer {
  name: "prob"
  type: "Softmax"
  bottom: "fc8_plantvillage"
  top: "prob"
  include {
    phase: TEST
  }
}
layer {
  name: "hdf5out"
  type: "HDF5Output"
  bottom: "prob"
  bottom: "label"
  include {
    phase: TEST
  }
  hdf5_output_param {
    file_name: "hdf5_dumps/iter_2916.h5"
  }
}
layer {
  name: "loss"
  type: "SoftmaxWithLoss"
  bottom: "fc8_plantvillage"
  bottom: "label"
  top: "loss"
}
layer {
  name: "accuracy"
  type: "Accuracy"
  bottom: "fc8_plantvillage"
  bottom: "label"
  top: "accuracy"
  include {
    phase: TEST
  }
}
I0403 12:56:53.155081 27068 layer_factory.hpp:77] Creating layer data
I0403 12:56:53.155745 27068 net.cpp:91] Creating Layer data
I0403 12:56:53.155779 27068 net.cpp:399] data -> data
I0403 12:56:53.155833 27068 net.cpp:399] data -> label
I0403 12:56:53.155871 27068 data_transformer.cpp:25] Loading mean file from: /home/mohanty/data/final_dataset/lmdb/color-20-80/mean.binaryproto
I0403 12:56:53.158318 27072 db_lmdb.cpp:38] Opened lmdb /home/mohanty/data/final_dataset/lmdb/color-20-80/test_db
I0403 12:56:53.170739 27068 data_layer.cpp:41] output data size: 100,3,227,227
I0403 12:56:53.306339 27068 net.cpp:141] Setting up data
I0403 12:56:53.306434 27068 net.cpp:148] Top shape: 100 3 227 227 (15458700)
I0403 12:56:53.306458 27068 net.cpp:148] Top shape: 100 (100)
I0403 12:56:53.306475 27068 net.cpp:156] Memory required for data: 61835200
I0403 12:56:53.306504 27068 layer_factory.hpp:77] Creating layer label_data_1_split
I0403 12:56:53.306534 27068 net.cpp:91] Creating Layer label_data_1_split
I0403 12:56:53.306552 27068 net.cpp:425] label_data_1_split <- label
I0403 12:56:53.306586 27068 net.cpp:399] label_data_1_split -> label_data_1_split_0
I0403 12:56:53.306614 27068 net.cpp:399] label_data_1_split -> label_data_1_split_1
I0403 12:56:53.306638 27068 net.cpp:399] label_data_1_split -> label_data_1_split_2
I0403 12:56:53.306704 27068 net.cpp:141] Setting up label_data_1_split
I0403 12:56:53.306730 27068 net.cpp:148] Top shape: 100 (100)
I0403 12:56:53.306748 27068 net.cpp:148] Top shape: 100 (100)
I0403 12:56:53.306766 27068 net.cpp:148] Top shape: 100 (100)
I0403 12:56:53.306782 27068 net.cpp:156] Memory required for data: 61836400
I0403 12:56:53.306799 27068 layer_factory.hpp:77] Creating layer conv1
I0403 12:56:53.306833 27068 net.cpp:91] Creating Layer conv1
I0403 12:56:53.306854 27068 net.cpp:425] conv1 <- data
I0403 12:56:53.306875 27068 net.cpp:399] conv1 -> conv1
I0403 12:56:53.457309 27068 net.cpp:141] Setting up conv1
I0403 12:56:53.457387 27068 net.cpp:148] Top shape: 100 96 55 55 (29040000)
I0403 12:56:53.457407 27068 net.cpp:156] Memory required for data: 177996400
I0403 12:56:53.457442 27068 layer_factory.hpp:77] Creating layer relu1
I0403 12:56:53.457469 27068 net.cpp:91] Creating Layer relu1
I0403 12:56:53.457489 27068 net.cpp:425] relu1 <- conv1
I0403 12:56:53.457510 27068 net.cpp:386] relu1 -> conv1 (in-place)
I0403 12:56:53.457780 27068 net.cpp:141] Setting up relu1
I0403 12:56:53.457809 27068 net.cpp:148] Top shape: 100 96 55 55 (29040000)
I0403 12:56:53.457828 27068 net.cpp:156] Memory required for data: 294156400
I0403 12:56:53.457877 27068 layer_factory.hpp:77] Creating layer norm1
I0403 12:56:53.457907 27068 net.cpp:91] Creating Layer norm1
I0403 12:56:53.457926 27068 net.cpp:425] norm1 <- conv1
I0403 12:56:53.457947 27068 net.cpp:399] norm1 -> norm1
I0403 12:56:53.458271 27068 net.cpp:141] Setting up norm1
I0403 12:56:53.458302 27068 net.cpp:148] Top shape: 100 96 55 55 (29040000)
I0403 12:56:53.458319 27068 net.cpp:156] Memory required for data: 410316400
I0403 12:56:53.458336 27068 layer_factory.hpp:77] Creating layer pool1
I0403 12:56:53.458361 27068 net.cpp:91] Creating Layer pool1
I0403 12:56:53.458379 27068 net.cpp:425] pool1 <- norm1
I0403 12:56:53.458400 27068 net.cpp:399] pool1 -> pool1
I0403 12:56:53.458470 27068 net.cpp:141] Setting up pool1
I0403 12:56:53.458498 27068 net.cpp:148] Top shape: 100 96 27 27 (6998400)
I0403 12:56:53.458513 27068 net.cpp:156] Memory required for data: 438310000
I0403 12:56:53.458530 27068 layer_factory.hpp:77] Creating layer conv2
I0403 12:56:53.458556 27068 net.cpp:91] Creating Layer conv2
I0403 12:56:53.458576 27068 net.cpp:425] conv2 <- pool1
I0403 12:56:53.458596 27068 net.cpp:399] conv2 -> conv2
I0403 12:56:53.474340 27068 net.cpp:141] Setting up conv2
I0403 12:56:53.474391 27068 net.cpp:148] Top shape: 100 256 27 27 (18662400)
I0403 12:56:53.474411 27068 net.cpp:156] Memory required for data: 512959600
I0403 12:56:53.474436 27068 layer_factory.hpp:77] Creating layer relu2
I0403 12:56:53.474459 27068 net.cpp:91] Creating Layer relu2
I0403 12:56:53.474478 27068 net.cpp:425] relu2 <- conv2
I0403 12:56:53.474498 27068 net.cpp:386] relu2 -> conv2 (in-place)
I0403 12:56:53.474793 27068 net.cpp:141] Setting up relu2
I0403 12:56:53.474822 27068 net.cpp:148] Top shape: 100 256 27 27 (18662400)
I0403 12:56:53.474839 27068 net.cpp:156] Memory required for data: 587609200
I0403 12:56:53.474855 27068 layer_factory.hpp:77] Creating layer norm2
I0403 12:56:53.474880 27068 net.cpp:91] Creating Layer norm2
I0403 12:56:53.474900 27068 net.cpp:425] norm2 <- conv2
I0403 12:56:53.474921 27068 net.cpp:399] norm2 -> norm2
I0403 12:56:53.475131 27068 net.cpp:141] Setting up norm2
I0403 12:56:53.475158 27068 net.cpp:148] Top shape: 100 256 27 27 (18662400)
I0403 12:56:53.475174 27068 net.cpp:156] Memory required for data: 662258800
I0403 12:56:53.475190 27068 layer_factory.hpp:77] Creating layer pool2
I0403 12:56:53.475213 27068 net.cpp:91] Creating Layer pool2
I0403 12:56:53.475230 27068 net.cpp:425] pool2 <- norm2
I0403 12:56:53.475250 27068 net.cpp:399] pool2 -> pool2
I0403 12:56:53.475311 27068 net.cpp:141] Setting up pool2
I0403 12:56:53.475337 27068 net.cpp:148] Top shape: 100 256 13 13 (4326400)
I0403 12:56:53.475354 27068 net.cpp:156] Memory required for data: 679564400
I0403 12:56:53.475370 27068 layer_factory.hpp:77] Creating layer conv3
I0403 12:56:53.475467 27068 net.cpp:91] Creating Layer conv3
I0403 12:56:53.475492 27068 net.cpp:425] conv3 <- pool2
I0403 12:56:53.475514 27068 net.cpp:399] conv3 -> conv3
I0403 12:56:53.524315 27068 net.cpp:141] Setting up conv3
I0403 12:56:53.524361 27068 net.cpp:148] Top shape: 100 384 13 13 (6489600)
I0403 12:56:53.524379 27068 net.cpp:156] Memory required for data: 705522800
I0403 12:56:53.524411 27068 layer_factory.hpp:77] Creating layer relu3
I0403 12:56:53.524435 27068 net.cpp:91] Creating Layer relu3
I0403 12:56:53.524456 27068 net.cpp:425] relu3 <- conv3
I0403 12:56:53.524476 27068 net.cpp:386] relu3 -> conv3 (in-place)
I0403 12:56:53.524760 27068 net.cpp:141] Setting up relu3
I0403 12:56:53.524787 27068 net.cpp:148] Top shape: 100 384 13 13 (6489600)
I0403 12:56:53.524803 27068 net.cpp:156] Memory required for data: 731481200
I0403 12:56:53.524821 27068 layer_factory.hpp:77] Creating layer conv4
I0403 12:56:53.524847 27068 net.cpp:91] Creating Layer conv4
I0403 12:56:53.524866 27068 net.cpp:425] conv4 <- conv3
I0403 12:56:53.524888 27068 net.cpp:399] conv4 -> conv4
I0403 12:56:53.556102 27068 net.cpp:141] Setting up conv4
I0403 12:56:53.556171 27068 net.cpp:148] Top shape: 100 384 13 13 (6489600)
I0403 12:56:53.556238 27068 net.cpp:156] Memory required for data: 757439600
I0403 12:56:53.556268 27068 layer_factory.hpp:77] Creating layer relu4
I0403 12:56:53.556298 27068 net.cpp:91] Creating Layer relu4
I0403 12:56:53.556360 27068 net.cpp:425] relu4 <- conv4
I0403 12:56:53.556406 27068 net.cpp:386] relu4 -> conv4 (in-place)
I0403 12:56:53.556737 27068 net.cpp:141] Setting up relu4
I0403 12:56:53.556766 27068 net.cpp:148] Top shape: 100 384 13 13 (6489600)
I0403 12:56:53.556782 27068 net.cpp:156] Memory required for data: 783398000
I0403 12:56:53.556812 27068 layer_factory.hpp:77] Creating layer conv5
I0403 12:56:53.556839 27068 net.cpp:91] Creating Layer conv5
I0403 12:56:53.556859 27068 net.cpp:425] conv5 <- conv4
I0403 12:56:53.556884 27068 net.cpp:399] conv5 -> conv5
I0403 12:56:53.578186 27068 net.cpp:141] Setting up conv5
I0403 12:56:53.578243 27068 net.cpp:148] Top shape: 100 256 13 13 (4326400)
I0403 12:56:53.578279 27068 net.cpp:156] Memory required for data: 800703600
I0403 12:56:53.578310 27068 layer_factory.hpp:77] Creating layer relu5
I0403 12:56:53.578337 27068 net.cpp:91] Creating Layer relu5
I0403 12:56:53.578356 27068 net.cpp:425] relu5 <- conv5
I0403 12:56:53.578377 27068 net.cpp:386] relu5 -> conv5 (in-place)
I0403 12:56:53.578680 27068 net.cpp:141] Setting up relu5
I0403 12:56:53.578706 27068 net.cpp:148] Top shape: 100 256 13 13 (4326400)
I0403 12:56:53.578722 27068 net.cpp:156] Memory required for data: 818009200
I0403 12:56:53.578739 27068 layer_factory.hpp:77] Creating layer pool5
I0403 12:56:53.578765 27068 net.cpp:91] Creating Layer pool5
I0403 12:56:53.578783 27068 net.cpp:425] pool5 <- conv5
I0403 12:56:53.578805 27068 net.cpp:399] pool5 -> pool5
I0403 12:56:53.578867 27068 net.cpp:141] Setting up pool5
I0403 12:56:53.578893 27068 net.cpp:148] Top shape: 100 256 6 6 (921600)
I0403 12:56:53.578909 27068 net.cpp:156] Memory required for data: 821695600
I0403 12:56:53.578925 27068 layer_factory.hpp:77] Creating layer fc6
I0403 12:56:53.578955 27068 net.cpp:91] Creating Layer fc6
I0403 12:56:53.578974 27068 net.cpp:425] fc6 <- pool5
I0403 12:56:53.578994 27068 net.cpp:399] fc6 -> fc6
I0403 12:56:55.156044 27068 net.cpp:141] Setting up fc6
I0403 12:56:55.156088 27068 net.cpp:148] Top shape: 100 4096 (409600)
I0403 12:56:55.156106 27068 net.cpp:156] Memory required for data: 823334000
I0403 12:56:55.156128 27068 layer_factory.hpp:77] Creating layer relu6
I0403 12:56:55.156150 27068 net.cpp:91] Creating Layer relu6
I0403 12:56:55.156167 27068 net.cpp:425] relu6 <- fc6
I0403 12:56:55.156206 27068 net.cpp:386] relu6 -> fc6 (in-place)
I0403 12:56:55.156426 27068 net.cpp:141] Setting up relu6
I0403 12:56:55.156451 27068 net.cpp:148] Top shape: 100 4096 (409600)
I0403 12:56:55.156467 27068 net.cpp:156] Memory required for data: 824972400
I0403 12:56:55.156482 27068 layer_factory.hpp:77] Creating layer drop6
I0403 12:56:55.156503 27068 net.cpp:91] Creating Layer drop6
I0403 12:56:55.156519 27068 net.cpp:425] drop6 <- fc6
I0403 12:56:55.156538 27068 net.cpp:386] drop6 -> fc6 (in-place)
I0403 12:56:55.156589 27068 net.cpp:141] Setting up drop6
I0403 12:56:55.156613 27068 net.cpp:148] Top shape: 100 4096 (409600)
I0403 12:56:55.156628 27068 net.cpp:156] Memory required for data: 826610800
I0403 12:56:55.156643 27068 layer_factory.hpp:77] Creating layer fc7
I0403 12:56:55.156663 27068 net.cpp:91] Creating Layer fc7
I0403 12:56:55.156679 27068 net.cpp:425] fc7 <- fc6
I0403 12:56:55.156702 27068 net.cpp:399] fc7 -> fc7
I0403 12:56:55.850118 27068 net.cpp:141] Setting up fc7
I0403 12:56:55.850196 27068 net.cpp:148] Top shape: 100 4096 (409600)
I0403 12:56:55.850214 27068 net.cpp:156] Memory required for data: 828249200
I0403 12:56:55.850247 27068 layer_factory.hpp:77] Creating layer relu7
I0403 12:56:55.850281 27068 net.cpp:91] Creating Layer relu7
I0403 12:56:55.850301 27068 net.cpp:425] relu7 <- fc7
I0403 12:56:55.850322 27068 net.cpp:386] relu7 -> fc7 (in-place)
I0403 12:56:55.850746 27068 net.cpp:141] Setting up relu7
I0403 12:56:55.850775 27068 net.cpp:148] Top shape: 100 4096 (409600)
I0403 12:56:55.850822 27068 net.cpp:156] Memory required for data: 829887600
I0403 12:56:55.850841 27068 layer_factory.hpp:77] Creating layer drop7
I0403 12:56:55.850863 27068 net.cpp:91] Creating Layer drop7
I0403 12:56:55.850881 27068 net.cpp:425] drop7 <- fc7
I0403 12:56:55.850900 27068 net.cpp:386] drop7 -> fc7 (in-place)
I0403 12:56:55.850945 27068 net.cpp:141] Setting up drop7
I0403 12:56:55.850970 27068 net.cpp:148] Top shape: 100 4096 (409600)
I0403 12:56:55.850985 27068 net.cpp:156] Memory required for data: 831526000
I0403 12:56:55.850999 27068 layer_factory.hpp:77] Creating layer fc8_plantvillage
I0403 12:56:55.851019 27068 net.cpp:91] Creating Layer fc8_plantvillage
I0403 12:56:55.851035 27068 net.cpp:425] fc8_plantvillage <- fc7
I0403 12:56:55.851057 27068 net.cpp:399] fc8_plantvillage -> fc8_plantvillage
I0403 12:56:55.857902 27068 net.cpp:141] Setting up fc8_plantvillage
I0403 12:56:55.857930 27068 net.cpp:148] Top shape: 100 38 (3800)
I0403 12:56:55.857946 27068 net.cpp:156] Memory required for data: 831541200
I0403 12:56:55.857966 27068 layer_factory.hpp:77] Creating layer fc8_plantvillage_fc8_plantvillage_0_split
I0403 12:56:55.857988 27068 net.cpp:91] Creating Layer fc8_plantvillage_fc8_plantvillage_0_split
I0403 12:56:55.858006 27068 net.cpp:425] fc8_plantvillage_fc8_plantvillage_0_split <- fc8_plantvillage
I0403 12:56:55.858023 27068 net.cpp:399] fc8_plantvillage_fc8_plantvillage_0_split -> fc8_plantvillage_fc8_plantvillage_0_split_0
I0403 12:56:55.858044 27068 net.cpp:399] fc8_plantvillage_fc8_plantvillage_0_split -> fc8_plantvillage_fc8_plantvillage_0_split_1
I0403 12:56:55.858067 27068 net.cpp:399] fc8_plantvillage_fc8_plantvillage_0_split -> fc8_plantvillage_fc8_plantvillage_0_split_2
I0403 12:56:55.858146 27068 net.cpp:141] Setting up fc8_plantvillage_fc8_plantvillage_0_split
I0403 12:56:55.858171 27068 net.cpp:148] Top shape: 100 38 (3800)
I0403 12:56:55.858187 27068 net.cpp:148] Top shape: 100 38 (3800)
I0403 12:56:55.858204 27068 net.cpp:148] Top shape: 100 38 (3800)
I0403 12:56:55.858218 27068 net.cpp:156] Memory required for data: 831586800
I0403 12:56:55.858234 27068 layer_factory.hpp:77] Creating layer prob
I0403 12:56:55.858258 27068 net.cpp:91] Creating Layer prob
I0403 12:56:55.858274 27068 net.cpp:425] prob <- fc8_plantvillage_fc8_plantvillage_0_split_0
I0403 12:56:55.858295 27068 net.cpp:399] prob -> prob
I0403 12:56:55.858522 27068 net.cpp:141] Setting up prob
I0403 12:56:55.858548 27068 net.cpp:148] Top shape: 100 38 (3800)
I0403 12:56:55.858564 27068 net.cpp:156] Memory required for data: 831602000
I0403 12:56:55.858579 27068 layer_factory.hpp:77] Creating layer hdf5out
I0403 12:56:55.858602 27068 net.cpp:91] Creating Layer hdf5out
I0403 12:56:55.858618 27068 net.cpp:425] hdf5out <- prob
I0403 12:56:55.858634 27068 net.cpp:425] hdf5out <- label_data_1_split_0
I0403 12:56:55.875311 27068 net.cpp:141] Setting up hdf5out
…
