…
I0403 12:42:03.045331 26609 net.cpp:313] The NetState phase (1) differed from the phase (0) specified by a rule in layer data
I0403 12:42:03.045629 26609 net.cpp:49] Initializing net from parameters: 
state {
  phase: TEST
}
layer {
  name: "data"
  type: "Data"
  top: "data"
  top: "label"
  include {
    phase: TEST
  }
  transform_param {
    crop_size: 227
    mean_file: "/home/mohanty/data/final_dataset/lmdb/color-20-80/mean.binaryproto"
  }
  data_param {
    source: "/home/mohanty/data/final_dataset/lmdb/color-20-80/test_db"
    batch_size: 100
    backend: LMDB
  }
}
layer {
  name: "conv1"
  type: "Convolution"
  bottom: "data"
  top: "conv1"
  param {
    lr_mult: 1
    decay_mult: 1
  }
  param {
    lr_mult: 2
    decay_mult: 0
  }
  convolution_param {
    num_output: 96
    kernel_size: 11
    stride: 4
    weight_filler {
      type: "gaussian"
      std: 0.01
    }
    bias_filler {
      type: "constant"
      value: 0
    }
  }
}
layer {
  name: "relu1"
  type: "ReLU"
  bottom: "conv1"
  top: "conv1"
}
layer {
  name: "norm1"
  type: "LRN"
  bottom: "conv1"
  top: "norm1"
  lrn_param {
    local_size: 5
    alpha: 0.0001
    beta: 0.75
  }
}
layer {
  name: "pool1"
  type: "Pooling"
  bottom: "norm1"
  top: "pool1"
  pooling_param {
    pool: MAX
    kernel_size: 3
    stride: 2
  }
}
layer {
  name: "conv2"
  type: "Convolution"
  bottom: "pool1"
  top: "conv2"
  param {
    lr_mult: 1
    decay_mult: 1
  }
  param {
    lr_mult: 2
    decay_mult: 0
  }
  convolution_param {
    num_output: 256
    pad: 2
    kernel_size: 5
    group: 2
    weight_filler {
      type: "gaussian"
      std: 0.01
    }
    bias_filler {
      type: "constant"
      value: 0.1
    }
  }
}
layer {
  name: "relu2"
  type: "ReLU"
  bottom: "conv2"
  top: "conv2"
}
layer {
  name: "norm2"
  type: "LRN"
  bottom: "conv2"
  top: "norm2"
  lrn_param {
    local_size: 5
    alpha: 0.0001
    beta: 0.75
  }
}
layer {
  name: "pool2"
  type: "Pooling"
  bottom: "norm2"
  top: "pool2"
  pooling_param {
    pool: MAX
    kernel_size: 3
    stride: 2
  }
}
layer {
  name: "conv3"
  type: "Convolution"
  bottom: "pool2"
  top: "conv3"
  param {
    lr_mult: 1
    decay_mult: 1
  }
  param {
    lr_mult: 2
    decay_mult: 0
  }
  convolution_param {
    num_output: 384
    pad: 1
    kernel_size: 3
    weight_filler {
      type: "gaussian"
      std: 0.01
    }
    bias_filler {
      type: "constant"
      value: 0
    }
  }
}
layer {
  name: "relu3"
  type: "ReLU"
  bottom: "conv3"
  top: "conv3"
}
layer {
  name: "conv4"
  type: "Convolution"
  bottom: "conv3"
  top: "conv4"
  param {
    lr_mult: 1
    decay_mult: 1
  }
  param {
    lr_mult: 2
    decay_mult: 0
  }
  convolution_param {
    num_output: 384
    pad: 1
    kernel_size: 3
    group: 2
    weight_filler {
      type: "gaussian"
      std: 0.01
    }
    bias_filler {
      type: "constant"
      value: 0.1
    }
  }
}
layer {
  name: "relu4"
  type: "ReLU"
  bottom: "conv4"
  top: "conv4"
}
layer {
  name: "conv5"
  type: "Convolution"
  bottom: "conv4"
  top: "conv5"
  param {
    lr_mult: 1
    decay_mult: 1
  }
  param {
    lr_mult: 2
    decay_mult: 0
  }
  convolution_param {
    num_output: 256
    pad: 1
    kernel_size: 3
    group: 2
    weight_filler {
      type: "gaussian"
      std: 0.01
    }
    bias_filler {
      type: "constant"
      value: 0.1
    }
  }
}
layer {
  name: "relu5"
  type: "ReLU"
  bottom: "conv5"
  top: "conv5"
}
layer {
  name: "pool5"
  type: "Pooling"
  bottom: "conv5"
  top: "pool5"
  pooling_param {
    pool: MAX
    kernel_size: 3
    stride: 2
  }
}
layer {
  name: "fc6"
  type: "InnerProduct"
  bottom: "pool5"
  top: "fc6"
  param {
    lr_mult: 1
    decay_mult: 1
  }
  param {
    lr_mult: 2
    decay_mult: 0
  }
  inner_product_param {
    num_output: 4096
    weight_filler {
      type: "gaussian"
      std: 0.005
    }
    bias_filler {
      type: "constant"
      value: 0.1
    }
  }
}
layer {
  name: "relu6"
  type: "ReLU"
  bottom: "fc6"
  top: "fc6"
}
layer {
  name: "drop6"
  type: "Dropout"
  bottom: "fc6"
  top: "fc6"
  dropout_param {
    dropout_ratio: 0.5
  }
}
layer {
  name: "fc7"
  type: "InnerProduct"
  bottom: "fc6"
  top: "fc7"
  param {
    lr_mult: 1
    decay_mult: 1
  }
  param {
    lr_mult: 2
    decay_mult: 0
  }
  inner_product_param {
    num_output: 4096
    weight_filler {
      type: "gaussian"
      std: 0.005
    }
    bias_filler {
      type: "constant"
      value: 0.1
    }
  }
}
layer {
  name: "relu7"
  type: "ReLU"
  bottom: "fc7"
  top: "fc7"
}
layer {
  name: "drop7"
  type: "Dropout"
  bottom: "fc7"
  top: "fc7"
  dropout_param {
    dropout_ratio: 0.5
  }
}
layer {
  name: "fc8_plantvillage"
  type: "InnerProduct"
  bottom: "fc7"
  top: "fc8_plantvillage"
  param {
    lr_mult: 1
    decay_mult: 1
  }
  param {
    lr_mult: 2
    decay_mult: 0
  }
  inner_product_param {
    num_output: 38
    weight_filler {
      type: "gaussian"
      std: 0.01
    }
    bias_filler {
      type: "constant"
      value: 0
    }
  }
}
layer {
  name: "prob"
  type: "Softmax"
  bottom: "fc8_plantvillage"
  top: "prob"
  include {
    phase: TEST
  }
}
layer {
  name: "hdf5out"
  type: "HDF5Output"
  bottom: "prob"
  bottom: "label"
  include {
    phase: TEST
  }
  hdf5_output_param {
    file_name: "hdf5_dumps/iter_1836.h5"
  }
}
layer {
  name: "loss"
  type: "SoftmaxWithLoss"
  bottom: "fc8_plantvillage"
  bottom: "label"
  top: "loss"
}
layer {
  name: "accuracy"
  type: "Accuracy"
  bottom: "fc8_plantvillage"
  bottom: "label"
  top: "accuracy"
  include {
    phase: TEST
  }
}
I0403 12:42:03.046224 26609 layer_factory.hpp:77] Creating layer data
I0403 12:42:03.046876 26609 net.cpp:91] Creating Layer data
I0403 12:42:03.046911 26609 net.cpp:399] data -> data
I0403 12:42:03.046962 26609 net.cpp:399] data -> label
I0403 12:42:03.047000 26609 data_transformer.cpp:25] Loading mean file from: /home/mohanty/data/final_dataset/lmdb/color-20-80/mean.binaryproto
I0403 12:42:03.050079 26615 db_lmdb.cpp:38] Opened lmdb /home/mohanty/data/final_dataset/lmdb/color-20-80/test_db
I0403 12:42:03.061319 26609 data_layer.cpp:41] output data size: 100,3,227,227
I0403 12:42:03.193172 26609 net.cpp:141] Setting up data
I0403 12:42:03.193267 26609 net.cpp:148] Top shape: 100 3 227 227 (15458700)
I0403 12:42:03.193296 26609 net.cpp:148] Top shape: 100 (100)
I0403 12:42:03.193315 26609 net.cpp:156] Memory required for data: 61835200
I0403 12:42:03.193344 26609 layer_factory.hpp:77] Creating layer label_data_1_split
I0403 12:42:03.193372 26609 net.cpp:91] Creating Layer label_data_1_split
I0403 12:42:03.193392 26609 net.cpp:425] label_data_1_split <- label
I0403 12:42:03.193424 26609 net.cpp:399] label_data_1_split -> label_data_1_split_0
I0403 12:42:03.193452 26609 net.cpp:399] label_data_1_split -> label_data_1_split_1
I0403 12:42:03.193476 26609 net.cpp:399] label_data_1_split -> label_data_1_split_2
I0403 12:42:03.193543 26609 net.cpp:141] Setting up label_data_1_split
I0403 12:42:03.193568 26609 net.cpp:148] Top shape: 100 (100)
I0403 12:42:03.193588 26609 net.cpp:148] Top shape: 100 (100)
I0403 12:42:03.193605 26609 net.cpp:148] Top shape: 100 (100)
I0403 12:42:03.193620 26609 net.cpp:156] Memory required for data: 61836400
I0403 12:42:03.193637 26609 layer_factory.hpp:77] Creating layer conv1
I0403 12:42:03.193671 26609 net.cpp:91] Creating Layer conv1
I0403 12:42:03.193692 26609 net.cpp:425] conv1 <- data
I0403 12:42:03.193712 26609 net.cpp:399] conv1 -> conv1
I0403 12:42:03.341202 26609 net.cpp:141] Setting up conv1
I0403 12:42:03.341284 26609 net.cpp:148] Top shape: 100 96 55 55 (29040000)
I0403 12:42:03.341303 26609 net.cpp:156] Memory required for data: 177996400
I0403 12:42:03.341337 26609 layer_factory.hpp:77] Creating layer relu1
I0403 12:42:03.341369 26609 net.cpp:91] Creating Layer relu1
I0403 12:42:03.341388 26609 net.cpp:425] relu1 <- conv1
I0403 12:42:03.341408 26609 net.cpp:386] relu1 -> conv1 (in-place)
I0403 12:42:03.341694 26609 net.cpp:141] Setting up relu1
I0403 12:42:03.341722 26609 net.cpp:148] Top shape: 100 96 55 55 (29040000)
I0403 12:42:03.341739 26609 net.cpp:156] Memory required for data: 294156400
I0403 12:42:03.341789 26609 layer_factory.hpp:77] Creating layer norm1
I0403 12:42:03.341821 26609 net.cpp:91] Creating Layer norm1
I0403 12:42:03.341846 26609 net.cpp:425] norm1 <- conv1
I0403 12:42:03.341869 26609 net.cpp:399] norm1 -> norm1
I0403 12:42:03.342197 26609 net.cpp:141] Setting up norm1
I0403 12:42:03.342228 26609 net.cpp:148] Top shape: 100 96 55 55 (29040000)
I0403 12:42:03.342247 26609 net.cpp:156] Memory required for data: 410316400
I0403 12:42:03.342268 26609 layer_factory.hpp:77] Creating layer pool1
I0403 12:42:03.342294 26609 net.cpp:91] Creating Layer pool1
I0403 12:42:03.342313 26609 net.cpp:425] pool1 <- norm1
I0403 12:42:03.342335 26609 net.cpp:399] pool1 -> pool1
I0403 12:42:03.342407 26609 net.cpp:141] Setting up pool1
I0403 12:42:03.342432 26609 net.cpp:148] Top shape: 100 96 27 27 (6998400)
I0403 12:42:03.342450 26609 net.cpp:156] Memory required for data: 438310000
I0403 12:42:03.342466 26609 layer_factory.hpp:77] Creating layer conv2
I0403 12:42:03.342494 26609 net.cpp:91] Creating Layer conv2
I0403 12:42:03.342511 26609 net.cpp:425] conv2 <- pool1
I0403 12:42:03.342584 26609 net.cpp:399] conv2 -> conv2
I0403 12:42:03.357944 26609 net.cpp:141] Setting up conv2
I0403 12:42:03.357991 26609 net.cpp:148] Top shape: 100 256 27 27 (18662400)
I0403 12:42:03.358011 26609 net.cpp:156] Memory required for data: 512959600
I0403 12:42:03.358036 26609 layer_factory.hpp:77] Creating layer relu2
I0403 12:42:03.358057 26609 net.cpp:91] Creating Layer relu2
I0403 12:42:03.358074 26609 net.cpp:425] relu2 <- conv2
I0403 12:42:03.358096 26609 net.cpp:386] relu2 -> conv2 (in-place)
I0403 12:42:03.358461 26609 net.cpp:141] Setting up relu2
I0403 12:42:03.358490 26609 net.cpp:148] Top shape: 100 256 27 27 (18662400)
I0403 12:42:03.358506 26609 net.cpp:156] Memory required for data: 587609200
I0403 12:42:03.358523 26609 layer_factory.hpp:77] Creating layer norm2
I0403 12:42:03.358548 26609 net.cpp:91] Creating Layer norm2
I0403 12:42:03.358575 26609 net.cpp:425] norm2 <- conv2
I0403 12:42:03.358595 26609 net.cpp:399] norm2 -> norm2
I0403 12:42:03.358800 26609 net.cpp:141] Setting up norm2
I0403 12:42:03.358829 26609 net.cpp:148] Top shape: 100 256 27 27 (18662400)
I0403 12:42:03.358849 26609 net.cpp:156] Memory required for data: 662258800
I0403 12:42:03.358865 26609 layer_factory.hpp:77] Creating layer pool2
I0403 12:42:03.358885 26609 net.cpp:91] Creating Layer pool2
I0403 12:42:03.358901 26609 net.cpp:425] pool2 <- norm2
I0403 12:42:03.358922 26609 net.cpp:399] pool2 -> pool2
I0403 12:42:03.358976 26609 net.cpp:141] Setting up pool2
I0403 12:42:03.359001 26609 net.cpp:148] Top shape: 100 256 13 13 (4326400)
I0403 12:42:03.359019 26609 net.cpp:156] Memory required for data: 679564400
I0403 12:42:03.359035 26609 layer_factory.hpp:77] Creating layer conv3
I0403 12:42:03.359058 26609 net.cpp:91] Creating Layer conv3
I0403 12:42:03.359077 26609 net.cpp:425] conv3 <- pool2
I0403 12:42:03.359100 26609 net.cpp:399] conv3 -> conv3
I0403 12:42:03.406873 26609 net.cpp:141] Setting up conv3
I0403 12:42:03.406949 26609 net.cpp:148] Top shape: 100 384 13 13 (6489600)
I0403 12:42:03.406966 26609 net.cpp:156] Memory required for data: 705522800
I0403 12:42:03.406994 26609 layer_factory.hpp:77] Creating layer relu3
I0403 12:42:03.407018 26609 net.cpp:91] Creating Layer relu3
I0403 12:42:03.407038 26609 net.cpp:425] relu3 <- conv3
I0403 12:42:03.407061 26609 net.cpp:386] relu3 -> conv3 (in-place)
I0403 12:42:03.407367 26609 net.cpp:141] Setting up relu3
I0403 12:42:03.407399 26609 net.cpp:148] Top shape: 100 384 13 13 (6489600)
I0403 12:42:03.407416 26609 net.cpp:156] Memory required for data: 731481200
I0403 12:42:03.407434 26609 layer_factory.hpp:77] Creating layer conv4
I0403 12:42:03.407462 26609 net.cpp:91] Creating Layer conv4
I0403 12:42:03.407481 26609 net.cpp:425] conv4 <- conv3
I0403 12:42:03.407503 26609 net.cpp:399] conv4 -> conv4
I0403 12:42:03.438705 26609 net.cpp:141] Setting up conv4
I0403 12:42:03.438776 26609 net.cpp:148] Top shape: 100 384 13 13 (6489600)
I0403 12:42:03.438827 26609 net.cpp:156] Memory required for data: 757439600
I0403 12:42:03.438850 26609 layer_factory.hpp:77] Creating layer relu4
I0403 12:42:03.438876 26609 net.cpp:91] Creating Layer relu4
I0403 12:42:03.438897 26609 net.cpp:425] relu4 <- conv4
I0403 12:42:03.438917 26609 net.cpp:386] relu4 -> conv4 (in-place)
I0403 12:42:03.439200 26609 net.cpp:141] Setting up relu4
I0403 12:42:03.439229 26609 net.cpp:148] Top shape: 100 384 13 13 (6489600)
I0403 12:42:03.439245 26609 net.cpp:156] Memory required for data: 783398000
I0403 12:42:03.439270 26609 layer_factory.hpp:77] Creating layer conv5
I0403 12:42:03.439299 26609 net.cpp:91] Creating Layer conv5
I0403 12:42:03.439319 26609 net.cpp:425] conv5 <- conv4
I0403 12:42:03.439339 26609 net.cpp:399] conv5 -> conv5
I0403 12:42:03.460238 26609 net.cpp:141] Setting up conv5
I0403 12:42:03.460286 26609 net.cpp:148] Top shape: 100 256 13 13 (4326400)
I0403 12:42:03.460306 26609 net.cpp:156] Memory required for data: 800703600
I0403 12:42:03.460331 26609 layer_factory.hpp:77] Creating layer relu5
I0403 12:42:03.460352 26609 net.cpp:91] Creating Layer relu5
I0403 12:42:03.460371 26609 net.cpp:425] relu5 <- conv5
I0403 12:42:03.460392 26609 net.cpp:386] relu5 -> conv5 (in-place)
I0403 12:42:03.460669 26609 net.cpp:141] Setting up relu5
I0403 12:42:03.460696 26609 net.cpp:148] Top shape: 100 256 13 13 (4326400)
I0403 12:42:03.460712 26609 net.cpp:156] Memory required for data: 818009200
I0403 12:42:03.460728 26609 layer_factory.hpp:77] Creating layer pool5
I0403 12:42:03.460750 26609 net.cpp:91] Creating Layer pool5
I0403 12:42:03.460767 26609 net.cpp:425] pool5 <- conv5
I0403 12:42:03.460788 26609 net.cpp:399] pool5 -> pool5
I0403 12:42:03.460850 26609 net.cpp:141] Setting up pool5
I0403 12:42:03.460875 26609 net.cpp:148] Top shape: 100 256 6 6 (921600)
I0403 12:42:03.460891 26609 net.cpp:156] Memory required for data: 821695600
I0403 12:42:03.460906 26609 layer_factory.hpp:77] Creating layer fc6
I0403 12:42:03.460935 26609 net.cpp:91] Creating Layer fc6
I0403 12:42:03.460968 26609 net.cpp:425] fc6 <- pool5
I0403 12:42:03.460988 26609 net.cpp:399] fc6 -> fc6
I0403 12:42:05.027087 26609 net.cpp:141] Setting up fc6
I0403 12:42:05.027165 26609 net.cpp:148] Top shape: 100 4096 (409600)
I0403 12:42:05.027184 26609 net.cpp:156] Memory required for data: 823334000
I0403 12:42:05.027205 26609 layer_factory.hpp:77] Creating layer relu6
I0403 12:42:05.027231 26609 net.cpp:91] Creating Layer relu6
I0403 12:42:05.027257 26609 net.cpp:425] relu6 <- fc6
I0403 12:42:05.027281 26609 net.cpp:386] relu6 -> fc6 (in-place)
I0403 12:42:05.027516 26609 net.cpp:141] Setting up relu6
I0403 12:42:05.027545 26609 net.cpp:148] Top shape: 100 4096 (409600)
I0403 12:42:05.027561 26609 net.cpp:156] Memory required for data: 824972400
I0403 12:42:05.027578 26609 layer_factory.hpp:77] Creating layer drop6
I0403 12:42:05.027600 26609 net.cpp:91] Creating Layer drop6
I0403 12:42:05.027616 26609 net.cpp:425] drop6 <- fc6
I0403 12:42:05.027637 26609 net.cpp:386] drop6 -> fc6 (in-place)
I0403 12:42:05.027694 26609 net.cpp:141] Setting up drop6
I0403 12:42:05.027719 26609 net.cpp:148] Top shape: 100 4096 (409600)
I0403 12:42:05.027734 26609 net.cpp:156] Memory required for data: 826610800
I0403 12:42:05.027750 26609 layer_factory.hpp:77] Creating layer fc7
I0403 12:42:05.027773 26609 net.cpp:91] Creating Layer fc7
I0403 12:42:05.027791 26609 net.cpp:425] fc7 <- fc6
I0403 12:42:05.027812 26609 net.cpp:399] fc7 -> fc7
I0403 12:42:05.719609 26609 net.cpp:141] Setting up fc7
I0403 12:42:05.719686 26609 net.cpp:148] Top shape: 100 4096 (409600)
I0403 12:42:05.719704 26609 net.cpp:156] Memory required for data: 828249200
I0403 12:42:05.719727 26609 layer_factory.hpp:77] Creating layer relu7
I0403 12:42:05.719750 26609 net.cpp:91] Creating Layer relu7
I0403 12:42:05.719770 26609 net.cpp:425] relu7 <- fc7
I0403 12:42:05.719794 26609 net.cpp:386] relu7 -> fc7 (in-place)
I0403 12:42:05.720183 26609 net.cpp:141] Setting up relu7
I0403 12:42:05.720213 26609 net.cpp:148] Top shape: 100 4096 (409600)
I0403 12:42:05.720286 26609 net.cpp:156] Memory required for data: 829887600
I0403 12:42:05.720304 26609 layer_factory.hpp:77] Creating layer drop7
I0403 12:42:05.720325 26609 net.cpp:91] Creating Layer drop7
I0403 12:42:05.720342 26609 net.cpp:425] drop7 <- fc7
I0403 12:42:05.720365 26609 net.cpp:386] drop7 -> fc7 (in-place)
I0403 12:42:05.720412 26609 net.cpp:141] Setting up drop7
I0403 12:42:05.720437 26609 net.cpp:148] Top shape: 100 4096 (409600)
I0403 12:42:05.720453 26609 net.cpp:156] Memory required for data: 831526000
I0403 12:42:05.720468 26609 layer_factory.hpp:77] Creating layer fc8_plantvillage
I0403 12:42:05.720491 26609 net.cpp:91] Creating Layer fc8_plantvillage
I0403 12:42:05.720510 26609 net.cpp:425] fc8_plantvillage <- fc7
I0403 12:42:05.720535 26609 net.cpp:399] fc8_plantvillage -> fc8_plantvillage
I0403 12:42:05.727493 26609 net.cpp:141] Setting up fc8_plantvillage
I0403 12:42:05.727524 26609 net.cpp:148] Top shape: 100 38 (3800)
I0403 12:42:05.727540 26609 net.cpp:156] Memory required for data: 831541200
I0403 12:42:05.727560 26609 layer_factory.hpp:77] Creating layer fc8_plantvillage_fc8_plantvillage_0_split
I0403 12:42:05.727579 26609 net.cpp:91] Creating Layer fc8_plantvillage_fc8_plantvillage_0_split
I0403 12:42:05.727596 26609 net.cpp:425] fc8_plantvillage_fc8_plantvillage_0_split <- fc8_plantvillage
I0403 12:42:05.727617 26609 net.cpp:399] fc8_plantvillage_fc8_plantvillage_0_split -> fc8_plantvillage_fc8_plantvillage_0_split_0
I0403 12:42:05.727638 26609 net.cpp:399] fc8_plantvillage_fc8_plantvillage_0_split -> fc8_plantvillage_fc8_plantvillage_0_split_1
I0403 12:42:05.727659 26609 net.cpp:399] fc8_plantvillage_fc8_plantvillage_0_split -> fc8_plantvillage_fc8_plantvillage_0_split_2
I0403 12:42:05.727737 26609 net.cpp:141] Setting up fc8_plantvillage_fc8_plantvillage_0_split
I0403 12:42:05.727762 26609 net.cpp:148] Top shape: 100 38 (3800)
I0403 12:42:05.727779 26609 net.cpp:148] Top shape: 100 38 (3800)
I0403 12:42:05.727797 26609 net.cpp:148] Top shape: 100 38 (3800)
I0403 12:42:05.727813 26609 net.cpp:156] Memory required for data: 831586800
I0403 12:42:05.727828 26609 layer_factory.hpp:77] Creating layer prob
I0403 12:42:05.727846 26609 net.cpp:91] Creating Layer prob
I0403 12:42:05.727864 26609 net.cpp:425] prob <- fc8_plantvillage_fc8_plantvillage_0_split_0
I0403 12:42:05.727883 26609 net.cpp:399] prob -> prob
I0403 12:42:05.728114 26609 net.cpp:141] Setting up prob
I0403 12:42:05.728143 26609 net.cpp:148] Top shape: 100 38 (3800)
I0403 12:42:05.728160 26609 net.cpp:156] Memory required for data: 831602000
I0403 12:42:05.728176 26609 layer_factory.hpp:77] Creating layer hdf5out
I0403 12:42:05.728195 26609 net.cpp:91] Creating Layer hdf5out
I0403 12:42:05.728212 26609 net.cpp:425] hdf5out <- prob
I0403 12:42:05.728230 26609 net.cpp:425] hdf5out <- label_data_1_split_0
I0403 12:42:05.731755 26609 net.cpp:141] Setting up hdf5out
…
