…
I0403 12:28:42.415091 26305 net.cpp:313] The NetState phase (1) differed from the phase (0) specified by a rule in layer data
I0403 12:28:42.415433 26305 net.cpp:49] Initializing net from parameters: 
state {
  phase: TEST
}
layer {
  name: "data"
  type: "Data"
  top: "data"
  top: "label"
  include {
    phase: TEST
  }
  transform_param {
    crop_size: 227
    mean_file: "/home/mohanty/data/final_dataset/lmdb/color-20-80/mean.binaryproto"
  }
  data_param {
    source: "/home/mohanty/data/final_dataset/lmdb/color-20-80/test_db"
    batch_size: 100
    backend: LMDB
  }
}
layer {
  name: "conv1"
  type: "Convolution"
  bottom: "data"
  top: "conv1"
  param {
    lr_mult: 1
    decay_mult: 1
  }
  param {
    lr_mult: 2
    decay_mult: 0
  }
  convolution_param {
    num_output: 96
    kernel_size: 11
    stride: 4
    weight_filler {
      type: "gaussian"
      std: 0.01
    }
    bias_filler {
      type: "constant"
      value: 0
    }
  }
}
layer {
  name: "relu1"
  type: "ReLU"
  bottom: "conv1"
  top: "conv1"
}
layer {
  name: "norm1"
  type: "LRN"
  bottom: "conv1"
  top: "norm1"
  lrn_param {
    local_size: 5
    alpha: 0.0001
    beta: 0.75
  }
}
layer {
  name: "pool1"
  type: "Pooling"
  bottom: "norm1"
  top: "pool1"
  pooling_param {
    pool: MAX
    kernel_size: 3
    stride: 2
  }
}
layer {
  name: "conv2"
  type: "Convolution"
  bottom: "pool1"
  top: "conv2"
  param {
    lr_mult: 1
    decay_mult: 1
  }
  param {
    lr_mult: 2
    decay_mult: 0
  }
  convolution_param {
    num_output: 256
    pad: 2
    kernel_size: 5
    group: 2
    weight_filler {
      type: "gaussian"
      std: 0.01
    }
    bias_filler {
      type: "constant"
      value: 0.1
    }
  }
}
layer {
  name: "relu2"
  type: "ReLU"
  bottom: "conv2"
  top: "conv2"
}
layer {
  name: "norm2"
  type: "LRN"
  bottom: "conv2"
  top: "norm2"
  lrn_param {
    local_size: 5
    alpha: 0.0001
    beta: 0.75
  }
}
layer {
  name: "pool2"
  type: "Pooling"
  bottom: "norm2"
  top: "pool2"
  pooling_param {
    pool: MAX
    kernel_size: 3
    stride: 2
  }
}
layer {
  name: "conv3"
  type: "Convolution"
  bottom: "pool2"
  top: "conv3"
  param {
    lr_mult: 1
    decay_mult: 1
  }
  param {
    lr_mult: 2
    decay_mult: 0
  }
  convolution_param {
    num_output: 384
    pad: 1
    kernel_size: 3
    weight_filler {
      type: "gaussian"
      std: 0.01
    }
    bias_filler {
      type: "constant"
      value: 0
    }
  }
}
layer {
  name: "relu3"
  type: "ReLU"
  bottom: "conv3"
  top: "conv3"
}
layer {
  name: "conv4"
  type: "Convolution"
  bottom: "conv3"
  top: "conv4"
  param {
    lr_mult: 1
    decay_mult: 1
  }
  param {
    lr_mult: 2
    decay_mult: 0
  }
  convolution_param {
    num_output: 384
    pad: 1
    kernel_size: 3
    group: 2
    weight_filler {
      type: "gaussian"
      std: 0.01
    }
    bias_filler {
      type: "constant"
      value: 0.1
    }
  }
}
layer {
  name: "relu4"
  type: "ReLU"
  bottom: "conv4"
  top: "conv4"
}
layer {
  name: "conv5"
  type: "Convolution"
  bottom: "conv4"
  top: "conv5"
  param {
    lr_mult: 1
    decay_mult: 1
  }
  param {
    lr_mult: 2
    decay_mult: 0
  }
  convolution_param {
    num_output: 256
    pad: 1
    kernel_size: 3
    group: 2
    weight_filler {
      type: "gaussian"
      std: 0.01
    }
    bias_filler {
      type: "constant"
      value: 0.1
    }
  }
}
layer {
  name: "relu5"
  type: "ReLU"
  bottom: "conv5"
  top: "conv5"
}
layer {
  name: "pool5"
  type: "Pooling"
  bottom: "conv5"
  top: "pool5"
  pooling_param {
    pool: MAX
    kernel_size: 3
    stride: 2
  }
}
layer {
  name: "fc6"
  type: "InnerProduct"
  bottom: "pool5"
  top: "fc6"
  param {
    lr_mult: 1
    decay_mult: 1
  }
  param {
    lr_mult: 2
    decay_mult: 0
  }
  inner_product_param {
    num_output: 4096
    weight_filler {
      type: "gaussian"
      std: 0.005
    }
    bias_filler {
      type: "constant"
      value: 0.1
    }
  }
}
layer {
  name: "relu6"
  type: "ReLU"
  bottom: "fc6"
  top: "fc6"
}
layer {
  name: "drop6"
  type: "Dropout"
  bottom: "fc6"
  top: "fc6"
  dropout_param {
    dropout_ratio: 0.5
  }
}
layer {
  name: "fc7"
  type: "InnerProduct"
  bottom: "fc6"
  top: "fc7"
  param {
    lr_mult: 1
    decay_mult: 1
  }
  param {
    lr_mult: 2
    decay_mult: 0
  }
  inner_product_param {
    num_output: 4096
    weight_filler {
      type: "gaussian"
      std: 0.005
    }
    bias_filler {
      type: "constant"
      value: 0.1
    }
  }
}
layer {
  name: "relu7"
  type: "ReLU"
  bottom: "fc7"
  top: "fc7"
}
layer {
  name: "drop7"
  type: "Dropout"
  bottom: "fc7"
  top: "fc7"
  dropout_param {
    dropout_ratio: 0.5
  }
}
layer {
  name: "fc8_plantvillage"
  type: "InnerProduct"
  bottom: "fc7"
  top: "fc8_plantvillage"
  param {
    lr_mult: 1
    decay_mult: 1
  }
  param {
    lr_mult: 2
    decay_mult: 0
  }
  inner_product_param {
    num_output: 38
    weight_filler {
      type: "gaussian"
      std: 0.01
    }
    bias_filler {
      type: "constant"
      value: 0
    }
  }
}
layer {
  name: "prob"
  type: "Softmax"
  bottom: "fc8_plantvillage"
  top: "prob"
  include {
    phase: TEST
  }
}
layer {
  name: "hdf5out"
  type: "HDF5Output"
  bottom: "prob"
  bottom: "label"
  include {
    phase: TEST
  }
  hdf5_output_param {
    file_name: "hdf5_dumps/iter_864.h5"
  }
}
layer {
  name: "loss"
  type: "SoftmaxWithLoss"
  bottom: "fc8_plantvillage"
  bottom: "label"
  top: "loss"
}
layer {
  name: "accuracy"
  type: "Accuracy"
  bottom: "fc8_plantvillage"
  bottom: "label"
  top: "accuracy"
  include {
    phase: TEST
  }
}
I0403 12:28:42.416013 26305 layer_factory.hpp:77] Creating layer data
I0403 12:28:42.416679 26305 net.cpp:91] Creating Layer data
I0403 12:28:42.416718 26305 net.cpp:399] data -> data
I0403 12:28:42.416771 26305 net.cpp:399] data -> label
I0403 12:28:42.416815 26305 data_transformer.cpp:25] Loading mean file from: /home/mohanty/data/final_dataset/lmdb/color-20-80/mean.binaryproto
I0403 12:28:42.420264 26308 db_lmdb.cpp:38] Opened lmdb /home/mohanty/data/final_dataset/lmdb/color-20-80/test_db
I0403 12:28:42.431131 26305 data_layer.cpp:41] output data size: 100,3,227,227
I0403 12:28:42.567021 26305 net.cpp:141] Setting up data
I0403 12:28:42.567114 26305 net.cpp:148] Top shape: 100 3 227 227 (15458700)
I0403 12:28:42.567137 26305 net.cpp:148] Top shape: 100 (100)
I0403 12:28:42.567154 26305 net.cpp:156] Memory required for data: 61835200
I0403 12:28:42.567183 26305 layer_factory.hpp:77] Creating layer label_data_1_split
I0403 12:28:42.567209 26305 net.cpp:91] Creating Layer label_data_1_split
I0403 12:28:42.567229 26305 net.cpp:425] label_data_1_split <- label
I0403 12:28:42.567266 26305 net.cpp:399] label_data_1_split -> label_data_1_split_0
I0403 12:28:42.567296 26305 net.cpp:399] label_data_1_split -> label_data_1_split_1
I0403 12:28:42.567318 26305 net.cpp:399] label_data_1_split -> label_data_1_split_2
I0403 12:28:42.567384 26305 net.cpp:141] Setting up label_data_1_split
I0403 12:28:42.567409 26305 net.cpp:148] Top shape: 100 (100)
I0403 12:28:42.567426 26305 net.cpp:148] Top shape: 100 (100)
I0403 12:28:42.567445 26305 net.cpp:148] Top shape: 100 (100)
I0403 12:28:42.567461 26305 net.cpp:156] Memory required for data: 61836400
I0403 12:28:42.567476 26305 layer_factory.hpp:77] Creating layer conv1
I0403 12:28:42.567509 26305 net.cpp:91] Creating Layer conv1
I0403 12:28:42.567529 26305 net.cpp:425] conv1 <- data
I0403 12:28:42.567551 26305 net.cpp:399] conv1 -> conv1
I0403 12:28:42.717351 26305 net.cpp:141] Setting up conv1
I0403 12:28:42.717428 26305 net.cpp:148] Top shape: 100 96 55 55 (29040000)
I0403 12:28:42.717447 26305 net.cpp:156] Memory required for data: 177996400
I0403 12:28:42.717481 26305 layer_factory.hpp:77] Creating layer relu1
I0403 12:28:42.717510 26305 net.cpp:91] Creating Layer relu1
I0403 12:28:42.717530 26305 net.cpp:425] relu1 <- conv1
I0403 12:28:42.717551 26305 net.cpp:386] relu1 -> conv1 (in-place)
I0403 12:28:42.717820 26305 net.cpp:141] Setting up relu1
I0403 12:28:42.717849 26305 net.cpp:148] Top shape: 100 96 55 55 (29040000)
I0403 12:28:42.717866 26305 net.cpp:156] Memory required for data: 294156400
I0403 12:28:42.717916 26305 layer_factory.hpp:77] Creating layer norm1
I0403 12:28:42.717947 26305 net.cpp:91] Creating Layer norm1
I0403 12:28:42.717967 26305 net.cpp:425] norm1 <- conv1
I0403 12:28:42.717988 26305 net.cpp:399] norm1 -> norm1
I0403 12:28:42.718319 26305 net.cpp:141] Setting up norm1
I0403 12:28:42.718349 26305 net.cpp:148] Top shape: 100 96 55 55 (29040000)
I0403 12:28:42.718366 26305 net.cpp:156] Memory required for data: 410316400
I0403 12:28:42.718384 26305 layer_factory.hpp:77] Creating layer pool1
I0403 12:28:42.718410 26305 net.cpp:91] Creating Layer pool1
I0403 12:28:42.718427 26305 net.cpp:425] pool1 <- norm1
I0403 12:28:42.718447 26305 net.cpp:399] pool1 -> pool1
I0403 12:28:42.718518 26305 net.cpp:141] Setting up pool1
I0403 12:28:42.718544 26305 net.cpp:148] Top shape: 100 96 27 27 (6998400)
I0403 12:28:42.718561 26305 net.cpp:156] Memory required for data: 438310000
I0403 12:28:42.718580 26305 layer_factory.hpp:77] Creating layer conv2
I0403 12:28:42.718605 26305 net.cpp:91] Creating Layer conv2
I0403 12:28:42.718622 26305 net.cpp:425] conv2 <- pool1
I0403 12:28:42.718642 26305 net.cpp:399] conv2 -> conv2
I0403 12:28:42.734004 26305 net.cpp:141] Setting up conv2
I0403 12:28:42.734050 26305 net.cpp:148] Top shape: 100 256 27 27 (18662400)
I0403 12:28:42.734067 26305 net.cpp:156] Memory required for data: 512959600
I0403 12:28:42.734091 26305 layer_factory.hpp:77] Creating layer relu2
I0403 12:28:42.734113 26305 net.cpp:91] Creating Layer relu2
I0403 12:28:42.734132 26305 net.cpp:425] relu2 <- conv2
I0403 12:28:42.734151 26305 net.cpp:386] relu2 -> conv2 (in-place)
I0403 12:28:42.734444 26305 net.cpp:141] Setting up relu2
I0403 12:28:42.734472 26305 net.cpp:148] Top shape: 100 256 27 27 (18662400)
I0403 12:28:42.734489 26305 net.cpp:156] Memory required for data: 587609200
I0403 12:28:42.734506 26305 layer_factory.hpp:77] Creating layer norm2
I0403 12:28:42.734529 26305 net.cpp:91] Creating Layer norm2
I0403 12:28:42.734549 26305 net.cpp:425] norm2 <- conv2
I0403 12:28:42.734570 26305 net.cpp:399] norm2 -> norm2
I0403 12:28:42.734765 26305 net.cpp:141] Setting up norm2
I0403 12:28:42.734792 26305 net.cpp:148] Top shape: 100 256 27 27 (18662400)
I0403 12:28:42.734808 26305 net.cpp:156] Memory required for data: 662258800
I0403 12:28:42.734824 26305 layer_factory.hpp:77] Creating layer pool2
I0403 12:28:42.734844 26305 net.cpp:91] Creating Layer pool2
I0403 12:28:42.734861 26305 net.cpp:425] pool2 <- norm2
I0403 12:28:42.734880 26305 net.cpp:399] pool2 -> pool2
I0403 12:28:42.734933 26305 net.cpp:141] Setting up pool2
I0403 12:28:42.734962 26305 net.cpp:148] Top shape: 100 256 13 13 (4326400)
I0403 12:28:42.734980 26305 net.cpp:156] Memory required for data: 679564400
I0403 12:28:42.734997 26305 layer_factory.hpp:77] Creating layer conv3
I0403 12:28:42.735020 26305 net.cpp:91] Creating Layer conv3
I0403 12:28:42.735038 26305 net.cpp:425] conv3 <- pool2
I0403 12:28:42.735059 26305 net.cpp:399] conv3 -> conv3
I0403 12:28:42.774725 26305 net.cpp:141] Setting up conv3
I0403 12:28:42.774798 26305 net.cpp:148] Top shape: 100 384 13 13 (6489600)
I0403 12:28:42.774816 26305 net.cpp:156] Memory required for data: 705522800
I0403 12:28:42.774842 26305 layer_factory.hpp:77] Creating layer relu3
I0403 12:28:42.774866 26305 net.cpp:91] Creating Layer relu3
I0403 12:28:42.774884 26305 net.cpp:425] relu3 <- conv3
I0403 12:28:42.774907 26305 net.cpp:386] relu3 -> conv3 (in-place)
I0403 12:28:42.775202 26305 net.cpp:141] Setting up relu3
I0403 12:28:42.775234 26305 net.cpp:148] Top shape: 100 384 13 13 (6489600)
I0403 12:28:42.775251 26305 net.cpp:156] Memory required for data: 731481200
I0403 12:28:42.775267 26305 layer_factory.hpp:77] Creating layer conv4
I0403 12:28:42.775300 26305 net.cpp:91] Creating Layer conv4
I0403 12:28:42.775320 26305 net.cpp:425] conv4 <- conv3
I0403 12:28:42.775342 26305 net.cpp:399] conv4 -> conv4
I0403 12:28:42.806417 26305 net.cpp:141] Setting up conv4
I0403 12:28:42.806484 26305 net.cpp:148] Top shape: 100 384 13 13 (6489600)
I0403 12:28:42.806524 26305 net.cpp:156] Memory required for data: 757439600
I0403 12:28:42.806547 26305 layer_factory.hpp:77] Creating layer relu4
I0403 12:28:42.806571 26305 net.cpp:91] Creating Layer relu4
I0403 12:28:42.806592 26305 net.cpp:425] relu4 <- conv4
I0403 12:28:42.806617 26305 net.cpp:386] relu4 -> conv4 (in-place)
I0403 12:28:42.806905 26305 net.cpp:141] Setting up relu4
I0403 12:28:42.806936 26305 net.cpp:148] Top shape: 100 384 13 13 (6489600)
I0403 12:28:42.806954 26305 net.cpp:156] Memory required for data: 783398000
I0403 12:28:42.806970 26305 layer_factory.hpp:77] Creating layer conv5
I0403 12:28:42.806998 26305 net.cpp:91] Creating Layer conv5
I0403 12:28:42.807018 26305 net.cpp:425] conv5 <- conv4
I0403 12:28:42.807036 26305 net.cpp:399] conv5 -> conv5
I0403 12:28:42.828269 26305 net.cpp:141] Setting up conv5
I0403 12:28:42.828337 26305 net.cpp:148] Top shape: 100 256 13 13 (4326400)
I0403 12:28:42.828356 26305 net.cpp:156] Memory required for data: 800703600
I0403 12:28:42.828383 26305 layer_factory.hpp:77] Creating layer relu5
I0403 12:28:42.828408 26305 net.cpp:91] Creating Layer relu5
I0403 12:28:42.828425 26305 net.cpp:425] relu5 <- conv5
I0403 12:28:42.828446 26305 net.cpp:386] relu5 -> conv5 (in-place)
I0403 12:28:42.828749 26305 net.cpp:141] Setting up relu5
I0403 12:28:42.828778 26305 net.cpp:148] Top shape: 100 256 13 13 (4326400)
I0403 12:28:42.828794 26305 net.cpp:156] Memory required for data: 818009200
I0403 12:28:42.828811 26305 layer_factory.hpp:77] Creating layer pool5
I0403 12:28:42.828837 26305 net.cpp:91] Creating Layer pool5
I0403 12:28:42.828855 26305 net.cpp:425] pool5 <- conv5
I0403 12:28:42.828876 26305 net.cpp:399] pool5 -> pool5
I0403 12:28:42.828939 26305 net.cpp:141] Setting up pool5
I0403 12:28:42.828965 26305 net.cpp:148] Top shape: 100 256 6 6 (921600)
I0403 12:28:42.828981 26305 net.cpp:156] Memory required for data: 821695600
I0403 12:28:42.828999 26305 layer_factory.hpp:77] Creating layer fc6
I0403 12:28:42.829026 26305 net.cpp:91] Creating Layer fc6
I0403 12:28:42.829046 26305 net.cpp:425] fc6 <- pool5
I0403 12:28:42.829067 26305 net.cpp:399] fc6 -> fc6
I0403 12:28:44.393158 26305 net.cpp:141] Setting up fc6
I0403 12:28:44.393239 26305 net.cpp:148] Top shape: 100 4096 (409600)
I0403 12:28:44.393267 26305 net.cpp:156] Memory required for data: 823334000
I0403 12:28:44.393293 26305 layer_factory.hpp:77] Creating layer relu6
I0403 12:28:44.393319 26305 net.cpp:91] Creating Layer relu6
I0403 12:28:44.393338 26305 net.cpp:425] relu6 <- fc6
I0403 12:28:44.393359 26305 net.cpp:386] relu6 -> fc6 (in-place)
I0403 12:28:44.393576 26305 net.cpp:141] Setting up relu6
I0403 12:28:44.393602 26305 net.cpp:148] Top shape: 100 4096 (409600)
I0403 12:28:44.393617 26305 net.cpp:156] Memory required for data: 824972400
I0403 12:28:44.393632 26305 layer_factory.hpp:77] Creating layer drop6
I0403 12:28:44.393652 26305 net.cpp:91] Creating Layer drop6
I0403 12:28:44.393669 26305 net.cpp:425] drop6 <- fc6
I0403 12:28:44.393690 26305 net.cpp:386] drop6 -> fc6 (in-place)
I0403 12:28:44.393743 26305 net.cpp:141] Setting up drop6
I0403 12:28:44.393769 26305 net.cpp:148] Top shape: 100 4096 (409600)
I0403 12:28:44.393785 26305 net.cpp:156] Memory required for data: 826610800
I0403 12:28:44.393800 26305 layer_factory.hpp:77] Creating layer fc7
I0403 12:28:44.393822 26305 net.cpp:91] Creating Layer fc7
I0403 12:28:44.393838 26305 net.cpp:425] fc7 <- fc6
I0403 12:28:44.393859 26305 net.cpp:399] fc7 -> fc7
I0403 12:28:45.079581 26305 net.cpp:141] Setting up fc7
I0403 12:28:45.079646 26305 net.cpp:148] Top shape: 100 4096 (409600)
I0403 12:28:45.079663 26305 net.cpp:156] Memory required for data: 828249200
I0403 12:28:45.079685 26305 layer_factory.hpp:77] Creating layer relu7
I0403 12:28:45.079707 26305 net.cpp:91] Creating Layer relu7
I0403 12:28:45.079723 26305 net.cpp:425] relu7 <- fc7
I0403 12:28:45.079744 26305 net.cpp:386] relu7 -> fc7 (in-place)
I0403 12:28:45.080155 26305 net.cpp:141] Setting up relu7
I0403 12:28:45.080183 26305 net.cpp:148] Top shape: 100 4096 (409600)
I0403 12:28:45.080230 26305 net.cpp:156] Memory required for data: 829887600
I0403 12:28:45.080247 26305 layer_factory.hpp:77] Creating layer drop7
I0403 12:28:45.080273 26305 net.cpp:91] Creating Layer drop7
I0403 12:28:45.080291 26305 net.cpp:425] drop7 <- fc7
I0403 12:28:45.080312 26305 net.cpp:386] drop7 -> fc7 (in-place)
I0403 12:28:45.080354 26305 net.cpp:141] Setting up drop7
I0403 12:28:45.080376 26305 net.cpp:148] Top shape: 100 4096 (409600)
I0403 12:28:45.080391 26305 net.cpp:156] Memory required for data: 831526000
I0403 12:28:45.080405 26305 layer_factory.hpp:77] Creating layer fc8_plantvillage
I0403 12:28:45.080426 26305 net.cpp:91] Creating Layer fc8_plantvillage
I0403 12:28:45.080442 26305 net.cpp:425] fc8_plantvillage <- fc7
I0403 12:28:45.080461 26305 net.cpp:399] fc8_plantvillage -> fc8_plantvillage
I0403 12:28:45.087200 26305 net.cpp:141] Setting up fc8_plantvillage
I0403 12:28:45.087229 26305 net.cpp:148] Top shape: 100 38 (3800)
I0403 12:28:45.087245 26305 net.cpp:156] Memory required for data: 831541200
I0403 12:28:45.087270 26305 layer_factory.hpp:77] Creating layer fc8_plantvillage_fc8_plantvillage_0_split
I0403 12:28:45.087291 26305 net.cpp:91] Creating Layer fc8_plantvillage_fc8_plantvillage_0_split
I0403 12:28:45.087306 26305 net.cpp:425] fc8_plantvillage_fc8_plantvillage_0_split <- fc8_plantvillage
I0403 12:28:45.087327 26305 net.cpp:399] fc8_plantvillage_fc8_plantvillage_0_split -> fc8_plantvillage_fc8_plantvillage_0_split_0
I0403 12:28:45.087348 26305 net.cpp:399] fc8_plantvillage_fc8_plantvillage_0_split -> fc8_plantvillage_fc8_plantvillage_0_split_1
I0403 12:28:45.087369 26305 net.cpp:399] fc8_plantvillage_fc8_plantvillage_0_split -> fc8_plantvillage_fc8_plantvillage_0_split_2
I0403 12:28:45.087447 26305 net.cpp:141] Setting up fc8_plantvillage_fc8_plantvillage_0_split
I0403 12:28:45.087471 26305 net.cpp:148] Top shape: 100 38 (3800)
I0403 12:28:45.087488 26305 net.cpp:148] Top shape: 100 38 (3800)
I0403 12:28:45.087504 26305 net.cpp:148] Top shape: 100 38 (3800)
I0403 12:28:45.087518 26305 net.cpp:156] Memory required for data: 831586800
I0403 12:28:45.087533 26305 layer_factory.hpp:77] Creating layer prob
I0403 12:28:45.087553 26305 net.cpp:91] Creating Layer prob
I0403 12:28:45.087568 26305 net.cpp:425] prob <- fc8_plantvillage_fc8_plantvillage_0_split_0
I0403 12:28:45.087590 26305 net.cpp:399] prob -> prob
I0403 12:28:45.087816 26305 net.cpp:141] Setting up prob
I0403 12:28:45.087846 26305 net.cpp:148] Top shape: 100 38 (3800)
I0403 12:28:45.087862 26305 net.cpp:156] Memory required for data: 831602000
I0403 12:28:45.087877 26305 layer_factory.hpp:77] Creating layer hdf5out
I0403 12:28:45.087898 26305 net.cpp:91] Creating Layer hdf5out
I0403 12:28:45.087913 26305 net.cpp:425] hdf5out <- prob
I0403 12:28:45.087929 26305 net.cpp:425] hdf5out <- label_data_1_split_0
I0403 12:28:45.114006 26305 net.cpp:141] Setting up hdf5out
…
