…
I0403 13:02:50.562296 27224 net.cpp:313] The NetState phase (1) differed from the phase (0) specified by a rule in layer data
I0403 13:02:50.562615 27224 net.cpp:49] Initializing net from parameters: 
state {
  phase: TEST
}
layer {
  name: "data"
  type: "Data"
  top: "data"
  top: "label"
  include {
    phase: TEST
  }
  transform_param {
    crop_size: 227
    mean_file: "/home/mohanty/data/final_dataset/lmdb/color-20-80/mean.binaryproto"
  }
  data_param {
    source: "/home/mohanty/data/final_dataset/lmdb/color-20-80/test_db"
    batch_size: 100
    backend: LMDB
  }
}
layer {
  name: "conv1"
  type: "Convolution"
  bottom: "data"
  top: "conv1"
  param {
    lr_mult: 1
    decay_mult: 1
  }
  param {
    lr_mult: 2
    decay_mult: 0
  }
  convolution_param {
    num_output: 96
    kernel_size: 11
    stride: 4
    weight_filler {
      type: "gaussian"
      std: 0.01
    }
    bias_filler {
      type: "constant"
      value: 0
    }
  }
}
layer {
  name: "relu1"
  type: "ReLU"
  bottom: "conv1"
  top: "conv1"
}
layer {
  name: "norm1"
  type: "LRN"
  bottom: "conv1"
  top: "norm1"
  lrn_param {
    local_size: 5
    alpha: 0.0001
    beta: 0.75
  }
}
layer {
  name: "pool1"
  type: "Pooling"
  bottom: "norm1"
  top: "pool1"
  pooling_param {
    pool: MAX
    kernel_size: 3
    stride: 2
  }
}
layer {
  name: "conv2"
  type: "Convolution"
  bottom: "pool1"
  top: "conv2"
  param {
    lr_mult: 1
    decay_mult: 1
  }
  param {
    lr_mult: 2
    decay_mult: 0
  }
  convolution_param {
    num_output: 256
    pad: 2
    kernel_size: 5
    group: 2
    weight_filler {
      type: "gaussian"
      std: 0.01
    }
    bias_filler {
      type: "constant"
      value: 0.1
    }
  }
}
layer {
  name: "relu2"
  type: "ReLU"
  bottom: "conv2"
  top: "conv2"
}
layer {
  name: "norm2"
  type: "LRN"
  bottom: "conv2"
  top: "norm2"
  lrn_param {
    local_size: 5
    alpha: 0.0001
    beta: 0.75
  }
}
layer {
  name: "pool2"
  type: "Pooling"
  bottom: "norm2"
  top: "pool2"
  pooling_param {
    pool: MAX
    kernel_size: 3
    stride: 2
  }
}
layer {
  name: "conv3"
  type: "Convolution"
  bottom: "pool2"
  top: "conv3"
  param {
    lr_mult: 1
    decay_mult: 1
  }
  param {
    lr_mult: 2
    decay_mult: 0
  }
  convolution_param {
    num_output: 384
    pad: 1
    kernel_size: 3
    weight_filler {
      type: "gaussian"
      std: 0.01
    }
    bias_filler {
      type: "constant"
      value: 0
    }
  }
}
layer {
  name: "relu3"
  type: "ReLU"
  bottom: "conv3"
  top: "conv3"
}
layer {
  name: "conv4"
  type: "Convolution"
  bottom: "conv3"
  top: "conv4"
  param {
    lr_mult: 1
    decay_mult: 1
  }
  param {
    lr_mult: 2
    decay_mult: 0
  }
  convolution_param {
    num_output: 384
    pad: 1
    kernel_size: 3
    group: 2
    weight_filler {
      type: "gaussian"
      std: 0.01
    }
    bias_filler {
      type: "constant"
      value: 0.1
    }
  }
}
layer {
  name: "relu4"
  type: "ReLU"
  bottom: "conv4"
  top: "conv4"
}
layer {
  name: "conv5"
  type: "Convolution"
  bottom: "conv4"
  top: "conv5"
  param {
    lr_mult: 1
    decay_mult: 1
  }
  param {
    lr_mult: 2
    decay_mult: 0
  }
  convolution_param {
    num_output: 256
    pad: 1
    kernel_size: 3
    group: 2
    weight_filler {
      type: "gaussian"
      std: 0.01
    }
    bias_filler {
      type: "constant"
      value: 0.1
    }
  }
}
layer {
  name: "relu5"
  type: "ReLU"
  bottom: "conv5"
  top: "conv5"
}
layer {
  name: "pool5"
  type: "Pooling"
  bottom: "conv5"
  top: "pool5"
  pooling_param {
    pool: MAX
    kernel_size: 3
    stride: 2
  }
}
layer {
  name: "fc6"
  type: "InnerProduct"
  bottom: "pool5"
  top: "fc6"
  param {
    lr_mult: 1
    decay_mult: 1
  }
  param {
    lr_mult: 2
    decay_mult: 0
  }
  inner_product_param {
    num_output: 4096
    weight_filler {
      type: "gaussian"
      std: 0.005
    }
    bias_filler {
      type: "constant"
      value: 0.1
    }
  }
}
layer {
  name: "relu6"
  type: "ReLU"
  bottom: "fc6"
  top: "fc6"
}
layer {
  name: "drop6"
  type: "Dropout"
  bottom: "fc6"
  top: "fc6"
  dropout_param {
    dropout_ratio: 0.5
  }
}
layer {
  name: "fc7"
  type: "InnerProduct"
  bottom: "fc6"
  top: "fc7"
  param {
    lr_mult: 1
    decay_mult: 1
  }
  param {
    lr_mult: 2
    decay_mult: 0
  }
  inner_product_param {
    num_output: 4096
    weight_filler {
      type: "gaussian"
      std: 0.005
    }
    bias_filler {
      type: "constant"
      value: 0.1
    }
  }
}
layer {
  name: "relu7"
  type: "ReLU"
  bottom: "fc7"
  top: "fc7"
}
layer {
  name: "drop7"
  type: "Dropout"
  bottom: "fc7"
  top: "fc7"
  dropout_param {
    dropout_ratio: 0.5
  }
}
layer {
  name: "fc8_plantvillage"
  type: "InnerProduct"
  bottom: "fc7"
  top: "fc8_plantvillage"
  param {
    lr_mult: 1
    decay_mult: 1
  }
  param {
    lr_mult: 2
    decay_mult: 0
  }
  inner_product_param {
    num_output: 38
    weight_filler {
      type: "gaussian"
      std: 0.01
    }
    bias_filler {
      type: "constant"
      value: 0
    }
  }
}
layer {
  name: "prob"
  type: "Softmax"
  bottom: "fc8_plantvillage"
  top: "prob"
  include {
    phase: TEST
  }
}
layer {
  name: "hdf5out"
  type: "HDF5Output"
  bottom: "prob"
  bottom: "label"
  include {
    phase: TEST
  }
  hdf5_output_param {
    file_name: "hdf5_dumps/iter_3251.h5"
  }
}
layer {
  name: "loss"
  type: "SoftmaxWithLoss"
  bottom: "fc8_plantvillage"
  bottom: "label"
  top: "loss"
}
layer {
  name: "accuracy"
  type: "Accuracy"
  bottom: "fc8_plantvillage"
  bottom: "label"
  top: "accuracy"
  include {
    phase: TEST
  }
}
I0403 13:02:50.563352 27224 layer_factory.hpp:77] Creating layer data
I0403 13:02:50.564007 27224 net.cpp:91] Creating Layer data
I0403 13:02:50.564041 27224 net.cpp:399] data -> data
I0403 13:02:50.564096 27224 net.cpp:399] data -> label
I0403 13:02:50.564136 27224 data_transformer.cpp:25] Loading mean file from: /home/mohanty/data/final_dataset/lmdb/color-20-80/mean.binaryproto
I0403 13:02:50.566561 27230 db_lmdb.cpp:38] Opened lmdb /home/mohanty/data/final_dataset/lmdb/color-20-80/test_db
I0403 13:02:50.578580 27224 data_layer.cpp:41] output data size: 100,3,227,227
I0403 13:02:50.712649 27224 net.cpp:141] Setting up data
I0403 13:02:50.712709 27224 net.cpp:148] Top shape: 100 3 227 227 (15458700)
I0403 13:02:50.712733 27224 net.cpp:148] Top shape: 100 (100)
I0403 13:02:50.712750 27224 net.cpp:156] Memory required for data: 61835200
I0403 13:02:50.712779 27224 layer_factory.hpp:77] Creating layer label_data_1_split
I0403 13:02:50.712805 27224 net.cpp:91] Creating Layer label_data_1_split
I0403 13:02:50.712826 27224 net.cpp:425] label_data_1_split <- label
I0403 13:02:50.712858 27224 net.cpp:399] label_data_1_split -> label_data_1_split_0
I0403 13:02:50.712888 27224 net.cpp:399] label_data_1_split -> label_data_1_split_1
I0403 13:02:50.712909 27224 net.cpp:399] label_data_1_split -> label_data_1_split_2
I0403 13:02:50.712975 27224 net.cpp:141] Setting up label_data_1_split
I0403 13:02:50.712998 27224 net.cpp:148] Top shape: 100 (100)
I0403 13:02:50.713017 27224 net.cpp:148] Top shape: 100 (100)
I0403 13:02:50.713034 27224 net.cpp:148] Top shape: 100 (100)
I0403 13:02:50.713049 27224 net.cpp:156] Memory required for data: 61836400
I0403 13:02:50.713066 27224 layer_factory.hpp:77] Creating layer conv1
I0403 13:02:50.713100 27224 net.cpp:91] Creating Layer conv1
I0403 13:02:50.713119 27224 net.cpp:425] conv1 <- data
I0403 13:02:50.713140 27224 net.cpp:399] conv1 -> conv1
I0403 13:02:50.869858 27224 net.cpp:141] Setting up conv1
I0403 13:02:50.869916 27224 net.cpp:148] Top shape: 100 96 55 55 (29040000)
I0403 13:02:50.869935 27224 net.cpp:156] Memory required for data: 177996400
I0403 13:02:50.869967 27224 layer_factory.hpp:77] Creating layer relu1
I0403 13:02:50.869995 27224 net.cpp:91] Creating Layer relu1
I0403 13:02:50.870013 27224 net.cpp:425] relu1 <- conv1
I0403 13:02:50.870033 27224 net.cpp:386] relu1 -> conv1 (in-place)
I0403 13:02:50.870298 27224 net.cpp:141] Setting up relu1
I0403 13:02:50.870326 27224 net.cpp:148] Top shape: 100 96 55 55 (29040000)
I0403 13:02:50.870342 27224 net.cpp:156] Memory required for data: 294156400
I0403 13:02:50.870391 27224 layer_factory.hpp:77] Creating layer norm1
I0403 13:02:50.870420 27224 net.cpp:91] Creating Layer norm1
I0403 13:02:50.870440 27224 net.cpp:425] norm1 <- conv1
I0403 13:02:50.870458 27224 net.cpp:399] norm1 -> norm1
I0403 13:02:50.870805 27224 net.cpp:141] Setting up norm1
I0403 13:02:50.870834 27224 net.cpp:148] Top shape: 100 96 55 55 (29040000)
I0403 13:02:50.870852 27224 net.cpp:156] Memory required for data: 410316400
I0403 13:02:50.870867 27224 layer_factory.hpp:77] Creating layer pool1
I0403 13:02:50.870893 27224 net.cpp:91] Creating Layer pool1
I0403 13:02:50.870910 27224 net.cpp:425] pool1 <- norm1
I0403 13:02:50.870929 27224 net.cpp:399] pool1 -> pool1
I0403 13:02:50.870995 27224 net.cpp:141] Setting up pool1
I0403 13:02:50.871021 27224 net.cpp:148] Top shape: 100 96 27 27 (6998400)
I0403 13:02:50.871037 27224 net.cpp:156] Memory required for data: 438310000
I0403 13:02:50.871052 27224 layer_factory.hpp:77] Creating layer conv2
I0403 13:02:50.871076 27224 net.cpp:91] Creating Layer conv2
I0403 13:02:50.871093 27224 net.cpp:425] conv2 <- pool1
I0403 13:02:50.871112 27224 net.cpp:399] conv2 -> conv2
I0403 13:02:50.886557 27224 net.cpp:141] Setting up conv2
I0403 13:02:50.886610 27224 net.cpp:148] Top shape: 100 256 27 27 (18662400)
I0403 13:02:50.886629 27224 net.cpp:156] Memory required for data: 512959600
I0403 13:02:50.886654 27224 layer_factory.hpp:77] Creating layer relu2
I0403 13:02:50.886675 27224 net.cpp:91] Creating Layer relu2
I0403 13:02:50.886693 27224 net.cpp:425] relu2 <- conv2
I0403 13:02:50.886714 27224 net.cpp:386] relu2 -> conv2 (in-place)
I0403 13:02:50.887004 27224 net.cpp:141] Setting up relu2
I0403 13:02:50.887033 27224 net.cpp:148] Top shape: 100 256 27 27 (18662400)
I0403 13:02:50.887050 27224 net.cpp:156] Memory required for data: 587609200
I0403 13:02:50.887068 27224 layer_factory.hpp:77] Creating layer norm2
I0403 13:02:50.887092 27224 net.cpp:91] Creating Layer norm2
I0403 13:02:50.887110 27224 net.cpp:425] norm2 <- conv2
I0403 13:02:50.887133 27224 net.cpp:399] norm2 -> norm2
I0403 13:02:50.887346 27224 net.cpp:141] Setting up norm2
I0403 13:02:50.887375 27224 net.cpp:148] Top shape: 100 256 27 27 (18662400)
I0403 13:02:50.887392 27224 net.cpp:156] Memory required for data: 662258800
I0403 13:02:50.887409 27224 layer_factory.hpp:77] Creating layer pool2
I0403 13:02:50.887428 27224 net.cpp:91] Creating Layer pool2
I0403 13:02:50.887444 27224 net.cpp:425] pool2 <- norm2
I0403 13:02:50.887465 27224 net.cpp:399] pool2 -> pool2
I0403 13:02:50.887521 27224 net.cpp:141] Setting up pool2
I0403 13:02:50.887547 27224 net.cpp:148] Top shape: 100 256 13 13 (4326400)
I0403 13:02:50.887563 27224 net.cpp:156] Memory required for data: 679564400
I0403 13:02:50.887579 27224 layer_factory.hpp:77] Creating layer conv3
I0403 13:02:50.887608 27224 net.cpp:91] Creating Layer conv3
I0403 13:02:50.887626 27224 net.cpp:425] conv3 <- pool2
I0403 13:02:50.887646 27224 net.cpp:399] conv3 -> conv3
I0403 13:02:50.927150 27224 net.cpp:141] Setting up conv3
I0403 13:02:50.927206 27224 net.cpp:148] Top shape: 100 384 13 13 (6489600)
I0403 13:02:50.927223 27224 net.cpp:156] Memory required for data: 705522800
I0403 13:02:50.927249 27224 layer_factory.hpp:77] Creating layer relu3
I0403 13:02:50.927284 27224 net.cpp:91] Creating Layer relu3
I0403 13:02:50.927304 27224 net.cpp:425] relu3 <- conv3
I0403 13:02:50.927325 27224 net.cpp:386] relu3 -> conv3 (in-place)
I0403 13:02:50.927620 27224 net.cpp:141] Setting up relu3
I0403 13:02:50.927649 27224 net.cpp:148] Top shape: 100 384 13 13 (6489600)
I0403 13:02:50.927664 27224 net.cpp:156] Memory required for data: 731481200
I0403 13:02:50.927680 27224 layer_factory.hpp:77] Creating layer conv4
I0403 13:02:50.927706 27224 net.cpp:91] Creating Layer conv4
I0403 13:02:50.927736 27224 net.cpp:425] conv4 <- conv3
I0403 13:02:50.927759 27224 net.cpp:399] conv4 -> conv4
I0403 13:02:50.957587 27224 net.cpp:141] Setting up conv4
I0403 13:02:50.957649 27224 net.cpp:148] Top shape: 100 384 13 13 (6489600)
I0403 13:02:50.957698 27224 net.cpp:156] Memory required for data: 757439600
I0403 13:02:50.957721 27224 layer_factory.hpp:77] Creating layer relu4
I0403 13:02:50.957743 27224 net.cpp:91] Creating Layer relu4
I0403 13:02:50.957761 27224 net.cpp:425] relu4 <- conv4
I0403 13:02:50.957782 27224 net.cpp:386] relu4 -> conv4 (in-place)
I0403 13:02:50.958075 27224 net.cpp:141] Setting up relu4
I0403 13:02:50.958107 27224 net.cpp:148] Top shape: 100 384 13 13 (6489600)
I0403 13:02:50.958125 27224 net.cpp:156] Memory required for data: 783398000
I0403 13:02:50.958142 27224 layer_factory.hpp:77] Creating layer conv5
I0403 13:02:50.958168 27224 net.cpp:91] Creating Layer conv5
I0403 13:02:50.958186 27224 net.cpp:425] conv5 <- conv4
I0403 13:02:50.958207 27224 net.cpp:399] conv5 -> conv5
I0403 13:02:50.979013 27224 net.cpp:141] Setting up conv5
I0403 13:02:50.979063 27224 net.cpp:148] Top shape: 100 256 13 13 (4326400)
I0403 13:02:50.979080 27224 net.cpp:156] Memory required for data: 800703600
I0403 13:02:50.979107 27224 layer_factory.hpp:77] Creating layer relu5
I0403 13:02:50.979127 27224 net.cpp:91] Creating Layer relu5
I0403 13:02:50.979143 27224 net.cpp:425] relu5 <- conv5
I0403 13:02:50.979166 27224 net.cpp:386] relu5 -> conv5 (in-place)
I0403 13:02:50.979451 27224 net.cpp:141] Setting up relu5
I0403 13:02:50.979480 27224 net.cpp:148] Top shape: 100 256 13 13 (4326400)
I0403 13:02:50.979495 27224 net.cpp:156] Memory required for data: 818009200
I0403 13:02:50.979511 27224 layer_factory.hpp:77] Creating layer pool5
I0403 13:02:50.979537 27224 net.cpp:91] Creating Layer pool5
I0403 13:02:50.979554 27224 net.cpp:425] pool5 <- conv5
I0403 13:02:50.979573 27224 net.cpp:399] pool5 -> pool5
I0403 13:02:50.979635 27224 net.cpp:141] Setting up pool5
I0403 13:02:50.979658 27224 net.cpp:148] Top shape: 100 256 6 6 (921600)
I0403 13:02:50.979674 27224 net.cpp:156] Memory required for data: 821695600
I0403 13:02:50.979688 27224 layer_factory.hpp:77] Creating layer fc6
I0403 13:02:50.979718 27224 net.cpp:91] Creating Layer fc6
I0403 13:02:50.979738 27224 net.cpp:425] fc6 <- pool5
I0403 13:02:50.979758 27224 net.cpp:399] fc6 -> fc6
I0403 13:02:52.543666 27224 net.cpp:141] Setting up fc6
I0403 13:02:52.543709 27224 net.cpp:148] Top shape: 100 4096 (409600)
I0403 13:02:52.543725 27224 net.cpp:156] Memory required for data: 823334000
I0403 13:02:52.543748 27224 layer_factory.hpp:77] Creating layer relu6
I0403 13:02:52.543771 27224 net.cpp:91] Creating Layer relu6
I0403 13:02:52.543787 27224 net.cpp:425] relu6 <- fc6
I0403 13:02:52.543810 27224 net.cpp:386] relu6 -> fc6 (in-place)
I0403 13:02:52.544037 27224 net.cpp:141] Setting up relu6
I0403 13:02:52.544064 27224 net.cpp:148] Top shape: 100 4096 (409600)
I0403 13:02:52.544080 27224 net.cpp:156] Memory required for data: 824972400
I0403 13:02:52.544095 27224 layer_factory.hpp:77] Creating layer drop6
I0403 13:02:52.544114 27224 net.cpp:91] Creating Layer drop6
I0403 13:02:52.544129 27224 net.cpp:425] drop6 <- fc6
I0403 13:02:52.544149 27224 net.cpp:386] drop6 -> fc6 (in-place)
I0403 13:02:52.544200 27224 net.cpp:141] Setting up drop6
I0403 13:02:52.544226 27224 net.cpp:148] Top shape: 100 4096 (409600)
I0403 13:02:52.544244 27224 net.cpp:156] Memory required for data: 826610800
I0403 13:02:52.544267 27224 layer_factory.hpp:77] Creating layer fc7
I0403 13:02:52.544299 27224 net.cpp:91] Creating Layer fc7
I0403 13:02:52.544314 27224 net.cpp:425] fc7 <- fc6
I0403 13:02:52.544334 27224 net.cpp:399] fc7 -> fc7
I0403 13:02:53.256019 27224 net.cpp:141] Setting up fc7
I0403 13:02:53.256099 27224 net.cpp:148] Top shape: 100 4096 (409600)
I0403 13:02:53.256117 27224 net.cpp:156] Memory required for data: 828249200
I0403 13:02:53.256141 27224 layer_factory.hpp:77] Creating layer relu7
I0403 13:02:53.256165 27224 net.cpp:91] Creating Layer relu7
I0403 13:02:53.256181 27224 net.cpp:425] relu7 <- fc7
I0403 13:02:53.256204 27224 net.cpp:386] relu7 -> fc7 (in-place)
I0403 13:02:53.256621 27224 net.cpp:141] Setting up relu7
I0403 13:02:53.256649 27224 net.cpp:148] Top shape: 100 4096 (409600)
I0403 13:02:53.256700 27224 net.cpp:156] Memory required for data: 829887600
I0403 13:02:53.256716 27224 layer_factory.hpp:77] Creating layer drop7
I0403 13:02:53.256736 27224 net.cpp:91] Creating Layer drop7
I0403 13:02:53.256750 27224 net.cpp:425] drop7 <- fc7
I0403 13:02:53.256770 27224 net.cpp:386] drop7 -> fc7 (in-place)
I0403 13:02:53.256814 27224 net.cpp:141] Setting up drop7
I0403 13:02:53.256840 27224 net.cpp:148] Top shape: 100 4096 (409600)
I0403 13:02:53.256856 27224 net.cpp:156] Memory required for data: 831526000
I0403 13:02:53.256871 27224 layer_factory.hpp:77] Creating layer fc8_plantvillage
I0403 13:02:53.256891 27224 net.cpp:91] Creating Layer fc8_plantvillage
I0403 13:02:53.256907 27224 net.cpp:425] fc8_plantvillage <- fc7
I0403 13:02:53.256927 27224 net.cpp:399] fc8_plantvillage -> fc8_plantvillage
I0403 13:02:53.263734 27224 net.cpp:141] Setting up fc8_plantvillage
I0403 13:02:53.263763 27224 net.cpp:148] Top shape: 100 38 (3800)
I0403 13:02:53.263779 27224 net.cpp:156] Memory required for data: 831541200
I0403 13:02:53.263799 27224 layer_factory.hpp:77] Creating layer fc8_plantvillage_fc8_plantvillage_0_split
I0403 13:02:53.263819 27224 net.cpp:91] Creating Layer fc8_plantvillage_fc8_plantvillage_0_split
I0403 13:02:53.263835 27224 net.cpp:425] fc8_plantvillage_fc8_plantvillage_0_split <- fc8_plantvillage
I0403 13:02:53.263855 27224 net.cpp:399] fc8_plantvillage_fc8_plantvillage_0_split -> fc8_plantvillage_fc8_plantvillage_0_split_0
I0403 13:02:53.263877 27224 net.cpp:399] fc8_plantvillage_fc8_plantvillage_0_split -> fc8_plantvillage_fc8_plantvillage_0_split_1
I0403 13:02:53.263898 27224 net.cpp:399] fc8_plantvillage_fc8_plantvillage_0_split -> fc8_plantvillage_fc8_plantvillage_0_split_2
I0403 13:02:53.263975 27224 net.cpp:141] Setting up fc8_plantvillage_fc8_plantvillage_0_split
I0403 13:02:53.264000 27224 net.cpp:148] Top shape: 100 38 (3800)
I0403 13:02:53.264017 27224 net.cpp:148] Top shape: 100 38 (3800)
I0403 13:02:53.264034 27224 net.cpp:148] Top shape: 100 38 (3800)
I0403 13:02:53.264047 27224 net.cpp:156] Memory required for data: 831586800
I0403 13:02:53.264062 27224 layer_factory.hpp:77] Creating layer prob
I0403 13:02:53.264081 27224 net.cpp:91] Creating Layer prob
I0403 13:02:53.264096 27224 net.cpp:425] prob <- fc8_plantvillage_fc8_plantvillage_0_split_0
I0403 13:02:53.264117 27224 net.cpp:399] prob -> prob
I0403 13:02:53.264353 27224 net.cpp:141] Setting up prob
I0403 13:02:53.264379 27224 net.cpp:148] Top shape: 100 38 (3800)
I0403 13:02:53.264394 27224 net.cpp:156] Memory required for data: 831602000
I0403 13:02:53.264410 27224 layer_factory.hpp:77] Creating layer hdf5out
I0403 13:02:53.264430 27224 net.cpp:91] Creating Layer hdf5out
I0403 13:02:53.264446 27224 net.cpp:425] hdf5out <- prob
I0403 13:02:53.264466 27224 net.cpp:425] hdf5out <- label_data_1_split_0
I0403 13:02:53.267953 27224 net.cpp:141] Setting up hdf5out
…
