…
I0403 12:34:38.329356 26439 net.cpp:313] The NetState phase (1) differed from the phase (0) specified by a rule in layer data
I0403 12:34:38.329658 26439 net.cpp:49] Initializing net from parameters: 
state {
  phase: TEST
}
layer {
  name: "data"
  type: "Data"
  top: "data"
  top: "label"
  include {
    phase: TEST
  }
  transform_param {
    crop_size: 227
    mean_file: "/home/mohanty/data/final_dataset/lmdb/color-20-80/mean.binaryproto"
  }
  data_param {
    source: "/home/mohanty/data/final_dataset/lmdb/color-20-80/test_db"
    batch_size: 100
    backend: LMDB
  }
}
layer {
  name: "conv1"
  type: "Convolution"
  bottom: "data"
  top: "conv1"
  param {
    lr_mult: 1
    decay_mult: 1
  }
  param {
    lr_mult: 2
    decay_mult: 0
  }
  convolution_param {
    num_output: 96
    kernel_size: 11
    stride: 4
    weight_filler {
      type: "gaussian"
      std: 0.01
    }
    bias_filler {
      type: "constant"
      value: 0
    }
  }
}
layer {
  name: "relu1"
  type: "ReLU"
  bottom: "conv1"
  top: "conv1"
}
layer {
  name: "norm1"
  type: "LRN"
  bottom: "conv1"
  top: "norm1"
  lrn_param {
    local_size: 5
    alpha: 0.0001
    beta: 0.75
  }
}
layer {
  name: "pool1"
  type: "Pooling"
  bottom: "norm1"
  top: "pool1"
  pooling_param {
    pool: MAX
    kernel_size: 3
    stride: 2
  }
}
layer {
  name: "conv2"
  type: "Convolution"
  bottom: "pool1"
  top: "conv2"
  param {
    lr_mult: 1
    decay_mult: 1
  }
  param {
    lr_mult: 2
    decay_mult: 0
  }
  convolution_param {
    num_output: 256
    pad: 2
    kernel_size: 5
    group: 2
    weight_filler {
      type: "gaussian"
      std: 0.01
    }
    bias_filler {
      type: "constant"
      value: 0.1
    }
  }
}
layer {
  name: "relu2"
  type: "ReLU"
  bottom: "conv2"
  top: "conv2"
}
layer {
  name: "norm2"
  type: "LRN"
  bottom: "conv2"
  top: "norm2"
  lrn_param {
    local_size: 5
    alpha: 0.0001
    beta: 0.75
  }
}
layer {
  name: "pool2"
  type: "Pooling"
  bottom: "norm2"
  top: "pool2"
  pooling_param {
    pool: MAX
    kernel_size: 3
    stride: 2
  }
}
layer {
  name: "conv3"
  type: "Convolution"
  bottom: "pool2"
  top: "conv3"
  param {
    lr_mult: 1
    decay_mult: 1
  }
  param {
    lr_mult: 2
    decay_mult: 0
  }
  convolution_param {
    num_output: 384
    pad: 1
    kernel_size: 3
    weight_filler {
      type: "gaussian"
      std: 0.01
    }
    bias_filler {
      type: "constant"
      value: 0
    }
  }
}
layer {
  name: "relu3"
  type: "ReLU"
  bottom: "conv3"
  top: "conv3"
}
layer {
  name: "conv4"
  type: "Convolution"
  bottom: "conv3"
  top: "conv4"
  param {
    lr_mult: 1
    decay_mult: 1
  }
  param {
    lr_mult: 2
    decay_mult: 0
  }
  convolution_param {
    num_output: 384
    pad: 1
    kernel_size: 3
    group: 2
    weight_filler {
      type: "gaussian"
      std: 0.01
    }
    bias_filler {
      type: "constant"
      value: 0.1
    }
  }
}
layer {
  name: "relu4"
  type: "ReLU"
  bottom: "conv4"
  top: "conv4"
}
layer {
  name: "conv5"
  type: "Convolution"
  bottom: "conv4"
  top: "conv5"
  param {
    lr_mult: 1
    decay_mult: 1
  }
  param {
    lr_mult: 2
    decay_mult: 0
  }
  convolution_param {
    num_output: 256
    pad: 1
    kernel_size: 3
    group: 2
    weight_filler {
      type: "gaussian"
      std: 0.01
    }
    bias_filler {
      type: "constant"
      value: 0.1
    }
  }
}
layer {
  name: "relu5"
  type: "ReLU"
  bottom: "conv5"
  top: "conv5"
}
layer {
  name: "pool5"
  type: "Pooling"
  bottom: "conv5"
  top: "pool5"
  pooling_param {
    pool: MAX
    kernel_size: 3
    stride: 2
  }
}
layer {
  name: "fc6"
  type: "InnerProduct"
  bottom: "pool5"
  top: "fc6"
  param {
    lr_mult: 1
    decay_mult: 1
  }
  param {
    lr_mult: 2
    decay_mult: 0
  }
  inner_product_param {
    num_output: 4096
    weight_filler {
      type: "gaussian"
      std: 0.005
    }
    bias_filler {
      type: "constant"
      value: 0.1
    }
  }
}
layer {
  name: "relu6"
  type: "ReLU"
  bottom: "fc6"
  top: "fc6"
}
layer {
  name: "drop6"
  type: "Dropout"
  bottom: "fc6"
  top: "fc6"
  dropout_param {
    dropout_ratio: 0.5
  }
}
layer {
  name: "fc7"
  type: "InnerProduct"
  bottom: "fc6"
  top: "fc7"
  param {
    lr_mult: 1
    decay_mult: 1
  }
  param {
    lr_mult: 2
    decay_mult: 0
  }
  inner_product_param {
    num_output: 4096
    weight_filler {
      type: "gaussian"
      std: 0.005
    }
    bias_filler {
      type: "constant"
      value: 0.1
    }
  }
}
layer {
  name: "relu7"
  type: "ReLU"
  bottom: "fc7"
  top: "fc7"
}
layer {
  name: "drop7"
  type: "Dropout"
  bottom: "fc7"
  top: "fc7"
  dropout_param {
    dropout_ratio: 0.5
  }
}
layer {
  name: "fc8_plantvillage"
  type: "InnerProduct"
  bottom: "fc7"
  top: "fc8_plantvillage"
  param {
    lr_mult: 1
    decay_mult: 1
  }
  param {
    lr_mult: 2
    decay_mult: 0
  }
  inner_product_param {
    num_output: 38
    weight_filler {
      type: "gaussian"
      std: 0.01
    }
    bias_filler {
      type: "constant"
      value: 0
    }
  }
}
layer {
  name: "prob"
  type: "Softmax"
  bottom: "fc8_plantvillage"
  top: "prob"
  include {
    phase: TEST
  }
}
layer {
  name: "hdf5out"
  type: "HDF5Output"
  bottom: "prob"
  bottom: "label"
  include {
    phase: TEST
  }
  hdf5_output_param {
    file_name: "hdf5_dumps/iter_1296.h5"
  }
}
layer {
  name: "loss"
  type: "SoftmaxWithLoss"
  bottom: "fc8_plantvillage"
  bottom: "label"
  top: "loss"
}
layer {
  name: "accuracy"
  type: "Accuracy"
  bottom: "fc8_plantvillage"
  bottom: "label"
  top: "accuracy"
  include {
    phase: TEST
  }
}
I0403 12:34:38.330215 26439 layer_factory.hpp:77] Creating layer data
I0403 12:34:38.330849 26439 net.cpp:91] Creating Layer data
I0403 12:34:38.330883 26439 net.cpp:399] data -> data
I0403 12:34:38.330947 26439 net.cpp:399] data -> label
I0403 12:34:38.330987 26439 data_transformer.cpp:25] Loading mean file from: /home/mohanty/data/final_dataset/lmdb/color-20-80/mean.binaryproto
I0403 12:34:38.334230 26443 db_lmdb.cpp:38] Opened lmdb /home/mohanty/data/final_dataset/lmdb/color-20-80/test_db
I0403 12:34:38.345458 26439 data_layer.cpp:41] output data size: 100,3,227,227
I0403 12:34:38.479683 26439 net.cpp:141] Setting up data
I0403 12:34:38.479778 26439 net.cpp:148] Top shape: 100 3 227 227 (15458700)
I0403 12:34:38.479802 26439 net.cpp:148] Top shape: 100 (100)
I0403 12:34:38.479818 26439 net.cpp:156] Memory required for data: 61835200
I0403 12:34:38.479848 26439 layer_factory.hpp:77] Creating layer label_data_1_split
I0403 12:34:38.479876 26439 net.cpp:91] Creating Layer label_data_1_split
I0403 12:34:38.479897 26439 net.cpp:425] label_data_1_split <- label
I0403 12:34:38.479928 26439 net.cpp:399] label_data_1_split -> label_data_1_split_0
I0403 12:34:38.479957 26439 net.cpp:399] label_data_1_split -> label_data_1_split_1
I0403 12:34:38.479979 26439 net.cpp:399] label_data_1_split -> label_data_1_split_2
I0403 12:34:38.480046 26439 net.cpp:141] Setting up label_data_1_split
I0403 12:34:38.480072 26439 net.cpp:148] Top shape: 100 (100)
I0403 12:34:38.480090 26439 net.cpp:148] Top shape: 100 (100)
I0403 12:34:38.480108 26439 net.cpp:148] Top shape: 100 (100)
I0403 12:34:38.480124 26439 net.cpp:156] Memory required for data: 61836400
I0403 12:34:38.480139 26439 layer_factory.hpp:77] Creating layer conv1
I0403 12:34:38.480173 26439 net.cpp:91] Creating Layer conv1
I0403 12:34:38.480193 26439 net.cpp:425] conv1 <- data
I0403 12:34:38.480214 26439 net.cpp:399] conv1 -> conv1
I0403 12:34:38.630563 26439 net.cpp:141] Setting up conv1
I0403 12:34:38.630642 26439 net.cpp:148] Top shape: 100 96 55 55 (29040000)
I0403 12:34:38.630661 26439 net.cpp:156] Memory required for data: 177996400
I0403 12:34:38.630694 26439 layer_factory.hpp:77] Creating layer relu1
I0403 12:34:38.630724 26439 net.cpp:91] Creating Layer relu1
I0403 12:34:38.630743 26439 net.cpp:425] relu1 <- conv1
I0403 12:34:38.630765 26439 net.cpp:386] relu1 -> conv1 (in-place)
I0403 12:34:38.631022 26439 net.cpp:141] Setting up relu1
I0403 12:34:38.631052 26439 net.cpp:148] Top shape: 100 96 55 55 (29040000)
I0403 12:34:38.631068 26439 net.cpp:156] Memory required for data: 294156400
I0403 12:34:38.631119 26439 layer_factory.hpp:77] Creating layer norm1
I0403 12:34:38.631147 26439 net.cpp:91] Creating Layer norm1
I0403 12:34:38.631166 26439 net.cpp:425] norm1 <- conv1
I0403 12:34:38.631186 26439 net.cpp:399] norm1 -> norm1
I0403 12:34:38.631500 26439 net.cpp:141] Setting up norm1
I0403 12:34:38.631572 26439 net.cpp:148] Top shape: 100 96 55 55 (29040000)
I0403 12:34:38.631593 26439 net.cpp:156] Memory required for data: 410316400
I0403 12:34:38.631610 26439 layer_factory.hpp:77] Creating layer pool1
I0403 12:34:38.631635 26439 net.cpp:91] Creating Layer pool1
I0403 12:34:38.631654 26439 net.cpp:425] pool1 <- norm1
I0403 12:34:38.631672 26439 net.cpp:399] pool1 -> pool1
I0403 12:34:38.631742 26439 net.cpp:141] Setting up pool1
I0403 12:34:38.631768 26439 net.cpp:148] Top shape: 100 96 27 27 (6998400)
I0403 12:34:38.631784 26439 net.cpp:156] Memory required for data: 438310000
I0403 12:34:38.631800 26439 layer_factory.hpp:77] Creating layer conv2
I0403 12:34:38.631825 26439 net.cpp:91] Creating Layer conv2
I0403 12:34:38.631842 26439 net.cpp:425] conv2 <- pool1
I0403 12:34:38.631861 26439 net.cpp:399] conv2 -> conv2
I0403 12:34:38.647202 26439 net.cpp:141] Setting up conv2
I0403 12:34:38.647258 26439 net.cpp:148] Top shape: 100 256 27 27 (18662400)
I0403 12:34:38.647277 26439 net.cpp:156] Memory required for data: 512959600
I0403 12:34:38.647302 26439 layer_factory.hpp:77] Creating layer relu2
I0403 12:34:38.647323 26439 net.cpp:91] Creating Layer relu2
I0403 12:34:38.647341 26439 net.cpp:425] relu2 <- conv2
I0403 12:34:38.647361 26439 net.cpp:386] relu2 -> conv2 (in-place)
I0403 12:34:38.647629 26439 net.cpp:141] Setting up relu2
I0403 12:34:38.647658 26439 net.cpp:148] Top shape: 100 256 27 27 (18662400)
I0403 12:34:38.647675 26439 net.cpp:156] Memory required for data: 587609200
I0403 12:34:38.647691 26439 layer_factory.hpp:77] Creating layer norm2
I0403 12:34:38.647714 26439 net.cpp:91] Creating Layer norm2
I0403 12:34:38.647732 26439 net.cpp:425] norm2 <- conv2
I0403 12:34:38.647752 26439 net.cpp:399] norm2 -> norm2
I0403 12:34:38.647943 26439 net.cpp:141] Setting up norm2
I0403 12:34:38.647970 26439 net.cpp:148] Top shape: 100 256 27 27 (18662400)
I0403 12:34:38.647987 26439 net.cpp:156] Memory required for data: 662258800
I0403 12:34:38.648005 26439 layer_factory.hpp:77] Creating layer pool2
I0403 12:34:38.648023 26439 net.cpp:91] Creating Layer pool2
I0403 12:34:38.648039 26439 net.cpp:425] pool2 <- norm2
I0403 12:34:38.648057 26439 net.cpp:399] pool2 -> pool2
I0403 12:34:38.648111 26439 net.cpp:141] Setting up pool2
I0403 12:34:38.648136 26439 net.cpp:148] Top shape: 100 256 13 13 (4326400)
I0403 12:34:38.648154 26439 net.cpp:156] Memory required for data: 679564400
I0403 12:34:38.648169 26439 layer_factory.hpp:77] Creating layer conv3
I0403 12:34:38.648193 26439 net.cpp:91] Creating Layer conv3
I0403 12:34:38.648211 26439 net.cpp:425] conv3 <- pool2
I0403 12:34:38.648231 26439 net.cpp:399] conv3 -> conv3
I0403 12:34:38.694386 26439 net.cpp:141] Setting up conv3
I0403 12:34:38.694433 26439 net.cpp:148] Top shape: 100 384 13 13 (6489600)
I0403 12:34:38.694450 26439 net.cpp:156] Memory required for data: 705522800
I0403 12:34:38.694478 26439 layer_factory.hpp:77] Creating layer relu3
I0403 12:34:38.694504 26439 net.cpp:91] Creating Layer relu3
I0403 12:34:38.694524 26439 net.cpp:425] relu3 <- conv3
I0403 12:34:38.694543 26439 net.cpp:386] relu3 -> conv3 (in-place)
I0403 12:34:38.694819 26439 net.cpp:141] Setting up relu3
I0403 12:34:38.694847 26439 net.cpp:148] Top shape: 100 384 13 13 (6489600)
I0403 12:34:38.694862 26439 net.cpp:156] Memory required for data: 731481200
I0403 12:34:38.694878 26439 layer_factory.hpp:77] Creating layer conv4
I0403 12:34:38.694905 26439 net.cpp:91] Creating Layer conv4
I0403 12:34:38.694922 26439 net.cpp:425] conv4 <- conv3
I0403 12:34:38.694944 26439 net.cpp:399] conv4 -> conv4
I0403 12:34:38.724810 26439 net.cpp:141] Setting up conv4
I0403 12:34:38.724882 26439 net.cpp:148] Top shape: 100 384 13 13 (6489600)
I0403 12:34:38.724931 26439 net.cpp:156] Memory required for data: 757439600
I0403 12:34:38.724956 26439 layer_factory.hpp:77] Creating layer relu4
I0403 12:34:38.724978 26439 net.cpp:91] Creating Layer relu4
I0403 12:34:38.724997 26439 net.cpp:425] relu4 <- conv4
I0403 12:34:38.725019 26439 net.cpp:386] relu4 -> conv4 (in-place)
I0403 12:34:38.725327 26439 net.cpp:141] Setting up relu4
I0403 12:34:38.725354 26439 net.cpp:148] Top shape: 100 384 13 13 (6489600)
I0403 12:34:38.725370 26439 net.cpp:156] Memory required for data: 783398000
I0403 12:34:38.725388 26439 layer_factory.hpp:77] Creating layer conv5
I0403 12:34:38.725414 26439 net.cpp:91] Creating Layer conv5
I0403 12:34:38.725432 26439 net.cpp:425] conv5 <- conv4
I0403 12:34:38.725456 26439 net.cpp:399] conv5 -> conv5
I0403 12:34:38.745996 26439 net.cpp:141] Setting up conv5
I0403 12:34:38.746047 26439 net.cpp:148] Top shape: 100 256 13 13 (4326400)
I0403 12:34:38.746063 26439 net.cpp:156] Memory required for data: 800703600
I0403 12:34:38.746089 26439 layer_factory.hpp:77] Creating layer relu5
I0403 12:34:38.746111 26439 net.cpp:91] Creating Layer relu5
I0403 12:34:38.746129 26439 net.cpp:425] relu5 <- conv5
I0403 12:34:38.746150 26439 net.cpp:386] relu5 -> conv5 (in-place)
I0403 12:34:38.746448 26439 net.cpp:141] Setting up relu5
I0403 12:34:38.746477 26439 net.cpp:148] Top shape: 100 256 13 13 (4326400)
I0403 12:34:38.746495 26439 net.cpp:156] Memory required for data: 818009200
I0403 12:34:38.746512 26439 layer_factory.hpp:77] Creating layer pool5
I0403 12:34:38.746541 26439 net.cpp:91] Creating Layer pool5
I0403 12:34:38.746561 26439 net.cpp:425] pool5 <- conv5
I0403 12:34:38.746578 26439 net.cpp:399] pool5 -> pool5
I0403 12:34:38.746641 26439 net.cpp:141] Setting up pool5
I0403 12:34:38.746665 26439 net.cpp:148] Top shape: 100 256 6 6 (921600)
I0403 12:34:38.746681 26439 net.cpp:156] Memory required for data: 821695600
I0403 12:34:38.746696 26439 layer_factory.hpp:77] Creating layer fc6
I0403 12:34:38.746726 26439 net.cpp:91] Creating Layer fc6
I0403 12:34:38.746745 26439 net.cpp:425] fc6 <- pool5
I0403 12:34:38.746764 26439 net.cpp:399] fc6 -> fc6
I0403 12:34:40.303488 26439 net.cpp:141] Setting up fc6
I0403 12:34:40.303566 26439 net.cpp:148] Top shape: 100 4096 (409600)
I0403 12:34:40.303583 26439 net.cpp:156] Memory required for data: 823334000
I0403 12:34:40.303606 26439 layer_factory.hpp:77] Creating layer relu6
I0403 12:34:40.303637 26439 net.cpp:91] Creating Layer relu6
I0403 12:34:40.303654 26439 net.cpp:425] relu6 <- fc6
I0403 12:34:40.303678 26439 net.cpp:386] relu6 -> fc6 (in-place)
I0403 12:34:40.303900 26439 net.cpp:141] Setting up relu6
I0403 12:34:40.303926 26439 net.cpp:148] Top shape: 100 4096 (409600)
I0403 12:34:40.303941 26439 net.cpp:156] Memory required for data: 824972400
I0403 12:34:40.303957 26439 layer_factory.hpp:77] Creating layer drop6
I0403 12:34:40.303977 26439 net.cpp:91] Creating Layer drop6
I0403 12:34:40.303992 26439 net.cpp:425] drop6 <- fc6
I0403 12:34:40.304011 26439 net.cpp:386] drop6 -> fc6 (in-place)
I0403 12:34:40.304067 26439 net.cpp:141] Setting up drop6
I0403 12:34:40.304091 26439 net.cpp:148] Top shape: 100 4096 (409600)
I0403 12:34:40.304107 26439 net.cpp:156] Memory required for data: 826610800
I0403 12:34:40.304122 26439 layer_factory.hpp:77] Creating layer fc7
I0403 12:34:40.304143 26439 net.cpp:91] Creating Layer fc7
I0403 12:34:40.304158 26439 net.cpp:425] fc7 <- fc6
I0403 12:34:40.304178 26439 net.cpp:399] fc7 -> fc7
I0403 12:34:40.999852 26439 net.cpp:141] Setting up fc7
I0403 12:34:40.999933 26439 net.cpp:148] Top shape: 100 4096 (409600)
I0403 12:34:40.999950 26439 net.cpp:156] Memory required for data: 828249200
I0403 12:34:40.999974 26439 layer_factory.hpp:77] Creating layer relu7
I0403 12:34:41.000001 26439 net.cpp:91] Creating Layer relu7
I0403 12:34:41.000031 26439 net.cpp:425] relu7 <- fc7
I0403 12:34:41.000066 26439 net.cpp:386] relu7 -> fc7 (in-place)
I0403 12:34:41.000483 26439 net.cpp:141] Setting up relu7
I0403 12:34:41.000514 26439 net.cpp:148] Top shape: 100 4096 (409600)
I0403 12:34:41.000567 26439 net.cpp:156] Memory required for data: 829887600
I0403 12:34:41.000586 26439 layer_factory.hpp:77] Creating layer drop7
I0403 12:34:41.000612 26439 net.cpp:91] Creating Layer drop7
I0403 12:34:41.000635 26439 net.cpp:425] drop7 <- fc7
I0403 12:34:41.000655 26439 net.cpp:386] drop7 -> fc7 (in-place)
I0403 12:34:41.000701 26439 net.cpp:141] Setting up drop7
I0403 12:34:41.000730 26439 net.cpp:148] Top shape: 100 4096 (409600)
I0403 12:34:41.000746 26439 net.cpp:156] Memory required for data: 831526000
I0403 12:34:41.000761 26439 layer_factory.hpp:77] Creating layer fc8_plantvillage
I0403 12:34:41.000783 26439 net.cpp:91] Creating Layer fc8_plantvillage
I0403 12:34:41.000802 26439 net.cpp:425] fc8_plantvillage <- fc7
I0403 12:34:41.000825 26439 net.cpp:399] fc8_plantvillage -> fc8_plantvillage
I0403 12:34:41.008067 26439 net.cpp:141] Setting up fc8_plantvillage
I0403 12:34:41.008100 26439 net.cpp:148] Top shape: 100 38 (3800)
I0403 12:34:41.008117 26439 net.cpp:156] Memory required for data: 831541200
I0403 12:34:41.008137 26439 layer_factory.hpp:77] Creating layer fc8_plantvillage_fc8_plantvillage_0_split
I0403 12:34:41.008163 26439 net.cpp:91] Creating Layer fc8_plantvillage_fc8_plantvillage_0_split
I0403 12:34:41.008185 26439 net.cpp:425] fc8_plantvillage_fc8_plantvillage_0_split <- fc8_plantvillage
I0403 12:34:41.008204 26439 net.cpp:399] fc8_plantvillage_fc8_plantvillage_0_split -> fc8_plantvillage_fc8_plantvillage_0_split_0
I0403 12:34:41.008227 26439 net.cpp:399] fc8_plantvillage_fc8_plantvillage_0_split -> fc8_plantvillage_fc8_plantvillage_0_split_1
I0403 12:34:41.008249 26439 net.cpp:399] fc8_plantvillage_fc8_plantvillage_0_split -> fc8_plantvillage_fc8_plantvillage_0_split_2
I0403 12:34:41.008357 26439 net.cpp:141] Setting up fc8_plantvillage_fc8_plantvillage_0_split
I0403 12:34:41.008383 26439 net.cpp:148] Top shape: 100 38 (3800)
I0403 12:34:41.008401 26439 net.cpp:148] Top shape: 100 38 (3800)
I0403 12:34:41.008417 26439 net.cpp:148] Top shape: 100 38 (3800)
I0403 12:34:41.008433 26439 net.cpp:156] Memory required for data: 831586800
I0403 12:34:41.008448 26439 layer_factory.hpp:77] Creating layer prob
I0403 12:34:41.008471 26439 net.cpp:91] Creating Layer prob
I0403 12:34:41.008488 26439 net.cpp:425] prob <- fc8_plantvillage_fc8_plantvillage_0_split_0
I0403 12:34:41.008510 26439 net.cpp:399] prob -> prob
I0403 12:34:41.008756 26439 net.cpp:141] Setting up prob
I0403 12:34:41.008786 26439 net.cpp:148] Top shape: 100 38 (3800)
I0403 12:34:41.008802 26439 net.cpp:156] Memory required for data: 831602000
I0403 12:34:41.008818 26439 layer_factory.hpp:77] Creating layer hdf5out
I0403 12:34:41.008842 26439 net.cpp:91] Creating Layer hdf5out
I0403 12:34:41.008862 26439 net.cpp:425] hdf5out <- prob
I0403 12:34:41.008882 26439 net.cpp:425] hdf5out <- label_data_1_split_0
I0403 12:34:41.011790 26439 net.cpp:141] Setting up hdf5out
…
