…
I0403 12:31:40.575706 26374 net.cpp:313] The NetState phase (1) differed from the phase (0) specified by a rule in layer data
I0403 12:31:40.576011 26374 net.cpp:49] Initializing net from parameters: 
state {
  phase: TEST
}
layer {
  name: "data"
  type: "Data"
  top: "data"
  top: "label"
  include {
    phase: TEST
  }
  transform_param {
    crop_size: 227
    mean_file: "/home/mohanty/data/final_dataset/lmdb/color-20-80/mean.binaryproto"
  }
  data_param {
    source: "/home/mohanty/data/final_dataset/lmdb/color-20-80/test_db"
    batch_size: 100
    backend: LMDB
  }
}
layer {
  name: "conv1"
  type: "Convolution"
  bottom: "data"
  top: "conv1"
  param {
    lr_mult: 1
    decay_mult: 1
  }
  param {
    lr_mult: 2
    decay_mult: 0
  }
  convolution_param {
    num_output: 96
    kernel_size: 11
    stride: 4
    weight_filler {
      type: "gaussian"
      std: 0.01
    }
    bias_filler {
      type: "constant"
      value: 0
    }
  }
}
layer {
  name: "relu1"
  type: "ReLU"
  bottom: "conv1"
  top: "conv1"
}
layer {
  name: "norm1"
  type: "LRN"
  bottom: "conv1"
  top: "norm1"
  lrn_param {
    local_size: 5
    alpha: 0.0001
    beta: 0.75
  }
}
layer {
  name: "pool1"
  type: "Pooling"
  bottom: "norm1"
  top: "pool1"
  pooling_param {
    pool: MAX
    kernel_size: 3
    stride: 2
  }
}
layer {
  name: "conv2"
  type: "Convolution"
  bottom: "pool1"
  top: "conv2"
  param {
    lr_mult: 1
    decay_mult: 1
  }
  param {
    lr_mult: 2
    decay_mult: 0
  }
  convolution_param {
    num_output: 256
    pad: 2
    kernel_size: 5
    group: 2
    weight_filler {
      type: "gaussian"
      std: 0.01
    }
    bias_filler {
      type: "constant"
      value: 0.1
    }
  }
}
layer {
  name: "relu2"
  type: "ReLU"
  bottom: "conv2"
  top: "conv2"
}
layer {
  name: "norm2"
  type: "LRN"
  bottom: "conv2"
  top: "norm2"
  lrn_param {
    local_size: 5
    alpha: 0.0001
    beta: 0.75
  }
}
layer {
  name: "pool2"
  type: "Pooling"
  bottom: "norm2"
  top: "pool2"
  pooling_param {
    pool: MAX
    kernel_size: 3
    stride: 2
  }
}
layer {
  name: "conv3"
  type: "Convolution"
  bottom: "pool2"
  top: "conv3"
  param {
    lr_mult: 1
    decay_mult: 1
  }
  param {
    lr_mult: 2
    decay_mult: 0
  }
  convolution_param {
    num_output: 384
    pad: 1
    kernel_size: 3
    weight_filler {
      type: "gaussian"
      std: 0.01
    }
    bias_filler {
      type: "constant"
      value: 0
    }
  }
}
layer {
  name: "relu3"
  type: "ReLU"
  bottom: "conv3"
  top: "conv3"
}
layer {
  name: "conv4"
  type: "Convolution"
  bottom: "conv3"
  top: "conv4"
  param {
    lr_mult: 1
    decay_mult: 1
  }
  param {
    lr_mult: 2
    decay_mult: 0
  }
  convolution_param {
    num_output: 384
    pad: 1
    kernel_size: 3
    group: 2
    weight_filler {
      type: "gaussian"
      std: 0.01
    }
    bias_filler {
      type: "constant"
      value: 0.1
    }
  }
}
layer {
  name: "relu4"
  type: "ReLU"
  bottom: "conv4"
  top: "conv4"
}
layer {
  name: "conv5"
  type: "Convolution"
  bottom: "conv4"
  top: "conv5"
  param {
    lr_mult: 1
    decay_mult: 1
  }
  param {
    lr_mult: 2
    decay_mult: 0
  }
  convolution_param {
    num_output: 256
    pad: 1
    kernel_size: 3
    group: 2
    weight_filler {
      type: "gaussian"
      std: 0.01
    }
    bias_filler {
      type: "constant"
      value: 0.1
    }
  }
}
layer {
  name: "relu5"
  type: "ReLU"
  bottom: "conv5"
  top: "conv5"
}
layer {
  name: "pool5"
  type: "Pooling"
  bottom: "conv5"
  top: "pool5"
  pooling_param {
    pool: MAX
    kernel_size: 3
    stride: 2
  }
}
layer {
  name: "fc6"
  type: "InnerProduct"
  bottom: "pool5"
  top: "fc6"
  param {
    lr_mult: 1
    decay_mult: 1
  }
  param {
    lr_mult: 2
    decay_mult: 0
  }
  inner_product_param {
    num_output: 4096
    weight_filler {
      type: "gaussian"
      std: 0.005
    }
    bias_filler {
      type: "constant"
      value: 0.1
    }
  }
}
layer {
  name: "relu6"
  type: "ReLU"
  bottom: "fc6"
  top: "fc6"
}
layer {
  name: "drop6"
  type: "Dropout"
  bottom: "fc6"
  top: "fc6"
  dropout_param {
    dropout_ratio: 0.5
  }
}
layer {
  name: "fc7"
  type: "InnerProduct"
  bottom: "fc6"
  top: "fc7"
  param {
    lr_mult: 1
    decay_mult: 1
  }
  param {
    lr_mult: 2
    decay_mult: 0
  }
  inner_product_param {
    num_output: 4096
    weight_filler {
      type: "gaussian"
      std: 0.005
    }
    bias_filler {
      type: "constant"
      value: 0.1
    }
  }
}
layer {
  name: "relu7"
  type: "ReLU"
  bottom: "fc7"
  top: "fc7"
}
layer {
  name: "drop7"
  type: "Dropout"
  bottom: "fc7"
  top: "fc7"
  dropout_param {
    dropout_ratio: 0.5
  }
}
layer {
  name: "fc8_plantvillage"
  type: "InnerProduct"
  bottom: "fc7"
  top: "fc8_plantvillage"
  param {
    lr_mult: 1
    decay_mult: 1
  }
  param {
    lr_mult: 2
    decay_mult: 0
  }
  inner_product_param {
    num_output: 38
    weight_filler {
      type: "gaussian"
      std: 0.01
    }
    bias_filler {
      type: "constant"
      value: 0
    }
  }
}
layer {
  name: "prob"
  type: "Softmax"
  bottom: "fc8_plantvillage"
  top: "prob"
  include {
    phase: TEST
  }
}
layer {
  name: "hdf5out"
  type: "HDF5Output"
  bottom: "prob"
  bottom: "label"
  include {
    phase: TEST
  }
  hdf5_output_param {
    file_name: "hdf5_dumps/iter_1080.h5"
  }
}
layer {
  name: "loss"
  type: "SoftmaxWithLoss"
  bottom: "fc8_plantvillage"
  bottom: "label"
  top: "loss"
}
layer {
  name: "accuracy"
  type: "Accuracy"
  bottom: "fc8_plantvillage"
  bottom: "label"
  top: "accuracy"
  include {
    phase: TEST
  }
}
I0403 12:31:40.576644 26374 layer_factory.hpp:77] Creating layer data
I0403 12:31:40.577308 26374 net.cpp:91] Creating Layer data
I0403 12:31:40.577340 26374 net.cpp:399] data -> data
I0403 12:31:40.577394 26374 net.cpp:399] data -> label
I0403 12:31:40.577433 26374 data_transformer.cpp:25] Loading mean file from: /home/mohanty/data/final_dataset/lmdb/color-20-80/mean.binaryproto
I0403 12:31:40.580737 26378 db_lmdb.cpp:38] Opened lmdb /home/mohanty/data/final_dataset/lmdb/color-20-80/test_db
I0403 12:31:40.591904 26374 data_layer.cpp:41] output data size: 100,3,227,227
I0403 12:31:40.727700 26374 net.cpp:141] Setting up data
I0403 12:31:40.727793 26374 net.cpp:148] Top shape: 100 3 227 227 (15458700)
I0403 12:31:40.727818 26374 net.cpp:148] Top shape: 100 (100)
I0403 12:31:40.727835 26374 net.cpp:156] Memory required for data: 61835200
I0403 12:31:40.727866 26374 layer_factory.hpp:77] Creating layer label_data_1_split
I0403 12:31:40.727895 26374 net.cpp:91] Creating Layer label_data_1_split
I0403 12:31:40.727915 26374 net.cpp:425] label_data_1_split <- label
I0403 12:31:40.727948 26374 net.cpp:399] label_data_1_split -> label_data_1_split_0
I0403 12:31:40.727977 26374 net.cpp:399] label_data_1_split -> label_data_1_split_1
I0403 12:31:40.727999 26374 net.cpp:399] label_data_1_split -> label_data_1_split_2
I0403 12:31:40.728066 26374 net.cpp:141] Setting up label_data_1_split
I0403 12:31:40.728092 26374 net.cpp:148] Top shape: 100 (100)
I0403 12:31:40.728111 26374 net.cpp:148] Top shape: 100 (100)
I0403 12:31:40.728129 26374 net.cpp:148] Top shape: 100 (100)
I0403 12:31:40.728144 26374 net.cpp:156] Memory required for data: 61836400
I0403 12:31:40.728160 26374 layer_factory.hpp:77] Creating layer conv1
I0403 12:31:40.728193 26374 net.cpp:91] Creating Layer conv1
I0403 12:31:40.728214 26374 net.cpp:425] conv1 <- data
I0403 12:31:40.728236 26374 net.cpp:399] conv1 -> conv1
I0403 12:31:40.875834 26374 net.cpp:141] Setting up conv1
I0403 12:31:40.875911 26374 net.cpp:148] Top shape: 100 96 55 55 (29040000)
I0403 12:31:40.875931 26374 net.cpp:156] Memory required for data: 177996400
I0403 12:31:40.875964 26374 layer_factory.hpp:77] Creating layer relu1
I0403 12:31:40.875996 26374 net.cpp:91] Creating Layer relu1
I0403 12:31:40.876016 26374 net.cpp:425] relu1 <- conv1
I0403 12:31:40.876039 26374 net.cpp:386] relu1 -> conv1 (in-place)
I0403 12:31:40.876304 26374 net.cpp:141] Setting up relu1
I0403 12:31:40.876335 26374 net.cpp:148] Top shape: 100 96 55 55 (29040000)
I0403 12:31:40.876356 26374 net.cpp:156] Memory required for data: 294156400
I0403 12:31:40.876410 26374 layer_factory.hpp:77] Creating layer norm1
I0403 12:31:40.876442 26374 net.cpp:91] Creating Layer norm1
I0403 12:31:40.876464 26374 net.cpp:425] norm1 <- conv1
I0403 12:31:40.876485 26374 net.cpp:399] norm1 -> norm1
I0403 12:31:40.876797 26374 net.cpp:141] Setting up norm1
I0403 12:31:40.876827 26374 net.cpp:148] Top shape: 100 96 55 55 (29040000)
I0403 12:31:40.876844 26374 net.cpp:156] Memory required for data: 410316400
I0403 12:31:40.876862 26374 layer_factory.hpp:77] Creating layer pool1
I0403 12:31:40.876886 26374 net.cpp:91] Creating Layer pool1
I0403 12:31:40.876906 26374 net.cpp:425] pool1 <- norm1
I0403 12:31:40.876926 26374 net.cpp:399] pool1 -> pool1
I0403 12:31:40.876996 26374 net.cpp:141] Setting up pool1
I0403 12:31:40.877022 26374 net.cpp:148] Top shape: 100 96 27 27 (6998400)
I0403 12:31:40.877040 26374 net.cpp:156] Memory required for data: 438310000
I0403 12:31:40.877058 26374 layer_factory.hpp:77] Creating layer conv2
I0403 12:31:40.877084 26374 net.cpp:91] Creating Layer conv2
I0403 12:31:40.877101 26374 net.cpp:425] conv2 <- pool1
I0403 12:31:40.877121 26374 net.cpp:399] conv2 -> conv2
I0403 12:31:40.892500 26374 net.cpp:141] Setting up conv2
I0403 12:31:40.892554 26374 net.cpp:148] Top shape: 100 256 27 27 (18662400)
I0403 12:31:40.892571 26374 net.cpp:156] Memory required for data: 512959600
I0403 12:31:40.892598 26374 layer_factory.hpp:77] Creating layer relu2
I0403 12:31:40.892621 26374 net.cpp:91] Creating Layer relu2
I0403 12:31:40.892640 26374 net.cpp:425] relu2 <- conv2
I0403 12:31:40.892660 26374 net.cpp:386] relu2 -> conv2 (in-place)
I0403 12:31:40.892951 26374 net.cpp:141] Setting up relu2
I0403 12:31:40.892981 26374 net.cpp:148] Top shape: 100 256 27 27 (18662400)
I0403 12:31:40.892997 26374 net.cpp:156] Memory required for data: 587609200
I0403 12:31:40.893015 26374 layer_factory.hpp:77] Creating layer norm2
I0403 12:31:40.893038 26374 net.cpp:91] Creating Layer norm2
I0403 12:31:40.893056 26374 net.cpp:425] norm2 <- conv2
I0403 12:31:40.893077 26374 net.cpp:399] norm2 -> norm2
I0403 12:31:40.893286 26374 net.cpp:141] Setting up norm2
I0403 12:31:40.893316 26374 net.cpp:148] Top shape: 100 256 27 27 (18662400)
I0403 12:31:40.893333 26374 net.cpp:156] Memory required for data: 662258800
I0403 12:31:40.893352 26374 layer_factory.hpp:77] Creating layer pool2
I0403 12:31:40.893373 26374 net.cpp:91] Creating Layer pool2
I0403 12:31:40.893389 26374 net.cpp:425] pool2 <- norm2
I0403 12:31:40.893409 26374 net.cpp:399] pool2 -> pool2
I0403 12:31:40.893465 26374 net.cpp:141] Setting up pool2
I0403 12:31:40.893488 26374 net.cpp:148] Top shape: 100 256 13 13 (4326400)
I0403 12:31:40.893506 26374 net.cpp:156] Memory required for data: 679564400
I0403 12:31:40.893522 26374 layer_factory.hpp:77] Creating layer conv3
I0403 12:31:40.893548 26374 net.cpp:91] Creating Layer conv3
I0403 12:31:40.893565 26374 net.cpp:425] conv3 <- pool2
I0403 12:31:40.893585 26374 net.cpp:399] conv3 -> conv3
I0403 12:31:40.933568 26374 net.cpp:141] Setting up conv3
I0403 12:31:40.933643 26374 net.cpp:148] Top shape: 100 384 13 13 (6489600)
I0403 12:31:40.933662 26374 net.cpp:156] Memory required for data: 705522800
I0403 12:31:40.933691 26374 layer_factory.hpp:77] Creating layer relu3
I0403 12:31:40.933717 26374 net.cpp:91] Creating Layer relu3
I0403 12:31:40.933735 26374 net.cpp:425] relu3 <- conv3
I0403 12:31:40.933758 26374 net.cpp:386] relu3 -> conv3 (in-place)
I0403 12:31:40.934046 26374 net.cpp:141] Setting up relu3
I0403 12:31:40.934078 26374 net.cpp:148] Top shape: 100 384 13 13 (6489600)
I0403 12:31:40.934097 26374 net.cpp:156] Memory required for data: 731481200
I0403 12:31:40.934114 26374 layer_factory.hpp:77] Creating layer conv4
I0403 12:31:40.934142 26374 net.cpp:91] Creating Layer conv4
I0403 12:31:40.934161 26374 net.cpp:425] conv4 <- conv3
I0403 12:31:40.934182 26374 net.cpp:399] conv4 -> conv4
I0403 12:31:40.966392 26374 net.cpp:141] Setting up conv4
I0403 12:31:40.966460 26374 net.cpp:148] Top shape: 100 384 13 13 (6489600)
I0403 12:31:40.966521 26374 net.cpp:156] Memory required for data: 757439600
I0403 12:31:40.966547 26374 layer_factory.hpp:77] Creating layer relu4
I0403 12:31:40.966573 26374 net.cpp:91] Creating Layer relu4
I0403 12:31:40.966598 26374 net.cpp:425] relu4 <- conv4
I0403 12:31:40.966619 26374 net.cpp:386] relu4 -> conv4 (in-place)
I0403 12:31:40.966912 26374 net.cpp:141] Setting up relu4
I0403 12:31:40.966943 26374 net.cpp:148] Top shape: 100 384 13 13 (6489600)
I0403 12:31:40.966964 26374 net.cpp:156] Memory required for data: 783398000
I0403 12:31:40.966989 26374 layer_factory.hpp:77] Creating layer conv5
I0403 12:31:40.967026 26374 net.cpp:91] Creating Layer conv5
I0403 12:31:40.967066 26374 net.cpp:425] conv5 <- conv4
I0403 12:31:40.967093 26374 net.cpp:399] conv5 -> conv5
I0403 12:31:40.996101 26374 net.cpp:141] Setting up conv5
I0403 12:31:40.996151 26374 net.cpp:148] Top shape: 100 256 13 13 (4326400)
I0403 12:31:40.996172 26374 net.cpp:156] Memory required for data: 800703600
I0403 12:31:40.996202 26374 layer_factory.hpp:77] Creating layer relu5
I0403 12:31:40.996297 26374 net.cpp:91] Creating Layer relu5
I0403 12:31:40.996328 26374 net.cpp:425] relu5 <- conv5
I0403 12:31:40.996351 26374 net.cpp:386] relu5 -> conv5 (in-place)
I0403 12:31:40.996680 26374 net.cpp:141] Setting up relu5
I0403 12:31:40.996711 26374 net.cpp:148] Top shape: 100 256 13 13 (4326400)
I0403 12:31:40.996728 26374 net.cpp:156] Memory required for data: 818009200
I0403 12:31:40.996747 26374 layer_factory.hpp:77] Creating layer pool5
I0403 12:31:40.996783 26374 net.cpp:91] Creating Layer pool5
I0403 12:31:40.996810 26374 net.cpp:425] pool5 <- conv5
I0403 12:31:40.996837 26374 net.cpp:399] pool5 -> pool5
I0403 12:31:40.996904 26374 net.cpp:141] Setting up pool5
I0403 12:31:40.996932 26374 net.cpp:148] Top shape: 100 256 6 6 (921600)
I0403 12:31:40.996951 26374 net.cpp:156] Memory required for data: 821695600
I0403 12:31:40.996968 26374 layer_factory.hpp:77] Creating layer fc6
I0403 12:31:40.997001 26374 net.cpp:91] Creating Layer fc6
I0403 12:31:40.997025 26374 net.cpp:425] fc6 <- pool5
I0403 12:31:40.997057 26374 net.cpp:399] fc6 -> fc6
I0403 12:31:42.570327 26374 net.cpp:141] Setting up fc6
I0403 12:31:42.570405 26374 net.cpp:148] Top shape: 100 4096 (409600)
I0403 12:31:42.570422 26374 net.cpp:156] Memory required for data: 823334000
I0403 12:31:42.570446 26374 layer_factory.hpp:77] Creating layer relu6
I0403 12:31:42.570472 26374 net.cpp:91] Creating Layer relu6
I0403 12:31:42.570492 26374 net.cpp:425] relu6 <- fc6
I0403 12:31:42.570514 26374 net.cpp:386] relu6 -> fc6 (in-place)
I0403 12:31:42.570744 26374 net.cpp:141] Setting up relu6
I0403 12:31:42.570772 26374 net.cpp:148] Top shape: 100 4096 (409600)
I0403 12:31:42.570788 26374 net.cpp:156] Memory required for data: 824972400
I0403 12:31:42.570806 26374 layer_factory.hpp:77] Creating layer drop6
I0403 12:31:42.570825 26374 net.cpp:91] Creating Layer drop6
I0403 12:31:42.570842 26374 net.cpp:425] drop6 <- fc6
I0403 12:31:42.570859 26374 net.cpp:386] drop6 -> fc6 (in-place)
I0403 12:31:42.570917 26374 net.cpp:141] Setting up drop6
I0403 12:31:42.570941 26374 net.cpp:148] Top shape: 100 4096 (409600)
I0403 12:31:42.570957 26374 net.cpp:156] Memory required for data: 826610800
I0403 12:31:42.570973 26374 layer_factory.hpp:77] Creating layer fc7
I0403 12:31:42.570997 26374 net.cpp:91] Creating Layer fc7
I0403 12:31:42.571014 26374 net.cpp:425] fc7 <- fc6
I0403 12:31:42.571033 26374 net.cpp:399] fc7 -> fc7
I0403 12:31:43.260493 26374 net.cpp:141] Setting up fc7
I0403 12:31:43.260572 26374 net.cpp:148] Top shape: 100 4096 (409600)
I0403 12:31:43.260591 26374 net.cpp:156] Memory required for data: 828249200
I0403 12:31:43.260612 26374 layer_factory.hpp:77] Creating layer relu7
I0403 12:31:43.260638 26374 net.cpp:91] Creating Layer relu7
I0403 12:31:43.260658 26374 net.cpp:425] relu7 <- fc7
I0403 12:31:43.260679 26374 net.cpp:386] relu7 -> fc7 (in-place)
I0403 12:31:43.261080 26374 net.cpp:141] Setting up relu7
I0403 12:31:43.261108 26374 net.cpp:148] Top shape: 100 4096 (409600)
I0403 12:31:43.261157 26374 net.cpp:156] Memory required for data: 829887600
I0403 12:31:43.261174 26374 layer_factory.hpp:77] Creating layer drop7
I0403 12:31:43.261194 26374 net.cpp:91] Creating Layer drop7
I0403 12:31:43.261210 26374 net.cpp:425] drop7 <- fc7
I0403 12:31:43.261229 26374 net.cpp:386] drop7 -> fc7 (in-place)
I0403 12:31:43.261275 26374 net.cpp:141] Setting up drop7
I0403 12:31:43.261303 26374 net.cpp:148] Top shape: 100 4096 (409600)
I0403 12:31:43.261320 26374 net.cpp:156] Memory required for data: 831526000
I0403 12:31:43.261335 26374 layer_factory.hpp:77] Creating layer fc8_plantvillage
I0403 12:31:43.261359 26374 net.cpp:91] Creating Layer fc8_plantvillage
I0403 12:31:43.261376 26374 net.cpp:425] fc8_plantvillage <- fc7
I0403 12:31:43.261396 26374 net.cpp:399] fc8_plantvillage -> fc8_plantvillage
I0403 12:31:43.268122 26374 net.cpp:141] Setting up fc8_plantvillage
I0403 12:31:43.268151 26374 net.cpp:148] Top shape: 100 38 (3800)
I0403 12:31:43.268167 26374 net.cpp:156] Memory required for data: 831541200
I0403 12:31:43.268187 26374 layer_factory.hpp:77] Creating layer fc8_plantvillage_fc8_plantvillage_0_split
I0403 12:31:43.268206 26374 net.cpp:91] Creating Layer fc8_plantvillage_fc8_plantvillage_0_split
I0403 12:31:43.268224 26374 net.cpp:425] fc8_plantvillage_fc8_plantvillage_0_split <- fc8_plantvillage
I0403 12:31:43.268244 26374 net.cpp:399] fc8_plantvillage_fc8_plantvillage_0_split -> fc8_plantvillage_fc8_plantvillage_0_split_0
I0403 12:31:43.268267 26374 net.cpp:399] fc8_plantvillage_fc8_plantvillage_0_split -> fc8_plantvillage_fc8_plantvillage_0_split_1
I0403 12:31:43.268296 26374 net.cpp:399] fc8_plantvillage_fc8_plantvillage_0_split -> fc8_plantvillage_fc8_plantvillage_0_split_2
I0403 12:31:43.268375 26374 net.cpp:141] Setting up fc8_plantvillage_fc8_plantvillage_0_split
I0403 12:31:43.268400 26374 net.cpp:148] Top shape: 100 38 (3800)
I0403 12:31:43.268417 26374 net.cpp:148] Top shape: 100 38 (3800)
I0403 12:31:43.268435 26374 net.cpp:148] Top shape: 100 38 (3800)
I0403 12:31:43.268450 26374 net.cpp:156] Memory required for data: 831586800
I0403 12:31:43.268465 26374 layer_factory.hpp:77] Creating layer prob
I0403 12:31:43.268484 26374 net.cpp:91] Creating Layer prob
I0403 12:31:43.268499 26374 net.cpp:425] prob <- fc8_plantvillage_fc8_plantvillage_0_split_0
I0403 12:31:43.268518 26374 net.cpp:399] prob -> prob
I0403 12:31:43.268743 26374 net.cpp:141] Setting up prob
I0403 12:31:43.268769 26374 net.cpp:148] Top shape: 100 38 (3800)
I0403 12:31:43.268785 26374 net.cpp:156] Memory required for data: 831602000
I0403 12:31:43.268802 26374 layer_factory.hpp:77] Creating layer hdf5out
I0403 12:31:43.268826 26374 net.cpp:91] Creating Layer hdf5out
I0403 12:31:43.268843 26374 net.cpp:425] hdf5out <- prob
I0403 12:31:43.268862 26374 net.cpp:425] hdf5out <- label_data_1_split_0
I0403 12:31:43.272567 26374 net.cpp:141] Setting up hdf5out
…
