…
I0403 12:58:22.675890 27103 net.cpp:313] The NetState phase (1) differed from the phase (0) specified by a rule in layer data
I0403 12:58:22.676198 27103 net.cpp:49] Initializing net from parameters: 
state {
  phase: TEST
}
layer {
  name: "data"
  type: "Data"
  top: "data"
  top: "label"
  include {
    phase: TEST
  }
  transform_param {
    crop_size: 227
    mean_file: "/home/mohanty/data/final_dataset/lmdb/color-20-80/mean.binaryproto"
  }
  data_param {
    source: "/home/mohanty/data/final_dataset/lmdb/color-20-80/test_db"
    batch_size: 100
    backend: LMDB
  }
}
layer {
  name: "conv1"
  type: "Convolution"
  bottom: "data"
  top: "conv1"
  param {
    lr_mult: 1
    decay_mult: 1
  }
  param {
    lr_mult: 2
    decay_mult: 0
  }
  convolution_param {
    num_output: 96
    kernel_size: 11
    stride: 4
    weight_filler {
      type: "gaussian"
      std: 0.01
    }
    bias_filler {
      type: "constant"
      value: 0
    }
  }
}
layer {
  name: "relu1"
  type: "ReLU"
  bottom: "conv1"
  top: "conv1"
}
layer {
  name: "norm1"
  type: "LRN"
  bottom: "conv1"
  top: "norm1"
  lrn_param {
    local_size: 5
    alpha: 0.0001
    beta: 0.75
  }
}
layer {
  name: "pool1"
  type: "Pooling"
  bottom: "norm1"
  top: "pool1"
  pooling_param {
    pool: MAX
    kernel_size: 3
    stride: 2
  }
}
layer {
  name: "conv2"
  type: "Convolution"
  bottom: "pool1"
  top: "conv2"
  param {
    lr_mult: 1
    decay_mult: 1
  }
  param {
    lr_mult: 2
    decay_mult: 0
  }
  convolution_param {
    num_output: 256
    pad: 2
    kernel_size: 5
    group: 2
    weight_filler {
      type: "gaussian"
      std: 0.01
    }
    bias_filler {
      type: "constant"
      value: 0.1
    }
  }
}
layer {
  name: "relu2"
  type: "ReLU"
  bottom: "conv2"
  top: "conv2"
}
layer {
  name: "norm2"
  type: "LRN"
  bottom: "conv2"
  top: "norm2"
  lrn_param {
    local_size: 5
    alpha: 0.0001
    beta: 0.75
  }
}
layer {
  name: "pool2"
  type: "Pooling"
  bottom: "norm2"
  top: "pool2"
  pooling_param {
    pool: MAX
    kernel_size: 3
    stride: 2
  }
}
layer {
  name: "conv3"
  type: "Convolution"
  bottom: "pool2"
  top: "conv3"
  param {
    lr_mult: 1
    decay_mult: 1
  }
  param {
    lr_mult: 2
    decay_mult: 0
  }
  convolution_param {
    num_output: 384
    pad: 1
    kernel_size: 3
    weight_filler {
      type: "gaussian"
      std: 0.01
    }
    bias_filler {
      type: "constant"
      value: 0
    }
  }
}
layer {
  name: "relu3"
  type: "ReLU"
  bottom: "conv3"
  top: "conv3"
}
layer {
  name: "conv4"
  type: "Convolution"
  bottom: "conv3"
  top: "conv4"
  param {
    lr_mult: 1
    decay_mult: 1
  }
  param {
    lr_mult: 2
    decay_mult: 0
  }
  convolution_param {
    num_output: 384
    pad: 1
    kernel_size: 3
    group: 2
    weight_filler {
      type: "gaussian"
      std: 0.01
    }
    bias_filler {
      type: "constant"
      value: 0.1
    }
  }
}
layer {
  name: "relu4"
  type: "ReLU"
  bottom: "conv4"
  top: "conv4"
}
layer {
  name: "conv5"
  type: "Convolution"
  bottom: "conv4"
  top: "conv5"
  param {
    lr_mult: 1
    decay_mult: 1
  }
  param {
    lr_mult: 2
    decay_mult: 0
  }
  convolution_param {
    num_output: 256
    pad: 1
    kernel_size: 3
    group: 2
    weight_filler {
      type: "gaussian"
      std: 0.01
    }
    bias_filler {
      type: "constant"
      value: 0.1
    }
  }
}
layer {
  name: "relu5"
  type: "ReLU"
  bottom: "conv5"
  top: "conv5"
}
layer {
  name: "pool5"
  type: "Pooling"
  bottom: "conv5"
  top: "pool5"
  pooling_param {
    pool: MAX
    kernel_size: 3
    stride: 2
  }
}
layer {
  name: "fc6"
  type: "InnerProduct"
  bottom: "pool5"
  top: "fc6"
  param {
    lr_mult: 1
    decay_mult: 1
  }
  param {
    lr_mult: 2
    decay_mult: 0
  }
  inner_product_param {
    num_output: 4096
    weight_filler {
      type: "gaussian"
      std: 0.005
    }
    bias_filler {
      type: "constant"
      value: 0.1
    }
  }
}
layer {
  name: "relu6"
  type: "ReLU"
  bottom: "fc6"
  top: "fc6"
}
layer {
  name: "drop6"
  type: "Dropout"
  bottom: "fc6"
  top: "fc6"
  dropout_param {
    dropout_ratio: 0.5
  }
}
layer {
  name: "fc7"
  type: "InnerProduct"
  bottom: "fc6"
  top: "fc7"
  param {
    lr_mult: 1
    decay_mult: 1
  }
  param {
    lr_mult: 2
    decay_mult: 0
  }
  inner_product_param {
    num_output: 4096
    weight_filler {
      type: "gaussian"
      std: 0.005
    }
    bias_filler {
      type: "constant"
      value: 0.1
    }
  }
}
layer {
  name: "relu7"
  type: "ReLU"
  bottom: "fc7"
  top: "fc7"
}
layer {
  name: "drop7"
  type: "Dropout"
  bottom: "fc7"
  top: "fc7"
  dropout_param {
    dropout_ratio: 0.5
  }
}
layer {
  name: "fc8_plantvillage"
  type: "InnerProduct"
  bottom: "fc7"
  top: "fc8_plantvillage"
  param {
    lr_mult: 1
    decay_mult: 1
  }
  param {
    lr_mult: 2
    decay_mult: 0
  }
  inner_product_param {
    num_output: 38
    weight_filler {
      type: "gaussian"
      std: 0.01
    }
    bias_filler {
      type: "constant"
      value: 0
    }
  }
}
layer {
  name: "prob"
  type: "Softmax"
  bottom: "fc8_plantvillage"
  top: "prob"
  include {
    phase: TEST
  }
}
layer {
  name: "hdf5out"
  type: "HDF5Output"
  bottom: "prob"
  bottom: "label"
  include {
    phase: TEST
  }
  hdf5_output_param {
    file_name: "hdf5_dumps/iter_3024.h5"
  }
}
layer {
  name: "loss"
  type: "SoftmaxWithLoss"
  bottom: "fc8_plantvillage"
  bottom: "label"
  top: "loss"
}
layer {
  name: "accuracy"
  type: "Accuracy"
  bottom: "fc8_plantvillage"
  bottom: "label"
  top: "accuracy"
  include {
    phase: TEST
  }
}
I0403 12:58:22.676826 27103 layer_factory.hpp:77] Creating layer data
I0403 12:58:22.677505 27103 net.cpp:91] Creating Layer data
I0403 12:58:22.677538 27103 net.cpp:399] data -> data
I0403 12:58:22.677595 27103 net.cpp:399] data -> label
I0403 12:58:22.677634 27103 data_transformer.cpp:25] Loading mean file from: /home/mohanty/data/final_dataset/lmdb/color-20-80/mean.binaryproto
I0403 12:58:22.689424 27106 db_lmdb.cpp:38] Opened lmdb /home/mohanty/data/final_dataset/lmdb/color-20-80/test_db
I0403 12:58:22.694761 27103 data_layer.cpp:41] output data size: 100,3,227,227
I0403 12:58:22.827086 27103 net.cpp:141] Setting up data
I0403 12:58:22.827190 27103 net.cpp:148] Top shape: 100 3 227 227 (15458700)
I0403 12:58:22.827214 27103 net.cpp:148] Top shape: 100 (100)
I0403 12:58:22.827250 27103 net.cpp:156] Memory required for data: 61835200
I0403 12:58:22.827277 27103 layer_factory.hpp:77] Creating layer label_data_1_split
I0403 12:58:22.827311 27103 net.cpp:91] Creating Layer label_data_1_split
I0403 12:58:22.827342 27103 net.cpp:425] label_data_1_split <- label
I0403 12:58:22.827378 27103 net.cpp:399] label_data_1_split -> label_data_1_split_0
I0403 12:58:22.827416 27103 net.cpp:399] label_data_1_split -> label_data_1_split_1
I0403 12:58:22.827455 27103 net.cpp:399] label_data_1_split -> label_data_1_split_2
I0403 12:58:22.827523 27103 net.cpp:141] Setting up label_data_1_split
I0403 12:58:22.827550 27103 net.cpp:148] Top shape: 100 (100)
I0403 12:58:22.827569 27103 net.cpp:148] Top shape: 100 (100)
I0403 12:58:22.827586 27103 net.cpp:148] Top shape: 100 (100)
I0403 12:58:22.827602 27103 net.cpp:156] Memory required for data: 61836400
I0403 12:58:22.827620 27103 layer_factory.hpp:77] Creating layer conv1
I0403 12:58:22.827664 27103 net.cpp:91] Creating Layer conv1
I0403 12:58:22.827687 27103 net.cpp:425] conv1 <- data
I0403 12:58:22.827723 27103 net.cpp:399] conv1 -> conv1
I0403 12:58:22.978986 27103 net.cpp:141] Setting up conv1
I0403 12:58:22.979068 27103 net.cpp:148] Top shape: 100 96 55 55 (29040000)
I0403 12:58:22.979087 27103 net.cpp:156] Memory required for data: 177996400
I0403 12:58:22.979120 27103 layer_factory.hpp:77] Creating layer relu1
I0403 12:58:22.979151 27103 net.cpp:91] Creating Layer relu1
I0403 12:58:22.979171 27103 net.cpp:425] relu1 <- conv1
I0403 12:58:22.979192 27103 net.cpp:386] relu1 -> conv1 (in-place)
I0403 12:58:22.979542 27103 net.cpp:141] Setting up relu1
I0403 12:58:22.979573 27103 net.cpp:148] Top shape: 100 96 55 55 (29040000)
I0403 12:58:22.979589 27103 net.cpp:156] Memory required for data: 294156400
I0403 12:58:22.979640 27103 layer_factory.hpp:77] Creating layer norm1
I0403 12:58:22.979670 27103 net.cpp:91] Creating Layer norm1
I0403 12:58:22.979689 27103 net.cpp:425] norm1 <- conv1
I0403 12:58:22.979709 27103 net.cpp:399] norm1 -> norm1
I0403 12:58:22.980026 27103 net.cpp:141] Setting up norm1
I0403 12:58:22.980057 27103 net.cpp:148] Top shape: 100 96 55 55 (29040000)
I0403 12:58:22.980074 27103 net.cpp:156] Memory required for data: 410316400
I0403 12:58:22.980093 27103 layer_factory.hpp:77] Creating layer pool1
I0403 12:58:22.980116 27103 net.cpp:91] Creating Layer pool1
I0403 12:58:22.980135 27103 net.cpp:425] pool1 <- norm1
I0403 12:58:22.980155 27103 net.cpp:399] pool1 -> pool1
I0403 12:58:22.980224 27103 net.cpp:141] Setting up pool1
I0403 12:58:22.980250 27103 net.cpp:148] Top shape: 100 96 27 27 (6998400)
I0403 12:58:22.980273 27103 net.cpp:156] Memory required for data: 438310000
I0403 12:58:22.980288 27103 layer_factory.hpp:77] Creating layer conv2
I0403 12:58:22.980315 27103 net.cpp:91] Creating Layer conv2
I0403 12:58:22.980332 27103 net.cpp:425] conv2 <- pool1
I0403 12:58:22.980351 27103 net.cpp:399] conv2 -> conv2
I0403 12:58:22.996153 27103 net.cpp:141] Setting up conv2
I0403 12:58:22.996206 27103 net.cpp:148] Top shape: 100 256 27 27 (18662400)
I0403 12:58:22.996223 27103 net.cpp:156] Memory required for data: 512959600
I0403 12:58:22.996248 27103 layer_factory.hpp:77] Creating layer relu2
I0403 12:58:22.996278 27103 net.cpp:91] Creating Layer relu2
I0403 12:58:22.996295 27103 net.cpp:425] relu2 <- conv2
I0403 12:58:22.996318 27103 net.cpp:386] relu2 -> conv2 (in-place)
I0403 12:58:22.996608 27103 net.cpp:141] Setting up relu2
I0403 12:58:22.996637 27103 net.cpp:148] Top shape: 100 256 27 27 (18662400)
I0403 12:58:22.996654 27103 net.cpp:156] Memory required for data: 587609200
I0403 12:58:22.996670 27103 layer_factory.hpp:77] Creating layer norm2
I0403 12:58:22.996695 27103 net.cpp:91] Creating Layer norm2
I0403 12:58:22.996714 27103 net.cpp:425] norm2 <- conv2
I0403 12:58:22.996733 27103 net.cpp:399] norm2 -> norm2
I0403 12:58:22.996942 27103 net.cpp:141] Setting up norm2
I0403 12:58:22.996969 27103 net.cpp:148] Top shape: 100 256 27 27 (18662400)
I0403 12:58:22.996985 27103 net.cpp:156] Memory required for data: 662258800
I0403 12:58:22.997002 27103 layer_factory.hpp:77] Creating layer pool2
I0403 12:58:22.997021 27103 net.cpp:91] Creating Layer pool2
I0403 12:58:22.997037 27103 net.cpp:425] pool2 <- norm2
I0403 12:58:22.997058 27103 net.cpp:399] pool2 -> pool2
I0403 12:58:22.997117 27103 net.cpp:141] Setting up pool2
I0403 12:58:22.997143 27103 net.cpp:148] Top shape: 100 256 13 13 (4326400)
I0403 12:58:22.997159 27103 net.cpp:156] Memory required for data: 679564400
I0403 12:58:22.997175 27103 layer_factory.hpp:77] Creating layer conv3
I0403 12:58:22.997203 27103 net.cpp:91] Creating Layer conv3
I0403 12:58:22.997221 27103 net.cpp:425] conv3 <- pool2
I0403 12:58:22.997242 27103 net.cpp:399] conv3 -> conv3
I0403 12:58:23.047000 27103 net.cpp:141] Setting up conv3
I0403 12:58:23.047076 27103 net.cpp:148] Top shape: 100 384 13 13 (6489600)
I0403 12:58:23.047094 27103 net.cpp:156] Memory required for data: 705522800
I0403 12:58:23.047122 27103 layer_factory.hpp:77] Creating layer relu3
I0403 12:58:23.047147 27103 net.cpp:91] Creating Layer relu3
I0403 12:58:23.047165 27103 net.cpp:425] relu3 <- conv3
I0403 12:58:23.047189 27103 net.cpp:386] relu3 -> conv3 (in-place)
I0403 12:58:23.047497 27103 net.cpp:141] Setting up relu3
I0403 12:58:23.047525 27103 net.cpp:148] Top shape: 100 384 13 13 (6489600)
I0403 12:58:23.047544 27103 net.cpp:156] Memory required for data: 731481200
I0403 12:58:23.047560 27103 layer_factory.hpp:77] Creating layer conv4
I0403 12:58:23.047588 27103 net.cpp:91] Creating Layer conv4
I0403 12:58:23.047607 27103 net.cpp:425] conv4 <- conv3
I0403 12:58:23.047631 27103 net.cpp:399] conv4 -> conv4
I0403 12:58:23.079042 27103 net.cpp:141] Setting up conv4
I0403 12:58:23.079116 27103 net.cpp:148] Top shape: 100 384 13 13 (6489600)
I0403 12:58:23.079167 27103 net.cpp:156] Memory required for data: 757439600
I0403 12:58:23.079191 27103 layer_factory.hpp:77] Creating layer relu4
I0403 12:58:23.079215 27103 net.cpp:91] Creating Layer relu4
I0403 12:58:23.079233 27103 net.cpp:425] relu4 <- conv4
I0403 12:58:23.079262 27103 net.cpp:386] relu4 -> conv4 (in-place)
I0403 12:58:23.079550 27103 net.cpp:141] Setting up relu4
I0403 12:58:23.079582 27103 net.cpp:148] Top shape: 100 384 13 13 (6489600)
I0403 12:58:23.079601 27103 net.cpp:156] Memory required for data: 783398000
I0403 12:58:23.079619 27103 layer_factory.hpp:77] Creating layer conv5
I0403 12:58:23.079648 27103 net.cpp:91] Creating Layer conv5
I0403 12:58:23.079666 27103 net.cpp:425] conv5 <- conv4
I0403 12:58:23.079687 27103 net.cpp:399] conv5 -> conv5
I0403 12:58:23.101227 27103 net.cpp:141] Setting up conv5
I0403 12:58:23.101291 27103 net.cpp:148] Top shape: 100 256 13 13 (4326400)
I0403 12:58:23.101311 27103 net.cpp:156] Memory required for data: 800703600
I0403 12:58:23.101338 27103 layer_factory.hpp:77] Creating layer relu5
I0403 12:58:23.101362 27103 net.cpp:91] Creating Layer relu5
I0403 12:58:23.101382 27103 net.cpp:425] relu5 <- conv5
I0403 12:58:23.101403 27103 net.cpp:386] relu5 -> conv5 (in-place)
I0403 12:58:23.101704 27103 net.cpp:141] Setting up relu5
I0403 12:58:23.101733 27103 net.cpp:148] Top shape: 100 256 13 13 (4326400)
I0403 12:58:23.101753 27103 net.cpp:156] Memory required for data: 818009200
I0403 12:58:23.101771 27103 layer_factory.hpp:77] Creating layer pool5
I0403 12:58:23.101799 27103 net.cpp:91] Creating Layer pool5
I0403 12:58:23.101817 27103 net.cpp:425] pool5 <- conv5
I0403 12:58:23.101837 27103 net.cpp:399] pool5 -> pool5
I0403 12:58:23.101910 27103 net.cpp:141] Setting up pool5
I0403 12:58:23.101936 27103 net.cpp:148] Top shape: 100 256 6 6 (921600)
I0403 12:58:23.101953 27103 net.cpp:156] Memory required for data: 821695600
I0403 12:58:23.101969 27103 layer_factory.hpp:77] Creating layer fc6
I0403 12:58:23.102000 27103 net.cpp:91] Creating Layer fc6
I0403 12:58:23.102020 27103 net.cpp:425] fc6 <- pool5
I0403 12:58:23.102041 27103 net.cpp:399] fc6 -> fc6
I0403 12:58:24.672876 27103 net.cpp:141] Setting up fc6
I0403 12:58:24.672956 27103 net.cpp:148] Top shape: 100 4096 (409600)
I0403 12:58:24.672973 27103 net.cpp:156] Memory required for data: 823334000
I0403 12:58:24.672996 27103 layer_factory.hpp:77] Creating layer relu6
I0403 12:58:24.673020 27103 net.cpp:91] Creating Layer relu6
I0403 12:58:24.673040 27103 net.cpp:425] relu6 <- fc6
I0403 12:58:24.673060 27103 net.cpp:386] relu6 -> fc6 (in-place)
I0403 12:58:24.673290 27103 net.cpp:141] Setting up relu6
I0403 12:58:24.673316 27103 net.cpp:148] Top shape: 100 4096 (409600)
I0403 12:58:24.673331 27103 net.cpp:156] Memory required for data: 824972400
I0403 12:58:24.673346 27103 layer_factory.hpp:77] Creating layer drop6
I0403 12:58:24.673365 27103 net.cpp:91] Creating Layer drop6
I0403 12:58:24.673382 27103 net.cpp:425] drop6 <- fc6
I0403 12:58:24.673401 27103 net.cpp:386] drop6 -> fc6 (in-place)
I0403 12:58:24.673454 27103 net.cpp:141] Setting up drop6
I0403 12:58:24.673480 27103 net.cpp:148] Top shape: 100 4096 (409600)
I0403 12:58:24.673496 27103 net.cpp:156] Memory required for data: 826610800
I0403 12:58:24.673512 27103 layer_factory.hpp:77] Creating layer fc7
I0403 12:58:24.673532 27103 net.cpp:91] Creating Layer fc7
I0403 12:58:24.673548 27103 net.cpp:425] fc7 <- fc6
I0403 12:58:24.673569 27103 net.cpp:399] fc7 -> fc7
I0403 12:58:25.359489 27103 net.cpp:141] Setting up fc7
I0403 12:58:25.359556 27103 net.cpp:148] Top shape: 100 4096 (409600)
I0403 12:58:25.359572 27103 net.cpp:156] Memory required for data: 828249200
I0403 12:58:25.359594 27103 layer_factory.hpp:77] Creating layer relu7
I0403 12:58:25.359616 27103 net.cpp:91] Creating Layer relu7
I0403 12:58:25.359634 27103 net.cpp:425] relu7 <- fc7
I0403 12:58:25.359657 27103 net.cpp:386] relu7 -> fc7 (in-place)
I0403 12:58:25.360054 27103 net.cpp:141] Setting up relu7
I0403 12:58:25.360083 27103 net.cpp:148] Top shape: 100 4096 (409600)
I0403 12:58:25.360131 27103 net.cpp:156] Memory required for data: 829887600
I0403 12:58:25.360147 27103 layer_factory.hpp:77] Creating layer drop7
I0403 12:58:25.360167 27103 net.cpp:91] Creating Layer drop7
I0403 12:58:25.360182 27103 net.cpp:425] drop7 <- fc7
I0403 12:58:25.360201 27103 net.cpp:386] drop7 -> fc7 (in-place)
I0403 12:58:25.360263 27103 net.cpp:141] Setting up drop7
I0403 12:58:25.360287 27103 net.cpp:148] Top shape: 100 4096 (409600)
I0403 12:58:25.360302 27103 net.cpp:156] Memory required for data: 831526000
I0403 12:58:25.360318 27103 layer_factory.hpp:77] Creating layer fc8_plantvillage
I0403 12:58:25.360340 27103 net.cpp:91] Creating Layer fc8_plantvillage
I0403 12:58:25.360357 27103 net.cpp:425] fc8_plantvillage <- fc7
I0403 12:58:25.360378 27103 net.cpp:399] fc8_plantvillage -> fc8_plantvillage
I0403 12:58:25.367032 27103 net.cpp:141] Setting up fc8_plantvillage
I0403 12:58:25.367060 27103 net.cpp:148] Top shape: 100 38 (3800)
I0403 12:58:25.367076 27103 net.cpp:156] Memory required for data: 831541200
I0403 12:58:25.367094 27103 layer_factory.hpp:77] Creating layer fc8_plantvillage_fc8_plantvillage_0_split
I0403 12:58:25.367112 27103 net.cpp:91] Creating Layer fc8_plantvillage_fc8_plantvillage_0_split
I0403 12:58:25.367128 27103 net.cpp:425] fc8_plantvillage_fc8_plantvillage_0_split <- fc8_plantvillage
I0403 12:58:25.367151 27103 net.cpp:399] fc8_plantvillage_fc8_plantvillage_0_split -> fc8_plantvillage_fc8_plantvillage_0_split_0
I0403 12:58:25.367173 27103 net.cpp:399] fc8_plantvillage_fc8_plantvillage_0_split -> fc8_plantvillage_fc8_plantvillage_0_split_1
I0403 12:58:25.367193 27103 net.cpp:399] fc8_plantvillage_fc8_plantvillage_0_split -> fc8_plantvillage_fc8_plantvillage_0_split_2
I0403 12:58:25.367288 27103 net.cpp:141] Setting up fc8_plantvillage_fc8_plantvillage_0_split
I0403 12:58:25.367313 27103 net.cpp:148] Top shape: 100 38 (3800)
I0403 12:58:25.367329 27103 net.cpp:148] Top shape: 100 38 (3800)
I0403 12:58:25.367346 27103 net.cpp:148] Top shape: 100 38 (3800)
I0403 12:58:25.367359 27103 net.cpp:156] Memory required for data: 831586800
I0403 12:58:25.367374 27103 layer_factory.hpp:77] Creating layer prob
I0403 12:58:25.367393 27103 net.cpp:91] Creating Layer prob
I0403 12:58:25.367409 27103 net.cpp:425] prob <- fc8_plantvillage_fc8_plantvillage_0_split_0
I0403 12:58:25.367431 27103 net.cpp:399] prob -> prob
I0403 12:58:25.367666 27103 net.cpp:141] Setting up prob
I0403 12:58:25.367696 27103 net.cpp:148] Top shape: 100 38 (3800)
I0403 12:58:25.367710 27103 net.cpp:156] Memory required for data: 831602000
I0403 12:58:25.367725 27103 layer_factory.hpp:77] Creating layer hdf5out
I0403 12:58:25.367744 27103 net.cpp:91] Creating Layer hdf5out
I0403 12:58:25.367759 27103 net.cpp:425] hdf5out <- prob
I0403 12:58:25.367777 27103 net.cpp:425] hdf5out <- label_data_1_split_0
I0403 12:58:25.371525 27103 net.cpp:141] Setting up hdf5out
…
