…
I0403 13:22:32.849519 10995 net.cpp:313] The NetState phase (1) differed from the phase (0) specified by a rule in layer data
I0403 13:22:32.849829 10995 net.cpp:49] Initializing net from parameters: 
state {
  phase: TEST
}
layer {
  name: "data"
  type: "Data"
  top: "data"
  top: "label"
  include {
    phase: TEST
  }
  transform_param {
    crop_size: 227
    mean_file: "/home/mohanty/data/final_dataset/lmdb/segmented-80-20/mean.binaryproto"
  }
  data_param {
    source: "/home/mohanty/data/final_dataset/lmdb/segmented-80-20/test_db"
    batch_size: 100
    backend: LMDB
  }
}
layer {
  name: "conv1"
  type: "Convolution"
  bottom: "data"
  top: "conv1"
  param {
    lr_mult: 1
    decay_mult: 1
  }
  param {
    lr_mult: 2
    decay_mult: 0
  }
  convolution_param {
    num_output: 96
    kernel_size: 11
    stride: 4
    weight_filler {
      type: "gaussian"
      std: 0.01
    }
    bias_filler {
      type: "constant"
      value: 0
    }
  }
}
layer {
  name: "relu1"
  type: "ReLU"
  bottom: "conv1"
  top: "conv1"
}
layer {
  name: "norm1"
  type: "LRN"
  bottom: "conv1"
  top: "norm1"
  lrn_param {
    local_size: 5
    alpha: 0.0001
    beta: 0.75
  }
}
layer {
  name: "pool1"
  type: "Pooling"
  bottom: "norm1"
  top: "pool1"
  pooling_param {
    pool: MAX
    kernel_size: 3
    stride: 2
  }
}
layer {
  name: "conv2"
  type: "Convolution"
  bottom: "pool1"
  top: "conv2"
  param {
    lr_mult: 1
    decay_mult: 1
  }
  param {
    lr_mult: 2
    decay_mult: 0
  }
  convolution_param {
    num_output: 256
    pad: 2
    kernel_size: 5
    group: 2
    weight_filler {
      type: "gaussian"
      std: 0.01
    }
    bias_filler {
      type: "constant"
      value: 0.1
    }
  }
}
layer {
  name: "relu2"
  type: "ReLU"
  bottom: "conv2"
  top: "conv2"
}
layer {
  name: "norm2"
  type: "LRN"
  bottom: "conv2"
  top: "norm2"
  lrn_param {
    local_size: 5
    alpha: 0.0001
    beta: 0.75
  }
}
layer {
  name: "pool2"
  type: "Pooling"
  bottom: "norm2"
  top: "pool2"
  pooling_param {
    pool: MAX
    kernel_size: 3
    stride: 2
  }
}
layer {
  name: "conv3"
  type: "Convolution"
  bottom: "pool2"
  top: "conv3"
  param {
    lr_mult: 1
    decay_mult: 1
  }
  param {
    lr_mult: 2
    decay_mult: 0
  }
  convolution_param {
    num_output: 384
    pad: 1
    kernel_size: 3
    weight_filler {
      type: "gaussian"
      std: 0.01
    }
    bias_filler {
      type: "constant"
      value: 0
    }
  }
}
layer {
  name: "relu3"
  type: "ReLU"
  bottom: "conv3"
  top: "conv3"
}
layer {
  name: "conv4"
  type: "Convolution"
  bottom: "conv3"
  top: "conv4"
  param {
    lr_mult: 1
    decay_mult: 1
  }
  param {
    lr_mult: 2
    decay_mult: 0
  }
  convolution_param {
    num_output: 384
    pad: 1
    kernel_size: 3
    group: 2
    weight_filler {
      type: "gaussian"
      std: 0.01
    }
    bias_filler {
      type: "constant"
      value: 0.1
    }
  }
}
layer {
  name: "relu4"
  type: "ReLU"
  bottom: "conv4"
  top: "conv4"
}
layer {
  name: "conv5"
  type: "Convolution"
  bottom: "conv4"
  top: "conv5"
  param {
    lr_mult: 1
    decay_mult: 1
  }
  param {
    lr_mult: 2
    decay_mult: 0
  }
  convolution_param {
    num_output: 256
    pad: 1
    kernel_size: 3
    group: 2
    weight_filler {
      type: "gaussian"
      std: 0.01
    }
    bias_filler {
      type: "constant"
      value: 0.1
    }
  }
}
layer {
  name: "relu5"
  type: "ReLU"
  bottom: "conv5"
  top: "conv5"
}
layer {
  name: "pool5"
  type: "Pooling"
  bottom: "conv5"
  top: "pool5"
  pooling_param {
    pool: MAX
    kernel_size: 3
    stride: 2
  }
}
layer {
  name: "fc6"
  type: "InnerProduct"
  bottom: "pool5"
  top: "fc6"
  param {
    lr_mult: 1
    decay_mult: 1
  }
  param {
    lr_mult: 2
    decay_mult: 0
  }
  inner_product_param {
    num_output: 4096
    weight_filler {
      type: "gaussian"
      std: 0.005
    }
    bias_filler {
      type: "constant"
      value: 0.1
    }
  }
}
layer {
  name: "relu6"
  type: "ReLU"
  bottom: "fc6"
  top: "fc6"
}
layer {
  name: "drop6"
  type: "Dropout"
  bottom: "fc6"
  top: "fc6"
  dropout_param {
    dropout_ratio: 0.5
  }
}
layer {
  name: "fc7"
  type: "InnerProduct"
  bottom: "fc6"
  top: "fc7"
  param {
    lr_mult: 1
    decay_mult: 1
  }
  param {
    lr_mult: 2
    decay_mult: 0
  }
  inner_product_param {
    num_output: 4096
    weight_filler {
      type: "gaussian"
      std: 0.005
    }
    bias_filler {
      type: "constant"
      value: 0.1
    }
  }
}
layer {
  name: "relu7"
  type: "ReLU"
  bottom: "fc7"
  top: "fc7"
}
layer {
  name: "drop7"
  type: "Dropout"
  bottom: "fc7"
  top: "fc7"
  dropout_param {
    dropout_ratio: 0.5
  }
}
layer {
  name: "fc8_plantvillage"
  type: "InnerProduct"
  bottom: "fc7"
  top: "fc8_plantvillage"
  param {
    lr_mult: 1
    decay_mult: 1
  }
  param {
    lr_mult: 2
    decay_mult: 0
  }
  inner_product_param {
    num_output: 38
    weight_filler {
      type: "gaussian"
      std: 0.01
    }
    bias_filler {
      type: "constant"
      value: 0
    }
  }
}
layer {
  name: "prob"
  type: "Softmax"
  bottom: "fc8_plantvillage"
  top: "prob"
  include {
    phase: TEST
  }
}
layer {
  name: "hdf5out"
  type: "HDF5Output"
  bottom: "prob"
  bottom: "label"
  include {
    phase: TEST
  }
  hdf5_output_param {
    file_name: "hdf5_dumps/iter_4785.h5"
  }
}
layer {
  name: "loss"
  type: "SoftmaxWithLoss"
  bottom: "fc8_plantvillage"
  bottom: "label"
  top: "loss"
}
layer {
  name: "accuracy"
  type: "Accuracy"
  bottom: "fc8_plantvillage"
  bottom: "label"
  top: "accuracy"
  include {
    phase: TEST
  }
}
I0403 13:22:32.850396 10995 layer_factory.hpp:77] Creating layer data
I0403 13:22:32.851063 10995 net.cpp:91] Creating Layer data
I0403 13:22:32.851094 10995 net.cpp:399] data -> data
I0403 13:22:32.851142 10995 net.cpp:399] data -> label
I0403 13:22:32.851178 10995 data_transformer.cpp:25] Loading mean file from: /home/mohanty/data/final_dataset/lmdb/segmented-80-20/mean.binaryproto
I0403 13:22:32.854416 10997 db_lmdb.cpp:38] Opened lmdb /home/mohanty/data/final_dataset/lmdb/segmented-80-20/test_db
I0403 13:22:32.868078 10995 data_layer.cpp:41] output data size: 100,3,227,227
I0403 13:22:33.089776 10995 net.cpp:141] Setting up data
I0403 13:22:33.089845 10995 net.cpp:148] Top shape: 100 3 227 227 (15458700)
I0403 13:22:33.089869 10995 net.cpp:148] Top shape: 100 (100)
I0403 13:22:33.089885 10995 net.cpp:156] Memory required for data: 61835200
I0403 13:22:33.089925 10995 layer_factory.hpp:77] Creating layer label_data_1_split
I0403 13:22:33.089951 10995 net.cpp:91] Creating Layer label_data_1_split
I0403 13:22:33.089978 10995 net.cpp:425] label_data_1_split <- label
I0403 13:22:33.090008 10995 net.cpp:399] label_data_1_split -> label_data_1_split_0
I0403 13:22:33.090034 10995 net.cpp:399] label_data_1_split -> label_data_1_split_1
I0403 13:22:33.090052 10995 net.cpp:399] label_data_1_split -> label_data_1_split_2
I0403 13:22:33.090111 10995 net.cpp:141] Setting up label_data_1_split
I0403 13:22:33.090133 10995 net.cpp:148] Top shape: 100 (100)
I0403 13:22:33.090148 10995 net.cpp:148] Top shape: 100 (100)
I0403 13:22:33.090163 10995 net.cpp:148] Top shape: 100 (100)
I0403 13:22:33.090176 10995 net.cpp:156] Memory required for data: 61836400
I0403 13:22:33.090189 10995 layer_factory.hpp:77] Creating layer conv1
I0403 13:22:33.090219 10995 net.cpp:91] Creating Layer conv1
I0403 13:22:33.090235 10995 net.cpp:425] conv1 <- data
I0403 13:22:33.090252 10995 net.cpp:399] conv1 -> conv1
I0403 13:22:33.232772 10995 net.cpp:141] Setting up conv1
I0403 13:22:33.232848 10995 net.cpp:148] Top shape: 100 96 55 55 (29040000)
I0403 13:22:33.232867 10995 net.cpp:156] Memory required for data: 177996400
I0403 13:22:33.232895 10995 layer_factory.hpp:77] Creating layer relu1
I0403 13:22:33.232921 10995 net.cpp:91] Creating Layer relu1
I0403 13:22:33.232939 10995 net.cpp:425] relu1 <- conv1
I0403 13:22:33.232959 10995 net.cpp:386] relu1 -> conv1 (in-place)
I0403 13:22:33.233220 10995 net.cpp:141] Setting up relu1
I0403 13:22:33.233245 10995 net.cpp:148] Top shape: 100 96 55 55 (29040000)
I0403 13:22:33.233289 10995 net.cpp:156] Memory required for data: 294156400
I0403 13:22:33.233304 10995 layer_factory.hpp:77] Creating layer norm1
I0403 13:22:33.233331 10995 net.cpp:91] Creating Layer norm1
I0403 13:22:33.233348 10995 net.cpp:425] norm1 <- conv1
I0403 13:22:33.233366 10995 net.cpp:399] norm1 -> norm1
I0403 13:22:33.233678 10995 net.cpp:141] Setting up norm1
I0403 13:22:33.233705 10995 net.cpp:148] Top shape: 100 96 55 55 (29040000)
I0403 13:22:33.233719 10995 net.cpp:156] Memory required for data: 410316400
I0403 13:22:33.233732 10995 layer_factory.hpp:77] Creating layer pool1
I0403 13:22:33.233757 10995 net.cpp:91] Creating Layer pool1
I0403 13:22:33.233772 10995 net.cpp:425] pool1 <- norm1
I0403 13:22:33.233789 10995 net.cpp:399] pool1 -> pool1
I0403 13:22:33.233857 10995 net.cpp:141] Setting up pool1
I0403 13:22:33.233880 10995 net.cpp:148] Top shape: 100 96 27 27 (6998400)
I0403 13:22:33.233893 10995 net.cpp:156] Memory required for data: 438310000
I0403 13:22:33.233907 10995 layer_factory.hpp:77] Creating layer conv2
I0403 13:22:33.233933 10995 net.cpp:91] Creating Layer conv2
I0403 13:22:33.233949 10995 net.cpp:425] conv2 <- pool1
I0403 13:22:33.233968 10995 net.cpp:399] conv2 -> conv2
I0403 13:22:33.248065 10995 net.cpp:141] Setting up conv2
I0403 13:22:33.248097 10995 net.cpp:148] Top shape: 100 256 27 27 (18662400)
I0403 13:22:33.248113 10995 net.cpp:156] Memory required for data: 512959600
I0403 13:22:33.248133 10995 layer_factory.hpp:77] Creating layer relu2
I0403 13:22:33.248154 10995 net.cpp:91] Creating Layer relu2
I0403 13:22:33.248169 10995 net.cpp:425] relu2 <- conv2
I0403 13:22:33.248185 10995 net.cpp:386] relu2 -> conv2 (in-place)
I0403 13:22:33.248447 10995 net.cpp:141] Setting up relu2
I0403 13:22:33.248477 10995 net.cpp:148] Top shape: 100 256 27 27 (18662400)
I0403 13:22:33.248492 10995 net.cpp:156] Memory required for data: 587609200
I0403 13:22:33.248507 10995 layer_factory.hpp:77] Creating layer norm2
I0403 13:22:33.248529 10995 net.cpp:91] Creating Layer norm2
I0403 13:22:33.248550 10995 net.cpp:425] norm2 <- conv2
I0403 13:22:33.248569 10995 net.cpp:399] norm2 -> norm2
I0403 13:22:33.248760 10995 net.cpp:141] Setting up norm2
I0403 13:22:33.248785 10995 net.cpp:148] Top shape: 100 256 27 27 (18662400)
I0403 13:22:33.248798 10995 net.cpp:156] Memory required for data: 662258800
I0403 13:22:33.248811 10995 layer_factory.hpp:77] Creating layer pool2
I0403 13:22:33.248831 10995 net.cpp:91] Creating Layer pool2
I0403 13:22:33.248845 10995 net.cpp:425] pool2 <- norm2
I0403 13:22:33.248862 10995 net.cpp:399] pool2 -> pool2
I0403 13:22:33.248910 10995 net.cpp:141] Setting up pool2
I0403 13:22:33.248932 10995 net.cpp:148] Top shape: 100 256 13 13 (4326400)
I0403 13:22:33.248946 10995 net.cpp:156] Memory required for data: 679564400
I0403 13:22:33.248960 10995 layer_factory.hpp:77] Creating layer conv3
I0403 13:22:33.248980 10995 net.cpp:91] Creating Layer conv3
I0403 13:22:33.248996 10995 net.cpp:425] conv3 <- pool2
I0403 13:22:33.249016 10995 net.cpp:399] conv3 -> conv3
I0403 13:22:33.285025 10995 net.cpp:141] Setting up conv3
I0403 13:22:33.285079 10995 net.cpp:148] Top shape: 100 384 13 13 (6489600)
I0403 13:22:33.285094 10995 net.cpp:156] Memory required for data: 705522800
I0403 13:22:33.285115 10995 layer_factory.hpp:77] Creating layer relu3
I0403 13:22:33.285136 10995 net.cpp:91] Creating Layer relu3
I0403 13:22:33.285152 10995 net.cpp:425] relu3 <- conv3
I0403 13:22:33.285169 10995 net.cpp:386] relu3 -> conv3 (in-place)
I0403 13:22:33.285446 10995 net.cpp:141] Setting up relu3
I0403 13:22:33.285472 10995 net.cpp:148] Top shape: 100 384 13 13 (6489600)
I0403 13:22:33.285487 10995 net.cpp:156] Memory required for data: 731481200
I0403 13:22:33.285502 10995 layer_factory.hpp:77] Creating layer conv4
I0403 13:22:33.285527 10995 net.cpp:91] Creating Layer conv4
I0403 13:22:33.285560 10995 net.cpp:425] conv4 <- conv3
I0403 13:22:33.285581 10995 net.cpp:399] conv4 -> conv4
I0403 13:22:33.313885 10995 net.cpp:141] Setting up conv4
I0403 13:22:33.313925 10995 net.cpp:148] Top shape: 100 384 13 13 (6489600)
I0403 13:22:33.313968 10995 net.cpp:156] Memory required for data: 757439600
I0403 13:22:33.313987 10995 layer_factory.hpp:77] Creating layer relu4
I0403 13:22:33.314007 10995 net.cpp:91] Creating Layer relu4
I0403 13:22:33.314020 10995 net.cpp:425] relu4 <- conv4
I0403 13:22:33.314041 10995 net.cpp:386] relu4 -> conv4 (in-place)
I0403 13:22:33.314323 10995 net.cpp:141] Setting up relu4
I0403 13:22:33.314349 10995 net.cpp:148] Top shape: 100 384 13 13 (6489600)
I0403 13:22:33.314363 10995 net.cpp:156] Memory required for data: 783398000
I0403 13:22:33.314378 10995 layer_factory.hpp:77] Creating layer conv5
I0403 13:22:33.314404 10995 net.cpp:91] Creating Layer conv5
I0403 13:22:33.314419 10995 net.cpp:425] conv5 <- conv4
I0403 13:22:33.314438 10995 net.cpp:399] conv5 -> conv5
I0403 13:22:33.333773 10995 net.cpp:141] Setting up conv5
I0403 13:22:33.333807 10995 net.cpp:148] Top shape: 100 256 13 13 (4326400)
I0403 13:22:33.333822 10995 net.cpp:156] Memory required for data: 800703600
I0403 13:22:33.333844 10995 layer_factory.hpp:77] Creating layer relu5
I0403 13:22:33.333865 10995 net.cpp:91] Creating Layer relu5
I0403 13:22:33.333881 10995 net.cpp:425] relu5 <- conv5
I0403 13:22:33.333897 10995 net.cpp:386] relu5 -> conv5 (in-place)
I0403 13:22:33.334159 10995 net.cpp:141] Setting up relu5
I0403 13:22:33.334184 10995 net.cpp:148] Top shape: 100 256 13 13 (4326400)
I0403 13:22:33.334199 10995 net.cpp:156] Memory required for data: 818009200
I0403 13:22:33.334213 10995 layer_factory.hpp:77] Creating layer pool5
I0403 13:22:33.334238 10995 net.cpp:91] Creating Layer pool5
I0403 13:22:33.334254 10995 net.cpp:425] pool5 <- conv5
I0403 13:22:33.334270 10995 net.cpp:399] pool5 -> pool5
I0403 13:22:33.334328 10995 net.cpp:141] Setting up pool5
I0403 13:22:33.334352 10995 net.cpp:148] Top shape: 100 256 6 6 (921600)
I0403 13:22:33.334364 10995 net.cpp:156] Memory required for data: 821695600
I0403 13:22:33.334378 10995 layer_factory.hpp:77] Creating layer fc6
I0403 13:22:33.334405 10995 net.cpp:91] Creating Layer fc6
I0403 13:22:33.334422 10995 net.cpp:425] fc6 <- pool5
I0403 13:22:33.334439 10995 net.cpp:399] fc6 -> fc6
I0403 13:22:34.819460 10995 net.cpp:141] Setting up fc6
I0403 13:22:34.819545 10995 net.cpp:148] Top shape: 100 4096 (409600)
I0403 13:22:34.819561 10995 net.cpp:156] Memory required for data: 823334000
I0403 13:22:34.819581 10995 layer_factory.hpp:77] Creating layer relu6
I0403 13:22:34.819602 10995 net.cpp:91] Creating Layer relu6
I0403 13:22:34.819617 10995 net.cpp:425] relu6 <- fc6
I0403 13:22:34.819636 10995 net.cpp:386] relu6 -> fc6 (in-place)
I0403 13:22:34.819859 10995 net.cpp:141] Setting up relu6
I0403 13:22:34.819882 10995 net.cpp:148] Top shape: 100 4096 (409600)
I0403 13:22:34.819895 10995 net.cpp:156] Memory required for data: 824972400
I0403 13:22:34.819910 10995 layer_factory.hpp:77] Creating layer drop6
I0403 13:22:34.819929 10995 net.cpp:91] Creating Layer drop6
I0403 13:22:34.819944 10995 net.cpp:425] drop6 <- fc6
I0403 13:22:34.819959 10995 net.cpp:386] drop6 -> fc6 (in-place)
I0403 13:22:34.820008 10995 net.cpp:141] Setting up drop6
I0403 13:22:34.820032 10995 net.cpp:148] Top shape: 100 4096 (409600)
I0403 13:22:34.820046 10995 net.cpp:156] Memory required for data: 826610800
I0403 13:22:34.820061 10995 layer_factory.hpp:77] Creating layer fc7
I0403 13:22:34.820080 10995 net.cpp:91] Creating Layer fc7
I0403 13:22:34.820093 10995 net.cpp:425] fc7 <- fc6
I0403 13:22:34.820113 10995 net.cpp:399] fc7 -> fc7
I0403 13:22:35.470785 10995 net.cpp:141] Setting up fc7
I0403 13:22:35.470863 10995 net.cpp:148] Top shape: 100 4096 (409600)
I0403 13:22:35.470877 10995 net.cpp:156] Memory required for data: 828249200
I0403 13:22:35.470897 10995 layer_factory.hpp:77] Creating layer relu7
I0403 13:22:35.470918 10995 net.cpp:91] Creating Layer relu7
I0403 13:22:35.470935 10995 net.cpp:425] relu7 <- fc7
I0403 13:22:35.470955 10995 net.cpp:386] relu7 -> fc7 (in-place)
I0403 13:22:35.471338 10995 net.cpp:141] Setting up relu7
I0403 13:22:35.471362 10995 net.cpp:148] Top shape: 100 4096 (409600)
I0403 13:22:35.471417 10995 net.cpp:156] Memory required for data: 829887600
I0403 13:22:35.471432 10995 layer_factory.hpp:77] Creating layer drop7
I0403 13:22:35.471449 10995 net.cpp:91] Creating Layer drop7
I0403 13:22:35.471462 10995 net.cpp:425] drop7 <- fc7
I0403 13:22:35.471480 10995 net.cpp:386] drop7 -> fc7 (in-place)
I0403 13:22:35.471524 10995 net.cpp:141] Setting up drop7
I0403 13:22:35.471550 10995 net.cpp:148] Top shape: 100 4096 (409600)
I0403 13:22:35.471565 10995 net.cpp:156] Memory required for data: 831526000
I0403 13:22:35.471577 10995 layer_factory.hpp:77] Creating layer fc8_plantvillage
I0403 13:22:35.471596 10995 net.cpp:91] Creating Layer fc8_plantvillage
I0403 13:22:35.471608 10995 net.cpp:425] fc8_plantvillage <- fc7
I0403 13:22:35.471631 10995 net.cpp:399] fc8_plantvillage -> fc8_plantvillage
I0403 13:22:35.478019 10995 net.cpp:141] Setting up fc8_plantvillage
I0403 13:22:35.478046 10995 net.cpp:148] Top shape: 100 38 (3800)
I0403 13:22:35.478061 10995 net.cpp:156] Memory required for data: 831541200
I0403 13:22:35.478077 10995 layer_factory.hpp:77] Creating layer fc8_plantvillage_fc8_plantvillage_0_split
I0403 13:22:35.478096 10995 net.cpp:91] Creating Layer fc8_plantvillage_fc8_plantvillage_0_split
I0403 13:22:35.478111 10995 net.cpp:425] fc8_plantvillage_fc8_plantvillage_0_split <- fc8_plantvillage
I0403 13:22:35.478127 10995 net.cpp:399] fc8_plantvillage_fc8_plantvillage_0_split -> fc8_plantvillage_fc8_plantvillage_0_split_0
I0403 13:22:35.478145 10995 net.cpp:399] fc8_plantvillage_fc8_plantvillage_0_split -> fc8_plantvillage_fc8_plantvillage_0_split_1
I0403 13:22:35.478164 10995 net.cpp:399] fc8_plantvillage_fc8_plantvillage_0_split -> fc8_plantvillage_fc8_plantvillage_0_split_2
I0403 13:22:35.478237 10995 net.cpp:141] Setting up fc8_plantvillage_fc8_plantvillage_0_split
I0403 13:22:35.478260 10995 net.cpp:148] Top shape: 100 38 (3800)
I0403 13:22:35.478274 10995 net.cpp:148] Top shape: 100 38 (3800)
I0403 13:22:35.478287 10995 net.cpp:148] Top shape: 100 38 (3800)
I0403 13:22:35.478312 10995 net.cpp:156] Memory required for data: 831586800
I0403 13:22:35.478327 10995 layer_factory.hpp:77] Creating layer prob
I0403 13:22:35.478343 10995 net.cpp:91] Creating Layer prob
I0403 13:22:35.478358 10995 net.cpp:425] prob <- fc8_plantvillage_fc8_plantvillage_0_split_0
I0403 13:22:35.478374 10995 net.cpp:399] prob -> prob
I0403 13:22:35.478607 10995 net.cpp:141] Setting up prob
I0403 13:22:35.478631 10995 net.cpp:148] Top shape: 100 38 (3800)
I0403 13:22:35.478644 10995 net.cpp:156] Memory required for data: 831602000
I0403 13:22:35.478658 10995 layer_factory.hpp:77] Creating layer hdf5out
I0403 13:22:35.478677 10995 net.cpp:91] Creating Layer hdf5out
I0403 13:22:35.478690 10995 net.cpp:425] hdf5out <- prob
I0403 13:22:35.478704 10995 net.cpp:425] hdf5out <- label_data_1_split_0
I0403 13:22:35.481180 10995 net.cpp:141] Setting up hdf5out
…
