…
I0403 13:23:42.277654 11137 net.cpp:313] The NetState phase (1) differed from the phase (0) specified by a rule in layer data
I0403 13:23:42.277976 11137 net.cpp:49] Initializing net from parameters: 
state {
  phase: TEST
}
layer {
  name: "data"
  type: "Data"
  top: "data"
  top: "label"
  include {
    phase: TEST
  }
  transform_param {
    crop_size: 227
    mean_file: "/home/mohanty/data/final_dataset/lmdb/segmented-80-20/mean.binaryproto"
  }
  data_param {
    source: "/home/mohanty/data/final_dataset/lmdb/segmented-80-20/test_db"
    batch_size: 100
    backend: LMDB
  }
}
layer {
  name: "conv1"
  type: "Convolution"
  bottom: "data"
  top: "conv1"
  param {
    lr_mult: 1
    decay_mult: 1
  }
  param {
    lr_mult: 2
    decay_mult: 0
  }
  convolution_param {
    num_output: 96
    kernel_size: 11
    stride: 4
    weight_filler {
      type: "gaussian"
      std: 0.01
    }
    bias_filler {
      type: "constant"
      value: 0
    }
  }
}
layer {
  name: "relu1"
  type: "ReLU"
  bottom: "conv1"
  top: "conv1"
}
layer {
  name: "norm1"
  type: "LRN"
  bottom: "conv1"
  top: "norm1"
  lrn_param {
    local_size: 5
    alpha: 0.0001
    beta: 0.75
  }
}
layer {
  name: "pool1"
  type: "Pooling"
  bottom: "norm1"
  top: "pool1"
  pooling_param {
    pool: MAX
    kernel_size: 3
    stride: 2
  }
}
layer {
  name: "conv2"
  type: "Convolution"
  bottom: "pool1"
  top: "conv2"
  param {
    lr_mult: 1
    decay_mult: 1
  }
  param {
    lr_mult: 2
    decay_mult: 0
  }
  convolution_param {
    num_output: 256
    pad: 2
    kernel_size: 5
    group: 2
    weight_filler {
      type: "gaussian"
      std: 0.01
    }
    bias_filler {
      type: "constant"
      value: 0.1
    }
  }
}
layer {
  name: "relu2"
  type: "ReLU"
  bottom: "conv2"
  top: "conv2"
}
layer {
  name: "norm2"
  type: "LRN"
  bottom: "conv2"
  top: "norm2"
  lrn_param {
    local_size: 5
    alpha: 0.0001
    beta: 0.75
  }
}
layer {
  name: "pool2"
  type: "Pooling"
  bottom: "norm2"
  top: "pool2"
  pooling_param {
    pool: MAX
    kernel_size: 3
    stride: 2
  }
}
layer {
  name: "conv3"
  type: "Convolution"
  bottom: "pool2"
  top: "conv3"
  param {
    lr_mult: 1
    decay_mult: 1
  }
  param {
    lr_mult: 2
    decay_mult: 0
  }
  convolution_param {
    num_output: 384
    pad: 1
    kernel_size: 3
    weight_filler {
      type: "gaussian"
      std: 0.01
    }
    bias_filler {
      type: "constant"
      value: 0
    }
  }
}
layer {
  name: "relu3"
  type: "ReLU"
  bottom: "conv3"
  top: "conv3"
}
layer {
  name: "conv4"
  type: "Convolution"
  bottom: "conv3"
  top: "conv4"
  param {
    lr_mult: 1
    decay_mult: 1
  }
  param {
    lr_mult: 2
    decay_mult: 0
  }
  convolution_param {
    num_output: 384
    pad: 1
    kernel_size: 3
    group: 2
    weight_filler {
      type: "gaussian"
      std: 0.01
    }
    bias_filler {
      type: "constant"
      value: 0.1
    }
  }
}
layer {
  name: "relu4"
  type: "ReLU"
  bottom: "conv4"
  top: "conv4"
}
layer {
  name: "conv5"
  type: "Convolution"
  bottom: "conv4"
  top: "conv5"
  param {
    lr_mult: 1
    decay_mult: 1
  }
  param {
    lr_mult: 2
    decay_mult: 0
  }
  convolution_param {
    num_output: 256
    pad: 1
    kernel_size: 3
    group: 2
    weight_filler {
      type: "gaussian"
      std: 0.01
    }
    bias_filler {
      type: "constant"
      value: 0.1
    }
  }
}
layer {
  name: "relu5"
  type: "ReLU"
  bottom: "conv5"
  top: "conv5"
}
layer {
  name: "pool5"
  type: "Pooling"
  bottom: "conv5"
  top: "pool5"
  pooling_param {
    pool: MAX
    kernel_size: 3
    stride: 2
  }
}
layer {
  name: "fc6"
  type: "InnerProduct"
  bottom: "pool5"
  top: "fc6"
  param {
    lr_mult: 1
    decay_mult: 1
  }
  param {
    lr_mult: 2
    decay_mult: 0
  }
  inner_product_param {
    num_output: 4096
    weight_filler {
      type: "gaussian"
      std: 0.005
    }
    bias_filler {
      type: "constant"
      value: 0.1
    }
  }
}
layer {
  name: "relu6"
  type: "ReLU"
  bottom: "fc6"
  top: "fc6"
}
layer {
  name: "drop6"
  type: "Dropout"
  bottom: "fc6"
  top: "fc6"
  dropout_param {
    dropout_ratio: 0.5
  }
}
layer {
  name: "fc7"
  type: "InnerProduct"
  bottom: "fc6"
  top: "fc7"
  param {
    lr_mult: 1
    decay_mult: 1
  }
  param {
    lr_mult: 2
    decay_mult: 0
  }
  inner_product_param {
    num_output: 4096
    weight_filler {
      type: "gaussian"
      std: 0.005
    }
    bias_filler {
      type: "constant"
      value: 0.1
    }
  }
}
layer {
  name: "relu7"
  type: "ReLU"
  bottom: "fc7"
  top: "fc7"
}
layer {
  name: "drop7"
  type: "Dropout"
  bottom: "fc7"
  top: "fc7"
  dropout_param {
    dropout_ratio: 0.5
  }
}
layer {
  name: "fc8_plantvillage"
  type: "InnerProduct"
  bottom: "fc7"
  top: "fc8_plantvillage"
  param {
    lr_mult: 1
    decay_mult: 1
  }
  param {
    lr_mult: 2
    decay_mult: 0
  }
  inner_product_param {
    num_output: 38
    weight_filler {
      type: "gaussian"
      std: 0.01
    }
    bias_filler {
      type: "constant"
      value: 0
    }
  }
}
layer {
  name: "prob"
  type: "Softmax"
  bottom: "fc8_plantvillage"
  top: "prob"
  include {
    phase: TEST
  }
}
layer {
  name: "hdf5out"
  type: "HDF5Output"
  bottom: "prob"
  bottom: "label"
  include {
    phase: TEST
  }
  hdf5_output_param {
    file_name: "hdf5_dumps/iter_6090.h5"
  }
}
layer {
  name: "loss"
  type: "SoftmaxWithLoss"
  bottom: "fc8_plantvillage"
  bottom: "label"
  top: "loss"
}
layer {
  name: "accuracy"
  type: "Accuracy"
  bottom: "fc8_plantvillage"
  bottom: "label"
  top: "accuracy"
  include {
    phase: TEST
  }
}
I0403 13:23:42.278591 11137 layer_factory.hpp:77] Creating layer data
I0403 13:23:42.279254 11137 net.cpp:91] Creating Layer data
I0403 13:23:42.279294 11137 net.cpp:399] data -> data
I0403 13:23:42.279341 11137 net.cpp:399] data -> label
I0403 13:23:42.279379 11137 data_transformer.cpp:25] Loading mean file from: /home/mohanty/data/final_dataset/lmdb/segmented-80-20/mean.binaryproto
I0403 13:23:42.282939 11140 db_lmdb.cpp:38] Opened lmdb /home/mohanty/data/final_dataset/lmdb/segmented-80-20/test_db
I0403 13:23:42.293894 11137 data_layer.cpp:41] output data size: 100,3,227,227
I0403 13:23:42.515697 11137 net.cpp:141] Setting up data
I0403 13:23:42.515769 11137 net.cpp:148] Top shape: 100 3 227 227 (15458700)
I0403 13:23:42.515794 11137 net.cpp:148] Top shape: 100 (100)
I0403 13:23:42.515808 11137 net.cpp:156] Memory required for data: 61835200
I0403 13:23:42.515836 11137 layer_factory.hpp:77] Creating layer label_data_1_split
I0403 13:23:42.515862 11137 net.cpp:91] Creating Layer label_data_1_split
I0403 13:23:42.515892 11137 net.cpp:425] label_data_1_split <- label
I0403 13:23:42.515920 11137 net.cpp:399] label_data_1_split -> label_data_1_split_0
I0403 13:23:42.515947 11137 net.cpp:399] label_data_1_split -> label_data_1_split_1
I0403 13:23:42.515967 11137 net.cpp:399] label_data_1_split -> label_data_1_split_2
I0403 13:23:42.516037 11137 net.cpp:141] Setting up label_data_1_split
I0403 13:23:42.516062 11137 net.cpp:148] Top shape: 100 (100)
I0403 13:23:42.516077 11137 net.cpp:148] Top shape: 100 (100)
I0403 13:23:42.516093 11137 net.cpp:148] Top shape: 100 (100)
I0403 13:23:42.516106 11137 net.cpp:156] Memory required for data: 61836400
I0403 13:23:42.516121 11137 layer_factory.hpp:77] Creating layer conv1
I0403 13:23:42.516155 11137 net.cpp:91] Creating Layer conv1
I0403 13:23:42.516172 11137 net.cpp:425] conv1 <- data
I0403 13:23:42.516191 11137 net.cpp:399] conv1 -> conv1
I0403 13:23:44.736857 11137 net.cpp:141] Setting up conv1
I0403 13:23:44.736937 11137 net.cpp:148] Top shape: 100 96 55 55 (29040000)
I0403 13:23:44.736953 11137 net.cpp:156] Memory required for data: 177996400
I0403 13:23:44.736985 11137 layer_factory.hpp:77] Creating layer relu1
I0403 13:23:44.737013 11137 net.cpp:91] Creating Layer relu1
I0403 13:23:44.737030 11137 net.cpp:425] relu1 <- conv1
I0403 13:23:44.737051 11137 net.cpp:386] relu1 -> conv1 (in-place)
I0403 13:23:44.742832 11137 net.cpp:141] Setting up relu1
I0403 13:23:44.742909 11137 net.cpp:148] Top shape: 100 96 55 55 (29040000)
I0403 13:23:44.742971 11137 net.cpp:156] Memory required for data: 294156400
I0403 13:23:44.742990 11137 layer_factory.hpp:77] Creating layer norm1
I0403 13:23:44.743027 11137 net.cpp:91] Creating Layer norm1
I0403 13:23:44.743047 11137 net.cpp:425] norm1 <- conv1
I0403 13:23:44.743068 11137 net.cpp:399] norm1 -> norm1
I0403 13:23:44.743448 11137 net.cpp:141] Setting up norm1
I0403 13:23:44.743476 11137 net.cpp:148] Top shape: 100 96 55 55 (29040000)
I0403 13:23:44.743492 11137 net.cpp:156] Memory required for data: 410316400
I0403 13:23:44.743508 11137 layer_factory.hpp:77] Creating layer pool1
I0403 13:23:44.743535 11137 net.cpp:91] Creating Layer pool1
I0403 13:23:44.743557 11137 net.cpp:425] pool1 <- norm1
I0403 13:23:44.743576 11137 net.cpp:399] pool1 -> pool1
I0403 13:23:44.743649 11137 net.cpp:141] Setting up pool1
I0403 13:23:44.743674 11137 net.cpp:148] Top shape: 100 96 27 27 (6998400)
I0403 13:23:44.743688 11137 net.cpp:156] Memory required for data: 438310000
I0403 13:23:44.743703 11137 layer_factory.hpp:77] Creating layer conv2
I0403 13:23:44.743729 11137 net.cpp:91] Creating Layer conv2
I0403 13:23:44.743747 11137 net.cpp:425] conv2 <- pool1
I0403 13:23:44.743767 11137 net.cpp:399] conv2 -> conv2
I0403 13:23:44.777019 11137 net.cpp:141] Setting up conv2
I0403 13:23:44.777096 11137 net.cpp:148] Top shape: 100 256 27 27 (18662400)
I0403 13:23:44.777114 11137 net.cpp:156] Memory required for data: 512959600
I0403 13:23:44.777143 11137 layer_factory.hpp:77] Creating layer relu2
I0403 13:23:44.777168 11137 net.cpp:91] Creating Layer relu2
I0403 13:23:44.777185 11137 net.cpp:425] relu2 <- conv2
I0403 13:23:44.777204 11137 net.cpp:386] relu2 -> conv2 (in-place)
I0403 13:23:44.777612 11137 net.cpp:141] Setting up relu2
I0403 13:23:44.777639 11137 net.cpp:148] Top shape: 100 256 27 27 (18662400)
I0403 13:23:44.777657 11137 net.cpp:156] Memory required for data: 587609200
I0403 13:23:44.777672 11137 layer_factory.hpp:77] Creating layer norm2
I0403 13:23:44.777695 11137 net.cpp:91] Creating Layer norm2
I0403 13:23:44.777712 11137 net.cpp:425] norm2 <- conv2
I0403 13:23:44.777732 11137 net.cpp:399] norm2 -> norm2
I0403 13:23:44.777940 11137 net.cpp:141] Setting up norm2
I0403 13:23:44.777966 11137 net.cpp:148] Top shape: 100 256 27 27 (18662400)
I0403 13:23:44.777981 11137 net.cpp:156] Memory required for data: 662258800
I0403 13:23:44.777995 11137 layer_factory.hpp:77] Creating layer pool2
I0403 13:23:44.778017 11137 net.cpp:91] Creating Layer pool2
I0403 13:23:44.778033 11137 net.cpp:425] pool2 <- norm2
I0403 13:23:44.778049 11137 net.cpp:399] pool2 -> pool2
I0403 13:23:44.778103 11137 net.cpp:141] Setting up pool2
I0403 13:23:44.778126 11137 net.cpp:148] Top shape: 100 256 13 13 (4326400)
I0403 13:23:44.778153 11137 net.cpp:156] Memory required for data: 679564400
I0403 13:23:44.778168 11137 layer_factory.hpp:77] Creating layer conv3
I0403 13:23:44.778239 11137 net.cpp:91] Creating Layer conv3
I0403 13:23:44.778262 11137 net.cpp:425] conv3 <- pool2
I0403 13:23:44.778285 11137 net.cpp:399] conv3 -> conv3
I0403 13:23:44.830899 11137 net.cpp:141] Setting up conv3
I0403 13:23:44.830974 11137 net.cpp:148] Top shape: 100 384 13 13 (6489600)
I0403 13:23:44.830992 11137 net.cpp:156] Memory required for data: 705522800
I0403 13:23:44.831020 11137 layer_factory.hpp:77] Creating layer relu3
I0403 13:23:44.831043 11137 net.cpp:91] Creating Layer relu3
I0403 13:23:44.831060 11137 net.cpp:425] relu3 <- conv3
I0403 13:23:44.831079 11137 net.cpp:386] relu3 -> conv3 (in-place)
I0403 13:23:44.831404 11137 net.cpp:141] Setting up relu3
I0403 13:23:44.831431 11137 net.cpp:148] Top shape: 100 384 13 13 (6489600)
I0403 13:23:44.831446 11137 net.cpp:156] Memory required for data: 731481200
I0403 13:23:44.831461 11137 layer_factory.hpp:77] Creating layer conv4
I0403 13:23:44.831486 11137 net.cpp:91] Creating Layer conv4
I0403 13:23:44.831503 11137 net.cpp:425] conv4 <- conv3
I0403 13:23:44.831526 11137 net.cpp:399] conv4 -> conv4
I0403 13:23:44.861145 11137 net.cpp:141] Setting up conv4
I0403 13:23:44.861222 11137 net.cpp:148] Top shape: 100 384 13 13 (6489600)
I0403 13:23:44.861289 11137 net.cpp:156] Memory required for data: 757439600
I0403 13:23:44.861312 11137 layer_factory.hpp:77] Creating layer relu4
I0403 13:23:44.861338 11137 net.cpp:91] Creating Layer relu4
I0403 13:23:44.861357 11137 net.cpp:425] relu4 <- conv4
I0403 13:23:44.861402 11137 net.cpp:386] relu4 -> conv4 (in-place)
I0403 13:23:44.861912 11137 net.cpp:141] Setting up relu4
I0403 13:23:44.861938 11137 net.cpp:148] Top shape: 100 384 13 13 (6489600)
I0403 13:23:44.861954 11137 net.cpp:156] Memory required for data: 783398000
I0403 13:23:44.861970 11137 layer_factory.hpp:77] Creating layer conv5
I0403 13:23:44.861996 11137 net.cpp:91] Creating Layer conv5
I0403 13:23:44.862013 11137 net.cpp:425] conv5 <- conv4
I0403 13:23:44.862033 11137 net.cpp:399] conv5 -> conv5
I0403 13:23:44.882365 11137 net.cpp:141] Setting up conv5
I0403 13:23:44.882438 11137 net.cpp:148] Top shape: 100 256 13 13 (4326400)
I0403 13:23:44.882455 11137 net.cpp:156] Memory required for data: 800703600
I0403 13:23:44.882482 11137 layer_factory.hpp:77] Creating layer relu5
I0403 13:23:44.882509 11137 net.cpp:91] Creating Layer relu5
I0403 13:23:44.882527 11137 net.cpp:425] relu5 <- conv5
I0403 13:23:44.882551 11137 net.cpp:386] relu5 -> conv5 (in-place)
I0403 13:23:44.882874 11137 net.cpp:141] Setting up relu5
I0403 13:23:44.882901 11137 net.cpp:148] Top shape: 100 256 13 13 (4326400)
I0403 13:23:44.882916 11137 net.cpp:156] Memory required for data: 818009200
I0403 13:23:44.882931 11137 layer_factory.hpp:77] Creating layer pool5
I0403 13:23:44.882956 11137 net.cpp:91] Creating Layer pool5
I0403 13:23:44.882972 11137 net.cpp:425] pool5 <- conv5
I0403 13:23:44.882992 11137 net.cpp:399] pool5 -> pool5
I0403 13:23:44.883051 11137 net.cpp:141] Setting up pool5
I0403 13:23:44.883074 11137 net.cpp:148] Top shape: 100 256 6 6 (921600)
I0403 13:23:44.883088 11137 net.cpp:156] Memory required for data: 821695600
I0403 13:23:44.883102 11137 layer_factory.hpp:77] Creating layer fc6
I0403 13:23:44.883131 11137 net.cpp:91] Creating Layer fc6
I0403 13:23:44.883148 11137 net.cpp:425] fc6 <- pool5
I0403 13:23:44.883167 11137 net.cpp:399] fc6 -> fc6
I0403 13:23:46.412756 11137 net.cpp:141] Setting up fc6
I0403 13:23:46.412837 11137 net.cpp:148] Top shape: 100 4096 (409600)
I0403 13:23:46.412853 11137 net.cpp:156] Memory required for data: 823334000
I0403 13:23:46.412873 11137 layer_factory.hpp:77] Creating layer relu6
I0403 13:23:46.412895 11137 net.cpp:91] Creating Layer relu6
I0403 13:23:46.412912 11137 net.cpp:425] relu6 <- fc6
I0403 13:23:46.412933 11137 net.cpp:386] relu6 -> fc6 (in-place)
I0403 13:23:46.413166 11137 net.cpp:141] Setting up relu6
I0403 13:23:46.413189 11137 net.cpp:148] Top shape: 100 4096 (409600)
I0403 13:23:46.413203 11137 net.cpp:156] Memory required for data: 824972400
I0403 13:23:46.413218 11137 layer_factory.hpp:77] Creating layer drop6
I0403 13:23:46.413238 11137 net.cpp:91] Creating Layer drop6
I0403 13:23:46.413254 11137 net.cpp:425] drop6 <- fc6
I0403 13:23:46.413270 11137 net.cpp:386] drop6 -> fc6 (in-place)
I0403 13:23:46.413322 11137 net.cpp:141] Setting up drop6
I0403 13:23:46.413343 11137 net.cpp:148] Top shape: 100 4096 (409600)
I0403 13:23:46.413357 11137 net.cpp:156] Memory required for data: 826610800
I0403 13:23:46.413372 11137 layer_factory.hpp:77] Creating layer fc7
I0403 13:23:46.413390 11137 net.cpp:91] Creating Layer fc7
I0403 13:23:46.413405 11137 net.cpp:425] fc7 <- fc6
I0403 13:23:46.413424 11137 net.cpp:399] fc7 -> fc7
I0403 13:23:47.083189 11137 net.cpp:141] Setting up fc7
I0403 13:23:47.083277 11137 net.cpp:148] Top shape: 100 4096 (409600)
I0403 13:23:47.083293 11137 net.cpp:156] Memory required for data: 828249200
I0403 13:23:47.083313 11137 layer_factory.hpp:77] Creating layer relu7
I0403 13:23:47.083338 11137 net.cpp:91] Creating Layer relu7
I0403 13:23:47.083355 11137 net.cpp:425] relu7 <- fc7
I0403 13:23:47.083374 11137 net.cpp:386] relu7 -> fc7 (in-place)
I0403 13:23:47.083770 11137 net.cpp:141] Setting up relu7
I0403 13:23:47.083796 11137 net.cpp:148] Top shape: 100 4096 (409600)
I0403 13:23:47.083847 11137 net.cpp:156] Memory required for data: 829887600
I0403 13:23:47.083863 11137 layer_factory.hpp:77] Creating layer drop7
I0403 13:23:47.083886 11137 net.cpp:91] Creating Layer drop7
I0403 13:23:47.083901 11137 net.cpp:425] drop7 <- fc7
I0403 13:23:47.083917 11137 net.cpp:386] drop7 -> fc7 (in-place)
I0403 13:23:47.083958 11137 net.cpp:141] Setting up drop7
I0403 13:23:47.083984 11137 net.cpp:148] Top shape: 100 4096 (409600)
I0403 13:23:47.083999 11137 net.cpp:156] Memory required for data: 831526000
I0403 13:23:47.084013 11137 layer_factory.hpp:77] Creating layer fc8_plantvillage
I0403 13:23:47.084033 11137 net.cpp:91] Creating Layer fc8_plantvillage
I0403 13:23:47.084046 11137 net.cpp:425] fc8_plantvillage <- fc7
I0403 13:23:47.084065 11137 net.cpp:399] fc8_plantvillage -> fc8_plantvillage
I0403 13:23:47.090606 11137 net.cpp:141] Setting up fc8_plantvillage
I0403 13:23:47.090634 11137 net.cpp:148] Top shape: 100 38 (3800)
I0403 13:23:47.090651 11137 net.cpp:156] Memory required for data: 831541200
I0403 13:23:47.090668 11137 layer_factory.hpp:77] Creating layer fc8_plantvillage_fc8_plantvillage_0_split
I0403 13:23:47.090687 11137 net.cpp:91] Creating Layer fc8_plantvillage_fc8_plantvillage_0_split
I0403 13:23:47.090705 11137 net.cpp:425] fc8_plantvillage_fc8_plantvillage_0_split <- fc8_plantvillage
I0403 13:23:47.090721 11137 net.cpp:399] fc8_plantvillage_fc8_plantvillage_0_split -> fc8_plantvillage_fc8_plantvillage_0_split_0
I0403 13:23:47.090741 11137 net.cpp:399] fc8_plantvillage_fc8_plantvillage_0_split -> fc8_plantvillage_fc8_plantvillage_0_split_1
I0403 13:23:47.090762 11137 net.cpp:399] fc8_plantvillage_fc8_plantvillage_0_split -> fc8_plantvillage_fc8_plantvillage_0_split_2
I0403 13:23:47.090843 11137 net.cpp:141] Setting up fc8_plantvillage_fc8_plantvillage_0_split
I0403 13:23:47.090865 11137 net.cpp:148] Top shape: 100 38 (3800)
I0403 13:23:47.090881 11137 net.cpp:148] Top shape: 100 38 (3800)
I0403 13:23:47.090895 11137 net.cpp:148] Top shape: 100 38 (3800)
I0403 13:23:47.090909 11137 net.cpp:156] Memory required for data: 831586800
I0403 13:23:47.090924 11137 layer_factory.hpp:77] Creating layer prob
I0403 13:23:47.090940 11137 net.cpp:91] Creating Layer prob
I0403 13:23:47.090955 11137 net.cpp:425] prob <- fc8_plantvillage_fc8_plantvillage_0_split_0
I0403 13:23:47.090975 11137 net.cpp:399] prob -> prob
I0403 13:23:47.091193 11137 net.cpp:141] Setting up prob
I0403 13:23:47.091217 11137 net.cpp:148] Top shape: 100 38 (3800)
I0403 13:23:47.091231 11137 net.cpp:156] Memory required for data: 831602000
I0403 13:23:47.091245 11137 layer_factory.hpp:77] Creating layer hdf5out
I0403 13:23:47.091265 11137 net.cpp:91] Creating Layer hdf5out
I0403 13:23:47.091281 11137 net.cpp:425] hdf5out <- prob
I0403 13:23:47.091296 11137 net.cpp:425] hdf5out <- label_data_1_split_0
I0403 13:23:47.093679 11137 net.cpp:141] Setting up hdf5out
…
