…
I0403 13:25:28.525540 11212 net.cpp:313] The NetState phase (1) differed from the phase (0) specified by a rule in layer data
I0403 13:25:28.525851 11212 net.cpp:49] Initializing net from parameters: 
state {
  phase: TEST
}
layer {
  name: "data"
  type: "Data"
  top: "data"
  top: "label"
  include {
    phase: TEST
  }
  transform_param {
    crop_size: 227
    mean_file: "/home/mohanty/data/final_dataset/lmdb/segmented-80-20/mean.binaryproto"
  }
  data_param {
    source: "/home/mohanty/data/final_dataset/lmdb/segmented-80-20/test_db"
    batch_size: 100
    backend: LMDB
  }
}
layer {
  name: "conv1"
  type: "Convolution"
  bottom: "data"
  top: "conv1"
  param {
    lr_mult: 1
    decay_mult: 1
  }
  param {
    lr_mult: 2
    decay_mult: 0
  }
  convolution_param {
    num_output: 96
    kernel_size: 11
    stride: 4
    weight_filler {
      type: "gaussian"
      std: 0.01
    }
    bias_filler {
      type: "constant"
      value: 0
    }
  }
}
layer {
  name: "relu1"
  type: "ReLU"
  bottom: "conv1"
  top: "conv1"
}
layer {
  name: "norm1"
  type: "LRN"
  bottom: "conv1"
  top: "norm1"
  lrn_param {
    local_size: 5
    alpha: 0.0001
    beta: 0.75
  }
}
layer {
  name: "pool1"
  type: "Pooling"
  bottom: "norm1"
  top: "pool1"
  pooling_param {
    pool: MAX
    kernel_size: 3
    stride: 2
  }
}
layer {
  name: "conv2"
  type: "Convolution"
  bottom: "pool1"
  top: "conv2"
  param {
    lr_mult: 1
    decay_mult: 1
  }
  param {
    lr_mult: 2
    decay_mult: 0
  }
  convolution_param {
    num_output: 256
    pad: 2
    kernel_size: 5
    group: 2
    weight_filler {
      type: "gaussian"
      std: 0.01
    }
    bias_filler {
      type: "constant"
      value: 0.1
    }
  }
}
layer {
  name: "relu2"
  type: "ReLU"
  bottom: "conv2"
  top: "conv2"
}
layer {
  name: "norm2"
  type: "LRN"
  bottom: "conv2"
  top: "norm2"
  lrn_param {
    local_size: 5
    alpha: 0.0001
    beta: 0.75
  }
}
layer {
  name: "pool2"
  type: "Pooling"
  bottom: "norm2"
  top: "pool2"
  pooling_param {
    pool: MAX
    kernel_size: 3
    stride: 2
  }
}
layer {
  name: "conv3"
  type: "Convolution"
  bottom: "pool2"
  top: "conv3"
  param {
    lr_mult: 1
    decay_mult: 1
  }
  param {
    lr_mult: 2
    decay_mult: 0
  }
  convolution_param {
    num_output: 384
    pad: 1
    kernel_size: 3
    weight_filler {
      type: "gaussian"
      std: 0.01
    }
    bias_filler {
      type: "constant"
      value: 0
    }
  }
}
layer {
  name: "relu3"
  type: "ReLU"
  bottom: "conv3"
  top: "conv3"
}
layer {
  name: "conv4"
  type: "Convolution"
  bottom: "conv3"
  top: "conv4"
  param {
    lr_mult: 1
    decay_mult: 1
  }
  param {
    lr_mult: 2
    decay_mult: 0
  }
  convolution_param {
    num_output: 384
    pad: 1
    kernel_size: 3
    group: 2
    weight_filler {
      type: "gaussian"
      std: 0.01
    }
    bias_filler {
      type: "constant"
      value: 0.1
    }
  }
}
layer {
  name: "relu4"
  type: "ReLU"
  bottom: "conv4"
  top: "conv4"
}
layer {
  name: "conv5"
  type: "Convolution"
  bottom: "conv4"
  top: "conv5"
  param {
    lr_mult: 1
    decay_mult: 1
  }
  param {
    lr_mult: 2
    decay_mult: 0
  }
  convolution_param {
    num_output: 256
    pad: 1
    kernel_size: 3
    group: 2
    weight_filler {
      type: "gaussian"
      std: 0.01
    }
    bias_filler {
      type: "constant"
      value: 0.1
    }
  }
}
layer {
  name: "relu5"
  type: "ReLU"
  bottom: "conv5"
  top: "conv5"
}
layer {
  name: "pool5"
  type: "Pooling"
  bottom: "conv5"
  top: "pool5"
  pooling_param {
    pool: MAX
    kernel_size: 3
    stride: 2
  }
}
layer {
  name: "fc6"
  type: "InnerProduct"
  bottom: "pool5"
  top: "fc6"
  param {
    lr_mult: 1
    decay_mult: 1
  }
  param {
    lr_mult: 2
    decay_mult: 0
  }
  inner_product_param {
    num_output: 4096
    weight_filler {
      type: "gaussian"
      std: 0.005
    }
    bias_filler {
      type: "constant"
      value: 0.1
    }
  }
}
layer {
  name: "relu6"
  type: "ReLU"
  bottom: "fc6"
  top: "fc6"
}
layer {
  name: "drop6"
  type: "Dropout"
  bottom: "fc6"
  top: "fc6"
  dropout_param {
    dropout_ratio: 0.5
  }
}
layer {
  name: "fc7"
  type: "InnerProduct"
  bottom: "fc6"
  top: "fc7"
  param {
    lr_mult: 1
    decay_mult: 1
  }
  param {
    lr_mult: 2
    decay_mult: 0
  }
  inner_product_param {
    num_output: 4096
    weight_filler {
      type: "gaussian"
      std: 0.005
    }
    bias_filler {
      type: "constant"
      value: 0.1
    }
  }
}
layer {
  name: "relu7"
  type: "ReLU"
  bottom: "fc7"
  top: "fc7"
}
layer {
  name: "drop7"
  type: "Dropout"
  bottom: "fc7"
  top: "fc7"
  dropout_param {
    dropout_ratio: 0.5
  }
}
layer {
  name: "fc8_plantvillage"
  type: "InnerProduct"
  bottom: "fc7"
  top: "fc8_plantvillage"
  param {
    lr_mult: 1
    decay_mult: 1
  }
  param {
    lr_mult: 2
    decay_mult: 0
  }
  inner_product_param {
    num_output: 38
    weight_filler {
      type: "gaussian"
      std: 0.01
    }
    bias_filler {
      type: "constant"
      value: 0
    }
  }
}
layer {
  name: "prob"
  type: "Softmax"
  bottom: "fc8_plantvillage"
  top: "prob"
  include {
    phase: TEST
  }
}
layer {
  name: "hdf5out"
  type: "HDF5Output"
  bottom: "prob"
  bottom: "label"
  include {
    phase: TEST
  }
  hdf5_output_param {
    file_name: "hdf5_dumps/iter_7830.h5"
  }
}
layer {
  name: "loss"
  type: "SoftmaxWithLoss"
  bottom: "fc8_plantvillage"
  bottom: "label"
  top: "loss"
}
layer {
  name: "accuracy"
  type: "Accuracy"
  bottom: "fc8_plantvillage"
  bottom: "label"
  top: "accuracy"
  include {
    phase: TEST
  }
}
I0403 13:25:28.526463 11212 layer_factory.hpp:77] Creating layer data
I0403 13:25:28.527137 11212 net.cpp:91] Creating Layer data
I0403 13:25:28.527168 11212 net.cpp:399] data -> data
I0403 13:25:28.527221 11212 net.cpp:399] data -> label
I0403 13:25:28.527257 11212 data_transformer.cpp:25] Loading mean file from: /home/mohanty/data/final_dataset/lmdb/segmented-80-20/mean.binaryproto
I0403 13:25:28.530858 11215 db_lmdb.cpp:38] Opened lmdb /home/mohanty/data/final_dataset/lmdb/segmented-80-20/test_db
I0403 13:25:28.541714 11212 data_layer.cpp:41] output data size: 100,3,227,227
I0403 13:25:28.661806 11212 net.cpp:141] Setting up data
I0403 13:25:28.661900 11212 net.cpp:148] Top shape: 100 3 227 227 (15458700)
I0403 13:25:28.661923 11212 net.cpp:148] Top shape: 100 (100)
I0403 13:25:28.661939 11212 net.cpp:156] Memory required for data: 61835200
I0403 13:25:28.661968 11212 layer_factory.hpp:77] Creating layer label_data_1_split
I0403 13:25:28.661995 11212 net.cpp:91] Creating Layer label_data_1_split
I0403 13:25:28.662014 11212 net.cpp:425] label_data_1_split <- label
I0403 13:25:28.662048 11212 net.cpp:399] label_data_1_split -> label_data_1_split_0
I0403 13:25:28.662076 11212 net.cpp:399] label_data_1_split -> label_data_1_split_1
I0403 13:25:28.662098 11212 net.cpp:399] label_data_1_split -> label_data_1_split_2
I0403 13:25:28.662161 11212 net.cpp:141] Setting up label_data_1_split
I0403 13:25:28.662185 11212 net.cpp:148] Top shape: 100 (100)
I0403 13:25:28.662202 11212 net.cpp:148] Top shape: 100 (100)
I0403 13:25:28.662220 11212 net.cpp:148] Top shape: 100 (100)
I0403 13:25:28.662233 11212 net.cpp:156] Memory required for data: 61836400
I0403 13:25:28.662248 11212 layer_factory.hpp:77] Creating layer conv1
I0403 13:25:28.662294 11212 net.cpp:91] Creating Layer conv1
I0403 13:25:28.662314 11212 net.cpp:425] conv1 <- data
I0403 13:25:28.662334 11212 net.cpp:399] conv1 -> conv1
I0403 13:25:28.806699 11212 net.cpp:141] Setting up conv1
I0403 13:25:28.806767 11212 net.cpp:148] Top shape: 100 96 55 55 (29040000)
I0403 13:25:28.806785 11212 net.cpp:156] Memory required for data: 177996400
I0403 13:25:28.806816 11212 layer_factory.hpp:77] Creating layer relu1
I0403 13:25:28.806855 11212 net.cpp:91] Creating Layer relu1
I0403 13:25:28.806886 11212 net.cpp:425] relu1 <- conv1
I0403 13:25:28.806905 11212 net.cpp:386] relu1 -> conv1 (in-place)
I0403 13:25:28.807176 11212 net.cpp:141] Setting up relu1
I0403 13:25:28.807204 11212 net.cpp:148] Top shape: 100 96 55 55 (29040000)
I0403 13:25:28.807255 11212 net.cpp:156] Memory required for data: 294156400
I0403 13:25:28.807271 11212 layer_factory.hpp:77] Creating layer norm1
I0403 13:25:28.807299 11212 net.cpp:91] Creating Layer norm1
I0403 13:25:28.807317 11212 net.cpp:425] norm1 <- conv1
I0403 13:25:28.807335 11212 net.cpp:399] norm1 -> norm1
I0403 13:25:28.807719 11212 net.cpp:141] Setting up norm1
I0403 13:25:28.807749 11212 net.cpp:148] Top shape: 100 96 55 55 (29040000)
I0403 13:25:28.807765 11212 net.cpp:156] Memory required for data: 410316400
I0403 13:25:28.807780 11212 layer_factory.hpp:77] Creating layer pool1
I0403 13:25:28.807803 11212 net.cpp:91] Creating Layer pool1
I0403 13:25:28.807821 11212 net.cpp:425] pool1 <- norm1
I0403 13:25:28.807839 11212 net.cpp:399] pool1 -> pool1
I0403 13:25:28.807924 11212 net.cpp:141] Setting up pool1
I0403 13:25:28.807950 11212 net.cpp:148] Top shape: 100 96 27 27 (6998400)
I0403 13:25:28.807965 11212 net.cpp:156] Memory required for data: 438310000
I0403 13:25:28.807978 11212 layer_factory.hpp:77] Creating layer conv2
I0403 13:25:28.808002 11212 net.cpp:91] Creating Layer conv2
I0403 13:25:28.808020 11212 net.cpp:425] conv2 <- pool1
I0403 13:25:28.808038 11212 net.cpp:399] conv2 -> conv2
I0403 13:25:28.825971 11212 net.cpp:141] Setting up conv2
I0403 13:25:28.826030 11212 net.cpp:148] Top shape: 100 256 27 27 (18662400)
I0403 13:25:28.826050 11212 net.cpp:156] Memory required for data: 512959600
I0403 13:25:28.826073 11212 layer_factory.hpp:77] Creating layer relu2
I0403 13:25:28.826094 11212 net.cpp:91] Creating Layer relu2
I0403 13:25:28.826112 11212 net.cpp:425] relu2 <- conv2
I0403 13:25:28.826133 11212 net.cpp:386] relu2 -> conv2 (in-place)
I0403 13:25:28.826423 11212 net.cpp:141] Setting up relu2
I0403 13:25:28.826452 11212 net.cpp:148] Top shape: 100 256 27 27 (18662400)
I0403 13:25:28.826469 11212 net.cpp:156] Memory required for data: 587609200
I0403 13:25:28.826485 11212 layer_factory.hpp:77] Creating layer norm2
I0403 13:25:28.826514 11212 net.cpp:91] Creating Layer norm2
I0403 13:25:28.826540 11212 net.cpp:425] norm2 <- conv2
I0403 13:25:28.826560 11212 net.cpp:399] norm2 -> norm2
I0403 13:25:28.826764 11212 net.cpp:141] Setting up norm2
I0403 13:25:28.826793 11212 net.cpp:148] Top shape: 100 256 27 27 (18662400)
I0403 13:25:28.826820 11212 net.cpp:156] Memory required for data: 662258800
I0403 13:25:28.826835 11212 layer_factory.hpp:77] Creating layer pool2
I0403 13:25:28.826854 11212 net.cpp:91] Creating Layer pool2
I0403 13:25:28.826870 11212 net.cpp:425] pool2 <- norm2
I0403 13:25:28.826891 11212 net.cpp:399] pool2 -> pool2
I0403 13:25:28.826946 11212 net.cpp:141] Setting up pool2
I0403 13:25:28.826969 11212 net.cpp:148] Top shape: 100 256 13 13 (4326400)
I0403 13:25:28.826985 11212 net.cpp:156] Memory required for data: 679564400
I0403 13:25:28.827002 11212 layer_factory.hpp:77] Creating layer conv3
I0403 13:25:28.827025 11212 net.cpp:91] Creating Layer conv3
I0403 13:25:28.827044 11212 net.cpp:425] conv3 <- pool2
I0403 13:25:28.827066 11212 net.cpp:399] conv3 -> conv3
I0403 13:25:28.867245 11212 net.cpp:141] Setting up conv3
I0403 13:25:28.867321 11212 net.cpp:148] Top shape: 100 384 13 13 (6489600)
I0403 13:25:28.867337 11212 net.cpp:156] Memory required for data: 705522800
I0403 13:25:28.867399 11212 layer_factory.hpp:77] Creating layer relu3
I0403 13:25:28.867426 11212 net.cpp:91] Creating Layer relu3
I0403 13:25:28.867444 11212 net.cpp:425] relu3 <- conv3
I0403 13:25:28.867466 11212 net.cpp:386] relu3 -> conv3 (in-place)
I0403 13:25:28.867746 11212 net.cpp:141] Setting up relu3
I0403 13:25:28.867777 11212 net.cpp:148] Top shape: 100 384 13 13 (6489600)
I0403 13:25:28.867794 11212 net.cpp:156] Memory required for data: 731481200
I0403 13:25:28.867810 11212 layer_factory.hpp:77] Creating layer conv4
I0403 13:25:28.867836 11212 net.cpp:91] Creating Layer conv4
I0403 13:25:28.867854 11212 net.cpp:425] conv4 <- conv3
I0403 13:25:28.867873 11212 net.cpp:399] conv4 -> conv4
I0403 13:25:29.023357 11212 net.cpp:141] Setting up conv4
I0403 13:25:29.023416 11212 net.cpp:148] Top shape: 100 384 13 13 (6489600)
I0403 13:25:29.023486 11212 net.cpp:156] Memory required for data: 757439600
I0403 13:25:29.023530 11212 layer_factory.hpp:77] Creating layer relu4
I0403 13:25:29.023610 11212 net.cpp:91] Creating Layer relu4
I0403 13:25:29.023640 11212 net.cpp:425] relu4 <- conv4
I0403 13:25:29.023665 11212 net.cpp:386] relu4 -> conv4 (in-place)
I0403 13:25:29.023982 11212 net.cpp:141] Setting up relu4
I0403 13:25:29.024015 11212 net.cpp:148] Top shape: 100 384 13 13 (6489600)
I0403 13:25:29.024040 11212 net.cpp:156] Memory required for data: 783398000
I0403 13:25:29.024080 11212 layer_factory.hpp:77] Creating layer conv5
I0403 13:25:29.024158 11212 net.cpp:91] Creating Layer conv5
I0403 13:25:29.024181 11212 net.cpp:425] conv5 <- conv4
I0403 13:25:29.024204 11212 net.cpp:399] conv5 -> conv5
I0403 13:25:29.046574 11212 net.cpp:141] Setting up conv5
I0403 13:25:29.046617 11212 net.cpp:148] Top shape: 100 256 13 13 (4326400)
I0403 13:25:29.046635 11212 net.cpp:156] Memory required for data: 800703600
I0403 13:25:29.046660 11212 layer_factory.hpp:77] Creating layer relu5
I0403 13:25:29.046681 11212 net.cpp:91] Creating Layer relu5
I0403 13:25:29.046700 11212 net.cpp:425] relu5 <- conv5
I0403 13:25:29.046721 11212 net.cpp:386] relu5 -> conv5 (in-place)
I0403 13:25:29.047077 11212 net.cpp:141] Setting up relu5
I0403 13:25:29.047106 11212 net.cpp:148] Top shape: 100 256 13 13 (4326400)
I0403 13:25:29.047122 11212 net.cpp:156] Memory required for data: 818009200
I0403 13:25:29.047137 11212 layer_factory.hpp:77] Creating layer pool5
I0403 13:25:29.047158 11212 net.cpp:91] Creating Layer pool5
I0403 13:25:29.047173 11212 net.cpp:425] pool5 <- conv5
I0403 13:25:29.047197 11212 net.cpp:399] pool5 -> pool5
I0403 13:25:29.047258 11212 net.cpp:141] Setting up pool5
I0403 13:25:29.047282 11212 net.cpp:148] Top shape: 100 256 6 6 (921600)
I0403 13:25:29.047298 11212 net.cpp:156] Memory required for data: 821695600
I0403 13:25:29.047313 11212 layer_factory.hpp:77] Creating layer fc6
I0403 13:25:29.047341 11212 net.cpp:91] Creating Layer fc6
I0403 13:25:29.047363 11212 net.cpp:425] fc6 <- pool5
I0403 13:25:29.047384 11212 net.cpp:399] fc6 -> fc6
I0403 13:25:30.706902 11212 net.cpp:141] Setting up fc6
I0403 13:25:30.706982 11212 net.cpp:148] Top shape: 100 4096 (409600)
I0403 13:25:30.706998 11212 net.cpp:156] Memory required for data: 823334000
I0403 13:25:30.707020 11212 layer_factory.hpp:77] Creating layer relu6
I0403 13:25:30.707042 11212 net.cpp:91] Creating Layer relu6
I0403 13:25:30.707063 11212 net.cpp:425] relu6 <- fc6
I0403 13:25:30.707089 11212 net.cpp:386] relu6 -> fc6 (in-place)
I0403 13:25:30.707315 11212 net.cpp:141] Setting up relu6
I0403 13:25:30.707341 11212 net.cpp:148] Top shape: 100 4096 (409600)
I0403 13:25:30.707355 11212 net.cpp:156] Memory required for data: 824972400
I0403 13:25:30.707370 11212 layer_factory.hpp:77] Creating layer drop6
I0403 13:25:30.707387 11212 net.cpp:91] Creating Layer drop6
I0403 13:25:30.707401 11212 net.cpp:425] drop6 <- fc6
I0403 13:25:30.707417 11212 net.cpp:386] drop6 -> fc6 (in-place)
I0403 13:25:30.707481 11212 net.cpp:141] Setting up drop6
I0403 13:25:30.707504 11212 net.cpp:148] Top shape: 100 4096 (409600)
I0403 13:25:30.707517 11212 net.cpp:156] Memory required for data: 826610800
I0403 13:25:30.707530 11212 layer_factory.hpp:77] Creating layer fc7
I0403 13:25:30.707556 11212 net.cpp:91] Creating Layer fc7
I0403 13:25:30.707584 11212 net.cpp:425] fc7 <- fc6
I0403 13:25:30.707602 11212 net.cpp:399] fc7 -> fc7
I0403 13:25:31.905447 11212 net.cpp:141] Setting up fc7
I0403 13:25:31.905532 11212 net.cpp:148] Top shape: 100 4096 (409600)
I0403 13:25:31.905550 11212 net.cpp:156] Memory required for data: 828249200
I0403 13:25:31.905571 11212 layer_factory.hpp:77] Creating layer relu7
I0403 13:25:31.905593 11212 net.cpp:91] Creating Layer relu7
I0403 13:25:31.905611 11212 net.cpp:425] relu7 <- fc7
I0403 13:25:31.905632 11212 net.cpp:386] relu7 -> fc7 (in-place)
I0403 13:25:31.906014 11212 net.cpp:141] Setting up relu7
I0403 13:25:31.906044 11212 net.cpp:148] Top shape: 100 4096 (409600)
I0403 13:25:31.906100 11212 net.cpp:156] Memory required for data: 829887600
I0403 13:25:31.906116 11212 layer_factory.hpp:77] Creating layer drop7
I0403 13:25:31.906133 11212 net.cpp:91] Creating Layer drop7
I0403 13:25:31.906148 11212 net.cpp:425] drop7 <- fc7
I0403 13:25:31.906168 11212 net.cpp:386] drop7 -> fc7 (in-place)
I0403 13:25:31.906211 11212 net.cpp:141] Setting up drop7
I0403 13:25:31.906234 11212 net.cpp:148] Top shape: 100 4096 (409600)
I0403 13:25:31.906249 11212 net.cpp:156] Memory required for data: 831526000
I0403 13:25:31.906262 11212 layer_factory.hpp:77] Creating layer fc8_plantvillage
I0403 13:25:31.906283 11212 net.cpp:91] Creating Layer fc8_plantvillage
I0403 13:25:31.906301 11212 net.cpp:425] fc8_plantvillage <- fc7
I0403 13:25:31.906321 11212 net.cpp:399] fc8_plantvillage -> fc8_plantvillage
I0403 13:25:31.913028 11212 net.cpp:141] Setting up fc8_plantvillage
I0403 13:25:31.913056 11212 net.cpp:148] Top shape: 100 38 (3800)
I0403 13:25:31.913071 11212 net.cpp:156] Memory required for data: 831541200
I0403 13:25:31.913089 11212 layer_factory.hpp:77] Creating layer fc8_plantvillage_fc8_plantvillage_0_split
I0403 13:25:31.913107 11212 net.cpp:91] Creating Layer fc8_plantvillage_fc8_plantvillage_0_split
I0403 13:25:31.913122 11212 net.cpp:425] fc8_plantvillage_fc8_plantvillage_0_split <- fc8_plantvillage
I0403 13:25:31.913141 11212 net.cpp:399] fc8_plantvillage_fc8_plantvillage_0_split -> fc8_plantvillage_fc8_plantvillage_0_split_0
I0403 13:25:31.913161 11212 net.cpp:399] fc8_plantvillage_fc8_plantvillage_0_split -> fc8_plantvillage_fc8_plantvillage_0_split_1
I0403 13:25:31.913182 11212 net.cpp:399] fc8_plantvillage_fc8_plantvillage_0_split -> fc8_plantvillage_fc8_plantvillage_0_split_2
I0403 13:25:31.913257 11212 net.cpp:141] Setting up fc8_plantvillage_fc8_plantvillage_0_split
I0403 13:25:31.913280 11212 net.cpp:148] Top shape: 100 38 (3800)
I0403 13:25:31.913295 11212 net.cpp:148] Top shape: 100 38 (3800)
I0403 13:25:31.913311 11212 net.cpp:148] Top shape: 100 38 (3800)
I0403 13:25:31.913323 11212 net.cpp:156] Memory required for data: 831586800
I0403 13:25:31.913337 11212 layer_factory.hpp:77] Creating layer prob
I0403 13:25:31.913355 11212 net.cpp:91] Creating Layer prob
I0403 13:25:31.913369 11212 net.cpp:425] prob <- fc8_plantvillage_fc8_plantvillage_0_split_0
I0403 13:25:31.913386 11212 net.cpp:399] prob -> prob
I0403 13:25:31.913616 11212 net.cpp:141] Setting up prob
I0403 13:25:31.913645 11212 net.cpp:148] Top shape: 100 38 (3800)
I0403 13:25:31.913661 11212 net.cpp:156] Memory required for data: 831602000
I0403 13:25:31.913676 11212 layer_factory.hpp:77] Creating layer hdf5out
I0403 13:25:31.913694 11212 net.cpp:91] Creating Layer hdf5out
I0403 13:25:31.913709 11212 net.cpp:425] hdf5out <- prob
I0403 13:25:31.913725 11212 net.cpp:425] hdf5out <- label_data_1_split_0
I0403 13:25:32.024642 11212 net.cpp:141] Setting up hdf5out
…
