…
I0403 13:29:40.916723 11385 net.cpp:313] The NetState phase (1) differed from the phase (0) specified by a rule in layer data
I0403 13:29:40.917029 11385 net.cpp:49] Initializing net from parameters: 
state {
  phase: TEST
}
layer {
  name: "data"
  type: "Data"
  top: "data"
  top: "label"
  include {
    phase: TEST
  }
  transform_param {
    crop_size: 227
    mean_file: "/home/mohanty/data/final_dataset/lmdb/segmented-80-20/mean.binaryproto"
  }
  data_param {
    source: "/home/mohanty/data/final_dataset/lmdb/segmented-80-20/test_db"
    batch_size: 100
    backend: LMDB
  }
}
layer {
  name: "conv1"
  type: "Convolution"
  bottom: "data"
  top: "conv1"
  param {
    lr_mult: 1
    decay_mult: 1
  }
  param {
    lr_mult: 2
    decay_mult: 0
  }
  convolution_param {
    num_output: 96
    kernel_size: 11
    stride: 4
    weight_filler {
      type: "gaussian"
      std: 0.01
    }
    bias_filler {
      type: "constant"
      value: 0
    }
  }
}
layer {
  name: "relu1"
  type: "ReLU"
  bottom: "conv1"
  top: "conv1"
}
layer {
  name: "norm1"
  type: "LRN"
  bottom: "conv1"
  top: "norm1"
  lrn_param {
    local_size: 5
    alpha: 0.0001
    beta: 0.75
  }
}
layer {
  name: "pool1"
  type: "Pooling"
  bottom: "norm1"
  top: "pool1"
  pooling_param {
    pool: MAX
    kernel_size: 3
    stride: 2
  }
}
layer {
  name: "conv2"
  type: "Convolution"
  bottom: "pool1"
  top: "conv2"
  param {
    lr_mult: 1
    decay_mult: 1
  }
  param {
    lr_mult: 2
    decay_mult: 0
  }
  convolution_param {
    num_output: 256
    pad: 2
    kernel_size: 5
    group: 2
    weight_filler {
      type: "gaussian"
      std: 0.01
    }
    bias_filler {
      type: "constant"
      value: 0.1
    }
  }
}
layer {
  name: "relu2"
  type: "ReLU"
  bottom: "conv2"
  top: "conv2"
}
layer {
  name: "norm2"
  type: "LRN"
  bottom: "conv2"
  top: "norm2"
  lrn_param {
    local_size: 5
    alpha: 0.0001
    beta: 0.75
  }
}
layer {
  name: "pool2"
  type: "Pooling"
  bottom: "norm2"
  top: "pool2"
  pooling_param {
    pool: MAX
    kernel_size: 3
    stride: 2
  }
}
layer {
  name: "conv3"
  type: "Convolution"
  bottom: "pool2"
  top: "conv3"
  param {
    lr_mult: 1
    decay_mult: 1
  }
  param {
    lr_mult: 2
    decay_mult: 0
  }
  convolution_param {
    num_output: 384
    pad: 1
    kernel_size: 3
    weight_filler {
      type: "gaussian"
      std: 0.01
    }
    bias_filler {
      type: "constant"
      value: 0
    }
  }
}
layer {
  name: "relu3"
  type: "ReLU"
  bottom: "conv3"
  top: "conv3"
}
layer {
  name: "conv4"
  type: "Convolution"
  bottom: "conv3"
  top: "conv4"
  param {
    lr_mult: 1
    decay_mult: 1
  }
  param {
    lr_mult: 2
    decay_mult: 0
  }
  convolution_param {
    num_output: 384
    pad: 1
    kernel_size: 3
    group: 2
    weight_filler {
      type: "gaussian"
      std: 0.01
    }
    bias_filler {
      type: "constant"
      value: 0.1
    }
  }
}
layer {
  name: "relu4"
  type: "ReLU"
  bottom: "conv4"
  top: "conv4"
}
layer {
  name: "conv5"
  type: "Convolution"
  bottom: "conv4"
  top: "conv5"
  param {
    lr_mult: 1
    decay_mult: 1
  }
  param {
    lr_mult: 2
    decay_mult: 0
  }
  convolution_param {
    num_output: 256
    pad: 1
    kernel_size: 3
    group: 2
    weight_filler {
      type: "gaussian"
      std: 0.01
    }
    bias_filler {
      type: "constant"
      value: 0.1
    }
  }
}
layer {
  name: "relu5"
  type: "ReLU"
  bottom: "conv5"
  top: "conv5"
}
layer {
  name: "pool5"
  type: "Pooling"
  bottom: "conv5"
  top: "pool5"
  pooling_param {
    pool: MAX
    kernel_size: 3
    stride: 2
  }
}
layer {
  name: "fc6"
  type: "InnerProduct"
  bottom: "pool5"
  top: "fc6"
  param {
    lr_mult: 1
    decay_mult: 1
  }
  param {
    lr_mult: 2
    decay_mult: 0
  }
  inner_product_param {
    num_output: 4096
    weight_filler {
      type: "gaussian"
      std: 0.005
    }
    bias_filler {
      type: "constant"
      value: 0.1
    }
  }
}
layer {
  name: "relu6"
  type: "ReLU"
  bottom: "fc6"
  top: "fc6"
}
layer {
  name: "drop6"
  type: "Dropout"
  bottom: "fc6"
  top: "fc6"
  dropout_param {
    dropout_ratio: 0.5
  }
}
layer {
  name: "fc7"
  type: "InnerProduct"
  bottom: "fc6"
  top: "fc7"
  param {
    lr_mult: 1
    decay_mult: 1
  }
  param {
    lr_mult: 2
    decay_mult: 0
  }
  inner_product_param {
    num_output: 4096
    weight_filler {
      type: "gaussian"
      std: 0.005
    }
    bias_filler {
      type: "constant"
      value: 0.1
    }
  }
}
layer {
  name: "relu7"
  type: "ReLU"
  bottom: "fc7"
  top: "fc7"
}
layer {
  name: "drop7"
  type: "Dropout"
  bottom: "fc7"
  top: "fc7"
  dropout_param {
    dropout_ratio: 0.5
  }
}
layer {
  name: "fc8_plantvillage"
  type: "InnerProduct"
  bottom: "fc7"
  top: "fc8_plantvillage"
  param {
    lr_mult: 1
    decay_mult: 1
  }
  param {
    lr_mult: 2
    decay_mult: 0
  }
  inner_product_param {
    num_output: 38
    weight_filler {
      type: "gaussian"
      std: 0.01
    }
    bias_filler {
      type: "constant"
      value: 0
    }
  }
}
layer {
  name: "prob"
  type: "Softmax"
  bottom: "fc8_plantvillage"
  top: "prob"
  include {
    phase: TEST
  }
}
layer {
  name: "hdf5out"
  type: "HDF5Output"
  bottom: "prob"
  bottom: "label"
  include {
    phase: TEST
  }
  hdf5_output_param {
    file_name: "hdf5_dumps/iter_12180.h5"
  }
}
layer {
  name: "loss"
  type: "SoftmaxWithLoss"
  bottom: "fc8_plantvillage"
  bottom: "label"
  top: "loss"
}
layer {
  name: "accuracy"
  type: "Accuracy"
  bottom: "fc8_plantvillage"
  bottom: "label"
  top: "accuracy"
  include {
    phase: TEST
  }
}
I0403 13:29:40.917632 11385 layer_factory.hpp:77] Creating layer data
I0403 13:29:40.918304 11385 net.cpp:91] Creating Layer data
I0403 13:29:40.918334 11385 net.cpp:399] data -> data
I0403 13:29:40.918383 11385 net.cpp:399] data -> label
I0403 13:29:40.918421 11385 data_transformer.cpp:25] Loading mean file from: /home/mohanty/data/final_dataset/lmdb/segmented-80-20/mean.binaryproto
I0403 13:29:40.933279 11388 db_lmdb.cpp:38] Opened lmdb /home/mohanty/data/final_dataset/lmdb/segmented-80-20/test_db
I0403 13:29:40.935789 11385 data_layer.cpp:41] output data size: 100,3,227,227
I0403 13:29:41.057287 11385 net.cpp:141] Setting up data
I0403 13:29:41.057391 11385 net.cpp:148] Top shape: 100 3 227 227 (15458700)
I0403 13:29:41.057415 11385 net.cpp:148] Top shape: 100 (100)
I0403 13:29:41.057430 11385 net.cpp:156] Memory required for data: 61835200
I0403 13:29:41.057471 11385 layer_factory.hpp:77] Creating layer label_data_1_split
I0403 13:29:41.057497 11385 net.cpp:91] Creating Layer label_data_1_split
I0403 13:29:41.057515 11385 net.cpp:425] label_data_1_split <- label
I0403 13:29:41.057550 11385 net.cpp:399] label_data_1_split -> label_data_1_split_0
I0403 13:29:41.057579 11385 net.cpp:399] label_data_1_split -> label_data_1_split_1
I0403 13:29:41.057610 11385 net.cpp:399] label_data_1_split -> label_data_1_split_2
I0403 13:29:41.057674 11385 net.cpp:141] Setting up label_data_1_split
I0403 13:29:41.057698 11385 net.cpp:148] Top shape: 100 (100)
I0403 13:29:41.057713 11385 net.cpp:148] Top shape: 100 (100)
I0403 13:29:41.057730 11385 net.cpp:148] Top shape: 100 (100)
I0403 13:29:41.057744 11385 net.cpp:156] Memory required for data: 61836400
I0403 13:29:41.057760 11385 layer_factory.hpp:77] Creating layer conv1
I0403 13:29:41.057801 11385 net.cpp:91] Creating Layer conv1
I0403 13:29:41.057819 11385 net.cpp:425] conv1 <- data
I0403 13:29:41.057837 11385 net.cpp:399] conv1 -> conv1
I0403 13:29:41.198529 11385 net.cpp:141] Setting up conv1
I0403 13:29:41.198611 11385 net.cpp:148] Top shape: 100 96 55 55 (29040000)
I0403 13:29:41.198628 11385 net.cpp:156] Memory required for data: 177996400
I0403 13:29:41.198659 11385 layer_factory.hpp:77] Creating layer relu1
I0403 13:29:41.198688 11385 net.cpp:91] Creating Layer relu1
I0403 13:29:41.198705 11385 net.cpp:425] relu1 <- conv1
I0403 13:29:41.198736 11385 net.cpp:386] relu1 -> conv1 (in-place)
I0403 13:29:41.199014 11385 net.cpp:141] Setting up relu1
I0403 13:29:41.199054 11385 net.cpp:148] Top shape: 100 96 55 55 (29040000)
I0403 13:29:41.199102 11385 net.cpp:156] Memory required for data: 294156400
I0403 13:29:41.199120 11385 layer_factory.hpp:77] Creating layer norm1
I0403 13:29:41.199146 11385 net.cpp:91] Creating Layer norm1
I0403 13:29:41.199163 11385 net.cpp:425] norm1 <- conv1
I0403 13:29:41.199180 11385 net.cpp:399] norm1 -> norm1
I0403 13:29:41.199477 11385 net.cpp:141] Setting up norm1
I0403 13:29:41.199506 11385 net.cpp:148] Top shape: 100 96 55 55 (29040000)
I0403 13:29:41.199522 11385 net.cpp:156] Memory required for data: 410316400
I0403 13:29:41.199542 11385 layer_factory.hpp:77] Creating layer pool1
I0403 13:29:41.199565 11385 net.cpp:91] Creating Layer pool1
I0403 13:29:41.199582 11385 net.cpp:425] pool1 <- norm1
I0403 13:29:41.199600 11385 net.cpp:399] pool1 -> pool1
I0403 13:29:41.199666 11385 net.cpp:141] Setting up pool1
I0403 13:29:41.199689 11385 net.cpp:148] Top shape: 100 96 27 27 (6998400)
I0403 13:29:41.199704 11385 net.cpp:156] Memory required for data: 438310000
I0403 13:29:41.199719 11385 layer_factory.hpp:77] Creating layer conv2
I0403 13:29:41.199743 11385 net.cpp:91] Creating Layer conv2
I0403 13:29:41.199759 11385 net.cpp:425] conv2 <- pool1
I0403 13:29:41.199777 11385 net.cpp:399] conv2 -> conv2
I0403 13:29:41.214763 11385 net.cpp:141] Setting up conv2
I0403 13:29:41.214817 11385 net.cpp:148] Top shape: 100 256 27 27 (18662400)
I0403 13:29:41.214834 11385 net.cpp:156] Memory required for data: 512959600
I0403 13:29:41.214857 11385 layer_factory.hpp:77] Creating layer relu2
I0403 13:29:41.214879 11385 net.cpp:91] Creating Layer relu2
I0403 13:29:41.214895 11385 net.cpp:425] relu2 <- conv2
I0403 13:29:41.214913 11385 net.cpp:386] relu2 -> conv2 (in-place)
I0403 13:29:41.215184 11385 net.cpp:141] Setting up relu2
I0403 13:29:41.215212 11385 net.cpp:148] Top shape: 100 256 27 27 (18662400)
I0403 13:29:41.215229 11385 net.cpp:156] Memory required for data: 587609200
I0403 13:29:41.215243 11385 layer_factory.hpp:77] Creating layer norm2
I0403 13:29:41.215266 11385 net.cpp:91] Creating Layer norm2
I0403 13:29:41.215282 11385 net.cpp:425] norm2 <- conv2
I0403 13:29:41.215301 11385 net.cpp:399] norm2 -> norm2
I0403 13:29:41.215514 11385 net.cpp:141] Setting up norm2
I0403 13:29:41.215544 11385 net.cpp:148] Top shape: 100 256 27 27 (18662400)
I0403 13:29:41.215561 11385 net.cpp:156] Memory required for data: 662258800
I0403 13:29:41.215576 11385 layer_factory.hpp:77] Creating layer pool2
I0403 13:29:41.215595 11385 net.cpp:91] Creating Layer pool2
I0403 13:29:41.215611 11385 net.cpp:425] pool2 <- norm2
I0403 13:29:41.215631 11385 net.cpp:399] pool2 -> pool2
I0403 13:29:41.215682 11385 net.cpp:141] Setting up pool2
I0403 13:29:41.215706 11385 net.cpp:148] Top shape: 100 256 13 13 (4326400)
I0403 13:29:41.215721 11385 net.cpp:156] Memory required for data: 679564400
I0403 13:29:41.215736 11385 layer_factory.hpp:77] Creating layer conv3
I0403 13:29:41.215759 11385 net.cpp:91] Creating Layer conv3
I0403 13:29:41.215775 11385 net.cpp:425] conv3 <- pool2
I0403 13:29:41.215795 11385 net.cpp:399] conv3 -> conv3
I0403 13:29:41.254165 11385 net.cpp:141] Setting up conv3
I0403 13:29:41.254237 11385 net.cpp:148] Top shape: 100 384 13 13 (6489600)
I0403 13:29:41.254253 11385 net.cpp:156] Memory required for data: 705522800
I0403 13:29:41.254278 11385 layer_factory.hpp:77] Creating layer relu3
I0403 13:29:41.254302 11385 net.cpp:91] Creating Layer relu3
I0403 13:29:41.254318 11385 net.cpp:425] relu3 <- conv3
I0403 13:29:41.254338 11385 net.cpp:386] relu3 -> conv3 (in-place)
I0403 13:29:41.254623 11385 net.cpp:141] Setting up relu3
I0403 13:29:41.254652 11385 net.cpp:148] Top shape: 100 384 13 13 (6489600)
I0403 13:29:41.254667 11385 net.cpp:156] Memory required for data: 731481200
I0403 13:29:41.254683 11385 layer_factory.hpp:77] Creating layer conv4
I0403 13:29:41.254706 11385 net.cpp:91] Creating Layer conv4
I0403 13:29:41.254722 11385 net.cpp:425] conv4 <- conv3
I0403 13:29:41.254742 11385 net.cpp:399] conv4 -> conv4
I0403 13:29:41.285570 11385 net.cpp:141] Setting up conv4
I0403 13:29:41.285643 11385 net.cpp:148] Top shape: 100 384 13 13 (6489600)
I0403 13:29:41.285694 11385 net.cpp:156] Memory required for data: 757439600
I0403 13:29:41.285718 11385 layer_factory.hpp:77] Creating layer relu4
I0403 13:29:41.285745 11385 net.cpp:91] Creating Layer relu4
I0403 13:29:41.285764 11385 net.cpp:425] relu4 <- conv4
I0403 13:29:41.285785 11385 net.cpp:386] relu4 -> conv4 (in-place)
I0403 13:29:41.286065 11385 net.cpp:141] Setting up relu4
I0403 13:29:41.286093 11385 net.cpp:148] Top shape: 100 384 13 13 (6489600)
I0403 13:29:41.286108 11385 net.cpp:156] Memory required for data: 783398000
I0403 13:29:41.286123 11385 layer_factory.hpp:77] Creating layer conv5
I0403 13:29:41.286149 11385 net.cpp:91] Creating Layer conv5
I0403 13:29:41.286169 11385 net.cpp:425] conv5 <- conv4
I0403 13:29:41.286224 11385 net.cpp:399] conv5 -> conv5
I0403 13:29:41.307234 11385 net.cpp:141] Setting up conv5
I0403 13:29:41.307287 11385 net.cpp:148] Top shape: 100 256 13 13 (4326400)
I0403 13:29:41.307304 11385 net.cpp:156] Memory required for data: 800703600
I0403 13:29:41.307332 11385 layer_factory.hpp:77] Creating layer relu5
I0403 13:29:41.307355 11385 net.cpp:91] Creating Layer relu5
I0403 13:29:41.307373 11385 net.cpp:425] relu5 <- conv5
I0403 13:29:41.307391 11385 net.cpp:386] relu5 -> conv5 (in-place)
I0403 13:29:41.307678 11385 net.cpp:141] Setting up relu5
I0403 13:29:41.307708 11385 net.cpp:148] Top shape: 100 256 13 13 (4326400)
I0403 13:29:41.307725 11385 net.cpp:156] Memory required for data: 818009200
I0403 13:29:41.307740 11385 layer_factory.hpp:77] Creating layer pool5
I0403 13:29:41.307762 11385 net.cpp:91] Creating Layer pool5
I0403 13:29:41.307780 11385 net.cpp:425] pool5 <- conv5
I0403 13:29:41.307801 11385 net.cpp:399] pool5 -> pool5
I0403 13:29:41.307864 11385 net.cpp:141] Setting up pool5
I0403 13:29:41.307888 11385 net.cpp:148] Top shape: 100 256 6 6 (921600)
I0403 13:29:41.307903 11385 net.cpp:156] Memory required for data: 821695600
I0403 13:29:41.307919 11385 layer_factory.hpp:77] Creating layer fc6
I0403 13:29:41.307948 11385 net.cpp:91] Creating Layer fc6
I0403 13:29:41.307966 11385 net.cpp:425] fc6 <- pool5
I0403 13:29:41.307987 11385 net.cpp:399] fc6 -> fc6
I0403 13:29:42.861747 11385 net.cpp:141] Setting up fc6
I0403 13:29:42.861821 11385 net.cpp:148] Top shape: 100 4096 (409600)
I0403 13:29:42.861840 11385 net.cpp:156] Memory required for data: 823334000
I0403 13:29:42.861860 11385 layer_factory.hpp:77] Creating layer relu6
I0403 13:29:42.861881 11385 net.cpp:91] Creating Layer relu6
I0403 13:29:42.861899 11385 net.cpp:425] relu6 <- fc6
I0403 13:29:42.861933 11385 net.cpp:386] relu6 -> fc6 (in-place)
I0403 13:29:42.862149 11385 net.cpp:141] Setting up relu6
I0403 13:29:42.862175 11385 net.cpp:148] Top shape: 100 4096 (409600)
I0403 13:29:42.862190 11385 net.cpp:156] Memory required for data: 824972400
I0403 13:29:42.862205 11385 layer_factory.hpp:77] Creating layer drop6
I0403 13:29:42.862227 11385 net.cpp:91] Creating Layer drop6
I0403 13:29:42.862244 11385 net.cpp:425] drop6 <- fc6
I0403 13:29:42.862262 11385 net.cpp:386] drop6 -> fc6 (in-place)
I0403 13:29:42.862316 11385 net.cpp:141] Setting up drop6
I0403 13:29:42.862339 11385 net.cpp:148] Top shape: 100 4096 (409600)
I0403 13:29:42.862354 11385 net.cpp:156] Memory required for data: 826610800
I0403 13:29:42.862366 11385 layer_factory.hpp:77] Creating layer fc7
I0403 13:29:42.862388 11385 net.cpp:91] Creating Layer fc7
I0403 13:29:42.862404 11385 net.cpp:425] fc7 <- fc6
I0403 13:29:42.862421 11385 net.cpp:399] fc7 -> fc7
I0403 13:29:43.584612 11385 net.cpp:141] Setting up fc7
I0403 13:29:43.584689 11385 net.cpp:148] Top shape: 100 4096 (409600)
I0403 13:29:43.584707 11385 net.cpp:156] Memory required for data: 828249200
I0403 13:29:43.584728 11385 layer_factory.hpp:77] Creating layer relu7
I0403 13:29:43.584753 11385 net.cpp:91] Creating Layer relu7
I0403 13:29:43.584771 11385 net.cpp:425] relu7 <- fc7
I0403 13:29:43.584791 11385 net.cpp:386] relu7 -> fc7 (in-place)
I0403 13:29:45.570829 11385 net.cpp:141] Setting up relu7
I0403 13:29:45.570911 11385 net.cpp:148] Top shape: 100 4096 (409600)
I0403 13:29:45.570969 11385 net.cpp:156] Memory required for data: 829887600
I0403 13:29:45.570988 11385 layer_factory.hpp:77] Creating layer drop7
I0403 13:29:45.571017 11385 net.cpp:91] Creating Layer drop7
I0403 13:29:45.571036 11385 net.cpp:425] drop7 <- fc7
I0403 13:29:45.571056 11385 net.cpp:386] drop7 -> fc7 (in-place)
I0403 13:29:45.571131 11385 net.cpp:141] Setting up drop7
I0403 13:29:45.571154 11385 net.cpp:148] Top shape: 100 4096 (409600)
I0403 13:29:45.571168 11385 net.cpp:156] Memory required for data: 831526000
I0403 13:29:45.571183 11385 layer_factory.hpp:77] Creating layer fc8_plantvillage
I0403 13:29:45.571203 11385 net.cpp:91] Creating Layer fc8_plantvillage
I0403 13:29:45.571219 11385 net.cpp:425] fc8_plantvillage <- fc7
I0403 13:29:45.571240 11385 net.cpp:399] fc8_plantvillage -> fc8_plantvillage
I0403 13:29:45.578089 11385 net.cpp:141] Setting up fc8_plantvillage
I0403 13:29:45.578120 11385 net.cpp:148] Top shape: 100 38 (3800)
I0403 13:29:45.578137 11385 net.cpp:156] Memory required for data: 831541200
I0403 13:29:45.578156 11385 layer_factory.hpp:77] Creating layer fc8_plantvillage_fc8_plantvillage_0_split
I0403 13:29:45.578176 11385 net.cpp:91] Creating Layer fc8_plantvillage_fc8_plantvillage_0_split
I0403 13:29:45.578189 11385 net.cpp:425] fc8_plantvillage_fc8_plantvillage_0_split <- fc8_plantvillage
I0403 13:29:45.578207 11385 net.cpp:399] fc8_plantvillage_fc8_plantvillage_0_split -> fc8_plantvillage_fc8_plantvillage_0_split_0
I0403 13:29:45.578225 11385 net.cpp:399] fc8_plantvillage_fc8_plantvillage_0_split -> fc8_plantvillage_fc8_plantvillage_0_split_1
I0403 13:29:45.578248 11385 net.cpp:399] fc8_plantvillage_fc8_plantvillage_0_split -> fc8_plantvillage_fc8_plantvillage_0_split_2
I0403 13:29:45.578322 11385 net.cpp:141] Setting up fc8_plantvillage_fc8_plantvillage_0_split
I0403 13:29:45.578346 11385 net.cpp:148] Top shape: 100 38 (3800)
I0403 13:29:45.578361 11385 net.cpp:148] Top shape: 100 38 (3800)
I0403 13:29:45.578375 11385 net.cpp:148] Top shape: 100 38 (3800)
I0403 13:29:45.578389 11385 net.cpp:156] Memory required for data: 831586800
I0403 13:29:45.578403 11385 layer_factory.hpp:77] Creating layer prob
I0403 13:29:45.578421 11385 net.cpp:91] Creating Layer prob
I0403 13:29:45.578436 11385 net.cpp:425] prob <- fc8_plantvillage_fc8_plantvillage_0_split_0
I0403 13:29:45.578452 11385 net.cpp:399] prob -> prob
I0403 13:29:45.578677 11385 net.cpp:141] Setting up prob
I0403 13:29:45.578703 11385 net.cpp:148] Top shape: 100 38 (3800)
I0403 13:29:45.578718 11385 net.cpp:156] Memory required for data: 831602000
I0403 13:29:45.578732 11385 layer_factory.hpp:77] Creating layer hdf5out
I0403 13:29:45.578753 11385 net.cpp:91] Creating Layer hdf5out
I0403 13:29:45.578769 11385 net.cpp:425] hdf5out <- prob
I0403 13:29:45.578785 11385 net.cpp:425] hdf5out <- label_data_1_split_0
I0403 13:29:45.583930 11385 net.cpp:141] Setting up hdf5out
…
