…
I0403 13:27:34.609691 11293 net.cpp:313] The NetState phase (1) differed from the phase (0) specified by a rule in layer data
I0403 13:27:34.610008 11293 net.cpp:49] Initializing net from parameters: 
state {
  phase: TEST
}
layer {
  name: "data"
  type: "Data"
  top: "data"
  top: "label"
  include {
    phase: TEST
  }
  transform_param {
    crop_size: 227
    mean_file: "/home/mohanty/data/final_dataset/lmdb/segmented-80-20/mean.binaryproto"
  }
  data_param {
    source: "/home/mohanty/data/final_dataset/lmdb/segmented-80-20/test_db"
    batch_size: 100
    backend: LMDB
  }
}
layer {
  name: "conv1"
  type: "Convolution"
  bottom: "data"
  top: "conv1"
  param {
    lr_mult: 1
    decay_mult: 1
  }
  param {
    lr_mult: 2
    decay_mult: 0
  }
  convolution_param {
    num_output: 96
    kernel_size: 11
    stride: 4
    weight_filler {
      type: "gaussian"
      std: 0.01
    }
    bias_filler {
      type: "constant"
      value: 0
    }
  }
}
layer {
  name: "relu1"
  type: "ReLU"
  bottom: "conv1"
  top: "conv1"
}
layer {
  name: "norm1"
  type: "LRN"
  bottom: "conv1"
  top: "norm1"
  lrn_param {
    local_size: 5
    alpha: 0.0001
    beta: 0.75
  }
}
layer {
  name: "pool1"
  type: "Pooling"
  bottom: "norm1"
  top: "pool1"
  pooling_param {
    pool: MAX
    kernel_size: 3
    stride: 2
  }
}
layer {
  name: "conv2"
  type: "Convolution"
  bottom: "pool1"
  top: "conv2"
  param {
    lr_mult: 1
    decay_mult: 1
  }
  param {
    lr_mult: 2
    decay_mult: 0
  }
  convolution_param {
    num_output: 256
    pad: 2
    kernel_size: 5
    group: 2
    weight_filler {
      type: "gaussian"
      std: 0.01
    }
    bias_filler {
      type: "constant"
      value: 0.1
    }
  }
}
layer {
  name: "relu2"
  type: "ReLU"
  bottom: "conv2"
  top: "conv2"
}
layer {
  name: "norm2"
  type: "LRN"
  bottom: "conv2"
  top: "norm2"
  lrn_param {
    local_size: 5
    alpha: 0.0001
    beta: 0.75
  }
}
layer {
  name: "pool2"
  type: "Pooling"
  bottom: "norm2"
  top: "pool2"
  pooling_param {
    pool: MAX
    kernel_size: 3
    stride: 2
  }
}
layer {
  name: "conv3"
  type: "Convolution"
  bottom: "pool2"
  top: "conv3"
  param {
    lr_mult: 1
    decay_mult: 1
  }
  param {
    lr_mult: 2
    decay_mult: 0
  }
  convolution_param {
    num_output: 384
    pad: 1
    kernel_size: 3
    weight_filler {
      type: "gaussian"
      std: 0.01
    }
    bias_filler {
      type: "constant"
      value: 0
    }
  }
}
layer {
  name: "relu3"
  type: "ReLU"
  bottom: "conv3"
  top: "conv3"
}
layer {
  name: "conv4"
  type: "Convolution"
  bottom: "conv3"
  top: "conv4"
  param {
    lr_mult: 1
    decay_mult: 1
  }
  param {
    lr_mult: 2
    decay_mult: 0
  }
  convolution_param {
    num_output: 384
    pad: 1
    kernel_size: 3
    group: 2
    weight_filler {
      type: "gaussian"
      std: 0.01
    }
    bias_filler {
      type: "constant"
      value: 0.1
    }
  }
}
layer {
  name: "relu4"
  type: "ReLU"
  bottom: "conv4"
  top: "conv4"
}
layer {
  name: "conv5"
  type: "Convolution"
  bottom: "conv4"
  top: "conv5"
  param {
    lr_mult: 1
    decay_mult: 1
  }
  param {
    lr_mult: 2
    decay_mult: 0
  }
  convolution_param {
    num_output: 256
    pad: 1
    kernel_size: 3
    group: 2
    weight_filler {
      type: "gaussian"
      std: 0.01
    }
    bias_filler {
      type: "constant"
      value: 0.1
    }
  }
}
layer {
  name: "relu5"
  type: "ReLU"
  bottom: "conv5"
  top: "conv5"
}
layer {
  name: "pool5"
  type: "Pooling"
  bottom: "conv5"
  top: "pool5"
  pooling_param {
    pool: MAX
    kernel_size: 3
    stride: 2
  }
}
layer {
  name: "fc6"
  type: "InnerProduct"
  bottom: "pool5"
  top: "fc6"
  param {
    lr_mult: 1
    decay_mult: 1
  }
  param {
    lr_mult: 2
    decay_mult: 0
  }
  inner_product_param {
    num_output: 4096
    weight_filler {
      type: "gaussian"
      std: 0.005
    }
    bias_filler {
      type: "constant"
      value: 0.1
    }
  }
}
layer {
  name: "relu6"
  type: "ReLU"
  bottom: "fc6"
  top: "fc6"
}
layer {
  name: "drop6"
  type: "Dropout"
  bottom: "fc6"
  top: "fc6"
  dropout_param {
    dropout_ratio: 0.5
  }
}
layer {
  name: "fc7"
  type: "InnerProduct"
  bottom: "fc6"
  top: "fc7"
  param {
    lr_mult: 1
    decay_mult: 1
  }
  param {
    lr_mult: 2
    decay_mult: 0
  }
  inner_product_param {
    num_output: 4096
    weight_filler {
      type: "gaussian"
      std: 0.005
    }
    bias_filler {
      type: "constant"
      value: 0.1
    }
  }
}
layer {
  name: "relu7"
  type: "ReLU"
  bottom: "fc7"
  top: "fc7"
}
layer {
  name: "drop7"
  type: "Dropout"
  bottom: "fc7"
  top: "fc7"
  dropout_param {
    dropout_ratio: 0.5
  }
}
layer {
  name: "fc8_plantvillage"
  type: "InnerProduct"
  bottom: "fc7"
  top: "fc8_plantvillage"
  param {
    lr_mult: 1
    decay_mult: 1
  }
  param {
    lr_mult: 2
    decay_mult: 0
  }
  inner_product_param {
    num_output: 38
    weight_filler {
      type: "gaussian"
      std: 0.01
    }
    bias_filler {
      type: "constant"
      value: 0
    }
  }
}
layer {
  name: "prob"
  type: "Softmax"
  bottom: "fc8_plantvillage"
  top: "prob"
  include {
    phase: TEST
  }
}
layer {
  name: "hdf5out"
  type: "HDF5Output"
  bottom: "prob"
  bottom: "label"
  include {
    phase: TEST
  }
  hdf5_output_param {
    file_name: "hdf5_dumps/iter_10005.h5"
  }
}
layer {
  name: "loss"
  type: "SoftmaxWithLoss"
  bottom: "fc8_plantvillage"
  bottom: "label"
  top: "loss"
}
layer {
  name: "accuracy"
  type: "Accuracy"
  bottom: "fc8_plantvillage"
  bottom: "label"
  top: "accuracy"
  include {
    phase: TEST
  }
}
I0403 13:27:34.610581 11293 layer_factory.hpp:77] Creating layer data
I0403 13:27:34.611220 11293 net.cpp:91] Creating Layer data
I0403 13:27:34.611253 11293 net.cpp:399] data -> data
I0403 13:27:34.611304 11293 net.cpp:399] data -> label
I0403 13:27:34.611340 11293 data_transformer.cpp:25] Loading mean file from: /home/mohanty/data/final_dataset/lmdb/segmented-80-20/mean.binaryproto
I0403 13:27:34.614181 11296 db_lmdb.cpp:38] Opened lmdb /home/mohanty/data/final_dataset/lmdb/segmented-80-20/test_db
I0403 13:27:34.626127 11293 data_layer.cpp:41] output data size: 100,3,227,227
I0403 13:27:34.747833 11293 net.cpp:141] Setting up data
I0403 13:27:34.747891 11293 net.cpp:148] Top shape: 100 3 227 227 (15458700)
I0403 13:27:34.747912 11293 net.cpp:148] Top shape: 100 (100)
I0403 13:27:34.747927 11293 net.cpp:156] Memory required for data: 61835200
I0403 13:27:34.747956 11293 layer_factory.hpp:77] Creating layer label_data_1_split
I0403 13:27:34.747980 11293 net.cpp:91] Creating Layer label_data_1_split
I0403 13:27:34.747997 11293 net.cpp:425] label_data_1_split <- label
I0403 13:27:34.748028 11293 net.cpp:399] label_data_1_split -> label_data_1_split_0
I0403 13:27:34.748054 11293 net.cpp:399] label_data_1_split -> label_data_1_split_1
I0403 13:27:34.748073 11293 net.cpp:399] label_data_1_split -> label_data_1_split_2
I0403 13:27:34.748134 11293 net.cpp:141] Setting up label_data_1_split
I0403 13:27:34.748157 11293 net.cpp:148] Top shape: 100 (100)
I0403 13:27:34.748173 11293 net.cpp:148] Top shape: 100 (100)
I0403 13:27:34.748188 11293 net.cpp:148] Top shape: 100 (100)
I0403 13:27:34.748203 11293 net.cpp:156] Memory required for data: 61836400
I0403 13:27:34.748216 11293 layer_factory.hpp:77] Creating layer conv1
I0403 13:27:34.748247 11293 net.cpp:91] Creating Layer conv1
I0403 13:27:34.748265 11293 net.cpp:425] conv1 <- data
I0403 13:27:34.748283 11293 net.cpp:399] conv1 -> conv1
I0403 13:27:34.890210 11293 net.cpp:141] Setting up conv1
I0403 13:27:34.890287 11293 net.cpp:148] Top shape: 100 96 55 55 (29040000)
I0403 13:27:34.890305 11293 net.cpp:156] Memory required for data: 177996400
I0403 13:27:34.890336 11293 layer_factory.hpp:77] Creating layer relu1
I0403 13:27:34.890386 11293 net.cpp:91] Creating Layer relu1
I0403 13:27:34.890408 11293 net.cpp:425] relu1 <- conv1
I0403 13:27:34.890426 11293 net.cpp:386] relu1 -> conv1 (in-place)
I0403 13:27:34.890689 11293 net.cpp:141] Setting up relu1
I0403 13:27:34.890717 11293 net.cpp:148] Top shape: 100 96 55 55 (29040000)
I0403 13:27:34.890763 11293 net.cpp:156] Memory required for data: 294156400
I0403 13:27:34.890779 11293 layer_factory.hpp:77] Creating layer norm1
I0403 13:27:34.890807 11293 net.cpp:91] Creating Layer norm1
I0403 13:27:34.890825 11293 net.cpp:425] norm1 <- conv1
I0403 13:27:34.890842 11293 net.cpp:399] norm1 -> norm1
I0403 13:27:34.891150 11293 net.cpp:141] Setting up norm1
I0403 13:27:34.891177 11293 net.cpp:148] Top shape: 100 96 55 55 (29040000)
I0403 13:27:34.891192 11293 net.cpp:156] Memory required for data: 410316400
I0403 13:27:34.891207 11293 layer_factory.hpp:77] Creating layer pool1
I0403 13:27:34.891229 11293 net.cpp:91] Creating Layer pool1
I0403 13:27:34.891245 11293 net.cpp:425] pool1 <- norm1
I0403 13:27:34.891263 11293 net.cpp:399] pool1 -> pool1
I0403 13:27:34.891329 11293 net.cpp:141] Setting up pool1
I0403 13:27:34.891351 11293 net.cpp:148] Top shape: 100 96 27 27 (6998400)
I0403 13:27:34.891366 11293 net.cpp:156] Memory required for data: 438310000
I0403 13:27:34.891381 11293 layer_factory.hpp:77] Creating layer conv2
I0403 13:27:34.891405 11293 net.cpp:91] Creating Layer conv2
I0403 13:27:34.891422 11293 net.cpp:425] conv2 <- pool1
I0403 13:27:34.891439 11293 net.cpp:399] conv2 -> conv2
I0403 13:27:34.906502 11293 net.cpp:141] Setting up conv2
I0403 13:27:34.906560 11293 net.cpp:148] Top shape: 100 256 27 27 (18662400)
I0403 13:27:34.906579 11293 net.cpp:156] Memory required for data: 512959600
I0403 13:27:34.906601 11293 layer_factory.hpp:77] Creating layer relu2
I0403 13:27:34.906622 11293 net.cpp:91] Creating Layer relu2
I0403 13:27:34.906638 11293 net.cpp:425] relu2 <- conv2
I0403 13:27:34.906657 11293 net.cpp:386] relu2 -> conv2 (in-place)
I0403 13:27:34.906927 11293 net.cpp:141] Setting up relu2
I0403 13:27:34.906991 11293 net.cpp:148] Top shape: 100 256 27 27 (18662400)
I0403 13:27:34.907006 11293 net.cpp:156] Memory required for data: 587609200
I0403 13:27:34.907021 11293 layer_factory.hpp:77] Creating layer norm2
I0403 13:27:34.907042 11293 net.cpp:91] Creating Layer norm2
I0403 13:27:34.907059 11293 net.cpp:425] norm2 <- conv2
I0403 13:27:34.907076 11293 net.cpp:399] norm2 -> norm2
I0403 13:27:34.907263 11293 net.cpp:141] Setting up norm2
I0403 13:27:34.907289 11293 net.cpp:148] Top shape: 100 256 27 27 (18662400)
I0403 13:27:34.907305 11293 net.cpp:156] Memory required for data: 662258800
I0403 13:27:34.907320 11293 layer_factory.hpp:77] Creating layer pool2
I0403 13:27:34.907338 11293 net.cpp:91] Creating Layer pool2
I0403 13:27:34.907353 11293 net.cpp:425] pool2 <- norm2
I0403 13:27:34.907371 11293 net.cpp:399] pool2 -> pool2
I0403 13:27:34.907420 11293 net.cpp:141] Setting up pool2
I0403 13:27:34.907444 11293 net.cpp:148] Top shape: 100 256 13 13 (4326400)
I0403 13:27:34.907459 11293 net.cpp:156] Memory required for data: 679564400
I0403 13:27:34.907472 11293 layer_factory.hpp:77] Creating layer conv3
I0403 13:27:34.907493 11293 net.cpp:91] Creating Layer conv3
I0403 13:27:34.907511 11293 net.cpp:425] conv3 <- pool2
I0403 13:27:34.907529 11293 net.cpp:399] conv3 -> conv3
I0403 13:27:34.946094 11293 net.cpp:141] Setting up conv3
I0403 13:27:34.946161 11293 net.cpp:148] Top shape: 100 384 13 13 (6489600)
I0403 13:27:34.946178 11293 net.cpp:156] Memory required for data: 705522800
I0403 13:27:34.946203 11293 layer_factory.hpp:77] Creating layer relu3
I0403 13:27:34.946226 11293 net.cpp:91] Creating Layer relu3
I0403 13:27:34.946244 11293 net.cpp:425] relu3 <- conv3
I0403 13:27:34.946266 11293 net.cpp:386] relu3 -> conv3 (in-place)
I0403 13:27:34.946533 11293 net.cpp:141] Setting up relu3
I0403 13:27:34.946566 11293 net.cpp:148] Top shape: 100 384 13 13 (6489600)
I0403 13:27:34.946583 11293 net.cpp:156] Memory required for data: 731481200
I0403 13:27:34.946598 11293 layer_factory.hpp:77] Creating layer conv4
I0403 13:27:34.946624 11293 net.cpp:91] Creating Layer conv4
I0403 13:27:34.946653 11293 net.cpp:425] conv4 <- conv3
I0403 13:27:34.946671 11293 net.cpp:399] conv4 -> conv4
I0403 13:27:34.976804 11293 net.cpp:141] Setting up conv4
I0403 13:27:34.976874 11293 net.cpp:148] Top shape: 100 384 13 13 (6489600)
I0403 13:27:34.976930 11293 net.cpp:156] Memory required for data: 757439600
I0403 13:27:34.976953 11293 layer_factory.hpp:77] Creating layer relu4
I0403 13:27:34.976977 11293 net.cpp:91] Creating Layer relu4
I0403 13:27:34.976994 11293 net.cpp:425] relu4 <- conv4
I0403 13:27:34.977013 11293 net.cpp:386] relu4 -> conv4 (in-place)
I0403 13:27:34.977344 11293 net.cpp:141] Setting up relu4
I0403 13:27:34.977370 11293 net.cpp:148] Top shape: 100 384 13 13 (6489600)
I0403 13:27:34.977385 11293 net.cpp:156] Memory required for data: 783398000
I0403 13:27:34.977401 11293 layer_factory.hpp:77] Creating layer conv5
I0403 13:27:34.977428 11293 net.cpp:91] Creating Layer conv5
I0403 13:27:34.977445 11293 net.cpp:425] conv5 <- conv4
I0403 13:27:34.977464 11293 net.cpp:399] conv5 -> conv5
I0403 13:27:34.998158 11293 net.cpp:141] Setting up conv5
I0403 13:27:34.998213 11293 net.cpp:148] Top shape: 100 256 13 13 (4326400)
I0403 13:27:34.998230 11293 net.cpp:156] Memory required for data: 800703600
I0403 13:27:34.998255 11293 layer_factory.hpp:77] Creating layer relu5
I0403 13:27:34.998275 11293 net.cpp:91] Creating Layer relu5
I0403 13:27:34.998291 11293 net.cpp:425] relu5 <- conv5
I0403 13:27:34.998316 11293 net.cpp:386] relu5 -> conv5 (in-place)
I0403 13:27:34.998600 11293 net.cpp:141] Setting up relu5
I0403 13:27:34.998627 11293 net.cpp:148] Top shape: 100 256 13 13 (4326400)
I0403 13:27:34.998643 11293 net.cpp:156] Memory required for data: 818009200
I0403 13:27:34.998658 11293 layer_factory.hpp:77] Creating layer pool5
I0403 13:27:34.998680 11293 net.cpp:91] Creating Layer pool5
I0403 13:27:34.998697 11293 net.cpp:425] pool5 <- conv5
I0403 13:27:34.998718 11293 net.cpp:399] pool5 -> pool5
I0403 13:27:34.998780 11293 net.cpp:141] Setting up pool5
I0403 13:27:34.998803 11293 net.cpp:148] Top shape: 100 256 6 6 (921600)
I0403 13:27:34.998818 11293 net.cpp:156] Memory required for data: 821695600
I0403 13:27:34.998832 11293 layer_factory.hpp:77] Creating layer fc6
I0403 13:27:34.998862 11293 net.cpp:91] Creating Layer fc6
I0403 13:27:34.998879 11293 net.cpp:425] fc6 <- pool5
I0403 13:27:34.998900 11293 net.cpp:399] fc6 -> fc6
I0403 13:27:36.572214 11293 net.cpp:141] Setting up fc6
I0403 13:27:36.572288 11293 net.cpp:148] Top shape: 100 4096 (409600)
I0403 13:27:36.572304 11293 net.cpp:156] Memory required for data: 823334000
I0403 13:27:36.572324 11293 layer_factory.hpp:77] Creating layer relu6
I0403 13:27:36.572347 11293 net.cpp:91] Creating Layer relu6
I0403 13:27:36.572365 11293 net.cpp:425] relu6 <- fc6
I0403 13:27:36.572384 11293 net.cpp:386] relu6 -> fc6 (in-place)
I0403 13:27:36.572621 11293 net.cpp:141] Setting up relu6
I0403 13:27:36.572649 11293 net.cpp:148] Top shape: 100 4096 (409600)
I0403 13:27:36.572664 11293 net.cpp:156] Memory required for data: 824972400
I0403 13:27:36.572679 11293 layer_factory.hpp:77] Creating layer drop6
I0403 13:27:36.572697 11293 net.cpp:91] Creating Layer drop6
I0403 13:27:36.572712 11293 net.cpp:425] drop6 <- fc6
I0403 13:27:36.572729 11293 net.cpp:386] drop6 -> fc6 (in-place)
I0403 13:27:36.572782 11293 net.cpp:141] Setting up drop6
I0403 13:27:36.572804 11293 net.cpp:148] Top shape: 100 4096 (409600)
I0403 13:27:36.572819 11293 net.cpp:156] Memory required for data: 826610800
I0403 13:27:36.572834 11293 layer_factory.hpp:77] Creating layer fc7
I0403 13:27:36.572855 11293 net.cpp:91] Creating Layer fc7
I0403 13:27:36.572871 11293 net.cpp:425] fc7 <- fc6
I0403 13:27:36.572888 11293 net.cpp:399] fc7 -> fc7
I0403 13:27:39.177541 11293 net.cpp:141] Setting up fc7
I0403 13:27:39.177623 11293 net.cpp:148] Top shape: 100 4096 (409600)
I0403 13:27:39.177639 11293 net.cpp:156] Memory required for data: 828249200
I0403 13:27:39.177661 11293 layer_factory.hpp:77] Creating layer relu7
I0403 13:27:39.177685 11293 net.cpp:91] Creating Layer relu7
I0403 13:27:39.177701 11293 net.cpp:425] relu7 <- fc7
I0403 13:27:39.177723 11293 net.cpp:386] relu7 -> fc7 (in-place)
I0403 13:27:39.178103 11293 net.cpp:141] Setting up relu7
I0403 13:27:39.178134 11293 net.cpp:148] Top shape: 100 4096 (409600)
I0403 13:27:39.178192 11293 net.cpp:156] Memory required for data: 829887600
I0403 13:27:39.178210 11293 layer_factory.hpp:77] Creating layer drop7
I0403 13:27:39.178230 11293 net.cpp:91] Creating Layer drop7
I0403 13:27:39.178244 11293 net.cpp:425] drop7 <- fc7
I0403 13:27:39.178263 11293 net.cpp:386] drop7 -> fc7 (in-place)
I0403 13:27:39.178308 11293 net.cpp:141] Setting up drop7
I0403 13:27:39.178329 11293 net.cpp:148] Top shape: 100 4096 (409600)
I0403 13:27:39.178344 11293 net.cpp:156] Memory required for data: 831526000
I0403 13:27:39.178359 11293 layer_factory.hpp:77] Creating layer fc8_plantvillage
I0403 13:27:39.178380 11293 net.cpp:91] Creating Layer fc8_plantvillage
I0403 13:27:39.178397 11293 net.cpp:425] fc8_plantvillage <- fc7
I0403 13:27:39.178417 11293 net.cpp:399] fc8_plantvillage -> fc8_plantvillage
I0403 13:27:39.185360 11293 net.cpp:141] Setting up fc8_plantvillage
I0403 13:27:39.185391 11293 net.cpp:148] Top shape: 100 38 (3800)
I0403 13:27:39.185408 11293 net.cpp:156] Memory required for data: 831541200
I0403 13:27:39.185427 11293 layer_factory.hpp:77] Creating layer fc8_plantvillage_fc8_plantvillage_0_split
I0403 13:27:39.185447 11293 net.cpp:91] Creating Layer fc8_plantvillage_fc8_plantvillage_0_split
I0403 13:27:39.185462 11293 net.cpp:425] fc8_plantvillage_fc8_plantvillage_0_split <- fc8_plantvillage
I0403 13:27:39.185482 11293 net.cpp:399] fc8_plantvillage_fc8_plantvillage_0_split -> fc8_plantvillage_fc8_plantvillage_0_split_0
I0403 13:27:39.185503 11293 net.cpp:399] fc8_plantvillage_fc8_plantvillage_0_split -> fc8_plantvillage_fc8_plantvillage_0_split_1
I0403 13:27:39.185523 11293 net.cpp:399] fc8_plantvillage_fc8_plantvillage_0_split -> fc8_plantvillage_fc8_plantvillage_0_split_2
I0403 13:27:39.185607 11293 net.cpp:141] Setting up fc8_plantvillage_fc8_plantvillage_0_split
I0403 13:27:39.185632 11293 net.cpp:148] Top shape: 100 38 (3800)
I0403 13:27:39.185648 11293 net.cpp:148] Top shape: 100 38 (3800)
I0403 13:27:39.185664 11293 net.cpp:148] Top shape: 100 38 (3800)
I0403 13:27:39.185678 11293 net.cpp:156] Memory required for data: 831586800
I0403 13:27:39.185693 11293 layer_factory.hpp:77] Creating layer prob
I0403 13:27:39.185711 11293 net.cpp:91] Creating Layer prob
I0403 13:27:39.185726 11293 net.cpp:425] prob <- fc8_plantvillage_fc8_plantvillage_0_split_0
I0403 13:27:39.185745 11293 net.cpp:399] prob -> prob
I0403 13:27:39.185976 11293 net.cpp:141] Setting up prob
I0403 13:27:39.186005 11293 net.cpp:148] Top shape: 100 38 (3800)
I0403 13:27:39.186022 11293 net.cpp:156] Memory required for data: 831602000
I0403 13:27:39.186036 11293 layer_factory.hpp:77] Creating layer hdf5out
I0403 13:27:39.186055 11293 net.cpp:91] Creating Layer hdf5out
I0403 13:27:39.186071 11293 net.cpp:425] hdf5out <- prob
I0403 13:27:39.186087 11293 net.cpp:425] hdf5out <- label_data_1_split_0
I0403 13:27:39.188694 11293 net.cpp:141] Setting up hdf5out
…
