…
I0403 13:27:09.226430 11278 net.cpp:313] The NetState phase (1) differed from the phase (0) specified by a rule in layer data
I0403 13:27:09.226763 11278 net.cpp:49] Initializing net from parameters: 
state {
  phase: TEST
}
layer {
  name: "data"
  type: "Data"
  top: "data"
  top: "label"
  include {
    phase: TEST
  }
  transform_param {
    crop_size: 227
    mean_file: "/home/mohanty/data/final_dataset/lmdb/segmented-80-20/mean.binaryproto"
  }
  data_param {
    source: "/home/mohanty/data/final_dataset/lmdb/segmented-80-20/test_db"
    batch_size: 100
    backend: LMDB
  }
}
layer {
  name: "conv1"
  type: "Convolution"
  bottom: "data"
  top: "conv1"
  param {
    lr_mult: 1
    decay_mult: 1
  }
  param {
    lr_mult: 2
    decay_mult: 0
  }
  convolution_param {
    num_output: 96
    kernel_size: 11
    stride: 4
    weight_filler {
      type: "gaussian"
      std: 0.01
    }
    bias_filler {
      type: "constant"
      value: 0
    }
  }
}
layer {
  name: "relu1"
  type: "ReLU"
  bottom: "conv1"
  top: "conv1"
}
layer {
  name: "norm1"
  type: "LRN"
  bottom: "conv1"
  top: "norm1"
  lrn_param {
    local_size: 5
    alpha: 0.0001
    beta: 0.75
  }
}
layer {
  name: "pool1"
  type: "Pooling"
  bottom: "norm1"
  top: "pool1"
  pooling_param {
    pool: MAX
    kernel_size: 3
    stride: 2
  }
}
layer {
  name: "conv2"
  type: "Convolution"
  bottom: "pool1"
  top: "conv2"
  param {
    lr_mult: 1
    decay_mult: 1
  }
  param {
    lr_mult: 2
    decay_mult: 0
  }
  convolution_param {
    num_output: 256
    pad: 2
    kernel_size: 5
    group: 2
    weight_filler {
      type: "gaussian"
      std: 0.01
    }
    bias_filler {
      type: "constant"
      value: 0.1
    }
  }
}
layer {
  name: "relu2"
  type: "ReLU"
  bottom: "conv2"
  top: "conv2"
}
layer {
  name: "norm2"
  type: "LRN"
  bottom: "conv2"
  top: "norm2"
  lrn_param {
    local_size: 5
    alpha: 0.0001
    beta: 0.75
  }
}
layer {
  name: "pool2"
  type: "Pooling"
  bottom: "norm2"
  top: "pool2"
  pooling_param {
    pool: MAX
    kernel_size: 3
    stride: 2
  }
}
layer {
  name: "conv3"
  type: "Convolution"
  bottom: "pool2"
  top: "conv3"
  param {
    lr_mult: 1
    decay_mult: 1
  }
  param {
    lr_mult: 2
    decay_mult: 0
  }
  convolution_param {
    num_output: 384
    pad: 1
    kernel_size: 3
    weight_filler {
      type: "gaussian"
      std: 0.01
    }
    bias_filler {
      type: "constant"
      value: 0
    }
  }
}
layer {
  name: "relu3"
  type: "ReLU"
  bottom: "conv3"
  top: "conv3"
}
layer {
  name: "conv4"
  type: "Convolution"
  bottom: "conv3"
  top: "conv4"
  param {
    lr_mult: 1
    decay_mult: 1
  }
  param {
    lr_mult: 2
    decay_mult: 0
  }
  convolution_param {
    num_output: 384
    pad: 1
    kernel_size: 3
    group: 2
    weight_filler {
      type: "gaussian"
      std: 0.01
    }
    bias_filler {
      type: "constant"
      value: 0.1
    }
  }
}
layer {
  name: "relu4"
  type: "ReLU"
  bottom: "conv4"
  top: "conv4"
}
layer {
  name: "conv5"
  type: "Convolution"
  bottom: "conv4"
  top: "conv5"
  param {
    lr_mult: 1
    decay_mult: 1
  }
  param {
    lr_mult: 2
    decay_mult: 0
  }
  convolution_param {
    num_output: 256
    pad: 1
    kernel_size: 3
    group: 2
    weight_filler {
      type: "gaussian"
      std: 0.01
    }
    bias_filler {
      type: "constant"
      value: 0.1
    }
  }
}
layer {
  name: "relu5"
  type: "ReLU"
  bottom: "conv5"
  top: "conv5"
}
layer {
  name: "pool5"
  type: "Pooling"
  bottom: "conv5"
  top: "pool5"
  pooling_param {
    pool: MAX
    kernel_size: 3
    stride: 2
  }
}
layer {
  name: "fc6"
  type: "InnerProduct"
  bottom: "pool5"
  top: "fc6"
  param {
    lr_mult: 1
    decay_mult: 1
  }
  param {
    lr_mult: 2
    decay_mult: 0
  }
  inner_product_param {
    num_output: 4096
    weight_filler {
      type: "gaussian"
      std: 0.005
    }
    bias_filler {
      type: "constant"
      value: 0.1
    }
  }
}
layer {
  name: "relu6"
  type: "ReLU"
  bottom: "fc6"
  top: "fc6"
}
layer {
  name: "drop6"
  type: "Dropout"
  bottom: "fc6"
  top: "fc6"
  dropout_param {
    dropout_ratio: 0.5
  }
}
layer {
  name: "fc7"
  type: "InnerProduct"
  bottom: "fc6"
  top: "fc7"
  param {
    lr_mult: 1
    decay_mult: 1
  }
  param {
    lr_mult: 2
    decay_mult: 0
  }
  inner_product_param {
    num_output: 4096
    weight_filler {
      type: "gaussian"
      std: 0.005
    }
    bias_filler {
      type: "constant"
      value: 0.1
    }
  }
}
layer {
  name: "relu7"
  type: "ReLU"
  bottom: "fc7"
  top: "fc7"
}
layer {
  name: "drop7"
  type: "Dropout"
  bottom: "fc7"
  top: "fc7"
  dropout_param {
    dropout_ratio: 0.5
  }
}
layer {
  name: "fc8_plantvillage"
  type: "InnerProduct"
  bottom: "fc7"
  top: "fc8_plantvillage"
  param {
    lr_mult: 1
    decay_mult: 1
  }
  param {
    lr_mult: 2
    decay_mult: 0
  }
  inner_product_param {
    num_output: 38
    weight_filler {
      type: "gaussian"
      std: 0.01
    }
    bias_filler {
      type: "constant"
      value: 0
    }
  }
}
layer {
  name: "prob"
  type: "Softmax"
  bottom: "fc8_plantvillage"
  top: "prob"
  include {
    phase: TEST
  }
}
layer {
  name: "hdf5out"
  type: "HDF5Output"
  bottom: "prob"
  bottom: "label"
  include {
    phase: TEST
  }
  hdf5_output_param {
    file_name: "hdf5_dumps/iter_9570.h5"
  }
}
layer {
  name: "loss"
  type: "SoftmaxWithLoss"
  bottom: "fc8_plantvillage"
  bottom: "label"
  top: "loss"
}
layer {
  name: "accuracy"
  type: "Accuracy"
  bottom: "fc8_plantvillage"
  bottom: "label"
  top: "accuracy"
  include {
    phase: TEST
  }
}
I0403 13:27:09.227335 11278 layer_factory.hpp:77] Creating layer data
I0403 13:27:09.227999 11278 net.cpp:91] Creating Layer data
I0403 13:27:09.228032 11278 net.cpp:399] data -> data
I0403 13:27:09.228085 11278 net.cpp:399] data -> label
I0403 13:27:09.228121 11278 data_transformer.cpp:25] Loading mean file from: /home/mohanty/data/final_dataset/lmdb/segmented-80-20/mean.binaryproto
I0403 13:27:09.231541 11281 db_lmdb.cpp:38] Opened lmdb /home/mohanty/data/final_dataset/lmdb/segmented-80-20/test_db
I0403 13:27:09.242583 11278 data_layer.cpp:41] output data size: 100,3,227,227
I0403 13:27:09.361949 11278 net.cpp:141] Setting up data
I0403 13:27:09.362040 11278 net.cpp:148] Top shape: 100 3 227 227 (15458700)
I0403 13:27:09.362061 11278 net.cpp:148] Top shape: 100 (100)
I0403 13:27:09.362076 11278 net.cpp:156] Memory required for data: 61835200
I0403 13:27:09.362102 11278 layer_factory.hpp:77] Creating layer label_data_1_split
I0403 13:27:09.362126 11278 net.cpp:91] Creating Layer label_data_1_split
I0403 13:27:09.362143 11278 net.cpp:425] label_data_1_split <- label
I0403 13:27:09.362174 11278 net.cpp:399] label_data_1_split -> label_data_1_split_0
I0403 13:27:09.362200 11278 net.cpp:399] label_data_1_split -> label_data_1_split_1
I0403 13:27:09.362220 11278 net.cpp:399] label_data_1_split -> label_data_1_split_2
I0403 13:27:09.362279 11278 net.cpp:141] Setting up label_data_1_split
I0403 13:27:09.362301 11278 net.cpp:148] Top shape: 100 (100)
I0403 13:27:09.362316 11278 net.cpp:148] Top shape: 100 (100)
I0403 13:27:09.362330 11278 net.cpp:148] Top shape: 100 (100)
I0403 13:27:09.362344 11278 net.cpp:156] Memory required for data: 61836400
I0403 13:27:09.362357 11278 layer_factory.hpp:77] Creating layer conv1
I0403 13:27:09.362386 11278 net.cpp:91] Creating Layer conv1
I0403 13:27:09.362404 11278 net.cpp:425] conv1 <- data
I0403 13:27:09.362422 11278 net.cpp:399] conv1 -> conv1
I0403 13:27:09.500506 11278 net.cpp:141] Setting up conv1
I0403 13:27:09.500587 11278 net.cpp:148] Top shape: 100 96 55 55 (29040000)
I0403 13:27:09.500604 11278 net.cpp:156] Memory required for data: 177996400
I0403 13:27:09.500635 11278 layer_factory.hpp:77] Creating layer relu1
I0403 13:27:09.500661 11278 net.cpp:91] Creating Layer relu1
I0403 13:27:09.500679 11278 net.cpp:425] relu1 <- conv1
I0403 13:27:09.500697 11278 net.cpp:386] relu1 -> conv1 (in-place)
I0403 13:27:09.500963 11278 net.cpp:141] Setting up relu1
I0403 13:27:09.500990 11278 net.cpp:148] Top shape: 100 96 55 55 (29040000)
I0403 13:27:09.501037 11278 net.cpp:156] Memory required for data: 294156400
I0403 13:27:09.501054 11278 layer_factory.hpp:77] Creating layer norm1
I0403 13:27:09.501082 11278 net.cpp:91] Creating Layer norm1
I0403 13:27:09.501099 11278 net.cpp:425] norm1 <- conv1
I0403 13:27:09.501116 11278 net.cpp:399] norm1 -> norm1
I0403 13:27:09.501444 11278 net.cpp:141] Setting up norm1
I0403 13:27:09.501474 11278 net.cpp:148] Top shape: 100 96 55 55 (29040000)
I0403 13:27:09.501493 11278 net.cpp:156] Memory required for data: 410316400
I0403 13:27:09.501508 11278 layer_factory.hpp:77] Creating layer pool1
I0403 13:27:09.501531 11278 net.cpp:91] Creating Layer pool1
I0403 13:27:09.501554 11278 net.cpp:425] pool1 <- norm1
I0403 13:27:09.501571 11278 net.cpp:399] pool1 -> pool1
I0403 13:27:09.501642 11278 net.cpp:141] Setting up pool1
I0403 13:27:09.501667 11278 net.cpp:148] Top shape: 100 96 27 27 (6998400)
I0403 13:27:09.501680 11278 net.cpp:156] Memory required for data: 438310000
I0403 13:27:09.501694 11278 layer_factory.hpp:77] Creating layer conv2
I0403 13:27:09.501721 11278 net.cpp:91] Creating Layer conv2
I0403 13:27:09.501739 11278 net.cpp:425] conv2 <- pool1
I0403 13:27:09.501770 11278 net.cpp:399] conv2 -> conv2
I0403 13:27:09.516571 11278 net.cpp:141] Setting up conv2
I0403 13:27:09.516621 11278 net.cpp:148] Top shape: 100 256 27 27 (18662400)
I0403 13:27:09.516638 11278 net.cpp:156] Memory required for data: 512959600
I0403 13:27:09.516659 11278 layer_factory.hpp:77] Creating layer relu2
I0403 13:27:09.516680 11278 net.cpp:91] Creating Layer relu2
I0403 13:27:09.516696 11278 net.cpp:425] relu2 <- conv2
I0403 13:27:09.516713 11278 net.cpp:386] relu2 -> conv2 (in-place)
I0403 13:27:09.516986 11278 net.cpp:141] Setting up relu2
I0403 13:27:09.517014 11278 net.cpp:148] Top shape: 100 256 27 27 (18662400)
I0403 13:27:09.517030 11278 net.cpp:156] Memory required for data: 587609200
I0403 13:27:09.517045 11278 layer_factory.hpp:77] Creating layer norm2
I0403 13:27:09.517065 11278 net.cpp:91] Creating Layer norm2
I0403 13:27:09.517079 11278 net.cpp:425] norm2 <- conv2
I0403 13:27:09.517099 11278 net.cpp:399] norm2 -> norm2
I0403 13:27:09.517289 11278 net.cpp:141] Setting up norm2
I0403 13:27:09.517326 11278 net.cpp:148] Top shape: 100 256 27 27 (18662400)
I0403 13:27:09.517343 11278 net.cpp:156] Memory required for data: 662258800
I0403 13:27:09.517357 11278 layer_factory.hpp:77] Creating layer pool2
I0403 13:27:09.517379 11278 net.cpp:91] Creating Layer pool2
I0403 13:27:09.517395 11278 net.cpp:425] pool2 <- norm2
I0403 13:27:09.517411 11278 net.cpp:399] pool2 -> pool2
I0403 13:27:09.517464 11278 net.cpp:141] Setting up pool2
I0403 13:27:09.517488 11278 net.cpp:148] Top shape: 100 256 13 13 (4326400)
I0403 13:27:09.517503 11278 net.cpp:156] Memory required for data: 679564400
I0403 13:27:09.517516 11278 layer_factory.hpp:77] Creating layer conv3
I0403 13:27:09.517544 11278 net.cpp:91] Creating Layer conv3
I0403 13:27:09.517562 11278 net.cpp:425] conv3 <- pool2
I0403 13:27:09.517582 11278 net.cpp:399] conv3 -> conv3
I0403 13:27:09.555487 11278 net.cpp:141] Setting up conv3
I0403 13:27:09.555575 11278 net.cpp:148] Top shape: 100 384 13 13 (6489600)
I0403 13:27:09.555593 11278 net.cpp:156] Memory required for data: 705522800
I0403 13:27:09.555620 11278 layer_factory.hpp:77] Creating layer relu3
I0403 13:27:09.555644 11278 net.cpp:91] Creating Layer relu3
I0403 13:27:09.555661 11278 net.cpp:425] relu3 <- conv3
I0403 13:27:09.555680 11278 net.cpp:386] relu3 -> conv3 (in-place)
I0403 13:27:09.555955 11278 net.cpp:141] Setting up relu3
I0403 13:27:09.555984 11278 net.cpp:148] Top shape: 100 384 13 13 (6489600)
I0403 13:27:09.556000 11278 net.cpp:156] Memory required for data: 731481200
I0403 13:27:09.556015 11278 layer_factory.hpp:77] Creating layer conv4
I0403 13:27:09.556038 11278 net.cpp:91] Creating Layer conv4
I0403 13:27:09.556054 11278 net.cpp:425] conv4 <- conv3
I0403 13:27:09.556073 11278 net.cpp:399] conv4 -> conv4
I0403 13:27:09.585861 11278 net.cpp:141] Setting up conv4
I0403 13:27:09.585933 11278 net.cpp:148] Top shape: 100 384 13 13 (6489600)
I0403 13:27:09.585988 11278 net.cpp:156] Memory required for data: 757439600
I0403 13:27:09.586010 11278 layer_factory.hpp:77] Creating layer relu4
I0403 13:27:09.586035 11278 net.cpp:91] Creating Layer relu4
I0403 13:27:09.586051 11278 net.cpp:425] relu4 <- conv4
I0403 13:27:09.586071 11278 net.cpp:386] relu4 -> conv4 (in-place)
I0403 13:27:09.586354 11278 net.cpp:141] Setting up relu4
I0403 13:27:09.586380 11278 net.cpp:148] Top shape: 100 384 13 13 (6489600)
I0403 13:27:09.586395 11278 net.cpp:156] Memory required for data: 783398000
I0403 13:27:09.586410 11278 layer_factory.hpp:77] Creating layer conv5
I0403 13:27:09.586436 11278 net.cpp:91] Creating Layer conv5
I0403 13:27:09.586453 11278 net.cpp:425] conv5 <- conv4
I0403 13:27:09.586473 11278 net.cpp:399] conv5 -> conv5
I0403 13:27:09.606989 11278 net.cpp:141] Setting up conv5
I0403 13:27:09.607045 11278 net.cpp:148] Top shape: 100 256 13 13 (4326400)
I0403 13:27:09.607062 11278 net.cpp:156] Memory required for data: 800703600
I0403 13:27:09.607086 11278 layer_factory.hpp:77] Creating layer relu5
I0403 13:27:09.607111 11278 net.cpp:91] Creating Layer relu5
I0403 13:27:09.607130 11278 net.cpp:425] relu5 <- conv5
I0403 13:27:09.607147 11278 net.cpp:386] relu5 -> conv5 (in-place)
I0403 13:27:09.607426 11278 net.cpp:141] Setting up relu5
I0403 13:27:09.607453 11278 net.cpp:148] Top shape: 100 256 13 13 (4326400)
I0403 13:27:09.607468 11278 net.cpp:156] Memory required for data: 818009200
I0403 13:27:09.607482 11278 layer_factory.hpp:77] Creating layer pool5
I0403 13:27:09.607507 11278 net.cpp:91] Creating Layer pool5
I0403 13:27:09.607525 11278 net.cpp:425] pool5 <- conv5
I0403 13:27:09.607549 11278 net.cpp:399] pool5 -> pool5
I0403 13:27:09.607611 11278 net.cpp:141] Setting up pool5
I0403 13:27:09.607635 11278 net.cpp:148] Top shape: 100 256 6 6 (921600)
I0403 13:27:09.607650 11278 net.cpp:156] Memory required for data: 821695600
I0403 13:27:09.607663 11278 layer_factory.hpp:77] Creating layer fc6
I0403 13:27:09.607691 11278 net.cpp:91] Creating Layer fc6
I0403 13:27:09.607707 11278 net.cpp:425] fc6 <- pool5
I0403 13:27:09.607728 11278 net.cpp:399] fc6 -> fc6
I0403 13:27:11.175093 11278 net.cpp:141] Setting up fc6
I0403 13:27:11.175163 11278 net.cpp:148] Top shape: 100 4096 (409600)
I0403 13:27:11.175179 11278 net.cpp:156] Memory required for data: 823334000
I0403 13:27:11.175197 11278 layer_factory.hpp:77] Creating layer relu6
I0403 13:27:11.175217 11278 net.cpp:91] Creating Layer relu6
I0403 13:27:11.175236 11278 net.cpp:425] relu6 <- fc6
I0403 13:27:11.175254 11278 net.cpp:386] relu6 -> fc6 (in-place)
I0403 13:27:11.175470 11278 net.cpp:141] Setting up relu6
I0403 13:27:11.175493 11278 net.cpp:148] Top shape: 100 4096 (409600)
I0403 13:27:11.175508 11278 net.cpp:156] Memory required for data: 824972400
I0403 13:27:11.175520 11278 layer_factory.hpp:77] Creating layer drop6
I0403 13:27:11.175544 11278 net.cpp:91] Creating Layer drop6
I0403 13:27:11.175561 11278 net.cpp:425] drop6 <- fc6
I0403 13:27:11.175576 11278 net.cpp:386] drop6 -> fc6 (in-place)
I0403 13:27:11.175626 11278 net.cpp:141] Setting up drop6
I0403 13:27:11.175647 11278 net.cpp:148] Top shape: 100 4096 (409600)
I0403 13:27:11.175660 11278 net.cpp:156] Memory required for data: 826610800
I0403 13:27:11.175674 11278 layer_factory.hpp:77] Creating layer fc7
I0403 13:27:11.175693 11278 net.cpp:91] Creating Layer fc7
I0403 13:27:11.175706 11278 net.cpp:425] fc7 <- fc6
I0403 13:27:11.175725 11278 net.cpp:399] fc7 -> fc7
I0403 13:27:13.849197 11278 net.cpp:141] Setting up fc7
I0403 13:27:13.849288 11278 net.cpp:148] Top shape: 100 4096 (409600)
I0403 13:27:13.849306 11278 net.cpp:156] Memory required for data: 828249200
I0403 13:27:13.849328 11278 layer_factory.hpp:77] Creating layer relu7
I0403 13:27:13.849351 11278 net.cpp:91] Creating Layer relu7
I0403 13:27:13.849370 11278 net.cpp:425] relu7 <- fc7
I0403 13:27:13.849390 11278 net.cpp:386] relu7 -> fc7 (in-place)
I0403 13:27:13.849787 11278 net.cpp:141] Setting up relu7
I0403 13:27:13.849815 11278 net.cpp:148] Top shape: 100 4096 (409600)
I0403 13:27:13.849872 11278 net.cpp:156] Memory required for data: 829887600
I0403 13:27:13.849889 11278 layer_factory.hpp:77] Creating layer drop7
I0403 13:27:13.849910 11278 net.cpp:91] Creating Layer drop7
I0403 13:27:13.849926 11278 net.cpp:425] drop7 <- fc7
I0403 13:27:13.849944 11278 net.cpp:386] drop7 -> fc7 (in-place)
I0403 13:27:13.849989 11278 net.cpp:141] Setting up drop7
I0403 13:27:13.850013 11278 net.cpp:148] Top shape: 100 4096 (409600)
I0403 13:27:13.850026 11278 net.cpp:156] Memory required for data: 831526000
I0403 13:27:13.850040 11278 layer_factory.hpp:77] Creating layer fc8_plantvillage
I0403 13:27:13.850062 11278 net.cpp:91] Creating Layer fc8_plantvillage
I0403 13:27:13.850080 11278 net.cpp:425] fc8_plantvillage <- fc7
I0403 13:27:13.850096 11278 net.cpp:399] fc8_plantvillage -> fc8_plantvillage
I0403 13:27:13.857051 11278 net.cpp:141] Setting up fc8_plantvillage
I0403 13:27:13.857081 11278 net.cpp:148] Top shape: 100 38 (3800)
I0403 13:27:13.857097 11278 net.cpp:156] Memory required for data: 831541200
I0403 13:27:13.857116 11278 layer_factory.hpp:77] Creating layer fc8_plantvillage_fc8_plantvillage_0_split
I0403 13:27:13.857138 11278 net.cpp:91] Creating Layer fc8_plantvillage_fc8_plantvillage_0_split
I0403 13:27:13.857154 11278 net.cpp:425] fc8_plantvillage_fc8_plantvillage_0_split <- fc8_plantvillage
I0403 13:27:13.857172 11278 net.cpp:399] fc8_plantvillage_fc8_plantvillage_0_split -> fc8_plantvillage_fc8_plantvillage_0_split_0
I0403 13:27:13.857194 11278 net.cpp:399] fc8_plantvillage_fc8_plantvillage_0_split -> fc8_plantvillage_fc8_plantvillage_0_split_1
I0403 13:27:13.857214 11278 net.cpp:399] fc8_plantvillage_fc8_plantvillage_0_split -> fc8_plantvillage_fc8_plantvillage_0_split_2
I0403 13:27:13.857295 11278 net.cpp:141] Setting up fc8_plantvillage_fc8_plantvillage_0_split
I0403 13:27:13.857318 11278 net.cpp:148] Top shape: 100 38 (3800)
I0403 13:27:13.857334 11278 net.cpp:148] Top shape: 100 38 (3800)
I0403 13:27:13.857349 11278 net.cpp:148] Top shape: 100 38 (3800)
I0403 13:27:13.857363 11278 net.cpp:156] Memory required for data: 831586800
I0403 13:27:13.857378 11278 layer_factory.hpp:77] Creating layer prob
I0403 13:27:13.857398 11278 net.cpp:91] Creating Layer prob
I0403 13:27:13.857414 11278 net.cpp:425] prob <- fc8_plantvillage_fc8_plantvillage_0_split_0
I0403 13:27:13.857431 11278 net.cpp:399] prob -> prob
I0403 13:27:13.857687 11278 net.cpp:141] Setting up prob
I0403 13:27:13.857714 11278 net.cpp:148] Top shape: 100 38 (3800)
I0403 13:27:13.857729 11278 net.cpp:156] Memory required for data: 831602000
I0403 13:27:13.857743 11278 layer_factory.hpp:77] Creating layer hdf5out
I0403 13:27:13.857764 11278 net.cpp:91] Creating Layer hdf5out
I0403 13:27:13.857782 11278 net.cpp:425] hdf5out <- prob
I0403 13:27:13.857798 11278 net.cpp:425] hdf5out <- label_data_1_split_0
I0403 13:27:13.860074 11278 net.cpp:141] Setting up hdf5out
…
