…
I0403 13:20:56.590129 10937 net.cpp:313] The NetState phase (1) differed from the phase (0) specified by a rule in layer data
I0403 13:20:56.590456 10937 net.cpp:49] Initializing net from parameters: 
state {
  phase: TEST
}
layer {
  name: "data"
  type: "Data"
  top: "data"
  top: "label"
  include {
    phase: TEST
  }
  transform_param {
    crop_size: 227
    mean_file: "/home/mohanty/data/final_dataset/lmdb/segmented-80-20/mean.binaryproto"
  }
  data_param {
    source: "/home/mohanty/data/final_dataset/lmdb/segmented-80-20/test_db"
    batch_size: 100
    backend: LMDB
  }
}
layer {
  name: "conv1"
  type: "Convolution"
  bottom: "data"
  top: "conv1"
  param {
    lr_mult: 1
    decay_mult: 1
  }
  param {
    lr_mult: 2
    decay_mult: 0
  }
  convolution_param {
    num_output: 96
    kernel_size: 11
    stride: 4
    weight_filler {
      type: "gaussian"
      std: 0.01
    }
    bias_filler {
      type: "constant"
      value: 0
    }
  }
}
layer {
  name: "relu1"
  type: "ReLU"
  bottom: "conv1"
  top: "conv1"
}
layer {
  name: "norm1"
  type: "LRN"
  bottom: "conv1"
  top: "norm1"
  lrn_param {
    local_size: 5
    alpha: 0.0001
    beta: 0.75
  }
}
layer {
  name: "pool1"
  type: "Pooling"
  bottom: "norm1"
  top: "pool1"
  pooling_param {
    pool: MAX
    kernel_size: 3
    stride: 2
  }
}
layer {
  name: "conv2"
  type: "Convolution"
  bottom: "pool1"
  top: "conv2"
  param {
    lr_mult: 1
    decay_mult: 1
  }
  param {
    lr_mult: 2
    decay_mult: 0
  }
  convolution_param {
    num_output: 256
    pad: 2
    kernel_size: 5
    group: 2
    weight_filler {
      type: "gaussian"
      std: 0.01
    }
    bias_filler {
      type: "constant"
      value: 0.1
    }
  }
}
layer {
  name: "relu2"
  type: "ReLU"
  bottom: "conv2"
  top: "conv2"
}
layer {
  name: "norm2"
  type: "LRN"
  bottom: "conv2"
  top: "norm2"
  lrn_param {
    local_size: 5
    alpha: 0.0001
    beta: 0.75
  }
}
layer {
  name: "pool2"
  type: "Pooling"
  bottom: "norm2"
  top: "pool2"
  pooling_param {
    pool: MAX
    kernel_size: 3
    stride: 2
  }
}
layer {
  name: "conv3"
  type: "Convolution"
  bottom: "pool2"
  top: "conv3"
  param {
    lr_mult: 1
    decay_mult: 1
  }
  param {
    lr_mult: 2
    decay_mult: 0
  }
  convolution_param {
    num_output: 384
    pad: 1
    kernel_size: 3
    weight_filler {
      type: "gaussian"
      std: 0.01
    }
    bias_filler {
      type: "constant"
      value: 0
    }
  }
}
layer {
  name: "relu3"
  type: "ReLU"
  bottom: "conv3"
  top: "conv3"
}
layer {
  name: "conv4"
  type: "Convolution"
  bottom: "conv3"
  top: "conv4"
  param {
    lr_mult: 1
    decay_mult: 1
  }
  param {
    lr_mult: 2
    decay_mult: 0
  }
  convolution_param {
    num_output: 384
    pad: 1
    kernel_size: 3
    group: 2
    weight_filler {
      type: "gaussian"
      std: 0.01
    }
    bias_filler {
      type: "constant"
      value: 0.1
    }
  }
}
layer {
  name: "relu4"
  type: "ReLU"
  bottom: "conv4"
  top: "conv4"
}
layer {
  name: "conv5"
  type: "Convolution"
  bottom: "conv4"
  top: "conv5"
  param {
    lr_mult: 1
    decay_mult: 1
  }
  param {
    lr_mult: 2
    decay_mult: 0
  }
  convolution_param {
    num_output: 256
    pad: 1
    kernel_size: 3
    group: 2
    weight_filler {
      type: "gaussian"
      std: 0.01
    }
    bias_filler {
      type: "constant"
      value: 0.1
    }
  }
}
layer {
  name: "relu5"
  type: "ReLU"
  bottom: "conv5"
  top: "conv5"
}
layer {
  name: "pool5"
  type: "Pooling"
  bottom: "conv5"
  top: "pool5"
  pooling_param {
    pool: MAX
    kernel_size: 3
    stride: 2
  }
}
layer {
  name: "fc6"
  type: "InnerProduct"
  bottom: "pool5"
  top: "fc6"
  param {
    lr_mult: 1
    decay_mult: 1
  }
  param {
    lr_mult: 2
    decay_mult: 0
  }
  inner_product_param {
    num_output: 4096
    weight_filler {
      type: "gaussian"
      std: 0.005
    }
    bias_filler {
      type: "constant"
      value: 0.1
    }
  }
}
layer {
  name: "relu6"
  type: "ReLU"
  bottom: "fc6"
  top: "fc6"
}
layer {
  name: "drop6"
  type: "Dropout"
  bottom: "fc6"
  top: "fc6"
  dropout_param {
    dropout_ratio: 0.5
  }
}
layer {
  name: "fc7"
  type: "InnerProduct"
  bottom: "fc6"
  top: "fc7"
  param {
    lr_mult: 1
    decay_mult: 1
  }
  param {
    lr_mult: 2
    decay_mult: 0
  }
  inner_product_param {
    num_output: 4096
    weight_filler {
      type: "gaussian"
      std: 0.005
    }
    bias_filler {
      type: "constant"
      value: 0.1
    }
  }
}
layer {
  name: "relu7"
  type: "ReLU"
  bottom: "fc7"
  top: "fc7"
}
layer {
  name: "drop7"
  type: "Dropout"
  bottom: "fc7"
  top: "fc7"
  dropout_param {
    dropout_ratio: 0.5
  }
}
layer {
  name: "fc8_plantvillage"
  type: "InnerProduct"
  bottom: "fc7"
  top: "fc8_plantvillage"
  param {
    lr_mult: 1
    decay_mult: 1
  }
  param {
    lr_mult: 2
    decay_mult: 0
  }
  inner_product_param {
    num_output: 38
    weight_filler {
      type: "gaussian"
      std: 0.01
    }
    bias_filler {
      type: "constant"
      value: 0
    }
  }
}
layer {
  name: "prob"
  type: "Softmax"
  bottom: "fc8_plantvillage"
  top: "prob"
  include {
    phase: TEST
  }
}
layer {
  name: "hdf5out"
  type: "HDF5Output"
  bottom: "prob"
  bottom: "label"
  include {
    phase: TEST
  }
  hdf5_output_param {
    file_name: "hdf5_dumps/iter_3045.h5"
  }
}
layer {
  name: "loss"
  type: "SoftmaxWithLoss"
  bottom: "fc8_plantvillage"
  bottom: "label"
  top: "loss"
}
layer {
  name: "accuracy"
  type: "Accuracy"
  bottom: "fc8_plantvillage"
  bottom: "label"
  top: "accuracy"
  include {
    phase: TEST
  }
}
I0403 13:20:56.591058 10937 layer_factory.hpp:77] Creating layer data
I0403 13:20:56.591737 10937 net.cpp:91] Creating Layer data
I0403 13:20:56.591768 10937 net.cpp:399] data -> data
I0403 13:20:56.591820 10937 net.cpp:399] data -> label
I0403 13:20:56.591858 10937 data_transformer.cpp:25] Loading mean file from: /home/mohanty/data/final_dataset/lmdb/segmented-80-20/mean.binaryproto
I0403 13:20:56.595600 10939 db_lmdb.cpp:38] Opened lmdb /home/mohanty/data/final_dataset/lmdb/segmented-80-20/test_db
I0403 13:20:56.606179 10937 data_layer.cpp:41] output data size: 100,3,227,227
I0403 13:20:56.725002 10937 net.cpp:141] Setting up data
I0403 13:20:56.725059 10937 net.cpp:148] Top shape: 100 3 227 227 (15458700)
I0403 13:20:56.725080 10937 net.cpp:148] Top shape: 100 (100)
I0403 13:20:56.725095 10937 net.cpp:156] Memory required for data: 61835200
I0403 13:20:56.725122 10937 layer_factory.hpp:77] Creating layer label_data_1_split
I0403 13:20:56.725147 10937 net.cpp:91] Creating Layer label_data_1_split
I0403 13:20:56.725162 10937 net.cpp:425] label_data_1_split <- label
I0403 13:20:56.725194 10937 net.cpp:399] label_data_1_split -> label_data_1_split_0
I0403 13:20:56.725219 10937 net.cpp:399] label_data_1_split -> label_data_1_split_1
I0403 13:20:56.725239 10937 net.cpp:399] label_data_1_split -> label_data_1_split_2
I0403 13:20:56.725298 10937 net.cpp:141] Setting up label_data_1_split
I0403 13:20:56.725320 10937 net.cpp:148] Top shape: 100 (100)
I0403 13:20:56.725348 10937 net.cpp:148] Top shape: 100 (100)
I0403 13:20:56.725364 10937 net.cpp:148] Top shape: 100 (100)
I0403 13:20:56.725378 10937 net.cpp:156] Memory required for data: 61836400
I0403 13:20:56.725394 10937 layer_factory.hpp:77] Creating layer conv1
I0403 13:20:56.725425 10937 net.cpp:91] Creating Layer conv1
I0403 13:20:56.725442 10937 net.cpp:425] conv1 <- data
I0403 13:20:56.725461 10937 net.cpp:399] conv1 -> conv1
I0403 13:20:56.861804 10937 net.cpp:141] Setting up conv1
I0403 13:20:56.861881 10937 net.cpp:148] Top shape: 100 96 55 55 (29040000)
I0403 13:20:56.861899 10937 net.cpp:156] Memory required for data: 177996400
I0403 13:20:56.861932 10937 layer_factory.hpp:77] Creating layer relu1
I0403 13:20:56.861961 10937 net.cpp:91] Creating Layer relu1
I0403 13:20:56.861980 10937 net.cpp:425] relu1 <- conv1
I0403 13:20:56.862000 10937 net.cpp:386] relu1 -> conv1 (in-place)
I0403 13:20:56.862285 10937 net.cpp:141] Setting up relu1
I0403 13:20:56.862315 10937 net.cpp:148] Top shape: 100 96 55 55 (29040000)
I0403 13:20:56.862365 10937 net.cpp:156] Memory required for data: 294156400
I0403 13:20:56.862380 10937 layer_factory.hpp:77] Creating layer norm1
I0403 13:20:56.862408 10937 net.cpp:91] Creating Layer norm1
I0403 13:20:56.862432 10937 net.cpp:425] norm1 <- conv1
I0403 13:20:56.862450 10937 net.cpp:399] norm1 -> norm1
I0403 13:20:56.862790 10937 net.cpp:141] Setting up norm1
I0403 13:20:56.862818 10937 net.cpp:148] Top shape: 100 96 55 55 (29040000)
I0403 13:20:56.862833 10937 net.cpp:156] Memory required for data: 410316400
I0403 13:20:56.862854 10937 layer_factory.hpp:77] Creating layer pool1
I0403 13:20:56.862877 10937 net.cpp:91] Creating Layer pool1
I0403 13:20:56.862898 10937 net.cpp:425] pool1 <- norm1
I0403 13:20:56.862916 10937 net.cpp:399] pool1 -> pool1
I0403 13:20:56.862987 10937 net.cpp:141] Setting up pool1
I0403 13:20:56.863011 10937 net.cpp:148] Top shape: 100 96 27 27 (6998400)
I0403 13:20:56.863026 10937 net.cpp:156] Memory required for data: 438310000
I0403 13:20:56.863041 10937 layer_factory.hpp:77] Creating layer conv2
I0403 13:20:56.863067 10937 net.cpp:91] Creating Layer conv2
I0403 13:20:56.863085 10937 net.cpp:425] conv2 <- pool1
I0403 13:20:56.863106 10937 net.cpp:399] conv2 -> conv2
I0403 13:20:56.878166 10937 net.cpp:141] Setting up conv2
I0403 13:20:56.878226 10937 net.cpp:148] Top shape: 100 256 27 27 (18662400)
I0403 13:20:56.878242 10937 net.cpp:156] Memory required for data: 512959600
I0403 13:20:56.878265 10937 layer_factory.hpp:77] Creating layer relu2
I0403 13:20:56.878284 10937 net.cpp:91] Creating Layer relu2
I0403 13:20:56.878300 10937 net.cpp:425] relu2 <- conv2
I0403 13:20:56.878320 10937 net.cpp:386] relu2 -> conv2 (in-place)
I0403 13:20:56.878623 10937 net.cpp:141] Setting up relu2
I0403 13:20:56.878650 10937 net.cpp:148] Top shape: 100 256 27 27 (18662400)
I0403 13:20:56.878665 10937 net.cpp:156] Memory required for data: 587609200
I0403 13:20:56.878681 10937 layer_factory.hpp:77] Creating layer norm2
I0403 13:20:56.878705 10937 net.cpp:91] Creating Layer norm2
I0403 13:20:56.878727 10937 net.cpp:425] norm2 <- conv2
I0403 13:20:56.878748 10937 net.cpp:399] norm2 -> norm2
I0403 13:20:56.878959 10937 net.cpp:141] Setting up norm2
I0403 13:20:56.878990 10937 net.cpp:148] Top shape: 100 256 27 27 (18662400)
I0403 13:20:56.879006 10937 net.cpp:156] Memory required for data: 662258800
I0403 13:20:56.879021 10937 layer_factory.hpp:77] Creating layer pool2
I0403 13:20:56.879047 10937 net.cpp:91] Creating Layer pool2
I0403 13:20:56.879062 10937 net.cpp:425] pool2 <- norm2
I0403 13:20:56.879082 10937 net.cpp:399] pool2 -> pool2
I0403 13:20:56.879137 10937 net.cpp:141] Setting up pool2
I0403 13:20:56.879159 10937 net.cpp:148] Top shape: 100 256 13 13 (4326400)
I0403 13:20:56.879174 10937 net.cpp:156] Memory required for data: 679564400
I0403 13:20:56.879189 10937 layer_factory.hpp:77] Creating layer conv3
I0403 13:20:56.879215 10937 net.cpp:91] Creating Layer conv3
I0403 13:20:56.879231 10937 net.cpp:425] conv3 <- pool2
I0403 13:20:56.879259 10937 net.cpp:399] conv3 -> conv3
I0403 13:20:56.917665 10937 net.cpp:141] Setting up conv3
I0403 13:20:56.917706 10937 net.cpp:148] Top shape: 100 384 13 13 (6489600)
I0403 13:20:56.917722 10937 net.cpp:156] Memory required for data: 705522800
I0403 13:20:56.917747 10937 layer_factory.hpp:77] Creating layer relu3
I0403 13:20:56.917771 10937 net.cpp:91] Creating Layer relu3
I0403 13:20:56.917789 10937 net.cpp:425] relu3 <- conv3
I0403 13:20:56.917809 10937 net.cpp:386] relu3 -> conv3 (in-place)
I0403 13:20:56.918093 10937 net.cpp:141] Setting up relu3
I0403 13:20:56.918120 10937 net.cpp:148] Top shape: 100 384 13 13 (6489600)
I0403 13:20:56.918135 10937 net.cpp:156] Memory required for data: 731481200
I0403 13:20:56.918149 10937 layer_factory.hpp:77] Creating layer conv4
I0403 13:20:56.918175 10937 net.cpp:91] Creating Layer conv4
I0403 13:20:56.918192 10937 net.cpp:425] conv4 <- conv3
I0403 13:20:56.918212 10937 net.cpp:399] conv4 -> conv4
I0403 13:20:56.947965 10937 net.cpp:141] Setting up conv4
I0403 13:20:56.948040 10937 net.cpp:148] Top shape: 100 384 13 13 (6489600)
I0403 13:20:56.948089 10937 net.cpp:156] Memory required for data: 757439600
I0403 13:20:56.948112 10937 layer_factory.hpp:77] Creating layer relu4
I0403 13:20:56.948132 10937 net.cpp:91] Creating Layer relu4
I0403 13:20:56.948148 10937 net.cpp:425] relu4 <- conv4
I0403 13:20:56.948169 10937 net.cpp:386] relu4 -> conv4 (in-place)
I0403 13:20:56.948441 10937 net.cpp:141] Setting up relu4
I0403 13:20:56.948484 10937 net.cpp:148] Top shape: 100 384 13 13 (6489600)
I0403 13:20:56.948505 10937 net.cpp:156] Memory required for data: 783398000
I0403 13:20:56.948521 10937 layer_factory.hpp:77] Creating layer conv5
I0403 13:20:56.948566 10937 net.cpp:91] Creating Layer conv5
I0403 13:20:56.948585 10937 net.cpp:425] conv5 <- conv4
I0403 13:20:56.948604 10937 net.cpp:399] conv5 -> conv5
I0403 13:20:56.969306 10937 net.cpp:141] Setting up conv5
I0403 13:20:56.969363 10937 net.cpp:148] Top shape: 100 256 13 13 (4326400)
I0403 13:20:56.969379 10937 net.cpp:156] Memory required for data: 800703600
I0403 13:20:56.969403 10937 layer_factory.hpp:77] Creating layer relu5
I0403 13:20:56.969424 10937 net.cpp:91] Creating Layer relu5
I0403 13:20:56.969447 10937 net.cpp:425] relu5 <- conv5
I0403 13:20:56.969470 10937 net.cpp:386] relu5 -> conv5 (in-place)
I0403 13:20:56.969772 10937 net.cpp:141] Setting up relu5
I0403 13:20:56.969800 10937 net.cpp:148] Top shape: 100 256 13 13 (4326400)
I0403 13:20:56.969815 10937 net.cpp:156] Memory required for data: 818009200
I0403 13:20:56.969830 10937 layer_factory.hpp:77] Creating layer pool5
I0403 13:20:56.969866 10937 net.cpp:91] Creating Layer pool5
I0403 13:20:56.969882 10937 net.cpp:425] pool5 <- conv5
I0403 13:20:56.969900 10937 net.cpp:399] pool5 -> pool5
I0403 13:20:56.969961 10937 net.cpp:141] Setting up pool5
I0403 13:20:56.969983 10937 net.cpp:148] Top shape: 100 256 6 6 (921600)
I0403 13:20:56.969997 10937 net.cpp:156] Memory required for data: 821695600
I0403 13:20:56.970011 10937 layer_factory.hpp:77] Creating layer fc6
I0403 13:20:56.970039 10937 net.cpp:91] Creating Layer fc6
I0403 13:20:56.970057 10937 net.cpp:425] fc6 <- pool5
I0403 13:20:56.970075 10937 net.cpp:399] fc6 -> fc6
I0403 13:20:58.521764 10937 net.cpp:141] Setting up fc6
I0403 13:20:58.521842 10937 net.cpp:148] Top shape: 100 4096 (409600)
I0403 13:20:58.521858 10937 net.cpp:156] Memory required for data: 823334000
I0403 13:20:58.521880 10937 layer_factory.hpp:77] Creating layer relu6
I0403 13:20:58.521903 10937 net.cpp:91] Creating Layer relu6
I0403 13:20:58.521919 10937 net.cpp:425] relu6 <- fc6
I0403 13:20:58.521944 10937 net.cpp:386] relu6 -> fc6 (in-place)
I0403 13:20:58.522172 10937 net.cpp:141] Setting up relu6
I0403 13:20:58.522197 10937 net.cpp:148] Top shape: 100 4096 (409600)
I0403 13:20:58.522212 10937 net.cpp:156] Memory required for data: 824972400
I0403 13:20:58.522225 10937 layer_factory.hpp:77] Creating layer drop6
I0403 13:20:58.522243 10937 net.cpp:91] Creating Layer drop6
I0403 13:20:58.522258 10937 net.cpp:425] drop6 <- fc6
I0403 13:20:58.522279 10937 net.cpp:386] drop6 -> fc6 (in-place)
I0403 13:20:58.522330 10937 net.cpp:141] Setting up drop6
I0403 13:20:58.522354 10937 net.cpp:148] Top shape: 100 4096 (409600)
I0403 13:20:58.522370 10937 net.cpp:156] Memory required for data: 826610800
I0403 13:20:58.522384 10937 layer_factory.hpp:77] Creating layer fc7
I0403 13:20:58.522404 10937 net.cpp:91] Creating Layer fc7
I0403 13:20:58.522419 10937 net.cpp:425] fc7 <- fc6
I0403 13:20:58.522439 10937 net.cpp:399] fc7 -> fc7
I0403 13:20:59.212555 10937 net.cpp:141] Setting up fc7
I0403 13:20:59.212631 10937 net.cpp:148] Top shape: 100 4096 (409600)
I0403 13:20:59.212646 10937 net.cpp:156] Memory required for data: 828249200
I0403 13:20:59.212667 10937 layer_factory.hpp:77] Creating layer relu7
I0403 13:20:59.212689 10937 net.cpp:91] Creating Layer relu7
I0403 13:20:59.212707 10937 net.cpp:425] relu7 <- fc7
I0403 13:20:59.212728 10937 net.cpp:386] relu7 -> fc7 (in-place)
I0403 13:20:59.213145 10937 net.cpp:141] Setting up relu7
I0403 13:20:59.213171 10937 net.cpp:148] Top shape: 100 4096 (409600)
I0403 13:20:59.213225 10937 net.cpp:156] Memory required for data: 829887600
I0403 13:20:59.213241 10937 layer_factory.hpp:77] Creating layer drop7
I0403 13:20:59.213259 10937 net.cpp:91] Creating Layer drop7
I0403 13:20:59.213275 10937 net.cpp:425] drop7 <- fc7
I0403 13:20:59.213294 10937 net.cpp:386] drop7 -> fc7 (in-place)
I0403 13:20:59.213338 10937 net.cpp:141] Setting up drop7
I0403 13:20:59.213361 10937 net.cpp:148] Top shape: 100 4096 (409600)
I0403 13:20:59.213376 10937 net.cpp:156] Memory required for data: 831526000
I0403 13:20:59.213390 10937 layer_factory.hpp:77] Creating layer fc8_plantvillage
I0403 13:20:59.213410 10937 net.cpp:91] Creating Layer fc8_plantvillage
I0403 13:20:59.213425 10937 net.cpp:425] fc8_plantvillage <- fc7
I0403 13:20:59.213444 10937 net.cpp:399] fc8_plantvillage -> fc8_plantvillage
I0403 13:20:59.220244 10937 net.cpp:141] Setting up fc8_plantvillage
I0403 13:20:59.220274 10937 net.cpp:148] Top shape: 100 38 (3800)
I0403 13:20:59.220288 10937 net.cpp:156] Memory required for data: 831541200
I0403 13:20:59.220306 10937 layer_factory.hpp:77] Creating layer fc8_plantvillage_fc8_plantvillage_0_split
I0403 13:20:59.220325 10937 net.cpp:91] Creating Layer fc8_plantvillage_fc8_plantvillage_0_split
I0403 13:20:59.220340 10937 net.cpp:425] fc8_plantvillage_fc8_plantvillage_0_split <- fc8_plantvillage
I0403 13:20:59.220358 10937 net.cpp:399] fc8_plantvillage_fc8_plantvillage_0_split -> fc8_plantvillage_fc8_plantvillage_0_split_0
I0403 13:20:59.220379 10937 net.cpp:399] fc8_plantvillage_fc8_plantvillage_0_split -> fc8_plantvillage_fc8_plantvillage_0_split_1
I0403 13:20:59.220399 10937 net.cpp:399] fc8_plantvillage_fc8_plantvillage_0_split -> fc8_plantvillage_fc8_plantvillage_0_split_2
I0403 13:20:59.220475 10937 net.cpp:141] Setting up fc8_plantvillage_fc8_plantvillage_0_split
I0403 13:20:59.220499 10937 net.cpp:148] Top shape: 100 38 (3800)
I0403 13:20:59.220513 10937 net.cpp:148] Top shape: 100 38 (3800)
I0403 13:20:59.220527 10937 net.cpp:148] Top shape: 100 38 (3800)
I0403 13:20:59.220546 10937 net.cpp:156] Memory required for data: 831586800
I0403 13:20:59.220561 10937 layer_factory.hpp:77] Creating layer prob
I0403 13:20:59.220578 10937 net.cpp:91] Creating Layer prob
I0403 13:20:59.220593 10937 net.cpp:425] prob <- fc8_plantvillage_fc8_plantvillage_0_split_0
I0403 13:20:59.220613 10937 net.cpp:399] prob -> prob
I0403 13:20:59.220837 10937 net.cpp:141] Setting up prob
I0403 13:20:59.220861 10937 net.cpp:148] Top shape: 100 38 (3800)
I0403 13:20:59.220876 10937 net.cpp:156] Memory required for data: 831602000
I0403 13:20:59.220890 10937 layer_factory.hpp:77] Creating layer hdf5out
I0403 13:20:59.220908 10937 net.cpp:91] Creating Layer hdf5out
I0403 13:20:59.220923 10937 net.cpp:425] hdf5out <- prob
I0403 13:20:59.220938 10937 net.cpp:425] hdf5out <- label_data_1_split_0
I0403 13:20:59.223430 10937 net.cpp:141] Setting up hdf5out
…
