…
I0403 13:21:20.774457 10951 net.cpp:313] The NetState phase (1) differed from the phase (0) specified by a rule in layer data
I0403 13:21:20.774755 10951 net.cpp:49] Initializing net from parameters: 
state {
  phase: TEST
}
layer {
  name: "data"
  type: "Data"
  top: "data"
  top: "label"
  include {
    phase: TEST
  }
  transform_param {
    crop_size: 227
    mean_file: "/home/mohanty/data/final_dataset/lmdb/segmented-80-20/mean.binaryproto"
  }
  data_param {
    source: "/home/mohanty/data/final_dataset/lmdb/segmented-80-20/test_db"
    batch_size: 100
    backend: LMDB
  }
}
layer {
  name: "conv1"
  type: "Convolution"
  bottom: "data"
  top: "conv1"
  param {
    lr_mult: 1
    decay_mult: 1
  }
  param {
    lr_mult: 2
    decay_mult: 0
  }
  convolution_param {
    num_output: 96
    kernel_size: 11
    stride: 4
    weight_filler {
      type: "gaussian"
      std: 0.01
    }
    bias_filler {
      type: "constant"
      value: 0
    }
  }
}
layer {
  name: "relu1"
  type: "ReLU"
  bottom: "conv1"
  top: "conv1"
}
layer {
  name: "norm1"
  type: "LRN"
  bottom: "conv1"
  top: "norm1"
  lrn_param {
    local_size: 5
    alpha: 0.0001
    beta: 0.75
  }
}
layer {
  name: "pool1"
  type: "Pooling"
  bottom: "norm1"
  top: "pool1"
  pooling_param {
    pool: MAX
    kernel_size: 3
    stride: 2
  }
}
layer {
  name: "conv2"
  type: "Convolution"
  bottom: "pool1"
  top: "conv2"
  param {
    lr_mult: 1
    decay_mult: 1
  }
  param {
    lr_mult: 2
    decay_mult: 0
  }
  convolution_param {
    num_output: 256
    pad: 2
    kernel_size: 5
    group: 2
    weight_filler {
      type: "gaussian"
      std: 0.01
    }
    bias_filler {
      type: "constant"
      value: 0.1
    }
  }
}
layer {
  name: "relu2"
  type: "ReLU"
  bottom: "conv2"
  top: "conv2"
}
layer {
  name: "norm2"
  type: "LRN"
  bottom: "conv2"
  top: "norm2"
  lrn_param {
    local_size: 5
    alpha: 0.0001
    beta: 0.75
  }
}
layer {
  name: "pool2"
  type: "Pooling"
  bottom: "norm2"
  top: "pool2"
  pooling_param {
    pool: MAX
    kernel_size: 3
    stride: 2
  }
}
layer {
  name: "conv3"
  type: "Convolution"
  bottom: "pool2"
  top: "conv3"
  param {
    lr_mult: 1
    decay_mult: 1
  }
  param {
    lr_mult: 2
    decay_mult: 0
  }
  convolution_param {
    num_output: 384
    pad: 1
    kernel_size: 3
    weight_filler {
      type: "gaussian"
      std: 0.01
    }
    bias_filler {
      type: "constant"
      value: 0
    }
  }
}
layer {
  name: "relu3"
  type: "ReLU"
  bottom: "conv3"
  top: "conv3"
}
layer {
  name: "conv4"
  type: "Convolution"
  bottom: "conv3"
  top: "conv4"
  param {
    lr_mult: 1
    decay_mult: 1
  }
  param {
    lr_mult: 2
    decay_mult: 0
  }
  convolution_param {
    num_output: 384
    pad: 1
    kernel_size: 3
    group: 2
    weight_filler {
      type: "gaussian"
      std: 0.01
    }
    bias_filler {
      type: "constant"
      value: 0.1
    }
  }
}
layer {
  name: "relu4"
  type: "ReLU"
  bottom: "conv4"
  top: "conv4"
}
layer {
  name: "conv5"
  type: "Convolution"
  bottom: "conv4"
  top: "conv5"
  param {
    lr_mult: 1
    decay_mult: 1
  }
  param {
    lr_mult: 2
    decay_mult: 0
  }
  convolution_param {
    num_output: 256
    pad: 1
    kernel_size: 3
    group: 2
    weight_filler {
      type: "gaussian"
      std: 0.01
    }
    bias_filler {
      type: "constant"
      value: 0.1
    }
  }
}
layer {
  name: "relu5"
  type: "ReLU"
  bottom: "conv5"
  top: "conv5"
}
layer {
  name: "pool5"
  type: "Pooling"
  bottom: "conv5"
  top: "pool5"
  pooling_param {
    pool: MAX
    kernel_size: 3
    stride: 2
  }
}
layer {
  name: "fc6"
  type: "InnerProduct"
  bottom: "pool5"
  top: "fc6"
  param {
    lr_mult: 1
    decay_mult: 1
  }
  param {
    lr_mult: 2
    decay_mult: 0
  }
  inner_product_param {
    num_output: 4096
    weight_filler {
      type: "gaussian"
      std: 0.005
    }
    bias_filler {
      type: "constant"
      value: 0.1
    }
  }
}
layer {
  name: "relu6"
  type: "ReLU"
  bottom: "fc6"
  top: "fc6"
}
layer {
  name: "drop6"
  type: "Dropout"
  bottom: "fc6"
  top: "fc6"
  dropout_param {
    dropout_ratio: 0.5
  }
}
layer {
  name: "fc7"
  type: "InnerProduct"
  bottom: "fc6"
  top: "fc7"
  param {
    lr_mult: 1
    decay_mult: 1
  }
  param {
    lr_mult: 2
    decay_mult: 0
  }
  inner_product_param {
    num_output: 4096
    weight_filler {
      type: "gaussian"
      std: 0.005
    }
    bias_filler {
      type: "constant"
      value: 0.1
    }
  }
}
layer {
  name: "relu7"
  type: "ReLU"
  bottom: "fc7"
  top: "fc7"
}
layer {
  name: "drop7"
  type: "Dropout"
  bottom: "fc7"
  top: "fc7"
  dropout_param {
    dropout_ratio: 0.5
  }
}
layer {
  name: "fc8_plantvillage"
  type: "InnerProduct"
  bottom: "fc7"
  top: "fc8_plantvillage"
  param {
    lr_mult: 1
    decay_mult: 1
  }
  param {
    lr_mult: 2
    decay_mult: 0
  }
  inner_product_param {
    num_output: 38
    weight_filler {
      type: "gaussian"
      std: 0.01
    }
    bias_filler {
      type: "constant"
      value: 0
    }
  }
}
layer {
  name: "prob"
  type: "Softmax"
  bottom: "fc8_plantvillage"
  top: "prob"
  include {
    phase: TEST
  }
}
layer {
  name: "hdf5out"
  type: "HDF5Output"
  bottom: "prob"
  bottom: "label"
  include {
    phase: TEST
  }
  hdf5_output_param {
    file_name: "hdf5_dumps/iter_3480.h5"
  }
}
layer {
  name: "loss"
  type: "SoftmaxWithLoss"
  bottom: "fc8_plantvillage"
  bottom: "label"
  top: "loss"
}
layer {
  name: "accuracy"
  type: "Accuracy"
  bottom: "fc8_plantvillage"
  bottom: "label"
  top: "accuracy"
  include {
    phase: TEST
  }
}
I0403 13:21:20.775322 10951 layer_factory.hpp:77] Creating layer data
I0403 13:21:20.775969 10951 net.cpp:91] Creating Layer data
I0403 13:21:20.776001 10951 net.cpp:399] data -> data
I0403 13:21:20.776053 10951 net.cpp:399] data -> label
I0403 13:21:20.776089 10951 data_transformer.cpp:25] Loading mean file from: /home/mohanty/data/final_dataset/lmdb/segmented-80-20/mean.binaryproto
I0403 13:21:20.779168 10956 db_lmdb.cpp:38] Opened lmdb /home/mohanty/data/final_dataset/lmdb/segmented-80-20/test_db
I0403 13:21:20.790407 10951 data_layer.cpp:41] output data size: 100,3,227,227
I0403 13:21:20.909200 10951 net.cpp:141] Setting up data
I0403 13:21:20.909307 10951 net.cpp:148] Top shape: 100 3 227 227 (15458700)
I0403 13:21:20.909330 10951 net.cpp:148] Top shape: 100 (100)
I0403 13:21:20.909348 10951 net.cpp:156] Memory required for data: 61835200
I0403 13:21:20.909376 10951 layer_factory.hpp:77] Creating layer label_data_1_split
I0403 13:21:20.909404 10951 net.cpp:91] Creating Layer label_data_1_split
I0403 13:21:20.909425 10951 net.cpp:425] label_data_1_split <- label
I0403 13:21:20.909459 10951 net.cpp:399] label_data_1_split -> label_data_1_split_0
I0403 13:21:20.909487 10951 net.cpp:399] label_data_1_split -> label_data_1_split_1
I0403 13:21:20.909509 10951 net.cpp:399] label_data_1_split -> label_data_1_split_2
I0403 13:21:20.909576 10951 net.cpp:141] Setting up label_data_1_split
I0403 13:21:20.909607 10951 net.cpp:148] Top shape: 100 (100)
I0403 13:21:20.909624 10951 net.cpp:148] Top shape: 100 (100)
I0403 13:21:20.909641 10951 net.cpp:148] Top shape: 100 (100)
I0403 13:21:20.909656 10951 net.cpp:156] Memory required for data: 61836400
I0403 13:21:20.909670 10951 layer_factory.hpp:77] Creating layer conv1
I0403 13:21:20.909703 10951 net.cpp:91] Creating Layer conv1
I0403 13:21:20.909721 10951 net.cpp:425] conv1 <- data
I0403 13:21:20.909740 10951 net.cpp:399] conv1 -> conv1
I0403 13:21:21.046691 10951 net.cpp:141] Setting up conv1
I0403 13:21:21.046769 10951 net.cpp:148] Top shape: 100 96 55 55 (29040000)
I0403 13:21:21.046787 10951 net.cpp:156] Memory required for data: 177996400
I0403 13:21:21.046819 10951 layer_factory.hpp:77] Creating layer relu1
I0403 13:21:21.046847 10951 net.cpp:91] Creating Layer relu1
I0403 13:21:21.046866 10951 net.cpp:425] relu1 <- conv1
I0403 13:21:21.046886 10951 net.cpp:386] relu1 -> conv1 (in-place)
I0403 13:21:21.047149 10951 net.cpp:141] Setting up relu1
I0403 13:21:21.047178 10951 net.cpp:148] Top shape: 100 96 55 55 (29040000)
I0403 13:21:21.047230 10951 net.cpp:156] Memory required for data: 294156400
I0403 13:21:21.047247 10951 layer_factory.hpp:77] Creating layer norm1
I0403 13:21:21.047277 10951 net.cpp:91] Creating Layer norm1
I0403 13:21:21.047297 10951 net.cpp:425] norm1 <- conv1
I0403 13:21:21.047322 10951 net.cpp:399] norm1 -> norm1
I0403 13:21:21.047638 10951 net.cpp:141] Setting up norm1
I0403 13:21:21.047667 10951 net.cpp:148] Top shape: 100 96 55 55 (29040000)
I0403 13:21:21.047683 10951 net.cpp:156] Memory required for data: 410316400
I0403 13:21:21.047699 10951 layer_factory.hpp:77] Creating layer pool1
I0403 13:21:21.047722 10951 net.cpp:91] Creating Layer pool1
I0403 13:21:21.047740 10951 net.cpp:425] pool1 <- norm1
I0403 13:21:21.047760 10951 net.cpp:399] pool1 -> pool1
I0403 13:21:21.047828 10951 net.cpp:141] Setting up pool1
I0403 13:21:21.047853 10951 net.cpp:148] Top shape: 100 96 27 27 (6998400)
I0403 13:21:21.047869 10951 net.cpp:156] Memory required for data: 438310000
I0403 13:21:21.047884 10951 layer_factory.hpp:77] Creating layer conv2
I0403 13:21:21.047909 10951 net.cpp:91] Creating Layer conv2
I0403 13:21:21.047926 10951 net.cpp:425] conv2 <- pool1
I0403 13:21:21.047945 10951 net.cpp:399] conv2 -> conv2
I0403 13:21:21.062916 10951 net.cpp:141] Setting up conv2
I0403 13:21:21.062969 10951 net.cpp:148] Top shape: 100 256 27 27 (18662400)
I0403 13:21:21.062989 10951 net.cpp:156] Memory required for data: 512959600
I0403 13:21:21.063012 10951 layer_factory.hpp:77] Creating layer relu2
I0403 13:21:21.063035 10951 net.cpp:91] Creating Layer relu2
I0403 13:21:21.063053 10951 net.cpp:425] relu2 <- conv2
I0403 13:21:21.063071 10951 net.cpp:386] relu2 -> conv2 (in-place)
I0403 13:21:21.063361 10951 net.cpp:141] Setting up relu2
I0403 13:21:21.063388 10951 net.cpp:148] Top shape: 100 256 27 27 (18662400)
I0403 13:21:21.063405 10951 net.cpp:156] Memory required for data: 587609200
I0403 13:21:21.063419 10951 layer_factory.hpp:77] Creating layer norm2
I0403 13:21:21.063443 10951 net.cpp:91] Creating Layer norm2
I0403 13:21:21.063462 10951 net.cpp:425] norm2 <- conv2
I0403 13:21:21.063482 10951 net.cpp:399] norm2 -> norm2
I0403 13:21:21.063721 10951 net.cpp:141] Setting up norm2
I0403 13:21:21.063750 10951 net.cpp:148] Top shape: 100 256 27 27 (18662400)
I0403 13:21:21.063766 10951 net.cpp:156] Memory required for data: 662258800
I0403 13:21:21.063781 10951 layer_factory.hpp:77] Creating layer pool2
I0403 13:21:21.063801 10951 net.cpp:91] Creating Layer pool2
I0403 13:21:21.063817 10951 net.cpp:425] pool2 <- norm2
I0403 13:21:21.063838 10951 net.cpp:399] pool2 -> pool2
I0403 13:21:21.063905 10951 net.cpp:141] Setting up pool2
I0403 13:21:21.063930 10951 net.cpp:148] Top shape: 100 256 13 13 (4326400)
I0403 13:21:21.063946 10951 net.cpp:156] Memory required for data: 679564400
I0403 13:21:21.063961 10951 layer_factory.hpp:77] Creating layer conv3
I0403 13:21:21.063987 10951 net.cpp:91] Creating Layer conv3
I0403 13:21:21.064004 10951 net.cpp:425] conv3 <- pool2
I0403 13:21:21.064026 10951 net.cpp:399] conv3 -> conv3
I0403 13:21:21.103085 10951 net.cpp:141] Setting up conv3
I0403 13:21:21.103159 10951 net.cpp:148] Top shape: 100 384 13 13 (6489600)
I0403 13:21:21.103178 10951 net.cpp:156] Memory required for data: 705522800
I0403 13:21:21.103206 10951 layer_factory.hpp:77] Creating layer relu3
I0403 13:21:21.103230 10951 net.cpp:91] Creating Layer relu3
I0403 13:21:21.103248 10951 net.cpp:425] relu3 <- conv3
I0403 13:21:21.103268 10951 net.cpp:386] relu3 -> conv3 (in-place)
I0403 13:21:21.103561 10951 net.cpp:141] Setting up relu3
I0403 13:21:21.103590 10951 net.cpp:148] Top shape: 100 384 13 13 (6489600)
I0403 13:21:21.103605 10951 net.cpp:156] Memory required for data: 731481200
I0403 13:21:21.103621 10951 layer_factory.hpp:77] Creating layer conv4
I0403 13:21:21.103647 10951 net.cpp:91] Creating Layer conv4
I0403 13:21:21.103665 10951 net.cpp:425] conv4 <- conv3
I0403 13:21:21.103687 10951 net.cpp:399] conv4 -> conv4
I0403 13:21:21.133541 10951 net.cpp:141] Setting up conv4
I0403 13:21:21.133612 10951 net.cpp:148] Top shape: 100 384 13 13 (6489600)
I0403 13:21:21.133664 10951 net.cpp:156] Memory required for data: 757439600
I0403 13:21:21.133687 10951 layer_factory.hpp:77] Creating layer relu4
I0403 13:21:21.133713 10951 net.cpp:91] Creating Layer relu4
I0403 13:21:21.133730 10951 net.cpp:425] relu4 <- conv4
I0403 13:21:21.133750 10951 net.cpp:386] relu4 -> conv4 (in-place)
I0403 13:21:21.134034 10951 net.cpp:141] Setting up relu4
I0403 13:21:21.134063 10951 net.cpp:148] Top shape: 100 384 13 13 (6489600)
I0403 13:21:21.134083 10951 net.cpp:156] Memory required for data: 783398000
I0403 13:21:21.134099 10951 layer_factory.hpp:77] Creating layer conv5
I0403 13:21:21.134132 10951 net.cpp:91] Creating Layer conv5
I0403 13:21:21.134152 10951 net.cpp:425] conv5 <- conv4
I0403 13:21:21.134176 10951 net.cpp:399] conv5 -> conv5
I0403 13:21:21.154628 10951 net.cpp:141] Setting up conv5
I0403 13:21:21.154675 10951 net.cpp:148] Top shape: 100 256 13 13 (4326400)
I0403 13:21:21.154692 10951 net.cpp:156] Memory required for data: 800703600
I0403 13:21:21.154717 10951 layer_factory.hpp:77] Creating layer relu5
I0403 13:21:21.154741 10951 net.cpp:91] Creating Layer relu5
I0403 13:21:21.154758 10951 net.cpp:425] relu5 <- conv5
I0403 13:21:21.154775 10951 net.cpp:386] relu5 -> conv5 (in-place)
I0403 13:21:21.155056 10951 net.cpp:141] Setting up relu5
I0403 13:21:21.155083 10951 net.cpp:148] Top shape: 100 256 13 13 (4326400)
I0403 13:21:21.155099 10951 net.cpp:156] Memory required for data: 818009200
I0403 13:21:21.155114 10951 layer_factory.hpp:77] Creating layer pool5
I0403 13:21:21.155138 10951 net.cpp:91] Creating Layer pool5
I0403 13:21:21.155155 10951 net.cpp:425] pool5 <- conv5
I0403 13:21:21.155186 10951 net.cpp:399] pool5 -> pool5
I0403 13:21:21.155252 10951 net.cpp:141] Setting up pool5
I0403 13:21:21.155277 10951 net.cpp:148] Top shape: 100 256 6 6 (921600)
I0403 13:21:21.155294 10951 net.cpp:156] Memory required for data: 821695600
I0403 13:21:21.155310 10951 layer_factory.hpp:77] Creating layer fc6
I0403 13:21:21.155341 10951 net.cpp:91] Creating Layer fc6
I0403 13:21:21.155360 10951 net.cpp:425] fc6 <- pool5
I0403 13:21:21.155380 10951 net.cpp:399] fc6 -> fc6
I0403 13:21:22.709600 10951 net.cpp:141] Setting up fc6
I0403 13:21:22.709677 10951 net.cpp:148] Top shape: 100 4096 (409600)
I0403 13:21:22.709693 10951 net.cpp:156] Memory required for data: 823334000
I0403 13:21:22.709714 10951 layer_factory.hpp:77] Creating layer relu6
I0403 13:21:22.709735 10951 net.cpp:91] Creating Layer relu6
I0403 13:21:22.709753 10951 net.cpp:425] relu6 <- fc6
I0403 13:21:22.709776 10951 net.cpp:386] relu6 -> fc6 (in-place)
I0403 13:21:22.710002 10951 net.cpp:141] Setting up relu6
I0403 13:21:22.710027 10951 net.cpp:148] Top shape: 100 4096 (409600)
I0403 13:21:22.710043 10951 net.cpp:156] Memory required for data: 824972400
I0403 13:21:22.710058 10951 layer_factory.hpp:77] Creating layer drop6
I0403 13:21:22.710077 10951 net.cpp:91] Creating Layer drop6
I0403 13:21:22.710091 10951 net.cpp:425] drop6 <- fc6
I0403 13:21:22.710110 10951 net.cpp:386] drop6 -> fc6 (in-place)
I0403 13:21:22.710165 10951 net.cpp:141] Setting up drop6
I0403 13:21:22.710187 10951 net.cpp:148] Top shape: 100 4096 (409600)
I0403 13:21:22.710203 10951 net.cpp:156] Memory required for data: 826610800
I0403 13:21:22.710217 10951 layer_factory.hpp:77] Creating layer fc7
I0403 13:21:22.710237 10951 net.cpp:91] Creating Layer fc7
I0403 13:21:22.710252 10951 net.cpp:425] fc7 <- fc6
I0403 13:21:22.710274 10951 net.cpp:399] fc7 -> fc7
I0403 13:21:23.393429 10951 net.cpp:141] Setting up fc7
I0403 13:21:23.393506 10951 net.cpp:148] Top shape: 100 4096 (409600)
I0403 13:21:23.393522 10951 net.cpp:156] Memory required for data: 828249200
I0403 13:21:23.393548 10951 layer_factory.hpp:77] Creating layer relu7
I0403 13:21:23.393574 10951 net.cpp:91] Creating Layer relu7
I0403 13:21:23.393592 10951 net.cpp:425] relu7 <- fc7
I0403 13:21:23.393612 10951 net.cpp:386] relu7 -> fc7 (in-place)
I0403 13:21:23.394014 10951 net.cpp:141] Setting up relu7
I0403 13:21:23.394040 10951 net.cpp:148] Top shape: 100 4096 (409600)
I0403 13:21:23.394098 10951 net.cpp:156] Memory required for data: 829887600
I0403 13:21:23.394114 10951 layer_factory.hpp:77] Creating layer drop7
I0403 13:21:23.394135 10951 net.cpp:91] Creating Layer drop7
I0403 13:21:23.394152 10951 net.cpp:425] drop7 <- fc7
I0403 13:21:23.394170 10951 net.cpp:386] drop7 -> fc7 (in-place)
I0403 13:21:23.394212 10951 net.cpp:141] Setting up drop7
I0403 13:21:23.394238 10951 net.cpp:148] Top shape: 100 4096 (409600)
I0403 13:21:23.394255 10951 net.cpp:156] Memory required for data: 831526000
I0403 13:21:23.394269 10951 layer_factory.hpp:77] Creating layer fc8_plantvillage
I0403 13:21:23.394289 10951 net.cpp:91] Creating Layer fc8_plantvillage
I0403 13:21:23.394305 10951 net.cpp:425] fc8_plantvillage <- fc7
I0403 13:21:23.394325 10951 net.cpp:399] fc8_plantvillage -> fc8_plantvillage
I0403 13:21:23.401056 10951 net.cpp:141] Setting up fc8_plantvillage
I0403 13:21:23.401087 10951 net.cpp:148] Top shape: 100 38 (3800)
I0403 13:21:23.401103 10951 net.cpp:156] Memory required for data: 831541200
I0403 13:21:23.401121 10951 layer_factory.hpp:77] Creating layer fc8_plantvillage_fc8_plantvillage_0_split
I0403 13:21:23.401142 10951 net.cpp:91] Creating Layer fc8_plantvillage_fc8_plantvillage_0_split
I0403 13:21:23.401159 10951 net.cpp:425] fc8_plantvillage_fc8_plantvillage_0_split <- fc8_plantvillage
I0403 13:21:23.401176 10951 net.cpp:399] fc8_plantvillage_fc8_plantvillage_0_split -> fc8_plantvillage_fc8_plantvillage_0_split_0
I0403 13:21:23.401196 10951 net.cpp:399] fc8_plantvillage_fc8_plantvillage_0_split -> fc8_plantvillage_fc8_plantvillage_0_split_1
I0403 13:21:23.401216 10951 net.cpp:399] fc8_plantvillage_fc8_plantvillage_0_split -> fc8_plantvillage_fc8_plantvillage_0_split_2
I0403 13:21:23.401298 10951 net.cpp:141] Setting up fc8_plantvillage_fc8_plantvillage_0_split
I0403 13:21:23.401322 10951 net.cpp:148] Top shape: 100 38 (3800)
I0403 13:21:23.401340 10951 net.cpp:148] Top shape: 100 38 (3800)
I0403 13:21:23.401355 10951 net.cpp:148] Top shape: 100 38 (3800)
I0403 13:21:23.401370 10951 net.cpp:156] Memory required for data: 831586800
I0403 13:21:23.401383 10951 layer_factory.hpp:77] Creating layer prob
I0403 13:21:23.401401 10951 net.cpp:91] Creating Layer prob
I0403 13:21:23.401417 10951 net.cpp:425] prob <- fc8_plantvillage_fc8_plantvillage_0_split_0
I0403 13:21:23.401437 10951 net.cpp:399] prob -> prob
I0403 13:21:23.401671 10951 net.cpp:141] Setting up prob
I0403 13:21:23.401696 10951 net.cpp:148] Top shape: 100 38 (3800)
I0403 13:21:23.401711 10951 net.cpp:156] Memory required for data: 831602000
I0403 13:21:23.401726 10951 layer_factory.hpp:77] Creating layer hdf5out
I0403 13:21:23.401747 10951 net.cpp:91] Creating Layer hdf5out
I0403 13:21:23.401763 10951 net.cpp:425] hdf5out <- prob
I0403 13:21:23.401780 10951 net.cpp:425] hdf5out <- label_data_1_split_0
I0403 13:21:23.404093 10951 net.cpp:141] Setting up hdf5out
…
