…
I0403 13:29:15.482511 11368 net.cpp:313] The NetState phase (1) differed from the phase (0) specified by a rule in layer data
I0403 13:29:15.482831 11368 net.cpp:49] Initializing net from parameters: 
state {
  phase: TEST
}
layer {
  name: "data"
  type: "Data"
  top: "data"
  top: "label"
  include {
    phase: TEST
  }
  transform_param {
    crop_size: 227
    mean_file: "/home/mohanty/data/final_dataset/lmdb/segmented-80-20/mean.binaryproto"
  }
  data_param {
    source: "/home/mohanty/data/final_dataset/lmdb/segmented-80-20/test_db"
    batch_size: 100
    backend: LMDB
  }
}
layer {
  name: "conv1"
  type: "Convolution"
  bottom: "data"
  top: "conv1"
  param {
    lr_mult: 1
    decay_mult: 1
  }
  param {
    lr_mult: 2
    decay_mult: 0
  }
  convolution_param {
    num_output: 96
    kernel_size: 11
    stride: 4
    weight_filler {
      type: "gaussian"
      std: 0.01
    }
    bias_filler {
      type: "constant"
      value: 0
    }
  }
}
layer {
  name: "relu1"
  type: "ReLU"
  bottom: "conv1"
  top: "conv1"
}
layer {
  name: "norm1"
  type: "LRN"
  bottom: "conv1"
  top: "norm1"
  lrn_param {
    local_size: 5
    alpha: 0.0001
    beta: 0.75
  }
}
layer {
  name: "pool1"
  type: "Pooling"
  bottom: "norm1"
  top: "pool1"
  pooling_param {
    pool: MAX
    kernel_size: 3
    stride: 2
  }
}
layer {
  name: "conv2"
  type: "Convolution"
  bottom: "pool1"
  top: "conv2"
  param {
    lr_mult: 1
    decay_mult: 1
  }
  param {
    lr_mult: 2
    decay_mult: 0
  }
  convolution_param {
    num_output: 256
    pad: 2
    kernel_size: 5
    group: 2
    weight_filler {
      type: "gaussian"
      std: 0.01
    }
    bias_filler {
      type: "constant"
      value: 0.1
    }
  }
}
layer {
  name: "relu2"
  type: "ReLU"
  bottom: "conv2"
  top: "conv2"
}
layer {
  name: "norm2"
  type: "LRN"
  bottom: "conv2"
  top: "norm2"
  lrn_param {
    local_size: 5
    alpha: 0.0001
    beta: 0.75
  }
}
layer {
  name: "pool2"
  type: "Pooling"
  bottom: "norm2"
  top: "pool2"
  pooling_param {
    pool: MAX
    kernel_size: 3
    stride: 2
  }
}
layer {
  name: "conv3"
  type: "Convolution"
  bottom: "pool2"
  top: "conv3"
  param {
    lr_mult: 1
    decay_mult: 1
  }
  param {
    lr_mult: 2
    decay_mult: 0
  }
  convolution_param {
    num_output: 384
    pad: 1
    kernel_size: 3
    weight_filler {
      type: "gaussian"
      std: 0.01
    }
    bias_filler {
      type: "constant"
      value: 0
    }
  }
}
layer {
  name: "relu3"
  type: "ReLU"
  bottom: "conv3"
  top: "conv3"
}
layer {
  name: "conv4"
  type: "Convolution"
  bottom: "conv3"
  top: "conv4"
  param {
    lr_mult: 1
    decay_mult: 1
  }
  param {
    lr_mult: 2
    decay_mult: 0
  }
  convolution_param {
    num_output: 384
    pad: 1
    kernel_size: 3
    group: 2
    weight_filler {
      type: "gaussian"
      std: 0.01
    }
    bias_filler {
      type: "constant"
      value: 0.1
    }
  }
}
layer {
  name: "relu4"
  type: "ReLU"
  bottom: "conv4"
  top: "conv4"
}
layer {
  name: "conv5"
  type: "Convolution"
  bottom: "conv4"
  top: "conv5"
  param {
    lr_mult: 1
    decay_mult: 1
  }
  param {
    lr_mult: 2
    decay_mult: 0
  }
  convolution_param {
    num_output: 256
    pad: 1
    kernel_size: 3
    group: 2
    weight_filler {
      type: "gaussian"
      std: 0.01
    }
    bias_filler {
      type: "constant"
      value: 0.1
    }
  }
}
layer {
  name: "relu5"
  type: "ReLU"
  bottom: "conv5"
  top: "conv5"
}
layer {
  name: "pool5"
  type: "Pooling"
  bottom: "conv5"
  top: "pool5"
  pooling_param {
    pool: MAX
    kernel_size: 3
    stride: 2
  }
}
layer {
  name: "fc6"
  type: "InnerProduct"
  bottom: "pool5"
  top: "fc6"
  param {
    lr_mult: 1
    decay_mult: 1
  }
  param {
    lr_mult: 2
    decay_mult: 0
  }
  inner_product_param {
    num_output: 4096
    weight_filler {
      type: "gaussian"
      std: 0.005
    }
    bias_filler {
      type: "constant"
      value: 0.1
    }
  }
}
layer {
  name: "relu6"
  type: "ReLU"
  bottom: "fc6"
  top: "fc6"
}
layer {
  name: "drop6"
  type: "Dropout"
  bottom: "fc6"
  top: "fc6"
  dropout_param {
    dropout_ratio: 0.5
  }
}
layer {
  name: "fc7"
  type: "InnerProduct"
  bottom: "fc6"
  top: "fc7"
  param {
    lr_mult: 1
    decay_mult: 1
  }
  param {
    lr_mult: 2
    decay_mult: 0
  }
  inner_product_param {
    num_output: 4096
    weight_filler {
      type: "gaussian"
      std: 0.005
    }
    bias_filler {
      type: "constant"
      value: 0.1
    }
  }
}
layer {
  name: "relu7"
  type: "ReLU"
  bottom: "fc7"
  top: "fc7"
}
layer {
  name: "drop7"
  type: "Dropout"
  bottom: "fc7"
  top: "fc7"
  dropout_param {
    dropout_ratio: 0.5
  }
}
layer {
  name: "fc8_plantvillage"
  type: "InnerProduct"
  bottom: "fc7"
  top: "fc8_plantvillage"
  param {
    lr_mult: 1
    decay_mult: 1
  }
  param {
    lr_mult: 2
    decay_mult: 0
  }
  inner_product_param {
    num_output: 38
    weight_filler {
      type: "gaussian"
      std: 0.01
    }
    bias_filler {
      type: "constant"
      value: 0
    }
  }
}
layer {
  name: "prob"
  type: "Softmax"
  bottom: "fc8_plantvillage"
  top: "prob"
  include {
    phase: TEST
  }
}
layer {
  name: "hdf5out"
  type: "HDF5Output"
  bottom: "prob"
  bottom: "label"
  include {
    phase: TEST
  }
  hdf5_output_param {
    file_name: "hdf5_dumps/iter_11745.h5"
  }
}
layer {
  name: "loss"
  type: "SoftmaxWithLoss"
  bottom: "fc8_plantvillage"
  bottom: "label"
  top: "loss"
}
layer {
  name: "accuracy"
  type: "Accuracy"
  bottom: "fc8_plantvillage"
  bottom: "label"
  top: "accuracy"
  include {
    phase: TEST
  }
}
I0403 13:29:15.483403 11368 layer_factory.hpp:77] Creating layer data
I0403 13:29:15.484068 11368 net.cpp:91] Creating Layer data
I0403 13:29:15.484099 11368 net.cpp:399] data -> data
I0403 13:29:15.484150 11368 net.cpp:399] data -> label
I0403 13:29:15.484186 11368 data_transformer.cpp:25] Loading mean file from: /home/mohanty/data/final_dataset/lmdb/segmented-80-20/mean.binaryproto
I0403 13:29:15.487221 11371 db_lmdb.cpp:38] Opened lmdb /home/mohanty/data/final_dataset/lmdb/segmented-80-20/test_db
I0403 13:29:15.498780 11368 data_layer.cpp:41] output data size: 100,3,227,227
I0403 13:29:15.618877 11368 net.cpp:141] Setting up data
I0403 13:29:15.618971 11368 net.cpp:148] Top shape: 100 3 227 227 (15458700)
I0403 13:29:15.618993 11368 net.cpp:148] Top shape: 100 (100)
I0403 13:29:15.619009 11368 net.cpp:156] Memory required for data: 61835200
I0403 13:29:15.619037 11368 layer_factory.hpp:77] Creating layer label_data_1_split
I0403 13:29:15.619062 11368 net.cpp:91] Creating Layer label_data_1_split
I0403 13:29:15.619079 11368 net.cpp:425] label_data_1_split <- label
I0403 13:29:15.619112 11368 net.cpp:399] label_data_1_split -> label_data_1_split_0
I0403 13:29:15.619138 11368 net.cpp:399] label_data_1_split -> label_data_1_split_1
I0403 13:29:15.619158 11368 net.cpp:399] label_data_1_split -> label_data_1_split_2
I0403 13:29:15.619220 11368 net.cpp:141] Setting up label_data_1_split
I0403 13:29:15.619242 11368 net.cpp:148] Top shape: 100 (100)
I0403 13:29:15.619258 11368 net.cpp:148] Top shape: 100 (100)
I0403 13:29:15.619273 11368 net.cpp:148] Top shape: 100 (100)
I0403 13:29:15.619287 11368 net.cpp:156] Memory required for data: 61836400
I0403 13:29:15.619302 11368 layer_factory.hpp:77] Creating layer conv1
I0403 13:29:15.619333 11368 net.cpp:91] Creating Layer conv1
I0403 13:29:15.619350 11368 net.cpp:425] conv1 <- data
I0403 13:29:15.619369 11368 net.cpp:399] conv1 -> conv1
I0403 13:29:15.763069 11368 net.cpp:141] Setting up conv1
I0403 13:29:15.763147 11368 net.cpp:148] Top shape: 100 96 55 55 (29040000)
I0403 13:29:15.763165 11368 net.cpp:156] Memory required for data: 177996400
I0403 13:29:15.763197 11368 layer_factory.hpp:77] Creating layer relu1
I0403 13:29:15.763224 11368 net.cpp:91] Creating Layer relu1
I0403 13:29:15.763242 11368 net.cpp:425] relu1 <- conv1
I0403 13:29:15.763263 11368 net.cpp:386] relu1 -> conv1 (in-place)
I0403 13:29:15.763561 11368 net.cpp:141] Setting up relu1
I0403 13:29:15.763588 11368 net.cpp:148] Top shape: 100 96 55 55 (29040000)
I0403 13:29:15.763639 11368 net.cpp:156] Memory required for data: 294156400
I0403 13:29:15.763655 11368 layer_factory.hpp:77] Creating layer norm1
I0403 13:29:15.763685 11368 net.cpp:91] Creating Layer norm1
I0403 13:29:15.763703 11368 net.cpp:425] norm1 <- conv1
I0403 13:29:15.763721 11368 net.cpp:399] norm1 -> norm1
I0403 13:29:15.764056 11368 net.cpp:141] Setting up norm1
I0403 13:29:15.764083 11368 net.cpp:148] Top shape: 100 96 55 55 (29040000)
I0403 13:29:15.764098 11368 net.cpp:156] Memory required for data: 410316400
I0403 13:29:15.764113 11368 layer_factory.hpp:77] Creating layer pool1
I0403 13:29:15.764137 11368 net.cpp:91] Creating Layer pool1
I0403 13:29:15.764154 11368 net.cpp:425] pool1 <- norm1
I0403 13:29:15.764207 11368 net.cpp:399] pool1 -> pool1
I0403 13:29:15.764283 11368 net.cpp:141] Setting up pool1
I0403 13:29:15.764307 11368 net.cpp:148] Top shape: 100 96 27 27 (6998400)
I0403 13:29:15.764322 11368 net.cpp:156] Memory required for data: 438310000
I0403 13:29:15.764336 11368 layer_factory.hpp:77] Creating layer conv2
I0403 13:29:15.764364 11368 net.cpp:91] Creating Layer conv2
I0403 13:29:15.764381 11368 net.cpp:425] conv2 <- pool1
I0403 13:29:15.764401 11368 net.cpp:399] conv2 -> conv2
I0403 13:29:15.779991 11368 net.cpp:141] Setting up conv2
I0403 13:29:15.780043 11368 net.cpp:148] Top shape: 100 256 27 27 (18662400)
I0403 13:29:15.780061 11368 net.cpp:156] Memory required for data: 512959600
I0403 13:29:15.780086 11368 layer_factory.hpp:77] Creating layer relu2
I0403 13:29:15.780108 11368 net.cpp:91] Creating Layer relu2
I0403 13:29:15.780124 11368 net.cpp:425] relu2 <- conv2
I0403 13:29:15.780143 11368 net.cpp:386] relu2 -> conv2 (in-place)
I0403 13:29:15.780423 11368 net.cpp:141] Setting up relu2
I0403 13:29:15.780452 11368 net.cpp:148] Top shape: 100 256 27 27 (18662400)
I0403 13:29:15.780468 11368 net.cpp:156] Memory required for data: 587609200
I0403 13:29:15.780483 11368 layer_factory.hpp:77] Creating layer norm2
I0403 13:29:15.780504 11368 net.cpp:91] Creating Layer norm2
I0403 13:29:15.780534 11368 net.cpp:425] norm2 <- conv2
I0403 13:29:15.780560 11368 net.cpp:399] norm2 -> norm2
I0403 13:29:15.780768 11368 net.cpp:141] Setting up norm2
I0403 13:29:15.780796 11368 net.cpp:148] Top shape: 100 256 27 27 (18662400)
I0403 13:29:15.780823 11368 net.cpp:156] Memory required for data: 662258800
I0403 13:29:15.780838 11368 layer_factory.hpp:77] Creating layer pool2
I0403 13:29:15.780859 11368 net.cpp:91] Creating Layer pool2
I0403 13:29:15.780875 11368 net.cpp:425] pool2 <- norm2
I0403 13:29:15.780892 11368 net.cpp:399] pool2 -> pool2
I0403 13:29:15.780948 11368 net.cpp:141] Setting up pool2
I0403 13:29:15.780972 11368 net.cpp:148] Top shape: 100 256 13 13 (4326400)
I0403 13:29:15.780987 11368 net.cpp:156] Memory required for data: 679564400
I0403 13:29:15.781002 11368 layer_factory.hpp:77] Creating layer conv3
I0403 13:29:15.781025 11368 net.cpp:91] Creating Layer conv3
I0403 13:29:15.781041 11368 net.cpp:425] conv3 <- pool2
I0403 13:29:15.781062 11368 net.cpp:399] conv3 -> conv3
I0403 13:29:15.820071 11368 net.cpp:141] Setting up conv3
I0403 13:29:15.820143 11368 net.cpp:148] Top shape: 100 384 13 13 (6489600)
I0403 13:29:15.820160 11368 net.cpp:156] Memory required for data: 705522800
I0403 13:29:15.820185 11368 layer_factory.hpp:77] Creating layer relu3
I0403 13:29:15.820211 11368 net.cpp:91] Creating Layer relu3
I0403 13:29:15.820230 11368 net.cpp:425] relu3 <- conv3
I0403 13:29:15.820250 11368 net.cpp:386] relu3 -> conv3 (in-place)
I0403 13:29:15.820586 11368 net.cpp:141] Setting up relu3
I0403 13:29:15.820614 11368 net.cpp:148] Top shape: 100 384 13 13 (6489600)
I0403 13:29:15.820631 11368 net.cpp:156] Memory required for data: 731481200
I0403 13:29:15.820646 11368 layer_factory.hpp:77] Creating layer conv4
I0403 13:29:15.820672 11368 net.cpp:91] Creating Layer conv4
I0403 13:29:15.820691 11368 net.cpp:425] conv4 <- conv3
I0403 13:29:15.820711 11368 net.cpp:399] conv4 -> conv4
I0403 13:29:15.851444 11368 net.cpp:141] Setting up conv4
I0403 13:29:15.851512 11368 net.cpp:148] Top shape: 100 384 13 13 (6489600)
I0403 13:29:15.851567 11368 net.cpp:156] Memory required for data: 757439600
I0403 13:29:15.851589 11368 layer_factory.hpp:77] Creating layer relu4
I0403 13:29:15.851615 11368 net.cpp:91] Creating Layer relu4
I0403 13:29:15.851635 11368 net.cpp:425] relu4 <- conv4
I0403 13:29:15.851655 11368 net.cpp:386] relu4 -> conv4 (in-place)
I0403 13:29:15.851939 11368 net.cpp:141] Setting up relu4
I0403 13:29:15.851966 11368 net.cpp:148] Top shape: 100 384 13 13 (6489600)
I0403 13:29:15.851981 11368 net.cpp:156] Memory required for data: 783398000
I0403 13:29:15.851996 11368 layer_factory.hpp:77] Creating layer conv5
I0403 13:29:15.852067 11368 net.cpp:91] Creating Layer conv5
I0403 13:29:15.852108 11368 net.cpp:425] conv5 <- conv4
I0403 13:29:15.852130 11368 net.cpp:399] conv5 -> conv5
I0403 13:29:15.873389 11368 net.cpp:141] Setting up conv5
I0403 13:29:15.873443 11368 net.cpp:148] Top shape: 100 256 13 13 (4326400)
I0403 13:29:15.873459 11368 net.cpp:156] Memory required for data: 800703600
I0403 13:29:15.873486 11368 layer_factory.hpp:77] Creating layer relu5
I0403 13:29:15.873508 11368 net.cpp:91] Creating Layer relu5
I0403 13:29:15.873541 11368 net.cpp:425] relu5 <- conv5
I0403 13:29:15.873563 11368 net.cpp:386] relu5 -> conv5 (in-place)
I0403 13:29:15.873863 11368 net.cpp:141] Setting up relu5
I0403 13:29:15.873890 11368 net.cpp:148] Top shape: 100 256 13 13 (4326400)
I0403 13:29:15.873906 11368 net.cpp:156] Memory required for data: 818009200
I0403 13:29:15.873921 11368 layer_factory.hpp:77] Creating layer pool5
I0403 13:29:15.873946 11368 net.cpp:91] Creating Layer pool5
I0403 13:29:15.873963 11368 net.cpp:425] pool5 <- conv5
I0403 13:29:15.873980 11368 net.cpp:399] pool5 -> pool5
I0403 13:29:15.874043 11368 net.cpp:141] Setting up pool5
I0403 13:29:15.874066 11368 net.cpp:148] Top shape: 100 256 6 6 (921600)
I0403 13:29:15.874081 11368 net.cpp:156] Memory required for data: 821695600
I0403 13:29:15.874095 11368 layer_factory.hpp:77] Creating layer fc6
I0403 13:29:15.874125 11368 net.cpp:91] Creating Layer fc6
I0403 13:29:15.874142 11368 net.cpp:425] fc6 <- pool5
I0403 13:29:15.874163 11368 net.cpp:399] fc6 -> fc6
I0403 13:29:17.426558 11368 net.cpp:141] Setting up fc6
I0403 13:29:17.426648 11368 net.cpp:148] Top shape: 100 4096 (409600)
I0403 13:29:17.426664 11368 net.cpp:156] Memory required for data: 823334000
I0403 13:29:17.426684 11368 layer_factory.hpp:77] Creating layer relu6
I0403 13:29:17.426707 11368 net.cpp:91] Creating Layer relu6
I0403 13:29:17.426724 11368 net.cpp:425] relu6 <- fc6
I0403 13:29:17.426745 11368 net.cpp:386] relu6 -> fc6 (in-place)
I0403 13:29:17.426965 11368 net.cpp:141] Setting up relu6
I0403 13:29:17.426990 11368 net.cpp:148] Top shape: 100 4096 (409600)
I0403 13:29:17.427006 11368 net.cpp:156] Memory required for data: 824972400
I0403 13:29:17.427019 11368 layer_factory.hpp:77] Creating layer drop6
I0403 13:29:17.427040 11368 net.cpp:91] Creating Layer drop6
I0403 13:29:17.427057 11368 net.cpp:425] drop6 <- fc6
I0403 13:29:17.427073 11368 net.cpp:386] drop6 -> fc6 (in-place)
I0403 13:29:17.427126 11368 net.cpp:141] Setting up drop6
I0403 13:29:17.427150 11368 net.cpp:148] Top shape: 100 4096 (409600)
I0403 13:29:17.427163 11368 net.cpp:156] Memory required for data: 826610800
I0403 13:29:17.427177 11368 layer_factory.hpp:77] Creating layer fc7
I0403 13:29:17.427196 11368 net.cpp:91] Creating Layer fc7
I0403 13:29:17.427214 11368 net.cpp:425] fc7 <- fc6
I0403 13:29:17.427232 11368 net.cpp:399] fc7 -> fc7
I0403 13:29:18.147737 11368 net.cpp:141] Setting up fc7
I0403 13:29:18.147810 11368 net.cpp:148] Top shape: 100 4096 (409600)
I0403 13:29:18.147826 11368 net.cpp:156] Memory required for data: 828249200
I0403 13:29:18.147846 11368 layer_factory.hpp:77] Creating layer relu7
I0403 13:29:18.147871 11368 net.cpp:91] Creating Layer relu7
I0403 13:29:18.147889 11368 net.cpp:425] relu7 <- fc7
I0403 13:29:18.147907 11368 net.cpp:386] relu7 -> fc7 (in-place)
I0403 13:29:19.999609 11368 net.cpp:141] Setting up relu7
I0403 13:29:19.999716 11368 net.cpp:148] Top shape: 100 4096 (409600)
I0403 13:29:19.999796 11368 net.cpp:156] Memory required for data: 829887600
I0403 13:29:19.999819 11368 layer_factory.hpp:77] Creating layer drop7
I0403 13:29:19.999850 11368 net.cpp:91] Creating Layer drop7
I0403 13:29:19.999873 11368 net.cpp:425] drop7 <- fc7
I0403 13:29:19.999898 11368 net.cpp:386] drop7 -> fc7 (in-place)
I0403 13:29:19.999975 11368 net.cpp:141] Setting up drop7
I0403 13:29:20.000004 11368 net.cpp:148] Top shape: 100 4096 (409600)
I0403 13:29:20.000022 11368 net.cpp:156] Memory required for data: 831526000
I0403 13:29:20.000039 11368 layer_factory.hpp:77] Creating layer fc8_plantvillage
I0403 13:29:20.000064 11368 net.cpp:91] Creating Layer fc8_plantvillage
I0403 13:29:20.000084 11368 net.cpp:425] fc8_plantvillage <- fc7
I0403 13:29:20.000108 11368 net.cpp:399] fc8_plantvillage -> fc8_plantvillage
I0403 13:29:20.008630 11368 net.cpp:141] Setting up fc8_plantvillage
I0403 13:29:20.008669 11368 net.cpp:148] Top shape: 100 38 (3800)
I0403 13:29:20.008690 11368 net.cpp:156] Memory required for data: 831541200
I0403 13:29:20.008713 11368 layer_factory.hpp:77] Creating layer fc8_plantvillage_fc8_plantvillage_0_split
I0403 13:29:20.008736 11368 net.cpp:91] Creating Layer fc8_plantvillage_fc8_plantvillage_0_split
I0403 13:29:20.008755 11368 net.cpp:425] fc8_plantvillage_fc8_plantvillage_0_split <- fc8_plantvillage
I0403 13:29:20.008775 11368 net.cpp:399] fc8_plantvillage_fc8_plantvillage_0_split -> fc8_plantvillage_fc8_plantvillage_0_split_0
I0403 13:29:20.008800 11368 net.cpp:399] fc8_plantvillage_fc8_plantvillage_0_split -> fc8_plantvillage_fc8_plantvillage_0_split_1
I0403 13:29:20.008823 11368 net.cpp:399] fc8_plantvillage_fc8_plantvillage_0_split -> fc8_plantvillage_fc8_plantvillage_0_split_2
I0403 13:29:20.008913 11368 net.cpp:141] Setting up fc8_plantvillage_fc8_plantvillage_0_split
I0403 13:29:20.008942 11368 net.cpp:148] Top shape: 100 38 (3800)
I0403 13:29:20.008963 11368 net.cpp:148] Top shape: 100 38 (3800)
I0403 13:29:20.008982 11368 net.cpp:148] Top shape: 100 38 (3800)
I0403 13:29:20.008998 11368 net.cpp:156] Memory required for data: 831586800
I0403 13:29:20.009016 11368 layer_factory.hpp:77] Creating layer prob
I0403 13:29:20.009037 11368 net.cpp:91] Creating Layer prob
I0403 13:29:20.009057 11368 net.cpp:425] prob <- fc8_plantvillage_fc8_plantvillage_0_split_0
I0403 13:29:20.009078 11368 net.cpp:399] prob -> prob
I0403 13:29:20.009358 11368 net.cpp:141] Setting up prob
I0403 13:29:20.009389 11368 net.cpp:148] Top shape: 100 38 (3800)
I0403 13:29:20.009408 11368 net.cpp:156] Memory required for data: 831602000
I0403 13:29:20.009426 11368 layer_factory.hpp:77] Creating layer hdf5out
I0403 13:29:20.009454 11368 net.cpp:91] Creating Layer hdf5out
I0403 13:29:20.009474 11368 net.cpp:425] hdf5out <- prob
I0403 13:29:20.009495 11368 net.cpp:425] hdf5out <- label_data_1_split_0
I0403 13:29:20.015146 11368 net.cpp:141] Setting up hdf5out
…
