…
I0403 13:21:44.939227 10966 net.cpp:313] The NetState phase (1) differed from the phase (0) specified by a rule in layer data
I0403 13:21:44.939508 10966 net.cpp:49] Initializing net from parameters: 
state {
  phase: TEST
}
layer {
  name: "data"
  type: "Data"
  top: "data"
  top: "label"
  include {
    phase: TEST
  }
  transform_param {
    crop_size: 227
    mean_file: "/home/mohanty/data/final_dataset/lmdb/segmented-80-20/mean.binaryproto"
  }
  data_param {
    source: "/home/mohanty/data/final_dataset/lmdb/segmented-80-20/test_db"
    batch_size: 100
    backend: LMDB
  }
}
layer {
  name: "conv1"
  type: "Convolution"
  bottom: "data"
  top: "conv1"
  param {
    lr_mult: 1
    decay_mult: 1
  }
  param {
    lr_mult: 2
    decay_mult: 0
  }
  convolution_param {
    num_output: 96
    kernel_size: 11
    stride: 4
    weight_filler {
      type: "gaussian"
      std: 0.01
    }
    bias_filler {
      type: "constant"
      value: 0
    }
  }
}
layer {
  name: "relu1"
  type: "ReLU"
  bottom: "conv1"
  top: "conv1"
}
layer {
  name: "norm1"
  type: "LRN"
  bottom: "conv1"
  top: "norm1"
  lrn_param {
    local_size: 5
    alpha: 0.0001
    beta: 0.75
  }
}
layer {
  name: "pool1"
  type: "Pooling"
  bottom: "norm1"
  top: "pool1"
  pooling_param {
    pool: MAX
    kernel_size: 3
    stride: 2
  }
}
layer {
  name: "conv2"
  type: "Convolution"
  bottom: "pool1"
  top: "conv2"
  param {
    lr_mult: 1
    decay_mult: 1
  }
  param {
    lr_mult: 2
    decay_mult: 0
  }
  convolution_param {
    num_output: 256
    pad: 2
    kernel_size: 5
    group: 2
    weight_filler {
      type: "gaussian"
      std: 0.01
    }
    bias_filler {
      type: "constant"
      value: 0.1
    }
  }
}
layer {
  name: "relu2"
  type: "ReLU"
  bottom: "conv2"
  top: "conv2"
}
layer {
  name: "norm2"
  type: "LRN"
  bottom: "conv2"
  top: "norm2"
  lrn_param {
    local_size: 5
    alpha: 0.0001
    beta: 0.75
  }
}
layer {
  name: "pool2"
  type: "Pooling"
  bottom: "norm2"
  top: "pool2"
  pooling_param {
    pool: MAX
    kernel_size: 3
    stride: 2
  }
}
layer {
  name: "conv3"
  type: "Convolution"
  bottom: "pool2"
  top: "conv3"
  param {
    lr_mult: 1
    decay_mult: 1
  }
  param {
    lr_mult: 2
    decay_mult: 0
  }
  convolution_param {
    num_output: 384
    pad: 1
    kernel_size: 3
    weight_filler {
      type: "gaussian"
      std: 0.01
    }
    bias_filler {
      type: "constant"
      value: 0
    }
  }
}
layer {
  name: "relu3"
  type: "ReLU"
  bottom: "conv3"
  top: "conv3"
}
layer {
  name: "conv4"
  type: "Convolution"
  bottom: "conv3"
  top: "conv4"
  param {
    lr_mult: 1
    decay_mult: 1
  }
  param {
    lr_mult: 2
    decay_mult: 0
  }
  convolution_param {
    num_output: 384
    pad: 1
    kernel_size: 3
    group: 2
    weight_filler {
      type: "gaussian"
      std: 0.01
    }
    bias_filler {
      type: "constant"
      value: 0.1
    }
  }
}
layer {
  name: "relu4"
  type: "ReLU"
  bottom: "conv4"
  top: "conv4"
}
layer {
  name: "conv5"
  type: "Convolution"
  bottom: "conv4"
  top: "conv5"
  param {
    lr_mult: 1
    decay_mult: 1
  }
  param {
    lr_mult: 2
    decay_mult: 0
  }
  convolution_param {
    num_output: 256
    pad: 1
    kernel_size: 3
    group: 2
    weight_filler {
      type: "gaussian"
      std: 0.01
    }
    bias_filler {
      type: "constant"
      value: 0.1
    }
  }
}
layer {
  name: "relu5"
  type: "ReLU"
  bottom: "conv5"
  top: "conv5"
}
layer {
  name: "pool5"
  type: "Pooling"
  bottom: "conv5"
  top: "pool5"
  pooling_param {
    pool: MAX
    kernel_size: 3
    stride: 2
  }
}
layer {
  name: "fc6"
  type: "InnerProduct"
  bottom: "pool5"
  top: "fc6"
  param {
    lr_mult: 1
    decay_mult: 1
  }
  param {
    lr_mult: 2
    decay_mult: 0
  }
  inner_product_param {
    num_output: 4096
    weight_filler {
      type: "gaussian"
      std: 0.005
    }
    bias_filler {
      type: "constant"
      value: 0.1
    }
  }
}
layer {
  name: "relu6"
  type: "ReLU"
  bottom: "fc6"
  top: "fc6"
}
layer {
  name: "drop6"
  type: "Dropout"
  bottom: "fc6"
  top: "fc6"
  dropout_param {
    dropout_ratio: 0.5
  }
}
layer {
  name: "fc7"
  type: "InnerProduct"
  bottom: "fc6"
  top: "fc7"
  param {
    lr_mult: 1
    decay_mult: 1
  }
  param {
    lr_mult: 2
    decay_mult: 0
  }
  inner_product_param {
    num_output: 4096
    weight_filler {
      type: "gaussian"
      std: 0.005
    }
    bias_filler {
      type: "constant"
      value: 0.1
    }
  }
}
layer {
  name: "relu7"
  type: "ReLU"
  bottom: "fc7"
  top: "fc7"
}
layer {
  name: "drop7"
  type: "Dropout"
  bottom: "fc7"
  top: "fc7"
  dropout_param {
    dropout_ratio: 0.5
  }
}
layer {
  name: "fc8_plantvillage"
  type: "InnerProduct"
  bottom: "fc7"
  top: "fc8_plantvillage"
  param {
    lr_mult: 1
    decay_mult: 1
  }
  param {
    lr_mult: 2
    decay_mult: 0
  }
  inner_product_param {
    num_output: 38
    weight_filler {
      type: "gaussian"
      std: 0.01
    }
    bias_filler {
      type: "constant"
      value: 0
    }
  }
}
layer {
  name: "prob"
  type: "Softmax"
  bottom: "fc8_plantvillage"
  top: "prob"
  include {
    phase: TEST
  }
}
layer {
  name: "hdf5out"
  type: "HDF5Output"
  bottom: "prob"
  bottom: "label"
  include {
    phase: TEST
  }
  hdf5_output_param {
    file_name: "hdf5_dumps/iter_3915.h5"
  }
}
layer {
  name: "loss"
  type: "SoftmaxWithLoss"
  bottom: "fc8_plantvillage"
  bottom: "label"
  top: "loss"
}
layer {
  name: "accuracy"
  type: "Accuracy"
  bottom: "fc8_plantvillage"
  bottom: "label"
  top: "accuracy"
  include {
    phase: TEST
  }
}
I0403 13:21:44.940146 10966 layer_factory.hpp:77] Creating layer data
I0403 13:21:44.940785 10966 net.cpp:91] Creating Layer data
I0403 13:21:44.940819 10966 net.cpp:399] data -> data
I0403 13:21:44.940868 10966 net.cpp:399] data -> label
I0403 13:21:44.940903 10966 data_transformer.cpp:25] Loading mean file from: /home/mohanty/data/final_dataset/lmdb/segmented-80-20/mean.binaryproto
I0403 13:21:44.944041 10970 db_lmdb.cpp:38] Opened lmdb /home/mohanty/data/final_dataset/lmdb/segmented-80-20/test_db
I0403 13:21:44.954875 10966 data_layer.cpp:41] output data size: 100,3,227,227
I0403 13:21:45.072887 10966 net.cpp:141] Setting up data
I0403 13:21:45.072949 10966 net.cpp:148] Top shape: 100 3 227 227 (15458700)
I0403 13:21:45.072973 10966 net.cpp:148] Top shape: 100 (100)
I0403 13:21:45.072988 10966 net.cpp:156] Memory required for data: 61835200
I0403 13:21:45.073016 10966 layer_factory.hpp:77] Creating layer label_data_1_split
I0403 13:21:45.073041 10966 net.cpp:91] Creating Layer label_data_1_split
I0403 13:21:45.073060 10966 net.cpp:425] label_data_1_split <- label
I0403 13:21:45.073091 10966 net.cpp:399] label_data_1_split -> label_data_1_split_0
I0403 13:21:45.073117 10966 net.cpp:399] label_data_1_split -> label_data_1_split_1
I0403 13:21:45.073137 10966 net.cpp:399] label_data_1_split -> label_data_1_split_2
I0403 13:21:45.073200 10966 net.cpp:141] Setting up label_data_1_split
I0403 13:21:45.073223 10966 net.cpp:148] Top shape: 100 (100)
I0403 13:21:45.073240 10966 net.cpp:148] Top shape: 100 (100)
I0403 13:21:45.073256 10966 net.cpp:148] Top shape: 100 (100)
I0403 13:21:45.073271 10966 net.cpp:156] Memory required for data: 61836400
I0403 13:21:45.073285 10966 layer_factory.hpp:77] Creating layer conv1
I0403 13:21:45.073317 10966 net.cpp:91] Creating Layer conv1
I0403 13:21:45.073334 10966 net.cpp:425] conv1 <- data
I0403 13:21:45.073353 10966 net.cpp:399] conv1 -> conv1
I0403 13:21:45.209661 10966 net.cpp:141] Setting up conv1
I0403 13:21:45.209741 10966 net.cpp:148] Top shape: 100 96 55 55 (29040000)
I0403 13:21:45.209759 10966 net.cpp:156] Memory required for data: 177996400
I0403 13:21:45.209791 10966 layer_factory.hpp:77] Creating layer relu1
I0403 13:21:45.209818 10966 net.cpp:91] Creating Layer relu1
I0403 13:21:45.209837 10966 net.cpp:425] relu1 <- conv1
I0403 13:21:45.209856 10966 net.cpp:386] relu1 -> conv1 (in-place)
I0403 13:21:45.210116 10966 net.cpp:141] Setting up relu1
I0403 13:21:45.210144 10966 net.cpp:148] Top shape: 100 96 55 55 (29040000)
I0403 13:21:45.210194 10966 net.cpp:156] Memory required for data: 294156400
I0403 13:21:45.210211 10966 layer_factory.hpp:77] Creating layer norm1
I0403 13:21:45.210239 10966 net.cpp:91] Creating Layer norm1
I0403 13:21:45.210258 10966 net.cpp:425] norm1 <- conv1
I0403 13:21:45.210276 10966 net.cpp:399] norm1 -> norm1
I0403 13:21:45.210592 10966 net.cpp:141] Setting up norm1
I0403 13:21:45.210619 10966 net.cpp:148] Top shape: 100 96 55 55 (29040000)
I0403 13:21:45.210635 10966 net.cpp:156] Memory required for data: 410316400
I0403 13:21:45.210650 10966 layer_factory.hpp:77] Creating layer pool1
I0403 13:21:45.210674 10966 net.cpp:91] Creating Layer pool1
I0403 13:21:45.210691 10966 net.cpp:425] pool1 <- norm1
I0403 13:21:45.210710 10966 net.cpp:399] pool1 -> pool1
I0403 13:21:45.210777 10966 net.cpp:141] Setting up pool1
I0403 13:21:45.210801 10966 net.cpp:148] Top shape: 100 96 27 27 (6998400)
I0403 13:21:45.210816 10966 net.cpp:156] Memory required for data: 438310000
I0403 13:21:45.210830 10966 layer_factory.hpp:77] Creating layer conv2
I0403 13:21:45.210855 10966 net.cpp:91] Creating Layer conv2
I0403 13:21:45.210872 10966 net.cpp:425] conv2 <- pool1
I0403 13:21:45.210891 10966 net.cpp:399] conv2 -> conv2
I0403 13:21:45.225769 10966 net.cpp:141] Setting up conv2
I0403 13:21:45.225822 10966 net.cpp:148] Top shape: 100 256 27 27 (18662400)
I0403 13:21:45.225839 10966 net.cpp:156] Memory required for data: 512959600
I0403 13:21:45.225863 10966 layer_factory.hpp:77] Creating layer relu2
I0403 13:21:45.225884 10966 net.cpp:91] Creating Layer relu2
I0403 13:21:45.225901 10966 net.cpp:425] relu2 <- conv2
I0403 13:21:45.225920 10966 net.cpp:386] relu2 -> conv2 (in-place)
I0403 13:21:45.226194 10966 net.cpp:141] Setting up relu2
I0403 13:21:45.226222 10966 net.cpp:148] Top shape: 100 256 27 27 (18662400)
I0403 13:21:45.226238 10966 net.cpp:156] Memory required for data: 587609200
I0403 13:21:45.226253 10966 layer_factory.hpp:77] Creating layer norm2
I0403 13:21:45.226275 10966 net.cpp:91] Creating Layer norm2
I0403 13:21:45.226292 10966 net.cpp:425] norm2 <- conv2
I0403 13:21:45.226310 10966 net.cpp:399] norm2 -> norm2
I0403 13:21:45.226495 10966 net.cpp:141] Setting up norm2
I0403 13:21:45.226521 10966 net.cpp:148] Top shape: 100 256 27 27 (18662400)
I0403 13:21:45.226539 10966 net.cpp:156] Memory required for data: 662258800
I0403 13:21:45.226555 10966 layer_factory.hpp:77] Creating layer pool2
I0403 13:21:45.226574 10966 net.cpp:91] Creating Layer pool2
I0403 13:21:45.226591 10966 net.cpp:425] pool2 <- norm2
I0403 13:21:45.226608 10966 net.cpp:399] pool2 -> pool2
I0403 13:21:45.226660 10966 net.cpp:141] Setting up pool2
I0403 13:21:45.226681 10966 net.cpp:148] Top shape: 100 256 13 13 (4326400)
I0403 13:21:45.226696 10966 net.cpp:156] Memory required for data: 679564400
I0403 13:21:45.226711 10966 layer_factory.hpp:77] Creating layer conv3
I0403 13:21:45.226733 10966 net.cpp:91] Creating Layer conv3
I0403 13:21:45.226749 10966 net.cpp:425] conv3 <- pool2
I0403 13:21:45.226768 10966 net.cpp:399] conv3 -> conv3
I0403 13:21:45.265022 10966 net.cpp:141] Setting up conv3
I0403 13:21:45.265064 10966 net.cpp:148] Top shape: 100 384 13 13 (6489600)
I0403 13:21:45.265080 10966 net.cpp:156] Memory required for data: 705522800
I0403 13:21:45.265106 10966 layer_factory.hpp:77] Creating layer relu3
I0403 13:21:45.265130 10966 net.cpp:91] Creating Layer relu3
I0403 13:21:45.265147 10966 net.cpp:425] relu3 <- conv3
I0403 13:21:45.265167 10966 net.cpp:386] relu3 -> conv3 (in-place)
I0403 13:21:45.265453 10966 net.cpp:141] Setting up relu3
I0403 13:21:45.265480 10966 net.cpp:148] Top shape: 100 384 13 13 (6489600)
I0403 13:21:45.265496 10966 net.cpp:156] Memory required for data: 731481200
I0403 13:21:45.265509 10966 layer_factory.hpp:77] Creating layer conv4
I0403 13:21:45.265534 10966 net.cpp:91] Creating Layer conv4
I0403 13:21:45.265558 10966 net.cpp:425] conv4 <- conv3
I0403 13:21:45.265578 10966 net.cpp:399] conv4 -> conv4
I0403 13:21:45.295207 10966 net.cpp:141] Setting up conv4
I0403 13:21:45.295279 10966 net.cpp:148] Top shape: 100 384 13 13 (6489600)
I0403 13:21:45.295331 10966 net.cpp:156] Memory required for data: 757439600
I0403 13:21:45.295352 10966 layer_factory.hpp:77] Creating layer relu4
I0403 13:21:45.295377 10966 net.cpp:91] Creating Layer relu4
I0403 13:21:45.295394 10966 net.cpp:425] relu4 <- conv4
I0403 13:21:45.295418 10966 net.cpp:386] relu4 -> conv4 (in-place)
I0403 13:21:45.295701 10966 net.cpp:141] Setting up relu4
I0403 13:21:45.295727 10966 net.cpp:148] Top shape: 100 384 13 13 (6489600)
I0403 13:21:45.295742 10966 net.cpp:156] Memory required for data: 783398000
I0403 13:21:45.295756 10966 layer_factory.hpp:77] Creating layer conv5
I0403 13:21:45.295781 10966 net.cpp:91] Creating Layer conv5
I0403 13:21:45.295799 10966 net.cpp:425] conv5 <- conv4
I0403 13:21:45.295820 10966 net.cpp:399] conv5 -> conv5
I0403 13:21:45.316143 10966 net.cpp:141] Setting up conv5
I0403 13:21:45.316200 10966 net.cpp:148] Top shape: 100 256 13 13 (4326400)
I0403 13:21:45.316215 10966 net.cpp:156] Memory required for data: 800703600
I0403 13:21:45.316239 10966 layer_factory.hpp:77] Creating layer relu5
I0403 13:21:45.316262 10966 net.cpp:91] Creating Layer relu5
I0403 13:21:45.316280 10966 net.cpp:425] relu5 <- conv5
I0403 13:21:45.316299 10966 net.cpp:386] relu5 -> conv5 (in-place)
I0403 13:21:45.316576 10966 net.cpp:141] Setting up relu5
I0403 13:21:45.316603 10966 net.cpp:148] Top shape: 100 256 13 13 (4326400)
I0403 13:21:45.316617 10966 net.cpp:156] Memory required for data: 818009200
I0403 13:21:45.316632 10966 layer_factory.hpp:77] Creating layer pool5
I0403 13:21:45.316656 10966 net.cpp:91] Creating Layer pool5
I0403 13:21:45.316674 10966 net.cpp:425] pool5 <- conv5
I0403 13:21:45.316696 10966 net.cpp:399] pool5 -> pool5
I0403 13:21:45.316756 10966 net.cpp:141] Setting up pool5
I0403 13:21:45.316779 10966 net.cpp:148] Top shape: 100 256 6 6 (921600)
I0403 13:21:45.316793 10966 net.cpp:156] Memory required for data: 821695600
I0403 13:21:45.316808 10966 layer_factory.hpp:77] Creating layer fc6
I0403 13:21:45.316836 10966 net.cpp:91] Creating Layer fc6
I0403 13:21:45.316854 10966 net.cpp:425] fc6 <- pool5
I0403 13:21:45.316872 10966 net.cpp:399] fc6 -> fc6
I0403 13:21:46.865221 10966 net.cpp:141] Setting up fc6
I0403 13:21:46.865296 10966 net.cpp:148] Top shape: 100 4096 (409600)
I0403 13:21:46.865313 10966 net.cpp:156] Memory required for data: 823334000
I0403 13:21:46.865334 10966 layer_factory.hpp:77] Creating layer relu6
I0403 13:21:46.865355 10966 net.cpp:91] Creating Layer relu6
I0403 13:21:46.865373 10966 net.cpp:425] relu6 <- fc6
I0403 13:21:46.865394 10966 net.cpp:386] relu6 -> fc6 (in-place)
I0403 13:21:46.865624 10966 net.cpp:141] Setting up relu6
I0403 13:21:46.865649 10966 net.cpp:148] Top shape: 100 4096 (409600)
I0403 13:21:46.865664 10966 net.cpp:156] Memory required for data: 824972400
I0403 13:21:46.865679 10966 layer_factory.hpp:77] Creating layer drop6
I0403 13:21:46.865699 10966 net.cpp:91] Creating Layer drop6
I0403 13:21:46.865715 10966 net.cpp:425] drop6 <- fc6
I0403 13:21:46.865731 10966 net.cpp:386] drop6 -> fc6 (in-place)
I0403 13:21:46.865783 10966 net.cpp:141] Setting up drop6
I0403 13:21:46.865805 10966 net.cpp:148] Top shape: 100 4096 (409600)
I0403 13:21:46.865820 10966 net.cpp:156] Memory required for data: 826610800
I0403 13:21:46.865834 10966 layer_factory.hpp:77] Creating layer fc7
I0403 13:21:46.865854 10966 net.cpp:91] Creating Layer fc7
I0403 13:21:46.865869 10966 net.cpp:425] fc7 <- fc6
I0403 13:21:46.865891 10966 net.cpp:399] fc7 -> fc7
I0403 13:21:47.549743 10966 net.cpp:141] Setting up fc7
I0403 13:21:47.549823 10966 net.cpp:148] Top shape: 100 4096 (409600)
I0403 13:21:47.549839 10966 net.cpp:156] Memory required for data: 828249200
I0403 13:21:47.549860 10966 layer_factory.hpp:77] Creating layer relu7
I0403 13:21:47.549882 10966 net.cpp:91] Creating Layer relu7
I0403 13:21:47.549901 10966 net.cpp:425] relu7 <- fc7
I0403 13:21:47.549919 10966 net.cpp:386] relu7 -> fc7 (in-place)
I0403 13:21:47.550334 10966 net.cpp:141] Setting up relu7
I0403 13:21:47.550360 10966 net.cpp:148] Top shape: 100 4096 (409600)
I0403 13:21:47.550415 10966 net.cpp:156] Memory required for data: 829887600
I0403 13:21:47.550431 10966 layer_factory.hpp:77] Creating layer drop7
I0403 13:21:47.550453 10966 net.cpp:91] Creating Layer drop7
I0403 13:21:47.550469 10966 net.cpp:425] drop7 <- fc7
I0403 13:21:47.550487 10966 net.cpp:386] drop7 -> fc7 (in-place)
I0403 13:21:47.550531 10966 net.cpp:141] Setting up drop7
I0403 13:21:47.550560 10966 net.cpp:148] Top shape: 100 4096 (409600)
I0403 13:21:47.550576 10966 net.cpp:156] Memory required for data: 831526000
I0403 13:21:47.550590 10966 layer_factory.hpp:77] Creating layer fc8_plantvillage
I0403 13:21:47.550609 10966 net.cpp:91] Creating Layer fc8_plantvillage
I0403 13:21:47.550624 10966 net.cpp:425] fc8_plantvillage <- fc7
I0403 13:21:47.550644 10966 net.cpp:399] fc8_plantvillage -> fc8_plantvillage
I0403 13:21:47.557351 10966 net.cpp:141] Setting up fc8_plantvillage
I0403 13:21:47.557379 10966 net.cpp:148] Top shape: 100 38 (3800)
I0403 13:21:47.557394 10966 net.cpp:156] Memory required for data: 831541200
I0403 13:21:47.557411 10966 layer_factory.hpp:77] Creating layer fc8_plantvillage_fc8_plantvillage_0_split
I0403 13:21:47.557431 10966 net.cpp:91] Creating Layer fc8_plantvillage_fc8_plantvillage_0_split
I0403 13:21:47.557448 10966 net.cpp:425] fc8_plantvillage_fc8_plantvillage_0_split <- fc8_plantvillage
I0403 13:21:47.557466 10966 net.cpp:399] fc8_plantvillage_fc8_plantvillage_0_split -> fc8_plantvillage_fc8_plantvillage_0_split_0
I0403 13:21:47.557484 10966 net.cpp:399] fc8_plantvillage_fc8_plantvillage_0_split -> fc8_plantvillage_fc8_plantvillage_0_split_1
I0403 13:21:47.557507 10966 net.cpp:399] fc8_plantvillage_fc8_plantvillage_0_split -> fc8_plantvillage_fc8_plantvillage_0_split_2
I0403 13:21:47.557588 10966 net.cpp:141] Setting up fc8_plantvillage_fc8_plantvillage_0_split
I0403 13:21:47.557613 10966 net.cpp:148] Top shape: 100 38 (3800)
I0403 13:21:47.557631 10966 net.cpp:148] Top shape: 100 38 (3800)
I0403 13:21:47.557647 10966 net.cpp:148] Top shape: 100 38 (3800)
I0403 13:21:47.557662 10966 net.cpp:156] Memory required for data: 831586800
I0403 13:21:47.557677 10966 layer_factory.hpp:77] Creating layer prob
I0403 13:21:47.557698 10966 net.cpp:91] Creating Layer prob
I0403 13:21:47.557713 10966 net.cpp:425] prob <- fc8_plantvillage_fc8_plantvillage_0_split_0
I0403 13:21:47.557731 10966 net.cpp:399] prob -> prob
I0403 13:21:47.557952 10966 net.cpp:141] Setting up prob
I0403 13:21:47.557977 10966 net.cpp:148] Top shape: 100 38 (3800)
I0403 13:21:47.557992 10966 net.cpp:156] Memory required for data: 831602000
I0403 13:21:47.558007 10966 layer_factory.hpp:77] Creating layer hdf5out
I0403 13:21:47.558027 10966 net.cpp:91] Creating Layer hdf5out
I0403 13:21:47.558043 10966 net.cpp:425] hdf5out <- prob
I0403 13:21:47.558058 10966 net.cpp:425] hdf5out <- label_data_1_split_0
I0403 13:21:47.560227 10966 net.cpp:141] Setting up hdf5out
…
