…
I0403 13:28:00.060533 11308 net.cpp:313] The NetState phase (1) differed from the phase (0) specified by a rule in layer data
I0403 13:28:00.060854 11308 net.cpp:49] Initializing net from parameters: 
state {
  phase: TEST
}
layer {
  name: "data"
  type: "Data"
  top: "data"
  top: "label"
  include {
    phase: TEST
  }
  transform_param {
    crop_size: 227
    mean_file: "/home/mohanty/data/final_dataset/lmdb/segmented-80-20/mean.binaryproto"
  }
  data_param {
    source: "/home/mohanty/data/final_dataset/lmdb/segmented-80-20/test_db"
    batch_size: 100
    backend: LMDB
  }
}
layer {
  name: "conv1"
  type: "Convolution"
  bottom: "data"
  top: "conv1"
  param {
    lr_mult: 1
    decay_mult: 1
  }
  param {
    lr_mult: 2
    decay_mult: 0
  }
  convolution_param {
    num_output: 96
    kernel_size: 11
    stride: 4
    weight_filler {
      type: "gaussian"
      std: 0.01
    }
    bias_filler {
      type: "constant"
      value: 0
    }
  }
}
layer {
  name: "relu1"
  type: "ReLU"
  bottom: "conv1"
  top: "conv1"
}
layer {
  name: "norm1"
  type: "LRN"
  bottom: "conv1"
  top: "norm1"
  lrn_param {
    local_size: 5
    alpha: 0.0001
    beta: 0.75
  }
}
layer {
  name: "pool1"
  type: "Pooling"
  bottom: "norm1"
  top: "pool1"
  pooling_param {
    pool: MAX
    kernel_size: 3
    stride: 2
  }
}
layer {
  name: "conv2"
  type: "Convolution"
  bottom: "pool1"
  top: "conv2"
  param {
    lr_mult: 1
    decay_mult: 1
  }
  param {
    lr_mult: 2
    decay_mult: 0
  }
  convolution_param {
    num_output: 256
    pad: 2
    kernel_size: 5
    group: 2
    weight_filler {
      type: "gaussian"
      std: 0.01
    }
    bias_filler {
      type: "constant"
      value: 0.1
    }
  }
}
layer {
  name: "relu2"
  type: "ReLU"
  bottom: "conv2"
  top: "conv2"
}
layer {
  name: "norm2"
  type: "LRN"
  bottom: "conv2"
  top: "norm2"
  lrn_param {
    local_size: 5
    alpha: 0.0001
    beta: 0.75
  }
}
layer {
  name: "pool2"
  type: "Pooling"
  bottom: "norm2"
  top: "pool2"
  pooling_param {
    pool: MAX
    kernel_size: 3
    stride: 2
  }
}
layer {
  name: "conv3"
  type: "Convolution"
  bottom: "pool2"
  top: "conv3"
  param {
    lr_mult: 1
    decay_mult: 1
  }
  param {
    lr_mult: 2
    decay_mult: 0
  }
  convolution_param {
    num_output: 384
    pad: 1
    kernel_size: 3
    weight_filler {
      type: "gaussian"
      std: 0.01
    }
    bias_filler {
      type: "constant"
      value: 0
    }
  }
}
layer {
  name: "relu3"
  type: "ReLU"
  bottom: "conv3"
  top: "conv3"
}
layer {
  name: "conv4"
  type: "Convolution"
  bottom: "conv3"
  top: "conv4"
  param {
    lr_mult: 1
    decay_mult: 1
  }
  param {
    lr_mult: 2
    decay_mult: 0
  }
  convolution_param {
    num_output: 384
    pad: 1
    kernel_size: 3
    group: 2
    weight_filler {
      type: "gaussian"
      std: 0.01
    }
    bias_filler {
      type: "constant"
      value: 0.1
    }
  }
}
layer {
  name: "relu4"
  type: "ReLU"
  bottom: "conv4"
  top: "conv4"
}
layer {
  name: "conv5"
  type: "Convolution"
  bottom: "conv4"
  top: "conv5"
  param {
    lr_mult: 1
    decay_mult: 1
  }
  param {
    lr_mult: 2
    decay_mult: 0
  }
  convolution_param {
    num_output: 256
    pad: 1
    kernel_size: 3
    group: 2
    weight_filler {
      type: "gaussian"
      std: 0.01
    }
    bias_filler {
      type: "constant"
      value: 0.1
    }
  }
}
layer {
  name: "relu5"
  type: "ReLU"
  bottom: "conv5"
  top: "conv5"
}
layer {
  name: "pool5"
  type: "Pooling"
  bottom: "conv5"
  top: "pool5"
  pooling_param {
    pool: MAX
    kernel_size: 3
    stride: 2
  }
}
layer {
  name: "fc6"
  type: "InnerProduct"
  bottom: "pool5"
  top: "fc6"
  param {
    lr_mult: 1
    decay_mult: 1
  }
  param {
    lr_mult: 2
    decay_mult: 0
  }
  inner_product_param {
    num_output: 4096
    weight_filler {
      type: "gaussian"
      std: 0.005
    }
    bias_filler {
      type: "constant"
      value: 0.1
    }
  }
}
layer {
  name: "relu6"
  type: "ReLU"
  bottom: "fc6"
  top: "fc6"
}
layer {
  name: "drop6"
  type: "Dropout"
  bottom: "fc6"
  top: "fc6"
  dropout_param {
    dropout_ratio: 0.5
  }
}
layer {
  name: "fc7"
  type: "InnerProduct"
  bottom: "fc6"
  top: "fc7"
  param {
    lr_mult: 1
    decay_mult: 1
  }
  param {
    lr_mult: 2
    decay_mult: 0
  }
  inner_product_param {
    num_output: 4096
    weight_filler {
      type: "gaussian"
      std: 0.005
    }
    bias_filler {
      type: "constant"
      value: 0.1
    }
  }
}
layer {
  name: "relu7"
  type: "ReLU"
  bottom: "fc7"
  top: "fc7"
}
layer {
  name: "drop7"
  type: "Dropout"
  bottom: "fc7"
  top: "fc7"
  dropout_param {
    dropout_ratio: 0.5
  }
}
layer {
  name: "fc8_plantvillage"
  type: "InnerProduct"
  bottom: "fc7"
  top: "fc8_plantvillage"
  param {
    lr_mult: 1
    decay_mult: 1
  }
  param {
    lr_mult: 2
    decay_mult: 0
  }
  inner_product_param {
    num_output: 38
    weight_filler {
      type: "gaussian"
      std: 0.01
    }
    bias_filler {
      type: "constant"
      value: 0
    }
  }
}
layer {
  name: "prob"
  type: "Softmax"
  bottom: "fc8_plantvillage"
  top: "prob"
  include {
    phase: TEST
  }
}
layer {
  name: "hdf5out"
  type: "HDF5Output"
  bottom: "prob"
  bottom: "label"
  include {
    phase: TEST
  }
  hdf5_output_param {
    file_name: "hdf5_dumps/iter_10440.h5"
  }
}
layer {
  name: "loss"
  type: "SoftmaxWithLoss"
  bottom: "fc8_plantvillage"
  bottom: "label"
  top: "loss"
}
layer {
  name: "accuracy"
  type: "Accuracy"
  bottom: "fc8_plantvillage"
  bottom: "label"
  top: "accuracy"
  include {
    phase: TEST
  }
}
I0403 13:28:00.061439 11308 layer_factory.hpp:77] Creating layer data
I0403 13:28:00.062115 11308 net.cpp:91] Creating Layer data
I0403 13:28:00.062146 11308 net.cpp:399] data -> data
I0403 13:28:00.062201 11308 net.cpp:399] data -> label
I0403 13:28:00.062237 11308 data_transformer.cpp:25] Loading mean file from: /home/mohanty/data/final_dataset/lmdb/segmented-80-20/mean.binaryproto
I0403 13:28:00.064847 11311 db_lmdb.cpp:38] Opened lmdb /home/mohanty/data/final_dataset/lmdb/segmented-80-20/test_db
I0403 13:28:00.076925 11308 data_layer.cpp:41] output data size: 100,3,227,227
I0403 13:28:00.200414 11308 net.cpp:141] Setting up data
I0403 13:28:00.200515 11308 net.cpp:148] Top shape: 100 3 227 227 (15458700)
I0403 13:28:00.200537 11308 net.cpp:148] Top shape: 100 (100)
I0403 13:28:00.200553 11308 net.cpp:156] Memory required for data: 61835200
I0403 13:28:00.200582 11308 layer_factory.hpp:77] Creating layer label_data_1_split
I0403 13:28:00.200608 11308 net.cpp:91] Creating Layer label_data_1_split
I0403 13:28:00.200625 11308 net.cpp:425] label_data_1_split <- label
I0403 13:28:00.200659 11308 net.cpp:399] label_data_1_split -> label_data_1_split_0
I0403 13:28:00.200685 11308 net.cpp:399] label_data_1_split -> label_data_1_split_1
I0403 13:28:00.200706 11308 net.cpp:399] label_data_1_split -> label_data_1_split_2
I0403 13:28:00.200770 11308 net.cpp:141] Setting up label_data_1_split
I0403 13:28:00.200795 11308 net.cpp:148] Top shape: 100 (100)
I0403 13:28:00.200811 11308 net.cpp:148] Top shape: 100 (100)
I0403 13:28:00.200827 11308 net.cpp:148] Top shape: 100 (100)
I0403 13:28:00.200841 11308 net.cpp:156] Memory required for data: 61836400
I0403 13:28:00.200856 11308 layer_factory.hpp:77] Creating layer conv1
I0403 13:28:00.200889 11308 net.cpp:91] Creating Layer conv1
I0403 13:28:00.200908 11308 net.cpp:425] conv1 <- data
I0403 13:28:00.200928 11308 net.cpp:399] conv1 -> conv1
I0403 13:28:00.340772 11308 net.cpp:141] Setting up conv1
I0403 13:28:00.340852 11308 net.cpp:148] Top shape: 100 96 55 55 (29040000)
I0403 13:28:00.340869 11308 net.cpp:156] Memory required for data: 177996400
I0403 13:28:00.340903 11308 layer_factory.hpp:77] Creating layer relu1
I0403 13:28:00.340930 11308 net.cpp:91] Creating Layer relu1
I0403 13:28:00.340950 11308 net.cpp:425] relu1 <- conv1
I0403 13:28:00.340968 11308 net.cpp:386] relu1 -> conv1 (in-place)
I0403 13:28:00.341233 11308 net.cpp:141] Setting up relu1
I0403 13:28:00.341260 11308 net.cpp:148] Top shape: 100 96 55 55 (29040000)
I0403 13:28:00.341316 11308 net.cpp:156] Memory required for data: 294156400
I0403 13:28:00.341333 11308 layer_factory.hpp:77] Creating layer norm1
I0403 13:28:00.341361 11308 net.cpp:91] Creating Layer norm1
I0403 13:28:00.341378 11308 net.cpp:425] norm1 <- conv1
I0403 13:28:00.341397 11308 net.cpp:399] norm1 -> norm1
I0403 13:28:00.341717 11308 net.cpp:141] Setting up norm1
I0403 13:28:00.341744 11308 net.cpp:148] Top shape: 100 96 55 55 (29040000)
I0403 13:28:00.341759 11308 net.cpp:156] Memory required for data: 410316400
I0403 13:28:00.341774 11308 layer_factory.hpp:77] Creating layer pool1
I0403 13:28:00.341797 11308 net.cpp:91] Creating Layer pool1
I0403 13:28:00.341815 11308 net.cpp:425] pool1 <- norm1
I0403 13:28:00.341832 11308 net.cpp:399] pool1 -> pool1
I0403 13:28:00.341899 11308 net.cpp:141] Setting up pool1
I0403 13:28:00.341924 11308 net.cpp:148] Top shape: 100 96 27 27 (6998400)
I0403 13:28:00.341938 11308 net.cpp:156] Memory required for data: 438310000
I0403 13:28:00.341953 11308 layer_factory.hpp:77] Creating layer conv2
I0403 13:28:00.341977 11308 net.cpp:91] Creating Layer conv2
I0403 13:28:00.341995 11308 net.cpp:425] conv2 <- pool1
I0403 13:28:00.342012 11308 net.cpp:399] conv2 -> conv2
I0403 13:28:00.356878 11308 net.cpp:141] Setting up conv2
I0403 13:28:00.356930 11308 net.cpp:148] Top shape: 100 256 27 27 (18662400)
I0403 13:28:00.356946 11308 net.cpp:156] Memory required for data: 512959600
I0403 13:28:00.356971 11308 layer_factory.hpp:77] Creating layer relu2
I0403 13:28:00.356991 11308 net.cpp:91] Creating Layer relu2
I0403 13:28:00.357007 11308 net.cpp:425] relu2 <- conv2
I0403 13:28:00.357025 11308 net.cpp:386] relu2 -> conv2 (in-place)
I0403 13:28:00.357298 11308 net.cpp:141] Setting up relu2
I0403 13:28:00.357326 11308 net.cpp:148] Top shape: 100 256 27 27 (18662400)
I0403 13:28:00.357342 11308 net.cpp:156] Memory required for data: 587609200
I0403 13:28:00.357357 11308 layer_factory.hpp:77] Creating layer norm2
I0403 13:28:00.357383 11308 net.cpp:91] Creating Layer norm2
I0403 13:28:00.357400 11308 net.cpp:425] norm2 <- conv2
I0403 13:28:00.357419 11308 net.cpp:399] norm2 -> norm2
I0403 13:28:00.357621 11308 net.cpp:141] Setting up norm2
I0403 13:28:00.357650 11308 net.cpp:148] Top shape: 100 256 27 27 (18662400)
I0403 13:28:00.357666 11308 net.cpp:156] Memory required for data: 662258800
I0403 13:28:00.357681 11308 layer_factory.hpp:77] Creating layer pool2
I0403 13:28:00.357699 11308 net.cpp:91] Creating Layer pool2
I0403 13:28:00.357715 11308 net.cpp:425] pool2 <- norm2
I0403 13:28:00.357735 11308 net.cpp:399] pool2 -> pool2
I0403 13:28:00.357790 11308 net.cpp:141] Setting up pool2
I0403 13:28:00.357813 11308 net.cpp:148] Top shape: 100 256 13 13 (4326400)
I0403 13:28:00.357828 11308 net.cpp:156] Memory required for data: 679564400
I0403 13:28:00.357843 11308 layer_factory.hpp:77] Creating layer conv3
I0403 13:28:00.357867 11308 net.cpp:91] Creating Layer conv3
I0403 13:28:00.357889 11308 net.cpp:425] conv3 <- pool2
I0403 13:28:00.357908 11308 net.cpp:399] conv3 -> conv3
I0403 13:28:00.396324 11308 net.cpp:141] Setting up conv3
I0403 13:28:00.396401 11308 net.cpp:148] Top shape: 100 384 13 13 (6489600)
I0403 13:28:00.396420 11308 net.cpp:156] Memory required for data: 705522800
I0403 13:28:00.396445 11308 layer_factory.hpp:77] Creating layer relu3
I0403 13:28:00.396468 11308 net.cpp:91] Creating Layer relu3
I0403 13:28:00.396486 11308 net.cpp:425] relu3 <- conv3
I0403 13:28:00.396512 11308 net.cpp:386] relu3 -> conv3 (in-place)
I0403 13:28:00.396796 11308 net.cpp:141] Setting up relu3
I0403 13:28:00.396826 11308 net.cpp:148] Top shape: 100 384 13 13 (6489600)
I0403 13:28:00.396842 11308 net.cpp:156] Memory required for data: 731481200
I0403 13:28:00.396858 11308 layer_factory.hpp:77] Creating layer conv4
I0403 13:28:00.396885 11308 net.cpp:91] Creating Layer conv4
I0403 13:28:00.396903 11308 net.cpp:425] conv4 <- conv3
I0403 13:28:00.396922 11308 net.cpp:399] conv4 -> conv4
I0403 13:28:00.426733 11308 net.cpp:141] Setting up conv4
I0403 13:28:00.426803 11308 net.cpp:148] Top shape: 100 384 13 13 (6489600)
I0403 13:28:00.426854 11308 net.cpp:156] Memory required for data: 757439600
I0403 13:28:00.426878 11308 layer_factory.hpp:77] Creating layer relu4
I0403 13:28:00.426903 11308 net.cpp:91] Creating Layer relu4
I0403 13:28:00.426923 11308 net.cpp:425] relu4 <- conv4
I0403 13:28:00.426942 11308 net.cpp:386] relu4 -> conv4 (in-place)
I0403 13:28:00.427237 11308 net.cpp:141] Setting up relu4
I0403 13:28:00.427265 11308 net.cpp:148] Top shape: 100 384 13 13 (6489600)
I0403 13:28:00.427281 11308 net.cpp:156] Memory required for data: 783398000
I0403 13:28:00.427297 11308 layer_factory.hpp:77] Creating layer conv5
I0403 13:28:00.427323 11308 net.cpp:91] Creating Layer conv5
I0403 13:28:00.427342 11308 net.cpp:425] conv5 <- conv4
I0403 13:28:00.427361 11308 net.cpp:399] conv5 -> conv5
I0403 13:28:00.447922 11308 net.cpp:141] Setting up conv5
I0403 13:28:00.447962 11308 net.cpp:148] Top shape: 100 256 13 13 (4326400)
I0403 13:28:00.447979 11308 net.cpp:156] Memory required for data: 800703600
I0403 13:28:00.448005 11308 layer_factory.hpp:77] Creating layer relu5
I0403 13:28:00.448027 11308 net.cpp:91] Creating Layer relu5
I0403 13:28:00.448045 11308 net.cpp:425] relu5 <- conv5
I0403 13:28:00.448065 11308 net.cpp:386] relu5 -> conv5 (in-place)
I0403 13:28:00.448348 11308 net.cpp:141] Setting up relu5
I0403 13:28:00.448374 11308 net.cpp:148] Top shape: 100 256 13 13 (4326400)
I0403 13:28:00.448390 11308 net.cpp:156] Memory required for data: 818009200
I0403 13:28:00.448405 11308 layer_factory.hpp:77] Creating layer pool5
I0403 13:28:00.448426 11308 net.cpp:91] Creating Layer pool5
I0403 13:28:00.448443 11308 net.cpp:425] pool5 <- conv5
I0403 13:28:00.448464 11308 net.cpp:399] pool5 -> pool5
I0403 13:28:00.448532 11308 net.cpp:141] Setting up pool5
I0403 13:28:00.448556 11308 net.cpp:148] Top shape: 100 256 6 6 (921600)
I0403 13:28:00.448571 11308 net.cpp:156] Memory required for data: 821695600
I0403 13:28:00.448586 11308 layer_factory.hpp:77] Creating layer fc6
I0403 13:28:00.448616 11308 net.cpp:91] Creating Layer fc6
I0403 13:28:00.448634 11308 net.cpp:425] fc6 <- pool5
I0403 13:28:00.448654 11308 net.cpp:399] fc6 -> fc6
I0403 13:28:02.040529 11308 net.cpp:141] Setting up fc6
I0403 13:28:02.040608 11308 net.cpp:148] Top shape: 100 4096 (409600)
I0403 13:28:02.040624 11308 net.cpp:156] Memory required for data: 823334000
I0403 13:28:02.040647 11308 layer_factory.hpp:77] Creating layer relu6
I0403 13:28:02.040671 11308 net.cpp:91] Creating Layer relu6
I0403 13:28:02.040689 11308 net.cpp:425] relu6 <- fc6
I0403 13:28:02.040709 11308 net.cpp:386] relu6 -> fc6 (in-place)
I0403 13:28:02.040942 11308 net.cpp:141] Setting up relu6
I0403 13:28:02.040969 11308 net.cpp:148] Top shape: 100 4096 (409600)
I0403 13:28:02.040985 11308 net.cpp:156] Memory required for data: 824972400
I0403 13:28:02.040999 11308 layer_factory.hpp:77] Creating layer drop6
I0403 13:28:02.041018 11308 net.cpp:91] Creating Layer drop6
I0403 13:28:02.041033 11308 net.cpp:425] drop6 <- fc6
I0403 13:28:02.041049 11308 net.cpp:386] drop6 -> fc6 (in-place)
I0403 13:28:02.041102 11308 net.cpp:141] Setting up drop6
I0403 13:28:02.041126 11308 net.cpp:148] Top shape: 100 4096 (409600)
I0403 13:28:02.041139 11308 net.cpp:156] Memory required for data: 826610800
I0403 13:28:02.041154 11308 layer_factory.hpp:77] Creating layer fc7
I0403 13:28:02.041177 11308 net.cpp:91] Creating Layer fc7
I0403 13:28:02.041193 11308 net.cpp:425] fc7 <- fc6
I0403 13:28:02.041211 11308 net.cpp:399] fc7 -> fc7
I0403 13:28:04.493454 11308 net.cpp:141] Setting up fc7
I0403 13:28:04.493544 11308 net.cpp:148] Top shape: 100 4096 (409600)
I0403 13:28:04.493566 11308 net.cpp:156] Memory required for data: 828249200
I0403 13:28:04.493588 11308 layer_factory.hpp:77] Creating layer relu7
I0403 13:28:04.493613 11308 net.cpp:91] Creating Layer relu7
I0403 13:28:04.493631 11308 net.cpp:425] relu7 <- fc7
I0403 13:28:04.493655 11308 net.cpp:386] relu7 -> fc7 (in-place)
I0403 13:28:04.494052 11308 net.cpp:141] Setting up relu7
I0403 13:28:04.494081 11308 net.cpp:148] Top shape: 100 4096 (409600)
I0403 13:28:04.494138 11308 net.cpp:156] Memory required for data: 829887600
I0403 13:28:04.494154 11308 layer_factory.hpp:77] Creating layer drop7
I0403 13:28:04.494174 11308 net.cpp:91] Creating Layer drop7
I0403 13:28:04.494190 11308 net.cpp:425] drop7 <- fc7
I0403 13:28:04.494210 11308 net.cpp:386] drop7 -> fc7 (in-place)
I0403 13:28:04.494254 11308 net.cpp:141] Setting up drop7
I0403 13:28:04.494277 11308 net.cpp:148] Top shape: 100 4096 (409600)
I0403 13:28:04.494292 11308 net.cpp:156] Memory required for data: 831526000
I0403 13:28:04.494305 11308 layer_factory.hpp:77] Creating layer fc8_plantvillage
I0403 13:28:04.494328 11308 net.cpp:91] Creating Layer fc8_plantvillage
I0403 13:28:04.494344 11308 net.cpp:425] fc8_plantvillage <- fc7
I0403 13:28:04.494366 11308 net.cpp:399] fc8_plantvillage -> fc8_plantvillage
I0403 13:28:04.501085 11308 net.cpp:141] Setting up fc8_plantvillage
I0403 13:28:04.501113 11308 net.cpp:148] Top shape: 100 38 (3800)
I0403 13:28:04.501130 11308 net.cpp:156] Memory required for data: 831541200
I0403 13:28:04.501149 11308 layer_factory.hpp:77] Creating layer fc8_plantvillage_fc8_plantvillage_0_split
I0403 13:28:04.501168 11308 net.cpp:91] Creating Layer fc8_plantvillage_fc8_plantvillage_0_split
I0403 13:28:04.501184 11308 net.cpp:425] fc8_plantvillage_fc8_plantvillage_0_split <- fc8_plantvillage
I0403 13:28:04.501205 11308 net.cpp:399] fc8_plantvillage_fc8_plantvillage_0_split -> fc8_plantvillage_fc8_plantvillage_0_split_0
I0403 13:28:04.501226 11308 net.cpp:399] fc8_plantvillage_fc8_plantvillage_0_split -> fc8_plantvillage_fc8_plantvillage_0_split_1
I0403 13:28:04.501246 11308 net.cpp:399] fc8_plantvillage_fc8_plantvillage_0_split -> fc8_plantvillage_fc8_plantvillage_0_split_2
I0403 13:28:04.501322 11308 net.cpp:141] Setting up fc8_plantvillage_fc8_plantvillage_0_split
I0403 13:28:04.501346 11308 net.cpp:148] Top shape: 100 38 (3800)
I0403 13:28:04.501363 11308 net.cpp:148] Top shape: 100 38 (3800)
I0403 13:28:04.501379 11308 net.cpp:148] Top shape: 100 38 (3800)
I0403 13:28:04.501392 11308 net.cpp:156] Memory required for data: 831586800
I0403 13:28:04.501406 11308 layer_factory.hpp:77] Creating layer prob
I0403 13:28:04.501425 11308 net.cpp:91] Creating Layer prob
I0403 13:28:04.501441 11308 net.cpp:425] prob <- fc8_plantvillage_fc8_plantvillage_0_split_0
I0403 13:28:04.501457 11308 net.cpp:399] prob -> prob
I0403 13:28:04.501688 11308 net.cpp:141] Setting up prob
I0403 13:28:04.501718 11308 net.cpp:148] Top shape: 100 38 (3800)
I0403 13:28:04.501734 11308 net.cpp:156] Memory required for data: 831602000
I0403 13:28:04.501749 11308 layer_factory.hpp:77] Creating layer hdf5out
I0403 13:28:04.501767 11308 net.cpp:91] Creating Layer hdf5out
I0403 13:28:04.501782 11308 net.cpp:425] hdf5out <- prob
I0403 13:28:04.501798 11308 net.cpp:425] hdf5out <- label_data_1_split_0
I0403 13:28:04.504288 11308 net.cpp:141] Setting up hdf5out
…
