…
I0403 13:20:32.430435 10917 net.cpp:313] The NetState phase (1) differed from the phase (0) specified by a rule in layer data
I0403 13:20:32.430762 10917 net.cpp:49] Initializing net from parameters: 
state {
  phase: TEST
}
layer {
  name: "data"
  type: "Data"
  top: "data"
  top: "label"
  include {
    phase: TEST
  }
  transform_param {
    crop_size: 227
    mean_file: "/home/mohanty/data/final_dataset/lmdb/segmented-80-20/mean.binaryproto"
  }
  data_param {
    source: "/home/mohanty/data/final_dataset/lmdb/segmented-80-20/test_db"
    batch_size: 100
    backend: LMDB
  }
}
layer {
  name: "conv1"
  type: "Convolution"
  bottom: "data"
  top: "conv1"
  param {
    lr_mult: 1
    decay_mult: 1
  }
  param {
    lr_mult: 2
    decay_mult: 0
  }
  convolution_param {
    num_output: 96
    kernel_size: 11
    stride: 4
    weight_filler {
      type: "gaussian"
      std: 0.01
    }
    bias_filler {
      type: "constant"
      value: 0
    }
  }
}
layer {
  name: "relu1"
  type: "ReLU"
  bottom: "conv1"
  top: "conv1"
}
layer {
  name: "norm1"
  type: "LRN"
  bottom: "conv1"
  top: "norm1"
  lrn_param {
    local_size: 5
    alpha: 0.0001
    beta: 0.75
  }
}
layer {
  name: "pool1"
  type: "Pooling"
  bottom: "norm1"
  top: "pool1"
  pooling_param {
    pool: MAX
    kernel_size: 3
    stride: 2
  }
}
layer {
  name: "conv2"
  type: "Convolution"
  bottom: "pool1"
  top: "conv2"
  param {
    lr_mult: 1
    decay_mult: 1
  }
  param {
    lr_mult: 2
    decay_mult: 0
  }
  convolution_param {
    num_output: 256
    pad: 2
    kernel_size: 5
    group: 2
    weight_filler {
      type: "gaussian"
      std: 0.01
    }
    bias_filler {
      type: "constant"
      value: 0.1
    }
  }
}
layer {
  name: "relu2"
  type: "ReLU"
  bottom: "conv2"
  top: "conv2"
}
layer {
  name: "norm2"
  type: "LRN"
  bottom: "conv2"
  top: "norm2"
  lrn_param {
    local_size: 5
    alpha: 0.0001
    beta: 0.75
  }
}
layer {
  name: "pool2"
  type: "Pooling"
  bottom: "norm2"
  top: "pool2"
  pooling_param {
    pool: MAX
    kernel_size: 3
    stride: 2
  }
}
layer {
  name: "conv3"
  type: "Convolution"
  bottom: "pool2"
  top: "conv3"
  param {
    lr_mult: 1
    decay_mult: 1
  }
  param {
    lr_mult: 2
    decay_mult: 0
  }
  convolution_param {
    num_output: 384
    pad: 1
    kernel_size: 3
    weight_filler {
      type: "gaussian"
      std: 0.01
    }
    bias_filler {
      type: "constant"
      value: 0
    }
  }
}
layer {
  name: "relu3"
  type: "ReLU"
  bottom: "conv3"
  top: "conv3"
}
layer {
  name: "conv4"
  type: "Convolution"
  bottom: "conv3"
  top: "conv4"
  param {
    lr_mult: 1
    decay_mult: 1
  }
  param {
    lr_mult: 2
    decay_mult: 0
  }
  convolution_param {
    num_output: 384
    pad: 1
    kernel_size: 3
    group: 2
    weight_filler {
      type: "gaussian"
      std: 0.01
    }
    bias_filler {
      type: "constant"
      value: 0.1
    }
  }
}
layer {
  name: "relu4"
  type: "ReLU"
  bottom: "conv4"
  top: "conv4"
}
layer {
  name: "conv5"
  type: "Convolution"
  bottom: "conv4"
  top: "conv5"
  param {
    lr_mult: 1
    decay_mult: 1
  }
  param {
    lr_mult: 2
    decay_mult: 0
  }
  convolution_param {
    num_output: 256
    pad: 1
    kernel_size: 3
    group: 2
    weight_filler {
      type: "gaussian"
      std: 0.01
    }
    bias_filler {
      type: "constant"
      value: 0.1
    }
  }
}
layer {
  name: "relu5"
  type: "ReLU"
  bottom: "conv5"
  top: "conv5"
}
layer {
  name: "pool5"
  type: "Pooling"
  bottom: "conv5"
  top: "pool5"
  pooling_param {
    pool: MAX
    kernel_size: 3
    stride: 2
  }
}
layer {
  name: "fc6"
  type: "InnerProduct"
  bottom: "pool5"
  top: "fc6"
  param {
    lr_mult: 1
    decay_mult: 1
  }
  param {
    lr_mult: 2
    decay_mult: 0
  }
  inner_product_param {
    num_output: 4096
    weight_filler {
      type: "gaussian"
      std: 0.005
    }
    bias_filler {
      type: "constant"
      value: 0.1
    }
  }
}
layer {
  name: "relu6"
  type: "ReLU"
  bottom: "fc6"
  top: "fc6"
}
layer {
  name: "drop6"
  type: "Dropout"
  bottom: "fc6"
  top: "fc6"
  dropout_param {
    dropout_ratio: 0.5
  }
}
layer {
  name: "fc7"
  type: "InnerProduct"
  bottom: "fc6"
  top: "fc7"
  param {
    lr_mult: 1
    decay_mult: 1
  }
  param {
    lr_mult: 2
    decay_mult: 0
  }
  inner_product_param {
    num_output: 4096
    weight_filler {
      type: "gaussian"
      std: 0.005
    }
    bias_filler {
      type: "constant"
      value: 0.1
    }
  }
}
layer {
  name: "relu7"
  type: "ReLU"
  bottom: "fc7"
  top: "fc7"
}
layer {
  name: "drop7"
  type: "Dropout"
  bottom: "fc7"
  top: "fc7"
  dropout_param {
    dropout_ratio: 0.5
  }
}
layer {
  name: "fc8_plantvillage"
  type: "InnerProduct"
  bottom: "fc7"
  top: "fc8_plantvillage"
  param {
    lr_mult: 1
    decay_mult: 1
  }
  param {
    lr_mult: 2
    decay_mult: 0
  }
  inner_product_param {
    num_output: 38
    weight_filler {
      type: "gaussian"
      std: 0.01
    }
    bias_filler {
      type: "constant"
      value: 0
    }
  }
}
layer {
  name: "prob"
  type: "Softmax"
  bottom: "fc8_plantvillage"
  top: "prob"
  include {
    phase: TEST
  }
}
layer {
  name: "hdf5out"
  type: "HDF5Output"
  bottom: "prob"
  bottom: "label"
  include {
    phase: TEST
  }
  hdf5_output_param {
    file_name: "hdf5_dumps/iter_2610.h5"
  }
}
layer {
  name: "loss"
  type: "SoftmaxWithLoss"
  bottom: "fc8_plantvillage"
  bottom: "label"
  top: "loss"
}
layer {
  name: "accuracy"
  type: "Accuracy"
  bottom: "fc8_plantvillage"
  bottom: "label"
  top: "accuracy"
  include {
    phase: TEST
  }
}
I0403 13:20:32.431346 10917 layer_factory.hpp:77] Creating layer data
I0403 13:20:32.432008 10917 net.cpp:91] Creating Layer data
I0403 13:20:32.432042 10917 net.cpp:399] data -> data
I0403 13:20:32.432093 10917 net.cpp:399] data -> label
I0403 13:20:32.432132 10917 data_transformer.cpp:25] Loading mean file from: /home/mohanty/data/final_dataset/lmdb/segmented-80-20/mean.binaryproto
I0403 13:20:32.434926 10920 db_lmdb.cpp:38] Opened lmdb /home/mohanty/data/final_dataset/lmdb/segmented-80-20/test_db
I0403 13:20:32.446351 10917 data_layer.cpp:41] output data size: 100,3,227,227
I0403 13:20:32.565292 10917 net.cpp:141] Setting up data
I0403 13:20:32.565387 10917 net.cpp:148] Top shape: 100 3 227 227 (15458700)
I0403 13:20:32.565409 10917 net.cpp:148] Top shape: 100 (100)
I0403 13:20:32.565425 10917 net.cpp:156] Memory required for data: 61835200
I0403 13:20:32.565453 10917 layer_factory.hpp:77] Creating layer label_data_1_split
I0403 13:20:32.565479 10917 net.cpp:91] Creating Layer label_data_1_split
I0403 13:20:32.565496 10917 net.cpp:425] label_data_1_split <- label
I0403 13:20:32.565529 10917 net.cpp:399] label_data_1_split -> label_data_1_split_0
I0403 13:20:32.565562 10917 net.cpp:399] label_data_1_split -> label_data_1_split_1
I0403 13:20:32.565583 10917 net.cpp:399] label_data_1_split -> label_data_1_split_2
I0403 13:20:32.565647 10917 net.cpp:141] Setting up label_data_1_split
I0403 13:20:32.565670 10917 net.cpp:148] Top shape: 100 (100)
I0403 13:20:32.565687 10917 net.cpp:148] Top shape: 100 (100)
I0403 13:20:32.565703 10917 net.cpp:148] Top shape: 100 (100)
I0403 13:20:32.565717 10917 net.cpp:156] Memory required for data: 61836400
I0403 13:20:32.565732 10917 layer_factory.hpp:77] Creating layer conv1
I0403 13:20:32.565765 10917 net.cpp:91] Creating Layer conv1
I0403 13:20:32.565783 10917 net.cpp:425] conv1 <- data
I0403 13:20:32.565804 10917 net.cpp:399] conv1 -> conv1
I0403 13:20:32.709816 10917 net.cpp:141] Setting up conv1
I0403 13:20:32.709894 10917 net.cpp:148] Top shape: 100 96 55 55 (29040000)
I0403 13:20:32.709911 10917 net.cpp:156] Memory required for data: 177996400
I0403 13:20:32.709941 10917 layer_factory.hpp:77] Creating layer relu1
I0403 13:20:32.709969 10917 net.cpp:91] Creating Layer relu1
I0403 13:20:32.709985 10917 net.cpp:425] relu1 <- conv1
I0403 13:20:32.710003 10917 net.cpp:386] relu1 -> conv1 (in-place)
I0403 13:20:32.710273 10917 net.cpp:141] Setting up relu1
I0403 13:20:32.710300 10917 net.cpp:148] Top shape: 100 96 55 55 (29040000)
I0403 13:20:32.710382 10917 net.cpp:156] Memory required for data: 294156400
I0403 13:20:32.710404 10917 layer_factory.hpp:77] Creating layer norm1
I0403 13:20:32.710433 10917 net.cpp:91] Creating Layer norm1
I0403 13:20:32.710449 10917 net.cpp:425] norm1 <- conv1
I0403 13:20:32.710467 10917 net.cpp:399] norm1 -> norm1
I0403 13:20:32.710786 10917 net.cpp:141] Setting up norm1
I0403 13:20:32.710813 10917 net.cpp:148] Top shape: 100 96 55 55 (29040000)
I0403 13:20:32.710829 10917 net.cpp:156] Memory required for data: 410316400
I0403 13:20:32.710842 10917 layer_factory.hpp:77] Creating layer pool1
I0403 13:20:32.710865 10917 net.cpp:91] Creating Layer pool1
I0403 13:20:32.710880 10917 net.cpp:425] pool1 <- norm1
I0403 13:20:32.710897 10917 net.cpp:399] pool1 -> pool1
I0403 13:20:32.710961 10917 net.cpp:141] Setting up pool1
I0403 13:20:32.710983 10917 net.cpp:148] Top shape: 100 96 27 27 (6998400)
I0403 13:20:32.710997 10917 net.cpp:156] Memory required for data: 438310000
I0403 13:20:32.711011 10917 layer_factory.hpp:77] Creating layer conv2
I0403 13:20:32.711035 10917 net.cpp:91] Creating Layer conv2
I0403 13:20:32.711050 10917 net.cpp:425] conv2 <- pool1
I0403 13:20:32.711067 10917 net.cpp:399] conv2 -> conv2
I0403 13:20:32.726011 10917 net.cpp:141] Setting up conv2
I0403 13:20:32.726065 10917 net.cpp:148] Top shape: 100 256 27 27 (18662400)
I0403 13:20:32.726081 10917 net.cpp:156] Memory required for data: 512959600
I0403 13:20:32.726102 10917 layer_factory.hpp:77] Creating layer relu2
I0403 13:20:32.726126 10917 net.cpp:91] Creating Layer relu2
I0403 13:20:32.726145 10917 net.cpp:425] relu2 <- conv2
I0403 13:20:32.726161 10917 net.cpp:386] relu2 -> conv2 (in-place)
I0403 13:20:32.726449 10917 net.cpp:141] Setting up relu2
I0403 13:20:32.726476 10917 net.cpp:148] Top shape: 100 256 27 27 (18662400)
I0403 13:20:32.726491 10917 net.cpp:156] Memory required for data: 587609200
I0403 13:20:32.726506 10917 layer_factory.hpp:77] Creating layer norm2
I0403 13:20:32.726529 10917 net.cpp:91] Creating Layer norm2
I0403 13:20:32.726552 10917 net.cpp:425] norm2 <- conv2
I0403 13:20:32.726572 10917 net.cpp:399] norm2 -> norm2
I0403 13:20:32.726797 10917 net.cpp:141] Setting up norm2
I0403 13:20:32.726824 10917 net.cpp:148] Top shape: 100 256 27 27 (18662400)
I0403 13:20:32.726837 10917 net.cpp:156] Memory required for data: 662258800
I0403 13:20:32.726851 10917 layer_factory.hpp:77] Creating layer pool2
I0403 13:20:32.726873 10917 net.cpp:91] Creating Layer pool2
I0403 13:20:32.726888 10917 net.cpp:425] pool2 <- norm2
I0403 13:20:32.726905 10917 net.cpp:399] pool2 -> pool2
I0403 13:20:32.726958 10917 net.cpp:141] Setting up pool2
I0403 13:20:32.726980 10917 net.cpp:148] Top shape: 100 256 13 13 (4326400)
I0403 13:20:32.726994 10917 net.cpp:156] Memory required for data: 679564400
I0403 13:20:32.727007 10917 layer_factory.hpp:77] Creating layer conv3
I0403 13:20:32.727030 10917 net.cpp:91] Creating Layer conv3
I0403 13:20:32.727046 10917 net.cpp:425] conv3 <- pool2
I0403 13:20:32.727066 10917 net.cpp:399] conv3 -> conv3
I0403 13:20:32.765377 10917 net.cpp:141] Setting up conv3
I0403 13:20:32.765446 10917 net.cpp:148] Top shape: 100 384 13 13 (6489600)
I0403 13:20:32.765462 10917 net.cpp:156] Memory required for data: 705522800
I0403 13:20:32.765489 10917 layer_factory.hpp:77] Creating layer relu3
I0403 13:20:32.765512 10917 net.cpp:91] Creating Layer relu3
I0403 13:20:32.765529 10917 net.cpp:425] relu3 <- conv3
I0403 13:20:32.765552 10917 net.cpp:386] relu3 -> conv3 (in-place)
I0403 13:20:32.765838 10917 net.cpp:141] Setting up relu3
I0403 13:20:32.765866 10917 net.cpp:148] Top shape: 100 384 13 13 (6489600)
I0403 13:20:32.765879 10917 net.cpp:156] Memory required for data: 731481200
I0403 13:20:32.765894 10917 layer_factory.hpp:77] Creating layer conv4
I0403 13:20:32.765920 10917 net.cpp:91] Creating Layer conv4
I0403 13:20:32.765938 10917 net.cpp:425] conv4 <- conv3
I0403 13:20:32.765959 10917 net.cpp:399] conv4 -> conv4
I0403 13:20:32.795949 10917 net.cpp:141] Setting up conv4
I0403 13:20:32.796022 10917 net.cpp:148] Top shape: 100 384 13 13 (6489600)
I0403 13:20:32.796078 10917 net.cpp:156] Memory required for data: 757439600
I0403 13:20:32.796100 10917 layer_factory.hpp:77] Creating layer relu4
I0403 13:20:32.796125 10917 net.cpp:91] Creating Layer relu4
I0403 13:20:32.796144 10917 net.cpp:425] relu4 <- conv4
I0403 13:20:32.796162 10917 net.cpp:386] relu4 -> conv4 (in-place)
I0403 13:20:32.796447 10917 net.cpp:141] Setting up relu4
I0403 13:20:32.796473 10917 net.cpp:148] Top shape: 100 384 13 13 (6489600)
I0403 13:20:32.796489 10917 net.cpp:156] Memory required for data: 783398000
I0403 13:20:32.796504 10917 layer_factory.hpp:77] Creating layer conv5
I0403 13:20:32.796545 10917 net.cpp:91] Creating Layer conv5
I0403 13:20:32.796576 10917 net.cpp:425] conv5 <- conv4
I0403 13:20:32.796599 10917 net.cpp:399] conv5 -> conv5
I0403 13:20:32.817879 10917 net.cpp:141] Setting up conv5
I0403 13:20:32.817936 10917 net.cpp:148] Top shape: 100 256 13 13 (4326400)
I0403 13:20:32.817952 10917 net.cpp:156] Memory required for data: 800703600
I0403 13:20:32.817976 10917 layer_factory.hpp:77] Creating layer relu5
I0403 13:20:32.818002 10917 net.cpp:91] Creating Layer relu5
I0403 13:20:32.818020 10917 net.cpp:425] relu5 <- conv5
I0403 13:20:32.818038 10917 net.cpp:386] relu5 -> conv5 (in-place)
I0403 13:20:32.818320 10917 net.cpp:141] Setting up relu5
I0403 13:20:32.818346 10917 net.cpp:148] Top shape: 100 256 13 13 (4326400)
I0403 13:20:32.818362 10917 net.cpp:156] Memory required for data: 818009200
I0403 13:20:32.818377 10917 layer_factory.hpp:77] Creating layer pool5
I0403 13:20:32.818400 10917 net.cpp:91] Creating Layer pool5
I0403 13:20:32.818418 10917 net.cpp:425] pool5 <- conv5
I0403 13:20:32.818439 10917 net.cpp:399] pool5 -> pool5
I0403 13:20:32.818501 10917 net.cpp:141] Setting up pool5
I0403 13:20:32.818526 10917 net.cpp:148] Top shape: 100 256 6 6 (921600)
I0403 13:20:32.818545 10917 net.cpp:156] Memory required for data: 821695600
I0403 13:20:32.818560 10917 layer_factory.hpp:77] Creating layer fc6
I0403 13:20:32.818589 10917 net.cpp:91] Creating Layer fc6
I0403 13:20:32.818608 10917 net.cpp:425] fc6 <- pool5
I0403 13:20:32.818625 10917 net.cpp:399] fc6 -> fc6
I0403 13:20:34.370405 10917 net.cpp:141] Setting up fc6
I0403 13:20:34.370486 10917 net.cpp:148] Top shape: 100 4096 (409600)
I0403 13:20:34.370501 10917 net.cpp:156] Memory required for data: 823334000
I0403 13:20:34.370529 10917 layer_factory.hpp:77] Creating layer relu6
I0403 13:20:34.370553 10917 net.cpp:91] Creating Layer relu6
I0403 13:20:34.370569 10917 net.cpp:425] relu6 <- fc6
I0403 13:20:34.370590 10917 net.cpp:386] relu6 -> fc6 (in-place)
I0403 13:20:34.370810 10917 net.cpp:141] Setting up relu6
I0403 13:20:34.370834 10917 net.cpp:148] Top shape: 100 4096 (409600)
I0403 13:20:34.370849 10917 net.cpp:156] Memory required for data: 824972400
I0403 13:20:34.370863 10917 layer_factory.hpp:77] Creating layer drop6
I0403 13:20:34.370884 10917 net.cpp:91] Creating Layer drop6
I0403 13:20:34.370900 10917 net.cpp:425] drop6 <- fc6
I0403 13:20:34.370918 10917 net.cpp:386] drop6 -> fc6 (in-place)
I0403 13:20:34.370970 10917 net.cpp:141] Setting up drop6
I0403 13:20:34.370993 10917 net.cpp:148] Top shape: 100 4096 (409600)
I0403 13:20:34.371007 10917 net.cpp:156] Memory required for data: 826610800
I0403 13:20:34.371022 10917 layer_factory.hpp:77] Creating layer fc7
I0403 13:20:34.371040 10917 net.cpp:91] Creating Layer fc7
I0403 13:20:34.371054 10917 net.cpp:425] fc7 <- fc6
I0403 13:20:34.371073 10917 net.cpp:399] fc7 -> fc7
I0403 13:20:35.055431 10917 net.cpp:141] Setting up fc7
I0403 13:20:35.055510 10917 net.cpp:148] Top shape: 100 4096 (409600)
I0403 13:20:35.055527 10917 net.cpp:156] Memory required for data: 828249200
I0403 13:20:35.055549 10917 layer_factory.hpp:77] Creating layer relu7
I0403 13:20:35.055573 10917 net.cpp:91] Creating Layer relu7
I0403 13:20:35.055590 10917 net.cpp:425] relu7 <- fc7
I0403 13:20:35.055608 10917 net.cpp:386] relu7 -> fc7 (in-place)
I0403 13:20:35.056015 10917 net.cpp:141] Setting up relu7
I0403 13:20:35.056040 10917 net.cpp:148] Top shape: 100 4096 (409600)
I0403 13:20:35.056093 10917 net.cpp:156] Memory required for data: 829887600
I0403 13:20:35.056108 10917 layer_factory.hpp:77] Creating layer drop7
I0403 13:20:35.056128 10917 net.cpp:91] Creating Layer drop7
I0403 13:20:35.056144 10917 net.cpp:425] drop7 <- fc7
I0403 13:20:35.056160 10917 net.cpp:386] drop7 -> fc7 (in-place)
I0403 13:20:35.056205 10917 net.cpp:141] Setting up drop7
I0403 13:20:35.056226 10917 net.cpp:148] Top shape: 100 4096 (409600)
I0403 13:20:35.056238 10917 net.cpp:156] Memory required for data: 831526000
I0403 13:20:35.056252 10917 layer_factory.hpp:77] Creating layer fc8_plantvillage
I0403 13:20:35.056270 10917 net.cpp:91] Creating Layer fc8_plantvillage
I0403 13:20:35.056284 10917 net.cpp:425] fc8_plantvillage <- fc7
I0403 13:20:35.056303 10917 net.cpp:399] fc8_plantvillage -> fc8_plantvillage
I0403 13:20:35.062893 10917 net.cpp:141] Setting up fc8_plantvillage
I0403 13:20:35.062922 10917 net.cpp:148] Top shape: 100 38 (3800)
I0403 13:20:35.062935 10917 net.cpp:156] Memory required for data: 831541200
I0403 13:20:35.062952 10917 layer_factory.hpp:77] Creating layer fc8_plantvillage_fc8_plantvillage_0_split
I0403 13:20:35.062973 10917 net.cpp:91] Creating Layer fc8_plantvillage_fc8_plantvillage_0_split
I0403 13:20:35.062988 10917 net.cpp:425] fc8_plantvillage_fc8_plantvillage_0_split <- fc8_plantvillage
I0403 13:20:35.063004 10917 net.cpp:399] fc8_plantvillage_fc8_plantvillage_0_split -> fc8_plantvillage_fc8_plantvillage_0_split_0
I0403 13:20:35.063021 10917 net.cpp:399] fc8_plantvillage_fc8_plantvillage_0_split -> fc8_plantvillage_fc8_plantvillage_0_split_1
I0403 13:20:35.063042 10917 net.cpp:399] fc8_plantvillage_fc8_plantvillage_0_split -> fc8_plantvillage_fc8_plantvillage_0_split_2
I0403 13:20:35.063118 10917 net.cpp:141] Setting up fc8_plantvillage_fc8_plantvillage_0_split
I0403 13:20:35.063143 10917 net.cpp:148] Top shape: 100 38 (3800)
I0403 13:20:35.063158 10917 net.cpp:148] Top shape: 100 38 (3800)
I0403 13:20:35.063172 10917 net.cpp:148] Top shape: 100 38 (3800)
I0403 13:20:35.063185 10917 net.cpp:156] Memory required for data: 831586800
I0403 13:20:35.063199 10917 layer_factory.hpp:77] Creating layer prob
I0403 13:20:35.063216 10917 net.cpp:91] Creating Layer prob
I0403 13:20:35.063230 10917 net.cpp:425] prob <- fc8_plantvillage_fc8_plantvillage_0_split_0
I0403 13:20:35.063249 10917 net.cpp:399] prob -> prob
I0403 13:20:35.063465 10917 net.cpp:141] Setting up prob
I0403 13:20:35.063490 10917 net.cpp:148] Top shape: 100 38 (3800)
I0403 13:20:35.063508 10917 net.cpp:156] Memory required for data: 831602000
I0403 13:20:35.063524 10917 layer_factory.hpp:77] Creating layer hdf5out
I0403 13:20:35.063545 10917 net.cpp:91] Creating Layer hdf5out
I0403 13:20:35.063560 10917 net.cpp:425] hdf5out <- prob
I0403 13:20:35.063575 10917 net.cpp:425] hdf5out <- label_data_1_split_0
I0403 13:20:35.065698 10917 net.cpp:141] Setting up hdf5out
…
