…
I0403 13:19:44.030092 10879 net.cpp:313] The NetState phase (1) differed from the phase (0) specified by a rule in layer data
I0403 13:19:44.030395 10879 net.cpp:49] Initializing net from parameters: 
state {
  phase: TEST
}
layer {
  name: "data"
  type: "Data"
  top: "data"
  top: "label"
  include {
    phase: TEST
  }
  transform_param {
    crop_size: 227
    mean_file: "/home/mohanty/data/final_dataset/lmdb/segmented-80-20/mean.binaryproto"
  }
  data_param {
    source: "/home/mohanty/data/final_dataset/lmdb/segmented-80-20/test_db"
    batch_size: 100
    backend: LMDB
  }
}
layer {
  name: "conv1"
  type: "Convolution"
  bottom: "data"
  top: "conv1"
  param {
    lr_mult: 1
    decay_mult: 1
  }
  param {
    lr_mult: 2
    decay_mult: 0
  }
  convolution_param {
    num_output: 96
    kernel_size: 11
    stride: 4
    weight_filler {
      type: "gaussian"
      std: 0.01
    }
    bias_filler {
      type: "constant"
      value: 0
    }
  }
}
layer {
  name: "relu1"
  type: "ReLU"
  bottom: "conv1"
  top: "conv1"
}
layer {
  name: "norm1"
  type: "LRN"
  bottom: "conv1"
  top: "norm1"
  lrn_param {
    local_size: 5
    alpha: 0.0001
    beta: 0.75
  }
}
layer {
  name: "pool1"
  type: "Pooling"
  bottom: "norm1"
  top: "pool1"
  pooling_param {
    pool: MAX
    kernel_size: 3
    stride: 2
  }
}
layer {
  name: "conv2"
  type: "Convolution"
  bottom: "pool1"
  top: "conv2"
  param {
    lr_mult: 1
    decay_mult: 1
  }
  param {
    lr_mult: 2
    decay_mult: 0
  }
  convolution_param {
    num_output: 256
    pad: 2
    kernel_size: 5
    group: 2
    weight_filler {
      type: "gaussian"
      std: 0.01
    }
    bias_filler {
      type: "constant"
      value: 0.1
    }
  }
}
layer {
  name: "relu2"
  type: "ReLU"
  bottom: "conv2"
  top: "conv2"
}
layer {
  name: "norm2"
  type: "LRN"
  bottom: "conv2"
  top: "norm2"
  lrn_param {
    local_size: 5
    alpha: 0.0001
    beta: 0.75
  }
}
layer {
  name: "pool2"
  type: "Pooling"
  bottom: "norm2"
  top: "pool2"
  pooling_param {
    pool: MAX
    kernel_size: 3
    stride: 2
  }
}
layer {
  name: "conv3"
  type: "Convolution"
  bottom: "pool2"
  top: "conv3"
  param {
    lr_mult: 1
    decay_mult: 1
  }
  param {
    lr_mult: 2
    decay_mult: 0
  }
  convolution_param {
    num_output: 384
    pad: 1
    kernel_size: 3
    weight_filler {
      type: "gaussian"
      std: 0.01
    }
    bias_filler {
      type: "constant"
      value: 0
    }
  }
}
layer {
  name: "relu3"
  type: "ReLU"
  bottom: "conv3"
  top: "conv3"
}
layer {
  name: "conv4"
  type: "Convolution"
  bottom: "conv3"
  top: "conv4"
  param {
    lr_mult: 1
    decay_mult: 1
  }
  param {
    lr_mult: 2
    decay_mult: 0
  }
  convolution_param {
    num_output: 384
    pad: 1
    kernel_size: 3
    group: 2
    weight_filler {
      type: "gaussian"
      std: 0.01
    }
    bias_filler {
      type: "constant"
      value: 0.1
    }
  }
}
layer {
  name: "relu4"
  type: "ReLU"
  bottom: "conv4"
  top: "conv4"
}
layer {
  name: "conv5"
  type: "Convolution"
  bottom: "conv4"
  top: "conv5"
  param {
    lr_mult: 1
    decay_mult: 1
  }
  param {
    lr_mult: 2
    decay_mult: 0
  }
  convolution_param {
    num_output: 256
    pad: 1
    kernel_size: 3
    group: 2
    weight_filler {
      type: "gaussian"
      std: 0.01
    }
    bias_filler {
      type: "constant"
      value: 0.1
    }
  }
}
layer {
  name: "relu5"
  type: "ReLU"
  bottom: "conv5"
  top: "conv5"
}
layer {
  name: "pool5"
  type: "Pooling"
  bottom: "conv5"
  top: "pool5"
  pooling_param {
    pool: MAX
    kernel_size: 3
    stride: 2
  }
}
layer {
  name: "fc6"
  type: "InnerProduct"
  bottom: "pool5"
  top: "fc6"
  param {
    lr_mult: 1
    decay_mult: 1
  }
  param {
    lr_mult: 2
    decay_mult: 0
  }
  inner_product_param {
    num_output: 4096
    weight_filler {
      type: "gaussian"
      std: 0.005
    }
    bias_filler {
      type: "constant"
      value: 0.1
    }
  }
}
layer {
  name: "relu6"
  type: "ReLU"
  bottom: "fc6"
  top: "fc6"
}
layer {
  name: "drop6"
  type: "Dropout"
  bottom: "fc6"
  top: "fc6"
  dropout_param {
    dropout_ratio: 0.5
  }
}
layer {
  name: "fc7"
  type: "InnerProduct"
  bottom: "fc6"
  top: "fc7"
  param {
    lr_mult: 1
    decay_mult: 1
  }
  param {
    lr_mult: 2
    decay_mult: 0
  }
  inner_product_param {
    num_output: 4096
    weight_filler {
      type: "gaussian"
      std: 0.005
    }
    bias_filler {
      type: "constant"
      value: 0.1
    }
  }
}
layer {
  name: "relu7"
  type: "ReLU"
  bottom: "fc7"
  top: "fc7"
}
layer {
  name: "drop7"
  type: "Dropout"
  bottom: "fc7"
  top: "fc7"
  dropout_param {
    dropout_ratio: 0.5
  }
}
layer {
  name: "fc8_plantvillage"
  type: "InnerProduct"
  bottom: "fc7"
  top: "fc8_plantvillage"
  param {
    lr_mult: 1
    decay_mult: 1
  }
  param {
    lr_mult: 2
    decay_mult: 0
  }
  inner_product_param {
    num_output: 38
    weight_filler {
      type: "gaussian"
      std: 0.01
    }
    bias_filler {
      type: "constant"
      value: 0
    }
  }
}
layer {
  name: "prob"
  type: "Softmax"
  bottom: "fc8_plantvillage"
  top: "prob"
  include {
    phase: TEST
  }
}
layer {
  name: "hdf5out"
  type: "HDF5Output"
  bottom: "prob"
  bottom: "label"
  include {
    phase: TEST
  }
  hdf5_output_param {
    file_name: "hdf5_dumps/iter_1740.h5"
  }
}
layer {
  name: "loss"
  type: "SoftmaxWithLoss"
  bottom: "fc8_plantvillage"
  bottom: "label"
  top: "loss"
}
layer {
  name: "accuracy"
  type: "Accuracy"
  bottom: "fc8_plantvillage"
  bottom: "label"
  top: "accuracy"
  include {
    phase: TEST
  }
}
I0403 13:19:44.031080 10879 layer_factory.hpp:77] Creating layer data
I0403 13:19:44.031744 10879 net.cpp:91] Creating Layer data
I0403 13:19:44.031775 10879 net.cpp:399] data -> data
I0403 13:19:44.031826 10879 net.cpp:399] data -> label
I0403 13:19:44.031865 10879 data_transformer.cpp:25] Loading mean file from: /home/mohanty/data/final_dataset/lmdb/segmented-80-20/mean.binaryproto
I0403 13:19:44.034837 10882 db_lmdb.cpp:38] Opened lmdb /home/mohanty/data/final_dataset/lmdb/segmented-80-20/test_db
I0403 13:19:44.046218 10879 data_layer.cpp:41] output data size: 100,3,227,227
I0403 13:19:44.163363 10879 net.cpp:141] Setting up data
I0403 13:19:44.163455 10879 net.cpp:148] Top shape: 100 3 227 227 (15458700)
I0403 13:19:44.163476 10879 net.cpp:148] Top shape: 100 (100)
I0403 13:19:44.163491 10879 net.cpp:156] Memory required for data: 61835200
I0403 13:19:44.163518 10879 layer_factory.hpp:77] Creating layer label_data_1_split
I0403 13:19:44.163547 10879 net.cpp:91] Creating Layer label_data_1_split
I0403 13:19:44.163568 10879 net.cpp:425] label_data_1_split <- label
I0403 13:19:44.163599 10879 net.cpp:399] label_data_1_split -> label_data_1_split_0
I0403 13:19:44.163626 10879 net.cpp:399] label_data_1_split -> label_data_1_split_1
I0403 13:19:44.163647 10879 net.cpp:399] label_data_1_split -> label_data_1_split_2
I0403 13:19:44.163709 10879 net.cpp:141] Setting up label_data_1_split
I0403 13:19:44.163733 10879 net.cpp:148] Top shape: 100 (100)
I0403 13:19:44.163749 10879 net.cpp:148] Top shape: 100 (100)
I0403 13:19:44.163765 10879 net.cpp:148] Top shape: 100 (100)
I0403 13:19:44.163779 10879 net.cpp:156] Memory required for data: 61836400
I0403 13:19:44.163794 10879 layer_factory.hpp:77] Creating layer conv1
I0403 13:19:44.163825 10879 net.cpp:91] Creating Layer conv1
I0403 13:19:44.163842 10879 net.cpp:425] conv1 <- data
I0403 13:19:44.163861 10879 net.cpp:399] conv1 -> conv1
I0403 13:19:44.301652 10879 net.cpp:141] Setting up conv1
I0403 13:19:44.301728 10879 net.cpp:148] Top shape: 100 96 55 55 (29040000)
I0403 13:19:44.301745 10879 net.cpp:156] Memory required for data: 177996400
I0403 13:19:44.301776 10879 layer_factory.hpp:77] Creating layer relu1
I0403 13:19:44.301803 10879 net.cpp:91] Creating Layer relu1
I0403 13:19:44.301822 10879 net.cpp:425] relu1 <- conv1
I0403 13:19:44.301841 10879 net.cpp:386] relu1 -> conv1 (in-place)
I0403 13:19:44.302122 10879 net.cpp:141] Setting up relu1
I0403 13:19:44.302150 10879 net.cpp:148] Top shape: 100 96 55 55 (29040000)
I0403 13:19:44.302199 10879 net.cpp:156] Memory required for data: 294156400
I0403 13:19:44.302217 10879 layer_factory.hpp:77] Creating layer norm1
I0403 13:19:44.302243 10879 net.cpp:91] Creating Layer norm1
I0403 13:19:44.302261 10879 net.cpp:425] norm1 <- conv1
I0403 13:19:44.302278 10879 net.cpp:399] norm1 -> norm1
I0403 13:19:44.302594 10879 net.cpp:141] Setting up norm1
I0403 13:19:44.302621 10879 net.cpp:148] Top shape: 100 96 55 55 (29040000)
I0403 13:19:44.302637 10879 net.cpp:156] Memory required for data: 410316400
I0403 13:19:44.302652 10879 layer_factory.hpp:77] Creating layer pool1
I0403 13:19:44.302675 10879 net.cpp:91] Creating Layer pool1
I0403 13:19:44.302691 10879 net.cpp:425] pool1 <- norm1
I0403 13:19:44.302708 10879 net.cpp:399] pool1 -> pool1
I0403 13:19:44.302777 10879 net.cpp:141] Setting up pool1
I0403 13:19:44.302800 10879 net.cpp:148] Top shape: 100 96 27 27 (6998400)
I0403 13:19:44.302815 10879 net.cpp:156] Memory required for data: 438310000
I0403 13:19:44.302830 10879 layer_factory.hpp:77] Creating layer conv2
I0403 13:19:44.302855 10879 net.cpp:91] Creating Layer conv2
I0403 13:19:44.302872 10879 net.cpp:425] conv2 <- pool1
I0403 13:19:44.302891 10879 net.cpp:399] conv2 -> conv2
I0403 13:19:44.318502 10879 net.cpp:141] Setting up conv2
I0403 13:19:44.318562 10879 net.cpp:148] Top shape: 100 256 27 27 (18662400)
I0403 13:19:44.318579 10879 net.cpp:156] Memory required for data: 512959600
I0403 13:19:44.318603 10879 layer_factory.hpp:77] Creating layer relu2
I0403 13:19:44.318624 10879 net.cpp:91] Creating Layer relu2
I0403 13:19:44.318639 10879 net.cpp:425] relu2 <- conv2
I0403 13:19:44.318660 10879 net.cpp:386] relu2 -> conv2 (in-place)
I0403 13:19:44.318980 10879 net.cpp:141] Setting up relu2
I0403 13:19:44.319008 10879 net.cpp:148] Top shape: 100 256 27 27 (18662400)
I0403 13:19:44.319025 10879 net.cpp:156] Memory required for data: 587609200
I0403 13:19:44.319039 10879 layer_factory.hpp:77] Creating layer norm2
I0403 13:19:44.319062 10879 net.cpp:91] Creating Layer norm2
I0403 13:19:44.319079 10879 net.cpp:425] norm2 <- conv2
I0403 13:19:44.319098 10879 net.cpp:399] norm2 -> norm2
I0403 13:19:44.319300 10879 net.cpp:141] Setting up norm2
I0403 13:19:44.319326 10879 net.cpp:148] Top shape: 100 256 27 27 (18662400)
I0403 13:19:44.319341 10879 net.cpp:156] Memory required for data: 662258800
I0403 13:19:44.319356 10879 layer_factory.hpp:77] Creating layer pool2
I0403 13:19:44.319375 10879 net.cpp:91] Creating Layer pool2
I0403 13:19:44.319391 10879 net.cpp:425] pool2 <- norm2
I0403 13:19:44.319411 10879 net.cpp:399] pool2 -> pool2
I0403 13:19:44.319463 10879 net.cpp:141] Setting up pool2
I0403 13:19:44.319488 10879 net.cpp:148] Top shape: 100 256 13 13 (4326400)
I0403 13:19:44.319502 10879 net.cpp:156] Memory required for data: 679564400
I0403 13:19:44.319516 10879 layer_factory.hpp:77] Creating layer conv3
I0403 13:19:44.319547 10879 net.cpp:91] Creating Layer conv3
I0403 13:19:44.319566 10879 net.cpp:425] conv3 <- pool2
I0403 13:19:44.319586 10879 net.cpp:399] conv3 -> conv3
I0403 13:19:44.358413 10879 net.cpp:141] Setting up conv3
I0403 13:19:44.358490 10879 net.cpp:148] Top shape: 100 384 13 13 (6489600)
I0403 13:19:44.358511 10879 net.cpp:156] Memory required for data: 705522800
I0403 13:19:44.358543 10879 layer_factory.hpp:77] Creating layer relu3
I0403 13:19:44.358582 10879 net.cpp:91] Creating Layer relu3
I0403 13:19:44.358599 10879 net.cpp:425] relu3 <- conv3
I0403 13:19:44.358623 10879 net.cpp:386] relu3 -> conv3 (in-place)
I0403 13:19:44.358917 10879 net.cpp:141] Setting up relu3
I0403 13:19:44.358945 10879 net.cpp:148] Top shape: 100 384 13 13 (6489600)
I0403 13:19:44.358963 10879 net.cpp:156] Memory required for data: 731481200
I0403 13:19:44.358978 10879 layer_factory.hpp:77] Creating layer conv4
I0403 13:19:44.359004 10879 net.cpp:91] Creating Layer conv4
I0403 13:19:44.359022 10879 net.cpp:425] conv4 <- conv3
I0403 13:19:44.359043 10879 net.cpp:399] conv4 -> conv4
I0403 13:19:44.390090 10879 net.cpp:141] Setting up conv4
I0403 13:19:44.390166 10879 net.cpp:148] Top shape: 100 384 13 13 (6489600)
I0403 13:19:44.390216 10879 net.cpp:156] Memory required for data: 757439600
I0403 13:19:44.390239 10879 layer_factory.hpp:77] Creating layer relu4
I0403 13:19:44.390261 10879 net.cpp:91] Creating Layer relu4
I0403 13:19:44.390278 10879 net.cpp:425] relu4 <- conv4
I0403 13:19:44.390301 10879 net.cpp:386] relu4 -> conv4 (in-place)
I0403 13:19:44.390593 10879 net.cpp:141] Setting up relu4
I0403 13:19:44.390622 10879 net.cpp:148] Top shape: 100 384 13 13 (6489600)
I0403 13:19:44.390640 10879 net.cpp:156] Memory required for data: 783398000
I0403 13:19:44.390656 10879 layer_factory.hpp:77] Creating layer conv5
I0403 13:19:44.390681 10879 net.cpp:91] Creating Layer conv5
I0403 13:19:44.390699 10879 net.cpp:425] conv5 <- conv4
I0403 13:19:44.390718 10879 net.cpp:399] conv5 -> conv5
I0403 13:19:44.411737 10879 net.cpp:141] Setting up conv5
I0403 13:19:44.411775 10879 net.cpp:148] Top shape: 100 256 13 13 (4326400)
I0403 13:19:44.411792 10879 net.cpp:156] Memory required for data: 800703600
I0403 13:19:44.411818 10879 layer_factory.hpp:77] Creating layer relu5
I0403 13:19:44.411840 10879 net.cpp:91] Creating Layer relu5
I0403 13:19:44.411856 10879 net.cpp:425] relu5 <- conv5
I0403 13:19:44.411876 10879 net.cpp:386] relu5 -> conv5 (in-place)
I0403 13:19:44.412156 10879 net.cpp:141] Setting up relu5
I0403 13:19:44.412184 10879 net.cpp:148] Top shape: 100 256 13 13 (4326400)
I0403 13:19:44.412199 10879 net.cpp:156] Memory required for data: 818009200
I0403 13:19:44.412214 10879 layer_factory.hpp:77] Creating layer pool5
I0403 13:19:44.412235 10879 net.cpp:91] Creating Layer pool5
I0403 13:19:44.412252 10879 net.cpp:425] pool5 <- conv5
I0403 13:19:44.412276 10879 net.cpp:399] pool5 -> pool5
I0403 13:19:44.412336 10879 net.cpp:141] Setting up pool5
I0403 13:19:44.412360 10879 net.cpp:148] Top shape: 100 256 6 6 (921600)
I0403 13:19:44.412403 10879 net.cpp:156] Memory required for data: 821695600
I0403 13:19:44.412425 10879 layer_factory.hpp:77] Creating layer fc6
I0403 13:19:44.412453 10879 net.cpp:91] Creating Layer fc6
I0403 13:19:44.412472 10879 net.cpp:425] fc6 <- pool5
I0403 13:19:44.412492 10879 net.cpp:399] fc6 -> fc6
I0403 13:19:45.993986 10879 net.cpp:141] Setting up fc6
I0403 13:19:45.994071 10879 net.cpp:148] Top shape: 100 4096 (409600)
I0403 13:19:45.994088 10879 net.cpp:156] Memory required for data: 823334000
I0403 13:19:45.994110 10879 layer_factory.hpp:77] Creating layer relu6
I0403 13:19:45.994135 10879 net.cpp:91] Creating Layer relu6
I0403 13:19:45.994153 10879 net.cpp:425] relu6 <- fc6
I0403 13:19:45.994173 10879 net.cpp:386] relu6 -> fc6 (in-place)
I0403 13:19:45.994401 10879 net.cpp:141] Setting up relu6
I0403 13:19:45.994426 10879 net.cpp:148] Top shape: 100 4096 (409600)
I0403 13:19:45.994441 10879 net.cpp:156] Memory required for data: 824972400
I0403 13:19:45.994456 10879 layer_factory.hpp:77] Creating layer drop6
I0403 13:19:45.994473 10879 net.cpp:91] Creating Layer drop6
I0403 13:19:45.994488 10879 net.cpp:425] drop6 <- fc6
I0403 13:19:45.994518 10879 net.cpp:386] drop6 -> fc6 (in-place)
I0403 13:19:45.994573 10879 net.cpp:141] Setting up drop6
I0403 13:19:45.994598 10879 net.cpp:148] Top shape: 100 4096 (409600)
I0403 13:19:45.994616 10879 net.cpp:156] Memory required for data: 826610800
I0403 13:19:45.994629 10879 layer_factory.hpp:77] Creating layer fc7
I0403 13:19:45.994647 10879 net.cpp:91] Creating Layer fc7
I0403 13:19:45.994663 10879 net.cpp:425] fc7 <- fc6
I0403 13:19:45.994683 10879 net.cpp:399] fc7 -> fc7
I0403 13:19:46.704718 10879 net.cpp:141] Setting up fc7
I0403 13:19:46.704798 10879 net.cpp:148] Top shape: 100 4096 (409600)
I0403 13:19:46.704815 10879 net.cpp:156] Memory required for data: 828249200
I0403 13:19:46.704836 10879 layer_factory.hpp:77] Creating layer relu7
I0403 13:19:46.704859 10879 net.cpp:91] Creating Layer relu7
I0403 13:19:46.704876 10879 net.cpp:425] relu7 <- fc7
I0403 13:19:46.704898 10879 net.cpp:386] relu7 -> fc7 (in-place)
I0403 13:19:46.705322 10879 net.cpp:141] Setting up relu7
I0403 13:19:46.705351 10879 net.cpp:148] Top shape: 100 4096 (409600)
I0403 13:19:46.705409 10879 net.cpp:156] Memory required for data: 829887600
I0403 13:19:46.705425 10879 layer_factory.hpp:77] Creating layer drop7
I0403 13:19:46.705443 10879 net.cpp:91] Creating Layer drop7
I0403 13:19:46.705459 10879 net.cpp:425] drop7 <- fc7
I0403 13:19:46.705478 10879 net.cpp:386] drop7 -> fc7 (in-place)
I0403 13:19:46.705528 10879 net.cpp:141] Setting up drop7
I0403 13:19:46.705551 10879 net.cpp:148] Top shape: 100 4096 (409600)
I0403 13:19:46.705565 10879 net.cpp:156] Memory required for data: 831526000
I0403 13:19:46.705580 10879 layer_factory.hpp:77] Creating layer fc8_plantvillage
I0403 13:19:46.705603 10879 net.cpp:91] Creating Layer fc8_plantvillage
I0403 13:19:46.705621 10879 net.cpp:425] fc8_plantvillage <- fc7
I0403 13:19:46.705641 10879 net.cpp:399] fc8_plantvillage -> fc8_plantvillage
I0403 13:19:46.712633 10879 net.cpp:141] Setting up fc8_plantvillage
I0403 13:19:46.712662 10879 net.cpp:148] Top shape: 100 38 (3800)
I0403 13:19:46.712677 10879 net.cpp:156] Memory required for data: 831541200
I0403 13:19:46.712697 10879 layer_factory.hpp:77] Creating layer fc8_plantvillage_fc8_plantvillage_0_split
I0403 13:19:46.712715 10879 net.cpp:91] Creating Layer fc8_plantvillage_fc8_plantvillage_0_split
I0403 13:19:46.712730 10879 net.cpp:425] fc8_plantvillage_fc8_plantvillage_0_split <- fc8_plantvillage
I0403 13:19:46.712749 10879 net.cpp:399] fc8_plantvillage_fc8_plantvillage_0_split -> fc8_plantvillage_fc8_plantvillage_0_split_0
I0403 13:19:46.712770 10879 net.cpp:399] fc8_plantvillage_fc8_plantvillage_0_split -> fc8_plantvillage_fc8_plantvillage_0_split_1
I0403 13:19:46.712790 10879 net.cpp:399] fc8_plantvillage_fc8_plantvillage_0_split -> fc8_plantvillage_fc8_plantvillage_0_split_2
I0403 13:19:46.712867 10879 net.cpp:141] Setting up fc8_plantvillage_fc8_plantvillage_0_split
I0403 13:19:46.712891 10879 net.cpp:148] Top shape: 100 38 (3800)
I0403 13:19:46.712908 10879 net.cpp:148] Top shape: 100 38 (3800)
I0403 13:19:46.712924 10879 net.cpp:148] Top shape: 100 38 (3800)
I0403 13:19:46.712937 10879 net.cpp:156] Memory required for data: 831586800
I0403 13:19:46.712952 10879 layer_factory.hpp:77] Creating layer prob
I0403 13:19:46.712971 10879 net.cpp:91] Creating Layer prob
I0403 13:19:46.712986 10879 net.cpp:425] prob <- fc8_plantvillage_fc8_plantvillage_0_split_0
I0403 13:19:46.713006 10879 net.cpp:399] prob -> prob
I0403 13:19:46.713239 10879 net.cpp:141] Setting up prob
I0403 13:19:46.713268 10879 net.cpp:148] Top shape: 100 38 (3800)
I0403 13:19:46.713285 10879 net.cpp:156] Memory required for data: 831602000
I0403 13:19:46.713300 10879 layer_factory.hpp:77] Creating layer hdf5out
I0403 13:19:46.713318 10879 net.cpp:91] Creating Layer hdf5out
I0403 13:19:46.713333 10879 net.cpp:425] hdf5out <- prob
I0403 13:19:46.713349 10879 net.cpp:425] hdf5out <- label_data_1_split_0
I0403 13:19:46.715811 10879 net.cpp:141] Setting up hdf5out
…
