…
I0403 13:18:31.260438 10815 net.cpp:313] The NetState phase (1) differed from the phase (0) specified by a rule in layer data
I0403 13:18:31.260745 10815 net.cpp:49] Initializing net from parameters: 
state {
  phase: TEST
}
layer {
  name: "data"
  type: "Data"
  top: "data"
  top: "label"
  include {
    phase: TEST
  }
  transform_param {
    crop_size: 227
    mean_file: "/home/mohanty/data/final_dataset/lmdb/segmented-80-20/mean.binaryproto"
  }
  data_param {
    source: "/home/mohanty/data/final_dataset/lmdb/segmented-80-20/test_db"
    batch_size: 100
    backend: LMDB
  }
}
layer {
  name: "conv1"
  type: "Convolution"
  bottom: "data"
  top: "conv1"
  param {
    lr_mult: 1
    decay_mult: 1
  }
  param {
    lr_mult: 2
    decay_mult: 0
  }
  convolution_param {
    num_output: 96
    kernel_size: 11
    stride: 4
    weight_filler {
      type: "gaussian"
      std: 0.01
    }
    bias_filler {
      type: "constant"
      value: 0
    }
  }
}
layer {
  name: "relu1"
  type: "ReLU"
  bottom: "conv1"
  top: "conv1"
}
layer {
  name: "norm1"
  type: "LRN"
  bottom: "conv1"
  top: "norm1"
  lrn_param {
    local_size: 5
    alpha: 0.0001
    beta: 0.75
  }
}
layer {
  name: "pool1"
  type: "Pooling"
  bottom: "norm1"
  top: "pool1"
  pooling_param {
    pool: MAX
    kernel_size: 3
    stride: 2
  }
}
layer {
  name: "conv2"
  type: "Convolution"
  bottom: "pool1"
  top: "conv2"
  param {
    lr_mult: 1
    decay_mult: 1
  }
  param {
    lr_mult: 2
    decay_mult: 0
  }
  convolution_param {
    num_output: 256
    pad: 2
    kernel_size: 5
    group: 2
    weight_filler {
      type: "gaussian"
      std: 0.01
    }
    bias_filler {
      type: "constant"
      value: 0.1
    }
  }
}
layer {
  name: "relu2"
  type: "ReLU"
  bottom: "conv2"
  top: "conv2"
}
layer {
  name: "norm2"
  type: "LRN"
  bottom: "conv2"
  top: "norm2"
  lrn_param {
    local_size: 5
    alpha: 0.0001
    beta: 0.75
  }
}
layer {
  name: "pool2"
  type: "Pooling"
  bottom: "norm2"
  top: "pool2"
  pooling_param {
    pool: MAX
    kernel_size: 3
    stride: 2
  }
}
layer {
  name: "conv3"
  type: "Convolution"
  bottom: "pool2"
  top: "conv3"
  param {
    lr_mult: 1
    decay_mult: 1
  }
  param {
    lr_mult: 2
    decay_mult: 0
  }
  convolution_param {
    num_output: 384
    pad: 1
    kernel_size: 3
    weight_filler {
      type: "gaussian"
      std: 0.01
    }
    bias_filler {
      type: "constant"
      value: 0
    }
  }
}
layer {
  name: "relu3"
  type: "ReLU"
  bottom: "conv3"
  top: "conv3"
}
layer {
  name: "conv4"
  type: "Convolution"
  bottom: "conv3"
  top: "conv4"
  param {
    lr_mult: 1
    decay_mult: 1
  }
  param {
    lr_mult: 2
    decay_mult: 0
  }
  convolution_param {
    num_output: 384
    pad: 1
    kernel_size: 3
    group: 2
    weight_filler {
      type: "gaussian"
      std: 0.01
    }
    bias_filler {
      type: "constant"
      value: 0.1
    }
  }
}
layer {
  name: "relu4"
  type: "ReLU"
  bottom: "conv4"
  top: "conv4"
}
layer {
  name: "conv5"
  type: "Convolution"
  bottom: "conv4"
  top: "conv5"
  param {
    lr_mult: 1
    decay_mult: 1
  }
  param {
    lr_mult: 2
    decay_mult: 0
  }
  convolution_param {
    num_output: 256
    pad: 1
    kernel_size: 3
    group: 2
    weight_filler {
      type: "gaussian"
      std: 0.01
    }
    bias_filler {
      type: "constant"
      value: 0.1
    }
  }
}
layer {
  name: "relu5"
  type: "ReLU"
  bottom: "conv5"
  top: "conv5"
}
layer {
  name: "pool5"
  type: "Pooling"
  bottom: "conv5"
  top: "pool5"
  pooling_param {
    pool: MAX
    kernel_size: 3
    stride: 2
  }
}
layer {
  name: "fc6"
  type: "InnerProduct"
  bottom: "pool5"
  top: "fc6"
  param {
    lr_mult: 1
    decay_mult: 1
  }
  param {
    lr_mult: 2
    decay_mult: 0
  }
  inner_product_param {
    num_output: 4096
    weight_filler {
      type: "gaussian"
      std: 0.005
    }
    bias_filler {
      type: "constant"
      value: 0.1
    }
  }
}
layer {
  name: "relu6"
  type: "ReLU"
  bottom: "fc6"
  top: "fc6"
}
layer {
  name: "drop6"
  type: "Dropout"
  bottom: "fc6"
  top: "fc6"
  dropout_param {
    dropout_ratio: 0.5
  }
}
layer {
  name: "fc7"
  type: "InnerProduct"
  bottom: "fc6"
  top: "fc7"
  param {
    lr_mult: 1
    decay_mult: 1
  }
  param {
    lr_mult: 2
    decay_mult: 0
  }
  inner_product_param {
    num_output: 4096
    weight_filler {
      type: "gaussian"
      std: 0.005
    }
    bias_filler {
      type: "constant"
      value: 0.1
    }
  }
}
layer {
  name: "relu7"
  type: "ReLU"
  bottom: "fc7"
  top: "fc7"
}
layer {
  name: "drop7"
  type: "Dropout"
  bottom: "fc7"
  top: "fc7"
  dropout_param {
    dropout_ratio: 0.5
  }
}
layer {
  name: "fc8_plantvillage"
  type: "InnerProduct"
  bottom: "fc7"
  top: "fc8_plantvillage"
  param {
    lr_mult: 1
    decay_mult: 1
  }
  param {
    lr_mult: 2
    decay_mult: 0
  }
  inner_product_param {
    num_output: 38
    weight_filler {
      type: "gaussian"
      std: 0.01
    }
    bias_filler {
      type: "constant"
      value: 0
    }
  }
}
layer {
  name: "prob"
  type: "Softmax"
  bottom: "fc8_plantvillage"
  top: "prob"
  include {
    phase: TEST
  }
}
layer {
  name: "hdf5out"
  type: "HDF5Output"
  bottom: "prob"
  bottom: "label"
  include {
    phase: TEST
  }
  hdf5_output_param {
    file_name: "hdf5_dumps/iter_435.h5"
  }
}
layer {
  name: "loss"
  type: "SoftmaxWithLoss"
  bottom: "fc8_plantvillage"
  bottom: "label"
  top: "loss"
}
layer {
  name: "accuracy"
  type: "Accuracy"
  bottom: "fc8_plantvillage"
  bottom: "label"
  top: "accuracy"
  include {
    phase: TEST
  }
}
I0403 13:18:31.261348 10815 layer_factory.hpp:77] Creating layer data
I0403 13:18:31.262001 10815 net.cpp:91] Creating Layer data
I0403 13:18:31.262032 10815 net.cpp:399] data -> data
I0403 13:18:31.262082 10815 net.cpp:399] data -> label
I0403 13:18:31.262118 10815 data_transformer.cpp:25] Loading mean file from: /home/mohanty/data/final_dataset/lmdb/segmented-80-20/mean.binaryproto
I0403 13:18:31.271649 10818 db_lmdb.cpp:38] Opened lmdb /home/mohanty/data/final_dataset/lmdb/segmented-80-20/test_db
I0403 13:18:31.299634 10815 data_layer.cpp:41] output data size: 100,3,227,227
I0403 13:18:31.415573 10815 net.cpp:141] Setting up data
I0403 13:18:31.415668 10815 net.cpp:148] Top shape: 100 3 227 227 (15458700)
I0403 13:18:31.415691 10815 net.cpp:148] Top shape: 100 (100)
I0403 13:18:31.415705 10815 net.cpp:156] Memory required for data: 61835200
I0403 13:18:31.415734 10815 layer_factory.hpp:77] Creating layer label_data_1_split
I0403 13:18:31.415760 10815 net.cpp:91] Creating Layer label_data_1_split
I0403 13:18:31.415777 10815 net.cpp:425] label_data_1_split <- label
I0403 13:18:31.415809 10815 net.cpp:399] label_data_1_split -> label_data_1_split_0
I0403 13:18:31.415837 10815 net.cpp:399] label_data_1_split -> label_data_1_split_1
I0403 13:18:31.415856 10815 net.cpp:399] label_data_1_split -> label_data_1_split_2
I0403 13:18:31.415918 10815 net.cpp:141] Setting up label_data_1_split
I0403 13:18:31.415941 10815 net.cpp:148] Top shape: 100 (100)
I0403 13:18:31.415957 10815 net.cpp:148] Top shape: 100 (100)
I0403 13:18:31.415973 10815 net.cpp:148] Top shape: 100 (100)
I0403 13:18:31.415987 10815 net.cpp:156] Memory required for data: 61836400
I0403 13:18:31.416002 10815 layer_factory.hpp:77] Creating layer conv1
I0403 13:18:31.416033 10815 net.cpp:91] Creating Layer conv1
I0403 13:18:31.416051 10815 net.cpp:425] conv1 <- data
I0403 13:18:31.416070 10815 net.cpp:399] conv1 -> conv1
I0403 13:18:31.555616 10815 net.cpp:141] Setting up conv1
I0403 13:18:31.555696 10815 net.cpp:148] Top shape: 100 96 55 55 (29040000)
I0403 13:18:31.555714 10815 net.cpp:156] Memory required for data: 177996400
I0403 13:18:31.555745 10815 layer_factory.hpp:77] Creating layer relu1
I0403 13:18:31.555773 10815 net.cpp:91] Creating Layer relu1
I0403 13:18:31.555791 10815 net.cpp:425] relu1 <- conv1
I0403 13:18:31.555810 10815 net.cpp:386] relu1 -> conv1 (in-place)
I0403 13:18:31.556069 10815 net.cpp:141] Setting up relu1
I0403 13:18:31.556097 10815 net.cpp:148] Top shape: 100 96 55 55 (29040000)
I0403 13:18:31.556152 10815 net.cpp:156] Memory required for data: 294156400
I0403 13:18:31.556169 10815 layer_factory.hpp:77] Creating layer norm1
I0403 13:18:31.556195 10815 net.cpp:91] Creating Layer norm1
I0403 13:18:31.556213 10815 net.cpp:425] norm1 <- conv1
I0403 13:18:31.556231 10815 net.cpp:399] norm1 -> norm1
I0403 13:18:31.556562 10815 net.cpp:141] Setting up norm1
I0403 13:18:31.556603 10815 net.cpp:148] Top shape: 100 96 55 55 (29040000)
I0403 13:18:31.556619 10815 net.cpp:156] Memory required for data: 410316400
I0403 13:18:31.556633 10815 layer_factory.hpp:77] Creating layer pool1
I0403 13:18:31.556660 10815 net.cpp:91] Creating Layer pool1
I0403 13:18:31.556677 10815 net.cpp:425] pool1 <- norm1
I0403 13:18:31.556695 10815 net.cpp:399] pool1 -> pool1
I0403 13:18:31.556780 10815 net.cpp:141] Setting up pool1
I0403 13:18:31.556807 10815 net.cpp:148] Top shape: 100 96 27 27 (6998400)
I0403 13:18:31.556821 10815 net.cpp:156] Memory required for data: 438310000
I0403 13:18:31.556836 10815 layer_factory.hpp:77] Creating layer conv2
I0403 13:18:31.556860 10815 net.cpp:91] Creating Layer conv2
I0403 13:18:31.556876 10815 net.cpp:425] conv2 <- pool1
I0403 13:18:31.556895 10815 net.cpp:399] conv2 -> conv2
I0403 13:18:31.572098 10815 net.cpp:141] Setting up conv2
I0403 13:18:31.572151 10815 net.cpp:148] Top shape: 100 256 27 27 (18662400)
I0403 13:18:31.572168 10815 net.cpp:156] Memory required for data: 512959600
I0403 13:18:31.572192 10815 layer_factory.hpp:77] Creating layer relu2
I0403 13:18:31.572213 10815 net.cpp:91] Creating Layer relu2
I0403 13:18:31.572229 10815 net.cpp:425] relu2 <- conv2
I0403 13:18:31.572250 10815 net.cpp:386] relu2 -> conv2 (in-place)
I0403 13:18:31.572540 10815 net.cpp:141] Setting up relu2
I0403 13:18:31.572567 10815 net.cpp:148] Top shape: 100 256 27 27 (18662400)
I0403 13:18:31.572583 10815 net.cpp:156] Memory required for data: 587609200
I0403 13:18:31.572597 10815 layer_factory.hpp:77] Creating layer norm2
I0403 13:18:31.572621 10815 net.cpp:91] Creating Layer norm2
I0403 13:18:31.572639 10815 net.cpp:425] norm2 <- conv2
I0403 13:18:31.572659 10815 net.cpp:399] norm2 -> norm2
I0403 13:18:31.572861 10815 net.cpp:141] Setting up norm2
I0403 13:18:31.572888 10815 net.cpp:148] Top shape: 100 256 27 27 (18662400)
I0403 13:18:31.572903 10815 net.cpp:156] Memory required for data: 662258800
I0403 13:18:31.572918 10815 layer_factory.hpp:77] Creating layer pool2
I0403 13:18:31.572937 10815 net.cpp:91] Creating Layer pool2
I0403 13:18:31.572954 10815 net.cpp:425] pool2 <- norm2
I0403 13:18:31.572973 10815 net.cpp:399] pool2 -> pool2
I0403 13:18:31.573029 10815 net.cpp:141] Setting up pool2
I0403 13:18:31.573051 10815 net.cpp:148] Top shape: 100 256 13 13 (4326400)
I0403 13:18:31.573066 10815 net.cpp:156] Memory required for data: 679564400
I0403 13:18:31.573081 10815 layer_factory.hpp:77] Creating layer conv3
I0403 13:18:31.573107 10815 net.cpp:91] Creating Layer conv3
I0403 13:18:31.573125 10815 net.cpp:425] conv3 <- pool2
I0403 13:18:31.573143 10815 net.cpp:399] conv3 -> conv3
I0403 13:18:31.612030 10815 net.cpp:141] Setting up conv3
I0403 13:18:31.612102 10815 net.cpp:148] Top shape: 100 384 13 13 (6489600)
I0403 13:18:31.612119 10815 net.cpp:156] Memory required for data: 705522800
I0403 13:18:31.612146 10815 layer_factory.hpp:77] Creating layer relu3
I0403 13:18:31.612172 10815 net.cpp:91] Creating Layer relu3
I0403 13:18:31.612191 10815 net.cpp:425] relu3 <- conv3
I0403 13:18:31.612244 10815 net.cpp:386] relu3 -> conv3 (in-place)
I0403 13:18:31.612540 10815 net.cpp:141] Setting up relu3
I0403 13:18:31.612570 10815 net.cpp:148] Top shape: 100 384 13 13 (6489600)
I0403 13:18:31.612586 10815 net.cpp:156] Memory required for data: 731481200
I0403 13:18:31.612601 10815 layer_factory.hpp:77] Creating layer conv4
I0403 13:18:31.612627 10815 net.cpp:91] Creating Layer conv4
I0403 13:18:31.612644 10815 net.cpp:425] conv4 <- conv3
I0403 13:18:31.612666 10815 net.cpp:399] conv4 -> conv4
I0403 13:18:31.643105 10815 net.cpp:141] Setting up conv4
I0403 13:18:31.643151 10815 net.cpp:148] Top shape: 100 384 13 13 (6489600)
I0403 13:18:31.643205 10815 net.cpp:156] Memory required for data: 757439600
I0403 13:18:31.643229 10815 layer_factory.hpp:77] Creating layer relu4
I0403 13:18:31.643252 10815 net.cpp:91] Creating Layer relu4
I0403 13:18:31.643270 10815 net.cpp:425] relu4 <- conv4
I0403 13:18:31.643291 10815 net.cpp:386] relu4 -> conv4 (in-place)
I0403 13:18:31.643579 10815 net.cpp:141] Setting up relu4
I0403 13:18:31.643607 10815 net.cpp:148] Top shape: 100 384 13 13 (6489600)
I0403 13:18:31.643625 10815 net.cpp:156] Memory required for data: 783398000
I0403 13:18:31.643641 10815 layer_factory.hpp:77] Creating layer conv5
I0403 13:18:31.643705 10815 net.cpp:91] Creating Layer conv5
I0403 13:18:31.643725 10815 net.cpp:425] conv5 <- conv4
I0403 13:18:31.643746 10815 net.cpp:399] conv5 -> conv5
I0403 13:18:31.664769 10815 net.cpp:141] Setting up conv5
I0403 13:18:31.664824 10815 net.cpp:148] Top shape: 100 256 13 13 (4326400)
I0403 13:18:31.664841 10815 net.cpp:156] Memory required for data: 800703600
I0403 13:18:31.664865 10815 layer_factory.hpp:77] Creating layer relu5
I0403 13:18:31.664887 10815 net.cpp:91] Creating Layer relu5
I0403 13:18:31.664903 10815 net.cpp:425] relu5 <- conv5
I0403 13:18:31.664924 10815 net.cpp:386] relu5 -> conv5 (in-place)
I0403 13:18:31.665202 10815 net.cpp:141] Setting up relu5
I0403 13:18:31.665230 10815 net.cpp:148] Top shape: 100 256 13 13 (4326400)
I0403 13:18:31.665243 10815 net.cpp:156] Memory required for data: 818009200
I0403 13:18:31.665258 10815 layer_factory.hpp:77] Creating layer pool5
I0403 13:18:31.665282 10815 net.cpp:91] Creating Layer pool5
I0403 13:18:31.665299 10815 net.cpp:425] pool5 <- conv5
I0403 13:18:31.665318 10815 net.cpp:399] pool5 -> pool5
I0403 13:18:31.665377 10815 net.cpp:141] Setting up pool5
I0403 13:18:31.665401 10815 net.cpp:148] Top shape: 100 256 6 6 (921600)
I0403 13:18:31.665416 10815 net.cpp:156] Memory required for data: 821695600
I0403 13:18:31.665431 10815 layer_factory.hpp:77] Creating layer fc6
I0403 13:18:31.665458 10815 net.cpp:91] Creating Layer fc6
I0403 13:18:31.665475 10815 net.cpp:425] fc6 <- pool5
I0403 13:18:31.665493 10815 net.cpp:399] fc6 -> fc6
I0403 13:18:33.226881 10815 net.cpp:141] Setting up fc6
I0403 13:18:33.226968 10815 net.cpp:148] Top shape: 100 4096 (409600)
I0403 13:18:33.226984 10815 net.cpp:156] Memory required for data: 823334000
I0403 13:18:33.227005 10815 layer_factory.hpp:77] Creating layer relu6
I0403 13:18:33.227026 10815 net.cpp:91] Creating Layer relu6
I0403 13:18:33.227043 10815 net.cpp:425] relu6 <- fc6
I0403 13:18:33.227066 10815 net.cpp:386] relu6 -> fc6 (in-place)
I0403 13:18:33.227316 10815 net.cpp:141] Setting up relu6
I0403 13:18:33.227341 10815 net.cpp:148] Top shape: 100 4096 (409600)
I0403 13:18:33.227356 10815 net.cpp:156] Memory required for data: 824972400
I0403 13:18:33.227370 10815 layer_factory.hpp:77] Creating layer drop6
I0403 13:18:33.227388 10815 net.cpp:91] Creating Layer drop6
I0403 13:18:33.227403 10815 net.cpp:425] drop6 <- fc6
I0403 13:18:33.227424 10815 net.cpp:386] drop6 -> fc6 (in-place)
I0403 13:18:33.227475 10815 net.cpp:141] Setting up drop6
I0403 13:18:33.227500 10815 net.cpp:148] Top shape: 100 4096 (409600)
I0403 13:18:33.227516 10815 net.cpp:156] Memory required for data: 826610800
I0403 13:18:33.227530 10815 layer_factory.hpp:77] Creating layer fc7
I0403 13:18:33.227555 10815 net.cpp:91] Creating Layer fc7
I0403 13:18:33.227571 10815 net.cpp:425] fc7 <- fc6
I0403 13:18:33.227591 10815 net.cpp:399] fc7 -> fc7
I0403 13:18:33.912773 10815 net.cpp:141] Setting up fc7
I0403 13:18:33.912850 10815 net.cpp:148] Top shape: 100 4096 (409600)
I0403 13:18:33.912868 10815 net.cpp:156] Memory required for data: 828249200
I0403 13:18:33.912889 10815 layer_factory.hpp:77] Creating layer relu7
I0403 13:18:33.912911 10815 net.cpp:91] Creating Layer relu7
I0403 13:18:33.912928 10815 net.cpp:425] relu7 <- fc7
I0403 13:18:33.912950 10815 net.cpp:386] relu7 -> fc7 (in-place)
I0403 13:18:33.913380 10815 net.cpp:141] Setting up relu7
I0403 13:18:33.913406 10815 net.cpp:148] Top shape: 100 4096 (409600)
I0403 13:18:33.913463 10815 net.cpp:156] Memory required for data: 829887600
I0403 13:18:33.913480 10815 layer_factory.hpp:77] Creating layer drop7
I0403 13:18:33.913498 10815 net.cpp:91] Creating Layer drop7
I0403 13:18:33.913513 10815 net.cpp:425] drop7 <- fc7
I0403 13:18:33.913532 10815 net.cpp:386] drop7 -> fc7 (in-place)
I0403 13:18:33.913583 10815 net.cpp:141] Setting up drop7
I0403 13:18:33.913609 10815 net.cpp:148] Top shape: 100 4096 (409600)
I0403 13:18:33.913625 10815 net.cpp:156] Memory required for data: 831526000
I0403 13:18:33.913640 10815 layer_factory.hpp:77] Creating layer fc8_plantvillage
I0403 13:18:33.913657 10815 net.cpp:91] Creating Layer fc8_plantvillage
I0403 13:18:33.913673 10815 net.cpp:425] fc8_plantvillage <- fc7
I0403 13:18:33.913693 10815 net.cpp:399] fc8_plantvillage -> fc8_plantvillage
I0403 13:18:33.920405 10815 net.cpp:141] Setting up fc8_plantvillage
I0403 13:18:33.920433 10815 net.cpp:148] Top shape: 100 38 (3800)
I0403 13:18:33.920449 10815 net.cpp:156] Memory required for data: 831541200
I0403 13:18:33.920466 10815 layer_factory.hpp:77] Creating layer fc8_plantvillage_fc8_plantvillage_0_split
I0403 13:18:33.920485 10815 net.cpp:91] Creating Layer fc8_plantvillage_fc8_plantvillage_0_split
I0403 13:18:33.920500 10815 net.cpp:425] fc8_plantvillage_fc8_plantvillage_0_split <- fc8_plantvillage
I0403 13:18:33.920518 10815 net.cpp:399] fc8_plantvillage_fc8_plantvillage_0_split -> fc8_plantvillage_fc8_plantvillage_0_split_0
I0403 13:18:33.920544 10815 net.cpp:399] fc8_plantvillage_fc8_plantvillage_0_split -> fc8_plantvillage_fc8_plantvillage_0_split_1
I0403 13:18:33.920565 10815 net.cpp:399] fc8_plantvillage_fc8_plantvillage_0_split -> fc8_plantvillage_fc8_plantvillage_0_split_2
I0403 13:18:33.920644 10815 net.cpp:141] Setting up fc8_plantvillage_fc8_plantvillage_0_split
I0403 13:18:33.920666 10815 net.cpp:148] Top shape: 100 38 (3800)
I0403 13:18:33.920683 10815 net.cpp:148] Top shape: 100 38 (3800)
I0403 13:18:33.920698 10815 net.cpp:148] Top shape: 100 38 (3800)
I0403 13:18:33.920711 10815 net.cpp:156] Memory required for data: 831586800
I0403 13:18:33.920725 10815 layer_factory.hpp:77] Creating layer prob
I0403 13:18:33.920744 10815 net.cpp:91] Creating Layer prob
I0403 13:18:33.920759 10815 net.cpp:425] prob <- fc8_plantvillage_fc8_plantvillage_0_split_0
I0403 13:18:33.920778 10815 net.cpp:399] prob -> prob
I0403 13:18:33.921005 10815 net.cpp:141] Setting up prob
I0403 13:18:33.921030 10815 net.cpp:148] Top shape: 100 38 (3800)
I0403 13:18:33.921046 10815 net.cpp:156] Memory required for data: 831602000
I0403 13:18:33.921059 10815 layer_factory.hpp:77] Creating layer hdf5out
I0403 13:18:33.921078 10815 net.cpp:91] Creating Layer hdf5out
I0403 13:18:33.921093 10815 net.cpp:425] hdf5out <- prob
I0403 13:18:33.921108 10815 net.cpp:425] hdf5out <- label_data_1_split_0
I0403 13:18:33.933547 10815 net.cpp:141] Setting up hdf5out
…
