…
I0403 13:19:19.862493 10860 net.cpp:313] The NetState phase (1) differed from the phase (0) specified by a rule in layer data
I0403 13:19:19.862813 10860 net.cpp:49] Initializing net from parameters: 
state {
  phase: TEST
}
layer {
  name: "data"
  type: "Data"
  top: "data"
  top: "label"
  include {
    phase: TEST
  }
  transform_param {
    crop_size: 227
    mean_file: "/home/mohanty/data/final_dataset/lmdb/segmented-80-20/mean.binaryproto"
  }
  data_param {
    source: "/home/mohanty/data/final_dataset/lmdb/segmented-80-20/test_db"
    batch_size: 100
    backend: LMDB
  }
}
layer {
  name: "conv1"
  type: "Convolution"
  bottom: "data"
  top: "conv1"
  param {
    lr_mult: 1
    decay_mult: 1
  }
  param {
    lr_mult: 2
    decay_mult: 0
  }
  convolution_param {
    num_output: 96
    kernel_size: 11
    stride: 4
    weight_filler {
      type: "gaussian"
      std: 0.01
    }
    bias_filler {
      type: "constant"
      value: 0
    }
  }
}
layer {
  name: "relu1"
  type: "ReLU"
  bottom: "conv1"
  top: "conv1"
}
layer {
  name: "norm1"
  type: "LRN"
  bottom: "conv1"
  top: "norm1"
  lrn_param {
    local_size: 5
    alpha: 0.0001
    beta: 0.75
  }
}
layer {
  name: "pool1"
  type: "Pooling"
  bottom: "norm1"
  top: "pool1"
  pooling_param {
    pool: MAX
    kernel_size: 3
    stride: 2
  }
}
layer {
  name: "conv2"
  type: "Convolution"
  bottom: "pool1"
  top: "conv2"
  param {
    lr_mult: 1
    decay_mult: 1
  }
  param {
    lr_mult: 2
    decay_mult: 0
  }
  convolution_param {
    num_output: 256
    pad: 2
    kernel_size: 5
    group: 2
    weight_filler {
      type: "gaussian"
      std: 0.01
    }
    bias_filler {
      type: "constant"
      value: 0.1
    }
  }
}
layer {
  name: "relu2"
  type: "ReLU"
  bottom: "conv2"
  top: "conv2"
}
layer {
  name: "norm2"
  type: "LRN"
  bottom: "conv2"
  top: "norm2"
  lrn_param {
    local_size: 5
    alpha: 0.0001
    beta: 0.75
  }
}
layer {
  name: "pool2"
  type: "Pooling"
  bottom: "norm2"
  top: "pool2"
  pooling_param {
    pool: MAX
    kernel_size: 3
    stride: 2
  }
}
layer {
  name: "conv3"
  type: "Convolution"
  bottom: "pool2"
  top: "conv3"
  param {
    lr_mult: 1
    decay_mult: 1
  }
  param {
    lr_mult: 2
    decay_mult: 0
  }
  convolution_param {
    num_output: 384
    pad: 1
    kernel_size: 3
    weight_filler {
      type: "gaussian"
      std: 0.01
    }
    bias_filler {
      type: "constant"
      value: 0
    }
  }
}
layer {
  name: "relu3"
  type: "ReLU"
  bottom: "conv3"
  top: "conv3"
}
layer {
  name: "conv4"
  type: "Convolution"
  bottom: "conv3"
  top: "conv4"
  param {
    lr_mult: 1
    decay_mult: 1
  }
  param {
    lr_mult: 2
    decay_mult: 0
  }
  convolution_param {
    num_output: 384
    pad: 1
    kernel_size: 3
    group: 2
    weight_filler {
      type: "gaussian"
      std: 0.01
    }
    bias_filler {
      type: "constant"
      value: 0.1
    }
  }
}
layer {
  name: "relu4"
  type: "ReLU"
  bottom: "conv4"
  top: "conv4"
}
layer {
  name: "conv5"
  type: "Convolution"
  bottom: "conv4"
  top: "conv5"
  param {
    lr_mult: 1
    decay_mult: 1
  }
  param {
    lr_mult: 2
    decay_mult: 0
  }
  convolution_param {
    num_output: 256
    pad: 1
    kernel_size: 3
    group: 2
    weight_filler {
      type: "gaussian"
      std: 0.01
    }
    bias_filler {
      type: "constant"
      value: 0.1
    }
  }
}
layer {
  name: "relu5"
  type: "ReLU"
  bottom: "conv5"
  top: "conv5"
}
layer {
  name: "pool5"
  type: "Pooling"
  bottom: "conv5"
  top: "pool5"
  pooling_param {
    pool: MAX
    kernel_size: 3
    stride: 2
  }
}
layer {
  name: "fc6"
  type: "InnerProduct"
  bottom: "pool5"
  top: "fc6"
  param {
    lr_mult: 1
    decay_mult: 1
  }
  param {
    lr_mult: 2
    decay_mult: 0
  }
  inner_product_param {
    num_output: 4096
    weight_filler {
      type: "gaussian"
      std: 0.005
    }
    bias_filler {
      type: "constant"
      value: 0.1
    }
  }
}
layer {
  name: "relu6"
  type: "ReLU"
  bottom: "fc6"
  top: "fc6"
}
layer {
  name: "drop6"
  type: "Dropout"
  bottom: "fc6"
  top: "fc6"
  dropout_param {
    dropout_ratio: 0.5
  }
}
layer {
  name: "fc7"
  type: "InnerProduct"
  bottom: "fc6"
  top: "fc7"
  param {
    lr_mult: 1
    decay_mult: 1
  }
  param {
    lr_mult: 2
    decay_mult: 0
  }
  inner_product_param {
    num_output: 4096
    weight_filler {
      type: "gaussian"
      std: 0.005
    }
    bias_filler {
      type: "constant"
      value: 0.1
    }
  }
}
layer {
  name: "relu7"
  type: "ReLU"
  bottom: "fc7"
  top: "fc7"
}
layer {
  name: "drop7"
  type: "Dropout"
  bottom: "fc7"
  top: "fc7"
  dropout_param {
    dropout_ratio: 0.5
  }
}
layer {
  name: "fc8_plantvillage"
  type: "InnerProduct"
  bottom: "fc7"
  top: "fc8_plantvillage"
  param {
    lr_mult: 1
    decay_mult: 1
  }
  param {
    lr_mult: 2
    decay_mult: 0
  }
  inner_product_param {
    num_output: 38
    weight_filler {
      type: "gaussian"
      std: 0.01
    }
    bias_filler {
      type: "constant"
      value: 0
    }
  }
}
layer {
  name: "prob"
  type: "Softmax"
  bottom: "fc8_plantvillage"
  top: "prob"
  include {
    phase: TEST
  }
}
layer {
  name: "hdf5out"
  type: "HDF5Output"
  bottom: "prob"
  bottom: "label"
  include {
    phase: TEST
  }
  hdf5_output_param {
    file_name: "hdf5_dumps/iter_1305.h5"
  }
}
layer {
  name: "loss"
  type: "SoftmaxWithLoss"
  bottom: "fc8_plantvillage"
  bottom: "label"
  top: "loss"
}
layer {
  name: "accuracy"
  type: "Accuracy"
  bottom: "fc8_plantvillage"
  bottom: "label"
  top: "accuracy"
  include {
    phase: TEST
  }
}
I0403 13:19:19.863385 10860 layer_factory.hpp:77] Creating layer data
I0403 13:19:19.864043 10860 net.cpp:91] Creating Layer data
I0403 13:19:19.864076 10860 net.cpp:399] data -> data
I0403 13:19:19.864127 10860 net.cpp:399] data -> label
I0403 13:19:19.864166 10860 data_transformer.cpp:25] Loading mean file from: /home/mohanty/data/final_dataset/lmdb/segmented-80-20/mean.binaryproto
I0403 13:19:19.867308 10865 db_lmdb.cpp:38] Opened lmdb /home/mohanty/data/final_dataset/lmdb/segmented-80-20/test_db
I0403 13:19:19.878289 10860 data_layer.cpp:41] output data size: 100,3,227,227
I0403 13:19:19.993960 10860 net.cpp:141] Setting up data
I0403 13:19:19.994052 10860 net.cpp:148] Top shape: 100 3 227 227 (15458700)
I0403 13:19:19.994076 10860 net.cpp:148] Top shape: 100 (100)
I0403 13:19:19.994091 10860 net.cpp:156] Memory required for data: 61835200
I0403 13:19:19.994119 10860 layer_factory.hpp:77] Creating layer label_data_1_split
I0403 13:19:19.994144 10860 net.cpp:91] Creating Layer label_data_1_split
I0403 13:19:19.994163 10860 net.cpp:425] label_data_1_split <- label
I0403 13:19:19.994196 10860 net.cpp:399] label_data_1_split -> label_data_1_split_0
I0403 13:19:19.994223 10860 net.cpp:399] label_data_1_split -> label_data_1_split_1
I0403 13:19:19.994245 10860 net.cpp:399] label_data_1_split -> label_data_1_split_2
I0403 13:19:19.994308 10860 net.cpp:141] Setting up label_data_1_split
I0403 13:19:19.994331 10860 net.cpp:148] Top shape: 100 (100)
I0403 13:19:19.994349 10860 net.cpp:148] Top shape: 100 (100)
I0403 13:19:19.994366 10860 net.cpp:148] Top shape: 100 (100)
I0403 13:19:19.994380 10860 net.cpp:156] Memory required for data: 61836400
I0403 13:19:19.994395 10860 layer_factory.hpp:77] Creating layer conv1
I0403 13:19:19.994426 10860 net.cpp:91] Creating Layer conv1
I0403 13:19:19.994446 10860 net.cpp:425] conv1 <- data
I0403 13:19:19.994464 10860 net.cpp:399] conv1 -> conv1
I0403 13:19:20.137920 10860 net.cpp:141] Setting up conv1
I0403 13:19:20.137998 10860 net.cpp:148] Top shape: 100 96 55 55 (29040000)
I0403 13:19:20.138016 10860 net.cpp:156] Memory required for data: 177996400
I0403 13:19:20.138077 10860 layer_factory.hpp:77] Creating layer relu1
I0403 13:19:20.138106 10860 net.cpp:91] Creating Layer relu1
I0403 13:19:20.138125 10860 net.cpp:425] relu1 <- conv1
I0403 13:19:20.138145 10860 net.cpp:386] relu1 -> conv1 (in-place)
I0403 13:19:20.138408 10860 net.cpp:141] Setting up relu1
I0403 13:19:20.138434 10860 net.cpp:148] Top shape: 100 96 55 55 (29040000)
I0403 13:19:20.138483 10860 net.cpp:156] Memory required for data: 294156400
I0403 13:19:20.138499 10860 layer_factory.hpp:77] Creating layer norm1
I0403 13:19:20.138525 10860 net.cpp:91] Creating Layer norm1
I0403 13:19:20.138548 10860 net.cpp:425] norm1 <- conv1
I0403 13:19:20.138567 10860 net.cpp:399] norm1 -> norm1
I0403 13:19:20.138864 10860 net.cpp:141] Setting up norm1
I0403 13:19:20.138890 10860 net.cpp:148] Top shape: 100 96 55 55 (29040000)
I0403 13:19:20.138906 10860 net.cpp:156] Memory required for data: 410316400
I0403 13:19:20.138921 10860 layer_factory.hpp:77] Creating layer pool1
I0403 13:19:20.138943 10860 net.cpp:91] Creating Layer pool1
I0403 13:19:20.138960 10860 net.cpp:425] pool1 <- norm1
I0403 13:19:20.138978 10860 net.cpp:399] pool1 -> pool1
I0403 13:19:20.139044 10860 net.cpp:141] Setting up pool1
I0403 13:19:20.139067 10860 net.cpp:148] Top shape: 100 96 27 27 (6998400)
I0403 13:19:20.139082 10860 net.cpp:156] Memory required for data: 438310000
I0403 13:19:20.139096 10860 layer_factory.hpp:77] Creating layer conv2
I0403 13:19:20.139119 10860 net.cpp:91] Creating Layer conv2
I0403 13:19:20.139135 10860 net.cpp:425] conv2 <- pool1
I0403 13:19:20.139153 10860 net.cpp:399] conv2 -> conv2
I0403 13:19:20.154026 10860 net.cpp:141] Setting up conv2
I0403 13:19:20.154070 10860 net.cpp:148] Top shape: 100 256 27 27 (18662400)
I0403 13:19:20.154088 10860 net.cpp:156] Memory required for data: 512959600
I0403 13:19:20.154110 10860 layer_factory.hpp:77] Creating layer relu2
I0403 13:19:20.154131 10860 net.cpp:91] Creating Layer relu2
I0403 13:19:20.154147 10860 net.cpp:425] relu2 <- conv2
I0403 13:19:20.154165 10860 net.cpp:386] relu2 -> conv2 (in-place)
I0403 13:19:20.154460 10860 net.cpp:141] Setting up relu2
I0403 13:19:20.154487 10860 net.cpp:148] Top shape: 100 256 27 27 (18662400)
I0403 13:19:20.154503 10860 net.cpp:156] Memory required for data: 587609200
I0403 13:19:20.154518 10860 layer_factory.hpp:77] Creating layer norm2
I0403 13:19:20.154551 10860 net.cpp:91] Creating Layer norm2
I0403 13:19:20.154572 10860 net.cpp:425] norm2 <- conv2
I0403 13:19:20.154590 10860 net.cpp:399] norm2 -> norm2
I0403 13:19:20.154775 10860 net.cpp:141] Setting up norm2
I0403 13:19:20.154801 10860 net.cpp:148] Top shape: 100 256 27 27 (18662400)
I0403 13:19:20.154816 10860 net.cpp:156] Memory required for data: 662258800
I0403 13:19:20.154832 10860 layer_factory.hpp:77] Creating layer pool2
I0403 13:19:20.154850 10860 net.cpp:91] Creating Layer pool2
I0403 13:19:20.154866 10860 net.cpp:425] pool2 <- norm2
I0403 13:19:20.154884 10860 net.cpp:399] pool2 -> pool2
I0403 13:19:20.154934 10860 net.cpp:141] Setting up pool2
I0403 13:19:20.154958 10860 net.cpp:148] Top shape: 100 256 13 13 (4326400)
I0403 13:19:20.154973 10860 net.cpp:156] Memory required for data: 679564400
I0403 13:19:20.154988 10860 layer_factory.hpp:77] Creating layer conv3
I0403 13:19:20.155009 10860 net.cpp:91] Creating Layer conv3
I0403 13:19:20.155025 10860 net.cpp:425] conv3 <- pool2
I0403 13:19:20.155045 10860 net.cpp:399] conv3 -> conv3
I0403 13:19:20.193384 10860 net.cpp:141] Setting up conv3
I0403 13:19:20.193455 10860 net.cpp:148] Top shape: 100 384 13 13 (6489600)
I0403 13:19:20.193472 10860 net.cpp:156] Memory required for data: 705522800
I0403 13:19:20.193498 10860 layer_factory.hpp:77] Creating layer relu3
I0403 13:19:20.193522 10860 net.cpp:91] Creating Layer relu3
I0403 13:19:20.193545 10860 net.cpp:425] relu3 <- conv3
I0403 13:19:20.193567 10860 net.cpp:386] relu3 -> conv3 (in-place)
I0403 13:19:20.193838 10860 net.cpp:141] Setting up relu3
I0403 13:19:20.193866 10860 net.cpp:148] Top shape: 100 384 13 13 (6489600)
I0403 13:19:20.193881 10860 net.cpp:156] Memory required for data: 731481200
I0403 13:19:20.193897 10860 layer_factory.hpp:77] Creating layer conv4
I0403 13:19:20.193922 10860 net.cpp:91] Creating Layer conv4
I0403 13:19:20.193939 10860 net.cpp:425] conv4 <- conv3
I0403 13:19:20.193958 10860 net.cpp:399] conv4 -> conv4
I0403 13:19:20.223889 10860 net.cpp:141] Setting up conv4
I0403 13:19:20.223959 10860 net.cpp:148] Top shape: 100 384 13 13 (6489600)
I0403 13:19:20.224011 10860 net.cpp:156] Memory required for data: 757439600
I0403 13:19:20.224035 10860 layer_factory.hpp:77] Creating layer relu4
I0403 13:19:20.224062 10860 net.cpp:91] Creating Layer relu4
I0403 13:19:20.224081 10860 net.cpp:425] relu4 <- conv4
I0403 13:19:20.224100 10860 net.cpp:386] relu4 -> conv4 (in-place)
I0403 13:19:20.224385 10860 net.cpp:141] Setting up relu4
I0403 13:19:20.224412 10860 net.cpp:148] Top shape: 100 384 13 13 (6489600)
I0403 13:19:20.224428 10860 net.cpp:156] Memory required for data: 783398000
I0403 13:19:20.224443 10860 layer_factory.hpp:77] Creating layer conv5
I0403 13:19:20.224468 10860 net.cpp:91] Creating Layer conv5
I0403 13:19:20.224486 10860 net.cpp:425] conv5 <- conv4
I0403 13:19:20.224509 10860 net.cpp:399] conv5 -> conv5
I0403 13:19:20.245720 10860 net.cpp:141] Setting up conv5
I0403 13:19:20.245779 10860 net.cpp:148] Top shape: 100 256 13 13 (4326400)
I0403 13:19:20.245796 10860 net.cpp:156] Memory required for data: 800703600
I0403 13:19:20.245822 10860 layer_factory.hpp:77] Creating layer relu5
I0403 13:19:20.245847 10860 net.cpp:91] Creating Layer relu5
I0403 13:19:20.245867 10860 net.cpp:425] relu5 <- conv5
I0403 13:19:20.245885 10860 net.cpp:386] relu5 -> conv5 (in-place)
I0403 13:19:20.246165 10860 net.cpp:141] Setting up relu5
I0403 13:19:20.246193 10860 net.cpp:148] Top shape: 100 256 13 13 (4326400)
I0403 13:19:20.246209 10860 net.cpp:156] Memory required for data: 818009200
I0403 13:19:20.246225 10860 layer_factory.hpp:77] Creating layer pool5
I0403 13:19:20.246250 10860 net.cpp:91] Creating Layer pool5
I0403 13:19:20.246268 10860 net.cpp:425] pool5 <- conv5
I0403 13:19:20.246289 10860 net.cpp:399] pool5 -> pool5
I0403 13:19:20.246352 10860 net.cpp:141] Setting up pool5
I0403 13:19:20.246376 10860 net.cpp:148] Top shape: 100 256 6 6 (921600)
I0403 13:19:20.246392 10860 net.cpp:156] Memory required for data: 821695600
I0403 13:19:20.246407 10860 layer_factory.hpp:77] Creating layer fc6
I0403 13:19:20.246435 10860 net.cpp:91] Creating Layer fc6
I0403 13:19:20.246454 10860 net.cpp:425] fc6 <- pool5
I0403 13:19:20.246474 10860 net.cpp:399] fc6 -> fc6
I0403 13:19:21.802686 10860 net.cpp:141] Setting up fc6
I0403 13:19:21.802762 10860 net.cpp:148] Top shape: 100 4096 (409600)
I0403 13:19:21.802779 10860 net.cpp:156] Memory required for data: 823334000
I0403 13:19:21.802801 10860 layer_factory.hpp:77] Creating layer relu6
I0403 13:19:21.802825 10860 net.cpp:91] Creating Layer relu6
I0403 13:19:21.802845 10860 net.cpp:425] relu6 <- fc6
I0403 13:19:21.802865 10860 net.cpp:386] relu6 -> fc6 (in-place)
I0403 13:19:21.803095 10860 net.cpp:141] Setting up relu6
I0403 13:19:21.803122 10860 net.cpp:148] Top shape: 100 4096 (409600)
I0403 13:19:21.803136 10860 net.cpp:156] Memory required for data: 824972400
I0403 13:19:21.803151 10860 layer_factory.hpp:77] Creating layer drop6
I0403 13:19:21.803172 10860 net.cpp:91] Creating Layer drop6
I0403 13:19:21.803189 10860 net.cpp:425] drop6 <- fc6
I0403 13:19:21.803206 10860 net.cpp:386] drop6 -> fc6 (in-place)
I0403 13:19:21.803259 10860 net.cpp:141] Setting up drop6
I0403 13:19:21.803282 10860 net.cpp:148] Top shape: 100 4096 (409600)
I0403 13:19:21.803297 10860 net.cpp:156] Memory required for data: 826610800
I0403 13:19:21.803313 10860 layer_factory.hpp:77] Creating layer fc7
I0403 13:19:21.803335 10860 net.cpp:91] Creating Layer fc7
I0403 13:19:21.803362 10860 net.cpp:425] fc7 <- fc6
I0403 13:19:21.803380 10860 net.cpp:399] fc7 -> fc7
I0403 13:19:22.490150 10860 net.cpp:141] Setting up fc7
I0403 13:19:22.490231 10860 net.cpp:148] Top shape: 100 4096 (409600)
I0403 13:19:22.490248 10860 net.cpp:156] Memory required for data: 828249200
I0403 13:19:22.490269 10860 layer_factory.hpp:77] Creating layer relu7
I0403 13:19:22.490290 10860 net.cpp:91] Creating Layer relu7
I0403 13:19:22.490309 10860 net.cpp:425] relu7 <- fc7
I0403 13:19:22.490327 10860 net.cpp:386] relu7 -> fc7 (in-place)
I0403 13:19:22.490731 10860 net.cpp:141] Setting up relu7
I0403 13:19:22.490758 10860 net.cpp:148] Top shape: 100 4096 (409600)
I0403 13:19:22.490814 10860 net.cpp:156] Memory required for data: 829887600
I0403 13:19:22.490830 10860 layer_factory.hpp:77] Creating layer drop7
I0403 13:19:22.490849 10860 net.cpp:91] Creating Layer drop7
I0403 13:19:22.490864 10860 net.cpp:425] drop7 <- fc7
I0403 13:19:22.490880 10860 net.cpp:386] drop7 -> fc7 (in-place)
I0403 13:19:22.490926 10860 net.cpp:141] Setting up drop7
I0403 13:19:22.490948 10860 net.cpp:148] Top shape: 100 4096 (409600)
I0403 13:19:22.490962 10860 net.cpp:156] Memory required for data: 831526000
I0403 13:19:22.490977 10860 layer_factory.hpp:77] Creating layer fc8_plantvillage
I0403 13:19:22.490998 10860 net.cpp:91] Creating Layer fc8_plantvillage
I0403 13:19:22.491015 10860 net.cpp:425] fc8_plantvillage <- fc7
I0403 13:19:22.491032 10860 net.cpp:399] fc8_plantvillage -> fc8_plantvillage
I0403 13:19:22.497791 10860 net.cpp:141] Setting up fc8_plantvillage
I0403 13:19:22.497819 10860 net.cpp:148] Top shape: 100 38 (3800)
I0403 13:19:22.497834 10860 net.cpp:156] Memory required for data: 831541200
I0403 13:19:22.497853 10860 layer_factory.hpp:77] Creating layer fc8_plantvillage_fc8_plantvillage_0_split
I0403 13:19:22.497872 10860 net.cpp:91] Creating Layer fc8_plantvillage_fc8_plantvillage_0_split
I0403 13:19:22.497889 10860 net.cpp:425] fc8_plantvillage_fc8_plantvillage_0_split <- fc8_plantvillage
I0403 13:19:22.497905 10860 net.cpp:399] fc8_plantvillage_fc8_plantvillage_0_split -> fc8_plantvillage_fc8_plantvillage_0_split_0
I0403 13:19:22.497927 10860 net.cpp:399] fc8_plantvillage_fc8_plantvillage_0_split -> fc8_plantvillage_fc8_plantvillage_0_split_1
I0403 13:19:22.497948 10860 net.cpp:399] fc8_plantvillage_fc8_plantvillage_0_split -> fc8_plantvillage_fc8_plantvillage_0_split_2
I0403 13:19:22.498028 10860 net.cpp:141] Setting up fc8_plantvillage_fc8_plantvillage_0_split
I0403 13:19:22.498051 10860 net.cpp:148] Top shape: 100 38 (3800)
I0403 13:19:22.498069 10860 net.cpp:148] Top shape: 100 38 (3800)
I0403 13:19:22.498083 10860 net.cpp:148] Top shape: 100 38 (3800)
I0403 13:19:22.498096 10860 net.cpp:156] Memory required for data: 831586800
I0403 13:19:22.498111 10860 layer_factory.hpp:77] Creating layer prob
I0403 13:19:22.498131 10860 net.cpp:91] Creating Layer prob
I0403 13:19:22.498148 10860 net.cpp:425] prob <- fc8_plantvillage_fc8_plantvillage_0_split_0
I0403 13:19:22.498167 10860 net.cpp:399] prob -> prob
I0403 13:19:22.498391 10860 net.cpp:141] Setting up prob
I0403 13:19:22.498416 10860 net.cpp:148] Top shape: 100 38 (3800)
I0403 13:19:22.498431 10860 net.cpp:156] Memory required for data: 831602000
I0403 13:19:22.498445 10860 layer_factory.hpp:77] Creating layer hdf5out
I0403 13:19:22.498466 10860 net.cpp:91] Creating Layer hdf5out
I0403 13:19:22.498483 10860 net.cpp:425] hdf5out <- prob
I0403 13:19:22.498499 10860 net.cpp:425] hdf5out <- label_data_1_split_0
I0403 13:19:22.500687 10860 net.cpp:141] Setting up hdf5out
…
