…
I0403 13:23:18.553005 11127 net.cpp:313] The NetState phase (1) differed from the phase (0) specified by a rule in layer data
I0403 13:23:18.553294 11127 net.cpp:49] Initializing net from parameters: 
state {
  phase: TEST
}
layer {
  name: "data"
  type: "Data"
  top: "data"
  top: "label"
  include {
    phase: TEST
  }
  transform_param {
    crop_size: 227
    mean_file: "/home/mohanty/data/final_dataset/lmdb/segmented-80-20/mean.binaryproto"
  }
  data_param {
    source: "/home/mohanty/data/final_dataset/lmdb/segmented-80-20/test_db"
    batch_size: 100
    backend: LMDB
  }
}
layer {
  name: "conv1"
  type: "Convolution"
  bottom: "data"
  top: "conv1"
  param {
    lr_mult: 1
    decay_mult: 1
  }
  param {
    lr_mult: 2
    decay_mult: 0
  }
  convolution_param {
    num_output: 96
    kernel_size: 11
    stride: 4
    weight_filler {
      type: "gaussian"
      std: 0.01
    }
    bias_filler {
      type: "constant"
      value: 0
    }
  }
}
layer {
  name: "relu1"
  type: "ReLU"
  bottom: "conv1"
  top: "conv1"
}
layer {
  name: "norm1"
  type: "LRN"
  bottom: "conv1"
  top: "norm1"
  lrn_param {
    local_size: 5
    alpha: 0.0001
    beta: 0.75
  }
}
layer {
  name: "pool1"
  type: "Pooling"
  bottom: "norm1"
  top: "pool1"
  pooling_param {
    pool: MAX
    kernel_size: 3
    stride: 2
  }
}
layer {
  name: "conv2"
  type: "Convolution"
  bottom: "pool1"
  top: "conv2"
  param {
    lr_mult: 1
    decay_mult: 1
  }
  param {
    lr_mult: 2
    decay_mult: 0
  }
  convolution_param {
    num_output: 256
    pad: 2
    kernel_size: 5
    group: 2
    weight_filler {
      type: "gaussian"
      std: 0.01
    }
    bias_filler {
      type: "constant"
      value: 0.1
    }
  }
}
layer {
  name: "relu2"
  type: "ReLU"
  bottom: "conv2"
  top: "conv2"
}
layer {
  name: "norm2"
  type: "LRN"
  bottom: "conv2"
  top: "norm2"
  lrn_param {
    local_size: 5
    alpha: 0.0001
    beta: 0.75
  }
}
layer {
  name: "pool2"
  type: "Pooling"
  bottom: "norm2"
  top: "pool2"
  pooling_param {
    pool: MAX
    kernel_size: 3
    stride: 2
  }
}
layer {
  name: "conv3"
  type: "Convolution"
  bottom: "pool2"
  top: "conv3"
  param {
    lr_mult: 1
    decay_mult: 1
  }
  param {
    lr_mult: 2
    decay_mult: 0
  }
  convolution_param {
    num_output: 384
    pad: 1
    kernel_size: 3
    weight_filler {
      type: "gaussian"
      std: 0.01
    }
    bias_filler {
      type: "constant"
      value: 0
    }
  }
}
layer {
  name: "relu3"
  type: "ReLU"
  bottom: "conv3"
  top: "conv3"
}
layer {
  name: "conv4"
  type: "Convolution"
  bottom: "conv3"
  top: "conv4"
  param {
    lr_mult: 1
    decay_mult: 1
  }
  param {
    lr_mult: 2
    decay_mult: 0
  }
  convolution_param {
    num_output: 384
    pad: 1
    kernel_size: 3
    group: 2
    weight_filler {
      type: "gaussian"
      std: 0.01
    }
    bias_filler {
      type: "constant"
      value: 0.1
    }
  }
}
layer {
  name: "relu4"
  type: "ReLU"
  bottom: "conv4"
  top: "conv4"
}
layer {
  name: "conv5"
  type: "Convolution"
  bottom: "conv4"
  top: "conv5"
  param {
    lr_mult: 1
    decay_mult: 1
  }
  param {
    lr_mult: 2
    decay_mult: 0
  }
  convolution_param {
    num_output: 256
    pad: 1
    kernel_size: 3
    group: 2
    weight_filler {
      type: "gaussian"
      std: 0.01
    }
    bias_filler {
      type: "constant"
      value: 0.1
    }
  }
}
layer {
  name: "relu5"
  type: "ReLU"
  bottom: "conv5"
  top: "conv5"
}
layer {
  name: "pool5"
  type: "Pooling"
  bottom: "conv5"
  top: "pool5"
  pooling_param {
    pool: MAX
    kernel_size: 3
    stride: 2
  }
}
layer {
  name: "fc6"
  type: "InnerProduct"
  bottom: "pool5"
  top: "fc6"
  param {
    lr_mult: 1
    decay_mult: 1
  }
  param {
    lr_mult: 2
    decay_mult: 0
  }
  inner_product_param {
    num_output: 4096
    weight_filler {
      type: "gaussian"
      std: 0.005
    }
    bias_filler {
      type: "constant"
      value: 0.1
    }
  }
}
layer {
  name: "relu6"
  type: "ReLU"
  bottom: "fc6"
  top: "fc6"
}
layer {
  name: "drop6"
  type: "Dropout"
  bottom: "fc6"
  top: "fc6"
  dropout_param {
    dropout_ratio: 0.5
  }
}
layer {
  name: "fc7"
  type: "InnerProduct"
  bottom: "fc6"
  top: "fc7"
  param {
    lr_mult: 1
    decay_mult: 1
  }
  param {
    lr_mult: 2
    decay_mult: 0
  }
  inner_product_param {
    num_output: 4096
    weight_filler {
      type: "gaussian"
      std: 0.005
    }
    bias_filler {
      type: "constant"
      value: 0.1
    }
  }
}
layer {
  name: "relu7"
  type: "ReLU"
  bottom: "fc7"
  top: "fc7"
}
layer {
  name: "drop7"
  type: "Dropout"
  bottom: "fc7"
  top: "fc7"
  dropout_param {
    dropout_ratio: 0.5
  }
}
layer {
  name: "fc8_plantvillage"
  type: "InnerProduct"
  bottom: "fc7"
  top: "fc8_plantvillage"
  param {
    lr_mult: 1
    decay_mult: 1
  }
  param {
    lr_mult: 2
    decay_mult: 0
  }
  inner_product_param {
    num_output: 38
    weight_filler {
      type: "gaussian"
      std: 0.01
    }
    bias_filler {
      type: "constant"
      value: 0
    }
  }
}
layer {
  name: "prob"
  type: "Softmax"
  bottom: "fc8_plantvillage"
  top: "prob"
  include {
    phase: TEST
  }
}
layer {
  name: "hdf5out"
  type: "HDF5Output"
  bottom: "prob"
  bottom: "label"
  include {
    phase: TEST
  }
  hdf5_output_param {
    file_name: "hdf5_dumps/iter_5655.h5"
  }
}
layer {
  name: "loss"
  type: "SoftmaxWithLoss"
  bottom: "fc8_plantvillage"
  bottom: "label"
  top: "loss"
}
layer {
  name: "accuracy"
  type: "Accuracy"
  bottom: "fc8_plantvillage"
  bottom: "label"
  top: "accuracy"
  include {
    phase: TEST
  }
}
I0403 13:23:18.553900 11127 layer_factory.hpp:77] Creating layer data
I0403 13:23:18.554534 11127 net.cpp:91] Creating Layer data
I0403 13:23:18.554586 11127 net.cpp:399] data -> data
I0403 13:23:18.554637 11127 net.cpp:399] data -> label
I0403 13:23:18.554673 11127 data_transformer.cpp:25] Loading mean file from: /home/mohanty/data/final_dataset/lmdb/segmented-80-20/mean.binaryproto
I0403 13:23:18.557917 11130 db_lmdb.cpp:38] Opened lmdb /home/mohanty/data/final_dataset/lmdb/segmented-80-20/test_db
I0403 13:23:18.568575 11127 data_layer.cpp:41] output data size: 100,3,227,227
I0403 13:23:18.684490 11127 net.cpp:141] Setting up data
I0403 13:23:18.684590 11127 net.cpp:148] Top shape: 100 3 227 227 (15458700)
I0403 13:23:18.684614 11127 net.cpp:148] Top shape: 100 (100)
I0403 13:23:18.684629 11127 net.cpp:156] Memory required for data: 61835200
I0403 13:23:18.684656 11127 layer_factory.hpp:77] Creating layer label_data_1_split
I0403 13:23:18.684681 11127 net.cpp:91] Creating Layer label_data_1_split
I0403 13:23:18.684698 11127 net.cpp:425] label_data_1_split <- label
I0403 13:23:18.684731 11127 net.cpp:399] label_data_1_split -> label_data_1_split_0
I0403 13:23:18.684757 11127 net.cpp:399] label_data_1_split -> label_data_1_split_1
I0403 13:23:18.684778 11127 net.cpp:399] label_data_1_split -> label_data_1_split_2
I0403 13:23:18.684840 11127 net.cpp:141] Setting up label_data_1_split
I0403 13:23:18.684864 11127 net.cpp:148] Top shape: 100 (100)
I0403 13:23:18.684880 11127 net.cpp:148] Top shape: 100 (100)
I0403 13:23:18.684895 11127 net.cpp:148] Top shape: 100 (100)
I0403 13:23:18.684909 11127 net.cpp:156] Memory required for data: 61836400
I0403 13:23:18.684923 11127 layer_factory.hpp:77] Creating layer conv1
I0403 13:23:18.684954 11127 net.cpp:91] Creating Layer conv1
I0403 13:23:18.684972 11127 net.cpp:425] conv1 <- data
I0403 13:23:18.684990 11127 net.cpp:399] conv1 -> conv1
I0403 13:23:18.820420 11127 net.cpp:141] Setting up conv1
I0403 13:23:18.820495 11127 net.cpp:148] Top shape: 100 96 55 55 (29040000)
I0403 13:23:18.820513 11127 net.cpp:156] Memory required for data: 177996400
I0403 13:23:18.820546 11127 layer_factory.hpp:77] Creating layer relu1
I0403 13:23:18.820575 11127 net.cpp:91] Creating Layer relu1
I0403 13:23:18.820593 11127 net.cpp:425] relu1 <- conv1
I0403 13:23:18.820612 11127 net.cpp:386] relu1 -> conv1 (in-place)
I0403 13:23:18.820871 11127 net.cpp:141] Setting up relu1
I0403 13:23:18.820897 11127 net.cpp:148] Top shape: 100 96 55 55 (29040000)
I0403 13:23:18.820947 11127 net.cpp:156] Memory required for data: 294156400
I0403 13:23:18.820965 11127 layer_factory.hpp:77] Creating layer norm1
I0403 13:23:18.820991 11127 net.cpp:91] Creating Layer norm1
I0403 13:23:18.821018 11127 net.cpp:425] norm1 <- conv1
I0403 13:23:18.821035 11127 net.cpp:399] norm1 -> norm1
I0403 13:23:18.821333 11127 net.cpp:141] Setting up norm1
I0403 13:23:18.821360 11127 net.cpp:148] Top shape: 100 96 55 55 (29040000)
I0403 13:23:18.821377 11127 net.cpp:156] Memory required for data: 410316400
I0403 13:23:18.821391 11127 layer_factory.hpp:77] Creating layer pool1
I0403 13:23:18.821427 11127 net.cpp:91] Creating Layer pool1
I0403 13:23:18.821445 11127 net.cpp:425] pool1 <- norm1
I0403 13:23:18.821465 11127 net.cpp:399] pool1 -> pool1
I0403 13:23:18.821533 11127 net.cpp:141] Setting up pool1
I0403 13:23:18.821571 11127 net.cpp:148] Top shape: 100 96 27 27 (6998400)
I0403 13:23:18.821605 11127 net.cpp:156] Memory required for data: 438310000
I0403 13:23:18.821620 11127 layer_factory.hpp:77] Creating layer conv2
I0403 13:23:18.821645 11127 net.cpp:91] Creating Layer conv2
I0403 13:23:18.821668 11127 net.cpp:425] conv2 <- pool1
I0403 13:23:18.821686 11127 net.cpp:399] conv2 -> conv2
I0403 13:23:18.836253 11127 net.cpp:141] Setting up conv2
I0403 13:23:18.836292 11127 net.cpp:148] Top shape: 100 256 27 27 (18662400)
I0403 13:23:18.836309 11127 net.cpp:156] Memory required for data: 512959600
I0403 13:23:18.836331 11127 layer_factory.hpp:77] Creating layer relu2
I0403 13:23:18.836356 11127 net.cpp:91] Creating Layer relu2
I0403 13:23:18.836376 11127 net.cpp:425] relu2 <- conv2
I0403 13:23:18.836396 11127 net.cpp:386] relu2 -> conv2 (in-place)
I0403 13:23:18.836673 11127 net.cpp:141] Setting up relu2
I0403 13:23:18.836699 11127 net.cpp:148] Top shape: 100 256 27 27 (18662400)
I0403 13:23:18.836715 11127 net.cpp:156] Memory required for data: 587609200
I0403 13:23:18.836730 11127 layer_factory.hpp:77] Creating layer norm2
I0403 13:23:18.836751 11127 net.cpp:91] Creating Layer norm2
I0403 13:23:18.836768 11127 net.cpp:425] norm2 <- conv2
I0403 13:23:18.836794 11127 net.cpp:399] norm2 -> norm2
I0403 13:23:18.836993 11127 net.cpp:141] Setting up norm2
I0403 13:23:18.837019 11127 net.cpp:148] Top shape: 100 256 27 27 (18662400)
I0403 13:23:18.837033 11127 net.cpp:156] Memory required for data: 662258800
I0403 13:23:18.837049 11127 layer_factory.hpp:77] Creating layer pool2
I0403 13:23:18.837065 11127 net.cpp:91] Creating Layer pool2
I0403 13:23:18.837080 11127 net.cpp:425] pool2 <- norm2
I0403 13:23:18.837100 11127 net.cpp:399] pool2 -> pool2
I0403 13:23:18.837152 11127 net.cpp:141] Setting up pool2
I0403 13:23:18.837174 11127 net.cpp:148] Top shape: 100 256 13 13 (4326400)
I0403 13:23:18.837188 11127 net.cpp:156] Memory required for data: 679564400
I0403 13:23:18.837203 11127 layer_factory.hpp:77] Creating layer conv3
I0403 13:23:18.837227 11127 net.cpp:91] Creating Layer conv3
I0403 13:23:18.837244 11127 net.cpp:425] conv3 <- pool2
I0403 13:23:18.837265 11127 net.cpp:399] conv3 -> conv3
I0403 13:23:18.875185 11127 net.cpp:141] Setting up conv3
I0403 13:23:18.875241 11127 net.cpp:148] Top shape: 100 384 13 13 (6489600)
I0403 13:23:18.875259 11127 net.cpp:156] Memory required for data: 705522800
I0403 13:23:18.875283 11127 layer_factory.hpp:77] Creating layer relu3
I0403 13:23:18.875308 11127 net.cpp:91] Creating Layer relu3
I0403 13:23:18.875325 11127 net.cpp:425] relu3 <- conv3
I0403 13:23:18.875344 11127 net.cpp:386] relu3 -> conv3 (in-place)
I0403 13:23:18.875618 11127 net.cpp:141] Setting up relu3
I0403 13:23:18.875644 11127 net.cpp:148] Top shape: 100 384 13 13 (6489600)
I0403 13:23:18.875659 11127 net.cpp:156] Memory required for data: 731481200
I0403 13:23:18.875674 11127 layer_factory.hpp:77] Creating layer conv4
I0403 13:23:18.875699 11127 net.cpp:91] Creating Layer conv4
I0403 13:23:18.875717 11127 net.cpp:425] conv4 <- conv3
I0403 13:23:18.875737 11127 net.cpp:399] conv4 -> conv4
I0403 13:23:18.904786 11127 net.cpp:141] Setting up conv4
I0403 13:23:18.904840 11127 net.cpp:148] Top shape: 100 384 13 13 (6489600)
I0403 13:23:18.904889 11127 net.cpp:156] Memory required for data: 757439600
I0403 13:23:18.904911 11127 layer_factory.hpp:77] Creating layer relu4
I0403 13:23:18.904932 11127 net.cpp:91] Creating Layer relu4
I0403 13:23:18.904947 11127 net.cpp:425] relu4 <- conv4
I0403 13:23:18.904968 11127 net.cpp:386] relu4 -> conv4 (in-place)
I0403 13:23:18.905253 11127 net.cpp:141] Setting up relu4
I0403 13:23:18.905282 11127 net.cpp:148] Top shape: 100 384 13 13 (6489600)
I0403 13:23:18.905298 11127 net.cpp:156] Memory required for data: 783398000
I0403 13:23:18.905313 11127 layer_factory.hpp:77] Creating layer conv5
I0403 13:23:18.905339 11127 net.cpp:91] Creating Layer conv5
I0403 13:23:18.905355 11127 net.cpp:425] conv5 <- conv4
I0403 13:23:18.905375 11127 net.cpp:399] conv5 -> conv5
I0403 13:23:18.925325 11127 net.cpp:141] Setting up conv5
I0403 13:23:18.925364 11127 net.cpp:148] Top shape: 100 256 13 13 (4326400)
I0403 13:23:18.925380 11127 net.cpp:156] Memory required for data: 800703600
I0403 13:23:18.925403 11127 layer_factory.hpp:77] Creating layer relu5
I0403 13:23:18.925422 11127 net.cpp:91] Creating Layer relu5
I0403 13:23:18.925437 11127 net.cpp:425] relu5 <- conv5
I0403 13:23:18.925457 11127 net.cpp:386] relu5 -> conv5 (in-place)
I0403 13:23:18.925735 11127 net.cpp:141] Setting up relu5
I0403 13:23:18.925761 11127 net.cpp:148] Top shape: 100 256 13 13 (4326400)
I0403 13:23:18.925777 11127 net.cpp:156] Memory required for data: 818009200
I0403 13:23:18.925792 11127 layer_factory.hpp:77] Creating layer pool5
I0403 13:23:18.925817 11127 net.cpp:91] Creating Layer pool5
I0403 13:23:18.925834 11127 net.cpp:425] pool5 <- conv5
I0403 13:23:18.925853 11127 net.cpp:399] pool5 -> pool5
I0403 13:23:18.925911 11127 net.cpp:141] Setting up pool5
I0403 13:23:18.925935 11127 net.cpp:148] Top shape: 100 256 6 6 (921600)
I0403 13:23:18.925950 11127 net.cpp:156] Memory required for data: 821695600
I0403 13:23:18.925964 11127 layer_factory.hpp:77] Creating layer fc6
I0403 13:23:18.925992 11127 net.cpp:91] Creating Layer fc6
I0403 13:23:18.926009 11127 net.cpp:425] fc6 <- pool5
I0403 13:23:18.926028 11127 net.cpp:399] fc6 -> fc6
I0403 13:23:20.511621 11127 net.cpp:141] Setting up fc6
I0403 13:23:20.511683 11127 net.cpp:148] Top shape: 100 4096 (409600)
I0403 13:23:20.511699 11127 net.cpp:156] Memory required for data: 823334000
I0403 13:23:20.511721 11127 layer_factory.hpp:77] Creating layer relu6
I0403 13:23:20.511745 11127 net.cpp:91] Creating Layer relu6
I0403 13:23:20.511762 11127 net.cpp:425] relu6 <- fc6
I0403 13:23:20.511785 11127 net.cpp:386] relu6 -> fc6 (in-place)
I0403 13:23:20.512020 11127 net.cpp:141] Setting up relu6
I0403 13:23:20.512047 11127 net.cpp:148] Top shape: 100 4096 (409600)
I0403 13:23:20.512061 11127 net.cpp:156] Memory required for data: 824972400
I0403 13:23:20.512085 11127 layer_factory.hpp:77] Creating layer drop6
I0403 13:23:20.512112 11127 net.cpp:91] Creating Layer drop6
I0403 13:23:20.512131 11127 net.cpp:425] drop6 <- fc6
I0403 13:23:20.512151 11127 net.cpp:386] drop6 -> fc6 (in-place)
I0403 13:23:20.512205 11127 net.cpp:141] Setting up drop6
I0403 13:23:20.512233 11127 net.cpp:148] Top shape: 100 4096 (409600)
I0403 13:23:20.512249 11127 net.cpp:156] Memory required for data: 826610800
I0403 13:23:20.512272 11127 layer_factory.hpp:77] Creating layer fc7
I0403 13:23:20.512295 11127 net.cpp:91] Creating Layer fc7
I0403 13:23:20.512310 11127 net.cpp:425] fc7 <- fc6
I0403 13:23:20.512331 11127 net.cpp:399] fc7 -> fc7
I0403 13:23:21.212198 11127 net.cpp:141] Setting up fc7
I0403 13:23:21.212263 11127 net.cpp:148] Top shape: 100 4096 (409600)
I0403 13:23:21.212280 11127 net.cpp:156] Memory required for data: 828249200
I0403 13:23:21.212301 11127 layer_factory.hpp:77] Creating layer relu7
I0403 13:23:21.212322 11127 net.cpp:91] Creating Layer relu7
I0403 13:23:21.212339 11127 net.cpp:425] relu7 <- fc7
I0403 13:23:21.212360 11127 net.cpp:386] relu7 -> fc7 (in-place)
I0403 13:23:21.212787 11127 net.cpp:141] Setting up relu7
I0403 13:23:21.212815 11127 net.cpp:148] Top shape: 100 4096 (409600)
I0403 13:23:21.212877 11127 net.cpp:156] Memory required for data: 829887600
I0403 13:23:21.212891 11127 layer_factory.hpp:77] Creating layer drop7
I0403 13:23:21.212910 11127 net.cpp:91] Creating Layer drop7
I0403 13:23:21.212937 11127 net.cpp:425] drop7 <- fc7
I0403 13:23:21.212957 11127 net.cpp:386] drop7 -> fc7 (in-place)
I0403 13:23:21.213002 11127 net.cpp:141] Setting up drop7
I0403 13:23:21.213027 11127 net.cpp:148] Top shape: 100 4096 (409600)
I0403 13:23:21.213043 11127 net.cpp:156] Memory required for data: 831526000
I0403 13:23:21.213058 11127 layer_factory.hpp:77] Creating layer fc8_plantvillage
I0403 13:23:21.213078 11127 net.cpp:91] Creating Layer fc8_plantvillage
I0403 13:23:21.213093 11127 net.cpp:425] fc8_plantvillage <- fc7
I0403 13:23:21.213114 11127 net.cpp:399] fc8_plantvillage -> fc8_plantvillage
I0403 13:23:21.219885 11127 net.cpp:141] Setting up fc8_plantvillage
I0403 13:23:21.219913 11127 net.cpp:148] Top shape: 100 38 (3800)
I0403 13:23:21.219929 11127 net.cpp:156] Memory required for data: 831541200
I0403 13:23:21.219947 11127 layer_factory.hpp:77] Creating layer fc8_plantvillage_fc8_plantvillage_0_split
I0403 13:23:21.219965 11127 net.cpp:91] Creating Layer fc8_plantvillage_fc8_plantvillage_0_split
I0403 13:23:21.219980 11127 net.cpp:425] fc8_plantvillage_fc8_plantvillage_0_split <- fc8_plantvillage
I0403 13:23:21.220002 11127 net.cpp:399] fc8_plantvillage_fc8_plantvillage_0_split -> fc8_plantvillage_fc8_plantvillage_0_split_0
I0403 13:23:21.220023 11127 net.cpp:399] fc8_plantvillage_fc8_plantvillage_0_split -> fc8_plantvillage_fc8_plantvillage_0_split_1
I0403 13:23:21.220044 11127 net.cpp:399] fc8_plantvillage_fc8_plantvillage_0_split -> fc8_plantvillage_fc8_plantvillage_0_split_2
I0403 13:23:21.220124 11127 net.cpp:141] Setting up fc8_plantvillage_fc8_plantvillage_0_split
I0403 13:23:21.220158 11127 net.cpp:148] Top shape: 100 38 (3800)
I0403 13:23:21.220175 11127 net.cpp:148] Top shape: 100 38 (3800)
I0403 13:23:21.220190 11127 net.cpp:148] Top shape: 100 38 (3800)
I0403 13:23:21.220202 11127 net.cpp:156] Memory required for data: 831586800
I0403 13:23:21.220216 11127 layer_factory.hpp:77] Creating layer prob
I0403 13:23:21.220233 11127 net.cpp:91] Creating Layer prob
I0403 13:23:21.220248 11127 net.cpp:425] prob <- fc8_plantvillage_fc8_plantvillage_0_split_0
I0403 13:23:21.220275 11127 net.cpp:399] prob -> prob
I0403 13:23:21.220496 11127 net.cpp:141] Setting up prob
I0403 13:23:21.220521 11127 net.cpp:148] Top shape: 100 38 (3800)
I0403 13:23:21.220541 11127 net.cpp:156] Memory required for data: 831602000
I0403 13:23:21.220556 11127 layer_factory.hpp:77] Creating layer hdf5out
I0403 13:23:21.220579 11127 net.cpp:91] Creating Layer hdf5out
I0403 13:23:21.220594 11127 net.cpp:425] hdf5out <- prob
I0403 13:23:21.220610 11127 net.cpp:425] hdf5out <- label_data_1_split_0
I0403 13:23:21.222837 11127 net.cpp:141] Setting up hdf5out
…
