…
I0403 13:25:52.856664 11228 net.cpp:313] The NetState phase (1) differed from the phase (0) specified by a rule in layer data
I0403 13:25:52.856982 11228 net.cpp:49] Initializing net from parameters: 
state {
  phase: TEST
}
layer {
  name: "data"
  type: "Data"
  top: "data"
  top: "label"
  include {
    phase: TEST
  }
  transform_param {
    crop_size: 227
    mean_file: "/home/mohanty/data/final_dataset/lmdb/segmented-80-20/mean.binaryproto"
  }
  data_param {
    source: "/home/mohanty/data/final_dataset/lmdb/segmented-80-20/test_db"
    batch_size: 100
    backend: LMDB
  }
}
layer {
  name: "conv1"
  type: "Convolution"
  bottom: "data"
  top: "conv1"
  param {
    lr_mult: 1
    decay_mult: 1
  }
  param {
    lr_mult: 2
    decay_mult: 0
  }
  convolution_param {
    num_output: 96
    kernel_size: 11
    stride: 4
    weight_filler {
      type: "gaussian"
      std: 0.01
    }
    bias_filler {
      type: "constant"
      value: 0
    }
  }
}
layer {
  name: "relu1"
  type: "ReLU"
  bottom: "conv1"
  top: "conv1"
}
layer {
  name: "norm1"
  type: "LRN"
  bottom: "conv1"
  top: "norm1"
  lrn_param {
    local_size: 5
    alpha: 0.0001
    beta: 0.75
  }
}
layer {
  name: "pool1"
  type: "Pooling"
  bottom: "norm1"
  top: "pool1"
  pooling_param {
    pool: MAX
    kernel_size: 3
    stride: 2
  }
}
layer {
  name: "conv2"
  type: "Convolution"
  bottom: "pool1"
  top: "conv2"
  param {
    lr_mult: 1
    decay_mult: 1
  }
  param {
    lr_mult: 2
    decay_mult: 0
  }
  convolution_param {
    num_output: 256
    pad: 2
    kernel_size: 5
    group: 2
    weight_filler {
      type: "gaussian"
      std: 0.01
    }
    bias_filler {
      type: "constant"
      value: 0.1
    }
  }
}
layer {
  name: "relu2"
  type: "ReLU"
  bottom: "conv2"
  top: "conv2"
}
layer {
  name: "norm2"
  type: "LRN"
  bottom: "conv2"
  top: "norm2"
  lrn_param {
    local_size: 5
    alpha: 0.0001
    beta: 0.75
  }
}
layer {
  name: "pool2"
  type: "Pooling"
  bottom: "norm2"
  top: "pool2"
  pooling_param {
    pool: MAX
    kernel_size: 3
    stride: 2
  }
}
layer {
  name: "conv3"
  type: "Convolution"
  bottom: "pool2"
  top: "conv3"
  param {
    lr_mult: 1
    decay_mult: 1
  }
  param {
    lr_mult: 2
    decay_mult: 0
  }
  convolution_param {
    num_output: 384
    pad: 1
    kernel_size: 3
    weight_filler {
      type: "gaussian"
      std: 0.01
    }
    bias_filler {
      type: "constant"
      value: 0
    }
  }
}
layer {
  name: "relu3"
  type: "ReLU"
  bottom: "conv3"
  top: "conv3"
}
layer {
  name: "conv4"
  type: "Convolution"
  bottom: "conv3"
  top: "conv4"
  param {
    lr_mult: 1
    decay_mult: 1
  }
  param {
    lr_mult: 2
    decay_mult: 0
  }
  convolution_param {
    num_output: 384
    pad: 1
    kernel_size: 3
    group: 2
    weight_filler {
      type: "gaussian"
      std: 0.01
    }
    bias_filler {
      type: "constant"
      value: 0.1
    }
  }
}
layer {
  name: "relu4"
  type: "ReLU"
  bottom: "conv4"
  top: "conv4"
}
layer {
  name: "conv5"
  type: "Convolution"
  bottom: "conv4"
  top: "conv5"
  param {
    lr_mult: 1
    decay_mult: 1
  }
  param {
    lr_mult: 2
    decay_mult: 0
  }
  convolution_param {
    num_output: 256
    pad: 1
    kernel_size: 3
    group: 2
    weight_filler {
      type: "gaussian"
      std: 0.01
    }
    bias_filler {
      type: "constant"
      value: 0.1
    }
  }
}
layer {
  name: "relu5"
  type: "ReLU"
  bottom: "conv5"
  top: "conv5"
}
layer {
  name: "pool5"
  type: "Pooling"
  bottom: "conv5"
  top: "pool5"
  pooling_param {
    pool: MAX
    kernel_size: 3
    stride: 2
  }
}
layer {
  name: "fc6"
  type: "InnerProduct"
  bottom: "pool5"
  top: "fc6"
  param {
    lr_mult: 1
    decay_mult: 1
  }
  param {
    lr_mult: 2
    decay_mult: 0
  }
  inner_product_param {
    num_output: 4096
    weight_filler {
      type: "gaussian"
      std: 0.005
    }
    bias_filler {
      type: "constant"
      value: 0.1
    }
  }
}
layer {
  name: "relu6"
  type: "ReLU"
  bottom: "fc6"
  top: "fc6"
}
layer {
  name: "drop6"
  type: "Dropout"
  bottom: "fc6"
  top: "fc6"
  dropout_param {
    dropout_ratio: 0.5
  }
}
layer {
  name: "fc7"
  type: "InnerProduct"
  bottom: "fc6"
  top: "fc7"
  param {
    lr_mult: 1
    decay_mult: 1
  }
  param {
    lr_mult: 2
    decay_mult: 0
  }
  inner_product_param {
    num_output: 4096
    weight_filler {
      type: "gaussian"
      std: 0.005
    }
    bias_filler {
      type: "constant"
      value: 0.1
    }
  }
}
layer {
  name: "relu7"
  type: "ReLU"
  bottom: "fc7"
  top: "fc7"
}
layer {
  name: "drop7"
  type: "Dropout"
  bottom: "fc7"
  top: "fc7"
  dropout_param {
    dropout_ratio: 0.5
  }
}
layer {
  name: "fc8_plantvillage"
  type: "InnerProduct"
  bottom: "fc7"
  top: "fc8_plantvillage"
  param {
    lr_mult: 1
    decay_mult: 1
  }
  param {
    lr_mult: 2
    decay_mult: 0
  }
  inner_product_param {
    num_output: 38
    weight_filler {
      type: "gaussian"
      std: 0.01
    }
    bias_filler {
      type: "constant"
      value: 0
    }
  }
}
layer {
  name: "prob"
  type: "Softmax"
  bottom: "fc8_plantvillage"
  top: "prob"
  include {
    phase: TEST
  }
}
layer {
  name: "hdf5out"
  type: "HDF5Output"
  bottom: "prob"
  bottom: "label"
  include {
    phase: TEST
  }
  hdf5_output_param {
    file_name: "hdf5_dumps/iter_8265.h5"
  }
}
layer {
  name: "loss"
  type: "SoftmaxWithLoss"
  bottom: "fc8_plantvillage"
  bottom: "label"
  top: "loss"
}
layer {
  name: "accuracy"
  type: "Accuracy"
  bottom: "fc8_plantvillage"
  bottom: "label"
  top: "accuracy"
  include {
    phase: TEST
  }
}
I0403 13:25:52.857636 11228 layer_factory.hpp:77] Creating layer data
I0403 13:25:52.858320 11228 net.cpp:91] Creating Layer data
I0403 13:25:52.858350 11228 net.cpp:399] data -> data
I0403 13:25:52.858403 11228 net.cpp:399] data -> label
I0403 13:25:52.858439 11228 data_transformer.cpp:25] Loading mean file from: /home/mohanty/data/final_dataset/lmdb/segmented-80-20/mean.binaryproto
I0403 13:25:52.861165 11231 db_lmdb.cpp:38] Opened lmdb /home/mohanty/data/final_dataset/lmdb/segmented-80-20/test_db
I0403 13:25:52.875726 11228 data_layer.cpp:41] output data size: 100,3,227,227
I0403 13:25:52.995342 11228 net.cpp:141] Setting up data
I0403 13:25:52.995434 11228 net.cpp:148] Top shape: 100 3 227 227 (15458700)
I0403 13:25:52.995455 11228 net.cpp:148] Top shape: 100 (100)
I0403 13:25:52.995470 11228 net.cpp:156] Memory required for data: 61835200
I0403 13:25:52.995496 11228 layer_factory.hpp:77] Creating layer label_data_1_split
I0403 13:25:52.995527 11228 net.cpp:91] Creating Layer label_data_1_split
I0403 13:25:52.995544 11228 net.cpp:425] label_data_1_split <- label
I0403 13:25:52.995578 11228 net.cpp:399] label_data_1_split -> label_data_1_split_0
I0403 13:25:52.995604 11228 net.cpp:399] label_data_1_split -> label_data_1_split_1
I0403 13:25:52.995623 11228 net.cpp:399] label_data_1_split -> label_data_1_split_2
I0403 13:25:52.995687 11228 net.cpp:141] Setting up label_data_1_split
I0403 13:25:52.995709 11228 net.cpp:148] Top shape: 100 (100)
I0403 13:25:52.995725 11228 net.cpp:148] Top shape: 100 (100)
I0403 13:25:52.995741 11228 net.cpp:148] Top shape: 100 (100)
I0403 13:25:52.995755 11228 net.cpp:156] Memory required for data: 61836400
I0403 13:25:52.995769 11228 layer_factory.hpp:77] Creating layer conv1
I0403 13:25:52.995801 11228 net.cpp:91] Creating Layer conv1
I0403 13:25:52.995820 11228 net.cpp:425] conv1 <- data
I0403 13:25:52.995838 11228 net.cpp:399] conv1 -> conv1
I0403 13:25:53.136425 11228 net.cpp:141] Setting up conv1
I0403 13:25:53.136468 11228 net.cpp:148] Top shape: 100 96 55 55 (29040000)
I0403 13:25:53.136487 11228 net.cpp:156] Memory required for data: 177996400
I0403 13:25:53.136523 11228 layer_factory.hpp:77] Creating layer relu1
I0403 13:25:53.136554 11228 net.cpp:91] Creating Layer relu1
I0403 13:25:53.136572 11228 net.cpp:425] relu1 <- conv1
I0403 13:25:53.136590 11228 net.cpp:386] relu1 -> conv1 (in-place)
I0403 13:25:53.136898 11228 net.cpp:141] Setting up relu1
I0403 13:25:53.136926 11228 net.cpp:148] Top shape: 100 96 55 55 (29040000)
I0403 13:25:53.136994 11228 net.cpp:156] Memory required for data: 294156400
I0403 13:25:53.137011 11228 layer_factory.hpp:77] Creating layer norm1
I0403 13:25:53.137037 11228 net.cpp:91] Creating Layer norm1
I0403 13:25:53.137055 11228 net.cpp:425] norm1 <- conv1
I0403 13:25:53.137075 11228 net.cpp:399] norm1 -> norm1
I0403 13:25:53.137423 11228 net.cpp:141] Setting up norm1
I0403 13:25:53.137452 11228 net.cpp:148] Top shape: 100 96 55 55 (29040000)
I0403 13:25:53.137476 11228 net.cpp:156] Memory required for data: 410316400
I0403 13:25:53.137492 11228 layer_factory.hpp:77] Creating layer pool1
I0403 13:25:53.137519 11228 net.cpp:91] Creating Layer pool1
I0403 13:25:53.137538 11228 net.cpp:425] pool1 <- norm1
I0403 13:25:53.137559 11228 net.cpp:399] pool1 -> pool1
I0403 13:25:53.137645 11228 net.cpp:141] Setting up pool1
I0403 13:25:53.137670 11228 net.cpp:148] Top shape: 100 96 27 27 (6998400)
I0403 13:25:53.137686 11228 net.cpp:156] Memory required for data: 438310000
I0403 13:25:53.137701 11228 layer_factory.hpp:77] Creating layer conv2
I0403 13:25:53.137725 11228 net.cpp:91] Creating Layer conv2
I0403 13:25:53.137742 11228 net.cpp:425] conv2 <- pool1
I0403 13:25:53.137760 11228 net.cpp:399] conv2 -> conv2
I0403 13:25:53.152905 11228 net.cpp:141] Setting up conv2
I0403 13:25:53.152957 11228 net.cpp:148] Top shape: 100 256 27 27 (18662400)
I0403 13:25:53.152974 11228 net.cpp:156] Memory required for data: 512959600
I0403 13:25:53.152997 11228 layer_factory.hpp:77] Creating layer relu2
I0403 13:25:53.153017 11228 net.cpp:91] Creating Layer relu2
I0403 13:25:53.153033 11228 net.cpp:425] relu2 <- conv2
I0403 13:25:53.153053 11228 net.cpp:386] relu2 -> conv2 (in-place)
I0403 13:25:53.153368 11228 net.cpp:141] Setting up relu2
I0403 13:25:53.153396 11228 net.cpp:148] Top shape: 100 256 27 27 (18662400)
I0403 13:25:53.153412 11228 net.cpp:156] Memory required for data: 587609200
I0403 13:25:53.153429 11228 layer_factory.hpp:77] Creating layer norm2
I0403 13:25:53.153451 11228 net.cpp:91] Creating Layer norm2
I0403 13:25:53.153468 11228 net.cpp:425] norm2 <- conv2
I0403 13:25:53.153486 11228 net.cpp:399] norm2 -> norm2
I0403 13:25:53.153694 11228 net.cpp:141] Setting up norm2
I0403 13:25:53.153731 11228 net.cpp:148] Top shape: 100 256 27 27 (18662400)
I0403 13:25:53.153745 11228 net.cpp:156] Memory required for data: 662258800
I0403 13:25:53.153760 11228 layer_factory.hpp:77] Creating layer pool2
I0403 13:25:53.153777 11228 net.cpp:91] Creating Layer pool2
I0403 13:25:53.153791 11228 net.cpp:425] pool2 <- norm2
I0403 13:25:53.153810 11228 net.cpp:399] pool2 -> pool2
I0403 13:25:53.153862 11228 net.cpp:141] Setting up pool2
I0403 13:25:53.153884 11228 net.cpp:148] Top shape: 100 256 13 13 (4326400)
I0403 13:25:53.153898 11228 net.cpp:156] Memory required for data: 679564400
I0403 13:25:53.153913 11228 layer_factory.hpp:77] Creating layer conv3
I0403 13:25:53.153936 11228 net.cpp:91] Creating Layer conv3
I0403 13:25:53.153952 11228 net.cpp:425] conv3 <- pool2
I0403 13:25:53.153970 11228 net.cpp:399] conv3 -> conv3
I0403 13:25:53.192656 11228 net.cpp:141] Setting up conv3
I0403 13:25:53.192728 11228 net.cpp:148] Top shape: 100 384 13 13 (6489600)
I0403 13:25:53.192744 11228 net.cpp:156] Memory required for data: 705522800
I0403 13:25:53.192770 11228 layer_factory.hpp:77] Creating layer relu3
I0403 13:25:53.192790 11228 net.cpp:91] Creating Layer relu3
I0403 13:25:53.192807 11228 net.cpp:425] relu3 <- conv3
I0403 13:25:53.192827 11228 net.cpp:386] relu3 -> conv3 (in-place)
I0403 13:25:53.193104 11228 net.cpp:141] Setting up relu3
I0403 13:25:53.193131 11228 net.cpp:148] Top shape: 100 384 13 13 (6489600)
I0403 13:25:53.193146 11228 net.cpp:156] Memory required for data: 731481200
I0403 13:25:53.193161 11228 layer_factory.hpp:77] Creating layer conv4
I0403 13:25:53.193186 11228 net.cpp:91] Creating Layer conv4
I0403 13:25:53.193202 11228 net.cpp:425] conv4 <- conv3
I0403 13:25:53.193222 11228 net.cpp:399] conv4 -> conv4
I0403 13:25:53.223532 11228 net.cpp:141] Setting up conv4
I0403 13:25:53.223601 11228 net.cpp:148] Top shape: 100 384 13 13 (6489600)
I0403 13:25:53.223651 11228 net.cpp:156] Memory required for data: 757439600
I0403 13:25:53.223675 11228 layer_factory.hpp:77] Creating layer relu4
I0403 13:25:53.223696 11228 net.cpp:91] Creating Layer relu4
I0403 13:25:53.223714 11228 net.cpp:425] relu4 <- conv4
I0403 13:25:53.223737 11228 net.cpp:386] relu4 -> conv4 (in-place)
I0403 13:25:53.224017 11228 net.cpp:141] Setting up relu4
I0403 13:25:53.224082 11228 net.cpp:148] Top shape: 100 384 13 13 (6489600)
I0403 13:25:53.224103 11228 net.cpp:156] Memory required for data: 783398000
I0403 13:25:53.224118 11228 layer_factory.hpp:77] Creating layer conv5
I0403 13:25:53.224143 11228 net.cpp:91] Creating Layer conv5
I0403 13:25:53.224160 11228 net.cpp:425] conv5 <- conv4
I0403 13:25:53.224179 11228 net.cpp:399] conv5 -> conv5
I0403 13:25:53.245172 11228 net.cpp:141] Setting up conv5
I0403 13:25:53.245228 11228 net.cpp:148] Top shape: 100 256 13 13 (4326400)
I0403 13:25:53.245244 11228 net.cpp:156] Memory required for data: 800703600
I0403 13:25:53.245270 11228 layer_factory.hpp:77] Creating layer relu5
I0403 13:25:53.245290 11228 net.cpp:91] Creating Layer relu5
I0403 13:25:53.245307 11228 net.cpp:425] relu5 <- conv5
I0403 13:25:53.245328 11228 net.cpp:386] relu5 -> conv5 (in-place)
I0403 13:25:53.245631 11228 net.cpp:141] Setting up relu5
I0403 13:25:53.245658 11228 net.cpp:148] Top shape: 100 256 13 13 (4326400)
I0403 13:25:53.245673 11228 net.cpp:156] Memory required for data: 818009200
I0403 13:25:53.245687 11228 layer_factory.hpp:77] Creating layer pool5
I0403 13:25:53.245712 11228 net.cpp:91] Creating Layer pool5
I0403 13:25:53.245729 11228 net.cpp:425] pool5 <- conv5
I0403 13:25:53.245748 11228 net.cpp:399] pool5 -> pool5
I0403 13:25:53.245815 11228 net.cpp:141] Setting up pool5
I0403 13:25:53.245839 11228 net.cpp:148] Top shape: 100 256 6 6 (921600)
I0403 13:25:53.245853 11228 net.cpp:156] Memory required for data: 821695600
I0403 13:25:53.245867 11228 layer_factory.hpp:77] Creating layer fc6
I0403 13:25:53.245893 11228 net.cpp:91] Creating Layer fc6
I0403 13:25:53.245910 11228 net.cpp:425] fc6 <- pool5
I0403 13:25:53.245930 11228 net.cpp:399] fc6 -> fc6
I0403 13:25:54.861119 11228 net.cpp:141] Setting up fc6
I0403 13:25:54.861203 11228 net.cpp:148] Top shape: 100 4096 (409600)
I0403 13:25:54.861229 11228 net.cpp:156] Memory required for data: 823334000
I0403 13:25:54.861250 11228 layer_factory.hpp:77] Creating layer relu6
I0403 13:25:54.861291 11228 net.cpp:91] Creating Layer relu6
I0403 13:25:54.861310 11228 net.cpp:425] relu6 <- fc6
I0403 13:25:54.861330 11228 net.cpp:386] relu6 -> fc6 (in-place)
I0403 13:25:54.861563 11228 net.cpp:141] Setting up relu6
I0403 13:25:54.861589 11228 net.cpp:148] Top shape: 100 4096 (409600)
I0403 13:25:54.861603 11228 net.cpp:156] Memory required for data: 824972400
I0403 13:25:54.861624 11228 layer_factory.hpp:77] Creating layer drop6
I0403 13:25:54.861655 11228 net.cpp:91] Creating Layer drop6
I0403 13:25:54.861675 11228 net.cpp:425] drop6 <- fc6
I0403 13:25:54.861706 11228 net.cpp:386] drop6 -> fc6 (in-place)
I0403 13:25:54.861763 11228 net.cpp:141] Setting up drop6
I0403 13:25:54.861791 11228 net.cpp:148] Top shape: 100 4096 (409600)
I0403 13:25:54.861814 11228 net.cpp:156] Memory required for data: 826610800
I0403 13:25:54.861829 11228 layer_factory.hpp:77] Creating layer fc7
I0403 13:25:54.861848 11228 net.cpp:91] Creating Layer fc7
I0403 13:25:54.861863 11228 net.cpp:425] fc7 <- fc6
I0403 13:25:54.861883 11228 net.cpp:399] fc7 -> fc7
I0403 13:25:57.370792 11228 net.cpp:141] Setting up fc7
I0403 13:25:57.370877 11228 net.cpp:148] Top shape: 100 4096 (409600)
I0403 13:25:57.370894 11228 net.cpp:156] Memory required for data: 828249200
I0403 13:25:57.370916 11228 layer_factory.hpp:77] Creating layer relu7
I0403 13:25:57.370939 11228 net.cpp:91] Creating Layer relu7
I0403 13:25:57.370955 11228 net.cpp:425] relu7 <- fc7
I0403 13:25:57.370977 11228 net.cpp:386] relu7 -> fc7 (in-place)
I0403 13:25:57.371373 11228 net.cpp:141] Setting up relu7
I0403 13:25:57.371400 11228 net.cpp:148] Top shape: 100 4096 (409600)
I0403 13:25:57.371465 11228 net.cpp:156] Memory required for data: 829887600
I0403 13:25:57.371481 11228 layer_factory.hpp:77] Creating layer drop7
I0403 13:25:57.371500 11228 net.cpp:91] Creating Layer drop7
I0403 13:25:57.371521 11228 net.cpp:425] drop7 <- fc7
I0403 13:25:57.371541 11228 net.cpp:386] drop7 -> fc7 (in-place)
I0403 13:25:57.371585 11228 net.cpp:141] Setting up drop7
I0403 13:25:57.371606 11228 net.cpp:148] Top shape: 100 4096 (409600)
I0403 13:25:57.371621 11228 net.cpp:156] Memory required for data: 831526000
I0403 13:25:57.371636 11228 layer_factory.hpp:77] Creating layer fc8_plantvillage
I0403 13:25:57.371660 11228 net.cpp:91] Creating Layer fc8_plantvillage
I0403 13:25:57.371676 11228 net.cpp:425] fc8_plantvillage <- fc7
I0403 13:25:57.371695 11228 net.cpp:399] fc8_plantvillage -> fc8_plantvillage
I0403 13:25:57.378438 11228 net.cpp:141] Setting up fc8_plantvillage
I0403 13:25:57.378468 11228 net.cpp:148] Top shape: 100 38 (3800)
I0403 13:25:57.378484 11228 net.cpp:156] Memory required for data: 831541200
I0403 13:25:57.378500 11228 layer_factory.hpp:77] Creating layer fc8_plantvillage_fc8_plantvillage_0_split
I0403 13:25:57.378525 11228 net.cpp:91] Creating Layer fc8_plantvillage_fc8_plantvillage_0_split
I0403 13:25:57.378541 11228 net.cpp:425] fc8_plantvillage_fc8_plantvillage_0_split <- fc8_plantvillage
I0403 13:25:57.378561 11228 net.cpp:399] fc8_plantvillage_fc8_plantvillage_0_split -> fc8_plantvillage_fc8_plantvillage_0_split_0
I0403 13:25:57.378582 11228 net.cpp:399] fc8_plantvillage_fc8_plantvillage_0_split -> fc8_plantvillage_fc8_plantvillage_0_split_1
I0403 13:25:57.378602 11228 net.cpp:399] fc8_plantvillage_fc8_plantvillage_0_split -> fc8_plantvillage_fc8_plantvillage_0_split_2
I0403 13:25:57.378679 11228 net.cpp:141] Setting up fc8_plantvillage_fc8_plantvillage_0_split
I0403 13:25:57.378701 11228 net.cpp:148] Top shape: 100 38 (3800)
I0403 13:25:57.378717 11228 net.cpp:148] Top shape: 100 38 (3800)
I0403 13:25:57.378733 11228 net.cpp:148] Top shape: 100 38 (3800)
I0403 13:25:57.378746 11228 net.cpp:156] Memory required for data: 831586800
I0403 13:25:57.378761 11228 layer_factory.hpp:77] Creating layer prob
I0403 13:25:57.378778 11228 net.cpp:91] Creating Layer prob
I0403 13:25:57.378793 11228 net.cpp:425] prob <- fc8_plantvillage_fc8_plantvillage_0_split_0
I0403 13:25:57.378813 11228 net.cpp:399] prob -> prob
I0403 13:25:57.379040 11228 net.cpp:141] Setting up prob
I0403 13:25:57.379067 11228 net.cpp:148] Top shape: 100 38 (3800)
I0403 13:25:57.379083 11228 net.cpp:156] Memory required for data: 831602000
I0403 13:25:57.379097 11228 layer_factory.hpp:77] Creating layer hdf5out
I0403 13:25:57.379117 11228 net.cpp:91] Creating Layer hdf5out
I0403 13:25:57.379132 11228 net.cpp:425] hdf5out <- prob
I0403 13:25:57.379147 11228 net.cpp:425] hdf5out <- label_data_1_split_0
I0403 13:25:57.381682 11228 net.cpp:141] Setting up hdf5out
…
