…
I0403 13:26:18.532755 11244 net.cpp:313] The NetState phase (1) differed from the phase (0) specified by a rule in layer data
I0403 13:26:18.533066 11244 net.cpp:49] Initializing net from parameters: 
state {
  phase: TEST
}
layer {
  name: "data"
  type: "Data"
  top: "data"
  top: "label"
  include {
    phase: TEST
  }
  transform_param {
    crop_size: 227
    mean_file: "/home/mohanty/data/final_dataset/lmdb/segmented-80-20/mean.binaryproto"
  }
  data_param {
    source: "/home/mohanty/data/final_dataset/lmdb/segmented-80-20/test_db"
    batch_size: 100
    backend: LMDB
  }
}
layer {
  name: "conv1"
  type: "Convolution"
  bottom: "data"
  top: "conv1"
  param {
    lr_mult: 1
    decay_mult: 1
  }
  param {
    lr_mult: 2
    decay_mult: 0
  }
  convolution_param {
    num_output: 96
    kernel_size: 11
    stride: 4
    weight_filler {
      type: "gaussian"
      std: 0.01
    }
    bias_filler {
      type: "constant"
      value: 0
    }
  }
}
layer {
  name: "relu1"
  type: "ReLU"
  bottom: "conv1"
  top: "conv1"
}
layer {
  name: "norm1"
  type: "LRN"
  bottom: "conv1"
  top: "norm1"
  lrn_param {
    local_size: 5
    alpha: 0.0001
    beta: 0.75
  }
}
layer {
  name: "pool1"
  type: "Pooling"
  bottom: "norm1"
  top: "pool1"
  pooling_param {
    pool: MAX
    kernel_size: 3
    stride: 2
  }
}
layer {
  name: "conv2"
  type: "Convolution"
  bottom: "pool1"
  top: "conv2"
  param {
    lr_mult: 1
    decay_mult: 1
  }
  param {
    lr_mult: 2
    decay_mult: 0
  }
  convolution_param {
    num_output: 256
    pad: 2
    kernel_size: 5
    group: 2
    weight_filler {
      type: "gaussian"
      std: 0.01
    }
    bias_filler {
      type: "constant"
      value: 0.1
    }
  }
}
layer {
  name: "relu2"
  type: "ReLU"
  bottom: "conv2"
  top: "conv2"
}
layer {
  name: "norm2"
  type: "LRN"
  bottom: "conv2"
  top: "norm2"
  lrn_param {
    local_size: 5
    alpha: 0.0001
    beta: 0.75
  }
}
layer {
  name: "pool2"
  type: "Pooling"
  bottom: "norm2"
  top: "pool2"
  pooling_param {
    pool: MAX
    kernel_size: 3
    stride: 2
  }
}
layer {
  name: "conv3"
  type: "Convolution"
  bottom: "pool2"
  top: "conv3"
  param {
    lr_mult: 1
    decay_mult: 1
  }
  param {
    lr_mult: 2
    decay_mult: 0
  }
  convolution_param {
    num_output: 384
    pad: 1
    kernel_size: 3
    weight_filler {
      type: "gaussian"
      std: 0.01
    }
    bias_filler {
      type: "constant"
      value: 0
    }
  }
}
layer {
  name: "relu3"
  type: "ReLU"
  bottom: "conv3"
  top: "conv3"
}
layer {
  name: "conv4"
  type: "Convolution"
  bottom: "conv3"
  top: "conv4"
  param {
    lr_mult: 1
    decay_mult: 1
  }
  param {
    lr_mult: 2
    decay_mult: 0
  }
  convolution_param {
    num_output: 384
    pad: 1
    kernel_size: 3
    group: 2
    weight_filler {
      type: "gaussian"
      std: 0.01
    }
    bias_filler {
      type: "constant"
      value: 0.1
    }
  }
}
layer {
  name: "relu4"
  type: "ReLU"
  bottom: "conv4"
  top: "conv4"
}
layer {
  name: "conv5"
  type: "Convolution"
  bottom: "conv4"
  top: "conv5"
  param {
    lr_mult: 1
    decay_mult: 1
  }
  param {
    lr_mult: 2
    decay_mult: 0
  }
  convolution_param {
    num_output: 256
    pad: 1
    kernel_size: 3
    group: 2
    weight_filler {
      type: "gaussian"
      std: 0.01
    }
    bias_filler {
      type: "constant"
      value: 0.1
    }
  }
}
layer {
  name: "relu5"
  type: "ReLU"
  bottom: "conv5"
  top: "conv5"
}
layer {
  name: "pool5"
  type: "Pooling"
  bottom: "conv5"
  top: "pool5"
  pooling_param {
    pool: MAX
    kernel_size: 3
    stride: 2
  }
}
layer {
  name: "fc6"
  type: "InnerProduct"
  bottom: "pool5"
  top: "fc6"
  param {
    lr_mult: 1
    decay_mult: 1
  }
  param {
    lr_mult: 2
    decay_mult: 0
  }
  inner_product_param {
    num_output: 4096
    weight_filler {
      type: "gaussian"
      std: 0.005
    }
    bias_filler {
      type: "constant"
      value: 0.1
    }
  }
}
layer {
  name: "relu6"
  type: "ReLU"
  bottom: "fc6"
  top: "fc6"
}
layer {
  name: "drop6"
  type: "Dropout"
  bottom: "fc6"
  top: "fc6"
  dropout_param {
    dropout_ratio: 0.5
  }
}
layer {
  name: "fc7"
  type: "InnerProduct"
  bottom: "fc6"
  top: "fc7"
  param {
    lr_mult: 1
    decay_mult: 1
  }
  param {
    lr_mult: 2
    decay_mult: 0
  }
  inner_product_param {
    num_output: 4096
    weight_filler {
      type: "gaussian"
      std: 0.005
    }
    bias_filler {
      type: "constant"
      value: 0.1
    }
  }
}
layer {
  name: "relu7"
  type: "ReLU"
  bottom: "fc7"
  top: "fc7"
}
layer {
  name: "drop7"
  type: "Dropout"
  bottom: "fc7"
  top: "fc7"
  dropout_param {
    dropout_ratio: 0.5
  }
}
layer {
  name: "fc8_plantvillage"
  type: "InnerProduct"
  bottom: "fc7"
  top: "fc8_plantvillage"
  param {
    lr_mult: 1
    decay_mult: 1
  }
  param {
    lr_mult: 2
    decay_mult: 0
  }
  inner_product_param {
    num_output: 38
    weight_filler {
      type: "gaussian"
      std: 0.01
    }
    bias_filler {
      type: "constant"
      value: 0
    }
  }
}
layer {
  name: "prob"
  type: "Softmax"
  bottom: "fc8_plantvillage"
  top: "prob"
  include {
    phase: TEST
  }
}
layer {
  name: "hdf5out"
  type: "HDF5Output"
  bottom: "prob"
  bottom: "label"
  include {
    phase: TEST
  }
  hdf5_output_param {
    file_name: "hdf5_dumps/iter_8700.h5"
  }
}
layer {
  name: "loss"
  type: "SoftmaxWithLoss"
  bottom: "fc8_plantvillage"
  bottom: "label"
  top: "loss"
}
layer {
  name: "accuracy"
  type: "Accuracy"
  bottom: "fc8_plantvillage"
  bottom: "label"
  top: "accuracy"
  include {
    phase: TEST
  }
}
I0403 13:26:18.533694 11244 layer_factory.hpp:77] Creating layer data
I0403 13:26:18.534356 11244 net.cpp:91] Creating Layer data
I0403 13:26:18.534387 11244 net.cpp:399] data -> data
I0403 13:26:18.534440 11244 net.cpp:399] data -> label
I0403 13:26:18.534477 11244 data_transformer.cpp:25] Loading mean file from: /home/mohanty/data/final_dataset/lmdb/segmented-80-20/mean.binaryproto
I0403 13:26:18.538071 11247 db_lmdb.cpp:38] Opened lmdb /home/mohanty/data/final_dataset/lmdb/segmented-80-20/test_db
I0403 13:26:18.548936 11244 data_layer.cpp:41] output data size: 100,3,227,227
I0403 13:26:18.670759 11244 net.cpp:141] Setting up data
I0403 13:26:18.670852 11244 net.cpp:148] Top shape: 100 3 227 227 (15458700)
I0403 13:26:18.670874 11244 net.cpp:148] Top shape: 100 (100)
I0403 13:26:18.670889 11244 net.cpp:156] Memory required for data: 61835200
I0403 13:26:18.670917 11244 layer_factory.hpp:77] Creating layer label_data_1_split
I0403 13:26:18.670943 11244 net.cpp:91] Creating Layer label_data_1_split
I0403 13:26:18.670960 11244 net.cpp:425] label_data_1_split <- label
I0403 13:26:18.670991 11244 net.cpp:399] label_data_1_split -> label_data_1_split_0
I0403 13:26:18.671018 11244 net.cpp:399] label_data_1_split -> label_data_1_split_1
I0403 13:26:18.671041 11244 net.cpp:399] label_data_1_split -> label_data_1_split_2
I0403 13:26:18.671104 11244 net.cpp:141] Setting up label_data_1_split
I0403 13:26:18.671128 11244 net.cpp:148] Top shape: 100 (100)
I0403 13:26:18.671144 11244 net.cpp:148] Top shape: 100 (100)
I0403 13:26:18.671160 11244 net.cpp:148] Top shape: 100 (100)
I0403 13:26:18.671175 11244 net.cpp:156] Memory required for data: 61836400
I0403 13:26:18.671188 11244 layer_factory.hpp:77] Creating layer conv1
I0403 13:26:18.671219 11244 net.cpp:91] Creating Layer conv1
I0403 13:26:18.671238 11244 net.cpp:425] conv1 <- data
I0403 13:26:18.671257 11244 net.cpp:399] conv1 -> conv1
I0403 13:26:18.813176 11244 net.cpp:141] Setting up conv1
I0403 13:26:18.813254 11244 net.cpp:148] Top shape: 100 96 55 55 (29040000)
I0403 13:26:18.813272 11244 net.cpp:156] Memory required for data: 177996400
I0403 13:26:18.813303 11244 layer_factory.hpp:77] Creating layer relu1
I0403 13:26:18.813330 11244 net.cpp:91] Creating Layer relu1
I0403 13:26:18.813349 11244 net.cpp:425] relu1 <- conv1
I0403 13:26:18.813365 11244 net.cpp:386] relu1 -> conv1 (in-place)
I0403 13:26:18.813629 11244 net.cpp:141] Setting up relu1
I0403 13:26:18.813655 11244 net.cpp:148] Top shape: 100 96 55 55 (29040000)
I0403 13:26:18.813710 11244 net.cpp:156] Memory required for data: 294156400
I0403 13:26:18.813727 11244 layer_factory.hpp:77] Creating layer norm1
I0403 13:26:18.813753 11244 net.cpp:91] Creating Layer norm1
I0403 13:26:18.813771 11244 net.cpp:425] norm1 <- conv1
I0403 13:26:18.813788 11244 net.cpp:399] norm1 -> norm1
I0403 13:26:18.814098 11244 net.cpp:141] Setting up norm1
I0403 13:26:18.814126 11244 net.cpp:148] Top shape: 100 96 55 55 (29040000)
I0403 13:26:18.814142 11244 net.cpp:156] Memory required for data: 410316400
I0403 13:26:18.814157 11244 layer_factory.hpp:77] Creating layer pool1
I0403 13:26:18.814179 11244 net.cpp:91] Creating Layer pool1
I0403 13:26:18.814196 11244 net.cpp:425] pool1 <- norm1
I0403 13:26:18.814213 11244 net.cpp:399] pool1 -> pool1
I0403 13:26:18.814280 11244 net.cpp:141] Setting up pool1
I0403 13:26:18.814304 11244 net.cpp:148] Top shape: 100 96 27 27 (6998400)
I0403 13:26:18.814319 11244 net.cpp:156] Memory required for data: 438310000
I0403 13:26:18.814334 11244 layer_factory.hpp:77] Creating layer conv2
I0403 13:26:18.814359 11244 net.cpp:91] Creating Layer conv2
I0403 13:26:18.814375 11244 net.cpp:425] conv2 <- pool1
I0403 13:26:18.814394 11244 net.cpp:399] conv2 -> conv2
I0403 13:26:18.829996 11244 net.cpp:141] Setting up conv2
I0403 13:26:18.830054 11244 net.cpp:148] Top shape: 100 256 27 27 (18662400)
I0403 13:26:18.830071 11244 net.cpp:156] Memory required for data: 512959600
I0403 13:26:18.830096 11244 layer_factory.hpp:77] Creating layer relu2
I0403 13:26:18.830152 11244 net.cpp:91] Creating Layer relu2
I0403 13:26:18.830174 11244 net.cpp:425] relu2 <- conv2
I0403 13:26:18.830194 11244 net.cpp:386] relu2 -> conv2 (in-place)
I0403 13:26:18.830476 11244 net.cpp:141] Setting up relu2
I0403 13:26:18.830503 11244 net.cpp:148] Top shape: 100 256 27 27 (18662400)
I0403 13:26:18.830519 11244 net.cpp:156] Memory required for data: 587609200
I0403 13:26:18.830535 11244 layer_factory.hpp:77] Creating layer norm2
I0403 13:26:18.830564 11244 net.cpp:91] Creating Layer norm2
I0403 13:26:18.830581 11244 net.cpp:425] norm2 <- conv2
I0403 13:26:18.830600 11244 net.cpp:399] norm2 -> norm2
I0403 13:26:18.830792 11244 net.cpp:141] Setting up norm2
I0403 13:26:18.830818 11244 net.cpp:148] Top shape: 100 256 27 27 (18662400)
I0403 13:26:18.830834 11244 net.cpp:156] Memory required for data: 662258800
I0403 13:26:18.830849 11244 layer_factory.hpp:77] Creating layer pool2
I0403 13:26:18.830868 11244 net.cpp:91] Creating Layer pool2
I0403 13:26:18.830883 11244 net.cpp:425] pool2 <- norm2
I0403 13:26:18.830901 11244 net.cpp:399] pool2 -> pool2
I0403 13:26:18.830955 11244 net.cpp:141] Setting up pool2
I0403 13:26:18.830978 11244 net.cpp:148] Top shape: 100 256 13 13 (4326400)
I0403 13:26:18.830993 11244 net.cpp:156] Memory required for data: 679564400
I0403 13:26:18.831008 11244 layer_factory.hpp:77] Creating layer conv3
I0403 13:26:18.831032 11244 net.cpp:91] Creating Layer conv3
I0403 13:26:18.831048 11244 net.cpp:425] conv3 <- pool2
I0403 13:26:18.831066 11244 net.cpp:399] conv3 -> conv3
I0403 13:26:18.871093 11244 net.cpp:141] Setting up conv3
I0403 13:26:18.871168 11244 net.cpp:148] Top shape: 100 384 13 13 (6489600)
I0403 13:26:18.871186 11244 net.cpp:156] Memory required for data: 705522800
I0403 13:26:18.871212 11244 layer_factory.hpp:77] Creating layer relu3
I0403 13:26:18.871237 11244 net.cpp:91] Creating Layer relu3
I0403 13:26:18.871254 11244 net.cpp:425] relu3 <- conv3
I0403 13:26:18.871275 11244 net.cpp:386] relu3 -> conv3 (in-place)
I0403 13:26:18.871558 11244 net.cpp:141] Setting up relu3
I0403 13:26:18.871587 11244 net.cpp:148] Top shape: 100 384 13 13 (6489600)
I0403 13:26:18.871601 11244 net.cpp:156] Memory required for data: 731481200
I0403 13:26:18.871616 11244 layer_factory.hpp:77] Creating layer conv4
I0403 13:26:18.871641 11244 net.cpp:91] Creating Layer conv4
I0403 13:26:18.871659 11244 net.cpp:425] conv4 <- conv3
I0403 13:26:18.871678 11244 net.cpp:399] conv4 -> conv4
I0403 13:26:18.903041 11244 net.cpp:141] Setting up conv4
I0403 13:26:18.903112 11244 net.cpp:148] Top shape: 100 384 13 13 (6489600)
I0403 13:26:18.903172 11244 net.cpp:156] Memory required for data: 757439600
I0403 13:26:18.903194 11244 layer_factory.hpp:77] Creating layer relu4
I0403 13:26:18.903218 11244 net.cpp:91] Creating Layer relu4
I0403 13:26:18.903234 11244 net.cpp:425] relu4 <- conv4
I0403 13:26:18.903254 11244 net.cpp:386] relu4 -> conv4 (in-place)
I0403 13:26:18.903556 11244 net.cpp:141] Setting up relu4
I0403 13:26:18.903584 11244 net.cpp:148] Top shape: 100 384 13 13 (6489600)
I0403 13:26:18.903599 11244 net.cpp:156] Memory required for data: 783398000
I0403 13:26:18.903614 11244 layer_factory.hpp:77] Creating layer conv5
I0403 13:26:18.903674 11244 net.cpp:91] Creating Layer conv5
I0403 13:26:18.903697 11244 net.cpp:425] conv5 <- conv4
I0403 13:26:18.903720 11244 net.cpp:399] conv5 -> conv5
I0403 13:26:18.925256 11244 net.cpp:141] Setting up conv5
I0403 13:26:18.925297 11244 net.cpp:148] Top shape: 100 256 13 13 (4326400)
I0403 13:26:18.925312 11244 net.cpp:156] Memory required for data: 800703600
I0403 13:26:18.925338 11244 layer_factory.hpp:77] Creating layer relu5
I0403 13:26:18.925359 11244 net.cpp:91] Creating Layer relu5
I0403 13:26:18.925375 11244 net.cpp:425] relu5 <- conv5
I0403 13:26:18.925397 11244 net.cpp:386] relu5 -> conv5 (in-place)
I0403 13:26:18.925704 11244 net.cpp:141] Setting up relu5
I0403 13:26:18.925731 11244 net.cpp:148] Top shape: 100 256 13 13 (4326400)
I0403 13:26:18.925746 11244 net.cpp:156] Memory required for data: 818009200
I0403 13:26:18.925761 11244 layer_factory.hpp:77] Creating layer pool5
I0403 13:26:18.925786 11244 net.cpp:91] Creating Layer pool5
I0403 13:26:18.925803 11244 net.cpp:425] pool5 <- conv5
I0403 13:26:18.925822 11244 net.cpp:399] pool5 -> pool5
I0403 13:26:18.925897 11244 net.cpp:141] Setting up pool5
I0403 13:26:18.925921 11244 net.cpp:148] Top shape: 100 256 6 6 (921600)
I0403 13:26:18.925936 11244 net.cpp:156] Memory required for data: 821695600
I0403 13:26:18.925951 11244 layer_factory.hpp:77] Creating layer fc6
I0403 13:26:18.925979 11244 net.cpp:91] Creating Layer fc6
I0403 13:26:18.925997 11244 net.cpp:425] fc6 <- pool5
I0403 13:26:18.926014 11244 net.cpp:399] fc6 -> fc6
I0403 13:26:20.543043 11244 net.cpp:141] Setting up fc6
I0403 13:26:20.543123 11244 net.cpp:148] Top shape: 100 4096 (409600)
I0403 13:26:20.543138 11244 net.cpp:156] Memory required for data: 823334000
I0403 13:26:20.543159 11244 layer_factory.hpp:77] Creating layer relu6
I0403 13:26:20.543180 11244 net.cpp:91] Creating Layer relu6
I0403 13:26:20.543197 11244 net.cpp:425] relu6 <- fc6
I0403 13:26:20.543218 11244 net.cpp:386] relu6 -> fc6 (in-place)
I0403 13:26:20.543447 11244 net.cpp:141] Setting up relu6
I0403 13:26:20.543470 11244 net.cpp:148] Top shape: 100 4096 (409600)
I0403 13:26:20.543484 11244 net.cpp:156] Memory required for data: 824972400
I0403 13:26:20.543498 11244 layer_factory.hpp:77] Creating layer drop6
I0403 13:26:20.543514 11244 net.cpp:91] Creating Layer drop6
I0403 13:26:20.543529 11244 net.cpp:425] drop6 <- fc6
I0403 13:26:20.543551 11244 net.cpp:386] drop6 -> fc6 (in-place)
I0403 13:26:20.543613 11244 net.cpp:141] Setting up drop6
I0403 13:26:20.543637 11244 net.cpp:148] Top shape: 100 4096 (409600)
I0403 13:26:20.543651 11244 net.cpp:156] Memory required for data: 826610800
I0403 13:26:20.543664 11244 layer_factory.hpp:77] Creating layer fc7
I0403 13:26:20.543683 11244 net.cpp:91] Creating Layer fc7
I0403 13:26:20.543697 11244 net.cpp:425] fc7 <- fc6
I0403 13:26:20.543715 11244 net.cpp:399] fc7 -> fc7
I0403 13:26:22.834496 11244 net.cpp:141] Setting up fc7
I0403 13:26:22.834590 11244 net.cpp:148] Top shape: 100 4096 (409600)
I0403 13:26:22.834609 11244 net.cpp:156] Memory required for data: 828249200
I0403 13:26:22.834630 11244 layer_factory.hpp:77] Creating layer relu7
I0403 13:26:22.834652 11244 net.cpp:91] Creating Layer relu7
I0403 13:26:22.834673 11244 net.cpp:425] relu7 <- fc7
I0403 13:26:22.834692 11244 net.cpp:386] relu7 -> fc7 (in-place)
I0403 13:26:22.835078 11244 net.cpp:141] Setting up relu7
I0403 13:26:22.835105 11244 net.cpp:148] Top shape: 100 4096 (409600)
I0403 13:26:22.835158 11244 net.cpp:156] Memory required for data: 829887600
I0403 13:26:22.835175 11244 layer_factory.hpp:77] Creating layer drop7
I0403 13:26:22.835192 11244 net.cpp:91] Creating Layer drop7
I0403 13:26:22.835208 11244 net.cpp:425] drop7 <- fc7
I0403 13:26:22.835227 11244 net.cpp:386] drop7 -> fc7 (in-place)
I0403 13:26:22.835270 11244 net.cpp:141] Setting up drop7
I0403 13:26:22.835295 11244 net.cpp:148] Top shape: 100 4096 (409600)
I0403 13:26:22.835310 11244 net.cpp:156] Memory required for data: 831526000
I0403 13:26:22.835325 11244 layer_factory.hpp:77] Creating layer fc8_plantvillage
I0403 13:26:22.835345 11244 net.cpp:91] Creating Layer fc8_plantvillage
I0403 13:26:22.835358 11244 net.cpp:425] fc8_plantvillage <- fc7
I0403 13:26:22.835379 11244 net.cpp:399] fc8_plantvillage -> fc8_plantvillage
I0403 13:26:22.842084 11244 net.cpp:141] Setting up fc8_plantvillage
I0403 13:26:22.842114 11244 net.cpp:148] Top shape: 100 38 (3800)
I0403 13:26:22.842131 11244 net.cpp:156] Memory required for data: 831541200
I0403 13:26:22.842149 11244 layer_factory.hpp:77] Creating layer fc8_plantvillage_fc8_plantvillage_0_split
I0403 13:26:22.842169 11244 net.cpp:91] Creating Layer fc8_plantvillage_fc8_plantvillage_0_split
I0403 13:26:22.842185 11244 net.cpp:425] fc8_plantvillage_fc8_plantvillage_0_split <- fc8_plantvillage
I0403 13:26:22.842203 11244 net.cpp:399] fc8_plantvillage_fc8_plantvillage_0_split -> fc8_plantvillage_fc8_plantvillage_0_split_0
I0403 13:26:22.842223 11244 net.cpp:399] fc8_plantvillage_fc8_plantvillage_0_split -> fc8_plantvillage_fc8_plantvillage_0_split_1
I0403 13:26:22.842243 11244 net.cpp:399] fc8_plantvillage_fc8_plantvillage_0_split -> fc8_plantvillage_fc8_plantvillage_0_split_2
I0403 13:26:22.842319 11244 net.cpp:141] Setting up fc8_plantvillage_fc8_plantvillage_0_split
I0403 13:26:22.842344 11244 net.cpp:148] Top shape: 100 38 (3800)
I0403 13:26:22.842360 11244 net.cpp:148] Top shape: 100 38 (3800)
I0403 13:26:22.842375 11244 net.cpp:148] Top shape: 100 38 (3800)
I0403 13:26:22.842387 11244 net.cpp:156] Memory required for data: 831586800
I0403 13:26:22.842401 11244 layer_factory.hpp:77] Creating layer prob
I0403 13:26:22.842419 11244 net.cpp:91] Creating Layer prob
I0403 13:26:22.842434 11244 net.cpp:425] prob <- fc8_plantvillage_fc8_plantvillage_0_split_0
I0403 13:26:22.842453 11244 net.cpp:399] prob -> prob
I0403 13:26:22.842687 11244 net.cpp:141] Setting up prob
I0403 13:26:22.842712 11244 net.cpp:148] Top shape: 100 38 (3800)
I0403 13:26:22.842727 11244 net.cpp:156] Memory required for data: 831602000
I0403 13:26:22.842741 11244 layer_factory.hpp:77] Creating layer hdf5out
I0403 13:26:22.842759 11244 net.cpp:91] Creating Layer hdf5out
I0403 13:26:22.842777 11244 net.cpp:425] hdf5out <- prob
I0403 13:26:22.842793 11244 net.cpp:425] hdf5out <- label_data_1_split_0
I0403 13:26:22.845521 11244 net.cpp:141] Setting up hdf5out
…
