…
I0403 13:28:25.278329 11325 net.cpp:313] The NetState phase (1) differed from the phase (0) specified by a rule in layer data
I0403 13:28:25.278648 11325 net.cpp:49] Initializing net from parameters: 
state {
  phase: TEST
}
layer {
  name: "data"
  type: "Data"
  top: "data"
  top: "label"
  include {
    phase: TEST
  }
  transform_param {
    crop_size: 227
    mean_file: "/home/mohanty/data/final_dataset/lmdb/segmented-80-20/mean.binaryproto"
  }
  data_param {
    source: "/home/mohanty/data/final_dataset/lmdb/segmented-80-20/test_db"
    batch_size: 100
    backend: LMDB
  }
}
layer {
  name: "conv1"
  type: "Convolution"
  bottom: "data"
  top: "conv1"
  param {
    lr_mult: 1
    decay_mult: 1
  }
  param {
    lr_mult: 2
    decay_mult: 0
  }
  convolution_param {
    num_output: 96
    kernel_size: 11
    stride: 4
    weight_filler {
      type: "gaussian"
      std: 0.01
    }
    bias_filler {
      type: "constant"
      value: 0
    }
  }
}
layer {
  name: "relu1"
  type: "ReLU"
  bottom: "conv1"
  top: "conv1"
}
layer {
  name: "norm1"
  type: "LRN"
  bottom: "conv1"
  top: "norm1"
  lrn_param {
    local_size: 5
    alpha: 0.0001
    beta: 0.75
  }
}
layer {
  name: "pool1"
  type: "Pooling"
  bottom: "norm1"
  top: "pool1"
  pooling_param {
    pool: MAX
    kernel_size: 3
    stride: 2
  }
}
layer {
  name: "conv2"
  type: "Convolution"
  bottom: "pool1"
  top: "conv2"
  param {
    lr_mult: 1
    decay_mult: 1
  }
  param {
    lr_mult: 2
    decay_mult: 0
  }
  convolution_param {
    num_output: 256
    pad: 2
    kernel_size: 5
    group: 2
    weight_filler {
      type: "gaussian"
      std: 0.01
    }
    bias_filler {
      type: "constant"
      value: 0.1
    }
  }
}
layer {
  name: "relu2"
  type: "ReLU"
  bottom: "conv2"
  top: "conv2"
}
layer {
  name: "norm2"
  type: "LRN"
  bottom: "conv2"
  top: "norm2"
  lrn_param {
    local_size: 5
    alpha: 0.0001
    beta: 0.75
  }
}
layer {
  name: "pool2"
  type: "Pooling"
  bottom: "norm2"
  top: "pool2"
  pooling_param {
    pool: MAX
    kernel_size: 3
    stride: 2
  }
}
layer {
  name: "conv3"
  type: "Convolution"
  bottom: "pool2"
  top: "conv3"
  param {
    lr_mult: 1
    decay_mult: 1
  }
  param {
    lr_mult: 2
    decay_mult: 0
  }
  convolution_param {
    num_output: 384
    pad: 1
    kernel_size: 3
    weight_filler {
      type: "gaussian"
      std: 0.01
    }
    bias_filler {
      type: "constant"
      value: 0
    }
  }
}
layer {
  name: "relu3"
  type: "ReLU"
  bottom: "conv3"
  top: "conv3"
}
layer {
  name: "conv4"
  type: "Convolution"
  bottom: "conv3"
  top: "conv4"
  param {
    lr_mult: 1
    decay_mult: 1
  }
  param {
    lr_mult: 2
    decay_mult: 0
  }
  convolution_param {
    num_output: 384
    pad: 1
    kernel_size: 3
    group: 2
    weight_filler {
      type: "gaussian"
      std: 0.01
    }
    bias_filler {
      type: "constant"
      value: 0.1
    }
  }
}
layer {
  name: "relu4"
  type: "ReLU"
  bottom: "conv4"
  top: "conv4"
}
layer {
  name: "conv5"
  type: "Convolution"
  bottom: "conv4"
  top: "conv5"
  param {
    lr_mult: 1
    decay_mult: 1
  }
  param {
    lr_mult: 2
    decay_mult: 0
  }
  convolution_param {
    num_output: 256
    pad: 1
    kernel_size: 3
    group: 2
    weight_filler {
      type: "gaussian"
      std: 0.01
    }
    bias_filler {
      type: "constant"
      value: 0.1
    }
  }
}
layer {
  name: "relu5"
  type: "ReLU"
  bottom: "conv5"
  top: "conv5"
}
layer {
  name: "pool5"
  type: "Pooling"
  bottom: "conv5"
  top: "pool5"
  pooling_param {
    pool: MAX
    kernel_size: 3
    stride: 2
  }
}
layer {
  name: "fc6"
  type: "InnerProduct"
  bottom: "pool5"
  top: "fc6"
  param {
    lr_mult: 1
    decay_mult: 1
  }
  param {
    lr_mult: 2
    decay_mult: 0
  }
  inner_product_param {
    num_output: 4096
    weight_filler {
      type: "gaussian"
      std: 0.005
    }
    bias_filler {
      type: "constant"
      value: 0.1
    }
  }
}
layer {
  name: "relu6"
  type: "ReLU"
  bottom: "fc6"
  top: "fc6"
}
layer {
  name: "drop6"
  type: "Dropout"
  bottom: "fc6"
  top: "fc6"
  dropout_param {
    dropout_ratio: 0.5
  }
}
layer {
  name: "fc7"
  type: "InnerProduct"
  bottom: "fc6"
  top: "fc7"
  param {
    lr_mult: 1
    decay_mult: 1
  }
  param {
    lr_mult: 2
    decay_mult: 0
  }
  inner_product_param {
    num_output: 4096
    weight_filler {
      type: "gaussian"
      std: 0.005
    }
    bias_filler {
      type: "constant"
      value: 0.1
    }
  }
}
layer {
  name: "relu7"
  type: "ReLU"
  bottom: "fc7"
  top: "fc7"
}
layer {
  name: "drop7"
  type: "Dropout"
  bottom: "fc7"
  top: "fc7"
  dropout_param {
    dropout_ratio: 0.5
  }
}
layer {
  name: "fc8_plantvillage"
  type: "InnerProduct"
  bottom: "fc7"
  top: "fc8_plantvillage"
  param {
    lr_mult: 1
    decay_mult: 1
  }
  param {
    lr_mult: 2
    decay_mult: 0
  }
  inner_product_param {
    num_output: 38
    weight_filler {
      type: "gaussian"
      std: 0.01
    }
    bias_filler {
      type: "constant"
      value: 0
    }
  }
}
layer {
  name: "prob"
  type: "Softmax"
  bottom: "fc8_plantvillage"
  top: "prob"
  include {
    phase: TEST
  }
}
layer {
  name: "hdf5out"
  type: "HDF5Output"
  bottom: "prob"
  bottom: "label"
  include {
    phase: TEST
  }
  hdf5_output_param {
    file_name: "hdf5_dumps/iter_10875.h5"
  }
}
layer {
  name: "loss"
  type: "SoftmaxWithLoss"
  bottom: "fc8_plantvillage"
  bottom: "label"
  top: "loss"
}
layer {
  name: "accuracy"
  type: "Accuracy"
  bottom: "fc8_plantvillage"
  bottom: "label"
  top: "accuracy"
  include {
    phase: TEST
  }
}
I0403 13:28:25.279219 11325 layer_factory.hpp:77] Creating layer data
I0403 13:28:25.279865 11325 net.cpp:91] Creating Layer data
I0403 13:28:25.279897 11325 net.cpp:399] data -> data
I0403 13:28:25.279948 11325 net.cpp:399] data -> label
I0403 13:28:25.279984 11325 data_transformer.cpp:25] Loading mean file from: /home/mohanty/data/final_dataset/lmdb/segmented-80-20/mean.binaryproto
I0403 13:28:25.283083 11328 db_lmdb.cpp:38] Opened lmdb /home/mohanty/data/final_dataset/lmdb/segmented-80-20/test_db
I0403 13:28:25.294417 11325 data_layer.cpp:41] output data size: 100,3,227,227
I0403 13:28:25.414065 11325 net.cpp:141] Setting up data
I0403 13:28:25.414124 11325 net.cpp:148] Top shape: 100 3 227 227 (15458700)
I0403 13:28:25.414146 11325 net.cpp:148] Top shape: 100 (100)
I0403 13:28:25.414162 11325 net.cpp:156] Memory required for data: 61835200
I0403 13:28:25.414189 11325 layer_factory.hpp:77] Creating layer label_data_1_split
I0403 13:28:25.414225 11325 net.cpp:91] Creating Layer label_data_1_split
I0403 13:28:25.414242 11325 net.cpp:425] label_data_1_split <- label
I0403 13:28:25.414274 11325 net.cpp:399] label_data_1_split -> label_data_1_split_0
I0403 13:28:25.414300 11325 net.cpp:399] label_data_1_split -> label_data_1_split_1
I0403 13:28:25.414319 11325 net.cpp:399] label_data_1_split -> label_data_1_split_2
I0403 13:28:25.414379 11325 net.cpp:141] Setting up label_data_1_split
I0403 13:28:25.414402 11325 net.cpp:148] Top shape: 100 (100)
I0403 13:28:25.414419 11325 net.cpp:148] Top shape: 100 (100)
I0403 13:28:25.414434 11325 net.cpp:148] Top shape: 100 (100)
I0403 13:28:25.414448 11325 net.cpp:156] Memory required for data: 61836400
I0403 13:28:25.414463 11325 layer_factory.hpp:77] Creating layer conv1
I0403 13:28:25.414494 11325 net.cpp:91] Creating Layer conv1
I0403 13:28:25.414512 11325 net.cpp:425] conv1 <- data
I0403 13:28:25.414531 11325 net.cpp:399] conv1 -> conv1
I0403 13:28:25.555529 11325 net.cpp:141] Setting up conv1
I0403 13:28:25.555611 11325 net.cpp:148] Top shape: 100 96 55 55 (29040000)
I0403 13:28:25.555629 11325 net.cpp:156] Memory required for data: 177996400
I0403 13:28:25.555661 11325 layer_factory.hpp:77] Creating layer relu1
I0403 13:28:25.555691 11325 net.cpp:91] Creating Layer relu1
I0403 13:28:25.555709 11325 net.cpp:425] relu1 <- conv1
I0403 13:28:25.555729 11325 net.cpp:386] relu1 -> conv1 (in-place)
I0403 13:28:25.555996 11325 net.cpp:141] Setting up relu1
I0403 13:28:25.556025 11325 net.cpp:148] Top shape: 100 96 55 55 (29040000)
I0403 13:28:25.556077 11325 net.cpp:156] Memory required for data: 294156400
I0403 13:28:25.556095 11325 layer_factory.hpp:77] Creating layer norm1
I0403 13:28:25.556124 11325 net.cpp:91] Creating Layer norm1
I0403 13:28:25.556143 11325 net.cpp:425] norm1 <- conv1
I0403 13:28:25.556162 11325 net.cpp:399] norm1 -> norm1
I0403 13:28:25.556489 11325 net.cpp:141] Setting up norm1
I0403 13:28:25.556519 11325 net.cpp:148] Top shape: 100 96 55 55 (29040000)
I0403 13:28:25.556535 11325 net.cpp:156] Memory required for data: 410316400
I0403 13:28:25.556557 11325 layer_factory.hpp:77] Creating layer pool1
I0403 13:28:25.556581 11325 net.cpp:91] Creating Layer pool1
I0403 13:28:25.556627 11325 net.cpp:425] pool1 <- norm1
I0403 13:28:25.556651 11325 net.cpp:399] pool1 -> pool1
I0403 13:28:25.556722 11325 net.cpp:141] Setting up pool1
I0403 13:28:25.556747 11325 net.cpp:148] Top shape: 100 96 27 27 (6998400)
I0403 13:28:25.556763 11325 net.cpp:156] Memory required for data: 438310000
I0403 13:28:25.556779 11325 layer_factory.hpp:77] Creating layer conv2
I0403 13:28:25.556804 11325 net.cpp:91] Creating Layer conv2
I0403 13:28:25.556821 11325 net.cpp:425] conv2 <- pool1
I0403 13:28:25.556840 11325 net.cpp:399] conv2 -> conv2
I0403 13:28:25.572666 11325 net.cpp:141] Setting up conv2
I0403 13:28:25.572703 11325 net.cpp:148] Top shape: 100 256 27 27 (18662400)
I0403 13:28:25.572721 11325 net.cpp:156] Memory required for data: 512959600
I0403 13:28:25.572746 11325 layer_factory.hpp:77] Creating layer relu2
I0403 13:28:25.572767 11325 net.cpp:91] Creating Layer relu2
I0403 13:28:25.572785 11325 net.cpp:425] relu2 <- conv2
I0403 13:28:25.572803 11325 net.cpp:386] relu2 -> conv2 (in-place)
I0403 13:28:25.573086 11325 net.cpp:141] Setting up relu2
I0403 13:28:25.573113 11325 net.cpp:148] Top shape: 100 256 27 27 (18662400)
I0403 13:28:25.573129 11325 net.cpp:156] Memory required for data: 587609200
I0403 13:28:25.573145 11325 layer_factory.hpp:77] Creating layer norm2
I0403 13:28:25.573169 11325 net.cpp:91] Creating Layer norm2
I0403 13:28:25.573186 11325 net.cpp:425] norm2 <- conv2
I0403 13:28:25.573205 11325 net.cpp:399] norm2 -> norm2
I0403 13:28:25.573400 11325 net.cpp:141] Setting up norm2
I0403 13:28:25.573427 11325 net.cpp:148] Top shape: 100 256 27 27 (18662400)
I0403 13:28:25.573443 11325 net.cpp:156] Memory required for data: 662258800
I0403 13:28:25.573459 11325 layer_factory.hpp:77] Creating layer pool2
I0403 13:28:25.573477 11325 net.cpp:91] Creating Layer pool2
I0403 13:28:25.573494 11325 net.cpp:425] pool2 <- norm2
I0403 13:28:25.573513 11325 net.cpp:399] pool2 -> pool2
I0403 13:28:25.573592 11325 net.cpp:141] Setting up pool2
I0403 13:28:25.573618 11325 net.cpp:148] Top shape: 100 256 13 13 (4326400)
I0403 13:28:25.573637 11325 net.cpp:156] Memory required for data: 679564400
I0403 13:28:25.573652 11325 layer_factory.hpp:77] Creating layer conv3
I0403 13:28:25.573675 11325 net.cpp:91] Creating Layer conv3
I0403 13:28:25.573693 11325 net.cpp:425] conv3 <- pool2
I0403 13:28:25.573711 11325 net.cpp:399] conv3 -> conv3
I0403 13:28:25.614251 11325 net.cpp:141] Setting up conv3
I0403 13:28:25.614329 11325 net.cpp:148] Top shape: 100 384 13 13 (6489600)
I0403 13:28:25.614348 11325 net.cpp:156] Memory required for data: 705522800
I0403 13:28:25.614375 11325 layer_factory.hpp:77] Creating layer relu3
I0403 13:28:25.614399 11325 net.cpp:91] Creating Layer relu3
I0403 13:28:25.614418 11325 net.cpp:425] relu3 <- conv3
I0403 13:28:25.614439 11325 net.cpp:386] relu3 -> conv3 (in-place)
I0403 13:28:25.614737 11325 net.cpp:141] Setting up relu3
I0403 13:28:25.614768 11325 net.cpp:148] Top shape: 100 384 13 13 (6489600)
I0403 13:28:25.614786 11325 net.cpp:156] Memory required for data: 731481200
I0403 13:28:25.614801 11325 layer_factory.hpp:77] Creating layer conv4
I0403 13:28:25.614830 11325 net.cpp:91] Creating Layer conv4
I0403 13:28:25.614847 11325 net.cpp:425] conv4 <- conv3
I0403 13:28:25.614900 11325 net.cpp:399] conv4 -> conv4
I0403 13:28:25.646576 11325 net.cpp:141] Setting up conv4
I0403 13:28:25.646646 11325 net.cpp:148] Top shape: 100 384 13 13 (6489600)
I0403 13:28:25.646697 11325 net.cpp:156] Memory required for data: 757439600
I0403 13:28:25.646720 11325 layer_factory.hpp:77] Creating layer relu4
I0403 13:28:25.646747 11325 net.cpp:91] Creating Layer relu4
I0403 13:28:25.646766 11325 net.cpp:425] relu4 <- conv4
I0403 13:28:25.646786 11325 net.cpp:386] relu4 -> conv4 (in-place)
I0403 13:28:25.647111 11325 net.cpp:141] Setting up relu4
I0403 13:28:25.647140 11325 net.cpp:148] Top shape: 100 384 13 13 (6489600)
I0403 13:28:25.647156 11325 net.cpp:156] Memory required for data: 783398000
I0403 13:28:25.647171 11325 layer_factory.hpp:77] Creating layer conv5
I0403 13:28:25.647197 11325 net.cpp:91] Creating Layer conv5
I0403 13:28:25.647215 11325 net.cpp:425] conv5 <- conv4
I0403 13:28:25.647236 11325 net.cpp:399] conv5 -> conv5
I0403 13:28:25.668982 11325 net.cpp:141] Setting up conv5
I0403 13:28:25.669031 11325 net.cpp:148] Top shape: 100 256 13 13 (4326400)
I0403 13:28:25.669049 11325 net.cpp:156] Memory required for data: 800703600
I0403 13:28:25.669075 11325 layer_factory.hpp:77] Creating layer relu5
I0403 13:28:25.669101 11325 net.cpp:91] Creating Layer relu5
I0403 13:28:25.669121 11325 net.cpp:425] relu5 <- conv5
I0403 13:28:25.669140 11325 net.cpp:386] relu5 -> conv5 (in-place)
I0403 13:28:25.669425 11325 net.cpp:141] Setting up relu5
I0403 13:28:25.669456 11325 net.cpp:148] Top shape: 100 256 13 13 (4326400)
I0403 13:28:25.669472 11325 net.cpp:156] Memory required for data: 818009200
I0403 13:28:25.669487 11325 layer_factory.hpp:77] Creating layer pool5
I0403 13:28:25.669510 11325 net.cpp:91] Creating Layer pool5
I0403 13:28:25.669528 11325 net.cpp:425] pool5 <- conv5
I0403 13:28:25.669555 11325 net.cpp:399] pool5 -> pool5
I0403 13:28:25.669654 11325 net.cpp:141] Setting up pool5
I0403 13:28:25.669682 11325 net.cpp:148] Top shape: 100 256 6 6 (921600)
I0403 13:28:25.669698 11325 net.cpp:156] Memory required for data: 821695600
I0403 13:28:25.669713 11325 layer_factory.hpp:77] Creating layer fc6
I0403 13:28:25.669740 11325 net.cpp:91] Creating Layer fc6
I0403 13:28:25.669759 11325 net.cpp:425] fc6 <- pool5
I0403 13:28:25.669780 11325 net.cpp:399] fc6 -> fc6
I0403 13:28:27.245466 11325 net.cpp:141] Setting up fc6
I0403 13:28:27.245546 11325 net.cpp:148] Top shape: 100 4096 (409600)
I0403 13:28:27.245564 11325 net.cpp:156] Memory required for data: 823334000
I0403 13:28:27.245585 11325 layer_factory.hpp:77] Creating layer relu6
I0403 13:28:27.245610 11325 net.cpp:91] Creating Layer relu6
I0403 13:28:27.245630 11325 net.cpp:425] relu6 <- fc6
I0403 13:28:27.245648 11325 net.cpp:386] relu6 -> fc6 (in-place)
I0403 13:28:27.245870 11325 net.cpp:141] Setting up relu6
I0403 13:28:27.245899 11325 net.cpp:148] Top shape: 100 4096 (409600)
I0403 13:28:27.245915 11325 net.cpp:156] Memory required for data: 824972400
I0403 13:28:27.245929 11325 layer_factory.hpp:77] Creating layer drop6
I0403 13:28:27.245947 11325 net.cpp:91] Creating Layer drop6
I0403 13:28:27.245962 11325 net.cpp:425] drop6 <- fc6
I0403 13:28:27.245978 11325 net.cpp:386] drop6 -> fc6 (in-place)
I0403 13:28:27.246029 11325 net.cpp:141] Setting up drop6
I0403 13:28:27.246052 11325 net.cpp:148] Top shape: 100 4096 (409600)
I0403 13:28:27.246067 11325 net.cpp:156] Memory required for data: 826610800
I0403 13:28:27.246080 11325 layer_factory.hpp:77] Creating layer fc7
I0403 13:28:27.246105 11325 net.cpp:91] Creating Layer fc7
I0403 13:28:27.246122 11325 net.cpp:425] fc7 <- fc6
I0403 13:28:27.246140 11325 net.cpp:399] fc7 -> fc7
I0403 13:28:29.831667 11325 net.cpp:141] Setting up fc7
I0403 13:28:29.831750 11325 net.cpp:148] Top shape: 100 4096 (409600)
I0403 13:28:29.831768 11325 net.cpp:156] Memory required for data: 828249200
I0403 13:28:29.831791 11325 layer_factory.hpp:77] Creating layer relu7
I0403 13:28:29.831815 11325 net.cpp:91] Creating Layer relu7
I0403 13:28:29.831831 11325 net.cpp:425] relu7 <- fc7
I0403 13:28:29.831851 11325 net.cpp:386] relu7 -> fc7 (in-place)
I0403 13:28:29.832243 11325 net.cpp:141] Setting up relu7
I0403 13:28:29.832274 11325 net.cpp:148] Top shape: 100 4096 (409600)
I0403 13:28:29.832326 11325 net.cpp:156] Memory required for data: 829887600
I0403 13:28:29.832345 11325 layer_factory.hpp:77] Creating layer drop7
I0403 13:28:29.832365 11325 net.cpp:91] Creating Layer drop7
I0403 13:28:29.832381 11325 net.cpp:425] drop7 <- fc7
I0403 13:28:29.832398 11325 net.cpp:386] drop7 -> fc7 (in-place)
I0403 13:28:29.832444 11325 net.cpp:141] Setting up drop7
I0403 13:28:29.832468 11325 net.cpp:148] Top shape: 100 4096 (409600)
I0403 13:28:29.832484 11325 net.cpp:156] Memory required for data: 831526000
I0403 13:28:29.832499 11325 layer_factory.hpp:77] Creating layer fc8_plantvillage
I0403 13:28:29.832525 11325 net.cpp:91] Creating Layer fc8_plantvillage
I0403 13:28:29.832546 11325 net.cpp:425] fc8_plantvillage <- fc7
I0403 13:28:29.832567 11325 net.cpp:399] fc8_plantvillage -> fc8_plantvillage
I0403 13:28:29.839484 11325 net.cpp:141] Setting up fc8_plantvillage
I0403 13:28:29.839514 11325 net.cpp:148] Top shape: 100 38 (3800)
I0403 13:28:29.839530 11325 net.cpp:156] Memory required for data: 831541200
I0403 13:28:29.839555 11325 layer_factory.hpp:77] Creating layer fc8_plantvillage_fc8_plantvillage_0_split
I0403 13:28:29.839577 11325 net.cpp:91] Creating Layer fc8_plantvillage_fc8_plantvillage_0_split
I0403 13:28:29.839594 11325 net.cpp:425] fc8_plantvillage_fc8_plantvillage_0_split <- fc8_plantvillage
I0403 13:28:29.839615 11325 net.cpp:399] fc8_plantvillage_fc8_plantvillage_0_split -> fc8_plantvillage_fc8_plantvillage_0_split_0
I0403 13:28:29.839637 11325 net.cpp:399] fc8_plantvillage_fc8_plantvillage_0_split -> fc8_plantvillage_fc8_plantvillage_0_split_1
I0403 13:28:29.839655 11325 net.cpp:399] fc8_plantvillage_fc8_plantvillage_0_split -> fc8_plantvillage_fc8_plantvillage_0_split_2
I0403 13:28:29.839732 11325 net.cpp:141] Setting up fc8_plantvillage_fc8_plantvillage_0_split
I0403 13:28:29.839757 11325 net.cpp:148] Top shape: 100 38 (3800)
I0403 13:28:29.839774 11325 net.cpp:148] Top shape: 100 38 (3800)
I0403 13:28:29.839792 11325 net.cpp:148] Top shape: 100 38 (3800)
I0403 13:28:29.839807 11325 net.cpp:156] Memory required for data: 831586800
I0403 13:28:29.839821 11325 layer_factory.hpp:77] Creating layer prob
I0403 13:28:29.839841 11325 net.cpp:91] Creating Layer prob
I0403 13:28:29.839859 11325 net.cpp:425] prob <- fc8_plantvillage_fc8_plantvillage_0_split_0
I0403 13:28:29.839877 11325 net.cpp:399] prob -> prob
I0403 13:28:29.840109 11325 net.cpp:141] Setting up prob
I0403 13:28:29.840138 11325 net.cpp:148] Top shape: 100 38 (3800)
I0403 13:28:29.840155 11325 net.cpp:156] Memory required for data: 831602000
I0403 13:28:29.840172 11325 layer_factory.hpp:77] Creating layer hdf5out
I0403 13:28:29.840190 11325 net.cpp:91] Creating Layer hdf5out
I0403 13:28:29.840206 11325 net.cpp:425] hdf5out <- prob
I0403 13:28:29.840222 11325 net.cpp:425] hdf5out <- label_data_1_split_0
I0403 13:28:29.842422 11325 net.cpp:141] Setting up hdf5out
…
