…
I0403 13:24:08.116940 11164 net.cpp:313] The NetState phase (1) differed from the phase (0) specified by a rule in layer data
I0403 13:24:08.117235 11164 net.cpp:49] Initializing net from parameters: 
state {
  phase: TEST
}
layer {
  name: "data"
  type: "Data"
  top: "data"
  top: "label"
  include {
    phase: TEST
  }
  transform_param {
    crop_size: 227
    mean_file: "/home/mohanty/data/final_dataset/lmdb/segmented-80-20/mean.binaryproto"
  }
  data_param {
    source: "/home/mohanty/data/final_dataset/lmdb/segmented-80-20/test_db"
    batch_size: 100
    backend: LMDB
  }
}
layer {
  name: "conv1"
  type: "Convolution"
  bottom: "data"
  top: "conv1"
  param {
    lr_mult: 1
    decay_mult: 1
  }
  param {
    lr_mult: 2
    decay_mult: 0
  }
  convolution_param {
    num_output: 96
    kernel_size: 11
    stride: 4
    weight_filler {
      type: "gaussian"
      std: 0.01
    }
    bias_filler {
      type: "constant"
      value: 0
    }
  }
}
layer {
  name: "relu1"
  type: "ReLU"
  bottom: "conv1"
  top: "conv1"
}
layer {
  name: "norm1"
  type: "LRN"
  bottom: "conv1"
  top: "norm1"
  lrn_param {
    local_size: 5
    alpha: 0.0001
    beta: 0.75
  }
}
layer {
  name: "pool1"
  type: "Pooling"
  bottom: "norm1"
  top: "pool1"
  pooling_param {
    pool: MAX
    kernel_size: 3
    stride: 2
  }
}
layer {
  name: "conv2"
  type: "Convolution"
  bottom: "pool1"
  top: "conv2"
  param {
    lr_mult: 1
    decay_mult: 1
  }
  param {
    lr_mult: 2
    decay_mult: 0
  }
  convolution_param {
    num_output: 256
    pad: 2
    kernel_size: 5
    group: 2
    weight_filler {
      type: "gaussian"
      std: 0.01
    }
    bias_filler {
      type: "constant"
      value: 0.1
    }
  }
}
layer {
  name: "relu2"
  type: "ReLU"
  bottom: "conv2"
  top: "conv2"
}
layer {
  name: "norm2"
  type: "LRN"
  bottom: "conv2"
  top: "norm2"
  lrn_param {
    local_size: 5
    alpha: 0.0001
    beta: 0.75
  }
}
layer {
  name: "pool2"
  type: "Pooling"
  bottom: "norm2"
  top: "pool2"
  pooling_param {
    pool: MAX
    kernel_size: 3
    stride: 2
  }
}
layer {
  name: "conv3"
  type: "Convolution"
  bottom: "pool2"
  top: "conv3"
  param {
    lr_mult: 1
    decay_mult: 1
  }
  param {
    lr_mult: 2
    decay_mult: 0
  }
  convolution_param {
    num_output: 384
    pad: 1
    kernel_size: 3
    weight_filler {
      type: "gaussian"
      std: 0.01
    }
    bias_filler {
      type: "constant"
      value: 0
    }
  }
}
layer {
  name: "relu3"
  type: "ReLU"
  bottom: "conv3"
  top: "conv3"
}
layer {
  name: "conv4"
  type: "Convolution"
  bottom: "conv3"
  top: "conv4"
  param {
    lr_mult: 1
    decay_mult: 1
  }
  param {
    lr_mult: 2
    decay_mult: 0
  }
  convolution_param {
    num_output: 384
    pad: 1
    kernel_size: 3
    group: 2
    weight_filler {
      type: "gaussian"
      std: 0.01
    }
    bias_filler {
      type: "constant"
      value: 0.1
    }
  }
}
layer {
  name: "relu4"
  type: "ReLU"
  bottom: "conv4"
  top: "conv4"
}
layer {
  name: "conv5"
  type: "Convolution"
  bottom: "conv4"
  top: "conv5"
  param {
    lr_mult: 1
    decay_mult: 1
  }
  param {
    lr_mult: 2
    decay_mult: 0
  }
  convolution_param {
    num_output: 256
    pad: 1
    kernel_size: 3
    group: 2
    weight_filler {
      type: "gaussian"
      std: 0.01
    }
    bias_filler {
      type: "constant"
      value: 0.1
    }
  }
}
layer {
  name: "relu5"
  type: "ReLU"
  bottom: "conv5"
  top: "conv5"
}
layer {
  name: "pool5"
  type: "Pooling"
  bottom: "conv5"
  top: "pool5"
  pooling_param {
    pool: MAX
    kernel_size: 3
    stride: 2
  }
}
layer {
  name: "fc6"
  type: "InnerProduct"
  bottom: "pool5"
  top: "fc6"
  param {
    lr_mult: 1
    decay_mult: 1
  }
  param {
    lr_mult: 2
    decay_mult: 0
  }
  inner_product_param {
    num_output: 4096
    weight_filler {
      type: "gaussian"
      std: 0.005
    }
    bias_filler {
      type: "constant"
      value: 0.1
    }
  }
}
layer {
  name: "relu6"
  type: "ReLU"
  bottom: "fc6"
  top: "fc6"
}
layer {
  name: "drop6"
  type: "Dropout"
  bottom: "fc6"
  top: "fc6"
  dropout_param {
    dropout_ratio: 0.5
  }
}
layer {
  name: "fc7"
  type: "InnerProduct"
  bottom: "fc6"
  top: "fc7"
  param {
    lr_mult: 1
    decay_mult: 1
  }
  param {
    lr_mult: 2
    decay_mult: 0
  }
  inner_product_param {
    num_output: 4096
    weight_filler {
      type: "gaussian"
      std: 0.005
    }
    bias_filler {
      type: "constant"
      value: 0.1
    }
  }
}
layer {
  name: "relu7"
  type: "ReLU"
  bottom: "fc7"
  top: "fc7"
}
layer {
  name: "drop7"
  type: "Dropout"
  bottom: "fc7"
  top: "fc7"
  dropout_param {
    dropout_ratio: 0.5
  }
}
layer {
  name: "fc8_plantvillage"
  type: "InnerProduct"
  bottom: "fc7"
  top: "fc8_plantvillage"
  param {
    lr_mult: 1
    decay_mult: 1
  }
  param {
    lr_mult: 2
    decay_mult: 0
  }
  inner_product_param {
    num_output: 38
    weight_filler {
      type: "gaussian"
      std: 0.01
    }
    bias_filler {
      type: "constant"
      value: 0
    }
  }
}
layer {
  name: "prob"
  type: "Softmax"
  bottom: "fc8_plantvillage"
  top: "prob"
  include {
    phase: TEST
  }
}
layer {
  name: "hdf5out"
  type: "HDF5Output"
  bottom: "prob"
  bottom: "label"
  include {
    phase: TEST
  }
  hdf5_output_param {
    file_name: "hdf5_dumps/iter_6525.h5"
  }
}
layer {
  name: "loss"
  type: "SoftmaxWithLoss"
  bottom: "fc8_plantvillage"
  bottom: "label"
  top: "loss"
}
layer {
  name: "accuracy"
  type: "Accuracy"
  bottom: "fc8_plantvillage"
  bottom: "label"
  top: "accuracy"
  include {
    phase: TEST
  }
}
I0403 13:24:08.117781 11164 layer_factory.hpp:77] Creating layer data
I0403 13:24:08.118404 11164 net.cpp:91] Creating Layer data
I0403 13:24:08.118437 11164 net.cpp:399] data -> data
I0403 13:24:08.118485 11164 net.cpp:399] data -> label
I0403 13:24:08.118525 11164 data_transformer.cpp:25] Loading mean file from: /home/mohanty/data/final_dataset/lmdb/segmented-80-20/mean.binaryproto
I0403 13:24:08.121623 11167 db_lmdb.cpp:38] Opened lmdb /home/mohanty/data/final_dataset/lmdb/segmented-80-20/test_db
I0403 13:24:08.132977 11164 data_layer.cpp:41] output data size: 100,3,227,227
I0403 13:24:08.345887 11164 net.cpp:141] Setting up data
I0403 13:24:08.345957 11164 net.cpp:148] Top shape: 100 3 227 227 (15458700)
I0403 13:24:08.345978 11164 net.cpp:148] Top shape: 100 (100)
I0403 13:24:08.345993 11164 net.cpp:156] Memory required for data: 61835200
I0403 13:24:08.346017 11164 layer_factory.hpp:77] Creating layer label_data_1_split
I0403 13:24:08.346042 11164 net.cpp:91] Creating Layer label_data_1_split
I0403 13:24:08.346060 11164 net.cpp:425] label_data_1_split <- label
I0403 13:24:08.346087 11164 net.cpp:399] label_data_1_split -> label_data_1_split_0
I0403 13:24:08.346113 11164 net.cpp:399] label_data_1_split -> label_data_1_split_1
I0403 13:24:08.346134 11164 net.cpp:399] label_data_1_split -> label_data_1_split_2
I0403 13:24:08.346201 11164 net.cpp:141] Setting up label_data_1_split
I0403 13:24:08.346223 11164 net.cpp:148] Top shape: 100 (100)
I0403 13:24:08.346240 11164 net.cpp:148] Top shape: 100 (100)
I0403 13:24:08.346256 11164 net.cpp:148] Top shape: 100 (100)
I0403 13:24:08.346268 11164 net.cpp:156] Memory required for data: 61836400
I0403 13:24:08.346282 11164 layer_factory.hpp:77] Creating layer conv1
I0403 13:24:08.346314 11164 net.cpp:91] Creating Layer conv1
I0403 13:24:08.346333 11164 net.cpp:425] conv1 <- data
I0403 13:24:08.346351 11164 net.cpp:399] conv1 -> conv1
I0403 13:24:10.556918 11164 net.cpp:141] Setting up conv1
I0403 13:24:10.557065 11164 net.cpp:148] Top shape: 100 96 55 55 (29040000)
I0403 13:24:10.557082 11164 net.cpp:156] Memory required for data: 177996400
I0403 13:24:10.557116 11164 layer_factory.hpp:77] Creating layer relu1
I0403 13:24:10.557147 11164 net.cpp:91] Creating Layer relu1
I0403 13:24:10.557164 11164 net.cpp:425] relu1 <- conv1
I0403 13:24:10.557184 11164 net.cpp:386] relu1 -> conv1 (in-place)
I0403 13:24:10.557590 11164 net.cpp:141] Setting up relu1
I0403 13:24:10.557617 11164 net.cpp:148] Top shape: 100 96 55 55 (29040000)
I0403 13:24:10.557675 11164 net.cpp:156] Memory required for data: 294156400
I0403 13:24:10.557692 11164 layer_factory.hpp:77] Creating layer norm1
I0403 13:24:10.557719 11164 net.cpp:91] Creating Layer norm1
I0403 13:24:10.557737 11164 net.cpp:425] norm1 <- conv1
I0403 13:24:10.557756 11164 net.cpp:399] norm1 -> norm1
I0403 13:24:10.558156 11164 net.cpp:141] Setting up norm1
I0403 13:24:10.558184 11164 net.cpp:148] Top shape: 100 96 55 55 (29040000)
I0403 13:24:10.558200 11164 net.cpp:156] Memory required for data: 410316400
I0403 13:24:10.558215 11164 layer_factory.hpp:77] Creating layer pool1
I0403 13:24:10.558238 11164 net.cpp:91] Creating Layer pool1
I0403 13:24:10.558255 11164 net.cpp:425] pool1 <- norm1
I0403 13:24:10.558274 11164 net.cpp:399] pool1 -> pool1
I0403 13:24:10.558344 11164 net.cpp:141] Setting up pool1
I0403 13:24:10.558368 11164 net.cpp:148] Top shape: 100 96 27 27 (6998400)
I0403 13:24:10.558383 11164 net.cpp:156] Memory required for data: 438310000
I0403 13:24:10.558398 11164 layer_factory.hpp:77] Creating layer conv2
I0403 13:24:10.558423 11164 net.cpp:91] Creating Layer conv2
I0403 13:24:10.558439 11164 net.cpp:425] conv2 <- pool1
I0403 13:24:10.558457 11164 net.cpp:399] conv2 -> conv2
I0403 13:24:10.591446 11164 net.cpp:141] Setting up conv2
I0403 13:24:10.591550 11164 net.cpp:148] Top shape: 100 256 27 27 (18662400)
I0403 13:24:10.591569 11164 net.cpp:156] Memory required for data: 512959600
I0403 13:24:10.591598 11164 layer_factory.hpp:77] Creating layer relu2
I0403 13:24:10.591622 11164 net.cpp:91] Creating Layer relu2
I0403 13:24:10.591639 11164 net.cpp:425] relu2 <- conv2
I0403 13:24:10.591660 11164 net.cpp:386] relu2 -> conv2 (in-place)
I0403 13:24:10.592123 11164 net.cpp:141] Setting up relu2
I0403 13:24:10.592150 11164 net.cpp:148] Top shape: 100 256 27 27 (18662400)
I0403 13:24:10.592206 11164 net.cpp:156] Memory required for data: 587609200
I0403 13:24:10.592231 11164 layer_factory.hpp:77] Creating layer norm2
I0403 13:24:10.592254 11164 net.cpp:91] Creating Layer norm2
I0403 13:24:10.592270 11164 net.cpp:425] norm2 <- conv2
I0403 13:24:10.592289 11164 net.cpp:399] norm2 -> norm2
I0403 13:24:10.592491 11164 net.cpp:141] Setting up norm2
I0403 13:24:10.592522 11164 net.cpp:148] Top shape: 100 256 27 27 (18662400)
I0403 13:24:10.592540 11164 net.cpp:156] Memory required for data: 662258800
I0403 13:24:10.592555 11164 layer_factory.hpp:77] Creating layer pool2
I0403 13:24:10.592572 11164 net.cpp:91] Creating Layer pool2
I0403 13:24:10.592588 11164 net.cpp:425] pool2 <- norm2
I0403 13:24:10.592618 11164 net.cpp:399] pool2 -> pool2
I0403 13:24:10.592671 11164 net.cpp:141] Setting up pool2
I0403 13:24:10.592695 11164 net.cpp:148] Top shape: 100 256 13 13 (4326400)
I0403 13:24:10.592710 11164 net.cpp:156] Memory required for data: 679564400
I0403 13:24:10.592725 11164 layer_factory.hpp:77] Creating layer conv3
I0403 13:24:10.592749 11164 net.cpp:91] Creating Layer conv3
I0403 13:24:10.592767 11164 net.cpp:425] conv3 <- pool2
I0403 13:24:10.592785 11164 net.cpp:399] conv3 -> conv3
I0403 13:24:10.647460 11164 net.cpp:141] Setting up conv3
I0403 13:24:10.647539 11164 net.cpp:148] Top shape: 100 384 13 13 (6489600)
I0403 13:24:10.647557 11164 net.cpp:156] Memory required for data: 705522800
I0403 13:24:10.647584 11164 layer_factory.hpp:77] Creating layer relu3
I0403 13:24:10.647608 11164 net.cpp:91] Creating Layer relu3
I0403 13:24:10.647624 11164 net.cpp:425] relu3 <- conv3
I0403 13:24:10.647645 11164 net.cpp:386] relu3 -> conv3 (in-place)
I0403 13:24:10.647918 11164 net.cpp:141] Setting up relu3
I0403 13:24:10.647945 11164 net.cpp:148] Top shape: 100 384 13 13 (6489600)
I0403 13:24:10.647961 11164 net.cpp:156] Memory required for data: 731481200
I0403 13:24:10.647977 11164 layer_factory.hpp:77] Creating layer conv4
I0403 13:24:10.648002 11164 net.cpp:91] Creating Layer conv4
I0403 13:24:10.648018 11164 net.cpp:425] conv4 <- conv3
I0403 13:24:10.648036 11164 net.cpp:399] conv4 -> conv4
I0403 13:24:10.679343 11164 net.cpp:141] Setting up conv4
I0403 13:24:10.679419 11164 net.cpp:148] Top shape: 100 384 13 13 (6489600)
I0403 13:24:10.679476 11164 net.cpp:156] Memory required for data: 757439600
I0403 13:24:10.679498 11164 layer_factory.hpp:77] Creating layer relu4
I0403 13:24:10.679527 11164 net.cpp:91] Creating Layer relu4
I0403 13:24:10.679545 11164 net.cpp:425] relu4 <- conv4
I0403 13:24:10.679566 11164 net.cpp:386] relu4 -> conv4 (in-place)
I0403 13:24:10.679847 11164 net.cpp:141] Setting up relu4
I0403 13:24:10.679873 11164 net.cpp:148] Top shape: 100 384 13 13 (6489600)
I0403 13:24:10.679888 11164 net.cpp:156] Memory required for data: 783398000
I0403 13:24:10.679903 11164 layer_factory.hpp:77] Creating layer conv5
I0403 13:24:10.679929 11164 net.cpp:91] Creating Layer conv5
I0403 13:24:10.679946 11164 net.cpp:425] conv5 <- conv4
I0403 13:24:10.679967 11164 net.cpp:399] conv5 -> conv5
I0403 13:24:10.701416 11164 net.cpp:141] Setting up conv5
I0403 13:24:10.701485 11164 net.cpp:148] Top shape: 100 256 13 13 (4326400)
I0403 13:24:10.701501 11164 net.cpp:156] Memory required for data: 800703600
I0403 13:24:10.701541 11164 layer_factory.hpp:77] Creating layer relu5
I0403 13:24:10.701567 11164 net.cpp:91] Creating Layer relu5
I0403 13:24:10.701584 11164 net.cpp:425] relu5 <- conv5
I0403 13:24:10.701603 11164 net.cpp:386] relu5 -> conv5 (in-place)
I0403 13:24:10.701884 11164 net.cpp:141] Setting up relu5
I0403 13:24:10.701910 11164 net.cpp:148] Top shape: 100 256 13 13 (4326400)
I0403 13:24:10.701926 11164 net.cpp:156] Memory required for data: 818009200
I0403 13:24:10.701941 11164 layer_factory.hpp:77] Creating layer pool5
I0403 13:24:10.701963 11164 net.cpp:91] Creating Layer pool5
I0403 13:24:10.701979 11164 net.cpp:425] pool5 <- conv5
I0403 13:24:10.701997 11164 net.cpp:399] pool5 -> pool5
I0403 13:24:10.702057 11164 net.cpp:141] Setting up pool5
I0403 13:24:10.702080 11164 net.cpp:148] Top shape: 100 256 6 6 (921600)
I0403 13:24:10.702095 11164 net.cpp:156] Memory required for data: 821695600
I0403 13:24:10.702108 11164 layer_factory.hpp:77] Creating layer fc6
I0403 13:24:10.702136 11164 net.cpp:91] Creating Layer fc6
I0403 13:24:10.702152 11164 net.cpp:425] fc6 <- pool5
I0403 13:24:10.702172 11164 net.cpp:399] fc6 -> fc6
I0403 13:24:12.233160 11164 net.cpp:141] Setting up fc6
I0403 13:24:12.233237 11164 net.cpp:148] Top shape: 100 4096 (409600)
I0403 13:24:12.233252 11164 net.cpp:156] Memory required for data: 823334000
I0403 13:24:12.233273 11164 layer_factory.hpp:77] Creating layer relu6
I0403 13:24:12.233294 11164 net.cpp:91] Creating Layer relu6
I0403 13:24:12.233309 11164 net.cpp:425] relu6 <- fc6
I0403 13:24:12.233328 11164 net.cpp:386] relu6 -> fc6 (in-place)
I0403 13:24:12.233559 11164 net.cpp:141] Setting up relu6
I0403 13:24:12.233583 11164 net.cpp:148] Top shape: 100 4096 (409600)
I0403 13:24:12.233597 11164 net.cpp:156] Memory required for data: 824972400
I0403 13:24:12.233621 11164 layer_factory.hpp:77] Creating layer drop6
I0403 13:24:12.233639 11164 net.cpp:91] Creating Layer drop6
I0403 13:24:12.233652 11164 net.cpp:425] drop6 <- fc6
I0403 13:24:12.233670 11164 net.cpp:386] drop6 -> fc6 (in-place)
I0403 13:24:12.233721 11164 net.cpp:141] Setting up drop6
I0403 13:24:12.233747 11164 net.cpp:148] Top shape: 100 4096 (409600)
I0403 13:24:12.233762 11164 net.cpp:156] Memory required for data: 826610800
I0403 13:24:12.233775 11164 layer_factory.hpp:77] Creating layer fc7
I0403 13:24:12.233794 11164 net.cpp:91] Creating Layer fc7
I0403 13:24:12.233808 11164 net.cpp:425] fc7 <- fc6
I0403 13:24:12.233827 11164 net.cpp:399] fc7 -> fc7
I0403 13:24:12.909983 11164 net.cpp:141] Setting up fc7
I0403 13:24:12.910063 11164 net.cpp:148] Top shape: 100 4096 (409600)
I0403 13:24:12.910078 11164 net.cpp:156] Memory required for data: 828249200
I0403 13:24:12.910099 11164 layer_factory.hpp:77] Creating layer relu7
I0403 13:24:12.910120 11164 net.cpp:91] Creating Layer relu7
I0403 13:24:12.910136 11164 net.cpp:425] relu7 <- fc7
I0403 13:24:12.910157 11164 net.cpp:386] relu7 -> fc7 (in-place)
I0403 13:24:12.910560 11164 net.cpp:141] Setting up relu7
I0403 13:24:12.910585 11164 net.cpp:148] Top shape: 100 4096 (409600)
I0403 13:24:12.910635 11164 net.cpp:156] Memory required for data: 829887600
I0403 13:24:12.910651 11164 layer_factory.hpp:77] Creating layer drop7
I0403 13:24:12.910670 11164 net.cpp:91] Creating Layer drop7
I0403 13:24:12.910683 11164 net.cpp:425] drop7 <- fc7
I0403 13:24:12.910703 11164 net.cpp:386] drop7 -> fc7 (in-place)
I0403 13:24:12.910748 11164 net.cpp:141] Setting up drop7
I0403 13:24:12.910771 11164 net.cpp:148] Top shape: 100 4096 (409600)
I0403 13:24:12.910785 11164 net.cpp:156] Memory required for data: 831526000
I0403 13:24:12.910799 11164 layer_factory.hpp:77] Creating layer fc8_plantvillage
I0403 13:24:12.910818 11164 net.cpp:91] Creating Layer fc8_plantvillage
I0403 13:24:12.910832 11164 net.cpp:425] fc8_plantvillage <- fc7
I0403 13:24:12.910851 11164 net.cpp:399] fc8_plantvillage -> fc8_plantvillage
I0403 13:24:12.917399 11164 net.cpp:141] Setting up fc8_plantvillage
I0403 13:24:12.917426 11164 net.cpp:148] Top shape: 100 38 (3800)
I0403 13:24:12.917441 11164 net.cpp:156] Memory required for data: 831541200
I0403 13:24:12.917459 11164 layer_factory.hpp:77] Creating layer fc8_plantvillage_fc8_plantvillage_0_split
I0403 13:24:12.917479 11164 net.cpp:91] Creating Layer fc8_plantvillage_fc8_plantvillage_0_split
I0403 13:24:12.917493 11164 net.cpp:425] fc8_plantvillage_fc8_plantvillage_0_split <- fc8_plantvillage
I0403 13:24:12.917515 11164 net.cpp:399] fc8_plantvillage_fc8_plantvillage_0_split -> fc8_plantvillage_fc8_plantvillage_0_split_0
I0403 13:24:12.917536 11164 net.cpp:399] fc8_plantvillage_fc8_plantvillage_0_split -> fc8_plantvillage_fc8_plantvillage_0_split_1
I0403 13:24:12.917554 11164 net.cpp:399] fc8_plantvillage_fc8_plantvillage_0_split -> fc8_plantvillage_fc8_plantvillage_0_split_2
I0403 13:24:12.917631 11164 net.cpp:141] Setting up fc8_plantvillage_fc8_plantvillage_0_split
I0403 13:24:12.917654 11164 net.cpp:148] Top shape: 100 38 (3800)
I0403 13:24:12.917668 11164 net.cpp:148] Top shape: 100 38 (3800)
I0403 13:24:12.917682 11164 net.cpp:148] Top shape: 100 38 (3800)
I0403 13:24:12.917695 11164 net.cpp:156] Memory required for data: 831586800
I0403 13:24:12.917709 11164 layer_factory.hpp:77] Creating layer prob
I0403 13:24:12.917726 11164 net.cpp:91] Creating Layer prob
I0403 13:24:12.917740 11164 net.cpp:425] prob <- fc8_plantvillage_fc8_plantvillage_0_split_0
I0403 13:24:12.917758 11164 net.cpp:399] prob -> prob
I0403 13:24:12.917974 11164 net.cpp:141] Setting up prob
I0403 13:24:12.917999 11164 net.cpp:148] Top shape: 100 38 (3800)
I0403 13:24:12.918012 11164 net.cpp:156] Memory required for data: 831602000
I0403 13:24:12.918026 11164 layer_factory.hpp:77] Creating layer hdf5out
I0403 13:24:12.918043 11164 net.cpp:91] Creating Layer hdf5out
I0403 13:24:12.918058 11164 net.cpp:425] hdf5out <- prob
I0403 13:24:12.918072 11164 net.cpp:425] hdf5out <- label_data_1_split_0
I0403 13:24:12.920585 11164 net.cpp:141] Setting up hdf5out
…
