…
I0403 13:22:09.115561 10983 net.cpp:313] The NetState phase (1) differed from the phase (0) specified by a rule in layer data
I0403 13:22:09.115936 10983 net.cpp:49] Initializing net from parameters: 
state {
  phase: TEST
}
layer {
  name: "data"
  type: "Data"
  top: "data"
  top: "label"
  include {
    phase: TEST
  }
  transform_param {
    crop_size: 227
    mean_file: "/home/mohanty/data/final_dataset/lmdb/segmented-80-20/mean.binaryproto"
  }
  data_param {
    source: "/home/mohanty/data/final_dataset/lmdb/segmented-80-20/test_db"
    batch_size: 100
    backend: LMDB
  }
}
layer {
  name: "conv1"
  type: "Convolution"
  bottom: "data"
  top: "conv1"
  param {
    lr_mult: 1
    decay_mult: 1
  }
  param {
    lr_mult: 2
    decay_mult: 0
  }
  convolution_param {
    num_output: 96
    kernel_size: 11
    stride: 4
    weight_filler {
      type: "gaussian"
      std: 0.01
    }
    bias_filler {
      type: "constant"
      value: 0
    }
  }
}
layer {
  name: "relu1"
  type: "ReLU"
  bottom: "conv1"
  top: "conv1"
}
layer {
  name: "norm1"
  type: "LRN"
  bottom: "conv1"
  top: "norm1"
  lrn_param {
    local_size: 5
    alpha: 0.0001
    beta: 0.75
  }
}
layer {
  name: "pool1"
  type: "Pooling"
  bottom: "norm1"
  top: "pool1"
  pooling_param {
    pool: MAX
    kernel_size: 3
    stride: 2
  }
}
layer {
  name: "conv2"
  type: "Convolution"
  bottom: "pool1"
  top: "conv2"
  param {
    lr_mult: 1
    decay_mult: 1
  }
  param {
    lr_mult: 2
    decay_mult: 0
  }
  convolution_param {
    num_output: 256
    pad: 2
    kernel_size: 5
    group: 2
    weight_filler {
      type: "gaussian"
      std: 0.01
    }
    bias_filler {
      type: "constant"
      value: 0.1
    }
  }
}
layer {
  name: "relu2"
  type: "ReLU"
  bottom: "conv2"
  top: "conv2"
}
layer {
  name: "norm2"
  type: "LRN"
  bottom: "conv2"
  top: "norm2"
  lrn_param {
    local_size: 5
    alpha: 0.0001
    beta: 0.75
  }
}
layer {
  name: "pool2"
  type: "Pooling"
  bottom: "norm2"
  top: "pool2"
  pooling_param {
    pool: MAX
    kernel_size: 3
    stride: 2
  }
}
layer {
  name: "conv3"
  type: "Convolution"
  bottom: "pool2"
  top: "conv3"
  param {
    lr_mult: 1
    decay_mult: 1
  }
  param {
    lr_mult: 2
    decay_mult: 0
  }
  convolution_param {
    num_output: 384
    pad: 1
    kernel_size: 3
    weight_filler {
      type: "gaussian"
      std: 0.01
    }
    bias_filler {
      type: "constant"
      value: 0
    }
  }
}
layer {
  name: "relu3"
  type: "ReLU"
  bottom: "conv3"
  top: "conv3"
}
layer {
  name: "conv4"
  type: "Convolution"
  bottom: "conv3"
  top: "conv4"
  param {
    lr_mult: 1
    decay_mult: 1
  }
  param {
    lr_mult: 2
    decay_mult: 0
  }
  convolution_param {
    num_output: 384
    pad: 1
    kernel_size: 3
    group: 2
    weight_filler {
      type: "gaussian"
      std: 0.01
    }
    bias_filler {
      type: "constant"
      value: 0.1
    }
  }
}
layer {
  name: "relu4"
  type: "ReLU"
  bottom: "conv4"
  top: "conv4"
}
layer {
  name: "conv5"
  type: "Convolution"
  bottom: "conv4"
  top: "conv5"
  param {
    lr_mult: 1
    decay_mult: 1
  }
  param {
    lr_mult: 2
    decay_mult: 0
  }
  convolution_param {
    num_output: 256
    pad: 1
    kernel_size: 3
    group: 2
    weight_filler {
      type: "gaussian"
      std: 0.01
    }
    bias_filler {
      type: "constant"
      value: 0.1
    }
  }
}
layer {
  name: "relu5"
  type: "ReLU"
  bottom: "conv5"
  top: "conv5"
}
layer {
  name: "pool5"
  type: "Pooling"
  bottom: "conv5"
  top: "pool5"
  pooling_param {
    pool: MAX
    kernel_size: 3
    stride: 2
  }
}
layer {
  name: "fc6"
  type: "InnerProduct"
  bottom: "pool5"
  top: "fc6"
  param {
    lr_mult: 1
    decay_mult: 1
  }
  param {
    lr_mult: 2
    decay_mult: 0
  }
  inner_product_param {
    num_output: 4096
    weight_filler {
      type: "gaussian"
      std: 0.005
    }
    bias_filler {
      type: "constant"
      value: 0.1
    }
  }
}
layer {
  name: "relu6"
  type: "ReLU"
  bottom: "fc6"
  top: "fc6"
}
layer {
  name: "drop6"
  type: "Dropout"
  bottom: "fc6"
  top: "fc6"
  dropout_param {
    dropout_ratio: 0.5
  }
}
layer {
  name: "fc7"
  type: "InnerProduct"
  bottom: "fc6"
  top: "fc7"
  param {
    lr_mult: 1
    decay_mult: 1
  }
  param {
    lr_mult: 2
    decay_mult: 0
  }
  inner_product_param {
    num_output: 4096
    weight_filler {
      type: "gaussian"
      std: 0.005
    }
    bias_filler {
      type: "constant"
      value: 0.1
    }
  }
}
layer {
  name: "relu7"
  type: "ReLU"
  bottom: "fc7"
  top: "fc7"
}
layer {
  name: "drop7"
  type: "Dropout"
  bottom: "fc7"
  top: "fc7"
  dropout_param {
    dropout_ratio: 0.5
  }
}
layer {
  name: "fc8_plantvillage"
  type: "InnerProduct"
  bottom: "fc7"
  top: "fc8_plantvillage"
  param {
    lr_mult: 1
    decay_mult: 1
  }
  param {
    lr_mult: 2
    decay_mult: 0
  }
  inner_product_param {
    num_output: 38
    weight_filler {
      type: "gaussian"
      std: 0.01
    }
    bias_filler {
      type: "constant"
      value: 0
    }
  }
}
layer {
  name: "prob"
  type: "Softmax"
  bottom: "fc8_plantvillage"
  top: "prob"
  include {
    phase: TEST
  }
}
layer {
  name: "hdf5out"
  type: "HDF5Output"
  bottom: "prob"
  bottom: "label"
  include {
    phase: TEST
  }
  hdf5_output_param {
    file_name: "hdf5_dumps/iter_4350.h5"
  }
}
layer {
  name: "loss"
  type: "SoftmaxWithLoss"
  bottom: "fc8_plantvillage"
  bottom: "label"
  top: "loss"
}
layer {
  name: "accuracy"
  type: "Accuracy"
  bottom: "fc8_plantvillage"
  bottom: "label"
  top: "accuracy"
  include {
    phase: TEST
  }
}
I0403 13:22:09.116618 10983 layer_factory.hpp:77] Creating layer data
I0403 13:22:09.117399 10983 net.cpp:91] Creating Layer data
I0403 13:22:09.117437 10983 net.cpp:399] data -> data
I0403 13:22:09.117493 10983 net.cpp:399] data -> label
I0403 13:22:09.117539 10983 data_transformer.cpp:25] Loading mean file from: /home/mohanty/data/final_dataset/lmdb/segmented-80-20/mean.binaryproto
I0403 13:22:09.120802 10988 db_lmdb.cpp:38] Opened lmdb /home/mohanty/data/final_dataset/lmdb/segmented-80-20/test_db
I0403 13:22:09.133877 10983 data_layer.cpp:41] output data size: 100,3,227,227
I0403 13:22:09.268262 10983 net.cpp:141] Setting up data
I0403 13:22:09.268381 10983 net.cpp:148] Top shape: 100 3 227 227 (15458700)
I0403 13:22:09.268407 10983 net.cpp:148] Top shape: 100 (100)
I0403 13:22:09.268425 10983 net.cpp:156] Memory required for data: 61835200
I0403 13:22:09.268457 10983 layer_factory.hpp:77] Creating layer label_data_1_split
I0403 13:22:09.268488 10983 net.cpp:91] Creating Layer label_data_1_split
I0403 13:22:09.268509 10983 net.cpp:425] label_data_1_split <- label
I0403 13:22:09.268553 10983 net.cpp:399] label_data_1_split -> label_data_1_split_0
I0403 13:22:09.268586 10983 net.cpp:399] label_data_1_split -> label_data_1_split_1
I0403 13:22:09.268610 10983 net.cpp:399] label_data_1_split -> label_data_1_split_2
I0403 13:22:09.268694 10983 net.cpp:141] Setting up label_data_1_split
I0403 13:22:09.268723 10983 net.cpp:148] Top shape: 100 (100)
I0403 13:22:09.268741 10983 net.cpp:148] Top shape: 100 (100)
I0403 13:22:09.268760 10983 net.cpp:148] Top shape: 100 (100)
I0403 13:22:09.268776 10983 net.cpp:156] Memory required for data: 61836400
I0403 13:22:09.268792 10983 layer_factory.hpp:77] Creating layer conv1
I0403 13:22:09.268831 10983 net.cpp:91] Creating Layer conv1
I0403 13:22:09.268852 10983 net.cpp:425] conv1 <- data
I0403 13:22:09.268874 10983 net.cpp:399] conv1 -> conv1
I0403 13:22:09.430487 10983 net.cpp:141] Setting up conv1
I0403 13:22:09.430585 10983 net.cpp:148] Top shape: 100 96 55 55 (29040000)
I0403 13:22:09.430605 10983 net.cpp:156] Memory required for data: 177996400
I0403 13:22:09.430644 10983 layer_factory.hpp:77] Creating layer relu1
I0403 13:22:09.430675 10983 net.cpp:91] Creating Layer relu1
I0403 13:22:09.430698 10983 net.cpp:425] relu1 <- conv1
I0403 13:22:09.430721 10983 net.cpp:386] relu1 -> conv1 (in-place)
I0403 13:22:09.431053 10983 net.cpp:141] Setting up relu1
I0403 13:22:09.431087 10983 net.cpp:148] Top shape: 100 96 55 55 (29040000)
I0403 13:22:09.431150 10983 net.cpp:156] Memory required for data: 294156400
I0403 13:22:09.431169 10983 layer_factory.hpp:77] Creating layer norm1
I0403 13:22:09.431201 10983 net.cpp:91] Creating Layer norm1
I0403 13:22:09.431223 10983 net.cpp:425] norm1 <- conv1
I0403 13:22:09.431246 10983 net.cpp:399] norm1 -> norm1
I0403 13:22:09.431614 10983 net.cpp:141] Setting up norm1
I0403 13:22:09.431648 10983 net.cpp:148] Top shape: 100 96 55 55 (29040000)
I0403 13:22:09.431666 10983 net.cpp:156] Memory required for data: 410316400
I0403 13:22:09.431684 10983 layer_factory.hpp:77] Creating layer pool1
I0403 13:22:09.431710 10983 net.cpp:91] Creating Layer pool1
I0403 13:22:09.431731 10983 net.cpp:425] pool1 <- norm1
I0403 13:22:09.431752 10983 net.cpp:399] pool1 -> pool1
I0403 13:22:09.431833 10983 net.cpp:141] Setting up pool1
I0403 13:22:09.431864 10983 net.cpp:148] Top shape: 100 96 27 27 (6998400)
I0403 13:22:09.431881 10983 net.cpp:156] Memory required for data: 438310000
I0403 13:22:09.431900 10983 layer_factory.hpp:77] Creating layer conv2
I0403 13:22:09.431928 10983 net.cpp:91] Creating Layer conv2
I0403 13:22:09.431948 10983 net.cpp:425] conv2 <- pool1
I0403 13:22:09.431970 10983 net.cpp:399] conv2 -> conv2
I0403 13:22:09.450320 10983 net.cpp:141] Setting up conv2
I0403 13:22:09.450381 10983 net.cpp:148] Top shape: 100 256 27 27 (18662400)
I0403 13:22:09.450402 10983 net.cpp:156] Memory required for data: 512959600
I0403 13:22:09.450428 10983 layer_factory.hpp:77] Creating layer relu2
I0403 13:22:09.450458 10983 net.cpp:91] Creating Layer relu2
I0403 13:22:09.450479 10983 net.cpp:425] relu2 <- conv2
I0403 13:22:09.450500 10983 net.cpp:386] relu2 -> conv2 (in-place)
I0403 13:22:09.450870 10983 net.cpp:141] Setting up relu2
I0403 13:22:09.450906 10983 net.cpp:148] Top shape: 100 256 27 27 (18662400)
I0403 13:22:09.450925 10983 net.cpp:156] Memory required for data: 587609200
I0403 13:22:09.450942 10983 layer_factory.hpp:77] Creating layer norm2
I0403 13:22:09.450968 10983 net.cpp:91] Creating Layer norm2
I0403 13:22:09.450987 10983 net.cpp:425] norm2 <- conv2
I0403 13:22:09.451011 10983 net.cpp:399] norm2 -> norm2
I0403 13:22:09.451251 10983 net.cpp:141] Setting up norm2
I0403 13:22:09.451282 10983 net.cpp:148] Top shape: 100 256 27 27 (18662400)
I0403 13:22:09.451299 10983 net.cpp:156] Memory required for data: 662258800
I0403 13:22:09.451316 10983 layer_factory.hpp:77] Creating layer pool2
I0403 13:22:09.451341 10983 net.cpp:91] Creating Layer pool2
I0403 13:22:09.451361 10983 net.cpp:425] pool2 <- norm2
I0403 13:22:09.451382 10983 net.cpp:399] pool2 -> pool2
I0403 13:22:09.451447 10983 net.cpp:141] Setting up pool2
I0403 13:22:09.451477 10983 net.cpp:148] Top shape: 100 256 13 13 (4326400)
I0403 13:22:09.451494 10983 net.cpp:156] Memory required for data: 679564400
I0403 13:22:09.451511 10983 layer_factory.hpp:77] Creating layer conv3
I0403 13:22:09.451545 10983 net.cpp:91] Creating Layer conv3
I0403 13:22:09.451567 10983 net.cpp:425] conv3 <- pool2
I0403 13:22:09.451592 10983 net.cpp:399] conv3 -> conv3
I0403 13:22:09.497985 10983 net.cpp:141] Setting up conv3
I0403 13:22:09.498066 10983 net.cpp:148] Top shape: 100 384 13 13 (6489600)
I0403 13:22:09.498085 10983 net.cpp:156] Memory required for data: 705522800
I0403 13:22:09.498119 10983 layer_factory.hpp:77] Creating layer relu3
I0403 13:22:09.498147 10983 net.cpp:91] Creating Layer relu3
I0403 13:22:09.498167 10983 net.cpp:425] relu3 <- conv3
I0403 13:22:09.498190 10983 net.cpp:386] relu3 -> conv3 (in-place)
I0403 13:22:09.498524 10983 net.cpp:141] Setting up relu3
I0403 13:22:09.498564 10983 net.cpp:148] Top shape: 100 384 13 13 (6489600)
I0403 13:22:09.498584 10983 net.cpp:156] Memory required for data: 731481200
I0403 13:22:09.498602 10983 layer_factory.hpp:77] Creating layer conv4
I0403 13:22:09.498630 10983 net.cpp:91] Creating Layer conv4
I0403 13:22:09.498651 10983 net.cpp:425] conv4 <- conv3
I0403 13:22:09.498678 10983 net.cpp:399] conv4 -> conv4
I0403 13:22:09.534963 10983 net.cpp:141] Setting up conv4
I0403 13:22:09.535046 10983 net.cpp:148] Top shape: 100 384 13 13 (6489600)
I0403 13:22:09.535109 10983 net.cpp:156] Memory required for data: 757439600
I0403 13:22:09.535135 10983 layer_factory.hpp:77] Creating layer relu4
I0403 13:22:09.535164 10983 net.cpp:91] Creating Layer relu4
I0403 13:22:09.535187 10983 net.cpp:425] relu4 <- conv4
I0403 13:22:09.535209 10983 net.cpp:386] relu4 -> conv4 (in-place)
I0403 13:22:09.535601 10983 net.cpp:141] Setting up relu4
I0403 13:22:09.535634 10983 net.cpp:148] Top shape: 100 384 13 13 (6489600)
I0403 13:22:09.535651 10983 net.cpp:156] Memory required for data: 783398000
I0403 13:22:09.535668 10983 layer_factory.hpp:77] Creating layer conv5
I0403 13:22:09.535701 10983 net.cpp:91] Creating Layer conv5
I0403 13:22:09.535722 10983 net.cpp:425] conv5 <- conv4
I0403 13:22:09.535748 10983 net.cpp:399] conv5 -> conv5
I0403 13:22:09.559224 10983 net.cpp:141] Setting up conv5
I0403 13:22:09.559288 10983 net.cpp:148] Top shape: 100 256 13 13 (4326400)
I0403 13:22:09.559303 10983 net.cpp:156] Memory required for data: 800703600
I0403 13:22:09.559329 10983 layer_factory.hpp:77] Creating layer relu5
I0403 13:22:09.559353 10983 net.cpp:91] Creating Layer relu5
I0403 13:22:09.559372 10983 net.cpp:425] relu5 <- conv5
I0403 13:22:09.559391 10983 net.cpp:386] relu5 -> conv5 (in-place)
I0403 13:22:09.559680 10983 net.cpp:141] Setting up relu5
I0403 13:22:09.559707 10983 net.cpp:148] Top shape: 100 256 13 13 (4326400)
I0403 13:22:09.559722 10983 net.cpp:156] Memory required for data: 818009200
I0403 13:22:09.559737 10983 layer_factory.hpp:77] Creating layer pool5
I0403 13:22:09.559762 10983 net.cpp:91] Creating Layer pool5
I0403 13:22:09.559779 10983 net.cpp:425] pool5 <- conv5
I0403 13:22:09.559800 10983 net.cpp:399] pool5 -> pool5
I0403 13:22:09.559862 10983 net.cpp:141] Setting up pool5
I0403 13:22:09.559886 10983 net.cpp:148] Top shape: 100 256 6 6 (921600)
I0403 13:22:09.559900 10983 net.cpp:156] Memory required for data: 821695600
I0403 13:22:09.559916 10983 layer_factory.hpp:77] Creating layer fc6
I0403 13:22:09.559945 10983 net.cpp:91] Creating Layer fc6
I0403 13:22:09.559964 10983 net.cpp:425] fc6 <- pool5
I0403 13:22:09.559983 10983 net.cpp:399] fc6 -> fc6
I0403 13:22:11.079516 10983 net.cpp:141] Setting up fc6
I0403 13:22:11.079601 10983 net.cpp:148] Top shape: 100 4096 (409600)
I0403 13:22:11.079615 10983 net.cpp:156] Memory required for data: 823334000
I0403 13:22:11.079637 10983 layer_factory.hpp:77] Creating layer relu6
I0403 13:22:11.079658 10983 net.cpp:91] Creating Layer relu6
I0403 13:22:11.079677 10983 net.cpp:425] relu6 <- fc6
I0403 13:22:11.079696 10983 net.cpp:386] relu6 -> fc6 (in-place)
I0403 13:22:11.079919 10983 net.cpp:141] Setting up relu6
I0403 13:22:11.079943 10983 net.cpp:148] Top shape: 100 4096 (409600)
I0403 13:22:11.079957 10983 net.cpp:156] Memory required for data: 824972400
I0403 13:22:11.079972 10983 layer_factory.hpp:77] Creating layer drop6
I0403 13:22:11.079990 10983 net.cpp:91] Creating Layer drop6
I0403 13:22:11.080008 10983 net.cpp:425] drop6 <- fc6
I0403 13:22:11.080023 10983 net.cpp:386] drop6 -> fc6 (in-place)
I0403 13:22:11.080075 10983 net.cpp:141] Setting up drop6
I0403 13:22:11.080097 10983 net.cpp:148] Top shape: 100 4096 (409600)
I0403 13:22:11.080111 10983 net.cpp:156] Memory required for data: 826610800
I0403 13:22:11.080124 10983 layer_factory.hpp:77] Creating layer fc7
I0403 13:22:11.080143 10983 net.cpp:91] Creating Layer fc7
I0403 13:22:11.080158 10983 net.cpp:425] fc7 <- fc6
I0403 13:22:11.080178 10983 net.cpp:399] fc7 -> fc7
I0403 13:22:11.760447 10983 net.cpp:141] Setting up fc7
I0403 13:22:11.760519 10983 net.cpp:148] Top shape: 100 4096 (409600)
I0403 13:22:11.760542 10983 net.cpp:156] Memory required for data: 828249200
I0403 13:22:11.760568 10983 layer_factory.hpp:77] Creating layer relu7
I0403 13:22:11.760592 10983 net.cpp:91] Creating Layer relu7
I0403 13:22:11.760612 10983 net.cpp:425] relu7 <- fc7
I0403 13:22:11.760634 10983 net.cpp:386] relu7 -> fc7 (in-place)
I0403 13:22:11.761076 10983 net.cpp:141] Setting up relu7
I0403 13:22:11.761106 10983 net.cpp:148] Top shape: 100 4096 (409600)
I0403 13:22:11.761158 10983 net.cpp:156] Memory required for data: 829887600
I0403 13:22:11.761180 10983 layer_factory.hpp:77] Creating layer drop7
I0403 13:22:11.761209 10983 net.cpp:91] Creating Layer drop7
I0403 13:22:11.761226 10983 net.cpp:425] drop7 <- fc7
I0403 13:22:11.761247 10983 net.cpp:386] drop7 -> fc7 (in-place)
I0403 13:22:11.761297 10983 net.cpp:141] Setting up drop7
I0403 13:22:11.761322 10983 net.cpp:148] Top shape: 100 4096 (409600)
I0403 13:22:11.761339 10983 net.cpp:156] Memory required for data: 831526000
I0403 13:22:11.761354 10983 layer_factory.hpp:77] Creating layer fc8_plantvillage
I0403 13:22:11.761379 10983 net.cpp:91] Creating Layer fc8_plantvillage
I0403 13:22:11.761396 10983 net.cpp:425] fc8_plantvillage <- fc7
I0403 13:22:11.761416 10983 net.cpp:399] fc8_plantvillage -> fc8_plantvillage
I0403 13:22:11.768606 10983 net.cpp:141] Setting up fc8_plantvillage
I0403 13:22:11.768640 10983 net.cpp:148] Top shape: 100 38 (3800)
I0403 13:22:11.768657 10983 net.cpp:156] Memory required for data: 831541200
I0403 13:22:11.768676 10983 layer_factory.hpp:77] Creating layer fc8_plantvillage_fc8_plantvillage_0_split
I0403 13:22:11.768700 10983 net.cpp:91] Creating Layer fc8_plantvillage_fc8_plantvillage_0_split
I0403 13:22:11.768719 10983 net.cpp:425] fc8_plantvillage_fc8_plantvillage_0_split <- fc8_plantvillage
I0403 13:22:11.768739 10983 net.cpp:399] fc8_plantvillage_fc8_plantvillage_0_split -> fc8_plantvillage_fc8_plantvillage_0_split_0
I0403 13:22:11.768764 10983 net.cpp:399] fc8_plantvillage_fc8_plantvillage_0_split -> fc8_plantvillage_fc8_plantvillage_0_split_1
I0403 13:22:11.768789 10983 net.cpp:399] fc8_plantvillage_fc8_plantvillage_0_split -> fc8_plantvillage_fc8_plantvillage_0_split_2
I0403 13:22:11.768872 10983 net.cpp:141] Setting up fc8_plantvillage_fc8_plantvillage_0_split
I0403 13:22:11.768898 10983 net.cpp:148] Top shape: 100 38 (3800)
I0403 13:22:11.768918 10983 net.cpp:148] Top shape: 100 38 (3800)
I0403 13:22:11.768934 10983 net.cpp:148] Top shape: 100 38 (3800)
I0403 13:22:11.768950 10983 net.cpp:156] Memory required for data: 831586800
I0403 13:22:11.768967 10983 layer_factory.hpp:77] Creating layer prob
I0403 13:22:11.768990 10983 net.cpp:91] Creating Layer prob
I0403 13:22:11.769008 10983 net.cpp:425] prob <- fc8_plantvillage_fc8_plantvillage_0_split_0
I0403 13:22:11.769029 10983 net.cpp:399] prob -> prob
I0403 13:22:11.769273 10983 net.cpp:141] Setting up prob
I0403 13:22:11.769299 10983 net.cpp:148] Top shape: 100 38 (3800)
I0403 13:22:11.769315 10983 net.cpp:156] Memory required for data: 831602000
I0403 13:22:11.769330 10983 layer_factory.hpp:77] Creating layer hdf5out
I0403 13:22:11.769353 10983 net.cpp:91] Creating Layer hdf5out
I0403 13:22:11.769371 10983 net.cpp:425] hdf5out <- prob
I0403 13:22:11.769387 10983 net.cpp:425] hdf5out <- label_data_1_split_0
I0403 13:22:11.771749 10983 net.cpp:141] Setting up hdf5out
…
