…
I0403 13:20:08.246245 10902 net.cpp:313] The NetState phase (1) differed from the phase (0) specified by a rule in layer data
I0403 13:20:08.246570 10902 net.cpp:49] Initializing net from parameters: 
state {
  phase: TEST
}
layer {
  name: "data"
  type: "Data"
  top: "data"
  top: "label"
  include {
    phase: TEST
  }
  transform_param {
    crop_size: 227
    mean_file: "/home/mohanty/data/final_dataset/lmdb/segmented-80-20/mean.binaryproto"
  }
  data_param {
    source: "/home/mohanty/data/final_dataset/lmdb/segmented-80-20/test_db"
    batch_size: 100
    backend: LMDB
  }
}
layer {
  name: "conv1"
  type: "Convolution"
  bottom: "data"
  top: "conv1"
  param {
    lr_mult: 1
    decay_mult: 1
  }
  param {
    lr_mult: 2
    decay_mult: 0
  }
  convolution_param {
    num_output: 96
    kernel_size: 11
    stride: 4
    weight_filler {
      type: "gaussian"
      std: 0.01
    }
    bias_filler {
      type: "constant"
      value: 0
    }
  }
}
layer {
  name: "relu1"
  type: "ReLU"
  bottom: "conv1"
  top: "conv1"
}
layer {
  name: "norm1"
  type: "LRN"
  bottom: "conv1"
  top: "norm1"
  lrn_param {
    local_size: 5
    alpha: 0.0001
    beta: 0.75
  }
}
layer {
  name: "pool1"
  type: "Pooling"
  bottom: "norm1"
  top: "pool1"
  pooling_param {
    pool: MAX
    kernel_size: 3
    stride: 2
  }
}
layer {
  name: "conv2"
  type: "Convolution"
  bottom: "pool1"
  top: "conv2"
  param {
    lr_mult: 1
    decay_mult: 1
  }
  param {
    lr_mult: 2
    decay_mult: 0
  }
  convolution_param {
    num_output: 256
    pad: 2
    kernel_size: 5
    group: 2
    weight_filler {
      type: "gaussian"
      std: 0.01
    }
    bias_filler {
      type: "constant"
      value: 0.1
    }
  }
}
layer {
  name: "relu2"
  type: "ReLU"
  bottom: "conv2"
  top: "conv2"
}
layer {
  name: "norm2"
  type: "LRN"
  bottom: "conv2"
  top: "norm2"
  lrn_param {
    local_size: 5
    alpha: 0.0001
    beta: 0.75
  }
}
layer {
  name: "pool2"
  type: "Pooling"
  bottom: "norm2"
  top: "pool2"
  pooling_param {
    pool: MAX
    kernel_size: 3
    stride: 2
  }
}
layer {
  name: "conv3"
  type: "Convolution"
  bottom: "pool2"
  top: "conv3"
  param {
    lr_mult: 1
    decay_mult: 1
  }
  param {
    lr_mult: 2
    decay_mult: 0
  }
  convolution_param {
    num_output: 384
    pad: 1
    kernel_size: 3
    weight_filler {
      type: "gaussian"
      std: 0.01
    }
    bias_filler {
      type: "constant"
      value: 0
    }
  }
}
layer {
  name: "relu3"
  type: "ReLU"
  bottom: "conv3"
  top: "conv3"
}
layer {
  name: "conv4"
  type: "Convolution"
  bottom: "conv3"
  top: "conv4"
  param {
    lr_mult: 1
    decay_mult: 1
  }
  param {
    lr_mult: 2
    decay_mult: 0
  }
  convolution_param {
    num_output: 384
    pad: 1
    kernel_size: 3
    group: 2
    weight_filler {
      type: "gaussian"
      std: 0.01
    }
    bias_filler {
      type: "constant"
      value: 0.1
    }
  }
}
layer {
  name: "relu4"
  type: "ReLU"
  bottom: "conv4"
  top: "conv4"
}
layer {
  name: "conv5"
  type: "Convolution"
  bottom: "conv4"
  top: "conv5"
  param {
    lr_mult: 1
    decay_mult: 1
  }
  param {
    lr_mult: 2
    decay_mult: 0
  }
  convolution_param {
    num_output: 256
    pad: 1
    kernel_size: 3
    group: 2
    weight_filler {
      type: "gaussian"
      std: 0.01
    }
    bias_filler {
      type: "constant"
      value: 0.1
    }
  }
}
layer {
  name: "relu5"
  type: "ReLU"
  bottom: "conv5"
  top: "conv5"
}
layer {
  name: "pool5"
  type: "Pooling"
  bottom: "conv5"
  top: "pool5"
  pooling_param {
    pool: MAX
    kernel_size: 3
    stride: 2
  }
}
layer {
  name: "fc6"
  type: "InnerProduct"
  bottom: "pool5"
  top: "fc6"
  param {
    lr_mult: 1
    decay_mult: 1
  }
  param {
    lr_mult: 2
    decay_mult: 0
  }
  inner_product_param {
    num_output: 4096
    weight_filler {
      type: "gaussian"
      std: 0.005
    }
    bias_filler {
      type: "constant"
      value: 0.1
    }
  }
}
layer {
  name: "relu6"
  type: "ReLU"
  bottom: "fc6"
  top: "fc6"
}
layer {
  name: "drop6"
  type: "Dropout"
  bottom: "fc6"
  top: "fc6"
  dropout_param {
    dropout_ratio: 0.5
  }
}
layer {
  name: "fc7"
  type: "InnerProduct"
  bottom: "fc6"
  top: "fc7"
  param {
    lr_mult: 1
    decay_mult: 1
  }
  param {
    lr_mult: 2
    decay_mult: 0
  }
  inner_product_param {
    num_output: 4096
    weight_filler {
      type: "gaussian"
      std: 0.005
    }
    bias_filler {
      type: "constant"
      value: 0.1
    }
  }
}
layer {
  name: "relu7"
  type: "ReLU"
  bottom: "fc7"
  top: "fc7"
}
layer {
  name: "drop7"
  type: "Dropout"
  bottom: "fc7"
  top: "fc7"
  dropout_param {
    dropout_ratio: 0.5
  }
}
layer {
  name: "fc8_plantvillage"
  type: "InnerProduct"
  bottom: "fc7"
  top: "fc8_plantvillage"
  param {
    lr_mult: 1
    decay_mult: 1
  }
  param {
    lr_mult: 2
    decay_mult: 0
  }
  inner_product_param {
    num_output: 38
    weight_filler {
      type: "gaussian"
      std: 0.01
    }
    bias_filler {
      type: "constant"
      value: 0
    }
  }
}
layer {
  name: "prob"
  type: "Softmax"
  bottom: "fc8_plantvillage"
  top: "prob"
  include {
    phase: TEST
  }
}
layer {
  name: "hdf5out"
  type: "HDF5Output"
  bottom: "prob"
  bottom: "label"
  include {
    phase: TEST
  }
  hdf5_output_param {
    file_name: "hdf5_dumps/iter_2175.h5"
  }
}
layer {
  name: "loss"
  type: "SoftmaxWithLoss"
  bottom: "fc8_plantvillage"
  bottom: "label"
  top: "loss"
}
layer {
  name: "accuracy"
  type: "Accuracy"
  bottom: "fc8_plantvillage"
  bottom: "label"
  top: "accuracy"
  include {
    phase: TEST
  }
}
I0403 13:20:08.247159 10902 layer_factory.hpp:77] Creating layer data
I0403 13:20:08.247833 10902 net.cpp:91] Creating Layer data
I0403 13:20:08.247867 10902 net.cpp:399] data -> data
I0403 13:20:08.247918 10902 net.cpp:399] data -> label
I0403 13:20:08.247956 10902 data_transformer.cpp:25] Loading mean file from: /home/mohanty/data/final_dataset/lmdb/segmented-80-20/mean.binaryproto
I0403 13:20:08.251646 10904 db_lmdb.cpp:38] Opened lmdb /home/mohanty/data/final_dataset/lmdb/segmented-80-20/test_db
I0403 13:20:08.261868 10902 data_layer.cpp:41] output data size: 100,3,227,227
I0403 13:20:08.379202 10902 net.cpp:141] Setting up data
I0403 13:20:08.379261 10902 net.cpp:148] Top shape: 100 3 227 227 (15458700)
I0403 13:20:08.379284 10902 net.cpp:148] Top shape: 100 (100)
I0403 13:20:08.379299 10902 net.cpp:156] Memory required for data: 61835200
I0403 13:20:08.379329 10902 layer_factory.hpp:77] Creating layer label_data_1_split
I0403 13:20:08.379355 10902 net.cpp:91] Creating Layer label_data_1_split
I0403 13:20:08.379372 10902 net.cpp:425] label_data_1_split <- label
I0403 13:20:08.379405 10902 net.cpp:399] label_data_1_split -> label_data_1_split_0
I0403 13:20:08.379431 10902 net.cpp:399] label_data_1_split -> label_data_1_split_1
I0403 13:20:08.379452 10902 net.cpp:399] label_data_1_split -> label_data_1_split_2
I0403 13:20:08.379514 10902 net.cpp:141] Setting up label_data_1_split
I0403 13:20:08.379541 10902 net.cpp:148] Top shape: 100 (100)
I0403 13:20:08.379560 10902 net.cpp:148] Top shape: 100 (100)
I0403 13:20:08.379576 10902 net.cpp:148] Top shape: 100 (100)
I0403 13:20:08.379590 10902 net.cpp:156] Memory required for data: 61836400
I0403 13:20:08.379604 10902 layer_factory.hpp:77] Creating layer conv1
I0403 13:20:08.379636 10902 net.cpp:91] Creating Layer conv1
I0403 13:20:08.379653 10902 net.cpp:425] conv1 <- data
I0403 13:20:08.379673 10902 net.cpp:399] conv1 -> conv1
I0403 13:20:08.516563 10902 net.cpp:141] Setting up conv1
I0403 13:20:08.516641 10902 net.cpp:148] Top shape: 100 96 55 55 (29040000)
I0403 13:20:08.516659 10902 net.cpp:156] Memory required for data: 177996400
I0403 13:20:08.516690 10902 layer_factory.hpp:77] Creating layer relu1
I0403 13:20:08.516717 10902 net.cpp:91] Creating Layer relu1
I0403 13:20:08.516736 10902 net.cpp:425] relu1 <- conv1
I0403 13:20:08.516754 10902 net.cpp:386] relu1 -> conv1 (in-place)
I0403 13:20:08.517014 10902 net.cpp:141] Setting up relu1
I0403 13:20:08.517041 10902 net.cpp:148] Top shape: 100 96 55 55 (29040000)
I0403 13:20:08.517091 10902 net.cpp:156] Memory required for data: 294156400
I0403 13:20:08.517108 10902 layer_factory.hpp:77] Creating layer norm1
I0403 13:20:08.517135 10902 net.cpp:91] Creating Layer norm1
I0403 13:20:08.517153 10902 net.cpp:425] norm1 <- conv1
I0403 13:20:08.517171 10902 net.cpp:399] norm1 -> norm1
I0403 13:20:08.517477 10902 net.cpp:141] Setting up norm1
I0403 13:20:08.517505 10902 net.cpp:148] Top shape: 100 96 55 55 (29040000)
I0403 13:20:08.517521 10902 net.cpp:156] Memory required for data: 410316400
I0403 13:20:08.517541 10902 layer_factory.hpp:77] Creating layer pool1
I0403 13:20:08.517566 10902 net.cpp:91] Creating Layer pool1
I0403 13:20:08.517583 10902 net.cpp:425] pool1 <- norm1
I0403 13:20:08.517601 10902 net.cpp:399] pool1 -> pool1
I0403 13:20:08.517669 10902 net.cpp:141] Setting up pool1
I0403 13:20:08.517693 10902 net.cpp:148] Top shape: 100 96 27 27 (6998400)
I0403 13:20:08.517707 10902 net.cpp:156] Memory required for data: 438310000
I0403 13:20:08.517724 10902 layer_factory.hpp:77] Creating layer conv2
I0403 13:20:08.517747 10902 net.cpp:91] Creating Layer conv2
I0403 13:20:08.517765 10902 net.cpp:425] conv2 <- pool1
I0403 13:20:08.517781 10902 net.cpp:399] conv2 -> conv2
I0403 13:20:08.532668 10902 net.cpp:141] Setting up conv2
I0403 13:20:08.532717 10902 net.cpp:148] Top shape: 100 256 27 27 (18662400)
I0403 13:20:08.532734 10902 net.cpp:156] Memory required for data: 512959600
I0403 13:20:08.532757 10902 layer_factory.hpp:77] Creating layer relu2
I0403 13:20:08.532778 10902 net.cpp:91] Creating Layer relu2
I0403 13:20:08.532794 10902 net.cpp:425] relu2 <- conv2
I0403 13:20:08.532812 10902 net.cpp:386] relu2 -> conv2 (in-place)
I0403 13:20:08.533082 10902 net.cpp:141] Setting up relu2
I0403 13:20:08.533109 10902 net.cpp:148] Top shape: 100 256 27 27 (18662400)
I0403 13:20:08.533125 10902 net.cpp:156] Memory required for data: 587609200
I0403 13:20:08.533140 10902 layer_factory.hpp:77] Creating layer norm2
I0403 13:20:08.533161 10902 net.cpp:91] Creating Layer norm2
I0403 13:20:08.533179 10902 net.cpp:425] norm2 <- conv2
I0403 13:20:08.533196 10902 net.cpp:399] norm2 -> norm2
I0403 13:20:08.533385 10902 net.cpp:141] Setting up norm2
I0403 13:20:08.533411 10902 net.cpp:148] Top shape: 100 256 27 27 (18662400)
I0403 13:20:08.533426 10902 net.cpp:156] Memory required for data: 662258800
I0403 13:20:08.533440 10902 layer_factory.hpp:77] Creating layer pool2
I0403 13:20:08.533459 10902 net.cpp:91] Creating Layer pool2
I0403 13:20:08.533474 10902 net.cpp:425] pool2 <- norm2
I0403 13:20:08.533493 10902 net.cpp:399] pool2 -> pool2
I0403 13:20:08.533548 10902 net.cpp:141] Setting up pool2
I0403 13:20:08.533571 10902 net.cpp:148] Top shape: 100 256 13 13 (4326400)
I0403 13:20:08.533586 10902 net.cpp:156] Memory required for data: 679564400
I0403 13:20:08.533601 10902 layer_factory.hpp:77] Creating layer conv3
I0403 13:20:08.533623 10902 net.cpp:91] Creating Layer conv3
I0403 13:20:08.533639 10902 net.cpp:425] conv3 <- pool2
I0403 13:20:08.533658 10902 net.cpp:399] conv3 -> conv3
I0403 13:20:08.572137 10902 net.cpp:141] Setting up conv3
I0403 13:20:08.572209 10902 net.cpp:148] Top shape: 100 384 13 13 (6489600)
I0403 13:20:08.572227 10902 net.cpp:156] Memory required for data: 705522800
I0403 13:20:08.572253 10902 layer_factory.hpp:77] Creating layer relu3
I0403 13:20:08.572278 10902 net.cpp:91] Creating Layer relu3
I0403 13:20:08.572298 10902 net.cpp:425] relu3 <- conv3
I0403 13:20:08.572317 10902 net.cpp:386] relu3 -> conv3 (in-place)
I0403 13:20:08.572604 10902 net.cpp:141] Setting up relu3
I0403 13:20:08.572633 10902 net.cpp:148] Top shape: 100 384 13 13 (6489600)
I0403 13:20:08.572649 10902 net.cpp:156] Memory required for data: 731481200
I0403 13:20:08.572664 10902 layer_factory.hpp:77] Creating layer conv4
I0403 13:20:08.572693 10902 net.cpp:91] Creating Layer conv4
I0403 13:20:08.572710 10902 net.cpp:425] conv4 <- conv3
I0403 13:20:08.572728 10902 net.cpp:399] conv4 -> conv4
I0403 13:20:08.602403 10902 net.cpp:141] Setting up conv4
I0403 13:20:08.602476 10902 net.cpp:148] Top shape: 100 384 13 13 (6489600)
I0403 13:20:08.602526 10902 net.cpp:156] Memory required for data: 757439600
I0403 13:20:08.602553 10902 layer_factory.hpp:77] Creating layer relu4
I0403 13:20:08.602579 10902 net.cpp:91] Creating Layer relu4
I0403 13:20:08.602597 10902 net.cpp:425] relu4 <- conv4
I0403 13:20:08.602617 10902 net.cpp:386] relu4 -> conv4 (in-place)
I0403 13:20:08.602912 10902 net.cpp:141] Setting up relu4
I0403 13:20:08.602941 10902 net.cpp:148] Top shape: 100 384 13 13 (6489600)
I0403 13:20:08.602959 10902 net.cpp:156] Memory required for data: 783398000
I0403 13:20:08.602977 10902 layer_factory.hpp:77] Creating layer conv5
I0403 13:20:08.603003 10902 net.cpp:91] Creating Layer conv5
I0403 13:20:08.603020 10902 net.cpp:425] conv5 <- conv4
I0403 13:20:08.603054 10902 net.cpp:399] conv5 -> conv5
I0403 13:20:08.623481 10902 net.cpp:141] Setting up conv5
I0403 13:20:08.623529 10902 net.cpp:148] Top shape: 100 256 13 13 (4326400)
I0403 13:20:08.623550 10902 net.cpp:156] Memory required for data: 800703600
I0403 13:20:08.623579 10902 layer_factory.hpp:77] Creating layer relu5
I0403 13:20:08.623600 10902 net.cpp:91] Creating Layer relu5
I0403 13:20:08.623617 10902 net.cpp:425] relu5 <- conv5
I0403 13:20:08.623637 10902 net.cpp:386] relu5 -> conv5 (in-place)
I0403 13:20:08.623915 10902 net.cpp:141] Setting up relu5
I0403 13:20:08.623945 10902 net.cpp:148] Top shape: 100 256 13 13 (4326400)
I0403 13:20:08.623961 10902 net.cpp:156] Memory required for data: 818009200
I0403 13:20:08.623976 10902 layer_factory.hpp:77] Creating layer pool5
I0403 13:20:08.623998 10902 net.cpp:91] Creating Layer pool5
I0403 13:20:08.624014 10902 net.cpp:425] pool5 <- conv5
I0403 13:20:08.624037 10902 net.cpp:399] pool5 -> pool5
I0403 13:20:08.624099 10902 net.cpp:141] Setting up pool5
I0403 13:20:08.624125 10902 net.cpp:148] Top shape: 100 256 6 6 (921600)
I0403 13:20:08.624140 10902 net.cpp:156] Memory required for data: 821695600
I0403 13:20:08.624153 10902 layer_factory.hpp:77] Creating layer fc6
I0403 13:20:08.624179 10902 net.cpp:91] Creating Layer fc6
I0403 13:20:08.624197 10902 net.cpp:425] fc6 <- pool5
I0403 13:20:08.624217 10902 net.cpp:399] fc6 -> fc6
I0403 13:20:10.177187 10902 net.cpp:141] Setting up fc6
I0403 13:20:10.177230 10902 net.cpp:148] Top shape: 100 4096 (409600)
I0403 13:20:10.177248 10902 net.cpp:156] Memory required for data: 823334000
I0403 13:20:10.177268 10902 layer_factory.hpp:77] Creating layer relu6
I0403 13:20:10.177291 10902 net.cpp:91] Creating Layer relu6
I0403 13:20:10.177309 10902 net.cpp:425] relu6 <- fc6
I0403 13:20:10.177326 10902 net.cpp:386] relu6 -> fc6 (in-place)
I0403 13:20:10.177546 10902 net.cpp:141] Setting up relu6
I0403 13:20:10.177573 10902 net.cpp:148] Top shape: 100 4096 (409600)
I0403 13:20:10.177588 10902 net.cpp:156] Memory required for data: 824972400
I0403 13:20:10.177603 10902 layer_factory.hpp:77] Creating layer drop6
I0403 13:20:10.177621 10902 net.cpp:91] Creating Layer drop6
I0403 13:20:10.177635 10902 net.cpp:425] drop6 <- fc6
I0403 13:20:10.177654 10902 net.cpp:386] drop6 -> fc6 (in-place)
I0403 13:20:10.177703 10902 net.cpp:141] Setting up drop6
I0403 13:20:10.177726 10902 net.cpp:148] Top shape: 100 4096 (409600)
I0403 13:20:10.177739 10902 net.cpp:156] Memory required for data: 826610800
I0403 13:20:10.177754 10902 layer_factory.hpp:77] Creating layer fc7
I0403 13:20:10.177778 10902 net.cpp:91] Creating Layer fc7
I0403 13:20:10.177795 10902 net.cpp:425] fc7 <- fc6
I0403 13:20:10.177815 10902 net.cpp:399] fc7 -> fc7
I0403 13:20:10.864266 10902 net.cpp:141] Setting up fc7
I0403 13:20:10.864344 10902 net.cpp:148] Top shape: 100 4096 (409600)
I0403 13:20:10.864361 10902 net.cpp:156] Memory required for data: 828249200
I0403 13:20:10.864382 10902 layer_factory.hpp:77] Creating layer relu7
I0403 13:20:10.864403 10902 net.cpp:91] Creating Layer relu7
I0403 13:20:10.864420 10902 net.cpp:425] relu7 <- fc7
I0403 13:20:10.864439 10902 net.cpp:386] relu7 -> fc7 (in-place)
I0403 13:20:10.864863 10902 net.cpp:141] Setting up relu7
I0403 13:20:10.864892 10902 net.cpp:148] Top shape: 100 4096 (409600)
I0403 13:20:10.864946 10902 net.cpp:156] Memory required for data: 829887600
I0403 13:20:10.864962 10902 layer_factory.hpp:77] Creating layer drop7
I0403 13:20:10.864980 10902 net.cpp:91] Creating Layer drop7
I0403 13:20:10.864995 10902 net.cpp:425] drop7 <- fc7
I0403 13:20:10.865012 10902 net.cpp:386] drop7 -> fc7 (in-place)
I0403 13:20:10.865056 10902 net.cpp:141] Setting up drop7
I0403 13:20:10.865077 10902 net.cpp:148] Top shape: 100 4096 (409600)
I0403 13:20:10.865092 10902 net.cpp:156] Memory required for data: 831526000
I0403 13:20:10.865104 10902 layer_factory.hpp:77] Creating layer fc8_plantvillage
I0403 13:20:10.865126 10902 net.cpp:91] Creating Layer fc8_plantvillage
I0403 13:20:10.865142 10902 net.cpp:425] fc8_plantvillage <- fc7
I0403 13:20:10.865160 10902 net.cpp:399] fc8_plantvillage -> fc8_plantvillage
I0403 13:20:10.871902 10902 net.cpp:141] Setting up fc8_plantvillage
I0403 13:20:10.871930 10902 net.cpp:148] Top shape: 100 38 (3800)
I0403 13:20:10.871944 10902 net.cpp:156] Memory required for data: 831541200
I0403 13:20:10.871963 10902 layer_factory.hpp:77] Creating layer fc8_plantvillage_fc8_plantvillage_0_split
I0403 13:20:10.871980 10902 net.cpp:91] Creating Layer fc8_plantvillage_fc8_plantvillage_0_split
I0403 13:20:10.871995 10902 net.cpp:425] fc8_plantvillage_fc8_plantvillage_0_split <- fc8_plantvillage
I0403 13:20:10.872014 10902 net.cpp:399] fc8_plantvillage_fc8_plantvillage_0_split -> fc8_plantvillage_fc8_plantvillage_0_split_0
I0403 13:20:10.872035 10902 net.cpp:399] fc8_plantvillage_fc8_plantvillage_0_split -> fc8_plantvillage_fc8_plantvillage_0_split_1
I0403 13:20:10.872053 10902 net.cpp:399] fc8_plantvillage_fc8_plantvillage_0_split -> fc8_plantvillage_fc8_plantvillage_0_split_2
I0403 13:20:10.872130 10902 net.cpp:141] Setting up fc8_plantvillage_fc8_plantvillage_0_split
I0403 13:20:10.872153 10902 net.cpp:148] Top shape: 100 38 (3800)
I0403 13:20:10.872169 10902 net.cpp:148] Top shape: 100 38 (3800)
I0403 13:20:10.872182 10902 net.cpp:148] Top shape: 100 38 (3800)
I0403 13:20:10.872195 10902 net.cpp:156] Memory required for data: 831586800
I0403 13:20:10.872210 10902 layer_factory.hpp:77] Creating layer prob
I0403 13:20:10.872230 10902 net.cpp:91] Creating Layer prob
I0403 13:20:10.872246 10902 net.cpp:425] prob <- fc8_plantvillage_fc8_plantvillage_0_split_0
I0403 13:20:10.872262 10902 net.cpp:399] prob -> prob
I0403 13:20:10.872483 10902 net.cpp:141] Setting up prob
I0403 13:20:10.872510 10902 net.cpp:148] Top shape: 100 38 (3800)
I0403 13:20:10.872525 10902 net.cpp:156] Memory required for data: 831602000
I0403 13:20:10.872545 10902 layer_factory.hpp:77] Creating layer hdf5out
I0403 13:20:10.872566 10902 net.cpp:91] Creating Layer hdf5out
I0403 13:20:10.872582 10902 net.cpp:425] hdf5out <- prob
I0403 13:20:10.872597 10902 net.cpp:425] hdf5out <- label_data_1_split_0
I0403 13:20:10.874948 10902 net.cpp:141] Setting up hdf5out
…
