…
I0403 13:30:56.750641 11440 net.cpp:313] The NetState phase (1) differed from the phase (0) specified by a rule in layer data
I0403 13:30:56.750936 11440 net.cpp:49] Initializing net from parameters: 
state {
  phase: TEST
}
layer {
  name: "data"
  type: "Data"
  top: "data"
  top: "label"
  include {
    phase: TEST
  }
  transform_param {
    crop_size: 227
    mean_file: "/home/mohanty/data/final_dataset/lmdb/segmented-80-20/mean.binaryproto"
  }
  data_param {
    source: "/home/mohanty/data/final_dataset/lmdb/segmented-80-20/test_db"
    batch_size: 100
    backend: LMDB
  }
}
layer {
  name: "conv1"
  type: "Convolution"
  bottom: "data"
  top: "conv1"
  param {
    lr_mult: 1
    decay_mult: 1
  }
  param {
    lr_mult: 2
    decay_mult: 0
  }
  convolution_param {
    num_output: 96
    kernel_size: 11
    stride: 4
    weight_filler {
      type: "gaussian"
      std: 0.01
    }
    bias_filler {
      type: "constant"
      value: 0
    }
  }
}
layer {
  name: "relu1"
  type: "ReLU"
  bottom: "conv1"
  top: "conv1"
}
layer {
  name: "norm1"
  type: "LRN"
  bottom: "conv1"
  top: "norm1"
  lrn_param {
    local_size: 5
    alpha: 0.0001
    beta: 0.75
  }
}
layer {
  name: "pool1"
  type: "Pooling"
  bottom: "norm1"
  top: "pool1"
  pooling_param {
    pool: MAX
    kernel_size: 3
    stride: 2
  }
}
layer {
  name: "conv2"
  type: "Convolution"
  bottom: "pool1"
  top: "conv2"
  param {
    lr_mult: 1
    decay_mult: 1
  }
  param {
    lr_mult: 2
    decay_mult: 0
  }
  convolution_param {
    num_output: 256
    pad: 2
    kernel_size: 5
    group: 2
    weight_filler {
      type: "gaussian"
      std: 0.01
    }
    bias_filler {
      type: "constant"
      value: 0.1
    }
  }
}
layer {
  name: "relu2"
  type: "ReLU"
  bottom: "conv2"
  top: "conv2"
}
layer {
  name: "norm2"
  type: "LRN"
  bottom: "conv2"
  top: "norm2"
  lrn_param {
    local_size: 5
    alpha: 0.0001
    beta: 0.75
  }
}
layer {
  name: "pool2"
  type: "Pooling"
  bottom: "norm2"
  top: "pool2"
  pooling_param {
    pool: MAX
    kernel_size: 3
    stride: 2
  }
}
layer {
  name: "conv3"
  type: "Convolution"
  bottom: "pool2"
  top: "conv3"
  param {
    lr_mult: 1
    decay_mult: 1
  }
  param {
    lr_mult: 2
    decay_mult: 0
  }
  convolution_param {
    num_output: 384
    pad: 1
    kernel_size: 3
    weight_filler {
      type: "gaussian"
      std: 0.01
    }
    bias_filler {
      type: "constant"
      value: 0
    }
  }
}
layer {
  name: "relu3"
  type: "ReLU"
  bottom: "conv3"
  top: "conv3"
}
layer {
  name: "conv4"
  type: "Convolution"
  bottom: "conv3"
  top: "conv4"
  param {
    lr_mult: 1
    decay_mult: 1
  }
  param {
    lr_mult: 2
    decay_mult: 0
  }
  convolution_param {
    num_output: 384
    pad: 1
    kernel_size: 3
    group: 2
    weight_filler {
      type: "gaussian"
      std: 0.01
    }
    bias_filler {
      type: "constant"
      value: 0.1
    }
  }
}
layer {
  name: "relu4"
  type: "ReLU"
  bottom: "conv4"
  top: "conv4"
}
layer {
  name: "conv5"
  type: "Convolution"
  bottom: "conv4"
  top: "conv5"
  param {
    lr_mult: 1
    decay_mult: 1
  }
  param {
    lr_mult: 2
    decay_mult: 0
  }
  convolution_param {
    num_output: 256
    pad: 1
    kernel_size: 3
    group: 2
    weight_filler {
      type: "gaussian"
      std: 0.01
    }
    bias_filler {
      type: "constant"
      value: 0.1
    }
  }
}
layer {
  name: "relu5"
  type: "ReLU"
  bottom: "conv5"
  top: "conv5"
}
layer {
  name: "pool5"
  type: "Pooling"
  bottom: "conv5"
  top: "pool5"
  pooling_param {
    pool: MAX
    kernel_size: 3
    stride: 2
  }
}
layer {
  name: "fc6"
  type: "InnerProduct"
  bottom: "pool5"
  top: "fc6"
  param {
    lr_mult: 1
    decay_mult: 1
  }
  param {
    lr_mult: 2
    decay_mult: 0
  }
  inner_product_param {
    num_output: 4096
    weight_filler {
      type: "gaussian"
      std: 0.005
    }
    bias_filler {
      type: "constant"
      value: 0.1
    }
  }
}
layer {
  name: "relu6"
  type: "ReLU"
  bottom: "fc6"
  top: "fc6"
}
layer {
  name: "drop6"
  type: "Dropout"
  bottom: "fc6"
  top: "fc6"
  dropout_param {
    dropout_ratio: 0.5
  }
}
layer {
  name: "fc7"
  type: "InnerProduct"
  bottom: "fc6"
  top: "fc7"
  param {
    lr_mult: 1
    decay_mult: 1
  }
  param {
    lr_mult: 2
    decay_mult: 0
  }
  inner_product_param {
    num_output: 4096
    weight_filler {
      type: "gaussian"
      std: 0.005
    }
    bias_filler {
      type: "constant"
      value: 0.1
    }
  }
}
layer {
  name: "relu7"
  type: "ReLU"
  bottom: "fc7"
  top: "fc7"
}
layer {
  name: "drop7"
  type: "Dropout"
  bottom: "fc7"
  top: "fc7"
  dropout_param {
    dropout_ratio: 0.5
  }
}
layer {
  name: "fc8_plantvillage"
  type: "InnerProduct"
  bottom: "fc7"
  top: "fc8_plantvillage"
  param {
    lr_mult: 1
    decay_mult: 1
  }
  param {
    lr_mult: 2
    decay_mult: 0
  }
  inner_product_param {
    num_output: 38
    weight_filler {
      type: "gaussian"
      std: 0.01
    }
    bias_filler {
      type: "constant"
      value: 0
    }
  }
}
layer {
  name: "prob"
  type: "Softmax"
  bottom: "fc8_plantvillage"
  top: "prob"
  include {
    phase: TEST
  }
}
layer {
  name: "hdf5out"
  type: "HDF5Output"
  bottom: "prob"
  bottom: "label"
  include {
    phase: TEST
  }
  hdf5_output_param {
    file_name: "hdf5_dumps/iter_13057.h5"
  }
}
layer {
  name: "loss"
  type: "SoftmaxWithLoss"
  bottom: "fc8_plantvillage"
  bottom: "label"
  top: "loss"
}
layer {
  name: "accuracy"
  type: "Accuracy"
  bottom: "fc8_plantvillage"
  bottom: "label"
  top: "accuracy"
  include {
    phase: TEST
  }
}
I0403 13:30:56.751523 11440 layer_factory.hpp:77] Creating layer data
I0403 13:30:56.752198 11440 net.cpp:91] Creating Layer data
I0403 13:30:56.752228 11440 net.cpp:399] data -> data
I0403 13:30:56.752280 11440 net.cpp:399] data -> label
I0403 13:30:56.752316 11440 data_transformer.cpp:25] Loading mean file from: /home/mohanty/data/final_dataset/lmdb/segmented-80-20/mean.binaryproto
I0403 13:30:56.755370 11443 db_lmdb.cpp:38] Opened lmdb /home/mohanty/data/final_dataset/lmdb/segmented-80-20/test_db
I0403 13:30:56.766862 11440 data_layer.cpp:41] output data size: 100,3,227,227
I0403 13:30:56.890902 11440 net.cpp:141] Setting up data
I0403 13:30:56.891007 11440 net.cpp:148] Top shape: 100 3 227 227 (15458700)
I0403 13:30:56.891031 11440 net.cpp:148] Top shape: 100 (100)
I0403 13:30:56.891046 11440 net.cpp:156] Memory required for data: 61835200
I0403 13:30:56.891073 11440 layer_factory.hpp:77] Creating layer label_data_1_split
I0403 13:30:56.891098 11440 net.cpp:91] Creating Layer label_data_1_split
I0403 13:30:56.891126 11440 net.cpp:425] label_data_1_split <- label
I0403 13:30:56.891160 11440 net.cpp:399] label_data_1_split -> label_data_1_split_0
I0403 13:30:56.891197 11440 net.cpp:399] label_data_1_split -> label_data_1_split_1
I0403 13:30:56.891218 11440 net.cpp:399] label_data_1_split -> label_data_1_split_2
I0403 13:30:56.891293 11440 net.cpp:141] Setting up label_data_1_split
I0403 13:30:56.891316 11440 net.cpp:148] Top shape: 100 (100)
I0403 13:30:56.891332 11440 net.cpp:148] Top shape: 100 (100)
I0403 13:30:56.891348 11440 net.cpp:148] Top shape: 100 (100)
I0403 13:30:56.891362 11440 net.cpp:156] Memory required for data: 61836400
I0403 13:30:56.891377 11440 layer_factory.hpp:77] Creating layer conv1
I0403 13:30:56.891419 11440 net.cpp:91] Creating Layer conv1
I0403 13:30:56.891438 11440 net.cpp:425] conv1 <- data
I0403 13:30:56.891458 11440 net.cpp:399] conv1 -> conv1
I0403 13:30:57.032369 11440 net.cpp:141] Setting up conv1
I0403 13:30:57.032447 11440 net.cpp:148] Top shape: 100 96 55 55 (29040000)
I0403 13:30:57.032464 11440 net.cpp:156] Memory required for data: 177996400
I0403 13:30:57.032496 11440 layer_factory.hpp:77] Creating layer relu1
I0403 13:30:57.032531 11440 net.cpp:91] Creating Layer relu1
I0403 13:30:57.032549 11440 net.cpp:425] relu1 <- conv1
I0403 13:30:57.032568 11440 net.cpp:386] relu1 -> conv1 (in-place)
I0403 13:30:57.032829 11440 net.cpp:141] Setting up relu1
I0403 13:30:57.032855 11440 net.cpp:148] Top shape: 100 96 55 55 (29040000)
I0403 13:30:57.032904 11440 net.cpp:156] Memory required for data: 294156400
I0403 13:30:57.032922 11440 layer_factory.hpp:77] Creating layer norm1
I0403 13:30:57.032949 11440 net.cpp:91] Creating Layer norm1
I0403 13:30:57.032968 11440 net.cpp:425] norm1 <- conv1
I0403 13:30:57.032984 11440 net.cpp:399] norm1 -> norm1
I0403 13:30:57.033293 11440 net.cpp:141] Setting up norm1
I0403 13:30:57.033320 11440 net.cpp:148] Top shape: 100 96 55 55 (29040000)
I0403 13:30:57.033335 11440 net.cpp:156] Memory required for data: 410316400
I0403 13:30:57.033350 11440 layer_factory.hpp:77] Creating layer pool1
I0403 13:30:57.033373 11440 net.cpp:91] Creating Layer pool1
I0403 13:30:57.033390 11440 net.cpp:425] pool1 <- norm1
I0403 13:30:57.033407 11440 net.cpp:399] pool1 -> pool1
I0403 13:30:57.033474 11440 net.cpp:141] Setting up pool1
I0403 13:30:57.033498 11440 net.cpp:148] Top shape: 100 96 27 27 (6998400)
I0403 13:30:57.033517 11440 net.cpp:156] Memory required for data: 438310000
I0403 13:30:57.033534 11440 layer_factory.hpp:77] Creating layer conv2
I0403 13:30:57.033557 11440 net.cpp:91] Creating Layer conv2
I0403 13:30:57.033573 11440 net.cpp:425] conv2 <- pool1
I0403 13:30:57.033592 11440 net.cpp:399] conv2 -> conv2
I0403 13:30:57.048498 11440 net.cpp:141] Setting up conv2
I0403 13:30:57.048552 11440 net.cpp:148] Top shape: 100 256 27 27 (18662400)
I0403 13:30:57.048568 11440 net.cpp:156] Memory required for data: 512959600
I0403 13:30:57.048591 11440 layer_factory.hpp:77] Creating layer relu2
I0403 13:30:57.048612 11440 net.cpp:91] Creating Layer relu2
I0403 13:30:57.048637 11440 net.cpp:425] relu2 <- conv2
I0403 13:30:57.048656 11440 net.cpp:386] relu2 -> conv2 (in-place)
I0403 13:30:57.048936 11440 net.cpp:141] Setting up relu2
I0403 13:30:57.048964 11440 net.cpp:148] Top shape: 100 256 27 27 (18662400)
I0403 13:30:57.048979 11440 net.cpp:156] Memory required for data: 587609200
I0403 13:30:57.048993 11440 layer_factory.hpp:77] Creating layer norm2
I0403 13:30:57.049018 11440 net.cpp:91] Creating Layer norm2
I0403 13:30:57.049034 11440 net.cpp:425] norm2 <- conv2
I0403 13:30:57.049057 11440 net.cpp:399] norm2 -> norm2
I0403 13:30:57.049240 11440 net.cpp:141] Setting up norm2
I0403 13:30:57.049266 11440 net.cpp:148] Top shape: 100 256 27 27 (18662400)
I0403 13:30:57.049281 11440 net.cpp:156] Memory required for data: 662258800
I0403 13:30:57.049299 11440 layer_factory.hpp:77] Creating layer pool2
I0403 13:30:57.049316 11440 net.cpp:91] Creating Layer pool2
I0403 13:30:57.049331 11440 net.cpp:425] pool2 <- norm2
I0403 13:30:57.049348 11440 net.cpp:399] pool2 -> pool2
I0403 13:30:57.049399 11440 net.cpp:141] Setting up pool2
I0403 13:30:57.049423 11440 net.cpp:148] Top shape: 100 256 13 13 (4326400)
I0403 13:30:57.049438 11440 net.cpp:156] Memory required for data: 679564400
I0403 13:30:57.049453 11440 layer_factory.hpp:77] Creating layer conv3
I0403 13:30:57.049474 11440 net.cpp:91] Creating Layer conv3
I0403 13:30:57.049490 11440 net.cpp:425] conv3 <- pool2
I0403 13:30:57.049512 11440 net.cpp:399] conv3 -> conv3
I0403 13:30:57.087945 11440 net.cpp:141] Setting up conv3
I0403 13:30:57.087985 11440 net.cpp:148] Top shape: 100 384 13 13 (6489600)
I0403 13:30:57.088002 11440 net.cpp:156] Memory required for data: 705522800
I0403 13:30:57.088028 11440 layer_factory.hpp:77] Creating layer relu3
I0403 13:30:57.088053 11440 net.cpp:91] Creating Layer relu3
I0403 13:30:57.088071 11440 net.cpp:425] relu3 <- conv3
I0403 13:30:57.088091 11440 net.cpp:386] relu3 -> conv3 (in-place)
I0403 13:30:57.088399 11440 net.cpp:141] Setting up relu3
I0403 13:30:57.088425 11440 net.cpp:148] Top shape: 100 384 13 13 (6489600)
I0403 13:30:57.088440 11440 net.cpp:156] Memory required for data: 731481200
I0403 13:30:57.088454 11440 layer_factory.hpp:77] Creating layer conv4
I0403 13:30:57.088481 11440 net.cpp:91] Creating Layer conv4
I0403 13:30:57.088498 11440 net.cpp:425] conv4 <- conv3
I0403 13:30:57.088522 11440 net.cpp:399] conv4 -> conv4
I0403 13:30:57.118317 11440 net.cpp:141] Setting up conv4
I0403 13:30:57.118391 11440 net.cpp:148] Top shape: 100 384 13 13 (6489600)
I0403 13:30:57.118448 11440 net.cpp:156] Memory required for data: 757439600
I0403 13:30:57.118470 11440 layer_factory.hpp:77] Creating layer relu4
I0403 13:30:57.118495 11440 net.cpp:91] Creating Layer relu4
I0403 13:30:57.118518 11440 net.cpp:425] relu4 <- conv4
I0403 13:30:57.118540 11440 net.cpp:386] relu4 -> conv4 (in-place)
I0403 13:30:57.118821 11440 net.cpp:141] Setting up relu4
I0403 13:30:57.118849 11440 net.cpp:148] Top shape: 100 384 13 13 (6489600)
I0403 13:30:57.118865 11440 net.cpp:156] Memory required for data: 783398000
I0403 13:30:57.118880 11440 layer_factory.hpp:77] Creating layer conv5
I0403 13:30:57.118906 11440 net.cpp:91] Creating Layer conv5
I0403 13:30:57.118923 11440 net.cpp:425] conv5 <- conv4
I0403 13:30:57.118944 11440 net.cpp:399] conv5 -> conv5
I0403 13:30:57.139513 11440 net.cpp:141] Setting up conv5
I0403 13:30:57.139569 11440 net.cpp:148] Top shape: 100 256 13 13 (4326400)
I0403 13:30:57.139585 11440 net.cpp:156] Memory required for data: 800703600
I0403 13:30:57.139612 11440 layer_factory.hpp:77] Creating layer relu5
I0403 13:30:57.139634 11440 net.cpp:91] Creating Layer relu5
I0403 13:30:57.139652 11440 net.cpp:425] relu5 <- conv5
I0403 13:30:57.139670 11440 net.cpp:386] relu5 -> conv5 (in-place)
I0403 13:30:57.139955 11440 net.cpp:141] Setting up relu5
I0403 13:30:57.139986 11440 net.cpp:148] Top shape: 100 256 13 13 (4326400)
I0403 13:30:57.140002 11440 net.cpp:156] Memory required for data: 818009200
I0403 13:30:57.140017 11440 layer_factory.hpp:77] Creating layer pool5
I0403 13:30:57.140039 11440 net.cpp:91] Creating Layer pool5
I0403 13:30:57.140055 11440 net.cpp:425] pool5 <- conv5
I0403 13:30:57.140079 11440 net.cpp:399] pool5 -> pool5
I0403 13:30:57.140142 11440 net.cpp:141] Setting up pool5
I0403 13:30:57.140166 11440 net.cpp:148] Top shape: 100 256 6 6 (921600)
I0403 13:30:57.140182 11440 net.cpp:156] Memory required for data: 821695600
I0403 13:30:57.140195 11440 layer_factory.hpp:77] Creating layer fc6
I0403 13:30:57.140224 11440 net.cpp:91] Creating Layer fc6
I0403 13:30:57.140242 11440 net.cpp:425] fc6 <- pool5
I0403 13:30:57.140264 11440 net.cpp:399] fc6 -> fc6
I0403 13:30:58.734192 11440 net.cpp:141] Setting up fc6
I0403 13:30:58.734262 11440 net.cpp:148] Top shape: 100 4096 (409600)
I0403 13:30:58.734278 11440 net.cpp:156] Memory required for data: 823334000
I0403 13:30:58.734297 11440 layer_factory.hpp:77] Creating layer relu6
I0403 13:30:58.734318 11440 net.cpp:91] Creating Layer relu6
I0403 13:30:58.734335 11440 net.cpp:425] relu6 <- fc6
I0403 13:30:58.734355 11440 net.cpp:386] relu6 -> fc6 (in-place)
I0403 13:30:58.734596 11440 net.cpp:141] Setting up relu6
I0403 13:30:58.734623 11440 net.cpp:148] Top shape: 100 4096 (409600)
I0403 13:30:58.734638 11440 net.cpp:156] Memory required for data: 824972400
I0403 13:30:58.734652 11440 layer_factory.hpp:77] Creating layer drop6
I0403 13:30:58.734670 11440 net.cpp:91] Creating Layer drop6
I0403 13:30:58.734684 11440 net.cpp:425] drop6 <- fc6
I0403 13:30:58.734700 11440 net.cpp:386] drop6 -> fc6 (in-place)
I0403 13:30:58.734753 11440 net.cpp:141] Setting up drop6
I0403 13:30:58.734776 11440 net.cpp:148] Top shape: 100 4096 (409600)
I0403 13:30:58.734789 11440 net.cpp:156] Memory required for data: 826610800
I0403 13:30:58.734803 11440 layer_factory.hpp:77] Creating layer fc7
I0403 13:30:58.734824 11440 net.cpp:91] Creating Layer fc7
I0403 13:30:58.734840 11440 net.cpp:425] fc7 <- fc6
I0403 13:30:58.734858 11440 net.cpp:399] fc7 -> fc7
I0403 13:30:59.436305 11440 net.cpp:141] Setting up fc7
I0403 13:30:59.436375 11440 net.cpp:148] Top shape: 100 4096 (409600)
I0403 13:30:59.436391 11440 net.cpp:156] Memory required for data: 828249200
I0403 13:30:59.436411 11440 layer_factory.hpp:77] Creating layer relu7
I0403 13:30:59.436435 11440 net.cpp:91] Creating Layer relu7
I0403 13:30:59.436453 11440 net.cpp:425] relu7 <- fc7
I0403 13:30:59.436472 11440 net.cpp:386] relu7 -> fc7 (in-place)
I0403 13:30:59.436897 11440 net.cpp:141] Setting up relu7
I0403 13:30:59.436921 11440 net.cpp:148] Top shape: 100 4096 (409600)
I0403 13:30:59.436975 11440 net.cpp:156] Memory required for data: 829887600
I0403 13:30:59.436990 11440 layer_factory.hpp:77] Creating layer drop7
I0403 13:30:59.437011 11440 net.cpp:91] Creating Layer drop7
I0403 13:30:59.437026 11440 net.cpp:425] drop7 <- fc7
I0403 13:30:59.437043 11440 net.cpp:386] drop7 -> fc7 (in-place)
I0403 13:30:59.437088 11440 net.cpp:141] Setting up drop7
I0403 13:30:59.437109 11440 net.cpp:148] Top shape: 100 4096 (409600)
I0403 13:30:59.437124 11440 net.cpp:156] Memory required for data: 831526000
I0403 13:30:59.437139 11440 layer_factory.hpp:77] Creating layer fc8_plantvillage
I0403 13:30:59.437160 11440 net.cpp:91] Creating Layer fc8_plantvillage
I0403 13:30:59.437175 11440 net.cpp:425] fc8_plantvillage <- fc7
I0403 13:30:59.437191 11440 net.cpp:399] fc8_plantvillage -> fc8_plantvillage
I0403 13:30:59.444241 11440 net.cpp:141] Setting up fc8_plantvillage
I0403 13:30:59.444269 11440 net.cpp:148] Top shape: 100 38 (3800)
I0403 13:30:59.444284 11440 net.cpp:156] Memory required for data: 831541200
I0403 13:30:59.444303 11440 layer_factory.hpp:77] Creating layer fc8_plantvillage_fc8_plantvillage_0_split
I0403 13:30:59.444320 11440 net.cpp:91] Creating Layer fc8_plantvillage_fc8_plantvillage_0_split
I0403 13:30:59.444335 11440 net.cpp:425] fc8_plantvillage_fc8_plantvillage_0_split <- fc8_plantvillage
I0403 13:30:59.444352 11440 net.cpp:399] fc8_plantvillage_fc8_plantvillage_0_split -> fc8_plantvillage_fc8_plantvillage_0_split_0
I0403 13:30:59.444375 11440 net.cpp:399] fc8_plantvillage_fc8_plantvillage_0_split -> fc8_plantvillage_fc8_plantvillage_0_split_1
I0403 13:30:59.444396 11440 net.cpp:399] fc8_plantvillage_fc8_plantvillage_0_split -> fc8_plantvillage_fc8_plantvillage_0_split_2
I0403 13:30:59.444475 11440 net.cpp:141] Setting up fc8_plantvillage_fc8_plantvillage_0_split
I0403 13:30:59.444499 11440 net.cpp:148] Top shape: 100 38 (3800)
I0403 13:30:59.444528 11440 net.cpp:148] Top shape: 100 38 (3800)
I0403 13:30:59.444546 11440 net.cpp:148] Top shape: 100 38 (3800)
I0403 13:30:59.444560 11440 net.cpp:156] Memory required for data: 831586800
I0403 13:30:59.444574 11440 layer_factory.hpp:77] Creating layer prob
I0403 13:30:59.444594 11440 net.cpp:91] Creating Layer prob
I0403 13:30:59.444609 11440 net.cpp:425] prob <- fc8_plantvillage_fc8_plantvillage_0_split_0
I0403 13:30:59.444628 11440 net.cpp:399] prob -> prob
I0403 13:30:59.444860 11440 net.cpp:141] Setting up prob
I0403 13:30:59.444886 11440 net.cpp:148] Top shape: 100 38 (3800)
I0403 13:30:59.444900 11440 net.cpp:156] Memory required for data: 831602000
I0403 13:30:59.444916 11440 layer_factory.hpp:77] Creating layer hdf5out
I0403 13:30:59.444938 11440 net.cpp:91] Creating Layer hdf5out
I0403 13:30:59.444955 11440 net.cpp:425] hdf5out <- prob
I0403 13:30:59.444972 11440 net.cpp:425] hdf5out <- label_data_1_split_0
I0403 13:30:59.447767 11440 net.cpp:141] Setting up hdf5out
…
