…
I0403 13:25:02.924341 11197 net.cpp:313] The NetState phase (1) differed from the phase (0) specified by a rule in layer data
I0403 13:25:02.924670 11197 net.cpp:49] Initializing net from parameters: 
state {
  phase: TEST
}
layer {
  name: "data"
  type: "Data"
  top: "data"
  top: "label"
  include {
    phase: TEST
  }
  transform_param {
    crop_size: 227
    mean_file: "/home/mohanty/data/final_dataset/lmdb/segmented-80-20/mean.binaryproto"
  }
  data_param {
    source: "/home/mohanty/data/final_dataset/lmdb/segmented-80-20/test_db"
    batch_size: 100
    backend: LMDB
  }
}
layer {
  name: "conv1"
  type: "Convolution"
  bottom: "data"
  top: "conv1"
  param {
    lr_mult: 1
    decay_mult: 1
  }
  param {
    lr_mult: 2
    decay_mult: 0
  }
  convolution_param {
    num_output: 96
    kernel_size: 11
    stride: 4
    weight_filler {
      type: "gaussian"
      std: 0.01
    }
    bias_filler {
      type: "constant"
      value: 0
    }
  }
}
layer {
  name: "relu1"
  type: "ReLU"
  bottom: "conv1"
  top: "conv1"
}
layer {
  name: "norm1"
  type: "LRN"
  bottom: "conv1"
  top: "norm1"
  lrn_param {
    local_size: 5
    alpha: 0.0001
    beta: 0.75
  }
}
layer {
  name: "pool1"
  type: "Pooling"
  bottom: "norm1"
  top: "pool1"
  pooling_param {
    pool: MAX
    kernel_size: 3
    stride: 2
  }
}
layer {
  name: "conv2"
  type: "Convolution"
  bottom: "pool1"
  top: "conv2"
  param {
    lr_mult: 1
    decay_mult: 1
  }
  param {
    lr_mult: 2
    decay_mult: 0
  }
  convolution_param {
    num_output: 256
    pad: 2
    kernel_size: 5
    group: 2
    weight_filler {
      type: "gaussian"
      std: 0.01
    }
    bias_filler {
      type: "constant"
      value: 0.1
    }
  }
}
layer {
  name: "relu2"
  type: "ReLU"
  bottom: "conv2"
  top: "conv2"
}
layer {
  name: "norm2"
  type: "LRN"
  bottom: "conv2"
  top: "norm2"
  lrn_param {
    local_size: 5
    alpha: 0.0001
    beta: 0.75
  }
}
layer {
  name: "pool2"
  type: "Pooling"
  bottom: "norm2"
  top: "pool2"
  pooling_param {
    pool: MAX
    kernel_size: 3
    stride: 2
  }
}
layer {
  name: "conv3"
  type: "Convolution"
  bottom: "pool2"
  top: "conv3"
  param {
    lr_mult: 1
    decay_mult: 1
  }
  param {
    lr_mult: 2
    decay_mult: 0
  }
  convolution_param {
    num_output: 384
    pad: 1
    kernel_size: 3
    weight_filler {
      type: "gaussian"
      std: 0.01
    }
    bias_filler {
      type: "constant"
      value: 0
    }
  }
}
layer {
  name: "relu3"
  type: "ReLU"
  bottom: "conv3"
  top: "conv3"
}
layer {
  name: "conv4"
  type: "Convolution"
  bottom: "conv3"
  top: "conv4"
  param {
    lr_mult: 1
    decay_mult: 1
  }
  param {
    lr_mult: 2
    decay_mult: 0
  }
  convolution_param {
    num_output: 384
    pad: 1
    kernel_size: 3
    group: 2
    weight_filler {
      type: "gaussian"
      std: 0.01
    }
    bias_filler {
      type: "constant"
      value: 0.1
    }
  }
}
layer {
  name: "relu4"
  type: "ReLU"
  bottom: "conv4"
  top: "conv4"
}
layer {
  name: "conv5"
  type: "Convolution"
  bottom: "conv4"
  top: "conv5"
  param {
    lr_mult: 1
    decay_mult: 1
  }
  param {
    lr_mult: 2
    decay_mult: 0
  }
  convolution_param {
    num_output: 256
    pad: 1
    kernel_size: 3
    group: 2
    weight_filler {
      type: "gaussian"
      std: 0.01
    }
    bias_filler {
      type: "constant"
      value: 0.1
    }
  }
}
layer {
  name: "relu5"
  type: "ReLU"
  bottom: "conv5"
  top: "conv5"
}
layer {
  name: "pool5"
  type: "Pooling"
  bottom: "conv5"
  top: "pool5"
  pooling_param {
    pool: MAX
    kernel_size: 3
    stride: 2
  }
}
layer {
  name: "fc6"
  type: "InnerProduct"
  bottom: "pool5"
  top: "fc6"
  param {
    lr_mult: 1
    decay_mult: 1
  }
  param {
    lr_mult: 2
    decay_mult: 0
  }
  inner_product_param {
    num_output: 4096
    weight_filler {
      type: "gaussian"
      std: 0.005
    }
    bias_filler {
      type: "constant"
      value: 0.1
    }
  }
}
layer {
  name: "relu6"
  type: "ReLU"
  bottom: "fc6"
  top: "fc6"
}
layer {
  name: "drop6"
  type: "Dropout"
  bottom: "fc6"
  top: "fc6"
  dropout_param {
    dropout_ratio: 0.5
  }
}
layer {
  name: "fc7"
  type: "InnerProduct"
  bottom: "fc6"
  top: "fc7"
  param {
    lr_mult: 1
    decay_mult: 1
  }
  param {
    lr_mult: 2
    decay_mult: 0
  }
  inner_product_param {
    num_output: 4096
    weight_filler {
      type: "gaussian"
      std: 0.005
    }
    bias_filler {
      type: "constant"
      value: 0.1
    }
  }
}
layer {
  name: "relu7"
  type: "ReLU"
  bottom: "fc7"
  top: "fc7"
}
layer {
  name: "drop7"
  type: "Dropout"
  bottom: "fc7"
  top: "fc7"
  dropout_param {
    dropout_ratio: 0.5
  }
}
layer {
  name: "fc8_plantvillage"
  type: "InnerProduct"
  bottom: "fc7"
  top: "fc8_plantvillage"
  param {
    lr_mult: 1
    decay_mult: 1
  }
  param {
    lr_mult: 2
    decay_mult: 0
  }
  inner_product_param {
    num_output: 38
    weight_filler {
      type: "gaussian"
      std: 0.01
    }
    bias_filler {
      type: "constant"
      value: 0
    }
  }
}
layer {
  name: "prob"
  type: "Softmax"
  bottom: "fc8_plantvillage"
  top: "prob"
  include {
    phase: TEST
  }
}
layer {
  name: "hdf5out"
  type: "HDF5Output"
  bottom: "prob"
  bottom: "label"
  include {
    phase: TEST
  }
  hdf5_output_param {
    file_name: "hdf5_dumps/iter_7395.h5"
  }
}
layer {
  name: "loss"
  type: "SoftmaxWithLoss"
  bottom: "fc8_plantvillage"
  bottom: "label"
  top: "loss"
}
layer {
  name: "accuracy"
  type: "Accuracy"
  bottom: "fc8_plantvillage"
  bottom: "label"
  top: "accuracy"
  include {
    phase: TEST
  }
}
I0403 13:25:02.925226 11197 layer_factory.hpp:77] Creating layer data
I0403 13:25:02.925885 11197 net.cpp:91] Creating Layer data
I0403 13:25:02.925928 11197 net.cpp:399] data -> data
I0403 13:25:02.925977 11197 net.cpp:399] data -> label
I0403 13:25:02.926013 11197 data_transformer.cpp:25] Loading mean file from: /home/mohanty/data/final_dataset/lmdb/segmented-80-20/mean.binaryproto
I0403 13:25:02.928952 11200 db_lmdb.cpp:38] Opened lmdb /home/mohanty/data/final_dataset/lmdb/segmented-80-20/test_db
I0403 13:25:02.940399 11197 data_layer.cpp:41] output data size: 100,3,227,227
I0403 13:25:03.152441 11197 net.cpp:141] Setting up data
I0403 13:25:03.152513 11197 net.cpp:148] Top shape: 100 3 227 227 (15458700)
I0403 13:25:03.152535 11197 net.cpp:148] Top shape: 100 (100)
I0403 13:25:03.152567 11197 net.cpp:156] Memory required for data: 61835200
I0403 13:25:03.152595 11197 layer_factory.hpp:77] Creating layer label_data_1_split
I0403 13:25:03.152633 11197 net.cpp:91] Creating Layer label_data_1_split
I0403 13:25:03.152650 11197 net.cpp:425] label_data_1_split <- label
I0403 13:25:03.152683 11197 net.cpp:399] label_data_1_split -> label_data_1_split_0
I0403 13:25:03.152710 11197 net.cpp:399] label_data_1_split -> label_data_1_split_1
I0403 13:25:03.152730 11197 net.cpp:399] label_data_1_split -> label_data_1_split_2
I0403 13:25:03.152798 11197 net.cpp:141] Setting up label_data_1_split
I0403 13:25:03.152822 11197 net.cpp:148] Top shape: 100 (100)
I0403 13:25:03.152849 11197 net.cpp:148] Top shape: 100 (100)
I0403 13:25:03.152864 11197 net.cpp:148] Top shape: 100 (100)
I0403 13:25:03.152878 11197 net.cpp:156] Memory required for data: 61836400
I0403 13:25:03.152891 11197 layer_factory.hpp:77] Creating layer conv1
I0403 13:25:03.152933 11197 net.cpp:91] Creating Layer conv1
I0403 13:25:03.152951 11197 net.cpp:425] conv1 <- data
I0403 13:25:03.152967 11197 net.cpp:399] conv1 -> conv1
I0403 13:25:03.292084 11197 net.cpp:141] Setting up conv1
I0403 13:25:03.292161 11197 net.cpp:148] Top shape: 100 96 55 55 (29040000)
I0403 13:25:03.292178 11197 net.cpp:156] Memory required for data: 177996400
I0403 13:25:03.292209 11197 layer_factory.hpp:77] Creating layer relu1
I0403 13:25:03.292235 11197 net.cpp:91] Creating Layer relu1
I0403 13:25:03.292263 11197 net.cpp:425] relu1 <- conv1
I0403 13:25:03.292280 11197 net.cpp:386] relu1 -> conv1 (in-place)
I0403 13:25:03.292552 11197 net.cpp:141] Setting up relu1
I0403 13:25:03.292579 11197 net.cpp:148] Top shape: 100 96 55 55 (29040000)
I0403 13:25:03.292656 11197 net.cpp:156] Memory required for data: 294156400
I0403 13:25:03.292673 11197 layer_factory.hpp:77] Creating layer norm1
I0403 13:25:03.292701 11197 net.cpp:91] Creating Layer norm1
I0403 13:25:03.292717 11197 net.cpp:425] norm1 <- conv1
I0403 13:25:03.292734 11197 net.cpp:399] norm1 -> norm1
I0403 13:25:03.293032 11197 net.cpp:141] Setting up norm1
I0403 13:25:03.293059 11197 net.cpp:148] Top shape: 100 96 55 55 (29040000)
I0403 13:25:03.293074 11197 net.cpp:156] Memory required for data: 410316400
I0403 13:25:03.293088 11197 layer_factory.hpp:77] Creating layer pool1
I0403 13:25:03.293110 11197 net.cpp:91] Creating Layer pool1
I0403 13:25:03.293126 11197 net.cpp:425] pool1 <- norm1
I0403 13:25:03.293143 11197 net.cpp:399] pool1 -> pool1
I0403 13:25:03.293206 11197 net.cpp:141] Setting up pool1
I0403 13:25:03.293229 11197 net.cpp:148] Top shape: 100 96 27 27 (6998400)
I0403 13:25:03.293243 11197 net.cpp:156] Memory required for data: 438310000
I0403 13:25:03.293258 11197 layer_factory.hpp:77] Creating layer conv2
I0403 13:25:03.293282 11197 net.cpp:91] Creating Layer conv2
I0403 13:25:03.293297 11197 net.cpp:425] conv2 <- pool1
I0403 13:25:03.293314 11197 net.cpp:399] conv2 -> conv2
I0403 13:25:03.308171 11197 net.cpp:141] Setting up conv2
I0403 13:25:03.308203 11197 net.cpp:148] Top shape: 100 256 27 27 (18662400)
I0403 13:25:03.308219 11197 net.cpp:156] Memory required for data: 512959600
I0403 13:25:03.308240 11197 layer_factory.hpp:77] Creating layer relu2
I0403 13:25:03.308260 11197 net.cpp:91] Creating Layer relu2
I0403 13:25:03.308277 11197 net.cpp:425] relu2 <- conv2
I0403 13:25:03.308293 11197 net.cpp:386] relu2 -> conv2 (in-place)
I0403 13:25:03.308571 11197 net.cpp:141] Setting up relu2
I0403 13:25:03.308598 11197 net.cpp:148] Top shape: 100 256 27 27 (18662400)
I0403 13:25:03.308612 11197 net.cpp:156] Memory required for data: 587609200
I0403 13:25:03.308626 11197 layer_factory.hpp:77] Creating layer norm2
I0403 13:25:03.308648 11197 net.cpp:91] Creating Layer norm2
I0403 13:25:03.308665 11197 net.cpp:425] norm2 <- conv2
I0403 13:25:03.308683 11197 net.cpp:399] norm2 -> norm2
I0403 13:25:03.308918 11197 net.cpp:141] Setting up norm2
I0403 13:25:03.308944 11197 net.cpp:148] Top shape: 100 256 27 27 (18662400)
I0403 13:25:03.308959 11197 net.cpp:156] Memory required for data: 662258800
I0403 13:25:03.308974 11197 layer_factory.hpp:77] Creating layer pool2
I0403 13:25:03.308992 11197 net.cpp:91] Creating Layer pool2
I0403 13:25:03.309008 11197 net.cpp:425] pool2 <- norm2
I0403 13:25:03.309025 11197 net.cpp:399] pool2 -> pool2
I0403 13:25:03.309077 11197 net.cpp:141] Setting up pool2
I0403 13:25:03.309100 11197 net.cpp:148] Top shape: 100 256 13 13 (4326400)
I0403 13:25:03.309113 11197 net.cpp:156] Memory required for data: 679564400
I0403 13:25:03.309128 11197 layer_factory.hpp:77] Creating layer conv3
I0403 13:25:03.309149 11197 net.cpp:91] Creating Layer conv3
I0403 13:25:03.309166 11197 net.cpp:425] conv3 <- pool2
I0403 13:25:03.309185 11197 net.cpp:399] conv3 -> conv3
I0403 13:25:03.347142 11197 net.cpp:141] Setting up conv3
I0403 13:25:03.347218 11197 net.cpp:148] Top shape: 100 384 13 13 (6489600)
I0403 13:25:03.347240 11197 net.cpp:156] Memory required for data: 705522800
I0403 13:25:03.347266 11197 layer_factory.hpp:77] Creating layer relu3
I0403 13:25:03.347287 11197 net.cpp:91] Creating Layer relu3
I0403 13:25:03.347303 11197 net.cpp:425] relu3 <- conv3
I0403 13:25:03.347321 11197 net.cpp:386] relu3 -> conv3 (in-place)
I0403 13:25:03.347606 11197 net.cpp:141] Setting up relu3
I0403 13:25:03.347632 11197 net.cpp:148] Top shape: 100 384 13 13 (6489600)
I0403 13:25:03.347648 11197 net.cpp:156] Memory required for data: 731481200
I0403 13:25:03.347662 11197 layer_factory.hpp:77] Creating layer conv4
I0403 13:25:03.347686 11197 net.cpp:91] Creating Layer conv4
I0403 13:25:03.347703 11197 net.cpp:425] conv4 <- conv3
I0403 13:25:03.347724 11197 net.cpp:399] conv4 -> conv4
I0403 13:25:05.422832 11197 net.cpp:141] Setting up conv4
I0403 13:25:05.422955 11197 net.cpp:148] Top shape: 100 384 13 13 (6489600)
I0403 13:25:05.423045 11197 net.cpp:156] Memory required for data: 757439600
I0403 13:25:05.423091 11197 layer_factory.hpp:77] Creating layer relu4
I0403 13:25:05.423141 11197 net.cpp:91] Creating Layer relu4
I0403 13:25:05.423176 11197 net.cpp:425] relu4 <- conv4
I0403 13:25:05.423212 11197 net.cpp:386] relu4 -> conv4 (in-place)
I0403 13:25:05.423936 11197 net.cpp:141] Setting up relu4
I0403 13:25:05.423988 11197 net.cpp:148] Top shape: 100 384 13 13 (6489600)
I0403 13:25:05.424018 11197 net.cpp:156] Memory required for data: 783398000
I0403 13:25:05.424047 11197 layer_factory.hpp:77] Creating layer conv5
I0403 13:25:05.424126 11197 net.cpp:91] Creating Layer conv5
I0403 13:25:05.424167 11197 net.cpp:425] conv5 <- conv4
I0403 13:25:05.424208 11197 net.cpp:399] conv5 -> conv5
I0403 13:25:05.473917 11197 net.cpp:141] Setting up conv5
I0403 13:25:05.474005 11197 net.cpp:148] Top shape: 100 256 13 13 (4326400)
I0403 13:25:05.474026 11197 net.cpp:156] Memory required for data: 800703600
I0403 13:25:05.474058 11197 layer_factory.hpp:77] Creating layer relu5
I0403 13:25:05.474091 11197 net.cpp:91] Creating Layer relu5
I0403 13:25:05.474113 11197 net.cpp:425] relu5 <- conv5
I0403 13:25:05.474136 11197 net.cpp:386] relu5 -> conv5 (in-place)
I0403 13:25:05.479706 11197 net.cpp:141] Setting up relu5
I0403 13:25:05.479802 11197 net.cpp:148] Top shape: 100 256 13 13 (4326400)
I0403 13:25:05.479822 11197 net.cpp:156] Memory required for data: 818009200
I0403 13:25:05.479843 11197 layer_factory.hpp:77] Creating layer pool5
I0403 13:25:05.479881 11197 net.cpp:91] Creating Layer pool5
I0403 13:25:05.479903 11197 net.cpp:425] pool5 <- conv5
I0403 13:25:05.479933 11197 net.cpp:399] pool5 -> pool5
I0403 13:25:05.480027 11197 net.cpp:141] Setting up pool5
I0403 13:25:05.480057 11197 net.cpp:148] Top shape: 100 256 6 6 (921600)
I0403 13:25:05.480074 11197 net.cpp:156] Memory required for data: 821695600
I0403 13:25:05.480092 11197 layer_factory.hpp:77] Creating layer fc6
I0403 13:25:05.480129 11197 net.cpp:91] Creating Layer fc6
I0403 13:25:05.480150 11197 net.cpp:425] fc6 <- pool5
I0403 13:25:05.480172 11197 net.cpp:399] fc6 -> fc6
I0403 13:25:07.173552 11197 net.cpp:141] Setting up fc6
I0403 13:25:07.173634 11197 net.cpp:148] Top shape: 100 4096 (409600)
I0403 13:25:07.173650 11197 net.cpp:156] Memory required for data: 823334000
I0403 13:25:07.173671 11197 layer_factory.hpp:77] Creating layer relu6
I0403 13:25:07.173691 11197 net.cpp:91] Creating Layer relu6
I0403 13:25:07.173708 11197 net.cpp:425] relu6 <- fc6
I0403 13:25:07.173729 11197 net.cpp:386] relu6 -> fc6 (in-place)
I0403 13:25:07.173966 11197 net.cpp:141] Setting up relu6
I0403 13:25:07.173990 11197 net.cpp:148] Top shape: 100 4096 (409600)
I0403 13:25:07.174005 11197 net.cpp:156] Memory required for data: 824972400
I0403 13:25:07.174017 11197 layer_factory.hpp:77] Creating layer drop6
I0403 13:25:07.174037 11197 net.cpp:91] Creating Layer drop6
I0403 13:25:07.174053 11197 net.cpp:425] drop6 <- fc6
I0403 13:25:07.174068 11197 net.cpp:386] drop6 -> fc6 (in-place)
I0403 13:25:07.174123 11197 net.cpp:141] Setting up drop6
I0403 13:25:07.174144 11197 net.cpp:148] Top shape: 100 4096 (409600)
I0403 13:25:07.174157 11197 net.cpp:156] Memory required for data: 826610800
I0403 13:25:07.174171 11197 layer_factory.hpp:77] Creating layer fc7
I0403 13:25:07.174190 11197 net.cpp:91] Creating Layer fc7
I0403 13:25:07.174204 11197 net.cpp:425] fc7 <- fc6
I0403 13:25:07.174222 11197 net.cpp:399] fc7 -> fc7
I0403 13:25:07.841995 11197 net.cpp:141] Setting up fc7
I0403 13:25:07.842078 11197 net.cpp:148] Top shape: 100 4096 (409600)
I0403 13:25:07.842093 11197 net.cpp:156] Memory required for data: 828249200
I0403 13:25:07.842114 11197 layer_factory.hpp:77] Creating layer relu7
I0403 13:25:07.842139 11197 net.cpp:91] Creating Layer relu7
I0403 13:25:07.842169 11197 net.cpp:425] relu7 <- fc7
I0403 13:25:07.842186 11197 net.cpp:386] relu7 -> fc7 (in-place)
I0403 13:25:07.842566 11197 net.cpp:141] Setting up relu7
I0403 13:25:07.842591 11197 net.cpp:148] Top shape: 100 4096 (409600)
I0403 13:25:07.842646 11197 net.cpp:156] Memory required for data: 829887600
I0403 13:25:07.842661 11197 layer_factory.hpp:77] Creating layer drop7
I0403 13:25:07.842684 11197 net.cpp:91] Creating Layer drop7
I0403 13:25:07.842700 11197 net.cpp:425] drop7 <- fc7
I0403 13:25:07.842715 11197 net.cpp:386] drop7 -> fc7 (in-place)
I0403 13:25:07.842758 11197 net.cpp:141] Setting up drop7
I0403 13:25:07.842780 11197 net.cpp:148] Top shape: 100 4096 (409600)
I0403 13:25:07.842794 11197 net.cpp:156] Memory required for data: 831526000
I0403 13:25:07.842808 11197 layer_factory.hpp:77] Creating layer fc8_plantvillage
I0403 13:25:07.842826 11197 net.cpp:91] Creating Layer fc8_plantvillage
I0403 13:25:07.842840 11197 net.cpp:425] fc8_plantvillage <- fc7
I0403 13:25:07.842859 11197 net.cpp:399] fc8_plantvillage -> fc8_plantvillage
I0403 13:25:07.849369 11197 net.cpp:141] Setting up fc8_plantvillage
I0403 13:25:07.849398 11197 net.cpp:148] Top shape: 100 38 (3800)
I0403 13:25:07.849412 11197 net.cpp:156] Memory required for data: 831541200
I0403 13:25:07.849431 11197 layer_factory.hpp:77] Creating layer fc8_plantvillage_fc8_plantvillage_0_split
I0403 13:25:07.849453 11197 net.cpp:91] Creating Layer fc8_plantvillage_fc8_plantvillage_0_split
I0403 13:25:07.849469 11197 net.cpp:425] fc8_plantvillage_fc8_plantvillage_0_split <- fc8_plantvillage
I0403 13:25:07.849486 11197 net.cpp:399] fc8_plantvillage_fc8_plantvillage_0_split -> fc8_plantvillage_fc8_plantvillage_0_split_0
I0403 13:25:07.849504 11197 net.cpp:399] fc8_plantvillage_fc8_plantvillage_0_split -> fc8_plantvillage_fc8_plantvillage_0_split_1
I0403 13:25:07.849525 11197 net.cpp:399] fc8_plantvillage_fc8_plantvillage_0_split -> fc8_plantvillage_fc8_plantvillage_0_split_2
I0403 13:25:07.849606 11197 net.cpp:141] Setting up fc8_plantvillage_fc8_plantvillage_0_split
I0403 13:25:07.849629 11197 net.cpp:148] Top shape: 100 38 (3800)
I0403 13:25:07.849644 11197 net.cpp:148] Top shape: 100 38 (3800)
I0403 13:25:07.849658 11197 net.cpp:148] Top shape: 100 38 (3800)
I0403 13:25:07.849671 11197 net.cpp:156] Memory required for data: 831586800
I0403 13:25:07.849685 11197 layer_factory.hpp:77] Creating layer prob
I0403 13:25:07.849702 11197 net.cpp:91] Creating Layer prob
I0403 13:25:07.849716 11197 net.cpp:425] prob <- fc8_plantvillage_fc8_plantvillage_0_split_0
I0403 13:25:07.849735 11197 net.cpp:399] prob -> prob
I0403 13:25:07.849951 11197 net.cpp:141] Setting up prob
I0403 13:25:07.849975 11197 net.cpp:148] Top shape: 100 38 (3800)
I0403 13:25:07.849989 11197 net.cpp:156] Memory required for data: 831602000
I0403 13:25:07.850003 11197 layer_factory.hpp:77] Creating layer hdf5out
I0403 13:25:07.850023 11197 net.cpp:91] Creating Layer hdf5out
I0403 13:25:07.850039 11197 net.cpp:425] hdf5out <- prob
I0403 13:25:07.850054 11197 net.cpp:425] hdf5out <- label_data_1_split_0
I0403 13:25:07.852283 11197 net.cpp:141] Setting up hdf5out
…
