…
I0403 13:22:55.235764 11092 net.cpp:313] The NetState phase (1) differed from the phase (0) specified by a rule in layer data
I0403 13:22:55.236490 11092 net.cpp:49] Initializing net from parameters: 
state {
  phase: TEST
}
layer {
  name: "data"
  type: "Data"
  top: "data"
  top: "label"
  include {
    phase: TEST
  }
  transform_param {
    crop_size: 227
    mean_file: "/home/mohanty/data/final_dataset/lmdb/segmented-80-20/mean.binaryproto"
  }
  data_param {
    source: "/home/mohanty/data/final_dataset/lmdb/segmented-80-20/test_db"
    batch_size: 100
    backend: LMDB
  }
}
layer {
  name: "conv1"
  type: "Convolution"
  bottom: "data"
  top: "conv1"
  param {
    lr_mult: 1
    decay_mult: 1
  }
  param {
    lr_mult: 2
    decay_mult: 0
  }
  convolution_param {
    num_output: 96
    kernel_size: 11
    stride: 4
    weight_filler {
      type: "gaussian"
      std: 0.01
    }
    bias_filler {
      type: "constant"
      value: 0
    }
  }
}
layer {
  name: "relu1"
  type: "ReLU"
  bottom: "conv1"
  top: "conv1"
}
layer {
  name: "norm1"
  type: "LRN"
  bottom: "conv1"
  top: "norm1"
  lrn_param {
    local_size: 5
    alpha: 0.0001
    beta: 0.75
  }
}
layer {
  name: "pool1"
  type: "Pooling"
  bottom: "norm1"
  top: "pool1"
  pooling_param {
    pool: MAX
    kernel_size: 3
    stride: 2
  }
}
layer {
  name: "conv2"
  type: "Convolution"
  bottom: "pool1"
  top: "conv2"
  param {
    lr_mult: 1
    decay_mult: 1
  }
  param {
    lr_mult: 2
    decay_mult: 0
  }
  convolution_param {
    num_output: 256
    pad: 2
    kernel_size: 5
    group: 2
    weight_filler {
      type: "gaussian"
      std: 0.01
    }
    bias_filler {
      type: "constant"
      value: 0.1
    }
  }
}
layer {
  name: "relu2"
  type: "ReLU"
  bottom: "conv2"
  top: "conv2"
}
layer {
  name: "norm2"
  type: "LRN"
  bottom: "conv2"
  top: "norm2"
  lrn_param {
    local_size: 5
    alpha: 0.0001
    beta: 0.75
  }
}
layer {
  name: "pool2"
  type: "Pooling"
  bottom: "norm2"
  top: "pool2"
  pooling_param {
    pool: MAX
    kernel_size: 3
    stride: 2
  }
}
layer {
  name: "conv3"
  type: "Convolution"
  bottom: "pool2"
  top: "conv3"
  param {
    lr_mult: 1
    decay_mult: 1
  }
  param {
    lr_mult: 2
    decay_mult: 0
  }
  convolution_param {
    num_output: 384
    pad: 1
    kernel_size: 3
    weight_filler {
      type: "gaussian"
      std: 0.01
    }
    bias_filler {
      type: "constant"
      value: 0
    }
  }
}
layer {
  name: "relu3"
  type: "ReLU"
  bottom: "conv3"
  top: "conv3"
}
layer {
  name: "conv4"
  type: "Convolution"
  bottom: "conv3"
  top: "conv4"
  param {
    lr_mult: 1
    decay_mult: 1
  }
  param {
    lr_mult: 2
    decay_mult: 0
  }
  convolution_param {
    num_output: 384
    pad: 1
    kernel_size: 3
    group: 2
    weight_filler {
      type: "gaussian"
      std: 0.01
    }
    bias_filler {
      type: "constant"
      value: 0.1
    }
  }
}
layer {
  name: "relu4"
  type: "ReLU"
  bottom: "conv4"
  top: "conv4"
}
layer {
  name: "conv5"
  type: "Convolution"
  bottom: "conv4"
  top: "conv5"
  param {
    lr_mult: 1
    decay_mult: 1
  }
  param {
    lr_mult: 2
    decay_mult: 0
  }
  convolution_param {
    num_output: 256
    pad: 1
    kernel_size: 3
    group: 2
    weight_filler {
      type: "gaussian"
      std: 0.01
    }
    bias_filler {
      type: "constant"
      value: 0.1
    }
  }
}
layer {
  name: "relu5"
  type: "ReLU"
  bottom: "conv5"
  top: "conv5"
}
layer {
  name: "pool5"
  type: "Pooling"
  bottom: "conv5"
  top: "pool5"
  pooling_param {
    pool: MAX
    kernel_size: 3
    stride: 2
  }
}
layer {
  name: "fc6"
  type: "InnerProduct"
  bottom: "pool5"
  top: "fc6"
  param {
    lr_mult: 1
    decay_mult: 1
  }
  param {
    lr_mult: 2
    decay_mult: 0
  }
  inner_product_param {
    num_output: 4096
    weight_filler {
      type: "gaussian"
      std: 0.005
    }
    bias_filler {
      type: "constant"
      value: 0.1
    }
  }
}
layer {
  name: "relu6"
  type: "ReLU"
  bottom: "fc6"
  top: "fc6"
}
layer {
  name: "drop6"
  type: "Dropout"
  bottom: "fc6"
  top: "fc6"
  dropout_param {
    dropout_ratio: 0.5
  }
}
layer {
  name: "fc7"
  type: "InnerProduct"
  bottom: "fc6"
  top: "fc7"
  param {
    lr_mult: 1
    decay_mult: 1
  }
  param {
    lr_mult: 2
    decay_mult: 0
  }
  inner_product_param {
    num_output: 4096
    weight_filler {
      type: "gaussian"
      std: 0.005
    }
    bias_filler {
      type: "constant"
      value: 0.1
    }
  }
}
layer {
  name: "relu7"
  type: "ReLU"
  bottom: "fc7"
  top: "fc7"
}
layer {
  name: "drop7"
  type: "Dropout"
  bottom: "fc7"
  top: "fc7"
  dropout_param {
    dropout_ratio: 0.5
  }
}
layer {
  name: "fc8_plantvillage"
  type: "InnerProduct"
  bottom: "fc7"
  top: "fc8_plantvillage"
  param {
    lr_mult: 1
    decay_mult: 1
  }
  param {
    lr_mult: 2
    decay_mult: 0
  }
  inner_product_param {
    num_output: 38
    weight_filler {
      type: "gaussian"
      std: 0.01
    }
    bias_filler {
      type: "constant"
      value: 0
    }
  }
}
layer {
  name: "prob"
  type: "Softmax"
  bottom: "fc8_plantvillage"
  top: "prob"
  include {
    phase: TEST
  }
}
layer {
  name: "hdf5out"
  type: "HDF5Output"
  bottom: "prob"
  bottom: "label"
  include {
    phase: TEST
  }
  hdf5_output_param {
    file_name: "hdf5_dumps/iter_5220.h5"
  }
}
layer {
  name: "loss"
  type: "SoftmaxWithLoss"
  bottom: "fc8_plantvillage"
  bottom: "label"
  top: "loss"
}
layer {
  name: "accuracy"
  type: "Accuracy"
  bottom: "fc8_plantvillage"
  bottom: "label"
  top: "accuracy"
  include {
    phase: TEST
  }
}
I0403 13:22:55.237714 11092 layer_factory.hpp:77] Creating layer data
I0403 13:22:55.239289 11092 net.cpp:91] Creating Layer data
I0403 13:22:55.239368 11092 net.cpp:399] data -> data
I0403 13:22:55.239480 11092 net.cpp:399] data -> label
I0403 13:22:55.239578 11092 data_transformer.cpp:25] Loading mean file from: /home/mohanty/data/final_dataset/lmdb/segmented-80-20/mean.binaryproto
I0403 13:22:55.243620 11095 db_lmdb.cpp:38] Opened lmdb /home/mohanty/data/final_dataset/lmdb/segmented-80-20/test_db
I0403 13:22:55.262132 11092 data_layer.cpp:41] output data size: 100,3,227,227
I0403 13:22:55.378412 11092 net.cpp:141] Setting up data
I0403 13:22:55.378506 11092 net.cpp:148] Top shape: 100 3 227 227 (15458700)
I0403 13:22:55.378530 11092 net.cpp:148] Top shape: 100 (100)
I0403 13:22:55.378547 11092 net.cpp:156] Memory required for data: 61835200
I0403 13:22:55.378576 11092 layer_factory.hpp:77] Creating layer label_data_1_split
I0403 13:22:55.378602 11092 net.cpp:91] Creating Layer label_data_1_split
I0403 13:22:55.378618 11092 net.cpp:425] label_data_1_split <- label
I0403 13:22:55.378651 11092 net.cpp:399] label_data_1_split -> label_data_1_split_0
I0403 13:22:55.378679 11092 net.cpp:399] label_data_1_split -> label_data_1_split_1
I0403 13:22:55.378697 11092 net.cpp:399] label_data_1_split -> label_data_1_split_2
I0403 13:22:55.378759 11092 net.cpp:141] Setting up label_data_1_split
I0403 13:22:55.378782 11092 net.cpp:148] Top shape: 100 (100)
I0403 13:22:55.378798 11092 net.cpp:148] Top shape: 100 (100)
I0403 13:22:55.378813 11092 net.cpp:148] Top shape: 100 (100)
I0403 13:22:55.378828 11092 net.cpp:156] Memory required for data: 61836400
I0403 13:22:55.378841 11092 layer_factory.hpp:77] Creating layer conv1
I0403 13:22:55.378871 11092 net.cpp:91] Creating Layer conv1
I0403 13:22:55.378888 11092 net.cpp:425] conv1 <- data
I0403 13:22:55.378906 11092 net.cpp:399] conv1 -> conv1
I0403 13:22:55.512883 11092 net.cpp:141] Setting up conv1
I0403 13:22:55.512959 11092 net.cpp:148] Top shape: 100 96 55 55 (29040000)
I0403 13:22:55.512974 11092 net.cpp:156] Memory required for data: 177996400
I0403 13:22:55.513005 11092 layer_factory.hpp:77] Creating layer relu1
I0403 13:22:55.513031 11092 net.cpp:91] Creating Layer relu1
I0403 13:22:55.513048 11092 net.cpp:425] relu1 <- conv1
I0403 13:22:55.513067 11092 net.cpp:386] relu1 -> conv1 (in-place)
I0403 13:22:55.513309 11092 net.cpp:141] Setting up relu1
I0403 13:22:55.513335 11092 net.cpp:148] Top shape: 100 96 55 55 (29040000)
I0403 13:22:55.513382 11092 net.cpp:156] Memory required for data: 294156400
I0403 13:22:55.513398 11092 layer_factory.hpp:77] Creating layer norm1
I0403 13:22:55.513424 11092 net.cpp:91] Creating Layer norm1
I0403 13:22:55.513442 11092 net.cpp:425] norm1 <- conv1
I0403 13:22:55.513459 11092 net.cpp:399] norm1 -> norm1
I0403 13:22:55.513759 11092 net.cpp:141] Setting up norm1
I0403 13:22:55.513787 11092 net.cpp:148] Top shape: 100 96 55 55 (29040000)
I0403 13:22:55.513802 11092 net.cpp:156] Memory required for data: 410316400
I0403 13:22:55.513815 11092 layer_factory.hpp:77] Creating layer pool1
I0403 13:22:55.513838 11092 net.cpp:91] Creating Layer pool1
I0403 13:22:55.513872 11092 net.cpp:425] pool1 <- norm1
I0403 13:22:55.513895 11092 net.cpp:399] pool1 -> pool1
I0403 13:22:55.513959 11092 net.cpp:141] Setting up pool1
I0403 13:22:55.513983 11092 net.cpp:148] Top shape: 100 96 27 27 (6998400)
I0403 13:22:55.513996 11092 net.cpp:156] Memory required for data: 438310000
I0403 13:22:55.514010 11092 layer_factory.hpp:77] Creating layer conv2
I0403 13:22:55.514034 11092 net.cpp:91] Creating Layer conv2
I0403 13:22:55.514048 11092 net.cpp:425] conv2 <- pool1
I0403 13:22:55.514065 11092 net.cpp:399] conv2 -> conv2
I0403 13:22:55.528209 11092 net.cpp:141] Setting up conv2
I0403 13:22:55.528241 11092 net.cpp:148] Top shape: 100 256 27 27 (18662400)
I0403 13:22:55.528257 11092 net.cpp:156] Memory required for data: 512959600
I0403 13:22:55.528277 11092 layer_factory.hpp:77] Creating layer relu2
I0403 13:22:55.528295 11092 net.cpp:91] Creating Layer relu2
I0403 13:22:55.528311 11092 net.cpp:425] relu2 <- conv2
I0403 13:22:55.528327 11092 net.cpp:386] relu2 -> conv2 (in-place)
I0403 13:22:55.528579 11092 net.cpp:141] Setting up relu2
I0403 13:22:55.528611 11092 net.cpp:148] Top shape: 100 256 27 27 (18662400)
I0403 13:22:55.528626 11092 net.cpp:156] Memory required for data: 587609200
I0403 13:22:55.528640 11092 layer_factory.hpp:77] Creating layer norm2
I0403 13:22:55.528658 11092 net.cpp:91] Creating Layer norm2
I0403 13:22:55.528673 11092 net.cpp:425] norm2 <- conv2
I0403 13:22:55.528690 11092 net.cpp:399] norm2 -> norm2
I0403 13:22:55.528862 11092 net.cpp:141] Setting up norm2
I0403 13:22:55.528887 11092 net.cpp:148] Top shape: 100 256 27 27 (18662400)
I0403 13:22:55.528900 11092 net.cpp:156] Memory required for data: 662258800
I0403 13:22:55.528914 11092 layer_factory.hpp:77] Creating layer pool2
I0403 13:22:55.528931 11092 net.cpp:91] Creating Layer pool2
I0403 13:22:55.528946 11092 net.cpp:425] pool2 <- norm2
I0403 13:22:55.528962 11092 net.cpp:399] pool2 -> pool2
I0403 13:22:55.529007 11092 net.cpp:141] Setting up pool2
I0403 13:22:55.529028 11092 net.cpp:148] Top shape: 100 256 13 13 (4326400)
I0403 13:22:55.529042 11092 net.cpp:156] Memory required for data: 679564400
I0403 13:22:55.529057 11092 layer_factory.hpp:77] Creating layer conv3
I0403 13:22:55.529077 11092 net.cpp:91] Creating Layer conv3
I0403 13:22:55.529091 11092 net.cpp:425] conv3 <- pool2
I0403 13:22:55.529109 11092 net.cpp:399] conv3 -> conv3
I0403 13:22:55.565505 11092 net.cpp:141] Setting up conv3
I0403 13:22:55.565554 11092 net.cpp:148] Top shape: 100 384 13 13 (6489600)
I0403 13:22:55.565572 11092 net.cpp:156] Memory required for data: 705522800
I0403 13:22:55.565594 11092 layer_factory.hpp:77] Creating layer relu3
I0403 13:22:55.565613 11092 net.cpp:91] Creating Layer relu3
I0403 13:22:55.565629 11092 net.cpp:425] relu3 <- conv3
I0403 13:22:55.565646 11092 net.cpp:386] relu3 -> conv3 (in-place)
I0403 13:22:55.565907 11092 net.cpp:141] Setting up relu3
I0403 13:22:55.565932 11092 net.cpp:148] Top shape: 100 384 13 13 (6489600)
I0403 13:22:55.565948 11092 net.cpp:156] Memory required for data: 731481200
I0403 13:22:55.565961 11092 layer_factory.hpp:77] Creating layer conv4
I0403 13:22:55.565982 11092 net.cpp:91] Creating Layer conv4
I0403 13:22:55.565999 11092 net.cpp:425] conv4 <- conv3
I0403 13:22:55.566016 11092 net.cpp:399] conv4 -> conv4
I0403 13:22:55.594473 11092 net.cpp:141] Setting up conv4
I0403 13:22:55.594518 11092 net.cpp:148] Top shape: 100 384 13 13 (6489600)
I0403 13:22:55.594576 11092 net.cpp:156] Memory required for data: 757439600
I0403 13:22:55.594597 11092 layer_factory.hpp:77] Creating layer relu4
I0403 13:22:55.594616 11092 net.cpp:91] Creating Layer relu4
I0403 13:22:55.594631 11092 net.cpp:425] relu4 <- conv4
I0403 13:22:55.594651 11092 net.cpp:386] relu4 -> conv4 (in-place)
I0403 13:22:55.594918 11092 net.cpp:141] Setting up relu4
I0403 13:22:55.594944 11092 net.cpp:148] Top shape: 100 384 13 13 (6489600)
I0403 13:22:55.594959 11092 net.cpp:156] Memory required for data: 783398000
I0403 13:22:55.594972 11092 layer_factory.hpp:77] Creating layer conv5
I0403 13:22:55.594996 11092 net.cpp:91] Creating Layer conv5
I0403 13:22:55.595013 11092 net.cpp:425] conv5 <- conv4
I0403 13:22:55.595033 11092 net.cpp:399] conv5 -> conv5
I0403 13:22:55.614646 11092 net.cpp:141] Setting up conv5
I0403 13:22:55.614677 11092 net.cpp:148] Top shape: 100 256 13 13 (4326400)
I0403 13:22:55.614692 11092 net.cpp:156] Memory required for data: 800703600
I0403 13:22:55.614714 11092 layer_factory.hpp:77] Creating layer relu5
I0403 13:22:55.614737 11092 net.cpp:91] Creating Layer relu5
I0403 13:22:55.614753 11092 net.cpp:425] relu5 <- conv5
I0403 13:22:55.614769 11092 net.cpp:386] relu5 -> conv5 (in-place)
I0403 13:22:55.615031 11092 net.cpp:141] Setting up relu5
I0403 13:22:55.615057 11092 net.cpp:148] Top shape: 100 256 13 13 (4326400)
I0403 13:22:55.615072 11092 net.cpp:156] Memory required for data: 818009200
I0403 13:22:55.615087 11092 layer_factory.hpp:77] Creating layer pool5
I0403 13:22:55.615108 11092 net.cpp:91] Creating Layer pool5
I0403 13:22:55.615125 11092 net.cpp:425] pool5 <- conv5
I0403 13:22:55.615142 11092 net.cpp:399] pool5 -> pool5
I0403 13:22:55.615198 11092 net.cpp:141] Setting up pool5
I0403 13:22:55.615221 11092 net.cpp:148] Top shape: 100 256 6 6 (921600)
I0403 13:22:55.615236 11092 net.cpp:156] Memory required for data: 821695600
I0403 13:22:55.615249 11092 layer_factory.hpp:77] Creating layer fc6
I0403 13:22:55.615314 11092 net.cpp:91] Creating Layer fc6
I0403 13:22:55.615334 11092 net.cpp:425] fc6 <- pool5
I0403 13:22:55.615352 11092 net.cpp:399] fc6 -> fc6
I0403 13:22:57.083442 11092 net.cpp:141] Setting up fc6
I0403 13:22:57.083521 11092 net.cpp:148] Top shape: 100 4096 (409600)
I0403 13:22:57.083540 11092 net.cpp:156] Memory required for data: 823334000
I0403 13:22:57.083561 11092 layer_factory.hpp:77] Creating layer relu6
I0403 13:22:57.083583 11092 net.cpp:91] Creating Layer relu6
I0403 13:22:57.083607 11092 net.cpp:425] relu6 <- fc6
I0403 13:22:57.083628 11092 net.cpp:386] relu6 -> fc6 (in-place)
I0403 13:22:57.083847 11092 net.cpp:141] Setting up relu6
I0403 13:22:57.083870 11092 net.cpp:148] Top shape: 100 4096 (409600)
I0403 13:22:57.083884 11092 net.cpp:156] Memory required for data: 824972400
I0403 13:22:57.083899 11092 layer_factory.hpp:77] Creating layer drop6
I0403 13:22:57.083919 11092 net.cpp:91] Creating Layer drop6
I0403 13:22:57.083933 11092 net.cpp:425] drop6 <- fc6
I0403 13:22:57.083948 11092 net.cpp:386] drop6 -> fc6 (in-place)
I0403 13:22:57.083997 11092 net.cpp:141] Setting up drop6
I0403 13:22:57.084027 11092 net.cpp:148] Top shape: 100 4096 (409600)
I0403 13:22:57.084041 11092 net.cpp:156] Memory required for data: 826610800
I0403 13:22:57.084055 11092 layer_factory.hpp:77] Creating layer fc7
I0403 13:22:57.084074 11092 net.cpp:91] Creating Layer fc7
I0403 13:22:57.084089 11092 net.cpp:425] fc7 <- fc6
I0403 13:22:57.084106 11092 net.cpp:399] fc7 -> fc7
I0403 13:22:57.730288 11092 net.cpp:141] Setting up fc7
I0403 13:22:57.730365 11092 net.cpp:148] Top shape: 100 4096 (409600)
I0403 13:22:57.730381 11092 net.cpp:156] Memory required for data: 828249200
I0403 13:22:57.730401 11092 layer_factory.hpp:77] Creating layer relu7
I0403 13:22:57.730422 11092 net.cpp:91] Creating Layer relu7
I0403 13:22:57.730437 11092 net.cpp:425] relu7 <- fc7
I0403 13:22:57.730458 11092 net.cpp:386] relu7 -> fc7 (in-place)
I0403 13:22:57.730849 11092 net.cpp:141] Setting up relu7
I0403 13:22:57.730875 11092 net.cpp:148] Top shape: 100 4096 (409600)
I0403 13:22:57.730927 11092 net.cpp:156] Memory required for data: 829887600
I0403 13:22:57.730942 11092 layer_factory.hpp:77] Creating layer drop7
I0403 13:22:57.730960 11092 net.cpp:91] Creating Layer drop7
I0403 13:22:57.730974 11092 net.cpp:425] drop7 <- fc7
I0403 13:22:57.730993 11092 net.cpp:386] drop7 -> fc7 (in-place)
I0403 13:22:57.731037 11092 net.cpp:141] Setting up drop7
I0403 13:22:57.731058 11092 net.cpp:148] Top shape: 100 4096 (409600)
I0403 13:22:57.731072 11092 net.cpp:156] Memory required for data: 831526000
I0403 13:22:57.731086 11092 layer_factory.hpp:77] Creating layer fc8_plantvillage
I0403 13:22:57.731104 11092 net.cpp:91] Creating Layer fc8_plantvillage
I0403 13:22:57.731118 11092 net.cpp:425] fc8_plantvillage <- fc7
I0403 13:22:57.731137 11092 net.cpp:399] fc8_plantvillage -> fc8_plantvillage
I0403 13:22:57.737474 11092 net.cpp:141] Setting up fc8_plantvillage
I0403 13:22:57.737501 11092 net.cpp:148] Top shape: 100 38 (3800)
I0403 13:22:57.737515 11092 net.cpp:156] Memory required for data: 831541200
I0403 13:22:57.737532 11092 layer_factory.hpp:77] Creating layer fc8_plantvillage_fc8_plantvillage_0_split
I0403 13:22:57.737558 11092 net.cpp:91] Creating Layer fc8_plantvillage_fc8_plantvillage_0_split
I0403 13:22:57.737574 11092 net.cpp:425] fc8_plantvillage_fc8_plantvillage_0_split <- fc8_plantvillage
I0403 13:22:57.737591 11092 net.cpp:399] fc8_plantvillage_fc8_plantvillage_0_split -> fc8_plantvillage_fc8_plantvillage_0_split_0
I0403 13:22:57.737609 11092 net.cpp:399] fc8_plantvillage_fc8_plantvillage_0_split -> fc8_plantvillage_fc8_plantvillage_0_split_1
I0403 13:22:57.737627 11092 net.cpp:399] fc8_plantvillage_fc8_plantvillage_0_split -> fc8_plantvillage_fc8_plantvillage_0_split_2
I0403 13:22:57.737702 11092 net.cpp:141] Setting up fc8_plantvillage_fc8_plantvillage_0_split
I0403 13:22:57.737725 11092 net.cpp:148] Top shape: 100 38 (3800)
I0403 13:22:57.737740 11092 net.cpp:148] Top shape: 100 38 (3800)
I0403 13:22:57.737754 11092 net.cpp:148] Top shape: 100 38 (3800)
I0403 13:22:57.737767 11092 net.cpp:156] Memory required for data: 831586800
I0403 13:22:57.737782 11092 layer_factory.hpp:77] Creating layer prob
I0403 13:22:57.737797 11092 net.cpp:91] Creating Layer prob
I0403 13:22:57.737812 11092 net.cpp:425] prob <- fc8_plantvillage_fc8_plantvillage_0_split_0
I0403 13:22:57.737828 11092 net.cpp:399] prob -> prob
I0403 13:22:57.738042 11092 net.cpp:141] Setting up prob
I0403 13:22:57.738066 11092 net.cpp:148] Top shape: 100 38 (3800)
I0403 13:22:57.738080 11092 net.cpp:156] Memory required for data: 831602000
I0403 13:22:57.738093 11092 layer_factory.hpp:77] Creating layer hdf5out
I0403 13:22:57.738111 11092 net.cpp:91] Creating Layer hdf5out
I0403 13:22:57.738126 11092 net.cpp:425] hdf5out <- prob
I0403 13:22:57.738139 11092 net.cpp:425] hdf5out <- label_data_1_split_0
I0403 13:22:57.740855 11092 net.cpp:141] Setting up hdf5out
…
