…
I0403 13:18:55.511468 10844 net.cpp:313] The NetState phase (1) differed from the phase (0) specified by a rule in layer data
I0403 13:18:55.511811 10844 net.cpp:49] Initializing net from parameters: 
state {
  phase: TEST
}
layer {
  name: "data"
  type: "Data"
  top: "data"
  top: "label"
  include {
    phase: TEST
  }
  transform_param {
    crop_size: 227
    mean_file: "/home/mohanty/data/final_dataset/lmdb/segmented-80-20/mean.binaryproto"
  }
  data_param {
    source: "/home/mohanty/data/final_dataset/lmdb/segmented-80-20/test_db"
    batch_size: 100
    backend: LMDB
  }
}
layer {
  name: "conv1"
  type: "Convolution"
  bottom: "data"
  top: "conv1"
  param {
    lr_mult: 1
    decay_mult: 1
  }
  param {
    lr_mult: 2
    decay_mult: 0
  }
  convolution_param {
    num_output: 96
    kernel_size: 11
    stride: 4
    weight_filler {
      type: "gaussian"
      std: 0.01
    }
    bias_filler {
      type: "constant"
      value: 0
    }
  }
}
layer {
  name: "relu1"
  type: "ReLU"
  bottom: "conv1"
  top: "conv1"
}
layer {
  name: "norm1"
  type: "LRN"
  bottom: "conv1"
  top: "norm1"
  lrn_param {
    local_size: 5
    alpha: 0.0001
    beta: 0.75
  }
}
layer {
  name: "pool1"
  type: "Pooling"
  bottom: "norm1"
  top: "pool1"
  pooling_param {
    pool: MAX
    kernel_size: 3
    stride: 2
  }
}
layer {
  name: "conv2"
  type: "Convolution"
  bottom: "pool1"
  top: "conv2"
  param {
    lr_mult: 1
    decay_mult: 1
  }
  param {
    lr_mult: 2
    decay_mult: 0
  }
  convolution_param {
    num_output: 256
    pad: 2
    kernel_size: 5
    group: 2
    weight_filler {
      type: "gaussian"
      std: 0.01
    }
    bias_filler {
      type: "constant"
      value: 0.1
    }
  }
}
layer {
  name: "relu2"
  type: "ReLU"
  bottom: "conv2"
  top: "conv2"
}
layer {
  name: "norm2"
  type: "LRN"
  bottom: "conv2"
  top: "norm2"
  lrn_param {
    local_size: 5
    alpha: 0.0001
    beta: 0.75
  }
}
layer {
  name: "pool2"
  type: "Pooling"
  bottom: "norm2"
  top: "pool2"
  pooling_param {
    pool: MAX
    kernel_size: 3
    stride: 2
  }
}
layer {
  name: "conv3"
  type: "Convolution"
  bottom: "pool2"
  top: "conv3"
  param {
    lr_mult: 1
    decay_mult: 1
  }
  param {
    lr_mult: 2
    decay_mult: 0
  }
  convolution_param {
    num_output: 384
    pad: 1
    kernel_size: 3
    weight_filler {
      type: "gaussian"
      std: 0.01
    }
    bias_filler {
      type: "constant"
      value: 0
    }
  }
}
layer {
  name: "relu3"
  type: "ReLU"
  bottom: "conv3"
  top: "conv3"
}
layer {
  name: "conv4"
  type: "Convolution"
  bottom: "conv3"
  top: "conv4"
  param {
    lr_mult: 1
    decay_mult: 1
  }
  param {
    lr_mult: 2
    decay_mult: 0
  }
  convolution_param {
    num_output: 384
    pad: 1
    kernel_size: 3
    group: 2
    weight_filler {
      type: "gaussian"
      std: 0.01
    }
    bias_filler {
      type: "constant"
      value: 0.1
    }
  }
}
layer {
  name: "relu4"
  type: "ReLU"
  bottom: "conv4"
  top: "conv4"
}
layer {
  name: "conv5"
  type: "Convolution"
  bottom: "conv4"
  top: "conv5"
  param {
    lr_mult: 1
    decay_mult: 1
  }
  param {
    lr_mult: 2
    decay_mult: 0
  }
  convolution_param {
    num_output: 256
    pad: 1
    kernel_size: 3
    group: 2
    weight_filler {
      type: "gaussian"
      std: 0.01
    }
    bias_filler {
      type: "constant"
      value: 0.1
    }
  }
}
layer {
  name: "relu5"
  type: "ReLU"
  bottom: "conv5"
  top: "conv5"
}
layer {
  name: "pool5"
  type: "Pooling"
  bottom: "conv5"
  top: "pool5"
  pooling_param {
    pool: MAX
    kernel_size: 3
    stride: 2
  }
}
layer {
  name: "fc6"
  type: "InnerProduct"
  bottom: "pool5"
  top: "fc6"
  param {
    lr_mult: 1
    decay_mult: 1
  }
  param {
    lr_mult: 2
    decay_mult: 0
  }
  inner_product_param {
    num_output: 4096
    weight_filler {
      type: "gaussian"
      std: 0.005
    }
    bias_filler {
      type: "constant"
      value: 0.1
    }
  }
}
layer {
  name: "relu6"
  type: "ReLU"
  bottom: "fc6"
  top: "fc6"
}
layer {
  name: "drop6"
  type: "Dropout"
  bottom: "fc6"
  top: "fc6"
  dropout_param {
    dropout_ratio: 0.5
  }
}
layer {
  name: "fc7"
  type: "InnerProduct"
  bottom: "fc6"
  top: "fc7"
  param {
    lr_mult: 1
    decay_mult: 1
  }
  param {
    lr_mult: 2
    decay_mult: 0
  }
  inner_product_param {
    num_output: 4096
    weight_filler {
      type: "gaussian"
      std: 0.005
    }
    bias_filler {
      type: "constant"
      value: 0.1
    }
  }
}
layer {
  name: "relu7"
  type: "ReLU"
  bottom: "fc7"
  top: "fc7"
}
layer {
  name: "drop7"
  type: "Dropout"
  bottom: "fc7"
  top: "fc7"
  dropout_param {
    dropout_ratio: 0.5
  }
}
layer {
  name: "fc8_plantvillage"
  type: "InnerProduct"
  bottom: "fc7"
  top: "fc8_plantvillage"
  param {
    lr_mult: 1
    decay_mult: 1
  }
  param {
    lr_mult: 2
    decay_mult: 0
  }
  inner_product_param {
    num_output: 38
    weight_filler {
      type: "gaussian"
      std: 0.01
    }
    bias_filler {
      type: "constant"
      value: 0
    }
  }
}
layer {
  name: "prob"
  type: "Softmax"
  bottom: "fc8_plantvillage"
  top: "prob"
  include {
    phase: TEST
  }
}
layer {
  name: "hdf5out"
  type: "HDF5Output"
  bottom: "prob"
  bottom: "label"
  include {
    phase: TEST
  }
  hdf5_output_param {
    file_name: "hdf5_dumps/iter_870.h5"
  }
}
layer {
  name: "loss"
  type: "SoftmaxWithLoss"
  bottom: "fc8_plantvillage"
  bottom: "label"
  top: "loss"
}
layer {
  name: "accuracy"
  type: "Accuracy"
  bottom: "fc8_plantvillage"
  bottom: "label"
  top: "accuracy"
  include {
    phase: TEST
  }
}
I0403 13:18:55.512414 10844 layer_factory.hpp:77] Creating layer data
I0403 13:18:55.513058 10844 net.cpp:91] Creating Layer data
I0403 13:18:55.513090 10844 net.cpp:399] data -> data
I0403 13:18:55.513141 10844 net.cpp:399] data -> label
I0403 13:18:55.513176 10844 data_transformer.cpp:25] Loading mean file from: /home/mohanty/data/final_dataset/lmdb/segmented-80-20/mean.binaryproto
I0403 13:18:55.515996 10847 db_lmdb.cpp:38] Opened lmdb /home/mohanty/data/final_dataset/lmdb/segmented-80-20/test_db
I0403 13:18:55.527464 10844 data_layer.cpp:41] output data size: 100,3,227,227
I0403 13:18:55.644667 10844 net.cpp:141] Setting up data
I0403 13:18:55.644757 10844 net.cpp:148] Top shape: 100 3 227 227 (15458700)
I0403 13:18:55.644778 10844 net.cpp:148] Top shape: 100 (100)
I0403 13:18:55.644793 10844 net.cpp:156] Memory required for data: 61835200
I0403 13:18:55.644820 10844 layer_factory.hpp:77] Creating layer label_data_1_split
I0403 13:18:55.644845 10844 net.cpp:91] Creating Layer label_data_1_split
I0403 13:18:55.644862 10844 net.cpp:425] label_data_1_split <- label
I0403 13:18:55.644894 10844 net.cpp:399] label_data_1_split -> label_data_1_split_0
I0403 13:18:55.644922 10844 net.cpp:399] label_data_1_split -> label_data_1_split_1
I0403 13:18:55.644942 10844 net.cpp:399] label_data_1_split -> label_data_1_split_2
I0403 13:18:55.645004 10844 net.cpp:141] Setting up label_data_1_split
I0403 13:18:55.645026 10844 net.cpp:148] Top shape: 100 (100)
I0403 13:18:55.645042 10844 net.cpp:148] Top shape: 100 (100)
I0403 13:18:55.645058 10844 net.cpp:148] Top shape: 100 (100)
I0403 13:18:55.645071 10844 net.cpp:156] Memory required for data: 61836400
I0403 13:18:55.645087 10844 layer_factory.hpp:77] Creating layer conv1
I0403 13:18:55.645117 10844 net.cpp:91] Creating Layer conv1
I0403 13:18:55.645135 10844 net.cpp:425] conv1 <- data
I0403 13:18:55.645153 10844 net.cpp:399] conv1 -> conv1
I0403 13:18:55.786636 10844 net.cpp:141] Setting up conv1
I0403 13:18:55.786710 10844 net.cpp:148] Top shape: 100 96 55 55 (29040000)
I0403 13:18:55.786727 10844 net.cpp:156] Memory required for data: 177996400
I0403 13:18:55.786759 10844 layer_factory.hpp:77] Creating layer relu1
I0403 13:18:55.786787 10844 net.cpp:91] Creating Layer relu1
I0403 13:18:55.786806 10844 net.cpp:425] relu1 <- conv1
I0403 13:18:55.786826 10844 net.cpp:386] relu1 -> conv1 (in-place)
I0403 13:18:55.787083 10844 net.cpp:141] Setting up relu1
I0403 13:18:55.787122 10844 net.cpp:148] Top shape: 100 96 55 55 (29040000)
I0403 13:18:55.787161 10844 net.cpp:156] Memory required for data: 294156400
I0403 13:18:55.787178 10844 layer_factory.hpp:77] Creating layer norm1
I0403 13:18:55.787204 10844 net.cpp:91] Creating Layer norm1
I0403 13:18:55.787221 10844 net.cpp:425] norm1 <- conv1
I0403 13:18:55.787238 10844 net.cpp:399] norm1 -> norm1
I0403 13:18:55.787534 10844 net.cpp:141] Setting up norm1
I0403 13:18:55.787566 10844 net.cpp:148] Top shape: 100 96 55 55 (29040000)
I0403 13:18:55.787581 10844 net.cpp:156] Memory required for data: 410316400
I0403 13:18:55.787595 10844 layer_factory.hpp:77] Creating layer pool1
I0403 13:18:55.787618 10844 net.cpp:91] Creating Layer pool1
I0403 13:18:55.787634 10844 net.cpp:425] pool1 <- norm1
I0403 13:18:55.787652 10844 net.cpp:399] pool1 -> pool1
I0403 13:18:55.787715 10844 net.cpp:141] Setting up pool1
I0403 13:18:55.787739 10844 net.cpp:148] Top shape: 100 96 27 27 (6998400)
I0403 13:18:55.787753 10844 net.cpp:156] Memory required for data: 438310000
I0403 13:18:55.787768 10844 layer_factory.hpp:77] Creating layer conv2
I0403 13:18:55.787791 10844 net.cpp:91] Creating Layer conv2
I0403 13:18:55.787807 10844 net.cpp:425] conv2 <- pool1
I0403 13:18:55.787825 10844 net.cpp:399] conv2 -> conv2
I0403 13:18:55.802798 10844 net.cpp:141] Setting up conv2
I0403 13:18:55.802845 10844 net.cpp:148] Top shape: 100 256 27 27 (18662400)
I0403 13:18:55.802862 10844 net.cpp:156] Memory required for data: 512959600
I0403 13:18:55.802884 10844 layer_factory.hpp:77] Creating layer relu2
I0403 13:18:55.802906 10844 net.cpp:91] Creating Layer relu2
I0403 13:18:55.802943 10844 net.cpp:425] relu2 <- conv2
I0403 13:18:55.802969 10844 net.cpp:386] relu2 -> conv2 (in-place)
I0403 13:18:55.803251 10844 net.cpp:141] Setting up relu2
I0403 13:18:55.803278 10844 net.cpp:148] Top shape: 100 256 27 27 (18662400)
I0403 13:18:55.803297 10844 net.cpp:156] Memory required for data: 587609200
I0403 13:18:55.803310 10844 layer_factory.hpp:77] Creating layer norm2
I0403 13:18:55.803333 10844 net.cpp:91] Creating Layer norm2
I0403 13:18:55.803350 10844 net.cpp:425] norm2 <- conv2
I0403 13:18:55.803369 10844 net.cpp:399] norm2 -> norm2
I0403 13:18:55.803586 10844 net.cpp:141] Setting up norm2
I0403 13:18:55.803612 10844 net.cpp:148] Top shape: 100 256 27 27 (18662400)
I0403 13:18:55.803628 10844 net.cpp:156] Memory required for data: 662258800
I0403 13:18:55.803643 10844 layer_factory.hpp:77] Creating layer pool2
I0403 13:18:55.803661 10844 net.cpp:91] Creating Layer pool2
I0403 13:18:55.803678 10844 net.cpp:425] pool2 <- norm2
I0403 13:18:55.803697 10844 net.cpp:399] pool2 -> pool2
I0403 13:18:55.803750 10844 net.cpp:141] Setting up pool2
I0403 13:18:55.803774 10844 net.cpp:148] Top shape: 100 256 13 13 (4326400)
I0403 13:18:55.803788 10844 net.cpp:156] Memory required for data: 679564400
I0403 13:18:55.803815 10844 layer_factory.hpp:77] Creating layer conv3
I0403 13:18:55.803843 10844 net.cpp:91] Creating Layer conv3
I0403 13:18:55.803859 10844 net.cpp:425] conv3 <- pool2
I0403 13:18:55.803877 10844 net.cpp:399] conv3 -> conv3
I0403 13:18:55.842839 10844 net.cpp:141] Setting up conv3
I0403 13:18:55.842916 10844 net.cpp:148] Top shape: 100 384 13 13 (6489600)
I0403 13:18:55.842934 10844 net.cpp:156] Memory required for data: 705522800
I0403 13:18:55.842960 10844 layer_factory.hpp:77] Creating layer relu3
I0403 13:18:55.842984 10844 net.cpp:91] Creating Layer relu3
I0403 13:18:55.843001 10844 net.cpp:425] relu3 <- conv3
I0403 13:18:55.843022 10844 net.cpp:386] relu3 -> conv3 (in-place)
I0403 13:18:55.843297 10844 net.cpp:141] Setting up relu3
I0403 13:18:55.843324 10844 net.cpp:148] Top shape: 100 384 13 13 (6489600)
I0403 13:18:55.843339 10844 net.cpp:156] Memory required for data: 731481200
I0403 13:18:55.843355 10844 layer_factory.hpp:77] Creating layer conv4
I0403 13:18:55.843380 10844 net.cpp:91] Creating Layer conv4
I0403 13:18:55.843400 10844 net.cpp:425] conv4 <- conv3
I0403 13:18:55.843452 10844 net.cpp:399] conv4 -> conv4
I0403 13:18:55.873987 10844 net.cpp:141] Setting up conv4
I0403 13:18:55.874058 10844 net.cpp:148] Top shape: 100 384 13 13 (6489600)
I0403 13:18:55.874115 10844 net.cpp:156] Memory required for data: 757439600
I0403 13:18:55.874138 10844 layer_factory.hpp:77] Creating layer relu4
I0403 13:18:55.874161 10844 net.cpp:91] Creating Layer relu4
I0403 13:18:55.874177 10844 net.cpp:425] relu4 <- conv4
I0403 13:18:55.874199 10844 net.cpp:386] relu4 -> conv4 (in-place)
I0403 13:18:55.874477 10844 net.cpp:141] Setting up relu4
I0403 13:18:55.874508 10844 net.cpp:148] Top shape: 100 384 13 13 (6489600)
I0403 13:18:55.874526 10844 net.cpp:156] Memory required for data: 783398000
I0403 13:18:55.874552 10844 layer_factory.hpp:77] Creating layer conv5
I0403 13:18:55.874582 10844 net.cpp:91] Creating Layer conv5
I0403 13:18:55.874600 10844 net.cpp:425] conv5 <- conv4
I0403 13:18:55.874619 10844 net.cpp:399] conv5 -> conv5
I0403 13:18:55.895622 10844 net.cpp:141] Setting up conv5
I0403 13:18:55.895679 10844 net.cpp:148] Top shape: 100 256 13 13 (4326400)
I0403 13:18:55.895697 10844 net.cpp:156] Memory required for data: 800703600
I0403 13:18:55.895722 10844 layer_factory.hpp:77] Creating layer relu5
I0403 13:18:55.895745 10844 net.cpp:91] Creating Layer relu5
I0403 13:18:55.895761 10844 net.cpp:425] relu5 <- conv5
I0403 13:18:55.895781 10844 net.cpp:386] relu5 -> conv5 (in-place)
I0403 13:18:55.896060 10844 net.cpp:141] Setting up relu5
I0403 13:18:55.896088 10844 net.cpp:148] Top shape: 100 256 13 13 (4326400)
I0403 13:18:55.896103 10844 net.cpp:156] Memory required for data: 818009200
I0403 13:18:55.896118 10844 layer_factory.hpp:77] Creating layer pool5
I0403 13:18:55.896143 10844 net.cpp:91] Creating Layer pool5
I0403 13:18:55.896160 10844 net.cpp:425] pool5 <- conv5
I0403 13:18:55.896179 10844 net.cpp:399] pool5 -> pool5
I0403 13:18:55.896270 10844 net.cpp:141] Setting up pool5
I0403 13:18:55.896297 10844 net.cpp:148] Top shape: 100 256 6 6 (921600)
I0403 13:18:55.896312 10844 net.cpp:156] Memory required for data: 821695600
I0403 13:18:55.896327 10844 layer_factory.hpp:77] Creating layer fc6
I0403 13:18:55.896353 10844 net.cpp:91] Creating Layer fc6
I0403 13:18:55.896370 10844 net.cpp:425] fc6 <- pool5
I0403 13:18:55.896390 10844 net.cpp:399] fc6 -> fc6
I0403 13:18:57.477766 10844 net.cpp:141] Setting up fc6
I0403 13:18:57.477849 10844 net.cpp:148] Top shape: 100 4096 (409600)
I0403 13:18:57.477865 10844 net.cpp:156] Memory required for data: 823334000
I0403 13:18:57.477886 10844 layer_factory.hpp:77] Creating layer relu6
I0403 13:18:57.477910 10844 net.cpp:91] Creating Layer relu6
I0403 13:18:57.477928 10844 net.cpp:425] relu6 <- fc6
I0403 13:18:57.477947 10844 net.cpp:386] relu6 -> fc6 (in-place)
I0403 13:18:57.478178 10844 net.cpp:141] Setting up relu6
I0403 13:18:57.478201 10844 net.cpp:148] Top shape: 100 4096 (409600)
I0403 13:18:57.478215 10844 net.cpp:156] Memory required for data: 824972400
I0403 13:18:57.478230 10844 layer_factory.hpp:77] Creating layer drop6
I0403 13:18:57.478248 10844 net.cpp:91] Creating Layer drop6
I0403 13:18:57.478263 10844 net.cpp:425] drop6 <- fc6
I0403 13:18:57.478281 10844 net.cpp:386] drop6 -> fc6 (in-place)
I0403 13:18:57.478332 10844 net.cpp:141] Setting up drop6
I0403 13:18:57.478358 10844 net.cpp:148] Top shape: 100 4096 (409600)
I0403 13:18:57.478373 10844 net.cpp:156] Memory required for data: 826610800
I0403 13:18:57.478386 10844 layer_factory.hpp:77] Creating layer fc7
I0403 13:18:57.478405 10844 net.cpp:91] Creating Layer fc7
I0403 13:18:57.478421 10844 net.cpp:425] fc7 <- fc6
I0403 13:18:57.478440 10844 net.cpp:399] fc7 -> fc7
I0403 13:18:58.177789 10844 net.cpp:141] Setting up fc7
I0403 13:18:58.177870 10844 net.cpp:148] Top shape: 100 4096 (409600)
I0403 13:18:58.177887 10844 net.cpp:156] Memory required for data: 828249200
I0403 13:18:58.177908 10844 layer_factory.hpp:77] Creating layer relu7
I0403 13:18:58.177930 10844 net.cpp:91] Creating Layer relu7
I0403 13:18:58.177947 10844 net.cpp:425] relu7 <- fc7
I0403 13:18:58.177968 10844 net.cpp:386] relu7 -> fc7 (in-place)
I0403 13:18:58.178385 10844 net.cpp:141] Setting up relu7
I0403 13:18:58.178414 10844 net.cpp:148] Top shape: 100 4096 (409600)
I0403 13:18:58.178474 10844 net.cpp:156] Memory required for data: 829887600
I0403 13:18:58.178490 10844 layer_factory.hpp:77] Creating layer drop7
I0403 13:18:58.178514 10844 net.cpp:91] Creating Layer drop7
I0403 13:18:58.178531 10844 net.cpp:425] drop7 <- fc7
I0403 13:18:58.178551 10844 net.cpp:386] drop7 -> fc7 (in-place)
I0403 13:18:58.178607 10844 net.cpp:141] Setting up drop7
I0403 13:18:58.178629 10844 net.cpp:148] Top shape: 100 4096 (409600)
I0403 13:18:58.178643 10844 net.cpp:156] Memory required for data: 831526000
I0403 13:18:58.178656 10844 layer_factory.hpp:77] Creating layer fc8_plantvillage
I0403 13:18:58.178678 10844 net.cpp:91] Creating Layer fc8_plantvillage
I0403 13:18:58.178694 10844 net.cpp:425] fc8_plantvillage <- fc7
I0403 13:18:58.178714 10844 net.cpp:399] fc8_plantvillage -> fc8_plantvillage
I0403 13:18:58.185537 10844 net.cpp:141] Setting up fc8_plantvillage
I0403 13:18:58.185565 10844 net.cpp:148] Top shape: 100 38 (3800)
I0403 13:18:58.185580 10844 net.cpp:156] Memory required for data: 831541200
I0403 13:18:58.185597 10844 layer_factory.hpp:77] Creating layer fc8_plantvillage_fc8_plantvillage_0_split
I0403 13:18:58.185616 10844 net.cpp:91] Creating Layer fc8_plantvillage_fc8_plantvillage_0_split
I0403 13:18:58.185631 10844 net.cpp:425] fc8_plantvillage_fc8_plantvillage_0_split <- fc8_plantvillage
I0403 13:18:58.185652 10844 net.cpp:399] fc8_plantvillage_fc8_plantvillage_0_split -> fc8_plantvillage_fc8_plantvillage_0_split_0
I0403 13:18:58.185672 10844 net.cpp:399] fc8_plantvillage_fc8_plantvillage_0_split -> fc8_plantvillage_fc8_plantvillage_0_split_1
I0403 13:18:58.185691 10844 net.cpp:399] fc8_plantvillage_fc8_plantvillage_0_split -> fc8_plantvillage_fc8_plantvillage_0_split_2
I0403 13:18:58.185768 10844 net.cpp:141] Setting up fc8_plantvillage_fc8_plantvillage_0_split
I0403 13:18:58.185791 10844 net.cpp:148] Top shape: 100 38 (3800)
I0403 13:18:58.185807 10844 net.cpp:148] Top shape: 100 38 (3800)
I0403 13:18:58.185822 10844 net.cpp:148] Top shape: 100 38 (3800)
I0403 13:18:58.185837 10844 net.cpp:156] Memory required for data: 831586800
I0403 13:18:58.185850 10844 layer_factory.hpp:77] Creating layer prob
I0403 13:18:58.185868 10844 net.cpp:91] Creating Layer prob
I0403 13:18:58.185883 10844 net.cpp:425] prob <- fc8_plantvillage_fc8_plantvillage_0_split_0
I0403 13:18:58.185904 10844 net.cpp:399] prob -> prob
I0403 13:18:58.186127 10844 net.cpp:141] Setting up prob
I0403 13:18:58.186156 10844 net.cpp:148] Top shape: 100 38 (3800)
I0403 13:18:58.186170 10844 net.cpp:156] Memory required for data: 831602000
I0403 13:18:58.186185 10844 layer_factory.hpp:77] Creating layer hdf5out
I0403 13:18:58.186203 10844 net.cpp:91] Creating Layer hdf5out
I0403 13:18:58.186218 10844 net.cpp:425] hdf5out <- prob
I0403 13:18:58.186233 10844 net.cpp:425] hdf5out <- label_data_1_split_0
I0403 13:18:58.188704 10844 net.cpp:141] Setting up hdf5out
…
