…
I0403 13:30:31.832782 11423 net.cpp:313] The NetState phase (1) differed from the phase (0) specified by a rule in layer data
I0403 13:30:31.833097 11423 net.cpp:49] Initializing net from parameters: 
state {
  phase: TEST
}
layer {
  name: "data"
  type: "Data"
  top: "data"
  top: "label"
  include {
    phase: TEST
  }
  transform_param {
    crop_size: 227
    mean_file: "/home/mohanty/data/final_dataset/lmdb/segmented-80-20/mean.binaryproto"
  }
  data_param {
    source: "/home/mohanty/data/final_dataset/lmdb/segmented-80-20/test_db"
    batch_size: 100
    backend: LMDB
  }
}
layer {
  name: "conv1"
  type: "Convolution"
  bottom: "data"
  top: "conv1"
  param {
    lr_mult: 1
    decay_mult: 1
  }
  param {
    lr_mult: 2
    decay_mult: 0
  }
  convolution_param {
    num_output: 96
    kernel_size: 11
    stride: 4
    weight_filler {
      type: "gaussian"
      std: 0.01
    }
    bias_filler {
      type: "constant"
      value: 0
    }
  }
}
layer {
  name: "relu1"
  type: "ReLU"
  bottom: "conv1"
  top: "conv1"
}
layer {
  name: "norm1"
  type: "LRN"
  bottom: "conv1"
  top: "norm1"
  lrn_param {
    local_size: 5
    alpha: 0.0001
    beta: 0.75
  }
}
layer {
  name: "pool1"
  type: "Pooling"
  bottom: "norm1"
  top: "pool1"
  pooling_param {
    pool: MAX
    kernel_size: 3
    stride: 2
  }
}
layer {
  name: "conv2"
  type: "Convolution"
  bottom: "pool1"
  top: "conv2"
  param {
    lr_mult: 1
    decay_mult: 1
  }
  param {
    lr_mult: 2
    decay_mult: 0
  }
  convolution_param {
    num_output: 256
    pad: 2
    kernel_size: 5
    group: 2
    weight_filler {
      type: "gaussian"
      std: 0.01
    }
    bias_filler {
      type: "constant"
      value: 0.1
    }
  }
}
layer {
  name: "relu2"
  type: "ReLU"
  bottom: "conv2"
  top: "conv2"
}
layer {
  name: "norm2"
  type: "LRN"
  bottom: "conv2"
  top: "norm2"
  lrn_param {
    local_size: 5
    alpha: 0.0001
    beta: 0.75
  }
}
layer {
  name: "pool2"
  type: "Pooling"
  bottom: "norm2"
  top: "pool2"
  pooling_param {
    pool: MAX
    kernel_size: 3
    stride: 2
  }
}
layer {
  name: "conv3"
  type: "Convolution"
  bottom: "pool2"
  top: "conv3"
  param {
    lr_mult: 1
    decay_mult: 1
  }
  param {
    lr_mult: 2
    decay_mult: 0
  }
  convolution_param {
    num_output: 384
    pad: 1
    kernel_size: 3
    weight_filler {
      type: "gaussian"
      std: 0.01
    }
    bias_filler {
      type: "constant"
      value: 0
    }
  }
}
layer {
  name: "relu3"
  type: "ReLU"
  bottom: "conv3"
  top: "conv3"
}
layer {
  name: "conv4"
  type: "Convolution"
  bottom: "conv3"
  top: "conv4"
  param {
    lr_mult: 1
    decay_mult: 1
  }
  param {
    lr_mult: 2
    decay_mult: 0
  }
  convolution_param {
    num_output: 384
    pad: 1
    kernel_size: 3
    group: 2
    weight_filler {
      type: "gaussian"
      std: 0.01
    }
    bias_filler {
      type: "constant"
      value: 0.1
    }
  }
}
layer {
  name: "relu4"
  type: "ReLU"
  bottom: "conv4"
  top: "conv4"
}
layer {
  name: "conv5"
  type: "Convolution"
  bottom: "conv4"
  top: "conv5"
  param {
    lr_mult: 1
    decay_mult: 1
  }
  param {
    lr_mult: 2
    decay_mult: 0
  }
  convolution_param {
    num_output: 256
    pad: 1
    kernel_size: 3
    group: 2
    weight_filler {
      type: "gaussian"
      std: 0.01
    }
    bias_filler {
      type: "constant"
      value: 0.1
    }
  }
}
layer {
  name: "relu5"
  type: "ReLU"
  bottom: "conv5"
  top: "conv5"
}
layer {
  name: "pool5"
  type: "Pooling"
  bottom: "conv5"
  top: "pool5"
  pooling_param {
    pool: MAX
    kernel_size: 3
    stride: 2
  }
}
layer {
  name: "fc6"
  type: "InnerProduct"
  bottom: "pool5"
  top: "fc6"
  param {
    lr_mult: 1
    decay_mult: 1
  }
  param {
    lr_mult: 2
    decay_mult: 0
  }
  inner_product_param {
    num_output: 4096
    weight_filler {
      type: "gaussian"
      std: 0.005
    }
    bias_filler {
      type: "constant"
      value: 0.1
    }
  }
}
layer {
  name: "relu6"
  type: "ReLU"
  bottom: "fc6"
  top: "fc6"
}
layer {
  name: "drop6"
  type: "Dropout"
  bottom: "fc6"
  top: "fc6"
  dropout_param {
    dropout_ratio: 0.5
  }
}
layer {
  name: "fc7"
  type: "InnerProduct"
  bottom: "fc6"
  top: "fc7"
  param {
    lr_mult: 1
    decay_mult: 1
  }
  param {
    lr_mult: 2
    decay_mult: 0
  }
  inner_product_param {
    num_output: 4096
    weight_filler {
      type: "gaussian"
      std: 0.005
    }
    bias_filler {
      type: "constant"
      value: 0.1
    }
  }
}
layer {
  name: "relu7"
  type: "ReLU"
  bottom: "fc7"
  top: "fc7"
}
layer {
  name: "drop7"
  type: "Dropout"
  bottom: "fc7"
  top: "fc7"
  dropout_param {
    dropout_ratio: 0.5
  }
}
layer {
  name: "fc8_plantvillage"
  type: "InnerProduct"
  bottom: "fc7"
  top: "fc8_plantvillage"
  param {
    lr_mult: 1
    decay_mult: 1
  }
  param {
    lr_mult: 2
    decay_mult: 0
  }
  inner_product_param {
    num_output: 38
    weight_filler {
      type: "gaussian"
      std: 0.01
    }
    bias_filler {
      type: "constant"
      value: 0
    }
  }
}
layer {
  name: "prob"
  type: "Softmax"
  bottom: "fc8_plantvillage"
  top: "prob"
  include {
    phase: TEST
  }
}
layer {
  name: "hdf5out"
  type: "HDF5Output"
  bottom: "prob"
  bottom: "label"
  include {
    phase: TEST
  }
  hdf5_output_param {
    file_name: "hdf5_dumps/iter_13050.h5"
  }
}
layer {
  name: "loss"
  type: "SoftmaxWithLoss"
  bottom: "fc8_plantvillage"
  bottom: "label"
  top: "loss"
}
layer {
  name: "accuracy"
  type: "Accuracy"
  bottom: "fc8_plantvillage"
  bottom: "label"
  top: "accuracy"
  include {
    phase: TEST
  }
}
I0403 13:30:31.833678 11423 layer_factory.hpp:77] Creating layer data
I0403 13:30:31.834334 11423 net.cpp:91] Creating Layer data
I0403 13:30:31.834373 11423 net.cpp:399] data -> data
I0403 13:30:31.834427 11423 net.cpp:399] data -> label
I0403 13:30:31.834463 11423 data_transformer.cpp:25] Loading mean file from: /home/mohanty/data/final_dataset/lmdb/segmented-80-20/mean.binaryproto
I0403 13:30:31.846442 11425 db_lmdb.cpp:38] Opened lmdb /home/mohanty/data/final_dataset/lmdb/segmented-80-20/test_db
I0403 13:30:31.855144 11423 data_layer.cpp:41] output data size: 100,3,227,227
I0403 13:30:31.977850 11423 net.cpp:141] Setting up data
I0403 13:30:31.977943 11423 net.cpp:148] Top shape: 100 3 227 227 (15458700)
I0403 13:30:31.977967 11423 net.cpp:148] Top shape: 100 (100)
I0403 13:30:31.977982 11423 net.cpp:156] Memory required for data: 61835200
I0403 13:30:31.978009 11423 layer_factory.hpp:77] Creating layer label_data_1_split
I0403 13:30:31.978046 11423 net.cpp:91] Creating Layer label_data_1_split
I0403 13:30:31.978065 11423 net.cpp:425] label_data_1_split <- label
I0403 13:30:31.978097 11423 net.cpp:399] label_data_1_split -> label_data_1_split_0
I0403 13:30:31.978126 11423 net.cpp:399] label_data_1_split -> label_data_1_split_1
I0403 13:30:31.978147 11423 net.cpp:399] label_data_1_split -> label_data_1_split_2
I0403 13:30:31.978210 11423 net.cpp:141] Setting up label_data_1_split
I0403 13:30:31.978235 11423 net.cpp:148] Top shape: 100 (100)
I0403 13:30:31.978250 11423 net.cpp:148] Top shape: 100 (100)
I0403 13:30:31.978266 11423 net.cpp:148] Top shape: 100 (100)
I0403 13:30:31.978281 11423 net.cpp:156] Memory required for data: 61836400
I0403 13:30:31.978297 11423 layer_factory.hpp:77] Creating layer conv1
I0403 13:30:31.978328 11423 net.cpp:91] Creating Layer conv1
I0403 13:30:31.978346 11423 net.cpp:425] conv1 <- data
I0403 13:30:31.978379 11423 net.cpp:399] conv1 -> conv1
I0403 13:30:32.122572 11423 net.cpp:141] Setting up conv1
I0403 13:30:32.122622 11423 net.cpp:148] Top shape: 100 96 55 55 (29040000)
I0403 13:30:32.122638 11423 net.cpp:156] Memory required for data: 177996400
I0403 13:30:32.122668 11423 layer_factory.hpp:77] Creating layer relu1
I0403 13:30:32.122694 11423 net.cpp:91] Creating Layer relu1
I0403 13:30:32.122712 11423 net.cpp:425] relu1 <- conv1
I0403 13:30:32.122730 11423 net.cpp:386] relu1 -> conv1 (in-place)
I0403 13:30:32.122995 11423 net.cpp:141] Setting up relu1
I0403 13:30:32.123023 11423 net.cpp:148] Top shape: 100 96 55 55 (29040000)
I0403 13:30:32.123071 11423 net.cpp:156] Memory required for data: 294156400
I0403 13:30:32.123087 11423 layer_factory.hpp:77] Creating layer norm1
I0403 13:30:32.123113 11423 net.cpp:91] Creating Layer norm1
I0403 13:30:32.123131 11423 net.cpp:425] norm1 <- conv1
I0403 13:30:32.123148 11423 net.cpp:399] norm1 -> norm1
I0403 13:30:32.123461 11423 net.cpp:141] Setting up norm1
I0403 13:30:32.123487 11423 net.cpp:148] Top shape: 100 96 55 55 (29040000)
I0403 13:30:32.123503 11423 net.cpp:156] Memory required for data: 410316400
I0403 13:30:32.123517 11423 layer_factory.hpp:77] Creating layer pool1
I0403 13:30:32.123555 11423 net.cpp:91] Creating Layer pool1
I0403 13:30:32.123574 11423 net.cpp:425] pool1 <- norm1
I0403 13:30:32.123594 11423 net.cpp:399] pool1 -> pool1
I0403 13:30:32.123661 11423 net.cpp:141] Setting up pool1
I0403 13:30:32.123684 11423 net.cpp:148] Top shape: 100 96 27 27 (6998400)
I0403 13:30:32.123698 11423 net.cpp:156] Memory required for data: 438310000
I0403 13:30:32.123713 11423 layer_factory.hpp:77] Creating layer conv2
I0403 13:30:32.123736 11423 net.cpp:91] Creating Layer conv2
I0403 13:30:32.123793 11423 net.cpp:425] conv2 <- pool1
I0403 13:30:32.123816 11423 net.cpp:399] conv2 -> conv2
I0403 13:30:32.138867 11423 net.cpp:141] Setting up conv2
I0403 13:30:32.138918 11423 net.cpp:148] Top shape: 100 256 27 27 (18662400)
I0403 13:30:32.138936 11423 net.cpp:156] Memory required for data: 512959600
I0403 13:30:32.138958 11423 layer_factory.hpp:77] Creating layer relu2
I0403 13:30:32.138980 11423 net.cpp:91] Creating Layer relu2
I0403 13:30:32.138996 11423 net.cpp:425] relu2 <- conv2
I0403 13:30:32.139014 11423 net.cpp:386] relu2 -> conv2 (in-place)
I0403 13:30:32.139293 11423 net.cpp:141] Setting up relu2
I0403 13:30:32.139322 11423 net.cpp:148] Top shape: 100 256 27 27 (18662400)
I0403 13:30:32.139338 11423 net.cpp:156] Memory required for data: 587609200
I0403 13:30:32.139353 11423 layer_factory.hpp:77] Creating layer norm2
I0403 13:30:32.139374 11423 net.cpp:91] Creating Layer norm2
I0403 13:30:32.139390 11423 net.cpp:425] norm2 <- conv2
I0403 13:30:32.139407 11423 net.cpp:399] norm2 -> norm2
I0403 13:30:32.139611 11423 net.cpp:141] Setting up norm2
I0403 13:30:32.139638 11423 net.cpp:148] Top shape: 100 256 27 27 (18662400)
I0403 13:30:32.139654 11423 net.cpp:156] Memory required for data: 662258800
I0403 13:30:32.139669 11423 layer_factory.hpp:77] Creating layer pool2
I0403 13:30:32.139688 11423 net.cpp:91] Creating Layer pool2
I0403 13:30:32.139703 11423 net.cpp:425] pool2 <- norm2
I0403 13:30:32.139721 11423 net.cpp:399] pool2 -> pool2
I0403 13:30:32.139772 11423 net.cpp:141] Setting up pool2
I0403 13:30:32.139796 11423 net.cpp:148] Top shape: 100 256 13 13 (4326400)
I0403 13:30:32.139811 11423 net.cpp:156] Memory required for data: 679564400
I0403 13:30:32.139825 11423 layer_factory.hpp:77] Creating layer conv3
I0403 13:30:32.139847 11423 net.cpp:91] Creating Layer conv3
I0403 13:30:32.139863 11423 net.cpp:425] conv3 <- pool2
I0403 13:30:32.139881 11423 net.cpp:399] conv3 -> conv3
I0403 13:30:32.178216 11423 net.cpp:141] Setting up conv3
I0403 13:30:32.178289 11423 net.cpp:148] Top shape: 100 384 13 13 (6489600)
I0403 13:30:32.178314 11423 net.cpp:156] Memory required for data: 705522800
I0403 13:30:32.178340 11423 layer_factory.hpp:77] Creating layer relu3
I0403 13:30:32.178362 11423 net.cpp:91] Creating Layer relu3
I0403 13:30:32.178380 11423 net.cpp:425] relu3 <- conv3
I0403 13:30:32.178400 11423 net.cpp:386] relu3 -> conv3 (in-place)
I0403 13:30:32.178686 11423 net.cpp:141] Setting up relu3
I0403 13:30:32.178714 11423 net.cpp:148] Top shape: 100 384 13 13 (6489600)
I0403 13:30:32.178728 11423 net.cpp:156] Memory required for data: 731481200
I0403 13:30:32.178742 11423 layer_factory.hpp:77] Creating layer conv4
I0403 13:30:32.178766 11423 net.cpp:91] Creating Layer conv4
I0403 13:30:32.178783 11423 net.cpp:425] conv4 <- conv3
I0403 13:30:32.178803 11423 net.cpp:399] conv4 -> conv4
I0403 13:30:32.208463 11423 net.cpp:141] Setting up conv4
I0403 13:30:32.208533 11423 net.cpp:148] Top shape: 100 384 13 13 (6489600)
I0403 13:30:32.208590 11423 net.cpp:156] Memory required for data: 757439600
I0403 13:30:32.208611 11423 layer_factory.hpp:77] Creating layer relu4
I0403 13:30:32.208633 11423 net.cpp:91] Creating Layer relu4
I0403 13:30:32.208650 11423 net.cpp:425] relu4 <- conv4
I0403 13:30:32.208668 11423 net.cpp:386] relu4 -> conv4 (in-place)
I0403 13:30:32.208955 11423 net.cpp:141] Setting up relu4
I0403 13:30:32.208983 11423 net.cpp:148] Top shape: 100 384 13 13 (6489600)
I0403 13:30:32.208999 11423 net.cpp:156] Memory required for data: 783398000
I0403 13:30:32.209014 11423 layer_factory.hpp:77] Creating layer conv5
I0403 13:30:32.209039 11423 net.cpp:91] Creating Layer conv5
I0403 13:30:32.209056 11423 net.cpp:425] conv5 <- conv4
I0403 13:30:32.209075 11423 net.cpp:399] conv5 -> conv5
I0403 13:30:32.229681 11423 net.cpp:141] Setting up conv5
I0403 13:30:32.229746 11423 net.cpp:148] Top shape: 100 256 13 13 (4326400)
I0403 13:30:32.229764 11423 net.cpp:156] Memory required for data: 800703600
I0403 13:30:32.229790 11423 layer_factory.hpp:77] Creating layer relu5
I0403 13:30:32.229812 11423 net.cpp:91] Creating Layer relu5
I0403 13:30:32.229830 11423 net.cpp:425] relu5 <- conv5
I0403 13:30:32.229849 11423 net.cpp:386] relu5 -> conv5 (in-place)
I0403 13:30:32.230141 11423 net.cpp:141] Setting up relu5
I0403 13:30:32.230168 11423 net.cpp:148] Top shape: 100 256 13 13 (4326400)
I0403 13:30:32.230183 11423 net.cpp:156] Memory required for data: 818009200
I0403 13:30:32.230208 11423 layer_factory.hpp:77] Creating layer pool5
I0403 13:30:32.230232 11423 net.cpp:91] Creating Layer pool5
I0403 13:30:32.230249 11423 net.cpp:425] pool5 <- conv5
I0403 13:30:32.230267 11423 net.cpp:399] pool5 -> pool5
I0403 13:30:32.230329 11423 net.cpp:141] Setting up pool5
I0403 13:30:32.230352 11423 net.cpp:148] Top shape: 100 256 6 6 (921600)
I0403 13:30:32.230367 11423 net.cpp:156] Memory required for data: 821695600
I0403 13:30:32.230381 11423 layer_factory.hpp:77] Creating layer fc6
I0403 13:30:32.230408 11423 net.cpp:91] Creating Layer fc6
I0403 13:30:32.230425 11423 net.cpp:425] fc6 <- pool5
I0403 13:30:32.230445 11423 net.cpp:399] fc6 -> fc6
I0403 13:30:33.779290 11423 net.cpp:141] Setting up fc6
I0403 13:30:33.779371 11423 net.cpp:148] Top shape: 100 4096 (409600)
I0403 13:30:33.779387 11423 net.cpp:156] Memory required for data: 823334000
I0403 13:30:33.779408 11423 layer_factory.hpp:77] Creating layer relu6
I0403 13:30:33.779429 11423 net.cpp:91] Creating Layer relu6
I0403 13:30:33.779445 11423 net.cpp:425] relu6 <- fc6
I0403 13:30:33.779464 11423 net.cpp:386] relu6 -> fc6 (in-place)
I0403 13:30:33.779690 11423 net.cpp:141] Setting up relu6
I0403 13:30:33.779716 11423 net.cpp:148] Top shape: 100 4096 (409600)
I0403 13:30:33.779731 11423 net.cpp:156] Memory required for data: 824972400
I0403 13:30:33.779744 11423 layer_factory.hpp:77] Creating layer drop6
I0403 13:30:33.779762 11423 net.cpp:91] Creating Layer drop6
I0403 13:30:33.779778 11423 net.cpp:425] drop6 <- fc6
I0403 13:30:33.779795 11423 net.cpp:386] drop6 -> fc6 (in-place)
I0403 13:30:33.779846 11423 net.cpp:141] Setting up drop6
I0403 13:30:33.779870 11423 net.cpp:148] Top shape: 100 4096 (409600)
I0403 13:30:33.779883 11423 net.cpp:156] Memory required for data: 826610800
I0403 13:30:33.779897 11423 layer_factory.hpp:77] Creating layer fc7
I0403 13:30:33.779919 11423 net.cpp:91] Creating Layer fc7
I0403 13:30:33.779935 11423 net.cpp:425] fc7 <- fc6
I0403 13:30:33.779958 11423 net.cpp:399] fc7 -> fc7
I0403 13:30:34.492550 11423 net.cpp:141] Setting up fc7
I0403 13:30:34.492614 11423 net.cpp:148] Top shape: 100 4096 (409600)
I0403 13:30:34.492631 11423 net.cpp:156] Memory required for data: 828249200
I0403 13:30:34.492652 11423 layer_factory.hpp:77] Creating layer relu7
I0403 13:30:34.492674 11423 net.cpp:91] Creating Layer relu7
I0403 13:30:34.492692 11423 net.cpp:425] relu7 <- fc7
I0403 13:30:34.492714 11423 net.cpp:386] relu7 -> fc7 (in-place)
I0403 13:30:34.493147 11423 net.cpp:141] Setting up relu7
I0403 13:30:34.493175 11423 net.cpp:148] Top shape: 100 4096 (409600)
I0403 13:30:34.493229 11423 net.cpp:156] Memory required for data: 829887600
I0403 13:30:34.493245 11423 layer_factory.hpp:77] Creating layer drop7
I0403 13:30:34.493263 11423 net.cpp:91] Creating Layer drop7
I0403 13:30:34.493278 11423 net.cpp:425] drop7 <- fc7
I0403 13:30:34.493297 11423 net.cpp:386] drop7 -> fc7 (in-place)
I0403 13:30:34.493340 11423 net.cpp:141] Setting up drop7
I0403 13:30:34.493366 11423 net.cpp:148] Top shape: 100 4096 (409600)
I0403 13:30:34.493381 11423 net.cpp:156] Memory required for data: 831526000
I0403 13:30:34.493396 11423 layer_factory.hpp:77] Creating layer fc8_plantvillage
I0403 13:30:34.493414 11423 net.cpp:91] Creating Layer fc8_plantvillage
I0403 13:30:34.493429 11423 net.cpp:425] fc8_plantvillage <- fc7
I0403 13:30:34.493449 11423 net.cpp:399] fc8_plantvillage -> fc8_plantvillage
I0403 13:30:34.500227 11423 net.cpp:141] Setting up fc8_plantvillage
I0403 13:30:34.500255 11423 net.cpp:148] Top shape: 100 38 (3800)
I0403 13:30:34.500270 11423 net.cpp:156] Memory required for data: 831541200
I0403 13:30:34.500288 11423 layer_factory.hpp:77] Creating layer fc8_plantvillage_fc8_plantvillage_0_split
I0403 13:30:34.500305 11423 net.cpp:91] Creating Layer fc8_plantvillage_fc8_plantvillage_0_split
I0403 13:30:34.500321 11423 net.cpp:425] fc8_plantvillage_fc8_plantvillage_0_split <- fc8_plantvillage
I0403 13:30:34.500340 11423 net.cpp:399] fc8_plantvillage_fc8_plantvillage_0_split -> fc8_plantvillage_fc8_plantvillage_0_split_0
I0403 13:30:34.500360 11423 net.cpp:399] fc8_plantvillage_fc8_plantvillage_0_split -> fc8_plantvillage_fc8_plantvillage_0_split_1
I0403 13:30:34.500380 11423 net.cpp:399] fc8_plantvillage_fc8_plantvillage_0_split -> fc8_plantvillage_fc8_plantvillage_0_split_2
I0403 13:30:34.500454 11423 net.cpp:141] Setting up fc8_plantvillage_fc8_plantvillage_0_split
I0403 13:30:34.500479 11423 net.cpp:148] Top shape: 100 38 (3800)
I0403 13:30:34.500496 11423 net.cpp:148] Top shape: 100 38 (3800)
I0403 13:30:34.500511 11423 net.cpp:148] Top shape: 100 38 (3800)
I0403 13:30:34.500524 11423 net.cpp:156] Memory required for data: 831586800
I0403 13:30:34.500542 11423 layer_factory.hpp:77] Creating layer prob
I0403 13:30:34.500561 11423 net.cpp:91] Creating Layer prob
I0403 13:30:34.500576 11423 net.cpp:425] prob <- fc8_plantvillage_fc8_plantvillage_0_split_0
I0403 13:30:34.500593 11423 net.cpp:399] prob -> prob
I0403 13:30:34.500824 11423 net.cpp:141] Setting up prob
I0403 13:30:34.500849 11423 net.cpp:148] Top shape: 100 38 (3800)
I0403 13:30:34.500864 11423 net.cpp:156] Memory required for data: 831602000
I0403 13:30:34.500877 11423 layer_factory.hpp:77] Creating layer hdf5out
I0403 13:30:34.500895 11423 net.cpp:91] Creating Layer hdf5out
I0403 13:30:34.500910 11423 net.cpp:425] hdf5out <- prob
I0403 13:30:34.500926 11423 net.cpp:425] hdf5out <- label_data_1_split_0
I0403 13:30:34.503109 11423 net.cpp:141] Setting up hdf5out
…
