…
I0403 13:26:43.825340 11260 net.cpp:313] The NetState phase (1) differed from the phase (0) specified by a rule in layer data
I0403 13:26:43.825659 11260 net.cpp:49] Initializing net from parameters: 
state {
  phase: TEST
}
layer {
  name: "data"
  type: "Data"
  top: "data"
  top: "label"
  include {
    phase: TEST
  }
  transform_param {
    crop_size: 227
    mean_file: "/home/mohanty/data/final_dataset/lmdb/segmented-80-20/mean.binaryproto"
  }
  data_param {
    source: "/home/mohanty/data/final_dataset/lmdb/segmented-80-20/test_db"
    batch_size: 100
    backend: LMDB
  }
}
layer {
  name: "conv1"
  type: "Convolution"
  bottom: "data"
  top: "conv1"
  param {
    lr_mult: 1
    decay_mult: 1
  }
  param {
    lr_mult: 2
    decay_mult: 0
  }
  convolution_param {
    num_output: 96
    kernel_size: 11
    stride: 4
    weight_filler {
      type: "gaussian"
      std: 0.01
    }
    bias_filler {
      type: "constant"
      value: 0
    }
  }
}
layer {
  name: "relu1"
  type: "ReLU"
  bottom: "conv1"
  top: "conv1"
}
layer {
  name: "norm1"
  type: "LRN"
  bottom: "conv1"
  top: "norm1"
  lrn_param {
    local_size: 5
    alpha: 0.0001
    beta: 0.75
  }
}
layer {
  name: "pool1"
  type: "Pooling"
  bottom: "norm1"
  top: "pool1"
  pooling_param {
    pool: MAX
    kernel_size: 3
    stride: 2
  }
}
layer {
  name: "conv2"
  type: "Convolution"
  bottom: "pool1"
  top: "conv2"
  param {
    lr_mult: 1
    decay_mult: 1
  }
  param {
    lr_mult: 2
    decay_mult: 0
  }
  convolution_param {
    num_output: 256
    pad: 2
    kernel_size: 5
    group: 2
    weight_filler {
      type: "gaussian"
      std: 0.01
    }
    bias_filler {
      type: "constant"
      value: 0.1
    }
  }
}
layer {
  name: "relu2"
  type: "ReLU"
  bottom: "conv2"
  top: "conv2"
}
layer {
  name: "norm2"
  type: "LRN"
  bottom: "conv2"
  top: "norm2"
  lrn_param {
    local_size: 5
    alpha: 0.0001
    beta: 0.75
  }
}
layer {
  name: "pool2"
  type: "Pooling"
  bottom: "norm2"
  top: "pool2"
  pooling_param {
    pool: MAX
    kernel_size: 3
    stride: 2
  }
}
layer {
  name: "conv3"
  type: "Convolution"
  bottom: "pool2"
  top: "conv3"
  param {
    lr_mult: 1
    decay_mult: 1
  }
  param {
    lr_mult: 2
    decay_mult: 0
  }
  convolution_param {
    num_output: 384
    pad: 1
    kernel_size: 3
    weight_filler {
      type: "gaussian"
      std: 0.01
    }
    bias_filler {
      type: "constant"
      value: 0
    }
  }
}
layer {
  name: "relu3"
  type: "ReLU"
  bottom: "conv3"
  top: "conv3"
}
layer {
  name: "conv4"
  type: "Convolution"
  bottom: "conv3"
  top: "conv4"
  param {
    lr_mult: 1
    decay_mult: 1
  }
  param {
    lr_mult: 2
    decay_mult: 0
  }
  convolution_param {
    num_output: 384
    pad: 1
    kernel_size: 3
    group: 2
    weight_filler {
      type: "gaussian"
      std: 0.01
    }
    bias_filler {
      type: "constant"
      value: 0.1
    }
  }
}
layer {
  name: "relu4"
  type: "ReLU"
  bottom: "conv4"
  top: "conv4"
}
layer {
  name: "conv5"
  type: "Convolution"
  bottom: "conv4"
  top: "conv5"
  param {
    lr_mult: 1
    decay_mult: 1
  }
  param {
    lr_mult: 2
    decay_mult: 0
  }
  convolution_param {
    num_output: 256
    pad: 1
    kernel_size: 3
    group: 2
    weight_filler {
      type: "gaussian"
      std: 0.01
    }
    bias_filler {
      type: "constant"
      value: 0.1
    }
  }
}
layer {
  name: "relu5"
  type: "ReLU"
  bottom: "conv5"
  top: "conv5"
}
layer {
  name: "pool5"
  type: "Pooling"
  bottom: "conv5"
  top: "pool5"
  pooling_param {
    pool: MAX
    kernel_size: 3
    stride: 2
  }
}
layer {
  name: "fc6"
  type: "InnerProduct"
  bottom: "pool5"
  top: "fc6"
  param {
    lr_mult: 1
    decay_mult: 1
  }
  param {
    lr_mult: 2
    decay_mult: 0
  }
  inner_product_param {
    num_output: 4096
    weight_filler {
      type: "gaussian"
      std: 0.005
    }
    bias_filler {
      type: "constant"
      value: 0.1
    }
  }
}
layer {
  name: "relu6"
  type: "ReLU"
  bottom: "fc6"
  top: "fc6"
}
layer {
  name: "drop6"
  type: "Dropout"
  bottom: "fc6"
  top: "fc6"
  dropout_param {
    dropout_ratio: 0.5
  }
}
layer {
  name: "fc7"
  type: "InnerProduct"
  bottom: "fc6"
  top: "fc7"
  param {
    lr_mult: 1
    decay_mult: 1
  }
  param {
    lr_mult: 2
    decay_mult: 0
  }
  inner_product_param {
    num_output: 4096
    weight_filler {
      type: "gaussian"
      std: 0.005
    }
    bias_filler {
      type: "constant"
      value: 0.1
    }
  }
}
layer {
  name: "relu7"
  type: "ReLU"
  bottom: "fc7"
  top: "fc7"
}
layer {
  name: "drop7"
  type: "Dropout"
  bottom: "fc7"
  top: "fc7"
  dropout_param {
    dropout_ratio: 0.5
  }
}
layer {
  name: "fc8_plantvillage"
  type: "InnerProduct"
  bottom: "fc7"
  top: "fc8_plantvillage"
  param {
    lr_mult: 1
    decay_mult: 1
  }
  param {
    lr_mult: 2
    decay_mult: 0
  }
  inner_product_param {
    num_output: 38
    weight_filler {
      type: "gaussian"
      std: 0.01
    }
    bias_filler {
      type: "constant"
      value: 0
    }
  }
}
layer {
  name: "prob"
  type: "Softmax"
  bottom: "fc8_plantvillage"
  top: "prob"
  include {
    phase: TEST
  }
}
layer {
  name: "hdf5out"
  type: "HDF5Output"
  bottom: "prob"
  bottom: "label"
  include {
    phase: TEST
  }
  hdf5_output_param {
    file_name: "hdf5_dumps/iter_9135.h5"
  }
}
layer {
  name: "loss"
  type: "SoftmaxWithLoss"
  bottom: "fc8_plantvillage"
  bottom: "label"
  top: "loss"
}
layer {
  name: "accuracy"
  type: "Accuracy"
  bottom: "fc8_plantvillage"
  bottom: "label"
  top: "accuracy"
  include {
    phase: TEST
  }
}
I0403 13:26:43.826218 11260 layer_factory.hpp:77] Creating layer data
I0403 13:26:43.826874 11260 net.cpp:91] Creating Layer data
I0403 13:26:43.826905 11260 net.cpp:399] data -> data
I0403 13:26:43.826959 11260 net.cpp:399] data -> label
I0403 13:26:43.826997 11260 data_transformer.cpp:25] Loading mean file from: /home/mohanty/data/final_dataset/lmdb/segmented-80-20/mean.binaryproto
I0403 13:26:43.829898 11263 db_lmdb.cpp:38] Opened lmdb /home/mohanty/data/final_dataset/lmdb/segmented-80-20/test_db
I0403 13:26:43.841182 11260 data_layer.cpp:41] output data size: 100,3,227,227
I0403 13:26:43.960142 11260 net.cpp:141] Setting up data
I0403 13:26:43.960235 11260 net.cpp:148] Top shape: 100 3 227 227 (15458700)
I0403 13:26:43.960258 11260 net.cpp:148] Top shape: 100 (100)
I0403 13:26:43.960273 11260 net.cpp:156] Memory required for data: 61835200
I0403 13:26:43.960300 11260 layer_factory.hpp:77] Creating layer label_data_1_split
I0403 13:26:43.960325 11260 net.cpp:91] Creating Layer label_data_1_split
I0403 13:26:43.960342 11260 net.cpp:425] label_data_1_split <- label
I0403 13:26:43.960374 11260 net.cpp:399] label_data_1_split -> label_data_1_split_0
I0403 13:26:43.960402 11260 net.cpp:399] label_data_1_split -> label_data_1_split_1
I0403 13:26:43.960422 11260 net.cpp:399] label_data_1_split -> label_data_1_split_2
I0403 13:26:43.960484 11260 net.cpp:141] Setting up label_data_1_split
I0403 13:26:43.960507 11260 net.cpp:148] Top shape: 100 (100)
I0403 13:26:43.960523 11260 net.cpp:148] Top shape: 100 (100)
I0403 13:26:43.960543 11260 net.cpp:148] Top shape: 100 (100)
I0403 13:26:43.960558 11260 net.cpp:156] Memory required for data: 61836400
I0403 13:26:43.960573 11260 layer_factory.hpp:77] Creating layer conv1
I0403 13:26:43.960605 11260 net.cpp:91] Creating Layer conv1
I0403 13:26:43.960624 11260 net.cpp:425] conv1 <- data
I0403 13:26:43.960644 11260 net.cpp:399] conv1 -> conv1
I0403 13:26:44.102066 11260 net.cpp:141] Setting up conv1
I0403 13:26:44.102144 11260 net.cpp:148] Top shape: 100 96 55 55 (29040000)
I0403 13:26:44.102161 11260 net.cpp:156] Memory required for data: 177996400
I0403 13:26:44.102191 11260 layer_factory.hpp:77] Creating layer relu1
I0403 13:26:44.102219 11260 net.cpp:91] Creating Layer relu1
I0403 13:26:44.102236 11260 net.cpp:425] relu1 <- conv1
I0403 13:26:44.102258 11260 net.cpp:386] relu1 -> conv1 (in-place)
I0403 13:26:44.102531 11260 net.cpp:141] Setting up relu1
I0403 13:26:44.102565 11260 net.cpp:148] Top shape: 100 96 55 55 (29040000)
I0403 13:26:44.102620 11260 net.cpp:156] Memory required for data: 294156400
I0403 13:26:44.102637 11260 layer_factory.hpp:77] Creating layer norm1
I0403 13:26:44.102666 11260 net.cpp:91] Creating Layer norm1
I0403 13:26:44.102685 11260 net.cpp:425] norm1 <- conv1
I0403 13:26:44.102704 11260 net.cpp:399] norm1 -> norm1
I0403 13:26:44.103067 11260 net.cpp:141] Setting up norm1
I0403 13:26:44.103096 11260 net.cpp:148] Top shape: 100 96 55 55 (29040000)
I0403 13:26:44.103111 11260 net.cpp:156] Memory required for data: 410316400
I0403 13:26:44.103126 11260 layer_factory.hpp:77] Creating layer pool1
I0403 13:26:44.103152 11260 net.cpp:91] Creating Layer pool1
I0403 13:26:44.103168 11260 net.cpp:425] pool1 <- norm1
I0403 13:26:44.103186 11260 net.cpp:399] pool1 -> pool1
I0403 13:26:44.103260 11260 net.cpp:141] Setting up pool1
I0403 13:26:44.103283 11260 net.cpp:148] Top shape: 100 96 27 27 (6998400)
I0403 13:26:44.103298 11260 net.cpp:156] Memory required for data: 438310000
I0403 13:26:44.103313 11260 layer_factory.hpp:77] Creating layer conv2
I0403 13:26:44.103340 11260 net.cpp:91] Creating Layer conv2
I0403 13:26:44.103358 11260 net.cpp:425] conv2 <- pool1
I0403 13:26:44.103379 11260 net.cpp:399] conv2 -> conv2
I0403 13:26:44.118643 11260 net.cpp:141] Setting up conv2
I0403 13:26:44.118695 11260 net.cpp:148] Top shape: 100 256 27 27 (18662400)
I0403 13:26:44.118712 11260 net.cpp:156] Memory required for data: 512959600
I0403 13:26:44.118736 11260 layer_factory.hpp:77] Creating layer relu2
I0403 13:26:44.118759 11260 net.cpp:91] Creating Layer relu2
I0403 13:26:44.118777 11260 net.cpp:425] relu2 <- conv2
I0403 13:26:44.118795 11260 net.cpp:386] relu2 -> conv2 (in-place)
I0403 13:26:44.119081 11260 net.cpp:141] Setting up relu2
I0403 13:26:44.119107 11260 net.cpp:148] Top shape: 100 256 27 27 (18662400)
I0403 13:26:44.119123 11260 net.cpp:156] Memory required for data: 587609200
I0403 13:26:44.119138 11260 layer_factory.hpp:77] Creating layer norm2
I0403 13:26:44.119163 11260 net.cpp:91] Creating Layer norm2
I0403 13:26:44.119180 11260 net.cpp:425] norm2 <- conv2
I0403 13:26:44.119200 11260 net.cpp:399] norm2 -> norm2
I0403 13:26:44.119400 11260 net.cpp:141] Setting up norm2
I0403 13:26:44.119426 11260 net.cpp:148] Top shape: 100 256 27 27 (18662400)
I0403 13:26:44.119441 11260 net.cpp:156] Memory required for data: 662258800
I0403 13:26:44.119456 11260 layer_factory.hpp:77] Creating layer pool2
I0403 13:26:44.119473 11260 net.cpp:91] Creating Layer pool2
I0403 13:26:44.119488 11260 net.cpp:425] pool2 <- norm2
I0403 13:26:44.119510 11260 net.cpp:399] pool2 -> pool2
I0403 13:26:44.119568 11260 net.cpp:141] Setting up pool2
I0403 13:26:44.119616 11260 net.cpp:148] Top shape: 100 256 13 13 (4326400)
I0403 13:26:44.119634 11260 net.cpp:156] Memory required for data: 679564400
I0403 13:26:44.119648 11260 layer_factory.hpp:77] Creating layer conv3
I0403 13:26:44.119675 11260 net.cpp:91] Creating Layer conv3
I0403 13:26:44.119693 11260 net.cpp:425] conv3 <- pool2
I0403 13:26:44.119712 11260 net.cpp:399] conv3 -> conv3
I0403 13:26:44.158246 11260 net.cpp:141] Setting up conv3
I0403 13:26:44.158293 11260 net.cpp:148] Top shape: 100 384 13 13 (6489600)
I0403 13:26:44.158309 11260 net.cpp:156] Memory required for data: 705522800
I0403 13:26:44.158335 11260 layer_factory.hpp:77] Creating layer relu3
I0403 13:26:44.158360 11260 net.cpp:91] Creating Layer relu3
I0403 13:26:44.158380 11260 net.cpp:425] relu3 <- conv3
I0403 13:26:44.158398 11260 net.cpp:386] relu3 -> conv3 (in-place)
I0403 13:26:44.158685 11260 net.cpp:141] Setting up relu3
I0403 13:26:44.158711 11260 net.cpp:148] Top shape: 100 384 13 13 (6489600)
I0403 13:26:44.158726 11260 net.cpp:156] Memory required for data: 731481200
I0403 13:26:44.158741 11260 layer_factory.hpp:77] Creating layer conv4
I0403 13:26:44.158766 11260 net.cpp:91] Creating Layer conv4
I0403 13:26:44.158783 11260 net.cpp:425] conv4 <- conv3
I0403 13:26:44.158804 11260 net.cpp:399] conv4 -> conv4
I0403 13:26:44.188566 11260 net.cpp:141] Setting up conv4
I0403 13:26:44.188638 11260 net.cpp:148] Top shape: 100 384 13 13 (6489600)
I0403 13:26:44.188694 11260 net.cpp:156] Memory required for data: 757439600
I0403 13:26:44.188716 11260 layer_factory.hpp:77] Creating layer relu4
I0403 13:26:44.188740 11260 net.cpp:91] Creating Layer relu4
I0403 13:26:44.188756 11260 net.cpp:425] relu4 <- conv4
I0403 13:26:44.188778 11260 net.cpp:386] relu4 -> conv4 (in-place)
I0403 13:26:44.189065 11260 net.cpp:141] Setting up relu4
I0403 13:26:44.189092 11260 net.cpp:148] Top shape: 100 384 13 13 (6489600)
I0403 13:26:44.189107 11260 net.cpp:156] Memory required for data: 783398000
I0403 13:26:44.189121 11260 layer_factory.hpp:77] Creating layer conv5
I0403 13:26:44.189146 11260 net.cpp:91] Creating Layer conv5
I0403 13:26:44.189164 11260 net.cpp:425] conv5 <- conv4
I0403 13:26:44.189187 11260 net.cpp:399] conv5 -> conv5
I0403 13:26:44.209579 11260 net.cpp:141] Setting up conv5
I0403 13:26:44.209631 11260 net.cpp:148] Top shape: 100 256 13 13 (4326400)
I0403 13:26:44.209647 11260 net.cpp:156] Memory required for data: 800703600
I0403 13:26:44.209672 11260 layer_factory.hpp:77] Creating layer relu5
I0403 13:26:44.209694 11260 net.cpp:91] Creating Layer relu5
I0403 13:26:44.209710 11260 net.cpp:425] relu5 <- conv5
I0403 13:26:44.209730 11260 net.cpp:386] relu5 -> conv5 (in-place)
I0403 13:26:44.210012 11260 net.cpp:141] Setting up relu5
I0403 13:26:44.210038 11260 net.cpp:148] Top shape: 100 256 13 13 (4326400)
I0403 13:26:44.210053 11260 net.cpp:156] Memory required for data: 818009200
I0403 13:26:44.210067 11260 layer_factory.hpp:77] Creating layer pool5
I0403 13:26:44.210090 11260 net.cpp:91] Creating Layer pool5
I0403 13:26:44.210108 11260 net.cpp:425] pool5 <- conv5
I0403 13:26:44.210124 11260 net.cpp:399] pool5 -> pool5
I0403 13:26:44.210187 11260 net.cpp:141] Setting up pool5
I0403 13:26:44.210211 11260 net.cpp:148] Top shape: 100 256 6 6 (921600)
I0403 13:26:44.210224 11260 net.cpp:156] Memory required for data: 821695600
I0403 13:26:44.210238 11260 layer_factory.hpp:77] Creating layer fc6
I0403 13:26:44.210268 11260 net.cpp:91] Creating Layer fc6
I0403 13:26:44.210285 11260 net.cpp:425] fc6 <- pool5
I0403 13:26:44.210304 11260 net.cpp:399] fc6 -> fc6
I0403 13:26:45.788966 11260 net.cpp:141] Setting up fc6
I0403 13:26:45.789046 11260 net.cpp:148] Top shape: 100 4096 (409600)
I0403 13:26:45.789062 11260 net.cpp:156] Memory required for data: 823334000
I0403 13:26:45.789082 11260 layer_factory.hpp:77] Creating layer relu6
I0403 13:26:45.789103 11260 net.cpp:91] Creating Layer relu6
I0403 13:26:45.789120 11260 net.cpp:425] relu6 <- fc6
I0403 13:26:45.789141 11260 net.cpp:386] relu6 -> fc6 (in-place)
I0403 13:26:45.789361 11260 net.cpp:141] Setting up relu6
I0403 13:26:45.789386 11260 net.cpp:148] Top shape: 100 4096 (409600)
I0403 13:26:45.789398 11260 net.cpp:156] Memory required for data: 824972400
I0403 13:26:45.789412 11260 layer_factory.hpp:77] Creating layer drop6
I0403 13:26:45.789430 11260 net.cpp:91] Creating Layer drop6
I0403 13:26:45.789443 11260 net.cpp:425] drop6 <- fc6
I0403 13:26:45.789461 11260 net.cpp:386] drop6 -> fc6 (in-place)
I0403 13:26:45.789512 11260 net.cpp:141] Setting up drop6
I0403 13:26:45.789544 11260 net.cpp:148] Top shape: 100 4096 (409600)
I0403 13:26:45.789561 11260 net.cpp:156] Memory required for data: 826610800
I0403 13:26:45.789574 11260 layer_factory.hpp:77] Creating layer fc7
I0403 13:26:45.789593 11260 net.cpp:91] Creating Layer fc7
I0403 13:26:45.789608 11260 net.cpp:425] fc7 <- fc6
I0403 13:26:45.789631 11260 net.cpp:399] fc7 -> fc7
I0403 13:26:48.194407 11260 net.cpp:141] Setting up fc7
I0403 13:26:48.194488 11260 net.cpp:148] Top shape: 100 4096 (409600)
I0403 13:26:48.194505 11260 net.cpp:156] Memory required for data: 828249200
I0403 13:26:48.194526 11260 layer_factory.hpp:77] Creating layer relu7
I0403 13:26:48.194561 11260 net.cpp:91] Creating Layer relu7
I0403 13:26:48.194593 11260 net.cpp:425] relu7 <- fc7
I0403 13:26:48.194612 11260 net.cpp:386] relu7 -> fc7 (in-place)
I0403 13:26:48.195006 11260 net.cpp:141] Setting up relu7
I0403 13:26:48.195032 11260 net.cpp:148] Top shape: 100 4096 (409600)
I0403 13:26:48.195085 11260 net.cpp:156] Memory required for data: 829887600
I0403 13:26:48.195101 11260 layer_factory.hpp:77] Creating layer drop7
I0403 13:26:48.195119 11260 net.cpp:91] Creating Layer drop7
I0403 13:26:48.195133 11260 net.cpp:425] drop7 <- fc7
I0403 13:26:48.195152 11260 net.cpp:386] drop7 -> fc7 (in-place)
I0403 13:26:48.195195 11260 net.cpp:141] Setting up drop7
I0403 13:26:48.195219 11260 net.cpp:148] Top shape: 100 4096 (409600)
I0403 13:26:48.195235 11260 net.cpp:156] Memory required for data: 831526000
I0403 13:26:48.195248 11260 layer_factory.hpp:77] Creating layer fc8_plantvillage
I0403 13:26:48.195268 11260 net.cpp:91] Creating Layer fc8_plantvillage
I0403 13:26:48.195283 11260 net.cpp:425] fc8_plantvillage <- fc7
I0403 13:26:48.195303 11260 net.cpp:399] fc8_plantvillage -> fc8_plantvillage
I0403 13:26:48.202010 11260 net.cpp:141] Setting up fc8_plantvillage
I0403 13:26:48.202039 11260 net.cpp:148] Top shape: 100 38 (3800)
I0403 13:26:48.202054 11260 net.cpp:156] Memory required for data: 831541200
I0403 13:26:48.202072 11260 layer_factory.hpp:77] Creating layer fc8_plantvillage_fc8_plantvillage_0_split
I0403 13:26:48.202090 11260 net.cpp:91] Creating Layer fc8_plantvillage_fc8_plantvillage_0_split
I0403 13:26:48.202105 11260 net.cpp:425] fc8_plantvillage_fc8_plantvillage_0_split <- fc8_plantvillage
I0403 13:26:48.202124 11260 net.cpp:399] fc8_plantvillage_fc8_plantvillage_0_split -> fc8_plantvillage_fc8_plantvillage_0_split_0
I0403 13:26:48.202145 11260 net.cpp:399] fc8_plantvillage_fc8_plantvillage_0_split -> fc8_plantvillage_fc8_plantvillage_0_split_1
I0403 13:26:48.202165 11260 net.cpp:399] fc8_plantvillage_fc8_plantvillage_0_split -> fc8_plantvillage_fc8_plantvillage_0_split_2
I0403 13:26:48.202241 11260 net.cpp:141] Setting up fc8_plantvillage_fc8_plantvillage_0_split
I0403 13:26:48.202265 11260 net.cpp:148] Top shape: 100 38 (3800)
I0403 13:26:48.202280 11260 net.cpp:148] Top shape: 100 38 (3800)
I0403 13:26:48.202296 11260 net.cpp:148] Top shape: 100 38 (3800)
I0403 13:26:48.202308 11260 net.cpp:156] Memory required for data: 831586800
I0403 13:26:48.202322 11260 layer_factory.hpp:77] Creating layer prob
I0403 13:26:48.202342 11260 net.cpp:91] Creating Layer prob
I0403 13:26:48.202356 11260 net.cpp:425] prob <- fc8_plantvillage_fc8_plantvillage_0_split_0
I0403 13:26:48.202376 11260 net.cpp:399] prob -> prob
I0403 13:26:48.202610 11260 net.cpp:141] Setting up prob
I0403 13:26:48.202636 11260 net.cpp:148] Top shape: 100 38 (3800)
I0403 13:26:48.202651 11260 net.cpp:156] Memory required for data: 831602000
I0403 13:26:48.202664 11260 layer_factory.hpp:77] Creating layer hdf5out
I0403 13:26:48.202683 11260 net.cpp:91] Creating Layer hdf5out
I0403 13:26:48.202702 11260 net.cpp:425] hdf5out <- prob
I0403 13:26:48.202718 11260 net.cpp:425] hdf5out <- label_data_1_split_0
I0403 13:26:48.283311 11260 net.cpp:141] Setting up hdf5out
…
