…
I0403 13:28:50.596741 11350 net.cpp:313] The NetState phase (1) differed from the phase (0) specified by a rule in layer data
I0403 13:28:50.597072 11350 net.cpp:49] Initializing net from parameters: 
state {
  phase: TEST
}
layer {
  name: "data"
  type: "Data"
  top: "data"
  top: "label"
  include {
    phase: TEST
  }
  transform_param {
    crop_size: 227
    mean_file: "/home/mohanty/data/final_dataset/lmdb/segmented-80-20/mean.binaryproto"
  }
  data_param {
    source: "/home/mohanty/data/final_dataset/lmdb/segmented-80-20/test_db"
    batch_size: 100
    backend: LMDB
  }
}
layer {
  name: "conv1"
  type: "Convolution"
  bottom: "data"
  top: "conv1"
  param {
    lr_mult: 1
    decay_mult: 1
  }
  param {
    lr_mult: 2
    decay_mult: 0
  }
  convolution_param {
    num_output: 96
    kernel_size: 11
    stride: 4
    weight_filler {
      type: "gaussian"
      std: 0.01
    }
    bias_filler {
      type: "constant"
      value: 0
    }
  }
}
layer {
  name: "relu1"
  type: "ReLU"
  bottom: "conv1"
  top: "conv1"
}
layer {
  name: "norm1"
  type: "LRN"
  bottom: "conv1"
  top: "norm1"
  lrn_param {
    local_size: 5
    alpha: 0.0001
    beta: 0.75
  }
}
layer {
  name: "pool1"
  type: "Pooling"
  bottom: "norm1"
  top: "pool1"
  pooling_param {
    pool: MAX
    kernel_size: 3
    stride: 2
  }
}
layer {
  name: "conv2"
  type: "Convolution"
  bottom: "pool1"
  top: "conv2"
  param {
    lr_mult: 1
    decay_mult: 1
  }
  param {
    lr_mult: 2
    decay_mult: 0
  }
  convolution_param {
    num_output: 256
    pad: 2
    kernel_size: 5
    group: 2
    weight_filler {
      type: "gaussian"
      std: 0.01
    }
    bias_filler {
      type: "constant"
      value: 0.1
    }
  }
}
layer {
  name: "relu2"
  type: "ReLU"
  bottom: "conv2"
  top: "conv2"
}
layer {
  name: "norm2"
  type: "LRN"
  bottom: "conv2"
  top: "norm2"
  lrn_param {
    local_size: 5
    alpha: 0.0001
    beta: 0.75
  }
}
layer {
  name: "pool2"
  type: "Pooling"
  bottom: "norm2"
  top: "pool2"
  pooling_param {
    pool: MAX
    kernel_size: 3
    stride: 2
  }
}
layer {
  name: "conv3"
  type: "Convolution"
  bottom: "pool2"
  top: "conv3"
  param {
    lr_mult: 1
    decay_mult: 1
  }
  param {
    lr_mult: 2
    decay_mult: 0
  }
  convolution_param {
    num_output: 384
    pad: 1
    kernel_size: 3
    weight_filler {
      type: "gaussian"
      std: 0.01
    }
    bias_filler {
      type: "constant"
      value: 0
    }
  }
}
layer {
  name: "relu3"
  type: "ReLU"
  bottom: "conv3"
  top: "conv3"
}
layer {
  name: "conv4"
  type: "Convolution"
  bottom: "conv3"
  top: "conv4"
  param {
    lr_mult: 1
    decay_mult: 1
  }
  param {
    lr_mult: 2
    decay_mult: 0
  }
  convolution_param {
    num_output: 384
    pad: 1
    kernel_size: 3
    group: 2
    weight_filler {
      type: "gaussian"
      std: 0.01
    }
    bias_filler {
      type: "constant"
      value: 0.1
    }
  }
}
layer {
  name: "relu4"
  type: "ReLU"
  bottom: "conv4"
  top: "conv4"
}
layer {
  name: "conv5"
  type: "Convolution"
  bottom: "conv4"
  top: "conv5"
  param {
    lr_mult: 1
    decay_mult: 1
  }
  param {
    lr_mult: 2
    decay_mult: 0
  }
  convolution_param {
    num_output: 256
    pad: 1
    kernel_size: 3
    group: 2
    weight_filler {
      type: "gaussian"
      std: 0.01
    }
    bias_filler {
      type: "constant"
      value: 0.1
    }
  }
}
layer {
  name: "relu5"
  type: "ReLU"
  bottom: "conv5"
  top: "conv5"
}
layer {
  name: "pool5"
  type: "Pooling"
  bottom: "conv5"
  top: "pool5"
  pooling_param {
    pool: MAX
    kernel_size: 3
    stride: 2
  }
}
layer {
  name: "fc6"
  type: "InnerProduct"
  bottom: "pool5"
  top: "fc6"
  param {
    lr_mult: 1
    decay_mult: 1
  }
  param {
    lr_mult: 2
    decay_mult: 0
  }
  inner_product_param {
    num_output: 4096
    weight_filler {
      type: "gaussian"
      std: 0.005
    }
    bias_filler {
      type: "constant"
      value: 0.1
    }
  }
}
layer {
  name: "relu6"
  type: "ReLU"
  bottom: "fc6"
  top: "fc6"
}
layer {
  name: "drop6"
  type: "Dropout"
  bottom: "fc6"
  top: "fc6"
  dropout_param {
    dropout_ratio: 0.5
  }
}
layer {
  name: "fc7"
  type: "InnerProduct"
  bottom: "fc6"
  top: "fc7"
  param {
    lr_mult: 1
    decay_mult: 1
  }
  param {
    lr_mult: 2
    decay_mult: 0
  }
  inner_product_param {
    num_output: 4096
    weight_filler {
      type: "gaussian"
      std: 0.005
    }
    bias_filler {
      type: "constant"
      value: 0.1
    }
  }
}
layer {
  name: "relu7"
  type: "ReLU"
  bottom: "fc7"
  top: "fc7"
}
layer {
  name: "drop7"
  type: "Dropout"
  bottom: "fc7"
  top: "fc7"
  dropout_param {
    dropout_ratio: 0.5
  }
}
layer {
  name: "fc8_plantvillage"
  type: "InnerProduct"
  bottom: "fc7"
  top: "fc8_plantvillage"
  param {
    lr_mult: 1
    decay_mult: 1
  }
  param {
    lr_mult: 2
    decay_mult: 0
  }
  inner_product_param {
    num_output: 38
    weight_filler {
      type: "gaussian"
      std: 0.01
    }
    bias_filler {
      type: "constant"
      value: 0
    }
  }
}
layer {
  name: "prob"
  type: "Softmax"
  bottom: "fc8_plantvillage"
  top: "prob"
  include {
    phase: TEST
  }
}
layer {
  name: "hdf5out"
  type: "HDF5Output"
  bottom: "prob"
  bottom: "label"
  include {
    phase: TEST
  }
  hdf5_output_param {
    file_name: "hdf5_dumps/iter_11310.h5"
  }
}
layer {
  name: "loss"
  type: "SoftmaxWithLoss"
  bottom: "fc8_plantvillage"
  bottom: "label"
  top: "loss"
}
layer {
  name: "accuracy"
  type: "Accuracy"
  bottom: "fc8_plantvillage"
  bottom: "label"
  top: "accuracy"
  include {
    phase: TEST
  }
}
I0403 13:28:50.597687 11350 layer_factory.hpp:77] Creating layer data
I0403 13:28:50.598325 11350 net.cpp:91] Creating Layer data
I0403 13:28:50.598356 11350 net.cpp:399] data -> data
I0403 13:28:50.598407 11350 net.cpp:399] data -> label
I0403 13:28:50.598443 11350 data_transformer.cpp:25] Loading mean file from: /home/mohanty/data/final_dataset/lmdb/segmented-80-20/mean.binaryproto
I0403 13:28:50.602825 11357 db_lmdb.cpp:38] Opened lmdb /home/mohanty/data/final_dataset/lmdb/segmented-80-20/test_db
I0403 13:28:50.614621 11350 data_layer.cpp:41] output data size: 100,3,227,227
I0403 13:28:50.734383 11350 net.cpp:141] Setting up data
I0403 13:28:50.734454 11350 net.cpp:148] Top shape: 100 3 227 227 (15458700)
I0403 13:28:50.734475 11350 net.cpp:148] Top shape: 100 (100)
I0403 13:28:50.734490 11350 net.cpp:156] Memory required for data: 61835200
I0403 13:28:50.734518 11350 layer_factory.hpp:77] Creating layer label_data_1_split
I0403 13:28:50.734551 11350 net.cpp:91] Creating Layer label_data_1_split
I0403 13:28:50.734571 11350 net.cpp:425] label_data_1_split <- label
I0403 13:28:50.734603 11350 net.cpp:399] label_data_1_split -> label_data_1_split_0
I0403 13:28:50.734629 11350 net.cpp:399] label_data_1_split -> label_data_1_split_1
I0403 13:28:50.734648 11350 net.cpp:399] label_data_1_split -> label_data_1_split_2
I0403 13:28:50.734709 11350 net.cpp:141] Setting up label_data_1_split
I0403 13:28:50.734731 11350 net.cpp:148] Top shape: 100 (100)
I0403 13:28:50.734747 11350 net.cpp:148] Top shape: 100 (100)
I0403 13:28:50.734762 11350 net.cpp:148] Top shape: 100 (100)
I0403 13:28:50.734776 11350 net.cpp:156] Memory required for data: 61836400
I0403 13:28:50.734788 11350 layer_factory.hpp:77] Creating layer conv1
I0403 13:28:50.734818 11350 net.cpp:91] Creating Layer conv1
I0403 13:28:50.734836 11350 net.cpp:425] conv1 <- data
I0403 13:28:50.734854 11350 net.cpp:399] conv1 -> conv1
I0403 13:28:50.872449 11350 net.cpp:141] Setting up conv1
I0403 13:28:50.872526 11350 net.cpp:148] Top shape: 100 96 55 55 (29040000)
I0403 13:28:50.872548 11350 net.cpp:156] Memory required for data: 177996400
I0403 13:28:50.872581 11350 layer_factory.hpp:77] Creating layer relu1
I0403 13:28:50.872618 11350 net.cpp:91] Creating Layer relu1
I0403 13:28:50.872637 11350 net.cpp:425] relu1 <- conv1
I0403 13:28:50.872656 11350 net.cpp:386] relu1 -> conv1 (in-place)
I0403 13:28:50.872917 11350 net.cpp:141] Setting up relu1
I0403 13:28:50.872944 11350 net.cpp:148] Top shape: 100 96 55 55 (29040000)
I0403 13:28:50.872994 11350 net.cpp:156] Memory required for data: 294156400
I0403 13:28:50.873010 11350 layer_factory.hpp:77] Creating layer norm1
I0403 13:28:50.873039 11350 net.cpp:91] Creating Layer norm1
I0403 13:28:50.873056 11350 net.cpp:425] norm1 <- conv1
I0403 13:28:50.873075 11350 net.cpp:399] norm1 -> norm1
I0403 13:28:50.873384 11350 net.cpp:141] Setting up norm1
I0403 13:28:50.873412 11350 net.cpp:148] Top shape: 100 96 55 55 (29040000)
I0403 13:28:50.873428 11350 net.cpp:156] Memory required for data: 410316400
I0403 13:28:50.873443 11350 layer_factory.hpp:77] Creating layer pool1
I0403 13:28:50.873466 11350 net.cpp:91] Creating Layer pool1
I0403 13:28:50.873483 11350 net.cpp:425] pool1 <- norm1
I0403 13:28:50.873502 11350 net.cpp:399] pool1 -> pool1
I0403 13:28:50.873575 11350 net.cpp:141] Setting up pool1
I0403 13:28:50.873600 11350 net.cpp:148] Top shape: 100 96 27 27 (6998400)
I0403 13:28:50.873616 11350 net.cpp:156] Memory required for data: 438310000
I0403 13:28:50.873631 11350 layer_factory.hpp:77] Creating layer conv2
I0403 13:28:50.873657 11350 net.cpp:91] Creating Layer conv2
I0403 13:28:50.873673 11350 net.cpp:425] conv2 <- pool1
I0403 13:28:50.873692 11350 net.cpp:399] conv2 -> conv2
I0403 13:28:50.888665 11350 net.cpp:141] Setting up conv2
I0403 13:28:50.888715 11350 net.cpp:148] Top shape: 100 256 27 27 (18662400)
I0403 13:28:50.888731 11350 net.cpp:156] Memory required for data: 512959600
I0403 13:28:50.888753 11350 layer_factory.hpp:77] Creating layer relu2
I0403 13:28:50.888775 11350 net.cpp:91] Creating Layer relu2
I0403 13:28:50.888792 11350 net.cpp:425] relu2 <- conv2
I0403 13:28:50.888810 11350 net.cpp:386] relu2 -> conv2 (in-place)
I0403 13:28:50.889092 11350 net.cpp:141] Setting up relu2
I0403 13:28:50.889122 11350 net.cpp:148] Top shape: 100 256 27 27 (18662400)
I0403 13:28:50.889138 11350 net.cpp:156] Memory required for data: 587609200
I0403 13:28:50.889153 11350 layer_factory.hpp:77] Creating layer norm2
I0403 13:28:50.889175 11350 net.cpp:91] Creating Layer norm2
I0403 13:28:50.889192 11350 net.cpp:425] norm2 <- conv2
I0403 13:28:50.889211 11350 net.cpp:399] norm2 -> norm2
I0403 13:28:50.889416 11350 net.cpp:141] Setting up norm2
I0403 13:28:50.889442 11350 net.cpp:148] Top shape: 100 256 27 27 (18662400)
I0403 13:28:50.889457 11350 net.cpp:156] Memory required for data: 662258800
I0403 13:28:50.889472 11350 layer_factory.hpp:77] Creating layer pool2
I0403 13:28:50.889492 11350 net.cpp:91] Creating Layer pool2
I0403 13:28:50.889508 11350 net.cpp:425] pool2 <- norm2
I0403 13:28:50.889526 11350 net.cpp:399] pool2 -> pool2
I0403 13:28:50.889585 11350 net.cpp:141] Setting up pool2
I0403 13:28:50.889608 11350 net.cpp:148] Top shape: 100 256 13 13 (4326400)
I0403 13:28:50.889623 11350 net.cpp:156] Memory required for data: 679564400
I0403 13:28:50.889637 11350 layer_factory.hpp:77] Creating layer conv3
I0403 13:28:50.889662 11350 net.cpp:91] Creating Layer conv3
I0403 13:28:50.889678 11350 net.cpp:425] conv3 <- pool2
I0403 13:28:50.889698 11350 net.cpp:399] conv3 -> conv3
I0403 13:28:50.927919 11350 net.cpp:141] Setting up conv3
I0403 13:28:50.927981 11350 net.cpp:148] Top shape: 100 384 13 13 (6489600)
I0403 13:28:50.927997 11350 net.cpp:156] Memory required for data: 705522800
I0403 13:28:50.928022 11350 layer_factory.hpp:77] Creating layer relu3
I0403 13:28:50.928045 11350 net.cpp:91] Creating Layer relu3
I0403 13:28:50.928062 11350 net.cpp:425] relu3 <- conv3
I0403 13:28:50.928081 11350 net.cpp:386] relu3 -> conv3 (in-place)
I0403 13:28:50.928364 11350 net.cpp:141] Setting up relu3
I0403 13:28:50.928395 11350 net.cpp:148] Top shape: 100 384 13 13 (6489600)
I0403 13:28:50.928411 11350 net.cpp:156] Memory required for data: 731481200
I0403 13:28:50.928426 11350 layer_factory.hpp:77] Creating layer conv4
I0403 13:28:50.928452 11350 net.cpp:91] Creating Layer conv4
I0403 13:28:50.928470 11350 net.cpp:425] conv4 <- conv3
I0403 13:28:50.928489 11350 net.cpp:399] conv4 -> conv4
I0403 13:28:50.958264 11350 net.cpp:141] Setting up conv4
I0403 13:28:50.958335 11350 net.cpp:148] Top shape: 100 384 13 13 (6489600)
I0403 13:28:50.958387 11350 net.cpp:156] Memory required for data: 757439600
I0403 13:28:50.958410 11350 layer_factory.hpp:77] Creating layer relu4
I0403 13:28:50.958434 11350 net.cpp:91] Creating Layer relu4
I0403 13:28:50.958452 11350 net.cpp:425] relu4 <- conv4
I0403 13:28:50.958470 11350 net.cpp:386] relu4 -> conv4 (in-place)
I0403 13:28:50.958789 11350 net.cpp:141] Setting up relu4
I0403 13:28:50.958818 11350 net.cpp:148] Top shape: 100 384 13 13 (6489600)
I0403 13:28:50.958837 11350 net.cpp:156] Memory required for data: 783398000
I0403 13:28:50.958866 11350 layer_factory.hpp:77] Creating layer conv5
I0403 13:28:50.958890 11350 net.cpp:91] Creating Layer conv5
I0403 13:28:50.958907 11350 net.cpp:425] conv5 <- conv4
I0403 13:28:50.958927 11350 net.cpp:399] conv5 -> conv5
I0403 13:28:50.979197 11350 net.cpp:141] Setting up conv5
I0403 13:28:50.979245 11350 net.cpp:148] Top shape: 100 256 13 13 (4326400)
I0403 13:28:50.979262 11350 net.cpp:156] Memory required for data: 800703600
I0403 13:28:50.979286 11350 layer_factory.hpp:77] Creating layer relu5
I0403 13:28:50.979310 11350 net.cpp:91] Creating Layer relu5
I0403 13:28:50.979328 11350 net.cpp:425] relu5 <- conv5
I0403 13:28:50.979346 11350 net.cpp:386] relu5 -> conv5 (in-place)
I0403 13:28:50.979635 11350 net.cpp:141] Setting up relu5
I0403 13:28:50.979665 11350 net.cpp:148] Top shape: 100 256 13 13 (4326400)
I0403 13:28:50.979682 11350 net.cpp:156] Memory required for data: 818009200
I0403 13:28:50.979697 11350 layer_factory.hpp:77] Creating layer pool5
I0403 13:28:50.979719 11350 net.cpp:91] Creating Layer pool5
I0403 13:28:50.979735 11350 net.cpp:425] pool5 <- conv5
I0403 13:28:50.979756 11350 net.cpp:399] pool5 -> pool5
I0403 13:28:50.979816 11350 net.cpp:141] Setting up pool5
I0403 13:28:50.979842 11350 net.cpp:148] Top shape: 100 256 6 6 (921600)
I0403 13:28:50.979858 11350 net.cpp:156] Memory required for data: 821695600
I0403 13:28:50.979872 11350 layer_factory.hpp:77] Creating layer fc6
I0403 13:28:50.979898 11350 net.cpp:91] Creating Layer fc6
I0403 13:28:50.979915 11350 net.cpp:425] fc6 <- pool5
I0403 13:28:50.979936 11350 net.cpp:399] fc6 -> fc6
I0403 13:28:52.560343 11350 net.cpp:141] Setting up fc6
I0403 13:28:52.560407 11350 net.cpp:148] Top shape: 100 4096 (409600)
I0403 13:28:52.560425 11350 net.cpp:156] Memory required for data: 823334000
I0403 13:28:52.560444 11350 layer_factory.hpp:77] Creating layer relu6
I0403 13:28:52.560468 11350 net.cpp:91] Creating Layer relu6
I0403 13:28:52.560487 11350 net.cpp:425] relu6 <- fc6
I0403 13:28:52.560505 11350 net.cpp:386] relu6 -> fc6 (in-place)
I0403 13:28:52.560739 11350 net.cpp:141] Setting up relu6
I0403 13:28:52.560766 11350 net.cpp:148] Top shape: 100 4096 (409600)
I0403 13:28:52.560782 11350 net.cpp:156] Memory required for data: 824972400
I0403 13:28:52.560796 11350 layer_factory.hpp:77] Creating layer drop6
I0403 13:28:52.560816 11350 net.cpp:91] Creating Layer drop6
I0403 13:28:52.560829 11350 net.cpp:425] drop6 <- fc6
I0403 13:28:52.560847 11350 net.cpp:386] drop6 -> fc6 (in-place)
I0403 13:28:52.560899 11350 net.cpp:141] Setting up drop6
I0403 13:28:52.560921 11350 net.cpp:148] Top shape: 100 4096 (409600)
I0403 13:28:52.560935 11350 net.cpp:156] Memory required for data: 826610800
I0403 13:28:52.560950 11350 layer_factory.hpp:77] Creating layer fc7
I0403 13:28:52.560973 11350 net.cpp:91] Creating Layer fc7
I0403 13:28:52.560991 11350 net.cpp:425] fc7 <- fc6
I0403 13:28:52.561007 11350 net.cpp:399] fc7 -> fc7
I0403 13:28:53.244194 11350 net.cpp:141] Setting up fc7
I0403 13:28:53.244276 11350 net.cpp:148] Top shape: 100 4096 (409600)
I0403 13:28:53.244292 11350 net.cpp:156] Memory required for data: 828249200
I0403 13:28:53.244321 11350 layer_factory.hpp:77] Creating layer relu7
I0403 13:28:53.244343 11350 net.cpp:91] Creating Layer relu7
I0403 13:28:53.244357 11350 net.cpp:425] relu7 <- fc7
I0403 13:28:53.244376 11350 net.cpp:386] relu7 -> fc7 (in-place)
I0403 13:28:54.611408 11350 net.cpp:141] Setting up relu7
I0403 13:28:54.611496 11350 net.cpp:148] Top shape: 100 4096 (409600)
I0403 13:28:54.611574 11350 net.cpp:156] Memory required for data: 829887600
I0403 13:28:54.611594 11350 layer_factory.hpp:77] Creating layer drop7
I0403 13:28:54.611618 11350 net.cpp:91] Creating Layer drop7
I0403 13:28:54.611636 11350 net.cpp:425] drop7 <- fc7
I0403 13:28:54.611656 11350 net.cpp:386] drop7 -> fc7 (in-place)
I0403 13:28:54.611722 11350 net.cpp:141] Setting up drop7
I0403 13:28:54.611745 11350 net.cpp:148] Top shape: 100 4096 (409600)
I0403 13:28:54.611760 11350 net.cpp:156] Memory required for data: 831526000
I0403 13:28:54.611774 11350 layer_factory.hpp:77] Creating layer fc8_plantvillage
I0403 13:28:54.611798 11350 net.cpp:91] Creating Layer fc8_plantvillage
I0403 13:28:54.611814 11350 net.cpp:425] fc8_plantvillage <- fc7
I0403 13:28:54.611832 11350 net.cpp:399] fc8_plantvillage -> fc8_plantvillage
I0403 13:28:54.618870 11350 net.cpp:141] Setting up fc8_plantvillage
I0403 13:28:54.618899 11350 net.cpp:148] Top shape: 100 38 (3800)
I0403 13:28:54.618914 11350 net.cpp:156] Memory required for data: 831541200
I0403 13:28:54.618932 11350 layer_factory.hpp:77] Creating layer fc8_plantvillage_fc8_plantvillage_0_split
I0403 13:28:54.618954 11350 net.cpp:91] Creating Layer fc8_plantvillage_fc8_plantvillage_0_split
I0403 13:28:54.618970 11350 net.cpp:425] fc8_plantvillage_fc8_plantvillage_0_split <- fc8_plantvillage
I0403 13:28:54.618989 11350 net.cpp:399] fc8_plantvillage_fc8_plantvillage_0_split -> fc8_plantvillage_fc8_plantvillage_0_split_0
I0403 13:28:54.619010 11350 net.cpp:399] fc8_plantvillage_fc8_plantvillage_0_split -> fc8_plantvillage_fc8_plantvillage_0_split_1
I0403 13:28:54.619029 11350 net.cpp:399] fc8_plantvillage_fc8_plantvillage_0_split -> fc8_plantvillage_fc8_plantvillage_0_split_2
I0403 13:28:54.619103 11350 net.cpp:141] Setting up fc8_plantvillage_fc8_plantvillage_0_split
I0403 13:28:54.619127 11350 net.cpp:148] Top shape: 100 38 (3800)
I0403 13:28:54.619143 11350 net.cpp:148] Top shape: 100 38 (3800)
I0403 13:28:54.619158 11350 net.cpp:148] Top shape: 100 38 (3800)
I0403 13:28:54.619171 11350 net.cpp:156] Memory required for data: 831586800
I0403 13:28:54.619185 11350 layer_factory.hpp:77] Creating layer prob
I0403 13:28:54.619205 11350 net.cpp:91] Creating Layer prob
I0403 13:28:54.619221 11350 net.cpp:425] prob <- fc8_plantvillage_fc8_plantvillage_0_split_0
I0403 13:28:54.619238 11350 net.cpp:399] prob -> prob
I0403 13:28:54.619467 11350 net.cpp:141] Setting up prob
I0403 13:28:54.619495 11350 net.cpp:148] Top shape: 100 38 (3800)
I0403 13:28:54.619510 11350 net.cpp:156] Memory required for data: 831602000
I0403 13:28:54.619525 11350 layer_factory.hpp:77] Creating layer hdf5out
I0403 13:28:54.619557 11350 net.cpp:91] Creating Layer hdf5out
I0403 13:28:54.619575 11350 net.cpp:425] hdf5out <- prob
I0403 13:28:54.619590 11350 net.cpp:425] hdf5out <- label_data_1_split_0
I0403 13:28:54.626298 11350 net.cpp:141] Setting up hdf5out
…
