…
I0403 13:30:06.250470 11405 net.cpp:313] The NetState phase (1) differed from the phase (0) specified by a rule in layer data
I0403 13:30:06.250782 11405 net.cpp:49] Initializing net from parameters: 
state {
  phase: TEST
}
layer {
  name: "data"
  type: "Data"
  top: "data"
  top: "label"
  include {
    phase: TEST
  }
  transform_param {
    crop_size: 227
    mean_file: "/home/mohanty/data/final_dataset/lmdb/segmented-80-20/mean.binaryproto"
  }
  data_param {
    source: "/home/mohanty/data/final_dataset/lmdb/segmented-80-20/test_db"
    batch_size: 100
    backend: LMDB
  }
}
layer {
  name: "conv1"
  type: "Convolution"
  bottom: "data"
  top: "conv1"
  param {
    lr_mult: 1
    decay_mult: 1
  }
  param {
    lr_mult: 2
    decay_mult: 0
  }
  convolution_param {
    num_output: 96
    kernel_size: 11
    stride: 4
    weight_filler {
      type: "gaussian"
      std: 0.01
    }
    bias_filler {
      type: "constant"
      value: 0
    }
  }
}
layer {
  name: "relu1"
  type: "ReLU"
  bottom: "conv1"
  top: "conv1"
}
layer {
  name: "norm1"
  type: "LRN"
  bottom: "conv1"
  top: "norm1"
  lrn_param {
    local_size: 5
    alpha: 0.0001
    beta: 0.75
  }
}
layer {
  name: "pool1"
  type: "Pooling"
  bottom: "norm1"
  top: "pool1"
  pooling_param {
    pool: MAX
    kernel_size: 3
    stride: 2
  }
}
layer {
  name: "conv2"
  type: "Convolution"
  bottom: "pool1"
  top: "conv2"
  param {
    lr_mult: 1
    decay_mult: 1
  }
  param {
    lr_mult: 2
    decay_mult: 0
  }
  convolution_param {
    num_output: 256
    pad: 2
    kernel_size: 5
    group: 2
    weight_filler {
      type: "gaussian"
      std: 0.01
    }
    bias_filler {
      type: "constant"
      value: 0.1
    }
  }
}
layer {
  name: "relu2"
  type: "ReLU"
  bottom: "conv2"
  top: "conv2"
}
layer {
  name: "norm2"
  type: "LRN"
  bottom: "conv2"
  top: "norm2"
  lrn_param {
    local_size: 5
    alpha: 0.0001
    beta: 0.75
  }
}
layer {
  name: "pool2"
  type: "Pooling"
  bottom: "norm2"
  top: "pool2"
  pooling_param {
    pool: MAX
    kernel_size: 3
    stride: 2
  }
}
layer {
  name: "conv3"
  type: "Convolution"
  bottom: "pool2"
  top: "conv3"
  param {
    lr_mult: 1
    decay_mult: 1
  }
  param {
    lr_mult: 2
    decay_mult: 0
  }
  convolution_param {
    num_output: 384
    pad: 1
    kernel_size: 3
    weight_filler {
      type: "gaussian"
      std: 0.01
    }
    bias_filler {
      type: "constant"
      value: 0
    }
  }
}
layer {
  name: "relu3"
  type: "ReLU"
  bottom: "conv3"
  top: "conv3"
}
layer {
  name: "conv4"
  type: "Convolution"
  bottom: "conv3"
  top: "conv4"
  param {
    lr_mult: 1
    decay_mult: 1
  }
  param {
    lr_mult: 2
    decay_mult: 0
  }
  convolution_param {
    num_output: 384
    pad: 1
    kernel_size: 3
    group: 2
    weight_filler {
      type: "gaussian"
      std: 0.01
    }
    bias_filler {
      type: "constant"
      value: 0.1
    }
  }
}
layer {
  name: "relu4"
  type: "ReLU"
  bottom: "conv4"
  top: "conv4"
}
layer {
  name: "conv5"
  type: "Convolution"
  bottom: "conv4"
  top: "conv5"
  param {
    lr_mult: 1
    decay_mult: 1
  }
  param {
    lr_mult: 2
    decay_mult: 0
  }
  convolution_param {
    num_output: 256
    pad: 1
    kernel_size: 3
    group: 2
    weight_filler {
      type: "gaussian"
      std: 0.01
    }
    bias_filler {
      type: "constant"
      value: 0.1
    }
  }
}
layer {
  name: "relu5"
  type: "ReLU"
  bottom: "conv5"
  top: "conv5"
}
layer {
  name: "pool5"
  type: "Pooling"
  bottom: "conv5"
  top: "pool5"
  pooling_param {
    pool: MAX
    kernel_size: 3
    stride: 2
  }
}
layer {
  name: "fc6"
  type: "InnerProduct"
  bottom: "pool5"
  top: "fc6"
  param {
    lr_mult: 1
    decay_mult: 1
  }
  param {
    lr_mult: 2
    decay_mult: 0
  }
  inner_product_param {
    num_output: 4096
    weight_filler {
      type: "gaussian"
      std: 0.005
    }
    bias_filler {
      type: "constant"
      value: 0.1
    }
  }
}
layer {
  name: "relu6"
  type: "ReLU"
  bottom: "fc6"
  top: "fc6"
}
layer {
  name: "drop6"
  type: "Dropout"
  bottom: "fc6"
  top: "fc6"
  dropout_param {
    dropout_ratio: 0.5
  }
}
layer {
  name: "fc7"
  type: "InnerProduct"
  bottom: "fc6"
  top: "fc7"
  param {
    lr_mult: 1
    decay_mult: 1
  }
  param {
    lr_mult: 2
    decay_mult: 0
  }
  inner_product_param {
    num_output: 4096
    weight_filler {
      type: "gaussian"
      std: 0.005
    }
    bias_filler {
      type: "constant"
      value: 0.1
    }
  }
}
layer {
  name: "relu7"
  type: "ReLU"
  bottom: "fc7"
  top: "fc7"
}
layer {
  name: "drop7"
  type: "Dropout"
  bottom: "fc7"
  top: "fc7"
  dropout_param {
    dropout_ratio: 0.5
  }
}
layer {
  name: "fc8_plantvillage"
  type: "InnerProduct"
  bottom: "fc7"
  top: "fc8_plantvillage"
  param {
    lr_mult: 1
    decay_mult: 1
  }
  param {
    lr_mult: 2
    decay_mult: 0
  }
  inner_product_param {
    num_output: 38
    weight_filler {
      type: "gaussian"
      std: 0.01
    }
    bias_filler {
      type: "constant"
      value: 0
    }
  }
}
layer {
  name: "prob"
  type: "Softmax"
  bottom: "fc8_plantvillage"
  top: "prob"
  include {
    phase: TEST
  }
}
layer {
  name: "hdf5out"
  type: "HDF5Output"
  bottom: "prob"
  bottom: "label"
  include {
    phase: TEST
  }
  hdf5_output_param {
    file_name: "hdf5_dumps/iter_12615.h5"
  }
}
layer {
  name: "loss"
  type: "SoftmaxWithLoss"
  bottom: "fc8_plantvillage"
  bottom: "label"
  top: "loss"
}
layer {
  name: "accuracy"
  type: "Accuracy"
  bottom: "fc8_plantvillage"
  bottom: "label"
  top: "accuracy"
  include {
    phase: TEST
  }
}
I0403 13:30:06.251406 11405 layer_factory.hpp:77] Creating layer data
I0403 13:30:06.252080 11405 net.cpp:91] Creating Layer data
I0403 13:30:06.252115 11405 net.cpp:399] data -> data
I0403 13:30:06.252166 11405 net.cpp:399] data -> label
I0403 13:30:06.252202 11405 data_transformer.cpp:25] Loading mean file from: /home/mohanty/data/final_dataset/lmdb/segmented-80-20/mean.binaryproto
I0403 13:30:06.255133 11410 db_lmdb.cpp:38] Opened lmdb /home/mohanty/data/final_dataset/lmdb/segmented-80-20/test_db
I0403 13:30:06.266742 11405 data_layer.cpp:41] output data size: 100,3,227,227
I0403 13:30:06.388841 11405 net.cpp:141] Setting up data
I0403 13:30:06.388936 11405 net.cpp:148] Top shape: 100 3 227 227 (15458700)
I0403 13:30:06.388960 11405 net.cpp:148] Top shape: 100 (100)
I0403 13:30:06.388978 11405 net.cpp:156] Memory required for data: 61835200
I0403 13:30:06.389008 11405 layer_factory.hpp:77] Creating layer label_data_1_split
I0403 13:30:06.389035 11405 net.cpp:91] Creating Layer label_data_1_split
I0403 13:30:06.389055 11405 net.cpp:425] label_data_1_split <- label
I0403 13:30:06.389089 11405 net.cpp:399] label_data_1_split -> label_data_1_split_0
I0403 13:30:06.389118 11405 net.cpp:399] label_data_1_split -> label_data_1_split_1
I0403 13:30:06.389142 11405 net.cpp:399] label_data_1_split -> label_data_1_split_2
I0403 13:30:06.389207 11405 net.cpp:141] Setting up label_data_1_split
I0403 13:30:06.389232 11405 net.cpp:148] Top shape: 100 (100)
I0403 13:30:06.389251 11405 net.cpp:148] Top shape: 100 (100)
I0403 13:30:06.389267 11405 net.cpp:148] Top shape: 100 (100)
I0403 13:30:06.389282 11405 net.cpp:156] Memory required for data: 61836400
I0403 13:30:06.389299 11405 layer_factory.hpp:77] Creating layer conv1
I0403 13:30:06.389331 11405 net.cpp:91] Creating Layer conv1
I0403 13:30:06.389350 11405 net.cpp:425] conv1 <- data
I0403 13:30:06.389369 11405 net.cpp:399] conv1 -> conv1
I0403 13:30:06.533294 11405 net.cpp:141] Setting up conv1
I0403 13:30:06.533371 11405 net.cpp:148] Top shape: 100 96 55 55 (29040000)
I0403 13:30:06.533390 11405 net.cpp:156] Memory required for data: 177996400
I0403 13:30:06.533421 11405 layer_factory.hpp:77] Creating layer relu1
I0403 13:30:06.533450 11405 net.cpp:91] Creating Layer relu1
I0403 13:30:06.533468 11405 net.cpp:425] relu1 <- conv1
I0403 13:30:06.533488 11405 net.cpp:386] relu1 -> conv1 (in-place)
I0403 13:30:06.533752 11405 net.cpp:141] Setting up relu1
I0403 13:30:06.533779 11405 net.cpp:148] Top shape: 100 96 55 55 (29040000)
I0403 13:30:06.533829 11405 net.cpp:156] Memory required for data: 294156400
I0403 13:30:06.533846 11405 layer_factory.hpp:77] Creating layer norm1
I0403 13:30:06.533874 11405 net.cpp:91] Creating Layer norm1
I0403 13:30:06.533891 11405 net.cpp:425] norm1 <- conv1
I0403 13:30:06.533910 11405 net.cpp:399] norm1 -> norm1
I0403 13:30:06.534219 11405 net.cpp:141] Setting up norm1
I0403 13:30:06.534245 11405 net.cpp:148] Top shape: 100 96 55 55 (29040000)
I0403 13:30:06.534263 11405 net.cpp:156] Memory required for data: 410316400
I0403 13:30:06.534279 11405 layer_factory.hpp:77] Creating layer pool1
I0403 13:30:06.534302 11405 net.cpp:91] Creating Layer pool1
I0403 13:30:06.534348 11405 net.cpp:425] pool1 <- norm1
I0403 13:30:06.534371 11405 net.cpp:399] pool1 -> pool1
I0403 13:30:06.534440 11405 net.cpp:141] Setting up pool1
I0403 13:30:06.534466 11405 net.cpp:148] Top shape: 100 96 27 27 (6998400)
I0403 13:30:06.534481 11405 net.cpp:156] Memory required for data: 438310000
I0403 13:30:06.534497 11405 layer_factory.hpp:77] Creating layer conv2
I0403 13:30:06.534521 11405 net.cpp:91] Creating Layer conv2
I0403 13:30:06.534550 11405 net.cpp:425] conv2 <- pool1
I0403 13:30:06.534572 11405 net.cpp:399] conv2 -> conv2
I0403 13:30:06.550031 11405 net.cpp:141] Setting up conv2
I0403 13:30:06.550083 11405 net.cpp:148] Top shape: 100 256 27 27 (18662400)
I0403 13:30:06.550102 11405 net.cpp:156] Memory required for data: 512959600
I0403 13:30:06.550127 11405 layer_factory.hpp:77] Creating layer relu2
I0403 13:30:06.550150 11405 net.cpp:91] Creating Layer relu2
I0403 13:30:06.550168 11405 net.cpp:425] relu2 <- conv2
I0403 13:30:06.550186 11405 net.cpp:386] relu2 -> conv2 (in-place)
I0403 13:30:06.550462 11405 net.cpp:141] Setting up relu2
I0403 13:30:06.550489 11405 net.cpp:148] Top shape: 100 256 27 27 (18662400)
I0403 13:30:06.550505 11405 net.cpp:156] Memory required for data: 587609200
I0403 13:30:06.550521 11405 layer_factory.hpp:77] Creating layer norm2
I0403 13:30:06.550547 11405 net.cpp:91] Creating Layer norm2
I0403 13:30:06.550565 11405 net.cpp:425] norm2 <- conv2
I0403 13:30:06.550585 11405 net.cpp:399] norm2 -> norm2
I0403 13:30:06.550775 11405 net.cpp:141] Setting up norm2
I0403 13:30:06.550801 11405 net.cpp:148] Top shape: 100 256 27 27 (18662400)
I0403 13:30:06.550817 11405 net.cpp:156] Memory required for data: 662258800
I0403 13:30:06.550832 11405 layer_factory.hpp:77] Creating layer pool2
I0403 13:30:06.550850 11405 net.cpp:91] Creating Layer pool2
I0403 13:30:06.550879 11405 net.cpp:425] pool2 <- norm2
I0403 13:30:06.550897 11405 net.cpp:399] pool2 -> pool2
I0403 13:30:06.550951 11405 net.cpp:141] Setting up pool2
I0403 13:30:06.550976 11405 net.cpp:148] Top shape: 100 256 13 13 (4326400)
I0403 13:30:06.550992 11405 net.cpp:156] Memory required for data: 679564400
I0403 13:30:06.551007 11405 layer_factory.hpp:77] Creating layer conv3
I0403 13:30:06.551030 11405 net.cpp:91] Creating Layer conv3
I0403 13:30:06.551048 11405 net.cpp:425] conv3 <- pool2
I0403 13:30:06.551067 11405 net.cpp:399] conv3 -> conv3
I0403 13:30:06.590505 11405 net.cpp:141] Setting up conv3
I0403 13:30:06.590584 11405 net.cpp:148] Top shape: 100 384 13 13 (6489600)
I0403 13:30:06.590602 11405 net.cpp:156] Memory required for data: 705522800
I0403 13:30:06.590631 11405 layer_factory.hpp:77] Creating layer relu3
I0403 13:30:06.590654 11405 net.cpp:91] Creating Layer relu3
I0403 13:30:06.590672 11405 net.cpp:425] relu3 <- conv3
I0403 13:30:06.590693 11405 net.cpp:386] relu3 -> conv3 (in-place)
I0403 13:30:06.590970 11405 net.cpp:141] Setting up relu3
I0403 13:30:06.590998 11405 net.cpp:148] Top shape: 100 384 13 13 (6489600)
I0403 13:30:06.591014 11405 net.cpp:156] Memory required for data: 731481200
I0403 13:30:06.591030 11405 layer_factory.hpp:77] Creating layer conv4
I0403 13:30:06.591055 11405 net.cpp:91] Creating Layer conv4
I0403 13:30:06.591073 11405 net.cpp:425] conv4 <- conv3
I0403 13:30:06.591092 11405 net.cpp:399] conv4 -> conv4
I0403 13:30:06.621907 11405 net.cpp:141] Setting up conv4
I0403 13:30:06.621983 11405 net.cpp:148] Top shape: 100 384 13 13 (6489600)
I0403 13:30:06.622032 11405 net.cpp:156] Memory required for data: 757439600
I0403 13:30:06.622056 11405 layer_factory.hpp:77] Creating layer relu4
I0403 13:30:06.622081 11405 net.cpp:91] Creating Layer relu4
I0403 13:30:06.622102 11405 net.cpp:425] relu4 <- conv4
I0403 13:30:06.622122 11405 net.cpp:386] relu4 -> conv4 (in-place)
I0403 13:30:06.622414 11405 net.cpp:141] Setting up relu4
I0403 13:30:06.622442 11405 net.cpp:148] Top shape: 100 384 13 13 (6489600)
I0403 13:30:06.622458 11405 net.cpp:156] Memory required for data: 783398000
I0403 13:30:06.622474 11405 layer_factory.hpp:77] Creating layer conv5
I0403 13:30:06.622503 11405 net.cpp:91] Creating Layer conv5
I0403 13:30:06.622520 11405 net.cpp:425] conv5 <- conv4
I0403 13:30:06.622547 11405 net.cpp:399] conv5 -> conv5
I0403 13:30:06.643786 11405 net.cpp:141] Setting up conv5
I0403 13:30:06.643844 11405 net.cpp:148] Top shape: 100 256 13 13 (4326400)
I0403 13:30:06.643862 11405 net.cpp:156] Memory required for data: 800703600
I0403 13:30:06.643887 11405 layer_factory.hpp:77] Creating layer relu5
I0403 13:30:06.643915 11405 net.cpp:91] Creating Layer relu5
I0403 13:30:06.643934 11405 net.cpp:425] relu5 <- conv5
I0403 13:30:06.643954 11405 net.cpp:386] relu5 -> conv5 (in-place)
I0403 13:30:06.644248 11405 net.cpp:141] Setting up relu5
I0403 13:30:06.644275 11405 net.cpp:148] Top shape: 100 256 13 13 (4326400)
I0403 13:30:06.644291 11405 net.cpp:156] Memory required for data: 818009200
I0403 13:30:06.644307 11405 layer_factory.hpp:77] Creating layer pool5
I0403 13:30:06.644332 11405 net.cpp:91] Creating Layer pool5
I0403 13:30:06.644351 11405 net.cpp:425] pool5 <- conv5
I0403 13:30:06.644372 11405 net.cpp:399] pool5 -> pool5
I0403 13:30:06.644436 11405 net.cpp:141] Setting up pool5
I0403 13:30:06.644460 11405 net.cpp:148] Top shape: 100 256 6 6 (921600)
I0403 13:30:06.644475 11405 net.cpp:156] Memory required for data: 821695600
I0403 13:30:06.644491 11405 layer_factory.hpp:77] Creating layer fc6
I0403 13:30:06.644520 11405 net.cpp:91] Creating Layer fc6
I0403 13:30:06.644551 11405 net.cpp:425] fc6 <- pool5
I0403 13:30:06.644573 11405 net.cpp:399] fc6 -> fc6
I0403 13:30:08.206322 11405 net.cpp:141] Setting up fc6
I0403 13:30:08.206400 11405 net.cpp:148] Top shape: 100 4096 (409600)
I0403 13:30:08.206418 11405 net.cpp:156] Memory required for data: 823334000
I0403 13:30:08.206439 11405 layer_factory.hpp:77] Creating layer relu6
I0403 13:30:08.206461 11405 net.cpp:91] Creating Layer relu6
I0403 13:30:08.206478 11405 net.cpp:425] relu6 <- fc6
I0403 13:30:08.206501 11405 net.cpp:386] relu6 -> fc6 (in-place)
I0403 13:30:08.206724 11405 net.cpp:141] Setting up relu6
I0403 13:30:08.206749 11405 net.cpp:148] Top shape: 100 4096 (409600)
I0403 13:30:08.206764 11405 net.cpp:156] Memory required for data: 824972400
I0403 13:30:08.206779 11405 layer_factory.hpp:77] Creating layer drop6
I0403 13:30:08.206799 11405 net.cpp:91] Creating Layer drop6
I0403 13:30:08.206815 11405 net.cpp:425] drop6 <- fc6
I0403 13:30:08.206832 11405 net.cpp:386] drop6 -> fc6 (in-place)
I0403 13:30:08.206884 11405 net.cpp:141] Setting up drop6
I0403 13:30:08.206907 11405 net.cpp:148] Top shape: 100 4096 (409600)
I0403 13:30:08.206921 11405 net.cpp:156] Memory required for data: 826610800
I0403 13:30:08.206935 11405 layer_factory.hpp:77] Creating layer fc7
I0403 13:30:08.206955 11405 net.cpp:91] Creating Layer fc7
I0403 13:30:08.206971 11405 net.cpp:425] fc7 <- fc6
I0403 13:30:08.206991 11405 net.cpp:399] fc7 -> fc7
I0403 13:30:08.919481 11405 net.cpp:141] Setting up fc7
I0403 13:30:08.919560 11405 net.cpp:148] Top shape: 100 4096 (409600)
I0403 13:30:08.919576 11405 net.cpp:156] Memory required for data: 828249200
I0403 13:30:08.919597 11405 layer_factory.hpp:77] Creating layer relu7
I0403 13:30:08.919620 11405 net.cpp:91] Creating Layer relu7
I0403 13:30:08.919636 11405 net.cpp:425] relu7 <- fc7
I0403 13:30:08.919656 11405 net.cpp:386] relu7 -> fc7 (in-place)
I0403 13:30:10.929124 11405 net.cpp:141] Setting up relu7
I0403 13:30:10.929229 11405 net.cpp:148] Top shape: 100 4096 (409600)
I0403 13:30:10.929303 11405 net.cpp:156] Memory required for data: 829887600
I0403 13:30:10.929325 11405 layer_factory.hpp:77] Creating layer drop7
I0403 13:30:10.929358 11405 net.cpp:91] Creating Layer drop7
I0403 13:30:10.929379 11405 net.cpp:425] drop7 <- fc7
I0403 13:30:10.929406 11405 net.cpp:386] drop7 -> fc7 (in-place)
I0403 13:30:10.929486 11405 net.cpp:141] Setting up drop7
I0403 13:30:10.929514 11405 net.cpp:148] Top shape: 100 4096 (409600)
I0403 13:30:10.929533 11405 net.cpp:156] Memory required for data: 831526000
I0403 13:30:10.929558 11405 layer_factory.hpp:77] Creating layer fc8_plantvillage
I0403 13:30:10.929584 11405 net.cpp:91] Creating Layer fc8_plantvillage
I0403 13:30:10.929602 11405 net.cpp:425] fc8_plantvillage <- fc7
I0403 13:30:10.929627 11405 net.cpp:399] fc8_plantvillage -> fc8_plantvillage
I0403 13:30:10.938230 11405 net.cpp:141] Setting up fc8_plantvillage
I0403 13:30:10.938266 11405 net.cpp:148] Top shape: 100 38 (3800)
I0403 13:30:10.938285 11405 net.cpp:156] Memory required for data: 831541200
I0403 13:30:10.938309 11405 layer_factory.hpp:77] Creating layer fc8_plantvillage_fc8_plantvillage_0_split
I0403 13:30:10.938336 11405 net.cpp:91] Creating Layer fc8_plantvillage_fc8_plantvillage_0_split
I0403 13:30:10.938357 11405 net.cpp:425] fc8_plantvillage_fc8_plantvillage_0_split <- fc8_plantvillage
I0403 13:30:10.938379 11405 net.cpp:399] fc8_plantvillage_fc8_plantvillage_0_split -> fc8_plantvillage_fc8_plantvillage_0_split_0
I0403 13:30:10.938402 11405 net.cpp:399] fc8_plantvillage_fc8_plantvillage_0_split -> fc8_plantvillage_fc8_plantvillage_0_split_1
I0403 13:30:10.938429 11405 net.cpp:399] fc8_plantvillage_fc8_plantvillage_0_split -> fc8_plantvillage_fc8_plantvillage_0_split_2
I0403 13:30:10.938520 11405 net.cpp:141] Setting up fc8_plantvillage_fc8_plantvillage_0_split
I0403 13:30:10.938555 11405 net.cpp:148] Top shape: 100 38 (3800)
I0403 13:30:10.938575 11405 net.cpp:148] Top shape: 100 38 (3800)
I0403 13:30:10.938594 11405 net.cpp:148] Top shape: 100 38 (3800)
I0403 13:30:10.938611 11405 net.cpp:156] Memory required for data: 831586800
I0403 13:30:10.938629 11405 layer_factory.hpp:77] Creating layer prob
I0403 13:30:10.938652 11405 net.cpp:91] Creating Layer prob
I0403 13:30:10.938671 11405 net.cpp:425] prob <- fc8_plantvillage_fc8_plantvillage_0_split_0
I0403 13:30:10.938699 11405 net.cpp:399] prob -> prob
I0403 13:30:10.938979 11405 net.cpp:141] Setting up prob
I0403 13:30:10.939012 11405 net.cpp:148] Top shape: 100 38 (3800)
I0403 13:30:10.939029 11405 net.cpp:156] Memory required for data: 831602000
I0403 13:30:10.939049 11405 layer_factory.hpp:77] Creating layer hdf5out
I0403 13:30:10.939075 11405 net.cpp:91] Creating Layer hdf5out
I0403 13:30:10.939096 11405 net.cpp:425] hdf5out <- prob
I0403 13:30:10.939118 11405 net.cpp:425] hdf5out <- label_data_1_split_0
I0403 13:30:10.941808 11405 net.cpp:141] Setting up hdf5out
…
