…
I0403 13:24:34.181746 11177 net.cpp:313] The NetState phase (1) differed from the phase (0) specified by a rule in layer data
I0403 13:24:34.182039 11177 net.cpp:49] Initializing net from parameters: 
state {
  phase: TEST
}
layer {
  name: "data"
  type: "Data"
  top: "data"
  top: "label"
  include {
    phase: TEST
  }
  transform_param {
    crop_size: 227
    mean_file: "/home/mohanty/data/final_dataset/lmdb/segmented-80-20/mean.binaryproto"
  }
  data_param {
    source: "/home/mohanty/data/final_dataset/lmdb/segmented-80-20/test_db"
    batch_size: 100
    backend: LMDB
  }
}
layer {
  name: "conv1"
  type: "Convolution"
  bottom: "data"
  top: "conv1"
  param {
    lr_mult: 1
    decay_mult: 1
  }
  param {
    lr_mult: 2
    decay_mult: 0
  }
  convolution_param {
    num_output: 96
    kernel_size: 11
    stride: 4
    weight_filler {
      type: "gaussian"
      std: 0.01
    }
    bias_filler {
      type: "constant"
      value: 0
    }
  }
}
layer {
  name: "relu1"
  type: "ReLU"
  bottom: "conv1"
  top: "conv1"
}
layer {
  name: "norm1"
  type: "LRN"
  bottom: "conv1"
  top: "norm1"
  lrn_param {
    local_size: 5
    alpha: 0.0001
    beta: 0.75
  }
}
layer {
  name: "pool1"
  type: "Pooling"
  bottom: "norm1"
  top: "pool1"
  pooling_param {
    pool: MAX
    kernel_size: 3
    stride: 2
  }
}
layer {
  name: "conv2"
  type: "Convolution"
  bottom: "pool1"
  top: "conv2"
  param {
    lr_mult: 1
    decay_mult: 1
  }
  param {
    lr_mult: 2
    decay_mult: 0
  }
  convolution_param {
    num_output: 256
    pad: 2
    kernel_size: 5
    group: 2
    weight_filler {
      type: "gaussian"
      std: 0.01
    }
    bias_filler {
      type: "constant"
      value: 0.1
    }
  }
}
layer {
  name: "relu2"
  type: "ReLU"
  bottom: "conv2"
  top: "conv2"
}
layer {
  name: "norm2"
  type: "LRN"
  bottom: "conv2"
  top: "norm2"
  lrn_param {
    local_size: 5
    alpha: 0.0001
    beta: 0.75
  }
}
layer {
  name: "pool2"
  type: "Pooling"
  bottom: "norm2"
  top: "pool2"
  pooling_param {
    pool: MAX
    kernel_size: 3
    stride: 2
  }
}
layer {
  name: "conv3"
  type: "Convolution"
  bottom: "pool2"
  top: "conv3"
  param {
    lr_mult: 1
    decay_mult: 1
  }
  param {
    lr_mult: 2
    decay_mult: 0
  }
  convolution_param {
    num_output: 384
    pad: 1
    kernel_size: 3
    weight_filler {
      type: "gaussian"
      std: 0.01
    }
    bias_filler {
      type: "constant"
      value: 0
    }
  }
}
layer {
  name: "relu3"
  type: "ReLU"
  bottom: "conv3"
  top: "conv3"
}
layer {
  name: "conv4"
  type: "Convolution"
  bottom: "conv3"
  top: "conv4"
  param {
    lr_mult: 1
    decay_mult: 1
  }
  param {
    lr_mult: 2
    decay_mult: 0
  }
  convolution_param {
    num_output: 384
    pad: 1
    kernel_size: 3
    group: 2
    weight_filler {
      type: "gaussian"
      std: 0.01
    }
    bias_filler {
      type: "constant"
      value: 0.1
    }
  }
}
layer {
  name: "relu4"
  type: "ReLU"
  bottom: "conv4"
  top: "conv4"
}
layer {
  name: "conv5"
  type: "Convolution"
  bottom: "conv4"
  top: "conv5"
  param {
    lr_mult: 1
    decay_mult: 1
  }
  param {
    lr_mult: 2
    decay_mult: 0
  }
  convolution_param {
    num_output: 256
    pad: 1
    kernel_size: 3
    group: 2
    weight_filler {
      type: "gaussian"
      std: 0.01
    }
    bias_filler {
      type: "constant"
      value: 0.1
    }
  }
}
layer {
  name: "relu5"
  type: "ReLU"
  bottom: "conv5"
  top: "conv5"
}
layer {
  name: "pool5"
  type: "Pooling"
  bottom: "conv5"
  top: "pool5"
  pooling_param {
    pool: MAX
    kernel_size: 3
    stride: 2
  }
}
layer {
  name: "fc6"
  type: "InnerProduct"
  bottom: "pool5"
  top: "fc6"
  param {
    lr_mult: 1
    decay_mult: 1
  }
  param {
    lr_mult: 2
    decay_mult: 0
  }
  inner_product_param {
    num_output: 4096
    weight_filler {
      type: "gaussian"
      std: 0.005
    }
    bias_filler {
      type: "constant"
      value: 0.1
    }
  }
}
layer {
  name: "relu6"
  type: "ReLU"
  bottom: "fc6"
  top: "fc6"
}
layer {
  name: "drop6"
  type: "Dropout"
  bottom: "fc6"
  top: "fc6"
  dropout_param {
    dropout_ratio: 0.5
  }
}
layer {
  name: "fc7"
  type: "InnerProduct"
  bottom: "fc6"
  top: "fc7"
  param {
    lr_mult: 1
    decay_mult: 1
  }
  param {
    lr_mult: 2
    decay_mult: 0
  }
  inner_product_param {
    num_output: 4096
    weight_filler {
      type: "gaussian"
      std: 0.005
    }
    bias_filler {
      type: "constant"
      value: 0.1
    }
  }
}
layer {
  name: "relu7"
  type: "ReLU"
  bottom: "fc7"
  top: "fc7"
}
layer {
  name: "drop7"
  type: "Dropout"
  bottom: "fc7"
  top: "fc7"
  dropout_param {
    dropout_ratio: 0.5
  }
}
layer {
  name: "fc8_plantvillage"
  type: "InnerProduct"
  bottom: "fc7"
  top: "fc8_plantvillage"
  param {
    lr_mult: 1
    decay_mult: 1
  }
  param {
    lr_mult: 2
    decay_mult: 0
  }
  inner_product_param {
    num_output: 38
    weight_filler {
      type: "gaussian"
      std: 0.01
    }
    bias_filler {
      type: "constant"
      value: 0
    }
  }
}
layer {
  name: "prob"
  type: "Softmax"
  bottom: "fc8_plantvillage"
  top: "prob"
  include {
    phase: TEST
  }
}
layer {
  name: "hdf5out"
  type: "HDF5Output"
  bottom: "prob"
  bottom: "label"
  include {
    phase: TEST
  }
  hdf5_output_param {
    file_name: "hdf5_dumps/iter_6960.h5"
  }
}
layer {
  name: "loss"
  type: "SoftmaxWithLoss"
  bottom: "fc8_plantvillage"
  bottom: "label"
  top: "loss"
}
layer {
  name: "accuracy"
  type: "Accuracy"
  bottom: "fc8_plantvillage"
  bottom: "label"
  top: "accuracy"
  include {
    phase: TEST
  }
}
I0403 13:24:34.182600 11177 layer_factory.hpp:77] Creating layer data
I0403 13:24:34.183230 11177 net.cpp:91] Creating Layer data
I0403 13:24:34.183262 11177 net.cpp:399] data -> data
I0403 13:24:34.183311 11177 net.cpp:399] data -> label
I0403 13:24:34.183347 11177 data_transformer.cpp:25] Loading mean file from: /home/mohanty/data/final_dataset/lmdb/segmented-80-20/mean.binaryproto
I0403 13:24:34.186358 11180 db_lmdb.cpp:38] Opened lmdb /home/mohanty/data/final_dataset/lmdb/segmented-80-20/test_db
I0403 13:24:34.197602 11177 data_layer.cpp:41] output data size: 100,3,227,227
I0403 13:24:34.408915 11177 net.cpp:141] Setting up data
I0403 13:24:34.408999 11177 net.cpp:148] Top shape: 100 3 227 227 (15458700)
I0403 13:24:34.409023 11177 net.cpp:148] Top shape: 100 (100)
I0403 13:24:34.409039 11177 net.cpp:156] Memory required for data: 61835200
I0403 13:24:34.409066 11177 layer_factory.hpp:77] Creating layer label_data_1_split
I0403 13:24:34.409092 11177 net.cpp:91] Creating Layer label_data_1_split
I0403 13:24:34.409111 11177 net.cpp:425] label_data_1_split <- label
I0403 13:24:34.409142 11177 net.cpp:399] label_data_1_split -> label_data_1_split_0
I0403 13:24:34.409169 11177 net.cpp:399] label_data_1_split -> label_data_1_split_1
I0403 13:24:34.409188 11177 net.cpp:399] label_data_1_split -> label_data_1_split_2
I0403 13:24:34.409255 11177 net.cpp:141] Setting up label_data_1_split
I0403 13:24:34.409278 11177 net.cpp:148] Top shape: 100 (100)
I0403 13:24:34.409294 11177 net.cpp:148] Top shape: 100 (100)
I0403 13:24:34.409309 11177 net.cpp:148] Top shape: 100 (100)
I0403 13:24:34.409323 11177 net.cpp:156] Memory required for data: 61836400
I0403 13:24:34.409337 11177 layer_factory.hpp:77] Creating layer conv1
I0403 13:24:34.409366 11177 net.cpp:91] Creating Layer conv1
I0403 13:24:34.409384 11177 net.cpp:425] conv1 <- data
I0403 13:24:34.409402 11177 net.cpp:399] conv1 -> conv1
I0403 13:24:34.549688 11177 net.cpp:141] Setting up conv1
I0403 13:24:34.549765 11177 net.cpp:148] Top shape: 100 96 55 55 (29040000)
I0403 13:24:34.549783 11177 net.cpp:156] Memory required for data: 177996400
I0403 13:24:34.549814 11177 layer_factory.hpp:77] Creating layer relu1
I0403 13:24:34.549841 11177 net.cpp:91] Creating Layer relu1
I0403 13:24:34.549860 11177 net.cpp:425] relu1 <- conv1
I0403 13:24:34.549880 11177 net.cpp:386] relu1 -> conv1 (in-place)
I0403 13:24:34.550154 11177 net.cpp:141] Setting up relu1
I0403 13:24:34.550184 11177 net.cpp:148] Top shape: 100 96 55 55 (29040000)
I0403 13:24:34.550230 11177 net.cpp:156] Memory required for data: 294156400
I0403 13:24:34.550246 11177 layer_factory.hpp:77] Creating layer norm1
I0403 13:24:34.550274 11177 net.cpp:91] Creating Layer norm1
I0403 13:24:34.550293 11177 net.cpp:425] norm1 <- conv1
I0403 13:24:34.550313 11177 net.cpp:399] norm1 -> norm1
I0403 13:24:34.550701 11177 net.cpp:141] Setting up norm1
I0403 13:24:34.550729 11177 net.cpp:148] Top shape: 100 96 55 55 (29040000)
I0403 13:24:34.550745 11177 net.cpp:156] Memory required for data: 410316400
I0403 13:24:34.550760 11177 layer_factory.hpp:77] Creating layer pool1
I0403 13:24:34.550781 11177 net.cpp:91] Creating Layer pool1
I0403 13:24:34.550798 11177 net.cpp:425] pool1 <- norm1
I0403 13:24:34.550820 11177 net.cpp:399] pool1 -> pool1
I0403 13:24:34.550891 11177 net.cpp:141] Setting up pool1
I0403 13:24:34.550925 11177 net.cpp:148] Top shape: 100 96 27 27 (6998400)
I0403 13:24:34.550938 11177 net.cpp:156] Memory required for data: 438310000
I0403 13:24:34.550953 11177 layer_factory.hpp:77] Creating layer conv2
I0403 13:24:34.550981 11177 net.cpp:91] Creating Layer conv2
I0403 13:24:34.550999 11177 net.cpp:425] conv2 <- pool1
I0403 13:24:34.551020 11177 net.cpp:399] conv2 -> conv2
I0403 13:24:34.566300 11177 net.cpp:141] Setting up conv2
I0403 13:24:34.566335 11177 net.cpp:148] Top shape: 100 256 27 27 (18662400)
I0403 13:24:34.566354 11177 net.cpp:156] Memory required for data: 512959600
I0403 13:24:34.566375 11177 layer_factory.hpp:77] Creating layer relu2
I0403 13:24:34.566396 11177 net.cpp:91] Creating Layer relu2
I0403 13:24:34.566414 11177 net.cpp:425] relu2 <- conv2
I0403 13:24:34.566431 11177 net.cpp:386] relu2 -> conv2 (in-place)
I0403 13:24:34.566716 11177 net.cpp:141] Setting up relu2
I0403 13:24:34.566743 11177 net.cpp:148] Top shape: 100 256 27 27 (18662400)
I0403 13:24:34.566759 11177 net.cpp:156] Memory required for data: 587609200
I0403 13:24:34.566773 11177 layer_factory.hpp:77] Creating layer norm2
I0403 13:24:34.566797 11177 net.cpp:91] Creating Layer norm2
I0403 13:24:34.566813 11177 net.cpp:425] norm2 <- conv2
I0403 13:24:34.566833 11177 net.cpp:399] norm2 -> norm2
I0403 13:24:34.567036 11177 net.cpp:141] Setting up norm2
I0403 13:24:34.567062 11177 net.cpp:148] Top shape: 100 256 27 27 (18662400)
I0403 13:24:34.567077 11177 net.cpp:156] Memory required for data: 662258800
I0403 13:24:34.567092 11177 layer_factory.hpp:77] Creating layer pool2
I0403 13:24:34.567109 11177 net.cpp:91] Creating Layer pool2
I0403 13:24:34.567126 11177 net.cpp:425] pool2 <- norm2
I0403 13:24:34.567144 11177 net.cpp:399] pool2 -> pool2
I0403 13:24:34.567198 11177 net.cpp:141] Setting up pool2
I0403 13:24:34.567221 11177 net.cpp:148] Top shape: 100 256 13 13 (4326400)
I0403 13:24:34.567236 11177 net.cpp:156] Memory required for data: 679564400
I0403 13:24:34.567251 11177 layer_factory.hpp:77] Creating layer conv3
I0403 13:24:34.567320 11177 net.cpp:91] Creating Layer conv3
I0403 13:24:34.567342 11177 net.cpp:425] conv3 <- pool2
I0403 13:24:34.567363 11177 net.cpp:399] conv3 -> conv3
I0403 13:24:34.606437 11177 net.cpp:141] Setting up conv3
I0403 13:24:34.606485 11177 net.cpp:148] Top shape: 100 384 13 13 (6489600)
I0403 13:24:34.606503 11177 net.cpp:156] Memory required for data: 705522800
I0403 13:24:34.606525 11177 layer_factory.hpp:77] Creating layer relu3
I0403 13:24:34.606551 11177 net.cpp:91] Creating Layer relu3
I0403 13:24:34.606569 11177 net.cpp:425] relu3 <- conv3
I0403 13:24:34.606588 11177 net.cpp:386] relu3 -> conv3 (in-place)
I0403 13:24:34.606907 11177 net.cpp:141] Setting up relu3
I0403 13:24:34.606935 11177 net.cpp:148] Top shape: 100 384 13 13 (6489600)
I0403 13:24:34.606950 11177 net.cpp:156] Memory required for data: 731481200
I0403 13:24:34.606966 11177 layer_factory.hpp:77] Creating layer conv4
I0403 13:24:34.606991 11177 net.cpp:91] Creating Layer conv4
I0403 13:24:34.607008 11177 net.cpp:425] conv4 <- conv3
I0403 13:24:34.607029 11177 net.cpp:399] conv4 -> conv4
I0403 13:24:34.637608 11177 net.cpp:141] Setting up conv4
I0403 13:24:34.637655 11177 net.cpp:148] Top shape: 100 384 13 13 (6489600)
I0403 13:24:34.637706 11177 net.cpp:156] Memory required for data: 757439600
I0403 13:24:34.637727 11177 layer_factory.hpp:77] Creating layer relu4
I0403 13:24:34.637747 11177 net.cpp:91] Creating Layer relu4
I0403 13:24:34.637763 11177 net.cpp:425] relu4 <- conv4
I0403 13:24:34.637784 11177 net.cpp:386] relu4 -> conv4 (in-place)
I0403 13:24:34.638078 11177 net.cpp:141] Setting up relu4
I0403 13:24:34.638105 11177 net.cpp:148] Top shape: 100 384 13 13 (6489600)
I0403 13:24:34.638120 11177 net.cpp:156] Memory required for data: 783398000
I0403 13:24:34.638136 11177 layer_factory.hpp:77] Creating layer conv5
I0403 13:24:34.638177 11177 net.cpp:91] Creating Layer conv5
I0403 13:24:34.638234 11177 net.cpp:425] conv5 <- conv4
I0403 13:24:34.638258 11177 net.cpp:399] conv5 -> conv5
I0403 13:24:36.713275 11177 net.cpp:141] Setting up conv5
I0403 13:24:36.713351 11177 net.cpp:148] Top shape: 100 256 13 13 (4326400)
I0403 13:24:36.713367 11177 net.cpp:156] Memory required for data: 800703600
I0403 13:24:36.713395 11177 layer_factory.hpp:77] Creating layer relu5
I0403 13:24:36.713420 11177 net.cpp:91] Creating Layer relu5
I0403 13:24:36.713438 11177 net.cpp:425] relu5 <- conv5
I0403 13:24:36.713457 11177 net.cpp:386] relu5 -> conv5 (in-place)
I0403 13:24:36.713958 11177 net.cpp:141] Setting up relu5
I0403 13:24:36.713984 11177 net.cpp:148] Top shape: 100 256 13 13 (4326400)
I0403 13:24:36.714000 11177 net.cpp:156] Memory required for data: 818009200
I0403 13:24:36.714015 11177 layer_factory.hpp:77] Creating layer pool5
I0403 13:24:36.714038 11177 net.cpp:91] Creating Layer pool5
I0403 13:24:36.714056 11177 net.cpp:425] pool5 <- conv5
I0403 13:24:36.714074 11177 net.cpp:399] pool5 -> pool5
I0403 13:24:36.719964 11177 net.cpp:141] Setting up pool5
I0403 13:24:36.720001 11177 net.cpp:148] Top shape: 100 256 6 6 (921600)
I0403 13:24:36.720017 11177 net.cpp:156] Memory required for data: 821695600
I0403 13:24:36.720033 11177 layer_factory.hpp:77] Creating layer fc6
I0403 13:24:36.720062 11177 net.cpp:91] Creating Layer fc6
I0403 13:24:36.720078 11177 net.cpp:425] fc6 <- pool5
I0403 13:24:36.720099 11177 net.cpp:399] fc6 -> fc6
I0403 13:24:38.309759 11177 net.cpp:141] Setting up fc6
I0403 13:24:38.309842 11177 net.cpp:148] Top shape: 100 4096 (409600)
I0403 13:24:38.309859 11177 net.cpp:156] Memory required for data: 823334000
I0403 13:24:38.309880 11177 layer_factory.hpp:77] Creating layer relu6
I0403 13:24:38.309901 11177 net.cpp:91] Creating Layer relu6
I0403 13:24:38.309918 11177 net.cpp:425] relu6 <- fc6
I0403 13:24:38.309937 11177 net.cpp:386] relu6 -> fc6 (in-place)
I0403 13:24:38.310169 11177 net.cpp:141] Setting up relu6
I0403 13:24:38.310194 11177 net.cpp:148] Top shape: 100 4096 (409600)
I0403 13:24:38.310207 11177 net.cpp:156] Memory required for data: 824972400
I0403 13:24:38.310221 11177 layer_factory.hpp:77] Creating layer drop6
I0403 13:24:38.310240 11177 net.cpp:91] Creating Layer drop6
I0403 13:24:38.310253 11177 net.cpp:425] drop6 <- fc6
I0403 13:24:38.310271 11177 net.cpp:386] drop6 -> fc6 (in-place)
I0403 13:24:38.310322 11177 net.cpp:141] Setting up drop6
I0403 13:24:38.310348 11177 net.cpp:148] Top shape: 100 4096 (409600)
I0403 13:24:38.310361 11177 net.cpp:156] Memory required for data: 826610800
I0403 13:24:38.310376 11177 layer_factory.hpp:77] Creating layer fc7
I0403 13:24:38.310395 11177 net.cpp:91] Creating Layer fc7
I0403 13:24:38.310410 11177 net.cpp:425] fc7 <- fc6
I0403 13:24:38.310430 11177 net.cpp:399] fc7 -> fc7
I0403 13:24:38.980330 11177 net.cpp:141] Setting up fc7
I0403 13:24:38.980411 11177 net.cpp:148] Top shape: 100 4096 (409600)
I0403 13:24:38.980427 11177 net.cpp:156] Memory required for data: 828249200
I0403 13:24:38.980448 11177 layer_factory.hpp:77] Creating layer relu7
I0403 13:24:38.980468 11177 net.cpp:91] Creating Layer relu7
I0403 13:24:38.980485 11177 net.cpp:425] relu7 <- fc7
I0403 13:24:38.980510 11177 net.cpp:386] relu7 -> fc7 (in-place)
I0403 13:24:38.980878 11177 net.cpp:141] Setting up relu7
I0403 13:24:38.980904 11177 net.cpp:148] Top shape: 100 4096 (409600)
I0403 13:24:38.980958 11177 net.cpp:156] Memory required for data: 829887600
I0403 13:24:38.980973 11177 layer_factory.hpp:77] Creating layer drop7
I0403 13:24:38.980991 11177 net.cpp:91] Creating Layer drop7
I0403 13:24:38.981006 11177 net.cpp:425] drop7 <- fc7
I0403 13:24:38.981025 11177 net.cpp:386] drop7 -> fc7 (in-place)
I0403 13:24:38.981066 11177 net.cpp:141] Setting up drop7
I0403 13:24:38.981091 11177 net.cpp:148] Top shape: 100 4096 (409600)
I0403 13:24:38.981106 11177 net.cpp:156] Memory required for data: 831526000
I0403 13:24:38.981118 11177 layer_factory.hpp:77] Creating layer fc8_plantvillage
I0403 13:24:38.981137 11177 net.cpp:91] Creating Layer fc8_plantvillage
I0403 13:24:38.981153 11177 net.cpp:425] fc8_plantvillage <- fc7
I0403 13:24:38.981173 11177 net.cpp:399] fc8_plantvillage -> fc8_plantvillage
I0403 13:24:38.987764 11177 net.cpp:141] Setting up fc8_plantvillage
I0403 13:24:38.987792 11177 net.cpp:148] Top shape: 100 38 (3800)
I0403 13:24:38.987807 11177 net.cpp:156] Memory required for data: 831541200
I0403 13:24:38.987823 11177 layer_factory.hpp:77] Creating layer fc8_plantvillage_fc8_plantvillage_0_split
I0403 13:24:38.987843 11177 net.cpp:91] Creating Layer fc8_plantvillage_fc8_plantvillage_0_split
I0403 13:24:38.987859 11177 net.cpp:425] fc8_plantvillage_fc8_plantvillage_0_split <- fc8_plantvillage
I0403 13:24:38.987874 11177 net.cpp:399] fc8_plantvillage_fc8_plantvillage_0_split -> fc8_plantvillage_fc8_plantvillage_0_split_0
I0403 13:24:38.987892 11177 net.cpp:399] fc8_plantvillage_fc8_plantvillage_0_split -> fc8_plantvillage_fc8_plantvillage_0_split_1
I0403 13:24:38.987911 11177 net.cpp:399] fc8_plantvillage_fc8_plantvillage_0_split -> fc8_plantvillage_fc8_plantvillage_0_split_2
I0403 13:24:38.987987 11177 net.cpp:141] Setting up fc8_plantvillage_fc8_plantvillage_0_split
I0403 13:24:38.988008 11177 net.cpp:148] Top shape: 100 38 (3800)
I0403 13:24:38.988024 11177 net.cpp:148] Top shape: 100 38 (3800)
I0403 13:24:38.988039 11177 net.cpp:148] Top shape: 100 38 (3800)
I0403 13:24:38.988054 11177 net.cpp:156] Memory required for data: 831586800
I0403 13:24:38.988066 11177 layer_factory.hpp:77] Creating layer prob
I0403 13:24:38.988083 11177 net.cpp:91] Creating Layer prob
I0403 13:24:38.988098 11177 net.cpp:425] prob <- fc8_plantvillage_fc8_plantvillage_0_split_0
I0403 13:24:38.988116 11177 net.cpp:399] prob -> prob
I0403 13:24:38.988333 11177 net.cpp:141] Setting up prob
I0403 13:24:38.988358 11177 net.cpp:148] Top shape: 100 38 (3800)
I0403 13:24:38.988373 11177 net.cpp:156] Memory required for data: 831602000
I0403 13:24:38.988386 11177 layer_factory.hpp:77] Creating layer hdf5out
I0403 13:24:38.988404 11177 net.cpp:91] Creating Layer hdf5out
I0403 13:24:38.988418 11177 net.cpp:425] hdf5out <- prob
I0403 13:24:38.988435 11177 net.cpp:425] hdf5out <- label_data_1_split_0
I0403 13:24:38.990808 11177 net.cpp:141] Setting up hdf5out
…
